…
I0428 13:17:01.628377 11373 net.cpp:294] The NetState phase (0) differed from the phase (1) specified by a rule in layer accuracy
I0428 13:17:01.628571 11373 net.cpp:51] Initializing net from parameters:
state {
phase: TRAIN
level: 0
stage: ""
}
layer {
name: "train-data"
type: "Data"
top: "data"
top: "label"
include {
phase: TRAIN
}
transform_param {
mirror: true
crop_size: 227
mean_file: "/mnt/bigdisk/DIGITS-MAN-3/digits/jobs/20210421-230320-902c/mean.binaryproto"
}
data_param {
source: "/mnt/bigdisk/DIGITS-MAN-3/digits/jobs/20210421-230320-902c/train_db"
batch_size: 128
backend: LMDB
}
}
layer {
name: "conv1"
type: "Convolution"
bottom: "data"
top: "conv1"
param {
lr_mult: 1
decay_mult: 1
}
param {
lr_mult: 2
decay_mult: 0
}
convolution_param {
num_output: 96
kernel_size: 11
stride: 4
weight_filler {
type: "gaussian"
std: 0.01
}
bias_filler {
type: "constant"
value: 0
}
}
}
layer {
name: "relu1"
type: "ReLU"
bottom: "conv1"
top: "conv1"
}
layer {
name: "norm1"
type: "LRN"
bottom: "conv1"
top: "norm1"
lrn_param {
local_size: 5
alpha: 0.0001
beta: 0.75
}
}
layer {
name: "pool1"
type: "Pooling"
bottom: "norm1"
top: "pool1"
pooling_param {
pool: MAX
kernel_size: 3
stride: 2
}
}
layer {
name: "conv1.5"
type: "Convolution"
bottom: "pool1"
top: "conv1.5"
param {
lr_mult: 1
decay_mult: 1
}
param {
lr_mult: 2
decay_mult: 0
}
convolution_param {
num_output: 176
kernel_size: 5
stride: 1
weight_filler {
type: "gaussian"
std: 0.01
}
bias_filler {
type: "constant"
value: 0
}
}
}
layer {
name: "relu1.5"
type: "ReLU"
bottom: "conv1.5"
top: "conv1.5"
}
layer {
name: "norm1.5"
type: "LRN"
bottom: "conv1.5"
top: "norm1.5"
lrn_param {
local_size: 5
alpha: 0.0001
beta: 0.75
}
}
layer {
name: "pool1.5"
type: "Pooling"
bottom: "norm1.5"
top: "pool1.5"
pooling_param {
pool: MAX
kernel_size: 3
stride: 2
}
}
layer {
name: "conv2"
type: "Convolution"
bottom: "pool1.5"
top: "conv2"
param {
lr_mult: 1
decay_mult: 1
}
param {
lr_mult: 2
decay_mult: 0
}
convolution_param {
num_output: 256
pad: 2
kernel_size: 5
group: 2
weight_filler {
type: "gaussian"
std: 0.01
}
bias_filler {
type: "constant"
value: 0.1
}
}
}
layer {
name: "relu2"
type: "ReLU"
bottom: "conv2"
top: "conv2"
}
layer {
name: "norm2"
type: "LRN"
bottom: "conv2"
top: "norm2"
lrn_param {
local_size: 5
alpha: 0.0001
beta: 0.75
}
}
layer {
name: "pool2"
type: "Pooling"
bottom: "norm2"
top: "pool2"
pooling_param {
pool: MAX
kernel_size: 3
stride: 2
}
}
layer {
name: "conv3"
type: "Convolution"
bottom: "pool2"
top: "conv3"
param {
lr_mult: 1
decay_mult: 1
}
param {
lr_mult: 2
decay_mult: 0
}
convolution_param {
num_output: 384
pad: 1
kernel_size: 3
weight_filler {
type: "gaussian"
std: 0.01
}
bias_filler {
type: "constant"
value: 0
}
}
}
layer {
name: "relu3"
type: "ReLU"
bottom: "conv3"
top: "conv3"
}
layer {
name: "conv4"
type: "Convolution"
bottom: "conv3"
top: "conv4"
param {
lr_mult: 1
decay_mult: 1
}
param {
lr_mult: 2
decay_mult: 0
}
convolution_param {
num_output: 384
pad: 1
kernel_size: 3
group: 2
weight_filler {
type: "gaussian"
std: 0.01
}
bias_filler {
type: "constant"
value: 0.1
}
}
}
layer {
name: "relu4"
type: "ReLU"
bottom: "conv4"
top: "conv4"
}
layer {
name: "conv5"
type: "Convolution"
bottom: "conv4"
top: "conv5"
param {
lr_mult: 1
decay_mult: 1
}
param {
lr_mult: 2
decay_mult: 0
}
convolution_param {
num_output: 256
pad: 1
kernel_size: 3
group: 2
weight_filler {
type: "gaussian"
std: 0.01
}
bias_filler {
type: "constant"
value: 0.1
}
}
}
layer {
name: "relu5"
type: "ReLU"
bottom: "conv5"
top: "conv5"
}
layer {
name: "pool5"
type: "Pooling"
bottom: "conv5"
top: "pool5"
pooling_param {
pool: MAX
kernel_size: 3
stride: 2
}
}
layer {
name: "fc6"
type: "InnerProduct"
bottom: "pool5"
top: "fc6"
param {
lr_mult: 1
decay_mult: 1
}
param {
lr_mult: 2
decay_mult: 0
}
inner_product_param {
num_output: 4096
weight_filler {
type: "gaussian"
std: 0.005
}
bias_filler {
type: "constant"
value: 0.1
}
}
}
layer {
name: "relu6"
type: "ReLU"
bottom: "fc6"
top: "fc6"
}
layer {
name: "drop6"
type: "Dropout"
bottom: "fc6"
top: "fc6"
dropout_param {
dropout_ratio: 0.5
}
}
layer {
name: "fc7"
type: "InnerProduct"
bottom: "fc6"
top: "fc7"
param {
lr_mult: 1
decay_mult: 1
}
param {
lr_mult: 2
decay_mult: 0
}
inner_product_param {
num_output: 4096
weight_filler {
type: "gaussian"
std: 0.005
}
bias_filler {
type: "constant"
value: 0.1
}
}
}
layer {
name: "relu7"
type: "ReLU"
bottom: "fc7"
top: "fc7"
}
layer {
name: "drop7"
type: "Dropout"
bottom: "fc7"
top: "fc7"
dropout_param {
dropout_ratio: 0.5
}
}
layer {
name: "fc8"
type: "InnerProduct"
bottom: "fc7"
top: "fc8"
param {
lr_mult: 1
decay_mult: 1
}
param {
lr_mult: 2
decay_mult: 0
}
inner_product_param {
num_output: 196
weight_filler {
type: "gaussian"
std: 0.01
}
bias_filler {
type: "constant"
value: 0
}
}
}
layer {
name: "loss"
type: "SoftmaxWithLoss"
bottom: "fc8"
bottom: "label"
top: "loss"
}
I0428 13:17:01.628684 11373 layer_factory.hpp:77] Creating layer train-data
I0428 13:17:01.679536 11373 db_lmdb.cpp:35] Opened lmdb /mnt/bigdisk/DIGITS-MAN-3/digits/jobs/20210421-230320-902c/train_db
I0428 13:17:01.702476 11373 net.cpp:84] Creating Layer train-data
I0428 13:17:01.702504 11373 net.cpp:380] train-data -> data
I0428 13:17:01.702530 11373 net.cpp:380] train-data -> label
I0428 13:17:01.702546 11373 data_transformer.cpp:25] Loading mean file from: /mnt/bigdisk/DIGITS-MAN-3/digits/jobs/20210421-230320-902c/mean.binaryproto
I0428 13:17:01.779839 11373 data_layer.cpp:45] output data size: 128,3,227,227
I0428 13:17:01.985886 11373 net.cpp:122] Setting up train-data
I0428 13:17:01.985908 11373 net.cpp:129] Top shape: 128 3 227 227 (19787136)
I0428 13:17:01.985914 11373 net.cpp:129] Top shape: 128 (128)
I0428 13:17:01.985918 11373 net.cpp:137] Memory required for data: 79149056
I0428 13:17:01.985929 11373 layer_factory.hpp:77] Creating layer conv1
I0428 13:17:01.985950 11373 net.cpp:84] Creating Layer conv1
I0428 13:17:01.985956 11373 net.cpp:406] conv1 <- data
I0428 13:17:01.985970 11373 net.cpp:380] conv1 -> conv1
I0428 13:17:02.964372 11373 net.cpp:122] Setting up conv1
I0428 13:17:02.964416 11373 net.cpp:129] Top shape: 128 96 55 55 (37171200)
I0428 13:17:02.964421 11373 net.cpp:137] Memory required for data: 227833856
I0428 13:17:02.964442 11373 layer_factory.hpp:77] Creating layer relu1
I0428 13:17:02.964452 11373 net.cpp:84] Creating Layer relu1
I0428 13:17:02.964457 11373 net.cpp:406] relu1 <- conv1
I0428 13:17:02.964464 11373 net.cpp:367] relu1 -> conv1 (in-place)
I0428 13:17:02.964776 11373 net.cpp:122] Setting up relu1
I0428 13:17:02.964785 11373 net.cpp:129] Top shape: 128 96 55 55 (37171200)
I0428 13:17:02.964792 11373 net.cpp:137] Memory required for data: 376518656
I0428 13:17:02.964797 11373 layer_factory.hpp:77] Creating layer norm1
I0428 13:17:02.964807 11373 net.cpp:84] Creating Layer norm1
I0428 13:17:02.964810 11373 net.cpp:406] norm1 <- conv1
I0428 13:17:02.964816 11373 net.cpp:380] norm1 -> norm1
I0428 13:17:02.966630 11373 net.cpp:122] Setting up norm1
I0428 13:17:02.966640 11373 net.cpp:129] Top shape: 128 96 55 55 (37171200)
I0428 13:17:02.966645 11373 net.cpp:137] Memory required for data: 525203456
I0428 13:17:02.966650 11373 layer_factory.hpp:77] Creating layer pool1
I0428 13:17:02.966658 11373 net.cpp:84] Creating Layer pool1
I0428 13:17:02.966662 11373 net.cpp:406] pool1 <- norm1
I0428 13:17:02.966668 11373 net.cpp:380] pool1 -> pool1
I0428 13:17:02.966706 11373 net.cpp:122] Setting up pool1
I0428 13:17:02.966713 11373 net.cpp:129] Top shape: 128 96 27 27 (8957952)
I0428 13:17:02.966717 11373 net.cpp:137] Memory required for data: 561035264
I0428 13:17:02.966722 11373 layer_factory.hpp:77] Creating layer conv1.5
I0428 13:17:02.966732 11373 net.cpp:84] Creating Layer conv1.5
I0428 13:17:02.966735 11373 net.cpp:406] conv1.5 <- pool1
I0428 13:17:02.966742 11373 net.cpp:380] conv1.5 -> conv1.5
I0428 13:17:02.972527 11373 net.cpp:122] Setting up conv1.5
I0428 13:17:02.972539 11373 net.cpp:129] Top shape: 128 176 23 23 (11917312)
I0428 13:17:02.972543 11373 net.cpp:137] Memory required for data: 608704512
I0428 13:17:02.972553 11373 layer_factory.hpp:77] Creating layer relu1.5
I0428 13:17:02.972563 11373 net.cpp:84] Creating Layer relu1.5
I0428 13:17:02.972568 11373 net.cpp:406] relu1.5 <- conv1.5
I0428 13:17:02.972573 11373 net.cpp:367] relu1.5 -> conv1.5 (in-place)
I0428 13:17:02.972914 11373 net.cpp:122] Setting up relu1.5
I0428 13:17:02.972924 11373 net.cpp:129] Top shape: 128 176 23 23 (11917312)
I0428 13:17:02.972927 11373 net.cpp:137] Memory required for data: 656373760
I0428 13:17:02.972931 11373 layer_factory.hpp:77] Creating layer norm1.5
I0428 13:17:02.972939 11373 net.cpp:84] Creating Layer norm1.5
I0428 13:17:02.972944 11373 net.cpp:406] norm1.5 <- conv1.5
I0428 13:17:02.972950 11373 net.cpp:380] norm1.5 -> norm1.5
I0428 13:17:02.974581 11373 net.cpp:122] Setting up norm1.5
I0428 13:17:02.974592 11373 net.cpp:129] Top shape: 128 176 23 23 (11917312)
I0428 13:17:02.974597 11373 net.cpp:137] Memory required for data: 704043008
I0428 13:17:02.974601 11373 layer_factory.hpp:77] Creating layer pool1.5
I0428 13:17:02.974611 11373 net.cpp:84] Creating Layer pool1.5
I0428 13:17:02.974617 11373 net.cpp:406] pool1.5 <- norm1.5
I0428 13:17:02.974622 11373 net.cpp:380] pool1.5 -> pool1.5
I0428 13:17:02.974653 11373 net.cpp:122] Setting up pool1.5
I0428 13:17:02.974658 11373 net.cpp:129] Top shape: 128 176 11 11 (2725888)
I0428 13:17:02.974663 11373 net.cpp:137] Memory required for data: 714946560
I0428 13:17:02.974666 11373 layer_factory.hpp:77] Creating layer conv2
I0428 13:17:02.974676 11373 net.cpp:84] Creating Layer conv2
I0428 13:17:02.974680 11373 net.cpp:406] conv2 <- pool1.5
I0428 13:17:02.974687 11373 net.cpp:380] conv2 -> conv2
I0428 13:17:02.983048 11373 net.cpp:122] Setting up conv2
I0428 13:17:02.983065 11373 net.cpp:129] Top shape: 128 256 11 11 (3964928)
I0428 13:17:02.983069 11373 net.cpp:137] Memory required for data: 730806272
I0428 13:17:02.983083 11373 layer_factory.hpp:77] Creating layer relu2
I0428 13:17:02.983093 11373 net.cpp:84] Creating Layer relu2
I0428 13:17:02.983096 11373 net.cpp:406] relu2 <- conv2
I0428 13:17:02.983103 11373 net.cpp:367] relu2 -> conv2 (in-place)
I0428 13:17:02.983619 11373 net.cpp:122] Setting up relu2
I0428 13:17:02.983628 11373 net.cpp:129] Top shape: 128 256 11 11 (3964928)
I0428 13:17:02.983633 11373 net.cpp:137] Memory required for data: 746665984
I0428 13:17:02.983637 11373 layer_factory.hpp:77] Creating layer norm2
I0428 13:17:02.983646 11373 net.cpp:84] Creating Layer norm2
I0428 13:17:02.983651 11373 net.cpp:406] norm2 <- conv2
I0428 13:17:02.983657 11373 net.cpp:380] norm2 -> norm2
I0428 13:17:02.984019 11373 net.cpp:122] Setting up norm2
I0428 13:17:02.984027 11373 net.cpp:129] Top shape: 128 256 11 11 (3964928)
I0428 13:17:02.984031 11373 net.cpp:137] Memory required for data: 762525696
I0428 13:17:02.984035 11373 layer_factory.hpp:77] Creating layer pool2
I0428 13:17:02.984043 11373 net.cpp:84] Creating Layer pool2
I0428 13:17:02.984047 11373 net.cpp:406] pool2 <- norm2
I0428 13:17:02.984052 11373 net.cpp:380] pool2 -> pool2
I0428 13:17:02.984083 11373 net.cpp:122] Setting up pool2
I0428 13:17:02.984088 11373 net.cpp:129] Top shape: 128 256 5 5 (819200)
I0428 13:17:02.984092 11373 net.cpp:137] Memory required for data: 765802496
I0428 13:17:02.984097 11373 layer_factory.hpp:77] Creating layer conv3
I0428 13:17:02.984107 11373 net.cpp:84] Creating Layer conv3
I0428 13:17:02.984112 11373 net.cpp:406] conv3 <- pool2
I0428 13:17:02.984118 11373 net.cpp:380] conv3 -> conv3
I0428 13:17:02.995426 11373 net.cpp:122] Setting up conv3
I0428 13:17:02.995447 11373 net.cpp:129] Top shape: 128 384 5 5 (1228800)
I0428 13:17:02.995452 11373 net.cpp:137] Memory required for data: 770717696
I0428 13:17:02.995462 11373 layer_factory.hpp:77] Creating layer relu3
I0428 13:17:02.995472 11373 net.cpp:84] Creating Layer relu3
I0428 13:17:02.995477 11373 net.cpp:406] relu3 <- conv3
I0428 13:17:02.995483 11373 net.cpp:367] relu3 -> conv3 (in-place)
I0428 13:17:02.995981 11373 net.cpp:122] Setting up relu3
I0428 13:17:02.995991 11373 net.cpp:129] Top shape: 128 384 5 5 (1228800)
I0428 13:17:02.995995 11373 net.cpp:137] Memory required for data: 775632896
I0428 13:17:02.996001 11373 layer_factory.hpp:77] Creating layer conv4
I0428 13:17:02.996013 11373 net.cpp:84] Creating Layer conv4
I0428 13:17:02.996017 11373 net.cpp:406] conv4 <- conv3
I0428 13:17:02.996026 11373 net.cpp:380] conv4 -> conv4
I0428 13:17:03.005424 11373 net.cpp:122] Setting up conv4
I0428 13:17:03.005442 11373 net.cpp:129] Top shape: 128 384 5 5 (1228800)
I0428 13:17:03.005446 11373 net.cpp:137] Memory required for data: 780548096
I0428 13:17:03.005460 11373 layer_factory.hpp:77] Creating layer relu4
I0428 13:17:03.005471 11373 net.cpp:84] Creating Layer relu4
I0428 13:17:03.005476 11373 net.cpp:406] relu4 <- conv4
I0428 13:17:03.005482 11373 net.cpp:367] relu4 -> conv4 (in-place)
I0428 13:17:03.005973 11373 net.cpp:122] Setting up relu4
I0428 13:17:03.005985 11373 net.cpp:129] Top shape: 128 384 5 5 (1228800)
I0428 13:17:03.005988 11373 net.cpp:137] Memory required for data: 785463296
I0428 13:17:03.005992 11373 layer_factory.hpp:77] Creating layer conv5
I0428 13:17:03.006003 11373 net.cpp:84] Creating Layer conv5
I0428 13:17:03.006007 11373 net.cpp:406] conv5 <- conv4
I0428 13:17:03.006013 11373 net.cpp:380] conv5 -> conv5
I0428 13:17:03.020987 11373 net.cpp:122] Setting up conv5
I0428 13:17:03.021006 11373 net.cpp:129] Top shape: 128 256 5 5 (819200)
I0428 13:17:03.021010 11373 net.cpp:137] Memory required for data: 788740096
I0428 13:17:03.021021 11373 layer_factory.hpp:77] Creating layer relu5
I0428 13:17:03.021032 11373 net.cpp:84] Creating Layer relu5
I0428 13:17:03.021037 11373 net.cpp:406] relu5 <- conv5
I0428 13:17:03.021044 11373 net.cpp:367] relu5 -> conv5 (in-place)
I0428 13:17:03.022289 11373 net.cpp:122] Setting up relu5
I0428 13:17:03.022300 11373 net.cpp:129] Top shape: 128 256 5 5 (819200)
I0428 13:17:03.022303 11373 net.cpp:137] Memory required for data: 792016896
I0428 13:17:03.022307 11373 layer_factory.hpp:77] Creating layer pool5
I0428 13:17:03.022315 11373 net.cpp:84] Creating Layer pool5
I0428 13:17:03.022318 11373 net.cpp:406] pool5 <- conv5
I0428 13:17:03.022325 11373 net.cpp:380] pool5 -> pool5
I0428 13:17:03.022384 11373 net.cpp:122] Setting up pool5
I0428 13:17:03.022392 11373 net.cpp:129] Top shape: 128 256 2 2 (131072)
I0428 13:17:03.022394 11373 net.cpp:137] Memory required for data: 792541184
I0428 13:17:03.022398 11373 layer_factory.hpp:77] Creating layer fc6
I0428 13:17:03.022406 11373 net.cpp:84] Creating Layer fc6
I0428 13:17:03.022410 11373 net.cpp:406] fc6 <- pool5
I0428 13:17:03.022415 11373 net.cpp:380] fc6 -> fc6
I0428 13:17:03.062209 11373 net.cpp:122] Setting up fc6
I0428 13:17:03.062232 11373 net.cpp:129] Top shape: 128 4096 (524288)
I0428 13:17:03.062237 11373 net.cpp:137] Memory required for data: 794638336
I0428 13:17:03.062247 11373 layer_factory.hpp:77] Creating layer relu6
I0428 13:17:03.062256 11373 net.cpp:84] Creating Layer relu6
I0428 13:17:03.062260 11373 net.cpp:406] relu6 <- fc6
I0428 13:17:03.062268 11373 net.cpp:367] relu6 -> fc6 (in-place)
I0428 13:17:03.062880 11373 net.cpp:122] Setting up relu6
I0428 13:17:03.062889 11373 net.cpp:129] Top shape: 128 4096 (524288)
I0428 13:17:03.062896 11373 net.cpp:137] Memory required for data: 796735488
I0428 13:17:03.062901 11373 layer_factory.hpp:77] Creating layer drop6
I0428 13:17:03.062911 11373 net.cpp:84] Creating Layer drop6
I0428 13:17:03.062914 11373 net.cpp:406] drop6 <- fc6
I0428 13:17:03.062922 11373 net.cpp:367] drop6 -> fc6 (in-place)
I0428 13:17:03.062950 11373 net.cpp:122] Setting up drop6
I0428 13:17:03.062958 11373 net.cpp:129] Top shape: 128 4096 (524288)
I0428 13:17:03.062961 11373 net.cpp:137] Memory required for data: 798832640
I0428 13:17:03.062965 11373 layer_factory.hpp:77] Creating layer fc7
I0428 13:17:03.062974 11373 net.cpp:84] Creating Layer fc7
I0428 13:17:03.062978 11373 net.cpp:406] fc7 <- fc6
I0428 13:17:03.062985 11373 net.cpp:380] fc7 -> fc7
I0428 13:17:03.232481 11373 net.cpp:122] Setting up fc7
I0428 13:17:03.232527 11373 net.cpp:129] Top shape: 128 4096 (524288)
I0428 13:17:03.232532 11373 net.cpp:137] Memory required for data: 800929792
I0428 13:17:03.232542 11373 layer_factory.hpp:77] Creating layer relu7
I0428 13:17:03.232551 11373 net.cpp:84] Creating Layer relu7
I0428 13:17:03.232558 11373 net.cpp:406] relu7 <- fc7
I0428 13:17:03.232566 11373 net.cpp:367] relu7 -> fc7 (in-place)
I0428 13:17:03.232981 11373 net.cpp:122] Setting up relu7
I0428 13:17:03.232990 11373 net.cpp:129] Top shape: 128 4096 (524288)
I0428 13:17:03.232995 11373 net.cpp:137] Memory required for data: 803026944
I0428 13:17:03.233000 11373 layer_factory.hpp:77] Creating layer drop7
I0428 13:17:03.233006 11373 net.cpp:84] Creating Layer drop7
I0428 13:17:03.233011 11373 net.cpp:406] drop7 <- fc7
I0428 13:17:03.233016 11373 net.cpp:367] drop7 -> fc7 (in-place)
I0428 13:17:03.233042 11373 net.cpp:122] Setting up drop7
I0428 13:17:03.233047 11373 net.cpp:129] Top shape: 128 4096 (524288)
I0428 13:17:03.233050 11373 net.cpp:137] Memory required for data: 805124096
I0428 13:17:03.233054 11373 layer_factory.hpp:77] Creating layer fc8
I0428 13:17:03.233062 11373 net.cpp:84] Creating Layer fc8
I0428 13:17:03.233067 11373 net.cpp:406] fc8 <- fc7
I0428 13:17:03.233072 11373 net.cpp:380] fc8 -> fc8
I0428 13:17:03.246526 11373 net.cpp:122] Setting up fc8
I0428 13:17:03.246541 11373 net.cpp:129] Top shape: 128 196 (25088)
I0428 13:17:03.246546 11373 net.cpp:137] Memory required for data: 805224448
I0428 13:17:03.246560 11373 layer_factory.hpp:77] Creating layer loss
I0428 13:17:03.246570 11373 net.cpp:84] Creating Layer loss
I0428 13:17:03.246574 11373 net.cpp:406] loss <- fc8
I0428 13:17:03.246580 11373 net.cpp:406] loss <- label
I0428 13:17:03.246588 11373 net.cpp:380] loss -> loss
I0428 13:17:03.246599 11373 layer_factory.hpp:77] Creating layer loss
…
I0428 13:17:03.250836 11373 net.cpp:294] The NetState phase (1) differed from the phase (0) specified by a rule in layer train-data
I0428 13:17:03.251009 11373 net.cpp:51] Initializing net from parameters:
state {
phase: TEST
}
layer {
name: "val-data"
type: "Data"
top: "data"
top: "label"
include {
phase: TEST
}
transform_param {
crop_size: 227
mean_file: "/mnt/bigdisk/DIGITS-MAN-3/digits/jobs/20210421-230320-902c/mean.binaryproto"
}
data_param {
source: "/mnt/bigdisk/DIGITS-MAN-3/digits/jobs/20210421-230320-902c/val_db"
batch_size: 32
backend: LMDB
}
}
layer {
name: "conv1"
type: "Convolution"
bottom: "data"
top: "conv1"
param {
lr_mult: 1
decay_mult: 1
}
param {
lr_mult: 2
decay_mult: 0
}
convolution_param {
num_output: 96
kernel_size: 11
stride: 4
weight_filler {
type: "gaussian"
std: 0.01
}
bias_filler {
type: "constant"
value: 0
}
}
}
layer {
name: "relu1"
type: "ReLU"
bottom: "conv1"
top: "conv1"
}
layer {
name: "norm1"
type: "LRN"
bottom: "conv1"
top: "norm1"
lrn_param {
local_size: 5
alpha: 0.0001
beta: 0.75
}
}
layer {
name: "pool1"
type: "Pooling"
bottom: "norm1"
top: "pool1"
pooling_param {
pool: MAX
kernel_size: 3
stride: 2
}
}
layer {
name: "conv1.5"
type: "Convolution"
bottom: "pool1"
top: "conv1.5"
param {
lr_mult: 1
decay_mult: 1
}
param {
lr_mult: 2
decay_mult: 0
}
convolution_param {
num_output: 176
kernel_size: 5
stride: 1
weight_filler {
type: "gaussian"
std: 0.01
}
bias_filler {
type: "constant"
value: 0
}
}
}
layer {
name: "relu1.5"
type: "ReLU"
bottom: "conv1.5"
top: "conv1.5"
}
layer {
name: "norm1.5"
type: "LRN"
bottom: "conv1.5"
top: "norm1.5"
lrn_param {
local_size: 5
alpha: 0.0001
beta: 0.75
}
}
layer {
name: "pool1.5"
type: "Pooling"
bottom: "norm1.5"
top: "pool1.5"
pooling_param {
pool: MAX
kernel_size: 3
stride: 2
}
}
layer {
name: "conv2"
type: "Convolution"
bottom: "pool1.5"
top: "conv2"
param {
lr_mult: 1
decay_mult: 1
}
param {
lr_mult: 2
decay_mult: 0
}
convolution_param {
num_output: 256
pad: 2
kernel_size: 5
group: 2
weight_filler {
type: "gaussian"
std: 0.01
}
bias_filler {
type: "constant"
value: 0.1
}
}
}
layer {
name: "relu2"
type: "ReLU"
bottom: "conv2"
top: "conv2"
}
layer {
name: "norm2"
type: "LRN"
bottom: "conv2"
top: "norm2"
lrn_param {
local_size: 5
alpha: 0.0001
beta: 0.75
}
}
layer {
name: "pool2"
type: "Pooling"
bottom: "norm2"
top: "pool2"
pooling_param {
pool: MAX
kernel_size: 3
stride: 2
}
}
layer {
name: "conv3"
type: "Convolution"
bottom: "pool2"
top: "conv3"
param {
lr_mult: 1
decay_mult: 1
}
param {
lr_mult: 2
decay_mult: 0
}
convolution_param {
num_output: 384
pad: 1
kernel_size: 3
weight_filler {
type: "gaussian"
std: 0.01
}
bias_filler {
type: "constant"
value: 0
}
}
}
layer {
name: "relu3"
type: "ReLU"
bottom: "conv3"
top: "conv3"
}
layer {
name: "conv4"
type: "Convolution"
bottom: "conv3"
top: "conv4"
param {
lr_mult: 1
decay_mult: 1
}
param {
lr_mult: 2
decay_mult: 0
}
convolution_param {
num_output: 384
pad: 1
kernel_size: 3
group: 2
weight_filler {
type: "gaussian"
std: 0.01
}
bias_filler {
type: "constant"
value: 0.1
}
}
}
layer {
name: "relu4"
type: "ReLU"
bottom: "conv4"
top: "conv4"
}
layer {
name: "conv5"
type: "Convolution"
bottom: "conv4"
top: "conv5"
param {
lr_mult: 1
decay_mult: 1
}
param {
lr_mult: 2
decay_mult: 0
}
convolution_param {
num_output: 256
pad: 1
kernel_size: 3
group: 2
weight_filler {
type: "gaussian"
std: 0.01
}
bias_filler {
type: "constant"
value: 0.1
}
}
}
layer {
name: "relu5"
type: "ReLU"
bottom: "conv5"
top: "conv5"
}
layer {
name: "pool5"
type: "Pooling"
bottom: "conv5"
top: "pool5"
pooling_param {
pool: MAX
kernel_size: 3
stride: 2
}
}
layer {
name: "fc6"
type: "InnerProduct"
bottom: "pool5"
top: "fc6"
param {
lr_mult: 1
decay_mult: 1
}
param {
lr_mult: 2
decay_mult: 0
}
inner_product_param {
num_output: 4096
weight_filler {
type: "gaussian"
std: 0.005
}
bias_filler {
type: "constant"
value: 0.1
}
}
}
layer {
name: "relu6"
type: "ReLU"
bottom: "fc6"
top: "fc6"
}
layer {
name: "drop6"
type: "Dropout"
bottom: "fc6"
top: "fc6"
dropout_param {
dropout_ratio: 0.5
}
}
layer {
name: "fc7"
type: "InnerProduct"
bottom: "fc6"
top: "fc7"
param {
lr_mult: 1
decay_mult: 1
}
param {
lr_mult: 2
decay_mult: 0
}
inner_product_param {
num_output: 4096
weight_filler {
type: "gaussian"
std: 0.005
}
bias_filler {
type: "constant"
value: 0.1
}
}
}
layer {
name: "relu7"
type: "ReLU"
bottom: "fc7"
top: "fc7"
}
layer {
name: "drop7"
type: "Dropout"
bottom: "fc7"
top: "fc7"
dropout_param {
dropout_ratio: 0.5
}
}
layer {
name: "fc8"
type: "InnerProduct"
bottom: "fc7"
top: "fc8"
param {
lr_mult: 1
decay_mult: 1
}
param {
lr_mult: 2
decay_mult: 0
}
inner_product_param {
num_output: 196
weight_filler {
type: "gaussian"
std: 0.01
}
bias_filler {
type: "constant"
value: 0
}
}
}
layer {
name: "accuracy"
type: "Accuracy"
bottom: "fc8"
bottom: "label"
top: "accuracy"
include {
phase: TEST
}
}
layer {
name: "loss"
type: "SoftmaxWithLoss"
bottom: "fc8"
bottom: "label"
top: "loss"
}
I0428 13:17:03.251114 11373 layer_factory.hpp:77] Creating layer val-data
I0428 13:17:03.290225 11373 db_lmdb.cpp:35] Opened lmdb /mnt/bigdisk/DIGITS-MAN-3/digits/jobs/20210421-230320-902c/val_db
I0428 13:17:03.309953 11373 net.cpp:84] Creating Layer val-data
I0428 13:17:03.309979 11373 net.cpp:380] val-data -> data
I0428 13:17:03.309993 11373 net.cpp:380] val-data -> label
I0428 13:17:03.310001 11373 data_transformer.cpp:25] Loading mean file from: /mnt/bigdisk/DIGITS-MAN-3/digits/jobs/20210421-230320-902c/mean.binaryproto
I0428 13:17:03.317636 11373 data_layer.cpp:45] output data size: 32,3,227,227
I0428 13:17:03.474905 11373 net.cpp:122] Setting up val-data
I0428 13:17:03.474931 11373 net.cpp:129] Top shape: 32 3 227 227 (4946784)
I0428 13:17:03.474938 11373 net.cpp:129] Top shape: 32 (32)
I0428 13:17:03.474943 11373 net.cpp:137] Memory required for data: 19787264
I0428 13:17:03.474952 11373 layer_factory.hpp:77] Creating layer label_val-data_1_split
I0428 13:17:03.474969 11373 net.cpp:84] Creating Layer label_val-data_1_split
I0428 13:17:03.474975 11373 net.cpp:406] label_val-data_1_split <- label
I0428 13:17:03.474985 11373 net.cpp:380] label_val-data_1_split -> label_val-data_1_split_0
I0428 13:17:03.474998 11373 net.cpp:380] label_val-data_1_split -> label_val-data_1_split_1
I0428 13:17:03.475067 11373 net.cpp:122] Setting up label_val-data_1_split
I0428 13:17:03.475076 11373 net.cpp:129] Top shape: 32 (32)
I0428 13:17:03.475082 11373 net.cpp:129] Top shape: 32 (32)
I0428 13:17:03.475086 11373 net.cpp:137] Memory required for data: 19787520
I0428 13:17:03.475091 11373 layer_factory.hpp:77] Creating layer conv1
I0428 13:17:03.475111 11373 net.cpp:84] Creating Layer conv1
I0428 13:17:03.475116 11373 net.cpp:406] conv1 <- data
I0428 13:17:03.475126 11373 net.cpp:380] conv1 -> conv1
I0428 13:17:03.589087 11373 net.cpp:122] Setting up conv1
I0428 13:17:03.589112 11373 net.cpp:129] Top shape: 32 96 55 55 (9292800)
I0428 13:17:03.589118 11373 net.cpp:137] Memory required for data: 56958720
I0428 13:17:03.589136 11373 layer_factory.hpp:77] Creating layer relu1
I0428 13:17:03.589148 11373 net.cpp:84] Creating Layer relu1
I0428 13:17:03.589154 11373 net.cpp:406] relu1 <- conv1
I0428 13:17:03.589164 11373 net.cpp:367] relu1 -> conv1 (in-place)
I0428 13:17:03.589607 11373 net.cpp:122] Setting up relu1
I0428 13:17:03.589620 11373 net.cpp:129] Top shape: 32 96 55 55 (9292800)
I0428 13:17:03.589625 11373 net.cpp:137] Memory required for data: 94129920
I0428 13:17:03.589632 11373 layer_factory.hpp:77] Creating layer norm1
I0428 13:17:03.589643 11373 net.cpp:84] Creating Layer norm1
I0428 13:17:03.589650 11373 net.cpp:406] norm1 <- conv1
I0428 13:17:03.589661 11373 net.cpp:380] norm1 -> norm1
I0428 13:17:03.628386 11373 net.cpp:122] Setting up norm1
I0428 13:17:03.628412 11373 net.cpp:129] Top shape: 32 96 55 55 (9292800)
I0428 13:17:03.628417 11373 net.cpp:137] Memory required for data: 131301120
I0428 13:17:03.628425 11373 layer_factory.hpp:77] Creating layer pool1
I0428 13:17:03.628439 11373 net.cpp:84] Creating Layer pool1
I0428 13:17:03.628446 11373 net.cpp:406] pool1 <- norm1
I0428 13:17:03.628458 11373 net.cpp:380] pool1 -> pool1
I0428 13:17:03.628549 11373 net.cpp:122] Setting up pool1
I0428 13:17:03.628559 11373 net.cpp:129] Top shape: 32 96 27 27 (2239488)
I0428 13:17:03.628564 11373 net.cpp:137] Memory required for data: 140259072
I0428 13:17:03.628571 11373 layer_factory.hpp:77] Creating layer conv1.5
I0428 13:17:03.628585 11373 net.cpp:84] Creating Layer conv1.5
I0428 13:17:03.628592 11373 net.cpp:406] conv1.5 <- pool1
I0428 13:17:03.628600 11373 net.cpp:380] conv1.5 -> conv1.5
I0428 13:17:03.638517 11373 net.cpp:122] Setting up conv1.5
I0428 13:17:03.638537 11373 net.cpp:129] Top shape: 32 176 23 23 (2979328)
I0428 13:17:03.638543 11373 net.cpp:137] Memory required for data: 152176384
I0428 13:17:03.638558 11373 layer_factory.hpp:77] Creating layer relu1.5
I0428 13:17:03.638572 11373 net.cpp:84] Creating Layer relu1.5
I0428 13:17:03.638607 11373 net.cpp:406] relu1.5 <- conv1.5
I0428 13:17:03.638617 11373 net.cpp:367] relu1.5 -> conv1.5 (in-place)
I0428 13:17:03.639147 11373 net.cpp:122] Setting up relu1.5
I0428 13:17:03.639158 11373 net.cpp:129] Top shape: 32 176 23 23 (2979328)
I0428 13:17:03.639163 11373 net.cpp:137] Memory required for data: 164093696
I0428 13:17:03.639169 11373 layer_factory.hpp:77] Creating layer norm1.5
I0428 13:17:03.639184 11373 net.cpp:84] Creating Layer norm1.5
I0428 13:17:03.639191 11373 net.cpp:406] norm1.5 <- conv1.5
I0428 13:17:03.639201 11373 net.cpp:380] norm1.5 -> norm1.5
I0428 13:17:03.639938 11373 net.cpp:122] Setting up norm1.5
I0428 13:17:03.639952 11373 net.cpp:129] Top shape: 32 176 23 23 (2979328)
I0428 13:17:03.639957 11373 net.cpp:137] Memory required for data: 176011008
I0428 13:17:03.639963 11373 layer_factory.hpp:77] Creating layer pool1.5
I0428 13:17:03.639972 11373 net.cpp:84] Creating Layer pool1.5
I0428 13:17:03.639978 11373 net.cpp:406] pool1.5 <- norm1.5
I0428 13:17:03.639987 11373 net.cpp:380] pool1.5 -> pool1.5
I0428 13:17:03.640035 11373 net.cpp:122] Setting up pool1.5
I0428 13:17:03.640045 11373 net.cpp:129] Top shape: 32 176 11 11 (681472)
I0428 13:17:03.640050 11373 net.cpp:137] Memory required for data: 178736896
I0428 13:17:03.640056 11373 layer_factory.hpp:77] Creating layer conv2
I0428 13:17:03.640070 11373 net.cpp:84] Creating Layer conv2
I0428 13:17:03.640075 11373 net.cpp:406] conv2 <- pool1.5
I0428 13:17:03.640084 11373 net.cpp:380] conv2 -> conv2
I0428 13:17:03.732378 11373 net.cpp:122] Setting up conv2
I0428 13:17:03.732403 11373 net.cpp:129] Top shape: 32 256 11 11 (991232)
I0428 13:17:03.732407 11373 net.cpp:137] Memory required for data: 182701824
I0428 13:17:03.732429 11373 layer_factory.hpp:77] Creating layer relu2
I0428 13:17:03.732441 11373 net.cpp:84] Creating Layer relu2
I0428 13:17:03.732448 11373 net.cpp:406] relu2 <- conv2
I0428 13:17:03.732457 11373 net.cpp:367] relu2 -> conv2 (in-place)
I0428 13:17:03.733309 11373 net.cpp:122] Setting up relu2
I0428 13:17:03.733322 11373 net.cpp:129] Top shape: 32 256 11 11 (991232)
I0428 13:17:03.733327 11373 net.cpp:137] Memory required for data: 186666752
I0428 13:17:03.733333 11373 layer_factory.hpp:77] Creating layer norm2
I0428 13:17:03.733345 11373 net.cpp:84] Creating Layer norm2
I0428 13:17:03.733351 11373 net.cpp:406] norm2 <- conv2
I0428 13:17:03.733361 11373 net.cpp:380] norm2 -> norm2
I0428 13:17:03.733909 11373 net.cpp:122] Setting up norm2
I0428 13:17:03.733922 11373 net.cpp:129] Top shape: 32 256 11 11 (991232)
I0428 13:17:03.733927 11373 net.cpp:137] Memory required for data: 190631680
I0428 13:17:03.733932 11373 layer_factory.hpp:77] Creating layer pool2
I0428 13:17:03.733942 11373 net.cpp:84] Creating Layer pool2
I0428 13:17:03.733947 11373 net.cpp:406] pool2 <- norm2
I0428 13:17:03.733956 11373 net.cpp:380] pool2 -> pool2
I0428 13:17:03.734001 11373 net.cpp:122] Setting up pool2
I0428 13:17:03.734011 11373 net.cpp:129] Top shape: 32 256 5 5 (204800)
I0428 13:17:03.734016 11373 net.cpp:137] Memory required for data: 191450880
I0428 13:17:03.734021 11373 layer_factory.hpp:77] Creating layer conv3
I0428 13:17:03.734036 11373 net.cpp:84] Creating Layer conv3
I0428 13:17:03.734041 11373 net.cpp:406] conv3 <- pool2
I0428 13:17:03.734052 11373 net.cpp:380] conv3 -> conv3
I0428 13:17:03.756932 11373 net.cpp:122] Setting up conv3
I0428 13:17:03.756959 11373 net.cpp:129] Top shape: 32 384 5 5 (307200)
I0428 13:17:03.756964 11373 net.cpp:137] Memory required for data: 192679680
I0428 13:17:03.756978 11373 layer_factory.hpp:77] Creating layer relu3
I0428 13:17:03.756990 11373 net.cpp:84] Creating Layer relu3
I0428 13:17:03.756997 11373 net.cpp:406] relu3 <- conv3
I0428 13:17:03.757006 11373 net.cpp:367] relu3 -> conv3 (in-place)
I0428 13:17:03.757688 11373 net.cpp:122] Setting up relu3
I0428 13:17:03.757701 11373 net.cpp:129] Top shape: 32 384 5 5 (307200)
I0428 13:17:03.757706 11373 net.cpp:137] Memory required for data: 193908480
I0428 13:17:03.757712 11373 layer_factory.hpp:77] Creating layer conv4
I0428 13:17:03.757761 11373 net.cpp:84] Creating Layer conv4
I0428 13:17:03.757767 11373 net.cpp:406] conv4 <- conv3
I0428 13:17:03.757776 11373 net.cpp:380] conv4 -> conv4
I0428 13:17:03.773646 11373 net.cpp:122] Setting up conv4
I0428 13:17:03.773674 11373 net.cpp:129] Top shape: 32 384 5 5 (307200)
I0428 13:17:03.773680 11373 net.cpp:137] Memory required for data: 195137280
I0428 13:17:03.773699 11373 layer_factory.hpp:77] Creating layer relu4
I0428 13:17:03.773712 11373 net.cpp:84] Creating Layer relu4
I0428 13:17:03.773718 11373 net.cpp:406] relu4 <- conv4
I0428 13:17:03.773730 11373 net.cpp:367] relu4 -> conv4 (in-place)
I0428 13:17:03.774492 11373 net.cpp:122] Setting up relu4
I0428 13:17:03.774507 11373 net.cpp:129] Top shape: 32 384 5 5 (307200)
I0428 13:17:03.774514 11373 net.cpp:137] Memory required for data: 196366080
I0428 13:17:03.774521 11373 layer_factory.hpp:77] Creating layer conv5
I0428 13:17:03.774538 11373 net.cpp:84] Creating Layer conv5
I0428 13:17:03.774545 11373 net.cpp:406] conv5 <- conv4
I0428 13:17:03.774556 11373 net.cpp:380] conv5 -> conv5
I0428 13:17:03.788188 11373 net.cpp:122] Setting up conv5
I0428 13:17:03.788211 11373 net.cpp:129] Top shape: 32 256 5 5 (204800)
I0428 13:17:03.788215 11373 net.cpp:137] Memory required for data: 197185280
I0428 13:17:03.788225 11373 layer_factory.hpp:77] Creating layer relu5
I0428 13:17:03.788235 11373 net.cpp:84] Creating Layer relu5
I0428 13:17:03.788240 11373 net.cpp:406] relu5 <- conv5
I0428 13:17:03.788247 11373 net.cpp:367] relu5 -> conv5 (in-place)
I0428 13:17:03.788777 11373 net.cpp:122] Setting up relu5
I0428 13:17:03.788787 11373 net.cpp:129] Top shape: 32 256 5 5 (204800)
I0428 13:17:03.788791 11373 net.cpp:137] Memory required for data: 198004480
I0428 13:17:03.788795 11373 layer_factory.hpp:77] Creating layer pool5
I0428 13:17:03.788802 11373 net.cpp:84] Creating Layer pool5
I0428 13:17:03.788806 11373 net.cpp:406] pool5 <- conv5
I0428 13:17:03.788813 11373 net.cpp:380] pool5 -> pool5
I0428 13:17:03.788859 11373 net.cpp:122] Setting up pool5
I0428 13:17:03.788866 11373 net.cpp:129] Top shape: 32 256 2 2 (32768)
I0428 13:17:03.788869 11373 net.cpp:137] Memory required for data: 198135552
I0428 13:17:03.788873 11373 layer_factory.hpp:77] Creating layer fc6
I0428 13:17:03.788882 11373 net.cpp:84] Creating Layer fc6
I0428 13:17:03.788885 11373 net.cpp:406] fc6 <- pool5
I0428 13:17:03.788892 11373 net.cpp:380] fc6 -> fc6
I0428 13:17:03.836680 11373 net.cpp:122] Setting up fc6
I0428 13:17:03.836701 11373 net.cpp:129] Top shape: 32 4096 (131072)
I0428 13:17:03.836706 11373 net.cpp:137] Memory required for data: 198659840
I0428 13:17:03.836715 11373 layer_factory.hpp:77] Creating layer relu6
I0428 13:17:03.836724 11373 net.cpp:84] Creating Layer relu6
I0428 13:17:03.836730 11373 net.cpp:406] relu6 <- fc6
I0428 13:17:03.836738 11373 net.cpp:367] relu6 -> fc6 (in-place)
I0428 13:17:03.837430 11373 net.cpp:122] Setting up relu6
I0428 13:17:03.837438 11373 net.cpp:129] Top shape: 32 4096 (131072)
I0428 13:17:03.837443 11373 net.cpp:137] Memory required for data: 199184128
I0428 13:17:03.837446 11373 layer_factory.hpp:77] Creating layer drop6
I0428 13:17:03.837455 11373 net.cpp:84] Creating Layer drop6
I0428 13:17:03.837458 11373 net.cpp:406] drop6 <- fc6
I0428 13:17:03.837466 11373 net.cpp:367] drop6 -> fc6 (in-place)
I0428 13:17:03.837491 11373 net.cpp:122] Setting up drop6
I0428 13:17:03.837496 11373 net.cpp:129] Top shape: 32 4096 (131072)
I0428 13:17:03.837500 11373 net.cpp:137] Memory required for data: 199708416
I0428 13:17:03.837503 11373 layer_factory.hpp:77] Creating layer fc7
I0428 13:17:03.837512 11373 net.cpp:84] Creating Layer fc7
I0428 13:17:03.837517 11373 net.cpp:406] fc7 <- fc6
I0428 13:17:03.837522 11373 net.cpp:380] fc7 -> fc7
I0428 13:17:04.036653 11373 net.cpp:122] Setting up fc7
I0428 13:17:04.036672 11373 net.cpp:129] Top shape: 32 4096 (131072)
I0428 13:17:04.036677 11373 net.cpp:137] Memory required for data: 200232704
I0428 13:17:04.036687 11373 layer_factory.hpp:77] Creating layer relu7
I0428 13:17:04.036697 11373 net.cpp:84] Creating Layer relu7
I0428 13:17:04.036721 11373 net.cpp:406] relu7 <- fc7
I0428 13:17:04.036731 11373 net.cpp:367] relu7 -> fc7 (in-place)
I0428 13:17:04.037153 11373 net.cpp:122] Setting up relu7
I0428 13:17:04.037163 11373 net.cpp:129] Top shape: 32 4096 (131072)
I0428 13:17:04.037168 11373 net.cpp:137] Memory required for data: 200756992
I0428 13:17:04.037171 11373 layer_factory.hpp:77] Creating layer drop7
I0428 13:17:04.037179 11373 net.cpp:84] Creating Layer drop7
I0428 13:17:04.037184 11373 net.cpp:406] drop7 <- fc7
I0428 13:17:04.037191 11373 net.cpp:367] drop7 -> fc7 (in-place)
I0428 13:17:04.037216 11373 net.cpp:122] Setting up drop7
I0428 13:17:04.037221 11373 net.cpp:129] Top shape: 32 4096 (131072)
I0428 13:17:04.037225 11373 net.cpp:137] Memory required for data: 201281280
I0428 13:17:04.037230 11373 layer_factory.hpp:77] Creating layer fc8
I0428 13:17:04.037238 11373 net.cpp:84] Creating Layer fc8
I0428 13:17:04.037242 11373 net.cpp:406] fc8 <- fc7
I0428 13:17:04.037248 11373 net.cpp:380] fc8 -> fc8
I0428 13:17:04.045235 11373 net.cpp:122] Setting up fc8
I0428 13:17:04.045248 11373 net.cpp:129] Top shape: 32 196 (6272)
I0428 13:17:04.045253 11373 net.cpp:137] Memory required for data: 201306368
I0428 13:17:04.045266 11373 layer_factory.hpp:77] Creating layer fc8_fc8_0_split
I0428 13:17:04.045274 11373 net.cpp:84] Creating Layer fc8_fc8_0_split
I0428 13:17:04.045279 11373 net.cpp:406] fc8_fc8_0_split <- fc8
I0428 13:17:04.045286 11373 net.cpp:380] fc8_fc8_0_split -> fc8_fc8_0_split_0
I0428 13:17:04.045295 11373 net.cpp:380] fc8_fc8_0_split -> fc8_fc8_0_split_1
I0428 13:17:04.045333 11373 net.cpp:122] Setting up fc8_fc8_0_split
I0428 13:17:04.045338 11373 net.cpp:129] Top shape: 32 196 (6272)
I0428 13:17:04.045342 11373 net.cpp:129] Top shape: 32 196 (6272)
I0428 13:17:04.045346 11373 net.cpp:137] Memory required for data: 201356544
I0428 13:17:04.045349 11373 layer_factory.hpp:77] Creating layer accuracy
I0428 13:17:04.045357 11373 net.cpp:84] Creating Layer accuracy
I0428 13:17:04.045361 11373 net.cpp:406] accuracy <- fc8_fc8_0_split_0
I0428 13:17:04.045367 11373 net.cpp:406] accuracy <- label_val-data_1_split_0
I0428 13:17:04.045372 11373 net.cpp:380] accuracy -> accuracy
…
