…
I0410 13:28:45.923497 18353 net.cpp:294] The NetState phase (0) differed from the phase (1) specified by a rule in layer accuracy
I0410 13:28:45.923630 18353 net.cpp:51] Initializing net from parameters:
state {
phase: TRAIN
level: 0
stage: ""
}
layer {
name: "train-data"
type: "Data"
top: "data"
top: "label"
include {
phase: TRAIN
}
transform_param {
mirror: true
crop_size: 227
mean_file: "/mnt/bigdisk/DIGITS-MAN-2/digits/jobs/20210407-214532-d396/mean.binaryproto"
}
data_param {
source: "/mnt/bigdisk/DIGITS-MAN-2/digits/jobs/20210407-214532-d396/train_db"
batch_size: 128
backend: LMDB
}
}
layer {
name: "conv1"
type: "Convolution"
bottom: "data"
top: "conv1"
param {
lr_mult: 1
decay_mult: 1
}
param {
lr_mult: 2
decay_mult: 0
}
convolution_param {
num_output: 96
kernel_size: 11
stride: 4
weight_filler {
type: "gaussian"
std: 0.01
}
bias_filler {
type: "constant"
value: 0
}
}
}
layer {
name: "relu1"
type: "ReLU"
bottom: "conv1"
top: "conv1"
}
layer {
name: "norm1"
type: "LRN"
bottom: "conv1"
top: "norm1"
lrn_param {
local_size: 5
alpha: 0.0001
beta: 0.75
}
}
layer {
name: "pool1"
type: "Pooling"
bottom: "norm1"
top: "pool1"
pooling_param {
pool: MAX
kernel_size: 3
stride: 2
}
}
layer {
name: "conv2"
type: "Convolution"
bottom: "pool1"
top: "conv2"
param {
lr_mult: 1
decay_mult: 1
}
param {
lr_mult: 2
decay_mult: 0
}
convolution_param {
num_output: 256
pad: 2
kernel_size: 5
group: 2
weight_filler {
type: "gaussian"
std: 0.01
}
bias_filler {
type: "constant"
value: 0.1
}
}
}
layer {
name: "relu2"
type: "ReLU"
bottom: "conv2"
top: "conv2"
}
layer {
name: "norm2"
type: "LRN"
bottom: "conv2"
top: "norm2"
lrn_param {
local_size: 5
alpha: 0.0001
beta: 0.75
}
}
layer {
name: "pool2"
type: "Pooling"
bottom: "norm2"
top: "pool2"
pooling_param {
pool: MAX
kernel_size: 3
stride: 2
}
}
layer {
name: "conv3"
type: "Convolution"
bottom: "pool2"
top: "conv3"
param {
lr_mult: 1
decay_mult: 1
}
param {
lr_mult: 2
decay_mult: 0
}
convolution_param {
num_output: 384
pad: 1
kernel_size: 3
weight_filler {
type: "gaussian"
std: 0.01
}
bias_filler {
type: "constant"
value: 0
}
}
}
layer {
name: "relu3"
type: "ReLU"
bottom: "conv3"
top: "conv3"
}
layer {
name: "conv4"
type: "Convolution"
bottom: "conv3"
top: "conv4"
param {
lr_mult: 1
decay_mult: 1
}
param {
lr_mult: 2
decay_mult: 0
}
convolution_param {
num_output: 384
pad: 1
kernel_size: 3
group: 2
weight_filler {
type: "gaussian"
std: 0.01
}
bias_filler {
type: "constant"
value: 0.1
}
}
}
layer {
name: "relu4"
type: "ReLU"
bottom: "conv4"
top: "conv4"
}
layer {
name: "conv5"
type: "Convolution"
bottom: "conv4"
top: "conv5"
param {
lr_mult: 1
decay_mult: 1
}
param {
lr_mult: 2
decay_mult: 0
}
convolution_param {
num_output: 256
pad: 1
kernel_size: 3
group: 2
weight_filler {
type: "gaussian"
std: 0.01
}
bias_filler {
type: "constant"
value: 0.1
}
}
}
layer {
name: "relu5"
type: "ReLU"
bottom: "conv5"
top: "conv5"
}
layer {
name: "pool5"
type: "Pooling"
bottom: "conv5"
top: "pool5"
pooling_param {
pool: MAX
kernel_size: 3
stride: 2
}
}
layer {
name: "fc6"
type: "InnerProduct"
bottom: "pool5"
top: "fc6"
param {
lr_mult: 1
decay_mult: 1
}
param {
lr_mult: 2
decay_mult: 0
}
inner_product_param {
num_output: 256
weight_filler {
type: "gaussian"
std: 0.005
}
bias_filler {
type: "constant"
value: 0.1
}
}
}
layer {
name: "relu6"
type: "ReLU"
bottom: "fc6"
top: "fc6"
}
layer {
name: "drop6"
type: "Dropout"
bottom: "fc6"
top: "fc6"
dropout_param {
dropout_ratio: 0.5
}
}
layer {
name: "fc8"
type: "InnerProduct"
bottom: "fc6"
top: "fc8"
param {
lr_mult: 1
decay_mult: 1
}
param {
lr_mult: 2
decay_mult: 0
}
inner_product_param {
num_output: 196
weight_filler {
type: "gaussian"
std: 0.01
}
bias_filler {
type: "constant"
value: 0
}
}
}
layer {
name: "loss"
type: "SoftmaxWithLoss"
bottom: "fc8"
bottom: "label"
top: "loss"
}
I0410 13:28:45.923720 18353 layer_factory.hpp:77] Creating layer train-data
I0410 13:28:46.007031 18353 db_lmdb.cpp:35] Opened lmdb /mnt/bigdisk/DIGITS-MAN-2/digits/jobs/20210407-214532-d396/train_db
I0410 13:28:46.007316 18353 net.cpp:84] Creating Layer train-data
I0410 13:28:46.007344 18353 net.cpp:380] train-data -> data
I0410 13:28:46.007385 18353 net.cpp:380] train-data -> label
I0410 13:28:46.007411 18353 data_transformer.cpp:25] Loading mean file from: /mnt/bigdisk/DIGITS-MAN-2/digits/jobs/20210407-214532-d396/mean.binaryproto
I0410 13:28:46.018450 18353 data_layer.cpp:45] output data size: 128,3,227,227
I0410 13:28:46.212792 18353 net.cpp:122] Setting up train-data
I0410 13:28:46.212821 18353 net.cpp:129] Top shape: 128 3 227 227 (19787136)
I0410 13:28:46.212828 18353 net.cpp:129] Top shape: 128 (128)
I0410 13:28:46.212831 18353 net.cpp:137] Memory required for data: 79149056
I0410 13:28:46.212844 18353 layer_factory.hpp:77] Creating layer conv1
I0410 13:28:46.212869 18353 net.cpp:84] Creating Layer conv1
I0410 13:28:46.212875 18353 net.cpp:406] conv1 <- data
I0410 13:28:46.212890 18353 net.cpp:380] conv1 -> conv1
I0410 13:28:46.798507 18353 net.cpp:122] Setting up conv1
I0410 13:28:46.798530 18353 net.cpp:129] Top shape: 128 96 55 55 (37171200)
I0410 13:28:46.798535 18353 net.cpp:137] Memory required for data: 227833856
I0410 13:28:46.798557 18353 layer_factory.hpp:77] Creating layer relu1
I0410 13:28:46.798568 18353 net.cpp:84] Creating Layer relu1
I0410 13:28:46.798573 18353 net.cpp:406] relu1 <- conv1
I0410 13:28:46.798581 18353 net.cpp:367] relu1 -> conv1 (in-place)
I0410 13:28:46.798899 18353 net.cpp:122] Setting up relu1
I0410 13:28:46.798909 18353 net.cpp:129] Top shape: 128 96 55 55 (37171200)
I0410 13:28:46.798913 18353 net.cpp:137] Memory required for data: 376518656
I0410 13:28:46.798918 18353 layer_factory.hpp:77] Creating layer norm1
I0410 13:28:46.798928 18353 net.cpp:84] Creating Layer norm1
I0410 13:28:46.798933 18353 net.cpp:406] norm1 <- conv1
I0410 13:28:46.798938 18353 net.cpp:380] norm1 -> norm1
I0410 13:28:46.799434 18353 net.cpp:122] Setting up norm1
I0410 13:28:46.799445 18353 net.cpp:129] Top shape: 128 96 55 55 (37171200)
I0410 13:28:46.799449 18353 net.cpp:137] Memory required for data: 525203456
I0410 13:28:46.799454 18353 layer_factory.hpp:77] Creating layer pool1
I0410 13:28:46.799463 18353 net.cpp:84] Creating Layer pool1
I0410 13:28:46.799468 18353 net.cpp:406] pool1 <- norm1
I0410 13:28:46.799472 18353 net.cpp:380] pool1 -> pool1
I0410 13:28:46.799538 18353 net.cpp:122] Setting up pool1
I0410 13:28:46.799546 18353 net.cpp:129] Top shape: 128 96 27 27 (8957952)
I0410 13:28:46.799549 18353 net.cpp:137] Memory required for data: 561035264
I0410 13:28:46.799553 18353 layer_factory.hpp:77] Creating layer conv2
I0410 13:28:46.799566 18353 net.cpp:84] Creating Layer conv2
I0410 13:28:46.799569 18353 net.cpp:406] conv2 <- pool1
I0410 13:28:46.799576 18353 net.cpp:380] conv2 -> conv2
I0410 13:28:46.807049 18353 net.cpp:122] Setting up conv2
I0410 13:28:46.807062 18353 net.cpp:129] Top shape: 128 256 27 27 (23887872)
I0410 13:28:46.807066 18353 net.cpp:137] Memory required for data: 656586752
I0410 13:28:46.807076 18353 layer_factory.hpp:77] Creating layer relu2
I0410 13:28:46.807083 18353 net.cpp:84] Creating Layer relu2
I0410 13:28:46.807087 18353 net.cpp:406] relu2 <- conv2
I0410 13:28:46.807093 18353 net.cpp:367] relu2 -> conv2 (in-place)
I0410 13:28:46.807570 18353 net.cpp:122] Setting up relu2
I0410 13:28:46.807580 18353 net.cpp:129] Top shape: 128 256 27 27 (23887872)
I0410 13:28:46.807585 18353 net.cpp:137] Memory required for data: 752138240
I0410 13:28:46.807590 18353 layer_factory.hpp:77] Creating layer norm2
I0410 13:28:46.807596 18353 net.cpp:84] Creating Layer norm2
I0410 13:28:46.807600 18353 net.cpp:406] norm2 <- conv2
I0410 13:28:46.807606 18353 net.cpp:380] norm2 -> norm2
I0410 13:28:46.807969 18353 net.cpp:122] Setting up norm2
I0410 13:28:46.807978 18353 net.cpp:129] Top shape: 128 256 27 27 (23887872)
I0410 13:28:46.807982 18353 net.cpp:137] Memory required for data: 847689728
I0410 13:28:46.807986 18353 layer_factory.hpp:77] Creating layer pool2
I0410 13:28:46.807996 18353 net.cpp:84] Creating Layer pool2
I0410 13:28:46.808001 18353 net.cpp:406] pool2 <- norm2
I0410 13:28:46.808007 18353 net.cpp:380] pool2 -> pool2
I0410 13:28:46.808039 18353 net.cpp:122] Setting up pool2
I0410 13:28:46.808046 18353 net.cpp:129] Top shape: 128 256 13 13 (5537792)
I0410 13:28:46.808049 18353 net.cpp:137] Memory required for data: 869840896
I0410 13:28:46.808053 18353 layer_factory.hpp:77] Creating layer conv3
I0410 13:28:46.808064 18353 net.cpp:84] Creating Layer conv3
I0410 13:28:46.808068 18353 net.cpp:406] conv3 <- pool2
I0410 13:28:46.808075 18353 net.cpp:380] conv3 -> conv3
I0410 13:28:46.819180 18353 net.cpp:122] Setting up conv3
I0410 13:28:46.819192 18353 net.cpp:129] Top shape: 128 384 13 13 (8306688)
I0410 13:28:46.819196 18353 net.cpp:137] Memory required for data: 903067648
I0410 13:28:46.819207 18353 layer_factory.hpp:77] Creating layer relu3
I0410 13:28:46.819214 18353 net.cpp:84] Creating Layer relu3
I0410 13:28:46.819218 18353 net.cpp:406] relu3 <- conv3
I0410 13:28:46.819226 18353 net.cpp:367] relu3 -> conv3 (in-place)
I0410 13:28:46.819773 18353 net.cpp:122] Setting up relu3
I0410 13:28:46.819784 18353 net.cpp:129] Top shape: 128 384 13 13 (8306688)
I0410 13:28:46.819788 18353 net.cpp:137] Memory required for data: 936294400
I0410 13:28:46.819792 18353 layer_factory.hpp:77] Creating layer conv4
I0410 13:28:46.819803 18353 net.cpp:84] Creating Layer conv4
I0410 13:28:46.819808 18353 net.cpp:406] conv4 <- conv3
I0410 13:28:46.819815 18353 net.cpp:380] conv4 -> conv4
I0410 13:28:46.831454 18353 net.cpp:122] Setting up conv4
I0410 13:28:46.831467 18353 net.cpp:129] Top shape: 128 384 13 13 (8306688)
I0410 13:28:46.831471 18353 net.cpp:137] Memory required for data: 969521152
I0410 13:28:46.831480 18353 layer_factory.hpp:77] Creating layer relu4
I0410 13:28:46.831486 18353 net.cpp:84] Creating Layer relu4
I0410 13:28:46.831490 18353 net.cpp:406] relu4 <- conv4
I0410 13:28:46.831497 18353 net.cpp:367] relu4 -> conv4 (in-place)
I0410 13:28:46.831881 18353 net.cpp:122] Setting up relu4
I0410 13:28:46.831892 18353 net.cpp:129] Top shape: 128 384 13 13 (8306688)
I0410 13:28:46.831897 18353 net.cpp:137] Memory required for data: 1002747904
I0410 13:28:46.831900 18353 layer_factory.hpp:77] Creating layer conv5
I0410 13:28:46.831910 18353 net.cpp:84] Creating Layer conv5
I0410 13:28:46.831914 18353 net.cpp:406] conv5 <- conv4
I0410 13:28:46.831943 18353 net.cpp:380] conv5 -> conv5
I0410 13:28:46.841342 18353 net.cpp:122] Setting up conv5
I0410 13:28:46.841356 18353 net.cpp:129] Top shape: 128 256 13 13 (5537792)
I0410 13:28:46.841361 18353 net.cpp:137] Memory required for data: 1024899072
I0410 13:28:46.841372 18353 layer_factory.hpp:77] Creating layer relu5
I0410 13:28:46.841378 18353 net.cpp:84] Creating Layer relu5
I0410 13:28:46.841382 18353 net.cpp:406] relu5 <- conv5
I0410 13:28:46.841389 18353 net.cpp:367] relu5 -> conv5 (in-place)
I0410 13:28:46.841940 18353 net.cpp:122] Setting up relu5
I0410 13:28:46.841950 18353 net.cpp:129] Top shape: 128 256 13 13 (5537792)
I0410 13:28:46.841964 18353 net.cpp:137] Memory required for data: 1047050240
I0410 13:28:46.841969 18353 layer_factory.hpp:77] Creating layer pool5
I0410 13:28:46.841979 18353 net.cpp:84] Creating Layer pool5
I0410 13:28:46.841982 18353 net.cpp:406] pool5 <- conv5
I0410 13:28:46.841989 18353 net.cpp:380] pool5 -> pool5
I0410 13:28:46.842033 18353 net.cpp:122] Setting up pool5
I0410 13:28:46.842041 18353 net.cpp:129] Top shape: 128 256 6 6 (1179648)
I0410 13:28:46.842044 18353 net.cpp:137] Memory required for data: 1051768832
I0410 13:28:46.842047 18353 layer_factory.hpp:77] Creating layer fc6
I0410 13:28:46.842058 18353 net.cpp:84] Creating Layer fc6
I0410 13:28:46.842062 18353 net.cpp:406] fc6 <- pool5
I0410 13:28:46.842069 18353 net.cpp:380] fc6 -> fc6
I0410 13:28:46.866420 18353 net.cpp:122] Setting up fc6
I0410 13:28:46.866436 18353 net.cpp:129] Top shape: 128 256 (32768)
I0410 13:28:46.866441 18353 net.cpp:137] Memory required for data: 1051899904
I0410 13:28:46.866449 18353 layer_factory.hpp:77] Creating layer relu6
I0410 13:28:46.866457 18353 net.cpp:84] Creating Layer relu6
I0410 13:28:46.866462 18353 net.cpp:406] relu6 <- fc6
I0410 13:28:46.866468 18353 net.cpp:367] relu6 -> fc6 (in-place)
I0410 13:28:46.867090 18353 net.cpp:122] Setting up relu6
I0410 13:28:46.867100 18353 net.cpp:129] Top shape: 128 256 (32768)
I0410 13:28:46.867105 18353 net.cpp:137] Memory required for data: 1052030976
I0410 13:28:46.867108 18353 layer_factory.hpp:77] Creating layer drop6
I0410 13:28:46.867115 18353 net.cpp:84] Creating Layer drop6
I0410 13:28:46.867120 18353 net.cpp:406] drop6 <- fc6
I0410 13:28:46.867127 18353 net.cpp:367] drop6 -> fc6 (in-place)
I0410 13:28:46.867157 18353 net.cpp:122] Setting up drop6
I0410 13:28:46.867164 18353 net.cpp:129] Top shape: 128 256 (32768)
I0410 13:28:46.867168 18353 net.cpp:137] Memory required for data: 1052162048
I0410 13:28:46.867172 18353 layer_factory.hpp:77] Creating layer fc8
I0410 13:28:46.867179 18353 net.cpp:84] Creating Layer fc8
I0410 13:28:46.867183 18353 net.cpp:406] fc8 <- fc6
I0410 13:28:46.867190 18353 net.cpp:380] fc8 -> fc8
I0410 13:28:46.867763 18353 net.cpp:122] Setting up fc8
I0410 13:28:46.867769 18353 net.cpp:129] Top shape: 128 196 (25088)
I0410 13:28:46.867772 18353 net.cpp:137] Memory required for data: 1052262400
I0410 13:28:46.867779 18353 layer_factory.hpp:77] Creating layer loss
I0410 13:28:46.867787 18353 net.cpp:84] Creating Layer loss
I0410 13:28:46.867791 18353 net.cpp:406] loss <- fc8
I0410 13:28:46.867795 18353 net.cpp:406] loss <- label
I0410 13:28:46.867802 18353 net.cpp:380] loss -> loss
I0410 13:28:46.867811 18353 layer_factory.hpp:77] Creating layer loss
…
I0410 13:28:46.869184 18353 net.cpp:294] The NetState phase (1) differed from the phase (0) specified by a rule in layer train-data
I0410 13:28:46.869329 18353 net.cpp:51] Initializing net from parameters:
state {
phase: TEST
}
layer {
name: "val-data"
type: "Data"
top: "data"
top: "label"
include {
phase: TEST
}
transform_param {
crop_size: 227
mean_file: "/mnt/bigdisk/DIGITS-MAN-2/digits/jobs/20210407-214532-d396/mean.binaryproto"
}
data_param {
source: "/mnt/bigdisk/DIGITS-MAN-2/digits/jobs/20210407-214532-d396/val_db"
batch_size: 32
backend: LMDB
}
}
layer {
name: "conv1"
type: "Convolution"
bottom: "data"
top: "conv1"
param {
lr_mult: 1
decay_mult: 1
}
param {
lr_mult: 2
decay_mult: 0
}
convolution_param {
num_output: 96
kernel_size: 11
stride: 4
weight_filler {
type: "gaussian"
std: 0.01
}
bias_filler {
type: "constant"
value: 0
}
}
}
layer {
name: "relu1"
type: "ReLU"
bottom: "conv1"
top: "conv1"
}
layer {
name: "norm1"
type: "LRN"
bottom: "conv1"
top: "norm1"
lrn_param {
local_size: 5
alpha: 0.0001
beta: 0.75
}
}
layer {
name: "pool1"
type: "Pooling"
bottom: "norm1"
top: "pool1"
pooling_param {
pool: MAX
kernel_size: 3
stride: 2
}
}
layer {
name: "conv2"
type: "Convolution"
bottom: "pool1"
top: "conv2"
param {
lr_mult: 1
decay_mult: 1
}
param {
lr_mult: 2
decay_mult: 0
}
convolution_param {
num_output: 256
pad: 2
kernel_size: 5
group: 2
weight_filler {
type: "gaussian"
std: 0.01
}
bias_filler {
type: "constant"
value: 0.1
}
}
}
layer {
name: "relu2"
type: "ReLU"
bottom: "conv2"
top: "conv2"
}
layer {
name: "norm2"
type: "LRN"
bottom: "conv2"
top: "norm2"
lrn_param {
local_size: 5
alpha: 0.0001
beta: 0.75
}
}
layer {
name: "pool2"
type: "Pooling"
bottom: "norm2"
top: "pool2"
pooling_param {
pool: MAX
kernel_size: 3
stride: 2
}
}
layer {
name: "conv3"
type: "Convolution"
bottom: "pool2"
top: "conv3"
param {
lr_mult: 1
decay_mult: 1
}
param {
lr_mult: 2
decay_mult: 0
}
convolution_param {
num_output: 384
pad: 1
kernel_size: 3
weight_filler {
type: "gaussian"
std: 0.01
}
bias_filler {
type: "constant"
value: 0
}
}
}
layer {
name: "relu3"
type: "ReLU"
bottom: "conv3"
top: "conv3"
}
layer {
name: "conv4"
type: "Convolution"
bottom: "conv3"
top: "conv4"
param {
lr_mult: 1
decay_mult: 1
}
param {
lr_mult: 2
decay_mult: 0
}
convolution_param {
num_output: 384
pad: 1
kernel_size: 3
group: 2
weight_filler {
type: "gaussian"
std: 0.01
}
bias_filler {
type: "constant"
value: 0.1
}
}
}
layer {
name: "relu4"
type: "ReLU"
bottom: "conv4"
top: "conv4"
}
layer {
name: "conv5"
type: "Convolution"
bottom: "conv4"
top: "conv5"
param {
lr_mult: 1
decay_mult: 1
}
param {
lr_mult: 2
decay_mult: 0
}
convolution_param {
num_output: 256
pad: 1
kernel_size: 3
group: 2
weight_filler {
type: "gaussian"
std: 0.01
}
bias_filler {
type: "constant"
value: 0.1
}
}
}
layer {
name: "relu5"
type: "ReLU"
bottom: "conv5"
top: "conv5"
}
layer {
name: "pool5"
type: "Pooling"
bottom: "conv5"
top: "pool5"
pooling_param {
pool: MAX
kernel_size: 3
stride: 2
}
}
layer {
name: "fc6"
type: "InnerProduct"
bottom: "pool5"
top: "fc6"
param {
lr_mult: 1
decay_mult: 1
}
param {
lr_mult: 2
decay_mult: 0
}
inner_product_param {
num_output: 256
weight_filler {
type: "gaussian"
std: 0.005
}
bias_filler {
type: "constant"
value: 0.1
}
}
}
layer {
name: "relu6"
type: "ReLU"
bottom: "fc6"
top: "fc6"
}
layer {
name: "drop6"
type: "Dropout"
bottom: "fc6"
top: "fc6"
dropout_param {
dropout_ratio: 0.5
}
}
layer {
name: "fc8"
type: "InnerProduct"
bottom: "fc6"
top: "fc8"
param {
lr_mult: 1
decay_mult: 1
}
param {
lr_mult: 2
decay_mult: 0
}
inner_product_param {
num_output: 196
weight_filler {
type: "gaussian"
std: 0.01
}
bias_filler {
type: "constant"
value: 0
}
}
}
layer {
name: "accuracy"
type: "Accuracy"
bottom: "fc8"
bottom: "label"
top: "accuracy"
include {
phase: TEST
}
}
layer {
name: "loss"
type: "SoftmaxWithLoss"
bottom: "fc8"
bottom: "label"
top: "loss"
}
I0410 13:28:46.869428 18353 layer_factory.hpp:77] Creating layer val-data
I0410 13:28:46.879921 18353 db_lmdb.cpp:35] Opened lmdb /mnt/bigdisk/DIGITS-MAN-2/digits/jobs/20210407-214532-d396/val_db
I0410 13:28:46.880173 18353 net.cpp:84] Creating Layer val-data
I0410 13:28:46.880183 18353 net.cpp:380] val-data -> data
I0410 13:28:46.880195 18353 net.cpp:380] val-data -> label
I0410 13:28:46.880203 18353 data_transformer.cpp:25] Loading mean file from: /mnt/bigdisk/DIGITS-MAN-2/digits/jobs/20210407-214532-d396/mean.binaryproto
I0410 13:28:46.884544 18353 data_layer.cpp:45] output data size: 32,3,227,227
I0410 13:28:46.918799 18353 net.cpp:122] Setting up val-data
I0410 13:28:46.918821 18353 net.cpp:129] Top shape: 32 3 227 227 (4946784)
I0410 13:28:46.918826 18353 net.cpp:129] Top shape: 32 (32)
I0410 13:28:46.918830 18353 net.cpp:137] Memory required for data: 19787264
I0410 13:28:46.918838 18353 layer_factory.hpp:77] Creating layer label_val-data_1_split
I0410 13:28:46.918851 18353 net.cpp:84] Creating Layer label_val-data_1_split
I0410 13:28:46.918856 18353 net.cpp:406] label_val-data_1_split <- label
I0410 13:28:46.918864 18353 net.cpp:380] label_val-data_1_split -> label_val-data_1_split_0
I0410 13:28:46.918874 18353 net.cpp:380] label_val-data_1_split -> label_val-data_1_split_1
I0410 13:28:46.918977 18353 net.cpp:122] Setting up label_val-data_1_split
I0410 13:28:46.918983 18353 net.cpp:129] Top shape: 32 (32)
I0410 13:28:46.918987 18353 net.cpp:129] Top shape: 32 (32)
I0410 13:28:46.918992 18353 net.cpp:137] Memory required for data: 19787520
I0410 13:28:46.918994 18353 layer_factory.hpp:77] Creating layer conv1
I0410 13:28:46.919008 18353 net.cpp:84] Creating Layer conv1
I0410 13:28:46.919011 18353 net.cpp:406] conv1 <- data
I0410 13:28:46.919018 18353 net.cpp:380] conv1 -> conv1
I0410 13:28:46.921309 18353 net.cpp:122] Setting up conv1
I0410 13:28:46.921321 18353 net.cpp:129] Top shape: 32 96 55 55 (9292800)
I0410 13:28:46.921325 18353 net.cpp:137] Memory required for data: 56958720
I0410 13:28:46.921336 18353 layer_factory.hpp:77] Creating layer relu1
I0410 13:28:46.921344 18353 net.cpp:84] Creating Layer relu1
I0410 13:28:46.921368 18353 net.cpp:406] relu1 <- conv1
I0410 13:28:46.921375 18353 net.cpp:367] relu1 -> conv1 (in-place)
I0410 13:28:46.921885 18353 net.cpp:122] Setting up relu1
I0410 13:28:46.921896 18353 net.cpp:129] Top shape: 32 96 55 55 (9292800)
I0410 13:28:46.921900 18353 net.cpp:137] Memory required for data: 94129920
I0410 13:28:46.921905 18353 layer_factory.hpp:77] Creating layer norm1
I0410 13:28:46.921913 18353 net.cpp:84] Creating Layer norm1
I0410 13:28:46.921918 18353 net.cpp:406] norm1 <- conv1
I0410 13:28:46.921924 18353 net.cpp:380] norm1 -> norm1
I0410 13:28:46.922299 18353 net.cpp:122] Setting up norm1
I0410 13:28:46.922309 18353 net.cpp:129] Top shape: 32 96 55 55 (9292800)
I0410 13:28:46.922313 18353 net.cpp:137] Memory required for data: 131301120
I0410 13:28:46.922322 18353 layer_factory.hpp:77] Creating layer pool1
I0410 13:28:46.922331 18353 net.cpp:84] Creating Layer pool1
I0410 13:28:46.922335 18353 net.cpp:406] pool1 <- norm1
I0410 13:28:46.922341 18353 net.cpp:380] pool1 -> pool1
I0410 13:28:46.922379 18353 net.cpp:122] Setting up pool1
I0410 13:28:46.922384 18353 net.cpp:129] Top shape: 32 96 27 27 (2239488)
I0410 13:28:46.922389 18353 net.cpp:137] Memory required for data: 140259072
I0410 13:28:46.922391 18353 layer_factory.hpp:77] Creating layer conv2
I0410 13:28:46.922400 18353 net.cpp:84] Creating Layer conv2
I0410 13:28:46.922405 18353 net.cpp:406] conv2 <- pool1
I0410 13:28:46.922410 18353 net.cpp:380] conv2 -> conv2
I0410 13:28:46.930526 18353 net.cpp:122] Setting up conv2
I0410 13:28:46.930541 18353 net.cpp:129] Top shape: 32 256 27 27 (5971968)
I0410 13:28:46.930546 18353 net.cpp:137] Memory required for data: 164146944
I0410 13:28:46.930557 18353 layer_factory.hpp:77] Creating layer relu2
I0410 13:28:46.930565 18353 net.cpp:84] Creating Layer relu2
I0410 13:28:46.930569 18353 net.cpp:406] relu2 <- conv2
I0410 13:28:46.930577 18353 net.cpp:367] relu2 -> conv2 (in-place)
I0410 13:28:46.931138 18353 net.cpp:122] Setting up relu2
I0410 13:28:46.931147 18353 net.cpp:129] Top shape: 32 256 27 27 (5971968)
I0410 13:28:46.931151 18353 net.cpp:137] Memory required for data: 188034816
I0410 13:28:46.931155 18353 layer_factory.hpp:77] Creating layer norm2
I0410 13:28:46.931165 18353 net.cpp:84] Creating Layer norm2
I0410 13:28:46.931170 18353 net.cpp:406] norm2 <- conv2
I0410 13:28:46.931176 18353 net.cpp:380] norm2 -> norm2
I0410 13:28:46.931762 18353 net.cpp:122] Setting up norm2
I0410 13:28:46.931772 18353 net.cpp:129] Top shape: 32 256 27 27 (5971968)
I0410 13:28:46.931777 18353 net.cpp:137] Memory required for data: 211922688
I0410 13:28:46.931780 18353 layer_factory.hpp:77] Creating layer pool2
I0410 13:28:46.931788 18353 net.cpp:84] Creating Layer pool2
I0410 13:28:46.931792 18353 net.cpp:406] pool2 <- norm2
I0410 13:28:46.931799 18353 net.cpp:380] pool2 -> pool2
I0410 13:28:46.931833 18353 net.cpp:122] Setting up pool2
I0410 13:28:46.931840 18353 net.cpp:129] Top shape: 32 256 13 13 (1384448)
I0410 13:28:46.931843 18353 net.cpp:137] Memory required for data: 217460480
I0410 13:28:46.931847 18353 layer_factory.hpp:77] Creating layer conv3
I0410 13:28:46.931859 18353 net.cpp:84] Creating Layer conv3
I0410 13:28:46.931862 18353 net.cpp:406] conv3 <- pool2
I0410 13:28:46.931869 18353 net.cpp:380] conv3 -> conv3
I0410 13:28:46.942800 18353 net.cpp:122] Setting up conv3
I0410 13:28:46.942814 18353 net.cpp:129] Top shape: 32 384 13 13 (2076672)
I0410 13:28:46.942818 18353 net.cpp:137] Memory required for data: 225767168
I0410 13:28:46.942828 18353 layer_factory.hpp:77] Creating layer relu3
I0410 13:28:46.942835 18353 net.cpp:84] Creating Layer relu3
I0410 13:28:46.942839 18353 net.cpp:406] relu3 <- conv3
I0410 13:28:46.942848 18353 net.cpp:367] relu3 -> conv3 (in-place)
I0410 13:28:46.944607 18353 net.cpp:122] Setting up relu3
I0410 13:28:46.944618 18353 net.cpp:129] Top shape: 32 384 13 13 (2076672)
I0410 13:28:46.944622 18353 net.cpp:137] Memory required for data: 234073856
I0410 13:28:46.944626 18353 layer_factory.hpp:77] Creating layer conv4
I0410 13:28:46.944658 18353 net.cpp:84] Creating Layer conv4
I0410 13:28:46.944664 18353 net.cpp:406] conv4 <- conv3
I0410 13:28:46.944671 18353 net.cpp:380] conv4 -> conv4
I0410 13:28:46.955147 18353 net.cpp:122] Setting up conv4
I0410 13:28:46.955159 18353 net.cpp:129] Top shape: 32 384 13 13 (2076672)
I0410 13:28:46.955165 18353 net.cpp:137] Memory required for data: 242380544
I0410 13:28:46.955173 18353 layer_factory.hpp:77] Creating layer relu4
I0410 13:28:46.955180 18353 net.cpp:84] Creating Layer relu4
I0410 13:28:46.955184 18353 net.cpp:406] relu4 <- conv4
I0410 13:28:46.955190 18353 net.cpp:367] relu4 -> conv4 (in-place)
I0410 13:28:46.955739 18353 net.cpp:122] Setting up relu4
I0410 13:28:46.955749 18353 net.cpp:129] Top shape: 32 384 13 13 (2076672)
I0410 13:28:46.955754 18353 net.cpp:137] Memory required for data: 250687232
I0410 13:28:46.955757 18353 layer_factory.hpp:77] Creating layer conv5
I0410 13:28:46.955768 18353 net.cpp:84] Creating Layer conv5
I0410 13:28:46.955773 18353 net.cpp:406] conv5 <- conv4
I0410 13:28:46.955780 18353 net.cpp:380] conv5 -> conv5
I0410 13:28:46.965056 18353 net.cpp:122] Setting up conv5
I0410 13:28:46.965070 18353 net.cpp:129] Top shape: 32 256 13 13 (1384448)
I0410 13:28:46.965075 18353 net.cpp:137] Memory required for data: 256225024
I0410 13:28:46.965087 18353 layer_factory.hpp:77] Creating layer relu5
I0410 13:28:46.965095 18353 net.cpp:84] Creating Layer relu5
I0410 13:28:46.965098 18353 net.cpp:406] relu5 <- conv5
I0410 13:28:46.965106 18353 net.cpp:367] relu5 -> conv5 (in-place)
I0410 13:28:46.965648 18353 net.cpp:122] Setting up relu5
I0410 13:28:46.965658 18353 net.cpp:129] Top shape: 32 256 13 13 (1384448)
I0410 13:28:46.965662 18353 net.cpp:137] Memory required for data: 261762816
I0410 13:28:46.965667 18353 layer_factory.hpp:77] Creating layer pool5
I0410 13:28:46.965677 18353 net.cpp:84] Creating Layer pool5
I0410 13:28:46.965682 18353 net.cpp:406] pool5 <- conv5
I0410 13:28:46.965687 18353 net.cpp:380] pool5 -> pool5
I0410 13:28:46.965730 18353 net.cpp:122] Setting up pool5
I0410 13:28:46.965736 18353 net.cpp:129] Top shape: 32 256 6 6 (294912)
I0410 13:28:46.965740 18353 net.cpp:137] Memory required for data: 262942464
I0410 13:28:46.965744 18353 layer_factory.hpp:77] Creating layer fc6
I0410 13:28:46.965754 18353 net.cpp:84] Creating Layer fc6
I0410 13:28:46.965759 18353 net.cpp:406] fc6 <- pool5
I0410 13:28:46.965765 18353 net.cpp:380] fc6 -> fc6
I0410 13:28:46.989315 18353 net.cpp:122] Setting up fc6
I0410 13:28:46.989332 18353 net.cpp:129] Top shape: 32 256 (8192)
I0410 13:28:46.989336 18353 net.cpp:137] Memory required for data: 262975232
I0410 13:28:46.989346 18353 layer_factory.hpp:77] Creating layer relu6
I0410 13:28:46.989354 18353 net.cpp:84] Creating Layer relu6
I0410 13:28:46.989359 18353 net.cpp:406] relu6 <- fc6
I0410 13:28:46.989367 18353 net.cpp:367] relu6 -> fc6 (in-place)
I0410 13:28:46.990041 18353 net.cpp:122] Setting up relu6
I0410 13:28:46.990051 18353 net.cpp:129] Top shape: 32 256 (8192)
I0410 13:28:46.990054 18353 net.cpp:137] Memory required for data: 263008000
I0410 13:28:46.990058 18353 layer_factory.hpp:77] Creating layer drop6
I0410 13:28:46.990065 18353 net.cpp:84] Creating Layer drop6
I0410 13:28:46.990069 18353 net.cpp:406] drop6 <- fc6
I0410 13:28:46.990077 18353 net.cpp:367] drop6 -> fc6 (in-place)
I0410 13:28:46.990104 18353 net.cpp:122] Setting up drop6
I0410 13:28:46.990110 18353 net.cpp:129] Top shape: 32 256 (8192)
I0410 13:28:46.990113 18353 net.cpp:137] Memory required for data: 263040768
I0410 13:28:46.990118 18353 layer_factory.hpp:77] Creating layer fc8
I0410 13:28:46.990124 18353 net.cpp:84] Creating Layer fc8
I0410 13:28:46.990128 18353 net.cpp:406] fc8 <- fc6
I0410 13:28:46.990135 18353 net.cpp:380] fc8 -> fc8
I0410 13:28:46.990672 18353 net.cpp:122] Setting up fc8
I0410 13:28:46.990679 18353 net.cpp:129] Top shape: 32 196 (6272)
I0410 13:28:46.990682 18353 net.cpp:137] Memory required for data: 263065856
I0410 13:28:46.990689 18353 layer_factory.hpp:77] Creating layer fc8_fc8_0_split
I0410 13:28:46.990696 18353 net.cpp:84] Creating Layer fc8_fc8_0_split
I0410 13:28:46.990717 18353 net.cpp:406] fc8_fc8_0_split <- fc8
I0410 13:28:46.990723 18353 net.cpp:380] fc8_fc8_0_split -> fc8_fc8_0_split_0
I0410 13:28:46.990733 18353 net.cpp:380] fc8_fc8_0_split -> fc8_fc8_0_split_1
I0410 13:28:46.990767 18353 net.cpp:122] Setting up fc8_fc8_0_split
I0410 13:28:46.990773 18353 net.cpp:129] Top shape: 32 196 (6272)
I0410 13:28:46.990777 18353 net.cpp:129] Top shape: 32 196 (6272)
I0410 13:28:46.990780 18353 net.cpp:137] Memory required for data: 263116032
I0410 13:28:46.990783 18353 layer_factory.hpp:77] Creating layer accuracy
I0410 13:28:46.990790 18353 net.cpp:84] Creating Layer accuracy
I0410 13:28:46.990794 18353 net.cpp:406] accuracy <- fc8_fc8_0_split_0
I0410 13:28:46.990799 18353 net.cpp:406] accuracy <- label_val-data_1_split_0
I0410 13:28:46.990805 18353 net.cpp:380] accuracy -> accuracy
…
