…
I0409 21:27:10.651533 26212 net.cpp:294] The NetState phase (0) differed from the phase (1) specified by a rule in layer accuracy
I0409 21:27:10.651664 26212 net.cpp:51] Initializing net from parameters:
state {
phase: TRAIN
level: 0
stage: ""
}
layer {
name: "train-data"
type: "Data"
top: "data"
top: "label"
include {
phase: TRAIN
}
transform_param {
mirror: true
crop_size: 227
mean_file: "/mnt/bigdisk/DIGITS-MAN-2/digits/jobs/20210407-214532-d396/mean.binaryproto"
}
data_param {
source: "/mnt/bigdisk/DIGITS-MAN-2/digits/jobs/20210407-214532-d396/train_db"
batch_size: 128
backend: LMDB
}
}
layer {
name: "conv1"
type: "Convolution"
bottom: "data"
top: "conv1"
param {
lr_mult: 1
decay_mult: 1
}
param {
lr_mult: 2
decay_mult: 0
}
convolution_param {
num_output: 96
kernel_size: 11
stride: 4
weight_filler {
type: "gaussian"
std: 0.01
}
bias_filler {
type: "constant"
value: 0
}
}
}
layer {
name: "relu1"
type: "ReLU"
bottom: "conv1"
top: "conv1"
}
layer {
name: "norm1"
type: "LRN"
bottom: "conv1"
top: "norm1"
lrn_param {
local_size: 5
alpha: 0.0001
beta: 0.75
}
}
layer {
name: "pool1"
type: "Pooling"
bottom: "norm1"
top: "pool1"
pooling_param {
pool: MAX
kernel_size: 3
stride: 2
}
}
layer {
name: "conv2"
type: "Convolution"
bottom: "pool1"
top: "conv2"
param {
lr_mult: 1
decay_mult: 1
}
param {
lr_mult: 2
decay_mult: 0
}
convolution_param {
num_output: 256
pad: 2
kernel_size: 5
group: 2
weight_filler {
type: "gaussian"
std: 0.01
}
bias_filler {
type: "constant"
value: 0.1
}
}
}
layer {
name: "relu2"
type: "ReLU"
bottom: "conv2"
top: "conv2"
}
layer {
name: "norm2"
type: "LRN"
bottom: "conv2"
top: "norm2"
lrn_param {
local_size: 5
alpha: 0.0001
beta: 0.75
}
}
layer {
name: "pool2"
type: "Pooling"
bottom: "norm2"
top: "pool2"
pooling_param {
pool: MAX
kernel_size: 3
stride: 2
}
}
layer {
name: "conv3"
type: "Convolution"
bottom: "pool2"
top: "conv3"
param {
lr_mult: 1
decay_mult: 1
}
param {
lr_mult: 2
decay_mult: 0
}
convolution_param {
num_output: 384
pad: 1
kernel_size: 3
weight_filler {
type: "gaussian"
std: 0.01
}
bias_filler {
type: "constant"
value: 0
}
}
}
layer {
name: "relu3"
type: "ReLU"
bottom: "conv3"
top: "conv3"
}
layer {
name: "conv4"
type: "Convolution"
bottom: "conv3"
top: "conv4"
param {
lr_mult: 1
decay_mult: 1
}
param {
lr_mult: 2
decay_mult: 0
}
convolution_param {
num_output: 384
pad: 1
kernel_size: 3
group: 2
weight_filler {
type: "gaussian"
std: 0.01
}
bias_filler {
type: "constant"
value: 0.1
}
}
}
layer {
name: "relu4"
type: "ReLU"
bottom: "conv4"
top: "conv4"
}
layer {
name: "conv5"
type: "Convolution"
bottom: "conv4"
top: "conv5"
param {
lr_mult: 1
decay_mult: 1
}
param {
lr_mult: 2
decay_mult: 0
}
convolution_param {
num_output: 256
pad: 1
kernel_size: 3
group: 2
weight_filler {
type: "gaussian"
std: 0.01
}
bias_filler {
type: "constant"
value: 0.1
}
}
}
layer {
name: "relu5"
type: "ReLU"
bottom: "conv5"
top: "conv5"
}
layer {
name: "pool5"
type: "Pooling"
bottom: "conv5"
top: "pool5"
pooling_param {
pool: MAX
kernel_size: 3
stride: 2
}
}
layer {
name: "fc6"
type: "InnerProduct"
bottom: "pool5"
top: "fc6"
param {
lr_mult: 1
decay_mult: 1
}
param {
lr_mult: 2
decay_mult: 0
}
inner_product_param {
num_output: 2048
weight_filler {
type: "gaussian"
std: 0.005
}
bias_filler {
type: "constant"
value: 0.1
}
}
}
layer {
name: "relu6"
type: "ReLU"
bottom: "fc6"
top: "fc6"
}
layer {
name: "drop6"
type: "Dropout"
bottom: "fc6"
top: "fc6"
dropout_param {
dropout_ratio: 0.5
}
}
layer {
name: "fc8"
type: "InnerProduct"
bottom: "fc6"
top: "fc8"
param {
lr_mult: 1
decay_mult: 1
}
param {
lr_mult: 2
decay_mult: 0
}
inner_product_param {
num_output: 196
weight_filler {
type: "gaussian"
std: 0.01
}
bias_filler {
type: "constant"
value: 0
}
}
}
layer {
name: "loss"
type: "SoftmaxWithLoss"
bottom: "fc8"
bottom: "label"
top: "loss"
}
I0409 21:27:10.651747 26212 layer_factory.hpp:77] Creating layer train-data
I0409 21:27:10.653405 26212 db_lmdb.cpp:35] Opened lmdb /mnt/bigdisk/DIGITS-MAN-2/digits/jobs/20210407-214532-d396/train_db
I0409 21:27:10.653612 26212 net.cpp:84] Creating Layer train-data
I0409 21:27:10.653622 26212 net.cpp:380] train-data -> data
I0409 21:27:10.653642 26212 net.cpp:380] train-data -> label
I0409 21:27:10.653654 26212 data_transformer.cpp:25] Loading mean file from: /mnt/bigdisk/DIGITS-MAN-2/digits/jobs/20210407-214532-d396/mean.binaryproto
I0409 21:27:10.658577 26212 data_layer.cpp:45] output data size: 128,3,227,227
I0409 21:27:10.786224 26212 net.cpp:122] Setting up train-data
I0409 21:27:10.786248 26212 net.cpp:129] Top shape: 128 3 227 227 (19787136)
I0409 21:27:10.786254 26212 net.cpp:129] Top shape: 128 (128)
I0409 21:27:10.786257 26212 net.cpp:137] Memory required for data: 79149056
I0409 21:27:10.786268 26212 layer_factory.hpp:77] Creating layer conv1
I0409 21:27:10.786290 26212 net.cpp:84] Creating Layer conv1
I0409 21:27:10.786295 26212 net.cpp:406] conv1 <- data
I0409 21:27:10.786307 26212 net.cpp:380] conv1 -> conv1
I0409 21:27:11.467214 26212 net.cpp:122] Setting up conv1
I0409 21:27:11.467239 26212 net.cpp:129] Top shape: 128 96 55 55 (37171200)
I0409 21:27:11.467245 26212 net.cpp:137] Memory required for data: 227833856
I0409 21:27:11.467267 26212 layer_factory.hpp:77] Creating layer relu1
I0409 21:27:11.467278 26212 net.cpp:84] Creating Layer relu1
I0409 21:27:11.467283 26212 net.cpp:406] relu1 <- conv1
I0409 21:27:11.467288 26212 net.cpp:367] relu1 -> conv1 (in-place)
I0409 21:27:11.467609 26212 net.cpp:122] Setting up relu1
I0409 21:27:11.467622 26212 net.cpp:129] Top shape: 128 96 55 55 (37171200)
I0409 21:27:11.467626 26212 net.cpp:137] Memory required for data: 376518656
I0409 21:27:11.467631 26212 layer_factory.hpp:77] Creating layer norm1
I0409 21:27:11.467641 26212 net.cpp:84] Creating Layer norm1
I0409 21:27:11.467645 26212 net.cpp:406] norm1 <- conv1
I0409 21:27:11.467651 26212 net.cpp:380] norm1 -> norm1
I0409 21:27:11.468145 26212 net.cpp:122] Setting up norm1
I0409 21:27:11.468155 26212 net.cpp:129] Top shape: 128 96 55 55 (37171200)
I0409 21:27:11.468159 26212 net.cpp:137] Memory required for data: 525203456
I0409 21:27:11.468163 26212 layer_factory.hpp:77] Creating layer pool1
I0409 21:27:11.468173 26212 net.cpp:84] Creating Layer pool1
I0409 21:27:11.468176 26212 net.cpp:406] pool1 <- norm1
I0409 21:27:11.468181 26212 net.cpp:380] pool1 -> pool1
I0409 21:27:11.468245 26212 net.cpp:122] Setting up pool1
I0409 21:27:11.468251 26212 net.cpp:129] Top shape: 128 96 27 27 (8957952)
I0409 21:27:11.468255 26212 net.cpp:137] Memory required for data: 561035264
I0409 21:27:11.468259 26212 layer_factory.hpp:77] Creating layer conv2
I0409 21:27:11.468271 26212 net.cpp:84] Creating Layer conv2
I0409 21:27:11.468274 26212 net.cpp:406] conv2 <- pool1
I0409 21:27:11.468281 26212 net.cpp:380] conv2 -> conv2
I0409 21:27:11.475793 26212 net.cpp:122] Setting up conv2
I0409 21:27:11.475811 26212 net.cpp:129] Top shape: 128 256 27 27 (23887872)
I0409 21:27:11.475814 26212 net.cpp:137] Memory required for data: 656586752
I0409 21:27:11.475826 26212 layer_factory.hpp:77] Creating layer relu2
I0409 21:27:11.475833 26212 net.cpp:84] Creating Layer relu2
I0409 21:27:11.475837 26212 net.cpp:406] relu2 <- conv2
I0409 21:27:11.475843 26212 net.cpp:367] relu2 -> conv2 (in-place)
I0409 21:27:11.476351 26212 net.cpp:122] Setting up relu2
I0409 21:27:11.476362 26212 net.cpp:129] Top shape: 128 256 27 27 (23887872)
I0409 21:27:11.476366 26212 net.cpp:137] Memory required for data: 752138240
I0409 21:27:11.476372 26212 layer_factory.hpp:77] Creating layer norm2
I0409 21:27:11.476382 26212 net.cpp:84] Creating Layer norm2
I0409 21:27:11.476385 26212 net.cpp:406] norm2 <- conv2
I0409 21:27:11.476393 26212 net.cpp:380] norm2 -> norm2
I0409 21:27:11.476724 26212 net.cpp:122] Setting up norm2
I0409 21:27:11.476734 26212 net.cpp:129] Top shape: 128 256 27 27 (23887872)
I0409 21:27:11.476738 26212 net.cpp:137] Memory required for data: 847689728
I0409 21:27:11.476745 26212 layer_factory.hpp:77] Creating layer pool2
I0409 21:27:11.476755 26212 net.cpp:84] Creating Layer pool2
I0409 21:27:11.476760 26212 net.cpp:406] pool2 <- norm2
I0409 21:27:11.476765 26212 net.cpp:380] pool2 -> pool2
I0409 21:27:11.476796 26212 net.cpp:122] Setting up pool2
I0409 21:27:11.476801 26212 net.cpp:129] Top shape: 128 256 13 13 (5537792)
I0409 21:27:11.476805 26212 net.cpp:137] Memory required for data: 869840896
I0409 21:27:11.476809 26212 layer_factory.hpp:77] Creating layer conv3
I0409 21:27:11.476819 26212 net.cpp:84] Creating Layer conv3
I0409 21:27:11.476821 26212 net.cpp:406] conv3 <- pool2
I0409 21:27:11.476826 26212 net.cpp:380] conv3 -> conv3
I0409 21:27:11.487946 26212 net.cpp:122] Setting up conv3
I0409 21:27:11.487962 26212 net.cpp:129] Top shape: 128 384 13 13 (8306688)
I0409 21:27:11.487967 26212 net.cpp:137] Memory required for data: 903067648
I0409 21:27:11.487977 26212 layer_factory.hpp:77] Creating layer relu3
I0409 21:27:11.487984 26212 net.cpp:84] Creating Layer relu3
I0409 21:27:11.487988 26212 net.cpp:406] relu3 <- conv3
I0409 21:27:11.487994 26212 net.cpp:367] relu3 -> conv3 (in-place)
I0409 21:27:11.490367 26212 net.cpp:122] Setting up relu3
I0409 21:27:11.490377 26212 net.cpp:129] Top shape: 128 384 13 13 (8306688)
I0409 21:27:11.490382 26212 net.cpp:137] Memory required for data: 936294400
I0409 21:27:11.490387 26212 layer_factory.hpp:77] Creating layer conv4
I0409 21:27:11.490399 26212 net.cpp:84] Creating Layer conv4
I0409 21:27:11.490406 26212 net.cpp:406] conv4 <- conv3
I0409 21:27:11.490417 26212 net.cpp:380] conv4 -> conv4
I0409 21:27:11.508656 26212 net.cpp:122] Setting up conv4
I0409 21:27:11.508672 26212 net.cpp:129] Top shape: 128 384 13 13 (8306688)
I0409 21:27:11.508675 26212 net.cpp:137] Memory required for data: 969521152
I0409 21:27:11.508684 26212 layer_factory.hpp:77] Creating layer relu4
I0409 21:27:11.508692 26212 net.cpp:84] Creating Layer relu4
I0409 21:27:11.508697 26212 net.cpp:406] relu4 <- conv4
I0409 21:27:11.508702 26212 net.cpp:367] relu4 -> conv4 (in-place)
I0409 21:27:11.509075 26212 net.cpp:122] Setting up relu4
I0409 21:27:11.509084 26212 net.cpp:129] Top shape: 128 384 13 13 (8306688)
I0409 21:27:11.509088 26212 net.cpp:137] Memory required for data: 1002747904
I0409 21:27:11.509091 26212 layer_factory.hpp:77] Creating layer conv5
I0409 21:27:11.509104 26212 net.cpp:84] Creating Layer conv5
I0409 21:27:11.509107 26212 net.cpp:406] conv5 <- conv4
I0409 21:27:11.509131 26212 net.cpp:380] conv5 -> conv5
I0409 21:27:11.518518 26212 net.cpp:122] Setting up conv5
I0409 21:27:11.518537 26212 net.cpp:129] Top shape: 128 256 13 13 (5537792)
I0409 21:27:11.518540 26212 net.cpp:137] Memory required for data: 1024899072
I0409 21:27:11.518555 26212 layer_factory.hpp:77] Creating layer relu5
I0409 21:27:11.518566 26212 net.cpp:84] Creating Layer relu5
I0409 21:27:11.518571 26212 net.cpp:406] relu5 <- conv5
I0409 21:27:11.518579 26212 net.cpp:367] relu5 -> conv5 (in-place)
I0409 21:27:11.519124 26212 net.cpp:122] Setting up relu5
I0409 21:27:11.519134 26212 net.cpp:129] Top shape: 128 256 13 13 (5537792)
I0409 21:27:11.519137 26212 net.cpp:137] Memory required for data: 1047050240
I0409 21:27:11.519141 26212 layer_factory.hpp:77] Creating layer pool5
I0409 21:27:11.519150 26212 net.cpp:84] Creating Layer pool5
I0409 21:27:11.519153 26212 net.cpp:406] pool5 <- conv5
I0409 21:27:11.519160 26212 net.cpp:380] pool5 -> pool5
I0409 21:27:11.519203 26212 net.cpp:122] Setting up pool5
I0409 21:27:11.519210 26212 net.cpp:129] Top shape: 128 256 6 6 (1179648)
I0409 21:27:11.519213 26212 net.cpp:137] Memory required for data: 1051768832
I0409 21:27:11.519217 26212 layer_factory.hpp:77] Creating layer fc6
I0409 21:27:11.519227 26212 net.cpp:84] Creating Layer fc6
I0409 21:27:11.519230 26212 net.cpp:406] fc6 <- pool5
I0409 21:27:11.519237 26212 net.cpp:380] fc6 -> fc6
I0409 21:27:11.715147 26212 net.cpp:122] Setting up fc6
I0409 21:27:11.715169 26212 net.cpp:129] Top shape: 128 2048 (262144)
I0409 21:27:11.715173 26212 net.cpp:137] Memory required for data: 1052817408
I0409 21:27:11.715184 26212 layer_factory.hpp:77] Creating layer relu6
I0409 21:27:11.715193 26212 net.cpp:84] Creating Layer relu6
I0409 21:27:11.715198 26212 net.cpp:406] relu6 <- fc6
I0409 21:27:11.715204 26212 net.cpp:367] relu6 -> fc6 (in-place)
I0409 21:27:11.718268 26212 net.cpp:122] Setting up relu6
I0409 21:27:11.718278 26212 net.cpp:129] Top shape: 128 2048 (262144)
I0409 21:27:11.718282 26212 net.cpp:137] Memory required for data: 1053865984
I0409 21:27:11.718286 26212 layer_factory.hpp:77] Creating layer drop6
I0409 21:27:11.718293 26212 net.cpp:84] Creating Layer drop6
I0409 21:27:11.718297 26212 net.cpp:406] drop6 <- fc6
I0409 21:27:11.718304 26212 net.cpp:367] drop6 -> fc6 (in-place)
I0409 21:27:11.718333 26212 net.cpp:122] Setting up drop6
I0409 21:27:11.718338 26212 net.cpp:129] Top shape: 128 2048 (262144)
I0409 21:27:11.718341 26212 net.cpp:137] Memory required for data: 1054914560
I0409 21:27:11.718345 26212 layer_factory.hpp:77] Creating layer fc8
I0409 21:27:11.718353 26212 net.cpp:84] Creating Layer fc8
I0409 21:27:11.718358 26212 net.cpp:406] fc8 <- fc6
I0409 21:27:11.718362 26212 net.cpp:380] fc8 -> fc8
I0409 21:27:11.722781 26212 net.cpp:122] Setting up fc8
I0409 21:27:11.722791 26212 net.cpp:129] Top shape: 128 196 (25088)
I0409 21:27:11.722795 26212 net.cpp:137] Memory required for data: 1055014912
I0409 21:27:11.722801 26212 layer_factory.hpp:77] Creating layer loss
I0409 21:27:11.722808 26212 net.cpp:84] Creating Layer loss
I0409 21:27:11.722812 26212 net.cpp:406] loss <- fc8
I0409 21:27:11.722817 26212 net.cpp:406] loss <- label
I0409 21:27:11.722824 26212 net.cpp:380] loss -> loss
I0409 21:27:11.722834 26212 layer_factory.hpp:77] Creating layer loss
…
I0409 21:27:11.764245 26212 net.cpp:294] The NetState phase (1) differed from the phase (0) specified by a rule in layer train-data
I0409 21:27:11.764637 26212 net.cpp:51] Initializing net from parameters:
state {
phase: TEST
}
layer {
name: "val-data"
type: "Data"
top: "data"
top: "label"
include {
phase: TEST
}
transform_param {
crop_size: 227
mean_file: "/mnt/bigdisk/DIGITS-MAN-2/digits/jobs/20210407-214532-d396/mean.binaryproto"
}
data_param {
source: "/mnt/bigdisk/DIGITS-MAN-2/digits/jobs/20210407-214532-d396/val_db"
batch_size: 32
backend: LMDB
}
}
layer {
name: "conv1"
type: "Convolution"
bottom: "data"
top: "conv1"
param {
lr_mult: 1
decay_mult: 1
}
param {
lr_mult: 2
decay_mult: 0
}
convolution_param {
num_output: 96
kernel_size: 11
stride: 4
weight_filler {
type: "gaussian"
std: 0.01
}
bias_filler {
type: "constant"
value: 0
}
}
}
layer {
name: "relu1"
type: "ReLU"
bottom: "conv1"
top: "conv1"
}
layer {
name: "norm1"
type: "LRN"
bottom: "conv1"
top: "norm1"
lrn_param {
local_size: 5
alpha: 0.0001
beta: 0.75
}
}
layer {
name: "pool1"
type: "Pooling"
bottom: "norm1"
top: "pool1"
pooling_param {
pool: MAX
kernel_size: 3
stride: 2
}
}
layer {
name: "conv2"
type: "Convolution"
bottom: "pool1"
top: "conv2"
param {
lr_mult: 1
decay_mult: 1
}
param {
lr_mult: 2
decay_mult: 0
}
convolution_param {
num_output: 256
pad: 2
kernel_size: 5
group: 2
weight_filler {
type: "gaussian"
std: 0.01
}
bias_filler {
type: "constant"
value: 0.1
}
}
}
layer {
name: "relu2"
type: "ReLU"
bottom: "conv2"
top: "conv2"
}
layer {
name: "norm2"
type: "LRN"
bottom: "conv2"
top: "norm2"
lrn_param {
local_size: 5
alpha: 0.0001
beta: 0.75
}
}
layer {
name: "pool2"
type: "Pooling"
bottom: "norm2"
top: "pool2"
pooling_param {
pool: MAX
kernel_size: 3
stride: 2
}
}
layer {
name: "conv3"
type: "Convolution"
bottom: "pool2"
top: "conv3"
param {
lr_mult: 1
decay_mult: 1
}
param {
lr_mult: 2
decay_mult: 0
}
convolution_param {
num_output: 384
pad: 1
kernel_size: 3
weight_filler {
type: "gaussian"
std: 0.01
}
bias_filler {
type: "constant"
value: 0
}
}
}
layer {
name: "relu3"
type: "ReLU"
bottom: "conv3"
top: "conv3"
}
layer {
name: "conv4"
type: "Convolution"
bottom: "conv3"
top: "conv4"
param {
lr_mult: 1
decay_mult: 1
}
param {
lr_mult: 2
decay_mult: 0
}
convolution_param {
num_output: 384
pad: 1
kernel_size: 3
group: 2
weight_filler {
type: "gaussian"
std: 0.01
}
bias_filler {
type: "constant"
value: 0.1
}
}
}
layer {
name: "relu4"
type: "ReLU"
bottom: "conv4"
top: "conv4"
}
layer {
name: "conv5"
type: "Convolution"
bottom: "conv4"
top: "conv5"
param {
lr_mult: 1
decay_mult: 1
}
param {
lr_mult: 2
decay_mult: 0
}
convolution_param {
num_output: 256
pad: 1
kernel_size: 3
group: 2
weight_filler {
type: "gaussian"
std: 0.01
}
bias_filler {
type: "constant"
value: 0.1
}
}
}
layer {
name: "relu5"
type: "ReLU"
bottom: "conv5"
top: "conv5"
}
layer {
name: "pool5"
type: "Pooling"
bottom: "conv5"
top: "pool5"
pooling_param {
pool: MAX
kernel_size: 3
stride: 2
}
}
layer {
name: "fc6"
type: "InnerProduct"
bottom: "pool5"
top: "fc6"
param {
lr_mult: 1
decay_mult: 1
}
param {
lr_mult: 2
decay_mult: 0
}
inner_product_param {
num_output: 2048
weight_filler {
type: "gaussian"
std: 0.005
}
bias_filler {
type: "constant"
value: 0.1
}
}
}
layer {
name: "relu6"
type: "ReLU"
bottom: "fc6"
top: "fc6"
}
layer {
name: "drop6"
type: "Dropout"
bottom: "fc6"
top: "fc6"
dropout_param {
dropout_ratio: 0.5
}
}
layer {
name: "fc8"
type: "InnerProduct"
bottom: "fc6"
top: "fc8"
param {
lr_mult: 1
decay_mult: 1
}
param {
lr_mult: 2
decay_mult: 0
}
inner_product_param {
num_output: 196
weight_filler {
type: "gaussian"
std: 0.01
}
bias_filler {
type: "constant"
value: 0
}
}
}
layer {
name: "accuracy"
type: "Accuracy"
bottom: "fc8"
bottom: "label"
top: "accuracy"
include {
phase: TEST
}
}
layer {
name: "loss"
type: "SoftmaxWithLoss"
bottom: "fc8"
bottom: "label"
top: "loss"
}
I0409 21:27:11.764869 26212 layer_factory.hpp:77] Creating layer val-data
I0409 21:27:12.016528 26212 db_lmdb.cpp:35] Opened lmdb /mnt/bigdisk/DIGITS-MAN-2/digits/jobs/20210407-214532-d396/val_db
I0409 21:27:12.017174 26212 net.cpp:84] Creating Layer val-data
I0409 21:27:12.017206 26212 net.cpp:380] val-data -> data
I0409 21:27:12.017230 26212 net.cpp:380] val-data -> label
I0409 21:27:12.017247 26212 data_transformer.cpp:25] Loading mean file from: /mnt/bigdisk/DIGITS-MAN-2/digits/jobs/20210407-214532-d396/mean.binaryproto
I0409 21:27:12.051597 26212 data_layer.cpp:45] output data size: 32,3,227,227
I0409 21:27:12.095098 26212 net.cpp:122] Setting up val-data
I0409 21:27:12.095120 26212 net.cpp:129] Top shape: 32 3 227 227 (4946784)
I0409 21:27:12.095126 26212 net.cpp:129] Top shape: 32 (32)
I0409 21:27:12.095129 26212 net.cpp:137] Memory required for data: 19787264
I0409 21:27:12.095136 26212 layer_factory.hpp:77] Creating layer label_val-data_1_split
I0409 21:27:12.095149 26212 net.cpp:84] Creating Layer label_val-data_1_split
I0409 21:27:12.095155 26212 net.cpp:406] label_val-data_1_split <- label
I0409 21:27:12.095161 26212 net.cpp:380] label_val-data_1_split -> label_val-data_1_split_0
I0409 21:27:12.095173 26212 net.cpp:380] label_val-data_1_split -> label_val-data_1_split_1
I0409 21:27:12.095218 26212 net.cpp:122] Setting up label_val-data_1_split
I0409 21:27:12.095224 26212 net.cpp:129] Top shape: 32 (32)
I0409 21:27:12.095230 26212 net.cpp:129] Top shape: 32 (32)
I0409 21:27:12.095233 26212 net.cpp:137] Memory required for data: 19787520
I0409 21:27:12.095237 26212 layer_factory.hpp:77] Creating layer conv1
I0409 21:27:12.095250 26212 net.cpp:84] Creating Layer conv1
I0409 21:27:12.095254 26212 net.cpp:406] conv1 <- data
I0409 21:27:12.095261 26212 net.cpp:380] conv1 -> conv1
I0409 21:27:12.099725 26212 net.cpp:122] Setting up conv1
I0409 21:27:12.099742 26212 net.cpp:129] Top shape: 32 96 55 55 (9292800)
I0409 21:27:12.099748 26212 net.cpp:137] Memory required for data: 56958720
I0409 21:27:12.099762 26212 layer_factory.hpp:77] Creating layer relu1
I0409 21:27:12.099772 26212 net.cpp:84] Creating Layer relu1
I0409 21:27:12.099803 26212 net.cpp:406] relu1 <- conv1
I0409 21:27:12.099812 26212 net.cpp:367] relu1 -> conv1 (in-place)
I0409 21:27:12.100543 26212 net.cpp:122] Setting up relu1
I0409 21:27:12.100558 26212 net.cpp:129] Top shape: 32 96 55 55 (9292800)
I0409 21:27:12.100562 26212 net.cpp:137] Memory required for data: 94129920
I0409 21:27:12.100569 26212 layer_factory.hpp:77] Creating layer norm1
I0409 21:27:12.100581 26212 net.cpp:84] Creating Layer norm1
I0409 21:27:12.100587 26212 net.cpp:406] norm1 <- conv1
I0409 21:27:12.100595 26212 net.cpp:380] norm1 -> norm1
I0409 21:27:12.101099 26212 net.cpp:122] Setting up norm1
I0409 21:27:12.101111 26212 net.cpp:129] Top shape: 32 96 55 55 (9292800)
I0409 21:27:12.101116 26212 net.cpp:137] Memory required for data: 131301120
I0409 21:27:12.101121 26212 layer_factory.hpp:77] Creating layer pool1
I0409 21:27:12.101131 26212 net.cpp:84] Creating Layer pool1
I0409 21:27:12.101136 26212 net.cpp:406] pool1 <- norm1
I0409 21:27:12.101145 26212 net.cpp:380] pool1 -> pool1
I0409 21:27:12.101188 26212 net.cpp:122] Setting up pool1
I0409 21:27:12.101197 26212 net.cpp:129] Top shape: 32 96 27 27 (2239488)
I0409 21:27:12.101202 26212 net.cpp:137] Memory required for data: 140259072
I0409 21:27:12.101207 26212 layer_factory.hpp:77] Creating layer conv2
I0409 21:27:12.101218 26212 net.cpp:84] Creating Layer conv2
I0409 21:27:12.101223 26212 net.cpp:406] conv2 <- pool1
I0409 21:27:12.101231 26212 net.cpp:380] conv2 -> conv2
I0409 21:27:12.114305 26212 net.cpp:122] Setting up conv2
I0409 21:27:12.114331 26212 net.cpp:129] Top shape: 32 256 27 27 (5971968)
I0409 21:27:12.114337 26212 net.cpp:137] Memory required for data: 164146944
I0409 21:27:12.114354 26212 layer_factory.hpp:77] Creating layer relu2
I0409 21:27:12.114367 26212 net.cpp:84] Creating Layer relu2
I0409 21:27:12.114373 26212 net.cpp:406] relu2 <- conv2
I0409 21:27:12.114387 26212 net.cpp:367] relu2 -> conv2 (in-place)
I0409 21:27:12.116688 26212 net.cpp:122] Setting up relu2
I0409 21:27:12.116705 26212 net.cpp:129] Top shape: 32 256 27 27 (5971968)
I0409 21:27:12.116710 26212 net.cpp:137] Memory required for data: 188034816
I0409 21:27:12.116716 26212 layer_factory.hpp:77] Creating layer norm2
I0409 21:27:12.116732 26212 net.cpp:84] Creating Layer norm2
I0409 21:27:12.116739 26212 net.cpp:406] norm2 <- conv2
I0409 21:27:12.116748 26212 net.cpp:380] norm2 -> norm2
I0409 21:27:12.117571 26212 net.cpp:122] Setting up norm2
I0409 21:27:12.117588 26212 net.cpp:129] Top shape: 32 256 27 27 (5971968)
I0409 21:27:12.117594 26212 net.cpp:137] Memory required for data: 211922688
I0409 21:27:12.117599 26212 layer_factory.hpp:77] Creating layer pool2
I0409 21:27:12.117610 26212 net.cpp:84] Creating Layer pool2
I0409 21:27:12.117616 26212 net.cpp:406] pool2 <- norm2
I0409 21:27:12.117624 26212 net.cpp:380] pool2 -> pool2
I0409 21:27:12.117674 26212 net.cpp:122] Setting up pool2
I0409 21:27:12.117682 26212 net.cpp:129] Top shape: 32 256 13 13 (1384448)
I0409 21:27:12.117686 26212 net.cpp:137] Memory required for data: 217460480
I0409 21:27:12.117692 26212 layer_factory.hpp:77] Creating layer conv3
I0409 21:27:12.117707 26212 net.cpp:84] Creating Layer conv3
I0409 21:27:12.117712 26212 net.cpp:406] conv3 <- pool2
I0409 21:27:12.117722 26212 net.cpp:380] conv3 -> conv3
I0409 21:27:12.138408 26212 net.cpp:122] Setting up conv3
I0409 21:27:12.138432 26212 net.cpp:129] Top shape: 32 384 13 13 (2076672)
I0409 21:27:12.138437 26212 net.cpp:137] Memory required for data: 225767168
I0409 21:27:12.138453 26212 layer_factory.hpp:77] Creating layer relu3
I0409 21:27:12.138464 26212 net.cpp:84] Creating Layer relu3
I0409 21:27:12.138470 26212 net.cpp:406] relu3 <- conv3
I0409 21:27:12.138478 26212 net.cpp:367] relu3 -> conv3 (in-place)
I0409 21:27:12.140584 26212 net.cpp:122] Setting up relu3
I0409 21:27:12.140600 26212 net.cpp:129] Top shape: 32 384 13 13 (2076672)
I0409 21:27:12.140605 26212 net.cpp:137] Memory required for data: 234073856
I0409 21:27:12.140610 26212 layer_factory.hpp:77] Creating layer conv4
I0409 21:27:12.140648 26212 net.cpp:84] Creating Layer conv4
I0409 21:27:12.140655 26212 net.cpp:406] conv4 <- conv3
I0409 21:27:12.140663 26212 net.cpp:380] conv4 -> conv4
I0409 21:27:12.157246 26212 net.cpp:122] Setting up conv4
I0409 21:27:12.157272 26212 net.cpp:129] Top shape: 32 384 13 13 (2076672)
I0409 21:27:12.157279 26212 net.cpp:137] Memory required for data: 242380544
I0409 21:27:12.157290 26212 layer_factory.hpp:77] Creating layer relu4
I0409 21:27:12.157301 26212 net.cpp:84] Creating Layer relu4
I0409 21:27:12.157306 26212 net.cpp:406] relu4 <- conv4
I0409 21:27:12.157315 26212 net.cpp:367] relu4 -> conv4 (in-place)
I0409 21:27:12.168238 26212 net.cpp:122] Setting up relu4
I0409 21:27:12.168257 26212 net.cpp:129] Top shape: 32 384 13 13 (2076672)
I0409 21:27:12.168262 26212 net.cpp:137] Memory required for data: 250687232
I0409 21:27:12.168267 26212 layer_factory.hpp:77] Creating layer conv5
I0409 21:27:12.168283 26212 net.cpp:84] Creating Layer conv5
I0409 21:27:12.168289 26212 net.cpp:406] conv5 <- conv4
I0409 21:27:12.168298 26212 net.cpp:380] conv5 -> conv5
I0409 21:27:12.183733 26212 net.cpp:122] Setting up conv5
I0409 21:27:12.183753 26212 net.cpp:129] Top shape: 32 256 13 13 (1384448)
I0409 21:27:12.183756 26212 net.cpp:137] Memory required for data: 256225024
I0409 21:27:12.183771 26212 layer_factory.hpp:77] Creating layer relu5
I0409 21:27:12.183784 26212 net.cpp:84] Creating Layer relu5
I0409 21:27:12.183789 26212 net.cpp:406] relu5 <- conv5
I0409 21:27:12.183796 26212 net.cpp:367] relu5 -> conv5 (in-place)
I0409 21:27:12.184439 26212 net.cpp:122] Setting up relu5
I0409 21:27:12.184451 26212 net.cpp:129] Top shape: 32 256 13 13 (1384448)
I0409 21:27:12.184456 26212 net.cpp:137] Memory required for data: 261762816
I0409 21:27:12.184460 26212 layer_factory.hpp:77] Creating layer pool5
I0409 21:27:12.184473 26212 net.cpp:84] Creating Layer pool5
I0409 21:27:12.184478 26212 net.cpp:406] pool5 <- conv5
I0409 21:27:12.184484 26212 net.cpp:380] pool5 -> pool5
I0409 21:27:12.184533 26212 net.cpp:122] Setting up pool5
I0409 21:27:12.184540 26212 net.cpp:129] Top shape: 32 256 6 6 (294912)
I0409 21:27:12.184543 26212 net.cpp:137] Memory required for data: 262942464
I0409 21:27:12.184547 26212 layer_factory.hpp:77] Creating layer fc6
I0409 21:27:12.184557 26212 net.cpp:84] Creating Layer fc6
I0409 21:27:12.184561 26212 net.cpp:406] fc6 <- pool5
I0409 21:27:12.184569 26212 net.cpp:380] fc6 -> fc6
I0409 21:27:12.386214 26212 net.cpp:122] Setting up fc6
I0409 21:27:12.386235 26212 net.cpp:129] Top shape: 32 2048 (65536)
I0409 21:27:12.386238 26212 net.cpp:137] Memory required for data: 263204608
I0409 21:27:12.386248 26212 layer_factory.hpp:77] Creating layer relu6
I0409 21:27:12.386260 26212 net.cpp:84] Creating Layer relu6
I0409 21:27:12.386265 26212 net.cpp:406] relu6 <- fc6
I0409 21:27:12.386270 26212 net.cpp:367] relu6 -> fc6 (in-place)
I0409 21:27:12.386961 26212 net.cpp:122] Setting up relu6
I0409 21:27:12.386970 26212 net.cpp:129] Top shape: 32 2048 (65536)
I0409 21:27:12.386974 26212 net.cpp:137] Memory required for data: 263466752
I0409 21:27:12.386978 26212 layer_factory.hpp:77] Creating layer drop6
I0409 21:27:12.386986 26212 net.cpp:84] Creating Layer drop6
I0409 21:27:12.386991 26212 net.cpp:406] drop6 <- fc6
I0409 21:27:12.386997 26212 net.cpp:367] drop6 -> fc6 (in-place)
I0409 21:27:12.387023 26212 net.cpp:122] Setting up drop6
I0409 21:27:12.387028 26212 net.cpp:129] Top shape: 32 2048 (65536)
I0409 21:27:12.387032 26212 net.cpp:137] Memory required for data: 263728896
I0409 21:27:12.387034 26212 layer_factory.hpp:77] Creating layer fc8
I0409 21:27:12.387043 26212 net.cpp:84] Creating Layer fc8
I0409 21:27:12.387048 26212 net.cpp:406] fc8 <- fc6
I0409 21:27:12.387053 26212 net.cpp:380] fc8 -> fc8
I0409 21:27:12.391535 26212 net.cpp:122] Setting up fc8
I0409 21:27:12.391546 26212 net.cpp:129] Top shape: 32 196 (6272)
I0409 21:27:12.391549 26212 net.cpp:137] Memory required for data: 263753984
I0409 21:27:12.391557 26212 layer_factory.hpp:77] Creating layer fc8_fc8_0_split
I0409 21:27:12.391564 26212 net.cpp:84] Creating Layer fc8_fc8_0_split
I0409 21:27:12.391588 26212 net.cpp:406] fc8_fc8_0_split <- fc8
I0409 21:27:12.391595 26212 net.cpp:380] fc8_fc8_0_split -> fc8_fc8_0_split_0
I0409 21:27:12.391606 26212 net.cpp:380] fc8_fc8_0_split -> fc8_fc8_0_split_1
I0409 21:27:12.391644 26212 net.cpp:122] Setting up fc8_fc8_0_split
I0409 21:27:12.391651 26212 net.cpp:129] Top shape: 32 196 (6272)
I0409 21:27:12.391654 26212 net.cpp:129] Top shape: 32 196 (6272)
I0409 21:27:12.391659 26212 net.cpp:137] Memory required for data: 263804160
I0409 21:27:12.391661 26212 layer_factory.hpp:77] Creating layer accuracy
I0409 21:27:12.391669 26212 net.cpp:84] Creating Layer accuracy
I0409 21:27:12.391671 26212 net.cpp:406] accuracy <- fc8_fc8_0_split_0
I0409 21:27:12.391676 26212 net.cpp:406] accuracy <- label_val-data_1_split_0
I0409 21:27:12.391681 26212 net.cpp:380] accuracy -> accuracy
…
