…
I0426 10:10:30.163719 20604 net.cpp:294] The NetState phase (0) differed from the phase (1) specified by a rule in layer accuracy
I0426 10:10:30.163857 20604 net.cpp:51] Initializing net from parameters:
state {
phase: TRAIN
level: 0
stage: ""
}
layer {
name: "train-data"
type: "Data"
top: "data"
top: "label"
include {
phase: TRAIN
}
transform_param {
mirror: true
crop_size: 227
mean_file: "/mnt/bigdisk/DIGITS-MAN-3/digits/jobs/20210421-230320-902c/mean.binaryproto"
}
data_param {
source: "/mnt/bigdisk/DIGITS-MAN-3/digits/jobs/20210421-230320-902c/train_db"
batch_size: 128
backend: LMDB
}
}
layer {
name: "conv1"
type: "Convolution"
bottom: "data"
top: "conv1"
param {
lr_mult: 1
decay_mult: 1
}
param {
lr_mult: 2
decay_mult: 0
}
convolution_param {
num_output: 96
kernel_size: 11
stride: 4
weight_filler {
type: "gaussian"
std: 0.01
}
bias_filler {
type: "constant"
value: 0
}
}
}
layer {
name: "relu1"
type: "ReLU"
bottom: "conv1"
top: "conv1"
}
layer {
name: "norm1"
type: "LRN"
bottom: "conv1"
top: "norm1"
lrn_param {
local_size: 5
alpha: 0.0001
beta: 0.75
}
}
layer {
name: "pool1"
type: "Pooling"
bottom: "norm1"
top: "pool1"
pooling_param {
pool: MAX
kernel_size: 3
stride: 2
}
}
layer {
name: "conv2"
type: "Convolution"
bottom: "pool1"
top: "conv2"
param {
lr_mult: 1
decay_mult: 1
}
param {
lr_mult: 2
decay_mult: 0
}
convolution_param {
num_output: 256
pad: 2
kernel_size: 5
group: 2
weight_filler {
type: "gaussian"
std: 0.01
}
bias_filler {
type: "constant"
value: 0.1
}
}
}
layer {
name: "relu2"
type: "ReLU"
bottom: "conv2"
top: "conv2"
}
layer {
name: "norm2"
type: "LRN"
bottom: "conv2"
top: "norm2"
lrn_param {
local_size: 5
alpha: 0.0001
beta: 0.75
}
}
layer {
name: "pool2"
type: "Pooling"
bottom: "norm2"
top: "pool2"
pooling_param {
pool: MAX
kernel_size: 3
stride: 2
}
}
layer {
name: "conv3"
type: "Convolution"
bottom: "pool2"
top: "conv3"
param {
lr_mult: 1
decay_mult: 1
}
param {
lr_mult: 2
decay_mult: 0
}
convolution_param {
num_output: 384
pad: 1
kernel_size: 3
weight_filler {
type: "gaussian"
std: 0.01
}
bias_filler {
type: "constant"
value: 0
}
}
}
layer {
name: "relu3"
type: "ReLU"
bottom: "conv3"
top: "conv3"
}
layer {
name: "conv4"
type: "Convolution"
bottom: "conv3"
top: "conv4"
param {
lr_mult: 1
decay_mult: 1
}
param {
lr_mult: 2
decay_mult: 0
}
convolution_param {
num_output: 384
pad: 1
kernel_size: 7
group: 2
weight_filler {
type: "gaussian"
std: 0.01
}
bias_filler {
type: "constant"
value: 0.1
}
}
}
layer {
name: "relu4"
type: "ReLU"
bottom: "conv4"
top: "conv4"
}
layer {
name: "conv5"
type: "Convolution"
bottom: "conv4"
top: "conv5"
param {
lr_mult: 1
decay_mult: 1
}
param {
lr_mult: 2
decay_mult: 0
}
convolution_param {
num_output: 256
pad: 1
kernel_size: 3
group: 2
weight_filler {
type: "gaussian"
std: 0.01
}
bias_filler {
type: "constant"
value: 0.1
}
}
}
layer {
name: "relu5"
type: "ReLU"
bottom: "conv5"
top: "conv5"
}
layer {
name: "pool5"
type: "Pooling"
bottom: "conv5"
top: "pool5"
pooling_param {
pool: MAX
kernel_size: 3
stride: 2
}
}
layer {
name: "fc6"
type: "InnerProduct"
bottom: "pool5"
top: "fc6"
param {
lr_mult: 1
decay_mult: 1
}
param {
lr_mult: 2
decay_mult: 0
}
inner_product_param {
num_output: 4096
weight_filler {
type: "gaussian"
std: 0.005
}
bias_filler {
type: "constant"
value: 0.1
}
}
}
layer {
name: "relu6"
type: "ReLU"
bottom: "fc6"
top: "fc6"
}
layer {
name: "drop6"
type: "Dropout"
bottom: "fc6"
top: "fc6"
dropout_param {
dropout_ratio: 0.5
}
}
layer {
name: "fc7"
type: "InnerProduct"
bottom: "fc6"
top: "fc7"
param {
lr_mult: 1
decay_mult: 1
}
param {
lr_mult: 2
decay_mult: 0
}
inner_product_param {
num_output: 4096
weight_filler {
type: "gaussian"
std: 0.005
}
bias_filler {
type: "constant"
value: 0.1
}
}
}
layer {
name: "relu7"
type: "ReLU"
bottom: "fc7"
top: "fc7"
}
layer {
name: "drop7"
type: "Dropout"
bottom: "fc7"
top: "fc7"
dropout_param {
dropout_ratio: 0.5
}
}
layer {
name: "fc8"
type: "InnerProduct"
bottom: "fc7"
top: "fc8"
param {
lr_mult: 1
decay_mult: 1
}
param {
lr_mult: 2
decay_mult: 0
}
inner_product_param {
num_output: 196
weight_filler {
type: "gaussian"
std: 0.01
}
bias_filler {
type: "constant"
value: 0
}
}
}
layer {
name: "loss"
type: "SoftmaxWithLoss"
bottom: "fc8"
bottom: "label"
top: "loss"
}
I0426 10:10:30.163944 20604 layer_factory.hpp:77] Creating layer train-data
I0426 10:10:30.166548 20604 db_lmdb.cpp:35] Opened lmdb /mnt/bigdisk/DIGITS-MAN-3/digits/jobs/20210421-230320-902c/train_db
I0426 10:10:30.166726 20604 net.cpp:84] Creating Layer train-data
I0426 10:10:30.166736 20604 net.cpp:380] train-data -> data
I0426 10:10:30.166755 20604 net.cpp:380] train-data -> label
I0426 10:10:30.166767 20604 data_transformer.cpp:25] Loading mean file from: /mnt/bigdisk/DIGITS-MAN-3/digits/jobs/20210421-230320-902c/mean.binaryproto
I0426 10:10:30.174010 20604 data_layer.cpp:45] output data size: 128,3,227,227
I0426 10:10:30.308784 20604 net.cpp:122] Setting up train-data
I0426 10:10:30.308806 20604 net.cpp:129] Top shape: 128 3 227 227 (19787136)
I0426 10:10:30.308811 20604 net.cpp:129] Top shape: 128 (128)
I0426 10:10:30.308816 20604 net.cpp:137] Memory required for data: 79149056
I0426 10:10:30.308825 20604 layer_factory.hpp:77] Creating layer conv1
I0426 10:10:30.308848 20604 net.cpp:84] Creating Layer conv1
I0426 10:10:30.308856 20604 net.cpp:406] conv1 <- data
I0426 10:10:30.308868 20604 net.cpp:380] conv1 -> conv1
I0426 10:10:30.895200 20604 net.cpp:122] Setting up conv1
I0426 10:10:30.895220 20604 net.cpp:129] Top shape: 128 96 55 55 (37171200)
I0426 10:10:30.895224 20604 net.cpp:137] Memory required for data: 227833856
I0426 10:10:30.895243 20604 layer_factory.hpp:77] Creating layer relu1
I0426 10:10:30.895253 20604 net.cpp:84] Creating Layer relu1
I0426 10:10:30.895257 20604 net.cpp:406] relu1 <- conv1
I0426 10:10:30.895263 20604 net.cpp:367] relu1 -> conv1 (in-place)
I0426 10:10:30.895550 20604 net.cpp:122] Setting up relu1
I0426 10:10:30.895558 20604 net.cpp:129] Top shape: 128 96 55 55 (37171200)
I0426 10:10:30.895562 20604 net.cpp:137] Memory required for data: 376518656
I0426 10:10:30.895565 20604 layer_factory.hpp:77] Creating layer norm1
I0426 10:10:30.895574 20604 net.cpp:84] Creating Layer norm1
I0426 10:10:30.895578 20604 net.cpp:406] norm1 <- conv1
I0426 10:10:30.895604 20604 net.cpp:380] norm1 -> norm1
I0426 10:10:30.896041 20604 net.cpp:122] Setting up norm1
I0426 10:10:30.896051 20604 net.cpp:129] Top shape: 128 96 55 55 (37171200)
I0426 10:10:30.896055 20604 net.cpp:137] Memory required for data: 525203456
I0426 10:10:30.896059 20604 layer_factory.hpp:77] Creating layer pool1
I0426 10:10:30.896067 20604 net.cpp:84] Creating Layer pool1
I0426 10:10:30.896071 20604 net.cpp:406] pool1 <- norm1
I0426 10:10:30.896077 20604 net.cpp:380] pool1 -> pool1
I0426 10:10:30.896112 20604 net.cpp:122] Setting up pool1
I0426 10:10:30.896118 20604 net.cpp:129] Top shape: 128 96 27 27 (8957952)
I0426 10:10:30.896121 20604 net.cpp:137] Memory required for data: 561035264
I0426 10:10:30.896126 20604 layer_factory.hpp:77] Creating layer conv2
I0426 10:10:30.896136 20604 net.cpp:84] Creating Layer conv2
I0426 10:10:30.896139 20604 net.cpp:406] conv2 <- pool1
I0426 10:10:30.896144 20604 net.cpp:380] conv2 -> conv2
I0426 10:10:30.902879 20604 net.cpp:122] Setting up conv2
I0426 10:10:30.902894 20604 net.cpp:129] Top shape: 128 256 27 27 (23887872)
I0426 10:10:30.902897 20604 net.cpp:137] Memory required for data: 656586752
I0426 10:10:30.902906 20604 layer_factory.hpp:77] Creating layer relu2
I0426 10:10:30.902913 20604 net.cpp:84] Creating Layer relu2
I0426 10:10:30.902921 20604 net.cpp:406] relu2 <- conv2
I0426 10:10:30.902927 20604 net.cpp:367] relu2 -> conv2 (in-place)
I0426 10:10:30.903414 20604 net.cpp:122] Setting up relu2
I0426 10:10:30.903424 20604 net.cpp:129] Top shape: 128 256 27 27 (23887872)
I0426 10:10:30.903427 20604 net.cpp:137] Memory required for data: 752138240
I0426 10:10:30.903431 20604 layer_factory.hpp:77] Creating layer norm2
I0426 10:10:30.903437 20604 net.cpp:84] Creating Layer norm2
I0426 10:10:30.903441 20604 net.cpp:406] norm2 <- conv2
I0426 10:10:30.903447 20604 net.cpp:380] norm2 -> norm2
I0426 10:10:30.903801 20604 net.cpp:122] Setting up norm2
I0426 10:10:30.903810 20604 net.cpp:129] Top shape: 128 256 27 27 (23887872)
I0426 10:10:30.903812 20604 net.cpp:137] Memory required for data: 847689728
I0426 10:10:30.903816 20604 layer_factory.hpp:77] Creating layer pool2
I0426 10:10:30.903825 20604 net.cpp:84] Creating Layer pool2
I0426 10:10:30.903828 20604 net.cpp:406] pool2 <- norm2
I0426 10:10:30.903834 20604 net.cpp:380] pool2 -> pool2
I0426 10:10:30.903861 20604 net.cpp:122] Setting up pool2
I0426 10:10:30.903867 20604 net.cpp:129] Top shape: 128 256 13 13 (5537792)
I0426 10:10:30.903870 20604 net.cpp:137] Memory required for data: 869840896
I0426 10:10:30.903873 20604 layer_factory.hpp:77] Creating layer conv3
I0426 10:10:30.903882 20604 net.cpp:84] Creating Layer conv3
I0426 10:10:30.903885 20604 net.cpp:406] conv3 <- pool2
I0426 10:10:30.903892 20604 net.cpp:380] conv3 -> conv3
I0426 10:10:30.913872 20604 net.cpp:122] Setting up conv3
I0426 10:10:30.913883 20604 net.cpp:129] Top shape: 128 384 13 13 (8306688)
I0426 10:10:30.913887 20604 net.cpp:137] Memory required for data: 903067648
I0426 10:10:30.913897 20604 layer_factory.hpp:77] Creating layer relu3
I0426 10:10:30.913904 20604 net.cpp:84] Creating Layer relu3
I0426 10:10:30.913908 20604 net.cpp:406] relu3 <- conv3
I0426 10:10:30.913914 20604 net.cpp:367] relu3 -> conv3 (in-place)
I0426 10:10:30.914394 20604 net.cpp:122] Setting up relu3
I0426 10:10:30.914404 20604 net.cpp:129] Top shape: 128 384 13 13 (8306688)
I0426 10:10:30.914407 20604 net.cpp:137] Memory required for data: 936294400
I0426 10:10:30.914410 20604 layer_factory.hpp:77] Creating layer conv4
I0426 10:10:30.914420 20604 net.cpp:84] Creating Layer conv4
I0426 10:10:30.914424 20604 net.cpp:406] conv4 <- conv3
I0426 10:10:30.914430 20604 net.cpp:380] conv4 -> conv4
I0426 10:10:30.952266 20604 net.cpp:122] Setting up conv4
I0426 10:10:30.952286 20604 net.cpp:129] Top shape: 128 384 9 9 (3981312)
I0426 10:10:30.952289 20604 net.cpp:137] Memory required for data: 952219648
I0426 10:10:30.952297 20604 layer_factory.hpp:77] Creating layer relu4
I0426 10:10:30.952306 20604 net.cpp:84] Creating Layer relu4
I0426 10:10:30.952329 20604 net.cpp:406] relu4 <- conv4
I0426 10:10:30.952337 20604 net.cpp:367] relu4 -> conv4 (in-place)
I0426 10:10:30.952692 20604 net.cpp:122] Setting up relu4
I0426 10:10:30.952700 20604 net.cpp:129] Top shape: 128 384 9 9 (3981312)
I0426 10:10:30.952703 20604 net.cpp:137] Memory required for data: 968144896
I0426 10:10:30.952706 20604 layer_factory.hpp:77] Creating layer conv5
I0426 10:10:30.952718 20604 net.cpp:84] Creating Layer conv5
I0426 10:10:30.952721 20604 net.cpp:406] conv5 <- conv4
I0426 10:10:30.952728 20604 net.cpp:380] conv5 -> conv5
I0426 10:10:30.961091 20604 net.cpp:122] Setting up conv5
I0426 10:10:30.961102 20604 net.cpp:129] Top shape: 128 256 9 9 (2654208)
I0426 10:10:30.961107 20604 net.cpp:137] Memory required for data: 978761728
I0426 10:10:30.961117 20604 layer_factory.hpp:77] Creating layer relu5
I0426 10:10:30.961125 20604 net.cpp:84] Creating Layer relu5
I0426 10:10:30.961129 20604 net.cpp:406] relu5 <- conv5
I0426 10:10:30.961134 20604 net.cpp:367] relu5 -> conv5 (in-place)
I0426 10:10:30.961613 20604 net.cpp:122] Setting up relu5
I0426 10:10:30.961623 20604 net.cpp:129] Top shape: 128 256 9 9 (2654208)
I0426 10:10:30.961627 20604 net.cpp:137] Memory required for data: 989378560
I0426 10:10:30.961630 20604 layer_factory.hpp:77] Creating layer pool5
I0426 10:10:30.961637 20604 net.cpp:84] Creating Layer pool5
I0426 10:10:30.961640 20604 net.cpp:406] pool5 <- conv5
I0426 10:10:30.961647 20604 net.cpp:380] pool5 -> pool5
I0426 10:10:30.961681 20604 net.cpp:122] Setting up pool5
I0426 10:10:30.961688 20604 net.cpp:129] Top shape: 128 256 4 4 (524288)
I0426 10:10:30.961690 20604 net.cpp:137] Memory required for data: 991475712
I0426 10:10:30.961694 20604 layer_factory.hpp:77] Creating layer fc6
I0426 10:10:30.961702 20604 net.cpp:84] Creating Layer fc6
I0426 10:10:30.961706 20604 net.cpp:406] fc6 <- pool5
I0426 10:10:30.961712 20604 net.cpp:380] fc6 -> fc6
I0426 10:10:31.119433 20604 net.cpp:122] Setting up fc6
I0426 10:10:31.119454 20604 net.cpp:129] Top shape: 128 4096 (524288)
I0426 10:10:31.119458 20604 net.cpp:137] Memory required for data: 993572864
I0426 10:10:31.119467 20604 layer_factory.hpp:77] Creating layer relu6
I0426 10:10:31.119477 20604 net.cpp:84] Creating Layer relu6
I0426 10:10:31.119482 20604 net.cpp:406] relu6 <- fc6
I0426 10:10:31.119488 20604 net.cpp:367] relu6 -> fc6 (in-place)
I0426 10:10:31.120107 20604 net.cpp:122] Setting up relu6
I0426 10:10:31.120117 20604 net.cpp:129] Top shape: 128 4096 (524288)
I0426 10:10:31.120121 20604 net.cpp:137] Memory required for data: 995670016
I0426 10:10:31.120124 20604 layer_factory.hpp:77] Creating layer drop6
I0426 10:10:31.120131 20604 net.cpp:84] Creating Layer drop6
I0426 10:10:31.120136 20604 net.cpp:406] drop6 <- fc6
I0426 10:10:31.120141 20604 net.cpp:367] drop6 -> fc6 (in-place)
I0426 10:10:31.120169 20604 net.cpp:122] Setting up drop6
I0426 10:10:31.120174 20604 net.cpp:129] Top shape: 128 4096 (524288)
I0426 10:10:31.120178 20604 net.cpp:137] Memory required for data: 997767168
I0426 10:10:31.120182 20604 layer_factory.hpp:77] Creating layer fc7
I0426 10:10:31.120193 20604 net.cpp:84] Creating Layer fc7
I0426 10:10:31.120196 20604 net.cpp:406] fc7 <- fc6
I0426 10:10:31.120203 20604 net.cpp:380] fc7 -> fc7
I0426 10:10:31.277559 20604 net.cpp:122] Setting up fc7
I0426 10:10:31.277580 20604 net.cpp:129] Top shape: 128 4096 (524288)
I0426 10:10:31.277582 20604 net.cpp:137] Memory required for data: 999864320
I0426 10:10:31.277591 20604 layer_factory.hpp:77] Creating layer relu7
I0426 10:10:31.277599 20604 net.cpp:84] Creating Layer relu7
I0426 10:10:31.277603 20604 net.cpp:406] relu7 <- fc7
I0426 10:10:31.277611 20604 net.cpp:367] relu7 -> fc7 (in-place)
I0426 10:10:31.278214 20604 net.cpp:122] Setting up relu7
I0426 10:10:31.278223 20604 net.cpp:129] Top shape: 128 4096 (524288)
I0426 10:10:31.278226 20604 net.cpp:137] Memory required for data: 1001961472
I0426 10:10:31.278230 20604 layer_factory.hpp:77] Creating layer drop7
I0426 10:10:31.278239 20604 net.cpp:84] Creating Layer drop7
I0426 10:10:31.278241 20604 net.cpp:406] drop7 <- fc7
I0426 10:10:31.278264 20604 net.cpp:367] drop7 -> fc7 (in-place)
I0426 10:10:31.278290 20604 net.cpp:122] Setting up drop7
I0426 10:10:31.278295 20604 net.cpp:129] Top shape: 128 4096 (524288)
I0426 10:10:31.278297 20604 net.cpp:137] Memory required for data: 1004058624
I0426 10:10:31.278301 20604 layer_factory.hpp:77] Creating layer fc8
I0426 10:10:31.278307 20604 net.cpp:84] Creating Layer fc8
I0426 10:10:31.278311 20604 net.cpp:406] fc8 <- fc7
I0426 10:10:31.278316 20604 net.cpp:380] fc8 -> fc8
I0426 10:10:31.285974 20604 net.cpp:122] Setting up fc8
I0426 10:10:31.285984 20604 net.cpp:129] Top shape: 128 196 (25088)
I0426 10:10:31.285988 20604 net.cpp:137] Memory required for data: 1004158976
I0426 10:10:31.285995 20604 layer_factory.hpp:77] Creating layer loss
I0426 10:10:31.286002 20604 net.cpp:84] Creating Layer loss
I0426 10:10:31.286005 20604 net.cpp:406] loss <- fc8
I0426 10:10:31.286010 20604 net.cpp:406] loss <- label
I0426 10:10:31.286017 20604 net.cpp:380] loss -> loss
I0426 10:10:31.286026 20604 layer_factory.hpp:77] Creating layer loss
…
I0426 10:10:31.287770 20604 net.cpp:294] The NetState phase (1) differed from the phase (0) specified by a rule in layer train-data
I0426 10:10:31.287906 20604 net.cpp:51] Initializing net from parameters:
state {
phase: TEST
}
layer {
name: "val-data"
type: "Data"
top: "data"
top: "label"
include {
phase: TEST
}
transform_param {
crop_size: 227
mean_file: "/mnt/bigdisk/DIGITS-MAN-3/digits/jobs/20210421-230320-902c/mean.binaryproto"
}
data_param {
source: "/mnt/bigdisk/DIGITS-MAN-3/digits/jobs/20210421-230320-902c/val_db"
batch_size: 32
backend: LMDB
}
}
layer {
name: "conv1"
type: "Convolution"
bottom: "data"
top: "conv1"
param {
lr_mult: 1
decay_mult: 1
}
param {
lr_mult: 2
decay_mult: 0
}
convolution_param {
num_output: 96
kernel_size: 11
stride: 4
weight_filler {
type: "gaussian"
std: 0.01
}
bias_filler {
type: "constant"
value: 0
}
}
}
layer {
name: "relu1"
type: "ReLU"
bottom: "conv1"
top: "conv1"
}
layer {
name: "norm1"
type: "LRN"
bottom: "conv1"
top: "norm1"
lrn_param {
local_size: 5
alpha: 0.0001
beta: 0.75
}
}
layer {
name: "pool1"
type: "Pooling"
bottom: "norm1"
top: "pool1"
pooling_param {
pool: MAX
kernel_size: 3
stride: 2
}
}
layer {
name: "conv2"
type: "Convolution"
bottom: "pool1"
top: "conv2"
param {
lr_mult: 1
decay_mult: 1
}
param {
lr_mult: 2
decay_mult: 0
}
convolution_param {
num_output: 256
pad: 2
kernel_size: 5
group: 2
weight_filler {
type: "gaussian"
std: 0.01
}
bias_filler {
type: "constant"
value: 0.1
}
}
}
layer {
name: "relu2"
type: "ReLU"
bottom: "conv2"
top: "conv2"
}
layer {
name: "norm2"
type: "LRN"
bottom: "conv2"
top: "norm2"
lrn_param {
local_size: 5
alpha: 0.0001
beta: 0.75
}
}
layer {
name: "pool2"
type: "Pooling"
bottom: "norm2"
top: "pool2"
pooling_param {
pool: MAX
kernel_size: 3
stride: 2
}
}
layer {
name: "conv3"
type: "Convolution"
bottom: "pool2"
top: "conv3"
param {
lr_mult: 1
decay_mult: 1
}
param {
lr_mult: 2
decay_mult: 0
}
convolution_param {
num_output: 384
pad: 1
kernel_size: 3
weight_filler {
type: "gaussian"
std: 0.01
}
bias_filler {
type: "constant"
value: 0
}
}
}
layer {
name: "relu3"
type: "ReLU"
bottom: "conv3"
top: "conv3"
}
layer {
name: "conv4"
type: "Convolution"
bottom: "conv3"
top: "conv4"
param {
lr_mult: 1
decay_mult: 1
}
param {
lr_mult: 2
decay_mult: 0
}
convolution_param {
num_output: 384
pad: 1
kernel_size: 7
group: 2
weight_filler {
type: "gaussian"
std: 0.01
}
bias_filler {
type: "constant"
value: 0.1
}
}
}
layer {
name: "relu4"
type: "ReLU"
bottom: "conv4"
top: "conv4"
}
layer {
name: "conv5"
type: "Convolution"
bottom: "conv4"
top: "conv5"
param {
lr_mult: 1
decay_mult: 1
}
param {
lr_mult: 2
decay_mult: 0
}
convolution_param {
num_output: 256
pad: 1
kernel_size: 3
group: 2
weight_filler {
type: "gaussian"
std: 0.01
}
bias_filler {
type: "constant"
value: 0.1
}
}
}
layer {
name: "relu5"
type: "ReLU"
bottom: "conv5"
top: "conv5"
}
layer {
name: "pool5"
type: "Pooling"
bottom: "conv5"
top: "pool5"
pooling_param {
pool: MAX
kernel_size: 3
stride: 2
}
}
layer {
name: "fc6"
type: "InnerProduct"
bottom: "pool5"
top: "fc6"
param {
lr_mult: 1
decay_mult: 1
}
param {
lr_mult: 2
decay_mult: 0
}
inner_product_param {
num_output: 4096
weight_filler {
type: "gaussian"
std: 0.005
}
bias_filler {
type: "constant"
value: 0.1
}
}
}
layer {
name: "relu6"
type: "ReLU"
bottom: "fc6"
top: "fc6"
}
layer {
name: "drop6"
type: "Dropout"
bottom: "fc6"
top: "fc6"
dropout_param {
dropout_ratio: 0.5
}
}
layer {
name: "fc7"
type: "InnerProduct"
bottom: "fc6"
top: "fc7"
param {
lr_mult: 1
decay_mult: 1
}
param {
lr_mult: 2
decay_mult: 0
}
inner_product_param {
num_output: 4096
weight_filler {
type: "gaussian"
std: 0.005
}
bias_filler {
type: "constant"
value: 0.1
}
}
}
layer {
name: "relu7"
type: "ReLU"
bottom: "fc7"
top: "fc7"
}
layer {
name: "drop7"
type: "Dropout"
bottom: "fc7"
top: "fc7"
dropout_param {
dropout_ratio: 0.5
}
}
layer {
name: "fc8"
type: "InnerProduct"
bottom: "fc7"
top: "fc8"
param {
lr_mult: 1
decay_mult: 1
}
param {
lr_mult: 2
decay_mult: 0
}
inner_product_param {
num_output: 196
weight_filler {
type: "gaussian"
std: 0.01
}
bias_filler {
type: "constant"
value: 0
}
}
}
layer {
name: "accuracy"
type: "Accuracy"
bottom: "fc8"
bottom: "label"
top: "accuracy"
include {
phase: TEST
}
}
layer {
name: "loss"
type: "SoftmaxWithLoss"
bottom: "fc8"
bottom: "label"
top: "loss"
}
I0426 10:10:31.288002 20604 layer_factory.hpp:77] Creating layer val-data
I0426 10:10:31.289865 20604 db_lmdb.cpp:35] Opened lmdb /mnt/bigdisk/DIGITS-MAN-3/digits/jobs/20210421-230320-902c/val_db
I0426 10:10:31.290037 20604 net.cpp:84] Creating Layer val-data
I0426 10:10:31.290047 20604 net.cpp:380] val-data -> data
I0426 10:10:31.290055 20604 net.cpp:380] val-data -> label
I0426 10:10:31.290062 20604 data_transformer.cpp:25] Loading mean file from: /mnt/bigdisk/DIGITS-MAN-3/digits/jobs/20210421-230320-902c/mean.binaryproto
I0426 10:10:31.293486 20604 data_layer.cpp:45] output data size: 32,3,227,227
I0426 10:10:31.331497 20604 net.cpp:122] Setting up val-data
I0426 10:10:31.331514 20604 net.cpp:129] Top shape: 32 3 227 227 (4946784)
I0426 10:10:31.331519 20604 net.cpp:129] Top shape: 32 (32)
I0426 10:10:31.331522 20604 net.cpp:137] Memory required for data: 19787264
I0426 10:10:31.331528 20604 layer_factory.hpp:77] Creating layer label_val-data_1_split
I0426 10:10:31.331539 20604 net.cpp:84] Creating Layer label_val-data_1_split
I0426 10:10:31.331544 20604 net.cpp:406] label_val-data_1_split <- label
I0426 10:10:31.331552 20604 net.cpp:380] label_val-data_1_split -> label_val-data_1_split_0
I0426 10:10:31.331560 20604 net.cpp:380] label_val-data_1_split -> label_val-data_1_split_1
I0426 10:10:31.331604 20604 net.cpp:122] Setting up label_val-data_1_split
I0426 10:10:31.331609 20604 net.cpp:129] Top shape: 32 (32)
I0426 10:10:31.331614 20604 net.cpp:129] Top shape: 32 (32)
I0426 10:10:31.331616 20604 net.cpp:137] Memory required for data: 19787520
I0426 10:10:31.331620 20604 layer_factory.hpp:77] Creating layer conv1
I0426 10:10:31.331631 20604 net.cpp:84] Creating Layer conv1
I0426 10:10:31.331635 20604 net.cpp:406] conv1 <- data
I0426 10:10:31.331640 20604 net.cpp:380] conv1 -> conv1
I0426 10:10:31.337038 20604 net.cpp:122] Setting up conv1
I0426 10:10:31.337049 20604 net.cpp:129] Top shape: 32 96 55 55 (9292800)
I0426 10:10:31.337051 20604 net.cpp:137] Memory required for data: 56958720
I0426 10:10:31.337061 20604 layer_factory.hpp:77] Creating layer relu1
I0426 10:10:31.337069 20604 net.cpp:84] Creating Layer relu1
I0426 10:10:31.337071 20604 net.cpp:406] relu1 <- conv1
I0426 10:10:31.337076 20604 net.cpp:367] relu1 -> conv1 (in-place)
I0426 10:10:31.337363 20604 net.cpp:122] Setting up relu1
I0426 10:10:31.337371 20604 net.cpp:129] Top shape: 32 96 55 55 (9292800)
I0426 10:10:31.337374 20604 net.cpp:137] Memory required for data: 94129920
I0426 10:10:31.337378 20604 layer_factory.hpp:77] Creating layer norm1
I0426 10:10:31.337386 20604 net.cpp:84] Creating Layer norm1
I0426 10:10:31.337389 20604 net.cpp:406] norm1 <- conv1
I0426 10:10:31.337395 20604 net.cpp:380] norm1 -> norm1
I0426 10:10:31.337869 20604 net.cpp:122] Setting up norm1
I0426 10:10:31.337879 20604 net.cpp:129] Top shape: 32 96 55 55 (9292800)
I0426 10:10:31.337882 20604 net.cpp:137] Memory required for data: 131301120
I0426 10:10:31.337886 20604 layer_factory.hpp:77] Creating layer pool1
I0426 10:10:31.337893 20604 net.cpp:84] Creating Layer pool1
I0426 10:10:31.337896 20604 net.cpp:406] pool1 <- norm1
I0426 10:10:31.337901 20604 net.cpp:380] pool1 -> pool1
I0426 10:10:31.337936 20604 net.cpp:122] Setting up pool1
I0426 10:10:31.337942 20604 net.cpp:129] Top shape: 32 96 27 27 (2239488)
I0426 10:10:31.337946 20604 net.cpp:137] Memory required for data: 140259072
I0426 10:10:31.337949 20604 layer_factory.hpp:77] Creating layer conv2
I0426 10:10:31.337957 20604 net.cpp:84] Creating Layer conv2
I0426 10:10:31.337961 20604 net.cpp:406] conv2 <- pool1
I0426 10:10:31.337985 20604 net.cpp:380] conv2 -> conv2
I0426 10:10:31.354660 20604 net.cpp:122] Setting up conv2
I0426 10:10:31.354676 20604 net.cpp:129] Top shape: 32 256 27 27 (5971968)
I0426 10:10:31.354679 20604 net.cpp:137] Memory required for data: 164146944
I0426 10:10:31.354691 20604 layer_factory.hpp:77] Creating layer relu2
I0426 10:10:31.354699 20604 net.cpp:84] Creating Layer relu2
I0426 10:10:31.354703 20604 net.cpp:406] relu2 <- conv2
I0426 10:10:31.354710 20604 net.cpp:367] relu2 -> conv2 (in-place)
I0426 10:10:31.355206 20604 net.cpp:122] Setting up relu2
I0426 10:10:31.355216 20604 net.cpp:129] Top shape: 32 256 27 27 (5971968)
I0426 10:10:31.355218 20604 net.cpp:137] Memory required for data: 188034816
I0426 10:10:31.355222 20604 layer_factory.hpp:77] Creating layer norm2
I0426 10:10:31.355233 20604 net.cpp:84] Creating Layer norm2
I0426 10:10:31.355237 20604 net.cpp:406] norm2 <- conv2
I0426 10:10:31.355243 20604 net.cpp:380] norm2 -> norm2
I0426 10:10:31.355751 20604 net.cpp:122] Setting up norm2
I0426 10:10:31.355760 20604 net.cpp:129] Top shape: 32 256 27 27 (5971968)
I0426 10:10:31.355763 20604 net.cpp:137] Memory required for data: 211922688
I0426 10:10:31.355767 20604 layer_factory.hpp:77] Creating layer pool2
I0426 10:10:31.355774 20604 net.cpp:84] Creating Layer pool2
I0426 10:10:31.355778 20604 net.cpp:406] pool2 <- norm2
I0426 10:10:31.355784 20604 net.cpp:380] pool2 -> pool2
I0426 10:10:31.355813 20604 net.cpp:122] Setting up pool2
I0426 10:10:31.355819 20604 net.cpp:129] Top shape: 32 256 13 13 (1384448)
I0426 10:10:31.355823 20604 net.cpp:137] Memory required for data: 217460480
I0426 10:10:31.355826 20604 layer_factory.hpp:77] Creating layer conv3
I0426 10:10:31.355837 20604 net.cpp:84] Creating Layer conv3
I0426 10:10:31.355841 20604 net.cpp:406] conv3 <- pool2
I0426 10:10:31.355846 20604 net.cpp:380] conv3 -> conv3
I0426 10:10:31.366889 20604 net.cpp:122] Setting up conv3
I0426 10:10:31.366906 20604 net.cpp:129] Top shape: 32 384 13 13 (2076672)
I0426 10:10:31.366909 20604 net.cpp:137] Memory required for data: 225767168
I0426 10:10:31.366921 20604 layer_factory.hpp:77] Creating layer relu3
I0426 10:10:31.366930 20604 net.cpp:84] Creating Layer relu3
I0426 10:10:31.366933 20604 net.cpp:406] relu3 <- conv3
I0426 10:10:31.366941 20604 net.cpp:367] relu3 -> conv3 (in-place)
I0426 10:10:31.367450 20604 net.cpp:122] Setting up relu3
I0426 10:10:31.367460 20604 net.cpp:129] Top shape: 32 384 13 13 (2076672)
I0426 10:10:31.367463 20604 net.cpp:137] Memory required for data: 234073856
I0426 10:10:31.367466 20604 layer_factory.hpp:77] Creating layer conv4
I0426 10:10:31.367477 20604 net.cpp:84] Creating Layer conv4
I0426 10:10:31.367481 20604 net.cpp:406] conv4 <- conv3
I0426 10:10:31.367488 20604 net.cpp:380] conv4 -> conv4
I0426 10:10:31.404441 20604 net.cpp:122] Setting up conv4
I0426 10:10:31.404459 20604 net.cpp:129] Top shape: 32 384 9 9 (995328)
I0426 10:10:31.404464 20604 net.cpp:137] Memory required for data: 238055168
I0426 10:10:31.404471 20604 layer_factory.hpp:77] Creating layer relu4
I0426 10:10:31.404481 20604 net.cpp:84] Creating Layer relu4
I0426 10:10:31.404498 20604 net.cpp:406] relu4 <- conv4
I0426 10:10:31.404505 20604 net.cpp:367] relu4 -> conv4 (in-place)
I0426 10:10:31.404860 20604 net.cpp:122] Setting up relu4
I0426 10:10:31.404867 20604 net.cpp:129] Top shape: 32 384 9 9 (995328)
I0426 10:10:31.404870 20604 net.cpp:137] Memory required for data: 242036480
I0426 10:10:31.404875 20604 layer_factory.hpp:77] Creating layer conv5
I0426 10:10:31.404886 20604 net.cpp:84] Creating Layer conv5
I0426 10:10:31.404889 20604 net.cpp:406] conv5 <- conv4
I0426 10:10:31.404896 20604 net.cpp:380] conv5 -> conv5
I0426 10:10:31.413496 20604 net.cpp:122] Setting up conv5
I0426 10:10:31.413511 20604 net.cpp:129] Top shape: 32 256 9 9 (663552)
I0426 10:10:31.413514 20604 net.cpp:137] Memory required for data: 244690688
I0426 10:10:31.413527 20604 layer_factory.hpp:77] Creating layer relu5
I0426 10:10:31.413534 20604 net.cpp:84] Creating Layer relu5
I0426 10:10:31.413539 20604 net.cpp:406] relu5 <- conv5
I0426 10:10:31.413563 20604 net.cpp:367] relu5 -> conv5 (in-place)
I0426 10:10:31.414191 20604 net.cpp:122] Setting up relu5
I0426 10:10:31.414201 20604 net.cpp:129] Top shape: 32 256 9 9 (663552)
I0426 10:10:31.414203 20604 net.cpp:137] Memory required for data: 247344896
I0426 10:10:31.414207 20604 layer_factory.hpp:77] Creating layer pool5
I0426 10:10:31.414217 20604 net.cpp:84] Creating Layer pool5
I0426 10:10:31.414222 20604 net.cpp:406] pool5 <- conv5
I0426 10:10:31.414227 20604 net.cpp:380] pool5 -> pool5
I0426 10:10:31.414266 20604 net.cpp:122] Setting up pool5
I0426 10:10:31.414273 20604 net.cpp:129] Top shape: 32 256 4 4 (131072)
I0426 10:10:31.414275 20604 net.cpp:137] Memory required for data: 247869184
I0426 10:10:31.414279 20604 layer_factory.hpp:77] Creating layer fc6
I0426 10:10:31.414286 20604 net.cpp:84] Creating Layer fc6
I0426 10:10:31.414289 20604 net.cpp:406] fc6 <- pool5
I0426 10:10:31.414295 20604 net.cpp:380] fc6 -> fc6
I0426 10:10:31.572264 20604 net.cpp:122] Setting up fc6
I0426 10:10:31.572286 20604 net.cpp:129] Top shape: 32 4096 (131072)
I0426 10:10:31.572290 20604 net.cpp:137] Memory required for data: 248393472
I0426 10:10:31.572299 20604 layer_factory.hpp:77] Creating layer relu6
I0426 10:10:31.572309 20604 net.cpp:84] Creating Layer relu6
I0426 10:10:31.572314 20604 net.cpp:406] relu6 <- fc6
I0426 10:10:31.572319 20604 net.cpp:367] relu6 -> fc6 (in-place)
I0426 10:10:31.573055 20604 net.cpp:122] Setting up relu6
I0426 10:10:31.573063 20604 net.cpp:129] Top shape: 32 4096 (131072)
I0426 10:10:31.573066 20604 net.cpp:137] Memory required for data: 248917760
I0426 10:10:31.573071 20604 layer_factory.hpp:77] Creating layer drop6
I0426 10:10:31.573077 20604 net.cpp:84] Creating Layer drop6
I0426 10:10:31.573081 20604 net.cpp:406] drop6 <- fc6
I0426 10:10:31.573088 20604 net.cpp:367] drop6 -> fc6 (in-place)
I0426 10:10:31.573113 20604 net.cpp:122] Setting up drop6
I0426 10:10:31.573118 20604 net.cpp:129] Top shape: 32 4096 (131072)
I0426 10:10:31.573122 20604 net.cpp:137] Memory required for data: 249442048
I0426 10:10:31.573125 20604 layer_factory.hpp:77] Creating layer fc7
I0426 10:10:31.573135 20604 net.cpp:84] Creating Layer fc7
I0426 10:10:31.573139 20604 net.cpp:406] fc7 <- fc6
I0426 10:10:31.573145 20604 net.cpp:380] fc7 -> fc7
I0426 10:10:31.731382 20604 net.cpp:122] Setting up fc7
I0426 10:10:31.731403 20604 net.cpp:129] Top shape: 32 4096 (131072)
I0426 10:10:31.731406 20604 net.cpp:137] Memory required for data: 249966336
I0426 10:10:31.731415 20604 layer_factory.hpp:77] Creating layer relu7
I0426 10:10:31.731424 20604 net.cpp:84] Creating Layer relu7
I0426 10:10:31.731428 20604 net.cpp:406] relu7 <- fc7
I0426 10:10:31.731436 20604 net.cpp:367] relu7 -> fc7 (in-place)
I0426 10:10:31.731853 20604 net.cpp:122] Setting up relu7
I0426 10:10:31.731861 20604 net.cpp:129] Top shape: 32 4096 (131072)
I0426 10:10:31.731864 20604 net.cpp:137] Memory required for data: 250490624
I0426 10:10:31.731868 20604 layer_factory.hpp:77] Creating layer drop7
I0426 10:10:31.731875 20604 net.cpp:84] Creating Layer drop7
I0426 10:10:31.731879 20604 net.cpp:406] drop7 <- fc7
I0426 10:10:31.731884 20604 net.cpp:367] drop7 -> fc7 (in-place)
I0426 10:10:31.731909 20604 net.cpp:122] Setting up drop7
I0426 10:10:31.731914 20604 net.cpp:129] Top shape: 32 4096 (131072)
I0426 10:10:31.731916 20604 net.cpp:137] Memory required for data: 251014912
I0426 10:10:31.731920 20604 layer_factory.hpp:77] Creating layer fc8
I0426 10:10:31.731926 20604 net.cpp:84] Creating Layer fc8
I0426 10:10:31.731930 20604 net.cpp:406] fc8 <- fc7
I0426 10:10:31.731935 20604 net.cpp:380] fc8 -> fc8
I0426 10:10:31.739672 20604 net.cpp:122] Setting up fc8
I0426 10:10:31.739682 20604 net.cpp:129] Top shape: 32 196 (6272)
I0426 10:10:31.739686 20604 net.cpp:137] Memory required for data: 251040000
I0426 10:10:31.739692 20604 layer_factory.hpp:77] Creating layer fc8_fc8_0_split
I0426 10:10:31.739699 20604 net.cpp:84] Creating Layer fc8_fc8_0_split
I0426 10:10:31.739703 20604 net.cpp:406] fc8_fc8_0_split <- fc8
I0426 10:10:31.739709 20604 net.cpp:380] fc8_fc8_0_split -> fc8_fc8_0_split_0
I0426 10:10:31.739733 20604 net.cpp:380] fc8_fc8_0_split -> fc8_fc8_0_split_1
I0426 10:10:31.739768 20604 net.cpp:122] Setting up fc8_fc8_0_split
I0426 10:10:31.739773 20604 net.cpp:129] Top shape: 32 196 (6272)
I0426 10:10:31.739776 20604 net.cpp:129] Top shape: 32 196 (6272)
I0426 10:10:31.739779 20604 net.cpp:137] Memory required for data: 251090176
I0426 10:10:31.739782 20604 layer_factory.hpp:77] Creating layer accuracy
I0426 10:10:31.739789 20604 net.cpp:84] Creating Layer accuracy
I0426 10:10:31.739792 20604 net.cpp:406] accuracy <- fc8_fc8_0_split_0
I0426 10:10:31.739796 20604 net.cpp:406] accuracy <- label_val-data_1_split_0
I0426 10:10:31.739801 20604 net.cpp:380] accuracy -> accuracy
…
