…
I0407 08:22:57.996142 15775 net.cpp:294] The NetState phase (0) differed from the phase (1) specified by a rule in layer accuracy
I0407 08:22:57.996258 15775 net.cpp:51] Initializing net from parameters:
state {
phase: TRAIN
level: 0
stage: ""
}
layer {
name: "train-data"
type: "Data"
top: "data"
top: "label"
include {
phase: TRAIN
}
transform_param {
mirror: true
crop_size: 227
mean_file: "/mnt/bigdisk/DIGITS-AIN-3/digits/jobs/20210401-115716-aaf7/mean.binaryproto"
}
data_param {
source: "/mnt/bigdisk/DIGITS-AIN-3/digits/jobs/20210401-115716-aaf7/train_db"
batch_size: 128
backend: LMDB
}
}
layer {
name: "conv1"
type: "Convolution"
bottom: "data"
top: "conv1"
param {
lr_mult: 1
decay_mult: 1
}
param {
lr_mult: 2
decay_mult: 0
}
convolution_param {
num_output: 96
kernel_size: 11
stride: 4
weight_filler {
type: "gaussian"
std: 0.01
}
bias_filler {
type: "constant"
value: 0
}
}
}
layer {
name: "relu1"
type: "ReLU"
bottom: "conv1"
top: "conv1"
}
layer {
name: "norm1"
type: "LRN"
bottom: "conv1"
top: "norm1"
lrn_param {
local_size: 5
alpha: 0.0001
beta: 0.75
}
}
layer {
name: "pool1"
type: "Pooling"
bottom: "norm1"
top: "pool1"
pooling_param {
pool: MAX
kernel_size: 3
stride: 2
}
}
layer {
name: "conv2"
type: "Convolution"
bottom: "pool1"
top: "conv2"
param {
lr_mult: 1
decay_mult: 1
}
param {
lr_mult: 2
decay_mult: 0
}
convolution_param {
num_output: 256
pad: 2
kernel_size: 5
group: 2
weight_filler {
type: "gaussian"
std: 0.01
}
bias_filler {
type: "constant"
value: 0.1
}
}
}
layer {
name: "relu2"
type: "ReLU"
bottom: "conv2"
top: "conv2"
}
layer {
name: "norm2"
type: "LRN"
bottom: "conv2"
top: "norm2"
lrn_param {
local_size: 5
alpha: 0.0001
beta: 0.75
}
}
layer {
name: "pool2"
type: "Pooling"
bottom: "norm2"
top: "pool2"
pooling_param {
pool: MAX
kernel_size: 3
stride: 2
}
}
layer {
name: "conv3"
type: "Convolution"
bottom: "pool2"
top: "conv3"
param {
lr_mult: 1
decay_mult: 1
}
param {
lr_mult: 2
decay_mult: 0
}
convolution_param {
num_output: 384
pad: 1
kernel_size: 3
weight_filler {
type: "gaussian"
std: 0.01
}
bias_filler {
type: "constant"
value: 0
}
}
}
layer {
name: "relu3"
type: "ReLU"
bottom: "conv3"
top: "conv3"
}
layer {
name: "conv4"
type: "Convolution"
bottom: "conv3"
top: "conv4"
param {
lr_mult: 1
decay_mult: 1
}
param {
lr_mult: 2
decay_mult: 0
}
convolution_param {
num_output: 384
pad: 1
kernel_size: 3
group: 2
weight_filler {
type: "gaussian"
std: 0.01
}
bias_filler {
type: "constant"
value: 0.1
}
}
}
layer {
name: "relu4"
type: "ReLU"
bottom: "conv4"
top: "conv4"
}
layer {
name: "conv5"
type: "Convolution"
bottom: "conv4"
top: "conv5"
param {
lr_mult: 1
decay_mult: 1
}
param {
lr_mult: 2
decay_mult: 0
}
convolution_param {
num_output: 256
pad: 1
kernel_size: 3
group: 2
weight_filler {
type: "gaussian"
std: 0.01
}
bias_filler {
type: "constant"
value: 0.1
}
}
}
layer {
name: "relu5"
type: "ReLU"
bottom: "conv5"
top: "conv5"
}
layer {
name: "pool5"
type: "Pooling"
bottom: "conv5"
top: "pool5"
pooling_param {
pool: MAX
kernel_size: 3
stride: 2
}
}
layer {
name: "fc6"
type: "InnerProduct"
bottom: "pool5"
top: "fc6"
param {
lr_mult: 1
decay_mult: 1
}
param {
lr_mult: 2
decay_mult: 0
}
inner_product_param {
num_output: 4096
weight_filler {
type: "gaussian"
std: 0.005
}
bias_filler {
type: "constant"
value: 0.1
}
}
}
layer {
name: "relu6"
type: "ReLU"
bottom: "fc6"
top: "fc6"
}
layer {
name: "drop6"
type: "Dropout"
bottom: "fc6"
top: "fc6"
dropout_param {
dropout_ratio: 0.5
}
}
layer {
name: "fc7"
type: "InnerProduct"
bottom: "fc6"
top: "fc7"
param {
lr_mult: 1
decay_mult: 1
}
param {
lr_mult: 2
decay_mult: 0
}
inner_product_param {
num_output: 4096
weight_filler {
type: "gaussian"
std: 0.005
}
bias_filler {
type: "constant"
value: 0.1
}
}
}
layer {
name: "relu7"
type: "ReLU"
bottom: "fc7"
top: "fc7"
}
layer {
name: "drop7"
type: "Dropout"
bottom: "fc7"
top: "fc7"
dropout_param {
dropout_ratio: 0.5
}
}
layer {
name: "fc8"
type: "InnerProduct"
bottom: "fc7"
top: "fc8"
param {
lr_mult: 1
decay_mult: 1
}
param {
lr_mult: 2
decay_mult: 0
}
inner_product_param {
num_output: 196
weight_filler {
type: "gaussian"
std: 0.01
}
bias_filler {
type: "constant"
value: 0
}
}
}
layer {
name: "loss"
type: "SoftmaxWithLoss"
bottom: "fc8"
bottom: "label"
top: "loss"
}
I0407 08:22:57.996333 15775 layer_factory.hpp:77] Creating layer train-data
I0407 08:22:58.088107 15775 db_lmdb.cpp:35] Opened lmdb /mnt/bigdisk/DIGITS-AIN-3/digits/jobs/20210401-115716-aaf7/train_db
I0407 08:22:58.088389 15775 net.cpp:84] Creating Layer train-data
I0407 08:22:58.088419 15775 net.cpp:380] train-data -> data
I0407 08:22:58.088460 15775 net.cpp:380] train-data -> label
I0407 08:22:58.088483 15775 data_transformer.cpp:25] Loading mean file from: /mnt/bigdisk/DIGITS-AIN-3/digits/jobs/20210401-115716-aaf7/mean.binaryproto
I0407 08:22:58.096284 15775 data_layer.cpp:45] output data size: 128,3,227,227
I0407 08:22:58.259054 15775 net.cpp:122] Setting up train-data
I0407 08:22:58.259081 15775 net.cpp:129] Top shape: 128 3 227 227 (19787136)
I0407 08:22:58.259086 15775 net.cpp:129] Top shape: 128 (128)
I0407 08:22:58.259088 15775 net.cpp:137] Memory required for data: 79149056
I0407 08:22:58.259097 15775 layer_factory.hpp:77] Creating layer conv1
I0407 08:22:58.259119 15775 net.cpp:84] Creating Layer conv1
I0407 08:22:58.259124 15775 net.cpp:406] conv1 <- data
I0407 08:22:58.259135 15775 net.cpp:380] conv1 -> conv1
I0407 08:22:58.706866 15775 net.cpp:122] Setting up conv1
I0407 08:22:58.706888 15775 net.cpp:129] Top shape: 128 96 55 55 (37171200)
I0407 08:22:58.706892 15775 net.cpp:137] Memory required for data: 227833856
I0407 08:22:58.706913 15775 layer_factory.hpp:77] Creating layer relu1
I0407 08:22:58.706923 15775 net.cpp:84] Creating Layer relu1
I0407 08:22:58.706928 15775 net.cpp:406] relu1 <- conv1
I0407 08:22:58.706933 15775 net.cpp:367] relu1 -> conv1 (in-place)
I0407 08:22:58.707221 15775 net.cpp:122] Setting up relu1
I0407 08:22:58.707231 15775 net.cpp:129] Top shape: 128 96 55 55 (37171200)
I0407 08:22:58.707232 15775 net.cpp:137] Memory required for data: 376518656
I0407 08:22:58.707235 15775 layer_factory.hpp:77] Creating layer norm1
I0407 08:22:58.707244 15775 net.cpp:84] Creating Layer norm1
I0407 08:22:58.707270 15775 net.cpp:406] norm1 <- conv1
I0407 08:22:58.707275 15775 net.cpp:380] norm1 -> norm1
I0407 08:22:58.707754 15775 net.cpp:122] Setting up norm1
I0407 08:22:58.707764 15775 net.cpp:129] Top shape: 128 96 55 55 (37171200)
I0407 08:22:58.707767 15775 net.cpp:137] Memory required for data: 525203456
I0407 08:22:58.707770 15775 layer_factory.hpp:77] Creating layer pool1
I0407 08:22:58.707777 15775 net.cpp:84] Creating Layer pool1
I0407 08:22:58.707779 15775 net.cpp:406] pool1 <- norm1
I0407 08:22:58.707783 15775 net.cpp:380] pool1 -> pool1
I0407 08:22:58.707818 15775 net.cpp:122] Setting up pool1
I0407 08:22:58.707823 15775 net.cpp:129] Top shape: 128 96 27 27 (8957952)
I0407 08:22:58.707825 15775 net.cpp:137] Memory required for data: 561035264
I0407 08:22:58.707828 15775 layer_factory.hpp:77] Creating layer conv2
I0407 08:22:58.707837 15775 net.cpp:84] Creating Layer conv2
I0407 08:22:58.707840 15775 net.cpp:406] conv2 <- pool1
I0407 08:22:58.707844 15775 net.cpp:380] conv2 -> conv2
I0407 08:22:58.713976 15775 net.cpp:122] Setting up conv2
I0407 08:22:58.713989 15775 net.cpp:129] Top shape: 128 256 27 27 (23887872)
I0407 08:22:58.713990 15775 net.cpp:137] Memory required for data: 656586752
I0407 08:22:58.713999 15775 layer_factory.hpp:77] Creating layer relu2
I0407 08:22:58.714004 15775 net.cpp:84] Creating Layer relu2
I0407 08:22:58.714007 15775 net.cpp:406] relu2 <- conv2
I0407 08:22:58.714011 15775 net.cpp:367] relu2 -> conv2 (in-place)
I0407 08:22:58.714457 15775 net.cpp:122] Setting up relu2
I0407 08:22:58.714468 15775 net.cpp:129] Top shape: 128 256 27 27 (23887872)
I0407 08:22:58.714469 15775 net.cpp:137] Memory required for data: 752138240
I0407 08:22:58.714473 15775 layer_factory.hpp:77] Creating layer norm2
I0407 08:22:58.714478 15775 net.cpp:84] Creating Layer norm2
I0407 08:22:58.714480 15775 net.cpp:406] norm2 <- conv2
I0407 08:22:58.714484 15775 net.cpp:380] norm2 -> norm2
I0407 08:22:58.714797 15775 net.cpp:122] Setting up norm2
I0407 08:22:58.714807 15775 net.cpp:129] Top shape: 128 256 27 27 (23887872)
I0407 08:22:58.714808 15775 net.cpp:137] Memory required for data: 847689728
I0407 08:22:58.714812 15775 layer_factory.hpp:77] Creating layer pool2
I0407 08:22:58.714820 15775 net.cpp:84] Creating Layer pool2
I0407 08:22:58.714823 15775 net.cpp:406] pool2 <- norm2
I0407 08:22:58.714828 15775 net.cpp:380] pool2 -> pool2
I0407 08:22:58.714856 15775 net.cpp:122] Setting up pool2
I0407 08:22:58.714861 15775 net.cpp:129] Top shape: 128 256 13 13 (5537792)
I0407 08:22:58.714864 15775 net.cpp:137] Memory required for data: 869840896
I0407 08:22:58.714865 15775 layer_factory.hpp:77] Creating layer conv3
I0407 08:22:58.714874 15775 net.cpp:84] Creating Layer conv3
I0407 08:22:58.714876 15775 net.cpp:406] conv3 <- pool2
I0407 08:22:58.714881 15775 net.cpp:380] conv3 -> conv3
I0407 08:22:58.725339 15775 net.cpp:122] Setting up conv3
I0407 08:22:58.725354 15775 net.cpp:129] Top shape: 128 384 13 13 (8306688)
I0407 08:22:58.725358 15775 net.cpp:137] Memory required for data: 903067648
I0407 08:22:58.725366 15775 layer_factory.hpp:77] Creating layer relu3
I0407 08:22:58.725373 15775 net.cpp:84] Creating Layer relu3
I0407 08:22:58.725375 15775 net.cpp:406] relu3 <- conv3
I0407 08:22:58.725381 15775 net.cpp:367] relu3 -> conv3 (in-place)
I0407 08:22:58.725899 15775 net.cpp:122] Setting up relu3
I0407 08:22:58.725909 15775 net.cpp:129] Top shape: 128 384 13 13 (8306688)
I0407 08:22:58.725912 15775 net.cpp:137] Memory required for data: 936294400
I0407 08:22:58.725915 15775 layer_factory.hpp:77] Creating layer conv4
I0407 08:22:58.725924 15775 net.cpp:84] Creating Layer conv4
I0407 08:22:58.725926 15775 net.cpp:406] conv4 <- conv3
I0407 08:22:58.725931 15775 net.cpp:380] conv4 -> conv4
I0407 08:22:58.737085 15775 net.cpp:122] Setting up conv4
I0407 08:22:58.737100 15775 net.cpp:129] Top shape: 128 384 13 13 (8306688)
I0407 08:22:58.737103 15775 net.cpp:137] Memory required for data: 969521152
I0407 08:22:58.737110 15775 layer_factory.hpp:77] Creating layer relu4
I0407 08:22:58.737118 15775 net.cpp:84] Creating Layer relu4
I0407 08:22:58.737139 15775 net.cpp:406] relu4 <- conv4
I0407 08:22:58.737146 15775 net.cpp:367] relu4 -> conv4 (in-place)
I0407 08:22:58.737488 15775 net.cpp:122] Setting up relu4
I0407 08:22:58.737496 15775 net.cpp:129] Top shape: 128 384 13 13 (8306688)
I0407 08:22:58.737498 15775 net.cpp:137] Memory required for data: 1002747904
I0407 08:22:58.737501 15775 layer_factory.hpp:77] Creating layer conv5
I0407 08:22:58.737512 15775 net.cpp:84] Creating Layer conv5
I0407 08:22:58.737515 15775 net.cpp:406] conv5 <- conv4
I0407 08:22:58.737520 15775 net.cpp:380] conv5 -> conv5
I0407 08:22:58.746017 15775 net.cpp:122] Setting up conv5
I0407 08:22:58.746031 15775 net.cpp:129] Top shape: 128 256 13 13 (5537792)
I0407 08:22:58.746033 15775 net.cpp:137] Memory required for data: 1024899072
I0407 08:22:58.746045 15775 layer_factory.hpp:77] Creating layer relu5
I0407 08:22:58.746052 15775 net.cpp:84] Creating Layer relu5
I0407 08:22:58.746054 15775 net.cpp:406] relu5 <- conv5
I0407 08:22:58.746060 15775 net.cpp:367] relu5 -> conv5 (in-place)
I0407 08:22:58.746572 15775 net.cpp:122] Setting up relu5
I0407 08:22:58.746582 15775 net.cpp:129] Top shape: 128 256 13 13 (5537792)
I0407 08:22:58.746584 15775 net.cpp:137] Memory required for data: 1047050240
I0407 08:22:58.746587 15775 layer_factory.hpp:77] Creating layer pool5
I0407 08:22:58.746593 15775 net.cpp:84] Creating Layer pool5
I0407 08:22:58.746596 15775 net.cpp:406] pool5 <- conv5
I0407 08:22:58.746600 15775 net.cpp:380] pool5 -> pool5
I0407 08:22:58.746637 15775 net.cpp:122] Setting up pool5
I0407 08:22:58.746642 15775 net.cpp:129] Top shape: 128 256 6 6 (1179648)
I0407 08:22:58.746644 15775 net.cpp:137] Memory required for data: 1051768832
I0407 08:22:58.746646 15775 layer_factory.hpp:77] Creating layer fc6
I0407 08:22:58.746657 15775 net.cpp:84] Creating Layer fc6
I0407 08:22:58.746659 15775 net.cpp:406] fc6 <- pool5
I0407 08:22:58.746663 15775 net.cpp:380] fc6 -> fc6
I0407 08:22:59.085840 15775 net.cpp:122] Setting up fc6
I0407 08:22:59.085858 15775 net.cpp:129] Top shape: 128 4096 (524288)
I0407 08:22:59.085861 15775 net.cpp:137] Memory required for data: 1053865984
I0407 08:22:59.085870 15775 layer_factory.hpp:77] Creating layer relu6
I0407 08:22:59.085877 15775 net.cpp:84] Creating Layer relu6
I0407 08:22:59.085880 15775 net.cpp:406] relu6 <- fc6
I0407 08:22:59.085891 15775 net.cpp:367] relu6 -> fc6 (in-place)
I0407 08:22:59.086488 15775 net.cpp:122] Setting up relu6
I0407 08:22:59.086498 15775 net.cpp:129] Top shape: 128 4096 (524288)
I0407 08:22:59.086499 15775 net.cpp:137] Memory required for data: 1055963136
I0407 08:22:59.086503 15775 layer_factory.hpp:77] Creating layer drop6
I0407 08:22:59.086508 15775 net.cpp:84] Creating Layer drop6
I0407 08:22:59.086510 15775 net.cpp:406] drop6 <- fc6
I0407 08:22:59.086515 15775 net.cpp:367] drop6 -> fc6 (in-place)
I0407 08:22:59.086539 15775 net.cpp:122] Setting up drop6
I0407 08:22:59.086544 15775 net.cpp:129] Top shape: 128 4096 (524288)
I0407 08:22:59.086545 15775 net.cpp:137] Memory required for data: 1058060288
I0407 08:22:59.086547 15775 layer_factory.hpp:77] Creating layer fc7
I0407 08:22:59.086555 15775 net.cpp:84] Creating Layer fc7
I0407 08:22:59.086557 15775 net.cpp:406] fc7 <- fc6
I0407 08:22:59.086560 15775 net.cpp:380] fc7 -> fc7
I0407 08:22:59.232445 15775 net.cpp:122] Setting up fc7
I0407 08:22:59.232462 15775 net.cpp:129] Top shape: 128 4096 (524288)
I0407 08:22:59.232465 15775 net.cpp:137] Memory required for data: 1060157440
I0407 08:22:59.232473 15775 layer_factory.hpp:77] Creating layer relu7
I0407 08:22:59.232481 15775 net.cpp:84] Creating Layer relu7
I0407 08:22:59.232483 15775 net.cpp:406] relu7 <- fc7
I0407 08:22:59.232491 15775 net.cpp:367] relu7 -> fc7 (in-place)
I0407 08:22:59.232858 15775 net.cpp:122] Setting up relu7
I0407 08:22:59.232865 15775 net.cpp:129] Top shape: 128 4096 (524288)
I0407 08:22:59.232867 15775 net.cpp:137] Memory required for data: 1062254592
I0407 08:22:59.232870 15775 layer_factory.hpp:77] Creating layer drop7
I0407 08:22:59.232877 15775 net.cpp:84] Creating Layer drop7
I0407 08:22:59.232901 15775 net.cpp:406] drop7 <- fc7
I0407 08:22:59.232905 15775 net.cpp:367] drop7 -> fc7 (in-place)
I0407 08:22:59.232928 15775 net.cpp:122] Setting up drop7
I0407 08:22:59.232933 15775 net.cpp:129] Top shape: 128 4096 (524288)
I0407 08:22:59.232934 15775 net.cpp:137] Memory required for data: 1064351744
I0407 08:22:59.232936 15775 layer_factory.hpp:77] Creating layer fc8
I0407 08:22:59.232942 15775 net.cpp:84] Creating Layer fc8
I0407 08:22:59.232945 15775 net.cpp:406] fc8 <- fc7
I0407 08:22:59.232950 15775 net.cpp:380] fc8 -> fc8
I0407 08:22:59.241638 15775 net.cpp:122] Setting up fc8
I0407 08:22:59.241647 15775 net.cpp:129] Top shape: 128 196 (25088)
I0407 08:22:59.241650 15775 net.cpp:137] Memory required for data: 1064452096
I0407 08:22:59.241655 15775 layer_factory.hpp:77] Creating layer loss
I0407 08:22:59.241662 15775 net.cpp:84] Creating Layer loss
I0407 08:22:59.241664 15775 net.cpp:406] loss <- fc8
I0407 08:22:59.241667 15775 net.cpp:406] loss <- label
I0407 08:22:59.241672 15775 net.cpp:380] loss -> loss
I0407 08:22:59.241680 15775 layer_factory.hpp:77] Creating layer loss
…
I0407 08:22:59.243899 15775 net.cpp:294] The NetState phase (1) differed from the phase (0) specified by a rule in layer train-data
I0407 08:22:59.244029 15775 net.cpp:51] Initializing net from parameters:
state {
phase: TEST
}
layer {
name: "val-data"
type: "Data"
top: "data"
top: "label"
include {
phase: TEST
}
transform_param {
crop_size: 227
mean_file: "/mnt/bigdisk/DIGITS-AIN-3/digits/jobs/20210401-115716-aaf7/mean.binaryproto"
}
data_param {
source: "/mnt/bigdisk/DIGITS-AIN-3/digits/jobs/20210401-115716-aaf7/val_db"
batch_size: 32
backend: LMDB
}
}
layer {
name: "conv1"
type: "Convolution"
bottom: "data"
top: "conv1"
param {
lr_mult: 1
decay_mult: 1
}
param {
lr_mult: 2
decay_mult: 0
}
convolution_param {
num_output: 96
kernel_size: 11
stride: 4
weight_filler {
type: "gaussian"
std: 0.01
}
bias_filler {
type: "constant"
value: 0
}
}
}
layer {
name: "relu1"
type: "ReLU"
bottom: "conv1"
top: "conv1"
}
layer {
name: "norm1"
type: "LRN"
bottom: "conv1"
top: "norm1"
lrn_param {
local_size: 5
alpha: 0.0001
beta: 0.75
}
}
layer {
name: "pool1"
type: "Pooling"
bottom: "norm1"
top: "pool1"
pooling_param {
pool: MAX
kernel_size: 3
stride: 2
}
}
layer {
name: "conv2"
type: "Convolution"
bottom: "pool1"
top: "conv2"
param {
lr_mult: 1
decay_mult: 1
}
param {
lr_mult: 2
decay_mult: 0
}
convolution_param {
num_output: 256
pad: 2
kernel_size: 5
group: 2
weight_filler {
type: "gaussian"
std: 0.01
}
bias_filler {
type: "constant"
value: 0.1
}
}
}
layer {
name: "relu2"
type: "ReLU"
bottom: "conv2"
top: "conv2"
}
layer {
name: "norm2"
type: "LRN"
bottom: "conv2"
top: "norm2"
lrn_param {
local_size: 5
alpha: 0.0001
beta: 0.75
}
}
layer {
name: "pool2"
type: "Pooling"
bottom: "norm2"
top: "pool2"
pooling_param {
pool: MAX
kernel_size: 3
stride: 2
}
}
layer {
name: "conv3"
type: "Convolution"
bottom: "pool2"
top: "conv3"
param {
lr_mult: 1
decay_mult: 1
}
param {
lr_mult: 2
decay_mult: 0
}
convolution_param {
num_output: 384
pad: 1
kernel_size: 3
weight_filler {
type: "gaussian"
std: 0.01
}
bias_filler {
type: "constant"
value: 0
}
}
}
layer {
name: "relu3"
type: "ReLU"
bottom: "conv3"
top: "conv3"
}
layer {
name: "conv4"
type: "Convolution"
bottom: "conv3"
top: "conv4"
param {
lr_mult: 1
decay_mult: 1
}
param {
lr_mult: 2
decay_mult: 0
}
convolution_param {
num_output: 384
pad: 1
kernel_size: 3
group: 2
weight_filler {
type: "gaussian"
std: 0.01
}
bias_filler {
type: "constant"
value: 0.1
}
}
}
layer {
name: "relu4"
type: "ReLU"
bottom: "conv4"
top: "conv4"
}
layer {
name: "conv5"
type: "Convolution"
bottom: "conv4"
top: "conv5"
param {
lr_mult: 1
decay_mult: 1
}
param {
lr_mult: 2
decay_mult: 0
}
convolution_param {
num_output: 256
pad: 1
kernel_size: 3
group: 2
weight_filler {
type: "gaussian"
std: 0.01
}
bias_filler {
type: "constant"
value: 0.1
}
}
}
layer {
name: "relu5"
type: "ReLU"
bottom: "conv5"
top: "conv5"
}
layer {
name: "pool5"
type: "Pooling"
bottom: "conv5"
top: "pool5"
pooling_param {
pool: MAX
kernel_size: 3
stride: 2
}
}
layer {
name: "fc6"
type: "InnerProduct"
bottom: "pool5"
top: "fc6"
param {
lr_mult: 1
decay_mult: 1
}
param {
lr_mult: 2
decay_mult: 0
}
inner_product_param {
num_output: 4096
weight_filler {
type: "gaussian"
std: 0.005
}
bias_filler {
type: "constant"
value: 0.1
}
}
}
layer {
name: "relu6"
type: "ReLU"
bottom: "fc6"
top: "fc6"
}
layer {
name: "drop6"
type: "Dropout"
bottom: "fc6"
top: "fc6"
dropout_param {
dropout_ratio: 0.5
}
}
layer {
name: "fc7"
type: "InnerProduct"
bottom: "fc6"
top: "fc7"
param {
lr_mult: 1
decay_mult: 1
}
param {
lr_mult: 2
decay_mult: 0
}
inner_product_param {
num_output: 4096
weight_filler {
type: "gaussian"
std: 0.005
}
bias_filler {
type: "constant"
value: 0.1
}
}
}
layer {
name: "relu7"
type: "ReLU"
bottom: "fc7"
top: "fc7"
}
layer {
name: "drop7"
type: "Dropout"
bottom: "fc7"
top: "fc7"
dropout_param {
dropout_ratio: 0.5
}
}
layer {
name: "fc8"
type: "InnerProduct"
bottom: "fc7"
top: "fc8"
param {
lr_mult: 1
decay_mult: 1
}
param {
lr_mult: 2
decay_mult: 0
}
inner_product_param {
num_output: 196
weight_filler {
type: "gaussian"
std: 0.01
}
bias_filler {
type: "constant"
value: 0
}
}
}
layer {
name: "accuracy"
type: "Accuracy"
bottom: "fc8"
bottom: "label"
top: "accuracy"
include {
phase: TEST
}
}
layer {
name: "loss"
type: "SoftmaxWithLoss"
bottom: "fc8"
bottom: "label"
top: "loss"
}
I0407 08:22:59.244122 15775 layer_factory.hpp:77] Creating layer val-data
I0407 08:22:59.256011 15775 db_lmdb.cpp:35] Opened lmdb /mnt/bigdisk/DIGITS-AIN-3/digits/jobs/20210401-115716-aaf7/val_db
I0407 08:22:59.256232 15775 net.cpp:84] Creating Layer val-data
I0407 08:22:59.256242 15775 net.cpp:380] val-data -> data
I0407 08:22:59.256253 15775 net.cpp:380] val-data -> label
I0407 08:22:59.256259 15775 data_transformer.cpp:25] Loading mean file from: /mnt/bigdisk/DIGITS-AIN-3/digits/jobs/20210401-115716-aaf7/mean.binaryproto
I0407 08:22:59.260248 15775 data_layer.cpp:45] output data size: 32,3,227,227
I0407 08:22:59.301146 15775 net.cpp:122] Setting up val-data
I0407 08:22:59.301164 15775 net.cpp:129] Top shape: 32 3 227 227 (4946784)
I0407 08:22:59.301167 15775 net.cpp:129] Top shape: 32 (32)
I0407 08:22:59.301169 15775 net.cpp:137] Memory required for data: 19787264
I0407 08:22:59.301174 15775 layer_factory.hpp:77] Creating layer label_val-data_1_split
I0407 08:22:59.301185 15775 net.cpp:84] Creating Layer label_val-data_1_split
I0407 08:22:59.301188 15775 net.cpp:406] label_val-data_1_split <- label
I0407 08:22:59.301193 15775 net.cpp:380] label_val-data_1_split -> label_val-data_1_split_0
I0407 08:22:59.301201 15775 net.cpp:380] label_val-data_1_split -> label_val-data_1_split_1
I0407 08:22:59.301267 15775 net.cpp:122] Setting up label_val-data_1_split
I0407 08:22:59.301272 15775 net.cpp:129] Top shape: 32 (32)
I0407 08:22:59.301275 15775 net.cpp:129] Top shape: 32 (32)
I0407 08:22:59.301276 15775 net.cpp:137] Memory required for data: 19787520
I0407 08:22:59.301278 15775 layer_factory.hpp:77] Creating layer conv1
I0407 08:22:59.301288 15775 net.cpp:84] Creating Layer conv1
I0407 08:22:59.301291 15775 net.cpp:406] conv1 <- data
I0407 08:22:59.301295 15775 net.cpp:380] conv1 -> conv1
I0407 08:22:59.303838 15775 net.cpp:122] Setting up conv1
I0407 08:22:59.303846 15775 net.cpp:129] Top shape: 32 96 55 55 (9292800)
I0407 08:22:59.303849 15775 net.cpp:137] Memory required for data: 56958720
I0407 08:22:59.303858 15775 layer_factory.hpp:77] Creating layer relu1
I0407 08:22:59.303862 15775 net.cpp:84] Creating Layer relu1
I0407 08:22:59.303865 15775 net.cpp:406] relu1 <- conv1
I0407 08:22:59.303869 15775 net.cpp:367] relu1 -> conv1 (in-place)
I0407 08:22:59.304126 15775 net.cpp:122] Setting up relu1
I0407 08:22:59.304133 15775 net.cpp:129] Top shape: 32 96 55 55 (9292800)
I0407 08:22:59.304136 15775 net.cpp:137] Memory required for data: 94129920
I0407 08:22:59.304137 15775 layer_factory.hpp:77] Creating layer norm1
I0407 08:22:59.304144 15775 net.cpp:84] Creating Layer norm1
I0407 08:22:59.304147 15775 net.cpp:406] norm1 <- conv1
I0407 08:22:59.304152 15775 net.cpp:380] norm1 -> norm1
I0407 08:22:59.304596 15775 net.cpp:122] Setting up norm1
I0407 08:22:59.304605 15775 net.cpp:129] Top shape: 32 96 55 55 (9292800)
I0407 08:22:59.304607 15775 net.cpp:137] Memory required for data: 131301120
I0407 08:22:59.304610 15775 layer_factory.hpp:77] Creating layer pool1
I0407 08:22:59.304615 15775 net.cpp:84] Creating Layer pool1
I0407 08:22:59.304618 15775 net.cpp:406] pool1 <- norm1
I0407 08:22:59.304622 15775 net.cpp:380] pool1 -> pool1
I0407 08:22:59.304646 15775 net.cpp:122] Setting up pool1
I0407 08:22:59.304651 15775 net.cpp:129] Top shape: 32 96 27 27 (2239488)
I0407 08:22:59.304652 15775 net.cpp:137] Memory required for data: 140259072
I0407 08:22:59.304656 15775 layer_factory.hpp:77] Creating layer conv2
I0407 08:22:59.304661 15775 net.cpp:84] Creating Layer conv2
I0407 08:22:59.304663 15775 net.cpp:406] conv2 <- pool1
I0407 08:22:59.304685 15775 net.cpp:380] conv2 -> conv2
I0407 08:22:59.310736 15775 net.cpp:122] Setting up conv2
I0407 08:22:59.310750 15775 net.cpp:129] Top shape: 32 256 27 27 (5971968)
I0407 08:22:59.310751 15775 net.cpp:137] Memory required for data: 164146944
I0407 08:22:59.310760 15775 layer_factory.hpp:77] Creating layer relu2
I0407 08:22:59.310765 15775 net.cpp:84] Creating Layer relu2
I0407 08:22:59.310767 15775 net.cpp:406] relu2 <- conv2
I0407 08:22:59.310773 15775 net.cpp:367] relu2 -> conv2 (in-place)
I0407 08:22:59.311266 15775 net.cpp:122] Setting up relu2
I0407 08:22:59.311275 15775 net.cpp:129] Top shape: 32 256 27 27 (5971968)
I0407 08:22:59.311276 15775 net.cpp:137] Memory required for data: 188034816
I0407 08:22:59.311280 15775 layer_factory.hpp:77] Creating layer norm2
I0407 08:22:59.311287 15775 net.cpp:84] Creating Layer norm2
I0407 08:22:59.311290 15775 net.cpp:406] norm2 <- conv2
I0407 08:22:59.311295 15775 net.cpp:380] norm2 -> norm2
I0407 08:22:59.311802 15775 net.cpp:122] Setting up norm2
I0407 08:22:59.311812 15775 net.cpp:129] Top shape: 32 256 27 27 (5971968)
I0407 08:22:59.311815 15775 net.cpp:137] Memory required for data: 211922688
I0407 08:22:59.311817 15775 layer_factory.hpp:77] Creating layer pool2
I0407 08:22:59.311822 15775 net.cpp:84] Creating Layer pool2
I0407 08:22:59.311825 15775 net.cpp:406] pool2 <- norm2
I0407 08:22:59.311830 15775 net.cpp:380] pool2 -> pool2
I0407 08:22:59.311857 15775 net.cpp:122] Setting up pool2
I0407 08:22:59.311861 15775 net.cpp:129] Top shape: 32 256 13 13 (1384448)
I0407 08:22:59.311863 15775 net.cpp:137] Memory required for data: 217460480
I0407 08:22:59.311866 15775 layer_factory.hpp:77] Creating layer conv3
I0407 08:22:59.311873 15775 net.cpp:84] Creating Layer conv3
I0407 08:22:59.311875 15775 net.cpp:406] conv3 <- pool2
I0407 08:22:59.311880 15775 net.cpp:380] conv3 -> conv3
I0407 08:22:59.321751 15775 net.cpp:122] Setting up conv3
I0407 08:22:59.321766 15775 net.cpp:129] Top shape: 32 384 13 13 (2076672)
I0407 08:22:59.321769 15775 net.cpp:137] Memory required for data: 225767168
I0407 08:22:59.321779 15775 layer_factory.hpp:77] Creating layer relu3
I0407 08:22:59.321784 15775 net.cpp:84] Creating Layer relu3
I0407 08:22:59.321787 15775 net.cpp:406] relu3 <- conv3
I0407 08:22:59.321794 15775 net.cpp:367] relu3 -> conv3 (in-place)
I0407 08:22:59.322284 15775 net.cpp:122] Setting up relu3
I0407 08:22:59.322293 15775 net.cpp:129] Top shape: 32 384 13 13 (2076672)
I0407 08:22:59.322294 15775 net.cpp:137] Memory required for data: 234073856
I0407 08:22:59.322297 15775 layer_factory.hpp:77] Creating layer conv4
I0407 08:22:59.322306 15775 net.cpp:84] Creating Layer conv4
I0407 08:22:59.322309 15775 net.cpp:406] conv4 <- conv3
I0407 08:22:59.322315 15775 net.cpp:380] conv4 -> conv4
I0407 08:22:59.331331 15775 net.cpp:122] Setting up conv4
I0407 08:22:59.331346 15775 net.cpp:129] Top shape: 32 384 13 13 (2076672)
I0407 08:22:59.331347 15775 net.cpp:137] Memory required for data: 242380544
I0407 08:22:59.331353 15775 layer_factory.hpp:77] Creating layer relu4
I0407 08:22:59.331359 15775 net.cpp:84] Creating Layer relu4
I0407 08:22:59.331362 15775 net.cpp:406] relu4 <- conv4
I0407 08:22:59.331367 15775 net.cpp:367] relu4 -> conv4 (in-place)
I0407 08:22:59.331679 15775 net.cpp:122] Setting up relu4
I0407 08:22:59.331686 15775 net.cpp:129] Top shape: 32 384 13 13 (2076672)
I0407 08:22:59.331688 15775 net.cpp:137] Memory required for data: 250687232
I0407 08:22:59.331691 15775 layer_factory.hpp:77] Creating layer conv5
I0407 08:22:59.331699 15775 net.cpp:84] Creating Layer conv5
I0407 08:22:59.331702 15775 net.cpp:406] conv5 <- conv4
I0407 08:22:59.331708 15775 net.cpp:380] conv5 -> conv5
I0407 08:22:59.339571 15775 net.cpp:122] Setting up conv5
I0407 08:22:59.339586 15775 net.cpp:129] Top shape: 32 256 13 13 (1384448)
I0407 08:22:59.339589 15775 net.cpp:137] Memory required for data: 256225024
I0407 08:22:59.339599 15775 layer_factory.hpp:77] Creating layer relu5
I0407 08:22:59.339607 15775 net.cpp:84] Creating Layer relu5
I0407 08:22:59.339627 15775 net.cpp:406] relu5 <- conv5
I0407 08:22:59.339633 15775 net.cpp:367] relu5 -> conv5 (in-place)
I0407 08:22:59.340127 15775 net.cpp:122] Setting up relu5
I0407 08:22:59.340137 15775 net.cpp:129] Top shape: 32 256 13 13 (1384448)
I0407 08:22:59.340138 15775 net.cpp:137] Memory required for data: 261762816
I0407 08:22:59.340142 15775 layer_factory.hpp:77] Creating layer pool5
I0407 08:22:59.340149 15775 net.cpp:84] Creating Layer pool5
I0407 08:22:59.340152 15775 net.cpp:406] pool5 <- conv5
I0407 08:22:59.340157 15775 net.cpp:380] pool5 -> pool5
I0407 08:22:59.340189 15775 net.cpp:122] Setting up pool5
I0407 08:22:59.340193 15775 net.cpp:129] Top shape: 32 256 6 6 (294912)
I0407 08:22:59.340196 15775 net.cpp:137] Memory required for data: 262942464
I0407 08:22:59.340198 15775 layer_factory.hpp:77] Creating layer fc6
I0407 08:22:59.340205 15775 net.cpp:84] Creating Layer fc6
I0407 08:22:59.340207 15775 net.cpp:406] fc6 <- pool5
I0407 08:22:59.340212 15775 net.cpp:380] fc6 -> fc6
I0407 08:22:59.704593 15775 net.cpp:122] Setting up fc6
I0407 08:22:59.704617 15775 net.cpp:129] Top shape: 32 4096 (131072)
I0407 08:22:59.704620 15775 net.cpp:137] Memory required for data: 263466752
I0407 08:22:59.704632 15775 layer_factory.hpp:77] Creating layer relu6
I0407 08:22:59.704643 15775 net.cpp:84] Creating Layer relu6
I0407 08:22:59.704646 15775 net.cpp:406] relu6 <- fc6
I0407 08:22:59.704656 15775 net.cpp:367] relu6 -> fc6 (in-place)
I0407 08:22:59.705866 15775 net.cpp:122] Setting up relu6
I0407 08:22:59.705878 15775 net.cpp:129] Top shape: 32 4096 (131072)
I0407 08:22:59.705881 15775 net.cpp:137] Memory required for data: 263991040
I0407 08:22:59.705886 15775 layer_factory.hpp:77] Creating layer drop6
I0407 08:22:59.705893 15775 net.cpp:84] Creating Layer drop6
I0407 08:22:59.705897 15775 net.cpp:406] drop6 <- fc6
I0407 08:22:59.705905 15775 net.cpp:367] drop6 -> fc6 (in-place)
I0407 08:22:59.705933 15775 net.cpp:122] Setting up drop6
I0407 08:22:59.705941 15775 net.cpp:129] Top shape: 32 4096 (131072)
I0407 08:22:59.705945 15775 net.cpp:137] Memory required for data: 264515328
I0407 08:22:59.705948 15775 layer_factory.hpp:77] Creating layer fc7
I0407 08:22:59.705956 15775 net.cpp:84] Creating Layer fc7
I0407 08:22:59.705965 15775 net.cpp:406] fc7 <- fc6
I0407 08:22:59.705973 15775 net.cpp:380] fc7 -> fc7
I0407 08:22:59.865497 15775 net.cpp:122] Setting up fc7
I0407 08:22:59.865517 15775 net.cpp:129] Top shape: 32 4096 (131072)
I0407 08:22:59.865520 15775 net.cpp:137] Memory required for data: 265039616
I0407 08:22:59.865527 15775 layer_factory.hpp:77] Creating layer relu7
I0407 08:22:59.865536 15775 net.cpp:84] Creating Layer relu7
I0407 08:22:59.865540 15775 net.cpp:406] relu7 <- fc7
I0407 08:22:59.865545 15775 net.cpp:367] relu7 -> fc7 (in-place)
I0407 08:22:59.865927 15775 net.cpp:122] Setting up relu7
I0407 08:22:59.865934 15775 net.cpp:129] Top shape: 32 4096 (131072)
I0407 08:22:59.865936 15775 net.cpp:137] Memory required for data: 265563904
I0407 08:22:59.865939 15775 layer_factory.hpp:77] Creating layer drop7
I0407 08:22:59.865944 15775 net.cpp:84] Creating Layer drop7
I0407 08:22:59.865947 15775 net.cpp:406] drop7 <- fc7
I0407 08:22:59.865952 15775 net.cpp:367] drop7 -> fc7 (in-place)
I0407 08:22:59.865972 15775 net.cpp:122] Setting up drop7
I0407 08:22:59.865978 15775 net.cpp:129] Top shape: 32 4096 (131072)
I0407 08:22:59.865979 15775 net.cpp:137] Memory required for data: 266088192
I0407 08:22:59.865981 15775 layer_factory.hpp:77] Creating layer fc8
I0407 08:22:59.865988 15775 net.cpp:84] Creating Layer fc8
I0407 08:22:59.865989 15775 net.cpp:406] fc8 <- fc7
I0407 08:22:59.865994 15775 net.cpp:380] fc8 -> fc8
I0407 08:22:59.873194 15775 net.cpp:122] Setting up fc8
I0407 08:22:59.873206 15775 net.cpp:129] Top shape: 32 196 (6272)
I0407 08:22:59.873208 15775 net.cpp:137] Memory required for data: 266113280
I0407 08:22:59.873214 15775 layer_factory.hpp:77] Creating layer fc8_fc8_0_split
I0407 08:22:59.873219 15775 net.cpp:84] Creating Layer fc8_fc8_0_split
I0407 08:22:59.873220 15775 net.cpp:406] fc8_fc8_0_split <- fc8
I0407 08:22:59.873243 15775 net.cpp:380] fc8_fc8_0_split -> fc8_fc8_0_split_0
I0407 08:22:59.873250 15775 net.cpp:380] fc8_fc8_0_split -> fc8_fc8_0_split_1
I0407 08:22:59.873281 15775 net.cpp:122] Setting up fc8_fc8_0_split
I0407 08:22:59.873286 15775 net.cpp:129] Top shape: 32 196 (6272)
I0407 08:22:59.873288 15775 net.cpp:129] Top shape: 32 196 (6272)
I0407 08:22:59.873291 15775 net.cpp:137] Memory required for data: 266163456
I0407 08:22:59.873292 15775 layer_factory.hpp:77] Creating layer accuracy
I0407 08:22:59.873297 15775 net.cpp:84] Creating Layer accuracy
I0407 08:22:59.873299 15775 net.cpp:406] accuracy <- fc8_fc8_0_split_0
I0407 08:22:59.873302 15775 net.cpp:406] accuracy <- label_val-data_1_split_0
I0407 08:22:59.873307 15775 net.cpp:380] accuracy -> accuracy
…
