…
I0419 11:34:38.345489 18146 net.cpp:294] The NetState phase (0) differed from the phase (1) specified by a rule in layer accuracy
I0419 11:34:38.345609 18146 net.cpp:51] Initializing net from parameters:
state {
phase: TRAIN
level: 0
stage: ""
}
layer {
name: "train-data"
type: "Data"
top: "data"
top: "label"
include {
phase: TRAIN
}
transform_param {
mirror: true
crop_size: 227
mean_file: "/mnt/bigdisk/DIGITS-AMB-2/digits/jobs/20210419-113214-d311/mean.binaryproto"
}
data_param {
source: "/mnt/bigdisk/DIGITS-AMB-2/digits/jobs/20210419-113214-d311/train_db"
batch_size: 128
backend: LMDB
}
}
layer {
name: "conv1"
type: "Convolution"
bottom: "data"
top: "conv1"
param {
lr_mult: 1
decay_mult: 1
}
param {
lr_mult: 2
decay_mult: 0
}
convolution_param {
num_output: 96
kernel_size: 11
stride: 4
weight_filler {
type: "gaussian"
std: 0.01
}
bias_filler {
type: "constant"
value: 0
}
}
}
layer {
name: "relu1"
type: "ReLU"
bottom: "conv1"
top: "conv1"
}
layer {
name: "norm1"
type: "LRN"
bottom: "conv1"
top: "norm1"
lrn_param {
local_size: 5
alpha: 0.0001
beta: 0.75
}
}
layer {
name: "pool1"
type: "Pooling"
bottom: "norm1"
top: "pool1"
pooling_param {
pool: MAX
kernel_size: 3
stride: 2
}
}
layer {
name: "conv2"
type: "Convolution"
bottom: "pool1"
top: "conv2"
param {
lr_mult: 1
decay_mult: 1
}
param {
lr_mult: 2
decay_mult: 0
}
convolution_param {
num_output: 256
pad: 2
kernel_size: 5
group: 2
weight_filler {
type: "gaussian"
std: 0.01
}
bias_filler {
type: "constant"
value: 0.1
}
}
}
layer {
name: "relu2"
type: "ReLU"
bottom: "conv2"
top: "conv2"
}
layer {
name: "norm2"
type: "LRN"
bottom: "conv2"
top: "norm2"
lrn_param {
local_size: 5
alpha: 0.0001
beta: 0.75
}
}
layer {
name: "pool2"
type: "Pooling"
bottom: "norm2"
top: "pool2"
pooling_param {
pool: MAX
kernel_size: 3
stride: 2
}
}
layer {
name: "conv3"
type: "Convolution"
bottom: "pool2"
top: "conv3"
param {
lr_mult: 1
decay_mult: 1
}
param {
lr_mult: 2
decay_mult: 0
}
convolution_param {
num_output: 384
pad: 1
kernel_size: 3
weight_filler {
type: "gaussian"
std: 0.01
}
bias_filler {
type: "constant"
value: 0
}
}
}
layer {
name: "relu3"
type: "ReLU"
bottom: "conv3"
top: "conv3"
}
layer {
name: "conv4"
type: "Convolution"
bottom: "conv3"
top: "conv4"
param {
lr_mult: 1
decay_mult: 1
}
param {
lr_mult: 2
decay_mult: 0
}
convolution_param {
num_output: 384
pad: 1
kernel_size: 3
group: 2
weight_filler {
type: "gaussian"
std: 0.01
}
bias_filler {
type: "constant"
value: 0.1
}
}
}
layer {
name: "relu4"
type: "ReLU"
bottom: "conv4"
top: "conv4"
}
layer {
name: "conv5"
type: "Convolution"
bottom: "conv4"
top: "conv5"
param {
lr_mult: 1
decay_mult: 1
}
param {
lr_mult: 2
decay_mult: 0
}
convolution_param {
num_output: 256
pad: 1
kernel_size: 3
group: 2
weight_filler {
type: "gaussian"
std: 0.01
}
bias_filler {
type: "constant"
value: 0.1
}
}
}
layer {
name: "relu5"
type: "ReLU"
bottom: "conv5"
top: "conv5"
}
layer {
name: "pool5"
type: "Pooling"
bottom: "conv5"
top: "pool5"
pooling_param {
pool: MAX
kernel_size: 3
stride: 2
}
}
layer {
name: "fc6"
type: "InnerProduct"
bottom: "pool5"
top: "fc6"
param {
lr_mult: 1
decay_mult: 1
}
param {
lr_mult: 2
decay_mult: 0
}
inner_product_param {
num_output: 4096
weight_filler {
type: "gaussian"
std: 0.005
}
bias_filler {
type: "constant"
value: 0.1
}
}
}
layer {
name: "relu6"
type: "ReLU"
bottom: "fc6"
top: "fc6"
}
layer {
name: "drop6"
type: "Dropout"
bottom: "fc6"
top: "fc6"
dropout_param {
dropout_ratio: 0.5
}
}
layer {
name: "fc7"
type: "InnerProduct"
bottom: "fc6"
top: "fc7"
param {
lr_mult: 1
decay_mult: 1
}
param {
lr_mult: 2
decay_mult: 0
}
inner_product_param {
num_output: 4096
weight_filler {
type: "gaussian"
std: 0.005
}
bias_filler {
type: "constant"
value: 0.1
}
}
}
layer {
name: "relu7"
type: "ReLU"
bottom: "fc7"
top: "fc7"
}
layer {
name: "drop7"
type: "Dropout"
bottom: "fc7"
top: "fc7"
dropout_param {
dropout_ratio: 0.5
}
}
layer {
name: "fc8"
type: "InnerProduct"
bottom: "fc7"
top: "fc8"
param {
lr_mult: 1
decay_mult: 1
}
param {
lr_mult: 2
decay_mult: 0
}
inner_product_param {
num_output: 196
weight_filler {
type: "gaussian"
std: 0.01
}
bias_filler {
type: "constant"
value: 0
}
}
}
layer {
name: "loss"
type: "SoftmaxWithLoss"
bottom: "fc8"
bottom: "label"
top: "loss"
}
I0419 11:34:38.345687 18146 layer_factory.hpp:77] Creating layer train-data
I0419 11:34:38.350240 18146 db_lmdb.cpp:35] Opened lmdb /mnt/bigdisk/DIGITS-AMB-2/digits/jobs/20210419-113214-d311/train_db
I0419 11:34:38.351855 18146 net.cpp:84] Creating Layer train-data
I0419 11:34:38.351872 18146 net.cpp:380] train-data -> data
I0419 11:34:38.351891 18146 net.cpp:380] train-data -> label
I0419 11:34:38.351903 18146 data_transformer.cpp:25] Loading mean file from: /mnt/bigdisk/DIGITS-AMB-2/digits/jobs/20210419-113214-d311/mean.binaryproto
I0419 11:34:38.357686 18146 data_layer.cpp:45] output data size: 128,3,227,227
I0419 11:34:38.482693 18146 net.cpp:122] Setting up train-data
I0419 11:34:38.482714 18146 net.cpp:129] Top shape: 128 3 227 227 (19787136)
I0419 11:34:38.482718 18146 net.cpp:129] Top shape: 128 (128)
I0419 11:34:38.482722 18146 net.cpp:137] Memory required for data: 79149056
I0419 11:34:38.482730 18146 layer_factory.hpp:77] Creating layer conv1
I0419 11:34:38.482749 18146 net.cpp:84] Creating Layer conv1
I0419 11:34:38.482754 18146 net.cpp:406] conv1 <- data
I0419 11:34:38.482766 18146 net.cpp:380] conv1 -> conv1
I0419 11:34:40.035984 18146 net.cpp:122] Setting up conv1
I0419 11:34:40.036011 18146 net.cpp:129] Top shape: 128 96 55 55 (37171200)
I0419 11:34:40.036017 18146 net.cpp:137] Memory required for data: 227833856
I0419 11:34:40.036046 18146 layer_factory.hpp:77] Creating layer relu1
I0419 11:34:40.036059 18146 net.cpp:84] Creating Layer relu1
I0419 11:34:40.036065 18146 net.cpp:406] relu1 <- conv1
I0419 11:34:40.036074 18146 net.cpp:367] relu1 -> conv1 (in-place)
I0419 11:34:40.036625 18146 net.cpp:122] Setting up relu1
I0419 11:34:40.036634 18146 net.cpp:129] Top shape: 128 96 55 55 (37171200)
I0419 11:34:40.036638 18146 net.cpp:137] Memory required for data: 376518656
I0419 11:34:40.036640 18146 layer_factory.hpp:77] Creating layer norm1
I0419 11:34:40.036650 18146 net.cpp:84] Creating Layer norm1
I0419 11:34:40.036653 18146 net.cpp:406] norm1 <- conv1
I0419 11:34:40.036674 18146 net.cpp:380] norm1 -> norm1
I0419 11:34:40.037218 18146 net.cpp:122] Setting up norm1
I0419 11:34:40.037228 18146 net.cpp:129] Top shape: 128 96 55 55 (37171200)
I0419 11:34:40.037231 18146 net.cpp:137] Memory required for data: 525203456
I0419 11:34:40.037235 18146 layer_factory.hpp:77] Creating layer pool1
I0419 11:34:40.037241 18146 net.cpp:84] Creating Layer pool1
I0419 11:34:40.037245 18146 net.cpp:406] pool1 <- norm1
I0419 11:34:40.037250 18146 net.cpp:380] pool1 -> pool1
I0419 11:34:40.037284 18146 net.cpp:122] Setting up pool1
I0419 11:34:40.037290 18146 net.cpp:129] Top shape: 128 96 27 27 (8957952)
I0419 11:34:40.037292 18146 net.cpp:137] Memory required for data: 561035264
I0419 11:34:40.037295 18146 layer_factory.hpp:77] Creating layer conv2
I0419 11:34:40.037305 18146 net.cpp:84] Creating Layer conv2
I0419 11:34:40.037308 18146 net.cpp:406] conv2 <- pool1
I0419 11:34:40.037312 18146 net.cpp:380] conv2 -> conv2
I0419 11:34:40.047349 18146 net.cpp:122] Setting up conv2
I0419 11:34:40.047363 18146 net.cpp:129] Top shape: 128 256 27 27 (23887872)
I0419 11:34:40.047366 18146 net.cpp:137] Memory required for data: 656586752
I0419 11:34:40.047375 18146 layer_factory.hpp:77] Creating layer relu2
I0419 11:34:40.047382 18146 net.cpp:84] Creating Layer relu2
I0419 11:34:40.047385 18146 net.cpp:406] relu2 <- conv2
I0419 11:34:40.047391 18146 net.cpp:367] relu2 -> conv2 (in-place)
I0419 11:34:40.047971 18146 net.cpp:122] Setting up relu2
I0419 11:34:40.047979 18146 net.cpp:129] Top shape: 128 256 27 27 (23887872)
I0419 11:34:40.047982 18146 net.cpp:137] Memory required for data: 752138240
I0419 11:34:40.047986 18146 layer_factory.hpp:77] Creating layer norm2
I0419 11:34:40.047993 18146 net.cpp:84] Creating Layer norm2
I0419 11:34:40.047997 18146 net.cpp:406] norm2 <- conv2
I0419 11:34:40.048002 18146 net.cpp:380] norm2 -> norm2
I0419 11:34:40.048403 18146 net.cpp:122] Setting up norm2
I0419 11:34:40.048410 18146 net.cpp:129] Top shape: 128 256 27 27 (23887872)
I0419 11:34:40.048413 18146 net.cpp:137] Memory required for data: 847689728
I0419 11:34:40.048416 18146 layer_factory.hpp:77] Creating layer pool2
I0419 11:34:40.048424 18146 net.cpp:84] Creating Layer pool2
I0419 11:34:40.048427 18146 net.cpp:406] pool2 <- norm2
I0419 11:34:40.048434 18146 net.cpp:380] pool2 -> pool2
I0419 11:34:40.048460 18146 net.cpp:122] Setting up pool2
I0419 11:34:40.048465 18146 net.cpp:129] Top shape: 128 256 13 13 (5537792)
I0419 11:34:40.048467 18146 net.cpp:137] Memory required for data: 869840896
I0419 11:34:40.048470 18146 layer_factory.hpp:77] Creating layer conv3
I0419 11:34:40.048478 18146 net.cpp:84] Creating Layer conv3
I0419 11:34:40.048481 18146 net.cpp:406] conv3 <- pool2
I0419 11:34:40.048486 18146 net.cpp:380] conv3 -> conv3
I0419 11:34:40.062609 18146 net.cpp:122] Setting up conv3
I0419 11:34:40.062620 18146 net.cpp:129] Top shape: 128 384 13 13 (8306688)
I0419 11:34:40.062623 18146 net.cpp:137] Memory required for data: 903067648
I0419 11:34:40.062633 18146 layer_factory.hpp:77] Creating layer relu3
I0419 11:34:40.062639 18146 net.cpp:84] Creating Layer relu3
I0419 11:34:40.062642 18146 net.cpp:406] relu3 <- conv3
I0419 11:34:40.062647 18146 net.cpp:367] relu3 -> conv3 (in-place)
I0419 11:34:40.063235 18146 net.cpp:122] Setting up relu3
I0419 11:34:40.063244 18146 net.cpp:129] Top shape: 128 384 13 13 (8306688)
I0419 11:34:40.063246 18146 net.cpp:137] Memory required for data: 936294400
I0419 11:34:40.063249 18146 layer_factory.hpp:77] Creating layer conv4
I0419 11:34:40.063259 18146 net.cpp:84] Creating Layer conv4
I0419 11:34:40.063262 18146 net.cpp:406] conv4 <- conv3
I0419 11:34:40.063267 18146 net.cpp:380] conv4 -> conv4
I0419 11:34:40.074048 18146 net.cpp:122] Setting up conv4
I0419 11:34:40.074059 18146 net.cpp:129] Top shape: 128 384 13 13 (8306688)
I0419 11:34:40.074062 18146 net.cpp:137] Memory required for data: 969521152
I0419 11:34:40.074069 18146 layer_factory.hpp:77] Creating layer relu4
I0419 11:34:40.074074 18146 net.cpp:84] Creating Layer relu4
I0419 11:34:40.074091 18146 net.cpp:406] relu4 <- conv4
I0419 11:34:40.074096 18146 net.cpp:367] relu4 -> conv4 (in-place)
I0419 11:34:40.074645 18146 net.cpp:122] Setting up relu4
I0419 11:34:40.074656 18146 net.cpp:129] Top shape: 128 384 13 13 (8306688)
I0419 11:34:40.074658 18146 net.cpp:137] Memory required for data: 1002747904
I0419 11:34:40.074661 18146 layer_factory.hpp:77] Creating layer conv5
I0419 11:34:40.074671 18146 net.cpp:84] Creating Layer conv5
I0419 11:34:40.074673 18146 net.cpp:406] conv5 <- conv4
I0419 11:34:40.074679 18146 net.cpp:380] conv5 -> conv5
I0419 11:34:40.085760 18146 net.cpp:122] Setting up conv5
I0419 11:34:40.085775 18146 net.cpp:129] Top shape: 128 256 13 13 (5537792)
I0419 11:34:40.085778 18146 net.cpp:137] Memory required for data: 1024899072
I0419 11:34:40.085790 18146 layer_factory.hpp:77] Creating layer relu5
I0419 11:34:40.085799 18146 net.cpp:84] Creating Layer relu5
I0419 11:34:40.085803 18146 net.cpp:406] relu5 <- conv5
I0419 11:34:40.085808 18146 net.cpp:367] relu5 -> conv5 (in-place)
I0419 11:34:40.086361 18146 net.cpp:122] Setting up relu5
I0419 11:34:40.086370 18146 net.cpp:129] Top shape: 128 256 13 13 (5537792)
I0419 11:34:40.086374 18146 net.cpp:137] Memory required for data: 1047050240
I0419 11:34:40.086376 18146 layer_factory.hpp:77] Creating layer pool5
I0419 11:34:40.086382 18146 net.cpp:84] Creating Layer pool5
I0419 11:34:40.086385 18146 net.cpp:406] pool5 <- conv5
I0419 11:34:40.086393 18146 net.cpp:380] pool5 -> pool5
I0419 11:34:40.086431 18146 net.cpp:122] Setting up pool5
I0419 11:34:40.086436 18146 net.cpp:129] Top shape: 128 256 6 6 (1179648)
I0419 11:34:40.086437 18146 net.cpp:137] Memory required for data: 1051768832
I0419 11:34:40.086441 18146 layer_factory.hpp:77] Creating layer fc6
I0419 11:34:40.086450 18146 net.cpp:84] Creating Layer fc6
I0419 11:34:40.086453 18146 net.cpp:406] fc6 <- pool5
I0419 11:34:40.086458 18146 net.cpp:380] fc6 -> fc6
I0419 11:34:40.460810 18146 net.cpp:122] Setting up fc6
I0419 11:34:40.460829 18146 net.cpp:129] Top shape: 128 4096 (524288)
I0419 11:34:40.460832 18146 net.cpp:137] Memory required for data: 1053865984
I0419 11:34:40.460841 18146 layer_factory.hpp:77] Creating layer relu6
I0419 11:34:40.460850 18146 net.cpp:84] Creating Layer relu6
I0419 11:34:40.460852 18146 net.cpp:406] relu6 <- fc6
I0419 11:34:40.460858 18146 net.cpp:367] relu6 -> fc6 (in-place)
I0419 11:34:40.461591 18146 net.cpp:122] Setting up relu6
I0419 11:34:40.461601 18146 net.cpp:129] Top shape: 128 4096 (524288)
I0419 11:34:40.461602 18146 net.cpp:137] Memory required for data: 1055963136
I0419 11:34:40.461606 18146 layer_factory.hpp:77] Creating layer drop6
I0419 11:34:40.461611 18146 net.cpp:84] Creating Layer drop6
I0419 11:34:40.461614 18146 net.cpp:406] drop6 <- fc6
I0419 11:34:40.461620 18146 net.cpp:367] drop6 -> fc6 (in-place)
I0419 11:34:40.461647 18146 net.cpp:122] Setting up drop6
I0419 11:34:40.461650 18146 net.cpp:129] Top shape: 128 4096 (524288)
I0419 11:34:40.461653 18146 net.cpp:137] Memory required for data: 1058060288
I0419 11:34:40.461655 18146 layer_factory.hpp:77] Creating layer fc7
I0419 11:34:40.461663 18146 net.cpp:84] Creating Layer fc7
I0419 11:34:40.461665 18146 net.cpp:406] fc7 <- fc6
I0419 11:34:40.461671 18146 net.cpp:380] fc7 -> fc7
I0419 11:34:40.632761 18146 net.cpp:122] Setting up fc7
I0419 11:34:40.632781 18146 net.cpp:129] Top shape: 128 4096 (524288)
I0419 11:34:40.632783 18146 net.cpp:137] Memory required for data: 1060157440
I0419 11:34:40.632791 18146 layer_factory.hpp:77] Creating layer relu7
I0419 11:34:40.632802 18146 net.cpp:84] Creating Layer relu7
I0419 11:34:40.632804 18146 net.cpp:406] relu7 <- fc7
I0419 11:34:40.632810 18146 net.cpp:367] relu7 -> fc7 (in-place)
I0419 11:34:40.633282 18146 net.cpp:122] Setting up relu7
I0419 11:34:40.633291 18146 net.cpp:129] Top shape: 128 4096 (524288)
I0419 11:34:40.633293 18146 net.cpp:137] Memory required for data: 1062254592
I0419 11:34:40.633296 18146 layer_factory.hpp:77] Creating layer drop7
I0419 11:34:40.633301 18146 net.cpp:84] Creating Layer drop7
I0419 11:34:40.633318 18146 net.cpp:406] drop7 <- fc7
I0419 11:34:40.633325 18146 net.cpp:367] drop7 -> fc7 (in-place)
I0419 11:34:40.633348 18146 net.cpp:122] Setting up drop7
I0419 11:34:40.633353 18146 net.cpp:129] Top shape: 128 4096 (524288)
I0419 11:34:40.633355 18146 net.cpp:137] Memory required for data: 1064351744
I0419 11:34:40.633358 18146 layer_factory.hpp:77] Creating layer fc8
I0419 11:34:40.633364 18146 net.cpp:84] Creating Layer fc8
I0419 11:34:40.633366 18146 net.cpp:406] fc8 <- fc7
I0419 11:34:40.633373 18146 net.cpp:380] fc8 -> fc8
I0419 11:34:40.640795 18146 net.cpp:122] Setting up fc8
I0419 11:34:40.640805 18146 net.cpp:129] Top shape: 128 196 (25088)
I0419 11:34:40.640806 18146 net.cpp:137] Memory required for data: 1064452096
I0419 11:34:40.640811 18146 layer_factory.hpp:77] Creating layer loss
I0419 11:34:40.640817 18146 net.cpp:84] Creating Layer loss
I0419 11:34:40.640820 18146 net.cpp:406] loss <- fc8
I0419 11:34:40.640823 18146 net.cpp:406] loss <- label
I0419 11:34:40.640830 18146 net.cpp:380] loss -> loss
I0419 11:34:40.640838 18146 layer_factory.hpp:77] Creating layer loss
…
I0419 11:34:40.642084 18146 net.cpp:294] The NetState phase (1) differed from the phase (0) specified by a rule in layer train-data
I0419 11:34:40.642225 18146 net.cpp:51] Initializing net from parameters:
state {
phase: TEST
}
layer {
name: "val-data"
type: "Data"
top: "data"
top: "label"
include {
phase: TEST
}
transform_param {
crop_size: 227
mean_file: "/mnt/bigdisk/DIGITS-AMB-2/digits/jobs/20210419-113214-d311/mean.binaryproto"
}
data_param {
source: "/mnt/bigdisk/DIGITS-AMB-2/digits/jobs/20210419-113214-d311/val_db"
batch_size: 32
backend: LMDB
}
}
layer {
name: "conv1"
type: "Convolution"
bottom: "data"
top: "conv1"
param {
lr_mult: 1
decay_mult: 1
}
param {
lr_mult: 2
decay_mult: 0
}
convolution_param {
num_output: 96
kernel_size: 11
stride: 4
weight_filler {
type: "gaussian"
std: 0.01
}
bias_filler {
type: "constant"
value: 0
}
}
}
layer {
name: "relu1"
type: "ReLU"
bottom: "conv1"
top: "conv1"
}
layer {
name: "norm1"
type: "LRN"
bottom: "conv1"
top: "norm1"
lrn_param {
local_size: 5
alpha: 0.0001
beta: 0.75
}
}
layer {
name: "pool1"
type: "Pooling"
bottom: "norm1"
top: "pool1"
pooling_param {
pool: MAX
kernel_size: 3
stride: 2
}
}
layer {
name: "conv2"
type: "Convolution"
bottom: "pool1"
top: "conv2"
param {
lr_mult: 1
decay_mult: 1
}
param {
lr_mult: 2
decay_mult: 0
}
convolution_param {
num_output: 256
pad: 2
kernel_size: 5
group: 2
weight_filler {
type: "gaussian"
std: 0.01
}
bias_filler {
type: "constant"
value: 0.1
}
}
}
layer {
name: "relu2"
type: "ReLU"
bottom: "conv2"
top: "conv2"
}
layer {
name: "norm2"
type: "LRN"
bottom: "conv2"
top: "norm2"
lrn_param {
local_size: 5
alpha: 0.0001
beta: 0.75
}
}
layer {
name: "pool2"
type: "Pooling"
bottom: "norm2"
top: "pool2"
pooling_param {
pool: MAX
kernel_size: 3
stride: 2
}
}
layer {
name: "conv3"
type: "Convolution"
bottom: "pool2"
top: "conv3"
param {
lr_mult: 1
decay_mult: 1
}
param {
lr_mult: 2
decay_mult: 0
}
convolution_param {
num_output: 384
pad: 1
kernel_size: 3
weight_filler {
type: "gaussian"
std: 0.01
}
bias_filler {
type: "constant"
value: 0
}
}
}
layer {
name: "relu3"
type: "ReLU"
bottom: "conv3"
top: "conv3"
}
layer {
name: "conv4"
type: "Convolution"
bottom: "conv3"
top: "conv4"
param {
lr_mult: 1
decay_mult: 1
}
param {
lr_mult: 2
decay_mult: 0
}
convolution_param {
num_output: 384
pad: 1
kernel_size: 3
group: 2
weight_filler {
type: "gaussian"
std: 0.01
}
bias_filler {
type: "constant"
value: 0.1
}
}
}
layer {
name: "relu4"
type: "ReLU"
bottom: "conv4"
top: "conv4"
}
layer {
name: "conv5"
type: "Convolution"
bottom: "conv4"
top: "conv5"
param {
lr_mult: 1
decay_mult: 1
}
param {
lr_mult: 2
decay_mult: 0
}
convolution_param {
num_output: 256
pad: 1
kernel_size: 3
group: 2
weight_filler {
type: "gaussian"
std: 0.01
}
bias_filler {
type: "constant"
value: 0.1
}
}
}
layer {
name: "relu5"
type: "ReLU"
bottom: "conv5"
top: "conv5"
}
layer {
name: "pool5"
type: "Pooling"
bottom: "conv5"
top: "pool5"
pooling_param {
pool: MAX
kernel_size: 3
stride: 2
}
}
layer {
name: "fc6"
type: "InnerProduct"
bottom: "pool5"
top: "fc6"
param {
lr_mult: 1
decay_mult: 1
}
param {
lr_mult: 2
decay_mult: 0
}
inner_product_param {
num_output: 4096
weight_filler {
type: "gaussian"
std: 0.005
}
bias_filler {
type: "constant"
value: 0.1
}
}
}
layer {
name: "relu6"
type: "ReLU"
bottom: "fc6"
top: "fc6"
}
layer {
name: "drop6"
type: "Dropout"
bottom: "fc6"
top: "fc6"
dropout_param {
dropout_ratio: 0.5
}
}
layer {
name: "fc7"
type: "InnerProduct"
bottom: "fc6"
top: "fc7"
param {
lr_mult: 1
decay_mult: 1
}
param {
lr_mult: 2
decay_mult: 0
}
inner_product_param {
num_output: 4096
weight_filler {
type: "gaussian"
std: 0.005
}
bias_filler {
type: "constant"
value: 0.1
}
}
}
layer {
name: "relu7"
type: "ReLU"
bottom: "fc7"
top: "fc7"
}
layer {
name: "drop7"
type: "Dropout"
bottom: "fc7"
top: "fc7"
dropout_param {
dropout_ratio: 0.5
}
}
layer {
name: "fc8"
type: "InnerProduct"
bottom: "fc7"
top: "fc8"
param {
lr_mult: 1
decay_mult: 1
}
param {
lr_mult: 2
decay_mult: 0
}
inner_product_param {
num_output: 196
weight_filler {
type: "gaussian"
std: 0.01
}
bias_filler {
type: "constant"
value: 0
}
}
}
layer {
name: "accuracy"
type: "Accuracy"
bottom: "fc8"
bottom: "label"
top: "accuracy"
include {
phase: TEST
}
}
layer {
name: "loss"
type: "SoftmaxWithLoss"
bottom: "fc8"
bottom: "label"
top: "loss"
}
I0419 11:34:40.642316 18146 layer_factory.hpp:77] Creating layer val-data
I0419 11:34:40.644590 18146 db_lmdb.cpp:35] Opened lmdb /mnt/bigdisk/DIGITS-AMB-2/digits/jobs/20210419-113214-d311/val_db
I0419 11:34:40.645318 18146 net.cpp:84] Creating Layer val-data
I0419 11:34:40.645326 18146 net.cpp:380] val-data -> data
I0419 11:34:40.645335 18146 net.cpp:380] val-data -> label
I0419 11:34:40.645342 18146 data_transformer.cpp:25] Loading mean file from: /mnt/bigdisk/DIGITS-AMB-2/digits/jobs/20210419-113214-d311/mean.binaryproto
I0419 11:34:40.648996 18146 data_layer.cpp:45] output data size: 32,3,227,227
I0419 11:34:40.681452 18146 net.cpp:122] Setting up val-data
I0419 11:34:40.681473 18146 net.cpp:129] Top shape: 32 3 227 227 (4946784)
I0419 11:34:40.681478 18146 net.cpp:129] Top shape: 32 (32)
I0419 11:34:40.681480 18146 net.cpp:137] Memory required for data: 19787264
I0419 11:34:40.681485 18146 layer_factory.hpp:77] Creating layer label_val-data_1_split
I0419 11:34:40.681496 18146 net.cpp:84] Creating Layer label_val-data_1_split
I0419 11:34:40.681500 18146 net.cpp:406] label_val-data_1_split <- label
I0419 11:34:40.681507 18146 net.cpp:380] label_val-data_1_split -> label_val-data_1_split_0
I0419 11:34:40.681516 18146 net.cpp:380] label_val-data_1_split -> label_val-data_1_split_1
I0419 11:34:40.681555 18146 net.cpp:122] Setting up label_val-data_1_split
I0419 11:34:40.681560 18146 net.cpp:129] Top shape: 32 (32)
I0419 11:34:40.681562 18146 net.cpp:129] Top shape: 32 (32)
I0419 11:34:40.681564 18146 net.cpp:137] Memory required for data: 19787520
I0419 11:34:40.681567 18146 layer_factory.hpp:77] Creating layer conv1
I0419 11:34:40.681578 18146 net.cpp:84] Creating Layer conv1
I0419 11:34:40.681581 18146 net.cpp:406] conv1 <- data
I0419 11:34:40.681586 18146 net.cpp:380] conv1 -> conv1
I0419 11:34:40.684839 18146 net.cpp:122] Setting up conv1
I0419 11:34:40.684850 18146 net.cpp:129] Top shape: 32 96 55 55 (9292800)
I0419 11:34:40.684854 18146 net.cpp:137] Memory required for data: 56958720
I0419 11:34:40.684862 18146 layer_factory.hpp:77] Creating layer relu1
I0419 11:34:40.684868 18146 net.cpp:84] Creating Layer relu1
I0419 11:34:40.684871 18146 net.cpp:406] relu1 <- conv1
I0419 11:34:40.684875 18146 net.cpp:367] relu1 -> conv1 (in-place)
I0419 11:34:40.685200 18146 net.cpp:122] Setting up relu1
I0419 11:34:40.685209 18146 net.cpp:129] Top shape: 32 96 55 55 (9292800)
I0419 11:34:40.685212 18146 net.cpp:137] Memory required for data: 94129920
I0419 11:34:40.685215 18146 layer_factory.hpp:77] Creating layer norm1
I0419 11:34:40.685225 18146 net.cpp:84] Creating Layer norm1
I0419 11:34:40.685227 18146 net.cpp:406] norm1 <- conv1
I0419 11:34:40.685232 18146 net.cpp:380] norm1 -> norm1
I0419 11:34:40.685743 18146 net.cpp:122] Setting up norm1
I0419 11:34:40.685752 18146 net.cpp:129] Top shape: 32 96 55 55 (9292800)
I0419 11:34:40.685755 18146 net.cpp:137] Memory required for data: 131301120
I0419 11:34:40.685758 18146 layer_factory.hpp:77] Creating layer pool1
I0419 11:34:40.685765 18146 net.cpp:84] Creating Layer pool1
I0419 11:34:40.685767 18146 net.cpp:406] pool1 <- norm1
I0419 11:34:40.685772 18146 net.cpp:380] pool1 -> pool1
I0419 11:34:40.685796 18146 net.cpp:122] Setting up pool1
I0419 11:34:40.685801 18146 net.cpp:129] Top shape: 32 96 27 27 (2239488)
I0419 11:34:40.685803 18146 net.cpp:137] Memory required for data: 140259072
I0419 11:34:40.685806 18146 layer_factory.hpp:77] Creating layer conv2
I0419 11:34:40.685813 18146 net.cpp:84] Creating Layer conv2
I0419 11:34:40.685817 18146 net.cpp:406] conv2 <- pool1
I0419 11:34:40.685840 18146 net.cpp:380] conv2 -> conv2
I0419 11:34:40.695282 18146 net.cpp:122] Setting up conv2
I0419 11:34:40.695293 18146 net.cpp:129] Top shape: 32 256 27 27 (5971968)
I0419 11:34:40.695297 18146 net.cpp:137] Memory required for data: 164146944
I0419 11:34:40.695304 18146 layer_factory.hpp:77] Creating layer relu2
I0419 11:34:40.695310 18146 net.cpp:84] Creating Layer relu2
I0419 11:34:40.695313 18146 net.cpp:406] relu2 <- conv2
I0419 11:34:40.695319 18146 net.cpp:367] relu2 -> conv2 (in-place)
I0419 11:34:40.695876 18146 net.cpp:122] Setting up relu2
I0419 11:34:40.695885 18146 net.cpp:129] Top shape: 32 256 27 27 (5971968)
I0419 11:34:40.695888 18146 net.cpp:137] Memory required for data: 188034816
I0419 11:34:40.695891 18146 layer_factory.hpp:77] Creating layer norm2
I0419 11:34:40.695901 18146 net.cpp:84] Creating Layer norm2
I0419 11:34:40.695905 18146 net.cpp:406] norm2 <- conv2
I0419 11:34:40.695910 18146 net.cpp:380] norm2 -> norm2
I0419 11:34:40.696699 18146 net.cpp:122] Setting up norm2
I0419 11:34:40.696709 18146 net.cpp:129] Top shape: 32 256 27 27 (5971968)
I0419 11:34:40.696712 18146 net.cpp:137] Memory required for data: 211922688
I0419 11:34:40.696715 18146 layer_factory.hpp:77] Creating layer pool2
I0419 11:34:40.696722 18146 net.cpp:84] Creating Layer pool2
I0419 11:34:40.696724 18146 net.cpp:406] pool2 <- norm2
I0419 11:34:40.696730 18146 net.cpp:380] pool2 -> pool2
I0419 11:34:40.696759 18146 net.cpp:122] Setting up pool2
I0419 11:34:40.696764 18146 net.cpp:129] Top shape: 32 256 13 13 (1384448)
I0419 11:34:40.696766 18146 net.cpp:137] Memory required for data: 217460480
I0419 11:34:40.696769 18146 layer_factory.hpp:77] Creating layer conv3
I0419 11:34:40.696779 18146 net.cpp:84] Creating Layer conv3
I0419 11:34:40.696781 18146 net.cpp:406] conv3 <- pool2
I0419 11:34:40.696785 18146 net.cpp:380] conv3 -> conv3
I0419 11:34:40.708272 18146 net.cpp:122] Setting up conv3
I0419 11:34:40.708287 18146 net.cpp:129] Top shape: 32 384 13 13 (2076672)
I0419 11:34:40.708289 18146 net.cpp:137] Memory required for data: 225767168
I0419 11:34:40.708299 18146 layer_factory.hpp:77] Creating layer relu3
I0419 11:34:40.708305 18146 net.cpp:84] Creating Layer relu3
I0419 11:34:40.708308 18146 net.cpp:406] relu3 <- conv3
I0419 11:34:40.708314 18146 net.cpp:367] relu3 -> conv3 (in-place)
I0419 11:34:40.708894 18146 net.cpp:122] Setting up relu3
I0419 11:34:40.708904 18146 net.cpp:129] Top shape: 32 384 13 13 (2076672)
I0419 11:34:40.708906 18146 net.cpp:137] Memory required for data: 234073856
I0419 11:34:40.708909 18146 layer_factory.hpp:77] Creating layer conv4
I0419 11:34:40.708918 18146 net.cpp:84] Creating Layer conv4
I0419 11:34:40.708922 18146 net.cpp:406] conv4 <- conv3
I0419 11:34:40.708927 18146 net.cpp:380] conv4 -> conv4
I0419 11:34:40.723431 18146 net.cpp:122] Setting up conv4
I0419 11:34:40.723449 18146 net.cpp:129] Top shape: 32 384 13 13 (2076672)
I0419 11:34:40.723453 18146 net.cpp:137] Memory required for data: 242380544
I0419 11:34:40.723461 18146 layer_factory.hpp:77] Creating layer relu4
I0419 11:34:40.723470 18146 net.cpp:84] Creating Layer relu4
I0419 11:34:40.723474 18146 net.cpp:406] relu4 <- conv4
I0419 11:34:40.723480 18146 net.cpp:367] relu4 -> conv4 (in-place)
I0419 11:34:40.723858 18146 net.cpp:122] Setting up relu4
I0419 11:34:40.723870 18146 net.cpp:129] Top shape: 32 384 13 13 (2076672)
I0419 11:34:40.723873 18146 net.cpp:137] Memory required for data: 250687232
I0419 11:34:40.723876 18146 layer_factory.hpp:77] Creating layer conv5
I0419 11:34:40.723887 18146 net.cpp:84] Creating Layer conv5
I0419 11:34:40.723891 18146 net.cpp:406] conv5 <- conv4
I0419 11:34:40.723896 18146 net.cpp:380] conv5 -> conv5
I0419 11:34:40.733377 18146 net.cpp:122] Setting up conv5
I0419 11:34:40.733389 18146 net.cpp:129] Top shape: 32 256 13 13 (1384448)
I0419 11:34:40.733392 18146 net.cpp:137] Memory required for data: 256225024
I0419 11:34:40.733403 18146 layer_factory.hpp:77] Creating layer relu5
I0419 11:34:40.733409 18146 net.cpp:84] Creating Layer relu5
I0419 11:34:40.733413 18146 net.cpp:406] relu5 <- conv5
I0419 11:34:40.733430 18146 net.cpp:367] relu5 -> conv5 (in-place)
I0419 11:34:40.733983 18146 net.cpp:122] Setting up relu5
I0419 11:34:40.733992 18146 net.cpp:129] Top shape: 32 256 13 13 (1384448)
I0419 11:34:40.733995 18146 net.cpp:137] Memory required for data: 261762816
I0419 11:34:40.733999 18146 layer_factory.hpp:77] Creating layer pool5
I0419 11:34:40.734009 18146 net.cpp:84] Creating Layer pool5
I0419 11:34:40.734011 18146 net.cpp:406] pool5 <- conv5
I0419 11:34:40.734016 18146 net.cpp:380] pool5 -> pool5
I0419 11:34:40.734052 18146 net.cpp:122] Setting up pool5
I0419 11:34:40.734057 18146 net.cpp:129] Top shape: 32 256 6 6 (294912)
I0419 11:34:40.734061 18146 net.cpp:137] Memory required for data: 262942464
I0419 11:34:40.734063 18146 layer_factory.hpp:77] Creating layer fc6
I0419 11:34:40.734069 18146 net.cpp:84] Creating Layer fc6
I0419 11:34:40.734071 18146 net.cpp:406] fc6 <- pool5
I0419 11:34:40.734077 18146 net.cpp:380] fc6 -> fc6
I0419 11:34:41.116811 18146 net.cpp:122] Setting up fc6
I0419 11:34:41.116829 18146 net.cpp:129] Top shape: 32 4096 (131072)
I0419 11:34:41.116832 18146 net.cpp:137] Memory required for data: 263466752
I0419 11:34:41.116840 18146 layer_factory.hpp:77] Creating layer relu6
I0419 11:34:41.116848 18146 net.cpp:84] Creating Layer relu6
I0419 11:34:41.116852 18146 net.cpp:406] relu6 <- fc6
I0419 11:34:41.116859 18146 net.cpp:367] relu6 -> fc6 (in-place)
I0419 11:34:41.117720 18146 net.cpp:122] Setting up relu6
I0419 11:34:41.117739 18146 net.cpp:129] Top shape: 32 4096 (131072)
I0419 11:34:41.117744 18146 net.cpp:137] Memory required for data: 263991040
I0419 11:34:41.117748 18146 layer_factory.hpp:77] Creating layer drop6
I0419 11:34:41.117758 18146 net.cpp:84] Creating Layer drop6
I0419 11:34:41.117761 18146 net.cpp:406] drop6 <- fc6
I0419 11:34:41.117769 18146 net.cpp:367] drop6 -> fc6 (in-place)
I0419 11:34:41.117800 18146 net.cpp:122] Setting up drop6
I0419 11:34:41.117810 18146 net.cpp:129] Top shape: 32 4096 (131072)
I0419 11:34:41.117815 18146 net.cpp:137] Memory required for data: 264515328
I0419 11:34:41.117818 18146 layer_factory.hpp:77] Creating layer fc7
I0419 11:34:41.117827 18146 net.cpp:84] Creating Layer fc7
I0419 11:34:41.117831 18146 net.cpp:406] fc7 <- fc6
I0419 11:34:41.117839 18146 net.cpp:380] fc7 -> fc7
I0419 11:34:41.287524 18146 net.cpp:122] Setting up fc7
I0419 11:34:41.287542 18146 net.cpp:129] Top shape: 32 4096 (131072)
I0419 11:34:41.287545 18146 net.cpp:137] Memory required for data: 265039616
I0419 11:34:41.287554 18146 layer_factory.hpp:77] Creating layer relu7
I0419 11:34:41.287565 18146 net.cpp:84] Creating Layer relu7
I0419 11:34:41.287569 18146 net.cpp:406] relu7 <- fc7
I0419 11:34:41.287575 18146 net.cpp:367] relu7 -> fc7 (in-place)
I0419 11:34:41.288080 18146 net.cpp:122] Setting up relu7
I0419 11:34:41.288089 18146 net.cpp:129] Top shape: 32 4096 (131072)
I0419 11:34:41.288091 18146 net.cpp:137] Memory required for data: 265563904
I0419 11:34:41.288094 18146 layer_factory.hpp:77] Creating layer drop7
I0419 11:34:41.288103 18146 net.cpp:84] Creating Layer drop7
I0419 11:34:41.288106 18146 net.cpp:406] drop7 <- fc7
I0419 11:34:41.288111 18146 net.cpp:367] drop7 -> fc7 (in-place)
I0419 11:34:41.288136 18146 net.cpp:122] Setting up drop7
I0419 11:34:41.288141 18146 net.cpp:129] Top shape: 32 4096 (131072)
I0419 11:34:41.288142 18146 net.cpp:137] Memory required for data: 266088192
I0419 11:34:41.288146 18146 layer_factory.hpp:77] Creating layer fc8
I0419 11:34:41.288151 18146 net.cpp:84] Creating Layer fc8
I0419 11:34:41.288154 18146 net.cpp:406] fc8 <- fc7
I0419 11:34:41.288161 18146 net.cpp:380] fc8 -> fc8
I0419 11:34:41.295928 18146 net.cpp:122] Setting up fc8
I0419 11:34:41.295949 18146 net.cpp:129] Top shape: 32 196 (6272)
I0419 11:34:41.295953 18146 net.cpp:137] Memory required for data: 266113280
I0419 11:34:41.295958 18146 layer_factory.hpp:77] Creating layer fc8_fc8_0_split
I0419 11:34:41.295964 18146 net.cpp:84] Creating Layer fc8_fc8_0_split
I0419 11:34:41.295966 18146 net.cpp:406] fc8_fc8_0_split <- fc8
I0419 11:34:41.295986 18146 net.cpp:380] fc8_fc8_0_split -> fc8_fc8_0_split_0
I0419 11:34:41.295994 18146 net.cpp:380] fc8_fc8_0_split -> fc8_fc8_0_split_1
I0419 11:34:41.296021 18146 net.cpp:122] Setting up fc8_fc8_0_split
I0419 11:34:41.296026 18146 net.cpp:129] Top shape: 32 196 (6272)
I0419 11:34:41.296030 18146 net.cpp:129] Top shape: 32 196 (6272)
I0419 11:34:41.296031 18146 net.cpp:137] Memory required for data: 266163456
I0419 11:34:41.296033 18146 layer_factory.hpp:77] Creating layer accuracy
I0419 11:34:41.296041 18146 net.cpp:84] Creating Layer accuracy
I0419 11:34:41.296043 18146 net.cpp:406] accuracy <- fc8_fc8_0_split_0
I0419 11:34:41.296047 18146 net.cpp:406] accuracy <- label_val-data_1_split_0
I0419 11:34:41.296051 18146 net.cpp:380] accuracy -> accuracy
…
