…
I0410 01:29:54.875130 24451 net.cpp:294] The NetState phase (0) differed from the phase (1) specified by a rule in layer accuracy
I0410 01:29:54.875293 24451 net.cpp:51] Initializing net from parameters:
state {
phase: TRAIN
level: 0
stage: ""
}
layer {
name: "train-data"
type: "Data"
top: "data"
top: "label"
include {
phase: TRAIN
}
transform_param {
mirror: true
crop_size: 227
mean_file: "/mnt/bigdisk/DIGITS-MAN-2/digits/jobs/20210407-214532-d396/mean.binaryproto"
}
data_param {
source: "/mnt/bigdisk/DIGITS-MAN-2/digits/jobs/20210407-214532-d396/train_db"
batch_size: 128
backend: LMDB
}
}
layer {
name: "conv1"
type: "Convolution"
bottom: "data"
top: "conv1"
param {
lr_mult: 1
decay_mult: 1
}
param {
lr_mult: 2
decay_mult: 0
}
convolution_param {
num_output: 96
kernel_size: 11
stride: 4
weight_filler {
type: "gaussian"
std: 0.01
}
bias_filler {
type: "constant"
value: 0
}
}
}
layer {
name: "relu1"
type: "ReLU"
bottom: "conv1"
top: "conv1"
}
layer {
name: "norm1"
type: "LRN"
bottom: "conv1"
top: "norm1"
lrn_param {
local_size: 5
alpha: 0.0001
beta: 0.75
}
}
layer {
name: "pool1"
type: "Pooling"
bottom: "norm1"
top: "pool1"
pooling_param {
pool: MAX
kernel_size: 3
stride: 2
}
}
layer {
name: "conv2"
type: "Convolution"
bottom: "pool1"
top: "conv2"
param {
lr_mult: 1
decay_mult: 1
}
param {
lr_mult: 2
decay_mult: 0
}
convolution_param {
num_output: 256
pad: 2
kernel_size: 5
group: 2
weight_filler {
type: "gaussian"
std: 0.01
}
bias_filler {
type: "constant"
value: 0.1
}
}
}
layer {
name: "relu2"
type: "ReLU"
bottom: "conv2"
top: "conv2"
}
layer {
name: "norm2"
type: "LRN"
bottom: "conv2"
top: "norm2"
lrn_param {
local_size: 5
alpha: 0.0001
beta: 0.75
}
}
layer {
name: "pool2"
type: "Pooling"
bottom: "norm2"
top: "pool2"
pooling_param {
pool: MAX
kernel_size: 3
stride: 2
}
}
layer {
name: "conv3"
type: "Convolution"
bottom: "pool2"
top: "conv3"
param {
lr_mult: 1
decay_mult: 1
}
param {
lr_mult: 2
decay_mult: 0
}
convolution_param {
num_output: 384
pad: 1
kernel_size: 3
weight_filler {
type: "gaussian"
std: 0.01
}
bias_filler {
type: "constant"
value: 0
}
}
}
layer {
name: "relu3"
type: "ReLU"
bottom: "conv3"
top: "conv3"
}
layer {
name: "conv4"
type: "Convolution"
bottom: "conv3"
top: "conv4"
param {
lr_mult: 1
decay_mult: 1
}
param {
lr_mult: 2
decay_mult: 0
}
convolution_param {
num_output: 384
pad: 1
kernel_size: 3
group: 2
weight_filler {
type: "gaussian"
std: 0.01
}
bias_filler {
type: "constant"
value: 0.1
}
}
}
layer {
name: "relu4"
type: "ReLU"
bottom: "conv4"
top: "conv4"
}
layer {
name: "conv5"
type: "Convolution"
bottom: "conv4"
top: "conv5"
param {
lr_mult: 1
decay_mult: 1
}
param {
lr_mult: 2
decay_mult: 0
}
convolution_param {
num_output: 256
pad: 1
kernel_size: 3
group: 2
weight_filler {
type: "gaussian"
std: 0.01
}
bias_filler {
type: "constant"
value: 0.1
}
}
}
layer {
name: "relu5"
type: "ReLU"
bottom: "conv5"
top: "conv5"
}
layer {
name: "pool5"
type: "Pooling"
bottom: "conv5"
top: "pool5"
pooling_param {
pool: MAX
kernel_size: 3
stride: 2
}
}
layer {
name: "fc6"
type: "InnerProduct"
bottom: "pool5"
top: "fc6"
param {
lr_mult: 1
decay_mult: 1
}
param {
lr_mult: 2
decay_mult: 0
}
inner_product_param {
num_output: 8192
weight_filler {
type: "gaussian"
std: 0.005
}
bias_filler {
type: "constant"
value: 0.1
}
}
}
layer {
name: "relu6"
type: "ReLU"
bottom: "fc6"
top: "fc6"
}
layer {
name: "drop6"
type: "Dropout"
bottom: "fc6"
top: "fc6"
dropout_param {
dropout_ratio: 0.5
}
}
layer {
name: "fc7"
type: "InnerProduct"
bottom: "fc6"
top: "fc7"
param {
lr_mult: 1
decay_mult: 1
}
param {
lr_mult: 2
decay_mult: 0
}
inner_product_param {
num_output: 8192
weight_filler {
type: "gaussian"
std: 0.005
}
bias_filler {
type: "constant"
value: 0.1
}
}
}
layer {
name: "relu7"
type: "ReLU"
bottom: "fc7"
top: "fc7"
}
layer {
name: "drop7"
type: "Dropout"
bottom: "fc7"
top: "fc7"
dropout_param {
dropout_ratio: 0.5
}
}
layer {
name: "fc7.5"
type: "InnerProduct"
bottom: "fc7"
top: "fc7.5"
param {
lr_mult: 1
decay_mult: 1
}
param {
lr_mult: 2
decay_mult: 0
}
inner_product_param {
num_output: 8192
weight_filler {
type: "gaussian"
std: 0.005
}
bias_filler {
type: "constant"
value: 0.1
}
}
}
layer {
name: "relu7.5"
type: "ReLU"
bottom: "fc7.5"
top: "fc7.5"
}
layer {
name: "drop7.5"
type: "Dropout"
bottom: "fc7.5"
top: "fc7.5"
dropout_param {
dropout_ratio: 0.5
}
}
layer {
name: "fc7.6"
type: "InnerProduct"
bottom: "fc7.5"
top: "fc7.6"
param {
lr_mult: 1
decay_mult: 1
}
param {
lr_mult: 2
decay_mult: 0
}
inner_product_param {
num_output: 8192
weight_filler {
type: "gaussian"
std: 0.005
}
bias_filler {
type: "constant"
value: 0.1
}
}
}
layer {
name: "relu7.6"
type: "ReLU"
bottom: "fc7.6"
top: "fc7.6"
}
layer {
name: "drop7.6"
type: "Dropout"
bottom: "fc7.6"
top: "fc7.6"
dropout_param {
dropout_ratio: 0.5
}
}
layer {
name: "fc8"
type: "InnerProduct"
bottom: "fc7.6"
top: "fc8"
param {
lr_mult: 1
decay_mult: 1
}
param {
lr_mult: 2
decay_mult: 0
}
inner_product_param {
num_output: 196
weight_filler {
type: "gaussian"
std: 0.01
}
bias_filler {
type: "constant"
value: 0
}
}
}
layer {
name: "loss"
type: "SoftmaxWithLoss"
bottom: "fc8"
bottom: "label"
top: "loss"
}
I0410 01:29:54.875389 24451 layer_factory.hpp:77] Creating layer train-data
I0410 01:29:54.877025 24451 db_lmdb.cpp:35] Opened lmdb /mnt/bigdisk/DIGITS-MAN-2/digits/jobs/20210407-214532-d396/train_db
I0410 01:29:54.877233 24451 net.cpp:84] Creating Layer train-data
I0410 01:29:54.877243 24451 net.cpp:380] train-data -> data
I0410 01:29:54.877261 24451 net.cpp:380] train-data -> label
I0410 01:29:54.877274 24451 data_transformer.cpp:25] Loading mean file from: /mnt/bigdisk/DIGITS-MAN-2/digits/jobs/20210407-214532-d396/mean.binaryproto
I0410 01:29:54.885766 24451 data_layer.cpp:45] output data size: 128,3,227,227
I0410 01:29:55.026679 24451 net.cpp:122] Setting up train-data
I0410 01:29:55.026701 24451 net.cpp:129] Top shape: 128 3 227 227 (19787136)
I0410 01:29:55.026707 24451 net.cpp:129] Top shape: 128 (128)
I0410 01:29:55.026711 24451 net.cpp:137] Memory required for data: 79149056
I0410 01:29:55.026741 24451 layer_factory.hpp:77] Creating layer conv1
I0410 01:29:55.026764 24451 net.cpp:84] Creating Layer conv1
I0410 01:29:55.026770 24451 net.cpp:406] conv1 <- data
I0410 01:29:55.026783 24451 net.cpp:380] conv1 -> conv1
I0410 01:29:55.620322 24451 net.cpp:122] Setting up conv1
I0410 01:29:55.620345 24451 net.cpp:129] Top shape: 128 96 55 55 (37171200)
I0410 01:29:55.620350 24451 net.cpp:137] Memory required for data: 227833856
I0410 01:29:55.620369 24451 layer_factory.hpp:77] Creating layer relu1
I0410 01:29:55.620381 24451 net.cpp:84] Creating Layer relu1
I0410 01:29:55.620386 24451 net.cpp:406] relu1 <- conv1
I0410 01:29:55.620393 24451 net.cpp:367] relu1 -> conv1 (in-place)
I0410 01:29:55.620684 24451 net.cpp:122] Setting up relu1
I0410 01:29:55.620693 24451 net.cpp:129] Top shape: 128 96 55 55 (37171200)
I0410 01:29:55.620697 24451 net.cpp:137] Memory required for data: 376518656
I0410 01:29:55.620702 24451 layer_factory.hpp:77] Creating layer norm1
I0410 01:29:55.620710 24451 net.cpp:84] Creating Layer norm1
I0410 01:29:55.620714 24451 net.cpp:406] norm1 <- conv1
I0410 01:29:55.620720 24451 net.cpp:380] norm1 -> norm1
I0410 01:29:55.621166 24451 net.cpp:122] Setting up norm1
I0410 01:29:55.621176 24451 net.cpp:129] Top shape: 128 96 55 55 (37171200)
I0410 01:29:55.621181 24451 net.cpp:137] Memory required for data: 525203456
I0410 01:29:55.621184 24451 layer_factory.hpp:77] Creating layer pool1
I0410 01:29:55.621192 24451 net.cpp:84] Creating Layer pool1
I0410 01:29:55.621196 24451 net.cpp:406] pool1 <- norm1
I0410 01:29:55.621201 24451 net.cpp:380] pool1 -> pool1
I0410 01:29:55.621237 24451 net.cpp:122] Setting up pool1
I0410 01:29:55.621243 24451 net.cpp:129] Top shape: 128 96 27 27 (8957952)
I0410 01:29:55.621248 24451 net.cpp:137] Memory required for data: 561035264
I0410 01:29:55.621250 24451 layer_factory.hpp:77] Creating layer conv2
I0410 01:29:55.621261 24451 net.cpp:84] Creating Layer conv2
I0410 01:29:55.621264 24451 net.cpp:406] conv2 <- pool1
I0410 01:29:55.621270 24451 net.cpp:380] conv2 -> conv2
I0410 01:29:55.631134 24451 net.cpp:122] Setting up conv2
I0410 01:29:55.631153 24451 net.cpp:129] Top shape: 128 256 27 27 (23887872)
I0410 01:29:55.631156 24451 net.cpp:137] Memory required for data: 656586752
I0410 01:29:55.631168 24451 layer_factory.hpp:77] Creating layer relu2
I0410 01:29:55.631177 24451 net.cpp:84] Creating Layer relu2
I0410 01:29:55.631181 24451 net.cpp:406] relu2 <- conv2
I0410 01:29:55.631187 24451 net.cpp:367] relu2 -> conv2 (in-place)
I0410 01:29:55.631613 24451 net.cpp:122] Setting up relu2
I0410 01:29:55.631623 24451 net.cpp:129] Top shape: 128 256 27 27 (23887872)
I0410 01:29:55.631626 24451 net.cpp:137] Memory required for data: 752138240
I0410 01:29:55.631630 24451 layer_factory.hpp:77] Creating layer norm2
I0410 01:29:55.631639 24451 net.cpp:84] Creating Layer norm2
I0410 01:29:55.631641 24451 net.cpp:406] norm2 <- conv2
I0410 01:29:55.631647 24451 net.cpp:380] norm2 -> norm2
I0410 01:29:55.631934 24451 net.cpp:122] Setting up norm2
I0410 01:29:55.631942 24451 net.cpp:129] Top shape: 128 256 27 27 (23887872)
I0410 01:29:55.631947 24451 net.cpp:137] Memory required for data: 847689728
I0410 01:29:55.631950 24451 layer_factory.hpp:77] Creating layer pool2
I0410 01:29:55.631958 24451 net.cpp:84] Creating Layer pool2
I0410 01:29:55.631963 24451 net.cpp:406] pool2 <- norm2
I0410 01:29:55.631968 24451 net.cpp:380] pool2 -> pool2
I0410 01:29:55.631994 24451 net.cpp:122] Setting up pool2
I0410 01:29:55.631999 24451 net.cpp:129] Top shape: 128 256 13 13 (5537792)
I0410 01:29:55.632002 24451 net.cpp:137] Memory required for data: 869840896
I0410 01:29:55.632006 24451 layer_factory.hpp:77] Creating layer conv3
I0410 01:29:55.632015 24451 net.cpp:84] Creating Layer conv3
I0410 01:29:55.632019 24451 net.cpp:406] conv3 <- pool2
I0410 01:29:55.632025 24451 net.cpp:380] conv3 -> conv3
I0410 01:29:55.641849 24451 net.cpp:122] Setting up conv3
I0410 01:29:55.641865 24451 net.cpp:129] Top shape: 128 384 13 13 (8306688)
I0410 01:29:55.641868 24451 net.cpp:137] Memory required for data: 903067648
I0410 01:29:55.641896 24451 layer_factory.hpp:77] Creating layer relu3
I0410 01:29:55.641904 24451 net.cpp:84] Creating Layer relu3
I0410 01:29:55.641908 24451 net.cpp:406] relu3 <- conv3
I0410 01:29:55.641914 24451 net.cpp:367] relu3 -> conv3 (in-place)
I0410 01:29:55.642356 24451 net.cpp:122] Setting up relu3
I0410 01:29:55.642365 24451 net.cpp:129] Top shape: 128 384 13 13 (8306688)
I0410 01:29:55.642369 24451 net.cpp:137] Memory required for data: 936294400
I0410 01:29:55.642374 24451 layer_factory.hpp:77] Creating layer conv4
I0410 01:29:55.642383 24451 net.cpp:84] Creating Layer conv4
I0410 01:29:55.642387 24451 net.cpp:406] conv4 <- conv3
I0410 01:29:55.642393 24451 net.cpp:380] conv4 -> conv4
I0410 01:29:55.652381 24451 net.cpp:122] Setting up conv4
I0410 01:29:55.652398 24451 net.cpp:129] Top shape: 128 384 13 13 (8306688)
I0410 01:29:55.652402 24451 net.cpp:137] Memory required for data: 969521152
I0410 01:29:55.652412 24451 layer_factory.hpp:77] Creating layer relu4
I0410 01:29:55.652421 24451 net.cpp:84] Creating Layer relu4
I0410 01:29:55.652426 24451 net.cpp:406] relu4 <- conv4
I0410 01:29:55.652431 24451 net.cpp:367] relu4 -> conv4 (in-place)
I0410 01:29:55.652709 24451 net.cpp:122] Setting up relu4
I0410 01:29:55.652716 24451 net.cpp:129] Top shape: 128 384 13 13 (8306688)
I0410 01:29:55.652720 24451 net.cpp:137] Memory required for data: 1002747904
I0410 01:29:55.652724 24451 layer_factory.hpp:77] Creating layer conv5
I0410 01:29:55.652734 24451 net.cpp:84] Creating Layer conv5
I0410 01:29:55.652737 24451 net.cpp:406] conv5 <- conv4
I0410 01:29:55.652743 24451 net.cpp:380] conv5 -> conv5
I0410 01:29:55.660715 24451 net.cpp:122] Setting up conv5
I0410 01:29:55.660732 24451 net.cpp:129] Top shape: 128 256 13 13 (5537792)
I0410 01:29:55.660735 24451 net.cpp:137] Memory required for data: 1024899072
I0410 01:29:55.660748 24451 layer_factory.hpp:77] Creating layer relu5
I0410 01:29:55.660758 24451 net.cpp:84] Creating Layer relu5
I0410 01:29:55.660761 24451 net.cpp:406] relu5 <- conv5
I0410 01:29:55.660768 24451 net.cpp:367] relu5 -> conv5 (in-place)
I0410 01:29:55.661183 24451 net.cpp:122] Setting up relu5
I0410 01:29:55.661192 24451 net.cpp:129] Top shape: 128 256 13 13 (5537792)
I0410 01:29:55.661196 24451 net.cpp:137] Memory required for data: 1047050240
I0410 01:29:55.661201 24451 layer_factory.hpp:77] Creating layer pool5
I0410 01:29:55.661207 24451 net.cpp:84] Creating Layer pool5
I0410 01:29:55.661211 24451 net.cpp:406] pool5 <- conv5
I0410 01:29:55.661217 24451 net.cpp:380] pool5 -> pool5
I0410 01:29:55.661252 24451 net.cpp:122] Setting up pool5
I0410 01:29:55.661257 24451 net.cpp:129] Top shape: 128 256 6 6 (1179648)
I0410 01:29:55.661262 24451 net.cpp:137] Memory required for data: 1051768832
I0410 01:29:55.661264 24451 layer_factory.hpp:77] Creating layer fc6
I0410 01:29:55.661273 24451 net.cpp:84] Creating Layer fc6
I0410 01:29:55.661276 24451 net.cpp:406] fc6 <- pool5
I0410 01:29:55.661283 24451 net.cpp:380] fc6 -> fc6
I0410 01:29:56.379945 24451 net.cpp:122] Setting up fc6
I0410 01:29:56.379966 24451 net.cpp:129] Top shape: 128 8192 (1048576)
I0410 01:29:56.379971 24451 net.cpp:137] Memory required for data: 1055963136
I0410 01:29:56.379981 24451 layer_factory.hpp:77] Creating layer relu6
I0410 01:29:56.379990 24451 net.cpp:84] Creating Layer relu6
I0410 01:29:56.379994 24451 net.cpp:406] relu6 <- fc6
I0410 01:29:56.380002 24451 net.cpp:367] relu6 -> fc6 (in-place)
I0410 01:29:56.380556 24451 net.cpp:122] Setting up relu6
I0410 01:29:56.380568 24451 net.cpp:129] Top shape: 128 8192 (1048576)
I0410 01:29:56.380570 24451 net.cpp:137] Memory required for data: 1060157440
I0410 01:29:56.380574 24451 layer_factory.hpp:77] Creating layer drop6
I0410 01:29:56.380581 24451 net.cpp:84] Creating Layer drop6
I0410 01:29:56.380585 24451 net.cpp:406] drop6 <- fc6
I0410 01:29:56.380591 24451 net.cpp:367] drop6 -> fc6 (in-place)
I0410 01:29:56.380617 24451 net.cpp:122] Setting up drop6
I0410 01:29:56.380623 24451 net.cpp:129] Top shape: 128 8192 (1048576)
I0410 01:29:56.380651 24451 net.cpp:137] Memory required for data: 1064351744
I0410 01:29:56.380656 24451 layer_factory.hpp:77] Creating layer fc7
I0410 01:29:56.380662 24451 net.cpp:84] Creating Layer fc7
I0410 01:29:56.380666 24451 net.cpp:406] fc7 <- fc6
I0410 01:29:56.380672 24451 net.cpp:380] fc7 -> fc7
I0410 01:29:57.008792 24451 net.cpp:122] Setting up fc7
I0410 01:29:57.008814 24451 net.cpp:129] Top shape: 128 8192 (1048576)
I0410 01:29:57.008819 24451 net.cpp:137] Memory required for data: 1068546048
I0410 01:29:57.008828 24451 layer_factory.hpp:77] Creating layer relu7
I0410 01:29:57.008838 24451 net.cpp:84] Creating Layer relu7
I0410 01:29:57.008843 24451 net.cpp:406] relu7 <- fc7
I0410 01:29:57.008850 24451 net.cpp:367] relu7 -> fc7 (in-place)
I0410 01:29:57.009395 24451 net.cpp:122] Setting up relu7
I0410 01:29:57.009405 24451 net.cpp:129] Top shape: 128 8192 (1048576)
I0410 01:29:57.009409 24451 net.cpp:137] Memory required for data: 1072740352
I0410 01:29:57.009414 24451 layer_factory.hpp:77] Creating layer drop7
I0410 01:29:57.009421 24451 net.cpp:84] Creating Layer drop7
I0410 01:29:57.009426 24451 net.cpp:406] drop7 <- fc7
I0410 01:29:57.009431 24451 net.cpp:367] drop7 -> fc7 (in-place)
I0410 01:29:57.009455 24451 net.cpp:122] Setting up drop7
I0410 01:29:57.009460 24451 net.cpp:129] Top shape: 128 8192 (1048576)
I0410 01:29:57.009465 24451 net.cpp:137] Memory required for data: 1076934656
I0410 01:29:57.009469 24451 layer_factory.hpp:77] Creating layer fc7.5
I0410 01:29:57.009476 24451 net.cpp:84] Creating Layer fc7.5
I0410 01:29:57.009480 24451 net.cpp:406] fc7.5 <- fc7
I0410 01:29:57.009487 24451 net.cpp:380] fc7.5 -> fc7.5
I0410 01:29:57.635810 24451 net.cpp:122] Setting up fc7.5
I0410 01:29:57.635833 24451 net.cpp:129] Top shape: 128 8192 (1048576)
I0410 01:29:57.635836 24451 net.cpp:137] Memory required for data: 1081128960
I0410 01:29:57.635845 24451 layer_factory.hpp:77] Creating layer relu7.5
I0410 01:29:57.635855 24451 net.cpp:84] Creating Layer relu7.5
I0410 01:29:57.635859 24451 net.cpp:406] relu7.5 <- fc7.5
I0410 01:29:57.635866 24451 net.cpp:367] relu7.5 -> fc7.5 (in-place)
I0410 01:29:57.637253 24451 net.cpp:122] Setting up relu7.5
I0410 01:29:57.637264 24451 net.cpp:129] Top shape: 128 8192 (1048576)
I0410 01:29:57.637267 24451 net.cpp:137] Memory required for data: 1085323264
I0410 01:29:57.637271 24451 layer_factory.hpp:77] Creating layer drop7.5
I0410 01:29:57.637279 24451 net.cpp:84] Creating Layer drop7.5
I0410 01:29:57.637282 24451 net.cpp:406] drop7.5 <- fc7.5
I0410 01:29:57.637288 24451 net.cpp:367] drop7.5 -> fc7.5 (in-place)
I0410 01:29:57.637311 24451 net.cpp:122] Setting up drop7.5
I0410 01:29:57.637316 24451 net.cpp:129] Top shape: 128 8192 (1048576)
I0410 01:29:57.637320 24451 net.cpp:137] Memory required for data: 1089517568
I0410 01:29:57.637323 24451 layer_factory.hpp:77] Creating layer fc7.6
I0410 01:29:57.637331 24451 net.cpp:84] Creating Layer fc7.6
I0410 01:29:57.637334 24451 net.cpp:406] fc7.6 <- fc7.5
I0410 01:29:57.637339 24451 net.cpp:380] fc7.6 -> fc7.6
I0410 01:29:58.264122 24451 net.cpp:122] Setting up fc7.6
I0410 01:29:58.264147 24451 net.cpp:129] Top shape: 128 8192 (1048576)
I0410 01:29:58.264153 24451 net.cpp:137] Memory required for data: 1093711872
I0410 01:29:58.264168 24451 layer_factory.hpp:77] Creating layer relu7.6
I0410 01:29:58.264178 24451 net.cpp:84] Creating Layer relu7.6
I0410 01:29:58.264184 24451 net.cpp:406] relu7.6 <- fc7.6
I0410 01:29:58.264191 24451 net.cpp:367] relu7.6 -> fc7.6 (in-place)
I0410 01:29:58.264753 24451 net.cpp:122] Setting up relu7.6
I0410 01:29:58.264765 24451 net.cpp:129] Top shape: 128 8192 (1048576)
I0410 01:29:58.264768 24451 net.cpp:137] Memory required for data: 1097906176
I0410 01:29:58.264773 24451 layer_factory.hpp:77] Creating layer drop7.6
I0410 01:29:58.264781 24451 net.cpp:84] Creating Layer drop7.6
I0410 01:29:58.264786 24451 net.cpp:406] drop7.6 <- fc7.6
I0410 01:29:58.264793 24451 net.cpp:367] drop7.6 -> fc7.6 (in-place)
I0410 01:29:58.264817 24451 net.cpp:122] Setting up drop7.6
I0410 01:29:58.264822 24451 net.cpp:129] Top shape: 128 8192 (1048576)
I0410 01:29:58.264847 24451 net.cpp:137] Memory required for data: 1102100480
I0410 01:29:58.264853 24451 layer_factory.hpp:77] Creating layer fc8
I0410 01:29:58.264859 24451 net.cpp:84] Creating Layer fc8
I0410 01:29:58.264864 24451 net.cpp:406] fc8 <- fc7.6
I0410 01:29:58.264870 24451 net.cpp:380] fc8 -> fc8
I0410 01:29:58.281172 24451 net.cpp:122] Setting up fc8
I0410 01:29:58.281186 24451 net.cpp:129] Top shape: 128 196 (25088)
I0410 01:29:58.281190 24451 net.cpp:137] Memory required for data: 1102200832
I0410 01:29:58.281200 24451 layer_factory.hpp:77] Creating layer loss
I0410 01:29:58.281208 24451 net.cpp:84] Creating Layer loss
I0410 01:29:58.281213 24451 net.cpp:406] loss <- fc8
I0410 01:29:58.281219 24451 net.cpp:406] loss <- label
I0410 01:29:58.281225 24451 net.cpp:380] loss -> loss
I0410 01:29:58.281235 24451 layer_factory.hpp:77] Creating layer loss
…
I0410 01:29:58.282569 24451 net.cpp:294] The NetState phase (1) differed from the phase (0) specified by a rule in layer train-data
I0410 01:29:58.282729 24451 net.cpp:51] Initializing net from parameters:
state {
phase: TEST
}
layer {
name: "val-data"
type: "Data"
top: "data"
top: "label"
include {
phase: TEST
}
transform_param {
crop_size: 227
mean_file: "/mnt/bigdisk/DIGITS-MAN-2/digits/jobs/20210407-214532-d396/mean.binaryproto"
}
data_param {
source: "/mnt/bigdisk/DIGITS-MAN-2/digits/jobs/20210407-214532-d396/val_db"
batch_size: 32
backend: LMDB
}
}
layer {
name: "conv1"
type: "Convolution"
bottom: "data"
top: "conv1"
param {
lr_mult: 1
decay_mult: 1
}
param {
lr_mult: 2
decay_mult: 0
}
convolution_param {
num_output: 96
kernel_size: 11
stride: 4
weight_filler {
type: "gaussian"
std: 0.01
}
bias_filler {
type: "constant"
value: 0
}
}
}
layer {
name: "relu1"
type: "ReLU"
bottom: "conv1"
top: "conv1"
}
layer {
name: "norm1"
type: "LRN"
bottom: "conv1"
top: "norm1"
lrn_param {
local_size: 5
alpha: 0.0001
beta: 0.75
}
}
layer {
name: "pool1"
type: "Pooling"
bottom: "norm1"
top: "pool1"
pooling_param {
pool: MAX
kernel_size: 3
stride: 2
}
}
layer {
name: "conv2"
type: "Convolution"
bottom: "pool1"
top: "conv2"
param {
lr_mult: 1
decay_mult: 1
}
param {
lr_mult: 2
decay_mult: 0
}
convolution_param {
num_output: 256
pad: 2
kernel_size: 5
group: 2
weight_filler {
type: "gaussian"
std: 0.01
}
bias_filler {
type: "constant"
value: 0.1
}
}
}
layer {
name: "relu2"
type: "ReLU"
bottom: "conv2"
top: "conv2"
}
layer {
name: "norm2"
type: "LRN"
bottom: "conv2"
top: "norm2"
lrn_param {
local_size: 5
alpha: 0.0001
beta: 0.75
}
}
layer {
name: "pool2"
type: "Pooling"
bottom: "norm2"
top: "pool2"
pooling_param {
pool: MAX
kernel_size: 3
stride: 2
}
}
layer {
name: "conv3"
type: "Convolution"
bottom: "pool2"
top: "conv3"
param {
lr_mult: 1
decay_mult: 1
}
param {
lr_mult: 2
decay_mult: 0
}
convolution_param {
num_output: 384
pad: 1
kernel_size: 3
weight_filler {
type: "gaussian"
std: 0.01
}
bias_filler {
type: "constant"
value: 0
}
}
}
layer {
name: "relu3"
type: "ReLU"
bottom: "conv3"
top: "conv3"
}
layer {
name: "conv4"
type: "Convolution"
bottom: "conv3"
top: "conv4"
param {
lr_mult: 1
decay_mult: 1
}
param {
lr_mult: 2
decay_mult: 0
}
convolution_param {
num_output: 384
pad: 1
kernel_size: 3
group: 2
weight_filler {
type: "gaussian"
std: 0.01
}
bias_filler {
type: "constant"
value: 0.1
}
}
}
layer {
name: "relu4"
type: "ReLU"
bottom: "conv4"
top: "conv4"
}
layer {
name: "conv5"
type: "Convolution"
bottom: "conv4"
top: "conv5"
param {
lr_mult: 1
decay_mult: 1
}
param {
lr_mult: 2
decay_mult: 0
}
convolution_param {
num_output: 256
pad: 1
kernel_size: 3
group: 2
weight_filler {
type: "gaussian"
std: 0.01
}
bias_filler {
type: "constant"
value: 0.1
}
}
}
layer {
name: "relu5"
type: "ReLU"
bottom: "conv5"
top: "conv5"
}
layer {
name: "pool5"
type: "Pooling"
bottom: "conv5"
top: "pool5"
pooling_param {
pool: MAX
kernel_size: 3
stride: 2
}
}
layer {
name: "fc6"
type: "InnerProduct"
bottom: "pool5"
top: "fc6"
param {
lr_mult: 1
decay_mult: 1
}
param {
lr_mult: 2
decay_mult: 0
}
inner_product_param {
num_output: 8192
weight_filler {
type: "gaussian"
std: 0.005
}
bias_filler {
type: "constant"
value: 0.1
}
}
}
layer {
name: "relu6"
type: "ReLU"
bottom: "fc6"
top: "fc6"
}
layer {
name: "drop6"
type: "Dropout"
bottom: "fc6"
top: "fc6"
dropout_param {
dropout_ratio: 0.5
}
}
layer {
name: "fc7"
type: "InnerProduct"
bottom: "fc6"
top: "fc7"
param {
lr_mult: 1
decay_mult: 1
}
param {
lr_mult: 2
decay_mult: 0
}
inner_product_param {
num_output: 8192
weight_filler {
type: "gaussian"
std: 0.005
}
bias_filler {
type: "constant"
value: 0.1
}
}
}
layer {
name: "relu7"
type: "ReLU"
bottom: "fc7"
top: "fc7"
}
layer {
name: "drop7"
type: "Dropout"
bottom: "fc7"
top: "fc7"
dropout_param {
dropout_ratio: 0.5
}
}
layer {
name: "fc7.5"
type: "InnerProduct"
bottom: "fc7"
top: "fc7.5"
param {
lr_mult: 1
decay_mult: 1
}
param {
lr_mult: 2
decay_mult: 0
}
inner_product_param {
num_output: 8192
weight_filler {
type: "gaussian"
std: 0.005
}
bias_filler {
type: "constant"
value: 0.1
}
}
}
layer {
name: "relu7.5"
type: "ReLU"
bottom: "fc7.5"
top: "fc7.5"
}
layer {
name: "drop7.5"
type: "Dropout"
bottom: "fc7.5"
top: "fc7.5"
dropout_param {
dropout_ratio: 0.5
}
}
layer {
name: "fc7.6"
type: "InnerProduct"
bottom: "fc7.5"
top: "fc7.6"
param {
lr_mult: 1
decay_mult: 1
}
param {
lr_mult: 2
decay_mult: 0
}
inner_product_param {
num_output: 8192
weight_filler {
type: "gaussian"
std: 0.005
}
bias_filler {
type: "constant"
value: 0.1
}
}
}
layer {
name: "relu7.6"
type: "ReLU"
bottom: "fc7.6"
top: "fc7.6"
}
layer {
name: "drop7.6"
type: "Dropout"
bottom: "fc7.6"
top: "fc7.6"
dropout_param {
dropout_ratio: 0.5
}
}
layer {
name: "fc8"
type: "InnerProduct"
bottom: "fc7.6"
top: "fc8"
param {
lr_mult: 1
decay_mult: 1
}
param {
lr_mult: 2
decay_mult: 0
}
inner_product_param {
num_output: 196
weight_filler {
type: "gaussian"
std: 0.01
}
bias_filler {
type: "constant"
value: 0
}
}
}
layer {
name: "accuracy"
type: "Accuracy"
bottom: "fc8"
bottom: "label"
top: "accuracy"
include {
phase: TEST
}
}
layer {
name: "loss"
type: "SoftmaxWithLoss"
bottom: "fc8"
bottom: "label"
top: "loss"
}
I0410 01:29:58.282836 24451 layer_factory.hpp:77] Creating layer val-data
I0410 01:29:58.284412 24451 db_lmdb.cpp:35] Opened lmdb /mnt/bigdisk/DIGITS-MAN-2/digits/jobs/20210407-214532-d396/val_db
I0410 01:29:58.284617 24451 net.cpp:84] Creating Layer val-data
I0410 01:29:58.284627 24451 net.cpp:380] val-data -> data
I0410 01:29:58.284636 24451 net.cpp:380] val-data -> label
I0410 01:29:58.284643 24451 data_transformer.cpp:25] Loading mean file from: /mnt/bigdisk/DIGITS-MAN-2/digits/jobs/20210407-214532-d396/mean.binaryproto
I0410 01:29:58.288043 24451 data_layer.cpp:45] output data size: 32,3,227,227
I0410 01:29:58.318419 24451 net.cpp:122] Setting up val-data
I0410 01:29:58.318439 24451 net.cpp:129] Top shape: 32 3 227 227 (4946784)
I0410 01:29:58.318444 24451 net.cpp:129] Top shape: 32 (32)
I0410 01:29:58.318447 24451 net.cpp:137] Memory required for data: 19787264
I0410 01:29:58.318454 24451 layer_factory.hpp:77] Creating layer label_val-data_1_split
I0410 01:29:58.318466 24451 net.cpp:84] Creating Layer label_val-data_1_split
I0410 01:29:58.318471 24451 net.cpp:406] label_val-data_1_split <- label
I0410 01:29:58.318478 24451 net.cpp:380] label_val-data_1_split -> label_val-data_1_split_0
I0410 01:29:58.318488 24451 net.cpp:380] label_val-data_1_split -> label_val-data_1_split_1
I0410 01:29:58.318538 24451 net.cpp:122] Setting up label_val-data_1_split
I0410 01:29:58.318543 24451 net.cpp:129] Top shape: 32 (32)
I0410 01:29:58.318547 24451 net.cpp:129] Top shape: 32 (32)
I0410 01:29:58.318552 24451 net.cpp:137] Memory required for data: 19787520
I0410 01:29:58.318554 24451 layer_factory.hpp:77] Creating layer conv1
I0410 01:29:58.318567 24451 net.cpp:84] Creating Layer conv1
I0410 01:29:58.318570 24451 net.cpp:406] conv1 <- data
I0410 01:29:58.318576 24451 net.cpp:380] conv1 -> conv1
I0410 01:29:58.320500 24451 net.cpp:122] Setting up conv1
I0410 01:29:58.320511 24451 net.cpp:129] Top shape: 32 96 55 55 (9292800)
I0410 01:29:58.320514 24451 net.cpp:137] Memory required for data: 56958720
I0410 01:29:58.320525 24451 layer_factory.hpp:77] Creating layer relu1
I0410 01:29:58.320531 24451 net.cpp:84] Creating Layer relu1
I0410 01:29:58.320535 24451 net.cpp:406] relu1 <- conv1
I0410 01:29:58.320559 24451 net.cpp:367] relu1 -> conv1 (in-place)
I0410 01:29:58.322075 24451 net.cpp:122] Setting up relu1
I0410 01:29:58.322088 24451 net.cpp:129] Top shape: 32 96 55 55 (9292800)
I0410 01:29:58.322090 24451 net.cpp:137] Memory required for data: 94129920
I0410 01:29:58.322094 24451 layer_factory.hpp:77] Creating layer norm1
I0410 01:29:58.322103 24451 net.cpp:84] Creating Layer norm1
I0410 01:29:58.322108 24451 net.cpp:406] norm1 <- conv1
I0410 01:29:58.322113 24451 net.cpp:380] norm1 -> norm1
I0410 01:29:58.322571 24451 net.cpp:122] Setting up norm1
I0410 01:29:58.322582 24451 net.cpp:129] Top shape: 32 96 55 55 (9292800)
I0410 01:29:58.322584 24451 net.cpp:137] Memory required for data: 131301120
I0410 01:29:58.322588 24451 layer_factory.hpp:77] Creating layer pool1
I0410 01:29:58.322595 24451 net.cpp:84] Creating Layer pool1
I0410 01:29:58.322599 24451 net.cpp:406] pool1 <- norm1
I0410 01:29:58.322604 24451 net.cpp:380] pool1 -> pool1
I0410 01:29:58.322633 24451 net.cpp:122] Setting up pool1
I0410 01:29:58.322638 24451 net.cpp:129] Top shape: 32 96 27 27 (2239488)
I0410 01:29:58.322641 24451 net.cpp:137] Memory required for data: 140259072
I0410 01:29:58.322645 24451 layer_factory.hpp:77] Creating layer conv2
I0410 01:29:58.322654 24451 net.cpp:84] Creating Layer conv2
I0410 01:29:58.322657 24451 net.cpp:406] conv2 <- pool1
I0410 01:29:58.322662 24451 net.cpp:380] conv2 -> conv2
I0410 01:29:58.331749 24451 net.cpp:122] Setting up conv2
I0410 01:29:58.331763 24451 net.cpp:129] Top shape: 32 256 27 27 (5971968)
I0410 01:29:58.331766 24451 net.cpp:137] Memory required for data: 164146944
I0410 01:29:58.331775 24451 layer_factory.hpp:77] Creating layer relu2
I0410 01:29:58.331784 24451 net.cpp:84] Creating Layer relu2
I0410 01:29:58.331789 24451 net.cpp:406] relu2 <- conv2
I0410 01:29:58.331794 24451 net.cpp:367] relu2 -> conv2 (in-place)
I0410 01:29:58.332144 24451 net.cpp:122] Setting up relu2
I0410 01:29:58.332152 24451 net.cpp:129] Top shape: 32 256 27 27 (5971968)
I0410 01:29:58.332155 24451 net.cpp:137] Memory required for data: 188034816
I0410 01:29:58.332159 24451 layer_factory.hpp:77] Creating layer norm2
I0410 01:29:58.332168 24451 net.cpp:84] Creating Layer norm2
I0410 01:29:58.332172 24451 net.cpp:406] norm2 <- conv2
I0410 01:29:58.332180 24451 net.cpp:380] norm2 -> norm2
I0410 01:29:58.332696 24451 net.cpp:122] Setting up norm2
I0410 01:29:58.332705 24451 net.cpp:129] Top shape: 32 256 27 27 (5971968)
I0410 01:29:58.332710 24451 net.cpp:137] Memory required for data: 211922688
I0410 01:29:58.332713 24451 layer_factory.hpp:77] Creating layer pool2
I0410 01:29:58.332720 24451 net.cpp:84] Creating Layer pool2
I0410 01:29:58.332724 24451 net.cpp:406] pool2 <- norm2
I0410 01:29:58.332729 24451 net.cpp:380] pool2 -> pool2
I0410 01:29:58.332760 24451 net.cpp:122] Setting up pool2
I0410 01:29:58.332767 24451 net.cpp:129] Top shape: 32 256 13 13 (1384448)
I0410 01:29:58.332769 24451 net.cpp:137] Memory required for data: 217460480
I0410 01:29:58.332773 24451 layer_factory.hpp:77] Creating layer conv3
I0410 01:29:58.332782 24451 net.cpp:84] Creating Layer conv3
I0410 01:29:58.332785 24451 net.cpp:406] conv3 <- pool2
I0410 01:29:58.332792 24451 net.cpp:380] conv3 -> conv3
I0410 01:29:58.344218 24451 net.cpp:122] Setting up conv3
I0410 01:29:58.344235 24451 net.cpp:129] Top shape: 32 384 13 13 (2076672)
I0410 01:29:58.344239 24451 net.cpp:137] Memory required for data: 225767168
I0410 01:29:58.344252 24451 layer_factory.hpp:77] Creating layer relu3
I0410 01:29:58.344261 24451 net.cpp:84] Creating Layer relu3
I0410 01:29:58.344266 24451 net.cpp:406] relu3 <- conv3
I0410 01:29:58.344272 24451 net.cpp:367] relu3 -> conv3 (in-place)
I0410 01:29:58.344790 24451 net.cpp:122] Setting up relu3
I0410 01:29:58.344799 24451 net.cpp:129] Top shape: 32 384 13 13 (2076672)
I0410 01:29:58.344802 24451 net.cpp:137] Memory required for data: 234073856
I0410 01:29:58.344806 24451 layer_factory.hpp:77] Creating layer conv4
I0410 01:29:58.344817 24451 net.cpp:84] Creating Layer conv4
I0410 01:29:58.344821 24451 net.cpp:406] conv4 <- conv3
I0410 01:29:58.344846 24451 net.cpp:380] conv4 -> conv4
I0410 01:29:58.356678 24451 net.cpp:122] Setting up conv4
I0410 01:29:58.356695 24451 net.cpp:129] Top shape: 32 384 13 13 (2076672)
I0410 01:29:58.356699 24451 net.cpp:137] Memory required for data: 242380544
I0410 01:29:58.356709 24451 layer_factory.hpp:77] Creating layer relu4
I0410 01:29:58.356716 24451 net.cpp:84] Creating Layer relu4
I0410 01:29:58.356720 24451 net.cpp:406] relu4 <- conv4
I0410 01:29:58.356727 24451 net.cpp:367] relu4 -> conv4 (in-place)
I0410 01:29:58.358340 24451 net.cpp:122] Setting up relu4
I0410 01:29:58.358352 24451 net.cpp:129] Top shape: 32 384 13 13 (2076672)
I0410 01:29:58.358356 24451 net.cpp:137] Memory required for data: 250687232
I0410 01:29:58.358361 24451 layer_factory.hpp:77] Creating layer conv5
I0410 01:29:58.358372 24451 net.cpp:84] Creating Layer conv5
I0410 01:29:58.358377 24451 net.cpp:406] conv5 <- conv4
I0410 01:29:58.358386 24451 net.cpp:380] conv5 -> conv5
I0410 01:29:58.366039 24451 net.cpp:122] Setting up conv5
I0410 01:29:58.366055 24451 net.cpp:129] Top shape: 32 256 13 13 (1384448)
I0410 01:29:58.366058 24451 net.cpp:137] Memory required for data: 256225024
I0410 01:29:58.366070 24451 layer_factory.hpp:77] Creating layer relu5
I0410 01:29:58.366077 24451 net.cpp:84] Creating Layer relu5
I0410 01:29:58.366082 24451 net.cpp:406] relu5 <- conv5
I0410 01:29:58.366088 24451 net.cpp:367] relu5 -> conv5 (in-place)
I0410 01:29:58.366449 24451 net.cpp:122] Setting up relu5
I0410 01:29:58.366457 24451 net.cpp:129] Top shape: 32 256 13 13 (1384448)
I0410 01:29:58.366461 24451 net.cpp:137] Memory required for data: 261762816
I0410 01:29:58.366464 24451 layer_factory.hpp:77] Creating layer pool5
I0410 01:29:58.366474 24451 net.cpp:84] Creating Layer pool5
I0410 01:29:58.366478 24451 net.cpp:406] pool5 <- conv5
I0410 01:29:58.366484 24451 net.cpp:380] pool5 -> pool5
I0410 01:29:58.366523 24451 net.cpp:122] Setting up pool5
I0410 01:29:58.366529 24451 net.cpp:129] Top shape: 32 256 6 6 (294912)
I0410 01:29:58.366533 24451 net.cpp:137] Memory required for data: 262942464
I0410 01:29:58.366537 24451 layer_factory.hpp:77] Creating layer fc6
I0410 01:29:58.366544 24451 net.cpp:84] Creating Layer fc6
I0410 01:29:58.366547 24451 net.cpp:406] fc6 <- pool5
I0410 01:29:58.366555 24451 net.cpp:380] fc6 -> fc6
I0410 01:29:59.077092 24451 net.cpp:122] Setting up fc6
I0410 01:29:59.077114 24451 net.cpp:129] Top shape: 32 8192 (262144)
I0410 01:29:59.077118 24451 net.cpp:137] Memory required for data: 263991040
I0410 01:29:59.077127 24451 layer_factory.hpp:77] Creating layer relu6
I0410 01:29:59.077137 24451 net.cpp:84] Creating Layer relu6
I0410 01:29:59.077142 24451 net.cpp:406] relu6 <- fc6
I0410 01:29:59.077148 24451 net.cpp:367] relu6 -> fc6 (in-place)
I0410 01:29:59.080541 24451 net.cpp:122] Setting up relu6
I0410 01:29:59.080554 24451 net.cpp:129] Top shape: 32 8192 (262144)
I0410 01:29:59.080556 24451 net.cpp:137] Memory required for data: 265039616
I0410 01:29:59.080560 24451 layer_factory.hpp:77] Creating layer drop6
I0410 01:29:59.080567 24451 net.cpp:84] Creating Layer drop6
I0410 01:29:59.080572 24451 net.cpp:406] drop6 <- fc6
I0410 01:29:59.080579 24451 net.cpp:367] drop6 -> fc6 (in-place)
I0410 01:29:59.080602 24451 net.cpp:122] Setting up drop6
I0410 01:29:59.080608 24451 net.cpp:129] Top shape: 32 8192 (262144)
I0410 01:29:59.080611 24451 net.cpp:137] Memory required for data: 266088192
I0410 01:29:59.080615 24451 layer_factory.hpp:77] Creating layer fc7
I0410 01:29:59.080623 24451 net.cpp:84] Creating Layer fc7
I0410 01:29:59.080626 24451 net.cpp:406] fc7 <- fc6
I0410 01:29:59.080634 24451 net.cpp:380] fc7 -> fc7
I0410 01:29:59.713482 24451 net.cpp:122] Setting up fc7
I0410 01:29:59.713505 24451 net.cpp:129] Top shape: 32 8192 (262144)
I0410 01:29:59.713508 24451 net.cpp:137] Memory required for data: 267136768
I0410 01:29:59.713516 24451 layer_factory.hpp:77] Creating layer relu7
I0410 01:29:59.713526 24451 net.cpp:84] Creating Layer relu7
I0410 01:29:59.713531 24451 net.cpp:406] relu7 <- fc7
I0410 01:29:59.713557 24451 net.cpp:367] relu7 -> fc7 (in-place)
I0410 01:29:59.714200 24451 net.cpp:122] Setting up relu7
I0410 01:29:59.714210 24451 net.cpp:129] Top shape: 32 8192 (262144)
I0410 01:29:59.714215 24451 net.cpp:137] Memory required for data: 268185344
I0410 01:29:59.714218 24451 layer_factory.hpp:77] Creating layer drop7
I0410 01:29:59.714226 24451 net.cpp:84] Creating Layer drop7
I0410 01:29:59.714229 24451 net.cpp:406] drop7 <- fc7
I0410 01:29:59.714234 24451 net.cpp:367] drop7 -> fc7 (in-place)
I0410 01:29:59.714262 24451 net.cpp:122] Setting up drop7
I0410 01:29:59.714267 24451 net.cpp:129] Top shape: 32 8192 (262144)
I0410 01:29:59.714270 24451 net.cpp:137] Memory required for data: 269233920
I0410 01:29:59.714273 24451 layer_factory.hpp:77] Creating layer fc7.5
I0410 01:29:59.714283 24451 net.cpp:84] Creating Layer fc7.5
I0410 01:29:59.714287 24451 net.cpp:406] fc7.5 <- fc7
I0410 01:29:59.714291 24451 net.cpp:380] fc7.5 -> fc7.5
I0410 01:30:00.345986 24451 net.cpp:122] Setting up fc7.5
I0410 01:30:00.346009 24451 net.cpp:129] Top shape: 32 8192 (262144)
I0410 01:30:00.346012 24451 net.cpp:137] Memory required for data: 270282496
I0410 01:30:00.346022 24451 layer_factory.hpp:77] Creating layer relu7.5
I0410 01:30:00.346032 24451 net.cpp:84] Creating Layer relu7.5
I0410 01:30:00.346037 24451 net.cpp:406] relu7.5 <- fc7.5
I0410 01:30:00.346045 24451 net.cpp:367] relu7.5 -> fc7.5 (in-place)
I0410 01:30:00.350298 24451 net.cpp:122] Setting up relu7.5
I0410 01:30:00.350309 24451 net.cpp:129] Top shape: 32 8192 (262144)
I0410 01:30:00.350312 24451 net.cpp:137] Memory required for data: 271331072
I0410 01:30:00.350317 24451 layer_factory.hpp:77] Creating layer drop7.5
I0410 01:30:00.350323 24451 net.cpp:84] Creating Layer drop7.5
I0410 01:30:00.350327 24451 net.cpp:406] drop7.5 <- fc7.5
I0410 01:30:00.350334 24451 net.cpp:367] drop7.5 -> fc7.5 (in-place)
I0410 01:30:00.350355 24451 net.cpp:122] Setting up drop7.5
I0410 01:30:00.350361 24451 net.cpp:129] Top shape: 32 8192 (262144)
I0410 01:30:00.350364 24451 net.cpp:137] Memory required for data: 272379648
I0410 01:30:00.350368 24451 layer_factory.hpp:77] Creating layer fc7.6
I0410 01:30:00.350376 24451 net.cpp:84] Creating Layer fc7.6
I0410 01:30:00.350380 24451 net.cpp:406] fc7.6 <- fc7.5
I0410 01:30:00.350386 24451 net.cpp:380] fc7.6 -> fc7.6
I0410 01:30:00.982791 24451 net.cpp:122] Setting up fc7.6
I0410 01:30:00.982810 24451 net.cpp:129] Top shape: 32 8192 (262144)
I0410 01:30:00.982815 24451 net.cpp:137] Memory required for data: 273428224
I0410 01:30:00.982827 24451 layer_factory.hpp:77] Creating layer relu7.6
I0410 01:30:00.982837 24451 net.cpp:84] Creating Layer relu7.6
I0410 01:30:00.982842 24451 net.cpp:406] relu7.6 <- fc7.6
I0410 01:30:00.982849 24451 net.cpp:367] relu7.6 -> fc7.6 (in-place)
I0410 01:30:00.983263 24451 net.cpp:122] Setting up relu7.6
I0410 01:30:00.983271 24451 net.cpp:129] Top shape: 32 8192 (262144)
I0410 01:30:00.983274 24451 net.cpp:137] Memory required for data: 274476800
I0410 01:30:00.983278 24451 layer_factory.hpp:77] Creating layer drop7.6
I0410 01:30:00.983284 24451 net.cpp:84] Creating Layer drop7.6
I0410 01:30:00.983289 24451 net.cpp:406] drop7.6 <- fc7.6
I0410 01:30:00.983295 24451 net.cpp:367] drop7.6 -> fc7.6 (in-place)
I0410 01:30:00.983317 24451 net.cpp:122] Setting up drop7.6
I0410 01:30:00.983323 24451 net.cpp:129] Top shape: 32 8192 (262144)
I0410 01:30:00.983327 24451 net.cpp:137] Memory required for data: 275525376
I0410 01:30:00.983331 24451 layer_factory.hpp:77] Creating layer fc8
I0410 01:30:00.983340 24451 net.cpp:84] Creating Layer fc8
I0410 01:30:00.983343 24451 net.cpp:406] fc8 <- fc7.6
I0410 01:30:00.983350 24451 net.cpp:380] fc8 -> fc8
I0410 01:30:01.000533 24451 net.cpp:122] Setting up fc8
I0410 01:30:01.000550 24451 net.cpp:129] Top shape: 32 196 (6272)
I0410 01:30:01.000553 24451 net.cpp:137] Memory required for data: 275550464
I0410 01:30:01.000562 24451 layer_factory.hpp:77] Creating layer fc8_fc8_0_split
I0410 01:30:01.000572 24451 net.cpp:84] Creating Layer fc8_fc8_0_split
I0410 01:30:01.000597 24451 net.cpp:406] fc8_fc8_0_split <- fc8
I0410 01:30:01.000602 24451 net.cpp:380] fc8_fc8_0_split -> fc8_fc8_0_split_0
I0410 01:30:01.000612 24451 net.cpp:380] fc8_fc8_0_split -> fc8_fc8_0_split_1
I0410 01:30:01.000648 24451 net.cpp:122] Setting up fc8_fc8_0_split
I0410 01:30:01.000653 24451 net.cpp:129] Top shape: 32 196 (6272)
I0410 01:30:01.000658 24451 net.cpp:129] Top shape: 32 196 (6272)
I0410 01:30:01.000660 24451 net.cpp:137] Memory required for data: 275600640
I0410 01:30:01.000663 24451 layer_factory.hpp:77] Creating layer accuracy
I0410 01:30:01.000671 24451 net.cpp:84] Creating Layer accuracy
I0410 01:30:01.000675 24451 net.cpp:406] accuracy <- fc8_fc8_0_split_0
I0410 01:30:01.000680 24451 net.cpp:406] accuracy <- label_val-data_1_split_0
I0410 01:30:01.000685 24451 net.cpp:380] accuracy -> accuracy
…
