…
I0426 20:28:54.286077 13677 net.cpp:294] The NetState phase (0) differed from the phase (1) specified by a rule in layer accuracy
I0426 20:28:54.286293 13677 net.cpp:51] Initializing net from parameters:
state {
phase: TRAIN
level: 0
stage: ""
}
layer {
name: "train-data"
type: "Data"
top: "data"
top: "label"
include {
phase: TRAIN
}
transform_param {
mirror: true
crop_size: 227
mean_file: "/mnt/bigdisk/DIGITS-MAN-3/digits/jobs/20210421-230320-902c/mean.binaryproto"
}
data_param {
source: "/mnt/bigdisk/DIGITS-MAN-3/digits/jobs/20210421-230320-902c/train_db"
batch_size: 128
backend: LMDB
}
}
layer {
name: "conv1"
type: "Convolution"
bottom: "data"
top: "conv1"
param {
lr_mult: 1
decay_mult: 1
}
param {
lr_mult: 2
decay_mult: 0
}
convolution_param {
num_output: 96
kernel_size: 11
stride: 4
weight_filler {
type: "gaussian"
std: 0.01
}
bias_filler {
type: "constant"
value: 0
}
}
}
layer {
name: "relu1"
type: "ReLU"
bottom: "conv1"
top: "conv1"
}
layer {
name: "norm1"
type: "LRN"
bottom: "conv1"
top: "norm1"
lrn_param {
local_size: 5
alpha: 0.0001
beta: 0.75
}
}
layer {
name: "pool1"
type: "Pooling"
bottom: "norm1"
top: "pool1"
pooling_param {
pool: MAX
kernel_size: 3
stride: 2
}
}
layer {
name: "conv2"
type: "Convolution"
bottom: "pool1"
top: "conv2"
param {
lr_mult: 1
decay_mult: 1
}
param {
lr_mult: 2
decay_mult: 0
}
convolution_param {
num_output: 256
pad: 2
kernel_size: 5
group: 2
weight_filler {
type: "gaussian"
std: 0.01
}
bias_filler {
type: "constant"
value: 0.1
}
}
}
layer {
name: "relu2"
type: "ReLU"
bottom: "conv2"
top: "conv2"
}
layer {
name: "norm2"
type: "LRN"
bottom: "conv2"
top: "norm2"
lrn_param {
local_size: 5
alpha: 0.0001
beta: 0.75
}
}
layer {
name: "pool2"
type: "Pooling"
bottom: "norm2"
top: "pool2"
pooling_param {
pool: MAX
kernel_size: 3
stride: 2
}
}
layer {
name: "conv3"
type: "Convolution"
bottom: "pool2"
top: "conv3"
param {
lr_mult: 1
decay_mult: 1
}
param {
lr_mult: 2
decay_mult: 0
}
convolution_param {
num_output: 384
pad: 1
kernel_size: 3
weight_filler {
type: "gaussian"
std: 0.01
}
bias_filler {
type: "constant"
value: 0
}
}
}
layer {
name: "relu3"
type: "ReLU"
bottom: "conv3"
top: "conv3"
}
layer {
name: "conv4"
type: "Convolution"
bottom: "conv3"
top: "conv4"
param {
lr_mult: 1
decay_mult: 1
}
param {
lr_mult: 2
decay_mult: 0
}
convolution_param {
num_output: 384
pad: 1
kernel_size: 3
group: 2
weight_filler {
type: "gaussian"
std: 0.01
}
bias_filler {
type: "constant"
value: 0.1
}
}
}
layer {
name: "relu4"
type: "ReLU"
bottom: "conv4"
top: "conv4"
}
layer {
name: "conv5"
type: "Convolution"
bottom: "conv4"
top: "conv5"
param {
lr_mult: 1
decay_mult: 1
}
param {
lr_mult: 2
decay_mult: 0
}
convolution_param {
num_output: 256
pad: 1
kernel_size: 5
group: 2
weight_filler {
type: "gaussian"
std: 0.01
}
bias_filler {
type: "constant"
value: 0.1
}
}
}
layer {
name: "relu5"
type: "ReLU"
bottom: "conv5"
top: "conv5"
}
layer {
name: "pool5"
type: "Pooling"
bottom: "conv5"
top: "pool5"
pooling_param {
pool: MAX
kernel_size: 3
stride: 2
}
}
layer {
name: "fc6"
type: "InnerProduct"
bottom: "pool5"
top: "fc6"
param {
lr_mult: 1
decay_mult: 1
}
param {
lr_mult: 2
decay_mult: 0
}
inner_product_param {
num_output: 4096
weight_filler {
type: "gaussian"
std: 0.005
}
bias_filler {
type: "constant"
value: 0.1
}
}
}
layer {
name: "relu6"
type: "ReLU"
bottom: "fc6"
top: "fc6"
}
layer {
name: "drop6"
type: "Dropout"
bottom: "fc6"
top: "fc6"
dropout_param {
dropout_ratio: 0.5
}
}
layer {
name: "fc7"
type: "InnerProduct"
bottom: "fc6"
top: "fc7"
param {
lr_mult: 1
decay_mult: 1
}
param {
lr_mult: 2
decay_mult: 0
}
inner_product_param {
num_output: 4096
weight_filler {
type: "gaussian"
std: 0.005
}
bias_filler {
type: "constant"
value: 0.1
}
}
}
layer {
name: "relu7"
type: "ReLU"
bottom: "fc7"
top: "fc7"
}
layer {
name: "drop7"
type: "Dropout"
bottom: "fc7"
top: "fc7"
dropout_param {
dropout_ratio: 0.5
}
}
layer {
name: "fc8"
type: "InnerProduct"
bottom: "fc7"
top: "fc8"
param {
lr_mult: 1
decay_mult: 1
}
param {
lr_mult: 2
decay_mult: 0
}
inner_product_param {
num_output: 196
weight_filler {
type: "gaussian"
std: 0.01
}
bias_filler {
type: "constant"
value: 0
}
}
}
layer {
name: "loss"
type: "SoftmaxWithLoss"
bottom: "fc8"
bottom: "label"
top: "loss"
}
I0426 20:28:54.286412 13677 layer_factory.hpp:77] Creating layer train-data
I0426 20:28:54.313562 13677 db_lmdb.cpp:35] Opened lmdb /mnt/bigdisk/DIGITS-MAN-3/digits/jobs/20210421-230320-902c/train_db
I0426 20:28:54.313736 13677 net.cpp:84] Creating Layer train-data
I0426 20:28:54.313753 13677 net.cpp:380] train-data -> data
I0426 20:28:54.313776 13677 net.cpp:380] train-data -> label
I0426 20:28:54.313789 13677 data_transformer.cpp:25] Loading mean file from: /mnt/bigdisk/DIGITS-MAN-3/digits/jobs/20210421-230320-902c/mean.binaryproto
I0426 20:28:54.319319 13677 data_layer.cpp:45] output data size: 128,3,227,227
I0426 20:28:54.515460 13677 net.cpp:122] Setting up train-data
I0426 20:28:54.515484 13677 net.cpp:129] Top shape: 128 3 227 227 (19787136)
I0426 20:28:54.515491 13677 net.cpp:129] Top shape: 128 (128)
I0426 20:28:54.515496 13677 net.cpp:137] Memory required for data: 79149056
I0426 20:28:54.515504 13677 layer_factory.hpp:77] Creating layer conv1
I0426 20:28:54.515527 13677 net.cpp:84] Creating Layer conv1
I0426 20:28:54.515534 13677 net.cpp:406] conv1 <- data
I0426 20:28:54.515547 13677 net.cpp:380] conv1 -> conv1
I0426 20:28:55.236279 13677 net.cpp:122] Setting up conv1
I0426 20:28:55.236304 13677 net.cpp:129] Top shape: 128 96 55 55 (37171200)
I0426 20:28:55.236307 13677 net.cpp:137] Memory required for data: 227833856
I0426 20:28:55.236327 13677 layer_factory.hpp:77] Creating layer relu1
I0426 20:28:55.236338 13677 net.cpp:84] Creating Layer relu1
I0426 20:28:55.236343 13677 net.cpp:406] relu1 <- conv1
I0426 20:28:55.236349 13677 net.cpp:367] relu1 -> conv1 (in-place)
I0426 20:28:55.236685 13677 net.cpp:122] Setting up relu1
I0426 20:28:55.236696 13677 net.cpp:129] Top shape: 128 96 55 55 (37171200)
I0426 20:28:55.236698 13677 net.cpp:137] Memory required for data: 376518656
I0426 20:28:55.236702 13677 layer_factory.hpp:77] Creating layer norm1
I0426 20:28:55.236711 13677 net.cpp:84] Creating Layer norm1
I0426 20:28:55.236716 13677 net.cpp:406] norm1 <- conv1
I0426 20:28:55.236743 13677 net.cpp:380] norm1 -> norm1
I0426 20:28:55.237213 13677 net.cpp:122] Setting up norm1
I0426 20:28:55.237223 13677 net.cpp:129] Top shape: 128 96 55 55 (37171200)
I0426 20:28:55.237226 13677 net.cpp:137] Memory required for data: 525203456
I0426 20:28:55.237231 13677 layer_factory.hpp:77] Creating layer pool1
I0426 20:28:55.237238 13677 net.cpp:84] Creating Layer pool1
I0426 20:28:55.237242 13677 net.cpp:406] pool1 <- norm1
I0426 20:28:55.237247 13677 net.cpp:380] pool1 -> pool1
I0426 20:28:55.237284 13677 net.cpp:122] Setting up pool1
I0426 20:28:55.237290 13677 net.cpp:129] Top shape: 128 96 27 27 (8957952)
I0426 20:28:55.237293 13677 net.cpp:137] Memory required for data: 561035264
I0426 20:28:55.237298 13677 layer_factory.hpp:77] Creating layer conv2
I0426 20:28:55.237308 13677 net.cpp:84] Creating Layer conv2
I0426 20:28:55.237310 13677 net.cpp:406] conv2 <- pool1
I0426 20:28:55.237316 13677 net.cpp:380] conv2 -> conv2
I0426 20:28:55.255164 13677 net.cpp:122] Setting up conv2
I0426 20:28:55.255184 13677 net.cpp:129] Top shape: 128 256 27 27 (23887872)
I0426 20:28:55.255188 13677 net.cpp:137] Memory required for data: 656586752
I0426 20:28:55.255200 13677 layer_factory.hpp:77] Creating layer relu2
I0426 20:28:55.255209 13677 net.cpp:84] Creating Layer relu2
I0426 20:28:55.255214 13677 net.cpp:406] relu2 <- conv2
I0426 20:28:55.255220 13677 net.cpp:367] relu2 -> conv2 (in-place)
I0426 20:28:55.255650 13677 net.cpp:122] Setting up relu2
I0426 20:28:55.255659 13677 net.cpp:129] Top shape: 128 256 27 27 (23887872)
I0426 20:28:55.255662 13677 net.cpp:137] Memory required for data: 752138240
I0426 20:28:55.255666 13677 layer_factory.hpp:77] Creating layer norm2
I0426 20:28:55.255673 13677 net.cpp:84] Creating Layer norm2
I0426 20:28:55.255677 13677 net.cpp:406] norm2 <- conv2
I0426 20:28:55.255683 13677 net.cpp:380] norm2 -> norm2
I0426 20:28:55.255975 13677 net.cpp:122] Setting up norm2
I0426 20:28:55.255985 13677 net.cpp:129] Top shape: 128 256 27 27 (23887872)
I0426 20:28:55.255987 13677 net.cpp:137] Memory required for data: 847689728
I0426 20:28:55.255991 13677 layer_factory.hpp:77] Creating layer pool2
I0426 20:28:55.256000 13677 net.cpp:84] Creating Layer pool2
I0426 20:28:55.256002 13677 net.cpp:406] pool2 <- norm2
I0426 20:28:55.256008 13677 net.cpp:380] pool2 -> pool2
I0426 20:28:55.256034 13677 net.cpp:122] Setting up pool2
I0426 20:28:55.256039 13677 net.cpp:129] Top shape: 128 256 13 13 (5537792)
I0426 20:28:55.256043 13677 net.cpp:137] Memory required for data: 869840896
I0426 20:28:55.256047 13677 layer_factory.hpp:77] Creating layer conv3
I0426 20:28:55.256057 13677 net.cpp:84] Creating Layer conv3
I0426 20:28:55.256060 13677 net.cpp:406] conv3 <- pool2
I0426 20:28:55.256064 13677 net.cpp:380] conv3 -> conv3
I0426 20:28:55.266121 13677 net.cpp:122] Setting up conv3
I0426 20:28:55.266140 13677 net.cpp:129] Top shape: 128 384 13 13 (8306688)
I0426 20:28:55.266144 13677 net.cpp:137] Memory required for data: 903067648
I0426 20:28:55.266155 13677 layer_factory.hpp:77] Creating layer relu3
I0426 20:28:55.266165 13677 net.cpp:84] Creating Layer relu3
I0426 20:28:55.266168 13677 net.cpp:406] relu3 <- conv3
I0426 20:28:55.266175 13677 net.cpp:367] relu3 -> conv3 (in-place)
I0426 20:28:55.266593 13677 net.cpp:122] Setting up relu3
I0426 20:28:55.266602 13677 net.cpp:129] Top shape: 128 384 13 13 (8306688)
I0426 20:28:55.266606 13677 net.cpp:137] Memory required for data: 936294400
I0426 20:28:55.266610 13677 layer_factory.hpp:77] Creating layer conv4
I0426 20:28:55.266620 13677 net.cpp:84] Creating Layer conv4
I0426 20:28:55.266624 13677 net.cpp:406] conv4 <- conv3
I0426 20:28:55.266629 13677 net.cpp:380] conv4 -> conv4
I0426 20:28:55.304385 13677 net.cpp:122] Setting up conv4
I0426 20:28:55.304414 13677 net.cpp:129] Top shape: 128 384 13 13 (8306688)
I0426 20:28:55.304419 13677 net.cpp:137] Memory required for data: 969521152
I0426 20:28:55.304435 13677 layer_factory.hpp:77] Creating layer relu4
I0426 20:28:55.304448 13677 net.cpp:84] Creating Layer relu4
I0426 20:28:55.304482 13677 net.cpp:406] relu4 <- conv4
I0426 20:28:55.304523 13677 net.cpp:367] relu4 -> conv4 (in-place)
I0426 20:28:55.304986 13677 net.cpp:122] Setting up relu4
I0426 20:28:55.304994 13677 net.cpp:129] Top shape: 128 384 13 13 (8306688)
I0426 20:28:55.304998 13677 net.cpp:137] Memory required for data: 1002747904
I0426 20:28:55.305002 13677 layer_factory.hpp:77] Creating layer conv5
I0426 20:28:55.305014 13677 net.cpp:84] Creating Layer conv5
I0426 20:28:55.305018 13677 net.cpp:406] conv5 <- conv4
I0426 20:28:55.305024 13677 net.cpp:380] conv5 -> conv5
I0426 20:28:55.394111 13677 net.cpp:122] Setting up conv5
I0426 20:28:55.394146 13677 net.cpp:129] Top shape: 128 256 11 11 (3964928)
I0426 20:28:55.394155 13677 net.cpp:137] Memory required for data: 1018607616
I0426 20:28:55.394182 13677 layer_factory.hpp:77] Creating layer relu5
I0426 20:28:55.394201 13677 net.cpp:84] Creating Layer relu5
I0426 20:28:55.394209 13677 net.cpp:406] relu5 <- conv5
I0426 20:28:55.394224 13677 net.cpp:367] relu5 -> conv5 (in-place)
I0426 20:28:55.395253 13677 net.cpp:122] Setting up relu5
I0426 20:28:55.395277 13677 net.cpp:129] Top shape: 128 256 11 11 (3964928)
I0426 20:28:55.395283 13677 net.cpp:137] Memory required for data: 1034467328
I0426 20:28:55.395292 13677 layer_factory.hpp:77] Creating layer pool5
I0426 20:28:55.395306 13677 net.cpp:84] Creating Layer pool5
I0426 20:28:55.395314 13677 net.cpp:406] pool5 <- conv5
I0426 20:28:55.395328 13677 net.cpp:380] pool5 -> pool5
I0426 20:28:55.395411 13677 net.cpp:122] Setting up pool5
I0426 20:28:55.395423 13677 net.cpp:129] Top shape: 128 256 5 5 (819200)
I0426 20:28:55.395429 13677 net.cpp:137] Memory required for data: 1037744128
I0426 20:28:55.395437 13677 layer_factory.hpp:77] Creating layer fc6
I0426 20:28:55.395455 13677 net.cpp:84] Creating Layer fc6
I0426 20:28:55.395463 13677 net.cpp:406] fc6 <- pool5
I0426 20:28:55.395475 13677 net.cpp:380] fc6 -> fc6
I0426 20:28:55.725220 13677 net.cpp:122] Setting up fc6
I0426 20:28:55.725242 13677 net.cpp:129] Top shape: 128 4096 (524288)
I0426 20:28:55.725247 13677 net.cpp:137] Memory required for data: 1039841280
I0426 20:28:55.725256 13677 layer_factory.hpp:77] Creating layer relu6
I0426 20:28:55.725266 13677 net.cpp:84] Creating Layer relu6
I0426 20:28:55.725271 13677 net.cpp:406] relu6 <- fc6
I0426 20:28:55.725278 13677 net.cpp:367] relu6 -> fc6 (in-place)
I0426 20:28:55.725865 13677 net.cpp:122] Setting up relu6
I0426 20:28:55.725875 13677 net.cpp:129] Top shape: 128 4096 (524288)
I0426 20:28:55.725880 13677 net.cpp:137] Memory required for data: 1041938432
I0426 20:28:55.725884 13677 layer_factory.hpp:77] Creating layer drop6
I0426 20:28:55.725891 13677 net.cpp:84] Creating Layer drop6
I0426 20:28:55.725896 13677 net.cpp:406] drop6 <- fc6
I0426 20:28:55.725903 13677 net.cpp:367] drop6 -> fc6 (in-place)
I0426 20:28:55.725930 13677 net.cpp:122] Setting up drop6
I0426 20:28:55.725937 13677 net.cpp:129] Top shape: 128 4096 (524288)
I0426 20:28:55.725940 13677 net.cpp:137] Memory required for data: 1044035584
I0426 20:28:55.725945 13677 layer_factory.hpp:77] Creating layer fc7
I0426 20:28:55.725952 13677 net.cpp:84] Creating Layer fc7
I0426 20:28:55.725957 13677 net.cpp:406] fc7 <- fc6
I0426 20:28:55.725963 13677 net.cpp:380] fc7 -> fc7
I0426 20:28:55.905720 13677 net.cpp:122] Setting up fc7
I0426 20:28:55.905746 13677 net.cpp:129] Top shape: 128 4096 (524288)
I0426 20:28:55.905750 13677 net.cpp:137] Memory required for data: 1046132736
I0426 20:28:55.905761 13677 layer_factory.hpp:77] Creating layer relu7
I0426 20:28:55.905771 13677 net.cpp:84] Creating Layer relu7
I0426 20:28:55.905776 13677 net.cpp:406] relu7 <- fc7
I0426 20:28:55.905782 13677 net.cpp:367] relu7 -> fc7 (in-place)
I0426 20:28:55.940203 13677 net.cpp:122] Setting up relu7
I0426 20:28:55.940225 13677 net.cpp:129] Top shape: 128 4096 (524288)
I0426 20:28:55.940230 13677 net.cpp:137] Memory required for data: 1048229888
I0426 20:28:55.940237 13677 layer_factory.hpp:77] Creating layer drop7
I0426 20:28:55.940248 13677 net.cpp:84] Creating Layer drop7
I0426 20:28:55.940276 13677 net.cpp:406] drop7 <- fc7
I0426 20:28:55.940285 13677 net.cpp:367] drop7 -> fc7 (in-place)
I0426 20:28:55.940320 13677 net.cpp:122] Setting up drop7
I0426 20:28:55.940327 13677 net.cpp:129] Top shape: 128 4096 (524288)
I0426 20:28:55.940331 13677 net.cpp:137] Memory required for data: 1050327040
I0426 20:28:55.940335 13677 layer_factory.hpp:77] Creating layer fc8
I0426 20:28:55.940344 13677 net.cpp:84] Creating Layer fc8
I0426 20:28:55.940348 13677 net.cpp:406] fc8 <- fc7
I0426 20:28:55.940356 13677 net.cpp:380] fc8 -> fc8
I0426 20:28:55.953773 13677 net.cpp:122] Setting up fc8
I0426 20:28:55.953799 13677 net.cpp:129] Top shape: 128 196 (25088)
I0426 20:28:55.953804 13677 net.cpp:137] Memory required for data: 1050427392
I0426 20:28:55.953819 13677 layer_factory.hpp:77] Creating layer loss
I0426 20:28:55.953832 13677 net.cpp:84] Creating Layer loss
I0426 20:28:55.953840 13677 net.cpp:406] loss <- fc8
I0426 20:28:55.953848 13677 net.cpp:406] loss <- label
I0426 20:28:55.953863 13677 net.cpp:380] loss -> loss
I0426 20:28:55.953879 13677 layer_factory.hpp:77] Creating layer loss
…
I0426 20:28:55.956655 13677 net.cpp:294] The NetState phase (1) differed from the phase (0) specified by a rule in layer train-data
I0426 20:28:55.956883 13677 net.cpp:51] Initializing net from parameters:
state {
phase: TEST
}
layer {
name: "val-data"
type: "Data"
top: "data"
top: "label"
include {
phase: TEST
}
transform_param {
crop_size: 227
mean_file: "/mnt/bigdisk/DIGITS-MAN-3/digits/jobs/20210421-230320-902c/mean.binaryproto"
}
data_param {
source: "/mnt/bigdisk/DIGITS-MAN-3/digits/jobs/20210421-230320-902c/val_db"
batch_size: 32
backend: LMDB
}
}
layer {
name: "conv1"
type: "Convolution"
bottom: "data"
top: "conv1"
param {
lr_mult: 1
decay_mult: 1
}
param {
lr_mult: 2
decay_mult: 0
}
convolution_param {
num_output: 96
kernel_size: 11
stride: 4
weight_filler {
type: "gaussian"
std: 0.01
}
bias_filler {
type: "constant"
value: 0
}
}
}
layer {
name: "relu1"
type: "ReLU"
bottom: "conv1"
top: "conv1"
}
layer {
name: "norm1"
type: "LRN"
bottom: "conv1"
top: "norm1"
lrn_param {
local_size: 5
alpha: 0.0001
beta: 0.75
}
}
layer {
name: "pool1"
type: "Pooling"
bottom: "norm1"
top: "pool1"
pooling_param {
pool: MAX
kernel_size: 3
stride: 2
}
}
layer {
name: "conv2"
type: "Convolution"
bottom: "pool1"
top: "conv2"
param {
lr_mult: 1
decay_mult: 1
}
param {
lr_mult: 2
decay_mult: 0
}
convolution_param {
num_output: 256
pad: 2
kernel_size: 5
group: 2
weight_filler {
type: "gaussian"
std: 0.01
}
bias_filler {
type: "constant"
value: 0.1
}
}
}
layer {
name: "relu2"
type: "ReLU"
bottom: "conv2"
top: "conv2"
}
layer {
name: "norm2"
type: "LRN"
bottom: "conv2"
top: "norm2"
lrn_param {
local_size: 5
alpha: 0.0001
beta: 0.75
}
}
layer {
name: "pool2"
type: "Pooling"
bottom: "norm2"
top: "pool2"
pooling_param {
pool: MAX
kernel_size: 3
stride: 2
}
}
layer {
name: "conv3"
type: "Convolution"
bottom: "pool2"
top: "conv3"
param {
lr_mult: 1
decay_mult: 1
}
param {
lr_mult: 2
decay_mult: 0
}
convolution_param {
num_output: 384
pad: 1
kernel_size: 3
weight_filler {
type: "gaussian"
std: 0.01
}
bias_filler {
type: "constant"
value: 0
}
}
}
layer {
name: "relu3"
type: "ReLU"
bottom: "conv3"
top: "conv3"
}
layer {
name: "conv4"
type: "Convolution"
bottom: "conv3"
top: "conv4"
param {
lr_mult: 1
decay_mult: 1
}
param {
lr_mult: 2
decay_mult: 0
}
convolution_param {
num_output: 384
pad: 1
kernel_size: 3
group: 2
weight_filler {
type: "gaussian"
std: 0.01
}
bias_filler {
type: "constant"
value: 0.1
}
}
}
layer {
name: "relu4"
type: "ReLU"
bottom: "conv4"
top: "conv4"
}
layer {
name: "conv5"
type: "Convolution"
bottom: "conv4"
top: "conv5"
param {
lr_mult: 1
decay_mult: 1
}
param {
lr_mult: 2
decay_mult: 0
}
convolution_param {
num_output: 256
pad: 1
kernel_size: 5
group: 2
weight_filler {
type: "gaussian"
std: 0.01
}
bias_filler {
type: "constant"
value: 0.1
}
}
}
layer {
name: "relu5"
type: "ReLU"
bottom: "conv5"
top: "conv5"
}
layer {
name: "pool5"
type: "Pooling"
bottom: "conv5"
top: "pool5"
pooling_param {
pool: MAX
kernel_size: 3
stride: 2
}
}
layer {
name: "fc6"
type: "InnerProduct"
bottom: "pool5"
top: "fc6"
param {
lr_mult: 1
decay_mult: 1
}
param {
lr_mult: 2
decay_mult: 0
}
inner_product_param {
num_output: 4096
weight_filler {
type: "gaussian"
std: 0.005
}
bias_filler {
type: "constant"
value: 0.1
}
}
}
layer {
name: "relu6"
type: "ReLU"
bottom: "fc6"
top: "fc6"
}
layer {
name: "drop6"
type: "Dropout"
bottom: "fc6"
top: "fc6"
dropout_param {
dropout_ratio: 0.5
}
}
layer {
name: "fc7"
type: "InnerProduct"
bottom: "fc6"
top: "fc7"
param {
lr_mult: 1
decay_mult: 1
}
param {
lr_mult: 2
decay_mult: 0
}
inner_product_param {
num_output: 4096
weight_filler {
type: "gaussian"
std: 0.005
}
bias_filler {
type: "constant"
value: 0.1
}
}
}
layer {
name: "relu7"
type: "ReLU"
bottom: "fc7"
top: "fc7"
}
layer {
name: "drop7"
type: "Dropout"
bottom: "fc7"
top: "fc7"
dropout_param {
dropout_ratio: 0.5
}
}
layer {
name: "fc8"
type: "InnerProduct"
bottom: "fc7"
top: "fc8"
param {
lr_mult: 1
decay_mult: 1
}
param {
lr_mult: 2
decay_mult: 0
}
inner_product_param {
num_output: 196
weight_filler {
type: "gaussian"
std: 0.01
}
bias_filler {
type: "constant"
value: 0
}
}
}
layer {
name: "accuracy"
type: "Accuracy"
bottom: "fc8"
bottom: "label"
top: "accuracy"
include {
phase: TEST
}
}
layer {
name: "loss"
type: "SoftmaxWithLoss"
bottom: "fc8"
bottom: "label"
top: "loss"
}
I0426 20:28:55.957037 13677 layer_factory.hpp:77] Creating layer val-data
I0426 20:28:55.966864 13677 db_lmdb.cpp:35] Opened lmdb /mnt/bigdisk/DIGITS-MAN-3/digits/jobs/20210421-230320-902c/val_db
I0426 20:28:55.967033 13677 net.cpp:84] Creating Layer val-data
I0426 20:28:55.967046 13677 net.cpp:380] val-data -> data
I0426 20:28:55.967058 13677 net.cpp:380] val-data -> label
I0426 20:28:55.967068 13677 data_transformer.cpp:25] Loading mean file from: /mnt/bigdisk/DIGITS-MAN-3/digits/jobs/20210421-230320-902c/mean.binaryproto
I0426 20:28:55.971848 13677 data_layer.cpp:45] output data size: 32,3,227,227
I0426 20:28:56.016654 13677 net.cpp:122] Setting up val-data
I0426 20:28:56.016680 13677 net.cpp:129] Top shape: 32 3 227 227 (4946784)
I0426 20:28:56.016685 13677 net.cpp:129] Top shape: 32 (32)
I0426 20:28:56.016690 13677 net.cpp:137] Memory required for data: 19787264
I0426 20:28:56.016696 13677 layer_factory.hpp:77] Creating layer label_val-data_1_split
I0426 20:28:56.016708 13677 net.cpp:84] Creating Layer label_val-data_1_split
I0426 20:28:56.016714 13677 net.cpp:406] label_val-data_1_split <- label
I0426 20:28:56.016722 13677 net.cpp:380] label_val-data_1_split -> label_val-data_1_split_0
I0426 20:28:56.016731 13677 net.cpp:380] label_val-data_1_split -> label_val-data_1_split_1
I0426 20:28:56.016810 13677 net.cpp:122] Setting up label_val-data_1_split
I0426 20:28:56.016817 13677 net.cpp:129] Top shape: 32 (32)
I0426 20:28:56.016821 13677 net.cpp:129] Top shape: 32 (32)
I0426 20:28:56.016824 13677 net.cpp:137] Memory required for data: 19787520
I0426 20:28:56.016829 13677 layer_factory.hpp:77] Creating layer conv1
I0426 20:28:56.016841 13677 net.cpp:84] Creating Layer conv1
I0426 20:28:56.016845 13677 net.cpp:406] conv1 <- data
I0426 20:28:56.016853 13677 net.cpp:380] conv1 -> conv1
I0426 20:28:56.018709 13677 net.cpp:122] Setting up conv1
I0426 20:28:56.018721 13677 net.cpp:129] Top shape: 32 96 55 55 (9292800)
I0426 20:28:56.018726 13677 net.cpp:137] Memory required for data: 56958720
I0426 20:28:56.018736 13677 layer_factory.hpp:77] Creating layer relu1
I0426 20:28:56.018744 13677 net.cpp:84] Creating Layer relu1
I0426 20:28:56.018749 13677 net.cpp:406] relu1 <- conv1
I0426 20:28:56.018754 13677 net.cpp:367] relu1 -> conv1 (in-place)
I0426 20:28:56.019043 13677 net.cpp:122] Setting up relu1
I0426 20:28:56.019052 13677 net.cpp:129] Top shape: 32 96 55 55 (9292800)
I0426 20:28:56.019057 13677 net.cpp:137] Memory required for data: 94129920
I0426 20:28:56.019060 13677 layer_factory.hpp:77] Creating layer norm1
I0426 20:28:56.019068 13677 net.cpp:84] Creating Layer norm1
I0426 20:28:56.019074 13677 net.cpp:406] norm1 <- conv1
I0426 20:28:56.019079 13677 net.cpp:380] norm1 -> norm1
I0426 20:28:56.024451 13677 net.cpp:122] Setting up norm1
I0426 20:28:56.024462 13677 net.cpp:129] Top shape: 32 96 55 55 (9292800)
I0426 20:28:56.024466 13677 net.cpp:137] Memory required for data: 131301120
I0426 20:28:56.024471 13677 layer_factory.hpp:77] Creating layer pool1
I0426 20:28:56.024477 13677 net.cpp:84] Creating Layer pool1
I0426 20:28:56.024482 13677 net.cpp:406] pool1 <- norm1
I0426 20:28:56.024508 13677 net.cpp:380] pool1 -> pool1
I0426 20:28:56.024541 13677 net.cpp:122] Setting up pool1
I0426 20:28:56.024547 13677 net.cpp:129] Top shape: 32 96 27 27 (2239488)
I0426 20:28:56.024550 13677 net.cpp:137] Memory required for data: 140259072
I0426 20:28:56.024554 13677 layer_factory.hpp:77] Creating layer conv2
I0426 20:28:56.024562 13677 net.cpp:84] Creating Layer conv2
I0426 20:28:56.024565 13677 net.cpp:406] conv2 <- pool1
I0426 20:28:56.024592 13677 net.cpp:380] conv2 -> conv2
I0426 20:28:56.032043 13677 net.cpp:122] Setting up conv2
I0426 20:28:56.032060 13677 net.cpp:129] Top shape: 32 256 27 27 (5971968)
I0426 20:28:56.032064 13677 net.cpp:137] Memory required for data: 164146944
I0426 20:28:56.032075 13677 layer_factory.hpp:77] Creating layer relu2
I0426 20:28:56.032084 13677 net.cpp:84] Creating Layer relu2
I0426 20:28:56.032088 13677 net.cpp:406] relu2 <- conv2
I0426 20:28:56.032095 13677 net.cpp:367] relu2 -> conv2 (in-place)
I0426 20:28:56.032608 13677 net.cpp:122] Setting up relu2
I0426 20:28:56.032618 13677 net.cpp:129] Top shape: 32 256 27 27 (5971968)
I0426 20:28:56.032622 13677 net.cpp:137] Memory required for data: 188034816
I0426 20:28:56.032629 13677 layer_factory.hpp:77] Creating layer norm2
I0426 20:28:56.032644 13677 net.cpp:84] Creating Layer norm2
I0426 20:28:56.032649 13677 net.cpp:406] norm2 <- conv2
I0426 20:28:56.032657 13677 net.cpp:380] norm2 -> norm2
I0426 20:28:56.034214 13677 net.cpp:122] Setting up norm2
I0426 20:28:56.034224 13677 net.cpp:129] Top shape: 32 256 27 27 (5971968)
I0426 20:28:56.034227 13677 net.cpp:137] Memory required for data: 211922688
I0426 20:28:56.034231 13677 layer_factory.hpp:77] Creating layer pool2
I0426 20:28:56.034238 13677 net.cpp:84] Creating Layer pool2
I0426 20:28:56.034242 13677 net.cpp:406] pool2 <- norm2
I0426 20:28:56.034248 13677 net.cpp:380] pool2 -> pool2
I0426 20:28:56.034281 13677 net.cpp:122] Setting up pool2
I0426 20:28:56.034286 13677 net.cpp:129] Top shape: 32 256 13 13 (1384448)
I0426 20:28:56.034291 13677 net.cpp:137] Memory required for data: 217460480
I0426 20:28:56.034293 13677 layer_factory.hpp:77] Creating layer conv3
I0426 20:28:56.034303 13677 net.cpp:84] Creating Layer conv3
I0426 20:28:56.034307 13677 net.cpp:406] conv3 <- pool2
I0426 20:28:56.034312 13677 net.cpp:380] conv3 -> conv3
I0426 20:28:56.045617 13677 net.cpp:122] Setting up conv3
I0426 20:28:56.045634 13677 net.cpp:129] Top shape: 32 384 13 13 (2076672)
I0426 20:28:56.045639 13677 net.cpp:137] Memory required for data: 225767168
I0426 20:28:56.045652 13677 layer_factory.hpp:77] Creating layer relu3
I0426 20:28:56.045661 13677 net.cpp:84] Creating Layer relu3
I0426 20:28:56.045665 13677 net.cpp:406] relu3 <- conv3
I0426 20:28:56.045673 13677 net.cpp:367] relu3 -> conv3 (in-place)
I0426 20:28:56.046185 13677 net.cpp:122] Setting up relu3
I0426 20:28:56.046195 13677 net.cpp:129] Top shape: 32 384 13 13 (2076672)
I0426 20:28:56.046197 13677 net.cpp:137] Memory required for data: 234073856
I0426 20:28:56.046201 13677 layer_factory.hpp:77] Creating layer conv4
I0426 20:28:56.046213 13677 net.cpp:84] Creating Layer conv4
I0426 20:28:56.046217 13677 net.cpp:406] conv4 <- conv3
I0426 20:28:56.046224 13677 net.cpp:380] conv4 -> conv4
I0426 20:28:56.057097 13677 net.cpp:122] Setting up conv4
I0426 20:28:56.057116 13677 net.cpp:129] Top shape: 32 384 13 13 (2076672)
I0426 20:28:56.057119 13677 net.cpp:137] Memory required for data: 242380544
I0426 20:28:56.057128 13677 layer_factory.hpp:77] Creating layer relu4
I0426 20:28:56.057138 13677 net.cpp:84] Creating Layer relu4
I0426 20:28:56.057142 13677 net.cpp:406] relu4 <- conv4
I0426 20:28:56.057149 13677 net.cpp:367] relu4 -> conv4 (in-place)
I0426 20:28:56.057507 13677 net.cpp:122] Setting up relu4
I0426 20:28:56.057514 13677 net.cpp:129] Top shape: 32 384 13 13 (2076672)
I0426 20:28:56.057518 13677 net.cpp:137] Memory required for data: 250687232
I0426 20:28:56.057521 13677 layer_factory.hpp:77] Creating layer conv5
I0426 20:28:56.057533 13677 net.cpp:84] Creating Layer conv5
I0426 20:28:56.057536 13677 net.cpp:406] conv5 <- conv4
I0426 20:28:56.057543 13677 net.cpp:380] conv5 -> conv5
I0426 20:28:56.080199 13677 net.cpp:122] Setting up conv5
I0426 20:28:56.080219 13677 net.cpp:129] Top shape: 32 256 11 11 (991232)
I0426 20:28:56.080222 13677 net.cpp:137] Memory required for data: 254652160
I0426 20:28:56.080235 13677 layer_factory.hpp:77] Creating layer relu5
I0426 20:28:56.080247 13677 net.cpp:84] Creating Layer relu5
I0426 20:28:56.080251 13677 net.cpp:406] relu5 <- conv5
I0426 20:28:56.080277 13677 net.cpp:367] relu5 -> conv5 (in-place)
I0426 20:28:56.080997 13677 net.cpp:122] Setting up relu5
I0426 20:28:56.081007 13677 net.cpp:129] Top shape: 32 256 11 11 (991232)
I0426 20:28:56.081010 13677 net.cpp:137] Memory required for data: 258617088
I0426 20:28:56.081014 13677 layer_factory.hpp:77] Creating layer pool5
I0426 20:28:56.081025 13677 net.cpp:84] Creating Layer pool5
I0426 20:28:56.081029 13677 net.cpp:406] pool5 <- conv5
I0426 20:28:56.081035 13677 net.cpp:380] pool5 -> pool5
I0426 20:28:56.081076 13677 net.cpp:122] Setting up pool5
I0426 20:28:56.081082 13677 net.cpp:129] Top shape: 32 256 5 5 (204800)
I0426 20:28:56.081085 13677 net.cpp:137] Memory required for data: 259436288
I0426 20:28:56.081089 13677 layer_factory.hpp:77] Creating layer fc6
I0426 20:28:56.081095 13677 net.cpp:84] Creating Layer fc6
I0426 20:28:56.081099 13677 net.cpp:406] fc6 <- pool5
I0426 20:28:56.081105 13677 net.cpp:380] fc6 -> fc6
I0426 20:28:56.334226 13677 net.cpp:122] Setting up fc6
I0426 20:28:56.334247 13677 net.cpp:129] Top shape: 32 4096 (131072)
I0426 20:28:56.334251 13677 net.cpp:137] Memory required for data: 259960576
I0426 20:28:56.334261 13677 layer_factory.hpp:77] Creating layer relu6
I0426 20:28:56.334270 13677 net.cpp:84] Creating Layer relu6
I0426 20:28:56.334275 13677 net.cpp:406] relu6 <- fc6
I0426 20:28:56.334281 13677 net.cpp:367] relu6 -> fc6 (in-place)
I0426 20:28:56.339679 13677 net.cpp:122] Setting up relu6
I0426 20:28:56.339690 13677 net.cpp:129] Top shape: 32 4096 (131072)
I0426 20:28:56.339694 13677 net.cpp:137] Memory required for data: 260484864
I0426 20:28:56.339697 13677 layer_factory.hpp:77] Creating layer drop6
I0426 20:28:56.339705 13677 net.cpp:84] Creating Layer drop6
I0426 20:28:56.339709 13677 net.cpp:406] drop6 <- fc6
I0426 20:28:56.339716 13677 net.cpp:367] drop6 -> fc6 (in-place)
I0426 20:28:56.339743 13677 net.cpp:122] Setting up drop6
I0426 20:28:56.339749 13677 net.cpp:129] Top shape: 32 4096 (131072)
I0426 20:28:56.339753 13677 net.cpp:137] Memory required for data: 261009152
I0426 20:28:56.339756 13677 layer_factory.hpp:77] Creating layer fc7
I0426 20:28:56.339764 13677 net.cpp:84] Creating Layer fc7
I0426 20:28:56.339767 13677 net.cpp:406] fc7 <- fc6
I0426 20:28:56.339776 13677 net.cpp:380] fc7 -> fc7
I0426 20:28:56.507318 13677 net.cpp:122] Setting up fc7
I0426 20:28:56.507339 13677 net.cpp:129] Top shape: 32 4096 (131072)
I0426 20:28:56.507342 13677 net.cpp:137] Memory required for data: 261533440
I0426 20:28:56.507354 13677 layer_factory.hpp:77] Creating layer relu7
I0426 20:28:56.507361 13677 net.cpp:84] Creating Layer relu7
I0426 20:28:56.507365 13677 net.cpp:406] relu7 <- fc7
I0426 20:28:56.507373 13677 net.cpp:367] relu7 -> fc7 (in-place)
I0426 20:28:56.507793 13677 net.cpp:122] Setting up relu7
I0426 20:28:56.507802 13677 net.cpp:129] Top shape: 32 4096 (131072)
I0426 20:28:56.507807 13677 net.cpp:137] Memory required for data: 262057728
I0426 20:28:56.507810 13677 layer_factory.hpp:77] Creating layer drop7
I0426 20:28:56.507817 13677 net.cpp:84] Creating Layer drop7
I0426 20:28:56.507822 13677 net.cpp:406] drop7 <- fc7
I0426 20:28:56.507827 13677 net.cpp:367] drop7 -> fc7 (in-place)
I0426 20:28:56.507851 13677 net.cpp:122] Setting up drop7
I0426 20:28:56.507858 13677 net.cpp:129] Top shape: 32 4096 (131072)
I0426 20:28:56.507860 13677 net.cpp:137] Memory required for data: 262582016
I0426 20:28:56.507864 13677 layer_factory.hpp:77] Creating layer fc8
I0426 20:28:56.507872 13677 net.cpp:84] Creating Layer fc8
I0426 20:28:56.507875 13677 net.cpp:406] fc8 <- fc7
I0426 20:28:56.507881 13677 net.cpp:380] fc8 -> fc8
I0426 20:28:56.517385 13677 net.cpp:122] Setting up fc8
I0426 20:28:56.517396 13677 net.cpp:129] Top shape: 32 196 (6272)
I0426 20:28:56.517400 13677 net.cpp:137] Memory required for data: 262607104
I0426 20:28:56.517408 13677 layer_factory.hpp:77] Creating layer fc8_fc8_0_split
I0426 20:28:56.517416 13677 net.cpp:84] Creating Layer fc8_fc8_0_split
I0426 20:28:56.517419 13677 net.cpp:406] fc8_fc8_0_split <- fc8
I0426 20:28:56.517446 13677 net.cpp:380] fc8_fc8_0_split -> fc8_fc8_0_split_0
I0426 20:28:56.517453 13677 net.cpp:380] fc8_fc8_0_split -> fc8_fc8_0_split_1
I0426 20:28:56.517489 13677 net.cpp:122] Setting up fc8_fc8_0_split
I0426 20:28:56.517494 13677 net.cpp:129] Top shape: 32 196 (6272)
I0426 20:28:56.517498 13677 net.cpp:129] Top shape: 32 196 (6272)
I0426 20:28:56.517501 13677 net.cpp:137] Memory required for data: 262657280
I0426 20:28:56.517505 13677 layer_factory.hpp:77] Creating layer accuracy
I0426 20:28:56.517511 13677 net.cpp:84] Creating Layer accuracy
I0426 20:28:56.517515 13677 net.cpp:406] accuracy <- fc8_fc8_0_split_0
I0426 20:28:56.517520 13677 net.cpp:406] accuracy <- label_val-data_1_split_0
I0426 20:28:56.517526 13677 net.cpp:380] accuracy -> accuracy
…
