…
I0410 13:29:11.456944 18414 net.cpp:294] The NetState phase (0) differed from the phase (1) specified by a rule in layer accuracy
I0410 13:29:11.457085 18414 net.cpp:51] Initializing net from parameters:
state {
phase: TRAIN
level: 0
stage: ""
}
layer {
name: "train-data"
type: "Data"
top: "data"
top: "label"
include {
phase: TRAIN
}
transform_param {
mirror: true
crop_size: 227
mean_file: "/mnt/bigdisk/DIGITS-MAN-2/digits/jobs/20210407-214532-d396/mean.binaryproto"
}
data_param {
source: "/mnt/bigdisk/DIGITS-MAN-2/digits/jobs/20210407-214532-d396/train_db"
batch_size: 128
backend: LMDB
}
}
layer {
name: "conv1"
type: "Convolution"
bottom: "data"
top: "conv1"
param {
lr_mult: 1
decay_mult: 1
}
param {
lr_mult: 2
decay_mult: 0
}
convolution_param {
num_output: 96
kernel_size: 11
stride: 4
weight_filler {
type: "gaussian"
std: 0.01
}
bias_filler {
type: "constant"
value: 0
}
}
}
layer {
name: "relu1"
type: "ReLU"
bottom: "conv1"
top: "conv1"
}
layer {
name: "norm1"
type: "LRN"
bottom: "conv1"
top: "norm1"
lrn_param {
local_size: 5
alpha: 0.0001
beta: 0.75
}
}
layer {
name: "pool1"
type: "Pooling"
bottom: "norm1"
top: "pool1"
pooling_param {
pool: MAX
kernel_size: 3
stride: 2
}
}
layer {
name: "conv2"
type: "Convolution"
bottom: "pool1"
top: "conv2"
param {
lr_mult: 1
decay_mult: 1
}
param {
lr_mult: 2
decay_mult: 0
}
convolution_param {
num_output: 256
pad: 2
kernel_size: 5
group: 2
weight_filler {
type: "gaussian"
std: 0.01
}
bias_filler {
type: "constant"
value: 0.1
}
}
}
layer {
name: "relu2"
type: "ReLU"
bottom: "conv2"
top: "conv2"
}
layer {
name: "norm2"
type: "LRN"
bottom: "conv2"
top: "norm2"
lrn_param {
local_size: 5
alpha: 0.0001
beta: 0.75
}
}
layer {
name: "pool2"
type: "Pooling"
bottom: "norm2"
top: "pool2"
pooling_param {
pool: MAX
kernel_size: 3
stride: 2
}
}
layer {
name: "conv3"
type: "Convolution"
bottom: "pool2"
top: "conv3"
param {
lr_mult: 1
decay_mult: 1
}
param {
lr_mult: 2
decay_mult: 0
}
convolution_param {
num_output: 384
pad: 1
kernel_size: 3
weight_filler {
type: "gaussian"
std: 0.01
}
bias_filler {
type: "constant"
value: 0
}
}
}
layer {
name: "relu3"
type: "ReLU"
bottom: "conv3"
top: "conv3"
}
layer {
name: "conv4"
type: "Convolution"
bottom: "conv3"
top: "conv4"
param {
lr_mult: 1
decay_mult: 1
}
param {
lr_mult: 2
decay_mult: 0
}
convolution_param {
num_output: 384
pad: 1
kernel_size: 3
group: 2
weight_filler {
type: "gaussian"
std: 0.01
}
bias_filler {
type: "constant"
value: 0.1
}
}
}
layer {
name: "relu4"
type: "ReLU"
bottom: "conv4"
top: "conv4"
}
layer {
name: "conv5"
type: "Convolution"
bottom: "conv4"
top: "conv5"
param {
lr_mult: 1
decay_mult: 1
}
param {
lr_mult: 2
decay_mult: 0
}
convolution_param {
num_output: 256
pad: 1
kernel_size: 3
group: 2
weight_filler {
type: "gaussian"
std: 0.01
}
bias_filler {
type: "constant"
value: 0.1
}
}
}
layer {
name: "relu5"
type: "ReLU"
bottom: "conv5"
top: "conv5"
}
layer {
name: "pool5"
type: "Pooling"
bottom: "conv5"
top: "pool5"
pooling_param {
pool: MAX
kernel_size: 3
stride: 2
}
}
layer {
name: "fc6"
type: "InnerProduct"
bottom: "pool5"
top: "fc6"
param {
lr_mult: 1
decay_mult: 1
}
param {
lr_mult: 2
decay_mult: 0
}
inner_product_param {
num_output: 256
weight_filler {
type: "gaussian"
std: 0.005
}
bias_filler {
type: "constant"
value: 0.1
}
}
}
layer {
name: "relu6"
type: "ReLU"
bottom: "fc6"
top: "fc6"
}
layer {
name: "drop6"
type: "Dropout"
bottom: "fc6"
top: "fc6"
dropout_param {
dropout_ratio: 0.5
}
}
layer {
name: "fc7"
type: "InnerProduct"
bottom: "fc6"
top: "fc7"
param {
lr_mult: 1
decay_mult: 1
}
param {
lr_mult: 2
decay_mult: 0
}
inner_product_param {
num_output: 256
weight_filler {
type: "gaussian"
std: 0.005
}
bias_filler {
type: "constant"
value: 0.1
}
}
}
layer {
name: "relu7"
type: "ReLU"
bottom: "fc7"
top: "fc7"
}
layer {
name: "drop7"
type: "Dropout"
bottom: "fc7"
top: "fc7"
dropout_param {
dropout_ratio: 0.5
}
}
layer {
name: "fc8"
type: "InnerProduct"
bottom: "fc7"
top: "fc8"
param {
lr_mult: 1
decay_mult: 1
}
param {
lr_mult: 2
decay_mult: 0
}
inner_product_param {
num_output: 196
weight_filler {
type: "gaussian"
std: 0.01
}
bias_filler {
type: "constant"
value: 0
}
}
}
layer {
name: "loss"
type: "SoftmaxWithLoss"
bottom: "fc8"
bottom: "label"
top: "loss"
}
I0410 13:29:11.457176 18414 layer_factory.hpp:77] Creating layer train-data
I0410 13:29:11.458528 18414 db_lmdb.cpp:35] Opened lmdb /mnt/bigdisk/DIGITS-MAN-2/digits/jobs/20210407-214532-d396/train_db
I0410 13:29:11.458734 18414 net.cpp:84] Creating Layer train-data
I0410 13:29:11.458745 18414 net.cpp:380] train-data -> data
I0410 13:29:11.458765 18414 net.cpp:380] train-data -> label
I0410 13:29:11.458776 18414 data_transformer.cpp:25] Loading mean file from: /mnt/bigdisk/DIGITS-MAN-2/digits/jobs/20210407-214532-d396/mean.binaryproto
I0410 13:29:11.463439 18414 data_layer.cpp:45] output data size: 128,3,227,227
I0410 13:29:11.602185 18414 net.cpp:122] Setting up train-data
I0410 13:29:11.602208 18414 net.cpp:129] Top shape: 128 3 227 227 (19787136)
I0410 13:29:11.602214 18414 net.cpp:129] Top shape: 128 (128)
I0410 13:29:11.602217 18414 net.cpp:137] Memory required for data: 79149056
I0410 13:29:11.602226 18414 layer_factory.hpp:77] Creating layer conv1
I0410 13:29:11.602248 18414 net.cpp:84] Creating Layer conv1
I0410 13:29:11.602254 18414 net.cpp:406] conv1 <- data
I0410 13:29:11.602267 18414 net.cpp:380] conv1 -> conv1
I0410 13:29:12.171809 18414 net.cpp:122] Setting up conv1
I0410 13:29:12.171830 18414 net.cpp:129] Top shape: 128 96 55 55 (37171200)
I0410 13:29:12.171834 18414 net.cpp:137] Memory required for data: 227833856
I0410 13:29:12.171854 18414 layer_factory.hpp:77] Creating layer relu1
I0410 13:29:12.171864 18414 net.cpp:84] Creating Layer relu1
I0410 13:29:12.171869 18414 net.cpp:406] relu1 <- conv1
I0410 13:29:12.171875 18414 net.cpp:367] relu1 -> conv1 (in-place)
I0410 13:29:12.172163 18414 net.cpp:122] Setting up relu1
I0410 13:29:12.172171 18414 net.cpp:129] Top shape: 128 96 55 55 (37171200)
I0410 13:29:12.172175 18414 net.cpp:137] Memory required for data: 376518656
I0410 13:29:12.172179 18414 layer_factory.hpp:77] Creating layer norm1
I0410 13:29:12.172188 18414 net.cpp:84] Creating Layer norm1
I0410 13:29:12.172191 18414 net.cpp:406] norm1 <- conv1
I0410 13:29:12.172216 18414 net.cpp:380] norm1 -> norm1
I0410 13:29:12.172655 18414 net.cpp:122] Setting up norm1
I0410 13:29:12.172665 18414 net.cpp:129] Top shape: 128 96 55 55 (37171200)
I0410 13:29:12.172669 18414 net.cpp:137] Memory required for data: 525203456
I0410 13:29:12.172673 18414 layer_factory.hpp:77] Creating layer pool1
I0410 13:29:12.172681 18414 net.cpp:84] Creating Layer pool1
I0410 13:29:12.172684 18414 net.cpp:406] pool1 <- norm1
I0410 13:29:12.172690 18414 net.cpp:380] pool1 -> pool1
I0410 13:29:12.172725 18414 net.cpp:122] Setting up pool1
I0410 13:29:12.172732 18414 net.cpp:129] Top shape: 128 96 27 27 (8957952)
I0410 13:29:12.172735 18414 net.cpp:137] Memory required for data: 561035264
I0410 13:29:12.172739 18414 layer_factory.hpp:77] Creating layer conv2
I0410 13:29:12.172749 18414 net.cpp:84] Creating Layer conv2
I0410 13:29:12.172752 18414 net.cpp:406] conv2 <- pool1
I0410 13:29:12.172758 18414 net.cpp:380] conv2 -> conv2
I0410 13:29:12.180650 18414 net.cpp:122] Setting up conv2
I0410 13:29:12.180666 18414 net.cpp:129] Top shape: 128 256 27 27 (23887872)
I0410 13:29:12.180670 18414 net.cpp:137] Memory required for data: 656586752
I0410 13:29:12.180680 18414 layer_factory.hpp:77] Creating layer relu2
I0410 13:29:12.180688 18414 net.cpp:84] Creating Layer relu2
I0410 13:29:12.180691 18414 net.cpp:406] relu2 <- conv2
I0410 13:29:12.180697 18414 net.cpp:367] relu2 -> conv2 (in-place)
I0410 13:29:12.181121 18414 net.cpp:122] Setting up relu2
I0410 13:29:12.181130 18414 net.cpp:129] Top shape: 128 256 27 27 (23887872)
I0410 13:29:12.181134 18414 net.cpp:137] Memory required for data: 752138240
I0410 13:29:12.181138 18414 layer_factory.hpp:77] Creating layer norm2
I0410 13:29:12.181145 18414 net.cpp:84] Creating Layer norm2
I0410 13:29:12.181149 18414 net.cpp:406] norm2 <- conv2
I0410 13:29:12.181154 18414 net.cpp:380] norm2 -> norm2
I0410 13:29:12.181437 18414 net.cpp:122] Setting up norm2
I0410 13:29:12.181445 18414 net.cpp:129] Top shape: 128 256 27 27 (23887872)
I0410 13:29:12.181448 18414 net.cpp:137] Memory required for data: 847689728
I0410 13:29:12.181452 18414 layer_factory.hpp:77] Creating layer pool2
I0410 13:29:12.181459 18414 net.cpp:84] Creating Layer pool2
I0410 13:29:12.181463 18414 net.cpp:406] pool2 <- norm2
I0410 13:29:12.181468 18414 net.cpp:380] pool2 -> pool2
I0410 13:29:12.181494 18414 net.cpp:122] Setting up pool2
I0410 13:29:12.181499 18414 net.cpp:129] Top shape: 128 256 13 13 (5537792)
I0410 13:29:12.181502 18414 net.cpp:137] Memory required for data: 869840896
I0410 13:29:12.181505 18414 layer_factory.hpp:77] Creating layer conv3
I0410 13:29:12.181514 18414 net.cpp:84] Creating Layer conv3
I0410 13:29:12.181517 18414 net.cpp:406] conv3 <- pool2
I0410 13:29:12.181522 18414 net.cpp:380] conv3 -> conv3
I0410 13:29:12.191294 18414 net.cpp:122] Setting up conv3
I0410 13:29:12.191306 18414 net.cpp:129] Top shape: 128 384 13 13 (8306688)
I0410 13:29:12.191309 18414 net.cpp:137] Memory required for data: 903067648
I0410 13:29:12.191319 18414 layer_factory.hpp:77] Creating layer relu3
I0410 13:29:12.191326 18414 net.cpp:84] Creating Layer relu3
I0410 13:29:12.191330 18414 net.cpp:406] relu3 <- conv3
I0410 13:29:12.191335 18414 net.cpp:367] relu3 -> conv3 (in-place)
I0410 13:29:12.191756 18414 net.cpp:122] Setting up relu3
I0410 13:29:12.191766 18414 net.cpp:129] Top shape: 128 384 13 13 (8306688)
I0410 13:29:12.191769 18414 net.cpp:137] Memory required for data: 936294400
I0410 13:29:12.191772 18414 layer_factory.hpp:77] Creating layer conv4
I0410 13:29:12.191782 18414 net.cpp:84] Creating Layer conv4
I0410 13:29:12.191787 18414 net.cpp:406] conv4 <- conv3
I0410 13:29:12.191792 18414 net.cpp:380] conv4 -> conv4
I0410 13:29:12.202033 18414 net.cpp:122] Setting up conv4
I0410 13:29:12.202045 18414 net.cpp:129] Top shape: 128 384 13 13 (8306688)
I0410 13:29:12.202049 18414 net.cpp:137] Memory required for data: 969521152
I0410 13:29:12.202056 18414 layer_factory.hpp:77] Creating layer relu4
I0410 13:29:12.202064 18414 net.cpp:84] Creating Layer relu4
I0410 13:29:12.202086 18414 net.cpp:406] relu4 <- conv4
I0410 13:29:12.202092 18414 net.cpp:367] relu4 -> conv4 (in-place)
I0410 13:29:12.202430 18414 net.cpp:122] Setting up relu4
I0410 13:29:12.202437 18414 net.cpp:129] Top shape: 128 384 13 13 (8306688)
I0410 13:29:12.202440 18414 net.cpp:137] Memory required for data: 1002747904
I0410 13:29:12.202445 18414 layer_factory.hpp:77] Creating layer conv5
I0410 13:29:12.202455 18414 net.cpp:84] Creating Layer conv5
I0410 13:29:12.202458 18414 net.cpp:406] conv5 <- conv4
I0410 13:29:12.202466 18414 net.cpp:380] conv5 -> conv5
I0410 13:29:12.210791 18414 net.cpp:122] Setting up conv5
I0410 13:29:12.210804 18414 net.cpp:129] Top shape: 128 256 13 13 (5537792)
I0410 13:29:12.210808 18414 net.cpp:137] Memory required for data: 1024899072
I0410 13:29:12.210819 18414 layer_factory.hpp:77] Creating layer relu5
I0410 13:29:12.210827 18414 net.cpp:84] Creating Layer relu5
I0410 13:29:12.210830 18414 net.cpp:406] relu5 <- conv5
I0410 13:29:12.210836 18414 net.cpp:367] relu5 -> conv5 (in-place)
I0410 13:29:12.211318 18414 net.cpp:122] Setting up relu5
I0410 13:29:12.211329 18414 net.cpp:129] Top shape: 128 256 13 13 (5537792)
I0410 13:29:12.211333 18414 net.cpp:137] Memory required for data: 1047050240
I0410 13:29:12.211336 18414 layer_factory.hpp:77] Creating layer pool5
I0410 13:29:12.211344 18414 net.cpp:84] Creating Layer pool5
I0410 13:29:12.211346 18414 net.cpp:406] pool5 <- conv5
I0410 13:29:12.211352 18414 net.cpp:380] pool5 -> pool5
I0410 13:29:12.211390 18414 net.cpp:122] Setting up pool5
I0410 13:29:12.211396 18414 net.cpp:129] Top shape: 128 256 6 6 (1179648)
I0410 13:29:12.211400 18414 net.cpp:137] Memory required for data: 1051768832
I0410 13:29:12.211402 18414 layer_factory.hpp:77] Creating layer fc6
I0410 13:29:12.211411 18414 net.cpp:84] Creating Layer fc6
I0410 13:29:12.211416 18414 net.cpp:406] fc6 <- pool5
I0410 13:29:12.211421 18414 net.cpp:380] fc6 -> fc6
I0410 13:29:12.233635 18414 net.cpp:122] Setting up fc6
I0410 13:29:12.233650 18414 net.cpp:129] Top shape: 128 256 (32768)
I0410 13:29:12.233654 18414 net.cpp:137] Memory required for data: 1051899904
I0410 13:29:12.233662 18414 layer_factory.hpp:77] Creating layer relu6
I0410 13:29:12.233670 18414 net.cpp:84] Creating Layer relu6
I0410 13:29:12.233675 18414 net.cpp:406] relu6 <- fc6
I0410 13:29:12.233680 18414 net.cpp:367] relu6 -> fc6 (in-place)
I0410 13:29:12.234284 18414 net.cpp:122] Setting up relu6
I0410 13:29:12.234294 18414 net.cpp:129] Top shape: 128 256 (32768)
I0410 13:29:12.234297 18414 net.cpp:137] Memory required for data: 1052030976
I0410 13:29:12.234302 18414 layer_factory.hpp:77] Creating layer drop6
I0410 13:29:12.234308 18414 net.cpp:84] Creating Layer drop6
I0410 13:29:12.234313 18414 net.cpp:406] drop6 <- fc6
I0410 13:29:12.234318 18414 net.cpp:367] drop6 -> fc6 (in-place)
I0410 13:29:12.234347 18414 net.cpp:122] Setting up drop6
I0410 13:29:12.234352 18414 net.cpp:129] Top shape: 128 256 (32768)
I0410 13:29:12.234356 18414 net.cpp:137] Memory required for data: 1052162048
I0410 13:29:12.234360 18414 layer_factory.hpp:77] Creating layer fc7
I0410 13:29:12.234369 18414 net.cpp:84] Creating Layer fc7
I0410 13:29:12.234371 18414 net.cpp:406] fc7 <- fc6
I0410 13:29:12.234377 18414 net.cpp:380] fc7 -> fc7
I0410 13:29:12.235016 18414 net.cpp:122] Setting up fc7
I0410 13:29:12.235023 18414 net.cpp:129] Top shape: 128 256 (32768)
I0410 13:29:12.235026 18414 net.cpp:137] Memory required for data: 1052293120
I0410 13:29:12.235033 18414 layer_factory.hpp:77] Creating layer relu7
I0410 13:29:12.235038 18414 net.cpp:84] Creating Layer relu7
I0410 13:29:12.235041 18414 net.cpp:406] relu7 <- fc7
I0410 13:29:12.235046 18414 net.cpp:367] relu7 -> fc7 (in-place)
I0410 13:29:12.235522 18414 net.cpp:122] Setting up relu7
I0410 13:29:12.235532 18414 net.cpp:129] Top shape: 128 256 (32768)
I0410 13:29:12.235534 18414 net.cpp:137] Memory required for data: 1052424192
I0410 13:29:12.235539 18414 layer_factory.hpp:77] Creating layer drop7
I0410 13:29:12.235545 18414 net.cpp:84] Creating Layer drop7
I0410 13:29:12.235549 18414 net.cpp:406] drop7 <- fc7
I0410 13:29:12.235571 18414 net.cpp:367] drop7 -> fc7 (in-place)
I0410 13:29:12.235597 18414 net.cpp:122] Setting up drop7
I0410 13:29:12.235602 18414 net.cpp:129] Top shape: 128 256 (32768)
I0410 13:29:12.235606 18414 net.cpp:137] Memory required for data: 1052555264
I0410 13:29:12.235610 18414 layer_factory.hpp:77] Creating layer fc8
I0410 13:29:12.235616 18414 net.cpp:84] Creating Layer fc8
I0410 13:29:12.235620 18414 net.cpp:406] fc8 <- fc7
I0410 13:29:12.235626 18414 net.cpp:380] fc8 -> fc8
I0410 13:29:12.236143 18414 net.cpp:122] Setting up fc8
I0410 13:29:12.236150 18414 net.cpp:129] Top shape: 128 196 (25088)
I0410 13:29:12.236152 18414 net.cpp:137] Memory required for data: 1052655616
I0410 13:29:12.236158 18414 layer_factory.hpp:77] Creating layer loss
I0410 13:29:12.236166 18414 net.cpp:84] Creating Layer loss
I0410 13:29:12.236168 18414 net.cpp:406] loss <- fc8
I0410 13:29:12.236172 18414 net.cpp:406] loss <- label
I0410 13:29:12.236179 18414 net.cpp:380] loss -> loss
I0410 13:29:12.236188 18414 layer_factory.hpp:77] Creating layer loss
…
I0410 13:29:12.237470 18414 net.cpp:294] The NetState phase (1) differed from the phase (0) specified by a rule in layer train-data
I0410 13:29:12.237617 18414 net.cpp:51] Initializing net from parameters:
state {
phase: TEST
}
layer {
name: "val-data"
type: "Data"
top: "data"
top: "label"
include {
phase: TEST
}
transform_param {
crop_size: 227
mean_file: "/mnt/bigdisk/DIGITS-MAN-2/digits/jobs/20210407-214532-d396/mean.binaryproto"
}
data_param {
source: "/mnt/bigdisk/DIGITS-MAN-2/digits/jobs/20210407-214532-d396/val_db"
batch_size: 32
backend: LMDB
}
}
layer {
name: "conv1"
type: "Convolution"
bottom: "data"
top: "conv1"
param {
lr_mult: 1
decay_mult: 1
}
param {
lr_mult: 2
decay_mult: 0
}
convolution_param {
num_output: 96
kernel_size: 11
stride: 4
weight_filler {
type: "gaussian"
std: 0.01
}
bias_filler {
type: "constant"
value: 0
}
}
}
layer {
name: "relu1"
type: "ReLU"
bottom: "conv1"
top: "conv1"
}
layer {
name: "norm1"
type: "LRN"
bottom: "conv1"
top: "norm1"
lrn_param {
local_size: 5
alpha: 0.0001
beta: 0.75
}
}
layer {
name: "pool1"
type: "Pooling"
bottom: "norm1"
top: "pool1"
pooling_param {
pool: MAX
kernel_size: 3
stride: 2
}
}
layer {
name: "conv2"
type: "Convolution"
bottom: "pool1"
top: "conv2"
param {
lr_mult: 1
decay_mult: 1
}
param {
lr_mult: 2
decay_mult: 0
}
convolution_param {
num_output: 256
pad: 2
kernel_size: 5
group: 2
weight_filler {
type: "gaussian"
std: 0.01
}
bias_filler {
type: "constant"
value: 0.1
}
}
}
layer {
name: "relu2"
type: "ReLU"
bottom: "conv2"
top: "conv2"
}
layer {
name: "norm2"
type: "LRN"
bottom: "conv2"
top: "norm2"
lrn_param {
local_size: 5
alpha: 0.0001
beta: 0.75
}
}
layer {
name: "pool2"
type: "Pooling"
bottom: "norm2"
top: "pool2"
pooling_param {
pool: MAX
kernel_size: 3
stride: 2
}
}
layer {
name: "conv3"
type: "Convolution"
bottom: "pool2"
top: "conv3"
param {
lr_mult: 1
decay_mult: 1
}
param {
lr_mult: 2
decay_mult: 0
}
convolution_param {
num_output: 384
pad: 1
kernel_size: 3
weight_filler {
type: "gaussian"
std: 0.01
}
bias_filler {
type: "constant"
value: 0
}
}
}
layer {
name: "relu3"
type: "ReLU"
bottom: "conv3"
top: "conv3"
}
layer {
name: "conv4"
type: "Convolution"
bottom: "conv3"
top: "conv4"
param {
lr_mult: 1
decay_mult: 1
}
param {
lr_mult: 2
decay_mult: 0
}
convolution_param {
num_output: 384
pad: 1
kernel_size: 3
group: 2
weight_filler {
type: "gaussian"
std: 0.01
}
bias_filler {
type: "constant"
value: 0.1
}
}
}
layer {
name: "relu4"
type: "ReLU"
bottom: "conv4"
top: "conv4"
}
layer {
name: "conv5"
type: "Convolution"
bottom: "conv4"
top: "conv5"
param {
lr_mult: 1
decay_mult: 1
}
param {
lr_mult: 2
decay_mult: 0
}
convolution_param {
num_output: 256
pad: 1
kernel_size: 3
group: 2
weight_filler {
type: "gaussian"
std: 0.01
}
bias_filler {
type: "constant"
value: 0.1
}
}
}
layer {
name: "relu5"
type: "ReLU"
bottom: "conv5"
top: "conv5"
}
layer {
name: "pool5"
type: "Pooling"
bottom: "conv5"
top: "pool5"
pooling_param {
pool: MAX
kernel_size: 3
stride: 2
}
}
layer {
name: "fc6"
type: "InnerProduct"
bottom: "pool5"
top: "fc6"
param {
lr_mult: 1
decay_mult: 1
}
param {
lr_mult: 2
decay_mult: 0
}
inner_product_param {
num_output: 256
weight_filler {
type: "gaussian"
std: 0.005
}
bias_filler {
type: "constant"
value: 0.1
}
}
}
layer {
name: "relu6"
type: "ReLU"
bottom: "fc6"
top: "fc6"
}
layer {
name: "drop6"
type: "Dropout"
bottom: "fc6"
top: "fc6"
dropout_param {
dropout_ratio: 0.5
}
}
layer {
name: "fc7"
type: "InnerProduct"
bottom: "fc6"
top: "fc7"
param {
lr_mult: 1
decay_mult: 1
}
param {
lr_mult: 2
decay_mult: 0
}
inner_product_param {
num_output: 256
weight_filler {
type: "gaussian"
std: 0.005
}
bias_filler {
type: "constant"
value: 0.1
}
}
}
layer {
name: "relu7"
type: "ReLU"
bottom: "fc7"
top: "fc7"
}
layer {
name: "drop7"
type: "Dropout"
bottom: "fc7"
top: "fc7"
dropout_param {
dropout_ratio: 0.5
}
}
layer {
name: "fc8"
type: "InnerProduct"
bottom: "fc7"
top: "fc8"
param {
lr_mult: 1
decay_mult: 1
}
param {
lr_mult: 2
decay_mult: 0
}
inner_product_param {
num_output: 196
weight_filler {
type: "gaussian"
std: 0.01
}
bias_filler {
type: "constant"
value: 0
}
}
}
layer {
name: "accuracy"
type: "Accuracy"
bottom: "fc8"
bottom: "label"
top: "accuracy"
include {
phase: TEST
}
}
layer {
name: "loss"
type: "SoftmaxWithLoss"
bottom: "fc8"
bottom: "label"
top: "loss"
}
I0410 13:29:12.237707 18414 layer_factory.hpp:77] Creating layer val-data
I0410 13:29:12.239034 18414 db_lmdb.cpp:35] Opened lmdb /mnt/bigdisk/DIGITS-MAN-2/digits/jobs/20210407-214532-d396/val_db
I0410 13:29:12.239235 18414 net.cpp:84] Creating Layer val-data
I0410 13:29:12.239246 18414 net.cpp:380] val-data -> data
I0410 13:29:12.239254 18414 net.cpp:380] val-data -> label
I0410 13:29:12.239262 18414 data_transformer.cpp:25] Loading mean file from: /mnt/bigdisk/DIGITS-MAN-2/digits/jobs/20210407-214532-d396/mean.binaryproto
I0410 13:29:12.243901 18414 data_layer.cpp:45] output data size: 32,3,227,227
I0410 13:29:12.276731 18414 net.cpp:122] Setting up val-data
I0410 13:29:12.276749 18414 net.cpp:129] Top shape: 32 3 227 227 (4946784)
I0410 13:29:12.276754 18414 net.cpp:129] Top shape: 32 (32)
I0410 13:29:12.276758 18414 net.cpp:137] Memory required for data: 19787264
I0410 13:29:12.276764 18414 layer_factory.hpp:77] Creating layer label_val-data_1_split
I0410 13:29:12.276777 18414 net.cpp:84] Creating Layer label_val-data_1_split
I0410 13:29:12.276782 18414 net.cpp:406] label_val-data_1_split <- label
I0410 13:29:12.276789 18414 net.cpp:380] label_val-data_1_split -> label_val-data_1_split_0
I0410 13:29:12.276798 18414 net.cpp:380] label_val-data_1_split -> label_val-data_1_split_1
I0410 13:29:12.276841 18414 net.cpp:122] Setting up label_val-data_1_split
I0410 13:29:12.276847 18414 net.cpp:129] Top shape: 32 (32)
I0410 13:29:12.276851 18414 net.cpp:129] Top shape: 32 (32)
I0410 13:29:12.276854 18414 net.cpp:137] Memory required for data: 19787520
I0410 13:29:12.276857 18414 layer_factory.hpp:77] Creating layer conv1
I0410 13:29:12.276868 18414 net.cpp:84] Creating Layer conv1
I0410 13:29:12.276872 18414 net.cpp:406] conv1 <- data
I0410 13:29:12.276878 18414 net.cpp:380] conv1 -> conv1
I0410 13:29:12.279009 18414 net.cpp:122] Setting up conv1
I0410 13:29:12.279021 18414 net.cpp:129] Top shape: 32 96 55 55 (9292800)
I0410 13:29:12.279024 18414 net.cpp:137] Memory required for data: 56958720
I0410 13:29:12.279034 18414 layer_factory.hpp:77] Creating layer relu1
I0410 13:29:12.279042 18414 net.cpp:84] Creating Layer relu1
I0410 13:29:12.279047 18414 net.cpp:406] relu1 <- conv1
I0410 13:29:12.279052 18414 net.cpp:367] relu1 -> conv1 (in-place)
I0410 13:29:12.279341 18414 net.cpp:122] Setting up relu1
I0410 13:29:12.279350 18414 net.cpp:129] Top shape: 32 96 55 55 (9292800)
I0410 13:29:12.279354 18414 net.cpp:137] Memory required for data: 94129920
I0410 13:29:12.279358 18414 layer_factory.hpp:77] Creating layer norm1
I0410 13:29:12.279366 18414 net.cpp:84] Creating Layer norm1
I0410 13:29:12.279371 18414 net.cpp:406] norm1 <- conv1
I0410 13:29:12.279376 18414 net.cpp:380] norm1 -> norm1
I0410 13:29:12.279829 18414 net.cpp:122] Setting up norm1
I0410 13:29:12.279839 18414 net.cpp:129] Top shape: 32 96 55 55 (9292800)
I0410 13:29:12.279844 18414 net.cpp:137] Memory required for data: 131301120
I0410 13:29:12.279846 18414 layer_factory.hpp:77] Creating layer pool1
I0410 13:29:12.279853 18414 net.cpp:84] Creating Layer pool1
I0410 13:29:12.279857 18414 net.cpp:406] pool1 <- norm1
I0410 13:29:12.279862 18414 net.cpp:380] pool1 -> pool1
I0410 13:29:12.279891 18414 net.cpp:122] Setting up pool1
I0410 13:29:12.279896 18414 net.cpp:129] Top shape: 32 96 27 27 (2239488)
I0410 13:29:12.279899 18414 net.cpp:137] Memory required for data: 140259072
I0410 13:29:12.279903 18414 layer_factory.hpp:77] Creating layer conv2
I0410 13:29:12.279911 18414 net.cpp:84] Creating Layer conv2
I0410 13:29:12.279914 18414 net.cpp:406] conv2 <- pool1
I0410 13:29:12.279937 18414 net.cpp:380] conv2 -> conv2
I0410 13:29:12.291481 18414 net.cpp:122] Setting up conv2
I0410 13:29:12.291496 18414 net.cpp:129] Top shape: 32 256 27 27 (5971968)
I0410 13:29:12.291499 18414 net.cpp:137] Memory required for data: 164146944
I0410 13:29:12.291509 18414 layer_factory.hpp:77] Creating layer relu2
I0410 13:29:12.291517 18414 net.cpp:84] Creating Layer relu2
I0410 13:29:12.291522 18414 net.cpp:406] relu2 <- conv2
I0410 13:29:12.291528 18414 net.cpp:367] relu2 -> conv2 (in-place)
I0410 13:29:12.292035 18414 net.cpp:122] Setting up relu2
I0410 13:29:12.292047 18414 net.cpp:129] Top shape: 32 256 27 27 (5971968)
I0410 13:29:12.292050 18414 net.cpp:137] Memory required for data: 188034816
I0410 13:29:12.292054 18414 layer_factory.hpp:77] Creating layer norm2
I0410 13:29:12.292064 18414 net.cpp:84] Creating Layer norm2
I0410 13:29:12.292068 18414 net.cpp:406] norm2 <- conv2
I0410 13:29:12.292074 18414 net.cpp:380] norm2 -> norm2
I0410 13:29:12.292591 18414 net.cpp:122] Setting up norm2
I0410 13:29:12.292601 18414 net.cpp:129] Top shape: 32 256 27 27 (5971968)
I0410 13:29:12.292606 18414 net.cpp:137] Memory required for data: 211922688
I0410 13:29:12.292610 18414 layer_factory.hpp:77] Creating layer pool2
I0410 13:29:12.292618 18414 net.cpp:84] Creating Layer pool2
I0410 13:29:12.292620 18414 net.cpp:406] pool2 <- norm2
I0410 13:29:12.292626 18414 net.cpp:380] pool2 -> pool2
I0410 13:29:12.292659 18414 net.cpp:122] Setting up pool2
I0410 13:29:12.292665 18414 net.cpp:129] Top shape: 32 256 13 13 (1384448)
I0410 13:29:12.292668 18414 net.cpp:137] Memory required for data: 217460480
I0410 13:29:12.292672 18414 layer_factory.hpp:77] Creating layer conv3
I0410 13:29:12.292681 18414 net.cpp:84] Creating Layer conv3
I0410 13:29:12.292685 18414 net.cpp:406] conv3 <- pool2
I0410 13:29:12.292692 18414 net.cpp:380] conv3 -> conv3
I0410 13:29:12.303673 18414 net.cpp:122] Setting up conv3
I0410 13:29:12.303689 18414 net.cpp:129] Top shape: 32 384 13 13 (2076672)
I0410 13:29:12.303692 18414 net.cpp:137] Memory required for data: 225767168
I0410 13:29:12.303704 18414 layer_factory.hpp:77] Creating layer relu3
I0410 13:29:12.303712 18414 net.cpp:84] Creating Layer relu3
I0410 13:29:12.303717 18414 net.cpp:406] relu3 <- conv3
I0410 13:29:12.303723 18414 net.cpp:367] relu3 -> conv3 (in-place)
I0410 13:29:12.304247 18414 net.cpp:122] Setting up relu3
I0410 13:29:12.304256 18414 net.cpp:129] Top shape: 32 384 13 13 (2076672)
I0410 13:29:12.304260 18414 net.cpp:137] Memory required for data: 234073856
I0410 13:29:12.304263 18414 layer_factory.hpp:77] Creating layer conv4
I0410 13:29:12.304275 18414 net.cpp:84] Creating Layer conv4
I0410 13:29:12.304278 18414 net.cpp:406] conv4 <- conv3
I0410 13:29:12.304286 18414 net.cpp:380] conv4 -> conv4
I0410 13:29:12.313686 18414 net.cpp:122] Setting up conv4
I0410 13:29:12.313700 18414 net.cpp:129] Top shape: 32 384 13 13 (2076672)
I0410 13:29:12.313704 18414 net.cpp:137] Memory required for data: 242380544
I0410 13:29:12.313711 18414 layer_factory.hpp:77] Creating layer relu4
I0410 13:29:12.313717 18414 net.cpp:84] Creating Layer relu4
I0410 13:29:12.313721 18414 net.cpp:406] relu4 <- conv4
I0410 13:29:12.313727 18414 net.cpp:367] relu4 -> conv4 (in-place)
I0410 13:29:12.314086 18414 net.cpp:122] Setting up relu4
I0410 13:29:12.314095 18414 net.cpp:129] Top shape: 32 384 13 13 (2076672)
I0410 13:29:12.314098 18414 net.cpp:137] Memory required for data: 250687232
I0410 13:29:12.314101 18414 layer_factory.hpp:77] Creating layer conv5
I0410 13:29:12.314112 18414 net.cpp:84] Creating Layer conv5
I0410 13:29:12.314116 18414 net.cpp:406] conv5 <- conv4
I0410 13:29:12.314122 18414 net.cpp:380] conv5 -> conv5
I0410 13:29:12.324683 18414 net.cpp:122] Setting up conv5
I0410 13:29:12.324699 18414 net.cpp:129] Top shape: 32 256 13 13 (1384448)
I0410 13:29:12.324703 18414 net.cpp:137] Memory required for data: 256225024
I0410 13:29:12.324715 18414 layer_factory.hpp:77] Creating layer relu5
I0410 13:29:12.324723 18414 net.cpp:84] Creating Layer relu5
I0410 13:29:12.324728 18414 net.cpp:406] relu5 <- conv5
I0410 13:29:12.324751 18414 net.cpp:367] relu5 -> conv5 (in-place)
I0410 13:29:12.325245 18414 net.cpp:122] Setting up relu5
I0410 13:29:12.325256 18414 net.cpp:129] Top shape: 32 256 13 13 (1384448)
I0410 13:29:12.325259 18414 net.cpp:137] Memory required for data: 261762816
I0410 13:29:12.325263 18414 layer_factory.hpp:77] Creating layer pool5
I0410 13:29:12.325273 18414 net.cpp:84] Creating Layer pool5
I0410 13:29:12.325278 18414 net.cpp:406] pool5 <- conv5
I0410 13:29:12.325284 18414 net.cpp:380] pool5 -> pool5
I0410 13:29:12.325321 18414 net.cpp:122] Setting up pool5
I0410 13:29:12.325328 18414 net.cpp:129] Top shape: 32 256 6 6 (294912)
I0410 13:29:12.325331 18414 net.cpp:137] Memory required for data: 262942464
I0410 13:29:12.325335 18414 layer_factory.hpp:77] Creating layer fc6
I0410 13:29:12.325341 18414 net.cpp:84] Creating Layer fc6
I0410 13:29:12.325345 18414 net.cpp:406] fc6 <- pool5
I0410 13:29:12.325350 18414 net.cpp:380] fc6 -> fc6
I0410 13:29:12.348320 18414 net.cpp:122] Setting up fc6
I0410 13:29:12.348340 18414 net.cpp:129] Top shape: 32 256 (8192)
I0410 13:29:12.348342 18414 net.cpp:137] Memory required for data: 262975232
I0410 13:29:12.348352 18414 layer_factory.hpp:77] Creating layer relu6
I0410 13:29:12.348361 18414 net.cpp:84] Creating Layer relu6
I0410 13:29:12.348366 18414 net.cpp:406] relu6 <- fc6
I0410 13:29:12.348371 18414 net.cpp:367] relu6 -> fc6 (in-place)
I0410 13:29:12.349212 18414 net.cpp:122] Setting up relu6
I0410 13:29:12.349221 18414 net.cpp:129] Top shape: 32 256 (8192)
I0410 13:29:12.349225 18414 net.cpp:137] Memory required for data: 263008000
I0410 13:29:12.349228 18414 layer_factory.hpp:77] Creating layer drop6
I0410 13:29:12.349234 18414 net.cpp:84] Creating Layer drop6
I0410 13:29:12.349238 18414 net.cpp:406] drop6 <- fc6
I0410 13:29:12.349246 18414 net.cpp:367] drop6 -> fc6 (in-place)
I0410 13:29:12.349272 18414 net.cpp:122] Setting up drop6
I0410 13:29:12.349277 18414 net.cpp:129] Top shape: 32 256 (8192)
I0410 13:29:12.349282 18414 net.cpp:137] Memory required for data: 263040768
I0410 13:29:12.349284 18414 layer_factory.hpp:77] Creating layer fc7
I0410 13:29:12.349292 18414 net.cpp:84] Creating Layer fc7
I0410 13:29:12.349294 18414 net.cpp:406] fc7 <- fc6
I0410 13:29:12.349300 18414 net.cpp:380] fc7 -> fc7
I0410 13:29:12.349946 18414 net.cpp:122] Setting up fc7
I0410 13:29:12.349952 18414 net.cpp:129] Top shape: 32 256 (8192)
I0410 13:29:12.349968 18414 net.cpp:137] Memory required for data: 263073536
I0410 13:29:12.349974 18414 layer_factory.hpp:77] Creating layer relu7
I0410 13:29:12.349980 18414 net.cpp:84] Creating Layer relu7
I0410 13:29:12.349983 18414 net.cpp:406] relu7 <- fc7
I0410 13:29:12.349988 18414 net.cpp:367] relu7 -> fc7 (in-place)
I0410 13:29:12.350343 18414 net.cpp:122] Setting up relu7
I0410 13:29:12.350351 18414 net.cpp:129] Top shape: 32 256 (8192)
I0410 13:29:12.350354 18414 net.cpp:137] Memory required for data: 263106304
I0410 13:29:12.350358 18414 layer_factory.hpp:77] Creating layer drop7
I0410 13:29:12.350364 18414 net.cpp:84] Creating Layer drop7
I0410 13:29:12.350368 18414 net.cpp:406] drop7 <- fc7
I0410 13:29:12.350373 18414 net.cpp:367] drop7 -> fc7 (in-place)
I0410 13:29:12.350395 18414 net.cpp:122] Setting up drop7
I0410 13:29:12.350400 18414 net.cpp:129] Top shape: 32 256 (8192)
I0410 13:29:12.350404 18414 net.cpp:137] Memory required for data: 263139072
I0410 13:29:12.350406 18414 layer_factory.hpp:77] Creating layer fc8
I0410 13:29:12.350412 18414 net.cpp:84] Creating Layer fc8
I0410 13:29:12.350416 18414 net.cpp:406] fc8 <- fc7
I0410 13:29:12.350421 18414 net.cpp:380] fc8 -> fc8
I0410 13:29:12.350946 18414 net.cpp:122] Setting up fc8
I0410 13:29:12.350953 18414 net.cpp:129] Top shape: 32 196 (6272)
I0410 13:29:12.350956 18414 net.cpp:137] Memory required for data: 263164160
I0410 13:29:12.350962 18414 layer_factory.hpp:77] Creating layer fc8_fc8_0_split
I0410 13:29:12.350967 18414 net.cpp:84] Creating Layer fc8_fc8_0_split
I0410 13:29:12.350971 18414 net.cpp:406] fc8_fc8_0_split <- fc8
I0410 13:29:12.350977 18414 net.cpp:380] fc8_fc8_0_split -> fc8_fc8_0_split_0
I0410 13:29:12.351001 18414 net.cpp:380] fc8_fc8_0_split -> fc8_fc8_0_split_1
I0410 13:29:12.351033 18414 net.cpp:122] Setting up fc8_fc8_0_split
I0410 13:29:12.351039 18414 net.cpp:129] Top shape: 32 196 (6272)
I0410 13:29:12.351042 18414 net.cpp:129] Top shape: 32 196 (6272)
I0410 13:29:12.351045 18414 net.cpp:137] Memory required for data: 263214336
I0410 13:29:12.351048 18414 layer_factory.hpp:77] Creating layer accuracy
I0410 13:29:12.351055 18414 net.cpp:84] Creating Layer accuracy
I0410 13:29:12.351058 18414 net.cpp:406] accuracy <- fc8_fc8_0_split_0
I0410 13:29:12.351063 18414 net.cpp:406] accuracy <- label_val-data_1_split_0
I0410 13:29:12.351069 18414 net.cpp:380] accuracy -> accuracy
…
