…
I0401 13:34:43.025039  8859 net.cpp:294] The NetState phase (0) differed from the phase (1) specified by a rule in layer accuracy
I0401 13:34:43.025162  8859 net.cpp:51] Initializing net from parameters:
state {
phase: TRAIN
level: 0
stage: ""
}
layer {
name: "train-data"
type: "Data"
top: "data"
top: "label"
include {
phase: TRAIN
}
transform_param {
mirror: true
crop_size: 227
mean_file: "/mnt/bigdisk/DIGITS-AIN-3/digits/jobs/20210401-115855-7678/mean.binaryproto"
}
data_param {
source: "/mnt/bigdisk/DIGITS-AIN-3/digits/jobs/20210401-115855-7678/train_db"
batch_size: 128
backend: LMDB
}
}
layer {
name: "conv1"
type: "Convolution"
bottom: "data"
top: "conv1"
param {
lr_mult: 1
decay_mult: 1
}
param {
lr_mult: 2
decay_mult: 0
}
convolution_param {
num_output: 96
kernel_size: 11
stride: 4
weight_filler {
type: "gaussian"
std: 0.01
}
bias_filler {
type: "constant"
value: 0
}
}
}
layer {
name: "relu1"
type: "ReLU"
bottom: "conv1"
top: "conv1"
}
layer {
name: "norm1"
type: "LRN"
bottom: "conv1"
top: "norm1"
lrn_param {
local_size: 5
alpha: 0.0001
beta: 0.75
}
}
layer {
name: "pool1"
type: "Pooling"
bottom: "norm1"
top: "pool1"
pooling_param {
pool: MAX
kernel_size: 3
stride: 2
}
}
layer {
name: "conv2"
type: "Convolution"
bottom: "pool1"
top: "conv2"
param {
lr_mult: 1
decay_mult: 1
}
param {
lr_mult: 2
decay_mult: 0
}
convolution_param {
num_output: 256
pad: 2
kernel_size: 5
group: 2
weight_filler {
type: "gaussian"
std: 0.01
}
bias_filler {
type: "constant"
value: 0.1
}
}
}
layer {
name: "relu2"
type: "ReLU"
bottom: "conv2"
top: "conv2"
}
layer {
name: "norm2"
type: "LRN"
bottom: "conv2"
top: "norm2"
lrn_param {
local_size: 5
alpha: 0.0001
beta: 0.75
}
}
layer {
name: "pool2"
type: "Pooling"
bottom: "norm2"
top: "pool2"
pooling_param {
pool: MAX
kernel_size: 3
stride: 2
}
}
layer {
name: "conv3"
type: "Convolution"
bottom: "pool2"
top: "conv3"
param {
lr_mult: 1
decay_mult: 1
}
param {
lr_mult: 2
decay_mult: 0
}
convolution_param {
num_output: 384
pad: 1
kernel_size: 3
weight_filler {
type: "gaussian"
std: 0.01
}
bias_filler {
type: "constant"
value: 0
}
}
}
layer {
name: "relu3"
type: "ReLU"
bottom: "conv3"
top: "conv3"
}
layer {
name: "conv4"
type: "Convolution"
bottom: "conv3"
top: "conv4"
param {
lr_mult: 1
decay_mult: 1
}
param {
lr_mult: 2
decay_mult: 0
}
convolution_param {
num_output: 384
pad: 1
kernel_size: 3
group: 2
weight_filler {
type: "gaussian"
std: 0.01
}
bias_filler {
type: "constant"
value: 0.1
}
}
}
layer {
name: "relu4"
type: "ReLU"
bottom: "conv4"
top: "conv4"
}
layer {
name: "conv5"
type: "Convolution"
bottom: "conv4"
top: "conv5"
param {
lr_mult: 1
decay_mult: 1
}
param {
lr_mult: 2
decay_mult: 0
}
convolution_param {
num_output: 256
pad: 1
kernel_size: 3
group: 2
weight_filler {
type: "gaussian"
std: 0.01
}
bias_filler {
type: "constant"
value: 0.1
}
}
}
layer {
name: "relu5"
type: "ReLU"
bottom: "conv5"
top: "conv5"
}
layer {
name: "pool5"
type: "Pooling"
bottom: "conv5"
top: "pool5"
pooling_param {
pool: MAX
kernel_size: 3
stride: 2
}
}
layer {
name: "fc6"
type: "InnerProduct"
bottom: "pool5"
top: "fc6"
param {
lr_mult: 1
decay_mult: 1
}
param {
lr_mult: 2
decay_mult: 0
}
inner_product_param {
num_output: 4096
weight_filler {
type: "gaussian"
std: 0.005
}
bias_filler {
type: "constant"
value: 0.1
}
}
}
layer {
name: "relu6"
type: "ReLU"
bottom: "fc6"
top: "fc6"
}
layer {
name: "drop6"
type: "Dropout"
bottom: "fc6"
top: "fc6"
dropout_param {
dropout_ratio: 0.5
}
}
layer {
name: "fc7"
type: "InnerProduct"
bottom: "fc6"
top: "fc7"
param {
lr_mult: 1
decay_mult: 1
}
param {
lr_mult: 2
decay_mult: 0
}
inner_product_param {
num_output: 4096
weight_filler {
type: "gaussian"
std: 0.005
}
bias_filler {
type: "constant"
value: 0.1
}
}
}
layer {
name: "relu7"
type: "ReLU"
bottom: "fc7"
top: "fc7"
}
layer {
name: "drop7"
type: "Dropout"
bottom: "fc7"
top: "fc7"
dropout_param {
dropout_ratio: 0.5
}
}
layer {
name: "fc8"
type: "InnerProduct"
bottom: "fc7"
top: "fc8"
param {
lr_mult: 1
decay_mult: 1
}
param {
lr_mult: 2
decay_mult: 0
}
inner_product_param {
num_output: 196
weight_filler {
type: "gaussian"
std: 0.01
}
bias_filler {
type: "constant"
value: 0
}
}
}
layer {
name: "loss"
type: "SoftmaxWithLoss"
bottom: "fc8"
bottom: "label"
top: "loss"
}
I0401 13:34:43.025240  8859 layer_factory.hpp:77] Creating layer train-data
I0401 13:34:43.036691  8859 db_lmdb.cpp:35] Opened lmdb /mnt/bigdisk/DIGITS-AIN-3/digits/jobs/20210401-115855-7678/train_db
I0401 13:34:43.036931  8859 net.cpp:84] Creating Layer train-data
I0401 13:34:43.036947  8859 net.cpp:380] train-data -> data
I0401 13:34:43.036970  8859 net.cpp:380] train-data -> label
I0401 13:34:43.036981  8859 data_transformer.cpp:25] Loading mean file from: /mnt/bigdisk/DIGITS-AIN-3/digits/jobs/20210401-115855-7678/mean.binaryproto
I0401 13:34:43.041013  8859 data_layer.cpp:45] output data size: 128,3,227,227
I0401 13:34:43.178112  8859 net.cpp:122] Setting up train-data
I0401 13:34:43.178133  8859 net.cpp:129] Top shape: 128 3 227 227 (19787136)
I0401 13:34:43.178138  8859 net.cpp:129] Top shape: 128 (128)
I0401 13:34:43.178141  8859 net.cpp:137] Memory required for data: 79149056
I0401 13:34:43.178151  8859 layer_factory.hpp:77] Creating layer conv1
I0401 13:34:43.178174  8859 net.cpp:84] Creating Layer conv1
I0401 13:34:43.178180  8859 net.cpp:406] conv1 <- data
I0401 13:34:43.178194  8859 net.cpp:380] conv1 -> conv1
I0401 13:34:43.641196  8859 net.cpp:122] Setting up conv1
I0401 13:34:43.641216  8859 net.cpp:129] Top shape: 128 96 55 55 (37171200)
I0401 13:34:43.641218  8859 net.cpp:137] Memory required for data: 227833856
I0401 13:34:43.641237  8859 layer_factory.hpp:77] Creating layer relu1
I0401 13:34:43.641247  8859 net.cpp:84] Creating Layer relu1
I0401 13:34:43.641249  8859 net.cpp:406] relu1 <- conv1
I0401 13:34:43.641254  8859 net.cpp:367] relu1 -> conv1 (in-place)
I0401 13:34:43.641511  8859 net.cpp:122] Setting up relu1
I0401 13:34:43.641520  8859 net.cpp:129] Top shape: 128 96 55 55 (37171200)
I0401 13:34:43.641521  8859 net.cpp:137] Memory required for data: 376518656
I0401 13:34:43.641525  8859 layer_factory.hpp:77] Creating layer norm1
I0401 13:34:43.641532  8859 net.cpp:84] Creating Layer norm1
I0401 13:34:43.641535  8859 net.cpp:406] norm1 <- conv1
I0401 13:34:43.641561  8859 net.cpp:380] norm1 -> norm1
I0401 13:34:43.643884  8859 net.cpp:122] Setting up norm1
I0401 13:34:43.643893  8859 net.cpp:129] Top shape: 128 96 55 55 (37171200)
I0401 13:34:43.643895  8859 net.cpp:137] Memory required for data: 525203456
I0401 13:34:43.643898  8859 layer_factory.hpp:77] Creating layer pool1
I0401 13:34:43.643906  8859 net.cpp:84] Creating Layer pool1
I0401 13:34:43.643908  8859 net.cpp:406] pool1 <- norm1
I0401 13:34:43.643913  8859 net.cpp:380] pool1 -> pool1
I0401 13:34:43.643945  8859 net.cpp:122] Setting up pool1
I0401 13:34:43.643950  8859 net.cpp:129] Top shape: 128 96 27 27 (8957952)
I0401 13:34:43.643952  8859 net.cpp:137] Memory required for data: 561035264
I0401 13:34:43.643954  8859 layer_factory.hpp:77] Creating layer conv2
I0401 13:34:43.643963  8859 net.cpp:84] Creating Layer conv2
I0401 13:34:43.643965  8859 net.cpp:406] conv2 <- pool1
I0401 13:34:43.643970  8859 net.cpp:380] conv2 -> conv2
I0401 13:34:43.649616  8859 net.cpp:122] Setting up conv2
I0401 13:34:43.649632  8859 net.cpp:129] Top shape: 128 256 27 27 (23887872)
I0401 13:34:43.649636  8859 net.cpp:137] Memory required for data: 656586752
I0401 13:34:43.649646  8859 layer_factory.hpp:77] Creating layer relu2
I0401 13:34:43.649652  8859 net.cpp:84] Creating Layer relu2
I0401 13:34:43.649654  8859 net.cpp:406] relu2 <- conv2
I0401 13:34:43.649659  8859 net.cpp:367] relu2 -> conv2 (in-place)
I0401 13:34:43.650050  8859 net.cpp:122] Setting up relu2
I0401 13:34:43.650058  8859 net.cpp:129] Top shape: 128 256 27 27 (23887872)
I0401 13:34:43.650060  8859 net.cpp:137] Memory required for data: 752138240
I0401 13:34:43.650063  8859 layer_factory.hpp:77] Creating layer norm2
I0401 13:34:43.650069  8859 net.cpp:84] Creating Layer norm2
I0401 13:34:43.650072  8859 net.cpp:406] norm2 <- conv2
I0401 13:34:43.650076  8859 net.cpp:380] norm2 -> norm2
I0401 13:34:43.650331  8859 net.cpp:122] Setting up norm2
I0401 13:34:43.650338  8859 net.cpp:129] Top shape: 128 256 27 27 (23887872)
I0401 13:34:43.650341  8859 net.cpp:137] Memory required for data: 847689728
I0401 13:34:43.650342  8859 layer_factory.hpp:77] Creating layer pool2
I0401 13:34:43.650349  8859 net.cpp:84] Creating Layer pool2
I0401 13:34:43.650352  8859 net.cpp:406] pool2 <- norm2
I0401 13:34:43.650355  8859 net.cpp:380] pool2 -> pool2
I0401 13:34:43.650379  8859 net.cpp:122] Setting up pool2
I0401 13:34:43.650383  8859 net.cpp:129] Top shape: 128 256 13 13 (5537792)
I0401 13:34:43.650385  8859 net.cpp:137] Memory required for data: 869840896
I0401 13:34:43.650388  8859 layer_factory.hpp:77] Creating layer conv3
I0401 13:34:43.650394  8859 net.cpp:84] Creating Layer conv3
I0401 13:34:43.650398  8859 net.cpp:406] conv3 <- pool2
I0401 13:34:43.650400  8859 net.cpp:380] conv3 -> conv3
I0401 13:34:43.660058  8859 net.cpp:122] Setting up conv3
I0401 13:34:43.660079  8859 net.cpp:129] Top shape: 128 384 13 13 (8306688)
I0401 13:34:43.660082  8859 net.cpp:137] Memory required for data: 903067648
I0401 13:34:43.660092  8859 layer_factory.hpp:77] Creating layer relu3
I0401 13:34:43.660100  8859 net.cpp:84] Creating Layer relu3
I0401 13:34:43.660104  8859 net.cpp:406] relu3 <- conv3
I0401 13:34:43.660109  8859 net.cpp:367] relu3 -> conv3 (in-place)
I0401 13:34:43.660495  8859 net.cpp:122] Setting up relu3
I0401 13:34:43.660504  8859 net.cpp:129] Top shape: 128 384 13 13 (8306688)
I0401 13:34:43.660506  8859 net.cpp:137] Memory required for data: 936294400
I0401 13:34:43.660508  8859 layer_factory.hpp:77] Creating layer conv4
I0401 13:34:43.660517  8859 net.cpp:84] Creating Layer conv4
I0401 13:34:43.660519  8859 net.cpp:406] conv4 <- conv3
I0401 13:34:43.660524  8859 net.cpp:380] conv4 -> conv4
I0401 13:34:43.669760  8859 net.cpp:122] Setting up conv4
I0401 13:34:43.669780  8859 net.cpp:129] Top shape: 128 384 13 13 (8306688)
I0401 13:34:43.669782  8859 net.cpp:137] Memory required for data: 969521152
I0401 13:34:43.669790  8859 layer_factory.hpp:77] Creating layer relu4
I0401 13:34:43.669797  8859 net.cpp:84] Creating Layer relu4
I0401 13:34:43.669818  8859 net.cpp:406] relu4 <- conv4
I0401 13:34:43.669826  8859 net.cpp:367] relu4 -> conv4 (in-place)
I0401 13:34:43.670140  8859 net.cpp:122] Setting up relu4
I0401 13:34:43.670146  8859 net.cpp:129] Top shape: 128 384 13 13 (8306688)
I0401 13:34:43.670148  8859 net.cpp:137] Memory required for data: 1002747904
I0401 13:34:43.670151  8859 layer_factory.hpp:77] Creating layer conv5
I0401 13:34:43.670161  8859 net.cpp:84] Creating Layer conv5
I0401 13:34:43.670163  8859 net.cpp:406] conv5 <- conv4
I0401 13:34:43.670169  8859 net.cpp:380] conv5 -> conv5
I0401 13:34:43.678172  8859 net.cpp:122] Setting up conv5
I0401 13:34:43.678195  8859 net.cpp:129] Top shape: 128 256 13 13 (5537792)
I0401 13:34:43.678200  8859 net.cpp:137] Memory required for data: 1024899072
I0401 13:34:43.678215  8859 layer_factory.hpp:77] Creating layer relu5
I0401 13:34:43.678225  8859 net.cpp:84] Creating Layer relu5
I0401 13:34:43.678229  8859 net.cpp:406] relu5 <- conv5
I0401 13:34:43.678238  8859 net.cpp:367] relu5 -> conv5 (in-place)
I0401 13:34:43.678871  8859 net.cpp:122] Setting up relu5
I0401 13:34:43.678882  8859 net.cpp:129] Top shape: 128 256 13 13 (5537792)
I0401 13:34:43.678886  8859 net.cpp:137] Memory required for data: 1047050240
I0401 13:34:43.678889  8859 layer_factory.hpp:77] Creating layer pool5
I0401 13:34:43.678897  8859 net.cpp:84] Creating Layer pool5
I0401 13:34:43.678905  8859 net.cpp:406] pool5 <- conv5
I0401 13:34:43.678910  8859 net.cpp:380] pool5 -> pool5
I0401 13:34:43.678954  8859 net.cpp:122] Setting up pool5
I0401 13:34:43.678961  8859 net.cpp:129] Top shape: 128 256 6 6 (1179648)
I0401 13:34:43.678964  8859 net.cpp:137] Memory required for data: 1051768832
I0401 13:34:43.678967  8859 layer_factory.hpp:77] Creating layer fc6
I0401 13:34:43.678978  8859 net.cpp:84] Creating Layer fc6
I0401 13:34:43.678982  8859 net.cpp:406] fc6 <- pool5
I0401 13:34:43.678988  8859 net.cpp:380] fc6 -> fc6
I0401 13:34:44.072808  8859 net.cpp:122] Setting up fc6
I0401 13:34:44.072827  8859 net.cpp:129] Top shape: 128 4096 (524288)
I0401 13:34:44.072830  8859 net.cpp:137] Memory required for data: 1053865984
I0401 13:34:44.072839  8859 layer_factory.hpp:77] Creating layer relu6
I0401 13:34:44.072846  8859 net.cpp:84] Creating Layer relu6
I0401 13:34:44.072849  8859 net.cpp:406] relu6 <- fc6
I0401 13:34:44.072855  8859 net.cpp:367] relu6 -> fc6 (in-place)
I0401 13:34:44.073478  8859 net.cpp:122] Setting up relu6
I0401 13:34:44.073487  8859 net.cpp:129] Top shape: 128 4096 (524288)
I0401 13:34:44.073488  8859 net.cpp:137] Memory required for data: 1055963136
I0401 13:34:44.073491  8859 layer_factory.hpp:77] Creating layer drop6
I0401 13:34:44.073498  8859 net.cpp:84] Creating Layer drop6
I0401 13:34:44.073499  8859 net.cpp:406] drop6 <- fc6
I0401 13:34:44.073504  8859 net.cpp:367] drop6 -> fc6 (in-place)
I0401 13:34:44.073529  8859 net.cpp:122] Setting up drop6
I0401 13:34:44.073534  8859 net.cpp:129] Top shape: 128 4096 (524288)
I0401 13:34:44.073536  8859 net.cpp:137] Memory required for data: 1058060288
I0401 13:34:44.073539  8859 layer_factory.hpp:77] Creating layer fc7
I0401 13:34:44.073544  8859 net.cpp:84] Creating Layer fc7
I0401 13:34:44.073546  8859 net.cpp:406] fc7 <- fc6
I0401 13:34:44.073551  8859 net.cpp:380] fc7 -> fc7
I0401 13:34:44.261099  8859 net.cpp:122] Setting up fc7
I0401 13:34:44.261121  8859 net.cpp:129] Top shape: 128 4096 (524288)
I0401 13:34:44.261123  8859 net.cpp:137] Memory required for data: 1060157440
I0401 13:34:44.261132  8859 layer_factory.hpp:77] Creating layer relu7
I0401 13:34:44.261138  8859 net.cpp:84] Creating Layer relu7
I0401 13:34:44.261142  8859 net.cpp:406] relu7 <- fc7
I0401 13:34:44.261147  8859 net.cpp:367] relu7 -> fc7 (in-place)
I0401 13:34:44.261518  8859 net.cpp:122] Setting up relu7
I0401 13:34:44.261526  8859 net.cpp:129] Top shape: 128 4096 (524288)
I0401 13:34:44.261528  8859 net.cpp:137] Memory required for data: 1062254592
I0401 13:34:44.261531  8859 layer_factory.hpp:77] Creating layer drop7
I0401 13:34:44.261535  8859 net.cpp:84] Creating Layer drop7
I0401 13:34:44.261538  8859 net.cpp:406] drop7 <- fc7
I0401 13:34:44.261564  8859 net.cpp:367] drop7 -> fc7 (in-place)
I0401 13:34:44.261585  8859 net.cpp:122] Setting up drop7
I0401 13:34:44.261590  8859 net.cpp:129] Top shape: 128 4096 (524288)
I0401 13:34:44.261591  8859 net.cpp:137] Memory required for data: 1064351744
I0401 13:34:44.261593  8859 layer_factory.hpp:77] Creating layer fc8
I0401 13:34:44.261601  8859 net.cpp:84] Creating Layer fc8
I0401 13:34:44.261603  8859 net.cpp:406] fc8 <- fc7
I0401 13:34:44.261606  8859 net.cpp:380] fc8 -> fc8
I0401 13:34:44.268805  8859 net.cpp:122] Setting up fc8
I0401 13:34:44.268824  8859 net.cpp:129] Top shape: 128 196 (25088)
I0401 13:34:44.268826  8859 net.cpp:137] Memory required for data: 1064452096
I0401 13:34:44.268834  8859 layer_factory.hpp:77] Creating layer loss
I0401 13:34:44.268841  8859 net.cpp:84] Creating Layer loss
I0401 13:34:44.268844  8859 net.cpp:406] loss <- fc8
I0401 13:34:44.268848  8859 net.cpp:406] loss <- label
I0401 13:34:44.268855  8859 net.cpp:380] loss -> loss
I0401 13:34:44.268889  8859 layer_factory.hpp:77] Creating layer loss
…
I0401 13:34:44.270228  8859 net.cpp:294] The NetState phase (1) differed from the phase (0) specified by a rule in layer train-data
I0401 13:34:44.270357  8859 net.cpp:51] Initializing net from parameters:
state {
phase: TEST
}
layer {
name: "val-data"
type: "Data"
top: "data"
top: "label"
include {
phase: TEST
}
transform_param {
crop_size: 227
mean_file: "/mnt/bigdisk/DIGITS-AIN-3/digits/jobs/20210401-115855-7678/mean.binaryproto"
}
data_param {
source: "/mnt/bigdisk/DIGITS-AIN-3/digits/jobs/20210401-115855-7678/val_db"
batch_size: 32
backend: LMDB
}
}
layer {
name: "conv1"
type: "Convolution"
bottom: "data"
top: "conv1"
param {
lr_mult: 1
decay_mult: 1
}
param {
lr_mult: 2
decay_mult: 0
}
convolution_param {
num_output: 96
kernel_size: 11
stride: 4
weight_filler {
type: "gaussian"
std: 0.01
}
bias_filler {
type: "constant"
value: 0
}
}
}
layer {
name: "relu1"
type: "ReLU"
bottom: "conv1"
top: "conv1"
}
layer {
name: "norm1"
type: "LRN"
bottom: "conv1"
top: "norm1"
lrn_param {
local_size: 5
alpha: 0.0001
beta: 0.75
}
}
layer {
name: "pool1"
type: "Pooling"
bottom: "norm1"
top: "pool1"
pooling_param {
pool: MAX
kernel_size: 3
stride: 2
}
}
layer {
name: "conv2"
type: "Convolution"
bottom: "pool1"
top: "conv2"
param {
lr_mult: 1
decay_mult: 1
}
param {
lr_mult: 2
decay_mult: 0
}
convolution_param {
num_output: 256
pad: 2
kernel_size: 5
group: 2
weight_filler {
type: "gaussian"
std: 0.01
}
bias_filler {
type: "constant"
value: 0.1
}
}
}
layer {
name: "relu2"
type: "ReLU"
bottom: "conv2"
top: "conv2"
}
layer {
name: "norm2"
type: "LRN"
bottom: "conv2"
top: "norm2"
lrn_param {
local_size: 5
alpha: 0.0001
beta: 0.75
}
}
layer {
name: "pool2"
type: "Pooling"
bottom: "norm2"
top: "pool2"
pooling_param {
pool: MAX
kernel_size: 3
stride: 2
}
}
layer {
name: "conv3"
type: "Convolution"
bottom: "pool2"
top: "conv3"
param {
lr_mult: 1
decay_mult: 1
}
param {
lr_mult: 2
decay_mult: 0
}
convolution_param {
num_output: 384
pad: 1
kernel_size: 3
weight_filler {
type: "gaussian"
std: 0.01
}
bias_filler {
type: "constant"
value: 0
}
}
}
layer {
name: "relu3"
type: "ReLU"
bottom: "conv3"
top: "conv3"
}
layer {
name: "conv4"
type: "Convolution"
bottom: "conv3"
top: "conv4"
param {
lr_mult: 1
decay_mult: 1
}
param {
lr_mult: 2
decay_mult: 0
}
convolution_param {
num_output: 384
pad: 1
kernel_size: 3
group: 2
weight_filler {
type: "gaussian"
std: 0.01
}
bias_filler {
type: "constant"
value: 0.1
}
}
}
layer {
name: "relu4"
type: "ReLU"
bottom: "conv4"
top: "conv4"
}
layer {
name: "conv5"
type: "Convolution"
bottom: "conv4"
top: "conv5"
param {
lr_mult: 1
decay_mult: 1
}
param {
lr_mult: 2
decay_mult: 0
}
convolution_param {
num_output: 256
pad: 1
kernel_size: 3
group: 2
weight_filler {
type: "gaussian"
std: 0.01
}
bias_filler {
type: "constant"
value: 0.1
}
}
}
layer {
name: "relu5"
type: "ReLU"
bottom: "conv5"
top: "conv5"
}
layer {
name: "pool5"
type: "Pooling"
bottom: "conv5"
top: "pool5"
pooling_param {
pool: MAX
kernel_size: 3
stride: 2
}
}
layer {
name: "fc6"
type: "InnerProduct"
bottom: "pool5"
top: "fc6"
param {
lr_mult: 1
decay_mult: 1
}
param {
lr_mult: 2
decay_mult: 0
}
inner_product_param {
num_output: 4096
weight_filler {
type: "gaussian"
std: 0.005
}
bias_filler {
type: "constant"
value: 0.1
}
}
}
layer {
name: "relu6"
type: "ReLU"
bottom: "fc6"
top: "fc6"
}
layer {
name: "drop6"
type: "Dropout"
bottom: "fc6"
top: "fc6"
dropout_param {
dropout_ratio: 0.5
}
}
layer {
name: "fc7"
type: "InnerProduct"
bottom: "fc6"
top: "fc7"
param {
lr_mult: 1
decay_mult: 1
}
param {
lr_mult: 2
decay_mult: 0
}
inner_product_param {
num_output: 4096
weight_filler {
type: "gaussian"
std: 0.005
}
bias_filler {
type: "constant"
value: 0.1
}
}
}
layer {
name: "relu7"
type: "ReLU"
bottom: "fc7"
top: "fc7"
}
layer {
name: "drop7"
type: "Dropout"
bottom: "fc7"
top: "fc7"
dropout_param {
dropout_ratio: 0.5
}
}
layer {
name: "fc8"
type: "InnerProduct"
bottom: "fc7"
top: "fc8"
param {
lr_mult: 1
decay_mult: 1
}
param {
lr_mult: 2
decay_mult: 0
}
inner_product_param {
num_output: 196
weight_filler {
type: "gaussian"
std: 0.01
}
bias_filler {
type: "constant"
value: 0
}
}
}
layer {
name: "accuracy"
type: "Accuracy"
bottom: "fc8"
bottom: "label"
top: "accuracy"
include {
phase: TEST
}
}
layer {
name: "loss"
type: "SoftmaxWithLoss"
bottom: "fc8"
bottom: "label"
top: "loss"
}
I0401 13:34:44.270462  8859 layer_factory.hpp:77] Creating layer val-data
I0401 13:34:44.284107  8859 db_lmdb.cpp:35] Opened lmdb /mnt/bigdisk/DIGITS-AIN-3/digits/jobs/20210401-115855-7678/val_db
I0401 13:34:44.288101  8859 net.cpp:84] Creating Layer val-data
I0401 13:34:44.288125  8859 net.cpp:380] val-data -> data
I0401 13:34:44.288137  8859 net.cpp:380] val-data -> label
I0401 13:34:44.288144  8859 data_transformer.cpp:25] Loading mean file from: /mnt/bigdisk/DIGITS-AIN-3/digits/jobs/20210401-115855-7678/mean.binaryproto
I0401 13:34:44.291903  8859 data_layer.cpp:45] output data size: 32,3,227,227
I0401 13:34:44.332834  8859 net.cpp:122] Setting up val-data
I0401 13:34:44.332876  8859 net.cpp:129] Top shape: 32 3 227 227 (4946784)
I0401 13:34:44.332890  8859 net.cpp:129] Top shape: 32 (32)
I0401 13:34:44.332893  8859 net.cpp:137] Memory required for data: 19787264
I0401 13:34:44.332901  8859 layer_factory.hpp:77] Creating layer label_val-data_1_split
I0401 13:34:44.332914  8859 net.cpp:84] Creating Layer label_val-data_1_split
I0401 13:34:44.332919  8859 net.cpp:406] label_val-data_1_split <- label
I0401 13:34:44.332928  8859 net.cpp:380] label_val-data_1_split -> label_val-data_1_split_0
I0401 13:34:44.332939  8859 net.cpp:380] label_val-data_1_split -> label_val-data_1_split_1
I0401 13:34:44.333030  8859 net.cpp:122] Setting up label_val-data_1_split
I0401 13:34:44.333039  8859 net.cpp:129] Top shape: 32 (32)
I0401 13:34:44.333043  8859 net.cpp:129] Top shape: 32 (32)
I0401 13:34:44.333045  8859 net.cpp:137] Memory required for data: 19787520
I0401 13:34:44.333050  8859 layer_factory.hpp:77] Creating layer conv1
I0401 13:34:44.333065  8859 net.cpp:84] Creating Layer conv1
I0401 13:34:44.333068  8859 net.cpp:406] conv1 <- data
I0401 13:34:44.333076  8859 net.cpp:380] conv1 -> conv1
I0401 13:34:44.347378  8859 net.cpp:122] Setting up conv1
I0401 13:34:44.347396  8859 net.cpp:129] Top shape: 32 96 55 55 (9292800)
I0401 13:34:44.347398  8859 net.cpp:137] Memory required for data: 56958720
I0401 13:34:44.347409  8859 layer_factory.hpp:77] Creating layer relu1
I0401 13:34:44.347417  8859 net.cpp:84] Creating Layer relu1
I0401 13:34:44.347420  8859 net.cpp:406] relu1 <- conv1
I0401 13:34:44.347424  8859 net.cpp:367] relu1 -> conv1 (in-place)
I0401 13:34:44.347704  8859 net.cpp:122] Setting up relu1
I0401 13:34:44.347712  8859 net.cpp:129] Top shape: 32 96 55 55 (9292800)
I0401 13:34:44.347715  8859 net.cpp:137] Memory required for data: 94129920
I0401 13:34:44.347718  8859 layer_factory.hpp:77] Creating layer norm1
I0401 13:34:44.347725  8859 net.cpp:84] Creating Layer norm1
I0401 13:34:44.347728  8859 net.cpp:406] norm1 <- conv1
I0401 13:34:44.347733  8859 net.cpp:380] norm1 -> norm1
I0401 13:34:44.348426  8859 net.cpp:122] Setting up norm1
I0401 13:34:44.348435  8859 net.cpp:129] Top shape: 32 96 55 55 (9292800)
I0401 13:34:44.348438  8859 net.cpp:137] Memory required for data: 131301120
I0401 13:34:44.348439  8859 layer_factory.hpp:77] Creating layer pool1
I0401 13:34:44.348445  8859 net.cpp:84] Creating Layer pool1
I0401 13:34:44.348448  8859 net.cpp:406] pool1 <- norm1
I0401 13:34:44.348451  8859 net.cpp:380] pool1 -> pool1
I0401 13:34:44.348476  8859 net.cpp:122] Setting up pool1
I0401 13:34:44.348480  8859 net.cpp:129] Top shape: 32 96 27 27 (2239488)
I0401 13:34:44.348482  8859 net.cpp:137] Memory required for data: 140259072
I0401 13:34:44.348484  8859 layer_factory.hpp:77] Creating layer conv2
I0401 13:34:44.348492  8859 net.cpp:84] Creating Layer conv2
I0401 13:34:44.348495  8859 net.cpp:406] conv2 <- pool1
I0401 13:34:44.348520  8859 net.cpp:380] conv2 -> conv2
I0401 13:34:44.357295  8859 net.cpp:122] Setting up conv2
I0401 13:34:44.357313  8859 net.cpp:129] Top shape: 32 256 27 27 (5971968)
I0401 13:34:44.357316  8859 net.cpp:137] Memory required for data: 164146944
I0401 13:34:44.357326  8859 layer_factory.hpp:77] Creating layer relu2
I0401 13:34:44.357334  8859 net.cpp:84] Creating Layer relu2
I0401 13:34:44.357338  8859 net.cpp:406] relu2 <- conv2
I0401 13:34:44.357343  8859 net.cpp:367] relu2 -> conv2 (in-place)
I0401 13:34:44.357812  8859 net.cpp:122] Setting up relu2
I0401 13:34:44.357821  8859 net.cpp:129] Top shape: 32 256 27 27 (5971968)
I0401 13:34:44.357825  8859 net.cpp:137] Memory required for data: 188034816
I0401 13:34:44.357826  8859 layer_factory.hpp:77] Creating layer norm2
I0401 13:34:44.357836  8859 net.cpp:84] Creating Layer norm2
I0401 13:34:44.357838  8859 net.cpp:406] norm2 <- conv2
I0401 13:34:44.357842  8859 net.cpp:380] norm2 -> norm2
I0401 13:34:44.358336  8859 net.cpp:122] Setting up norm2
I0401 13:34:44.358345  8859 net.cpp:129] Top shape: 32 256 27 27 (5971968)
I0401 13:34:44.358347  8859 net.cpp:137] Memory required for data: 211922688
I0401 13:34:44.358350  8859 layer_factory.hpp:77] Creating layer pool2
I0401 13:34:44.358357  8859 net.cpp:84] Creating Layer pool2
I0401 13:34:44.358359  8859 net.cpp:406] pool2 <- norm2
I0401 13:34:44.358363  8859 net.cpp:380] pool2 -> pool2
I0401 13:34:44.358392  8859 net.cpp:122] Setting up pool2
I0401 13:34:44.358395  8859 net.cpp:129] Top shape: 32 256 13 13 (1384448)
I0401 13:34:44.358397  8859 net.cpp:137] Memory required for data: 217460480
I0401 13:34:44.358399  8859 layer_factory.hpp:77] Creating layer conv3
I0401 13:34:44.358408  8859 net.cpp:84] Creating Layer conv3
I0401 13:34:44.358410  8859 net.cpp:406] conv3 <- pool2
I0401 13:34:44.358414  8859 net.cpp:380] conv3 -> conv3
I0401 13:34:44.368432  8859 net.cpp:122] Setting up conv3
I0401 13:34:44.368453  8859 net.cpp:129] Top shape: 32 384 13 13 (2076672)
I0401 13:34:44.368455  8859 net.cpp:137] Memory required for data: 225767168
I0401 13:34:44.368465  8859 layer_factory.hpp:77] Creating layer relu3
I0401 13:34:44.368472  8859 net.cpp:84] Creating Layer relu3
I0401 13:34:44.368475  8859 net.cpp:406] relu3 <- conv3
I0401 13:34:44.368480  8859 net.cpp:367] relu3 -> conv3 (in-place)
I0401 13:34:44.368963  8859 net.cpp:122] Setting up relu3
I0401 13:34:44.368973  8859 net.cpp:129] Top shape: 32 384 13 13 (2076672)
I0401 13:34:44.368974  8859 net.cpp:137] Memory required for data: 234073856
I0401 13:34:44.368978  8859 layer_factory.hpp:77] Creating layer conv4
I0401 13:34:44.368986  8859 net.cpp:84] Creating Layer conv4
I0401 13:34:44.368989  8859 net.cpp:406] conv4 <- conv3
I0401 13:34:44.368993  8859 net.cpp:380] conv4 -> conv4
I0401 13:34:44.378180  8859 net.cpp:122] Setting up conv4
I0401 13:34:44.378197  8859 net.cpp:129] Top shape: 32 384 13 13 (2076672)
I0401 13:34:44.378201  8859 net.cpp:137] Memory required for data: 242380544
I0401 13:34:44.378207  8859 layer_factory.hpp:77] Creating layer relu4
I0401 13:34:44.378216  8859 net.cpp:84] Creating Layer relu4
I0401 13:34:44.378218  8859 net.cpp:406] relu4 <- conv4
I0401 13:34:44.378224  8859 net.cpp:367] relu4 -> conv4 (in-place)
I0401 13:34:44.378545  8859 net.cpp:122] Setting up relu4
I0401 13:34:44.378553  8859 net.cpp:129] Top shape: 32 384 13 13 (2076672)
I0401 13:34:44.378556  8859 net.cpp:137] Memory required for data: 250687232
I0401 13:34:44.378558  8859 layer_factory.hpp:77] Creating layer conv5
I0401 13:34:44.378571  8859 net.cpp:84] Creating Layer conv5
I0401 13:34:44.378573  8859 net.cpp:406] conv5 <- conv4
I0401 13:34:44.378578  8859 net.cpp:380] conv5 -> conv5
I0401 13:34:44.389262  8859 net.cpp:122] Setting up conv5
I0401 13:34:44.389286  8859 net.cpp:129] Top shape: 32 256 13 13 (1384448)
I0401 13:34:44.389290  8859 net.cpp:137] Memory required for data: 256225024
I0401 13:34:44.389305  8859 layer_factory.hpp:77] Creating layer relu5
I0401 13:34:44.389317  8859 net.cpp:84] Creating Layer relu5
I0401 13:34:44.389322  8859 net.cpp:406] relu5 <- conv5
I0401 13:34:44.389354  8859 net.cpp:367] relu5 -> conv5 (in-place)
I0401 13:34:44.390087  8859 net.cpp:122] Setting up relu5
I0401 13:34:44.390100  8859 net.cpp:129] Top shape: 32 256 13 13 (1384448)
I0401 13:34:44.390102  8859 net.cpp:137] Memory required for data: 261762816
I0401 13:34:44.390106  8859 layer_factory.hpp:77] Creating layer pool5
I0401 13:34:44.390118  8859 net.cpp:84] Creating Layer pool5
I0401 13:34:44.390122  8859 net.cpp:406] pool5 <- conv5
I0401 13:34:44.390130  8859 net.cpp:380] pool5 -> pool5
I0401 13:34:44.390177  8859 net.cpp:122] Setting up pool5
I0401 13:34:44.390185  8859 net.cpp:129] Top shape: 32 256 6 6 (294912)
I0401 13:34:44.390188  8859 net.cpp:137] Memory required for data: 262942464
I0401 13:34:44.390192  8859 layer_factory.hpp:77] Creating layer fc6
I0401 13:34:44.390202  8859 net.cpp:84] Creating Layer fc6
I0401 13:34:44.390204  8859 net.cpp:406] fc6 <- pool5
I0401 13:34:44.390210  8859 net.cpp:380] fc6 -> fc6
I0401 13:34:44.781503  8859 net.cpp:122] Setting up fc6
I0401 13:34:44.781527  8859 net.cpp:129] Top shape: 32 4096 (131072)
I0401 13:34:44.781528  8859 net.cpp:137] Memory required for data: 263466752
I0401 13:34:44.781538  8859 layer_factory.hpp:77] Creating layer relu6
I0401 13:34:44.781545  8859 net.cpp:84] Creating Layer relu6
I0401 13:34:44.781548  8859 net.cpp:406] relu6 <- fc6
I0401 13:34:44.781553  8859 net.cpp:367] relu6 -> fc6 (in-place)
I0401 13:34:44.782204  8859 net.cpp:122] Setting up relu6
I0401 13:34:44.782213  8859 net.cpp:129] Top shape: 32 4096 (131072)
I0401 13:34:44.782215  8859 net.cpp:137] Memory required for data: 263991040
I0401 13:34:44.782218  8859 layer_factory.hpp:77] Creating layer drop6
I0401 13:34:44.782225  8859 net.cpp:84] Creating Layer drop6
I0401 13:34:44.782228  8859 net.cpp:406] drop6 <- fc6
I0401 13:34:44.782231  8859 net.cpp:367] drop6 -> fc6 (in-place)
I0401 13:34:44.782254  8859 net.cpp:122] Setting up drop6
I0401 13:34:44.782258  8859 net.cpp:129] Top shape: 32 4096 (131072)
I0401 13:34:44.782260  8859 net.cpp:137] Memory required for data: 264515328
I0401 13:34:44.782263  8859 layer_factory.hpp:77] Creating layer fc7
I0401 13:34:44.782267  8859 net.cpp:84] Creating Layer fc7
I0401 13:34:44.782269  8859 net.cpp:406] fc7 <- fc6
I0401 13:34:44.782274  8859 net.cpp:380] fc7 -> fc7
I0401 13:34:44.938977  8859 net.cpp:122] Setting up fc7
I0401 13:34:44.939008  8859 net.cpp:129] Top shape: 32 4096 (131072)
I0401 13:34:44.939013  8859 net.cpp:137] Memory required for data: 265039616
I0401 13:34:44.939024  8859 layer_factory.hpp:77] Creating layer relu7
I0401 13:34:44.939036  8859 net.cpp:84] Creating Layer relu7
I0401 13:34:44.939043  8859 net.cpp:406] relu7 <- fc7
I0401 13:34:44.939052  8859 net.cpp:367] relu7 -> fc7 (in-place)
I0401 13:34:44.939621  8859 net.cpp:122] Setting up relu7
I0401 13:34:44.939635  8859 net.cpp:129] Top shape: 32 4096 (131072)
I0401 13:34:44.939640  8859 net.cpp:137] Memory required for data: 265563904
I0401 13:34:44.939644  8859 layer_factory.hpp:77] Creating layer drop7
I0401 13:34:44.939652  8859 net.cpp:84] Creating Layer drop7
I0401 13:34:44.939656  8859 net.cpp:406] drop7 <- fc7
I0401 13:34:44.939663  8859 net.cpp:367] drop7 -> fc7 (in-place)
I0401 13:34:44.939698  8859 net.cpp:122] Setting up drop7
I0401 13:34:44.939705  8859 net.cpp:129] Top shape: 32 4096 (131072)
I0401 13:34:44.939708  8859 net.cpp:137] Memory required for data: 266088192
I0401 13:34:44.939713  8859 layer_factory.hpp:77] Creating layer fc8
I0401 13:34:44.939723  8859 net.cpp:84] Creating Layer fc8
I0401 13:34:44.939728  8859 net.cpp:406] fc8 <- fc7
I0401 13:34:44.939733  8859 net.cpp:380] fc8 -> fc8
I0401 13:34:44.951412  8859 net.cpp:122] Setting up fc8
I0401 13:34:44.951442  8859 net.cpp:129] Top shape: 32 196 (6272)
I0401 13:34:44.951445  8859 net.cpp:137] Memory required for data: 266113280
I0401 13:34:44.951457  8859 layer_factory.hpp:77] Creating layer fc8_fc8_0_split
I0401 13:34:44.951468  8859 net.cpp:84] Creating Layer fc8_fc8_0_split
I0401 13:34:44.951473  8859 net.cpp:406] fc8_fc8_0_split <- fc8
I0401 13:34:44.951516  8859 net.cpp:380] fc8_fc8_0_split -> fc8_fc8_0_split_0
I0401 13:34:44.951529  8859 net.cpp:380] fc8_fc8_0_split -> fc8_fc8_0_split_1
I0401 13:34:44.951576  8859 net.cpp:122] Setting up fc8_fc8_0_split
I0401 13:34:44.951586  8859 net.cpp:129] Top shape: 32 196 (6272)
I0401 13:34:44.951589  8859 net.cpp:129] Top shape: 32 196 (6272)
I0401 13:34:44.951592  8859 net.cpp:137] Memory required for data: 266163456
I0401 13:34:44.951596  8859 layer_factory.hpp:77] Creating layer accuracy
I0401 13:34:44.951603  8859 net.cpp:84] Creating Layer accuracy
I0401 13:34:44.951607  8859 net.cpp:406] accuracy <- fc8_fc8_0_split_0
I0401 13:34:44.951612  8859 net.cpp:406] accuracy <- label_val-data_1_split_0
I0401 13:34:44.951620  8859 net.cpp:380] accuracy -> accuracy
…
