…
I0409 19:57:55.024951 15108 net.cpp:294] The NetState phase (0) differed from the phase (1) specified by a rule in layer accuracy
I0409 19:57:55.025104 15108 net.cpp:51] Initializing net from parameters:
state {
phase: TRAIN
level: 0
stage: ""
}
layer {
name: "train-data"
type: "Data"
top: "data"
top: "label"
include {
phase: TRAIN
}
transform_param {
mirror: true
crop_size: 227
mean_file: "/mnt/bigdisk/DIGITS-MAN-2/digits/jobs/20210407-214532-d396/mean.binaryproto"
}
data_param {
source: "/mnt/bigdisk/DIGITS-MAN-2/digits/jobs/20210407-214532-d396/train_db"
batch_size: 128
backend: LMDB
}
}
layer {
name: "conv1"
type: "Convolution"
bottom: "data"
top: "conv1"
param {
lr_mult: 1
decay_mult: 1
}
param {
lr_mult: 2
decay_mult: 0
}
convolution_param {
num_output: 96
kernel_size: 11
stride: 4
weight_filler {
type: "gaussian"
std: 0.01
}
bias_filler {
type: "constant"
value: 0
}
}
}
layer {
name: "relu1"
type: "ReLU"
bottom: "conv1"
top: "conv1"
}
layer {
name: "norm1"
type: "LRN"
bottom: "conv1"
top: "norm1"
lrn_param {
local_size: 5
alpha: 0.0001
beta: 0.75
}
}
layer {
name: "pool1"
type: "Pooling"
bottom: "norm1"
top: "pool1"
pooling_param {
pool: MAX
kernel_size: 3
stride: 2
}
}
layer {
name: "conv2"
type: "Convolution"
bottom: "pool1"
top: "conv2"
param {
lr_mult: 1
decay_mult: 1
}
param {
lr_mult: 2
decay_mult: 0
}
convolution_param {
num_output: 256
pad: 2
kernel_size: 5
group: 2
weight_filler {
type: "gaussian"
std: 0.01
}
bias_filler {
type: "constant"
value: 0.1
}
}
}
layer {
name: "relu2"
type: "ReLU"
bottom: "conv2"
top: "conv2"
}
layer {
name: "norm2"
type: "LRN"
bottom: "conv2"
top: "norm2"
lrn_param {
local_size: 5
alpha: 0.0001
beta: 0.75
}
}
layer {
name: "pool2"
type: "Pooling"
bottom: "norm2"
top: "pool2"
pooling_param {
pool: MAX
kernel_size: 3
stride: 2
}
}
layer {
name: "conv3"
type: "Convolution"
bottom: "pool2"
top: "conv3"
param {
lr_mult: 1
decay_mult: 1
}
param {
lr_mult: 2
decay_mult: 0
}
convolution_param {
num_output: 384
pad: 1
kernel_size: 3
weight_filler {
type: "gaussian"
std: 0.01
}
bias_filler {
type: "constant"
value: 0
}
}
}
layer {
name: "relu3"
type: "ReLU"
bottom: "conv3"
top: "conv3"
}
layer {
name: "conv4"
type: "Convolution"
bottom: "conv3"
top: "conv4"
param {
lr_mult: 1
decay_mult: 1
}
param {
lr_mult: 2
decay_mult: 0
}
convolution_param {
num_output: 384
pad: 1
kernel_size: 3
group: 2
weight_filler {
type: "gaussian"
std: 0.01
}
bias_filler {
type: "constant"
value: 0.1
}
}
}
layer {
name: "relu4"
type: "ReLU"
bottom: "conv4"
top: "conv4"
}
layer {
name: "conv5"
type: "Convolution"
bottom: "conv4"
top: "conv5"
param {
lr_mult: 1
decay_mult: 1
}
param {
lr_mult: 2
decay_mult: 0
}
convolution_param {
num_output: 256
pad: 1
kernel_size: 3
group: 2
weight_filler {
type: "gaussian"
std: 0.01
}
bias_filler {
type: "constant"
value: 0.1
}
}
}
layer {
name: "relu5"
type: "ReLU"
bottom: "conv5"
top: "conv5"
}
layer {
name: "pool5"
type: "Pooling"
bottom: "conv5"
top: "pool5"
pooling_param {
pool: MAX
kernel_size: 3
stride: 2
}
}
layer {
name: "fc6"
type: "InnerProduct"
bottom: "pool5"
top: "fc6"
param {
lr_mult: 1
decay_mult: 1
}
param {
lr_mult: 2
decay_mult: 0
}
inner_product_param {
num_output: 1024
weight_filler {
type: "gaussian"
std: 0.005
}
bias_filler {
type: "constant"
value: 0.1
}
}
}
layer {
name: "relu6"
type: "ReLU"
bottom: "fc6"
top: "fc6"
}
layer {
name: "drop6"
type: "Dropout"
bottom: "fc6"
top: "fc6"
dropout_param {
dropout_ratio: 0.5
}
}
layer {
name: "fc7"
type: "InnerProduct"
bottom: "fc6"
top: "fc7"
param {
lr_mult: 1
decay_mult: 1
}
param {
lr_mult: 2
decay_mult: 0
}
inner_product_param {
num_output: 1024
weight_filler {
type: "gaussian"
std: 0.005
}
bias_filler {
type: "constant"
value: 0.1
}
}
}
layer {
name: "relu7"
type: "ReLU"
bottom: "fc7"
top: "fc7"
}
layer {
name: "drop7"
type: "Dropout"
bottom: "fc7"
top: "fc7"
dropout_param {
dropout_ratio: 0.5
}
}
layer {
name: "fc7.5"
type: "InnerProduct"
bottom: "fc7"
top: "fc7.5"
param {
lr_mult: 1
decay_mult: 1
}
param {
lr_mult: 2
decay_mult: 0
}
inner_product_param {
num_output: 1024
weight_filler {
type: "gaussian"
std: 0.005
}
bias_filler {
type: "constant"
value: 0.1
}
}
}
layer {
name: "relu7.5"
type: "ReLU"
bottom: "fc7.5"
top: "fc7.5"
}
layer {
name: "drop7.5"
type: "Dropout"
bottom: "fc7.5"
top: "fc7.5"
dropout_param {
dropout_ratio: 0.5
}
}
layer {
name: "fc8"
type: "InnerProduct"
bottom: "fc7.5"
top: "fc8"
param {
lr_mult: 1
decay_mult: 1
}
param {
lr_mult: 2
decay_mult: 0
}
inner_product_param {
num_output: 196
weight_filler {
type: "gaussian"
std: 0.01
}
bias_filler {
type: "constant"
value: 0
}
}
}
layer {
name: "loss"
type: "SoftmaxWithLoss"
bottom: "fc8"
bottom: "label"
top: "loss"
}
I0409 19:57:55.025202 15108 layer_factory.hpp:77] Creating layer train-data
I0409 19:57:55.027349 15108 db_lmdb.cpp:35] Opened lmdb /mnt/bigdisk/DIGITS-MAN-2/digits/jobs/20210407-214532-d396/train_db
I0409 19:57:55.027554 15108 net.cpp:84] Creating Layer train-data
I0409 19:57:55.027565 15108 net.cpp:380] train-data -> data
I0409 19:57:55.027585 15108 net.cpp:380] train-data -> label
I0409 19:57:55.027596 15108 data_transformer.cpp:25] Loading mean file from: /mnt/bigdisk/DIGITS-MAN-2/digits/jobs/20210407-214532-d396/mean.binaryproto
I0409 19:57:55.032243 15108 data_layer.cpp:45] output data size: 128,3,227,227
I0409 19:57:55.155830 15108 net.cpp:122] Setting up train-data
I0409 19:57:55.155856 15108 net.cpp:129] Top shape: 128 3 227 227 (19787136)
I0409 19:57:55.155861 15108 net.cpp:129] Top shape: 128 (128)
I0409 19:57:55.155865 15108 net.cpp:137] Memory required for data: 79149056
I0409 19:57:55.155874 15108 layer_factory.hpp:77] Creating layer conv1
I0409 19:57:55.155896 15108 net.cpp:84] Creating Layer conv1
I0409 19:57:55.155902 15108 net.cpp:406] conv1 <- data
I0409 19:57:55.155915 15108 net.cpp:380] conv1 -> conv1
I0409 19:57:55.696290 15108 net.cpp:122] Setting up conv1
I0409 19:57:55.696314 15108 net.cpp:129] Top shape: 128 96 55 55 (37171200)
I0409 19:57:55.696318 15108 net.cpp:137] Memory required for data: 227833856
I0409 19:57:55.696338 15108 layer_factory.hpp:77] Creating layer relu1
I0409 19:57:55.696368 15108 net.cpp:84] Creating Layer relu1
I0409 19:57:55.696373 15108 net.cpp:406] relu1 <- conv1
I0409 19:57:55.696379 15108 net.cpp:367] relu1 -> conv1 (in-place)
I0409 19:57:55.696671 15108 net.cpp:122] Setting up relu1
I0409 19:57:55.696681 15108 net.cpp:129] Top shape: 128 96 55 55 (37171200)
I0409 19:57:55.696684 15108 net.cpp:137] Memory required for data: 376518656
I0409 19:57:55.696688 15108 layer_factory.hpp:77] Creating layer norm1
I0409 19:57:55.696697 15108 net.cpp:84] Creating Layer norm1
I0409 19:57:55.696700 15108 net.cpp:406] norm1 <- conv1
I0409 19:57:55.696707 15108 net.cpp:380] norm1 -> norm1
I0409 19:57:55.697149 15108 net.cpp:122] Setting up norm1
I0409 19:57:55.697160 15108 net.cpp:129] Top shape: 128 96 55 55 (37171200)
I0409 19:57:55.697163 15108 net.cpp:137] Memory required for data: 525203456
I0409 19:57:55.697167 15108 layer_factory.hpp:77] Creating layer pool1
I0409 19:57:55.697175 15108 net.cpp:84] Creating Layer pool1
I0409 19:57:55.697180 15108 net.cpp:406] pool1 <- norm1
I0409 19:57:55.697185 15108 net.cpp:380] pool1 -> pool1
I0409 19:57:55.697221 15108 net.cpp:122] Setting up pool1
I0409 19:57:55.697227 15108 net.cpp:129] Top shape: 128 96 27 27 (8957952)
I0409 19:57:55.697229 15108 net.cpp:137] Memory required for data: 561035264
I0409 19:57:55.697233 15108 layer_factory.hpp:77] Creating layer conv2
I0409 19:57:55.697243 15108 net.cpp:84] Creating Layer conv2
I0409 19:57:55.697247 15108 net.cpp:406] conv2 <- pool1
I0409 19:57:55.697252 15108 net.cpp:380] conv2 -> conv2
I0409 19:57:55.703755 15108 net.cpp:122] Setting up conv2
I0409 19:57:55.703771 15108 net.cpp:129] Top shape: 128 256 27 27 (23887872)
I0409 19:57:55.703774 15108 net.cpp:137] Memory required for data: 656586752
I0409 19:57:55.703785 15108 layer_factory.hpp:77] Creating layer relu2
I0409 19:57:55.703794 15108 net.cpp:84] Creating Layer relu2
I0409 19:57:55.703797 15108 net.cpp:406] relu2 <- conv2
I0409 19:57:55.703804 15108 net.cpp:367] relu2 -> conv2 (in-place)
I0409 19:57:55.704232 15108 net.cpp:122] Setting up relu2
I0409 19:57:55.704241 15108 net.cpp:129] Top shape: 128 256 27 27 (23887872)
I0409 19:57:55.704246 15108 net.cpp:137] Memory required for data: 752138240
I0409 19:57:55.704249 15108 layer_factory.hpp:77] Creating layer norm2
I0409 19:57:55.704257 15108 net.cpp:84] Creating Layer norm2
I0409 19:57:55.704260 15108 net.cpp:406] norm2 <- conv2
I0409 19:57:55.704267 15108 net.cpp:380] norm2 -> norm2
I0409 19:57:55.704555 15108 net.cpp:122] Setting up norm2
I0409 19:57:55.704563 15108 net.cpp:129] Top shape: 128 256 27 27 (23887872)
I0409 19:57:55.704566 15108 net.cpp:137] Memory required for data: 847689728
I0409 19:57:55.704571 15108 layer_factory.hpp:77] Creating layer pool2
I0409 19:57:55.704577 15108 net.cpp:84] Creating Layer pool2
I0409 19:57:55.704581 15108 net.cpp:406] pool2 <- norm2
I0409 19:57:55.704586 15108 net.cpp:380] pool2 -> pool2
I0409 19:57:55.704613 15108 net.cpp:122] Setting up pool2
I0409 19:57:55.704618 15108 net.cpp:129] Top shape: 128 256 13 13 (5537792)
I0409 19:57:55.704622 15108 net.cpp:137] Memory required for data: 869840896
I0409 19:57:55.704624 15108 layer_factory.hpp:77] Creating layer conv3
I0409 19:57:55.704634 15108 net.cpp:84] Creating Layer conv3
I0409 19:57:55.704638 15108 net.cpp:406] conv3 <- pool2
I0409 19:57:55.704643 15108 net.cpp:380] conv3 -> conv3
I0409 19:57:55.714392 15108 net.cpp:122] Setting up conv3
I0409 19:57:55.714406 15108 net.cpp:129] Top shape: 128 384 13 13 (8306688)
I0409 19:57:55.714411 15108 net.cpp:137] Memory required for data: 903067648
I0409 19:57:55.714419 15108 layer_factory.hpp:77] Creating layer relu3
I0409 19:57:55.714426 15108 net.cpp:84] Creating Layer relu3
I0409 19:57:55.714430 15108 net.cpp:406] relu3 <- conv3
I0409 19:57:55.714435 15108 net.cpp:367] relu3 -> conv3 (in-place)
I0409 19:57:55.714888 15108 net.cpp:122] Setting up relu3
I0409 19:57:55.714897 15108 net.cpp:129] Top shape: 128 384 13 13 (8306688)
I0409 19:57:55.714900 15108 net.cpp:137] Memory required for data: 936294400
I0409 19:57:55.714905 15108 layer_factory.hpp:77] Creating layer conv4
I0409 19:57:55.714932 15108 net.cpp:84] Creating Layer conv4
I0409 19:57:55.714936 15108 net.cpp:406] conv4 <- conv3
I0409 19:57:55.714943 15108 net.cpp:380] conv4 -> conv4
I0409 19:57:55.725224 15108 net.cpp:122] Setting up conv4
I0409 19:57:55.725239 15108 net.cpp:129] Top shape: 128 384 13 13 (8306688)
I0409 19:57:55.725242 15108 net.cpp:137] Memory required for data: 969521152
I0409 19:57:55.725251 15108 layer_factory.hpp:77] Creating layer relu4
I0409 19:57:55.725260 15108 net.cpp:84] Creating Layer relu4
I0409 19:57:55.725265 15108 net.cpp:406] relu4 <- conv4
I0409 19:57:55.725270 15108 net.cpp:367] relu4 -> conv4 (in-place)
I0409 19:57:55.725603 15108 net.cpp:122] Setting up relu4
I0409 19:57:55.725611 15108 net.cpp:129] Top shape: 128 384 13 13 (8306688)
I0409 19:57:55.725615 15108 net.cpp:137] Memory required for data: 1002747904
I0409 19:57:55.725617 15108 layer_factory.hpp:77] Creating layer conv5
I0409 19:57:55.725628 15108 net.cpp:84] Creating Layer conv5
I0409 19:57:55.725631 15108 net.cpp:406] conv5 <- conv4
I0409 19:57:55.725641 15108 net.cpp:380] conv5 -> conv5
I0409 19:57:55.733907 15108 net.cpp:122] Setting up conv5
I0409 19:57:55.733922 15108 net.cpp:129] Top shape: 128 256 13 13 (5537792)
I0409 19:57:55.733925 15108 net.cpp:137] Memory required for data: 1024899072
I0409 19:57:55.733938 15108 layer_factory.hpp:77] Creating layer relu5
I0409 19:57:55.733945 15108 net.cpp:84] Creating Layer relu5
I0409 19:57:55.733949 15108 net.cpp:406] relu5 <- conv5
I0409 19:57:55.733964 15108 net.cpp:367] relu5 -> conv5 (in-place)
I0409 19:57:55.734445 15108 net.cpp:122] Setting up relu5
I0409 19:57:55.734454 15108 net.cpp:129] Top shape: 128 256 13 13 (5537792)
I0409 19:57:55.734458 15108 net.cpp:137] Memory required for data: 1047050240
I0409 19:57:55.734462 15108 layer_factory.hpp:77] Creating layer pool5
I0409 19:57:55.734469 15108 net.cpp:84] Creating Layer pool5
I0409 19:57:55.734472 15108 net.cpp:406] pool5 <- conv5
I0409 19:57:55.734479 15108 net.cpp:380] pool5 -> pool5
I0409 19:57:55.734515 15108 net.cpp:122] Setting up pool5
I0409 19:57:55.734521 15108 net.cpp:129] Top shape: 128 256 6 6 (1179648)
I0409 19:57:55.734524 15108 net.cpp:137] Memory required for data: 1051768832
I0409 19:57:55.734527 15108 layer_factory.hpp:77] Creating layer fc6
I0409 19:57:55.734539 15108 net.cpp:84] Creating Layer fc6
I0409 19:57:55.734541 15108 net.cpp:406] fc6 <- pool5
I0409 19:57:55.734547 15108 net.cpp:380] fc6 -> fc6
I0409 19:57:55.822893 15108 net.cpp:122] Setting up fc6
I0409 19:57:55.822916 15108 net.cpp:129] Top shape: 128 1024 (131072)
I0409 19:57:55.822921 15108 net.cpp:137] Memory required for data: 1052293120
I0409 19:57:55.822930 15108 layer_factory.hpp:77] Creating layer relu6
I0409 19:57:55.822940 15108 net.cpp:84] Creating Layer relu6
I0409 19:57:55.822947 15108 net.cpp:406] relu6 <- fc6
I0409 19:57:55.822955 15108 net.cpp:367] relu6 -> fc6 (in-place)
I0409 19:57:55.823562 15108 net.cpp:122] Setting up relu6
I0409 19:57:55.823572 15108 net.cpp:129] Top shape: 128 1024 (131072)
I0409 19:57:55.823576 15108 net.cpp:137] Memory required for data: 1052817408
I0409 19:57:55.823581 15108 layer_factory.hpp:77] Creating layer drop6
I0409 19:57:55.823588 15108 net.cpp:84] Creating Layer drop6
I0409 19:57:55.823592 15108 net.cpp:406] drop6 <- fc6
I0409 19:57:55.823598 15108 net.cpp:367] drop6 -> fc6 (in-place)
I0409 19:57:55.823626 15108 net.cpp:122] Setting up drop6
I0409 19:57:55.823632 15108 net.cpp:129] Top shape: 128 1024 (131072)
I0409 19:57:55.823637 15108 net.cpp:137] Memory required for data: 1053341696
I0409 19:57:55.823642 15108 layer_factory.hpp:77] Creating layer fc7
I0409 19:57:55.823649 15108 net.cpp:84] Creating Layer fc7
I0409 19:57:55.823654 15108 net.cpp:406] fc7 <- fc6
I0409 19:57:55.823660 15108 net.cpp:380] fc7 -> fc7
I0409 19:57:55.833600 15108 net.cpp:122] Setting up fc7
I0409 19:57:55.833611 15108 net.cpp:129] Top shape: 128 1024 (131072)
I0409 19:57:55.833616 15108 net.cpp:137] Memory required for data: 1053865984
I0409 19:57:55.833623 15108 layer_factory.hpp:77] Creating layer relu7
I0409 19:57:55.833648 15108 net.cpp:84] Creating Layer relu7
I0409 19:57:55.833653 15108 net.cpp:406] relu7 <- fc7
I0409 19:57:55.833659 15108 net.cpp:367] relu7 -> fc7 (in-place)
I0409 19:57:55.834664 15108 net.cpp:122] Setting up relu7
I0409 19:57:55.834674 15108 net.cpp:129] Top shape: 128 1024 (131072)
I0409 19:57:55.834678 15108 net.cpp:137] Memory required for data: 1054390272
I0409 19:57:55.834683 15108 layer_factory.hpp:77] Creating layer drop7
I0409 19:57:55.834689 15108 net.cpp:84] Creating Layer drop7
I0409 19:57:55.834694 15108 net.cpp:406] drop7 <- fc7
I0409 19:57:55.834700 15108 net.cpp:367] drop7 -> fc7 (in-place)
I0409 19:57:55.834726 15108 net.cpp:122] Setting up drop7
I0409 19:57:55.834731 15108 net.cpp:129] Top shape: 128 1024 (131072)
I0409 19:57:55.834735 15108 net.cpp:137] Memory required for data: 1054914560
I0409 19:57:55.834739 15108 layer_factory.hpp:77] Creating layer fc7.5
I0409 19:57:55.834746 15108 net.cpp:84] Creating Layer fc7.5
I0409 19:57:55.834750 15108 net.cpp:406] fc7.5 <- fc7
I0409 19:57:55.834758 15108 net.cpp:380] fc7.5 -> fc7.5
I0409 19:57:55.844607 15108 net.cpp:122] Setting up fc7.5
I0409 19:57:55.844619 15108 net.cpp:129] Top shape: 128 1024 (131072)
I0409 19:57:55.844624 15108 net.cpp:137] Memory required for data: 1055438848
I0409 19:57:55.844631 15108 layer_factory.hpp:77] Creating layer relu7.5
I0409 19:57:55.844640 15108 net.cpp:84] Creating Layer relu7.5
I0409 19:57:55.844645 15108 net.cpp:406] relu7.5 <- fc7.5
I0409 19:57:55.844650 15108 net.cpp:367] relu7.5 -> fc7.5 (in-place)
I0409 19:57:55.845168 15108 net.cpp:122] Setting up relu7.5
I0409 19:57:55.845177 15108 net.cpp:129] Top shape: 128 1024 (131072)
I0409 19:57:55.845181 15108 net.cpp:137] Memory required for data: 1055963136
I0409 19:57:55.845185 15108 layer_factory.hpp:77] Creating layer drop7.5
I0409 19:57:55.845192 15108 net.cpp:84] Creating Layer drop7.5
I0409 19:57:55.845196 15108 net.cpp:406] drop7.5 <- fc7.5
I0409 19:57:55.845202 15108 net.cpp:367] drop7.5 -> fc7.5 (in-place)
I0409 19:57:55.845227 15108 net.cpp:122] Setting up drop7.5
I0409 19:57:55.845232 15108 net.cpp:129] Top shape: 128 1024 (131072)
I0409 19:57:55.845235 15108 net.cpp:137] Memory required for data: 1056487424
I0409 19:57:55.845239 15108 layer_factory.hpp:77] Creating layer fc8
I0409 19:57:55.845247 15108 net.cpp:84] Creating Layer fc8
I0409 19:57:55.845252 15108 net.cpp:406] fc8 <- fc7.5
I0409 19:57:55.845258 15108 net.cpp:380] fc8 -> fc8
I0409 19:57:55.847059 15108 net.cpp:122] Setting up fc8
I0409 19:57:55.847064 15108 net.cpp:129] Top shape: 128 196 (25088)
I0409 19:57:55.847069 15108 net.cpp:137] Memory required for data: 1056587776
I0409 19:57:55.847079 15108 layer_factory.hpp:77] Creating layer loss
I0409 19:57:55.847086 15108 net.cpp:84] Creating Layer loss
I0409 19:57:55.847090 15108 net.cpp:406] loss <- fc8
I0409 19:57:55.847095 15108 net.cpp:406] loss <- label
I0409 19:57:55.847103 15108 net.cpp:380] loss -> loss
I0409 19:57:55.847115 15108 layer_factory.hpp:77] Creating layer loss
…
I0409 19:57:55.848453 15108 net.cpp:294] The NetState phase (1) differed from the phase (0) specified by a rule in layer train-data
I0409 19:57:55.848611 15108 net.cpp:51] Initializing net from parameters:
state {
phase: TEST
}
layer {
name: "val-data"
type: "Data"
top: "data"
top: "label"
include {
phase: TEST
}
transform_param {
crop_size: 227
mean_file: "/mnt/bigdisk/DIGITS-MAN-2/digits/jobs/20210407-214532-d396/mean.binaryproto"
}
data_param {
source: "/mnt/bigdisk/DIGITS-MAN-2/digits/jobs/20210407-214532-d396/val_db"
batch_size: 32
backend: LMDB
}
}
layer {
name: "conv1"
type: "Convolution"
bottom: "data"
top: "conv1"
param {
lr_mult: 1
decay_mult: 1
}
param {
lr_mult: 2
decay_mult: 0
}
convolution_param {
num_output: 96
kernel_size: 11
stride: 4
weight_filler {
type: "gaussian"
std: 0.01
}
bias_filler {
type: "constant"
value: 0
}
}
}
layer {
name: "relu1"
type: "ReLU"
bottom: "conv1"
top: "conv1"
}
layer {
name: "norm1"
type: "LRN"
bottom: "conv1"
top: "norm1"
lrn_param {
local_size: 5
alpha: 0.0001
beta: 0.75
}
}
layer {
name: "pool1"
type: "Pooling"
bottom: "norm1"
top: "pool1"
pooling_param {
pool: MAX
kernel_size: 3
stride: 2
}
}
layer {
name: "conv2"
type: "Convolution"
bottom: "pool1"
top: "conv2"
param {
lr_mult: 1
decay_mult: 1
}
param {
lr_mult: 2
decay_mult: 0
}
convolution_param {
num_output: 256
pad: 2
kernel_size: 5
group: 2
weight_filler {
type: "gaussian"
std: 0.01
}
bias_filler {
type: "constant"
value: 0.1
}
}
}
layer {
name: "relu2"
type: "ReLU"
bottom: "conv2"
top: "conv2"
}
layer {
name: "norm2"
type: "LRN"
bottom: "conv2"
top: "norm2"
lrn_param {
local_size: 5
alpha: 0.0001
beta: 0.75
}
}
layer {
name: "pool2"
type: "Pooling"
bottom: "norm2"
top: "pool2"
pooling_param {
pool: MAX
kernel_size: 3
stride: 2
}
}
layer {
name: "conv3"
type: "Convolution"
bottom: "pool2"
top: "conv3"
param {
lr_mult: 1
decay_mult: 1
}
param {
lr_mult: 2
decay_mult: 0
}
convolution_param {
num_output: 384
pad: 1
kernel_size: 3
weight_filler {
type: "gaussian"
std: 0.01
}
bias_filler {
type: "constant"
value: 0
}
}
}
layer {
name: "relu3"
type: "ReLU"
bottom: "conv3"
top: "conv3"
}
layer {
name: "conv4"
type: "Convolution"
bottom: "conv3"
top: "conv4"
param {
lr_mult: 1
decay_mult: 1
}
param {
lr_mult: 2
decay_mult: 0
}
convolution_param {
num_output: 384
pad: 1
kernel_size: 3
group: 2
weight_filler {
type: "gaussian"
std: 0.01
}
bias_filler {
type: "constant"
value: 0.1
}
}
}
layer {
name: "relu4"
type: "ReLU"
bottom: "conv4"
top: "conv4"
}
layer {
name: "conv5"
type: "Convolution"
bottom: "conv4"
top: "conv5"
param {
lr_mult: 1
decay_mult: 1
}
param {
lr_mult: 2
decay_mult: 0
}
convolution_param {
num_output: 256
pad: 1
kernel_size: 3
group: 2
weight_filler {
type: "gaussian"
std: 0.01
}
bias_filler {
type: "constant"
value: 0.1
}
}
}
layer {
name: "relu5"
type: "ReLU"
bottom: "conv5"
top: "conv5"
}
layer {
name: "pool5"
type: "Pooling"
bottom: "conv5"
top: "pool5"
pooling_param {
pool: MAX
kernel_size: 3
stride: 2
}
}
layer {
name: "fc6"
type: "InnerProduct"
bottom: "pool5"
top: "fc6"
param {
lr_mult: 1
decay_mult: 1
}
param {
lr_mult: 2
decay_mult: 0
}
inner_product_param {
num_output: 1024
weight_filler {
type: "gaussian"
std: 0.005
}
bias_filler {
type: "constant"
value: 0.1
}
}
}
layer {
name: "relu6"
type: "ReLU"
bottom: "fc6"
top: "fc6"
}
layer {
name: "drop6"
type: "Dropout"
bottom: "fc6"
top: "fc6"
dropout_param {
dropout_ratio: 0.5
}
}
layer {
name: "fc7"
type: "InnerProduct"
bottom: "fc6"
top: "fc7"
param {
lr_mult: 1
decay_mult: 1
}
param {
lr_mult: 2
decay_mult: 0
}
inner_product_param {
num_output: 1024
weight_filler {
type: "gaussian"
std: 0.005
}
bias_filler {
type: "constant"
value: 0.1
}
}
}
layer {
name: "relu7"
type: "ReLU"
bottom: "fc7"
top: "fc7"
}
layer {
name: "drop7"
type: "Dropout"
bottom: "fc7"
top: "fc7"
dropout_param {
dropout_ratio: 0.5
}
}
layer {
name: "fc7.5"
type: "InnerProduct"
bottom: "fc7"
top: "fc7.5"
param {
lr_mult: 1
decay_mult: 1
}
param {
lr_mult: 2
decay_mult: 0
}
inner_product_param {
num_output: 1024
weight_filler {
type: "gaussian"
std: 0.005
}
bias_filler {
type: "constant"
value: 0.1
}
}
}
layer {
name: "relu7.5"
type: "ReLU"
bottom: "fc7.5"
top: "fc7.5"
}
layer {
name: "drop7.5"
type: "Dropout"
bottom: "fc7.5"
top: "fc7.5"
dropout_param {
dropout_ratio: 0.5
}
}
layer {
name: "fc8"
type: "InnerProduct"
bottom: "fc7.5"
top: "fc8"
param {
lr_mult: 1
decay_mult: 1
}
param {
lr_mult: 2
decay_mult: 0
}
inner_product_param {
num_output: 196
weight_filler {
type: "gaussian"
std: 0.01
}
bias_filler {
type: "constant"
value: 0
}
}
}
layer {
name: "accuracy"
type: "Accuracy"
bottom: "fc8"
bottom: "label"
top: "accuracy"
include {
phase: TEST
}
}
layer {
name: "loss"
type: "SoftmaxWithLoss"
bottom: "fc8"
bottom: "label"
top: "loss"
}
I0409 19:57:55.848706 15108 layer_factory.hpp:77] Creating layer val-data
I0409 19:57:55.850576 15108 db_lmdb.cpp:35] Opened lmdb /mnt/bigdisk/DIGITS-MAN-2/digits/jobs/20210407-214532-d396/val_db
I0409 19:57:55.850780 15108 net.cpp:84] Creating Layer val-data
I0409 19:57:55.850790 15108 net.cpp:380] val-data -> data
I0409 19:57:55.850800 15108 net.cpp:380] val-data -> label
I0409 19:57:55.850806 15108 data_transformer.cpp:25] Loading mean file from: /mnt/bigdisk/DIGITS-MAN-2/digits/jobs/20210407-214532-d396/mean.binaryproto
I0409 19:57:55.854756 15108 data_layer.cpp:45] output data size: 32,3,227,227
I0409 19:57:55.896126 15108 net.cpp:122] Setting up val-data
I0409 19:57:55.896147 15108 net.cpp:129] Top shape: 32 3 227 227 (4946784)
I0409 19:57:55.896152 15108 net.cpp:129] Top shape: 32 (32)
I0409 19:57:55.896155 15108 net.cpp:137] Memory required for data: 19787264
I0409 19:57:55.896180 15108 layer_factory.hpp:77] Creating layer label_val-data_1_split
I0409 19:57:55.896193 15108 net.cpp:84] Creating Layer label_val-data_1_split
I0409 19:57:55.896198 15108 net.cpp:406] label_val-data_1_split <- label
I0409 19:57:55.896204 15108 net.cpp:380] label_val-data_1_split -> label_val-data_1_split_0
I0409 19:57:55.896214 15108 net.cpp:380] label_val-data_1_split -> label_val-data_1_split_1
I0409 19:57:55.896279 15108 net.cpp:122] Setting up label_val-data_1_split
I0409 19:57:55.896286 15108 net.cpp:129] Top shape: 32 (32)
I0409 19:57:55.896289 15108 net.cpp:129] Top shape: 32 (32)
I0409 19:57:55.896292 15108 net.cpp:137] Memory required for data: 19787520
I0409 19:57:55.896296 15108 layer_factory.hpp:77] Creating layer conv1
I0409 19:57:55.896307 15108 net.cpp:84] Creating Layer conv1
I0409 19:57:55.896311 15108 net.cpp:406] conv1 <- data
I0409 19:57:55.896317 15108 net.cpp:380] conv1 -> conv1
I0409 19:57:55.898161 15108 net.cpp:122] Setting up conv1
I0409 19:57:55.898172 15108 net.cpp:129] Top shape: 32 96 55 55 (9292800)
I0409 19:57:55.898176 15108 net.cpp:137] Memory required for data: 56958720
I0409 19:57:55.898186 15108 layer_factory.hpp:77] Creating layer relu1
I0409 19:57:55.898193 15108 net.cpp:84] Creating Layer relu1
I0409 19:57:55.898197 15108 net.cpp:406] relu1 <- conv1
I0409 19:57:55.898202 15108 net.cpp:367] relu1 -> conv1 (in-place)
I0409 19:57:55.898640 15108 net.cpp:122] Setting up relu1
I0409 19:57:55.898649 15108 net.cpp:129] Top shape: 32 96 55 55 (9292800)
I0409 19:57:55.898653 15108 net.cpp:137] Memory required for data: 94129920
I0409 19:57:55.898656 15108 layer_factory.hpp:77] Creating layer norm1
I0409 19:57:55.898665 15108 net.cpp:84] Creating Layer norm1
I0409 19:57:55.898669 15108 net.cpp:406] norm1 <- conv1
I0409 19:57:55.898674 15108 net.cpp:380] norm1 -> norm1
I0409 19:57:55.903264 15108 net.cpp:122] Setting up norm1
I0409 19:57:55.903276 15108 net.cpp:129] Top shape: 32 96 55 55 (9292800)
I0409 19:57:55.903280 15108 net.cpp:137] Memory required for data: 131301120
I0409 19:57:55.903285 15108 layer_factory.hpp:77] Creating layer pool1
I0409 19:57:55.903292 15108 net.cpp:84] Creating Layer pool1
I0409 19:57:55.903296 15108 net.cpp:406] pool1 <- norm1
I0409 19:57:55.903302 15108 net.cpp:380] pool1 -> pool1
I0409 19:57:55.903332 15108 net.cpp:122] Setting up pool1
I0409 19:57:55.903337 15108 net.cpp:129] Top shape: 32 96 27 27 (2239488)
I0409 19:57:55.903340 15108 net.cpp:137] Memory required for data: 140259072
I0409 19:57:55.903344 15108 layer_factory.hpp:77] Creating layer conv2
I0409 19:57:55.903352 15108 net.cpp:84] Creating Layer conv2
I0409 19:57:55.903355 15108 net.cpp:406] conv2 <- pool1
I0409 19:57:55.903360 15108 net.cpp:380] conv2 -> conv2
I0409 19:57:55.909505 15108 net.cpp:122] Setting up conv2
I0409 19:57:55.909518 15108 net.cpp:129] Top shape: 32 256 27 27 (5971968)
I0409 19:57:55.909523 15108 net.cpp:137] Memory required for data: 164146944
I0409 19:57:55.909533 15108 layer_factory.hpp:77] Creating layer relu2
I0409 19:57:55.909540 15108 net.cpp:84] Creating Layer relu2
I0409 19:57:55.909544 15108 net.cpp:406] relu2 <- conv2
I0409 19:57:55.909549 15108 net.cpp:367] relu2 -> conv2 (in-place)
I0409 19:57:55.911204 15108 net.cpp:122] Setting up relu2
I0409 19:57:55.911214 15108 net.cpp:129] Top shape: 32 256 27 27 (5971968)
I0409 19:57:55.911218 15108 net.cpp:137] Memory required for data: 188034816
I0409 19:57:55.911221 15108 layer_factory.hpp:77] Creating layer norm2
I0409 19:57:55.911231 15108 net.cpp:84] Creating Layer norm2
I0409 19:57:55.911235 15108 net.cpp:406] norm2 <- conv2
I0409 19:57:55.911242 15108 net.cpp:380] norm2 -> norm2
I0409 19:57:55.911602 15108 net.cpp:122] Setting up norm2
I0409 19:57:55.911610 15108 net.cpp:129] Top shape: 32 256 27 27 (5971968)
I0409 19:57:55.911613 15108 net.cpp:137] Memory required for data: 211922688
I0409 19:57:55.911618 15108 layer_factory.hpp:77] Creating layer pool2
I0409 19:57:55.911625 15108 net.cpp:84] Creating Layer pool2
I0409 19:57:55.911629 15108 net.cpp:406] pool2 <- norm2
I0409 19:57:55.911653 15108 net.cpp:380] pool2 -> pool2
I0409 19:57:55.911684 15108 net.cpp:122] Setting up pool2
I0409 19:57:55.911689 15108 net.cpp:129] Top shape: 32 256 13 13 (1384448)
I0409 19:57:55.911692 15108 net.cpp:137] Memory required for data: 217460480
I0409 19:57:55.911696 15108 layer_factory.hpp:77] Creating layer conv3
I0409 19:57:55.911705 15108 net.cpp:84] Creating Layer conv3
I0409 19:57:55.911708 15108 net.cpp:406] conv3 <- pool2
I0409 19:57:55.911715 15108 net.cpp:380] conv3 -> conv3
I0409 19:57:55.924403 15108 net.cpp:122] Setting up conv3
I0409 19:57:55.924422 15108 net.cpp:129] Top shape: 32 384 13 13 (2076672)
I0409 19:57:55.924427 15108 net.cpp:137] Memory required for data: 225767168
I0409 19:57:55.924438 15108 layer_factory.hpp:77] Creating layer relu3
I0409 19:57:55.924448 15108 net.cpp:84] Creating Layer relu3
I0409 19:57:55.924453 15108 net.cpp:406] relu3 <- conv3
I0409 19:57:55.924459 15108 net.cpp:367] relu3 -> conv3 (in-place)
I0409 19:57:55.924808 15108 net.cpp:122] Setting up relu3
I0409 19:57:55.924816 15108 net.cpp:129] Top shape: 32 384 13 13 (2076672)
I0409 19:57:55.924820 15108 net.cpp:137] Memory required for data: 234073856
I0409 19:57:55.924823 15108 layer_factory.hpp:77] Creating layer conv4
I0409 19:57:55.924834 15108 net.cpp:84] Creating Layer conv4
I0409 19:57:55.924839 15108 net.cpp:406] conv4 <- conv3
I0409 19:57:55.924845 15108 net.cpp:380] conv4 -> conv4
I0409 19:57:55.936669 15108 net.cpp:122] Setting up conv4
I0409 19:57:55.936684 15108 net.cpp:129] Top shape: 32 384 13 13 (2076672)
I0409 19:57:55.936688 15108 net.cpp:137] Memory required for data: 242380544
I0409 19:57:55.936697 15108 layer_factory.hpp:77] Creating layer relu4
I0409 19:57:55.936704 15108 net.cpp:84] Creating Layer relu4
I0409 19:57:55.936709 15108 net.cpp:406] relu4 <- conv4
I0409 19:57:55.936717 15108 net.cpp:367] relu4 -> conv4 (in-place)
I0409 19:57:55.937207 15108 net.cpp:122] Setting up relu4
I0409 19:57:55.937217 15108 net.cpp:129] Top shape: 32 384 13 13 (2076672)
I0409 19:57:55.937222 15108 net.cpp:137] Memory required for data: 250687232
I0409 19:57:55.937225 15108 layer_factory.hpp:77] Creating layer conv5
I0409 19:57:55.937235 15108 net.cpp:84] Creating Layer conv5
I0409 19:57:55.937239 15108 net.cpp:406] conv5 <- conv4
I0409 19:57:55.937247 15108 net.cpp:380] conv5 -> conv5
I0409 19:57:55.945652 15108 net.cpp:122] Setting up conv5
I0409 19:57:55.945665 15108 net.cpp:129] Top shape: 32 256 13 13 (1384448)
I0409 19:57:55.945669 15108 net.cpp:137] Memory required for data: 256225024
I0409 19:57:55.945683 15108 layer_factory.hpp:77] Creating layer relu5
I0409 19:57:55.945689 15108 net.cpp:84] Creating Layer relu5
I0409 19:57:55.945694 15108 net.cpp:406] relu5 <- conv5
I0409 19:57:55.945700 15108 net.cpp:367] relu5 -> conv5 (in-place)
I0409 19:57:55.946406 15108 net.cpp:122] Setting up relu5
I0409 19:57:55.946416 15108 net.cpp:129] Top shape: 32 256 13 13 (1384448)
I0409 19:57:55.946419 15108 net.cpp:137] Memory required for data: 261762816
I0409 19:57:55.946424 15108 layer_factory.hpp:77] Creating layer pool5
I0409 19:57:55.946434 15108 net.cpp:84] Creating Layer pool5
I0409 19:57:55.946437 15108 net.cpp:406] pool5 <- conv5
I0409 19:57:55.946444 15108 net.cpp:380] pool5 -> pool5
I0409 19:57:55.946483 15108 net.cpp:122] Setting up pool5
I0409 19:57:55.946488 15108 net.cpp:129] Top shape: 32 256 6 6 (294912)
I0409 19:57:55.946492 15108 net.cpp:137] Memory required for data: 262942464
I0409 19:57:55.946496 15108 layer_factory.hpp:77] Creating layer fc6
I0409 19:57:55.946502 15108 net.cpp:84] Creating Layer fc6
I0409 19:57:55.946506 15108 net.cpp:406] fc6 <- pool5
I0409 19:57:55.946512 15108 net.cpp:380] fc6 -> fc6
I0409 19:57:56.035044 15108 net.cpp:122] Setting up fc6
I0409 19:57:56.035063 15108 net.cpp:129] Top shape: 32 1024 (32768)
I0409 19:57:56.035068 15108 net.cpp:137] Memory required for data: 263073536
I0409 19:57:56.035076 15108 layer_factory.hpp:77] Creating layer relu6
I0409 19:57:56.035085 15108 net.cpp:84] Creating Layer relu6
I0409 19:57:56.035090 15108 net.cpp:406] relu6 <- fc6
I0409 19:57:56.035117 15108 net.cpp:367] relu6 -> fc6 (in-place)
I0409 19:57:56.035535 15108 net.cpp:122] Setting up relu6
I0409 19:57:56.035544 15108 net.cpp:129] Top shape: 32 1024 (32768)
I0409 19:57:56.035548 15108 net.cpp:137] Memory required for data: 263204608
I0409 19:57:56.035552 15108 layer_factory.hpp:77] Creating layer drop6
I0409 19:57:56.035558 15108 net.cpp:84] Creating Layer drop6
I0409 19:57:56.035562 15108 net.cpp:406] drop6 <- fc6
I0409 19:57:56.035567 15108 net.cpp:367] drop6 -> fc6 (in-place)
I0409 19:57:56.035591 15108 net.cpp:122] Setting up drop6
I0409 19:57:56.035596 15108 net.cpp:129] Top shape: 32 1024 (32768)
I0409 19:57:56.035599 15108 net.cpp:137] Memory required for data: 263335680
I0409 19:57:56.035602 15108 layer_factory.hpp:77] Creating layer fc7
I0409 19:57:56.035610 15108 net.cpp:84] Creating Layer fc7
I0409 19:57:56.035614 15108 net.cpp:406] fc7 <- fc6
I0409 19:57:56.035619 15108 net.cpp:380] fc7 -> fc7
I0409 19:57:56.045564 15108 net.cpp:122] Setting up fc7
I0409 19:57:56.045578 15108 net.cpp:129] Top shape: 32 1024 (32768)
I0409 19:57:56.045581 15108 net.cpp:137] Memory required for data: 263466752
I0409 19:57:56.045589 15108 layer_factory.hpp:77] Creating layer relu7
I0409 19:57:56.045598 15108 net.cpp:84] Creating Layer relu7
I0409 19:57:56.045601 15108 net.cpp:406] relu7 <- fc7
I0409 19:57:56.045608 15108 net.cpp:367] relu7 -> fc7 (in-place)
I0409 19:57:56.046336 15108 net.cpp:122] Setting up relu7
I0409 19:57:56.046345 15108 net.cpp:129] Top shape: 32 1024 (32768)
I0409 19:57:56.046350 15108 net.cpp:137] Memory required for data: 263597824
I0409 19:57:56.046353 15108 layer_factory.hpp:77] Creating layer drop7
I0409 19:57:56.046361 15108 net.cpp:84] Creating Layer drop7
I0409 19:57:56.046365 15108 net.cpp:406] drop7 <- fc7
I0409 19:57:56.046370 15108 net.cpp:367] drop7 -> fc7 (in-place)
I0409 19:57:56.046394 15108 net.cpp:122] Setting up drop7
I0409 19:57:56.046399 15108 net.cpp:129] Top shape: 32 1024 (32768)
I0409 19:57:56.046402 15108 net.cpp:137] Memory required for data: 263728896
I0409 19:57:56.046406 15108 layer_factory.hpp:77] Creating layer fc7.5
I0409 19:57:56.046413 15108 net.cpp:84] Creating Layer fc7.5
I0409 19:57:56.046416 15108 net.cpp:406] fc7.5 <- fc7
I0409 19:57:56.046422 15108 net.cpp:380] fc7.5 -> fc7.5
I0409 19:57:56.056704 15108 net.cpp:122] Setting up fc7.5
I0409 19:57:56.056720 15108 net.cpp:129] Top shape: 32 1024 (32768)
I0409 19:57:56.056723 15108 net.cpp:137] Memory required for data: 263859968
I0409 19:57:56.056732 15108 layer_factory.hpp:77] Creating layer relu7.5
I0409 19:57:56.056741 15108 net.cpp:84] Creating Layer relu7.5
I0409 19:57:56.056746 15108 net.cpp:406] relu7.5 <- fc7.5
I0409 19:57:56.056752 15108 net.cpp:367] relu7.5 -> fc7.5 (in-place)
I0409 19:57:56.057355 15108 net.cpp:122] Setting up relu7.5
I0409 19:57:56.057364 15108 net.cpp:129] Top shape: 32 1024 (32768)
I0409 19:57:56.057368 15108 net.cpp:137] Memory required for data: 263991040
I0409 19:57:56.057371 15108 layer_factory.hpp:77] Creating layer drop7.5
I0409 19:57:56.057379 15108 net.cpp:84] Creating Layer drop7.5
I0409 19:57:56.057382 15108 net.cpp:406] drop7.5 <- fc7.5
I0409 19:57:56.057389 15108 net.cpp:367] drop7.5 -> fc7.5 (in-place)
I0409 19:57:56.057412 15108 net.cpp:122] Setting up drop7.5
I0409 19:57:56.057418 15108 net.cpp:129] Top shape: 32 1024 (32768)
I0409 19:57:56.057421 15108 net.cpp:137] Memory required for data: 264122112
I0409 19:57:56.057425 15108 layer_factory.hpp:77] Creating layer fc8
I0409 19:57:56.057432 15108 net.cpp:84] Creating Layer fc8
I0409 19:57:56.057435 15108 net.cpp:406] fc8 <- fc7.5
I0409 19:57:56.057442 15108 net.cpp:380] fc8 -> fc8
I0409 19:57:56.059258 15108 net.cpp:122] Setting up fc8
I0409 19:57:56.059265 15108 net.cpp:129] Top shape: 32 196 (6272)
I0409 19:57:56.059268 15108 net.cpp:137] Memory required for data: 264147200
I0409 19:57:56.059279 15108 layer_factory.hpp:77] Creating layer fc8_fc8_0_split
I0409 19:57:56.059285 15108 net.cpp:84] Creating Layer fc8_fc8_0_split
I0409 19:57:56.059289 15108 net.cpp:406] fc8_fc8_0_split <- fc8
I0409 19:57:56.059311 15108 net.cpp:380] fc8_fc8_0_split -> fc8_fc8_0_split_0
I0409 19:57:56.059319 15108 net.cpp:380] fc8_fc8_0_split -> fc8_fc8_0_split_1
I0409 19:57:56.059351 15108 net.cpp:122] Setting up fc8_fc8_0_split
I0409 19:57:56.059356 15108 net.cpp:129] Top shape: 32 196 (6272)
I0409 19:57:56.059360 15108 net.cpp:129] Top shape: 32 196 (6272)
I0409 19:57:56.059363 15108 net.cpp:137] Memory required for data: 264197376
I0409 19:57:56.059366 15108 layer_factory.hpp:77] Creating layer accuracy
I0409 19:57:56.059374 15108 net.cpp:84] Creating Layer accuracy
I0409 19:57:56.059377 15108 net.cpp:406] accuracy <- fc8_fc8_0_split_0
I0409 19:57:56.059382 15108 net.cpp:406] accuracy <- label_val-data_1_split_0
I0409 19:57:56.059387 15108 net.cpp:380] accuracy -> accuracy
…
