…
I0407 21:56:36.677881 23673 net.cpp:294] The NetState phase (0) differed from the phase (1) specified by a rule in layer accuracy
I0407 21:56:36.678038 23673 net.cpp:51] Initializing net from parameters:
state {
phase: TRAIN
level: 0
stage: ""
}
layer {
name: "train-data"
type: "Data"
top: "data"
top: "label"
include {
phase: TRAIN
}
transform_param {
mirror: true
crop_size: 227
mean_file: "/mnt/bigdisk/DIGITS-MAN-2/digits/jobs/20210407-214532-d396/mean.binaryproto"
}
data_param {
source: "/mnt/bigdisk/DIGITS-MAN-2/digits/jobs/20210407-214532-d396/train_db"
batch_size: 128
backend: LMDB
}
}
layer {
name: "conv1"
type: "Convolution"
bottom: "data"
top: "conv1"
param {
lr_mult: 1
decay_mult: 1
}
param {
lr_mult: 2
decay_mult: 0
}
convolution_param {
num_output: 96
kernel_size: 11
stride: 4
weight_filler {
type: "gaussian"
std: 0.01
}
bias_filler {
type: "constant"
value: 0
}
}
}
layer {
name: "relu1"
type: "ReLU"
bottom: "conv1"
top: "conv1"
}
layer {
name: "norm1"
type: "LRN"
bottom: "conv1"
top: "norm1"
lrn_param {
local_size: 5
alpha: 0.0001
beta: 0.75
}
}
layer {
name: "pool1"
type: "Pooling"
bottom: "norm1"
top: "pool1"
pooling_param {
pool: MAX
kernel_size: 3
stride: 2
}
}
layer {
name: "conv2"
type: "Convolution"
bottom: "pool1"
top: "conv2"
param {
lr_mult: 1
decay_mult: 1
}
param {
lr_mult: 2
decay_mult: 0
}
convolution_param {
num_output: 256
pad: 2
kernel_size: 5
group: 2
weight_filler {
type: "gaussian"
std: 0.01
}
bias_filler {
type: "constant"
value: 0.1
}
}
}
layer {
name: "relu2"
type: "ReLU"
bottom: "conv2"
top: "conv2"
}
layer {
name: "norm2"
type: "LRN"
bottom: "conv2"
top: "norm2"
lrn_param {
local_size: 5
alpha: 0.0001
beta: 0.75
}
}
layer {
name: "pool2"
type: "Pooling"
bottom: "norm2"
top: "pool2"
pooling_param {
pool: MAX
kernel_size: 3
stride: 2
}
}
layer {
name: "conv3"
type: "Convolution"
bottom: "pool2"
top: "conv3"
param {
lr_mult: 1
decay_mult: 1
}
param {
lr_mult: 2
decay_mult: 0
}
convolution_param {
num_output: 384
pad: 1
kernel_size: 3
weight_filler {
type: "gaussian"
std: 0.01
}
bias_filler {
type: "constant"
value: 0
}
}
}
layer {
name: "relu3"
type: "ReLU"
bottom: "conv3"
top: "conv3"
}
layer {
name: "conv4"
type: "Convolution"
bottom: "conv3"
top: "conv4"
param {
lr_mult: 1
decay_mult: 1
}
param {
lr_mult: 2
decay_mult: 0
}
convolution_param {
num_output: 384
pad: 1
kernel_size: 3
group: 2
weight_filler {
type: "gaussian"
std: 0.01
}
bias_filler {
type: "constant"
value: 0.1
}
}
}
layer {
name: "relu4"
type: "ReLU"
bottom: "conv4"
top: "conv4"
}
layer {
name: "conv5"
type: "Convolution"
bottom: "conv4"
top: "conv5"
param {
lr_mult: 1
decay_mult: 1
}
param {
lr_mult: 2
decay_mult: 0
}
convolution_param {
num_output: 256
pad: 1
kernel_size: 3
group: 2
weight_filler {
type: "gaussian"
std: 0.01
}
bias_filler {
type: "constant"
value: 0.1
}
}
}
layer {
name: "relu5"
type: "ReLU"
bottom: "conv5"
top: "conv5"
}
layer {
name: "pool5"
type: "Pooling"
bottom: "conv5"
top: "pool5"
pooling_param {
pool: MAX
kernel_size: 3
stride: 2
}
}
layer {
name: "fc6"
type: "InnerProduct"
bottom: "pool5"
top: "fc6"
param {
lr_mult: 1
decay_mult: 1
}
param {
lr_mult: 2
decay_mult: 0
}
inner_product_param {
num_output: 4096
weight_filler {
type: "gaussian"
std: 0.005
}
bias_filler {
type: "constant"
value: 0.1
}
}
}
layer {
name: "relu6"
type: "ReLU"
bottom: "fc6"
top: "fc6"
}
layer {
name: "drop6"
type: "Dropout"
bottom: "fc6"
top: "fc6"
dropout_param {
dropout_ratio: 0.5
}
}
layer {
name: "fc7"
type: "InnerProduct"
bottom: "fc6"
top: "fc7"
param {
lr_mult: 1
decay_mult: 1
}
param {
lr_mult: 2
decay_mult: 0
}
inner_product_param {
num_output: 4096
weight_filler {
type: "gaussian"
std: 0.005
}
bias_filler {
type: "constant"
value: 0.1
}
}
}
layer {
name: "relu7"
type: "ReLU"
bottom: "fc7"
top: "fc7"
}
layer {
name: "drop7"
type: "Dropout"
bottom: "fc7"
top: "fc7"
dropout_param {
dropout_ratio: 0.5
}
}
layer {
name: "fc8"
type: "InnerProduct"
bottom: "fc7"
top: "fc8"
param {
lr_mult: 1
decay_mult: 1
}
param {
lr_mult: 2
decay_mult: 0
}
inner_product_param {
num_output: 196
weight_filler {
type: "gaussian"
std: 0.01
}
bias_filler {
type: "constant"
value: 0
}
}
}
layer {
name: "loss"
type: "SoftmaxWithLoss"
bottom: "fc8"
bottom: "label"
top: "loss"
}
I0407 21:56:36.678125 23673 layer_factory.hpp:77] Creating layer train-data
I0407 21:56:36.679617 23673 db_lmdb.cpp:35] Opened lmdb /mnt/bigdisk/DIGITS-MAN-2/digits/jobs/20210407-214532-d396/train_db
I0407 21:56:36.679826 23673 net.cpp:84] Creating Layer train-data
I0407 21:56:36.679836 23673 net.cpp:380] train-data -> data
I0407 21:56:36.679855 23673 net.cpp:380] train-data -> label
I0407 21:56:36.679867 23673 data_transformer.cpp:25] Loading mean file from: /mnt/bigdisk/DIGITS-MAN-2/digits/jobs/20210407-214532-d396/mean.binaryproto
I0407 21:56:36.685935 23673 data_layer.cpp:45] output data size: 128,3,227,227
I0407 21:56:36.806490 23673 net.cpp:122] Setting up train-data
I0407 21:56:36.806512 23673 net.cpp:129] Top shape: 128 3 227 227 (19787136)
I0407 21:56:36.806519 23673 net.cpp:129] Top shape: 128 (128)
I0407 21:56:36.806521 23673 net.cpp:137] Memory required for data: 79149056
I0407 21:56:36.806531 23673 layer_factory.hpp:77] Creating layer conv1
I0407 21:56:36.806552 23673 net.cpp:84] Creating Layer conv1
I0407 21:56:36.806558 23673 net.cpp:406] conv1 <- data
I0407 21:56:36.806569 23673 net.cpp:380] conv1 -> conv1
I0407 21:56:37.381981 23673 net.cpp:122] Setting up conv1
I0407 21:56:37.382002 23673 net.cpp:129] Top shape: 128 96 55 55 (37171200)
I0407 21:56:37.382006 23673 net.cpp:137] Memory required for data: 227833856
I0407 21:56:37.382025 23673 layer_factory.hpp:77] Creating layer relu1
I0407 21:56:37.382036 23673 net.cpp:84] Creating Layer relu1
I0407 21:56:37.382040 23673 net.cpp:406] relu1 <- conv1
I0407 21:56:37.382046 23673 net.cpp:367] relu1 -> conv1 (in-place)
I0407 21:56:37.382333 23673 net.cpp:122] Setting up relu1
I0407 21:56:37.382342 23673 net.cpp:129] Top shape: 128 96 55 55 (37171200)
I0407 21:56:37.382345 23673 net.cpp:137] Memory required for data: 376518656
I0407 21:56:37.382349 23673 layer_factory.hpp:77] Creating layer norm1
I0407 21:56:37.382359 23673 net.cpp:84] Creating Layer norm1
I0407 21:56:37.382362 23673 net.cpp:406] norm1 <- conv1
I0407 21:56:37.382387 23673 net.cpp:380] norm1 -> norm1
I0407 21:56:37.382825 23673 net.cpp:122] Setting up norm1
I0407 21:56:37.382834 23673 net.cpp:129] Top shape: 128 96 55 55 (37171200)
I0407 21:56:37.382838 23673 net.cpp:137] Memory required for data: 525203456
I0407 21:56:37.382843 23673 layer_factory.hpp:77] Creating layer pool1
I0407 21:56:37.382851 23673 net.cpp:84] Creating Layer pool1
I0407 21:56:37.382854 23673 net.cpp:406] pool1 <- norm1
I0407 21:56:37.382860 23673 net.cpp:380] pool1 -> pool1
I0407 21:56:37.382897 23673 net.cpp:122] Setting up pool1
I0407 21:56:37.382903 23673 net.cpp:129] Top shape: 128 96 27 27 (8957952)
I0407 21:56:37.382907 23673 net.cpp:137] Memory required for data: 561035264
I0407 21:56:37.382910 23673 layer_factory.hpp:77] Creating layer conv2
I0407 21:56:37.382920 23673 net.cpp:84] Creating Layer conv2
I0407 21:56:37.382925 23673 net.cpp:406] conv2 <- pool1
I0407 21:56:37.382930 23673 net.cpp:380] conv2 -> conv2
I0407 21:56:37.389679 23673 net.cpp:122] Setting up conv2
I0407 21:56:37.389693 23673 net.cpp:129] Top shape: 128 256 27 27 (23887872)
I0407 21:56:37.389696 23673 net.cpp:137] Memory required for data: 656586752
I0407 21:56:37.389704 23673 layer_factory.hpp:77] Creating layer relu2
I0407 21:56:37.389714 23673 net.cpp:84] Creating Layer relu2
I0407 21:56:37.389716 23673 net.cpp:406] relu2 <- conv2
I0407 21:56:37.389722 23673 net.cpp:367] relu2 -> conv2 (in-place)
I0407 21:56:37.390226 23673 net.cpp:122] Setting up relu2
I0407 21:56:37.390237 23673 net.cpp:129] Top shape: 128 256 27 27 (23887872)
I0407 21:56:37.390240 23673 net.cpp:137] Memory required for data: 752138240
I0407 21:56:37.390244 23673 layer_factory.hpp:77] Creating layer norm2
I0407 21:56:37.390251 23673 net.cpp:84] Creating Layer norm2
I0407 21:56:37.390255 23673 net.cpp:406] norm2 <- conv2
I0407 21:56:37.390261 23673 net.cpp:380] norm2 -> norm2
I0407 21:56:37.390621 23673 net.cpp:122] Setting up norm2
I0407 21:56:37.390630 23673 net.cpp:129] Top shape: 128 256 27 27 (23887872)
I0407 21:56:37.390633 23673 net.cpp:137] Memory required for data: 847689728
I0407 21:56:37.390636 23673 layer_factory.hpp:77] Creating layer pool2
I0407 21:56:37.390645 23673 net.cpp:84] Creating Layer pool2
I0407 21:56:37.390650 23673 net.cpp:406] pool2 <- norm2
I0407 21:56:37.390655 23673 net.cpp:380] pool2 -> pool2
I0407 21:56:37.390683 23673 net.cpp:122] Setting up pool2
I0407 21:56:37.390689 23673 net.cpp:129] Top shape: 128 256 13 13 (5537792)
I0407 21:56:37.390693 23673 net.cpp:137] Memory required for data: 869840896
I0407 21:56:37.390697 23673 layer_factory.hpp:77] Creating layer conv3
I0407 21:56:37.390705 23673 net.cpp:84] Creating Layer conv3
I0407 21:56:37.390708 23673 net.cpp:406] conv3 <- pool2
I0407 21:56:37.390713 23673 net.cpp:380] conv3 -> conv3
I0407 21:56:37.400655 23673 net.cpp:122] Setting up conv3
I0407 21:56:37.400666 23673 net.cpp:129] Top shape: 128 384 13 13 (8306688)
I0407 21:56:37.400671 23673 net.cpp:137] Memory required for data: 903067648
I0407 21:56:37.400681 23673 layer_factory.hpp:77] Creating layer relu3
I0407 21:56:37.400687 23673 net.cpp:84] Creating Layer relu3
I0407 21:56:37.400691 23673 net.cpp:406] relu3 <- conv3
I0407 21:56:37.400696 23673 net.cpp:367] relu3 -> conv3 (in-place)
I0407 21:56:37.401188 23673 net.cpp:122] Setting up relu3
I0407 21:56:37.401197 23673 net.cpp:129] Top shape: 128 384 13 13 (8306688)
I0407 21:56:37.401201 23673 net.cpp:137] Memory required for data: 936294400
I0407 21:56:37.401204 23673 layer_factory.hpp:77] Creating layer conv4
I0407 21:56:37.401214 23673 net.cpp:84] Creating Layer conv4
I0407 21:56:37.401218 23673 net.cpp:406] conv4 <- conv3
I0407 21:56:37.401226 23673 net.cpp:380] conv4 -> conv4
I0407 21:56:37.411550 23673 net.cpp:122] Setting up conv4
I0407 21:56:37.411563 23673 net.cpp:129] Top shape: 128 384 13 13 (8306688)
I0407 21:56:37.411568 23673 net.cpp:137] Memory required for data: 969521152
I0407 21:56:37.411576 23673 layer_factory.hpp:77] Creating layer relu4
I0407 21:56:37.411583 23673 net.cpp:84] Creating Layer relu4
I0407 21:56:37.411604 23673 net.cpp:406] relu4 <- conv4
I0407 21:56:37.411609 23673 net.cpp:367] relu4 -> conv4 (in-place)
I0407 21:56:37.411952 23673 net.cpp:122] Setting up relu4
I0407 21:56:37.411959 23673 net.cpp:129] Top shape: 128 384 13 13 (8306688)
I0407 21:56:37.411963 23673 net.cpp:137] Memory required for data: 1002747904
I0407 21:56:37.411967 23673 layer_factory.hpp:77] Creating layer conv5
I0407 21:56:37.411978 23673 net.cpp:84] Creating Layer conv5
I0407 21:56:37.411980 23673 net.cpp:406] conv5 <- conv4
I0407 21:56:37.411988 23673 net.cpp:380] conv5 -> conv5
I0407 21:56:37.420325 23673 net.cpp:122] Setting up conv5
I0407 21:56:37.420336 23673 net.cpp:129] Top shape: 128 256 13 13 (5537792)
I0407 21:56:37.420341 23673 net.cpp:137] Memory required for data: 1024899072
I0407 21:56:37.420351 23673 layer_factory.hpp:77] Creating layer relu5
I0407 21:56:37.420358 23673 net.cpp:84] Creating Layer relu5
I0407 21:56:37.420361 23673 net.cpp:406] relu5 <- conv5
I0407 21:56:37.420367 23673 net.cpp:367] relu5 -> conv5 (in-place)
I0407 21:56:37.420856 23673 net.cpp:122] Setting up relu5
I0407 21:56:37.420866 23673 net.cpp:129] Top shape: 128 256 13 13 (5537792)
I0407 21:56:37.420869 23673 net.cpp:137] Memory required for data: 1047050240
I0407 21:56:37.420872 23673 layer_factory.hpp:77] Creating layer pool5
I0407 21:56:37.420879 23673 net.cpp:84] Creating Layer pool5
I0407 21:56:37.420883 23673 net.cpp:406] pool5 <- conv5
I0407 21:56:37.420889 23673 net.cpp:380] pool5 -> pool5
I0407 21:56:37.420926 23673 net.cpp:122] Setting up pool5
I0407 21:56:37.420933 23673 net.cpp:129] Top shape: 128 256 6 6 (1179648)
I0407 21:56:37.420935 23673 net.cpp:137] Memory required for data: 1051768832
I0407 21:56:37.420938 23673 layer_factory.hpp:77] Creating layer fc6
I0407 21:56:37.420949 23673 net.cpp:84] Creating Layer fc6
I0407 21:56:37.420953 23673 net.cpp:406] fc6 <- pool5
I0407 21:56:37.420958 23673 net.cpp:380] fc6 -> fc6
I0407 21:56:37.782258 23673 net.cpp:122] Setting up fc6
I0407 21:56:37.782280 23673 net.cpp:129] Top shape: 128 4096 (524288)
I0407 21:56:37.782286 23673 net.cpp:137] Memory required for data: 1053865984
I0407 21:56:37.782299 23673 layer_factory.hpp:77] Creating layer relu6
I0407 21:56:37.782310 23673 net.cpp:84] Creating Layer relu6
I0407 21:56:37.782316 23673 net.cpp:406] relu6 <- fc6
I0407 21:56:37.782325 23673 net.cpp:367] relu6 -> fc6 (in-place)
I0407 21:56:37.784193 23673 net.cpp:122] Setting up relu6
I0407 21:56:37.784207 23673 net.cpp:129] Top shape: 128 4096 (524288)
I0407 21:56:37.784212 23673 net.cpp:137] Memory required for data: 1055963136
I0407 21:56:37.784217 23673 layer_factory.hpp:77] Creating layer drop6
I0407 21:56:37.784226 23673 net.cpp:84] Creating Layer drop6
I0407 21:56:37.784231 23673 net.cpp:406] drop6 <- fc6
I0407 21:56:37.784238 23673 net.cpp:367] drop6 -> fc6 (in-place)
I0407 21:56:37.784276 23673 net.cpp:122] Setting up drop6
I0407 21:56:37.784284 23673 net.cpp:129] Top shape: 128 4096 (524288)
I0407 21:56:37.784289 23673 net.cpp:137] Memory required for data: 1058060288
I0407 21:56:37.784294 23673 layer_factory.hpp:77] Creating layer fc7
I0407 21:56:37.784307 23673 net.cpp:84] Creating Layer fc7
I0407 21:56:37.784312 23673 net.cpp:406] fc7 <- fc6
I0407 21:56:37.784319 23673 net.cpp:380] fc7 -> fc7
I0407 21:56:38.016695 23673 net.cpp:122] Setting up fc7
I0407 21:56:38.016716 23673 net.cpp:129] Top shape: 128 4096 (524288)
I0407 21:56:38.016719 23673 net.cpp:137] Memory required for data: 1060157440
I0407 21:56:38.016728 23673 layer_factory.hpp:77] Creating layer relu7
I0407 21:56:38.016737 23673 net.cpp:84] Creating Layer relu7
I0407 21:56:38.016741 23673 net.cpp:406] relu7 <- fc7
I0407 21:56:38.016747 23673 net.cpp:367] relu7 -> fc7 (in-place)
I0407 21:56:38.017369 23673 net.cpp:122] Setting up relu7
I0407 21:56:38.017379 23673 net.cpp:129] Top shape: 128 4096 (524288)
I0407 21:56:38.017382 23673 net.cpp:137] Memory required for data: 1062254592
I0407 21:56:38.017385 23673 layer_factory.hpp:77] Creating layer drop7
I0407 21:56:38.017392 23673 net.cpp:84] Creating Layer drop7
I0407 21:56:38.017416 23673 net.cpp:406] drop7 <- fc7
I0407 21:56:38.017421 23673 net.cpp:367] drop7 -> fc7 (in-place)
I0407 21:56:38.017446 23673 net.cpp:122] Setting up drop7
I0407 21:56:38.017452 23673 net.cpp:129] Top shape: 128 4096 (524288)
I0407 21:56:38.017454 23673 net.cpp:137] Memory required for data: 1064351744
I0407 21:56:38.017458 23673 layer_factory.hpp:77] Creating layer fc8
I0407 21:56:38.017467 23673 net.cpp:84] Creating Layer fc8
I0407 21:56:38.017470 23673 net.cpp:406] fc8 <- fc7
I0407 21:56:38.017477 23673 net.cpp:380] fc8 -> fc8
I0407 21:56:38.025106 23673 net.cpp:122] Setting up fc8
I0407 21:56:38.025115 23673 net.cpp:129] Top shape: 128 196 (25088)
I0407 21:56:38.025120 23673 net.cpp:137] Memory required for data: 1064452096
I0407 21:56:38.025125 23673 layer_factory.hpp:77] Creating layer loss
I0407 21:56:38.025133 23673 net.cpp:84] Creating Layer loss
I0407 21:56:38.025137 23673 net.cpp:406] loss <- fc8
I0407 21:56:38.025141 23673 net.cpp:406] loss <- label
I0407 21:56:38.025147 23673 net.cpp:380] loss -> loss
I0407 21:56:38.025156 23673 layer_factory.hpp:77] Creating layer loss
…
I0407 21:56:38.026357 23673 net.cpp:294] The NetState phase (1) differed from the phase (0) specified by a rule in layer train-data
I0407 21:56:38.026494 23673 net.cpp:51] Initializing net from parameters:
state {
phase: TEST
}
layer {
name: "val-data"
type: "Data"
top: "data"
top: "label"
include {
phase: TEST
}
transform_param {
crop_size: 227
mean_file: "/mnt/bigdisk/DIGITS-MAN-2/digits/jobs/20210407-214532-d396/mean.binaryproto"
}
data_param {
source: "/mnt/bigdisk/DIGITS-MAN-2/digits/jobs/20210407-214532-d396/val_db"
batch_size: 32
backend: LMDB
}
}
layer {
name: "conv1"
type: "Convolution"
bottom: "data"
top: "conv1"
param {
lr_mult: 1
decay_mult: 1
}
param {
lr_mult: 2
decay_mult: 0
}
convolution_param {
num_output: 96
kernel_size: 11
stride: 4
weight_filler {
type: "gaussian"
std: 0.01
}
bias_filler {
type: "constant"
value: 0
}
}
}
layer {
name: "relu1"
type: "ReLU"
bottom: "conv1"
top: "conv1"
}
layer {
name: "norm1"
type: "LRN"
bottom: "conv1"
top: "norm1"
lrn_param {
local_size: 5
alpha: 0.0001
beta: 0.75
}
}
layer {
name: "pool1"
type: "Pooling"
bottom: "norm1"
top: "pool1"
pooling_param {
pool: MAX
kernel_size: 3
stride: 2
}
}
layer {
name: "conv2"
type: "Convolution"
bottom: "pool1"
top: "conv2"
param {
lr_mult: 1
decay_mult: 1
}
param {
lr_mult: 2
decay_mult: 0
}
convolution_param {
num_output: 256
pad: 2
kernel_size: 5
group: 2
weight_filler {
type: "gaussian"
std: 0.01
}
bias_filler {
type: "constant"
value: 0.1
}
}
}
layer {
name: "relu2"
type: "ReLU"
bottom: "conv2"
top: "conv2"
}
layer {
name: "norm2"
type: "LRN"
bottom: "conv2"
top: "norm2"
lrn_param {
local_size: 5
alpha: 0.0001
beta: 0.75
}
}
layer {
name: "pool2"
type: "Pooling"
bottom: "norm2"
top: "pool2"
pooling_param {
pool: MAX
kernel_size: 3
stride: 2
}
}
layer {
name: "conv3"
type: "Convolution"
bottom: "pool2"
top: "conv3"
param {
lr_mult: 1
decay_mult: 1
}
param {
lr_mult: 2
decay_mult: 0
}
convolution_param {
num_output: 384
pad: 1
kernel_size: 3
weight_filler {
type: "gaussian"
std: 0.01
}
bias_filler {
type: "constant"
value: 0
}
}
}
layer {
name: "relu3"
type: "ReLU"
bottom: "conv3"
top: "conv3"
}
layer {
name: "conv4"
type: "Convolution"
bottom: "conv3"
top: "conv4"
param {
lr_mult: 1
decay_mult: 1
}
param {
lr_mult: 2
decay_mult: 0
}
convolution_param {
num_output: 384
pad: 1
kernel_size: 3
group: 2
weight_filler {
type: "gaussian"
std: 0.01
}
bias_filler {
type: "constant"
value: 0.1
}
}
}
layer {
name: "relu4"
type: "ReLU"
bottom: "conv4"
top: "conv4"
}
layer {
name: "conv5"
type: "Convolution"
bottom: "conv4"
top: "conv5"
param {
lr_mult: 1
decay_mult: 1
}
param {
lr_mult: 2
decay_mult: 0
}
convolution_param {
num_output: 256
pad: 1
kernel_size: 3
group: 2
weight_filler {
type: "gaussian"
std: 0.01
}
bias_filler {
type: "constant"
value: 0.1
}
}
}
layer {
name: "relu5"
type: "ReLU"
bottom: "conv5"
top: "conv5"
}
layer {
name: "pool5"
type: "Pooling"
bottom: "conv5"
top: "pool5"
pooling_param {
pool: MAX
kernel_size: 3
stride: 2
}
}
layer {
name: "fc6"
type: "InnerProduct"
bottom: "pool5"
top: "fc6"
param {
lr_mult: 1
decay_mult: 1
}
param {
lr_mult: 2
decay_mult: 0
}
inner_product_param {
num_output: 4096
weight_filler {
type: "gaussian"
std: 0.005
}
bias_filler {
type: "constant"
value: 0.1
}
}
}
layer {
name: "relu6"
type: "ReLU"
bottom: "fc6"
top: "fc6"
}
layer {
name: "drop6"
type: "Dropout"
bottom: "fc6"
top: "fc6"
dropout_param {
dropout_ratio: 0.5
}
}
layer {
name: "fc7"
type: "InnerProduct"
bottom: "fc6"
top: "fc7"
param {
lr_mult: 1
decay_mult: 1
}
param {
lr_mult: 2
decay_mult: 0
}
inner_product_param {
num_output: 4096
weight_filler {
type: "gaussian"
std: 0.005
}
bias_filler {
type: "constant"
value: 0.1
}
}
}
layer {
name: "relu7"
type: "ReLU"
bottom: "fc7"
top: "fc7"
}
layer {
name: "drop7"
type: "Dropout"
bottom: "fc7"
top: "fc7"
dropout_param {
dropout_ratio: 0.5
}
}
layer {
name: "fc8"
type: "InnerProduct"
bottom: "fc7"
top: "fc8"
param {
lr_mult: 1
decay_mult: 1
}
param {
lr_mult: 2
decay_mult: 0
}
inner_product_param {
num_output: 196
weight_filler {
type: "gaussian"
std: 0.01
}
bias_filler {
type: "constant"
value: 0
}
}
}
layer {
name: "accuracy"
type: "Accuracy"
bottom: "fc8"
bottom: "label"
top: "accuracy"
include {
phase: TEST
}
}
layer {
name: "loss"
type: "SoftmaxWithLoss"
bottom: "fc8"
bottom: "label"
top: "loss"
}
I0407 21:56:38.026589 23673 layer_factory.hpp:77] Creating layer val-data
I0407 21:56:38.028141 23673 db_lmdb.cpp:35] Opened lmdb /mnt/bigdisk/DIGITS-MAN-2/digits/jobs/20210407-214532-d396/val_db
I0407 21:56:38.028537 23673 net.cpp:84] Creating Layer val-data
I0407 21:56:38.028548 23673 net.cpp:380] val-data -> data
I0407 21:56:38.028555 23673 net.cpp:380] val-data -> label
I0407 21:56:38.028563 23673 data_transformer.cpp:25] Loading mean file from: /mnt/bigdisk/DIGITS-MAN-2/digits/jobs/20210407-214532-d396/mean.binaryproto
I0407 21:56:38.033105 23673 data_layer.cpp:45] output data size: 32,3,227,227
I0407 21:56:38.063024 23673 net.cpp:122] Setting up val-data
I0407 21:56:38.063046 23673 net.cpp:129] Top shape: 32 3 227 227 (4946784)
I0407 21:56:38.063050 23673 net.cpp:129] Top shape: 32 (32)
I0407 21:56:38.063055 23673 net.cpp:137] Memory required for data: 19787264
I0407 21:56:38.063060 23673 layer_factory.hpp:77] Creating layer label_val-data_1_split
I0407 21:56:38.063072 23673 net.cpp:84] Creating Layer label_val-data_1_split
I0407 21:56:38.063076 23673 net.cpp:406] label_val-data_1_split <- label
I0407 21:56:38.063083 23673 net.cpp:380] label_val-data_1_split -> label_val-data_1_split_0
I0407 21:56:38.063093 23673 net.cpp:380] label_val-data_1_split -> label_val-data_1_split_1
I0407 21:56:38.063155 23673 net.cpp:122] Setting up label_val-data_1_split
I0407 21:56:38.063163 23673 net.cpp:129] Top shape: 32 (32)
I0407 21:56:38.063165 23673 net.cpp:129] Top shape: 32 (32)
I0407 21:56:38.063169 23673 net.cpp:137] Memory required for data: 19787520
I0407 21:56:38.063172 23673 layer_factory.hpp:77] Creating layer conv1
I0407 21:56:38.063184 23673 net.cpp:84] Creating Layer conv1
I0407 21:56:38.063187 23673 net.cpp:406] conv1 <- data
I0407 21:56:38.063194 23673 net.cpp:380] conv1 -> conv1
I0407 21:56:38.065093 23673 net.cpp:122] Setting up conv1
I0407 21:56:38.065102 23673 net.cpp:129] Top shape: 32 96 55 55 (9292800)
I0407 21:56:38.065106 23673 net.cpp:137] Memory required for data: 56958720
I0407 21:56:38.065116 23673 layer_factory.hpp:77] Creating layer relu1
I0407 21:56:38.065122 23673 net.cpp:84] Creating Layer relu1
I0407 21:56:38.065126 23673 net.cpp:406] relu1 <- conv1
I0407 21:56:38.065131 23673 net.cpp:367] relu1 -> conv1 (in-place)
I0407 21:56:38.065420 23673 net.cpp:122] Setting up relu1
I0407 21:56:38.065428 23673 net.cpp:129] Top shape: 32 96 55 55 (9292800)
I0407 21:56:38.065431 23673 net.cpp:137] Memory required for data: 94129920
I0407 21:56:38.065435 23673 layer_factory.hpp:77] Creating layer norm1
I0407 21:56:38.065443 23673 net.cpp:84] Creating Layer norm1
I0407 21:56:38.065448 23673 net.cpp:406] norm1 <- conv1
I0407 21:56:38.065452 23673 net.cpp:380] norm1 -> norm1
I0407 21:56:38.065909 23673 net.cpp:122] Setting up norm1
I0407 21:56:38.065919 23673 net.cpp:129] Top shape: 32 96 55 55 (9292800)
I0407 21:56:38.065922 23673 net.cpp:137] Memory required for data: 131301120
I0407 21:56:38.065927 23673 layer_factory.hpp:77] Creating layer pool1
I0407 21:56:38.065932 23673 net.cpp:84] Creating Layer pool1
I0407 21:56:38.065937 23673 net.cpp:406] pool1 <- norm1
I0407 21:56:38.065941 23673 net.cpp:380] pool1 -> pool1
I0407 21:56:38.065989 23673 net.cpp:122] Setting up pool1
I0407 21:56:38.065995 23673 net.cpp:129] Top shape: 32 96 27 27 (2239488)
I0407 21:56:38.065999 23673 net.cpp:137] Memory required for data: 140259072
I0407 21:56:38.066002 23673 layer_factory.hpp:77] Creating layer conv2
I0407 21:56:38.066010 23673 net.cpp:84] Creating Layer conv2
I0407 21:56:38.066013 23673 net.cpp:406] conv2 <- pool1
I0407 21:56:38.066037 23673 net.cpp:380] conv2 -> conv2
I0407 21:56:38.073166 23673 net.cpp:122] Setting up conv2
I0407 21:56:38.073179 23673 net.cpp:129] Top shape: 32 256 27 27 (5971968)
I0407 21:56:38.073182 23673 net.cpp:137] Memory required for data: 164146944
I0407 21:56:38.073191 23673 layer_factory.hpp:77] Creating layer relu2
I0407 21:56:38.073199 23673 net.cpp:84] Creating Layer relu2
I0407 21:56:38.073204 23673 net.cpp:406] relu2 <- conv2
I0407 21:56:38.073208 23673 net.cpp:367] relu2 -> conv2 (in-place)
I0407 21:56:38.073712 23673 net.cpp:122] Setting up relu2
I0407 21:56:38.073722 23673 net.cpp:129] Top shape: 32 256 27 27 (5971968)
I0407 21:56:38.073726 23673 net.cpp:137] Memory required for data: 188034816
I0407 21:56:38.073729 23673 layer_factory.hpp:77] Creating layer norm2
I0407 21:56:38.073740 23673 net.cpp:84] Creating Layer norm2
I0407 21:56:38.073743 23673 net.cpp:406] norm2 <- conv2
I0407 21:56:38.073750 23673 net.cpp:380] norm2 -> norm2
I0407 21:56:38.074317 23673 net.cpp:122] Setting up norm2
I0407 21:56:38.074327 23673 net.cpp:129] Top shape: 32 256 27 27 (5971968)
I0407 21:56:38.074331 23673 net.cpp:137] Memory required for data: 211922688
I0407 21:56:38.074334 23673 layer_factory.hpp:77] Creating layer pool2
I0407 21:56:38.074340 23673 net.cpp:84] Creating Layer pool2
I0407 21:56:38.074344 23673 net.cpp:406] pool2 <- norm2
I0407 21:56:38.074350 23673 net.cpp:380] pool2 -> pool2
I0407 21:56:38.074381 23673 net.cpp:122] Setting up pool2
I0407 21:56:38.074386 23673 net.cpp:129] Top shape: 32 256 13 13 (1384448)
I0407 21:56:38.074389 23673 net.cpp:137] Memory required for data: 217460480
I0407 21:56:38.074393 23673 layer_factory.hpp:77] Creating layer conv3
I0407 21:56:38.074404 23673 net.cpp:84] Creating Layer conv3
I0407 21:56:38.074407 23673 net.cpp:406] conv3 <- pool2
I0407 21:56:38.074417 23673 net.cpp:380] conv3 -> conv3
I0407 21:56:38.085281 23673 net.cpp:122] Setting up conv3
I0407 21:56:38.085295 23673 net.cpp:129] Top shape: 32 384 13 13 (2076672)
I0407 21:56:38.085299 23673 net.cpp:137] Memory required for data: 225767168
I0407 21:56:38.085311 23673 layer_factory.hpp:77] Creating layer relu3
I0407 21:56:38.085319 23673 net.cpp:84] Creating Layer relu3
I0407 21:56:38.085323 23673 net.cpp:406] relu3 <- conv3
I0407 21:56:38.085328 23673 net.cpp:367] relu3 -> conv3 (in-place)
I0407 21:56:38.085840 23673 net.cpp:122] Setting up relu3
I0407 21:56:38.085851 23673 net.cpp:129] Top shape: 32 384 13 13 (2076672)
I0407 21:56:38.085855 23673 net.cpp:137] Memory required for data: 234073856
I0407 21:56:38.085858 23673 layer_factory.hpp:77] Creating layer conv4
I0407 21:56:38.085870 23673 net.cpp:84] Creating Layer conv4
I0407 21:56:38.085873 23673 net.cpp:406] conv4 <- conv3
I0407 21:56:38.085880 23673 net.cpp:380] conv4 -> conv4
I0407 21:56:38.095295 23673 net.cpp:122] Setting up conv4
I0407 21:56:38.095306 23673 net.cpp:129] Top shape: 32 384 13 13 (2076672)
I0407 21:56:38.095310 23673 net.cpp:137] Memory required for data: 242380544
I0407 21:56:38.095317 23673 layer_factory.hpp:77] Creating layer relu4
I0407 21:56:38.095327 23673 net.cpp:84] Creating Layer relu4
I0407 21:56:38.095332 23673 net.cpp:406] relu4 <- conv4
I0407 21:56:38.095337 23673 net.cpp:367] relu4 -> conv4 (in-place)
I0407 21:56:38.095679 23673 net.cpp:122] Setting up relu4
I0407 21:56:38.095687 23673 net.cpp:129] Top shape: 32 384 13 13 (2076672)
I0407 21:56:38.095692 23673 net.cpp:137] Memory required for data: 250687232
I0407 21:56:38.095696 23673 layer_factory.hpp:77] Creating layer conv5
I0407 21:56:38.095706 23673 net.cpp:84] Creating Layer conv5
I0407 21:56:38.095710 23673 net.cpp:406] conv5 <- conv4
I0407 21:56:38.095715 23673 net.cpp:380] conv5 -> conv5
I0407 21:56:38.104161 23673 net.cpp:122] Setting up conv5
I0407 21:56:38.104172 23673 net.cpp:129] Top shape: 32 256 13 13 (1384448)
I0407 21:56:38.104176 23673 net.cpp:137] Memory required for data: 256225024
I0407 21:56:38.104187 23673 layer_factory.hpp:77] Creating layer relu5
I0407 21:56:38.104193 23673 net.cpp:84] Creating Layer relu5
I0407 21:56:38.104197 23673 net.cpp:406] relu5 <- conv5
I0407 21:56:38.104221 23673 net.cpp:367] relu5 -> conv5 (in-place)
I0407 21:56:38.104715 23673 net.cpp:122] Setting up relu5
I0407 21:56:38.104725 23673 net.cpp:129] Top shape: 32 256 13 13 (1384448)
I0407 21:56:38.104729 23673 net.cpp:137] Memory required for data: 261762816
I0407 21:56:38.104732 23673 layer_factory.hpp:77] Creating layer pool5
I0407 21:56:38.104743 23673 net.cpp:84] Creating Layer pool5
I0407 21:56:38.104748 23673 net.cpp:406] pool5 <- conv5
I0407 21:56:38.104753 23673 net.cpp:380] pool5 -> pool5
I0407 21:56:38.104789 23673 net.cpp:122] Setting up pool5
I0407 21:56:38.104795 23673 net.cpp:129] Top shape: 32 256 6 6 (294912)
I0407 21:56:38.104799 23673 net.cpp:137] Memory required for data: 262942464
I0407 21:56:38.104804 23673 layer_factory.hpp:77] Creating layer fc6
I0407 21:56:38.104810 23673 net.cpp:84] Creating Layer fc6
I0407 21:56:38.104813 23673 net.cpp:406] fc6 <- pool5
I0407 21:56:38.104820 23673 net.cpp:380] fc6 -> fc6
I0407 21:56:38.456493 23673 net.cpp:122] Setting up fc6
I0407 21:56:38.456514 23673 net.cpp:129] Top shape: 32 4096 (131072)
I0407 21:56:38.456517 23673 net.cpp:137] Memory required for data: 263466752
I0407 21:56:38.456526 23673 layer_factory.hpp:77] Creating layer relu6
I0407 21:56:38.456535 23673 net.cpp:84] Creating Layer relu6
I0407 21:56:38.456539 23673 net.cpp:406] relu6 <- fc6
I0407 21:56:38.456545 23673 net.cpp:367] relu6 -> fc6 (in-place)
I0407 21:56:38.457394 23673 net.cpp:122] Setting up relu6
I0407 21:56:38.457404 23673 net.cpp:129] Top shape: 32 4096 (131072)
I0407 21:56:38.457407 23673 net.cpp:137] Memory required for data: 263991040
I0407 21:56:38.457412 23673 layer_factory.hpp:77] Creating layer drop6
I0407 21:56:38.457418 23673 net.cpp:84] Creating Layer drop6
I0407 21:56:38.457422 23673 net.cpp:406] drop6 <- fc6
I0407 21:56:38.457427 23673 net.cpp:367] drop6 -> fc6 (in-place)
I0407 21:56:38.457456 23673 net.cpp:122] Setting up drop6
I0407 21:56:38.457461 23673 net.cpp:129] Top shape: 32 4096 (131072)
I0407 21:56:38.457465 23673 net.cpp:137] Memory required for data: 264515328
I0407 21:56:38.457468 23673 layer_factory.hpp:77] Creating layer fc7
I0407 21:56:38.457476 23673 net.cpp:84] Creating Layer fc7
I0407 21:56:38.457479 23673 net.cpp:406] fc7 <- fc6
I0407 21:56:38.457484 23673 net.cpp:380] fc7 -> fc7
I0407 21:56:38.613785 23673 net.cpp:122] Setting up fc7
I0407 21:56:38.613806 23673 net.cpp:129] Top shape: 32 4096 (131072)
I0407 21:56:38.613809 23673 net.cpp:137] Memory required for data: 265039616
I0407 21:56:38.613818 23673 layer_factory.hpp:77] Creating layer relu7
I0407 21:56:38.613827 23673 net.cpp:84] Creating Layer relu7
I0407 21:56:38.613832 23673 net.cpp:406] relu7 <- fc7
I0407 21:56:38.613838 23673 net.cpp:367] relu7 -> fc7 (in-place)
I0407 21:56:38.614269 23673 net.cpp:122] Setting up relu7
I0407 21:56:38.614277 23673 net.cpp:129] Top shape: 32 4096 (131072)
I0407 21:56:38.614282 23673 net.cpp:137] Memory required for data: 265563904
I0407 21:56:38.614286 23673 layer_factory.hpp:77] Creating layer drop7
I0407 21:56:38.614293 23673 net.cpp:84] Creating Layer drop7
I0407 21:56:38.614297 23673 net.cpp:406] drop7 <- fc7
I0407 21:56:38.614302 23673 net.cpp:367] drop7 -> fc7 (in-place)
I0407 21:56:38.614326 23673 net.cpp:122] Setting up drop7
I0407 21:56:38.614332 23673 net.cpp:129] Top shape: 32 4096 (131072)
I0407 21:56:38.614336 23673 net.cpp:137] Memory required for data: 266088192
I0407 21:56:38.614338 23673 layer_factory.hpp:77] Creating layer fc8
I0407 21:56:38.614346 23673 net.cpp:84] Creating Layer fc8
I0407 21:56:38.614351 23673 net.cpp:406] fc8 <- fc7
I0407 21:56:38.614356 23673 net.cpp:380] fc8 -> fc8
I0407 21:56:38.622051 23673 net.cpp:122] Setting up fc8
I0407 21:56:38.622059 23673 net.cpp:129] Top shape: 32 196 (6272)
I0407 21:56:38.622063 23673 net.cpp:137] Memory required for data: 266113280
I0407 21:56:38.622069 23673 layer_factory.hpp:77] Creating layer fc8_fc8_0_split
I0407 21:56:38.622077 23673 net.cpp:84] Creating Layer fc8_fc8_0_split
I0407 21:56:38.622081 23673 net.cpp:406] fc8_fc8_0_split <- fc8
I0407 21:56:38.622104 23673 net.cpp:380] fc8_fc8_0_split -> fc8_fc8_0_split_0
I0407 21:56:38.622112 23673 net.cpp:380] fc8_fc8_0_split -> fc8_fc8_0_split_1
I0407 21:56:38.622146 23673 net.cpp:122] Setting up fc8_fc8_0_split
I0407 21:56:38.622151 23673 net.cpp:129] Top shape: 32 196 (6272)
I0407 21:56:38.622155 23673 net.cpp:129] Top shape: 32 196 (6272)
I0407 21:56:38.622159 23673 net.cpp:137] Memory required for data: 266163456
I0407 21:56:38.622162 23673 layer_factory.hpp:77] Creating layer accuracy
I0407 21:56:38.622169 23673 net.cpp:84] Creating Layer accuracy
I0407 21:56:38.622174 23673 net.cpp:406] accuracy <- fc8_fc8_0_split_0
I0407 21:56:38.622177 23673 net.cpp:406] accuracy <- label_val-data_1_split_0
I0407 21:56:38.622184 23673 net.cpp:380] accuracy -> accuracy
…
