…
I0409 21:17:28.377660 25006 net.cpp:294] The NetState phase (0) differed from the phase (1) specified by a rule in layer accuracy
I0409 21:17:28.377806 25006 net.cpp:51] Initializing net from parameters:
state {
phase: TRAIN
level: 0
stage: ""
}
layer {
name: "train-data"
type: "Data"
top: "data"
top: "label"
include {
phase: TRAIN
}
transform_param {
mirror: true
crop_size: 227
mean_file: "/mnt/bigdisk/DIGITS-MAN-2/digits/jobs/20210407-214532-d396/mean.binaryproto"
}
data_param {
source: "/mnt/bigdisk/DIGITS-MAN-2/digits/jobs/20210407-214532-d396/train_db"
batch_size: 128
backend: LMDB
}
}
layer {
name: "conv1"
type: "Convolution"
bottom: "data"
top: "conv1"
param {
lr_mult: 1
decay_mult: 1
}
param {
lr_mult: 2
decay_mult: 0
}
convolution_param {
num_output: 96
kernel_size: 11
stride: 4
weight_filler {
type: "gaussian"
std: 0.01
}
bias_filler {
type: "constant"
value: 0
}
}
}
layer {
name: "relu1"
type: "ReLU"
bottom: "conv1"
top: "conv1"
}
layer {
name: "norm1"
type: "LRN"
bottom: "conv1"
top: "norm1"
lrn_param {
local_size: 5
alpha: 0.0001
beta: 0.75
}
}
layer {
name: "pool1"
type: "Pooling"
bottom: "norm1"
top: "pool1"
pooling_param {
pool: MAX
kernel_size: 3
stride: 2
}
}
layer {
name: "conv2"
type: "Convolution"
bottom: "pool1"
top: "conv2"
param {
lr_mult: 1
decay_mult: 1
}
param {
lr_mult: 2
decay_mult: 0
}
convolution_param {
num_output: 256
pad: 2
kernel_size: 5
group: 2
weight_filler {
type: "gaussian"
std: 0.01
}
bias_filler {
type: "constant"
value: 0.1
}
}
}
layer {
name: "relu2"
type: "ReLU"
bottom: "conv2"
top: "conv2"
}
layer {
name: "norm2"
type: "LRN"
bottom: "conv2"
top: "norm2"
lrn_param {
local_size: 5
alpha: 0.0001
beta: 0.75
}
}
layer {
name: "pool2"
type: "Pooling"
bottom: "norm2"
top: "pool2"
pooling_param {
pool: MAX
kernel_size: 3
stride: 2
}
}
layer {
name: "conv3"
type: "Convolution"
bottom: "pool2"
top: "conv3"
param {
lr_mult: 1
decay_mult: 1
}
param {
lr_mult: 2
decay_mult: 0
}
convolution_param {
num_output: 384
pad: 1
kernel_size: 3
weight_filler {
type: "gaussian"
std: 0.01
}
bias_filler {
type: "constant"
value: 0
}
}
}
layer {
name: "relu3"
type: "ReLU"
bottom: "conv3"
top: "conv3"
}
layer {
name: "conv4"
type: "Convolution"
bottom: "conv3"
top: "conv4"
param {
lr_mult: 1
decay_mult: 1
}
param {
lr_mult: 2
decay_mult: 0
}
convolution_param {
num_output: 384
pad: 1
kernel_size: 3
group: 2
weight_filler {
type: "gaussian"
std: 0.01
}
bias_filler {
type: "constant"
value: 0.1
}
}
}
layer {
name: "relu4"
type: "ReLU"
bottom: "conv4"
top: "conv4"
}
layer {
name: "conv5"
type: "Convolution"
bottom: "conv4"
top: "conv5"
param {
lr_mult: 1
decay_mult: 1
}
param {
lr_mult: 2
decay_mult: 0
}
convolution_param {
num_output: 256
pad: 1
kernel_size: 3
group: 2
weight_filler {
type: "gaussian"
std: 0.01
}
bias_filler {
type: "constant"
value: 0.1
}
}
}
layer {
name: "relu5"
type: "ReLU"
bottom: "conv5"
top: "conv5"
}
layer {
name: "pool5"
type: "Pooling"
bottom: "conv5"
top: "pool5"
pooling_param {
pool: MAX
kernel_size: 3
stride: 2
}
}
layer {
name: "fc6"
type: "InnerProduct"
bottom: "pool5"
top: "fc6"
param {
lr_mult: 1
decay_mult: 1
}
param {
lr_mult: 2
decay_mult: 0
}
inner_product_param {
num_output: 4096
weight_filler {
type: "gaussian"
std: 0.005
}
bias_filler {
type: "constant"
value: 0.1
}
}
}
layer {
name: "relu6"
type: "ReLU"
bottom: "fc6"
top: "fc6"
}
layer {
name: "drop6"
type: "Dropout"
bottom: "fc6"
top: "fc6"
dropout_param {
dropout_ratio: 0.5
}
}
layer {
name: "fc8"
type: "InnerProduct"
bottom: "fc6"
top: "fc8"
param {
lr_mult: 1
decay_mult: 1
}
param {
lr_mult: 2
decay_mult: 0
}
inner_product_param {
num_output: 196
weight_filler {
type: "gaussian"
std: 0.01
}
bias_filler {
type: "constant"
value: 0
}
}
}
layer {
name: "loss"
type: "SoftmaxWithLoss"
bottom: "fc8"
bottom: "label"
top: "loss"
}
I0409 21:17:28.377900 25006 layer_factory.hpp:77] Creating layer train-data
I0409 21:17:28.379285 25006 db_lmdb.cpp:35] Opened lmdb /mnt/bigdisk/DIGITS-MAN-2/digits/jobs/20210407-214532-d396/train_db
I0409 21:17:28.379494 25006 net.cpp:84] Creating Layer train-data
I0409 21:17:28.379506 25006 net.cpp:380] train-data -> data
I0409 21:17:28.379528 25006 net.cpp:380] train-data -> label
I0409 21:17:28.379540 25006 data_transformer.cpp:25] Loading mean file from: /mnt/bigdisk/DIGITS-MAN-2/digits/jobs/20210407-214532-d396/mean.binaryproto
I0409 21:17:28.384963 25006 data_layer.cpp:45] output data size: 128,3,227,227
I0409 21:17:28.508553 25006 net.cpp:122] Setting up train-data
I0409 21:17:28.508576 25006 net.cpp:129] Top shape: 128 3 227 227 (19787136)
I0409 21:17:28.508581 25006 net.cpp:129] Top shape: 128 (128)
I0409 21:17:28.508585 25006 net.cpp:137] Memory required for data: 79149056
I0409 21:17:28.508595 25006 layer_factory.hpp:77] Creating layer conv1
I0409 21:17:28.508615 25006 net.cpp:84] Creating Layer conv1
I0409 21:17:28.508622 25006 net.cpp:406] conv1 <- data
I0409 21:17:28.508635 25006 net.cpp:380] conv1 -> conv1
I0409 21:17:29.065069 25006 net.cpp:122] Setting up conv1
I0409 21:17:29.065093 25006 net.cpp:129] Top shape: 128 96 55 55 (37171200)
I0409 21:17:29.065097 25006 net.cpp:137] Memory required for data: 227833856
I0409 21:17:29.065116 25006 layer_factory.hpp:77] Creating layer relu1
I0409 21:17:29.065127 25006 net.cpp:84] Creating Layer relu1
I0409 21:17:29.065132 25006 net.cpp:406] relu1 <- conv1
I0409 21:17:29.065140 25006 net.cpp:367] relu1 -> conv1 (in-place)
I0409 21:17:29.065425 25006 net.cpp:122] Setting up relu1
I0409 21:17:29.065434 25006 net.cpp:129] Top shape: 128 96 55 55 (37171200)
I0409 21:17:29.065439 25006 net.cpp:137] Memory required for data: 376518656
I0409 21:17:29.065443 25006 layer_factory.hpp:77] Creating layer norm1
I0409 21:17:29.065452 25006 net.cpp:84] Creating Layer norm1
I0409 21:17:29.065457 25006 net.cpp:406] norm1 <- conv1
I0409 21:17:29.065464 25006 net.cpp:380] norm1 -> norm1
I0409 21:17:29.065902 25006 net.cpp:122] Setting up norm1
I0409 21:17:29.065913 25006 net.cpp:129] Top shape: 128 96 55 55 (37171200)
I0409 21:17:29.065917 25006 net.cpp:137] Memory required for data: 525203456
I0409 21:17:29.065922 25006 layer_factory.hpp:77] Creating layer pool1
I0409 21:17:29.065930 25006 net.cpp:84] Creating Layer pool1
I0409 21:17:29.065934 25006 net.cpp:406] pool1 <- norm1
I0409 21:17:29.065940 25006 net.cpp:380] pool1 -> pool1
I0409 21:17:29.066011 25006 net.cpp:122] Setting up pool1
I0409 21:17:29.066018 25006 net.cpp:129] Top shape: 128 96 27 27 (8957952)
I0409 21:17:29.066023 25006 net.cpp:137] Memory required for data: 561035264
I0409 21:17:29.066027 25006 layer_factory.hpp:77] Creating layer conv2
I0409 21:17:29.066038 25006 net.cpp:84] Creating Layer conv2
I0409 21:17:29.066042 25006 net.cpp:406] conv2 <- pool1
I0409 21:17:29.066048 25006 net.cpp:380] conv2 -> conv2
I0409 21:17:29.074885 25006 net.cpp:122] Setting up conv2
I0409 21:17:29.074903 25006 net.cpp:129] Top shape: 128 256 27 27 (23887872)
I0409 21:17:29.074906 25006 net.cpp:137] Memory required for data: 656586752
I0409 21:17:29.074918 25006 layer_factory.hpp:77] Creating layer relu2
I0409 21:17:29.074926 25006 net.cpp:84] Creating Layer relu2
I0409 21:17:29.074931 25006 net.cpp:406] relu2 <- conv2
I0409 21:17:29.074939 25006 net.cpp:367] relu2 -> conv2 (in-place)
I0409 21:17:29.076439 25006 net.cpp:122] Setting up relu2
I0409 21:17:29.076449 25006 net.cpp:129] Top shape: 128 256 27 27 (23887872)
I0409 21:17:29.076452 25006 net.cpp:137] Memory required for data: 752138240
I0409 21:17:29.076457 25006 layer_factory.hpp:77] Creating layer norm2
I0409 21:17:29.076464 25006 net.cpp:84] Creating Layer norm2
I0409 21:17:29.076468 25006 net.cpp:406] norm2 <- conv2
I0409 21:17:29.076473 25006 net.cpp:380] norm2 -> norm2
I0409 21:17:29.076766 25006 net.cpp:122] Setting up norm2
I0409 21:17:29.076773 25006 net.cpp:129] Top shape: 128 256 27 27 (23887872)
I0409 21:17:29.076777 25006 net.cpp:137] Memory required for data: 847689728
I0409 21:17:29.076781 25006 layer_factory.hpp:77] Creating layer pool2
I0409 21:17:29.076789 25006 net.cpp:84] Creating Layer pool2
I0409 21:17:29.076793 25006 net.cpp:406] pool2 <- norm2
I0409 21:17:29.076798 25006 net.cpp:380] pool2 -> pool2
I0409 21:17:29.076824 25006 net.cpp:122] Setting up pool2
I0409 21:17:29.076830 25006 net.cpp:129] Top shape: 128 256 13 13 (5537792)
I0409 21:17:29.076833 25006 net.cpp:137] Memory required for data: 869840896
I0409 21:17:29.076838 25006 layer_factory.hpp:77] Creating layer conv3
I0409 21:17:29.076846 25006 net.cpp:84] Creating Layer conv3
I0409 21:17:29.076850 25006 net.cpp:406] conv3 <- pool2
I0409 21:17:29.076855 25006 net.cpp:380] conv3 -> conv3
I0409 21:17:29.086712 25006 net.cpp:122] Setting up conv3
I0409 21:17:29.086728 25006 net.cpp:129] Top shape: 128 384 13 13 (8306688)
I0409 21:17:29.086733 25006 net.cpp:137] Memory required for data: 903067648
I0409 21:17:29.086743 25006 layer_factory.hpp:77] Creating layer relu3
I0409 21:17:29.086752 25006 net.cpp:84] Creating Layer relu3
I0409 21:17:29.086757 25006 net.cpp:406] relu3 <- conv3
I0409 21:17:29.086763 25006 net.cpp:367] relu3 -> conv3 (in-place)
I0409 21:17:29.087239 25006 net.cpp:122] Setting up relu3
I0409 21:17:29.087249 25006 net.cpp:129] Top shape: 128 384 13 13 (8306688)
I0409 21:17:29.087253 25006 net.cpp:137] Memory required for data: 936294400
I0409 21:17:29.087257 25006 layer_factory.hpp:77] Creating layer conv4
I0409 21:17:29.087270 25006 net.cpp:84] Creating Layer conv4
I0409 21:17:29.087275 25006 net.cpp:406] conv4 <- conv3
I0409 21:17:29.087281 25006 net.cpp:380] conv4 -> conv4
I0409 21:17:29.097532 25006 net.cpp:122] Setting up conv4
I0409 21:17:29.097548 25006 net.cpp:129] Top shape: 128 384 13 13 (8306688)
I0409 21:17:29.097551 25006 net.cpp:137] Memory required for data: 969521152
I0409 21:17:29.097560 25006 layer_factory.hpp:77] Creating layer relu4
I0409 21:17:29.097568 25006 net.cpp:84] Creating Layer relu4
I0409 21:17:29.097573 25006 net.cpp:406] relu4 <- conv4
I0409 21:17:29.097580 25006 net.cpp:367] relu4 -> conv4 (in-place)
I0409 21:17:29.097918 25006 net.cpp:122] Setting up relu4
I0409 21:17:29.097926 25006 net.cpp:129] Top shape: 128 384 13 13 (8306688)
I0409 21:17:29.097930 25006 net.cpp:137] Memory required for data: 1002747904
I0409 21:17:29.097935 25006 layer_factory.hpp:77] Creating layer conv5
I0409 21:17:29.097946 25006 net.cpp:84] Creating Layer conv5
I0409 21:17:29.097950 25006 net.cpp:406] conv5 <- conv4
I0409 21:17:29.097990 25006 net.cpp:380] conv5 -> conv5
I0409 21:17:29.106262 25006 net.cpp:122] Setting up conv5
I0409 21:17:29.106277 25006 net.cpp:129] Top shape: 128 256 13 13 (5537792)
I0409 21:17:29.106281 25006 net.cpp:137] Memory required for data: 1024899072
I0409 21:17:29.106294 25006 layer_factory.hpp:77] Creating layer relu5
I0409 21:17:29.106302 25006 net.cpp:84] Creating Layer relu5
I0409 21:17:29.106307 25006 net.cpp:406] relu5 <- conv5
I0409 21:17:29.106314 25006 net.cpp:367] relu5 -> conv5 (in-place)
I0409 21:17:29.106789 25006 net.cpp:122] Setting up relu5
I0409 21:17:29.106798 25006 net.cpp:129] Top shape: 128 256 13 13 (5537792)
I0409 21:17:29.106802 25006 net.cpp:137] Memory required for data: 1047050240
I0409 21:17:29.106806 25006 layer_factory.hpp:77] Creating layer pool5
I0409 21:17:29.106815 25006 net.cpp:84] Creating Layer pool5
I0409 21:17:29.106819 25006 net.cpp:406] pool5 <- conv5
I0409 21:17:29.106827 25006 net.cpp:380] pool5 -> pool5
I0409 21:17:29.106864 25006 net.cpp:122] Setting up pool5
I0409 21:17:29.106870 25006 net.cpp:129] Top shape: 128 256 6 6 (1179648)
I0409 21:17:29.106874 25006 net.cpp:137] Memory required for data: 1051768832
I0409 21:17:29.106878 25006 layer_factory.hpp:77] Creating layer fc6
I0409 21:17:29.106889 25006 net.cpp:84] Creating Layer fc6
I0409 21:17:29.106892 25006 net.cpp:406] fc6 <- pool5
I0409 21:17:29.106899 25006 net.cpp:380] fc6 -> fc6
I0409 21:17:29.460299 25006 net.cpp:122] Setting up fc6
I0409 21:17:29.460322 25006 net.cpp:129] Top shape: 128 4096 (524288)
I0409 21:17:29.460326 25006 net.cpp:137] Memory required for data: 1053865984
I0409 21:17:29.460336 25006 layer_factory.hpp:77] Creating layer relu6
I0409 21:17:29.460345 25006 net.cpp:84] Creating Layer relu6
I0409 21:17:29.460351 25006 net.cpp:406] relu6 <- fc6
I0409 21:17:29.460358 25006 net.cpp:367] relu6 -> fc6 (in-place)
I0409 21:17:29.460968 25006 net.cpp:122] Setting up relu6
I0409 21:17:29.460978 25006 net.cpp:129] Top shape: 128 4096 (524288)
I0409 21:17:29.460983 25006 net.cpp:137] Memory required for data: 1055963136
I0409 21:17:29.460988 25006 layer_factory.hpp:77] Creating layer drop6
I0409 21:17:29.460994 25006 net.cpp:84] Creating Layer drop6
I0409 21:17:29.460999 25006 net.cpp:406] drop6 <- fc6
I0409 21:17:29.461006 25006 net.cpp:367] drop6 -> fc6 (in-place)
I0409 21:17:29.461033 25006 net.cpp:122] Setting up drop6
I0409 21:17:29.461041 25006 net.cpp:129] Top shape: 128 4096 (524288)
I0409 21:17:29.461045 25006 net.cpp:137] Memory required for data: 1058060288
I0409 21:17:29.461050 25006 layer_factory.hpp:77] Creating layer fc8
I0409 21:17:29.461057 25006 net.cpp:84] Creating Layer fc8
I0409 21:17:29.461061 25006 net.cpp:406] fc8 <- fc6
I0409 21:17:29.461067 25006 net.cpp:380] fc8 -> fc8
I0409 21:17:29.468709 25006 net.cpp:122] Setting up fc8
I0409 21:17:29.468721 25006 net.cpp:129] Top shape: 128 196 (25088)
I0409 21:17:29.468725 25006 net.cpp:137] Memory required for data: 1058160640
I0409 21:17:29.468734 25006 layer_factory.hpp:77] Creating layer loss
I0409 21:17:29.468740 25006 net.cpp:84] Creating Layer loss
I0409 21:17:29.468745 25006 net.cpp:406] loss <- fc8
I0409 21:17:29.468751 25006 net.cpp:406] loss <- label
I0409 21:17:29.468758 25006 net.cpp:380] loss -> loss
I0409 21:17:29.468767 25006 layer_factory.hpp:77] Creating layer loss
…
I0409 21:17:29.470031 25006 net.cpp:294] The NetState phase (1) differed from the phase (0) specified by a rule in layer train-data
I0409 21:17:29.470160 25006 net.cpp:51] Initializing net from parameters:
state {
phase: TEST
}
layer {
name: "val-data"
type: "Data"
top: "data"
top: "label"
include {
phase: TEST
}
transform_param {
crop_size: 227
mean_file: "/mnt/bigdisk/DIGITS-MAN-2/digits/jobs/20210407-214532-d396/mean.binaryproto"
}
data_param {
source: "/mnt/bigdisk/DIGITS-MAN-2/digits/jobs/20210407-214532-d396/val_db"
batch_size: 32
backend: LMDB
}
}
layer {
name: "conv1"
type: "Convolution"
bottom: "data"
top: "conv1"
param {
lr_mult: 1
decay_mult: 1
}
param {
lr_mult: 2
decay_mult: 0
}
convolution_param {
num_output: 96
kernel_size: 11
stride: 4
weight_filler {
type: "gaussian"
std: 0.01
}
bias_filler {
type: "constant"
value: 0
}
}
}
layer {
name: "relu1"
type: "ReLU"
bottom: "conv1"
top: "conv1"
}
layer {
name: "norm1"
type: "LRN"
bottom: "conv1"
top: "norm1"
lrn_param {
local_size: 5
alpha: 0.0001
beta: 0.75
}
}
layer {
name: "pool1"
type: "Pooling"
bottom: "norm1"
top: "pool1"
pooling_param {
pool: MAX
kernel_size: 3
stride: 2
}
}
layer {
name: "conv2"
type: "Convolution"
bottom: "pool1"
top: "conv2"
param {
lr_mult: 1
decay_mult: 1
}
param {
lr_mult: 2
decay_mult: 0
}
convolution_param {
num_output: 256
pad: 2
kernel_size: 5
group: 2
weight_filler {
type: "gaussian"
std: 0.01
}
bias_filler {
type: "constant"
value: 0.1
}
}
}
layer {
name: "relu2"
type: "ReLU"
bottom: "conv2"
top: "conv2"
}
layer {
name: "norm2"
type: "LRN"
bottom: "conv2"
top: "norm2"
lrn_param {
local_size: 5
alpha: 0.0001
beta: 0.75
}
}
layer {
name: "pool2"
type: "Pooling"
bottom: "norm2"
top: "pool2"
pooling_param {
pool: MAX
kernel_size: 3
stride: 2
}
}
layer {
name: "conv3"
type: "Convolution"
bottom: "pool2"
top: "conv3"
param {
lr_mult: 1
decay_mult: 1
}
param {
lr_mult: 2
decay_mult: 0
}
convolution_param {
num_output: 384
pad: 1
kernel_size: 3
weight_filler {
type: "gaussian"
std: 0.01
}
bias_filler {
type: "constant"
value: 0
}
}
}
layer {
name: "relu3"
type: "ReLU"
bottom: "conv3"
top: "conv3"
}
layer {
name: "conv4"
type: "Convolution"
bottom: "conv3"
top: "conv4"
param {
lr_mult: 1
decay_mult: 1
}
param {
lr_mult: 2
decay_mult: 0
}
convolution_param {
num_output: 384
pad: 1
kernel_size: 3
group: 2
weight_filler {
type: "gaussian"
std: 0.01
}
bias_filler {
type: "constant"
value: 0.1
}
}
}
layer {
name: "relu4"
type: "ReLU"
bottom: "conv4"
top: "conv4"
}
layer {
name: "conv5"
type: "Convolution"
bottom: "conv4"
top: "conv5"
param {
lr_mult: 1
decay_mult: 1
}
param {
lr_mult: 2
decay_mult: 0
}
convolution_param {
num_output: 256
pad: 1
kernel_size: 3
group: 2
weight_filler {
type: "gaussian"
std: 0.01
}
bias_filler {
type: "constant"
value: 0.1
}
}
}
layer {
name: "relu5"
type: "ReLU"
bottom: "conv5"
top: "conv5"
}
layer {
name: "pool5"
type: "Pooling"
bottom: "conv5"
top: "pool5"
pooling_param {
pool: MAX
kernel_size: 3
stride: 2
}
}
layer {
name: "fc6"
type: "InnerProduct"
bottom: "pool5"
top: "fc6"
param {
lr_mult: 1
decay_mult: 1
}
param {
lr_mult: 2
decay_mult: 0
}
inner_product_param {
num_output: 4096
weight_filler {
type: "gaussian"
std: 0.005
}
bias_filler {
type: "constant"
value: 0.1
}
}
}
layer {
name: "relu6"
type: "ReLU"
bottom: "fc6"
top: "fc6"
}
layer {
name: "drop6"
type: "Dropout"
bottom: "fc6"
top: "fc6"
dropout_param {
dropout_ratio: 0.5
}
}
layer {
name: "fc8"
type: "InnerProduct"
bottom: "fc6"
top: "fc8"
param {
lr_mult: 1
decay_mult: 1
}
param {
lr_mult: 2
decay_mult: 0
}
inner_product_param {
num_output: 196
weight_filler {
type: "gaussian"
std: 0.01
}
bias_filler {
type: "constant"
value: 0
}
}
}
layer {
name: "accuracy"
type: "Accuracy"
bottom: "fc8"
bottom: "label"
top: "accuracy"
include {
phase: TEST
}
}
layer {
name: "loss"
type: "SoftmaxWithLoss"
bottom: "fc8"
bottom: "label"
top: "loss"
}
I0409 21:17:29.470247 25006 layer_factory.hpp:77] Creating layer val-data
I0409 21:17:29.471750 25006 db_lmdb.cpp:35] Opened lmdb /mnt/bigdisk/DIGITS-MAN-2/digits/jobs/20210407-214532-d396/val_db
I0409 21:17:29.471953 25006 net.cpp:84] Creating Layer val-data
I0409 21:17:29.471963 25006 net.cpp:380] val-data -> data
I0409 21:17:29.471972 25006 net.cpp:380] val-data -> label
I0409 21:17:29.471980 25006 data_transformer.cpp:25] Loading mean file from: /mnt/bigdisk/DIGITS-MAN-2/digits/jobs/20210407-214532-d396/mean.binaryproto
I0409 21:17:29.475826 25006 data_layer.cpp:45] output data size: 32,3,227,227
I0409 21:17:29.507874 25006 net.cpp:122] Setting up val-data
I0409 21:17:29.507897 25006 net.cpp:129] Top shape: 32 3 227 227 (4946784)
I0409 21:17:29.507902 25006 net.cpp:129] Top shape: 32 (32)
I0409 21:17:29.507906 25006 net.cpp:137] Memory required for data: 19787264
I0409 21:17:29.507913 25006 layer_factory.hpp:77] Creating layer label_val-data_1_split
I0409 21:17:29.507926 25006 net.cpp:84] Creating Layer label_val-data_1_split
I0409 21:17:29.507932 25006 net.cpp:406] label_val-data_1_split <- label
I0409 21:17:29.507939 25006 net.cpp:380] label_val-data_1_split -> label_val-data_1_split_0
I0409 21:17:29.507949 25006 net.cpp:380] label_val-data_1_split -> label_val-data_1_split_1
I0409 21:17:29.508000 25006 net.cpp:122] Setting up label_val-data_1_split
I0409 21:17:29.508006 25006 net.cpp:129] Top shape: 32 (32)
I0409 21:17:29.508010 25006 net.cpp:129] Top shape: 32 (32)
I0409 21:17:29.508014 25006 net.cpp:137] Memory required for data: 19787520
I0409 21:17:29.508018 25006 layer_factory.hpp:77] Creating layer conv1
I0409 21:17:29.508029 25006 net.cpp:84] Creating Layer conv1
I0409 21:17:29.508034 25006 net.cpp:406] conv1 <- data
I0409 21:17:29.508040 25006 net.cpp:380] conv1 -> conv1
I0409 21:17:29.510104 25006 net.cpp:122] Setting up conv1
I0409 21:17:29.510116 25006 net.cpp:129] Top shape: 32 96 55 55 (9292800)
I0409 21:17:29.510121 25006 net.cpp:137] Memory required for data: 56958720
I0409 21:17:29.510133 25006 layer_factory.hpp:77] Creating layer relu1
I0409 21:17:29.510139 25006 net.cpp:84] Creating Layer relu1
I0409 21:17:29.510164 25006 net.cpp:406] relu1 <- conv1
I0409 21:17:29.510169 25006 net.cpp:367] relu1 -> conv1 (in-place)
I0409 21:17:29.510610 25006 net.cpp:122] Setting up relu1
I0409 21:17:29.510620 25006 net.cpp:129] Top shape: 32 96 55 55 (9292800)
I0409 21:17:29.510624 25006 net.cpp:137] Memory required for data: 94129920
I0409 21:17:29.510628 25006 layer_factory.hpp:77] Creating layer norm1
I0409 21:17:29.510637 25006 net.cpp:84] Creating Layer norm1
I0409 21:17:29.510643 25006 net.cpp:406] norm1 <- conv1
I0409 21:17:29.510648 25006 net.cpp:380] norm1 -> norm1
I0409 21:17:29.510948 25006 net.cpp:122] Setting up norm1
I0409 21:17:29.510957 25006 net.cpp:129] Top shape: 32 96 55 55 (9292800)
I0409 21:17:29.510962 25006 net.cpp:137] Memory required for data: 131301120
I0409 21:17:29.510967 25006 layer_factory.hpp:77] Creating layer pool1
I0409 21:17:29.510973 25006 net.cpp:84] Creating Layer pool1
I0409 21:17:29.510978 25006 net.cpp:406] pool1 <- norm1
I0409 21:17:29.510983 25006 net.cpp:380] pool1 -> pool1
I0409 21:17:29.511010 25006 net.cpp:122] Setting up pool1
I0409 21:17:29.511016 25006 net.cpp:129] Top shape: 32 96 27 27 (2239488)
I0409 21:17:29.511020 25006 net.cpp:137] Memory required for data: 140259072
I0409 21:17:29.511024 25006 layer_factory.hpp:77] Creating layer conv2
I0409 21:17:29.511032 25006 net.cpp:84] Creating Layer conv2
I0409 21:17:29.511037 25006 net.cpp:406] conv2 <- pool1
I0409 21:17:29.511042 25006 net.cpp:380] conv2 -> conv2
I0409 21:17:29.519682 25006 net.cpp:122] Setting up conv2
I0409 21:17:29.519701 25006 net.cpp:129] Top shape: 32 256 27 27 (5971968)
I0409 21:17:29.519704 25006 net.cpp:137] Memory required for data: 164146944
I0409 21:17:29.519716 25006 layer_factory.hpp:77] Creating layer relu2
I0409 21:17:29.519724 25006 net.cpp:84] Creating Layer relu2
I0409 21:17:29.519729 25006 net.cpp:406] relu2 <- conv2
I0409 21:17:29.519739 25006 net.cpp:367] relu2 -> conv2 (in-place)
I0409 21:17:29.520244 25006 net.cpp:122] Setting up relu2
I0409 21:17:29.520256 25006 net.cpp:129] Top shape: 32 256 27 27 (5971968)
I0409 21:17:29.520259 25006 net.cpp:137] Memory required for data: 188034816
I0409 21:17:29.520264 25006 layer_factory.hpp:77] Creating layer norm2
I0409 21:17:29.520274 25006 net.cpp:84] Creating Layer norm2
I0409 21:17:29.520279 25006 net.cpp:406] norm2 <- conv2
I0409 21:17:29.520285 25006 net.cpp:380] norm2 -> norm2
I0409 21:17:29.520788 25006 net.cpp:122] Setting up norm2
I0409 21:17:29.520798 25006 net.cpp:129] Top shape: 32 256 27 27 (5971968)
I0409 21:17:29.520803 25006 net.cpp:137] Memory required for data: 211922688
I0409 21:17:29.520808 25006 layer_factory.hpp:77] Creating layer pool2
I0409 21:17:29.520817 25006 net.cpp:84] Creating Layer pool2
I0409 21:17:29.520821 25006 net.cpp:406] pool2 <- norm2
I0409 21:17:29.520826 25006 net.cpp:380] pool2 -> pool2
I0409 21:17:29.520859 25006 net.cpp:122] Setting up pool2
I0409 21:17:29.520865 25006 net.cpp:129] Top shape: 32 256 13 13 (1384448)
I0409 21:17:29.520869 25006 net.cpp:137] Memory required for data: 217460480
I0409 21:17:29.520874 25006 layer_factory.hpp:77] Creating layer conv3
I0409 21:17:29.520885 25006 net.cpp:84] Creating Layer conv3
I0409 21:17:29.520889 25006 net.cpp:406] conv3 <- pool2
I0409 21:17:29.520895 25006 net.cpp:380] conv3 -> conv3
I0409 21:17:29.533210 25006 net.cpp:122] Setting up conv3
I0409 21:17:29.533227 25006 net.cpp:129] Top shape: 32 384 13 13 (2076672)
I0409 21:17:29.533231 25006 net.cpp:137] Memory required for data: 225767168
I0409 21:17:29.533243 25006 layer_factory.hpp:77] Creating layer relu3
I0409 21:17:29.533252 25006 net.cpp:84] Creating Layer relu3
I0409 21:17:29.533257 25006 net.cpp:406] relu3 <- conv3
I0409 21:17:29.533265 25006 net.cpp:367] relu3 -> conv3 (in-place)
I0409 21:17:29.534776 25006 net.cpp:122] Setting up relu3
I0409 21:17:29.534790 25006 net.cpp:129] Top shape: 32 384 13 13 (2076672)
I0409 21:17:29.534793 25006 net.cpp:137] Memory required for data: 234073856
I0409 21:17:29.534798 25006 layer_factory.hpp:77] Creating layer conv4
I0409 21:17:29.534827 25006 net.cpp:84] Creating Layer conv4
I0409 21:17:29.534832 25006 net.cpp:406] conv4 <- conv3
I0409 21:17:29.534839 25006 net.cpp:380] conv4 -> conv4
I0409 21:17:29.551090 25006 net.cpp:122] Setting up conv4
I0409 21:17:29.551107 25006 net.cpp:129] Top shape: 32 384 13 13 (2076672)
I0409 21:17:29.551111 25006 net.cpp:137] Memory required for data: 242380544
I0409 21:17:29.551120 25006 layer_factory.hpp:77] Creating layer relu4
I0409 21:17:29.551131 25006 net.cpp:84] Creating Layer relu4
I0409 21:17:29.551134 25006 net.cpp:406] relu4 <- conv4
I0409 21:17:29.551141 25006 net.cpp:367] relu4 -> conv4 (in-place)
I0409 21:17:29.551626 25006 net.cpp:122] Setting up relu4
I0409 21:17:29.551637 25006 net.cpp:129] Top shape: 32 384 13 13 (2076672)
I0409 21:17:29.551641 25006 net.cpp:137] Memory required for data: 250687232
I0409 21:17:29.551645 25006 layer_factory.hpp:77] Creating layer conv5
I0409 21:17:29.551657 25006 net.cpp:84] Creating Layer conv5
I0409 21:17:29.551661 25006 net.cpp:406] conv5 <- conv4
I0409 21:17:29.551668 25006 net.cpp:380] conv5 -> conv5
I0409 21:17:29.560024 25006 net.cpp:122] Setting up conv5
I0409 21:17:29.560041 25006 net.cpp:129] Top shape: 32 256 13 13 (1384448)
I0409 21:17:29.560046 25006 net.cpp:137] Memory required for data: 256225024
I0409 21:17:29.560060 25006 layer_factory.hpp:77] Creating layer relu5
I0409 21:17:29.560067 25006 net.cpp:84] Creating Layer relu5
I0409 21:17:29.560072 25006 net.cpp:406] relu5 <- conv5
I0409 21:17:29.560079 25006 net.cpp:367] relu5 -> conv5 (in-place)
I0409 21:17:29.560573 25006 net.cpp:122] Setting up relu5
I0409 21:17:29.560583 25006 net.cpp:129] Top shape: 32 256 13 13 (1384448)
I0409 21:17:29.560587 25006 net.cpp:137] Memory required for data: 261762816
I0409 21:17:29.560591 25006 layer_factory.hpp:77] Creating layer pool5
I0409 21:17:29.560602 25006 net.cpp:84] Creating Layer pool5
I0409 21:17:29.560607 25006 net.cpp:406] pool5 <- conv5
I0409 21:17:29.560613 25006 net.cpp:380] pool5 -> pool5
I0409 21:17:29.560654 25006 net.cpp:122] Setting up pool5
I0409 21:17:29.560660 25006 net.cpp:129] Top shape: 32 256 6 6 (294912)
I0409 21:17:29.560664 25006 net.cpp:137] Memory required for data: 262942464
I0409 21:17:29.560668 25006 layer_factory.hpp:77] Creating layer fc6
I0409 21:17:29.560679 25006 net.cpp:84] Creating Layer fc6
I0409 21:17:29.560683 25006 net.cpp:406] fc6 <- pool5
I0409 21:17:29.560688 25006 net.cpp:380] fc6 -> fc6
I0409 21:17:29.914144 25006 net.cpp:122] Setting up fc6
I0409 21:17:29.914165 25006 net.cpp:129] Top shape: 32 4096 (131072)
I0409 21:17:29.914170 25006 net.cpp:137] Memory required for data: 263466752
I0409 21:17:29.914180 25006 layer_factory.hpp:77] Creating layer relu6
I0409 21:17:29.914188 25006 net.cpp:84] Creating Layer relu6
I0409 21:17:29.914194 25006 net.cpp:406] relu6 <- fc6
I0409 21:17:29.914202 25006 net.cpp:367] relu6 -> fc6 (in-place)
I0409 21:17:29.914839 25006 net.cpp:122] Setting up relu6
I0409 21:17:29.914849 25006 net.cpp:129] Top shape: 32 4096 (131072)
I0409 21:17:29.914852 25006 net.cpp:137] Memory required for data: 263991040
I0409 21:17:29.914856 25006 layer_factory.hpp:77] Creating layer drop6
I0409 21:17:29.914863 25006 net.cpp:84] Creating Layer drop6
I0409 21:17:29.914868 25006 net.cpp:406] drop6 <- fc6
I0409 21:17:29.914873 25006 net.cpp:367] drop6 -> fc6 (in-place)
I0409 21:17:29.914898 25006 net.cpp:122] Setting up drop6
I0409 21:17:29.914903 25006 net.cpp:129] Top shape: 32 4096 (131072)
I0409 21:17:29.914907 25006 net.cpp:137] Memory required for data: 264515328
I0409 21:17:29.914911 25006 layer_factory.hpp:77] Creating layer fc8
I0409 21:17:29.914919 25006 net.cpp:84] Creating Layer fc8
I0409 21:17:29.914923 25006 net.cpp:406] fc8 <- fc6
I0409 21:17:29.914929 25006 net.cpp:380] fc8 -> fc8
I0409 21:17:29.922585 25006 net.cpp:122] Setting up fc8
I0409 21:17:29.922597 25006 net.cpp:129] Top shape: 32 196 (6272)
I0409 21:17:29.922602 25006 net.cpp:137] Memory required for data: 264540416
I0409 21:17:29.922610 25006 layer_factory.hpp:77] Creating layer fc8_fc8_0_split
I0409 21:17:29.922622 25006 net.cpp:84] Creating Layer fc8_fc8_0_split
I0409 21:17:29.922646 25006 net.cpp:406] fc8_fc8_0_split <- fc8
I0409 21:17:29.922653 25006 net.cpp:380] fc8_fc8_0_split -> fc8_fc8_0_split_0
I0409 21:17:29.922667 25006 net.cpp:380] fc8_fc8_0_split -> fc8_fc8_0_split_1
I0409 21:17:29.922701 25006 net.cpp:122] Setting up fc8_fc8_0_split
I0409 21:17:29.922708 25006 net.cpp:129] Top shape: 32 196 (6272)
I0409 21:17:29.922713 25006 net.cpp:129] Top shape: 32 196 (6272)
I0409 21:17:29.922716 25006 net.cpp:137] Memory required for data: 264590592
I0409 21:17:29.922721 25006 layer_factory.hpp:77] Creating layer accuracy
I0409 21:17:29.922729 25006 net.cpp:84] Creating Layer accuracy
I0409 21:17:29.922732 25006 net.cpp:406] accuracy <- fc8_fc8_0_split_0
I0409 21:17:29.922739 25006 net.cpp:406] accuracy <- label_val-data_1_split_0
I0409 21:17:29.922744 25006 net.cpp:380] accuracy -> accuracy
…
