…
I0408 14:45:56.606371 20259 net.cpp:294] The NetState phase (0) differed from the phase (1) specified by a rule in layer accuracy
I0408 14:45:56.606513 20259 net.cpp:51] Initializing net from parameters:
state {
phase: TRAIN
level: 0
stage: ""
}
layer {
name: "train-data"
type: "Data"
top: "data"
top: "label"
include {
phase: TRAIN
}
transform_param {
mirror: true
crop_size: 227
mean_file: "/mnt/bigdisk/DIGITS-MAN-2/digits/jobs/20210407-214532-d396/mean.binaryproto"
}
data_param {
source: "/mnt/bigdisk/DIGITS-MAN-2/digits/jobs/20210407-214532-d396/train_db"
batch_size: 128
backend: LMDB
}
}
layer {
name: "conv1"
type: "Convolution"
bottom: "data"
top: "conv1"
param {
lr_mult: 1
decay_mult: 1
}
param {
lr_mult: 2
decay_mult: 0
}
convolution_param {
num_output: 96
kernel_size: 11
stride: 4
weight_filler {
type: "gaussian"
std: 0.01
}
bias_filler {
type: "constant"
value: 0
}
}
}
layer {
name: "relu1"
type: "ReLU"
bottom: "conv1"
top: "conv1"
}
layer {
name: "norm1"
type: "LRN"
bottom: "conv1"
top: "norm1"
lrn_param {
local_size: 5
alpha: 0.0001
beta: 0.75
}
}
layer {
name: "pool1"
type: "Pooling"
bottom: "norm1"
top: "pool1"
pooling_param {
pool: MAX
kernel_size: 3
stride: 2
}
}
layer {
name: "conv2"
type: "Convolution"
bottom: "pool1"
top: "conv2"
param {
lr_mult: 1
decay_mult: 1
}
param {
lr_mult: 2
decay_mult: 0
}
convolution_param {
num_output: 256
pad: 2
kernel_size: 5
group: 2
weight_filler {
type: "gaussian"
std: 0.01
}
bias_filler {
type: "constant"
value: 0.1
}
}
}
layer {
name: "relu2"
type: "ReLU"
bottom: "conv2"
top: "conv2"
}
layer {
name: "norm2"
type: "LRN"
bottom: "conv2"
top: "norm2"
lrn_param {
local_size: 5
alpha: 0.0001
beta: 0.75
}
}
layer {
name: "pool2"
type: "Pooling"
bottom: "norm2"
top: "pool2"
pooling_param {
pool: MAX
kernel_size: 3
stride: 2
}
}
layer {
name: "conv3"
type: "Convolution"
bottom: "pool2"
top: "conv3"
param {
lr_mult: 1
decay_mult: 1
}
param {
lr_mult: 2
decay_mult: 0
}
convolution_param {
num_output: 384
pad: 1
kernel_size: 3
weight_filler {
type: "gaussian"
std: 0.01
}
bias_filler {
type: "constant"
value: 0
}
}
}
layer {
name: "relu3"
type: "ReLU"
bottom: "conv3"
top: "conv3"
}
layer {
name: "conv4"
type: "Convolution"
bottom: "conv3"
top: "conv4"
param {
lr_mult: 1
decay_mult: 1
}
param {
lr_mult: 2
decay_mult: 0
}
convolution_param {
num_output: 384
pad: 1
kernel_size: 3
group: 2
weight_filler {
type: "gaussian"
std: 0.01
}
bias_filler {
type: "constant"
value: 0.1
}
}
}
layer {
name: "relu4"
type: "ReLU"
bottom: "conv4"
top: "conv4"
}
layer {
name: "conv5"
type: "Convolution"
bottom: "conv4"
top: "conv5"
param {
lr_mult: 1
decay_mult: 1
}
param {
lr_mult: 2
decay_mult: 0
}
convolution_param {
num_output: 256
pad: 1
kernel_size: 3
group: 2
weight_filler {
type: "gaussian"
std: 0.01
}
bias_filler {
type: "constant"
value: 0.1
}
}
}
layer {
name: "relu5"
type: "ReLU"
bottom: "conv5"
top: "conv5"
}
layer {
name: "pool5"
type: "Pooling"
bottom: "conv5"
top: "pool5"
pooling_param {
pool: MAX
kernel_size: 3
stride: 2
}
}
layer {
name: "fc6"
type: "InnerProduct"
bottom: "pool5"
top: "fc6"
param {
lr_mult: 1
decay_mult: 1
}
param {
lr_mult: 2
decay_mult: 0
}
inner_product_param {
num_output: 4096
weight_filler {
type: "gaussian"
std: 0.005
}
bias_filler {
type: "constant"
value: 0.1
}
}
}
layer {
name: "relu6"
type: "ReLU"
bottom: "fc6"
top: "fc6"
}
layer {
name: "drop6"
type: "Dropout"
bottom: "fc6"
top: "fc6"
dropout_param {
dropout_ratio: 0.5
}
}
layer {
name: "fc7"
type: "InnerProduct"
bottom: "fc6"
top: "fc7"
param {
lr_mult: 1
decay_mult: 1
}
param {
lr_mult: 2
decay_mult: 0
}
inner_product_param {
num_output: 4096
weight_filler {
type: "gaussian"
std: 0.005
}
bias_filler {
type: "constant"
value: 0.1
}
}
}
layer {
name: "relu7"
type: "ReLU"
bottom: "fc7"
top: "fc7"
}
layer {
name: "drop7"
type: "Dropout"
bottom: "fc7"
top: "fc7"
dropout_param {
dropout_ratio: 0.5
}
}
layer {
name: "fc8"
type: "InnerProduct"
bottom: "fc7"
top: "fc8"
param {
lr_mult: 1
decay_mult: 1
}
param {
lr_mult: 2
decay_mult: 0
}
inner_product_param {
num_output: 196
weight_filler {
type: "gaussian"
std: 0.01
}
bias_filler {
type: "constant"
value: 0
}
}
}
layer {
name: "loss"
type: "SoftmaxWithLoss"
bottom: "fc8"
bottom: "label"
top: "loss"
}
I0408 14:45:56.606606 20259 layer_factory.hpp:77] Creating layer train-data
I0408 14:45:56.680151 20259 db_lmdb.cpp:35] Opened lmdb /mnt/bigdisk/DIGITS-MAN-2/digits/jobs/20210407-214532-d396/train_db
I0408 14:45:56.680335 20259 net.cpp:84] Creating Layer train-data
I0408 14:45:56.680349 20259 net.cpp:380] train-data -> data
I0408 14:45:56.680371 20259 net.cpp:380] train-data -> label
I0408 14:45:56.680384 20259 data_transformer.cpp:25] Loading mean file from: /mnt/bigdisk/DIGITS-MAN-2/digits/jobs/20210407-214532-d396/mean.binaryproto
I0408 14:45:56.685596 20259 data_layer.cpp:45] output data size: 128,3,227,227
I0408 14:45:56.826476 20259 net.cpp:122] Setting up train-data
I0408 14:45:56.826503 20259 net.cpp:129] Top shape: 128 3 227 227 (19787136)
I0408 14:45:56.826508 20259 net.cpp:129] Top shape: 128 (128)
I0408 14:45:56.826512 20259 net.cpp:137] Memory required for data: 79149056
I0408 14:45:56.826524 20259 layer_factory.hpp:77] Creating layer conv1
I0408 14:45:56.826546 20259 net.cpp:84] Creating Layer conv1
I0408 14:45:56.826553 20259 net.cpp:406] conv1 <- data
I0408 14:45:56.826566 20259 net.cpp:380] conv1 -> conv1
I0408 14:45:57.340337 20259 net.cpp:122] Setting up conv1
I0408 14:45:57.340358 20259 net.cpp:129] Top shape: 128 96 55 55 (37171200)
I0408 14:45:57.340363 20259 net.cpp:137] Memory required for data: 227833856
I0408 14:45:57.340380 20259 layer_factory.hpp:77] Creating layer relu1
I0408 14:45:57.340395 20259 net.cpp:84] Creating Layer relu1
I0408 14:45:57.340400 20259 net.cpp:406] relu1 <- conv1
I0408 14:45:57.340406 20259 net.cpp:367] relu1 -> conv1 (in-place)
I0408 14:45:57.340747 20259 net.cpp:122] Setting up relu1
I0408 14:45:57.340757 20259 net.cpp:129] Top shape: 128 96 55 55 (37171200)
I0408 14:45:57.340760 20259 net.cpp:137] Memory required for data: 376518656
I0408 14:45:57.340764 20259 layer_factory.hpp:77] Creating layer norm1
I0408 14:45:57.340773 20259 net.cpp:84] Creating Layer norm1
I0408 14:45:57.340777 20259 net.cpp:406] norm1 <- conv1
I0408 14:45:57.340802 20259 net.cpp:380] norm1 -> norm1
I0408 14:45:57.341315 20259 net.cpp:122] Setting up norm1
I0408 14:45:57.341326 20259 net.cpp:129] Top shape: 128 96 55 55 (37171200)
I0408 14:45:57.341329 20259 net.cpp:137] Memory required for data: 525203456
I0408 14:45:57.341333 20259 layer_factory.hpp:77] Creating layer pool1
I0408 14:45:57.341341 20259 net.cpp:84] Creating Layer pool1
I0408 14:45:57.341346 20259 net.cpp:406] pool1 <- norm1
I0408 14:45:57.341351 20259 net.cpp:380] pool1 -> pool1
I0408 14:45:57.341389 20259 net.cpp:122] Setting up pool1
I0408 14:45:57.341395 20259 net.cpp:129] Top shape: 128 96 27 27 (8957952)
I0408 14:45:57.341398 20259 net.cpp:137] Memory required for data: 561035264
I0408 14:45:57.341403 20259 layer_factory.hpp:77] Creating layer conv2
I0408 14:45:57.341413 20259 net.cpp:84] Creating Layer conv2
I0408 14:45:57.341416 20259 net.cpp:406] conv2 <- pool1
I0408 14:45:57.341423 20259 net.cpp:380] conv2 -> conv2
I0408 14:45:57.348498 20259 net.cpp:122] Setting up conv2
I0408 14:45:57.348510 20259 net.cpp:129] Top shape: 128 256 27 27 (23887872)
I0408 14:45:57.348513 20259 net.cpp:137] Memory required for data: 656586752
I0408 14:45:57.348521 20259 layer_factory.hpp:77] Creating layer relu2
I0408 14:45:57.348529 20259 net.cpp:84] Creating Layer relu2
I0408 14:45:57.348533 20259 net.cpp:406] relu2 <- conv2
I0408 14:45:57.348538 20259 net.cpp:367] relu2 -> conv2 (in-place)
I0408 14:45:57.349035 20259 net.cpp:122] Setting up relu2
I0408 14:45:57.349045 20259 net.cpp:129] Top shape: 128 256 27 27 (23887872)
I0408 14:45:57.349048 20259 net.cpp:137] Memory required for data: 752138240
I0408 14:45:57.349051 20259 layer_factory.hpp:77] Creating layer norm2
I0408 14:45:57.349058 20259 net.cpp:84] Creating Layer norm2
I0408 14:45:57.349061 20259 net.cpp:406] norm2 <- conv2
I0408 14:45:57.349068 20259 net.cpp:380] norm2 -> norm2
I0408 14:45:57.349419 20259 net.cpp:122] Setting up norm2
I0408 14:45:57.349427 20259 net.cpp:129] Top shape: 128 256 27 27 (23887872)
I0408 14:45:57.349431 20259 net.cpp:137] Memory required for data: 847689728
I0408 14:45:57.349434 20259 layer_factory.hpp:77] Creating layer pool2
I0408 14:45:57.349443 20259 net.cpp:84] Creating Layer pool2
I0408 14:45:57.349447 20259 net.cpp:406] pool2 <- norm2
I0408 14:45:57.349452 20259 net.cpp:380] pool2 -> pool2
I0408 14:45:57.349480 20259 net.cpp:122] Setting up pool2
I0408 14:45:57.349485 20259 net.cpp:129] Top shape: 128 256 13 13 (5537792)
I0408 14:45:57.349489 20259 net.cpp:137] Memory required for data: 869840896
I0408 14:45:57.349493 20259 layer_factory.hpp:77] Creating layer conv3
I0408 14:45:57.349501 20259 net.cpp:84] Creating Layer conv3
I0408 14:45:57.349504 20259 net.cpp:406] conv3 <- pool2
I0408 14:45:57.349511 20259 net.cpp:380] conv3 -> conv3
I0408 14:45:57.359480 20259 net.cpp:122] Setting up conv3
I0408 14:45:57.359491 20259 net.cpp:129] Top shape: 128 384 13 13 (8306688)
I0408 14:45:57.359495 20259 net.cpp:137] Memory required for data: 903067648
I0408 14:45:57.359505 20259 layer_factory.hpp:77] Creating layer relu3
I0408 14:45:57.359513 20259 net.cpp:84] Creating Layer relu3
I0408 14:45:57.359516 20259 net.cpp:406] relu3 <- conv3
I0408 14:45:57.359521 20259 net.cpp:367] relu3 -> conv3 (in-place)
I0408 14:45:57.360008 20259 net.cpp:122] Setting up relu3
I0408 14:45:57.360018 20259 net.cpp:129] Top shape: 128 384 13 13 (8306688)
I0408 14:45:57.360023 20259 net.cpp:137] Memory required for data: 936294400
I0408 14:45:57.360026 20259 layer_factory.hpp:77] Creating layer conv4
I0408 14:45:57.360035 20259 net.cpp:84] Creating Layer conv4
I0408 14:45:57.360039 20259 net.cpp:406] conv4 <- conv3
I0408 14:45:57.360045 20259 net.cpp:380] conv4 -> conv4
I0408 14:45:57.370448 20259 net.cpp:122] Setting up conv4
I0408 14:45:57.370460 20259 net.cpp:129] Top shape: 128 384 13 13 (8306688)
I0408 14:45:57.370463 20259 net.cpp:137] Memory required for data: 969521152
I0408 14:45:57.370471 20259 layer_factory.hpp:77] Creating layer relu4
I0408 14:45:57.370478 20259 net.cpp:84] Creating Layer relu4
I0408 14:45:57.370498 20259 net.cpp:406] relu4 <- conv4
I0408 14:45:57.370504 20259 net.cpp:367] relu4 -> conv4 (in-place)
I0408 14:45:57.370842 20259 net.cpp:122] Setting up relu4
I0408 14:45:57.370851 20259 net.cpp:129] Top shape: 128 384 13 13 (8306688)
I0408 14:45:57.370854 20259 net.cpp:137] Memory required for data: 1002747904
I0408 14:45:57.370857 20259 layer_factory.hpp:77] Creating layer conv5
I0408 14:45:57.370867 20259 net.cpp:84] Creating Layer conv5
I0408 14:45:57.370872 20259 net.cpp:406] conv5 <- conv4
I0408 14:45:57.370877 20259 net.cpp:380] conv5 -> conv5
I0408 14:45:57.379165 20259 net.cpp:122] Setting up conv5
I0408 14:45:57.379176 20259 net.cpp:129] Top shape: 128 256 13 13 (5537792)
I0408 14:45:57.379179 20259 net.cpp:137] Memory required for data: 1024899072
I0408 14:45:57.379189 20259 layer_factory.hpp:77] Creating layer relu5
I0408 14:45:57.379196 20259 net.cpp:84] Creating Layer relu5
I0408 14:45:57.379200 20259 net.cpp:406] relu5 <- conv5
I0408 14:45:57.379205 20259 net.cpp:367] relu5 -> conv5 (in-place)
I0408 14:45:57.379686 20259 net.cpp:122] Setting up relu5
I0408 14:45:57.379698 20259 net.cpp:129] Top shape: 128 256 13 13 (5537792)
I0408 14:45:57.379700 20259 net.cpp:137] Memory required for data: 1047050240
I0408 14:45:57.379704 20259 layer_factory.hpp:77] Creating layer pool5
I0408 14:45:57.379711 20259 net.cpp:84] Creating Layer pool5
I0408 14:45:57.379715 20259 net.cpp:406] pool5 <- conv5
I0408 14:45:57.379720 20259 net.cpp:380] pool5 -> pool5
I0408 14:45:57.379757 20259 net.cpp:122] Setting up pool5
I0408 14:45:57.379763 20259 net.cpp:129] Top shape: 128 256 6 6 (1179648)
I0408 14:45:57.379766 20259 net.cpp:137] Memory required for data: 1051768832
I0408 14:45:57.379770 20259 layer_factory.hpp:77] Creating layer fc6
I0408 14:45:57.379779 20259 net.cpp:84] Creating Layer fc6
I0408 14:45:57.379782 20259 net.cpp:406] fc6 <- pool5
I0408 14:45:57.379789 20259 net.cpp:380] fc6 -> fc6
I0408 14:45:57.731482 20259 net.cpp:122] Setting up fc6
I0408 14:45:57.731501 20259 net.cpp:129] Top shape: 128 4096 (524288)
I0408 14:45:57.731505 20259 net.cpp:137] Memory required for data: 1053865984
I0408 14:45:57.731515 20259 layer_factory.hpp:77] Creating layer relu6
I0408 14:45:57.731524 20259 net.cpp:84] Creating Layer relu6
I0408 14:45:57.731529 20259 net.cpp:406] relu6 <- fc6
I0408 14:45:57.731536 20259 net.cpp:367] relu6 -> fc6 (in-place)
I0408 14:45:57.732173 20259 net.cpp:122] Setting up relu6
I0408 14:45:57.732183 20259 net.cpp:129] Top shape: 128 4096 (524288)
I0408 14:45:57.732187 20259 net.cpp:137] Memory required for data: 1055963136
I0408 14:45:57.732190 20259 layer_factory.hpp:77] Creating layer drop6
I0408 14:45:57.732196 20259 net.cpp:84] Creating Layer drop6
I0408 14:45:57.732199 20259 net.cpp:406] drop6 <- fc6
I0408 14:45:57.732206 20259 net.cpp:367] drop6 -> fc6 (in-place)
I0408 14:45:57.732234 20259 net.cpp:122] Setting up drop6
I0408 14:45:57.732239 20259 net.cpp:129] Top shape: 128 4096 (524288)
I0408 14:45:57.732242 20259 net.cpp:137] Memory required for data: 1058060288
I0408 14:45:57.732245 20259 layer_factory.hpp:77] Creating layer fc7
I0408 14:45:57.732252 20259 net.cpp:84] Creating Layer fc7
I0408 14:45:57.732255 20259 net.cpp:406] fc7 <- fc6
I0408 14:45:57.732261 20259 net.cpp:380] fc7 -> fc7
I0408 14:45:57.888497 20259 net.cpp:122] Setting up fc7
I0408 14:45:57.888518 20259 net.cpp:129] Top shape: 128 4096 (524288)
I0408 14:45:57.888522 20259 net.cpp:137] Memory required for data: 1060157440
I0408 14:45:57.888532 20259 layer_factory.hpp:77] Creating layer relu7
I0408 14:45:57.888541 20259 net.cpp:84] Creating Layer relu7
I0408 14:45:57.888545 20259 net.cpp:406] relu7 <- fc7
I0408 14:45:57.888552 20259 net.cpp:367] relu7 -> fc7 (in-place)
I0408 14:45:57.889185 20259 net.cpp:122] Setting up relu7
I0408 14:45:57.889195 20259 net.cpp:129] Top shape: 128 4096 (524288)
I0408 14:45:57.889199 20259 net.cpp:137] Memory required for data: 1062254592
I0408 14:45:57.889204 20259 layer_factory.hpp:77] Creating layer drop7
I0408 14:45:57.889209 20259 net.cpp:84] Creating Layer drop7
I0408 14:45:57.889230 20259 net.cpp:406] drop7 <- fc7
I0408 14:45:57.889237 20259 net.cpp:367] drop7 -> fc7 (in-place)
I0408 14:45:57.889261 20259 net.cpp:122] Setting up drop7
I0408 14:45:57.889266 20259 net.cpp:129] Top shape: 128 4096 (524288)
I0408 14:45:57.889269 20259 net.cpp:137] Memory required for data: 1064351744
I0408 14:45:57.889272 20259 layer_factory.hpp:77] Creating layer fc8
I0408 14:45:57.889281 20259 net.cpp:84] Creating Layer fc8
I0408 14:45:57.889284 20259 net.cpp:406] fc8 <- fc7
I0408 14:45:57.889290 20259 net.cpp:380] fc8 -> fc8
I0408 14:45:57.896905 20259 net.cpp:122] Setting up fc8
I0408 14:45:57.896914 20259 net.cpp:129] Top shape: 128 196 (25088)
I0408 14:45:57.896919 20259 net.cpp:137] Memory required for data: 1064452096
I0408 14:45:57.896924 20259 layer_factory.hpp:77] Creating layer loss
I0408 14:45:57.896930 20259 net.cpp:84] Creating Layer loss
I0408 14:45:57.896934 20259 net.cpp:406] loss <- fc8
I0408 14:45:57.896939 20259 net.cpp:406] loss <- label
I0408 14:45:57.896946 20259 net.cpp:380] loss -> loss
I0408 14:45:57.896955 20259 layer_factory.hpp:77] Creating layer loss
…
I0408 14:45:57.898842 20259 net.cpp:294] The NetState phase (1) differed from the phase (0) specified by a rule in layer train-data
I0408 14:45:57.898979 20259 net.cpp:51] Initializing net from parameters:
state {
phase: TEST
}
layer {
name: "val-data"
type: "Data"
top: "data"
top: "label"
include {
phase: TEST
}
transform_param {
crop_size: 227
mean_file: "/mnt/bigdisk/DIGITS-MAN-2/digits/jobs/20210407-214532-d396/mean.binaryproto"
}
data_param {
source: "/mnt/bigdisk/DIGITS-MAN-2/digits/jobs/20210407-214532-d396/val_db"
batch_size: 32
backend: LMDB
}
}
layer {
name: "conv1"
type: "Convolution"
bottom: "data"
top: "conv1"
param {
lr_mult: 1
decay_mult: 1
}
param {
lr_mult: 2
decay_mult: 0
}
convolution_param {
num_output: 96
kernel_size: 11
stride: 4
weight_filler {
type: "gaussian"
std: 0.01
}
bias_filler {
type: "constant"
value: 0
}
}
}
layer {
name: "relu1"
type: "ReLU"
bottom: "conv1"
top: "conv1"
}
layer {
name: "norm1"
type: "LRN"
bottom: "conv1"
top: "norm1"
lrn_param {
local_size: 5
alpha: 0.0001
beta: 0.75
}
}
layer {
name: "pool1"
type: "Pooling"
bottom: "norm1"
top: "pool1"
pooling_param {
pool: MAX
kernel_size: 3
stride: 2
}
}
layer {
name: "conv2"
type: "Convolution"
bottom: "pool1"
top: "conv2"
param {
lr_mult: 1
decay_mult: 1
}
param {
lr_mult: 2
decay_mult: 0
}
convolution_param {
num_output: 256
pad: 2
kernel_size: 5
group: 2
weight_filler {
type: "gaussian"
std: 0.01
}
bias_filler {
type: "constant"
value: 0.1
}
}
}
layer {
name: "relu2"
type: "ReLU"
bottom: "conv2"
top: "conv2"
}
layer {
name: "norm2"
type: "LRN"
bottom: "conv2"
top: "norm2"
lrn_param {
local_size: 5
alpha: 0.0001
beta: 0.75
}
}
layer {
name: "pool2"
type: "Pooling"
bottom: "norm2"
top: "pool2"
pooling_param {
pool: MAX
kernel_size: 3
stride: 2
}
}
layer {
name: "conv3"
type: "Convolution"
bottom: "pool2"
top: "conv3"
param {
lr_mult: 1
decay_mult: 1
}
param {
lr_mult: 2
decay_mult: 0
}
convolution_param {
num_output: 384
pad: 1
kernel_size: 3
weight_filler {
type: "gaussian"
std: 0.01
}
bias_filler {
type: "constant"
value: 0
}
}
}
layer {
name: "relu3"
type: "ReLU"
bottom: "conv3"
top: "conv3"
}
layer {
name: "conv4"
type: "Convolution"
bottom: "conv3"
top: "conv4"
param {
lr_mult: 1
decay_mult: 1
}
param {
lr_mult: 2
decay_mult: 0
}
convolution_param {
num_output: 384
pad: 1
kernel_size: 3
group: 2
weight_filler {
type: "gaussian"
std: 0.01
}
bias_filler {
type: "constant"
value: 0.1
}
}
}
layer {
name: "relu4"
type: "ReLU"
bottom: "conv4"
top: "conv4"
}
layer {
name: "conv5"
type: "Convolution"
bottom: "conv4"
top: "conv5"
param {
lr_mult: 1
decay_mult: 1
}
param {
lr_mult: 2
decay_mult: 0
}
convolution_param {
num_output: 256
pad: 1
kernel_size: 3
group: 2
weight_filler {
type: "gaussian"
std: 0.01
}
bias_filler {
type: "constant"
value: 0.1
}
}
}
layer {
name: "relu5"
type: "ReLU"
bottom: "conv5"
top: "conv5"
}
layer {
name: "pool5"
type: "Pooling"
bottom: "conv5"
top: "pool5"
pooling_param {
pool: MAX
kernel_size: 3
stride: 2
}
}
layer {
name: "fc6"
type: "InnerProduct"
bottom: "pool5"
top: "fc6"
param {
lr_mult: 1
decay_mult: 1
}
param {
lr_mult: 2
decay_mult: 0
}
inner_product_param {
num_output: 4096
weight_filler {
type: "gaussian"
std: 0.005
}
bias_filler {
type: "constant"
value: 0.1
}
}
}
layer {
name: "relu6"
type: "ReLU"
bottom: "fc6"
top: "fc6"
}
layer {
name: "drop6"
type: "Dropout"
bottom: "fc6"
top: "fc6"
dropout_param {
dropout_ratio: 0.5
}
}
layer {
name: "fc7"
type: "InnerProduct"
bottom: "fc6"
top: "fc7"
param {
lr_mult: 1
decay_mult: 1
}
param {
lr_mult: 2
decay_mult: 0
}
inner_product_param {
num_output: 4096
weight_filler {
type: "gaussian"
std: 0.005
}
bias_filler {
type: "constant"
value: 0.1
}
}
}
layer {
name: "relu7"
type: "ReLU"
bottom: "fc7"
top: "fc7"
}
layer {
name: "drop7"
type: "Dropout"
bottom: "fc7"
top: "fc7"
dropout_param {
dropout_ratio: 0.5
}
}
layer {
name: "fc8"
type: "InnerProduct"
bottom: "fc7"
top: "fc8"
param {
lr_mult: 1
decay_mult: 1
}
param {
lr_mult: 2
decay_mult: 0
}
inner_product_param {
num_output: 196
weight_filler {
type: "gaussian"
std: 0.01
}
bias_filler {
type: "constant"
value: 0
}
}
}
layer {
name: "accuracy"
type: "Accuracy"
bottom: "fc8"
bottom: "label"
top: "accuracy"
include {
phase: TEST
}
}
layer {
name: "loss"
type: "SoftmaxWithLoss"
bottom: "fc8"
bottom: "label"
top: "loss"
}
I0408 14:45:57.899075 20259 layer_factory.hpp:77] Creating layer val-data
I0408 14:45:57.910606 20259 db_lmdb.cpp:35] Opened lmdb /mnt/bigdisk/DIGITS-MAN-2/digits/jobs/20210407-214532-d396/val_db
I0408 14:45:57.911365 20259 net.cpp:84] Creating Layer val-data
I0408 14:45:57.911373 20259 net.cpp:380] val-data -> data
I0408 14:45:57.911381 20259 net.cpp:380] val-data -> label
I0408 14:45:57.911388 20259 data_transformer.cpp:25] Loading mean file from: /mnt/bigdisk/DIGITS-MAN-2/digits/jobs/20210407-214532-d396/mean.binaryproto
I0408 14:45:57.915943 20259 data_layer.cpp:45] output data size: 32,3,227,227
I0408 14:45:57.945870 20259 net.cpp:122] Setting up val-data
I0408 14:45:57.945892 20259 net.cpp:129] Top shape: 32 3 227 227 (4946784)
I0408 14:45:57.945897 20259 net.cpp:129] Top shape: 32 (32)
I0408 14:45:57.945900 20259 net.cpp:137] Memory required for data: 19787264
I0408 14:45:57.945906 20259 layer_factory.hpp:77] Creating layer label_val-data_1_split
I0408 14:45:57.945919 20259 net.cpp:84] Creating Layer label_val-data_1_split
I0408 14:45:57.945922 20259 net.cpp:406] label_val-data_1_split <- label
I0408 14:45:57.945930 20259 net.cpp:380] label_val-data_1_split -> label_val-data_1_split_0
I0408 14:45:57.945940 20259 net.cpp:380] label_val-data_1_split -> label_val-data_1_split_1
I0408 14:45:57.945987 20259 net.cpp:122] Setting up label_val-data_1_split
I0408 14:45:57.945993 20259 net.cpp:129] Top shape: 32 (32)
I0408 14:45:57.945996 20259 net.cpp:129] Top shape: 32 (32)
I0408 14:45:57.945999 20259 net.cpp:137] Memory required for data: 19787520
I0408 14:45:57.946003 20259 layer_factory.hpp:77] Creating layer conv1
I0408 14:45:57.946015 20259 net.cpp:84] Creating Layer conv1
I0408 14:45:57.946018 20259 net.cpp:406] conv1 <- data
I0408 14:45:57.946024 20259 net.cpp:380] conv1 -> conv1
I0408 14:45:57.948081 20259 net.cpp:122] Setting up conv1
I0408 14:45:57.948091 20259 net.cpp:129] Top shape: 32 96 55 55 (9292800)
I0408 14:45:57.948094 20259 net.cpp:137] Memory required for data: 56958720
I0408 14:45:57.948105 20259 layer_factory.hpp:77] Creating layer relu1
I0408 14:45:57.948112 20259 net.cpp:84] Creating Layer relu1
I0408 14:45:57.948115 20259 net.cpp:406] relu1 <- conv1
I0408 14:45:57.948120 20259 net.cpp:367] relu1 -> conv1 (in-place)
I0408 14:45:57.948410 20259 net.cpp:122] Setting up relu1
I0408 14:45:57.948417 20259 net.cpp:129] Top shape: 32 96 55 55 (9292800)
I0408 14:45:57.948421 20259 net.cpp:137] Memory required for data: 94129920
I0408 14:45:57.948424 20259 layer_factory.hpp:77] Creating layer norm1
I0408 14:45:57.948432 20259 net.cpp:84] Creating Layer norm1
I0408 14:45:57.948436 20259 net.cpp:406] norm1 <- conv1
I0408 14:45:57.948441 20259 net.cpp:380] norm1 -> norm1
I0408 14:45:57.948894 20259 net.cpp:122] Setting up norm1
I0408 14:45:57.948904 20259 net.cpp:129] Top shape: 32 96 55 55 (9292800)
I0408 14:45:57.948907 20259 net.cpp:137] Memory required for data: 131301120
I0408 14:45:57.948910 20259 layer_factory.hpp:77] Creating layer pool1
I0408 14:45:57.948918 20259 net.cpp:84] Creating Layer pool1
I0408 14:45:57.948921 20259 net.cpp:406] pool1 <- norm1
I0408 14:45:57.948926 20259 net.cpp:380] pool1 -> pool1
I0408 14:45:57.948956 20259 net.cpp:122] Setting up pool1
I0408 14:45:57.948961 20259 net.cpp:129] Top shape: 32 96 27 27 (2239488)
I0408 14:45:57.948963 20259 net.cpp:137] Memory required for data: 140259072
I0408 14:45:57.948966 20259 layer_factory.hpp:77] Creating layer conv2
I0408 14:45:57.948974 20259 net.cpp:84] Creating Layer conv2
I0408 14:45:57.948978 20259 net.cpp:406] conv2 <- pool1
I0408 14:45:57.949002 20259 net.cpp:380] conv2 -> conv2
I0408 14:45:57.957722 20259 net.cpp:122] Setting up conv2
I0408 14:45:57.957736 20259 net.cpp:129] Top shape: 32 256 27 27 (5971968)
I0408 14:45:57.957741 20259 net.cpp:137] Memory required for data: 164146944
I0408 14:45:57.957749 20259 layer_factory.hpp:77] Creating layer relu2
I0408 14:45:57.957756 20259 net.cpp:84] Creating Layer relu2
I0408 14:45:57.957759 20259 net.cpp:406] relu2 <- conv2
I0408 14:45:57.957765 20259 net.cpp:367] relu2 -> conv2 (in-place)
I0408 14:45:57.958281 20259 net.cpp:122] Setting up relu2
I0408 14:45:57.958290 20259 net.cpp:129] Top shape: 32 256 27 27 (5971968)
I0408 14:45:57.958294 20259 net.cpp:137] Memory required for data: 188034816
I0408 14:45:57.958298 20259 layer_factory.hpp:77] Creating layer norm2
I0408 14:45:57.958307 20259 net.cpp:84] Creating Layer norm2
I0408 14:45:57.958310 20259 net.cpp:406] norm2 <- conv2
I0408 14:45:57.958317 20259 net.cpp:380] norm2 -> norm2
I0408 14:45:57.958835 20259 net.cpp:122] Setting up norm2
I0408 14:45:57.958844 20259 net.cpp:129] Top shape: 32 256 27 27 (5971968)
I0408 14:45:57.958848 20259 net.cpp:137] Memory required for data: 211922688
I0408 14:45:57.958853 20259 layer_factory.hpp:77] Creating layer pool2
I0408 14:45:57.958858 20259 net.cpp:84] Creating Layer pool2
I0408 14:45:57.958863 20259 net.cpp:406] pool2 <- norm2
I0408 14:45:57.958869 20259 net.cpp:380] pool2 -> pool2
I0408 14:45:57.958899 20259 net.cpp:122] Setting up pool2
I0408 14:45:57.958904 20259 net.cpp:129] Top shape: 32 256 13 13 (1384448)
I0408 14:45:57.958909 20259 net.cpp:137] Memory required for data: 217460480
I0408 14:45:57.958911 20259 layer_factory.hpp:77] Creating layer conv3
I0408 14:45:57.958920 20259 net.cpp:84] Creating Layer conv3
I0408 14:45:57.958923 20259 net.cpp:406] conv3 <- pool2
I0408 14:45:57.958930 20259 net.cpp:380] conv3 -> conv3
I0408 14:45:57.969745 20259 net.cpp:122] Setting up conv3
I0408 14:45:57.969758 20259 net.cpp:129] Top shape: 32 384 13 13 (2076672)
I0408 14:45:57.969763 20259 net.cpp:137] Memory required for data: 225767168
I0408 14:45:57.969772 20259 layer_factory.hpp:77] Creating layer relu3
I0408 14:45:57.969779 20259 net.cpp:84] Creating Layer relu3
I0408 14:45:57.969784 20259 net.cpp:406] relu3 <- conv3
I0408 14:45:57.969789 20259 net.cpp:367] relu3 -> conv3 (in-place)
I0408 14:45:57.970307 20259 net.cpp:122] Setting up relu3
I0408 14:45:57.970316 20259 net.cpp:129] Top shape: 32 384 13 13 (2076672)
I0408 14:45:57.970320 20259 net.cpp:137] Memory required for data: 234073856
I0408 14:45:57.970324 20259 layer_factory.hpp:77] Creating layer conv4
I0408 14:45:57.970335 20259 net.cpp:84] Creating Layer conv4
I0408 14:45:57.970338 20259 net.cpp:406] conv4 <- conv3
I0408 14:45:57.970345 20259 net.cpp:380] conv4 -> conv4
I0408 14:45:57.981468 20259 net.cpp:122] Setting up conv4
I0408 14:45:57.981479 20259 net.cpp:129] Top shape: 32 384 13 13 (2076672)
I0408 14:45:57.981483 20259 net.cpp:137] Memory required for data: 242380544
I0408 14:45:57.981492 20259 layer_factory.hpp:77] Creating layer relu4
I0408 14:45:57.981498 20259 net.cpp:84] Creating Layer relu4
I0408 14:45:57.981503 20259 net.cpp:406] relu4 <- conv4
I0408 14:45:57.981509 20259 net.cpp:367] relu4 -> conv4 (in-place)
I0408 14:45:57.981850 20259 net.cpp:122] Setting up relu4
I0408 14:45:57.981859 20259 net.cpp:129] Top shape: 32 384 13 13 (2076672)
I0408 14:45:57.981864 20259 net.cpp:137] Memory required for data: 250687232
I0408 14:45:57.981868 20259 layer_factory.hpp:77] Creating layer conv5
I0408 14:45:57.981878 20259 net.cpp:84] Creating Layer conv5
I0408 14:45:57.981881 20259 net.cpp:406] conv5 <- conv4
I0408 14:45:57.981887 20259 net.cpp:380] conv5 -> conv5
I0408 14:45:57.997766 20259 net.cpp:122] Setting up conv5
I0408 14:45:57.997778 20259 net.cpp:129] Top shape: 32 256 13 13 (1384448)
I0408 14:45:57.997782 20259 net.cpp:137] Memory required for data: 256225024
I0408 14:45:57.997793 20259 layer_factory.hpp:77] Creating layer relu5
I0408 14:45:57.997800 20259 net.cpp:84] Creating Layer relu5
I0408 14:45:57.997803 20259 net.cpp:406] relu5 <- conv5
I0408 14:45:57.997825 20259 net.cpp:367] relu5 -> conv5 (in-place)
I0408 14:45:57.998327 20259 net.cpp:122] Setting up relu5
I0408 14:45:57.998337 20259 net.cpp:129] Top shape: 32 256 13 13 (1384448)
I0408 14:45:57.998339 20259 net.cpp:137] Memory required for data: 261762816
I0408 14:45:57.998343 20259 layer_factory.hpp:77] Creating layer pool5
I0408 14:45:57.998354 20259 net.cpp:84] Creating Layer pool5
I0408 14:45:57.998358 20259 net.cpp:406] pool5 <- conv5
I0408 14:45:57.998363 20259 net.cpp:380] pool5 -> pool5
I0408 14:45:57.998404 20259 net.cpp:122] Setting up pool5
I0408 14:45:57.998410 20259 net.cpp:129] Top shape: 32 256 6 6 (294912)
I0408 14:45:57.998414 20259 net.cpp:137] Memory required for data: 262942464
I0408 14:45:57.998416 20259 layer_factory.hpp:77] Creating layer fc6
I0408 14:45:57.998425 20259 net.cpp:84] Creating Layer fc6
I0408 14:45:57.998428 20259 net.cpp:406] fc6 <- pool5
I0408 14:45:57.998433 20259 net.cpp:380] fc6 -> fc6
I0408 14:45:58.349989 20259 net.cpp:122] Setting up fc6
I0408 14:45:58.350009 20259 net.cpp:129] Top shape: 32 4096 (131072)
I0408 14:45:58.350013 20259 net.cpp:137] Memory required for data: 263466752
I0408 14:45:58.350023 20259 layer_factory.hpp:77] Creating layer relu6
I0408 14:45:58.350031 20259 net.cpp:84] Creating Layer relu6
I0408 14:45:58.350035 20259 net.cpp:406] relu6 <- fc6
I0408 14:45:58.350044 20259 net.cpp:367] relu6 -> fc6 (in-place)
I0408 14:45:58.350894 20259 net.cpp:122] Setting up relu6
I0408 14:45:58.350903 20259 net.cpp:129] Top shape: 32 4096 (131072)
I0408 14:45:58.350908 20259 net.cpp:137] Memory required for data: 263991040
I0408 14:45:58.350910 20259 layer_factory.hpp:77] Creating layer drop6
I0408 14:45:58.350917 20259 net.cpp:84] Creating Layer drop6
I0408 14:45:58.350920 20259 net.cpp:406] drop6 <- fc6
I0408 14:45:58.350927 20259 net.cpp:367] drop6 -> fc6 (in-place)
I0408 14:45:58.350951 20259 net.cpp:122] Setting up drop6
I0408 14:45:58.350956 20259 net.cpp:129] Top shape: 32 4096 (131072)
I0408 14:45:58.350960 20259 net.cpp:137] Memory required for data: 264515328
I0408 14:45:58.350962 20259 layer_factory.hpp:77] Creating layer fc7
I0408 14:45:58.350972 20259 net.cpp:84] Creating Layer fc7
I0408 14:45:58.350975 20259 net.cpp:406] fc7 <- fc6
I0408 14:45:58.350982 20259 net.cpp:380] fc7 -> fc7
I0408 14:45:58.507237 20259 net.cpp:122] Setting up fc7
I0408 14:45:58.507261 20259 net.cpp:129] Top shape: 32 4096 (131072)
I0408 14:45:58.507264 20259 net.cpp:137] Memory required for data: 265039616
I0408 14:45:58.507273 20259 layer_factory.hpp:77] Creating layer relu7
I0408 14:45:58.507283 20259 net.cpp:84] Creating Layer relu7
I0408 14:45:58.507287 20259 net.cpp:406] relu7 <- fc7
I0408 14:45:58.507295 20259 net.cpp:367] relu7 -> fc7 (in-place)
I0408 14:45:58.507721 20259 net.cpp:122] Setting up relu7
I0408 14:45:58.507730 20259 net.cpp:129] Top shape: 32 4096 (131072)
I0408 14:45:58.507735 20259 net.cpp:137] Memory required for data: 265563904
I0408 14:45:58.507737 20259 layer_factory.hpp:77] Creating layer drop7
I0408 14:45:58.507745 20259 net.cpp:84] Creating Layer drop7
I0408 14:45:58.507747 20259 net.cpp:406] drop7 <- fc7
I0408 14:45:58.507753 20259 net.cpp:367] drop7 -> fc7 (in-place)
I0408 14:45:58.507776 20259 net.cpp:122] Setting up drop7
I0408 14:45:58.507781 20259 net.cpp:129] Top shape: 32 4096 (131072)
I0408 14:45:58.507784 20259 net.cpp:137] Memory required for data: 266088192
I0408 14:45:58.507787 20259 layer_factory.hpp:77] Creating layer fc8
I0408 14:45:58.507797 20259 net.cpp:84] Creating Layer fc8
I0408 14:45:58.507799 20259 net.cpp:406] fc8 <- fc7
I0408 14:45:58.507805 20259 net.cpp:380] fc8 -> fc8
I0408 14:45:58.515491 20259 net.cpp:122] Setting up fc8
I0408 14:45:58.515501 20259 net.cpp:129] Top shape: 32 196 (6272)
I0408 14:45:58.515504 20259 net.cpp:137] Memory required for data: 266113280
I0408 14:45:58.515511 20259 layer_factory.hpp:77] Creating layer fc8_fc8_0_split
I0408 14:45:58.515518 20259 net.cpp:84] Creating Layer fc8_fc8_0_split
I0408 14:45:58.515522 20259 net.cpp:406] fc8_fc8_0_split <- fc8
I0408 14:45:58.515544 20259 net.cpp:380] fc8_fc8_0_split -> fc8_fc8_0_split_0
I0408 14:45:58.515552 20259 net.cpp:380] fc8_fc8_0_split -> fc8_fc8_0_split_1
I0408 14:45:58.515584 20259 net.cpp:122] Setting up fc8_fc8_0_split
I0408 14:45:58.515589 20259 net.cpp:129] Top shape: 32 196 (6272)
I0408 14:45:58.515592 20259 net.cpp:129] Top shape: 32 196 (6272)
I0408 14:45:58.515595 20259 net.cpp:137] Memory required for data: 266163456
I0408 14:45:58.515599 20259 layer_factory.hpp:77] Creating layer accuracy
I0408 14:45:58.515605 20259 net.cpp:84] Creating Layer accuracy
I0408 14:45:58.515609 20259 net.cpp:406] accuracy <- fc8_fc8_0_split_0
I0408 14:45:58.515614 20259 net.cpp:406] accuracy <- label_val-data_1_split_0
I0408 14:45:58.515619 20259 net.cpp:380] accuracy -> accuracy
…
