…
I0425 09:43:30.509191 23439 net.cpp:294] The NetState phase (0) differed from the phase (1) specified by a rule in layer accuracy
I0425 09:43:30.509341 23439 net.cpp:51] Initializing net from parameters:
state {
phase: TRAIN
level: 0
stage: ""
}
layer {
name: "train-data"
type: "Data"
top: "data"
top: "label"
include {
phase: TRAIN
}
transform_param {
mirror: true
crop_size: 227
mean_file: "/mnt/bigdisk/DIGITS-MAN-3/digits/jobs/20210421-230320-902c/mean.binaryproto"
}
data_param {
source: "/mnt/bigdisk/DIGITS-MAN-3/digits/jobs/20210421-230320-902c/train_db"
batch_size: 128
backend: LMDB
}
}
layer {
name: "conv1"
type: "Convolution"
bottom: "data"
top: "conv1"
param {
lr_mult: 1
decay_mult: 1
}
param {
lr_mult: 2
decay_mult: 0
}
convolution_param {
num_output: 96
kernel_size: 11
stride: 4
weight_filler {
type: "gaussian"
std: 0.01
}
bias_filler {
type: "constant"
value: 0
}
}
}
layer {
name: "relu1"
type: "ReLU"
bottom: "conv1"
top: "conv1"
}
layer {
name: "norm1"
type: "LRN"
bottom: "conv1"
top: "norm1"
lrn_param {
local_size: 5
alpha: 0.0001
beta: 0.75
}
}
layer {
name: "pool1"
type: "Pooling"
bottom: "norm1"
top: "pool1"
pooling_param {
pool: MAX
kernel_size: 3
stride: 2
}
}
layer {
name: "conv2"
type: "Convolution"
bottom: "pool1"
top: "conv2"
param {
lr_mult: 1
decay_mult: 1
}
param {
lr_mult: 2
decay_mult: 0
}
convolution_param {
num_output: 256
pad: 2
kernel_size: 5
group: 2
weight_filler {
type: "gaussian"
std: 0.01
}
bias_filler {
type: "constant"
value: 0.1
}
}
}
layer {
name: "relu2"
type: "ReLU"
bottom: "conv2"
top: "conv2"
}
layer {
name: "norm2"
type: "LRN"
bottom: "conv2"
top: "norm2"
lrn_param {
local_size: 5
alpha: 0.0001
beta: 0.75
}
}
layer {
name: "pool2"
type: "Pooling"
bottom: "norm2"
top: "pool2"
pooling_param {
pool: MAX
kernel_size: 3
stride: 2
}
}
layer {
name: "conv3"
type: "Convolution"
bottom: "pool2"
top: "conv3"
param {
lr_mult: 1
decay_mult: 1
}
param {
lr_mult: 2
decay_mult: 0
}
convolution_param {
num_output: 384
pad: 1
kernel_size: 9
weight_filler {
type: "gaussian"
std: 0.01
}
bias_filler {
type: "constant"
value: 0
}
}
}
layer {
name: "relu3"
type: "ReLU"
bottom: "conv3"
top: "conv3"
}
layer {
name: "conv4"
type: "Convolution"
bottom: "conv3"
top: "conv4"
param {
lr_mult: 1
decay_mult: 1
}
param {
lr_mult: 2
decay_mult: 0
}
convolution_param {
num_output: 384
pad: 1
kernel_size: 3
group: 2
weight_filler {
type: "gaussian"
std: 0.01
}
bias_filler {
type: "constant"
value: 0.1
}
}
}
layer {
name: "relu4"
type: "ReLU"
bottom: "conv4"
top: "conv4"
}
layer {
name: "conv5"
type: "Convolution"
bottom: "conv4"
top: "conv5"
param {
lr_mult: 1
decay_mult: 1
}
param {
lr_mult: 2
decay_mult: 0
}
convolution_param {
num_output: 256
pad: 1
kernel_size: 3
group: 2
weight_filler {
type: "gaussian"
std: 0.01
}
bias_filler {
type: "constant"
value: 0.1
}
}
}
layer {
name: "relu5"
type: "ReLU"
bottom: "conv5"
top: "conv5"
}
layer {
name: "pool5"
type: "Pooling"
bottom: "conv5"
top: "pool5"
pooling_param {
pool: MAX
kernel_size: 3
stride: 2
}
}
layer {
name: "fc6"
type: "InnerProduct"
bottom: "pool5"
top: "fc6"
param {
lr_mult: 1
decay_mult: 1
}
param {
lr_mult: 2
decay_mult: 0
}
inner_product_param {
num_output: 4096
weight_filler {
type: "gaussian"
std: 0.005
}
bias_filler {
type: "constant"
value: 0.1
}
}
}
layer {
name: "relu6"
type: "ReLU"
bottom: "fc6"
top: "fc6"
}
layer {
name: "drop6"
type: "Dropout"
bottom: "fc6"
top: "fc6"
dropout_param {
dropout_ratio: 0.5
}
}
layer {
name: "fc7"
type: "InnerProduct"
bottom: "fc6"
top: "fc7"
param {
lr_mult: 1
decay_mult: 1
}
param {
lr_mult: 2
decay_mult: 0
}
inner_product_param {
num_output: 4096
weight_filler {
type: "gaussian"
std: 0.005
}
bias_filler {
type: "constant"
value: 0.1
}
}
}
layer {
name: "relu7"
type: "ReLU"
bottom: "fc7"
top: "fc7"
}
layer {
name: "drop7"
type: "Dropout"
bottom: "fc7"
top: "fc7"
dropout_param {
dropout_ratio: 0.5
}
}
layer {
name: "fc8"
type: "InnerProduct"
bottom: "fc7"
top: "fc8"
param {
lr_mult: 1
decay_mult: 1
}
param {
lr_mult: 2
decay_mult: 0
}
inner_product_param {
num_output: 196
weight_filler {
type: "gaussian"
std: 0.01
}
bias_filler {
type: "constant"
value: 0
}
}
}
layer {
name: "loss"
type: "SoftmaxWithLoss"
bottom: "fc8"
bottom: "label"
top: "loss"
}
I0425 09:43:30.509435 23439 layer_factory.hpp:77] Creating layer train-data
I0425 09:43:30.511044 23439 db_lmdb.cpp:35] Opened lmdb /mnt/bigdisk/DIGITS-MAN-3/digits/jobs/20210421-230320-902c/train_db
I0425 09:43:30.511216 23439 net.cpp:84] Creating Layer train-data
I0425 09:43:30.511229 23439 net.cpp:380] train-data -> data
I0425 09:43:30.511248 23439 net.cpp:380] train-data -> label
I0425 09:43:30.511261 23439 data_transformer.cpp:25] Loading mean file from: /mnt/bigdisk/DIGITS-MAN-3/digits/jobs/20210421-230320-902c/mean.binaryproto
I0425 09:43:30.516762 23439 data_layer.cpp:45] output data size: 128,3,227,227
I0425 09:43:30.659090 23439 net.cpp:122] Setting up train-data
I0425 09:43:30.659112 23439 net.cpp:129] Top shape: 128 3 227 227 (19787136)
I0425 09:43:30.659118 23439 net.cpp:129] Top shape: 128 (128)
I0425 09:43:30.659122 23439 net.cpp:137] Memory required for data: 79149056
I0425 09:43:30.659132 23439 layer_factory.hpp:77] Creating layer conv1
I0425 09:43:30.659153 23439 net.cpp:84] Creating Layer conv1
I0425 09:43:30.659159 23439 net.cpp:406] conv1 <- data
I0425 09:43:30.659171 23439 net.cpp:380] conv1 -> conv1
I0425 09:43:31.281721 23439 net.cpp:122] Setting up conv1
I0425 09:43:31.281741 23439 net.cpp:129] Top shape: 128 96 55 55 (37171200)
I0425 09:43:31.281745 23439 net.cpp:137] Memory required for data: 227833856
I0425 09:43:31.281765 23439 layer_factory.hpp:77] Creating layer relu1
I0425 09:43:31.281776 23439 net.cpp:84] Creating Layer relu1
I0425 09:43:31.281781 23439 net.cpp:406] relu1 <- conv1
I0425 09:43:31.281787 23439 net.cpp:367] relu1 -> conv1 (in-place)
I0425 09:43:31.282078 23439 net.cpp:122] Setting up relu1
I0425 09:43:31.282088 23439 net.cpp:129] Top shape: 128 96 55 55 (37171200)
I0425 09:43:31.282094 23439 net.cpp:137] Memory required for data: 376518656
I0425 09:43:31.282099 23439 layer_factory.hpp:77] Creating layer norm1
I0425 09:43:31.282107 23439 net.cpp:84] Creating Layer norm1
I0425 09:43:31.282112 23439 net.cpp:406] norm1 <- conv1
I0425 09:43:31.282140 23439 net.cpp:380] norm1 -> norm1
I0425 09:43:31.282577 23439 net.cpp:122] Setting up norm1
I0425 09:43:31.282588 23439 net.cpp:129] Top shape: 128 96 55 55 (37171200)
I0425 09:43:31.282591 23439 net.cpp:137] Memory required for data: 525203456
I0425 09:43:31.282598 23439 layer_factory.hpp:77] Creating layer pool1
I0425 09:43:31.282606 23439 net.cpp:84] Creating Layer pool1
I0425 09:43:31.282610 23439 net.cpp:406] pool1 <- norm1
I0425 09:43:31.282616 23439 net.cpp:380] pool1 -> pool1
I0425 09:43:31.282652 23439 net.cpp:122] Setting up pool1
I0425 09:43:31.282658 23439 net.cpp:129] Top shape: 128 96 27 27 (8957952)
I0425 09:43:31.282662 23439 net.cpp:137] Memory required for data: 561035264
I0425 09:43:31.282666 23439 layer_factory.hpp:77] Creating layer conv2
I0425 09:43:31.282678 23439 net.cpp:84] Creating Layer conv2
I0425 09:43:31.282682 23439 net.cpp:406] conv2 <- pool1
I0425 09:43:31.282687 23439 net.cpp:380] conv2 -> conv2
I0425 09:43:31.290911 23439 net.cpp:122] Setting up conv2
I0425 09:43:31.290926 23439 net.cpp:129] Top shape: 128 256 27 27 (23887872)
I0425 09:43:31.290930 23439 net.cpp:137] Memory required for data: 656586752
I0425 09:43:31.290940 23439 layer_factory.hpp:77] Creating layer relu2
I0425 09:43:31.290948 23439 net.cpp:84] Creating Layer relu2
I0425 09:43:31.290952 23439 net.cpp:406] relu2 <- conv2
I0425 09:43:31.290958 23439 net.cpp:367] relu2 -> conv2 (in-place)
I0425 09:43:31.291378 23439 net.cpp:122] Setting up relu2
I0425 09:43:31.291388 23439 net.cpp:129] Top shape: 128 256 27 27 (23887872)
I0425 09:43:31.291393 23439 net.cpp:137] Memory required for data: 752138240
I0425 09:43:31.291396 23439 layer_factory.hpp:77] Creating layer norm2
I0425 09:43:31.291404 23439 net.cpp:84] Creating Layer norm2
I0425 09:43:31.291407 23439 net.cpp:406] norm2 <- conv2
I0425 09:43:31.291414 23439 net.cpp:380] norm2 -> norm2
I0425 09:43:31.291700 23439 net.cpp:122] Setting up norm2
I0425 09:43:31.291709 23439 net.cpp:129] Top shape: 128 256 27 27 (23887872)
I0425 09:43:31.291712 23439 net.cpp:137] Memory required for data: 847689728
I0425 09:43:31.291716 23439 layer_factory.hpp:77] Creating layer pool2
I0425 09:43:31.291724 23439 net.cpp:84] Creating Layer pool2
I0425 09:43:31.291728 23439 net.cpp:406] pool2 <- norm2
I0425 09:43:31.291733 23439 net.cpp:380] pool2 -> pool2
I0425 09:43:31.291760 23439 net.cpp:122] Setting up pool2
I0425 09:43:31.291765 23439 net.cpp:129] Top shape: 128 256 13 13 (5537792)
I0425 09:43:31.291769 23439 net.cpp:137] Memory required for data: 869840896
I0425 09:43:31.291772 23439 layer_factory.hpp:77] Creating layer conv3
I0425 09:43:31.291782 23439 net.cpp:84] Creating Layer conv3
I0425 09:43:31.291786 23439 net.cpp:406] conv3 <- pool2
I0425 09:43:31.291791 23439 net.cpp:380] conv3 -> conv3
I0425 09:43:31.373528 23439 net.cpp:122] Setting up conv3
I0425 09:43:31.373548 23439 net.cpp:129] Top shape: 128 384 7 7 (2408448)
I0425 09:43:31.373550 23439 net.cpp:137] Memory required for data: 879474688
I0425 09:43:31.373562 23439 layer_factory.hpp:77] Creating layer relu3
I0425 09:43:31.373570 23439 net.cpp:84] Creating Layer relu3
I0425 09:43:31.373574 23439 net.cpp:406] relu3 <- conv3
I0425 09:43:31.373580 23439 net.cpp:367] relu3 -> conv3 (in-place)
I0425 09:43:31.373993 23439 net.cpp:122] Setting up relu3
I0425 09:43:31.374003 23439 net.cpp:129] Top shape: 128 384 7 7 (2408448)
I0425 09:43:31.374006 23439 net.cpp:137] Memory required for data: 889108480
I0425 09:43:31.374011 23439 layer_factory.hpp:77] Creating layer conv4
I0425 09:43:31.374020 23439 net.cpp:84] Creating Layer conv4
I0425 09:43:31.374023 23439 net.cpp:406] conv4 <- conv3
I0425 09:43:31.374029 23439 net.cpp:380] conv4 -> conv4
I0425 09:43:31.385507 23439 net.cpp:122] Setting up conv4
I0425 09:43:31.385525 23439 net.cpp:129] Top shape: 128 384 7 7 (2408448)
I0425 09:43:31.385529 23439 net.cpp:137] Memory required for data: 898742272
I0425 09:43:31.385538 23439 layer_factory.hpp:77] Creating layer relu4
I0425 09:43:31.385546 23439 net.cpp:84] Creating Layer relu4
I0425 09:43:31.385571 23439 net.cpp:406] relu4 <- conv4
I0425 09:43:31.385576 23439 net.cpp:367] relu4 -> conv4 (in-place)
I0425 09:43:31.385850 23439 net.cpp:122] Setting up relu4
I0425 09:43:31.385859 23439 net.cpp:129] Top shape: 128 384 7 7 (2408448)
I0425 09:43:31.385861 23439 net.cpp:137] Memory required for data: 908376064
I0425 09:43:31.385865 23439 layer_factory.hpp:77] Creating layer conv5
I0425 09:43:31.385874 23439 net.cpp:84] Creating Layer conv5
I0425 09:43:31.385879 23439 net.cpp:406] conv5 <- conv4
I0425 09:43:31.385883 23439 net.cpp:380] conv5 -> conv5
I0425 09:43:31.394876 23439 net.cpp:122] Setting up conv5
I0425 09:43:31.394894 23439 net.cpp:129] Top shape: 128 256 7 7 (1605632)
I0425 09:43:31.394898 23439 net.cpp:137] Memory required for data: 914798592
I0425 09:43:31.394910 23439 layer_factory.hpp:77] Creating layer relu5
I0425 09:43:31.394919 23439 net.cpp:84] Creating Layer relu5
I0425 09:43:31.394923 23439 net.cpp:406] relu5 <- conv5
I0425 09:43:31.394929 23439 net.cpp:367] relu5 -> conv5 (in-place)
I0425 09:43:31.395345 23439 net.cpp:122] Setting up relu5
I0425 09:43:31.395355 23439 net.cpp:129] Top shape: 128 256 7 7 (1605632)
I0425 09:43:31.395359 23439 net.cpp:137] Memory required for data: 921221120
I0425 09:43:31.395363 23439 layer_factory.hpp:77] Creating layer pool5
I0425 09:43:31.395370 23439 net.cpp:84] Creating Layer pool5
I0425 09:43:31.395375 23439 net.cpp:406] pool5 <- conv5
I0425 09:43:31.395380 23439 net.cpp:380] pool5 -> pool5
I0425 09:43:31.395413 23439 net.cpp:122] Setting up pool5
I0425 09:43:31.395418 23439 net.cpp:129] Top shape: 128 256 3 3 (294912)
I0425 09:43:31.395422 23439 net.cpp:137] Memory required for data: 922400768
I0425 09:43:31.395426 23439 layer_factory.hpp:77] Creating layer fc6
I0425 09:43:31.395434 23439 net.cpp:84] Creating Layer fc6
I0425 09:43:31.395438 23439 net.cpp:406] fc6 <- pool5
I0425 09:43:31.395443 23439 net.cpp:380] fc6 -> fc6
I0425 09:43:31.487815 23439 net.cpp:122] Setting up fc6
I0425 09:43:31.487833 23439 net.cpp:129] Top shape: 128 4096 (524288)
I0425 09:43:31.487838 23439 net.cpp:137] Memory required for data: 924497920
I0425 09:43:31.487848 23439 layer_factory.hpp:77] Creating layer relu6
I0425 09:43:31.487857 23439 net.cpp:84] Creating Layer relu6
I0425 09:43:31.487861 23439 net.cpp:406] relu6 <- fc6
I0425 09:43:31.487869 23439 net.cpp:367] relu6 -> fc6 (in-place)
I0425 09:43:31.491174 23439 net.cpp:122] Setting up relu6
I0425 09:43:31.491185 23439 net.cpp:129] Top shape: 128 4096 (524288)
I0425 09:43:31.491189 23439 net.cpp:137] Memory required for data: 926595072
I0425 09:43:31.491194 23439 layer_factory.hpp:77] Creating layer drop6
I0425 09:43:31.491201 23439 net.cpp:84] Creating Layer drop6
I0425 09:43:31.491204 23439 net.cpp:406] drop6 <- fc6
I0425 09:43:31.491210 23439 net.cpp:367] drop6 -> fc6 (in-place)
I0425 09:43:31.491236 23439 net.cpp:122] Setting up drop6
I0425 09:43:31.491241 23439 net.cpp:129] Top shape: 128 4096 (524288)
I0425 09:43:31.491245 23439 net.cpp:137] Memory required for data: 928692224
I0425 09:43:31.491250 23439 layer_factory.hpp:77] Creating layer fc7
I0425 09:43:31.491256 23439 net.cpp:84] Creating Layer fc7
I0425 09:43:31.491261 23439 net.cpp:406] fc7 <- fc6
I0425 09:43:31.491266 23439 net.cpp:380] fc7 -> fc7
I0425 09:43:31.657979 23439 net.cpp:122] Setting up fc7
I0425 09:43:31.657996 23439 net.cpp:129] Top shape: 128 4096 (524288)
I0425 09:43:31.658000 23439 net.cpp:137] Memory required for data: 930789376
I0425 09:43:31.658008 23439 layer_factory.hpp:77] Creating layer relu7
I0425 09:43:31.658018 23439 net.cpp:84] Creating Layer relu7
I0425 09:43:31.658022 23439 net.cpp:406] relu7 <- fc7
I0425 09:43:31.658028 23439 net.cpp:367] relu7 -> fc7 (in-place)
I0425 09:43:31.659767 23439 net.cpp:122] Setting up relu7
I0425 09:43:31.659778 23439 net.cpp:129] Top shape: 128 4096 (524288)
I0425 09:43:31.659781 23439 net.cpp:137] Memory required for data: 932886528
I0425 09:43:31.659785 23439 layer_factory.hpp:77] Creating layer drop7
I0425 09:43:31.659792 23439 net.cpp:84] Creating Layer drop7
I0425 09:43:31.659796 23439 net.cpp:406] drop7 <- fc7
I0425 09:43:31.659821 23439 net.cpp:367] drop7 -> fc7 (in-place)
I0425 09:43:31.659844 23439 net.cpp:122] Setting up drop7
I0425 09:43:31.659849 23439 net.cpp:129] Top shape: 128 4096 (524288)
I0425 09:43:31.659852 23439 net.cpp:137] Memory required for data: 934983680
I0425 09:43:31.659855 23439 layer_factory.hpp:77] Creating layer fc8
I0425 09:43:31.659862 23439 net.cpp:84] Creating Layer fc8
I0425 09:43:31.659866 23439 net.cpp:406] fc8 <- fc7
I0425 09:43:31.659871 23439 net.cpp:380] fc8 -> fc8
I0425 09:43:31.667866 23439 net.cpp:122] Setting up fc8
I0425 09:43:31.667881 23439 net.cpp:129] Top shape: 128 196 (25088)
I0425 09:43:31.667886 23439 net.cpp:137] Memory required for data: 935084032
I0425 09:43:31.667893 23439 layer_factory.hpp:77] Creating layer loss
I0425 09:43:31.667902 23439 net.cpp:84] Creating Layer loss
I0425 09:43:31.667906 23439 net.cpp:406] loss <- fc8
I0425 09:43:31.667912 23439 net.cpp:406] loss <- label
I0425 09:43:31.667920 23439 net.cpp:380] loss -> loss
I0425 09:43:31.667932 23439 layer_factory.hpp:77] Creating layer loss
…
I0425 09:43:31.704650 23439 net.cpp:294] The NetState phase (1) differed from the phase (0) specified by a rule in layer train-data
I0425 09:43:31.704790 23439 net.cpp:51] Initializing net from parameters:
state {
phase: TEST
}
layer {
name: "val-data"
type: "Data"
top: "data"
top: "label"
include {
phase: TEST
}
transform_param {
crop_size: 227
mean_file: "/mnt/bigdisk/DIGITS-MAN-3/digits/jobs/20210421-230320-902c/mean.binaryproto"
}
data_param {
source: "/mnt/bigdisk/DIGITS-MAN-3/digits/jobs/20210421-230320-902c/val_db"
batch_size: 32
backend: LMDB
}
}
layer {
name: "conv1"
type: "Convolution"
bottom: "data"
top: "conv1"
param {
lr_mult: 1
decay_mult: 1
}
param {
lr_mult: 2
decay_mult: 0
}
convolution_param {
num_output: 96
kernel_size: 11
stride: 4
weight_filler {
type: "gaussian"
std: 0.01
}
bias_filler {
type: "constant"
value: 0
}
}
}
layer {
name: "relu1"
type: "ReLU"
bottom: "conv1"
top: "conv1"
}
layer {
name: "norm1"
type: "LRN"
bottom: "conv1"
top: "norm1"
lrn_param {
local_size: 5
alpha: 0.0001
beta: 0.75
}
}
layer {
name: "pool1"
type: "Pooling"
bottom: "norm1"
top: "pool1"
pooling_param {
pool: MAX
kernel_size: 3
stride: 2
}
}
layer {
name: "conv2"
type: "Convolution"
bottom: "pool1"
top: "conv2"
param {
lr_mult: 1
decay_mult: 1
}
param {
lr_mult: 2
decay_mult: 0
}
convolution_param {
num_output: 256
pad: 2
kernel_size: 5
group: 2
weight_filler {
type: "gaussian"
std: 0.01
}
bias_filler {
type: "constant"
value: 0.1
}
}
}
layer {
name: "relu2"
type: "ReLU"
bottom: "conv2"
top: "conv2"
}
layer {
name: "norm2"
type: "LRN"
bottom: "conv2"
top: "norm2"
lrn_param {
local_size: 5
alpha: 0.0001
beta: 0.75
}
}
layer {
name: "pool2"
type: "Pooling"
bottom: "norm2"
top: "pool2"
pooling_param {
pool: MAX
kernel_size: 3
stride: 2
}
}
layer {
name: "conv3"
type: "Convolution"
bottom: "pool2"
top: "conv3"
param {
lr_mult: 1
decay_mult: 1
}
param {
lr_mult: 2
decay_mult: 0
}
convolution_param {
num_output: 384
pad: 1
kernel_size: 9
weight_filler {
type: "gaussian"
std: 0.01
}
bias_filler {
type: "constant"
value: 0
}
}
}
layer {
name: "relu3"
type: "ReLU"
bottom: "conv3"
top: "conv3"
}
layer {
name: "conv4"
type: "Convolution"
bottom: "conv3"
top: "conv4"
param {
lr_mult: 1
decay_mult: 1
}
param {
lr_mult: 2
decay_mult: 0
}
convolution_param {
num_output: 384
pad: 1
kernel_size: 3
group: 2
weight_filler {
type: "gaussian"
std: 0.01
}
bias_filler {
type: "constant"
value: 0.1
}
}
}
layer {
name: "relu4"
type: "ReLU"
bottom: "conv4"
top: "conv4"
}
layer {
name: "conv5"
type: "Convolution"
bottom: "conv4"
top: "conv5"
param {
lr_mult: 1
decay_mult: 1
}
param {
lr_mult: 2
decay_mult: 0
}
convolution_param {
num_output: 256
pad: 1
kernel_size: 3
group: 2
weight_filler {
type: "gaussian"
std: 0.01
}
bias_filler {
type: "constant"
value: 0.1
}
}
}
layer {
name: "relu5"
type: "ReLU"
bottom: "conv5"
top: "conv5"
}
layer {
name: "pool5"
type: "Pooling"
bottom: "conv5"
top: "pool5"
pooling_param {
pool: MAX
kernel_size: 3
stride: 2
}
}
layer {
name: "fc6"
type: "InnerProduct"
bottom: "pool5"
top: "fc6"
param {
lr_mult: 1
decay_mult: 1
}
param {
lr_mult: 2
decay_mult: 0
}
inner_product_param {
num_output: 4096
weight_filler {
type: "gaussian"
std: 0.005
}
bias_filler {
type: "constant"
value: 0.1
}
}
}
layer {
name: "relu6"
type: "ReLU"
bottom: "fc6"
top: "fc6"
}
layer {
name: "drop6"
type: "Dropout"
bottom: "fc6"
top: "fc6"
dropout_param {
dropout_ratio: 0.5
}
}
layer {
name: "fc7"
type: "InnerProduct"
bottom: "fc6"
top: "fc7"
param {
lr_mult: 1
decay_mult: 1
}
param {
lr_mult: 2
decay_mult: 0
}
inner_product_param {
num_output: 4096
weight_filler {
type: "gaussian"
std: 0.005
}
bias_filler {
type: "constant"
value: 0.1
}
}
}
layer {
name: "relu7"
type: "ReLU"
bottom: "fc7"
top: "fc7"
}
layer {
name: "drop7"
type: "Dropout"
bottom: "fc7"
top: "fc7"
dropout_param {
dropout_ratio: 0.5
}
}
layer {
name: "fc8"
type: "InnerProduct"
bottom: "fc7"
top: "fc8"
param {
lr_mult: 1
decay_mult: 1
}
param {
lr_mult: 2
decay_mult: 0
}
inner_product_param {
num_output: 196
weight_filler {
type: "gaussian"
std: 0.01
}
bias_filler {
type: "constant"
value: 0
}
}
}
layer {
name: "accuracy"
type: "Accuracy"
bottom: "fc8"
bottom: "label"
top: "accuracy"
include {
phase: TEST
}
}
layer {
name: "loss"
type: "SoftmaxWithLoss"
bottom: "fc8"
bottom: "label"
top: "loss"
}
I0425 09:43:31.704893 23439 layer_factory.hpp:77] Creating layer val-data
I0425 09:43:31.707134 23439 db_lmdb.cpp:35] Opened lmdb /mnt/bigdisk/DIGITS-MAN-3/digits/jobs/20210421-230320-902c/val_db
I0425 09:43:31.707615 23439 net.cpp:84] Creating Layer val-data
I0425 09:43:31.707623 23439 net.cpp:380] val-data -> data
I0425 09:43:31.707633 23439 net.cpp:380] val-data -> label
I0425 09:43:31.707641 23439 data_transformer.cpp:25] Loading mean file from: /mnt/bigdisk/DIGITS-MAN-3/digits/jobs/20210421-230320-902c/mean.binaryproto
I0425 09:43:31.711017 23439 data_layer.cpp:45] output data size: 32,3,227,227
I0425 09:43:31.743608 23439 net.cpp:122] Setting up val-data
I0425 09:43:31.743628 23439 net.cpp:129] Top shape: 32 3 227 227 (4946784)
I0425 09:43:31.743633 23439 net.cpp:129] Top shape: 32 (32)
I0425 09:43:31.743636 23439 net.cpp:137] Memory required for data: 19787264
I0425 09:43:31.743643 23439 layer_factory.hpp:77] Creating layer label_val-data_1_split
I0425 09:43:31.743654 23439 net.cpp:84] Creating Layer label_val-data_1_split
I0425 09:43:31.743659 23439 net.cpp:406] label_val-data_1_split <- label
I0425 09:43:31.743666 23439 net.cpp:380] label_val-data_1_split -> label_val-data_1_split_0
I0425 09:43:31.743675 23439 net.cpp:380] label_val-data_1_split -> label_val-data_1_split_1
I0425 09:43:31.743783 23439 net.cpp:122] Setting up label_val-data_1_split
I0425 09:43:31.743789 23439 net.cpp:129] Top shape: 32 (32)
I0425 09:43:31.743793 23439 net.cpp:129] Top shape: 32 (32)
I0425 09:43:31.743796 23439 net.cpp:137] Memory required for data: 19787520
I0425 09:43:31.743800 23439 layer_factory.hpp:77] Creating layer conv1
I0425 09:43:31.743813 23439 net.cpp:84] Creating Layer conv1
I0425 09:43:31.743818 23439 net.cpp:406] conv1 <- data
I0425 09:43:31.743824 23439 net.cpp:380] conv1 -> conv1
I0425 09:43:31.745671 23439 net.cpp:122] Setting up conv1
I0425 09:43:31.745682 23439 net.cpp:129] Top shape: 32 96 55 55 (9292800)
I0425 09:43:31.745687 23439 net.cpp:137] Memory required for data: 56958720
I0425 09:43:31.745697 23439 layer_factory.hpp:77] Creating layer relu1
I0425 09:43:31.745704 23439 net.cpp:84] Creating Layer relu1
I0425 09:43:31.745708 23439 net.cpp:406] relu1 <- conv1
I0425 09:43:31.745714 23439 net.cpp:367] relu1 -> conv1 (in-place)
I0425 09:43:31.746004 23439 net.cpp:122] Setting up relu1
I0425 09:43:31.746014 23439 net.cpp:129] Top shape: 32 96 55 55 (9292800)
I0425 09:43:31.746017 23439 net.cpp:137] Memory required for data: 94129920
I0425 09:43:31.746022 23439 layer_factory.hpp:77] Creating layer norm1
I0425 09:43:31.746031 23439 net.cpp:84] Creating Layer norm1
I0425 09:43:31.746035 23439 net.cpp:406] norm1 <- conv1
I0425 09:43:31.746040 23439 net.cpp:380] norm1 -> norm1
I0425 09:43:31.746495 23439 net.cpp:122] Setting up norm1
I0425 09:43:31.746505 23439 net.cpp:129] Top shape: 32 96 55 55 (9292800)
I0425 09:43:31.746510 23439 net.cpp:137] Memory required for data: 131301120
I0425 09:43:31.746513 23439 layer_factory.hpp:77] Creating layer pool1
I0425 09:43:31.746521 23439 net.cpp:84] Creating Layer pool1
I0425 09:43:31.746526 23439 net.cpp:406] pool1 <- norm1
I0425 09:43:31.746531 23439 net.cpp:380] pool1 -> pool1
I0425 09:43:31.746558 23439 net.cpp:122] Setting up pool1
I0425 09:43:31.746564 23439 net.cpp:129] Top shape: 32 96 27 27 (2239488)
I0425 09:43:31.746567 23439 net.cpp:137] Memory required for data: 140259072
I0425 09:43:31.746572 23439 layer_factory.hpp:77] Creating layer conv2
I0425 09:43:31.746579 23439 net.cpp:84] Creating Layer conv2
I0425 09:43:31.746582 23439 net.cpp:406] conv2 <- pool1
I0425 09:43:31.746608 23439 net.cpp:380] conv2 -> conv2
I0425 09:43:31.761415 23439 net.cpp:122] Setting up conv2
I0425 09:43:31.761435 23439 net.cpp:129] Top shape: 32 256 27 27 (5971968)
I0425 09:43:31.761437 23439 net.cpp:137] Memory required for data: 164146944
I0425 09:43:31.761449 23439 layer_factory.hpp:77] Creating layer relu2
I0425 09:43:31.761459 23439 net.cpp:84] Creating Layer relu2
I0425 09:43:31.761463 23439 net.cpp:406] relu2 <- conv2
I0425 09:43:31.761471 23439 net.cpp:367] relu2 -> conv2 (in-place)
I0425 09:43:31.761974 23439 net.cpp:122] Setting up relu2
I0425 09:43:31.761983 23439 net.cpp:129] Top shape: 32 256 27 27 (5971968)
I0425 09:43:31.761987 23439 net.cpp:137] Memory required for data: 188034816
I0425 09:43:31.761991 23439 layer_factory.hpp:77] Creating layer norm2
I0425 09:43:31.762001 23439 net.cpp:84] Creating Layer norm2
I0425 09:43:31.762006 23439 net.cpp:406] norm2 <- conv2
I0425 09:43:31.762010 23439 net.cpp:380] norm2 -> norm2
I0425 09:43:31.762535 23439 net.cpp:122] Setting up norm2
I0425 09:43:31.762545 23439 net.cpp:129] Top shape: 32 256 27 27 (5971968)
I0425 09:43:31.762549 23439 net.cpp:137] Memory required for data: 211922688
I0425 09:43:31.762553 23439 layer_factory.hpp:77] Creating layer pool2
I0425 09:43:31.762562 23439 net.cpp:84] Creating Layer pool2
I0425 09:43:31.762564 23439 net.cpp:406] pool2 <- norm2
I0425 09:43:31.762573 23439 net.cpp:380] pool2 -> pool2
I0425 09:43:31.762603 23439 net.cpp:122] Setting up pool2
I0425 09:43:31.762607 23439 net.cpp:129] Top shape: 32 256 13 13 (1384448)
I0425 09:43:31.762612 23439 net.cpp:137] Memory required for data: 217460480
I0425 09:43:31.762615 23439 layer_factory.hpp:77] Creating layer conv3
I0425 09:43:31.762627 23439 net.cpp:84] Creating Layer conv3
I0425 09:43:31.762631 23439 net.cpp:406] conv3 <- pool2
I0425 09:43:31.762636 23439 net.cpp:380] conv3 -> conv3
I0425 09:43:31.871551 23439 net.cpp:122] Setting up conv3
I0425 09:43:31.871573 23439 net.cpp:129] Top shape: 32 384 7 7 (602112)
I0425 09:43:31.871577 23439 net.cpp:137] Memory required for data: 219868928
I0425 09:43:31.871590 23439 layer_factory.hpp:77] Creating layer relu3
I0425 09:43:31.871600 23439 net.cpp:84] Creating Layer relu3
I0425 09:43:31.871605 23439 net.cpp:406] relu3 <- conv3
I0425 09:43:31.871613 23439 net.cpp:367] relu3 -> conv3 (in-place)
I0425 09:43:31.872156 23439 net.cpp:122] Setting up relu3
I0425 09:43:31.872169 23439 net.cpp:129] Top shape: 32 384 7 7 (602112)
I0425 09:43:31.872174 23439 net.cpp:137] Memory required for data: 222277376
I0425 09:43:31.872177 23439 layer_factory.hpp:77] Creating layer conv4
I0425 09:43:31.872191 23439 net.cpp:84] Creating Layer conv4
I0425 09:43:31.872195 23439 net.cpp:406] conv4 <- conv3
I0425 09:43:31.872205 23439 net.cpp:380] conv4 -> conv4
I0425 09:43:31.881808 23439 net.cpp:122] Setting up conv4
I0425 09:43:31.881824 23439 net.cpp:129] Top shape: 32 384 7 7 (602112)
I0425 09:43:31.881827 23439 net.cpp:137] Memory required for data: 224685824
I0425 09:43:31.881836 23439 layer_factory.hpp:77] Creating layer relu4
I0425 09:43:31.881844 23439 net.cpp:84] Creating Layer relu4
I0425 09:43:31.881850 23439 net.cpp:406] relu4 <- conv4
I0425 09:43:31.881855 23439 net.cpp:367] relu4 -> conv4 (in-place)
I0425 09:43:31.882203 23439 net.cpp:122] Setting up relu4
I0425 09:43:31.882212 23439 net.cpp:129] Top shape: 32 384 7 7 (602112)
I0425 09:43:31.882215 23439 net.cpp:137] Memory required for data: 227094272
I0425 09:43:31.882220 23439 layer_factory.hpp:77] Creating layer conv5
I0425 09:43:31.882230 23439 net.cpp:84] Creating Layer conv5
I0425 09:43:31.882234 23439 net.cpp:406] conv5 <- conv4
I0425 09:43:31.882241 23439 net.cpp:380] conv5 -> conv5
I0425 09:43:31.892210 23439 net.cpp:122] Setting up conv5
I0425 09:43:31.892230 23439 net.cpp:129] Top shape: 32 256 7 7 (401408)
I0425 09:43:31.892233 23439 net.cpp:137] Memory required for data: 228699904
I0425 09:43:31.892248 23439 layer_factory.hpp:77] Creating layer relu5
I0425 09:43:31.892258 23439 net.cpp:84] Creating Layer relu5
I0425 09:43:31.892263 23439 net.cpp:406] relu5 <- conv5
I0425 09:43:31.892292 23439 net.cpp:367] relu5 -> conv5 (in-place)
I0425 09:43:31.892855 23439 net.cpp:122] Setting up relu5
I0425 09:43:31.892868 23439 net.cpp:129] Top shape: 32 256 7 7 (401408)
I0425 09:43:31.892870 23439 net.cpp:137] Memory required for data: 230305536
I0425 09:43:31.892875 23439 layer_factory.hpp:77] Creating layer pool5
I0425 09:43:31.892887 23439 net.cpp:84] Creating Layer pool5
I0425 09:43:31.892891 23439 net.cpp:406] pool5 <- conv5
I0425 09:43:31.892897 23439 net.cpp:380] pool5 -> pool5
I0425 09:43:31.892940 23439 net.cpp:122] Setting up pool5
I0425 09:43:31.892946 23439 net.cpp:129] Top shape: 32 256 3 3 (73728)
I0425 09:43:31.892949 23439 net.cpp:137] Memory required for data: 230600448
I0425 09:43:31.892953 23439 layer_factory.hpp:77] Creating layer fc6
I0425 09:43:31.892961 23439 net.cpp:84] Creating Layer fc6
I0425 09:43:31.892966 23439 net.cpp:406] fc6 <- pool5
I0425 09:43:31.892969 23439 net.cpp:380] fc6 -> fc6
I0425 09:43:31.982056 23439 net.cpp:122] Setting up fc6
I0425 09:43:31.982075 23439 net.cpp:129] Top shape: 32 4096 (131072)
I0425 09:43:31.982079 23439 net.cpp:137] Memory required for data: 231124736
I0425 09:43:31.982087 23439 layer_factory.hpp:77] Creating layer relu6
I0425 09:43:31.982095 23439 net.cpp:84] Creating Layer relu6
I0425 09:43:31.982100 23439 net.cpp:406] relu6 <- fc6
I0425 09:43:31.982108 23439 net.cpp:367] relu6 -> fc6 (in-place)
I0425 09:43:31.982928 23439 net.cpp:122] Setting up relu6
I0425 09:43:31.982937 23439 net.cpp:129] Top shape: 32 4096 (131072)
I0425 09:43:31.982941 23439 net.cpp:137] Memory required for data: 231649024
I0425 09:43:31.982945 23439 layer_factory.hpp:77] Creating layer drop6
I0425 09:43:31.982954 23439 net.cpp:84] Creating Layer drop6
I0425 09:43:31.982957 23439 net.cpp:406] drop6 <- fc6
I0425 09:43:31.982962 23439 net.cpp:367] drop6 -> fc6 (in-place)
I0425 09:43:31.982991 23439 net.cpp:122] Setting up drop6
I0425 09:43:31.982996 23439 net.cpp:129] Top shape: 32 4096 (131072)
I0425 09:43:31.983000 23439 net.cpp:137] Memory required for data: 232173312
I0425 09:43:31.983003 23439 layer_factory.hpp:77] Creating layer fc7
I0425 09:43:31.983011 23439 net.cpp:84] Creating Layer fc7
I0425 09:43:31.983014 23439 net.cpp:406] fc7 <- fc6
I0425 09:43:31.983021 23439 net.cpp:380] fc7 -> fc7
I0425 09:43:32.143328 23439 net.cpp:122] Setting up fc7
I0425 09:43:32.143349 23439 net.cpp:129] Top shape: 32 4096 (131072)
I0425 09:43:32.143353 23439 net.cpp:137] Memory required for data: 232697600
I0425 09:43:32.143362 23439 layer_factory.hpp:77] Creating layer relu7
I0425 09:43:32.143370 23439 net.cpp:84] Creating Layer relu7
I0425 09:43:32.143375 23439 net.cpp:406] relu7 <- fc7
I0425 09:43:32.143383 23439 net.cpp:367] relu7 -> fc7 (in-place)
I0425 09:43:32.143803 23439 net.cpp:122] Setting up relu7
I0425 09:43:32.143813 23439 net.cpp:129] Top shape: 32 4096 (131072)
I0425 09:43:32.143816 23439 net.cpp:137] Memory required for data: 233221888
I0425 09:43:32.143821 23439 layer_factory.hpp:77] Creating layer drop7
I0425 09:43:32.143827 23439 net.cpp:84] Creating Layer drop7
I0425 09:43:32.143831 23439 net.cpp:406] drop7 <- fc7
I0425 09:43:32.143836 23439 net.cpp:367] drop7 -> fc7 (in-place)
I0425 09:43:32.143859 23439 net.cpp:122] Setting up drop7
I0425 09:43:32.143865 23439 net.cpp:129] Top shape: 32 4096 (131072)
I0425 09:43:32.143868 23439 net.cpp:137] Memory required for data: 233746176
I0425 09:43:32.143872 23439 layer_factory.hpp:77] Creating layer fc8
I0425 09:43:32.143879 23439 net.cpp:84] Creating Layer fc8
I0425 09:43:32.143882 23439 net.cpp:406] fc8 <- fc7
I0425 09:43:32.143887 23439 net.cpp:380] fc8 -> fc8
I0425 09:43:32.151643 23439 net.cpp:122] Setting up fc8
I0425 09:43:32.151654 23439 net.cpp:129] Top shape: 32 196 (6272)
I0425 09:43:32.151657 23439 net.cpp:137] Memory required for data: 233771264
I0425 09:43:32.151664 23439 layer_factory.hpp:77] Creating layer fc8_fc8_0_split
I0425 09:43:32.151671 23439 net.cpp:84] Creating Layer fc8_fc8_0_split
I0425 09:43:32.151675 23439 net.cpp:406] fc8_fc8_0_split <- fc8
I0425 09:43:32.151680 23439 net.cpp:380] fc8_fc8_0_split -> fc8_fc8_0_split_0
I0425 09:43:32.151707 23439 net.cpp:380] fc8_fc8_0_split -> fc8_fc8_0_split_1
I0425 09:43:32.151741 23439 net.cpp:122] Setting up fc8_fc8_0_split
I0425 09:43:32.151747 23439 net.cpp:129] Top shape: 32 196 (6272)
I0425 09:43:32.151751 23439 net.cpp:129] Top shape: 32 196 (6272)
I0425 09:43:32.151753 23439 net.cpp:137] Memory required for data: 233821440
I0425 09:43:32.151757 23439 layer_factory.hpp:77] Creating layer accuracy
I0425 09:43:32.151763 23439 net.cpp:84] Creating Layer accuracy
I0425 09:43:32.151767 23439 net.cpp:406] accuracy <- fc8_fc8_0_split_0
I0425 09:43:32.151772 23439 net.cpp:406] accuracy <- label_val-data_1_split_0
I0425 09:43:32.151777 23439 net.cpp:380] accuracy -> accuracy
…
