…
I0428 15:36:42.259505 20568 net.cpp:294] The NetState phase (0) differed from the phase (1) specified by a rule in layer accuracy
I0428 15:36:42.259654 20568 net.cpp:51] Initializing net from parameters:
state {
phase: TRAIN
level: 0
stage: ""
}
layer {
name: "train-data"
type: "Data"
top: "data"
top: "label"
include {
phase: TRAIN
}
transform_param {
mirror: true
crop_size: 227
mean_file: "/mnt/bigdisk/DIGITS-MAN-3/digits/jobs/20210421-230320-902c/mean.binaryproto"
}
data_param {
source: "/mnt/bigdisk/DIGITS-MAN-3/digits/jobs/20210421-230320-902c/train_db"
batch_size: 128
backend: LMDB
}
}
layer {
name: "conv1"
type: "Convolution"
bottom: "data"
top: "conv1"
param {
lr_mult: 1
decay_mult: 1
}
param {
lr_mult: 2
decay_mult: 0
}
convolution_param {
num_output: 96
kernel_size: 11
stride: 4
weight_filler {
type: "gaussian"
std: 0.01
}
bias_filler {
type: "constant"
value: 0
}
}
}
layer {
name: "relu1"
type: "ReLU"
bottom: "conv1"
top: "conv1"
}
layer {
name: "norm1"
type: "LRN"
bottom: "conv1"
top: "norm1"
lrn_param {
local_size: 5
alpha: 0.0001
beta: 0.75
}
}
layer {
name: "pool1"
type: "Pooling"
bottom: "norm1"
top: "pool1"
pooling_param {
pool: MAX
kernel_size: 3
stride: 2
}
}
layer {
name: "conv1.5"
type: "Convolution"
bottom: "pool1"
top: "conv1.5"
param {
lr_mult: 1
decay_mult: 1
}
param {
lr_mult: 2
decay_mult: 0
}
convolution_param {
num_output: 256
kernel_size: 7
stride: 1
weight_filler {
type: "gaussian"
std: 0.01
}
bias_filler {
type: "constant"
value: 0
}
}
}
layer {
name: "relu1.5"
type: "ReLU"
bottom: "conv1.5"
top: "conv1.5"
}
layer {
name: "norm1.5"
type: "LRN"
bottom: "conv1.5"
top: "norm1.5"
lrn_param {
local_size: 5
alpha: 0.0001
beta: 0.75
}
}
layer {
name: "pool1.5"
type: "Pooling"
bottom: "norm1.5"
top: "pool1.5"
pooling_param {
pool: MAX
kernel_size: 3
stride: 2
}
}
layer {
name: "conv2"
type: "Convolution"
bottom: "pool1.5"
top: "conv2"
param {
lr_mult: 1
decay_mult: 1
}
param {
lr_mult: 2
decay_mult: 0
}
convolution_param {
num_output: 256
pad: 2
kernel_size: 5
group: 2
weight_filler {
type: "gaussian"
std: 0.01
}
bias_filler {
type: "constant"
value: 0.1
}
}
}
layer {
name: "relu2"
type: "ReLU"
bottom: "conv2"
top: "conv2"
}
layer {
name: "norm2"
type: "LRN"
bottom: "conv2"
top: "norm2"
lrn_param {
local_size: 5
alpha: 0.0001
beta: 0.75
}
}
layer {
name: "pool2"
type: "Pooling"
bottom: "norm2"
top: "pool2"
pooling_param {
pool: MAX
kernel_size: 3
stride: 2
}
}
layer {
name: "conv3"
type: "Convolution"
bottom: "pool2"
top: "conv3"
param {
lr_mult: 1
decay_mult: 1
}
param {
lr_mult: 2
decay_mult: 0
}
convolution_param {
num_output: 384
pad: 1
kernel_size: 3
weight_filler {
type: "gaussian"
std: 0.01
}
bias_filler {
type: "constant"
value: 0
}
}
}
layer {
name: "relu3"
type: "ReLU"
bottom: "conv3"
top: "conv3"
}
layer {
name: "conv4"
type: "Convolution"
bottom: "conv3"
top: "conv4"
param {
lr_mult: 1
decay_mult: 1
}
param {
lr_mult: 2
decay_mult: 0
}
convolution_param {
num_output: 384
pad: 1
kernel_size: 3
group: 2
weight_filler {
type: "gaussian"
std: 0.01
}
bias_filler {
type: "constant"
value: 0.1
}
}
}
layer {
name: "relu4"
type: "ReLU"
bottom: "conv4"
top: "conv4"
}
layer {
name: "conv5"
type: "Convolution"
bottom: "conv4"
top: "conv5"
param {
lr_mult: 1
decay_mult: 1
}
param {
lr_mult: 2
decay_mult: 0
}
convolution_param {
num_output: 256
pad: 1
kernel_size: 3
group: 2
weight_filler {
type: "gaussian"
std: 0.01
}
bias_filler {
type: "constant"
value: 0.1
}
}
}
layer {
name: "relu5"
type: "ReLU"
bottom: "conv5"
top: "conv5"
}
layer {
name: "pool5"
type: "Pooling"
bottom: "conv5"
top: "pool5"
pooling_param {
pool: MAX
kernel_size: 3
stride: 2
}
}
layer {
name: "fc6"
type: "InnerProduct"
bottom: "pool5"
top: "fc6"
param {
lr_mult: 1
decay_mult: 1
}
param {
lr_mult: 2
decay_mult: 0
}
inner_product_param {
num_output: 4096
weight_filler {
type: "gaussian"
std: 0.005
}
bias_filler {
type: "constant"
value: 0.1
}
}
}
layer {
name: "relu6"
type: "ReLU"
bottom: "fc6"
top: "fc6"
}
layer {
name: "drop6"
type: "Dropout"
bottom: "fc6"
top: "fc6"
dropout_param {
dropout_ratio: 0.5
}
}
layer {
name: "fc7"
type: "InnerProduct"
bottom: "fc6"
top: "fc7"
param {
lr_mult: 1
decay_mult: 1
}
param {
lr_mult: 2
decay_mult: 0
}
inner_product_param {
num_output: 4096
weight_filler {
type: "gaussian"
std: 0.005
}
bias_filler {
type: "constant"
value: 0.1
}
}
}
layer {
name: "relu7"
type: "ReLU"
bottom: "fc7"
top: "fc7"
}
layer {
name: "drop7"
type: "Dropout"
bottom: "fc7"
top: "fc7"
dropout_param {
dropout_ratio: 0.5
}
}
layer {
name: "fc8"
type: "InnerProduct"
bottom: "fc7"
top: "fc8"
param {
lr_mult: 1
decay_mult: 1
}
param {
lr_mult: 2
decay_mult: 0
}
inner_product_param {
num_output: 196
weight_filler {
type: "gaussian"
std: 0.01
}
bias_filler {
type: "constant"
value: 0
}
}
}
layer {
name: "loss"
type: "SoftmaxWithLoss"
bottom: "fc8"
bottom: "label"
top: "loss"
}
I0428 15:36:42.259748 20568 layer_factory.hpp:77] Creating layer train-data
I0428 15:36:42.261731 20568 db_lmdb.cpp:35] Opened lmdb /mnt/bigdisk/DIGITS-MAN-3/digits/jobs/20210421-230320-902c/train_db
I0428 15:36:42.261953 20568 net.cpp:84] Creating Layer train-data
I0428 15:36:42.261965 20568 net.cpp:380] train-data -> data
I0428 15:36:42.261983 20568 net.cpp:380] train-data -> label
I0428 15:36:42.261994 20568 data_transformer.cpp:25] Loading mean file from: /mnt/bigdisk/DIGITS-MAN-3/digits/jobs/20210421-230320-902c/mean.binaryproto
I0428 15:36:42.270191 20568 data_layer.cpp:45] output data size: 128,3,227,227
I0428 15:36:42.400517 20568 net.cpp:122] Setting up train-data
I0428 15:36:42.400542 20568 net.cpp:129] Top shape: 128 3 227 227 (19787136)
I0428 15:36:42.400547 20568 net.cpp:129] Top shape: 128 (128)
I0428 15:36:42.400549 20568 net.cpp:137] Memory required for data: 79149056
I0428 15:36:42.400558 20568 layer_factory.hpp:77] Creating layer conv1
I0428 15:36:42.400578 20568 net.cpp:84] Creating Layer conv1
I0428 15:36:42.400583 20568 net.cpp:406] conv1 <- data
I0428 15:36:42.400594 20568 net.cpp:380] conv1 -> conv1
I0428 15:36:43.099190 20568 net.cpp:122] Setting up conv1
I0428 15:36:43.099236 20568 net.cpp:129] Top shape: 128 96 55 55 (37171200)
I0428 15:36:43.099239 20568 net.cpp:137] Memory required for data: 227833856
I0428 15:36:43.099259 20568 layer_factory.hpp:77] Creating layer relu1
I0428 15:36:43.099269 20568 net.cpp:84] Creating Layer relu1
I0428 15:36:43.099273 20568 net.cpp:406] relu1 <- conv1
I0428 15:36:43.099279 20568 net.cpp:367] relu1 -> conv1 (in-place)
I0428 15:36:43.099562 20568 net.cpp:122] Setting up relu1
I0428 15:36:43.099570 20568 net.cpp:129] Top shape: 128 96 55 55 (37171200)
I0428 15:36:43.099575 20568 net.cpp:137] Memory required for data: 376518656
I0428 15:36:43.099578 20568 layer_factory.hpp:77] Creating layer norm1
I0428 15:36:43.099586 20568 net.cpp:84] Creating Layer norm1
I0428 15:36:43.099591 20568 net.cpp:406] norm1 <- conv1
I0428 15:36:43.099596 20568 net.cpp:380] norm1 -> norm1
I0428 15:36:43.100034 20568 net.cpp:122] Setting up norm1
I0428 15:36:43.100044 20568 net.cpp:129] Top shape: 128 96 55 55 (37171200)
I0428 15:36:43.100049 20568 net.cpp:137] Memory required for data: 525203456
I0428 15:36:43.100052 20568 layer_factory.hpp:77] Creating layer pool1
I0428 15:36:43.100060 20568 net.cpp:84] Creating Layer pool1
I0428 15:36:43.100064 20568 net.cpp:406] pool1 <- norm1
I0428 15:36:43.100068 20568 net.cpp:380] pool1 -> pool1
I0428 15:36:43.100104 20568 net.cpp:122] Setting up pool1
I0428 15:36:43.100109 20568 net.cpp:129] Top shape: 128 96 27 27 (8957952)
I0428 15:36:43.100112 20568 net.cpp:137] Memory required for data: 561035264
I0428 15:36:43.100116 20568 layer_factory.hpp:77] Creating layer conv1.5
I0428 15:36:43.100126 20568 net.cpp:84] Creating Layer conv1.5
I0428 15:36:43.100128 20568 net.cpp:406] conv1.5 <- pool1
I0428 15:36:43.100133 20568 net.cpp:380] conv1.5 -> conv1.5
I0428 15:36:43.113323 20568 net.cpp:122] Setting up conv1.5
I0428 15:36:43.113345 20568 net.cpp:129] Top shape: 128 256 21 21 (14450688)
I0428 15:36:43.113349 20568 net.cpp:137] Memory required for data: 618838016
I0428 15:36:43.113360 20568 layer_factory.hpp:77] Creating layer relu1.5
I0428 15:36:43.113369 20568 net.cpp:84] Creating Layer relu1.5
I0428 15:36:43.113373 20568 net.cpp:406] relu1.5 <- conv1.5
I0428 15:36:43.113379 20568 net.cpp:367] relu1.5 -> conv1.5 (in-place)
I0428 15:36:43.113721 20568 net.cpp:122] Setting up relu1.5
I0428 15:36:43.113729 20568 net.cpp:129] Top shape: 128 256 21 21 (14450688)
I0428 15:36:43.113732 20568 net.cpp:137] Memory required for data: 676640768
I0428 15:36:43.113735 20568 layer_factory.hpp:77] Creating layer norm1.5
I0428 15:36:43.113744 20568 net.cpp:84] Creating Layer norm1.5
I0428 15:36:43.113747 20568 net.cpp:406] norm1.5 <- conv1.5
I0428 15:36:43.113752 20568 net.cpp:380] norm1.5 -> norm1.5
I0428 15:36:43.115397 20568 net.cpp:122] Setting up norm1.5
I0428 15:36:43.115419 20568 net.cpp:129] Top shape: 128 256 21 21 (14450688)
I0428 15:36:43.115424 20568 net.cpp:137] Memory required for data: 734443520
I0428 15:36:43.115429 20568 layer_factory.hpp:77] Creating layer pool1.5
I0428 15:36:43.115445 20568 net.cpp:84] Creating Layer pool1.5
I0428 15:36:43.115449 20568 net.cpp:406] pool1.5 <- norm1.5
I0428 15:36:43.115455 20568 net.cpp:380] pool1.5 -> pool1.5
I0428 15:36:43.115490 20568 net.cpp:122] Setting up pool1.5
I0428 15:36:43.115496 20568 net.cpp:129] Top shape: 128 256 10 10 (3276800)
I0428 15:36:43.115499 20568 net.cpp:137] Memory required for data: 747550720
I0428 15:36:43.115502 20568 layer_factory.hpp:77] Creating layer conv2
I0428 15:36:43.115514 20568 net.cpp:84] Creating Layer conv2
I0428 15:36:43.115516 20568 net.cpp:406] conv2 <- pool1.5
I0428 15:36:43.115522 20568 net.cpp:380] conv2 -> conv2
I0428 15:36:43.126451 20568 net.cpp:122] Setting up conv2
I0428 15:36:43.126472 20568 net.cpp:129] Top shape: 128 256 10 10 (3276800)
I0428 15:36:43.126477 20568 net.cpp:137] Memory required for data: 760657920
I0428 15:36:43.126489 20568 layer_factory.hpp:77] Creating layer relu2
I0428 15:36:43.126497 20568 net.cpp:84] Creating Layer relu2
I0428 15:36:43.126502 20568 net.cpp:406] relu2 <- conv2
I0428 15:36:43.126508 20568 net.cpp:367] relu2 -> conv2 (in-place)
I0428 15:36:43.128827 20568 net.cpp:122] Setting up relu2
I0428 15:36:43.128840 20568 net.cpp:129] Top shape: 128 256 10 10 (3276800)
I0428 15:36:43.128844 20568 net.cpp:137] Memory required for data: 773765120
I0428 15:36:43.128847 20568 layer_factory.hpp:77] Creating layer norm2
I0428 15:36:43.128855 20568 net.cpp:84] Creating Layer norm2
I0428 15:36:43.128859 20568 net.cpp:406] norm2 <- conv2
I0428 15:36:43.128866 20568 net.cpp:380] norm2 -> norm2
I0428 15:36:43.129226 20568 net.cpp:122] Setting up norm2
I0428 15:36:43.129235 20568 net.cpp:129] Top shape: 128 256 10 10 (3276800)
I0428 15:36:43.129238 20568 net.cpp:137] Memory required for data: 786872320
I0428 15:36:43.129242 20568 layer_factory.hpp:77] Creating layer pool2
I0428 15:36:43.129248 20568 net.cpp:84] Creating Layer pool2
I0428 15:36:43.129251 20568 net.cpp:406] pool2 <- norm2
I0428 15:36:43.129259 20568 net.cpp:380] pool2 -> pool2
I0428 15:36:43.129288 20568 net.cpp:122] Setting up pool2
I0428 15:36:43.129294 20568 net.cpp:129] Top shape: 128 256 5 5 (819200)
I0428 15:36:43.129297 20568 net.cpp:137] Memory required for data: 790149120
I0428 15:36:43.129300 20568 layer_factory.hpp:77] Creating layer conv3
I0428 15:36:43.129312 20568 net.cpp:84] Creating Layer conv3
I0428 15:36:43.129314 20568 net.cpp:406] conv3 <- pool2
I0428 15:36:43.129319 20568 net.cpp:380] conv3 -> conv3
I0428 15:36:43.140867 20568 net.cpp:122] Setting up conv3
I0428 15:36:43.140887 20568 net.cpp:129] Top shape: 128 384 5 5 (1228800)
I0428 15:36:43.140890 20568 net.cpp:137] Memory required for data: 795064320
I0428 15:36:43.140899 20568 layer_factory.hpp:77] Creating layer relu3
I0428 15:36:43.140908 20568 net.cpp:84] Creating Layer relu3
I0428 15:36:43.140913 20568 net.cpp:406] relu3 <- conv3
I0428 15:36:43.140919 20568 net.cpp:367] relu3 -> conv3 (in-place)
I0428 15:36:43.141427 20568 net.cpp:122] Setting up relu3
I0428 15:36:43.141436 20568 net.cpp:129] Top shape: 128 384 5 5 (1228800)
I0428 15:36:43.141439 20568 net.cpp:137] Memory required for data: 799979520
I0428 15:36:43.141443 20568 layer_factory.hpp:77] Creating layer conv4
I0428 15:36:43.141454 20568 net.cpp:84] Creating Layer conv4
I0428 15:36:43.141458 20568 net.cpp:406] conv4 <- conv3
I0428 15:36:43.141465 20568 net.cpp:380] conv4 -> conv4
I0428 15:36:43.152922 20568 net.cpp:122] Setting up conv4
I0428 15:36:43.152941 20568 net.cpp:129] Top shape: 128 384 5 5 (1228800)
I0428 15:36:43.152945 20568 net.cpp:137] Memory required for data: 804894720
I0428 15:36:43.152957 20568 layer_factory.hpp:77] Creating layer relu4
I0428 15:36:43.152969 20568 net.cpp:84] Creating Layer relu4
I0428 15:36:43.152973 20568 net.cpp:406] relu4 <- conv4
I0428 15:36:43.152979 20568 net.cpp:367] relu4 -> conv4 (in-place)
I0428 15:36:43.153468 20568 net.cpp:122] Setting up relu4
I0428 15:36:43.153477 20568 net.cpp:129] Top shape: 128 384 5 5 (1228800)
I0428 15:36:43.153481 20568 net.cpp:137] Memory required for data: 809809920
I0428 15:36:43.153484 20568 layer_factory.hpp:77] Creating layer conv5
I0428 15:36:43.153496 20568 net.cpp:84] Creating Layer conv5
I0428 15:36:43.153499 20568 net.cpp:406] conv5 <- conv4
I0428 15:36:43.153506 20568 net.cpp:380] conv5 -> conv5
I0428 15:36:43.162441 20568 net.cpp:122] Setting up conv5
I0428 15:36:43.162458 20568 net.cpp:129] Top shape: 128 256 5 5 (819200)
I0428 15:36:43.162462 20568 net.cpp:137] Memory required for data: 813086720
I0428 15:36:43.162472 20568 layer_factory.hpp:77] Creating layer relu5
I0428 15:36:43.162480 20568 net.cpp:84] Creating Layer relu5
I0428 15:36:43.162484 20568 net.cpp:406] relu5 <- conv5
I0428 15:36:43.162492 20568 net.cpp:367] relu5 -> conv5 (in-place)
I0428 15:36:43.163040 20568 net.cpp:122] Setting up relu5
I0428 15:36:43.163050 20568 net.cpp:129] Top shape: 128 256 5 5 (819200)
I0428 15:36:43.163053 20568 net.cpp:137] Memory required for data: 816363520
I0428 15:36:43.163058 20568 layer_factory.hpp:77] Creating layer pool5
I0428 15:36:43.163064 20568 net.cpp:84] Creating Layer pool5
I0428 15:36:43.163067 20568 net.cpp:406] pool5 <- conv5
I0428 15:36:43.163074 20568 net.cpp:380] pool5 -> pool5
I0428 15:36:43.163131 20568 net.cpp:122] Setting up pool5
I0428 15:36:43.163136 20568 net.cpp:129] Top shape: 128 256 2 2 (131072)
I0428 15:36:43.163141 20568 net.cpp:137] Memory required for data: 816887808
I0428 15:36:43.163143 20568 layer_factory.hpp:77] Creating layer fc6
I0428 15:36:43.163151 20568 net.cpp:84] Creating Layer fc6
I0428 15:36:43.163153 20568 net.cpp:406] fc6 <- pool5
I0428 15:36:43.163159 20568 net.cpp:380] fc6 -> fc6
I0428 15:36:43.207916 20568 net.cpp:122] Setting up fc6
I0428 15:36:43.207935 20568 net.cpp:129] Top shape: 128 4096 (524288)
I0428 15:36:43.207939 20568 net.cpp:137] Memory required for data: 818984960
I0428 15:36:43.207947 20568 layer_factory.hpp:77] Creating layer relu6
I0428 15:36:43.207957 20568 net.cpp:84] Creating Layer relu6
I0428 15:36:43.207962 20568 net.cpp:406] relu6 <- fc6
I0428 15:36:43.207968 20568 net.cpp:367] relu6 -> fc6 (in-place)
I0428 15:36:43.212160 20568 net.cpp:122] Setting up relu6
I0428 15:36:43.212172 20568 net.cpp:129] Top shape: 128 4096 (524288)
I0428 15:36:43.212174 20568 net.cpp:137] Memory required for data: 821082112
I0428 15:36:43.212178 20568 layer_factory.hpp:77] Creating layer drop6
I0428 15:36:43.212185 20568 net.cpp:84] Creating Layer drop6
I0428 15:36:43.212189 20568 net.cpp:406] drop6 <- fc6
I0428 15:36:43.212195 20568 net.cpp:367] drop6 -> fc6 (in-place)
I0428 15:36:43.212224 20568 net.cpp:122] Setting up drop6
I0428 15:36:43.212229 20568 net.cpp:129] Top shape: 128 4096 (524288)
I0428 15:36:43.212231 20568 net.cpp:137] Memory required for data: 823179264
I0428 15:36:43.212235 20568 layer_factory.hpp:77] Creating layer fc7
I0428 15:36:43.212242 20568 net.cpp:84] Creating Layer fc7
I0428 15:36:43.212245 20568 net.cpp:406] fc7 <- fc6
I0428 15:36:43.212251 20568 net.cpp:380] fc7 -> fc7
I0428 15:36:43.372583 20568 net.cpp:122] Setting up fc7
I0428 15:36:43.372604 20568 net.cpp:129] Top shape: 128 4096 (524288)
I0428 15:36:43.372608 20568 net.cpp:137] Memory required for data: 825276416
I0428 15:36:43.372618 20568 layer_factory.hpp:77] Creating layer relu7
I0428 15:36:43.372627 20568 net.cpp:84] Creating Layer relu7
I0428 15:36:43.372632 20568 net.cpp:406] relu7 <- fc7
I0428 15:36:43.372639 20568 net.cpp:367] relu7 -> fc7 (in-place)
I0428 15:36:43.373044 20568 net.cpp:122] Setting up relu7
I0428 15:36:43.373054 20568 net.cpp:129] Top shape: 128 4096 (524288)
I0428 15:36:43.373057 20568 net.cpp:137] Memory required for data: 827373568
I0428 15:36:43.373060 20568 layer_factory.hpp:77] Creating layer drop7
I0428 15:36:43.373067 20568 net.cpp:84] Creating Layer drop7
I0428 15:36:43.373071 20568 net.cpp:406] drop7 <- fc7
I0428 15:36:43.373077 20568 net.cpp:367] drop7 -> fc7 (in-place)
I0428 15:36:43.373102 20568 net.cpp:122] Setting up drop7
I0428 15:36:43.373107 20568 net.cpp:129] Top shape: 128 4096 (524288)
I0428 15:36:43.373111 20568 net.cpp:137] Memory required for data: 829470720
I0428 15:36:43.373113 20568 layer_factory.hpp:77] Creating layer fc8
I0428 15:36:43.373121 20568 net.cpp:84] Creating Layer fc8
I0428 15:36:43.373123 20568 net.cpp:406] fc8 <- fc7
I0428 15:36:43.373129 20568 net.cpp:380] fc8 -> fc8
I0428 15:36:43.385007 20568 net.cpp:122] Setting up fc8
I0428 15:36:43.385025 20568 net.cpp:129] Top shape: 128 196 (25088)
I0428 15:36:43.385028 20568 net.cpp:137] Memory required for data: 829571072
I0428 15:36:43.385041 20568 layer_factory.hpp:77] Creating layer loss
I0428 15:36:43.385049 20568 net.cpp:84] Creating Layer loss
I0428 15:36:43.385056 20568 net.cpp:406] loss <- fc8
I0428 15:36:43.385061 20568 net.cpp:406] loss <- label
I0428 15:36:43.385069 20568 net.cpp:380] loss -> loss
I0428 15:36:43.385079 20568 layer_factory.hpp:77] Creating layer loss
…
I0428 15:36:43.389266 20568 net.cpp:294] The NetState phase (1) differed from the phase (0) specified by a rule in layer train-data
I0428 15:36:43.389423 20568 net.cpp:51] Initializing net from parameters:
state {
phase: TEST
}
layer {
name: "val-data"
type: "Data"
top: "data"
top: "label"
include {
phase: TEST
}
transform_param {
crop_size: 227
mean_file: "/mnt/bigdisk/DIGITS-MAN-3/digits/jobs/20210421-230320-902c/mean.binaryproto"
}
data_param {
source: "/mnt/bigdisk/DIGITS-MAN-3/digits/jobs/20210421-230320-902c/val_db"
batch_size: 32
backend: LMDB
}
}
layer {
name: "conv1"
type: "Convolution"
bottom: "data"
top: "conv1"
param {
lr_mult: 1
decay_mult: 1
}
param {
lr_mult: 2
decay_mult: 0
}
convolution_param {
num_output: 96
kernel_size: 11
stride: 4
weight_filler {
type: "gaussian"
std: 0.01
}
bias_filler {
type: "constant"
value: 0
}
}
}
layer {
name: "relu1"
type: "ReLU"
bottom: "conv1"
top: "conv1"
}
layer {
name: "norm1"
type: "LRN"
bottom: "conv1"
top: "norm1"
lrn_param {
local_size: 5
alpha: 0.0001
beta: 0.75
}
}
layer {
name: "pool1"
type: "Pooling"
bottom: "norm1"
top: "pool1"
pooling_param {
pool: MAX
kernel_size: 3
stride: 2
}
}
layer {
name: "conv1.5"
type: "Convolution"
bottom: "pool1"
top: "conv1.5"
param {
lr_mult: 1
decay_mult: 1
}
param {
lr_mult: 2
decay_mult: 0
}
convolution_param {
num_output: 256
kernel_size: 7
stride: 1
weight_filler {
type: "gaussian"
std: 0.01
}
bias_filler {
type: "constant"
value: 0
}
}
}
layer {
name: "relu1.5"
type: "ReLU"
bottom: "conv1.5"
top: "conv1.5"
}
layer {
name: "norm1.5"
type: "LRN"
bottom: "conv1.5"
top: "norm1.5"
lrn_param {
local_size: 5
alpha: 0.0001
beta: 0.75
}
}
layer {
name: "pool1.5"
type: "Pooling"
bottom: "norm1.5"
top: "pool1.5"
pooling_param {
pool: MAX
kernel_size: 3
stride: 2
}
}
layer {
name: "conv2"
type: "Convolution"
bottom: "pool1.5"
top: "conv2"
param {
lr_mult: 1
decay_mult: 1
}
param {
lr_mult: 2
decay_mult: 0
}
convolution_param {
num_output: 256
pad: 2
kernel_size: 5
group: 2
weight_filler {
type: "gaussian"
std: 0.01
}
bias_filler {
type: "constant"
value: 0.1
}
}
}
layer {
name: "relu2"
type: "ReLU"
bottom: "conv2"
top: "conv2"
}
layer {
name: "norm2"
type: "LRN"
bottom: "conv2"
top: "norm2"
lrn_param {
local_size: 5
alpha: 0.0001
beta: 0.75
}
}
layer {
name: "pool2"
type: "Pooling"
bottom: "norm2"
top: "pool2"
pooling_param {
pool: MAX
kernel_size: 3
stride: 2
}
}
layer {
name: "conv3"
type: "Convolution"
bottom: "pool2"
top: "conv3"
param {
lr_mult: 1
decay_mult: 1
}
param {
lr_mult: 2
decay_mult: 0
}
convolution_param {
num_output: 384
pad: 1
kernel_size: 3
weight_filler {
type: "gaussian"
std: 0.01
}
bias_filler {
type: "constant"
value: 0
}
}
}
layer {
name: "relu3"
type: "ReLU"
bottom: "conv3"
top: "conv3"
}
layer {
name: "conv4"
type: "Convolution"
bottom: "conv3"
top: "conv4"
param {
lr_mult: 1
decay_mult: 1
}
param {
lr_mult: 2
decay_mult: 0
}
convolution_param {
num_output: 384
pad: 1
kernel_size: 3
group: 2
weight_filler {
type: "gaussian"
std: 0.01
}
bias_filler {
type: "constant"
value: 0.1
}
}
}
layer {
name: "relu4"
type: "ReLU"
bottom: "conv4"
top: "conv4"
}
layer {
name: "conv5"
type: "Convolution"
bottom: "conv4"
top: "conv5"
param {
lr_mult: 1
decay_mult: 1
}
param {
lr_mult: 2
decay_mult: 0
}
convolution_param {
num_output: 256
pad: 1
kernel_size: 3
group: 2
weight_filler {
type: "gaussian"
std: 0.01
}
bias_filler {
type: "constant"
value: 0.1
}
}
}
layer {
name: "relu5"
type: "ReLU"
bottom: "conv5"
top: "conv5"
}
layer {
name: "pool5"
type: "Pooling"
bottom: "conv5"
top: "pool5"
pooling_param {
pool: MAX
kernel_size: 3
stride: 2
}
}
layer {
name: "fc6"
type: "InnerProduct"
bottom: "pool5"
top: "fc6"
param {
lr_mult: 1
decay_mult: 1
}
param {
lr_mult: 2
decay_mult: 0
}
inner_product_param {
num_output: 4096
weight_filler {
type: "gaussian"
std: 0.005
}
bias_filler {
type: "constant"
value: 0.1
}
}
}
layer {
name: "relu6"
type: "ReLU"
bottom: "fc6"
top: "fc6"
}
layer {
name: "drop6"
type: "Dropout"
bottom: "fc6"
top: "fc6"
dropout_param {
dropout_ratio: 0.5
}
}
layer {
name: "fc7"
type: "InnerProduct"
bottom: "fc6"
top: "fc7"
param {
lr_mult: 1
decay_mult: 1
}
param {
lr_mult: 2
decay_mult: 0
}
inner_product_param {
num_output: 4096
weight_filler {
type: "gaussian"
std: 0.005
}
bias_filler {
type: "constant"
value: 0.1
}
}
}
layer {
name: "relu7"
type: "ReLU"
bottom: "fc7"
top: "fc7"
}
layer {
name: "drop7"
type: "Dropout"
bottom: "fc7"
top: "fc7"
dropout_param {
dropout_ratio: 0.5
}
}
layer {
name: "fc8"
type: "InnerProduct"
bottom: "fc7"
top: "fc8"
param {
lr_mult: 1
decay_mult: 1
}
param {
lr_mult: 2
decay_mult: 0
}
inner_product_param {
num_output: 196
weight_filler {
type: "gaussian"
std: 0.01
}
bias_filler {
type: "constant"
value: 0
}
}
}
layer {
name: "accuracy"
type: "Accuracy"
bottom: "fc8"
bottom: "label"
top: "accuracy"
include {
phase: TEST
}
}
layer {
name: "loss"
type: "SoftmaxWithLoss"
bottom: "fc8"
bottom: "label"
top: "loss"
}
I0428 15:36:43.389525 20568 layer_factory.hpp:77] Creating layer val-data
I0428 15:36:43.391304 20568 db_lmdb.cpp:35] Opened lmdb /mnt/bigdisk/DIGITS-MAN-3/digits/jobs/20210421-230320-902c/val_db
I0428 15:36:43.391741 20568 net.cpp:84] Creating Layer val-data
I0428 15:36:43.391749 20568 net.cpp:380] val-data -> data
I0428 15:36:43.391759 20568 net.cpp:380] val-data -> label
I0428 15:36:43.391770 20568 data_transformer.cpp:25] Loading mean file from: /mnt/bigdisk/DIGITS-MAN-3/digits/jobs/20210421-230320-902c/mean.binaryproto
I0428 15:36:43.395251 20568 data_layer.cpp:45] output data size: 32,3,227,227
I0428 15:36:43.431254 20568 net.cpp:122] Setting up val-data
I0428 15:36:43.431278 20568 net.cpp:129] Top shape: 32 3 227 227 (4946784)
I0428 15:36:43.431283 20568 net.cpp:129] Top shape: 32 (32)
I0428 15:36:43.431286 20568 net.cpp:137] Memory required for data: 19787264
I0428 15:36:43.431293 20568 layer_factory.hpp:77] Creating layer label_val-data_1_split
I0428 15:36:43.431304 20568 net.cpp:84] Creating Layer label_val-data_1_split
I0428 15:36:43.431308 20568 net.cpp:406] label_val-data_1_split <- label
I0428 15:36:43.431315 20568 net.cpp:380] label_val-data_1_split -> label_val-data_1_split_0
I0428 15:36:43.431324 20568 net.cpp:380] label_val-data_1_split -> label_val-data_1_split_1
I0428 15:36:43.431439 20568 net.cpp:122] Setting up label_val-data_1_split
I0428 15:36:43.431447 20568 net.cpp:129] Top shape: 32 (32)
I0428 15:36:43.431449 20568 net.cpp:129] Top shape: 32 (32)
I0428 15:36:43.431452 20568 net.cpp:137] Memory required for data: 19787520
I0428 15:36:43.431457 20568 layer_factory.hpp:77] Creating layer conv1
I0428 15:36:43.431470 20568 net.cpp:84] Creating Layer conv1
I0428 15:36:43.431475 20568 net.cpp:406] conv1 <- data
I0428 15:36:43.431481 20568 net.cpp:380] conv1 -> conv1
I0428 15:36:43.434541 20568 net.cpp:122] Setting up conv1
I0428 15:36:43.434556 20568 net.cpp:129] Top shape: 32 96 55 55 (9292800)
I0428 15:36:43.434558 20568 net.cpp:137] Memory required for data: 56958720
I0428 15:36:43.434569 20568 layer_factory.hpp:77] Creating layer relu1
I0428 15:36:43.434576 20568 net.cpp:84] Creating Layer relu1
I0428 15:36:43.434581 20568 net.cpp:406] relu1 <- conv1
I0428 15:36:43.434585 20568 net.cpp:367] relu1 -> conv1 (in-place)
I0428 15:36:43.434867 20568 net.cpp:122] Setting up relu1
I0428 15:36:43.434876 20568 net.cpp:129] Top shape: 32 96 55 55 (9292800)
I0428 15:36:43.434880 20568 net.cpp:137] Memory required for data: 94129920
I0428 15:36:43.434883 20568 layer_factory.hpp:77] Creating layer norm1
I0428 15:36:43.434891 20568 net.cpp:84] Creating Layer norm1
I0428 15:36:43.434895 20568 net.cpp:406] norm1 <- conv1
I0428 15:36:43.434900 20568 net.cpp:380] norm1 -> norm1
I0428 15:36:43.437002 20568 net.cpp:122] Setting up norm1
I0428 15:36:43.437014 20568 net.cpp:129] Top shape: 32 96 55 55 (9292800)
I0428 15:36:43.437017 20568 net.cpp:137] Memory required for data: 131301120
I0428 15:36:43.437021 20568 layer_factory.hpp:77] Creating layer pool1
I0428 15:36:43.437029 20568 net.cpp:84] Creating Layer pool1
I0428 15:36:43.437036 20568 net.cpp:406] pool1 <- norm1
I0428 15:36:43.437043 20568 net.cpp:380] pool1 -> pool1
I0428 15:36:43.437077 20568 net.cpp:122] Setting up pool1
I0428 15:36:43.437083 20568 net.cpp:129] Top shape: 32 96 27 27 (2239488)
I0428 15:36:43.437086 20568 net.cpp:137] Memory required for data: 140259072
I0428 15:36:43.437089 20568 layer_factory.hpp:77] Creating layer conv1.5
I0428 15:36:43.437098 20568 net.cpp:84] Creating Layer conv1.5
I0428 15:36:43.437100 20568 net.cpp:406] conv1.5 <- pool1
I0428 15:36:43.437108 20568 net.cpp:380] conv1.5 -> conv1.5
I0428 15:36:43.451297 20568 net.cpp:122] Setting up conv1.5
I0428 15:36:43.451320 20568 net.cpp:129] Top shape: 32 256 21 21 (3612672)
I0428 15:36:43.451325 20568 net.cpp:137] Memory required for data: 154709760
I0428 15:36:43.451339 20568 layer_factory.hpp:77] Creating layer relu1.5
I0428 15:36:43.451349 20568 net.cpp:84] Creating Layer relu1.5
I0428 15:36:43.451373 20568 net.cpp:406] relu1.5 <- conv1.5
I0428 15:36:43.451380 20568 net.cpp:367] relu1.5 -> conv1.5 (in-place)
I0428 15:36:43.451769 20568 net.cpp:122] Setting up relu1.5
I0428 15:36:43.451779 20568 net.cpp:129] Top shape: 32 256 21 21 (3612672)
I0428 15:36:43.451782 20568 net.cpp:137] Memory required for data: 169160448
I0428 15:36:43.451786 20568 layer_factory.hpp:77] Creating layer norm1.5
I0428 15:36:43.451797 20568 net.cpp:84] Creating Layer norm1.5
I0428 15:36:43.451800 20568 net.cpp:406] norm1.5 <- conv1.5
I0428 15:36:43.451807 20568 net.cpp:380] norm1.5 -> norm1.5
I0428 15:36:43.452363 20568 net.cpp:122] Setting up norm1.5
I0428 15:36:43.452373 20568 net.cpp:129] Top shape: 32 256 21 21 (3612672)
I0428 15:36:43.452376 20568 net.cpp:137] Memory required for data: 183611136
I0428 15:36:43.452380 20568 layer_factory.hpp:77] Creating layer pool1.5
I0428 15:36:43.452389 20568 net.cpp:84] Creating Layer pool1.5
I0428 15:36:43.452392 20568 net.cpp:406] pool1.5 <- norm1.5
I0428 15:36:43.452397 20568 net.cpp:380] pool1.5 -> pool1.5
I0428 15:36:43.452437 20568 net.cpp:122] Setting up pool1.5
I0428 15:36:43.452443 20568 net.cpp:129] Top shape: 32 256 10 10 (819200)
I0428 15:36:43.452446 20568 net.cpp:137] Memory required for data: 186887936
I0428 15:36:43.452450 20568 layer_factory.hpp:77] Creating layer conv2
I0428 15:36:43.452461 20568 net.cpp:84] Creating Layer conv2
I0428 15:36:43.452464 20568 net.cpp:406] conv2 <- pool1.5
I0428 15:36:43.452471 20568 net.cpp:380] conv2 -> conv2
I0428 15:36:43.465543 20568 net.cpp:122] Setting up conv2
I0428 15:36:43.465566 20568 net.cpp:129] Top shape: 32 256 10 10 (819200)
I0428 15:36:43.465574 20568 net.cpp:137] Memory required for data: 190164736
I0428 15:36:43.465590 20568 layer_factory.hpp:77] Creating layer relu2
I0428 15:36:43.465600 20568 net.cpp:84] Creating Layer relu2
I0428 15:36:43.465605 20568 net.cpp:406] relu2 <- conv2
I0428 15:36:43.465611 20568 net.cpp:367] relu2 -> conv2 (in-place)
I0428 15:36:43.466157 20568 net.cpp:122] Setting up relu2
I0428 15:36:43.466166 20568 net.cpp:129] Top shape: 32 256 10 10 (819200)
I0428 15:36:43.466171 20568 net.cpp:137] Memory required for data: 193441536
I0428 15:36:43.466176 20568 layer_factory.hpp:77] Creating layer norm2
I0428 15:36:43.466189 20568 net.cpp:84] Creating Layer norm2
I0428 15:36:43.466197 20568 net.cpp:406] norm2 <- conv2
I0428 15:36:43.466202 20568 net.cpp:380] norm2 -> norm2
I0428 15:36:43.466604 20568 net.cpp:122] Setting up norm2
I0428 15:36:43.466614 20568 net.cpp:129] Top shape: 32 256 10 10 (819200)
I0428 15:36:43.466616 20568 net.cpp:137] Memory required for data: 196718336
I0428 15:36:43.466620 20568 layer_factory.hpp:77] Creating layer pool2
I0428 15:36:43.466629 20568 net.cpp:84] Creating Layer pool2
I0428 15:36:43.466635 20568 net.cpp:406] pool2 <- norm2
I0428 15:36:43.466642 20568 net.cpp:380] pool2 -> pool2
I0428 15:36:43.466681 20568 net.cpp:122] Setting up pool2
I0428 15:36:43.466686 20568 net.cpp:129] Top shape: 32 256 5 5 (204800)
I0428 15:36:43.466689 20568 net.cpp:137] Memory required for data: 197537536
I0428 15:36:43.466692 20568 layer_factory.hpp:77] Creating layer conv3
I0428 15:36:43.466703 20568 net.cpp:84] Creating Layer conv3
I0428 15:36:43.466706 20568 net.cpp:406] conv3 <- pool2
I0428 15:36:43.466713 20568 net.cpp:380] conv3 -> conv3
I0428 15:36:43.480470 20568 net.cpp:122] Setting up conv3
I0428 15:36:43.480512 20568 net.cpp:129] Top shape: 32 384 5 5 (307200)
I0428 15:36:43.480521 20568 net.cpp:137] Memory required for data: 198766336
I0428 15:36:43.480536 20568 layer_factory.hpp:77] Creating layer relu3
I0428 15:36:43.480546 20568 net.cpp:84] Creating Layer relu3
I0428 15:36:43.480551 20568 net.cpp:406] relu3 <- conv3
I0428 15:36:43.480559 20568 net.cpp:367] relu3 -> conv3 (in-place)
I0428 15:36:43.481129 20568 net.cpp:122] Setting up relu3
I0428 15:36:43.481142 20568 net.cpp:129] Top shape: 32 384 5 5 (307200)
I0428 15:36:43.481146 20568 net.cpp:137] Memory required for data: 199995136
I0428 15:36:43.481150 20568 layer_factory.hpp:77] Creating layer conv4
I0428 15:36:43.481189 20568 net.cpp:84] Creating Layer conv4
I0428 15:36:43.481197 20568 net.cpp:406] conv4 <- conv3
I0428 15:36:43.481210 20568 net.cpp:380] conv4 -> conv4
I0428 15:36:43.491760 20568 net.cpp:122] Setting up conv4
I0428 15:36:43.491778 20568 net.cpp:129] Top shape: 32 384 5 5 (307200)
I0428 15:36:43.491783 20568 net.cpp:137] Memory required for data: 201223936
I0428 15:36:43.491802 20568 layer_factory.hpp:77] Creating layer relu4
I0428 15:36:43.491816 20568 net.cpp:84] Creating Layer relu4
I0428 15:36:43.491822 20568 net.cpp:406] relu4 <- conv4
I0428 15:36:43.491829 20568 net.cpp:367] relu4 -> conv4 (in-place)
I0428 15:36:43.492368 20568 net.cpp:122] Setting up relu4
I0428 15:36:43.492378 20568 net.cpp:129] Top shape: 32 384 5 5 (307200)
I0428 15:36:43.492383 20568 net.cpp:137] Memory required for data: 202452736
I0428 15:36:43.492388 20568 layer_factory.hpp:77] Creating layer conv5
I0428 15:36:43.492400 20568 net.cpp:84] Creating Layer conv5
I0428 15:36:43.492406 20568 net.cpp:406] conv5 <- conv4
I0428 15:36:43.492420 20568 net.cpp:380] conv5 -> conv5
I0428 15:36:43.502324 20568 net.cpp:122] Setting up conv5
I0428 15:36:43.502344 20568 net.cpp:129] Top shape: 32 256 5 5 (204800)
I0428 15:36:43.502349 20568 net.cpp:137] Memory required for data: 203271936
I0428 15:36:43.502358 20568 layer_factory.hpp:77] Creating layer relu5
I0428 15:36:43.502368 20568 net.cpp:84] Creating Layer relu5
I0428 15:36:43.502377 20568 net.cpp:406] relu5 <- conv5
I0428 15:36:43.502388 20568 net.cpp:367] relu5 -> conv5 (in-place)
I0428 15:36:43.502948 20568 net.cpp:122] Setting up relu5
I0428 15:36:43.502961 20568 net.cpp:129] Top shape: 32 256 5 5 (204800)
I0428 15:36:43.502969 20568 net.cpp:137] Memory required for data: 204091136
I0428 15:36:43.502976 20568 layer_factory.hpp:77] Creating layer pool5
I0428 15:36:43.502990 20568 net.cpp:84] Creating Layer pool5
I0428 15:36:43.502993 20568 net.cpp:406] pool5 <- conv5
I0428 15:36:43.503000 20568 net.cpp:380] pool5 -> pool5
I0428 15:36:43.503048 20568 net.cpp:122] Setting up pool5
I0428 15:36:43.503058 20568 net.cpp:129] Top shape: 32 256 2 2 (32768)
I0428 15:36:43.503064 20568 net.cpp:137] Memory required for data: 204222208
I0428 15:36:43.503068 20568 layer_factory.hpp:77] Creating layer fc6
I0428 15:36:43.503078 20568 net.cpp:84] Creating Layer fc6
I0428 15:36:43.503082 20568 net.cpp:406] fc6 <- pool5
I0428 15:36:43.503088 20568 net.cpp:380] fc6 -> fc6
I0428 15:36:43.546340 20568 net.cpp:122] Setting up fc6
I0428 15:36:43.546360 20568 net.cpp:129] Top shape: 32 4096 (131072)
I0428 15:36:43.546365 20568 net.cpp:137] Memory required for data: 204746496
I0428 15:36:43.546377 20568 layer_factory.hpp:77] Creating layer relu6
I0428 15:36:43.546391 20568 net.cpp:84] Creating Layer relu6
I0428 15:36:43.546396 20568 net.cpp:406] relu6 <- fc6
I0428 15:36:43.546402 20568 net.cpp:367] relu6 -> fc6 (in-place)
I0428 15:36:43.552685 20568 net.cpp:122] Setting up relu6
I0428 15:36:43.552698 20568 net.cpp:129] Top shape: 32 4096 (131072)
I0428 15:36:43.552702 20568 net.cpp:137] Memory required for data: 205270784
I0428 15:36:43.552706 20568 layer_factory.hpp:77] Creating layer drop6
I0428 15:36:43.552713 20568 net.cpp:84] Creating Layer drop6
I0428 15:36:43.552718 20568 net.cpp:406] drop6 <- fc6
I0428 15:36:43.552724 20568 net.cpp:367] drop6 -> fc6 (in-place)
I0428 15:36:43.552757 20568 net.cpp:122] Setting up drop6
I0428 15:36:43.552763 20568 net.cpp:129] Top shape: 32 4096 (131072)
I0428 15:36:43.552767 20568 net.cpp:137] Memory required for data: 205795072
I0428 15:36:43.552769 20568 layer_factory.hpp:77] Creating layer fc7
I0428 15:36:43.552778 20568 net.cpp:84] Creating Layer fc7
I0428 15:36:43.552781 20568 net.cpp:406] fc7 <- fc6
I0428 15:36:43.552786 20568 net.cpp:380] fc7 -> fc7
I0428 15:36:43.714685 20568 net.cpp:122] Setting up fc7
I0428 15:36:43.714704 20568 net.cpp:129] Top shape: 32 4096 (131072)
I0428 15:36:43.714709 20568 net.cpp:137] Memory required for data: 206319360
I0428 15:36:43.714718 20568 layer_factory.hpp:77] Creating layer relu7
I0428 15:36:43.714727 20568 net.cpp:84] Creating Layer relu7
I0428 15:36:43.714751 20568 net.cpp:406] relu7 <- fc7
I0428 15:36:43.714757 20568 net.cpp:367] relu7 -> fc7 (in-place)
I0428 15:36:43.715174 20568 net.cpp:122] Setting up relu7
I0428 15:36:43.715183 20568 net.cpp:129] Top shape: 32 4096 (131072)
I0428 15:36:43.715186 20568 net.cpp:137] Memory required for data: 206843648
I0428 15:36:43.715190 20568 layer_factory.hpp:77] Creating layer drop7
I0428 15:36:43.715196 20568 net.cpp:84] Creating Layer drop7
I0428 15:36:43.715200 20568 net.cpp:406] drop7 <- fc7
I0428 15:36:43.715206 20568 net.cpp:367] drop7 -> fc7 (in-place)
I0428 15:36:43.715230 20568 net.cpp:122] Setting up drop7
I0428 15:36:43.715235 20568 net.cpp:129] Top shape: 32 4096 (131072)
I0428 15:36:43.715238 20568 net.cpp:137] Memory required for data: 207367936
I0428 15:36:43.715241 20568 layer_factory.hpp:77] Creating layer fc8
I0428 15:36:43.715248 20568 net.cpp:84] Creating Layer fc8
I0428 15:36:43.715251 20568 net.cpp:406] fc8 <- fc7
I0428 15:36:43.715257 20568 net.cpp:380] fc8 -> fc8
I0428 15:36:43.734854 20568 net.cpp:122] Setting up fc8
I0428 15:36:43.734884 20568 net.cpp:129] Top shape: 32 196 (6272)
I0428 15:36:43.734889 20568 net.cpp:137] Memory required for data: 207393024
I0428 15:36:43.734907 20568 layer_factory.hpp:77] Creating layer fc8_fc8_0_split
I0428 15:36:43.734920 20568 net.cpp:84] Creating Layer fc8_fc8_0_split
I0428 15:36:43.734926 20568 net.cpp:406] fc8_fc8_0_split <- fc8
I0428 15:36:43.734937 20568 net.cpp:380] fc8_fc8_0_split -> fc8_fc8_0_split_0
I0428 15:36:43.734949 20568 net.cpp:380] fc8_fc8_0_split -> fc8_fc8_0_split_1
I0428 15:36:43.735000 20568 net.cpp:122] Setting up fc8_fc8_0_split
I0428 15:36:43.735008 20568 net.cpp:129] Top shape: 32 196 (6272)
I0428 15:36:43.735013 20568 net.cpp:129] Top shape: 32 196 (6272)
I0428 15:36:43.735018 20568 net.cpp:137] Memory required for data: 207443200
I0428 15:36:43.735023 20568 layer_factory.hpp:77] Creating layer accuracy
I0428 15:36:43.735033 20568 net.cpp:84] Creating Layer accuracy
I0428 15:36:43.735036 20568 net.cpp:406] accuracy <- fc8_fc8_0_split_0
I0428 15:36:43.735044 20568 net.cpp:406] accuracy <- label_val-data_1_split_0
I0428 15:36:43.735050 20568 net.cpp:380] accuracy -> accuracy
…
