…
I0426 21:20:06.875022 26421 net.cpp:294] The NetState phase (0) differed from the phase (1) specified by a rule in layer accuracy
I0426 21:20:06.875152 26421 net.cpp:51] Initializing net from parameters:
state {
phase: TRAIN
level: 0
stage: ""
}
layer {
name: "train-data"
type: "Data"
top: "data"
top: "label"
include {
phase: TRAIN
}
transform_param {
mirror: true
crop_size: 227
mean_file: "/mnt/bigdisk/DIGITS-MAN-3/digits/jobs/20210421-230320-902c/mean.binaryproto"
}
data_param {
source: "/mnt/bigdisk/DIGITS-MAN-3/digits/jobs/20210421-230320-902c/train_db"
batch_size: 128
backend: LMDB
}
}
layer {
name: "conv1"
type: "Convolution"
bottom: "data"
top: "conv1"
param {
lr_mult: 1
decay_mult: 1
}
param {
lr_mult: 2
decay_mult: 0
}
convolution_param {
num_output: 96
kernel_size: 11
stride: 4
weight_filler {
type: "gaussian"
std: 0.01
}
bias_filler {
type: "constant"
value: 0
}
}
}
layer {
name: "relu1"
type: "ReLU"
bottom: "conv1"
top: "conv1"
}
layer {
name: "norm1"
type: "LRN"
bottom: "conv1"
top: "norm1"
lrn_param {
local_size: 5
alpha: 0.0001
beta: 0.75
}
}
layer {
name: "pool1"
type: "Pooling"
bottom: "norm1"
top: "pool1"
pooling_param {
pool: MAX
kernel_size: 3
stride: 2
}
}
layer {
name: "conv2"
type: "Convolution"
bottom: "pool1"
top: "conv2"
param {
lr_mult: 1
decay_mult: 1
}
param {
lr_mult: 2
decay_mult: 0
}
convolution_param {
num_output: 256
pad: 2
kernel_size: 5
group: 2
weight_filler {
type: "gaussian"
std: 0.01
}
bias_filler {
type: "constant"
value: 0.1
}
}
}
layer {
name: "relu2"
type: "ReLU"
bottom: "conv2"
top: "conv2"
}
layer {
name: "norm2"
type: "LRN"
bottom: "conv2"
top: "norm2"
lrn_param {
local_size: 5
alpha: 0.0001
beta: 0.75
}
}
layer {
name: "pool2"
type: "Pooling"
bottom: "norm2"
top: "pool2"
pooling_param {
pool: MAX
kernel_size: 3
stride: 2
}
}
layer {
name: "conv3"
type: "Convolution"
bottom: "pool2"
top: "conv3"
param {
lr_mult: 1
decay_mult: 1
}
param {
lr_mult: 2
decay_mult: 0
}
convolution_param {
num_output: 384
pad: 1
kernel_size: 3
weight_filler {
type: "gaussian"
std: 0.01
}
bias_filler {
type: "constant"
value: 0
}
}
}
layer {
name: "relu3"
type: "ReLU"
bottom: "conv3"
top: "conv3"
}
layer {
name: "conv4"
type: "Convolution"
bottom: "conv3"
top: "conv4"
param {
lr_mult: 1
decay_mult: 1
}
param {
lr_mult: 2
decay_mult: 0
}
convolution_param {
num_output: 384
pad: 1
kernel_size: 3
group: 2
weight_filler {
type: "gaussian"
std: 0.01
}
bias_filler {
type: "constant"
value: 0.1
}
}
}
layer {
name: "relu4"
type: "ReLU"
bottom: "conv4"
top: "conv4"
}
layer {
name: "conv5"
type: "Convolution"
bottom: "conv4"
top: "conv5"
param {
lr_mult: 1
decay_mult: 1
}
param {
lr_mult: 2
decay_mult: 0
}
convolution_param {
num_output: 256
pad: 1
kernel_size: 7
group: 2
weight_filler {
type: "gaussian"
std: 0.01
}
bias_filler {
type: "constant"
value: 0.1
}
}
}
layer {
name: "relu5"
type: "ReLU"
bottom: "conv5"
top: "conv5"
}
layer {
name: "pool5"
type: "Pooling"
bottom: "conv5"
top: "pool5"
pooling_param {
pool: MAX
kernel_size: 3
stride: 2
}
}
layer {
name: "fc6"
type: "InnerProduct"
bottom: "pool5"
top: "fc6"
param {
lr_mult: 1
decay_mult: 1
}
param {
lr_mult: 2
decay_mult: 0
}
inner_product_param {
num_output: 4096
weight_filler {
type: "gaussian"
std: 0.005
}
bias_filler {
type: "constant"
value: 0.1
}
}
}
layer {
name: "relu6"
type: "ReLU"
bottom: "fc6"
top: "fc6"
}
layer {
name: "drop6"
type: "Dropout"
bottom: "fc6"
top: "fc6"
dropout_param {
dropout_ratio: 0.5
}
}
layer {
name: "fc7"
type: "InnerProduct"
bottom: "fc6"
top: "fc7"
param {
lr_mult: 1
decay_mult: 1
}
param {
lr_mult: 2
decay_mult: 0
}
inner_product_param {
num_output: 4096
weight_filler {
type: "gaussian"
std: 0.005
}
bias_filler {
type: "constant"
value: 0.1
}
}
}
layer {
name: "relu7"
type: "ReLU"
bottom: "fc7"
top: "fc7"
}
layer {
name: "drop7"
type: "Dropout"
bottom: "fc7"
top: "fc7"
dropout_param {
dropout_ratio: 0.5
}
}
layer {
name: "fc8"
type: "InnerProduct"
bottom: "fc7"
top: "fc8"
param {
lr_mult: 1
decay_mult: 1
}
param {
lr_mult: 2
decay_mult: 0
}
inner_product_param {
num_output: 196
weight_filler {
type: "gaussian"
std: 0.01
}
bias_filler {
type: "constant"
value: 0
}
}
}
layer {
name: "loss"
type: "SoftmaxWithLoss"
bottom: "fc8"
bottom: "label"
top: "loss"
}
I0426 21:20:06.875242 26421 layer_factory.hpp:77] Creating layer train-data
I0426 21:20:06.876807 26421 db_lmdb.cpp:35] Opened lmdb /mnt/bigdisk/DIGITS-MAN-3/digits/jobs/20210421-230320-902c/train_db
I0426 21:20:06.876976 26421 net.cpp:84] Creating Layer train-data
I0426 21:20:06.876987 26421 net.cpp:380] train-data -> data
I0426 21:20:06.877007 26421 net.cpp:380] train-data -> label
I0426 21:20:06.877017 26421 data_transformer.cpp:25] Loading mean file from: /mnt/bigdisk/DIGITS-MAN-3/digits/jobs/20210421-230320-902c/mean.binaryproto
I0426 21:20:06.882148 26421 data_layer.cpp:45] output data size: 128,3,227,227
I0426 21:20:07.049100 26421 net.cpp:122] Setting up train-data
I0426 21:20:07.049122 26421 net.cpp:129] Top shape: 128 3 227 227 (19787136)
I0426 21:20:07.049129 26421 net.cpp:129] Top shape: 128 (128)
I0426 21:20:07.049131 26421 net.cpp:137] Memory required for data: 79149056
I0426 21:20:07.049140 26421 layer_factory.hpp:77] Creating layer conv1
I0426 21:20:07.049160 26421 net.cpp:84] Creating Layer conv1
I0426 21:20:07.049166 26421 net.cpp:406] conv1 <- data
I0426 21:20:07.049180 26421 net.cpp:380] conv1 -> conv1
I0426 21:20:07.948137 26421 net.cpp:122] Setting up conv1
I0426 21:20:07.948161 26421 net.cpp:129] Top shape: 128 96 55 55 (37171200)
I0426 21:20:07.948166 26421 net.cpp:137] Memory required for data: 227833856
I0426 21:20:07.948189 26421 layer_factory.hpp:77] Creating layer relu1
I0426 21:20:07.948201 26421 net.cpp:84] Creating Layer relu1
I0426 21:20:07.948206 26421 net.cpp:406] relu1 <- conv1
I0426 21:20:07.948213 26421 net.cpp:367] relu1 -> conv1 (in-place)
I0426 21:20:07.948544 26421 net.cpp:122] Setting up relu1
I0426 21:20:07.948554 26421 net.cpp:129] Top shape: 128 96 55 55 (37171200)
I0426 21:20:07.948559 26421 net.cpp:137] Memory required for data: 376518656
I0426 21:20:07.948563 26421 layer_factory.hpp:77] Creating layer norm1
I0426 21:20:07.948572 26421 net.cpp:84] Creating Layer norm1
I0426 21:20:07.948576 26421 net.cpp:406] norm1 <- conv1
I0426 21:20:07.948603 26421 net.cpp:380] norm1 -> norm1
I0426 21:20:07.949172 26421 net.cpp:122] Setting up norm1
I0426 21:20:07.949184 26421 net.cpp:129] Top shape: 128 96 55 55 (37171200)
I0426 21:20:07.949188 26421 net.cpp:137] Memory required for data: 525203456
I0426 21:20:07.949193 26421 layer_factory.hpp:77] Creating layer pool1
I0426 21:20:07.949201 26421 net.cpp:84] Creating Layer pool1
I0426 21:20:07.949206 26421 net.cpp:406] pool1 <- norm1
I0426 21:20:07.949213 26421 net.cpp:380] pool1 -> pool1
I0426 21:20:07.949249 26421 net.cpp:122] Setting up pool1
I0426 21:20:07.949255 26421 net.cpp:129] Top shape: 128 96 27 27 (8957952)
I0426 21:20:07.949259 26421 net.cpp:137] Memory required for data: 561035264
I0426 21:20:07.949262 26421 layer_factory.hpp:77] Creating layer conv2
I0426 21:20:07.949273 26421 net.cpp:84] Creating Layer conv2
I0426 21:20:07.949277 26421 net.cpp:406] conv2 <- pool1
I0426 21:20:07.949283 26421 net.cpp:380] conv2 -> conv2
I0426 21:20:07.986071 26421 net.cpp:122] Setting up conv2
I0426 21:20:07.986091 26421 net.cpp:129] Top shape: 128 256 27 27 (23887872)
I0426 21:20:07.986096 26421 net.cpp:137] Memory required for data: 656586752
I0426 21:20:07.986110 26421 layer_factory.hpp:77] Creating layer relu2
I0426 21:20:07.986119 26421 net.cpp:84] Creating Layer relu2
I0426 21:20:07.986125 26421 net.cpp:406] relu2 <- conv2
I0426 21:20:07.986132 26421 net.cpp:367] relu2 -> conv2 (in-place)
I0426 21:20:07.986918 26421 net.cpp:122] Setting up relu2
I0426 21:20:07.986929 26421 net.cpp:129] Top shape: 128 256 27 27 (23887872)
I0426 21:20:07.986934 26421 net.cpp:137] Memory required for data: 752138240
I0426 21:20:07.986938 26421 layer_factory.hpp:77] Creating layer norm2
I0426 21:20:07.986946 26421 net.cpp:84] Creating Layer norm2
I0426 21:20:07.986951 26421 net.cpp:406] norm2 <- conv2
I0426 21:20:07.986958 26421 net.cpp:380] norm2 -> norm2
I0426 21:20:07.987248 26421 net.cpp:122] Setting up norm2
I0426 21:20:07.987258 26421 net.cpp:129] Top shape: 128 256 27 27 (23887872)
I0426 21:20:07.987262 26421 net.cpp:137] Memory required for data: 847689728
I0426 21:20:07.987267 26421 layer_factory.hpp:77] Creating layer pool2
I0426 21:20:07.987274 26421 net.cpp:84] Creating Layer pool2
I0426 21:20:07.987278 26421 net.cpp:406] pool2 <- norm2
I0426 21:20:07.987284 26421 net.cpp:380] pool2 -> pool2
I0426 21:20:07.987313 26421 net.cpp:122] Setting up pool2
I0426 21:20:07.987318 26421 net.cpp:129] Top shape: 128 256 13 13 (5537792)
I0426 21:20:07.987323 26421 net.cpp:137] Memory required for data: 869840896
I0426 21:20:07.987326 26421 layer_factory.hpp:77] Creating layer conv3
I0426 21:20:07.987337 26421 net.cpp:84] Creating Layer conv3
I0426 21:20:07.987341 26421 net.cpp:406] conv3 <- pool2
I0426 21:20:07.987346 26421 net.cpp:380] conv3 -> conv3
I0426 21:20:08.054904 26421 net.cpp:122] Setting up conv3
I0426 21:20:08.054931 26421 net.cpp:129] Top shape: 128 384 13 13 (8306688)
I0426 21:20:08.054937 26421 net.cpp:137] Memory required for data: 903067648
I0426 21:20:08.054955 26421 layer_factory.hpp:77] Creating layer relu3
I0426 21:20:08.054966 26421 net.cpp:84] Creating Layer relu3
I0426 21:20:08.054972 26421 net.cpp:406] relu3 <- conv3
I0426 21:20:08.054981 26421 net.cpp:367] relu3 -> conv3 (in-place)
I0426 21:20:08.055620 26421 net.cpp:122] Setting up relu3
I0426 21:20:08.055634 26421 net.cpp:129] Top shape: 128 384 13 13 (8306688)
I0426 21:20:08.055640 26421 net.cpp:137] Memory required for data: 936294400
I0426 21:20:08.055645 26421 layer_factory.hpp:77] Creating layer conv4
I0426 21:20:08.055660 26421 net.cpp:84] Creating Layer conv4
I0426 21:20:08.055665 26421 net.cpp:406] conv4 <- conv3
I0426 21:20:08.055673 26421 net.cpp:380] conv4 -> conv4
I0426 21:20:08.071502 26421 net.cpp:122] Setting up conv4
I0426 21:20:08.071527 26421 net.cpp:129] Top shape: 128 384 13 13 (8306688)
I0426 21:20:08.071532 26421 net.cpp:137] Memory required for data: 969521152
I0426 21:20:08.071543 26421 layer_factory.hpp:77] Creating layer relu4
I0426 21:20:08.071555 26421 net.cpp:84] Creating Layer relu4
I0426 21:20:08.071588 26421 net.cpp:406] relu4 <- conv4
I0426 21:20:08.071599 26421 net.cpp:367] relu4 -> conv4 (in-place)
I0426 21:20:08.072119 26421 net.cpp:122] Setting up relu4
I0426 21:20:08.072131 26421 net.cpp:129] Top shape: 128 384 13 13 (8306688)
I0426 21:20:08.072135 26421 net.cpp:137] Memory required for data: 1002747904
I0426 21:20:08.072140 26421 layer_factory.hpp:77] Creating layer conv5
I0426 21:20:08.072155 26421 net.cpp:84] Creating Layer conv5
I0426 21:20:08.072160 26421 net.cpp:406] conv5 <- conv4
I0426 21:20:08.072170 26421 net.cpp:380] conv5 -> conv5
I0426 21:20:08.119810 26421 net.cpp:122] Setting up conv5
I0426 21:20:08.119835 26421 net.cpp:129] Top shape: 128 256 9 9 (2654208)
I0426 21:20:08.119840 26421 net.cpp:137] Memory required for data: 1013364736
I0426 21:20:08.119856 26421 layer_factory.hpp:77] Creating layer relu5
I0426 21:20:08.119872 26421 net.cpp:84] Creating Layer relu5
I0426 21:20:08.119877 26421 net.cpp:406] relu5 <- conv5
I0426 21:20:08.119886 26421 net.cpp:367] relu5 -> conv5 (in-place)
I0426 21:20:08.120595 26421 net.cpp:122] Setting up relu5
I0426 21:20:08.120611 26421 net.cpp:129] Top shape: 128 256 9 9 (2654208)
I0426 21:20:08.120616 26421 net.cpp:137] Memory required for data: 1023981568
I0426 21:20:08.120621 26421 layer_factory.hpp:77] Creating layer pool5
I0426 21:20:08.120631 26421 net.cpp:84] Creating Layer pool5
I0426 21:20:08.120635 26421 net.cpp:406] pool5 <- conv5
I0426 21:20:08.120646 26421 net.cpp:380] pool5 -> pool5
I0426 21:20:08.120697 26421 net.cpp:122] Setting up pool5
I0426 21:20:08.120705 26421 net.cpp:129] Top shape: 128 256 4 4 (524288)
I0426 21:20:08.120709 26421 net.cpp:137] Memory required for data: 1026078720
I0426 21:20:08.120713 26421 layer_factory.hpp:77] Creating layer fc6
I0426 21:20:08.120726 26421 net.cpp:84] Creating Layer fc6
I0426 21:20:08.120731 26421 net.cpp:406] fc6 <- pool5
I0426 21:20:08.120738 26421 net.cpp:380] fc6 -> fc6
I0426 21:20:08.291236 26421 net.cpp:122] Setting up fc6
I0426 21:20:08.291258 26421 net.cpp:129] Top shape: 128 4096 (524288)
I0426 21:20:08.291263 26421 net.cpp:137] Memory required for data: 1028175872
I0426 21:20:08.291271 26421 layer_factory.hpp:77] Creating layer relu6
I0426 21:20:08.291281 26421 net.cpp:84] Creating Layer relu6
I0426 21:20:08.291285 26421 net.cpp:406] relu6 <- fc6
I0426 21:20:08.291291 26421 net.cpp:367] relu6 -> fc6 (in-place)
I0426 21:20:08.291942 26421 net.cpp:122] Setting up relu6
I0426 21:20:08.291952 26421 net.cpp:129] Top shape: 128 4096 (524288)
I0426 21:20:08.291955 26421 net.cpp:137] Memory required for data: 1030273024
I0426 21:20:08.291960 26421 layer_factory.hpp:77] Creating layer drop6
I0426 21:20:08.291967 26421 net.cpp:84] Creating Layer drop6
I0426 21:20:08.291971 26421 net.cpp:406] drop6 <- fc6
I0426 21:20:08.291976 26421 net.cpp:367] drop6 -> fc6 (in-place)
I0426 21:20:08.292006 26421 net.cpp:122] Setting up drop6
I0426 21:20:08.292011 26421 net.cpp:129] Top shape: 128 4096 (524288)
I0426 21:20:08.292014 26421 net.cpp:137] Memory required for data: 1032370176
I0426 21:20:08.292017 26421 layer_factory.hpp:77] Creating layer fc7
I0426 21:20:08.292026 26421 net.cpp:84] Creating Layer fc7
I0426 21:20:08.292028 26421 net.cpp:406] fc7 <- fc6
I0426 21:20:08.292034 26421 net.cpp:380] fc7 -> fc7
I0426 21:20:08.450724 26421 net.cpp:122] Setting up fc7
I0426 21:20:08.450745 26421 net.cpp:129] Top shape: 128 4096 (524288)
I0426 21:20:08.450749 26421 net.cpp:137] Memory required for data: 1034467328
I0426 21:20:08.450758 26421 layer_factory.hpp:77] Creating layer relu7
I0426 21:20:08.450769 26421 net.cpp:84] Creating Layer relu7
I0426 21:20:08.450773 26421 net.cpp:406] relu7 <- fc7
I0426 21:20:08.450779 26421 net.cpp:367] relu7 -> fc7 (in-place)
I0426 21:20:08.453830 26421 net.cpp:122] Setting up relu7
I0426 21:20:08.453845 26421 net.cpp:129] Top shape: 128 4096 (524288)
I0426 21:20:08.453848 26421 net.cpp:137] Memory required for data: 1036564480
I0426 21:20:08.453853 26421 layer_factory.hpp:77] Creating layer drop7
I0426 21:20:08.453862 26421 net.cpp:84] Creating Layer drop7
I0426 21:20:08.453886 26421 net.cpp:406] drop7 <- fc7
I0426 21:20:08.453893 26421 net.cpp:367] drop7 -> fc7 (in-place)
I0426 21:20:08.453923 26421 net.cpp:122] Setting up drop7
I0426 21:20:08.453929 26421 net.cpp:129] Top shape: 128 4096 (524288)
I0426 21:20:08.453933 26421 net.cpp:137] Memory required for data: 1038661632
I0426 21:20:08.453935 26421 layer_factory.hpp:77] Creating layer fc8
I0426 21:20:08.453943 26421 net.cpp:84] Creating Layer fc8
I0426 21:20:08.453946 26421 net.cpp:406] fc8 <- fc7
I0426 21:20:08.453953 26421 net.cpp:380] fc8 -> fc8
I0426 21:20:08.462415 26421 net.cpp:122] Setting up fc8
I0426 21:20:08.462430 26421 net.cpp:129] Top shape: 128 196 (25088)
I0426 21:20:08.462435 26421 net.cpp:137] Memory required for data: 1038761984
I0426 21:20:08.462442 26421 layer_factory.hpp:77] Creating layer loss
I0426 21:20:08.462450 26421 net.cpp:84] Creating Layer loss
I0426 21:20:08.462455 26421 net.cpp:406] loss <- fc8
I0426 21:20:08.462460 26421 net.cpp:406] loss <- label
I0426 21:20:08.462467 26421 net.cpp:380] loss -> loss
I0426 21:20:08.462476 26421 layer_factory.hpp:77] Creating layer loss
…
I0426 21:20:08.492827 26421 net.cpp:294] The NetState phase (1) differed from the phase (0) specified by a rule in layer train-data
I0426 21:20:08.492986 26421 net.cpp:51] Initializing net from parameters:
state {
phase: TEST
}
layer {
name: "val-data"
type: "Data"
top: "data"
top: "label"
include {
phase: TEST
}
transform_param {
crop_size: 227
mean_file: "/mnt/bigdisk/DIGITS-MAN-3/digits/jobs/20210421-230320-902c/mean.binaryproto"
}
data_param {
source: "/mnt/bigdisk/DIGITS-MAN-3/digits/jobs/20210421-230320-902c/val_db"
batch_size: 32
backend: LMDB
}
}
layer {
name: "conv1"
type: "Convolution"
bottom: "data"
top: "conv1"
param {
lr_mult: 1
decay_mult: 1
}
param {
lr_mult: 2
decay_mult: 0
}
convolution_param {
num_output: 96
kernel_size: 11
stride: 4
weight_filler {
type: "gaussian"
std: 0.01
}
bias_filler {
type: "constant"
value: 0
}
}
}
layer {
name: "relu1"
type: "ReLU"
bottom: "conv1"
top: "conv1"
}
layer {
name: "norm1"
type: "LRN"
bottom: "conv1"
top: "norm1"
lrn_param {
local_size: 5
alpha: 0.0001
beta: 0.75
}
}
layer {
name: "pool1"
type: "Pooling"
bottom: "norm1"
top: "pool1"
pooling_param {
pool: MAX
kernel_size: 3
stride: 2
}
}
layer {
name: "conv2"
type: "Convolution"
bottom: "pool1"
top: "conv2"
param {
lr_mult: 1
decay_mult: 1
}
param {
lr_mult: 2
decay_mult: 0
}
convolution_param {
num_output: 256
pad: 2
kernel_size: 5
group: 2
weight_filler {
type: "gaussian"
std: 0.01
}
bias_filler {
type: "constant"
value: 0.1
}
}
}
layer {
name: "relu2"
type: "ReLU"
bottom: "conv2"
top: "conv2"
}
layer {
name: "norm2"
type: "LRN"
bottom: "conv2"
top: "norm2"
lrn_param {
local_size: 5
alpha: 0.0001
beta: 0.75
}
}
layer {
name: "pool2"
type: "Pooling"
bottom: "norm2"
top: "pool2"
pooling_param {
pool: MAX
kernel_size: 3
stride: 2
}
}
layer {
name: "conv3"
type: "Convolution"
bottom: "pool2"
top: "conv3"
param {
lr_mult: 1
decay_mult: 1
}
param {
lr_mult: 2
decay_mult: 0
}
convolution_param {
num_output: 384
pad: 1
kernel_size: 3
weight_filler {
type: "gaussian"
std: 0.01
}
bias_filler {
type: "constant"
value: 0
}
}
}
layer {
name: "relu3"
type: "ReLU"
bottom: "conv3"
top: "conv3"
}
layer {
name: "conv4"
type: "Convolution"
bottom: "conv3"
top: "conv4"
param {
lr_mult: 1
decay_mult: 1
}
param {
lr_mult: 2
decay_mult: 0
}
convolution_param {
num_output: 384
pad: 1
kernel_size: 3
group: 2
weight_filler {
type: "gaussian"
std: 0.01
}
bias_filler {
type: "constant"
value: 0.1
}
}
}
layer {
name: "relu4"
type: "ReLU"
bottom: "conv4"
top: "conv4"
}
layer {
name: "conv5"
type: "Convolution"
bottom: "conv4"
top: "conv5"
param {
lr_mult: 1
decay_mult: 1
}
param {
lr_mult: 2
decay_mult: 0
}
convolution_param {
num_output: 256
pad: 1
kernel_size: 7
group: 2
weight_filler {
type: "gaussian"
std: 0.01
}
bias_filler {
type: "constant"
value: 0.1
}
}
}
layer {
name: "relu5"
type: "ReLU"
bottom: "conv5"
top: "conv5"
}
layer {
name: "pool5"
type: "Pooling"
bottom: "conv5"
top: "pool5"
pooling_param {
pool: MAX
kernel_size: 3
stride: 2
}
}
layer {
name: "fc6"
type: "InnerProduct"
bottom: "pool5"
top: "fc6"
param {
lr_mult: 1
decay_mult: 1
}
param {
lr_mult: 2
decay_mult: 0
}
inner_product_param {
num_output: 4096
weight_filler {
type: "gaussian"
std: 0.005
}
bias_filler {
type: "constant"
value: 0.1
}
}
}
layer {
name: "relu6"
type: "ReLU"
bottom: "fc6"
top: "fc6"
}
layer {
name: "drop6"
type: "Dropout"
bottom: "fc6"
top: "fc6"
dropout_param {
dropout_ratio: 0.5
}
}
layer {
name: "fc7"
type: "InnerProduct"
bottom: "fc6"
top: "fc7"
param {
lr_mult: 1
decay_mult: 1
}
param {
lr_mult: 2
decay_mult: 0
}
inner_product_param {
num_output: 4096
weight_filler {
type: "gaussian"
std: 0.005
}
bias_filler {
type: "constant"
value: 0.1
}
}
}
layer {
name: "relu7"
type: "ReLU"
bottom: "fc7"
top: "fc7"
}
layer {
name: "drop7"
type: "Dropout"
bottom: "fc7"
top: "fc7"
dropout_param {
dropout_ratio: 0.5
}
}
layer {
name: "fc8"
type: "InnerProduct"
bottom: "fc7"
top: "fc8"
param {
lr_mult: 1
decay_mult: 1
}
param {
lr_mult: 2
decay_mult: 0
}
inner_product_param {
num_output: 196
weight_filler {
type: "gaussian"
std: 0.01
}
bias_filler {
type: "constant"
value: 0
}
}
}
layer {
name: "accuracy"
type: "Accuracy"
bottom: "fc8"
bottom: "label"
top: "accuracy"
include {
phase: TEST
}
}
layer {
name: "loss"
type: "SoftmaxWithLoss"
bottom: "fc8"
bottom: "label"
top: "loss"
}
I0426 21:20:08.493103 26421 layer_factory.hpp:77] Creating layer val-data
I0426 21:20:08.494699 26421 db_lmdb.cpp:35] Opened lmdb /mnt/bigdisk/DIGITS-MAN-3/digits/jobs/20210421-230320-902c/val_db
I0426 21:20:08.494870 26421 net.cpp:84] Creating Layer val-data
I0426 21:20:08.494880 26421 net.cpp:380] val-data -> data
I0426 21:20:08.494891 26421 net.cpp:380] val-data -> label
I0426 21:20:08.494900 26421 data_transformer.cpp:25] Loading mean file from: /mnt/bigdisk/DIGITS-MAN-3/digits/jobs/20210421-230320-902c/mean.binaryproto
I0426 21:20:08.498661 26421 data_layer.cpp:45] output data size: 32,3,227,227
I0426 21:20:08.554186 26421 net.cpp:122] Setting up val-data
I0426 21:20:08.554211 26421 net.cpp:129] Top shape: 32 3 227 227 (4946784)
I0426 21:20:08.554216 26421 net.cpp:129] Top shape: 32 (32)
I0426 21:20:08.554219 26421 net.cpp:137] Memory required for data: 19787264
I0426 21:20:08.554225 26421 layer_factory.hpp:77] Creating layer label_val-data_1_split
I0426 21:20:08.554239 26421 net.cpp:84] Creating Layer label_val-data_1_split
I0426 21:20:08.554244 26421 net.cpp:406] label_val-data_1_split <- label
I0426 21:20:08.554250 26421 net.cpp:380] label_val-data_1_split -> label_val-data_1_split_0
I0426 21:20:08.554260 26421 net.cpp:380] label_val-data_1_split -> label_val-data_1_split_1
I0426 21:20:08.554356 26421 net.cpp:122] Setting up label_val-data_1_split
I0426 21:20:08.554363 26421 net.cpp:129] Top shape: 32 (32)
I0426 21:20:08.554366 26421 net.cpp:129] Top shape: 32 (32)
I0426 21:20:08.554369 26421 net.cpp:137] Memory required for data: 19787520
I0426 21:20:08.554373 26421 layer_factory.hpp:77] Creating layer conv1
I0426 21:20:08.554385 26421 net.cpp:84] Creating Layer conv1
I0426 21:20:08.554388 26421 net.cpp:406] conv1 <- data
I0426 21:20:08.554394 26421 net.cpp:380] conv1 -> conv1
I0426 21:20:08.556246 26421 net.cpp:122] Setting up conv1
I0426 21:20:08.556257 26421 net.cpp:129] Top shape: 32 96 55 55 (9292800)
I0426 21:20:08.556260 26421 net.cpp:137] Memory required for data: 56958720
I0426 21:20:08.556269 26421 layer_factory.hpp:77] Creating layer relu1
I0426 21:20:08.556277 26421 net.cpp:84] Creating Layer relu1
I0426 21:20:08.556279 26421 net.cpp:406] relu1 <- conv1
I0426 21:20:08.556284 26421 net.cpp:367] relu1 -> conv1 (in-place)
I0426 21:20:08.556597 26421 net.cpp:122] Setting up relu1
I0426 21:20:08.556607 26421 net.cpp:129] Top shape: 32 96 55 55 (9292800)
I0426 21:20:08.556609 26421 net.cpp:137] Memory required for data: 94129920
I0426 21:20:08.556613 26421 layer_factory.hpp:77] Creating layer norm1
I0426 21:20:08.556622 26421 net.cpp:84] Creating Layer norm1
I0426 21:20:08.556625 26421 net.cpp:406] norm1 <- conv1
I0426 21:20:08.556630 26421 net.cpp:380] norm1 -> norm1
I0426 21:20:08.557085 26421 net.cpp:122] Setting up norm1
I0426 21:20:08.557096 26421 net.cpp:129] Top shape: 32 96 55 55 (9292800)
I0426 21:20:08.557098 26421 net.cpp:137] Memory required for data: 131301120
I0426 21:20:08.557102 26421 layer_factory.hpp:77] Creating layer pool1
I0426 21:20:08.557109 26421 net.cpp:84] Creating Layer pool1
I0426 21:20:08.557113 26421 net.cpp:406] pool1 <- norm1
I0426 21:20:08.557118 26421 net.cpp:380] pool1 -> pool1
I0426 21:20:08.557148 26421 net.cpp:122] Setting up pool1
I0426 21:20:08.557153 26421 net.cpp:129] Top shape: 32 96 27 27 (2239488)
I0426 21:20:08.557157 26421 net.cpp:137] Memory required for data: 140259072
I0426 21:20:08.557159 26421 layer_factory.hpp:77] Creating layer conv2
I0426 21:20:08.557168 26421 net.cpp:84] Creating Layer conv2
I0426 21:20:08.557170 26421 net.cpp:406] conv2 <- pool1
I0426 21:20:08.557199 26421 net.cpp:380] conv2 -> conv2
I0426 21:20:08.566359 26421 net.cpp:122] Setting up conv2
I0426 21:20:08.566377 26421 net.cpp:129] Top shape: 32 256 27 27 (5971968)
I0426 21:20:08.566381 26421 net.cpp:137] Memory required for data: 164146944
I0426 21:20:08.566395 26421 layer_factory.hpp:77] Creating layer relu2
I0426 21:20:08.566402 26421 net.cpp:84] Creating Layer relu2
I0426 21:20:08.566407 26421 net.cpp:406] relu2 <- conv2
I0426 21:20:08.566413 26421 net.cpp:367] relu2 -> conv2 (in-place)
I0426 21:20:08.566915 26421 net.cpp:122] Setting up relu2
I0426 21:20:08.566926 26421 net.cpp:129] Top shape: 32 256 27 27 (5971968)
I0426 21:20:08.566928 26421 net.cpp:137] Memory required for data: 188034816
I0426 21:20:08.566932 26421 layer_factory.hpp:77] Creating layer norm2
I0426 21:20:08.566944 26421 net.cpp:84] Creating Layer norm2
I0426 21:20:08.566947 26421 net.cpp:406] norm2 <- conv2
I0426 21:20:08.566953 26421 net.cpp:380] norm2 -> norm2
I0426 21:20:08.567466 26421 net.cpp:122] Setting up norm2
I0426 21:20:08.567477 26421 net.cpp:129] Top shape: 32 256 27 27 (5971968)
I0426 21:20:08.567481 26421 net.cpp:137] Memory required for data: 211922688
I0426 21:20:08.567484 26421 layer_factory.hpp:77] Creating layer pool2
I0426 21:20:08.567492 26421 net.cpp:84] Creating Layer pool2
I0426 21:20:08.567494 26421 net.cpp:406] pool2 <- norm2
I0426 21:20:08.567499 26421 net.cpp:380] pool2 -> pool2
I0426 21:20:08.567533 26421 net.cpp:122] Setting up pool2
I0426 21:20:08.567538 26421 net.cpp:129] Top shape: 32 256 13 13 (1384448)
I0426 21:20:08.567541 26421 net.cpp:137] Memory required for data: 217460480
I0426 21:20:08.567544 26421 layer_factory.hpp:77] Creating layer conv3
I0426 21:20:08.567555 26421 net.cpp:84] Creating Layer conv3
I0426 21:20:08.567559 26421 net.cpp:406] conv3 <- pool2
I0426 21:20:08.567564 26421 net.cpp:380] conv3 -> conv3
I0426 21:20:08.582237 26421 net.cpp:122] Setting up conv3
I0426 21:20:08.582255 26421 net.cpp:129] Top shape: 32 384 13 13 (2076672)
I0426 21:20:08.582259 26421 net.cpp:137] Memory required for data: 225767168
I0426 21:20:08.582273 26421 layer_factory.hpp:77] Creating layer relu3
I0426 21:20:08.582283 26421 net.cpp:84] Creating Layer relu3
I0426 21:20:08.582286 26421 net.cpp:406] relu3 <- conv3
I0426 21:20:08.582293 26421 net.cpp:367] relu3 -> conv3 (in-place)
I0426 21:20:08.582810 26421 net.cpp:122] Setting up relu3
I0426 21:20:08.582819 26421 net.cpp:129] Top shape: 32 384 13 13 (2076672)
I0426 21:20:08.582823 26421 net.cpp:137] Memory required for data: 234073856
I0426 21:20:08.582826 26421 layer_factory.hpp:77] Creating layer conv4
I0426 21:20:08.582839 26421 net.cpp:84] Creating Layer conv4
I0426 21:20:08.582842 26421 net.cpp:406] conv4 <- conv3
I0426 21:20:08.582849 26421 net.cpp:380] conv4 -> conv4
I0426 21:20:08.592466 26421 net.cpp:122] Setting up conv4
I0426 21:20:08.592505 26421 net.cpp:129] Top shape: 32 384 13 13 (2076672)
I0426 21:20:08.592509 26421 net.cpp:137] Memory required for data: 242380544
I0426 21:20:08.592519 26421 layer_factory.hpp:77] Creating layer relu4
I0426 21:20:08.592527 26421 net.cpp:84] Creating Layer relu4
I0426 21:20:08.592531 26421 net.cpp:406] relu4 <- conv4
I0426 21:20:08.592537 26421 net.cpp:367] relu4 -> conv4 (in-place)
I0426 21:20:08.592890 26421 net.cpp:122] Setting up relu4
I0426 21:20:08.592898 26421 net.cpp:129] Top shape: 32 384 13 13 (2076672)
I0426 21:20:08.592901 26421 net.cpp:137] Memory required for data: 250687232
I0426 21:20:08.592905 26421 layer_factory.hpp:77] Creating layer conv5
I0426 21:20:08.592917 26421 net.cpp:84] Creating Layer conv5
I0426 21:20:08.592931 26421 net.cpp:406] conv5 <- conv4
I0426 21:20:08.592936 26421 net.cpp:380] conv5 -> conv5
I0426 21:20:08.620973 26421 net.cpp:122] Setting up conv5
I0426 21:20:08.620993 26421 net.cpp:129] Top shape: 32 256 9 9 (663552)
I0426 21:20:08.620997 26421 net.cpp:137] Memory required for data: 253341440
I0426 21:20:08.621009 26421 layer_factory.hpp:77] Creating layer relu5
I0426 21:20:08.621022 26421 net.cpp:84] Creating Layer relu5
I0426 21:20:08.621027 26421 net.cpp:406] relu5 <- conv5
I0426 21:20:08.621054 26421 net.cpp:367] relu5 -> conv5 (in-place)
I0426 21:20:08.621696 26421 net.cpp:122] Setting up relu5
I0426 21:20:08.621707 26421 net.cpp:129] Top shape: 32 256 9 9 (663552)
I0426 21:20:08.621712 26421 net.cpp:137] Memory required for data: 255995648
I0426 21:20:08.621716 26421 layer_factory.hpp:77] Creating layer pool5
I0426 21:20:08.621726 26421 net.cpp:84] Creating Layer pool5
I0426 21:20:08.621731 26421 net.cpp:406] pool5 <- conv5
I0426 21:20:08.621737 26421 net.cpp:380] pool5 -> pool5
I0426 21:20:08.621776 26421 net.cpp:122] Setting up pool5
I0426 21:20:08.621783 26421 net.cpp:129] Top shape: 32 256 4 4 (131072)
I0426 21:20:08.621785 26421 net.cpp:137] Memory required for data: 256519936
I0426 21:20:08.621789 26421 layer_factory.hpp:77] Creating layer fc6
I0426 21:20:08.621798 26421 net.cpp:84] Creating Layer fc6
I0426 21:20:08.621803 26421 net.cpp:406] fc6 <- pool5
I0426 21:20:08.621809 26421 net.cpp:380] fc6 -> fc6
I0426 21:20:08.779944 26421 net.cpp:122] Setting up fc6
I0426 21:20:08.779964 26421 net.cpp:129] Top shape: 32 4096 (131072)
I0426 21:20:08.779969 26421 net.cpp:137] Memory required for data: 257044224
I0426 21:20:08.779978 26421 layer_factory.hpp:77] Creating layer relu6
I0426 21:20:08.779989 26421 net.cpp:84] Creating Layer relu6
I0426 21:20:08.779995 26421 net.cpp:406] relu6 <- fc6
I0426 21:20:08.780001 26421 net.cpp:367] relu6 -> fc6 (in-place)
I0426 21:20:08.780740 26421 net.cpp:122] Setting up relu6
I0426 21:20:08.780750 26421 net.cpp:129] Top shape: 32 4096 (131072)
I0426 21:20:08.780755 26421 net.cpp:137] Memory required for data: 257568512
I0426 21:20:08.780758 26421 layer_factory.hpp:77] Creating layer drop6
I0426 21:20:08.780766 26421 net.cpp:84] Creating Layer drop6
I0426 21:20:08.780769 26421 net.cpp:406] drop6 <- fc6
I0426 21:20:08.780777 26421 net.cpp:367] drop6 -> fc6 (in-place)
I0426 21:20:08.780802 26421 net.cpp:122] Setting up drop6
I0426 21:20:08.780812 26421 net.cpp:129] Top shape: 32 4096 (131072)
I0426 21:20:08.780814 26421 net.cpp:137] Memory required for data: 258092800
I0426 21:20:08.780818 26421 layer_factory.hpp:77] Creating layer fc7
I0426 21:20:08.780827 26421 net.cpp:84] Creating Layer fc7
I0426 21:20:08.780829 26421 net.cpp:406] fc7 <- fc6
I0426 21:20:08.780838 26421 net.cpp:380] fc7 -> fc7
I0426 21:20:08.939034 26421 net.cpp:122] Setting up fc7
I0426 21:20:08.939052 26421 net.cpp:129] Top shape: 32 4096 (131072)
I0426 21:20:08.939056 26421 net.cpp:137] Memory required for data: 258617088
I0426 21:20:08.939065 26421 layer_factory.hpp:77] Creating layer relu7
I0426 21:20:08.939074 26421 net.cpp:84] Creating Layer relu7
I0426 21:20:08.939079 26421 net.cpp:406] relu7 <- fc7
I0426 21:20:08.939086 26421 net.cpp:367] relu7 -> fc7 (in-place)
I0426 21:20:08.939509 26421 net.cpp:122] Setting up relu7
I0426 21:20:08.939517 26421 net.cpp:129] Top shape: 32 4096 (131072)
I0426 21:20:08.939522 26421 net.cpp:137] Memory required for data: 259141376
I0426 21:20:08.939527 26421 layer_factory.hpp:77] Creating layer drop7
I0426 21:20:08.939532 26421 net.cpp:84] Creating Layer drop7
I0426 21:20:08.939536 26421 net.cpp:406] drop7 <- fc7
I0426 21:20:08.939541 26421 net.cpp:367] drop7 -> fc7 (in-place)
I0426 21:20:08.939565 26421 net.cpp:122] Setting up drop7
I0426 21:20:08.939571 26421 net.cpp:129] Top shape: 32 4096 (131072)
I0426 21:20:08.939574 26421 net.cpp:137] Memory required for data: 259665664
I0426 21:20:08.939577 26421 layer_factory.hpp:77] Creating layer fc8
I0426 21:20:08.939584 26421 net.cpp:84] Creating Layer fc8
I0426 21:20:08.939589 26421 net.cpp:406] fc8 <- fc7
I0426 21:20:08.939594 26421 net.cpp:380] fc8 -> fc8
I0426 21:20:08.954906 26421 net.cpp:122] Setting up fc8
I0426 21:20:08.954921 26421 net.cpp:129] Top shape: 32 196 (6272)
I0426 21:20:08.954924 26421 net.cpp:137] Memory required for data: 259690752
I0426 21:20:08.954931 26421 layer_factory.hpp:77] Creating layer fc8_fc8_0_split
I0426 21:20:08.954941 26421 net.cpp:84] Creating Layer fc8_fc8_0_split
I0426 21:20:08.954943 26421 net.cpp:406] fc8_fc8_0_split <- fc8
I0426 21:20:08.954968 26421 net.cpp:380] fc8_fc8_0_split -> fc8_fc8_0_split_0
I0426 21:20:08.954977 26421 net.cpp:380] fc8_fc8_0_split -> fc8_fc8_0_split_1
I0426 21:20:08.955016 26421 net.cpp:122] Setting up fc8_fc8_0_split
I0426 21:20:08.955021 26421 net.cpp:129] Top shape: 32 196 (6272)
I0426 21:20:08.955025 26421 net.cpp:129] Top shape: 32 196 (6272)
I0426 21:20:08.955029 26421 net.cpp:137] Memory required for data: 259740928
I0426 21:20:08.955031 26421 layer_factory.hpp:77] Creating layer accuracy
I0426 21:20:08.955039 26421 net.cpp:84] Creating Layer accuracy
I0426 21:20:08.955041 26421 net.cpp:406] accuracy <- fc8_fc8_0_split_0
I0426 21:20:08.955046 26421 net.cpp:406] accuracy <- label_val-data_1_split_0
I0426 21:20:08.955054 26421 net.cpp:380] accuracy -> accuracy
…
