…
I0425 09:47:55.683301 28184 net.cpp:294] The NetState phase (0) differed from the phase (1) specified by a rule in layer accuracy
I0425 09:47:55.683440 28184 net.cpp:51] Initializing net from parameters:
state {
phase: TRAIN
level: 0
stage: ""
}
layer {
name: "train-data"
type: "Data"
top: "data"
top: "label"
include {
phase: TRAIN
}
transform_param {
mirror: true
crop_size: 227
mean_file: "/mnt/bigdisk/DIGITS-MAN-3/digits/jobs/20210421-230320-902c/mean.binaryproto"
}
data_param {
source: "/mnt/bigdisk/DIGITS-MAN-3/digits/jobs/20210421-230320-902c/train_db"
batch_size: 128
backend: LMDB
}
}
layer {
name: "conv1"
type: "Convolution"
bottom: "data"
top: "conv1"
param {
lr_mult: 1
decay_mult: 1
}
param {
lr_mult: 2
decay_mult: 0
}
convolution_param {
num_output: 96
kernel_size: 11
stride: 4
weight_filler {
type: "gaussian"
std: 0.01
}
bias_filler {
type: "constant"
value: 0
}
}
}
layer {
name: "relu1"
type: "ReLU"
bottom: "conv1"
top: "conv1"
}
layer {
name: "norm1"
type: "LRN"
bottom: "conv1"
top: "norm1"
lrn_param {
local_size: 5
alpha: 0.0001
beta: 0.75
}
}
layer {
name: "pool1"
type: "Pooling"
bottom: "norm1"
top: "pool1"
pooling_param {
pool: MAX
kernel_size: 3
stride: 2
}
}
layer {
name: "conv2"
type: "Convolution"
bottom: "pool1"
top: "conv2"
param {
lr_mult: 1
decay_mult: 1
}
param {
lr_mult: 2
decay_mult: 0
}
convolution_param {
num_output: 256
pad: 2
kernel_size: 5
group: 2
weight_filler {
type: "gaussian"
std: 0.01
}
bias_filler {
type: "constant"
value: 0.1
}
}
}
layer {
name: "relu2"
type: "ReLU"
bottom: "conv2"
top: "conv2"
}
layer {
name: "norm2"
type: "LRN"
bottom: "conv2"
top: "norm2"
lrn_param {
local_size: 5
alpha: 0.0001
beta: 0.75
}
}
layer {
name: "pool2"
type: "Pooling"
bottom: "norm2"
top: "pool2"
pooling_param {
pool: MAX
kernel_size: 3
stride: 2
}
}
layer {
name: "conv3"
type: "Convolution"
bottom: "pool2"
top: "conv3"
param {
lr_mult: 1
decay_mult: 1
}
param {
lr_mult: 2
decay_mult: 0
}
convolution_param {
num_output: 384
pad: 1
kernel_size: 11
weight_filler {
type: "gaussian"
std: 0.01
}
bias_filler {
type: "constant"
value: 0
}
}
}
layer {
name: "relu3"
type: "ReLU"
bottom: "conv3"
top: "conv3"
}
layer {
name: "conv4"
type: "Convolution"
bottom: "conv3"
top: "conv4"
param {
lr_mult: 1
decay_mult: 1
}
param {
lr_mult: 2
decay_mult: 0
}
convolution_param {
num_output: 384
pad: 1
kernel_size: 3
group: 2
weight_filler {
type: "gaussian"
std: 0.01
}
bias_filler {
type: "constant"
value: 0.1
}
}
}
layer {
name: "relu4"
type: "ReLU"
bottom: "conv4"
top: "conv4"
}
layer {
name: "conv5"
type: "Convolution"
bottom: "conv4"
top: "conv5"
param {
lr_mult: 1
decay_mult: 1
}
param {
lr_mult: 2
decay_mult: 0
}
convolution_param {
num_output: 256
pad: 1
kernel_size: 3
group: 2
weight_filler {
type: "gaussian"
std: 0.01
}
bias_filler {
type: "constant"
value: 0.1
}
}
}
layer {
name: "relu5"
type: "ReLU"
bottom: "conv5"
top: "conv5"
}
layer {
name: "pool5"
type: "Pooling"
bottom: "conv5"
top: "pool5"
pooling_param {
pool: MAX
kernel_size: 3
stride: 2
}
}
layer {
name: "fc6"
type: "InnerProduct"
bottom: "pool5"
top: "fc6"
param {
lr_mult: 1
decay_mult: 1
}
param {
lr_mult: 2
decay_mult: 0
}
inner_product_param {
num_output: 4096
weight_filler {
type: "gaussian"
std: 0.005
}
bias_filler {
type: "constant"
value: 0.1
}
}
}
layer {
name: "relu6"
type: "ReLU"
bottom: "fc6"
top: "fc6"
}
layer {
name: "drop6"
type: "Dropout"
bottom: "fc6"
top: "fc6"
dropout_param {
dropout_ratio: 0.5
}
}
layer {
name: "fc7"
type: "InnerProduct"
bottom: "fc6"
top: "fc7"
param {
lr_mult: 1
decay_mult: 1
}
param {
lr_mult: 2
decay_mult: 0
}
inner_product_param {
num_output: 4096
weight_filler {
type: "gaussian"
std: 0.005
}
bias_filler {
type: "constant"
value: 0.1
}
}
}
layer {
name: "relu7"
type: "ReLU"
bottom: "fc7"
top: "fc7"
}
layer {
name: "drop7"
type: "Dropout"
bottom: "fc7"
top: "fc7"
dropout_param {
dropout_ratio: 0.5
}
}
layer {
name: "fc8"
type: "InnerProduct"
bottom: "fc7"
top: "fc8"
param {
lr_mult: 1
decay_mult: 1
}
param {
lr_mult: 2
decay_mult: 0
}
inner_product_param {
num_output: 196
weight_filler {
type: "gaussian"
std: 0.01
}
bias_filler {
type: "constant"
value: 0
}
}
}
layer {
name: "loss"
type: "SoftmaxWithLoss"
bottom: "fc8"
bottom: "label"
top: "loss"
}
I0425 09:47:55.683532 28184 layer_factory.hpp:77] Creating layer train-data
I0425 09:47:55.685144 28184 db_lmdb.cpp:35] Opened lmdb /mnt/bigdisk/DIGITS-MAN-3/digits/jobs/20210421-230320-902c/train_db
I0425 09:47:55.685317 28184 net.cpp:84] Creating Layer train-data
I0425 09:47:55.685328 28184 net.cpp:380] train-data -> data
I0425 09:47:55.685348 28184 net.cpp:380] train-data -> label
I0425 09:47:55.685360 28184 data_transformer.cpp:25] Loading mean file from: /mnt/bigdisk/DIGITS-MAN-3/digits/jobs/20210421-230320-902c/mean.binaryproto
I0425 09:47:55.691650 28184 data_layer.cpp:45] output data size: 128,3,227,227
I0425 09:47:55.862284 28184 net.cpp:122] Setting up train-data
I0425 09:47:55.862308 28184 net.cpp:129] Top shape: 128 3 227 227 (19787136)
I0425 09:47:55.862314 28184 net.cpp:129] Top shape: 128 (128)
I0425 09:47:55.862318 28184 net.cpp:137] Memory required for data: 79149056
I0425 09:47:55.862326 28184 layer_factory.hpp:77] Creating layer conv1
I0425 09:47:55.862347 28184 net.cpp:84] Creating Layer conv1
I0425 09:47:55.862354 28184 net.cpp:406] conv1 <- data
I0425 09:47:55.862366 28184 net.cpp:380] conv1 -> conv1
I0425 09:47:56.766717 28184 net.cpp:122] Setting up conv1
I0425 09:47:56.766739 28184 net.cpp:129] Top shape: 128 96 55 55 (37171200)
I0425 09:47:56.766743 28184 net.cpp:137] Memory required for data: 227833856
I0425 09:47:56.766762 28184 layer_factory.hpp:77] Creating layer relu1
I0425 09:47:56.766773 28184 net.cpp:84] Creating Layer relu1
I0425 09:47:56.766777 28184 net.cpp:406] relu1 <- conv1
I0425 09:47:56.766783 28184 net.cpp:367] relu1 -> conv1 (in-place)
I0425 09:47:56.767071 28184 net.cpp:122] Setting up relu1
I0425 09:47:56.767081 28184 net.cpp:129] Top shape: 128 96 55 55 (37171200)
I0425 09:47:56.767083 28184 net.cpp:137] Memory required for data: 376518656
I0425 09:47:56.767087 28184 layer_factory.hpp:77] Creating layer norm1
I0425 09:47:56.767096 28184 net.cpp:84] Creating Layer norm1
I0425 09:47:56.767099 28184 net.cpp:406] norm1 <- conv1
I0425 09:47:56.767125 28184 net.cpp:380] norm1 -> norm1
I0425 09:47:56.767565 28184 net.cpp:122] Setting up norm1
I0425 09:47:56.767575 28184 net.cpp:129] Top shape: 128 96 55 55 (37171200)
I0425 09:47:56.767580 28184 net.cpp:137] Memory required for data: 525203456
I0425 09:47:56.767583 28184 layer_factory.hpp:77] Creating layer pool1
I0425 09:47:56.767590 28184 net.cpp:84] Creating Layer pool1
I0425 09:47:56.767594 28184 net.cpp:406] pool1 <- norm1
I0425 09:47:56.767601 28184 net.cpp:380] pool1 -> pool1
I0425 09:47:56.767635 28184 net.cpp:122] Setting up pool1
I0425 09:47:56.767642 28184 net.cpp:129] Top shape: 128 96 27 27 (8957952)
I0425 09:47:56.767645 28184 net.cpp:137] Memory required for data: 561035264
I0425 09:47:56.767648 28184 layer_factory.hpp:77] Creating layer conv2
I0425 09:47:56.767657 28184 net.cpp:84] Creating Layer conv2
I0425 09:47:56.767661 28184 net.cpp:406] conv2 <- pool1
I0425 09:47:56.767666 28184 net.cpp:380] conv2 -> conv2
I0425 09:47:56.774356 28184 net.cpp:122] Setting up conv2
I0425 09:47:56.774374 28184 net.cpp:129] Top shape: 128 256 27 27 (23887872)
I0425 09:47:56.774377 28184 net.cpp:137] Memory required for data: 656586752
I0425 09:47:56.774389 28184 layer_factory.hpp:77] Creating layer relu2
I0425 09:47:56.774396 28184 net.cpp:84] Creating Layer relu2
I0425 09:47:56.774400 28184 net.cpp:406] relu2 <- conv2
I0425 09:47:56.774405 28184 net.cpp:367] relu2 -> conv2 (in-place)
I0425 09:47:56.774825 28184 net.cpp:122] Setting up relu2
I0425 09:47:56.774835 28184 net.cpp:129] Top shape: 128 256 27 27 (23887872)
I0425 09:47:56.774838 28184 net.cpp:137] Memory required for data: 752138240
I0425 09:47:56.774842 28184 layer_factory.hpp:77] Creating layer norm2
I0425 09:47:56.774849 28184 net.cpp:84] Creating Layer norm2
I0425 09:47:56.774853 28184 net.cpp:406] norm2 <- conv2
I0425 09:47:56.774858 28184 net.cpp:380] norm2 -> norm2
I0425 09:47:56.775146 28184 net.cpp:122] Setting up norm2
I0425 09:47:56.775154 28184 net.cpp:129] Top shape: 128 256 27 27 (23887872)
I0425 09:47:56.775157 28184 net.cpp:137] Memory required for data: 847689728
I0425 09:47:56.775161 28184 layer_factory.hpp:77] Creating layer pool2
I0425 09:47:56.775168 28184 net.cpp:84] Creating Layer pool2
I0425 09:47:56.775172 28184 net.cpp:406] pool2 <- norm2
I0425 09:47:56.775177 28184 net.cpp:380] pool2 -> pool2
I0425 09:47:56.775203 28184 net.cpp:122] Setting up pool2
I0425 09:47:56.775208 28184 net.cpp:129] Top shape: 128 256 13 13 (5537792)
I0425 09:47:56.775211 28184 net.cpp:137] Memory required for data: 869840896
I0425 09:47:56.775214 28184 layer_factory.hpp:77] Creating layer conv3
I0425 09:47:56.775223 28184 net.cpp:84] Creating Layer conv3
I0425 09:47:56.775226 28184 net.cpp:406] conv3 <- pool2
I0425 09:47:56.775231 28184 net.cpp:380] conv3 -> conv3
I0425 09:47:56.889624 28184 net.cpp:122] Setting up conv3
I0425 09:47:56.889642 28184 net.cpp:129] Top shape: 128 384 5 5 (1228800)
I0425 09:47:56.889647 28184 net.cpp:137] Memory required for data: 874756096
I0425 09:47:56.889658 28184 layer_factory.hpp:77] Creating layer relu3
I0425 09:47:56.889667 28184 net.cpp:84] Creating Layer relu3
I0425 09:47:56.889670 28184 net.cpp:406] relu3 <- conv3
I0425 09:47:56.889676 28184 net.cpp:367] relu3 -> conv3 (in-place)
I0425 09:47:56.897601 28184 net.cpp:122] Setting up relu3
I0425 09:47:56.897612 28184 net.cpp:129] Top shape: 128 384 5 5 (1228800)
I0425 09:47:56.897616 28184 net.cpp:137] Memory required for data: 879671296
I0425 09:47:56.897620 28184 layer_factory.hpp:77] Creating layer conv4
I0425 09:47:56.897632 28184 net.cpp:84] Creating Layer conv4
I0425 09:47:56.897637 28184 net.cpp:406] conv4 <- conv3
I0425 09:47:56.897644 28184 net.cpp:380] conv4 -> conv4
I0425 09:47:56.920346 28184 net.cpp:122] Setting up conv4
I0425 09:47:56.920368 28184 net.cpp:129] Top shape: 128 384 5 5 (1228800)
I0425 09:47:56.920374 28184 net.cpp:137] Memory required for data: 884586496
I0425 09:47:56.920385 28184 layer_factory.hpp:77] Creating layer relu4
I0425 09:47:56.920398 28184 net.cpp:84] Creating Layer relu4
I0425 09:47:56.920425 28184 net.cpp:406] relu4 <- conv4
I0425 09:47:56.920433 28184 net.cpp:367] relu4 -> conv4 (in-place)
I0425 09:47:56.920958 28184 net.cpp:122] Setting up relu4
I0425 09:47:56.920969 28184 net.cpp:129] Top shape: 128 384 5 5 (1228800)
I0425 09:47:56.920974 28184 net.cpp:137] Memory required for data: 889501696
I0425 09:47:56.920979 28184 layer_factory.hpp:77] Creating layer conv5
I0425 09:47:56.920992 28184 net.cpp:84] Creating Layer conv5
I0425 09:47:56.920998 28184 net.cpp:406] conv5 <- conv4
I0425 09:47:56.921010 28184 net.cpp:380] conv5 -> conv5
I0425 09:47:56.933176 28184 net.cpp:122] Setting up conv5
I0425 09:47:56.933195 28184 net.cpp:129] Top shape: 128 256 5 5 (819200)
I0425 09:47:56.933202 28184 net.cpp:137] Memory required for data: 892778496
I0425 09:47:56.933218 28184 layer_factory.hpp:77] Creating layer relu5
I0425 09:47:56.933229 28184 net.cpp:84] Creating Layer relu5
I0425 09:47:56.933235 28184 net.cpp:406] relu5 <- conv5
I0425 09:47:56.933244 28184 net.cpp:367] relu5 -> conv5 (in-place)
I0425 09:47:56.933902 28184 net.cpp:122] Setting up relu5
I0425 09:47:56.933915 28184 net.cpp:129] Top shape: 128 256 5 5 (819200)
I0425 09:47:56.933921 28184 net.cpp:137] Memory required for data: 896055296
I0425 09:47:56.933928 28184 layer_factory.hpp:77] Creating layer pool5
I0425 09:47:56.933939 28184 net.cpp:84] Creating Layer pool5
I0425 09:47:56.933945 28184 net.cpp:406] pool5 <- conv5
I0425 09:47:56.933954 28184 net.cpp:380] pool5 -> pool5
I0425 09:47:56.934005 28184 net.cpp:122] Setting up pool5
I0425 09:47:56.934013 28184 net.cpp:129] Top shape: 128 256 2 2 (131072)
I0425 09:47:56.934017 28184 net.cpp:137] Memory required for data: 896579584
I0425 09:47:56.934021 28184 layer_factory.hpp:77] Creating layer fc6
I0425 09:47:56.934036 28184 net.cpp:84] Creating Layer fc6
I0425 09:47:56.934041 28184 net.cpp:406] fc6 <- pool5
I0425 09:47:56.934048 28184 net.cpp:380] fc6 -> fc6
I0425 09:47:56.986140 28184 net.cpp:122] Setting up fc6
I0425 09:47:56.986160 28184 net.cpp:129] Top shape: 128 4096 (524288)
I0425 09:47:56.986166 28184 net.cpp:137] Memory required for data: 898676736
I0425 09:47:56.986176 28184 layer_factory.hpp:77] Creating layer relu6
I0425 09:47:56.986186 28184 net.cpp:84] Creating Layer relu6
I0425 09:47:56.986191 28184 net.cpp:406] relu6 <- fc6
I0425 09:47:56.986199 28184 net.cpp:367] relu6 -> fc6 (in-place)
I0425 09:47:56.988008 28184 net.cpp:122] Setting up relu6
I0425 09:47:56.988019 28184 net.cpp:129] Top shape: 128 4096 (524288)
I0425 09:47:56.988023 28184 net.cpp:137] Memory required for data: 900773888
I0425 09:47:56.988029 28184 layer_factory.hpp:77] Creating layer drop6
I0425 09:47:56.988035 28184 net.cpp:84] Creating Layer drop6
I0425 09:47:56.988040 28184 net.cpp:406] drop6 <- fc6
I0425 09:47:56.988047 28184 net.cpp:367] drop6 -> fc6 (in-place)
I0425 09:47:56.988080 28184 net.cpp:122] Setting up drop6
I0425 09:47:56.988085 28184 net.cpp:129] Top shape: 128 4096 (524288)
I0425 09:47:56.988090 28184 net.cpp:137] Memory required for data: 902871040
I0425 09:47:56.988093 28184 layer_factory.hpp:77] Creating layer fc7
I0425 09:47:56.988103 28184 net.cpp:84] Creating Layer fc7
I0425 09:47:56.988107 28184 net.cpp:406] fc7 <- fc6
I0425 09:47:56.988114 28184 net.cpp:380] fc7 -> fc7
I0425 09:47:57.151028 28184 net.cpp:122] Setting up fc7
I0425 09:47:57.151047 28184 net.cpp:129] Top shape: 128 4096 (524288)
I0425 09:47:57.151051 28184 net.cpp:137] Memory required for data: 904968192
I0425 09:47:57.151060 28184 layer_factory.hpp:77] Creating layer relu7
I0425 09:47:57.151069 28184 net.cpp:84] Creating Layer relu7
I0425 09:47:57.151073 28184 net.cpp:406] relu7 <- fc7
I0425 09:47:57.151082 28184 net.cpp:367] relu7 -> fc7 (in-place)
I0425 09:47:57.151975 28184 net.cpp:122] Setting up relu7
I0425 09:47:57.151985 28184 net.cpp:129] Top shape: 128 4096 (524288)
I0425 09:47:57.151988 28184 net.cpp:137] Memory required for data: 907065344
I0425 09:47:57.151993 28184 layer_factory.hpp:77] Creating layer drop7
I0425 09:47:57.151999 28184 net.cpp:84] Creating Layer drop7
I0425 09:47:57.152002 28184 net.cpp:406] drop7 <- fc7
I0425 09:47:57.152027 28184 net.cpp:367] drop7 -> fc7 (in-place)
I0425 09:47:57.152053 28184 net.cpp:122] Setting up drop7
I0425 09:47:57.152060 28184 net.cpp:129] Top shape: 128 4096 (524288)
I0425 09:47:57.152062 28184 net.cpp:137] Memory required for data: 909162496
I0425 09:47:57.152065 28184 layer_factory.hpp:77] Creating layer fc8
I0425 09:47:57.152072 28184 net.cpp:84] Creating Layer fc8
I0425 09:47:57.152076 28184 net.cpp:406] fc8 <- fc7
I0425 09:47:57.152082 28184 net.cpp:380] fc8 -> fc8
I0425 09:47:57.167500 28184 net.cpp:122] Setting up fc8
I0425 09:47:57.167518 28184 net.cpp:129] Top shape: 128 196 (25088)
I0425 09:47:57.167522 28184 net.cpp:137] Memory required for data: 909262848
I0425 09:47:57.167531 28184 layer_factory.hpp:77] Creating layer loss
I0425 09:47:57.167539 28184 net.cpp:84] Creating Layer loss
I0425 09:47:57.167544 28184 net.cpp:406] loss <- fc8
I0425 09:47:57.167549 28184 net.cpp:406] loss <- label
I0425 09:47:57.167557 28184 net.cpp:380] loss -> loss
I0425 09:47:57.167567 28184 layer_factory.hpp:77] Creating layer loss
…
I0425 09:47:57.171598 28184 net.cpp:294] The NetState phase (1) differed from the phase (0) specified by a rule in layer train-data
I0425 09:47:57.171737 28184 net.cpp:51] Initializing net from parameters:
state {
phase: TEST
}
layer {
name: "val-data"
type: "Data"
top: "data"
top: "label"
include {
phase: TEST
}
transform_param {
crop_size: 227
mean_file: "/mnt/bigdisk/DIGITS-MAN-3/digits/jobs/20210421-230320-902c/mean.binaryproto"
}
data_param {
source: "/mnt/bigdisk/DIGITS-MAN-3/digits/jobs/20210421-230320-902c/val_db"
batch_size: 32
backend: LMDB
}
}
layer {
name: "conv1"
type: "Convolution"
bottom: "data"
top: "conv1"
param {
lr_mult: 1
decay_mult: 1
}
param {
lr_mult: 2
decay_mult: 0
}
convolution_param {
num_output: 96
kernel_size: 11
stride: 4
weight_filler {
type: "gaussian"
std: 0.01
}
bias_filler {
type: "constant"
value: 0
}
}
}
layer {
name: "relu1"
type: "ReLU"
bottom: "conv1"
top: "conv1"
}
layer {
name: "norm1"
type: "LRN"
bottom: "conv1"
top: "norm1"
lrn_param {
local_size: 5
alpha: 0.0001
beta: 0.75
}
}
layer {
name: "pool1"
type: "Pooling"
bottom: "norm1"
top: "pool1"
pooling_param {
pool: MAX
kernel_size: 3
stride: 2
}
}
layer {
name: "conv2"
type: "Convolution"
bottom: "pool1"
top: "conv2"
param {
lr_mult: 1
decay_mult: 1
}
param {
lr_mult: 2
decay_mult: 0
}
convolution_param {
num_output: 256
pad: 2
kernel_size: 5
group: 2
weight_filler {
type: "gaussian"
std: 0.01
}
bias_filler {
type: "constant"
value: 0.1
}
}
}
layer {
name: "relu2"
type: "ReLU"
bottom: "conv2"
top: "conv2"
}
layer {
name: "norm2"
type: "LRN"
bottom: "conv2"
top: "norm2"
lrn_param {
local_size: 5
alpha: 0.0001
beta: 0.75
}
}
layer {
name: "pool2"
type: "Pooling"
bottom: "norm2"
top: "pool2"
pooling_param {
pool: MAX
kernel_size: 3
stride: 2
}
}
layer {
name: "conv3"
type: "Convolution"
bottom: "pool2"
top: "conv3"
param {
lr_mult: 1
decay_mult: 1
}
param {
lr_mult: 2
decay_mult: 0
}
convolution_param {
num_output: 384
pad: 1
kernel_size: 11
weight_filler {
type: "gaussian"
std: 0.01
}
bias_filler {
type: "constant"
value: 0
}
}
}
layer {
name: "relu3"
type: "ReLU"
bottom: "conv3"
top: "conv3"
}
layer {
name: "conv4"
type: "Convolution"
bottom: "conv3"
top: "conv4"
param {
lr_mult: 1
decay_mult: 1
}
param {
lr_mult: 2
decay_mult: 0
}
convolution_param {
num_output: 384
pad: 1
kernel_size: 3
group: 2
weight_filler {
type: "gaussian"
std: 0.01
}
bias_filler {
type: "constant"
value: 0.1
}
}
}
layer {
name: "relu4"
type: "ReLU"
bottom: "conv4"
top: "conv4"
}
layer {
name: "conv5"
type: "Convolution"
bottom: "conv4"
top: "conv5"
param {
lr_mult: 1
decay_mult: 1
}
param {
lr_mult: 2
decay_mult: 0
}
convolution_param {
num_output: 256
pad: 1
kernel_size: 3
group: 2
weight_filler {
type: "gaussian"
std: 0.01
}
bias_filler {
type: "constant"
value: 0.1
}
}
}
layer {
name: "relu5"
type: "ReLU"
bottom: "conv5"
top: "conv5"
}
layer {
name: "pool5"
type: "Pooling"
bottom: "conv5"
top: "pool5"
pooling_param {
pool: MAX
kernel_size: 3
stride: 2
}
}
layer {
name: "fc6"
type: "InnerProduct"
bottom: "pool5"
top: "fc6"
param {
lr_mult: 1
decay_mult: 1
}
param {
lr_mult: 2
decay_mult: 0
}
inner_product_param {
num_output: 4096
weight_filler {
type: "gaussian"
std: 0.005
}
bias_filler {
type: "constant"
value: 0.1
}
}
}
layer {
name: "relu6"
type: "ReLU"
bottom: "fc6"
top: "fc6"
}
layer {
name: "drop6"
type: "Dropout"
bottom: "fc6"
top: "fc6"
dropout_param {
dropout_ratio: 0.5
}
}
layer {
name: "fc7"
type: "InnerProduct"
bottom: "fc6"
top: "fc7"
param {
lr_mult: 1
decay_mult: 1
}
param {
lr_mult: 2
decay_mult: 0
}
inner_product_param {
num_output: 4096
weight_filler {
type: "gaussian"
std: 0.005
}
bias_filler {
type: "constant"
value: 0.1
}
}
}
layer {
name: "relu7"
type: "ReLU"
bottom: "fc7"
top: "fc7"
}
layer {
name: "drop7"
type: "Dropout"
bottom: "fc7"
top: "fc7"
dropout_param {
dropout_ratio: 0.5
}
}
layer {
name: "fc8"
type: "InnerProduct"
bottom: "fc7"
top: "fc8"
param {
lr_mult: 1
decay_mult: 1
}
param {
lr_mult: 2
decay_mult: 0
}
inner_product_param {
num_output: 196
weight_filler {
type: "gaussian"
std: 0.01
}
bias_filler {
type: "constant"
value: 0
}
}
}
layer {
name: "accuracy"
type: "Accuracy"
bottom: "fc8"
bottom: "label"
top: "accuracy"
include {
phase: TEST
}
}
layer {
name: "loss"
type: "SoftmaxWithLoss"
bottom: "fc8"
bottom: "label"
top: "loss"
}
I0425 09:47:57.171847 28184 layer_factory.hpp:77] Creating layer val-data
I0425 09:47:57.173439 28184 db_lmdb.cpp:35] Opened lmdb /mnt/bigdisk/DIGITS-MAN-3/digits/jobs/20210421-230320-902c/val_db
I0425 09:47:57.173609 28184 net.cpp:84] Creating Layer val-data
I0425 09:47:57.173619 28184 net.cpp:380] val-data -> data
I0425 09:47:57.173629 28184 net.cpp:380] val-data -> label
I0425 09:47:57.173635 28184 data_transformer.cpp:25] Loading mean file from: /mnt/bigdisk/DIGITS-MAN-3/digits/jobs/20210421-230320-902c/mean.binaryproto
I0425 09:47:57.177094 28184 data_layer.cpp:45] output data size: 32,3,227,227
I0425 09:47:57.217332 28184 net.cpp:122] Setting up val-data
I0425 09:47:57.217355 28184 net.cpp:129] Top shape: 32 3 227 227 (4946784)
I0425 09:47:57.217360 28184 net.cpp:129] Top shape: 32 (32)
I0425 09:47:57.217363 28184 net.cpp:137] Memory required for data: 19787264
I0425 09:47:57.217370 28184 layer_factory.hpp:77] Creating layer label_val-data_1_split
I0425 09:47:57.217381 28184 net.cpp:84] Creating Layer label_val-data_1_split
I0425 09:47:57.217386 28184 net.cpp:406] label_val-data_1_split <- label
I0425 09:47:57.217393 28184 net.cpp:380] label_val-data_1_split -> label_val-data_1_split_0
I0425 09:47:57.217402 28184 net.cpp:380] label_val-data_1_split -> label_val-data_1_split_1
I0425 09:47:57.217461 28184 net.cpp:122] Setting up label_val-data_1_split
I0425 09:47:57.217466 28184 net.cpp:129] Top shape: 32 (32)
I0425 09:47:57.217470 28184 net.cpp:129] Top shape: 32 (32)
I0425 09:47:57.217473 28184 net.cpp:137] Memory required for data: 19787520
I0425 09:47:57.217476 28184 layer_factory.hpp:77] Creating layer conv1
I0425 09:47:57.217487 28184 net.cpp:84] Creating Layer conv1
I0425 09:47:57.217491 28184 net.cpp:406] conv1 <- data
I0425 09:47:57.217496 28184 net.cpp:380] conv1 -> conv1
I0425 09:47:57.219856 28184 net.cpp:122] Setting up conv1
I0425 09:47:57.219867 28184 net.cpp:129] Top shape: 32 96 55 55 (9292800)
I0425 09:47:57.219871 28184 net.cpp:137] Memory required for data: 56958720
I0425 09:47:57.219880 28184 layer_factory.hpp:77] Creating layer relu1
I0425 09:47:57.219887 28184 net.cpp:84] Creating Layer relu1
I0425 09:47:57.219892 28184 net.cpp:406] relu1 <- conv1
I0425 09:47:57.219897 28184 net.cpp:367] relu1 -> conv1 (in-place)
I0425 09:47:57.220182 28184 net.cpp:122] Setting up relu1
I0425 09:47:57.220191 28184 net.cpp:129] Top shape: 32 96 55 55 (9292800)
I0425 09:47:57.220194 28184 net.cpp:137] Memory required for data: 94129920
I0425 09:47:57.220197 28184 layer_factory.hpp:77] Creating layer norm1
I0425 09:47:57.220206 28184 net.cpp:84] Creating Layer norm1
I0425 09:47:57.220209 28184 net.cpp:406] norm1 <- conv1
I0425 09:47:57.220214 28184 net.cpp:380] norm1 -> norm1
I0425 09:47:57.220688 28184 net.cpp:122] Setting up norm1
I0425 09:47:57.220700 28184 net.cpp:129] Top shape: 32 96 55 55 (9292800)
I0425 09:47:57.220702 28184 net.cpp:137] Memory required for data: 131301120
I0425 09:47:57.220706 28184 layer_factory.hpp:77] Creating layer pool1
I0425 09:47:57.220713 28184 net.cpp:84] Creating Layer pool1
I0425 09:47:57.220716 28184 net.cpp:406] pool1 <- norm1
I0425 09:47:57.220721 28184 net.cpp:380] pool1 -> pool1
I0425 09:47:57.220749 28184 net.cpp:122] Setting up pool1
I0425 09:47:57.220754 28184 net.cpp:129] Top shape: 32 96 27 27 (2239488)
I0425 09:47:57.220757 28184 net.cpp:137] Memory required for data: 140259072
I0425 09:47:57.220760 28184 layer_factory.hpp:77] Creating layer conv2
I0425 09:47:57.220769 28184 net.cpp:84] Creating Layer conv2
I0425 09:47:57.220772 28184 net.cpp:406] conv2 <- pool1
I0425 09:47:57.220798 28184 net.cpp:380] conv2 -> conv2
I0425 09:47:57.229470 28184 net.cpp:122] Setting up conv2
I0425 09:47:57.229490 28184 net.cpp:129] Top shape: 32 256 27 27 (5971968)
I0425 09:47:57.229494 28184 net.cpp:137] Memory required for data: 164146944
I0425 09:47:57.229504 28184 layer_factory.hpp:77] Creating layer relu2
I0425 09:47:57.229514 28184 net.cpp:84] Creating Layer relu2
I0425 09:47:57.229518 28184 net.cpp:406] relu2 <- conv2
I0425 09:47:57.229524 28184 net.cpp:367] relu2 -> conv2 (in-place)
I0425 09:47:57.230023 28184 net.cpp:122] Setting up relu2
I0425 09:47:57.230033 28184 net.cpp:129] Top shape: 32 256 27 27 (5971968)
I0425 09:47:57.230036 28184 net.cpp:137] Memory required for data: 188034816
I0425 09:47:57.230041 28184 layer_factory.hpp:77] Creating layer norm2
I0425 09:47:57.230051 28184 net.cpp:84] Creating Layer norm2
I0425 09:47:57.230054 28184 net.cpp:406] norm2 <- conv2
I0425 09:47:57.230060 28184 net.cpp:380] norm2 -> norm2
I0425 09:47:57.230568 28184 net.cpp:122] Setting up norm2
I0425 09:47:57.230578 28184 net.cpp:129] Top shape: 32 256 27 27 (5971968)
I0425 09:47:57.230581 28184 net.cpp:137] Memory required for data: 211922688
I0425 09:47:57.230585 28184 layer_factory.hpp:77] Creating layer pool2
I0425 09:47:57.230593 28184 net.cpp:84] Creating Layer pool2
I0425 09:47:57.230597 28184 net.cpp:406] pool2 <- norm2
I0425 09:47:57.230602 28184 net.cpp:380] pool2 -> pool2
I0425 09:47:57.230633 28184 net.cpp:122] Setting up pool2
I0425 09:47:57.230638 28184 net.cpp:129] Top shape: 32 256 13 13 (1384448)
I0425 09:47:57.230641 28184 net.cpp:137] Memory required for data: 217460480
I0425 09:47:57.230644 28184 layer_factory.hpp:77] Creating layer conv3
I0425 09:47:57.230655 28184 net.cpp:84] Creating Layer conv3
I0425 09:47:57.230659 28184 net.cpp:406] conv3 <- pool2
I0425 09:47:57.230665 28184 net.cpp:380] conv3 -> conv3
I0425 09:47:57.397307 28184 net.cpp:122] Setting up conv3
I0425 09:47:57.397334 28184 net.cpp:129] Top shape: 32 384 5 5 (307200)
I0425 09:47:57.397344 28184 net.cpp:137] Memory required for data: 218689280
I0425 09:47:57.397362 28184 layer_factory.hpp:77] Creating layer relu3
I0425 09:47:57.397379 28184 net.cpp:84] Creating Layer relu3
I0425 09:47:57.397387 28184 net.cpp:406] relu3 <- conv3
I0425 09:47:57.397398 28184 net.cpp:367] relu3 -> conv3 (in-place)
I0425 09:47:57.417480 28184 net.cpp:122] Setting up relu3
I0425 09:47:57.417498 28184 net.cpp:129] Top shape: 32 384 5 5 (307200)
I0425 09:47:57.417505 28184 net.cpp:137] Memory required for data: 219918080
I0425 09:47:57.417512 28184 layer_factory.hpp:77] Creating layer conv4
I0425 09:47:57.417531 28184 net.cpp:84] Creating Layer conv4
I0425 09:47:57.417536 28184 net.cpp:406] conv4 <- conv3
I0425 09:47:57.417546 28184 net.cpp:380] conv4 -> conv4
I0425 09:47:57.494374 28184 net.cpp:122] Setting up conv4
I0425 09:47:57.494395 28184 net.cpp:129] Top shape: 32 384 5 5 (307200)
I0425 09:47:57.494400 28184 net.cpp:137] Memory required for data: 221146880
I0425 09:47:57.494410 28184 layer_factory.hpp:77] Creating layer relu4
I0425 09:47:57.494426 28184 net.cpp:84] Creating Layer relu4
I0425 09:47:57.494431 28184 net.cpp:406] relu4 <- conv4
I0425 09:47:57.494437 28184 net.cpp:367] relu4 -> conv4 (in-place)
I0425 09:47:57.494856 28184 net.cpp:122] Setting up relu4
I0425 09:47:57.494865 28184 net.cpp:129] Top shape: 32 384 5 5 (307200)
I0425 09:47:57.494869 28184 net.cpp:137] Memory required for data: 222375680
I0425 09:47:57.494872 28184 layer_factory.hpp:77] Creating layer conv5
I0425 09:47:57.494885 28184 net.cpp:84] Creating Layer conv5
I0425 09:47:57.494889 28184 net.cpp:406] conv5 <- conv4
I0425 09:47:57.494896 28184 net.cpp:380] conv5 -> conv5
I0425 09:47:57.504796 28184 net.cpp:122] Setting up conv5
I0425 09:47:57.504815 28184 net.cpp:129] Top shape: 32 256 5 5 (204800)
I0425 09:47:57.504819 28184 net.cpp:137] Memory required for data: 223194880
I0425 09:47:57.504832 28184 layer_factory.hpp:77] Creating layer relu5
I0425 09:47:57.504843 28184 net.cpp:84] Creating Layer relu5
I0425 09:47:57.504848 28184 net.cpp:406] relu5 <- conv5
I0425 09:47:57.504875 28184 net.cpp:367] relu5 -> conv5 (in-place)
I0425 09:47:57.505407 28184 net.cpp:122] Setting up relu5
I0425 09:47:57.505417 28184 net.cpp:129] Top shape: 32 256 5 5 (204800)
I0425 09:47:57.505421 28184 net.cpp:137] Memory required for data: 224014080
I0425 09:47:57.505425 28184 layer_factory.hpp:77] Creating layer pool5
I0425 09:47:57.505436 28184 net.cpp:84] Creating Layer pool5
I0425 09:47:57.505440 28184 net.cpp:406] pool5 <- conv5
I0425 09:47:57.505446 28184 net.cpp:380] pool5 -> pool5
I0425 09:47:57.505491 28184 net.cpp:122] Setting up pool5
I0425 09:47:57.505496 28184 net.cpp:129] Top shape: 32 256 2 2 (32768)
I0425 09:47:57.505499 28184 net.cpp:137] Memory required for data: 224145152
I0425 09:47:57.505502 28184 layer_factory.hpp:77] Creating layer fc6
I0425 09:47:57.505509 28184 net.cpp:84] Creating Layer fc6
I0425 09:47:57.505513 28184 net.cpp:406] fc6 <- pool5
I0425 09:47:57.505519 28184 net.cpp:380] fc6 -> fc6
I0425 09:47:57.549360 28184 net.cpp:122] Setting up fc6
I0425 09:47:57.549381 28184 net.cpp:129] Top shape: 32 4096 (131072)
I0425 09:47:57.549386 28184 net.cpp:137] Memory required for data: 224669440
I0425 09:47:57.549394 28184 layer_factory.hpp:77] Creating layer relu6
I0425 09:47:57.549404 28184 net.cpp:84] Creating Layer relu6
I0425 09:47:57.549409 28184 net.cpp:406] relu6 <- fc6
I0425 09:47:57.549415 28184 net.cpp:367] relu6 -> fc6 (in-place)
I0425 09:47:57.550284 28184 net.cpp:122] Setting up relu6
I0425 09:47:57.550294 28184 net.cpp:129] Top shape: 32 4096 (131072)
I0425 09:47:57.550298 28184 net.cpp:137] Memory required for data: 225193728
I0425 09:47:57.550302 28184 layer_factory.hpp:77] Creating layer drop6
I0425 09:47:57.550309 28184 net.cpp:84] Creating Layer drop6
I0425 09:47:57.550312 28184 net.cpp:406] drop6 <- fc6
I0425 09:47:57.550321 28184 net.cpp:367] drop6 -> fc6 (in-place)
I0425 09:47:57.550348 28184 net.cpp:122] Setting up drop6
I0425 09:47:57.550355 28184 net.cpp:129] Top shape: 32 4096 (131072)
I0425 09:47:57.550359 28184 net.cpp:137] Memory required for data: 225718016
I0425 09:47:57.550362 28184 layer_factory.hpp:77] Creating layer fc7
I0425 09:47:57.550369 28184 net.cpp:84] Creating Layer fc7
I0425 09:47:57.550374 28184 net.cpp:406] fc7 <- fc6
I0425 09:47:57.550379 28184 net.cpp:380] fc7 -> fc7
I0425 09:47:57.720971 28184 net.cpp:122] Setting up fc7
I0425 09:47:57.720993 28184 net.cpp:129] Top shape: 32 4096 (131072)
I0425 09:47:57.720996 28184 net.cpp:137] Memory required for data: 226242304
I0425 09:47:57.721005 28184 layer_factory.hpp:77] Creating layer relu7
I0425 09:47:57.721014 28184 net.cpp:84] Creating Layer relu7
I0425 09:47:57.721025 28184 net.cpp:406] relu7 <- fc7
I0425 09:47:57.721032 28184 net.cpp:367] relu7 -> fc7 (in-place)
I0425 09:47:57.721462 28184 net.cpp:122] Setting up relu7
I0425 09:47:57.721472 28184 net.cpp:129] Top shape: 32 4096 (131072)
I0425 09:47:57.721475 28184 net.cpp:137] Memory required for data: 226766592
I0425 09:47:57.721479 28184 layer_factory.hpp:77] Creating layer drop7
I0425 09:47:57.721485 28184 net.cpp:84] Creating Layer drop7
I0425 09:47:57.721489 28184 net.cpp:406] drop7 <- fc7
I0425 09:47:57.721494 28184 net.cpp:367] drop7 -> fc7 (in-place)
I0425 09:47:57.721519 28184 net.cpp:122] Setting up drop7
I0425 09:47:57.721524 28184 net.cpp:129] Top shape: 32 4096 (131072)
I0425 09:47:57.721527 28184 net.cpp:137] Memory required for data: 227290880
I0425 09:47:57.721530 28184 layer_factory.hpp:77] Creating layer fc8
I0425 09:47:57.721539 28184 net.cpp:84] Creating Layer fc8
I0425 09:47:57.721541 28184 net.cpp:406] fc8 <- fc7
I0425 09:47:57.721546 28184 net.cpp:380] fc8 -> fc8
I0425 09:47:57.729405 28184 net.cpp:122] Setting up fc8
I0425 09:47:57.729419 28184 net.cpp:129] Top shape: 32 196 (6272)
I0425 09:47:57.729422 28184 net.cpp:137] Memory required for data: 227315968
I0425 09:47:57.729429 28184 layer_factory.hpp:77] Creating layer fc8_fc8_0_split
I0425 09:47:57.729437 28184 net.cpp:84] Creating Layer fc8_fc8_0_split
I0425 09:47:57.729440 28184 net.cpp:406] fc8_fc8_0_split <- fc8
I0425 09:47:57.729446 28184 net.cpp:380] fc8_fc8_0_split -> fc8_fc8_0_split_0
I0425 09:47:57.729472 28184 net.cpp:380] fc8_fc8_0_split -> fc8_fc8_0_split_1
I0425 09:47:57.729509 28184 net.cpp:122] Setting up fc8_fc8_0_split
I0425 09:47:57.729514 28184 net.cpp:129] Top shape: 32 196 (6272)
I0425 09:47:57.729517 28184 net.cpp:129] Top shape: 32 196 (6272)
I0425 09:47:57.729521 28184 net.cpp:137] Memory required for data: 227366144
I0425 09:47:57.729524 28184 layer_factory.hpp:77] Creating layer accuracy
I0425 09:47:57.729532 28184 net.cpp:84] Creating Layer accuracy
I0425 09:47:57.729535 28184 net.cpp:406] accuracy <- fc8_fc8_0_split_0
I0425 09:47:57.729539 28184 net.cpp:406] accuracy <- label_val-data_1_split_0
I0425 09:47:57.729544 28184 net.cpp:380] accuracy -> accuracy
…
