…
I0423 08:32:26.921267  3807 net.cpp:294] The NetState phase (0) differed from the phase (1) specified by a rule in layer accuracy
I0423 08:32:26.921483  3807 net.cpp:51] Initializing net from parameters:
state {
phase: TRAIN
level: 0
stage: ""
}
layer {
name: "train-data"
type: "Data"
top: "data"
top: "label"
include {
phase: TRAIN
}
transform_param {
mirror: true
crop_size: 227
mean_file: "/mnt/bigdisk/DIGITS-MAN-3/digits/jobs/20210421-230320-902c/mean.binaryproto"
}
data_param {
source: "/mnt/bigdisk/DIGITS-MAN-3/digits/jobs/20210421-230320-902c/train_db"
batch_size: 128
backend: LMDB
}
}
layer {
name: "conv1"
type: "Convolution"
bottom: "data"
top: "conv1"
param {
lr_mult: 1
decay_mult: 1
}
param {
lr_mult: 2
decay_mult: 0
}
convolution_param {
num_output: 96
kernel_size: 11
stride: 4
weight_filler {
type: "gaussian"
std: 0.01
}
bias_filler {
type: "constant"
value: 0
}
}
}
layer {
name: "relu1"
type: "ReLU"
bottom: "conv1"
top: "conv1"
}
layer {
name: "norm1"
type: "LRN"
bottom: "conv1"
top: "norm1"
lrn_param {
local_size: 5
alpha: 0.0001
beta: 0.75
}
}
layer {
name: "pool1"
type: "Pooling"
bottom: "norm1"
top: "pool1"
pooling_param {
pool: MAX
kernel_size: 3
stride: 2
}
}
layer {
name: "conv2"
type: "Convolution"
bottom: "pool1"
top: "conv2"
param {
lr_mult: 1
decay_mult: 1
}
param {
lr_mult: 2
decay_mult: 0
}
convolution_param {
num_output: 256
pad: 2
kernel_size: 3
group: 2
weight_filler {
type: "gaussian"
std: 0.01
}
bias_filler {
type: "constant"
value: 0.1
}
}
}
layer {
name: "relu2"
type: "ReLU"
bottom: "conv2"
top: "conv2"
}
layer {
name: "norm2"
type: "LRN"
bottom: "conv2"
top: "norm2"
lrn_param {
local_size: 5
alpha: 0.0001
beta: 0.75
}
}
layer {
name: "pool2"
type: "Pooling"
bottom: "norm2"
top: "pool2"
pooling_param {
pool: MAX
kernel_size: 3
stride: 2
}
}
layer {
name: "conv3"
type: "Convolution"
bottom: "pool2"
top: "conv3"
param {
lr_mult: 1
decay_mult: 1
}
param {
lr_mult: 2
decay_mult: 0
}
convolution_param {
num_output: 384
pad: 1
kernel_size: 3
weight_filler {
type: "gaussian"
std: 0.01
}
bias_filler {
type: "constant"
value: 0
}
}
}
layer {
name: "relu3"
type: "ReLU"
bottom: "conv3"
top: "conv3"
}
layer {
name: "conv4"
type: "Convolution"
bottom: "conv3"
top: "conv4"
param {
lr_mult: 1
decay_mult: 1
}
param {
lr_mult: 2
decay_mult: 0
}
convolution_param {
num_output: 384
pad: 1
kernel_size: 3
group: 2
weight_filler {
type: "gaussian"
std: 0.01
}
bias_filler {
type: "constant"
value: 0.1
}
}
}
layer {
name: "relu4"
type: "ReLU"
bottom: "conv4"
top: "conv4"
}
layer {
name: "conv5"
type: "Convolution"
bottom: "conv4"
top: "conv5"
param {
lr_mult: 1
decay_mult: 1
}
param {
lr_mult: 2
decay_mult: 0
}
convolution_param {
num_output: 256
pad: 1
kernel_size: 3
group: 2
weight_filler {
type: "gaussian"
std: 0.01
}
bias_filler {
type: "constant"
value: 0.1
}
}
}
layer {
name: "relu5"
type: "ReLU"
bottom: "conv5"
top: "conv5"
}
layer {
name: "pool5"
type: "Pooling"
bottom: "conv5"
top: "pool5"
pooling_param {
pool: MAX
kernel_size: 3
stride: 2
}
}
layer {
name: "fc6"
type: "InnerProduct"
bottom: "pool5"
top: "fc6"
param {
lr_mult: 1
decay_mult: 1
}
param {
lr_mult: 2
decay_mult: 0
}
inner_product_param {
num_output: 4096
weight_filler {
type: "gaussian"
std: 0.005
}
bias_filler {
type: "constant"
value: 0.1
}
}
}
layer {
name: "relu6"
type: "ReLU"
bottom: "fc6"
top: "fc6"
}
layer {
name: "drop6"
type: "Dropout"
bottom: "fc6"
top: "fc6"
dropout_param {
dropout_ratio: 0.5
}
}
layer {
name: "fc7"
type: "InnerProduct"
bottom: "fc6"
top: "fc7"
param {
lr_mult: 1
decay_mult: 1
}
param {
lr_mult: 2
decay_mult: 0
}
inner_product_param {
num_output: 4096
weight_filler {
type: "gaussian"
std: 0.005
}
bias_filler {
type: "constant"
value: 0.1
}
}
}
layer {
name: "relu7"
type: "ReLU"
bottom: "fc7"
top: "fc7"
}
layer {
name: "drop7"
type: "Dropout"
bottom: "fc7"
top: "fc7"
dropout_param {
dropout_ratio: 0.5
}
}
layer {
name: "fc8"
type: "InnerProduct"
bottom: "fc7"
top: "fc8"
param {
lr_mult: 1
decay_mult: 1
}
param {
lr_mult: 2
decay_mult: 0
}
inner_product_param {
num_output: 196
weight_filler {
type: "gaussian"
std: 0.01
}
bias_filler {
type: "constant"
value: 0
}
}
}
layer {
name: "loss"
type: "SoftmaxWithLoss"
bottom: "fc8"
bottom: "label"
top: "loss"
}
I0423 08:32:26.921602  3807 layer_factory.hpp:77] Creating layer train-data
I0423 08:32:27.702775  3807 db_lmdb.cpp:35] Opened lmdb /mnt/bigdisk/DIGITS-MAN-3/digits/jobs/20210421-230320-902c/train_db
I0423 08:32:28.001179  3807 net.cpp:84] Creating Layer train-data
I0423 08:32:28.001219  3807 net.cpp:380] train-data -> data
I0423 08:32:28.001250  3807 net.cpp:380] train-data -> label
I0423 08:32:28.001267  3807 data_transformer.cpp:25] Loading mean file from: /mnt/bigdisk/DIGITS-MAN-3/digits/jobs/20210421-230320-902c/mean.binaryproto
I0423 08:32:28.008977  3807 data_layer.cpp:45] output data size: 128,3,227,227
I0423 08:32:28.168221  3807 net.cpp:122] Setting up train-data
I0423 08:32:28.168262  3807 net.cpp:129] Top shape: 128 3 227 227 (19787136)
I0423 08:32:28.168272  3807 net.cpp:129] Top shape: 128 (128)
I0423 08:32:28.168279  3807 net.cpp:137] Memory required for data: 79149056
I0423 08:32:28.168293  3807 layer_factory.hpp:77] Creating layer conv1
I0423 08:32:28.168331  3807 net.cpp:84] Creating Layer conv1
I0423 08:32:28.168339  3807 net.cpp:406] conv1 <- data
I0423 08:32:28.168357  3807 net.cpp:380] conv1 -> conv1
I0423 08:32:28.806489  3807 net.cpp:122] Setting up conv1
I0423 08:32:28.806512  3807 net.cpp:129] Top shape: 128 96 55 55 (37171200)
I0423 08:32:28.806516  3807 net.cpp:137] Memory required for data: 227833856
I0423 08:32:28.806535  3807 layer_factory.hpp:77] Creating layer relu1
I0423 08:32:28.806546  3807 net.cpp:84] Creating Layer relu1
I0423 08:32:28.806550  3807 net.cpp:406] relu1 <- conv1
I0423 08:32:28.806556  3807 net.cpp:367] relu1 -> conv1 (in-place)
I0423 08:32:28.806864  3807 net.cpp:122] Setting up relu1
I0423 08:32:28.806874  3807 net.cpp:129] Top shape: 128 96 55 55 (37171200)
I0423 08:32:28.806877  3807 net.cpp:137] Memory required for data: 376518656
I0423 08:32:28.806880  3807 layer_factory.hpp:77] Creating layer norm1
I0423 08:32:28.806890  3807 net.cpp:84] Creating Layer norm1
I0423 08:32:28.806893  3807 net.cpp:406] norm1 <- conv1
I0423 08:32:28.806921  3807 net.cpp:380] norm1 -> norm1
I0423 08:32:28.807374  3807 net.cpp:122] Setting up norm1
I0423 08:32:28.807384  3807 net.cpp:129] Top shape: 128 96 55 55 (37171200)
I0423 08:32:28.807389  3807 net.cpp:137] Memory required for data: 525203456
I0423 08:32:28.807392  3807 layer_factory.hpp:77] Creating layer pool1
I0423 08:32:28.807400  3807 net.cpp:84] Creating Layer pool1
I0423 08:32:28.807404  3807 net.cpp:406] pool1 <- norm1
I0423 08:32:28.807410  3807 net.cpp:380] pool1 -> pool1
I0423 08:32:28.807446  3807 net.cpp:122] Setting up pool1
I0423 08:32:28.807452  3807 net.cpp:129] Top shape: 128 96 27 27 (8957952)
I0423 08:32:28.807456  3807 net.cpp:137] Memory required for data: 561035264
I0423 08:32:28.807459  3807 layer_factory.hpp:77] Creating layer conv2
I0423 08:32:28.807469  3807 net.cpp:84] Creating Layer conv2
I0423 08:32:28.807473  3807 net.cpp:406] conv2 <- pool1
I0423 08:32:28.807478  3807 net.cpp:380] conv2 -> conv2
I0423 08:32:28.812021  3807 net.cpp:122] Setting up conv2
I0423 08:32:28.812043  3807 net.cpp:129] Top shape: 128 256 29 29 (27557888)
I0423 08:32:28.812047  3807 net.cpp:137] Memory required for data: 671266816
I0423 08:32:28.812059  3807 layer_factory.hpp:77] Creating layer relu2
I0423 08:32:28.812069  3807 net.cpp:84] Creating Layer relu2
I0423 08:32:28.812073  3807 net.cpp:406] relu2 <- conv2
I0423 08:32:28.812080  3807 net.cpp:367] relu2 -> conv2 (in-place)
I0423 08:32:28.812562  3807 net.cpp:122] Setting up relu2
I0423 08:32:28.812573  3807 net.cpp:129] Top shape: 128 256 29 29 (27557888)
I0423 08:32:28.812577  3807 net.cpp:137] Memory required for data: 781498368
I0423 08:32:28.812580  3807 layer_factory.hpp:77] Creating layer norm2
I0423 08:32:28.812588  3807 net.cpp:84] Creating Layer norm2
I0423 08:32:28.812592  3807 net.cpp:406] norm2 <- conv2
I0423 08:32:28.812599  3807 net.cpp:380] norm2 -> norm2
I0423 08:32:28.812978  3807 net.cpp:122] Setting up norm2
I0423 08:32:28.812985  3807 net.cpp:129] Top shape: 128 256 29 29 (27557888)
I0423 08:32:28.812989  3807 net.cpp:137] Memory required for data: 891729920
I0423 08:32:28.812992  3807 layer_factory.hpp:77] Creating layer pool2
I0423 08:32:28.813001  3807 net.cpp:84] Creating Layer pool2
I0423 08:32:28.813004  3807 net.cpp:406] pool2 <- norm2
I0423 08:32:28.813010  3807 net.cpp:380] pool2 -> pool2
I0423 08:32:28.813050  3807 net.cpp:122] Setting up pool2
I0423 08:32:28.813055  3807 net.cpp:129] Top shape: 128 256 14 14 (6422528)
I0423 08:32:28.813058  3807 net.cpp:137] Memory required for data: 917420032
I0423 08:32:28.813062  3807 layer_factory.hpp:77] Creating layer conv3
I0423 08:32:28.813073  3807 net.cpp:84] Creating Layer conv3
I0423 08:32:28.813076  3807 net.cpp:406] conv3 <- pool2
I0423 08:32:28.813082  3807 net.cpp:380] conv3 -> conv3
I0423 08:32:28.826016  3807 net.cpp:122] Setting up conv3
I0423 08:32:28.826040  3807 net.cpp:129] Top shape: 128 384 14 14 (9633792)
I0423 08:32:28.826043  3807 net.cpp:137] Memory required for data: 955955200
I0423 08:32:28.826057  3807 layer_factory.hpp:77] Creating layer relu3
I0423 08:32:28.826066  3807 net.cpp:84] Creating Layer relu3
I0423 08:32:28.826069  3807 net.cpp:406] relu3 <- conv3
I0423 08:32:28.826076  3807 net.cpp:367] relu3 -> conv3 (in-place)
I0423 08:32:28.826599  3807 net.cpp:122] Setting up relu3
I0423 08:32:28.826611  3807 net.cpp:129] Top shape: 128 384 14 14 (9633792)
I0423 08:32:28.826613  3807 net.cpp:137] Memory required for data: 994490368
I0423 08:32:28.826617  3807 layer_factory.hpp:77] Creating layer conv4
I0423 08:32:28.826628  3807 net.cpp:84] Creating Layer conv4
I0423 08:32:28.826632  3807 net.cpp:406] conv4 <- conv3
I0423 08:32:28.826637  3807 net.cpp:380] conv4 -> conv4
I0423 08:32:28.837481  3807 net.cpp:122] Setting up conv4
I0423 08:32:28.837504  3807 net.cpp:129] Top shape: 128 384 14 14 (9633792)
I0423 08:32:28.837508  3807 net.cpp:137] Memory required for data: 1033025536
I0423 08:32:28.837518  3807 layer_factory.hpp:77] Creating layer relu4
I0423 08:32:28.837527  3807 net.cpp:84] Creating Layer relu4
I0423 08:32:28.837553  3807 net.cpp:406] relu4 <- conv4
I0423 08:32:28.837561  3807 net.cpp:367] relu4 -> conv4 (in-place)
I0423 08:32:28.837940  3807 net.cpp:122] Setting up relu4
I0423 08:32:28.837950  3807 net.cpp:129] Top shape: 128 384 14 14 (9633792)
I0423 08:32:28.837954  3807 net.cpp:137] Memory required for data: 1071560704
I0423 08:32:28.837957  3807 layer_factory.hpp:77] Creating layer conv5
I0423 08:32:28.837970  3807 net.cpp:84] Creating Layer conv5
I0423 08:32:28.837972  3807 net.cpp:406] conv5 <- conv4
I0423 08:32:28.837980  3807 net.cpp:380] conv5 -> conv5
I0423 08:32:28.846899  3807 net.cpp:122] Setting up conv5
I0423 08:32:28.846921  3807 net.cpp:129] Top shape: 128 256 14 14 (6422528)
I0423 08:32:28.846925  3807 net.cpp:137] Memory required for data: 1097250816
I0423 08:32:28.846940  3807 layer_factory.hpp:77] Creating layer relu5
I0423 08:32:28.846948  3807 net.cpp:84] Creating Layer relu5
I0423 08:32:28.846952  3807 net.cpp:406] relu5 <- conv5
I0423 08:32:28.846959  3807 net.cpp:367] relu5 -> conv5 (in-place)
I0423 08:32:28.847467  3807 net.cpp:122] Setting up relu5
I0423 08:32:28.847477  3807 net.cpp:129] Top shape: 128 256 14 14 (6422528)
I0423 08:32:28.847481  3807 net.cpp:137] Memory required for data: 1122940928
I0423 08:32:28.847484  3807 layer_factory.hpp:77] Creating layer pool5
I0423 08:32:28.847492  3807 net.cpp:84] Creating Layer pool5
I0423 08:32:28.847496  3807 net.cpp:406] pool5 <- conv5
I0423 08:32:28.847501  3807 net.cpp:380] pool5 -> pool5
I0423 08:32:28.847539  3807 net.cpp:122] Setting up pool5
I0423 08:32:28.847544  3807 net.cpp:129] Top shape: 128 256 7 7 (1605632)
I0423 08:32:28.847548  3807 net.cpp:137] Memory required for data: 1129363456
I0423 08:32:28.847550  3807 layer_factory.hpp:77] Creating layer fc6
I0423 08:32:28.847560  3807 net.cpp:84] Creating Layer fc6
I0423 08:32:28.847563  3807 net.cpp:406] fc6 <- pool5
I0423 08:32:28.847570  3807 net.cpp:380] fc6 -> fc6
I0423 08:32:29.611584  3807 net.cpp:122] Setting up fc6
I0423 08:32:29.611613  3807 net.cpp:129] Top shape: 128 4096 (524288)
I0423 08:32:29.611618  3807 net.cpp:137] Memory required for data: 1131460608
I0423 08:32:29.611631  3807 layer_factory.hpp:77] Creating layer relu6
I0423 08:32:29.611644  3807 net.cpp:84] Creating Layer relu6
I0423 08:32:29.611649  3807 net.cpp:406] relu6 <- fc6
I0423 08:32:29.611660  3807 net.cpp:367] relu6 -> fc6 (in-place)
I0423 08:32:29.612547  3807 net.cpp:122] Setting up relu6
I0423 08:32:29.612560  3807 net.cpp:129] Top shape: 128 4096 (524288)
I0423 08:32:29.612565  3807 net.cpp:137] Memory required for data: 1133557760
I0423 08:32:29.612571  3807 layer_factory.hpp:77] Creating layer drop6
I0423 08:32:29.612579  3807 net.cpp:84] Creating Layer drop6
I0423 08:32:29.612584  3807 net.cpp:406] drop6 <- fc6
I0423 08:32:29.612592  3807 net.cpp:367] drop6 -> fc6 (in-place)
I0423 08:32:29.612628  3807 net.cpp:122] Setting up drop6
I0423 08:32:29.612635  3807 net.cpp:129] Top shape: 128 4096 (524288)
I0423 08:32:29.612639  3807 net.cpp:137] Memory required for data: 1135654912
I0423 08:32:29.612644  3807 layer_factory.hpp:77] Creating layer fc7
I0423 08:32:29.612653  3807 net.cpp:84] Creating Layer fc7
I0423 08:32:29.612658  3807 net.cpp:406] fc7 <- fc6
I0423 08:32:29.612668  3807 net.cpp:380] fc7 -> fc7
I0423 08:32:29.863193  3807 net.cpp:122] Setting up fc7
I0423 08:32:29.863222  3807 net.cpp:129] Top shape: 128 4096 (524288)
I0423 08:32:29.863227  3807 net.cpp:137] Memory required for data: 1137752064
I0423 08:32:29.863240  3807 layer_factory.hpp:77] Creating layer relu7
I0423 08:32:29.863251  3807 net.cpp:84] Creating Layer relu7
I0423 08:32:29.863257  3807 net.cpp:406] relu7 <- fc7
I0423 08:32:29.863266  3807 net.cpp:367] relu7 -> fc7 (in-place)
I0423 08:32:29.863843  3807 net.cpp:122] Setting up relu7
I0423 08:32:29.863857  3807 net.cpp:129] Top shape: 128 4096 (524288)
I0423 08:32:29.863862  3807 net.cpp:137] Memory required for data: 1139849216
I0423 08:32:29.863867  3807 layer_factory.hpp:77] Creating layer drop7
I0423 08:32:29.863875  3807 net.cpp:84] Creating Layer drop7
I0423 08:32:29.863906  3807 net.cpp:406] drop7 <- fc7
I0423 08:32:29.863916  3807 net.cpp:367] drop7 -> fc7 (in-place)
I0423 08:32:29.863947  3807 net.cpp:122] Setting up drop7
I0423 08:32:29.863953  3807 net.cpp:129] Top shape: 128 4096 (524288)
I0423 08:32:29.863958  3807 net.cpp:137] Memory required for data: 1141946368
I0423 08:32:29.863962  3807 layer_factory.hpp:77] Creating layer fc8
I0423 08:32:29.863973  3807 net.cpp:84] Creating Layer fc8
I0423 08:32:29.863978  3807 net.cpp:406] fc8 <- fc7
I0423 08:32:29.863986  3807 net.cpp:380] fc8 -> fc8
I0423 08:32:29.876684  3807 net.cpp:122] Setting up fc8
I0423 08:32:29.876709  3807 net.cpp:129] Top shape: 128 196 (25088)
I0423 08:32:29.876713  3807 net.cpp:137] Memory required for data: 1142046720
I0423 08:32:29.876725  3807 layer_factory.hpp:77] Creating layer loss
I0423 08:32:29.876737  3807 net.cpp:84] Creating Layer loss
I0423 08:32:29.876742  3807 net.cpp:406] loss <- fc8
I0423 08:32:29.876750  3807 net.cpp:406] loss <- label
I0423 08:32:29.876760  3807 net.cpp:380] loss -> loss
I0423 08:32:29.876775  3807 layer_factory.hpp:77] Creating layer loss
…
I0423 08:32:29.878840  3807 net.cpp:294] The NetState phase (1) differed from the phase (0) specified by a rule in layer train-data
I0423 08:32:29.879065  3807 net.cpp:51] Initializing net from parameters:
state {
phase: TEST
}
layer {
name: "val-data"
type: "Data"
top: "data"
top: "label"
include {
phase: TEST
}
transform_param {
crop_size: 227
mean_file: "/mnt/bigdisk/DIGITS-MAN-3/digits/jobs/20210421-230320-902c/mean.binaryproto"
}
data_param {
source: "/mnt/bigdisk/DIGITS-MAN-3/digits/jobs/20210421-230320-902c/val_db"
batch_size: 32
backend: LMDB
}
}
layer {
name: "conv1"
type: "Convolution"
bottom: "data"
top: "conv1"
param {
lr_mult: 1
decay_mult: 1
}
param {
lr_mult: 2
decay_mult: 0
}
convolution_param {
num_output: 96
kernel_size: 11
stride: 4
weight_filler {
type: "gaussian"
std: 0.01
}
bias_filler {
type: "constant"
value: 0
}
}
}
layer {
name: "relu1"
type: "ReLU"
bottom: "conv1"
top: "conv1"
}
layer {
name: "norm1"
type: "LRN"
bottom: "conv1"
top: "norm1"
lrn_param {
local_size: 5
alpha: 0.0001
beta: 0.75
}
}
layer {
name: "pool1"
type: "Pooling"
bottom: "norm1"
top: "pool1"
pooling_param {
pool: MAX
kernel_size: 3
stride: 2
}
}
layer {
name: "conv2"
type: "Convolution"
bottom: "pool1"
top: "conv2"
param {
lr_mult: 1
decay_mult: 1
}
param {
lr_mult: 2
decay_mult: 0
}
convolution_param {
num_output: 256
pad: 2
kernel_size: 3
group: 2
weight_filler {
type: "gaussian"
std: 0.01
}
bias_filler {
type: "constant"
value: 0.1
}
}
}
layer {
name: "relu2"
type: "ReLU"
bottom: "conv2"
top: "conv2"
}
layer {
name: "norm2"
type: "LRN"
bottom: "conv2"
top: "norm2"
lrn_param {
local_size: 5
alpha: 0.0001
beta: 0.75
}
}
layer {
name: "pool2"
type: "Pooling"
bottom: "norm2"
top: "pool2"
pooling_param {
pool: MAX
kernel_size: 3
stride: 2
}
}
layer {
name: "conv3"
type: "Convolution"
bottom: "pool2"
top: "conv3"
param {
lr_mult: 1
decay_mult: 1
}
param {
lr_mult: 2
decay_mult: 0
}
convolution_param {
num_output: 384
pad: 1
kernel_size: 3
weight_filler {
type: "gaussian"
std: 0.01
}
bias_filler {
type: "constant"
value: 0
}
}
}
layer {
name: "relu3"
type: "ReLU"
bottom: "conv3"
top: "conv3"
}
layer {
name: "conv4"
type: "Convolution"
bottom: "conv3"
top: "conv4"
param {
lr_mult: 1
decay_mult: 1
}
param {
lr_mult: 2
decay_mult: 0
}
convolution_param {
num_output: 384
pad: 1
kernel_size: 3
group: 2
weight_filler {
type: "gaussian"
std: 0.01
}
bias_filler {
type: "constant"
value: 0.1
}
}
}
layer {
name: "relu4"
type: "ReLU"
bottom: "conv4"
top: "conv4"
}
layer {
name: "conv5"
type: "Convolution"
bottom: "conv4"
top: "conv5"
param {
lr_mult: 1
decay_mult: 1
}
param {
lr_mult: 2
decay_mult: 0
}
convolution_param {
num_output: 256
pad: 1
kernel_size: 3
group: 2
weight_filler {
type: "gaussian"
std: 0.01
}
bias_filler {
type: "constant"
value: 0.1
}
}
}
layer {
name: "relu5"
type: "ReLU"
bottom: "conv5"
top: "conv5"
}
layer {
name: "pool5"
type: "Pooling"
bottom: "conv5"
top: "pool5"
pooling_param {
pool: MAX
kernel_size: 3
stride: 2
}
}
layer {
name: "fc6"
type: "InnerProduct"
bottom: "pool5"
top: "fc6"
param {
lr_mult: 1
decay_mult: 1
}
param {
lr_mult: 2
decay_mult: 0
}
inner_product_param {
num_output: 4096
weight_filler {
type: "gaussian"
std: 0.005
}
bias_filler {
type: "constant"
value: 0.1
}
}
}
layer {
name: "relu6"
type: "ReLU"
bottom: "fc6"
top: "fc6"
}
layer {
name: "drop6"
type: "Dropout"
bottom: "fc6"
top: "fc6"
dropout_param {
dropout_ratio: 0.5
}
}
layer {
name: "fc7"
type: "InnerProduct"
bottom: "fc6"
top: "fc7"
param {
lr_mult: 1
decay_mult: 1
}
param {
lr_mult: 2
decay_mult: 0
}
inner_product_param {
num_output: 4096
weight_filler {
type: "gaussian"
std: 0.005
}
bias_filler {
type: "constant"
value: 0.1
}
}
}
layer {
name: "relu7"
type: "ReLU"
bottom: "fc7"
top: "fc7"
}
layer {
name: "drop7"
type: "Dropout"
bottom: "fc7"
top: "fc7"
dropout_param {
dropout_ratio: 0.5
}
}
layer {
name: "fc8"
type: "InnerProduct"
bottom: "fc7"
top: "fc8"
param {
lr_mult: 1
decay_mult: 1
}
param {
lr_mult: 2
decay_mult: 0
}
inner_product_param {
num_output: 196
weight_filler {
type: "gaussian"
std: 0.01
}
bias_filler {
type: "constant"
value: 0
}
}
}
layer {
name: "accuracy"
type: "Accuracy"
bottom: "fc8"
bottom: "label"
top: "accuracy"
include {
phase: TEST
}
}
layer {
name: "loss"
type: "SoftmaxWithLoss"
bottom: "fc8"
bottom: "label"
top: "loss"
}
I0423 08:32:29.879213  3807 layer_factory.hpp:77] Creating layer val-data
I0423 08:32:29.955478  3807 db_lmdb.cpp:35] Opened lmdb /mnt/bigdisk/DIGITS-MAN-3/digits/jobs/20210421-230320-902c/val_db
I0423 08:32:30.116278  3807 net.cpp:84] Creating Layer val-data
I0423 08:32:30.116315  3807 net.cpp:380] val-data -> data
I0423 08:32:30.116333  3807 net.cpp:380] val-data -> label
I0423 08:32:30.116344  3807 data_transformer.cpp:25] Loading mean file from: /mnt/bigdisk/DIGITS-MAN-3/digits/jobs/20210421-230320-902c/mean.binaryproto
I0423 08:32:30.401567  3807 data_layer.cpp:45] output data size: 32,3,227,227
I0423 08:32:30.439052  3807 net.cpp:122] Setting up val-data
I0423 08:32:30.439090  3807 net.cpp:129] Top shape: 32 3 227 227 (4946784)
I0423 08:32:30.439096  3807 net.cpp:129] Top shape: 32 (32)
I0423 08:32:30.439100  3807 net.cpp:137] Memory required for data: 19787264
I0423 08:32:30.439108  3807 layer_factory.hpp:77] Creating layer label_val-data_1_split
I0423 08:32:30.439123  3807 net.cpp:84] Creating Layer label_val-data_1_split
I0423 08:32:30.439129  3807 net.cpp:406] label_val-data_1_split <- label
I0423 08:32:30.439139  3807 net.cpp:380] label_val-data_1_split -> label_val-data_1_split_0
I0423 08:32:30.439152  3807 net.cpp:380] label_val-data_1_split -> label_val-data_1_split_1
I0423 08:32:30.439287  3807 net.cpp:122] Setting up label_val-data_1_split
I0423 08:32:30.439304  3807 net.cpp:129] Top shape: 32 (32)
I0423 08:32:30.439313  3807 net.cpp:129] Top shape: 32 (32)
I0423 08:32:30.439318  3807 net.cpp:137] Memory required for data: 19787520
I0423 08:32:30.439323  3807 layer_factory.hpp:77] Creating layer conv1
I0423 08:32:30.439340  3807 net.cpp:84] Creating Layer conv1
I0423 08:32:30.439345  3807 net.cpp:406] conv1 <- data
I0423 08:32:30.439353  3807 net.cpp:380] conv1 -> conv1
I0423 08:32:30.442158  3807 net.cpp:122] Setting up conv1
I0423 08:32:30.442178  3807 net.cpp:129] Top shape: 32 96 55 55 (9292800)
I0423 08:32:30.442183  3807 net.cpp:137] Memory required for data: 56958720
I0423 08:32:30.442198  3807 layer_factory.hpp:77] Creating layer relu1
I0423 08:32:30.442207  3807 net.cpp:84] Creating Layer relu1
I0423 08:32:30.442212  3807 net.cpp:406] relu1 <- conv1
I0423 08:32:30.442219  3807 net.cpp:367] relu1 -> conv1 (in-place)
I0423 08:32:30.442729  3807 net.cpp:122] Setting up relu1
I0423 08:32:30.442751  3807 net.cpp:129] Top shape: 32 96 55 55 (9292800)
I0423 08:32:30.442760  3807 net.cpp:137] Memory required for data: 94129920
I0423 08:32:30.442770  3807 layer_factory.hpp:77] Creating layer norm1
I0423 08:32:30.442788  3807 net.cpp:84] Creating Layer norm1
I0423 08:32:30.442798  3807 net.cpp:406] norm1 <- conv1
I0423 08:32:30.442811  3807 net.cpp:380] norm1 -> norm1
I0423 08:32:30.444939  3807 net.cpp:122] Setting up norm1
I0423 08:32:30.444960  3807 net.cpp:129] Top shape: 32 96 55 55 (9292800)
I0423 08:32:30.444967  3807 net.cpp:137] Memory required for data: 131301120
I0423 08:32:30.444983  3807 layer_factory.hpp:77] Creating layer pool1
I0423 08:32:30.444995  3807 net.cpp:84] Creating Layer pool1
I0423 08:32:30.445003  3807 net.cpp:406] pool1 <- norm1
I0423 08:32:30.445024  3807 net.cpp:380] pool1 -> pool1
I0423 08:32:30.445078  3807 net.cpp:122] Setting up pool1
I0423 08:32:30.445089  3807 net.cpp:129] Top shape: 32 96 27 27 (2239488)
I0423 08:32:30.445094  3807 net.cpp:137] Memory required for data: 140259072
I0423 08:32:30.445099  3807 layer_factory.hpp:77] Creating layer conv2
I0423 08:32:30.445114  3807 net.cpp:84] Creating Layer conv2
I0423 08:32:30.445120  3807 net.cpp:406] conv2 <- pool1
I0423 08:32:30.445161  3807 net.cpp:380] conv2 -> conv2
I0423 08:32:30.453243  3807 net.cpp:122] Setting up conv2
I0423 08:32:30.453269  3807 net.cpp:129] Top shape: 32 256 29 29 (6889472)
I0423 08:32:30.453275  3807 net.cpp:137] Memory required for data: 167816960
I0423 08:32:30.453294  3807 layer_factory.hpp:77] Creating layer relu2
I0423 08:32:30.453310  3807 net.cpp:84] Creating Layer relu2
I0423 08:32:30.453317  3807 net.cpp:406] relu2 <- conv2
I0423 08:32:30.453332  3807 net.cpp:367] relu2 -> conv2 (in-place)
I0423 08:32:30.454098  3807 net.cpp:122] Setting up relu2
I0423 08:32:30.454110  3807 net.cpp:129] Top shape: 32 256 29 29 (6889472)
I0423 08:32:30.454116  3807 net.cpp:137] Memory required for data: 195374848
I0423 08:32:30.454121  3807 layer_factory.hpp:77] Creating layer norm2
I0423 08:32:30.454138  3807 net.cpp:84] Creating Layer norm2
I0423 08:32:30.454145  3807 net.cpp:406] norm2 <- conv2
I0423 08:32:30.454154  3807 net.cpp:380] norm2 -> norm2
I0423 08:32:30.454885  3807 net.cpp:122] Setting up norm2
I0423 08:32:30.454898  3807 net.cpp:129] Top shape: 32 256 29 29 (6889472)
I0423 08:32:30.454905  3807 net.cpp:137] Memory required for data: 222932736
I0423 08:32:30.454910  3807 layer_factory.hpp:77] Creating layer pool2
I0423 08:32:30.454922  3807 net.cpp:84] Creating Layer pool2
I0423 08:32:30.454927  3807 net.cpp:406] pool2 <- norm2
I0423 08:32:30.454936  3807 net.cpp:380] pool2 -> pool2
I0423 08:32:30.454988  3807 net.cpp:122] Setting up pool2
I0423 08:32:30.454998  3807 net.cpp:129] Top shape: 32 256 14 14 (1605632)
I0423 08:32:30.455003  3807 net.cpp:137] Memory required for data: 229355264
I0423 08:32:30.455008  3807 layer_factory.hpp:77] Creating layer conv3
I0423 08:32:30.455024  3807 net.cpp:84] Creating Layer conv3
I0423 08:32:30.455029  3807 net.cpp:406] conv3 <- pool2
I0423 08:32:30.455041  3807 net.cpp:380] conv3 -> conv3
I0423 08:32:30.475898  3807 net.cpp:122] Setting up conv3
I0423 08:32:30.475927  3807 net.cpp:129] Top shape: 32 384 14 14 (2408448)
I0423 08:32:30.475935  3807 net.cpp:137] Memory required for data: 238989056
I0423 08:32:30.475958  3807 layer_factory.hpp:77] Creating layer relu3
I0423 08:32:30.475975  3807 net.cpp:84] Creating Layer relu3
I0423 08:32:30.475982  3807 net.cpp:406] relu3 <- conv3
I0423 08:32:30.475996  3807 net.cpp:367] relu3 -> conv3 (in-place)
I0423 08:32:30.485270  3807 net.cpp:122] Setting up relu3
I0423 08:32:30.485297  3807 net.cpp:129] Top shape: 32 384 14 14 (2408448)
I0423 08:32:30.485302  3807 net.cpp:137] Memory required for data: 248622848
I0423 08:32:30.485311  3807 layer_factory.hpp:77] Creating layer conv4
I0423 08:32:30.485330  3807 net.cpp:84] Creating Layer conv4
I0423 08:32:30.485338  3807 net.cpp:406] conv4 <- conv3
I0423 08:32:30.485349  3807 net.cpp:380] conv4 -> conv4
I0423 08:32:30.503113  3807 net.cpp:122] Setting up conv4
I0423 08:32:30.503140  3807 net.cpp:129] Top shape: 32 384 14 14 (2408448)
I0423 08:32:30.503145  3807 net.cpp:137] Memory required for data: 258256640
I0423 08:32:30.503158  3807 layer_factory.hpp:77] Creating layer relu4
I0423 08:32:30.503170  3807 net.cpp:84] Creating Layer relu4
I0423 08:32:30.503176  3807 net.cpp:406] relu4 <- conv4
I0423 08:32:30.503187  3807 net.cpp:367] relu4 -> conv4 (in-place)
I0423 08:32:30.503687  3807 net.cpp:122] Setting up relu4
I0423 08:32:30.503697  3807 net.cpp:129] Top shape: 32 384 14 14 (2408448)
I0423 08:32:30.503702  3807 net.cpp:137] Memory required for data: 267890432
I0423 08:32:30.503707  3807 layer_factory.hpp:77] Creating layer conv5
I0423 08:32:30.503722  3807 net.cpp:84] Creating Layer conv5
I0423 08:32:30.503727  3807 net.cpp:406] conv5 <- conv4
I0423 08:32:30.503737  3807 net.cpp:380] conv5 -> conv5
I0423 08:32:30.516753  3807 net.cpp:122] Setting up conv5
I0423 08:32:30.516779  3807 net.cpp:129] Top shape: 32 256 14 14 (1605632)
I0423 08:32:30.516784  3807 net.cpp:137] Memory required for data: 274312960
I0423 08:32:30.516801  3807 layer_factory.hpp:77] Creating layer relu5
I0423 08:32:30.516814  3807 net.cpp:84] Creating Layer relu5
I0423 08:32:30.516820  3807 net.cpp:406] relu5 <- conv5
I0423 08:32:30.516855  3807 net.cpp:367] relu5 -> conv5 (in-place)
I0423 08:32:30.517525  3807 net.cpp:122] Setting up relu5
I0423 08:32:30.517539  3807 net.cpp:129] Top shape: 32 256 14 14 (1605632)
I0423 08:32:30.517544  3807 net.cpp:137] Memory required for data: 280735488
I0423 08:32:30.517550  3807 layer_factory.hpp:77] Creating layer pool5
I0423 08:32:30.517565  3807 net.cpp:84] Creating Layer pool5
I0423 08:32:30.517570  3807 net.cpp:406] pool5 <- conv5
I0423 08:32:30.517577  3807 net.cpp:380] pool5 -> pool5
I0423 08:32:30.517632  3807 net.cpp:122] Setting up pool5
I0423 08:32:30.517639  3807 net.cpp:129] Top shape: 32 256 7 7 (401408)
I0423 08:32:30.517643  3807 net.cpp:137] Memory required for data: 282341120
I0423 08:32:30.517648  3807 layer_factory.hpp:77] Creating layer fc6
I0423 08:32:30.517659  3807 net.cpp:84] Creating Layer fc6
I0423 08:32:30.517663  3807 net.cpp:406] fc6 <- pool5
I0423 08:32:30.517673  3807 net.cpp:380] fc6 -> fc6
I0423 08:32:31.127207  3807 net.cpp:122] Setting up fc6
I0423 08:32:31.127238  3807 net.cpp:129] Top shape: 32 4096 (131072)
I0423 08:32:31.127243  3807 net.cpp:137] Memory required for data: 282865408
I0423 08:32:31.127255  3807 layer_factory.hpp:77] Creating layer relu6
I0423 08:32:31.127270  3807 net.cpp:84] Creating Layer relu6
I0423 08:32:31.127277  3807 net.cpp:406] relu6 <- fc6
I0423 08:32:31.127287  3807 net.cpp:367] relu6 -> fc6 (in-place)
I0423 08:32:31.131089  3807 net.cpp:122] Setting up relu6
I0423 08:32:31.131124  3807 net.cpp:129] Top shape: 32 4096 (131072)
I0423 08:32:31.131129  3807 net.cpp:137] Memory required for data: 283389696
I0423 08:32:31.131136  3807 layer_factory.hpp:77] Creating layer drop6
I0423 08:32:31.131147  3807 net.cpp:84] Creating Layer drop6
I0423 08:32:31.131153  3807 net.cpp:406] drop6 <- fc6
I0423 08:32:31.131165  3807 net.cpp:367] drop6 -> fc6 (in-place)
I0423 08:32:31.131207  3807 net.cpp:122] Setting up drop6
I0423 08:32:31.131215  3807 net.cpp:129] Top shape: 32 4096 (131072)
I0423 08:32:31.131219  3807 net.cpp:137] Memory required for data: 283913984
I0423 08:32:31.131223  3807 layer_factory.hpp:77] Creating layer fc7
I0423 08:32:31.131234  3807 net.cpp:84] Creating Layer fc7
I0423 08:32:31.131238  3807 net.cpp:406] fc7 <- fc6
I0423 08:32:31.131245  3807 net.cpp:380] fc7 -> fc7
I0423 08:32:31.357496  3807 net.cpp:122] Setting up fc7
I0423 08:32:31.357527  3807 net.cpp:129] Top shape: 32 4096 (131072)
I0423 08:32:31.357533  3807 net.cpp:137] Memory required for data: 284438272
I0423 08:32:31.357547  3807 layer_factory.hpp:77] Creating layer relu7
I0423 08:32:31.357560  3807 net.cpp:84] Creating Layer relu7
I0423 08:32:31.357568  3807 net.cpp:406] relu7 <- fc7
I0423 08:32:31.357576  3807 net.cpp:367] relu7 -> fc7 (in-place)
I0423 08:32:31.358145  3807 net.cpp:122] Setting up relu7
I0423 08:32:31.358156  3807 net.cpp:129] Top shape: 32 4096 (131072)
I0423 08:32:31.358160  3807 net.cpp:137] Memory required for data: 284962560
I0423 08:32:31.358165  3807 layer_factory.hpp:77] Creating layer drop7
I0423 08:32:31.358175  3807 net.cpp:84] Creating Layer drop7
I0423 08:32:31.358180  3807 net.cpp:406] drop7 <- fc7
I0423 08:32:31.358187  3807 net.cpp:367] drop7 -> fc7 (in-place)
I0423 08:32:31.358218  3807 net.cpp:122] Setting up drop7
I0423 08:32:31.358225  3807 net.cpp:129] Top shape: 32 4096 (131072)
I0423 08:32:31.358230  3807 net.cpp:137] Memory required for data: 285486848
I0423 08:32:31.358234  3807 layer_factory.hpp:77] Creating layer fc8
I0423 08:32:31.358244  3807 net.cpp:84] Creating Layer fc8
I0423 08:32:31.358248  3807 net.cpp:406] fc8 <- fc7
I0423 08:32:31.358258  3807 net.cpp:380] fc8 -> fc8
I0423 08:32:31.370519  3807 net.cpp:122] Setting up fc8
I0423 08:32:31.370546  3807 net.cpp:129] Top shape: 32 196 (6272)
I0423 08:32:31.370551  3807 net.cpp:137] Memory required for data: 285511936
I0423 08:32:31.370564  3807 layer_factory.hpp:77] Creating layer fc8_fc8_0_split
I0423 08:32:31.370575  3807 net.cpp:84] Creating Layer fc8_fc8_0_split
I0423 08:32:31.370581  3807 net.cpp:406] fc8_fc8_0_split <- fc8
I0423 08:32:31.370618  3807 net.cpp:380] fc8_fc8_0_split -> fc8_fc8_0_split_0
I0423 08:32:31.370630  3807 net.cpp:380] fc8_fc8_0_split -> fc8_fc8_0_split_1
I0423 08:32:31.370680  3807 net.cpp:122] Setting up fc8_fc8_0_split
I0423 08:32:31.370688  3807 net.cpp:129] Top shape: 32 196 (6272)
I0423 08:32:31.370693  3807 net.cpp:129] Top shape: 32 196 (6272)
I0423 08:32:31.370698  3807 net.cpp:137] Memory required for data: 285562112
I0423 08:32:31.370702  3807 layer_factory.hpp:77] Creating layer accuracy
I0423 08:32:31.370710  3807 net.cpp:84] Creating Layer accuracy
I0423 08:32:31.370715  3807 net.cpp:406] accuracy <- fc8_fc8_0_split_0
I0423 08:32:31.370721  3807 net.cpp:406] accuracy <- label_val-data_1_split_0
I0423 08:32:31.370730  3807 net.cpp:380] accuracy -> accuracy
…
