…
I0401 13:54:14.856588 29493 net.cpp:294] The NetState phase (0) differed from the phase (1) specified by a rule in layer accuracy
I0401 13:54:14.856796 29493 net.cpp:51] Initializing net from parameters:
state {
phase: TRAIN
level: 0
stage: ""
}
layer {
name: "train-data"
type: "Data"
top: "data"
top: "label"
include {
phase: TRAIN
}
transform_param {
mirror: true
crop_size: 227
mean_file: "/mnt/bigdisk/DIGITS-AIN-3/digits/jobs/20210401-115815-ae54/mean.binaryproto"
}
data_param {
source: "/mnt/bigdisk/DIGITS-AIN-3/digits/jobs/20210401-115815-ae54/train_db"
batch_size: 128
backend: LMDB
}
}
layer {
name: "conv1"
type: "Convolution"
bottom: "data"
top: "conv1"
param {
lr_mult: 1
decay_mult: 1
}
param {
lr_mult: 2
decay_mult: 0
}
convolution_param {
num_output: 96
kernel_size: 11
stride: 4
weight_filler {
type: "gaussian"
std: 0.01
}
bias_filler {
type: "constant"
value: 0
}
}
}
layer {
name: "relu1"
type: "ReLU"
bottom: "conv1"
top: "conv1"
}
layer {
name: "norm1"
type: "LRN"
bottom: "conv1"
top: "norm1"
lrn_param {
local_size: 5
alpha: 0.0001
beta: 0.75
}
}
layer {
name: "pool1"
type: "Pooling"
bottom: "norm1"
top: "pool1"
pooling_param {
pool: MAX
kernel_size: 3
stride: 2
}
}
layer {
name: "conv2"
type: "Convolution"
bottom: "pool1"
top: "conv2"
param {
lr_mult: 1
decay_mult: 1
}
param {
lr_mult: 2
decay_mult: 0
}
convolution_param {
num_output: 256
pad: 2
kernel_size: 5
group: 2
weight_filler {
type: "gaussian"
std: 0.01
}
bias_filler {
type: "constant"
value: 0.1
}
}
}
layer {
name: "relu2"
type: "ReLU"
bottom: "conv2"
top: "conv2"
}
layer {
name: "norm2"
type: "LRN"
bottom: "conv2"
top: "norm2"
lrn_param {
local_size: 5
alpha: 0.0001
beta: 0.75
}
}
layer {
name: "pool2"
type: "Pooling"
bottom: "norm2"
top: "pool2"
pooling_param {
pool: MAX
kernel_size: 3
stride: 2
}
}
layer {
name: "conv3"
type: "Convolution"
bottom: "pool2"
top: "conv3"
param {
lr_mult: 1
decay_mult: 1
}
param {
lr_mult: 2
decay_mult: 0
}
convolution_param {
num_output: 384
pad: 1
kernel_size: 3
weight_filler {
type: "gaussian"
std: 0.01
}
bias_filler {
type: "constant"
value: 0
}
}
}
layer {
name: "relu3"
type: "ReLU"
bottom: "conv3"
top: "conv3"
}
layer {
name: "conv4"
type: "Convolution"
bottom: "conv3"
top: "conv4"
param {
lr_mult: 1
decay_mult: 1
}
param {
lr_mult: 2
decay_mult: 0
}
convolution_param {
num_output: 384
pad: 1
kernel_size: 3
group: 2
weight_filler {
type: "gaussian"
std: 0.01
}
bias_filler {
type: "constant"
value: 0.1
}
}
}
layer {
name: "relu4"
type: "ReLU"
bottom: "conv4"
top: "conv4"
}
layer {
name: "conv5"
type: "Convolution"
bottom: "conv4"
top: "conv5"
param {
lr_mult: 1
decay_mult: 1
}
param {
lr_mult: 2
decay_mult: 0
}
convolution_param {
num_output: 256
pad: 1
kernel_size: 3
group: 2
weight_filler {
type: "gaussian"
std: 0.01
}
bias_filler {
type: "constant"
value: 0.1
}
}
}
layer {
name: "relu5"
type: "ReLU"
bottom: "conv5"
top: "conv5"
}
layer {
name: "pool5"
type: "Pooling"
bottom: "conv5"
top: "pool5"
pooling_param {
pool: MAX
kernel_size: 3
stride: 2
}
}
layer {
name: "fc6"
type: "InnerProduct"
bottom: "pool5"
top: "fc6"
param {
lr_mult: 1
decay_mult: 1
}
param {
lr_mult: 2
decay_mult: 0
}
inner_product_param {
num_output: 4096
weight_filler {
type: "gaussian"
std: 0.005
}
bias_filler {
type: "constant"
value: 0.1
}
}
}
layer {
name: "relu6"
type: "ReLU"
bottom: "fc6"
top: "fc6"
}
layer {
name: "drop6"
type: "Dropout"
bottom: "fc6"
top: "fc6"
dropout_param {
dropout_ratio: 0.5
}
}
layer {
name: "fc7"
type: "InnerProduct"
bottom: "fc6"
top: "fc7"
param {
lr_mult: 1
decay_mult: 1
}
param {
lr_mult: 2
decay_mult: 0
}
inner_product_param {
num_output: 4096
weight_filler {
type: "gaussian"
std: 0.005
}
bias_filler {
type: "constant"
value: 0.1
}
}
}
layer {
name: "relu7"
type: "ReLU"
bottom: "fc7"
top: "fc7"
}
layer {
name: "drop7"
type: "Dropout"
bottom: "fc7"
top: "fc7"
dropout_param {
dropout_ratio: 0.5
}
}
layer {
name: "fc8"
type: "InnerProduct"
bottom: "fc7"
top: "fc8"
param {
lr_mult: 1
decay_mult: 1
}
param {
lr_mult: 2
decay_mult: 0
}
inner_product_param {
num_output: 196
weight_filler {
type: "gaussian"
std: 0.01
}
bias_filler {
type: "constant"
value: 0
}
}
}
layer {
name: "loss"
type: "SoftmaxWithLoss"
bottom: "fc8"
bottom: "label"
top: "loss"
}
I0401 13:54:14.856914 29493 layer_factory.hpp:77] Creating layer train-data
I0401 13:54:14.898180 29493 db_lmdb.cpp:35] Opened lmdb /mnt/bigdisk/DIGITS-AIN-3/digits/jobs/20210401-115815-ae54/train_db
I0401 13:54:14.917387 29493 net.cpp:84] Creating Layer train-data
I0401 13:54:14.917414 29493 net.cpp:380] train-data -> data
I0401 13:54:14.917441 29493 net.cpp:380] train-data -> label
I0401 13:54:14.917456 29493 data_transformer.cpp:25] Loading mean file from: /mnt/bigdisk/DIGITS-AIN-3/digits/jobs/20210401-115815-ae54/mean.binaryproto
I0401 13:54:15.074566 29493 data_layer.cpp:45] output data size: 128,3,227,227
I0401 13:54:15.226455 29493 net.cpp:122] Setting up train-data
I0401 13:54:15.226475 29493 net.cpp:129] Top shape: 128 3 227 227 (19787136)
I0401 13:54:15.226480 29493 net.cpp:129] Top shape: 128 (128)
I0401 13:54:15.226481 29493 net.cpp:137] Memory required for data: 79149056
I0401 13:54:15.226490 29493 layer_factory.hpp:77] Creating layer conv1
I0401 13:54:15.226509 29493 net.cpp:84] Creating Layer conv1
I0401 13:54:15.226513 29493 net.cpp:406] conv1 <- data
I0401 13:54:15.226524 29493 net.cpp:380] conv1 -> conv1
I0401 13:54:15.678853 29493 net.cpp:122] Setting up conv1
I0401 13:54:15.678874 29493 net.cpp:129] Top shape: 128 96 55 55 (37171200)
I0401 13:54:15.678879 29493 net.cpp:137] Memory required for data: 227833856
I0401 13:54:15.678896 29493 layer_factory.hpp:77] Creating layer relu1
I0401 13:54:15.678906 29493 net.cpp:84] Creating Layer relu1
I0401 13:54:15.678910 29493 net.cpp:406] relu1 <- conv1
I0401 13:54:15.678915 29493 net.cpp:367] relu1 -> conv1 (in-place)
I0401 13:54:15.679198 29493 net.cpp:122] Setting up relu1
I0401 13:54:15.679206 29493 net.cpp:129] Top shape: 128 96 55 55 (37171200)
I0401 13:54:15.679209 29493 net.cpp:137] Memory required for data: 376518656
I0401 13:54:15.679211 29493 layer_factory.hpp:77] Creating layer norm1
I0401 13:54:15.679219 29493 net.cpp:84] Creating Layer norm1
I0401 13:54:15.679222 29493 net.cpp:406] norm1 <- conv1
I0401 13:54:15.679251 29493 net.cpp:380] norm1 -> norm1
I0401 13:54:15.679687 29493 net.cpp:122] Setting up norm1
I0401 13:54:15.679697 29493 net.cpp:129] Top shape: 128 96 55 55 (37171200)
I0401 13:54:15.679698 29493 net.cpp:137] Memory required for data: 525203456
I0401 13:54:15.679702 29493 layer_factory.hpp:77] Creating layer pool1
I0401 13:54:15.679708 29493 net.cpp:84] Creating Layer pool1
I0401 13:54:15.679710 29493 net.cpp:406] pool1 <- norm1
I0401 13:54:15.679714 29493 net.cpp:380] pool1 -> pool1
I0401 13:54:15.679747 29493 net.cpp:122] Setting up pool1
I0401 13:54:15.679751 29493 net.cpp:129] Top shape: 128 96 27 27 (8957952)
I0401 13:54:15.679754 29493 net.cpp:137] Memory required for data: 561035264
I0401 13:54:15.679755 29493 layer_factory.hpp:77] Creating layer conv2
I0401 13:54:15.679764 29493 net.cpp:84] Creating Layer conv2
I0401 13:54:15.679767 29493 net.cpp:406] conv2 <- pool1
I0401 13:54:15.679770 29493 net.cpp:380] conv2 -> conv2
I0401 13:54:15.685607 29493 net.cpp:122] Setting up conv2
I0401 13:54:15.685622 29493 net.cpp:129] Top shape: 128 256 27 27 (23887872)
I0401 13:54:15.685626 29493 net.cpp:137] Memory required for data: 656586752
I0401 13:54:15.685634 29493 layer_factory.hpp:77] Creating layer relu2
I0401 13:54:15.685640 29493 net.cpp:84] Creating Layer relu2
I0401 13:54:15.685643 29493 net.cpp:406] relu2 <- conv2
I0401 13:54:15.685647 29493 net.cpp:367] relu2 -> conv2 (in-place)
I0401 13:54:15.686054 29493 net.cpp:122] Setting up relu2
I0401 13:54:15.686064 29493 net.cpp:129] Top shape: 128 256 27 27 (23887872)
I0401 13:54:15.686065 29493 net.cpp:137] Memory required for data: 752138240
I0401 13:54:15.686069 29493 layer_factory.hpp:77] Creating layer norm2
I0401 13:54:15.686074 29493 net.cpp:84] Creating Layer norm2
I0401 13:54:15.686076 29493 net.cpp:406] norm2 <- conv2
I0401 13:54:15.686080 29493 net.cpp:380] norm2 -> norm2
I0401 13:54:15.686347 29493 net.cpp:122] Setting up norm2
I0401 13:54:15.686355 29493 net.cpp:129] Top shape: 128 256 27 27 (23887872)
I0401 13:54:15.686357 29493 net.cpp:137] Memory required for data: 847689728
I0401 13:54:15.686359 29493 layer_factory.hpp:77] Creating layer pool2
I0401 13:54:15.686365 29493 net.cpp:84] Creating Layer pool2
I0401 13:54:15.686368 29493 net.cpp:406] pool2 <- norm2
I0401 13:54:15.686372 29493 net.cpp:380] pool2 -> pool2
I0401 13:54:15.686396 29493 net.cpp:122] Setting up pool2
I0401 13:54:15.686400 29493 net.cpp:129] Top shape: 128 256 13 13 (5537792)
I0401 13:54:15.686403 29493 net.cpp:137] Memory required for data: 869840896
I0401 13:54:15.686404 29493 layer_factory.hpp:77] Creating layer conv3
I0401 13:54:15.686412 29493 net.cpp:84] Creating Layer conv3
I0401 13:54:15.686414 29493 net.cpp:406] conv3 <- pool2
I0401 13:54:15.686419 29493 net.cpp:380] conv3 -> conv3
I0401 13:54:15.696312 29493 net.cpp:122] Setting up conv3
I0401 13:54:15.696332 29493 net.cpp:129] Top shape: 128 384 13 13 (8306688)
I0401 13:54:15.696336 29493 net.cpp:137] Memory required for data: 903067648
I0401 13:54:15.696346 29493 layer_factory.hpp:77] Creating layer relu3
I0401 13:54:15.696353 29493 net.cpp:84] Creating Layer relu3
I0401 13:54:15.696357 29493 net.cpp:406] relu3 <- conv3
I0401 13:54:15.696362 29493 net.cpp:367] relu3 -> conv3 (in-place)
I0401 13:54:15.696760 29493 net.cpp:122] Setting up relu3
I0401 13:54:15.696769 29493 net.cpp:129] Top shape: 128 384 13 13 (8306688)
I0401 13:54:15.696771 29493 net.cpp:137] Memory required for data: 936294400
I0401 13:54:15.696774 29493 layer_factory.hpp:77] Creating layer conv4
I0401 13:54:15.696784 29493 net.cpp:84] Creating Layer conv4
I0401 13:54:15.696786 29493 net.cpp:406] conv4 <- conv3
I0401 13:54:15.696791 29493 net.cpp:380] conv4 -> conv4
I0401 13:54:15.705865 29493 net.cpp:122] Setting up conv4
I0401 13:54:15.705884 29493 net.cpp:129] Top shape: 128 384 13 13 (8306688)
I0401 13:54:15.705886 29493 net.cpp:137] Memory required for data: 969521152
I0401 13:54:15.705894 29493 layer_factory.hpp:77] Creating layer relu4
I0401 13:54:15.705902 29493 net.cpp:84] Creating Layer relu4
I0401 13:54:15.705924 29493 net.cpp:406] relu4 <- conv4
I0401 13:54:15.705930 29493 net.cpp:367] relu4 -> conv4 (in-place)
I0401 13:54:15.706212 29493 net.cpp:122] Setting up relu4
I0401 13:54:15.706219 29493 net.cpp:129] Top shape: 128 384 13 13 (8306688)
I0401 13:54:15.706221 29493 net.cpp:137] Memory required for data: 1002747904
I0401 13:54:15.706224 29493 layer_factory.hpp:77] Creating layer conv5
I0401 13:54:15.706233 29493 net.cpp:84] Creating Layer conv5
I0401 13:54:15.706236 29493 net.cpp:406] conv5 <- conv4
I0401 13:54:15.706240 29493 net.cpp:380] conv5 -> conv5
I0401 13:54:15.713505 29493 net.cpp:122] Setting up conv5
I0401 13:54:15.713521 29493 net.cpp:129] Top shape: 128 256 13 13 (5537792)
I0401 13:54:15.713523 29493 net.cpp:137] Memory required for data: 1024899072
I0401 13:54:15.713536 29493 layer_factory.hpp:77] Creating layer relu5
I0401 13:54:15.713542 29493 net.cpp:84] Creating Layer relu5
I0401 13:54:15.713546 29493 net.cpp:406] relu5 <- conv5
I0401 13:54:15.713549 29493 net.cpp:367] relu5 -> conv5 (in-place)
I0401 13:54:15.713958 29493 net.cpp:122] Setting up relu5
I0401 13:54:15.713966 29493 net.cpp:129] Top shape: 128 256 13 13 (5537792)
I0401 13:54:15.713968 29493 net.cpp:137] Memory required for data: 1047050240
I0401 13:54:15.713970 29493 layer_factory.hpp:77] Creating layer pool5
I0401 13:54:15.713976 29493 net.cpp:84] Creating Layer pool5
I0401 13:54:15.713979 29493 net.cpp:406] pool5 <- conv5
I0401 13:54:15.713982 29493 net.cpp:380] pool5 -> pool5
I0401 13:54:15.714012 29493 net.cpp:122] Setting up pool5
I0401 13:54:15.714016 29493 net.cpp:129] Top shape: 128 256 6 6 (1179648)
I0401 13:54:15.714018 29493 net.cpp:137] Memory required for data: 1051768832
I0401 13:54:15.714020 29493 layer_factory.hpp:77] Creating layer fc6
I0401 13:54:15.714027 29493 net.cpp:84] Creating Layer fc6
I0401 13:54:15.714030 29493 net.cpp:406] fc6 <- pool5
I0401 13:54:15.714033 29493 net.cpp:380] fc6 -> fc6
I0401 13:54:16.045317 29493 net.cpp:122] Setting up fc6
I0401 13:54:16.045339 29493 net.cpp:129] Top shape: 128 4096 (524288)
I0401 13:54:16.045341 29493 net.cpp:137] Memory required for data: 1053865984
I0401 13:54:16.045351 29493 layer_factory.hpp:77] Creating layer relu6
I0401 13:54:16.045358 29493 net.cpp:84] Creating Layer relu6
I0401 13:54:16.045362 29493 net.cpp:406] relu6 <- fc6
I0401 13:54:16.045367 29493 net.cpp:367] relu6 -> fc6 (in-place)
I0401 13:54:16.045943 29493 net.cpp:122] Setting up relu6
I0401 13:54:16.045953 29493 net.cpp:129] Top shape: 128 4096 (524288)
I0401 13:54:16.045954 29493 net.cpp:137] Memory required for data: 1055963136
I0401 13:54:16.045958 29493 layer_factory.hpp:77] Creating layer drop6
I0401 13:54:16.045964 29493 net.cpp:84] Creating Layer drop6
I0401 13:54:16.045965 29493 net.cpp:406] drop6 <- fc6
I0401 13:54:16.045970 29493 net.cpp:367] drop6 -> fc6 (in-place)
I0401 13:54:16.045995 29493 net.cpp:122] Setting up drop6
I0401 13:54:16.046000 29493 net.cpp:129] Top shape: 128 4096 (524288)
I0401 13:54:16.046002 29493 net.cpp:137] Memory required for data: 1058060288
I0401 13:54:16.046005 29493 layer_factory.hpp:77] Creating layer fc7
I0401 13:54:16.046011 29493 net.cpp:84] Creating Layer fc7
I0401 13:54:16.046013 29493 net.cpp:406] fc7 <- fc6
I0401 13:54:16.046018 29493 net.cpp:380] fc7 -> fc7
I0401 13:54:16.193446 29493 net.cpp:122] Setting up fc7
I0401 13:54:16.193465 29493 net.cpp:129] Top shape: 128 4096 (524288)
I0401 13:54:16.193468 29493 net.cpp:137] Memory required for data: 1060157440
I0401 13:54:16.193475 29493 layer_factory.hpp:77] Creating layer relu7
I0401 13:54:16.193485 29493 net.cpp:84] Creating Layer relu7
I0401 13:54:16.193490 29493 net.cpp:406] relu7 <- fc7
I0401 13:54:16.193493 29493 net.cpp:367] relu7 -> fc7 (in-place)
I0401 13:54:16.193850 29493 net.cpp:122] Setting up relu7
I0401 13:54:16.193857 29493 net.cpp:129] Top shape: 128 4096 (524288)
I0401 13:54:16.193859 29493 net.cpp:137] Memory required for data: 1062254592
I0401 13:54:16.193862 29493 layer_factory.hpp:77] Creating layer drop7
I0401 13:54:16.193867 29493 net.cpp:84] Creating Layer drop7
I0401 13:54:16.193869 29493 net.cpp:406] drop7 <- fc7
I0401 13:54:16.193892 29493 net.cpp:367] drop7 -> fc7 (in-place)
I0401 13:54:16.193913 29493 net.cpp:122] Setting up drop7
I0401 13:54:16.193917 29493 net.cpp:129] Top shape: 128 4096 (524288)
I0401 13:54:16.193919 29493 net.cpp:137] Memory required for data: 1064351744
I0401 13:54:16.193922 29493 layer_factory.hpp:77] Creating layer fc8
I0401 13:54:16.193928 29493 net.cpp:84] Creating Layer fc8
I0401 13:54:16.193930 29493 net.cpp:406] fc8 <- fc7
I0401 13:54:16.193934 29493 net.cpp:380] fc8 -> fc8
I0401 13:54:16.201131 29493 net.cpp:122] Setting up fc8
I0401 13:54:16.201150 29493 net.cpp:129] Top shape: 128 196 (25088)
I0401 13:54:16.201153 29493 net.cpp:137] Memory required for data: 1064452096
I0401 13:54:16.201160 29493 layer_factory.hpp:77] Creating layer loss
I0401 13:54:16.201169 29493 net.cpp:84] Creating Layer loss
I0401 13:54:16.201171 29493 net.cpp:406] loss <- fc8
I0401 13:54:16.201176 29493 net.cpp:406] loss <- label
I0401 13:54:16.201182 29493 net.cpp:380] loss -> loss
I0401 13:54:16.201191 29493 layer_factory.hpp:77] Creating layer loss
…
I0401 13:54:16.202863 29493 net.cpp:294] The NetState phase (1) differed from the phase (0) specified by a rule in layer train-data
I0401 13:54:16.202993 29493 net.cpp:51] Initializing net from parameters:
state {
phase: TEST
}
layer {
name: "val-data"
type: "Data"
top: "data"
top: "label"
include {
phase: TEST
}
transform_param {
crop_size: 227
mean_file: "/mnt/bigdisk/DIGITS-AIN-3/digits/jobs/20210401-115815-ae54/mean.binaryproto"
}
data_param {
source: "/mnt/bigdisk/DIGITS-AIN-3/digits/jobs/20210401-115815-ae54/val_db"
batch_size: 32
backend: LMDB
}
}
layer {
name: "conv1"
type: "Convolution"
bottom: "data"
top: "conv1"
param {
lr_mult: 1
decay_mult: 1
}
param {
lr_mult: 2
decay_mult: 0
}
convolution_param {
num_output: 96
kernel_size: 11
stride: 4
weight_filler {
type: "gaussian"
std: 0.01
}
bias_filler {
type: "constant"
value: 0
}
}
}
layer {
name: "relu1"
type: "ReLU"
bottom: "conv1"
top: "conv1"
}
layer {
name: "norm1"
type: "LRN"
bottom: "conv1"
top: "norm1"
lrn_param {
local_size: 5
alpha: 0.0001
beta: 0.75
}
}
layer {
name: "pool1"
type: "Pooling"
bottom: "norm1"
top: "pool1"
pooling_param {
pool: MAX
kernel_size: 3
stride: 2
}
}
layer {
name: "conv2"
type: "Convolution"
bottom: "pool1"
top: "conv2"
param {
lr_mult: 1
decay_mult: 1
}
param {
lr_mult: 2
decay_mult: 0
}
convolution_param {
num_output: 256
pad: 2
kernel_size: 5
group: 2
weight_filler {
type: "gaussian"
std: 0.01
}
bias_filler {
type: "constant"
value: 0.1
}
}
}
layer {
name: "relu2"
type: "ReLU"
bottom: "conv2"
top: "conv2"
}
layer {
name: "norm2"
type: "LRN"
bottom: "conv2"
top: "norm2"
lrn_param {
local_size: 5
alpha: 0.0001
beta: 0.75
}
}
layer {
name: "pool2"
type: "Pooling"
bottom: "norm2"
top: "pool2"
pooling_param {
pool: MAX
kernel_size: 3
stride: 2
}
}
layer {
name: "conv3"
type: "Convolution"
bottom: "pool2"
top: "conv3"
param {
lr_mult: 1
decay_mult: 1
}
param {
lr_mult: 2
decay_mult: 0
}
convolution_param {
num_output: 384
pad: 1
kernel_size: 3
weight_filler {
type: "gaussian"
std: 0.01
}
bias_filler {
type: "constant"
value: 0
}
}
}
layer {
name: "relu3"
type: "ReLU"
bottom: "conv3"
top: "conv3"
}
layer {
name: "conv4"
type: "Convolution"
bottom: "conv3"
top: "conv4"
param {
lr_mult: 1
decay_mult: 1
}
param {
lr_mult: 2
decay_mult: 0
}
convolution_param {
num_output: 384
pad: 1
kernel_size: 3
group: 2
weight_filler {
type: "gaussian"
std: 0.01
}
bias_filler {
type: "constant"
value: 0.1
}
}
}
layer {
name: "relu4"
type: "ReLU"
bottom: "conv4"
top: "conv4"
}
layer {
name: "conv5"
type: "Convolution"
bottom: "conv4"
top: "conv5"
param {
lr_mult: 1
decay_mult: 1
}
param {
lr_mult: 2
decay_mult: 0
}
convolution_param {
num_output: 256
pad: 1
kernel_size: 3
group: 2
weight_filler {
type: "gaussian"
std: 0.01
}
bias_filler {
type: "constant"
value: 0.1
}
}
}
layer {
name: "relu5"
type: "ReLU"
bottom: "conv5"
top: "conv5"
}
layer {
name: "pool5"
type: "Pooling"
bottom: "conv5"
top: "pool5"
pooling_param {
pool: MAX
kernel_size: 3
stride: 2
}
}
layer {
name: "fc6"
type: "InnerProduct"
bottom: "pool5"
top: "fc6"
param {
lr_mult: 1
decay_mult: 1
}
param {
lr_mult: 2
decay_mult: 0
}
inner_product_param {
num_output: 4096
weight_filler {
type: "gaussian"
std: 0.005
}
bias_filler {
type: "constant"
value: 0.1
}
}
}
layer {
name: "relu6"
type: "ReLU"
bottom: "fc6"
top: "fc6"
}
layer {
name: "drop6"
type: "Dropout"
bottom: "fc6"
top: "fc6"
dropout_param {
dropout_ratio: 0.5
}
}
layer {
name: "fc7"
type: "InnerProduct"
bottom: "fc6"
top: "fc7"
param {
lr_mult: 1
decay_mult: 1
}
param {
lr_mult: 2
decay_mult: 0
}
inner_product_param {
num_output: 4096
weight_filler {
type: "gaussian"
std: 0.005
}
bias_filler {
type: "constant"
value: 0.1
}
}
}
layer {
name: "relu7"
type: "ReLU"
bottom: "fc7"
top: "fc7"
}
layer {
name: "drop7"
type: "Dropout"
bottom: "fc7"
top: "fc7"
dropout_param {
dropout_ratio: 0.5
}
}
layer {
name: "fc8"
type: "InnerProduct"
bottom: "fc7"
top: "fc8"
param {
lr_mult: 1
decay_mult: 1
}
param {
lr_mult: 2
decay_mult: 0
}
inner_product_param {
num_output: 196
weight_filler {
type: "gaussian"
std: 0.01
}
bias_filler {
type: "constant"
value: 0
}
}
}
layer {
name: "accuracy"
type: "Accuracy"
bottom: "fc8"
bottom: "label"
top: "accuracy"
include {
phase: TEST
}
}
layer {
name: "loss"
type: "SoftmaxWithLoss"
bottom: "fc8"
bottom: "label"
top: "loss"
}
I0401 13:54:16.203090 29493 layer_factory.hpp:77] Creating layer val-data
I0401 13:54:16.205612 29493 db_lmdb.cpp:35] Opened lmdb /mnt/bigdisk/DIGITS-AIN-3/digits/jobs/20210401-115815-ae54/val_db
I0401 13:54:16.217391 29493 net.cpp:84] Creating Layer val-data
I0401 13:54:16.217413 29493 net.cpp:380] val-data -> data
I0401 13:54:16.217425 29493 net.cpp:380] val-data -> label
I0401 13:54:16.217432 29493 data_transformer.cpp:25] Loading mean file from: /mnt/bigdisk/DIGITS-AIN-3/digits/jobs/20210401-115815-ae54/mean.binaryproto
I0401 13:54:16.229523 29493 data_layer.cpp:45] output data size: 32,3,227,227
I0401 13:54:16.263571 29493 net.cpp:122] Setting up val-data
I0401 13:54:16.263593 29493 net.cpp:129] Top shape: 32 3 227 227 (4946784)
I0401 13:54:16.263598 29493 net.cpp:129] Top shape: 32 (32)
I0401 13:54:16.263602 29493 net.cpp:137] Memory required for data: 19787264
I0401 13:54:16.263607 29493 layer_factory.hpp:77] Creating layer label_val-data_1_split
I0401 13:54:16.263618 29493 net.cpp:84] Creating Layer label_val-data_1_split
I0401 13:54:16.263622 29493 net.cpp:406] label_val-data_1_split <- label
I0401 13:54:16.263630 29493 net.cpp:380] label_val-data_1_split -> label_val-data_1_split_0
I0401 13:54:16.263641 29493 net.cpp:380] label_val-data_1_split -> label_val-data_1_split_1
I0401 13:54:16.263725 29493 net.cpp:122] Setting up label_val-data_1_split
I0401 13:54:16.263734 29493 net.cpp:129] Top shape: 32 (32)
I0401 13:54:16.263739 29493 net.cpp:129] Top shape: 32 (32)
I0401 13:54:16.263741 29493 net.cpp:137] Memory required for data: 19787520
I0401 13:54:16.263746 29493 layer_factory.hpp:77] Creating layer conv1
I0401 13:54:16.263761 29493 net.cpp:84] Creating Layer conv1
I0401 13:54:16.263764 29493 net.cpp:406] conv1 <- data
I0401 13:54:16.263770 29493 net.cpp:380] conv1 -> conv1
I0401 13:54:16.266831 29493 net.cpp:122] Setting up conv1
I0401 13:54:16.266852 29493 net.cpp:129] Top shape: 32 96 55 55 (9292800)
I0401 13:54:16.266856 29493 net.cpp:137] Memory required for data: 56958720
I0401 13:54:16.266870 29493 layer_factory.hpp:77] Creating layer relu1
I0401 13:54:16.266880 29493 net.cpp:84] Creating Layer relu1
I0401 13:54:16.266885 29493 net.cpp:406] relu1 <- conv1
I0401 13:54:16.266891 29493 net.cpp:367] relu1 -> conv1 (in-place)
I0401 13:54:16.267283 29493 net.cpp:122] Setting up relu1
I0401 13:54:16.267294 29493 net.cpp:129] Top shape: 32 96 55 55 (9292800)
I0401 13:54:16.267297 29493 net.cpp:137] Memory required for data: 94129920
I0401 13:54:16.267302 29493 layer_factory.hpp:77] Creating layer norm1
I0401 13:54:16.267311 29493 net.cpp:84] Creating Layer norm1
I0401 13:54:16.267315 29493 net.cpp:406] norm1 <- conv1
I0401 13:54:16.267321 29493 net.cpp:380] norm1 -> norm1
I0401 13:54:16.267915 29493 net.cpp:122] Setting up norm1
I0401 13:54:16.267927 29493 net.cpp:129] Top shape: 32 96 55 55 (9292800)
I0401 13:54:16.267931 29493 net.cpp:137] Memory required for data: 131301120
I0401 13:54:16.267935 29493 layer_factory.hpp:77] Creating layer pool1
I0401 13:54:16.267942 29493 net.cpp:84] Creating Layer pool1
I0401 13:54:16.267946 29493 net.cpp:406] pool1 <- norm1
I0401 13:54:16.267952 29493 net.cpp:380] pool1 -> pool1
I0401 13:54:16.267988 29493 net.cpp:122] Setting up pool1
I0401 13:54:16.267994 29493 net.cpp:129] Top shape: 32 96 27 27 (2239488)
I0401 13:54:16.267997 29493 net.cpp:137] Memory required for data: 140259072
I0401 13:54:16.268000 29493 layer_factory.hpp:77] Creating layer conv2
I0401 13:54:16.268013 29493 net.cpp:84] Creating Layer conv2
I0401 13:54:16.268015 29493 net.cpp:406] conv2 <- pool1
I0401 13:54:16.268047 29493 net.cpp:380] conv2 -> conv2
I0401 13:54:16.281944 29493 net.cpp:122] Setting up conv2
I0401 13:54:16.281968 29493 net.cpp:129] Top shape: 32 256 27 27 (5971968)
I0401 13:54:16.281975 29493 net.cpp:137] Memory required for data: 164146944
I0401 13:54:16.281991 29493 layer_factory.hpp:77] Creating layer relu2
I0401 13:54:16.282006 29493 net.cpp:84] Creating Layer relu2
I0401 13:54:16.282011 29493 net.cpp:406] relu2 <- conv2
I0401 13:54:16.282021 29493 net.cpp:367] relu2 -> conv2 (in-place)
I0401 13:54:16.282788 29493 net.cpp:122] Setting up relu2
I0401 13:54:16.282801 29493 net.cpp:129] Top shape: 32 256 27 27 (5971968)
I0401 13:54:16.282805 29493 net.cpp:137] Memory required for data: 188034816
I0401 13:54:16.282810 29493 layer_factory.hpp:77] Creating layer norm2
I0401 13:54:16.282825 29493 net.cpp:84] Creating Layer norm2
I0401 13:54:16.282830 29493 net.cpp:406] norm2 <- conv2
I0401 13:54:16.282838 29493 net.cpp:380] norm2 -> norm2
I0401 13:54:16.283612 29493 net.cpp:122] Setting up norm2
I0401 13:54:16.283625 29493 net.cpp:129] Top shape: 32 256 27 27 (5971968)
I0401 13:54:16.283630 29493 net.cpp:137] Memory required for data: 211922688
I0401 13:54:16.283634 29493 layer_factory.hpp:77] Creating layer pool2
I0401 13:54:16.283643 29493 net.cpp:84] Creating Layer pool2
I0401 13:54:16.283648 29493 net.cpp:406] pool2 <- norm2
I0401 13:54:16.283658 29493 net.cpp:380] pool2 -> pool2
I0401 13:54:16.283710 29493 net.cpp:122] Setting up pool2
I0401 13:54:16.283720 29493 net.cpp:129] Top shape: 32 256 13 13 (1384448)
I0401 13:54:16.283723 29493 net.cpp:137] Memory required for data: 217460480
I0401 13:54:16.283727 29493 layer_factory.hpp:77] Creating layer conv3
I0401 13:54:16.283746 29493 net.cpp:84] Creating Layer conv3
I0401 13:54:16.283751 29493 net.cpp:406] conv3 <- pool2
I0401 13:54:16.283759 29493 net.cpp:380] conv3 -> conv3
I0401 13:54:16.296639 29493 net.cpp:122] Setting up conv3
I0401 13:54:16.296663 29493 net.cpp:129] Top shape: 32 384 13 13 (2076672)
I0401 13:54:16.296666 29493 net.cpp:137] Memory required for data: 225767168
I0401 13:54:16.296684 29493 layer_factory.hpp:77] Creating layer relu3
I0401 13:54:16.296694 29493 net.cpp:84] Creating Layer relu3
I0401 13:54:16.296696 29493 net.cpp:406] relu3 <- conv3
I0401 13:54:16.296702 29493 net.cpp:367] relu3 -> conv3 (in-place)
I0401 13:54:16.297286 29493 net.cpp:122] Setting up relu3
I0401 13:54:16.297297 29493 net.cpp:129] Top shape: 32 384 13 13 (2076672)
I0401 13:54:16.297299 29493 net.cpp:137] Memory required for data: 234073856
I0401 13:54:16.297302 29493 layer_factory.hpp:77] Creating layer conv4
I0401 13:54:16.297312 29493 net.cpp:84] Creating Layer conv4
I0401 13:54:16.297315 29493 net.cpp:406] conv4 <- conv3
I0401 13:54:16.297319 29493 net.cpp:380] conv4 -> conv4
I0401 13:54:16.307723 29493 net.cpp:122] Setting up conv4
I0401 13:54:16.307745 29493 net.cpp:129] Top shape: 32 384 13 13 (2076672)
I0401 13:54:16.307747 29493 net.cpp:137] Memory required for data: 242380544
I0401 13:54:16.307760 29493 layer_factory.hpp:77] Creating layer relu4
I0401 13:54:16.307771 29493 net.cpp:84] Creating Layer relu4
I0401 13:54:16.307775 29493 net.cpp:406] relu4 <- conv4
I0401 13:54:16.307780 29493 net.cpp:367] relu4 -> conv4 (in-place)
I0401 13:54:16.308168 29493 net.cpp:122] Setting up relu4
I0401 13:54:16.308179 29493 net.cpp:129] Top shape: 32 384 13 13 (2076672)
I0401 13:54:16.308182 29493 net.cpp:137] Memory required for data: 250687232
I0401 13:54:16.308183 29493 layer_factory.hpp:77] Creating layer conv5
I0401 13:54:16.308193 29493 net.cpp:84] Creating Layer conv5
I0401 13:54:16.308197 29493 net.cpp:406] conv5 <- conv4
I0401 13:54:16.308202 29493 net.cpp:380] conv5 -> conv5
I0401 13:54:16.317031 29493 net.cpp:122] Setting up conv5
I0401 13:54:16.317055 29493 net.cpp:129] Top shape: 32 256 13 13 (1384448)
I0401 13:54:16.317059 29493 net.cpp:137] Memory required for data: 256225024
I0401 13:54:16.317071 29493 layer_factory.hpp:77] Creating layer relu5
I0401 13:54:16.317083 29493 net.cpp:84] Creating Layer relu5
I0401 13:54:16.317088 29493 net.cpp:406] relu5 <- conv5
I0401 13:54:16.317123 29493 net.cpp:367] relu5 -> conv5 (in-place)
I0401 13:54:16.317679 29493 net.cpp:122] Setting up relu5
I0401 13:54:16.317687 29493 net.cpp:129] Top shape: 32 256 13 13 (1384448)
I0401 13:54:16.317690 29493 net.cpp:137] Memory required for data: 261762816
I0401 13:54:16.317692 29493 layer_factory.hpp:77] Creating layer pool5
I0401 13:54:16.317701 29493 net.cpp:84] Creating Layer pool5
I0401 13:54:16.317704 29493 net.cpp:406] pool5 <- conv5
I0401 13:54:16.317708 29493 net.cpp:380] pool5 -> pool5
I0401 13:54:16.317746 29493 net.cpp:122] Setting up pool5
I0401 13:54:16.317754 29493 net.cpp:129] Top shape: 32 256 6 6 (294912)
I0401 13:54:16.317757 29493 net.cpp:137] Memory required for data: 262942464
I0401 13:54:16.317759 29493 layer_factory.hpp:77] Creating layer fc6
I0401 13:54:16.317766 29493 net.cpp:84] Creating Layer fc6
I0401 13:54:16.317770 29493 net.cpp:406] fc6 <- pool5
I0401 13:54:16.317773 29493 net.cpp:380] fc6 -> fc6
I0401 13:54:16.739642 29493 net.cpp:122] Setting up fc6
I0401 13:54:16.739672 29493 net.cpp:129] Top shape: 32 4096 (131072)
I0401 13:54:16.739676 29493 net.cpp:137] Memory required for data: 263466752
I0401 13:54:16.739688 29493 layer_factory.hpp:77] Creating layer relu6
I0401 13:54:16.739702 29493 net.cpp:84] Creating Layer relu6
I0401 13:54:16.739708 29493 net.cpp:406] relu6 <- fc6
I0401 13:54:16.739717 29493 net.cpp:367] relu6 -> fc6 (in-place)
I0401 13:54:16.740661 29493 net.cpp:122] Setting up relu6
I0401 13:54:16.740674 29493 net.cpp:129] Top shape: 32 4096 (131072)
I0401 13:54:16.740677 29493 net.cpp:137] Memory required for data: 263991040
I0401 13:54:16.740681 29493 layer_factory.hpp:77] Creating layer drop6
I0401 13:54:16.740689 29493 net.cpp:84] Creating Layer drop6
I0401 13:54:16.740694 29493 net.cpp:406] drop6 <- fc6
I0401 13:54:16.740703 29493 net.cpp:367] drop6 -> fc6 (in-place)
I0401 13:54:16.740741 29493 net.cpp:122] Setting up drop6
I0401 13:54:16.740749 29493 net.cpp:129] Top shape: 32 4096 (131072)
I0401 13:54:16.740752 29493 net.cpp:137] Memory required for data: 264515328
I0401 13:54:16.740756 29493 layer_factory.hpp:77] Creating layer fc7
I0401 13:54:16.740765 29493 net.cpp:84] Creating Layer fc7
I0401 13:54:16.740769 29493 net.cpp:406] fc7 <- fc6
I0401 13:54:16.740777 29493 net.cpp:380] fc7 -> fc7
I0401 13:54:16.905133 29493 net.cpp:122] Setting up fc7
I0401 13:54:16.905161 29493 net.cpp:129] Top shape: 32 4096 (131072)
I0401 13:54:16.905164 29493 net.cpp:137] Memory required for data: 265039616
I0401 13:54:16.905174 29493 layer_factory.hpp:77] Creating layer relu7
I0401 13:54:16.905184 29493 net.cpp:84] Creating Layer relu7
I0401 13:54:16.905187 29493 net.cpp:406] relu7 <- fc7
I0401 13:54:16.905194 29493 net.cpp:367] relu7 -> fc7 (in-place)
I0401 13:54:16.905593 29493 net.cpp:122] Setting up relu7
I0401 13:54:16.905601 29493 net.cpp:129] Top shape: 32 4096 (131072)
I0401 13:54:16.905603 29493 net.cpp:137] Memory required for data: 265563904
I0401 13:54:16.905606 29493 layer_factory.hpp:77] Creating layer drop7
I0401 13:54:16.905612 29493 net.cpp:84] Creating Layer drop7
I0401 13:54:16.905616 29493 net.cpp:406] drop7 <- fc7
I0401 13:54:16.905618 29493 net.cpp:367] drop7 -> fc7 (in-place)
I0401 13:54:16.905642 29493 net.cpp:122] Setting up drop7
I0401 13:54:16.905647 29493 net.cpp:129] Top shape: 32 4096 (131072)
I0401 13:54:16.905648 29493 net.cpp:137] Memory required for data: 266088192
I0401 13:54:16.905650 29493 layer_factory.hpp:77] Creating layer fc8
I0401 13:54:16.905656 29493 net.cpp:84] Creating Layer fc8
I0401 13:54:16.905658 29493 net.cpp:406] fc8 <- fc7
I0401 13:54:16.905663 29493 net.cpp:380] fc8 -> fc8
I0401 13:54:16.913286 29493 net.cpp:122] Setting up fc8
I0401 13:54:16.913309 29493 net.cpp:129] Top shape: 32 196 (6272)
I0401 13:54:16.913312 29493 net.cpp:137] Memory required for data: 266113280
I0401 13:54:16.913321 29493 layer_factory.hpp:77] Creating layer fc8_fc8_0_split
I0401 13:54:16.913329 29493 net.cpp:84] Creating Layer fc8_fc8_0_split
I0401 13:54:16.913332 29493 net.cpp:406] fc8_fc8_0_split <- fc8
I0401 13:54:16.913360 29493 net.cpp:380] fc8_fc8_0_split -> fc8_fc8_0_split_0
I0401 13:54:16.913369 29493 net.cpp:380] fc8_fc8_0_split -> fc8_fc8_0_split_1
I0401 13:54:16.913403 29493 net.cpp:122] Setting up fc8_fc8_0_split
I0401 13:54:16.913408 29493 net.cpp:129] Top shape: 32 196 (6272)
I0401 13:54:16.913409 29493 net.cpp:129] Top shape: 32 196 (6272)
I0401 13:54:16.913411 29493 net.cpp:137] Memory required for data: 266163456
I0401 13:54:16.913414 29493 layer_factory.hpp:77] Creating layer accuracy
I0401 13:54:16.913420 29493 net.cpp:84] Creating Layer accuracy
I0401 13:54:16.913422 29493 net.cpp:406] accuracy <- fc8_fc8_0_split_0
I0401 13:54:16.913425 29493 net.cpp:406] accuracy <- label_val-data_1_split_0
I0401 13:54:16.913429 29493 net.cpp:380] accuracy -> accuracy
…
