…
I0419 11:34:41.849982 18153 net.cpp:294] The NetState phase (0) differed from the phase (1) specified by a rule in layer accuracy
I0419 11:34:41.850260 18153 net.cpp:51] Initializing net from parameters:
state {
phase: TRAIN
level: 0
stage: ""
}
layer {
name: "train-data"
type: "Data"
top: "data"
top: "label"
include {
phase: TRAIN
}
transform_param {
mirror: true
crop_size: 227
mean_file: "/mnt/bigdisk/DIGITS-AMB-2/digits/jobs/20210419-112604-e065/mean.binaryproto"
}
data_param {
source: "/mnt/bigdisk/DIGITS-AMB-2/digits/jobs/20210419-112604-e065/train_db"
batch_size: 128
backend: LMDB
}
}
layer {
name: "conv1"
type: "Convolution"
bottom: "data"
top: "conv1"
param {
lr_mult: 1
decay_mult: 1
}
param {
lr_mult: 2
decay_mult: 0
}
convolution_param {
num_output: 96
kernel_size: 11
stride: 4
weight_filler {
type: "gaussian"
std: 0.01
}
bias_filler {
type: "constant"
value: 0
}
}
}
layer {
name: "relu1"
type: "ReLU"
bottom: "conv1"
top: "conv1"
}
layer {
name: "norm1"
type: "LRN"
bottom: "conv1"
top: "norm1"
lrn_param {
local_size: 5
alpha: 0.0001
beta: 0.75
}
}
layer {
name: "pool1"
type: "Pooling"
bottom: "norm1"
top: "pool1"
pooling_param {
pool: MAX
kernel_size: 3
stride: 2
}
}
layer {
name: "conv2"
type: "Convolution"
bottom: "pool1"
top: "conv2"
param {
lr_mult: 1
decay_mult: 1
}
param {
lr_mult: 2
decay_mult: 0
}
convolution_param {
num_output: 256
pad: 2
kernel_size: 5
group: 2
weight_filler {
type: "gaussian"
std: 0.01
}
bias_filler {
type: "constant"
value: 0.1
}
}
}
layer {
name: "relu2"
type: "ReLU"
bottom: "conv2"
top: "conv2"
}
layer {
name: "norm2"
type: "LRN"
bottom: "conv2"
top: "norm2"
lrn_param {
local_size: 5
alpha: 0.0001
beta: 0.75
}
}
layer {
name: "pool2"
type: "Pooling"
bottom: "norm2"
top: "pool2"
pooling_param {
pool: MAX
kernel_size: 3
stride: 2
}
}
layer {
name: "conv3"
type: "Convolution"
bottom: "pool2"
top: "conv3"
param {
lr_mult: 1
decay_mult: 1
}
param {
lr_mult: 2
decay_mult: 0
}
convolution_param {
num_output: 384
pad: 1
kernel_size: 3
weight_filler {
type: "gaussian"
std: 0.01
}
bias_filler {
type: "constant"
value: 0
}
}
}
layer {
name: "relu3"
type: "ReLU"
bottom: "conv3"
top: "conv3"
}
layer {
name: "conv4"
type: "Convolution"
bottom: "conv3"
top: "conv4"
param {
lr_mult: 1
decay_mult: 1
}
param {
lr_mult: 2
decay_mult: 0
}
convolution_param {
num_output: 384
pad: 1
kernel_size: 3
group: 2
weight_filler {
type: "gaussian"
std: 0.01
}
bias_filler {
type: "constant"
value: 0.1
}
}
}
layer {
name: "relu4"
type: "ReLU"
bottom: "conv4"
top: "conv4"
}
layer {
name: "conv5"
type: "Convolution"
bottom: "conv4"
top: "conv5"
param {
lr_mult: 1
decay_mult: 1
}
param {
lr_mult: 2
decay_mult: 0
}
convolution_param {
num_output: 256
pad: 1
kernel_size: 3
group: 2
weight_filler {
type: "gaussian"
std: 0.01
}
bias_filler {
type: "constant"
value: 0.1
}
}
}
layer {
name: "relu5"
type: "ReLU"
bottom: "conv5"
top: "conv5"
}
layer {
name: "pool5"
type: "Pooling"
bottom: "conv5"
top: "pool5"
pooling_param {
pool: MAX
kernel_size: 3
stride: 2
}
}
layer {
name: "fc6"
type: "InnerProduct"
bottom: "pool5"
top: "fc6"
param {
lr_mult: 1
decay_mult: 1
}
param {
lr_mult: 2
decay_mult: 0
}
inner_product_param {
num_output: 4096
weight_filler {
type: "gaussian"
std: 0.005
}
bias_filler {
type: "constant"
value: 0.1
}
}
}
layer {
name: "relu6"
type: "ReLU"
bottom: "fc6"
top: "fc6"
}
layer {
name: "drop6"
type: "Dropout"
bottom: "fc6"
top: "fc6"
dropout_param {
dropout_ratio: 0.5
}
}
layer {
name: "fc7"
type: "InnerProduct"
bottom: "fc6"
top: "fc7"
param {
lr_mult: 1
decay_mult: 1
}
param {
lr_mult: 2
decay_mult: 0
}
inner_product_param {
num_output: 4096
weight_filler {
type: "gaussian"
std: 0.005
}
bias_filler {
type: "constant"
value: 0.1
}
}
}
layer {
name: "relu7"
type: "ReLU"
bottom: "fc7"
top: "fc7"
}
layer {
name: "drop7"
type: "Dropout"
bottom: "fc7"
top: "fc7"
dropout_param {
dropout_ratio: 0.5
}
}
layer {
name: "fc8"
type: "InnerProduct"
bottom: "fc7"
top: "fc8"
param {
lr_mult: 1
decay_mult: 1
}
param {
lr_mult: 2
decay_mult: 0
}
inner_product_param {
num_output: 196
weight_filler {
type: "gaussian"
std: 0.01
}
bias_filler {
type: "constant"
value: 0
}
}
}
layer {
name: "loss"
type: "SoftmaxWithLoss"
bottom: "fc8"
bottom: "label"
top: "loss"
}
I0419 11:34:41.850417 18153 layer_factory.hpp:77] Creating layer train-data
I0419 11:34:41.855221 18153 db_lmdb.cpp:35] Opened lmdb /mnt/bigdisk/DIGITS-AMB-2/digits/jobs/20210419-112604-e065/train_db
I0419 11:34:41.856848 18153 net.cpp:84] Creating Layer train-data
I0419 11:34:41.856863 18153 net.cpp:380] train-data -> data
I0419 11:34:41.856884 18153 net.cpp:380] train-data -> label
I0419 11:34:41.856895 18153 data_transformer.cpp:25] Loading mean file from: /mnt/bigdisk/DIGITS-AMB-2/digits/jobs/20210419-112604-e065/mean.binaryproto
I0419 11:34:41.875419 18153 data_layer.cpp:45] output data size: 128,3,227,227
I0419 11:34:42.013520 18153 net.cpp:122] Setting up train-data
I0419 11:34:42.013540 18153 net.cpp:129] Top shape: 128 3 227 227 (19787136)
I0419 11:34:42.013545 18153 net.cpp:129] Top shape: 128 (128)
I0419 11:34:42.013547 18153 net.cpp:137] Memory required for data: 79149056
I0419 11:34:42.013556 18153 layer_factory.hpp:77] Creating layer conv1
I0419 11:34:42.013576 18153 net.cpp:84] Creating Layer conv1
I0419 11:34:42.013581 18153 net.cpp:406] conv1 <- data
I0419 11:34:42.013592 18153 net.cpp:380] conv1 -> conv1
I0419 11:34:42.947938 18153 net.cpp:122] Setting up conv1
I0419 11:34:42.947959 18153 net.cpp:129] Top shape: 128 96 55 55 (37171200)
I0419 11:34:42.947962 18153 net.cpp:137] Memory required for data: 227833856
I0419 11:34:42.947981 18153 layer_factory.hpp:77] Creating layer relu1
I0419 11:34:42.947990 18153 net.cpp:84] Creating Layer relu1
I0419 11:34:42.947994 18153 net.cpp:406] relu1 <- conv1
I0419 11:34:42.947999 18153 net.cpp:367] relu1 -> conv1 (in-place)
I0419 11:34:42.948318 18153 net.cpp:122] Setting up relu1
I0419 11:34:42.948328 18153 net.cpp:129] Top shape: 128 96 55 55 (37171200)
I0419 11:34:42.948330 18153 net.cpp:137] Memory required for data: 376518656
I0419 11:34:42.948333 18153 layer_factory.hpp:77] Creating layer norm1
I0419 11:34:42.948343 18153 net.cpp:84] Creating Layer norm1
I0419 11:34:42.948348 18153 net.cpp:406] norm1 <- conv1
I0419 11:34:42.948371 18153 net.cpp:380] norm1 -> norm1
I0419 11:34:42.949060 18153 net.cpp:122] Setting up norm1
I0419 11:34:42.949074 18153 net.cpp:129] Top shape: 128 96 55 55 (37171200)
I0419 11:34:42.949077 18153 net.cpp:137] Memory required for data: 525203456
I0419 11:34:42.949082 18153 layer_factory.hpp:77] Creating layer pool1
I0419 11:34:42.949092 18153 net.cpp:84] Creating Layer pool1
I0419 11:34:42.949097 18153 net.cpp:406] pool1 <- norm1
I0419 11:34:42.949105 18153 net.cpp:380] pool1 -> pool1
I0419 11:34:42.949156 18153 net.cpp:122] Setting up pool1
I0419 11:34:42.949164 18153 net.cpp:129] Top shape: 128 96 27 27 (8957952)
I0419 11:34:42.949168 18153 net.cpp:137] Memory required for data: 561035264
I0419 11:34:42.949173 18153 layer_factory.hpp:77] Creating layer conv2
I0419 11:34:42.949187 18153 net.cpp:84] Creating Layer conv2
I0419 11:34:42.949191 18153 net.cpp:406] conv2 <- pool1
I0419 11:34:42.949198 18153 net.cpp:380] conv2 -> conv2
I0419 11:34:42.957331 18153 net.cpp:122] Setting up conv2
I0419 11:34:42.957345 18153 net.cpp:129] Top shape: 128 256 27 27 (23887872)
I0419 11:34:42.957350 18153 net.cpp:137] Memory required for data: 656586752
I0419 11:34:42.957360 18153 layer_factory.hpp:77] Creating layer relu2
I0419 11:34:42.957365 18153 net.cpp:84] Creating Layer relu2
I0419 11:34:42.957370 18153 net.cpp:406] relu2 <- conv2
I0419 11:34:42.957374 18153 net.cpp:367] relu2 -> conv2 (in-place)
I0419 11:34:42.957866 18153 net.cpp:122] Setting up relu2
I0419 11:34:42.957875 18153 net.cpp:129] Top shape: 128 256 27 27 (23887872)
I0419 11:34:42.957878 18153 net.cpp:137] Memory required for data: 752138240
I0419 11:34:42.957881 18153 layer_factory.hpp:77] Creating layer norm2
I0419 11:34:42.957890 18153 net.cpp:84] Creating Layer norm2
I0419 11:34:42.957892 18153 net.cpp:406] norm2 <- conv2
I0419 11:34:42.957897 18153 net.cpp:380] norm2 -> norm2
I0419 11:34:42.958220 18153 net.cpp:122] Setting up norm2
I0419 11:34:42.958228 18153 net.cpp:129] Top shape: 128 256 27 27 (23887872)
I0419 11:34:42.958231 18153 net.cpp:137] Memory required for data: 847689728
I0419 11:34:42.958235 18153 layer_factory.hpp:77] Creating layer pool2
I0419 11:34:42.958241 18153 net.cpp:84] Creating Layer pool2
I0419 11:34:42.958245 18153 net.cpp:406] pool2 <- norm2
I0419 11:34:42.958250 18153 net.cpp:380] pool2 -> pool2
I0419 11:34:42.958274 18153 net.cpp:122] Setting up pool2
I0419 11:34:42.958278 18153 net.cpp:129] Top shape: 128 256 13 13 (5537792)
I0419 11:34:42.958281 18153 net.cpp:137] Memory required for data: 869840896
I0419 11:34:42.958283 18153 layer_factory.hpp:77] Creating layer conv3
I0419 11:34:42.958292 18153 net.cpp:84] Creating Layer conv3
I0419 11:34:42.958294 18153 net.cpp:406] conv3 <- pool2
I0419 11:34:42.958299 18153 net.cpp:380] conv3 -> conv3
I0419 11:34:42.968616 18153 net.cpp:122] Setting up conv3
I0419 11:34:42.968627 18153 net.cpp:129] Top shape: 128 384 13 13 (8306688)
I0419 11:34:42.968631 18153 net.cpp:137] Memory required for data: 903067648
I0419 11:34:42.968641 18153 layer_factory.hpp:77] Creating layer relu3
I0419 11:34:42.968647 18153 net.cpp:84] Creating Layer relu3
I0419 11:34:42.968649 18153 net.cpp:406] relu3 <- conv3
I0419 11:34:42.968654 18153 net.cpp:367] relu3 -> conv3 (in-place)
I0419 11:34:42.969166 18153 net.cpp:122] Setting up relu3
I0419 11:34:42.969177 18153 net.cpp:129] Top shape: 128 384 13 13 (8306688)
I0419 11:34:42.969179 18153 net.cpp:137] Memory required for data: 936294400
I0419 11:34:42.969182 18153 layer_factory.hpp:77] Creating layer conv4
I0419 11:34:42.969192 18153 net.cpp:84] Creating Layer conv4
I0419 11:34:42.969195 18153 net.cpp:406] conv4 <- conv3
I0419 11:34:42.969200 18153 net.cpp:380] conv4 -> conv4
I0419 11:34:42.981010 18153 net.cpp:122] Setting up conv4
I0419 11:34:42.981024 18153 net.cpp:129] Top shape: 128 384 13 13 (8306688)
I0419 11:34:42.981029 18153 net.cpp:137] Memory required for data: 969521152
I0419 11:34:42.981036 18153 layer_factory.hpp:77] Creating layer relu4
I0419 11:34:42.981042 18153 net.cpp:84] Creating Layer relu4
I0419 11:34:42.981060 18153 net.cpp:406] relu4 <- conv4
I0419 11:34:42.981066 18153 net.cpp:367] relu4 -> conv4 (in-place)
I0419 11:34:42.981537 18153 net.cpp:122] Setting up relu4
I0419 11:34:42.981547 18153 net.cpp:129] Top shape: 128 384 13 13 (8306688)
I0419 11:34:42.981550 18153 net.cpp:137] Memory required for data: 1002747904
I0419 11:34:42.981554 18153 layer_factory.hpp:77] Creating layer conv5
I0419 11:34:42.981562 18153 net.cpp:84] Creating Layer conv5
I0419 11:34:42.981565 18153 net.cpp:406] conv5 <- conv4
I0419 11:34:42.981570 18153 net.cpp:380] conv5 -> conv5
I0419 11:34:42.991111 18153 net.cpp:122] Setting up conv5
I0419 11:34:42.991132 18153 net.cpp:129] Top shape: 128 256 13 13 (5537792)
I0419 11:34:42.991137 18153 net.cpp:137] Memory required for data: 1024899072
I0419 11:34:42.991154 18153 layer_factory.hpp:77] Creating layer relu5
I0419 11:34:42.991164 18153 net.cpp:84] Creating Layer relu5
I0419 11:34:42.991170 18153 net.cpp:406] relu5 <- conv5
I0419 11:34:42.991179 18153 net.cpp:367] relu5 -> conv5 (in-place)
I0419 11:34:42.992024 18153 net.cpp:122] Setting up relu5
I0419 11:34:42.992039 18153 net.cpp:129] Top shape: 128 256 13 13 (5537792)
I0419 11:34:42.992044 18153 net.cpp:137] Memory required for data: 1047050240
I0419 11:34:42.992050 18153 layer_factory.hpp:77] Creating layer pool5
I0419 11:34:42.992061 18153 net.cpp:84] Creating Layer pool5
I0419 11:34:42.992066 18153 net.cpp:406] pool5 <- conv5
I0419 11:34:42.992075 18153 net.cpp:380] pool5 -> pool5
I0419 11:34:42.992127 18153 net.cpp:122] Setting up pool5
I0419 11:34:42.992136 18153 net.cpp:129] Top shape: 128 256 6 6 (1179648)
I0419 11:34:42.992141 18153 net.cpp:137] Memory required for data: 1051768832
I0419 11:34:42.992146 18153 layer_factory.hpp:77] Creating layer fc6
I0419 11:34:42.992159 18153 net.cpp:84] Creating Layer fc6
I0419 11:34:42.992166 18153 net.cpp:406] fc6 <- pool5
I0419 11:34:42.992173 18153 net.cpp:380] fc6 -> fc6
I0419 11:34:43.382266 18153 net.cpp:122] Setting up fc6
I0419 11:34:43.382287 18153 net.cpp:129] Top shape: 128 4096 (524288)
I0419 11:34:43.382289 18153 net.cpp:137] Memory required for data: 1053865984
I0419 11:34:43.382297 18153 layer_factory.hpp:77] Creating layer relu6
I0419 11:34:43.382305 18153 net.cpp:84] Creating Layer relu6
I0419 11:34:43.382309 18153 net.cpp:406] relu6 <- fc6
I0419 11:34:43.382315 18153 net.cpp:367] relu6 -> fc6 (in-place)
I0419 11:34:43.382980 18153 net.cpp:122] Setting up relu6
I0419 11:34:43.382990 18153 net.cpp:129] Top shape: 128 4096 (524288)
I0419 11:34:43.382993 18153 net.cpp:137] Memory required for data: 1055963136
I0419 11:34:43.382997 18153 layer_factory.hpp:77] Creating layer drop6
I0419 11:34:43.383002 18153 net.cpp:84] Creating Layer drop6
I0419 11:34:43.383006 18153 net.cpp:406] drop6 <- fc6
I0419 11:34:43.383010 18153 net.cpp:367] drop6 -> fc6 (in-place)
I0419 11:34:43.383036 18153 net.cpp:122] Setting up drop6
I0419 11:34:43.383041 18153 net.cpp:129] Top shape: 128 4096 (524288)
I0419 11:34:43.383044 18153 net.cpp:137] Memory required for data: 1058060288
I0419 11:34:43.383046 18153 layer_factory.hpp:77] Creating layer fc7
I0419 11:34:43.383052 18153 net.cpp:84] Creating Layer fc7
I0419 11:34:43.383055 18153 net.cpp:406] fc7 <- fc6
I0419 11:34:43.383060 18153 net.cpp:380] fc7 -> fc7
I0419 11:34:43.548818 18153 net.cpp:122] Setting up fc7
I0419 11:34:43.548840 18153 net.cpp:129] Top shape: 128 4096 (524288)
I0419 11:34:43.548842 18153 net.cpp:137] Memory required for data: 1060157440
I0419 11:34:43.548851 18153 layer_factory.hpp:77] Creating layer relu7
I0419 11:34:43.548859 18153 net.cpp:84] Creating Layer relu7
I0419 11:34:43.548863 18153 net.cpp:406] relu7 <- fc7
I0419 11:34:43.548871 18153 net.cpp:367] relu7 -> fc7 (in-place)
I0419 11:34:43.549300 18153 net.cpp:122] Setting up relu7
I0419 11:34:43.549309 18153 net.cpp:129] Top shape: 128 4096 (524288)
I0419 11:34:43.549311 18153 net.cpp:137] Memory required for data: 1062254592
I0419 11:34:43.549314 18153 layer_factory.hpp:77] Creating layer drop7
I0419 11:34:43.549320 18153 net.cpp:84] Creating Layer drop7
I0419 11:34:43.549337 18153 net.cpp:406] drop7 <- fc7
I0419 11:34:43.549342 18153 net.cpp:367] drop7 -> fc7 (in-place)
I0419 11:34:43.549365 18153 net.cpp:122] Setting up drop7
I0419 11:34:43.549371 18153 net.cpp:129] Top shape: 128 4096 (524288)
I0419 11:34:43.549372 18153 net.cpp:137] Memory required for data: 1064351744
I0419 11:34:43.549376 18153 layer_factory.hpp:77] Creating layer fc8
I0419 11:34:43.549381 18153 net.cpp:84] Creating Layer fc8
I0419 11:34:43.549384 18153 net.cpp:406] fc8 <- fc7
I0419 11:34:43.549388 18153 net.cpp:380] fc8 -> fc8
I0419 11:34:43.557854 18153 net.cpp:122] Setting up fc8
I0419 11:34:43.557864 18153 net.cpp:129] Top shape: 128 196 (25088)
I0419 11:34:43.557871 18153 net.cpp:137] Memory required for data: 1064452096
I0419 11:34:43.557878 18153 layer_factory.hpp:77] Creating layer loss
I0419 11:34:43.557883 18153 net.cpp:84] Creating Layer loss
I0419 11:34:43.557886 18153 net.cpp:406] loss <- fc8
I0419 11:34:43.557890 18153 net.cpp:406] loss <- label
I0419 11:34:43.557898 18153 net.cpp:380] loss -> loss
I0419 11:34:43.557905 18153 layer_factory.hpp:77] Creating layer loss
…
I0419 11:34:43.559216 18153 net.cpp:294] The NetState phase (1) differed from the phase (0) specified by a rule in layer train-data
I0419 11:34:43.559350 18153 net.cpp:51] Initializing net from parameters:
state {
phase: TEST
}
layer {
name: "val-data"
type: "Data"
top: "data"
top: "label"
include {
phase: TEST
}
transform_param {
crop_size: 227
mean_file: "/mnt/bigdisk/DIGITS-AMB-2/digits/jobs/20210419-112604-e065/mean.binaryproto"
}
data_param {
source: "/mnt/bigdisk/DIGITS-AMB-2/digits/jobs/20210419-112604-e065/val_db"
batch_size: 32
backend: LMDB
}
}
layer {
name: "conv1"
type: "Convolution"
bottom: "data"
top: "conv1"
param {
lr_mult: 1
decay_mult: 1
}
param {
lr_mult: 2
decay_mult: 0
}
convolution_param {
num_output: 96
kernel_size: 11
stride: 4
weight_filler {
type: "gaussian"
std: 0.01
}
bias_filler {
type: "constant"
value: 0
}
}
}
layer {
name: "relu1"
type: "ReLU"
bottom: "conv1"
top: "conv1"
}
layer {
name: "norm1"
type: "LRN"
bottom: "conv1"
top: "norm1"
lrn_param {
local_size: 5
alpha: 0.0001
beta: 0.75
}
}
layer {
name: "pool1"
type: "Pooling"
bottom: "norm1"
top: "pool1"
pooling_param {
pool: MAX
kernel_size: 3
stride: 2
}
}
layer {
name: "conv2"
type: "Convolution"
bottom: "pool1"
top: "conv2"
param {
lr_mult: 1
decay_mult: 1
}
param {
lr_mult: 2
decay_mult: 0
}
convolution_param {
num_output: 256
pad: 2
kernel_size: 5
group: 2
weight_filler {
type: "gaussian"
std: 0.01
}
bias_filler {
type: "constant"
value: 0.1
}
}
}
layer {
name: "relu2"
type: "ReLU"
bottom: "conv2"
top: "conv2"
}
layer {
name: "norm2"
type: "LRN"
bottom: "conv2"
top: "norm2"
lrn_param {
local_size: 5
alpha: 0.0001
beta: 0.75
}
}
layer {
name: "pool2"
type: "Pooling"
bottom: "norm2"
top: "pool2"
pooling_param {
pool: MAX
kernel_size: 3
stride: 2
}
}
layer {
name: "conv3"
type: "Convolution"
bottom: "pool2"
top: "conv3"
param {
lr_mult: 1
decay_mult: 1
}
param {
lr_mult: 2
decay_mult: 0
}
convolution_param {
num_output: 384
pad: 1
kernel_size: 3
weight_filler {
type: "gaussian"
std: 0.01
}
bias_filler {
type: "constant"
value: 0
}
}
}
layer {
name: "relu3"
type: "ReLU"
bottom: "conv3"
top: "conv3"
}
layer {
name: "conv4"
type: "Convolution"
bottom: "conv3"
top: "conv4"
param {
lr_mult: 1
decay_mult: 1
}
param {
lr_mult: 2
decay_mult: 0
}
convolution_param {
num_output: 384
pad: 1
kernel_size: 3
group: 2
weight_filler {
type: "gaussian"
std: 0.01
}
bias_filler {
type: "constant"
value: 0.1
}
}
}
layer {
name: "relu4"
type: "ReLU"
bottom: "conv4"
top: "conv4"
}
layer {
name: "conv5"
type: "Convolution"
bottom: "conv4"
top: "conv5"
param {
lr_mult: 1
decay_mult: 1
}
param {
lr_mult: 2
decay_mult: 0
}
convolution_param {
num_output: 256
pad: 1
kernel_size: 3
group: 2
weight_filler {
type: "gaussian"
std: 0.01
}
bias_filler {
type: "constant"
value: 0.1
}
}
}
layer {
name: "relu5"
type: "ReLU"
bottom: "conv5"
top: "conv5"
}
layer {
name: "pool5"
type: "Pooling"
bottom: "conv5"
top: "pool5"
pooling_param {
pool: MAX
kernel_size: 3
stride: 2
}
}
layer {
name: "fc6"
type: "InnerProduct"
bottom: "pool5"
top: "fc6"
param {
lr_mult: 1
decay_mult: 1
}
param {
lr_mult: 2
decay_mult: 0
}
inner_product_param {
num_output: 4096
weight_filler {
type: "gaussian"
std: 0.005
}
bias_filler {
type: "constant"
value: 0.1
}
}
}
layer {
name: "relu6"
type: "ReLU"
bottom: "fc6"
top: "fc6"
}
layer {
name: "drop6"
type: "Dropout"
bottom: "fc6"
top: "fc6"
dropout_param {
dropout_ratio: 0.5
}
}
layer {
name: "fc7"
type: "InnerProduct"
bottom: "fc6"
top: "fc7"
param {
lr_mult: 1
decay_mult: 1
}
param {
lr_mult: 2
decay_mult: 0
}
inner_product_param {
num_output: 4096
weight_filler {
type: "gaussian"
std: 0.005
}
bias_filler {
type: "constant"
value: 0.1
}
}
}
layer {
name: "relu7"
type: "ReLU"
bottom: "fc7"
top: "fc7"
}
layer {
name: "drop7"
type: "Dropout"
bottom: "fc7"
top: "fc7"
dropout_param {
dropout_ratio: 0.5
}
}
layer {
name: "fc8"
type: "InnerProduct"
bottom: "fc7"
top: "fc8"
param {
lr_mult: 1
decay_mult: 1
}
param {
lr_mult: 2
decay_mult: 0
}
inner_product_param {
num_output: 196
weight_filler {
type: "gaussian"
std: 0.01
}
bias_filler {
type: "constant"
value: 0
}
}
}
layer {
name: "accuracy"
type: "Accuracy"
bottom: "fc8"
bottom: "label"
top: "accuracy"
include {
phase: TEST
}
}
layer {
name: "loss"
type: "SoftmaxWithLoss"
bottom: "fc8"
bottom: "label"
top: "loss"
}
I0419 11:34:43.559437 18153 layer_factory.hpp:77] Creating layer val-data
I0419 11:34:43.563664 18153 db_lmdb.cpp:35] Opened lmdb /mnt/bigdisk/DIGITS-AMB-2/digits/jobs/20210419-112604-e065/val_db
I0419 11:34:43.565254 18153 net.cpp:84] Creating Layer val-data
I0419 11:34:43.565268 18153 net.cpp:380] val-data -> data
I0419 11:34:43.565282 18153 net.cpp:380] val-data -> label
I0419 11:34:43.565294 18153 data_transformer.cpp:25] Loading mean file from: /mnt/bigdisk/DIGITS-AMB-2/digits/jobs/20210419-112604-e065/mean.binaryproto
I0419 11:34:43.570320 18153 data_layer.cpp:45] output data size: 32,3,227,227
I0419 11:34:43.604558 18153 net.cpp:122] Setting up val-data
I0419 11:34:43.604576 18153 net.cpp:129] Top shape: 32 3 227 227 (4946784)
I0419 11:34:43.604581 18153 net.cpp:129] Top shape: 32 (32)
I0419 11:34:43.604583 18153 net.cpp:137] Memory required for data: 19787264
I0419 11:34:43.604589 18153 layer_factory.hpp:77] Creating layer label_val-data_1_split
I0419 11:34:43.604600 18153 net.cpp:84] Creating Layer label_val-data_1_split
I0419 11:34:43.604604 18153 net.cpp:406] label_val-data_1_split <- label
I0419 11:34:43.604610 18153 net.cpp:380] label_val-data_1_split -> label_val-data_1_split_0
I0419 11:34:43.604620 18153 net.cpp:380] label_val-data_1_split -> label_val-data_1_split_1
I0419 11:34:43.604660 18153 net.cpp:122] Setting up label_val-data_1_split
I0419 11:34:43.604665 18153 net.cpp:129] Top shape: 32 (32)
I0419 11:34:43.604667 18153 net.cpp:129] Top shape: 32 (32)
I0419 11:34:43.604669 18153 net.cpp:137] Memory required for data: 19787520
I0419 11:34:43.604672 18153 layer_factory.hpp:77] Creating layer conv1
I0419 11:34:43.604683 18153 net.cpp:84] Creating Layer conv1
I0419 11:34:43.604686 18153 net.cpp:406] conv1 <- data
I0419 11:34:43.604691 18153 net.cpp:380] conv1 -> conv1
I0419 11:34:43.608209 18153 net.cpp:122] Setting up conv1
I0419 11:34:43.608220 18153 net.cpp:129] Top shape: 32 96 55 55 (9292800)
I0419 11:34:43.608223 18153 net.cpp:137] Memory required for data: 56958720
I0419 11:34:43.608233 18153 layer_factory.hpp:77] Creating layer relu1
I0419 11:34:43.608238 18153 net.cpp:84] Creating Layer relu1
I0419 11:34:43.608242 18153 net.cpp:406] relu1 <- conv1
I0419 11:34:43.608247 18153 net.cpp:367] relu1 -> conv1 (in-place)
I0419 11:34:43.608569 18153 net.cpp:122] Setting up relu1
I0419 11:34:43.608579 18153 net.cpp:129] Top shape: 32 96 55 55 (9292800)
I0419 11:34:43.608582 18153 net.cpp:137] Memory required for data: 94129920
I0419 11:34:43.608585 18153 layer_factory.hpp:77] Creating layer norm1
I0419 11:34:43.608593 18153 net.cpp:84] Creating Layer norm1
I0419 11:34:43.608597 18153 net.cpp:406] norm1 <- conv1
I0419 11:34:43.608601 18153 net.cpp:380] norm1 -> norm1
I0419 11:34:43.609107 18153 net.cpp:122] Setting up norm1
I0419 11:34:43.609117 18153 net.cpp:129] Top shape: 32 96 55 55 (9292800)
I0419 11:34:43.609120 18153 net.cpp:137] Memory required for data: 131301120
I0419 11:34:43.609123 18153 layer_factory.hpp:77] Creating layer pool1
I0419 11:34:43.609128 18153 net.cpp:84] Creating Layer pool1
I0419 11:34:43.609131 18153 net.cpp:406] pool1 <- norm1
I0419 11:34:43.609136 18153 net.cpp:380] pool1 -> pool1
I0419 11:34:43.609161 18153 net.cpp:122] Setting up pool1
I0419 11:34:43.609166 18153 net.cpp:129] Top shape: 32 96 27 27 (2239488)
I0419 11:34:43.609169 18153 net.cpp:137] Memory required for data: 140259072
I0419 11:34:43.609171 18153 layer_factory.hpp:77] Creating layer conv2
I0419 11:34:43.609179 18153 net.cpp:84] Creating Layer conv2
I0419 11:34:43.609181 18153 net.cpp:406] conv2 <- pool1
I0419 11:34:43.609200 18153 net.cpp:380] conv2 -> conv2
I0419 11:34:43.617415 18153 net.cpp:122] Setting up conv2
I0419 11:34:43.617429 18153 net.cpp:129] Top shape: 32 256 27 27 (5971968)
I0419 11:34:43.617431 18153 net.cpp:137] Memory required for data: 164146944
I0419 11:34:43.617441 18153 layer_factory.hpp:77] Creating layer relu2
I0419 11:34:43.617447 18153 net.cpp:84] Creating Layer relu2
I0419 11:34:43.617451 18153 net.cpp:406] relu2 <- conv2
I0419 11:34:43.617457 18153 net.cpp:367] relu2 -> conv2 (in-place)
I0419 11:34:43.618088 18153 net.cpp:122] Setting up relu2
I0419 11:34:43.618098 18153 net.cpp:129] Top shape: 32 256 27 27 (5971968)
I0419 11:34:43.618100 18153 net.cpp:137] Memory required for data: 188034816
I0419 11:34:43.618103 18153 layer_factory.hpp:77] Creating layer norm2
I0419 11:34:43.618114 18153 net.cpp:84] Creating Layer norm2
I0419 11:34:43.618117 18153 net.cpp:406] norm2 <- conv2
I0419 11:34:43.618122 18153 net.cpp:380] norm2 -> norm2
I0419 11:34:43.619529 18153 net.cpp:122] Setting up norm2
I0419 11:34:43.619539 18153 net.cpp:129] Top shape: 32 256 27 27 (5971968)
I0419 11:34:43.619542 18153 net.cpp:137] Memory required for data: 211922688
I0419 11:34:43.619545 18153 layer_factory.hpp:77] Creating layer pool2
I0419 11:34:43.619551 18153 net.cpp:84] Creating Layer pool2
I0419 11:34:43.619554 18153 net.cpp:406] pool2 <- norm2
I0419 11:34:43.619560 18153 net.cpp:380] pool2 -> pool2
I0419 11:34:43.619590 18153 net.cpp:122] Setting up pool2
I0419 11:34:43.619596 18153 net.cpp:129] Top shape: 32 256 13 13 (1384448)
I0419 11:34:43.619597 18153 net.cpp:137] Memory required for data: 217460480
I0419 11:34:43.619601 18153 layer_factory.hpp:77] Creating layer conv3
I0419 11:34:43.619609 18153 net.cpp:84] Creating Layer conv3
I0419 11:34:43.619612 18153 net.cpp:406] conv3 <- pool2
I0419 11:34:43.619618 18153 net.cpp:380] conv3 -> conv3
I0419 11:34:43.632711 18153 net.cpp:122] Setting up conv3
I0419 11:34:43.632728 18153 net.cpp:129] Top shape: 32 384 13 13 (2076672)
I0419 11:34:43.632731 18153 net.cpp:137] Memory required for data: 225767168
I0419 11:34:43.632742 18153 layer_factory.hpp:77] Creating layer relu3
I0419 11:34:43.632750 18153 net.cpp:84] Creating Layer relu3
I0419 11:34:43.632755 18153 net.cpp:406] relu3 <- conv3
I0419 11:34:43.632761 18153 net.cpp:367] relu3 -> conv3 (in-place)
I0419 11:34:43.633345 18153 net.cpp:122] Setting up relu3
I0419 11:34:43.633354 18153 net.cpp:129] Top shape: 32 384 13 13 (2076672)
I0419 11:34:43.633358 18153 net.cpp:137] Memory required for data: 234073856
I0419 11:34:43.633360 18153 layer_factory.hpp:77] Creating layer conv4
I0419 11:34:43.633371 18153 net.cpp:84] Creating Layer conv4
I0419 11:34:43.633374 18153 net.cpp:406] conv4 <- conv3
I0419 11:34:43.633381 18153 net.cpp:380] conv4 -> conv4
I0419 11:34:43.645041 18153 net.cpp:122] Setting up conv4
I0419 11:34:43.645056 18153 net.cpp:129] Top shape: 32 384 13 13 (2076672)
I0419 11:34:43.645058 18153 net.cpp:137] Memory required for data: 242380544
I0419 11:34:43.645066 18153 layer_factory.hpp:77] Creating layer relu4
I0419 11:34:43.645073 18153 net.cpp:84] Creating Layer relu4
I0419 11:34:43.645076 18153 net.cpp:406] relu4 <- conv4
I0419 11:34:43.645081 18153 net.cpp:367] relu4 -> conv4 (in-place)
I0419 11:34:43.645454 18153 net.cpp:122] Setting up relu4
I0419 11:34:43.645467 18153 net.cpp:129] Top shape: 32 384 13 13 (2076672)
I0419 11:34:43.645469 18153 net.cpp:137] Memory required for data: 250687232
I0419 11:34:43.645473 18153 layer_factory.hpp:77] Creating layer conv5
I0419 11:34:43.645483 18153 net.cpp:84] Creating Layer conv5
I0419 11:34:43.645485 18153 net.cpp:406] conv5 <- conv4
I0419 11:34:43.645490 18153 net.cpp:380] conv5 -> conv5
I0419 11:34:43.656807 18153 net.cpp:122] Setting up conv5
I0419 11:34:43.656831 18153 net.cpp:129] Top shape: 32 256 13 13 (1384448)
I0419 11:34:43.656837 18153 net.cpp:137] Memory required for data: 256225024
I0419 11:34:43.656857 18153 layer_factory.hpp:77] Creating layer relu5
I0419 11:34:43.656872 18153 net.cpp:84] Creating Layer relu5
I0419 11:34:43.656877 18153 net.cpp:406] relu5 <- conv5
I0419 11:34:43.656910 18153 net.cpp:367] relu5 -> conv5 (in-place)
I0419 11:34:43.657907 18153 net.cpp:122] Setting up relu5
I0419 11:34:43.657924 18153 net.cpp:129] Top shape: 32 256 13 13 (1384448)
I0419 11:34:43.657929 18153 net.cpp:137] Memory required for data: 261762816
I0419 11:34:43.657935 18153 layer_factory.hpp:77] Creating layer pool5
I0419 11:34:43.657951 18153 net.cpp:84] Creating Layer pool5
I0419 11:34:43.657956 18153 net.cpp:406] pool5 <- conv5
I0419 11:34:43.657965 18153 net.cpp:380] pool5 -> pool5
I0419 11:34:43.658023 18153 net.cpp:122] Setting up pool5
I0419 11:34:43.658032 18153 net.cpp:129] Top shape: 32 256 6 6 (294912)
I0419 11:34:43.658037 18153 net.cpp:137] Memory required for data: 262942464
I0419 11:34:43.658042 18153 layer_factory.hpp:77] Creating layer fc6
I0419 11:34:43.658052 18153 net.cpp:84] Creating Layer fc6
I0419 11:34:43.658057 18153 net.cpp:406] fc6 <- pool5
I0419 11:34:43.658068 18153 net.cpp:380] fc6 -> fc6
I0419 11:34:44.045799 18153 net.cpp:122] Setting up fc6
I0419 11:34:44.045817 18153 net.cpp:129] Top shape: 32 4096 (131072)
I0419 11:34:44.045821 18153 net.cpp:137] Memory required for data: 263466752
I0419 11:34:44.045830 18153 layer_factory.hpp:77] Creating layer relu6
I0419 11:34:44.045836 18153 net.cpp:84] Creating Layer relu6
I0419 11:34:44.045840 18153 net.cpp:406] relu6 <- fc6
I0419 11:34:44.045848 18153 net.cpp:367] relu6 -> fc6 (in-place)
I0419 11:34:44.046613 18153 net.cpp:122] Setting up relu6
I0419 11:34:44.046622 18153 net.cpp:129] Top shape: 32 4096 (131072)
I0419 11:34:44.046625 18153 net.cpp:137] Memory required for data: 263991040
I0419 11:34:44.046628 18153 layer_factory.hpp:77] Creating layer drop6
I0419 11:34:44.046635 18153 net.cpp:84] Creating Layer drop6
I0419 11:34:44.046638 18153 net.cpp:406] drop6 <- fc6
I0419 11:34:44.046644 18153 net.cpp:367] drop6 -> fc6 (in-place)
I0419 11:34:44.046666 18153 net.cpp:122] Setting up drop6
I0419 11:34:44.046672 18153 net.cpp:129] Top shape: 32 4096 (131072)
I0419 11:34:44.046674 18153 net.cpp:137] Memory required for data: 264515328
I0419 11:34:44.046677 18153 layer_factory.hpp:77] Creating layer fc7
I0419 11:34:44.046684 18153 net.cpp:84] Creating Layer fc7
I0419 11:34:44.046686 18153 net.cpp:406] fc7 <- fc6
I0419 11:34:44.046692 18153 net.cpp:380] fc7 -> fc7
I0419 11:34:44.212517 18153 net.cpp:122] Setting up fc7
I0419 11:34:44.212538 18153 net.cpp:129] Top shape: 32 4096 (131072)
I0419 11:34:44.212541 18153 net.cpp:137] Memory required for data: 265039616
I0419 11:34:44.212549 18153 layer_factory.hpp:77] Creating layer relu7
I0419 11:34:44.212558 18153 net.cpp:84] Creating Layer relu7
I0419 11:34:44.212561 18153 net.cpp:406] relu7 <- fc7
I0419 11:34:44.212568 18153 net.cpp:367] relu7 -> fc7 (in-place)
I0419 11:34:44.213070 18153 net.cpp:122] Setting up relu7
I0419 11:34:44.213079 18153 net.cpp:129] Top shape: 32 4096 (131072)
I0419 11:34:44.213083 18153 net.cpp:137] Memory required for data: 265563904
I0419 11:34:44.213085 18153 layer_factory.hpp:77] Creating layer drop7
I0419 11:34:44.213093 18153 net.cpp:84] Creating Layer drop7
I0419 11:34:44.213095 18153 net.cpp:406] drop7 <- fc7
I0419 11:34:44.213100 18153 net.cpp:367] drop7 -> fc7 (in-place)
I0419 11:34:44.213125 18153 net.cpp:122] Setting up drop7
I0419 11:34:44.213130 18153 net.cpp:129] Top shape: 32 4096 (131072)
I0419 11:34:44.213132 18153 net.cpp:137] Memory required for data: 266088192
I0419 11:34:44.213135 18153 layer_factory.hpp:77] Creating layer fc8
I0419 11:34:44.213142 18153 net.cpp:84] Creating Layer fc8
I0419 11:34:44.213145 18153 net.cpp:406] fc8 <- fc7
I0419 11:34:44.213150 18153 net.cpp:380] fc8 -> fc8
I0419 11:34:44.221709 18153 net.cpp:122] Setting up fc8
I0419 11:34:44.221720 18153 net.cpp:129] Top shape: 32 196 (6272)
I0419 11:34:44.221724 18153 net.cpp:137] Memory required for data: 266113280
I0419 11:34:44.221729 18153 layer_factory.hpp:77] Creating layer fc8_fc8_0_split
I0419 11:34:44.221735 18153 net.cpp:84] Creating Layer fc8_fc8_0_split
I0419 11:34:44.221738 18153 net.cpp:406] fc8_fc8_0_split <- fc8
I0419 11:34:44.221756 18153 net.cpp:380] fc8_fc8_0_split -> fc8_fc8_0_split_0
I0419 11:34:44.221765 18153 net.cpp:380] fc8_fc8_0_split -> fc8_fc8_0_split_1
I0419 11:34:44.221796 18153 net.cpp:122] Setting up fc8_fc8_0_split
I0419 11:34:44.221801 18153 net.cpp:129] Top shape: 32 196 (6272)
I0419 11:34:44.221803 18153 net.cpp:129] Top shape: 32 196 (6272)
I0419 11:34:44.221807 18153 net.cpp:137] Memory required for data: 266163456
I0419 11:34:44.221808 18153 layer_factory.hpp:77] Creating layer accuracy
I0419 11:34:44.221815 18153 net.cpp:84] Creating Layer accuracy
I0419 11:34:44.221818 18153 net.cpp:406] accuracy <- fc8_fc8_0_split_0
I0419 11:34:44.221822 18153 net.cpp:406] accuracy <- label_val-data_1_split_0
I0419 11:34:44.221827 18153 net.cpp:380] accuracy -> accuracy
…
