…
I0423 08:37:39.065451 10034 net.cpp:294] The NetState phase (0) differed from the phase (1) specified by a rule in layer accuracy
I0423 08:37:39.065588 10034 net.cpp:51] Initializing net from parameters:
state {
phase: TRAIN
level: 0
stage: ""
}
layer {
name: "train-data"
type: "Data"
top: "data"
top: "label"
include {
phase: TRAIN
}
transform_param {
mirror: true
crop_size: 227
mean_file: "/mnt/bigdisk/DIGITS-MAN-3/digits/jobs/20210421-230320-902c/mean.binaryproto"
}
data_param {
source: "/mnt/bigdisk/DIGITS-MAN-3/digits/jobs/20210421-230320-902c/train_db"
batch_size: 128
backend: LMDB
}
}
layer {
name: "conv1"
type: "Convolution"
bottom: "data"
top: "conv1"
param {
lr_mult: 1
decay_mult: 1
}
param {
lr_mult: 2
decay_mult: 0
}
convolution_param {
num_output: 96
kernel_size: 11
stride: 4
weight_filler {
type: "gaussian"
std: 0.01
}
bias_filler {
type: "constant"
value: 0
}
}
}
layer {
name: "relu1"
type: "ReLU"
bottom: "conv1"
top: "conv1"
}
layer {
name: "norm1"
type: "LRN"
bottom: "conv1"
top: "norm1"
lrn_param {
local_size: 5
alpha: 0.0001
beta: 0.75
}
}
layer {
name: "pool1"
type: "Pooling"
bottom: "norm1"
top: "pool1"
pooling_param {
pool: MAX
kernel_size: 3
stride: 2
}
}
layer {
name: "conv2"
type: "Convolution"
bottom: "pool1"
top: "conv2"
param {
lr_mult: 1
decay_mult: 1
}
param {
lr_mult: 2
decay_mult: 0
}
convolution_param {
num_output: 256
pad: 2
kernel_size: 9
group: 2
weight_filler {
type: "gaussian"
std: 0.01
}
bias_filler {
type: "constant"
value: 0.1
}
}
}
layer {
name: "relu2"
type: "ReLU"
bottom: "conv2"
top: "conv2"
}
layer {
name: "norm2"
type: "LRN"
bottom: "conv2"
top: "norm2"
lrn_param {
local_size: 5
alpha: 0.0001
beta: 0.75
}
}
layer {
name: "pool2"
type: "Pooling"
bottom: "norm2"
top: "pool2"
pooling_param {
pool: MAX
kernel_size: 3
stride: 2
}
}
layer {
name: "conv3"
type: "Convolution"
bottom: "pool2"
top: "conv3"
param {
lr_mult: 1
decay_mult: 1
}
param {
lr_mult: 2
decay_mult: 0
}
convolution_param {
num_output: 384
pad: 1
kernel_size: 3
weight_filler {
type: "gaussian"
std: 0.01
}
bias_filler {
type: "constant"
value: 0
}
}
}
layer {
name: "relu3"
type: "ReLU"
bottom: "conv3"
top: "conv3"
}
layer {
name: "conv4"
type: "Convolution"
bottom: "conv3"
top: "conv4"
param {
lr_mult: 1
decay_mult: 1
}
param {
lr_mult: 2
decay_mult: 0
}
convolution_param {
num_output: 384
pad: 1
kernel_size: 3
group: 2
weight_filler {
type: "gaussian"
std: 0.01
}
bias_filler {
type: "constant"
value: 0.1
}
}
}
layer {
name: "relu4"
type: "ReLU"
bottom: "conv4"
top: "conv4"
}
layer {
name: "conv5"
type: "Convolution"
bottom: "conv4"
top: "conv5"
param {
lr_mult: 1
decay_mult: 1
}
param {
lr_mult: 2
decay_mult: 0
}
convolution_param {
num_output: 256
pad: 1
kernel_size: 3
group: 2
weight_filler {
type: "gaussian"
std: 0.01
}
bias_filler {
type: "constant"
value: 0.1
}
}
}
layer {
name: "relu5"
type: "ReLU"
bottom: "conv5"
top: "conv5"
}
layer {
name: "pool5"
type: "Pooling"
bottom: "conv5"
top: "pool5"
pooling_param {
pool: MAX
kernel_size: 3
stride: 2
}
}
layer {
name: "fc6"
type: "InnerProduct"
bottom: "pool5"
top: "fc6"
param {
lr_mult: 1
decay_mult: 1
}
param {
lr_mult: 2
decay_mult: 0
}
inner_product_param {
num_output: 4096
weight_filler {
type: "gaussian"
std: 0.005
}
bias_filler {
type: "constant"
value: 0.1
}
}
}
layer {
name: "relu6"
type: "ReLU"
bottom: "fc6"
top: "fc6"
}
layer {
name: "drop6"
type: "Dropout"
bottom: "fc6"
top: "fc6"
dropout_param {
dropout_ratio: 0.5
}
}
layer {
name: "fc7"
type: "InnerProduct"
bottom: "fc6"
top: "fc7"
param {
lr_mult: 1
decay_mult: 1
}
param {
lr_mult: 2
decay_mult: 0
}
inner_product_param {
num_output: 4096
weight_filler {
type: "gaussian"
std: 0.005
}
bias_filler {
type: "constant"
value: 0.1
}
}
}
layer {
name: "relu7"
type: "ReLU"
bottom: "fc7"
top: "fc7"
}
layer {
name: "drop7"
type: "Dropout"
bottom: "fc7"
top: "fc7"
dropout_param {
dropout_ratio: 0.5
}
}
layer {
name: "fc8"
type: "InnerProduct"
bottom: "fc7"
top: "fc8"
param {
lr_mult: 1
decay_mult: 1
}
param {
lr_mult: 2
decay_mult: 0
}
inner_product_param {
num_output: 196
weight_filler {
type: "gaussian"
std: 0.01
}
bias_filler {
type: "constant"
value: 0
}
}
}
layer {
name: "loss"
type: "SoftmaxWithLoss"
bottom: "fc8"
bottom: "label"
top: "loss"
}
I0423 08:37:39.065677 10034 layer_factory.hpp:77] Creating layer train-data
I0423 08:37:39.066902 10034 db_lmdb.cpp:35] Opened lmdb /mnt/bigdisk/DIGITS-MAN-3/digits/jobs/20210421-230320-902c/train_db
I0423 08:37:39.067045 10034 net.cpp:84] Creating Layer train-data
I0423 08:37:39.067056 10034 net.cpp:380] train-data -> data
I0423 08:37:39.067075 10034 net.cpp:380] train-data -> label
I0423 08:37:39.067085 10034 data_transformer.cpp:25] Loading mean file from: /mnt/bigdisk/DIGITS-MAN-3/digits/jobs/20210421-230320-902c/mean.binaryproto
I0423 08:37:39.072031 10034 data_layer.cpp:45] output data size: 128,3,227,227
I0423 08:37:39.194618 10034 net.cpp:122] Setting up train-data
I0423 08:37:39.194640 10034 net.cpp:129] Top shape: 128 3 227 227 (19787136)
I0423 08:37:39.194645 10034 net.cpp:129] Top shape: 128 (128)
I0423 08:37:39.194648 10034 net.cpp:137] Memory required for data: 79149056
I0423 08:37:39.194658 10034 layer_factory.hpp:77] Creating layer conv1
I0423 08:37:39.194677 10034 net.cpp:84] Creating Layer conv1
I0423 08:37:39.194684 10034 net.cpp:406] conv1 <- data
I0423 08:37:39.194694 10034 net.cpp:380] conv1 -> conv1
I0423 08:37:39.771549 10034 net.cpp:122] Setting up conv1
I0423 08:37:39.771571 10034 net.cpp:129] Top shape: 128 96 55 55 (37171200)
I0423 08:37:39.771576 10034 net.cpp:137] Memory required for data: 227833856
I0423 08:37:39.771595 10034 layer_factory.hpp:77] Creating layer relu1
I0423 08:37:39.771606 10034 net.cpp:84] Creating Layer relu1
I0423 08:37:39.771611 10034 net.cpp:406] relu1 <- conv1
I0423 08:37:39.771617 10034 net.cpp:367] relu1 -> conv1 (in-place)
I0423 08:37:39.771904 10034 net.cpp:122] Setting up relu1
I0423 08:37:39.771912 10034 net.cpp:129] Top shape: 128 96 55 55 (37171200)
I0423 08:37:39.771917 10034 net.cpp:137] Memory required for data: 376518656
I0423 08:37:39.771921 10034 layer_factory.hpp:77] Creating layer norm1
I0423 08:37:39.771930 10034 net.cpp:84] Creating Layer norm1
I0423 08:37:39.771934 10034 net.cpp:406] norm1 <- conv1
I0423 08:37:39.771957 10034 net.cpp:380] norm1 -> norm1
I0423 08:37:39.772394 10034 net.cpp:122] Setting up norm1
I0423 08:37:39.772404 10034 net.cpp:129] Top shape: 128 96 55 55 (37171200)
I0423 08:37:39.772408 10034 net.cpp:137] Memory required for data: 525203456
I0423 08:37:39.772413 10034 layer_factory.hpp:77] Creating layer pool1
I0423 08:37:39.772421 10034 net.cpp:84] Creating Layer pool1
I0423 08:37:39.772425 10034 net.cpp:406] pool1 <- norm1
I0423 08:37:39.772430 10034 net.cpp:380] pool1 -> pool1
I0423 08:37:39.772467 10034 net.cpp:122] Setting up pool1
I0423 08:37:39.772475 10034 net.cpp:129] Top shape: 128 96 27 27 (8957952)
I0423 08:37:39.772477 10034 net.cpp:137] Memory required for data: 561035264
I0423 08:37:39.772481 10034 layer_factory.hpp:77] Creating layer conv2
I0423 08:37:39.772517 10034 net.cpp:84] Creating Layer conv2
I0423 08:37:39.772521 10034 net.cpp:406] conv2 <- pool1
I0423 08:37:39.772526 10034 net.cpp:380] conv2 -> conv2
I0423 08:37:39.785384 10034 net.cpp:122] Setting up conv2
I0423 08:37:39.785404 10034 net.cpp:129] Top shape: 128 256 23 23 (17334272)
I0423 08:37:39.785408 10034 net.cpp:137] Memory required for data: 630372352
I0423 08:37:39.785420 10034 layer_factory.hpp:77] Creating layer relu2
I0423 08:37:39.785430 10034 net.cpp:84] Creating Layer relu2
I0423 08:37:39.785434 10034 net.cpp:406] relu2 <- conv2
I0423 08:37:39.785441 10034 net.cpp:367] relu2 -> conv2 (in-place)
I0423 08:37:39.785866 10034 net.cpp:122] Setting up relu2
I0423 08:37:39.785874 10034 net.cpp:129] Top shape: 128 256 23 23 (17334272)
I0423 08:37:39.785879 10034 net.cpp:137] Memory required for data: 699709440
I0423 08:37:39.785882 10034 layer_factory.hpp:77] Creating layer norm2
I0423 08:37:39.785892 10034 net.cpp:84] Creating Layer norm2
I0423 08:37:39.785894 10034 net.cpp:406] norm2 <- conv2
I0423 08:37:39.785900 10034 net.cpp:380] norm2 -> norm2
I0423 08:37:39.786190 10034 net.cpp:122] Setting up norm2
I0423 08:37:39.786197 10034 net.cpp:129] Top shape: 128 256 23 23 (17334272)
I0423 08:37:39.786201 10034 net.cpp:137] Memory required for data: 769046528
I0423 08:37:39.786204 10034 layer_factory.hpp:77] Creating layer pool2
I0423 08:37:39.786212 10034 net.cpp:84] Creating Layer pool2
I0423 08:37:39.786216 10034 net.cpp:406] pool2 <- norm2
I0423 08:37:39.786221 10034 net.cpp:380] pool2 -> pool2
I0423 08:37:39.786249 10034 net.cpp:122] Setting up pool2
I0423 08:37:39.786254 10034 net.cpp:129] Top shape: 128 256 11 11 (3964928)
I0423 08:37:39.786257 10034 net.cpp:137] Memory required for data: 784906240
I0423 08:37:39.786262 10034 layer_factory.hpp:77] Creating layer conv3
I0423 08:37:39.786271 10034 net.cpp:84] Creating Layer conv3
I0423 08:37:39.786274 10034 net.cpp:406] conv3 <- pool2
I0423 08:37:39.786279 10034 net.cpp:380] conv3 -> conv3
I0423 08:37:39.796159 10034 net.cpp:122] Setting up conv3
I0423 08:37:39.796175 10034 net.cpp:129] Top shape: 128 384 11 11 (5947392)
I0423 08:37:39.796178 10034 net.cpp:137] Memory required for data: 808695808
I0423 08:37:39.796190 10034 layer_factory.hpp:77] Creating layer relu3
I0423 08:37:39.796197 10034 net.cpp:84] Creating Layer relu3
I0423 08:37:39.796201 10034 net.cpp:406] relu3 <- conv3
I0423 08:37:39.796208 10034 net.cpp:367] relu3 -> conv3 (in-place)
I0423 08:37:39.796685 10034 net.cpp:122] Setting up relu3
I0423 08:37:39.796696 10034 net.cpp:129] Top shape: 128 384 11 11 (5947392)
I0423 08:37:39.796700 10034 net.cpp:137] Memory required for data: 832485376
I0423 08:37:39.796703 10034 layer_factory.hpp:77] Creating layer conv4
I0423 08:37:39.796715 10034 net.cpp:84] Creating Layer conv4
I0423 08:37:39.796718 10034 net.cpp:406] conv4 <- conv3
I0423 08:37:39.796725 10034 net.cpp:380] conv4 -> conv4
I0423 08:37:39.807044 10034 net.cpp:122] Setting up conv4
I0423 08:37:39.807061 10034 net.cpp:129] Top shape: 128 384 11 11 (5947392)
I0423 08:37:39.807065 10034 net.cpp:137] Memory required for data: 856274944
I0423 08:37:39.807075 10034 layer_factory.hpp:77] Creating layer relu4
I0423 08:37:39.807082 10034 net.cpp:84] Creating Layer relu4
I0423 08:37:39.807104 10034 net.cpp:406] relu4 <- conv4
I0423 08:37:39.807112 10034 net.cpp:367] relu4 -> conv4 (in-place)
I0423 08:37:39.807454 10034 net.cpp:122] Setting up relu4
I0423 08:37:39.807462 10034 net.cpp:129] Top shape: 128 384 11 11 (5947392)
I0423 08:37:39.807466 10034 net.cpp:137] Memory required for data: 880064512
I0423 08:37:39.807469 10034 layer_factory.hpp:77] Creating layer conv5
I0423 08:37:39.807479 10034 net.cpp:84] Creating Layer conv5
I0423 08:37:39.807484 10034 net.cpp:406] conv5 <- conv4
I0423 08:37:39.807490 10034 net.cpp:380] conv5 -> conv5
I0423 08:37:39.815769 10034 net.cpp:122] Setting up conv5
I0423 08:37:39.815783 10034 net.cpp:129] Top shape: 128 256 11 11 (3964928)
I0423 08:37:39.815786 10034 net.cpp:137] Memory required for data: 895924224
I0423 08:37:39.815799 10034 layer_factory.hpp:77] Creating layer relu5
I0423 08:37:39.815807 10034 net.cpp:84] Creating Layer relu5
I0423 08:37:39.815810 10034 net.cpp:406] relu5 <- conv5
I0423 08:37:39.815816 10034 net.cpp:367] relu5 -> conv5 (in-place)
I0423 08:37:39.816298 10034 net.cpp:122] Setting up relu5
I0423 08:37:39.816309 10034 net.cpp:129] Top shape: 128 256 11 11 (3964928)
I0423 08:37:39.816313 10034 net.cpp:137] Memory required for data: 911783936
I0423 08:37:39.816316 10034 layer_factory.hpp:77] Creating layer pool5
I0423 08:37:39.816324 10034 net.cpp:84] Creating Layer pool5
I0423 08:37:39.816329 10034 net.cpp:406] pool5 <- conv5
I0423 08:37:39.816334 10034 net.cpp:380] pool5 -> pool5
I0423 08:37:39.816371 10034 net.cpp:122] Setting up pool5
I0423 08:37:39.816377 10034 net.cpp:129] Top shape: 128 256 5 5 (819200)
I0423 08:37:39.816380 10034 net.cpp:137] Memory required for data: 915060736
I0423 08:37:39.816385 10034 layer_factory.hpp:77] Creating layer fc6
I0423 08:37:39.816395 10034 net.cpp:84] Creating Layer fc6
I0423 08:37:39.816399 10034 net.cpp:406] fc6 <- pool5
I0423 08:37:39.816404 10034 net.cpp:380] fc6 -> fc6
I0423 08:37:40.061378 10034 net.cpp:122] Setting up fc6
I0423 08:37:40.061396 10034 net.cpp:129] Top shape: 128 4096 (524288)
I0423 08:37:40.061400 10034 net.cpp:137] Memory required for data: 917157888
I0423 08:37:40.061409 10034 layer_factory.hpp:77] Creating layer relu6
I0423 08:37:40.061419 10034 net.cpp:84] Creating Layer relu6
I0423 08:37:40.061424 10034 net.cpp:406] relu6 <- fc6
I0423 08:37:40.061430 10034 net.cpp:367] relu6 -> fc6 (in-place)
I0423 08:37:40.066637 10034 net.cpp:122] Setting up relu6
I0423 08:37:40.066648 10034 net.cpp:129] Top shape: 128 4096 (524288)
I0423 08:37:40.066653 10034 net.cpp:137] Memory required for data: 919255040
I0423 08:37:40.066656 10034 layer_factory.hpp:77] Creating layer drop6
I0423 08:37:40.066663 10034 net.cpp:84] Creating Layer drop6
I0423 08:37:40.066666 10034 net.cpp:406] drop6 <- fc6
I0423 08:37:40.066673 10034 net.cpp:367] drop6 -> fc6 (in-place)
I0423 08:37:40.066701 10034 net.cpp:122] Setting up drop6
I0423 08:37:40.066706 10034 net.cpp:129] Top shape: 128 4096 (524288)
I0423 08:37:40.066709 10034 net.cpp:137] Memory required for data: 921352192
I0423 08:37:40.066713 10034 layer_factory.hpp:77] Creating layer fc7
I0423 08:37:40.066721 10034 net.cpp:84] Creating Layer fc7
I0423 08:37:40.066725 10034 net.cpp:406] fc7 <- fc6
I0423 08:37:40.066731 10034 net.cpp:380] fc7 -> fc7
I0423 08:37:40.223606 10034 net.cpp:122] Setting up fc7
I0423 08:37:40.223624 10034 net.cpp:129] Top shape: 128 4096 (524288)
I0423 08:37:40.223628 10034 net.cpp:137] Memory required for data: 923449344
I0423 08:37:40.223637 10034 layer_factory.hpp:77] Creating layer relu7
I0423 08:37:40.223646 10034 net.cpp:84] Creating Layer relu7
I0423 08:37:40.223650 10034 net.cpp:406] relu7 <- fc7
I0423 08:37:40.223659 10034 net.cpp:367] relu7 -> fc7 (in-place)
I0423 08:37:40.224052 10034 net.cpp:122] Setting up relu7
I0423 08:37:40.224061 10034 net.cpp:129] Top shape: 128 4096 (524288)
I0423 08:37:40.224063 10034 net.cpp:137] Memory required for data: 925546496
I0423 08:37:40.224067 10034 layer_factory.hpp:77] Creating layer drop7
I0423 08:37:40.224073 10034 net.cpp:84] Creating Layer drop7
I0423 08:37:40.224077 10034 net.cpp:406] drop7 <- fc7
I0423 08:37:40.224102 10034 net.cpp:367] drop7 -> fc7 (in-place)
I0423 08:37:40.224125 10034 net.cpp:122] Setting up drop7
I0423 08:37:40.224133 10034 net.cpp:129] Top shape: 128 4096 (524288)
I0423 08:37:40.224135 10034 net.cpp:137] Memory required for data: 927643648
I0423 08:37:40.224139 10034 layer_factory.hpp:77] Creating layer fc8
I0423 08:37:40.224145 10034 net.cpp:84] Creating Layer fc8
I0423 08:37:40.224148 10034 net.cpp:406] fc8 <- fc7
I0423 08:37:40.224154 10034 net.cpp:380] fc8 -> fc8
I0423 08:37:40.237139 10034 net.cpp:122] Setting up fc8
I0423 08:37:40.237154 10034 net.cpp:129] Top shape: 128 196 (25088)
I0423 08:37:40.237156 10034 net.cpp:137] Memory required for data: 927744000
I0423 08:37:40.237164 10034 layer_factory.hpp:77] Creating layer loss
I0423 08:37:40.237171 10034 net.cpp:84] Creating Layer loss
I0423 08:37:40.237174 10034 net.cpp:406] loss <- fc8
I0423 08:37:40.237179 10034 net.cpp:406] loss <- label
I0423 08:37:40.237186 10034 net.cpp:380] loss -> loss
I0423 08:37:40.237195 10034 layer_factory.hpp:77] Creating layer loss
…
I0423 08:37:40.661710 10034 net.cpp:294] The NetState phase (1) differed from the phase (0) specified by a rule in layer train-data
I0423 08:37:40.662075 10034 net.cpp:51] Initializing net from parameters:
state {
phase: TEST
}
layer {
name: "val-data"
type: "Data"
top: "data"
top: "label"
include {
phase: TEST
}
transform_param {
crop_size: 227
mean_file: "/mnt/bigdisk/DIGITS-MAN-3/digits/jobs/20210421-230320-902c/mean.binaryproto"
}
data_param {
source: "/mnt/bigdisk/DIGITS-MAN-3/digits/jobs/20210421-230320-902c/val_db"
batch_size: 32
backend: LMDB
}
}
layer {
name: "conv1"
type: "Convolution"
bottom: "data"
top: "conv1"
param {
lr_mult: 1
decay_mult: 1
}
param {
lr_mult: 2
decay_mult: 0
}
convolution_param {
num_output: 96
kernel_size: 11
stride: 4
weight_filler {
type: "gaussian"
std: 0.01
}
bias_filler {
type: "constant"
value: 0
}
}
}
layer {
name: "relu1"
type: "ReLU"
bottom: "conv1"
top: "conv1"
}
layer {
name: "norm1"
type: "LRN"
bottom: "conv1"
top: "norm1"
lrn_param {
local_size: 5
alpha: 0.0001
beta: 0.75
}
}
layer {
name: "pool1"
type: "Pooling"
bottom: "norm1"
top: "pool1"
pooling_param {
pool: MAX
kernel_size: 3
stride: 2
}
}
layer {
name: "conv2"
type: "Convolution"
bottom: "pool1"
top: "conv2"
param {
lr_mult: 1
decay_mult: 1
}
param {
lr_mult: 2
decay_mult: 0
}
convolution_param {
num_output: 256
pad: 2
kernel_size: 9
group: 2
weight_filler {
type: "gaussian"
std: 0.01
}
bias_filler {
type: "constant"
value: 0.1
}
}
}
layer {
name: "relu2"
type: "ReLU"
bottom: "conv2"
top: "conv2"
}
layer {
name: "norm2"
type: "LRN"
bottom: "conv2"
top: "norm2"
lrn_param {
local_size: 5
alpha: 0.0001
beta: 0.75
}
}
layer {
name: "pool2"
type: "Pooling"
bottom: "norm2"
top: "pool2"
pooling_param {
pool: MAX
kernel_size: 3
stride: 2
}
}
layer {
name: "conv3"
type: "Convolution"
bottom: "pool2"
top: "conv3"
param {
lr_mult: 1
decay_mult: 1
}
param {
lr_mult: 2
decay_mult: 0
}
convolution_param {
num_output: 384
pad: 1
kernel_size: 3
weight_filler {
type: "gaussian"
std: 0.01
}
bias_filler {
type: "constant"
value: 0
}
}
}
layer {
name: "relu3"
type: "ReLU"
bottom: "conv3"
top: "conv3"
}
layer {
name: "conv4"
type: "Convolution"
bottom: "conv3"
top: "conv4"
param {
lr_mult: 1
decay_mult: 1
}
param {
lr_mult: 2
decay_mult: 0
}
convolution_param {
num_output: 384
pad: 1
kernel_size: 3
group: 2
weight_filler {
type: "gaussian"
std: 0.01
}
bias_filler {
type: "constant"
value: 0.1
}
}
}
layer {
name: "relu4"
type: "ReLU"
bottom: "conv4"
top: "conv4"
}
layer {
name: "conv5"
type: "Convolution"
bottom: "conv4"
top: "conv5"
param {
lr_mult: 1
decay_mult: 1
}
param {
lr_mult: 2
decay_mult: 0
}
convolution_param {
num_output: 256
pad: 1
kernel_size: 3
group: 2
weight_filler {
type: "gaussian"
std: 0.01
}
bias_filler {
type: "constant"
value: 0.1
}
}
}
layer {
name: "relu5"
type: "ReLU"
bottom: "conv5"
top: "conv5"
}
layer {
name: "pool5"
type: "Pooling"
bottom: "conv5"
top: "pool5"
pooling_param {
pool: MAX
kernel_size: 3
stride: 2
}
}
layer {
name: "fc6"
type: "InnerProduct"
bottom: "pool5"
top: "fc6"
param {
lr_mult: 1
decay_mult: 1
}
param {
lr_mult: 2
decay_mult: 0
}
inner_product_param {
num_output: 4096
weight_filler {
type: "gaussian"
std: 0.005
}
bias_filler {
type: "constant"
value: 0.1
}
}
}
layer {
name: "relu6"
type: "ReLU"
bottom: "fc6"
top: "fc6"
}
layer {
name: "drop6"
type: "Dropout"
bottom: "fc6"
top: "fc6"
dropout_param {
dropout_ratio: 0.5
}
}
layer {
name: "fc7"
type: "InnerProduct"
bottom: "fc6"
top: "fc7"
param {
lr_mult: 1
decay_mult: 1
}
param {
lr_mult: 2
decay_mult: 0
}
inner_product_param {
num_output: 4096
weight_filler {
type: "gaussian"
std: 0.005
}
bias_filler {
type: "constant"
value: 0.1
}
}
}
layer {
name: "relu7"
type: "ReLU"
bottom: "fc7"
top: "fc7"
}
layer {
name: "drop7"
type: "Dropout"
bottom: "fc7"
top: "fc7"
dropout_param {
dropout_ratio: 0.5
}
}
layer {
name: "fc8"
type: "InnerProduct"
bottom: "fc7"
top: "fc8"
param {
lr_mult: 1
decay_mult: 1
}
param {
lr_mult: 2
decay_mult: 0
}
inner_product_param {
num_output: 196
weight_filler {
type: "gaussian"
std: 0.01
}
bias_filler {
type: "constant"
value: 0
}
}
}
layer {
name: "accuracy"
type: "Accuracy"
bottom: "fc8"
bottom: "label"
top: "accuracy"
include {
phase: TEST
}
}
layer {
name: "loss"
type: "SoftmaxWithLoss"
bottom: "fc8"
bottom: "label"
top: "loss"
}
I0423 08:37:40.662322 10034 layer_factory.hpp:77] Creating layer val-data
I0423 08:37:58.018695 10034 db_lmdb.cpp:35] Opened lmdb /mnt/bigdisk/DIGITS-MAN-3/digits/jobs/20210421-230320-902c/val_db
I0423 08:37:58.019582 10034 net.cpp:84] Creating Layer val-data
I0423 08:37:58.019613 10034 net.cpp:380] val-data -> data
I0423 08:37:58.019640 10034 net.cpp:380] val-data -> label
I0423 08:37:58.019659 10034 data_transformer.cpp:25] Loading mean file from: /mnt/bigdisk/DIGITS-MAN-3/digits/jobs/20210421-230320-902c/mean.binaryproto
I0423 08:37:58.065132 10034 data_layer.cpp:45] output data size: 32,3,227,227
I0423 08:37:58.105868 10034 net.cpp:122] Setting up val-data
I0423 08:37:58.105892 10034 net.cpp:129] Top shape: 32 3 227 227 (4946784)
I0423 08:37:58.105898 10034 net.cpp:129] Top shape: 32 (32)
I0423 08:37:58.105901 10034 net.cpp:137] Memory required for data: 19787264
I0423 08:37:58.105909 10034 layer_factory.hpp:77] Creating layer label_val-data_1_split
I0423 08:37:58.105922 10034 net.cpp:84] Creating Layer label_val-data_1_split
I0423 08:37:58.105928 10034 net.cpp:406] label_val-data_1_split <- label
I0423 08:37:58.105937 10034 net.cpp:380] label_val-data_1_split -> label_val-data_1_split_0
I0423 08:37:58.105947 10034 net.cpp:380] label_val-data_1_split -> label_val-data_1_split_1
I0423 08:37:58.106019 10034 net.cpp:122] Setting up label_val-data_1_split
I0423 08:37:58.106026 10034 net.cpp:129] Top shape: 32 (32)
I0423 08:37:58.106031 10034 net.cpp:129] Top shape: 32 (32)
I0423 08:37:58.106034 10034 net.cpp:137] Memory required for data: 19787520
I0423 08:37:58.106038 10034 layer_factory.hpp:77] Creating layer conv1
I0423 08:37:58.106051 10034 net.cpp:84] Creating Layer conv1
I0423 08:37:58.106055 10034 net.cpp:406] conv1 <- data
I0423 08:37:58.106062 10034 net.cpp:380] conv1 -> conv1
I0423 08:37:58.108310 10034 net.cpp:122] Setting up conv1
I0423 08:37:58.108323 10034 net.cpp:129] Top shape: 32 96 55 55 (9292800)
I0423 08:37:58.108327 10034 net.cpp:137] Memory required for data: 56958720
I0423 08:37:58.108340 10034 layer_factory.hpp:77] Creating layer relu1
I0423 08:37:58.108346 10034 net.cpp:84] Creating Layer relu1
I0423 08:37:58.108351 10034 net.cpp:406] relu1 <- conv1
I0423 08:37:58.108357 10034 net.cpp:367] relu1 -> conv1 (in-place)
I0423 08:37:58.108747 10034 net.cpp:122] Setting up relu1
I0423 08:37:58.108757 10034 net.cpp:129] Top shape: 32 96 55 55 (9292800)
I0423 08:37:58.108759 10034 net.cpp:137] Memory required for data: 94129920
I0423 08:37:58.108764 10034 layer_factory.hpp:77] Creating layer norm1
I0423 08:37:58.108773 10034 net.cpp:84] Creating Layer norm1
I0423 08:37:58.108777 10034 net.cpp:406] norm1 <- conv1
I0423 08:37:58.108783 10034 net.cpp:380] norm1 -> norm1
I0423 08:37:58.110787 10034 net.cpp:122] Setting up norm1
I0423 08:37:58.110800 10034 net.cpp:129] Top shape: 32 96 55 55 (9292800)
I0423 08:37:58.110803 10034 net.cpp:137] Memory required for data: 131301120
I0423 08:37:58.110808 10034 layer_factory.hpp:77] Creating layer pool1
I0423 08:37:58.110816 10034 net.cpp:84] Creating Layer pool1
I0423 08:37:58.110821 10034 net.cpp:406] pool1 <- norm1
I0423 08:37:58.110826 10034 net.cpp:380] pool1 -> pool1
I0423 08:37:58.110862 10034 net.cpp:122] Setting up pool1
I0423 08:37:58.110868 10034 net.cpp:129] Top shape: 32 96 27 27 (2239488)
I0423 08:37:58.110872 10034 net.cpp:137] Memory required for data: 140259072
I0423 08:37:58.110875 10034 layer_factory.hpp:77] Creating layer conv2
I0423 08:37:58.110884 10034 net.cpp:84] Creating Layer conv2
I0423 08:37:58.110888 10034 net.cpp:406] conv2 <- pool1
I0423 08:37:58.110919 10034 net.cpp:380] conv2 -> conv2
I0423 08:37:58.126718 10034 net.cpp:122] Setting up conv2
I0423 08:37:58.126734 10034 net.cpp:129] Top shape: 32 256 23 23 (4333568)
I0423 08:37:58.126739 10034 net.cpp:137] Memory required for data: 157593344
I0423 08:37:58.126749 10034 layer_factory.hpp:77] Creating layer relu2
I0423 08:37:58.126758 10034 net.cpp:84] Creating Layer relu2
I0423 08:37:58.126762 10034 net.cpp:406] relu2 <- conv2
I0423 08:37:58.126770 10034 net.cpp:367] relu2 -> conv2 (in-place)
I0423 08:37:58.127332 10034 net.cpp:122] Setting up relu2
I0423 08:37:58.127343 10034 net.cpp:129] Top shape: 32 256 23 23 (4333568)
I0423 08:37:58.127347 10034 net.cpp:137] Memory required for data: 174927616
I0423 08:37:58.127351 10034 layer_factory.hpp:77] Creating layer norm2
I0423 08:37:58.127362 10034 net.cpp:84] Creating Layer norm2
I0423 08:37:58.127367 10034 net.cpp:406] norm2 <- conv2
I0423 08:37:58.127374 10034 net.cpp:380] norm2 -> norm2
I0423 08:37:58.127966 10034 net.cpp:122] Setting up norm2
I0423 08:37:58.127976 10034 net.cpp:129] Top shape: 32 256 23 23 (4333568)
I0423 08:37:58.127980 10034 net.cpp:137] Memory required for data: 192261888
I0423 08:37:58.127985 10034 layer_factory.hpp:77] Creating layer pool2
I0423 08:37:58.127993 10034 net.cpp:84] Creating Layer pool2
I0423 08:37:58.127997 10034 net.cpp:406] pool2 <- norm2
I0423 08:37:58.128003 10034 net.cpp:380] pool2 -> pool2
I0423 08:37:58.128039 10034 net.cpp:122] Setting up pool2
I0423 08:37:58.128046 10034 net.cpp:129] Top shape: 32 256 11 11 (991232)
I0423 08:37:58.128049 10034 net.cpp:137] Memory required for data: 196226816
I0423 08:37:58.128053 10034 layer_factory.hpp:77] Creating layer conv3
I0423 08:37:58.128064 10034 net.cpp:84] Creating Layer conv3
I0423 08:37:58.128067 10034 net.cpp:406] conv3 <- pool2
I0423 08:37:58.128074 10034 net.cpp:380] conv3 -> conv3
I0423 08:37:58.140377 10034 net.cpp:122] Setting up conv3
I0423 08:37:58.140390 10034 net.cpp:129] Top shape: 32 384 11 11 (1486848)
I0423 08:37:58.140394 10034 net.cpp:137] Memory required for data: 202174208
I0423 08:37:58.140404 10034 layer_factory.hpp:77] Creating layer relu3
I0423 08:37:58.140411 10034 net.cpp:84] Creating Layer relu3
I0423 08:37:58.140415 10034 net.cpp:406] relu3 <- conv3
I0423 08:37:58.140424 10034 net.cpp:367] relu3 -> conv3 (in-place)
I0423 08:37:58.140980 10034 net.cpp:122] Setting up relu3
I0423 08:37:58.140990 10034 net.cpp:129] Top shape: 32 384 11 11 (1486848)
I0423 08:37:58.140993 10034 net.cpp:137] Memory required for data: 208121600
I0423 08:37:58.140998 10034 layer_factory.hpp:77] Creating layer conv4
I0423 08:37:58.141009 10034 net.cpp:84] Creating Layer conv4
I0423 08:37:58.141013 10034 net.cpp:406] conv4 <- conv3
I0423 08:37:58.141021 10034 net.cpp:380] conv4 -> conv4
I0423 08:37:58.151825 10034 net.cpp:122] Setting up conv4
I0423 08:37:58.151839 10034 net.cpp:129] Top shape: 32 384 11 11 (1486848)
I0423 08:37:58.151842 10034 net.cpp:137] Memory required for data: 214068992
I0423 08:37:58.151850 10034 layer_factory.hpp:77] Creating layer relu4
I0423 08:37:58.151860 10034 net.cpp:84] Creating Layer relu4
I0423 08:37:58.151865 10034 net.cpp:406] relu4 <- conv4
I0423 08:37:58.151870 10034 net.cpp:367] relu4 -> conv4 (in-place)
I0423 08:37:58.152248 10034 net.cpp:122] Setting up relu4
I0423 08:37:58.152257 10034 net.cpp:129] Top shape: 32 384 11 11 (1486848)
I0423 08:37:58.152261 10034 net.cpp:137] Memory required for data: 220016384
I0423 08:37:58.152264 10034 layer_factory.hpp:77] Creating layer conv5
I0423 08:37:58.152274 10034 net.cpp:84] Creating Layer conv5
I0423 08:37:58.152278 10034 net.cpp:406] conv5 <- conv4
I0423 08:37:58.152285 10034 net.cpp:380] conv5 -> conv5
I0423 08:37:58.162340 10034 net.cpp:122] Setting up conv5
I0423 08:37:58.162353 10034 net.cpp:129] Top shape: 32 256 11 11 (991232)
I0423 08:37:58.162356 10034 net.cpp:137] Memory required for data: 223981312
I0423 08:37:58.162367 10034 layer_factory.hpp:77] Creating layer relu5
I0423 08:37:58.162375 10034 net.cpp:84] Creating Layer relu5
I0423 08:37:58.162379 10034 net.cpp:406] relu5 <- conv5
I0423 08:37:58.162405 10034 net.cpp:367] relu5 -> conv5 (in-place)
I0423 08:37:58.163089 10034 net.cpp:122] Setting up relu5
I0423 08:37:58.163098 10034 net.cpp:129] Top shape: 32 256 11 11 (991232)
I0423 08:37:58.163101 10034 net.cpp:137] Memory required for data: 227946240
I0423 08:37:58.163105 10034 layer_factory.hpp:77] Creating layer pool5
I0423 08:37:58.163115 10034 net.cpp:84] Creating Layer pool5
I0423 08:37:58.163120 10034 net.cpp:406] pool5 <- conv5
I0423 08:37:58.163125 10034 net.cpp:380] pool5 -> pool5
I0423 08:37:58.163168 10034 net.cpp:122] Setting up pool5
I0423 08:37:58.163174 10034 net.cpp:129] Top shape: 32 256 5 5 (204800)
I0423 08:37:58.163178 10034 net.cpp:137] Memory required for data: 228765440
I0423 08:37:58.163182 10034 layer_factory.hpp:77] Creating layer fc6
I0423 08:37:58.163188 10034 net.cpp:84] Creating Layer fc6
I0423 08:37:58.163192 10034 net.cpp:406] fc6 <- pool5
I0423 08:37:58.163198 10034 net.cpp:380] fc6 -> fc6
I0423 08:37:58.434348 10034 net.cpp:122] Setting up fc6
I0423 08:37:58.434370 10034 net.cpp:129] Top shape: 32 4096 (131072)
I0423 08:37:58.434374 10034 net.cpp:137] Memory required for data: 229289728
I0423 08:37:58.434384 10034 layer_factory.hpp:77] Creating layer relu6
I0423 08:37:58.434394 10034 net.cpp:84] Creating Layer relu6
I0423 08:37:58.434399 10034 net.cpp:406] relu6 <- fc6
I0423 08:37:58.434406 10034 net.cpp:367] relu6 -> fc6 (in-place)
I0423 08:37:58.435184 10034 net.cpp:122] Setting up relu6
I0423 08:37:58.435194 10034 net.cpp:129] Top shape: 32 4096 (131072)
I0423 08:37:58.435197 10034 net.cpp:137] Memory required for data: 229814016
I0423 08:37:58.435201 10034 layer_factory.hpp:77] Creating layer drop6
I0423 08:37:58.435209 10034 net.cpp:84] Creating Layer drop6
I0423 08:37:58.435212 10034 net.cpp:406] drop6 <- fc6
I0423 08:37:58.435220 10034 net.cpp:367] drop6 -> fc6 (in-place)
I0423 08:37:58.435246 10034 net.cpp:122] Setting up drop6
I0423 08:37:58.435251 10034 net.cpp:129] Top shape: 32 4096 (131072)
I0423 08:37:58.435256 10034 net.cpp:137] Memory required for data: 230338304
I0423 08:37:58.435258 10034 layer_factory.hpp:77] Creating layer fc7
I0423 08:37:58.435267 10034 net.cpp:84] Creating Layer fc7
I0423 08:37:58.435271 10034 net.cpp:406] fc7 <- fc6
I0423 08:37:58.435276 10034 net.cpp:380] fc7 -> fc7
I0423 08:37:58.608161 10034 net.cpp:122] Setting up fc7
I0423 08:37:58.608179 10034 net.cpp:129] Top shape: 32 4096 (131072)
I0423 08:37:58.608183 10034 net.cpp:137] Memory required for data: 230862592
I0423 08:37:58.608192 10034 layer_factory.hpp:77] Creating layer relu7
I0423 08:37:58.608201 10034 net.cpp:84] Creating Layer relu7
I0423 08:37:58.608206 10034 net.cpp:406] relu7 <- fc7
I0423 08:37:58.608213 10034 net.cpp:367] relu7 -> fc7 (in-place)
I0423 08:37:58.608669 10034 net.cpp:122] Setting up relu7
I0423 08:37:58.608680 10034 net.cpp:129] Top shape: 32 4096 (131072)
I0423 08:37:58.608682 10034 net.cpp:137] Memory required for data: 231386880
I0423 08:37:58.608686 10034 layer_factory.hpp:77] Creating layer drop7
I0423 08:37:58.608692 10034 net.cpp:84] Creating Layer drop7
I0423 08:37:58.608696 10034 net.cpp:406] drop7 <- fc7
I0423 08:37:58.608701 10034 net.cpp:367] drop7 -> fc7 (in-place)
I0423 08:37:58.608727 10034 net.cpp:122] Setting up drop7
I0423 08:37:58.608733 10034 net.cpp:129] Top shape: 32 4096 (131072)
I0423 08:37:58.608736 10034 net.cpp:137] Memory required for data: 231911168
I0423 08:37:58.608739 10034 layer_factory.hpp:77] Creating layer fc8
I0423 08:37:58.608747 10034 net.cpp:84] Creating Layer fc8
I0423 08:37:58.608750 10034 net.cpp:406] fc8 <- fc7
I0423 08:37:58.608755 10034 net.cpp:380] fc8 -> fc8
I0423 08:37:58.617208 10034 net.cpp:122] Setting up fc8
I0423 08:37:58.617219 10034 net.cpp:129] Top shape: 32 196 (6272)
I0423 08:37:58.617223 10034 net.cpp:137] Memory required for data: 231936256
I0423 08:37:58.617230 10034 layer_factory.hpp:77] Creating layer fc8_fc8_0_split
I0423 08:37:58.617236 10034 net.cpp:84] Creating Layer fc8_fc8_0_split
I0423 08:37:58.617240 10034 net.cpp:406] fc8_fc8_0_split <- fc8
I0423 08:37:58.617265 10034 net.cpp:380] fc8_fc8_0_split -> fc8_fc8_0_split_0
I0423 08:37:58.617273 10034 net.cpp:380] fc8_fc8_0_split -> fc8_fc8_0_split_1
I0423 08:37:58.617311 10034 net.cpp:122] Setting up fc8_fc8_0_split
I0423 08:37:58.617316 10034 net.cpp:129] Top shape: 32 196 (6272)
I0423 08:37:58.617319 10034 net.cpp:129] Top shape: 32 196 (6272)
I0423 08:37:58.617322 10034 net.cpp:137] Memory required for data: 231986432
I0423 08:37:58.617326 10034 layer_factory.hpp:77] Creating layer accuracy
I0423 08:37:58.617333 10034 net.cpp:84] Creating Layer accuracy
I0423 08:37:58.617336 10034 net.cpp:406] accuracy <- fc8_fc8_0_split_0
I0423 08:37:58.617341 10034 net.cpp:406] accuracy <- label_val-data_1_split_0
I0423 08:37:58.617347 10034 net.cpp:380] accuracy -> accuracy
…
