…
I0419 11:42:27.899816 18485 net.cpp:294] The NetState phase (0) differed from the phase (1) specified by a rule in layer accuracy
I0419 11:42:27.899955 18485 net.cpp:51] Initializing net from parameters:
state {
phase: TRAIN
level: 0
stage: ""
}
layer {
name: "train-data"
type: "Data"
top: "data"
top: "label"
include {
phase: TRAIN
}
transform_param {
mirror: true
crop_size: 227
mean_file: "/mnt/bigdisk/DIGITS-AMB-2/digits/jobs/20210419-113904-3026/mean.binaryproto"
}
data_param {
source: "/mnt/bigdisk/DIGITS-AMB-2/digits/jobs/20210419-113904-3026/train_db"
batch_size: 128
backend: LMDB
}
}
layer {
name: "conv1"
type: "Convolution"
bottom: "data"
top: "conv1"
param {
lr_mult: 1
decay_mult: 1
}
param {
lr_mult: 2
decay_mult: 0
}
convolution_param {
num_output: 96
kernel_size: 11
stride: 4
weight_filler {
type: "gaussian"
std: 0.01
}
bias_filler {
type: "constant"
value: 0
}
}
}
layer {
name: "relu1"
type: "ReLU"
bottom: "conv1"
top: "conv1"
}
layer {
name: "norm1"
type: "LRN"
bottom: "conv1"
top: "norm1"
lrn_param {
local_size: 5
alpha: 0.0001
beta: 0.75
}
}
layer {
name: "pool1"
type: "Pooling"
bottom: "norm1"
top: "pool1"
pooling_param {
pool: MAX
kernel_size: 3
stride: 2
}
}
layer {
name: "conv2"
type: "Convolution"
bottom: "pool1"
top: "conv2"
param {
lr_mult: 1
decay_mult: 1
}
param {
lr_mult: 2
decay_mult: 0
}
convolution_param {
num_output: 256
pad: 2
kernel_size: 5
group: 2
weight_filler {
type: "gaussian"
std: 0.01
}
bias_filler {
type: "constant"
value: 0.1
}
}
}
layer {
name: "relu2"
type: "ReLU"
bottom: "conv2"
top: "conv2"
}
layer {
name: "norm2"
type: "LRN"
bottom: "conv2"
top: "norm2"
lrn_param {
local_size: 5
alpha: 0.0001
beta: 0.75
}
}
layer {
name: "pool2"
type: "Pooling"
bottom: "norm2"
top: "pool2"
pooling_param {
pool: MAX
kernel_size: 3
stride: 2
}
}
layer {
name: "conv3"
type: "Convolution"
bottom: "pool2"
top: "conv3"
param {
lr_mult: 1
decay_mult: 1
}
param {
lr_mult: 2
decay_mult: 0
}
convolution_param {
num_output: 384
pad: 1
kernel_size: 3
weight_filler {
type: "gaussian"
std: 0.01
}
bias_filler {
type: "constant"
value: 0
}
}
}
layer {
name: "relu3"
type: "ReLU"
bottom: "conv3"
top: "conv3"
}
layer {
name: "conv4"
type: "Convolution"
bottom: "conv3"
top: "conv4"
param {
lr_mult: 1
decay_mult: 1
}
param {
lr_mult: 2
decay_mult: 0
}
convolution_param {
num_output: 384
pad: 1
kernel_size: 3
group: 2
weight_filler {
type: "gaussian"
std: 0.01
}
bias_filler {
type: "constant"
value: 0.1
}
}
}
layer {
name: "relu4"
type: "ReLU"
bottom: "conv4"
top: "conv4"
}
layer {
name: "conv5"
type: "Convolution"
bottom: "conv4"
top: "conv5"
param {
lr_mult: 1
decay_mult: 1
}
param {
lr_mult: 2
decay_mult: 0
}
convolution_param {
num_output: 256
pad: 1
kernel_size: 3
group: 2
weight_filler {
type: "gaussian"
std: 0.01
}
bias_filler {
type: "constant"
value: 0.1
}
}
}
layer {
name: "relu5"
type: "ReLU"
bottom: "conv5"
top: "conv5"
}
layer {
name: "pool5"
type: "Pooling"
bottom: "conv5"
top: "pool5"
pooling_param {
pool: MAX
kernel_size: 3
stride: 2
}
}
layer {
name: "fc6"
type: "InnerProduct"
bottom: "pool5"
top: "fc6"
param {
lr_mult: 1
decay_mult: 1
}
param {
lr_mult: 2
decay_mult: 0
}
inner_product_param {
num_output: 4096
weight_filler {
type: "gaussian"
std: 0.005
}
bias_filler {
type: "constant"
value: 0.1
}
}
}
layer {
name: "relu6"
type: "ReLU"
bottom: "fc6"
top: "fc6"
}
layer {
name: "drop6"
type: "Dropout"
bottom: "fc6"
top: "fc6"
dropout_param {
dropout_ratio: 0.5
}
}
layer {
name: "fc7"
type: "InnerProduct"
bottom: "fc6"
top: "fc7"
param {
lr_mult: 1
decay_mult: 1
}
param {
lr_mult: 2
decay_mult: 0
}
inner_product_param {
num_output: 4096
weight_filler {
type: "gaussian"
std: 0.005
}
bias_filler {
type: "constant"
value: 0.1
}
}
}
layer {
name: "relu7"
type: "ReLU"
bottom: "fc7"
top: "fc7"
}
layer {
name: "drop7"
type: "Dropout"
bottom: "fc7"
top: "fc7"
dropout_param {
dropout_ratio: 0.5
}
}
layer {
name: "fc8"
type: "InnerProduct"
bottom: "fc7"
top: "fc8"
param {
lr_mult: 1
decay_mult: 1
}
param {
lr_mult: 2
decay_mult: 0
}
inner_product_param {
num_output: 196
weight_filler {
type: "gaussian"
std: 0.01
}
bias_filler {
type: "constant"
value: 0
}
}
}
layer {
name: "loss"
type: "SoftmaxWithLoss"
bottom: "fc8"
bottom: "label"
top: "loss"
}
I0419 11:42:27.900036 18485 layer_factory.hpp:77] Creating layer train-data
I0419 11:42:27.902282 18485 db_lmdb.cpp:35] Opened lmdb /mnt/bigdisk/DIGITS-AMB-2/digits/jobs/20210419-113904-3026/train_db
I0419 11:42:27.903023 18485 net.cpp:84] Creating Layer train-data
I0419 11:42:27.903034 18485 net.cpp:380] train-data -> data
I0419 11:42:27.903053 18485 net.cpp:380] train-data -> label
I0419 11:42:27.903065 18485 data_transformer.cpp:25] Loading mean file from: /mnt/bigdisk/DIGITS-AMB-2/digits/jobs/20210419-113904-3026/mean.binaryproto
I0419 11:42:27.907181 18485 data_layer.cpp:45] output data size: 128,3,227,227
I0419 11:42:28.044911 18485 net.cpp:122] Setting up train-data
I0419 11:42:28.044937 18485 net.cpp:129] Top shape: 128 3 227 227 (19787136)
I0419 11:42:28.044945 18485 net.cpp:129] Top shape: 128 (128)
I0419 11:42:28.044948 18485 net.cpp:137] Memory required for data: 79149056
I0419 11:42:28.044960 18485 layer_factory.hpp:77] Creating layer conv1
I0419 11:42:28.044991 18485 net.cpp:84] Creating Layer conv1
I0419 11:42:28.045001 18485 net.cpp:406] conv1 <- data
I0419 11:42:28.045017 18485 net.cpp:380] conv1 -> conv1
I0419 11:42:28.957513 18485 net.cpp:122] Setting up conv1
I0419 11:42:28.957533 18485 net.cpp:129] Top shape: 128 96 55 55 (37171200)
I0419 11:42:28.957537 18485 net.cpp:137] Memory required for data: 227833856
I0419 11:42:28.957556 18485 layer_factory.hpp:77] Creating layer relu1
I0419 11:42:28.957566 18485 net.cpp:84] Creating Layer relu1
I0419 11:42:28.957569 18485 net.cpp:406] relu1 <- conv1
I0419 11:42:28.957576 18485 net.cpp:367] relu1 -> conv1 (in-place)
I0419 11:42:28.957895 18485 net.cpp:122] Setting up relu1
I0419 11:42:28.957906 18485 net.cpp:129] Top shape: 128 96 55 55 (37171200)
I0419 11:42:28.957908 18485 net.cpp:137] Memory required for data: 376518656
I0419 11:42:28.957911 18485 layer_factory.hpp:77] Creating layer norm1
I0419 11:42:28.957921 18485 net.cpp:84] Creating Layer norm1
I0419 11:42:28.957923 18485 net.cpp:406] norm1 <- conv1
I0419 11:42:28.957944 18485 net.cpp:380] norm1 -> norm1
I0419 11:42:28.958469 18485 net.cpp:122] Setting up norm1
I0419 11:42:28.958479 18485 net.cpp:129] Top shape: 128 96 55 55 (37171200)
I0419 11:42:28.958482 18485 net.cpp:137] Memory required for data: 525203456
I0419 11:42:28.958485 18485 layer_factory.hpp:77] Creating layer pool1
I0419 11:42:28.958493 18485 net.cpp:84] Creating Layer pool1
I0419 11:42:28.958496 18485 net.cpp:406] pool1 <- norm1
I0419 11:42:28.958501 18485 net.cpp:380] pool1 -> pool1
I0419 11:42:28.958532 18485 net.cpp:122] Setting up pool1
I0419 11:42:28.958539 18485 net.cpp:129] Top shape: 128 96 27 27 (8957952)
I0419 11:42:28.958541 18485 net.cpp:137] Memory required for data: 561035264
I0419 11:42:28.958544 18485 layer_factory.hpp:77] Creating layer conv2
I0419 11:42:28.958554 18485 net.cpp:84] Creating Layer conv2
I0419 11:42:28.958555 18485 net.cpp:406] conv2 <- pool1
I0419 11:42:28.958560 18485 net.cpp:380] conv2 -> conv2
I0419 11:42:28.966010 18485 net.cpp:122] Setting up conv2
I0419 11:42:28.966027 18485 net.cpp:129] Top shape: 128 256 27 27 (23887872)
I0419 11:42:28.966030 18485 net.cpp:137] Memory required for data: 656586752
I0419 11:42:28.966042 18485 layer_factory.hpp:77] Creating layer relu2
I0419 11:42:28.966048 18485 net.cpp:84] Creating Layer relu2
I0419 11:42:28.966053 18485 net.cpp:406] relu2 <- conv2
I0419 11:42:28.966058 18485 net.cpp:367] relu2 -> conv2 (in-place)
I0419 11:42:28.966555 18485 net.cpp:122] Setting up relu2
I0419 11:42:28.966565 18485 net.cpp:129] Top shape: 128 256 27 27 (23887872)
I0419 11:42:28.966568 18485 net.cpp:137] Memory required for data: 752138240
I0419 11:42:28.966571 18485 layer_factory.hpp:77] Creating layer norm2
I0419 11:42:28.966578 18485 net.cpp:84] Creating Layer norm2
I0419 11:42:28.966581 18485 net.cpp:406] norm2 <- conv2
I0419 11:42:28.966586 18485 net.cpp:380] norm2 -> norm2
I0419 11:42:28.966912 18485 net.cpp:122] Setting up norm2
I0419 11:42:28.966920 18485 net.cpp:129] Top shape: 128 256 27 27 (23887872)
I0419 11:42:28.966923 18485 net.cpp:137] Memory required for data: 847689728
I0419 11:42:28.966926 18485 layer_factory.hpp:77] Creating layer pool2
I0419 11:42:28.966934 18485 net.cpp:84] Creating Layer pool2
I0419 11:42:28.966938 18485 net.cpp:406] pool2 <- norm2
I0419 11:42:28.966943 18485 net.cpp:380] pool2 -> pool2
I0419 11:42:28.966966 18485 net.cpp:122] Setting up pool2
I0419 11:42:28.966971 18485 net.cpp:129] Top shape: 128 256 13 13 (5537792)
I0419 11:42:28.966974 18485 net.cpp:137] Memory required for data: 869840896
I0419 11:42:28.966976 18485 layer_factory.hpp:77] Creating layer conv3
I0419 11:42:28.966985 18485 net.cpp:84] Creating Layer conv3
I0419 11:42:28.966989 18485 net.cpp:406] conv3 <- pool2
I0419 11:42:28.966993 18485 net.cpp:380] conv3 -> conv3
I0419 11:42:28.978863 18485 net.cpp:122] Setting up conv3
I0419 11:42:28.978879 18485 net.cpp:129] Top shape: 128 384 13 13 (8306688)
I0419 11:42:28.978883 18485 net.cpp:137] Memory required for data: 903067648
I0419 11:42:28.978894 18485 layer_factory.hpp:77] Creating layer relu3
I0419 11:42:28.978902 18485 net.cpp:84] Creating Layer relu3
I0419 11:42:28.978906 18485 net.cpp:406] relu3 <- conv3
I0419 11:42:28.978912 18485 net.cpp:367] relu3 -> conv3 (in-place)
I0419 11:42:28.979431 18485 net.cpp:122] Setting up relu3
I0419 11:42:28.979441 18485 net.cpp:129] Top shape: 128 384 13 13 (8306688)
I0419 11:42:28.979444 18485 net.cpp:137] Memory required for data: 936294400
I0419 11:42:28.979447 18485 layer_factory.hpp:77] Creating layer conv4
I0419 11:42:28.979456 18485 net.cpp:84] Creating Layer conv4
I0419 11:42:28.979460 18485 net.cpp:406] conv4 <- conv3
I0419 11:42:28.979465 18485 net.cpp:380] conv4 -> conv4
I0419 11:42:28.990517 18485 net.cpp:122] Setting up conv4
I0419 11:42:28.990535 18485 net.cpp:129] Top shape: 128 384 13 13 (8306688)
I0419 11:42:28.990538 18485 net.cpp:137] Memory required for data: 969521152
I0419 11:42:28.990548 18485 layer_factory.hpp:77] Creating layer relu4
I0419 11:42:28.990557 18485 net.cpp:84] Creating Layer relu4
I0419 11:42:28.990574 18485 net.cpp:406] relu4 <- conv4
I0419 11:42:28.990581 18485 net.cpp:367] relu4 -> conv4 (in-place)
I0419 11:42:28.991112 18485 net.cpp:122] Setting up relu4
I0419 11:42:28.991123 18485 net.cpp:129] Top shape: 128 384 13 13 (8306688)
I0419 11:42:28.991127 18485 net.cpp:137] Memory required for data: 1002747904
I0419 11:42:28.991130 18485 layer_factory.hpp:77] Creating layer conv5
I0419 11:42:28.991142 18485 net.cpp:84] Creating Layer conv5
I0419 11:42:28.991144 18485 net.cpp:406] conv5 <- conv4
I0419 11:42:28.991150 18485 net.cpp:380] conv5 -> conv5
I0419 11:42:29.000380 18485 net.cpp:122] Setting up conv5
I0419 11:42:29.000397 18485 net.cpp:129] Top shape: 128 256 13 13 (5537792)
I0419 11:42:29.000401 18485 net.cpp:137] Memory required for data: 1024899072
I0419 11:42:29.000412 18485 layer_factory.hpp:77] Creating layer relu5
I0419 11:42:29.000422 18485 net.cpp:84] Creating Layer relu5
I0419 11:42:29.000427 18485 net.cpp:406] relu5 <- conv5
I0419 11:42:29.000432 18485 net.cpp:367] relu5 -> conv5 (in-place)
I0419 11:42:29.000975 18485 net.cpp:122] Setting up relu5
I0419 11:42:29.000985 18485 net.cpp:129] Top shape: 128 256 13 13 (5537792)
I0419 11:42:29.000988 18485 net.cpp:137] Memory required for data: 1047050240
I0419 11:42:29.000991 18485 layer_factory.hpp:77] Creating layer pool5
I0419 11:42:29.000998 18485 net.cpp:84] Creating Layer pool5
I0419 11:42:29.001000 18485 net.cpp:406] pool5 <- conv5
I0419 11:42:29.001006 18485 net.cpp:380] pool5 -> pool5
I0419 11:42:29.001044 18485 net.cpp:122] Setting up pool5
I0419 11:42:29.001049 18485 net.cpp:129] Top shape: 128 256 6 6 (1179648)
I0419 11:42:29.001051 18485 net.cpp:137] Memory required for data: 1051768832
I0419 11:42:29.001055 18485 layer_factory.hpp:77] Creating layer fc6
I0419 11:42:29.001065 18485 net.cpp:84] Creating Layer fc6
I0419 11:42:29.001067 18485 net.cpp:406] fc6 <- pool5
I0419 11:42:29.001072 18485 net.cpp:380] fc6 -> fc6
I0419 11:42:29.384672 18485 net.cpp:122] Setting up fc6
I0419 11:42:29.384697 18485 net.cpp:129] Top shape: 128 4096 (524288)
I0419 11:42:29.384702 18485 net.cpp:137] Memory required for data: 1053865984
I0419 11:42:29.384717 18485 layer_factory.hpp:77] Creating layer relu6
I0419 11:42:29.384733 18485 net.cpp:84] Creating Layer relu6
I0419 11:42:29.384739 18485 net.cpp:406] relu6 <- fc6
I0419 11:42:29.384749 18485 net.cpp:367] relu6 -> fc6 (in-place)
I0419 11:42:29.385555 18485 net.cpp:122] Setting up relu6
I0419 11:42:29.385563 18485 net.cpp:129] Top shape: 128 4096 (524288)
I0419 11:42:29.385566 18485 net.cpp:137] Memory required for data: 1055963136
I0419 11:42:29.385569 18485 layer_factory.hpp:77] Creating layer drop6
I0419 11:42:29.385576 18485 net.cpp:84] Creating Layer drop6
I0419 11:42:29.385579 18485 net.cpp:406] drop6 <- fc6
I0419 11:42:29.385586 18485 net.cpp:367] drop6 -> fc6 (in-place)
I0419 11:42:29.385613 18485 net.cpp:122] Setting up drop6
I0419 11:42:29.385620 18485 net.cpp:129] Top shape: 128 4096 (524288)
I0419 11:42:29.385623 18485 net.cpp:137] Memory required for data: 1058060288
I0419 11:42:29.385627 18485 layer_factory.hpp:77] Creating layer fc7
I0419 11:42:29.385632 18485 net.cpp:84] Creating Layer fc7
I0419 11:42:29.385635 18485 net.cpp:406] fc7 <- fc6
I0419 11:42:29.385641 18485 net.cpp:380] fc7 -> fc7
I0419 11:42:29.558043 18485 net.cpp:122] Setting up fc7
I0419 11:42:29.558063 18485 net.cpp:129] Top shape: 128 4096 (524288)
I0419 11:42:29.558065 18485 net.cpp:137] Memory required for data: 1060157440
I0419 11:42:29.558074 18485 layer_factory.hpp:77] Creating layer relu7
I0419 11:42:29.558084 18485 net.cpp:84] Creating Layer relu7
I0419 11:42:29.558089 18485 net.cpp:406] relu7 <- fc7
I0419 11:42:29.558094 18485 net.cpp:367] relu7 -> fc7 (in-place)
I0419 11:42:29.558596 18485 net.cpp:122] Setting up relu7
I0419 11:42:29.558605 18485 net.cpp:129] Top shape: 128 4096 (524288)
I0419 11:42:29.558609 18485 net.cpp:137] Memory required for data: 1062254592
I0419 11:42:29.558611 18485 layer_factory.hpp:77] Creating layer drop7
I0419 11:42:29.558619 18485 net.cpp:84] Creating Layer drop7
I0419 11:42:29.558645 18485 net.cpp:406] drop7 <- fc7
I0419 11:42:29.558651 18485 net.cpp:367] drop7 -> fc7 (in-place)
I0419 11:42:29.558674 18485 net.cpp:122] Setting up drop7
I0419 11:42:29.558679 18485 net.cpp:129] Top shape: 128 4096 (524288)
I0419 11:42:29.558681 18485 net.cpp:137] Memory required for data: 1064351744
I0419 11:42:29.558684 18485 layer_factory.hpp:77] Creating layer fc8
I0419 11:42:29.558692 18485 net.cpp:84] Creating Layer fc8
I0419 11:42:29.558696 18485 net.cpp:406] fc8 <- fc7
I0419 11:42:29.558701 18485 net.cpp:380] fc8 -> fc8
I0419 11:42:29.566543 18485 net.cpp:122] Setting up fc8
I0419 11:42:29.566557 18485 net.cpp:129] Top shape: 128 196 (25088)
I0419 11:42:29.566560 18485 net.cpp:137] Memory required for data: 1064452096
I0419 11:42:29.566570 18485 layer_factory.hpp:77] Creating layer loss
I0419 11:42:29.566576 18485 net.cpp:84] Creating Layer loss
I0419 11:42:29.566579 18485 net.cpp:406] loss <- fc8
I0419 11:42:29.566584 18485 net.cpp:406] loss <- label
I0419 11:42:29.566593 18485 net.cpp:380] loss -> loss
I0419 11:42:29.566603 18485 layer_factory.hpp:77] Creating layer loss
…
I0419 11:42:29.568048 18485 net.cpp:294] The NetState phase (1) differed from the phase (0) specified by a rule in layer train-data
I0419 11:42:29.568181 18485 net.cpp:51] Initializing net from parameters:
state {
phase: TEST
}
layer {
name: "val-data"
type: "Data"
top: "data"
top: "label"
include {
phase: TEST
}
transform_param {
crop_size: 227
mean_file: "/mnt/bigdisk/DIGITS-AMB-2/digits/jobs/20210419-113904-3026/mean.binaryproto"
}
data_param {
source: "/mnt/bigdisk/DIGITS-AMB-2/digits/jobs/20210419-113904-3026/val_db"
batch_size: 32
backend: LMDB
}
}
layer {
name: "conv1"
type: "Convolution"
bottom: "data"
top: "conv1"
param {
lr_mult: 1
decay_mult: 1
}
param {
lr_mult: 2
decay_mult: 0
}
convolution_param {
num_output: 96
kernel_size: 11
stride: 4
weight_filler {
type: "gaussian"
std: 0.01
}
bias_filler {
type: "constant"
value: 0
}
}
}
layer {
name: "relu1"
type: "ReLU"
bottom: "conv1"
top: "conv1"
}
layer {
name: "norm1"
type: "LRN"
bottom: "conv1"
top: "norm1"
lrn_param {
local_size: 5
alpha: 0.0001
beta: 0.75
}
}
layer {
name: "pool1"
type: "Pooling"
bottom: "norm1"
top: "pool1"
pooling_param {
pool: MAX
kernel_size: 3
stride: 2
}
}
layer {
name: "conv2"
type: "Convolution"
bottom: "pool1"
top: "conv2"
param {
lr_mult: 1
decay_mult: 1
}
param {
lr_mult: 2
decay_mult: 0
}
convolution_param {
num_output: 256
pad: 2
kernel_size: 5
group: 2
weight_filler {
type: "gaussian"
std: 0.01
}
bias_filler {
type: "constant"
value: 0.1
}
}
}
layer {
name: "relu2"
type: "ReLU"
bottom: "conv2"
top: "conv2"
}
layer {
name: "norm2"
type: "LRN"
bottom: "conv2"
top: "norm2"
lrn_param {
local_size: 5
alpha: 0.0001
beta: 0.75
}
}
layer {
name: "pool2"
type: "Pooling"
bottom: "norm2"
top: "pool2"
pooling_param {
pool: MAX
kernel_size: 3
stride: 2
}
}
layer {
name: "conv3"
type: "Convolution"
bottom: "pool2"
top: "conv3"
param {
lr_mult: 1
decay_mult: 1
}
param {
lr_mult: 2
decay_mult: 0
}
convolution_param {
num_output: 384
pad: 1
kernel_size: 3
weight_filler {
type: "gaussian"
std: 0.01
}
bias_filler {
type: "constant"
value: 0
}
}
}
layer {
name: "relu3"
type: "ReLU"
bottom: "conv3"
top: "conv3"
}
layer {
name: "conv4"
type: "Convolution"
bottom: "conv3"
top: "conv4"
param {
lr_mult: 1
decay_mult: 1
}
param {
lr_mult: 2
decay_mult: 0
}
convolution_param {
num_output: 384
pad: 1
kernel_size: 3
group: 2
weight_filler {
type: "gaussian"
std: 0.01
}
bias_filler {
type: "constant"
value: 0.1
}
}
}
layer {
name: "relu4"
type: "ReLU"
bottom: "conv4"
top: "conv4"
}
layer {
name: "conv5"
type: "Convolution"
bottom: "conv4"
top: "conv5"
param {
lr_mult: 1
decay_mult: 1
}
param {
lr_mult: 2
decay_mult: 0
}
convolution_param {
num_output: 256
pad: 1
kernel_size: 3
group: 2
weight_filler {
type: "gaussian"
std: 0.01
}
bias_filler {
type: "constant"
value: 0.1
}
}
}
layer {
name: "relu5"
type: "ReLU"
bottom: "conv5"
top: "conv5"
}
layer {
name: "pool5"
type: "Pooling"
bottom: "conv5"
top: "pool5"
pooling_param {
pool: MAX
kernel_size: 3
stride: 2
}
}
layer {
name: "fc6"
type: "InnerProduct"
bottom: "pool5"
top: "fc6"
param {
lr_mult: 1
decay_mult: 1
}
param {
lr_mult: 2
decay_mult: 0
}
inner_product_param {
num_output: 4096
weight_filler {
type: "gaussian"
std: 0.005
}
bias_filler {
type: "constant"
value: 0.1
}
}
}
layer {
name: "relu6"
type: "ReLU"
bottom: "fc6"
top: "fc6"
}
layer {
name: "drop6"
type: "Dropout"
bottom: "fc6"
top: "fc6"
dropout_param {
dropout_ratio: 0.5
}
}
layer {
name: "fc7"
type: "InnerProduct"
bottom: "fc6"
top: "fc7"
param {
lr_mult: 1
decay_mult: 1
}
param {
lr_mult: 2
decay_mult: 0
}
inner_product_param {
num_output: 4096
weight_filler {
type: "gaussian"
std: 0.005
}
bias_filler {
type: "constant"
value: 0.1
}
}
}
layer {
name: "relu7"
type: "ReLU"
bottom: "fc7"
top: "fc7"
}
layer {
name: "drop7"
type: "Dropout"
bottom: "fc7"
top: "fc7"
dropout_param {
dropout_ratio: 0.5
}
}
layer {
name: "fc8"
type: "InnerProduct"
bottom: "fc7"
top: "fc8"
param {
lr_mult: 1
decay_mult: 1
}
param {
lr_mult: 2
decay_mult: 0
}
inner_product_param {
num_output: 196
weight_filler {
type: "gaussian"
std: 0.01
}
bias_filler {
type: "constant"
value: 0
}
}
}
layer {
name: "accuracy"
type: "Accuracy"
bottom: "fc8"
bottom: "label"
top: "accuracy"
include {
phase: TEST
}
}
layer {
name: "loss"
type: "SoftmaxWithLoss"
bottom: "fc8"
bottom: "label"
top: "loss"
}
I0419 11:42:29.568281 18485 layer_factory.hpp:77] Creating layer val-data
I0419 11:42:29.570487 18485 db_lmdb.cpp:35] Opened lmdb /mnt/bigdisk/DIGITS-AMB-2/digits/jobs/20210419-113904-3026/val_db
I0419 11:42:29.571197 18485 net.cpp:84] Creating Layer val-data
I0419 11:42:29.571206 18485 net.cpp:380] val-data -> data
I0419 11:42:29.571214 18485 net.cpp:380] val-data -> label
I0419 11:42:29.571223 18485 data_transformer.cpp:25] Loading mean file from: /mnt/bigdisk/DIGITS-AMB-2/digits/jobs/20210419-113904-3026/mean.binaryproto
I0419 11:42:29.574867 18485 data_layer.cpp:45] output data size: 32,3,227,227
I0419 11:42:29.608016 18485 net.cpp:122] Setting up val-data
I0419 11:42:29.608036 18485 net.cpp:129] Top shape: 32 3 227 227 (4946784)
I0419 11:42:29.608040 18485 net.cpp:129] Top shape: 32 (32)
I0419 11:42:29.608043 18485 net.cpp:137] Memory required for data: 19787264
I0419 11:42:29.608048 18485 layer_factory.hpp:77] Creating layer label_val-data_1_split
I0419 11:42:29.608059 18485 net.cpp:84] Creating Layer label_val-data_1_split
I0419 11:42:29.608063 18485 net.cpp:406] label_val-data_1_split <- label
I0419 11:42:29.608070 18485 net.cpp:380] label_val-data_1_split -> label_val-data_1_split_0
I0419 11:42:29.608078 18485 net.cpp:380] label_val-data_1_split -> label_val-data_1_split_1
I0419 11:42:29.608120 18485 net.cpp:122] Setting up label_val-data_1_split
I0419 11:42:29.608125 18485 net.cpp:129] Top shape: 32 (32)
I0419 11:42:29.608129 18485 net.cpp:129] Top shape: 32 (32)
I0419 11:42:29.608130 18485 net.cpp:137] Memory required for data: 19787520
I0419 11:42:29.608134 18485 layer_factory.hpp:77] Creating layer conv1
I0419 11:42:29.608144 18485 net.cpp:84] Creating Layer conv1
I0419 11:42:29.608147 18485 net.cpp:406] conv1 <- data
I0419 11:42:29.608152 18485 net.cpp:380] conv1 -> conv1
I0419 11:42:29.611246 18485 net.cpp:122] Setting up conv1
I0419 11:42:29.611258 18485 net.cpp:129] Top shape: 32 96 55 55 (9292800)
I0419 11:42:29.611260 18485 net.cpp:137] Memory required for data: 56958720
I0419 11:42:29.611271 18485 layer_factory.hpp:77] Creating layer relu1
I0419 11:42:29.611277 18485 net.cpp:84] Creating Layer relu1
I0419 11:42:29.611280 18485 net.cpp:406] relu1 <- conv1
I0419 11:42:29.611285 18485 net.cpp:367] relu1 -> conv1 (in-place)
I0419 11:42:29.611606 18485 net.cpp:122] Setting up relu1
I0419 11:42:29.611616 18485 net.cpp:129] Top shape: 32 96 55 55 (9292800)
I0419 11:42:29.611618 18485 net.cpp:137] Memory required for data: 94129920
I0419 11:42:29.611622 18485 layer_factory.hpp:77] Creating layer norm1
I0419 11:42:29.611630 18485 net.cpp:84] Creating Layer norm1
I0419 11:42:29.611634 18485 net.cpp:406] norm1 <- conv1
I0419 11:42:29.611637 18485 net.cpp:380] norm1 -> norm1
I0419 11:42:29.612143 18485 net.cpp:122] Setting up norm1
I0419 11:42:29.612151 18485 net.cpp:129] Top shape: 32 96 55 55 (9292800)
I0419 11:42:29.612154 18485 net.cpp:137] Memory required for data: 131301120
I0419 11:42:29.612157 18485 layer_factory.hpp:77] Creating layer pool1
I0419 11:42:29.612164 18485 net.cpp:84] Creating Layer pool1
I0419 11:42:29.612167 18485 net.cpp:406] pool1 <- norm1
I0419 11:42:29.612171 18485 net.cpp:380] pool1 -> pool1
I0419 11:42:29.612196 18485 net.cpp:122] Setting up pool1
I0419 11:42:29.612201 18485 net.cpp:129] Top shape: 32 96 27 27 (2239488)
I0419 11:42:29.612205 18485 net.cpp:137] Memory required for data: 140259072
I0419 11:42:29.612206 18485 layer_factory.hpp:77] Creating layer conv2
I0419 11:42:29.612215 18485 net.cpp:84] Creating Layer conv2
I0419 11:42:29.612217 18485 net.cpp:406] conv2 <- pool1
I0419 11:42:29.612236 18485 net.cpp:380] conv2 -> conv2
I0419 11:42:29.622442 18485 net.cpp:122] Setting up conv2
I0419 11:42:29.622460 18485 net.cpp:129] Top shape: 32 256 27 27 (5971968)
I0419 11:42:29.622463 18485 net.cpp:137] Memory required for data: 164146944
I0419 11:42:29.622476 18485 layer_factory.hpp:77] Creating layer relu2
I0419 11:42:29.622484 18485 net.cpp:84] Creating Layer relu2
I0419 11:42:29.622489 18485 net.cpp:406] relu2 <- conv2
I0419 11:42:29.622494 18485 net.cpp:367] relu2 -> conv2 (in-place)
I0419 11:42:29.623083 18485 net.cpp:122] Setting up relu2
I0419 11:42:29.623095 18485 net.cpp:129] Top shape: 32 256 27 27 (5971968)
I0419 11:42:29.623097 18485 net.cpp:137] Memory required for data: 188034816
I0419 11:42:29.623101 18485 layer_factory.hpp:77] Creating layer norm2
I0419 11:42:29.623113 18485 net.cpp:84] Creating Layer norm2
I0419 11:42:29.623116 18485 net.cpp:406] norm2 <- conv2
I0419 11:42:29.623123 18485 net.cpp:380] norm2 -> norm2
I0419 11:42:29.624099 18485 net.cpp:122] Setting up norm2
I0419 11:42:29.624110 18485 net.cpp:129] Top shape: 32 256 27 27 (5971968)
I0419 11:42:29.624114 18485 net.cpp:137] Memory required for data: 211922688
I0419 11:42:29.624117 18485 layer_factory.hpp:77] Creating layer pool2
I0419 11:42:29.624123 18485 net.cpp:84] Creating Layer pool2
I0419 11:42:29.624126 18485 net.cpp:406] pool2 <- norm2
I0419 11:42:29.624135 18485 net.cpp:380] pool2 -> pool2
I0419 11:42:29.624163 18485 net.cpp:122] Setting up pool2
I0419 11:42:29.624169 18485 net.cpp:129] Top shape: 32 256 13 13 (1384448)
I0419 11:42:29.624172 18485 net.cpp:137] Memory required for data: 217460480
I0419 11:42:29.624176 18485 layer_factory.hpp:77] Creating layer conv3
I0419 11:42:29.624186 18485 net.cpp:84] Creating Layer conv3
I0419 11:42:29.624191 18485 net.cpp:406] conv3 <- pool2
I0419 11:42:29.624194 18485 net.cpp:380] conv3 -> conv3
I0419 11:42:29.637688 18485 net.cpp:122] Setting up conv3
I0419 11:42:29.637706 18485 net.cpp:129] Top shape: 32 384 13 13 (2076672)
I0419 11:42:29.637709 18485 net.cpp:137] Memory required for data: 225767168
I0419 11:42:29.637723 18485 layer_factory.hpp:77] Creating layer relu3
I0419 11:42:29.637732 18485 net.cpp:84] Creating Layer relu3
I0419 11:42:29.637735 18485 net.cpp:406] relu3 <- conv3
I0419 11:42:29.637742 18485 net.cpp:367] relu3 -> conv3 (in-place)
I0419 11:42:29.638319 18485 net.cpp:122] Setting up relu3
I0419 11:42:29.638329 18485 net.cpp:129] Top shape: 32 384 13 13 (2076672)
I0419 11:42:29.638332 18485 net.cpp:137] Memory required for data: 234073856
I0419 11:42:29.638335 18485 layer_factory.hpp:77] Creating layer conv4
I0419 11:42:29.638347 18485 net.cpp:84] Creating Layer conv4
I0419 11:42:29.638350 18485 net.cpp:406] conv4 <- conv3
I0419 11:42:29.638363 18485 net.cpp:380] conv4 -> conv4
I0419 11:42:29.649659 18485 net.cpp:122] Setting up conv4
I0419 11:42:29.649678 18485 net.cpp:129] Top shape: 32 384 13 13 (2076672)
I0419 11:42:29.649682 18485 net.cpp:137] Memory required for data: 242380544
I0419 11:42:29.649690 18485 layer_factory.hpp:77] Creating layer relu4
I0419 11:42:29.649698 18485 net.cpp:84] Creating Layer relu4
I0419 11:42:29.649703 18485 net.cpp:406] relu4 <- conv4
I0419 11:42:29.649708 18485 net.cpp:367] relu4 -> conv4 (in-place)
I0419 11:42:29.650089 18485 net.cpp:122] Setting up relu4
I0419 11:42:29.650099 18485 net.cpp:129] Top shape: 32 384 13 13 (2076672)
I0419 11:42:29.650101 18485 net.cpp:137] Memory required for data: 250687232
I0419 11:42:29.650104 18485 layer_factory.hpp:77] Creating layer conv5
I0419 11:42:29.650115 18485 net.cpp:84] Creating Layer conv5
I0419 11:42:29.650120 18485 net.cpp:406] conv5 <- conv4
I0419 11:42:29.650125 18485 net.cpp:380] conv5 -> conv5
I0419 11:42:29.659715 18485 net.cpp:122] Setting up conv5
I0419 11:42:29.659734 18485 net.cpp:129] Top shape: 32 256 13 13 (1384448)
I0419 11:42:29.659739 18485 net.cpp:137] Memory required for data: 256225024
I0419 11:42:29.659751 18485 layer_factory.hpp:77] Creating layer relu5
I0419 11:42:29.659759 18485 net.cpp:84] Creating Layer relu5
I0419 11:42:29.659763 18485 net.cpp:406] relu5 <- conv5
I0419 11:42:29.659790 18485 net.cpp:367] relu5 -> conv5 (in-place)
I0419 11:42:29.660346 18485 net.cpp:122] Setting up relu5
I0419 11:42:29.660356 18485 net.cpp:129] Top shape: 32 256 13 13 (1384448)
I0419 11:42:29.660359 18485 net.cpp:137] Memory required for data: 261762816
I0419 11:42:29.660363 18485 layer_factory.hpp:77] Creating layer pool5
I0419 11:42:29.660373 18485 net.cpp:84] Creating Layer pool5
I0419 11:42:29.660377 18485 net.cpp:406] pool5 <- conv5
I0419 11:42:29.660382 18485 net.cpp:380] pool5 -> pool5
I0419 11:42:29.660418 18485 net.cpp:122] Setting up pool5
I0419 11:42:29.660423 18485 net.cpp:129] Top shape: 32 256 6 6 (294912)
I0419 11:42:29.660425 18485 net.cpp:137] Memory required for data: 262942464
I0419 11:42:29.660429 18485 layer_factory.hpp:77] Creating layer fc6
I0419 11:42:29.660436 18485 net.cpp:84] Creating Layer fc6
I0419 11:42:29.660439 18485 net.cpp:406] fc6 <- pool5
I0419 11:42:29.660445 18485 net.cpp:380] fc6 -> fc6
I0419 11:42:30.043962 18485 net.cpp:122] Setting up fc6
I0419 11:42:30.043982 18485 net.cpp:129] Top shape: 32 4096 (131072)
I0419 11:42:30.043987 18485 net.cpp:137] Memory required for data: 263466752
I0419 11:42:30.043995 18485 layer_factory.hpp:77] Creating layer relu6
I0419 11:42:30.044004 18485 net.cpp:84] Creating Layer relu6
I0419 11:42:30.044008 18485 net.cpp:406] relu6 <- fc6
I0419 11:42:30.044016 18485 net.cpp:367] relu6 -> fc6 (in-place)
I0419 11:42:30.044771 18485 net.cpp:122] Setting up relu6
I0419 11:42:30.044781 18485 net.cpp:129] Top shape: 32 4096 (131072)
I0419 11:42:30.044785 18485 net.cpp:137] Memory required for data: 263991040
I0419 11:42:30.044787 18485 layer_factory.hpp:77] Creating layer drop6
I0419 11:42:30.044795 18485 net.cpp:84] Creating Layer drop6
I0419 11:42:30.044798 18485 net.cpp:406] drop6 <- fc6
I0419 11:42:30.044803 18485 net.cpp:367] drop6 -> fc6 (in-place)
I0419 11:42:30.044828 18485 net.cpp:122] Setting up drop6
I0419 11:42:30.044833 18485 net.cpp:129] Top shape: 32 4096 (131072)
I0419 11:42:30.044836 18485 net.cpp:137] Memory required for data: 264515328
I0419 11:42:30.044838 18485 layer_factory.hpp:77] Creating layer fc7
I0419 11:42:30.044847 18485 net.cpp:84] Creating Layer fc7
I0419 11:42:30.044850 18485 net.cpp:406] fc7 <- fc6
I0419 11:42:30.044854 18485 net.cpp:380] fc7 -> fc7
I0419 11:42:30.212210 18485 net.cpp:122] Setting up fc7
I0419 11:42:30.212230 18485 net.cpp:129] Top shape: 32 4096 (131072)
I0419 11:42:30.212234 18485 net.cpp:137] Memory required for data: 265039616
I0419 11:42:30.212242 18485 layer_factory.hpp:77] Creating layer relu7
I0419 11:42:30.212251 18485 net.cpp:84] Creating Layer relu7
I0419 11:42:30.212255 18485 net.cpp:406] relu7 <- fc7
I0419 11:42:30.212262 18485 net.cpp:367] relu7 -> fc7 (in-place)
I0419 11:42:30.212764 18485 net.cpp:122] Setting up relu7
I0419 11:42:30.212772 18485 net.cpp:129] Top shape: 32 4096 (131072)
I0419 11:42:30.212775 18485 net.cpp:137] Memory required for data: 265563904
I0419 11:42:30.212779 18485 layer_factory.hpp:77] Creating layer drop7
I0419 11:42:30.212785 18485 net.cpp:84] Creating Layer drop7
I0419 11:42:30.212787 18485 net.cpp:406] drop7 <- fc7
I0419 11:42:30.212795 18485 net.cpp:367] drop7 -> fc7 (in-place)
I0419 11:42:30.212819 18485 net.cpp:122] Setting up drop7
I0419 11:42:30.212824 18485 net.cpp:129] Top shape: 32 4096 (131072)
I0419 11:42:30.212827 18485 net.cpp:137] Memory required for data: 266088192
I0419 11:42:30.212831 18485 layer_factory.hpp:77] Creating layer fc8
I0419 11:42:30.212836 18485 net.cpp:84] Creating Layer fc8
I0419 11:42:30.212839 18485 net.cpp:406] fc8 <- fc7
I0419 11:42:30.212846 18485 net.cpp:380] fc8 -> fc8
I0419 11:42:30.220618 18485 net.cpp:122] Setting up fc8
I0419 11:42:30.220628 18485 net.cpp:129] Top shape: 32 196 (6272)
I0419 11:42:30.220631 18485 net.cpp:137] Memory required for data: 266113280
I0419 11:42:30.220638 18485 layer_factory.hpp:77] Creating layer fc8_fc8_0_split
I0419 11:42:30.220645 18485 net.cpp:84] Creating Layer fc8_fc8_0_split
I0419 11:42:30.220649 18485 net.cpp:406] fc8_fc8_0_split <- fc8
I0419 11:42:30.220669 18485 net.cpp:380] fc8_fc8_0_split -> fc8_fc8_0_split_0
I0419 11:42:30.220675 18485 net.cpp:380] fc8_fc8_0_split -> fc8_fc8_0_split_1
I0419 11:42:30.220705 18485 net.cpp:122] Setting up fc8_fc8_0_split
I0419 11:42:30.220710 18485 net.cpp:129] Top shape: 32 196 (6272)
I0419 11:42:30.220715 18485 net.cpp:129] Top shape: 32 196 (6272)
I0419 11:42:30.220716 18485 net.cpp:137] Memory required for data: 266163456
I0419 11:42:30.220719 18485 layer_factory.hpp:77] Creating layer accuracy
I0419 11:42:30.220726 18485 net.cpp:84] Creating Layer accuracy
I0419 11:42:30.220728 18485 net.cpp:406] accuracy <- fc8_fc8_0_split_0
I0419 11:42:30.220731 18485 net.cpp:406] accuracy <- label_val-data_1_split_0
I0419 11:42:30.220736 18485 net.cpp:380] accuracy -> accuracy
…
