…
I0409 22:51:01.863792  4596 net.cpp:294] The NetState phase (0) differed from the phase (1) specified by a rule in layer accuracy
I0409 22:51:01.863924  4596 net.cpp:51] Initializing net from parameters:
state {
phase: TRAIN
level: 0
stage: ""
}
layer {
name: "train-data"
type: "Data"
top: "data"
top: "label"
include {
phase: TRAIN
}
transform_param {
mirror: true
crop_size: 227
mean_file: "/mnt/bigdisk/DIGITS-MAN-2/digits/jobs/20210407-214532-d396/mean.binaryproto"
}
data_param {
source: "/mnt/bigdisk/DIGITS-MAN-2/digits/jobs/20210407-214532-d396/train_db"
batch_size: 128
backend: LMDB
}
}
layer {
name: "conv1"
type: "Convolution"
bottom: "data"
top: "conv1"
param {
lr_mult: 1
decay_mult: 1
}
param {
lr_mult: 2
decay_mult: 0
}
convolution_param {
num_output: 96
kernel_size: 11
stride: 4
weight_filler {
type: "gaussian"
std: 0.01
}
bias_filler {
type: "constant"
value: 0
}
}
}
layer {
name: "relu1"
type: "ReLU"
bottom: "conv1"
top: "conv1"
}
layer {
name: "norm1"
type: "LRN"
bottom: "conv1"
top: "norm1"
lrn_param {
local_size: 5
alpha: 0.0001
beta: 0.75
}
}
layer {
name: "pool1"
type: "Pooling"
bottom: "norm1"
top: "pool1"
pooling_param {
pool: MAX
kernel_size: 3
stride: 2
}
}
layer {
name: "conv2"
type: "Convolution"
bottom: "pool1"
top: "conv2"
param {
lr_mult: 1
decay_mult: 1
}
param {
lr_mult: 2
decay_mult: 0
}
convolution_param {
num_output: 256
pad: 2
kernel_size: 5
group: 2
weight_filler {
type: "gaussian"
std: 0.01
}
bias_filler {
type: "constant"
value: 0.1
}
}
}
layer {
name: "relu2"
type: "ReLU"
bottom: "conv2"
top: "conv2"
}
layer {
name: "norm2"
type: "LRN"
bottom: "conv2"
top: "norm2"
lrn_param {
local_size: 5
alpha: 0.0001
beta: 0.75
}
}
layer {
name: "pool2"
type: "Pooling"
bottom: "norm2"
top: "pool2"
pooling_param {
pool: MAX
kernel_size: 3
stride: 2
}
}
layer {
name: "conv3"
type: "Convolution"
bottom: "pool2"
top: "conv3"
param {
lr_mult: 1
decay_mult: 1
}
param {
lr_mult: 2
decay_mult: 0
}
convolution_param {
num_output: 384
pad: 1
kernel_size: 3
weight_filler {
type: "gaussian"
std: 0.01
}
bias_filler {
type: "constant"
value: 0
}
}
}
layer {
name: "relu3"
type: "ReLU"
bottom: "conv3"
top: "conv3"
}
layer {
name: "conv4"
type: "Convolution"
bottom: "conv3"
top: "conv4"
param {
lr_mult: 1
decay_mult: 1
}
param {
lr_mult: 2
decay_mult: 0
}
convolution_param {
num_output: 384
pad: 1
kernel_size: 3
group: 2
weight_filler {
type: "gaussian"
std: 0.01
}
bias_filler {
type: "constant"
value: 0.1
}
}
}
layer {
name: "relu4"
type: "ReLU"
bottom: "conv4"
top: "conv4"
}
layer {
name: "conv5"
type: "Convolution"
bottom: "conv4"
top: "conv5"
param {
lr_mult: 1
decay_mult: 1
}
param {
lr_mult: 2
decay_mult: 0
}
convolution_param {
num_output: 256
pad: 1
kernel_size: 3
group: 2
weight_filler {
type: "gaussian"
std: 0.01
}
bias_filler {
type: "constant"
value: 0.1
}
}
}
layer {
name: "relu5"
type: "ReLU"
bottom: "conv5"
top: "conv5"
}
layer {
name: "pool5"
type: "Pooling"
bottom: "conv5"
top: "pool5"
pooling_param {
pool: MAX
kernel_size: 3
stride: 2
}
}
layer {
name: "fc6"
type: "InnerProduct"
bottom: "pool5"
top: "fc6"
param {
lr_mult: 1
decay_mult: 1
}
param {
lr_mult: 2
decay_mult: 0
}
inner_product_param {
num_output: 512
weight_filler {
type: "gaussian"
std: 0.005
}
bias_filler {
type: "constant"
value: 0.1
}
}
}
layer {
name: "relu6"
type: "ReLU"
bottom: "fc6"
top: "fc6"
}
layer {
name: "drop6"
type: "Dropout"
bottom: "fc6"
top: "fc6"
dropout_param {
dropout_ratio: 0.5
}
}
layer {
name: "fc8"
type: "InnerProduct"
bottom: "fc6"
top: "fc8"
param {
lr_mult: 1
decay_mult: 1
}
param {
lr_mult: 2
decay_mult: 0
}
inner_product_param {
num_output: 196
weight_filler {
type: "gaussian"
std: 0.01
}
bias_filler {
type: "constant"
value: 0
}
}
}
layer {
name: "loss"
type: "SoftmaxWithLoss"
bottom: "fc8"
bottom: "label"
top: "loss"
}
I0409 22:51:01.864007  4596 layer_factory.hpp:77] Creating layer train-data
I0409 22:51:01.870805  4596 db_lmdb.cpp:35] Opened lmdb /mnt/bigdisk/DIGITS-MAN-2/digits/jobs/20210407-214532-d396/train_db
I0409 22:51:01.871563  4596 net.cpp:84] Creating Layer train-data
I0409 22:51:01.871577  4596 net.cpp:380] train-data -> data
I0409 22:51:01.871598  4596 net.cpp:380] train-data -> label
I0409 22:51:01.871611  4596 data_transformer.cpp:25] Loading mean file from: /mnt/bigdisk/DIGITS-MAN-2/digits/jobs/20210407-214532-d396/mean.binaryproto
I0409 22:51:01.877714  4596 data_layer.cpp:45] output data size: 128,3,227,227
I0409 22:51:02.014798  4596 net.cpp:122] Setting up train-data
I0409 22:51:02.014823  4596 net.cpp:129] Top shape: 128 3 227 227 (19787136)
I0409 22:51:02.014829  4596 net.cpp:129] Top shape: 128 (128)
I0409 22:51:02.014833  4596 net.cpp:137] Memory required for data: 79149056
I0409 22:51:02.014843  4596 layer_factory.hpp:77] Creating layer conv1
I0409 22:51:02.014864  4596 net.cpp:84] Creating Layer conv1
I0409 22:51:02.014871  4596 net.cpp:406] conv1 <- data
I0409 22:51:02.014883  4596 net.cpp:380] conv1 -> conv1
I0409 22:51:02.639611  4596 net.cpp:122] Setting up conv1
I0409 22:51:02.639632  4596 net.cpp:129] Top shape: 128 96 55 55 (37171200)
I0409 22:51:02.639637  4596 net.cpp:137] Memory required for data: 227833856
I0409 22:51:02.639657  4596 layer_factory.hpp:77] Creating layer relu1
I0409 22:51:02.639668  4596 net.cpp:84] Creating Layer relu1
I0409 22:51:02.639673  4596 net.cpp:406] relu1 <- conv1
I0409 22:51:02.639679  4596 net.cpp:367] relu1 -> conv1 (in-place)
I0409 22:51:02.639966  4596 net.cpp:122] Setting up relu1
I0409 22:51:02.639974  4596 net.cpp:129] Top shape: 128 96 55 55 (37171200)
I0409 22:51:02.639978  4596 net.cpp:137] Memory required for data: 376518656
I0409 22:51:02.639982  4596 layer_factory.hpp:77] Creating layer norm1
I0409 22:51:02.639992  4596 net.cpp:84] Creating Layer norm1
I0409 22:51:02.639997  4596 net.cpp:406] norm1 <- conv1
I0409 22:51:02.640002  4596 net.cpp:380] norm1 -> norm1
I0409 22:51:02.644203  4596 net.cpp:122] Setting up norm1
I0409 22:51:02.644214  4596 net.cpp:129] Top shape: 128 96 55 55 (37171200)
I0409 22:51:02.644218  4596 net.cpp:137] Memory required for data: 525203456
I0409 22:51:02.644222  4596 layer_factory.hpp:77] Creating layer pool1
I0409 22:51:02.644232  4596 net.cpp:84] Creating Layer pool1
I0409 22:51:02.644235  4596 net.cpp:406] pool1 <- norm1
I0409 22:51:02.644241  4596 net.cpp:380] pool1 -> pool1
I0409 22:51:02.644299  4596 net.cpp:122] Setting up pool1
I0409 22:51:02.644307  4596 net.cpp:129] Top shape: 128 96 27 27 (8957952)
I0409 22:51:02.644310  4596 net.cpp:137] Memory required for data: 561035264
I0409 22:51:02.644315  4596 layer_factory.hpp:77] Creating layer conv2
I0409 22:51:02.644326  4596 net.cpp:84] Creating Layer conv2
I0409 22:51:02.644330  4596 net.cpp:406] conv2 <- pool1
I0409 22:51:02.644335  4596 net.cpp:380] conv2 -> conv2
I0409 22:51:02.651644  4596 net.cpp:122] Setting up conv2
I0409 22:51:02.651659  4596 net.cpp:129] Top shape: 128 256 27 27 (23887872)
I0409 22:51:02.651662  4596 net.cpp:137] Memory required for data: 656586752
I0409 22:51:02.651672  4596 layer_factory.hpp:77] Creating layer relu2
I0409 22:51:02.651682  4596 net.cpp:84] Creating Layer relu2
I0409 22:51:02.651686  4596 net.cpp:406] relu2 <- conv2
I0409 22:51:02.651692  4596 net.cpp:367] relu2 -> conv2 (in-place)
I0409 22:51:02.652179  4596 net.cpp:122] Setting up relu2
I0409 22:51:02.652189  4596 net.cpp:129] Top shape: 128 256 27 27 (23887872)
I0409 22:51:02.652194  4596 net.cpp:137] Memory required for data: 752138240
I0409 22:51:02.652197  4596 layer_factory.hpp:77] Creating layer norm2
I0409 22:51:02.652204  4596 net.cpp:84] Creating Layer norm2
I0409 22:51:02.652209  4596 net.cpp:406] norm2 <- conv2
I0409 22:51:02.652215  4596 net.cpp:380] norm2 -> norm2
I0409 22:51:02.652568  4596 net.cpp:122] Setting up norm2
I0409 22:51:02.652576  4596 net.cpp:129] Top shape: 128 256 27 27 (23887872)
I0409 22:51:02.652580  4596 net.cpp:137] Memory required for data: 847689728
I0409 22:51:02.652585  4596 layer_factory.hpp:77] Creating layer pool2
I0409 22:51:02.652593  4596 net.cpp:84] Creating Layer pool2
I0409 22:51:02.652598  4596 net.cpp:406] pool2 <- norm2
I0409 22:51:02.652603  4596 net.cpp:380] pool2 -> pool2
I0409 22:51:02.652632  4596 net.cpp:122] Setting up pool2
I0409 22:51:02.652639  4596 net.cpp:129] Top shape: 128 256 13 13 (5537792)
I0409 22:51:02.652643  4596 net.cpp:137] Memory required for data: 869840896
I0409 22:51:02.652647  4596 layer_factory.hpp:77] Creating layer conv3
I0409 22:51:02.652657  4596 net.cpp:84] Creating Layer conv3
I0409 22:51:02.652662  4596 net.cpp:406] conv3 <- pool2
I0409 22:51:02.652667  4596 net.cpp:380] conv3 -> conv3
I0409 22:51:02.662829  4596 net.cpp:122] Setting up conv3
I0409 22:51:02.662847  4596 net.cpp:129] Top shape: 128 384 13 13 (8306688)
I0409 22:51:02.662851  4596 net.cpp:137] Memory required for data: 903067648
I0409 22:51:02.662864  4596 layer_factory.hpp:77] Creating layer relu3
I0409 22:51:02.662873  4596 net.cpp:84] Creating Layer relu3
I0409 22:51:02.662878  4596 net.cpp:406] relu3 <- conv3
I0409 22:51:02.662885  4596 net.cpp:367] relu3 -> conv3 (in-place)
I0409 22:51:02.663414  4596 net.cpp:122] Setting up relu3
I0409 22:51:02.663424  4596 net.cpp:129] Top shape: 128 384 13 13 (8306688)
I0409 22:51:02.663429  4596 net.cpp:137] Memory required for data: 936294400
I0409 22:51:02.663432  4596 layer_factory.hpp:77] Creating layer conv4
I0409 22:51:02.663444  4596 net.cpp:84] Creating Layer conv4
I0409 22:51:02.663448  4596 net.cpp:406] conv4 <- conv3
I0409 22:51:02.663455  4596 net.cpp:380] conv4 -> conv4
I0409 22:51:02.674574  4596 net.cpp:122] Setting up conv4
I0409 22:51:02.674592  4596 net.cpp:129] Top shape: 128 384 13 13 (8306688)
I0409 22:51:02.674597  4596 net.cpp:137] Memory required for data: 969521152
I0409 22:51:02.674607  4596 layer_factory.hpp:77] Creating layer relu4
I0409 22:51:02.674616  4596 net.cpp:84] Creating Layer relu4
I0409 22:51:02.674621  4596 net.cpp:406] relu4 <- conv4
I0409 22:51:02.674628  4596 net.cpp:367] relu4 -> conv4 (in-place)
I0409 22:51:02.674968  4596 net.cpp:122] Setting up relu4
I0409 22:51:02.674978  4596 net.cpp:129] Top shape: 128 384 13 13 (8306688)
I0409 22:51:02.674980  4596 net.cpp:137] Memory required for data: 1002747904
I0409 22:51:02.674985  4596 layer_factory.hpp:77] Creating layer conv5
I0409 22:51:02.674996  4596 net.cpp:84] Creating Layer conv5
I0409 22:51:02.675000  4596 net.cpp:406] conv5 <- conv4
I0409 22:51:02.675025  4596 net.cpp:380] conv5 -> conv5
I0409 22:51:02.683524  4596 net.cpp:122] Setting up conv5
I0409 22:51:02.683540  4596 net.cpp:129] Top shape: 128 256 13 13 (5537792)
I0409 22:51:02.683544  4596 net.cpp:137] Memory required for data: 1024899072
I0409 22:51:02.683557  4596 layer_factory.hpp:77] Creating layer relu5
I0409 22:51:02.683566  4596 net.cpp:84] Creating Layer relu5
I0409 22:51:02.683570  4596 net.cpp:406] relu5 <- conv5
I0409 22:51:02.683576  4596 net.cpp:367] relu5 -> conv5 (in-place)
I0409 22:51:02.684154  4596 net.cpp:122] Setting up relu5
I0409 22:51:02.684165  4596 net.cpp:129] Top shape: 128 256 13 13 (5537792)
I0409 22:51:02.684170  4596 net.cpp:137] Memory required for data: 1047050240
I0409 22:51:02.684173  4596 layer_factory.hpp:77] Creating layer pool5
I0409 22:51:02.684180  4596 net.cpp:84] Creating Layer pool5
I0409 22:51:02.684185  4596 net.cpp:406] pool5 <- conv5
I0409 22:51:02.684190  4596 net.cpp:380] pool5 -> pool5
I0409 22:51:02.684227  4596 net.cpp:122] Setting up pool5
I0409 22:51:02.684233  4596 net.cpp:129] Top shape: 128 256 6 6 (1179648)
I0409 22:51:02.684237  4596 net.cpp:137] Memory required for data: 1051768832
I0409 22:51:02.684240  4596 layer_factory.hpp:77] Creating layer fc6
I0409 22:51:02.684250  4596 net.cpp:84] Creating Layer fc6
I0409 22:51:02.684254  4596 net.cpp:406] fc6 <- pool5
I0409 22:51:02.684259  4596 net.cpp:380] fc6 -> fc6
I0409 22:51:02.731528  4596 net.cpp:122] Setting up fc6
I0409 22:51:02.731549  4596 net.cpp:129] Top shape: 128 512 (65536)
I0409 22:51:02.731552  4596 net.cpp:137] Memory required for data: 1052030976
I0409 22:51:02.731562  4596 layer_factory.hpp:77] Creating layer relu6
I0409 22:51:02.731571  4596 net.cpp:84] Creating Layer relu6
I0409 22:51:02.731575  4596 net.cpp:406] relu6 <- fc6
I0409 22:51:02.731582  4596 net.cpp:367] relu6 -> fc6 (in-place)
I0409 22:51:02.732209  4596 net.cpp:122] Setting up relu6
I0409 22:51:02.732218  4596 net.cpp:129] Top shape: 128 512 (65536)
I0409 22:51:02.732223  4596 net.cpp:137] Memory required for data: 1052293120
I0409 22:51:02.732225  4596 layer_factory.hpp:77] Creating layer drop6
I0409 22:51:02.732234  4596 net.cpp:84] Creating Layer drop6
I0409 22:51:02.732236  4596 net.cpp:406] drop6 <- fc6
I0409 22:51:02.732244  4596 net.cpp:367] drop6 -> fc6 (in-place)
I0409 22:51:02.732271  4596 net.cpp:122] Setting up drop6
I0409 22:51:02.732276  4596 net.cpp:129] Top shape: 128 512 (65536)
I0409 22:51:02.732280  4596 net.cpp:137] Memory required for data: 1052555264
I0409 22:51:02.732283  4596 layer_factory.hpp:77] Creating layer fc8
I0409 22:51:02.732290  4596 net.cpp:84] Creating Layer fc8
I0409 22:51:02.732293  4596 net.cpp:406] fc8 <- fc6
I0409 22:51:02.732300  4596 net.cpp:380] fc8 -> fc8
I0409 22:51:02.733253  4596 net.cpp:122] Setting up fc8
I0409 22:51:02.733259  4596 net.cpp:129] Top shape: 128 196 (25088)
I0409 22:51:02.733263  4596 net.cpp:137] Memory required for data: 1052655616
I0409 22:51:02.733268  4596 layer_factory.hpp:77] Creating layer loss
I0409 22:51:02.733274  4596 net.cpp:84] Creating Layer loss
I0409 22:51:02.733278  4596 net.cpp:406] loss <- fc8
I0409 22:51:02.733281  4596 net.cpp:406] loss <- label
I0409 22:51:02.733290  4596 net.cpp:380] loss -> loss
I0409 22:51:02.733299  4596 layer_factory.hpp:77] Creating layer loss
…
I0409 22:51:03.121227  4596 net.cpp:294] The NetState phase (1) differed from the phase (0) specified by a rule in layer train-data
I0409 22:51:03.121568  4596 net.cpp:51] Initializing net from parameters:
state {
phase: TEST
}
layer {
name: "val-data"
type: "Data"
top: "data"
top: "label"
include {
phase: TEST
}
transform_param {
crop_size: 227
mean_file: "/mnt/bigdisk/DIGITS-MAN-2/digits/jobs/20210407-214532-d396/mean.binaryproto"
}
data_param {
source: "/mnt/bigdisk/DIGITS-MAN-2/digits/jobs/20210407-214532-d396/val_db"
batch_size: 32
backend: LMDB
}
}
layer {
name: "conv1"
type: "Convolution"
bottom: "data"
top: "conv1"
param {
lr_mult: 1
decay_mult: 1
}
param {
lr_mult: 2
decay_mult: 0
}
convolution_param {
num_output: 96
kernel_size: 11
stride: 4
weight_filler {
type: "gaussian"
std: 0.01
}
bias_filler {
type: "constant"
value: 0
}
}
}
layer {
name: "relu1"
type: "ReLU"
bottom: "conv1"
top: "conv1"
}
layer {
name: "norm1"
type: "LRN"
bottom: "conv1"
top: "norm1"
lrn_param {
local_size: 5
alpha: 0.0001
beta: 0.75
}
}
layer {
name: "pool1"
type: "Pooling"
bottom: "norm1"
top: "pool1"
pooling_param {
pool: MAX
kernel_size: 3
stride: 2
}
}
layer {
name: "conv2"
type: "Convolution"
bottom: "pool1"
top: "conv2"
param {
lr_mult: 1
decay_mult: 1
}
param {
lr_mult: 2
decay_mult: 0
}
convolution_param {
num_output: 256
pad: 2
kernel_size: 5
group: 2
weight_filler {
type: "gaussian"
std: 0.01
}
bias_filler {
type: "constant"
value: 0.1
}
}
}
layer {
name: "relu2"
type: "ReLU"
bottom: "conv2"
top: "conv2"
}
layer {
name: "norm2"
type: "LRN"
bottom: "conv2"
top: "norm2"
lrn_param {
local_size: 5
alpha: 0.0001
beta: 0.75
}
}
layer {
name: "pool2"
type: "Pooling"
bottom: "norm2"
top: "pool2"
pooling_param {
pool: MAX
kernel_size: 3
stride: 2
}
}
layer {
name: "conv3"
type: "Convolution"
bottom: "pool2"
top: "conv3"
param {
lr_mult: 1
decay_mult: 1
}
param {
lr_mult: 2
decay_mult: 0
}
convolution_param {
num_output: 384
pad: 1
kernel_size: 3
weight_filler {
type: "gaussian"
std: 0.01
}
bias_filler {
type: "constant"
value: 0
}
}
}
layer {
name: "relu3"
type: "ReLU"
bottom: "conv3"
top: "conv3"
}
layer {
name: "conv4"
type: "Convolution"
bottom: "conv3"
top: "conv4"
param {
lr_mult: 1
decay_mult: 1
}
param {
lr_mult: 2
decay_mult: 0
}
convolution_param {
num_output: 384
pad: 1
kernel_size: 3
group: 2
weight_filler {
type: "gaussian"
std: 0.01
}
bias_filler {
type: "constant"
value: 0.1
}
}
}
layer {
name: "relu4"
type: "ReLU"
bottom: "conv4"
top: "conv4"
}
layer {
name: "conv5"
type: "Convolution"
bottom: "conv4"
top: "conv5"
param {
lr_mult: 1
decay_mult: 1
}
param {
lr_mult: 2
decay_mult: 0
}
convolution_param {
num_output: 256
pad: 1
kernel_size: 3
group: 2
weight_filler {
type: "gaussian"
std: 0.01
}
bias_filler {
type: "constant"
value: 0.1
}
}
}
layer {
name: "relu5"
type: "ReLU"
bottom: "conv5"
top: "conv5"
}
layer {
name: "pool5"
type: "Pooling"
bottom: "conv5"
top: "pool5"
pooling_param {
pool: MAX
kernel_size: 3
stride: 2
}
}
layer {
name: "fc6"
type: "InnerProduct"
bottom: "pool5"
top: "fc6"
param {
lr_mult: 1
decay_mult: 1
}
param {
lr_mult: 2
decay_mult: 0
}
inner_product_param {
num_output: 512
weight_filler {
type: "gaussian"
std: 0.005
}
bias_filler {
type: "constant"
value: 0.1
}
}
}
layer {
name: "relu6"
type: "ReLU"
bottom: "fc6"
top: "fc6"
}
layer {
name: "drop6"
type: "Dropout"
bottom: "fc6"
top: "fc6"
dropout_param {
dropout_ratio: 0.5
}
}
layer {
name: "fc8"
type: "InnerProduct"
bottom: "fc6"
top: "fc8"
param {
lr_mult: 1
decay_mult: 1
}
param {
lr_mult: 2
decay_mult: 0
}
inner_product_param {
num_output: 196
weight_filler {
type: "gaussian"
std: 0.01
}
bias_filler {
type: "constant"
value: 0
}
}
}
layer {
name: "accuracy"
type: "Accuracy"
bottom: "fc8"
bottom: "label"
top: "accuracy"
include {
phase: TEST
}
}
layer {
name: "loss"
type: "SoftmaxWithLoss"
bottom: "fc8"
bottom: "label"
top: "loss"
}
I0409 22:51:03.121783  4596 layer_factory.hpp:77] Creating layer val-data
I0409 22:51:03.534797  4596 db_lmdb.cpp:35] Opened lmdb /mnt/bigdisk/DIGITS-MAN-2/digits/jobs/20210407-214532-d396/val_db
I0409 22:51:03.535799  4596 net.cpp:84] Creating Layer val-data
I0409 22:51:03.535833  4596 net.cpp:380] val-data -> data
I0409 22:51:03.535858  4596 net.cpp:380] val-data -> label
I0409 22:51:03.535876  4596 data_transformer.cpp:25] Loading mean file from: /mnt/bigdisk/DIGITS-MAN-2/digits/jobs/20210407-214532-d396/mean.binaryproto
I0409 22:51:03.593775  4596 data_layer.cpp:45] output data size: 32,3,227,227
I0409 22:51:03.640612  4596 net.cpp:122] Setting up val-data
I0409 22:51:03.640638  4596 net.cpp:129] Top shape: 32 3 227 227 (4946784)
I0409 22:51:03.640645  4596 net.cpp:129] Top shape: 32 (32)
I0409 22:51:03.640648  4596 net.cpp:137] Memory required for data: 19787264
I0409 22:51:03.640656  4596 layer_factory.hpp:77] Creating layer label_val-data_1_split
I0409 22:51:03.640671  4596 net.cpp:84] Creating Layer label_val-data_1_split
I0409 22:51:03.640676  4596 net.cpp:406] label_val-data_1_split <- label
I0409 22:51:03.640683  4596 net.cpp:380] label_val-data_1_split -> label_val-data_1_split_0
I0409 22:51:03.640695  4596 net.cpp:380] label_val-data_1_split -> label_val-data_1_split_1
I0409 22:51:03.640756  4596 net.cpp:122] Setting up label_val-data_1_split
I0409 22:51:03.640763  4596 net.cpp:129] Top shape: 32 (32)
I0409 22:51:03.640769  4596 net.cpp:129] Top shape: 32 (32)
I0409 22:51:03.640772  4596 net.cpp:137] Memory required for data: 19787520
I0409 22:51:03.640776  4596 layer_factory.hpp:77] Creating layer conv1
I0409 22:51:03.640790  4596 net.cpp:84] Creating Layer conv1
I0409 22:51:03.640794  4596 net.cpp:406] conv1 <- data
I0409 22:51:03.640801  4596 net.cpp:380] conv1 -> conv1
I0409 22:51:03.643462  4596 net.cpp:122] Setting up conv1
I0409 22:51:03.643476  4596 net.cpp:129] Top shape: 32 96 55 55 (9292800)
I0409 22:51:03.643481  4596 net.cpp:137] Memory required for data: 56958720
I0409 22:51:03.643492  4596 layer_factory.hpp:77] Creating layer relu1
I0409 22:51:03.643501  4596 net.cpp:84] Creating Layer relu1
I0409 22:51:03.643527  4596 net.cpp:406] relu1 <- conv1
I0409 22:51:03.643534  4596 net.cpp:367] relu1 -> conv1 (in-place)
I0409 22:51:03.644080  4596 net.cpp:122] Setting up relu1
I0409 22:51:03.644093  4596 net.cpp:129] Top shape: 32 96 55 55 (9292800)
I0409 22:51:03.644098  4596 net.cpp:137] Memory required for data: 94129920
I0409 22:51:03.644102  4596 layer_factory.hpp:77] Creating layer norm1
I0409 22:51:03.644112  4596 net.cpp:84] Creating Layer norm1
I0409 22:51:03.644116  4596 net.cpp:406] norm1 <- conv1
I0409 22:51:03.644124  4596 net.cpp:380] norm1 -> norm1
I0409 22:51:03.644510  4596 net.cpp:122] Setting up norm1
I0409 22:51:03.644521  4596 net.cpp:129] Top shape: 32 96 55 55 (9292800)
I0409 22:51:03.644526  4596 net.cpp:137] Memory required for data: 131301120
I0409 22:51:03.644529  4596 layer_factory.hpp:77] Creating layer pool1
I0409 22:51:03.644537  4596 net.cpp:84] Creating Layer pool1
I0409 22:51:03.644541  4596 net.cpp:406] pool1 <- norm1
I0409 22:51:03.644547  4596 net.cpp:380] pool1 -> pool1
I0409 22:51:03.644583  4596 net.cpp:122] Setting up pool1
I0409 22:51:03.644589  4596 net.cpp:129] Top shape: 32 96 27 27 (2239488)
I0409 22:51:03.644593  4596 net.cpp:137] Memory required for data: 140259072
I0409 22:51:03.644598  4596 layer_factory.hpp:77] Creating layer conv2
I0409 22:51:03.644606  4596 net.cpp:84] Creating Layer conv2
I0409 22:51:03.644611  4596 net.cpp:406] conv2 <- pool1
I0409 22:51:03.644618  4596 net.cpp:380] conv2 -> conv2
I0409 22:51:03.662106  4596 net.cpp:122] Setting up conv2
I0409 22:51:03.662128  4596 net.cpp:129] Top shape: 32 256 27 27 (5971968)
I0409 22:51:03.662133  4596 net.cpp:137] Memory required for data: 164146944
I0409 22:51:03.662147  4596 layer_factory.hpp:77] Creating layer relu2
I0409 22:51:03.662156  4596 net.cpp:84] Creating Layer relu2
I0409 22:51:03.662161  4596 net.cpp:406] relu2 <- conv2
I0409 22:51:03.662168  4596 net.cpp:367] relu2 -> conv2 (in-place)
I0409 22:51:03.662781  4596 net.cpp:122] Setting up relu2
I0409 22:51:03.662792  4596 net.cpp:129] Top shape: 32 256 27 27 (5971968)
I0409 22:51:03.662797  4596 net.cpp:137] Memory required for data: 188034816
I0409 22:51:03.662802  4596 layer_factory.hpp:77] Creating layer norm2
I0409 22:51:03.662813  4596 net.cpp:84] Creating Layer norm2
I0409 22:51:03.662818  4596 net.cpp:406] norm2 <- conv2
I0409 22:51:03.662827  4596 net.cpp:380] norm2 -> norm2
I0409 22:51:03.663453  4596 net.cpp:122] Setting up norm2
I0409 22:51:03.663465  4596 net.cpp:129] Top shape: 32 256 27 27 (5971968)
I0409 22:51:03.663468  4596 net.cpp:137] Memory required for data: 211922688
I0409 22:51:03.663473  4596 layer_factory.hpp:77] Creating layer pool2
I0409 22:51:03.663480  4596 net.cpp:84] Creating Layer pool2
I0409 22:51:03.663486  4596 net.cpp:406] pool2 <- norm2
I0409 22:51:03.663493  4596 net.cpp:380] pool2 -> pool2
I0409 22:51:03.663530  4596 net.cpp:122] Setting up pool2
I0409 22:51:03.663537  4596 net.cpp:129] Top shape: 32 256 13 13 (1384448)
I0409 22:51:03.663542  4596 net.cpp:137] Memory required for data: 217460480
I0409 22:51:03.663545  4596 layer_factory.hpp:77] Creating layer conv3
I0409 22:51:03.663556  4596 net.cpp:84] Creating Layer conv3
I0409 22:51:03.663560  4596 net.cpp:406] conv3 <- pool2
I0409 22:51:03.663566  4596 net.cpp:380] conv3 -> conv3
I0409 22:51:03.680588  4596 net.cpp:122] Setting up conv3
I0409 22:51:03.680608  4596 net.cpp:129] Top shape: 32 384 13 13 (2076672)
I0409 22:51:03.680611  4596 net.cpp:137] Memory required for data: 225767168
I0409 22:51:03.680625  4596 layer_factory.hpp:77] Creating layer relu3
I0409 22:51:03.680634  4596 net.cpp:84] Creating Layer relu3
I0409 22:51:03.680640  4596 net.cpp:406] relu3 <- conv3
I0409 22:51:03.680647  4596 net.cpp:367] relu3 -> conv3 (in-place)
I0409 22:51:03.682452  4596 net.cpp:122] Setting up relu3
I0409 22:51:03.682463  4596 net.cpp:129] Top shape: 32 384 13 13 (2076672)
I0409 22:51:03.682467  4596 net.cpp:137] Memory required for data: 234073856
I0409 22:51:03.682472  4596 layer_factory.hpp:77] Creating layer conv4
I0409 22:51:03.682502  4596 net.cpp:84] Creating Layer conv4
I0409 22:51:03.682507  4596 net.cpp:406] conv4 <- conv3
I0409 22:51:03.682515  4596 net.cpp:380] conv4 -> conv4
I0409 22:51:03.700093  4596 net.cpp:122] Setting up conv4
I0409 22:51:03.700111  4596 net.cpp:129] Top shape: 32 384 13 13 (2076672)
I0409 22:51:03.700115  4596 net.cpp:137] Memory required for data: 242380544
I0409 22:51:03.700124  4596 layer_factory.hpp:77] Creating layer relu4
I0409 22:51:03.700136  4596 net.cpp:84] Creating Layer relu4
I0409 22:51:03.700142  4596 net.cpp:406] relu4 <- conv4
I0409 22:51:03.700148  4596 net.cpp:367] relu4 -> conv4 (in-place)
I0409 22:51:03.700721  4596 net.cpp:122] Setting up relu4
I0409 22:51:03.700731  4596 net.cpp:129] Top shape: 32 384 13 13 (2076672)
I0409 22:51:03.700734  4596 net.cpp:137] Memory required for data: 250687232
I0409 22:51:03.700739  4596 layer_factory.hpp:77] Creating layer conv5
I0409 22:51:03.700750  4596 net.cpp:84] Creating Layer conv5
I0409 22:51:03.700755  4596 net.cpp:406] conv5 <- conv4
I0409 22:51:03.700763  4596 net.cpp:380] conv5 -> conv5
I0409 22:51:03.710196  4596 net.cpp:122] Setting up conv5
I0409 22:51:03.710212  4596 net.cpp:129] Top shape: 32 256 13 13 (1384448)
I0409 22:51:03.710217  4596 net.cpp:137] Memory required for data: 256225024
I0409 22:51:03.710229  4596 layer_factory.hpp:77] Creating layer relu5
I0409 22:51:03.710237  4596 net.cpp:84] Creating Layer relu5
I0409 22:51:03.710242  4596 net.cpp:406] relu5 <- conv5
I0409 22:51:03.710248  4596 net.cpp:367] relu5 -> conv5 (in-place)
I0409 22:51:03.710798  4596 net.cpp:122] Setting up relu5
I0409 22:51:03.710809  4596 net.cpp:129] Top shape: 32 256 13 13 (1384448)
I0409 22:51:03.710813  4596 net.cpp:137] Memory required for data: 261762816
I0409 22:51:03.710817  4596 layer_factory.hpp:77] Creating layer pool5
I0409 22:51:03.710829  4596 net.cpp:84] Creating Layer pool5
I0409 22:51:03.710834  4596 net.cpp:406] pool5 <- conv5
I0409 22:51:03.710839  4596 net.cpp:380] pool5 -> pool5
I0409 22:51:03.710881  4596 net.cpp:122] Setting up pool5
I0409 22:51:03.710888  4596 net.cpp:129] Top shape: 32 256 6 6 (294912)
I0409 22:51:03.710892  4596 net.cpp:137] Memory required for data: 262942464
I0409 22:51:03.710896  4596 layer_factory.hpp:77] Creating layer fc6
I0409 22:51:03.710902  4596 net.cpp:84] Creating Layer fc6
I0409 22:51:03.710906  4596 net.cpp:406] fc6 <- pool5
I0409 22:51:03.710916  4596 net.cpp:380] fc6 -> fc6
I0409 22:51:03.760459  4596 net.cpp:122] Setting up fc6
I0409 22:51:03.760483  4596 net.cpp:129] Top shape: 32 512 (16384)
I0409 22:51:03.760485  4596 net.cpp:137] Memory required for data: 263008000
I0409 22:51:03.760496  4596 layer_factory.hpp:77] Creating layer relu6
I0409 22:51:03.760504  4596 net.cpp:84] Creating Layer relu6
I0409 22:51:03.760509  4596 net.cpp:406] relu6 <- fc6
I0409 22:51:03.760516  4596 net.cpp:367] relu6 -> fc6 (in-place)
I0409 22:51:03.761193  4596 net.cpp:122] Setting up relu6
I0409 22:51:03.761201  4596 net.cpp:129] Top shape: 32 512 (16384)
I0409 22:51:03.761205  4596 net.cpp:137] Memory required for data: 263073536
I0409 22:51:03.761209  4596 layer_factory.hpp:77] Creating layer drop6
I0409 22:51:03.761216  4596 net.cpp:84] Creating Layer drop6
I0409 22:51:03.761220  4596 net.cpp:406] drop6 <- fc6
I0409 22:51:03.761226  4596 net.cpp:367] drop6 -> fc6 (in-place)
I0409 22:51:03.761252  4596 net.cpp:122] Setting up drop6
I0409 22:51:03.761260  4596 net.cpp:129] Top shape: 32 512 (16384)
I0409 22:51:03.761262  4596 net.cpp:137] Memory required for data: 263139072
I0409 22:51:03.761266  4596 layer_factory.hpp:77] Creating layer fc8
I0409 22:51:03.761273  4596 net.cpp:84] Creating Layer fc8
I0409 22:51:03.761277  4596 net.cpp:406] fc8 <- fc6
I0409 22:51:03.761286  4596 net.cpp:380] fc8 -> fc8
I0409 22:51:03.762336  4596 net.cpp:122] Setting up fc8
I0409 22:51:03.762342  4596 net.cpp:129] Top shape: 32 196 (6272)
I0409 22:51:03.762346  4596 net.cpp:137] Memory required for data: 263164160
I0409 22:51:03.762352  4596 layer_factory.hpp:77] Creating layer fc8_fc8_0_split
I0409 22:51:03.762359  4596 net.cpp:84] Creating Layer fc8_fc8_0_split
I0409 22:51:03.762382  4596 net.cpp:406] fc8_fc8_0_split <- fc8
I0409 22:51:03.762389  4596 net.cpp:380] fc8_fc8_0_split -> fc8_fc8_0_split_0
I0409 22:51:03.762399  4596 net.cpp:380] fc8_fc8_0_split -> fc8_fc8_0_split_1
I0409 22:51:03.762432  4596 net.cpp:122] Setting up fc8_fc8_0_split
I0409 22:51:03.762439  4596 net.cpp:129] Top shape: 32 196 (6272)
I0409 22:51:03.762442  4596 net.cpp:129] Top shape: 32 196 (6272)
I0409 22:51:03.762445  4596 net.cpp:137] Memory required for data: 263214336
I0409 22:51:03.762449  4596 layer_factory.hpp:77] Creating layer accuracy
I0409 22:51:03.762457  4596 net.cpp:84] Creating Layer accuracy
I0409 22:51:03.762461  4596 net.cpp:406] accuracy <- fc8_fc8_0_split_0
I0409 22:51:03.762466  4596 net.cpp:406] accuracy <- label_val-data_1_split_0
I0409 22:51:03.762471  4596 net.cpp:380] accuracy -> accuracy
…
