…
I0427 20:40:32.196892 20738 net.cpp:294] The NetState phase (0) differed from the phase (1) specified by a rule in layer accuracy
I0427 20:40:32.197036 20738 net.cpp:51] Initializing net from parameters:
state {
phase: TRAIN
level: 0
stage: ""
}
layer {
name: "train-data"
type: "Data"
top: "data"
top: "label"
include {
phase: TRAIN
}
transform_param {
mirror: true
crop_size: 227
mean_file: "/mnt/bigdisk/DIGITS-MAN-3/digits/jobs/20210427-192139-e31d/mean.binaryproto"
}
data_param {
source: "/mnt/bigdisk/DIGITS-MAN-3/digits/jobs/20210427-192139-e31d/train_db"
batch_size: 256
backend: LMDB
}
}
layer {
name: "conv1"
type: "Convolution"
bottom: "data"
top: "conv1"
param {
lr_mult: 1
decay_mult: 1
}
param {
lr_mult: 2
decay_mult: 0
}
convolution_param {
num_output: 96
kernel_size: 11
stride: 4
weight_filler {
type: "gaussian"
std: 0.01
}
bias_filler {
type: "constant"
value: 0
}
}
}
layer {
name: "relu1"
type: "ReLU"
bottom: "conv1"
top: "conv1"
}
layer {
name: "norm1"
type: "LRN"
bottom: "conv1"
top: "norm1"
lrn_param {
local_size: 5
alpha: 0.0001
beta: 0.75
}
}
layer {
name: "pool1"
type: "Pooling"
bottom: "norm1"
top: "pool1"
pooling_param {
pool: MAX
kernel_size: 3
stride: 2
}
}
layer {
name: "conv2"
type: "Convolution"
bottom: "pool1"
top: "conv2"
param {
lr_mult: 1
decay_mult: 1
}
param {
lr_mult: 2
decay_mult: 0
}
convolution_param {
num_output: 256
pad: 2
kernel_size: 5
group: 2
weight_filler {
type: "gaussian"
std: 0.01
}
bias_filler {
type: "constant"
value: 0.1
}
}
}
layer {
name: "relu2"
type: "ReLU"
bottom: "conv2"
top: "conv2"
}
layer {
name: "norm2"
type: "LRN"
bottom: "conv2"
top: "norm2"
lrn_param {
local_size: 5
alpha: 0.0001
beta: 0.75
}
}
layer {
name: "pool2"
type: "Pooling"
bottom: "norm2"
top: "pool2"
pooling_param {
pool: MAX
kernel_size: 3
stride: 2
}
}
layer {
name: "conv3"
type: "Convolution"
bottom: "pool2"
top: "conv3"
param {
lr_mult: 1
decay_mult: 1
}
param {
lr_mult: 2
decay_mult: 0
}
convolution_param {
num_output: 384
pad: 1
kernel_size: 3
weight_filler {
type: "gaussian"
std: 0.01
}
bias_filler {
type: "constant"
value: 0
}
}
}
layer {
name: "relu3"
type: "ReLU"
bottom: "conv3"
top: "conv3"
}
layer {
name: "conv4"
type: "Convolution"
bottom: "conv3"
top: "conv4"
param {
lr_mult: 1
decay_mult: 1
}
param {
lr_mult: 2
decay_mult: 0
}
convolution_param {
num_output: 384
pad: 1
kernel_size: 3
group: 2
weight_filler {
type: "gaussian"
std: 0.01
}
bias_filler {
type: "constant"
value: 0.1
}
}
}
layer {
name: "relu4"
type: "ReLU"
bottom: "conv4"
top: "conv4"
}
layer {
name: "conv5"
type: "Convolution"
bottom: "conv4"
top: "conv5"
param {
lr_mult: 1
decay_mult: 1
}
param {
lr_mult: 2
decay_mult: 0
}
convolution_param {
num_output: 256
pad: 1
kernel_size: 3
group: 2
weight_filler {
type: "gaussian"
std: 0.01
}
bias_filler {
type: "constant"
value: 0.1
}
}
}
layer {
name: "relu5"
type: "ReLU"
bottom: "conv5"
top: "conv5"
}
layer {
name: "pool5"
type: "Pooling"
bottom: "conv5"
top: "pool5"
pooling_param {
pool: MAX
kernel_size: 3
stride: 2
}
}
layer {
name: "fc6"
type: "InnerProduct"
bottom: "pool5"
top: "fc6"
param {
lr_mult: 1
decay_mult: 1
}
param {
lr_mult: 2
decay_mult: 0
}
inner_product_param {
num_output: 4096
weight_filler {
type: "gaussian"
std: 0.005
}
bias_filler {
type: "constant"
value: 0.1
}
}
}
layer {
name: "relu6"
type: "ReLU"
bottom: "fc6"
top: "fc6"
}
layer {
name: "drop6"
type: "Dropout"
bottom: "fc6"
top: "fc6"
dropout_param {
dropout_ratio: 0.5
}
}
layer {
name: "fc7"
type: "InnerProduct"
bottom: "fc6"
top: "fc7"
param {
lr_mult: 1
decay_mult: 1
}
param {
lr_mult: 2
decay_mult: 0
}
inner_product_param {
num_output: 4096
weight_filler {
type: "gaussian"
std: 0.005
}
bias_filler {
type: "constant"
value: 0.1
}
}
}
layer {
name: "relu7"
type: "ReLU"
bottom: "fc7"
top: "fc7"
}
layer {
name: "drop7"
type: "Dropout"
bottom: "fc7"
top: "fc7"
dropout_param {
dropout_ratio: 0.5
}
}
layer {
name: "fc8"
type: "InnerProduct"
bottom: "fc7"
top: "fc8"
param {
lr_mult: 1
decay_mult: 1
}
param {
lr_mult: 2
decay_mult: 0
}
inner_product_param {
num_output: 196
weight_filler {
type: "gaussian"
std: 0.01
}
bias_filler {
type: "constant"
value: 0
}
}
}
layer {
name: "loss"
type: "SoftmaxWithLoss"
bottom: "fc8"
bottom: "label"
top: "loss"
}
I0427 20:40:32.197124 20738 layer_factory.hpp:77] Creating layer train-data
I0427 20:40:32.607450 20738 db_lmdb.cpp:35] Opened lmdb /mnt/bigdisk/DIGITS-MAN-3/digits/jobs/20210427-192139-e31d/train_db
I0427 20:40:32.692291 20738 net.cpp:84] Creating Layer train-data
I0427 20:40:32.692330 20738 net.cpp:380] train-data -> data
I0427 20:40:32.692363 20738 net.cpp:380] train-data -> label
I0427 20:40:32.692384 20738 data_transformer.cpp:25] Loading mean file from: /mnt/bigdisk/DIGITS-MAN-3/digits/jobs/20210427-192139-e31d/mean.binaryproto
I0427 20:40:32.784204 20738 data_layer.cpp:45] output data size: 256,3,227,227
I0427 20:40:33.067845 20738 net.cpp:122] Setting up train-data
I0427 20:40:33.067868 20738 net.cpp:129] Top shape: 256 3 227 227 (39574272)
I0427 20:40:33.067874 20738 net.cpp:129] Top shape: 256 (256)
I0427 20:40:33.067878 20738 net.cpp:137] Memory required for data: 158298112
I0427 20:40:33.067888 20738 layer_factory.hpp:77] Creating layer conv1
I0427 20:40:33.067907 20738 net.cpp:84] Creating Layer conv1
I0427 20:40:33.067914 20738 net.cpp:406] conv1 <- data
I0427 20:40:33.067926 20738 net.cpp:380] conv1 -> conv1
I0427 20:40:33.796056 20738 net.cpp:122] Setting up conv1
I0427 20:40:33.796077 20738 net.cpp:129] Top shape: 256 96 55 55 (74342400)
I0427 20:40:33.796080 20738 net.cpp:137] Memory required for data: 455667712
I0427 20:40:33.796101 20738 layer_factory.hpp:77] Creating layer relu1
I0427 20:40:33.796113 20738 net.cpp:84] Creating Layer relu1
I0427 20:40:33.796116 20738 net.cpp:406] relu1 <- conv1
I0427 20:40:33.796123 20738 net.cpp:367] relu1 -> conv1 (in-place)
I0427 20:40:33.796417 20738 net.cpp:122] Setting up relu1
I0427 20:40:33.796427 20738 net.cpp:129] Top shape: 256 96 55 55 (74342400)
I0427 20:40:33.796430 20738 net.cpp:137] Memory required for data: 753037312
I0427 20:40:33.796435 20738 layer_factory.hpp:77] Creating layer norm1
I0427 20:40:33.796444 20738 net.cpp:84] Creating Layer norm1
I0427 20:40:33.796450 20738 net.cpp:406] norm1 <- conv1
I0427 20:40:33.796476 20738 net.cpp:380] norm1 -> norm1
I0427 20:40:33.834264 20738 net.cpp:122] Setting up norm1
I0427 20:40:33.834295 20738 net.cpp:129] Top shape: 256 96 55 55 (74342400)
I0427 20:40:33.834306 20738 net.cpp:137] Memory required for data: 1050406912
I0427 20:40:33.834316 20738 layer_factory.hpp:77] Creating layer pool1
I0427 20:40:33.834337 20738 net.cpp:84] Creating Layer pool1
I0427 20:40:33.834345 20738 net.cpp:406] pool1 <- norm1
I0427 20:40:33.834355 20738 net.cpp:380] pool1 -> pool1
I0427 20:40:33.834419 20738 net.cpp:122] Setting up pool1
I0427 20:40:33.834429 20738 net.cpp:129] Top shape: 256 96 27 27 (17915904)
I0427 20:40:33.834435 20738 net.cpp:137] Memory required for data: 1122070528
I0427 20:40:33.834440 20738 layer_factory.hpp:77] Creating layer conv2
I0427 20:40:33.834456 20738 net.cpp:84] Creating Layer conv2
I0427 20:40:33.834462 20738 net.cpp:406] conv2 <- pool1
I0427 20:40:33.834470 20738 net.cpp:380] conv2 -> conv2
I0427 20:40:33.860775 20738 net.cpp:122] Setting up conv2
I0427 20:40:33.860800 20738 net.cpp:129] Top shape: 256 256 27 27 (47775744)
I0427 20:40:33.860806 20738 net.cpp:137] Memory required for data: 1313173504
I0427 20:40:33.860824 20738 layer_factory.hpp:77] Creating layer relu2
I0427 20:40:33.860841 20738 net.cpp:84] Creating Layer relu2
I0427 20:40:33.860847 20738 net.cpp:406] relu2 <- conv2
I0427 20:40:33.860857 20738 net.cpp:367] relu2 -> conv2 (in-place)
I0427 20:40:33.861591 20738 net.cpp:122] Setting up relu2
I0427 20:40:33.861608 20738 net.cpp:129] Top shape: 256 256 27 27 (47775744)
I0427 20:40:33.861613 20738 net.cpp:137] Memory required for data: 1504276480
I0427 20:40:33.861619 20738 layer_factory.hpp:77] Creating layer norm2
I0427 20:40:33.861630 20738 net.cpp:84] Creating Layer norm2
I0427 20:40:33.861640 20738 net.cpp:406] norm2 <- conv2
I0427 20:40:33.861649 20738 net.cpp:380] norm2 -> norm2
I0427 20:40:33.862234 20738 net.cpp:122] Setting up norm2
I0427 20:40:33.862248 20738 net.cpp:129] Top shape: 256 256 27 27 (47775744)
I0427 20:40:33.862255 20738 net.cpp:137] Memory required for data: 1695379456
I0427 20:40:33.862262 20738 layer_factory.hpp:77] Creating layer pool2
I0427 20:40:33.862278 20738 net.cpp:84] Creating Layer pool2
I0427 20:40:33.862287 20738 net.cpp:406] pool2 <- norm2
I0427 20:40:33.862296 20738 net.cpp:380] pool2 -> pool2
I0427 20:40:33.862344 20738 net.cpp:122] Setting up pool2
I0427 20:40:33.862354 20738 net.cpp:129] Top shape: 256 256 13 13 (11075584)
I0427 20:40:33.862358 20738 net.cpp:137] Memory required for data: 1739681792
I0427 20:40:33.862365 20738 layer_factory.hpp:77] Creating layer conv3
I0427 20:40:33.862383 20738 net.cpp:84] Creating Layer conv3
I0427 20:40:33.862388 20738 net.cpp:406] conv3 <- pool2
I0427 20:40:33.862397 20738 net.cpp:380] conv3 -> conv3
I0427 20:40:33.886076 20738 net.cpp:122] Setting up conv3
I0427 20:40:33.886099 20738 net.cpp:129] Top shape: 256 384 13 13 (16613376)
I0427 20:40:33.886104 20738 net.cpp:137] Memory required for data: 1806135296
I0427 20:40:33.886121 20738 layer_factory.hpp:77] Creating layer relu3
I0427 20:40:33.886132 20738 net.cpp:84] Creating Layer relu3
I0427 20:40:33.886137 20738 net.cpp:406] relu3 <- conv3
I0427 20:40:33.886147 20738 net.cpp:367] relu3 -> conv3 (in-place)
I0427 20:40:33.886657 20738 net.cpp:122] Setting up relu3
I0427 20:40:33.886669 20738 net.cpp:129] Top shape: 256 384 13 13 (16613376)
I0427 20:40:33.886674 20738 net.cpp:137] Memory required for data: 1872588800
I0427 20:40:33.886679 20738 layer_factory.hpp:77] Creating layer conv4
I0427 20:40:33.886691 20738 net.cpp:84] Creating Layer conv4
I0427 20:40:33.886696 20738 net.cpp:406] conv4 <- conv3
I0427 20:40:33.886704 20738 net.cpp:380] conv4 -> conv4
I0427 20:40:33.902042 20738 net.cpp:122] Setting up conv4
I0427 20:40:33.902066 20738 net.cpp:129] Top shape: 256 384 13 13 (16613376)
I0427 20:40:33.902072 20738 net.cpp:137] Memory required for data: 1939042304
I0427 20:40:33.902084 20738 layer_factory.hpp:77] Creating layer relu4
I0427 20:40:33.902097 20738 net.cpp:84] Creating Layer relu4
I0427 20:40:33.902127 20738 net.cpp:406] relu4 <- conv4
I0427 20:40:33.902137 20738 net.cpp:367] relu4 -> conv4 (in-place)
I0427 20:40:33.902601 20738 net.cpp:122] Setting up relu4
I0427 20:40:33.902612 20738 net.cpp:129] Top shape: 256 384 13 13 (16613376)
I0427 20:40:33.902618 20738 net.cpp:137] Memory required for data: 2005495808
I0427 20:40:33.902624 20738 layer_factory.hpp:77] Creating layer conv5
I0427 20:40:33.902639 20738 net.cpp:84] Creating Layer conv5
I0427 20:40:33.902645 20738 net.cpp:406] conv5 <- conv4
I0427 20:40:33.902657 20738 net.cpp:380] conv5 -> conv5
I0427 20:40:33.914276 20738 net.cpp:122] Setting up conv5
I0427 20:40:33.914294 20738 net.cpp:129] Top shape: 256 256 13 13 (11075584)
I0427 20:40:33.914297 20738 net.cpp:137] Memory required for data: 2049798144
I0427 20:40:33.914309 20738 layer_factory.hpp:77] Creating layer relu5
I0427 20:40:33.914319 20738 net.cpp:84] Creating Layer relu5
I0427 20:40:33.914322 20738 net.cpp:406] relu5 <- conv5
I0427 20:40:33.914330 20738 net.cpp:367] relu5 -> conv5 (in-place)
I0427 20:40:33.914825 20738 net.cpp:122] Setting up relu5
I0427 20:40:33.914837 20738 net.cpp:129] Top shape: 256 256 13 13 (11075584)
I0427 20:40:33.914840 20738 net.cpp:137] Memory required for data: 2094100480
I0427 20:40:33.914845 20738 layer_factory.hpp:77] Creating layer pool5
I0427 20:40:33.914852 20738 net.cpp:84] Creating Layer pool5
I0427 20:40:33.914856 20738 net.cpp:406] pool5 <- conv5
I0427 20:40:33.914863 20738 net.cpp:380] pool5 -> pool5
I0427 20:40:33.914901 20738 net.cpp:122] Setting up pool5
I0427 20:40:33.914907 20738 net.cpp:129] Top shape: 256 256 6 6 (2359296)
I0427 20:40:33.914911 20738 net.cpp:137] Memory required for data: 2103537664
I0427 20:40:33.914913 20738 layer_factory.hpp:77] Creating layer fc6
I0427 20:40:33.914925 20738 net.cpp:84] Creating Layer fc6
I0427 20:40:33.914928 20738 net.cpp:406] fc6 <- pool5
I0427 20:40:33.914934 20738 net.cpp:380] fc6 -> fc6
I0427 20:40:34.300185 20738 net.cpp:122] Setting up fc6
I0427 20:40:34.300210 20738 net.cpp:129] Top shape: 256 4096 (1048576)
I0427 20:40:34.300216 20738 net.cpp:137] Memory required for data: 2107731968
I0427 20:40:34.300230 20738 layer_factory.hpp:77] Creating layer relu6
I0427 20:40:34.300241 20738 net.cpp:84] Creating Layer relu6
I0427 20:40:34.300248 20738 net.cpp:406] relu6 <- fc6
I0427 20:40:34.300258 20738 net.cpp:367] relu6 -> fc6 (in-place)
I0427 20:40:34.301519 20738 net.cpp:122] Setting up relu6
I0427 20:40:34.301537 20738 net.cpp:129] Top shape: 256 4096 (1048576)
I0427 20:40:34.301543 20738 net.cpp:137] Memory required for data: 2111926272
I0427 20:40:34.301549 20738 layer_factory.hpp:77] Creating layer drop6
I0427 20:40:34.301559 20738 net.cpp:84] Creating Layer drop6
I0427 20:40:34.301564 20738 net.cpp:406] drop6 <- fc6
I0427 20:40:34.301571 20738 net.cpp:367] drop6 -> fc6 (in-place)
I0427 20:40:34.301610 20738 net.cpp:122] Setting up drop6
I0427 20:40:34.301620 20738 net.cpp:129] Top shape: 256 4096 (1048576)
I0427 20:40:34.301625 20738 net.cpp:137] Memory required for data: 2116120576
I0427 20:40:34.301630 20738 layer_factory.hpp:77] Creating layer fc7
I0427 20:40:34.301642 20738 net.cpp:84] Creating Layer fc7
I0427 20:40:34.301647 20738 net.cpp:406] fc7 <- fc6
I0427 20:40:34.301656 20738 net.cpp:380] fc7 -> fc7
I0427 20:40:34.524729 20738 net.cpp:122] Setting up fc7
I0427 20:40:34.524749 20738 net.cpp:129] Top shape: 256 4096 (1048576)
I0427 20:40:34.524752 20738 net.cpp:137] Memory required for data: 2120314880
I0427 20:40:34.524761 20738 layer_factory.hpp:77] Creating layer relu7
I0427 20:40:34.524771 20738 net.cpp:84] Creating Layer relu7
I0427 20:40:34.524775 20738 net.cpp:406] relu7 <- fc7
I0427 20:40:34.524781 20738 net.cpp:367] relu7 -> fc7 (in-place)
I0427 20:40:34.525411 20738 net.cpp:122] Setting up relu7
I0427 20:40:34.525422 20738 net.cpp:129] Top shape: 256 4096 (1048576)
I0427 20:40:34.525426 20738 net.cpp:137] Memory required for data: 2124509184
I0427 20:40:34.525430 20738 layer_factory.hpp:77] Creating layer drop7
I0427 20:40:34.525437 20738 net.cpp:84] Creating Layer drop7
I0427 20:40:34.525463 20738 net.cpp:406] drop7 <- fc7
I0427 20:40:34.525471 20738 net.cpp:367] drop7 -> fc7 (in-place)
I0427 20:40:34.525497 20738 net.cpp:122] Setting up drop7
I0427 20:40:34.525506 20738 net.cpp:129] Top shape: 256 4096 (1048576)
I0427 20:40:34.525511 20738 net.cpp:137] Memory required for data: 2128703488
I0427 20:40:34.525513 20738 layer_factory.hpp:77] Creating layer fc8
I0427 20:40:34.525521 20738 net.cpp:84] Creating Layer fc8
I0427 20:40:34.525524 20738 net.cpp:406] fc8 <- fc7
I0427 20:40:34.525532 20738 net.cpp:380] fc8 -> fc8
I0427 20:40:34.533460 20738 net.cpp:122] Setting up fc8
I0427 20:40:34.533478 20738 net.cpp:129] Top shape: 256 196 (50176)
I0427 20:40:34.533481 20738 net.cpp:137] Memory required for data: 2128904192
I0427 20:40:34.533490 20738 layer_factory.hpp:77] Creating layer loss
I0427 20:40:34.533499 20738 net.cpp:84] Creating Layer loss
I0427 20:40:34.533504 20738 net.cpp:406] loss <- fc8
I0427 20:40:34.533509 20738 net.cpp:406] loss <- label
I0427 20:40:34.533515 20738 net.cpp:380] loss -> loss
I0427 20:40:34.533526 20738 layer_factory.hpp:77] Creating layer loss
…
I0427 20:40:34.535135 20738 net.cpp:294] The NetState phase (1) differed from the phase (0) specified by a rule in layer train-data
I0427 20:40:34.535279 20738 net.cpp:51] Initializing net from parameters:
state {
phase: TEST
}
layer {
name: "val-data"
type: "Data"
top: "data"
top: "label"
include {
phase: TEST
}
transform_param {
crop_size: 227
mean_file: "/mnt/bigdisk/DIGITS-MAN-3/digits/jobs/20210427-192139-e31d/mean.binaryproto"
}
data_param {
source: "/mnt/bigdisk/DIGITS-MAN-3/digits/jobs/20210427-192139-e31d/val_db"
batch_size: 256
backend: LMDB
}
}
layer {
name: "conv1"
type: "Convolution"
bottom: "data"
top: "conv1"
param {
lr_mult: 1
decay_mult: 1
}
param {
lr_mult: 2
decay_mult: 0
}
convolution_param {
num_output: 96
kernel_size: 11
stride: 4
weight_filler {
type: "gaussian"
std: 0.01
}
bias_filler {
type: "constant"
value: 0
}
}
}
layer {
name: "relu1"
type: "ReLU"
bottom: "conv1"
top: "conv1"
}
layer {
name: "norm1"
type: "LRN"
bottom: "conv1"
top: "norm1"
lrn_param {
local_size: 5
alpha: 0.0001
beta: 0.75
}
}
layer {
name: "pool1"
type: "Pooling"
bottom: "norm1"
top: "pool1"
pooling_param {
pool: MAX
kernel_size: 3
stride: 2
}
}
layer {
name: "conv2"
type: "Convolution"
bottom: "pool1"
top: "conv2"
param {
lr_mult: 1
decay_mult: 1
}
param {
lr_mult: 2
decay_mult: 0
}
convolution_param {
num_output: 256
pad: 2
kernel_size: 5
group: 2
weight_filler {
type: "gaussian"
std: 0.01
}
bias_filler {
type: "constant"
value: 0.1
}
}
}
layer {
name: "relu2"
type: "ReLU"
bottom: "conv2"
top: "conv2"
}
layer {
name: "norm2"
type: "LRN"
bottom: "conv2"
top: "norm2"
lrn_param {
local_size: 5
alpha: 0.0001
beta: 0.75
}
}
layer {
name: "pool2"
type: "Pooling"
bottom: "norm2"
top: "pool2"
pooling_param {
pool: MAX
kernel_size: 3
stride: 2
}
}
layer {
name: "conv3"
type: "Convolution"
bottom: "pool2"
top: "conv3"
param {
lr_mult: 1
decay_mult: 1
}
param {
lr_mult: 2
decay_mult: 0
}
convolution_param {
num_output: 384
pad: 1
kernel_size: 3
weight_filler {
type: "gaussian"
std: 0.01
}
bias_filler {
type: "constant"
value: 0
}
}
}
layer {
name: "relu3"
type: "ReLU"
bottom: "conv3"
top: "conv3"
}
layer {
name: "conv4"
type: "Convolution"
bottom: "conv3"
top: "conv4"
param {
lr_mult: 1
decay_mult: 1
}
param {
lr_mult: 2
decay_mult: 0
}
convolution_param {
num_output: 384
pad: 1
kernel_size: 3
group: 2
weight_filler {
type: "gaussian"
std: 0.01
}
bias_filler {
type: "constant"
value: 0.1
}
}
}
layer {
name: "relu4"
type: "ReLU"
bottom: "conv4"
top: "conv4"
}
layer {
name: "conv5"
type: "Convolution"
bottom: "conv4"
top: "conv5"
param {
lr_mult: 1
decay_mult: 1
}
param {
lr_mult: 2
decay_mult: 0
}
convolution_param {
num_output: 256
pad: 1
kernel_size: 3
group: 2
weight_filler {
type: "gaussian"
std: 0.01
}
bias_filler {
type: "constant"
value: 0.1
}
}
}
layer {
name: "relu5"
type: "ReLU"
bottom: "conv5"
top: "conv5"
}
layer {
name: "pool5"
type: "Pooling"
bottom: "conv5"
top: "pool5"
pooling_param {
pool: MAX
kernel_size: 3
stride: 2
}
}
layer {
name: "fc6"
type: "InnerProduct"
bottom: "pool5"
top: "fc6"
param {
lr_mult: 1
decay_mult: 1
}
param {
lr_mult: 2
decay_mult: 0
}
inner_product_param {
num_output: 4096
weight_filler {
type: "gaussian"
std: 0.005
}
bias_filler {
type: "constant"
value: 0.1
}
}
}
layer {
name: "relu6"
type: "ReLU"
bottom: "fc6"
top: "fc6"
}
layer {
name: "drop6"
type: "Dropout"
bottom: "fc6"
top: "fc6"
dropout_param {
dropout_ratio: 0.5
}
}
layer {
name: "fc7"
type: "InnerProduct"
bottom: "fc6"
top: "fc7"
param {
lr_mult: 1
decay_mult: 1
}
param {
lr_mult: 2
decay_mult: 0
}
inner_product_param {
num_output: 4096
weight_filler {
type: "gaussian"
std: 0.005
}
bias_filler {
type: "constant"
value: 0.1
}
}
}
layer {
name: "relu7"
type: "ReLU"
bottom: "fc7"
top: "fc7"
}
layer {
name: "drop7"
type: "Dropout"
bottom: "fc7"
top: "fc7"
dropout_param {
dropout_ratio: 0.5
}
}
layer {
name: "fc8"
type: "InnerProduct"
bottom: "fc7"
top: "fc8"
param {
lr_mult: 1
decay_mult: 1
}
param {
lr_mult: 2
decay_mult: 0
}
inner_product_param {
num_output: 196
weight_filler {
type: "gaussian"
std: 0.01
}
bias_filler {
type: "constant"
value: 0
}
}
}
layer {
name: "accuracy"
type: "Accuracy"
bottom: "fc8"
bottom: "label"
top: "accuracy"
include {
phase: TEST
}
}
layer {
name: "loss"
type: "SoftmaxWithLoss"
bottom: "fc8"
bottom: "label"
top: "loss"
}
I0427 20:40:34.535387 20738 layer_factory.hpp:77] Creating layer val-data
I0427 20:40:34.537688 20738 db_lmdb.cpp:35] Opened lmdb /mnt/bigdisk/DIGITS-MAN-3/digits/jobs/20210427-192139-e31d/val_db
I0427 20:40:34.537832 20738 net.cpp:84] Creating Layer val-data
I0427 20:40:34.537843 20738 net.cpp:380] val-data -> data
I0427 20:40:34.537853 20738 net.cpp:380] val-data -> label
I0427 20:40:34.537863 20738 data_transformer.cpp:25] Loading mean file from: /mnt/bigdisk/DIGITS-MAN-3/digits/jobs/20210427-192139-e31d/mean.binaryproto
I0427 20:40:34.540462 20738 data_layer.cpp:45] output data size: 256,3,227,227
I0427 20:40:34.822058 20738 net.cpp:122] Setting up val-data
I0427 20:40:34.822085 20738 net.cpp:129] Top shape: 256 3 227 227 (39574272)
I0427 20:40:34.822094 20738 net.cpp:129] Top shape: 256 (256)
I0427 20:40:34.822100 20738 net.cpp:137] Memory required for data: 158298112
I0427 20:40:34.822110 20738 layer_factory.hpp:77] Creating layer label_val-data_1_split
I0427 20:40:34.822126 20738 net.cpp:84] Creating Layer label_val-data_1_split
I0427 20:40:34.822134 20738 net.cpp:406] label_val-data_1_split <- label
I0427 20:40:34.822144 20738 net.cpp:380] label_val-data_1_split -> label_val-data_1_split_0
I0427 20:40:34.822160 20738 net.cpp:380] label_val-data_1_split -> label_val-data_1_split_1
I0427 20:40:34.822273 20738 net.cpp:122] Setting up label_val-data_1_split
I0427 20:40:34.822286 20738 net.cpp:129] Top shape: 256 (256)
I0427 20:40:34.822293 20738 net.cpp:129] Top shape: 256 (256)
I0427 20:40:34.822299 20738 net.cpp:137] Memory required for data: 158300160
I0427 20:40:34.822305 20738 layer_factory.hpp:77] Creating layer conv1
I0427 20:40:34.822324 20738 net.cpp:84] Creating Layer conv1
I0427 20:40:34.822330 20738 net.cpp:406] conv1 <- data
I0427 20:40:34.822340 20738 net.cpp:380] conv1 -> conv1
I0427 20:40:34.860085 20738 net.cpp:122] Setting up conv1
I0427 20:40:34.860110 20738 net.cpp:129] Top shape: 256 96 55 55 (74342400)
I0427 20:40:34.860116 20738 net.cpp:137] Memory required for data: 455669760
I0427 20:40:34.860133 20738 layer_factory.hpp:77] Creating layer relu1
I0427 20:40:34.860146 20738 net.cpp:84] Creating Layer relu1
I0427 20:40:34.860152 20738 net.cpp:406] relu1 <- conv1
I0427 20:40:34.860162 20738 net.cpp:367] relu1 -> conv1 (in-place)
I0427 20:40:34.860667 20738 net.cpp:122] Setting up relu1
I0427 20:40:34.860680 20738 net.cpp:129] Top shape: 256 96 55 55 (74342400)
I0427 20:40:34.860685 20738 net.cpp:137] Memory required for data: 753039360
I0427 20:40:34.860692 20738 layer_factory.hpp:77] Creating layer norm1
I0427 20:40:34.860702 20738 net.cpp:84] Creating Layer norm1
I0427 20:40:34.860708 20738 net.cpp:406] norm1 <- conv1
I0427 20:40:34.860716 20738 net.cpp:380] norm1 -> norm1
I0427 20:40:34.888993 20738 net.cpp:122] Setting up norm1
I0427 20:40:34.889020 20738 net.cpp:129] Top shape: 256 96 55 55 (74342400)
I0427 20:40:34.889026 20738 net.cpp:137] Memory required for data: 1050408960
I0427 20:40:34.889034 20738 layer_factory.hpp:77] Creating layer pool1
I0427 20:40:34.889047 20738 net.cpp:84] Creating Layer pool1
I0427 20:40:34.889055 20738 net.cpp:406] pool1 <- norm1
I0427 20:40:34.889065 20738 net.cpp:380] pool1 -> pool1
I0427 20:40:34.889107 20738 net.cpp:122] Setting up pool1
I0427 20:40:34.889115 20738 net.cpp:129] Top shape: 256 96 27 27 (17915904)
I0427 20:40:34.889120 20738 net.cpp:137] Memory required for data: 1122072576
I0427 20:40:34.889125 20738 layer_factory.hpp:77] Creating layer conv2
I0427 20:40:34.889139 20738 net.cpp:84] Creating Layer conv2
I0427 20:40:34.889171 20738 net.cpp:406] conv2 <- pool1
I0427 20:40:34.889181 20738 net.cpp:380] conv2 -> conv2
I0427 20:40:34.899832 20738 net.cpp:122] Setting up conv2
I0427 20:40:34.899852 20738 net.cpp:129] Top shape: 256 256 27 27 (47775744)
I0427 20:40:34.899858 20738 net.cpp:137] Memory required for data: 1313175552
I0427 20:40:34.899873 20738 layer_factory.hpp:77] Creating layer relu2
I0427 20:40:34.899881 20738 net.cpp:84] Creating Layer relu2
I0427 20:40:34.899886 20738 net.cpp:406] relu2 <- conv2
I0427 20:40:34.899895 20738 net.cpp:367] relu2 -> conv2 (in-place)
I0427 20:40:34.900403 20738 net.cpp:122] Setting up relu2
I0427 20:40:34.900414 20738 net.cpp:129] Top shape: 256 256 27 27 (47775744)
I0427 20:40:34.900418 20738 net.cpp:137] Memory required for data: 1504278528
I0427 20:40:34.900424 20738 layer_factory.hpp:77] Creating layer norm2
I0427 20:40:34.900435 20738 net.cpp:84] Creating Layer norm2
I0427 20:40:34.900440 20738 net.cpp:406] norm2 <- conv2
I0427 20:40:34.900450 20738 net.cpp:380] norm2 -> norm2
I0427 20:40:34.901010 20738 net.cpp:122] Setting up norm2
I0427 20:40:34.901021 20738 net.cpp:129] Top shape: 256 256 27 27 (47775744)
I0427 20:40:34.901024 20738 net.cpp:137] Memory required for data: 1695381504
I0427 20:40:34.901029 20738 layer_factory.hpp:77] Creating layer pool2
I0427 20:40:34.901037 20738 net.cpp:84] Creating Layer pool2
I0427 20:40:34.901041 20738 net.cpp:406] pool2 <- norm2
I0427 20:40:34.901048 20738 net.cpp:380] pool2 -> pool2
I0427 20:40:34.901082 20738 net.cpp:122] Setting up pool2
I0427 20:40:34.901088 20738 net.cpp:129] Top shape: 256 256 13 13 (11075584)
I0427 20:40:34.901093 20738 net.cpp:137] Memory required for data: 1739683840
I0427 20:40:34.901096 20738 layer_factory.hpp:77] Creating layer conv3
I0427 20:40:34.901111 20738 net.cpp:84] Creating Layer conv3
I0427 20:40:34.901115 20738 net.cpp:406] conv3 <- pool2
I0427 20:40:34.901121 20738 net.cpp:380] conv3 -> conv3
I0427 20:40:34.916435 20738 net.cpp:122] Setting up conv3
I0427 20:40:34.916456 20738 net.cpp:129] Top shape: 256 384 13 13 (16613376)
I0427 20:40:34.916461 20738 net.cpp:137] Memory required for data: 1806137344
I0427 20:40:34.916481 20738 layer_factory.hpp:77] Creating layer relu3
I0427 20:40:34.916528 20738 net.cpp:84] Creating Layer relu3
I0427 20:40:34.916534 20738 net.cpp:406] relu3 <- conv3
I0427 20:40:34.916543 20738 net.cpp:367] relu3 -> conv3 (in-place)
I0427 20:40:34.917222 20738 net.cpp:122] Setting up relu3
I0427 20:40:34.917234 20738 net.cpp:129] Top shape: 256 384 13 13 (16613376)
I0427 20:40:34.917239 20738 net.cpp:137] Memory required for data: 1872590848
I0427 20:40:34.917246 20738 layer_factory.hpp:77] Creating layer conv4
I0427 20:40:34.917263 20738 net.cpp:84] Creating Layer conv4
I0427 20:40:34.917268 20738 net.cpp:406] conv4 <- conv3
I0427 20:40:34.917279 20738 net.cpp:380] conv4 -> conv4
I0427 20:40:34.931216 20738 net.cpp:122] Setting up conv4
I0427 20:40:34.931241 20738 net.cpp:129] Top shape: 256 384 13 13 (16613376)
I0427 20:40:34.931246 20738 net.cpp:137] Memory required for data: 1939044352
I0427 20:40:34.931258 20738 layer_factory.hpp:77] Creating layer relu4
I0427 20:40:34.931270 20738 net.cpp:84] Creating Layer relu4
I0427 20:40:34.931277 20738 net.cpp:406] relu4 <- conv4
I0427 20:40:34.931288 20738 net.cpp:367] relu4 -> conv4 (in-place)
I0427 20:40:34.931751 20738 net.cpp:122] Setting up relu4
I0427 20:40:34.931763 20738 net.cpp:129] Top shape: 256 384 13 13 (16613376)
I0427 20:40:34.931768 20738 net.cpp:137] Memory required for data: 2005497856
I0427 20:40:34.931774 20738 layer_factory.hpp:77] Creating layer conv5
I0427 20:40:34.931789 20738 net.cpp:84] Creating Layer conv5
I0427 20:40:34.931794 20738 net.cpp:406] conv5 <- conv4
I0427 20:40:34.931803 20738 net.cpp:380] conv5 -> conv5
I0427 20:40:34.944267 20738 net.cpp:122] Setting up conv5
I0427 20:40:34.944290 20738 net.cpp:129] Top shape: 256 256 13 13 (11075584)
I0427 20:40:34.944296 20738 net.cpp:137] Memory required for data: 2049800192
I0427 20:40:34.944314 20738 layer_factory.hpp:77] Creating layer relu5
I0427 20:40:34.944350 20738 net.cpp:84] Creating Layer relu5
I0427 20:40:34.944356 20738 net.cpp:406] relu5 <- conv5
I0427 20:40:34.944366 20738 net.cpp:367] relu5 -> conv5 (in-place)
I0427 20:40:34.945053 20738 net.cpp:122] Setting up relu5
I0427 20:40:34.945065 20738 net.cpp:129] Top shape: 256 256 13 13 (11075584)
I0427 20:40:34.945072 20738 net.cpp:137] Memory required for data: 2094102528
I0427 20:40:34.945078 20738 layer_factory.hpp:77] Creating layer pool5
I0427 20:40:34.945093 20738 net.cpp:84] Creating Layer pool5
I0427 20:40:34.945099 20738 net.cpp:406] pool5 <- conv5
I0427 20:40:34.945108 20738 net.cpp:380] pool5 -> pool5
I0427 20:40:34.945159 20738 net.cpp:122] Setting up pool5
I0427 20:40:34.945168 20738 net.cpp:129] Top shape: 256 256 6 6 (2359296)
I0427 20:40:34.945173 20738 net.cpp:137] Memory required for data: 2103539712
I0427 20:40:34.945181 20738 layer_factory.hpp:77] Creating layer fc6
I0427 20:40:34.945192 20738 net.cpp:84] Creating Layer fc6
I0427 20:40:34.945197 20738 net.cpp:406] fc6 <- pool5
I0427 20:40:34.945206 20738 net.cpp:380] fc6 -> fc6
I0427 20:40:35.337080 20738 net.cpp:122] Setting up fc6
I0427 20:40:35.337106 20738 net.cpp:129] Top shape: 256 4096 (1048576)
I0427 20:40:35.337111 20738 net.cpp:137] Memory required for data: 2107734016
I0427 20:40:35.337121 20738 layer_factory.hpp:77] Creating layer relu6
I0427 20:40:35.337134 20738 net.cpp:84] Creating Layer relu6
I0427 20:40:35.337139 20738 net.cpp:406] relu6 <- fc6
I0427 20:40:35.337146 20738 net.cpp:367] relu6 -> fc6 (in-place)
I0427 20:40:35.338512 20738 net.cpp:122] Setting up relu6
I0427 20:40:35.338522 20738 net.cpp:129] Top shape: 256 4096 (1048576)
I0427 20:40:35.338526 20738 net.cpp:137] Memory required for data: 2111928320
I0427 20:40:35.338531 20738 layer_factory.hpp:77] Creating layer drop6
I0427 20:40:35.338539 20738 net.cpp:84] Creating Layer drop6
I0427 20:40:35.338543 20738 net.cpp:406] drop6 <- fc6
I0427 20:40:35.338553 20738 net.cpp:367] drop6 -> fc6 (in-place)
I0427 20:40:35.338582 20738 net.cpp:122] Setting up drop6
I0427 20:40:35.338587 20738 net.cpp:129] Top shape: 256 4096 (1048576)
I0427 20:40:35.338591 20738 net.cpp:137] Memory required for data: 2116122624
I0427 20:40:35.338595 20738 layer_factory.hpp:77] Creating layer fc7
I0427 20:40:35.338604 20738 net.cpp:84] Creating Layer fc7
I0427 20:40:35.338608 20738 net.cpp:406] fc7 <- fc6
I0427 20:40:35.338615 20738 net.cpp:380] fc7 -> fc7
I0427 20:40:35.498028 20738 net.cpp:122] Setting up fc7
I0427 20:40:35.498047 20738 net.cpp:129] Top shape: 256 4096 (1048576)
I0427 20:40:35.498051 20738 net.cpp:137] Memory required for data: 2120316928
I0427 20:40:35.498061 20738 layer_factory.hpp:77] Creating layer relu7
I0427 20:40:35.498071 20738 net.cpp:84] Creating Layer relu7
I0427 20:40:35.498075 20738 net.cpp:406] relu7 <- fc7
I0427 20:40:35.498082 20738 net.cpp:367] relu7 -> fc7 (in-place)
I0427 20:40:35.498502 20738 net.cpp:122] Setting up relu7
I0427 20:40:35.498509 20738 net.cpp:129] Top shape: 256 4096 (1048576)
I0427 20:40:35.498513 20738 net.cpp:137] Memory required for data: 2124511232
I0427 20:40:35.498517 20738 layer_factory.hpp:77] Creating layer drop7
I0427 20:40:35.498524 20738 net.cpp:84] Creating Layer drop7
I0427 20:40:35.498528 20738 net.cpp:406] drop7 <- fc7
I0427 20:40:35.498533 20738 net.cpp:367] drop7 -> fc7 (in-place)
I0427 20:40:35.498558 20738 net.cpp:122] Setting up drop7
I0427 20:40:35.498564 20738 net.cpp:129] Top shape: 256 4096 (1048576)
I0427 20:40:35.498566 20738 net.cpp:137] Memory required for data: 2128705536
I0427 20:40:35.498570 20738 layer_factory.hpp:77] Creating layer fc8
I0427 20:40:35.498579 20738 net.cpp:84] Creating Layer fc8
I0427 20:40:35.498584 20738 net.cpp:406] fc8 <- fc7
I0427 20:40:35.498589 20738 net.cpp:380] fc8 -> fc8
I0427 20:40:35.511121 20738 net.cpp:122] Setting up fc8
I0427 20:40:35.511140 20738 net.cpp:129] Top shape: 256 196 (50176)
I0427 20:40:35.511144 20738 net.cpp:137] Memory required for data: 2128906240
I0427 20:40:35.511153 20738 layer_factory.hpp:77] Creating layer fc8_fc8_0_split
I0427 20:40:35.511162 20738 net.cpp:84] Creating Layer fc8_fc8_0_split
I0427 20:40:35.511185 20738 net.cpp:406] fc8_fc8_0_split <- fc8
I0427 20:40:35.511196 20738 net.cpp:380] fc8_fc8_0_split -> fc8_fc8_0_split_0
I0427 20:40:35.511205 20738 net.cpp:380] fc8_fc8_0_split -> fc8_fc8_0_split_1
I0427 20:40:35.511240 20738 net.cpp:122] Setting up fc8_fc8_0_split
I0427 20:40:35.511245 20738 net.cpp:129] Top shape: 256 196 (50176)
I0427 20:40:35.511248 20738 net.cpp:129] Top shape: 256 196 (50176)
I0427 20:40:35.511251 20738 net.cpp:137] Memory required for data: 2129307648
I0427 20:40:35.511255 20738 layer_factory.hpp:77] Creating layer accuracy
I0427 20:40:35.511263 20738 net.cpp:84] Creating Layer accuracy
I0427 20:40:35.511266 20738 net.cpp:406] accuracy <- fc8_fc8_0_split_0
I0427 20:40:35.511271 20738 net.cpp:406] accuracy <- label_val-data_1_split_0
I0427 20:40:35.511276 20738 net.cpp:380] accuracy -> accuracy
…
