…
I0428 15:36:09.847517 19921 net.cpp:294] The NetState phase (0) differed from the phase (1) specified by a rule in layer accuracy
I0428 15:36:09.847733 19921 net.cpp:51] Initializing net from parameters:
state {
phase: TRAIN
level: 0
stage: ""
}
layer {
name: "train-data"
type: "Data"
top: "data"
top: "label"
include {
phase: TRAIN
}
transform_param {
mirror: true
crop_size: 227
mean_file: "/mnt/bigdisk/DIGITS-MAN-3/digits/jobs/20210421-230320-902c/mean.binaryproto"
}
data_param {
source: "/mnt/bigdisk/DIGITS-MAN-3/digits/jobs/20210421-230320-902c/train_db"
batch_size: 128
backend: LMDB
}
}
layer {
name: "conv1"
type: "Convolution"
bottom: "data"
top: "conv1"
param {
lr_mult: 1
decay_mult: 1
}
param {
lr_mult: 2
decay_mult: 0
}
convolution_param {
num_output: 96
kernel_size: 11
stride: 4
weight_filler {
type: "gaussian"
std: 0.01
}
bias_filler {
type: "constant"
value: 0
}
}
}
layer {
name: "relu1"
type: "ReLU"
bottom: "conv1"
top: "conv1"
}
layer {
name: "norm1"
type: "LRN"
bottom: "conv1"
top: "norm1"
lrn_param {
local_size: 5
alpha: 0.0001
beta: 0.75
}
}
layer {
name: "pool1"
type: "Pooling"
bottom: "norm1"
top: "pool1"
pooling_param {
pool: MAX
kernel_size: 3
stride: 2
}
}
layer {
name: "conv1.5"
type: "Convolution"
bottom: "pool1"
top: "conv1.5"
param {
lr_mult: 1
decay_mult: 1
}
param {
lr_mult: 2
decay_mult: 0
}
convolution_param {
num_output: 176
kernel_size: 7
stride: 1
weight_filler {
type: "gaussian"
std: 0.01
}
bias_filler {
type: "constant"
value: 0
}
}
}
layer {
name: "relu1.5"
type: "ReLU"
bottom: "conv1.5"
top: "conv1.5"
}
layer {
name: "norm1.5"
type: "LRN"
bottom: "conv1.5"
top: "norm1.5"
lrn_param {
local_size: 5
alpha: 0.0001
beta: 0.75
}
}
layer {
name: "pool1.5"
type: "Pooling"
bottom: "norm1.5"
top: "pool1.5"
pooling_param {
pool: MAX
kernel_size: 3
stride: 2
}
}
layer {
name: "conv2"
type: "Convolution"
bottom: "pool1.5"
top: "conv2"
param {
lr_mult: 1
decay_mult: 1
}
param {
lr_mult: 2
decay_mult: 0
}
convolution_param {
num_output: 256
pad: 2
kernel_size: 5
group: 2
weight_filler {
type: "gaussian"
std: 0.01
}
bias_filler {
type: "constant"
value: 0.1
}
}
}
layer {
name: "relu2"
type: "ReLU"
bottom: "conv2"
top: "conv2"
}
layer {
name: "norm2"
type: "LRN"
bottom: "conv2"
top: "norm2"
lrn_param {
local_size: 5
alpha: 0.0001
beta: 0.75
}
}
layer {
name: "pool2"
type: "Pooling"
bottom: "norm2"
top: "pool2"
pooling_param {
pool: MAX
kernel_size: 3
stride: 2
}
}
layer {
name: "conv3"
type: "Convolution"
bottom: "pool2"
top: "conv3"
param {
lr_mult: 1
decay_mult: 1
}
param {
lr_mult: 2
decay_mult: 0
}
convolution_param {
num_output: 384
pad: 1
kernel_size: 3
weight_filler {
type: "gaussian"
std: 0.01
}
bias_filler {
type: "constant"
value: 0
}
}
}
layer {
name: "relu3"
type: "ReLU"
bottom: "conv3"
top: "conv3"
}
layer {
name: "conv4"
type: "Convolution"
bottom: "conv3"
top: "conv4"
param {
lr_mult: 1
decay_mult: 1
}
param {
lr_mult: 2
decay_mult: 0
}
convolution_param {
num_output: 384
pad: 1
kernel_size: 3
group: 2
weight_filler {
type: "gaussian"
std: 0.01
}
bias_filler {
type: "constant"
value: 0.1
}
}
}
layer {
name: "relu4"
type: "ReLU"
bottom: "conv4"
top: "conv4"
}
layer {
name: "conv5"
type: "Convolution"
bottom: "conv4"
top: "conv5"
param {
lr_mult: 1
decay_mult: 1
}
param {
lr_mult: 2
decay_mult: 0
}
convolution_param {
num_output: 256
pad: 1
kernel_size: 3
group: 2
weight_filler {
type: "gaussian"
std: 0.01
}
bias_filler {
type: "constant"
value: 0.1
}
}
}
layer {
name: "relu5"
type: "ReLU"
bottom: "conv5"
top: "conv5"
}
layer {
name: "pool5"
type: "Pooling"
bottom: "conv5"
top: "pool5"
pooling_param {
pool: MAX
kernel_size: 3
stride: 2
}
}
layer {
name: "fc6"
type: "InnerProduct"
bottom: "pool5"
top: "fc6"
param {
lr_mult: 1
decay_mult: 1
}
param {
lr_mult: 2
decay_mult: 0
}
inner_product_param {
num_output: 4096
weight_filler {
type: "gaussian"
std: 0.005
}
bias_filler {
type: "constant"
value: 0.1
}
}
}
layer {
name: "relu6"
type: "ReLU"
bottom: "fc6"
top: "fc6"
}
layer {
name: "drop6"
type: "Dropout"
bottom: "fc6"
top: "fc6"
dropout_param {
dropout_ratio: 0.5
}
}
layer {
name: "fc7"
type: "InnerProduct"
bottom: "fc6"
top: "fc7"
param {
lr_mult: 1
decay_mult: 1
}
param {
lr_mult: 2
decay_mult: 0
}
inner_product_param {
num_output: 4096
weight_filler {
type: "gaussian"
std: 0.005
}
bias_filler {
type: "constant"
value: 0.1
}
}
}
layer {
name: "relu7"
type: "ReLU"
bottom: "fc7"
top: "fc7"
}
layer {
name: "drop7"
type: "Dropout"
bottom: "fc7"
top: "fc7"
dropout_param {
dropout_ratio: 0.5
}
}
layer {
name: "fc8"
type: "InnerProduct"
bottom: "fc7"
top: "fc8"
param {
lr_mult: 1
decay_mult: 1
}
param {
lr_mult: 2
decay_mult: 0
}
inner_product_param {
num_output: 196
weight_filler {
type: "gaussian"
std: 0.01
}
bias_filler {
type: "constant"
value: 0
}
}
}
layer {
name: "loss"
type: "SoftmaxWithLoss"
bottom: "fc8"
bottom: "label"
top: "loss"
}
I0428 15:36:09.847858 19921 layer_factory.hpp:77] Creating layer train-data
I0428 15:36:09.855005 19921 db_lmdb.cpp:35] Opened lmdb /mnt/bigdisk/DIGITS-MAN-3/digits/jobs/20210421-230320-902c/train_db
I0428 15:36:09.855207 19921 net.cpp:84] Creating Layer train-data
I0428 15:36:09.855221 19921 net.cpp:380] train-data -> data
I0428 15:36:09.855242 19921 net.cpp:380] train-data -> label
I0428 15:36:09.855253 19921 data_transformer.cpp:25] Loading mean file from: /mnt/bigdisk/DIGITS-MAN-3/digits/jobs/20210421-230320-902c/mean.binaryproto
I0428 15:36:09.860666 19921 data_layer.cpp:45] output data size: 128,3,227,227
I0428 15:36:10.009233 19921 net.cpp:122] Setting up train-data
I0428 15:36:10.009255 19921 net.cpp:129] Top shape: 128 3 227 227 (19787136)
I0428 15:36:10.009261 19921 net.cpp:129] Top shape: 128 (128)
I0428 15:36:10.009265 19921 net.cpp:137] Memory required for data: 79149056
I0428 15:36:10.009274 19921 layer_factory.hpp:77] Creating layer conv1
I0428 15:36:10.009295 19921 net.cpp:84] Creating Layer conv1
I0428 15:36:10.009301 19921 net.cpp:406] conv1 <- data
I0428 15:36:10.009313 19921 net.cpp:380] conv1 -> conv1
I0428 15:36:10.608000 19921 net.cpp:122] Setting up conv1
I0428 15:36:10.608042 19921 net.cpp:129] Top shape: 128 96 55 55 (37171200)
I0428 15:36:10.608045 19921 net.cpp:137] Memory required for data: 227833856
I0428 15:36:10.608065 19921 layer_factory.hpp:77] Creating layer relu1
I0428 15:36:10.608076 19921 net.cpp:84] Creating Layer relu1
I0428 15:36:10.608081 19921 net.cpp:406] relu1 <- conv1
I0428 15:36:10.608088 19921 net.cpp:367] relu1 -> conv1 (in-place)
I0428 15:36:10.608373 19921 net.cpp:122] Setting up relu1
I0428 15:36:10.608382 19921 net.cpp:129] Top shape: 128 96 55 55 (37171200)
I0428 15:36:10.608386 19921 net.cpp:137] Memory required for data: 376518656
I0428 15:36:10.608390 19921 layer_factory.hpp:77] Creating layer norm1
I0428 15:36:10.608399 19921 net.cpp:84] Creating Layer norm1
I0428 15:36:10.608404 19921 net.cpp:406] norm1 <- conv1
I0428 15:36:10.608410 19921 net.cpp:380] norm1 -> norm1
I0428 15:36:10.608880 19921 net.cpp:122] Setting up norm1
I0428 15:36:10.608891 19921 net.cpp:129] Top shape: 128 96 55 55 (37171200)
I0428 15:36:10.608894 19921 net.cpp:137] Memory required for data: 525203456
I0428 15:36:10.608898 19921 layer_factory.hpp:77] Creating layer pool1
I0428 15:36:10.608906 19921 net.cpp:84] Creating Layer pool1
I0428 15:36:10.608911 19921 net.cpp:406] pool1 <- norm1
I0428 15:36:10.608916 19921 net.cpp:380] pool1 -> pool1
I0428 15:36:10.608952 19921 net.cpp:122] Setting up pool1
I0428 15:36:10.608958 19921 net.cpp:129] Top shape: 128 96 27 27 (8957952)
I0428 15:36:10.608961 19921 net.cpp:137] Memory required for data: 561035264
I0428 15:36:10.608965 19921 layer_factory.hpp:77] Creating layer conv1.5
I0428 15:36:10.608975 19921 net.cpp:84] Creating Layer conv1.5
I0428 15:36:10.608979 19921 net.cpp:406] conv1.5 <- pool1
I0428 15:36:10.608984 19921 net.cpp:380] conv1.5 -> conv1.5
I0428 15:36:10.618631 19921 net.cpp:122] Setting up conv1.5
I0428 15:36:10.618647 19921 net.cpp:129] Top shape: 128 176 21 21 (9934848)
I0428 15:36:10.618651 19921 net.cpp:137] Memory required for data: 600774656
I0428 15:36:10.618662 19921 layer_factory.hpp:77] Creating layer relu1.5
I0428 15:36:10.618671 19921 net.cpp:84] Creating Layer relu1.5
I0428 15:36:10.618675 19921 net.cpp:406] relu1.5 <- conv1.5
I0428 15:36:10.618683 19921 net.cpp:367] relu1.5 -> conv1.5 (in-place)
I0428 15:36:10.619024 19921 net.cpp:122] Setting up relu1.5
I0428 15:36:10.619032 19921 net.cpp:129] Top shape: 128 176 21 21 (9934848)
I0428 15:36:10.619036 19921 net.cpp:137] Memory required for data: 640514048
I0428 15:36:10.619040 19921 layer_factory.hpp:77] Creating layer norm1.5
I0428 15:36:10.619047 19921 net.cpp:84] Creating Layer norm1.5
I0428 15:36:10.619050 19921 net.cpp:406] norm1.5 <- conv1.5
I0428 15:36:10.619057 19921 net.cpp:380] norm1.5 -> norm1.5
I0428 15:36:10.620692 19921 net.cpp:122] Setting up norm1.5
I0428 15:36:10.620702 19921 net.cpp:129] Top shape: 128 176 21 21 (9934848)
I0428 15:36:10.620705 19921 net.cpp:137] Memory required for data: 680253440
I0428 15:36:10.620709 19921 layer_factory.hpp:77] Creating layer pool1.5
I0428 15:36:10.620719 19921 net.cpp:84] Creating Layer pool1.5
I0428 15:36:10.620723 19921 net.cpp:406] pool1.5 <- norm1.5
I0428 15:36:10.620729 19921 net.cpp:380] pool1.5 -> pool1.5
I0428 15:36:10.620760 19921 net.cpp:122] Setting up pool1.5
I0428 15:36:10.620766 19921 net.cpp:129] Top shape: 128 176 10 10 (2252800)
I0428 15:36:10.620769 19921 net.cpp:137] Memory required for data: 689264640
I0428 15:36:10.620772 19921 layer_factory.hpp:77] Creating layer conv2
I0428 15:36:10.620784 19921 net.cpp:84] Creating Layer conv2
I0428 15:36:10.620786 19921 net.cpp:406] conv2 <- pool1.5
I0428 15:36:10.620793 19921 net.cpp:380] conv2 -> conv2
I0428 15:36:10.629302 19921 net.cpp:122] Setting up conv2
I0428 15:36:10.629317 19921 net.cpp:129] Top shape: 128 256 10 10 (3276800)
I0428 15:36:10.629320 19921 net.cpp:137] Memory required for data: 702371840
I0428 15:36:10.629333 19921 layer_factory.hpp:77] Creating layer relu2
I0428 15:36:10.629339 19921 net.cpp:84] Creating Layer relu2
I0428 15:36:10.629344 19921 net.cpp:406] relu2 <- conv2
I0428 15:36:10.629351 19921 net.cpp:367] relu2 -> conv2 (in-place)
I0428 15:36:10.629884 19921 net.cpp:122] Setting up relu2
I0428 15:36:10.629894 19921 net.cpp:129] Top shape: 128 256 10 10 (3276800)
I0428 15:36:10.629899 19921 net.cpp:137] Memory required for data: 715479040
I0428 15:36:10.629902 19921 layer_factory.hpp:77] Creating layer norm2
I0428 15:36:10.629910 19921 net.cpp:84] Creating Layer norm2
I0428 15:36:10.629914 19921 net.cpp:406] norm2 <- conv2
I0428 15:36:10.629921 19921 net.cpp:380] norm2 -> norm2
I0428 15:36:10.630285 19921 net.cpp:122] Setting up norm2
I0428 15:36:10.630293 19921 net.cpp:129] Top shape: 128 256 10 10 (3276800)
I0428 15:36:10.630297 19921 net.cpp:137] Memory required for data: 728586240
I0428 15:36:10.630301 19921 layer_factory.hpp:77] Creating layer pool2
I0428 15:36:10.630308 19921 net.cpp:84] Creating Layer pool2
I0428 15:36:10.630312 19921 net.cpp:406] pool2 <- norm2
I0428 15:36:10.630317 19921 net.cpp:380] pool2 -> pool2
I0428 15:36:10.630347 19921 net.cpp:122] Setting up pool2
I0428 15:36:10.630354 19921 net.cpp:129] Top shape: 128 256 5 5 (819200)
I0428 15:36:10.630357 19921 net.cpp:137] Memory required for data: 731863040
I0428 15:36:10.630360 19921 layer_factory.hpp:77] Creating layer conv3
I0428 15:36:10.630370 19921 net.cpp:84] Creating Layer conv3
I0428 15:36:10.630374 19921 net.cpp:406] conv3 <- pool2
I0428 15:36:10.630380 19921 net.cpp:380] conv3 -> conv3
I0428 15:36:10.641896 19921 net.cpp:122] Setting up conv3
I0428 15:36:10.641913 19921 net.cpp:129] Top shape: 128 384 5 5 (1228800)
I0428 15:36:10.641916 19921 net.cpp:137] Memory required for data: 736778240
I0428 15:36:10.641924 19921 layer_factory.hpp:77] Creating layer relu3
I0428 15:36:10.641935 19921 net.cpp:84] Creating Layer relu3
I0428 15:36:10.641940 19921 net.cpp:406] relu3 <- conv3
I0428 15:36:10.641947 19921 net.cpp:367] relu3 -> conv3 (in-place)
I0428 15:36:10.643869 19921 net.cpp:122] Setting up relu3
I0428 15:36:10.643879 19921 net.cpp:129] Top shape: 128 384 5 5 (1228800)
I0428 15:36:10.643883 19921 net.cpp:137] Memory required for data: 741693440
I0428 15:36:10.643887 19921 layer_factory.hpp:77] Creating layer conv4
I0428 15:36:10.643898 19921 net.cpp:84] Creating Layer conv4
I0428 15:36:10.643903 19921 net.cpp:406] conv4 <- conv3
I0428 15:36:10.643910 19921 net.cpp:380] conv4 -> conv4
I0428 15:36:10.683077 19921 net.cpp:122] Setting up conv4
I0428 15:36:10.683096 19921 net.cpp:129] Top shape: 128 384 5 5 (1228800)
I0428 15:36:10.683101 19921 net.cpp:137] Memory required for data: 746608640
I0428 15:36:10.683115 19921 layer_factory.hpp:77] Creating layer relu4
I0428 15:36:10.683127 19921 net.cpp:84] Creating Layer relu4
I0428 15:36:10.683131 19921 net.cpp:406] relu4 <- conv4
I0428 15:36:10.683138 19921 net.cpp:367] relu4 -> conv4 (in-place)
I0428 15:36:10.727378 19921 net.cpp:122] Setting up relu4
I0428 15:36:10.727401 19921 net.cpp:129] Top shape: 128 384 5 5 (1228800)
I0428 15:36:10.727406 19921 net.cpp:137] Memory required for data: 751523840
I0428 15:36:10.727411 19921 layer_factory.hpp:77] Creating layer conv5
I0428 15:36:10.727430 19921 net.cpp:84] Creating Layer conv5
I0428 15:36:10.727435 19921 net.cpp:406] conv5 <- conv4
I0428 15:36:10.727445 19921 net.cpp:380] conv5 -> conv5
I0428 15:36:10.737062 19921 net.cpp:122] Setting up conv5
I0428 15:36:10.737082 19921 net.cpp:129] Top shape: 128 256 5 5 (819200)
I0428 15:36:10.737087 19921 net.cpp:137] Memory required for data: 754800640
I0428 15:36:10.737097 19921 layer_factory.hpp:77] Creating layer relu5
I0428 15:36:10.737107 19921 net.cpp:84] Creating Layer relu5
I0428 15:36:10.737112 19921 net.cpp:406] relu5 <- conv5
I0428 15:36:10.737119 19921 net.cpp:367] relu5 -> conv5 (in-place)
I0428 15:36:10.737615 19921 net.cpp:122] Setting up relu5
I0428 15:36:10.737625 19921 net.cpp:129] Top shape: 128 256 5 5 (819200)
I0428 15:36:10.737629 19921 net.cpp:137] Memory required for data: 758077440
I0428 15:36:10.737633 19921 layer_factory.hpp:77] Creating layer pool5
I0428 15:36:10.737643 19921 net.cpp:84] Creating Layer pool5
I0428 15:36:10.737646 19921 net.cpp:406] pool5 <- conv5
I0428 15:36:10.737653 19921 net.cpp:380] pool5 -> pool5
I0428 15:36:10.737711 19921 net.cpp:122] Setting up pool5
I0428 15:36:10.737718 19921 net.cpp:129] Top shape: 128 256 2 2 (131072)
I0428 15:36:10.737721 19921 net.cpp:137] Memory required for data: 758601728
I0428 15:36:10.737725 19921 layer_factory.hpp:77] Creating layer fc6
I0428 15:36:10.737732 19921 net.cpp:84] Creating Layer fc6
I0428 15:36:10.737736 19921 net.cpp:406] fc6 <- pool5
I0428 15:36:10.737743 19921 net.cpp:380] fc6 -> fc6
I0428 15:36:10.777877 19921 net.cpp:122] Setting up fc6
I0428 15:36:10.777901 19921 net.cpp:129] Top shape: 128 4096 (524288)
I0428 15:36:10.777905 19921 net.cpp:137] Memory required for data: 760698880
I0428 15:36:10.777915 19921 layer_factory.hpp:77] Creating layer relu6
I0428 15:36:10.777925 19921 net.cpp:84] Creating Layer relu6
I0428 15:36:10.777930 19921 net.cpp:406] relu6 <- fc6
I0428 15:36:10.777936 19921 net.cpp:367] relu6 -> fc6 (in-place)
I0428 15:36:10.778576 19921 net.cpp:122] Setting up relu6
I0428 15:36:10.778586 19921 net.cpp:129] Top shape: 128 4096 (524288)
I0428 15:36:10.778592 19921 net.cpp:137] Memory required for data: 762796032
I0428 15:36:10.778599 19921 layer_factory.hpp:77] Creating layer drop6
I0428 15:36:10.778609 19921 net.cpp:84] Creating Layer drop6
I0428 15:36:10.778614 19921 net.cpp:406] drop6 <- fc6
I0428 15:36:10.778621 19921 net.cpp:367] drop6 -> fc6 (in-place)
I0428 15:36:10.778650 19921 net.cpp:122] Setting up drop6
I0428 15:36:10.778657 19921 net.cpp:129] Top shape: 128 4096 (524288)
I0428 15:36:10.778662 19921 net.cpp:137] Memory required for data: 764893184
I0428 15:36:10.778667 19921 layer_factory.hpp:77] Creating layer fc7
I0428 15:36:10.778676 19921 net.cpp:84] Creating Layer fc7
I0428 15:36:10.778682 19921 net.cpp:406] fc7 <- fc6
I0428 15:36:10.778692 19921 net.cpp:380] fc7 -> fc7
I0428 15:36:10.937876 19921 net.cpp:122] Setting up fc7
I0428 15:36:10.937896 19921 net.cpp:129] Top shape: 128 4096 (524288)
I0428 15:36:10.937901 19921 net.cpp:137] Memory required for data: 766990336
I0428 15:36:10.937911 19921 layer_factory.hpp:77] Creating layer relu7
I0428 15:36:10.937920 19921 net.cpp:84] Creating Layer relu7
I0428 15:36:10.937925 19921 net.cpp:406] relu7 <- fc7
I0428 15:36:10.937933 19921 net.cpp:367] relu7 -> fc7 (in-place)
I0428 15:36:10.938347 19921 net.cpp:122] Setting up relu7
I0428 15:36:10.938355 19921 net.cpp:129] Top shape: 128 4096 (524288)
I0428 15:36:10.938359 19921 net.cpp:137] Memory required for data: 769087488
I0428 15:36:10.938362 19921 layer_factory.hpp:77] Creating layer drop7
I0428 15:36:10.938370 19921 net.cpp:84] Creating Layer drop7
I0428 15:36:10.938374 19921 net.cpp:406] drop7 <- fc7
I0428 15:36:10.938380 19921 net.cpp:367] drop7 -> fc7 (in-place)
I0428 15:36:10.938403 19921 net.cpp:122] Setting up drop7
I0428 15:36:10.938408 19921 net.cpp:129] Top shape: 128 4096 (524288)
I0428 15:36:10.938411 19921 net.cpp:137] Memory required for data: 771184640
I0428 15:36:10.938416 19921 layer_factory.hpp:77] Creating layer fc8
I0428 15:36:10.938422 19921 net.cpp:84] Creating Layer fc8
I0428 15:36:10.938426 19921 net.cpp:406] fc8 <- fc7
I0428 15:36:10.938432 19921 net.cpp:380] fc8 -> fc8
I0428 15:36:10.947580 19921 net.cpp:122] Setting up fc8
I0428 15:36:10.947594 19921 net.cpp:129] Top shape: 128 196 (25088)
I0428 15:36:10.947598 19921 net.cpp:137] Memory required for data: 771284992
I0428 15:36:10.947613 19921 layer_factory.hpp:77] Creating layer loss
I0428 15:36:10.947621 19921 net.cpp:84] Creating Layer loss
I0428 15:36:10.947625 19921 net.cpp:406] loss <- fc8
I0428 15:36:10.947629 19921 net.cpp:406] loss <- label
I0428 15:36:10.947638 19921 net.cpp:380] loss -> loss
I0428 15:36:10.947647 19921 layer_factory.hpp:77] Creating layer loss
…
I0428 15:36:10.949034 19921 net.cpp:294] The NetState phase (1) differed from the phase (0) specified by a rule in layer train-data
I0428 15:36:10.949187 19921 net.cpp:51] Initializing net from parameters:
state {
phase: TEST
}
layer {
name: "val-data"
type: "Data"
top: "data"
top: "label"
include {
phase: TEST
}
transform_param {
crop_size: 227
mean_file: "/mnt/bigdisk/DIGITS-MAN-3/digits/jobs/20210421-230320-902c/mean.binaryproto"
}
data_param {
source: "/mnt/bigdisk/DIGITS-MAN-3/digits/jobs/20210421-230320-902c/val_db"
batch_size: 32
backend: LMDB
}
}
layer {
name: "conv1"
type: "Convolution"
bottom: "data"
top: "conv1"
param {
lr_mult: 1
decay_mult: 1
}
param {
lr_mult: 2
decay_mult: 0
}
convolution_param {
num_output: 96
kernel_size: 11
stride: 4
weight_filler {
type: "gaussian"
std: 0.01
}
bias_filler {
type: "constant"
value: 0
}
}
}
layer {
name: "relu1"
type: "ReLU"
bottom: "conv1"
top: "conv1"
}
layer {
name: "norm1"
type: "LRN"
bottom: "conv1"
top: "norm1"
lrn_param {
local_size: 5
alpha: 0.0001
beta: 0.75
}
}
layer {
name: "pool1"
type: "Pooling"
bottom: "norm1"
top: "pool1"
pooling_param {
pool: MAX
kernel_size: 3
stride: 2
}
}
layer {
name: "conv1.5"
type: "Convolution"
bottom: "pool1"
top: "conv1.5"
param {
lr_mult: 1
decay_mult: 1
}
param {
lr_mult: 2
decay_mult: 0
}
convolution_param {
num_output: 176
kernel_size: 7
stride: 1
weight_filler {
type: "gaussian"
std: 0.01
}
bias_filler {
type: "constant"
value: 0
}
}
}
layer {
name: "relu1.5"
type: "ReLU"
bottom: "conv1.5"
top: "conv1.5"
}
layer {
name: "norm1.5"
type: "LRN"
bottom: "conv1.5"
top: "norm1.5"
lrn_param {
local_size: 5
alpha: 0.0001
beta: 0.75
}
}
layer {
name: "pool1.5"
type: "Pooling"
bottom: "norm1.5"
top: "pool1.5"
pooling_param {
pool: MAX
kernel_size: 3
stride: 2
}
}
layer {
name: "conv2"
type: "Convolution"
bottom: "pool1.5"
top: "conv2"
param {
lr_mult: 1
decay_mult: 1
}
param {
lr_mult: 2
decay_mult: 0
}
convolution_param {
num_output: 256
pad: 2
kernel_size: 5
group: 2
weight_filler {
type: "gaussian"
std: 0.01
}
bias_filler {
type: "constant"
value: 0.1
}
}
}
layer {
name: "relu2"
type: "ReLU"
bottom: "conv2"
top: "conv2"
}
layer {
name: "norm2"
type: "LRN"
bottom: "conv2"
top: "norm2"
lrn_param {
local_size: 5
alpha: 0.0001
beta: 0.75
}
}
layer {
name: "pool2"
type: "Pooling"
bottom: "norm2"
top: "pool2"
pooling_param {
pool: MAX
kernel_size: 3
stride: 2
}
}
layer {
name: "conv3"
type: "Convolution"
bottom: "pool2"
top: "conv3"
param {
lr_mult: 1
decay_mult: 1
}
param {
lr_mult: 2
decay_mult: 0
}
convolution_param {
num_output: 384
pad: 1
kernel_size: 3
weight_filler {
type: "gaussian"
std: 0.01
}
bias_filler {
type: "constant"
value: 0
}
}
}
layer {
name: "relu3"
type: "ReLU"
bottom: "conv3"
top: "conv3"
}
layer {
name: "conv4"
type: "Convolution"
bottom: "conv3"
top: "conv4"
param {
lr_mult: 1
decay_mult: 1
}
param {
lr_mult: 2
decay_mult: 0
}
convolution_param {
num_output: 384
pad: 1
kernel_size: 3
group: 2
weight_filler {
type: "gaussian"
std: 0.01
}
bias_filler {
type: "constant"
value: 0.1
}
}
}
layer {
name: "relu4"
type: "ReLU"
bottom: "conv4"
top: "conv4"
}
layer {
name: "conv5"
type: "Convolution"
bottom: "conv4"
top: "conv5"
param {
lr_mult: 1
decay_mult: 1
}
param {
lr_mult: 2
decay_mult: 0
}
convolution_param {
num_output: 256
pad: 1
kernel_size: 3
group: 2
weight_filler {
type: "gaussian"
std: 0.01
}
bias_filler {
type: "constant"
value: 0.1
}
}
}
layer {
name: "relu5"
type: "ReLU"
bottom: "conv5"
top: "conv5"
}
layer {
name: "pool5"
type: "Pooling"
bottom: "conv5"
top: "pool5"
pooling_param {
pool: MAX
kernel_size: 3
stride: 2
}
}
layer {
name: "fc6"
type: "InnerProduct"
bottom: "pool5"
top: "fc6"
param {
lr_mult: 1
decay_mult: 1
}
param {
lr_mult: 2
decay_mult: 0
}
inner_product_param {
num_output: 4096
weight_filler {
type: "gaussian"
std: 0.005
}
bias_filler {
type: "constant"
value: 0.1
}
}
}
layer {
name: "relu6"
type: "ReLU"
bottom: "fc6"
top: "fc6"
}
layer {
name: "drop6"
type: "Dropout"
bottom: "fc6"
top: "fc6"
dropout_param {
dropout_ratio: 0.5
}
}
layer {
name: "fc7"
type: "InnerProduct"
bottom: "fc6"
top: "fc7"
param {
lr_mult: 1
decay_mult: 1
}
param {
lr_mult: 2
decay_mult: 0
}
inner_product_param {
num_output: 4096
weight_filler {
type: "gaussian"
std: 0.005
}
bias_filler {
type: "constant"
value: 0.1
}
}
}
layer {
name: "relu7"
type: "ReLU"
bottom: "fc7"
top: "fc7"
}
layer {
name: "drop7"
type: "Dropout"
bottom: "fc7"
top: "fc7"
dropout_param {
dropout_ratio: 0.5
}
}
layer {
name: "fc8"
type: "InnerProduct"
bottom: "fc7"
top: "fc8"
param {
lr_mult: 1
decay_mult: 1
}
param {
lr_mult: 2
decay_mult: 0
}
inner_product_param {
num_output: 196
weight_filler {
type: "gaussian"
std: 0.01
}
bias_filler {
type: "constant"
value: 0
}
}
}
layer {
name: "accuracy"
type: "Accuracy"
bottom: "fc8"
bottom: "label"
top: "accuracy"
include {
phase: TEST
}
}
layer {
name: "loss"
type: "SoftmaxWithLoss"
bottom: "fc8"
bottom: "label"
top: "loss"
}
I0428 15:36:10.949290 19921 layer_factory.hpp:77] Creating layer val-data
I0428 15:36:10.950924 19921 db_lmdb.cpp:35] Opened lmdb /mnt/bigdisk/DIGITS-MAN-3/digits/jobs/20210421-230320-902c/val_db
I0428 15:36:10.951102 19921 net.cpp:84] Creating Layer val-data
I0428 15:36:10.951112 19921 net.cpp:380] val-data -> data
I0428 15:36:10.951120 19921 net.cpp:380] val-data -> label
I0428 15:36:10.951128 19921 data_transformer.cpp:25] Loading mean file from: /mnt/bigdisk/DIGITS-MAN-3/digits/jobs/20210421-230320-902c/mean.binaryproto
I0428 15:36:10.954581 19921 data_layer.cpp:45] output data size: 32,3,227,227
I0428 15:36:10.993579 19921 net.cpp:122] Setting up val-data
I0428 15:36:10.993602 19921 net.cpp:129] Top shape: 32 3 227 227 (4946784)
I0428 15:36:10.993607 19921 net.cpp:129] Top shape: 32 (32)
I0428 15:36:10.993610 19921 net.cpp:137] Memory required for data: 19787264
I0428 15:36:10.993618 19921 layer_factory.hpp:77] Creating layer label_val-data_1_split
I0428 15:36:10.993629 19921 net.cpp:84] Creating Layer label_val-data_1_split
I0428 15:36:10.993633 19921 net.cpp:406] label_val-data_1_split <- label
I0428 15:36:10.993641 19921 net.cpp:380] label_val-data_1_split -> label_val-data_1_split_0
I0428 15:36:10.993650 19921 net.cpp:380] label_val-data_1_split -> label_val-data_1_split_1
I0428 15:36:10.993703 19921 net.cpp:122] Setting up label_val-data_1_split
I0428 15:36:10.993710 19921 net.cpp:129] Top shape: 32 (32)
I0428 15:36:10.993713 19921 net.cpp:129] Top shape: 32 (32)
I0428 15:36:10.993716 19921 net.cpp:137] Memory required for data: 19787520
I0428 15:36:10.993719 19921 layer_factory.hpp:77] Creating layer conv1
I0428 15:36:10.993731 19921 net.cpp:84] Creating Layer conv1
I0428 15:36:10.993734 19921 net.cpp:406] conv1 <- data
I0428 15:36:10.993741 19921 net.cpp:380] conv1 -> conv1
I0428 15:36:10.997869 19921 net.cpp:122] Setting up conv1
I0428 15:36:10.997882 19921 net.cpp:129] Top shape: 32 96 55 55 (9292800)
I0428 15:36:10.997885 19921 net.cpp:137] Memory required for data: 56958720
I0428 15:36:10.997896 19921 layer_factory.hpp:77] Creating layer relu1
I0428 15:36:10.997905 19921 net.cpp:84] Creating Layer relu1
I0428 15:36:10.997908 19921 net.cpp:406] relu1 <- conv1
I0428 15:36:10.997913 19921 net.cpp:367] relu1 -> conv1 (in-place)
I0428 15:36:10.998201 19921 net.cpp:122] Setting up relu1
I0428 15:36:10.998210 19921 net.cpp:129] Top shape: 32 96 55 55 (9292800)
I0428 15:36:10.998214 19921 net.cpp:137] Memory required for data: 94129920
I0428 15:36:10.998219 19921 layer_factory.hpp:77] Creating layer norm1
I0428 15:36:10.998226 19921 net.cpp:84] Creating Layer norm1
I0428 15:36:10.998230 19921 net.cpp:406] norm1 <- conv1
I0428 15:36:10.998235 19921 net.cpp:380] norm1 -> norm1
I0428 15:36:11.000155 19921 net.cpp:122] Setting up norm1
I0428 15:36:11.000167 19921 net.cpp:129] Top shape: 32 96 55 55 (9292800)
I0428 15:36:11.000171 19921 net.cpp:137] Memory required for data: 131301120
I0428 15:36:11.000175 19921 layer_factory.hpp:77] Creating layer pool1
I0428 15:36:11.000181 19921 net.cpp:84] Creating Layer pool1
I0428 15:36:11.000185 19921 net.cpp:406] pool1 <- norm1
I0428 15:36:11.000191 19921 net.cpp:380] pool1 -> pool1
I0428 15:36:11.000222 19921 net.cpp:122] Setting up pool1
I0428 15:36:11.000227 19921 net.cpp:129] Top shape: 32 96 27 27 (2239488)
I0428 15:36:11.000231 19921 net.cpp:137] Memory required for data: 140259072
I0428 15:36:11.000234 19921 layer_factory.hpp:77] Creating layer conv1.5
I0428 15:36:11.000243 19921 net.cpp:84] Creating Layer conv1.5
I0428 15:36:11.000247 19921 net.cpp:406] conv1.5 <- pool1
I0428 15:36:11.000252 19921 net.cpp:380] conv1.5 -> conv1.5
I0428 15:36:11.009876 19921 net.cpp:122] Setting up conv1.5
I0428 15:36:11.009892 19921 net.cpp:129] Top shape: 32 176 21 21 (2483712)
I0428 15:36:11.009896 19921 net.cpp:137] Memory required for data: 150193920
I0428 15:36:11.009909 19921 layer_factory.hpp:77] Creating layer relu1.5
I0428 15:36:11.009917 19921 net.cpp:84] Creating Layer relu1.5
I0428 15:36:11.009941 19921 net.cpp:406] relu1.5 <- conv1.5
I0428 15:36:11.009948 19921 net.cpp:367] relu1.5 -> conv1.5 (in-place)
I0428 15:36:11.010300 19921 net.cpp:122] Setting up relu1.5
I0428 15:36:11.010310 19921 net.cpp:129] Top shape: 32 176 21 21 (2483712)
I0428 15:36:11.010313 19921 net.cpp:137] Memory required for data: 160128768
I0428 15:36:11.010318 19921 layer_factory.hpp:77] Creating layer norm1.5
I0428 15:36:11.010329 19921 net.cpp:84] Creating Layer norm1.5
I0428 15:36:11.010334 19921 net.cpp:406] norm1.5 <- conv1.5
I0428 15:36:11.010339 19921 net.cpp:380] norm1.5 -> norm1.5
I0428 15:36:11.010859 19921 net.cpp:122] Setting up norm1.5
I0428 15:36:11.010869 19921 net.cpp:129] Top shape: 32 176 21 21 (2483712)
I0428 15:36:11.010874 19921 net.cpp:137] Memory required for data: 170063616
I0428 15:36:11.010877 19921 layer_factory.hpp:77] Creating layer pool1.5
I0428 15:36:11.010886 19921 net.cpp:84] Creating Layer pool1.5
I0428 15:36:11.010890 19921 net.cpp:406] pool1.5 <- norm1.5
I0428 15:36:11.010895 19921 net.cpp:380] pool1.5 -> pool1.5
I0428 15:36:11.010929 19921 net.cpp:122] Setting up pool1.5
I0428 15:36:11.010934 19921 net.cpp:129] Top shape: 32 176 10 10 (563200)
I0428 15:36:11.010938 19921 net.cpp:137] Memory required for data: 172316416
I0428 15:36:11.010941 19921 layer_factory.hpp:77] Creating layer conv2
I0428 15:36:11.010951 19921 net.cpp:84] Creating Layer conv2
I0428 15:36:11.010955 19921 net.cpp:406] conv2 <- pool1.5
I0428 15:36:11.010962 19921 net.cpp:380] conv2 -> conv2
I0428 15:36:11.025434 19921 net.cpp:122] Setting up conv2
I0428 15:36:11.025454 19921 net.cpp:129] Top shape: 32 256 10 10 (819200)
I0428 15:36:11.025457 19921 net.cpp:137] Memory required for data: 175593216
I0428 15:36:11.025470 19921 layer_factory.hpp:77] Creating layer relu2
I0428 15:36:11.025478 19921 net.cpp:84] Creating Layer relu2
I0428 15:36:11.025483 19921 net.cpp:406] relu2 <- conv2
I0428 15:36:11.025491 19921 net.cpp:367] relu2 -> conv2 (in-place)
I0428 15:36:11.025991 19921 net.cpp:122] Setting up relu2
I0428 15:36:11.026001 19921 net.cpp:129] Top shape: 32 256 10 10 (819200)
I0428 15:36:11.026005 19921 net.cpp:137] Memory required for data: 178870016
I0428 15:36:11.026008 19921 layer_factory.hpp:77] Creating layer norm2
I0428 15:36:11.026017 19921 net.cpp:84] Creating Layer norm2
I0428 15:36:11.026021 19921 net.cpp:406] norm2 <- conv2
I0428 15:36:11.026026 19921 net.cpp:380] norm2 -> norm2
I0428 15:36:11.026396 19921 net.cpp:122] Setting up norm2
I0428 15:36:11.026404 19921 net.cpp:129] Top shape: 32 256 10 10 (819200)
I0428 15:36:11.026407 19921 net.cpp:137] Memory required for data: 182146816
I0428 15:36:11.026412 19921 layer_factory.hpp:77] Creating layer pool2
I0428 15:36:11.026418 19921 net.cpp:84] Creating Layer pool2
I0428 15:36:11.026422 19921 net.cpp:406] pool2 <- norm2
I0428 15:36:11.026429 19921 net.cpp:380] pool2 -> pool2
I0428 15:36:11.026461 19921 net.cpp:122] Setting up pool2
I0428 15:36:11.026468 19921 net.cpp:129] Top shape: 32 256 5 5 (204800)
I0428 15:36:11.026470 19921 net.cpp:137] Memory required for data: 182966016
I0428 15:36:11.026473 19921 layer_factory.hpp:77] Creating layer conv3
I0428 15:36:11.026485 19921 net.cpp:84] Creating Layer conv3
I0428 15:36:11.026489 19921 net.cpp:406] conv3 <- pool2
I0428 15:36:11.026494 19921 net.cpp:380] conv3 -> conv3
I0428 15:36:11.041868 19921 net.cpp:122] Setting up conv3
I0428 15:36:11.041903 19921 net.cpp:129] Top shape: 32 384 5 5 (307200)
I0428 15:36:11.041913 19921 net.cpp:137] Memory required for data: 184194816
I0428 15:36:11.041931 19921 layer_factory.hpp:77] Creating layer relu3
I0428 15:36:11.041951 19921 net.cpp:84] Creating Layer relu3
I0428 15:36:11.041962 19921 net.cpp:406] relu3 <- conv3
I0428 15:36:11.041975 19921 net.cpp:367] relu3 -> conv3 (in-place)
I0428 15:36:11.043481 19921 net.cpp:122] Setting up relu3
I0428 15:36:11.043510 19921 net.cpp:129] Top shape: 32 384 5 5 (307200)
I0428 15:36:11.043522 19921 net.cpp:137] Memory required for data: 185423616
I0428 15:36:11.043535 19921 layer_factory.hpp:77] Creating layer conv4
I0428 15:36:11.043622 19921 net.cpp:84] Creating Layer conv4
I0428 15:36:11.043637 19921 net.cpp:406] conv4 <- conv3
I0428 15:36:11.043663 19921 net.cpp:380] conv4 -> conv4
I0428 15:36:11.060143 19921 net.cpp:122] Setting up conv4
I0428 15:36:11.060166 19921 net.cpp:129] Top shape: 32 384 5 5 (307200)
I0428 15:36:11.060171 19921 net.cpp:137] Memory required for data: 186652416
I0428 15:36:11.060190 19921 layer_factory.hpp:77] Creating layer relu4
I0428 15:36:11.060201 19921 net.cpp:84] Creating Layer relu4
I0428 15:36:11.060206 19921 net.cpp:406] relu4 <- conv4
I0428 15:36:11.060216 19921 net.cpp:367] relu4 -> conv4 (in-place)
I0428 15:36:11.063557 19921 net.cpp:122] Setting up relu4
I0428 15:36:11.063575 19921 net.cpp:129] Top shape: 32 384 5 5 (307200)
I0428 15:36:11.063582 19921 net.cpp:137] Memory required for data: 187881216
I0428 15:36:11.063591 19921 layer_factory.hpp:77] Creating layer conv5
I0428 15:36:11.063609 19921 net.cpp:84] Creating Layer conv5
I0428 15:36:11.063617 19921 net.cpp:406] conv5 <- conv4
I0428 15:36:11.063632 19921 net.cpp:380] conv5 -> conv5
I0428 15:36:11.103155 19921 net.cpp:122] Setting up conv5
I0428 15:36:11.103184 19921 net.cpp:129] Top shape: 32 256 5 5 (204800)
I0428 15:36:11.103191 19921 net.cpp:137] Memory required for data: 188700416
I0428 15:36:11.103205 19921 layer_factory.hpp:77] Creating layer relu5
I0428 15:36:11.103219 19921 net.cpp:84] Creating Layer relu5
I0428 15:36:11.103225 19921 net.cpp:406] relu5 <- conv5
I0428 15:36:11.103236 19921 net.cpp:367] relu5 -> conv5 (in-place)
I0428 15:36:11.104050 19921 net.cpp:122] Setting up relu5
I0428 15:36:11.104061 19921 net.cpp:129] Top shape: 32 256 5 5 (204800)
I0428 15:36:11.104065 19921 net.cpp:137] Memory required for data: 189519616
I0428 15:36:11.104070 19921 layer_factory.hpp:77] Creating layer pool5
I0428 15:36:11.104079 19921 net.cpp:84] Creating Layer pool5
I0428 15:36:11.104084 19921 net.cpp:406] pool5 <- conv5
I0428 15:36:11.104091 19921 net.cpp:380] pool5 -> pool5
I0428 15:36:11.104146 19921 net.cpp:122] Setting up pool5
I0428 15:36:11.104153 19921 net.cpp:129] Top shape: 32 256 2 2 (32768)
I0428 15:36:11.104157 19921 net.cpp:137] Memory required for data: 189650688
I0428 15:36:11.104161 19921 layer_factory.hpp:77] Creating layer fc6
I0428 15:36:11.104171 19921 net.cpp:84] Creating Layer fc6
I0428 15:36:11.104176 19921 net.cpp:406] fc6 <- pool5
I0428 15:36:11.104182 19921 net.cpp:380] fc6 -> fc6
I0428 15:36:11.150729 19921 net.cpp:122] Setting up fc6
I0428 15:36:11.150753 19921 net.cpp:129] Top shape: 32 4096 (131072)
I0428 15:36:11.150756 19921 net.cpp:137] Memory required for data: 190174976
I0428 15:36:11.150768 19921 layer_factory.hpp:77] Creating layer relu6
I0428 15:36:11.150779 19921 net.cpp:84] Creating Layer relu6
I0428 15:36:11.150784 19921 net.cpp:406] relu6 <- fc6
I0428 15:36:11.150792 19921 net.cpp:367] relu6 -> fc6 (in-place)
I0428 15:36:11.151577 19921 net.cpp:122] Setting up relu6
I0428 15:36:11.151590 19921 net.cpp:129] Top shape: 32 4096 (131072)
I0428 15:36:11.151594 19921 net.cpp:137] Memory required for data: 190699264
I0428 15:36:11.151599 19921 layer_factory.hpp:77] Creating layer drop6
I0428 15:36:11.151608 19921 net.cpp:84] Creating Layer drop6
I0428 15:36:11.151613 19921 net.cpp:406] drop6 <- fc6
I0428 15:36:11.151621 19921 net.cpp:367] drop6 -> fc6 (in-place)
I0428 15:36:11.151654 19921 net.cpp:122] Setting up drop6
I0428 15:36:11.151659 19921 net.cpp:129] Top shape: 32 4096 (131072)
I0428 15:36:11.151664 19921 net.cpp:137] Memory required for data: 191223552
I0428 15:36:11.151667 19921 layer_factory.hpp:77] Creating layer fc7
I0428 15:36:11.151675 19921 net.cpp:84] Creating Layer fc7
I0428 15:36:11.151679 19921 net.cpp:406] fc7 <- fc6
I0428 15:36:11.151687 19921 net.cpp:380] fc7 -> fc7
I0428 15:36:11.330319 19921 net.cpp:122] Setting up fc7
I0428 15:36:11.330343 19921 net.cpp:129] Top shape: 32 4096 (131072)
I0428 15:36:11.330346 19921 net.cpp:137] Memory required for data: 191747840
I0428 15:36:11.330356 19921 layer_factory.hpp:77] Creating layer relu7
I0428 15:36:11.330368 19921 net.cpp:84] Creating Layer relu7
I0428 15:36:11.330392 19921 net.cpp:406] relu7 <- fc7
I0428 15:36:11.330401 19921 net.cpp:367] relu7 -> fc7 (in-place)
I0428 15:36:11.330860 19921 net.cpp:122] Setting up relu7
I0428 15:36:11.330869 19921 net.cpp:129] Top shape: 32 4096 (131072)
I0428 15:36:11.330873 19921 net.cpp:137] Memory required for data: 192272128
I0428 15:36:11.330878 19921 layer_factory.hpp:77] Creating layer drop7
I0428 15:36:11.330884 19921 net.cpp:84] Creating Layer drop7
I0428 15:36:11.330889 19921 net.cpp:406] drop7 <- fc7
I0428 15:36:11.330896 19921 net.cpp:367] drop7 -> fc7 (in-place)
I0428 15:36:11.330922 19921 net.cpp:122] Setting up drop7
I0428 15:36:11.330929 19921 net.cpp:129] Top shape: 32 4096 (131072)
I0428 15:36:11.330932 19921 net.cpp:137] Memory required for data: 192796416
I0428 15:36:11.330935 19921 layer_factory.hpp:77] Creating layer fc8
I0428 15:36:11.330945 19921 net.cpp:84] Creating Layer fc8
I0428 15:36:11.330948 19921 net.cpp:406] fc8 <- fc7
I0428 15:36:11.330955 19921 net.cpp:380] fc8 -> fc8
I0428 15:36:11.340015 19921 net.cpp:122] Setting up fc8
I0428 15:36:11.340034 19921 net.cpp:129] Top shape: 32 196 (6272)
I0428 15:36:11.340037 19921 net.cpp:137] Memory required for data: 192821504
I0428 15:36:11.340054 19921 layer_factory.hpp:77] Creating layer fc8_fc8_0_split
I0428 15:36:11.340062 19921 net.cpp:84] Creating Layer fc8_fc8_0_split
I0428 15:36:11.340067 19921 net.cpp:406] fc8_fc8_0_split <- fc8
I0428 15:36:11.340075 19921 net.cpp:380] fc8_fc8_0_split -> fc8_fc8_0_split_0
I0428 15:36:11.340085 19921 net.cpp:380] fc8_fc8_0_split -> fc8_fc8_0_split_1
I0428 15:36:11.340123 19921 net.cpp:122] Setting up fc8_fc8_0_split
I0428 15:36:11.340129 19921 net.cpp:129] Top shape: 32 196 (6272)
I0428 15:36:11.340133 19921 net.cpp:129] Top shape: 32 196 (6272)
I0428 15:36:11.340137 19921 net.cpp:137] Memory required for data: 192871680
I0428 15:36:11.340140 19921 layer_factory.hpp:77] Creating layer accuracy
I0428 15:36:11.340147 19921 net.cpp:84] Creating Layer accuracy
I0428 15:36:11.340152 19921 net.cpp:406] accuracy <- fc8_fc8_0_split_0
I0428 15:36:11.340155 19921 net.cpp:406] accuracy <- label_val-data_1_split_0
I0428 15:36:11.340162 19921 net.cpp:380] accuracy -> accuracy
…
