…
I0401 15:21:41.437355 25640 net.cpp:294] The NetState phase (0) differed from the phase (1) specified by a rule in layer accuracy
I0401 15:21:41.437477 25640 net.cpp:51] Initializing net from parameters:
state {
phase: TRAIN
level: 0
stage: ""
}
layer {
name: "train-data"
type: "Data"
top: "data"
top: "label"
include {
phase: TRAIN
}
transform_param {
mirror: true
crop_size: 227
mean_file: "/mnt/bigdisk/DIGITS-AIN-3/digits/jobs/20210401-115716-aaf7/mean.binaryproto"
}
data_param {
source: "/mnt/bigdisk/DIGITS-AIN-3/digits/jobs/20210401-115716-aaf7/train_db"
batch_size: 128
backend: LMDB
}
}
layer {
name: "conv1"
type: "Convolution"
bottom: "data"
top: "conv1"
param {
lr_mult: 1
decay_mult: 1
}
param {
lr_mult: 2
decay_mult: 0
}
convolution_param {
num_output: 96
kernel_size: 11
stride: 4
weight_filler {
type: "gaussian"
std: 0.01
}
bias_filler {
type: "constant"
value: 0
}
}
}
layer {
name: "relu1"
type: "ReLU"
bottom: "conv1"
top: "conv1"
}
layer {
name: "norm1"
type: "LRN"
bottom: "conv1"
top: "norm1"
lrn_param {
local_size: 5
alpha: 0.0001
beta: 0.75
}
}
layer {
name: "pool1"
type: "Pooling"
bottom: "norm1"
top: "pool1"
pooling_param {
pool: MAX
kernel_size: 3
stride: 2
}
}
layer {
name: "conv2"
type: "Convolution"
bottom: "pool1"
top: "conv2"
param {
lr_mult: 1
decay_mult: 1
}
param {
lr_mult: 2
decay_mult: 0
}
convolution_param {
num_output: 256
pad: 2
kernel_size: 5
group: 2
weight_filler {
type: "gaussian"
std: 0.01
}
bias_filler {
type: "constant"
value: 0.1
}
}
}
layer {
name: "relu2"
type: "ReLU"
bottom: "conv2"
top: "conv2"
}
layer {
name: "norm2"
type: "LRN"
bottom: "conv2"
top: "norm2"
lrn_param {
local_size: 5
alpha: 0.0001
beta: 0.75
}
}
layer {
name: "pool2"
type: "Pooling"
bottom: "norm2"
top: "pool2"
pooling_param {
pool: MAX
kernel_size: 3
stride: 2
}
}
layer {
name: "conv3"
type: "Convolution"
bottom: "pool2"
top: "conv3"
param {
lr_mult: 1
decay_mult: 1
}
param {
lr_mult: 2
decay_mult: 0
}
convolution_param {
num_output: 384
pad: 1
kernel_size: 3
weight_filler {
type: "gaussian"
std: 0.01
}
bias_filler {
type: "constant"
value: 0
}
}
}
layer {
name: "relu3"
type: "ReLU"
bottom: "conv3"
top: "conv3"
}
layer {
name: "conv4"
type: "Convolution"
bottom: "conv3"
top: "conv4"
param {
lr_mult: 1
decay_mult: 1
}
param {
lr_mult: 2
decay_mult: 0
}
convolution_param {
num_output: 384
pad: 1
kernel_size: 3
group: 2
weight_filler {
type: "gaussian"
std: 0.01
}
bias_filler {
type: "constant"
value: 0.1
}
}
}
layer {
name: "relu4"
type: "ReLU"
bottom: "conv4"
top: "conv4"
}
layer {
name: "conv5"
type: "Convolution"
bottom: "conv4"
top: "conv5"
param {
lr_mult: 1
decay_mult: 1
}
param {
lr_mult: 2
decay_mult: 0
}
convolution_param {
num_output: 256
pad: 1
kernel_size: 3
group: 2
weight_filler {
type: "gaussian"
std: 0.01
}
bias_filler {
type: "constant"
value: 0.1
}
}
}
layer {
name: "relu5"
type: "ReLU"
bottom: "conv5"
top: "conv5"
}
layer {
name: "pool5"
type: "Pooling"
bottom: "conv5"
top: "pool5"
pooling_param {
pool: MAX
kernel_size: 3
stride: 2
}
}
layer {
name: "fc6"
type: "InnerProduct"
bottom: "pool5"
top: "fc6"
param {
lr_mult: 1
decay_mult: 1
}
param {
lr_mult: 2
decay_mult: 0
}
inner_product_param {
num_output: 4096
weight_filler {
type: "gaussian"
std: 0.005
}
bias_filler {
type: "constant"
value: 0.1
}
}
}
layer {
name: "relu6"
type: "ReLU"
bottom: "fc6"
top: "fc6"
}
layer {
name: "drop6"
type: "Dropout"
bottom: "fc6"
top: "fc6"
dropout_param {
dropout_ratio: 0.5
}
}
layer {
name: "fc7"
type: "InnerProduct"
bottom: "fc6"
top: "fc7"
param {
lr_mult: 1
decay_mult: 1
}
param {
lr_mult: 2
decay_mult: 0
}
inner_product_param {
num_output: 4096
weight_filler {
type: "gaussian"
std: 0.005
}
bias_filler {
type: "constant"
value: 0.1
}
}
}
layer {
name: "relu7"
type: "ReLU"
bottom: "fc7"
top: "fc7"
}
layer {
name: "drop7"
type: "Dropout"
bottom: "fc7"
top: "fc7"
dropout_param {
dropout_ratio: 0.5
}
}
layer {
name: "fc8"
type: "InnerProduct"
bottom: "fc7"
top: "fc8"
param {
lr_mult: 1
decay_mult: 1
}
param {
lr_mult: 2
decay_mult: 0
}
inner_product_param {
num_output: 196
weight_filler {
type: "gaussian"
std: 0.01
}
bias_filler {
type: "constant"
value: 0
}
}
}
layer {
name: "loss"
type: "SoftmaxWithLoss"
bottom: "fc8"
bottom: "label"
top: "loss"
}
I0401 15:21:41.437557 25640 layer_factory.hpp:77] Creating layer train-data
I0401 15:21:41.478404 25640 db_lmdb.cpp:35] Opened lmdb /mnt/bigdisk/DIGITS-AIN-3/digits/jobs/20210401-115716-aaf7/train_db
I0401 15:21:41.491887 25640 net.cpp:84] Creating Layer train-data
I0401 15:21:41.492147 25640 net.cpp:380] train-data -> data
I0401 15:21:41.492210 25640 net.cpp:380] train-data -> label
I0401 15:21:41.492260 25640 data_transformer.cpp:25] Loading mean file from: /mnt/bigdisk/DIGITS-AIN-3/digits/jobs/20210401-115716-aaf7/mean.binaryproto
I0401 15:21:41.540196 25640 data_layer.cpp:45] output data size: 128,3,227,227
I0401 15:21:41.698875 25640 net.cpp:122] Setting up train-data
I0401 15:21:41.698904 25640 net.cpp:129] Top shape: 128 3 227 227 (19787136)
I0401 15:21:41.698910 25640 net.cpp:129] Top shape: 128 (128)
I0401 15:21:41.698915 25640 net.cpp:137] Memory required for data: 79149056
I0401 15:21:41.698925 25640 layer_factory.hpp:77] Creating layer conv1
I0401 15:21:41.698949 25640 net.cpp:84] Creating Layer conv1
I0401 15:21:41.698956 25640 net.cpp:406] conv1 <- data
I0401 15:21:41.698971 25640 net.cpp:380] conv1 -> conv1
I0401 15:21:42.171262 25640 net.cpp:122] Setting up conv1
I0401 15:21:42.171283 25640 net.cpp:129] Top shape: 128 96 55 55 (37171200)
I0401 15:21:42.171286 25640 net.cpp:137] Memory required for data: 227833856
I0401 15:21:42.171305 25640 layer_factory.hpp:77] Creating layer relu1
I0401 15:21:42.171315 25640 net.cpp:84] Creating Layer relu1
I0401 15:21:42.171319 25640 net.cpp:406] relu1 <- conv1
I0401 15:21:42.171324 25640 net.cpp:367] relu1 -> conv1 (in-place)
I0401 15:21:42.171584 25640 net.cpp:122] Setting up relu1
I0401 15:21:42.171591 25640 net.cpp:129] Top shape: 128 96 55 55 (37171200)
I0401 15:21:42.171594 25640 net.cpp:137] Memory required for data: 376518656
I0401 15:21:42.171597 25640 layer_factory.hpp:77] Creating layer norm1
I0401 15:21:42.171604 25640 net.cpp:84] Creating Layer norm1
I0401 15:21:42.171607 25640 net.cpp:406] norm1 <- conv1
I0401 15:21:42.171630 25640 net.cpp:380] norm1 -> norm1
I0401 15:21:42.172076 25640 net.cpp:122] Setting up norm1
I0401 15:21:42.172088 25640 net.cpp:129] Top shape: 128 96 55 55 (37171200)
I0401 15:21:42.172091 25640 net.cpp:137] Memory required for data: 525203456
I0401 15:21:42.172096 25640 layer_factory.hpp:77] Creating layer pool1
I0401 15:21:42.172103 25640 net.cpp:84] Creating Layer pool1
I0401 15:21:42.172106 25640 net.cpp:406] pool1 <- norm1
I0401 15:21:42.172112 25640 net.cpp:380] pool1 -> pool1
I0401 15:21:42.172155 25640 net.cpp:122] Setting up pool1
I0401 15:21:42.172163 25640 net.cpp:129] Top shape: 128 96 27 27 (8957952)
I0401 15:21:42.172165 25640 net.cpp:137] Memory required for data: 561035264
I0401 15:21:42.172169 25640 layer_factory.hpp:77] Creating layer conv2
I0401 15:21:42.172180 25640 net.cpp:84] Creating Layer conv2
I0401 15:21:42.172183 25640 net.cpp:406] conv2 <- pool1
I0401 15:21:42.172189 25640 net.cpp:380] conv2 -> conv2
I0401 15:21:42.178746 25640 net.cpp:122] Setting up conv2
I0401 15:21:42.178764 25640 net.cpp:129] Top shape: 128 256 27 27 (23887872)
I0401 15:21:42.178767 25640 net.cpp:137] Memory required for data: 656586752
I0401 15:21:42.178777 25640 layer_factory.hpp:77] Creating layer relu2
I0401 15:21:42.178786 25640 net.cpp:84] Creating Layer relu2
I0401 15:21:42.178788 25640 net.cpp:406] relu2 <- conv2
I0401 15:21:42.178793 25640 net.cpp:367] relu2 -> conv2 (in-place)
I0401 15:21:42.179189 25640 net.cpp:122] Setting up relu2
I0401 15:21:42.179198 25640 net.cpp:129] Top shape: 128 256 27 27 (23887872)
I0401 15:21:42.179200 25640 net.cpp:137] Memory required for data: 752138240
I0401 15:21:42.179203 25640 layer_factory.hpp:77] Creating layer norm2
I0401 15:21:42.179209 25640 net.cpp:84] Creating Layer norm2
I0401 15:21:42.179212 25640 net.cpp:406] norm2 <- conv2
I0401 15:21:42.179216 25640 net.cpp:380] norm2 -> norm2
I0401 15:21:42.179476 25640 net.cpp:122] Setting up norm2
I0401 15:21:42.179483 25640 net.cpp:129] Top shape: 128 256 27 27 (23887872)
I0401 15:21:42.179486 25640 net.cpp:137] Memory required for data: 847689728
I0401 15:21:42.179488 25640 layer_factory.hpp:77] Creating layer pool2
I0401 15:21:42.179494 25640 net.cpp:84] Creating Layer pool2
I0401 15:21:42.179497 25640 net.cpp:406] pool2 <- norm2
I0401 15:21:42.179500 25640 net.cpp:380] pool2 -> pool2
I0401 15:21:42.179524 25640 net.cpp:122] Setting up pool2
I0401 15:21:42.179528 25640 net.cpp:129] Top shape: 128 256 13 13 (5537792)
I0401 15:21:42.179530 25640 net.cpp:137] Memory required for data: 869840896
I0401 15:21:42.179533 25640 layer_factory.hpp:77] Creating layer conv3
I0401 15:21:42.179540 25640 net.cpp:84] Creating Layer conv3
I0401 15:21:42.179543 25640 net.cpp:406] conv3 <- pool2
I0401 15:21:42.179546 25640 net.cpp:380] conv3 -> conv3
I0401 15:21:42.193727 25640 net.cpp:122] Setting up conv3
I0401 15:21:42.193747 25640 net.cpp:129] Top shape: 128 384 13 13 (8306688)
I0401 15:21:42.193749 25640 net.cpp:137] Memory required for data: 903067648
I0401 15:21:42.193761 25640 layer_factory.hpp:77] Creating layer relu3
I0401 15:21:42.193770 25640 net.cpp:84] Creating Layer relu3
I0401 15:21:42.193773 25640 net.cpp:406] relu3 <- conv3
I0401 15:21:42.193779 25640 net.cpp:367] relu3 -> conv3 (in-place)
I0401 15:21:42.194164 25640 net.cpp:122] Setting up relu3
I0401 15:21:42.194172 25640 net.cpp:129] Top shape: 128 384 13 13 (8306688)
I0401 15:21:42.194175 25640 net.cpp:137] Memory required for data: 936294400
I0401 15:21:42.194177 25640 layer_factory.hpp:77] Creating layer conv4
I0401 15:21:42.194186 25640 net.cpp:84] Creating Layer conv4
I0401 15:21:42.194190 25640 net.cpp:406] conv4 <- conv3
I0401 15:21:42.194193 25640 net.cpp:380] conv4 -> conv4
I0401 15:21:42.203013 25640 net.cpp:122] Setting up conv4
I0401 15:21:42.203033 25640 net.cpp:129] Top shape: 128 384 13 13 (8306688)
I0401 15:21:42.203037 25640 net.cpp:137] Memory required for data: 969521152
I0401 15:21:42.203044 25640 layer_factory.hpp:77] Creating layer relu4
I0401 15:21:42.203052 25640 net.cpp:84] Creating Layer relu4
I0401 15:21:42.203073 25640 net.cpp:406] relu4 <- conv4
I0401 15:21:42.203079 25640 net.cpp:367] relu4 -> conv4 (in-place)
I0401 15:21:42.203330 25640 net.cpp:122] Setting up relu4
I0401 15:21:42.203336 25640 net.cpp:129] Top shape: 128 384 13 13 (8306688)
I0401 15:21:42.203338 25640 net.cpp:137] Memory required for data: 1002747904
I0401 15:21:42.203341 25640 layer_factory.hpp:77] Creating layer conv5
I0401 15:21:42.203349 25640 net.cpp:84] Creating Layer conv5
I0401 15:21:42.203352 25640 net.cpp:406] conv5 <- conv4
I0401 15:21:42.203356 25640 net.cpp:380] conv5 -> conv5
I0401 15:21:42.210636 25640 net.cpp:122] Setting up conv5
I0401 15:21:42.210656 25640 net.cpp:129] Top shape: 128 256 13 13 (5537792)
I0401 15:21:42.210659 25640 net.cpp:137] Memory required for data: 1024899072
I0401 15:21:42.210671 25640 layer_factory.hpp:77] Creating layer relu5
I0401 15:21:42.210678 25640 net.cpp:84] Creating Layer relu5
I0401 15:21:42.210681 25640 net.cpp:406] relu5 <- conv5
I0401 15:21:42.210686 25640 net.cpp:367] relu5 -> conv5 (in-place)
I0401 15:21:42.211145 25640 net.cpp:122] Setting up relu5
I0401 15:21:42.211154 25640 net.cpp:129] Top shape: 128 256 13 13 (5537792)
I0401 15:21:42.211158 25640 net.cpp:137] Memory required for data: 1047050240
I0401 15:21:42.211159 25640 layer_factory.hpp:77] Creating layer pool5
I0401 15:21:42.211165 25640 net.cpp:84] Creating Layer pool5
I0401 15:21:42.211167 25640 net.cpp:406] pool5 <- conv5
I0401 15:21:42.211171 25640 net.cpp:380] pool5 -> pool5
I0401 15:21:42.211205 25640 net.cpp:122] Setting up pool5
I0401 15:21:42.211210 25640 net.cpp:129] Top shape: 128 256 6 6 (1179648)
I0401 15:21:42.211211 25640 net.cpp:137] Memory required for data: 1051768832
I0401 15:21:42.211213 25640 layer_factory.hpp:77] Creating layer fc6
I0401 15:21:42.211221 25640 net.cpp:84] Creating Layer fc6
I0401 15:21:42.211225 25640 net.cpp:406] fc6 <- pool5
I0401 15:21:42.211230 25640 net.cpp:380] fc6 -> fc6
I0401 15:21:42.607475 25640 net.cpp:122] Setting up fc6
I0401 15:21:42.607501 25640 net.cpp:129] Top shape: 128 4096 (524288)
I0401 15:21:42.607506 25640 net.cpp:137] Memory required for data: 1053865984
I0401 15:21:42.607517 25640 layer_factory.hpp:77] Creating layer relu6
I0401 15:21:42.607527 25640 net.cpp:84] Creating Layer relu6
I0401 15:21:42.607532 25640 net.cpp:406] relu6 <- fc6
I0401 15:21:42.607542 25640 net.cpp:367] relu6 -> fc6 (in-place)
I0401 15:21:42.608368 25640 net.cpp:122] Setting up relu6
I0401 15:21:42.608381 25640 net.cpp:129] Top shape: 128 4096 (524288)
I0401 15:21:42.608386 25640 net.cpp:137] Memory required for data: 1055963136
I0401 15:21:42.608389 25640 layer_factory.hpp:77] Creating layer drop6
I0401 15:21:42.608397 25640 net.cpp:84] Creating Layer drop6
I0401 15:21:42.608402 25640 net.cpp:406] drop6 <- fc6
I0401 15:21:42.608407 25640 net.cpp:367] drop6 -> fc6 (in-place)
I0401 15:21:42.608441 25640 net.cpp:122] Setting up drop6
I0401 15:21:42.608448 25640 net.cpp:129] Top shape: 128 4096 (524288)
I0401 15:21:42.608450 25640 net.cpp:137] Memory required for data: 1058060288
I0401 15:21:42.608454 25640 layer_factory.hpp:77] Creating layer fc7
I0401 15:21:42.608464 25640 net.cpp:84] Creating Layer fc7
I0401 15:21:42.608469 25640 net.cpp:406] fc7 <- fc6
I0401 15:21:42.608474 25640 net.cpp:380] fc7 -> fc7
I0401 15:21:42.851428 25640 net.cpp:122] Setting up fc7
I0401 15:21:42.851454 25640 net.cpp:129] Top shape: 128 4096 (524288)
I0401 15:21:42.851457 25640 net.cpp:137] Memory required for data: 1060157440
I0401 15:21:42.851469 25640 layer_factory.hpp:77] Creating layer relu7
I0401 15:21:42.851480 25640 net.cpp:84] Creating Layer relu7
I0401 15:21:42.851485 25640 net.cpp:406] relu7 <- fc7
I0401 15:21:42.851495 25640 net.cpp:367] relu7 -> fc7 (in-place)
I0401 15:21:42.852030 25640 net.cpp:122] Setting up relu7
I0401 15:21:42.852041 25640 net.cpp:129] Top shape: 128 4096 (524288)
I0401 15:21:42.852043 25640 net.cpp:137] Memory required for data: 1062254592
I0401 15:21:42.852047 25640 layer_factory.hpp:77] Creating layer drop7
I0401 15:21:42.852056 25640 net.cpp:84] Creating Layer drop7
I0401 15:21:42.852084 25640 net.cpp:406] drop7 <- fc7
I0401 15:21:42.852093 25640 net.cpp:367] drop7 -> fc7 (in-place)
I0401 15:21:42.852123 25640 net.cpp:122] Setting up drop7
I0401 15:21:42.852129 25640 net.cpp:129] Top shape: 128 4096 (524288)
I0401 15:21:42.852133 25640 net.cpp:137] Memory required for data: 1064351744
I0401 15:21:42.852135 25640 layer_factory.hpp:77] Creating layer fc8
I0401 15:21:42.852144 25640 net.cpp:84] Creating Layer fc8
I0401 15:21:42.852147 25640 net.cpp:406] fc8 <- fc7
I0401 15:21:42.852154 25640 net.cpp:380] fc8 -> fc8
I0401 15:21:42.864039 25640 net.cpp:122] Setting up fc8
I0401 15:21:42.864065 25640 net.cpp:129] Top shape: 128 196 (25088)
I0401 15:21:42.864069 25640 net.cpp:137] Memory required for data: 1064452096
I0401 15:21:42.864080 25640 layer_factory.hpp:77] Creating layer loss
I0401 15:21:42.864091 25640 net.cpp:84] Creating Layer loss
I0401 15:21:42.864096 25640 net.cpp:406] loss <- fc8
I0401 15:21:42.864104 25640 net.cpp:406] loss <- label
I0401 15:21:42.864111 25640 net.cpp:380] loss -> loss
I0401 15:21:42.864125 25640 layer_factory.hpp:77] Creating layer loss
…
I0401 15:21:42.865888 25640 net.cpp:294] The NetState phase (1) differed from the phase (0) specified by a rule in layer train-data
I0401 15:21:42.866109 25640 net.cpp:51] Initializing net from parameters:
state {
phase: TEST
}
layer {
name: "val-data"
type: "Data"
top: "data"
top: "label"
include {
phase: TEST
}
transform_param {
crop_size: 227
mean_file: "/mnt/bigdisk/DIGITS-AIN-3/digits/jobs/20210401-115716-aaf7/mean.binaryproto"
}
data_param {
source: "/mnt/bigdisk/DIGITS-AIN-3/digits/jobs/20210401-115716-aaf7/val_db"
batch_size: 32
backend: LMDB
}
}
layer {
name: "conv1"
type: "Convolution"
bottom: "data"
top: "conv1"
param {
lr_mult: 1
decay_mult: 1
}
param {
lr_mult: 2
decay_mult: 0
}
convolution_param {
num_output: 96
kernel_size: 11
stride: 4
weight_filler {
type: "gaussian"
std: 0.01
}
bias_filler {
type: "constant"
value: 0
}
}
}
layer {
name: "relu1"
type: "ReLU"
bottom: "conv1"
top: "conv1"
}
layer {
name: "norm1"
type: "LRN"
bottom: "conv1"
top: "norm1"
lrn_param {
local_size: 5
alpha: 0.0001
beta: 0.75
}
}
layer {
name: "pool1"
type: "Pooling"
bottom: "norm1"
top: "pool1"
pooling_param {
pool: MAX
kernel_size: 3
stride: 2
}
}
layer {
name: "conv2"
type: "Convolution"
bottom: "pool1"
top: "conv2"
param {
lr_mult: 1
decay_mult: 1
}
param {
lr_mult: 2
decay_mult: 0
}
convolution_param {
num_output: 256
pad: 2
kernel_size: 5
group: 2
weight_filler {
type: "gaussian"
std: 0.01
}
bias_filler {
type: "constant"
value: 0.1
}
}
}
layer {
name: "relu2"
type: "ReLU"
bottom: "conv2"
top: "conv2"
}
layer {
name: "norm2"
type: "LRN"
bottom: "conv2"
top: "norm2"
lrn_param {
local_size: 5
alpha: 0.0001
beta: 0.75
}
}
layer {
name: "pool2"
type: "Pooling"
bottom: "norm2"
top: "pool2"
pooling_param {
pool: MAX
kernel_size: 3
stride: 2
}
}
layer {
name: "conv3"
type: "Convolution"
bottom: "pool2"
top: "conv3"
param {
lr_mult: 1
decay_mult: 1
}
param {
lr_mult: 2
decay_mult: 0
}
convolution_param {
num_output: 384
pad: 1
kernel_size: 3
weight_filler {
type: "gaussian"
std: 0.01
}
bias_filler {
type: "constant"
value: 0
}
}
}
layer {
name: "relu3"
type: "ReLU"
bottom: "conv3"
top: "conv3"
}
layer {
name: "conv4"
type: "Convolution"
bottom: "conv3"
top: "conv4"
param {
lr_mult: 1
decay_mult: 1
}
param {
lr_mult: 2
decay_mult: 0
}
convolution_param {
num_output: 384
pad: 1
kernel_size: 3
group: 2
weight_filler {
type: "gaussian"
std: 0.01
}
bias_filler {
type: "constant"
value: 0.1
}
}
}
layer {
name: "relu4"
type: "ReLU"
bottom: "conv4"
top: "conv4"
}
layer {
name: "conv5"
type: "Convolution"
bottom: "conv4"
top: "conv5"
param {
lr_mult: 1
decay_mult: 1
}
param {
lr_mult: 2
decay_mult: 0
}
convolution_param {
num_output: 256
pad: 1
kernel_size: 3
group: 2
weight_filler {
type: "gaussian"
std: 0.01
}
bias_filler {
type: "constant"
value: 0.1
}
}
}
layer {
name: "relu5"
type: "ReLU"
bottom: "conv5"
top: "conv5"
}
layer {
name: "pool5"
type: "Pooling"
bottom: "conv5"
top: "pool5"
pooling_param {
pool: MAX
kernel_size: 3
stride: 2
}
}
layer {
name: "fc6"
type: "InnerProduct"
bottom: "pool5"
top: "fc6"
param {
lr_mult: 1
decay_mult: 1
}
param {
lr_mult: 2
decay_mult: 0
}
inner_product_param {
num_output: 4096
weight_filler {
type: "gaussian"
std: 0.005
}
bias_filler {
type: "constant"
value: 0.1
}
}
}
layer {
name: "relu6"
type: "ReLU"
bottom: "fc6"
top: "fc6"
}
layer {
name: "drop6"
type: "Dropout"
bottom: "fc6"
top: "fc6"
dropout_param {
dropout_ratio: 0.5
}
}
layer {
name: "fc7"
type: "InnerProduct"
bottom: "fc6"
top: "fc7"
param {
lr_mult: 1
decay_mult: 1
}
param {
lr_mult: 2
decay_mult: 0
}
inner_product_param {
num_output: 4096
weight_filler {
type: "gaussian"
std: 0.005
}
bias_filler {
type: "constant"
value: 0.1
}
}
}
layer {
name: "relu7"
type: "ReLU"
bottom: "fc7"
top: "fc7"
}
layer {
name: "drop7"
type: "Dropout"
bottom: "fc7"
top: "fc7"
dropout_param {
dropout_ratio: 0.5
}
}
layer {
name: "fc8"
type: "InnerProduct"
bottom: "fc7"
top: "fc8"
param {
lr_mult: 1
decay_mult: 1
}
param {
lr_mult: 2
decay_mult: 0
}
inner_product_param {
num_output: 196
weight_filler {
type: "gaussian"
std: 0.01
}
bias_filler {
type: "constant"
value: 0
}
}
}
layer {
name: "accuracy"
type: "Accuracy"
bottom: "fc8"
bottom: "label"
top: "accuracy"
include {
phase: TEST
}
}
layer {
name: "loss"
type: "SoftmaxWithLoss"
bottom: "fc8"
bottom: "label"
top: "loss"
}
I0401 15:21:42.866257 25640 layer_factory.hpp:77] Creating layer val-data
I0401 15:21:42.881776 25640 db_lmdb.cpp:35] Opened lmdb /mnt/bigdisk/DIGITS-AIN-3/digits/jobs/20210401-115716-aaf7/val_db
I0401 15:21:42.911834 25640 net.cpp:84] Creating Layer val-data
I0401 15:21:42.911864 25640 net.cpp:380] val-data -> data
I0401 15:21:42.911880 25640 net.cpp:380] val-data -> label
I0401 15:21:42.911890 25640 data_transformer.cpp:25] Loading mean file from: /mnt/bigdisk/DIGITS-AIN-3/digits/jobs/20210401-115716-aaf7/mean.binaryproto
I0401 15:21:42.919968 25640 data_layer.cpp:45] output data size: 32,3,227,227
I0401 15:21:42.963371 25640 net.cpp:122] Setting up val-data
I0401 15:21:42.963397 25640 net.cpp:129] Top shape: 32 3 227 227 (4946784)
I0401 15:21:42.963403 25640 net.cpp:129] Top shape: 32 (32)
I0401 15:21:42.963407 25640 net.cpp:137] Memory required for data: 19787264
I0401 15:21:42.963413 25640 layer_factory.hpp:77] Creating layer label_val-data_1_split
I0401 15:21:42.963428 25640 net.cpp:84] Creating Layer label_val-data_1_split
I0401 15:21:42.963433 25640 net.cpp:406] label_val-data_1_split <- label
I0401 15:21:42.963441 25640 net.cpp:380] label_val-data_1_split -> label_val-data_1_split_0
I0401 15:21:42.963452 25640 net.cpp:380] label_val-data_1_split -> label_val-data_1_split_1
I0401 15:21:42.963587 25640 net.cpp:122] Setting up label_val-data_1_split
I0401 15:21:42.963595 25640 net.cpp:129] Top shape: 32 (32)
I0401 15:21:42.963599 25640 net.cpp:129] Top shape: 32 (32)
I0401 15:21:42.963603 25640 net.cpp:137] Memory required for data: 19787520
I0401 15:21:42.963606 25640 layer_factory.hpp:77] Creating layer conv1
I0401 15:21:42.963621 25640 net.cpp:84] Creating Layer conv1
I0401 15:21:42.963625 25640 net.cpp:406] conv1 <- data
I0401 15:21:42.963632 25640 net.cpp:380] conv1 -> conv1
I0401 15:21:42.967128 25640 net.cpp:122] Setting up conv1
I0401 15:21:42.967154 25640 net.cpp:129] Top shape: 32 96 55 55 (9292800)
I0401 15:21:42.967157 25640 net.cpp:137] Memory required for data: 56958720
I0401 15:21:42.967172 25640 layer_factory.hpp:77] Creating layer relu1
I0401 15:21:42.967182 25640 net.cpp:84] Creating Layer relu1
I0401 15:21:42.967187 25640 net.cpp:406] relu1 <- conv1
I0401 15:21:42.967195 25640 net.cpp:367] relu1 -> conv1 (in-place)
I0401 15:21:42.967586 25640 net.cpp:122] Setting up relu1
I0401 15:21:42.967597 25640 net.cpp:129] Top shape: 32 96 55 55 (9292800)
I0401 15:21:42.967599 25640 net.cpp:137] Memory required for data: 94129920
I0401 15:21:42.967603 25640 layer_factory.hpp:77] Creating layer norm1
I0401 15:21:42.967613 25640 net.cpp:84] Creating Layer norm1
I0401 15:21:42.967617 25640 net.cpp:406] norm1 <- conv1
I0401 15:21:42.967623 25640 net.cpp:380] norm1 -> norm1
I0401 15:21:42.968223 25640 net.cpp:122] Setting up norm1
I0401 15:21:42.968235 25640 net.cpp:129] Top shape: 32 96 55 55 (9292800)
I0401 15:21:42.968238 25640 net.cpp:137] Memory required for data: 131301120
I0401 15:21:42.968242 25640 layer_factory.hpp:77] Creating layer pool1
I0401 15:21:42.968250 25640 net.cpp:84] Creating Layer pool1
I0401 15:21:42.968255 25640 net.cpp:406] pool1 <- norm1
I0401 15:21:42.968261 25640 net.cpp:380] pool1 -> pool1
I0401 15:21:42.968300 25640 net.cpp:122] Setting up pool1
I0401 15:21:42.968308 25640 net.cpp:129] Top shape: 32 96 27 27 (2239488)
I0401 15:21:42.968310 25640 net.cpp:137] Memory required for data: 140259072
I0401 15:21:42.968313 25640 layer_factory.hpp:77] Creating layer conv2
I0401 15:21:42.968325 25640 net.cpp:84] Creating Layer conv2
I0401 15:21:42.968328 25640 net.cpp:406] conv2 <- pool1
I0401 15:21:42.968359 25640 net.cpp:380] conv2 -> conv2
I0401 15:21:42.977756 25640 net.cpp:122] Setting up conv2
I0401 15:21:42.977782 25640 net.cpp:129] Top shape: 32 256 27 27 (5971968)
I0401 15:21:42.977785 25640 net.cpp:137] Memory required for data: 164146944
I0401 15:21:42.977800 25640 layer_factory.hpp:77] Creating layer relu2
I0401 15:21:42.977811 25640 net.cpp:84] Creating Layer relu2
I0401 15:21:42.977816 25640 net.cpp:406] relu2 <- conv2
I0401 15:21:42.977828 25640 net.cpp:367] relu2 -> conv2 (in-place)
I0401 15:21:42.978507 25640 net.cpp:122] Setting up relu2
I0401 15:21:42.978519 25640 net.cpp:129] Top shape: 32 256 27 27 (5971968)
I0401 15:21:42.978523 25640 net.cpp:137] Memory required for data: 188034816
I0401 15:21:42.978528 25640 layer_factory.hpp:77] Creating layer norm2
I0401 15:21:42.978540 25640 net.cpp:84] Creating Layer norm2
I0401 15:21:42.978544 25640 net.cpp:406] norm2 <- conv2
I0401 15:21:42.978551 25640 net.cpp:380] norm2 -> norm2
I0401 15:21:42.979261 25640 net.cpp:122] Setting up norm2
I0401 15:21:42.979274 25640 net.cpp:129] Top shape: 32 256 27 27 (5971968)
I0401 15:21:42.979277 25640 net.cpp:137] Memory required for data: 211922688
I0401 15:21:42.979282 25640 layer_factory.hpp:77] Creating layer pool2
I0401 15:21:42.979296 25640 net.cpp:84] Creating Layer pool2
I0401 15:21:42.979300 25640 net.cpp:406] pool2 <- norm2
I0401 15:21:42.979308 25640 net.cpp:380] pool2 -> pool2
I0401 15:21:42.979358 25640 net.cpp:122] Setting up pool2
I0401 15:21:42.979367 25640 net.cpp:129] Top shape: 32 256 13 13 (1384448)
I0401 15:21:42.979369 25640 net.cpp:137] Memory required for data: 217460480
I0401 15:21:42.979372 25640 layer_factory.hpp:77] Creating layer conv3
I0401 15:21:42.979387 25640 net.cpp:84] Creating Layer conv3
I0401 15:21:42.979390 25640 net.cpp:406] conv3 <- pool2
I0401 15:21:42.979398 25640 net.cpp:380] conv3 -> conv3
I0401 15:21:42.995455 25640 net.cpp:122] Setting up conv3
I0401 15:21:42.995479 25640 net.cpp:129] Top shape: 32 384 13 13 (2076672)
I0401 15:21:42.995483 25640 net.cpp:137] Memory required for data: 225767168
I0401 15:21:42.995501 25640 layer_factory.hpp:77] Creating layer relu3
I0401 15:21:42.995513 25640 net.cpp:84] Creating Layer relu3
I0401 15:21:42.995518 25640 net.cpp:406] relu3 <- conv3
I0401 15:21:42.995527 25640 net.cpp:367] relu3 -> conv3 (in-place)
I0401 15:21:42.996250 25640 net.cpp:122] Setting up relu3
I0401 15:21:42.996263 25640 net.cpp:129] Top shape: 32 384 13 13 (2076672)
I0401 15:21:42.996266 25640 net.cpp:137] Memory required for data: 234073856
I0401 15:21:42.996270 25640 layer_factory.hpp:77] Creating layer conv4
I0401 15:21:42.996287 25640 net.cpp:84] Creating Layer conv4
I0401 15:21:42.996291 25640 net.cpp:406] conv4 <- conv3
I0401 15:21:42.996299 25640 net.cpp:380] conv4 -> conv4
I0401 15:21:43.021281 25640 net.cpp:122] Setting up conv4
I0401 15:21:43.021306 25640 net.cpp:129] Top shape: 32 384 13 13 (2076672)
I0401 15:21:43.021309 25640 net.cpp:137] Memory required for data: 242380544
I0401 15:21:43.021322 25640 layer_factory.hpp:77] Creating layer relu4
I0401 15:21:43.021335 25640 net.cpp:84] Creating Layer relu4
I0401 15:21:43.021340 25640 net.cpp:406] relu4 <- conv4
I0401 15:21:43.021348 25640 net.cpp:367] relu4 -> conv4 (in-place)
I0401 15:21:43.022313 25640 net.cpp:122] Setting up relu4
I0401 15:21:43.022330 25640 net.cpp:129] Top shape: 32 384 13 13 (2076672)
I0401 15:21:43.022333 25640 net.cpp:137] Memory required for data: 250687232
I0401 15:21:43.022338 25640 layer_factory.hpp:77] Creating layer conv5
I0401 15:21:43.022423 25640 net.cpp:84] Creating Layer conv5
I0401 15:21:43.022434 25640 net.cpp:406] conv5 <- conv4
I0401 15:21:43.022469 25640 net.cpp:380] conv5 -> conv5
I0401 15:21:43.036206 25640 net.cpp:122] Setting up conv5
I0401 15:21:43.036234 25640 net.cpp:129] Top shape: 32 256 13 13 (1384448)
I0401 15:21:43.036238 25640 net.cpp:137] Memory required for data: 256225024
I0401 15:21:43.036259 25640 layer_factory.hpp:77] Creating layer relu5
I0401 15:21:43.036271 25640 net.cpp:84] Creating Layer relu5
I0401 15:21:43.036275 25640 net.cpp:406] relu5 <- conv5
I0401 15:21:43.036312 25640 net.cpp:367] relu5 -> conv5 (in-place)
I0401 15:21:43.037029 25640 net.cpp:122] Setting up relu5
I0401 15:21:43.037048 25640 net.cpp:129] Top shape: 32 256 13 13 (1384448)
I0401 15:21:43.037053 25640 net.cpp:137] Memory required for data: 261762816
I0401 15:21:43.037058 25640 layer_factory.hpp:77] Creating layer pool5
I0401 15:21:43.037077 25640 net.cpp:84] Creating Layer pool5
I0401 15:21:43.037083 25640 net.cpp:406] pool5 <- conv5
I0401 15:21:43.037091 25640 net.cpp:380] pool5 -> pool5
I0401 15:21:43.037147 25640 net.cpp:122] Setting up pool5
I0401 15:21:43.037153 25640 net.cpp:129] Top shape: 32 256 6 6 (294912)
I0401 15:21:43.037156 25640 net.cpp:137] Memory required for data: 262942464
I0401 15:21:43.037160 25640 layer_factory.hpp:77] Creating layer fc6
I0401 15:21:43.037168 25640 net.cpp:84] Creating Layer fc6
I0401 15:21:43.037173 25640 net.cpp:406] fc6 <- pool5
I0401 15:21:43.037179 25640 net.cpp:380] fc6 -> fc6
I0401 15:21:43.543203 25640 net.cpp:122] Setting up fc6
I0401 15:21:43.543224 25640 net.cpp:129] Top shape: 32 4096 (131072)
I0401 15:21:43.543227 25640 net.cpp:137] Memory required for data: 263466752
I0401 15:21:43.543234 25640 layer_factory.hpp:77] Creating layer relu6
I0401 15:21:43.543243 25640 net.cpp:84] Creating Layer relu6
I0401 15:21:43.543246 25640 net.cpp:406] relu6 <- fc6
I0401 15:21:43.543252 25640 net.cpp:367] relu6 -> fc6 (in-place)
I0401 15:21:43.543931 25640 net.cpp:122] Setting up relu6
I0401 15:21:43.543941 25640 net.cpp:129] Top shape: 32 4096 (131072)
I0401 15:21:43.543942 25640 net.cpp:137] Memory required for data: 263991040
I0401 15:21:43.543946 25640 layer_factory.hpp:77] Creating layer drop6
I0401 15:21:43.543952 25640 net.cpp:84] Creating Layer drop6
I0401 15:21:43.543954 25640 net.cpp:406] drop6 <- fc6
I0401 15:21:43.543960 25640 net.cpp:367] drop6 -> fc6 (in-place)
I0401 15:21:43.543982 25640 net.cpp:122] Setting up drop6
I0401 15:21:43.543987 25640 net.cpp:129] Top shape: 32 4096 (131072)
I0401 15:21:43.543988 25640 net.cpp:137] Memory required for data: 264515328
I0401 15:21:43.543990 25640 layer_factory.hpp:77] Creating layer fc7
I0401 15:21:43.543998 25640 net.cpp:84] Creating Layer fc7
I0401 15:21:43.544000 25640 net.cpp:406] fc7 <- fc6
I0401 15:21:43.544004 25640 net.cpp:380] fc7 -> fc7
I0401 15:21:43.691123 25640 net.cpp:122] Setting up fc7
I0401 15:21:43.691146 25640 net.cpp:129] Top shape: 32 4096 (131072)
I0401 15:21:43.691149 25640 net.cpp:137] Memory required for data: 265039616
I0401 15:21:43.691157 25640 layer_factory.hpp:77] Creating layer relu7
I0401 15:21:43.691164 25640 net.cpp:84] Creating Layer relu7
I0401 15:21:43.691169 25640 net.cpp:406] relu7 <- fc7
I0401 15:21:43.691174 25640 net.cpp:367] relu7 -> fc7 (in-place)
I0401 15:21:43.691565 25640 net.cpp:122] Setting up relu7
I0401 15:21:43.691573 25640 net.cpp:129] Top shape: 32 4096 (131072)
I0401 15:21:43.691576 25640 net.cpp:137] Memory required for data: 265563904
I0401 15:21:43.691578 25640 layer_factory.hpp:77] Creating layer drop7
I0401 15:21:43.691583 25640 net.cpp:84] Creating Layer drop7
I0401 15:21:43.691591 25640 net.cpp:406] drop7 <- fc7
I0401 15:21:43.691596 25640 net.cpp:367] drop7 -> fc7 (in-place)
I0401 15:21:43.691617 25640 net.cpp:122] Setting up drop7
I0401 15:21:43.691620 25640 net.cpp:129] Top shape: 32 4096 (131072)
I0401 15:21:43.691622 25640 net.cpp:137] Memory required for data: 266088192
I0401 15:21:43.691624 25640 layer_factory.hpp:77] Creating layer fc8
I0401 15:21:43.691632 25640 net.cpp:84] Creating Layer fc8
I0401 15:21:43.691633 25640 net.cpp:406] fc8 <- fc7
I0401 15:21:43.691639 25640 net.cpp:380] fc8 -> fc8
I0401 15:21:43.698961 25640 net.cpp:122] Setting up fc8
I0401 15:21:43.698979 25640 net.cpp:129] Top shape: 32 196 (6272)
I0401 15:21:43.698982 25640 net.cpp:137] Memory required for data: 266113280
I0401 15:21:43.698990 25640 layer_factory.hpp:77] Creating layer fc8_fc8_0_split
I0401 15:21:43.698999 25640 net.cpp:84] Creating Layer fc8_fc8_0_split
I0401 15:21:43.699002 25640 net.cpp:406] fc8_fc8_0_split <- fc8
I0401 15:21:43.699028 25640 net.cpp:380] fc8_fc8_0_split -> fc8_fc8_0_split_0
I0401 15:21:43.699036 25640 net.cpp:380] fc8_fc8_0_split -> fc8_fc8_0_split_1
I0401 15:21:43.699069 25640 net.cpp:122] Setting up fc8_fc8_0_split
I0401 15:21:43.699074 25640 net.cpp:129] Top shape: 32 196 (6272)
I0401 15:21:43.699075 25640 net.cpp:129] Top shape: 32 196 (6272)
I0401 15:21:43.699077 25640 net.cpp:137] Memory required for data: 266163456
I0401 15:21:43.699079 25640 layer_factory.hpp:77] Creating layer accuracy
I0401 15:21:43.699086 25640 net.cpp:84] Creating Layer accuracy
I0401 15:21:43.699088 25640 net.cpp:406] accuracy <- fc8_fc8_0_split_0
I0401 15:21:43.699091 25640 net.cpp:406] accuracy <- label_val-data_1_split_0
I0401 15:21:43.699095 25640 net.cpp:380] accuracy -> accuracy
…
