…
I0427 20:30:31.609792 11044 net.cpp:294] The NetState phase (0) differed from the phase (1) specified by a rule in layer accuracy
I0427 20:30:31.609923 11044 net.cpp:51] Initializing net from parameters:
state {
phase: TRAIN
level: 0
stage: ""
}
layer {
name: "train-data"
type: "Data"
top: "data"
top: "label"
include {
phase: TRAIN
}
transform_param {
mirror: true
crop_size: 227
mean_file: "/mnt/bigdisk/DIGITS-MAN-3/digits/jobs/20210427-191914-500d/mean.binaryproto"
}
data_param {
source: "/mnt/bigdisk/DIGITS-MAN-3/digits/jobs/20210427-191914-500d/train_db"
batch_size: 256
backend: LMDB
}
}
layer {
name: "conv1"
type: "Convolution"
bottom: "data"
top: "conv1"
param {
lr_mult: 1
decay_mult: 1
}
param {
lr_mult: 2
decay_mult: 0
}
convolution_param {
num_output: 96
kernel_size: 11
stride: 4
weight_filler {
type: "gaussian"
std: 0.01
}
bias_filler {
type: "constant"
value: 0
}
}
}
layer {
name: "relu1"
type: "ReLU"
bottom: "conv1"
top: "conv1"
}
layer {
name: "norm1"
type: "LRN"
bottom: "conv1"
top: "norm1"
lrn_param {
local_size: 5
alpha: 0.0001
beta: 0.75
}
}
layer {
name: "pool1"
type: "Pooling"
bottom: "norm1"
top: "pool1"
pooling_param {
pool: MAX
kernel_size: 3
stride: 2
}
}
layer {
name: "conv2"
type: "Convolution"
bottom: "pool1"
top: "conv2"
param {
lr_mult: 1
decay_mult: 1
}
param {
lr_mult: 2
decay_mult: 0
}
convolution_param {
num_output: 256
pad: 2
kernel_size: 5
group: 2
weight_filler {
type: "gaussian"
std: 0.01
}
bias_filler {
type: "constant"
value: 0.1
}
}
}
layer {
name: "relu2"
type: "ReLU"
bottom: "conv2"
top: "conv2"
}
layer {
name: "norm2"
type: "LRN"
bottom: "conv2"
top: "norm2"
lrn_param {
local_size: 5
alpha: 0.0001
beta: 0.75
}
}
layer {
name: "pool2"
type: "Pooling"
bottom: "norm2"
top: "pool2"
pooling_param {
pool: MAX
kernel_size: 3
stride: 2
}
}
layer {
name: "conv3"
type: "Convolution"
bottom: "pool2"
top: "conv3"
param {
lr_mult: 1
decay_mult: 1
}
param {
lr_mult: 2
decay_mult: 0
}
convolution_param {
num_output: 384
pad: 1
kernel_size: 3
weight_filler {
type: "gaussian"
std: 0.01
}
bias_filler {
type: "constant"
value: 0
}
}
}
layer {
name: "relu3"
type: "ReLU"
bottom: "conv3"
top: "conv3"
}
layer {
name: "conv4"
type: "Convolution"
bottom: "conv3"
top: "conv4"
param {
lr_mult: 1
decay_mult: 1
}
param {
lr_mult: 2
decay_mult: 0
}
convolution_param {
num_output: 384
pad: 1
kernel_size: 3
group: 2
weight_filler {
type: "gaussian"
std: 0.01
}
bias_filler {
type: "constant"
value: 0.1
}
}
}
layer {
name: "relu4"
type: "ReLU"
bottom: "conv4"
top: "conv4"
}
layer {
name: "conv5"
type: "Convolution"
bottom: "conv4"
top: "conv5"
param {
lr_mult: 1
decay_mult: 1
}
param {
lr_mult: 2
decay_mult: 0
}
convolution_param {
num_output: 256
pad: 1
kernel_size: 3
group: 2
weight_filler {
type: "gaussian"
std: 0.01
}
bias_filler {
type: "constant"
value: 0.1
}
}
}
layer {
name: "relu5"
type: "ReLU"
bottom: "conv5"
top: "conv5"
}
layer {
name: "pool5"
type: "Pooling"
bottom: "conv5"
top: "pool5"
pooling_param {
pool: MAX
kernel_size: 3
stride: 2
}
}
layer {
name: "fc6"
type: "InnerProduct"
bottom: "pool5"
top: "fc6"
param {
lr_mult: 1
decay_mult: 1
}
param {
lr_mult: 2
decay_mult: 0
}
inner_product_param {
num_output: 4096
weight_filler {
type: "gaussian"
std: 0.005
}
bias_filler {
type: "constant"
value: 0.1
}
}
}
layer {
name: "relu6"
type: "ReLU"
bottom: "fc6"
top: "fc6"
}
layer {
name: "drop6"
type: "Dropout"
bottom: "fc6"
top: "fc6"
dropout_param {
dropout_ratio: 0.5
}
}
layer {
name: "fc7"
type: "InnerProduct"
bottom: "fc6"
top: "fc7"
param {
lr_mult: 1
decay_mult: 1
}
param {
lr_mult: 2
decay_mult: 0
}
inner_product_param {
num_output: 4096
weight_filler {
type: "gaussian"
std: 0.005
}
bias_filler {
type: "constant"
value: 0.1
}
}
}
layer {
name: "relu7"
type: "ReLU"
bottom: "fc7"
top: "fc7"
}
layer {
name: "drop7"
type: "Dropout"
bottom: "fc7"
top: "fc7"
dropout_param {
dropout_ratio: 0.5
}
}
layer {
name: "fc8"
type: "InnerProduct"
bottom: "fc7"
top: "fc8"
param {
lr_mult: 1
decay_mult: 1
}
param {
lr_mult: 2
decay_mult: 0
}
inner_product_param {
num_output: 196
weight_filler {
type: "gaussian"
std: 0.01
}
bias_filler {
type: "constant"
value: 0
}
}
}
layer {
name: "loss"
type: "SoftmaxWithLoss"
bottom: "fc8"
bottom: "label"
top: "loss"
}
I0427 20:30:31.610009 11044 layer_factory.hpp:77] Creating layer train-data
I0427 20:30:31.650806 11044 db_lmdb.cpp:35] Opened lmdb /mnt/bigdisk/DIGITS-MAN-3/digits/jobs/20210427-191914-500d/train_db
I0427 20:30:31.657838 11044 net.cpp:84] Creating Layer train-data
I0427 20:30:31.657866 11044 net.cpp:380] train-data -> data
I0427 20:30:31.657889 11044 net.cpp:380] train-data -> label
I0427 20:30:31.657903 11044 data_transformer.cpp:25] Loading mean file from: /mnt/bigdisk/DIGITS-MAN-3/digits/jobs/20210427-191914-500d/mean.binaryproto
I0427 20:30:31.663246 11044 data_layer.cpp:45] output data size: 256,3,227,227
I0427 20:30:32.025853 11044 net.cpp:122] Setting up train-data
I0427 20:30:32.025876 11044 net.cpp:129] Top shape: 256 3 227 227 (39574272)
I0427 20:30:32.025882 11044 net.cpp:129] Top shape: 256 (256)
I0427 20:30:32.025885 11044 net.cpp:137] Memory required for data: 158298112
I0427 20:30:32.025895 11044 layer_factory.hpp:77] Creating layer conv1
I0427 20:30:32.025915 11044 net.cpp:84] Creating Layer conv1
I0427 20:30:32.025921 11044 net.cpp:406] conv1 <- data
I0427 20:30:32.025933 11044 net.cpp:380] conv1 -> conv1
I0427 20:30:32.992717 11044 net.cpp:122] Setting up conv1
I0427 20:30:32.992738 11044 net.cpp:129] Top shape: 256 96 55 55 (74342400)
I0427 20:30:32.992741 11044 net.cpp:137] Memory required for data: 455667712
I0427 20:30:32.992761 11044 layer_factory.hpp:77] Creating layer relu1
I0427 20:30:32.992774 11044 net.cpp:84] Creating Layer relu1
I0427 20:30:32.992779 11044 net.cpp:406] relu1 <- conv1
I0427 20:30:32.992784 11044 net.cpp:367] relu1 -> conv1 (in-place)
I0427 20:30:32.993093 11044 net.cpp:122] Setting up relu1
I0427 20:30:32.993103 11044 net.cpp:129] Top shape: 256 96 55 55 (74342400)
I0427 20:30:32.993106 11044 net.cpp:137] Memory required for data: 753037312
I0427 20:30:32.993110 11044 layer_factory.hpp:77] Creating layer norm1
I0427 20:30:32.993120 11044 net.cpp:84] Creating Layer norm1
I0427 20:30:32.993125 11044 net.cpp:406] norm1 <- conv1
I0427 20:30:32.993153 11044 net.cpp:380] norm1 -> norm1
I0427 20:30:32.993613 11044 net.cpp:122] Setting up norm1
I0427 20:30:32.993623 11044 net.cpp:129] Top shape: 256 96 55 55 (74342400)
I0427 20:30:32.993626 11044 net.cpp:137] Memory required for data: 1050406912
I0427 20:30:32.993631 11044 layer_factory.hpp:77] Creating layer pool1
I0427 20:30:32.993638 11044 net.cpp:84] Creating Layer pool1
I0427 20:30:32.993643 11044 net.cpp:406] pool1 <- norm1
I0427 20:30:32.993647 11044 net.cpp:380] pool1 -> pool1
I0427 20:30:32.993688 11044 net.cpp:122] Setting up pool1
I0427 20:30:32.993695 11044 net.cpp:129] Top shape: 256 96 27 27 (17915904)
I0427 20:30:32.993698 11044 net.cpp:137] Memory required for data: 1122070528
I0427 20:30:32.993703 11044 layer_factory.hpp:77] Creating layer conv2
I0427 20:30:32.993714 11044 net.cpp:84] Creating Layer conv2
I0427 20:30:32.993718 11044 net.cpp:406] conv2 <- pool1
I0427 20:30:32.993723 11044 net.cpp:380] conv2 -> conv2
I0427 20:30:33.002140 11044 net.cpp:122] Setting up conv2
I0427 20:30:33.002157 11044 net.cpp:129] Top shape: 256 256 27 27 (47775744)
I0427 20:30:33.002161 11044 net.cpp:137] Memory required for data: 1313173504
I0427 20:30:33.002172 11044 layer_factory.hpp:77] Creating layer relu2
I0427 20:30:33.002182 11044 net.cpp:84] Creating Layer relu2
I0427 20:30:33.002187 11044 net.cpp:406] relu2 <- conv2
I0427 20:30:33.002192 11044 net.cpp:367] relu2 -> conv2 (in-place)
I0427 20:30:33.002694 11044 net.cpp:122] Setting up relu2
I0427 20:30:33.002707 11044 net.cpp:129] Top shape: 256 256 27 27 (47775744)
I0427 20:30:33.002709 11044 net.cpp:137] Memory required for data: 1504276480
I0427 20:30:33.002713 11044 layer_factory.hpp:77] Creating layer norm2
I0427 20:30:33.002722 11044 net.cpp:84] Creating Layer norm2
I0427 20:30:33.002725 11044 net.cpp:406] norm2 <- conv2
I0427 20:30:33.002732 11044 net.cpp:380] norm2 -> norm2
I0427 20:30:33.003120 11044 net.cpp:122] Setting up norm2
I0427 20:30:33.003130 11044 net.cpp:129] Top shape: 256 256 27 27 (47775744)
I0427 20:30:33.003134 11044 net.cpp:137] Memory required for data: 1695379456
I0427 20:30:33.003139 11044 layer_factory.hpp:77] Creating layer pool2
I0427 20:30:33.003146 11044 net.cpp:84] Creating Layer pool2
I0427 20:30:33.003150 11044 net.cpp:406] pool2 <- norm2
I0427 20:30:33.003159 11044 net.cpp:380] pool2 -> pool2
I0427 20:30:33.003190 11044 net.cpp:122] Setting up pool2
I0427 20:30:33.003194 11044 net.cpp:129] Top shape: 256 256 13 13 (11075584)
I0427 20:30:33.003198 11044 net.cpp:137] Memory required for data: 1739681792
I0427 20:30:33.003201 11044 layer_factory.hpp:77] Creating layer conv3
I0427 20:30:33.003214 11044 net.cpp:84] Creating Layer conv3
I0427 20:30:33.003218 11044 net.cpp:406] conv3 <- pool2
I0427 20:30:33.003223 11044 net.cpp:380] conv3 -> conv3
I0427 20:30:33.013553 11044 net.cpp:122] Setting up conv3
I0427 20:30:33.013572 11044 net.cpp:129] Top shape: 256 384 13 13 (16613376)
I0427 20:30:33.013576 11044 net.cpp:137] Memory required for data: 1806135296
I0427 20:30:33.013587 11044 layer_factory.hpp:77] Creating layer relu3
I0427 20:30:33.013597 11044 net.cpp:84] Creating Layer relu3
I0427 20:30:33.013602 11044 net.cpp:406] relu3 <- conv3
I0427 20:30:33.013608 11044 net.cpp:367] relu3 -> conv3 (in-place)
I0427 20:30:33.014111 11044 net.cpp:122] Setting up relu3
I0427 20:30:33.014122 11044 net.cpp:129] Top shape: 256 384 13 13 (16613376)
I0427 20:30:33.014124 11044 net.cpp:137] Memory required for data: 1872588800
I0427 20:30:33.014128 11044 layer_factory.hpp:77] Creating layer conv4
I0427 20:30:33.014139 11044 net.cpp:84] Creating Layer conv4
I0427 20:30:33.014142 11044 net.cpp:406] conv4 <- conv3
I0427 20:30:33.014150 11044 net.cpp:380] conv4 -> conv4
I0427 20:30:33.025296 11044 net.cpp:122] Setting up conv4
I0427 20:30:33.025318 11044 net.cpp:129] Top shape: 256 384 13 13 (16613376)
I0427 20:30:33.025322 11044 net.cpp:137] Memory required for data: 1939042304
I0427 20:30:33.025331 11044 layer_factory.hpp:77] Creating layer relu4
I0427 20:30:33.025341 11044 net.cpp:84] Creating Layer relu4
I0427 20:30:33.025365 11044 net.cpp:406] relu4 <- conv4
I0427 20:30:33.025372 11044 net.cpp:367] relu4 -> conv4 (in-place)
I0427 20:30:33.025722 11044 net.cpp:122] Setting up relu4
I0427 20:30:33.025732 11044 net.cpp:129] Top shape: 256 384 13 13 (16613376)
I0427 20:30:33.025735 11044 net.cpp:137] Memory required for data: 2005495808
I0427 20:30:33.025739 11044 layer_factory.hpp:77] Creating layer conv5
I0427 20:30:33.025749 11044 net.cpp:84] Creating Layer conv5
I0427 20:30:33.025753 11044 net.cpp:406] conv5 <- conv4
I0427 20:30:33.025760 11044 net.cpp:380] conv5 -> conv5
I0427 20:30:33.036482 11044 net.cpp:122] Setting up conv5
I0427 20:30:33.036518 11044 net.cpp:129] Top shape: 256 256 13 13 (11075584)
I0427 20:30:33.036522 11044 net.cpp:137] Memory required for data: 2049798144
I0427 20:30:33.036535 11044 layer_factory.hpp:77] Creating layer relu5
I0427 20:30:33.036545 11044 net.cpp:84] Creating Layer relu5
I0427 20:30:33.036550 11044 net.cpp:406] relu5 <- conv5
I0427 20:30:33.036556 11044 net.cpp:367] relu5 -> conv5 (in-place)
I0427 20:30:33.037053 11044 net.cpp:122] Setting up relu5
I0427 20:30:33.037062 11044 net.cpp:129] Top shape: 256 256 13 13 (11075584)
I0427 20:30:33.037066 11044 net.cpp:137] Memory required for data: 2094100480
I0427 20:30:33.037070 11044 layer_factory.hpp:77] Creating layer pool5
I0427 20:30:33.037077 11044 net.cpp:84] Creating Layer pool5
I0427 20:30:33.037081 11044 net.cpp:406] pool5 <- conv5
I0427 20:30:33.037087 11044 net.cpp:380] pool5 -> pool5
I0427 20:30:33.037125 11044 net.cpp:122] Setting up pool5
I0427 20:30:33.037132 11044 net.cpp:129] Top shape: 256 256 6 6 (2359296)
I0427 20:30:33.037134 11044 net.cpp:137] Memory required for data: 2103537664
I0427 20:30:33.037138 11044 layer_factory.hpp:77] Creating layer fc6
I0427 20:30:33.037148 11044 net.cpp:84] Creating Layer fc6
I0427 20:30:33.037151 11044 net.cpp:406] fc6 <- pool5
I0427 20:30:33.037156 11044 net.cpp:380] fc6 -> fc6
I0427 20:30:33.397275 11044 net.cpp:122] Setting up fc6
I0427 20:30:33.397300 11044 net.cpp:129] Top shape: 256 4096 (1048576)
I0427 20:30:33.397305 11044 net.cpp:137] Memory required for data: 2107731968
I0427 20:30:33.397313 11044 layer_factory.hpp:77] Creating layer relu6
I0427 20:30:33.397323 11044 net.cpp:84] Creating Layer relu6
I0427 20:30:33.397327 11044 net.cpp:406] relu6 <- fc6
I0427 20:30:33.397336 11044 net.cpp:367] relu6 -> fc6 (in-place)
I0427 20:30:33.406138 11044 net.cpp:122] Setting up relu6
I0427 20:30:33.406159 11044 net.cpp:129] Top shape: 256 4096 (1048576)
I0427 20:30:33.406162 11044 net.cpp:137] Memory required for data: 2111926272
I0427 20:30:33.406167 11044 layer_factory.hpp:77] Creating layer drop6
I0427 20:30:33.406177 11044 net.cpp:84] Creating Layer drop6
I0427 20:30:33.406181 11044 net.cpp:406] drop6 <- fc6
I0427 20:30:33.406191 11044 net.cpp:367] drop6 -> fc6 (in-place)
I0427 20:30:33.406226 11044 net.cpp:122] Setting up drop6
I0427 20:30:33.406231 11044 net.cpp:129] Top shape: 256 4096 (1048576)
I0427 20:30:33.406234 11044 net.cpp:137] Memory required for data: 2116120576
I0427 20:30:33.406239 11044 layer_factory.hpp:77] Creating layer fc7
I0427 20:30:33.406247 11044 net.cpp:84] Creating Layer fc7
I0427 20:30:33.406250 11044 net.cpp:406] fc7 <- fc6
I0427 20:30:33.406257 11044 net.cpp:380] fc7 -> fc7
I0427 20:30:33.574182 11044 net.cpp:122] Setting up fc7
I0427 20:30:33.574201 11044 net.cpp:129] Top shape: 256 4096 (1048576)
I0427 20:30:33.574205 11044 net.cpp:137] Memory required for data: 2120314880
I0427 20:30:33.574215 11044 layer_factory.hpp:77] Creating layer relu7
I0427 20:30:33.574224 11044 net.cpp:84] Creating Layer relu7
I0427 20:30:33.574229 11044 net.cpp:406] relu7 <- fc7
I0427 20:30:33.574236 11044 net.cpp:367] relu7 -> fc7 (in-place)
I0427 20:30:33.597113 11044 net.cpp:122] Setting up relu7
I0427 20:30:33.597131 11044 net.cpp:129] Top shape: 256 4096 (1048576)
I0427 20:30:33.597136 11044 net.cpp:137] Memory required for data: 2124509184
I0427 20:30:33.597143 11044 layer_factory.hpp:77] Creating layer drop7
I0427 20:30:33.597152 11044 net.cpp:84] Creating Layer drop7
I0427 20:30:33.597178 11044 net.cpp:406] drop7 <- fc7
I0427 20:30:33.597185 11044 net.cpp:367] drop7 -> fc7 (in-place)
I0427 20:30:33.597234 11044 net.cpp:122] Setting up drop7
I0427 20:30:33.597239 11044 net.cpp:129] Top shape: 256 4096 (1048576)
I0427 20:30:33.597242 11044 net.cpp:137] Memory required for data: 2128703488
I0427 20:30:33.597245 11044 layer_factory.hpp:77] Creating layer fc8
I0427 20:30:33.597255 11044 net.cpp:84] Creating Layer fc8
I0427 20:30:33.597259 11044 net.cpp:406] fc8 <- fc7
I0427 20:30:33.597265 11044 net.cpp:380] fc8 -> fc8
I0427 20:30:33.619303 11044 net.cpp:122] Setting up fc8
I0427 20:30:33.619324 11044 net.cpp:129] Top shape: 256 196 (50176)
I0427 20:30:33.619328 11044 net.cpp:137] Memory required for data: 2128904192
I0427 20:30:33.619338 11044 layer_factory.hpp:77] Creating layer loss
I0427 20:30:33.619346 11044 net.cpp:84] Creating Layer loss
I0427 20:30:33.619351 11044 net.cpp:406] loss <- fc8
I0427 20:30:33.619357 11044 net.cpp:406] loss <- label
I0427 20:30:33.619365 11044 net.cpp:380] loss -> loss
I0427 20:30:33.619375 11044 layer_factory.hpp:77] Creating layer loss
…
I0427 20:30:33.629117 11044 net.cpp:294] The NetState phase (1) differed from the phase (0) specified by a rule in layer train-data
I0427 20:30:33.629262 11044 net.cpp:51] Initializing net from parameters:
state {
phase: TEST
}
layer {
name: "val-data"
type: "Data"
top: "data"
top: "label"
include {
phase: TEST
}
transform_param {
crop_size: 227
mean_file: "/mnt/bigdisk/DIGITS-MAN-3/digits/jobs/20210427-191914-500d/mean.binaryproto"
}
data_param {
source: "/mnt/bigdisk/DIGITS-MAN-3/digits/jobs/20210427-191914-500d/val_db"
batch_size: 256
backend: LMDB
}
}
layer {
name: "conv1"
type: "Convolution"
bottom: "data"
top: "conv1"
param {
lr_mult: 1
decay_mult: 1
}
param {
lr_mult: 2
decay_mult: 0
}
convolution_param {
num_output: 96
kernel_size: 11
stride: 4
weight_filler {
type: "gaussian"
std: 0.01
}
bias_filler {
type: "constant"
value: 0
}
}
}
layer {
name: "relu1"
type: "ReLU"
bottom: "conv1"
top: "conv1"
}
layer {
name: "norm1"
type: "LRN"
bottom: "conv1"
top: "norm1"
lrn_param {
local_size: 5
alpha: 0.0001
beta: 0.75
}
}
layer {
name: "pool1"
type: "Pooling"
bottom: "norm1"
top: "pool1"
pooling_param {
pool: MAX
kernel_size: 3
stride: 2
}
}
layer {
name: "conv2"
type: "Convolution"
bottom: "pool1"
top: "conv2"
param {
lr_mult: 1
decay_mult: 1
}
param {
lr_mult: 2
decay_mult: 0
}
convolution_param {
num_output: 256
pad: 2
kernel_size: 5
group: 2
weight_filler {
type: "gaussian"
std: 0.01
}
bias_filler {
type: "constant"
value: 0.1
}
}
}
layer {
name: "relu2"
type: "ReLU"
bottom: "conv2"
top: "conv2"
}
layer {
name: "norm2"
type: "LRN"
bottom: "conv2"
top: "norm2"
lrn_param {
local_size: 5
alpha: 0.0001
beta: 0.75
}
}
layer {
name: "pool2"
type: "Pooling"
bottom: "norm2"
top: "pool2"
pooling_param {
pool: MAX
kernel_size: 3
stride: 2
}
}
layer {
name: "conv3"
type: "Convolution"
bottom: "pool2"
top: "conv3"
param {
lr_mult: 1
decay_mult: 1
}
param {
lr_mult: 2
decay_mult: 0
}
convolution_param {
num_output: 384
pad: 1
kernel_size: 3
weight_filler {
type: "gaussian"
std: 0.01
}
bias_filler {
type: "constant"
value: 0
}
}
}
layer {
name: "relu3"
type: "ReLU"
bottom: "conv3"
top: "conv3"
}
layer {
name: "conv4"
type: "Convolution"
bottom: "conv3"
top: "conv4"
param {
lr_mult: 1
decay_mult: 1
}
param {
lr_mult: 2
decay_mult: 0
}
convolution_param {
num_output: 384
pad: 1
kernel_size: 3
group: 2
weight_filler {
type: "gaussian"
std: 0.01
}
bias_filler {
type: "constant"
value: 0.1
}
}
}
layer {
name: "relu4"
type: "ReLU"
bottom: "conv4"
top: "conv4"
}
layer {
name: "conv5"
type: "Convolution"
bottom: "conv4"
top: "conv5"
param {
lr_mult: 1
decay_mult: 1
}
param {
lr_mult: 2
decay_mult: 0
}
convolution_param {
num_output: 256
pad: 1
kernel_size: 3
group: 2
weight_filler {
type: "gaussian"
std: 0.01
}
bias_filler {
type: "constant"
value: 0.1
}
}
}
layer {
name: "relu5"
type: "ReLU"
bottom: "conv5"
top: "conv5"
}
layer {
name: "pool5"
type: "Pooling"
bottom: "conv5"
top: "pool5"
pooling_param {
pool: MAX
kernel_size: 3
stride: 2
}
}
layer {
name: "fc6"
type: "InnerProduct"
bottom: "pool5"
top: "fc6"
param {
lr_mult: 1
decay_mult: 1
}
param {
lr_mult: 2
decay_mult: 0
}
inner_product_param {
num_output: 4096
weight_filler {
type: "gaussian"
std: 0.005
}
bias_filler {
type: "constant"
value: 0.1
}
}
}
layer {
name: "relu6"
type: "ReLU"
bottom: "fc6"
top: "fc6"
}
layer {
name: "drop6"
type: "Dropout"
bottom: "fc6"
top: "fc6"
dropout_param {
dropout_ratio: 0.5
}
}
layer {
name: "fc7"
type: "InnerProduct"
bottom: "fc6"
top: "fc7"
param {
lr_mult: 1
decay_mult: 1
}
param {
lr_mult: 2
decay_mult: 0
}
inner_product_param {
num_output: 4096
weight_filler {
type: "gaussian"
std: 0.005
}
bias_filler {
type: "constant"
value: 0.1
}
}
}
layer {
name: "relu7"
type: "ReLU"
bottom: "fc7"
top: "fc7"
}
layer {
name: "drop7"
type: "Dropout"
bottom: "fc7"
top: "fc7"
dropout_param {
dropout_ratio: 0.5
}
}
layer {
name: "fc8"
type: "InnerProduct"
bottom: "fc7"
top: "fc8"
param {
lr_mult: 1
decay_mult: 1
}
param {
lr_mult: 2
decay_mult: 0
}
inner_product_param {
num_output: 196
weight_filler {
type: "gaussian"
std: 0.01
}
bias_filler {
type: "constant"
value: 0
}
}
}
layer {
name: "accuracy"
type: "Accuracy"
bottom: "fc8"
bottom: "label"
top: "accuracy"
include {
phase: TEST
}
}
layer {
name: "loss"
type: "SoftmaxWithLoss"
bottom: "fc8"
bottom: "label"
top: "loss"
}
I0427 20:30:33.629382 11044 layer_factory.hpp:77] Creating layer val-data
I0427 20:30:33.658977 11044 db_lmdb.cpp:35] Opened lmdb /mnt/bigdisk/DIGITS-MAN-3/digits/jobs/20210427-191914-500d/val_db
I0427 20:30:33.659907 11044 net.cpp:84] Creating Layer val-data
I0427 20:30:33.659929 11044 net.cpp:380] val-data -> data
I0427 20:30:33.659945 11044 net.cpp:380] val-data -> label
I0427 20:30:33.659955 11044 data_transformer.cpp:25] Loading mean file from: /mnt/bigdisk/DIGITS-MAN-3/digits/jobs/20210427-191914-500d/mean.binaryproto
I0427 20:30:33.665383 11044 data_layer.cpp:45] output data size: 256,3,227,227
I0427 20:30:33.930526 11044 net.cpp:122] Setting up val-data
I0427 20:30:33.930549 11044 net.cpp:129] Top shape: 256 3 227 227 (39574272)
I0427 20:30:33.930554 11044 net.cpp:129] Top shape: 256 (256)
I0427 20:30:33.930557 11044 net.cpp:137] Memory required for data: 158298112
I0427 20:30:33.930564 11044 layer_factory.hpp:77] Creating layer label_val-data_1_split
I0427 20:30:33.930577 11044 net.cpp:84] Creating Layer label_val-data_1_split
I0427 20:30:33.930581 11044 net.cpp:406] label_val-data_1_split <- label
I0427 20:30:33.930589 11044 net.cpp:380] label_val-data_1_split -> label_val-data_1_split_0
I0427 20:30:33.930598 11044 net.cpp:380] label_val-data_1_split -> label_val-data_1_split_1
I0427 20:30:33.930670 11044 net.cpp:122] Setting up label_val-data_1_split
I0427 20:30:33.930677 11044 net.cpp:129] Top shape: 256 (256)
I0427 20:30:33.930680 11044 net.cpp:129] Top shape: 256 (256)
I0427 20:30:33.930685 11044 net.cpp:137] Memory required for data: 158300160
I0427 20:30:33.930687 11044 layer_factory.hpp:77] Creating layer conv1
I0427 20:30:33.930701 11044 net.cpp:84] Creating Layer conv1
I0427 20:30:33.930703 11044 net.cpp:406] conv1 <- data
I0427 20:30:33.930709 11044 net.cpp:380] conv1 -> conv1
I0427 20:30:33.932796 11044 net.cpp:122] Setting up conv1
I0427 20:30:33.932807 11044 net.cpp:129] Top shape: 256 96 55 55 (74342400)
I0427 20:30:33.932811 11044 net.cpp:137] Memory required for data: 455669760
I0427 20:30:33.932821 11044 layer_factory.hpp:77] Creating layer relu1
I0427 20:30:33.932827 11044 net.cpp:84] Creating Layer relu1
I0427 20:30:33.932832 11044 net.cpp:406] relu1 <- conv1
I0427 20:30:33.932837 11044 net.cpp:367] relu1 -> conv1 (in-place)
I0427 20:30:33.933137 11044 net.cpp:122] Setting up relu1
I0427 20:30:33.933146 11044 net.cpp:129] Top shape: 256 96 55 55 (74342400)
I0427 20:30:33.933149 11044 net.cpp:137] Memory required for data: 753039360
I0427 20:30:33.933153 11044 layer_factory.hpp:77] Creating layer norm1
I0427 20:30:33.933161 11044 net.cpp:84] Creating Layer norm1
I0427 20:30:33.933166 11044 net.cpp:406] norm1 <- conv1
I0427 20:30:33.933171 11044 net.cpp:380] norm1 -> norm1
I0427 20:30:33.933640 11044 net.cpp:122] Setting up norm1
I0427 20:30:33.933650 11044 net.cpp:129] Top shape: 256 96 55 55 (74342400)
I0427 20:30:33.933653 11044 net.cpp:137] Memory required for data: 1050408960
I0427 20:30:33.933657 11044 layer_factory.hpp:77] Creating layer pool1
I0427 20:30:33.933665 11044 net.cpp:84] Creating Layer pool1
I0427 20:30:33.933670 11044 net.cpp:406] pool1 <- norm1
I0427 20:30:33.933676 11044 net.cpp:380] pool1 -> pool1
I0427 20:30:33.945794 11044 net.cpp:122] Setting up pool1
I0427 20:30:33.945814 11044 net.cpp:129] Top shape: 256 96 27 27 (17915904)
I0427 20:30:33.945818 11044 net.cpp:137] Memory required for data: 1122072576
I0427 20:30:33.945823 11044 layer_factory.hpp:77] Creating layer conv2
I0427 20:30:33.945837 11044 net.cpp:84] Creating Layer conv2
I0427 20:30:33.945861 11044 net.cpp:406] conv2 <- pool1
I0427 20:30:33.945869 11044 net.cpp:380] conv2 -> conv2
I0427 20:30:33.953523 11044 net.cpp:122] Setting up conv2
I0427 20:30:33.953545 11044 net.cpp:129] Top shape: 256 256 27 27 (47775744)
I0427 20:30:33.953549 11044 net.cpp:137] Memory required for data: 1313175552
I0427 20:30:33.953562 11044 layer_factory.hpp:77] Creating layer relu2
I0427 20:30:33.953572 11044 net.cpp:84] Creating Layer relu2
I0427 20:30:33.953575 11044 net.cpp:406] relu2 <- conv2
I0427 20:30:33.953583 11044 net.cpp:367] relu2 -> conv2 (in-place)
I0427 20:30:33.954182 11044 net.cpp:122] Setting up relu2
I0427 20:30:33.954193 11044 net.cpp:129] Top shape: 256 256 27 27 (47775744)
I0427 20:30:33.954196 11044 net.cpp:137] Memory required for data: 1504278528
I0427 20:30:33.954200 11044 layer_factory.hpp:77] Creating layer norm2
I0427 20:30:33.954210 11044 net.cpp:84] Creating Layer norm2
I0427 20:30:33.954214 11044 net.cpp:406] norm2 <- conv2
I0427 20:30:33.954221 11044 net.cpp:380] norm2 -> norm2
I0427 20:30:33.954759 11044 net.cpp:122] Setting up norm2
I0427 20:30:33.954771 11044 net.cpp:129] Top shape: 256 256 27 27 (47775744)
I0427 20:30:33.954774 11044 net.cpp:137] Memory required for data: 1695381504
I0427 20:30:33.954778 11044 layer_factory.hpp:77] Creating layer pool2
I0427 20:30:33.954787 11044 net.cpp:84] Creating Layer pool2
I0427 20:30:33.954790 11044 net.cpp:406] pool2 <- norm2
I0427 20:30:33.954795 11044 net.cpp:380] pool2 -> pool2
I0427 20:30:33.954828 11044 net.cpp:122] Setting up pool2
I0427 20:30:33.954833 11044 net.cpp:129] Top shape: 256 256 13 13 (11075584)
I0427 20:30:33.954836 11044 net.cpp:137] Memory required for data: 1739683840
I0427 20:30:33.954840 11044 layer_factory.hpp:77] Creating layer conv3
I0427 20:30:33.954850 11044 net.cpp:84] Creating Layer conv3
I0427 20:30:33.954854 11044 net.cpp:406] conv3 <- pool2
I0427 20:30:33.954860 11044 net.cpp:380] conv3 -> conv3
I0427 20:30:33.970261 11044 net.cpp:122] Setting up conv3
I0427 20:30:33.970280 11044 net.cpp:129] Top shape: 256 384 13 13 (16613376)
I0427 20:30:33.970284 11044 net.cpp:137] Memory required for data: 1806137344
I0427 20:30:33.970299 11044 layer_factory.hpp:77] Creating layer relu3
I0427 20:30:33.970309 11044 net.cpp:84] Creating Layer relu3
I0427 20:30:33.970314 11044 net.cpp:406] relu3 <- conv3
I0427 20:30:33.970320 11044 net.cpp:367] relu3 -> conv3 (in-place)
I0427 20:30:33.988026 11044 net.cpp:122] Setting up relu3
I0427 20:30:33.988045 11044 net.cpp:129] Top shape: 256 384 13 13 (16613376)
I0427 20:30:33.988049 11044 net.cpp:137] Memory required for data: 1872590848
I0427 20:30:33.988054 11044 layer_factory.hpp:77] Creating layer conv4
I0427 20:30:33.988070 11044 net.cpp:84] Creating Layer conv4
I0427 20:30:33.988075 11044 net.cpp:406] conv4 <- conv3
I0427 20:30:33.988085 11044 net.cpp:380] conv4 -> conv4
I0427 20:30:34.015434 11044 net.cpp:122] Setting up conv4
I0427 20:30:34.015455 11044 net.cpp:129] Top shape: 256 384 13 13 (16613376)
I0427 20:30:34.015460 11044 net.cpp:137] Memory required for data: 1939044352
I0427 20:30:34.015470 11044 layer_factory.hpp:77] Creating layer relu4
I0427 20:30:34.015480 11044 net.cpp:84] Creating Layer relu4
I0427 20:30:34.015483 11044 net.cpp:406] relu4 <- conv4
I0427 20:30:34.015492 11044 net.cpp:367] relu4 -> conv4 (in-place)
I0427 20:30:34.015882 11044 net.cpp:122] Setting up relu4
I0427 20:30:34.015893 11044 net.cpp:129] Top shape: 256 384 13 13 (16613376)
I0427 20:30:34.015897 11044 net.cpp:137] Memory required for data: 2005497856
I0427 20:30:34.015900 11044 layer_factory.hpp:77] Creating layer conv5
I0427 20:30:34.015911 11044 net.cpp:84] Creating Layer conv5
I0427 20:30:34.015915 11044 net.cpp:406] conv5 <- conv4
I0427 20:30:34.015921 11044 net.cpp:380] conv5 -> conv5
I0427 20:30:34.031664 11044 net.cpp:122] Setting up conv5
I0427 20:30:34.031684 11044 net.cpp:129] Top shape: 256 256 13 13 (11075584)
I0427 20:30:34.031688 11044 net.cpp:137] Memory required for data: 2049800192
I0427 20:30:34.031703 11044 layer_factory.hpp:77] Creating layer relu5
I0427 20:30:34.031733 11044 net.cpp:84] Creating Layer relu5
I0427 20:30:34.031738 11044 net.cpp:406] relu5 <- conv5
I0427 20:30:34.031746 11044 net.cpp:367] relu5 -> conv5 (in-place)
I0427 20:30:34.032253 11044 net.cpp:122] Setting up relu5
I0427 20:30:34.032263 11044 net.cpp:129] Top shape: 256 256 13 13 (11075584)
I0427 20:30:34.032266 11044 net.cpp:137] Memory required for data: 2094102528
I0427 20:30:34.032269 11044 layer_factory.hpp:77] Creating layer pool5
I0427 20:30:34.032280 11044 net.cpp:84] Creating Layer pool5
I0427 20:30:34.032284 11044 net.cpp:406] pool5 <- conv5
I0427 20:30:34.032290 11044 net.cpp:380] pool5 -> pool5
I0427 20:30:34.032331 11044 net.cpp:122] Setting up pool5
I0427 20:30:34.032337 11044 net.cpp:129] Top shape: 256 256 6 6 (2359296)
I0427 20:30:34.032341 11044 net.cpp:137] Memory required for data: 2103539712
I0427 20:30:34.032344 11044 layer_factory.hpp:77] Creating layer fc6
I0427 20:30:34.032352 11044 net.cpp:84] Creating Layer fc6
I0427 20:30:34.032357 11044 net.cpp:406] fc6 <- pool5
I0427 20:30:34.032361 11044 net.cpp:380] fc6 -> fc6
I0427 20:30:34.401216 11044 net.cpp:122] Setting up fc6
I0427 20:30:34.401239 11044 net.cpp:129] Top shape: 256 4096 (1048576)
I0427 20:30:34.401243 11044 net.cpp:137] Memory required for data: 2107734016
I0427 20:30:34.401253 11044 layer_factory.hpp:77] Creating layer relu6
I0427 20:30:34.401263 11044 net.cpp:84] Creating Layer relu6
I0427 20:30:34.401268 11044 net.cpp:406] relu6 <- fc6
I0427 20:30:34.401276 11044 net.cpp:367] relu6 -> fc6 (in-place)
I0427 20:30:34.423374 11044 net.cpp:122] Setting up relu6
I0427 20:30:34.423394 11044 net.cpp:129] Top shape: 256 4096 (1048576)
I0427 20:30:34.423398 11044 net.cpp:137] Memory required for data: 2111928320
I0427 20:30:34.423404 11044 layer_factory.hpp:77] Creating layer drop6
I0427 20:30:34.423414 11044 net.cpp:84] Creating Layer drop6
I0427 20:30:34.423419 11044 net.cpp:406] drop6 <- fc6
I0427 20:30:34.423430 11044 net.cpp:367] drop6 -> fc6 (in-place)
I0427 20:30:34.423470 11044 net.cpp:122] Setting up drop6
I0427 20:30:34.423477 11044 net.cpp:129] Top shape: 256 4096 (1048576)
I0427 20:30:34.423480 11044 net.cpp:137] Memory required for data: 2116122624
I0427 20:30:34.423483 11044 layer_factory.hpp:77] Creating layer fc7
I0427 20:30:34.423492 11044 net.cpp:84] Creating Layer fc7
I0427 20:30:34.423496 11044 net.cpp:406] fc7 <- fc6
I0427 20:30:34.423501 11044 net.cpp:380] fc7 -> fc7
I0427 20:30:34.602015 11044 net.cpp:122] Setting up fc7
I0427 20:30:34.602035 11044 net.cpp:129] Top shape: 256 4096 (1048576)
I0427 20:30:34.602039 11044 net.cpp:137] Memory required for data: 2120316928
I0427 20:30:34.602048 11044 layer_factory.hpp:77] Creating layer relu7
I0427 20:30:34.602057 11044 net.cpp:84] Creating Layer relu7
I0427 20:30:34.602062 11044 net.cpp:406] relu7 <- fc7
I0427 20:30:34.602070 11044 net.cpp:367] relu7 -> fc7 (in-place)
I0427 20:30:34.602495 11044 net.cpp:122] Setting up relu7
I0427 20:30:34.602504 11044 net.cpp:129] Top shape: 256 4096 (1048576)
I0427 20:30:34.602507 11044 net.cpp:137] Memory required for data: 2124511232
I0427 20:30:34.602510 11044 layer_factory.hpp:77] Creating layer drop7
I0427 20:30:34.602517 11044 net.cpp:84] Creating Layer drop7
I0427 20:30:34.602520 11044 net.cpp:406] drop7 <- fc7
I0427 20:30:34.602527 11044 net.cpp:367] drop7 -> fc7 (in-place)
I0427 20:30:34.602550 11044 net.cpp:122] Setting up drop7
I0427 20:30:34.602555 11044 net.cpp:129] Top shape: 256 4096 (1048576)
I0427 20:30:34.602558 11044 net.cpp:137] Memory required for data: 2128705536
I0427 20:30:34.602562 11044 layer_factory.hpp:77] Creating layer fc8
I0427 20:30:34.602571 11044 net.cpp:84] Creating Layer fc8
I0427 20:30:34.602574 11044 net.cpp:406] fc8 <- fc7
I0427 20:30:34.602581 11044 net.cpp:380] fc8 -> fc8
I0427 20:30:34.642146 11044 net.cpp:122] Setting up fc8
I0427 20:30:34.642174 11044 net.cpp:129] Top shape: 256 196 (50176)
I0427 20:30:34.642180 11044 net.cpp:137] Memory required for data: 2128906240
I0427 20:30:34.642194 11044 layer_factory.hpp:77] Creating layer fc8_fc8_0_split
I0427 20:30:34.642208 11044 net.cpp:84] Creating Layer fc8_fc8_0_split
I0427 20:30:34.642243 11044 net.cpp:406] fc8_fc8_0_split <- fc8
I0427 20:30:34.642254 11044 net.cpp:380] fc8_fc8_0_split -> fc8_fc8_0_split_0
I0427 20:30:34.642269 11044 net.cpp:380] fc8_fc8_0_split -> fc8_fc8_0_split_1
I0427 20:30:34.642323 11044 net.cpp:122] Setting up fc8_fc8_0_split
I0427 20:30:34.642331 11044 net.cpp:129] Top shape: 256 196 (50176)
I0427 20:30:34.642338 11044 net.cpp:129] Top shape: 256 196 (50176)
I0427 20:30:34.642343 11044 net.cpp:137] Memory required for data: 2129307648
I0427 20:30:34.642347 11044 layer_factory.hpp:77] Creating layer accuracy
I0427 20:30:34.642357 11044 net.cpp:84] Creating Layer accuracy
I0427 20:30:34.642364 11044 net.cpp:406] accuracy <- fc8_fc8_0_split_0
I0427 20:30:34.642370 11044 net.cpp:406] accuracy <- label_val-data_1_split_0
I0427 20:30:34.642377 11044 net.cpp:380] accuracy -> accuracy
…
