…
I0409 23:04:50.270038  6396 net.cpp:294] The NetState phase (0) differed from the phase (1) specified by a rule in layer accuracy
I0409 23:04:50.270239  6396 net.cpp:51] Initializing net from parameters:
state {
phase: TRAIN
level: 0
stage: ""
}
layer {
name: "train-data"
type: "Data"
top: "data"
top: "label"
include {
phase: TRAIN
}
transform_param {
mirror: true
crop_size: 227
mean_file: "/mnt/bigdisk/DIGITS-MAN-2/digits/jobs/20210407-214532-d396/mean.binaryproto"
}
data_param {
source: "/mnt/bigdisk/DIGITS-MAN-2/digits/jobs/20210407-214532-d396/train_db"
batch_size: 128
backend: LMDB
}
}
layer {
name: "conv1"
type: "Convolution"
bottom: "data"
top: "conv1"
param {
lr_mult: 1
decay_mult: 1
}
param {
lr_mult: 2
decay_mult: 0
}
convolution_param {
num_output: 96
kernel_size: 11
stride: 4
weight_filler {
type: "gaussian"
std: 0.01
}
bias_filler {
type: "constant"
value: 0
}
}
}
layer {
name: "relu1"
type: "ReLU"
bottom: "conv1"
top: "conv1"
}
layer {
name: "norm1"
type: "LRN"
bottom: "conv1"
top: "norm1"
lrn_param {
local_size: 5
alpha: 0.0001
beta: 0.75
}
}
layer {
name: "pool1"
type: "Pooling"
bottom: "norm1"
top: "pool1"
pooling_param {
pool: MAX
kernel_size: 3
stride: 2
}
}
layer {
name: "conv2"
type: "Convolution"
bottom: "pool1"
top: "conv2"
param {
lr_mult: 1
decay_mult: 1
}
param {
lr_mult: 2
decay_mult: 0
}
convolution_param {
num_output: 256
pad: 2
kernel_size: 5
group: 2
weight_filler {
type: "gaussian"
std: 0.01
}
bias_filler {
type: "constant"
value: 0.1
}
}
}
layer {
name: "relu2"
type: "ReLU"
bottom: "conv2"
top: "conv2"
}
layer {
name: "norm2"
type: "LRN"
bottom: "conv2"
top: "norm2"
lrn_param {
local_size: 5
alpha: 0.0001
beta: 0.75
}
}
layer {
name: "pool2"
type: "Pooling"
bottom: "norm2"
top: "pool2"
pooling_param {
pool: MAX
kernel_size: 3
stride: 2
}
}
layer {
name: "conv3"
type: "Convolution"
bottom: "pool2"
top: "conv3"
param {
lr_mult: 1
decay_mult: 1
}
param {
lr_mult: 2
decay_mult: 0
}
convolution_param {
num_output: 384
pad: 1
kernel_size: 3
weight_filler {
type: "gaussian"
std: 0.01
}
bias_filler {
type: "constant"
value: 0
}
}
}
layer {
name: "relu3"
type: "ReLU"
bottom: "conv3"
top: "conv3"
}
layer {
name: "conv4"
type: "Convolution"
bottom: "conv3"
top: "conv4"
param {
lr_mult: 1
decay_mult: 1
}
param {
lr_mult: 2
decay_mult: 0
}
convolution_param {
num_output: 384
pad: 1
kernel_size: 3
group: 2
weight_filler {
type: "gaussian"
std: 0.01
}
bias_filler {
type: "constant"
value: 0.1
}
}
}
layer {
name: "relu4"
type: "ReLU"
bottom: "conv4"
top: "conv4"
}
layer {
name: "conv5"
type: "Convolution"
bottom: "conv4"
top: "conv5"
param {
lr_mult: 1
decay_mult: 1
}
param {
lr_mult: 2
decay_mult: 0
}
convolution_param {
num_output: 256
pad: 1
kernel_size: 3
group: 2
weight_filler {
type: "gaussian"
std: 0.01
}
bias_filler {
type: "constant"
value: 0.1
}
}
}
layer {
name: "relu5"
type: "ReLU"
bottom: "conv5"
top: "conv5"
}
layer {
name: "pool5"
type: "Pooling"
bottom: "conv5"
top: "pool5"
pooling_param {
pool: MAX
kernel_size: 3
stride: 2
}
}
layer {
name: "fc6"
type: "InnerProduct"
bottom: "pool5"
top: "fc6"
param {
lr_mult: 1
decay_mult: 1
}
param {
lr_mult: 2
decay_mult: 0
}
inner_product_param {
num_output: 512
weight_filler {
type: "gaussian"
std: 0.005
}
bias_filler {
type: "constant"
value: 0.1
}
}
}
layer {
name: "relu6"
type: "ReLU"
bottom: "fc6"
top: "fc6"
}
layer {
name: "drop6"
type: "Dropout"
bottom: "fc6"
top: "fc6"
dropout_param {
dropout_ratio: 0.5
}
}
layer {
name: "fc7"
type: "InnerProduct"
bottom: "fc6"
top: "fc7"
param {
lr_mult: 1
decay_mult: 1
}
param {
lr_mult: 2
decay_mult: 0
}
inner_product_param {
num_output: 512
weight_filler {
type: "gaussian"
std: 0.005
}
bias_filler {
type: "constant"
value: 0.1
}
}
}
layer {
name: "relu7"
type: "ReLU"
bottom: "fc7"
top: "fc7"
}
layer {
name: "drop7"
type: "Dropout"
bottom: "fc7"
top: "fc7"
dropout_param {
dropout_ratio: 0.5
}
}
layer {
name: "fc8"
type: "InnerProduct"
bottom: "fc7"
top: "fc8"
param {
lr_mult: 1
decay_mult: 1
}
param {
lr_mult: 2
decay_mult: 0
}
inner_product_param {
num_output: 196
weight_filler {
type: "gaussian"
std: 0.01
}
bias_filler {
type: "constant"
value: 0
}
}
}
layer {
name: "loss"
type: "SoftmaxWithLoss"
bottom: "fc8"
bottom: "label"
top: "loss"
}
I0409 23:04:50.270352  6396 layer_factory.hpp:77] Creating layer train-data
I0409 23:04:50.516469  6396 db_lmdb.cpp:35] Opened lmdb /mnt/bigdisk/DIGITS-MAN-2/digits/jobs/20210407-214532-d396/train_db
I0409 23:04:50.517014  6396 net.cpp:84] Creating Layer train-data
I0409 23:04:50.517041  6396 net.cpp:380] train-data -> data
I0409 23:04:50.517081  6396 net.cpp:380] train-data -> label
I0409 23:04:50.517105  6396 data_transformer.cpp:25] Loading mean file from: /mnt/bigdisk/DIGITS-MAN-2/digits/jobs/20210407-214532-d396/mean.binaryproto
I0409 23:04:50.590185  6396 data_layer.cpp:45] output data size: 128,3,227,227
I0409 23:04:50.759325  6396 net.cpp:122] Setting up train-data
I0409 23:04:50.759351  6396 net.cpp:129] Top shape: 128 3 227 227 (19787136)
I0409 23:04:50.759356  6396 net.cpp:129] Top shape: 128 (128)
I0409 23:04:50.759359  6396 net.cpp:137] Memory required for data: 79149056
I0409 23:04:50.759371  6396 layer_factory.hpp:77] Creating layer conv1
I0409 23:04:50.759392  6396 net.cpp:84] Creating Layer conv1
I0409 23:04:50.759399  6396 net.cpp:406] conv1 <- data
I0409 23:04:50.759413  6396 net.cpp:380] conv1 -> conv1
I0409 23:04:51.343858  6396 net.cpp:122] Setting up conv1
I0409 23:04:51.343883  6396 net.cpp:129] Top shape: 128 96 55 55 (37171200)
I0409 23:04:51.343888  6396 net.cpp:137] Memory required for data: 227833856
I0409 23:04:51.343909  6396 layer_factory.hpp:77] Creating layer relu1
I0409 23:04:51.343919  6396 net.cpp:84] Creating Layer relu1
I0409 23:04:51.343924  6396 net.cpp:406] relu1 <- conv1
I0409 23:04:51.343931  6396 net.cpp:367] relu1 -> conv1 (in-place)
I0409 23:04:51.344242  6396 net.cpp:122] Setting up relu1
I0409 23:04:51.344252  6396 net.cpp:129] Top shape: 128 96 55 55 (37171200)
I0409 23:04:51.344256  6396 net.cpp:137] Memory required for data: 376518656
I0409 23:04:51.344260  6396 layer_factory.hpp:77] Creating layer norm1
I0409 23:04:51.344269  6396 net.cpp:84] Creating Layer norm1
I0409 23:04:51.344274  6396 net.cpp:406] norm1 <- conv1
I0409 23:04:51.344305  6396 net.cpp:380] norm1 -> norm1
I0409 23:04:51.344785  6396 net.cpp:122] Setting up norm1
I0409 23:04:51.344797  6396 net.cpp:129] Top shape: 128 96 55 55 (37171200)
I0409 23:04:51.344802  6396 net.cpp:137] Memory required for data: 525203456
I0409 23:04:51.344808  6396 layer_factory.hpp:77] Creating layer pool1
I0409 23:04:51.344816  6396 net.cpp:84] Creating Layer pool1
I0409 23:04:51.344821  6396 net.cpp:406] pool1 <- norm1
I0409 23:04:51.344828  6396 net.cpp:380] pool1 -> pool1
I0409 23:04:51.344867  6396 net.cpp:122] Setting up pool1
I0409 23:04:51.344875  6396 net.cpp:129] Top shape: 128 96 27 27 (8957952)
I0409 23:04:51.344879  6396 net.cpp:137] Memory required for data: 561035264
I0409 23:04:51.344883  6396 layer_factory.hpp:77] Creating layer conv2
I0409 23:04:51.344894  6396 net.cpp:84] Creating Layer conv2
I0409 23:04:51.344897  6396 net.cpp:406] conv2 <- pool1
I0409 23:04:51.344903  6396 net.cpp:380] conv2 -> conv2
I0409 23:04:51.351981  6396 net.cpp:122] Setting up conv2
I0409 23:04:51.351996  6396 net.cpp:129] Top shape: 128 256 27 27 (23887872)
I0409 23:04:51.352000  6396 net.cpp:137] Memory required for data: 656586752
I0409 23:04:51.352010  6396 layer_factory.hpp:77] Creating layer relu2
I0409 23:04:51.352017  6396 net.cpp:84] Creating Layer relu2
I0409 23:04:51.352021  6396 net.cpp:406] relu2 <- conv2
I0409 23:04:51.352028  6396 net.cpp:367] relu2 -> conv2 (in-place)
I0409 23:04:51.352473  6396 net.cpp:122] Setting up relu2
I0409 23:04:51.352484  6396 net.cpp:129] Top shape: 128 256 27 27 (23887872)
I0409 23:04:51.352488  6396 net.cpp:137] Memory required for data: 752138240
I0409 23:04:51.352494  6396 layer_factory.hpp:77] Creating layer norm2
I0409 23:04:51.352501  6396 net.cpp:84] Creating Layer norm2
I0409 23:04:51.352506  6396 net.cpp:406] norm2 <- conv2
I0409 23:04:51.352514  6396 net.cpp:380] norm2 -> norm2
I0409 23:04:51.352819  6396 net.cpp:122] Setting up norm2
I0409 23:04:51.352829  6396 net.cpp:129] Top shape: 128 256 27 27 (23887872)
I0409 23:04:51.352833  6396 net.cpp:137] Memory required for data: 847689728
I0409 23:04:51.352838  6396 layer_factory.hpp:77] Creating layer pool2
I0409 23:04:51.352845  6396 net.cpp:84] Creating Layer pool2
I0409 23:04:51.352849  6396 net.cpp:406] pool2 <- norm2
I0409 23:04:51.352854  6396 net.cpp:380] pool2 -> pool2
I0409 23:04:51.352882  6396 net.cpp:122] Setting up pool2
I0409 23:04:51.352888  6396 net.cpp:129] Top shape: 128 256 13 13 (5537792)
I0409 23:04:51.352891  6396 net.cpp:137] Memory required for data: 869840896
I0409 23:04:51.352895  6396 layer_factory.hpp:77] Creating layer conv3
I0409 23:04:51.352903  6396 net.cpp:84] Creating Layer conv3
I0409 23:04:51.352908  6396 net.cpp:406] conv3 <- pool2
I0409 23:04:51.352914  6396 net.cpp:380] conv3 -> conv3
I0409 23:04:51.363785  6396 net.cpp:122] Setting up conv3
I0409 23:04:51.363798  6396 net.cpp:129] Top shape: 128 384 13 13 (8306688)
I0409 23:04:51.363802  6396 net.cpp:137] Memory required for data: 903067648
I0409 23:04:51.363812  6396 layer_factory.hpp:77] Creating layer relu3
I0409 23:04:51.363821  6396 net.cpp:84] Creating Layer relu3
I0409 23:04:51.363826  6396 net.cpp:406] relu3 <- conv3
I0409 23:04:51.363832  6396 net.cpp:367] relu3 -> conv3 (in-place)
I0409 23:04:51.364352  6396 net.cpp:122] Setting up relu3
I0409 23:04:51.364362  6396 net.cpp:129] Top shape: 128 384 13 13 (8306688)
I0409 23:04:51.364365  6396 net.cpp:137] Memory required for data: 936294400
I0409 23:04:51.364369  6396 layer_factory.hpp:77] Creating layer conv4
I0409 23:04:51.364380  6396 net.cpp:84] Creating Layer conv4
I0409 23:04:51.364384  6396 net.cpp:406] conv4 <- conv3
I0409 23:04:51.364392  6396 net.cpp:380] conv4 -> conv4
I0409 23:04:51.375677  6396 net.cpp:122] Setting up conv4
I0409 23:04:51.375695  6396 net.cpp:129] Top shape: 128 384 13 13 (8306688)
I0409 23:04:51.375699  6396 net.cpp:137] Memory required for data: 969521152
I0409 23:04:51.375708  6396 layer_factory.hpp:77] Creating layer relu4
I0409 23:04:51.375716  6396 net.cpp:84] Creating Layer relu4
I0409 23:04:51.375739  6396 net.cpp:406] relu4 <- conv4
I0409 23:04:51.375747  6396 net.cpp:367] relu4 -> conv4 (in-place)
I0409 23:04:51.376114  6396 net.cpp:122] Setting up relu4
I0409 23:04:51.376124  6396 net.cpp:129] Top shape: 128 384 13 13 (8306688)
I0409 23:04:51.376128  6396 net.cpp:137] Memory required for data: 1002747904
I0409 23:04:51.376132  6396 layer_factory.hpp:77] Creating layer conv5
I0409 23:04:51.376143  6396 net.cpp:84] Creating Layer conv5
I0409 23:04:51.376147  6396 net.cpp:406] conv5 <- conv4
I0409 23:04:51.376157  6396 net.cpp:380] conv5 -> conv5
I0409 23:04:51.390148  6396 net.cpp:122] Setting up conv5
I0409 23:04:51.390172  6396 net.cpp:129] Top shape: 128 256 13 13 (5537792)
I0409 23:04:51.390177  6396 net.cpp:137] Memory required for data: 1024899072
I0409 23:04:51.390206  6396 layer_factory.hpp:77] Creating layer relu5
I0409 23:04:51.390223  6396 net.cpp:84] Creating Layer relu5
I0409 23:04:51.390233  6396 net.cpp:406] relu5 <- conv5
I0409 23:04:51.390249  6396 net.cpp:367] relu5 -> conv5 (in-place)
I0409 23:04:51.391422  6396 net.cpp:122] Setting up relu5
I0409 23:04:51.391443  6396 net.cpp:129] Top shape: 128 256 13 13 (5537792)
I0409 23:04:51.391450  6396 net.cpp:137] Memory required for data: 1047050240
I0409 23:04:51.391458  6396 layer_factory.hpp:77] Creating layer pool5
I0409 23:04:51.391475  6396 net.cpp:84] Creating Layer pool5
I0409 23:04:51.391484  6396 net.cpp:406] pool5 <- conv5
I0409 23:04:51.391496  6396 net.cpp:380] pool5 -> pool5
I0409 23:04:51.391587  6396 net.cpp:122] Setting up pool5
I0409 23:04:51.391599  6396 net.cpp:129] Top shape: 128 256 6 6 (1179648)
I0409 23:04:51.391606  6396 net.cpp:137] Memory required for data: 1051768832
I0409 23:04:51.391613  6396 layer_factory.hpp:77] Creating layer fc6
I0409 23:04:51.391633  6396 net.cpp:84] Creating Layer fc6
I0409 23:04:51.391640  6396 net.cpp:406] fc6 <- pool5
I0409 23:04:51.391652  6396 net.cpp:380] fc6 -> fc6
I0409 23:04:51.486677  6396 net.cpp:122] Setting up fc6
I0409 23:04:51.486703  6396 net.cpp:129] Top shape: 128 512 (65536)
I0409 23:04:51.486708  6396 net.cpp:137] Memory required for data: 1052030976
I0409 23:04:51.486721  6396 layer_factory.hpp:77] Creating layer relu6
I0409 23:04:51.486733  6396 net.cpp:84] Creating Layer relu6
I0409 23:04:51.486739  6396 net.cpp:406] relu6 <- fc6
I0409 23:04:51.486748  6396 net.cpp:367] relu6 -> fc6 (in-place)
I0409 23:04:51.487648  6396 net.cpp:122] Setting up relu6
I0409 23:04:51.487660  6396 net.cpp:129] Top shape: 128 512 (65536)
I0409 23:04:51.487666  6396 net.cpp:137] Memory required for data: 1052293120
I0409 23:04:51.487671  6396 layer_factory.hpp:77] Creating layer drop6
I0409 23:04:51.487681  6396 net.cpp:84] Creating Layer drop6
I0409 23:04:51.487686  6396 net.cpp:406] drop6 <- fc6
I0409 23:04:51.487696  6396 net.cpp:367] drop6 -> fc6 (in-place)
I0409 23:04:51.487736  6396 net.cpp:122] Setting up drop6
I0409 23:04:51.487743  6396 net.cpp:129] Top shape: 128 512 (65536)
I0409 23:04:51.487748  6396 net.cpp:137] Memory required for data: 1052555264
I0409 23:04:51.487753  6396 layer_factory.hpp:77] Creating layer fc7
I0409 23:04:51.487766  6396 net.cpp:84] Creating Layer fc7
I0409 23:04:51.487771  6396 net.cpp:406] fc7 <- fc6
I0409 23:04:51.487778  6396 net.cpp:380] fc7 -> fc7
I0409 23:04:51.491689  6396 net.cpp:122] Setting up fc7
I0409 23:04:51.491699  6396 net.cpp:129] Top shape: 128 512 (65536)
I0409 23:04:51.491704  6396 net.cpp:137] Memory required for data: 1052817408
I0409 23:04:51.491714  6396 layer_factory.hpp:77] Creating layer relu7
I0409 23:04:51.491721  6396 net.cpp:84] Creating Layer relu7
I0409 23:04:51.491725  6396 net.cpp:406] relu7 <- fc7
I0409 23:04:51.491732  6396 net.cpp:367] relu7 -> fc7 (in-place)
I0409 23:04:51.493413  6396 net.cpp:122] Setting up relu7
I0409 23:04:51.493425  6396 net.cpp:129] Top shape: 128 512 (65536)
I0409 23:04:51.493430  6396 net.cpp:137] Memory required for data: 1053079552
I0409 23:04:51.493435  6396 layer_factory.hpp:77] Creating layer drop7
I0409 23:04:51.493443  6396 net.cpp:84] Creating Layer drop7
I0409 23:04:51.493448  6396 net.cpp:406] drop7 <- fc7
I0409 23:04:51.493481  6396 net.cpp:367] drop7 -> fc7 (in-place)
I0409 23:04:51.493516  6396 net.cpp:122] Setting up drop7
I0409 23:04:51.493523  6396 net.cpp:129] Top shape: 128 512 (65536)
I0409 23:04:51.493527  6396 net.cpp:137] Memory required for data: 1053341696
I0409 23:04:51.493532  6396 layer_factory.hpp:77] Creating layer fc8
I0409 23:04:51.493542  6396 net.cpp:84] Creating Layer fc8
I0409 23:04:51.493547  6396 net.cpp:406] fc8 <- fc7
I0409 23:04:51.493556  6396 net.cpp:380] fc8 -> fc8
I0409 23:04:51.495100  6396 net.cpp:122] Setting up fc8
I0409 23:04:51.495108  6396 net.cpp:129] Top shape: 128 196 (25088)
I0409 23:04:51.495113  6396 net.cpp:137] Memory required for data: 1053442048
I0409 23:04:51.495121  6396 layer_factory.hpp:77] Creating layer loss
I0409 23:04:51.495129  6396 net.cpp:84] Creating Layer loss
I0409 23:04:51.495134  6396 net.cpp:406] loss <- fc8
I0409 23:04:51.495141  6396 net.cpp:406] loss <- label
I0409 23:04:51.495148  6396 net.cpp:380] loss -> loss
I0409 23:04:51.495159  6396 layer_factory.hpp:77] Creating layer loss
…
I0409 23:04:51.526487  6396 net.cpp:294] The NetState phase (1) differed from the phase (0) specified by a rule in layer train-data
I0409 23:04:51.526746  6396 net.cpp:51] Initializing net from parameters:
state {
phase: TEST
}
layer {
name: "val-data"
type: "Data"
top: "data"
top: "label"
include {
phase: TEST
}
transform_param {
crop_size: 227
mean_file: "/mnt/bigdisk/DIGITS-MAN-2/digits/jobs/20210407-214532-d396/mean.binaryproto"
}
data_param {
source: "/mnt/bigdisk/DIGITS-MAN-2/digits/jobs/20210407-214532-d396/val_db"
batch_size: 32
backend: LMDB
}
}
layer {
name: "conv1"
type: "Convolution"
bottom: "data"
top: "conv1"
param {
lr_mult: 1
decay_mult: 1
}
param {
lr_mult: 2
decay_mult: 0
}
convolution_param {
num_output: 96
kernel_size: 11
stride: 4
weight_filler {
type: "gaussian"
std: 0.01
}
bias_filler {
type: "constant"
value: 0
}
}
}
layer {
name: "relu1"
type: "ReLU"
bottom: "conv1"
top: "conv1"
}
layer {
name: "norm1"
type: "LRN"
bottom: "conv1"
top: "norm1"
lrn_param {
local_size: 5
alpha: 0.0001
beta: 0.75
}
}
layer {
name: "pool1"
type: "Pooling"
bottom: "norm1"
top: "pool1"
pooling_param {
pool: MAX
kernel_size: 3
stride: 2
}
}
layer {
name: "conv2"
type: "Convolution"
bottom: "pool1"
top: "conv2"
param {
lr_mult: 1
decay_mult: 1
}
param {
lr_mult: 2
decay_mult: 0
}
convolution_param {
num_output: 256
pad: 2
kernel_size: 5
group: 2
weight_filler {
type: "gaussian"
std: 0.01
}
bias_filler {
type: "constant"
value: 0.1
}
}
}
layer {
name: "relu2"
type: "ReLU"
bottom: "conv2"
top: "conv2"
}
layer {
name: "norm2"
type: "LRN"
bottom: "conv2"
top: "norm2"
lrn_param {
local_size: 5
alpha: 0.0001
beta: 0.75
}
}
layer {
name: "pool2"
type: "Pooling"
bottom: "norm2"
top: "pool2"
pooling_param {
pool: MAX
kernel_size: 3
stride: 2
}
}
layer {
name: "conv3"
type: "Convolution"
bottom: "pool2"
top: "conv3"
param {
lr_mult: 1
decay_mult: 1
}
param {
lr_mult: 2
decay_mult: 0
}
convolution_param {
num_output: 384
pad: 1
kernel_size: 3
weight_filler {
type: "gaussian"
std: 0.01
}
bias_filler {
type: "constant"
value: 0
}
}
}
layer {
name: "relu3"
type: "ReLU"
bottom: "conv3"
top: "conv3"
}
layer {
name: "conv4"
type: "Convolution"
bottom: "conv3"
top: "conv4"
param {
lr_mult: 1
decay_mult: 1
}
param {
lr_mult: 2
decay_mult: 0
}
convolution_param {
num_output: 384
pad: 1
kernel_size: 3
group: 2
weight_filler {
type: "gaussian"
std: 0.01
}
bias_filler {
type: "constant"
value: 0.1
}
}
}
layer {
name: "relu4"
type: "ReLU"
bottom: "conv4"
top: "conv4"
}
layer {
name: "conv5"
type: "Convolution"
bottom: "conv4"
top: "conv5"
param {
lr_mult: 1
decay_mult: 1
}
param {
lr_mult: 2
decay_mult: 0
}
convolution_param {
num_output: 256
pad: 1
kernel_size: 3
group: 2
weight_filler {
type: "gaussian"
std: 0.01
}
bias_filler {
type: "constant"
value: 0.1
}
}
}
layer {
name: "relu5"
type: "ReLU"
bottom: "conv5"
top: "conv5"
}
layer {
name: "pool5"
type: "Pooling"
bottom: "conv5"
top: "pool5"
pooling_param {
pool: MAX
kernel_size: 3
stride: 2
}
}
layer {
name: "fc6"
type: "InnerProduct"
bottom: "pool5"
top: "fc6"
param {
lr_mult: 1
decay_mult: 1
}
param {
lr_mult: 2
decay_mult: 0
}
inner_product_param {
num_output: 512
weight_filler {
type: "gaussian"
std: 0.005
}
bias_filler {
type: "constant"
value: 0.1
}
}
}
layer {
name: "relu6"
type: "ReLU"
bottom: "fc6"
top: "fc6"
}
layer {
name: "drop6"
type: "Dropout"
bottom: "fc6"
top: "fc6"
dropout_param {
dropout_ratio: 0.5
}
}
layer {
name: "fc7"
type: "InnerProduct"
bottom: "fc6"
top: "fc7"
param {
lr_mult: 1
decay_mult: 1
}
param {
lr_mult: 2
decay_mult: 0
}
inner_product_param {
num_output: 512
weight_filler {
type: "gaussian"
std: 0.005
}
bias_filler {
type: "constant"
value: 0.1
}
}
}
layer {
name: "relu7"
type: "ReLU"
bottom: "fc7"
top: "fc7"
}
layer {
name: "drop7"
type: "Dropout"
bottom: "fc7"
top: "fc7"
dropout_param {
dropout_ratio: 0.5
}
}
layer {
name: "fc8"
type: "InnerProduct"
bottom: "fc7"
top: "fc8"
param {
lr_mult: 1
decay_mult: 1
}
param {
lr_mult: 2
decay_mult: 0
}
inner_product_param {
num_output: 196
weight_filler {
type: "gaussian"
std: 0.01
}
bias_filler {
type: "constant"
value: 0
}
}
}
layer {
name: "accuracy"
type: "Accuracy"
bottom: "fc8"
bottom: "label"
top: "accuracy"
include {
phase: TEST
}
}
layer {
name: "loss"
type: "SoftmaxWithLoss"
bottom: "fc8"
bottom: "label"
top: "loss"
}
I0409 23:04:51.526924  6396 layer_factory.hpp:77] Creating layer val-data
I0409 23:04:51.908569  6396 db_lmdb.cpp:35] Opened lmdb /mnt/bigdisk/DIGITS-MAN-2/digits/jobs/20210407-214532-d396/val_db
I0409 23:04:51.909112  6396 net.cpp:84] Creating Layer val-data
I0409 23:04:51.909137  6396 net.cpp:380] val-data -> data
I0409 23:04:51.909159  6396 net.cpp:380] val-data -> label
I0409 23:04:51.909174  6396 data_transformer.cpp:25] Loading mean file from: /mnt/bigdisk/DIGITS-MAN-2/digits/jobs/20210407-214532-d396/mean.binaryproto
I0409 23:04:51.960507  6396 data_layer.cpp:45] output data size: 32,3,227,227
I0409 23:04:52.004259  6396 net.cpp:122] Setting up val-data
I0409 23:04:52.004284  6396 net.cpp:129] Top shape: 32 3 227 227 (4946784)
I0409 23:04:52.004292  6396 net.cpp:129] Top shape: 32 (32)
I0409 23:04:52.004295  6396 net.cpp:137] Memory required for data: 19787264
I0409 23:04:52.004303  6396 layer_factory.hpp:77] Creating layer label_val-data_1_split
I0409 23:04:52.004318  6396 net.cpp:84] Creating Layer label_val-data_1_split
I0409 23:04:52.004324  6396 net.cpp:406] label_val-data_1_split <- label
I0409 23:04:52.004333  6396 net.cpp:380] label_val-data_1_split -> label_val-data_1_split_0
I0409 23:04:52.004346  6396 net.cpp:380] label_val-data_1_split -> label_val-data_1_split_1
I0409 23:04:52.004489  6396 net.cpp:122] Setting up label_val-data_1_split
I0409 23:04:52.004498  6396 net.cpp:129] Top shape: 32 (32)
I0409 23:04:52.004503  6396 net.cpp:129] Top shape: 32 (32)
I0409 23:04:52.004508  6396 net.cpp:137] Memory required for data: 19787520
I0409 23:04:52.004513  6396 layer_factory.hpp:77] Creating layer conv1
I0409 23:04:52.004528  6396 net.cpp:84] Creating Layer conv1
I0409 23:04:52.004532  6396 net.cpp:406] conv1 <- data
I0409 23:04:52.004541  6396 net.cpp:380] conv1 -> conv1
I0409 23:04:52.007539  6396 net.cpp:122] Setting up conv1
I0409 23:04:52.007555  6396 net.cpp:129] Top shape: 32 96 55 55 (9292800)
I0409 23:04:52.007560  6396 net.cpp:137] Memory required for data: 56958720
I0409 23:04:52.007573  6396 layer_factory.hpp:77] Creating layer relu1
I0409 23:04:52.007582  6396 net.cpp:84] Creating Layer relu1
I0409 23:04:52.007587  6396 net.cpp:406] relu1 <- conv1
I0409 23:04:52.007594  6396 net.cpp:367] relu1 -> conv1 (in-place)
I0409 23:04:52.008026  6396 net.cpp:122] Setting up relu1
I0409 23:04:52.008038  6396 net.cpp:129] Top shape: 32 96 55 55 (9292800)
I0409 23:04:52.008042  6396 net.cpp:137] Memory required for data: 94129920
I0409 23:04:52.008047  6396 layer_factory.hpp:77] Creating layer norm1
I0409 23:04:52.008057  6396 net.cpp:84] Creating Layer norm1
I0409 23:04:52.008062  6396 net.cpp:406] norm1 <- conv1
I0409 23:04:52.008069  6396 net.cpp:380] norm1 -> norm1
I0409 23:04:52.008869  6396 net.cpp:122] Setting up norm1
I0409 23:04:52.008883  6396 net.cpp:129] Top shape: 32 96 55 55 (9292800)
I0409 23:04:52.008888  6396 net.cpp:137] Memory required for data: 131301120
I0409 23:04:52.008893  6396 layer_factory.hpp:77] Creating layer pool1
I0409 23:04:52.008903  6396 net.cpp:84] Creating Layer pool1
I0409 23:04:52.008908  6396 net.cpp:406] pool1 <- norm1
I0409 23:04:52.008914  6396 net.cpp:380] pool1 -> pool1
I0409 23:04:52.008957  6396 net.cpp:122] Setting up pool1
I0409 23:04:52.008965  6396 net.cpp:129] Top shape: 32 96 27 27 (2239488)
I0409 23:04:52.008968  6396 net.cpp:137] Memory required for data: 140259072
I0409 23:04:52.008973  6396 layer_factory.hpp:77] Creating layer conv2
I0409 23:04:52.008985  6396 net.cpp:84] Creating Layer conv2
I0409 23:04:52.008988  6396 net.cpp:406] conv2 <- pool1
I0409 23:04:52.009021  6396 net.cpp:380] conv2 -> conv2
I0409 23:04:52.019079  6396 net.cpp:122] Setting up conv2
I0409 23:04:52.019102  6396 net.cpp:129] Top shape: 32 256 27 27 (5971968)
I0409 23:04:52.019107  6396 net.cpp:137] Memory required for data: 164146944
I0409 23:04:52.019121  6396 layer_factory.hpp:77] Creating layer relu2
I0409 23:04:52.019132  6396 net.cpp:84] Creating Layer relu2
I0409 23:04:52.019137  6396 net.cpp:406] relu2 <- conv2
I0409 23:04:52.019145  6396 net.cpp:367] relu2 -> conv2 (in-place)
I0409 23:04:52.019842  6396 net.cpp:122] Setting up relu2
I0409 23:04:52.019855  6396 net.cpp:129] Top shape: 32 256 27 27 (5971968)
I0409 23:04:52.019860  6396 net.cpp:137] Memory required for data: 188034816
I0409 23:04:52.019865  6396 layer_factory.hpp:77] Creating layer norm2
I0409 23:04:52.019878  6396 net.cpp:84] Creating Layer norm2
I0409 23:04:52.019883  6396 net.cpp:406] norm2 <- conv2
I0409 23:04:52.019891  6396 net.cpp:380] norm2 -> norm2
I0409 23:04:52.020607  6396 net.cpp:122] Setting up norm2
I0409 23:04:52.020620  6396 net.cpp:129] Top shape: 32 256 27 27 (5971968)
I0409 23:04:52.020625  6396 net.cpp:137] Memory required for data: 211922688
I0409 23:04:52.020630  6396 layer_factory.hpp:77] Creating layer pool2
I0409 23:04:52.020640  6396 net.cpp:84] Creating Layer pool2
I0409 23:04:52.020645  6396 net.cpp:406] pool2 <- norm2
I0409 23:04:52.020653  6396 net.cpp:380] pool2 -> pool2
I0409 23:04:52.020697  6396 net.cpp:122] Setting up pool2
I0409 23:04:52.020704  6396 net.cpp:129] Top shape: 32 256 13 13 (1384448)
I0409 23:04:52.020709  6396 net.cpp:137] Memory required for data: 217460480
I0409 23:04:52.020714  6396 layer_factory.hpp:77] Creating layer conv3
I0409 23:04:52.020727  6396 net.cpp:84] Creating Layer conv3
I0409 23:04:52.020731  6396 net.cpp:406] conv3 <- pool2
I0409 23:04:52.020740  6396 net.cpp:380] conv3 -> conv3
I0409 23:04:52.037477  6396 net.cpp:122] Setting up conv3
I0409 23:04:52.037498  6396 net.cpp:129] Top shape: 32 384 13 13 (2076672)
I0409 23:04:52.037503  6396 net.cpp:137] Memory required for data: 225767168
I0409 23:04:52.037518  6396 layer_factory.hpp:77] Creating layer relu3
I0409 23:04:52.037529  6396 net.cpp:84] Creating Layer relu3
I0409 23:04:52.037535  6396 net.cpp:406] relu3 <- conv3
I0409 23:04:52.037542  6396 net.cpp:367] relu3 -> conv3 (in-place)
I0409 23:04:52.038245  6396 net.cpp:122] Setting up relu3
I0409 23:04:52.038259  6396 net.cpp:129] Top shape: 32 384 13 13 (2076672)
I0409 23:04:52.038262  6396 net.cpp:137] Memory required for data: 234073856
I0409 23:04:52.038267  6396 layer_factory.hpp:77] Creating layer conv4
I0409 23:04:52.038282  6396 net.cpp:84] Creating Layer conv4
I0409 23:04:52.038287  6396 net.cpp:406] conv4 <- conv3
I0409 23:04:52.038297  6396 net.cpp:380] conv4 -> conv4
I0409 23:04:52.051004  6396 net.cpp:122] Setting up conv4
I0409 23:04:52.051024  6396 net.cpp:129] Top shape: 32 384 13 13 (2076672)
I0409 23:04:52.051028  6396 net.cpp:137] Memory required for data: 242380544
I0409 23:04:52.051038  6396 layer_factory.hpp:77] Creating layer relu4
I0409 23:04:52.051048  6396 net.cpp:84] Creating Layer relu4
I0409 23:04:52.051054  6396 net.cpp:406] relu4 <- conv4
I0409 23:04:52.051060  6396 net.cpp:367] relu4 -> conv4 (in-place)
I0409 23:04:52.051496  6396 net.cpp:122] Setting up relu4
I0409 23:04:52.051506  6396 net.cpp:129] Top shape: 32 384 13 13 (2076672)
I0409 23:04:52.051509  6396 net.cpp:137] Memory required for data: 250687232
I0409 23:04:52.051514  6396 layer_factory.hpp:77] Creating layer conv5
I0409 23:04:52.051527  6396 net.cpp:84] Creating Layer conv5
I0409 23:04:52.051530  6396 net.cpp:406] conv5 <- conv4
I0409 23:04:52.051539  6396 net.cpp:380] conv5 -> conv5
I0409 23:04:52.062309  6396 net.cpp:122] Setting up conv5
I0409 23:04:52.062328  6396 net.cpp:129] Top shape: 32 256 13 13 (1384448)
I0409 23:04:52.062332  6396 net.cpp:137] Memory required for data: 256225024
I0409 23:04:52.062350  6396 layer_factory.hpp:77] Creating layer relu5
I0409 23:04:52.062361  6396 net.cpp:84] Creating Layer relu5
I0409 23:04:52.062366  6396 net.cpp:406] relu5 <- conv5
I0409 23:04:52.062392  6396 net.cpp:367] relu5 -> conv5 (in-place)
I0409 23:04:52.063001  6396 net.cpp:122] Setting up relu5
I0409 23:04:52.063014  6396 net.cpp:129] Top shape: 32 256 13 13 (1384448)
I0409 23:04:52.063017  6396 net.cpp:137] Memory required for data: 261762816
I0409 23:04:52.063022  6396 layer_factory.hpp:77] Creating layer pool5
I0409 23:04:52.063033  6396 net.cpp:84] Creating Layer pool5
I0409 23:04:52.063037  6396 net.cpp:406] pool5 <- conv5
I0409 23:04:52.063045  6396 net.cpp:380] pool5 -> pool5
I0409 23:04:52.063089  6396 net.cpp:122] Setting up pool5
I0409 23:04:52.063097  6396 net.cpp:129] Top shape: 32 256 6 6 (294912)
I0409 23:04:52.063099  6396 net.cpp:137] Memory required for data: 262942464
I0409 23:04:52.063103  6396 layer_factory.hpp:77] Creating layer fc6
I0409 23:04:52.063112  6396 net.cpp:84] Creating Layer fc6
I0409 23:04:52.063117  6396 net.cpp:406] fc6 <- pool5
I0409 23:04:52.063123  6396 net.cpp:380] fc6 -> fc6
I0409 23:04:52.115468  6396 net.cpp:122] Setting up fc6
I0409 23:04:52.115487  6396 net.cpp:129] Top shape: 32 512 (16384)
I0409 23:04:52.115491  6396 net.cpp:137] Memory required for data: 263008000
I0409 23:04:52.115502  6396 layer_factory.hpp:77] Creating layer relu6
I0409 23:04:52.115512  6396 net.cpp:84] Creating Layer relu6
I0409 23:04:52.115517  6396 net.cpp:406] relu6 <- fc6
I0409 23:04:52.115526  6396 net.cpp:367] relu6 -> fc6 (in-place)
I0409 23:04:52.116503  6396 net.cpp:122] Setting up relu6
I0409 23:04:52.116513  6396 net.cpp:129] Top shape: 32 512 (16384)
I0409 23:04:52.116518  6396 net.cpp:137] Memory required for data: 263073536
I0409 23:04:52.116521  6396 layer_factory.hpp:77] Creating layer drop6
I0409 23:04:52.116530  6396 net.cpp:84] Creating Layer drop6
I0409 23:04:52.116534  6396 net.cpp:406] drop6 <- fc6
I0409 23:04:52.116544  6396 net.cpp:367] drop6 -> fc6 (in-place)
I0409 23:04:52.116573  6396 net.cpp:122] Setting up drop6
I0409 23:04:52.116580  6396 net.cpp:129] Top shape: 32 512 (16384)
I0409 23:04:52.116585  6396 net.cpp:137] Memory required for data: 263139072
I0409 23:04:52.116588  6396 layer_factory.hpp:77] Creating layer fc7
I0409 23:04:52.116596  6396 net.cpp:84] Creating Layer fc7
I0409 23:04:52.116601  6396 net.cpp:406] fc7 <- fc6
I0409 23:04:52.116611  6396 net.cpp:380] fc7 -> fc7
I0409 23:04:52.119923  6396 net.cpp:122] Setting up fc7
I0409 23:04:52.119935  6396 net.cpp:129] Top shape: 32 512 (16384)
I0409 23:04:52.119938  6396 net.cpp:137] Memory required for data: 263204608
I0409 23:04:52.119946  6396 layer_factory.hpp:77] Creating layer relu7
I0409 23:04:52.119954  6396 net.cpp:84] Creating Layer relu7
I0409 23:04:52.119959  6396 net.cpp:406] relu7 <- fc7
I0409 23:04:52.119966  6396 net.cpp:367] relu7 -> fc7 (in-place)
I0409 23:04:52.120349  6396 net.cpp:122] Setting up relu7
I0409 23:04:52.120358  6396 net.cpp:129] Top shape: 32 512 (16384)
I0409 23:04:52.120363  6396 net.cpp:137] Memory required for data: 263270144
I0409 23:04:52.120368  6396 layer_factory.hpp:77] Creating layer drop7
I0409 23:04:52.120374  6396 net.cpp:84] Creating Layer drop7
I0409 23:04:52.120378  6396 net.cpp:406] drop7 <- fc7
I0409 23:04:52.120386  6396 net.cpp:367] drop7 -> fc7 (in-place)
I0409 23:04:52.120411  6396 net.cpp:122] Setting up drop7
I0409 23:04:52.120417  6396 net.cpp:129] Top shape: 32 512 (16384)
I0409 23:04:52.120422  6396 net.cpp:137] Memory required for data: 263335680
I0409 23:04:52.120427  6396 layer_factory.hpp:77] Creating layer fc8
I0409 23:04:52.120434  6396 net.cpp:84] Creating Layer fc8
I0409 23:04:52.120440  6396 net.cpp:406] fc8 <- fc7
I0409 23:04:52.120447  6396 net.cpp:380] fc8 -> fc8
I0409 23:04:52.121482  6396 net.cpp:122] Setting up fc8
I0409 23:04:52.121490  6396 net.cpp:129] Top shape: 32 196 (6272)
I0409 23:04:52.121495  6396 net.cpp:137] Memory required for data: 263360768
I0409 23:04:52.121503  6396 layer_factory.hpp:77] Creating layer fc8_fc8_0_split
I0409 23:04:52.121511  6396 net.cpp:84] Creating Layer fc8_fc8_0_split
I0409 23:04:52.121516  6396 net.cpp:406] fc8_fc8_0_split <- fc8
I0409 23:04:52.121522  6396 net.cpp:380] fc8_fc8_0_split -> fc8_fc8_0_split_0
I0409 23:04:52.121547  6396 net.cpp:380] fc8_fc8_0_split -> fc8_fc8_0_split_1
I0409 23:04:52.121580  6396 net.cpp:122] Setting up fc8_fc8_0_split
I0409 23:04:52.121585  6396 net.cpp:129] Top shape: 32 196 (6272)
I0409 23:04:52.121592  6396 net.cpp:129] Top shape: 32 196 (6272)
I0409 23:04:52.121595  6396 net.cpp:137] Memory required for data: 263410944
I0409 23:04:52.121600  6396 layer_factory.hpp:77] Creating layer accuracy
I0409 23:04:52.121608  6396 net.cpp:84] Creating Layer accuracy
I0409 23:04:52.121613  6396 net.cpp:406] accuracy <- fc8_fc8_0_split_0
I0409 23:04:52.121618  6396 net.cpp:406] accuracy <- label_val-data_1_split_0
I0409 23:04:52.121624  6396 net.cpp:380] accuracy -> accuracy
…
