…
I0428 12:51:23.595714  9322 net.cpp:294] The NetState phase (0) differed from the phase (1) specified by a rule in layer accuracy
I0428 12:51:23.595860  9322 net.cpp:51] Initializing net from parameters:
state {
phase: TRAIN
level: 0
stage: ""
}
layer {
name: "train-data"
type: "Data"
top: "data"
top: "label"
include {
phase: TRAIN
}
transform_param {
mirror: true
crop_size: 227
mean_file: "/mnt/bigdisk/DIGITS-AMB-2/digits/jobs/20210419-113214-d311/mean.binaryproto"
}
data_param {
source: "/mnt/bigdisk/DIGITS-AMB-2/digits/jobs/20210419-113214-d311/train_db"
batch_size: 128
backend: LMDB
}
}
layer {
name: "conv1"
type: "Convolution"
bottom: "data"
top: "conv1"
param {
lr_mult: 1
decay_mult: 1
}
param {
lr_mult: 2
decay_mult: 0
}
convolution_param {
num_output: 96
kernel_size: 11
stride: 4
weight_filler {
type: "gaussian"
std: 0.01
}
bias_filler {
type: "constant"
value: 0
}
}
}
layer {
name: "relu1"
type: "ReLU"
bottom: "conv1"
top: "conv1"
}
layer {
name: "norm1"
type: "LRN"
bottom: "conv1"
top: "norm1"
lrn_param {
local_size: 5
alpha: 0.0001
beta: 0.75
}
}
layer {
name: "pool1"
type: "Pooling"
bottom: "norm1"
top: "pool1"
pooling_param {
pool: MAX
kernel_size: 3
stride: 2
}
}
layer {
name: "conv2"
type: "Convolution"
bottom: "pool1"
top: "conv2"
param {
lr_mult: 1
decay_mult: 1
}
param {
lr_mult: 2
decay_mult: 0
}
convolution_param {
num_output: 256
pad: 2
kernel_size: 5
group: 2
weight_filler {
type: "gaussian"
std: 0.01
}
bias_filler {
type: "constant"
value: 0.1
}
}
}
layer {
name: "relu2"
type: "ReLU"
bottom: "conv2"
top: "conv2"
}
layer {
name: "norm2"
type: "LRN"
bottom: "conv2"
top: "norm2"
lrn_param {
local_size: 5
alpha: 0.0001
beta: 0.75
}
}
layer {
name: "pool2"
type: "Pooling"
bottom: "norm2"
top: "pool2"
pooling_param {
pool: MAX
kernel_size: 3
stride: 2
}
}
layer {
name: "conv3"
type: "Convolution"
bottom: "pool2"
top: "conv3"
param {
lr_mult: 1
decay_mult: 1
}
param {
lr_mult: 2
decay_mult: 0
}
convolution_param {
num_output: 384
pad: 1
kernel_size: 3
weight_filler {
type: "gaussian"
std: 0.01
}
bias_filler {
type: "constant"
value: 0
}
}
}
layer {
name: "relu3"
type: "ReLU"
bottom: "conv3"
top: "conv3"
}
layer {
name: "conv3.5"
type: "Convolution"
bottom: "conv3"
top: "conv3.5"
param {
lr_mult: 1
decay_mult: 1
}
param {
lr_mult: 2
decay_mult: 0
}
convolution_param {
num_output: 384
pad: 1
kernel_size: 3
weight_filler {
type: "gaussian"
std: 0.01
}
bias_filler {
type: "constant"
value: 0
}
}
}
layer {
name: "relu3.5"
type: "ReLU"
bottom: "conv3.5"
top: "conv3.5"
}
layer {
name: "conv4"
type: "Convolution"
bottom: "conv3.5"
top: "conv4"
param {
lr_mult: 1
decay_mult: 1
}
param {
lr_mult: 2
decay_mult: 0
}
convolution_param {
num_output: 384
pad: 1
kernel_size: 3
group: 2
weight_filler {
type: "gaussian"
std: 0.01
}
bias_filler {
type: "constant"
value: 0.1
}
}
}
layer {
name: "relu4"
type: "ReLU"
bottom: "conv4"
top: "conv4"
}
layer {
name: "conv5"
type: "Convolution"
bottom: "conv4"
top: "conv5"
param {
lr_mult: 1
decay_mult: 1
}
param {
lr_mult: 2
decay_mult: 0
}
convolution_param {
num_output: 256
pad: 1
kernel_size: 3
group: 2
weight_filler {
type: "gaussian"
std: 0.01
}
bias_filler {
type: "constant"
value: 0.1
}
}
}
layer {
name: "relu5"
type: "ReLU"
bottom: "conv5"
top: "conv5"
}
layer {
name: "pool5"
type: "Pooling"
bottom: "conv5"
top: "pool5"
pooling_param {
pool: MAX
kernel_size: 3
stride: 2
}
}
layer {
name: "fc6"
type: "InnerProduct"
bottom: "pool5"
top: "fc6"
param {
lr_mult: 1
decay_mult: 1
}
param {
lr_mult: 2
decay_mult: 0
}
inner_product_param {
num_output: 4096
weight_filler {
type: "gaussian"
std: 0.005
}
bias_filler {
type: "constant"
value: 0.1
}
}
}
layer {
name: "relu6"
type: "ReLU"
bottom: "fc6"
top: "fc6"
}
layer {
name: "drop6"
type: "Dropout"
bottom: "fc6"
top: "fc6"
dropout_param {
dropout_ratio: 0.5
}
}
layer {
name: "fc7"
type: "InnerProduct"
bottom: "fc6"
top: "fc7"
param {
lr_mult: 1
decay_mult: 1
}
param {
lr_mult: 2
decay_mult: 0
}
inner_product_param {
num_output: 4096
weight_filler {
type: "gaussian"
std: 0.005
}
bias_filler {
type: "constant"
value: 0.1
}
}
}
layer {
name: "relu7"
type: "ReLU"
bottom: "fc7"
top: "fc7"
}
layer {
name: "drop7"
type: "Dropout"
bottom: "fc7"
top: "fc7"
dropout_param {
dropout_ratio: 0.5
}
}
layer {
name: "fc8"
type: "InnerProduct"
bottom: "fc7"
top: "fc8"
param {
lr_mult: 1
decay_mult: 1
}
param {
lr_mult: 2
decay_mult: 0
}
inner_product_param {
num_output: 196
weight_filler {
type: "gaussian"
std: 0.01
}
bias_filler {
type: "constant"
value: 0
}
}
}
layer {
name: "loss"
type: "SoftmaxWithLoss"
bottom: "fc8"
bottom: "label"
top: "loss"
}
I0428 12:51:23.595957  9322 layer_factory.hpp:77] Creating layer train-data
I0428 12:51:23.657513  9322 db_lmdb.cpp:35] Opened lmdb /mnt/bigdisk/DIGITS-AMB-2/digits/jobs/20210419-113214-d311/train_db
I0428 12:51:23.684587  9322 net.cpp:84] Creating Layer train-data
I0428 12:51:23.684623  9322 net.cpp:380] train-data -> data
I0428 12:51:23.684661  9322 net.cpp:380] train-data -> label
I0428 12:51:23.684684  9322 data_transformer.cpp:25] Loading mean file from: /mnt/bigdisk/DIGITS-AMB-2/digits/jobs/20210419-113214-d311/mean.binaryproto
I0428 12:51:23.755913  9322 data_layer.cpp:45] output data size: 128,3,227,227
I0428 12:51:23.889533  9322 net.cpp:122] Setting up train-data
I0428 12:51:23.889557  9322 net.cpp:129] Top shape: 128 3 227 227 (19787136)
I0428 12:51:23.889562  9322 net.cpp:129] Top shape: 128 (128)
I0428 12:51:23.889565  9322 net.cpp:137] Memory required for data: 79149056
I0428 12:51:23.889575  9322 layer_factory.hpp:77] Creating layer conv1
I0428 12:51:23.889596  9322 net.cpp:84] Creating Layer conv1
I0428 12:51:23.889601  9322 net.cpp:406] conv1 <- data
I0428 12:51:23.889613  9322 net.cpp:380] conv1 -> conv1
I0428 12:51:24.806118  9322 net.cpp:122] Setting up conv1
I0428 12:51:24.806139  9322 net.cpp:129] Top shape: 128 96 55 55 (37171200)
I0428 12:51:24.806143  9322 net.cpp:137] Memory required for data: 227833856
I0428 12:51:24.806161  9322 layer_factory.hpp:77] Creating layer relu1
I0428 12:51:24.806170  9322 net.cpp:84] Creating Layer relu1
I0428 12:51:24.806174  9322 net.cpp:406] relu1 <- conv1
I0428 12:51:24.806200  9322 net.cpp:367] relu1 -> conv1 (in-place)
I0428 12:51:24.806521  9322 net.cpp:122] Setting up relu1
I0428 12:51:24.806531  9322 net.cpp:129] Top shape: 128 96 55 55 (37171200)
I0428 12:51:24.806533  9322 net.cpp:137] Memory required for data: 376518656
I0428 12:51:24.806537  9322 layer_factory.hpp:77] Creating layer norm1
I0428 12:51:24.806545  9322 net.cpp:84] Creating Layer norm1
I0428 12:51:24.806548  9322 net.cpp:406] norm1 <- conv1
I0428 12:51:24.806553  9322 net.cpp:380] norm1 -> norm1
I0428 12:51:24.807098  9322 net.cpp:122] Setting up norm1
I0428 12:51:24.807109  9322 net.cpp:129] Top shape: 128 96 55 55 (37171200)
I0428 12:51:24.807112  9322 net.cpp:137] Memory required for data: 525203456
I0428 12:51:24.807116  9322 layer_factory.hpp:77] Creating layer pool1
I0428 12:51:24.807122  9322 net.cpp:84] Creating Layer pool1
I0428 12:51:24.807126  9322 net.cpp:406] pool1 <- norm1
I0428 12:51:24.807130  9322 net.cpp:380] pool1 -> pool1
I0428 12:51:24.807166  9322 net.cpp:122] Setting up pool1
I0428 12:51:24.807173  9322 net.cpp:129] Top shape: 128 96 27 27 (8957952)
I0428 12:51:24.807174  9322 net.cpp:137] Memory required for data: 561035264
I0428 12:51:24.807178  9322 layer_factory.hpp:77] Creating layer conv2
I0428 12:51:24.807188  9322 net.cpp:84] Creating Layer conv2
I0428 12:51:24.807190  9322 net.cpp:406] conv2 <- pool1
I0428 12:51:24.807195  9322 net.cpp:380] conv2 -> conv2
I0428 12:51:24.814666  9322 net.cpp:122] Setting up conv2
I0428 12:51:24.814682  9322 net.cpp:129] Top shape: 128 256 27 27 (23887872)
I0428 12:51:24.814685  9322 net.cpp:137] Memory required for data: 656586752
I0428 12:51:24.814702  9322 layer_factory.hpp:77] Creating layer relu2
I0428 12:51:24.814708  9322 net.cpp:84] Creating Layer relu2
I0428 12:51:24.814711  9322 net.cpp:406] relu2 <- conv2
I0428 12:51:24.814716  9322 net.cpp:367] relu2 -> conv2 (in-place)
I0428 12:51:24.815199  9322 net.cpp:122] Setting up relu2
I0428 12:51:24.815209  9322 net.cpp:129] Top shape: 128 256 27 27 (23887872)
I0428 12:51:24.815212  9322 net.cpp:137] Memory required for data: 752138240
I0428 12:51:24.815215  9322 layer_factory.hpp:77] Creating layer norm2
I0428 12:51:24.815222  9322 net.cpp:84] Creating Layer norm2
I0428 12:51:24.815225  9322 net.cpp:406] norm2 <- conv2
I0428 12:51:24.815230  9322 net.cpp:380] norm2 -> norm2
I0428 12:51:24.815551  9322 net.cpp:122] Setting up norm2
I0428 12:51:24.815559  9322 net.cpp:129] Top shape: 128 256 27 27 (23887872)
I0428 12:51:24.815562  9322 net.cpp:137] Memory required for data: 847689728
I0428 12:51:24.815565  9322 layer_factory.hpp:77] Creating layer pool2
I0428 12:51:24.815573  9322 net.cpp:84] Creating Layer pool2
I0428 12:51:24.815577  9322 net.cpp:406] pool2 <- norm2
I0428 12:51:24.815580  9322 net.cpp:380] pool2 -> pool2
I0428 12:51:24.815604  9322 net.cpp:122] Setting up pool2
I0428 12:51:24.815608  9322 net.cpp:129] Top shape: 128 256 13 13 (5537792)
I0428 12:51:24.815611  9322 net.cpp:137] Memory required for data: 869840896
I0428 12:51:24.815614  9322 layer_factory.hpp:77] Creating layer conv3
I0428 12:51:24.815623  9322 net.cpp:84] Creating Layer conv3
I0428 12:51:24.815625  9322 net.cpp:406] conv3 <- pool2
I0428 12:51:24.815629  9322 net.cpp:380] conv3 -> conv3
I0428 12:51:24.826006  9322 net.cpp:122] Setting up conv3
I0428 12:51:24.826020  9322 net.cpp:129] Top shape: 128 384 13 13 (8306688)
I0428 12:51:24.826023  9322 net.cpp:137] Memory required for data: 903067648
I0428 12:51:24.826033  9322 layer_factory.hpp:77] Creating layer relu3
I0428 12:51:24.826040  9322 net.cpp:84] Creating Layer relu3
I0428 12:51:24.826043  9322 net.cpp:406] relu3 <- conv3
I0428 12:51:24.826047  9322 net.cpp:367] relu3 -> conv3 (in-place)
I0428 12:51:24.826562  9322 net.cpp:122] Setting up relu3
I0428 12:51:24.826572  9322 net.cpp:129] Top shape: 128 384 13 13 (8306688)
I0428 12:51:24.826576  9322 net.cpp:137] Memory required for data: 936294400
I0428 12:51:24.826579  9322 layer_factory.hpp:77] Creating layer conv3.5
I0428 12:51:24.826588  9322 net.cpp:84] Creating Layer conv3.5
I0428 12:51:24.826617  9322 net.cpp:406] conv3.5 <- conv3
I0428 12:51:24.826622  9322 net.cpp:380] conv3.5 -> conv3.5
I0428 12:51:24.844482  9322 net.cpp:122] Setting up conv3.5
I0428 12:51:24.844501  9322 net.cpp:129] Top shape: 128 384 13 13 (8306688)
I0428 12:51:24.844503  9322 net.cpp:137] Memory required for data: 969521152
I0428 12:51:24.844512  9322 layer_factory.hpp:77] Creating layer relu3.5
I0428 12:51:24.844521  9322 net.cpp:84] Creating Layer relu3.5
I0428 12:51:24.844523  9322 net.cpp:406] relu3.5 <- conv3.5
I0428 12:51:24.844529  9322 net.cpp:367] relu3.5 -> conv3.5 (in-place)
I0428 12:51:24.845644  9322 net.cpp:122] Setting up relu3.5
I0428 12:51:24.845654  9322 net.cpp:129] Top shape: 128 384 13 13 (8306688)
I0428 12:51:24.845657  9322 net.cpp:137] Memory required for data: 1002747904
I0428 12:51:24.845660  9322 layer_factory.hpp:77] Creating layer conv4
I0428 12:51:24.845670  9322 net.cpp:84] Creating Layer conv4
I0428 12:51:24.845674  9322 net.cpp:406] conv4 <- conv3.5
I0428 12:51:24.845679  9322 net.cpp:380] conv4 -> conv4
I0428 12:51:24.855854  9322 net.cpp:122] Setting up conv4
I0428 12:51:24.855870  9322 net.cpp:129] Top shape: 128 384 13 13 (8306688)
I0428 12:51:24.855873  9322 net.cpp:137] Memory required for data: 1035974656
I0428 12:51:24.855885  9322 layer_factory.hpp:77] Creating layer relu4
I0428 12:51:24.855893  9322 net.cpp:84] Creating Layer relu4
I0428 12:51:24.855896  9322 net.cpp:406] relu4 <- conv4
I0428 12:51:24.855902  9322 net.cpp:367] relu4 -> conv4 (in-place)
I0428 12:51:24.856238  9322 net.cpp:122] Setting up relu4
I0428 12:51:24.856248  9322 net.cpp:129] Top shape: 128 384 13 13 (8306688)
I0428 12:51:24.856251  9322 net.cpp:137] Memory required for data: 1069201408
I0428 12:51:24.856256  9322 layer_factory.hpp:77] Creating layer conv5
I0428 12:51:24.856267  9322 net.cpp:84] Creating Layer conv5
I0428 12:51:24.856271  9322 net.cpp:406] conv5 <- conv4
I0428 12:51:24.856278  9322 net.cpp:380] conv5 -> conv5
I0428 12:51:24.865660  9322 net.cpp:122] Setting up conv5
I0428 12:51:24.865674  9322 net.cpp:129] Top shape: 128 256 13 13 (5537792)
I0428 12:51:24.865679  9322 net.cpp:137] Memory required for data: 1091352576
I0428 12:51:24.865685  9322 layer_factory.hpp:77] Creating layer relu5
I0428 12:51:24.865696  9322 net.cpp:84] Creating Layer relu5
I0428 12:51:24.865700  9322 net.cpp:406] relu5 <- conv5
I0428 12:51:24.865705  9322 net.cpp:367] relu5 -> conv5 (in-place)
I0428 12:51:24.866256  9322 net.cpp:122] Setting up relu5
I0428 12:51:24.866266  9322 net.cpp:129] Top shape: 128 256 13 13 (5537792)
I0428 12:51:24.866268  9322 net.cpp:137] Memory required for data: 1113503744
I0428 12:51:24.866271  9322 layer_factory.hpp:77] Creating layer pool5
I0428 12:51:24.866281  9322 net.cpp:84] Creating Layer pool5
I0428 12:51:24.866284  9322 net.cpp:406] pool5 <- conv5
I0428 12:51:24.866289  9322 net.cpp:380] pool5 -> pool5
I0428 12:51:24.866325  9322 net.cpp:122] Setting up pool5
I0428 12:51:24.866330  9322 net.cpp:129] Top shape: 128 256 6 6 (1179648)
I0428 12:51:24.866333  9322 net.cpp:137] Memory required for data: 1118222336
I0428 12:51:24.866336  9322 layer_factory.hpp:77] Creating layer fc6
I0428 12:51:24.866343  9322 net.cpp:84] Creating Layer fc6
I0428 12:51:24.866346  9322 net.cpp:406] fc6 <- pool5
I0428 12:51:24.866351  9322 net.cpp:380] fc6 -> fc6
I0428 12:51:25.224593  9322 net.cpp:122] Setting up fc6
I0428 12:51:25.224617  9322 net.cpp:129] Top shape: 128 4096 (524288)
I0428 12:51:25.224620  9322 net.cpp:137] Memory required for data: 1120319488
I0428 12:51:25.224629  9322 layer_factory.hpp:77] Creating layer relu6
I0428 12:51:25.224637  9322 net.cpp:84] Creating Layer relu6
I0428 12:51:25.224642  9322 net.cpp:406] relu6 <- fc6
I0428 12:51:25.224647  9322 net.cpp:367] relu6 -> fc6 (in-place)
I0428 12:51:25.225549  9322 net.cpp:122] Setting up relu6
I0428 12:51:25.225560  9322 net.cpp:129] Top shape: 128 4096 (524288)
I0428 12:51:25.225564  9322 net.cpp:137] Memory required for data: 1122416640
I0428 12:51:25.225567  9322 layer_factory.hpp:77] Creating layer drop6
I0428 12:51:25.225592  9322 net.cpp:84] Creating Layer drop6
I0428 12:51:25.225595  9322 net.cpp:406] drop6 <- fc6
I0428 12:51:25.225600  9322 net.cpp:367] drop6 -> fc6 (in-place)
I0428 12:51:25.225630  9322 net.cpp:122] Setting up drop6
I0428 12:51:25.225636  9322 net.cpp:129] Top shape: 128 4096 (524288)
I0428 12:51:25.225639  9322 net.cpp:137] Memory required for data: 1124513792
I0428 12:51:25.225642  9322 layer_factory.hpp:77] Creating layer fc7
I0428 12:51:25.225648  9322 net.cpp:84] Creating Layer fc7
I0428 12:51:25.225651  9322 net.cpp:406] fc7 <- fc6
I0428 12:51:25.225656  9322 net.cpp:380] fc7 -> fc7
I0428 12:51:25.385246  9322 net.cpp:122] Setting up fc7
I0428 12:51:25.385263  9322 net.cpp:129] Top shape: 128 4096 (524288)
I0428 12:51:25.385267  9322 net.cpp:137] Memory required for data: 1126610944
I0428 12:51:25.385275  9322 layer_factory.hpp:77] Creating layer relu7
I0428 12:51:25.385285  9322 net.cpp:84] Creating Layer relu7
I0428 12:51:25.385288  9322 net.cpp:406] relu7 <- fc7
I0428 12:51:25.385294  9322 net.cpp:367] relu7 -> fc7 (in-place)
I0428 12:51:25.386190  9322 net.cpp:122] Setting up relu7
I0428 12:51:25.386202  9322 net.cpp:129] Top shape: 128 4096 (524288)
I0428 12:51:25.386205  9322 net.cpp:137] Memory required for data: 1128708096
I0428 12:51:25.386209  9322 layer_factory.hpp:77] Creating layer drop7
I0428 12:51:25.386214  9322 net.cpp:84] Creating Layer drop7
I0428 12:51:25.386217  9322 net.cpp:406] drop7 <- fc7
I0428 12:51:25.386224  9322 net.cpp:367] drop7 -> fc7 (in-place)
I0428 12:51:25.386245  9322 net.cpp:122] Setting up drop7
I0428 12:51:25.386250  9322 net.cpp:129] Top shape: 128 4096 (524288)
I0428 12:51:25.386252  9322 net.cpp:137] Memory required for data: 1130805248
I0428 12:51:25.386255  9322 layer_factory.hpp:77] Creating layer fc8
I0428 12:51:25.386263  9322 net.cpp:84] Creating Layer fc8
I0428 12:51:25.386266  9322 net.cpp:406] fc8 <- fc7
I0428 12:51:25.386272  9322 net.cpp:380] fc8 -> fc8
I0428 12:51:25.394099  9322 net.cpp:122] Setting up fc8
I0428 12:51:25.394110  9322 net.cpp:129] Top shape: 128 196 (25088)
I0428 12:51:25.394114  9322 net.cpp:137] Memory required for data: 1130905600
I0428 12:51:25.394127  9322 layer_factory.hpp:77] Creating layer loss
I0428 12:51:25.394134  9322 net.cpp:84] Creating Layer loss
I0428 12:51:25.394138  9322 net.cpp:406] loss <- fc8
I0428 12:51:25.394142  9322 net.cpp:406] loss <- label
I0428 12:51:25.394148  9322 net.cpp:380] loss -> loss
I0428 12:51:25.394160  9322 layer_factory.hpp:77] Creating layer loss
…
I0428 12:51:25.395350  9322 net.cpp:294] The NetState phase (1) differed from the phase (0) specified by a rule in layer train-data
I0428 12:51:25.395494  9322 net.cpp:51] Initializing net from parameters:
state {
phase: TEST
}
layer {
name: "val-data"
type: "Data"
top: "data"
top: "label"
include {
phase: TEST
}
transform_param {
crop_size: 227
mean_file: "/mnt/bigdisk/DIGITS-AMB-2/digits/jobs/20210419-113214-d311/mean.binaryproto"
}
data_param {
source: "/mnt/bigdisk/DIGITS-AMB-2/digits/jobs/20210419-113214-d311/val_db"
batch_size: 32
backend: LMDB
}
}
layer {
name: "conv1"
type: "Convolution"
bottom: "data"
top: "conv1"
param {
lr_mult: 1
decay_mult: 1
}
param {
lr_mult: 2
decay_mult: 0
}
convolution_param {
num_output: 96
kernel_size: 11
stride: 4
weight_filler {
type: "gaussian"
std: 0.01
}
bias_filler {
type: "constant"
value: 0
}
}
}
layer {
name: "relu1"
type: "ReLU"
bottom: "conv1"
top: "conv1"
}
layer {
name: "norm1"
type: "LRN"
bottom: "conv1"
top: "norm1"
lrn_param {
local_size: 5
alpha: 0.0001
beta: 0.75
}
}
layer {
name: "pool1"
type: "Pooling"
bottom: "norm1"
top: "pool1"
pooling_param {
pool: MAX
kernel_size: 3
stride: 2
}
}
layer {
name: "conv2"
type: "Convolution"
bottom: "pool1"
top: "conv2"
param {
lr_mult: 1
decay_mult: 1
}
param {
lr_mult: 2
decay_mult: 0
}
convolution_param {
num_output: 256
pad: 2
kernel_size: 5
group: 2
weight_filler {
type: "gaussian"
std: 0.01
}
bias_filler {
type: "constant"
value: 0.1
}
}
}
layer {
name: "relu2"
type: "ReLU"
bottom: "conv2"
top: "conv2"
}
layer {
name: "norm2"
type: "LRN"
bottom: "conv2"
top: "norm2"
lrn_param {
local_size: 5
alpha: 0.0001
beta: 0.75
}
}
layer {
name: "pool2"
type: "Pooling"
bottom: "norm2"
top: "pool2"
pooling_param {
pool: MAX
kernel_size: 3
stride: 2
}
}
layer {
name: "conv3"
type: "Convolution"
bottom: "pool2"
top: "conv3"
param {
lr_mult: 1
decay_mult: 1
}
param {
lr_mult: 2
decay_mult: 0
}
convolution_param {
num_output: 384
pad: 1
kernel_size: 3
weight_filler {
type: "gaussian"
std: 0.01
}
bias_filler {
type: "constant"
value: 0
}
}
}
layer {
name: "relu3"
type: "ReLU"
bottom: "conv3"
top: "conv3"
}
layer {
name: "conv3.5"
type: "Convolution"
bottom: "conv3"
top: "conv3.5"
param {
lr_mult: 1
decay_mult: 1
}
param {
lr_mult: 2
decay_mult: 0
}
convolution_param {
num_output: 384
pad: 1
kernel_size: 3
weight_filler {
type: "gaussian"
std: 0.01
}
bias_filler {
type: "constant"
value: 0
}
}
}
layer {
name: "relu3.5"
type: "ReLU"
bottom: "conv3.5"
top: "conv3.5"
}
layer {
name: "conv4"
type: "Convolution"
bottom: "conv3.5"
top: "conv4"
param {
lr_mult: 1
decay_mult: 1
}
param {
lr_mult: 2
decay_mult: 0
}
convolution_param {
num_output: 384
pad: 1
kernel_size: 3
group: 2
weight_filler {
type: "gaussian"
std: 0.01
}
bias_filler {
type: "constant"
value: 0.1
}
}
}
layer {
name: "relu4"
type: "ReLU"
bottom: "conv4"
top: "conv4"
}
layer {
name: "conv5"
type: "Convolution"
bottom: "conv4"
top: "conv5"
param {
lr_mult: 1
decay_mult: 1
}
param {
lr_mult: 2
decay_mult: 0
}
convolution_param {
num_output: 256
pad: 1
kernel_size: 3
group: 2
weight_filler {
type: "gaussian"
std: 0.01
}
bias_filler {
type: "constant"
value: 0.1
}
}
}
layer {
name: "relu5"
type: "ReLU"
bottom: "conv5"
top: "conv5"
}
layer {
name: "pool5"
type: "Pooling"
bottom: "conv5"
top: "pool5"
pooling_param {
pool: MAX
kernel_size: 3
stride: 2
}
}
layer {
name: "fc6"
type: "InnerProduct"
bottom: "pool5"
top: "fc6"
param {
lr_mult: 1
decay_mult: 1
}
param {
lr_mult: 2
decay_mult: 0
}
inner_product_param {
num_output: 4096
weight_filler {
type: "gaussian"
std: 0.005
}
bias_filler {
type: "constant"
value: 0.1
}
}
}
layer {
name: "relu6"
type: "ReLU"
bottom: "fc6"
top: "fc6"
}
layer {
name: "drop6"
type: "Dropout"
bottom: "fc6"
top: "fc6"
dropout_param {
dropout_ratio: 0.5
}
}
layer {
name: "fc7"
type: "InnerProduct"
bottom: "fc6"
top: "fc7"
param {
lr_mult: 1
decay_mult: 1
}
param {
lr_mult: 2
decay_mult: 0
}
inner_product_param {
num_output: 4096
weight_filler {
type: "gaussian"
std: 0.005
}
bias_filler {
type: "constant"
value: 0.1
}
}
}
layer {
name: "relu7"
type: "ReLU"
bottom: "fc7"
top: "fc7"
}
layer {
name: "drop7"
type: "Dropout"
bottom: "fc7"
top: "fc7"
dropout_param {
dropout_ratio: 0.5
}
}
layer {
name: "fc8"
type: "InnerProduct"
bottom: "fc7"
top: "fc8"
param {
lr_mult: 1
decay_mult: 1
}
param {
lr_mult: 2
decay_mult: 0
}
inner_product_param {
num_output: 196
weight_filler {
type: "gaussian"
std: 0.01
}
bias_filler {
type: "constant"
value: 0
}
}
}
layer {
name: "accuracy"
type: "Accuracy"
bottom: "fc8"
bottom: "label"
top: "accuracy"
include {
phase: TEST
}
}
layer {
name: "loss"
type: "SoftmaxWithLoss"
bottom: "fc8"
bottom: "label"
top: "loss"
}
I0428 12:51:25.395591  9322 layer_factory.hpp:77] Creating layer val-data
I0428 12:51:25.443591  9322 db_lmdb.cpp:35] Opened lmdb /mnt/bigdisk/DIGITS-AMB-2/digits/jobs/20210419-113214-d311/val_db
I0428 12:51:25.480090  9322 net.cpp:84] Creating Layer val-data
I0428 12:51:25.480126  9322 net.cpp:380] val-data -> data
I0428 12:51:25.480141  9322 net.cpp:380] val-data -> label
I0428 12:51:25.480152  9322 data_transformer.cpp:25] Loading mean file from: /mnt/bigdisk/DIGITS-AMB-2/digits/jobs/20210419-113214-d311/mean.binaryproto
I0428 12:51:25.489228  9322 data_layer.cpp:45] output data size: 32,3,227,227
I0428 12:51:25.522578  9322 net.cpp:122] Setting up val-data
I0428 12:51:25.522604  9322 net.cpp:129] Top shape: 32 3 227 227 (4946784)
I0428 12:51:25.522608  9322 net.cpp:129] Top shape: 32 (32)
I0428 12:51:25.522611  9322 net.cpp:137] Memory required for data: 19787264
I0428 12:51:25.522617  9322 layer_factory.hpp:77] Creating layer label_val-data_1_split
I0428 12:51:25.522627  9322 net.cpp:84] Creating Layer label_val-data_1_split
I0428 12:51:25.522631  9322 net.cpp:406] label_val-data_1_split <- label
I0428 12:51:25.522637  9322 net.cpp:380] label_val-data_1_split -> label_val-data_1_split_0
I0428 12:51:25.522645  9322 net.cpp:380] label_val-data_1_split -> label_val-data_1_split_1
I0428 12:51:25.522689  9322 net.cpp:122] Setting up label_val-data_1_split
I0428 12:51:25.522694  9322 net.cpp:129] Top shape: 32 (32)
I0428 12:51:25.522697  9322 net.cpp:129] Top shape: 32 (32)
I0428 12:51:25.522699  9322 net.cpp:137] Memory required for data: 19787520
I0428 12:51:25.522722  9322 layer_factory.hpp:77] Creating layer conv1
I0428 12:51:25.522734  9322 net.cpp:84] Creating Layer conv1
I0428 12:51:25.522737  9322 net.cpp:406] conv1 <- data
I0428 12:51:25.522742  9322 net.cpp:380] conv1 -> conv1
I0428 12:51:25.526986  9322 net.cpp:122] Setting up conv1
I0428 12:51:25.526998  9322 net.cpp:129] Top shape: 32 96 55 55 (9292800)
I0428 12:51:25.527001  9322 net.cpp:137] Memory required for data: 56958720
I0428 12:51:25.527011  9322 layer_factory.hpp:77] Creating layer relu1
I0428 12:51:25.527019  9322 net.cpp:84] Creating Layer relu1
I0428 12:51:25.527021  9322 net.cpp:406] relu1 <- conv1
I0428 12:51:25.527026  9322 net.cpp:367] relu1 -> conv1 (in-place)
I0428 12:51:25.527511  9322 net.cpp:122] Setting up relu1
I0428 12:51:25.527520  9322 net.cpp:129] Top shape: 32 96 55 55 (9292800)
I0428 12:51:25.527523  9322 net.cpp:137] Memory required for data: 94129920
I0428 12:51:25.527526  9322 layer_factory.hpp:77] Creating layer norm1
I0428 12:51:25.527534  9322 net.cpp:84] Creating Layer norm1
I0428 12:51:25.527537  9322 net.cpp:406] norm1 <- conv1
I0428 12:51:25.527542  9322 net.cpp:380] norm1 -> norm1
I0428 12:51:25.527866  9322 net.cpp:122] Setting up norm1
I0428 12:51:25.527876  9322 net.cpp:129] Top shape: 32 96 55 55 (9292800)
I0428 12:51:25.527878  9322 net.cpp:137] Memory required for data: 131301120
I0428 12:51:25.527882  9322 layer_factory.hpp:77] Creating layer pool1
I0428 12:51:25.527887  9322 net.cpp:84] Creating Layer pool1
I0428 12:51:25.527890  9322 net.cpp:406] pool1 <- norm1
I0428 12:51:25.527895  9322 net.cpp:380] pool1 -> pool1
I0428 12:51:25.527920  9322 net.cpp:122] Setting up pool1
I0428 12:51:25.527925  9322 net.cpp:129] Top shape: 32 96 27 27 (2239488)
I0428 12:51:25.527926  9322 net.cpp:137] Memory required for data: 140259072
I0428 12:51:25.527930  9322 layer_factory.hpp:77] Creating layer conv2
I0428 12:51:25.527937  9322 net.cpp:84] Creating Layer conv2
I0428 12:51:25.527940  9322 net.cpp:406] conv2 <- pool1
I0428 12:51:25.527945  9322 net.cpp:380] conv2 -> conv2
I0428 12:51:25.536059  9322 net.cpp:122] Setting up conv2
I0428 12:51:25.536072  9322 net.cpp:129] Top shape: 32 256 27 27 (5971968)
I0428 12:51:25.536075  9322 net.cpp:137] Memory required for data: 164146944
I0428 12:51:25.536085  9322 layer_factory.hpp:77] Creating layer relu2
I0428 12:51:25.536092  9322 net.cpp:84] Creating Layer relu2
I0428 12:51:25.536095  9322 net.cpp:406] relu2 <- conv2
I0428 12:51:25.536103  9322 net.cpp:367] relu2 -> conv2 (in-place)
I0428 12:51:25.537951  9322 net.cpp:122] Setting up relu2
I0428 12:51:25.537961  9322 net.cpp:129] Top shape: 32 256 27 27 (5971968)
I0428 12:51:25.537964  9322 net.cpp:137] Memory required for data: 188034816
I0428 12:51:25.537967  9322 layer_factory.hpp:77] Creating layer norm2
I0428 12:51:25.537978  9322 net.cpp:84] Creating Layer norm2
I0428 12:51:25.537981  9322 net.cpp:406] norm2 <- conv2
I0428 12:51:25.537987  9322 net.cpp:380] norm2 -> norm2
I0428 12:51:25.538576  9322 net.cpp:122] Setting up norm2
I0428 12:51:25.538586  9322 net.cpp:129] Top shape: 32 256 27 27 (5971968)
I0428 12:51:25.538589  9322 net.cpp:137] Memory required for data: 211922688
I0428 12:51:25.538594  9322 layer_factory.hpp:77] Creating layer pool2
I0428 12:51:25.538609  9322 net.cpp:84] Creating Layer pool2
I0428 12:51:25.538611  9322 net.cpp:406] pool2 <- norm2
I0428 12:51:25.538619  9322 net.cpp:380] pool2 -> pool2
I0428 12:51:25.538647  9322 net.cpp:122] Setting up pool2
I0428 12:51:25.538655  9322 net.cpp:129] Top shape: 32 256 13 13 (1384448)
I0428 12:51:25.538658  9322 net.cpp:137] Memory required for data: 217460480
I0428 12:51:25.538661  9322 layer_factory.hpp:77] Creating layer conv3
I0428 12:51:25.538669  9322 net.cpp:84] Creating Layer conv3
I0428 12:51:25.538672  9322 net.cpp:406] conv3 <- pool2
I0428 12:51:25.538678  9322 net.cpp:380] conv3 -> conv3
I0428 12:51:25.549216  9322 net.cpp:122] Setting up conv3
I0428 12:51:25.549234  9322 net.cpp:129] Top shape: 32 384 13 13 (2076672)
I0428 12:51:25.549237  9322 net.cpp:137] Memory required for data: 225767168
I0428 12:51:25.549268  9322 layer_factory.hpp:77] Creating layer relu3
I0428 12:51:25.549278  9322 net.cpp:84] Creating Layer relu3
I0428 12:51:25.549280  9322 net.cpp:406] relu3 <- conv3
I0428 12:51:25.549286  9322 net.cpp:367] relu3 -> conv3 (in-place)
I0428 12:51:25.549845  9322 net.cpp:122] Setting up relu3
I0428 12:51:25.549854  9322 net.cpp:129] Top shape: 32 384 13 13 (2076672)
I0428 12:51:25.549857  9322 net.cpp:137] Memory required for data: 234073856
I0428 12:51:25.549860  9322 layer_factory.hpp:77] Creating layer conv3.5
I0428 12:51:25.549872  9322 net.cpp:84] Creating Layer conv3.5
I0428 12:51:25.549876  9322 net.cpp:406] conv3.5 <- conv3
I0428 12:51:25.549883  9322 net.cpp:380] conv3.5 -> conv3.5
I0428 12:51:25.564728  9322 net.cpp:122] Setting up conv3.5
I0428 12:51:25.564747  9322 net.cpp:129] Top shape: 32 384 13 13 (2076672)
I0428 12:51:25.564750  9322 net.cpp:137] Memory required for data: 242380544
I0428 12:51:25.564759  9322 layer_factory.hpp:77] Creating layer relu3.5
I0428 12:51:25.564765  9322 net.cpp:84] Creating Layer relu3.5
I0428 12:51:25.564769  9322 net.cpp:406] relu3.5 <- conv3.5
I0428 12:51:25.564776  9322 net.cpp:367] relu3.5 -> conv3.5 (in-place)
I0428 12:51:25.565343  9322 net.cpp:122] Setting up relu3.5
I0428 12:51:25.565352  9322 net.cpp:129] Top shape: 32 384 13 13 (2076672)
I0428 12:51:25.565356  9322 net.cpp:137] Memory required for data: 250687232
I0428 12:51:25.565358  9322 layer_factory.hpp:77] Creating layer conv4
I0428 12:51:25.565369  9322 net.cpp:84] Creating Layer conv4
I0428 12:51:25.565373  9322 net.cpp:406] conv4 <- conv3.5
I0428 12:51:25.565379  9322 net.cpp:380] conv4 -> conv4
I0428 12:51:25.577142  9322 net.cpp:122] Setting up conv4
I0428 12:51:25.577162  9322 net.cpp:129] Top shape: 32 384 13 13 (2076672)
I0428 12:51:25.577165  9322 net.cpp:137] Memory required for data: 258993920
I0428 12:51:25.577178  9322 layer_factory.hpp:77] Creating layer relu4
I0428 12:51:25.577186  9322 net.cpp:84] Creating Layer relu4
I0428 12:51:25.577190  9322 net.cpp:406] relu4 <- conv4
I0428 12:51:25.577196  9322 net.cpp:367] relu4 -> conv4 (in-place)
I0428 12:51:25.577764  9322 net.cpp:122] Setting up relu4
I0428 12:51:25.577773  9322 net.cpp:129] Top shape: 32 384 13 13 (2076672)
I0428 12:51:25.577775  9322 net.cpp:137] Memory required for data: 267300608
I0428 12:51:25.577780  9322 layer_factory.hpp:77] Creating layer conv5
I0428 12:51:25.577793  9322 net.cpp:84] Creating Layer conv5
I0428 12:51:25.577797  9322 net.cpp:406] conv5 <- conv4
I0428 12:51:25.577805  9322 net.cpp:380] conv5 -> conv5
I0428 12:51:25.587442  9322 net.cpp:122] Setting up conv5
I0428 12:51:25.587463  9322 net.cpp:129] Top shape: 32 256 13 13 (1384448)
I0428 12:51:25.587466  9322 net.cpp:137] Memory required for data: 272838400
I0428 12:51:25.587476  9322 layer_factory.hpp:77] Creating layer relu5
I0428 12:51:25.587484  9322 net.cpp:84] Creating Layer relu5
I0428 12:51:25.587488  9322 net.cpp:406] relu5 <- conv5
I0428 12:51:25.587494  9322 net.cpp:367] relu5 -> conv5 (in-place)
I0428 12:51:25.587884  9322 net.cpp:122] Setting up relu5
I0428 12:51:25.587893  9322 net.cpp:129] Top shape: 32 256 13 13 (1384448)
I0428 12:51:25.587895  9322 net.cpp:137] Memory required for data: 278376192
I0428 12:51:25.587898  9322 layer_factory.hpp:77] Creating layer pool5
I0428 12:51:25.587906  9322 net.cpp:84] Creating Layer pool5
I0428 12:51:25.587909  9322 net.cpp:406] pool5 <- conv5
I0428 12:51:25.587914  9322 net.cpp:380] pool5 -> pool5
I0428 12:51:25.587954  9322 net.cpp:122] Setting up pool5
I0428 12:51:25.587958  9322 net.cpp:129] Top shape: 32 256 6 6 (294912)
I0428 12:51:25.587961  9322 net.cpp:137] Memory required for data: 279555840
I0428 12:51:25.587963  9322 layer_factory.hpp:77] Creating layer fc6
I0428 12:51:25.587971  9322 net.cpp:84] Creating Layer fc6
I0428 12:51:25.587975  9322 net.cpp:406] fc6 <- pool5
I0428 12:51:25.587978  9322 net.cpp:380] fc6 -> fc6
I0428 12:51:25.946208  9322 net.cpp:122] Setting up fc6
I0428 12:51:25.946228  9322 net.cpp:129] Top shape: 32 4096 (131072)
I0428 12:51:25.946249  9322 net.cpp:137] Memory required for data: 280080128
I0428 12:51:25.946259  9322 layer_factory.hpp:77] Creating layer relu6
I0428 12:51:25.946269  9322 net.cpp:84] Creating Layer relu6
I0428 12:51:25.946272  9322 net.cpp:406] relu6 <- fc6
I0428 12:51:25.946277  9322 net.cpp:367] relu6 -> fc6 (in-place)
I0428 12:51:25.947046  9322 net.cpp:122] Setting up relu6
I0428 12:51:25.947057  9322 net.cpp:129] Top shape: 32 4096 (131072)
I0428 12:51:25.947058  9322 net.cpp:137] Memory required for data: 280604416
I0428 12:51:25.947062  9322 layer_factory.hpp:77] Creating layer drop6
I0428 12:51:25.947068  9322 net.cpp:84] Creating Layer drop6
I0428 12:51:25.947072  9322 net.cpp:406] drop6 <- fc6
I0428 12:51:25.947078  9322 net.cpp:367] drop6 -> fc6 (in-place)
I0428 12:51:25.947103  9322 net.cpp:122] Setting up drop6
I0428 12:51:25.947108  9322 net.cpp:129] Top shape: 32 4096 (131072)
I0428 12:51:25.947111  9322 net.cpp:137] Memory required for data: 281128704
I0428 12:51:25.947113  9322 layer_factory.hpp:77] Creating layer fc7
I0428 12:51:25.947120  9322 net.cpp:84] Creating Layer fc7
I0428 12:51:25.947124  9322 net.cpp:406] fc7 <- fc6
I0428 12:51:25.947129  9322 net.cpp:380] fc7 -> fc7
I0428 12:51:26.106307  9322 net.cpp:122] Setting up fc7
I0428 12:51:26.106328  9322 net.cpp:129] Top shape: 32 4096 (131072)
I0428 12:51:26.106331  9322 net.cpp:137] Memory required for data: 281652992
I0428 12:51:26.106340  9322 layer_factory.hpp:77] Creating layer relu7
I0428 12:51:26.106348  9322 net.cpp:84] Creating Layer relu7
I0428 12:51:26.106353  9322 net.cpp:406] relu7 <- fc7
I0428 12:51:26.106360  9322 net.cpp:367] relu7 -> fc7 (in-place)
I0428 12:51:26.107129  9322 net.cpp:122] Setting up relu7
I0428 12:51:26.107139  9322 net.cpp:129] Top shape: 32 4096 (131072)
I0428 12:51:26.107142  9322 net.cpp:137] Memory required for data: 282177280
I0428 12:51:26.107146  9322 layer_factory.hpp:77] Creating layer drop7
I0428 12:51:26.107152  9322 net.cpp:84] Creating Layer drop7
I0428 12:51:26.107156  9322 net.cpp:406] drop7 <- fc7
I0428 12:51:26.107161  9322 net.cpp:367] drop7 -> fc7 (in-place)
I0428 12:51:26.107185  9322 net.cpp:122] Setting up drop7
I0428 12:51:26.107190  9322 net.cpp:129] Top shape: 32 4096 (131072)
I0428 12:51:26.107192  9322 net.cpp:137] Memory required for data: 282701568
I0428 12:51:26.107195  9322 layer_factory.hpp:77] Creating layer fc8
I0428 12:51:26.107203  9322 net.cpp:84] Creating Layer fc8
I0428 12:51:26.107206  9322 net.cpp:406] fc8 <- fc7
I0428 12:51:26.107210  9322 net.cpp:380] fc8 -> fc8
I0428 12:51:26.114934  9322 net.cpp:122] Setting up fc8
I0428 12:51:26.114943  9322 net.cpp:129] Top shape: 32 196 (6272)
I0428 12:51:26.114946  9322 net.cpp:137] Memory required for data: 282726656
I0428 12:51:26.114957  9322 layer_factory.hpp:77] Creating layer fc8_fc8_0_split
I0428 12:51:26.114964  9322 net.cpp:84] Creating Layer fc8_fc8_0_split
I0428 12:51:26.114966  9322 net.cpp:406] fc8_fc8_0_split <- fc8
I0428 12:51:26.114972  9322 net.cpp:380] fc8_fc8_0_split -> fc8_fc8_0_split_0
I0428 12:51:26.114979  9322 net.cpp:380] fc8_fc8_0_split -> fc8_fc8_0_split_1
I0428 12:51:26.115007  9322 net.cpp:122] Setting up fc8_fc8_0_split
I0428 12:51:26.115011  9322 net.cpp:129] Top shape: 32 196 (6272)
I0428 12:51:26.115015  9322 net.cpp:129] Top shape: 32 196 (6272)
I0428 12:51:26.115016  9322 net.cpp:137] Memory required for data: 282776832
I0428 12:51:26.115020  9322 layer_factory.hpp:77] Creating layer accuracy
I0428 12:51:26.115026  9322 net.cpp:84] Creating Layer accuracy
I0428 12:51:26.115029  9322 net.cpp:406] accuracy <- fc8_fc8_0_split_0
I0428 12:51:26.115033  9322 net.cpp:406] accuracy <- label_val-data_1_split_0
I0428 12:51:26.115038  9322 net.cpp:380] accuracy -> accuracy
…
