…
I0428 13:53:50.208513 31692 net.cpp:294] The NetState phase (0) differed from the phase (1) specified by a rule in layer accuracy
I0428 13:53:50.208791 31692 net.cpp:51] Initializing net from parameters:
state {
phase: TRAIN
level: 0
stage: ""
}
layer {
name: "train-data"
type: "Data"
top: "data"
top: "label"
include {
phase: TRAIN
}
transform_param {
mirror: true
crop_size: 227
mean_file: "/mnt/bigdisk/DIGITS-AMB-2/digits/jobs/20210419-113214-d311/mean.binaryproto"
}
data_param {
source: "/mnt/bigdisk/DIGITS-AMB-2/digits/jobs/20210419-113214-d311/train_db"
batch_size: 128
backend: LMDB
}
}
layer {
name: "conv1"
type: "Convolution"
bottom: "data"
top: "conv1"
param {
lr_mult: 1
decay_mult: 1
}
param {
lr_mult: 2
decay_mult: 0
}
convolution_param {
num_output: 96
kernel_size: 11
stride: 4
weight_filler {
type: "gaussian"
std: 0.01
}
bias_filler {
type: "constant"
value: 0
}
}
}
layer {
name: "relu1"
type: "ReLU"
bottom: "conv1"
top: "conv1"
}
layer {
name: "norm1"
type: "LRN"
bottom: "conv1"
top: "norm1"
lrn_param {
local_size: 5
alpha: 0.0001
beta: 0.75
}
}
layer {
name: "pool1"
type: "Pooling"
bottom: "norm1"
top: "pool1"
pooling_param {
pool: MAX
kernel_size: 3
stride: 2
}
}
layer {
name: "conv2"
type: "Convolution"
bottom: "pool1"
top: "conv2"
param {
lr_mult: 1
decay_mult: 1
}
param {
lr_mult: 2
decay_mult: 0
}
convolution_param {
num_output: 256
pad: 2
kernel_size: 5
group: 2
weight_filler {
type: "gaussian"
std: 0.01
}
bias_filler {
type: "constant"
value: 0.1
}
}
}
layer {
name: "relu2"
type: "ReLU"
bottom: "conv2"
top: "conv2"
}
layer {
name: "norm2"
type: "LRN"
bottom: "conv2"
top: "norm2"
lrn_param {
local_size: 5
alpha: 0.0001
beta: 0.75
}
}
layer {
name: "pool2"
type: "Pooling"
bottom: "norm2"
top: "pool2"
pooling_param {
pool: MAX
kernel_size: 3
stride: 2
}
}
layer {
name: "conv3"
type: "Convolution"
bottom: "pool2"
top: "conv3"
param {
lr_mult: 1
decay_mult: 1
}
param {
lr_mult: 2
decay_mult: 0
}
convolution_param {
num_output: 384
pad: 1
kernel_size: 3
weight_filler {
type: "gaussian"
std: 0.01
}
bias_filler {
type: "constant"
value: 0
}
}
}
layer {
name: "relu3"
type: "ReLU"
bottom: "conv3"
top: "conv3"
}
layer {
name: "conv3.5"
type: "Convolution"
bottom: "conv3"
top: "conv3.5"
param {
lr_mult: 1
decay_mult: 1
}
param {
lr_mult: 2
decay_mult: 0
}
convolution_param {
num_output: 192
pad: 1
kernel_size: 3
weight_filler {
type: "gaussian"
std: 0.01
}
bias_filler {
type: "constant"
value: 0
}
}
}
layer {
name: "relu3.5"
type: "ReLU"
bottom: "conv3.5"
top: "conv3.5"
}
layer {
name: "conv4"
type: "Convolution"
bottom: "conv3.5"
top: "conv4"
param {
lr_mult: 1
decay_mult: 1
}
param {
lr_mult: 2
decay_mult: 0
}
convolution_param {
num_output: 384
pad: 1
kernel_size: 3
group: 2
weight_filler {
type: "gaussian"
std: 0.01
}
bias_filler {
type: "constant"
value: 0.1
}
}
}
layer {
name: "relu4"
type: "ReLU"
bottom: "conv4"
top: "conv4"
}
layer {
name: "conv5"
type: "Convolution"
bottom: "conv4"
top: "conv5"
param {
lr_mult: 1
decay_mult: 1
}
param {
lr_mult: 2
decay_mult: 0
}
convolution_param {
num_output: 256
pad: 1
kernel_size: 3
group: 2
weight_filler {
type: "gaussian"
std: 0.01
}
bias_filler {
type: "constant"
value: 0.1
}
}
}
layer {
name: "relu5"
type: "ReLU"
bottom: "conv5"
top: "conv5"
}
layer {
name: "pool5"
type: "Pooling"
bottom: "conv5"
top: "pool5"
pooling_param {
pool: MAX
kernel_size: 3
stride: 2
}
}
layer {
name: "fc6"
type: "InnerProduct"
bottom: "pool5"
top: "fc6"
param {
lr_mult: 1
decay_mult: 1
}
param {
lr_mult: 2
decay_mult: 0
}
inner_product_param {
num_output: 4096
weight_filler {
type: "gaussian"
std: 0.005
}
bias_filler {
type: "constant"
value: 0.1
}
}
}
layer {
name: "relu6"
type: "ReLU"
bottom: "fc6"
top: "fc6"
}
layer {
name: "drop6"
type: "Dropout"
bottom: "fc6"
top: "fc6"
dropout_param {
dropout_ratio: 0.5
}
}
layer {
name: "fc7"
type: "InnerProduct"
bottom: "fc6"
top: "fc7"
param {
lr_mult: 1
decay_mult: 1
}
param {
lr_mult: 2
decay_mult: 0
}
inner_product_param {
num_output: 4096
weight_filler {
type: "gaussian"
std: 0.005
}
bias_filler {
type: "constant"
value: 0.1
}
}
}
layer {
name: "relu7"
type: "ReLU"
bottom: "fc7"
top: "fc7"
}
layer {
name: "drop7"
type: "Dropout"
bottom: "fc7"
top: "fc7"
dropout_param {
dropout_ratio: 0.5
}
}
layer {
name: "fc8"
type: "InnerProduct"
bottom: "fc7"
top: "fc8"
param {
lr_mult: 1
decay_mult: 1
}
param {
lr_mult: 2
decay_mult: 0
}
inner_product_param {
num_output: 196
weight_filler {
type: "gaussian"
std: 0.01
}
bias_filler {
type: "constant"
value: 0
}
}
}
layer {
name: "loss"
type: "SoftmaxWithLoss"
bottom: "fc8"
bottom: "label"
top: "loss"
}
I0428 13:53:50.208956 31692 layer_factory.hpp:77] Creating layer train-data
I0428 13:53:50.215245 31692 db_lmdb.cpp:35] Opened lmdb /mnt/bigdisk/DIGITS-AMB-2/digits/jobs/20210419-113214-d311/train_db
I0428 13:53:50.217993 31692 net.cpp:84] Creating Layer train-data
I0428 13:53:50.218016 31692 net.cpp:380] train-data -> data
I0428 13:53:50.218048 31692 net.cpp:380] train-data -> label
I0428 13:53:50.218067 31692 data_transformer.cpp:25] Loading mean file from: /mnt/bigdisk/DIGITS-AMB-2/digits/jobs/20210419-113214-d311/mean.binaryproto
I0428 13:53:50.227275 31692 data_layer.cpp:45] output data size: 128,3,227,227
I0428 13:53:50.370091 31692 net.cpp:122] Setting up train-data
I0428 13:53:50.370111 31692 net.cpp:129] Top shape: 128 3 227 227 (19787136)
I0428 13:53:50.370116 31692 net.cpp:129] Top shape: 128 (128)
I0428 13:53:50.370119 31692 net.cpp:137] Memory required for data: 79149056
I0428 13:53:50.370129 31692 layer_factory.hpp:77] Creating layer conv1
I0428 13:53:50.370167 31692 net.cpp:84] Creating Layer conv1
I0428 13:53:50.370174 31692 net.cpp:406] conv1 <- data
I0428 13:53:50.370187 31692 net.cpp:380] conv1 -> conv1
I0428 13:53:51.299533 31692 net.cpp:122] Setting up conv1
I0428 13:53:51.299556 31692 net.cpp:129] Top shape: 128 96 55 55 (37171200)
I0428 13:53:51.299559 31692 net.cpp:137] Memory required for data: 227833856
I0428 13:53:51.299577 31692 layer_factory.hpp:77] Creating layer relu1
I0428 13:53:51.299587 31692 net.cpp:84] Creating Layer relu1
I0428 13:53:51.299590 31692 net.cpp:406] relu1 <- conv1
I0428 13:53:51.299618 31692 net.cpp:367] relu1 -> conv1 (in-place)
I0428 13:53:51.299945 31692 net.cpp:122] Setting up relu1
I0428 13:53:51.299955 31692 net.cpp:129] Top shape: 128 96 55 55 (37171200)
I0428 13:53:51.299958 31692 net.cpp:137] Memory required for data: 376518656
I0428 13:53:51.299962 31692 layer_factory.hpp:77] Creating layer norm1
I0428 13:53:51.299970 31692 net.cpp:84] Creating Layer norm1
I0428 13:53:51.299973 31692 net.cpp:406] norm1 <- conv1
I0428 13:53:51.299978 31692 net.cpp:380] norm1 -> norm1
I0428 13:53:51.300496 31692 net.cpp:122] Setting up norm1
I0428 13:53:51.300505 31692 net.cpp:129] Top shape: 128 96 55 55 (37171200)
I0428 13:53:51.300508 31692 net.cpp:137] Memory required for data: 525203456
I0428 13:53:51.300513 31692 layer_factory.hpp:77] Creating layer pool1
I0428 13:53:51.300519 31692 net.cpp:84] Creating Layer pool1
I0428 13:53:51.300523 31692 net.cpp:406] pool1 <- norm1
I0428 13:53:51.300527 31692 net.cpp:380] pool1 -> pool1
I0428 13:53:51.300559 31692 net.cpp:122] Setting up pool1
I0428 13:53:51.300565 31692 net.cpp:129] Top shape: 128 96 27 27 (8957952)
I0428 13:53:51.300567 31692 net.cpp:137] Memory required for data: 561035264
I0428 13:53:51.300570 31692 layer_factory.hpp:77] Creating layer conv2
I0428 13:53:51.300580 31692 net.cpp:84] Creating Layer conv2
I0428 13:53:51.300583 31692 net.cpp:406] conv2 <- pool1
I0428 13:53:51.300587 31692 net.cpp:380] conv2 -> conv2
I0428 13:53:51.308180 31692 net.cpp:122] Setting up conv2
I0428 13:53:51.308198 31692 net.cpp:129] Top shape: 128 256 27 27 (23887872)
I0428 13:53:51.308202 31692 net.cpp:137] Memory required for data: 656586752
I0428 13:53:51.308212 31692 layer_factory.hpp:77] Creating layer relu2
I0428 13:53:51.308218 31692 net.cpp:84] Creating Layer relu2
I0428 13:53:51.308223 31692 net.cpp:406] relu2 <- conv2
I0428 13:53:51.308228 31692 net.cpp:367] relu2 -> conv2 (in-place)
I0428 13:53:51.308724 31692 net.cpp:122] Setting up relu2
I0428 13:53:51.308734 31692 net.cpp:129] Top shape: 128 256 27 27 (23887872)
I0428 13:53:51.308737 31692 net.cpp:137] Memory required for data: 752138240
I0428 13:53:51.308740 31692 layer_factory.hpp:77] Creating layer norm2
I0428 13:53:51.308748 31692 net.cpp:84] Creating Layer norm2
I0428 13:53:51.308751 31692 net.cpp:406] norm2 <- conv2
I0428 13:53:51.308756 31692 net.cpp:380] norm2 -> norm2
I0428 13:53:51.309078 31692 net.cpp:122] Setting up norm2
I0428 13:53:51.309087 31692 net.cpp:129] Top shape: 128 256 27 27 (23887872)
I0428 13:53:51.309090 31692 net.cpp:137] Memory required for data: 847689728
I0428 13:53:51.309093 31692 layer_factory.hpp:77] Creating layer pool2
I0428 13:53:51.309101 31692 net.cpp:84] Creating Layer pool2
I0428 13:53:51.309104 31692 net.cpp:406] pool2 <- norm2
I0428 13:53:51.309109 31692 net.cpp:380] pool2 -> pool2
I0428 13:53:51.309134 31692 net.cpp:122] Setting up pool2
I0428 13:53:51.309139 31692 net.cpp:129] Top shape: 128 256 13 13 (5537792)
I0428 13:53:51.309141 31692 net.cpp:137] Memory required for data: 869840896
I0428 13:53:51.309144 31692 layer_factory.hpp:77] Creating layer conv3
I0428 13:53:51.309152 31692 net.cpp:84] Creating Layer conv3
I0428 13:53:51.309155 31692 net.cpp:406] conv3 <- pool2
I0428 13:53:51.309159 31692 net.cpp:380] conv3 -> conv3
I0428 13:53:51.319531 31692 net.cpp:122] Setting up conv3
I0428 13:53:51.319543 31692 net.cpp:129] Top shape: 128 384 13 13 (8306688)
I0428 13:53:51.319546 31692 net.cpp:137] Memory required for data: 903067648
I0428 13:53:51.319555 31692 layer_factory.hpp:77] Creating layer relu3
I0428 13:53:51.319562 31692 net.cpp:84] Creating Layer relu3
I0428 13:53:51.319566 31692 net.cpp:406] relu3 <- conv3
I0428 13:53:51.319571 31692 net.cpp:367] relu3 -> conv3 (in-place)
I0428 13:53:51.320088 31692 net.cpp:122] Setting up relu3
I0428 13:53:51.320098 31692 net.cpp:129] Top shape: 128 384 13 13 (8306688)
I0428 13:53:51.320101 31692 net.cpp:137] Memory required for data: 936294400
I0428 13:53:51.320104 31692 layer_factory.hpp:77] Creating layer conv3.5
I0428 13:53:51.320113 31692 net.cpp:84] Creating Layer conv3.5
I0428 13:53:51.320135 31692 net.cpp:406] conv3.5 <- conv3
I0428 13:53:51.320142 31692 net.cpp:380] conv3.5 -> conv3.5
I0428 13:53:51.329421 31692 net.cpp:122] Setting up conv3.5
I0428 13:53:51.329433 31692 net.cpp:129] Top shape: 128 192 13 13 (4153344)
I0428 13:53:51.329437 31692 net.cpp:137] Memory required for data: 952907776
I0428 13:53:51.329444 31692 layer_factory.hpp:77] Creating layer relu3.5
I0428 13:53:51.329450 31692 net.cpp:84] Creating Layer relu3.5
I0428 13:53:51.329454 31692 net.cpp:406] relu3.5 <- conv3.5
I0428 13:53:51.329459 31692 net.cpp:367] relu3.5 -> conv3.5 (in-place)
I0428 13:53:51.329947 31692 net.cpp:122] Setting up relu3.5
I0428 13:53:51.329957 31692 net.cpp:129] Top shape: 128 192 13 13 (4153344)
I0428 13:53:51.329960 31692 net.cpp:137] Memory required for data: 969521152
I0428 13:53:51.329963 31692 layer_factory.hpp:77] Creating layer conv4
I0428 13:53:51.329972 31692 net.cpp:84] Creating Layer conv4
I0428 13:53:51.329975 31692 net.cpp:406] conv4 <- conv3.5
I0428 13:53:51.329980 31692 net.cpp:380] conv4 -> conv4
I0428 13:53:51.337062 31692 net.cpp:122] Setting up conv4
I0428 13:53:51.337074 31692 net.cpp:129] Top shape: 128 384 13 13 (8306688)
I0428 13:53:51.337076 31692 net.cpp:137] Memory required for data: 1002747904
I0428 13:53:51.337087 31692 layer_factory.hpp:77] Creating layer relu4
I0428 13:53:51.337093 31692 net.cpp:84] Creating Layer relu4
I0428 13:53:51.337096 31692 net.cpp:406] relu4 <- conv4
I0428 13:53:51.337101 31692 net.cpp:367] relu4 -> conv4 (in-place)
I0428 13:53:51.337471 31692 net.cpp:122] Setting up relu4
I0428 13:53:51.337481 31692 net.cpp:129] Top shape: 128 384 13 13 (8306688)
I0428 13:53:51.337484 31692 net.cpp:137] Memory required for data: 1035974656
I0428 13:53:51.337487 31692 layer_factory.hpp:77] Creating layer conv5
I0428 13:53:51.337496 31692 net.cpp:84] Creating Layer conv5
I0428 13:53:51.337499 31692 net.cpp:406] conv5 <- conv4
I0428 13:53:51.337505 31692 net.cpp:380] conv5 -> conv5
I0428 13:53:51.346752 31692 net.cpp:122] Setting up conv5
I0428 13:53:51.346765 31692 net.cpp:129] Top shape: 128 256 13 13 (5537792)
I0428 13:53:51.346767 31692 net.cpp:137] Memory required for data: 1058125824
I0428 13:53:51.346774 31692 layer_factory.hpp:77] Creating layer relu5
I0428 13:53:51.346783 31692 net.cpp:84] Creating Layer relu5
I0428 13:53:51.346786 31692 net.cpp:406] relu5 <- conv5
I0428 13:53:51.346791 31692 net.cpp:367] relu5 -> conv5 (in-place)
I0428 13:53:51.347339 31692 net.cpp:122] Setting up relu5
I0428 13:53:51.347348 31692 net.cpp:129] Top shape: 128 256 13 13 (5537792)
I0428 13:53:51.347352 31692 net.cpp:137] Memory required for data: 1080276992
I0428 13:53:51.347354 31692 layer_factory.hpp:77] Creating layer pool5
I0428 13:53:51.347364 31692 net.cpp:84] Creating Layer pool5
I0428 13:53:51.347368 31692 net.cpp:406] pool5 <- conv5
I0428 13:53:51.347373 31692 net.cpp:380] pool5 -> pool5
I0428 13:53:51.347409 31692 net.cpp:122] Setting up pool5
I0428 13:53:51.347414 31692 net.cpp:129] Top shape: 128 256 6 6 (1179648)
I0428 13:53:51.347416 31692 net.cpp:137] Memory required for data: 1084995584
I0428 13:53:51.347419 31692 layer_factory.hpp:77] Creating layer fc6
I0428 13:53:51.347426 31692 net.cpp:84] Creating Layer fc6
I0428 13:53:51.347429 31692 net.cpp:406] fc6 <- pool5
I0428 13:53:51.347434 31692 net.cpp:380] fc6 -> fc6
I0428 13:53:51.705958 31692 net.cpp:122] Setting up fc6
I0428 13:53:51.705981 31692 net.cpp:129] Top shape: 128 4096 (524288)
I0428 13:53:51.705984 31692 net.cpp:137] Memory required for data: 1087092736
I0428 13:53:51.705993 31692 layer_factory.hpp:77] Creating layer relu6
I0428 13:53:51.706001 31692 net.cpp:84] Creating Layer relu6
I0428 13:53:51.706005 31692 net.cpp:406] relu6 <- fc6
I0428 13:53:51.706010 31692 net.cpp:367] relu6 -> fc6 (in-place)
I0428 13:53:51.706930 31692 net.cpp:122] Setting up relu6
I0428 13:53:51.706940 31692 net.cpp:129] Top shape: 128 4096 (524288)
I0428 13:53:51.706943 31692 net.cpp:137] Memory required for data: 1089189888
I0428 13:53:51.706946 31692 layer_factory.hpp:77] Creating layer drop6
I0428 13:53:51.706971 31692 net.cpp:84] Creating Layer drop6
I0428 13:53:51.706974 31692 net.cpp:406] drop6 <- fc6
I0428 13:53:51.706979 31692 net.cpp:367] drop6 -> fc6 (in-place)
I0428 13:53:51.707008 31692 net.cpp:122] Setting up drop6
I0428 13:53:51.707015 31692 net.cpp:129] Top shape: 128 4096 (524288)
I0428 13:53:51.707017 31692 net.cpp:137] Memory required for data: 1091287040
I0428 13:53:51.707020 31692 layer_factory.hpp:77] Creating layer fc7
I0428 13:53:51.707026 31692 net.cpp:84] Creating Layer fc7
I0428 13:53:51.707029 31692 net.cpp:406] fc7 <- fc6
I0428 13:53:51.707036 31692 net.cpp:380] fc7 -> fc7
I0428 13:53:51.866269 31692 net.cpp:122] Setting up fc7
I0428 13:53:51.866287 31692 net.cpp:129] Top shape: 128 4096 (524288)
I0428 13:53:51.866290 31692 net.cpp:137] Memory required for data: 1093384192
I0428 13:53:51.866299 31692 layer_factory.hpp:77] Creating layer relu7
I0428 13:53:51.866310 31692 net.cpp:84] Creating Layer relu7
I0428 13:53:51.866314 31692 net.cpp:406] relu7 <- fc7
I0428 13:53:51.866320 31692 net.cpp:367] relu7 -> fc7 (in-place)
I0428 13:53:51.867089 31692 net.cpp:122] Setting up relu7
I0428 13:53:51.867100 31692 net.cpp:129] Top shape: 128 4096 (524288)
I0428 13:53:51.867102 31692 net.cpp:137] Memory required for data: 1095481344
I0428 13:53:51.867105 31692 layer_factory.hpp:77] Creating layer drop7
I0428 13:53:51.867111 31692 net.cpp:84] Creating Layer drop7
I0428 13:53:51.867115 31692 net.cpp:406] drop7 <- fc7
I0428 13:53:51.867120 31692 net.cpp:367] drop7 -> fc7 (in-place)
I0428 13:53:51.867143 31692 net.cpp:122] Setting up drop7
I0428 13:53:51.867148 31692 net.cpp:129] Top shape: 128 4096 (524288)
I0428 13:53:51.867151 31692 net.cpp:137] Memory required for data: 1097578496
I0428 13:53:51.867153 31692 layer_factory.hpp:77] Creating layer fc8
I0428 13:53:51.867161 31692 net.cpp:84] Creating Layer fc8
I0428 13:53:51.867164 31692 net.cpp:406] fc8 <- fc7
I0428 13:53:51.867169 31692 net.cpp:380] fc8 -> fc8
I0428 13:53:51.874889 31692 net.cpp:122] Setting up fc8
I0428 13:53:51.874897 31692 net.cpp:129] Top shape: 128 196 (25088)
I0428 13:53:51.874900 31692 net.cpp:137] Memory required for data: 1097678848
I0428 13:53:51.874912 31692 layer_factory.hpp:77] Creating layer loss
I0428 13:53:51.874918 31692 net.cpp:84] Creating Layer loss
I0428 13:53:51.874922 31692 net.cpp:406] loss <- fc8
I0428 13:53:51.874925 31692 net.cpp:406] loss <- label
I0428 13:53:51.874933 31692 net.cpp:380] loss -> loss
I0428 13:53:51.874943 31692 layer_factory.hpp:77] Creating layer loss
…
I0428 13:53:51.876737 31692 net.cpp:294] The NetState phase (1) differed from the phase (0) specified by a rule in layer train-data
I0428 13:53:51.876881 31692 net.cpp:51] Initializing net from parameters:
state {
phase: TEST
}
layer {
name: "val-data"
type: "Data"
top: "data"
top: "label"
include {
phase: TEST
}
transform_param {
crop_size: 227
mean_file: "/mnt/bigdisk/DIGITS-AMB-2/digits/jobs/20210419-113214-d311/mean.binaryproto"
}
data_param {
source: "/mnt/bigdisk/DIGITS-AMB-2/digits/jobs/20210419-113214-d311/val_db"
batch_size: 32
backend: LMDB
}
}
layer {
name: "conv1"
type: "Convolution"
bottom: "data"
top: "conv1"
param {
lr_mult: 1
decay_mult: 1
}
param {
lr_mult: 2
decay_mult: 0
}
convolution_param {
num_output: 96
kernel_size: 11
stride: 4
weight_filler {
type: "gaussian"
std: 0.01
}
bias_filler {
type: "constant"
value: 0
}
}
}
layer {
name: "relu1"
type: "ReLU"
bottom: "conv1"
top: "conv1"
}
layer {
name: "norm1"
type: "LRN"
bottom: "conv1"
top: "norm1"
lrn_param {
local_size: 5
alpha: 0.0001
beta: 0.75
}
}
layer {
name: "pool1"
type: "Pooling"
bottom: "norm1"
top: "pool1"
pooling_param {
pool: MAX
kernel_size: 3
stride: 2
}
}
layer {
name: "conv2"
type: "Convolution"
bottom: "pool1"
top: "conv2"
param {
lr_mult: 1
decay_mult: 1
}
param {
lr_mult: 2
decay_mult: 0
}
convolution_param {
num_output: 256
pad: 2
kernel_size: 5
group: 2
weight_filler {
type: "gaussian"
std: 0.01
}
bias_filler {
type: "constant"
value: 0.1
}
}
}
layer {
name: "relu2"
type: "ReLU"
bottom: "conv2"
top: "conv2"
}
layer {
name: "norm2"
type: "LRN"
bottom: "conv2"
top: "norm2"
lrn_param {
local_size: 5
alpha: 0.0001
beta: 0.75
}
}
layer {
name: "pool2"
type: "Pooling"
bottom: "norm2"
top: "pool2"
pooling_param {
pool: MAX
kernel_size: 3
stride: 2
}
}
layer {
name: "conv3"
type: "Convolution"
bottom: "pool2"
top: "conv3"
param {
lr_mult: 1
decay_mult: 1
}
param {
lr_mult: 2
decay_mult: 0
}
convolution_param {
num_output: 384
pad: 1
kernel_size: 3
weight_filler {
type: "gaussian"
std: 0.01
}
bias_filler {
type: "constant"
value: 0
}
}
}
layer {
name: "relu3"
type: "ReLU"
bottom: "conv3"
top: "conv3"
}
layer {
name: "conv3.5"
type: "Convolution"
bottom: "conv3"
top: "conv3.5"
param {
lr_mult: 1
decay_mult: 1
}
param {
lr_mult: 2
decay_mult: 0
}
convolution_param {
num_output: 192
pad: 1
kernel_size: 3
weight_filler {
type: "gaussian"
std: 0.01
}
bias_filler {
type: "constant"
value: 0
}
}
}
layer {
name: "relu3.5"
type: "ReLU"
bottom: "conv3.5"
top: "conv3.5"
}
layer {
name: "conv4"
type: "Convolution"
bottom: "conv3.5"
top: "conv4"
param {
lr_mult: 1
decay_mult: 1
}
param {
lr_mult: 2
decay_mult: 0
}
convolution_param {
num_output: 384
pad: 1
kernel_size: 3
group: 2
weight_filler {
type: "gaussian"
std: 0.01
}
bias_filler {
type: "constant"
value: 0.1
}
}
}
layer {
name: "relu4"
type: "ReLU"
bottom: "conv4"
top: "conv4"
}
layer {
name: "conv5"
type: "Convolution"
bottom: "conv4"
top: "conv5"
param {
lr_mult: 1
decay_mult: 1
}
param {
lr_mult: 2
decay_mult: 0
}
convolution_param {
num_output: 256
pad: 1
kernel_size: 3
group: 2
weight_filler {
type: "gaussian"
std: 0.01
}
bias_filler {
type: "constant"
value: 0.1
}
}
}
layer {
name: "relu5"
type: "ReLU"
bottom: "conv5"
top: "conv5"
}
layer {
name: "pool5"
type: "Pooling"
bottom: "conv5"
top: "pool5"
pooling_param {
pool: MAX
kernel_size: 3
stride: 2
}
}
layer {
name: "fc6"
type: "InnerProduct"
bottom: "pool5"
top: "fc6"
param {
lr_mult: 1
decay_mult: 1
}
param {
lr_mult: 2
decay_mult: 0
}
inner_product_param {
num_output: 4096
weight_filler {
type: "gaussian"
std: 0.005
}
bias_filler {
type: "constant"
value: 0.1
}
}
}
layer {
name: "relu6"
type: "ReLU"
bottom: "fc6"
top: "fc6"
}
layer {
name: "drop6"
type: "Dropout"
bottom: "fc6"
top: "fc6"
dropout_param {
dropout_ratio: 0.5
}
}
layer {
name: "fc7"
type: "InnerProduct"
bottom: "fc6"
top: "fc7"
param {
lr_mult: 1
decay_mult: 1
}
param {
lr_mult: 2
decay_mult: 0
}
inner_product_param {
num_output: 4096
weight_filler {
type: "gaussian"
std: 0.005
}
bias_filler {
type: "constant"
value: 0.1
}
}
}
layer {
name: "relu7"
type: "ReLU"
bottom: "fc7"
top: "fc7"
}
layer {
name: "drop7"
type: "Dropout"
bottom: "fc7"
top: "fc7"
dropout_param {
dropout_ratio: 0.5
}
}
layer {
name: "fc8"
type: "InnerProduct"
bottom: "fc7"
top: "fc8"
param {
lr_mult: 1
decay_mult: 1
}
param {
lr_mult: 2
decay_mult: 0
}
inner_product_param {
num_output: 196
weight_filler {
type: "gaussian"
std: 0.01
}
bias_filler {
type: "constant"
value: 0
}
}
}
layer {
name: "accuracy"
type: "Accuracy"
bottom: "fc8"
bottom: "label"
top: "accuracy"
include {
phase: TEST
}
}
layer {
name: "loss"
type: "SoftmaxWithLoss"
bottom: "fc8"
bottom: "label"
top: "loss"
}
I0428 13:53:51.876981 31692 layer_factory.hpp:77] Creating layer val-data
I0428 13:53:51.882833 31692 db_lmdb.cpp:35] Opened lmdb /mnt/bigdisk/DIGITS-AMB-2/digits/jobs/20210419-113214-d311/val_db
I0428 13:53:51.885179 31692 net.cpp:84] Creating Layer val-data
I0428 13:53:51.885198 31692 net.cpp:380] val-data -> data
I0428 13:53:51.885210 31692 net.cpp:380] val-data -> label
I0428 13:53:51.885218 31692 data_transformer.cpp:25] Loading mean file from: /mnt/bigdisk/DIGITS-AMB-2/digits/jobs/20210419-113214-d311/mean.binaryproto
I0428 13:53:51.889565 31692 data_layer.cpp:45] output data size: 32,3,227,227
I0428 13:53:51.925184 31692 net.cpp:122] Setting up val-data
I0428 13:53:51.925204 31692 net.cpp:129] Top shape: 32 3 227 227 (4946784)
I0428 13:53:51.925209 31692 net.cpp:129] Top shape: 32 (32)
I0428 13:53:51.925211 31692 net.cpp:137] Memory required for data: 19787264
I0428 13:53:51.925217 31692 layer_factory.hpp:77] Creating layer label_val-data_1_split
I0428 13:53:51.925228 31692 net.cpp:84] Creating Layer label_val-data_1_split
I0428 13:53:51.925232 31692 net.cpp:406] label_val-data_1_split <- label
I0428 13:53:51.925238 31692 net.cpp:380] label_val-data_1_split -> label_val-data_1_split_0
I0428 13:53:51.925247 31692 net.cpp:380] label_val-data_1_split -> label_val-data_1_split_1
I0428 13:53:51.925292 31692 net.cpp:122] Setting up label_val-data_1_split
I0428 13:53:51.925298 31692 net.cpp:129] Top shape: 32 (32)
I0428 13:53:51.925302 31692 net.cpp:129] Top shape: 32 (32)
I0428 13:53:51.925303 31692 net.cpp:137] Memory required for data: 19787520
I0428 13:53:51.925328 31692 layer_factory.hpp:77] Creating layer conv1
I0428 13:53:51.925338 31692 net.cpp:84] Creating Layer conv1
I0428 13:53:51.925341 31692 net.cpp:406] conv1 <- data
I0428 13:53:51.925346 31692 net.cpp:380] conv1 -> conv1
I0428 13:53:51.929116 31692 net.cpp:122] Setting up conv1
I0428 13:53:51.929128 31692 net.cpp:129] Top shape: 32 96 55 55 (9292800)
I0428 13:53:51.929131 31692 net.cpp:137] Memory required for data: 56958720
I0428 13:53:51.929141 31692 layer_factory.hpp:77] Creating layer relu1
I0428 13:53:51.929148 31692 net.cpp:84] Creating Layer relu1
I0428 13:53:51.929152 31692 net.cpp:406] relu1 <- conv1
I0428 13:53:51.929155 31692 net.cpp:367] relu1 -> conv1 (in-place)
I0428 13:53:51.929651 31692 net.cpp:122] Setting up relu1
I0428 13:53:51.929659 31692 net.cpp:129] Top shape: 32 96 55 55 (9292800)
I0428 13:53:51.929662 31692 net.cpp:137] Memory required for data: 94129920
I0428 13:53:51.929666 31692 layer_factory.hpp:77] Creating layer norm1
I0428 13:53:51.929673 31692 net.cpp:84] Creating Layer norm1
I0428 13:53:51.929677 31692 net.cpp:406] norm1 <- conv1
I0428 13:53:51.929682 31692 net.cpp:380] norm1 -> norm1
I0428 13:53:51.930011 31692 net.cpp:122] Setting up norm1
I0428 13:53:51.930019 31692 net.cpp:129] Top shape: 32 96 55 55 (9292800)
I0428 13:53:51.930022 31692 net.cpp:137] Memory required for data: 131301120
I0428 13:53:51.930025 31692 layer_factory.hpp:77] Creating layer pool1
I0428 13:53:51.930032 31692 net.cpp:84] Creating Layer pool1
I0428 13:53:51.930034 31692 net.cpp:406] pool1 <- norm1
I0428 13:53:51.930039 31692 net.cpp:380] pool1 -> pool1
I0428 13:53:51.930064 31692 net.cpp:122] Setting up pool1
I0428 13:53:51.930068 31692 net.cpp:129] Top shape: 32 96 27 27 (2239488)
I0428 13:53:51.930071 31692 net.cpp:137] Memory required for data: 140259072
I0428 13:53:51.930074 31692 layer_factory.hpp:77] Creating layer conv2
I0428 13:53:51.930083 31692 net.cpp:84] Creating Layer conv2
I0428 13:53:51.930085 31692 net.cpp:406] conv2 <- pool1
I0428 13:53:51.930089 31692 net.cpp:380] conv2 -> conv2
I0428 13:53:51.937165 31692 net.cpp:122] Setting up conv2
I0428 13:53:51.937180 31692 net.cpp:129] Top shape: 32 256 27 27 (5971968)
I0428 13:53:51.937182 31692 net.cpp:137] Memory required for data: 164146944
I0428 13:53:51.937192 31692 layer_factory.hpp:77] Creating layer relu2
I0428 13:53:51.937198 31692 net.cpp:84] Creating Layer relu2
I0428 13:53:51.937202 31692 net.cpp:406] relu2 <- conv2
I0428 13:53:51.937209 31692 net.cpp:367] relu2 -> conv2 (in-place)
I0428 13:53:51.938925 31692 net.cpp:122] Setting up relu2
I0428 13:53:51.938935 31692 net.cpp:129] Top shape: 32 256 27 27 (5971968)
I0428 13:53:51.938937 31692 net.cpp:137] Memory required for data: 188034816
I0428 13:53:51.938941 31692 layer_factory.hpp:77] Creating layer norm2
I0428 13:53:51.938951 31692 net.cpp:84] Creating Layer norm2
I0428 13:53:51.938954 31692 net.cpp:406] norm2 <- conv2
I0428 13:53:51.938961 31692 net.cpp:380] norm2 -> norm2
I0428 13:53:51.939549 31692 net.cpp:122] Setting up norm2
I0428 13:53:51.939559 31692 net.cpp:129] Top shape: 32 256 27 27 (5971968)
I0428 13:53:51.939563 31692 net.cpp:137] Memory required for data: 211922688
I0428 13:53:51.939565 31692 layer_factory.hpp:77] Creating layer pool2
I0428 13:53:51.939574 31692 net.cpp:84] Creating Layer pool2
I0428 13:53:51.939576 31692 net.cpp:406] pool2 <- norm2
I0428 13:53:51.939582 31692 net.cpp:380] pool2 -> pool2
I0428 13:53:51.939610 31692 net.cpp:122] Setting up pool2
I0428 13:53:51.939616 31692 net.cpp:129] Top shape: 32 256 13 13 (1384448)
I0428 13:53:51.939620 31692 net.cpp:137] Memory required for data: 217460480
I0428 13:53:51.939621 31692 layer_factory.hpp:77] Creating layer conv3
I0428 13:53:51.939632 31692 net.cpp:84] Creating Layer conv3
I0428 13:53:51.939635 31692 net.cpp:406] conv3 <- pool2
I0428 13:53:51.939640 31692 net.cpp:380] conv3 -> conv3
I0428 13:53:51.950183 31692 net.cpp:122] Setting up conv3
I0428 13:53:51.950201 31692 net.cpp:129] Top shape: 32 384 13 13 (2076672)
I0428 13:53:51.950204 31692 net.cpp:137] Memory required for data: 225767168
I0428 13:53:51.950237 31692 layer_factory.hpp:77] Creating layer relu3
I0428 13:53:51.950243 31692 net.cpp:84] Creating Layer relu3
I0428 13:53:51.950248 31692 net.cpp:406] relu3 <- conv3
I0428 13:53:51.950254 31692 net.cpp:367] relu3 -> conv3 (in-place)
I0428 13:53:51.950815 31692 net.cpp:122] Setting up relu3
I0428 13:53:51.950825 31692 net.cpp:129] Top shape: 32 384 13 13 (2076672)
I0428 13:53:51.950827 31692 net.cpp:137] Memory required for data: 234073856
I0428 13:53:51.950831 31692 layer_factory.hpp:77] Creating layer conv3.5
I0428 13:53:51.950843 31692 net.cpp:84] Creating Layer conv3.5
I0428 13:53:51.950847 31692 net.cpp:406] conv3.5 <- conv3
I0428 13:53:51.950852 31692 net.cpp:380] conv3.5 -> conv3.5
I0428 13:53:51.959493 31692 net.cpp:122] Setting up conv3.5
I0428 13:53:51.959507 31692 net.cpp:129] Top shape: 32 192 13 13 (1038336)
I0428 13:53:51.959511 31692 net.cpp:137] Memory required for data: 238227200
I0428 13:53:51.959517 31692 layer_factory.hpp:77] Creating layer relu3.5
I0428 13:53:51.959523 31692 net.cpp:84] Creating Layer relu3.5
I0428 13:53:51.959527 31692 net.cpp:406] relu3.5 <- conv3.5
I0428 13:53:51.959532 31692 net.cpp:367] relu3.5 -> conv3.5 (in-place)
I0428 13:53:51.960088 31692 net.cpp:122] Setting up relu3.5
I0428 13:53:51.960099 31692 net.cpp:129] Top shape: 32 192 13 13 (1038336)
I0428 13:53:51.960103 31692 net.cpp:137] Memory required for data: 242380544
I0428 13:53:51.960105 31692 layer_factory.hpp:77] Creating layer conv4
I0428 13:53:51.960115 31692 net.cpp:84] Creating Layer conv4
I0428 13:53:51.960119 31692 net.cpp:406] conv4 <- conv3.5
I0428 13:53:51.960124 31692 net.cpp:380] conv4 -> conv4
I0428 13:53:51.968883 31692 net.cpp:122] Setting up conv4
I0428 13:53:51.968902 31692 net.cpp:129] Top shape: 32 384 13 13 (2076672)
I0428 13:53:51.968905 31692 net.cpp:137] Memory required for data: 250687232
I0428 13:53:51.968919 31692 layer_factory.hpp:77] Creating layer relu4
I0428 13:53:51.968927 31692 net.cpp:84] Creating Layer relu4
I0428 13:53:51.968931 31692 net.cpp:406] relu4 <- conv4
I0428 13:53:51.968936 31692 net.cpp:367] relu4 -> conv4 (in-place)
I0428 13:53:51.969496 31692 net.cpp:122] Setting up relu4
I0428 13:53:51.969509 31692 net.cpp:129] Top shape: 32 384 13 13 (2076672)
I0428 13:53:51.969513 31692 net.cpp:137] Memory required for data: 258993920
I0428 13:53:51.969516 31692 layer_factory.hpp:77] Creating layer conv5
I0428 13:53:51.969530 31692 net.cpp:84] Creating Layer conv5
I0428 13:53:51.969533 31692 net.cpp:406] conv5 <- conv4
I0428 13:53:51.969539 31692 net.cpp:380] conv5 -> conv5
I0428 13:53:51.979099 31692 net.cpp:122] Setting up conv5
I0428 13:53:51.979116 31692 net.cpp:129] Top shape: 32 256 13 13 (1384448)
I0428 13:53:51.979120 31692 net.cpp:137] Memory required for data: 264531712
I0428 13:53:51.979128 31692 layer_factory.hpp:77] Creating layer relu5
I0428 13:53:51.979135 31692 net.cpp:84] Creating Layer relu5
I0428 13:53:51.979140 31692 net.cpp:406] relu5 <- conv5
I0428 13:53:51.979146 31692 net.cpp:367] relu5 -> conv5 (in-place)
I0428 13:53:51.979528 31692 net.cpp:122] Setting up relu5
I0428 13:53:51.979537 31692 net.cpp:129] Top shape: 32 256 13 13 (1384448)
I0428 13:53:51.979539 31692 net.cpp:137] Memory required for data: 270069504
I0428 13:53:51.979542 31692 layer_factory.hpp:77] Creating layer pool5
I0428 13:53:51.979549 31692 net.cpp:84] Creating Layer pool5
I0428 13:53:51.979552 31692 net.cpp:406] pool5 <- conv5
I0428 13:53:51.979558 31692 net.cpp:380] pool5 -> pool5
I0428 13:53:51.979593 31692 net.cpp:122] Setting up pool5
I0428 13:53:51.979600 31692 net.cpp:129] Top shape: 32 256 6 6 (294912)
I0428 13:53:51.979604 31692 net.cpp:137] Memory required for data: 271249152
I0428 13:53:51.979606 31692 layer_factory.hpp:77] Creating layer fc6
I0428 13:53:51.979614 31692 net.cpp:84] Creating Layer fc6
I0428 13:53:51.979616 31692 net.cpp:406] fc6 <- pool5
I0428 13:53:51.979621 31692 net.cpp:380] fc6 -> fc6
I0428 13:53:52.338035 31692 net.cpp:122] Setting up fc6
I0428 13:53:52.338052 31692 net.cpp:129] Top shape: 32 4096 (131072)
I0428 13:53:52.338078 31692 net.cpp:137] Memory required for data: 271773440
I0428 13:53:52.338088 31692 layer_factory.hpp:77] Creating layer relu6
I0428 13:53:52.338095 31692 net.cpp:84] Creating Layer relu6
I0428 13:53:52.338099 31692 net.cpp:406] relu6 <- fc6
I0428 13:53:52.338107 31692 net.cpp:367] relu6 -> fc6 (in-place)
I0428 13:53:52.338896 31692 net.cpp:122] Setting up relu6
I0428 13:53:52.338905 31692 net.cpp:129] Top shape: 32 4096 (131072)
I0428 13:53:52.338908 31692 net.cpp:137] Memory required for data: 272297728
I0428 13:53:52.338912 31692 layer_factory.hpp:77] Creating layer drop6
I0428 13:53:52.338918 31692 net.cpp:84] Creating Layer drop6
I0428 13:53:52.338922 31692 net.cpp:406] drop6 <- fc6
I0428 13:53:52.338925 31692 net.cpp:367] drop6 -> fc6 (in-place)
I0428 13:53:52.338950 31692 net.cpp:122] Setting up drop6
I0428 13:53:52.338955 31692 net.cpp:129] Top shape: 32 4096 (131072)
I0428 13:53:52.338958 31692 net.cpp:137] Memory required for data: 272822016
I0428 13:53:52.338960 31692 layer_factory.hpp:77] Creating layer fc7
I0428 13:53:52.338968 31692 net.cpp:84] Creating Layer fc7
I0428 13:53:52.338970 31692 net.cpp:406] fc7 <- fc6
I0428 13:53:52.338975 31692 net.cpp:380] fc7 -> fc7
I0428 13:53:52.498080 31692 net.cpp:122] Setting up fc7
I0428 13:53:52.498102 31692 net.cpp:129] Top shape: 32 4096 (131072)
I0428 13:53:52.498106 31692 net.cpp:137] Memory required for data: 273346304
I0428 13:53:52.498114 31692 layer_factory.hpp:77] Creating layer relu7
I0428 13:53:52.498122 31692 net.cpp:84] Creating Layer relu7
I0428 13:53:52.498126 31692 net.cpp:406] relu7 <- fc7
I0428 13:53:52.498132 31692 net.cpp:367] relu7 -> fc7 (in-place)
I0428 13:53:52.498905 31692 net.cpp:122] Setting up relu7
I0428 13:53:52.498915 31692 net.cpp:129] Top shape: 32 4096 (131072)
I0428 13:53:52.498919 31692 net.cpp:137] Memory required for data: 273870592
I0428 13:53:52.498921 31692 layer_factory.hpp:77] Creating layer drop7
I0428 13:53:52.498927 31692 net.cpp:84] Creating Layer drop7
I0428 13:53:52.498931 31692 net.cpp:406] drop7 <- fc7
I0428 13:53:52.498936 31692 net.cpp:367] drop7 -> fc7 (in-place)
I0428 13:53:52.498962 31692 net.cpp:122] Setting up drop7
I0428 13:53:52.498966 31692 net.cpp:129] Top shape: 32 4096 (131072)
I0428 13:53:52.498970 31692 net.cpp:137] Memory required for data: 274394880
I0428 13:53:52.498971 31692 layer_factory.hpp:77] Creating layer fc8
I0428 13:53:52.498978 31692 net.cpp:84] Creating Layer fc8
I0428 13:53:52.498981 31692 net.cpp:406] fc8 <- fc7
I0428 13:53:52.498986 31692 net.cpp:380] fc8 -> fc8
I0428 13:53:52.506740 31692 net.cpp:122] Setting up fc8
I0428 13:53:52.506750 31692 net.cpp:129] Top shape: 32 196 (6272)
I0428 13:53:52.506753 31692 net.cpp:137] Memory required for data: 274419968
I0428 13:53:52.506765 31692 layer_factory.hpp:77] Creating layer fc8_fc8_0_split
I0428 13:53:52.506772 31692 net.cpp:84] Creating Layer fc8_fc8_0_split
I0428 13:53:52.506774 31692 net.cpp:406] fc8_fc8_0_split <- fc8
I0428 13:53:52.506780 31692 net.cpp:380] fc8_fc8_0_split -> fc8_fc8_0_split_0
I0428 13:53:52.506786 31692 net.cpp:380] fc8_fc8_0_split -> fc8_fc8_0_split_1
I0428 13:53:52.506816 31692 net.cpp:122] Setting up fc8_fc8_0_split
I0428 13:53:52.506821 31692 net.cpp:129] Top shape: 32 196 (6272)
I0428 13:53:52.506824 31692 net.cpp:129] Top shape: 32 196 (6272)
I0428 13:53:52.506826 31692 net.cpp:137] Memory required for data: 274470144
I0428 13:53:52.506829 31692 layer_factory.hpp:77] Creating layer accuracy
I0428 13:53:52.506836 31692 net.cpp:84] Creating Layer accuracy
I0428 13:53:52.506839 31692 net.cpp:406] accuracy <- fc8_fc8_0_split_0
I0428 13:53:52.506844 31692 net.cpp:406] accuracy <- label_val-data_1_split_0
I0428 13:53:52.506847 31692 net.cpp:380] accuracy -> accuracy
…
