…
I0410 00:09:26.626940 14511 net.cpp:294] The NetState phase (0) differed from the phase (1) specified by a rule in layer accuracy
I0410 00:09:26.627069 14511 net.cpp:51] Initializing net from parameters:
state {
phase: TRAIN
level: 0
stage: ""
}
layer {
name: "train-data"
type: "Data"
top: "data"
top: "label"
include {
phase: TRAIN
}
transform_param {
mirror: true
crop_size: 227
mean_file: "/mnt/bigdisk/DIGITS-MAN-2/digits/jobs/20210407-214532-d396/mean.binaryproto"
}
data_param {
source: "/mnt/bigdisk/DIGITS-MAN-2/digits/jobs/20210407-214532-d396/train_db"
batch_size: 128
backend: LMDB
}
}
layer {
name: "conv1"
type: "Convolution"
bottom: "data"
top: "conv1"
param {
lr_mult: 1
decay_mult: 1
}
param {
lr_mult: 2
decay_mult: 0
}
convolution_param {
num_output: 96
kernel_size: 11
stride: 4
weight_filler {
type: "gaussian"
std: 0.01
}
bias_filler {
type: "constant"
value: 0
}
}
}
layer {
name: "relu1"
type: "ReLU"
bottom: "conv1"
top: "conv1"
}
layer {
name: "norm1"
type: "LRN"
bottom: "conv1"
top: "norm1"
lrn_param {
local_size: 5
alpha: 0.0001
beta: 0.75
}
}
layer {
name: "pool1"
type: "Pooling"
bottom: "norm1"
top: "pool1"
pooling_param {
pool: MAX
kernel_size: 3
stride: 2
}
}
layer {
name: "conv2"
type: "Convolution"
bottom: "pool1"
top: "conv2"
param {
lr_mult: 1
decay_mult: 1
}
param {
lr_mult: 2
decay_mult: 0
}
convolution_param {
num_output: 256
pad: 2
kernel_size: 5
group: 2
weight_filler {
type: "gaussian"
std: 0.01
}
bias_filler {
type: "constant"
value: 0.1
}
}
}
layer {
name: "relu2"
type: "ReLU"
bottom: "conv2"
top: "conv2"
}
layer {
name: "norm2"
type: "LRN"
bottom: "conv2"
top: "norm2"
lrn_param {
local_size: 5
alpha: 0.0001
beta: 0.75
}
}
layer {
name: "pool2"
type: "Pooling"
bottom: "norm2"
top: "pool2"
pooling_param {
pool: MAX
kernel_size: 3
stride: 2
}
}
layer {
name: "conv3"
type: "Convolution"
bottom: "pool2"
top: "conv3"
param {
lr_mult: 1
decay_mult: 1
}
param {
lr_mult: 2
decay_mult: 0
}
convolution_param {
num_output: 384
pad: 1
kernel_size: 3
weight_filler {
type: "gaussian"
std: 0.01
}
bias_filler {
type: "constant"
value: 0
}
}
}
layer {
name: "relu3"
type: "ReLU"
bottom: "conv3"
top: "conv3"
}
layer {
name: "conv4"
type: "Convolution"
bottom: "conv3"
top: "conv4"
param {
lr_mult: 1
decay_mult: 1
}
param {
lr_mult: 2
decay_mult: 0
}
convolution_param {
num_output: 384
pad: 1
kernel_size: 3
group: 2
weight_filler {
type: "gaussian"
std: 0.01
}
bias_filler {
type: "constant"
value: 0.1
}
}
}
layer {
name: "relu4"
type: "ReLU"
bottom: "conv4"
top: "conv4"
}
layer {
name: "conv5"
type: "Convolution"
bottom: "conv4"
top: "conv5"
param {
lr_mult: 1
decay_mult: 1
}
param {
lr_mult: 2
decay_mult: 0
}
convolution_param {
num_output: 256
pad: 1
kernel_size: 3
group: 2
weight_filler {
type: "gaussian"
std: 0.01
}
bias_filler {
type: "constant"
value: 0.1
}
}
}
layer {
name: "relu5"
type: "ReLU"
bottom: "conv5"
top: "conv5"
}
layer {
name: "pool5"
type: "Pooling"
bottom: "conv5"
top: "pool5"
pooling_param {
pool: MAX
kernel_size: 3
stride: 2
}
}
layer {
name: "fc6"
type: "InnerProduct"
bottom: "pool5"
top: "fc6"
param {
lr_mult: 1
decay_mult: 1
}
param {
lr_mult: 2
decay_mult: 0
}
inner_product_param {
num_output: 8192
weight_filler {
type: "gaussian"
std: 0.005
}
bias_filler {
type: "constant"
value: 0.1
}
}
}
layer {
name: "relu6"
type: "ReLU"
bottom: "fc6"
top: "fc6"
}
layer {
name: "drop6"
type: "Dropout"
bottom: "fc6"
top: "fc6"
dropout_param {
dropout_ratio: 0.5
}
}
layer {
name: "fc7"
type: "InnerProduct"
bottom: "fc6"
top: "fc7"
param {
lr_mult: 1
decay_mult: 1
}
param {
lr_mult: 2
decay_mult: 0
}
inner_product_param {
num_output: 8192
weight_filler {
type: "gaussian"
std: 0.005
}
bias_filler {
type: "constant"
value: 0.1
}
}
}
layer {
name: "relu7"
type: "ReLU"
bottom: "fc7"
top: "fc7"
}
layer {
name: "drop7"
type: "Dropout"
bottom: "fc7"
top: "fc7"
dropout_param {
dropout_ratio: 0.5
}
}
layer {
name: "fc8"
type: "InnerProduct"
bottom: "fc7"
top: "fc8"
param {
lr_mult: 1
decay_mult: 1
}
param {
lr_mult: 2
decay_mult: 0
}
inner_product_param {
num_output: 196
weight_filler {
type: "gaussian"
std: 0.01
}
bias_filler {
type: "constant"
value: 0
}
}
}
layer {
name: "loss"
type: "SoftmaxWithLoss"
bottom: "fc8"
bottom: "label"
top: "loss"
}
I0410 00:09:26.627151 14511 layer_factory.hpp:77] Creating layer train-data
I0410 00:09:26.629441 14511 db_lmdb.cpp:35] Opened lmdb /mnt/bigdisk/DIGITS-MAN-2/digits/jobs/20210407-214532-d396/train_db
I0410 00:09:26.629628 14511 net.cpp:84] Creating Layer train-data
I0410 00:09:26.629639 14511 net.cpp:380] train-data -> data
I0410 00:09:26.629658 14511 net.cpp:380] train-data -> label
I0410 00:09:26.629669 14511 data_transformer.cpp:25] Loading mean file from: /mnt/bigdisk/DIGITS-MAN-2/digits/jobs/20210407-214532-d396/mean.binaryproto
I0410 00:09:26.634279 14511 data_layer.cpp:45] output data size: 128,3,227,227
I0410 00:09:26.757560 14511 net.cpp:122] Setting up train-data
I0410 00:09:26.757583 14511 net.cpp:129] Top shape: 128 3 227 227 (19787136)
I0410 00:09:26.757589 14511 net.cpp:129] Top shape: 128 (128)
I0410 00:09:26.757592 14511 net.cpp:137] Memory required for data: 79149056
I0410 00:09:26.757601 14511 layer_factory.hpp:77] Creating layer conv1
I0410 00:09:26.757622 14511 net.cpp:84] Creating Layer conv1
I0410 00:09:26.757627 14511 net.cpp:406] conv1 <- data
I0410 00:09:26.757640 14511 net.cpp:380] conv1 -> conv1
I0410 00:09:27.310844 14511 net.cpp:122] Setting up conv1
I0410 00:09:27.310869 14511 net.cpp:129] Top shape: 128 96 55 55 (37171200)
I0410 00:09:27.310875 14511 net.cpp:137] Memory required for data: 227833856
I0410 00:09:27.310896 14511 layer_factory.hpp:77] Creating layer relu1
I0410 00:09:27.310909 14511 net.cpp:84] Creating Layer relu1
I0410 00:09:27.310914 14511 net.cpp:406] relu1 <- conv1
I0410 00:09:27.310920 14511 net.cpp:367] relu1 -> conv1 (in-place)
I0410 00:09:27.311211 14511 net.cpp:122] Setting up relu1
I0410 00:09:27.311223 14511 net.cpp:129] Top shape: 128 96 55 55 (37171200)
I0410 00:09:27.311226 14511 net.cpp:137] Memory required for data: 376518656
I0410 00:09:27.311231 14511 layer_factory.hpp:77] Creating layer norm1
I0410 00:09:27.311241 14511 net.cpp:84] Creating Layer norm1
I0410 00:09:27.311245 14511 net.cpp:406] norm1 <- conv1
I0410 00:09:27.311275 14511 net.cpp:380] norm1 -> norm1
I0410 00:09:27.311730 14511 net.cpp:122] Setting up norm1
I0410 00:09:27.311743 14511 net.cpp:129] Top shape: 128 96 55 55 (37171200)
I0410 00:09:27.311746 14511 net.cpp:137] Memory required for data: 525203456
I0410 00:09:27.311750 14511 layer_factory.hpp:77] Creating layer pool1
I0410 00:09:27.311760 14511 net.cpp:84] Creating Layer pool1
I0410 00:09:27.311764 14511 net.cpp:406] pool1 <- norm1
I0410 00:09:27.311769 14511 net.cpp:380] pool1 -> pool1
I0410 00:09:27.311807 14511 net.cpp:122] Setting up pool1
I0410 00:09:27.311815 14511 net.cpp:129] Top shape: 128 96 27 27 (8957952)
I0410 00:09:27.311818 14511 net.cpp:137] Memory required for data: 561035264
I0410 00:09:27.311822 14511 layer_factory.hpp:77] Creating layer conv2
I0410 00:09:27.311833 14511 net.cpp:84] Creating Layer conv2
I0410 00:09:27.311836 14511 net.cpp:406] conv2 <- pool1
I0410 00:09:27.311842 14511 net.cpp:380] conv2 -> conv2
I0410 00:09:27.321084 14511 net.cpp:122] Setting up conv2
I0410 00:09:27.321103 14511 net.cpp:129] Top shape: 128 256 27 27 (23887872)
I0410 00:09:27.321108 14511 net.cpp:137] Memory required for data: 656586752
I0410 00:09:27.321118 14511 layer_factory.hpp:77] Creating layer relu2
I0410 00:09:27.321126 14511 net.cpp:84] Creating Layer relu2
I0410 00:09:27.321130 14511 net.cpp:406] relu2 <- conv2
I0410 00:09:27.321136 14511 net.cpp:367] relu2 -> conv2 (in-place)
I0410 00:09:27.321557 14511 net.cpp:122] Setting up relu2
I0410 00:09:27.321568 14511 net.cpp:129] Top shape: 128 256 27 27 (23887872)
I0410 00:09:27.321570 14511 net.cpp:137] Memory required for data: 752138240
I0410 00:09:27.321574 14511 layer_factory.hpp:77] Creating layer norm2
I0410 00:09:27.321583 14511 net.cpp:84] Creating Layer norm2
I0410 00:09:27.321586 14511 net.cpp:406] norm2 <- conv2
I0410 00:09:27.321592 14511 net.cpp:380] norm2 -> norm2
I0410 00:09:27.321882 14511 net.cpp:122] Setting up norm2
I0410 00:09:27.321890 14511 net.cpp:129] Top shape: 128 256 27 27 (23887872)
I0410 00:09:27.321894 14511 net.cpp:137] Memory required for data: 847689728
I0410 00:09:27.321898 14511 layer_factory.hpp:77] Creating layer pool2
I0410 00:09:27.321907 14511 net.cpp:84] Creating Layer pool2
I0410 00:09:27.321910 14511 net.cpp:406] pool2 <- norm2
I0410 00:09:27.321915 14511 net.cpp:380] pool2 -> pool2
I0410 00:09:27.321943 14511 net.cpp:122] Setting up pool2
I0410 00:09:27.321949 14511 net.cpp:129] Top shape: 128 256 13 13 (5537792)
I0410 00:09:27.321951 14511 net.cpp:137] Memory required for data: 869840896
I0410 00:09:27.321974 14511 layer_factory.hpp:77] Creating layer conv3
I0410 00:09:27.321983 14511 net.cpp:84] Creating Layer conv3
I0410 00:09:27.321987 14511 net.cpp:406] conv3 <- pool2
I0410 00:09:27.321993 14511 net.cpp:380] conv3 -> conv3
I0410 00:09:27.331835 14511 net.cpp:122] Setting up conv3
I0410 00:09:27.331851 14511 net.cpp:129] Top shape: 128 384 13 13 (8306688)
I0410 00:09:27.331854 14511 net.cpp:137] Memory required for data: 903067648
I0410 00:09:27.331866 14511 layer_factory.hpp:77] Creating layer relu3
I0410 00:09:27.331871 14511 net.cpp:84] Creating Layer relu3
I0410 00:09:27.331876 14511 net.cpp:406] relu3 <- conv3
I0410 00:09:27.331881 14511 net.cpp:367] relu3 -> conv3 (in-place)
I0410 00:09:27.332320 14511 net.cpp:122] Setting up relu3
I0410 00:09:27.332331 14511 net.cpp:129] Top shape: 128 384 13 13 (8306688)
I0410 00:09:27.332335 14511 net.cpp:137] Memory required for data: 936294400
I0410 00:09:27.332340 14511 layer_factory.hpp:77] Creating layer conv4
I0410 00:09:27.332350 14511 net.cpp:84] Creating Layer conv4
I0410 00:09:27.332353 14511 net.cpp:406] conv4 <- conv3
I0410 00:09:27.332360 14511 net.cpp:380] conv4 -> conv4
I0410 00:09:27.343977 14511 net.cpp:122] Setting up conv4
I0410 00:09:27.343994 14511 net.cpp:129] Top shape: 128 384 13 13 (8306688)
I0410 00:09:27.343998 14511 net.cpp:137] Memory required for data: 969521152
I0410 00:09:27.344007 14511 layer_factory.hpp:77] Creating layer relu4
I0410 00:09:27.344017 14511 net.cpp:84] Creating Layer relu4
I0410 00:09:27.344038 14511 net.cpp:406] relu4 <- conv4
I0410 00:09:27.344044 14511 net.cpp:367] relu4 -> conv4 (in-place)
I0410 00:09:27.344347 14511 net.cpp:122] Setting up relu4
I0410 00:09:27.344357 14511 net.cpp:129] Top shape: 128 384 13 13 (8306688)
I0410 00:09:27.344360 14511 net.cpp:137] Memory required for data: 1002747904
I0410 00:09:27.344364 14511 layer_factory.hpp:77] Creating layer conv5
I0410 00:09:27.344374 14511 net.cpp:84] Creating Layer conv5
I0410 00:09:27.344379 14511 net.cpp:406] conv5 <- conv4
I0410 00:09:27.344385 14511 net.cpp:380] conv5 -> conv5
I0410 00:09:27.352809 14511 net.cpp:122] Setting up conv5
I0410 00:09:27.352826 14511 net.cpp:129] Top shape: 128 256 13 13 (5537792)
I0410 00:09:27.352830 14511 net.cpp:137] Memory required for data: 1024899072
I0410 00:09:27.352843 14511 layer_factory.hpp:77] Creating layer relu5
I0410 00:09:27.352851 14511 net.cpp:84] Creating Layer relu5
I0410 00:09:27.352855 14511 net.cpp:406] relu5 <- conv5
I0410 00:09:27.352861 14511 net.cpp:367] relu5 -> conv5 (in-place)
I0410 00:09:27.353341 14511 net.cpp:122] Setting up relu5
I0410 00:09:27.353351 14511 net.cpp:129] Top shape: 128 256 13 13 (5537792)
I0410 00:09:27.353355 14511 net.cpp:137] Memory required for data: 1047050240
I0410 00:09:27.353359 14511 layer_factory.hpp:77] Creating layer pool5
I0410 00:09:27.353365 14511 net.cpp:84] Creating Layer pool5
I0410 00:09:27.353369 14511 net.cpp:406] pool5 <- conv5
I0410 00:09:27.353376 14511 net.cpp:380] pool5 -> pool5
I0410 00:09:27.353415 14511 net.cpp:122] Setting up pool5
I0410 00:09:27.353421 14511 net.cpp:129] Top shape: 128 256 6 6 (1179648)
I0410 00:09:27.353425 14511 net.cpp:137] Memory required for data: 1051768832
I0410 00:09:27.353427 14511 layer_factory.hpp:77] Creating layer fc6
I0410 00:09:27.353438 14511 net.cpp:84] Creating Layer fc6
I0410 00:09:27.353442 14511 net.cpp:406] fc6 <- pool5
I0410 00:09:27.353448 14511 net.cpp:380] fc6 -> fc6
I0410 00:09:28.073388 14511 net.cpp:122] Setting up fc6
I0410 00:09:28.073405 14511 net.cpp:129] Top shape: 128 8192 (1048576)
I0410 00:09:28.073408 14511 net.cpp:137] Memory required for data: 1055963136
I0410 00:09:28.073418 14511 layer_factory.hpp:77] Creating layer relu6
I0410 00:09:28.073428 14511 net.cpp:84] Creating Layer relu6
I0410 00:09:28.073433 14511 net.cpp:406] relu6 <- fc6
I0410 00:09:28.073441 14511 net.cpp:367] relu6 -> fc6 (in-place)
I0410 00:09:28.077061 14511 net.cpp:122] Setting up relu6
I0410 00:09:28.077073 14511 net.cpp:129] Top shape: 128 8192 (1048576)
I0410 00:09:28.077076 14511 net.cpp:137] Memory required for data: 1060157440
I0410 00:09:28.077080 14511 layer_factory.hpp:77] Creating layer drop6
I0410 00:09:28.077088 14511 net.cpp:84] Creating Layer drop6
I0410 00:09:28.077092 14511 net.cpp:406] drop6 <- fc6
I0410 00:09:28.077098 14511 net.cpp:367] drop6 -> fc6 (in-place)
I0410 00:09:28.077128 14511 net.cpp:122] Setting up drop6
I0410 00:09:28.077134 14511 net.cpp:129] Top shape: 128 8192 (1048576)
I0410 00:09:28.077137 14511 net.cpp:137] Memory required for data: 1064351744
I0410 00:09:28.077140 14511 layer_factory.hpp:77] Creating layer fc7
I0410 00:09:28.077148 14511 net.cpp:84] Creating Layer fc7
I0410 00:09:28.077152 14511 net.cpp:406] fc7 <- fc6
I0410 00:09:28.077158 14511 net.cpp:380] fc7 -> fc7
I0410 00:09:28.718230 14511 net.cpp:122] Setting up fc7
I0410 00:09:28.718253 14511 net.cpp:129] Top shape: 128 8192 (1048576)
I0410 00:09:28.718258 14511 net.cpp:137] Memory required for data: 1068546048
I0410 00:09:28.718268 14511 layer_factory.hpp:77] Creating layer relu7
I0410 00:09:28.718277 14511 net.cpp:84] Creating Layer relu7
I0410 00:09:28.718282 14511 net.cpp:406] relu7 <- fc7
I0410 00:09:28.718288 14511 net.cpp:367] relu7 -> fc7 (in-place)
I0410 00:09:28.718904 14511 net.cpp:122] Setting up relu7
I0410 00:09:28.718914 14511 net.cpp:129] Top shape: 128 8192 (1048576)
I0410 00:09:28.718919 14511 net.cpp:137] Memory required for data: 1072740352
I0410 00:09:28.718922 14511 layer_factory.hpp:77] Creating layer drop7
I0410 00:09:28.718930 14511 net.cpp:84] Creating Layer drop7
I0410 00:09:28.718959 14511 net.cpp:406] drop7 <- fc7
I0410 00:09:28.718967 14511 net.cpp:367] drop7 -> fc7 (in-place)
I0410 00:09:28.718992 14511 net.cpp:122] Setting up drop7
I0410 00:09:28.718999 14511 net.cpp:129] Top shape: 128 8192 (1048576)
I0410 00:09:28.719002 14511 net.cpp:137] Memory required for data: 1076934656
I0410 00:09:28.719007 14511 layer_factory.hpp:77] Creating layer fc8
I0410 00:09:28.719014 14511 net.cpp:84] Creating Layer fc8
I0410 00:09:28.719018 14511 net.cpp:406] fc8 <- fc7
I0410 00:09:28.719024 14511 net.cpp:380] fc8 -> fc8
I0410 00:09:28.734736 14511 net.cpp:122] Setting up fc8
I0410 00:09:28.734753 14511 net.cpp:129] Top shape: 128 196 (25088)
I0410 00:09:28.734757 14511 net.cpp:137] Memory required for data: 1077035008
I0410 00:09:28.734766 14511 layer_factory.hpp:77] Creating layer loss
I0410 00:09:28.734776 14511 net.cpp:84] Creating Layer loss
I0410 00:09:28.734781 14511 net.cpp:406] loss <- fc8
I0410 00:09:28.734786 14511 net.cpp:406] loss <- label
I0410 00:09:28.734794 14511 net.cpp:380] loss -> loss
I0410 00:09:28.734805 14511 layer_factory.hpp:77] Creating layer loss
…
I0410 00:09:28.736140 14511 net.cpp:294] The NetState phase (1) differed from the phase (0) specified by a rule in layer train-data
I0410 00:09:28.736279 14511 net.cpp:51] Initializing net from parameters:
state {
phase: TEST
}
layer {
name: "val-data"
type: "Data"
top: "data"
top: "label"
include {
phase: TEST
}
transform_param {
crop_size: 227
mean_file: "/mnt/bigdisk/DIGITS-MAN-2/digits/jobs/20210407-214532-d396/mean.binaryproto"
}
data_param {
source: "/mnt/bigdisk/DIGITS-MAN-2/digits/jobs/20210407-214532-d396/val_db"
batch_size: 32
backend: LMDB
}
}
layer {
name: "conv1"
type: "Convolution"
bottom: "data"
top: "conv1"
param {
lr_mult: 1
decay_mult: 1
}
param {
lr_mult: 2
decay_mult: 0
}
convolution_param {
num_output: 96
kernel_size: 11
stride: 4
weight_filler {
type: "gaussian"
std: 0.01
}
bias_filler {
type: "constant"
value: 0
}
}
}
layer {
name: "relu1"
type: "ReLU"
bottom: "conv1"
top: "conv1"
}
layer {
name: "norm1"
type: "LRN"
bottom: "conv1"
top: "norm1"
lrn_param {
local_size: 5
alpha: 0.0001
beta: 0.75
}
}
layer {
name: "pool1"
type: "Pooling"
bottom: "norm1"
top: "pool1"
pooling_param {
pool: MAX
kernel_size: 3
stride: 2
}
}
layer {
name: "conv2"
type: "Convolution"
bottom: "pool1"
top: "conv2"
param {
lr_mult: 1
decay_mult: 1
}
param {
lr_mult: 2
decay_mult: 0
}
convolution_param {
num_output: 256
pad: 2
kernel_size: 5
group: 2
weight_filler {
type: "gaussian"
std: 0.01
}
bias_filler {
type: "constant"
value: 0.1
}
}
}
layer {
name: "relu2"
type: "ReLU"
bottom: "conv2"
top: "conv2"
}
layer {
name: "norm2"
type: "LRN"
bottom: "conv2"
top: "norm2"
lrn_param {
local_size: 5
alpha: 0.0001
beta: 0.75
}
}
layer {
name: "pool2"
type: "Pooling"
bottom: "norm2"
top: "pool2"
pooling_param {
pool: MAX
kernel_size: 3
stride: 2
}
}
layer {
name: "conv3"
type: "Convolution"
bottom: "pool2"
top: "conv3"
param {
lr_mult: 1
decay_mult: 1
}
param {
lr_mult: 2
decay_mult: 0
}
convolution_param {
num_output: 384
pad: 1
kernel_size: 3
weight_filler {
type: "gaussian"
std: 0.01
}
bias_filler {
type: "constant"
value: 0
}
}
}
layer {
name: "relu3"
type: "ReLU"
bottom: "conv3"
top: "conv3"
}
layer {
name: "conv4"
type: "Convolution"
bottom: "conv3"
top: "conv4"
param {
lr_mult: 1
decay_mult: 1
}
param {
lr_mult: 2
decay_mult: 0
}
convolution_param {
num_output: 384
pad: 1
kernel_size: 3
group: 2
weight_filler {
type: "gaussian"
std: 0.01
}
bias_filler {
type: "constant"
value: 0.1
}
}
}
layer {
name: "relu4"
type: "ReLU"
bottom: "conv4"
top: "conv4"
}
layer {
name: "conv5"
type: "Convolution"
bottom: "conv4"
top: "conv5"
param {
lr_mult: 1
decay_mult: 1
}
param {
lr_mult: 2
decay_mult: 0
}
convolution_param {
num_output: 256
pad: 1
kernel_size: 3
group: 2
weight_filler {
type: "gaussian"
std: 0.01
}
bias_filler {
type: "constant"
value: 0.1
}
}
}
layer {
name: "relu5"
type: "ReLU"
bottom: "conv5"
top: "conv5"
}
layer {
name: "pool5"
type: "Pooling"
bottom: "conv5"
top: "pool5"
pooling_param {
pool: MAX
kernel_size: 3
stride: 2
}
}
layer {
name: "fc6"
type: "InnerProduct"
bottom: "pool5"
top: "fc6"
param {
lr_mult: 1
decay_mult: 1
}
param {
lr_mult: 2
decay_mult: 0
}
inner_product_param {
num_output: 8192
weight_filler {
type: "gaussian"
std: 0.005
}
bias_filler {
type: "constant"
value: 0.1
}
}
}
layer {
name: "relu6"
type: "ReLU"
bottom: "fc6"
top: "fc6"
}
layer {
name: "drop6"
type: "Dropout"
bottom: "fc6"
top: "fc6"
dropout_param {
dropout_ratio: 0.5
}
}
layer {
name: "fc7"
type: "InnerProduct"
bottom: "fc6"
top: "fc7"
param {
lr_mult: 1
decay_mult: 1
}
param {
lr_mult: 2
decay_mult: 0
}
inner_product_param {
num_output: 8192
weight_filler {
type: "gaussian"
std: 0.005
}
bias_filler {
type: "constant"
value: 0.1
}
}
}
layer {
name: "relu7"
type: "ReLU"
bottom: "fc7"
top: "fc7"
}
layer {
name: "drop7"
type: "Dropout"
bottom: "fc7"
top: "fc7"
dropout_param {
dropout_ratio: 0.5
}
}
layer {
name: "fc8"
type: "InnerProduct"
bottom: "fc7"
top: "fc8"
param {
lr_mult: 1
decay_mult: 1
}
param {
lr_mult: 2
decay_mult: 0
}
inner_product_param {
num_output: 196
weight_filler {
type: "gaussian"
std: 0.01
}
bias_filler {
type: "constant"
value: 0
}
}
}
layer {
name: "accuracy"
type: "Accuracy"
bottom: "fc8"
bottom: "label"
top: "accuracy"
include {
phase: TEST
}
}
layer {
name: "loss"
type: "SoftmaxWithLoss"
bottom: "fc8"
bottom: "label"
top: "loss"
}
I0410 00:09:28.736382 14511 layer_factory.hpp:77] Creating layer val-data
I0410 00:09:28.737849 14511 db_lmdb.cpp:35] Opened lmdb /mnt/bigdisk/DIGITS-MAN-2/digits/jobs/20210407-214532-d396/val_db
I0410 00:09:28.738059 14511 net.cpp:84] Creating Layer val-data
I0410 00:09:28.738070 14511 net.cpp:380] val-data -> data
I0410 00:09:28.738078 14511 net.cpp:380] val-data -> label
I0410 00:09:28.738085 14511 data_transformer.cpp:25] Loading mean file from: /mnt/bigdisk/DIGITS-MAN-2/digits/jobs/20210407-214532-d396/mean.binaryproto
I0410 00:09:28.741923 14511 data_layer.cpp:45] output data size: 32,3,227,227
I0410 00:09:28.774201 14511 net.cpp:122] Setting up val-data
I0410 00:09:28.774224 14511 net.cpp:129] Top shape: 32 3 227 227 (4946784)
I0410 00:09:28.774230 14511 net.cpp:129] Top shape: 32 (32)
I0410 00:09:28.774233 14511 net.cpp:137] Memory required for data: 19787264
I0410 00:09:28.774240 14511 layer_factory.hpp:77] Creating layer label_val-data_1_split
I0410 00:09:28.774252 14511 net.cpp:84] Creating Layer label_val-data_1_split
I0410 00:09:28.774256 14511 net.cpp:406] label_val-data_1_split <- label
I0410 00:09:28.774263 14511 net.cpp:380] label_val-data_1_split -> label_val-data_1_split_0
I0410 00:09:28.774272 14511 net.cpp:380] label_val-data_1_split -> label_val-data_1_split_1
I0410 00:09:28.774322 14511 net.cpp:122] Setting up label_val-data_1_split
I0410 00:09:28.774328 14511 net.cpp:129] Top shape: 32 (32)
I0410 00:09:28.774331 14511 net.cpp:129] Top shape: 32 (32)
I0410 00:09:28.774335 14511 net.cpp:137] Memory required for data: 19787520
I0410 00:09:28.774338 14511 layer_factory.hpp:77] Creating layer conv1
I0410 00:09:28.774350 14511 net.cpp:84] Creating Layer conv1
I0410 00:09:28.774353 14511 net.cpp:406] conv1 <- data
I0410 00:09:28.774359 14511 net.cpp:380] conv1 -> conv1
I0410 00:09:28.776281 14511 net.cpp:122] Setting up conv1
I0410 00:09:28.776293 14511 net.cpp:129] Top shape: 32 96 55 55 (9292800)
I0410 00:09:28.776295 14511 net.cpp:137] Memory required for data: 56958720
I0410 00:09:28.776305 14511 layer_factory.hpp:77] Creating layer relu1
I0410 00:09:28.776312 14511 net.cpp:84] Creating Layer relu1
I0410 00:09:28.776316 14511 net.cpp:406] relu1 <- conv1
I0410 00:09:28.776321 14511 net.cpp:367] relu1 -> conv1 (in-place)
I0410 00:09:28.776610 14511 net.cpp:122] Setting up relu1
I0410 00:09:28.776619 14511 net.cpp:129] Top shape: 32 96 55 55 (9292800)
I0410 00:09:28.776623 14511 net.cpp:137] Memory required for data: 94129920
I0410 00:09:28.776626 14511 layer_factory.hpp:77] Creating layer norm1
I0410 00:09:28.776634 14511 net.cpp:84] Creating Layer norm1
I0410 00:09:28.776638 14511 net.cpp:406] norm1 <- conv1
I0410 00:09:28.776643 14511 net.cpp:380] norm1 -> norm1
I0410 00:09:28.777243 14511 net.cpp:122] Setting up norm1
I0410 00:09:28.777257 14511 net.cpp:129] Top shape: 32 96 55 55 (9292800)
I0410 00:09:28.777262 14511 net.cpp:137] Memory required for data: 131301120
I0410 00:09:28.777268 14511 layer_factory.hpp:77] Creating layer pool1
I0410 00:09:28.777277 14511 net.cpp:84] Creating Layer pool1
I0410 00:09:28.777283 14511 net.cpp:406] pool1 <- norm1
I0410 00:09:28.777290 14511 net.cpp:380] pool1 -> pool1
I0410 00:09:28.777340 14511 net.cpp:122] Setting up pool1
I0410 00:09:28.777351 14511 net.cpp:129] Top shape: 32 96 27 27 (2239488)
I0410 00:09:28.777357 14511 net.cpp:137] Memory required for data: 140259072
I0410 00:09:28.777362 14511 layer_factory.hpp:77] Creating layer conv2
I0410 00:09:28.777374 14511 net.cpp:84] Creating Layer conv2
I0410 00:09:28.777380 14511 net.cpp:406] conv2 <- pool1
I0410 00:09:28.777415 14511 net.cpp:380] conv2 -> conv2
I0410 00:09:28.790519 14511 net.cpp:122] Setting up conv2
I0410 00:09:28.790537 14511 net.cpp:129] Top shape: 32 256 27 27 (5971968)
I0410 00:09:28.790541 14511 net.cpp:137] Memory required for data: 164146944
I0410 00:09:28.790555 14511 layer_factory.hpp:77] Creating layer relu2
I0410 00:09:28.790563 14511 net.cpp:84] Creating Layer relu2
I0410 00:09:28.790567 14511 net.cpp:406] relu2 <- conv2
I0410 00:09:28.790575 14511 net.cpp:367] relu2 -> conv2 (in-place)
I0410 00:09:28.792903 14511 net.cpp:122] Setting up relu2
I0410 00:09:28.792914 14511 net.cpp:129] Top shape: 32 256 27 27 (5971968)
I0410 00:09:28.792917 14511 net.cpp:137] Memory required for data: 188034816
I0410 00:09:28.792922 14511 layer_factory.hpp:77] Creating layer norm2
I0410 00:09:28.792932 14511 net.cpp:84] Creating Layer norm2
I0410 00:09:28.792937 14511 net.cpp:406] norm2 <- conv2
I0410 00:09:28.792941 14511 net.cpp:380] norm2 -> norm2
I0410 00:09:28.797387 14511 net.cpp:122] Setting up norm2
I0410 00:09:28.797399 14511 net.cpp:129] Top shape: 32 256 27 27 (5971968)
I0410 00:09:28.797401 14511 net.cpp:137] Memory required for data: 211922688
I0410 00:09:28.797405 14511 layer_factory.hpp:77] Creating layer pool2
I0410 00:09:28.797413 14511 net.cpp:84] Creating Layer pool2
I0410 00:09:28.797417 14511 net.cpp:406] pool2 <- norm2
I0410 00:09:28.797423 14511 net.cpp:380] pool2 -> pool2
I0410 00:09:28.797456 14511 net.cpp:122] Setting up pool2
I0410 00:09:28.797461 14511 net.cpp:129] Top shape: 32 256 13 13 (1384448)
I0410 00:09:28.797463 14511 net.cpp:137] Memory required for data: 217460480
I0410 00:09:28.797467 14511 layer_factory.hpp:77] Creating layer conv3
I0410 00:09:28.797479 14511 net.cpp:84] Creating Layer conv3
I0410 00:09:28.797483 14511 net.cpp:406] conv3 <- pool2
I0410 00:09:28.797488 14511 net.cpp:380] conv3 -> conv3
I0410 00:09:28.808595 14511 net.cpp:122] Setting up conv3
I0410 00:09:28.808615 14511 net.cpp:129] Top shape: 32 384 13 13 (2076672)
I0410 00:09:28.808619 14511 net.cpp:137] Memory required for data: 225767168
I0410 00:09:28.808634 14511 layer_factory.hpp:77] Creating layer relu3
I0410 00:09:28.808642 14511 net.cpp:84] Creating Layer relu3
I0410 00:09:28.808647 14511 net.cpp:406] relu3 <- conv3
I0410 00:09:28.808655 14511 net.cpp:367] relu3 -> conv3 (in-place)
I0410 00:09:28.809170 14511 net.cpp:122] Setting up relu3
I0410 00:09:28.809180 14511 net.cpp:129] Top shape: 32 384 13 13 (2076672)
I0410 00:09:28.809183 14511 net.cpp:137] Memory required for data: 234073856
I0410 00:09:28.809188 14511 layer_factory.hpp:77] Creating layer conv4
I0410 00:09:28.809201 14511 net.cpp:84] Creating Layer conv4
I0410 00:09:28.809204 14511 net.cpp:406] conv4 <- conv3
I0410 00:09:28.809212 14511 net.cpp:380] conv4 -> conv4
I0410 00:09:28.818682 14511 net.cpp:122] Setting up conv4
I0410 00:09:28.818698 14511 net.cpp:129] Top shape: 32 384 13 13 (2076672)
I0410 00:09:28.818701 14511 net.cpp:137] Memory required for data: 242380544
I0410 00:09:28.818711 14511 layer_factory.hpp:77] Creating layer relu4
I0410 00:09:28.818717 14511 net.cpp:84] Creating Layer relu4
I0410 00:09:28.818722 14511 net.cpp:406] relu4 <- conv4
I0410 00:09:28.818728 14511 net.cpp:367] relu4 -> conv4 (in-place)
I0410 00:09:28.819069 14511 net.cpp:122] Setting up relu4
I0410 00:09:28.819079 14511 net.cpp:129] Top shape: 32 384 13 13 (2076672)
I0410 00:09:28.819083 14511 net.cpp:137] Memory required for data: 250687232
I0410 00:09:28.819087 14511 layer_factory.hpp:77] Creating layer conv5
I0410 00:09:28.819097 14511 net.cpp:84] Creating Layer conv5
I0410 00:09:28.819101 14511 net.cpp:406] conv5 <- conv4
I0410 00:09:28.819108 14511 net.cpp:380] conv5 -> conv5
I0410 00:09:28.831445 14511 net.cpp:122] Setting up conv5
I0410 00:09:28.831463 14511 net.cpp:129] Top shape: 32 256 13 13 (1384448)
I0410 00:09:28.831467 14511 net.cpp:137] Memory required for data: 256225024
I0410 00:09:28.831480 14511 layer_factory.hpp:77] Creating layer relu5
I0410 00:09:28.831490 14511 net.cpp:84] Creating Layer relu5
I0410 00:09:28.831514 14511 net.cpp:406] relu5 <- conv5
I0410 00:09:28.831522 14511 net.cpp:367] relu5 -> conv5 (in-place)
I0410 00:09:28.832015 14511 net.cpp:122] Setting up relu5
I0410 00:09:28.832026 14511 net.cpp:129] Top shape: 32 256 13 13 (1384448)
I0410 00:09:28.832028 14511 net.cpp:137] Memory required for data: 261762816
I0410 00:09:28.832032 14511 layer_factory.hpp:77] Creating layer pool5
I0410 00:09:28.832043 14511 net.cpp:84] Creating Layer pool5
I0410 00:09:28.832047 14511 net.cpp:406] pool5 <- conv5
I0410 00:09:28.832052 14511 net.cpp:380] pool5 -> pool5
I0410 00:09:28.832093 14511 net.cpp:122] Setting up pool5
I0410 00:09:28.832098 14511 net.cpp:129] Top shape: 32 256 6 6 (294912)
I0410 00:09:28.832103 14511 net.cpp:137] Memory required for data: 262942464
I0410 00:09:28.832105 14511 layer_factory.hpp:77] Creating layer fc6
I0410 00:09:28.832113 14511 net.cpp:84] Creating Layer fc6
I0410 00:09:28.832118 14511 net.cpp:406] fc6 <- pool5
I0410 00:09:28.832123 14511 net.cpp:380] fc6 -> fc6
I0410 00:09:29.547739 14511 net.cpp:122] Setting up fc6
I0410 00:09:29.547762 14511 net.cpp:129] Top shape: 32 8192 (262144)
I0410 00:09:29.547766 14511 net.cpp:137] Memory required for data: 263991040
I0410 00:09:29.547777 14511 layer_factory.hpp:77] Creating layer relu6
I0410 00:09:29.547786 14511 net.cpp:84] Creating Layer relu6
I0410 00:09:29.547791 14511 net.cpp:406] relu6 <- fc6
I0410 00:09:29.547797 14511 net.cpp:367] relu6 -> fc6 (in-place)
I0410 00:09:29.548619 14511 net.cpp:122] Setting up relu6
I0410 00:09:29.548629 14511 net.cpp:129] Top shape: 32 8192 (262144)
I0410 00:09:29.548633 14511 net.cpp:137] Memory required for data: 265039616
I0410 00:09:29.548637 14511 layer_factory.hpp:77] Creating layer drop6
I0410 00:09:29.548645 14511 net.cpp:84] Creating Layer drop6
I0410 00:09:29.548648 14511 net.cpp:406] drop6 <- fc6
I0410 00:09:29.548653 14511 net.cpp:367] drop6 -> fc6 (in-place)
I0410 00:09:29.548682 14511 net.cpp:122] Setting up drop6
I0410 00:09:29.548687 14511 net.cpp:129] Top shape: 32 8192 (262144)
I0410 00:09:29.548691 14511 net.cpp:137] Memory required for data: 266088192
I0410 00:09:29.548694 14511 layer_factory.hpp:77] Creating layer fc7
I0410 00:09:29.548703 14511 net.cpp:84] Creating Layer fc7
I0410 00:09:29.548707 14511 net.cpp:406] fc7 <- fc6
I0410 00:09:29.548712 14511 net.cpp:380] fc7 -> fc7
I0410 00:09:30.179628 14511 net.cpp:122] Setting up fc7
I0410 00:09:30.179648 14511 net.cpp:129] Top shape: 32 8192 (262144)
I0410 00:09:30.179652 14511 net.cpp:137] Memory required for data: 267136768
I0410 00:09:30.179662 14511 layer_factory.hpp:77] Creating layer relu7
I0410 00:09:30.179673 14511 net.cpp:84] Creating Layer relu7
I0410 00:09:30.179679 14511 net.cpp:406] relu7 <- fc7
I0410 00:09:30.179685 14511 net.cpp:367] relu7 -> fc7 (in-place)
I0410 00:09:30.180126 14511 net.cpp:122] Setting up relu7
I0410 00:09:30.180135 14511 net.cpp:129] Top shape: 32 8192 (262144)
I0410 00:09:30.180140 14511 net.cpp:137] Memory required for data: 268185344
I0410 00:09:30.180143 14511 layer_factory.hpp:77] Creating layer drop7
I0410 00:09:30.180151 14511 net.cpp:84] Creating Layer drop7
I0410 00:09:30.180155 14511 net.cpp:406] drop7 <- fc7
I0410 00:09:30.180161 14511 net.cpp:367] drop7 -> fc7 (in-place)
I0410 00:09:30.180187 14511 net.cpp:122] Setting up drop7
I0410 00:09:30.180192 14511 net.cpp:129] Top shape: 32 8192 (262144)
I0410 00:09:30.180197 14511 net.cpp:137] Memory required for data: 269233920
I0410 00:09:30.180200 14511 layer_factory.hpp:77] Creating layer fc8
I0410 00:09:30.180207 14511 net.cpp:84] Creating Layer fc8
I0410 00:09:30.180212 14511 net.cpp:406] fc8 <- fc7
I0410 00:09:30.180218 14511 net.cpp:380] fc8 -> fc8
I0410 00:09:30.195385 14511 net.cpp:122] Setting up fc8
I0410 00:09:30.195403 14511 net.cpp:129] Top shape: 32 196 (6272)
I0410 00:09:30.195407 14511 net.cpp:137] Memory required for data: 269259008
I0410 00:09:30.195415 14511 layer_factory.hpp:77] Creating layer fc8_fc8_0_split
I0410 00:09:30.195425 14511 net.cpp:84] Creating Layer fc8_fc8_0_split
I0410 00:09:30.195430 14511 net.cpp:406] fc8_fc8_0_split <- fc8
I0410 00:09:30.195454 14511 net.cpp:380] fc8_fc8_0_split -> fc8_fc8_0_split_0
I0410 00:09:30.195463 14511 net.cpp:380] fc8_fc8_0_split -> fc8_fc8_0_split_1
I0410 00:09:30.195502 14511 net.cpp:122] Setting up fc8_fc8_0_split
I0410 00:09:30.195508 14511 net.cpp:129] Top shape: 32 196 (6272)
I0410 00:09:30.195511 14511 net.cpp:129] Top shape: 32 196 (6272)
I0410 00:09:30.195514 14511 net.cpp:137] Memory required for data: 269309184
I0410 00:09:30.195518 14511 layer_factory.hpp:77] Creating layer accuracy
I0410 00:09:30.195524 14511 net.cpp:84] Creating Layer accuracy
I0410 00:09:30.195528 14511 net.cpp:406] accuracy <- fc8_fc8_0_split_0
I0410 00:09:30.195533 14511 net.cpp:406] accuracy <- label_val-data_1_split_0
I0410 00:09:30.195538 14511 net.cpp:380] accuracy -> accuracy
…
