…
I0428 13:41:14.375890 27120 net.cpp:294] The NetState phase (0) differed from the phase (1) specified by a rule in layer accuracy
I0428 13:41:14.376022 27120 net.cpp:51] Initializing net from parameters:
state {
phase: TRAIN
level: 0
stage: ""
}
layer {
name: "train-data"
type: "Data"
top: "data"
top: "label"
include {
phase: TRAIN
}
transform_param {
mirror: true
crop_size: 227
mean_file: "/mnt/bigdisk/DIGITS-AMB-2/digits/jobs/20210419-113214-d311/mean.binaryproto"
}
data_param {
source: "/mnt/bigdisk/DIGITS-AMB-2/digits/jobs/20210419-113214-d311/train_db"
batch_size: 128
backend: LMDB
}
}
layer {
name: "conv1"
type: "Convolution"
bottom: "data"
top: "conv1"
param {
lr_mult: 1
decay_mult: 1
}
param {
lr_mult: 2
decay_mult: 0
}
convolution_param {
num_output: 96
kernel_size: 11
stride: 4
weight_filler {
type: "gaussian"
std: 0.01
}
bias_filler {
type: "constant"
value: 0
}
}
}
layer {
name: "relu1"
type: "ReLU"
bottom: "conv1"
top: "conv1"
}
layer {
name: "norm1"
type: "LRN"
bottom: "conv1"
top: "norm1"
lrn_param {
local_size: 5
alpha: 0.0001
beta: 0.75
}
}
layer {
name: "pool1"
type: "Pooling"
bottom: "norm1"
top: "pool1"
pooling_param {
pool: MAX
kernel_size: 3
stride: 2
}
}
layer {
name: "conv2"
type: "Convolution"
bottom: "pool1"
top: "conv2"
param {
lr_mult: 1
decay_mult: 1
}
param {
lr_mult: 2
decay_mult: 0
}
convolution_param {
num_output: 256
pad: 2
kernel_size: 5
group: 2
weight_filler {
type: "gaussian"
std: 0.01
}
bias_filler {
type: "constant"
value: 0.1
}
}
}
layer {
name: "relu2"
type: "ReLU"
bottom: "conv2"
top: "conv2"
}
layer {
name: "norm2"
type: "LRN"
bottom: "conv2"
top: "norm2"
lrn_param {
local_size: 5
alpha: 0.0001
beta: 0.75
}
}
layer {
name: "pool2"
type: "Pooling"
bottom: "norm2"
top: "pool2"
pooling_param {
pool: MAX
kernel_size: 3
stride: 2
}
}
layer {
name: "conv3"
type: "Convolution"
bottom: "pool2"
top: "conv3"
param {
lr_mult: 1
decay_mult: 1
}
param {
lr_mult: 2
decay_mult: 0
}
convolution_param {
num_output: 384
pad: 1
kernel_size: 3
weight_filler {
type: "gaussian"
std: 0.01
}
bias_filler {
type: "constant"
value: 0
}
}
}
layer {
name: "relu3"
type: "ReLU"
bottom: "conv3"
top: "conv3"
}
layer {
name: "conv3.5"
type: "Convolution"
bottom: "conv3"
top: "conv3.5"
param {
lr_mult: 1
decay_mult: 1
}
param {
lr_mult: 2
decay_mult: 0
}
convolution_param {
num_output: 384
pad: 1
kernel_size: 5
weight_filler {
type: "gaussian"
std: 0.01
}
bias_filler {
type: "constant"
value: 0
}
}
}
layer {
name: "relu3.5"
type: "ReLU"
bottom: "conv3.5"
top: "conv3.5"
}
layer {
name: "conv4"
type: "Convolution"
bottom: "conv3.5"
top: "conv4"
param {
lr_mult: 1
decay_mult: 1
}
param {
lr_mult: 2
decay_mult: 0
}
convolution_param {
num_output: 384
pad: 1
kernel_size: 3
group: 2
weight_filler {
type: "gaussian"
std: 0.01
}
bias_filler {
type: "constant"
value: 0.1
}
}
}
layer {
name: "relu4"
type: "ReLU"
bottom: "conv4"
top: "conv4"
}
layer {
name: "conv5"
type: "Convolution"
bottom: "conv4"
top: "conv5"
param {
lr_mult: 1
decay_mult: 1
}
param {
lr_mult: 2
decay_mult: 0
}
convolution_param {
num_output: 256
pad: 1
kernel_size: 3
group: 2
weight_filler {
type: "gaussian"
std: 0.01
}
bias_filler {
type: "constant"
value: 0.1
}
}
}
layer {
name: "relu5"
type: "ReLU"
bottom: "conv5"
top: "conv5"
}
layer {
name: "pool5"
type: "Pooling"
bottom: "conv5"
top: "pool5"
pooling_param {
pool: MAX
kernel_size: 3
stride: 2
}
}
layer {
name: "fc6"
type: "InnerProduct"
bottom: "pool5"
top: "fc6"
param {
lr_mult: 1
decay_mult: 1
}
param {
lr_mult: 2
decay_mult: 0
}
inner_product_param {
num_output: 4096
weight_filler {
type: "gaussian"
std: 0.005
}
bias_filler {
type: "constant"
value: 0.1
}
}
}
layer {
name: "relu6"
type: "ReLU"
bottom: "fc6"
top: "fc6"
}
layer {
name: "drop6"
type: "Dropout"
bottom: "fc6"
top: "fc6"
dropout_param {
dropout_ratio: 0.5
}
}
layer {
name: "fc7"
type: "InnerProduct"
bottom: "fc6"
top: "fc7"
param {
lr_mult: 1
decay_mult: 1
}
param {
lr_mult: 2
decay_mult: 0
}
inner_product_param {
num_output: 4096
weight_filler {
type: "gaussian"
std: 0.005
}
bias_filler {
type: "constant"
value: 0.1
}
}
}
layer {
name: "relu7"
type: "ReLU"
bottom: "fc7"
top: "fc7"
}
layer {
name: "drop7"
type: "Dropout"
bottom: "fc7"
top: "fc7"
dropout_param {
dropout_ratio: 0.5
}
}
layer {
name: "fc8"
type: "InnerProduct"
bottom: "fc7"
top: "fc8"
param {
lr_mult: 1
decay_mult: 1
}
param {
lr_mult: 2
decay_mult: 0
}
inner_product_param {
num_output: 196
weight_filler {
type: "gaussian"
std: 0.01
}
bias_filler {
type: "constant"
value: 0
}
}
}
layer {
name: "loss"
type: "SoftmaxWithLoss"
bottom: "fc8"
bottom: "label"
top: "loss"
}
I0428 13:41:14.376117 27120 layer_factory.hpp:77] Creating layer train-data
I0428 13:41:14.387595 27120 db_lmdb.cpp:35] Opened lmdb /mnt/bigdisk/DIGITS-AMB-2/digits/jobs/20210419-113214-d311/train_db
I0428 13:41:14.388924 27120 net.cpp:84] Creating Layer train-data
I0428 13:41:14.388939 27120 net.cpp:380] train-data -> data
I0428 13:41:14.388959 27120 net.cpp:380] train-data -> label
I0428 13:41:14.388970 27120 data_transformer.cpp:25] Loading mean file from: /mnt/bigdisk/DIGITS-AMB-2/digits/jobs/20210419-113214-d311/mean.binaryproto
I0428 13:41:14.393935 27120 data_layer.cpp:45] output data size: 128,3,227,227
I0428 13:41:14.522536 27120 net.cpp:122] Setting up train-data
I0428 13:41:14.522559 27120 net.cpp:129] Top shape: 128 3 227 227 (19787136)
I0428 13:41:14.522564 27120 net.cpp:129] Top shape: 128 (128)
I0428 13:41:14.522567 27120 net.cpp:137] Memory required for data: 79149056
I0428 13:41:14.522576 27120 layer_factory.hpp:77] Creating layer conv1
I0428 13:41:14.522619 27120 net.cpp:84] Creating Layer conv1
I0428 13:41:14.522625 27120 net.cpp:406] conv1 <- data
I0428 13:41:14.522637 27120 net.cpp:380] conv1 -> conv1
I0428 13:41:15.444555 27120 net.cpp:122] Setting up conv1
I0428 13:41:15.444576 27120 net.cpp:129] Top shape: 128 96 55 55 (37171200)
I0428 13:41:15.444579 27120 net.cpp:137] Memory required for data: 227833856
I0428 13:41:15.444597 27120 layer_factory.hpp:77] Creating layer relu1
I0428 13:41:15.444607 27120 net.cpp:84] Creating Layer relu1
I0428 13:41:15.444610 27120 net.cpp:406] relu1 <- conv1
I0428 13:41:15.444636 27120 net.cpp:367] relu1 -> conv1 (in-place)
I0428 13:41:15.444959 27120 net.cpp:122] Setting up relu1
I0428 13:41:15.444968 27120 net.cpp:129] Top shape: 128 96 55 55 (37171200)
I0428 13:41:15.444972 27120 net.cpp:137] Memory required for data: 376518656
I0428 13:41:15.444974 27120 layer_factory.hpp:77] Creating layer norm1
I0428 13:41:15.444983 27120 net.cpp:84] Creating Layer norm1
I0428 13:41:15.444986 27120 net.cpp:406] norm1 <- conv1
I0428 13:41:15.444991 27120 net.cpp:380] norm1 -> norm1
I0428 13:41:15.445502 27120 net.cpp:122] Setting up norm1
I0428 13:41:15.445513 27120 net.cpp:129] Top shape: 128 96 55 55 (37171200)
I0428 13:41:15.445515 27120 net.cpp:137] Memory required for data: 525203456
I0428 13:41:15.445518 27120 layer_factory.hpp:77] Creating layer pool1
I0428 13:41:15.445525 27120 net.cpp:84] Creating Layer pool1
I0428 13:41:15.445528 27120 net.cpp:406] pool1 <- norm1
I0428 13:41:15.445533 27120 net.cpp:380] pool1 -> pool1
I0428 13:41:15.445564 27120 net.cpp:122] Setting up pool1
I0428 13:41:15.445570 27120 net.cpp:129] Top shape: 128 96 27 27 (8957952)
I0428 13:41:15.445572 27120 net.cpp:137] Memory required for data: 561035264
I0428 13:41:15.445575 27120 layer_factory.hpp:77] Creating layer conv2
I0428 13:41:15.445585 27120 net.cpp:84] Creating Layer conv2
I0428 13:41:15.445587 27120 net.cpp:406] conv2 <- pool1
I0428 13:41:15.445592 27120 net.cpp:380] conv2 -> conv2
I0428 13:41:15.453315 27120 net.cpp:122] Setting up conv2
I0428 13:41:15.453330 27120 net.cpp:129] Top shape: 128 256 27 27 (23887872)
I0428 13:41:15.453333 27120 net.cpp:137] Memory required for data: 656586752
I0428 13:41:15.453343 27120 layer_factory.hpp:77] Creating layer relu2
I0428 13:41:15.453351 27120 net.cpp:84] Creating Layer relu2
I0428 13:41:15.453356 27120 net.cpp:406] relu2 <- conv2
I0428 13:41:15.453361 27120 net.cpp:367] relu2 -> conv2 (in-place)
I0428 13:41:15.453910 27120 net.cpp:122] Setting up relu2
I0428 13:41:15.453922 27120 net.cpp:129] Top shape: 128 256 27 27 (23887872)
I0428 13:41:15.453924 27120 net.cpp:137] Memory required for data: 752138240
I0428 13:41:15.453927 27120 layer_factory.hpp:77] Creating layer norm2
I0428 13:41:15.453934 27120 net.cpp:84] Creating Layer norm2
I0428 13:41:15.453938 27120 net.cpp:406] norm2 <- conv2
I0428 13:41:15.453943 27120 net.cpp:380] norm2 -> norm2
I0428 13:41:15.454324 27120 net.cpp:122] Setting up norm2
I0428 13:41:15.454334 27120 net.cpp:129] Top shape: 128 256 27 27 (23887872)
I0428 13:41:15.454335 27120 net.cpp:137] Memory required for data: 847689728
I0428 13:41:15.454339 27120 layer_factory.hpp:77] Creating layer pool2
I0428 13:41:15.454347 27120 net.cpp:84] Creating Layer pool2
I0428 13:41:15.454350 27120 net.cpp:406] pool2 <- norm2
I0428 13:41:15.454355 27120 net.cpp:380] pool2 -> pool2
I0428 13:41:15.454382 27120 net.cpp:122] Setting up pool2
I0428 13:41:15.454387 27120 net.cpp:129] Top shape: 128 256 13 13 (5537792)
I0428 13:41:15.454391 27120 net.cpp:137] Memory required for data: 869840896
I0428 13:41:15.454393 27120 layer_factory.hpp:77] Creating layer conv3
I0428 13:41:15.454402 27120 net.cpp:84] Creating Layer conv3
I0428 13:41:15.454406 27120 net.cpp:406] conv3 <- pool2
I0428 13:41:15.454411 27120 net.cpp:380] conv3 -> conv3
I0428 13:41:15.465153 27120 net.cpp:122] Setting up conv3
I0428 13:41:15.465173 27120 net.cpp:129] Top shape: 128 384 13 13 (8306688)
I0428 13:41:15.465175 27120 net.cpp:137] Memory required for data: 903067648
I0428 13:41:15.465185 27120 layer_factory.hpp:77] Creating layer relu3
I0428 13:41:15.465193 27120 net.cpp:84] Creating Layer relu3
I0428 13:41:15.465196 27120 net.cpp:406] relu3 <- conv3
I0428 13:41:15.465204 27120 net.cpp:367] relu3 -> conv3 (in-place)
I0428 13:41:15.465788 27120 net.cpp:122] Setting up relu3
I0428 13:41:15.465798 27120 net.cpp:129] Top shape: 128 384 13 13 (8306688)
I0428 13:41:15.465801 27120 net.cpp:137] Memory required for data: 936294400
I0428 13:41:15.465804 27120 layer_factory.hpp:77] Creating layer conv3.5
I0428 13:41:15.465814 27120 net.cpp:84] Creating Layer conv3.5
I0428 13:41:15.465837 27120 net.cpp:406] conv3.5 <- conv3
I0428 13:41:15.465843 27120 net.cpp:380] conv3.5 -> conv3.5
I0428 13:41:15.504078 27120 net.cpp:122] Setting up conv3.5
I0428 13:41:15.504096 27120 net.cpp:129] Top shape: 128 384 11 11 (5947392)
I0428 13:41:15.504098 27120 net.cpp:137] Memory required for data: 960083968
I0428 13:41:15.504106 27120 layer_factory.hpp:77] Creating layer relu3.5
I0428 13:41:15.504114 27120 net.cpp:84] Creating Layer relu3.5
I0428 13:41:15.504118 27120 net.cpp:406] relu3.5 <- conv3.5
I0428 13:41:15.504125 27120 net.cpp:367] relu3.5 -> conv3.5 (in-place)
I0428 13:41:15.504670 27120 net.cpp:122] Setting up relu3.5
I0428 13:41:15.504681 27120 net.cpp:129] Top shape: 128 384 11 11 (5947392)
I0428 13:41:15.504684 27120 net.cpp:137] Memory required for data: 983873536
I0428 13:41:15.504688 27120 layer_factory.hpp:77] Creating layer conv4
I0428 13:41:15.504698 27120 net.cpp:84] Creating Layer conv4
I0428 13:41:15.504701 27120 net.cpp:406] conv4 <- conv3.5
I0428 13:41:15.504706 27120 net.cpp:380] conv4 -> conv4
I0428 13:41:15.514925 27120 net.cpp:122] Setting up conv4
I0428 13:41:15.514941 27120 net.cpp:129] Top shape: 128 384 11 11 (5947392)
I0428 13:41:15.514945 27120 net.cpp:137] Memory required for data: 1007663104
I0428 13:41:15.514957 27120 layer_factory.hpp:77] Creating layer relu4
I0428 13:41:15.514963 27120 net.cpp:84] Creating Layer relu4
I0428 13:41:15.514967 27120 net.cpp:406] relu4 <- conv4
I0428 13:41:15.514972 27120 net.cpp:367] relu4 -> conv4 (in-place)
I0428 13:41:15.515341 27120 net.cpp:122] Setting up relu4
I0428 13:41:15.515352 27120 net.cpp:129] Top shape: 128 384 11 11 (5947392)
I0428 13:41:15.515354 27120 net.cpp:137] Memory required for data: 1031452672
I0428 13:41:15.515357 27120 layer_factory.hpp:77] Creating layer conv5
I0428 13:41:15.515367 27120 net.cpp:84] Creating Layer conv5
I0428 13:41:15.515372 27120 net.cpp:406] conv5 <- conv4
I0428 13:41:15.515377 27120 net.cpp:380] conv5 -> conv5
I0428 13:41:15.524399 27120 net.cpp:122] Setting up conv5
I0428 13:41:15.524417 27120 net.cpp:129] Top shape: 128 256 11 11 (3964928)
I0428 13:41:15.524420 27120 net.cpp:137] Memory required for data: 1047312384
I0428 13:41:15.524428 27120 layer_factory.hpp:77] Creating layer relu5
I0428 13:41:15.524438 27120 net.cpp:84] Creating Layer relu5
I0428 13:41:15.524443 27120 net.cpp:406] relu5 <- conv5
I0428 13:41:15.524448 27120 net.cpp:367] relu5 -> conv5 (in-place)
I0428 13:41:15.525007 27120 net.cpp:122] Setting up relu5
I0428 13:41:15.525017 27120 net.cpp:129] Top shape: 128 256 11 11 (3964928)
I0428 13:41:15.525019 27120 net.cpp:137] Memory required for data: 1063172096
I0428 13:41:15.525022 27120 layer_factory.hpp:77] Creating layer pool5
I0428 13:41:15.525028 27120 net.cpp:84] Creating Layer pool5
I0428 13:41:15.525032 27120 net.cpp:406] pool5 <- conv5
I0428 13:41:15.525038 27120 net.cpp:380] pool5 -> pool5
I0428 13:41:15.525072 27120 net.cpp:122] Setting up pool5
I0428 13:41:15.525077 27120 net.cpp:129] Top shape: 128 256 5 5 (819200)
I0428 13:41:15.525080 27120 net.cpp:137] Memory required for data: 1066448896
I0428 13:41:15.525082 27120 layer_factory.hpp:77] Creating layer fc6
I0428 13:41:15.525089 27120 net.cpp:84] Creating Layer fc6
I0428 13:41:15.525091 27120 net.cpp:406] fc6 <- pool5
I0428 13:41:15.525097 27120 net.cpp:380] fc6 -> fc6
I0428 13:41:15.774029 27120 net.cpp:122] Setting up fc6
I0428 13:41:15.774050 27120 net.cpp:129] Top shape: 128 4096 (524288)
I0428 13:41:15.774053 27120 net.cpp:137] Memory required for data: 1068546048
I0428 13:41:15.774062 27120 layer_factory.hpp:77] Creating layer relu6
I0428 13:41:15.774072 27120 net.cpp:84] Creating Layer relu6
I0428 13:41:15.774076 27120 net.cpp:406] relu6 <- fc6
I0428 13:41:15.774082 27120 net.cpp:367] relu6 -> fc6 (in-place)
I0428 13:41:15.774991 27120 net.cpp:122] Setting up relu6
I0428 13:41:15.775002 27120 net.cpp:129] Top shape: 128 4096 (524288)
I0428 13:41:15.775004 27120 net.cpp:137] Memory required for data: 1070643200
I0428 13:41:15.775007 27120 layer_factory.hpp:77] Creating layer drop6
I0428 13:41:15.775032 27120 net.cpp:84] Creating Layer drop6
I0428 13:41:15.775035 27120 net.cpp:406] drop6 <- fc6
I0428 13:41:15.775039 27120 net.cpp:367] drop6 -> fc6 (in-place)
I0428 13:41:15.775069 27120 net.cpp:122] Setting up drop6
I0428 13:41:15.775074 27120 net.cpp:129] Top shape: 128 4096 (524288)
I0428 13:41:15.775077 27120 net.cpp:137] Memory required for data: 1072740352
I0428 13:41:15.775080 27120 layer_factory.hpp:77] Creating layer fc7
I0428 13:41:15.775087 27120 net.cpp:84] Creating Layer fc7
I0428 13:41:15.775090 27120 net.cpp:406] fc7 <- fc6
I0428 13:41:15.775094 27120 net.cpp:380] fc7 -> fc7
I0428 13:41:15.934293 27120 net.cpp:122] Setting up fc7
I0428 13:41:15.934314 27120 net.cpp:129] Top shape: 128 4096 (524288)
I0428 13:41:15.934317 27120 net.cpp:137] Memory required for data: 1074837504
I0428 13:41:15.934326 27120 layer_factory.hpp:77] Creating layer relu7
I0428 13:41:15.934334 27120 net.cpp:84] Creating Layer relu7
I0428 13:41:15.934338 27120 net.cpp:406] relu7 <- fc7
I0428 13:41:15.934346 27120 net.cpp:367] relu7 -> fc7 (in-place)
I0428 13:41:15.935103 27120 net.cpp:122] Setting up relu7
I0428 13:41:15.935113 27120 net.cpp:129] Top shape: 128 4096 (524288)
I0428 13:41:15.935117 27120 net.cpp:137] Memory required for data: 1076934656
I0428 13:41:15.935119 27120 layer_factory.hpp:77] Creating layer drop7
I0428 13:41:15.935127 27120 net.cpp:84] Creating Layer drop7
I0428 13:41:15.935130 27120 net.cpp:406] drop7 <- fc7
I0428 13:41:15.935134 27120 net.cpp:367] drop7 -> fc7 (in-place)
I0428 13:41:15.935158 27120 net.cpp:122] Setting up drop7
I0428 13:41:15.935163 27120 net.cpp:129] Top shape: 128 4096 (524288)
I0428 13:41:15.935166 27120 net.cpp:137] Memory required for data: 1079031808
I0428 13:41:15.935168 27120 layer_factory.hpp:77] Creating layer fc8
I0428 13:41:15.935176 27120 net.cpp:84] Creating Layer fc8
I0428 13:41:15.935179 27120 net.cpp:406] fc8 <- fc7
I0428 13:41:15.935184 27120 net.cpp:380] fc8 -> fc8
I0428 13:41:15.942922 27120 net.cpp:122] Setting up fc8
I0428 13:41:15.942934 27120 net.cpp:129] Top shape: 128 196 (25088)
I0428 13:41:15.942935 27120 net.cpp:137] Memory required for data: 1079132160
I0428 13:41:15.942947 27120 layer_factory.hpp:77] Creating layer loss
I0428 13:41:15.942955 27120 net.cpp:84] Creating Layer loss
I0428 13:41:15.942957 27120 net.cpp:406] loss <- fc8
I0428 13:41:15.942961 27120 net.cpp:406] loss <- label
I0428 13:41:15.942968 27120 net.cpp:380] loss -> loss
I0428 13:41:15.942978 27120 layer_factory.hpp:77] Creating layer loss
…
I0428 13:41:15.944211 27120 net.cpp:294] The NetState phase (1) differed from the phase (0) specified by a rule in layer train-data
I0428 13:41:15.944351 27120 net.cpp:51] Initializing net from parameters:
state {
phase: TEST
}
layer {
name: "val-data"
type: "Data"
top: "data"
top: "label"
include {
phase: TEST
}
transform_param {
crop_size: 227
mean_file: "/mnt/bigdisk/DIGITS-AMB-2/digits/jobs/20210419-113214-d311/mean.binaryproto"
}
data_param {
source: "/mnt/bigdisk/DIGITS-AMB-2/digits/jobs/20210419-113214-d311/val_db"
batch_size: 32
backend: LMDB
}
}
layer {
name: "conv1"
type: "Convolution"
bottom: "data"
top: "conv1"
param {
lr_mult: 1
decay_mult: 1
}
param {
lr_mult: 2
decay_mult: 0
}
convolution_param {
num_output: 96
kernel_size: 11
stride: 4
weight_filler {
type: "gaussian"
std: 0.01
}
bias_filler {
type: "constant"
value: 0
}
}
}
layer {
name: "relu1"
type: "ReLU"
bottom: "conv1"
top: "conv1"
}
layer {
name: "norm1"
type: "LRN"
bottom: "conv1"
top: "norm1"
lrn_param {
local_size: 5
alpha: 0.0001
beta: 0.75
}
}
layer {
name: "pool1"
type: "Pooling"
bottom: "norm1"
top: "pool1"
pooling_param {
pool: MAX
kernel_size: 3
stride: 2
}
}
layer {
name: "conv2"
type: "Convolution"
bottom: "pool1"
top: "conv2"
param {
lr_mult: 1
decay_mult: 1
}
param {
lr_mult: 2
decay_mult: 0
}
convolution_param {
num_output: 256
pad: 2
kernel_size: 5
group: 2
weight_filler {
type: "gaussian"
std: 0.01
}
bias_filler {
type: "constant"
value: 0.1
}
}
}
layer {
name: "relu2"
type: "ReLU"
bottom: "conv2"
top: "conv2"
}
layer {
name: "norm2"
type: "LRN"
bottom: "conv2"
top: "norm2"
lrn_param {
local_size: 5
alpha: 0.0001
beta: 0.75
}
}
layer {
name: "pool2"
type: "Pooling"
bottom: "norm2"
top: "pool2"
pooling_param {
pool: MAX
kernel_size: 3
stride: 2
}
}
layer {
name: "conv3"
type: "Convolution"
bottom: "pool2"
top: "conv3"
param {
lr_mult: 1
decay_mult: 1
}
param {
lr_mult: 2
decay_mult: 0
}
convolution_param {
num_output: 384
pad: 1
kernel_size: 3
weight_filler {
type: "gaussian"
std: 0.01
}
bias_filler {
type: "constant"
value: 0
}
}
}
layer {
name: "relu3"
type: "ReLU"
bottom: "conv3"
top: "conv3"
}
layer {
name: "conv3.5"
type: "Convolution"
bottom: "conv3"
top: "conv3.5"
param {
lr_mult: 1
decay_mult: 1
}
param {
lr_mult: 2
decay_mult: 0
}
convolution_param {
num_output: 384
pad: 1
kernel_size: 5
weight_filler {
type: "gaussian"
std: 0.01
}
bias_filler {
type: "constant"
value: 0
}
}
}
layer {
name: "relu3.5"
type: "ReLU"
bottom: "conv3.5"
top: "conv3.5"
}
layer {
name: "conv4"
type: "Convolution"
bottom: "conv3.5"
top: "conv4"
param {
lr_mult: 1
decay_mult: 1
}
param {
lr_mult: 2
decay_mult: 0
}
convolution_param {
num_output: 384
pad: 1
kernel_size: 3
group: 2
weight_filler {
type: "gaussian"
std: 0.01
}
bias_filler {
type: "constant"
value: 0.1
}
}
}
layer {
name: "relu4"
type: "ReLU"
bottom: "conv4"
top: "conv4"
}
layer {
name: "conv5"
type: "Convolution"
bottom: "conv4"
top: "conv5"
param {
lr_mult: 1
decay_mult: 1
}
param {
lr_mult: 2
decay_mult: 0
}
convolution_param {
num_output: 256
pad: 1
kernel_size: 3
group: 2
weight_filler {
type: "gaussian"
std: 0.01
}
bias_filler {
type: "constant"
value: 0.1
}
}
}
layer {
name: "relu5"
type: "ReLU"
bottom: "conv5"
top: "conv5"
}
layer {
name: "pool5"
type: "Pooling"
bottom: "conv5"
top: "pool5"
pooling_param {
pool: MAX
kernel_size: 3
stride: 2
}
}
layer {
name: "fc6"
type: "InnerProduct"
bottom: "pool5"
top: "fc6"
param {
lr_mult: 1
decay_mult: 1
}
param {
lr_mult: 2
decay_mult: 0
}
inner_product_param {
num_output: 4096
weight_filler {
type: "gaussian"
std: 0.005
}
bias_filler {
type: "constant"
value: 0.1
}
}
}
layer {
name: "relu6"
type: "ReLU"
bottom: "fc6"
top: "fc6"
}
layer {
name: "drop6"
type: "Dropout"
bottom: "fc6"
top: "fc6"
dropout_param {
dropout_ratio: 0.5
}
}
layer {
name: "fc7"
type: "InnerProduct"
bottom: "fc6"
top: "fc7"
param {
lr_mult: 1
decay_mult: 1
}
param {
lr_mult: 2
decay_mult: 0
}
inner_product_param {
num_output: 4096
weight_filler {
type: "gaussian"
std: 0.005
}
bias_filler {
type: "constant"
value: 0.1
}
}
}
layer {
name: "relu7"
type: "ReLU"
bottom: "fc7"
top: "fc7"
}
layer {
name: "drop7"
type: "Dropout"
bottom: "fc7"
top: "fc7"
dropout_param {
dropout_ratio: 0.5
}
}
layer {
name: "fc8"
type: "InnerProduct"
bottom: "fc7"
top: "fc8"
param {
lr_mult: 1
decay_mult: 1
}
param {
lr_mult: 2
decay_mult: 0
}
inner_product_param {
num_output: 196
weight_filler {
type: "gaussian"
std: 0.01
}
bias_filler {
type: "constant"
value: 0
}
}
}
layer {
name: "accuracy"
type: "Accuracy"
bottom: "fc8"
bottom: "label"
top: "accuracy"
include {
phase: TEST
}
}
layer {
name: "loss"
type: "SoftmaxWithLoss"
bottom: "fc8"
bottom: "label"
top: "loss"
}
I0428 13:41:15.944447 27120 layer_factory.hpp:77] Creating layer val-data
I0428 13:41:16.022473 27120 db_lmdb.cpp:35] Opened lmdb /mnt/bigdisk/DIGITS-AMB-2/digits/jobs/20210419-113214-d311/val_db
I0428 13:41:16.023334 27120 net.cpp:84] Creating Layer val-data
I0428 13:41:16.023358 27120 net.cpp:380] val-data -> data
I0428 13:41:16.023376 27120 net.cpp:380] val-data -> label
I0428 13:41:16.023389 27120 data_transformer.cpp:25] Loading mean file from: /mnt/bigdisk/DIGITS-AMB-2/digits/jobs/20210419-113214-d311/mean.binaryproto
I0428 13:41:16.030102 27120 data_layer.cpp:45] output data size: 32,3,227,227
I0428 13:41:16.065634 27120 net.cpp:122] Setting up val-data
I0428 13:41:16.065654 27120 net.cpp:129] Top shape: 32 3 227 227 (4946784)
I0428 13:41:16.065659 27120 net.cpp:129] Top shape: 32 (32)
I0428 13:41:16.065661 27120 net.cpp:137] Memory required for data: 19787264
I0428 13:41:16.065667 27120 layer_factory.hpp:77] Creating layer label_val-data_1_split
I0428 13:41:16.065678 27120 net.cpp:84] Creating Layer label_val-data_1_split
I0428 13:41:16.065682 27120 net.cpp:406] label_val-data_1_split <- label
I0428 13:41:16.065688 27120 net.cpp:380] label_val-data_1_split -> label_val-data_1_split_0
I0428 13:41:16.065698 27120 net.cpp:380] label_val-data_1_split -> label_val-data_1_split_1
I0428 13:41:16.065738 27120 net.cpp:122] Setting up label_val-data_1_split
I0428 13:41:16.065743 27120 net.cpp:129] Top shape: 32 (32)
I0428 13:41:16.065747 27120 net.cpp:129] Top shape: 32 (32)
I0428 13:41:16.065748 27120 net.cpp:137] Memory required for data: 19787520
I0428 13:41:16.065771 27120 layer_factory.hpp:77] Creating layer conv1
I0428 13:41:16.065783 27120 net.cpp:84] Creating Layer conv1
I0428 13:41:16.065786 27120 net.cpp:406] conv1 <- data
I0428 13:41:16.065791 27120 net.cpp:380] conv1 -> conv1
I0428 13:41:16.070188 27120 net.cpp:122] Setting up conv1
I0428 13:41:16.070200 27120 net.cpp:129] Top shape: 32 96 55 55 (9292800)
I0428 13:41:16.070204 27120 net.cpp:137] Memory required for data: 56958720
I0428 13:41:16.070214 27120 layer_factory.hpp:77] Creating layer relu1
I0428 13:41:16.070220 27120 net.cpp:84] Creating Layer relu1
I0428 13:41:16.070223 27120 net.cpp:406] relu1 <- conv1
I0428 13:41:16.070228 27120 net.cpp:367] relu1 -> conv1 (in-place)
I0428 13:41:16.070737 27120 net.cpp:122] Setting up relu1
I0428 13:41:16.070749 27120 net.cpp:129] Top shape: 32 96 55 55 (9292800)
I0428 13:41:16.070751 27120 net.cpp:137] Memory required for data: 94129920
I0428 13:41:16.070755 27120 layer_factory.hpp:77] Creating layer norm1
I0428 13:41:16.070763 27120 net.cpp:84] Creating Layer norm1
I0428 13:41:16.070766 27120 net.cpp:406] norm1 <- conv1
I0428 13:41:16.070771 27120 net.cpp:380] norm1 -> norm1
I0428 13:41:16.071108 27120 net.cpp:122] Setting up norm1
I0428 13:41:16.071117 27120 net.cpp:129] Top shape: 32 96 55 55 (9292800)
I0428 13:41:16.071120 27120 net.cpp:137] Memory required for data: 131301120
I0428 13:41:16.071123 27120 layer_factory.hpp:77] Creating layer pool1
I0428 13:41:16.071130 27120 net.cpp:84] Creating Layer pool1
I0428 13:41:16.071133 27120 net.cpp:406] pool1 <- norm1
I0428 13:41:16.071137 27120 net.cpp:380] pool1 -> pool1
I0428 13:41:16.071164 27120 net.cpp:122] Setting up pool1
I0428 13:41:16.071169 27120 net.cpp:129] Top shape: 32 96 27 27 (2239488)
I0428 13:41:16.071172 27120 net.cpp:137] Memory required for data: 140259072
I0428 13:41:16.071175 27120 layer_factory.hpp:77] Creating layer conv2
I0428 13:41:16.071183 27120 net.cpp:84] Creating Layer conv2
I0428 13:41:16.071187 27120 net.cpp:406] conv2 <- pool1
I0428 13:41:16.071192 27120 net.cpp:380] conv2 -> conv2
I0428 13:41:16.079622 27120 net.cpp:122] Setting up conv2
I0428 13:41:16.079634 27120 net.cpp:129] Top shape: 32 256 27 27 (5971968)
I0428 13:41:16.079638 27120 net.cpp:137] Memory required for data: 164146944
I0428 13:41:16.079645 27120 layer_factory.hpp:77] Creating layer relu2
I0428 13:41:16.079651 27120 net.cpp:84] Creating Layer relu2
I0428 13:41:16.079654 27120 net.cpp:406] relu2 <- conv2
I0428 13:41:16.079660 27120 net.cpp:367] relu2 -> conv2 (in-place)
I0428 13:41:16.081372 27120 net.cpp:122] Setting up relu2
I0428 13:41:16.081382 27120 net.cpp:129] Top shape: 32 256 27 27 (5971968)
I0428 13:41:16.081385 27120 net.cpp:137] Memory required for data: 188034816
I0428 13:41:16.081388 27120 layer_factory.hpp:77] Creating layer norm2
I0428 13:41:16.081398 27120 net.cpp:84] Creating Layer norm2
I0428 13:41:16.081401 27120 net.cpp:406] norm2 <- conv2
I0428 13:41:16.081406 27120 net.cpp:380] norm2 -> norm2
I0428 13:41:16.082037 27120 net.cpp:122] Setting up norm2
I0428 13:41:16.082047 27120 net.cpp:129] Top shape: 32 256 27 27 (5971968)
I0428 13:41:16.082051 27120 net.cpp:137] Memory required for data: 211922688
I0428 13:41:16.082054 27120 layer_factory.hpp:77] Creating layer pool2
I0428 13:41:16.082062 27120 net.cpp:84] Creating Layer pool2
I0428 13:41:16.082065 27120 net.cpp:406] pool2 <- norm2
I0428 13:41:16.082072 27120 net.cpp:380] pool2 -> pool2
I0428 13:41:16.082098 27120 net.cpp:122] Setting up pool2
I0428 13:41:16.082105 27120 net.cpp:129] Top shape: 32 256 13 13 (1384448)
I0428 13:41:16.082108 27120 net.cpp:137] Memory required for data: 217460480
I0428 13:41:16.082110 27120 layer_factory.hpp:77] Creating layer conv3
I0428 13:41:16.082118 27120 net.cpp:84] Creating Layer conv3
I0428 13:41:16.082121 27120 net.cpp:406] conv3 <- pool2
I0428 13:41:16.082127 27120 net.cpp:380] conv3 -> conv3
I0428 13:41:16.092556 27120 net.cpp:122] Setting up conv3
I0428 13:41:16.092571 27120 net.cpp:129] Top shape: 32 384 13 13 (2076672)
I0428 13:41:16.092573 27120 net.cpp:137] Memory required for data: 225767168
I0428 13:41:16.092603 27120 layer_factory.hpp:77] Creating layer relu3
I0428 13:41:16.092610 27120 net.cpp:84] Creating Layer relu3
I0428 13:41:16.092613 27120 net.cpp:406] relu3 <- conv3
I0428 13:41:16.092622 27120 net.cpp:367] relu3 -> conv3 (in-place)
I0428 13:41:16.093194 27120 net.cpp:122] Setting up relu3
I0428 13:41:16.093206 27120 net.cpp:129] Top shape: 32 384 13 13 (2076672)
I0428 13:41:16.093209 27120 net.cpp:137] Memory required for data: 234073856
I0428 13:41:16.093212 27120 layer_factory.hpp:77] Creating layer conv3.5
I0428 13:41:16.093223 27120 net.cpp:84] Creating Layer conv3.5
I0428 13:41:16.093227 27120 net.cpp:406] conv3.5 <- conv3
I0428 13:41:16.093233 27120 net.cpp:380] conv3.5 -> conv3.5
I0428 13:41:16.130398 27120 net.cpp:122] Setting up conv3.5
I0428 13:41:16.130419 27120 net.cpp:129] Top shape: 32 384 11 11 (1486848)
I0428 13:41:16.130422 27120 net.cpp:137] Memory required for data: 240021248
I0428 13:41:16.130431 27120 layer_factory.hpp:77] Creating layer relu3.5
I0428 13:41:16.130439 27120 net.cpp:84] Creating Layer relu3.5
I0428 13:41:16.130443 27120 net.cpp:406] relu3.5 <- conv3.5
I0428 13:41:16.130450 27120 net.cpp:367] relu3.5 -> conv3.5 (in-place)
I0428 13:41:16.131181 27120 net.cpp:122] Setting up relu3.5
I0428 13:41:16.131191 27120 net.cpp:129] Top shape: 32 384 11 11 (1486848)
I0428 13:41:16.131194 27120 net.cpp:137] Memory required for data: 245968640
I0428 13:41:16.131197 27120 layer_factory.hpp:77] Creating layer conv4
I0428 13:41:16.131207 27120 net.cpp:84] Creating Layer conv4
I0428 13:41:16.131211 27120 net.cpp:406] conv4 <- conv3.5
I0428 13:41:16.131217 27120 net.cpp:380] conv4 -> conv4
I0428 13:41:16.142575 27120 net.cpp:122] Setting up conv4
I0428 13:41:16.142592 27120 net.cpp:129] Top shape: 32 384 11 11 (1486848)
I0428 13:41:16.142602 27120 net.cpp:137] Memory required for data: 251916032
I0428 13:41:16.142616 27120 layer_factory.hpp:77] Creating layer relu4
I0428 13:41:16.142623 27120 net.cpp:84] Creating Layer relu4
I0428 13:41:16.142628 27120 net.cpp:406] relu4 <- conv4
I0428 13:41:16.142633 27120 net.cpp:367] relu4 -> conv4 (in-place)
I0428 13:41:16.143240 27120 net.cpp:122] Setting up relu4
I0428 13:41:16.143249 27120 net.cpp:129] Top shape: 32 384 11 11 (1486848)
I0428 13:41:16.143252 27120 net.cpp:137] Memory required for data: 257863424
I0428 13:41:16.143255 27120 layer_factory.hpp:77] Creating layer conv5
I0428 13:41:16.143270 27120 net.cpp:84] Creating Layer conv5
I0428 13:41:16.143272 27120 net.cpp:406] conv5 <- conv4
I0428 13:41:16.143278 27120 net.cpp:380] conv5 -> conv5
I0428 13:41:16.152783 27120 net.cpp:122] Setting up conv5
I0428 13:41:16.152803 27120 net.cpp:129] Top shape: 32 256 11 11 (991232)
I0428 13:41:16.152806 27120 net.cpp:137] Memory required for data: 261828352
I0428 13:41:16.152814 27120 layer_factory.hpp:77] Creating layer relu5
I0428 13:41:16.152822 27120 net.cpp:84] Creating Layer relu5
I0428 13:41:16.152824 27120 net.cpp:406] relu5 <- conv5
I0428 13:41:16.152832 27120 net.cpp:367] relu5 -> conv5 (in-place)
I0428 13:41:16.153214 27120 net.cpp:122] Setting up relu5
I0428 13:41:16.153223 27120 net.cpp:129] Top shape: 32 256 11 11 (991232)
I0428 13:41:16.153225 27120 net.cpp:137] Memory required for data: 265793280
I0428 13:41:16.153228 27120 layer_factory.hpp:77] Creating layer pool5
I0428 13:41:16.153236 27120 net.cpp:84] Creating Layer pool5
I0428 13:41:16.153239 27120 net.cpp:406] pool5 <- conv5
I0428 13:41:16.153244 27120 net.cpp:380] pool5 -> pool5
I0428 13:41:16.153280 27120 net.cpp:122] Setting up pool5
I0428 13:41:16.153285 27120 net.cpp:129] Top shape: 32 256 5 5 (204800)
I0428 13:41:16.153288 27120 net.cpp:137] Memory required for data: 266612480
I0428 13:41:16.153291 27120 layer_factory.hpp:77] Creating layer fc6
I0428 13:41:16.153297 27120 net.cpp:84] Creating Layer fc6
I0428 13:41:16.153301 27120 net.cpp:406] fc6 <- pool5
I0428 13:41:16.153306 27120 net.cpp:380] fc6 -> fc6
I0428 13:41:16.401963 27120 net.cpp:122] Setting up fc6
I0428 13:41:16.401983 27120 net.cpp:129] Top shape: 32 4096 (131072)
I0428 13:41:16.402004 27120 net.cpp:137] Memory required for data: 267136768
I0428 13:41:16.402014 27120 layer_factory.hpp:77] Creating layer relu6
I0428 13:41:16.402021 27120 net.cpp:84] Creating Layer relu6
I0428 13:41:16.402024 27120 net.cpp:406] relu6 <- fc6
I0428 13:41:16.402034 27120 net.cpp:367] relu6 -> fc6 (in-place)
I0428 13:41:16.402803 27120 net.cpp:122] Setting up relu6
I0428 13:41:16.402813 27120 net.cpp:129] Top shape: 32 4096 (131072)
I0428 13:41:16.402817 27120 net.cpp:137] Memory required for data: 267661056
I0428 13:41:16.402819 27120 layer_factory.hpp:77] Creating layer drop6
I0428 13:41:16.402827 27120 net.cpp:84] Creating Layer drop6
I0428 13:41:16.402829 27120 net.cpp:406] drop6 <- fc6
I0428 13:41:16.402835 27120 net.cpp:367] drop6 -> fc6 (in-place)
I0428 13:41:16.402859 27120 net.cpp:122] Setting up drop6
I0428 13:41:16.402866 27120 net.cpp:129] Top shape: 32 4096 (131072)
I0428 13:41:16.402868 27120 net.cpp:137] Memory required for data: 268185344
I0428 13:41:16.402871 27120 layer_factory.hpp:77] Creating layer fc7
I0428 13:41:16.402877 27120 net.cpp:84] Creating Layer fc7
I0428 13:41:16.402880 27120 net.cpp:406] fc7 <- fc6
I0428 13:41:16.402886 27120 net.cpp:380] fc7 -> fc7
I0428 13:41:16.571383 27120 net.cpp:122] Setting up fc7
I0428 13:41:16.571405 27120 net.cpp:129] Top shape: 32 4096 (131072)
I0428 13:41:16.571408 27120 net.cpp:137] Memory required for data: 268709632
I0428 13:41:16.571417 27120 layer_factory.hpp:77] Creating layer relu7
I0428 13:41:16.571425 27120 net.cpp:84] Creating Layer relu7
I0428 13:41:16.571429 27120 net.cpp:406] relu7 <- fc7
I0428 13:41:16.571435 27120 net.cpp:367] relu7 -> fc7 (in-place)
I0428 13:41:16.572188 27120 net.cpp:122] Setting up relu7
I0428 13:41:16.572198 27120 net.cpp:129] Top shape: 32 4096 (131072)
I0428 13:41:16.572201 27120 net.cpp:137] Memory required for data: 269233920
I0428 13:41:16.572204 27120 layer_factory.hpp:77] Creating layer drop7
I0428 13:41:16.572211 27120 net.cpp:84] Creating Layer drop7
I0428 13:41:16.572216 27120 net.cpp:406] drop7 <- fc7
I0428 13:41:16.572219 27120 net.cpp:367] drop7 -> fc7 (in-place)
I0428 13:41:16.572244 27120 net.cpp:122] Setting up drop7
I0428 13:41:16.572248 27120 net.cpp:129] Top shape: 32 4096 (131072)
I0428 13:41:16.572252 27120 net.cpp:137] Memory required for data: 269758208
I0428 13:41:16.572254 27120 layer_factory.hpp:77] Creating layer fc8
I0428 13:41:16.572260 27120 net.cpp:84] Creating Layer fc8
I0428 13:41:16.572263 27120 net.cpp:406] fc8 <- fc7
I0428 13:41:16.572269 27120 net.cpp:380] fc8 -> fc8
I0428 13:41:16.580018 27120 net.cpp:122] Setting up fc8
I0428 13:41:16.580027 27120 net.cpp:129] Top shape: 32 196 (6272)
I0428 13:41:16.580030 27120 net.cpp:137] Memory required for data: 269783296
I0428 13:41:16.580044 27120 layer_factory.hpp:77] Creating layer fc8_fc8_0_split
I0428 13:41:16.580049 27120 net.cpp:84] Creating Layer fc8_fc8_0_split
I0428 13:41:16.580052 27120 net.cpp:406] fc8_fc8_0_split <- fc8
I0428 13:41:16.580057 27120 net.cpp:380] fc8_fc8_0_split -> fc8_fc8_0_split_0
I0428 13:41:16.580065 27120 net.cpp:380] fc8_fc8_0_split -> fc8_fc8_0_split_1
I0428 13:41:16.580096 27120 net.cpp:122] Setting up fc8_fc8_0_split
I0428 13:41:16.580099 27120 net.cpp:129] Top shape: 32 196 (6272)
I0428 13:41:16.580102 27120 net.cpp:129] Top shape: 32 196 (6272)
I0428 13:41:16.580106 27120 net.cpp:137] Memory required for data: 269833472
I0428 13:41:16.580107 27120 layer_factory.hpp:77] Creating layer accuracy
I0428 13:41:16.580116 27120 net.cpp:84] Creating Layer accuracy
I0428 13:41:16.580118 27120 net.cpp:406] accuracy <- fc8_fc8_0_split_0
I0428 13:41:16.580122 27120 net.cpp:406] accuracy <- label_val-data_1_split_0
I0428 13:41:16.580127 27120 net.cpp:380] accuracy -> accuracy
…
