…
I0409 19:56:53.730191 14973 net.cpp:294] The NetState phase (0) differed from the phase (1) specified by a rule in layer accuracy
I0409 19:56:53.730343 14973 net.cpp:51] Initializing net from parameters:
state {
phase: TRAIN
level: 0
stage: ""
}
layer {
name: "train-data"
type: "Data"
top: "data"
top: "label"
include {
phase: TRAIN
}
transform_param {
mirror: true
crop_size: 227
mean_file: "/mnt/bigdisk/DIGITS-MAN-2/digits/jobs/20210407-214532-d396/mean.binaryproto"
}
data_param {
source: "/mnt/bigdisk/DIGITS-MAN-2/digits/jobs/20210407-214532-d396/train_db"
batch_size: 128
backend: LMDB
}
}
layer {
name: "conv1"
type: "Convolution"
bottom: "data"
top: "conv1"
param {
lr_mult: 1
decay_mult: 1
}
param {
lr_mult: 2
decay_mult: 0
}
convolution_param {
num_output: 96
kernel_size: 11
stride: 4
weight_filler {
type: "gaussian"
std: 0.01
}
bias_filler {
type: "constant"
value: 0
}
}
}
layer {
name: "relu1"
type: "ReLU"
bottom: "conv1"
top: "conv1"
}
layer {
name: "norm1"
type: "LRN"
bottom: "conv1"
top: "norm1"
lrn_param {
local_size: 5
alpha: 0.0001
beta: 0.75
}
}
layer {
name: "pool1"
type: "Pooling"
bottom: "norm1"
top: "pool1"
pooling_param {
pool: MAX
kernel_size: 3
stride: 2
}
}
layer {
name: "conv2"
type: "Convolution"
bottom: "pool1"
top: "conv2"
param {
lr_mult: 1
decay_mult: 1
}
param {
lr_mult: 2
decay_mult: 0
}
convolution_param {
num_output: 256
pad: 2
kernel_size: 5
group: 2
weight_filler {
type: "gaussian"
std: 0.01
}
bias_filler {
type: "constant"
value: 0.1
}
}
}
layer {
name: "relu2"
type: "ReLU"
bottom: "conv2"
top: "conv2"
}
layer {
name: "norm2"
type: "LRN"
bottom: "conv2"
top: "norm2"
lrn_param {
local_size: 5
alpha: 0.0001
beta: 0.75
}
}
layer {
name: "pool2"
type: "Pooling"
bottom: "norm2"
top: "pool2"
pooling_param {
pool: MAX
kernel_size: 3
stride: 2
}
}
layer {
name: "conv3"
type: "Convolution"
bottom: "pool2"
top: "conv3"
param {
lr_mult: 1
decay_mult: 1
}
param {
lr_mult: 2
decay_mult: 0
}
convolution_param {
num_output: 384
pad: 1
kernel_size: 3
weight_filler {
type: "gaussian"
std: 0.01
}
bias_filler {
type: "constant"
value: 0
}
}
}
layer {
name: "relu3"
type: "ReLU"
bottom: "conv3"
top: "conv3"
}
layer {
name: "conv4"
type: "Convolution"
bottom: "conv3"
top: "conv4"
param {
lr_mult: 1
decay_mult: 1
}
param {
lr_mult: 2
decay_mult: 0
}
convolution_param {
num_output: 384
pad: 1
kernel_size: 3
group: 2
weight_filler {
type: "gaussian"
std: 0.01
}
bias_filler {
type: "constant"
value: 0.1
}
}
}
layer {
name: "relu4"
type: "ReLU"
bottom: "conv4"
top: "conv4"
}
layer {
name: "conv5"
type: "Convolution"
bottom: "conv4"
top: "conv5"
param {
lr_mult: 1
decay_mult: 1
}
param {
lr_mult: 2
decay_mult: 0
}
convolution_param {
num_output: 256
pad: 1
kernel_size: 3
group: 2
weight_filler {
type: "gaussian"
std: 0.01
}
bias_filler {
type: "constant"
value: 0.1
}
}
}
layer {
name: "relu5"
type: "ReLU"
bottom: "conv5"
top: "conv5"
}
layer {
name: "pool5"
type: "Pooling"
bottom: "conv5"
top: "pool5"
pooling_param {
pool: MAX
kernel_size: 3
stride: 2
}
}
layer {
name: "fc6"
type: "InnerProduct"
bottom: "pool5"
top: "fc6"
param {
lr_mult: 1
decay_mult: 1
}
param {
lr_mult: 2
decay_mult: 0
}
inner_product_param {
num_output: 2048
weight_filler {
type: "gaussian"
std: 0.005
}
bias_filler {
type: "constant"
value: 0.1
}
}
}
layer {
name: "relu6"
type: "ReLU"
bottom: "fc6"
top: "fc6"
}
layer {
name: "drop6"
type: "Dropout"
bottom: "fc6"
top: "fc6"
dropout_param {
dropout_ratio: 0.5
}
}
layer {
name: "fc7"
type: "InnerProduct"
bottom: "fc6"
top: "fc7"
param {
lr_mult: 1
decay_mult: 1
}
param {
lr_mult: 2
decay_mult: 0
}
inner_product_param {
num_output: 2048
weight_filler {
type: "gaussian"
std: 0.005
}
bias_filler {
type: "constant"
value: 0.1
}
}
}
layer {
name: "relu7"
type: "ReLU"
bottom: "fc7"
top: "fc7"
}
layer {
name: "drop7"
type: "Dropout"
bottom: "fc7"
top: "fc7"
dropout_param {
dropout_ratio: 0.5
}
}
layer {
name: "fc7.5"
type: "InnerProduct"
bottom: "fc7"
top: "fc7.5"
param {
lr_mult: 1
decay_mult: 1
}
param {
lr_mult: 2
decay_mult: 0
}
inner_product_param {
num_output: 2048
weight_filler {
type: "gaussian"
std: 0.005
}
bias_filler {
type: "constant"
value: 0.1
}
}
}
layer {
name: "relu7.5"
type: "ReLU"
bottom: "fc7.5"
top: "fc7.5"
}
layer {
name: "drop7.5"
type: "Dropout"
bottom: "fc7.5"
top: "fc7.5"
dropout_param {
dropout_ratio: 0.5
}
}
layer {
name: "fc8"
type: "InnerProduct"
bottom: "fc7.5"
top: "fc8"
param {
lr_mult: 1
decay_mult: 1
}
param {
lr_mult: 2
decay_mult: 0
}
inner_product_param {
num_output: 196
weight_filler {
type: "gaussian"
std: 0.01
}
bias_filler {
type: "constant"
value: 0
}
}
}
layer {
name: "loss"
type: "SoftmaxWithLoss"
bottom: "fc8"
bottom: "label"
top: "loss"
}
I0409 19:56:53.730439 14973 layer_factory.hpp:77] Creating layer train-data
I0409 19:56:53.732549 14973 db_lmdb.cpp:35] Opened lmdb /mnt/bigdisk/DIGITS-MAN-2/digits/jobs/20210407-214532-d396/train_db
I0409 19:56:53.732756 14973 net.cpp:84] Creating Layer train-data
I0409 19:56:53.732767 14973 net.cpp:380] train-data -> data
I0409 19:56:53.732787 14973 net.cpp:380] train-data -> label
I0409 19:56:53.732798 14973 data_transformer.cpp:25] Loading mean file from: /mnt/bigdisk/DIGITS-MAN-2/digits/jobs/20210407-214532-d396/mean.binaryproto
I0409 19:56:53.737419 14973 data_layer.cpp:45] output data size: 128,3,227,227
I0409 19:56:53.861343 14973 net.cpp:122] Setting up train-data
I0409 19:56:53.861366 14973 net.cpp:129] Top shape: 128 3 227 227 (19787136)
I0409 19:56:53.861371 14973 net.cpp:129] Top shape: 128 (128)
I0409 19:56:53.861374 14973 net.cpp:137] Memory required for data: 79149056
I0409 19:56:53.861384 14973 layer_factory.hpp:77] Creating layer conv1
I0409 19:56:53.861405 14973 net.cpp:84] Creating Layer conv1
I0409 19:56:53.861413 14973 net.cpp:406] conv1 <- data
I0409 19:56:53.861424 14973 net.cpp:380] conv1 -> conv1
I0409 19:56:54.407604 14973 net.cpp:122] Setting up conv1
I0409 19:56:54.407625 14973 net.cpp:129] Top shape: 128 96 55 55 (37171200)
I0409 19:56:54.407629 14973 net.cpp:137] Memory required for data: 227833856
I0409 19:56:54.407649 14973 layer_factory.hpp:77] Creating layer relu1
I0409 19:56:54.407678 14973 net.cpp:84] Creating Layer relu1
I0409 19:56:54.407683 14973 net.cpp:406] relu1 <- conv1
I0409 19:56:54.407689 14973 net.cpp:367] relu1 -> conv1 (in-place)
I0409 19:56:54.407975 14973 net.cpp:122] Setting up relu1
I0409 19:56:54.407984 14973 net.cpp:129] Top shape: 128 96 55 55 (37171200)
I0409 19:56:54.407987 14973 net.cpp:137] Memory required for data: 376518656
I0409 19:56:54.407991 14973 layer_factory.hpp:77] Creating layer norm1
I0409 19:56:54.408000 14973 net.cpp:84] Creating Layer norm1
I0409 19:56:54.408004 14973 net.cpp:406] norm1 <- conv1
I0409 19:56:54.408008 14973 net.cpp:380] norm1 -> norm1
I0409 19:56:54.408445 14973 net.cpp:122] Setting up norm1
I0409 19:56:54.408454 14973 net.cpp:129] Top shape: 128 96 55 55 (37171200)
I0409 19:56:54.408458 14973 net.cpp:137] Memory required for data: 525203456
I0409 19:56:54.408463 14973 layer_factory.hpp:77] Creating layer pool1
I0409 19:56:54.408470 14973 net.cpp:84] Creating Layer pool1
I0409 19:56:54.408473 14973 net.cpp:406] pool1 <- norm1
I0409 19:56:54.408478 14973 net.cpp:380] pool1 -> pool1
I0409 19:56:54.408514 14973 net.cpp:122] Setting up pool1
I0409 19:56:54.408520 14973 net.cpp:129] Top shape: 128 96 27 27 (8957952)
I0409 19:56:54.408524 14973 net.cpp:137] Memory required for data: 561035264
I0409 19:56:54.408526 14973 layer_factory.hpp:77] Creating layer conv2
I0409 19:56:54.408536 14973 net.cpp:84] Creating Layer conv2
I0409 19:56:54.408540 14973 net.cpp:406] conv2 <- pool1
I0409 19:56:54.408545 14973 net.cpp:380] conv2 -> conv2
I0409 19:56:54.415040 14973 net.cpp:122] Setting up conv2
I0409 19:56:54.415052 14973 net.cpp:129] Top shape: 128 256 27 27 (23887872)
I0409 19:56:54.415056 14973 net.cpp:137] Memory required for data: 656586752
I0409 19:56:54.415066 14973 layer_factory.hpp:77] Creating layer relu2
I0409 19:56:54.415072 14973 net.cpp:84] Creating Layer relu2
I0409 19:56:54.415076 14973 net.cpp:406] relu2 <- conv2
I0409 19:56:54.415081 14973 net.cpp:367] relu2 -> conv2 (in-place)
I0409 19:56:54.415498 14973 net.cpp:122] Setting up relu2
I0409 19:56:54.415508 14973 net.cpp:129] Top shape: 128 256 27 27 (23887872)
I0409 19:56:54.415511 14973 net.cpp:137] Memory required for data: 752138240
I0409 19:56:54.415515 14973 layer_factory.hpp:77] Creating layer norm2
I0409 19:56:54.415522 14973 net.cpp:84] Creating Layer norm2
I0409 19:56:54.415526 14973 net.cpp:406] norm2 <- conv2
I0409 19:56:54.415531 14973 net.cpp:380] norm2 -> norm2
I0409 19:56:54.415817 14973 net.cpp:122] Setting up norm2
I0409 19:56:54.415825 14973 net.cpp:129] Top shape: 128 256 27 27 (23887872)
I0409 19:56:54.415828 14973 net.cpp:137] Memory required for data: 847689728
I0409 19:56:54.415832 14973 layer_factory.hpp:77] Creating layer pool2
I0409 19:56:54.415839 14973 net.cpp:84] Creating Layer pool2
I0409 19:56:54.415843 14973 net.cpp:406] pool2 <- norm2
I0409 19:56:54.415848 14973 net.cpp:380] pool2 -> pool2
I0409 19:56:54.415874 14973 net.cpp:122] Setting up pool2
I0409 19:56:54.415879 14973 net.cpp:129] Top shape: 128 256 13 13 (5537792)
I0409 19:56:54.415881 14973 net.cpp:137] Memory required for data: 869840896
I0409 19:56:54.415885 14973 layer_factory.hpp:77] Creating layer conv3
I0409 19:56:54.415894 14973 net.cpp:84] Creating Layer conv3
I0409 19:56:54.415897 14973 net.cpp:406] conv3 <- pool2
I0409 19:56:54.415902 14973 net.cpp:380] conv3 -> conv3
I0409 19:56:54.425623 14973 net.cpp:122] Setting up conv3
I0409 19:56:54.425634 14973 net.cpp:129] Top shape: 128 384 13 13 (8306688)
I0409 19:56:54.425638 14973 net.cpp:137] Memory required for data: 903067648
I0409 19:56:54.425647 14973 layer_factory.hpp:77] Creating layer relu3
I0409 19:56:54.425653 14973 net.cpp:84] Creating Layer relu3
I0409 19:56:54.425657 14973 net.cpp:406] relu3 <- conv3
I0409 19:56:54.425662 14973 net.cpp:367] relu3 -> conv3 (in-place)
I0409 19:56:54.426086 14973 net.cpp:122] Setting up relu3
I0409 19:56:54.426095 14973 net.cpp:129] Top shape: 128 384 13 13 (8306688)
I0409 19:56:54.426100 14973 net.cpp:137] Memory required for data: 936294400
I0409 19:56:54.426103 14973 layer_factory.hpp:77] Creating layer conv4
I0409 19:56:54.426129 14973 net.cpp:84] Creating Layer conv4
I0409 19:56:54.426133 14973 net.cpp:406] conv4 <- conv3
I0409 19:56:54.426138 14973 net.cpp:380] conv4 -> conv4
I0409 19:56:54.436084 14973 net.cpp:122] Setting up conv4
I0409 19:56:54.436097 14973 net.cpp:129] Top shape: 128 384 13 13 (8306688)
I0409 19:56:54.436101 14973 net.cpp:137] Memory required for data: 969521152
I0409 19:56:54.436108 14973 layer_factory.hpp:77] Creating layer relu4
I0409 19:56:54.436115 14973 net.cpp:84] Creating Layer relu4
I0409 19:56:54.436120 14973 net.cpp:406] relu4 <- conv4
I0409 19:56:54.436125 14973 net.cpp:367] relu4 -> conv4 (in-place)
I0409 19:56:54.436457 14973 net.cpp:122] Setting up relu4
I0409 19:56:54.436465 14973 net.cpp:129] Top shape: 128 384 13 13 (8306688)
I0409 19:56:54.436468 14973 net.cpp:137] Memory required for data: 1002747904
I0409 19:56:54.436472 14973 layer_factory.hpp:77] Creating layer conv5
I0409 19:56:54.436482 14973 net.cpp:84] Creating Layer conv5
I0409 19:56:54.436486 14973 net.cpp:406] conv5 <- conv4
I0409 19:56:54.436492 14973 net.cpp:380] conv5 -> conv5
I0409 19:56:54.445986 14973 net.cpp:122] Setting up conv5
I0409 19:56:54.445998 14973 net.cpp:129] Top shape: 128 256 13 13 (5537792)
I0409 19:56:54.446003 14973 net.cpp:137] Memory required for data: 1024899072
I0409 19:56:54.446015 14973 layer_factory.hpp:77] Creating layer relu5
I0409 19:56:54.446022 14973 net.cpp:84] Creating Layer relu5
I0409 19:56:54.446025 14973 net.cpp:406] relu5 <- conv5
I0409 19:56:54.446033 14973 net.cpp:367] relu5 -> conv5 (in-place)
I0409 19:56:54.446525 14973 net.cpp:122] Setting up relu5
I0409 19:56:54.446535 14973 net.cpp:129] Top shape: 128 256 13 13 (5537792)
I0409 19:56:54.446539 14973 net.cpp:137] Memory required for data: 1047050240
I0409 19:56:54.446542 14973 layer_factory.hpp:77] Creating layer pool5
I0409 19:56:54.446550 14973 net.cpp:84] Creating Layer pool5
I0409 19:56:54.446554 14973 net.cpp:406] pool5 <- conv5
I0409 19:56:54.446561 14973 net.cpp:380] pool5 -> pool5
I0409 19:56:54.446599 14973 net.cpp:122] Setting up pool5
I0409 19:56:54.446604 14973 net.cpp:129] Top shape: 128 256 6 6 (1179648)
I0409 19:56:54.446609 14973 net.cpp:137] Memory required for data: 1051768832
I0409 19:56:54.446612 14973 layer_factory.hpp:77] Creating layer fc6
I0409 19:56:54.446622 14973 net.cpp:84] Creating Layer fc6
I0409 19:56:54.446626 14973 net.cpp:406] fc6 <- pool5
I0409 19:56:54.446632 14973 net.cpp:380] fc6 -> fc6
I0409 19:56:54.628520 14973 net.cpp:122] Setting up fc6
I0409 19:56:54.628540 14973 net.cpp:129] Top shape: 128 2048 (262144)
I0409 19:56:54.628543 14973 net.cpp:137] Memory required for data: 1052817408
I0409 19:56:54.628553 14973 layer_factory.hpp:77] Creating layer relu6
I0409 19:56:54.628563 14973 net.cpp:84] Creating Layer relu6
I0409 19:56:54.628567 14973 net.cpp:406] relu6 <- fc6
I0409 19:56:54.628574 14973 net.cpp:367] relu6 -> fc6 (in-place)
I0409 19:56:54.629189 14973 net.cpp:122] Setting up relu6
I0409 19:56:54.629199 14973 net.cpp:129] Top shape: 128 2048 (262144)
I0409 19:56:54.629202 14973 net.cpp:137] Memory required for data: 1053865984
I0409 19:56:54.629206 14973 layer_factory.hpp:77] Creating layer drop6
I0409 19:56:54.629213 14973 net.cpp:84] Creating Layer drop6
I0409 19:56:54.629216 14973 net.cpp:406] drop6 <- fc6
I0409 19:56:54.629222 14973 net.cpp:367] drop6 -> fc6 (in-place)
I0409 19:56:54.629248 14973 net.cpp:122] Setting up drop6
I0409 19:56:54.629254 14973 net.cpp:129] Top shape: 128 2048 (262144)
I0409 19:56:54.629257 14973 net.cpp:137] Memory required for data: 1054914560
I0409 19:56:54.629261 14973 layer_factory.hpp:77] Creating layer fc7
I0409 19:56:54.629269 14973 net.cpp:84] Creating Layer fc7
I0409 19:56:54.629272 14973 net.cpp:406] fc7 <- fc6
I0409 19:56:54.629278 14973 net.cpp:380] fc7 -> fc7
I0409 19:56:54.668452 14973 net.cpp:122] Setting up fc7
I0409 19:56:54.668471 14973 net.cpp:129] Top shape: 128 2048 (262144)
I0409 19:56:54.668475 14973 net.cpp:137] Memory required for data: 1055963136
I0409 19:56:54.668484 14973 layer_factory.hpp:77] Creating layer relu7
I0409 19:56:54.668512 14973 net.cpp:84] Creating Layer relu7
I0409 19:56:54.668516 14973 net.cpp:406] relu7 <- fc7
I0409 19:56:54.668524 14973 net.cpp:367] relu7 -> fc7 (in-place)
I0409 19:56:54.669131 14973 net.cpp:122] Setting up relu7
I0409 19:56:54.669142 14973 net.cpp:129] Top shape: 128 2048 (262144)
I0409 19:56:54.669144 14973 net.cpp:137] Memory required for data: 1057011712
I0409 19:56:54.669148 14973 layer_factory.hpp:77] Creating layer drop7
I0409 19:56:54.669155 14973 net.cpp:84] Creating Layer drop7
I0409 19:56:54.669159 14973 net.cpp:406] drop7 <- fc7
I0409 19:56:54.669164 14973 net.cpp:367] drop7 -> fc7 (in-place)
I0409 19:56:54.669188 14973 net.cpp:122] Setting up drop7
I0409 19:56:54.669193 14973 net.cpp:129] Top shape: 128 2048 (262144)
I0409 19:56:54.669196 14973 net.cpp:137] Memory required for data: 1058060288
I0409 19:56:54.669200 14973 layer_factory.hpp:77] Creating layer fc7.5
I0409 19:56:54.669206 14973 net.cpp:84] Creating Layer fc7.5
I0409 19:56:54.669209 14973 net.cpp:406] fc7.5 <- fc7
I0409 19:56:54.669216 14973 net.cpp:380] fc7.5 -> fc7.5
I0409 19:56:54.708346 14973 net.cpp:122] Setting up fc7.5
I0409 19:56:54.708366 14973 net.cpp:129] Top shape: 128 2048 (262144)
I0409 19:56:54.708370 14973 net.cpp:137] Memory required for data: 1059108864
I0409 19:56:54.708380 14973 layer_factory.hpp:77] Creating layer relu7.5
I0409 19:56:54.708389 14973 net.cpp:84] Creating Layer relu7.5
I0409 19:56:54.708395 14973 net.cpp:406] relu7.5 <- fc7.5
I0409 19:56:54.708400 14973 net.cpp:367] relu7.5 -> fc7.5 (in-place)
I0409 19:56:54.709041 14973 net.cpp:122] Setting up relu7.5
I0409 19:56:54.709049 14973 net.cpp:129] Top shape: 128 2048 (262144)
I0409 19:56:54.709053 14973 net.cpp:137] Memory required for data: 1060157440
I0409 19:56:54.709057 14973 layer_factory.hpp:77] Creating layer drop7.5
I0409 19:56:54.709064 14973 net.cpp:84] Creating Layer drop7.5
I0409 19:56:54.709069 14973 net.cpp:406] drop7.5 <- fc7.5
I0409 19:56:54.709074 14973 net.cpp:367] drop7.5 -> fc7.5 (in-place)
I0409 19:56:54.709097 14973 net.cpp:122] Setting up drop7.5
I0409 19:56:54.709102 14973 net.cpp:129] Top shape: 128 2048 (262144)
I0409 19:56:54.709105 14973 net.cpp:137] Memory required for data: 1061206016
I0409 19:56:54.709110 14973 layer_factory.hpp:77] Creating layer fc8
I0409 19:56:54.709116 14973 net.cpp:84] Creating Layer fc8
I0409 19:56:54.709120 14973 net.cpp:406] fc8 <- fc7.5
I0409 19:56:54.709125 14973 net.cpp:380] fc8 -> fc8
I0409 19:56:54.713171 14973 net.cpp:122] Setting up fc8
I0409 19:56:54.713181 14973 net.cpp:129] Top shape: 128 196 (25088)
I0409 19:56:54.713184 14973 net.cpp:137] Memory required for data: 1061306368
I0409 19:56:54.713193 14973 layer_factory.hpp:77] Creating layer loss
I0409 19:56:54.713201 14973 net.cpp:84] Creating Layer loss
I0409 19:56:54.713204 14973 net.cpp:406] loss <- fc8
I0409 19:56:54.713209 14973 net.cpp:406] loss <- label
I0409 19:56:54.713215 14973 net.cpp:380] loss -> loss
I0409 19:56:54.713227 14973 layer_factory.hpp:77] Creating layer loss
…
I0409 19:56:54.714534 14973 net.cpp:294] The NetState phase (1) differed from the phase (0) specified by a rule in layer train-data
I0409 19:56:54.714709 14973 net.cpp:51] Initializing net from parameters:
state {
phase: TEST
}
layer {
name: "val-data"
type: "Data"
top: "data"
top: "label"
include {
phase: TEST
}
transform_param {
crop_size: 227
mean_file: "/mnt/bigdisk/DIGITS-MAN-2/digits/jobs/20210407-214532-d396/mean.binaryproto"
}
data_param {
source: "/mnt/bigdisk/DIGITS-MAN-2/digits/jobs/20210407-214532-d396/val_db"
batch_size: 32
backend: LMDB
}
}
layer {
name: "conv1"
type: "Convolution"
bottom: "data"
top: "conv1"
param {
lr_mult: 1
decay_mult: 1
}
param {
lr_mult: 2
decay_mult: 0
}
convolution_param {
num_output: 96
kernel_size: 11
stride: 4
weight_filler {
type: "gaussian"
std: 0.01
}
bias_filler {
type: "constant"
value: 0
}
}
}
layer {
name: "relu1"
type: "ReLU"
bottom: "conv1"
top: "conv1"
}
layer {
name: "norm1"
type: "LRN"
bottom: "conv1"
top: "norm1"
lrn_param {
local_size: 5
alpha: 0.0001
beta: 0.75
}
}
layer {
name: "pool1"
type: "Pooling"
bottom: "norm1"
top: "pool1"
pooling_param {
pool: MAX
kernel_size: 3
stride: 2
}
}
layer {
name: "conv2"
type: "Convolution"
bottom: "pool1"
top: "conv2"
param {
lr_mult: 1
decay_mult: 1
}
param {
lr_mult: 2
decay_mult: 0
}
convolution_param {
num_output: 256
pad: 2
kernel_size: 5
group: 2
weight_filler {
type: "gaussian"
std: 0.01
}
bias_filler {
type: "constant"
value: 0.1
}
}
}
layer {
name: "relu2"
type: "ReLU"
bottom: "conv2"
top: "conv2"
}
layer {
name: "norm2"
type: "LRN"
bottom: "conv2"
top: "norm2"
lrn_param {
local_size: 5
alpha: 0.0001
beta: 0.75
}
}
layer {
name: "pool2"
type: "Pooling"
bottom: "norm2"
top: "pool2"
pooling_param {
pool: MAX
kernel_size: 3
stride: 2
}
}
layer {
name: "conv3"
type: "Convolution"
bottom: "pool2"
top: "conv3"
param {
lr_mult: 1
decay_mult: 1
}
param {
lr_mult: 2
decay_mult: 0
}
convolution_param {
num_output: 384
pad: 1
kernel_size: 3
weight_filler {
type: "gaussian"
std: 0.01
}
bias_filler {
type: "constant"
value: 0
}
}
}
layer {
name: "relu3"
type: "ReLU"
bottom: "conv3"
top: "conv3"
}
layer {
name: "conv4"
type: "Convolution"
bottom: "conv3"
top: "conv4"
param {
lr_mult: 1
decay_mult: 1
}
param {
lr_mult: 2
decay_mult: 0
}
convolution_param {
num_output: 384
pad: 1
kernel_size: 3
group: 2
weight_filler {
type: "gaussian"
std: 0.01
}
bias_filler {
type: "constant"
value: 0.1
}
}
}
layer {
name: "relu4"
type: "ReLU"
bottom: "conv4"
top: "conv4"
}
layer {
name: "conv5"
type: "Convolution"
bottom: "conv4"
top: "conv5"
param {
lr_mult: 1
decay_mult: 1
}
param {
lr_mult: 2
decay_mult: 0
}
convolution_param {
num_output: 256
pad: 1
kernel_size: 3
group: 2
weight_filler {
type: "gaussian"
std: 0.01
}
bias_filler {
type: "constant"
value: 0.1
}
}
}
layer {
name: "relu5"
type: "ReLU"
bottom: "conv5"
top: "conv5"
}
layer {
name: "pool5"
type: "Pooling"
bottom: "conv5"
top: "pool5"
pooling_param {
pool: MAX
kernel_size: 3
stride: 2
}
}
layer {
name: "fc6"
type: "InnerProduct"
bottom: "pool5"
top: "fc6"
param {
lr_mult: 1
decay_mult: 1
}
param {
lr_mult: 2
decay_mult: 0
}
inner_product_param {
num_output: 2048
weight_filler {
type: "gaussian"
std: 0.005
}
bias_filler {
type: "constant"
value: 0.1
}
}
}
layer {
name: "relu6"
type: "ReLU"
bottom: "fc6"
top: "fc6"
}
layer {
name: "drop6"
type: "Dropout"
bottom: "fc6"
top: "fc6"
dropout_param {
dropout_ratio: 0.5
}
}
layer {
name: "fc7"
type: "InnerProduct"
bottom: "fc6"
top: "fc7"
param {
lr_mult: 1
decay_mult: 1
}
param {
lr_mult: 2
decay_mult: 0
}
inner_product_param {
num_output: 2048
weight_filler {
type: "gaussian"
std: 0.005
}
bias_filler {
type: "constant"
value: 0.1
}
}
}
layer {
name: "relu7"
type: "ReLU"
bottom: "fc7"
top: "fc7"
}
layer {
name: "drop7"
type: "Dropout"
bottom: "fc7"
top: "fc7"
dropout_param {
dropout_ratio: 0.5
}
}
layer {
name: "fc7.5"
type: "InnerProduct"
bottom: "fc7"
top: "fc7.5"
param {
lr_mult: 1
decay_mult: 1
}
param {
lr_mult: 2
decay_mult: 0
}
inner_product_param {
num_output: 2048
weight_filler {
type: "gaussian"
std: 0.005
}
bias_filler {
type: "constant"
value: 0.1
}
}
}
layer {
name: "relu7.5"
type: "ReLU"
bottom: "fc7.5"
top: "fc7.5"
}
layer {
name: "drop7.5"
type: "Dropout"
bottom: "fc7.5"
top: "fc7.5"
dropout_param {
dropout_ratio: 0.5
}
}
layer {
name: "fc8"
type: "InnerProduct"
bottom: "fc7.5"
top: "fc8"
param {
lr_mult: 1
decay_mult: 1
}
param {
lr_mult: 2
decay_mult: 0
}
inner_product_param {
num_output: 196
weight_filler {
type: "gaussian"
std: 0.01
}
bias_filler {
type: "constant"
value: 0
}
}
}
layer {
name: "accuracy"
type: "Accuracy"
bottom: "fc8"
bottom: "label"
top: "accuracy"
include {
phase: TEST
}
}
layer {
name: "loss"
type: "SoftmaxWithLoss"
bottom: "fc8"
bottom: "label"
top: "loss"
}
I0409 19:56:54.714804 14973 layer_factory.hpp:77] Creating layer val-data
I0409 19:56:54.716434 14973 db_lmdb.cpp:35] Opened lmdb /mnt/bigdisk/DIGITS-MAN-2/digits/jobs/20210407-214532-d396/val_db
I0409 19:56:54.716639 14973 net.cpp:84] Creating Layer val-data
I0409 19:56:54.716648 14973 net.cpp:380] val-data -> data
I0409 19:56:54.716656 14973 net.cpp:380] val-data -> label
I0409 19:56:54.716663 14973 data_transformer.cpp:25] Loading mean file from: /mnt/bigdisk/DIGITS-MAN-2/digits/jobs/20210407-214532-d396/mean.binaryproto
I0409 19:56:54.720525 14973 data_layer.cpp:45] output data size: 32,3,227,227
I0409 19:56:54.750816 14973 net.cpp:122] Setting up val-data
I0409 19:56:54.750838 14973 net.cpp:129] Top shape: 32 3 227 227 (4946784)
I0409 19:56:54.750841 14973 net.cpp:129] Top shape: 32 (32)
I0409 19:56:54.750845 14973 net.cpp:137] Memory required for data: 19787264
I0409 19:56:54.750869 14973 layer_factory.hpp:77] Creating layer label_val-data_1_split
I0409 19:56:54.750880 14973 net.cpp:84] Creating Layer label_val-data_1_split
I0409 19:56:54.750885 14973 net.cpp:406] label_val-data_1_split <- label
I0409 19:56:54.750891 14973 net.cpp:380] label_val-data_1_split -> label_val-data_1_split_0
I0409 19:56:54.750900 14973 net.cpp:380] label_val-data_1_split -> label_val-data_1_split_1
I0409 19:56:54.751008 14973 net.cpp:122] Setting up label_val-data_1_split
I0409 19:56:54.751014 14973 net.cpp:129] Top shape: 32 (32)
I0409 19:56:54.751017 14973 net.cpp:129] Top shape: 32 (32)
I0409 19:56:54.751020 14973 net.cpp:137] Memory required for data: 19787520
I0409 19:56:54.751024 14973 layer_factory.hpp:77] Creating layer conv1
I0409 19:56:54.751035 14973 net.cpp:84] Creating Layer conv1
I0409 19:56:54.751039 14973 net.cpp:406] conv1 <- data
I0409 19:56:54.751044 14973 net.cpp:380] conv1 -> conv1
I0409 19:56:54.753171 14973 net.cpp:122] Setting up conv1
I0409 19:56:54.753181 14973 net.cpp:129] Top shape: 32 96 55 55 (9292800)
I0409 19:56:54.753185 14973 net.cpp:137] Memory required for data: 56958720
I0409 19:56:54.753196 14973 layer_factory.hpp:77] Creating layer relu1
I0409 19:56:54.753202 14973 net.cpp:84] Creating Layer relu1
I0409 19:56:54.753206 14973 net.cpp:406] relu1 <- conv1
I0409 19:56:54.753211 14973 net.cpp:367] relu1 -> conv1 (in-place)
I0409 19:56:54.753654 14973 net.cpp:122] Setting up relu1
I0409 19:56:54.753662 14973 net.cpp:129] Top shape: 32 96 55 55 (9292800)
I0409 19:56:54.753665 14973 net.cpp:137] Memory required for data: 94129920
I0409 19:56:54.753669 14973 layer_factory.hpp:77] Creating layer norm1
I0409 19:56:54.753677 14973 net.cpp:84] Creating Layer norm1
I0409 19:56:54.753681 14973 net.cpp:406] norm1 <- conv1
I0409 19:56:54.753686 14973 net.cpp:380] norm1 -> norm1
I0409 19:56:54.755100 14973 net.cpp:122] Setting up norm1
I0409 19:56:54.755110 14973 net.cpp:129] Top shape: 32 96 55 55 (9292800)
I0409 19:56:54.755113 14973 net.cpp:137] Memory required for data: 131301120
I0409 19:56:54.755117 14973 layer_factory.hpp:77] Creating layer pool1
I0409 19:56:54.755125 14973 net.cpp:84] Creating Layer pool1
I0409 19:56:54.755127 14973 net.cpp:406] pool1 <- norm1
I0409 19:56:54.755133 14973 net.cpp:380] pool1 -> pool1
I0409 19:56:54.755162 14973 net.cpp:122] Setting up pool1
I0409 19:56:54.755167 14973 net.cpp:129] Top shape: 32 96 27 27 (2239488)
I0409 19:56:54.755170 14973 net.cpp:137] Memory required for data: 140259072
I0409 19:56:54.755173 14973 layer_factory.hpp:77] Creating layer conv2
I0409 19:56:54.755182 14973 net.cpp:84] Creating Layer conv2
I0409 19:56:54.755184 14973 net.cpp:406] conv2 <- pool1
I0409 19:56:54.755189 14973 net.cpp:380] conv2 -> conv2
I0409 19:56:54.762917 14973 net.cpp:122] Setting up conv2
I0409 19:56:54.762930 14973 net.cpp:129] Top shape: 32 256 27 27 (5971968)
I0409 19:56:54.762934 14973 net.cpp:137] Memory required for data: 164146944
I0409 19:56:54.762944 14973 layer_factory.hpp:77] Creating layer relu2
I0409 19:56:54.762953 14973 net.cpp:84] Creating Layer relu2
I0409 19:56:54.762956 14973 net.cpp:406] relu2 <- conv2
I0409 19:56:54.762961 14973 net.cpp:367] relu2 -> conv2 (in-place)
I0409 19:56:54.763459 14973 net.cpp:122] Setting up relu2
I0409 19:56:54.763468 14973 net.cpp:129] Top shape: 32 256 27 27 (5971968)
I0409 19:56:54.763473 14973 net.cpp:137] Memory required for data: 188034816
I0409 19:56:54.763475 14973 layer_factory.hpp:77] Creating layer norm2
I0409 19:56:54.763486 14973 net.cpp:84] Creating Layer norm2
I0409 19:56:54.763489 14973 net.cpp:406] norm2 <- conv2
I0409 19:56:54.763495 14973 net.cpp:380] norm2 -> norm2
I0409 19:56:54.763859 14973 net.cpp:122] Setting up norm2
I0409 19:56:54.763867 14973 net.cpp:129] Top shape: 32 256 27 27 (5971968)
I0409 19:56:54.763870 14973 net.cpp:137] Memory required for data: 211922688
I0409 19:56:54.763875 14973 layer_factory.hpp:77] Creating layer pool2
I0409 19:56:54.763882 14973 net.cpp:84] Creating Layer pool2
I0409 19:56:54.763885 14973 net.cpp:406] pool2 <- norm2
I0409 19:56:54.763906 14973 net.cpp:380] pool2 -> pool2
I0409 19:56:54.763938 14973 net.cpp:122] Setting up pool2
I0409 19:56:54.763944 14973 net.cpp:129] Top shape: 32 256 13 13 (1384448)
I0409 19:56:54.763947 14973 net.cpp:137] Memory required for data: 217460480
I0409 19:56:54.763950 14973 layer_factory.hpp:77] Creating layer conv3
I0409 19:56:54.763959 14973 net.cpp:84] Creating Layer conv3
I0409 19:56:54.763963 14973 net.cpp:406] conv3 <- pool2
I0409 19:56:54.763969 14973 net.cpp:380] conv3 -> conv3
I0409 19:56:54.774989 14973 net.cpp:122] Setting up conv3
I0409 19:56:54.775007 14973 net.cpp:129] Top shape: 32 384 13 13 (2076672)
I0409 19:56:54.775009 14973 net.cpp:137] Memory required for data: 225767168
I0409 19:56:54.775020 14973 layer_factory.hpp:77] Creating layer relu3
I0409 19:56:54.775027 14973 net.cpp:84] Creating Layer relu3
I0409 19:56:54.775032 14973 net.cpp:406] relu3 <- conv3
I0409 19:56:54.775038 14973 net.cpp:367] relu3 -> conv3 (in-place)
I0409 19:56:54.775385 14973 net.cpp:122] Setting up relu3
I0409 19:56:54.775393 14973 net.cpp:129] Top shape: 32 384 13 13 (2076672)
I0409 19:56:54.775396 14973 net.cpp:137] Memory required for data: 234073856
I0409 19:56:54.775400 14973 layer_factory.hpp:77] Creating layer conv4
I0409 19:56:54.775410 14973 net.cpp:84] Creating Layer conv4
I0409 19:56:54.775414 14973 net.cpp:406] conv4 <- conv3
I0409 19:56:54.775421 14973 net.cpp:380] conv4 -> conv4
I0409 19:56:54.784818 14973 net.cpp:122] Setting up conv4
I0409 19:56:54.784830 14973 net.cpp:129] Top shape: 32 384 13 13 (2076672)
I0409 19:56:54.784834 14973 net.cpp:137] Memory required for data: 242380544
I0409 19:56:54.784842 14973 layer_factory.hpp:77] Creating layer relu4
I0409 19:56:54.784850 14973 net.cpp:84] Creating Layer relu4
I0409 19:56:54.784853 14973 net.cpp:406] relu4 <- conv4
I0409 19:56:54.784859 14973 net.cpp:367] relu4 -> conv4 (in-place)
I0409 19:56:54.785346 14973 net.cpp:122] Setting up relu4
I0409 19:56:54.785356 14973 net.cpp:129] Top shape: 32 384 13 13 (2076672)
I0409 19:56:54.785358 14973 net.cpp:137] Memory required for data: 250687232
I0409 19:56:54.785362 14973 layer_factory.hpp:77] Creating layer conv5
I0409 19:56:54.785372 14973 net.cpp:84] Creating Layer conv5
I0409 19:56:54.785377 14973 net.cpp:406] conv5 <- conv4
I0409 19:56:54.785383 14973 net.cpp:380] conv5 -> conv5
I0409 19:56:54.793856 14973 net.cpp:122] Setting up conv5
I0409 19:56:54.793872 14973 net.cpp:129] Top shape: 32 256 13 13 (1384448)
I0409 19:56:54.793876 14973 net.cpp:137] Memory required for data: 256225024
I0409 19:56:54.793887 14973 layer_factory.hpp:77] Creating layer relu5
I0409 19:56:54.793895 14973 net.cpp:84] Creating Layer relu5
I0409 19:56:54.793898 14973 net.cpp:406] relu5 <- conv5
I0409 19:56:54.793905 14973 net.cpp:367] relu5 -> conv5 (in-place)
I0409 19:56:54.794603 14973 net.cpp:122] Setting up relu5
I0409 19:56:54.794613 14973 net.cpp:129] Top shape: 32 256 13 13 (1384448)
I0409 19:56:54.794616 14973 net.cpp:137] Memory required for data: 261762816
I0409 19:56:54.794620 14973 layer_factory.hpp:77] Creating layer pool5
I0409 19:56:54.794631 14973 net.cpp:84] Creating Layer pool5
I0409 19:56:54.794641 14973 net.cpp:406] pool5 <- conv5
I0409 19:56:54.794646 14973 net.cpp:380] pool5 -> pool5
I0409 19:56:54.794685 14973 net.cpp:122] Setting up pool5
I0409 19:56:54.794690 14973 net.cpp:129] Top shape: 32 256 6 6 (294912)
I0409 19:56:54.794694 14973 net.cpp:137] Memory required for data: 262942464
I0409 19:56:54.794697 14973 layer_factory.hpp:77] Creating layer fc6
I0409 19:56:54.794705 14973 net.cpp:84] Creating Layer fc6
I0409 19:56:54.794709 14973 net.cpp:406] fc6 <- pool5
I0409 19:56:54.794714 14973 net.cpp:380] fc6 -> fc6
I0409 19:56:54.971413 14973 net.cpp:122] Setting up fc6
I0409 19:56:54.971432 14973 net.cpp:129] Top shape: 32 2048 (65536)
I0409 19:56:54.971436 14973 net.cpp:137] Memory required for data: 263204608
I0409 19:56:54.971444 14973 layer_factory.hpp:77] Creating layer relu6
I0409 19:56:54.971454 14973 net.cpp:84] Creating Layer relu6
I0409 19:56:54.971459 14973 net.cpp:406] relu6 <- fc6
I0409 19:56:54.971483 14973 net.cpp:367] relu6 -> fc6 (in-place)
I0409 19:56:54.971920 14973 net.cpp:122] Setting up relu6
I0409 19:56:54.971928 14973 net.cpp:129] Top shape: 32 2048 (65536)
I0409 19:56:54.971932 14973 net.cpp:137] Memory required for data: 263466752
I0409 19:56:54.971935 14973 layer_factory.hpp:77] Creating layer drop6
I0409 19:56:54.971942 14973 net.cpp:84] Creating Layer drop6
I0409 19:56:54.971946 14973 net.cpp:406] drop6 <- fc6
I0409 19:56:54.971951 14973 net.cpp:367] drop6 -> fc6 (in-place)
I0409 19:56:54.971977 14973 net.cpp:122] Setting up drop6
I0409 19:56:54.971983 14973 net.cpp:129] Top shape: 32 2048 (65536)
I0409 19:56:54.971987 14973 net.cpp:137] Memory required for data: 263728896
I0409 19:56:54.971989 14973 layer_factory.hpp:77] Creating layer fc7
I0409 19:56:54.971997 14973 net.cpp:84] Creating Layer fc7
I0409 19:56:54.971999 14973 net.cpp:406] fc7 <- fc6
I0409 19:56:54.972007 14973 net.cpp:380] fc7 -> fc7
I0409 19:56:55.011413 14973 net.cpp:122] Setting up fc7
I0409 19:56:55.011432 14973 net.cpp:129] Top shape: 32 2048 (65536)
I0409 19:56:55.011435 14973 net.cpp:137] Memory required for data: 263991040
I0409 19:56:55.011445 14973 layer_factory.hpp:77] Creating layer relu7
I0409 19:56:55.011454 14973 net.cpp:84] Creating Layer relu7
I0409 19:56:55.011458 14973 net.cpp:406] relu7 <- fc7
I0409 19:56:55.011466 14973 net.cpp:367] relu7 -> fc7 (in-place)
I0409 19:56:55.012089 14973 net.cpp:122] Setting up relu7
I0409 19:56:55.012097 14973 net.cpp:129] Top shape: 32 2048 (65536)
I0409 19:56:55.012100 14973 net.cpp:137] Memory required for data: 264253184
I0409 19:56:55.012104 14973 layer_factory.hpp:77] Creating layer drop7
I0409 19:56:55.012110 14973 net.cpp:84] Creating Layer drop7
I0409 19:56:55.012113 14973 net.cpp:406] drop7 <- fc7
I0409 19:56:55.012120 14973 net.cpp:367] drop7 -> fc7 (in-place)
I0409 19:56:55.012143 14973 net.cpp:122] Setting up drop7
I0409 19:56:55.012148 14973 net.cpp:129] Top shape: 32 2048 (65536)
I0409 19:56:55.012151 14973 net.cpp:137] Memory required for data: 264515328
I0409 19:56:55.012154 14973 layer_factory.hpp:77] Creating layer fc7.5
I0409 19:56:55.012162 14973 net.cpp:84] Creating Layer fc7.5
I0409 19:56:55.012166 14973 net.cpp:406] fc7.5 <- fc7
I0409 19:56:55.012171 14973 net.cpp:380] fc7.5 -> fc7.5
I0409 19:56:55.051532 14973 net.cpp:122] Setting up fc7.5
I0409 19:56:55.051551 14973 net.cpp:129] Top shape: 32 2048 (65536)
I0409 19:56:55.051554 14973 net.cpp:137] Memory required for data: 264777472
I0409 19:56:55.051563 14973 layer_factory.hpp:77] Creating layer relu7.5
I0409 19:56:55.051573 14973 net.cpp:84] Creating Layer relu7.5
I0409 19:56:55.051578 14973 net.cpp:406] relu7.5 <- fc7.5
I0409 19:56:55.051584 14973 net.cpp:367] relu7.5 -> fc7.5 (in-place)
I0409 19:56:55.052227 14973 net.cpp:122] Setting up relu7.5
I0409 19:56:55.052234 14973 net.cpp:129] Top shape: 32 2048 (65536)
I0409 19:56:55.052237 14973 net.cpp:137] Memory required for data: 265039616
I0409 19:56:55.052242 14973 layer_factory.hpp:77] Creating layer drop7.5
I0409 19:56:55.052249 14973 net.cpp:84] Creating Layer drop7.5
I0409 19:56:55.052253 14973 net.cpp:406] drop7.5 <- fc7.5
I0409 19:56:55.052259 14973 net.cpp:367] drop7.5 -> fc7.5 (in-place)
I0409 19:56:55.052284 14973 net.cpp:122] Setting up drop7.5
I0409 19:56:55.052287 14973 net.cpp:129] Top shape: 32 2048 (65536)
I0409 19:56:55.052290 14973 net.cpp:137] Memory required for data: 265301760
I0409 19:56:55.052294 14973 layer_factory.hpp:77] Creating layer fc8
I0409 19:56:55.052302 14973 net.cpp:84] Creating Layer fc8
I0409 19:56:55.052305 14973 net.cpp:406] fc8 <- fc7.5
I0409 19:56:55.052310 14973 net.cpp:380] fc8 -> fc8
I0409 19:56:55.056371 14973 net.cpp:122] Setting up fc8
I0409 19:56:55.056381 14973 net.cpp:129] Top shape: 32 196 (6272)
I0409 19:56:55.056385 14973 net.cpp:137] Memory required for data: 265326848
I0409 19:56:55.056396 14973 layer_factory.hpp:77] Creating layer fc8_fc8_0_split
I0409 19:56:55.056401 14973 net.cpp:84] Creating Layer fc8_fc8_0_split
I0409 19:56:55.056406 14973 net.cpp:406] fc8_fc8_0_split <- fc8
I0409 19:56:55.056427 14973 net.cpp:380] fc8_fc8_0_split -> fc8_fc8_0_split_0
I0409 19:56:55.056437 14973 net.cpp:380] fc8_fc8_0_split -> fc8_fc8_0_split_1
I0409 19:56:55.056468 14973 net.cpp:122] Setting up fc8_fc8_0_split
I0409 19:56:55.056473 14973 net.cpp:129] Top shape: 32 196 (6272)
I0409 19:56:55.056476 14973 net.cpp:129] Top shape: 32 196 (6272)
I0409 19:56:55.056479 14973 net.cpp:137] Memory required for data: 265377024
I0409 19:56:55.056483 14973 layer_factory.hpp:77] Creating layer accuracy
I0409 19:56:55.056489 14973 net.cpp:84] Creating Layer accuracy
I0409 19:56:55.056493 14973 net.cpp:406] accuracy <- fc8_fc8_0_split_0
I0409 19:56:55.056496 14973 net.cpp:406] accuracy <- label_val-data_1_split_0
I0409 19:56:55.056501 14973 net.cpp:380] accuracy -> accuracy
…
