…
I0401 16:15:08.501863 14951 net.cpp:294] The NetState phase (0) differed from the phase (1) specified by a rule in layer accuracy
I0401 16:15:08.501991 14951 net.cpp:51] Initializing net from parameters:
state {
phase: TRAIN
level: 0
stage: ""
}
layer {
name: "train-data"
type: "Data"
top: "data"
top: "label"
include {
phase: TRAIN
}
transform_param {
mirror: true
crop_size: 227
mean_file: "/mnt/bigdisk/DIGITS-AIN-3/digits/jobs/20210401-115617-b134/mean.binaryproto"
}
data_param {
source: "/mnt/bigdisk/DIGITS-AIN-3/digits/jobs/20210401-115617-b134/train_db"
batch_size: 128
backend: LMDB
}
}
layer {
name: "conv1"
type: "Convolution"
bottom: "data"
top: "conv1"
param {
lr_mult: 1
decay_mult: 1
}
param {
lr_mult: 2
decay_mult: 0
}
convolution_param {
num_output: 96
kernel_size: 11
stride: 4
weight_filler {
type: "gaussian"
std: 0.01
}
bias_filler {
type: "constant"
value: 0
}
}
}
layer {
name: "relu1"
type: "ReLU"
bottom: "conv1"
top: "conv1"
}
layer {
name: "norm1"
type: "LRN"
bottom: "conv1"
top: "norm1"
lrn_param {
local_size: 5
alpha: 0.0001
beta: 0.75
}
}
layer {
name: "pool1"
type: "Pooling"
bottom: "norm1"
top: "pool1"
pooling_param {
pool: MAX
kernel_size: 3
stride: 2
}
}
layer {
name: "conv2"
type: "Convolution"
bottom: "pool1"
top: "conv2"
param {
lr_mult: 1
decay_mult: 1
}
param {
lr_mult: 2
decay_mult: 0
}
convolution_param {
num_output: 256
pad: 2
kernel_size: 5
group: 2
weight_filler {
type: "gaussian"
std: 0.01
}
bias_filler {
type: "constant"
value: 0.1
}
}
}
layer {
name: "relu2"
type: "ReLU"
bottom: "conv2"
top: "conv2"
}
layer {
name: "norm2"
type: "LRN"
bottom: "conv2"
top: "norm2"
lrn_param {
local_size: 5
alpha: 0.0001
beta: 0.75
}
}
layer {
name: "pool2"
type: "Pooling"
bottom: "norm2"
top: "pool2"
pooling_param {
pool: MAX
kernel_size: 3
stride: 2
}
}
layer {
name: "conv3"
type: "Convolution"
bottom: "pool2"
top: "conv3"
param {
lr_mult: 1
decay_mult: 1
}
param {
lr_mult: 2
decay_mult: 0
}
convolution_param {
num_output: 384
pad: 1
kernel_size: 3
weight_filler {
type: "gaussian"
std: 0.01
}
bias_filler {
type: "constant"
value: 0
}
}
}
layer {
name: "relu3"
type: "ReLU"
bottom: "conv3"
top: "conv3"
}
layer {
name: "conv4"
type: "Convolution"
bottom: "conv3"
top: "conv4"
param {
lr_mult: 1
decay_mult: 1
}
param {
lr_mult: 2
decay_mult: 0
}
convolution_param {
num_output: 384
pad: 1
kernel_size: 3
group: 2
weight_filler {
type: "gaussian"
std: 0.01
}
bias_filler {
type: "constant"
value: 0.1
}
}
}
layer {
name: "relu4"
type: "ReLU"
bottom: "conv4"
top: "conv4"
}
layer {
name: "conv5"
type: "Convolution"
bottom: "conv4"
top: "conv5"
param {
lr_mult: 1
decay_mult: 1
}
param {
lr_mult: 2
decay_mult: 0
}
convolution_param {
num_output: 256
pad: 1
kernel_size: 3
group: 2
weight_filler {
type: "gaussian"
std: 0.01
}
bias_filler {
type: "constant"
value: 0.1
}
}
}
layer {
name: "relu5"
type: "ReLU"
bottom: "conv5"
top: "conv5"
}
layer {
name: "pool5"
type: "Pooling"
bottom: "conv5"
top: "pool5"
pooling_param {
pool: MAX
kernel_size: 3
stride: 2
}
}
layer {
name: "fc6"
type: "InnerProduct"
bottom: "pool5"
top: "fc6"
param {
lr_mult: 1
decay_mult: 1
}
param {
lr_mult: 2
decay_mult: 0
}
inner_product_param {
num_output: 4096
weight_filler {
type: "gaussian"
std: 0.005
}
bias_filler {
type: "constant"
value: 0.1
}
}
}
layer {
name: "relu6"
type: "ReLU"
bottom: "fc6"
top: "fc6"
}
layer {
name: "drop6"
type: "Dropout"
bottom: "fc6"
top: "fc6"
dropout_param {
dropout_ratio: 0.5
}
}
layer {
name: "fc7"
type: "InnerProduct"
bottom: "fc6"
top: "fc7"
param {
lr_mult: 1
decay_mult: 1
}
param {
lr_mult: 2
decay_mult: 0
}
inner_product_param {
num_output: 4096
weight_filler {
type: "gaussian"
std: 0.005
}
bias_filler {
type: "constant"
value: 0.1
}
}
}
layer {
name: "relu7"
type: "ReLU"
bottom: "fc7"
top: "fc7"
}
layer {
name: "drop7"
type: "Dropout"
bottom: "fc7"
top: "fc7"
dropout_param {
dropout_ratio: 0.5
}
}
layer {
name: "fc8"
type: "InnerProduct"
bottom: "fc7"
top: "fc8"
param {
lr_mult: 1
decay_mult: 1
}
param {
lr_mult: 2
decay_mult: 0
}
inner_product_param {
num_output: 196
weight_filler {
type: "gaussian"
std: 0.01
}
bias_filler {
type: "constant"
value: 0
}
}
}
layer {
name: "loss"
type: "SoftmaxWithLoss"
bottom: "fc8"
bottom: "label"
top: "loss"
}
I0401 16:15:08.502074 14951 layer_factory.hpp:77] Creating layer train-data
I0401 16:15:08.517542 14951 db_lmdb.cpp:35] Opened lmdb /mnt/bigdisk/DIGITS-AIN-3/digits/jobs/20210401-115617-b134/train_db
I0401 16:15:08.532027 14951 net.cpp:84] Creating Layer train-data
I0401 16:15:08.532052 14951 net.cpp:380] train-data -> data
I0401 16:15:08.532073 14951 net.cpp:380] train-data -> label
I0401 16:15:08.532085 14951 data_transformer.cpp:25] Loading mean file from: /mnt/bigdisk/DIGITS-AIN-3/digits/jobs/20210401-115617-b134/mean.binaryproto
I0401 16:15:08.588140 14951 data_layer.cpp:45] output data size: 128,3,227,227
I0401 16:15:08.725008 14951 net.cpp:122] Setting up train-data
I0401 16:15:08.725035 14951 net.cpp:129] Top shape: 128 3 227 227 (19787136)
I0401 16:15:08.725041 14951 net.cpp:129] Top shape: 128 (128)
I0401 16:15:08.725044 14951 net.cpp:137] Memory required for data: 79149056
I0401 16:15:08.725055 14951 layer_factory.hpp:77] Creating layer conv1
I0401 16:15:08.725078 14951 net.cpp:84] Creating Layer conv1
I0401 16:15:08.725085 14951 net.cpp:406] conv1 <- data
I0401 16:15:08.725098 14951 net.cpp:380] conv1 -> conv1
I0401 16:15:09.384101 14951 net.cpp:122] Setting up conv1
I0401 16:15:09.384127 14951 net.cpp:129] Top shape: 128 96 55 55 (37171200)
I0401 16:15:09.384131 14951 net.cpp:137] Memory required for data: 227833856
I0401 16:15:09.384156 14951 layer_factory.hpp:77] Creating layer relu1
I0401 16:15:09.384169 14951 net.cpp:84] Creating Layer relu1
I0401 16:15:09.384173 14951 net.cpp:406] relu1 <- conv1
I0401 16:15:09.384181 14951 net.cpp:367] relu1 -> conv1 (in-place)
I0401 16:15:09.384593 14951 net.cpp:122] Setting up relu1
I0401 16:15:09.384603 14951 net.cpp:129] Top shape: 128 96 55 55 (37171200)
I0401 16:15:09.384606 14951 net.cpp:137] Memory required for data: 376518656
I0401 16:15:09.384610 14951 layer_factory.hpp:77] Creating layer norm1
I0401 16:15:09.384620 14951 net.cpp:84] Creating Layer norm1
I0401 16:15:09.384624 14951 net.cpp:406] norm1 <- conv1
I0401 16:15:09.384661 14951 net.cpp:380] norm1 -> norm1
I0401 16:15:09.385291 14951 net.cpp:122] Setting up norm1
I0401 16:15:09.385304 14951 net.cpp:129] Top shape: 128 96 55 55 (37171200)
I0401 16:15:09.385308 14951 net.cpp:137] Memory required for data: 525203456
I0401 16:15:09.385313 14951 layer_factory.hpp:77] Creating layer pool1
I0401 16:15:09.385322 14951 net.cpp:84] Creating Layer pool1
I0401 16:15:09.385326 14951 net.cpp:406] pool1 <- norm1
I0401 16:15:09.385332 14951 net.cpp:380] pool1 -> pool1
I0401 16:15:09.385378 14951 net.cpp:122] Setting up pool1
I0401 16:15:09.385385 14951 net.cpp:129] Top shape: 128 96 27 27 (8957952)
I0401 16:15:09.385390 14951 net.cpp:137] Memory required for data: 561035264
I0401 16:15:09.385392 14951 layer_factory.hpp:77] Creating layer conv2
I0401 16:15:09.385433 14951 net.cpp:84] Creating Layer conv2
I0401 16:15:09.385438 14951 net.cpp:406] conv2 <- pool1
I0401 16:15:09.385445 14951 net.cpp:380] conv2 -> conv2
I0401 16:15:09.394045 14951 net.cpp:122] Setting up conv2
I0401 16:15:09.394073 14951 net.cpp:129] Top shape: 128 256 27 27 (23887872)
I0401 16:15:09.394078 14951 net.cpp:137] Memory required for data: 656586752
I0401 16:15:09.394093 14951 layer_factory.hpp:77] Creating layer relu2
I0401 16:15:09.394104 14951 net.cpp:84] Creating Layer relu2
I0401 16:15:09.394109 14951 net.cpp:406] relu2 <- conv2
I0401 16:15:09.394116 14951 net.cpp:367] relu2 -> conv2 (in-place)
I0401 16:15:09.394675 14951 net.cpp:122] Setting up relu2
I0401 16:15:09.394687 14951 net.cpp:129] Top shape: 128 256 27 27 (23887872)
I0401 16:15:09.394691 14951 net.cpp:137] Memory required for data: 752138240
I0401 16:15:09.394695 14951 layer_factory.hpp:77] Creating layer norm2
I0401 16:15:09.394704 14951 net.cpp:84] Creating Layer norm2
I0401 16:15:09.394708 14951 net.cpp:406] norm2 <- conv2
I0401 16:15:09.394714 14951 net.cpp:380] norm2 -> norm2
I0401 16:15:09.395105 14951 net.cpp:122] Setting up norm2
I0401 16:15:09.395115 14951 net.cpp:129] Top shape: 128 256 27 27 (23887872)
I0401 16:15:09.395119 14951 net.cpp:137] Memory required for data: 847689728
I0401 16:15:09.395123 14951 layer_factory.hpp:77] Creating layer pool2
I0401 16:15:09.395133 14951 net.cpp:84] Creating Layer pool2
I0401 16:15:09.395136 14951 net.cpp:406] pool2 <- norm2
I0401 16:15:09.395143 14951 net.cpp:380] pool2 -> pool2
I0401 16:15:09.395177 14951 net.cpp:122] Setting up pool2
I0401 16:15:09.395184 14951 net.cpp:129] Top shape: 128 256 13 13 (5537792)
I0401 16:15:09.395187 14951 net.cpp:137] Memory required for data: 869840896
I0401 16:15:09.395190 14951 layer_factory.hpp:77] Creating layer conv3
I0401 16:15:09.395203 14951 net.cpp:84] Creating Layer conv3
I0401 16:15:09.395206 14951 net.cpp:406] conv3 <- pool2
I0401 16:15:09.395212 14951 net.cpp:380] conv3 -> conv3
I0401 16:15:09.415153 14951 net.cpp:122] Setting up conv3
I0401 16:15:09.415174 14951 net.cpp:129] Top shape: 128 384 13 13 (8306688)
I0401 16:15:09.415177 14951 net.cpp:137] Memory required for data: 903067648
I0401 16:15:09.415194 14951 layer_factory.hpp:77] Creating layer relu3
I0401 16:15:09.415205 14951 net.cpp:84] Creating Layer relu3
I0401 16:15:09.415208 14951 net.cpp:406] relu3 <- conv3
I0401 16:15:09.415215 14951 net.cpp:367] relu3 -> conv3 (in-place)
I0401 16:15:09.415697 14951 net.cpp:122] Setting up relu3
I0401 16:15:09.415706 14951 net.cpp:129] Top shape: 128 384 13 13 (8306688)
I0401 16:15:09.415709 14951 net.cpp:137] Memory required for data: 936294400
I0401 16:15:09.415711 14951 layer_factory.hpp:77] Creating layer conv4
I0401 16:15:09.415719 14951 net.cpp:84] Creating Layer conv4
I0401 16:15:09.415721 14951 net.cpp:406] conv4 <- conv3
I0401 16:15:09.415729 14951 net.cpp:380] conv4 -> conv4
I0401 16:15:09.425261 14951 net.cpp:122] Setting up conv4
I0401 16:15:09.425282 14951 net.cpp:129] Top shape: 128 384 13 13 (8306688)
I0401 16:15:09.425283 14951 net.cpp:137] Memory required for data: 969521152
I0401 16:15:09.425293 14951 layer_factory.hpp:77] Creating layer relu4
I0401 16:15:09.425302 14951 net.cpp:84] Creating Layer relu4
I0401 16:15:09.425325 14951 net.cpp:406] relu4 <- conv4
I0401 16:15:09.425333 14951 net.cpp:367] relu4 -> conv4 (in-place)
I0401 16:15:09.425649 14951 net.cpp:122] Setting up relu4
I0401 16:15:09.425658 14951 net.cpp:129] Top shape: 128 384 13 13 (8306688)
I0401 16:15:09.425660 14951 net.cpp:137] Memory required for data: 1002747904
I0401 16:15:09.425662 14951 layer_factory.hpp:77] Creating layer conv5
I0401 16:15:09.425673 14951 net.cpp:84] Creating Layer conv5
I0401 16:15:09.425675 14951 net.cpp:406] conv5 <- conv4
I0401 16:15:09.425679 14951 net.cpp:380] conv5 -> conv5
I0401 16:15:09.433162 14951 net.cpp:122] Setting up conv5
I0401 16:15:09.433182 14951 net.cpp:129] Top shape: 128 256 13 13 (5537792)
I0401 16:15:09.433185 14951 net.cpp:137] Memory required for data: 1024899072
I0401 16:15:09.433199 14951 layer_factory.hpp:77] Creating layer relu5
I0401 16:15:09.433209 14951 net.cpp:84] Creating Layer relu5
I0401 16:15:09.433212 14951 net.cpp:406] relu5 <- conv5
I0401 16:15:09.433220 14951 net.cpp:367] relu5 -> conv5 (in-place)
I0401 16:15:09.433715 14951 net.cpp:122] Setting up relu5
I0401 16:15:09.433725 14951 net.cpp:129] Top shape: 128 256 13 13 (5537792)
I0401 16:15:09.433727 14951 net.cpp:137] Memory required for data: 1047050240
I0401 16:15:09.433730 14951 layer_factory.hpp:77] Creating layer pool5
I0401 16:15:09.433737 14951 net.cpp:84] Creating Layer pool5
I0401 16:15:09.433738 14951 net.cpp:406] pool5 <- conv5
I0401 16:15:09.433745 14951 net.cpp:380] pool5 -> pool5
I0401 16:15:09.433780 14951 net.cpp:122] Setting up pool5
I0401 16:15:09.433785 14951 net.cpp:129] Top shape: 128 256 6 6 (1179648)
I0401 16:15:09.433787 14951 net.cpp:137] Memory required for data: 1051768832
I0401 16:15:09.433789 14951 layer_factory.hpp:77] Creating layer fc6
I0401 16:15:09.433799 14951 net.cpp:84] Creating Layer fc6
I0401 16:15:09.433801 14951 net.cpp:406] fc6 <- pool5
I0401 16:15:09.433805 14951 net.cpp:380] fc6 -> fc6
I0401 16:15:09.878798 14951 net.cpp:122] Setting up fc6
I0401 16:15:09.878819 14951 net.cpp:129] Top shape: 128 4096 (524288)
I0401 16:15:09.878823 14951 net.cpp:137] Memory required for data: 1053865984
I0401 16:15:09.878856 14951 layer_factory.hpp:77] Creating layer relu6
I0401 16:15:09.878866 14951 net.cpp:84] Creating Layer relu6
I0401 16:15:09.878870 14951 net.cpp:406] relu6 <- fc6
I0401 16:15:09.878898 14951 net.cpp:367] relu6 -> fc6 (in-place)
I0401 16:15:09.879698 14951 net.cpp:122] Setting up relu6
I0401 16:15:09.879706 14951 net.cpp:129] Top shape: 128 4096 (524288)
I0401 16:15:09.879709 14951 net.cpp:137] Memory required for data: 1055963136
I0401 16:15:09.879711 14951 layer_factory.hpp:77] Creating layer drop6
I0401 16:15:09.879717 14951 net.cpp:84] Creating Layer drop6
I0401 16:15:09.879720 14951 net.cpp:406] drop6 <- fc6
I0401 16:15:09.879725 14951 net.cpp:367] drop6 -> fc6 (in-place)
I0401 16:15:09.879751 14951 net.cpp:122] Setting up drop6
I0401 16:15:09.879756 14951 net.cpp:129] Top shape: 128 4096 (524288)
I0401 16:15:09.879758 14951 net.cpp:137] Memory required for data: 1058060288
I0401 16:15:09.879760 14951 layer_factory.hpp:77] Creating layer fc7
I0401 16:15:09.879768 14951 net.cpp:84] Creating Layer fc7
I0401 16:15:09.879770 14951 net.cpp:406] fc7 <- fc6
I0401 16:15:09.879776 14951 net.cpp:380] fc7 -> fc7
I0401 16:15:10.054896 14951 net.cpp:122] Setting up fc7
I0401 16:15:10.054919 14951 net.cpp:129] Top shape: 128 4096 (524288)
I0401 16:15:10.054924 14951 net.cpp:137] Memory required for data: 1060157440
I0401 16:15:10.054936 14951 layer_factory.hpp:77] Creating layer relu7
I0401 16:15:10.054947 14951 net.cpp:84] Creating Layer relu7
I0401 16:15:10.054951 14951 net.cpp:406] relu7 <- fc7
I0401 16:15:10.054957 14951 net.cpp:367] relu7 -> fc7 (in-place)
I0401 16:15:10.055416 14951 net.cpp:122] Setting up relu7
I0401 16:15:10.055426 14951 net.cpp:129] Top shape: 128 4096 (524288)
I0401 16:15:10.055429 14951 net.cpp:137] Memory required for data: 1062254592
I0401 16:15:10.055431 14951 layer_factory.hpp:77] Creating layer drop7
I0401 16:15:10.055438 14951 net.cpp:84] Creating Layer drop7
I0401 16:15:10.055471 14951 net.cpp:406] drop7 <- fc7
I0401 16:15:10.055478 14951 net.cpp:367] drop7 -> fc7 (in-place)
I0401 16:15:10.055508 14951 net.cpp:122] Setting up drop7
I0401 16:15:10.055514 14951 net.cpp:129] Top shape: 128 4096 (524288)
I0401 16:15:10.055516 14951 net.cpp:137] Memory required for data: 1064351744
I0401 16:15:10.055518 14951 layer_factory.hpp:77] Creating layer fc8
I0401 16:15:10.055526 14951 net.cpp:84] Creating Layer fc8
I0401 16:15:10.055527 14951 net.cpp:406] fc8 <- fc7
I0401 16:15:10.055531 14951 net.cpp:380] fc8 -> fc8
I0401 16:15:10.063215 14951 net.cpp:122] Setting up fc8
I0401 16:15:10.063236 14951 net.cpp:129] Top shape: 128 196 (25088)
I0401 16:15:10.063239 14951 net.cpp:137] Memory required for data: 1064452096
I0401 16:15:10.063247 14951 layer_factory.hpp:77] Creating layer loss
I0401 16:15:10.063256 14951 net.cpp:84] Creating Layer loss
I0401 16:15:10.063259 14951 net.cpp:406] loss <- fc8
I0401 16:15:10.063263 14951 net.cpp:406] loss <- label
I0401 16:15:10.063271 14951 net.cpp:380] loss -> loss
I0401 16:15:10.063280 14951 layer_factory.hpp:77] Creating layer loss
…
I0401 16:15:10.065549 14951 net.cpp:294] The NetState phase (1) differed from the phase (0) specified by a rule in layer train-data
I0401 16:15:10.065678 14951 net.cpp:51] Initializing net from parameters:
state {
phase: TEST
}
layer {
name: "val-data"
type: "Data"
top: "data"
top: "label"
include {
phase: TEST
}
transform_param {
crop_size: 227
mean_file: "/mnt/bigdisk/DIGITS-AIN-3/digits/jobs/20210401-115617-b134/mean.binaryproto"
}
data_param {
source: "/mnt/bigdisk/DIGITS-AIN-3/digits/jobs/20210401-115617-b134/val_db"
batch_size: 32
backend: LMDB
}
}
layer {
name: "conv1"
type: "Convolution"
bottom: "data"
top: "conv1"
param {
lr_mult: 1
decay_mult: 1
}
param {
lr_mult: 2
decay_mult: 0
}
convolution_param {
num_output: 96
kernel_size: 11
stride: 4
weight_filler {
type: "gaussian"
std: 0.01
}
bias_filler {
type: "constant"
value: 0
}
}
}
layer {
name: "relu1"
type: "ReLU"
bottom: "conv1"
top: "conv1"
}
layer {
name: "norm1"
type: "LRN"
bottom: "conv1"
top: "norm1"
lrn_param {
local_size: 5
alpha: 0.0001
beta: 0.75
}
}
layer {
name: "pool1"
type: "Pooling"
bottom: "norm1"
top: "pool1"
pooling_param {
pool: MAX
kernel_size: 3
stride: 2
}
}
layer {
name: "conv2"
type: "Convolution"
bottom: "pool1"
top: "conv2"
param {
lr_mult: 1
decay_mult: 1
}
param {
lr_mult: 2
decay_mult: 0
}
convolution_param {
num_output: 256
pad: 2
kernel_size: 5
group: 2
weight_filler {
type: "gaussian"
std: 0.01
}
bias_filler {
type: "constant"
value: 0.1
}
}
}
layer {
name: "relu2"
type: "ReLU"
bottom: "conv2"
top: "conv2"
}
layer {
name: "norm2"
type: "LRN"
bottom: "conv2"
top: "norm2"
lrn_param {
local_size: 5
alpha: 0.0001
beta: 0.75
}
}
layer {
name: "pool2"
type: "Pooling"
bottom: "norm2"
top: "pool2"
pooling_param {
pool: MAX
kernel_size: 3
stride: 2
}
}
layer {
name: "conv3"
type: "Convolution"
bottom: "pool2"
top: "conv3"
param {
lr_mult: 1
decay_mult: 1
}
param {
lr_mult: 2
decay_mult: 0
}
convolution_param {
num_output: 384
pad: 1
kernel_size: 3
weight_filler {
type: "gaussian"
std: 0.01
}
bias_filler {
type: "constant"
value: 0
}
}
}
layer {
name: "relu3"
type: "ReLU"
bottom: "conv3"
top: "conv3"
}
layer {
name: "conv4"
type: "Convolution"
bottom: "conv3"
top: "conv4"
param {
lr_mult: 1
decay_mult: 1
}
param {
lr_mult: 2
decay_mult: 0
}
convolution_param {
num_output: 384
pad: 1
kernel_size: 3
group: 2
weight_filler {
type: "gaussian"
std: 0.01
}
bias_filler {
type: "constant"
value: 0.1
}
}
}
layer {
name: "relu4"
type: "ReLU"
bottom: "conv4"
top: "conv4"
}
layer {
name: "conv5"
type: "Convolution"
bottom: "conv4"
top: "conv5"
param {
lr_mult: 1
decay_mult: 1
}
param {
lr_mult: 2
decay_mult: 0
}
convolution_param {
num_output: 256
pad: 1
kernel_size: 3
group: 2
weight_filler {
type: "gaussian"
std: 0.01
}
bias_filler {
type: "constant"
value: 0.1
}
}
}
layer {
name: "relu5"
type: "ReLU"
bottom: "conv5"
top: "conv5"
}
layer {
name: "pool5"
type: "Pooling"
bottom: "conv5"
top: "pool5"
pooling_param {
pool: MAX
kernel_size: 3
stride: 2
}
}
layer {
name: "fc6"
type: "InnerProduct"
bottom: "pool5"
top: "fc6"
param {
lr_mult: 1
decay_mult: 1
}
param {
lr_mult: 2
decay_mult: 0
}
inner_product_param {
num_output: 4096
weight_filler {
type: "gaussian"
std: 0.005
}
bias_filler {
type: "constant"
value: 0.1
}
}
}
layer {
name: "relu6"
type: "ReLU"
bottom: "fc6"
top: "fc6"
}
layer {
name: "drop6"
type: "Dropout"
bottom: "fc6"
top: "fc6"
dropout_param {
dropout_ratio: 0.5
}
}
layer {
name: "fc7"
type: "InnerProduct"
bottom: "fc6"
top: "fc7"
param {
lr_mult: 1
decay_mult: 1
}
param {
lr_mult: 2
decay_mult: 0
}
inner_product_param {
num_output: 4096
weight_filler {
type: "gaussian"
std: 0.005
}
bias_filler {
type: "constant"
value: 0.1
}
}
}
layer {
name: "relu7"
type: "ReLU"
bottom: "fc7"
top: "fc7"
}
layer {
name: "drop7"
type: "Dropout"
bottom: "fc7"
top: "fc7"
dropout_param {
dropout_ratio: 0.5
}
}
layer {
name: "fc8"
type: "InnerProduct"
bottom: "fc7"
top: "fc8"
param {
lr_mult: 1
decay_mult: 1
}
param {
lr_mult: 2
decay_mult: 0
}
inner_product_param {
num_output: 196
weight_filler {
type: "gaussian"
std: 0.01
}
bias_filler {
type: "constant"
value: 0
}
}
}
layer {
name: "accuracy"
type: "Accuracy"
bottom: "fc8"
bottom: "label"
top: "accuracy"
include {
phase: TEST
}
}
layer {
name: "loss"
type: "SoftmaxWithLoss"
bottom: "fc8"
bottom: "label"
top: "loss"
}
I0401 16:15:10.065779 14951 layer_factory.hpp:77] Creating layer val-data
I0401 16:15:10.078147 14951 db_lmdb.cpp:35] Opened lmdb /mnt/bigdisk/DIGITS-AIN-3/digits/jobs/20210401-115617-b134/val_db
I0401 16:15:10.092274 14951 net.cpp:84] Creating Layer val-data
I0401 16:15:10.092305 14951 net.cpp:380] val-data -> data
I0401 16:15:10.092319 14951 net.cpp:380] val-data -> label
I0401 16:15:10.092326 14951 data_transformer.cpp:25] Loading mean file from: /mnt/bigdisk/DIGITS-AIN-3/digits/jobs/20210401-115617-b134/mean.binaryproto
I0401 16:15:10.099985 14951 data_layer.cpp:45] output data size: 32,3,227,227
I0401 16:15:10.135915 14951 net.cpp:122] Setting up val-data
I0401 16:15:10.135933 14951 net.cpp:129] Top shape: 32 3 227 227 (4946784)
I0401 16:15:10.135936 14951 net.cpp:129] Top shape: 32 (32)
I0401 16:15:10.135938 14951 net.cpp:137] Memory required for data: 19787264
I0401 16:15:10.135944 14951 layer_factory.hpp:77] Creating layer label_val-data_1_split
I0401 16:15:10.135954 14951 net.cpp:84] Creating Layer label_val-data_1_split
I0401 16:15:10.135958 14951 net.cpp:406] label_val-data_1_split <- label
I0401 16:15:10.135963 14951 net.cpp:380] label_val-data_1_split -> label_val-data_1_split_0
I0401 16:15:10.135972 14951 net.cpp:380] label_val-data_1_split -> label_val-data_1_split_1
I0401 16:15:10.136063 14951 net.cpp:122] Setting up label_val-data_1_split
I0401 16:15:10.136070 14951 net.cpp:129] Top shape: 32 (32)
I0401 16:15:10.136072 14951 net.cpp:129] Top shape: 32 (32)
I0401 16:15:10.136073 14951 net.cpp:137] Memory required for data: 19787520
I0401 16:15:10.136076 14951 layer_factory.hpp:77] Creating layer conv1
I0401 16:15:10.136087 14951 net.cpp:84] Creating Layer conv1
I0401 16:15:10.136090 14951 net.cpp:406] conv1 <- data
I0401 16:15:10.136093 14951 net.cpp:380] conv1 -> conv1
I0401 16:15:10.139055 14951 net.cpp:122] Setting up conv1
I0401 16:15:10.139071 14951 net.cpp:129] Top shape: 32 96 55 55 (9292800)
I0401 16:15:10.139073 14951 net.cpp:137] Memory required for data: 56958720
I0401 16:15:10.139088 14951 layer_factory.hpp:77] Creating layer relu1
I0401 16:15:10.139099 14951 net.cpp:84] Creating Layer relu1
I0401 16:15:10.139104 14951 net.cpp:406] relu1 <- conv1
I0401 16:15:10.139111 14951 net.cpp:367] relu1 -> conv1 (in-place)
I0401 16:15:10.139427 14951 net.cpp:122] Setting up relu1
I0401 16:15:10.139438 14951 net.cpp:129] Top shape: 32 96 55 55 (9292800)
I0401 16:15:10.139442 14951 net.cpp:137] Memory required for data: 94129920
I0401 16:15:10.139446 14951 layer_factory.hpp:77] Creating layer norm1
I0401 16:15:10.139456 14951 net.cpp:84] Creating Layer norm1
I0401 16:15:10.139459 14951 net.cpp:406] norm1 <- conv1
I0401 16:15:10.139463 14951 net.cpp:380] norm1 -> norm1
I0401 16:15:10.139961 14951 net.cpp:122] Setting up norm1
I0401 16:15:10.139971 14951 net.cpp:129] Top shape: 32 96 55 55 (9292800)
I0401 16:15:10.139973 14951 net.cpp:137] Memory required for data: 131301120
I0401 16:15:10.139976 14951 layer_factory.hpp:77] Creating layer pool1
I0401 16:15:10.139981 14951 net.cpp:84] Creating Layer pool1
I0401 16:15:10.139983 14951 net.cpp:406] pool1 <- norm1
I0401 16:15:10.139987 14951 net.cpp:380] pool1 -> pool1
I0401 16:15:10.140012 14951 net.cpp:122] Setting up pool1
I0401 16:15:10.140017 14951 net.cpp:129] Top shape: 32 96 27 27 (2239488)
I0401 16:15:10.140019 14951 net.cpp:137] Memory required for data: 140259072
I0401 16:15:10.140022 14951 layer_factory.hpp:77] Creating layer conv2
I0401 16:15:10.140028 14951 net.cpp:84] Creating Layer conv2
I0401 16:15:10.140031 14951 net.cpp:406] conv2 <- pool1
I0401 16:15:10.140053 14951 net.cpp:380] conv2 -> conv2
I0401 16:15:10.146864 14951 net.cpp:122] Setting up conv2
I0401 16:15:10.146883 14951 net.cpp:129] Top shape: 32 256 27 27 (5971968)
I0401 16:15:10.146886 14951 net.cpp:137] Memory required for data: 164146944
I0401 16:15:10.146898 14951 layer_factory.hpp:77] Creating layer relu2
I0401 16:15:10.146906 14951 net.cpp:84] Creating Layer relu2
I0401 16:15:10.146909 14951 net.cpp:406] relu2 <- conv2
I0401 16:15:10.146915 14951 net.cpp:367] relu2 -> conv2 (in-place)
I0401 16:15:10.147446 14951 net.cpp:122] Setting up relu2
I0401 16:15:10.147456 14951 net.cpp:129] Top shape: 32 256 27 27 (5971968)
I0401 16:15:10.147460 14951 net.cpp:137] Memory required for data: 188034816
I0401 16:15:10.147464 14951 layer_factory.hpp:77] Creating layer norm2
I0401 16:15:10.147475 14951 net.cpp:84] Creating Layer norm2
I0401 16:15:10.147480 14951 net.cpp:406] norm2 <- conv2
I0401 16:15:10.147487 14951 net.cpp:380] norm2 -> norm2
I0401 16:15:10.148105 14951 net.cpp:122] Setting up norm2
I0401 16:15:10.148116 14951 net.cpp:129] Top shape: 32 256 27 27 (5971968)
I0401 16:15:10.148120 14951 net.cpp:137] Memory required for data: 211922688
I0401 16:15:10.148124 14951 layer_factory.hpp:77] Creating layer pool2
I0401 16:15:10.148133 14951 net.cpp:84] Creating Layer pool2
I0401 16:15:10.148136 14951 net.cpp:406] pool2 <- norm2
I0401 16:15:10.148144 14951 net.cpp:380] pool2 -> pool2
I0401 16:15:10.148185 14951 net.cpp:122] Setting up pool2
I0401 16:15:10.148192 14951 net.cpp:129] Top shape: 32 256 13 13 (1384448)
I0401 16:15:10.148195 14951 net.cpp:137] Memory required for data: 217460480
I0401 16:15:10.148197 14951 layer_factory.hpp:77] Creating layer conv3
I0401 16:15:10.148209 14951 net.cpp:84] Creating Layer conv3
I0401 16:15:10.148212 14951 net.cpp:406] conv3 <- pool2
I0401 16:15:10.148219 14951 net.cpp:380] conv3 -> conv3
I0401 16:15:10.160068 14951 net.cpp:122] Setting up conv3
I0401 16:15:10.160085 14951 net.cpp:129] Top shape: 32 384 13 13 (2076672)
I0401 16:15:10.160089 14951 net.cpp:137] Memory required for data: 225767168
I0401 16:15:10.160099 14951 layer_factory.hpp:77] Creating layer relu3
I0401 16:15:10.160109 14951 net.cpp:84] Creating Layer relu3
I0401 16:15:10.160113 14951 net.cpp:406] relu3 <- conv3
I0401 16:15:10.160118 14951 net.cpp:367] relu3 -> conv3 (in-place)
I0401 16:15:10.160699 14951 net.cpp:122] Setting up relu3
I0401 16:15:10.160708 14951 net.cpp:129] Top shape: 32 384 13 13 (2076672)
I0401 16:15:10.160710 14951 net.cpp:137] Memory required for data: 234073856
I0401 16:15:10.160713 14951 layer_factory.hpp:77] Creating layer conv4
I0401 16:15:10.160723 14951 net.cpp:84] Creating Layer conv4
I0401 16:15:10.160727 14951 net.cpp:406] conv4 <- conv3
I0401 16:15:10.160732 14951 net.cpp:380] conv4 -> conv4
I0401 16:15:10.172874 14951 net.cpp:122] Setting up conv4
I0401 16:15:10.172899 14951 net.cpp:129] Top shape: 32 384 13 13 (2076672)
I0401 16:15:10.172902 14951 net.cpp:137] Memory required for data: 242380544
I0401 16:15:10.172911 14951 layer_factory.hpp:77] Creating layer relu4
I0401 16:15:10.172919 14951 net.cpp:84] Creating Layer relu4
I0401 16:15:10.172922 14951 net.cpp:406] relu4 <- conv4
I0401 16:15:10.172927 14951 net.cpp:367] relu4 -> conv4 (in-place)
I0401 16:15:10.173256 14951 net.cpp:122] Setting up relu4
I0401 16:15:10.173265 14951 net.cpp:129] Top shape: 32 384 13 13 (2076672)
I0401 16:15:10.173267 14951 net.cpp:137] Memory required for data: 250687232
I0401 16:15:10.173269 14951 layer_factory.hpp:77] Creating layer conv5
I0401 16:15:10.173280 14951 net.cpp:84] Creating Layer conv5
I0401 16:15:10.173281 14951 net.cpp:406] conv5 <- conv4
I0401 16:15:10.173286 14951 net.cpp:380] conv5 -> conv5
I0401 16:15:10.197947 14951 net.cpp:122] Setting up conv5
I0401 16:15:10.197969 14951 net.cpp:129] Top shape: 32 256 13 13 (1384448)
I0401 16:15:10.197973 14951 net.cpp:137] Memory required for data: 256225024
I0401 16:15:10.197986 14951 layer_factory.hpp:77] Creating layer relu5
I0401 16:15:10.197997 14951 net.cpp:84] Creating Layer relu5
I0401 16:15:10.198004 14951 net.cpp:406] relu5 <- conv5
I0401 16:15:10.198031 14951 net.cpp:367] relu5 -> conv5 (in-place)
I0401 16:15:10.198791 14951 net.cpp:122] Setting up relu5
I0401 16:15:10.198801 14951 net.cpp:129] Top shape: 32 256 13 13 (1384448)
I0401 16:15:10.198805 14951 net.cpp:137] Memory required for data: 261762816
I0401 16:15:10.198808 14951 layer_factory.hpp:77] Creating layer pool5
I0401 16:15:10.198818 14951 net.cpp:84] Creating Layer pool5
I0401 16:15:10.198820 14951 net.cpp:406] pool5 <- conv5
I0401 16:15:10.198825 14951 net.cpp:380] pool5 -> pool5
I0401 16:15:10.198870 14951 net.cpp:122] Setting up pool5
I0401 16:15:10.198876 14951 net.cpp:129] Top shape: 32 256 6 6 (294912)
I0401 16:15:10.198879 14951 net.cpp:137] Memory required for data: 262942464
I0401 16:15:10.198882 14951 layer_factory.hpp:77] Creating layer fc6
I0401 16:15:10.198890 14951 net.cpp:84] Creating Layer fc6
I0401 16:15:10.198894 14951 net.cpp:406] fc6 <- pool5
I0401 16:15:10.198899 14951 net.cpp:380] fc6 -> fc6
I0401 16:15:10.593936 14951 net.cpp:122] Setting up fc6
I0401 16:15:10.593959 14951 net.cpp:129] Top shape: 32 4096 (131072)
I0401 16:15:10.593961 14951 net.cpp:137] Memory required for data: 263466752
I0401 16:15:10.593971 14951 layer_factory.hpp:77] Creating layer relu6
I0401 16:15:10.593979 14951 net.cpp:84] Creating Layer relu6
I0401 16:15:10.593983 14951 net.cpp:406] relu6 <- fc6
I0401 16:15:10.593991 14951 net.cpp:367] relu6 -> fc6 (in-place)
I0401 16:15:10.594811 14951 net.cpp:122] Setting up relu6
I0401 16:15:10.594820 14951 net.cpp:129] Top shape: 32 4096 (131072)
I0401 16:15:10.594822 14951 net.cpp:137] Memory required for data: 263991040
I0401 16:15:10.594825 14951 layer_factory.hpp:77] Creating layer drop6
I0401 16:15:10.594831 14951 net.cpp:84] Creating Layer drop6
I0401 16:15:10.594833 14951 net.cpp:406] drop6 <- fc6
I0401 16:15:10.594838 14951 net.cpp:367] drop6 -> fc6 (in-place)
I0401 16:15:10.594863 14951 net.cpp:122] Setting up drop6
I0401 16:15:10.594868 14951 net.cpp:129] Top shape: 32 4096 (131072)
I0401 16:15:10.594869 14951 net.cpp:137] Memory required for data: 264515328
I0401 16:15:10.594872 14951 layer_factory.hpp:77] Creating layer fc7
I0401 16:15:10.594878 14951 net.cpp:84] Creating Layer fc7
I0401 16:15:10.594880 14951 net.cpp:406] fc7 <- fc6
I0401 16:15:10.594885 14951 net.cpp:380] fc7 -> fc7
I0401 16:15:10.790318 14951 net.cpp:122] Setting up fc7
I0401 16:15:10.790338 14951 net.cpp:129] Top shape: 32 4096 (131072)
I0401 16:15:10.790341 14951 net.cpp:137] Memory required for data: 265039616
I0401 16:15:10.790349 14951 layer_factory.hpp:77] Creating layer relu7
I0401 16:15:10.790359 14951 net.cpp:84] Creating Layer relu7
I0401 16:15:10.790361 14951 net.cpp:406] relu7 <- fc7
I0401 16:15:10.790367 14951 net.cpp:367] relu7 -> fc7 (in-place)
I0401 16:15:10.790797 14951 net.cpp:122] Setting up relu7
I0401 16:15:10.790805 14951 net.cpp:129] Top shape: 32 4096 (131072)
I0401 16:15:10.790807 14951 net.cpp:137] Memory required for data: 265563904
I0401 16:15:10.790809 14951 layer_factory.hpp:77] Creating layer drop7
I0401 16:15:10.790817 14951 net.cpp:84] Creating Layer drop7
I0401 16:15:10.790819 14951 net.cpp:406] drop7 <- fc7
I0401 16:15:10.790822 14951 net.cpp:367] drop7 -> fc7 (in-place)
I0401 16:15:10.790845 14951 net.cpp:122] Setting up drop7
I0401 16:15:10.790849 14951 net.cpp:129] Top shape: 32 4096 (131072)
I0401 16:15:10.790851 14951 net.cpp:137] Memory required for data: 266088192
I0401 16:15:10.790853 14951 layer_factory.hpp:77] Creating layer fc8
I0401 16:15:10.790858 14951 net.cpp:84] Creating Layer fc8
I0401 16:15:10.790860 14951 net.cpp:406] fc8 <- fc7
I0401 16:15:10.790865 14951 net.cpp:380] fc8 -> fc8
I0401 16:15:10.798202 14951 net.cpp:122] Setting up fc8
I0401 16:15:10.798225 14951 net.cpp:129] Top shape: 32 196 (6272)
I0401 16:15:10.798228 14951 net.cpp:137] Memory required for data: 266113280
I0401 16:15:10.798236 14951 layer_factory.hpp:77] Creating layer fc8_fc8_0_split
I0401 16:15:10.798243 14951 net.cpp:84] Creating Layer fc8_fc8_0_split
I0401 16:15:10.798247 14951 net.cpp:406] fc8_fc8_0_split <- fc8
I0401 16:15:10.798274 14951 net.cpp:380] fc8_fc8_0_split -> fc8_fc8_0_split_0
I0401 16:15:10.798285 14951 net.cpp:380] fc8_fc8_0_split -> fc8_fc8_0_split_1
I0401 16:15:10.798319 14951 net.cpp:122] Setting up fc8_fc8_0_split
I0401 16:15:10.798324 14951 net.cpp:129] Top shape: 32 196 (6272)
I0401 16:15:10.798326 14951 net.cpp:129] Top shape: 32 196 (6272)
I0401 16:15:10.798328 14951 net.cpp:137] Memory required for data: 266163456
I0401 16:15:10.798331 14951 layer_factory.hpp:77] Creating layer accuracy
I0401 16:15:10.798337 14951 net.cpp:84] Creating Layer accuracy
I0401 16:15:10.798339 14951 net.cpp:406] accuracy <- fc8_fc8_0_split_0
I0401 16:15:10.798343 14951 net.cpp:406] accuracy <- label_val-data_1_split_0
I0401 16:15:10.798346 14951 net.cpp:380] accuracy -> accuracy
…
