…
I0412 14:19:56.183380 20203 net.cpp:294] The NetState phase (0) differed from the phase (1) specified by a rule in layer accuracy
I0412 14:19:56.183549 20203 net.cpp:51] Initializing net from parameters:
state {
phase: TRAIN
level: 0
stage: ""
}
layer {
name: "train-data"
type: "Data"
top: "data"
top: "label"
include {
phase: TRAIN
}
transform_param {
mirror: true
crop_size: 227
mean_file: "/mnt/bigdisk/DIGITS-MAN-2/digits/jobs/20210407-214532-d396/mean.binaryproto"
}
data_param {
source: "/mnt/bigdisk/DIGITS-MAN-2/digits/jobs/20210407-214532-d396/train_db"
batch_size: 128
backend: LMDB
}
}
layer {
name: "conv1"
type: "Convolution"
bottom: "data"
top: "conv1"
param {
lr_mult: 1
decay_mult: 1
}
param {
lr_mult: 2
decay_mult: 0
}
convolution_param {
num_output: 96
kernel_size: 11
stride: 4
weight_filler {
type: "gaussian"
std: 0.01
}
bias_filler {
type: "constant"
value: 0
}
}
}
layer {
name: "relu1"
type: "ReLU"
bottom: "conv1"
top: "conv1"
}
layer {
name: "norm1"
type: "LRN"
bottom: "conv1"
top: "norm1"
lrn_param {
local_size: 5
alpha: 0.0001
beta: 0.75
}
}
layer {
name: "pool1"
type: "Pooling"
bottom: "norm1"
top: "pool1"
pooling_param {
pool: MAX
kernel_size: 3
stride: 2
}
}
layer {
name: "conv2"
type: "Convolution"
bottom: "pool1"
top: "conv2"
param {
lr_mult: 1
decay_mult: 1
}
param {
lr_mult: 2
decay_mult: 0
}
convolution_param {
num_output: 256
pad: 2
kernel_size: 5
group: 2
weight_filler {
type: "gaussian"
std: 0.01
}
bias_filler {
type: "constant"
value: 0.1
}
}
}
layer {
name: "relu2"
type: "ReLU"
bottom: "conv2"
top: "conv2"
}
layer {
name: "norm2"
type: "LRN"
bottom: "conv2"
top: "norm2"
lrn_param {
local_size: 5
alpha: 0.0001
beta: 0.75
}
}
layer {
name: "pool2"
type: "Pooling"
bottom: "norm2"
top: "pool2"
pooling_param {
pool: MAX
kernel_size: 3
stride: 2
}
}
layer {
name: "conv3"
type: "Convolution"
bottom: "pool2"
top: "conv3"
param {
lr_mult: 1
decay_mult: 1
}
param {
lr_mult: 2
decay_mult: 0
}
convolution_param {
num_output: 384
pad: 1
kernel_size: 3
weight_filler {
type: "gaussian"
std: 0.01
}
bias_filler {
type: "constant"
value: 0
}
}
}
layer {
name: "relu3"
type: "ReLU"
bottom: "conv3"
top: "conv3"
}
layer {
name: "conv4"
type: "Convolution"
bottom: "conv3"
top: "conv4"
param {
lr_mult: 1
decay_mult: 1
}
param {
lr_mult: 2
decay_mult: 0
}
convolution_param {
num_output: 96
pad: 1
kernel_size: 3
group: 2
weight_filler {
type: "gaussian"
std: 0.01
}
bias_filler {
type: "constant"
value: 0.1
}
}
}
layer {
name: "relu4"
type: "ReLU"
bottom: "conv4"
top: "conv4"
}
layer {
name: "conv4.2"
type: "Convolution"
bottom: "conv4"
top: "conv4.2"
param {
lr_mult: 1
decay_mult: 1
}
param {
lr_mult: 2
decay_mult: 0
}
convolution_param {
num_output: 96
pad: 1
kernel_size: 3
group: 2
weight_filler {
type: "gaussian"
std: 0.01
}
bias_filler {
type: "constant"
value: 0.1
}
}
}
layer {
name: "relu4.2"
type: "ReLU"
bottom: "conv4.2"
top: "conv4.2"
}
layer {
name: "conv4.3"
type: "Convolution"
bottom: "conv4.2"
top: "conv4.3"
param {
lr_mult: 1
decay_mult: 1
}
param {
lr_mult: 2
decay_mult: 0
}
convolution_param {
num_output: 96
pad: 1
kernel_size: 3
group: 2
weight_filler {
type: "gaussian"
std: 0.01
}
bias_filler {
type: "constant"
value: 0.1
}
}
}
layer {
name: "relu4.3"
type: "ReLU"
bottom: "conv4.3"
top: "conv4.3"
}
layer {
name: "conv4.4"
type: "Convolution"
bottom: "conv4.3"
top: "conv4.4"
param {
lr_mult: 1
decay_mult: 1
}
param {
lr_mult: 2
decay_mult: 0
}
convolution_param {
num_output: 96
pad: 1
kernel_size: 3
group: 2
weight_filler {
type: "gaussian"
std: 0.01
}
bias_filler {
type: "constant"
value: 0.1
}
}
}
layer {
name: "relu4.4"
type: "ReLU"
bottom: "conv4.4"
top: "conv4.4"
}
layer {
name: "conv5"
type: "Convolution"
bottom: "conv4.4"
top: "conv5"
param {
lr_mult: 1
decay_mult: 1
}
param {
lr_mult: 2
decay_mult: 0
}
convolution_param {
num_output: 256
pad: 1
kernel_size: 3
group: 2
weight_filler {
type: "gaussian"
std: 0.01
}
bias_filler {
type: "constant"
value: 0.1
}
}
}
layer {
name: "relu5"
type: "ReLU"
bottom: "conv5"
top: "conv5"
}
layer {
name: "pool5"
type: "Pooling"
bottom: "conv5"
top: "pool5"
pooling_param {
pool: MAX
kernel_size: 3
stride: 2
}
}
layer {
name: "fc6"
type: "InnerProduct"
bottom: "pool5"
top: "fc6"
param {
lr_mult: 1
decay_mult: 1
}
param {
lr_mult: 2
decay_mult: 0
}
inner_product_param {
num_output: 4096
weight_filler {
type: "gaussian"
std: 0.005
}
bias_filler {
type: "constant"
value: 0.1
}
}
}
layer {
name: "relu6"
type: "ReLU"
bottom: "fc6"
top: "fc6"
}
layer {
name: "drop6"
type: "Dropout"
bottom: "fc6"
top: "fc6"
dropout_param {
dropout_ratio: 0.5
}
}
layer {
name: "fc7"
type: "InnerProduct"
bottom: "fc6"
top: "fc7"
param {
lr_mult: 1
decay_mult: 1
}
param {
lr_mult: 2
decay_mult: 0
}
inner_product_param {
num_output: 4096
weight_filler {
type: "gaussian"
std: 0.005
}
bias_filler {
type: "constant"
value: 0.1
}
}
}
layer {
name: "relu7"
type: "ReLU"
bottom: "fc7"
top: "fc7"
}
layer {
name: "drop7"
type: "Dropout"
bottom: "fc7"
top: "fc7"
dropout_param {
dropout_ratio: 0.5
}
}
layer {
name: "fc8"
type: "InnerProduct"
bottom: "fc7"
top: "fc8"
param {
lr_mult: 1
decay_mult: 1
}
param {
lr_mult: 2
decay_mult: 0
}
inner_product_param {
num_output: 196
weight_filler {
type: "gaussian"
std: 0.01
}
bias_filler {
type: "constant"
value: 0
}
}
}
layer {
name: "loss"
type: "SoftmaxWithLoss"
bottom: "fc8"
bottom: "label"
top: "loss"
}
I0412 14:19:56.183648 20203 layer_factory.hpp:77] Creating layer train-data
I0412 14:19:56.189752 20203 db_lmdb.cpp:35] Opened lmdb /mnt/bigdisk/DIGITS-MAN-2/digits/jobs/20210407-214532-d396/train_db
I0412 14:19:56.189978 20203 net.cpp:84] Creating Layer train-data
I0412 14:19:56.189990 20203 net.cpp:380] train-data -> data
I0412 14:19:56.190009 20203 net.cpp:380] train-data -> label
I0412 14:19:56.190021 20203 data_transformer.cpp:25] Loading mean file from: /mnt/bigdisk/DIGITS-MAN-2/digits/jobs/20210407-214532-d396/mean.binaryproto
I0412 14:19:56.195195 20203 data_layer.cpp:45] output data size: 128,3,227,227
I0412 14:19:56.347721 20203 net.cpp:122] Setting up train-data
I0412 14:19:56.347744 20203 net.cpp:129] Top shape: 128 3 227 227 (19787136)
I0412 14:19:56.347751 20203 net.cpp:129] Top shape: 128 (128)
I0412 14:19:56.347754 20203 net.cpp:137] Memory required for data: 79149056
I0412 14:19:56.347764 20203 layer_factory.hpp:77] Creating layer conv1
I0412 14:19:56.347784 20203 net.cpp:84] Creating Layer conv1
I0412 14:19:56.347790 20203 net.cpp:406] conv1 <- data
I0412 14:19:56.347802 20203 net.cpp:380] conv1 -> conv1
I0412 14:19:57.059183 20203 net.cpp:122] Setting up conv1
I0412 14:19:57.059213 20203 net.cpp:129] Top shape: 128 96 55 55 (37171200)
I0412 14:19:57.059221 20203 net.cpp:137] Memory required for data: 227833856
I0412 14:19:57.059247 20203 layer_factory.hpp:77] Creating layer relu1
I0412 14:19:57.059259 20203 net.cpp:84] Creating Layer relu1
I0412 14:19:57.059267 20203 net.cpp:406] relu1 <- conv1
I0412 14:19:57.059274 20203 net.cpp:367] relu1 -> conv1 (in-place)
I0412 14:19:57.059715 20203 net.cpp:122] Setting up relu1
I0412 14:19:57.059728 20203 net.cpp:129] Top shape: 128 96 55 55 (37171200)
I0412 14:19:57.059734 20203 net.cpp:137] Memory required for data: 376518656
I0412 14:19:57.059741 20203 layer_factory.hpp:77] Creating layer norm1
I0412 14:19:57.059752 20203 net.cpp:84] Creating Layer norm1
I0412 14:19:57.059758 20203 net.cpp:406] norm1 <- conv1
I0412 14:19:57.059767 20203 net.cpp:380] norm1 -> norm1
I0412 14:19:57.060418 20203 net.cpp:122] Setting up norm1
I0412 14:19:57.060433 20203 net.cpp:129] Top shape: 128 96 55 55 (37171200)
I0412 14:19:57.060439 20203 net.cpp:137] Memory required for data: 525203456
I0412 14:19:57.060444 20203 layer_factory.hpp:77] Creating layer pool1
I0412 14:19:57.060456 20203 net.cpp:84] Creating Layer pool1
I0412 14:19:57.060461 20203 net.cpp:406] pool1 <- norm1
I0412 14:19:57.060469 20203 net.cpp:380] pool1 -> pool1
I0412 14:19:57.060528 20203 net.cpp:122] Setting up pool1
I0412 14:19:57.060539 20203 net.cpp:129] Top shape: 128 96 27 27 (8957952)
I0412 14:19:57.060544 20203 net.cpp:137] Memory required for data: 561035264
I0412 14:19:57.060549 20203 layer_factory.hpp:77] Creating layer conv2
I0412 14:19:57.060564 20203 net.cpp:84] Creating Layer conv2
I0412 14:19:57.060571 20203 net.cpp:406] conv2 <- pool1
I0412 14:19:57.060580 20203 net.cpp:380] conv2 -> conv2
I0412 14:19:57.084409 20203 net.cpp:122] Setting up conv2
I0412 14:19:57.084430 20203 net.cpp:129] Top shape: 128 256 27 27 (23887872)
I0412 14:19:57.084434 20203 net.cpp:137] Memory required for data: 656586752
I0412 14:19:57.084447 20203 layer_factory.hpp:77] Creating layer relu2
I0412 14:19:57.084457 20203 net.cpp:84] Creating Layer relu2
I0412 14:19:57.084461 20203 net.cpp:406] relu2 <- conv2
I0412 14:19:57.084468 20203 net.cpp:367] relu2 -> conv2 (in-place)
I0412 14:19:57.085386 20203 net.cpp:122] Setting up relu2
I0412 14:19:57.085397 20203 net.cpp:129] Top shape: 128 256 27 27 (23887872)
I0412 14:19:57.085400 20203 net.cpp:137] Memory required for data: 752138240
I0412 14:19:57.085404 20203 layer_factory.hpp:77] Creating layer norm2
I0412 14:19:57.085413 20203 net.cpp:84] Creating Layer norm2
I0412 14:19:57.085417 20203 net.cpp:406] norm2 <- conv2
I0412 14:19:57.085424 20203 net.cpp:380] norm2 -> norm2
I0412 14:19:57.085721 20203 net.cpp:122] Setting up norm2
I0412 14:19:57.085729 20203 net.cpp:129] Top shape: 128 256 27 27 (23887872)
I0412 14:19:57.085734 20203 net.cpp:137] Memory required for data: 847689728
I0412 14:19:57.085737 20203 layer_factory.hpp:77] Creating layer pool2
I0412 14:19:57.085747 20203 net.cpp:84] Creating Layer pool2
I0412 14:19:57.085750 20203 net.cpp:406] pool2 <- norm2
I0412 14:19:57.085757 20203 net.cpp:380] pool2 -> pool2
I0412 14:19:57.085785 20203 net.cpp:122] Setting up pool2
I0412 14:19:57.085791 20203 net.cpp:129] Top shape: 128 256 13 13 (5537792)
I0412 14:19:57.085794 20203 net.cpp:137] Memory required for data: 869840896
I0412 14:19:57.085798 20203 layer_factory.hpp:77] Creating layer conv3
I0412 14:19:57.085829 20203 net.cpp:84] Creating Layer conv3
I0412 14:19:57.085834 20203 net.cpp:406] conv3 <- pool2
I0412 14:19:57.085841 20203 net.cpp:380] conv3 -> conv3
I0412 14:19:57.097656 20203 net.cpp:122] Setting up conv3
I0412 14:19:57.097671 20203 net.cpp:129] Top shape: 128 384 13 13 (8306688)
I0412 14:19:57.097673 20203 net.cpp:137] Memory required for data: 903067648
I0412 14:19:57.097684 20203 layer_factory.hpp:77] Creating layer relu3
I0412 14:19:57.097692 20203 net.cpp:84] Creating Layer relu3
I0412 14:19:57.097697 20203 net.cpp:406] relu3 <- conv3
I0412 14:19:57.097702 20203 net.cpp:367] relu3 -> conv3 (in-place)
I0412 14:19:57.098191 20203 net.cpp:122] Setting up relu3
I0412 14:19:57.098201 20203 net.cpp:129] Top shape: 128 384 13 13 (8306688)
I0412 14:19:57.098204 20203 net.cpp:137] Memory required for data: 936294400
I0412 14:19:57.098208 20203 layer_factory.hpp:77] Creating layer conv4
I0412 14:19:57.098218 20203 net.cpp:84] Creating Layer conv4
I0412 14:19:57.098222 20203 net.cpp:406] conv4 <- conv3
I0412 14:19:57.098229 20203 net.cpp:380] conv4 -> conv4
I0412 14:19:57.103674 20203 net.cpp:122] Setting up conv4
I0412 14:19:57.103686 20203 net.cpp:129] Top shape: 128 96 13 13 (2076672)
I0412 14:19:57.103690 20203 net.cpp:137] Memory required for data: 944601088
I0412 14:19:57.103698 20203 layer_factory.hpp:77] Creating layer relu4
I0412 14:19:57.103704 20203 net.cpp:84] Creating Layer relu4
I0412 14:19:57.103708 20203 net.cpp:406] relu4 <- conv4
I0412 14:19:57.103715 20203 net.cpp:367] relu4 -> conv4 (in-place)
I0412 14:19:57.104053 20203 net.cpp:122] Setting up relu4
I0412 14:19:57.104060 20203 net.cpp:129] Top shape: 128 96 13 13 (2076672)
I0412 14:19:57.104064 20203 net.cpp:137] Memory required for data: 952907776
I0412 14:19:57.104068 20203 layer_factory.hpp:77] Creating layer conv4.2
I0412 14:19:57.104077 20203 net.cpp:84] Creating Layer conv4.2
I0412 14:19:57.104080 20203 net.cpp:406] conv4.2 <- conv4
I0412 14:19:57.104087 20203 net.cpp:380] conv4.2 -> conv4.2
I0412 14:19:57.108472 20203 net.cpp:122] Setting up conv4.2
I0412 14:19:57.108484 20203 net.cpp:129] Top shape: 128 96 13 13 (2076672)
I0412 14:19:57.108489 20203 net.cpp:137] Memory required for data: 961214464
I0412 14:19:57.108500 20203 layer_factory.hpp:77] Creating layer relu4.2
I0412 14:19:57.108506 20203 net.cpp:84] Creating Layer relu4.2
I0412 14:19:57.108510 20203 net.cpp:406] relu4.2 <- conv4.2
I0412 14:19:57.108516 20203 net.cpp:367] relu4.2 -> conv4.2 (in-place)
I0412 14:19:57.108997 20203 net.cpp:122] Setting up relu4.2
I0412 14:19:57.109006 20203 net.cpp:129] Top shape: 128 96 13 13 (2076672)
I0412 14:19:57.109010 20203 net.cpp:137] Memory required for data: 969521152
I0412 14:19:57.109014 20203 layer_factory.hpp:77] Creating layer conv4.3
I0412 14:19:57.109025 20203 net.cpp:84] Creating Layer conv4.3
I0412 14:19:57.109028 20203 net.cpp:406] conv4.3 <- conv4.2
I0412 14:19:57.109035 20203 net.cpp:380] conv4.3 -> conv4.3
I0412 14:19:57.112463 20203 net.cpp:122] Setting up conv4.3
I0412 14:19:57.112473 20203 net.cpp:129] Top shape: 128 96 13 13 (2076672)
I0412 14:19:57.112478 20203 net.cpp:137] Memory required for data: 977827840
I0412 14:19:57.112484 20203 layer_factory.hpp:77] Creating layer relu4.3
I0412 14:19:57.112493 20203 net.cpp:84] Creating Layer relu4.3
I0412 14:19:57.112496 20203 net.cpp:406] relu4.3 <- conv4.3
I0412 14:19:57.112504 20203 net.cpp:367] relu4.3 -> conv4.3 (in-place)
I0412 14:19:57.112991 20203 net.cpp:122] Setting up relu4.3
I0412 14:19:57.113000 20203 net.cpp:129] Top shape: 128 96 13 13 (2076672)
I0412 14:19:57.113003 20203 net.cpp:137] Memory required for data: 986134528
I0412 14:19:57.113008 20203 layer_factory.hpp:77] Creating layer conv4.4
I0412 14:19:57.113016 20203 net.cpp:84] Creating Layer conv4.4
I0412 14:19:57.113020 20203 net.cpp:406] conv4.4 <- conv4.3
I0412 14:19:57.113027 20203 net.cpp:380] conv4.4 -> conv4.4
I0412 14:19:57.118353 20203 net.cpp:122] Setting up conv4.4
I0412 14:19:57.118371 20203 net.cpp:129] Top shape: 128 96 13 13 (2076672)
I0412 14:19:57.118376 20203 net.cpp:137] Memory required for data: 994441216
I0412 14:19:57.118407 20203 layer_factory.hpp:77] Creating layer relu4.4
I0412 14:19:57.118414 20203 net.cpp:84] Creating Layer relu4.4
I0412 14:19:57.118423 20203 net.cpp:406] relu4.4 <- conv4.4
I0412 14:19:57.118430 20203 net.cpp:367] relu4.4 -> conv4.4 (in-place)
I0412 14:19:57.119064 20203 net.cpp:122] Setting up relu4.4
I0412 14:19:57.119076 20203 net.cpp:129] Top shape: 128 96 13 13 (2076672)
I0412 14:19:57.119081 20203 net.cpp:137] Memory required for data: 1002747904
I0412 14:19:57.119086 20203 layer_factory.hpp:77] Creating layer conv5
I0412 14:19:57.119099 20203 net.cpp:84] Creating Layer conv5
I0412 14:19:57.119104 20203 net.cpp:406] conv5 <- conv4.4
I0412 14:19:57.119114 20203 net.cpp:380] conv5 -> conv5
I0412 14:19:57.125795 20203 net.cpp:122] Setting up conv5
I0412 14:19:57.125809 20203 net.cpp:129] Top shape: 128 256 13 13 (5537792)
I0412 14:19:57.125816 20203 net.cpp:137] Memory required for data: 1024899072
I0412 14:19:57.125826 20203 layer_factory.hpp:77] Creating layer relu5
I0412 14:19:57.125836 20203 net.cpp:84] Creating Layer relu5
I0412 14:19:57.125841 20203 net.cpp:406] relu5 <- conv5
I0412 14:19:57.125849 20203 net.cpp:367] relu5 -> conv5 (in-place)
I0412 14:19:57.126375 20203 net.cpp:122] Setting up relu5
I0412 14:19:57.126386 20203 net.cpp:129] Top shape: 128 256 13 13 (5537792)
I0412 14:19:57.126390 20203 net.cpp:137] Memory required for data: 1047050240
I0412 14:19:57.126394 20203 layer_factory.hpp:77] Creating layer pool5
I0412 14:19:57.126401 20203 net.cpp:84] Creating Layer pool5
I0412 14:19:57.126405 20203 net.cpp:406] pool5 <- conv5
I0412 14:19:57.126412 20203 net.cpp:380] pool5 -> pool5
I0412 14:19:57.126451 20203 net.cpp:122] Setting up pool5
I0412 14:19:57.126457 20203 net.cpp:129] Top shape: 128 256 6 6 (1179648)
I0412 14:19:57.126461 20203 net.cpp:137] Memory required for data: 1051768832
I0412 14:19:57.126464 20203 layer_factory.hpp:77] Creating layer fc6
I0412 14:19:57.126472 20203 net.cpp:84] Creating Layer fc6
I0412 14:19:57.126477 20203 net.cpp:406] fc6 <- pool5
I0412 14:19:57.126483 20203 net.cpp:380] fc6 -> fc6
I0412 14:19:57.557391 20203 net.cpp:122] Setting up fc6
I0412 14:19:57.557415 20203 net.cpp:129] Top shape: 128 4096 (524288)
I0412 14:19:57.557420 20203 net.cpp:137] Memory required for data: 1053865984
I0412 14:19:57.557432 20203 layer_factory.hpp:77] Creating layer relu6
I0412 14:19:57.557442 20203 net.cpp:84] Creating Layer relu6
I0412 14:19:57.557446 20203 net.cpp:406] relu6 <- fc6
I0412 14:19:57.557453 20203 net.cpp:367] relu6 -> fc6 (in-place)
I0412 14:19:57.558105 20203 net.cpp:122] Setting up relu6
I0412 14:19:57.558116 20203 net.cpp:129] Top shape: 128 4096 (524288)
I0412 14:19:57.558120 20203 net.cpp:137] Memory required for data: 1055963136
I0412 14:19:57.558125 20203 layer_factory.hpp:77] Creating layer drop6
I0412 14:19:57.558130 20203 net.cpp:84] Creating Layer drop6
I0412 14:19:57.558135 20203 net.cpp:406] drop6 <- fc6
I0412 14:19:57.558140 20203 net.cpp:367] drop6 -> fc6 (in-place)
I0412 14:19:57.558167 20203 net.cpp:122] Setting up drop6
I0412 14:19:57.558173 20203 net.cpp:129] Top shape: 128 4096 (524288)
I0412 14:19:57.558177 20203 net.cpp:137] Memory required for data: 1058060288
I0412 14:19:57.558180 20203 layer_factory.hpp:77] Creating layer fc7
I0412 14:19:57.558189 20203 net.cpp:84] Creating Layer fc7
I0412 14:19:57.558192 20203 net.cpp:406] fc7 <- fc6
I0412 14:19:57.558198 20203 net.cpp:380] fc7 -> fc7
I0412 14:19:57.737767 20203 net.cpp:122] Setting up fc7
I0412 14:19:57.737788 20203 net.cpp:129] Top shape: 128 4096 (524288)
I0412 14:19:57.737792 20203 net.cpp:137] Memory required for data: 1060157440
I0412 14:19:57.737802 20203 layer_factory.hpp:77] Creating layer relu7
I0412 14:19:57.737812 20203 net.cpp:84] Creating Layer relu7
I0412 14:19:57.737818 20203 net.cpp:406] relu7 <- fc7
I0412 14:19:57.737824 20203 net.cpp:367] relu7 -> fc7 (in-place)
I0412 14:19:57.738255 20203 net.cpp:122] Setting up relu7
I0412 14:19:57.738265 20203 net.cpp:129] Top shape: 128 4096 (524288)
I0412 14:19:57.738268 20203 net.cpp:137] Memory required for data: 1062254592
I0412 14:19:57.738291 20203 layer_factory.hpp:77] Creating layer drop7
I0412 14:19:57.738298 20203 net.cpp:84] Creating Layer drop7
I0412 14:19:57.738301 20203 net.cpp:406] drop7 <- fc7
I0412 14:19:57.738307 20203 net.cpp:367] drop7 -> fc7 (in-place)
I0412 14:19:57.738332 20203 net.cpp:122] Setting up drop7
I0412 14:19:57.738337 20203 net.cpp:129] Top shape: 128 4096 (524288)
I0412 14:19:57.738339 20203 net.cpp:137] Memory required for data: 1064351744
I0412 14:19:57.738343 20203 layer_factory.hpp:77] Creating layer fc8
I0412 14:19:57.738350 20203 net.cpp:84] Creating Layer fc8
I0412 14:19:57.738354 20203 net.cpp:406] fc8 <- fc7
I0412 14:19:57.738360 20203 net.cpp:380] fc8 -> fc8
I0412 14:19:57.746182 20203 net.cpp:122] Setting up fc8
I0412 14:19:57.746196 20203 net.cpp:129] Top shape: 128 196 (25088)
I0412 14:19:57.746198 20203 net.cpp:137] Memory required for data: 1064452096
I0412 14:19:57.746206 20203 layer_factory.hpp:77] Creating layer loss
I0412 14:19:57.746214 20203 net.cpp:84] Creating Layer loss
I0412 14:19:57.746218 20203 net.cpp:406] loss <- fc8
I0412 14:19:57.746223 20203 net.cpp:406] loss <- label
I0412 14:19:57.746230 20203 net.cpp:380] loss -> loss
I0412 14:19:57.746240 20203 layer_factory.hpp:77] Creating layer loss
…
I0412 14:19:57.754411 20203 net.cpp:294] The NetState phase (1) differed from the phase (0) specified by a rule in layer train-data
I0412 14:19:57.754595 20203 net.cpp:51] Initializing net from parameters:
state {
phase: TEST
}
layer {
name: "val-data"
type: "Data"
top: "data"
top: "label"
include {
phase: TEST
}
transform_param {
crop_size: 227
mean_file: "/mnt/bigdisk/DIGITS-MAN-2/digits/jobs/20210407-214532-d396/mean.binaryproto"
}
data_param {
source: "/mnt/bigdisk/DIGITS-MAN-2/digits/jobs/20210407-214532-d396/val_db"
batch_size: 32
backend: LMDB
}
}
layer {
name: "conv1"
type: "Convolution"
bottom: "data"
top: "conv1"
param {
lr_mult: 1
decay_mult: 1
}
param {
lr_mult: 2
decay_mult: 0
}
convolution_param {
num_output: 96
kernel_size: 11
stride: 4
weight_filler {
type: "gaussian"
std: 0.01
}
bias_filler {
type: "constant"
value: 0
}
}
}
layer {
name: "relu1"
type: "ReLU"
bottom: "conv1"
top: "conv1"
}
layer {
name: "norm1"
type: "LRN"
bottom: "conv1"
top: "norm1"
lrn_param {
local_size: 5
alpha: 0.0001
beta: 0.75
}
}
layer {
name: "pool1"
type: "Pooling"
bottom: "norm1"
top: "pool1"
pooling_param {
pool: MAX
kernel_size: 3
stride: 2
}
}
layer {
name: "conv2"
type: "Convolution"
bottom: "pool1"
top: "conv2"
param {
lr_mult: 1
decay_mult: 1
}
param {
lr_mult: 2
decay_mult: 0
}
convolution_param {
num_output: 256
pad: 2
kernel_size: 5
group: 2
weight_filler {
type: "gaussian"
std: 0.01
}
bias_filler {
type: "constant"
value: 0.1
}
}
}
layer {
name: "relu2"
type: "ReLU"
bottom: "conv2"
top: "conv2"
}
layer {
name: "norm2"
type: "LRN"
bottom: "conv2"
top: "norm2"
lrn_param {
local_size: 5
alpha: 0.0001
beta: 0.75
}
}
layer {
name: "pool2"
type: "Pooling"
bottom: "norm2"
top: "pool2"
pooling_param {
pool: MAX
kernel_size: 3
stride: 2
}
}
layer {
name: "conv3"
type: "Convolution"
bottom: "pool2"
top: "conv3"
param {
lr_mult: 1
decay_mult: 1
}
param {
lr_mult: 2
decay_mult: 0
}
convolution_param {
num_output: 384
pad: 1
kernel_size: 3
weight_filler {
type: "gaussian"
std: 0.01
}
bias_filler {
type: "constant"
value: 0
}
}
}
layer {
name: "relu3"
type: "ReLU"
bottom: "conv3"
top: "conv3"
}
layer {
name: "conv4"
type: "Convolution"
bottom: "conv3"
top: "conv4"
param {
lr_mult: 1
decay_mult: 1
}
param {
lr_mult: 2
decay_mult: 0
}
convolution_param {
num_output: 96
pad: 1
kernel_size: 3
group: 2
weight_filler {
type: "gaussian"
std: 0.01
}
bias_filler {
type: "constant"
value: 0.1
}
}
}
layer {
name: "relu4"
type: "ReLU"
bottom: "conv4"
top: "conv4"
}
layer {
name: "conv4.2"
type: "Convolution"
bottom: "conv4"
top: "conv4.2"
param {
lr_mult: 1
decay_mult: 1
}
param {
lr_mult: 2
decay_mult: 0
}
convolution_param {
num_output: 96
pad: 1
kernel_size: 3
group: 2
weight_filler {
type: "gaussian"
std: 0.01
}
bias_filler {
type: "constant"
value: 0.1
}
}
}
layer {
name: "relu4.2"
type: "ReLU"
bottom: "conv4.2"
top: "conv4.2"
}
layer {
name: "conv4.3"
type: "Convolution"
bottom: "conv4.2"
top: "conv4.3"
param {
lr_mult: 1
decay_mult: 1
}
param {
lr_mult: 2
decay_mult: 0
}
convolution_param {
num_output: 96
pad: 1
kernel_size: 3
group: 2
weight_filler {
type: "gaussian"
std: 0.01
}
bias_filler {
type: "constant"
value: 0.1
}
}
}
layer {
name: "relu4.3"
type: "ReLU"
bottom: "conv4.3"
top: "conv4.3"
}
layer {
name: "conv4.4"
type: "Convolution"
bottom: "conv4.3"
top: "conv4.4"
param {
lr_mult: 1
decay_mult: 1
}
param {
lr_mult: 2
decay_mult: 0
}
convolution_param {
num_output: 96
pad: 1
kernel_size: 3
group: 2
weight_filler {
type: "gaussian"
std: 0.01
}
bias_filler {
type: "constant"
value: 0.1
}
}
}
layer {
name: "relu4.4"
type: "ReLU"
bottom: "conv4.4"
top: "conv4.4"
}
layer {
name: "conv5"
type: "Convolution"
bottom: "conv4.4"
top: "conv5"
param {
lr_mult: 1
decay_mult: 1
}
param {
lr_mult: 2
decay_mult: 0
}
convolution_param {
num_output: 256
pad: 1
kernel_size: 3
group: 2
weight_filler {
type: "gaussian"
std: 0.01
}
bias_filler {
type: "constant"
value: 0.1
}
}
}
layer {
name: "relu5"
type: "ReLU"
bottom: "conv5"
top: "conv5"
}
layer {
name: "pool5"
type: "Pooling"
bottom: "conv5"
top: "pool5"
pooling_param {
pool: MAX
kernel_size: 3
stride: 2
}
}
layer {
name: "fc6"
type: "InnerProduct"
bottom: "pool5"
top: "fc6"
param {
lr_mult: 1
decay_mult: 1
}
param {
lr_mult: 2
decay_mult: 0
}
inner_product_param {
num_output: 4096
weight_filler {
type: "gaussian"
std: 0.005
}
bias_filler {
type: "constant"
value: 0.1
}
}
}
layer {
name: "relu6"
type: "ReLU"
bottom: "fc6"
top: "fc6"
}
layer {
name: "drop6"
type: "Dropout"
bottom: "fc6"
top: "fc6"
dropout_param {
dropout_ratio: 0.5
}
}
layer {
name: "fc7"
type: "InnerProduct"
bottom: "fc6"
top: "fc7"
param {
lr_mult: 1
decay_mult: 1
}
param {
lr_mult: 2
decay_mult: 0
}
inner_product_param {
num_output: 4096
weight_filler {
type: "gaussian"
std: 0.005
}
bias_filler {
type: "constant"
value: 0.1
}
}
}
layer {
name: "relu7"
type: "ReLU"
bottom: "fc7"
top: "fc7"
}
layer {
name: "drop7"
type: "Dropout"
bottom: "fc7"
top: "fc7"
dropout_param {
dropout_ratio: 0.5
}
}
layer {
name: "fc8"
type: "InnerProduct"
bottom: "fc7"
top: "fc8"
param {
lr_mult: 1
decay_mult: 1
}
param {
lr_mult: 2
decay_mult: 0
}
inner_product_param {
num_output: 196
weight_filler {
type: "gaussian"
std: 0.01
}
bias_filler {
type: "constant"
value: 0
}
}
}
layer {
name: "accuracy"
type: "Accuracy"
bottom: "fc8"
bottom: "label"
top: "accuracy"
include {
phase: TEST
}
}
layer {
name: "loss"
type: "SoftmaxWithLoss"
bottom: "fc8"
bottom: "label"
top: "loss"
}
I0412 14:19:57.754696 20203 layer_factory.hpp:77] Creating layer val-data
I0412 14:19:57.756206 20203 db_lmdb.cpp:35] Opened lmdb /mnt/bigdisk/DIGITS-MAN-2/digits/jobs/20210407-214532-d396/val_db
I0412 14:19:57.756412 20203 net.cpp:84] Creating Layer val-data
I0412 14:19:57.756420 20203 net.cpp:380] val-data -> data
I0412 14:19:57.756431 20203 net.cpp:380] val-data -> label
I0412 14:19:57.756438 20203 data_transformer.cpp:25] Loading mean file from: /mnt/bigdisk/DIGITS-MAN-2/digits/jobs/20210407-214532-d396/mean.binaryproto
I0412 14:19:57.760958 20203 data_layer.cpp:45] output data size: 32,3,227,227
I0412 14:19:57.800777 20203 net.cpp:122] Setting up val-data
I0412 14:19:57.800796 20203 net.cpp:129] Top shape: 32 3 227 227 (4946784)
I0412 14:19:57.800801 20203 net.cpp:129] Top shape: 32 (32)
I0412 14:19:57.800804 20203 net.cpp:137] Memory required for data: 19787264
I0412 14:19:57.800810 20203 layer_factory.hpp:77] Creating layer label_val-data_1_split
I0412 14:19:57.800822 20203 net.cpp:84] Creating Layer label_val-data_1_split
I0412 14:19:57.800827 20203 net.cpp:406] label_val-data_1_split <- label
I0412 14:19:57.800833 20203 net.cpp:380] label_val-data_1_split -> label_val-data_1_split_0
I0412 14:19:57.800843 20203 net.cpp:380] label_val-data_1_split -> label_val-data_1_split_1
I0412 14:19:57.800920 20203 net.cpp:122] Setting up label_val-data_1_split
I0412 14:19:57.800925 20203 net.cpp:129] Top shape: 32 (32)
I0412 14:19:57.800930 20203 net.cpp:129] Top shape: 32 (32)
I0412 14:19:57.800951 20203 net.cpp:137] Memory required for data: 19787520
I0412 14:19:57.800954 20203 layer_factory.hpp:77] Creating layer conv1
I0412 14:19:57.800966 20203 net.cpp:84] Creating Layer conv1
I0412 14:19:57.800969 20203 net.cpp:406] conv1 <- data
I0412 14:19:57.800976 20203 net.cpp:380] conv1 -> conv1
I0412 14:19:57.802868 20203 net.cpp:122] Setting up conv1
I0412 14:19:57.802881 20203 net.cpp:129] Top shape: 32 96 55 55 (9292800)
I0412 14:19:57.802884 20203 net.cpp:137] Memory required for data: 56958720
I0412 14:19:57.802894 20203 layer_factory.hpp:77] Creating layer relu1
I0412 14:19:57.802901 20203 net.cpp:84] Creating Layer relu1
I0412 14:19:57.802906 20203 net.cpp:406] relu1 <- conv1
I0412 14:19:57.802909 20203 net.cpp:367] relu1 -> conv1 (in-place)
I0412 14:19:57.803200 20203 net.cpp:122] Setting up relu1
I0412 14:19:57.803208 20203 net.cpp:129] Top shape: 32 96 55 55 (9292800)
I0412 14:19:57.803211 20203 net.cpp:137] Memory required for data: 94129920
I0412 14:19:57.803215 20203 layer_factory.hpp:77] Creating layer norm1
I0412 14:19:57.803223 20203 net.cpp:84] Creating Layer norm1
I0412 14:19:57.803227 20203 net.cpp:406] norm1 <- conv1
I0412 14:19:57.803232 20203 net.cpp:380] norm1 -> norm1
I0412 14:19:57.806309 20203 net.cpp:122] Setting up norm1
I0412 14:19:57.806321 20203 net.cpp:129] Top shape: 32 96 55 55 (9292800)
I0412 14:19:57.806325 20203 net.cpp:137] Memory required for data: 131301120
I0412 14:19:57.806329 20203 layer_factory.hpp:77] Creating layer pool1
I0412 14:19:57.806336 20203 net.cpp:84] Creating Layer pool1
I0412 14:19:57.806340 20203 net.cpp:406] pool1 <- norm1
I0412 14:19:57.806346 20203 net.cpp:380] pool1 -> pool1
I0412 14:19:57.806376 20203 net.cpp:122] Setting up pool1
I0412 14:19:57.806382 20203 net.cpp:129] Top shape: 32 96 27 27 (2239488)
I0412 14:19:57.806385 20203 net.cpp:137] Memory required for data: 140259072
I0412 14:19:57.806389 20203 layer_factory.hpp:77] Creating layer conv2
I0412 14:19:57.806398 20203 net.cpp:84] Creating Layer conv2
I0412 14:19:57.806401 20203 net.cpp:406] conv2 <- pool1
I0412 14:19:57.806406 20203 net.cpp:380] conv2 -> conv2
I0412 14:19:57.812628 20203 net.cpp:122] Setting up conv2
I0412 14:19:57.812642 20203 net.cpp:129] Top shape: 32 256 27 27 (5971968)
I0412 14:19:57.812646 20203 net.cpp:137] Memory required for data: 164146944
I0412 14:19:57.812656 20203 layer_factory.hpp:77] Creating layer relu2
I0412 14:19:57.812664 20203 net.cpp:84] Creating Layer relu2
I0412 14:19:57.812667 20203 net.cpp:406] relu2 <- conv2
I0412 14:19:57.812674 20203 net.cpp:367] relu2 -> conv2 (in-place)
I0412 14:19:57.813177 20203 net.cpp:122] Setting up relu2
I0412 14:19:57.813186 20203 net.cpp:129] Top shape: 32 256 27 27 (5971968)
I0412 14:19:57.813190 20203 net.cpp:137] Memory required for data: 188034816
I0412 14:19:57.813194 20203 layer_factory.hpp:77] Creating layer norm2
I0412 14:19:57.813205 20203 net.cpp:84] Creating Layer norm2
I0412 14:19:57.813208 20203 net.cpp:406] norm2 <- conv2
I0412 14:19:57.813215 20203 net.cpp:380] norm2 -> norm2
I0412 14:19:57.813580 20203 net.cpp:122] Setting up norm2
I0412 14:19:57.813589 20203 net.cpp:129] Top shape: 32 256 27 27 (5971968)
I0412 14:19:57.813592 20203 net.cpp:137] Memory required for data: 211922688
I0412 14:19:57.813596 20203 layer_factory.hpp:77] Creating layer pool2
I0412 14:19:57.813603 20203 net.cpp:84] Creating Layer pool2
I0412 14:19:57.813607 20203 net.cpp:406] pool2 <- norm2
I0412 14:19:57.813613 20203 net.cpp:380] pool2 -> pool2
I0412 14:19:57.813643 20203 net.cpp:122] Setting up pool2
I0412 14:19:57.813648 20203 net.cpp:129] Top shape: 32 256 13 13 (1384448)
I0412 14:19:57.813652 20203 net.cpp:137] Memory required for data: 217460480
I0412 14:19:57.813655 20203 layer_factory.hpp:77] Creating layer conv3
I0412 14:19:57.813666 20203 net.cpp:84] Creating Layer conv3
I0412 14:19:57.813670 20203 net.cpp:406] conv3 <- pool2
I0412 14:19:57.813675 20203 net.cpp:380] conv3 -> conv3
I0412 14:19:57.829823 20203 net.cpp:122] Setting up conv3
I0412 14:19:57.829846 20203 net.cpp:129] Top shape: 32 384 13 13 (2076672)
I0412 14:19:57.829870 20203 net.cpp:137] Memory required for data: 225767168
I0412 14:19:57.829885 20203 layer_factory.hpp:77] Creating layer relu3
I0412 14:19:57.829896 20203 net.cpp:84] Creating Layer relu3
I0412 14:19:57.829900 20203 net.cpp:406] relu3 <- conv3
I0412 14:19:57.829910 20203 net.cpp:367] relu3 -> conv3 (in-place)
I0412 14:19:57.830451 20203 net.cpp:122] Setting up relu3
I0412 14:19:57.830459 20203 net.cpp:129] Top shape: 32 384 13 13 (2076672)
I0412 14:19:57.830463 20203 net.cpp:137] Memory required for data: 234073856
I0412 14:19:57.830467 20203 layer_factory.hpp:77] Creating layer conv4
I0412 14:19:57.830479 20203 net.cpp:84] Creating Layer conv4
I0412 14:19:57.830483 20203 net.cpp:406] conv4 <- conv3
I0412 14:19:57.830490 20203 net.cpp:380] conv4 -> conv4
I0412 14:19:57.834941 20203 net.cpp:122] Setting up conv4
I0412 14:19:57.834954 20203 net.cpp:129] Top shape: 32 96 13 13 (519168)
I0412 14:19:57.834957 20203 net.cpp:137] Memory required for data: 236150528
I0412 14:19:57.834964 20203 layer_factory.hpp:77] Creating layer relu4
I0412 14:19:57.834971 20203 net.cpp:84] Creating Layer relu4
I0412 14:19:57.834975 20203 net.cpp:406] relu4 <- conv4
I0412 14:19:57.834982 20203 net.cpp:367] relu4 -> conv4 (in-place)
I0412 14:19:57.835481 20203 net.cpp:122] Setting up relu4
I0412 14:19:57.835490 20203 net.cpp:129] Top shape: 32 96 13 13 (519168)
I0412 14:19:57.835494 20203 net.cpp:137] Memory required for data: 238227200
I0412 14:19:57.835498 20203 layer_factory.hpp:77] Creating layer conv4.2
I0412 14:19:57.835508 20203 net.cpp:84] Creating Layer conv4.2
I0412 14:19:57.835512 20203 net.cpp:406] conv4.2 <- conv4
I0412 14:19:57.835520 20203 net.cpp:380] conv4.2 -> conv4.2
I0412 14:19:57.840180 20203 net.cpp:122] Setting up conv4.2
I0412 14:19:57.840196 20203 net.cpp:129] Top shape: 32 96 13 13 (519168)
I0412 14:19:57.840200 20203 net.cpp:137] Memory required for data: 240303872
I0412 14:19:57.840212 20203 layer_factory.hpp:77] Creating layer relu4.2
I0412 14:19:57.840220 20203 net.cpp:84] Creating Layer relu4.2
I0412 14:19:57.840224 20203 net.cpp:406] relu4.2 <- conv4.2
I0412 14:19:57.840230 20203 net.cpp:367] relu4.2 -> conv4.2 (in-place)
I0412 14:19:57.840734 20203 net.cpp:122] Setting up relu4.2
I0412 14:19:57.840744 20203 net.cpp:129] Top shape: 32 96 13 13 (519168)
I0412 14:19:57.840747 20203 net.cpp:137] Memory required for data: 242380544
I0412 14:19:57.840750 20203 layer_factory.hpp:77] Creating layer conv4.3
I0412 14:19:57.840765 20203 net.cpp:84] Creating Layer conv4.3
I0412 14:19:57.840770 20203 net.cpp:406] conv4.3 <- conv4.2
I0412 14:19:57.840775 20203 net.cpp:380] conv4.3 -> conv4.3
I0412 14:19:57.845449 20203 net.cpp:122] Setting up conv4.3
I0412 14:19:57.845466 20203 net.cpp:129] Top shape: 32 96 13 13 (519168)
I0412 14:19:57.845470 20203 net.cpp:137] Memory required for data: 244457216
I0412 14:19:57.845479 20203 layer_factory.hpp:77] Creating layer relu4.3
I0412 14:19:57.845487 20203 net.cpp:84] Creating Layer relu4.3
I0412 14:19:57.845492 20203 net.cpp:406] relu4.3 <- conv4.3
I0412 14:19:57.845499 20203 net.cpp:367] relu4.3 -> conv4.3 (in-place)
I0412 14:19:57.845846 20203 net.cpp:122] Setting up relu4.3
I0412 14:19:57.845856 20203 net.cpp:129] Top shape: 32 96 13 13 (519168)
I0412 14:19:57.845860 20203 net.cpp:137] Memory required for data: 246533888
I0412 14:19:57.845863 20203 layer_factory.hpp:77] Creating layer conv4.4
I0412 14:19:57.845875 20203 net.cpp:84] Creating Layer conv4.4
I0412 14:19:57.845880 20203 net.cpp:406] conv4.4 <- conv4.3
I0412 14:19:57.845886 20203 net.cpp:380] conv4.4 -> conv4.4
I0412 14:19:57.849527 20203 net.cpp:122] Setting up conv4.4
I0412 14:19:57.849540 20203 net.cpp:129] Top shape: 32 96 13 13 (519168)
I0412 14:19:57.849545 20203 net.cpp:137] Memory required for data: 248610560
I0412 14:19:57.849552 20203 layer_factory.hpp:77] Creating layer relu4.4
I0412 14:19:57.849558 20203 net.cpp:84] Creating Layer relu4.4
I0412 14:19:57.849562 20203 net.cpp:406] relu4.4 <- conv4.4
I0412 14:19:57.849568 20203 net.cpp:367] relu4.4 -> conv4.4 (in-place)
I0412 14:19:57.851155 20203 net.cpp:122] Setting up relu4.4
I0412 14:19:57.851184 20203 net.cpp:129] Top shape: 32 96 13 13 (519168)
I0412 14:19:57.851187 20203 net.cpp:137] Memory required for data: 250687232
I0412 14:19:57.851191 20203 layer_factory.hpp:77] Creating layer conv5
I0412 14:19:57.851203 20203 net.cpp:84] Creating Layer conv5
I0412 14:19:57.851207 20203 net.cpp:406] conv5 <- conv4.4
I0412 14:19:57.851214 20203 net.cpp:380] conv5 -> conv5
I0412 14:19:57.855340 20203 net.cpp:122] Setting up conv5
I0412 14:19:57.855350 20203 net.cpp:129] Top shape: 32 256 13 13 (1384448)
I0412 14:19:57.855355 20203 net.cpp:137] Memory required for data: 256225024
I0412 14:19:57.855361 20203 layer_factory.hpp:77] Creating layer relu5
I0412 14:19:57.855370 20203 net.cpp:84] Creating Layer relu5
I0412 14:19:57.855373 20203 net.cpp:406] relu5 <- conv5
I0412 14:19:57.855378 20203 net.cpp:367] relu5 -> conv5 (in-place)
I0412 14:19:57.855880 20203 net.cpp:122] Setting up relu5
I0412 14:19:57.855890 20203 net.cpp:129] Top shape: 32 256 13 13 (1384448)
I0412 14:19:57.855892 20203 net.cpp:137] Memory required for data: 261762816
I0412 14:19:57.855896 20203 layer_factory.hpp:77] Creating layer pool5
I0412 14:19:57.855903 20203 net.cpp:84] Creating Layer pool5
I0412 14:19:57.855907 20203 net.cpp:406] pool5 <- conv5
I0412 14:19:57.855913 20203 net.cpp:380] pool5 -> pool5
I0412 14:19:57.855957 20203 net.cpp:122] Setting up pool5
I0412 14:19:57.855963 20203 net.cpp:129] Top shape: 32 256 6 6 (294912)
I0412 14:19:57.855967 20203 net.cpp:137] Memory required for data: 262942464
I0412 14:19:57.855969 20203 layer_factory.hpp:77] Creating layer fc6
I0412 14:19:57.855976 20203 net.cpp:84] Creating Layer fc6
I0412 14:19:57.855980 20203 net.cpp:406] fc6 <- pool5
I0412 14:19:57.855986 20203 net.cpp:380] fc6 -> fc6
I0412 14:19:58.210417 20203 net.cpp:122] Setting up fc6
I0412 14:19:58.210438 20203 net.cpp:129] Top shape: 32 4096 (131072)
I0412 14:19:58.210443 20203 net.cpp:137] Memory required for data: 263466752
I0412 14:19:58.210458 20203 layer_factory.hpp:77] Creating layer relu6
I0412 14:19:58.210467 20203 net.cpp:84] Creating Layer relu6
I0412 14:19:58.210471 20203 net.cpp:406] relu6 <- fc6
I0412 14:19:58.210479 20203 net.cpp:367] relu6 -> fc6 (in-place)
I0412 14:19:58.210903 20203 net.cpp:122] Setting up relu6
I0412 14:19:58.210912 20203 net.cpp:129] Top shape: 32 4096 (131072)
I0412 14:19:58.210916 20203 net.cpp:137] Memory required for data: 263991040
I0412 14:19:58.210919 20203 layer_factory.hpp:77] Creating layer drop6
I0412 14:19:58.210925 20203 net.cpp:84] Creating Layer drop6
I0412 14:19:58.210929 20203 net.cpp:406] drop6 <- fc6
I0412 14:19:58.210935 20203 net.cpp:367] drop6 -> fc6 (in-place)
I0412 14:19:58.210958 20203 net.cpp:122] Setting up drop6
I0412 14:19:58.210964 20203 net.cpp:129] Top shape: 32 4096 (131072)
I0412 14:19:58.210968 20203 net.cpp:137] Memory required for data: 264515328
I0412 14:19:58.210970 20203 layer_factory.hpp:77] Creating layer fc7
I0412 14:19:58.210978 20203 net.cpp:84] Creating Layer fc7
I0412 14:19:58.210980 20203 net.cpp:406] fc7 <- fc6
I0412 14:19:58.210986 20203 net.cpp:380] fc7 -> fc7
I0412 14:19:58.371541 20203 net.cpp:122] Setting up fc7
I0412 14:19:58.371562 20203 net.cpp:129] Top shape: 32 4096 (131072)
I0412 14:19:58.371567 20203 net.cpp:137] Memory required for data: 265039616
I0412 14:19:58.371577 20203 layer_factory.hpp:77] Creating layer relu7
I0412 14:19:58.371585 20203 net.cpp:84] Creating Layer relu7
I0412 14:19:58.371590 20203 net.cpp:406] relu7 <- fc7
I0412 14:19:58.371598 20203 net.cpp:367] relu7 -> fc7 (in-place)
I0412 14:19:58.372228 20203 net.cpp:122] Setting up relu7
I0412 14:19:58.372238 20203 net.cpp:129] Top shape: 32 4096 (131072)
I0412 14:19:58.372241 20203 net.cpp:137] Memory required for data: 265563904
I0412 14:19:58.372246 20203 layer_factory.hpp:77] Creating layer drop7
I0412 14:19:58.372252 20203 net.cpp:84] Creating Layer drop7
I0412 14:19:58.372256 20203 net.cpp:406] drop7 <- fc7
I0412 14:19:58.372262 20203 net.cpp:367] drop7 -> fc7 (in-place)
I0412 14:19:58.372287 20203 net.cpp:122] Setting up drop7
I0412 14:19:58.372310 20203 net.cpp:129] Top shape: 32 4096 (131072)
I0412 14:19:58.372313 20203 net.cpp:137] Memory required for data: 266088192
I0412 14:19:58.372318 20203 layer_factory.hpp:77] Creating layer fc8
I0412 14:19:58.372325 20203 net.cpp:84] Creating Layer fc8
I0412 14:19:58.372328 20203 net.cpp:406] fc8 <- fc7
I0412 14:19:58.372335 20203 net.cpp:380] fc8 -> fc8
I0412 14:19:58.380040 20203 net.cpp:122] Setting up fc8
I0412 14:19:58.380053 20203 net.cpp:129] Top shape: 32 196 (6272)
I0412 14:19:58.380055 20203 net.cpp:137] Memory required for data: 266113280
I0412 14:19:58.380062 20203 layer_factory.hpp:77] Creating layer fc8_fc8_0_split
I0412 14:19:58.380071 20203 net.cpp:84] Creating Layer fc8_fc8_0_split
I0412 14:19:58.380074 20203 net.cpp:406] fc8_fc8_0_split <- fc8
I0412 14:19:58.380080 20203 net.cpp:380] fc8_fc8_0_split -> fc8_fc8_0_split_0
I0412 14:19:58.380087 20203 net.cpp:380] fc8_fc8_0_split -> fc8_fc8_0_split_1
I0412 14:19:58.380121 20203 net.cpp:122] Setting up fc8_fc8_0_split
I0412 14:19:58.380125 20203 net.cpp:129] Top shape: 32 196 (6272)
I0412 14:19:58.380129 20203 net.cpp:129] Top shape: 32 196 (6272)
I0412 14:19:58.380132 20203 net.cpp:137] Memory required for data: 266163456
I0412 14:19:58.380136 20203 layer_factory.hpp:77] Creating layer accuracy
I0412 14:19:58.380143 20203 net.cpp:84] Creating Layer accuracy
I0412 14:19:58.380146 20203 net.cpp:406] accuracy <- fc8_fc8_0_split_0
I0412 14:19:58.380151 20203 net.cpp:406] accuracy <- label_val-data_1_split_0
I0412 14:19:58.380156 20203 net.cpp:380] accuracy -> accuracy
…
