…
I0407 21:57:11.045280 23786 net.cpp:294] The NetState phase (0) differed from the phase (1) specified by a rule in layer accuracy
I0407 21:57:11.045420 23786 net.cpp:51] Initializing net from parameters:
state {
phase: TRAIN
level: 0
stage: ""
}
layer {
name: "train-data"
type: "Data"
top: "data"
top: "label"
include {
phase: TRAIN
}
transform_param {
mirror: true
crop_size: 227
mean_file: "/mnt/bigdisk/DIGITS-MAN-2/digits/jobs/20210407-214532-d396/mean.binaryproto"
}
data_param {
source: "/mnt/bigdisk/DIGITS-MAN-2/digits/jobs/20210407-214532-d396/train_db"
batch_size: 128
backend: LMDB
}
}
layer {
name: "conv1"
type: "Convolution"
bottom: "data"
top: "conv1"
param {
lr_mult: 1
decay_mult: 1
}
param {
lr_mult: 2
decay_mult: 0
}
convolution_param {
num_output: 96
kernel_size: 11
stride: 4
weight_filler {
type: "gaussian"
std: 0.01
}
bias_filler {
type: "constant"
value: 0
}
}
}
layer {
name: "relu1"
type: "ReLU"
bottom: "conv1"
top: "conv1"
}
layer {
name: "norm1"
type: "LRN"
bottom: "conv1"
top: "norm1"
lrn_param {
local_size: 5
alpha: 0.0001
beta: 0.75
}
}
layer {
name: "pool1"
type: "Pooling"
bottom: "norm1"
top: "pool1"
pooling_param {
pool: MAX
kernel_size: 3
stride: 2
}
}
layer {
name: "conv2"
type: "Convolution"
bottom: "pool1"
top: "conv2"
param {
lr_mult: 1
decay_mult: 1
}
param {
lr_mult: 2
decay_mult: 0
}
convolution_param {
num_output: 256
pad: 2
kernel_size: 5
group: 2
weight_filler {
type: "gaussian"
std: 0.01
}
bias_filler {
type: "constant"
value: 0.1
}
}
}
layer {
name: "relu2"
type: "ReLU"
bottom: "conv2"
top: "conv2"
}
layer {
name: "norm2"
type: "LRN"
bottom: "conv2"
top: "norm2"
lrn_param {
local_size: 5
alpha: 0.0001
beta: 0.75
}
}
layer {
name: "pool2"
type: "Pooling"
bottom: "norm2"
top: "pool2"
pooling_param {
pool: MAX
kernel_size: 3
stride: 2
}
}
layer {
name: "conv3"
type: "Convolution"
bottom: "pool2"
top: "conv3"
param {
lr_mult: 1
decay_mult: 1
}
param {
lr_mult: 2
decay_mult: 0
}
convolution_param {
num_output: 384
pad: 1
kernel_size: 3
weight_filler {
type: "gaussian"
std: 0.01
}
bias_filler {
type: "constant"
value: 0
}
}
}
layer {
name: "relu3"
type: "ReLU"
bottom: "conv3"
top: "conv3"
}
layer {
name: "conv4"
type: "Convolution"
bottom: "conv3"
top: "conv4"
param {
lr_mult: 1
decay_mult: 1
}
param {
lr_mult: 2
decay_mult: 0
}
convolution_param {
num_output: 384
pad: 1
kernel_size: 3
group: 2
weight_filler {
type: "gaussian"
std: 0.01
}
bias_filler {
type: "constant"
value: 0.1
}
}
}
layer {
name: "relu4"
type: "ReLU"
bottom: "conv4"
top: "conv4"
}
layer {
name: "conv5"
type: "Convolution"
bottom: "conv4"
top: "conv5"
param {
lr_mult: 1
decay_mult: 1
}
param {
lr_mult: 2
decay_mult: 0
}
convolution_param {
num_output: 256
pad: 1
kernel_size: 3
group: 2
weight_filler {
type: "gaussian"
std: 0.01
}
bias_filler {
type: "constant"
value: 0.1
}
}
}
layer {
name: "relu5"
type: "ReLU"
bottom: "conv5"
top: "conv5"
}
layer {
name: "pool5"
type: "Pooling"
bottom: "conv5"
top: "pool5"
pooling_param {
pool: MAX
kernel_size: 3
stride: 2
}
}
layer {
name: "fc6"
type: "InnerProduct"
bottom: "pool5"
top: "fc6"
param {
lr_mult: 1
decay_mult: 1
}
param {
lr_mult: 2
decay_mult: 0
}
inner_product_param {
num_output: 4096
weight_filler {
type: "gaussian"
std: 0.005
}
bias_filler {
type: "constant"
value: 0.1
}
}
}
layer {
name: "relu6"
type: "ReLU"
bottom: "fc6"
top: "fc6"
}
layer {
name: "drop6"
type: "Dropout"
bottom: "fc6"
top: "fc6"
dropout_param {
dropout_ratio: 0.5
}
}
layer {
name: "fc7"
type: "InnerProduct"
bottom: "fc6"
top: "fc7"
param {
lr_mult: 1
decay_mult: 1
}
param {
lr_mult: 2
decay_mult: 0
}
inner_product_param {
num_output: 4096
weight_filler {
type: "gaussian"
std: 0.005
}
bias_filler {
type: "constant"
value: 0.1
}
}
}
layer {
name: "relu7"
type: "ReLU"
bottom: "fc7"
top: "fc7"
}
layer {
name: "drop7"
type: "Dropout"
bottom: "fc7"
top: "fc7"
dropout_param {
dropout_ratio: 0.5
}
}
layer {
name: "fc8"
type: "InnerProduct"
bottom: "fc7"
top: "fc8"
param {
lr_mult: 1
decay_mult: 1
}
param {
lr_mult: 2
decay_mult: 0
}
inner_product_param {
num_output: 196
weight_filler {
type: "gaussian"
std: 0.01
}
bias_filler {
type: "constant"
value: 0
}
}
}
layer {
name: "loss"
type: "SoftmaxWithLoss"
bottom: "fc8"
bottom: "label"
top: "loss"
}
I0407 21:57:11.045507 23786 layer_factory.hpp:77] Creating layer train-data
I0407 21:57:11.046988 23786 db_lmdb.cpp:35] Opened lmdb /mnt/bigdisk/DIGITS-MAN-2/digits/jobs/20210407-214532-d396/train_db
I0407 21:57:11.047194 23786 net.cpp:84] Creating Layer train-data
I0407 21:57:11.047204 23786 net.cpp:380] train-data -> data
I0407 21:57:11.047224 23786 net.cpp:380] train-data -> label
I0407 21:57:11.047233 23786 data_transformer.cpp:25] Loading mean file from: /mnt/bigdisk/DIGITS-MAN-2/digits/jobs/20210407-214532-d396/mean.binaryproto
I0407 21:57:11.051882 23786 data_layer.cpp:45] output data size: 128,3,227,227
I0407 21:57:11.172987 23786 net.cpp:122] Setting up train-data
I0407 21:57:11.173010 23786 net.cpp:129] Top shape: 128 3 227 227 (19787136)
I0407 21:57:11.173017 23786 net.cpp:129] Top shape: 128 (128)
I0407 21:57:11.173019 23786 net.cpp:137] Memory required for data: 79149056
I0407 21:57:11.173028 23786 layer_factory.hpp:77] Creating layer conv1
I0407 21:57:11.173050 23786 net.cpp:84] Creating Layer conv1
I0407 21:57:11.173056 23786 net.cpp:406] conv1 <- data
I0407 21:57:11.173069 23786 net.cpp:380] conv1 -> conv1
I0407 21:57:11.735087 23786 net.cpp:122] Setting up conv1
I0407 21:57:11.735110 23786 net.cpp:129] Top shape: 128 96 55 55 (37171200)
I0407 21:57:11.735113 23786 net.cpp:137] Memory required for data: 227833856
I0407 21:57:11.735132 23786 layer_factory.hpp:77] Creating layer relu1
I0407 21:57:11.735143 23786 net.cpp:84] Creating Layer relu1
I0407 21:57:11.735147 23786 net.cpp:406] relu1 <- conv1
I0407 21:57:11.735153 23786 net.cpp:367] relu1 -> conv1 (in-place)
I0407 21:57:11.735436 23786 net.cpp:122] Setting up relu1
I0407 21:57:11.735445 23786 net.cpp:129] Top shape: 128 96 55 55 (37171200)
I0407 21:57:11.735448 23786 net.cpp:137] Memory required for data: 376518656
I0407 21:57:11.735451 23786 layer_factory.hpp:77] Creating layer norm1
I0407 21:57:11.735461 23786 net.cpp:84] Creating Layer norm1
I0407 21:57:11.735464 23786 net.cpp:406] norm1 <- conv1
I0407 21:57:11.735491 23786 net.cpp:380] norm1 -> norm1
I0407 21:57:11.735924 23786 net.cpp:122] Setting up norm1
I0407 21:57:11.735934 23786 net.cpp:129] Top shape: 128 96 55 55 (37171200)
I0407 21:57:11.735939 23786 net.cpp:137] Memory required for data: 525203456
I0407 21:57:11.735941 23786 layer_factory.hpp:77] Creating layer pool1
I0407 21:57:11.735949 23786 net.cpp:84] Creating Layer pool1
I0407 21:57:11.735952 23786 net.cpp:406] pool1 <- norm1
I0407 21:57:11.735957 23786 net.cpp:380] pool1 -> pool1
I0407 21:57:11.735992 23786 net.cpp:122] Setting up pool1
I0407 21:57:11.735999 23786 net.cpp:129] Top shape: 128 96 27 27 (8957952)
I0407 21:57:11.736002 23786 net.cpp:137] Memory required for data: 561035264
I0407 21:57:11.736006 23786 layer_factory.hpp:77] Creating layer conv2
I0407 21:57:11.736016 23786 net.cpp:84] Creating Layer conv2
I0407 21:57:11.736018 23786 net.cpp:406] conv2 <- pool1
I0407 21:57:11.736023 23786 net.cpp:380] conv2 -> conv2
I0407 21:57:11.742552 23786 net.cpp:122] Setting up conv2
I0407 21:57:11.742565 23786 net.cpp:129] Top shape: 128 256 27 27 (23887872)
I0407 21:57:11.742568 23786 net.cpp:137] Memory required for data: 656586752
I0407 21:57:11.742578 23786 layer_factory.hpp:77] Creating layer relu2
I0407 21:57:11.742585 23786 net.cpp:84] Creating Layer relu2
I0407 21:57:11.742588 23786 net.cpp:406] relu2 <- conv2
I0407 21:57:11.742594 23786 net.cpp:367] relu2 -> conv2 (in-place)
I0407 21:57:11.743084 23786 net.cpp:122] Setting up relu2
I0407 21:57:11.743094 23786 net.cpp:129] Top shape: 128 256 27 27 (23887872)
I0407 21:57:11.743098 23786 net.cpp:137] Memory required for data: 752138240
I0407 21:57:11.743101 23786 layer_factory.hpp:77] Creating layer norm2
I0407 21:57:11.743109 23786 net.cpp:84] Creating Layer norm2
I0407 21:57:11.743113 23786 net.cpp:406] norm2 <- conv2
I0407 21:57:11.743119 23786 net.cpp:380] norm2 -> norm2
I0407 21:57:11.743461 23786 net.cpp:122] Setting up norm2
I0407 21:57:11.743469 23786 net.cpp:129] Top shape: 128 256 27 27 (23887872)
I0407 21:57:11.743472 23786 net.cpp:137] Memory required for data: 847689728
I0407 21:57:11.743475 23786 layer_factory.hpp:77] Creating layer pool2
I0407 21:57:11.743484 23786 net.cpp:84] Creating Layer pool2
I0407 21:57:11.743487 23786 net.cpp:406] pool2 <- norm2
I0407 21:57:11.743492 23786 net.cpp:380] pool2 -> pool2
I0407 21:57:11.743521 23786 net.cpp:122] Setting up pool2
I0407 21:57:11.743527 23786 net.cpp:129] Top shape: 128 256 13 13 (5537792)
I0407 21:57:11.743530 23786 net.cpp:137] Memory required for data: 869840896
I0407 21:57:11.743533 23786 layer_factory.hpp:77] Creating layer conv3
I0407 21:57:11.743542 23786 net.cpp:84] Creating Layer conv3
I0407 21:57:11.743546 23786 net.cpp:406] conv3 <- pool2
I0407 21:57:11.743552 23786 net.cpp:380] conv3 -> conv3
I0407 21:57:11.754475 23786 net.cpp:122] Setting up conv3
I0407 21:57:11.754489 23786 net.cpp:129] Top shape: 128 384 13 13 (8306688)
I0407 21:57:11.754493 23786 net.cpp:137] Memory required for data: 903067648
I0407 21:57:11.754503 23786 layer_factory.hpp:77] Creating layer relu3
I0407 21:57:11.754511 23786 net.cpp:84] Creating Layer relu3
I0407 21:57:11.754514 23786 net.cpp:406] relu3 <- conv3
I0407 21:57:11.754521 23786 net.cpp:367] relu3 -> conv3 (in-place)
I0407 21:57:11.754999 23786 net.cpp:122] Setting up relu3
I0407 21:57:11.755009 23786 net.cpp:129] Top shape: 128 384 13 13 (8306688)
I0407 21:57:11.755012 23786 net.cpp:137] Memory required for data: 936294400
I0407 21:57:11.755015 23786 layer_factory.hpp:77] Creating layer conv4
I0407 21:57:11.755026 23786 net.cpp:84] Creating Layer conv4
I0407 21:57:11.755029 23786 net.cpp:406] conv4 <- conv3
I0407 21:57:11.755036 23786 net.cpp:380] conv4 -> conv4
I0407 21:57:11.765352 23786 net.cpp:122] Setting up conv4
I0407 21:57:11.765367 23786 net.cpp:129] Top shape: 128 384 13 13 (8306688)
I0407 21:57:11.765370 23786 net.cpp:137] Memory required for data: 969521152
I0407 21:57:11.765377 23786 layer_factory.hpp:77] Creating layer relu4
I0407 21:57:11.765385 23786 net.cpp:84] Creating Layer relu4
I0407 21:57:11.765406 23786 net.cpp:406] relu4 <- conv4
I0407 21:57:11.765413 23786 net.cpp:367] relu4 -> conv4 (in-place)
I0407 21:57:11.765744 23786 net.cpp:122] Setting up relu4
I0407 21:57:11.765754 23786 net.cpp:129] Top shape: 128 384 13 13 (8306688)
I0407 21:57:11.765758 23786 net.cpp:137] Memory required for data: 1002747904
I0407 21:57:11.765761 23786 layer_factory.hpp:77] Creating layer conv5
I0407 21:57:11.765771 23786 net.cpp:84] Creating Layer conv5
I0407 21:57:11.765775 23786 net.cpp:406] conv5 <- conv4
I0407 21:57:11.765784 23786 net.cpp:380] conv5 -> conv5
I0407 21:57:11.774065 23786 net.cpp:122] Setting up conv5
I0407 21:57:11.774078 23786 net.cpp:129] Top shape: 128 256 13 13 (5537792)
I0407 21:57:11.774082 23786 net.cpp:137] Memory required for data: 1024899072
I0407 21:57:11.774093 23786 layer_factory.hpp:77] Creating layer relu5
I0407 21:57:11.774099 23786 net.cpp:84] Creating Layer relu5
I0407 21:57:11.774103 23786 net.cpp:406] relu5 <- conv5
I0407 21:57:11.774108 23786 net.cpp:367] relu5 -> conv5 (in-place)
I0407 21:57:11.774588 23786 net.cpp:122] Setting up relu5
I0407 21:57:11.774597 23786 net.cpp:129] Top shape: 128 256 13 13 (5537792)
I0407 21:57:11.774600 23786 net.cpp:137] Memory required for data: 1047050240
I0407 21:57:11.774605 23786 layer_factory.hpp:77] Creating layer pool5
I0407 21:57:11.774611 23786 net.cpp:84] Creating Layer pool5
I0407 21:57:11.774614 23786 net.cpp:406] pool5 <- conv5
I0407 21:57:11.774621 23786 net.cpp:380] pool5 -> pool5
I0407 21:57:11.774657 23786 net.cpp:122] Setting up pool5
I0407 21:57:11.774663 23786 net.cpp:129] Top shape: 128 256 6 6 (1179648)
I0407 21:57:11.774667 23786 net.cpp:137] Memory required for data: 1051768832
I0407 21:57:11.774672 23786 layer_factory.hpp:77] Creating layer fc6
I0407 21:57:11.774682 23786 net.cpp:84] Creating Layer fc6
I0407 21:57:11.774685 23786 net.cpp:406] fc6 <- pool5
I0407 21:57:11.774691 23786 net.cpp:380] fc6 -> fc6
I0407 21:57:12.129509 23786 net.cpp:122] Setting up fc6
I0407 21:57:12.129531 23786 net.cpp:129] Top shape: 128 4096 (524288)
I0407 21:57:12.129535 23786 net.cpp:137] Memory required for data: 1053865984
I0407 21:57:12.129544 23786 layer_factory.hpp:77] Creating layer relu6
I0407 21:57:12.129554 23786 net.cpp:84] Creating Layer relu6
I0407 21:57:12.129557 23786 net.cpp:406] relu6 <- fc6
I0407 21:57:12.129565 23786 net.cpp:367] relu6 -> fc6 (in-place)
I0407 21:57:12.130213 23786 net.cpp:122] Setting up relu6
I0407 21:57:12.130223 23786 net.cpp:129] Top shape: 128 4096 (524288)
I0407 21:57:12.130226 23786 net.cpp:137] Memory required for data: 1055963136
I0407 21:57:12.130230 23786 layer_factory.hpp:77] Creating layer drop6
I0407 21:57:12.130237 23786 net.cpp:84] Creating Layer drop6
I0407 21:57:12.130240 23786 net.cpp:406] drop6 <- fc6
I0407 21:57:12.130246 23786 net.cpp:367] drop6 -> fc6 (in-place)
I0407 21:57:12.130273 23786 net.cpp:122] Setting up drop6
I0407 21:57:12.130278 23786 net.cpp:129] Top shape: 128 4096 (524288)
I0407 21:57:12.130281 23786 net.cpp:137] Memory required for data: 1058060288
I0407 21:57:12.130285 23786 layer_factory.hpp:77] Creating layer fc7
I0407 21:57:12.130293 23786 net.cpp:84] Creating Layer fc7
I0407 21:57:12.130296 23786 net.cpp:406] fc7 <- fc6
I0407 21:57:12.130302 23786 net.cpp:380] fc7 -> fc7
I0407 21:57:12.286841 23786 net.cpp:122] Setting up fc7
I0407 21:57:12.286862 23786 net.cpp:129] Top shape: 128 4096 (524288)
I0407 21:57:12.286866 23786 net.cpp:137] Memory required for data: 1060157440
I0407 21:57:12.286875 23786 layer_factory.hpp:77] Creating layer relu7
I0407 21:57:12.286885 23786 net.cpp:84] Creating Layer relu7
I0407 21:57:12.286888 23786 net.cpp:406] relu7 <- fc7
I0407 21:57:12.286897 23786 net.cpp:367] relu7 -> fc7 (in-place)
I0407 21:57:12.287520 23786 net.cpp:122] Setting up relu7
I0407 21:57:12.287529 23786 net.cpp:129] Top shape: 128 4096 (524288)
I0407 21:57:12.287533 23786 net.cpp:137] Memory required for data: 1062254592
I0407 21:57:12.287536 23786 layer_factory.hpp:77] Creating layer drop7
I0407 21:57:12.287544 23786 net.cpp:84] Creating Layer drop7
I0407 21:57:12.287564 23786 net.cpp:406] drop7 <- fc7
I0407 21:57:12.287570 23786 net.cpp:367] drop7 -> fc7 (in-place)
I0407 21:57:12.287597 23786 net.cpp:122] Setting up drop7
I0407 21:57:12.287602 23786 net.cpp:129] Top shape: 128 4096 (524288)
I0407 21:57:12.287606 23786 net.cpp:137] Memory required for data: 1064351744
I0407 21:57:12.287608 23786 layer_factory.hpp:77] Creating layer fc8
I0407 21:57:12.287616 23786 net.cpp:84] Creating Layer fc8
I0407 21:57:12.287618 23786 net.cpp:406] fc8 <- fc7
I0407 21:57:12.287624 23786 net.cpp:380] fc8 -> fc8
I0407 21:57:12.295269 23786 net.cpp:122] Setting up fc8
I0407 21:57:12.295279 23786 net.cpp:129] Top shape: 128 196 (25088)
I0407 21:57:12.295282 23786 net.cpp:137] Memory required for data: 1064452096
I0407 21:57:12.295290 23786 layer_factory.hpp:77] Creating layer loss
I0407 21:57:12.295296 23786 net.cpp:84] Creating Layer loss
I0407 21:57:12.295300 23786 net.cpp:406] loss <- fc8
I0407 21:57:12.295305 23786 net.cpp:406] loss <- label
I0407 21:57:12.295312 23786 net.cpp:380] loss -> loss
I0407 21:57:12.295321 23786 layer_factory.hpp:77] Creating layer loss
…
I0407 21:57:12.298612 23786 net.cpp:294] The NetState phase (1) differed from the phase (0) specified by a rule in layer train-data
I0407 21:57:12.298751 23786 net.cpp:51] Initializing net from parameters:
state {
phase: TEST
}
layer {
name: "val-data"
type: "Data"
top: "data"
top: "label"
include {
phase: TEST
}
transform_param {
crop_size: 227
mean_file: "/mnt/bigdisk/DIGITS-MAN-2/digits/jobs/20210407-214532-d396/mean.binaryproto"
}
data_param {
source: "/mnt/bigdisk/DIGITS-MAN-2/digits/jobs/20210407-214532-d396/val_db"
batch_size: 32
backend: LMDB
}
}
layer {
name: "conv1"
type: "Convolution"
bottom: "data"
top: "conv1"
param {
lr_mult: 1
decay_mult: 1
}
param {
lr_mult: 2
decay_mult: 0
}
convolution_param {
num_output: 96
kernel_size: 11
stride: 4
weight_filler {
type: "gaussian"
std: 0.01
}
bias_filler {
type: "constant"
value: 0
}
}
}
layer {
name: "relu1"
type: "ReLU"
bottom: "conv1"
top: "conv1"
}
layer {
name: "norm1"
type: "LRN"
bottom: "conv1"
top: "norm1"
lrn_param {
local_size: 5
alpha: 0.0001
beta: 0.75
}
}
layer {
name: "pool1"
type: "Pooling"
bottom: "norm1"
top: "pool1"
pooling_param {
pool: MAX
kernel_size: 3
stride: 2
}
}
layer {
name: "conv2"
type: "Convolution"
bottom: "pool1"
top: "conv2"
param {
lr_mult: 1
decay_mult: 1
}
param {
lr_mult: 2
decay_mult: 0
}
convolution_param {
num_output: 256
pad: 2
kernel_size: 5
group: 2
weight_filler {
type: "gaussian"
std: 0.01
}
bias_filler {
type: "constant"
value: 0.1
}
}
}
layer {
name: "relu2"
type: "ReLU"
bottom: "conv2"
top: "conv2"
}
layer {
name: "norm2"
type: "LRN"
bottom: "conv2"
top: "norm2"
lrn_param {
local_size: 5
alpha: 0.0001
beta: 0.75
}
}
layer {
name: "pool2"
type: "Pooling"
bottom: "norm2"
top: "pool2"
pooling_param {
pool: MAX
kernel_size: 3
stride: 2
}
}
layer {
name: "conv3"
type: "Convolution"
bottom: "pool2"
top: "conv3"
param {
lr_mult: 1
decay_mult: 1
}
param {
lr_mult: 2
decay_mult: 0
}
convolution_param {
num_output: 384
pad: 1
kernel_size: 3
weight_filler {
type: "gaussian"
std: 0.01
}
bias_filler {
type: "constant"
value: 0
}
}
}
layer {
name: "relu3"
type: "ReLU"
bottom: "conv3"
top: "conv3"
}
layer {
name: "conv4"
type: "Convolution"
bottom: "conv3"
top: "conv4"
param {
lr_mult: 1
decay_mult: 1
}
param {
lr_mult: 2
decay_mult: 0
}
convolution_param {
num_output: 384
pad: 1
kernel_size: 3
group: 2
weight_filler {
type: "gaussian"
std: 0.01
}
bias_filler {
type: "constant"
value: 0.1
}
}
}
layer {
name: "relu4"
type: "ReLU"
bottom: "conv4"
top: "conv4"
}
layer {
name: "conv5"
type: "Convolution"
bottom: "conv4"
top: "conv5"
param {
lr_mult: 1
decay_mult: 1
}
param {
lr_mult: 2
decay_mult: 0
}
convolution_param {
num_output: 256
pad: 1
kernel_size: 3
group: 2
weight_filler {
type: "gaussian"
std: 0.01
}
bias_filler {
type: "constant"
value: 0.1
}
}
}
layer {
name: "relu5"
type: "ReLU"
bottom: "conv5"
top: "conv5"
}
layer {
name: "pool5"
type: "Pooling"
bottom: "conv5"
top: "pool5"
pooling_param {
pool: MAX
kernel_size: 3
stride: 2
}
}
layer {
name: "fc6"
type: "InnerProduct"
bottom: "pool5"
top: "fc6"
param {
lr_mult: 1
decay_mult: 1
}
param {
lr_mult: 2
decay_mult: 0
}
inner_product_param {
num_output: 4096
weight_filler {
type: "gaussian"
std: 0.005
}
bias_filler {
type: "constant"
value: 0.1
}
}
}
layer {
name: "relu6"
type: "ReLU"
bottom: "fc6"
top: "fc6"
}
layer {
name: "drop6"
type: "Dropout"
bottom: "fc6"
top: "fc6"
dropout_param {
dropout_ratio: 0.5
}
}
layer {
name: "fc7"
type: "InnerProduct"
bottom: "fc6"
top: "fc7"
param {
lr_mult: 1
decay_mult: 1
}
param {
lr_mult: 2
decay_mult: 0
}
inner_product_param {
num_output: 4096
weight_filler {
type: "gaussian"
std: 0.005
}
bias_filler {
type: "constant"
value: 0.1
}
}
}
layer {
name: "relu7"
type: "ReLU"
bottom: "fc7"
top: "fc7"
}
layer {
name: "drop7"
type: "Dropout"
bottom: "fc7"
top: "fc7"
dropout_param {
dropout_ratio: 0.5
}
}
layer {
name: "fc8"
type: "InnerProduct"
bottom: "fc7"
top: "fc8"
param {
lr_mult: 1
decay_mult: 1
}
param {
lr_mult: 2
decay_mult: 0
}
inner_product_param {
num_output: 196
weight_filler {
type: "gaussian"
std: 0.01
}
bias_filler {
type: "constant"
value: 0
}
}
}
layer {
name: "accuracy"
type: "Accuracy"
bottom: "fc8"
bottom: "label"
top: "accuracy"
include {
phase: TEST
}
}
layer {
name: "loss"
type: "SoftmaxWithLoss"
bottom: "fc8"
bottom: "label"
top: "loss"
}
I0407 21:57:12.298852 23786 layer_factory.hpp:77] Creating layer val-data
I0407 21:57:12.300251 23786 db_lmdb.cpp:35] Opened lmdb /mnt/bigdisk/DIGITS-MAN-2/digits/jobs/20210407-214532-d396/val_db
I0407 21:57:12.300458 23786 net.cpp:84] Creating Layer val-data
I0407 21:57:12.300467 23786 net.cpp:380] val-data -> data
I0407 21:57:12.300474 23786 net.cpp:380] val-data -> label
I0407 21:57:12.300482 23786 data_transformer.cpp:25] Loading mean file from: /mnt/bigdisk/DIGITS-MAN-2/digits/jobs/20210407-214532-d396/mean.binaryproto
I0407 21:57:12.304298 23786 data_layer.cpp:45] output data size: 32,3,227,227
I0407 21:57:12.342031 23786 net.cpp:122] Setting up val-data
I0407 21:57:12.342051 23786 net.cpp:129] Top shape: 32 3 227 227 (4946784)
I0407 21:57:12.342056 23786 net.cpp:129] Top shape: 32 (32)
I0407 21:57:12.342059 23786 net.cpp:137] Memory required for data: 19787264
I0407 21:57:12.342065 23786 layer_factory.hpp:77] Creating layer label_val-data_1_split
I0407 21:57:12.342077 23786 net.cpp:84] Creating Layer label_val-data_1_split
I0407 21:57:12.342082 23786 net.cpp:406] label_val-data_1_split <- label
I0407 21:57:12.342088 23786 net.cpp:380] label_val-data_1_split -> label_val-data_1_split_0
I0407 21:57:12.342097 23786 net.cpp:380] label_val-data_1_split -> label_val-data_1_split_1
I0407 21:57:12.342151 23786 net.cpp:122] Setting up label_val-data_1_split
I0407 21:57:12.342157 23786 net.cpp:129] Top shape: 32 (32)
I0407 21:57:12.342160 23786 net.cpp:129] Top shape: 32 (32)
I0407 21:57:12.342164 23786 net.cpp:137] Memory required for data: 19787520
I0407 21:57:12.342167 23786 layer_factory.hpp:77] Creating layer conv1
I0407 21:57:12.342178 23786 net.cpp:84] Creating Layer conv1
I0407 21:57:12.342183 23786 net.cpp:406] conv1 <- data
I0407 21:57:12.342188 23786 net.cpp:380] conv1 -> conv1
I0407 21:57:12.351552 23786 net.cpp:122] Setting up conv1
I0407 21:57:12.351564 23786 net.cpp:129] Top shape: 32 96 55 55 (9292800)
I0407 21:57:12.351567 23786 net.cpp:137] Memory required for data: 56958720
I0407 21:57:12.351578 23786 layer_factory.hpp:77] Creating layer relu1
I0407 21:57:12.351585 23786 net.cpp:84] Creating Layer relu1
I0407 21:57:12.351588 23786 net.cpp:406] relu1 <- conv1
I0407 21:57:12.351593 23786 net.cpp:367] relu1 -> conv1 (in-place)
I0407 21:57:12.351884 23786 net.cpp:122] Setting up relu1
I0407 21:57:12.351892 23786 net.cpp:129] Top shape: 32 96 55 55 (9292800)
I0407 21:57:12.351895 23786 net.cpp:137] Memory required for data: 94129920
I0407 21:57:12.351899 23786 layer_factory.hpp:77] Creating layer norm1
I0407 21:57:12.351907 23786 net.cpp:84] Creating Layer norm1
I0407 21:57:12.351910 23786 net.cpp:406] norm1 <- conv1
I0407 21:57:12.351917 23786 net.cpp:380] norm1 -> norm1
I0407 21:57:12.354193 23786 net.cpp:122] Setting up norm1
I0407 21:57:12.354203 23786 net.cpp:129] Top shape: 32 96 55 55 (9292800)
I0407 21:57:12.354207 23786 net.cpp:137] Memory required for data: 131301120
I0407 21:57:12.354210 23786 layer_factory.hpp:77] Creating layer pool1
I0407 21:57:12.354218 23786 net.cpp:84] Creating Layer pool1
I0407 21:57:12.354220 23786 net.cpp:406] pool1 <- norm1
I0407 21:57:12.354225 23786 net.cpp:380] pool1 -> pool1
I0407 21:57:12.354254 23786 net.cpp:122] Setting up pool1
I0407 21:57:12.354259 23786 net.cpp:129] Top shape: 32 96 27 27 (2239488)
I0407 21:57:12.354261 23786 net.cpp:137] Memory required for data: 140259072
I0407 21:57:12.354264 23786 layer_factory.hpp:77] Creating layer conv2
I0407 21:57:12.354272 23786 net.cpp:84] Creating Layer conv2
I0407 21:57:12.354276 23786 net.cpp:406] conv2 <- pool1
I0407 21:57:12.354300 23786 net.cpp:380] conv2 -> conv2
I0407 21:57:12.361344 23786 net.cpp:122] Setting up conv2
I0407 21:57:12.361358 23786 net.cpp:129] Top shape: 32 256 27 27 (5971968)
I0407 21:57:12.361362 23786 net.cpp:137] Memory required for data: 164146944
I0407 21:57:12.361372 23786 layer_factory.hpp:77] Creating layer relu2
I0407 21:57:12.361382 23786 net.cpp:84] Creating Layer relu2
I0407 21:57:12.361384 23786 net.cpp:406] relu2 <- conv2
I0407 21:57:12.361390 23786 net.cpp:367] relu2 -> conv2 (in-place)
I0407 21:57:12.361881 23786 net.cpp:122] Setting up relu2
I0407 21:57:12.361891 23786 net.cpp:129] Top shape: 32 256 27 27 (5971968)
I0407 21:57:12.361894 23786 net.cpp:137] Memory required for data: 188034816
I0407 21:57:12.361898 23786 layer_factory.hpp:77] Creating layer norm2
I0407 21:57:12.361907 23786 net.cpp:84] Creating Layer norm2
I0407 21:57:12.361912 23786 net.cpp:406] norm2 <- conv2
I0407 21:57:12.361917 23786 net.cpp:380] norm2 -> norm2
I0407 21:57:12.362430 23786 net.cpp:122] Setting up norm2
I0407 21:57:12.362440 23786 net.cpp:129] Top shape: 32 256 27 27 (5971968)
I0407 21:57:12.362443 23786 net.cpp:137] Memory required for data: 211922688
I0407 21:57:12.362447 23786 layer_factory.hpp:77] Creating layer pool2
I0407 21:57:12.362454 23786 net.cpp:84] Creating Layer pool2
I0407 21:57:12.362458 23786 net.cpp:406] pool2 <- norm2
I0407 21:57:12.362463 23786 net.cpp:380] pool2 -> pool2
I0407 21:57:12.362494 23786 net.cpp:122] Setting up pool2
I0407 21:57:12.362499 23786 net.cpp:129] Top shape: 32 256 13 13 (1384448)
I0407 21:57:12.362502 23786 net.cpp:137] Memory required for data: 217460480
I0407 21:57:12.362505 23786 layer_factory.hpp:77] Creating layer conv3
I0407 21:57:12.362515 23786 net.cpp:84] Creating Layer conv3
I0407 21:57:12.362519 23786 net.cpp:406] conv3 <- pool2
I0407 21:57:12.362524 23786 net.cpp:380] conv3 -> conv3
I0407 21:57:12.375360 23786 net.cpp:122] Setting up conv3
I0407 21:57:12.375380 23786 net.cpp:129] Top shape: 32 384 13 13 (2076672)
I0407 21:57:12.375382 23786 net.cpp:137] Memory required for data: 225767168
I0407 21:57:12.375396 23786 layer_factory.hpp:77] Creating layer relu3
I0407 21:57:12.375403 23786 net.cpp:84] Creating Layer relu3
I0407 21:57:12.375407 23786 net.cpp:406] relu3 <- conv3
I0407 21:57:12.375416 23786 net.cpp:367] relu3 -> conv3 (in-place)
I0407 21:57:12.375917 23786 net.cpp:122] Setting up relu3
I0407 21:57:12.375927 23786 net.cpp:129] Top shape: 32 384 13 13 (2076672)
I0407 21:57:12.375931 23786 net.cpp:137] Memory required for data: 234073856
I0407 21:57:12.375934 23786 layer_factory.hpp:77] Creating layer conv4
I0407 21:57:12.375946 23786 net.cpp:84] Creating Layer conv4
I0407 21:57:12.375950 23786 net.cpp:406] conv4 <- conv3
I0407 21:57:12.375957 23786 net.cpp:380] conv4 -> conv4
I0407 21:57:12.385342 23786 net.cpp:122] Setting up conv4
I0407 21:57:12.385355 23786 net.cpp:129] Top shape: 32 384 13 13 (2076672)
I0407 21:57:12.385358 23786 net.cpp:137] Memory required for data: 242380544
I0407 21:57:12.385366 23786 layer_factory.hpp:77] Creating layer relu4
I0407 21:57:12.385377 23786 net.cpp:84] Creating Layer relu4
I0407 21:57:12.385381 23786 net.cpp:406] relu4 <- conv4
I0407 21:57:12.385386 23786 net.cpp:367] relu4 -> conv4 (in-place)
I0407 21:57:12.385726 23786 net.cpp:122] Setting up relu4
I0407 21:57:12.385733 23786 net.cpp:129] Top shape: 32 384 13 13 (2076672)
I0407 21:57:12.385737 23786 net.cpp:137] Memory required for data: 250687232
I0407 21:57:12.385740 23786 layer_factory.hpp:77] Creating layer conv5
I0407 21:57:12.385751 23786 net.cpp:84] Creating Layer conv5
I0407 21:57:12.385754 23786 net.cpp:406] conv5 <- conv4
I0407 21:57:12.385761 23786 net.cpp:380] conv5 -> conv5
I0407 21:57:12.395800 23786 net.cpp:122] Setting up conv5
I0407 21:57:12.395818 23786 net.cpp:129] Top shape: 32 256 13 13 (1384448)
I0407 21:57:12.395821 23786 net.cpp:137] Memory required for data: 256225024
I0407 21:57:12.395834 23786 layer_factory.hpp:77] Creating layer relu5
I0407 21:57:12.395843 23786 net.cpp:84] Creating Layer relu5
I0407 21:57:12.395846 23786 net.cpp:406] relu5 <- conv5
I0407 21:57:12.395869 23786 net.cpp:367] relu5 -> conv5 (in-place)
I0407 21:57:12.396355 23786 net.cpp:122] Setting up relu5
I0407 21:57:12.396366 23786 net.cpp:129] Top shape: 32 256 13 13 (1384448)
I0407 21:57:12.396369 23786 net.cpp:137] Memory required for data: 261762816
I0407 21:57:12.396373 23786 layer_factory.hpp:77] Creating layer pool5
I0407 21:57:12.396382 23786 net.cpp:84] Creating Layer pool5
I0407 21:57:12.396386 23786 net.cpp:406] pool5 <- conv5
I0407 21:57:12.396391 23786 net.cpp:380] pool5 -> pool5
I0407 21:57:12.396430 23786 net.cpp:122] Setting up pool5
I0407 21:57:12.396436 23786 net.cpp:129] Top shape: 32 256 6 6 (294912)
I0407 21:57:12.396440 23786 net.cpp:137] Memory required for data: 262942464
I0407 21:57:12.396442 23786 layer_factory.hpp:77] Creating layer fc6
I0407 21:57:12.396450 23786 net.cpp:84] Creating Layer fc6
I0407 21:57:12.396452 23786 net.cpp:406] fc6 <- pool5
I0407 21:57:12.396458 23786 net.cpp:380] fc6 -> fc6
I0407 21:57:12.749406 23786 net.cpp:122] Setting up fc6
I0407 21:57:12.749428 23786 net.cpp:129] Top shape: 32 4096 (131072)
I0407 21:57:12.749431 23786 net.cpp:137] Memory required for data: 263466752
I0407 21:57:12.749440 23786 layer_factory.hpp:77] Creating layer relu6
I0407 21:57:12.749449 23786 net.cpp:84] Creating Layer relu6
I0407 21:57:12.749452 23786 net.cpp:406] relu6 <- fc6
I0407 21:57:12.749459 23786 net.cpp:367] relu6 -> fc6 (in-place)
I0407 21:57:12.750288 23786 net.cpp:122] Setting up relu6
I0407 21:57:12.750299 23786 net.cpp:129] Top shape: 32 4096 (131072)
I0407 21:57:12.750306 23786 net.cpp:137] Memory required for data: 263991040
I0407 21:57:12.750310 23786 layer_factory.hpp:77] Creating layer drop6
I0407 21:57:12.750317 23786 net.cpp:84] Creating Layer drop6
I0407 21:57:12.750321 23786 net.cpp:406] drop6 <- fc6
I0407 21:57:12.750326 23786 net.cpp:367] drop6 -> fc6 (in-place)
I0407 21:57:12.750353 23786 net.cpp:122] Setting up drop6
I0407 21:57:12.750360 23786 net.cpp:129] Top shape: 32 4096 (131072)
I0407 21:57:12.750362 23786 net.cpp:137] Memory required for data: 264515328
I0407 21:57:12.750365 23786 layer_factory.hpp:77] Creating layer fc7
I0407 21:57:12.750373 23786 net.cpp:84] Creating Layer fc7
I0407 21:57:12.750376 23786 net.cpp:406] fc7 <- fc6
I0407 21:57:12.750381 23786 net.cpp:380] fc7 -> fc7
I0407 21:57:12.906975 23786 net.cpp:122] Setting up fc7
I0407 21:57:12.906996 23786 net.cpp:129] Top shape: 32 4096 (131072)
I0407 21:57:12.907001 23786 net.cpp:137] Memory required for data: 265039616
I0407 21:57:12.907011 23786 layer_factory.hpp:77] Creating layer relu7
I0407 21:57:12.907021 23786 net.cpp:84] Creating Layer relu7
I0407 21:57:12.907025 23786 net.cpp:406] relu7 <- fc7
I0407 21:57:12.907032 23786 net.cpp:367] relu7 -> fc7 (in-place)
I0407 21:57:12.907456 23786 net.cpp:122] Setting up relu7
I0407 21:57:12.907464 23786 net.cpp:129] Top shape: 32 4096 (131072)
I0407 21:57:12.907467 23786 net.cpp:137] Memory required for data: 265563904
I0407 21:57:12.907471 23786 layer_factory.hpp:77] Creating layer drop7
I0407 21:57:12.907478 23786 net.cpp:84] Creating Layer drop7
I0407 21:57:12.907481 23786 net.cpp:406] drop7 <- fc7
I0407 21:57:12.907486 23786 net.cpp:367] drop7 -> fc7 (in-place)
I0407 21:57:12.907510 23786 net.cpp:122] Setting up drop7
I0407 21:57:12.907516 23786 net.cpp:129] Top shape: 32 4096 (131072)
I0407 21:57:12.907518 23786 net.cpp:137] Memory required for data: 266088192
I0407 21:57:12.907521 23786 layer_factory.hpp:77] Creating layer fc8
I0407 21:57:12.907527 23786 net.cpp:84] Creating Layer fc8
I0407 21:57:12.907532 23786 net.cpp:406] fc8 <- fc7
I0407 21:57:12.907537 23786 net.cpp:380] fc8 -> fc8
I0407 21:57:12.915232 23786 net.cpp:122] Setting up fc8
I0407 21:57:12.915243 23786 net.cpp:129] Top shape: 32 196 (6272)
I0407 21:57:12.915246 23786 net.cpp:137] Memory required for data: 266113280
I0407 21:57:12.915252 23786 layer_factory.hpp:77] Creating layer fc8_fc8_0_split
I0407 21:57:12.915261 23786 net.cpp:84] Creating Layer fc8_fc8_0_split
I0407 21:57:12.915264 23786 net.cpp:406] fc8_fc8_0_split <- fc8
I0407 21:57:12.915287 23786 net.cpp:380] fc8_fc8_0_split -> fc8_fc8_0_split_0
I0407 21:57:12.915293 23786 net.cpp:380] fc8_fc8_0_split -> fc8_fc8_0_split_1
I0407 21:57:12.915326 23786 net.cpp:122] Setting up fc8_fc8_0_split
I0407 21:57:12.915331 23786 net.cpp:129] Top shape: 32 196 (6272)
I0407 21:57:12.915334 23786 net.cpp:129] Top shape: 32 196 (6272)
I0407 21:57:12.915338 23786 net.cpp:137] Memory required for data: 266163456
I0407 21:57:12.915340 23786 layer_factory.hpp:77] Creating layer accuracy
I0407 21:57:12.915347 23786 net.cpp:84] Creating Layer accuracy
I0407 21:57:12.915350 23786 net.cpp:406] accuracy <- fc8_fc8_0_split_0
I0407 21:57:12.915354 23786 net.cpp:406] accuracy <- label_val-data_1_split_0
I0407 21:57:12.915360 23786 net.cpp:380] accuracy -> accuracy
…
