…
I0428 13:45:18.231833  7476 net.cpp:294] The NetState phase (0) differed from the phase (1) specified by a rule in layer accuracy
I0428 13:45:18.231977  7476 net.cpp:51] Initializing net from parameters:
state {
phase: TRAIN
level: 0
stage: ""
}
layer {
name: "train-data"
type: "Data"
top: "data"
top: "label"
include {
phase: TRAIN
}
transform_param {
mirror: true
crop_size: 227
mean_file: "/mnt/bigdisk/DIGITS-MAN-3/digits/jobs/20210421-230320-902c/mean.binaryproto"
}
data_param {
source: "/mnt/bigdisk/DIGITS-MAN-3/digits/jobs/20210421-230320-902c/train_db"
batch_size: 128
backend: LMDB
}
}
layer {
name: "conv1"
type: "Convolution"
bottom: "data"
top: "conv1"
param {
lr_mult: 1
decay_mult: 1
}
param {
lr_mult: 2
decay_mult: 0
}
convolution_param {
num_output: 96
kernel_size: 11
stride: 4
weight_filler {
type: "gaussian"
std: 0.01
}
bias_filler {
type: "constant"
value: 0
}
}
}
layer {
name: "relu1"
type: "ReLU"
bottom: "conv1"
top: "conv1"
}
layer {
name: "norm1"
type: "LRN"
bottom: "conv1"
top: "norm1"
lrn_param {
local_size: 5
alpha: 0.0001
beta: 0.75
}
}
layer {
name: "pool1"
type: "Pooling"
bottom: "norm1"
top: "pool1"
pooling_param {
pool: MAX
kernel_size: 3
stride: 2
}
}
layer {
name: "conv1.5"
type: "Convolution"
bottom: "pool1"
top: "conv1.5"
param {
lr_mult: 1
decay_mult: 1
}
param {
lr_mult: 2
decay_mult: 0
}
convolution_param {
num_output: 176
kernel_size: 9
stride: 1
weight_filler {
type: "gaussian"
std: 0.01
}
bias_filler {
type: "constant"
value: 0
}
}
}
layer {
name: "relu1.5"
type: "ReLU"
bottom: "conv1.5"
top: "conv1.5"
}
layer {
name: "norm1.5"
type: "LRN"
bottom: "conv1.5"
top: "norm1.5"
lrn_param {
local_size: 5
alpha: 0.0001
beta: 0.75
}
}
layer {
name: "pool1.5"
type: "Pooling"
bottom: "norm1.5"
top: "pool1.5"
pooling_param {
pool: MAX
kernel_size: 3
stride: 2
}
}
layer {
name: "conv2"
type: "Convolution"
bottom: "pool1.5"
top: "conv2"
param {
lr_mult: 1
decay_mult: 1
}
param {
lr_mult: 2
decay_mult: 0
}
convolution_param {
num_output: 256
pad: 2
kernel_size: 5
group: 2
weight_filler {
type: "gaussian"
std: 0.01
}
bias_filler {
type: "constant"
value: 0.1
}
}
}
layer {
name: "relu2"
type: "ReLU"
bottom: "conv2"
top: "conv2"
}
layer {
name: "norm2"
type: "LRN"
bottom: "conv2"
top: "norm2"
lrn_param {
local_size: 5
alpha: 0.0001
beta: 0.75
}
}
layer {
name: "pool2"
type: "Pooling"
bottom: "norm2"
top: "pool2"
pooling_param {
pool: MAX
kernel_size: 3
stride: 2
}
}
layer {
name: "conv3"
type: "Convolution"
bottom: "pool2"
top: "conv3"
param {
lr_mult: 1
decay_mult: 1
}
param {
lr_mult: 2
decay_mult: 0
}
convolution_param {
num_output: 384
pad: 1
kernel_size: 3
weight_filler {
type: "gaussian"
std: 0.01
}
bias_filler {
type: "constant"
value: 0
}
}
}
layer {
name: "relu3"
type: "ReLU"
bottom: "conv3"
top: "conv3"
}
layer {
name: "conv4"
type: "Convolution"
bottom: "conv3"
top: "conv4"
param {
lr_mult: 1
decay_mult: 1
}
param {
lr_mult: 2
decay_mult: 0
}
convolution_param {
num_output: 384
pad: 1
kernel_size: 3
group: 2
weight_filler {
type: "gaussian"
std: 0.01
}
bias_filler {
type: "constant"
value: 0.1
}
}
}
layer {
name: "relu4"
type: "ReLU"
bottom: "conv4"
top: "conv4"
}
layer {
name: "conv5"
type: "Convolution"
bottom: "conv4"
top: "conv5"
param {
lr_mult: 1
decay_mult: 1
}
param {
lr_mult: 2
decay_mult: 0
}
convolution_param {
num_output: 256
pad: 1
kernel_size: 3
group: 2
weight_filler {
type: "gaussian"
std: 0.01
}
bias_filler {
type: "constant"
value: 0.1
}
}
}
layer {
name: "relu5"
type: "ReLU"
bottom: "conv5"
top: "conv5"
}
layer {
name: "pool5"
type: "Pooling"
bottom: "conv5"
top: "pool5"
pooling_param {
pool: MAX
kernel_size: 3
stride: 2
}
}
layer {
name: "fc6"
type: "InnerProduct"
bottom: "pool5"
top: "fc6"
param {
lr_mult: 1
decay_mult: 1
}
param {
lr_mult: 2
decay_mult: 0
}
inner_product_param {
num_output: 4096
weight_filler {
type: "gaussian"
std: 0.005
}
bias_filler {
type: "constant"
value: 0.1
}
}
}
layer {
name: "relu6"
type: "ReLU"
bottom: "fc6"
top: "fc6"
}
layer {
name: "drop6"
type: "Dropout"
bottom: "fc6"
top: "fc6"
dropout_param {
dropout_ratio: 0.5
}
}
layer {
name: "fc7"
type: "InnerProduct"
bottom: "fc6"
top: "fc7"
param {
lr_mult: 1
decay_mult: 1
}
param {
lr_mult: 2
decay_mult: 0
}
inner_product_param {
num_output: 4096
weight_filler {
type: "gaussian"
std: 0.005
}
bias_filler {
type: "constant"
value: 0.1
}
}
}
layer {
name: "relu7"
type: "ReLU"
bottom: "fc7"
top: "fc7"
}
layer {
name: "drop7"
type: "Dropout"
bottom: "fc7"
top: "fc7"
dropout_param {
dropout_ratio: 0.5
}
}
layer {
name: "fc8"
type: "InnerProduct"
bottom: "fc7"
top: "fc8"
param {
lr_mult: 1
decay_mult: 1
}
param {
lr_mult: 2
decay_mult: 0
}
inner_product_param {
num_output: 196
weight_filler {
type: "gaussian"
std: 0.01
}
bias_filler {
type: "constant"
value: 0
}
}
}
layer {
name: "loss"
type: "SoftmaxWithLoss"
bottom: "fc8"
bottom: "label"
top: "loss"
}
I0428 13:45:18.232069  7476 layer_factory.hpp:77] Creating layer train-data
I0428 13:45:18.234679  7476 db_lmdb.cpp:35] Opened lmdb /mnt/bigdisk/DIGITS-MAN-3/digits/jobs/20210421-230320-902c/train_db
I0428 13:45:18.235126  7476 net.cpp:84] Creating Layer train-data
I0428 13:45:18.235137  7476 net.cpp:380] train-data -> data
I0428 13:45:18.235157  7476 net.cpp:380] train-data -> label
I0428 13:45:18.235167  7476 data_transformer.cpp:25] Loading mean file from: /mnt/bigdisk/DIGITS-MAN-3/digits/jobs/20210421-230320-902c/mean.binaryproto
I0428 13:45:18.240533  7476 data_layer.cpp:45] output data size: 128,3,227,227
I0428 13:45:18.472137  7476 net.cpp:122] Setting up train-data
I0428 13:45:18.472162  7476 net.cpp:129] Top shape: 128 3 227 227 (19787136)
I0428 13:45:18.472167  7476 net.cpp:129] Top shape: 128 (128)
I0428 13:45:18.472172  7476 net.cpp:137] Memory required for data: 79149056
I0428 13:45:18.472182  7476 layer_factory.hpp:77] Creating layer conv1
I0428 13:45:18.472203  7476 net.cpp:84] Creating Layer conv1
I0428 13:45:18.472209  7476 net.cpp:406] conv1 <- data
I0428 13:45:18.472223  7476 net.cpp:380] conv1 -> conv1
I0428 13:45:19.453624  7476 net.cpp:122] Setting up conv1
I0428 13:45:19.453672  7476 net.cpp:129] Top shape: 128 96 55 55 (37171200)
I0428 13:45:19.453678  7476 net.cpp:137] Memory required for data: 227833856
I0428 13:45:19.453699  7476 layer_factory.hpp:77] Creating layer relu1
I0428 13:45:19.453711  7476 net.cpp:84] Creating Layer relu1
I0428 13:45:19.453716  7476 net.cpp:406] relu1 <- conv1
I0428 13:45:19.453723  7476 net.cpp:367] relu1 -> conv1 (in-place)
I0428 13:45:19.454077  7476 net.cpp:122] Setting up relu1
I0428 13:45:19.454087  7476 net.cpp:129] Top shape: 128 96 55 55 (37171200)
I0428 13:45:19.454092  7476 net.cpp:137] Memory required for data: 376518656
I0428 13:45:19.454095  7476 layer_factory.hpp:77] Creating layer norm1
I0428 13:45:19.454106  7476 net.cpp:84] Creating Layer norm1
I0428 13:45:19.454111  7476 net.cpp:406] norm1 <- conv1
I0428 13:45:19.454116  7476 net.cpp:380] norm1 -> norm1
I0428 13:45:19.454656  7476 net.cpp:122] Setting up norm1
I0428 13:45:19.454668  7476 net.cpp:129] Top shape: 128 96 55 55 (37171200)
I0428 13:45:19.454671  7476 net.cpp:137] Memory required for data: 525203456
I0428 13:45:19.454676  7476 layer_factory.hpp:77] Creating layer pool1
I0428 13:45:19.454685  7476 net.cpp:84] Creating Layer pool1
I0428 13:45:19.454689  7476 net.cpp:406] pool1 <- norm1
I0428 13:45:19.454695  7476 net.cpp:380] pool1 -> pool1
I0428 13:45:19.454739  7476 net.cpp:122] Setting up pool1
I0428 13:45:19.454746  7476 net.cpp:129] Top shape: 128 96 27 27 (8957952)
I0428 13:45:19.454751  7476 net.cpp:137] Memory required for data: 561035264
I0428 13:45:19.454754  7476 layer_factory.hpp:77] Creating layer conv1.5
I0428 13:45:19.454766  7476 net.cpp:84] Creating Layer conv1.5
I0428 13:45:19.454769  7476 net.cpp:406] conv1.5 <- pool1
I0428 13:45:19.454775  7476 net.cpp:380] conv1.5 -> conv1.5
I0428 13:45:19.472767  7476 net.cpp:122] Setting up conv1.5
I0428 13:45:19.472788  7476 net.cpp:129] Top shape: 128 176 19 19 (8132608)
I0428 13:45:19.472793  7476 net.cpp:137] Memory required for data: 593565696
I0428 13:45:19.472805  7476 layer_factory.hpp:77] Creating layer relu1.5
I0428 13:45:19.472815  7476 net.cpp:84] Creating Layer relu1.5
I0428 13:45:19.472820  7476 net.cpp:406] relu1.5 <- conv1.5
I0428 13:45:19.472827  7476 net.cpp:367] relu1.5 -> conv1.5 (in-place)
I0428 13:45:19.473244  7476 net.cpp:122] Setting up relu1.5
I0428 13:45:19.473253  7476 net.cpp:129] Top shape: 128 176 19 19 (8132608)
I0428 13:45:19.473256  7476 net.cpp:137] Memory required for data: 626096128
I0428 13:45:19.473260  7476 layer_factory.hpp:77] Creating layer norm1.5
I0428 13:45:19.473270  7476 net.cpp:84] Creating Layer norm1.5
I0428 13:45:19.473274  7476 net.cpp:406] norm1.5 <- conv1.5
I0428 13:45:19.473280  7476 net.cpp:380] norm1.5 -> norm1.5
I0428 13:45:19.474995  7476 net.cpp:122] Setting up norm1.5
I0428 13:45:19.475008  7476 net.cpp:129] Top shape: 128 176 19 19 (8132608)
I0428 13:45:19.475011  7476 net.cpp:137] Memory required for data: 658626560
I0428 13:45:19.475015  7476 layer_factory.hpp:77] Creating layer pool1.5
I0428 13:45:19.475026  7476 net.cpp:84] Creating Layer pool1.5
I0428 13:45:19.475031  7476 net.cpp:406] pool1.5 <- norm1.5
I0428 13:45:19.475037  7476 net.cpp:380] pool1.5 -> pool1.5
I0428 13:45:19.475073  7476 net.cpp:122] Setting up pool1.5
I0428 13:45:19.475080  7476 net.cpp:129] Top shape: 128 176 9 9 (1824768)
I0428 13:45:19.475082  7476 net.cpp:137] Memory required for data: 665925632
I0428 13:45:19.475086  7476 layer_factory.hpp:77] Creating layer conv2
I0428 13:45:19.475098  7476 net.cpp:84] Creating Layer conv2
I0428 13:45:19.475102  7476 net.cpp:406] conv2 <- pool1.5
I0428 13:45:19.475109  7476 net.cpp:380] conv2 -> conv2
I0428 13:45:19.485344  7476 net.cpp:122] Setting up conv2
I0428 13:45:19.485363  7476 net.cpp:129] Top shape: 128 256 9 9 (2654208)
I0428 13:45:19.485368  7476 net.cpp:137] Memory required for data: 676542464
I0428 13:45:19.485381  7476 layer_factory.hpp:77] Creating layer relu2
I0428 13:45:19.485389  7476 net.cpp:84] Creating Layer relu2
I0428 13:45:19.485394  7476 net.cpp:406] relu2 <- conv2
I0428 13:45:19.485400  7476 net.cpp:367] relu2 -> conv2 (in-place)
I0428 13:45:19.485973  7476 net.cpp:122] Setting up relu2
I0428 13:45:19.485983  7476 net.cpp:129] Top shape: 128 256 9 9 (2654208)
I0428 13:45:19.485987  7476 net.cpp:137] Memory required for data: 687159296
I0428 13:45:19.485991  7476 layer_factory.hpp:77] Creating layer norm2
I0428 13:45:19.485999  7476 net.cpp:84] Creating Layer norm2
I0428 13:45:19.486002  7476 net.cpp:406] norm2 <- conv2
I0428 13:45:19.486011  7476 net.cpp:380] norm2 -> norm2
I0428 13:45:19.486413  7476 net.cpp:122] Setting up norm2
I0428 13:45:19.486423  7476 net.cpp:129] Top shape: 128 256 9 9 (2654208)
I0428 13:45:19.486425  7476 net.cpp:137] Memory required for data: 697776128
I0428 13:45:19.486429  7476 layer_factory.hpp:77] Creating layer pool2
I0428 13:45:19.486436  7476 net.cpp:84] Creating Layer pool2
I0428 13:45:19.486439  7476 net.cpp:406] pool2 <- norm2
I0428 13:45:19.486446  7476 net.cpp:380] pool2 -> pool2
I0428 13:45:19.486479  7476 net.cpp:122] Setting up pool2
I0428 13:45:19.486485  7476 net.cpp:129] Top shape: 128 256 4 4 (524288)
I0428 13:45:19.486488  7476 net.cpp:137] Memory required for data: 699873280
I0428 13:45:19.486492  7476 layer_factory.hpp:77] Creating layer conv3
I0428 13:45:19.486502  7476 net.cpp:84] Creating Layer conv3
I0428 13:45:19.486505  7476 net.cpp:406] conv3 <- pool2
I0428 13:45:19.486512  7476 net.cpp:380] conv3 -> conv3
I0428 13:45:19.524003  7476 net.cpp:122] Setting up conv3
I0428 13:45:19.524022  7476 net.cpp:129] Top shape: 128 384 4 4 (786432)
I0428 13:45:19.524026  7476 net.cpp:137] Memory required for data: 703019008
I0428 13:45:19.524036  7476 layer_factory.hpp:77] Creating layer relu3
I0428 13:45:19.524046  7476 net.cpp:84] Creating Layer relu3
I0428 13:45:19.524050  7476 net.cpp:406] relu3 <- conv3
I0428 13:45:19.524057  7476 net.cpp:367] relu3 -> conv3 (in-place)
I0428 13:45:19.557474  7476 net.cpp:122] Setting up relu3
I0428 13:45:19.557494  7476 net.cpp:129] Top shape: 128 384 4 4 (786432)
I0428 13:45:19.557499  7476 net.cpp:137] Memory required for data: 706164736
I0428 13:45:19.557505  7476 layer_factory.hpp:77] Creating layer conv4
I0428 13:45:19.557523  7476 net.cpp:84] Creating Layer conv4
I0428 13:45:19.557528  7476 net.cpp:406] conv4 <- conv3
I0428 13:45:19.557538  7476 net.cpp:380] conv4 -> conv4
I0428 13:45:19.592514  7476 net.cpp:122] Setting up conv4
I0428 13:45:19.592535  7476 net.cpp:129] Top shape: 128 384 4 4 (786432)
I0428 13:45:19.592540  7476 net.cpp:137] Memory required for data: 709310464
I0428 13:45:19.592555  7476 layer_factory.hpp:77] Creating layer relu4
I0428 13:45:19.592569  7476 net.cpp:84] Creating Layer relu4
I0428 13:45:19.592574  7476 net.cpp:406] relu4 <- conv4
I0428 13:45:19.592581  7476 net.cpp:367] relu4 -> conv4 (in-place)
I0428 13:45:19.593127  7476 net.cpp:122] Setting up relu4
I0428 13:45:19.593137  7476 net.cpp:129] Top shape: 128 384 4 4 (786432)
I0428 13:45:19.593142  7476 net.cpp:137] Memory required for data: 712456192
I0428 13:45:19.593145  7476 layer_factory.hpp:77] Creating layer conv5
I0428 13:45:19.593158  7476 net.cpp:84] Creating Layer conv5
I0428 13:45:19.593163  7476 net.cpp:406] conv5 <- conv4
I0428 13:45:19.593170  7476 net.cpp:380] conv5 -> conv5
I0428 13:45:19.603315  7476 net.cpp:122] Setting up conv5
I0428 13:45:19.603334  7476 net.cpp:129] Top shape: 128 256 4 4 (524288)
I0428 13:45:19.603338  7476 net.cpp:137] Memory required for data: 714553344
I0428 13:45:19.603348  7476 layer_factory.hpp:77] Creating layer relu5
I0428 13:45:19.603358  7476 net.cpp:84] Creating Layer relu5
I0428 13:45:19.603363  7476 net.cpp:406] relu5 <- conv5
I0428 13:45:19.603370  7476 net.cpp:367] relu5 -> conv5 (in-place)
I0428 13:45:19.603994  7476 net.cpp:122] Setting up relu5
I0428 13:45:19.604005  7476 net.cpp:129] Top shape: 128 256 4 4 (524288)
I0428 13:45:19.604009  7476 net.cpp:137] Memory required for data: 716650496
I0428 13:45:19.604013  7476 layer_factory.hpp:77] Creating layer pool5
I0428 13:45:19.604020  7476 net.cpp:84] Creating Layer pool5
I0428 13:45:19.604024  7476 net.cpp:406] pool5 <- conv5
I0428 13:45:19.604030  7476 net.cpp:380] pool5 -> pool5
I0428 13:45:19.604091  7476 net.cpp:122] Setting up pool5
I0428 13:45:19.604097  7476 net.cpp:129] Top shape: 128 256 2 2 (131072)
I0428 13:45:19.604101  7476 net.cpp:137] Memory required for data: 717174784
I0428 13:45:19.604104  7476 layer_factory.hpp:77] Creating layer fc6
I0428 13:45:19.604113  7476 net.cpp:84] Creating Layer fc6
I0428 13:45:19.604116  7476 net.cpp:406] fc6 <- pool5
I0428 13:45:19.604122  7476 net.cpp:380] fc6 -> fc6
I0428 13:45:19.703140  7476 net.cpp:122] Setting up fc6
I0428 13:45:19.703158  7476 net.cpp:129] Top shape: 128 4096 (524288)
I0428 13:45:19.703162  7476 net.cpp:137] Memory required for data: 719271936
I0428 13:45:19.703172  7476 layer_factory.hpp:77] Creating layer relu6
I0428 13:45:19.703181  7476 net.cpp:84] Creating Layer relu6
I0428 13:45:19.703187  7476 net.cpp:406] relu6 <- fc6
I0428 13:45:19.703194  7476 net.cpp:367] relu6 -> fc6 (in-place)
I0428 13:45:19.703845  7476 net.cpp:122] Setting up relu6
I0428 13:45:19.703855  7476 net.cpp:129] Top shape: 128 4096 (524288)
I0428 13:45:19.703858  7476 net.cpp:137] Memory required for data: 721369088
I0428 13:45:19.703863  7476 layer_factory.hpp:77] Creating layer drop6
I0428 13:45:19.703871  7476 net.cpp:84] Creating Layer drop6
I0428 13:45:19.703876  7476 net.cpp:406] drop6 <- fc6
I0428 13:45:19.703881  7476 net.cpp:367] drop6 -> fc6 (in-place)
I0428 13:45:19.703912  7476 net.cpp:122] Setting up drop6
I0428 13:45:19.703917  7476 net.cpp:129] Top shape: 128 4096 (524288)
I0428 13:45:19.703922  7476 net.cpp:137] Memory required for data: 723466240
I0428 13:45:19.703927  7476 layer_factory.hpp:77] Creating layer fc7
I0428 13:45:19.703933  7476 net.cpp:84] Creating Layer fc7
I0428 13:45:19.703938  7476 net.cpp:406] fc7 <- fc6
I0428 13:45:19.703945  7476 net.cpp:380] fc7 -> fc7
I0428 13:45:19.877452  7476 net.cpp:122] Setting up fc7
I0428 13:45:19.877475  7476 net.cpp:129] Top shape: 128 4096 (524288)
I0428 13:45:19.877480  7476 net.cpp:137] Memory required for data: 725563392
I0428 13:45:19.877488  7476 layer_factory.hpp:77] Creating layer relu7
I0428 13:45:19.877497  7476 net.cpp:84] Creating Layer relu7
I0428 13:45:19.877502  7476 net.cpp:406] relu7 <- fc7
I0428 13:45:19.877511  7476 net.cpp:367] relu7 -> fc7 (in-place)
I0428 13:45:19.877948  7476 net.cpp:122] Setting up relu7
I0428 13:45:19.877956  7476 net.cpp:129] Top shape: 128 4096 (524288)
I0428 13:45:19.877959  7476 net.cpp:137] Memory required for data: 727660544
I0428 13:45:19.877964  7476 layer_factory.hpp:77] Creating layer drop7
I0428 13:45:19.877972  7476 net.cpp:84] Creating Layer drop7
I0428 13:45:19.877976  7476 net.cpp:406] drop7 <- fc7
I0428 13:45:19.877981  7476 net.cpp:367] drop7 -> fc7 (in-place)
I0428 13:45:19.878006  7476 net.cpp:122] Setting up drop7
I0428 13:45:19.878011  7476 net.cpp:129] Top shape: 128 4096 (524288)
I0428 13:45:19.878015  7476 net.cpp:137] Memory required for data: 729757696
I0428 13:45:19.878018  7476 layer_factory.hpp:77] Creating layer fc8
I0428 13:45:19.878026  7476 net.cpp:84] Creating Layer fc8
I0428 13:45:19.878028  7476 net.cpp:406] fc8 <- fc7
I0428 13:45:19.878036  7476 net.cpp:380] fc8 -> fc8
I0428 13:45:19.886535  7476 net.cpp:122] Setting up fc8
I0428 13:45:19.886549  7476 net.cpp:129] Top shape: 128 196 (25088)
I0428 13:45:19.886554  7476 net.cpp:137] Memory required for data: 729858048
I0428 13:45:19.886567  7476 layer_factory.hpp:77] Creating layer loss
I0428 13:45:19.886574  7476 net.cpp:84] Creating Layer loss
I0428 13:45:19.886579  7476 net.cpp:406] loss <- fc8
I0428 13:45:19.886584  7476 net.cpp:406] loss <- label
I0428 13:45:19.886591  7476 net.cpp:380] loss -> loss
I0428 13:45:19.886601  7476 layer_factory.hpp:77] Creating layer loss
…
I0428 13:45:19.888067  7476 net.cpp:294] The NetState phase (1) differed from the phase (0) specified by a rule in layer train-data
I0428 13:45:19.888223  7476 net.cpp:51] Initializing net from parameters:
state {
phase: TEST
}
layer {
name: "val-data"
type: "Data"
top: "data"
top: "label"
include {
phase: TEST
}
transform_param {
crop_size: 227
mean_file: "/mnt/bigdisk/DIGITS-MAN-3/digits/jobs/20210421-230320-902c/mean.binaryproto"
}
data_param {
source: "/mnt/bigdisk/DIGITS-MAN-3/digits/jobs/20210421-230320-902c/val_db"
batch_size: 32
backend: LMDB
}
}
layer {
name: "conv1"
type: "Convolution"
bottom: "data"
top: "conv1"
param {
lr_mult: 1
decay_mult: 1
}
param {
lr_mult: 2
decay_mult: 0
}
convolution_param {
num_output: 96
kernel_size: 11
stride: 4
weight_filler {
type: "gaussian"
std: 0.01
}
bias_filler {
type: "constant"
value: 0
}
}
}
layer {
name: "relu1"
type: "ReLU"
bottom: "conv1"
top: "conv1"
}
layer {
name: "norm1"
type: "LRN"
bottom: "conv1"
top: "norm1"
lrn_param {
local_size: 5
alpha: 0.0001
beta: 0.75
}
}
layer {
name: "pool1"
type: "Pooling"
bottom: "norm1"
top: "pool1"
pooling_param {
pool: MAX
kernel_size: 3
stride: 2
}
}
layer {
name: "conv1.5"
type: "Convolution"
bottom: "pool1"
top: "conv1.5"
param {
lr_mult: 1
decay_mult: 1
}
param {
lr_mult: 2
decay_mult: 0
}
convolution_param {
num_output: 176
kernel_size: 9
stride: 1
weight_filler {
type: "gaussian"
std: 0.01
}
bias_filler {
type: "constant"
value: 0
}
}
}
layer {
name: "relu1.5"
type: "ReLU"
bottom: "conv1.5"
top: "conv1.5"
}
layer {
name: "norm1.5"
type: "LRN"
bottom: "conv1.5"
top: "norm1.5"
lrn_param {
local_size: 5
alpha: 0.0001
beta: 0.75
}
}
layer {
name: "pool1.5"
type: "Pooling"
bottom: "norm1.5"
top: "pool1.5"
pooling_param {
pool: MAX
kernel_size: 3
stride: 2
}
}
layer {
name: "conv2"
type: "Convolution"
bottom: "pool1.5"
top: "conv2"
param {
lr_mult: 1
decay_mult: 1
}
param {
lr_mult: 2
decay_mult: 0
}
convolution_param {
num_output: 256
pad: 2
kernel_size: 5
group: 2
weight_filler {
type: "gaussian"
std: 0.01
}
bias_filler {
type: "constant"
value: 0.1
}
}
}
layer {
name: "relu2"
type: "ReLU"
bottom: "conv2"
top: "conv2"
}
layer {
name: "norm2"
type: "LRN"
bottom: "conv2"
top: "norm2"
lrn_param {
local_size: 5
alpha: 0.0001
beta: 0.75
}
}
layer {
name: "pool2"
type: "Pooling"
bottom: "norm2"
top: "pool2"
pooling_param {
pool: MAX
kernel_size: 3
stride: 2
}
}
layer {
name: "conv3"
type: "Convolution"
bottom: "pool2"
top: "conv3"
param {
lr_mult: 1
decay_mult: 1
}
param {
lr_mult: 2
decay_mult: 0
}
convolution_param {
num_output: 384
pad: 1
kernel_size: 3
weight_filler {
type: "gaussian"
std: 0.01
}
bias_filler {
type: "constant"
value: 0
}
}
}
layer {
name: "relu3"
type: "ReLU"
bottom: "conv3"
top: "conv3"
}
layer {
name: "conv4"
type: "Convolution"
bottom: "conv3"
top: "conv4"
param {
lr_mult: 1
decay_mult: 1
}
param {
lr_mult: 2
decay_mult: 0
}
convolution_param {
num_output: 384
pad: 1
kernel_size: 3
group: 2
weight_filler {
type: "gaussian"
std: 0.01
}
bias_filler {
type: "constant"
value: 0.1
}
}
}
layer {
name: "relu4"
type: "ReLU"
bottom: "conv4"
top: "conv4"
}
layer {
name: "conv5"
type: "Convolution"
bottom: "conv4"
top: "conv5"
param {
lr_mult: 1
decay_mult: 1
}
param {
lr_mult: 2
decay_mult: 0
}
convolution_param {
num_output: 256
pad: 1
kernel_size: 3
group: 2
weight_filler {
type: "gaussian"
std: 0.01
}
bias_filler {
type: "constant"
value: 0.1
}
}
}
layer {
name: "relu5"
type: "ReLU"
bottom: "conv5"
top: "conv5"
}
layer {
name: "pool5"
type: "Pooling"
bottom: "conv5"
top: "pool5"
pooling_param {
pool: MAX
kernel_size: 3
stride: 2
}
}
layer {
name: "fc6"
type: "InnerProduct"
bottom: "pool5"
top: "fc6"
param {
lr_mult: 1
decay_mult: 1
}
param {
lr_mult: 2
decay_mult: 0
}
inner_product_param {
num_output: 4096
weight_filler {
type: "gaussian"
std: 0.005
}
bias_filler {
type: "constant"
value: 0.1
}
}
}
layer {
name: "relu6"
type: "ReLU"
bottom: "fc6"
top: "fc6"
}
layer {
name: "drop6"
type: "Dropout"
bottom: "fc6"
top: "fc6"
dropout_param {
dropout_ratio: 0.5
}
}
layer {
name: "fc7"
type: "InnerProduct"
bottom: "fc6"
top: "fc7"
param {
lr_mult: 1
decay_mult: 1
}
param {
lr_mult: 2
decay_mult: 0
}
inner_product_param {
num_output: 4096
weight_filler {
type: "gaussian"
std: 0.005
}
bias_filler {
type: "constant"
value: 0.1
}
}
}
layer {
name: "relu7"
type: "ReLU"
bottom: "fc7"
top: "fc7"
}
layer {
name: "drop7"
type: "Dropout"
bottom: "fc7"
top: "fc7"
dropout_param {
dropout_ratio: 0.5
}
}
layer {
name: "fc8"
type: "InnerProduct"
bottom: "fc7"
top: "fc8"
param {
lr_mult: 1
decay_mult: 1
}
param {
lr_mult: 2
decay_mult: 0
}
inner_product_param {
num_output: 196
weight_filler {
type: "gaussian"
std: 0.01
}
bias_filler {
type: "constant"
value: 0
}
}
}
layer {
name: "accuracy"
type: "Accuracy"
bottom: "fc8"
bottom: "label"
top: "accuracy"
include {
phase: TEST
}
}
layer {
name: "loss"
type: "SoftmaxWithLoss"
bottom: "fc8"
bottom: "label"
top: "loss"
}
I0428 13:45:19.888336  7476 layer_factory.hpp:77] Creating layer val-data
I0428 13:45:19.891165  7476 db_lmdb.cpp:35] Opened lmdb /mnt/bigdisk/DIGITS-MAN-3/digits/jobs/20210421-230320-902c/val_db
I0428 13:45:19.891350  7476 net.cpp:84] Creating Layer val-data
I0428 13:45:19.891360  7476 net.cpp:380] val-data -> data
I0428 13:45:19.891368  7476 net.cpp:380] val-data -> label
I0428 13:45:19.891376  7476 data_transformer.cpp:25] Loading mean file from: /mnt/bigdisk/DIGITS-MAN-3/digits/jobs/20210421-230320-902c/mean.binaryproto
I0428 13:45:19.894812  7476 data_layer.cpp:45] output data size: 32,3,227,227
I0428 13:45:19.937503  7476 net.cpp:122] Setting up val-data
I0428 13:45:19.937525  7476 net.cpp:129] Top shape: 32 3 227 227 (4946784)
I0428 13:45:19.937530  7476 net.cpp:129] Top shape: 32 (32)
I0428 13:45:19.937533  7476 net.cpp:137] Memory required for data: 19787264
I0428 13:45:19.937539  7476 layer_factory.hpp:77] Creating layer label_val-data_1_split
I0428 13:45:19.937551  7476 net.cpp:84] Creating Layer label_val-data_1_split
I0428 13:45:19.937556  7476 net.cpp:406] label_val-data_1_split <- label
I0428 13:45:19.937562  7476 net.cpp:380] label_val-data_1_split -> label_val-data_1_split_0
I0428 13:45:19.937572  7476 net.cpp:380] label_val-data_1_split -> label_val-data_1_split_1
I0428 13:45:19.937628  7476 net.cpp:122] Setting up label_val-data_1_split
I0428 13:45:19.937634  7476 net.cpp:129] Top shape: 32 (32)
I0428 13:45:19.937638  7476 net.cpp:129] Top shape: 32 (32)
I0428 13:45:19.937641  7476 net.cpp:137] Memory required for data: 19787520
I0428 13:45:19.937644  7476 layer_factory.hpp:77] Creating layer conv1
I0428 13:45:19.937656  7476 net.cpp:84] Creating Layer conv1
I0428 13:45:19.937660  7476 net.cpp:406] conv1 <- data
I0428 13:45:19.937666  7476 net.cpp:380] conv1 -> conv1
I0428 13:45:19.987378  7476 net.cpp:122] Setting up conv1
I0428 13:45:19.987397  7476 net.cpp:129] Top shape: 32 96 55 55 (9292800)
I0428 13:45:19.987401  7476 net.cpp:137] Memory required for data: 56958720
I0428 13:45:19.987416  7476 layer_factory.hpp:77] Creating layer relu1
I0428 13:45:19.987424  7476 net.cpp:84] Creating Layer relu1
I0428 13:45:19.987429  7476 net.cpp:406] relu1 <- conv1
I0428 13:45:19.987435  7476 net.cpp:367] relu1 -> conv1 (in-place)
I0428 13:45:19.987722  7476 net.cpp:122] Setting up relu1
I0428 13:45:19.987731  7476 net.cpp:129] Top shape: 32 96 55 55 (9292800)
I0428 13:45:19.987735  7476 net.cpp:137] Memory required for data: 94129920
I0428 13:45:19.987738  7476 layer_factory.hpp:77] Creating layer norm1
I0428 13:45:19.987747  7476 net.cpp:84] Creating Layer norm1
I0428 13:45:19.987751  7476 net.cpp:406] norm1 <- conv1
I0428 13:45:19.987756  7476 net.cpp:380] norm1 -> norm1
I0428 13:45:19.996932  7476 net.cpp:122] Setting up norm1
I0428 13:45:19.996944  7476 net.cpp:129] Top shape: 32 96 55 55 (9292800)
I0428 13:45:19.996948  7476 net.cpp:137] Memory required for data: 131301120
I0428 13:45:19.996951  7476 layer_factory.hpp:77] Creating layer pool1
I0428 13:45:19.996958  7476 net.cpp:84] Creating Layer pool1
I0428 13:45:19.996963  7476 net.cpp:406] pool1 <- norm1
I0428 13:45:19.996968  7476 net.cpp:380] pool1 -> pool1
I0428 13:45:19.996999  7476 net.cpp:122] Setting up pool1
I0428 13:45:19.997004  7476 net.cpp:129] Top shape: 32 96 27 27 (2239488)
I0428 13:45:19.997007  7476 net.cpp:137] Memory required for data: 140259072
I0428 13:45:19.997010  7476 layer_factory.hpp:77] Creating layer conv1.5
I0428 13:45:19.997020  7476 net.cpp:84] Creating Layer conv1.5
I0428 13:45:19.997023  7476 net.cpp:406] conv1.5 <- pool1
I0428 13:45:19.997028  7476 net.cpp:380] conv1.5 -> conv1.5
I0428 13:45:20.023331  7476 net.cpp:122] Setting up conv1.5
I0428 13:45:20.023350  7476 net.cpp:129] Top shape: 32 176 19 19 (2033152)
I0428 13:45:20.023355  7476 net.cpp:137] Memory required for data: 148391680
I0428 13:45:20.023366  7476 layer_factory.hpp:77] Creating layer relu1.5
I0428 13:45:20.023377  7476 net.cpp:84] Creating Layer relu1.5
I0428 13:45:20.023401  7476 net.cpp:406] relu1.5 <- conv1.5
I0428 13:45:20.023407  7476 net.cpp:367] relu1.5 -> conv1.5 (in-place)
I0428 13:45:20.023769  7476 net.cpp:122] Setting up relu1.5
I0428 13:45:20.023778  7476 net.cpp:129] Top shape: 32 176 19 19 (2033152)
I0428 13:45:20.023782  7476 net.cpp:137] Memory required for data: 156524288
I0428 13:45:20.023785  7476 layer_factory.hpp:77] Creating layer norm1.5
I0428 13:45:20.023795  7476 net.cpp:84] Creating Layer norm1.5
I0428 13:45:20.023799  7476 net.cpp:406] norm1.5 <- conv1.5
I0428 13:45:20.023806  7476 net.cpp:380] norm1.5 -> norm1.5
I0428 13:45:20.024382  7476 net.cpp:122] Setting up norm1.5
I0428 13:45:20.024394  7476 net.cpp:129] Top shape: 32 176 19 19 (2033152)
I0428 13:45:20.024399  7476 net.cpp:137] Memory required for data: 164656896
I0428 13:45:20.024405  7476 layer_factory.hpp:77] Creating layer pool1.5
I0428 13:45:20.024417  7476 net.cpp:84] Creating Layer pool1.5
I0428 13:45:20.024423  7476 net.cpp:406] pool1.5 <- norm1.5
I0428 13:45:20.024430  7476 net.cpp:380] pool1.5 -> pool1.5
I0428 13:45:20.024473  7476 net.cpp:122] Setting up pool1.5
I0428 13:45:20.024480  7476 net.cpp:129] Top shape: 32 176 9 9 (456192)
I0428 13:45:20.024483  7476 net.cpp:137] Memory required for data: 166481664
I0428 13:45:20.024521  7476 layer_factory.hpp:77] Creating layer conv2
I0428 13:45:20.024534  7476 net.cpp:84] Creating Layer conv2
I0428 13:45:20.024538  7476 net.cpp:406] conv2 <- pool1.5
I0428 13:45:20.024544  7476 net.cpp:380] conv2 -> conv2
I0428 13:45:20.034204  7476 net.cpp:122] Setting up conv2
I0428 13:45:20.034222  7476 net.cpp:129] Top shape: 32 256 9 9 (663552)
I0428 13:45:20.034226  7476 net.cpp:137] Memory required for data: 169135872
I0428 13:45:20.034237  7476 layer_factory.hpp:77] Creating layer relu2
I0428 13:45:20.034246  7476 net.cpp:84] Creating Layer relu2
I0428 13:45:20.034250  7476 net.cpp:406] relu2 <- conv2
I0428 13:45:20.034256  7476 net.cpp:367] relu2 -> conv2 (in-place)
I0428 13:45:20.034768  7476 net.cpp:122] Setting up relu2
I0428 13:45:20.034778  7476 net.cpp:129] Top shape: 32 256 9 9 (663552)
I0428 13:45:20.034781  7476 net.cpp:137] Memory required for data: 171790080
I0428 13:45:20.034785  7476 layer_factory.hpp:77] Creating layer norm2
I0428 13:45:20.034792  7476 net.cpp:84] Creating Layer norm2
I0428 13:45:20.034796  7476 net.cpp:406] norm2 <- conv2
I0428 13:45:20.034803  7476 net.cpp:380] norm2 -> norm2
I0428 13:45:20.035169  7476 net.cpp:122] Setting up norm2
I0428 13:45:20.035177  7476 net.cpp:129] Top shape: 32 256 9 9 (663552)
I0428 13:45:20.035181  7476 net.cpp:137] Memory required for data: 174444288
I0428 13:45:20.035184  7476 layer_factory.hpp:77] Creating layer pool2
I0428 13:45:20.035192  7476 net.cpp:84] Creating Layer pool2
I0428 13:45:20.035194  7476 net.cpp:406] pool2 <- norm2
I0428 13:45:20.035200  7476 net.cpp:380] pool2 -> pool2
I0428 13:45:20.035231  7476 net.cpp:122] Setting up pool2
I0428 13:45:20.035238  7476 net.cpp:129] Top shape: 32 256 4 4 (131072)
I0428 13:45:20.035240  7476 net.cpp:137] Memory required for data: 174968576
I0428 13:45:20.035244  7476 layer_factory.hpp:77] Creating layer conv3
I0428 13:45:20.035254  7476 net.cpp:84] Creating Layer conv3
I0428 13:45:20.035257  7476 net.cpp:406] conv3 <- pool2
I0428 13:45:20.035262  7476 net.cpp:380] conv3 -> conv3
I0428 13:45:20.046614  7476 net.cpp:122] Setting up conv3
I0428 13:45:20.046634  7476 net.cpp:129] Top shape: 32 384 4 4 (196608)
I0428 13:45:20.046639  7476 net.cpp:137] Memory required for data: 175755008
I0428 13:45:20.046648  7476 layer_factory.hpp:77] Creating layer relu3
I0428 13:45:20.046656  7476 net.cpp:84] Creating Layer relu3
I0428 13:45:20.046660  7476 net.cpp:406] relu3 <- conv3
I0428 13:45:20.046667  7476 net.cpp:367] relu3 -> conv3 (in-place)
I0428 13:45:20.047189  7476 net.cpp:122] Setting up relu3
I0428 13:45:20.047199  7476 net.cpp:129] Top shape: 32 384 4 4 (196608)
I0428 13:45:20.047204  7476 net.cpp:137] Memory required for data: 176541440
I0428 13:45:20.047207  7476 layer_factory.hpp:77] Creating layer conv4
I0428 13:45:20.047241  7476 net.cpp:84] Creating Layer conv4
I0428 13:45:20.047245  7476 net.cpp:406] conv4 <- conv3
I0428 13:45:20.047251  7476 net.cpp:380] conv4 -> conv4
I0428 13:45:20.056877  7476 net.cpp:122] Setting up conv4
I0428 13:45:20.056893  7476 net.cpp:129] Top shape: 32 384 4 4 (196608)
I0428 13:45:20.056897  7476 net.cpp:137] Memory required for data: 177327872
I0428 13:45:20.056910  7476 layer_factory.hpp:77] Creating layer relu4
I0428 13:45:20.056917  7476 net.cpp:84] Creating Layer relu4
I0428 13:45:20.056921  7476 net.cpp:406] relu4 <- conv4
I0428 13:45:20.056928  7476 net.cpp:367] relu4 -> conv4 (in-place)
I0428 13:45:20.057426  7476 net.cpp:122] Setting up relu4
I0428 13:45:20.057437  7476 net.cpp:129] Top shape: 32 384 4 4 (196608)
I0428 13:45:20.057441  7476 net.cpp:137] Memory required for data: 178114304
I0428 13:45:20.057446  7476 layer_factory.hpp:77] Creating layer conv5
I0428 13:45:20.057456  7476 net.cpp:84] Creating Layer conv5
I0428 13:45:20.057461  7476 net.cpp:406] conv5 <- conv4
I0428 13:45:20.057466  7476 net.cpp:380] conv5 -> conv5
I0428 13:45:20.067272  7476 net.cpp:122] Setting up conv5
I0428 13:45:20.067289  7476 net.cpp:129] Top shape: 32 256 4 4 (131072)
I0428 13:45:20.067293  7476 net.cpp:137] Memory required for data: 178638592
I0428 13:45:20.067302  7476 layer_factory.hpp:77] Creating layer relu5
I0428 13:45:20.067312  7476 net.cpp:84] Creating Layer relu5
I0428 13:45:20.067315  7476 net.cpp:406] relu5 <- conv5
I0428 13:45:20.067322  7476 net.cpp:367] relu5 -> conv5 (in-place)
I0428 13:45:20.067821  7476 net.cpp:122] Setting up relu5
I0428 13:45:20.067831  7476 net.cpp:129] Top shape: 32 256 4 4 (131072)
I0428 13:45:20.067835  7476 net.cpp:137] Memory required for data: 179162880
I0428 13:45:20.067839  7476 layer_factory.hpp:77] Creating layer pool5
I0428 13:45:20.067848  7476 net.cpp:84] Creating Layer pool5
I0428 13:45:20.067852  7476 net.cpp:406] pool5 <- conv5
I0428 13:45:20.067858  7476 net.cpp:380] pool5 -> pool5
I0428 13:45:20.067900  7476 net.cpp:122] Setting up pool5
I0428 13:45:20.067907  7476 net.cpp:129] Top shape: 32 256 2 2 (32768)
I0428 13:45:20.067911  7476 net.cpp:137] Memory required for data: 179293952
I0428 13:45:20.067914  7476 layer_factory.hpp:77] Creating layer fc6
I0428 13:45:20.067921  7476 net.cpp:84] Creating Layer fc6
I0428 13:45:20.067925  7476 net.cpp:406] fc6 <- pool5
I0428 13:45:20.067930  7476 net.cpp:380] fc6 -> fc6
I0428 13:45:20.109063  7476 net.cpp:122] Setting up fc6
I0428 13:45:20.109086  7476 net.cpp:129] Top shape: 32 4096 (131072)
I0428 13:45:20.109091  7476 net.cpp:137] Memory required for data: 179818240
I0428 13:45:20.109100  7476 layer_factory.hpp:77] Creating layer relu6
I0428 13:45:20.109112  7476 net.cpp:84] Creating Layer relu6
I0428 13:45:20.109117  7476 net.cpp:406] relu6 <- fc6
I0428 13:45:20.109123  7476 net.cpp:367] relu6 -> fc6 (in-place)
I0428 13:45:20.109798  7476 net.cpp:122] Setting up relu6
I0428 13:45:20.109809  7476 net.cpp:129] Top shape: 32 4096 (131072)
I0428 13:45:20.109813  7476 net.cpp:137] Memory required for data: 180342528
I0428 13:45:20.109817  7476 layer_factory.hpp:77] Creating layer drop6
I0428 13:45:20.109824  7476 net.cpp:84] Creating Layer drop6
I0428 13:45:20.109828  7476 net.cpp:406] drop6 <- fc6
I0428 13:45:20.109833  7476 net.cpp:367] drop6 -> fc6 (in-place)
I0428 13:45:20.109858  7476 net.cpp:122] Setting up drop6
I0428 13:45:20.109863  7476 net.cpp:129] Top shape: 32 4096 (131072)
I0428 13:45:20.109867  7476 net.cpp:137] Memory required for data: 180866816
I0428 13:45:20.109871  7476 layer_factory.hpp:77] Creating layer fc7
I0428 13:45:20.109879  7476 net.cpp:84] Creating Layer fc7
I0428 13:45:20.109884  7476 net.cpp:406] fc7 <- fc6
I0428 13:45:20.109889  7476 net.cpp:380] fc7 -> fc7
I0428 13:45:20.268368  7476 net.cpp:122] Setting up fc7
I0428 13:45:20.268388  7476 net.cpp:129] Top shape: 32 4096 (131072)
I0428 13:45:20.268391  7476 net.cpp:137] Memory required for data: 181391104
I0428 13:45:20.268400  7476 layer_factory.hpp:77] Creating layer relu7
I0428 13:45:20.268410  7476 net.cpp:84] Creating Layer relu7
I0428 13:45:20.268435  7476 net.cpp:406] relu7 <- fc7
I0428 13:45:20.268442  7476 net.cpp:367] relu7 -> fc7 (in-place)
I0428 13:45:20.268888  7476 net.cpp:122] Setting up relu7
I0428 13:45:20.268898  7476 net.cpp:129] Top shape: 32 4096 (131072)
I0428 13:45:20.268900  7476 net.cpp:137] Memory required for data: 181915392
I0428 13:45:20.268904  7476 layer_factory.hpp:77] Creating layer drop7
I0428 13:45:20.268910  7476 net.cpp:84] Creating Layer drop7
I0428 13:45:20.268920  7476 net.cpp:406] drop7 <- fc7
I0428 13:45:20.268925  7476 net.cpp:367] drop7 -> fc7 (in-place)
I0428 13:45:20.268949  7476 net.cpp:122] Setting up drop7
I0428 13:45:20.268954  7476 net.cpp:129] Top shape: 32 4096 (131072)
I0428 13:45:20.268957  7476 net.cpp:137] Memory required for data: 182439680
I0428 13:45:20.268960  7476 layer_factory.hpp:77] Creating layer fc8
I0428 13:45:20.268968  7476 net.cpp:84] Creating Layer fc8
I0428 13:45:20.268972  7476 net.cpp:406] fc8 <- fc7
I0428 13:45:20.268977  7476 net.cpp:380] fc8 -> fc8
I0428 13:45:20.280522  7476 net.cpp:122] Setting up fc8
I0428 13:45:20.280539  7476 net.cpp:129] Top shape: 32 196 (6272)
I0428 13:45:20.280541  7476 net.cpp:137] Memory required for data: 182464768
I0428 13:45:20.280555  7476 layer_factory.hpp:77] Creating layer fc8_fc8_0_split
I0428 13:45:20.280563  7476 net.cpp:84] Creating Layer fc8_fc8_0_split
I0428 13:45:20.280568  7476 net.cpp:406] fc8_fc8_0_split <- fc8
I0428 13:45:20.280575  7476 net.cpp:380] fc8_fc8_0_split -> fc8_fc8_0_split_0
I0428 13:45:20.280583  7476 net.cpp:380] fc8_fc8_0_split -> fc8_fc8_0_split_1
I0428 13:45:20.280622  7476 net.cpp:122] Setting up fc8_fc8_0_split
I0428 13:45:20.280627  7476 net.cpp:129] Top shape: 32 196 (6272)
I0428 13:45:20.280629  7476 net.cpp:129] Top shape: 32 196 (6272)
I0428 13:45:20.280632  7476 net.cpp:137] Memory required for data: 182514944
I0428 13:45:20.280635  7476 layer_factory.hpp:77] Creating layer accuracy
I0428 13:45:20.280642  7476 net.cpp:84] Creating Layer accuracy
I0428 13:45:20.280644  7476 net.cpp:406] accuracy <- fc8_fc8_0_split_0
I0428 13:45:20.280649  7476 net.cpp:406] accuracy <- label_val-data_1_split_0
I0428 13:45:20.280659  7476 net.cpp:380] accuracy -> accuracy
…
