…
I0419 13:24:31.701118 18289 net.cpp:294] The NetState phase (0) differed from the phase (1) specified by a rule in layer accuracy
I0419 13:24:31.701259 18289 net.cpp:51] Initializing net from parameters:
state {
phase: TRAIN
level: 0
stage: ""
}
layer {
name: "train-data"
type: "Data"
top: "data"
top: "label"
include {
phase: TRAIN
}
transform_param {
mirror: true
crop_size: 227
mean_file: "/mnt/bigdisk/DIGITS-AMB-2/digits/jobs/20210419-132146-0bfd/mean.binaryproto"
}
data_param {
source: "/mnt/bigdisk/DIGITS-AMB-2/digits/jobs/20210419-132146-0bfd/train_db"
batch_size: 128
backend: LMDB
}
}
layer {
name: "conv1"
type: "Convolution"
bottom: "data"
top: "conv1"
param {
lr_mult: 1
decay_mult: 1
}
param {
lr_mult: 2
decay_mult: 0
}
convolution_param {
num_output: 96
kernel_size: 11
stride: 4
weight_filler {
type: "gaussian"
std: 0.01
}
bias_filler {
type: "constant"
value: 0
}
}
}
layer {
name: "relu1"
type: "ReLU"
bottom: "conv1"
top: "conv1"
}
layer {
name: "norm1"
type: "LRN"
bottom: "conv1"
top: "norm1"
lrn_param {
local_size: 5
alpha: 0.0001
beta: 0.75
}
}
layer {
name: "pool1"
type: "Pooling"
bottom: "norm1"
top: "pool1"
pooling_param {
pool: MAX
kernel_size: 3
stride: 2
}
}
layer {
name: "conv2"
type: "Convolution"
bottom: "pool1"
top: "conv2"
param {
lr_mult: 1
decay_mult: 1
}
param {
lr_mult: 2
decay_mult: 0
}
convolution_param {
num_output: 256
pad: 2
kernel_size: 5
group: 2
weight_filler {
type: "gaussian"
std: 0.01
}
bias_filler {
type: "constant"
value: 0.1
}
}
}
layer {
name: "relu2"
type: "ReLU"
bottom: "conv2"
top: "conv2"
}
layer {
name: "norm2"
type: "LRN"
bottom: "conv2"
top: "norm2"
lrn_param {
local_size: 5
alpha: 0.0001
beta: 0.75
}
}
layer {
name: "pool2"
type: "Pooling"
bottom: "norm2"
top: "pool2"
pooling_param {
pool: MAX
kernel_size: 3
stride: 2
}
}
layer {
name: "conv3"
type: "Convolution"
bottom: "pool2"
top: "conv3"
param {
lr_mult: 1
decay_mult: 1
}
param {
lr_mult: 2
decay_mult: 0
}
convolution_param {
num_output: 384
pad: 1
kernel_size: 3
weight_filler {
type: "gaussian"
std: 0.01
}
bias_filler {
type: "constant"
value: 0
}
}
}
layer {
name: "relu3"
type: "ReLU"
bottom: "conv3"
top: "conv3"
}
layer {
name: "conv4"
type: "Convolution"
bottom: "conv3"
top: "conv4"
param {
lr_mult: 1
decay_mult: 1
}
param {
lr_mult: 2
decay_mult: 0
}
convolution_param {
num_output: 384
pad: 1
kernel_size: 3
group: 2
weight_filler {
type: "gaussian"
std: 0.01
}
bias_filler {
type: "constant"
value: 0.1
}
}
}
layer {
name: "relu4"
type: "ReLU"
bottom: "conv4"
top: "conv4"
}
layer {
name: "conv5"
type: "Convolution"
bottom: "conv4"
top: "conv5"
param {
lr_mult: 1
decay_mult: 1
}
param {
lr_mult: 2
decay_mult: 0
}
convolution_param {
num_output: 256
pad: 1
kernel_size: 3
group: 2
weight_filler {
type: "gaussian"
std: 0.01
}
bias_filler {
type: "constant"
value: 0.1
}
}
}
layer {
name: "relu5"
type: "ReLU"
bottom: "conv5"
top: "conv5"
}
layer {
name: "pool5"
type: "Pooling"
bottom: "conv5"
top: "pool5"
pooling_param {
pool: MAX
kernel_size: 3
stride: 2
}
}
layer {
name: "fc6"
type: "InnerProduct"
bottom: "pool5"
top: "fc6"
param {
lr_mult: 1
decay_mult: 1
}
param {
lr_mult: 2
decay_mult: 0
}
inner_product_param {
num_output: 4096
weight_filler {
type: "gaussian"
std: 0.005
}
bias_filler {
type: "constant"
value: 0.1
}
}
}
layer {
name: "relu6"
type: "ReLU"
bottom: "fc6"
top: "fc6"
}
layer {
name: "drop6"
type: "Dropout"
bottom: "fc6"
top: "fc6"
dropout_param {
dropout_ratio: 0.5
}
}
layer {
name: "fc7"
type: "InnerProduct"
bottom: "fc6"
top: "fc7"
param {
lr_mult: 1
decay_mult: 1
}
param {
lr_mult: 2
decay_mult: 0
}
inner_product_param {
num_output: 4096
weight_filler {
type: "gaussian"
std: 0.005
}
bias_filler {
type: "constant"
value: 0.1
}
}
}
layer {
name: "relu7"
type: "ReLU"
bottom: "fc7"
top: "fc7"
}
layer {
name: "drop7"
type: "Dropout"
bottom: "fc7"
top: "fc7"
dropout_param {
dropout_ratio: 0.5
}
}
layer {
name: "fc8"
type: "InnerProduct"
bottom: "fc7"
top: "fc8"
param {
lr_mult: 1
decay_mult: 1
}
param {
lr_mult: 2
decay_mult: 0
}
inner_product_param {
num_output: 196
weight_filler {
type: "gaussian"
std: 0.01
}
bias_filler {
type: "constant"
value: 0
}
}
}
layer {
name: "loss"
type: "SoftmaxWithLoss"
bottom: "fc8"
bottom: "label"
top: "loss"
}
I0419 13:24:31.701354 18289 layer_factory.hpp:77] Creating layer train-data
I0419 13:24:31.711390 18289 db_lmdb.cpp:35] Opened lmdb /mnt/bigdisk/DIGITS-AMB-2/digits/jobs/20210419-132146-0bfd/train_db
I0419 13:24:31.714392 18289 net.cpp:84] Creating Layer train-data
I0419 13:24:31.714413 18289 net.cpp:380] train-data -> data
I0419 13:24:31.714443 18289 net.cpp:380] train-data -> label
I0419 13:24:31.714463 18289 data_transformer.cpp:25] Loading mean file from: /mnt/bigdisk/DIGITS-AMB-2/digits/jobs/20210419-132146-0bfd/mean.binaryproto
I0419 13:24:31.721987 18289 data_layer.cpp:45] output data size: 128,3,227,227
I0419 13:24:31.870456 18289 net.cpp:122] Setting up train-data
I0419 13:24:31.870481 18289 net.cpp:129] Top shape: 128 3 227 227 (19787136)
I0419 13:24:31.870486 18289 net.cpp:129] Top shape: 128 (128)
I0419 13:24:31.870488 18289 net.cpp:137] Memory required for data: 79149056
I0419 13:24:31.870498 18289 layer_factory.hpp:77] Creating layer conv1
I0419 13:24:31.870543 18289 net.cpp:84] Creating Layer conv1
I0419 13:24:31.870549 18289 net.cpp:406] conv1 <- data
I0419 13:24:31.870563 18289 net.cpp:380] conv1 -> conv1
I0419 13:24:32.849535 18289 net.cpp:122] Setting up conv1
I0419 13:24:32.849553 18289 net.cpp:129] Top shape: 128 96 55 55 (37171200)
I0419 13:24:32.849557 18289 net.cpp:137] Memory required for data: 227833856
I0419 13:24:32.849576 18289 layer_factory.hpp:77] Creating layer relu1
I0419 13:24:32.849586 18289 net.cpp:84] Creating Layer relu1
I0419 13:24:32.849589 18289 net.cpp:406] relu1 <- conv1
I0419 13:24:32.849594 18289 net.cpp:367] relu1 -> conv1 (in-place)
I0419 13:24:32.849905 18289 net.cpp:122] Setting up relu1
I0419 13:24:32.849915 18289 net.cpp:129] Top shape: 128 96 55 55 (37171200)
I0419 13:24:32.849917 18289 net.cpp:137] Memory required for data: 376518656
I0419 13:24:32.849920 18289 layer_factory.hpp:77] Creating layer norm1
I0419 13:24:32.849928 18289 net.cpp:84] Creating Layer norm1
I0419 13:24:32.849931 18289 net.cpp:406] norm1 <- conv1
I0419 13:24:32.849952 18289 net.cpp:380] norm1 -> norm1
I0419 13:24:32.850499 18289 net.cpp:122] Setting up norm1
I0419 13:24:32.850509 18289 net.cpp:129] Top shape: 128 96 55 55 (37171200)
I0419 13:24:32.850512 18289 net.cpp:137] Memory required for data: 525203456
I0419 13:24:32.850515 18289 layer_factory.hpp:77] Creating layer pool1
I0419 13:24:32.850522 18289 net.cpp:84] Creating Layer pool1
I0419 13:24:32.850525 18289 net.cpp:406] pool1 <- norm1
I0419 13:24:32.850531 18289 net.cpp:380] pool1 -> pool1
I0419 13:24:32.850565 18289 net.cpp:122] Setting up pool1
I0419 13:24:32.850571 18289 net.cpp:129] Top shape: 128 96 27 27 (8957952)
I0419 13:24:32.850574 18289 net.cpp:137] Memory required for data: 561035264
I0419 13:24:32.850576 18289 layer_factory.hpp:77] Creating layer conv2
I0419 13:24:32.850589 18289 net.cpp:84] Creating Layer conv2
I0419 13:24:32.850591 18289 net.cpp:406] conv2 <- pool1
I0419 13:24:32.850596 18289 net.cpp:380] conv2 -> conv2
I0419 13:24:32.858649 18289 net.cpp:122] Setting up conv2
I0419 13:24:32.858661 18289 net.cpp:129] Top shape: 128 256 27 27 (23887872)
I0419 13:24:32.858664 18289 net.cpp:137] Memory required for data: 656586752
I0419 13:24:32.858673 18289 layer_factory.hpp:77] Creating layer relu2
I0419 13:24:32.858678 18289 net.cpp:84] Creating Layer relu2
I0419 13:24:32.858682 18289 net.cpp:406] relu2 <- conv2
I0419 13:24:32.858686 18289 net.cpp:367] relu2 -> conv2 (in-place)
I0419 13:24:32.859254 18289 net.cpp:122] Setting up relu2
I0419 13:24:32.859266 18289 net.cpp:129] Top shape: 128 256 27 27 (23887872)
I0419 13:24:32.859268 18289 net.cpp:137] Memory required for data: 752138240
I0419 13:24:32.859272 18289 layer_factory.hpp:77] Creating layer norm2
I0419 13:24:32.859277 18289 net.cpp:84] Creating Layer norm2
I0419 13:24:32.859280 18289 net.cpp:406] norm2 <- conv2
I0419 13:24:32.859287 18289 net.cpp:380] norm2 -> norm2
I0419 13:24:32.859675 18289 net.cpp:122] Setting up norm2
I0419 13:24:32.859684 18289 net.cpp:129] Top shape: 128 256 27 27 (23887872)
I0419 13:24:32.859686 18289 net.cpp:137] Memory required for data: 847689728
I0419 13:24:32.859690 18289 layer_factory.hpp:77] Creating layer pool2
I0419 13:24:32.859699 18289 net.cpp:84] Creating Layer pool2
I0419 13:24:32.859701 18289 net.cpp:406] pool2 <- norm2
I0419 13:24:32.859705 18289 net.cpp:380] pool2 -> pool2
I0419 13:24:32.859733 18289 net.cpp:122] Setting up pool2
I0419 13:24:32.859738 18289 net.cpp:129] Top shape: 128 256 13 13 (5537792)
I0419 13:24:32.859740 18289 net.cpp:137] Memory required for data: 869840896
I0419 13:24:32.859743 18289 layer_factory.hpp:77] Creating layer conv3
I0419 13:24:32.859752 18289 net.cpp:84] Creating Layer conv3
I0419 13:24:32.859755 18289 net.cpp:406] conv3 <- pool2
I0419 13:24:32.859761 18289 net.cpp:380] conv3 -> conv3
I0419 13:24:32.873345 18289 net.cpp:122] Setting up conv3
I0419 13:24:32.873356 18289 net.cpp:129] Top shape: 128 384 13 13 (8306688)
I0419 13:24:32.873359 18289 net.cpp:137] Memory required for data: 903067648
I0419 13:24:32.873368 18289 layer_factory.hpp:77] Creating layer relu3
I0419 13:24:32.873374 18289 net.cpp:84] Creating Layer relu3
I0419 13:24:32.873378 18289 net.cpp:406] relu3 <- conv3
I0419 13:24:32.873383 18289 net.cpp:367] relu3 -> conv3 (in-place)
I0419 13:24:32.873976 18289 net.cpp:122] Setting up relu3
I0419 13:24:32.873986 18289 net.cpp:129] Top shape: 128 384 13 13 (8306688)
I0419 13:24:32.873988 18289 net.cpp:137] Memory required for data: 936294400
I0419 13:24:32.873991 18289 layer_factory.hpp:77] Creating layer conv4
I0419 13:24:32.874001 18289 net.cpp:84] Creating Layer conv4
I0419 13:24:32.874004 18289 net.cpp:406] conv4 <- conv3
I0419 13:24:32.874011 18289 net.cpp:380] conv4 -> conv4
I0419 13:24:32.886040 18289 net.cpp:122] Setting up conv4
I0419 13:24:32.886054 18289 net.cpp:129] Top shape: 128 384 13 13 (8306688)
I0419 13:24:32.886057 18289 net.cpp:137] Memory required for data: 969521152
I0419 13:24:32.886065 18289 layer_factory.hpp:77] Creating layer relu4
I0419 13:24:32.886071 18289 net.cpp:84] Creating Layer relu4
I0419 13:24:32.886087 18289 net.cpp:406] relu4 <- conv4
I0419 13:24:32.886094 18289 net.cpp:367] relu4 -> conv4 (in-place)
I0419 13:24:32.886656 18289 net.cpp:122] Setting up relu4
I0419 13:24:32.886665 18289 net.cpp:129] Top shape: 128 384 13 13 (8306688)
I0419 13:24:32.886668 18289 net.cpp:137] Memory required for data: 1002747904
I0419 13:24:32.886672 18289 layer_factory.hpp:77] Creating layer conv5
I0419 13:24:32.886682 18289 net.cpp:84] Creating Layer conv5
I0419 13:24:32.886685 18289 net.cpp:406] conv5 <- conv4
I0419 13:24:32.886693 18289 net.cpp:380] conv5 -> conv5
I0419 13:24:32.895932 18289 net.cpp:122] Setting up conv5
I0419 13:24:32.895946 18289 net.cpp:129] Top shape: 128 256 13 13 (5537792)
I0419 13:24:32.895949 18289 net.cpp:137] Memory required for data: 1024899072
I0419 13:24:32.895960 18289 layer_factory.hpp:77] Creating layer relu5
I0419 13:24:32.895967 18289 net.cpp:84] Creating Layer relu5
I0419 13:24:32.895969 18289 net.cpp:406] relu5 <- conv5
I0419 13:24:32.895975 18289 net.cpp:367] relu5 -> conv5 (in-place)
I0419 13:24:32.896523 18289 net.cpp:122] Setting up relu5
I0419 13:24:32.896534 18289 net.cpp:129] Top shape: 128 256 13 13 (5537792)
I0419 13:24:32.896538 18289 net.cpp:137] Memory required for data: 1047050240
I0419 13:24:32.896540 18289 layer_factory.hpp:77] Creating layer pool5
I0419 13:24:32.896545 18289 net.cpp:84] Creating Layer pool5
I0419 13:24:32.896549 18289 net.cpp:406] pool5 <- conv5
I0419 13:24:32.896555 18289 net.cpp:380] pool5 -> pool5
I0419 13:24:32.896590 18289 net.cpp:122] Setting up pool5
I0419 13:24:32.896595 18289 net.cpp:129] Top shape: 128 256 6 6 (1179648)
I0419 13:24:32.896598 18289 net.cpp:137] Memory required for data: 1051768832
I0419 13:24:32.896601 18289 layer_factory.hpp:77] Creating layer fc6
I0419 13:24:32.896612 18289 net.cpp:84] Creating Layer fc6
I0419 13:24:32.896615 18289 net.cpp:406] fc6 <- pool5
I0419 13:24:32.896620 18289 net.cpp:380] fc6 -> fc6
I0419 13:24:33.272538 18289 net.cpp:122] Setting up fc6
I0419 13:24:33.272565 18289 net.cpp:129] Top shape: 128 4096 (524288)
I0419 13:24:33.272572 18289 net.cpp:137] Memory required for data: 1053865984
I0419 13:24:33.272584 18289 layer_factory.hpp:77] Creating layer relu6
I0419 13:24:33.272598 18289 net.cpp:84] Creating Layer relu6
I0419 13:24:33.272604 18289 net.cpp:406] relu6 <- fc6
I0419 13:24:33.272614 18289 net.cpp:367] relu6 -> fc6 (in-place)
I0419 13:24:33.273547 18289 net.cpp:122] Setting up relu6
I0419 13:24:33.273557 18289 net.cpp:129] Top shape: 128 4096 (524288)
I0419 13:24:33.273561 18289 net.cpp:137] Memory required for data: 1055963136
I0419 13:24:33.273563 18289 layer_factory.hpp:77] Creating layer drop6
I0419 13:24:33.273571 18289 net.cpp:84] Creating Layer drop6
I0419 13:24:33.273574 18289 net.cpp:406] drop6 <- fc6
I0419 13:24:33.273579 18289 net.cpp:367] drop6 -> fc6 (in-place)
I0419 13:24:33.273609 18289 net.cpp:122] Setting up drop6
I0419 13:24:33.273614 18289 net.cpp:129] Top shape: 128 4096 (524288)
I0419 13:24:33.273617 18289 net.cpp:137] Memory required for data: 1058060288
I0419 13:24:33.273619 18289 layer_factory.hpp:77] Creating layer fc7
I0419 13:24:33.273627 18289 net.cpp:84] Creating Layer fc7
I0419 13:24:33.273629 18289 net.cpp:406] fc7 <- fc6
I0419 13:24:33.273633 18289 net.cpp:380] fc7 -> fc7
I0419 13:24:33.433974 18289 net.cpp:122] Setting up fc7
I0419 13:24:33.433991 18289 net.cpp:129] Top shape: 128 4096 (524288)
I0419 13:24:33.433995 18289 net.cpp:137] Memory required for data: 1060157440
I0419 13:24:33.434003 18289 layer_factory.hpp:77] Creating layer relu7
I0419 13:24:33.434011 18289 net.cpp:84] Creating Layer relu7
I0419 13:24:33.434015 18289 net.cpp:406] relu7 <- fc7
I0419 13:24:33.434022 18289 net.cpp:367] relu7 -> fc7 (in-place)
I0419 13:24:33.434509 18289 net.cpp:122] Setting up relu7
I0419 13:24:33.434518 18289 net.cpp:129] Top shape: 128 4096 (524288)
I0419 13:24:33.434521 18289 net.cpp:137] Memory required for data: 1062254592
I0419 13:24:33.434525 18289 layer_factory.hpp:77] Creating layer drop7
I0419 13:24:33.434530 18289 net.cpp:84] Creating Layer drop7
I0419 13:24:33.434546 18289 net.cpp:406] drop7 <- fc7
I0419 13:24:33.434551 18289 net.cpp:367] drop7 -> fc7 (in-place)
I0419 13:24:33.434574 18289 net.cpp:122] Setting up drop7
I0419 13:24:33.434579 18289 net.cpp:129] Top shape: 128 4096 (524288)
I0419 13:24:33.434581 18289 net.cpp:137] Memory required for data: 1064351744
I0419 13:24:33.434584 18289 layer_factory.hpp:77] Creating layer fc8
I0419 13:24:33.434592 18289 net.cpp:84] Creating Layer fc8
I0419 13:24:33.434594 18289 net.cpp:406] fc8 <- fc7
I0419 13:24:33.434598 18289 net.cpp:380] fc8 -> fc8
I0419 13:24:33.443104 18289 net.cpp:122] Setting up fc8
I0419 13:24:33.443114 18289 net.cpp:129] Top shape: 128 196 (25088)
I0419 13:24:33.443117 18289 net.cpp:137] Memory required for data: 1064452096
I0419 13:24:33.443123 18289 layer_factory.hpp:77] Creating layer loss
I0419 13:24:33.443130 18289 net.cpp:84] Creating Layer loss
I0419 13:24:33.443132 18289 net.cpp:406] loss <- fc8
I0419 13:24:33.443136 18289 net.cpp:406] loss <- label
I0419 13:24:33.443142 18289 net.cpp:380] loss -> loss
I0419 13:24:33.443150 18289 layer_factory.hpp:77] Creating layer loss
…
I0419 13:24:33.445122 18289 net.cpp:294] The NetState phase (1) differed from the phase (0) specified by a rule in layer train-data
I0419 13:24:33.445261 18289 net.cpp:51] Initializing net from parameters:
state {
phase: TEST
}
layer {
name: "val-data"
type: "Data"
top: "data"
top: "label"
include {
phase: TEST
}
transform_param {
crop_size: 227
mean_file: "/mnt/bigdisk/DIGITS-AMB-2/digits/jobs/20210419-132146-0bfd/mean.binaryproto"
}
data_param {
source: "/mnt/bigdisk/DIGITS-AMB-2/digits/jobs/20210419-132146-0bfd/val_db"
batch_size: 32
backend: LMDB
}
}
layer {
name: "conv1"
type: "Convolution"
bottom: "data"
top: "conv1"
param {
lr_mult: 1
decay_mult: 1
}
param {
lr_mult: 2
decay_mult: 0
}
convolution_param {
num_output: 96
kernel_size: 11
stride: 4
weight_filler {
type: "gaussian"
std: 0.01
}
bias_filler {
type: "constant"
value: 0
}
}
}
layer {
name: "relu1"
type: "ReLU"
bottom: "conv1"
top: "conv1"
}
layer {
name: "norm1"
type: "LRN"
bottom: "conv1"
top: "norm1"
lrn_param {
local_size: 5
alpha: 0.0001
beta: 0.75
}
}
layer {
name: "pool1"
type: "Pooling"
bottom: "norm1"
top: "pool1"
pooling_param {
pool: MAX
kernel_size: 3
stride: 2
}
}
layer {
name: "conv2"
type: "Convolution"
bottom: "pool1"
top: "conv2"
param {
lr_mult: 1
decay_mult: 1
}
param {
lr_mult: 2
decay_mult: 0
}
convolution_param {
num_output: 256
pad: 2
kernel_size: 5
group: 2
weight_filler {
type: "gaussian"
std: 0.01
}
bias_filler {
type: "constant"
value: 0.1
}
}
}
layer {
name: "relu2"
type: "ReLU"
bottom: "conv2"
top: "conv2"
}
layer {
name: "norm2"
type: "LRN"
bottom: "conv2"
top: "norm2"
lrn_param {
local_size: 5
alpha: 0.0001
beta: 0.75
}
}
layer {
name: "pool2"
type: "Pooling"
bottom: "norm2"
top: "pool2"
pooling_param {
pool: MAX
kernel_size: 3
stride: 2
}
}
layer {
name: "conv3"
type: "Convolution"
bottom: "pool2"
top: "conv3"
param {
lr_mult: 1
decay_mult: 1
}
param {
lr_mult: 2
decay_mult: 0
}
convolution_param {
num_output: 384
pad: 1
kernel_size: 3
weight_filler {
type: "gaussian"
std: 0.01
}
bias_filler {
type: "constant"
value: 0
}
}
}
layer {
name: "relu3"
type: "ReLU"
bottom: "conv3"
top: "conv3"
}
layer {
name: "conv4"
type: "Convolution"
bottom: "conv3"
top: "conv4"
param {
lr_mult: 1
decay_mult: 1
}
param {
lr_mult: 2
decay_mult: 0
}
convolution_param {
num_output: 384
pad: 1
kernel_size: 3
group: 2
weight_filler {
type: "gaussian"
std: 0.01
}
bias_filler {
type: "constant"
value: 0.1
}
}
}
layer {
name: "relu4"
type: "ReLU"
bottom: "conv4"
top: "conv4"
}
layer {
name: "conv5"
type: "Convolution"
bottom: "conv4"
top: "conv5"
param {
lr_mult: 1
decay_mult: 1
}
param {
lr_mult: 2
decay_mult: 0
}
convolution_param {
num_output: 256
pad: 1
kernel_size: 3
group: 2
weight_filler {
type: "gaussian"
std: 0.01
}
bias_filler {
type: "constant"
value: 0.1
}
}
}
layer {
name: "relu5"
type: "ReLU"
bottom: "conv5"
top: "conv5"
}
layer {
name: "pool5"
type: "Pooling"
bottom: "conv5"
top: "pool5"
pooling_param {
pool: MAX
kernel_size: 3
stride: 2
}
}
layer {
name: "fc6"
type: "InnerProduct"
bottom: "pool5"
top: "fc6"
param {
lr_mult: 1
decay_mult: 1
}
param {
lr_mult: 2
decay_mult: 0
}
inner_product_param {
num_output: 4096
weight_filler {
type: "gaussian"
std: 0.005
}
bias_filler {
type: "constant"
value: 0.1
}
}
}
layer {
name: "relu6"
type: "ReLU"
bottom: "fc6"
top: "fc6"
}
layer {
name: "drop6"
type: "Dropout"
bottom: "fc6"
top: "fc6"
dropout_param {
dropout_ratio: 0.5
}
}
layer {
name: "fc7"
type: "InnerProduct"
bottom: "fc6"
top: "fc7"
param {
lr_mult: 1
decay_mult: 1
}
param {
lr_mult: 2
decay_mult: 0
}
inner_product_param {
num_output: 4096
weight_filler {
type: "gaussian"
std: 0.005
}
bias_filler {
type: "constant"
value: 0.1
}
}
}
layer {
name: "relu7"
type: "ReLU"
bottom: "fc7"
top: "fc7"
}
layer {
name: "drop7"
type: "Dropout"
bottom: "fc7"
top: "fc7"
dropout_param {
dropout_ratio: 0.5
}
}
layer {
name: "fc8"
type: "InnerProduct"
bottom: "fc7"
top: "fc8"
param {
lr_mult: 1
decay_mult: 1
}
param {
lr_mult: 2
decay_mult: 0
}
inner_product_param {
num_output: 196
weight_filler {
type: "gaussian"
std: 0.01
}
bias_filler {
type: "constant"
value: 0
}
}
}
layer {
name: "accuracy"
type: "Accuracy"
bottom: "fc8"
bottom: "label"
top: "accuracy"
include {
phase: TEST
}
}
layer {
name: "loss"
type: "SoftmaxWithLoss"
bottom: "fc8"
bottom: "label"
top: "loss"
}
I0419 13:24:33.445359 18289 layer_factory.hpp:77] Creating layer val-data
I0419 13:24:33.455245 18289 db_lmdb.cpp:35] Opened lmdb /mnt/bigdisk/DIGITS-AMB-2/digits/jobs/20210419-132146-0bfd/val_db
I0419 13:24:33.458518 18289 net.cpp:84] Creating Layer val-data
I0419 13:24:33.458534 18289 net.cpp:380] val-data -> data
I0419 13:24:33.458545 18289 net.cpp:380] val-data -> label
I0419 13:24:33.458554 18289 data_transformer.cpp:25] Loading mean file from: /mnt/bigdisk/DIGITS-AMB-2/digits/jobs/20210419-132146-0bfd/mean.binaryproto
I0419 13:24:33.464579 18289 data_layer.cpp:45] output data size: 32,3,227,227
I0419 13:24:33.499325 18289 net.cpp:122] Setting up val-data
I0419 13:24:33.499348 18289 net.cpp:129] Top shape: 32 3 227 227 (4946784)
I0419 13:24:33.499352 18289 net.cpp:129] Top shape: 32 (32)
I0419 13:24:33.499356 18289 net.cpp:137] Memory required for data: 19787264
I0419 13:24:33.499361 18289 layer_factory.hpp:77] Creating layer label_val-data_1_split
I0419 13:24:33.499372 18289 net.cpp:84] Creating Layer label_val-data_1_split
I0419 13:24:33.499377 18289 net.cpp:406] label_val-data_1_split <- label
I0419 13:24:33.499382 18289 net.cpp:380] label_val-data_1_split -> label_val-data_1_split_0
I0419 13:24:33.499392 18289 net.cpp:380] label_val-data_1_split -> label_val-data_1_split_1
I0419 13:24:33.499433 18289 net.cpp:122] Setting up label_val-data_1_split
I0419 13:24:33.499439 18289 net.cpp:129] Top shape: 32 (32)
I0419 13:24:33.499441 18289 net.cpp:129] Top shape: 32 (32)
I0419 13:24:33.499444 18289 net.cpp:137] Memory required for data: 19787520
I0419 13:24:33.499446 18289 layer_factory.hpp:77] Creating layer conv1
I0419 13:24:33.499457 18289 net.cpp:84] Creating Layer conv1
I0419 13:24:33.499460 18289 net.cpp:406] conv1 <- data
I0419 13:24:33.499464 18289 net.cpp:380] conv1 -> conv1
I0419 13:24:33.502543 18289 net.cpp:122] Setting up conv1
I0419 13:24:33.502553 18289 net.cpp:129] Top shape: 32 96 55 55 (9292800)
I0419 13:24:33.502557 18289 net.cpp:137] Memory required for data: 56958720
I0419 13:24:33.502566 18289 layer_factory.hpp:77] Creating layer relu1
I0419 13:24:33.502573 18289 net.cpp:84] Creating Layer relu1
I0419 13:24:33.502575 18289 net.cpp:406] relu1 <- conv1
I0419 13:24:33.502579 18289 net.cpp:367] relu1 -> conv1 (in-place)
I0419 13:24:33.502899 18289 net.cpp:122] Setting up relu1
I0419 13:24:33.502907 18289 net.cpp:129] Top shape: 32 96 55 55 (9292800)
I0419 13:24:33.502910 18289 net.cpp:137] Memory required for data: 94129920
I0419 13:24:33.502913 18289 layer_factory.hpp:77] Creating layer norm1
I0419 13:24:33.502921 18289 net.cpp:84] Creating Layer norm1
I0419 13:24:33.502924 18289 net.cpp:406] norm1 <- conv1
I0419 13:24:33.502928 18289 net.cpp:380] norm1 -> norm1
I0419 13:24:33.503440 18289 net.cpp:122] Setting up norm1
I0419 13:24:33.503450 18289 net.cpp:129] Top shape: 32 96 55 55 (9292800)
I0419 13:24:33.503453 18289 net.cpp:137] Memory required for data: 131301120
I0419 13:24:33.503456 18289 layer_factory.hpp:77] Creating layer pool1
I0419 13:24:33.503463 18289 net.cpp:84] Creating Layer pool1
I0419 13:24:33.503465 18289 net.cpp:406] pool1 <- norm1
I0419 13:24:33.503469 18289 net.cpp:380] pool1 -> pool1
I0419 13:24:33.503494 18289 net.cpp:122] Setting up pool1
I0419 13:24:33.503499 18289 net.cpp:129] Top shape: 32 96 27 27 (2239488)
I0419 13:24:33.503501 18289 net.cpp:137] Memory required for data: 140259072
I0419 13:24:33.503504 18289 layer_factory.hpp:77] Creating layer conv2
I0419 13:24:33.503511 18289 net.cpp:84] Creating Layer conv2
I0419 13:24:33.503513 18289 net.cpp:406] conv2 <- pool1
I0419 13:24:33.503537 18289 net.cpp:380] conv2 -> conv2
I0419 13:24:33.512336 18289 net.cpp:122] Setting up conv2
I0419 13:24:33.512347 18289 net.cpp:129] Top shape: 32 256 27 27 (5971968)
I0419 13:24:33.512351 18289 net.cpp:137] Memory required for data: 164146944
I0419 13:24:33.512359 18289 layer_factory.hpp:77] Creating layer relu2
I0419 13:24:33.512367 18289 net.cpp:84] Creating Layer relu2
I0419 13:24:33.512369 18289 net.cpp:406] relu2 <- conv2
I0419 13:24:33.512374 18289 net.cpp:367] relu2 -> conv2 (in-place)
I0419 13:24:33.512931 18289 net.cpp:122] Setting up relu2
I0419 13:24:33.512940 18289 net.cpp:129] Top shape: 32 256 27 27 (5971968)
I0419 13:24:33.512943 18289 net.cpp:137] Memory required for data: 188034816
I0419 13:24:33.512946 18289 layer_factory.hpp:77] Creating layer norm2
I0419 13:24:33.512955 18289 net.cpp:84] Creating Layer norm2
I0419 13:24:33.512959 18289 net.cpp:406] norm2 <- conv2
I0419 13:24:33.512964 18289 net.cpp:380] norm2 -> norm2
I0419 13:24:33.513725 18289 net.cpp:122] Setting up norm2
I0419 13:24:33.513736 18289 net.cpp:129] Top shape: 32 256 27 27 (5971968)
I0419 13:24:33.513738 18289 net.cpp:137] Memory required for data: 211922688
I0419 13:24:33.513742 18289 layer_factory.hpp:77] Creating layer pool2
I0419 13:24:33.513748 18289 net.cpp:84] Creating Layer pool2
I0419 13:24:33.513751 18289 net.cpp:406] pool2 <- norm2
I0419 13:24:33.513756 18289 net.cpp:380] pool2 -> pool2
I0419 13:24:33.513787 18289 net.cpp:122] Setting up pool2
I0419 13:24:33.513792 18289 net.cpp:129] Top shape: 32 256 13 13 (1384448)
I0419 13:24:33.513794 18289 net.cpp:137] Memory required for data: 217460480
I0419 13:24:33.513797 18289 layer_factory.hpp:77] Creating layer conv3
I0419 13:24:33.513805 18289 net.cpp:84] Creating Layer conv3
I0419 13:24:33.513810 18289 net.cpp:406] conv3 <- pool2
I0419 13:24:33.513814 18289 net.cpp:380] conv3 -> conv3
I0419 13:24:33.525365 18289 net.cpp:122] Setting up conv3
I0419 13:24:33.525378 18289 net.cpp:129] Top shape: 32 384 13 13 (2076672)
I0419 13:24:33.525382 18289 net.cpp:137] Memory required for data: 225767168
I0419 13:24:33.525391 18289 layer_factory.hpp:77] Creating layer relu3
I0419 13:24:33.525398 18289 net.cpp:84] Creating Layer relu3
I0419 13:24:33.525403 18289 net.cpp:406] relu3 <- conv3
I0419 13:24:33.525408 18289 net.cpp:367] relu3 -> conv3 (in-place)
I0419 13:24:33.525987 18289 net.cpp:122] Setting up relu3
I0419 13:24:33.525997 18289 net.cpp:129] Top shape: 32 384 13 13 (2076672)
I0419 13:24:33.526000 18289 net.cpp:137] Memory required for data: 234073856
I0419 13:24:33.526003 18289 layer_factory.hpp:77] Creating layer conv4
I0419 13:24:33.526013 18289 net.cpp:84] Creating Layer conv4
I0419 13:24:33.526016 18289 net.cpp:406] conv4 <- conv3
I0419 13:24:33.526023 18289 net.cpp:380] conv4 -> conv4
I0419 13:24:33.536222 18289 net.cpp:122] Setting up conv4
I0419 13:24:33.536232 18289 net.cpp:129] Top shape: 32 384 13 13 (2076672)
I0419 13:24:33.536235 18289 net.cpp:137] Memory required for data: 242380544
I0419 13:24:33.536242 18289 layer_factory.hpp:77] Creating layer relu4
I0419 13:24:33.536247 18289 net.cpp:84] Creating Layer relu4
I0419 13:24:33.536252 18289 net.cpp:406] relu4 <- conv4
I0419 13:24:33.536257 18289 net.cpp:367] relu4 -> conv4 (in-place)
I0419 13:24:33.536631 18289 net.cpp:122] Setting up relu4
I0419 13:24:33.536640 18289 net.cpp:129] Top shape: 32 384 13 13 (2076672)
I0419 13:24:33.536643 18289 net.cpp:137] Memory required for data: 250687232
I0419 13:24:33.536646 18289 layer_factory.hpp:77] Creating layer conv5
I0419 13:24:33.536655 18289 net.cpp:84] Creating Layer conv5
I0419 13:24:33.536659 18289 net.cpp:406] conv5 <- conv4
I0419 13:24:33.536665 18289 net.cpp:380] conv5 -> conv5
I0419 13:24:33.546200 18289 net.cpp:122] Setting up conv5
I0419 13:24:33.546211 18289 net.cpp:129] Top shape: 32 256 13 13 (1384448)
I0419 13:24:33.546214 18289 net.cpp:137] Memory required for data: 256225024
I0419 13:24:33.546226 18289 layer_factory.hpp:77] Creating layer relu5
I0419 13:24:33.546232 18289 net.cpp:84] Creating Layer relu5
I0419 13:24:33.546236 18289 net.cpp:406] relu5 <- conv5
I0419 13:24:33.546257 18289 net.cpp:367] relu5 -> conv5 (in-place)
I0419 13:24:33.546821 18289 net.cpp:122] Setting up relu5
I0419 13:24:33.546831 18289 net.cpp:129] Top shape: 32 256 13 13 (1384448)
I0419 13:24:33.546834 18289 net.cpp:137] Memory required for data: 261762816
I0419 13:24:33.546838 18289 layer_factory.hpp:77] Creating layer pool5
I0419 13:24:33.546847 18289 net.cpp:84] Creating Layer pool5
I0419 13:24:33.546850 18289 net.cpp:406] pool5 <- conv5
I0419 13:24:33.546855 18289 net.cpp:380] pool5 -> pool5
I0419 13:24:33.546890 18289 net.cpp:122] Setting up pool5
I0419 13:24:33.546896 18289 net.cpp:129] Top shape: 32 256 6 6 (294912)
I0419 13:24:33.546900 18289 net.cpp:137] Memory required for data: 262942464
I0419 13:24:33.546902 18289 layer_factory.hpp:77] Creating layer fc6
I0419 13:24:33.546911 18289 net.cpp:84] Creating Layer fc6
I0419 13:24:33.546912 18289 net.cpp:406] fc6 <- pool5
I0419 13:24:33.546917 18289 net.cpp:380] fc6 -> fc6
I0419 13:24:33.918118 18289 net.cpp:122] Setting up fc6
I0419 13:24:33.918146 18289 net.cpp:129] Top shape: 32 4096 (131072)
I0419 13:24:33.918151 18289 net.cpp:137] Memory required for data: 263466752
I0419 13:24:33.918165 18289 layer_factory.hpp:77] Creating layer relu6
I0419 13:24:33.918177 18289 net.cpp:84] Creating Layer relu6
I0419 13:24:33.918184 18289 net.cpp:406] relu6 <- fc6
I0419 13:24:33.918191 18289 net.cpp:367] relu6 -> fc6 (in-place)
I0419 13:24:33.919281 18289 net.cpp:122] Setting up relu6
I0419 13:24:33.919294 18289 net.cpp:129] Top shape: 32 4096 (131072)
I0419 13:24:33.919299 18289 net.cpp:137] Memory required for data: 263991040
I0419 13:24:33.919304 18289 layer_factory.hpp:77] Creating layer drop6
I0419 13:24:33.919314 18289 net.cpp:84] Creating Layer drop6
I0419 13:24:33.919319 18289 net.cpp:406] drop6 <- fc6
I0419 13:24:33.919327 18289 net.cpp:367] drop6 -> fc6 (in-place)
I0419 13:24:33.919363 18289 net.cpp:122] Setting up drop6
I0419 13:24:33.919371 18289 net.cpp:129] Top shape: 32 4096 (131072)
I0419 13:24:33.919375 18289 net.cpp:137] Memory required for data: 264515328
I0419 13:24:33.919379 18289 layer_factory.hpp:77] Creating layer fc7
I0419 13:24:33.919389 18289 net.cpp:84] Creating Layer fc7
I0419 13:24:33.919392 18289 net.cpp:406] fc7 <- fc6
I0419 13:24:33.919401 18289 net.cpp:380] fc7 -> fc7
I0419 13:24:34.083761 18289 net.cpp:122] Setting up fc7
I0419 13:24:34.083782 18289 net.cpp:129] Top shape: 32 4096 (131072)
I0419 13:24:34.083786 18289 net.cpp:137] Memory required for data: 265039616
I0419 13:24:34.083794 18289 layer_factory.hpp:77] Creating layer relu7
I0419 13:24:34.083802 18289 net.cpp:84] Creating Layer relu7
I0419 13:24:34.083806 18289 net.cpp:406] relu7 <- fc7
I0419 13:24:34.083813 18289 net.cpp:367] relu7 -> fc7 (in-place)
I0419 13:24:34.084291 18289 net.cpp:122] Setting up relu7
I0419 13:24:34.084306 18289 net.cpp:129] Top shape: 32 4096 (131072)
I0419 13:24:34.084308 18289 net.cpp:137] Memory required for data: 265563904
I0419 13:24:34.084311 18289 layer_factory.hpp:77] Creating layer drop7
I0419 13:24:34.084316 18289 net.cpp:84] Creating Layer drop7
I0419 13:24:34.084319 18289 net.cpp:406] drop7 <- fc7
I0419 13:24:34.084326 18289 net.cpp:367] drop7 -> fc7 (in-place)
I0419 13:24:34.084347 18289 net.cpp:122] Setting up drop7
I0419 13:24:34.084352 18289 net.cpp:129] Top shape: 32 4096 (131072)
I0419 13:24:34.084353 18289 net.cpp:137] Memory required for data: 266088192
I0419 13:24:34.084357 18289 layer_factory.hpp:77] Creating layer fc8
I0419 13:24:34.084363 18289 net.cpp:84] Creating Layer fc8
I0419 13:24:34.084367 18289 net.cpp:406] fc8 <- fc7
I0419 13:24:34.084372 18289 net.cpp:380] fc8 -> fc8
I0419 13:24:34.093180 18289 net.cpp:122] Setting up fc8
I0419 13:24:34.093191 18289 net.cpp:129] Top shape: 32 196 (6272)
I0419 13:24:34.093194 18289 net.cpp:137] Memory required for data: 266113280
I0419 13:24:34.093200 18289 layer_factory.hpp:77] Creating layer fc8_fc8_0_split
I0419 13:24:34.093206 18289 net.cpp:84] Creating Layer fc8_fc8_0_split
I0419 13:24:34.093209 18289 net.cpp:406] fc8_fc8_0_split <- fc8
I0419 13:24:34.093230 18289 net.cpp:380] fc8_fc8_0_split -> fc8_fc8_0_split_0
I0419 13:24:34.093235 18289 net.cpp:380] fc8_fc8_0_split -> fc8_fc8_0_split_1
I0419 13:24:34.093266 18289 net.cpp:122] Setting up fc8_fc8_0_split
I0419 13:24:34.093271 18289 net.cpp:129] Top shape: 32 196 (6272)
I0419 13:24:34.093273 18289 net.cpp:129] Top shape: 32 196 (6272)
I0419 13:24:34.093276 18289 net.cpp:137] Memory required for data: 266163456
I0419 13:24:34.093278 18289 layer_factory.hpp:77] Creating layer accuracy
I0419 13:24:34.093286 18289 net.cpp:84] Creating Layer accuracy
I0419 13:24:34.093288 18289 net.cpp:406] accuracy <- fc8_fc8_0_split_0
I0419 13:24:34.093291 18289 net.cpp:406] accuracy <- label_val-data_1_split_0
I0419 13:24:34.093297 18289 net.cpp:380] accuracy -> accuracy
…
