…
I0409 21:17:02.256240 24944 net.cpp:294] The NetState phase (0) differed from the phase (1) specified by a rule in layer accuracy
I0409 21:17:02.256392 24944 net.cpp:51] Initializing net from parameters:
state {
phase: TRAIN
level: 0
stage: ""
}
layer {
name: "train-data"
type: "Data"
top: "data"
top: "label"
include {
phase: TRAIN
}
transform_param {
mirror: true
crop_size: 227
mean_file: "/mnt/bigdisk/DIGITS-MAN-2/digits/jobs/20210407-214532-d396/mean.binaryproto"
}
data_param {
source: "/mnt/bigdisk/DIGITS-MAN-2/digits/jobs/20210407-214532-d396/train_db"
batch_size: 128
backend: LMDB
}
}
layer {
name: "conv1"
type: "Convolution"
bottom: "data"
top: "conv1"
param {
lr_mult: 1
decay_mult: 1
}
param {
lr_mult: 2
decay_mult: 0
}
convolution_param {
num_output: 96
kernel_size: 11
stride: 4
weight_filler {
type: "gaussian"
std: 0.01
}
bias_filler {
type: "constant"
value: 0
}
}
}
layer {
name: "relu1"
type: "ReLU"
bottom: "conv1"
top: "conv1"
}
layer {
name: "norm1"
type: "LRN"
bottom: "conv1"
top: "norm1"
lrn_param {
local_size: 5
alpha: 0.0001
beta: 0.75
}
}
layer {
name: "pool1"
type: "Pooling"
bottom: "norm1"
top: "pool1"
pooling_param {
pool: MAX
kernel_size: 3
stride: 2
}
}
layer {
name: "conv2"
type: "Convolution"
bottom: "pool1"
top: "conv2"
param {
lr_mult: 1
decay_mult: 1
}
param {
lr_mult: 2
decay_mult: 0
}
convolution_param {
num_output: 256
pad: 2
kernel_size: 5
group: 2
weight_filler {
type: "gaussian"
std: 0.01
}
bias_filler {
type: "constant"
value: 0.1
}
}
}
layer {
name: "relu2"
type: "ReLU"
bottom: "conv2"
top: "conv2"
}
layer {
name: "norm2"
type: "LRN"
bottom: "conv2"
top: "norm2"
lrn_param {
local_size: 5
alpha: 0.0001
beta: 0.75
}
}
layer {
name: "pool2"
type: "Pooling"
bottom: "norm2"
top: "pool2"
pooling_param {
pool: MAX
kernel_size: 3
stride: 2
}
}
layer {
name: "conv3"
type: "Convolution"
bottom: "pool2"
top: "conv3"
param {
lr_mult: 1
decay_mult: 1
}
param {
lr_mult: 2
decay_mult: 0
}
convolution_param {
num_output: 384
pad: 1
kernel_size: 3
weight_filler {
type: "gaussian"
std: 0.01
}
bias_filler {
type: "constant"
value: 0
}
}
}
layer {
name: "relu3"
type: "ReLU"
bottom: "conv3"
top: "conv3"
}
layer {
name: "conv4"
type: "Convolution"
bottom: "conv3"
top: "conv4"
param {
lr_mult: 1
decay_mult: 1
}
param {
lr_mult: 2
decay_mult: 0
}
convolution_param {
num_output: 384
pad: 1
kernel_size: 3
group: 2
weight_filler {
type: "gaussian"
std: 0.01
}
bias_filler {
type: "constant"
value: 0.1
}
}
}
layer {
name: "relu4"
type: "ReLU"
bottom: "conv4"
top: "conv4"
}
layer {
name: "conv5"
type: "Convolution"
bottom: "conv4"
top: "conv5"
param {
lr_mult: 1
decay_mult: 1
}
param {
lr_mult: 2
decay_mult: 0
}
convolution_param {
num_output: 256
pad: 1
kernel_size: 3
group: 2
weight_filler {
type: "gaussian"
std: 0.01
}
bias_filler {
type: "constant"
value: 0.1
}
}
}
layer {
name: "relu5"
type: "ReLU"
bottom: "conv5"
top: "conv5"
}
layer {
name: "pool5"
type: "Pooling"
bottom: "conv5"
top: "pool5"
pooling_param {
pool: MAX
kernel_size: 3
stride: 2
}
}
layer {
name: "fc6"
type: "InnerProduct"
bottom: "pool5"
top: "fc6"
param {
lr_mult: 1
decay_mult: 1
}
param {
lr_mult: 2
decay_mult: 0
}
inner_product_param {
num_output: 8192
weight_filler {
type: "gaussian"
std: 0.005
}
bias_filler {
type: "constant"
value: 0.1
}
}
}
layer {
name: "relu6"
type: "ReLU"
bottom: "fc6"
top: "fc6"
}
layer {
name: "drop6"
type: "Dropout"
bottom: "fc6"
top: "fc6"
dropout_param {
dropout_ratio: 0.5
}
}
layer {
name: "fc7"
type: "InnerProduct"
bottom: "fc6"
top: "fc7"
param {
lr_mult: 1
decay_mult: 1
}
param {
lr_mult: 2
decay_mult: 0
}
inner_product_param {
num_output: 8192
weight_filler {
type: "gaussian"
std: 0.005
}
bias_filler {
type: "constant"
value: 0.1
}
}
}
layer {
name: "relu7"
type: "ReLU"
bottom: "fc7"
top: "fc7"
}
layer {
name: "drop7"
type: "Dropout"
bottom: "fc7"
top: "fc7"
dropout_param {
dropout_ratio: 0.5
}
}
layer {
name: "fc7.5"
type: "InnerProduct"
bottom: "fc7"
top: "fc7.5"
param {
lr_mult: 1
decay_mult: 1
}
param {
lr_mult: 2
decay_mult: 0
}
inner_product_param {
num_output: 8192
weight_filler {
type: "gaussian"
std: 0.005
}
bias_filler {
type: "constant"
value: 0.1
}
}
}
layer {
name: "relu7.5"
type: "ReLU"
bottom: "fc7.5"
top: "fc7.5"
}
layer {
name: "drop7.5"
type: "Dropout"
bottom: "fc7.5"
top: "fc7.5"
dropout_param {
dropout_ratio: 0.5
}
}
layer {
name: "fc8"
type: "InnerProduct"
bottom: "fc7.5"
top: "fc8"
param {
lr_mult: 1
decay_mult: 1
}
param {
lr_mult: 2
decay_mult: 0
}
inner_product_param {
num_output: 196
weight_filler {
type: "gaussian"
std: 0.01
}
bias_filler {
type: "constant"
value: 0
}
}
}
layer {
name: "loss"
type: "SoftmaxWithLoss"
bottom: "fc8"
bottom: "label"
top: "loss"
}
I0409 21:17:02.256484 24944 layer_factory.hpp:77] Creating layer train-data
I0409 21:17:02.258920 24944 db_lmdb.cpp:35] Opened lmdb /mnt/bigdisk/DIGITS-MAN-2/digits/jobs/20210407-214532-d396/train_db
I0409 21:17:02.259143 24944 net.cpp:84] Creating Layer train-data
I0409 21:17:02.259153 24944 net.cpp:380] train-data -> data
I0409 21:17:02.259176 24944 net.cpp:380] train-data -> label
I0409 21:17:02.259187 24944 data_transformer.cpp:25] Loading mean file from: /mnt/bigdisk/DIGITS-MAN-2/digits/jobs/20210407-214532-d396/mean.binaryproto
I0409 21:17:02.264106 24944 data_layer.cpp:45] output data size: 128,3,227,227
I0409 21:17:02.393231 24944 net.cpp:122] Setting up train-data
I0409 21:17:02.393255 24944 net.cpp:129] Top shape: 128 3 227 227 (19787136)
I0409 21:17:02.393261 24944 net.cpp:129] Top shape: 128 (128)
I0409 21:17:02.393265 24944 net.cpp:137] Memory required for data: 79149056
I0409 21:17:02.393275 24944 layer_factory.hpp:77] Creating layer conv1
I0409 21:17:02.393296 24944 net.cpp:84] Creating Layer conv1
I0409 21:17:02.393302 24944 net.cpp:406] conv1 <- data
I0409 21:17:02.393316 24944 net.cpp:380] conv1 -> conv1
I0409 21:17:02.972707 24944 net.cpp:122] Setting up conv1
I0409 21:17:02.972728 24944 net.cpp:129] Top shape: 128 96 55 55 (37171200)
I0409 21:17:02.972731 24944 net.cpp:137] Memory required for data: 227833856
I0409 21:17:02.972751 24944 layer_factory.hpp:77] Creating layer relu1
I0409 21:17:02.972796 24944 net.cpp:84] Creating Layer relu1
I0409 21:17:02.972801 24944 net.cpp:406] relu1 <- conv1
I0409 21:17:02.972807 24944 net.cpp:367] relu1 -> conv1 (in-place)
I0409 21:17:02.973093 24944 net.cpp:122] Setting up relu1
I0409 21:17:02.973102 24944 net.cpp:129] Top shape: 128 96 55 55 (37171200)
I0409 21:17:02.973106 24944 net.cpp:137] Memory required for data: 376518656
I0409 21:17:02.973109 24944 layer_factory.hpp:77] Creating layer norm1
I0409 21:17:02.973119 24944 net.cpp:84] Creating Layer norm1
I0409 21:17:02.973121 24944 net.cpp:406] norm1 <- conv1
I0409 21:17:02.973127 24944 net.cpp:380] norm1 -> norm1
I0409 21:17:02.973558 24944 net.cpp:122] Setting up norm1
I0409 21:17:02.973567 24944 net.cpp:129] Top shape: 128 96 55 55 (37171200)
I0409 21:17:02.973572 24944 net.cpp:137] Memory required for data: 525203456
I0409 21:17:02.973575 24944 layer_factory.hpp:77] Creating layer pool1
I0409 21:17:02.973583 24944 net.cpp:84] Creating Layer pool1
I0409 21:17:02.973587 24944 net.cpp:406] pool1 <- norm1
I0409 21:17:02.973592 24944 net.cpp:380] pool1 -> pool1
I0409 21:17:02.973628 24944 net.cpp:122] Setting up pool1
I0409 21:17:02.973634 24944 net.cpp:129] Top shape: 128 96 27 27 (8957952)
I0409 21:17:02.973636 24944 net.cpp:137] Memory required for data: 561035264
I0409 21:17:02.973640 24944 layer_factory.hpp:77] Creating layer conv2
I0409 21:17:02.973649 24944 net.cpp:84] Creating Layer conv2
I0409 21:17:02.973652 24944 net.cpp:406] conv2 <- pool1
I0409 21:17:02.973657 24944 net.cpp:380] conv2 -> conv2
I0409 21:17:02.980592 24944 net.cpp:122] Setting up conv2
I0409 21:17:02.980609 24944 net.cpp:129] Top shape: 128 256 27 27 (23887872)
I0409 21:17:02.980613 24944 net.cpp:137] Memory required for data: 656586752
I0409 21:17:02.980623 24944 layer_factory.hpp:77] Creating layer relu2
I0409 21:17:02.980631 24944 net.cpp:84] Creating Layer relu2
I0409 21:17:02.980635 24944 net.cpp:406] relu2 <- conv2
I0409 21:17:02.980641 24944 net.cpp:367] relu2 -> conv2 (in-place)
I0409 21:17:02.981129 24944 net.cpp:122] Setting up relu2
I0409 21:17:02.981138 24944 net.cpp:129] Top shape: 128 256 27 27 (23887872)
I0409 21:17:02.981142 24944 net.cpp:137] Memory required for data: 752138240
I0409 21:17:02.981145 24944 layer_factory.hpp:77] Creating layer norm2
I0409 21:17:02.981153 24944 net.cpp:84] Creating Layer norm2
I0409 21:17:02.981158 24944 net.cpp:406] norm2 <- conv2
I0409 21:17:02.981163 24944 net.cpp:380] norm2 -> norm2
I0409 21:17:02.981514 24944 net.cpp:122] Setting up norm2
I0409 21:17:02.981523 24944 net.cpp:129] Top shape: 128 256 27 27 (23887872)
I0409 21:17:02.981525 24944 net.cpp:137] Memory required for data: 847689728
I0409 21:17:02.981529 24944 layer_factory.hpp:77] Creating layer pool2
I0409 21:17:02.981539 24944 net.cpp:84] Creating Layer pool2
I0409 21:17:02.981541 24944 net.cpp:406] pool2 <- norm2
I0409 21:17:02.981546 24944 net.cpp:380] pool2 -> pool2
I0409 21:17:02.981575 24944 net.cpp:122] Setting up pool2
I0409 21:17:02.981580 24944 net.cpp:129] Top shape: 128 256 13 13 (5537792)
I0409 21:17:02.981583 24944 net.cpp:137] Memory required for data: 869840896
I0409 21:17:02.981586 24944 layer_factory.hpp:77] Creating layer conv3
I0409 21:17:02.981596 24944 net.cpp:84] Creating Layer conv3
I0409 21:17:02.981599 24944 net.cpp:406] conv3 <- pool2
I0409 21:17:02.981606 24944 net.cpp:380] conv3 -> conv3
I0409 21:17:02.991652 24944 net.cpp:122] Setting up conv3
I0409 21:17:02.991669 24944 net.cpp:129] Top shape: 128 384 13 13 (8306688)
I0409 21:17:02.991673 24944 net.cpp:137] Memory required for data: 903067648
I0409 21:17:02.991683 24944 layer_factory.hpp:77] Creating layer relu3
I0409 21:17:02.991691 24944 net.cpp:84] Creating Layer relu3
I0409 21:17:02.991694 24944 net.cpp:406] relu3 <- conv3
I0409 21:17:02.991701 24944 net.cpp:367] relu3 -> conv3 (in-place)
I0409 21:17:02.992185 24944 net.cpp:122] Setting up relu3
I0409 21:17:02.992195 24944 net.cpp:129] Top shape: 128 384 13 13 (8306688)
I0409 21:17:02.992198 24944 net.cpp:137] Memory required for data: 936294400
I0409 21:17:02.992202 24944 layer_factory.hpp:77] Creating layer conv4
I0409 21:17:02.992233 24944 net.cpp:84] Creating Layer conv4
I0409 21:17:02.992236 24944 net.cpp:406] conv4 <- conv3
I0409 21:17:02.992242 24944 net.cpp:380] conv4 -> conv4
I0409 21:17:03.002665 24944 net.cpp:122] Setting up conv4
I0409 21:17:03.002681 24944 net.cpp:129] Top shape: 128 384 13 13 (8306688)
I0409 21:17:03.002684 24944 net.cpp:137] Memory required for data: 969521152
I0409 21:17:03.002693 24944 layer_factory.hpp:77] Creating layer relu4
I0409 21:17:03.002702 24944 net.cpp:84] Creating Layer relu4
I0409 21:17:03.002707 24944 net.cpp:406] relu4 <- conv4
I0409 21:17:03.002714 24944 net.cpp:367] relu4 -> conv4 (in-place)
I0409 21:17:03.003057 24944 net.cpp:122] Setting up relu4
I0409 21:17:03.003067 24944 net.cpp:129] Top shape: 128 384 13 13 (8306688)
I0409 21:17:03.003070 24944 net.cpp:137] Memory required for data: 1002747904
I0409 21:17:03.003074 24944 layer_factory.hpp:77] Creating layer conv5
I0409 21:17:03.003087 24944 net.cpp:84] Creating Layer conv5
I0409 21:17:03.003089 24944 net.cpp:406] conv5 <- conv4
I0409 21:17:03.003095 24944 net.cpp:380] conv5 -> conv5
I0409 21:17:03.011471 24944 net.cpp:122] Setting up conv5
I0409 21:17:03.011487 24944 net.cpp:129] Top shape: 128 256 13 13 (5537792)
I0409 21:17:03.011490 24944 net.cpp:137] Memory required for data: 1024899072
I0409 21:17:03.011502 24944 layer_factory.hpp:77] Creating layer relu5
I0409 21:17:03.011509 24944 net.cpp:84] Creating Layer relu5
I0409 21:17:03.011513 24944 net.cpp:406] relu5 <- conv5
I0409 21:17:03.011520 24944 net.cpp:367] relu5 -> conv5 (in-place)
I0409 21:17:03.012001 24944 net.cpp:122] Setting up relu5
I0409 21:17:03.012010 24944 net.cpp:129] Top shape: 128 256 13 13 (5537792)
I0409 21:17:03.012014 24944 net.cpp:137] Memory required for data: 1047050240
I0409 21:17:03.012018 24944 layer_factory.hpp:77] Creating layer pool5
I0409 21:17:03.012027 24944 net.cpp:84] Creating Layer pool5
I0409 21:17:03.012030 24944 net.cpp:406] pool5 <- conv5
I0409 21:17:03.012037 24944 net.cpp:380] pool5 -> pool5
I0409 21:17:03.012073 24944 net.cpp:122] Setting up pool5
I0409 21:17:03.012079 24944 net.cpp:129] Top shape: 128 256 6 6 (1179648)
I0409 21:17:03.012082 24944 net.cpp:137] Memory required for data: 1051768832
I0409 21:17:03.012085 24944 layer_factory.hpp:77] Creating layer fc6
I0409 21:17:03.012095 24944 net.cpp:84] Creating Layer fc6
I0409 21:17:03.012099 24944 net.cpp:406] fc6 <- pool5
I0409 21:17:03.012104 24944 net.cpp:380] fc6 -> fc6
I0409 21:17:03.718580 24944 net.cpp:122] Setting up fc6
I0409 21:17:03.718600 24944 net.cpp:129] Top shape: 128 8192 (1048576)
I0409 21:17:03.718605 24944 net.cpp:137] Memory required for data: 1055963136
I0409 21:17:03.718613 24944 layer_factory.hpp:77] Creating layer relu6
I0409 21:17:03.718622 24944 net.cpp:84] Creating Layer relu6
I0409 21:17:03.718627 24944 net.cpp:406] relu6 <- fc6
I0409 21:17:03.718634 24944 net.cpp:367] relu6 -> fc6 (in-place)
I0409 21:17:03.719278 24944 net.cpp:122] Setting up relu6
I0409 21:17:03.719287 24944 net.cpp:129] Top shape: 128 8192 (1048576)
I0409 21:17:03.719290 24944 net.cpp:137] Memory required for data: 1060157440
I0409 21:17:03.719295 24944 layer_factory.hpp:77] Creating layer drop6
I0409 21:17:03.719300 24944 net.cpp:84] Creating Layer drop6
I0409 21:17:03.719305 24944 net.cpp:406] drop6 <- fc6
I0409 21:17:03.719311 24944 net.cpp:367] drop6 -> fc6 (in-place)
I0409 21:17:03.719336 24944 net.cpp:122] Setting up drop6
I0409 21:17:03.719341 24944 net.cpp:129] Top shape: 128 8192 (1048576)
I0409 21:17:03.719344 24944 net.cpp:137] Memory required for data: 1064351744
I0409 21:17:03.719347 24944 layer_factory.hpp:77] Creating layer fc7
I0409 21:17:03.719355 24944 net.cpp:84] Creating Layer fc7
I0409 21:17:03.719359 24944 net.cpp:406] fc7 <- fc6
I0409 21:17:03.719365 24944 net.cpp:380] fc7 -> fc7
I0409 21:17:04.348618 24944 net.cpp:122] Setting up fc7
I0409 21:17:04.348639 24944 net.cpp:129] Top shape: 128 8192 (1048576)
I0409 21:17:04.348642 24944 net.cpp:137] Memory required for data: 1068546048
I0409 21:17:04.348652 24944 layer_factory.hpp:77] Creating layer relu7
I0409 21:17:04.348680 24944 net.cpp:84] Creating Layer relu7
I0409 21:17:04.348685 24944 net.cpp:406] relu7 <- fc7
I0409 21:17:04.348692 24944 net.cpp:367] relu7 -> fc7 (in-place)
I0409 21:17:04.349295 24944 net.cpp:122] Setting up relu7
I0409 21:17:04.349305 24944 net.cpp:129] Top shape: 128 8192 (1048576)
I0409 21:17:04.349309 24944 net.cpp:137] Memory required for data: 1072740352
I0409 21:17:04.349314 24944 layer_factory.hpp:77] Creating layer drop7
I0409 21:17:04.349323 24944 net.cpp:84] Creating Layer drop7
I0409 21:17:04.349326 24944 net.cpp:406] drop7 <- fc7
I0409 21:17:04.349332 24944 net.cpp:367] drop7 -> fc7 (in-place)
I0409 21:17:04.349359 24944 net.cpp:122] Setting up drop7
I0409 21:17:04.349364 24944 net.cpp:129] Top shape: 128 8192 (1048576)
I0409 21:17:04.349367 24944 net.cpp:137] Memory required for data: 1076934656
I0409 21:17:04.349370 24944 layer_factory.hpp:77] Creating layer fc7.5
I0409 21:17:04.349377 24944 net.cpp:84] Creating Layer fc7.5
I0409 21:17:04.349380 24944 net.cpp:406] fc7.5 <- fc7
I0409 21:17:04.349386 24944 net.cpp:380] fc7.5 -> fc7.5
I0409 21:17:04.978307 24944 net.cpp:122] Setting up fc7.5
I0409 21:17:04.978330 24944 net.cpp:129] Top shape: 128 8192 (1048576)
I0409 21:17:04.978334 24944 net.cpp:137] Memory required for data: 1081128960
I0409 21:17:04.978344 24944 layer_factory.hpp:77] Creating layer relu7.5
I0409 21:17:04.978353 24944 net.cpp:84] Creating Layer relu7.5
I0409 21:17:04.978358 24944 net.cpp:406] relu7.5 <- fc7.5
I0409 21:17:04.978366 24944 net.cpp:367] relu7.5 -> fc7.5 (in-place)
I0409 21:17:04.979012 24944 net.cpp:122] Setting up relu7.5
I0409 21:17:04.979020 24944 net.cpp:129] Top shape: 128 8192 (1048576)
I0409 21:17:04.979024 24944 net.cpp:137] Memory required for data: 1085323264
I0409 21:17:04.979027 24944 layer_factory.hpp:77] Creating layer drop7.5
I0409 21:17:04.979034 24944 net.cpp:84] Creating Layer drop7.5
I0409 21:17:04.979038 24944 net.cpp:406] drop7.5 <- fc7.5
I0409 21:17:04.979044 24944 net.cpp:367] drop7.5 -> fc7.5 (in-place)
I0409 21:17:04.979066 24944 net.cpp:122] Setting up drop7.5
I0409 21:17:04.979072 24944 net.cpp:129] Top shape: 128 8192 (1048576)
I0409 21:17:04.979076 24944 net.cpp:137] Memory required for data: 1089517568
I0409 21:17:04.979079 24944 layer_factory.hpp:77] Creating layer fc8
I0409 21:17:04.979086 24944 net.cpp:84] Creating Layer fc8
I0409 21:17:04.979089 24944 net.cpp:406] fc8 <- fc7.5
I0409 21:17:04.979096 24944 net.cpp:380] fc8 -> fc8
I0409 21:17:04.996618 24944 net.cpp:122] Setting up fc8
I0409 21:17:04.996636 24944 net.cpp:129] Top shape: 128 196 (25088)
I0409 21:17:04.996640 24944 net.cpp:137] Memory required for data: 1089617920
I0409 21:17:04.996654 24944 layer_factory.hpp:77] Creating layer loss
I0409 21:17:04.996663 24944 net.cpp:84] Creating Layer loss
I0409 21:17:04.996667 24944 net.cpp:406] loss <- fc8
I0409 21:17:04.996673 24944 net.cpp:406] loss <- label
I0409 21:17:04.996685 24944 net.cpp:380] loss -> loss
I0409 21:17:04.996697 24944 layer_factory.hpp:77] Creating layer loss
…
I0409 21:17:05.031586 24944 net.cpp:294] The NetState phase (1) differed from the phase (0) specified by a rule in layer train-data
I0409 21:17:05.031756 24944 net.cpp:51] Initializing net from parameters:
state {
phase: TEST
}
layer {
name: "val-data"
type: "Data"
top: "data"
top: "label"
include {
phase: TEST
}
transform_param {
crop_size: 227
mean_file: "/mnt/bigdisk/DIGITS-MAN-2/digits/jobs/20210407-214532-d396/mean.binaryproto"
}
data_param {
source: "/mnt/bigdisk/DIGITS-MAN-2/digits/jobs/20210407-214532-d396/val_db"
batch_size: 32
backend: LMDB
}
}
layer {
name: "conv1"
type: "Convolution"
bottom: "data"
top: "conv1"
param {
lr_mult: 1
decay_mult: 1
}
param {
lr_mult: 2
decay_mult: 0
}
convolution_param {
num_output: 96
kernel_size: 11
stride: 4
weight_filler {
type: "gaussian"
std: 0.01
}
bias_filler {
type: "constant"
value: 0
}
}
}
layer {
name: "relu1"
type: "ReLU"
bottom: "conv1"
top: "conv1"
}
layer {
name: "norm1"
type: "LRN"
bottom: "conv1"
top: "norm1"
lrn_param {
local_size: 5
alpha: 0.0001
beta: 0.75
}
}
layer {
name: "pool1"
type: "Pooling"
bottom: "norm1"
top: "pool1"
pooling_param {
pool: MAX
kernel_size: 3
stride: 2
}
}
layer {
name: "conv2"
type: "Convolution"
bottom: "pool1"
top: "conv2"
param {
lr_mult: 1
decay_mult: 1
}
param {
lr_mult: 2
decay_mult: 0
}
convolution_param {
num_output: 256
pad: 2
kernel_size: 5
group: 2
weight_filler {
type: "gaussian"
std: 0.01
}
bias_filler {
type: "constant"
value: 0.1
}
}
}
layer {
name: "relu2"
type: "ReLU"
bottom: "conv2"
top: "conv2"
}
layer {
name: "norm2"
type: "LRN"
bottom: "conv2"
top: "norm2"
lrn_param {
local_size: 5
alpha: 0.0001
beta: 0.75
}
}
layer {
name: "pool2"
type: "Pooling"
bottom: "norm2"
top: "pool2"
pooling_param {
pool: MAX
kernel_size: 3
stride: 2
}
}
layer {
name: "conv3"
type: "Convolution"
bottom: "pool2"
top: "conv3"
param {
lr_mult: 1
decay_mult: 1
}
param {
lr_mult: 2
decay_mult: 0
}
convolution_param {
num_output: 384
pad: 1
kernel_size: 3
weight_filler {
type: "gaussian"
std: 0.01
}
bias_filler {
type: "constant"
value: 0
}
}
}
layer {
name: "relu3"
type: "ReLU"
bottom: "conv3"
top: "conv3"
}
layer {
name: "conv4"
type: "Convolution"
bottom: "conv3"
top: "conv4"
param {
lr_mult: 1
decay_mult: 1
}
param {
lr_mult: 2
decay_mult: 0
}
convolution_param {
num_output: 384
pad: 1
kernel_size: 3
group: 2
weight_filler {
type: "gaussian"
std: 0.01
}
bias_filler {
type: "constant"
value: 0.1
}
}
}
layer {
name: "relu4"
type: "ReLU"
bottom: "conv4"
top: "conv4"
}
layer {
name: "conv5"
type: "Convolution"
bottom: "conv4"
top: "conv5"
param {
lr_mult: 1
decay_mult: 1
}
param {
lr_mult: 2
decay_mult: 0
}
convolution_param {
num_output: 256
pad: 1
kernel_size: 3
group: 2
weight_filler {
type: "gaussian"
std: 0.01
}
bias_filler {
type: "constant"
value: 0.1
}
}
}
layer {
name: "relu5"
type: "ReLU"
bottom: "conv5"
top: "conv5"
}
layer {
name: "pool5"
type: "Pooling"
bottom: "conv5"
top: "pool5"
pooling_param {
pool: MAX
kernel_size: 3
stride: 2
}
}
layer {
name: "fc6"
type: "InnerProduct"
bottom: "pool5"
top: "fc6"
param {
lr_mult: 1
decay_mult: 1
}
param {
lr_mult: 2
decay_mult: 0
}
inner_product_param {
num_output: 8192
weight_filler {
type: "gaussian"
std: 0.005
}
bias_filler {
type: "constant"
value: 0.1
}
}
}
layer {
name: "relu6"
type: "ReLU"
bottom: "fc6"
top: "fc6"
}
layer {
name: "drop6"
type: "Dropout"
bottom: "fc6"
top: "fc6"
dropout_param {
dropout_ratio: 0.5
}
}
layer {
name: "fc7"
type: "InnerProduct"
bottom: "fc6"
top: "fc7"
param {
lr_mult: 1
decay_mult: 1
}
param {
lr_mult: 2
decay_mult: 0
}
inner_product_param {
num_output: 8192
weight_filler {
type: "gaussian"
std: 0.005
}
bias_filler {
type: "constant"
value: 0.1
}
}
}
layer {
name: "relu7"
type: "ReLU"
bottom: "fc7"
top: "fc7"
}
layer {
name: "drop7"
type: "Dropout"
bottom: "fc7"
top: "fc7"
dropout_param {
dropout_ratio: 0.5
}
}
layer {
name: "fc7.5"
type: "InnerProduct"
bottom: "fc7"
top: "fc7.5"
param {
lr_mult: 1
decay_mult: 1
}
param {
lr_mult: 2
decay_mult: 0
}
inner_product_param {
num_output: 8192
weight_filler {
type: "gaussian"
std: 0.005
}
bias_filler {
type: "constant"
value: 0.1
}
}
}
layer {
name: "relu7.5"
type: "ReLU"
bottom: "fc7.5"
top: "fc7.5"
}
layer {
name: "drop7.5"
type: "Dropout"
bottom: "fc7.5"
top: "fc7.5"
dropout_param {
dropout_ratio: 0.5
}
}
layer {
name: "fc8"
type: "InnerProduct"
bottom: "fc7.5"
top: "fc8"
param {
lr_mult: 1
decay_mult: 1
}
param {
lr_mult: 2
decay_mult: 0
}
inner_product_param {
num_output: 196
weight_filler {
type: "gaussian"
std: 0.01
}
bias_filler {
type: "constant"
value: 0
}
}
}
layer {
name: "accuracy"
type: "Accuracy"
bottom: "fc8"
bottom: "label"
top: "accuracy"
include {
phase: TEST
}
}
layer {
name: "loss"
type: "SoftmaxWithLoss"
bottom: "fc8"
bottom: "label"
top: "loss"
}
I0409 21:17:05.031868 24944 layer_factory.hpp:77] Creating layer val-data
I0409 21:17:05.330286 24944 db_lmdb.cpp:35] Opened lmdb /mnt/bigdisk/DIGITS-MAN-2/digits/jobs/20210407-214532-d396/val_db
I0409 21:17:05.330693 24944 net.cpp:84] Creating Layer val-data
I0409 21:17:05.330724 24944 net.cpp:380] val-data -> data
I0409 21:17:05.330745 24944 net.cpp:380] val-data -> label
I0409 21:17:05.330760 24944 data_transformer.cpp:25] Loading mean file from: /mnt/bigdisk/DIGITS-MAN-2/digits/jobs/20210407-214532-d396/mean.binaryproto
I0409 21:17:05.377247 24944 data_layer.cpp:45] output data size: 32,3,227,227
I0409 21:17:05.423035 24944 net.cpp:122] Setting up val-data
I0409 21:17:05.423063 24944 net.cpp:129] Top shape: 32 3 227 227 (4946784)
I0409 21:17:05.423071 24944 net.cpp:129] Top shape: 32 (32)
I0409 21:17:05.423076 24944 net.cpp:137] Memory required for data: 19787264
I0409 21:17:05.423110 24944 layer_factory.hpp:77] Creating layer label_val-data_1_split
I0409 21:17:05.423128 24944 net.cpp:84] Creating Layer label_val-data_1_split
I0409 21:17:05.423135 24944 net.cpp:406] label_val-data_1_split <- label
I0409 21:17:05.423143 24944 net.cpp:380] label_val-data_1_split -> label_val-data_1_split_0
I0409 21:17:05.423157 24944 net.cpp:380] label_val-data_1_split -> label_val-data_1_split_1
I0409 21:17:05.423223 24944 net.cpp:122] Setting up label_val-data_1_split
I0409 21:17:05.423230 24944 net.cpp:129] Top shape: 32 (32)
I0409 21:17:05.423236 24944 net.cpp:129] Top shape: 32 (32)
I0409 21:17:05.423240 24944 net.cpp:137] Memory required for data: 19787520
I0409 21:17:05.423245 24944 layer_factory.hpp:77] Creating layer conv1
I0409 21:17:05.423262 24944 net.cpp:84] Creating Layer conv1
I0409 21:17:05.423267 24944 net.cpp:406] conv1 <- data
I0409 21:17:05.423276 24944 net.cpp:380] conv1 -> conv1
I0409 21:17:05.427137 24944 net.cpp:122] Setting up conv1
I0409 21:17:05.427155 24944 net.cpp:129] Top shape: 32 96 55 55 (9292800)
I0409 21:17:05.427160 24944 net.cpp:137] Memory required for data: 56958720
I0409 21:17:05.427175 24944 layer_factory.hpp:77] Creating layer relu1
I0409 21:17:05.427186 24944 net.cpp:84] Creating Layer relu1
I0409 21:17:05.427191 24944 net.cpp:406] relu1 <- conv1
I0409 21:17:05.427198 24944 net.cpp:367] relu1 -> conv1 (in-place)
I0409 21:17:05.427891 24944 net.cpp:122] Setting up relu1
I0409 21:17:05.427906 24944 net.cpp:129] Top shape: 32 96 55 55 (9292800)
I0409 21:17:05.427911 24944 net.cpp:137] Memory required for data: 94129920
I0409 21:17:05.427917 24944 layer_factory.hpp:77] Creating layer norm1
I0409 21:17:05.427928 24944 net.cpp:84] Creating Layer norm1
I0409 21:17:05.427933 24944 net.cpp:406] norm1 <- conv1
I0409 21:17:05.427942 24944 net.cpp:380] norm1 -> norm1
I0409 21:17:05.429980 24944 net.cpp:122] Setting up norm1
I0409 21:17:05.429996 24944 net.cpp:129] Top shape: 32 96 55 55 (9292800)
I0409 21:17:05.430001 24944 net.cpp:137] Memory required for data: 131301120
I0409 21:17:05.430006 24944 layer_factory.hpp:77] Creating layer pool1
I0409 21:17:05.430016 24944 net.cpp:84] Creating Layer pool1
I0409 21:17:05.430022 24944 net.cpp:406] pool1 <- norm1
I0409 21:17:05.430030 24944 net.cpp:380] pool1 -> pool1
I0409 21:17:05.430076 24944 net.cpp:122] Setting up pool1
I0409 21:17:05.430084 24944 net.cpp:129] Top shape: 32 96 27 27 (2239488)
I0409 21:17:05.430089 24944 net.cpp:137] Memory required for data: 140259072
I0409 21:17:05.430094 24944 layer_factory.hpp:77] Creating layer conv2
I0409 21:17:05.430106 24944 net.cpp:84] Creating Layer conv2
I0409 21:17:05.430111 24944 net.cpp:406] conv2 <- pool1
I0409 21:17:05.430119 24944 net.cpp:380] conv2 -> conv2
I0409 21:17:05.439756 24944 net.cpp:122] Setting up conv2
I0409 21:17:05.439774 24944 net.cpp:129] Top shape: 32 256 27 27 (5971968)
I0409 21:17:05.439779 24944 net.cpp:137] Memory required for data: 164146944
I0409 21:17:05.439792 24944 layer_factory.hpp:77] Creating layer relu2
I0409 21:17:05.439803 24944 net.cpp:84] Creating Layer relu2
I0409 21:17:05.439810 24944 net.cpp:406] relu2 <- conv2
I0409 21:17:05.439817 24944 net.cpp:367] relu2 -> conv2 (in-place)
I0409 21:17:05.440572 24944 net.cpp:122] Setting up relu2
I0409 21:17:05.440585 24944 net.cpp:129] Top shape: 32 256 27 27 (5971968)
I0409 21:17:05.440590 24944 net.cpp:137] Memory required for data: 188034816
I0409 21:17:05.440595 24944 layer_factory.hpp:77] Creating layer norm2
I0409 21:17:05.440609 24944 net.cpp:84] Creating Layer norm2
I0409 21:17:05.440614 24944 net.cpp:406] norm2 <- conv2
I0409 21:17:05.440623 24944 net.cpp:380] norm2 -> norm2
I0409 21:17:05.441191 24944 net.cpp:122] Setting up norm2
I0409 21:17:05.441205 24944 net.cpp:129] Top shape: 32 256 27 27 (5971968)
I0409 21:17:05.441210 24944 net.cpp:137] Memory required for data: 211922688
I0409 21:17:05.441215 24944 layer_factory.hpp:77] Creating layer pool2
I0409 21:17:05.441226 24944 net.cpp:84] Creating Layer pool2
I0409 21:17:05.441231 24944 net.cpp:406] pool2 <- norm2
I0409 21:17:05.441260 24944 net.cpp:380] pool2 -> pool2
I0409 21:17:05.441308 24944 net.cpp:122] Setting up pool2
I0409 21:17:05.441315 24944 net.cpp:129] Top shape: 32 256 13 13 (1384448)
I0409 21:17:05.441320 24944 net.cpp:137] Memory required for data: 217460480
I0409 21:17:05.441325 24944 layer_factory.hpp:77] Creating layer conv3
I0409 21:17:05.441339 24944 net.cpp:84] Creating Layer conv3
I0409 21:17:05.441344 24944 net.cpp:406] conv3 <- pool2
I0409 21:17:05.441352 24944 net.cpp:380] conv3 -> conv3
I0409 21:17:05.458020 24944 net.cpp:122] Setting up conv3
I0409 21:17:05.458041 24944 net.cpp:129] Top shape: 32 384 13 13 (2076672)
I0409 21:17:05.458046 24944 net.cpp:137] Memory required for data: 225767168
I0409 21:17:05.458062 24944 layer_factory.hpp:77] Creating layer relu3
I0409 21:17:05.458073 24944 net.cpp:84] Creating Layer relu3
I0409 21:17:05.458079 24944 net.cpp:406] relu3 <- conv3
I0409 21:17:05.458089 24944 net.cpp:367] relu3 -> conv3 (in-place)
I0409 21:17:05.458591 24944 net.cpp:122] Setting up relu3
I0409 21:17:05.458602 24944 net.cpp:129] Top shape: 32 384 13 13 (2076672)
I0409 21:17:05.458607 24944 net.cpp:137] Memory required for data: 234073856
I0409 21:17:05.458612 24944 layer_factory.hpp:77] Creating layer conv4
I0409 21:17:05.458626 24944 net.cpp:84] Creating Layer conv4
I0409 21:17:05.458631 24944 net.cpp:406] conv4 <- conv3
I0409 21:17:05.458640 24944 net.cpp:380] conv4 -> conv4
I0409 21:17:05.472045 24944 net.cpp:122] Setting up conv4
I0409 21:17:05.472064 24944 net.cpp:129] Top shape: 32 384 13 13 (2076672)
I0409 21:17:05.472069 24944 net.cpp:137] Memory required for data: 242380544
I0409 21:17:05.472079 24944 layer_factory.hpp:77] Creating layer relu4
I0409 21:17:05.472090 24944 net.cpp:84] Creating Layer relu4
I0409 21:17:05.472095 24944 net.cpp:406] relu4 <- conv4
I0409 21:17:05.472102 24944 net.cpp:367] relu4 -> conv4 (in-place)
I0409 21:17:05.472761 24944 net.cpp:122] Setting up relu4
I0409 21:17:05.472772 24944 net.cpp:129] Top shape: 32 384 13 13 (2076672)
I0409 21:17:05.472777 24944 net.cpp:137] Memory required for data: 250687232
I0409 21:17:05.472782 24944 layer_factory.hpp:77] Creating layer conv5
I0409 21:17:05.472797 24944 net.cpp:84] Creating Layer conv5
I0409 21:17:05.472801 24944 net.cpp:406] conv5 <- conv4
I0409 21:17:05.472810 24944 net.cpp:380] conv5 -> conv5
I0409 21:17:05.484277 24944 net.cpp:122] Setting up conv5
I0409 21:17:05.484297 24944 net.cpp:129] Top shape: 32 256 13 13 (1384448)
I0409 21:17:05.484302 24944 net.cpp:137] Memory required for data: 256225024
I0409 21:17:05.484315 24944 layer_factory.hpp:77] Creating layer relu5
I0409 21:17:05.484324 24944 net.cpp:84] Creating Layer relu5
I0409 21:17:05.484329 24944 net.cpp:406] relu5 <- conv5
I0409 21:17:05.484338 24944 net.cpp:367] relu5 -> conv5 (in-place)
I0409 21:17:05.485211 24944 net.cpp:122] Setting up relu5
I0409 21:17:05.485224 24944 net.cpp:129] Top shape: 32 256 13 13 (1384448)
I0409 21:17:05.485227 24944 net.cpp:137] Memory required for data: 261762816
I0409 21:17:05.485232 24944 layer_factory.hpp:77] Creating layer pool5
I0409 21:17:05.485244 24944 net.cpp:84] Creating Layer pool5
I0409 21:17:05.485249 24944 net.cpp:406] pool5 <- conv5
I0409 21:17:05.485257 24944 net.cpp:380] pool5 -> pool5
I0409 21:17:05.485306 24944 net.cpp:122] Setting up pool5
I0409 21:17:05.485312 24944 net.cpp:129] Top shape: 32 256 6 6 (294912)
I0409 21:17:05.485316 24944 net.cpp:137] Memory required for data: 262942464
I0409 21:17:05.485321 24944 layer_factory.hpp:77] Creating layer fc6
I0409 21:17:05.485330 24944 net.cpp:84] Creating Layer fc6
I0409 21:17:05.485334 24944 net.cpp:406] fc6 <- pool5
I0409 21:17:05.485340 24944 net.cpp:380] fc6 -> fc6
I0409 21:17:06.327471 24944 net.cpp:122] Setting up fc6
I0409 21:17:06.327497 24944 net.cpp:129] Top shape: 32 8192 (262144)
I0409 21:17:06.327502 24944 net.cpp:137] Memory required for data: 263991040
I0409 21:17:06.327512 24944 layer_factory.hpp:77] Creating layer relu6
I0409 21:17:06.327522 24944 net.cpp:84] Creating Layer relu6
I0409 21:17:06.327526 24944 net.cpp:406] relu6 <- fc6
I0409 21:17:06.327555 24944 net.cpp:367] relu6 -> fc6 (in-place)
I0409 21:17:06.328008 24944 net.cpp:122] Setting up relu6
I0409 21:17:06.328017 24944 net.cpp:129] Top shape: 32 8192 (262144)
I0409 21:17:06.328022 24944 net.cpp:137] Memory required for data: 265039616
I0409 21:17:06.328027 24944 layer_factory.hpp:77] Creating layer drop6
I0409 21:17:06.328033 24944 net.cpp:84] Creating Layer drop6
I0409 21:17:06.328037 24944 net.cpp:406] drop6 <- fc6
I0409 21:17:06.328045 24944 net.cpp:367] drop6 -> fc6 (in-place)
I0409 21:17:06.328070 24944 net.cpp:122] Setting up drop6
I0409 21:17:06.328075 24944 net.cpp:129] Top shape: 32 8192 (262144)
I0409 21:17:06.328079 24944 net.cpp:137] Memory required for data: 266088192
I0409 21:17:06.328083 24944 layer_factory.hpp:77] Creating layer fc7
I0409 21:17:06.328094 24944 net.cpp:84] Creating Layer fc7
I0409 21:17:06.328097 24944 net.cpp:406] fc7 <- fc6
I0409 21:17:06.328102 24944 net.cpp:380] fc7 -> fc7
I0409 21:17:06.979394 24944 net.cpp:122] Setting up fc7
I0409 21:17:06.979418 24944 net.cpp:129] Top shape: 32 8192 (262144)
I0409 21:17:06.979421 24944 net.cpp:137] Memory required for data: 267136768
I0409 21:17:06.979430 24944 layer_factory.hpp:77] Creating layer relu7
I0409 21:17:06.979440 24944 net.cpp:84] Creating Layer relu7
I0409 21:17:06.979444 24944 net.cpp:406] relu7 <- fc7
I0409 21:17:06.979452 24944 net.cpp:367] relu7 -> fc7 (in-place)
I0409 21:17:06.981775 24944 net.cpp:122] Setting up relu7
I0409 21:17:06.981783 24944 net.cpp:129] Top shape: 32 8192 (262144)
I0409 21:17:06.981787 24944 net.cpp:137] Memory required for data: 268185344
I0409 21:17:06.981791 24944 layer_factory.hpp:77] Creating layer drop7
I0409 21:17:06.981798 24944 net.cpp:84] Creating Layer drop7
I0409 21:17:06.981802 24944 net.cpp:406] drop7 <- fc7
I0409 21:17:06.981807 24944 net.cpp:367] drop7 -> fc7 (in-place)
I0409 21:17:06.981833 24944 net.cpp:122] Setting up drop7
I0409 21:17:06.981838 24944 net.cpp:129] Top shape: 32 8192 (262144)
I0409 21:17:06.981842 24944 net.cpp:137] Memory required for data: 269233920
I0409 21:17:06.981844 24944 layer_factory.hpp:77] Creating layer fc7.5
I0409 21:17:06.981851 24944 net.cpp:84] Creating Layer fc7.5
I0409 21:17:06.981854 24944 net.cpp:406] fc7.5 <- fc7
I0409 21:17:06.981860 24944 net.cpp:380] fc7.5 -> fc7.5
I0409 21:17:07.613565 24944 net.cpp:122] Setting up fc7.5
I0409 21:17:07.613590 24944 net.cpp:129] Top shape: 32 8192 (262144)
I0409 21:17:07.613592 24944 net.cpp:137] Memory required for data: 270282496
I0409 21:17:07.613602 24944 layer_factory.hpp:77] Creating layer relu7.5
I0409 21:17:07.613613 24944 net.cpp:84] Creating Layer relu7.5
I0409 21:17:07.613617 24944 net.cpp:406] relu7.5 <- fc7.5
I0409 21:17:07.613623 24944 net.cpp:367] relu7.5 -> fc7.5 (in-place)
I0409 21:17:07.614297 24944 net.cpp:122] Setting up relu7.5
I0409 21:17:07.614310 24944 net.cpp:129] Top shape: 32 8192 (262144)
I0409 21:17:07.614312 24944 net.cpp:137] Memory required for data: 271331072
I0409 21:17:07.614316 24944 layer_factory.hpp:77] Creating layer drop7.5
I0409 21:17:07.614323 24944 net.cpp:84] Creating Layer drop7.5
I0409 21:17:07.614327 24944 net.cpp:406] drop7.5 <- fc7.5
I0409 21:17:07.614332 24944 net.cpp:367] drop7.5 -> fc7.5 (in-place)
I0409 21:17:07.614358 24944 net.cpp:122] Setting up drop7.5
I0409 21:17:07.614363 24944 net.cpp:129] Top shape: 32 8192 (262144)
I0409 21:17:07.614367 24944 net.cpp:137] Memory required for data: 272379648
I0409 21:17:07.614369 24944 layer_factory.hpp:77] Creating layer fc8
I0409 21:17:07.614378 24944 net.cpp:84] Creating Layer fc8
I0409 21:17:07.614382 24944 net.cpp:406] fc8 <- fc7.5
I0409 21:17:07.614387 24944 net.cpp:380] fc8 -> fc8
I0409 21:17:07.629686 24944 net.cpp:122] Setting up fc8
I0409 21:17:07.629709 24944 net.cpp:129] Top shape: 32 196 (6272)
I0409 21:17:07.629714 24944 net.cpp:137] Memory required for data: 272404736
I0409 21:17:07.629726 24944 layer_factory.hpp:77] Creating layer fc8_fc8_0_split
I0409 21:17:07.629736 24944 net.cpp:84] Creating Layer fc8_fc8_0_split
I0409 21:17:07.629740 24944 net.cpp:406] fc8_fc8_0_split <- fc8
I0409 21:17:07.629766 24944 net.cpp:380] fc8_fc8_0_split -> fc8_fc8_0_split_0
I0409 21:17:07.629776 24944 net.cpp:380] fc8_fc8_0_split -> fc8_fc8_0_split_1
I0409 21:17:07.629813 24944 net.cpp:122] Setting up fc8_fc8_0_split
I0409 21:17:07.629818 24944 net.cpp:129] Top shape: 32 196 (6272)
I0409 21:17:07.629822 24944 net.cpp:129] Top shape: 32 196 (6272)
I0409 21:17:07.629825 24944 net.cpp:137] Memory required for data: 272454912
I0409 21:17:07.629828 24944 layer_factory.hpp:77] Creating layer accuracy
I0409 21:17:07.629834 24944 net.cpp:84] Creating Layer accuracy
I0409 21:17:07.629838 24944 net.cpp:406] accuracy <- fc8_fc8_0_split_0
I0409 21:17:07.629843 24944 net.cpp:406] accuracy <- label_val-data_1_split_0
I0409 21:17:07.629848 24944 net.cpp:380] accuracy -> accuracy
…
