…
I0409 23:19:46.225874  8290 net.cpp:294] The NetState phase (0) differed from the phase (1) specified by a rule in layer accuracy
I0409 23:19:46.226034  8290 net.cpp:51] Initializing net from parameters:
state {
phase: TRAIN
level: 0
stage: ""
}
layer {
name: "train-data"
type: "Data"
top: "data"
top: "label"
include {
phase: TRAIN
}
transform_param {
mirror: true
crop_size: 227
mean_file: "/mnt/bigdisk/DIGITS-MAN-2/digits/jobs/20210407-214532-d396/mean.binaryproto"
}
data_param {
source: "/mnt/bigdisk/DIGITS-MAN-2/digits/jobs/20210407-214532-d396/train_db"
batch_size: 128
backend: LMDB
}
}
layer {
name: "conv1"
type: "Convolution"
bottom: "data"
top: "conv1"
param {
lr_mult: 1
decay_mult: 1
}
param {
lr_mult: 2
decay_mult: 0
}
convolution_param {
num_output: 96
kernel_size: 11
stride: 4
weight_filler {
type: "gaussian"
std: 0.01
}
bias_filler {
type: "constant"
value: 0
}
}
}
layer {
name: "relu1"
type: "ReLU"
bottom: "conv1"
top: "conv1"
}
layer {
name: "norm1"
type: "LRN"
bottom: "conv1"
top: "norm1"
lrn_param {
local_size: 5
alpha: 0.0001
beta: 0.75
}
}
layer {
name: "pool1"
type: "Pooling"
bottom: "norm1"
top: "pool1"
pooling_param {
pool: MAX
kernel_size: 3
stride: 2
}
}
layer {
name: "conv2"
type: "Convolution"
bottom: "pool1"
top: "conv2"
param {
lr_mult: 1
decay_mult: 1
}
param {
lr_mult: 2
decay_mult: 0
}
convolution_param {
num_output: 256
pad: 2
kernel_size: 5
group: 2
weight_filler {
type: "gaussian"
std: 0.01
}
bias_filler {
type: "constant"
value: 0.1
}
}
}
layer {
name: "relu2"
type: "ReLU"
bottom: "conv2"
top: "conv2"
}
layer {
name: "norm2"
type: "LRN"
bottom: "conv2"
top: "norm2"
lrn_param {
local_size: 5
alpha: 0.0001
beta: 0.75
}
}
layer {
name: "pool2"
type: "Pooling"
bottom: "norm2"
top: "pool2"
pooling_param {
pool: MAX
kernel_size: 3
stride: 2
}
}
layer {
name: "conv3"
type: "Convolution"
bottom: "pool2"
top: "conv3"
param {
lr_mult: 1
decay_mult: 1
}
param {
lr_mult: 2
decay_mult: 0
}
convolution_param {
num_output: 384
pad: 1
kernel_size: 3
weight_filler {
type: "gaussian"
std: 0.01
}
bias_filler {
type: "constant"
value: 0
}
}
}
layer {
name: "relu3"
type: "ReLU"
bottom: "conv3"
top: "conv3"
}
layer {
name: "conv4"
type: "Convolution"
bottom: "conv3"
top: "conv4"
param {
lr_mult: 1
decay_mult: 1
}
param {
lr_mult: 2
decay_mult: 0
}
convolution_param {
num_output: 384
pad: 1
kernel_size: 3
group: 2
weight_filler {
type: "gaussian"
std: 0.01
}
bias_filler {
type: "constant"
value: 0.1
}
}
}
layer {
name: "relu4"
type: "ReLU"
bottom: "conv4"
top: "conv4"
}
layer {
name: "conv5"
type: "Convolution"
bottom: "conv4"
top: "conv5"
param {
lr_mult: 1
decay_mult: 1
}
param {
lr_mult: 2
decay_mult: 0
}
convolution_param {
num_output: 256
pad: 1
kernel_size: 3
group: 2
weight_filler {
type: "gaussian"
std: 0.01
}
bias_filler {
type: "constant"
value: 0.1
}
}
}
layer {
name: "relu5"
type: "ReLU"
bottom: "conv5"
top: "conv5"
}
layer {
name: "pool5"
type: "Pooling"
bottom: "conv5"
top: "pool5"
pooling_param {
pool: MAX
kernel_size: 3
stride: 2
}
}
layer {
name: "fc6"
type: "InnerProduct"
bottom: "pool5"
top: "fc6"
param {
lr_mult: 1
decay_mult: 1
}
param {
lr_mult: 2
decay_mult: 0
}
inner_product_param {
num_output: 1024
weight_filler {
type: "gaussian"
std: 0.005
}
bias_filler {
type: "constant"
value: 0.1
}
}
}
layer {
name: "relu6"
type: "ReLU"
bottom: "fc6"
top: "fc6"
}
layer {
name: "drop6"
type: "Dropout"
bottom: "fc6"
top: "fc6"
dropout_param {
dropout_ratio: 0.5
}
}
layer {
name: "fc7"
type: "InnerProduct"
bottom: "fc6"
top: "fc7"
param {
lr_mult: 1
decay_mult: 1
}
param {
lr_mult: 2
decay_mult: 0
}
inner_product_param {
num_output: 1024
weight_filler {
type: "gaussian"
std: 0.005
}
bias_filler {
type: "constant"
value: 0.1
}
}
}
layer {
name: "relu7"
type: "ReLU"
bottom: "fc7"
top: "fc7"
}
layer {
name: "drop7"
type: "Dropout"
bottom: "fc7"
top: "fc7"
dropout_param {
dropout_ratio: 0.5
}
}
layer {
name: "fc8"
type: "InnerProduct"
bottom: "fc7"
top: "fc8"
param {
lr_mult: 1
decay_mult: 1
}
param {
lr_mult: 2
decay_mult: 0
}
inner_product_param {
num_output: 196
weight_filler {
type: "gaussian"
std: 0.01
}
bias_filler {
type: "constant"
value: 0
}
}
}
layer {
name: "loss"
type: "SoftmaxWithLoss"
bottom: "fc8"
bottom: "label"
top: "loss"
}
I0409 23:19:46.226128  8290 layer_factory.hpp:77] Creating layer train-data
I0409 23:19:46.228001  8290 db_lmdb.cpp:35] Opened lmdb /mnt/bigdisk/DIGITS-MAN-2/digits/jobs/20210407-214532-d396/train_db
I0409 23:19:46.228206  8290 net.cpp:84] Creating Layer train-data
I0409 23:19:46.228216  8290 net.cpp:380] train-data -> data
I0409 23:19:46.228236  8290 net.cpp:380] train-data -> label
I0409 23:19:46.228247  8290 data_transformer.cpp:25] Loading mean file from: /mnt/bigdisk/DIGITS-MAN-2/digits/jobs/20210407-214532-d396/mean.binaryproto
I0409 23:19:46.239208  8290 data_layer.cpp:45] output data size: 128,3,227,227
I0409 23:19:46.374977  8290 net.cpp:122] Setting up train-data
I0409 23:19:46.375000  8290 net.cpp:129] Top shape: 128 3 227 227 (19787136)
I0409 23:19:46.375005  8290 net.cpp:129] Top shape: 128 (128)
I0409 23:19:46.375008  8290 net.cpp:137] Memory required for data: 79149056
I0409 23:19:46.375018  8290 layer_factory.hpp:77] Creating layer conv1
I0409 23:19:46.375039  8290 net.cpp:84] Creating Layer conv1
I0409 23:19:46.375044  8290 net.cpp:406] conv1 <- data
I0409 23:19:46.375057  8290 net.cpp:380] conv1 -> conv1
I0409 23:19:46.988574  8290 net.cpp:122] Setting up conv1
I0409 23:19:46.988597  8290 net.cpp:129] Top shape: 128 96 55 55 (37171200)
I0409 23:19:46.988601  8290 net.cpp:137] Memory required for data: 227833856
I0409 23:19:46.988621  8290 layer_factory.hpp:77] Creating layer relu1
I0409 23:19:46.988632  8290 net.cpp:84] Creating Layer relu1
I0409 23:19:46.988638  8290 net.cpp:406] relu1 <- conv1
I0409 23:19:46.988646  8290 net.cpp:367] relu1 -> conv1 (in-place)
I0409 23:19:46.988961  8290 net.cpp:122] Setting up relu1
I0409 23:19:46.988970  8290 net.cpp:129] Top shape: 128 96 55 55 (37171200)
I0409 23:19:46.988974  8290 net.cpp:137] Memory required for data: 376518656
I0409 23:19:46.988978  8290 layer_factory.hpp:77] Creating layer norm1
I0409 23:19:46.988987  8290 net.cpp:84] Creating Layer norm1
I0409 23:19:46.988991  8290 net.cpp:406] norm1 <- conv1
I0409 23:19:46.989017  8290 net.cpp:380] norm1 -> norm1
I0409 23:19:46.989492  8290 net.cpp:122] Setting up norm1
I0409 23:19:46.989502  8290 net.cpp:129] Top shape: 128 96 55 55 (37171200)
I0409 23:19:46.989506  8290 net.cpp:137] Memory required for data: 525203456
I0409 23:19:46.989511  8290 layer_factory.hpp:77] Creating layer pool1
I0409 23:19:46.989519  8290 net.cpp:84] Creating Layer pool1
I0409 23:19:46.989523  8290 net.cpp:406] pool1 <- norm1
I0409 23:19:46.989529  8290 net.cpp:380] pool1 -> pool1
I0409 23:19:46.989567  8290 net.cpp:122] Setting up pool1
I0409 23:19:46.989573  8290 net.cpp:129] Top shape: 128 96 27 27 (8957952)
I0409 23:19:46.989576  8290 net.cpp:137] Memory required for data: 561035264
I0409 23:19:46.989580  8290 layer_factory.hpp:77] Creating layer conv2
I0409 23:19:46.989591  8290 net.cpp:84] Creating Layer conv2
I0409 23:19:46.989595  8290 net.cpp:406] conv2 <- pool1
I0409 23:19:46.989600  8290 net.cpp:380] conv2 -> conv2
I0409 23:19:46.998409  8290 net.cpp:122] Setting up conv2
I0409 23:19:46.998428  8290 net.cpp:129] Top shape: 128 256 27 27 (23887872)
I0409 23:19:46.998432  8290 net.cpp:137] Memory required for data: 656586752
I0409 23:19:46.998445  8290 layer_factory.hpp:77] Creating layer relu2
I0409 23:19:46.998452  8290 net.cpp:84] Creating Layer relu2
I0409 23:19:46.998456  8290 net.cpp:406] relu2 <- conv2
I0409 23:19:46.998461  8290 net.cpp:367] relu2 -> conv2 (in-place)
I0409 23:19:46.998900  8290 net.cpp:122] Setting up relu2
I0409 23:19:46.998910  8290 net.cpp:129] Top shape: 128 256 27 27 (23887872)
I0409 23:19:46.998914  8290 net.cpp:137] Memory required for data: 752138240
I0409 23:19:46.998917  8290 layer_factory.hpp:77] Creating layer norm2
I0409 23:19:46.998925  8290 net.cpp:84] Creating Layer norm2
I0409 23:19:46.998929  8290 net.cpp:406] norm2 <- conv2
I0409 23:19:46.998934  8290 net.cpp:380] norm2 -> norm2
I0409 23:19:46.999236  8290 net.cpp:122] Setting up norm2
I0409 23:19:46.999245  8290 net.cpp:129] Top shape: 128 256 27 27 (23887872)
I0409 23:19:46.999249  8290 net.cpp:137] Memory required for data: 847689728
I0409 23:19:46.999253  8290 layer_factory.hpp:77] Creating layer pool2
I0409 23:19:46.999262  8290 net.cpp:84] Creating Layer pool2
I0409 23:19:46.999266  8290 net.cpp:406] pool2 <- norm2
I0409 23:19:46.999271  8290 net.cpp:380] pool2 -> pool2
I0409 23:19:46.999298  8290 net.cpp:122] Setting up pool2
I0409 23:19:46.999303  8290 net.cpp:129] Top shape: 128 256 13 13 (5537792)
I0409 23:19:46.999306  8290 net.cpp:137] Memory required for data: 869840896
I0409 23:19:46.999310  8290 layer_factory.hpp:77] Creating layer conv3
I0409 23:19:46.999320  8290 net.cpp:84] Creating Layer conv3
I0409 23:19:46.999322  8290 net.cpp:406] conv3 <- pool2
I0409 23:19:46.999327  8290 net.cpp:380] conv3 -> conv3
I0409 23:19:47.009213  8290 net.cpp:122] Setting up conv3
I0409 23:19:47.009232  8290 net.cpp:129] Top shape: 128 384 13 13 (8306688)
I0409 23:19:47.009236  8290 net.cpp:137] Memory required for data: 903067648
I0409 23:19:47.009248  8290 layer_factory.hpp:77] Creating layer relu3
I0409 23:19:47.009256  8290 net.cpp:84] Creating Layer relu3
I0409 23:19:47.009260  8290 net.cpp:406] relu3 <- conv3
I0409 23:19:47.009265  8290 net.cpp:367] relu3 -> conv3 (in-place)
I0409 23:19:47.009692  8290 net.cpp:122] Setting up relu3
I0409 23:19:47.009703  8290 net.cpp:129] Top shape: 128 384 13 13 (8306688)
I0409 23:19:47.009706  8290 net.cpp:137] Memory required for data: 936294400
I0409 23:19:47.009711  8290 layer_factory.hpp:77] Creating layer conv4
I0409 23:19:47.009721  8290 net.cpp:84] Creating Layer conv4
I0409 23:19:47.009725  8290 net.cpp:406] conv4 <- conv3
I0409 23:19:47.009732  8290 net.cpp:380] conv4 -> conv4
I0409 23:19:47.019748  8290 net.cpp:122] Setting up conv4
I0409 23:19:47.019769  8290 net.cpp:129] Top shape: 128 384 13 13 (8306688)
I0409 23:19:47.019773  8290 net.cpp:137] Memory required for data: 969521152
I0409 23:19:47.019783  8290 layer_factory.hpp:77] Creating layer relu4
I0409 23:19:47.019791  8290 net.cpp:84] Creating Layer relu4
I0409 23:19:47.019814  8290 net.cpp:406] relu4 <- conv4
I0409 23:19:47.019821  8290 net.cpp:367] relu4 -> conv4 (in-place)
I0409 23:19:47.020102  8290 net.cpp:122] Setting up relu4
I0409 23:19:47.020112  8290 net.cpp:129] Top shape: 128 384 13 13 (8306688)
I0409 23:19:47.020115  8290 net.cpp:137] Memory required for data: 1002747904
I0409 23:19:47.020119  8290 layer_factory.hpp:77] Creating layer conv5
I0409 23:19:47.020129  8290 net.cpp:84] Creating Layer conv5
I0409 23:19:47.020133  8290 net.cpp:406] conv5 <- conv4
I0409 23:19:47.020139  8290 net.cpp:380] conv5 -> conv5
I0409 23:19:47.032969  8290 net.cpp:122] Setting up conv5
I0409 23:19:47.032989  8290 net.cpp:129] Top shape: 128 256 13 13 (5537792)
I0409 23:19:47.032991  8290 net.cpp:137] Memory required for data: 1024899072
I0409 23:19:47.033005  8290 layer_factory.hpp:77] Creating layer relu5
I0409 23:19:47.033015  8290 net.cpp:84] Creating Layer relu5
I0409 23:19:47.033020  8290 net.cpp:406] relu5 <- conv5
I0409 23:19:47.033025  8290 net.cpp:367] relu5 -> conv5 (in-place)
I0409 23:19:47.033468  8290 net.cpp:122] Setting up relu5
I0409 23:19:47.033478  8290 net.cpp:129] Top shape: 128 256 13 13 (5537792)
I0409 23:19:47.033481  8290 net.cpp:137] Memory required for data: 1047050240
I0409 23:19:47.033485  8290 layer_factory.hpp:77] Creating layer pool5
I0409 23:19:47.033493  8290 net.cpp:84] Creating Layer pool5
I0409 23:19:47.033496  8290 net.cpp:406] pool5 <- conv5
I0409 23:19:47.033501  8290 net.cpp:380] pool5 -> pool5
I0409 23:19:47.033542  8290 net.cpp:122] Setting up pool5
I0409 23:19:47.033547  8290 net.cpp:129] Top shape: 128 256 6 6 (1179648)
I0409 23:19:47.033550  8290 net.cpp:137] Memory required for data: 1051768832
I0409 23:19:47.033555  8290 layer_factory.hpp:77] Creating layer fc6
I0409 23:19:47.033563  8290 net.cpp:84] Creating Layer fc6
I0409 23:19:47.033566  8290 net.cpp:406] fc6 <- pool5
I0409 23:19:47.033571  8290 net.cpp:380] fc6 -> fc6
I0409 23:19:47.122498  8290 net.cpp:122] Setting up fc6
I0409 23:19:47.122520  8290 net.cpp:129] Top shape: 128 1024 (131072)
I0409 23:19:47.122524  8290 net.cpp:137] Memory required for data: 1052293120
I0409 23:19:47.122534  8290 layer_factory.hpp:77] Creating layer relu6
I0409 23:19:47.122542  8290 net.cpp:84] Creating Layer relu6
I0409 23:19:47.122547  8290 net.cpp:406] relu6 <- fc6
I0409 23:19:47.122553  8290 net.cpp:367] relu6 -> fc6 (in-place)
I0409 23:19:47.123090  8290 net.cpp:122] Setting up relu6
I0409 23:19:47.123100  8290 net.cpp:129] Top shape: 128 1024 (131072)
I0409 23:19:47.123102  8290 net.cpp:137] Memory required for data: 1052817408
I0409 23:19:47.123106  8290 layer_factory.hpp:77] Creating layer drop6
I0409 23:19:47.123113  8290 net.cpp:84] Creating Layer drop6
I0409 23:19:47.123117  8290 net.cpp:406] drop6 <- fc6
I0409 23:19:47.123122  8290 net.cpp:367] drop6 -> fc6 (in-place)
I0409 23:19:47.123149  8290 net.cpp:122] Setting up drop6
I0409 23:19:47.123154  8290 net.cpp:129] Top shape: 128 1024 (131072)
I0409 23:19:47.123157  8290 net.cpp:137] Memory required for data: 1053341696
I0409 23:19:47.123162  8290 layer_factory.hpp:77] Creating layer fc7
I0409 23:19:47.123168  8290 net.cpp:84] Creating Layer fc7
I0409 23:19:47.123173  8290 net.cpp:406] fc7 <- fc6
I0409 23:19:47.123178  8290 net.cpp:380] fc7 -> fc7
I0409 23:19:47.133177  8290 net.cpp:122] Setting up fc7
I0409 23:19:47.133196  8290 net.cpp:129] Top shape: 128 1024 (131072)
I0409 23:19:47.133199  8290 net.cpp:137] Memory required for data: 1053865984
I0409 23:19:47.133209  8290 layer_factory.hpp:77] Creating layer relu7
I0409 23:19:47.133217  8290 net.cpp:84] Creating Layer relu7
I0409 23:19:47.133221  8290 net.cpp:406] relu7 <- fc7
I0409 23:19:47.133229  8290 net.cpp:367] relu7 -> fc7 (in-place)
I0409 23:19:47.133780  8290 net.cpp:122] Setting up relu7
I0409 23:19:47.133790  8290 net.cpp:129] Top shape: 128 1024 (131072)
I0409 23:19:47.133793  8290 net.cpp:137] Memory required for data: 1054390272
I0409 23:19:47.133798  8290 layer_factory.hpp:77] Creating layer drop7
I0409 23:19:47.133806  8290 net.cpp:84] Creating Layer drop7
I0409 23:19:47.133828  8290 net.cpp:406] drop7 <- fc7
I0409 23:19:47.133836  8290 net.cpp:367] drop7 -> fc7 (in-place)
I0409 23:19:47.133862  8290 net.cpp:122] Setting up drop7
I0409 23:19:47.133868  8290 net.cpp:129] Top shape: 128 1024 (131072)
I0409 23:19:47.133872  8290 net.cpp:137] Memory required for data: 1054914560
I0409 23:19:47.133875  8290 layer_factory.hpp:77] Creating layer fc8
I0409 23:19:47.133883  8290 net.cpp:84] Creating Layer fc8
I0409 23:19:47.133888  8290 net.cpp:406] fc8 <- fc7
I0409 23:19:47.133893  8290 net.cpp:380] fc8 -> fc8
I0409 23:19:47.135690  8290 net.cpp:122] Setting up fc8
I0409 23:19:47.135699  8290 net.cpp:129] Top shape: 128 196 (25088)
I0409 23:19:47.135701  8290 net.cpp:137] Memory required for data: 1055014912
I0409 23:19:47.135707  8290 layer_factory.hpp:77] Creating layer loss
I0409 23:19:47.135713  8290 net.cpp:84] Creating Layer loss
I0409 23:19:47.135717  8290 net.cpp:406] loss <- fc8
I0409 23:19:47.135721  8290 net.cpp:406] loss <- label
I0409 23:19:47.135728  8290 net.cpp:380] loss -> loss
I0409 23:19:47.135738  8290 layer_factory.hpp:77] Creating layer loss
…
I0409 23:19:47.137025  8290 net.cpp:294] The NetState phase (1) differed from the phase (0) specified by a rule in layer train-data
I0409 23:19:47.137171  8290 net.cpp:51] Initializing net from parameters:
state {
phase: TEST
}
layer {
name: "val-data"
type: "Data"
top: "data"
top: "label"
include {
phase: TEST
}
transform_param {
crop_size: 227
mean_file: "/mnt/bigdisk/DIGITS-MAN-2/digits/jobs/20210407-214532-d396/mean.binaryproto"
}
data_param {
source: "/mnt/bigdisk/DIGITS-MAN-2/digits/jobs/20210407-214532-d396/val_db"
batch_size: 32
backend: LMDB
}
}
layer {
name: "conv1"
type: "Convolution"
bottom: "data"
top: "conv1"
param {
lr_mult: 1
decay_mult: 1
}
param {
lr_mult: 2
decay_mult: 0
}
convolution_param {
num_output: 96
kernel_size: 11
stride: 4
weight_filler {
type: "gaussian"
std: 0.01
}
bias_filler {
type: "constant"
value: 0
}
}
}
layer {
name: "relu1"
type: "ReLU"
bottom: "conv1"
top: "conv1"
}
layer {
name: "norm1"
type: "LRN"
bottom: "conv1"
top: "norm1"
lrn_param {
local_size: 5
alpha: 0.0001
beta: 0.75
}
}
layer {
name: "pool1"
type: "Pooling"
bottom: "norm1"
top: "pool1"
pooling_param {
pool: MAX
kernel_size: 3
stride: 2
}
}
layer {
name: "conv2"
type: "Convolution"
bottom: "pool1"
top: "conv2"
param {
lr_mult: 1
decay_mult: 1
}
param {
lr_mult: 2
decay_mult: 0
}
convolution_param {
num_output: 256
pad: 2
kernel_size: 5
group: 2
weight_filler {
type: "gaussian"
std: 0.01
}
bias_filler {
type: "constant"
value: 0.1
}
}
}
layer {
name: "relu2"
type: "ReLU"
bottom: "conv2"
top: "conv2"
}
layer {
name: "norm2"
type: "LRN"
bottom: "conv2"
top: "norm2"
lrn_param {
local_size: 5
alpha: 0.0001
beta: 0.75
}
}
layer {
name: "pool2"
type: "Pooling"
bottom: "norm2"
top: "pool2"
pooling_param {
pool: MAX
kernel_size: 3
stride: 2
}
}
layer {
name: "conv3"
type: "Convolution"
bottom: "pool2"
top: "conv3"
param {
lr_mult: 1
decay_mult: 1
}
param {
lr_mult: 2
decay_mult: 0
}
convolution_param {
num_output: 384
pad: 1
kernel_size: 3
weight_filler {
type: "gaussian"
std: 0.01
}
bias_filler {
type: "constant"
value: 0
}
}
}
layer {
name: "relu3"
type: "ReLU"
bottom: "conv3"
top: "conv3"
}
layer {
name: "conv4"
type: "Convolution"
bottom: "conv3"
top: "conv4"
param {
lr_mult: 1
decay_mult: 1
}
param {
lr_mult: 2
decay_mult: 0
}
convolution_param {
num_output: 384
pad: 1
kernel_size: 3
group: 2
weight_filler {
type: "gaussian"
std: 0.01
}
bias_filler {
type: "constant"
value: 0.1
}
}
}
layer {
name: "relu4"
type: "ReLU"
bottom: "conv4"
top: "conv4"
}
layer {
name: "conv5"
type: "Convolution"
bottom: "conv4"
top: "conv5"
param {
lr_mult: 1
decay_mult: 1
}
param {
lr_mult: 2
decay_mult: 0
}
convolution_param {
num_output: 256
pad: 1
kernel_size: 3
group: 2
weight_filler {
type: "gaussian"
std: 0.01
}
bias_filler {
type: "constant"
value: 0.1
}
}
}
layer {
name: "relu5"
type: "ReLU"
bottom: "conv5"
top: "conv5"
}
layer {
name: "pool5"
type: "Pooling"
bottom: "conv5"
top: "pool5"
pooling_param {
pool: MAX
kernel_size: 3
stride: 2
}
}
layer {
name: "fc6"
type: "InnerProduct"
bottom: "pool5"
top: "fc6"
param {
lr_mult: 1
decay_mult: 1
}
param {
lr_mult: 2
decay_mult: 0
}
inner_product_param {
num_output: 1024
weight_filler {
type: "gaussian"
std: 0.005
}
bias_filler {
type: "constant"
value: 0.1
}
}
}
layer {
name: "relu6"
type: "ReLU"
bottom: "fc6"
top: "fc6"
}
layer {
name: "drop6"
type: "Dropout"
bottom: "fc6"
top: "fc6"
dropout_param {
dropout_ratio: 0.5
}
}
layer {
name: "fc7"
type: "InnerProduct"
bottom: "fc6"
top: "fc7"
param {
lr_mult: 1
decay_mult: 1
}
param {
lr_mult: 2
decay_mult: 0
}
inner_product_param {
num_output: 1024
weight_filler {
type: "gaussian"
std: 0.005
}
bias_filler {
type: "constant"
value: 0.1
}
}
}
layer {
name: "relu7"
type: "ReLU"
bottom: "fc7"
top: "fc7"
}
layer {
name: "drop7"
type: "Dropout"
bottom: "fc7"
top: "fc7"
dropout_param {
dropout_ratio: 0.5
}
}
layer {
name: "fc8"
type: "InnerProduct"
bottom: "fc7"
top: "fc8"
param {
lr_mult: 1
decay_mult: 1
}
param {
lr_mult: 2
decay_mult: 0
}
inner_product_param {
num_output: 196
weight_filler {
type: "gaussian"
std: 0.01
}
bias_filler {
type: "constant"
value: 0
}
}
}
layer {
name: "accuracy"
type: "Accuracy"
bottom: "fc8"
bottom: "label"
top: "accuracy"
include {
phase: TEST
}
}
layer {
name: "loss"
type: "SoftmaxWithLoss"
bottom: "fc8"
bottom: "label"
top: "loss"
}
I0409 23:19:47.137265  8290 layer_factory.hpp:77] Creating layer val-data
I0409 23:19:47.138947  8290 db_lmdb.cpp:35] Opened lmdb /mnt/bigdisk/DIGITS-MAN-2/digits/jobs/20210407-214532-d396/val_db
I0409 23:19:47.139151  8290 net.cpp:84] Creating Layer val-data
I0409 23:19:47.139160  8290 net.cpp:380] val-data -> data
I0409 23:19:47.139171  8290 net.cpp:380] val-data -> label
I0409 23:19:47.139178  8290 data_transformer.cpp:25] Loading mean file from: /mnt/bigdisk/DIGITS-MAN-2/digits/jobs/20210407-214532-d396/mean.binaryproto
I0409 23:19:47.143074  8290 data_layer.cpp:45] output data size: 32,3,227,227
I0409 23:19:47.177220  8290 net.cpp:122] Setting up val-data
I0409 23:19:47.177242  8290 net.cpp:129] Top shape: 32 3 227 227 (4946784)
I0409 23:19:47.177248  8290 net.cpp:129] Top shape: 32 (32)
I0409 23:19:47.177251  8290 net.cpp:137] Memory required for data: 19787264
I0409 23:19:47.177258  8290 layer_factory.hpp:77] Creating layer label_val-data_1_split
I0409 23:19:47.177270  8290 net.cpp:84] Creating Layer label_val-data_1_split
I0409 23:19:47.177275  8290 net.cpp:406] label_val-data_1_split <- label
I0409 23:19:47.177282  8290 net.cpp:380] label_val-data_1_split -> label_val-data_1_split_0
I0409 23:19:47.177291  8290 net.cpp:380] label_val-data_1_split -> label_val-data_1_split_1
I0409 23:19:47.177345  8290 net.cpp:122] Setting up label_val-data_1_split
I0409 23:19:47.177350  8290 net.cpp:129] Top shape: 32 (32)
I0409 23:19:47.177353  8290 net.cpp:129] Top shape: 32 (32)
I0409 23:19:47.177356  8290 net.cpp:137] Memory required for data: 19787520
I0409 23:19:47.177361  8290 layer_factory.hpp:77] Creating layer conv1
I0409 23:19:47.177373  8290 net.cpp:84] Creating Layer conv1
I0409 23:19:47.177376  8290 net.cpp:406] conv1 <- data
I0409 23:19:47.177382  8290 net.cpp:380] conv1 -> conv1
I0409 23:19:47.179538  8290 net.cpp:122] Setting up conv1
I0409 23:19:47.179550  8290 net.cpp:129] Top shape: 32 96 55 55 (9292800)
I0409 23:19:47.179554  8290 net.cpp:137] Memory required for data: 56958720
I0409 23:19:47.179565  8290 layer_factory.hpp:77] Creating layer relu1
I0409 23:19:47.179572  8290 net.cpp:84] Creating Layer relu1
I0409 23:19:47.179576  8290 net.cpp:406] relu1 <- conv1
I0409 23:19:47.179581  8290 net.cpp:367] relu1 -> conv1 (in-place)
I0409 23:19:47.179872  8290 net.cpp:122] Setting up relu1
I0409 23:19:47.179880  8290 net.cpp:129] Top shape: 32 96 55 55 (9292800)
I0409 23:19:47.179883  8290 net.cpp:137] Memory required for data: 94129920
I0409 23:19:47.179888  8290 layer_factory.hpp:77] Creating layer norm1
I0409 23:19:47.179895  8290 net.cpp:84] Creating Layer norm1
I0409 23:19:47.179900  8290 net.cpp:406] norm1 <- conv1
I0409 23:19:47.179905  8290 net.cpp:380] norm1 -> norm1
I0409 23:19:47.180354  8290 net.cpp:122] Setting up norm1
I0409 23:19:47.180363  8290 net.cpp:129] Top shape: 32 96 55 55 (9292800)
I0409 23:19:47.180367  8290 net.cpp:137] Memory required for data: 131301120
I0409 23:19:47.180371  8290 layer_factory.hpp:77] Creating layer pool1
I0409 23:19:47.180378  8290 net.cpp:84] Creating Layer pool1
I0409 23:19:47.180382  8290 net.cpp:406] pool1 <- norm1
I0409 23:19:47.180387  8290 net.cpp:380] pool1 -> pool1
I0409 23:19:47.180415  8290 net.cpp:122] Setting up pool1
I0409 23:19:47.180421  8290 net.cpp:129] Top shape: 32 96 27 27 (2239488)
I0409 23:19:47.180424  8290 net.cpp:137] Memory required for data: 140259072
I0409 23:19:47.180428  8290 layer_factory.hpp:77] Creating layer conv2
I0409 23:19:47.180435  8290 net.cpp:84] Creating Layer conv2
I0409 23:19:47.180439  8290 net.cpp:406] conv2 <- pool1
I0409 23:19:47.180464  8290 net.cpp:380] conv2 -> conv2
I0409 23:19:47.189268  8290 net.cpp:122] Setting up conv2
I0409 23:19:47.189288  8290 net.cpp:129] Top shape: 32 256 27 27 (5971968)
I0409 23:19:47.189292  8290 net.cpp:137] Memory required for data: 164146944
I0409 23:19:47.189303  8290 layer_factory.hpp:77] Creating layer relu2
I0409 23:19:47.189312  8290 net.cpp:84] Creating Layer relu2
I0409 23:19:47.189316  8290 net.cpp:406] relu2 <- conv2
I0409 23:19:47.189323  8290 net.cpp:367] relu2 -> conv2 (in-place)
I0409 23:19:47.190894  8290 net.cpp:122] Setting up relu2
I0409 23:19:47.190907  8290 net.cpp:129] Top shape: 32 256 27 27 (5971968)
I0409 23:19:47.190910  8290 net.cpp:137] Memory required for data: 188034816
I0409 23:19:47.190914  8290 layer_factory.hpp:77] Creating layer norm2
I0409 23:19:47.190925  8290 net.cpp:84] Creating Layer norm2
I0409 23:19:47.190929  8290 net.cpp:406] norm2 <- conv2
I0409 23:19:47.190937  8290 net.cpp:380] norm2 -> norm2
I0409 23:19:47.191463  8290 net.cpp:122] Setting up norm2
I0409 23:19:47.191473  8290 net.cpp:129] Top shape: 32 256 27 27 (5971968)
I0409 23:19:47.191478  8290 net.cpp:137] Memory required for data: 211922688
I0409 23:19:47.191481  8290 layer_factory.hpp:77] Creating layer pool2
I0409 23:19:47.191489  8290 net.cpp:84] Creating Layer pool2
I0409 23:19:47.191493  8290 net.cpp:406] pool2 <- norm2
I0409 23:19:47.191498  8290 net.cpp:380] pool2 -> pool2
I0409 23:19:47.191529  8290 net.cpp:122] Setting up pool2
I0409 23:19:47.191536  8290 net.cpp:129] Top shape: 32 256 13 13 (1384448)
I0409 23:19:47.191540  8290 net.cpp:137] Memory required for data: 217460480
I0409 23:19:47.191543  8290 layer_factory.hpp:77] Creating layer conv3
I0409 23:19:47.191552  8290 net.cpp:84] Creating Layer conv3
I0409 23:19:47.191556  8290 net.cpp:406] conv3 <- pool2
I0409 23:19:47.191563  8290 net.cpp:380] conv3 -> conv3
I0409 23:19:47.202658  8290 net.cpp:122] Setting up conv3
I0409 23:19:47.202677  8290 net.cpp:129] Top shape: 32 384 13 13 (2076672)
I0409 23:19:47.202680  8290 net.cpp:137] Memory required for data: 225767168
I0409 23:19:47.202693  8290 layer_factory.hpp:77] Creating layer relu3
I0409 23:19:47.202703  8290 net.cpp:84] Creating Layer relu3
I0409 23:19:47.202708  8290 net.cpp:406] relu3 <- conv3
I0409 23:19:47.202713  8290 net.cpp:367] relu3 -> conv3 (in-place)
I0409 23:19:47.203219  8290 net.cpp:122] Setting up relu3
I0409 23:19:47.203230  8290 net.cpp:129] Top shape: 32 384 13 13 (2076672)
I0409 23:19:47.203235  8290 net.cpp:137] Memory required for data: 234073856
I0409 23:19:47.203238  8290 layer_factory.hpp:77] Creating layer conv4
I0409 23:19:47.203250  8290 net.cpp:84] Creating Layer conv4
I0409 23:19:47.203254  8290 net.cpp:406] conv4 <- conv3
I0409 23:19:47.203260  8290 net.cpp:380] conv4 -> conv4
I0409 23:19:47.213644  8290 net.cpp:122] Setting up conv4
I0409 23:19:47.213663  8290 net.cpp:129] Top shape: 32 384 13 13 (2076672)
I0409 23:19:47.213666  8290 net.cpp:137] Memory required for data: 242380544
I0409 23:19:47.213675  8290 layer_factory.hpp:77] Creating layer relu4
I0409 23:19:47.213687  8290 net.cpp:84] Creating Layer relu4
I0409 23:19:47.213691  8290 net.cpp:406] relu4 <- conv4
I0409 23:19:47.213698  8290 net.cpp:367] relu4 -> conv4 (in-place)
I0409 23:19:47.214066  8290 net.cpp:122] Setting up relu4
I0409 23:19:47.214074  8290 net.cpp:129] Top shape: 32 384 13 13 (2076672)
I0409 23:19:47.214078  8290 net.cpp:137] Memory required for data: 250687232
I0409 23:19:47.214082  8290 layer_factory.hpp:77] Creating layer conv5
I0409 23:19:47.214093  8290 net.cpp:84] Creating Layer conv5
I0409 23:19:47.214097  8290 net.cpp:406] conv5 <- conv4
I0409 23:19:47.214103  8290 net.cpp:380] conv5 -> conv5
I0409 23:19:47.229457  8290 net.cpp:122] Setting up conv5
I0409 23:19:47.229476  8290 net.cpp:129] Top shape: 32 256 13 13 (1384448)
I0409 23:19:47.229480  8290 net.cpp:137] Memory required for data: 256225024
I0409 23:19:47.229493  8290 layer_factory.hpp:77] Creating layer relu5
I0409 23:19:47.229504  8290 net.cpp:84] Creating Layer relu5
I0409 23:19:47.229508  8290 net.cpp:406] relu5 <- conv5
I0409 23:19:47.229533  8290 net.cpp:367] relu5 -> conv5 (in-place)
I0409 23:19:47.230054  8290 net.cpp:122] Setting up relu5
I0409 23:19:47.230063  8290 net.cpp:129] Top shape: 32 256 13 13 (1384448)
I0409 23:19:47.230067  8290 net.cpp:137] Memory required for data: 261762816
I0409 23:19:47.230072  8290 layer_factory.hpp:77] Creating layer pool5
I0409 23:19:47.230082  8290 net.cpp:84] Creating Layer pool5
I0409 23:19:47.230084  8290 net.cpp:406] pool5 <- conv5
I0409 23:19:47.230090  8290 net.cpp:380] pool5 -> pool5
I0409 23:19:47.230130  8290 net.cpp:122] Setting up pool5
I0409 23:19:47.230136  8290 net.cpp:129] Top shape: 32 256 6 6 (294912)
I0409 23:19:47.230139  8290 net.cpp:137] Memory required for data: 262942464
I0409 23:19:47.230142  8290 layer_factory.hpp:77] Creating layer fc6
I0409 23:19:47.230149  8290 net.cpp:84] Creating Layer fc6
I0409 23:19:47.230152  8290 net.cpp:406] fc6 <- pool5
I0409 23:19:47.230159  8290 net.cpp:380] fc6 -> fc6
I0409 23:19:47.319193  8290 net.cpp:122] Setting up fc6
I0409 23:19:47.319213  8290 net.cpp:129] Top shape: 32 1024 (32768)
I0409 23:19:47.319216  8290 net.cpp:137] Memory required for data: 263073536
I0409 23:19:47.319226  8290 layer_factory.hpp:77] Creating layer relu6
I0409 23:19:47.319236  8290 net.cpp:84] Creating Layer relu6
I0409 23:19:47.319239  8290 net.cpp:406] relu6 <- fc6
I0409 23:19:47.319245  8290 net.cpp:367] relu6 -> fc6 (in-place)
I0409 23:19:47.320091  8290 net.cpp:122] Setting up relu6
I0409 23:19:47.320101  8290 net.cpp:129] Top shape: 32 1024 (32768)
I0409 23:19:47.320103  8290 net.cpp:137] Memory required for data: 263204608
I0409 23:19:47.320108  8290 layer_factory.hpp:77] Creating layer drop6
I0409 23:19:47.320114  8290 net.cpp:84] Creating Layer drop6
I0409 23:19:47.320118  8290 net.cpp:406] drop6 <- fc6
I0409 23:19:47.320127  8290 net.cpp:367] drop6 -> fc6 (in-place)
I0409 23:19:47.320152  8290 net.cpp:122] Setting up drop6
I0409 23:19:47.320158  8290 net.cpp:129] Top shape: 32 1024 (32768)
I0409 23:19:47.320161  8290 net.cpp:137] Memory required for data: 263335680
I0409 23:19:47.320164  8290 layer_factory.hpp:77] Creating layer fc7
I0409 23:19:47.320171  8290 net.cpp:84] Creating Layer fc7
I0409 23:19:47.320174  8290 net.cpp:406] fc7 <- fc6
I0409 23:19:47.320180  8290 net.cpp:380] fc7 -> fc7
I0409 23:19:47.330269  8290 net.cpp:122] Setting up fc7
I0409 23:19:47.330286  8290 net.cpp:129] Top shape: 32 1024 (32768)
I0409 23:19:47.330289  8290 net.cpp:137] Memory required for data: 263466752
I0409 23:19:47.330298  8290 layer_factory.hpp:77] Creating layer relu7
I0409 23:19:47.330307  8290 net.cpp:84] Creating Layer relu7
I0409 23:19:47.330312  8290 net.cpp:406] relu7 <- fc7
I0409 23:19:47.330319  8290 net.cpp:367] relu7 -> fc7 (in-place)
I0409 23:19:47.330749  8290 net.cpp:122] Setting up relu7
I0409 23:19:47.330757  8290 net.cpp:129] Top shape: 32 1024 (32768)
I0409 23:19:47.330760  8290 net.cpp:137] Memory required for data: 263597824
I0409 23:19:47.330765  8290 layer_factory.hpp:77] Creating layer drop7
I0409 23:19:47.330770  8290 net.cpp:84] Creating Layer drop7
I0409 23:19:47.330773  8290 net.cpp:406] drop7 <- fc7
I0409 23:19:47.330778  8290 net.cpp:367] drop7 -> fc7 (in-place)
I0409 23:19:47.330803  8290 net.cpp:122] Setting up drop7
I0409 23:19:47.330807  8290 net.cpp:129] Top shape: 32 1024 (32768)
I0409 23:19:47.330811  8290 net.cpp:137] Memory required for data: 263728896
I0409 23:19:47.330813  8290 layer_factory.hpp:77] Creating layer fc8
I0409 23:19:47.330821  8290 net.cpp:84] Creating Layer fc8
I0409 23:19:47.330824  8290 net.cpp:406] fc8 <- fc7
I0409 23:19:47.330829  8290 net.cpp:380] fc8 -> fc8
I0409 23:19:47.332617  8290 net.cpp:122] Setting up fc8
I0409 23:19:47.332623  8290 net.cpp:129] Top shape: 32 196 (6272)
I0409 23:19:47.332626  8290 net.cpp:137] Memory required for data: 263753984
I0409 23:19:47.332633  8290 layer_factory.hpp:77] Creating layer fc8_fc8_0_split
I0409 23:19:47.332638  8290 net.cpp:84] Creating Layer fc8_fc8_0_split
I0409 23:19:47.332641  8290 net.cpp:406] fc8_fc8_0_split <- fc8
I0409 23:19:47.332665  8290 net.cpp:380] fc8_fc8_0_split -> fc8_fc8_0_split_0
I0409 23:19:47.332672  8290 net.cpp:380] fc8_fc8_0_split -> fc8_fc8_0_split_1
I0409 23:19:47.332706  8290 net.cpp:122] Setting up fc8_fc8_0_split
I0409 23:19:47.332710  8290 net.cpp:129] Top shape: 32 196 (6272)
I0409 23:19:47.332715  8290 net.cpp:129] Top shape: 32 196 (6272)
I0409 23:19:47.332717  8290 net.cpp:137] Memory required for data: 263804160
I0409 23:19:47.332720  8290 layer_factory.hpp:77] Creating layer accuracy
I0409 23:19:47.332726  8290 net.cpp:84] Creating Layer accuracy
I0409 23:19:47.332729  8290 net.cpp:406] accuracy <- fc8_fc8_0_split_0
I0409 23:19:47.332734  8290 net.cpp:406] accuracy <- label_val-data_1_split_0
I0409 23:19:47.332741  8290 net.cpp:380] accuracy -> accuracy
…
