…
I0401 12:27:21.561126 21213 net.cpp:294] The NetState phase (0) differed from the phase (1) specified by a rule in layer accuracy
I0401 12:27:21.561280 21213 net.cpp:51] Initializing net from parameters:
state {
phase: TRAIN
level: 0
stage: ""
}
layer {
name: "train-data"
type: "Data"
top: "data"
top: "label"
include {
phase: TRAIN
}
transform_param {
mirror: true
crop_size: 227
mean_file: "/mnt/bigdisk/DIGITS-AIN-3/digits/jobs/20210401-115942-8d19/mean.binaryproto"
}
data_param {
source: "/mnt/bigdisk/DIGITS-AIN-3/digits/jobs/20210401-115942-8d19/train_db"
batch_size: 128
backend: LMDB
}
}
layer {
name: "conv1"
type: "Convolution"
bottom: "data"
top: "conv1"
param {
lr_mult: 1
decay_mult: 1
}
param {
lr_mult: 2
decay_mult: 0
}
convolution_param {
num_output: 96
kernel_size: 11
stride: 4
weight_filler {
type: "gaussian"
std: 0.01
}
bias_filler {
type: "constant"
value: 0
}
}
}
layer {
name: "relu1"
type: "ReLU"
bottom: "conv1"
top: "conv1"
}
layer {
name: "norm1"
type: "LRN"
bottom: "conv1"
top: "norm1"
lrn_param {
local_size: 5
alpha: 0.0001
beta: 0.75
}
}
layer {
name: "pool1"
type: "Pooling"
bottom: "norm1"
top: "pool1"
pooling_param {
pool: MAX
kernel_size: 3
stride: 2
}
}
layer {
name: "conv2"
type: "Convolution"
bottom: "pool1"
top: "conv2"
param {
lr_mult: 1
decay_mult: 1
}
param {
lr_mult: 2
decay_mult: 0
}
convolution_param {
num_output: 256
pad: 2
kernel_size: 5
group: 2
weight_filler {
type: "gaussian"
std: 0.01
}
bias_filler {
type: "constant"
value: 0.1
}
}
}
layer {
name: "relu2"
type: "ReLU"
bottom: "conv2"
top: "conv2"
}
layer {
name: "norm2"
type: "LRN"
bottom: "conv2"
top: "norm2"
lrn_param {
local_size: 5
alpha: 0.0001
beta: 0.75
}
}
layer {
name: "pool2"
type: "Pooling"
bottom: "norm2"
top: "pool2"
pooling_param {
pool: MAX
kernel_size: 3
stride: 2
}
}
layer {
name: "conv3"
type: "Convolution"
bottom: "pool2"
top: "conv3"
param {
lr_mult: 1
decay_mult: 1
}
param {
lr_mult: 2
decay_mult: 0
}
convolution_param {
num_output: 384
pad: 1
kernel_size: 3
weight_filler {
type: "gaussian"
std: 0.01
}
bias_filler {
type: "constant"
value: 0
}
}
}
layer {
name: "relu3"
type: "ReLU"
bottom: "conv3"
top: "conv3"
}
layer {
name: "conv4"
type: "Convolution"
bottom: "conv3"
top: "conv4"
param {
lr_mult: 1
decay_mult: 1
}
param {
lr_mult: 2
decay_mult: 0
}
convolution_param {
num_output: 384
pad: 1
kernel_size: 3
group: 2
weight_filler {
type: "gaussian"
std: 0.01
}
bias_filler {
type: "constant"
value: 0.1
}
}
}
layer {
name: "relu4"
type: "ReLU"
bottom: "conv4"
top: "conv4"
}
layer {
name: "conv5"
type: "Convolution"
bottom: "conv4"
top: "conv5"
param {
lr_mult: 1
decay_mult: 1
}
param {
lr_mult: 2
decay_mult: 0
}
convolution_param {
num_output: 256
pad: 1
kernel_size: 3
group: 2
weight_filler {
type: "gaussian"
std: 0.01
}
bias_filler {
type: "constant"
value: 0.1
}
}
}
layer {
name: "relu5"
type: "ReLU"
bottom: "conv5"
top: "conv5"
}
layer {
name: "pool5"
type: "Pooling"
bottom: "conv5"
top: "pool5"
pooling_param {
pool: MAX
kernel_size: 3
stride: 2
}
}
layer {
name: "fc6"
type: "InnerProduct"
bottom: "pool5"
top: "fc6"
param {
lr_mult: 1
decay_mult: 1
}
param {
lr_mult: 2
decay_mult: 0
}
inner_product_param {
num_output: 4096
weight_filler {
type: "gaussian"
std: 0.005
}
bias_filler {
type: "constant"
value: 0.1
}
}
}
layer {
name: "relu6"
type: "ReLU"
bottom: "fc6"
top: "fc6"
}
layer {
name: "drop6"
type: "Dropout"
bottom: "fc6"
top: "fc6"
dropout_param {
dropout_ratio: 0.5
}
}
layer {
name: "fc7"
type: "InnerProduct"
bottom: "fc6"
top: "fc7"
param {
lr_mult: 1
decay_mult: 1
}
param {
lr_mult: 2
decay_mult: 0
}
inner_product_param {
num_output: 4096
weight_filler {
type: "gaussian"
std: 0.005
}
bias_filler {
type: "constant"
value: 0.1
}
}
}
layer {
name: "relu7"
type: "ReLU"
bottom: "fc7"
top: "fc7"
}
layer {
name: "drop7"
type: "Dropout"
bottom: "fc7"
top: "fc7"
dropout_param {
dropout_ratio: 0.5
}
}
layer {
name: "fc8"
type: "InnerProduct"
bottom: "fc7"
top: "fc8"
param {
lr_mult: 1
decay_mult: 1
}
param {
lr_mult: 2
decay_mult: 0
}
inner_product_param {
num_output: 196
weight_filler {
type: "gaussian"
std: 0.01
}
bias_filler {
type: "constant"
value: 0
}
}
}
layer {
name: "loss"
type: "SoftmaxWithLoss"
bottom: "fc8"
bottom: "label"
top: "loss"
}
I0401 12:27:21.561403 21213 layer_factory.hpp:77] Creating layer train-data
I0401 12:27:21.569025 21213 db_lmdb.cpp:35] Opened lmdb /mnt/bigdisk/DIGITS-AIN-3/digits/jobs/20210401-115942-8d19/train_db
I0401 12:27:21.569305 21213 net.cpp:84] Creating Layer train-data
I0401 12:27:21.569334 21213 net.cpp:380] train-data -> data
I0401 12:27:21.569375 21213 net.cpp:380] train-data -> label
I0401 12:27:21.569396 21213 data_transformer.cpp:25] Loading mean file from: /mnt/bigdisk/DIGITS-AIN-3/digits/jobs/20210401-115942-8d19/mean.binaryproto
I0401 12:27:21.578495 21213 data_layer.cpp:45] output data size: 128,3,227,227
I0401 12:27:21.724570 21213 net.cpp:122] Setting up train-data
I0401 12:27:21.724591 21213 net.cpp:129] Top shape: 128 3 227 227 (19787136)
I0401 12:27:21.724596 21213 net.cpp:129] Top shape: 128 (128)
I0401 12:27:21.724597 21213 net.cpp:137] Memory required for data: 79149056
I0401 12:27:21.724606 21213 layer_factory.hpp:77] Creating layer conv1
I0401 12:27:21.724625 21213 net.cpp:84] Creating Layer conv1
I0401 12:27:21.724630 21213 net.cpp:406] conv1 <- data
I0401 12:27:21.724640 21213 net.cpp:380] conv1 -> conv1
I0401 12:27:22.161954 21213 net.cpp:122] Setting up conv1
I0401 12:27:22.161978 21213 net.cpp:129] Top shape: 128 96 55 55 (37171200)
I0401 12:27:22.161980 21213 net.cpp:137] Memory required for data: 227833856
I0401 12:27:22.161999 21213 layer_factory.hpp:77] Creating layer relu1
I0401 12:27:22.162009 21213 net.cpp:84] Creating Layer relu1
I0401 12:27:22.162012 21213 net.cpp:406] relu1 <- conv1
I0401 12:27:22.162016 21213 net.cpp:367] relu1 -> conv1 (in-place)
I0401 12:27:22.162271 21213 net.cpp:122] Setting up relu1
I0401 12:27:22.162279 21213 net.cpp:129] Top shape: 128 96 55 55 (37171200)
I0401 12:27:22.162282 21213 net.cpp:137] Memory required for data: 376518656
I0401 12:27:22.162284 21213 layer_factory.hpp:77] Creating layer norm1
I0401 12:27:22.162292 21213 net.cpp:84] Creating Layer norm1
I0401 12:27:22.162295 21213 net.cpp:406] norm1 <- conv1
I0401 12:27:22.162322 21213 net.cpp:380] norm1 -> norm1
I0401 12:27:22.162732 21213 net.cpp:122] Setting up norm1
I0401 12:27:22.162741 21213 net.cpp:129] Top shape: 128 96 55 55 (37171200)
I0401 12:27:22.162744 21213 net.cpp:137] Memory required for data: 525203456
I0401 12:27:22.162746 21213 layer_factory.hpp:77] Creating layer pool1
I0401 12:27:22.162752 21213 net.cpp:84] Creating Layer pool1
I0401 12:27:22.162755 21213 net.cpp:406] pool1 <- norm1
I0401 12:27:22.162760 21213 net.cpp:380] pool1 -> pool1
I0401 12:27:22.162791 21213 net.cpp:122] Setting up pool1
I0401 12:27:22.162796 21213 net.cpp:129] Top shape: 128 96 27 27 (8957952)
I0401 12:27:22.162798 21213 net.cpp:137] Memory required for data: 561035264
I0401 12:27:22.162801 21213 layer_factory.hpp:77] Creating layer conv2
I0401 12:27:22.162809 21213 net.cpp:84] Creating Layer conv2
I0401 12:27:22.162812 21213 net.cpp:406] conv2 <- pool1
I0401 12:27:22.162817 21213 net.cpp:380] conv2 -> conv2
I0401 12:27:22.168175 21213 net.cpp:122] Setting up conv2
I0401 12:27:22.168195 21213 net.cpp:129] Top shape: 128 256 27 27 (23887872)
I0401 12:27:22.168196 21213 net.cpp:137] Memory required for data: 656586752
I0401 12:27:22.168207 21213 layer_factory.hpp:77] Creating layer relu2
I0401 12:27:22.168215 21213 net.cpp:84] Creating Layer relu2
I0401 12:27:22.168216 21213 net.cpp:406] relu2 <- conv2
I0401 12:27:22.168221 21213 net.cpp:367] relu2 -> conv2 (in-place)
I0401 12:27:22.168615 21213 net.cpp:122] Setting up relu2
I0401 12:27:22.168624 21213 net.cpp:129] Top shape: 128 256 27 27 (23887872)
I0401 12:27:22.168627 21213 net.cpp:137] Memory required for data: 752138240
I0401 12:27:22.168629 21213 layer_factory.hpp:77] Creating layer norm2
I0401 12:27:22.168635 21213 net.cpp:84] Creating Layer norm2
I0401 12:27:22.168638 21213 net.cpp:406] norm2 <- conv2
I0401 12:27:22.168642 21213 net.cpp:380] norm2 -> norm2
I0401 12:27:22.168908 21213 net.cpp:122] Setting up norm2
I0401 12:27:22.168916 21213 net.cpp:129] Top shape: 128 256 27 27 (23887872)
I0401 12:27:22.168918 21213 net.cpp:137] Memory required for data: 847689728
I0401 12:27:22.168921 21213 layer_factory.hpp:77] Creating layer pool2
I0401 12:27:22.168927 21213 net.cpp:84] Creating Layer pool2
I0401 12:27:22.168931 21213 net.cpp:406] pool2 <- norm2
I0401 12:27:22.168933 21213 net.cpp:380] pool2 -> pool2
I0401 12:27:22.168958 21213 net.cpp:122] Setting up pool2
I0401 12:27:22.168962 21213 net.cpp:129] Top shape: 128 256 13 13 (5537792)
I0401 12:27:22.168964 21213 net.cpp:137] Memory required for data: 869840896
I0401 12:27:22.168967 21213 layer_factory.hpp:77] Creating layer conv3
I0401 12:27:22.168975 21213 net.cpp:84] Creating Layer conv3
I0401 12:27:22.168977 21213 net.cpp:406] conv3 <- pool2
I0401 12:27:22.168980 21213 net.cpp:380] conv3 -> conv3
I0401 12:27:22.178553 21213 net.cpp:122] Setting up conv3
I0401 12:27:22.178572 21213 net.cpp:129] Top shape: 128 384 13 13 (8306688)
I0401 12:27:22.178575 21213 net.cpp:137] Memory required for data: 903067648
I0401 12:27:22.178587 21213 layer_factory.hpp:77] Creating layer relu3
I0401 12:27:22.178594 21213 net.cpp:84] Creating Layer relu3
I0401 12:27:22.178597 21213 net.cpp:406] relu3 <- conv3
I0401 12:27:22.178603 21213 net.cpp:367] relu3 -> conv3 (in-place)
I0401 12:27:22.178992 21213 net.cpp:122] Setting up relu3
I0401 12:27:22.179001 21213 net.cpp:129] Top shape: 128 384 13 13 (8306688)
I0401 12:27:22.179003 21213 net.cpp:137] Memory required for data: 936294400
I0401 12:27:22.179005 21213 layer_factory.hpp:77] Creating layer conv4
I0401 12:27:22.179015 21213 net.cpp:84] Creating Layer conv4
I0401 12:27:22.179018 21213 net.cpp:406] conv4 <- conv3
I0401 12:27:22.179023 21213 net.cpp:380] conv4 -> conv4
I0401 12:27:22.188249 21213 net.cpp:122] Setting up conv4
I0401 12:27:22.188271 21213 net.cpp:129] Top shape: 128 384 13 13 (8306688)
I0401 12:27:22.188272 21213 net.cpp:137] Memory required for data: 969521152
I0401 12:27:22.188282 21213 layer_factory.hpp:77] Creating layer relu4
I0401 12:27:22.188289 21213 net.cpp:84] Creating Layer relu4
I0401 12:27:22.188310 21213 net.cpp:406] relu4 <- conv4
I0401 12:27:22.188315 21213 net.cpp:367] relu4 -> conv4 (in-place)
I0401 12:27:22.188622 21213 net.cpp:122] Setting up relu4
I0401 12:27:22.188629 21213 net.cpp:129] Top shape: 128 384 13 13 (8306688)
I0401 12:27:22.188632 21213 net.cpp:137] Memory required for data: 1002747904
I0401 12:27:22.188634 21213 layer_factory.hpp:77] Creating layer conv5
I0401 12:27:22.188644 21213 net.cpp:84] Creating Layer conv5
I0401 12:27:22.188647 21213 net.cpp:406] conv5 <- conv4
I0401 12:27:22.188652 21213 net.cpp:380] conv5 -> conv5
I0401 12:27:22.195936 21213 net.cpp:122] Setting up conv5
I0401 12:27:22.195957 21213 net.cpp:129] Top shape: 128 256 13 13 (5537792)
I0401 12:27:22.195960 21213 net.cpp:137] Memory required for data: 1024899072
I0401 12:27:22.195973 21213 layer_factory.hpp:77] Creating layer relu5
I0401 12:27:22.195981 21213 net.cpp:84] Creating Layer relu5
I0401 12:27:22.195984 21213 net.cpp:406] relu5 <- conv5
I0401 12:27:22.195989 21213 net.cpp:367] relu5 -> conv5 (in-place)
I0401 12:27:22.196437 21213 net.cpp:122] Setting up relu5
I0401 12:27:22.196445 21213 net.cpp:129] Top shape: 128 256 13 13 (5537792)
I0401 12:27:22.196447 21213 net.cpp:137] Memory required for data: 1047050240
I0401 12:27:22.196449 21213 layer_factory.hpp:77] Creating layer pool5
I0401 12:27:22.196456 21213 net.cpp:84] Creating Layer pool5
I0401 12:27:22.196458 21213 net.cpp:406] pool5 <- conv5
I0401 12:27:22.196463 21213 net.cpp:380] pool5 -> pool5
I0401 12:27:22.196496 21213 net.cpp:122] Setting up pool5
I0401 12:27:22.196501 21213 net.cpp:129] Top shape: 128 256 6 6 (1179648)
I0401 12:27:22.196502 21213 net.cpp:137] Memory required for data: 1051768832
I0401 12:27:22.196504 21213 layer_factory.hpp:77] Creating layer fc6
I0401 12:27:22.196514 21213 net.cpp:84] Creating Layer fc6
I0401 12:27:22.196516 21213 net.cpp:406] fc6 <- pool5
I0401 12:27:22.196521 21213 net.cpp:380] fc6 -> fc6
I0401 12:27:22.527060 21213 net.cpp:122] Setting up fc6
I0401 12:27:22.527078 21213 net.cpp:129] Top shape: 128 4096 (524288)
I0401 12:27:22.527081 21213 net.cpp:137] Memory required for data: 1053865984
I0401 12:27:22.527088 21213 layer_factory.hpp:77] Creating layer relu6
I0401 12:27:22.527096 21213 net.cpp:84] Creating Layer relu6
I0401 12:27:22.527098 21213 net.cpp:406] relu6 <- fc6
I0401 12:27:22.527104 21213 net.cpp:367] relu6 -> fc6 (in-place)
I0401 12:27:22.530951 21213 net.cpp:122] Setting up relu6
I0401 12:27:22.530963 21213 net.cpp:129] Top shape: 128 4096 (524288)
I0401 12:27:22.530966 21213 net.cpp:137] Memory required for data: 1055963136
I0401 12:27:22.530969 21213 layer_factory.hpp:77] Creating layer drop6
I0401 12:27:22.530977 21213 net.cpp:84] Creating Layer drop6
I0401 12:27:22.530980 21213 net.cpp:406] drop6 <- fc6
I0401 12:27:22.530984 21213 net.cpp:367] drop6 -> fc6 (in-place)
I0401 12:27:22.531013 21213 net.cpp:122] Setting up drop6
I0401 12:27:22.531018 21213 net.cpp:129] Top shape: 128 4096 (524288)
I0401 12:27:22.531020 21213 net.cpp:137] Memory required for data: 1058060288
I0401 12:27:22.531023 21213 layer_factory.hpp:77] Creating layer fc7
I0401 12:27:22.531028 21213 net.cpp:84] Creating Layer fc7
I0401 12:27:22.531030 21213 net.cpp:406] fc7 <- fc6
I0401 12:27:22.531034 21213 net.cpp:380] fc7 -> fc7
I0401 12:27:22.685163 21213 net.cpp:122] Setting up fc7
I0401 12:27:22.685181 21213 net.cpp:129] Top shape: 128 4096 (524288)
I0401 12:27:22.685184 21213 net.cpp:137] Memory required for data: 1060157440
I0401 12:27:22.685191 21213 layer_factory.hpp:77] Creating layer relu7
I0401 12:27:22.685200 21213 net.cpp:84] Creating Layer relu7
I0401 12:27:22.685204 21213 net.cpp:406] relu7 <- fc7
I0401 12:27:22.685209 21213 net.cpp:367] relu7 -> fc7 (in-place)
I0401 12:27:22.685562 21213 net.cpp:122] Setting up relu7
I0401 12:27:22.685570 21213 net.cpp:129] Top shape: 128 4096 (524288)
I0401 12:27:22.685571 21213 net.cpp:137] Memory required for data: 1062254592
I0401 12:27:22.685575 21213 layer_factory.hpp:77] Creating layer drop7
I0401 12:27:22.685578 21213 net.cpp:84] Creating Layer drop7
I0401 12:27:22.685581 21213 net.cpp:406] drop7 <- fc7
I0401 12:27:22.685602 21213 net.cpp:367] drop7 -> fc7 (in-place)
I0401 12:27:22.685622 21213 net.cpp:122] Setting up drop7
I0401 12:27:22.685627 21213 net.cpp:129] Top shape: 128 4096 (524288)
I0401 12:27:22.685631 21213 net.cpp:137] Memory required for data: 1064351744
I0401 12:27:22.685632 21213 layer_factory.hpp:77] Creating layer fc8
I0401 12:27:22.685637 21213 net.cpp:84] Creating Layer fc8
I0401 12:27:22.685639 21213 net.cpp:406] fc8 <- fc7
I0401 12:27:22.685644 21213 net.cpp:380] fc8 -> fc8
I0401 12:27:22.692747 21213 net.cpp:122] Setting up fc8
I0401 12:27:22.692760 21213 net.cpp:129] Top shape: 128 196 (25088)
I0401 12:27:22.692762 21213 net.cpp:137] Memory required for data: 1064452096
I0401 12:27:22.692768 21213 layer_factory.hpp:77] Creating layer loss
I0401 12:27:22.692775 21213 net.cpp:84] Creating Layer loss
I0401 12:27:22.692778 21213 net.cpp:406] loss <- fc8
I0401 12:27:22.692782 21213 net.cpp:406] loss <- label
I0401 12:27:22.692788 21213 net.cpp:380] loss -> loss
I0401 12:27:22.692796 21213 layer_factory.hpp:77] Creating layer loss
…
I0401 12:27:22.695057 21213 net.cpp:294] The NetState phase (1) differed from the phase (0) specified by a rule in layer train-data
I0401 12:27:22.695204 21213 net.cpp:51] Initializing net from parameters:
state {
phase: TEST
}
layer {
name: "val-data"
type: "Data"
top: "data"
top: "label"
include {
phase: TEST
}
transform_param {
crop_size: 227
mean_file: "/mnt/bigdisk/DIGITS-AIN-3/digits/jobs/20210401-115942-8d19/mean.binaryproto"
}
data_param {
source: "/mnt/bigdisk/DIGITS-AIN-3/digits/jobs/20210401-115942-8d19/val_db"
batch_size: 32
backend: LMDB
}
}
layer {
name: "conv1"
type: "Convolution"
bottom: "data"
top: "conv1"
param {
lr_mult: 1
decay_mult: 1
}
param {
lr_mult: 2
decay_mult: 0
}
convolution_param {
num_output: 96
kernel_size: 11
stride: 4
weight_filler {
type: "gaussian"
std: 0.01
}
bias_filler {
type: "constant"
value: 0
}
}
}
layer {
name: "relu1"
type: "ReLU"
bottom: "conv1"
top: "conv1"
}
layer {
name: "norm1"
type: "LRN"
bottom: "conv1"
top: "norm1"
lrn_param {
local_size: 5
alpha: 0.0001
beta: 0.75
}
}
layer {
name: "pool1"
type: "Pooling"
bottom: "norm1"
top: "pool1"
pooling_param {
pool: MAX
kernel_size: 3
stride: 2
}
}
layer {
name: "conv2"
type: "Convolution"
bottom: "pool1"
top: "conv2"
param {
lr_mult: 1
decay_mult: 1
}
param {
lr_mult: 2
decay_mult: 0
}
convolution_param {
num_output: 256
pad: 2
kernel_size: 5
group: 2
weight_filler {
type: "gaussian"
std: 0.01
}
bias_filler {
type: "constant"
value: 0.1
}
}
}
layer {
name: "relu2"
type: "ReLU"
bottom: "conv2"
top: "conv2"
}
layer {
name: "norm2"
type: "LRN"
bottom: "conv2"
top: "norm2"
lrn_param {
local_size: 5
alpha: 0.0001
beta: 0.75
}
}
layer {
name: "pool2"
type: "Pooling"
bottom: "norm2"
top: "pool2"
pooling_param {
pool: MAX
kernel_size: 3
stride: 2
}
}
layer {
name: "conv3"
type: "Convolution"
bottom: "pool2"
top: "conv3"
param {
lr_mult: 1
decay_mult: 1
}
param {
lr_mult: 2
decay_mult: 0
}
convolution_param {
num_output: 384
pad: 1
kernel_size: 3
weight_filler {
type: "gaussian"
std: 0.01
}
bias_filler {
type: "constant"
value: 0
}
}
}
layer {
name: "relu3"
type: "ReLU"
bottom: "conv3"
top: "conv3"
}
layer {
name: "conv4"
type: "Convolution"
bottom: "conv3"
top: "conv4"
param {
lr_mult: 1
decay_mult: 1
}
param {
lr_mult: 2
decay_mult: 0
}
convolution_param {
num_output: 384
pad: 1
kernel_size: 3
group: 2
weight_filler {
type: "gaussian"
std: 0.01
}
bias_filler {
type: "constant"
value: 0.1
}
}
}
layer {
name: "relu4"
type: "ReLU"
bottom: "conv4"
top: "conv4"
}
layer {
name: "conv5"
type: "Convolution"
bottom: "conv4"
top: "conv5"
param {
lr_mult: 1
decay_mult: 1
}
param {
lr_mult: 2
decay_mult: 0
}
convolution_param {
num_output: 256
pad: 1
kernel_size: 3
group: 2
weight_filler {
type: "gaussian"
std: 0.01
}
bias_filler {
type: "constant"
value: 0.1
}
}
}
layer {
name: "relu5"
type: "ReLU"
bottom: "conv5"
top: "conv5"
}
layer {
name: "pool5"
type: "Pooling"
bottom: "conv5"
top: "pool5"
pooling_param {
pool: MAX
kernel_size: 3
stride: 2
}
}
layer {
name: "fc6"
type: "InnerProduct"
bottom: "pool5"
top: "fc6"
param {
lr_mult: 1
decay_mult: 1
}
param {
lr_mult: 2
decay_mult: 0
}
inner_product_param {
num_output: 4096
weight_filler {
type: "gaussian"
std: 0.005
}
bias_filler {
type: "constant"
value: 0.1
}
}
}
layer {
name: "relu6"
type: "ReLU"
bottom: "fc6"
top: "fc6"
}
layer {
name: "drop6"
type: "Dropout"
bottom: "fc6"
top: "fc6"
dropout_param {
dropout_ratio: 0.5
}
}
layer {
name: "fc7"
type: "InnerProduct"
bottom: "fc6"
top: "fc7"
param {
lr_mult: 1
decay_mult: 1
}
param {
lr_mult: 2
decay_mult: 0
}
inner_product_param {
num_output: 4096
weight_filler {
type: "gaussian"
std: 0.005
}
bias_filler {
type: "constant"
value: 0.1
}
}
}
layer {
name: "relu7"
type: "ReLU"
bottom: "fc7"
top: "fc7"
}
layer {
name: "drop7"
type: "Dropout"
bottom: "fc7"
top: "fc7"
dropout_param {
dropout_ratio: 0.5
}
}
layer {
name: "fc8"
type: "InnerProduct"
bottom: "fc7"
top: "fc8"
param {
lr_mult: 1
decay_mult: 1
}
param {
lr_mult: 2
decay_mult: 0
}
inner_product_param {
num_output: 196
weight_filler {
type: "gaussian"
std: 0.01
}
bias_filler {
type: "constant"
value: 0
}
}
}
layer {
name: "accuracy"
type: "Accuracy"
bottom: "fc8"
bottom: "label"
top: "accuracy"
include {
phase: TEST
}
}
layer {
name: "loss"
type: "SoftmaxWithLoss"
bottom: "fc8"
bottom: "label"
top: "loss"
}
I0401 12:27:22.695303 21213 layer_factory.hpp:77] Creating layer val-data
I0401 12:27:22.698077 21213 db_lmdb.cpp:35] Opened lmdb /mnt/bigdisk/DIGITS-AIN-3/digits/jobs/20210401-115942-8d19/val_db
I0401 12:27:22.698302 21213 net.cpp:84] Creating Layer val-data
I0401 12:27:22.698310 21213 net.cpp:380] val-data -> data
I0401 12:27:22.698318 21213 net.cpp:380] val-data -> label
I0401 12:27:22.698324 21213 data_transformer.cpp:25] Loading mean file from: /mnt/bigdisk/DIGITS-AIN-3/digits/jobs/20210401-115942-8d19/mean.binaryproto
I0401 12:27:22.701804 21213 data_layer.cpp:45] output data size: 32,3,227,227
I0401 12:27:22.733502 21213 net.cpp:122] Setting up val-data
I0401 12:27:22.733522 21213 net.cpp:129] Top shape: 32 3 227 227 (4946784)
I0401 12:27:22.733525 21213 net.cpp:129] Top shape: 32 (32)
I0401 12:27:22.733527 21213 net.cpp:137] Memory required for data: 19787264
I0401 12:27:22.733533 21213 layer_factory.hpp:77] Creating layer label_val-data_1_split
I0401 12:27:22.733544 21213 net.cpp:84] Creating Layer label_val-data_1_split
I0401 12:27:22.733547 21213 net.cpp:406] label_val-data_1_split <- label
I0401 12:27:22.733553 21213 net.cpp:380] label_val-data_1_split -> label_val-data_1_split_0
I0401 12:27:22.733561 21213 net.cpp:380] label_val-data_1_split -> label_val-data_1_split_1
I0401 12:27:22.733649 21213 net.cpp:122] Setting up label_val-data_1_split
I0401 12:27:22.733655 21213 net.cpp:129] Top shape: 32 (32)
I0401 12:27:22.733657 21213 net.cpp:129] Top shape: 32 (32)
I0401 12:27:22.733659 21213 net.cpp:137] Memory required for data: 19787520
I0401 12:27:22.733661 21213 layer_factory.hpp:77] Creating layer conv1
I0401 12:27:22.733672 21213 net.cpp:84] Creating Layer conv1
I0401 12:27:22.733675 21213 net.cpp:406] conv1 <- data
I0401 12:27:22.733680 21213 net.cpp:380] conv1 -> conv1
I0401 12:27:22.735970 21213 net.cpp:122] Setting up conv1
I0401 12:27:22.735980 21213 net.cpp:129] Top shape: 32 96 55 55 (9292800)
I0401 12:27:22.735982 21213 net.cpp:137] Memory required for data: 56958720
I0401 12:27:22.735991 21213 layer_factory.hpp:77] Creating layer relu1
I0401 12:27:22.735997 21213 net.cpp:84] Creating Layer relu1
I0401 12:27:22.735999 21213 net.cpp:406] relu1 <- conv1
I0401 12:27:22.736003 21213 net.cpp:367] relu1 -> conv1 (in-place)
I0401 12:27:22.736260 21213 net.cpp:122] Setting up relu1
I0401 12:27:22.736268 21213 net.cpp:129] Top shape: 32 96 55 55 (9292800)
I0401 12:27:22.736269 21213 net.cpp:137] Memory required for data: 94129920
I0401 12:27:22.736271 21213 layer_factory.hpp:77] Creating layer norm1
I0401 12:27:22.736279 21213 net.cpp:84] Creating Layer norm1
I0401 12:27:22.736281 21213 net.cpp:406] norm1 <- conv1
I0401 12:27:22.736285 21213 net.cpp:380] norm1 -> norm1
I0401 12:27:22.736701 21213 net.cpp:122] Setting up norm1
I0401 12:27:22.736711 21213 net.cpp:129] Top shape: 32 96 55 55 (9292800)
I0401 12:27:22.736712 21213 net.cpp:137] Memory required for data: 131301120
I0401 12:27:22.736714 21213 layer_factory.hpp:77] Creating layer pool1
I0401 12:27:22.736721 21213 net.cpp:84] Creating Layer pool1
I0401 12:27:22.736722 21213 net.cpp:406] pool1 <- norm1
I0401 12:27:22.736726 21213 net.cpp:380] pool1 -> pool1
I0401 12:27:22.736750 21213 net.cpp:122] Setting up pool1
I0401 12:27:22.736754 21213 net.cpp:129] Top shape: 32 96 27 27 (2239488)
I0401 12:27:22.736757 21213 net.cpp:137] Memory required for data: 140259072
I0401 12:27:22.736758 21213 layer_factory.hpp:77] Creating layer conv2
I0401 12:27:22.736766 21213 net.cpp:84] Creating Layer conv2
I0401 12:27:22.736768 21213 net.cpp:406] conv2 <- pool1
I0401 12:27:22.736789 21213 net.cpp:380] conv2 -> conv2
I0401 12:27:22.742633 21213 net.cpp:122] Setting up conv2
I0401 12:27:22.742650 21213 net.cpp:129] Top shape: 32 256 27 27 (5971968)
I0401 12:27:22.742653 21213 net.cpp:137] Memory required for data: 164146944
I0401 12:27:22.742664 21213 layer_factory.hpp:77] Creating layer relu2
I0401 12:27:22.742671 21213 net.cpp:84] Creating Layer relu2
I0401 12:27:22.742674 21213 net.cpp:406] relu2 <- conv2
I0401 12:27:22.742681 21213 net.cpp:367] relu2 -> conv2 (in-place)
I0401 12:27:22.743142 21213 net.cpp:122] Setting up relu2
I0401 12:27:22.743152 21213 net.cpp:129] Top shape: 32 256 27 27 (5971968)
I0401 12:27:22.743155 21213 net.cpp:137] Memory required for data: 188034816
I0401 12:27:22.743157 21213 layer_factory.hpp:77] Creating layer norm2
I0401 12:27:22.743165 21213 net.cpp:84] Creating Layer norm2
I0401 12:27:22.743168 21213 net.cpp:406] norm2 <- conv2
I0401 12:27:22.743172 21213 net.cpp:380] norm2 -> norm2
I0401 12:27:22.743686 21213 net.cpp:122] Setting up norm2
I0401 12:27:22.743695 21213 net.cpp:129] Top shape: 32 256 27 27 (5971968)
I0401 12:27:22.743697 21213 net.cpp:137] Memory required for data: 211922688
I0401 12:27:22.743700 21213 layer_factory.hpp:77] Creating layer pool2
I0401 12:27:22.743706 21213 net.cpp:84] Creating Layer pool2
I0401 12:27:22.743708 21213 net.cpp:406] pool2 <- norm2
I0401 12:27:22.743712 21213 net.cpp:380] pool2 -> pool2
I0401 12:27:22.743739 21213 net.cpp:122] Setting up pool2
I0401 12:27:22.743743 21213 net.cpp:129] Top shape: 32 256 13 13 (1384448)
I0401 12:27:22.743746 21213 net.cpp:137] Memory required for data: 217460480
I0401 12:27:22.743747 21213 layer_factory.hpp:77] Creating layer conv3
I0401 12:27:22.743757 21213 net.cpp:84] Creating Layer conv3
I0401 12:27:22.743758 21213 net.cpp:406] conv3 <- pool2
I0401 12:27:22.743763 21213 net.cpp:380] conv3 -> conv3
I0401 12:27:22.759737 21213 net.cpp:122] Setting up conv3
I0401 12:27:22.759765 21213 net.cpp:129] Top shape: 32 384 13 13 (2076672)
I0401 12:27:22.759770 21213 net.cpp:137] Memory required for data: 225767168
I0401 12:27:22.759783 21213 layer_factory.hpp:77] Creating layer relu3
I0401 12:27:22.759791 21213 net.cpp:84] Creating Layer relu3
I0401 12:27:22.759794 21213 net.cpp:406] relu3 <- conv3
I0401 12:27:22.759800 21213 net.cpp:367] relu3 -> conv3 (in-place)
I0401 12:27:22.760282 21213 net.cpp:122] Setting up relu3
I0401 12:27:22.760291 21213 net.cpp:129] Top shape: 32 384 13 13 (2076672)
I0401 12:27:22.760293 21213 net.cpp:137] Memory required for data: 234073856
I0401 12:27:22.760296 21213 layer_factory.hpp:77] Creating layer conv4
I0401 12:27:22.760306 21213 net.cpp:84] Creating Layer conv4
I0401 12:27:22.760309 21213 net.cpp:406] conv4 <- conv3
I0401 12:27:22.760314 21213 net.cpp:380] conv4 -> conv4
I0401 12:27:22.769160 21213 net.cpp:122] Setting up conv4
I0401 12:27:22.769179 21213 net.cpp:129] Top shape: 32 384 13 13 (2076672)
I0401 12:27:22.769181 21213 net.cpp:137] Memory required for data: 242380544
I0401 12:27:22.769189 21213 layer_factory.hpp:77] Creating layer relu4
I0401 12:27:22.769196 21213 net.cpp:84] Creating Layer relu4
I0401 12:27:22.769201 21213 net.cpp:406] relu4 <- conv4
I0401 12:27:22.769207 21213 net.cpp:367] relu4 -> conv4 (in-place)
I0401 12:27:22.769518 21213 net.cpp:122] Setting up relu4
I0401 12:27:22.769526 21213 net.cpp:129] Top shape: 32 384 13 13 (2076672)
I0401 12:27:22.769527 21213 net.cpp:137] Memory required for data: 250687232
I0401 12:27:22.769529 21213 layer_factory.hpp:77] Creating layer conv5
I0401 12:27:22.769539 21213 net.cpp:84] Creating Layer conv5
I0401 12:27:22.769542 21213 net.cpp:406] conv5 <- conv4
I0401 12:27:22.769547 21213 net.cpp:380] conv5 -> conv5
I0401 12:27:22.777218 21213 net.cpp:122] Setting up conv5
I0401 12:27:22.777237 21213 net.cpp:129] Top shape: 32 256 13 13 (1384448)
I0401 12:27:22.777240 21213 net.cpp:137] Memory required for data: 256225024
I0401 12:27:22.777251 21213 layer_factory.hpp:77] Creating layer relu5
I0401 12:27:22.777258 21213 net.cpp:84] Creating Layer relu5
I0401 12:27:22.777262 21213 net.cpp:406] relu5 <- conv5
I0401 12:27:22.777287 21213 net.cpp:367] relu5 -> conv5 (in-place)
I0401 12:27:22.777755 21213 net.cpp:122] Setting up relu5
I0401 12:27:22.777763 21213 net.cpp:129] Top shape: 32 256 13 13 (1384448)
I0401 12:27:22.777765 21213 net.cpp:137] Memory required for data: 261762816
I0401 12:27:22.777767 21213 layer_factory.hpp:77] Creating layer pool5
I0401 12:27:22.777776 21213 net.cpp:84] Creating Layer pool5
I0401 12:27:22.777779 21213 net.cpp:406] pool5 <- conv5
I0401 12:27:22.777783 21213 net.cpp:380] pool5 -> pool5
I0401 12:27:22.777818 21213 net.cpp:122] Setting up pool5
I0401 12:27:22.777822 21213 net.cpp:129] Top shape: 32 256 6 6 (294912)
I0401 12:27:22.777825 21213 net.cpp:137] Memory required for data: 262942464
I0401 12:27:22.777827 21213 layer_factory.hpp:77] Creating layer fc6
I0401 12:27:22.777833 21213 net.cpp:84] Creating Layer fc6
I0401 12:27:22.777835 21213 net.cpp:406] fc6 <- pool5
I0401 12:27:22.777839 21213 net.cpp:380] fc6 -> fc6
I0401 12:27:23.115705 21213 net.cpp:122] Setting up fc6
I0401 12:27:23.115723 21213 net.cpp:129] Top shape: 32 4096 (131072)
I0401 12:27:23.115726 21213 net.cpp:137] Memory required for data: 263466752
I0401 12:27:23.115734 21213 layer_factory.hpp:77] Creating layer relu6
I0401 12:27:23.115743 21213 net.cpp:84] Creating Layer relu6
I0401 12:27:23.115747 21213 net.cpp:406] relu6 <- fc6
I0401 12:27:23.115751 21213 net.cpp:367] relu6 -> fc6 (in-place)
I0401 12:27:23.118427 21213 net.cpp:122] Setting up relu6
I0401 12:27:23.118438 21213 net.cpp:129] Top shape: 32 4096 (131072)
I0401 12:27:23.118441 21213 net.cpp:137] Memory required for data: 263991040
I0401 12:27:23.118445 21213 layer_factory.hpp:77] Creating layer drop6
I0401 12:27:23.118456 21213 net.cpp:84] Creating Layer drop6
I0401 12:27:23.118460 21213 net.cpp:406] drop6 <- fc6
I0401 12:27:23.118464 21213 net.cpp:367] drop6 -> fc6 (in-place)
I0401 12:27:23.118487 21213 net.cpp:122] Setting up drop6
I0401 12:27:23.118492 21213 net.cpp:129] Top shape: 32 4096 (131072)
I0401 12:27:23.118494 21213 net.cpp:137] Memory required for data: 264515328
I0401 12:27:23.118496 21213 layer_factory.hpp:77] Creating layer fc7
I0401 12:27:23.118503 21213 net.cpp:84] Creating Layer fc7
I0401 12:27:23.118505 21213 net.cpp:406] fc7 <- fc6
I0401 12:27:23.118508 21213 net.cpp:380] fc7 -> fc7
I0401 12:27:23.265069 21213 net.cpp:122] Setting up fc7
I0401 12:27:23.265089 21213 net.cpp:129] Top shape: 32 4096 (131072)
I0401 12:27:23.265092 21213 net.cpp:137] Memory required for data: 265039616
I0401 12:27:23.265100 21213 layer_factory.hpp:77] Creating layer relu7
I0401 12:27:23.265110 21213 net.cpp:84] Creating Layer relu7
I0401 12:27:23.265115 21213 net.cpp:406] relu7 <- fc7
I0401 12:27:23.265120 21213 net.cpp:367] relu7 -> fc7 (in-place)
I0401 12:27:23.265519 21213 net.cpp:122] Setting up relu7
I0401 12:27:23.265530 21213 net.cpp:129] Top shape: 32 4096 (131072)
I0401 12:27:23.265532 21213 net.cpp:137] Memory required for data: 265563904
I0401 12:27:23.265534 21213 layer_factory.hpp:77] Creating layer drop7
I0401 12:27:23.265540 21213 net.cpp:84] Creating Layer drop7
I0401 12:27:23.265542 21213 net.cpp:406] drop7 <- fc7
I0401 12:27:23.265547 21213 net.cpp:367] drop7 -> fc7 (in-place)
I0401 12:27:23.265571 21213 net.cpp:122] Setting up drop7
I0401 12:27:23.265574 21213 net.cpp:129] Top shape: 32 4096 (131072)
I0401 12:27:23.265576 21213 net.cpp:137] Memory required for data: 266088192
I0401 12:27:23.265578 21213 layer_factory.hpp:77] Creating layer fc8
I0401 12:27:23.265586 21213 net.cpp:84] Creating Layer fc8
I0401 12:27:23.265588 21213 net.cpp:406] fc8 <- fc7
I0401 12:27:23.265591 21213 net.cpp:380] fc8 -> fc8
I0401 12:27:23.272809 21213 net.cpp:122] Setting up fc8
I0401 12:27:23.272820 21213 net.cpp:129] Top shape: 32 196 (6272)
I0401 12:27:23.272822 21213 net.cpp:137] Memory required for data: 266113280
I0401 12:27:23.272828 21213 layer_factory.hpp:77] Creating layer fc8_fc8_0_split
I0401 12:27:23.272835 21213 net.cpp:84] Creating Layer fc8_fc8_0_split
I0401 12:27:23.272836 21213 net.cpp:406] fc8_fc8_0_split <- fc8
I0401 12:27:23.272859 21213 net.cpp:380] fc8_fc8_0_split -> fc8_fc8_0_split_0
I0401 12:27:23.272866 21213 net.cpp:380] fc8_fc8_0_split -> fc8_fc8_0_split_1
I0401 12:27:23.272904 21213 net.cpp:122] Setting up fc8_fc8_0_split
I0401 12:27:23.272909 21213 net.cpp:129] Top shape: 32 196 (6272)
I0401 12:27:23.272912 21213 net.cpp:129] Top shape: 32 196 (6272)
I0401 12:27:23.272913 21213 net.cpp:137] Memory required for data: 266163456
I0401 12:27:23.272915 21213 layer_factory.hpp:77] Creating layer accuracy
I0401 12:27:23.272922 21213 net.cpp:84] Creating Layer accuracy
I0401 12:27:23.272923 21213 net.cpp:406] accuracy <- fc8_fc8_0_split_0
I0401 12:27:23.272927 21213 net.cpp:406] accuracy <- label_val-data_1_split_0
I0401 12:27:23.272930 21213 net.cpp:380] accuracy -> accuracy
…
