…
I0410 00:06:20.895543 14080 net.cpp:294] The NetState phase (0) differed from the phase (1) specified by a rule in layer accuracy
I0410 00:06:20.895691 14080 net.cpp:51] Initializing net from parameters:
state {
phase: TRAIN
level: 0
stage: ""
}
layer {
name: "train-data"
type: "Data"
top: "data"
top: "label"
include {
phase: TRAIN
}
transform_param {
mirror: true
crop_size: 227
mean_file: "/mnt/bigdisk/DIGITS-MAN-2/digits/jobs/20210407-214532-d396/mean.binaryproto"
}
data_param {
source: "/mnt/bigdisk/DIGITS-MAN-2/digits/jobs/20210407-214532-d396/train_db"
batch_size: 128
backend: LMDB
}
}
layer {
name: "conv1"
type: "Convolution"
bottom: "data"
top: "conv1"
param {
lr_mult: 1
decay_mult: 1
}
param {
lr_mult: 2
decay_mult: 0
}
convolution_param {
num_output: 96
kernel_size: 11
stride: 4
weight_filler {
type: "gaussian"
std: 0.01
}
bias_filler {
type: "constant"
value: 0
}
}
}
layer {
name: "relu1"
type: "ReLU"
bottom: "conv1"
top: "conv1"
}
layer {
name: "norm1"
type: "LRN"
bottom: "conv1"
top: "norm1"
lrn_param {
local_size: 5
alpha: 0.0001
beta: 0.75
}
}
layer {
name: "pool1"
type: "Pooling"
bottom: "norm1"
top: "pool1"
pooling_param {
pool: MAX
kernel_size: 3
stride: 2
}
}
layer {
name: "conv2"
type: "Convolution"
bottom: "pool1"
top: "conv2"
param {
lr_mult: 1
decay_mult: 1
}
param {
lr_mult: 2
decay_mult: 0
}
convolution_param {
num_output: 256
pad: 2
kernel_size: 5
group: 2
weight_filler {
type: "gaussian"
std: 0.01
}
bias_filler {
type: "constant"
value: 0.1
}
}
}
layer {
name: "relu2"
type: "ReLU"
bottom: "conv2"
top: "conv2"
}
layer {
name: "norm2"
type: "LRN"
bottom: "conv2"
top: "norm2"
lrn_param {
local_size: 5
alpha: 0.0001
beta: 0.75
}
}
layer {
name: "pool2"
type: "Pooling"
bottom: "norm2"
top: "pool2"
pooling_param {
pool: MAX
kernel_size: 3
stride: 2
}
}
layer {
name: "conv3"
type: "Convolution"
bottom: "pool2"
top: "conv3"
param {
lr_mult: 1
decay_mult: 1
}
param {
lr_mult: 2
decay_mult: 0
}
convolution_param {
num_output: 384
pad: 1
kernel_size: 3
weight_filler {
type: "gaussian"
std: 0.01
}
bias_filler {
type: "constant"
value: 0
}
}
}
layer {
name: "relu3"
type: "ReLU"
bottom: "conv3"
top: "conv3"
}
layer {
name: "conv4"
type: "Convolution"
bottom: "conv3"
top: "conv4"
param {
lr_mult: 1
decay_mult: 1
}
param {
lr_mult: 2
decay_mult: 0
}
convolution_param {
num_output: 384
pad: 1
kernel_size: 3
group: 2
weight_filler {
type: "gaussian"
std: 0.01
}
bias_filler {
type: "constant"
value: 0.1
}
}
}
layer {
name: "relu4"
type: "ReLU"
bottom: "conv4"
top: "conv4"
}
layer {
name: "conv5"
type: "Convolution"
bottom: "conv4"
top: "conv5"
param {
lr_mult: 1
decay_mult: 1
}
param {
lr_mult: 2
decay_mult: 0
}
convolution_param {
num_output: 256
pad: 1
kernel_size: 3
group: 2
weight_filler {
type: "gaussian"
std: 0.01
}
bias_filler {
type: "constant"
value: 0.1
}
}
}
layer {
name: "relu5"
type: "ReLU"
bottom: "conv5"
top: "conv5"
}
layer {
name: "pool5"
type: "Pooling"
bottom: "conv5"
top: "pool5"
pooling_param {
pool: MAX
kernel_size: 3
stride: 2
}
}
layer {
name: "fc6"
type: "InnerProduct"
bottom: "pool5"
top: "fc6"
param {
lr_mult: 1
decay_mult: 1
}
param {
lr_mult: 2
decay_mult: 0
}
inner_product_param {
num_output: 2048
weight_filler {
type: "gaussian"
std: 0.005
}
bias_filler {
type: "constant"
value: 0.1
}
}
}
layer {
name: "relu6"
type: "ReLU"
bottom: "fc6"
top: "fc6"
}
layer {
name: "drop6"
type: "Dropout"
bottom: "fc6"
top: "fc6"
dropout_param {
dropout_ratio: 0.5
}
}
layer {
name: "fc7"
type: "InnerProduct"
bottom: "fc6"
top: "fc7"
param {
lr_mult: 1
decay_mult: 1
}
param {
lr_mult: 2
decay_mult: 0
}
inner_product_param {
num_output: 2048
weight_filler {
type: "gaussian"
std: 0.005
}
bias_filler {
type: "constant"
value: 0.1
}
}
}
layer {
name: "relu7"
type: "ReLU"
bottom: "fc7"
top: "fc7"
}
layer {
name: "drop7"
type: "Dropout"
bottom: "fc7"
top: "fc7"
dropout_param {
dropout_ratio: 0.5
}
}
layer {
name: "fc8"
type: "InnerProduct"
bottom: "fc7"
top: "fc8"
param {
lr_mult: 1
decay_mult: 1
}
param {
lr_mult: 2
decay_mult: 0
}
inner_product_param {
num_output: 196
weight_filler {
type: "gaussian"
std: 0.01
}
bias_filler {
type: "constant"
value: 0
}
}
}
layer {
name: "loss"
type: "SoftmaxWithLoss"
bottom: "fc8"
bottom: "label"
top: "loss"
}
I0410 00:06:20.895784 14080 layer_factory.hpp:77] Creating layer train-data
I0410 00:06:20.897408 14080 db_lmdb.cpp:35] Opened lmdb /mnt/bigdisk/DIGITS-MAN-2/digits/jobs/20210407-214532-d396/train_db
I0410 00:06:20.897615 14080 net.cpp:84] Creating Layer train-data
I0410 00:06:20.897626 14080 net.cpp:380] train-data -> data
I0410 00:06:20.897645 14080 net.cpp:380] train-data -> label
I0410 00:06:20.897657 14080 data_transformer.cpp:25] Loading mean file from: /mnt/bigdisk/DIGITS-MAN-2/digits/jobs/20210407-214532-d396/mean.binaryproto
I0410 00:06:20.903841 14080 data_layer.cpp:45] output data size: 128,3,227,227
I0410 00:06:21.032671 14080 net.cpp:122] Setting up train-data
I0410 00:06:21.032696 14080 net.cpp:129] Top shape: 128 3 227 227 (19787136)
I0410 00:06:21.032701 14080 net.cpp:129] Top shape: 128 (128)
I0410 00:06:21.032706 14080 net.cpp:137] Memory required for data: 79149056
I0410 00:06:21.032716 14080 layer_factory.hpp:77] Creating layer conv1
I0410 00:06:21.032737 14080 net.cpp:84] Creating Layer conv1
I0410 00:06:21.032742 14080 net.cpp:406] conv1 <- data
I0410 00:06:21.032753 14080 net.cpp:380] conv1 -> conv1
I0410 00:06:21.600085 14080 net.cpp:122] Setting up conv1
I0410 00:06:21.600107 14080 net.cpp:129] Top shape: 128 96 55 55 (37171200)
I0410 00:06:21.600111 14080 net.cpp:137] Memory required for data: 227833856
I0410 00:06:21.600131 14080 layer_factory.hpp:77] Creating layer relu1
I0410 00:06:21.600142 14080 net.cpp:84] Creating Layer relu1
I0410 00:06:21.600145 14080 net.cpp:406] relu1 <- conv1
I0410 00:06:21.600152 14080 net.cpp:367] relu1 -> conv1 (in-place)
I0410 00:06:21.600504 14080 net.cpp:122] Setting up relu1
I0410 00:06:21.600513 14080 net.cpp:129] Top shape: 128 96 55 55 (37171200)
I0410 00:06:21.600517 14080 net.cpp:137] Memory required for data: 376518656
I0410 00:06:21.600520 14080 layer_factory.hpp:77] Creating layer norm1
I0410 00:06:21.600530 14080 net.cpp:84] Creating Layer norm1
I0410 00:06:21.600534 14080 net.cpp:406] norm1 <- conv1
I0410 00:06:21.600558 14080 net.cpp:380] norm1 -> norm1
I0410 00:06:21.601066 14080 net.cpp:122] Setting up norm1
I0410 00:06:21.601076 14080 net.cpp:129] Top shape: 128 96 55 55 (37171200)
I0410 00:06:21.601079 14080 net.cpp:137] Memory required for data: 525203456
I0410 00:06:21.601083 14080 layer_factory.hpp:77] Creating layer pool1
I0410 00:06:21.601092 14080 net.cpp:84] Creating Layer pool1
I0410 00:06:21.601096 14080 net.cpp:406] pool1 <- norm1
I0410 00:06:21.601104 14080 net.cpp:380] pool1 -> pool1
I0410 00:06:21.601140 14080 net.cpp:122] Setting up pool1
I0410 00:06:21.601147 14080 net.cpp:129] Top shape: 128 96 27 27 (8957952)
I0410 00:06:21.601150 14080 net.cpp:137] Memory required for data: 561035264
I0410 00:06:21.601155 14080 layer_factory.hpp:77] Creating layer conv2
I0410 00:06:21.601164 14080 net.cpp:84] Creating Layer conv2
I0410 00:06:21.601168 14080 net.cpp:406] conv2 <- pool1
I0410 00:06:21.601173 14080 net.cpp:380] conv2 -> conv2
I0410 00:06:21.608233 14080 net.cpp:122] Setting up conv2
I0410 00:06:21.608250 14080 net.cpp:129] Top shape: 128 256 27 27 (23887872)
I0410 00:06:21.608254 14080 net.cpp:137] Memory required for data: 656586752
I0410 00:06:21.608265 14080 layer_factory.hpp:77] Creating layer relu2
I0410 00:06:21.608274 14080 net.cpp:84] Creating Layer relu2
I0410 00:06:21.608278 14080 net.cpp:406] relu2 <- conv2
I0410 00:06:21.608284 14080 net.cpp:367] relu2 -> conv2 (in-place)
I0410 00:06:21.608772 14080 net.cpp:122] Setting up relu2
I0410 00:06:21.608783 14080 net.cpp:129] Top shape: 128 256 27 27 (23887872)
I0410 00:06:21.608785 14080 net.cpp:137] Memory required for data: 752138240
I0410 00:06:21.608789 14080 layer_factory.hpp:77] Creating layer norm2
I0410 00:06:21.608798 14080 net.cpp:84] Creating Layer norm2
I0410 00:06:21.608803 14080 net.cpp:406] norm2 <- conv2
I0410 00:06:21.608808 14080 net.cpp:380] norm2 -> norm2
I0410 00:06:21.609160 14080 net.cpp:122] Setting up norm2
I0410 00:06:21.609169 14080 net.cpp:129] Top shape: 128 256 27 27 (23887872)
I0410 00:06:21.609172 14080 net.cpp:137] Memory required for data: 847689728
I0410 00:06:21.609175 14080 layer_factory.hpp:77] Creating layer pool2
I0410 00:06:21.609184 14080 net.cpp:84] Creating Layer pool2
I0410 00:06:21.609189 14080 net.cpp:406] pool2 <- norm2
I0410 00:06:21.609194 14080 net.cpp:380] pool2 -> pool2
I0410 00:06:21.609221 14080 net.cpp:122] Setting up pool2
I0410 00:06:21.609226 14080 net.cpp:129] Top shape: 128 256 13 13 (5537792)
I0410 00:06:21.609230 14080 net.cpp:137] Memory required for data: 869840896
I0410 00:06:21.609232 14080 layer_factory.hpp:77] Creating layer conv3
I0410 00:06:21.609244 14080 net.cpp:84] Creating Layer conv3
I0410 00:06:21.609247 14080 net.cpp:406] conv3 <- pool2
I0410 00:06:21.609252 14080 net.cpp:380] conv3 -> conv3
I0410 00:06:21.626212 14080 net.cpp:122] Setting up conv3
I0410 00:06:21.626232 14080 net.cpp:129] Top shape: 128 384 13 13 (8306688)
I0410 00:06:21.626235 14080 net.cpp:137] Memory required for data: 903067648
I0410 00:06:21.626247 14080 layer_factory.hpp:77] Creating layer relu3
I0410 00:06:21.626258 14080 net.cpp:84] Creating Layer relu3
I0410 00:06:21.626263 14080 net.cpp:406] relu3 <- conv3
I0410 00:06:21.626271 14080 net.cpp:367] relu3 -> conv3 (in-place)
I0410 00:06:21.626763 14080 net.cpp:122] Setting up relu3
I0410 00:06:21.626773 14080 net.cpp:129] Top shape: 128 384 13 13 (8306688)
I0410 00:06:21.626776 14080 net.cpp:137] Memory required for data: 936294400
I0410 00:06:21.626780 14080 layer_factory.hpp:77] Creating layer conv4
I0410 00:06:21.626791 14080 net.cpp:84] Creating Layer conv4
I0410 00:06:21.626794 14080 net.cpp:406] conv4 <- conv3
I0410 00:06:21.626801 14080 net.cpp:380] conv4 -> conv4
I0410 00:06:21.639935 14080 net.cpp:122] Setting up conv4
I0410 00:06:21.639953 14080 net.cpp:129] Top shape: 128 384 13 13 (8306688)
I0410 00:06:21.639957 14080 net.cpp:137] Memory required for data: 969521152
I0410 00:06:21.639967 14080 layer_factory.hpp:77] Creating layer relu4
I0410 00:06:21.639976 14080 net.cpp:84] Creating Layer relu4
I0410 00:06:21.639997 14080 net.cpp:406] relu4 <- conv4
I0410 00:06:21.640003 14080 net.cpp:367] relu4 -> conv4 (in-place)
I0410 00:06:21.640345 14080 net.cpp:122] Setting up relu4
I0410 00:06:21.640353 14080 net.cpp:129] Top shape: 128 384 13 13 (8306688)
I0410 00:06:21.640357 14080 net.cpp:137] Memory required for data: 1002747904
I0410 00:06:21.640362 14080 layer_factory.hpp:77] Creating layer conv5
I0410 00:06:21.640372 14080 net.cpp:84] Creating Layer conv5
I0410 00:06:21.640375 14080 net.cpp:406] conv5 <- conv4
I0410 00:06:21.640383 14080 net.cpp:380] conv5 -> conv5
I0410 00:06:21.648993 14080 net.cpp:122] Setting up conv5
I0410 00:06:21.649011 14080 net.cpp:129] Top shape: 128 256 13 13 (5537792)
I0410 00:06:21.649015 14080 net.cpp:137] Memory required for data: 1024899072
I0410 00:06:21.649029 14080 layer_factory.hpp:77] Creating layer relu5
I0410 00:06:21.649037 14080 net.cpp:84] Creating Layer relu5
I0410 00:06:21.649041 14080 net.cpp:406] relu5 <- conv5
I0410 00:06:21.649047 14080 net.cpp:367] relu5 -> conv5 (in-place)
I0410 00:06:21.649530 14080 net.cpp:122] Setting up relu5
I0410 00:06:21.649539 14080 net.cpp:129] Top shape: 128 256 13 13 (5537792)
I0410 00:06:21.649542 14080 net.cpp:137] Memory required for data: 1047050240
I0410 00:06:21.649546 14080 layer_factory.hpp:77] Creating layer pool5
I0410 00:06:21.649554 14080 net.cpp:84] Creating Layer pool5
I0410 00:06:21.649557 14080 net.cpp:406] pool5 <- conv5
I0410 00:06:21.649564 14080 net.cpp:380] pool5 -> pool5
I0410 00:06:21.649600 14080 net.cpp:122] Setting up pool5
I0410 00:06:21.649606 14080 net.cpp:129] Top shape: 128 256 6 6 (1179648)
I0410 00:06:21.649610 14080 net.cpp:137] Memory required for data: 1051768832
I0410 00:06:21.649613 14080 layer_factory.hpp:77] Creating layer fc6
I0410 00:06:21.649623 14080 net.cpp:84] Creating Layer fc6
I0410 00:06:21.649626 14080 net.cpp:406] fc6 <- pool5
I0410 00:06:21.649632 14080 net.cpp:380] fc6 -> fc6
I0410 00:06:21.826719 14080 net.cpp:122] Setting up fc6
I0410 00:06:21.826740 14080 net.cpp:129] Top shape: 128 2048 (262144)
I0410 00:06:21.826745 14080 net.cpp:137] Memory required for data: 1052817408
I0410 00:06:21.826753 14080 layer_factory.hpp:77] Creating layer relu6
I0410 00:06:21.826763 14080 net.cpp:84] Creating Layer relu6
I0410 00:06:21.826767 14080 net.cpp:406] relu6 <- fc6
I0410 00:06:21.826773 14080 net.cpp:367] relu6 -> fc6 (in-place)
I0410 00:06:21.827397 14080 net.cpp:122] Setting up relu6
I0410 00:06:21.827409 14080 net.cpp:129] Top shape: 128 2048 (262144)
I0410 00:06:21.827414 14080 net.cpp:137] Memory required for data: 1053865984
I0410 00:06:21.827417 14080 layer_factory.hpp:77] Creating layer drop6
I0410 00:06:21.827425 14080 net.cpp:84] Creating Layer drop6
I0410 00:06:21.827430 14080 net.cpp:406] drop6 <- fc6
I0410 00:06:21.827433 14080 net.cpp:367] drop6 -> fc6 (in-place)
I0410 00:06:21.827462 14080 net.cpp:122] Setting up drop6
I0410 00:06:21.827467 14080 net.cpp:129] Top shape: 128 2048 (262144)
I0410 00:06:21.827472 14080 net.cpp:137] Memory required for data: 1054914560
I0410 00:06:21.827476 14080 layer_factory.hpp:77] Creating layer fc7
I0410 00:06:21.827484 14080 net.cpp:84] Creating Layer fc7
I0410 00:06:21.827488 14080 net.cpp:406] fc7 <- fc6
I0410 00:06:21.827493 14080 net.cpp:380] fc7 -> fc7
I0410 00:06:21.866945 14080 net.cpp:122] Setting up fc7
I0410 00:06:21.866966 14080 net.cpp:129] Top shape: 128 2048 (262144)
I0410 00:06:21.866969 14080 net.cpp:137] Memory required for data: 1055963136
I0410 00:06:21.866978 14080 layer_factory.hpp:77] Creating layer relu7
I0410 00:06:21.866988 14080 net.cpp:84] Creating Layer relu7
I0410 00:06:21.866993 14080 net.cpp:406] relu7 <- fc7
I0410 00:06:21.866999 14080 net.cpp:367] relu7 -> fc7 (in-place)
I0410 00:06:21.867803 14080 net.cpp:122] Setting up relu7
I0410 00:06:21.867812 14080 net.cpp:129] Top shape: 128 2048 (262144)
I0410 00:06:21.867816 14080 net.cpp:137] Memory required for data: 1057011712
I0410 00:06:21.867820 14080 layer_factory.hpp:77] Creating layer drop7
I0410 00:06:21.867826 14080 net.cpp:84] Creating Layer drop7
I0410 00:06:21.867849 14080 net.cpp:406] drop7 <- fc7
I0410 00:06:21.867856 14080 net.cpp:367] drop7 -> fc7 (in-place)
I0410 00:06:21.867880 14080 net.cpp:122] Setting up drop7
I0410 00:06:21.867887 14080 net.cpp:129] Top shape: 128 2048 (262144)
I0410 00:06:21.867889 14080 net.cpp:137] Memory required for data: 1058060288
I0410 00:06:21.867892 14080 layer_factory.hpp:77] Creating layer fc8
I0410 00:06:21.867902 14080 net.cpp:84] Creating Layer fc8
I0410 00:06:21.867905 14080 net.cpp:406] fc8 <- fc7
I0410 00:06:21.867910 14080 net.cpp:380] fc8 -> fc8
I0410 00:06:21.871971 14080 net.cpp:122] Setting up fc8
I0410 00:06:21.871981 14080 net.cpp:129] Top shape: 128 196 (25088)
I0410 00:06:21.871985 14080 net.cpp:137] Memory required for data: 1058160640
I0410 00:06:21.871992 14080 layer_factory.hpp:77] Creating layer loss
I0410 00:06:21.871999 14080 net.cpp:84] Creating Layer loss
I0410 00:06:21.872004 14080 net.cpp:406] loss <- fc8
I0410 00:06:21.872009 14080 net.cpp:406] loss <- label
I0410 00:06:21.872014 14080 net.cpp:380] loss -> loss
I0410 00:06:21.872023 14080 layer_factory.hpp:77] Creating layer loss
…
I0410 00:06:21.873308 14080 net.cpp:294] The NetState phase (1) differed from the phase (0) specified by a rule in layer train-data
I0410 00:06:21.873446 14080 net.cpp:51] Initializing net from parameters:
state {
phase: TEST
}
layer {
name: "val-data"
type: "Data"
top: "data"
top: "label"
include {
phase: TEST
}
transform_param {
crop_size: 227
mean_file: "/mnt/bigdisk/DIGITS-MAN-2/digits/jobs/20210407-214532-d396/mean.binaryproto"
}
data_param {
source: "/mnt/bigdisk/DIGITS-MAN-2/digits/jobs/20210407-214532-d396/val_db"
batch_size: 32
backend: LMDB
}
}
layer {
name: "conv1"
type: "Convolution"
bottom: "data"
top: "conv1"
param {
lr_mult: 1
decay_mult: 1
}
param {
lr_mult: 2
decay_mult: 0
}
convolution_param {
num_output: 96
kernel_size: 11
stride: 4
weight_filler {
type: "gaussian"
std: 0.01
}
bias_filler {
type: "constant"
value: 0
}
}
}
layer {
name: "relu1"
type: "ReLU"
bottom: "conv1"
top: "conv1"
}
layer {
name: "norm1"
type: "LRN"
bottom: "conv1"
top: "norm1"
lrn_param {
local_size: 5
alpha: 0.0001
beta: 0.75
}
}
layer {
name: "pool1"
type: "Pooling"
bottom: "norm1"
top: "pool1"
pooling_param {
pool: MAX
kernel_size: 3
stride: 2
}
}
layer {
name: "conv2"
type: "Convolution"
bottom: "pool1"
top: "conv2"
param {
lr_mult: 1
decay_mult: 1
}
param {
lr_mult: 2
decay_mult: 0
}
convolution_param {
num_output: 256
pad: 2
kernel_size: 5
group: 2
weight_filler {
type: "gaussian"
std: 0.01
}
bias_filler {
type: "constant"
value: 0.1
}
}
}
layer {
name: "relu2"
type: "ReLU"
bottom: "conv2"
top: "conv2"
}
layer {
name: "norm2"
type: "LRN"
bottom: "conv2"
top: "norm2"
lrn_param {
local_size: 5
alpha: 0.0001
beta: 0.75
}
}
layer {
name: "pool2"
type: "Pooling"
bottom: "norm2"
top: "pool2"
pooling_param {
pool: MAX
kernel_size: 3
stride: 2
}
}
layer {
name: "conv3"
type: "Convolution"
bottom: "pool2"
top: "conv3"
param {
lr_mult: 1
decay_mult: 1
}
param {
lr_mult: 2
decay_mult: 0
}
convolution_param {
num_output: 384
pad: 1
kernel_size: 3
weight_filler {
type: "gaussian"
std: 0.01
}
bias_filler {
type: "constant"
value: 0
}
}
}
layer {
name: "relu3"
type: "ReLU"
bottom: "conv3"
top: "conv3"
}
layer {
name: "conv4"
type: "Convolution"
bottom: "conv3"
top: "conv4"
param {
lr_mult: 1
decay_mult: 1
}
param {
lr_mult: 2
decay_mult: 0
}
convolution_param {
num_output: 384
pad: 1
kernel_size: 3
group: 2
weight_filler {
type: "gaussian"
std: 0.01
}
bias_filler {
type: "constant"
value: 0.1
}
}
}
layer {
name: "relu4"
type: "ReLU"
bottom: "conv4"
top: "conv4"
}
layer {
name: "conv5"
type: "Convolution"
bottom: "conv4"
top: "conv5"
param {
lr_mult: 1
decay_mult: 1
}
param {
lr_mult: 2
decay_mult: 0
}
convolution_param {
num_output: 256
pad: 1
kernel_size: 3
group: 2
weight_filler {
type: "gaussian"
std: 0.01
}
bias_filler {
type: "constant"
value: 0.1
}
}
}
layer {
name: "relu5"
type: "ReLU"
bottom: "conv5"
top: "conv5"
}
layer {
name: "pool5"
type: "Pooling"
bottom: "conv5"
top: "pool5"
pooling_param {
pool: MAX
kernel_size: 3
stride: 2
}
}
layer {
name: "fc6"
type: "InnerProduct"
bottom: "pool5"
top: "fc6"
param {
lr_mult: 1
decay_mult: 1
}
param {
lr_mult: 2
decay_mult: 0
}
inner_product_param {
num_output: 2048
weight_filler {
type: "gaussian"
std: 0.005
}
bias_filler {
type: "constant"
value: 0.1
}
}
}
layer {
name: "relu6"
type: "ReLU"
bottom: "fc6"
top: "fc6"
}
layer {
name: "drop6"
type: "Dropout"
bottom: "fc6"
top: "fc6"
dropout_param {
dropout_ratio: 0.5
}
}
layer {
name: "fc7"
type: "InnerProduct"
bottom: "fc6"
top: "fc7"
param {
lr_mult: 1
decay_mult: 1
}
param {
lr_mult: 2
decay_mult: 0
}
inner_product_param {
num_output: 2048
weight_filler {
type: "gaussian"
std: 0.005
}
bias_filler {
type: "constant"
value: 0.1
}
}
}
layer {
name: "relu7"
type: "ReLU"
bottom: "fc7"
top: "fc7"
}
layer {
name: "drop7"
type: "Dropout"
bottom: "fc7"
top: "fc7"
dropout_param {
dropout_ratio: 0.5
}
}
layer {
name: "fc8"
type: "InnerProduct"
bottom: "fc7"
top: "fc8"
param {
lr_mult: 1
decay_mult: 1
}
param {
lr_mult: 2
decay_mult: 0
}
inner_product_param {
num_output: 196
weight_filler {
type: "gaussian"
std: 0.01
}
bias_filler {
type: "constant"
value: 0
}
}
}
layer {
name: "accuracy"
type: "Accuracy"
bottom: "fc8"
bottom: "label"
top: "accuracy"
include {
phase: TEST
}
}
layer {
name: "loss"
type: "SoftmaxWithLoss"
bottom: "fc8"
bottom: "label"
top: "loss"
}
I0410 00:06:21.873545 14080 layer_factory.hpp:77] Creating layer val-data
I0410 00:06:21.876121 14080 db_lmdb.cpp:35] Opened lmdb /mnt/bigdisk/DIGITS-MAN-2/digits/jobs/20210407-214532-d396/val_db
I0410 00:06:21.876529 14080 net.cpp:84] Creating Layer val-data
I0410 00:06:21.876539 14080 net.cpp:380] val-data -> data
I0410 00:06:21.876549 14080 net.cpp:380] val-data -> label
I0410 00:06:21.876555 14080 data_transformer.cpp:25] Loading mean file from: /mnt/bigdisk/DIGITS-MAN-2/digits/jobs/20210407-214532-d396/mean.binaryproto
I0410 00:06:21.880457 14080 data_layer.cpp:45] output data size: 32,3,227,227
I0410 00:06:21.923034 14080 net.cpp:122] Setting up val-data
I0410 00:06:21.923056 14080 net.cpp:129] Top shape: 32 3 227 227 (4946784)
I0410 00:06:21.923061 14080 net.cpp:129] Top shape: 32 (32)
I0410 00:06:21.923065 14080 net.cpp:137] Memory required for data: 19787264
I0410 00:06:21.923070 14080 layer_factory.hpp:77] Creating layer label_val-data_1_split
I0410 00:06:21.923084 14080 net.cpp:84] Creating Layer label_val-data_1_split
I0410 00:06:21.923087 14080 net.cpp:406] label_val-data_1_split <- label
I0410 00:06:21.923094 14080 net.cpp:380] label_val-data_1_split -> label_val-data_1_split_0
I0410 00:06:21.923103 14080 net.cpp:380] label_val-data_1_split -> label_val-data_1_split_1
I0410 00:06:21.923156 14080 net.cpp:122] Setting up label_val-data_1_split
I0410 00:06:21.923162 14080 net.cpp:129] Top shape: 32 (32)
I0410 00:06:21.923166 14080 net.cpp:129] Top shape: 32 (32)
I0410 00:06:21.923169 14080 net.cpp:137] Memory required for data: 19787520
I0410 00:06:21.923173 14080 layer_factory.hpp:77] Creating layer conv1
I0410 00:06:21.923183 14080 net.cpp:84] Creating Layer conv1
I0410 00:06:21.923187 14080 net.cpp:406] conv1 <- data
I0410 00:06:21.923192 14080 net.cpp:380] conv1 -> conv1
I0410 00:06:21.928262 14080 net.cpp:122] Setting up conv1
I0410 00:06:21.928274 14080 net.cpp:129] Top shape: 32 96 55 55 (9292800)
I0410 00:06:21.928277 14080 net.cpp:137] Memory required for data: 56958720
I0410 00:06:21.928287 14080 layer_factory.hpp:77] Creating layer relu1
I0410 00:06:21.928295 14080 net.cpp:84] Creating Layer relu1
I0410 00:06:21.928299 14080 net.cpp:406] relu1 <- conv1
I0410 00:06:21.928304 14080 net.cpp:367] relu1 -> conv1 (in-place)
I0410 00:06:21.928594 14080 net.cpp:122] Setting up relu1
I0410 00:06:21.928603 14080 net.cpp:129] Top shape: 32 96 55 55 (9292800)
I0410 00:06:21.928606 14080 net.cpp:137] Memory required for data: 94129920
I0410 00:06:21.928611 14080 layer_factory.hpp:77] Creating layer norm1
I0410 00:06:21.928619 14080 net.cpp:84] Creating Layer norm1
I0410 00:06:21.928623 14080 net.cpp:406] norm1 <- conv1
I0410 00:06:21.928629 14080 net.cpp:380] norm1 -> norm1
I0410 00:06:21.929085 14080 net.cpp:122] Setting up norm1
I0410 00:06:21.929093 14080 net.cpp:129] Top shape: 32 96 55 55 (9292800)
I0410 00:06:21.929097 14080 net.cpp:137] Memory required for data: 131301120
I0410 00:06:21.929100 14080 layer_factory.hpp:77] Creating layer pool1
I0410 00:06:21.929107 14080 net.cpp:84] Creating Layer pool1
I0410 00:06:21.929111 14080 net.cpp:406] pool1 <- norm1
I0410 00:06:21.929116 14080 net.cpp:380] pool1 -> pool1
I0410 00:06:21.929144 14080 net.cpp:122] Setting up pool1
I0410 00:06:21.929149 14080 net.cpp:129] Top shape: 32 96 27 27 (2239488)
I0410 00:06:21.929152 14080 net.cpp:137] Memory required for data: 140259072
I0410 00:06:21.929155 14080 layer_factory.hpp:77] Creating layer conv2
I0410 00:06:21.929163 14080 net.cpp:84] Creating Layer conv2
I0410 00:06:21.929167 14080 net.cpp:406] conv2 <- pool1
I0410 00:06:21.929191 14080 net.cpp:380] conv2 -> conv2
I0410 00:06:21.942306 14080 net.cpp:122] Setting up conv2
I0410 00:06:21.942324 14080 net.cpp:129] Top shape: 32 256 27 27 (5971968)
I0410 00:06:21.942328 14080 net.cpp:137] Memory required for data: 164146944
I0410 00:06:21.942338 14080 layer_factory.hpp:77] Creating layer relu2
I0410 00:06:21.942348 14080 net.cpp:84] Creating Layer relu2
I0410 00:06:21.942351 14080 net.cpp:406] relu2 <- conv2
I0410 00:06:21.942358 14080 net.cpp:367] relu2 -> conv2 (in-place)
I0410 00:06:21.942857 14080 net.cpp:122] Setting up relu2
I0410 00:06:21.942868 14080 net.cpp:129] Top shape: 32 256 27 27 (5971968)
I0410 00:06:21.942871 14080 net.cpp:137] Memory required for data: 188034816
I0410 00:06:21.942875 14080 layer_factory.hpp:77] Creating layer norm2
I0410 00:06:21.942885 14080 net.cpp:84] Creating Layer norm2
I0410 00:06:21.942888 14080 net.cpp:406] norm2 <- conv2
I0410 00:06:21.942894 14080 net.cpp:380] norm2 -> norm2
I0410 00:06:21.943409 14080 net.cpp:122] Setting up norm2
I0410 00:06:21.943419 14080 net.cpp:129] Top shape: 32 256 27 27 (5971968)
I0410 00:06:21.943423 14080 net.cpp:137] Memory required for data: 211922688
I0410 00:06:21.943428 14080 layer_factory.hpp:77] Creating layer pool2
I0410 00:06:21.943435 14080 net.cpp:84] Creating Layer pool2
I0410 00:06:21.943439 14080 net.cpp:406] pool2 <- norm2
I0410 00:06:21.943444 14080 net.cpp:380] pool2 -> pool2
I0410 00:06:21.943475 14080 net.cpp:122] Setting up pool2
I0410 00:06:21.943480 14080 net.cpp:129] Top shape: 32 256 13 13 (1384448)
I0410 00:06:21.943485 14080 net.cpp:137] Memory required for data: 217460480
I0410 00:06:21.943488 14080 layer_factory.hpp:77] Creating layer conv3
I0410 00:06:21.943498 14080 net.cpp:84] Creating Layer conv3
I0410 00:06:21.943502 14080 net.cpp:406] conv3 <- pool2
I0410 00:06:21.943509 14080 net.cpp:380] conv3 -> conv3
I0410 00:06:21.960819 14080 net.cpp:122] Setting up conv3
I0410 00:06:21.960836 14080 net.cpp:129] Top shape: 32 384 13 13 (2076672)
I0410 00:06:21.960841 14080 net.cpp:137] Memory required for data: 225767168
I0410 00:06:21.960853 14080 layer_factory.hpp:77] Creating layer relu3
I0410 00:06:21.960861 14080 net.cpp:84] Creating Layer relu3
I0410 00:06:21.960865 14080 net.cpp:406] relu3 <- conv3
I0410 00:06:21.960875 14080 net.cpp:367] relu3 -> conv3 (in-place)
I0410 00:06:21.961382 14080 net.cpp:122] Setting up relu3
I0410 00:06:21.961395 14080 net.cpp:129] Top shape: 32 384 13 13 (2076672)
I0410 00:06:21.961398 14080 net.cpp:137] Memory required for data: 234073856
I0410 00:06:21.961402 14080 layer_factory.hpp:77] Creating layer conv4
I0410 00:06:21.961413 14080 net.cpp:84] Creating Layer conv4
I0410 00:06:21.961418 14080 net.cpp:406] conv4 <- conv3
I0410 00:06:21.961424 14080 net.cpp:380] conv4 -> conv4
I0410 00:06:21.982378 14080 net.cpp:122] Setting up conv4
I0410 00:06:21.982398 14080 net.cpp:129] Top shape: 32 384 13 13 (2076672)
I0410 00:06:21.982401 14080 net.cpp:137] Memory required for data: 242380544
I0410 00:06:21.982411 14080 layer_factory.hpp:77] Creating layer relu4
I0410 00:06:21.982420 14080 net.cpp:84] Creating Layer relu4
I0410 00:06:21.982425 14080 net.cpp:406] relu4 <- conv4
I0410 00:06:21.982434 14080 net.cpp:367] relu4 -> conv4 (in-place)
I0410 00:06:21.982780 14080 net.cpp:122] Setting up relu4
I0410 00:06:21.982789 14080 net.cpp:129] Top shape: 32 384 13 13 (2076672)
I0410 00:06:21.982795 14080 net.cpp:137] Memory required for data: 250687232
I0410 00:06:21.982797 14080 layer_factory.hpp:77] Creating layer conv5
I0410 00:06:21.982808 14080 net.cpp:84] Creating Layer conv5
I0410 00:06:21.982813 14080 net.cpp:406] conv5 <- conv4
I0410 00:06:21.982820 14080 net.cpp:380] conv5 -> conv5
I0410 00:06:21.991370 14080 net.cpp:122] Setting up conv5
I0410 00:06:21.991389 14080 net.cpp:129] Top shape: 32 256 13 13 (1384448)
I0410 00:06:21.991394 14080 net.cpp:137] Memory required for data: 256225024
I0410 00:06:21.991406 14080 layer_factory.hpp:77] Creating layer relu5
I0410 00:06:21.991415 14080 net.cpp:84] Creating Layer relu5
I0410 00:06:21.991420 14080 net.cpp:406] relu5 <- conv5
I0410 00:06:21.991444 14080 net.cpp:367] relu5 -> conv5 (in-place)
I0410 00:06:21.991935 14080 net.cpp:122] Setting up relu5
I0410 00:06:21.991945 14080 net.cpp:129] Top shape: 32 256 13 13 (1384448)
I0410 00:06:21.991948 14080 net.cpp:137] Memory required for data: 261762816
I0410 00:06:21.991952 14080 layer_factory.hpp:77] Creating layer pool5
I0410 00:06:21.991962 14080 net.cpp:84] Creating Layer pool5
I0410 00:06:21.991966 14080 net.cpp:406] pool5 <- conv5
I0410 00:06:21.991972 14080 net.cpp:380] pool5 -> pool5
I0410 00:06:21.992012 14080 net.cpp:122] Setting up pool5
I0410 00:06:21.992018 14080 net.cpp:129] Top shape: 32 256 6 6 (294912)
I0410 00:06:21.992022 14080 net.cpp:137] Memory required for data: 262942464
I0410 00:06:21.992024 14080 layer_factory.hpp:77] Creating layer fc6
I0410 00:06:21.992031 14080 net.cpp:84] Creating Layer fc6
I0410 00:06:21.992034 14080 net.cpp:406] fc6 <- pool5
I0410 00:06:21.992040 14080 net.cpp:380] fc6 -> fc6
I0410 00:06:22.169602 14080 net.cpp:122] Setting up fc6
I0410 00:06:22.169623 14080 net.cpp:129] Top shape: 32 2048 (65536)
I0410 00:06:22.169628 14080 net.cpp:137] Memory required for data: 263204608
I0410 00:06:22.169637 14080 layer_factory.hpp:77] Creating layer relu6
I0410 00:06:22.169647 14080 net.cpp:84] Creating Layer relu6
I0410 00:06:22.169653 14080 net.cpp:406] relu6 <- fc6
I0410 00:06:22.169659 14080 net.cpp:367] relu6 -> fc6 (in-place)
I0410 00:06:22.170495 14080 net.cpp:122] Setting up relu6
I0410 00:06:22.170504 14080 net.cpp:129] Top shape: 32 2048 (65536)
I0410 00:06:22.170508 14080 net.cpp:137] Memory required for data: 263466752
I0410 00:06:22.170513 14080 layer_factory.hpp:77] Creating layer drop6
I0410 00:06:22.170521 14080 net.cpp:84] Creating Layer drop6
I0410 00:06:22.170523 14080 net.cpp:406] drop6 <- fc6
I0410 00:06:22.170531 14080 net.cpp:367] drop6 -> fc6 (in-place)
I0410 00:06:22.170555 14080 net.cpp:122] Setting up drop6
I0410 00:06:22.170562 14080 net.cpp:129] Top shape: 32 2048 (65536)
I0410 00:06:22.170565 14080 net.cpp:137] Memory required for data: 263728896
I0410 00:06:22.170569 14080 layer_factory.hpp:77] Creating layer fc7
I0410 00:06:22.170580 14080 net.cpp:84] Creating Layer fc7
I0410 00:06:22.170584 14080 net.cpp:406] fc7 <- fc6
I0410 00:06:22.170593 14080 net.cpp:380] fc7 -> fc7
I0410 00:06:22.212087 14080 net.cpp:122] Setting up fc7
I0410 00:06:22.212105 14080 net.cpp:129] Top shape: 32 2048 (65536)
I0410 00:06:22.212110 14080 net.cpp:137] Memory required for data: 263991040
I0410 00:06:22.212119 14080 layer_factory.hpp:77] Creating layer relu7
I0410 00:06:22.212128 14080 net.cpp:84] Creating Layer relu7
I0410 00:06:22.212132 14080 net.cpp:406] relu7 <- fc7
I0410 00:06:22.212139 14080 net.cpp:367] relu7 -> fc7 (in-place)
I0410 00:06:22.212563 14080 net.cpp:122] Setting up relu7
I0410 00:06:22.212570 14080 net.cpp:129] Top shape: 32 2048 (65536)
I0410 00:06:22.212574 14080 net.cpp:137] Memory required for data: 264253184
I0410 00:06:22.212577 14080 layer_factory.hpp:77] Creating layer drop7
I0410 00:06:22.212584 14080 net.cpp:84] Creating Layer drop7
I0410 00:06:22.212589 14080 net.cpp:406] drop7 <- fc7
I0410 00:06:22.212594 14080 net.cpp:367] drop7 -> fc7 (in-place)
I0410 00:06:22.212618 14080 net.cpp:122] Setting up drop7
I0410 00:06:22.212623 14080 net.cpp:129] Top shape: 32 2048 (65536)
I0410 00:06:22.212626 14080 net.cpp:137] Memory required for data: 264515328
I0410 00:06:22.212630 14080 layer_factory.hpp:77] Creating layer fc8
I0410 00:06:22.212638 14080 net.cpp:84] Creating Layer fc8
I0410 00:06:22.212642 14080 net.cpp:406] fc8 <- fc7
I0410 00:06:22.212647 14080 net.cpp:380] fc8 -> fc8
I0410 00:06:22.216800 14080 net.cpp:122] Setting up fc8
I0410 00:06:22.216811 14080 net.cpp:129] Top shape: 32 196 (6272)
I0410 00:06:22.216815 14080 net.cpp:137] Memory required for data: 264540416
I0410 00:06:22.216822 14080 layer_factory.hpp:77] Creating layer fc8_fc8_0_split
I0410 00:06:22.216831 14080 net.cpp:84] Creating Layer fc8_fc8_0_split
I0410 00:06:22.216835 14080 net.cpp:406] fc8_fc8_0_split <- fc8
I0410 00:06:22.216858 14080 net.cpp:380] fc8_fc8_0_split -> fc8_fc8_0_split_0
I0410 00:06:22.216866 14080 net.cpp:380] fc8_fc8_0_split -> fc8_fc8_0_split_1
I0410 00:06:22.216902 14080 net.cpp:122] Setting up fc8_fc8_0_split
I0410 00:06:22.216908 14080 net.cpp:129] Top shape: 32 196 (6272)
I0410 00:06:22.216912 14080 net.cpp:129] Top shape: 32 196 (6272)
I0410 00:06:22.216914 14080 net.cpp:137] Memory required for data: 264590592
I0410 00:06:22.216918 14080 layer_factory.hpp:77] Creating layer accuracy
I0410 00:06:22.216925 14080 net.cpp:84] Creating Layer accuracy
I0410 00:06:22.216928 14080 net.cpp:406] accuracy <- fc8_fc8_0_split_0
I0410 00:06:22.216933 14080 net.cpp:406] accuracy <- label_val-data_1_split_0
I0410 00:06:22.216938 14080 net.cpp:380] accuracy -> accuracy
…
