…
I0426 10:10:14.129611 20304 net.cpp:294] The NetState phase (0) differed from the phase (1) specified by a rule in layer accuracy
I0426 10:10:14.129755 20304 net.cpp:51] Initializing net from parameters:
state {
phase: TRAIN
level: 0
stage: ""
}
layer {
name: "train-data"
type: "Data"
top: "data"
top: "label"
include {
phase: TRAIN
}
transform_param {
mirror: true
crop_size: 227
mean_file: "/mnt/bigdisk/DIGITS-MAN-3/digits/jobs/20210421-230320-902c/mean.binaryproto"
}
data_param {
source: "/mnt/bigdisk/DIGITS-MAN-3/digits/jobs/20210421-230320-902c/train_db"
batch_size: 128
backend: LMDB
}
}
layer {
name: "conv1"
type: "Convolution"
bottom: "data"
top: "conv1"
param {
lr_mult: 1
decay_mult: 1
}
param {
lr_mult: 2
decay_mult: 0
}
convolution_param {
num_output: 96
kernel_size: 11
stride: 4
weight_filler {
type: "gaussian"
std: 0.01
}
bias_filler {
type: "constant"
value: 0
}
}
}
layer {
name: "relu1"
type: "ReLU"
bottom: "conv1"
top: "conv1"
}
layer {
name: "norm1"
type: "LRN"
bottom: "conv1"
top: "norm1"
lrn_param {
local_size: 5
alpha: 0.0001
beta: 0.75
}
}
layer {
name: "pool1"
type: "Pooling"
bottom: "norm1"
top: "pool1"
pooling_param {
pool: MAX
kernel_size: 3
stride: 2
}
}
layer {
name: "conv2"
type: "Convolution"
bottom: "pool1"
top: "conv2"
param {
lr_mult: 1
decay_mult: 1
}
param {
lr_mult: 2
decay_mult: 0
}
convolution_param {
num_output: 256
pad: 2
kernel_size: 5
group: 2
weight_filler {
type: "gaussian"
std: 0.01
}
bias_filler {
type: "constant"
value: 0.1
}
}
}
layer {
name: "relu2"
type: "ReLU"
bottom: "conv2"
top: "conv2"
}
layer {
name: "norm2"
type: "LRN"
bottom: "conv2"
top: "norm2"
lrn_param {
local_size: 5
alpha: 0.0001
beta: 0.75
}
}
layer {
name: "pool2"
type: "Pooling"
bottom: "norm2"
top: "pool2"
pooling_param {
pool: MAX
kernel_size: 3
stride: 2
}
}
layer {
name: "conv3"
type: "Convolution"
bottom: "pool2"
top: "conv3"
param {
lr_mult: 1
decay_mult: 1
}
param {
lr_mult: 2
decay_mult: 0
}
convolution_param {
num_output: 384
pad: 1
kernel_size: 3
weight_filler {
type: "gaussian"
std: 0.01
}
bias_filler {
type: "constant"
value: 0
}
}
}
layer {
name: "relu3"
type: "ReLU"
bottom: "conv3"
top: "conv3"
}
layer {
name: "conv4"
type: "Convolution"
bottom: "conv3"
top: "conv4"
param {
lr_mult: 1
decay_mult: 1
}
param {
lr_mult: 2
decay_mult: 0
}
convolution_param {
num_output: 384
pad: 1
kernel_size: 5
group: 2
weight_filler {
type: "gaussian"
std: 0.01
}
bias_filler {
type: "constant"
value: 0.1
}
}
}
layer {
name: "relu4"
type: "ReLU"
bottom: "conv4"
top: "conv4"
}
layer {
name: "conv5"
type: "Convolution"
bottom: "conv4"
top: "conv5"
param {
lr_mult: 1
decay_mult: 1
}
param {
lr_mult: 2
decay_mult: 0
}
convolution_param {
num_output: 256
pad: 1
kernel_size: 3
group: 2
weight_filler {
type: "gaussian"
std: 0.01
}
bias_filler {
type: "constant"
value: 0.1
}
}
}
layer {
name: "relu5"
type: "ReLU"
bottom: "conv5"
top: "conv5"
}
layer {
name: "pool5"
type: "Pooling"
bottom: "conv5"
top: "pool5"
pooling_param {
pool: MAX
kernel_size: 3
stride: 2
}
}
layer {
name: "fc6"
type: "InnerProduct"
bottom: "pool5"
top: "fc6"
param {
lr_mult: 1
decay_mult: 1
}
param {
lr_mult: 2
decay_mult: 0
}
inner_product_param {
num_output: 4096
weight_filler {
type: "gaussian"
std: 0.005
}
bias_filler {
type: "constant"
value: 0.1
}
}
}
layer {
name: "relu6"
type: "ReLU"
bottom: "fc6"
top: "fc6"
}
layer {
name: "drop6"
type: "Dropout"
bottom: "fc6"
top: "fc6"
dropout_param {
dropout_ratio: 0.5
}
}
layer {
name: "fc7"
type: "InnerProduct"
bottom: "fc6"
top: "fc7"
param {
lr_mult: 1
decay_mult: 1
}
param {
lr_mult: 2
decay_mult: 0
}
inner_product_param {
num_output: 4096
weight_filler {
type: "gaussian"
std: 0.005
}
bias_filler {
type: "constant"
value: 0.1
}
}
}
layer {
name: "relu7"
type: "ReLU"
bottom: "fc7"
top: "fc7"
}
layer {
name: "drop7"
type: "Dropout"
bottom: "fc7"
top: "fc7"
dropout_param {
dropout_ratio: 0.5
}
}
layer {
name: "fc8"
type: "InnerProduct"
bottom: "fc7"
top: "fc8"
param {
lr_mult: 1
decay_mult: 1
}
param {
lr_mult: 2
decay_mult: 0
}
inner_product_param {
num_output: 196
weight_filler {
type: "gaussian"
std: 0.01
}
bias_filler {
type: "constant"
value: 0
}
}
}
layer {
name: "loss"
type: "SoftmaxWithLoss"
bottom: "fc8"
bottom: "label"
top: "loss"
}
I0426 10:10:14.129848 20304 layer_factory.hpp:77] Creating layer train-data
I0426 10:10:14.231703 20304 db_lmdb.cpp:35] Opened lmdb /mnt/bigdisk/DIGITS-MAN-3/digits/jobs/20210421-230320-902c/train_db
I0426 10:10:14.257750 20304 net.cpp:84] Creating Layer train-data
I0426 10:10:14.257771 20304 net.cpp:380] train-data -> data
I0426 10:10:14.257797 20304 net.cpp:380] train-data -> label
I0426 10:10:14.257809 20304 data_transformer.cpp:25] Loading mean file from: /mnt/bigdisk/DIGITS-MAN-3/digits/jobs/20210421-230320-902c/mean.binaryproto
I0426 10:10:14.323173 20304 data_layer.cpp:45] output data size: 128,3,227,227
I0426 10:10:14.481779 20304 net.cpp:122] Setting up train-data
I0426 10:10:14.481806 20304 net.cpp:129] Top shape: 128 3 227 227 (19787136)
I0426 10:10:14.481812 20304 net.cpp:129] Top shape: 128 (128)
I0426 10:10:14.481815 20304 net.cpp:137] Memory required for data: 79149056
I0426 10:10:14.481825 20304 layer_factory.hpp:77] Creating layer conv1
I0426 10:10:14.481848 20304 net.cpp:84] Creating Layer conv1
I0426 10:10:14.481853 20304 net.cpp:406] conv1 <- data
I0426 10:10:14.481866 20304 net.cpp:380] conv1 -> conv1
I0426 10:10:15.048452 20304 net.cpp:122] Setting up conv1
I0426 10:10:15.048475 20304 net.cpp:129] Top shape: 128 96 55 55 (37171200)
I0426 10:10:15.048478 20304 net.cpp:137] Memory required for data: 227833856
I0426 10:10:15.048521 20304 layer_factory.hpp:77] Creating layer relu1
I0426 10:10:15.048532 20304 net.cpp:84] Creating Layer relu1
I0426 10:10:15.048535 20304 net.cpp:406] relu1 <- conv1
I0426 10:10:15.048542 20304 net.cpp:367] relu1 -> conv1 (in-place)
I0426 10:10:15.048830 20304 net.cpp:122] Setting up relu1
I0426 10:10:15.048838 20304 net.cpp:129] Top shape: 128 96 55 55 (37171200)
I0426 10:10:15.048841 20304 net.cpp:137] Memory required for data: 376518656
I0426 10:10:15.048846 20304 layer_factory.hpp:77] Creating layer norm1
I0426 10:10:15.048854 20304 net.cpp:84] Creating Layer norm1
I0426 10:10:15.048857 20304 net.cpp:406] norm1 <- conv1
I0426 10:10:15.048882 20304 net.cpp:380] norm1 -> norm1
I0426 10:10:15.049417 20304 net.cpp:122] Setting up norm1
I0426 10:10:15.049427 20304 net.cpp:129] Top shape: 128 96 55 55 (37171200)
I0426 10:10:15.049430 20304 net.cpp:137] Memory required for data: 525203456
I0426 10:10:15.049433 20304 layer_factory.hpp:77] Creating layer pool1
I0426 10:10:15.049441 20304 net.cpp:84] Creating Layer pool1
I0426 10:10:15.049445 20304 net.cpp:406] pool1 <- norm1
I0426 10:10:15.049450 20304 net.cpp:380] pool1 -> pool1
I0426 10:10:15.049485 20304 net.cpp:122] Setting up pool1
I0426 10:10:15.049491 20304 net.cpp:129] Top shape: 128 96 27 27 (8957952)
I0426 10:10:15.049494 20304 net.cpp:137] Memory required for data: 561035264
I0426 10:10:15.049497 20304 layer_factory.hpp:77] Creating layer conv2
I0426 10:10:15.049507 20304 net.cpp:84] Creating Layer conv2
I0426 10:10:15.049510 20304 net.cpp:406] conv2 <- pool1
I0426 10:10:15.049515 20304 net.cpp:380] conv2 -> conv2
I0426 10:10:15.056553 20304 net.cpp:122] Setting up conv2
I0426 10:10:15.056567 20304 net.cpp:129] Top shape: 128 256 27 27 (23887872)
I0426 10:10:15.056571 20304 net.cpp:137] Memory required for data: 656586752
I0426 10:10:15.056581 20304 layer_factory.hpp:77] Creating layer relu2
I0426 10:10:15.056588 20304 net.cpp:84] Creating Layer relu2
I0426 10:10:15.056591 20304 net.cpp:406] relu2 <- conv2
I0426 10:10:15.056597 20304 net.cpp:367] relu2 -> conv2 (in-place)
I0426 10:10:15.057093 20304 net.cpp:122] Setting up relu2
I0426 10:10:15.057102 20304 net.cpp:129] Top shape: 128 256 27 27 (23887872)
I0426 10:10:15.057106 20304 net.cpp:137] Memory required for data: 752138240
I0426 10:10:15.057109 20304 layer_factory.hpp:77] Creating layer norm2
I0426 10:10:15.057116 20304 net.cpp:84] Creating Layer norm2
I0426 10:10:15.057121 20304 net.cpp:406] norm2 <- conv2
I0426 10:10:15.057126 20304 net.cpp:380] norm2 -> norm2
I0426 10:10:15.057480 20304 net.cpp:122] Setting up norm2
I0426 10:10:15.057488 20304 net.cpp:129] Top shape: 128 256 27 27 (23887872)
I0426 10:10:15.057492 20304 net.cpp:137] Memory required for data: 847689728
I0426 10:10:15.057495 20304 layer_factory.hpp:77] Creating layer pool2
I0426 10:10:15.057503 20304 net.cpp:84] Creating Layer pool2
I0426 10:10:15.057507 20304 net.cpp:406] pool2 <- norm2
I0426 10:10:15.057512 20304 net.cpp:380] pool2 -> pool2
I0426 10:10:15.057540 20304 net.cpp:122] Setting up pool2
I0426 10:10:15.057545 20304 net.cpp:129] Top shape: 128 256 13 13 (5537792)
I0426 10:10:15.057548 20304 net.cpp:137] Memory required for data: 869840896
I0426 10:10:15.057551 20304 layer_factory.hpp:77] Creating layer conv3
I0426 10:10:15.057561 20304 net.cpp:84] Creating Layer conv3
I0426 10:10:15.057564 20304 net.cpp:406] conv3 <- pool2
I0426 10:10:15.057570 20304 net.cpp:380] conv3 -> conv3
I0426 10:10:15.071979 20304 net.cpp:122] Setting up conv3
I0426 10:10:15.071990 20304 net.cpp:129] Top shape: 128 384 13 13 (8306688)
I0426 10:10:15.071995 20304 net.cpp:137] Memory required for data: 903067648
I0426 10:10:15.072002 20304 layer_factory.hpp:77] Creating layer relu3
I0426 10:10:15.072010 20304 net.cpp:84] Creating Layer relu3
I0426 10:10:15.072012 20304 net.cpp:406] relu3 <- conv3
I0426 10:10:15.072019 20304 net.cpp:367] relu3 -> conv3 (in-place)
I0426 10:10:15.072685 20304 net.cpp:122] Setting up relu3
I0426 10:10:15.072695 20304 net.cpp:129] Top shape: 128 384 13 13 (8306688)
I0426 10:10:15.072698 20304 net.cpp:137] Memory required for data: 936294400
I0426 10:10:15.072701 20304 layer_factory.hpp:77] Creating layer conv4
I0426 10:10:15.072711 20304 net.cpp:84] Creating Layer conv4
I0426 10:10:15.072715 20304 net.cpp:406] conv4 <- conv3
I0426 10:10:15.072721 20304 net.cpp:380] conv4 -> conv4
I0426 10:10:15.095194 20304 net.cpp:122] Setting up conv4
I0426 10:10:15.095211 20304 net.cpp:129] Top shape: 128 384 11 11 (5947392)
I0426 10:10:15.095216 20304 net.cpp:137] Memory required for data: 960083968
I0426 10:10:15.095223 20304 layer_factory.hpp:77] Creating layer relu4
I0426 10:10:15.095232 20304 net.cpp:84] Creating Layer relu4
I0426 10:10:15.095254 20304 net.cpp:406] relu4 <- conv4
I0426 10:10:15.095261 20304 net.cpp:367] relu4 -> conv4 (in-place)
I0426 10:10:15.095664 20304 net.cpp:122] Setting up relu4
I0426 10:10:15.095672 20304 net.cpp:129] Top shape: 128 384 11 11 (5947392)
I0426 10:10:15.095675 20304 net.cpp:137] Memory required for data: 983873536
I0426 10:10:15.095679 20304 layer_factory.hpp:77] Creating layer conv5
I0426 10:10:15.095690 20304 net.cpp:84] Creating Layer conv5
I0426 10:10:15.095693 20304 net.cpp:406] conv5 <- conv4
I0426 10:10:15.095700 20304 net.cpp:380] conv5 -> conv5
I0426 10:10:15.104156 20304 net.cpp:122] Setting up conv5
I0426 10:10:15.104168 20304 net.cpp:129] Top shape: 128 256 11 11 (3964928)
I0426 10:10:15.104172 20304 net.cpp:137] Memory required for data: 999733248
I0426 10:10:15.104182 20304 layer_factory.hpp:77] Creating layer relu5
I0426 10:10:15.104187 20304 net.cpp:84] Creating Layer relu5
I0426 10:10:15.104192 20304 net.cpp:406] relu5 <- conv5
I0426 10:10:15.104197 20304 net.cpp:367] relu5 -> conv5 (in-place)
I0426 10:10:15.104717 20304 net.cpp:122] Setting up relu5
I0426 10:10:15.104727 20304 net.cpp:129] Top shape: 128 256 11 11 (3964928)
I0426 10:10:15.104729 20304 net.cpp:137] Memory required for data: 1015592960
I0426 10:10:15.104733 20304 layer_factory.hpp:77] Creating layer pool5
I0426 10:10:15.104741 20304 net.cpp:84] Creating Layer pool5
I0426 10:10:15.104745 20304 net.cpp:406] pool5 <- conv5
I0426 10:10:15.104750 20304 net.cpp:380] pool5 -> pool5
I0426 10:10:15.104789 20304 net.cpp:122] Setting up pool5
I0426 10:10:15.104794 20304 net.cpp:129] Top shape: 128 256 5 5 (819200)
I0426 10:10:15.104796 20304 net.cpp:137] Memory required for data: 1018869760
I0426 10:10:15.104799 20304 layer_factory.hpp:77] Creating layer fc6
I0426 10:10:15.104809 20304 net.cpp:84] Creating Layer fc6
I0426 10:10:15.104811 20304 net.cpp:406] fc6 <- pool5
I0426 10:10:15.104816 20304 net.cpp:380] fc6 -> fc6
I0426 10:10:15.351842 20304 net.cpp:122] Setting up fc6
I0426 10:10:15.351862 20304 net.cpp:129] Top shape: 128 4096 (524288)
I0426 10:10:15.351866 20304 net.cpp:137] Memory required for data: 1020966912
I0426 10:10:15.351876 20304 layer_factory.hpp:77] Creating layer relu6
I0426 10:10:15.351886 20304 net.cpp:84] Creating Layer relu6
I0426 10:10:15.351889 20304 net.cpp:406] relu6 <- fc6
I0426 10:10:15.351895 20304 net.cpp:367] relu6 -> fc6 (in-place)
I0426 10:10:15.352533 20304 net.cpp:122] Setting up relu6
I0426 10:10:15.352542 20304 net.cpp:129] Top shape: 128 4096 (524288)
I0426 10:10:15.352546 20304 net.cpp:137] Memory required for data: 1023064064
I0426 10:10:15.352550 20304 layer_factory.hpp:77] Creating layer drop6
I0426 10:10:15.352557 20304 net.cpp:84] Creating Layer drop6
I0426 10:10:15.352560 20304 net.cpp:406] drop6 <- fc6
I0426 10:10:15.352566 20304 net.cpp:367] drop6 -> fc6 (in-place)
I0426 10:10:15.352593 20304 net.cpp:122] Setting up drop6
I0426 10:10:15.352598 20304 net.cpp:129] Top shape: 128 4096 (524288)
I0426 10:10:15.352602 20304 net.cpp:137] Memory required for data: 1025161216
I0426 10:10:15.352604 20304 layer_factory.hpp:77] Creating layer fc7
I0426 10:10:15.352612 20304 net.cpp:84] Creating Layer fc7
I0426 10:10:15.352617 20304 net.cpp:406] fc7 <- fc6
I0426 10:10:15.352622 20304 net.cpp:380] fc7 -> fc7
I0426 10:10:15.510563 20304 net.cpp:122] Setting up fc7
I0426 10:10:15.510583 20304 net.cpp:129] Top shape: 128 4096 (524288)
I0426 10:10:15.510587 20304 net.cpp:137] Memory required for data: 1027258368
I0426 10:10:15.510596 20304 layer_factory.hpp:77] Creating layer relu7
I0426 10:10:15.510605 20304 net.cpp:84] Creating Layer relu7
I0426 10:10:15.510608 20304 net.cpp:406] relu7 <- fc7
I0426 10:10:15.510614 20304 net.cpp:367] relu7 -> fc7 (in-place)
I0426 10:10:15.511236 20304 net.cpp:122] Setting up relu7
I0426 10:10:15.511245 20304 net.cpp:129] Top shape: 128 4096 (524288)
I0426 10:10:15.511248 20304 net.cpp:137] Memory required for data: 1029355520
I0426 10:10:15.511252 20304 layer_factory.hpp:77] Creating layer drop7
I0426 10:10:15.511260 20304 net.cpp:84] Creating Layer drop7
I0426 10:10:15.511281 20304 net.cpp:406] drop7 <- fc7
I0426 10:10:15.511286 20304 net.cpp:367] drop7 -> fc7 (in-place)
I0426 10:10:15.511310 20304 net.cpp:122] Setting up drop7
I0426 10:10:15.511315 20304 net.cpp:129] Top shape: 128 4096 (524288)
I0426 10:10:15.511318 20304 net.cpp:137] Memory required for data: 1031452672
I0426 10:10:15.511322 20304 layer_factory.hpp:77] Creating layer fc8
I0426 10:10:15.511329 20304 net.cpp:84] Creating Layer fc8
I0426 10:10:15.511332 20304 net.cpp:406] fc8 <- fc7
I0426 10:10:15.511338 20304 net.cpp:380] fc8 -> fc8
I0426 10:10:15.519044 20304 net.cpp:122] Setting up fc8
I0426 10:10:15.519053 20304 net.cpp:129] Top shape: 128 196 (25088)
I0426 10:10:15.519057 20304 net.cpp:137] Memory required for data: 1031553024
I0426 10:10:15.519063 20304 layer_factory.hpp:77] Creating layer loss
I0426 10:10:15.519071 20304 net.cpp:84] Creating Layer loss
I0426 10:10:15.519074 20304 net.cpp:406] loss <- fc8
I0426 10:10:15.519079 20304 net.cpp:406] loss <- label
I0426 10:10:15.519085 20304 net.cpp:380] loss -> loss
I0426 10:10:15.519095 20304 layer_factory.hpp:77] Creating layer loss
…
I0426 10:10:15.520283 20304 net.cpp:294] The NetState phase (1) differed from the phase (0) specified by a rule in layer train-data
I0426 10:10:15.520421 20304 net.cpp:51] Initializing net from parameters:
state {
phase: TEST
}
layer {
name: "val-data"
type: "Data"
top: "data"
top: "label"
include {
phase: TEST
}
transform_param {
crop_size: 227
mean_file: "/mnt/bigdisk/DIGITS-MAN-3/digits/jobs/20210421-230320-902c/mean.binaryproto"
}
data_param {
source: "/mnt/bigdisk/DIGITS-MAN-3/digits/jobs/20210421-230320-902c/val_db"
batch_size: 32
backend: LMDB
}
}
layer {
name: "conv1"
type: "Convolution"
bottom: "data"
top: "conv1"
param {
lr_mult: 1
decay_mult: 1
}
param {
lr_mult: 2
decay_mult: 0
}
convolution_param {
num_output: 96
kernel_size: 11
stride: 4
weight_filler {
type: "gaussian"
std: 0.01
}
bias_filler {
type: "constant"
value: 0
}
}
}
layer {
name: "relu1"
type: "ReLU"
bottom: "conv1"
top: "conv1"
}
layer {
name: "norm1"
type: "LRN"
bottom: "conv1"
top: "norm1"
lrn_param {
local_size: 5
alpha: 0.0001
beta: 0.75
}
}
layer {
name: "pool1"
type: "Pooling"
bottom: "norm1"
top: "pool1"
pooling_param {
pool: MAX
kernel_size: 3
stride: 2
}
}
layer {
name: "conv2"
type: "Convolution"
bottom: "pool1"
top: "conv2"
param {
lr_mult: 1
decay_mult: 1
}
param {
lr_mult: 2
decay_mult: 0
}
convolution_param {
num_output: 256
pad: 2
kernel_size: 5
group: 2
weight_filler {
type: "gaussian"
std: 0.01
}
bias_filler {
type: "constant"
value: 0.1
}
}
}
layer {
name: "relu2"
type: "ReLU"
bottom: "conv2"
top: "conv2"
}
layer {
name: "norm2"
type: "LRN"
bottom: "conv2"
top: "norm2"
lrn_param {
local_size: 5
alpha: 0.0001
beta: 0.75
}
}
layer {
name: "pool2"
type: "Pooling"
bottom: "norm2"
top: "pool2"
pooling_param {
pool: MAX
kernel_size: 3
stride: 2
}
}
layer {
name: "conv3"
type: "Convolution"
bottom: "pool2"
top: "conv3"
param {
lr_mult: 1
decay_mult: 1
}
param {
lr_mult: 2
decay_mult: 0
}
convolution_param {
num_output: 384
pad: 1
kernel_size: 3
weight_filler {
type: "gaussian"
std: 0.01
}
bias_filler {
type: "constant"
value: 0
}
}
}
layer {
name: "relu3"
type: "ReLU"
bottom: "conv3"
top: "conv3"
}
layer {
name: "conv4"
type: "Convolution"
bottom: "conv3"
top: "conv4"
param {
lr_mult: 1
decay_mult: 1
}
param {
lr_mult: 2
decay_mult: 0
}
convolution_param {
num_output: 384
pad: 1
kernel_size: 5
group: 2
weight_filler {
type: "gaussian"
std: 0.01
}
bias_filler {
type: "constant"
value: 0.1
}
}
}
layer {
name: "relu4"
type: "ReLU"
bottom: "conv4"
top: "conv4"
}
layer {
name: "conv5"
type: "Convolution"
bottom: "conv4"
top: "conv5"
param {
lr_mult: 1
decay_mult: 1
}
param {
lr_mult: 2
decay_mult: 0
}
convolution_param {
num_output: 256
pad: 1
kernel_size: 3
group: 2
weight_filler {
type: "gaussian"
std: 0.01
}
bias_filler {
type: "constant"
value: 0.1
}
}
}
layer {
name: "relu5"
type: "ReLU"
bottom: "conv5"
top: "conv5"
}
layer {
name: "pool5"
type: "Pooling"
bottom: "conv5"
top: "pool5"
pooling_param {
pool: MAX
kernel_size: 3
stride: 2
}
}
layer {
name: "fc6"
type: "InnerProduct"
bottom: "pool5"
top: "fc6"
param {
lr_mult: 1
decay_mult: 1
}
param {
lr_mult: 2
decay_mult: 0
}
inner_product_param {
num_output: 4096
weight_filler {
type: "gaussian"
std: 0.005
}
bias_filler {
type: "constant"
value: 0.1
}
}
}
layer {
name: "relu6"
type: "ReLU"
bottom: "fc6"
top: "fc6"
}
layer {
name: "drop6"
type: "Dropout"
bottom: "fc6"
top: "fc6"
dropout_param {
dropout_ratio: 0.5
}
}
layer {
name: "fc7"
type: "InnerProduct"
bottom: "fc6"
top: "fc7"
param {
lr_mult: 1
decay_mult: 1
}
param {
lr_mult: 2
decay_mult: 0
}
inner_product_param {
num_output: 4096
weight_filler {
type: "gaussian"
std: 0.005
}
bias_filler {
type: "constant"
value: 0.1
}
}
}
layer {
name: "relu7"
type: "ReLU"
bottom: "fc7"
top: "fc7"
}
layer {
name: "drop7"
type: "Dropout"
bottom: "fc7"
top: "fc7"
dropout_param {
dropout_ratio: 0.5
}
}
layer {
name: "fc8"
type: "InnerProduct"
bottom: "fc7"
top: "fc8"
param {
lr_mult: 1
decay_mult: 1
}
param {
lr_mult: 2
decay_mult: 0
}
inner_product_param {
num_output: 196
weight_filler {
type: "gaussian"
std: 0.01
}
bias_filler {
type: "constant"
value: 0
}
}
}
layer {
name: "accuracy"
type: "Accuracy"
bottom: "fc8"
bottom: "label"
top: "accuracy"
include {
phase: TEST
}
}
layer {
name: "loss"
type: "SoftmaxWithLoss"
bottom: "fc8"
bottom: "label"
top: "loss"
}
I0426 10:10:15.520537 20304 layer_factory.hpp:77] Creating layer val-data
I0426 10:10:15.577740 20304 db_lmdb.cpp:35] Opened lmdb /mnt/bigdisk/DIGITS-MAN-3/digits/jobs/20210421-230320-902c/val_db
I0426 10:10:15.603703 20304 net.cpp:84] Creating Layer val-data
I0426 10:10:15.603722 20304 net.cpp:380] val-data -> data
I0426 10:10:15.603734 20304 net.cpp:380] val-data -> label
I0426 10:10:15.603742 20304 data_transformer.cpp:25] Loading mean file from: /mnt/bigdisk/DIGITS-MAN-3/digits/jobs/20210421-230320-902c/mean.binaryproto
I0426 10:10:15.611768 20304 data_layer.cpp:45] output data size: 32,3,227,227
I0426 10:10:15.661741 20304 net.cpp:122] Setting up val-data
I0426 10:10:15.661767 20304 net.cpp:129] Top shape: 32 3 227 227 (4946784)
I0426 10:10:15.661773 20304 net.cpp:129] Top shape: 32 (32)
I0426 10:10:15.661777 20304 net.cpp:137] Memory required for data: 19787264
I0426 10:10:15.661784 20304 layer_factory.hpp:77] Creating layer label_val-data_1_split
I0426 10:10:15.661798 20304 net.cpp:84] Creating Layer label_val-data_1_split
I0426 10:10:15.661803 20304 net.cpp:406] label_val-data_1_split <- label
I0426 10:10:15.661813 20304 net.cpp:380] label_val-data_1_split -> label_val-data_1_split_0
I0426 10:10:15.661823 20304 net.cpp:380] label_val-data_1_split -> label_val-data_1_split_1
I0426 10:10:15.662009 20304 net.cpp:122] Setting up label_val-data_1_split
I0426 10:10:15.662017 20304 net.cpp:129] Top shape: 32 (32)
I0426 10:10:15.662022 20304 net.cpp:129] Top shape: 32 (32)
I0426 10:10:15.662025 20304 net.cpp:137] Memory required for data: 19787520
I0426 10:10:15.662030 20304 layer_factory.hpp:77] Creating layer conv1
I0426 10:10:15.662045 20304 net.cpp:84] Creating Layer conv1
I0426 10:10:15.662050 20304 net.cpp:406] conv1 <- data
I0426 10:10:15.662058 20304 net.cpp:380] conv1 -> conv1
I0426 10:10:15.664928 20304 net.cpp:122] Setting up conv1
I0426 10:10:15.664944 20304 net.cpp:129] Top shape: 32 96 55 55 (9292800)
I0426 10:10:15.664948 20304 net.cpp:137] Memory required for data: 56958720
I0426 10:10:15.664963 20304 layer_factory.hpp:77] Creating layer relu1
I0426 10:10:15.664971 20304 net.cpp:84] Creating Layer relu1
I0426 10:10:15.664976 20304 net.cpp:406] relu1 <- conv1
I0426 10:10:15.664983 20304 net.cpp:367] relu1 -> conv1 (in-place)
I0426 10:10:15.665411 20304 net.cpp:122] Setting up relu1
I0426 10:10:15.665423 20304 net.cpp:129] Top shape: 32 96 55 55 (9292800)
I0426 10:10:15.665427 20304 net.cpp:137] Memory required for data: 94129920
I0426 10:10:15.665432 20304 layer_factory.hpp:77] Creating layer norm1
I0426 10:10:15.665442 20304 net.cpp:84] Creating Layer norm1
I0426 10:10:15.665447 20304 net.cpp:406] norm1 <- conv1
I0426 10:10:15.665454 20304 net.cpp:380] norm1 -> norm1
I0426 10:10:15.666110 20304 net.cpp:122] Setting up norm1
I0426 10:10:15.666124 20304 net.cpp:129] Top shape: 32 96 55 55 (9292800)
I0426 10:10:15.666128 20304 net.cpp:137] Memory required for data: 131301120
I0426 10:10:15.666133 20304 layer_factory.hpp:77] Creating layer pool1
I0426 10:10:15.666143 20304 net.cpp:84] Creating Layer pool1
I0426 10:10:15.666148 20304 net.cpp:406] pool1 <- norm1
I0426 10:10:15.666155 20304 net.cpp:380] pool1 -> pool1
I0426 10:10:15.666195 20304 net.cpp:122] Setting up pool1
I0426 10:10:15.666203 20304 net.cpp:129] Top shape: 32 96 27 27 (2239488)
I0426 10:10:15.666206 20304 net.cpp:137] Memory required for data: 140259072
I0426 10:10:15.666210 20304 layer_factory.hpp:77] Creating layer conv2
I0426 10:10:15.666220 20304 net.cpp:84] Creating Layer conv2
I0426 10:10:15.666225 20304 net.cpp:406] conv2 <- pool1
I0426 10:10:15.666254 20304 net.cpp:380] conv2 -> conv2
I0426 10:10:15.676774 20304 net.cpp:122] Setting up conv2
I0426 10:10:15.676792 20304 net.cpp:129] Top shape: 32 256 27 27 (5971968)
I0426 10:10:15.676796 20304 net.cpp:137] Memory required for data: 164146944
I0426 10:10:15.676808 20304 layer_factory.hpp:77] Creating layer relu2
I0426 10:10:15.676817 20304 net.cpp:84] Creating Layer relu2
I0426 10:10:15.676822 20304 net.cpp:406] relu2 <- conv2
I0426 10:10:15.676831 20304 net.cpp:367] relu2 -> conv2 (in-place)
I0426 10:10:15.677542 20304 net.cpp:122] Setting up relu2
I0426 10:10:15.677554 20304 net.cpp:129] Top shape: 32 256 27 27 (5971968)
I0426 10:10:15.677559 20304 net.cpp:137] Memory required for data: 188034816
I0426 10:10:15.677564 20304 layer_factory.hpp:77] Creating layer norm2
I0426 10:10:15.677577 20304 net.cpp:84] Creating Layer norm2
I0426 10:10:15.677582 20304 net.cpp:406] norm2 <- conv2
I0426 10:10:15.677590 20304 net.cpp:380] norm2 -> norm2
I0426 10:10:15.678319 20304 net.cpp:122] Setting up norm2
I0426 10:10:15.678333 20304 net.cpp:129] Top shape: 32 256 27 27 (5971968)
I0426 10:10:15.678336 20304 net.cpp:137] Memory required for data: 211922688
I0426 10:10:15.678341 20304 layer_factory.hpp:77] Creating layer pool2
I0426 10:10:15.678350 20304 net.cpp:84] Creating Layer pool2
I0426 10:10:15.678354 20304 net.cpp:406] pool2 <- norm2
I0426 10:10:15.678364 20304 net.cpp:380] pool2 -> pool2
I0426 10:10:15.678403 20304 net.cpp:122] Setting up pool2
I0426 10:10:15.678411 20304 net.cpp:129] Top shape: 32 256 13 13 (1384448)
I0426 10:10:15.678416 20304 net.cpp:137] Memory required for data: 217460480
I0426 10:10:15.678421 20304 layer_factory.hpp:77] Creating layer conv3
I0426 10:10:15.678433 20304 net.cpp:84] Creating Layer conv3
I0426 10:10:15.678438 20304 net.cpp:406] conv3 <- pool2
I0426 10:10:15.678445 20304 net.cpp:380] conv3 -> conv3
I0426 10:10:15.694013 20304 net.cpp:122] Setting up conv3
I0426 10:10:15.694031 20304 net.cpp:129] Top shape: 32 384 13 13 (2076672)
I0426 10:10:15.694036 20304 net.cpp:137] Memory required for data: 225767168
I0426 10:10:15.694051 20304 layer_factory.hpp:77] Creating layer relu3
I0426 10:10:15.694061 20304 net.cpp:84] Creating Layer relu3
I0426 10:10:15.694067 20304 net.cpp:406] relu3 <- conv3
I0426 10:10:15.694073 20304 net.cpp:367] relu3 -> conv3 (in-place)
I0426 10:10:15.694749 20304 net.cpp:122] Setting up relu3
I0426 10:10:15.694761 20304 net.cpp:129] Top shape: 32 384 13 13 (2076672)
I0426 10:10:15.694764 20304 net.cpp:137] Memory required for data: 234073856
I0426 10:10:15.694769 20304 layer_factory.hpp:77] Creating layer conv4
I0426 10:10:15.694782 20304 net.cpp:84] Creating Layer conv4
I0426 10:10:15.694787 20304 net.cpp:406] conv4 <- conv3
I0426 10:10:15.694797 20304 net.cpp:380] conv4 -> conv4
I0426 10:10:15.728176 20304 net.cpp:122] Setting up conv4
I0426 10:10:15.728196 20304 net.cpp:129] Top shape: 32 384 11 11 (1486848)
I0426 10:10:15.728200 20304 net.cpp:137] Memory required for data: 240021248
I0426 10:10:15.728210 20304 layer_factory.hpp:77] Creating layer relu4
I0426 10:10:15.728220 20304 net.cpp:84] Creating Layer relu4
I0426 10:10:15.728225 20304 net.cpp:406] relu4 <- conv4
I0426 10:10:15.728233 20304 net.cpp:367] relu4 -> conv4 (in-place)
I0426 10:10:15.728695 20304 net.cpp:122] Setting up relu4
I0426 10:10:15.728705 20304 net.cpp:129] Top shape: 32 384 11 11 (1486848)
I0426 10:10:15.728708 20304 net.cpp:137] Memory required for data: 245968640
I0426 10:10:15.728713 20304 layer_factory.hpp:77] Creating layer conv5
I0426 10:10:15.728724 20304 net.cpp:84] Creating Layer conv5
I0426 10:10:15.728729 20304 net.cpp:406] conv5 <- conv4
I0426 10:10:15.728737 20304 net.cpp:380] conv5 -> conv5
I0426 10:10:15.745679 20304 net.cpp:122] Setting up conv5
I0426 10:10:15.745698 20304 net.cpp:129] Top shape: 32 256 11 11 (991232)
I0426 10:10:15.745702 20304 net.cpp:137] Memory required for data: 249933568
I0426 10:10:15.745716 20304 layer_factory.hpp:77] Creating layer relu5
I0426 10:10:15.745725 20304 net.cpp:84] Creating Layer relu5
I0426 10:10:15.745730 20304 net.cpp:406] relu5 <- conv5
I0426 10:10:15.745754 20304 net.cpp:367] relu5 -> conv5 (in-place)
I0426 10:10:15.746587 20304 net.cpp:122] Setting up relu5
I0426 10:10:15.746598 20304 net.cpp:129] Top shape: 32 256 11 11 (991232)
I0426 10:10:15.746601 20304 net.cpp:137] Memory required for data: 253898496
I0426 10:10:15.746605 20304 layer_factory.hpp:77] Creating layer pool5
I0426 10:10:15.746616 20304 net.cpp:84] Creating Layer pool5
I0426 10:10:15.746621 20304 net.cpp:406] pool5 <- conv5
I0426 10:10:15.746627 20304 net.cpp:380] pool5 -> pool5
I0426 10:10:15.746675 20304 net.cpp:122] Setting up pool5
I0426 10:10:15.746680 20304 net.cpp:129] Top shape: 32 256 5 5 (204800)
I0426 10:10:15.746683 20304 net.cpp:137] Memory required for data: 254717696
I0426 10:10:15.746687 20304 layer_factory.hpp:77] Creating layer fc6
I0426 10:10:15.746695 20304 net.cpp:84] Creating Layer fc6
I0426 10:10:15.746698 20304 net.cpp:406] fc6 <- pool5
I0426 10:10:15.746706 20304 net.cpp:380] fc6 -> fc6
I0426 10:10:15.996563 20304 net.cpp:122] Setting up fc6
I0426 10:10:15.996584 20304 net.cpp:129] Top shape: 32 4096 (131072)
I0426 10:10:15.996587 20304 net.cpp:137] Memory required for data: 255241984
I0426 10:10:15.996596 20304 layer_factory.hpp:77] Creating layer relu6
I0426 10:10:15.996605 20304 net.cpp:84] Creating Layer relu6
I0426 10:10:15.996609 20304 net.cpp:406] relu6 <- fc6
I0426 10:10:15.996615 20304 net.cpp:367] relu6 -> fc6 (in-place)
I0426 10:10:15.997332 20304 net.cpp:122] Setting up relu6
I0426 10:10:15.997341 20304 net.cpp:129] Top shape: 32 4096 (131072)
I0426 10:10:15.997345 20304 net.cpp:137] Memory required for data: 255766272
I0426 10:10:15.997349 20304 layer_factory.hpp:77] Creating layer drop6
I0426 10:10:15.997356 20304 net.cpp:84] Creating Layer drop6
I0426 10:10:15.997359 20304 net.cpp:406] drop6 <- fc6
I0426 10:10:15.997365 20304 net.cpp:367] drop6 -> fc6 (in-place)
I0426 10:10:15.997390 20304 net.cpp:122] Setting up drop6
I0426 10:10:15.997395 20304 net.cpp:129] Top shape: 32 4096 (131072)
I0426 10:10:15.997398 20304 net.cpp:137] Memory required for data: 256290560
I0426 10:10:15.997401 20304 layer_factory.hpp:77] Creating layer fc7
I0426 10:10:15.997411 20304 net.cpp:84] Creating Layer fc7
I0426 10:10:15.997414 20304 net.cpp:406] fc7 <- fc6
I0426 10:10:15.997421 20304 net.cpp:380] fc7 -> fc7
I0426 10:10:16.155261 20304 net.cpp:122] Setting up fc7
I0426 10:10:16.155282 20304 net.cpp:129] Top shape: 32 4096 (131072)
I0426 10:10:16.155285 20304 net.cpp:137] Memory required for data: 256814848
I0426 10:10:16.155294 20304 layer_factory.hpp:77] Creating layer relu7
I0426 10:10:16.155303 20304 net.cpp:84] Creating Layer relu7
I0426 10:10:16.155308 20304 net.cpp:406] relu7 <- fc7
I0426 10:10:16.155313 20304 net.cpp:367] relu7 -> fc7 (in-place)
I0426 10:10:16.155725 20304 net.cpp:122] Setting up relu7
I0426 10:10:16.155733 20304 net.cpp:129] Top shape: 32 4096 (131072)
I0426 10:10:16.155737 20304 net.cpp:137] Memory required for data: 257339136
I0426 10:10:16.155740 20304 layer_factory.hpp:77] Creating layer drop7
I0426 10:10:16.155746 20304 net.cpp:84] Creating Layer drop7
I0426 10:10:16.155750 20304 net.cpp:406] drop7 <- fc7
I0426 10:10:16.155755 20304 net.cpp:367] drop7 -> fc7 (in-place)
I0426 10:10:16.155778 20304 net.cpp:122] Setting up drop7
I0426 10:10:16.155783 20304 net.cpp:129] Top shape: 32 4096 (131072)
I0426 10:10:16.155786 20304 net.cpp:137] Memory required for data: 257863424
I0426 10:10:16.155789 20304 layer_factory.hpp:77] Creating layer fc8
I0426 10:10:16.155797 20304 net.cpp:84] Creating Layer fc8
I0426 10:10:16.155800 20304 net.cpp:406] fc8 <- fc7
I0426 10:10:16.155805 20304 net.cpp:380] fc8 -> fc8
I0426 10:10:16.163547 20304 net.cpp:122] Setting up fc8
I0426 10:10:16.163555 20304 net.cpp:129] Top shape: 32 196 (6272)
I0426 10:10:16.163558 20304 net.cpp:137] Memory required for data: 257888512
I0426 10:10:16.163564 20304 layer_factory.hpp:77] Creating layer fc8_fc8_0_split
I0426 10:10:16.163570 20304 net.cpp:84] Creating Layer fc8_fc8_0_split
I0426 10:10:16.163574 20304 net.cpp:406] fc8_fc8_0_split <- fc8
I0426 10:10:16.163596 20304 net.cpp:380] fc8_fc8_0_split -> fc8_fc8_0_split_0
I0426 10:10:16.163604 20304 net.cpp:380] fc8_fc8_0_split -> fc8_fc8_0_split_1
I0426 10:10:16.163637 20304 net.cpp:122] Setting up fc8_fc8_0_split
I0426 10:10:16.163642 20304 net.cpp:129] Top shape: 32 196 (6272)
I0426 10:10:16.163646 20304 net.cpp:129] Top shape: 32 196 (6272)
I0426 10:10:16.163648 20304 net.cpp:137] Memory required for data: 257938688
I0426 10:10:16.163652 20304 layer_factory.hpp:77] Creating layer accuracy
I0426 10:10:16.163658 20304 net.cpp:84] Creating Layer accuracy
I0426 10:10:16.163661 20304 net.cpp:406] accuracy <- fc8_fc8_0_split_0
I0426 10:10:16.163666 20304 net.cpp:406] accuracy <- label_val-data_1_split_0
I0426 10:10:16.163671 20304 net.cpp:380] accuracy -> accuracy
…
