…
I0419 22:06:56.854472  8388 net.cpp:294] The NetState phase (0) differed from the phase (1) specified by a rule in layer accuracy
I0419 22:06:56.854599  8388 net.cpp:51] Initializing net from parameters:
state {
phase: TRAIN
level: 0
stage: ""
}
layer {
name: "train-data"
type: "Data"
top: "data"
top: "label"
include {
phase: TRAIN
}
transform_param {
mirror: true
crop_size: 227
mean_file: "/mnt/bigdisk/DIGITS-AMB-2/digits/jobs/20210419-135836-fd84/mean.binaryproto"
}
data_param {
source: "/mnt/bigdisk/DIGITS-AMB-2/digits/jobs/20210419-135836-fd84/train_db"
batch_size: 256
backend: LMDB
}
}
layer {
name: "conv1"
type: "Convolution"
bottom: "data"
top: "conv1"
param {
lr_mult: 1
decay_mult: 1
}
param {
lr_mult: 2
decay_mult: 0
}
convolution_param {
num_output: 96
kernel_size: 11
stride: 4
weight_filler {
type: "gaussian"
std: 0.01
}
bias_filler {
type: "constant"
value: 0
}
}
}
layer {
name: "relu1"
type: "ReLU"
bottom: "conv1"
top: "conv1"
}
layer {
name: "norm1"
type: "LRN"
bottom: "conv1"
top: "norm1"
lrn_param {
local_size: 5
alpha: 0.0001
beta: 0.75
}
}
layer {
name: "pool1"
type: "Pooling"
bottom: "norm1"
top: "pool1"
pooling_param {
pool: MAX
kernel_size: 3
stride: 2
}
}
layer {
name: "conv2"
type: "Convolution"
bottom: "pool1"
top: "conv2"
param {
lr_mult: 1
decay_mult: 1
}
param {
lr_mult: 2
decay_mult: 0
}
convolution_param {
num_output: 256
pad: 2
kernel_size: 5
group: 2
weight_filler {
type: "gaussian"
std: 0.01
}
bias_filler {
type: "constant"
value: 0.1
}
}
}
layer {
name: "relu2"
type: "ReLU"
bottom: "conv2"
top: "conv2"
}
layer {
name: "norm2"
type: "LRN"
bottom: "conv2"
top: "norm2"
lrn_param {
local_size: 5
alpha: 0.0001
beta: 0.75
}
}
layer {
name: "pool2"
type: "Pooling"
bottom: "norm2"
top: "pool2"
pooling_param {
pool: MAX
kernel_size: 3
stride: 2
}
}
layer {
name: "conv3"
type: "Convolution"
bottom: "pool2"
top: "conv3"
param {
lr_mult: 1
decay_mult: 1
}
param {
lr_mult: 2
decay_mult: 0
}
convolution_param {
num_output: 384
pad: 1
kernel_size: 3
weight_filler {
type: "gaussian"
std: 0.01
}
bias_filler {
type: "constant"
value: 0
}
}
}
layer {
name: "relu3"
type: "ReLU"
bottom: "conv3"
top: "conv3"
}
layer {
name: "conv4"
type: "Convolution"
bottom: "conv3"
top: "conv4"
param {
lr_mult: 1
decay_mult: 1
}
param {
lr_mult: 2
decay_mult: 0
}
convolution_param {
num_output: 384
pad: 1
kernel_size: 3
group: 2
weight_filler {
type: "gaussian"
std: 0.01
}
bias_filler {
type: "constant"
value: 0.1
}
}
}
layer {
name: "relu4"
type: "ReLU"
bottom: "conv4"
top: "conv4"
}
layer {
name: "conv5"
type: "Convolution"
bottom: "conv4"
top: "conv5"
param {
lr_mult: 1
decay_mult: 1
}
param {
lr_mult: 2
decay_mult: 0
}
convolution_param {
num_output: 256
pad: 1
kernel_size: 3
group: 2
weight_filler {
type: "gaussian"
std: 0.01
}
bias_filler {
type: "constant"
value: 0.1
}
}
}
layer {
name: "relu5"
type: "ReLU"
bottom: "conv5"
top: "conv5"
}
layer {
name: "pool5"
type: "Pooling"
bottom: "conv5"
top: "pool5"
pooling_param {
pool: MAX
kernel_size: 3
stride: 2
}
}
layer {
name: "fc6"
type: "InnerProduct"
bottom: "pool5"
top: "fc6"
param {
lr_mult: 1
decay_mult: 1
}
param {
lr_mult: 2
decay_mult: 0
}
inner_product_param {
num_output: 4096
weight_filler {
type: "gaussian"
std: 0.005
}
bias_filler {
type: "constant"
value: 0.1
}
}
}
layer {
name: "relu6"
type: "ReLU"
bottom: "fc6"
top: "fc6"
}
layer {
name: "drop6"
type: "Dropout"
bottom: "fc6"
top: "fc6"
dropout_param {
dropout_ratio: 0.5
}
}
layer {
name: "fc7"
type: "InnerProduct"
bottom: "fc6"
top: "fc7"
param {
lr_mult: 1
decay_mult: 1
}
param {
lr_mult: 2
decay_mult: 0
}
inner_product_param {
num_output: 4096
weight_filler {
type: "gaussian"
std: 0.005
}
bias_filler {
type: "constant"
value: 0.1
}
}
}
layer {
name: "relu7"
type: "ReLU"
bottom: "fc7"
top: "fc7"
}
layer {
name: "drop7"
type: "Dropout"
bottom: "fc7"
top: "fc7"
dropout_param {
dropout_ratio: 0.5
}
}
layer {
name: "fc8"
type: "InnerProduct"
bottom: "fc7"
top: "fc8"
param {
lr_mult: 1
decay_mult: 1
}
param {
lr_mult: 2
decay_mult: 0
}
inner_product_param {
num_output: 196
weight_filler {
type: "gaussian"
std: 0.01
}
bias_filler {
type: "constant"
value: 0
}
}
}
layer {
name: "loss"
type: "SoftmaxWithLoss"
bottom: "fc8"
bottom: "label"
top: "loss"
}
I0419 22:06:56.854689  8388 layer_factory.hpp:77] Creating layer train-data
I0419 22:06:56.870759  8388 db_lmdb.cpp:35] Opened lmdb /mnt/bigdisk/DIGITS-AMB-2/digits/jobs/20210419-135836-fd84/train_db
I0419 22:06:56.902539  8388 net.cpp:84] Creating Layer train-data
I0419 22:06:56.902570  8388 net.cpp:380] train-data -> data
I0419 22:06:56.902606  8388 net.cpp:380] train-data -> label
I0419 22:06:56.902628  8388 data_transformer.cpp:25] Loading mean file from: /mnt/bigdisk/DIGITS-AMB-2/digits/jobs/20210419-135836-fd84/mean.binaryproto
I0419 22:06:56.921988  8388 data_layer.cpp:45] output data size: 256,3,227,227
I0419 22:06:57.172726  8388 net.cpp:122] Setting up train-data
I0419 22:06:57.172749  8388 net.cpp:129] Top shape: 256 3 227 227 (39574272)
I0419 22:06:57.172752  8388 net.cpp:129] Top shape: 256 (256)
I0419 22:06:57.172755  8388 net.cpp:137] Memory required for data: 158298112
I0419 22:06:57.172765  8388 layer_factory.hpp:77] Creating layer conv1
I0419 22:06:57.172804  8388 net.cpp:84] Creating Layer conv1
I0419 22:06:57.172811  8388 net.cpp:406] conv1 <- data
I0419 22:06:57.172822  8388 net.cpp:380] conv1 -> conv1
I0419 22:06:58.055094  8388 net.cpp:122] Setting up conv1
I0419 22:06:58.055115  8388 net.cpp:129] Top shape: 256 96 55 55 (74342400)
I0419 22:06:58.055119  8388 net.cpp:137] Memory required for data: 455667712
I0419 22:06:58.055136  8388 layer_factory.hpp:77] Creating layer relu1
I0419 22:06:58.055148  8388 net.cpp:84] Creating Layer relu1
I0419 22:06:58.055152  8388 net.cpp:406] relu1 <- conv1
I0419 22:06:58.055157  8388 net.cpp:367] relu1 -> conv1 (in-place)
I0419 22:06:58.055536  8388 net.cpp:122] Setting up relu1
I0419 22:06:58.055547  8388 net.cpp:129] Top shape: 256 96 55 55 (74342400)
I0419 22:06:58.055549  8388 net.cpp:137] Memory required for data: 753037312
I0419 22:06:58.055552  8388 layer_factory.hpp:77] Creating layer norm1
I0419 22:06:58.055560  8388 net.cpp:84] Creating Layer norm1
I0419 22:06:58.055563  8388 net.cpp:406] norm1 <- conv1
I0419 22:06:58.055593  8388 net.cpp:380] norm1 -> norm1
I0419 22:06:58.056195  8388 net.cpp:122] Setting up norm1
I0419 22:06:58.056205  8388 net.cpp:129] Top shape: 256 96 55 55 (74342400)
I0419 22:06:58.056207  8388 net.cpp:137] Memory required for data: 1050406912
I0419 22:06:58.056210  8388 layer_factory.hpp:77] Creating layer pool1
I0419 22:06:58.056217  8388 net.cpp:84] Creating Layer pool1
I0419 22:06:58.056222  8388 net.cpp:406] pool1 <- norm1
I0419 22:06:58.056227  8388 net.cpp:380] pool1 -> pool1
I0419 22:06:58.056262  8388 net.cpp:122] Setting up pool1
I0419 22:06:58.056267  8388 net.cpp:129] Top shape: 256 96 27 27 (17915904)
I0419 22:06:58.056269  8388 net.cpp:137] Memory required for data: 1122070528
I0419 22:06:58.056272  8388 layer_factory.hpp:77] Creating layer conv2
I0419 22:06:58.056283  8388 net.cpp:84] Creating Layer conv2
I0419 22:06:58.056286  8388 net.cpp:406] conv2 <- pool1
I0419 22:06:58.056291  8388 net.cpp:380] conv2 -> conv2
I0419 22:06:58.064507  8388 net.cpp:122] Setting up conv2
I0419 22:06:58.064524  8388 net.cpp:129] Top shape: 256 256 27 27 (47775744)
I0419 22:06:58.064527  8388 net.cpp:137] Memory required for data: 1313173504
I0419 22:06:58.064536  8388 layer_factory.hpp:77] Creating layer relu2
I0419 22:06:58.064546  8388 net.cpp:84] Creating Layer relu2
I0419 22:06:58.064550  8388 net.cpp:406] relu2 <- conv2
I0419 22:06:58.064555  8388 net.cpp:367] relu2 -> conv2 (in-place)
I0419 22:06:58.065127  8388 net.cpp:122] Setting up relu2
I0419 22:06:58.065138  8388 net.cpp:129] Top shape: 256 256 27 27 (47775744)
I0419 22:06:58.065141  8388 net.cpp:137] Memory required for data: 1504276480
I0419 22:06:58.065145  8388 layer_factory.hpp:77] Creating layer norm2
I0419 22:06:58.065150  8388 net.cpp:84] Creating Layer norm2
I0419 22:06:58.065153  8388 net.cpp:406] norm2 <- conv2
I0419 22:06:58.065160  8388 net.cpp:380] norm2 -> norm2
I0419 22:06:58.065552  8388 net.cpp:122] Setting up norm2
I0419 22:06:58.065562  8388 net.cpp:129] Top shape: 256 256 27 27 (47775744)
I0419 22:06:58.065564  8388 net.cpp:137] Memory required for data: 1695379456
I0419 22:06:58.065567  8388 layer_factory.hpp:77] Creating layer pool2
I0419 22:06:58.065575  8388 net.cpp:84] Creating Layer pool2
I0419 22:06:58.065578  8388 net.cpp:406] pool2 <- norm2
I0419 22:06:58.065583  8388 net.cpp:380] pool2 -> pool2
I0419 22:06:58.065610  8388 net.cpp:122] Setting up pool2
I0419 22:06:58.065615  8388 net.cpp:129] Top shape: 256 256 13 13 (11075584)
I0419 22:06:58.065618  8388 net.cpp:137] Memory required for data: 1739681792
I0419 22:06:58.065620  8388 layer_factory.hpp:77] Creating layer conv3
I0419 22:06:58.065630  8388 net.cpp:84] Creating Layer conv3
I0419 22:06:58.065634  8388 net.cpp:406] conv3 <- pool2
I0419 22:06:58.065639  8388 net.cpp:380] conv3 -> conv3
I0419 22:06:58.076313  8388 net.cpp:122] Setting up conv3
I0419 22:06:58.076326  8388 net.cpp:129] Top shape: 256 384 13 13 (16613376)
I0419 22:06:58.076329  8388 net.cpp:137] Memory required for data: 1806135296
I0419 22:06:58.076339  8388 layer_factory.hpp:77] Creating layer relu3
I0419 22:06:58.076349  8388 net.cpp:84] Creating Layer relu3
I0419 22:06:58.076351  8388 net.cpp:406] relu3 <- conv3
I0419 22:06:58.076359  8388 net.cpp:367] relu3 -> conv3 (in-place)
I0419 22:06:58.076949  8388 net.cpp:122] Setting up relu3
I0419 22:06:58.076958  8388 net.cpp:129] Top shape: 256 384 13 13 (16613376)
I0419 22:06:58.076961  8388 net.cpp:137] Memory required for data: 1872588800
I0419 22:06:58.076964  8388 layer_factory.hpp:77] Creating layer conv4
I0419 22:06:58.076974  8388 net.cpp:84] Creating Layer conv4
I0419 22:06:58.076977  8388 net.cpp:406] conv4 <- conv3
I0419 22:06:58.076984  8388 net.cpp:380] conv4 -> conv4
I0419 22:06:58.088205  8388 net.cpp:122] Setting up conv4
I0419 22:06:58.088222  8388 net.cpp:129] Top shape: 256 384 13 13 (16613376)
I0419 22:06:58.088225  8388 net.cpp:137] Memory required for data: 1939042304
I0419 22:06:58.088232  8388 layer_factory.hpp:77] Creating layer relu4
I0419 22:06:58.088239  8388 net.cpp:84] Creating Layer relu4
I0419 22:06:58.088264  8388 net.cpp:406] relu4 <- conv4
I0419 22:06:58.088271  8388 net.cpp:367] relu4 -> conv4 (in-place)
I0419 22:06:58.088814  8388 net.cpp:122] Setting up relu4
I0419 22:06:58.088822  8388 net.cpp:129] Top shape: 256 384 13 13 (16613376)
I0419 22:06:58.088825  8388 net.cpp:137] Memory required for data: 2005495808
I0419 22:06:58.088829  8388 layer_factory.hpp:77] Creating layer conv5
I0419 22:06:58.088840  8388 net.cpp:84] Creating Layer conv5
I0419 22:06:58.088843  8388 net.cpp:406] conv5 <- conv4
I0419 22:06:58.088848  8388 net.cpp:380] conv5 -> conv5
I0419 22:06:58.098453  8388 net.cpp:122] Setting up conv5
I0419 22:06:58.098469  8388 net.cpp:129] Top shape: 256 256 13 13 (11075584)
I0419 22:06:58.098472  8388 net.cpp:137] Memory required for data: 2049798144
I0419 22:06:58.098484  8388 layer_factory.hpp:77] Creating layer relu5
I0419 22:06:58.098492  8388 net.cpp:84] Creating Layer relu5
I0419 22:06:58.098496  8388 net.cpp:406] relu5 <- conv5
I0419 22:06:58.098503  8388 net.cpp:367] relu5 -> conv5 (in-place)
I0419 22:06:58.099056  8388 net.cpp:122] Setting up relu5
I0419 22:06:58.099064  8388 net.cpp:129] Top shape: 256 256 13 13 (11075584)
I0419 22:06:58.099067  8388 net.cpp:137] Memory required for data: 2094100480
I0419 22:06:58.099071  8388 layer_factory.hpp:77] Creating layer pool5
I0419 22:06:58.099077  8388 net.cpp:84] Creating Layer pool5
I0419 22:06:58.099081  8388 net.cpp:406] pool5 <- conv5
I0419 22:06:58.099087  8388 net.cpp:380] pool5 -> pool5
I0419 22:06:58.099120  8388 net.cpp:122] Setting up pool5
I0419 22:06:58.099128  8388 net.cpp:129] Top shape: 256 256 6 6 (2359296)
I0419 22:06:58.099129  8388 net.cpp:137] Memory required for data: 2103537664
I0419 22:06:58.099133  8388 layer_factory.hpp:77] Creating layer fc6
I0419 22:06:58.099141  8388 net.cpp:84] Creating Layer fc6
I0419 22:06:58.099144  8388 net.cpp:406] fc6 <- pool5
I0419 22:06:58.099149  8388 net.cpp:380] fc6 -> fc6
I0419 22:06:58.458634  8388 net.cpp:122] Setting up fc6
I0419 22:06:58.458652  8388 net.cpp:129] Top shape: 256 4096 (1048576)
I0419 22:06:58.458655  8388 net.cpp:137] Memory required for data: 2107731968
I0419 22:06:58.458663  8388 layer_factory.hpp:77] Creating layer relu6
I0419 22:06:58.458674  8388 net.cpp:84] Creating Layer relu6
I0419 22:06:58.458678  8388 net.cpp:406] relu6 <- fc6
I0419 22:06:58.458683  8388 net.cpp:367] relu6 -> fc6 (in-place)
I0419 22:06:58.459411  8388 net.cpp:122] Setting up relu6
I0419 22:06:58.459424  8388 net.cpp:129] Top shape: 256 4096 (1048576)
I0419 22:06:58.459426  8388 net.cpp:137] Memory required for data: 2111926272
I0419 22:06:58.459429  8388 layer_factory.hpp:77] Creating layer drop6
I0419 22:06:58.459435  8388 net.cpp:84] Creating Layer drop6
I0419 22:06:58.459439  8388 net.cpp:406] drop6 <- fc6
I0419 22:06:58.459442  8388 net.cpp:367] drop6 -> fc6 (in-place)
I0419 22:06:58.459472  8388 net.cpp:122] Setting up drop6
I0419 22:06:58.459477  8388 net.cpp:129] Top shape: 256 4096 (1048576)
I0419 22:06:58.459479  8388 net.cpp:137] Memory required for data: 2116120576
I0419 22:06:58.459482  8388 layer_factory.hpp:77] Creating layer fc7
I0419 22:06:58.459489  8388 net.cpp:84] Creating Layer fc7
I0419 22:06:58.459492  8388 net.cpp:406] fc7 <- fc6
I0419 22:06:58.459496  8388 net.cpp:380] fc7 -> fc7
I0419 22:06:58.618659  8388 net.cpp:122] Setting up fc7
I0419 22:06:58.618677  8388 net.cpp:129] Top shape: 256 4096 (1048576)
I0419 22:06:58.618680  8388 net.cpp:137] Memory required for data: 2120314880
I0419 22:06:58.618690  8388 layer_factory.hpp:77] Creating layer relu7
I0419 22:06:58.618696  8388 net.cpp:84] Creating Layer relu7
I0419 22:06:58.618700  8388 net.cpp:406] relu7 <- fc7
I0419 22:06:58.618708  8388 net.cpp:367] relu7 -> fc7 (in-place)
I0419 22:06:58.619190  8388 net.cpp:122] Setting up relu7
I0419 22:06:58.619199  8388 net.cpp:129] Top shape: 256 4096 (1048576)
I0419 22:06:58.619201  8388 net.cpp:137] Memory required for data: 2124509184
I0419 22:06:58.619204  8388 layer_factory.hpp:77] Creating layer drop7
I0419 22:06:58.619210  8388 net.cpp:84] Creating Layer drop7
I0419 22:06:58.619232  8388 net.cpp:406] drop7 <- fc7
I0419 22:06:58.619238  8388 net.cpp:367] drop7 -> fc7 (in-place)
I0419 22:06:58.619261  8388 net.cpp:122] Setting up drop7
I0419 22:06:58.619264  8388 net.cpp:129] Top shape: 256 4096 (1048576)
I0419 22:06:58.619267  8388 net.cpp:137] Memory required for data: 2128703488
I0419 22:06:58.619271  8388 layer_factory.hpp:77] Creating layer fc8
I0419 22:06:58.619277  8388 net.cpp:84] Creating Layer fc8
I0419 22:06:58.619280  8388 net.cpp:406] fc8 <- fc7
I0419 22:06:58.619285  8388 net.cpp:380] fc8 -> fc8
I0419 22:06:58.627069  8388 net.cpp:122] Setting up fc8
I0419 22:06:58.627079  8388 net.cpp:129] Top shape: 256 196 (50176)
I0419 22:06:58.627082  8388 net.cpp:137] Memory required for data: 2128904192
I0419 22:06:58.627089  8388 layer_factory.hpp:77] Creating layer loss
I0419 22:06:58.627096  8388 net.cpp:84] Creating Layer loss
I0419 22:06:58.627099  8388 net.cpp:406] loss <- fc8
I0419 22:06:58.627104  8388 net.cpp:406] loss <- label
I0419 22:06:58.627110  8388 net.cpp:380] loss -> loss
I0419 22:06:58.627118  8388 layer_factory.hpp:77] Creating layer loss
…
I0419 22:06:58.628460  8388 net.cpp:294] The NetState phase (1) differed from the phase (0) specified by a rule in layer train-data
I0419 22:06:58.628594  8388 net.cpp:51] Initializing net from parameters:
state {
phase: TEST
}
layer {
name: "val-data"
type: "Data"
top: "data"
top: "label"
include {
phase: TEST
}
transform_param {
crop_size: 227
mean_file: "/mnt/bigdisk/DIGITS-AMB-2/digits/jobs/20210419-135836-fd84/mean.binaryproto"
}
data_param {
source: "/mnt/bigdisk/DIGITS-AMB-2/digits/jobs/20210419-135836-fd84/val_db"
batch_size: 256
backend: LMDB
}
}
layer {
name: "conv1"
type: "Convolution"
bottom: "data"
top: "conv1"
param {
lr_mult: 1
decay_mult: 1
}
param {
lr_mult: 2
decay_mult: 0
}
convolution_param {
num_output: 96
kernel_size: 11
stride: 4
weight_filler {
type: "gaussian"
std: 0.01
}
bias_filler {
type: "constant"
value: 0
}
}
}
layer {
name: "relu1"
type: "ReLU"
bottom: "conv1"
top: "conv1"
}
layer {
name: "norm1"
type: "LRN"
bottom: "conv1"
top: "norm1"
lrn_param {
local_size: 5
alpha: 0.0001
beta: 0.75
}
}
layer {
name: "pool1"
type: "Pooling"
bottom: "norm1"
top: "pool1"
pooling_param {
pool: MAX
kernel_size: 3
stride: 2
}
}
layer {
name: "conv2"
type: "Convolution"
bottom: "pool1"
top: "conv2"
param {
lr_mult: 1
decay_mult: 1
}
param {
lr_mult: 2
decay_mult: 0
}
convolution_param {
num_output: 256
pad: 2
kernel_size: 5
group: 2
weight_filler {
type: "gaussian"
std: 0.01
}
bias_filler {
type: "constant"
value: 0.1
}
}
}
layer {
name: "relu2"
type: "ReLU"
bottom: "conv2"
top: "conv2"
}
layer {
name: "norm2"
type: "LRN"
bottom: "conv2"
top: "norm2"
lrn_param {
local_size: 5
alpha: 0.0001
beta: 0.75
}
}
layer {
name: "pool2"
type: "Pooling"
bottom: "norm2"
top: "pool2"
pooling_param {
pool: MAX
kernel_size: 3
stride: 2
}
}
layer {
name: "conv3"
type: "Convolution"
bottom: "pool2"
top: "conv3"
param {
lr_mult: 1
decay_mult: 1
}
param {
lr_mult: 2
decay_mult: 0
}
convolution_param {
num_output: 384
pad: 1
kernel_size: 3
weight_filler {
type: "gaussian"
std: 0.01
}
bias_filler {
type: "constant"
value: 0
}
}
}
layer {
name: "relu3"
type: "ReLU"
bottom: "conv3"
top: "conv3"
}
layer {
name: "conv4"
type: "Convolution"
bottom: "conv3"
top: "conv4"
param {
lr_mult: 1
decay_mult: 1
}
param {
lr_mult: 2
decay_mult: 0
}
convolution_param {
num_output: 384
pad: 1
kernel_size: 3
group: 2
weight_filler {
type: "gaussian"
std: 0.01
}
bias_filler {
type: "constant"
value: 0.1
}
}
}
layer {
name: "relu4"
type: "ReLU"
bottom: "conv4"
top: "conv4"
}
layer {
name: "conv5"
type: "Convolution"
bottom: "conv4"
top: "conv5"
param {
lr_mult: 1
decay_mult: 1
}
param {
lr_mult: 2
decay_mult: 0
}
convolution_param {
num_output: 256
pad: 1
kernel_size: 3
group: 2
weight_filler {
type: "gaussian"
std: 0.01
}
bias_filler {
type: "constant"
value: 0.1
}
}
}
layer {
name: "relu5"
type: "ReLU"
bottom: "conv5"
top: "conv5"
}
layer {
name: "pool5"
type: "Pooling"
bottom: "conv5"
top: "pool5"
pooling_param {
pool: MAX
kernel_size: 3
stride: 2
}
}
layer {
name: "fc6"
type: "InnerProduct"
bottom: "pool5"
top: "fc6"
param {
lr_mult: 1
decay_mult: 1
}
param {
lr_mult: 2
decay_mult: 0
}
inner_product_param {
num_output: 4096
weight_filler {
type: "gaussian"
std: 0.005
}
bias_filler {
type: "constant"
value: 0.1
}
}
}
layer {
name: "relu6"
type: "ReLU"
bottom: "fc6"
top: "fc6"
}
layer {
name: "drop6"
type: "Dropout"
bottom: "fc6"
top: "fc6"
dropout_param {
dropout_ratio: 0.5
}
}
layer {
name: "fc7"
type: "InnerProduct"
bottom: "fc6"
top: "fc7"
param {
lr_mult: 1
decay_mult: 1
}
param {
lr_mult: 2
decay_mult: 0
}
inner_product_param {
num_output: 4096
weight_filler {
type: "gaussian"
std: 0.005
}
bias_filler {
type: "constant"
value: 0.1
}
}
}
layer {
name: "relu7"
type: "ReLU"
bottom: "fc7"
top: "fc7"
}
layer {
name: "drop7"
type: "Dropout"
bottom: "fc7"
top: "fc7"
dropout_param {
dropout_ratio: 0.5
}
}
layer {
name: "fc8"
type: "InnerProduct"
bottom: "fc7"
top: "fc8"
param {
lr_mult: 1
decay_mult: 1
}
param {
lr_mult: 2
decay_mult: 0
}
inner_product_param {
num_output: 196
weight_filler {
type: "gaussian"
std: 0.01
}
bias_filler {
type: "constant"
value: 0
}
}
}
layer {
name: "accuracy"
type: "Accuracy"
bottom: "fc8"
bottom: "label"
top: "accuracy"
include {
phase: TEST
}
}
layer {
name: "loss"
type: "SoftmaxWithLoss"
bottom: "fc8"
bottom: "label"
top: "loss"
}
I0419 22:06:58.628697  8388 layer_factory.hpp:77] Creating layer val-data
I0419 22:06:58.632910  8388 db_lmdb.cpp:35] Opened lmdb /mnt/bigdisk/DIGITS-AMB-2/digits/jobs/20210419-135836-fd84/val_db
I0419 22:06:58.647346  8388 net.cpp:84] Creating Layer val-data
I0419 22:06:58.647372  8388 net.cpp:380] val-data -> data
I0419 22:06:58.647387  8388 net.cpp:380] val-data -> label
I0419 22:06:58.647397  8388 data_transformer.cpp:25] Loading mean file from: /mnt/bigdisk/DIGITS-AMB-2/digits/jobs/20210419-135836-fd84/mean.binaryproto
I0419 22:06:58.658825  8388 data_layer.cpp:45] output data size: 256,3,227,227
I0419 22:06:58.912772  8388 net.cpp:122] Setting up val-data
I0419 22:06:58.912793  8388 net.cpp:129] Top shape: 256 3 227 227 (39574272)
I0419 22:06:58.912797  8388 net.cpp:129] Top shape: 256 (256)
I0419 22:06:58.912801  8388 net.cpp:137] Memory required for data: 158298112
I0419 22:06:58.912806  8388 layer_factory.hpp:77] Creating layer label_val-data_1_split
I0419 22:06:58.912817  8388 net.cpp:84] Creating Layer label_val-data_1_split
I0419 22:06:58.912820  8388 net.cpp:406] label_val-data_1_split <- label
I0419 22:06:58.912827  8388 net.cpp:380] label_val-data_1_split -> label_val-data_1_split_0
I0419 22:06:58.912834  8388 net.cpp:380] label_val-data_1_split -> label_val-data_1_split_1
I0419 22:06:58.912879  8388 net.cpp:122] Setting up label_val-data_1_split
I0419 22:06:58.912884  8388 net.cpp:129] Top shape: 256 (256)
I0419 22:06:58.912887  8388 net.cpp:129] Top shape: 256 (256)
I0419 22:06:58.912889  8388 net.cpp:137] Memory required for data: 158300160
I0419 22:06:58.912892  8388 layer_factory.hpp:77] Creating layer conv1
I0419 22:06:58.912902  8388 net.cpp:84] Creating Layer conv1
I0419 22:06:58.912905  8388 net.cpp:406] conv1 <- data
I0419 22:06:58.912910  8388 net.cpp:380] conv1 -> conv1
I0419 22:06:58.916296  8388 net.cpp:122] Setting up conv1
I0419 22:06:58.916307  8388 net.cpp:129] Top shape: 256 96 55 55 (74342400)
I0419 22:06:58.916311  8388 net.cpp:137] Memory required for data: 455669760
I0419 22:06:58.916319  8388 layer_factory.hpp:77] Creating layer relu1
I0419 22:06:58.916325  8388 net.cpp:84] Creating Layer relu1
I0419 22:06:58.916328  8388 net.cpp:406] relu1 <- conv1
I0419 22:06:58.916332  8388 net.cpp:367] relu1 -> conv1 (in-place)
I0419 22:06:58.916653  8388 net.cpp:122] Setting up relu1
I0419 22:06:58.916662  8388 net.cpp:129] Top shape: 256 96 55 55 (74342400)
I0419 22:06:58.916666  8388 net.cpp:137] Memory required for data: 753039360
I0419 22:06:58.916668  8388 layer_factory.hpp:77] Creating layer norm1
I0419 22:06:58.916676  8388 net.cpp:84] Creating Layer norm1
I0419 22:06:58.916678  8388 net.cpp:406] norm1 <- conv1
I0419 22:06:58.916683  8388 net.cpp:380] norm1 -> norm1
I0419 22:06:58.917205  8388 net.cpp:122] Setting up norm1
I0419 22:06:58.917215  8388 net.cpp:129] Top shape: 256 96 55 55 (74342400)
I0419 22:06:58.917217  8388 net.cpp:137] Memory required for data: 1050408960
I0419 22:06:58.917220  8388 layer_factory.hpp:77] Creating layer pool1
I0419 22:06:58.917227  8388 net.cpp:84] Creating Layer pool1
I0419 22:06:58.917230  8388 net.cpp:406] pool1 <- norm1
I0419 22:06:58.917234  8388 net.cpp:380] pool1 -> pool1
I0419 22:06:58.917259  8388 net.cpp:122] Setting up pool1
I0419 22:06:58.917263  8388 net.cpp:129] Top shape: 256 96 27 27 (17915904)
I0419 22:06:58.917266  8388 net.cpp:137] Memory required for data: 1122072576
I0419 22:06:58.917268  8388 layer_factory.hpp:77] Creating layer conv2
I0419 22:06:58.917276  8388 net.cpp:84] Creating Layer conv2
I0419 22:06:58.917297  8388 net.cpp:406] conv2 <- pool1
I0419 22:06:58.917302  8388 net.cpp:380] conv2 -> conv2
I0419 22:06:58.937960  8388 net.cpp:122] Setting up conv2
I0419 22:06:58.937980  8388 net.cpp:129] Top shape: 256 256 27 27 (47775744)
I0419 22:06:58.937984  8388 net.cpp:137] Memory required for data: 1313175552
I0419 22:06:58.937997  8388 layer_factory.hpp:77] Creating layer relu2
I0419 22:06:58.938006  8388 net.cpp:84] Creating Layer relu2
I0419 22:06:58.938010  8388 net.cpp:406] relu2 <- conv2
I0419 22:06:58.938017  8388 net.cpp:367] relu2 -> conv2 (in-place)
I0419 22:06:58.938915  8388 net.cpp:122] Setting up relu2
I0419 22:06:58.938930  8388 net.cpp:129] Top shape: 256 256 27 27 (47775744)
I0419 22:06:58.938933  8388 net.cpp:137] Memory required for data: 1504278528
I0419 22:06:58.938938  8388 layer_factory.hpp:77] Creating layer norm2
I0419 22:06:58.938953  8388 net.cpp:84] Creating Layer norm2
I0419 22:06:58.938958  8388 net.cpp:406] norm2 <- conv2
I0419 22:06:58.938966  8388 net.cpp:380] norm2 -> norm2
I0419 22:06:58.940097  8388 net.cpp:122] Setting up norm2
I0419 22:06:58.940114  8388 net.cpp:129] Top shape: 256 256 27 27 (47775744)
I0419 22:06:58.940119  8388 net.cpp:137] Memory required for data: 1695381504
I0419 22:06:58.940124  8388 layer_factory.hpp:77] Creating layer pool2
I0419 22:06:58.940131  8388 net.cpp:84] Creating Layer pool2
I0419 22:06:58.940136  8388 net.cpp:406] pool2 <- norm2
I0419 22:06:58.940145  8388 net.cpp:380] pool2 -> pool2
I0419 22:06:58.940187  8388 net.cpp:122] Setting up pool2
I0419 22:06:58.940196  8388 net.cpp:129] Top shape: 256 256 13 13 (11075584)
I0419 22:06:58.940198  8388 net.cpp:137] Memory required for data: 1739683840
I0419 22:06:58.940203  8388 layer_factory.hpp:77] Creating layer conv3
I0419 22:06:58.940218  8388 net.cpp:84] Creating Layer conv3
I0419 22:06:58.940222  8388 net.cpp:406] conv3 <- pool2
I0419 22:06:58.940232  8388 net.cpp:380] conv3 -> conv3
I0419 22:06:58.955765  8388 net.cpp:122] Setting up conv3
I0419 22:06:58.955783  8388 net.cpp:129] Top shape: 256 384 13 13 (16613376)
I0419 22:06:58.955786  8388 net.cpp:137] Memory required for data: 1806137344
I0419 22:06:58.955798  8388 layer_factory.hpp:77] Creating layer relu3
I0419 22:06:58.955806  8388 net.cpp:84] Creating Layer relu3
I0419 22:06:58.955811  8388 net.cpp:406] relu3 <- conv3
I0419 22:06:58.955816  8388 net.cpp:367] relu3 -> conv3 (in-place)
I0419 22:06:58.956411  8388 net.cpp:122] Setting up relu3
I0419 22:06:58.956421  8388 net.cpp:129] Top shape: 256 384 13 13 (16613376)
I0419 22:06:58.956424  8388 net.cpp:137] Memory required for data: 1872590848
I0419 22:06:58.956427  8388 layer_factory.hpp:77] Creating layer conv4
I0419 22:06:58.956439  8388 net.cpp:84] Creating Layer conv4
I0419 22:06:58.956441  8388 net.cpp:406] conv4 <- conv3
I0419 22:06:58.956449  8388 net.cpp:380] conv4 -> conv4
I0419 22:06:58.966859  8388 net.cpp:122] Setting up conv4
I0419 22:06:58.966876  8388 net.cpp:129] Top shape: 256 384 13 13 (16613376)
I0419 22:06:58.966878  8388 net.cpp:137] Memory required for data: 1939044352
I0419 22:06:58.966886  8388 layer_factory.hpp:77] Creating layer relu4
I0419 22:06:58.966893  8388 net.cpp:84] Creating Layer relu4
I0419 22:06:58.966897  8388 net.cpp:406] relu4 <- conv4
I0419 22:06:58.966902  8388 net.cpp:367] relu4 -> conv4 (in-place)
I0419 22:06:58.967289  8388 net.cpp:122] Setting up relu4
I0419 22:06:58.967299  8388 net.cpp:129] Top shape: 256 384 13 13 (16613376)
I0419 22:06:58.967303  8388 net.cpp:137] Memory required for data: 2005497856
I0419 22:06:58.967305  8388 layer_factory.hpp:77] Creating layer conv5
I0419 22:06:58.967315  8388 net.cpp:84] Creating Layer conv5
I0419 22:06:58.967319  8388 net.cpp:406] conv5 <- conv4
I0419 22:06:58.967324  8388 net.cpp:380] conv5 -> conv5
I0419 22:06:58.977345  8388 net.cpp:122] Setting up conv5
I0419 22:06:58.977361  8388 net.cpp:129] Top shape: 256 256 13 13 (11075584)
I0419 22:06:58.977365  8388 net.cpp:137] Memory required for data: 2049800192
I0419 22:06:58.977376  8388 layer_factory.hpp:77] Creating layer relu5
I0419 22:06:58.977401  8388 net.cpp:84] Creating Layer relu5
I0419 22:06:58.977404  8388 net.cpp:406] relu5 <- conv5
I0419 22:06:58.977411  8388 net.cpp:367] relu5 -> conv5 (in-place)
I0419 22:06:58.977977  8388 net.cpp:122] Setting up relu5
I0419 22:06:58.977988  8388 net.cpp:129] Top shape: 256 256 13 13 (11075584)
I0419 22:06:58.977991  8388 net.cpp:137] Memory required for data: 2094102528
I0419 22:06:58.977994  8388 layer_factory.hpp:77] Creating layer pool5
I0419 22:06:58.978004  8388 net.cpp:84] Creating Layer pool5
I0419 22:06:58.978008  8388 net.cpp:406] pool5 <- conv5
I0419 22:06:58.978013  8388 net.cpp:380] pool5 -> pool5
I0419 22:06:58.978049  8388 net.cpp:122] Setting up pool5
I0419 22:06:58.978053  8388 net.cpp:129] Top shape: 256 256 6 6 (2359296)
I0419 22:06:58.978056  8388 net.cpp:137] Memory required for data: 2103539712
I0419 22:06:58.978060  8388 layer_factory.hpp:77] Creating layer fc6
I0419 22:06:58.978070  8388 net.cpp:84] Creating Layer fc6
I0419 22:06:58.978072  8388 net.cpp:406] fc6 <- pool5
I0419 22:06:58.978077  8388 net.cpp:380] fc6 -> fc6
I0419 22:06:59.337400  8388 net.cpp:122] Setting up fc6
I0419 22:06:59.337419  8388 net.cpp:129] Top shape: 256 4096 (1048576)
I0419 22:06:59.337422  8388 net.cpp:137] Memory required for data: 2107734016
I0419 22:06:59.337431  8388 layer_factory.hpp:77] Creating layer relu6
I0419 22:06:59.337440  8388 net.cpp:84] Creating Layer relu6
I0419 22:06:59.337443  8388 net.cpp:406] relu6 <- fc6
I0419 22:06:59.337450  8388 net.cpp:367] relu6 -> fc6 (in-place)
I0419 22:06:59.338204  8388 net.cpp:122] Setting up relu6
I0419 22:06:59.338214  8388 net.cpp:129] Top shape: 256 4096 (1048576)
I0419 22:06:59.338217  8388 net.cpp:137] Memory required for data: 2111928320
I0419 22:06:59.338220  8388 layer_factory.hpp:77] Creating layer drop6
I0419 22:06:59.338227  8388 net.cpp:84] Creating Layer drop6
I0419 22:06:59.338229  8388 net.cpp:406] drop6 <- fc6
I0419 22:06:59.338235  8388 net.cpp:367] drop6 -> fc6 (in-place)
I0419 22:06:59.338260  8388 net.cpp:122] Setting up drop6
I0419 22:06:59.338265  8388 net.cpp:129] Top shape: 256 4096 (1048576)
I0419 22:06:59.338268  8388 net.cpp:137] Memory required for data: 2116122624
I0419 22:06:59.338270  8388 layer_factory.hpp:77] Creating layer fc7
I0419 22:06:59.338276  8388 net.cpp:84] Creating Layer fc7
I0419 22:06:59.338279  8388 net.cpp:406] fc7 <- fc6
I0419 22:06:59.338284  8388 net.cpp:380] fc7 -> fc7
I0419 22:06:59.498278  8388 net.cpp:122] Setting up fc7
I0419 22:06:59.498297  8388 net.cpp:129] Top shape: 256 4096 (1048576)
I0419 22:06:59.498301  8388 net.cpp:137] Memory required for data: 2120316928
I0419 22:06:59.498308  8388 layer_factory.hpp:77] Creating layer relu7
I0419 22:06:59.498317  8388 net.cpp:84] Creating Layer relu7
I0419 22:06:59.498320  8388 net.cpp:406] relu7 <- fc7
I0419 22:06:59.498327  8388 net.cpp:367] relu7 -> fc7 (in-place)
I0419 22:06:59.498823  8388 net.cpp:122] Setting up relu7
I0419 22:06:59.498834  8388 net.cpp:129] Top shape: 256 4096 (1048576)
I0419 22:06:59.498837  8388 net.cpp:137] Memory required for data: 2124511232
I0419 22:06:59.498840  8388 layer_factory.hpp:77] Creating layer drop7
I0419 22:06:59.498847  8388 net.cpp:84] Creating Layer drop7
I0419 22:06:59.498850  8388 net.cpp:406] drop7 <- fc7
I0419 22:06:59.498854  8388 net.cpp:367] drop7 -> fc7 (in-place)
I0419 22:06:59.498880  8388 net.cpp:122] Setting up drop7
I0419 22:06:59.498885  8388 net.cpp:129] Top shape: 256 4096 (1048576)
I0419 22:06:59.498888  8388 net.cpp:137] Memory required for data: 2128705536
I0419 22:06:59.498890  8388 layer_factory.hpp:77] Creating layer fc8
I0419 22:06:59.498898  8388 net.cpp:84] Creating Layer fc8
I0419 22:06:59.498900  8388 net.cpp:406] fc8 <- fc7
I0419 22:06:59.498905  8388 net.cpp:380] fc8 -> fc8
I0419 22:06:59.506745  8388 net.cpp:122] Setting up fc8
I0419 22:06:59.506759  8388 net.cpp:129] Top shape: 256 196 (50176)
I0419 22:06:59.506762  8388 net.cpp:137] Memory required for data: 2128906240
I0419 22:06:59.506769  8388 layer_factory.hpp:77] Creating layer fc8_fc8_0_split
I0419 22:06:59.506775  8388 net.cpp:84] Creating Layer fc8_fc8_0_split
I0419 22:06:59.506796  8388 net.cpp:406] fc8_fc8_0_split <- fc8
I0419 22:06:59.506803  8388 net.cpp:380] fc8_fc8_0_split -> fc8_fc8_0_split_0
I0419 22:06:59.506809  8388 net.cpp:380] fc8_fc8_0_split -> fc8_fc8_0_split_1
I0419 22:06:59.506844  8388 net.cpp:122] Setting up fc8_fc8_0_split
I0419 22:06:59.506848  8388 net.cpp:129] Top shape: 256 196 (50176)
I0419 22:06:59.506850  8388 net.cpp:129] Top shape: 256 196 (50176)
I0419 22:06:59.506853  8388 net.cpp:137] Memory required for data: 2129307648
I0419 22:06:59.506855  8388 layer_factory.hpp:77] Creating layer accuracy
I0419 22:06:59.506862  8388 net.cpp:84] Creating Layer accuracy
I0419 22:06:59.506865  8388 net.cpp:406] accuracy <- fc8_fc8_0_split_0
I0419 22:06:59.506868  8388 net.cpp:406] accuracy <- label_val-data_1_split_0
I0419 22:06:59.506875  8388 net.cpp:380] accuracy -> accuracy
…
