…
I0408 07:38:25.418259 31616 net.cpp:294] The NetState phase (0) differed from the phase (1) specified by a rule in layer accuracy
I0408 07:38:25.418402 31616 net.cpp:51] Initializing net from parameters:
state {
phase: TRAIN
level: 0
stage: ""
}
layer {
name: "train-data"
type: "Data"
top: "data"
top: "label"
include {
phase: TRAIN
}
transform_param {
mirror: true
crop_size: 227
mean_file: "/mnt/bigdisk/DIGITS-MAN-2/digits/jobs/20210407-214532-d396/mean.binaryproto"
}
data_param {
source: "/mnt/bigdisk/DIGITS-MAN-2/digits/jobs/20210407-214532-d396/train_db"
batch_size: 128
backend: LMDB
}
}
layer {
name: "conv1"
type: "Convolution"
bottom: "data"
top: "conv1"
param {
lr_mult: 1
decay_mult: 1
}
param {
lr_mult: 2
decay_mult: 0
}
convolution_param {
num_output: 96
kernel_size: 11
stride: 4
weight_filler {
type: "gaussian"
std: 0.01
}
bias_filler {
type: "constant"
value: 0
}
}
}
layer {
name: "relu1"
type: "ReLU"
bottom: "conv1"
top: "conv1"
}
layer {
name: "norm1"
type: "LRN"
bottom: "conv1"
top: "norm1"
lrn_param {
local_size: 5
alpha: 0.0001
beta: 0.75
}
}
layer {
name: "pool1"
type: "Pooling"
bottom: "norm1"
top: "pool1"
pooling_param {
pool: MAX
kernel_size: 3
stride: 2
}
}
layer {
name: "conv2"
type: "Convolution"
bottom: "pool1"
top: "conv2"
param {
lr_mult: 1
decay_mult: 1
}
param {
lr_mult: 2
decay_mult: 0
}
convolution_param {
num_output: 256
pad: 2
kernel_size: 5
group: 2
weight_filler {
type: "gaussian"
std: 0.01
}
bias_filler {
type: "constant"
value: 0.1
}
}
}
layer {
name: "relu2"
type: "ReLU"
bottom: "conv2"
top: "conv2"
}
layer {
name: "norm2"
type: "LRN"
bottom: "conv2"
top: "norm2"
lrn_param {
local_size: 5
alpha: 0.0001
beta: 0.75
}
}
layer {
name: "pool2"
type: "Pooling"
bottom: "norm2"
top: "pool2"
pooling_param {
pool: MAX
kernel_size: 3
stride: 2
}
}
layer {
name: "conv3"
type: "Convolution"
bottom: "pool2"
top: "conv3"
param {
lr_mult: 1
decay_mult: 1
}
param {
lr_mult: 2
decay_mult: 0
}
convolution_param {
num_output: 384
pad: 1
kernel_size: 3
weight_filler {
type: "gaussian"
std: 0.01
}
bias_filler {
type: "constant"
value: 0
}
}
}
layer {
name: "relu3"
type: "ReLU"
bottom: "conv3"
top: "conv3"
}
layer {
name: "conv4"
type: "Convolution"
bottom: "conv3"
top: "conv4"
param {
lr_mult: 1
decay_mult: 1
}
param {
lr_mult: 2
decay_mult: 0
}
convolution_param {
num_output: 384
pad: 1
kernel_size: 3
group: 2
weight_filler {
type: "gaussian"
std: 0.01
}
bias_filler {
type: "constant"
value: 0.1
}
}
}
layer {
name: "relu4"
type: "ReLU"
bottom: "conv4"
top: "conv4"
}
layer {
name: "conv5"
type: "Convolution"
bottom: "conv4"
top: "conv5"
param {
lr_mult: 1
decay_mult: 1
}
param {
lr_mult: 2
decay_mult: 0
}
convolution_param {
num_output: 256
pad: 1
kernel_size: 3
group: 2
weight_filler {
type: "gaussian"
std: 0.01
}
bias_filler {
type: "constant"
value: 0.1
}
}
}
layer {
name: "relu5"
type: "ReLU"
bottom: "conv5"
top: "conv5"
}
layer {
name: "pool5"
type: "Pooling"
bottom: "conv5"
top: "pool5"
pooling_param {
pool: MAX
kernel_size: 3
stride: 2
}
}
layer {
name: "fc6"
type: "InnerProduct"
bottom: "pool5"
top: "fc6"
param {
lr_mult: 1
decay_mult: 1
}
param {
lr_mult: 2
decay_mult: 0
}
inner_product_param {
num_output: 4096
weight_filler {
type: "gaussian"
std: 0.005
}
bias_filler {
type: "constant"
value: 0.1
}
}
}
layer {
name: "relu6"
type: "ReLU"
bottom: "fc6"
top: "fc6"
}
layer {
name: "drop6"
type: "Dropout"
bottom: "fc6"
top: "fc6"
dropout_param {
dropout_ratio: 0.5
}
}
layer {
name: "fc7"
type: "InnerProduct"
bottom: "fc6"
top: "fc7"
param {
lr_mult: 1
decay_mult: 1
}
param {
lr_mult: 2
decay_mult: 0
}
inner_product_param {
num_output: 4096
weight_filler {
type: "gaussian"
std: 0.005
}
bias_filler {
type: "constant"
value: 0.1
}
}
}
layer {
name: "relu7"
type: "ReLU"
bottom: "fc7"
top: "fc7"
}
layer {
name: "drop7"
type: "Dropout"
bottom: "fc7"
top: "fc7"
dropout_param {
dropout_ratio: 0.5
}
}
layer {
name: "fc8"
type: "InnerProduct"
bottom: "fc7"
top: "fc8"
param {
lr_mult: 1
decay_mult: 1
}
param {
lr_mult: 2
decay_mult: 0
}
inner_product_param {
num_output: 196
weight_filler {
type: "gaussian"
std: 0.01
}
bias_filler {
type: "constant"
value: 0
}
}
}
layer {
name: "loss"
type: "SoftmaxWithLoss"
bottom: "fc8"
bottom: "label"
top: "loss"
}
I0408 07:38:25.418490 31616 layer_factory.hpp:77] Creating layer train-data
I0408 07:38:25.420650 31616 db_lmdb.cpp:35] Opened lmdb /mnt/bigdisk/DIGITS-MAN-2/digits/jobs/20210407-214532-d396/train_db
I0408 07:38:25.420856 31616 net.cpp:84] Creating Layer train-data
I0408 07:38:25.420866 31616 net.cpp:380] train-data -> data
I0408 07:38:25.420886 31616 net.cpp:380] train-data -> label
I0408 07:38:25.420897 31616 data_transformer.cpp:25] Loading mean file from: /mnt/bigdisk/DIGITS-MAN-2/digits/jobs/20210407-214532-d396/mean.binaryproto
I0408 07:38:25.425640 31616 data_layer.cpp:45] output data size: 128,3,227,227
I0408 07:38:25.556176 31616 net.cpp:122] Setting up train-data
I0408 07:38:25.556200 31616 net.cpp:129] Top shape: 128 3 227 227 (19787136)
I0408 07:38:25.556205 31616 net.cpp:129] Top shape: 128 (128)
I0408 07:38:25.556208 31616 net.cpp:137] Memory required for data: 79149056
I0408 07:38:25.556218 31616 layer_factory.hpp:77] Creating layer conv1
I0408 07:38:25.556238 31616 net.cpp:84] Creating Layer conv1
I0408 07:38:25.556243 31616 net.cpp:406] conv1 <- data
I0408 07:38:25.556255 31616 net.cpp:380] conv1 -> conv1
I0408 07:38:26.110599 31616 net.cpp:122] Setting up conv1
I0408 07:38:26.110620 31616 net.cpp:129] Top shape: 128 96 55 55 (37171200)
I0408 07:38:26.110625 31616 net.cpp:137] Memory required for data: 227833856
I0408 07:38:26.110643 31616 layer_factory.hpp:77] Creating layer relu1
I0408 07:38:26.110654 31616 net.cpp:84] Creating Layer relu1
I0408 07:38:26.110658 31616 net.cpp:406] relu1 <- conv1
I0408 07:38:26.110664 31616 net.cpp:367] relu1 -> conv1 (in-place)
I0408 07:38:26.110949 31616 net.cpp:122] Setting up relu1
I0408 07:38:26.110958 31616 net.cpp:129] Top shape: 128 96 55 55 (37171200)
I0408 07:38:26.110961 31616 net.cpp:137] Memory required for data: 376518656
I0408 07:38:26.110965 31616 layer_factory.hpp:77] Creating layer norm1
I0408 07:38:26.110975 31616 net.cpp:84] Creating Layer norm1
I0408 07:38:26.110977 31616 net.cpp:406] norm1 <- conv1
I0408 07:38:26.111002 31616 net.cpp:380] norm1 -> norm1
I0408 07:38:26.111438 31616 net.cpp:122] Setting up norm1
I0408 07:38:26.111449 31616 net.cpp:129] Top shape: 128 96 55 55 (37171200)
I0408 07:38:26.111452 31616 net.cpp:137] Memory required for data: 525203456
I0408 07:38:26.111456 31616 layer_factory.hpp:77] Creating layer pool1
I0408 07:38:26.111464 31616 net.cpp:84] Creating Layer pool1
I0408 07:38:26.111467 31616 net.cpp:406] pool1 <- norm1
I0408 07:38:26.111472 31616 net.cpp:380] pool1 -> pool1
I0408 07:38:26.111508 31616 net.cpp:122] Setting up pool1
I0408 07:38:26.111515 31616 net.cpp:129] Top shape: 128 96 27 27 (8957952)
I0408 07:38:26.111517 31616 net.cpp:137] Memory required for data: 561035264
I0408 07:38:26.111521 31616 layer_factory.hpp:77] Creating layer conv2
I0408 07:38:26.111531 31616 net.cpp:84] Creating Layer conv2
I0408 07:38:26.111534 31616 net.cpp:406] conv2 <- pool1
I0408 07:38:26.111539 31616 net.cpp:380] conv2 -> conv2
I0408 07:38:26.118985 31616 net.cpp:122] Setting up conv2
I0408 07:38:26.118999 31616 net.cpp:129] Top shape: 128 256 27 27 (23887872)
I0408 07:38:26.119004 31616 net.cpp:137] Memory required for data: 656586752
I0408 07:38:26.119012 31616 layer_factory.hpp:77] Creating layer relu2
I0408 07:38:26.119020 31616 net.cpp:84] Creating Layer relu2
I0408 07:38:26.119024 31616 net.cpp:406] relu2 <- conv2
I0408 07:38:26.119029 31616 net.cpp:367] relu2 -> conv2 (in-place)
I0408 07:38:26.119446 31616 net.cpp:122] Setting up relu2
I0408 07:38:26.119457 31616 net.cpp:129] Top shape: 128 256 27 27 (23887872)
I0408 07:38:26.119460 31616 net.cpp:137] Memory required for data: 752138240
I0408 07:38:26.119463 31616 layer_factory.hpp:77] Creating layer norm2
I0408 07:38:26.119470 31616 net.cpp:84] Creating Layer norm2
I0408 07:38:26.119474 31616 net.cpp:406] norm2 <- conv2
I0408 07:38:26.119479 31616 net.cpp:380] norm2 -> norm2
I0408 07:38:26.119772 31616 net.cpp:122] Setting up norm2
I0408 07:38:26.119781 31616 net.cpp:129] Top shape: 128 256 27 27 (23887872)
I0408 07:38:26.119784 31616 net.cpp:137] Memory required for data: 847689728
I0408 07:38:26.119788 31616 layer_factory.hpp:77] Creating layer pool2
I0408 07:38:26.119796 31616 net.cpp:84] Creating Layer pool2
I0408 07:38:26.119798 31616 net.cpp:406] pool2 <- norm2
I0408 07:38:26.119803 31616 net.cpp:380] pool2 -> pool2
I0408 07:38:26.119830 31616 net.cpp:122] Setting up pool2
I0408 07:38:26.119835 31616 net.cpp:129] Top shape: 128 256 13 13 (5537792)
I0408 07:38:26.119838 31616 net.cpp:137] Memory required for data: 869840896
I0408 07:38:26.119841 31616 layer_factory.hpp:77] Creating layer conv3
I0408 07:38:26.119850 31616 net.cpp:84] Creating Layer conv3
I0408 07:38:26.119853 31616 net.cpp:406] conv3 <- pool2
I0408 07:38:26.119858 31616 net.cpp:380] conv3 -> conv3
I0408 07:38:26.129544 31616 net.cpp:122] Setting up conv3
I0408 07:38:26.129555 31616 net.cpp:129] Top shape: 128 384 13 13 (8306688)
I0408 07:38:26.129559 31616 net.cpp:137] Memory required for data: 903067648
I0408 07:38:26.129568 31616 layer_factory.hpp:77] Creating layer relu3
I0408 07:38:26.129575 31616 net.cpp:84] Creating Layer relu3
I0408 07:38:26.129578 31616 net.cpp:406] relu3 <- conv3
I0408 07:38:26.129583 31616 net.cpp:367] relu3 -> conv3 (in-place)
I0408 07:38:26.130009 31616 net.cpp:122] Setting up relu3
I0408 07:38:26.130019 31616 net.cpp:129] Top shape: 128 384 13 13 (8306688)
I0408 07:38:26.130023 31616 net.cpp:137] Memory required for data: 936294400
I0408 07:38:26.130026 31616 layer_factory.hpp:77] Creating layer conv4
I0408 07:38:26.130036 31616 net.cpp:84] Creating Layer conv4
I0408 07:38:26.130040 31616 net.cpp:406] conv4 <- conv3
I0408 07:38:26.130046 31616 net.cpp:380] conv4 -> conv4
I0408 07:38:26.140185 31616 net.cpp:122] Setting up conv4
I0408 07:38:26.140199 31616 net.cpp:129] Top shape: 128 384 13 13 (8306688)
I0408 07:38:26.140203 31616 net.cpp:137] Memory required for data: 969521152
I0408 07:38:26.140210 31616 layer_factory.hpp:77] Creating layer relu4
I0408 07:38:26.140218 31616 net.cpp:84] Creating Layer relu4
I0408 07:38:26.140237 31616 net.cpp:406] relu4 <- conv4
I0408 07:38:26.140242 31616 net.cpp:367] relu4 -> conv4 (in-place)
I0408 07:38:26.140579 31616 net.cpp:122] Setting up relu4
I0408 07:38:26.140588 31616 net.cpp:129] Top shape: 128 384 13 13 (8306688)
I0408 07:38:26.140592 31616 net.cpp:137] Memory required for data: 1002747904
I0408 07:38:26.140596 31616 layer_factory.hpp:77] Creating layer conv5
I0408 07:38:26.140606 31616 net.cpp:84] Creating Layer conv5
I0408 07:38:26.140610 31616 net.cpp:406] conv5 <- conv4
I0408 07:38:26.140616 31616 net.cpp:380] conv5 -> conv5
I0408 07:38:26.148886 31616 net.cpp:122] Setting up conv5
I0408 07:38:26.148898 31616 net.cpp:129] Top shape: 128 256 13 13 (5537792)
I0408 07:38:26.148901 31616 net.cpp:137] Memory required for data: 1024899072
I0408 07:38:26.148913 31616 layer_factory.hpp:77] Creating layer relu5
I0408 07:38:26.148921 31616 net.cpp:84] Creating Layer relu5
I0408 07:38:26.148926 31616 net.cpp:406] relu5 <- conv5
I0408 07:38:26.148931 31616 net.cpp:367] relu5 -> conv5 (in-place)
I0408 07:38:26.149410 31616 net.cpp:122] Setting up relu5
I0408 07:38:26.149418 31616 net.cpp:129] Top shape: 128 256 13 13 (5537792)
I0408 07:38:26.149421 31616 net.cpp:137] Memory required for data: 1047050240
I0408 07:38:26.149425 31616 layer_factory.hpp:77] Creating layer pool5
I0408 07:38:26.149432 31616 net.cpp:84] Creating Layer pool5
I0408 07:38:26.149435 31616 net.cpp:406] pool5 <- conv5
I0408 07:38:26.149442 31616 net.cpp:380] pool5 -> pool5
I0408 07:38:26.149478 31616 net.cpp:122] Setting up pool5
I0408 07:38:26.149484 31616 net.cpp:129] Top shape: 128 256 6 6 (1179648)
I0408 07:38:26.149487 31616 net.cpp:137] Memory required for data: 1051768832
I0408 07:38:26.149490 31616 layer_factory.hpp:77] Creating layer fc6
I0408 07:38:26.149499 31616 net.cpp:84] Creating Layer fc6
I0408 07:38:26.149503 31616 net.cpp:406] fc6 <- pool5
I0408 07:38:26.149508 31616 net.cpp:380] fc6 -> fc6
I0408 07:38:26.597638 31616 net.cpp:122] Setting up fc6
I0408 07:38:26.597661 31616 net.cpp:129] Top shape: 128 4096 (524288)
I0408 07:38:26.597666 31616 net.cpp:137] Memory required for data: 1053865984
I0408 07:38:26.597676 31616 layer_factory.hpp:77] Creating layer relu6
I0408 07:38:26.597684 31616 net.cpp:84] Creating Layer relu6
I0408 07:38:26.597688 31616 net.cpp:406] relu6 <- fc6
I0408 07:38:26.597697 31616 net.cpp:367] relu6 -> fc6 (in-place)
I0408 07:38:26.598387 31616 net.cpp:122] Setting up relu6
I0408 07:38:26.598397 31616 net.cpp:129] Top shape: 128 4096 (524288)
I0408 07:38:26.598402 31616 net.cpp:137] Memory required for data: 1055963136
I0408 07:38:26.598405 31616 layer_factory.hpp:77] Creating layer drop6
I0408 07:38:26.598413 31616 net.cpp:84] Creating Layer drop6
I0408 07:38:26.598417 31616 net.cpp:406] drop6 <- fc6
I0408 07:38:26.598423 31616 net.cpp:367] drop6 -> fc6 (in-place)
I0408 07:38:26.598451 31616 net.cpp:122] Setting up drop6
I0408 07:38:26.598456 31616 net.cpp:129] Top shape: 128 4096 (524288)
I0408 07:38:26.598460 31616 net.cpp:137] Memory required for data: 1058060288
I0408 07:38:26.598464 31616 layer_factory.hpp:77] Creating layer fc7
I0408 07:38:26.598472 31616 net.cpp:84] Creating Layer fc7
I0408 07:38:26.598476 31616 net.cpp:406] fc7 <- fc6
I0408 07:38:26.598484 31616 net.cpp:380] fc7 -> fc7
I0408 07:38:26.770041 31616 net.cpp:122] Setting up fc7
I0408 07:38:26.770061 31616 net.cpp:129] Top shape: 128 4096 (524288)
I0408 07:38:26.770066 31616 net.cpp:137] Memory required for data: 1060157440
I0408 07:38:26.770074 31616 layer_factory.hpp:77] Creating layer relu7
I0408 07:38:26.770084 31616 net.cpp:84] Creating Layer relu7
I0408 07:38:26.770088 31616 net.cpp:406] relu7 <- fc7
I0408 07:38:26.770097 31616 net.cpp:367] relu7 -> fc7 (in-place)
I0408 07:38:26.770745 31616 net.cpp:122] Setting up relu7
I0408 07:38:26.770756 31616 net.cpp:129] Top shape: 128 4096 (524288)
I0408 07:38:26.770759 31616 net.cpp:137] Memory required for data: 1062254592
I0408 07:38:26.770762 31616 layer_factory.hpp:77] Creating layer drop7
I0408 07:38:26.770769 31616 net.cpp:84] Creating Layer drop7
I0408 07:38:26.770792 31616 net.cpp:406] drop7 <- fc7
I0408 07:38:26.770797 31616 net.cpp:367] drop7 -> fc7 (in-place)
I0408 07:38:26.770824 31616 net.cpp:122] Setting up drop7
I0408 07:38:26.770829 31616 net.cpp:129] Top shape: 128 4096 (524288)
I0408 07:38:26.770833 31616 net.cpp:137] Memory required for data: 1064351744
I0408 07:38:26.770836 31616 layer_factory.hpp:77] Creating layer fc8
I0408 07:38:26.770844 31616 net.cpp:84] Creating Layer fc8
I0408 07:38:26.770848 31616 net.cpp:406] fc8 <- fc7
I0408 07:38:26.770853 31616 net.cpp:380] fc8 -> fc8
I0408 07:38:26.779201 31616 net.cpp:122] Setting up fc8
I0408 07:38:26.779211 31616 net.cpp:129] Top shape: 128 196 (25088)
I0408 07:38:26.779215 31616 net.cpp:137] Memory required for data: 1064452096
I0408 07:38:26.779222 31616 layer_factory.hpp:77] Creating layer loss
I0408 07:38:26.779228 31616 net.cpp:84] Creating Layer loss
I0408 07:38:26.779232 31616 net.cpp:406] loss <- fc8
I0408 07:38:26.779237 31616 net.cpp:406] loss <- label
I0408 07:38:26.779244 31616 net.cpp:380] loss -> loss
I0408 07:38:26.779254 31616 layer_factory.hpp:77] Creating layer loss
…
I0408 07:38:26.780575 31616 net.cpp:294] The NetState phase (1) differed from the phase (0) specified by a rule in layer train-data
I0408 07:38:26.780725 31616 net.cpp:51] Initializing net from parameters:
state {
phase: TEST
}
layer {
name: "val-data"
type: "Data"
top: "data"
top: "label"
include {
phase: TEST
}
transform_param {
crop_size: 227
mean_file: "/mnt/bigdisk/DIGITS-MAN-2/digits/jobs/20210407-214532-d396/mean.binaryproto"
}
data_param {
source: "/mnt/bigdisk/DIGITS-MAN-2/digits/jobs/20210407-214532-d396/val_db"
batch_size: 32
backend: LMDB
}
}
layer {
name: "conv1"
type: "Convolution"
bottom: "data"
top: "conv1"
param {
lr_mult: 1
decay_mult: 1
}
param {
lr_mult: 2
decay_mult: 0
}
convolution_param {
num_output: 96
kernel_size: 11
stride: 4
weight_filler {
type: "gaussian"
std: 0.01
}
bias_filler {
type: "constant"
value: 0
}
}
}
layer {
name: "relu1"
type: "ReLU"
bottom: "conv1"
top: "conv1"
}
layer {
name: "norm1"
type: "LRN"
bottom: "conv1"
top: "norm1"
lrn_param {
local_size: 5
alpha: 0.0001
beta: 0.75
}
}
layer {
name: "pool1"
type: "Pooling"
bottom: "norm1"
top: "pool1"
pooling_param {
pool: MAX
kernel_size: 3
stride: 2
}
}
layer {
name: "conv2"
type: "Convolution"
bottom: "pool1"
top: "conv2"
param {
lr_mult: 1
decay_mult: 1
}
param {
lr_mult: 2
decay_mult: 0
}
convolution_param {
num_output: 256
pad: 2
kernel_size: 5
group: 2
weight_filler {
type: "gaussian"
std: 0.01
}
bias_filler {
type: "constant"
value: 0.1
}
}
}
layer {
name: "relu2"
type: "ReLU"
bottom: "conv2"
top: "conv2"
}
layer {
name: "norm2"
type: "LRN"
bottom: "conv2"
top: "norm2"
lrn_param {
local_size: 5
alpha: 0.0001
beta: 0.75
}
}
layer {
name: "pool2"
type: "Pooling"
bottom: "norm2"
top: "pool2"
pooling_param {
pool: MAX
kernel_size: 3
stride: 2
}
}
layer {
name: "conv3"
type: "Convolution"
bottom: "pool2"
top: "conv3"
param {
lr_mult: 1
decay_mult: 1
}
param {
lr_mult: 2
decay_mult: 0
}
convolution_param {
num_output: 384
pad: 1
kernel_size: 3
weight_filler {
type: "gaussian"
std: 0.01
}
bias_filler {
type: "constant"
value: 0
}
}
}
layer {
name: "relu3"
type: "ReLU"
bottom: "conv3"
top: "conv3"
}
layer {
name: "conv4"
type: "Convolution"
bottom: "conv3"
top: "conv4"
param {
lr_mult: 1
decay_mult: 1
}
param {
lr_mult: 2
decay_mult: 0
}
convolution_param {
num_output: 384
pad: 1
kernel_size: 3
group: 2
weight_filler {
type: "gaussian"
std: 0.01
}
bias_filler {
type: "constant"
value: 0.1
}
}
}
layer {
name: "relu4"
type: "ReLU"
bottom: "conv4"
top: "conv4"
}
layer {
name: "conv5"
type: "Convolution"
bottom: "conv4"
top: "conv5"
param {
lr_mult: 1
decay_mult: 1
}
param {
lr_mult: 2
decay_mult: 0
}
convolution_param {
num_output: 256
pad: 1
kernel_size: 3
group: 2
weight_filler {
type: "gaussian"
std: 0.01
}
bias_filler {
type: "constant"
value: 0.1
}
}
}
layer {
name: "relu5"
type: "ReLU"
bottom: "conv5"
top: "conv5"
}
layer {
name: "pool5"
type: "Pooling"
bottom: "conv5"
top: "pool5"
pooling_param {
pool: MAX
kernel_size: 3
stride: 2
}
}
layer {
name: "fc6"
type: "InnerProduct"
bottom: "pool5"
top: "fc6"
param {
lr_mult: 1
decay_mult: 1
}
param {
lr_mult: 2
decay_mult: 0
}
inner_product_param {
num_output: 4096
weight_filler {
type: "gaussian"
std: 0.005
}
bias_filler {
type: "constant"
value: 0.1
}
}
}
layer {
name: "relu6"
type: "ReLU"
bottom: "fc6"
top: "fc6"
}
layer {
name: "drop6"
type: "Dropout"
bottom: "fc6"
top: "fc6"
dropout_param {
dropout_ratio: 0.5
}
}
layer {
name: "fc7"
type: "InnerProduct"
bottom: "fc6"
top: "fc7"
param {
lr_mult: 1
decay_mult: 1
}
param {
lr_mult: 2
decay_mult: 0
}
inner_product_param {
num_output: 4096
weight_filler {
type: "gaussian"
std: 0.005
}
bias_filler {
type: "constant"
value: 0.1
}
}
}
layer {
name: "relu7"
type: "ReLU"
bottom: "fc7"
top: "fc7"
}
layer {
name: "drop7"
type: "Dropout"
bottom: "fc7"
top: "fc7"
dropout_param {
dropout_ratio: 0.5
}
}
layer {
name: "fc8"
type: "InnerProduct"
bottom: "fc7"
top: "fc8"
param {
lr_mult: 1
decay_mult: 1
}
param {
lr_mult: 2
decay_mult: 0
}
inner_product_param {
num_output: 196
weight_filler {
type: "gaussian"
std: 0.01
}
bias_filler {
type: "constant"
value: 0
}
}
}
layer {
name: "accuracy"
type: "Accuracy"
bottom: "fc8"
bottom: "label"
top: "accuracy"
include {
phase: TEST
}
}
layer {
name: "loss"
type: "SoftmaxWithLoss"
bottom: "fc8"
bottom: "label"
top: "loss"
}
I0408 07:38:26.780827 31616 layer_factory.hpp:77] Creating layer val-data
I0408 07:38:26.782496 31616 db_lmdb.cpp:35] Opened lmdb /mnt/bigdisk/DIGITS-MAN-2/digits/jobs/20210407-214532-d396/val_db
I0408 07:38:26.782703 31616 net.cpp:84] Creating Layer val-data
I0408 07:38:26.782712 31616 net.cpp:380] val-data -> data
I0408 07:38:26.782722 31616 net.cpp:380] val-data -> label
I0408 07:38:26.782729 31616 data_transformer.cpp:25] Loading mean file from: /mnt/bigdisk/DIGITS-MAN-2/digits/jobs/20210407-214532-d396/mean.binaryproto
I0408 07:38:26.786876 31616 data_layer.cpp:45] output data size: 32,3,227,227
I0408 07:38:26.818327 31616 net.cpp:122] Setting up val-data
I0408 07:38:26.818347 31616 net.cpp:129] Top shape: 32 3 227 227 (4946784)
I0408 07:38:26.818352 31616 net.cpp:129] Top shape: 32 (32)
I0408 07:38:26.818356 31616 net.cpp:137] Memory required for data: 19787264
I0408 07:38:26.818363 31616 layer_factory.hpp:77] Creating layer label_val-data_1_split
I0408 07:38:26.818377 31616 net.cpp:84] Creating Layer label_val-data_1_split
I0408 07:38:26.818380 31616 net.cpp:406] label_val-data_1_split <- label
I0408 07:38:26.818387 31616 net.cpp:380] label_val-data_1_split -> label_val-data_1_split_0
I0408 07:38:26.818397 31616 net.cpp:380] label_val-data_1_split -> label_val-data_1_split_1
I0408 07:38:26.818439 31616 net.cpp:122] Setting up label_val-data_1_split
I0408 07:38:26.818444 31616 net.cpp:129] Top shape: 32 (32)
I0408 07:38:26.818449 31616 net.cpp:129] Top shape: 32 (32)
I0408 07:38:26.818451 31616 net.cpp:137] Memory required for data: 19787520
I0408 07:38:26.818455 31616 layer_factory.hpp:77] Creating layer conv1
I0408 07:38:26.818466 31616 net.cpp:84] Creating Layer conv1
I0408 07:38:26.818470 31616 net.cpp:406] conv1 <- data
I0408 07:38:26.818476 31616 net.cpp:380] conv1 -> conv1
I0408 07:38:26.820694 31616 net.cpp:122] Setting up conv1
I0408 07:38:26.820705 31616 net.cpp:129] Top shape: 32 96 55 55 (9292800)
I0408 07:38:26.820709 31616 net.cpp:137] Memory required for data: 56958720
I0408 07:38:26.820719 31616 layer_factory.hpp:77] Creating layer relu1
I0408 07:38:26.820727 31616 net.cpp:84] Creating Layer relu1
I0408 07:38:26.820730 31616 net.cpp:406] relu1 <- conv1
I0408 07:38:26.820736 31616 net.cpp:367] relu1 -> conv1 (in-place)
I0408 07:38:26.821051 31616 net.cpp:122] Setting up relu1
I0408 07:38:26.821060 31616 net.cpp:129] Top shape: 32 96 55 55 (9292800)
I0408 07:38:26.821064 31616 net.cpp:137] Memory required for data: 94129920
I0408 07:38:26.821067 31616 layer_factory.hpp:77] Creating layer norm1
I0408 07:38:26.821076 31616 net.cpp:84] Creating Layer norm1
I0408 07:38:26.821079 31616 net.cpp:406] norm1 <- conv1
I0408 07:38:26.821085 31616 net.cpp:380] norm1 -> norm1
I0408 07:38:26.821571 31616 net.cpp:122] Setting up norm1
I0408 07:38:26.821581 31616 net.cpp:129] Top shape: 32 96 55 55 (9292800)
I0408 07:38:26.821584 31616 net.cpp:137] Memory required for data: 131301120
I0408 07:38:26.821588 31616 layer_factory.hpp:77] Creating layer pool1
I0408 07:38:26.821596 31616 net.cpp:84] Creating Layer pool1
I0408 07:38:26.821599 31616 net.cpp:406] pool1 <- norm1
I0408 07:38:26.821605 31616 net.cpp:380] pool1 -> pool1
I0408 07:38:26.821636 31616 net.cpp:122] Setting up pool1
I0408 07:38:26.821641 31616 net.cpp:129] Top shape: 32 96 27 27 (2239488)
I0408 07:38:26.821645 31616 net.cpp:137] Memory required for data: 140259072
I0408 07:38:26.821648 31616 layer_factory.hpp:77] Creating layer conv2
I0408 07:38:26.821655 31616 net.cpp:84] Creating Layer conv2
I0408 07:38:26.821660 31616 net.cpp:406] conv2 <- pool1
I0408 07:38:26.821682 31616 net.cpp:380] conv2 -> conv2
I0408 07:38:26.830883 31616 net.cpp:122] Setting up conv2
I0408 07:38:26.830897 31616 net.cpp:129] Top shape: 32 256 27 27 (5971968)
I0408 07:38:26.830901 31616 net.cpp:137] Memory required for data: 164146944
I0408 07:38:26.830911 31616 layer_factory.hpp:77] Creating layer relu2
I0408 07:38:26.830919 31616 net.cpp:84] Creating Layer relu2
I0408 07:38:26.830924 31616 net.cpp:406] relu2 <- conv2
I0408 07:38:26.830929 31616 net.cpp:367] relu2 -> conv2 (in-place)
I0408 07:38:26.831462 31616 net.cpp:122] Setting up relu2
I0408 07:38:26.831471 31616 net.cpp:129] Top shape: 32 256 27 27 (5971968)
I0408 07:38:26.831475 31616 net.cpp:137] Memory required for data: 188034816
I0408 07:38:26.831480 31616 layer_factory.hpp:77] Creating layer norm2
I0408 07:38:26.831490 31616 net.cpp:84] Creating Layer norm2
I0408 07:38:26.831493 31616 net.cpp:406] norm2 <- conv2
I0408 07:38:26.831499 31616 net.cpp:380] norm2 -> norm2
I0408 07:38:26.832056 31616 net.cpp:122] Setting up norm2
I0408 07:38:26.832065 31616 net.cpp:129] Top shape: 32 256 27 27 (5971968)
I0408 07:38:26.832069 31616 net.cpp:137] Memory required for data: 211922688
I0408 07:38:26.832073 31616 layer_factory.hpp:77] Creating layer pool2
I0408 07:38:26.832079 31616 net.cpp:84] Creating Layer pool2
I0408 07:38:26.832083 31616 net.cpp:406] pool2 <- norm2
I0408 07:38:26.832090 31616 net.cpp:380] pool2 -> pool2
I0408 07:38:26.832121 31616 net.cpp:122] Setting up pool2
I0408 07:38:26.832127 31616 net.cpp:129] Top shape: 32 256 13 13 (1384448)
I0408 07:38:26.832130 31616 net.cpp:137] Memory required for data: 217460480
I0408 07:38:26.832134 31616 layer_factory.hpp:77] Creating layer conv3
I0408 07:38:26.832145 31616 net.cpp:84] Creating Layer conv3
I0408 07:38:26.832149 31616 net.cpp:406] conv3 <- pool2
I0408 07:38:26.832154 31616 net.cpp:380] conv3 -> conv3
I0408 07:38:26.843953 31616 net.cpp:122] Setting up conv3
I0408 07:38:26.843971 31616 net.cpp:129] Top shape: 32 384 13 13 (2076672)
I0408 07:38:26.843974 31616 net.cpp:137] Memory required for data: 225767168
I0408 07:38:26.843986 31616 layer_factory.hpp:77] Creating layer relu3
I0408 07:38:26.843994 31616 net.cpp:84] Creating Layer relu3
I0408 07:38:26.843998 31616 net.cpp:406] relu3 <- conv3
I0408 07:38:26.844004 31616 net.cpp:367] relu3 -> conv3 (in-place)
I0408 07:38:26.844552 31616 net.cpp:122] Setting up relu3
I0408 07:38:26.844561 31616 net.cpp:129] Top shape: 32 384 13 13 (2076672)
I0408 07:38:26.844565 31616 net.cpp:137] Memory required for data: 234073856
I0408 07:38:26.844568 31616 layer_factory.hpp:77] Creating layer conv4
I0408 07:38:26.844581 31616 net.cpp:84] Creating Layer conv4
I0408 07:38:26.844585 31616 net.cpp:406] conv4 <- conv3
I0408 07:38:26.844592 31616 net.cpp:380] conv4 -> conv4
I0408 07:38:26.854796 31616 net.cpp:122] Setting up conv4
I0408 07:38:26.854810 31616 net.cpp:129] Top shape: 32 384 13 13 (2076672)
I0408 07:38:26.854813 31616 net.cpp:137] Memory required for data: 242380544
I0408 07:38:26.854821 31616 layer_factory.hpp:77] Creating layer relu4
I0408 07:38:26.854828 31616 net.cpp:84] Creating Layer relu4
I0408 07:38:26.854832 31616 net.cpp:406] relu4 <- conv4
I0408 07:38:26.854840 31616 net.cpp:367] relu4 -> conv4 (in-place)
I0408 07:38:26.855211 31616 net.cpp:122] Setting up relu4
I0408 07:38:26.855219 31616 net.cpp:129] Top shape: 32 384 13 13 (2076672)
I0408 07:38:26.855223 31616 net.cpp:137] Memory required for data: 250687232
I0408 07:38:26.855227 31616 layer_factory.hpp:77] Creating layer conv5
I0408 07:38:26.855237 31616 net.cpp:84] Creating Layer conv5
I0408 07:38:26.855242 31616 net.cpp:406] conv5 <- conv4
I0408 07:38:26.855248 31616 net.cpp:380] conv5 -> conv5
I0408 07:38:26.864305 31616 net.cpp:122] Setting up conv5
I0408 07:38:26.864317 31616 net.cpp:129] Top shape: 32 256 13 13 (1384448)
I0408 07:38:26.864321 31616 net.cpp:137] Memory required for data: 256225024
I0408 07:38:26.864333 31616 layer_factory.hpp:77] Creating layer relu5
I0408 07:38:26.864341 31616 net.cpp:84] Creating Layer relu5
I0408 07:38:26.864346 31616 net.cpp:406] relu5 <- conv5
I0408 07:38:26.864368 31616 net.cpp:367] relu5 -> conv5 (in-place)
I0408 07:38:26.864893 31616 net.cpp:122] Setting up relu5
I0408 07:38:26.864903 31616 net.cpp:129] Top shape: 32 256 13 13 (1384448)
I0408 07:38:26.864907 31616 net.cpp:137] Memory required for data: 261762816
I0408 07:38:26.864912 31616 layer_factory.hpp:77] Creating layer pool5
I0408 07:38:26.864923 31616 net.cpp:84] Creating Layer pool5
I0408 07:38:26.864926 31616 net.cpp:406] pool5 <- conv5
I0408 07:38:26.864933 31616 net.cpp:380] pool5 -> pool5
I0408 07:38:26.864974 31616 net.cpp:122] Setting up pool5
I0408 07:38:26.864979 31616 net.cpp:129] Top shape: 32 256 6 6 (294912)
I0408 07:38:26.864984 31616 net.cpp:137] Memory required for data: 262942464
I0408 07:38:26.864986 31616 layer_factory.hpp:77] Creating layer fc6
I0408 07:38:26.864993 31616 net.cpp:84] Creating Layer fc6
I0408 07:38:26.864997 31616 net.cpp:406] fc6 <- pool5
I0408 07:38:26.865003 31616 net.cpp:380] fc6 -> fc6
I0408 07:38:27.241144 31616 net.cpp:122] Setting up fc6
I0408 07:38:27.241164 31616 net.cpp:129] Top shape: 32 4096 (131072)
I0408 07:38:27.241168 31616 net.cpp:137] Memory required for data: 263466752
I0408 07:38:27.241178 31616 layer_factory.hpp:77] Creating layer relu6
I0408 07:38:27.241187 31616 net.cpp:84] Creating Layer relu6
I0408 07:38:27.241192 31616 net.cpp:406] relu6 <- fc6
I0408 07:38:27.241199 31616 net.cpp:367] relu6 -> fc6 (in-place)
I0408 07:38:27.242046 31616 net.cpp:122] Setting up relu6
I0408 07:38:27.242056 31616 net.cpp:129] Top shape: 32 4096 (131072)
I0408 07:38:27.242059 31616 net.cpp:137] Memory required for data: 263991040
I0408 07:38:27.242063 31616 layer_factory.hpp:77] Creating layer drop6
I0408 07:38:27.242070 31616 net.cpp:84] Creating Layer drop6
I0408 07:38:27.242074 31616 net.cpp:406] drop6 <- fc6
I0408 07:38:27.242081 31616 net.cpp:367] drop6 -> fc6 (in-place)
I0408 07:38:27.242108 31616 net.cpp:122] Setting up drop6
I0408 07:38:27.242115 31616 net.cpp:129] Top shape: 32 4096 (131072)
I0408 07:38:27.242117 31616 net.cpp:137] Memory required for data: 264515328
I0408 07:38:27.242121 31616 layer_factory.hpp:77] Creating layer fc7
I0408 07:38:27.242128 31616 net.cpp:84] Creating Layer fc7
I0408 07:38:27.242132 31616 net.cpp:406] fc7 <- fc6
I0408 07:38:27.242138 31616 net.cpp:380] fc7 -> fc7
I0408 07:38:27.398536 31616 net.cpp:122] Setting up fc7
I0408 07:38:27.398552 31616 net.cpp:129] Top shape: 32 4096 (131072)
I0408 07:38:27.398556 31616 net.cpp:137] Memory required for data: 265039616
I0408 07:38:27.398566 31616 layer_factory.hpp:77] Creating layer relu7
I0408 07:38:27.398574 31616 net.cpp:84] Creating Layer relu7
I0408 07:38:27.398579 31616 net.cpp:406] relu7 <- fc7
I0408 07:38:27.398586 31616 net.cpp:367] relu7 -> fc7 (in-place)
I0408 07:38:27.399019 31616 net.cpp:122] Setting up relu7
I0408 07:38:27.399027 31616 net.cpp:129] Top shape: 32 4096 (131072)
I0408 07:38:27.399030 31616 net.cpp:137] Memory required for data: 265563904
I0408 07:38:27.399034 31616 layer_factory.hpp:77] Creating layer drop7
I0408 07:38:27.399041 31616 net.cpp:84] Creating Layer drop7
I0408 07:38:27.399044 31616 net.cpp:406] drop7 <- fc7
I0408 07:38:27.399049 31616 net.cpp:367] drop7 -> fc7 (in-place)
I0408 07:38:27.399073 31616 net.cpp:122] Setting up drop7
I0408 07:38:27.399078 31616 net.cpp:129] Top shape: 32 4096 (131072)
I0408 07:38:27.399081 31616 net.cpp:137] Memory required for data: 266088192
I0408 07:38:27.399085 31616 layer_factory.hpp:77] Creating layer fc8
I0408 07:38:27.399091 31616 net.cpp:84] Creating Layer fc8
I0408 07:38:27.399096 31616 net.cpp:406] fc8 <- fc7
I0408 07:38:27.399101 31616 net.cpp:380] fc8 -> fc8
I0408 07:38:27.406790 31616 net.cpp:122] Setting up fc8
I0408 07:38:27.406801 31616 net.cpp:129] Top shape: 32 196 (6272)
I0408 07:38:27.406805 31616 net.cpp:137] Memory required for data: 266113280
I0408 07:38:27.406810 31616 layer_factory.hpp:77] Creating layer fc8_fc8_0_split
I0408 07:38:27.406817 31616 net.cpp:84] Creating Layer fc8_fc8_0_split
I0408 07:38:27.406821 31616 net.cpp:406] fc8_fc8_0_split <- fc8
I0408 07:38:27.406842 31616 net.cpp:380] fc8_fc8_0_split -> fc8_fc8_0_split_0
I0408 07:38:27.406850 31616 net.cpp:380] fc8_fc8_0_split -> fc8_fc8_0_split_1
I0408 07:38:27.406881 31616 net.cpp:122] Setting up fc8_fc8_0_split
I0408 07:38:27.406886 31616 net.cpp:129] Top shape: 32 196 (6272)
I0408 07:38:27.406890 31616 net.cpp:129] Top shape: 32 196 (6272)
I0408 07:38:27.406893 31616 net.cpp:137] Memory required for data: 266163456
I0408 07:38:27.406896 31616 layer_factory.hpp:77] Creating layer accuracy
I0408 07:38:27.406903 31616 net.cpp:84] Creating Layer accuracy
I0408 07:38:27.406908 31616 net.cpp:406] accuracy <- fc8_fc8_0_split_0
I0408 07:38:27.406911 31616 net.cpp:406] accuracy <- label_val-data_1_split_0
I0408 07:38:27.406916 31616 net.cpp:380] accuracy -> accuracy
…
