…
I0427 14:42:22.373320 12649 net.cpp:294] The NetState phase (0) differed from the phase (1) specified by a rule in layer accuracy
I0427 14:42:22.373457 12649 net.cpp:51] Initializing net from parameters:
state {
phase: TRAIN
level: 0
stage: ""
}
layer {
name: "train-data"
type: "Data"
top: "data"
top: "label"
include {
phase: TRAIN
}
transform_param {
mirror: true
crop_size: 227
mean_file: "/mnt/bigdisk/DIGITS-MAN-3/digits/jobs/20210421-230320-902c/mean.binaryproto"
}
data_param {
source: "/mnt/bigdisk/DIGITS-MAN-3/digits/jobs/20210421-230320-902c/train_db"
batch_size: 128
backend: LMDB
}
}
layer {
name: "conv1"
type: "Convolution"
bottom: "data"
top: "conv1"
param {
lr_mult: 1
decay_mult: 1
}
param {
lr_mult: 2
decay_mult: 0
}
convolution_param {
num_output: 96
kernel_size: 5
stride: 4
weight_filler {
type: "gaussian"
std: 0.01
}
bias_filler {
type: "constant"
value: 0
}
}
}
layer {
name: "relu1"
type: "ReLU"
bottom: "conv1"
top: "conv1"
}
layer {
name: "norm1"
type: "LRN"
bottom: "conv1"
top: "norm1"
lrn_param {
local_size: 5
alpha: 0.0001
beta: 0.75
}
}
layer {
name: "pool1"
type: "Pooling"
bottom: "norm1"
top: "pool1"
pooling_param {
pool: MAX
kernel_size: 3
stride: 2
}
}
layer {
name: "conv2"
type: "Convolution"
bottom: "pool1"
top: "conv2"
param {
lr_mult: 1
decay_mult: 1
}
param {
lr_mult: 2
decay_mult: 0
}
convolution_param {
num_output: 256
pad: 2
kernel_size: 5
group: 2
weight_filler {
type: "gaussian"
std: 0.01
}
bias_filler {
type: "constant"
value: 0.1
}
}
}
layer {
name: "relu2"
type: "ReLU"
bottom: "conv2"
top: "conv2"
}
layer {
name: "norm2"
type: "LRN"
bottom: "conv2"
top: "norm2"
lrn_param {
local_size: 5
alpha: 0.0001
beta: 0.75
}
}
layer {
name: "pool2"
type: "Pooling"
bottom: "norm2"
top: "pool2"
pooling_param {
pool: MAX
kernel_size: 3
stride: 2
}
}
layer {
name: "conv3"
type: "Convolution"
bottom: "pool2"
top: "conv3"
param {
lr_mult: 1
decay_mult: 1
}
param {
lr_mult: 2
decay_mult: 0
}
convolution_param {
num_output: 384
pad: 1
kernel_size: 3
weight_filler {
type: "gaussian"
std: 0.01
}
bias_filler {
type: "constant"
value: 0
}
}
}
layer {
name: "relu3"
type: "ReLU"
bottom: "conv3"
top: "conv3"
}
layer {
name: "conv4"
type: "Convolution"
bottom: "conv3"
top: "conv4"
param {
lr_mult: 1
decay_mult: 1
}
param {
lr_mult: 2
decay_mult: 0
}
convolution_param {
num_output: 384
pad: 1
kernel_size: 3
group: 2
weight_filler {
type: "gaussian"
std: 0.01
}
bias_filler {
type: "constant"
value: 0.1
}
}
}
layer {
name: "relu4"
type: "ReLU"
bottom: "conv4"
top: "conv4"
}
layer {
name: "conv5"
type: "Convolution"
bottom: "conv4"
top: "conv5"
param {
lr_mult: 1
decay_mult: 1
}
param {
lr_mult: 2
decay_mult: 0
}
convolution_param {
num_output: 256
pad: 1
kernel_size: 3
group: 2
weight_filler {
type: "gaussian"
std: 0.01
}
bias_filler {
type: "constant"
value: 0.1
}
}
}
layer {
name: "relu5"
type: "ReLU"
bottom: "conv5"
top: "conv5"
}
layer {
name: "pool5"
type: "Pooling"
bottom: "conv5"
top: "pool5"
pooling_param {
pool: MAX
kernel_size: 3
stride: 2
}
}
layer {
name: "fc6"
type: "InnerProduct"
bottom: "pool5"
top: "fc6"
param {
lr_mult: 1
decay_mult: 1
}
param {
lr_mult: 2
decay_mult: 0
}
inner_product_param {
num_output: 4096
weight_filler {
type: "gaussian"
std: 0.005
}
bias_filler {
type: "constant"
value: 0.1
}
}
}
layer {
name: "relu6"
type: "ReLU"
bottom: "fc6"
top: "fc6"
}
layer {
name: "drop6"
type: "Dropout"
bottom: "fc6"
top: "fc6"
dropout_param {
dropout_ratio: 0.5
}
}
layer {
name: "fc7"
type: "InnerProduct"
bottom: "fc6"
top: "fc7"
param {
lr_mult: 1
decay_mult: 1
}
param {
lr_mult: 2
decay_mult: 0
}
inner_product_param {
num_output: 4096
weight_filler {
type: "gaussian"
std: 0.005
}
bias_filler {
type: "constant"
value: 0.1
}
}
}
layer {
name: "relu7"
type: "ReLU"
bottom: "fc7"
top: "fc7"
}
layer {
name: "drop7"
type: "Dropout"
bottom: "fc7"
top: "fc7"
dropout_param {
dropout_ratio: 0.5
}
}
layer {
name: "fc8"
type: "InnerProduct"
bottom: "fc7"
top: "fc8"
param {
lr_mult: 1
decay_mult: 1
}
param {
lr_mult: 2
decay_mult: 0
}
inner_product_param {
num_output: 196
weight_filler {
type: "gaussian"
std: 0.01
}
bias_filler {
type: "constant"
value: 0
}
}
}
layer {
name: "loss"
type: "SoftmaxWithLoss"
bottom: "fc8"
bottom: "label"
top: "loss"
}
I0427 14:42:22.373545 12649 layer_factory.hpp:77] Creating layer train-data
I0427 14:42:22.384510 12649 db_lmdb.cpp:35] Opened lmdb /mnt/bigdisk/DIGITS-MAN-3/digits/jobs/20210421-230320-902c/train_db
I0427 14:42:22.384680 12649 net.cpp:84] Creating Layer train-data
I0427 14:42:22.384696 12649 net.cpp:380] train-data -> data
I0427 14:42:22.384719 12649 net.cpp:380] train-data -> label
I0427 14:42:22.384733 12649 data_transformer.cpp:25] Loading mean file from: /mnt/bigdisk/DIGITS-MAN-3/digits/jobs/20210421-230320-902c/mean.binaryproto
I0427 14:42:22.390199 12649 data_layer.cpp:45] output data size: 128,3,227,227
I0427 14:42:22.530362 12649 net.cpp:122] Setting up train-data
I0427 14:42:22.530387 12649 net.cpp:129] Top shape: 128 3 227 227 (19787136)
I0427 14:42:22.530392 12649 net.cpp:129] Top shape: 128 (128)
I0427 14:42:22.530395 12649 net.cpp:137] Memory required for data: 79149056
I0427 14:42:22.530405 12649 layer_factory.hpp:77] Creating layer conv1
I0427 14:42:22.530423 12649 net.cpp:84] Creating Layer conv1
I0427 14:42:22.530429 12649 net.cpp:406] conv1 <- data
I0427 14:42:22.530441 12649 net.cpp:380] conv1 -> conv1
I0427 14:42:23.279999 12649 net.cpp:122] Setting up conv1
I0427 14:42:23.280026 12649 net.cpp:129] Top shape: 128 96 56 56 (38535168)
I0427 14:42:23.280032 12649 net.cpp:137] Memory required for data: 233289728
I0427 14:42:23.280058 12649 layer_factory.hpp:77] Creating layer relu1
I0427 14:42:23.280073 12649 net.cpp:84] Creating Layer relu1
I0427 14:42:23.280079 12649 net.cpp:406] relu1 <- conv1
I0427 14:42:23.280087 12649 net.cpp:367] relu1 -> conv1 (in-place)
I0427 14:42:23.280552 12649 net.cpp:122] Setting up relu1
I0427 14:42:23.280565 12649 net.cpp:129] Top shape: 128 96 56 56 (38535168)
I0427 14:42:23.280570 12649 net.cpp:137] Memory required for data: 387430400
I0427 14:42:23.280575 12649 layer_factory.hpp:77] Creating layer norm1
I0427 14:42:23.280587 12649 net.cpp:84] Creating Layer norm1
I0427 14:42:23.280592 12649 net.cpp:406] norm1 <- conv1
I0427 14:42:23.280627 12649 net.cpp:380] norm1 -> norm1
I0427 14:42:23.281257 12649 net.cpp:122] Setting up norm1
I0427 14:42:23.281271 12649 net.cpp:129] Top shape: 128 96 56 56 (38535168)
I0427 14:42:23.281277 12649 net.cpp:137] Memory required for data: 541571072
I0427 14:42:23.281282 12649 layer_factory.hpp:77] Creating layer pool1
I0427 14:42:23.281293 12649 net.cpp:84] Creating Layer pool1
I0427 14:42:23.281298 12649 net.cpp:406] pool1 <- norm1
I0427 14:42:23.281306 12649 net.cpp:380] pool1 -> pool1
I0427 14:42:23.281355 12649 net.cpp:122] Setting up pool1
I0427 14:42:23.281363 12649 net.cpp:129] Top shape: 128 96 28 28 (9633792)
I0427 14:42:23.281368 12649 net.cpp:137] Memory required for data: 580106240
I0427 14:42:23.281373 12649 layer_factory.hpp:77] Creating layer conv2
I0427 14:42:23.281386 12649 net.cpp:84] Creating Layer conv2
I0427 14:42:23.281391 12649 net.cpp:406] conv2 <- pool1
I0427 14:42:23.281399 12649 net.cpp:380] conv2 -> conv2
I0427 14:42:23.291472 12649 net.cpp:122] Setting up conv2
I0427 14:42:23.291501 12649 net.cpp:129] Top shape: 128 256 28 28 (25690112)
I0427 14:42:23.291507 12649 net.cpp:137] Memory required for data: 682866688
I0427 14:42:23.291522 12649 layer_factory.hpp:77] Creating layer relu2
I0427 14:42:23.291534 12649 net.cpp:84] Creating Layer relu2
I0427 14:42:23.291540 12649 net.cpp:406] relu2 <- conv2
I0427 14:42:23.291549 12649 net.cpp:367] relu2 -> conv2 (in-place)
I0427 14:42:23.292140 12649 net.cpp:122] Setting up relu2
I0427 14:42:23.292152 12649 net.cpp:129] Top shape: 128 256 28 28 (25690112)
I0427 14:42:23.292156 12649 net.cpp:137] Memory required for data: 785627136
I0427 14:42:23.292162 12649 layer_factory.hpp:77] Creating layer norm2
I0427 14:42:23.292172 12649 net.cpp:84] Creating Layer norm2
I0427 14:42:23.292177 12649 net.cpp:406] norm2 <- conv2
I0427 14:42:23.292186 12649 net.cpp:380] norm2 -> norm2
I0427 14:42:23.292657 12649 net.cpp:122] Setting up norm2
I0427 14:42:23.292670 12649 net.cpp:129] Top shape: 128 256 28 28 (25690112)
I0427 14:42:23.292675 12649 net.cpp:137] Memory required for data: 888387584
I0427 14:42:23.292680 12649 layer_factory.hpp:77] Creating layer pool2
I0427 14:42:23.292691 12649 net.cpp:84] Creating Layer pool2
I0427 14:42:23.292697 12649 net.cpp:406] pool2 <- norm2
I0427 14:42:23.292704 12649 net.cpp:380] pool2 -> pool2
I0427 14:42:23.292742 12649 net.cpp:122] Setting up pool2
I0427 14:42:23.292752 12649 net.cpp:129] Top shape: 128 256 14 14 (6422528)
I0427 14:42:23.292757 12649 net.cpp:137] Memory required for data: 914077696
I0427 14:42:23.292760 12649 layer_factory.hpp:77] Creating layer conv3
I0427 14:42:23.292774 12649 net.cpp:84] Creating Layer conv3
I0427 14:42:23.292779 12649 net.cpp:406] conv3 <- pool2
I0427 14:42:23.292786 12649 net.cpp:380] conv3 -> conv3
I0427 14:42:23.309782 12649 net.cpp:122] Setting up conv3
I0427 14:42:23.309811 12649 net.cpp:129] Top shape: 128 384 14 14 (9633792)
I0427 14:42:23.309818 12649 net.cpp:137] Memory required for data: 952612864
I0427 14:42:23.309834 12649 layer_factory.hpp:77] Creating layer relu3
I0427 14:42:23.309847 12649 net.cpp:84] Creating Layer relu3
I0427 14:42:23.309854 12649 net.cpp:406] relu3 <- conv3
I0427 14:42:23.309862 12649 net.cpp:367] relu3 -> conv3 (in-place)
I0427 14:42:23.311281 12649 net.cpp:122] Setting up relu3
I0427 14:42:23.311295 12649 net.cpp:129] Top shape: 128 384 14 14 (9633792)
I0427 14:42:23.311300 12649 net.cpp:137] Memory required for data: 991148032
I0427 14:42:23.311305 12649 layer_factory.hpp:77] Creating layer conv4
I0427 14:42:23.311319 12649 net.cpp:84] Creating Layer conv4
I0427 14:42:23.311324 12649 net.cpp:406] conv4 <- conv3
I0427 14:42:23.311333 12649 net.cpp:380] conv4 -> conv4
I0427 14:42:23.327246 12649 net.cpp:122] Setting up conv4
I0427 14:42:23.327275 12649 net.cpp:129] Top shape: 128 384 14 14 (9633792)
I0427 14:42:23.327280 12649 net.cpp:137] Memory required for data: 1029683200
I0427 14:42:23.327292 12649 layer_factory.hpp:77] Creating layer relu4
I0427 14:42:23.327306 12649 net.cpp:84] Creating Layer relu4
I0427 14:42:23.327337 12649 net.cpp:406] relu4 <- conv4
I0427 14:42:23.327347 12649 net.cpp:367] relu4 -> conv4 (in-place)
I0427 14:42:23.327868 12649 net.cpp:122] Setting up relu4
I0427 14:42:23.327879 12649 net.cpp:129] Top shape: 128 384 14 14 (9633792)
I0427 14:42:23.327884 12649 net.cpp:137] Memory required for data: 1068218368
I0427 14:42:23.327889 12649 layer_factory.hpp:77] Creating layer conv5
I0427 14:42:23.327908 12649 net.cpp:84] Creating Layer conv5
I0427 14:42:23.327913 12649 net.cpp:406] conv5 <- conv4
I0427 14:42:23.327920 12649 net.cpp:380] conv5 -> conv5
I0427 14:42:23.340973 12649 net.cpp:122] Setting up conv5
I0427 14:42:23.340999 12649 net.cpp:129] Top shape: 128 256 14 14 (6422528)
I0427 14:42:23.341006 12649 net.cpp:137] Memory required for data: 1093908480
I0427 14:42:23.341022 12649 layer_factory.hpp:77] Creating layer relu5
I0427 14:42:23.341034 12649 net.cpp:84] Creating Layer relu5
I0427 14:42:23.341042 12649 net.cpp:406] relu5 <- conv5
I0427 14:42:23.341050 12649 net.cpp:367] relu5 -> conv5 (in-place)
I0427 14:42:23.341758 12649 net.cpp:122] Setting up relu5
I0427 14:42:23.341770 12649 net.cpp:129] Top shape: 128 256 14 14 (6422528)
I0427 14:42:23.341775 12649 net.cpp:137] Memory required for data: 1119598592
I0427 14:42:23.341780 12649 layer_factory.hpp:77] Creating layer pool5
I0427 14:42:23.341792 12649 net.cpp:84] Creating Layer pool5
I0427 14:42:23.341797 12649 net.cpp:406] pool5 <- conv5
I0427 14:42:23.341805 12649 net.cpp:380] pool5 -> pool5
I0427 14:42:23.341859 12649 net.cpp:122] Setting up pool5
I0427 14:42:23.341867 12649 net.cpp:129] Top shape: 128 256 7 7 (1605632)
I0427 14:42:23.341871 12649 net.cpp:137] Memory required for data: 1126021120
I0427 14:42:23.341876 12649 layer_factory.hpp:77] Creating layer fc6
I0427 14:42:23.341890 12649 net.cpp:84] Creating Layer fc6
I0427 14:42:23.341895 12649 net.cpp:406] fc6 <- pool5
I0427 14:42:23.341902 12649 net.cpp:380] fc6 -> fc6
I0427 14:42:23.867708 12649 net.cpp:122] Setting up fc6
I0427 14:42:23.867730 12649 net.cpp:129] Top shape: 128 4096 (524288)
I0427 14:42:23.867734 12649 net.cpp:137] Memory required for data: 1128118272
I0427 14:42:23.867744 12649 layer_factory.hpp:77] Creating layer relu6
I0427 14:42:23.867753 12649 net.cpp:84] Creating Layer relu6
I0427 14:42:23.867769 12649 net.cpp:406] relu6 <- fc6
I0427 14:42:23.867775 12649 net.cpp:367] relu6 -> fc6 (in-place)
I0427 14:42:23.868422 12649 net.cpp:122] Setting up relu6
I0427 14:42:23.868430 12649 net.cpp:129] Top shape: 128 4096 (524288)
I0427 14:42:23.868433 12649 net.cpp:137] Memory required for data: 1130215424
I0427 14:42:23.868438 12649 layer_factory.hpp:77] Creating layer drop6
I0427 14:42:23.868444 12649 net.cpp:84] Creating Layer drop6
I0427 14:42:23.868448 12649 net.cpp:406] drop6 <- fc6
I0427 14:42:23.868453 12649 net.cpp:367] drop6 -> fc6 (in-place)
I0427 14:42:23.868480 12649 net.cpp:122] Setting up drop6
I0427 14:42:23.868512 12649 net.cpp:129] Top shape: 128 4096 (524288)
I0427 14:42:23.868516 12649 net.cpp:137] Memory required for data: 1132312576
I0427 14:42:23.868520 12649 layer_factory.hpp:77] Creating layer fc7
I0427 14:42:23.868528 12649 net.cpp:84] Creating Layer fc7
I0427 14:42:23.868532 12649 net.cpp:406] fc7 <- fc6
I0427 14:42:23.868538 12649 net.cpp:380] fc7 -> fc7
I0427 14:42:24.032567 12649 net.cpp:122] Setting up fc7
I0427 14:42:24.032589 12649 net.cpp:129] Top shape: 128 4096 (524288)
I0427 14:42:24.032594 12649 net.cpp:137] Memory required for data: 1134409728
I0427 14:42:24.032603 12649 layer_factory.hpp:77] Creating layer relu7
I0427 14:42:24.032613 12649 net.cpp:84] Creating Layer relu7
I0427 14:42:24.032618 12649 net.cpp:406] relu7 <- fc7
I0427 14:42:24.032624 12649 net.cpp:367] relu7 -> fc7 (in-place)
I0427 14:42:24.033035 12649 net.cpp:122] Setting up relu7
I0427 14:42:24.033046 12649 net.cpp:129] Top shape: 128 4096 (524288)
I0427 14:42:24.033049 12649 net.cpp:137] Memory required for data: 1136506880
I0427 14:42:24.033053 12649 layer_factory.hpp:77] Creating layer drop7
I0427 14:42:24.033059 12649 net.cpp:84] Creating Layer drop7
I0427 14:42:24.033087 12649 net.cpp:406] drop7 <- fc7
I0427 14:42:24.033093 12649 net.cpp:367] drop7 -> fc7 (in-place)
I0427 14:42:24.033118 12649 net.cpp:122] Setting up drop7
I0427 14:42:24.033123 12649 net.cpp:129] Top shape: 128 4096 (524288)
I0427 14:42:24.033128 12649 net.cpp:137] Memory required for data: 1138604032
I0427 14:42:24.033130 12649 layer_factory.hpp:77] Creating layer fc8
I0427 14:42:24.033139 12649 net.cpp:84] Creating Layer fc8
I0427 14:42:24.033143 12649 net.cpp:406] fc8 <- fc7
I0427 14:42:24.033149 12649 net.cpp:380] fc8 -> fc8
I0427 14:42:24.040977 12649 net.cpp:122] Setting up fc8
I0427 14:42:24.040989 12649 net.cpp:129] Top shape: 128 196 (25088)
I0427 14:42:24.040993 12649 net.cpp:137] Memory required for data: 1138704384
I0427 14:42:24.041002 12649 layer_factory.hpp:77] Creating layer loss
I0427 14:42:24.041009 12649 net.cpp:84] Creating Layer loss
I0427 14:42:24.041013 12649 net.cpp:406] loss <- fc8
I0427 14:42:24.041018 12649 net.cpp:406] loss <- label
I0427 14:42:24.041026 12649 net.cpp:380] loss -> loss
I0427 14:42:24.041036 12649 layer_factory.hpp:77] Creating layer loss
…
I0427 14:42:24.045287 12649 net.cpp:294] The NetState phase (1) differed from the phase (0) specified by a rule in layer train-data
I0427 14:42:24.045426 12649 net.cpp:51] Initializing net from parameters:
state {
phase: TEST
}
layer {
name: "val-data"
type: "Data"
top: "data"
top: "label"
include {
phase: TEST
}
transform_param {
crop_size: 227
mean_file: "/mnt/bigdisk/DIGITS-MAN-3/digits/jobs/20210421-230320-902c/mean.binaryproto"
}
data_param {
source: "/mnt/bigdisk/DIGITS-MAN-3/digits/jobs/20210421-230320-902c/val_db"
batch_size: 32
backend: LMDB
}
}
layer {
name: "conv1"
type: "Convolution"
bottom: "data"
top: "conv1"
param {
lr_mult: 1
decay_mult: 1
}
param {
lr_mult: 2
decay_mult: 0
}
convolution_param {
num_output: 96
kernel_size: 5
stride: 4
weight_filler {
type: "gaussian"
std: 0.01
}
bias_filler {
type: "constant"
value: 0
}
}
}
layer {
name: "relu1"
type: "ReLU"
bottom: "conv1"
top: "conv1"
}
layer {
name: "norm1"
type: "LRN"
bottom: "conv1"
top: "norm1"
lrn_param {
local_size: 5
alpha: 0.0001
beta: 0.75
}
}
layer {
name: "pool1"
type: "Pooling"
bottom: "norm1"
top: "pool1"
pooling_param {
pool: MAX
kernel_size: 3
stride: 2
}
}
layer {
name: "conv2"
type: "Convolution"
bottom: "pool1"
top: "conv2"
param {
lr_mult: 1
decay_mult: 1
}
param {
lr_mult: 2
decay_mult: 0
}
convolution_param {
num_output: 256
pad: 2
kernel_size: 5
group: 2
weight_filler {
type: "gaussian"
std: 0.01
}
bias_filler {
type: "constant"
value: 0.1
}
}
}
layer {
name: "relu2"
type: "ReLU"
bottom: "conv2"
top: "conv2"
}
layer {
name: "norm2"
type: "LRN"
bottom: "conv2"
top: "norm2"
lrn_param {
local_size: 5
alpha: 0.0001
beta: 0.75
}
}
layer {
name: "pool2"
type: "Pooling"
bottom: "norm2"
top: "pool2"
pooling_param {
pool: MAX
kernel_size: 3
stride: 2
}
}
layer {
name: "conv3"
type: "Convolution"
bottom: "pool2"
top: "conv3"
param {
lr_mult: 1
decay_mult: 1
}
param {
lr_mult: 2
decay_mult: 0
}
convolution_param {
num_output: 384
pad: 1
kernel_size: 3
weight_filler {
type: "gaussian"
std: 0.01
}
bias_filler {
type: "constant"
value: 0
}
}
}
layer {
name: "relu3"
type: "ReLU"
bottom: "conv3"
top: "conv3"
}
layer {
name: "conv4"
type: "Convolution"
bottom: "conv3"
top: "conv4"
param {
lr_mult: 1
decay_mult: 1
}
param {
lr_mult: 2
decay_mult: 0
}
convolution_param {
num_output: 384
pad: 1
kernel_size: 3
group: 2
weight_filler {
type: "gaussian"
std: 0.01
}
bias_filler {
type: "constant"
value: 0.1
}
}
}
layer {
name: "relu4"
type: "ReLU"
bottom: "conv4"
top: "conv4"
}
layer {
name: "conv5"
type: "Convolution"
bottom: "conv4"
top: "conv5"
param {
lr_mult: 1
decay_mult: 1
}
param {
lr_mult: 2
decay_mult: 0
}
convolution_param {
num_output: 256
pad: 1
kernel_size: 3
group: 2
weight_filler {
type: "gaussian"
std: 0.01
}
bias_filler {
type: "constant"
value: 0.1
}
}
}
layer {
name: "relu5"
type: "ReLU"
bottom: "conv5"
top: "conv5"
}
layer {
name: "pool5"
type: "Pooling"
bottom: "conv5"
top: "pool5"
pooling_param {
pool: MAX
kernel_size: 3
stride: 2
}
}
layer {
name: "fc6"
type: "InnerProduct"
bottom: "pool5"
top: "fc6"
param {
lr_mult: 1
decay_mult: 1
}
param {
lr_mult: 2
decay_mult: 0
}
inner_product_param {
num_output: 4096
weight_filler {
type: "gaussian"
std: 0.005
}
bias_filler {
type: "constant"
value: 0.1
}
}
}
layer {
name: "relu6"
type: "ReLU"
bottom: "fc6"
top: "fc6"
}
layer {
name: "drop6"
type: "Dropout"
bottom: "fc6"
top: "fc6"
dropout_param {
dropout_ratio: 0.5
}
}
layer {
name: "fc7"
type: "InnerProduct"
bottom: "fc6"
top: "fc7"
param {
lr_mult: 1
decay_mult: 1
}
param {
lr_mult: 2
decay_mult: 0
}
inner_product_param {
num_output: 4096
weight_filler {
type: "gaussian"
std: 0.005
}
bias_filler {
type: "constant"
value: 0.1
}
}
}
layer {
name: "relu7"
type: "ReLU"
bottom: "fc7"
top: "fc7"
}
layer {
name: "drop7"
type: "Dropout"
bottom: "fc7"
top: "fc7"
dropout_param {
dropout_ratio: 0.5
}
}
layer {
name: "fc8"
type: "InnerProduct"
bottom: "fc7"
top: "fc8"
param {
lr_mult: 1
decay_mult: 1
}
param {
lr_mult: 2
decay_mult: 0
}
inner_product_param {
num_output: 196
weight_filler {
type: "gaussian"
std: 0.01
}
bias_filler {
type: "constant"
value: 0
}
}
}
layer {
name: "accuracy"
type: "Accuracy"
bottom: "fc8"
bottom: "label"
top: "accuracy"
include {
phase: TEST
}
}
layer {
name: "loss"
type: "SoftmaxWithLoss"
bottom: "fc8"
bottom: "label"
top: "loss"
}
I0427 14:42:24.045534 12649 layer_factory.hpp:77] Creating layer val-data
I0427 14:42:24.056286 12649 db_lmdb.cpp:35] Opened lmdb /mnt/bigdisk/DIGITS-MAN-3/digits/jobs/20210421-230320-902c/val_db
I0427 14:42:24.056536 12649 net.cpp:84] Creating Layer val-data
I0427 14:42:24.056547 12649 net.cpp:380] val-data -> data
I0427 14:42:24.056560 12649 net.cpp:380] val-data -> label
I0427 14:42:24.056567 12649 data_transformer.cpp:25] Loading mean file from: /mnt/bigdisk/DIGITS-MAN-3/digits/jobs/20210421-230320-902c/mean.binaryproto
I0427 14:42:24.060777 12649 data_layer.cpp:45] output data size: 32,3,227,227
I0427 14:42:24.092850 12649 net.cpp:122] Setting up val-data
I0427 14:42:24.092870 12649 net.cpp:129] Top shape: 32 3 227 227 (4946784)
I0427 14:42:24.092875 12649 net.cpp:129] Top shape: 32 (32)
I0427 14:42:24.092878 12649 net.cpp:137] Memory required for data: 19787264
I0427 14:42:24.092885 12649 layer_factory.hpp:77] Creating layer label_val-data_1_split
I0427 14:42:24.092897 12649 net.cpp:84] Creating Layer label_val-data_1_split
I0427 14:42:24.092901 12649 net.cpp:406] label_val-data_1_split <- label
I0427 14:42:24.092909 12649 net.cpp:380] label_val-data_1_split -> label_val-data_1_split_0
I0427 14:42:24.092918 12649 net.cpp:380] label_val-data_1_split -> label_val-data_1_split_1
I0427 14:42:24.092972 12649 net.cpp:122] Setting up label_val-data_1_split
I0427 14:42:24.092978 12649 net.cpp:129] Top shape: 32 (32)
I0427 14:42:24.092981 12649 net.cpp:129] Top shape: 32 (32)
I0427 14:42:24.092984 12649 net.cpp:137] Memory required for data: 19787520
I0427 14:42:24.092988 12649 layer_factory.hpp:77] Creating layer conv1
I0427 14:42:24.092998 12649 net.cpp:84] Creating Layer conv1
I0427 14:42:24.093003 12649 net.cpp:406] conv1 <- data
I0427 14:42:24.093008 12649 net.cpp:380] conv1 -> conv1
I0427 14:42:24.094842 12649 net.cpp:122] Setting up conv1
I0427 14:42:24.094854 12649 net.cpp:129] Top shape: 32 96 56 56 (9633792)
I0427 14:42:24.094857 12649 net.cpp:137] Memory required for data: 58322688
I0427 14:42:24.094867 12649 layer_factory.hpp:77] Creating layer relu1
I0427 14:42:24.094874 12649 net.cpp:84] Creating Layer relu1
I0427 14:42:24.094877 12649 net.cpp:406] relu1 <- conv1
I0427 14:42:24.094882 12649 net.cpp:367] relu1 -> conv1 (in-place)
I0427 14:42:24.095165 12649 net.cpp:122] Setting up relu1
I0427 14:42:24.095172 12649 net.cpp:129] Top shape: 32 96 56 56 (9633792)
I0427 14:42:24.095175 12649 net.cpp:137] Memory required for data: 96857856
I0427 14:42:24.095180 12649 layer_factory.hpp:77] Creating layer norm1
I0427 14:42:24.095187 12649 net.cpp:84] Creating Layer norm1
I0427 14:42:24.095191 12649 net.cpp:406] norm1 <- conv1
I0427 14:42:24.095196 12649 net.cpp:380] norm1 -> norm1
I0427 14:42:24.095645 12649 net.cpp:122] Setting up norm1
I0427 14:42:24.095655 12649 net.cpp:129] Top shape: 32 96 56 56 (9633792)
I0427 14:42:24.095659 12649 net.cpp:137] Memory required for data: 135393024
I0427 14:42:24.095662 12649 layer_factory.hpp:77] Creating layer pool1
I0427 14:42:24.095669 12649 net.cpp:84] Creating Layer pool1
I0427 14:42:24.095674 12649 net.cpp:406] pool1 <- norm1
I0427 14:42:24.095679 12649 net.cpp:380] pool1 -> pool1
I0427 14:42:24.095707 12649 net.cpp:122] Setting up pool1
I0427 14:42:24.095712 12649 net.cpp:129] Top shape: 32 96 28 28 (2408448)
I0427 14:42:24.095715 12649 net.cpp:137] Memory required for data: 145026816
I0427 14:42:24.095718 12649 layer_factory.hpp:77] Creating layer conv2
I0427 14:42:24.095727 12649 net.cpp:84] Creating Layer conv2
I0427 14:42:24.095731 12649 net.cpp:406] conv2 <- pool1
I0427 14:42:24.095757 12649 net.cpp:380] conv2 -> conv2
I0427 14:42:24.104578 12649 net.cpp:122] Setting up conv2
I0427 14:42:24.104595 12649 net.cpp:129] Top shape: 32 256 28 28 (6422528)
I0427 14:42:24.104600 12649 net.cpp:137] Memory required for data: 170716928
I0427 14:42:24.104616 12649 layer_factory.hpp:77] Creating layer relu2
I0427 14:42:24.104627 12649 net.cpp:84] Creating Layer relu2
I0427 14:42:24.104633 12649 net.cpp:406] relu2 <- conv2
I0427 14:42:24.104645 12649 net.cpp:367] relu2 -> conv2 (in-place)
I0427 14:42:24.105362 12649 net.cpp:122] Setting up relu2
I0427 14:42:24.105376 12649 net.cpp:129] Top shape: 32 256 28 28 (6422528)
I0427 14:42:24.105379 12649 net.cpp:137] Memory required for data: 196407040
I0427 14:42:24.105386 12649 layer_factory.hpp:77] Creating layer norm2
I0427 14:42:24.105399 12649 net.cpp:84] Creating Layer norm2
I0427 14:42:24.105404 12649 net.cpp:406] norm2 <- conv2
I0427 14:42:24.105412 12649 net.cpp:380] norm2 -> norm2
I0427 14:42:24.106274 12649 net.cpp:122] Setting up norm2
I0427 14:42:24.106287 12649 net.cpp:129] Top shape: 32 256 28 28 (6422528)
I0427 14:42:24.106292 12649 net.cpp:137] Memory required for data: 222097152
I0427 14:42:24.106298 12649 layer_factory.hpp:77] Creating layer pool2
I0427 14:42:24.106309 12649 net.cpp:84] Creating Layer pool2
I0427 14:42:24.106314 12649 net.cpp:406] pool2 <- norm2
I0427 14:42:24.106321 12649 net.cpp:380] pool2 -> pool2
I0427 14:42:24.106365 12649 net.cpp:122] Setting up pool2
I0427 14:42:24.106374 12649 net.cpp:129] Top shape: 32 256 14 14 (1605632)
I0427 14:42:24.106379 12649 net.cpp:137] Memory required for data: 228519680
I0427 14:42:24.106384 12649 layer_factory.hpp:77] Creating layer conv3
I0427 14:42:24.106397 12649 net.cpp:84] Creating Layer conv3
I0427 14:42:24.106402 12649 net.cpp:406] conv3 <- pool2
I0427 14:42:24.106413 12649 net.cpp:380] conv3 -> conv3
I0427 14:42:24.119060 12649 net.cpp:122] Setting up conv3
I0427 14:42:24.119081 12649 net.cpp:129] Top shape: 32 384 14 14 (2408448)
I0427 14:42:24.119086 12649 net.cpp:137] Memory required for data: 238153472
I0427 14:42:24.119098 12649 layer_factory.hpp:77] Creating layer relu3
I0427 14:42:24.119107 12649 net.cpp:84] Creating Layer relu3
I0427 14:42:24.119112 12649 net.cpp:406] relu3 <- conv3
I0427 14:42:24.119122 12649 net.cpp:367] relu3 -> conv3 (in-place)
I0427 14:42:24.126315 12649 net.cpp:122] Setting up relu3
I0427 14:42:24.126330 12649 net.cpp:129] Top shape: 32 384 14 14 (2408448)
I0427 14:42:24.126336 12649 net.cpp:137] Memory required for data: 247787264
I0427 14:42:24.126343 12649 layer_factory.hpp:77] Creating layer conv4
I0427 14:42:24.126359 12649 net.cpp:84] Creating Layer conv4
I0427 14:42:24.126365 12649 net.cpp:406] conv4 <- conv3
I0427 14:42:24.126372 12649 net.cpp:380] conv4 -> conv4
I0427 14:42:24.167418 12649 net.cpp:122] Setting up conv4
I0427 14:42:24.167450 12649 net.cpp:129] Top shape: 32 384 14 14 (2408448)
I0427 14:42:24.167456 12649 net.cpp:137] Memory required for data: 257421056
I0427 14:42:24.167471 12649 layer_factory.hpp:77] Creating layer relu4
I0427 14:42:24.167484 12649 net.cpp:84] Creating Layer relu4
I0427 14:42:24.167490 12649 net.cpp:406] relu4 <- conv4
I0427 14:42:24.167498 12649 net.cpp:367] relu4 -> conv4 (in-place)
I0427 14:42:24.168110 12649 net.cpp:122] Setting up relu4
I0427 14:42:24.168123 12649 net.cpp:129] Top shape: 32 384 14 14 (2408448)
I0427 14:42:24.168128 12649 net.cpp:137] Memory required for data: 267054848
I0427 14:42:24.168133 12649 layer_factory.hpp:77] Creating layer conv5
I0427 14:42:24.168149 12649 net.cpp:84] Creating Layer conv5
I0427 14:42:24.168155 12649 net.cpp:406] conv5 <- conv4
I0427 14:42:24.168164 12649 net.cpp:380] conv5 -> conv5
I0427 14:42:24.185962 12649 net.cpp:122] Setting up conv5
I0427 14:42:24.185987 12649 net.cpp:129] Top shape: 32 256 14 14 (1605632)
I0427 14:42:24.185993 12649 net.cpp:137] Memory required for data: 273477376
I0427 14:42:24.186012 12649 layer_factory.hpp:77] Creating layer relu5
I0427 14:42:24.186025 12649 net.cpp:84] Creating Layer relu5
I0427 14:42:24.186031 12649 net.cpp:406] relu5 <- conv5
I0427 14:42:24.186065 12649 net.cpp:367] relu5 -> conv5 (in-place)
I0427 14:42:24.186784 12649 net.cpp:122] Setting up relu5
I0427 14:42:24.186798 12649 net.cpp:129] Top shape: 32 256 14 14 (1605632)
I0427 14:42:24.186803 12649 net.cpp:137] Memory required for data: 279899904
I0427 14:42:24.186810 12649 layer_factory.hpp:77] Creating layer pool5
I0427 14:42:24.186822 12649 net.cpp:84] Creating Layer pool5
I0427 14:42:24.186828 12649 net.cpp:406] pool5 <- conv5
I0427 14:42:24.186836 12649 net.cpp:380] pool5 -> pool5
I0427 14:42:24.186889 12649 net.cpp:122] Setting up pool5
I0427 14:42:24.186897 12649 net.cpp:129] Top shape: 32 256 7 7 (401408)
I0427 14:42:24.186902 12649 net.cpp:137] Memory required for data: 281505536
I0427 14:42:24.186908 12649 layer_factory.hpp:77] Creating layer fc6
I0427 14:42:24.186919 12649 net.cpp:84] Creating Layer fc6
I0427 14:42:24.186924 12649 net.cpp:406] fc6 <- pool5
I0427 14:42:24.186936 12649 net.cpp:380] fc6 -> fc6
I0427 14:42:24.763120 12649 net.cpp:122] Setting up fc6
I0427 14:42:24.763142 12649 net.cpp:129] Top shape: 32 4096 (131072)
I0427 14:42:24.763146 12649 net.cpp:137] Memory required for data: 282029824
I0427 14:42:24.763155 12649 layer_factory.hpp:77] Creating layer relu6
I0427 14:42:24.763164 12649 net.cpp:84] Creating Layer relu6
I0427 14:42:24.763168 12649 net.cpp:406] relu6 <- fc6
I0427 14:42:24.763176 12649 net.cpp:367] relu6 -> fc6 (in-place)
I0427 14:42:24.763892 12649 net.cpp:122] Setting up relu6
I0427 14:42:24.763903 12649 net.cpp:129] Top shape: 32 4096 (131072)
I0427 14:42:24.763906 12649 net.cpp:137] Memory required for data: 282554112
I0427 14:42:24.763911 12649 layer_factory.hpp:77] Creating layer drop6
I0427 14:42:24.763917 12649 net.cpp:84] Creating Layer drop6
I0427 14:42:24.763921 12649 net.cpp:406] drop6 <- fc6
I0427 14:42:24.763926 12649 net.cpp:367] drop6 -> fc6 (in-place)
I0427 14:42:24.763952 12649 net.cpp:122] Setting up drop6
I0427 14:42:24.763958 12649 net.cpp:129] Top shape: 32 4096 (131072)
I0427 14:42:24.763962 12649 net.cpp:137] Memory required for data: 283078400
I0427 14:42:24.763964 12649 layer_factory.hpp:77] Creating layer fc7
I0427 14:42:24.763972 12649 net.cpp:84] Creating Layer fc7
I0427 14:42:24.763976 12649 net.cpp:406] fc7 <- fc6
I0427 14:42:24.763980 12649 net.cpp:380] fc7 -> fc7
I0427 14:42:24.921985 12649 net.cpp:122] Setting up fc7
I0427 14:42:24.922005 12649 net.cpp:129] Top shape: 32 4096 (131072)
I0427 14:42:24.922008 12649 net.cpp:137] Memory required for data: 283602688
I0427 14:42:24.922019 12649 layer_factory.hpp:77] Creating layer relu7
I0427 14:42:24.922027 12649 net.cpp:84] Creating Layer relu7
I0427 14:42:24.922032 12649 net.cpp:406] relu7 <- fc7
I0427 14:42:24.922039 12649 net.cpp:367] relu7 -> fc7 (in-place)
I0427 14:42:24.922456 12649 net.cpp:122] Setting up relu7
I0427 14:42:24.922464 12649 net.cpp:129] Top shape: 32 4096 (131072)
I0427 14:42:24.922467 12649 net.cpp:137] Memory required for data: 284126976
I0427 14:42:24.922472 12649 layer_factory.hpp:77] Creating layer drop7
I0427 14:42:24.922482 12649 net.cpp:84] Creating Layer drop7
I0427 14:42:24.922487 12649 net.cpp:406] drop7 <- fc7
I0427 14:42:24.922490 12649 net.cpp:367] drop7 -> fc7 (in-place)
I0427 14:42:24.922515 12649 net.cpp:122] Setting up drop7
I0427 14:42:24.922519 12649 net.cpp:129] Top shape: 32 4096 (131072)
I0427 14:42:24.922523 12649 net.cpp:137] Memory required for data: 284651264
I0427 14:42:24.922525 12649 layer_factory.hpp:77] Creating layer fc8
I0427 14:42:24.922533 12649 net.cpp:84] Creating Layer fc8
I0427 14:42:24.922535 12649 net.cpp:406] fc8 <- fc7
I0427 14:42:24.922541 12649 net.cpp:380] fc8 -> fc8
I0427 14:42:24.932358 12649 net.cpp:122] Setting up fc8
I0427 14:42:24.932375 12649 net.cpp:129] Top shape: 32 196 (6272)
I0427 14:42:24.932379 12649 net.cpp:137] Memory required for data: 284676352
I0427 14:42:24.932387 12649 layer_factory.hpp:77] Creating layer fc8_fc8_0_split
I0427 14:42:24.932395 12649 net.cpp:84] Creating Layer fc8_fc8_0_split
I0427 14:42:24.932400 12649 net.cpp:406] fc8_fc8_0_split <- fc8
I0427 14:42:24.932427 12649 net.cpp:380] fc8_fc8_0_split -> fc8_fc8_0_split_0
I0427 14:42:24.932436 12649 net.cpp:380] fc8_fc8_0_split -> fc8_fc8_0_split_1
I0427 14:42:24.932473 12649 net.cpp:122] Setting up fc8_fc8_0_split
I0427 14:42:24.932479 12649 net.cpp:129] Top shape: 32 196 (6272)
I0427 14:42:24.932482 12649 net.cpp:129] Top shape: 32 196 (6272)
I0427 14:42:24.932513 12649 net.cpp:137] Memory required for data: 284726528
I0427 14:42:24.932518 12649 layer_factory.hpp:77] Creating layer accuracy
I0427 14:42:24.932524 12649 net.cpp:84] Creating Layer accuracy
I0427 14:42:24.932528 12649 net.cpp:406] accuracy <- fc8_fc8_0_split_0
I0427 14:42:24.932533 12649 net.cpp:406] accuracy <- label_val-data_1_split_0
I0427 14:42:24.932538 12649 net.cpp:380] accuracy -> accuracy
…
