…
I0405 13:16:14.540530  1863 net.cpp:294] The NetState phase (0) differed from the phase (1) specified by a rule in layer accuracy
I0405 13:16:14.540652  1863 net.cpp:51] Initializing net from parameters:
state {
phase: TRAIN
level: 0
stage: ""
}
layer {
name: "train-data"
type: "Data"
top: "data"
top: "label"
include {
phase: TRAIN
}
transform_param {
mirror: true
crop_size: 227
mean_file: "/mnt/bigdisk/DIGITS-AIN-3/digits/jobs/20210401-115716-aaf7/mean.binaryproto"
}
data_param {
source: "/mnt/bigdisk/DIGITS-AIN-3/digits/jobs/20210401-115716-aaf7/train_db"
batch_size: 128
backend: LMDB
}
}
layer {
name: "conv1"
type: "Convolution"
bottom: "data"
top: "conv1"
param {
lr_mult: 1
decay_mult: 1
}
param {
lr_mult: 2
decay_mult: 0
}
convolution_param {
num_output: 96
kernel_size: 11
stride: 4
weight_filler {
type: "gaussian"
std: 0.01
}
bias_filler {
type: "constant"
value: 0
}
}
}
layer {
name: "relu1"
type: "ReLU"
bottom: "conv1"
top: "conv1"
}
layer {
name: "norm1"
type: "LRN"
bottom: "conv1"
top: "norm1"
lrn_param {
local_size: 5
alpha: 0.0001
beta: 0.75
}
}
layer {
name: "pool1"
type: "Pooling"
bottom: "norm1"
top: "pool1"
pooling_param {
pool: MAX
kernel_size: 3
stride: 2
}
}
layer {
name: "conv2"
type: "Convolution"
bottom: "pool1"
top: "conv2"
param {
lr_mult: 1
decay_mult: 1
}
param {
lr_mult: 2
decay_mult: 0
}
convolution_param {
num_output: 256
pad: 2
kernel_size: 5
group: 2
weight_filler {
type: "gaussian"
std: 0.01
}
bias_filler {
type: "constant"
value: 0.1
}
}
}
layer {
name: "relu2"
type: "ReLU"
bottom: "conv2"
top: "conv2"
}
layer {
name: "norm2"
type: "LRN"
bottom: "conv2"
top: "norm2"
lrn_param {
local_size: 5
alpha: 0.0001
beta: 0.75
}
}
layer {
name: "pool2"
type: "Pooling"
bottom: "norm2"
top: "pool2"
pooling_param {
pool: MAX
kernel_size: 3
stride: 2
}
}
layer {
name: "conv3"
type: "Convolution"
bottom: "pool2"
top: "conv3"
param {
lr_mult: 1
decay_mult: 1
}
param {
lr_mult: 2
decay_mult: 0
}
convolution_param {
num_output: 384
pad: 1
kernel_size: 3
weight_filler {
type: "gaussian"
std: 0.01
}
bias_filler {
type: "constant"
value: 0
}
}
}
layer {
name: "relu3"
type: "ReLU"
bottom: "conv3"
top: "conv3"
}
layer {
name: "conv4"
type: "Convolution"
bottom: "conv3"
top: "conv4"
param {
lr_mult: 1
decay_mult: 1
}
param {
lr_mult: 2
decay_mult: 0
}
convolution_param {
num_output: 384
pad: 1
kernel_size: 3
group: 2
weight_filler {
type: "gaussian"
std: 0.01
}
bias_filler {
type: "constant"
value: 0.1
}
}
}
layer {
name: "relu4"
type: "ReLU"
bottom: "conv4"
top: "conv4"
}
layer {
name: "conv5"
type: "Convolution"
bottom: "conv4"
top: "conv5"
param {
lr_mult: 1
decay_mult: 1
}
param {
lr_mult: 2
decay_mult: 0
}
convolution_param {
num_output: 256
pad: 1
kernel_size: 3
group: 2
weight_filler {
type: "gaussian"
std: 0.01
}
bias_filler {
type: "constant"
value: 0.1
}
}
}
layer {
name: "relu5"
type: "ReLU"
bottom: "conv5"
top: "conv5"
}
layer {
name: "pool5"
type: "Pooling"
bottom: "conv5"
top: "pool5"
pooling_param {
pool: MAX
kernel_size: 3
stride: 2
}
}
layer {
name: "fc6"
type: "InnerProduct"
bottom: "pool5"
top: "fc6"
param {
lr_mult: 1
decay_mult: 1
}
param {
lr_mult: 2
decay_mult: 0
}
inner_product_param {
num_output: 4096
weight_filler {
type: "gaussian"
std: 0.005
}
bias_filler {
type: "constant"
value: 0.1
}
}
}
layer {
name: "relu6"
type: "ReLU"
bottom: "fc6"
top: "fc6"
}
layer {
name: "drop6"
type: "Dropout"
bottom: "fc6"
top: "fc6"
dropout_param {
dropout_ratio: 0.5
}
}
layer {
name: "fc7"
type: "InnerProduct"
bottom: "fc6"
top: "fc7"
param {
lr_mult: 1
decay_mult: 1
}
param {
lr_mult: 2
decay_mult: 0
}
inner_product_param {
num_output: 4096
weight_filler {
type: "gaussian"
std: 0.005
}
bias_filler {
type: "constant"
value: 0.1
}
}
}
layer {
name: "relu7"
type: "ReLU"
bottom: "fc7"
top: "fc7"
}
layer {
name: "drop7"
type: "Dropout"
bottom: "fc7"
top: "fc7"
dropout_param {
dropout_ratio: 0.5
}
}
layer {
name: "fc8"
type: "InnerProduct"
bottom: "fc7"
top: "fc8"
param {
lr_mult: 1
decay_mult: 1
}
param {
lr_mult: 2
decay_mult: 0
}
inner_product_param {
num_output: 196
weight_filler {
type: "gaussian"
std: 0.01
}
bias_filler {
type: "constant"
value: 0
}
}
}
layer {
name: "loss"
type: "SoftmaxWithLoss"
bottom: "fc8"
bottom: "label"
top: "loss"
}
I0405 13:16:14.540730  1863 layer_factory.hpp:77] Creating layer train-data
I0405 13:16:14.542685  1863 db_lmdb.cpp:35] Opened lmdb /mnt/bigdisk/DIGITS-AIN-3/digits/jobs/20210401-115716-aaf7/train_db
I0405 13:16:14.542927  1863 net.cpp:84] Creating Layer train-data
I0405 13:16:14.542937  1863 net.cpp:380] train-data -> data
I0405 13:16:14.542954  1863 net.cpp:380] train-data -> label
I0405 13:16:14.542963  1863 data_transformer.cpp:25] Loading mean file from: /mnt/bigdisk/DIGITS-AIN-3/digits/jobs/20210401-115716-aaf7/mean.binaryproto
I0405 13:16:14.547616  1863 data_layer.cpp:45] output data size: 128,3,227,227
I0405 13:16:14.685828  1863 net.cpp:122] Setting up train-data
I0405 13:16:14.685850  1863 net.cpp:129] Top shape: 128 3 227 227 (19787136)
I0405 13:16:14.685854  1863 net.cpp:129] Top shape: 128 (128)
I0405 13:16:14.685856  1863 net.cpp:137] Memory required for data: 79149056
I0405 13:16:14.685864  1863 layer_factory.hpp:77] Creating layer conv1
I0405 13:16:14.685883  1863 net.cpp:84] Creating Layer conv1
I0405 13:16:14.685889  1863 net.cpp:406] conv1 <- data
I0405 13:16:14.685899  1863 net.cpp:380] conv1 -> conv1
I0405 13:16:15.109823  1863 net.cpp:122] Setting up conv1
I0405 13:16:15.109846  1863 net.cpp:129] Top shape: 128 96 55 55 (37171200)
I0405 13:16:15.109849  1863 net.cpp:137] Memory required for data: 227833856
I0405 13:16:15.109867  1863 layer_factory.hpp:77] Creating layer relu1
I0405 13:16:15.109877  1863 net.cpp:84] Creating Layer relu1
I0405 13:16:15.109880  1863 net.cpp:406] relu1 <- conv1
I0405 13:16:15.109885  1863 net.cpp:367] relu1 -> conv1 (in-place)
I0405 13:16:15.110142  1863 net.cpp:122] Setting up relu1
I0405 13:16:15.110149  1863 net.cpp:129] Top shape: 128 96 55 55 (37171200)
I0405 13:16:15.110152  1863 net.cpp:137] Memory required for data: 376518656
I0405 13:16:15.110154  1863 layer_factory.hpp:77] Creating layer norm1
I0405 13:16:15.110162  1863 net.cpp:84] Creating Layer norm1
I0405 13:16:15.110164  1863 net.cpp:406] norm1 <- conv1
I0405 13:16:15.110190  1863 net.cpp:380] norm1 -> norm1
I0405 13:16:15.110599  1863 net.cpp:122] Setting up norm1
I0405 13:16:15.110607  1863 net.cpp:129] Top shape: 128 96 55 55 (37171200)
I0405 13:16:15.110610  1863 net.cpp:137] Memory required for data: 525203456
I0405 13:16:15.110612  1863 layer_factory.hpp:77] Creating layer pool1
I0405 13:16:15.110618  1863 net.cpp:84] Creating Layer pool1
I0405 13:16:15.110621  1863 net.cpp:406] pool1 <- norm1
I0405 13:16:15.110625  1863 net.cpp:380] pool1 -> pool1
I0405 13:16:15.110656  1863 net.cpp:122] Setting up pool1
I0405 13:16:15.110661  1863 net.cpp:129] Top shape: 128 96 27 27 (8957952)
I0405 13:16:15.110663  1863 net.cpp:137] Memory required for data: 561035264
I0405 13:16:15.110666  1863 layer_factory.hpp:77] Creating layer conv2
I0405 13:16:15.110674  1863 net.cpp:84] Creating Layer conv2
I0405 13:16:15.110677  1863 net.cpp:406] conv2 <- pool1
I0405 13:16:15.110680  1863 net.cpp:380] conv2 -> conv2
I0405 13:16:15.116248  1863 net.cpp:122] Setting up conv2
I0405 13:16:15.116268  1863 net.cpp:129] Top shape: 128 256 27 27 (23887872)
I0405 13:16:15.116271  1863 net.cpp:137] Memory required for data: 656586752
I0405 13:16:15.116279  1863 layer_factory.hpp:77] Creating layer relu2
I0405 13:16:15.116286  1863 net.cpp:84] Creating Layer relu2
I0405 13:16:15.116289  1863 net.cpp:406] relu2 <- conv2
I0405 13:16:15.116294  1863 net.cpp:367] relu2 -> conv2 (in-place)
I0405 13:16:15.116734  1863 net.cpp:122] Setting up relu2
I0405 13:16:15.116742  1863 net.cpp:129] Top shape: 128 256 27 27 (23887872)
I0405 13:16:15.116745  1863 net.cpp:137] Memory required for data: 752138240
I0405 13:16:15.116747  1863 layer_factory.hpp:77] Creating layer norm2
I0405 13:16:15.116755  1863 net.cpp:84] Creating Layer norm2
I0405 13:16:15.116756  1863 net.cpp:406] norm2 <- conv2
I0405 13:16:15.116761  1863 net.cpp:380] norm2 -> norm2
I0405 13:16:15.117102  1863 net.cpp:122] Setting up norm2
I0405 13:16:15.117110  1863 net.cpp:129] Top shape: 128 256 27 27 (23887872)
I0405 13:16:15.117113  1863 net.cpp:137] Memory required for data: 847689728
I0405 13:16:15.117115  1863 layer_factory.hpp:77] Creating layer pool2
I0405 13:16:15.117123  1863 net.cpp:84] Creating Layer pool2
I0405 13:16:15.117125  1863 net.cpp:406] pool2 <- norm2
I0405 13:16:15.117130  1863 net.cpp:380] pool2 -> pool2
I0405 13:16:15.117157  1863 net.cpp:122] Setting up pool2
I0405 13:16:15.117161  1863 net.cpp:129] Top shape: 128 256 13 13 (5537792)
I0405 13:16:15.117163  1863 net.cpp:137] Memory required for data: 869840896
I0405 13:16:15.117166  1863 layer_factory.hpp:77] Creating layer conv3
I0405 13:16:15.117174  1863 net.cpp:84] Creating Layer conv3
I0405 13:16:15.117177  1863 net.cpp:406] conv3 <- pool2
I0405 13:16:15.117182  1863 net.cpp:380] conv3 -> conv3
I0405 13:16:15.130030  1863 net.cpp:122] Setting up conv3
I0405 13:16:15.130049  1863 net.cpp:129] Top shape: 128 384 13 13 (8306688)
I0405 13:16:15.130051  1863 net.cpp:137] Memory required for data: 903067648
I0405 13:16:15.130061  1863 layer_factory.hpp:77] Creating layer relu3
I0405 13:16:15.130071  1863 net.cpp:84] Creating Layer relu3
I0405 13:16:15.130074  1863 net.cpp:406] relu3 <- conv3
I0405 13:16:15.130079  1863 net.cpp:367] relu3 -> conv3 (in-place)
I0405 13:16:15.130535  1863 net.cpp:122] Setting up relu3
I0405 13:16:15.130543  1863 net.cpp:129] Top shape: 128 384 13 13 (8306688)
I0405 13:16:15.130546  1863 net.cpp:137] Memory required for data: 936294400
I0405 13:16:15.130549  1863 layer_factory.hpp:77] Creating layer conv4
I0405 13:16:15.130559  1863 net.cpp:84] Creating Layer conv4
I0405 13:16:15.130561  1863 net.cpp:406] conv4 <- conv3
I0405 13:16:15.130568  1863 net.cpp:380] conv4 -> conv4
I0405 13:16:15.139864  1863 net.cpp:122] Setting up conv4
I0405 13:16:15.139886  1863 net.cpp:129] Top shape: 128 384 13 13 (8306688)
I0405 13:16:15.139889  1863 net.cpp:137] Memory required for data: 969521152
I0405 13:16:15.139897  1863 layer_factory.hpp:77] Creating layer relu4
I0405 13:16:15.139907  1863 net.cpp:84] Creating Layer relu4
I0405 13:16:15.139931  1863 net.cpp:406] relu4 <- conv4
I0405 13:16:15.139936  1863 net.cpp:367] relu4 -> conv4 (in-place)
I0405 13:16:15.140249  1863 net.cpp:122] Setting up relu4
I0405 13:16:15.140259  1863 net.cpp:129] Top shape: 128 384 13 13 (8306688)
I0405 13:16:15.140260  1863 net.cpp:137] Memory required for data: 1002747904
I0405 13:16:15.140262  1863 layer_factory.hpp:77] Creating layer conv5
I0405 13:16:15.140272  1863 net.cpp:84] Creating Layer conv5
I0405 13:16:15.140275  1863 net.cpp:406] conv5 <- conv4
I0405 13:16:15.140278  1863 net.cpp:380] conv5 -> conv5
I0405 13:16:15.147621  1863 net.cpp:122] Setting up conv5
I0405 13:16:15.147641  1863 net.cpp:129] Top shape: 128 256 13 13 (5537792)
I0405 13:16:15.147644  1863 net.cpp:137] Memory required for data: 1024899072
I0405 13:16:15.147655  1863 layer_factory.hpp:77] Creating layer relu5
I0405 13:16:15.147663  1863 net.cpp:84] Creating Layer relu5
I0405 13:16:15.147666  1863 net.cpp:406] relu5 <- conv5
I0405 13:16:15.147671  1863 net.cpp:367] relu5 -> conv5 (in-place)
I0405 13:16:15.148123  1863 net.cpp:122] Setting up relu5
I0405 13:16:15.148131  1863 net.cpp:129] Top shape: 128 256 13 13 (5537792)
I0405 13:16:15.148133  1863 net.cpp:137] Memory required for data: 1047050240
I0405 13:16:15.148135  1863 layer_factory.hpp:77] Creating layer pool5
I0405 13:16:15.148141  1863 net.cpp:84] Creating Layer pool5
I0405 13:16:15.148144  1863 net.cpp:406] pool5 <- conv5
I0405 13:16:15.148149  1863 net.cpp:380] pool5 -> pool5
I0405 13:16:15.148182  1863 net.cpp:122] Setting up pool5
I0405 13:16:15.148186  1863 net.cpp:129] Top shape: 128 256 6 6 (1179648)
I0405 13:16:15.148188  1863 net.cpp:137] Memory required for data: 1051768832
I0405 13:16:15.148190  1863 layer_factory.hpp:77] Creating layer fc6
I0405 13:16:15.148200  1863 net.cpp:84] Creating Layer fc6
I0405 13:16:15.148202  1863 net.cpp:406] fc6 <- pool5
I0405 13:16:15.148206  1863 net.cpp:380] fc6 -> fc6
I0405 13:16:15.492358  1863 net.cpp:122] Setting up fc6
I0405 13:16:15.492380  1863 net.cpp:129] Top shape: 128 4096 (524288)
I0405 13:16:15.492383  1863 net.cpp:137] Memory required for data: 1053865984
I0405 13:16:15.492391  1863 layer_factory.hpp:77] Creating layer relu6
I0405 13:16:15.492404  1863 net.cpp:84] Creating Layer relu6
I0405 13:16:15.492408  1863 net.cpp:406] relu6 <- fc6
I0405 13:16:15.492413  1863 net.cpp:367] relu6 -> fc6 (in-place)
I0405 13:16:15.493022  1863 net.cpp:122] Setting up relu6
I0405 13:16:15.493031  1863 net.cpp:129] Top shape: 128 4096 (524288)
I0405 13:16:15.493034  1863 net.cpp:137] Memory required for data: 1055963136
I0405 13:16:15.493036  1863 layer_factory.hpp:77] Creating layer drop6
I0405 13:16:15.493042  1863 net.cpp:84] Creating Layer drop6
I0405 13:16:15.493044  1863 net.cpp:406] drop6 <- fc6
I0405 13:16:15.493049  1863 net.cpp:367] drop6 -> fc6 (in-place)
I0405 13:16:15.493073  1863 net.cpp:122] Setting up drop6
I0405 13:16:15.493077  1863 net.cpp:129] Top shape: 128 4096 (524288)
I0405 13:16:15.493079  1863 net.cpp:137] Memory required for data: 1058060288
I0405 13:16:15.493081  1863 layer_factory.hpp:77] Creating layer fc7
I0405 13:16:15.493090  1863 net.cpp:84] Creating Layer fc7
I0405 13:16:15.493093  1863 net.cpp:406] fc7 <- fc6
I0405 13:16:15.493098  1863 net.cpp:380] fc7 -> fc7
I0405 13:16:15.641261  1863 net.cpp:122] Setting up fc7
I0405 13:16:15.641281  1863 net.cpp:129] Top shape: 128 4096 (524288)
I0405 13:16:15.641283  1863 net.cpp:137] Memory required for data: 1060157440
I0405 13:16:15.641292  1863 layer_factory.hpp:77] Creating layer relu7
I0405 13:16:15.641300  1863 net.cpp:84] Creating Layer relu7
I0405 13:16:15.641304  1863 net.cpp:406] relu7 <- fc7
I0405 13:16:15.641309  1863 net.cpp:367] relu7 -> fc7 (in-place)
I0405 13:16:15.641677  1863 net.cpp:122] Setting up relu7
I0405 13:16:15.641686  1863 net.cpp:129] Top shape: 128 4096 (524288)
I0405 13:16:15.641688  1863 net.cpp:137] Memory required for data: 1062254592
I0405 13:16:15.641690  1863 layer_factory.hpp:77] Creating layer drop7
I0405 13:16:15.641695  1863 net.cpp:84] Creating Layer drop7
I0405 13:16:15.641717  1863 net.cpp:406] drop7 <- fc7
I0405 13:16:15.641721  1863 net.cpp:367] drop7 -> fc7 (in-place)
I0405 13:16:15.641742  1863 net.cpp:122] Setting up drop7
I0405 13:16:15.641746  1863 net.cpp:129] Top shape: 128 4096 (524288)
I0405 13:16:15.641748  1863 net.cpp:137] Memory required for data: 1064351744
I0405 13:16:15.641750  1863 layer_factory.hpp:77] Creating layer fc8
I0405 13:16:15.641757  1863 net.cpp:84] Creating Layer fc8
I0405 13:16:15.641759  1863 net.cpp:406] fc8 <- fc7
I0405 13:16:15.641763  1863 net.cpp:380] fc8 -> fc8
I0405 13:16:15.648928  1863 net.cpp:122] Setting up fc8
I0405 13:16:15.648945  1863 net.cpp:129] Top shape: 128 196 (25088)
I0405 13:16:15.648948  1863 net.cpp:137] Memory required for data: 1064452096
I0405 13:16:15.648957  1863 layer_factory.hpp:77] Creating layer loss
I0405 13:16:15.648963  1863 net.cpp:84] Creating Layer loss
I0405 13:16:15.648967  1863 net.cpp:406] loss <- fc8
I0405 13:16:15.648970  1863 net.cpp:406] loss <- label
I0405 13:16:15.648977  1863 net.cpp:380] loss -> loss
I0405 13:16:15.648986  1863 layer_factory.hpp:77] Creating layer loss
…
I0405 13:16:15.650313  1863 net.cpp:294] The NetState phase (1) differed from the phase (0) specified by a rule in layer train-data
I0405 13:16:15.650441  1863 net.cpp:51] Initializing net from parameters:
state {
phase: TEST
}
layer {
name: "val-data"
type: "Data"
top: "data"
top: "label"
include {
phase: TEST
}
transform_param {
crop_size: 227
mean_file: "/mnt/bigdisk/DIGITS-AIN-3/digits/jobs/20210401-115716-aaf7/mean.binaryproto"
}
data_param {
source: "/mnt/bigdisk/DIGITS-AIN-3/digits/jobs/20210401-115716-aaf7/val_db"
batch_size: 32
backend: LMDB
}
}
layer {
name: "conv1"
type: "Convolution"
bottom: "data"
top: "conv1"
param {
lr_mult: 1
decay_mult: 1
}
param {
lr_mult: 2
decay_mult: 0
}
convolution_param {
num_output: 96
kernel_size: 11
stride: 4
weight_filler {
type: "gaussian"
std: 0.01
}
bias_filler {
type: "constant"
value: 0
}
}
}
layer {
name: "relu1"
type: "ReLU"
bottom: "conv1"
top: "conv1"
}
layer {
name: "norm1"
type: "LRN"
bottom: "conv1"
top: "norm1"
lrn_param {
local_size: 5
alpha: 0.0001
beta: 0.75
}
}
layer {
name: "pool1"
type: "Pooling"
bottom: "norm1"
top: "pool1"
pooling_param {
pool: MAX
kernel_size: 3
stride: 2
}
}
layer {
name: "conv2"
type: "Convolution"
bottom: "pool1"
top: "conv2"
param {
lr_mult: 1
decay_mult: 1
}
param {
lr_mult: 2
decay_mult: 0
}
convolution_param {
num_output: 256
pad: 2
kernel_size: 5
group: 2
weight_filler {
type: "gaussian"
std: 0.01
}
bias_filler {
type: "constant"
value: 0.1
}
}
}
layer {
name: "relu2"
type: "ReLU"
bottom: "conv2"
top: "conv2"
}
layer {
name: "norm2"
type: "LRN"
bottom: "conv2"
top: "norm2"
lrn_param {
local_size: 5
alpha: 0.0001
beta: 0.75
}
}
layer {
name: "pool2"
type: "Pooling"
bottom: "norm2"
top: "pool2"
pooling_param {
pool: MAX
kernel_size: 3
stride: 2
}
}
layer {
name: "conv3"
type: "Convolution"
bottom: "pool2"
top: "conv3"
param {
lr_mult: 1
decay_mult: 1
}
param {
lr_mult: 2
decay_mult: 0
}
convolution_param {
num_output: 384
pad: 1
kernel_size: 3
weight_filler {
type: "gaussian"
std: 0.01
}
bias_filler {
type: "constant"
value: 0
}
}
}
layer {
name: "relu3"
type: "ReLU"
bottom: "conv3"
top: "conv3"
}
layer {
name: "conv4"
type: "Convolution"
bottom: "conv3"
top: "conv4"
param {
lr_mult: 1
decay_mult: 1
}
param {
lr_mult: 2
decay_mult: 0
}
convolution_param {
num_output: 384
pad: 1
kernel_size: 3
group: 2
weight_filler {
type: "gaussian"
std: 0.01
}
bias_filler {
type: "constant"
value: 0.1
}
}
}
layer {
name: "relu4"
type: "ReLU"
bottom: "conv4"
top: "conv4"
}
layer {
name: "conv5"
type: "Convolution"
bottom: "conv4"
top: "conv5"
param {
lr_mult: 1
decay_mult: 1
}
param {
lr_mult: 2
decay_mult: 0
}
convolution_param {
num_output: 256
pad: 1
kernel_size: 3
group: 2
weight_filler {
type: "gaussian"
std: 0.01
}
bias_filler {
type: "constant"
value: 0.1
}
}
}
layer {
name: "relu5"
type: "ReLU"
bottom: "conv5"
top: "conv5"
}
layer {
name: "pool5"
type: "Pooling"
bottom: "conv5"
top: "pool5"
pooling_param {
pool: MAX
kernel_size: 3
stride: 2
}
}
layer {
name: "fc6"
type: "InnerProduct"
bottom: "pool5"
top: "fc6"
param {
lr_mult: 1
decay_mult: 1
}
param {
lr_mult: 2
decay_mult: 0
}
inner_product_param {
num_output: 4096
weight_filler {
type: "gaussian"
std: 0.005
}
bias_filler {
type: "constant"
value: 0.1
}
}
}
layer {
name: "relu6"
type: "ReLU"
bottom: "fc6"
top: "fc6"
}
layer {
name: "drop6"
type: "Dropout"
bottom: "fc6"
top: "fc6"
dropout_param {
dropout_ratio: 0.5
}
}
layer {
name: "fc7"
type: "InnerProduct"
bottom: "fc6"
top: "fc7"
param {
lr_mult: 1
decay_mult: 1
}
param {
lr_mult: 2
decay_mult: 0
}
inner_product_param {
num_output: 4096
weight_filler {
type: "gaussian"
std: 0.005
}
bias_filler {
type: "constant"
value: 0.1
}
}
}
layer {
name: "relu7"
type: "ReLU"
bottom: "fc7"
top: "fc7"
}
layer {
name: "drop7"
type: "Dropout"
bottom: "fc7"
top: "fc7"
dropout_param {
dropout_ratio: 0.5
}
}
layer {
name: "fc8"
type: "InnerProduct"
bottom: "fc7"
top: "fc8"
param {
lr_mult: 1
decay_mult: 1
}
param {
lr_mult: 2
decay_mult: 0
}
inner_product_param {
num_output: 196
weight_filler {
type: "gaussian"
std: 0.01
}
bias_filler {
type: "constant"
value: 0
}
}
}
layer {
name: "accuracy"
type: "Accuracy"
bottom: "fc8"
bottom: "label"
top: "accuracy"
include {
phase: TEST
}
}
layer {
name: "loss"
type: "SoftmaxWithLoss"
bottom: "fc8"
bottom: "label"
top: "loss"
}
I0405 13:16:15.650539  1863 layer_factory.hpp:77] Creating layer val-data
I0405 13:16:15.652529  1863 db_lmdb.cpp:35] Opened lmdb /mnt/bigdisk/DIGITS-AIN-3/digits/jobs/20210401-115716-aaf7/val_db
I0405 13:16:15.652766  1863 net.cpp:84] Creating Layer val-data
I0405 13:16:15.652777  1863 net.cpp:380] val-data -> data
I0405 13:16:15.652784  1863 net.cpp:380] val-data -> label
I0405 13:16:15.652789  1863 data_transformer.cpp:25] Loading mean file from: /mnt/bigdisk/DIGITS-AIN-3/digits/jobs/20210401-115716-aaf7/mean.binaryproto
I0405 13:16:15.656452  1863 data_layer.cpp:45] output data size: 32,3,227,227
I0405 13:16:15.689146  1863 net.cpp:122] Setting up val-data
I0405 13:16:15.689168  1863 net.cpp:129] Top shape: 32 3 227 227 (4946784)
I0405 13:16:15.689172  1863 net.cpp:129] Top shape: 32 (32)
I0405 13:16:15.689173  1863 net.cpp:137] Memory required for data: 19787264
I0405 13:16:15.689178  1863 layer_factory.hpp:77] Creating layer label_val-data_1_split
I0405 13:16:15.689188  1863 net.cpp:84] Creating Layer label_val-data_1_split
I0405 13:16:15.689193  1863 net.cpp:406] label_val-data_1_split <- label
I0405 13:16:15.689198  1863 net.cpp:380] label_val-data_1_split -> label_val-data_1_split_0
I0405 13:16:15.689205  1863 net.cpp:380] label_val-data_1_split -> label_val-data_1_split_1
I0405 13:16:15.689285  1863 net.cpp:122] Setting up label_val-data_1_split
I0405 13:16:15.689292  1863 net.cpp:129] Top shape: 32 (32)
I0405 13:16:15.689294  1863 net.cpp:129] Top shape: 32 (32)
I0405 13:16:15.689296  1863 net.cpp:137] Memory required for data: 19787520
I0405 13:16:15.689298  1863 layer_factory.hpp:77] Creating layer conv1
I0405 13:16:15.689309  1863 net.cpp:84] Creating Layer conv1
I0405 13:16:15.689312  1863 net.cpp:406] conv1 <- data
I0405 13:16:15.689316  1863 net.cpp:380] conv1 -> conv1
I0405 13:16:15.691622  1863 net.cpp:122] Setting up conv1
I0405 13:16:15.691634  1863 net.cpp:129] Top shape: 32 96 55 55 (9292800)
I0405 13:16:15.691637  1863 net.cpp:137] Memory required for data: 56958720
I0405 13:16:15.691645  1863 layer_factory.hpp:77] Creating layer relu1
I0405 13:16:15.691651  1863 net.cpp:84] Creating Layer relu1
I0405 13:16:15.691653  1863 net.cpp:406] relu1 <- conv1
I0405 13:16:15.691658  1863 net.cpp:367] relu1 -> conv1 (in-place)
I0405 13:16:15.691916  1863 net.cpp:122] Setting up relu1
I0405 13:16:15.691923  1863 net.cpp:129] Top shape: 32 96 55 55 (9292800)
I0405 13:16:15.691926  1863 net.cpp:137] Memory required for data: 94129920
I0405 13:16:15.691928  1863 layer_factory.hpp:77] Creating layer norm1
I0405 13:16:15.691934  1863 net.cpp:84] Creating Layer norm1
I0405 13:16:15.691937  1863 net.cpp:406] norm1 <- conv1
I0405 13:16:15.691941  1863 net.cpp:380] norm1 -> norm1
I0405 13:16:15.692358  1863 net.cpp:122] Setting up norm1
I0405 13:16:15.692366  1863 net.cpp:129] Top shape: 32 96 55 55 (9292800)
I0405 13:16:15.692368  1863 net.cpp:137] Memory required for data: 131301120
I0405 13:16:15.692370  1863 layer_factory.hpp:77] Creating layer pool1
I0405 13:16:15.692375  1863 net.cpp:84] Creating Layer pool1
I0405 13:16:15.692378  1863 net.cpp:406] pool1 <- norm1
I0405 13:16:15.692382  1863 net.cpp:380] pool1 -> pool1
I0405 13:16:15.692407  1863 net.cpp:122] Setting up pool1
I0405 13:16:15.692411  1863 net.cpp:129] Top shape: 32 96 27 27 (2239488)
I0405 13:16:15.692414  1863 net.cpp:137] Memory required for data: 140259072
I0405 13:16:15.692415  1863 layer_factory.hpp:77] Creating layer conv2
I0405 13:16:15.692421  1863 net.cpp:84] Creating Layer conv2
I0405 13:16:15.692425  1863 net.cpp:406] conv2 <- pool1
I0405 13:16:15.692448  1863 net.cpp:380] conv2 -> conv2
I0405 13:16:15.698367  1863 net.cpp:122] Setting up conv2
I0405 13:16:15.698385  1863 net.cpp:129] Top shape: 32 256 27 27 (5971968)
I0405 13:16:15.698387  1863 net.cpp:137] Memory required for data: 164146944
I0405 13:16:15.698397  1863 layer_factory.hpp:77] Creating layer relu2
I0405 13:16:15.698405  1863 net.cpp:84] Creating Layer relu2
I0405 13:16:15.698408  1863 net.cpp:406] relu2 <- conv2
I0405 13:16:15.698413  1863 net.cpp:367] relu2 -> conv2 (in-place)
I0405 13:16:15.701848  1863 net.cpp:122] Setting up relu2
I0405 13:16:15.701860  1863 net.cpp:129] Top shape: 32 256 27 27 (5971968)
I0405 13:16:15.701862  1863 net.cpp:137] Memory required for data: 188034816
I0405 13:16:15.701865  1863 layer_factory.hpp:77] Creating layer norm2
I0405 13:16:15.701875  1863 net.cpp:84] Creating Layer norm2
I0405 13:16:15.701879  1863 net.cpp:406] norm2 <- conv2
I0405 13:16:15.701884  1863 net.cpp:380] norm2 -> norm2
I0405 13:16:15.705041  1863 net.cpp:122] Setting up norm2
I0405 13:16:15.705054  1863 net.cpp:129] Top shape: 32 256 27 27 (5971968)
I0405 13:16:15.705056  1863 net.cpp:137] Memory required for data: 211922688
I0405 13:16:15.705060  1863 layer_factory.hpp:77] Creating layer pool2
I0405 13:16:15.705065  1863 net.cpp:84] Creating Layer pool2
I0405 13:16:15.705067  1863 net.cpp:406] pool2 <- norm2
I0405 13:16:15.705073  1863 net.cpp:380] pool2 -> pool2
I0405 13:16:15.705103  1863 net.cpp:122] Setting up pool2
I0405 13:16:15.705107  1863 net.cpp:129] Top shape: 32 256 13 13 (1384448)
I0405 13:16:15.705109  1863 net.cpp:137] Memory required for data: 217460480
I0405 13:16:15.705111  1863 layer_factory.hpp:77] Creating layer conv3
I0405 13:16:15.705123  1863 net.cpp:84] Creating Layer conv3
I0405 13:16:15.705125  1863 net.cpp:406] conv3 <- pool2
I0405 13:16:15.705129  1863 net.cpp:380] conv3 -> conv3
I0405 13:16:15.717329  1863 net.cpp:122] Setting up conv3
I0405 13:16:15.717348  1863 net.cpp:129] Top shape: 32 384 13 13 (2076672)
I0405 13:16:15.717350  1863 net.cpp:137] Memory required for data: 225767168
I0405 13:16:15.717362  1863 layer_factory.hpp:77] Creating layer relu3
I0405 13:16:15.717370  1863 net.cpp:84] Creating Layer relu3
I0405 13:16:15.717372  1863 net.cpp:406] relu3 <- conv3
I0405 13:16:15.717379  1863 net.cpp:367] relu3 -> conv3 (in-place)
I0405 13:16:15.717839  1863 net.cpp:122] Setting up relu3
I0405 13:16:15.717849  1863 net.cpp:129] Top shape: 32 384 13 13 (2076672)
I0405 13:16:15.717851  1863 net.cpp:137] Memory required for data: 234073856
I0405 13:16:15.717854  1863 layer_factory.hpp:77] Creating layer conv4
I0405 13:16:15.717864  1863 net.cpp:84] Creating Layer conv4
I0405 13:16:15.717866  1863 net.cpp:406] conv4 <- conv3
I0405 13:16:15.717870  1863 net.cpp:380] conv4 -> conv4
I0405 13:16:15.728333  1863 net.cpp:122] Setting up conv4
I0405 13:16:15.728360  1863 net.cpp:129] Top shape: 32 384 13 13 (2076672)
I0405 13:16:15.728365  1863 net.cpp:137] Memory required for data: 242380544
I0405 13:16:15.728376  1863 layer_factory.hpp:77] Creating layer relu4
I0405 13:16:15.728387  1863 net.cpp:84] Creating Layer relu4
I0405 13:16:15.728392  1863 net.cpp:406] relu4 <- conv4
I0405 13:16:15.728402  1863 net.cpp:367] relu4 -> conv4 (in-place)
I0405 13:16:15.728890  1863 net.cpp:122] Setting up relu4
I0405 13:16:15.728901  1863 net.cpp:129] Top shape: 32 384 13 13 (2076672)
I0405 13:16:15.728904  1863 net.cpp:137] Memory required for data: 250687232
I0405 13:16:15.728909  1863 layer_factory.hpp:77] Creating layer conv5
I0405 13:16:15.728924  1863 net.cpp:84] Creating Layer conv5
I0405 13:16:15.728929  1863 net.cpp:406] conv5 <- conv4
I0405 13:16:15.728940  1863 net.cpp:380] conv5 -> conv5
I0405 13:16:15.740880  1863 net.cpp:122] Setting up conv5
I0405 13:16:15.740913  1863 net.cpp:129] Top shape: 32 256 13 13 (1384448)
I0405 13:16:15.740917  1863 net.cpp:137] Memory required for data: 256225024
I0405 13:16:15.740936  1863 layer_factory.hpp:77] Creating layer relu5
I0405 13:16:15.740945  1863 net.cpp:84] Creating Layer relu5
I0405 13:16:15.740958  1863 net.cpp:406] relu5 <- conv5
I0405 13:16:15.740990  1863 net.cpp:367] relu5 -> conv5 (in-place)
I0405 13:16:15.741658  1863 net.cpp:122] Setting up relu5
I0405 13:16:15.741670  1863 net.cpp:129] Top shape: 32 256 13 13 (1384448)
I0405 13:16:15.741674  1863 net.cpp:137] Memory required for data: 261762816
I0405 13:16:15.741678  1863 layer_factory.hpp:77] Creating layer pool5
I0405 13:16:15.741690  1863 net.cpp:84] Creating Layer pool5
I0405 13:16:15.741694  1863 net.cpp:406] pool5 <- conv5
I0405 13:16:15.741700  1863 net.cpp:380] pool5 -> pool5
I0405 13:16:15.741748  1863 net.cpp:122] Setting up pool5
I0405 13:16:15.741755  1863 net.cpp:129] Top shape: 32 256 6 6 (294912)
I0405 13:16:15.741760  1863 net.cpp:137] Memory required for data: 262942464
I0405 13:16:15.741762  1863 layer_factory.hpp:77] Creating layer fc6
I0405 13:16:15.741772  1863 net.cpp:84] Creating Layer fc6
I0405 13:16:15.741775  1863 net.cpp:406] fc6 <- pool5
I0405 13:16:15.741781  1863 net.cpp:380] fc6 -> fc6
I0405 13:16:16.104166  1863 net.cpp:122] Setting up fc6
I0405 13:16:16.104187  1863 net.cpp:129] Top shape: 32 4096 (131072)
I0405 13:16:16.104189  1863 net.cpp:137] Memory required for data: 263466752
I0405 13:16:16.104198  1863 layer_factory.hpp:77] Creating layer relu6
I0405 13:16:16.104207  1863 net.cpp:84] Creating Layer relu6
I0405 13:16:16.104210  1863 net.cpp:406] relu6 <- fc6
I0405 13:16:16.104215  1863 net.cpp:367] relu6 -> fc6 (in-place)
I0405 13:16:16.104897  1863 net.cpp:122] Setting up relu6
I0405 13:16:16.104907  1863 net.cpp:129] Top shape: 32 4096 (131072)
I0405 13:16:16.104908  1863 net.cpp:137] Memory required for data: 263991040
I0405 13:16:16.104910  1863 layer_factory.hpp:77] Creating layer drop6
I0405 13:16:16.104918  1863 net.cpp:84] Creating Layer drop6
I0405 13:16:16.104919  1863 net.cpp:406] drop6 <- fc6
I0405 13:16:16.104923  1863 net.cpp:367] drop6 -> fc6 (in-place)
I0405 13:16:16.104946  1863 net.cpp:122] Setting up drop6
I0405 13:16:16.104950  1863 net.cpp:129] Top shape: 32 4096 (131072)
I0405 13:16:16.104952  1863 net.cpp:137] Memory required for data: 264515328
I0405 13:16:16.104954  1863 layer_factory.hpp:77] Creating layer fc7
I0405 13:16:16.104959  1863 net.cpp:84] Creating Layer fc7
I0405 13:16:16.104961  1863 net.cpp:406] fc7 <- fc6
I0405 13:16:16.104966  1863 net.cpp:380] fc7 -> fc7
I0405 13:16:16.254206  1863 net.cpp:122] Setting up fc7
I0405 13:16:16.254228  1863 net.cpp:129] Top shape: 32 4096 (131072)
I0405 13:16:16.254231  1863 net.cpp:137] Memory required for data: 265039616
I0405 13:16:16.254240  1863 layer_factory.hpp:77] Creating layer relu7
I0405 13:16:16.254246  1863 net.cpp:84] Creating Layer relu7
I0405 13:16:16.254251  1863 net.cpp:406] relu7 <- fc7
I0405 13:16:16.254256  1863 net.cpp:367] relu7 -> fc7 (in-place)
I0405 13:16:16.254663  1863 net.cpp:122] Setting up relu7
I0405 13:16:16.254673  1863 net.cpp:129] Top shape: 32 4096 (131072)
I0405 13:16:16.254674  1863 net.cpp:137] Memory required for data: 265563904
I0405 13:16:16.254676  1863 layer_factory.hpp:77] Creating layer drop7
I0405 13:16:16.254681  1863 net.cpp:84] Creating Layer drop7
I0405 13:16:16.254683  1863 net.cpp:406] drop7 <- fc7
I0405 13:16:16.254688  1863 net.cpp:367] drop7 -> fc7 (in-place)
I0405 13:16:16.254709  1863 net.cpp:122] Setting up drop7
I0405 13:16:16.254714  1863 net.cpp:129] Top shape: 32 4096 (131072)
I0405 13:16:16.254714  1863 net.cpp:137] Memory required for data: 266088192
I0405 13:16:16.254717  1863 layer_factory.hpp:77] Creating layer fc8
I0405 13:16:16.254724  1863 net.cpp:84] Creating Layer fc8
I0405 13:16:16.254726  1863 net.cpp:406] fc8 <- fc7
I0405 13:16:16.254729  1863 net.cpp:380] fc8 -> fc8
I0405 13:16:16.261979  1863 net.cpp:122] Setting up fc8
I0405 13:16:16.261998  1863 net.cpp:129] Top shape: 32 196 (6272)
I0405 13:16:16.262001  1863 net.cpp:137] Memory required for data: 266113280
I0405 13:16:16.262007  1863 layer_factory.hpp:77] Creating layer fc8_fc8_0_split
I0405 13:16:16.262015  1863 net.cpp:84] Creating Layer fc8_fc8_0_split
I0405 13:16:16.262018  1863 net.cpp:406] fc8_fc8_0_split <- fc8
I0405 13:16:16.262045  1863 net.cpp:380] fc8_fc8_0_split -> fc8_fc8_0_split_0
I0405 13:16:16.262053  1863 net.cpp:380] fc8_fc8_0_split -> fc8_fc8_0_split_1
I0405 13:16:16.262086  1863 net.cpp:122] Setting up fc8_fc8_0_split
I0405 13:16:16.262090  1863 net.cpp:129] Top shape: 32 196 (6272)
I0405 13:16:16.262092  1863 net.cpp:129] Top shape: 32 196 (6272)
I0405 13:16:16.262094  1863 net.cpp:137] Memory required for data: 266163456
I0405 13:16:16.262096  1863 layer_factory.hpp:77] Creating layer accuracy
I0405 13:16:16.262102  1863 net.cpp:84] Creating Layer accuracy
I0405 13:16:16.262105  1863 net.cpp:406] accuracy <- fc8_fc8_0_split_0
I0405 13:16:16.262109  1863 net.cpp:406] accuracy <- label_val-data_1_split_0
I0405 13:16:16.262112  1863 net.cpp:380] accuracy -> accuracy
…
