…
I0419 15:47:24.692970 10002 net.cpp:294] The NetState phase (0) differed from the phase (1) specified by a rule in layer accuracy
I0419 15:47:24.693101 10002 net.cpp:51] Initializing net from parameters:
state {
phase: TRAIN
level: 0
stage: ""
}
layer {
name: "train-data"
type: "Data"
top: "data"
top: "label"
include {
phase: TRAIN
}
transform_param {
mirror: true
crop_size: 227
mean_file: "/mnt/bigdisk/DIGITS-AMB-2/digits/jobs/20210419-154441-fb73/mean.binaryproto"
}
data_param {
source: "/mnt/bigdisk/DIGITS-AMB-2/digits/jobs/20210419-154441-fb73/train_db"
batch_size: 128
backend: LMDB
}
}
layer {
name: "conv1"
type: "Convolution"
bottom: "data"
top: "conv1"
param {
lr_mult: 1
decay_mult: 1
}
param {
lr_mult: 2
decay_mult: 0
}
convolution_param {
num_output: 96
kernel_size: 11
stride: 4
weight_filler {
type: "gaussian"
std: 0.01
}
bias_filler {
type: "constant"
value: 0
}
}
}
layer {
name: "relu1"
type: "ReLU"
bottom: "conv1"
top: "conv1"
}
layer {
name: "norm1"
type: "LRN"
bottom: "conv1"
top: "norm1"
lrn_param {
local_size: 5
alpha: 0.0001
beta: 0.75
}
}
layer {
name: "pool1"
type: "Pooling"
bottom: "norm1"
top: "pool1"
pooling_param {
pool: MAX
kernel_size: 3
stride: 2
}
}
layer {
name: "conv2"
type: "Convolution"
bottom: "pool1"
top: "conv2"
param {
lr_mult: 1
decay_mult: 1
}
param {
lr_mult: 2
decay_mult: 0
}
convolution_param {
num_output: 256
pad: 2
kernel_size: 5
group: 2
weight_filler {
type: "gaussian"
std: 0.01
}
bias_filler {
type: "constant"
value: 0.1
}
}
}
layer {
name: "relu2"
type: "ReLU"
bottom: "conv2"
top: "conv2"
}
layer {
name: "norm2"
type: "LRN"
bottom: "conv2"
top: "norm2"
lrn_param {
local_size: 5
alpha: 0.0001
beta: 0.75
}
}
layer {
name: "pool2"
type: "Pooling"
bottom: "norm2"
top: "pool2"
pooling_param {
pool: MAX
kernel_size: 3
stride: 2
}
}
layer {
name: "conv3"
type: "Convolution"
bottom: "pool2"
top: "conv3"
param {
lr_mult: 1
decay_mult: 1
}
param {
lr_mult: 2
decay_mult: 0
}
convolution_param {
num_output: 384
pad: 1
kernel_size: 3
weight_filler {
type: "gaussian"
std: 0.01
}
bias_filler {
type: "constant"
value: 0
}
}
}
layer {
name: "relu3"
type: "ReLU"
bottom: "conv3"
top: "conv3"
}
layer {
name: "conv4"
type: "Convolution"
bottom: "conv3"
top: "conv4"
param {
lr_mult: 1
decay_mult: 1
}
param {
lr_mult: 2
decay_mult: 0
}
convolution_param {
num_output: 384
pad: 1
kernel_size: 3
group: 2
weight_filler {
type: "gaussian"
std: 0.01
}
bias_filler {
type: "constant"
value: 0.1
}
}
}
layer {
name: "relu4"
type: "ReLU"
bottom: "conv4"
top: "conv4"
}
layer {
name: "conv5"
type: "Convolution"
bottom: "conv4"
top: "conv5"
param {
lr_mult: 1
decay_mult: 1
}
param {
lr_mult: 2
decay_mult: 0
}
convolution_param {
num_output: 256
pad: 1
kernel_size: 3
group: 2
weight_filler {
type: "gaussian"
std: 0.01
}
bias_filler {
type: "constant"
value: 0.1
}
}
}
layer {
name: "relu5"
type: "ReLU"
bottom: "conv5"
top: "conv5"
}
layer {
name: "pool5"
type: "Pooling"
bottom: "conv5"
top: "pool5"
pooling_param {
pool: MAX
kernel_size: 3
stride: 2
}
}
layer {
name: "fc6"
type: "InnerProduct"
bottom: "pool5"
top: "fc6"
param {
lr_mult: 1
decay_mult: 1
}
param {
lr_mult: 2
decay_mult: 0
}
inner_product_param {
num_output: 4096
weight_filler {
type: "gaussian"
std: 0.005
}
bias_filler {
type: "constant"
value: 0.1
}
}
}
layer {
name: "relu6"
type: "ReLU"
bottom: "fc6"
top: "fc6"
}
layer {
name: "drop6"
type: "Dropout"
bottom: "fc6"
top: "fc6"
dropout_param {
dropout_ratio: 0.5
}
}
layer {
name: "fc7"
type: "InnerProduct"
bottom: "fc6"
top: "fc7"
param {
lr_mult: 1
decay_mult: 1
}
param {
lr_mult: 2
decay_mult: 0
}
inner_product_param {
num_output: 4096
weight_filler {
type: "gaussian"
std: 0.005
}
bias_filler {
type: "constant"
value: 0.1
}
}
}
layer {
name: "relu7"
type: "ReLU"
bottom: "fc7"
top: "fc7"
}
layer {
name: "drop7"
type: "Dropout"
bottom: "fc7"
top: "fc7"
dropout_param {
dropout_ratio: 0.5
}
}
layer {
name: "fc8"
type: "InnerProduct"
bottom: "fc7"
top: "fc8"
param {
lr_mult: 1
decay_mult: 1
}
param {
lr_mult: 2
decay_mult: 0
}
inner_product_param {
num_output: 196
weight_filler {
type: "gaussian"
std: 0.01
}
bias_filler {
type: "constant"
value: 0
}
}
}
layer {
name: "loss"
type: "SoftmaxWithLoss"
bottom: "fc8"
bottom: "label"
top: "loss"
}
I0419 15:47:24.693192 10002 layer_factory.hpp:77] Creating layer train-data
I0419 15:47:24.695560 10002 db_lmdb.cpp:35] Opened lmdb /mnt/bigdisk/DIGITS-AMB-2/digits/jobs/20210419-154441-fb73/train_db
I0419 15:47:24.696369 10002 net.cpp:84] Creating Layer train-data
I0419 15:47:24.696383 10002 net.cpp:380] train-data -> data
I0419 15:47:24.696403 10002 net.cpp:380] train-data -> label
I0419 15:47:24.696419 10002 data_transformer.cpp:25] Loading mean file from: /mnt/bigdisk/DIGITS-AMB-2/digits/jobs/20210419-154441-fb73/mean.binaryproto
I0419 15:47:24.700791 10002 data_layer.cpp:45] output data size: 128,3,227,227
I0419 15:47:24.838976 10002 net.cpp:122] Setting up train-data
I0419 15:47:24.838999 10002 net.cpp:129] Top shape: 128 3 227 227 (19787136)
I0419 15:47:24.839004 10002 net.cpp:129] Top shape: 128 (128)
I0419 15:47:24.839006 10002 net.cpp:137] Memory required for data: 79149056
I0419 15:47:24.839015 10002 layer_factory.hpp:77] Creating layer conv1
I0419 15:47:24.839035 10002 net.cpp:84] Creating Layer conv1
I0419 15:47:24.839041 10002 net.cpp:406] conv1 <- data
I0419 15:47:24.839053 10002 net.cpp:380] conv1 -> conv1
I0419 15:47:25.749435 10002 net.cpp:122] Setting up conv1
I0419 15:47:25.749456 10002 net.cpp:129] Top shape: 128 96 55 55 (37171200)
I0419 15:47:25.749460 10002 net.cpp:137] Memory required for data: 227833856
I0419 15:47:25.749480 10002 layer_factory.hpp:77] Creating layer relu1
I0419 15:47:25.749491 10002 net.cpp:84] Creating Layer relu1
I0419 15:47:25.749495 10002 net.cpp:406] relu1 <- conv1
I0419 15:47:25.749500 10002 net.cpp:367] relu1 -> conv1 (in-place)
I0419 15:47:25.749887 10002 net.cpp:122] Setting up relu1
I0419 15:47:25.749898 10002 net.cpp:129] Top shape: 128 96 55 55 (37171200)
I0419 15:47:25.749902 10002 net.cpp:137] Memory required for data: 376518656
I0419 15:47:25.749904 10002 layer_factory.hpp:77] Creating layer norm1
I0419 15:47:25.749913 10002 net.cpp:84] Creating Layer norm1
I0419 15:47:25.749917 10002 net.cpp:406] norm1 <- conv1
I0419 15:47:25.749943 10002 net.cpp:380] norm1 -> norm1
I0419 15:47:25.750548 10002 net.cpp:122] Setting up norm1
I0419 15:47:25.750558 10002 net.cpp:129] Top shape: 128 96 55 55 (37171200)
I0419 15:47:25.750561 10002 net.cpp:137] Memory required for data: 525203456
I0419 15:47:25.750564 10002 layer_factory.hpp:77] Creating layer pool1
I0419 15:47:25.750571 10002 net.cpp:84] Creating Layer pool1
I0419 15:47:25.750574 10002 net.cpp:406] pool1 <- norm1
I0419 15:47:25.750581 10002 net.cpp:380] pool1 -> pool1
I0419 15:47:25.750617 10002 net.cpp:122] Setting up pool1
I0419 15:47:25.750622 10002 net.cpp:129] Top shape: 128 96 27 27 (8957952)
I0419 15:47:25.750624 10002 net.cpp:137] Memory required for data: 561035264
I0419 15:47:25.750627 10002 layer_factory.hpp:77] Creating layer conv2
I0419 15:47:25.750636 10002 net.cpp:84] Creating Layer conv2
I0419 15:47:25.750639 10002 net.cpp:406] conv2 <- pool1
I0419 15:47:25.750645 10002 net.cpp:380] conv2 -> conv2
I0419 15:47:25.758875 10002 net.cpp:122] Setting up conv2
I0419 15:47:25.758893 10002 net.cpp:129] Top shape: 128 256 27 27 (23887872)
I0419 15:47:25.758896 10002 net.cpp:137] Memory required for data: 656586752
I0419 15:47:25.758908 10002 layer_factory.hpp:77] Creating layer relu2
I0419 15:47:25.758914 10002 net.cpp:84] Creating Layer relu2
I0419 15:47:25.758919 10002 net.cpp:406] relu2 <- conv2
I0419 15:47:25.758924 10002 net.cpp:367] relu2 -> conv2 (in-place)
I0419 15:47:25.759492 10002 net.cpp:122] Setting up relu2
I0419 15:47:25.759501 10002 net.cpp:129] Top shape: 128 256 27 27 (23887872)
I0419 15:47:25.759505 10002 net.cpp:137] Memory required for data: 752138240
I0419 15:47:25.759507 10002 layer_factory.hpp:77] Creating layer norm2
I0419 15:47:25.759514 10002 net.cpp:84] Creating Layer norm2
I0419 15:47:25.759517 10002 net.cpp:406] norm2 <- conv2
I0419 15:47:25.759523 10002 net.cpp:380] norm2 -> norm2
I0419 15:47:25.759918 10002 net.cpp:122] Setting up norm2
I0419 15:47:25.759927 10002 net.cpp:129] Top shape: 128 256 27 27 (23887872)
I0419 15:47:25.759929 10002 net.cpp:137] Memory required for data: 847689728
I0419 15:47:25.759933 10002 layer_factory.hpp:77] Creating layer pool2
I0419 15:47:25.759941 10002 net.cpp:84] Creating Layer pool2
I0419 15:47:25.759945 10002 net.cpp:406] pool2 <- norm2
I0419 15:47:25.759950 10002 net.cpp:380] pool2 -> pool2
I0419 15:47:25.759977 10002 net.cpp:122] Setting up pool2
I0419 15:47:25.759982 10002 net.cpp:129] Top shape: 128 256 13 13 (5537792)
I0419 15:47:25.759985 10002 net.cpp:137] Memory required for data: 869840896
I0419 15:47:25.759987 10002 layer_factory.hpp:77] Creating layer conv3
I0419 15:47:25.759999 10002 net.cpp:84] Creating Layer conv3
I0419 15:47:25.760001 10002 net.cpp:406] conv3 <- pool2
I0419 15:47:25.760007 10002 net.cpp:380] conv3 -> conv3
I0419 15:47:25.770692 10002 net.cpp:122] Setting up conv3
I0419 15:47:25.770706 10002 net.cpp:129] Top shape: 128 384 13 13 (8306688)
I0419 15:47:25.770710 10002 net.cpp:137] Memory required for data: 903067648
I0419 15:47:25.770720 10002 layer_factory.hpp:77] Creating layer relu3
I0419 15:47:25.770727 10002 net.cpp:84] Creating Layer relu3
I0419 15:47:25.770731 10002 net.cpp:406] relu3 <- conv3
I0419 15:47:25.770738 10002 net.cpp:367] relu3 -> conv3 (in-place)
I0419 15:47:25.771329 10002 net.cpp:122] Setting up relu3
I0419 15:47:25.771339 10002 net.cpp:129] Top shape: 128 384 13 13 (8306688)
I0419 15:47:25.771342 10002 net.cpp:137] Memory required for data: 936294400
I0419 15:47:25.771345 10002 layer_factory.hpp:77] Creating layer conv4
I0419 15:47:25.771355 10002 net.cpp:84] Creating Layer conv4
I0419 15:47:25.771358 10002 net.cpp:406] conv4 <- conv3
I0419 15:47:25.771365 10002 net.cpp:380] conv4 -> conv4
I0419 15:47:25.782871 10002 net.cpp:122] Setting up conv4
I0419 15:47:25.782891 10002 net.cpp:129] Top shape: 128 384 13 13 (8306688)
I0419 15:47:25.782893 10002 net.cpp:137] Memory required for data: 969521152
I0419 15:47:25.782902 10002 layer_factory.hpp:77] Creating layer relu4
I0419 15:47:25.782912 10002 net.cpp:84] Creating Layer relu4
I0419 15:47:25.782934 10002 net.cpp:406] relu4 <- conv4
I0419 15:47:25.782943 10002 net.cpp:367] relu4 -> conv4 (in-place)
I0419 15:47:25.783491 10002 net.cpp:122] Setting up relu4
I0419 15:47:25.783500 10002 net.cpp:129] Top shape: 128 384 13 13 (8306688)
I0419 15:47:25.783504 10002 net.cpp:137] Memory required for data: 1002747904
I0419 15:47:25.783506 10002 layer_factory.hpp:77] Creating layer conv5
I0419 15:47:25.783517 10002 net.cpp:84] Creating Layer conv5
I0419 15:47:25.783520 10002 net.cpp:406] conv5 <- conv4
I0419 15:47:25.783527 10002 net.cpp:380] conv5 -> conv5
I0419 15:47:25.792919 10002 net.cpp:122] Setting up conv5
I0419 15:47:25.792939 10002 net.cpp:129] Top shape: 128 256 13 13 (5537792)
I0419 15:47:25.792943 10002 net.cpp:137] Memory required for data: 1024899072
I0419 15:47:25.792955 10002 layer_factory.hpp:77] Creating layer relu5
I0419 15:47:25.792963 10002 net.cpp:84] Creating Layer relu5
I0419 15:47:25.792968 10002 net.cpp:406] relu5 <- conv5
I0419 15:47:25.792974 10002 net.cpp:367] relu5 -> conv5 (in-place)
I0419 15:47:25.793525 10002 net.cpp:122] Setting up relu5
I0419 15:47:25.793534 10002 net.cpp:129] Top shape: 128 256 13 13 (5537792)
I0419 15:47:25.793537 10002 net.cpp:137] Memory required for data: 1047050240
I0419 15:47:25.793541 10002 layer_factory.hpp:77] Creating layer pool5
I0419 15:47:25.793547 10002 net.cpp:84] Creating Layer pool5
I0419 15:47:25.793552 10002 net.cpp:406] pool5 <- conv5
I0419 15:47:25.793560 10002 net.cpp:380] pool5 -> pool5
I0419 15:47:25.793597 10002 net.cpp:122] Setting up pool5
I0419 15:47:25.793603 10002 net.cpp:129] Top shape: 128 256 6 6 (1179648)
I0419 15:47:25.793606 10002 net.cpp:137] Memory required for data: 1051768832
I0419 15:47:25.793608 10002 layer_factory.hpp:77] Creating layer fc6
I0419 15:47:25.793620 10002 net.cpp:84] Creating Layer fc6
I0419 15:47:25.793623 10002 net.cpp:406] fc6 <- pool5
I0419 15:47:25.793628 10002 net.cpp:380] fc6 -> fc6
I0419 15:47:26.152330 10002 net.cpp:122] Setting up fc6
I0419 15:47:26.152350 10002 net.cpp:129] Top shape: 128 4096 (524288)
I0419 15:47:26.152354 10002 net.cpp:137] Memory required for data: 1053865984
I0419 15:47:26.152364 10002 layer_factory.hpp:77] Creating layer relu6
I0419 15:47:26.152372 10002 net.cpp:84] Creating Layer relu6
I0419 15:47:26.152376 10002 net.cpp:406] relu6 <- fc6
I0419 15:47:26.152381 10002 net.cpp:367] relu6 -> fc6 (in-place)
I0419 15:47:26.153470 10002 net.cpp:122] Setting up relu6
I0419 15:47:26.153481 10002 net.cpp:129] Top shape: 128 4096 (524288)
I0419 15:47:26.153484 10002 net.cpp:137] Memory required for data: 1055963136
I0419 15:47:26.153488 10002 layer_factory.hpp:77] Creating layer drop6
I0419 15:47:26.153493 10002 net.cpp:84] Creating Layer drop6
I0419 15:47:26.153497 10002 net.cpp:406] drop6 <- fc6
I0419 15:47:26.153501 10002 net.cpp:367] drop6 -> fc6 (in-place)
I0419 15:47:26.153532 10002 net.cpp:122] Setting up drop6
I0419 15:47:26.153535 10002 net.cpp:129] Top shape: 128 4096 (524288)
I0419 15:47:26.153538 10002 net.cpp:137] Memory required for data: 1058060288
I0419 15:47:26.153542 10002 layer_factory.hpp:77] Creating layer fc7
I0419 15:47:26.153548 10002 net.cpp:84] Creating Layer fc7
I0419 15:47:26.153551 10002 net.cpp:406] fc7 <- fc6
I0419 15:47:26.153556 10002 net.cpp:380] fc7 -> fc7
I0419 15:47:26.313269 10002 net.cpp:122] Setting up fc7
I0419 15:47:26.313292 10002 net.cpp:129] Top shape: 128 4096 (524288)
I0419 15:47:26.313294 10002 net.cpp:137] Memory required for data: 1060157440
I0419 15:47:26.313304 10002 layer_factory.hpp:77] Creating layer relu7
I0419 15:47:26.313313 10002 net.cpp:84] Creating Layer relu7
I0419 15:47:26.313316 10002 net.cpp:406] relu7 <- fc7
I0419 15:47:26.313324 10002 net.cpp:367] relu7 -> fc7 (in-place)
I0419 15:47:26.313822 10002 net.cpp:122] Setting up relu7
I0419 15:47:26.313830 10002 net.cpp:129] Top shape: 128 4096 (524288)
I0419 15:47:26.313833 10002 net.cpp:137] Memory required for data: 1062254592
I0419 15:47:26.313836 10002 layer_factory.hpp:77] Creating layer drop7
I0419 15:47:26.313843 10002 net.cpp:84] Creating Layer drop7
I0419 15:47:26.313866 10002 net.cpp:406] drop7 <- fc7
I0419 15:47:26.313874 10002 net.cpp:367] drop7 -> fc7 (in-place)
I0419 15:47:26.313896 10002 net.cpp:122] Setting up drop7
I0419 15:47:26.313903 10002 net.cpp:129] Top shape: 128 4096 (524288)
I0419 15:47:26.313905 10002 net.cpp:137] Memory required for data: 1064351744
I0419 15:47:26.313908 10002 layer_factory.hpp:77] Creating layer fc8
I0419 15:47:26.313915 10002 net.cpp:84] Creating Layer fc8
I0419 15:47:26.313917 10002 net.cpp:406] fc8 <- fc7
I0419 15:47:26.313923 10002 net.cpp:380] fc8 -> fc8
I0419 15:47:26.321746 10002 net.cpp:122] Setting up fc8
I0419 15:47:26.321758 10002 net.cpp:129] Top shape: 128 196 (25088)
I0419 15:47:26.321760 10002 net.cpp:137] Memory required for data: 1064452096
I0419 15:47:26.321768 10002 layer_factory.hpp:77] Creating layer loss
I0419 15:47:26.321774 10002 net.cpp:84] Creating Layer loss
I0419 15:47:26.321777 10002 net.cpp:406] loss <- fc8
I0419 15:47:26.321781 10002 net.cpp:406] loss <- label
I0419 15:47:26.321789 10002 net.cpp:380] loss -> loss
I0419 15:47:26.321797 10002 layer_factory.hpp:77] Creating layer loss
…
I0419 15:47:26.323230 10002 net.cpp:294] The NetState phase (1) differed from the phase (0) specified by a rule in layer train-data
I0419 15:47:26.323364 10002 net.cpp:51] Initializing net from parameters:
state {
phase: TEST
}
layer {
name: "val-data"
type: "Data"
top: "data"
top: "label"
include {
phase: TEST
}
transform_param {
crop_size: 227
mean_file: "/mnt/bigdisk/DIGITS-AMB-2/digits/jobs/20210419-154441-fb73/mean.binaryproto"
}
data_param {
source: "/mnt/bigdisk/DIGITS-AMB-2/digits/jobs/20210419-154441-fb73/val_db"
batch_size: 32
backend: LMDB
}
}
layer {
name: "conv1"
type: "Convolution"
bottom: "data"
top: "conv1"
param {
lr_mult: 1
decay_mult: 1
}
param {
lr_mult: 2
decay_mult: 0
}
convolution_param {
num_output: 96
kernel_size: 11
stride: 4
weight_filler {
type: "gaussian"
std: 0.01
}
bias_filler {
type: "constant"
value: 0
}
}
}
layer {
name: "relu1"
type: "ReLU"
bottom: "conv1"
top: "conv1"
}
layer {
name: "norm1"
type: "LRN"
bottom: "conv1"
top: "norm1"
lrn_param {
local_size: 5
alpha: 0.0001
beta: 0.75
}
}
layer {
name: "pool1"
type: "Pooling"
bottom: "norm1"
top: "pool1"
pooling_param {
pool: MAX
kernel_size: 3
stride: 2
}
}
layer {
name: "conv2"
type: "Convolution"
bottom: "pool1"
top: "conv2"
param {
lr_mult: 1
decay_mult: 1
}
param {
lr_mult: 2
decay_mult: 0
}
convolution_param {
num_output: 256
pad: 2
kernel_size: 5
group: 2
weight_filler {
type: "gaussian"
std: 0.01
}
bias_filler {
type: "constant"
value: 0.1
}
}
}
layer {
name: "relu2"
type: "ReLU"
bottom: "conv2"
top: "conv2"
}
layer {
name: "norm2"
type: "LRN"
bottom: "conv2"
top: "norm2"
lrn_param {
local_size: 5
alpha: 0.0001
beta: 0.75
}
}
layer {
name: "pool2"
type: "Pooling"
bottom: "norm2"
top: "pool2"
pooling_param {
pool: MAX
kernel_size: 3
stride: 2
}
}
layer {
name: "conv3"
type: "Convolution"
bottom: "pool2"
top: "conv3"
param {
lr_mult: 1
decay_mult: 1
}
param {
lr_mult: 2
decay_mult: 0
}
convolution_param {
num_output: 384
pad: 1
kernel_size: 3
weight_filler {
type: "gaussian"
std: 0.01
}
bias_filler {
type: "constant"
value: 0
}
}
}
layer {
name: "relu3"
type: "ReLU"
bottom: "conv3"
top: "conv3"
}
layer {
name: "conv4"
type: "Convolution"
bottom: "conv3"
top: "conv4"
param {
lr_mult: 1
decay_mult: 1
}
param {
lr_mult: 2
decay_mult: 0
}
convolution_param {
num_output: 384
pad: 1
kernel_size: 3
group: 2
weight_filler {
type: "gaussian"
std: 0.01
}
bias_filler {
type: "constant"
value: 0.1
}
}
}
layer {
name: "relu4"
type: "ReLU"
bottom: "conv4"
top: "conv4"
}
layer {
name: "conv5"
type: "Convolution"
bottom: "conv4"
top: "conv5"
param {
lr_mult: 1
decay_mult: 1
}
param {
lr_mult: 2
decay_mult: 0
}
convolution_param {
num_output: 256
pad: 1
kernel_size: 3
group: 2
weight_filler {
type: "gaussian"
std: 0.01
}
bias_filler {
type: "constant"
value: 0.1
}
}
}
layer {
name: "relu5"
type: "ReLU"
bottom: "conv5"
top: "conv5"
}
layer {
name: "pool5"
type: "Pooling"
bottom: "conv5"
top: "pool5"
pooling_param {
pool: MAX
kernel_size: 3
stride: 2
}
}
layer {
name: "fc6"
type: "InnerProduct"
bottom: "pool5"
top: "fc6"
param {
lr_mult: 1
decay_mult: 1
}
param {
lr_mult: 2
decay_mult: 0
}
inner_product_param {
num_output: 4096
weight_filler {
type: "gaussian"
std: 0.005
}
bias_filler {
type: "constant"
value: 0.1
}
}
}
layer {
name: "relu6"
type: "ReLU"
bottom: "fc6"
top: "fc6"
}
layer {
name: "drop6"
type: "Dropout"
bottom: "fc6"
top: "fc6"
dropout_param {
dropout_ratio: 0.5
}
}
layer {
name: "fc7"
type: "InnerProduct"
bottom: "fc6"
top: "fc7"
param {
lr_mult: 1
decay_mult: 1
}
param {
lr_mult: 2
decay_mult: 0
}
inner_product_param {
num_output: 4096
weight_filler {
type: "gaussian"
std: 0.005
}
bias_filler {
type: "constant"
value: 0.1
}
}
}
layer {
name: "relu7"
type: "ReLU"
bottom: "fc7"
top: "fc7"
}
layer {
name: "drop7"
type: "Dropout"
bottom: "fc7"
top: "fc7"
dropout_param {
dropout_ratio: 0.5
}
}
layer {
name: "fc8"
type: "InnerProduct"
bottom: "fc7"
top: "fc8"
param {
lr_mult: 1
decay_mult: 1
}
param {
lr_mult: 2
decay_mult: 0
}
inner_product_param {
num_output: 196
weight_filler {
type: "gaussian"
std: 0.01
}
bias_filler {
type: "constant"
value: 0
}
}
}
layer {
name: "accuracy"
type: "Accuracy"
bottom: "fc8"
bottom: "label"
top: "accuracy"
include {
phase: TEST
}
}
layer {
name: "loss"
type: "SoftmaxWithLoss"
bottom: "fc8"
bottom: "label"
top: "loss"
}
I0419 15:47:26.323473 10002 layer_factory.hpp:77] Creating layer val-data
I0419 15:47:26.325619 10002 db_lmdb.cpp:35] Opened lmdb /mnt/bigdisk/DIGITS-AMB-2/digits/jobs/20210419-154441-fb73/val_db
I0419 15:47:26.326300 10002 net.cpp:84] Creating Layer val-data
I0419 15:47:26.326310 10002 net.cpp:380] val-data -> data
I0419 15:47:26.326318 10002 net.cpp:380] val-data -> label
I0419 15:47:26.326326 10002 data_transformer.cpp:25] Loading mean file from: /mnt/bigdisk/DIGITS-AMB-2/digits/jobs/20210419-154441-fb73/mean.binaryproto
I0419 15:47:26.329963 10002 data_layer.cpp:45] output data size: 32,3,227,227
I0419 15:47:26.363029 10002 net.cpp:122] Setting up val-data
I0419 15:47:26.363050 10002 net.cpp:129] Top shape: 32 3 227 227 (4946784)
I0419 15:47:26.363054 10002 net.cpp:129] Top shape: 32 (32)
I0419 15:47:26.363057 10002 net.cpp:137] Memory required for data: 19787264
I0419 15:47:26.363062 10002 layer_factory.hpp:77] Creating layer label_val-data_1_split
I0419 15:47:26.363073 10002 net.cpp:84] Creating Layer label_val-data_1_split
I0419 15:47:26.363077 10002 net.cpp:406] label_val-data_1_split <- label
I0419 15:47:26.363083 10002 net.cpp:380] label_val-data_1_split -> label_val-data_1_split_0
I0419 15:47:26.363093 10002 net.cpp:380] label_val-data_1_split -> label_val-data_1_split_1
I0419 15:47:26.363138 10002 net.cpp:122] Setting up label_val-data_1_split
I0419 15:47:26.363143 10002 net.cpp:129] Top shape: 32 (32)
I0419 15:47:26.363147 10002 net.cpp:129] Top shape: 32 (32)
I0419 15:47:26.363149 10002 net.cpp:137] Memory required for data: 19787520
I0419 15:47:26.363152 10002 layer_factory.hpp:77] Creating layer conv1
I0419 15:47:26.363162 10002 net.cpp:84] Creating Layer conv1
I0419 15:47:26.363165 10002 net.cpp:406] conv1 <- data
I0419 15:47:26.363170 10002 net.cpp:380] conv1 -> conv1
I0419 15:47:26.366156 10002 net.cpp:122] Setting up conv1
I0419 15:47:26.366168 10002 net.cpp:129] Top shape: 32 96 55 55 (9292800)
I0419 15:47:26.366170 10002 net.cpp:137] Memory required for data: 56958720
I0419 15:47:26.366180 10002 layer_factory.hpp:77] Creating layer relu1
I0419 15:47:26.366186 10002 net.cpp:84] Creating Layer relu1
I0419 15:47:26.366189 10002 net.cpp:406] relu1 <- conv1
I0419 15:47:26.366194 10002 net.cpp:367] relu1 -> conv1 (in-place)
I0419 15:47:26.366525 10002 net.cpp:122] Setting up relu1
I0419 15:47:26.366535 10002 net.cpp:129] Top shape: 32 96 55 55 (9292800)
I0419 15:47:26.366539 10002 net.cpp:137] Memory required for data: 94129920
I0419 15:47:26.366541 10002 layer_factory.hpp:77] Creating layer norm1
I0419 15:47:26.366549 10002 net.cpp:84] Creating Layer norm1
I0419 15:47:26.366552 10002 net.cpp:406] norm1 <- conv1
I0419 15:47:26.366557 10002 net.cpp:380] norm1 -> norm1
I0419 15:47:26.367063 10002 net.cpp:122] Setting up norm1
I0419 15:47:26.367072 10002 net.cpp:129] Top shape: 32 96 55 55 (9292800)
I0419 15:47:26.367075 10002 net.cpp:137] Memory required for data: 131301120
I0419 15:47:26.367079 10002 layer_factory.hpp:77] Creating layer pool1
I0419 15:47:26.367084 10002 net.cpp:84] Creating Layer pool1
I0419 15:47:26.367089 10002 net.cpp:406] pool1 <- norm1
I0419 15:47:26.367092 10002 net.cpp:380] pool1 -> pool1
I0419 15:47:26.367117 10002 net.cpp:122] Setting up pool1
I0419 15:47:26.367122 10002 net.cpp:129] Top shape: 32 96 27 27 (2239488)
I0419 15:47:26.367125 10002 net.cpp:137] Memory required for data: 140259072
I0419 15:47:26.367127 10002 layer_factory.hpp:77] Creating layer conv2
I0419 15:47:26.367134 10002 net.cpp:84] Creating Layer conv2
I0419 15:47:26.367137 10002 net.cpp:406] conv2 <- pool1
I0419 15:47:26.367161 10002 net.cpp:380] conv2 -> conv2
I0419 15:47:26.376087 10002 net.cpp:122] Setting up conv2
I0419 15:47:26.376102 10002 net.cpp:129] Top shape: 32 256 27 27 (5971968)
I0419 15:47:26.376106 10002 net.cpp:137] Memory required for data: 164146944
I0419 15:47:26.376116 10002 layer_factory.hpp:77] Creating layer relu2
I0419 15:47:26.376124 10002 net.cpp:84] Creating Layer relu2
I0419 15:47:26.376128 10002 net.cpp:406] relu2 <- conv2
I0419 15:47:26.376133 10002 net.cpp:367] relu2 -> conv2 (in-place)
I0419 15:47:26.376700 10002 net.cpp:122] Setting up relu2
I0419 15:47:26.376709 10002 net.cpp:129] Top shape: 32 256 27 27 (5971968)
I0419 15:47:26.376713 10002 net.cpp:137] Memory required for data: 188034816
I0419 15:47:26.376715 10002 layer_factory.hpp:77] Creating layer norm2
I0419 15:47:26.376725 10002 net.cpp:84] Creating Layer norm2
I0419 15:47:26.376729 10002 net.cpp:406] norm2 <- conv2
I0419 15:47:26.376734 10002 net.cpp:380] norm2 -> norm2
I0419 15:47:26.377490 10002 net.cpp:122] Setting up norm2
I0419 15:47:26.377499 10002 net.cpp:129] Top shape: 32 256 27 27 (5971968)
I0419 15:47:26.377501 10002 net.cpp:137] Memory required for data: 211922688
I0419 15:47:26.377506 10002 layer_factory.hpp:77] Creating layer pool2
I0419 15:47:26.377511 10002 net.cpp:84] Creating Layer pool2
I0419 15:47:26.377514 10002 net.cpp:406] pool2 <- norm2
I0419 15:47:26.377519 10002 net.cpp:380] pool2 -> pool2
I0419 15:47:26.377549 10002 net.cpp:122] Setting up pool2
I0419 15:47:26.377554 10002 net.cpp:129] Top shape: 32 256 13 13 (1384448)
I0419 15:47:26.377557 10002 net.cpp:137] Memory required for data: 217460480
I0419 15:47:26.377559 10002 layer_factory.hpp:77] Creating layer conv3
I0419 15:47:26.377570 10002 net.cpp:84] Creating Layer conv3
I0419 15:47:26.377573 10002 net.cpp:406] conv3 <- pool2
I0419 15:47:26.377578 10002 net.cpp:380] conv3 -> conv3
I0419 15:47:26.389389 10002 net.cpp:122] Setting up conv3
I0419 15:47:26.389408 10002 net.cpp:129] Top shape: 32 384 13 13 (2076672)
I0419 15:47:26.389411 10002 net.cpp:137] Memory required for data: 225767168
I0419 15:47:26.389425 10002 layer_factory.hpp:77] Creating layer relu3
I0419 15:47:26.389433 10002 net.cpp:84] Creating Layer relu3
I0419 15:47:26.389438 10002 net.cpp:406] relu3 <- conv3
I0419 15:47:26.389443 10002 net.cpp:367] relu3 -> conv3 (in-place)
I0419 15:47:26.390026 10002 net.cpp:122] Setting up relu3
I0419 15:47:26.390036 10002 net.cpp:129] Top shape: 32 384 13 13 (2076672)
I0419 15:47:26.390039 10002 net.cpp:137] Memory required for data: 234073856
I0419 15:47:26.390043 10002 layer_factory.hpp:77] Creating layer conv4
I0419 15:47:26.390053 10002 net.cpp:84] Creating Layer conv4
I0419 15:47:26.390056 10002 net.cpp:406] conv4 <- conv3
I0419 15:47:26.390064 10002 net.cpp:380] conv4 -> conv4
I0419 15:47:26.400425 10002 net.cpp:122] Setting up conv4
I0419 15:47:26.400441 10002 net.cpp:129] Top shape: 32 384 13 13 (2076672)
I0419 15:47:26.400444 10002 net.cpp:137] Memory required for data: 242380544
I0419 15:47:26.400454 10002 layer_factory.hpp:77] Creating layer relu4
I0419 15:47:26.400462 10002 net.cpp:84] Creating Layer relu4
I0419 15:47:26.400466 10002 net.cpp:406] relu4 <- conv4
I0419 15:47:26.400473 10002 net.cpp:367] relu4 -> conv4 (in-place)
I0419 15:47:26.400857 10002 net.cpp:122] Setting up relu4
I0419 15:47:26.400867 10002 net.cpp:129] Top shape: 32 384 13 13 (2076672)
I0419 15:47:26.400869 10002 net.cpp:137] Memory required for data: 250687232
I0419 15:47:26.400873 10002 layer_factory.hpp:77] Creating layer conv5
I0419 15:47:26.400887 10002 net.cpp:84] Creating Layer conv5
I0419 15:47:26.400892 10002 net.cpp:406] conv5 <- conv4
I0419 15:47:26.400897 10002 net.cpp:380] conv5 -> conv5
I0419 15:47:26.410679 10002 net.cpp:122] Setting up conv5
I0419 15:47:26.410698 10002 net.cpp:129] Top shape: 32 256 13 13 (1384448)
I0419 15:47:26.410701 10002 net.cpp:137] Memory required for data: 256225024
I0419 15:47:26.410715 10002 layer_factory.hpp:77] Creating layer relu5
I0419 15:47:26.410724 10002 net.cpp:84] Creating Layer relu5
I0419 15:47:26.410728 10002 net.cpp:406] relu5 <- conv5
I0419 15:47:26.410754 10002 net.cpp:367] relu5 -> conv5 (in-place)
I0419 15:47:26.411321 10002 net.cpp:122] Setting up relu5
I0419 15:47:26.411330 10002 net.cpp:129] Top shape: 32 256 13 13 (1384448)
I0419 15:47:26.411334 10002 net.cpp:137] Memory required for data: 261762816
I0419 15:47:26.411336 10002 layer_factory.hpp:77] Creating layer pool5
I0419 15:47:26.411347 10002 net.cpp:84] Creating Layer pool5
I0419 15:47:26.411351 10002 net.cpp:406] pool5 <- conv5
I0419 15:47:26.411356 10002 net.cpp:380] pool5 -> pool5
I0419 15:47:26.411392 10002 net.cpp:122] Setting up pool5
I0419 15:47:26.411399 10002 net.cpp:129] Top shape: 32 256 6 6 (294912)
I0419 15:47:26.411402 10002 net.cpp:137] Memory required for data: 262942464
I0419 15:47:26.411406 10002 layer_factory.hpp:77] Creating layer fc6
I0419 15:47:26.411412 10002 net.cpp:84] Creating Layer fc6
I0419 15:47:26.411414 10002 net.cpp:406] fc6 <- pool5
I0419 15:47:26.411419 10002 net.cpp:380] fc6 -> fc6
I0419 15:47:26.770109 10002 net.cpp:122] Setting up fc6
I0419 15:47:26.770129 10002 net.cpp:129] Top shape: 32 4096 (131072)
I0419 15:47:26.770133 10002 net.cpp:137] Memory required for data: 263466752
I0419 15:47:26.770141 10002 layer_factory.hpp:77] Creating layer relu6
I0419 15:47:26.770149 10002 net.cpp:84] Creating Layer relu6
I0419 15:47:26.770153 10002 net.cpp:406] relu6 <- fc6
I0419 15:47:26.770159 10002 net.cpp:367] relu6 -> fc6 (in-place)
I0419 15:47:26.770941 10002 net.cpp:122] Setting up relu6
I0419 15:47:26.770951 10002 net.cpp:129] Top shape: 32 4096 (131072)
I0419 15:47:26.770953 10002 net.cpp:137] Memory required for data: 263991040
I0419 15:47:26.770957 10002 layer_factory.hpp:77] Creating layer drop6
I0419 15:47:26.770964 10002 net.cpp:84] Creating Layer drop6
I0419 15:47:26.770967 10002 net.cpp:406] drop6 <- fc6
I0419 15:47:26.770972 10002 net.cpp:367] drop6 -> fc6 (in-place)
I0419 15:47:26.770996 10002 net.cpp:122] Setting up drop6
I0419 15:47:26.771001 10002 net.cpp:129] Top shape: 32 4096 (131072)
I0419 15:47:26.771003 10002 net.cpp:137] Memory required for data: 264515328
I0419 15:47:26.771006 10002 layer_factory.hpp:77] Creating layer fc7
I0419 15:47:26.771014 10002 net.cpp:84] Creating Layer fc7
I0419 15:47:26.771018 10002 net.cpp:406] fc7 <- fc6
I0419 15:47:26.771021 10002 net.cpp:380] fc7 -> fc7
I0419 15:47:26.947611 10002 net.cpp:122] Setting up fc7
I0419 15:47:26.947634 10002 net.cpp:129] Top shape: 32 4096 (131072)
I0419 15:47:26.947638 10002 net.cpp:137] Memory required for data: 265039616
I0419 15:47:26.947647 10002 layer_factory.hpp:77] Creating layer relu7
I0419 15:47:26.947657 10002 net.cpp:84] Creating Layer relu7
I0419 15:47:26.947661 10002 net.cpp:406] relu7 <- fc7
I0419 15:47:26.947669 10002 net.cpp:367] relu7 -> fc7 (in-place)
I0419 15:47:26.948204 10002 net.cpp:122] Setting up relu7
I0419 15:47:26.948215 10002 net.cpp:129] Top shape: 32 4096 (131072)
I0419 15:47:26.948218 10002 net.cpp:137] Memory required for data: 265563904
I0419 15:47:26.948222 10002 layer_factory.hpp:77] Creating layer drop7
I0419 15:47:26.948228 10002 net.cpp:84] Creating Layer drop7
I0419 15:47:26.948231 10002 net.cpp:406] drop7 <- fc7
I0419 15:47:26.948238 10002 net.cpp:367] drop7 -> fc7 (in-place)
I0419 15:47:26.948264 10002 net.cpp:122] Setting up drop7
I0419 15:47:26.948268 10002 net.cpp:129] Top shape: 32 4096 (131072)
I0419 15:47:26.948271 10002 net.cpp:137] Memory required for data: 266088192
I0419 15:47:26.948274 10002 layer_factory.hpp:77] Creating layer fc8
I0419 15:47:26.948282 10002 net.cpp:84] Creating Layer fc8
I0419 15:47:26.948285 10002 net.cpp:406] fc8 <- fc7
I0419 15:47:26.948292 10002 net.cpp:380] fc8 -> fc8
I0419 15:47:26.956172 10002 net.cpp:122] Setting up fc8
I0419 15:47:26.956184 10002 net.cpp:129] Top shape: 32 196 (6272)
I0419 15:47:26.956187 10002 net.cpp:137] Memory required for data: 266113280
I0419 15:47:26.956194 10002 layer_factory.hpp:77] Creating layer fc8_fc8_0_split
I0419 15:47:26.956202 10002 net.cpp:84] Creating Layer fc8_fc8_0_split
I0419 15:47:26.956207 10002 net.cpp:406] fc8_fc8_0_split <- fc8
I0419 15:47:26.956233 10002 net.cpp:380] fc8_fc8_0_split -> fc8_fc8_0_split_0
I0419 15:47:26.956241 10002 net.cpp:380] fc8_fc8_0_split -> fc8_fc8_0_split_1
I0419 15:47:26.956272 10002 net.cpp:122] Setting up fc8_fc8_0_split
I0419 15:47:26.956277 10002 net.cpp:129] Top shape: 32 196 (6272)
I0419 15:47:26.956280 10002 net.cpp:129] Top shape: 32 196 (6272)
I0419 15:47:26.956283 10002 net.cpp:137] Memory required for data: 266163456
I0419 15:47:26.956285 10002 layer_factory.hpp:77] Creating layer accuracy
I0419 15:47:26.956291 10002 net.cpp:84] Creating Layer accuracy
I0419 15:47:26.956295 10002 net.cpp:406] accuracy <- fc8_fc8_0_split_0
I0419 15:47:26.956298 10002 net.cpp:406] accuracy <- label_val-data_1_split_0
I0419 15:47:26.956305 10002 net.cpp:380] accuracy -> accuracy
…
