…
I0410 13:29:53.989920 18534 net.cpp:294] The NetState phase (0) differed from the phase (1) specified by a rule in layer accuracy
I0410 13:29:53.990103 18534 net.cpp:51] Initializing net from parameters:
state {
phase: TRAIN
level: 0
stage: ""
}
layer {
name: "train-data"
type: "Data"
top: "data"
top: "label"
include {
phase: TRAIN
}
transform_param {
mirror: true
crop_size: 227
mean_file: "/mnt/bigdisk/DIGITS-MAN-2/digits/jobs/20210407-214532-d396/mean.binaryproto"
}
data_param {
source: "/mnt/bigdisk/DIGITS-MAN-2/digits/jobs/20210407-214532-d396/train_db"
batch_size: 128
backend: LMDB
}
}
layer {
name: "conv1"
type: "Convolution"
bottom: "data"
top: "conv1"
param {
lr_mult: 1
decay_mult: 1
}
param {
lr_mult: 2
decay_mult: 0
}
convolution_param {
num_output: 96
kernel_size: 11
stride: 4
weight_filler {
type: "gaussian"
std: 0.01
}
bias_filler {
type: "constant"
value: 0
}
}
}
layer {
name: "relu1"
type: "ReLU"
bottom: "conv1"
top: "conv1"
}
layer {
name: "norm1"
type: "LRN"
bottom: "conv1"
top: "norm1"
lrn_param {
local_size: 5
alpha: 0.0001
beta: 0.75
}
}
layer {
name: "pool1"
type: "Pooling"
bottom: "norm1"
top: "pool1"
pooling_param {
pool: MAX
kernel_size: 3
stride: 2
}
}
layer {
name: "conv2"
type: "Convolution"
bottom: "pool1"
top: "conv2"
param {
lr_mult: 1
decay_mult: 1
}
param {
lr_mult: 2
decay_mult: 0
}
convolution_param {
num_output: 256
pad: 2
kernel_size: 5
group: 2
weight_filler {
type: "gaussian"
std: 0.01
}
bias_filler {
type: "constant"
value: 0.1
}
}
}
layer {
name: "relu2"
type: "ReLU"
bottom: "conv2"
top: "conv2"
}
layer {
name: "norm2"
type: "LRN"
bottom: "conv2"
top: "norm2"
lrn_param {
local_size: 5
alpha: 0.0001
beta: 0.75
}
}
layer {
name: "pool2"
type: "Pooling"
bottom: "norm2"
top: "pool2"
pooling_param {
pool: MAX
kernel_size: 3
stride: 2
}
}
layer {
name: "conv3"
type: "Convolution"
bottom: "pool2"
top: "conv3"
param {
lr_mult: 1
decay_mult: 1
}
param {
lr_mult: 2
decay_mult: 0
}
convolution_param {
num_output: 384
pad: 1
kernel_size: 3
weight_filler {
type: "gaussian"
std: 0.01
}
bias_filler {
type: "constant"
value: 0
}
}
}
layer {
name: "relu3"
type: "ReLU"
bottom: "conv3"
top: "conv3"
}
layer {
name: "conv4"
type: "Convolution"
bottom: "conv3"
top: "conv4"
param {
lr_mult: 1
decay_mult: 1
}
param {
lr_mult: 2
decay_mult: 0
}
convolution_param {
num_output: 384
pad: 1
kernel_size: 3
group: 2
weight_filler {
type: "gaussian"
std: 0.01
}
bias_filler {
type: "constant"
value: 0.1
}
}
}
layer {
name: "relu4"
type: "ReLU"
bottom: "conv4"
top: "conv4"
}
layer {
name: "conv5"
type: "Convolution"
bottom: "conv4"
top: "conv5"
param {
lr_mult: 1
decay_mult: 1
}
param {
lr_mult: 2
decay_mult: 0
}
convolution_param {
num_output: 256
pad: 1
kernel_size: 3
group: 2
weight_filler {
type: "gaussian"
std: 0.01
}
bias_filler {
type: "constant"
value: 0.1
}
}
}
layer {
name: "relu5"
type: "ReLU"
bottom: "conv5"
top: "conv5"
}
layer {
name: "pool5"
type: "Pooling"
bottom: "conv5"
top: "pool5"
pooling_param {
pool: MAX
kernel_size: 3
stride: 2
}
}
layer {
name: "fc6"
type: "InnerProduct"
bottom: "pool5"
top: "fc6"
param {
lr_mult: 1
decay_mult: 1
}
param {
lr_mult: 2
decay_mult: 0
}
inner_product_param {
num_output: 256
weight_filler {
type: "gaussian"
std: 0.005
}
bias_filler {
type: "constant"
value: 0.1
}
}
}
layer {
name: "relu6"
type: "ReLU"
bottom: "fc6"
top: "fc6"
}
layer {
name: "drop6"
type: "Dropout"
bottom: "fc6"
top: "fc6"
dropout_param {
dropout_ratio: 0.5
}
}
layer {
name: "fc7"
type: "InnerProduct"
bottom: "fc6"
top: "fc7"
param {
lr_mult: 1
decay_mult: 1
}
param {
lr_mult: 2
decay_mult: 0
}
inner_product_param {
num_output: 256
weight_filler {
type: "gaussian"
std: 0.005
}
bias_filler {
type: "constant"
value: 0.1
}
}
}
layer {
name: "relu7"
type: "ReLU"
bottom: "fc7"
top: "fc7"
}
layer {
name: "drop7"
type: "Dropout"
bottom: "fc7"
top: "fc7"
dropout_param {
dropout_ratio: 0.5
}
}
layer {
name: "fc7.5"
type: "InnerProduct"
bottom: "fc7"
top: "fc7.5"
param {
lr_mult: 1
decay_mult: 1
}
param {
lr_mult: 2
decay_mult: 0
}
inner_product_param {
num_output: 256
weight_filler {
type: "gaussian"
std: 0.005
}
bias_filler {
type: "constant"
value: 0.1
}
}
}
layer {
name: "relu7.5"
type: "ReLU"
bottom: "fc7.5"
top: "fc7.5"
}
layer {
name: "drop7.5"
type: "Dropout"
bottom: "fc7.5"
top: "fc7.5"
dropout_param {
dropout_ratio: 0.5
}
}
layer {
name: "fc8"
type: "InnerProduct"
bottom: "fc7.5"
top: "fc8"
param {
lr_mult: 1
decay_mult: 1
}
param {
lr_mult: 2
decay_mult: 0
}
inner_product_param {
num_output: 196
weight_filler {
type: "gaussian"
std: 0.01
}
bias_filler {
type: "constant"
value: 0
}
}
}
layer {
name: "loss"
type: "SoftmaxWithLoss"
bottom: "fc8"
bottom: "label"
top: "loss"
}
I0410 13:29:53.990195 18534 layer_factory.hpp:77] Creating layer train-data
I0410 13:29:53.992305 18534 db_lmdb.cpp:35] Opened lmdb /mnt/bigdisk/DIGITS-MAN-2/digits/jobs/20210407-214532-d396/train_db
I0410 13:29:53.992511 18534 net.cpp:84] Creating Layer train-data
I0410 13:29:53.992522 18534 net.cpp:380] train-data -> data
I0410 13:29:53.992542 18534 net.cpp:380] train-data -> label
I0410 13:29:53.992552 18534 data_transformer.cpp:25] Loading mean file from: /mnt/bigdisk/DIGITS-MAN-2/digits/jobs/20210407-214532-d396/mean.binaryproto
I0410 13:29:53.997439 18534 data_layer.cpp:45] output data size: 128,3,227,227
I0410 13:29:54.124639 18534 net.cpp:122] Setting up train-data
I0410 13:29:54.124661 18534 net.cpp:129] Top shape: 128 3 227 227 (19787136)
I0410 13:29:54.124666 18534 net.cpp:129] Top shape: 128 (128)
I0410 13:29:54.124671 18534 net.cpp:137] Memory required for data: 79149056
I0410 13:29:54.124681 18534 layer_factory.hpp:77] Creating layer conv1
I0410 13:29:54.124701 18534 net.cpp:84] Creating Layer conv1
I0410 13:29:54.124707 18534 net.cpp:406] conv1 <- data
I0410 13:29:54.124719 18534 net.cpp:380] conv1 -> conv1
I0410 13:29:54.706710 18534 net.cpp:122] Setting up conv1
I0410 13:29:54.706732 18534 net.cpp:129] Top shape: 128 96 55 55 (37171200)
I0410 13:29:54.706737 18534 net.cpp:137] Memory required for data: 227833856
I0410 13:29:54.706758 18534 layer_factory.hpp:77] Creating layer relu1
I0410 13:29:54.706787 18534 net.cpp:84] Creating Layer relu1
I0410 13:29:54.706791 18534 net.cpp:406] relu1 <- conv1
I0410 13:29:54.706797 18534 net.cpp:367] relu1 -> conv1 (in-place)
I0410 13:29:54.707087 18534 net.cpp:122] Setting up relu1
I0410 13:29:54.707094 18534 net.cpp:129] Top shape: 128 96 55 55 (37171200)
I0410 13:29:54.707098 18534 net.cpp:137] Memory required for data: 376518656
I0410 13:29:54.707103 18534 layer_factory.hpp:77] Creating layer norm1
I0410 13:29:54.707111 18534 net.cpp:84] Creating Layer norm1
I0410 13:29:54.707114 18534 net.cpp:406] norm1 <- conv1
I0410 13:29:54.707119 18534 net.cpp:380] norm1 -> norm1
I0410 13:29:54.707556 18534 net.cpp:122] Setting up norm1
I0410 13:29:54.707566 18534 net.cpp:129] Top shape: 128 96 55 55 (37171200)
I0410 13:29:54.707569 18534 net.cpp:137] Memory required for data: 525203456
I0410 13:29:54.707573 18534 layer_factory.hpp:77] Creating layer pool1
I0410 13:29:54.707581 18534 net.cpp:84] Creating Layer pool1
I0410 13:29:54.707584 18534 net.cpp:406] pool1 <- norm1
I0410 13:29:54.707589 18534 net.cpp:380] pool1 -> pool1
I0410 13:29:54.707625 18534 net.cpp:122] Setting up pool1
I0410 13:29:54.707633 18534 net.cpp:129] Top shape: 128 96 27 27 (8957952)
I0410 13:29:54.707635 18534 net.cpp:137] Memory required for data: 561035264
I0410 13:29:54.707639 18534 layer_factory.hpp:77] Creating layer conv2
I0410 13:29:54.707649 18534 net.cpp:84] Creating Layer conv2
I0410 13:29:54.707653 18534 net.cpp:406] conv2 <- pool1
I0410 13:29:54.707657 18534 net.cpp:380] conv2 -> conv2
I0410 13:29:54.716485 18534 net.cpp:122] Setting up conv2
I0410 13:29:54.716496 18534 net.cpp:129] Top shape: 128 256 27 27 (23887872)
I0410 13:29:54.716500 18534 net.cpp:137] Memory required for data: 656586752
I0410 13:29:54.716508 18534 layer_factory.hpp:77] Creating layer relu2
I0410 13:29:54.716516 18534 net.cpp:84] Creating Layer relu2
I0410 13:29:54.716519 18534 net.cpp:406] relu2 <- conv2
I0410 13:29:54.716526 18534 net.cpp:367] relu2 -> conv2 (in-place)
I0410 13:29:54.717005 18534 net.cpp:122] Setting up relu2
I0410 13:29:54.717015 18534 net.cpp:129] Top shape: 128 256 27 27 (23887872)
I0410 13:29:54.717020 18534 net.cpp:137] Memory required for data: 752138240
I0410 13:29:54.717022 18534 layer_factory.hpp:77] Creating layer norm2
I0410 13:29:54.717031 18534 net.cpp:84] Creating Layer norm2
I0410 13:29:54.717034 18534 net.cpp:406] norm2 <- conv2
I0410 13:29:54.717041 18534 net.cpp:380] norm2 -> norm2
I0410 13:29:54.717384 18534 net.cpp:122] Setting up norm2
I0410 13:29:54.717396 18534 net.cpp:129] Top shape: 128 256 27 27 (23887872)
I0410 13:29:54.717401 18534 net.cpp:137] Memory required for data: 847689728
I0410 13:29:54.717406 18534 layer_factory.hpp:77] Creating layer pool2
I0410 13:29:54.717414 18534 net.cpp:84] Creating Layer pool2
I0410 13:29:54.717419 18534 net.cpp:406] pool2 <- norm2
I0410 13:29:54.717428 18534 net.cpp:380] pool2 -> pool2
I0410 13:29:54.717469 18534 net.cpp:122] Setting up pool2
I0410 13:29:54.717476 18534 net.cpp:129] Top shape: 128 256 13 13 (5537792)
I0410 13:29:54.717481 18534 net.cpp:137] Memory required for data: 869840896
I0410 13:29:54.717485 18534 layer_factory.hpp:77] Creating layer conv3
I0410 13:29:54.717501 18534 net.cpp:84] Creating Layer conv3
I0410 13:29:54.717506 18534 net.cpp:406] conv3 <- pool2
I0410 13:29:54.717514 18534 net.cpp:380] conv3 -> conv3
I0410 13:29:54.732287 18534 net.cpp:122] Setting up conv3
I0410 13:29:54.732301 18534 net.cpp:129] Top shape: 128 384 13 13 (8306688)
I0410 13:29:54.732306 18534 net.cpp:137] Memory required for data: 903067648
I0410 13:29:54.732316 18534 layer_factory.hpp:77] Creating layer relu3
I0410 13:29:54.732326 18534 net.cpp:84] Creating Layer relu3
I0410 13:29:54.732329 18534 net.cpp:406] relu3 <- conv3
I0410 13:29:54.732334 18534 net.cpp:367] relu3 -> conv3 (in-place)
I0410 13:29:54.732810 18534 net.cpp:122] Setting up relu3
I0410 13:29:54.732820 18534 net.cpp:129] Top shape: 128 384 13 13 (8306688)
I0410 13:29:54.732822 18534 net.cpp:137] Memory required for data: 936294400
I0410 13:29:54.732826 18534 layer_factory.hpp:77] Creating layer conv4
I0410 13:29:54.732853 18534 net.cpp:84] Creating Layer conv4
I0410 13:29:54.732858 18534 net.cpp:406] conv4 <- conv3
I0410 13:29:54.732864 18534 net.cpp:380] conv4 -> conv4
I0410 13:29:54.743155 18534 net.cpp:122] Setting up conv4
I0410 13:29:54.743170 18534 net.cpp:129] Top shape: 128 384 13 13 (8306688)
I0410 13:29:54.743175 18534 net.cpp:137] Memory required for data: 969521152
I0410 13:29:54.743182 18534 layer_factory.hpp:77] Creating layer relu4
I0410 13:29:54.743191 18534 net.cpp:84] Creating Layer relu4
I0410 13:29:54.743194 18534 net.cpp:406] relu4 <- conv4
I0410 13:29:54.743199 18534 net.cpp:367] relu4 -> conv4 (in-place)
I0410 13:29:54.743535 18534 net.cpp:122] Setting up relu4
I0410 13:29:54.743543 18534 net.cpp:129] Top shape: 128 384 13 13 (8306688)
I0410 13:29:54.743546 18534 net.cpp:137] Memory required for data: 1002747904
I0410 13:29:54.743549 18534 layer_factory.hpp:77] Creating layer conv5
I0410 13:29:54.743561 18534 net.cpp:84] Creating Layer conv5
I0410 13:29:54.743563 18534 net.cpp:406] conv5 <- conv4
I0410 13:29:54.743571 18534 net.cpp:380] conv5 -> conv5
I0410 13:29:54.752957 18534 net.cpp:122] Setting up conv5
I0410 13:29:54.752971 18534 net.cpp:129] Top shape: 128 256 13 13 (5537792)
I0410 13:29:54.752975 18534 net.cpp:137] Memory required for data: 1024899072
I0410 13:29:54.752987 18534 layer_factory.hpp:77] Creating layer relu5
I0410 13:29:54.752995 18534 net.cpp:84] Creating Layer relu5
I0410 13:29:54.752998 18534 net.cpp:406] relu5 <- conv5
I0410 13:29:54.753006 18534 net.cpp:367] relu5 -> conv5 (in-place)
I0410 13:29:54.753476 18534 net.cpp:122] Setting up relu5
I0410 13:29:54.753485 18534 net.cpp:129] Top shape: 128 256 13 13 (5537792)
I0410 13:29:54.753489 18534 net.cpp:137] Memory required for data: 1047050240
I0410 13:29:54.753492 18534 layer_factory.hpp:77] Creating layer pool5
I0410 13:29:54.753500 18534 net.cpp:84] Creating Layer pool5
I0410 13:29:54.753504 18534 net.cpp:406] pool5 <- conv5
I0410 13:29:54.753509 18534 net.cpp:380] pool5 -> pool5
I0410 13:29:54.753547 18534 net.cpp:122] Setting up pool5
I0410 13:29:54.753553 18534 net.cpp:129] Top shape: 128 256 6 6 (1179648)
I0410 13:29:54.753556 18534 net.cpp:137] Memory required for data: 1051768832
I0410 13:29:54.753559 18534 layer_factory.hpp:77] Creating layer fc6
I0410 13:29:54.753568 18534 net.cpp:84] Creating Layer fc6
I0410 13:29:54.753571 18534 net.cpp:406] fc6 <- pool5
I0410 13:29:54.753577 18534 net.cpp:380] fc6 -> fc6
I0410 13:29:54.776508 18534 net.cpp:122] Setting up fc6
I0410 13:29:54.776526 18534 net.cpp:129] Top shape: 128 256 (32768)
I0410 13:29:54.776530 18534 net.cpp:137] Memory required for data: 1051899904
I0410 13:29:54.776540 18534 layer_factory.hpp:77] Creating layer relu6
I0410 13:29:54.776547 18534 net.cpp:84] Creating Layer relu6
I0410 13:29:54.776551 18534 net.cpp:406] relu6 <- fc6
I0410 13:29:54.776559 18534 net.cpp:367] relu6 -> fc6 (in-place)
I0410 13:29:54.777164 18534 net.cpp:122] Setting up relu6
I0410 13:29:54.777173 18534 net.cpp:129] Top shape: 128 256 (32768)
I0410 13:29:54.777176 18534 net.cpp:137] Memory required for data: 1052030976
I0410 13:29:54.777180 18534 layer_factory.hpp:77] Creating layer drop6
I0410 13:29:54.777189 18534 net.cpp:84] Creating Layer drop6
I0410 13:29:54.777192 18534 net.cpp:406] drop6 <- fc6
I0410 13:29:54.777199 18534 net.cpp:367] drop6 -> fc6 (in-place)
I0410 13:29:54.777225 18534 net.cpp:122] Setting up drop6
I0410 13:29:54.777230 18534 net.cpp:129] Top shape: 128 256 (32768)
I0410 13:29:54.777233 18534 net.cpp:137] Memory required for data: 1052162048
I0410 13:29:54.777236 18534 layer_factory.hpp:77] Creating layer fc7
I0410 13:29:54.777245 18534 net.cpp:84] Creating Layer fc7
I0410 13:29:54.777247 18534 net.cpp:406] fc7 <- fc6
I0410 13:29:54.777253 18534 net.cpp:380] fc7 -> fc7
I0410 13:29:54.777886 18534 net.cpp:122] Setting up fc7
I0410 13:29:54.777892 18534 net.cpp:129] Top shape: 128 256 (32768)
I0410 13:29:54.777895 18534 net.cpp:137] Memory required for data: 1052293120
I0410 13:29:54.777900 18534 layer_factory.hpp:77] Creating layer relu7
I0410 13:29:54.777923 18534 net.cpp:84] Creating Layer relu7
I0410 13:29:54.777927 18534 net.cpp:406] relu7 <- fc7
I0410 13:29:54.777932 18534 net.cpp:367] relu7 -> fc7 (in-place)
I0410 13:29:54.778425 18534 net.cpp:122] Setting up relu7
I0410 13:29:54.778434 18534 net.cpp:129] Top shape: 128 256 (32768)
I0410 13:29:54.778437 18534 net.cpp:137] Memory required for data: 1052424192
I0410 13:29:54.778441 18534 layer_factory.hpp:77] Creating layer drop7
I0410 13:29:54.778448 18534 net.cpp:84] Creating Layer drop7
I0410 13:29:54.778451 18534 net.cpp:406] drop7 <- fc7
I0410 13:29:54.778456 18534 net.cpp:367] drop7 -> fc7 (in-place)
I0410 13:29:54.778481 18534 net.cpp:122] Setting up drop7
I0410 13:29:54.778486 18534 net.cpp:129] Top shape: 128 256 (32768)
I0410 13:29:54.778487 18534 net.cpp:137] Memory required for data: 1052555264
I0410 13:29:54.778491 18534 layer_factory.hpp:77] Creating layer fc7.5
I0410 13:29:54.778496 18534 net.cpp:84] Creating Layer fc7.5
I0410 13:29:54.778499 18534 net.cpp:406] fc7.5 <- fc7
I0410 13:29:54.778506 18534 net.cpp:380] fc7.5 -> fc7.5
I0410 13:29:54.779145 18534 net.cpp:122] Setting up fc7.5
I0410 13:29:54.779151 18534 net.cpp:129] Top shape: 128 256 (32768)
I0410 13:29:54.779155 18534 net.cpp:137] Memory required for data: 1052686336
I0410 13:29:54.779160 18534 layer_factory.hpp:77] Creating layer relu7.5
I0410 13:29:54.779165 18534 net.cpp:84] Creating Layer relu7.5
I0410 13:29:54.779170 18534 net.cpp:406] relu7.5 <- fc7.5
I0410 13:29:54.779173 18534 net.cpp:367] relu7.5 -> fc7.5 (in-place)
I0410 13:29:54.779654 18534 net.cpp:122] Setting up relu7.5
I0410 13:29:54.779662 18534 net.cpp:129] Top shape: 128 256 (32768)
I0410 13:29:54.779665 18534 net.cpp:137] Memory required for data: 1052817408
I0410 13:29:54.779668 18534 layer_factory.hpp:77] Creating layer drop7.5
I0410 13:29:54.779675 18534 net.cpp:84] Creating Layer drop7.5
I0410 13:29:54.779678 18534 net.cpp:406] drop7.5 <- fc7.5
I0410 13:29:54.779685 18534 net.cpp:367] drop7.5 -> fc7.5 (in-place)
I0410 13:29:54.779707 18534 net.cpp:122] Setting up drop7.5
I0410 13:29:54.779711 18534 net.cpp:129] Top shape: 128 256 (32768)
I0410 13:29:54.779714 18534 net.cpp:137] Memory required for data: 1052948480
I0410 13:29:54.779718 18534 layer_factory.hpp:77] Creating layer fc8
I0410 13:29:54.779723 18534 net.cpp:84] Creating Layer fc8
I0410 13:29:54.779727 18534 net.cpp:406] fc8 <- fc7.5
I0410 13:29:54.779732 18534 net.cpp:380] fc8 -> fc8
I0410 13:29:54.780239 18534 net.cpp:122] Setting up fc8
I0410 13:29:54.780246 18534 net.cpp:129] Top shape: 128 196 (25088)
I0410 13:29:54.780248 18534 net.cpp:137] Memory required for data: 1053048832
I0410 13:29:54.780258 18534 layer_factory.hpp:77] Creating layer loss
I0410 13:29:54.780264 18534 net.cpp:84] Creating Layer loss
I0410 13:29:54.780268 18534 net.cpp:406] loss <- fc8
I0410 13:29:54.780272 18534 net.cpp:406] loss <- label
I0410 13:29:54.780277 18534 net.cpp:380] loss -> loss
I0410 13:29:54.780290 18534 layer_factory.hpp:77] Creating layer loss
…
I0410 13:29:54.781529 18534 net.cpp:294] The NetState phase (1) differed from the phase (0) specified by a rule in layer train-data
I0410 13:29:54.781684 18534 net.cpp:51] Initializing net from parameters:
state {
phase: TEST
}
layer {
name: "val-data"
type: "Data"
top: "data"
top: "label"
include {
phase: TEST
}
transform_param {
crop_size: 227
mean_file: "/mnt/bigdisk/DIGITS-MAN-2/digits/jobs/20210407-214532-d396/mean.binaryproto"
}
data_param {
source: "/mnt/bigdisk/DIGITS-MAN-2/digits/jobs/20210407-214532-d396/val_db"
batch_size: 32
backend: LMDB
}
}
layer {
name: "conv1"
type: "Convolution"
bottom: "data"
top: "conv1"
param {
lr_mult: 1
decay_mult: 1
}
param {
lr_mult: 2
decay_mult: 0
}
convolution_param {
num_output: 96
kernel_size: 11
stride: 4
weight_filler {
type: "gaussian"
std: 0.01
}
bias_filler {
type: "constant"
value: 0
}
}
}
layer {
name: "relu1"
type: "ReLU"
bottom: "conv1"
top: "conv1"
}
layer {
name: "norm1"
type: "LRN"
bottom: "conv1"
top: "norm1"
lrn_param {
local_size: 5
alpha: 0.0001
beta: 0.75
}
}
layer {
name: "pool1"
type: "Pooling"
bottom: "norm1"
top: "pool1"
pooling_param {
pool: MAX
kernel_size: 3
stride: 2
}
}
layer {
name: "conv2"
type: "Convolution"
bottom: "pool1"
top: "conv2"
param {
lr_mult: 1
decay_mult: 1
}
param {
lr_mult: 2
decay_mult: 0
}
convolution_param {
num_output: 256
pad: 2
kernel_size: 5
group: 2
weight_filler {
type: "gaussian"
std: 0.01
}
bias_filler {
type: "constant"
value: 0.1
}
}
}
layer {
name: "relu2"
type: "ReLU"
bottom: "conv2"
top: "conv2"
}
layer {
name: "norm2"
type: "LRN"
bottom: "conv2"
top: "norm2"
lrn_param {
local_size: 5
alpha: 0.0001
beta: 0.75
}
}
layer {
name: "pool2"
type: "Pooling"
bottom: "norm2"
top: "pool2"
pooling_param {
pool: MAX
kernel_size: 3
stride: 2
}
}
layer {
name: "conv3"
type: "Convolution"
bottom: "pool2"
top: "conv3"
param {
lr_mult: 1
decay_mult: 1
}
param {
lr_mult: 2
decay_mult: 0
}
convolution_param {
num_output: 384
pad: 1
kernel_size: 3
weight_filler {
type: "gaussian"
std: 0.01
}
bias_filler {
type: "constant"
value: 0
}
}
}
layer {
name: "relu3"
type: "ReLU"
bottom: "conv3"
top: "conv3"
}
layer {
name: "conv4"
type: "Convolution"
bottom: "conv3"
top: "conv4"
param {
lr_mult: 1
decay_mult: 1
}
param {
lr_mult: 2
decay_mult: 0
}
convolution_param {
num_output: 384
pad: 1
kernel_size: 3
group: 2
weight_filler {
type: "gaussian"
std: 0.01
}
bias_filler {
type: "constant"
value: 0.1
}
}
}
layer {
name: "relu4"
type: "ReLU"
bottom: "conv4"
top: "conv4"
}
layer {
name: "conv5"
type: "Convolution"
bottom: "conv4"
top: "conv5"
param {
lr_mult: 1
decay_mult: 1
}
param {
lr_mult: 2
decay_mult: 0
}
convolution_param {
num_output: 256
pad: 1
kernel_size: 3
group: 2
weight_filler {
type: "gaussian"
std: 0.01
}
bias_filler {
type: "constant"
value: 0.1
}
}
}
layer {
name: "relu5"
type: "ReLU"
bottom: "conv5"
top: "conv5"
}
layer {
name: "pool5"
type: "Pooling"
bottom: "conv5"
top: "pool5"
pooling_param {
pool: MAX
kernel_size: 3
stride: 2
}
}
layer {
name: "fc6"
type: "InnerProduct"
bottom: "pool5"
top: "fc6"
param {
lr_mult: 1
decay_mult: 1
}
param {
lr_mult: 2
decay_mult: 0
}
inner_product_param {
num_output: 256
weight_filler {
type: "gaussian"
std: 0.005
}
bias_filler {
type: "constant"
value: 0.1
}
}
}
layer {
name: "relu6"
type: "ReLU"
bottom: "fc6"
top: "fc6"
}
layer {
name: "drop6"
type: "Dropout"
bottom: "fc6"
top: "fc6"
dropout_param {
dropout_ratio: 0.5
}
}
layer {
name: "fc7"
type: "InnerProduct"
bottom: "fc6"
top: "fc7"
param {
lr_mult: 1
decay_mult: 1
}
param {
lr_mult: 2
decay_mult: 0
}
inner_product_param {
num_output: 256
weight_filler {
type: "gaussian"
std: 0.005
}
bias_filler {
type: "constant"
value: 0.1
}
}
}
layer {
name: "relu7"
type: "ReLU"
bottom: "fc7"
top: "fc7"
}
layer {
name: "drop7"
type: "Dropout"
bottom: "fc7"
top: "fc7"
dropout_param {
dropout_ratio: 0.5
}
}
layer {
name: "fc7.5"
type: "InnerProduct"
bottom: "fc7"
top: "fc7.5"
param {
lr_mult: 1
decay_mult: 1
}
param {
lr_mult: 2
decay_mult: 0
}
inner_product_param {
num_output: 256
weight_filler {
type: "gaussian"
std: 0.005
}
bias_filler {
type: "constant"
value: 0.1
}
}
}
layer {
name: "relu7.5"
type: "ReLU"
bottom: "fc7.5"
top: "fc7.5"
}
layer {
name: "drop7.5"
type: "Dropout"
bottom: "fc7.5"
top: "fc7.5"
dropout_param {
dropout_ratio: 0.5
}
}
layer {
name: "fc8"
type: "InnerProduct"
bottom: "fc7.5"
top: "fc8"
param {
lr_mult: 1
decay_mult: 1
}
param {
lr_mult: 2
decay_mult: 0
}
inner_product_param {
num_output: 196
weight_filler {
type: "gaussian"
std: 0.01
}
bias_filler {
type: "constant"
value: 0
}
}
}
layer {
name: "accuracy"
type: "Accuracy"
bottom: "fc8"
bottom: "label"
top: "accuracy"
include {
phase: TEST
}
}
layer {
name: "loss"
type: "SoftmaxWithLoss"
bottom: "fc8"
bottom: "label"
top: "loss"
}
I0410 13:29:54.781777 18534 layer_factory.hpp:77] Creating layer val-data
I0410 13:29:54.783335 18534 db_lmdb.cpp:35] Opened lmdb /mnt/bigdisk/DIGITS-MAN-2/digits/jobs/20210407-214532-d396/val_db
I0410 13:29:54.783538 18534 net.cpp:84] Creating Layer val-data
I0410 13:29:54.783548 18534 net.cpp:380] val-data -> data
I0410 13:29:54.783556 18534 net.cpp:380] val-data -> label
I0410 13:29:54.783562 18534 data_transformer.cpp:25] Loading mean file from: /mnt/bigdisk/DIGITS-MAN-2/digits/jobs/20210407-214532-d396/mean.binaryproto
I0410 13:29:54.787456 18534 data_layer.cpp:45] output data size: 32,3,227,227
I0410 13:29:54.819896 18534 net.cpp:122] Setting up val-data
I0410 13:29:54.819916 18534 net.cpp:129] Top shape: 32 3 227 227 (4946784)
I0410 13:29:54.819921 18534 net.cpp:129] Top shape: 32 (32)
I0410 13:29:54.819924 18534 net.cpp:137] Memory required for data: 19787264
I0410 13:29:54.819948 18534 layer_factory.hpp:77] Creating layer label_val-data_1_split
I0410 13:29:54.819960 18534 net.cpp:84] Creating Layer label_val-data_1_split
I0410 13:29:54.819964 18534 net.cpp:406] label_val-data_1_split <- label
I0410 13:29:54.819972 18534 net.cpp:380] label_val-data_1_split -> label_val-data_1_split_0
I0410 13:29:54.819979 18534 net.cpp:380] label_val-data_1_split -> label_val-data_1_split_1
I0410 13:29:54.820088 18534 net.cpp:122] Setting up label_val-data_1_split
I0410 13:29:54.820094 18534 net.cpp:129] Top shape: 32 (32)
I0410 13:29:54.820097 18534 net.cpp:129] Top shape: 32 (32)
I0410 13:29:54.820101 18534 net.cpp:137] Memory required for data: 19787520
I0410 13:29:54.820104 18534 layer_factory.hpp:77] Creating layer conv1
I0410 13:29:54.820116 18534 net.cpp:84] Creating Layer conv1
I0410 13:29:54.820118 18534 net.cpp:406] conv1 <- data
I0410 13:29:54.820124 18534 net.cpp:380] conv1 -> conv1
I0410 13:29:54.822129 18534 net.cpp:122] Setting up conv1
I0410 13:29:54.822139 18534 net.cpp:129] Top shape: 32 96 55 55 (9292800)
I0410 13:29:54.822142 18534 net.cpp:137] Memory required for data: 56958720
I0410 13:29:54.822152 18534 layer_factory.hpp:77] Creating layer relu1
I0410 13:29:54.822158 18534 net.cpp:84] Creating Layer relu1
I0410 13:29:54.822162 18534 net.cpp:406] relu1 <- conv1
I0410 13:29:54.822167 18534 net.cpp:367] relu1 -> conv1 (in-place)
I0410 13:29:54.822643 18534 net.cpp:122] Setting up relu1
I0410 13:29:54.822654 18534 net.cpp:129] Top shape: 32 96 55 55 (9292800)
I0410 13:29:54.822656 18534 net.cpp:137] Memory required for data: 94129920
I0410 13:29:54.822660 18534 layer_factory.hpp:77] Creating layer norm1
I0410 13:29:54.822669 18534 net.cpp:84] Creating Layer norm1
I0410 13:29:54.822672 18534 net.cpp:406] norm1 <- conv1
I0410 13:29:54.822677 18534 net.cpp:380] norm1 -> norm1
I0410 13:29:54.824062 18534 net.cpp:122] Setting up norm1
I0410 13:29:54.824071 18534 net.cpp:129] Top shape: 32 96 55 55 (9292800)
I0410 13:29:54.824075 18534 net.cpp:137] Memory required for data: 131301120
I0410 13:29:54.824079 18534 layer_factory.hpp:77] Creating layer pool1
I0410 13:29:54.824086 18534 net.cpp:84] Creating Layer pool1
I0410 13:29:54.824090 18534 net.cpp:406] pool1 <- norm1
I0410 13:29:54.824095 18534 net.cpp:380] pool1 -> pool1
I0410 13:29:54.824124 18534 net.cpp:122] Setting up pool1
I0410 13:29:54.824129 18534 net.cpp:129] Top shape: 32 96 27 27 (2239488)
I0410 13:29:54.824132 18534 net.cpp:137] Memory required for data: 140259072
I0410 13:29:54.824136 18534 layer_factory.hpp:77] Creating layer conv2
I0410 13:29:54.824144 18534 net.cpp:84] Creating Layer conv2
I0410 13:29:54.824147 18534 net.cpp:406] conv2 <- pool1
I0410 13:29:54.824152 18534 net.cpp:380] conv2 -> conv2
I0410 13:29:54.833151 18534 net.cpp:122] Setting up conv2
I0410 13:29:54.833166 18534 net.cpp:129] Top shape: 32 256 27 27 (5971968)
I0410 13:29:54.833169 18534 net.cpp:137] Memory required for data: 164146944
I0410 13:29:54.833179 18534 layer_factory.hpp:77] Creating layer relu2
I0410 13:29:54.833187 18534 net.cpp:84] Creating Layer relu2
I0410 13:29:54.833190 18534 net.cpp:406] relu2 <- conv2
I0410 13:29:54.833197 18534 net.cpp:367] relu2 -> conv2 (in-place)
I0410 13:29:54.833691 18534 net.cpp:122] Setting up relu2
I0410 13:29:54.833700 18534 net.cpp:129] Top shape: 32 256 27 27 (5971968)
I0410 13:29:54.833703 18534 net.cpp:137] Memory required for data: 188034816
I0410 13:29:54.833707 18534 layer_factory.hpp:77] Creating layer norm2
I0410 13:29:54.833717 18534 net.cpp:84] Creating Layer norm2
I0410 13:29:54.833720 18534 net.cpp:406] norm2 <- conv2
I0410 13:29:54.833727 18534 net.cpp:380] norm2 -> norm2
I0410 13:29:54.834112 18534 net.cpp:122] Setting up norm2
I0410 13:29:54.834121 18534 net.cpp:129] Top shape: 32 256 27 27 (5971968)
I0410 13:29:54.834125 18534 net.cpp:137] Memory required for data: 211922688
I0410 13:29:54.834128 18534 layer_factory.hpp:77] Creating layer pool2
I0410 13:29:54.834136 18534 net.cpp:84] Creating Layer pool2
I0410 13:29:54.834139 18534 net.cpp:406] pool2 <- norm2
I0410 13:29:54.834164 18534 net.cpp:380] pool2 -> pool2
I0410 13:29:54.834195 18534 net.cpp:122] Setting up pool2
I0410 13:29:54.834201 18534 net.cpp:129] Top shape: 32 256 13 13 (1384448)
I0410 13:29:54.834204 18534 net.cpp:137] Memory required for data: 217460480
I0410 13:29:54.834208 18534 layer_factory.hpp:77] Creating layer conv3
I0410 13:29:54.834216 18534 net.cpp:84] Creating Layer conv3
I0410 13:29:54.834220 18534 net.cpp:406] conv3 <- pool2
I0410 13:29:54.834226 18534 net.cpp:380] conv3 -> conv3
I0410 13:29:54.845543 18534 net.cpp:122] Setting up conv3
I0410 13:29:54.845563 18534 net.cpp:129] Top shape: 32 384 13 13 (2076672)
I0410 13:29:54.845566 18534 net.cpp:137] Memory required for data: 225767168
I0410 13:29:54.845579 18534 layer_factory.hpp:77] Creating layer relu3
I0410 13:29:54.845589 18534 net.cpp:84] Creating Layer relu3
I0410 13:29:54.845593 18534 net.cpp:406] relu3 <- conv3
I0410 13:29:54.845599 18534 net.cpp:367] relu3 -> conv3 (in-place)
I0410 13:29:54.845949 18534 net.cpp:122] Setting up relu3
I0410 13:29:54.845980 18534 net.cpp:129] Top shape: 32 384 13 13 (2076672)
I0410 13:29:54.845984 18534 net.cpp:137] Memory required for data: 234073856
I0410 13:29:54.845988 18534 layer_factory.hpp:77] Creating layer conv4
I0410 13:29:54.846004 18534 net.cpp:84] Creating Layer conv4
I0410 13:29:54.846007 18534 net.cpp:406] conv4 <- conv3
I0410 13:29:54.846014 18534 net.cpp:380] conv4 -> conv4
I0410 13:29:54.856132 18534 net.cpp:122] Setting up conv4
I0410 13:29:54.856148 18534 net.cpp:129] Top shape: 32 384 13 13 (2076672)
I0410 13:29:54.856151 18534 net.cpp:137] Memory required for data: 242380544
I0410 13:29:54.856159 18534 layer_factory.hpp:77] Creating layer relu4
I0410 13:29:54.856168 18534 net.cpp:84] Creating Layer relu4
I0410 13:29:54.856173 18534 net.cpp:406] relu4 <- conv4
I0410 13:29:54.856178 18534 net.cpp:367] relu4 -> conv4 (in-place)
I0410 13:29:54.856786 18534 net.cpp:122] Setting up relu4
I0410 13:29:54.856796 18534 net.cpp:129] Top shape: 32 384 13 13 (2076672)
I0410 13:29:54.856798 18534 net.cpp:137] Memory required for data: 250687232
I0410 13:29:54.856802 18534 layer_factory.hpp:77] Creating layer conv5
I0410 13:29:54.856813 18534 net.cpp:84] Creating Layer conv5
I0410 13:29:54.856817 18534 net.cpp:406] conv5 <- conv4
I0410 13:29:54.856823 18534 net.cpp:380] conv5 -> conv5
I0410 13:29:54.865550 18534 net.cpp:122] Setting up conv5
I0410 13:29:54.865566 18534 net.cpp:129] Top shape: 32 256 13 13 (1384448)
I0410 13:29:54.865569 18534 net.cpp:137] Memory required for data: 256225024
I0410 13:29:54.865581 18534 layer_factory.hpp:77] Creating layer relu5
I0410 13:29:54.865589 18534 net.cpp:84] Creating Layer relu5
I0410 13:29:54.865593 18534 net.cpp:406] relu5 <- conv5
I0410 13:29:54.865602 18534 net.cpp:367] relu5 -> conv5 (in-place)
I0410 13:29:54.866328 18534 net.cpp:122] Setting up relu5
I0410 13:29:54.866338 18534 net.cpp:129] Top shape: 32 256 13 13 (1384448)
I0410 13:29:54.866343 18534 net.cpp:137] Memory required for data: 261762816
I0410 13:29:54.866345 18534 layer_factory.hpp:77] Creating layer pool5
I0410 13:29:54.866356 18534 net.cpp:84] Creating Layer pool5
I0410 13:29:54.866359 18534 net.cpp:406] pool5 <- conv5
I0410 13:29:54.866365 18534 net.cpp:380] pool5 -> pool5
I0410 13:29:54.866405 18534 net.cpp:122] Setting up pool5
I0410 13:29:54.866411 18534 net.cpp:129] Top shape: 32 256 6 6 (294912)
I0410 13:29:54.866415 18534 net.cpp:137] Memory required for data: 262942464
I0410 13:29:54.866417 18534 layer_factory.hpp:77] Creating layer fc6
I0410 13:29:54.866425 18534 net.cpp:84] Creating Layer fc6
I0410 13:29:54.866427 18534 net.cpp:406] fc6 <- pool5
I0410 13:29:54.866433 18534 net.cpp:380] fc6 -> fc6
I0410 13:29:54.892019 18534 net.cpp:122] Setting up fc6
I0410 13:29:54.892038 18534 net.cpp:129] Top shape: 32 256 (8192)
I0410 13:29:54.892042 18534 net.cpp:137] Memory required for data: 262975232
I0410 13:29:54.892051 18534 layer_factory.hpp:77] Creating layer relu6
I0410 13:29:54.892060 18534 net.cpp:84] Creating Layer relu6
I0410 13:29:54.892064 18534 net.cpp:406] relu6 <- fc6
I0410 13:29:54.892089 18534 net.cpp:367] relu6 -> fc6 (in-place)
I0410 13:29:54.892510 18534 net.cpp:122] Setting up relu6
I0410 13:29:54.892518 18534 net.cpp:129] Top shape: 32 256 (8192)
I0410 13:29:54.892521 18534 net.cpp:137] Memory required for data: 263008000
I0410 13:29:54.892525 18534 layer_factory.hpp:77] Creating layer drop6
I0410 13:29:54.892531 18534 net.cpp:84] Creating Layer drop6
I0410 13:29:54.892535 18534 net.cpp:406] drop6 <- fc6
I0410 13:29:54.892541 18534 net.cpp:367] drop6 -> fc6 (in-place)
I0410 13:29:54.892566 18534 net.cpp:122] Setting up drop6
I0410 13:29:54.892571 18534 net.cpp:129] Top shape: 32 256 (8192)
I0410 13:29:54.892575 18534 net.cpp:137] Memory required for data: 263040768
I0410 13:29:54.892577 18534 layer_factory.hpp:77] Creating layer fc7
I0410 13:29:54.892583 18534 net.cpp:84] Creating Layer fc7
I0410 13:29:54.892586 18534 net.cpp:406] fc7 <- fc6
I0410 13:29:54.892592 18534 net.cpp:380] fc7 -> fc7
I0410 13:29:54.893234 18534 net.cpp:122] Setting up fc7
I0410 13:29:54.893240 18534 net.cpp:129] Top shape: 32 256 (8192)
I0410 13:29:54.893244 18534 net.cpp:137] Memory required for data: 263073536
I0410 13:29:54.893249 18534 layer_factory.hpp:77] Creating layer relu7
I0410 13:29:54.893255 18534 net.cpp:84] Creating Layer relu7
I0410 13:29:54.893260 18534 net.cpp:406] relu7 <- fc7
I0410 13:29:54.893263 18534 net.cpp:367] relu7 -> fc7 (in-place)
I0410 13:29:54.893846 18534 net.cpp:122] Setting up relu7
I0410 13:29:54.893853 18534 net.cpp:129] Top shape: 32 256 (8192)
I0410 13:29:54.893857 18534 net.cpp:137] Memory required for data: 263106304
I0410 13:29:54.893860 18534 layer_factory.hpp:77] Creating layer drop7
I0410 13:29:54.893867 18534 net.cpp:84] Creating Layer drop7
I0410 13:29:54.893870 18534 net.cpp:406] drop7 <- fc7
I0410 13:29:54.893877 18534 net.cpp:367] drop7 -> fc7 (in-place)
I0410 13:29:54.893899 18534 net.cpp:122] Setting up drop7
I0410 13:29:54.893904 18534 net.cpp:129] Top shape: 32 256 (8192)
I0410 13:29:54.893908 18534 net.cpp:137] Memory required for data: 263139072
I0410 13:29:54.893910 18534 layer_factory.hpp:77] Creating layer fc7.5
I0410 13:29:54.893918 18534 net.cpp:84] Creating Layer fc7.5
I0410 13:29:54.893920 18534 net.cpp:406] fc7.5 <- fc7
I0410 13:29:54.893926 18534 net.cpp:380] fc7.5 -> fc7.5
I0410 13:29:54.894587 18534 net.cpp:122] Setting up fc7.5
I0410 13:29:54.894594 18534 net.cpp:129] Top shape: 32 256 (8192)
I0410 13:29:54.894598 18534 net.cpp:137] Memory required for data: 263171840
I0410 13:29:54.894603 18534 layer_factory.hpp:77] Creating layer relu7.5
I0410 13:29:54.894609 18534 net.cpp:84] Creating Layer relu7.5
I0410 13:29:54.894613 18534 net.cpp:406] relu7.5 <- fc7.5
I0410 13:29:54.894618 18534 net.cpp:367] relu7.5 -> fc7.5 (in-place)
I0410 13:29:54.895108 18534 net.cpp:122] Setting up relu7.5
I0410 13:29:54.895117 18534 net.cpp:129] Top shape: 32 256 (8192)
I0410 13:29:54.895119 18534 net.cpp:137] Memory required for data: 263204608
I0410 13:29:54.895123 18534 layer_factory.hpp:77] Creating layer drop7.5
I0410 13:29:54.895128 18534 net.cpp:84] Creating Layer drop7.5
I0410 13:29:54.895133 18534 net.cpp:406] drop7.5 <- fc7.5
I0410 13:29:54.895138 18534 net.cpp:367] drop7.5 -> fc7.5 (in-place)
I0410 13:29:54.895161 18534 net.cpp:122] Setting up drop7.5
I0410 13:29:54.895166 18534 net.cpp:129] Top shape: 32 256 (8192)
I0410 13:29:54.895169 18534 net.cpp:137] Memory required for data: 263237376
I0410 13:29:54.895172 18534 layer_factory.hpp:77] Creating layer fc8
I0410 13:29:54.895179 18534 net.cpp:84] Creating Layer fc8
I0410 13:29:54.895184 18534 net.cpp:406] fc8 <- fc7.5
I0410 13:29:54.895190 18534 net.cpp:380] fc8 -> fc8
I0410 13:29:54.895700 18534 net.cpp:122] Setting up fc8
I0410 13:29:54.895707 18534 net.cpp:129] Top shape: 32 196 (6272)
I0410 13:29:54.895710 18534 net.cpp:137] Memory required for data: 263262464
I0410 13:29:54.895720 18534 layer_factory.hpp:77] Creating layer fc8_fc8_0_split
I0410 13:29:54.895725 18534 net.cpp:84] Creating Layer fc8_fc8_0_split
I0410 13:29:54.895730 18534 net.cpp:406] fc8_fc8_0_split <- fc8
I0410 13:29:54.895735 18534 net.cpp:380] fc8_fc8_0_split -> fc8_fc8_0_split_0
I0410 13:29:54.895750 18534 net.cpp:380] fc8_fc8_0_split -> fc8_fc8_0_split_1
I0410 13:29:54.895783 18534 net.cpp:122] Setting up fc8_fc8_0_split
I0410 13:29:54.895788 18534 net.cpp:129] Top shape: 32 196 (6272)
I0410 13:29:54.895792 18534 net.cpp:129] Top shape: 32 196 (6272)
I0410 13:29:54.895794 18534 net.cpp:137] Memory required for data: 263312640
I0410 13:29:54.895798 18534 layer_factory.hpp:77] Creating layer accuracy
I0410 13:29:54.895805 18534 net.cpp:84] Creating Layer accuracy
I0410 13:29:54.895809 18534 net.cpp:406] accuracy <- fc8_fc8_0_split_0
I0410 13:29:54.895814 18534 net.cpp:406] accuracy <- label_val-data_1_split_0
I0410 13:29:54.895820 18534 net.cpp:380] accuracy -> accuracy
…
