…
I0407 08:24:53.692487 18909 net.cpp:294] The NetState phase (0) differed from the phase (1) specified by a rule in layer accuracy
I0407 08:24:53.692615 18909 net.cpp:51] Initializing net from parameters:
state {
phase: TRAIN
level: 0
stage: ""
}
layer {
name: "train-data"
type: "Data"
top: "data"
top: "label"
include {
phase: TRAIN
}
transform_param {
mirror: true
crop_size: 227
mean_file: "/mnt/bigdisk/DIGITS-AIN-3/digits/jobs/20210401-115716-aaf7/mean.binaryproto"
}
data_param {
source: "/mnt/bigdisk/DIGITS-AIN-3/digits/jobs/20210401-115716-aaf7/train_db"
batch_size: 128
backend: LMDB
}
}
layer {
name: "conv1"
type: "Convolution"
bottom: "data"
top: "conv1"
param {
lr_mult: 1
decay_mult: 1
}
param {
lr_mult: 2
decay_mult: 0
}
convolution_param {
num_output: 96
kernel_size: 11
stride: 4
weight_filler {
type: "gaussian"
std: 0.01
}
bias_filler {
type: "constant"
value: 0
}
}
}
layer {
name: "relu1"
type: "ReLU"
bottom: "conv1"
top: "conv1"
}
layer {
name: "norm1"
type: "LRN"
bottom: "conv1"
top: "norm1"
lrn_param {
local_size: 5
alpha: 0.0001
beta: 0.75
}
}
layer {
name: "pool1"
type: "Pooling"
bottom: "norm1"
top: "pool1"
pooling_param {
pool: MAX
kernel_size: 3
stride: 2
}
}
layer {
name: "conv2"
type: "Convolution"
bottom: "pool1"
top: "conv2"
param {
lr_mult: 1
decay_mult: 1
}
param {
lr_mult: 2
decay_mult: 0
}
convolution_param {
num_output: 256
pad: 2
kernel_size: 5
group: 2
weight_filler {
type: "gaussian"
std: 0.01
}
bias_filler {
type: "constant"
value: 0.1
}
}
}
layer {
name: "relu2"
type: "ReLU"
bottom: "conv2"
top: "conv2"
}
layer {
name: "norm2"
type: "LRN"
bottom: "conv2"
top: "norm2"
lrn_param {
local_size: 5
alpha: 0.0001
beta: 0.75
}
}
layer {
name: "pool2"
type: "Pooling"
bottom: "norm2"
top: "pool2"
pooling_param {
pool: MAX
kernel_size: 3
stride: 2
}
}
layer {
name: "conv3"
type: "Convolution"
bottom: "pool2"
top: "conv3"
param {
lr_mult: 1
decay_mult: 1
}
param {
lr_mult: 2
decay_mult: 0
}
convolution_param {
num_output: 384
pad: 1
kernel_size: 3
weight_filler {
type: "gaussian"
std: 0.01
}
bias_filler {
type: "constant"
value: 0
}
}
}
layer {
name: "relu3"
type: "ReLU"
bottom: "conv3"
top: "conv3"
}
layer {
name: "conv4"
type: "Convolution"
bottom: "conv3"
top: "conv4"
param {
lr_mult: 1
decay_mult: 1
}
param {
lr_mult: 2
decay_mult: 0
}
convolution_param {
num_output: 384
pad: 1
kernel_size: 3
group: 2
weight_filler {
type: "gaussian"
std: 0.01
}
bias_filler {
type: "constant"
value: 0.1
}
}
}
layer {
name: "relu4"
type: "ReLU"
bottom: "conv4"
top: "conv4"
}
layer {
name: "conv5"
type: "Convolution"
bottom: "conv4"
top: "conv5"
param {
lr_mult: 1
decay_mult: 1
}
param {
lr_mult: 2
decay_mult: 0
}
convolution_param {
num_output: 256
pad: 1
kernel_size: 3
group: 2
weight_filler {
type: "gaussian"
std: 0.01
}
bias_filler {
type: "constant"
value: 0.1
}
}
}
layer {
name: "relu5"
type: "ReLU"
bottom: "conv5"
top: "conv5"
}
layer {
name: "pool5"
type: "Pooling"
bottom: "conv5"
top: "pool5"
pooling_param {
pool: MAX
kernel_size: 3
stride: 2
}
}
layer {
name: "fc6"
type: "InnerProduct"
bottom: "pool5"
top: "fc6"
param {
lr_mult: 1
decay_mult: 1
}
param {
lr_mult: 2
decay_mult: 0
}
inner_product_param {
num_output: 4096
weight_filler {
type: "gaussian"
std: 0.005
}
bias_filler {
type: "constant"
value: 0.1
}
}
}
layer {
name: "relu6"
type: "ReLU"
bottom: "fc6"
top: "fc6"
}
layer {
name: "drop6"
type: "Dropout"
bottom: "fc6"
top: "fc6"
dropout_param {
dropout_ratio: 0.5
}
}
layer {
name: "fc7"
type: "InnerProduct"
bottom: "fc6"
top: "fc7"
param {
lr_mult: 1
decay_mult: 1
}
param {
lr_mult: 2
decay_mult: 0
}
inner_product_param {
num_output: 4096
weight_filler {
type: "gaussian"
std: 0.005
}
bias_filler {
type: "constant"
value: 0.1
}
}
}
layer {
name: "relu7"
type: "ReLU"
bottom: "fc7"
top: "fc7"
}
layer {
name: "drop7"
type: "Dropout"
bottom: "fc7"
top: "fc7"
dropout_param {
dropout_ratio: 0.5
}
}
layer {
name: "fc8"
type: "InnerProduct"
bottom: "fc7"
top: "fc8"
param {
lr_mult: 1
decay_mult: 1
}
param {
lr_mult: 2
decay_mult: 0
}
inner_product_param {
num_output: 196
weight_filler {
type: "gaussian"
std: 0.01
}
bias_filler {
type: "constant"
value: 0
}
}
}
layer {
name: "loss"
type: "SoftmaxWithLoss"
bottom: "fc8"
bottom: "label"
top: "loss"
}
I0407 08:24:53.692700 18909 layer_factory.hpp:77] Creating layer train-data
I0407 08:24:53.694433 18909 db_lmdb.cpp:35] Opened lmdb /mnt/bigdisk/DIGITS-AIN-3/digits/jobs/20210401-115716-aaf7/train_db
I0407 08:24:53.694662 18909 net.cpp:84] Creating Layer train-data
I0407 08:24:53.694671 18909 net.cpp:380] train-data -> data
I0407 08:24:53.694690 18909 net.cpp:380] train-data -> label
I0407 08:24:53.694700 18909 data_transformer.cpp:25] Loading mean file from: /mnt/bigdisk/DIGITS-AIN-3/digits/jobs/20210401-115716-aaf7/mean.binaryproto
I0407 08:24:53.699160 18909 data_layer.cpp:45] output data size: 128,3,227,227
I0407 08:24:53.829603 18909 net.cpp:122] Setting up train-data
I0407 08:24:53.829623 18909 net.cpp:129] Top shape: 128 3 227 227 (19787136)
I0407 08:24:53.829627 18909 net.cpp:129] Top shape: 128 (128)
I0407 08:24:53.829630 18909 net.cpp:137] Memory required for data: 79149056
I0407 08:24:53.829638 18909 layer_factory.hpp:77] Creating layer conv1
I0407 08:24:53.829658 18909 net.cpp:84] Creating Layer conv1
I0407 08:24:53.829661 18909 net.cpp:406] conv1 <- data
I0407 08:24:53.829672 18909 net.cpp:380] conv1 -> conv1
I0407 08:24:54.242549 18909 net.cpp:122] Setting up conv1
I0407 08:24:54.242569 18909 net.cpp:129] Top shape: 128 96 55 55 (37171200)
I0407 08:24:54.242573 18909 net.cpp:137] Memory required for data: 227833856
I0407 08:24:54.242590 18909 layer_factory.hpp:77] Creating layer relu1
I0407 08:24:54.242599 18909 net.cpp:84] Creating Layer relu1
I0407 08:24:54.242602 18909 net.cpp:406] relu1 <- conv1
I0407 08:24:54.242606 18909 net.cpp:367] relu1 -> conv1 (in-place)
I0407 08:24:54.242861 18909 net.cpp:122] Setting up relu1
I0407 08:24:54.242869 18909 net.cpp:129] Top shape: 128 96 55 55 (37171200)
I0407 08:24:54.242871 18909 net.cpp:137] Memory required for data: 376518656
I0407 08:24:54.242873 18909 layer_factory.hpp:77] Creating layer norm1
I0407 08:24:54.242882 18909 net.cpp:84] Creating Layer norm1
I0407 08:24:54.242902 18909 net.cpp:406] norm1 <- conv1
I0407 08:24:54.242905 18909 net.cpp:380] norm1 -> norm1
I0407 08:24:54.243310 18909 net.cpp:122] Setting up norm1
I0407 08:24:54.243319 18909 net.cpp:129] Top shape: 128 96 55 55 (37171200)
I0407 08:24:54.243321 18909 net.cpp:137] Memory required for data: 525203456
I0407 08:24:54.243324 18909 layer_factory.hpp:77] Creating layer pool1
I0407 08:24:54.243330 18909 net.cpp:84] Creating Layer pool1
I0407 08:24:54.243333 18909 net.cpp:406] pool1 <- norm1
I0407 08:24:54.243337 18909 net.cpp:380] pool1 -> pool1
I0407 08:24:54.243367 18909 net.cpp:122] Setting up pool1
I0407 08:24:54.243372 18909 net.cpp:129] Top shape: 128 96 27 27 (8957952)
I0407 08:24:54.243374 18909 net.cpp:137] Memory required for data: 561035264
I0407 08:24:54.243376 18909 layer_factory.hpp:77] Creating layer conv2
I0407 08:24:54.243386 18909 net.cpp:84] Creating Layer conv2
I0407 08:24:54.243388 18909 net.cpp:406] conv2 <- pool1
I0407 08:24:54.243391 18909 net.cpp:380] conv2 -> conv2
I0407 08:24:54.249159 18909 net.cpp:122] Setting up conv2
I0407 08:24:54.249174 18909 net.cpp:129] Top shape: 128 256 27 27 (23887872)
I0407 08:24:54.249176 18909 net.cpp:137] Memory required for data: 656586752
I0407 08:24:54.249184 18909 layer_factory.hpp:77] Creating layer relu2
I0407 08:24:54.249191 18909 net.cpp:84] Creating Layer relu2
I0407 08:24:54.249193 18909 net.cpp:406] relu2 <- conv2
I0407 08:24:54.249199 18909 net.cpp:367] relu2 -> conv2 (in-place)
I0407 08:24:54.249675 18909 net.cpp:122] Setting up relu2
I0407 08:24:54.249684 18909 net.cpp:129] Top shape: 128 256 27 27 (23887872)
I0407 08:24:54.249686 18909 net.cpp:137] Memory required for data: 752138240
I0407 08:24:54.249688 18909 layer_factory.hpp:77] Creating layer norm2
I0407 08:24:54.249696 18909 net.cpp:84] Creating Layer norm2
I0407 08:24:54.249699 18909 net.cpp:406] norm2 <- conv2
I0407 08:24:54.249703 18909 net.cpp:380] norm2 -> norm2
I0407 08:24:54.250052 18909 net.cpp:122] Setting up norm2
I0407 08:24:54.250059 18909 net.cpp:129] Top shape: 128 256 27 27 (23887872)
I0407 08:24:54.250061 18909 net.cpp:137] Memory required for data: 847689728
I0407 08:24:54.250064 18909 layer_factory.hpp:77] Creating layer pool2
I0407 08:24:54.250072 18909 net.cpp:84] Creating Layer pool2
I0407 08:24:54.250073 18909 net.cpp:406] pool2 <- norm2
I0407 08:24:54.250078 18909 net.cpp:380] pool2 -> pool2
I0407 08:24:54.250105 18909 net.cpp:122] Setting up pool2
I0407 08:24:54.250109 18909 net.cpp:129] Top shape: 128 256 13 13 (5537792)
I0407 08:24:54.250111 18909 net.cpp:137] Memory required for data: 869840896
I0407 08:24:54.250113 18909 layer_factory.hpp:77] Creating layer conv3
I0407 08:24:54.250123 18909 net.cpp:84] Creating Layer conv3
I0407 08:24:54.250124 18909 net.cpp:406] conv3 <- pool2
I0407 08:24:54.250128 18909 net.cpp:380] conv3 -> conv3
I0407 08:24:54.260059 18909 net.cpp:122] Setting up conv3
I0407 08:24:54.260077 18909 net.cpp:129] Top shape: 128 384 13 13 (8306688)
I0407 08:24:54.260079 18909 net.cpp:137] Memory required for data: 903067648
I0407 08:24:54.260092 18909 layer_factory.hpp:77] Creating layer relu3
I0407 08:24:54.260099 18909 net.cpp:84] Creating Layer relu3
I0407 08:24:54.260102 18909 net.cpp:406] relu3 <- conv3
I0407 08:24:54.260107 18909 net.cpp:367] relu3 -> conv3 (in-place)
I0407 08:24:54.260579 18909 net.cpp:122] Setting up relu3
I0407 08:24:54.260587 18909 net.cpp:129] Top shape: 128 384 13 13 (8306688)
I0407 08:24:54.260591 18909 net.cpp:137] Memory required for data: 936294400
I0407 08:24:54.260592 18909 layer_factory.hpp:77] Creating layer conv4
I0407 08:24:54.260603 18909 net.cpp:84] Creating Layer conv4
I0407 08:24:54.260605 18909 net.cpp:406] conv4 <- conv3
I0407 08:24:54.260610 18909 net.cpp:380] conv4 -> conv4
I0407 08:24:54.270813 18909 net.cpp:122] Setting up conv4
I0407 08:24:54.270829 18909 net.cpp:129] Top shape: 128 384 13 13 (8306688)
I0407 08:24:54.270831 18909 net.cpp:137] Memory required for data: 969521152
I0407 08:24:54.270839 18909 layer_factory.hpp:77] Creating layer relu4
I0407 08:24:54.270848 18909 net.cpp:84] Creating Layer relu4
I0407 08:24:54.270869 18909 net.cpp:406] relu4 <- conv4
I0407 08:24:54.270874 18909 net.cpp:367] relu4 -> conv4 (in-place)
I0407 08:24:54.271193 18909 net.cpp:122] Setting up relu4
I0407 08:24:54.271200 18909 net.cpp:129] Top shape: 128 384 13 13 (8306688)
I0407 08:24:54.271203 18909 net.cpp:137] Memory required for data: 1002747904
I0407 08:24:54.271205 18909 layer_factory.hpp:77] Creating layer conv5
I0407 08:24:54.271215 18909 net.cpp:84] Creating Layer conv5
I0407 08:24:54.271217 18909 net.cpp:406] conv5 <- conv4
I0407 08:24:54.271224 18909 net.cpp:380] conv5 -> conv5
I0407 08:24:54.291848 18909 net.cpp:122] Setting up conv5
I0407 08:24:54.291865 18909 net.cpp:129] Top shape: 128 256 13 13 (5537792)
I0407 08:24:54.291868 18909 net.cpp:137] Memory required for data: 1024899072
I0407 08:24:54.291880 18909 layer_factory.hpp:77] Creating layer relu5
I0407 08:24:54.291889 18909 net.cpp:84] Creating Layer relu5
I0407 08:24:54.291893 18909 net.cpp:406] relu5 <- conv5
I0407 08:24:54.291898 18909 net.cpp:367] relu5 -> conv5 (in-place)
I0407 08:24:54.292445 18909 net.cpp:122] Setting up relu5
I0407 08:24:54.292454 18909 net.cpp:129] Top shape: 128 256 13 13 (5537792)
I0407 08:24:54.292456 18909 net.cpp:137] Memory required for data: 1047050240
I0407 08:24:54.292459 18909 layer_factory.hpp:77] Creating layer pool5
I0407 08:24:54.292466 18909 net.cpp:84] Creating Layer pool5
I0407 08:24:54.292469 18909 net.cpp:406] pool5 <- conv5
I0407 08:24:54.292474 18909 net.cpp:380] pool5 -> pool5
I0407 08:24:54.292508 18909 net.cpp:122] Setting up pool5
I0407 08:24:54.292513 18909 net.cpp:129] Top shape: 128 256 6 6 (1179648)
I0407 08:24:54.292515 18909 net.cpp:137] Memory required for data: 1051768832
I0407 08:24:54.292517 18909 layer_factory.hpp:77] Creating layer fc6
I0407 08:24:54.292526 18909 net.cpp:84] Creating Layer fc6
I0407 08:24:54.292528 18909 net.cpp:406] fc6 <- pool5
I0407 08:24:54.292532 18909 net.cpp:380] fc6 -> fc6
I0407 08:24:54.624992 18909 net.cpp:122] Setting up fc6
I0407 08:24:54.625012 18909 net.cpp:129] Top shape: 128 4096 (524288)
I0407 08:24:54.625015 18909 net.cpp:137] Memory required for data: 1053865984
I0407 08:24:54.625023 18909 layer_factory.hpp:77] Creating layer relu6
I0407 08:24:54.625031 18909 net.cpp:84] Creating Layer relu6
I0407 08:24:54.625034 18909 net.cpp:406] relu6 <- fc6
I0407 08:24:54.625041 18909 net.cpp:367] relu6 -> fc6 (in-place)
I0407 08:24:54.625700 18909 net.cpp:122] Setting up relu6
I0407 08:24:54.625710 18909 net.cpp:129] Top shape: 128 4096 (524288)
I0407 08:24:54.625711 18909 net.cpp:137] Memory required for data: 1055963136
I0407 08:24:54.625715 18909 layer_factory.hpp:77] Creating layer drop6
I0407 08:24:54.625720 18909 net.cpp:84] Creating Layer drop6
I0407 08:24:54.625722 18909 net.cpp:406] drop6 <- fc6
I0407 08:24:54.625726 18909 net.cpp:367] drop6 -> fc6 (in-place)
I0407 08:24:54.625751 18909 net.cpp:122] Setting up drop6
I0407 08:24:54.625756 18909 net.cpp:129] Top shape: 128 4096 (524288)
I0407 08:24:54.625757 18909 net.cpp:137] Memory required for data: 1058060288
I0407 08:24:54.625759 18909 layer_factory.hpp:77] Creating layer fc7
I0407 08:24:54.625766 18909 net.cpp:84] Creating Layer fc7
I0407 08:24:54.625767 18909 net.cpp:406] fc7 <- fc6
I0407 08:24:54.625772 18909 net.cpp:380] fc7 -> fc7
I0407 08:24:54.777706 18909 net.cpp:122] Setting up fc7
I0407 08:24:54.777724 18909 net.cpp:129] Top shape: 128 4096 (524288)
I0407 08:24:54.777727 18909 net.cpp:137] Memory required for data: 1060157440
I0407 08:24:54.777735 18909 layer_factory.hpp:77] Creating layer relu7
I0407 08:24:54.777743 18909 net.cpp:84] Creating Layer relu7
I0407 08:24:54.777746 18909 net.cpp:406] relu7 <- fc7
I0407 08:24:54.777751 18909 net.cpp:367] relu7 -> fc7 (in-place)
I0407 08:24:54.778127 18909 net.cpp:122] Setting up relu7
I0407 08:24:54.778136 18909 net.cpp:129] Top shape: 128 4096 (524288)
I0407 08:24:54.778137 18909 net.cpp:137] Memory required for data: 1062254592
I0407 08:24:54.778139 18909 layer_factory.hpp:77] Creating layer drop7
I0407 08:24:54.778144 18909 net.cpp:84] Creating Layer drop7
I0407 08:24:54.778163 18909 net.cpp:406] drop7 <- fc7
I0407 08:24:54.778168 18909 net.cpp:367] drop7 -> fc7 (in-place)
I0407 08:24:54.778188 18909 net.cpp:122] Setting up drop7
I0407 08:24:54.778192 18909 net.cpp:129] Top shape: 128 4096 (524288)
I0407 08:24:54.778194 18909 net.cpp:137] Memory required for data: 1064351744
I0407 08:24:54.778196 18909 layer_factory.hpp:77] Creating layer fc8
I0407 08:24:54.778204 18909 net.cpp:84] Creating Layer fc8
I0407 08:24:54.778206 18909 net.cpp:406] fc8 <- fc7
I0407 08:24:54.778210 18909 net.cpp:380] fc8 -> fc8
I0407 08:24:54.785758 18909 net.cpp:122] Setting up fc8
I0407 08:24:54.785776 18909 net.cpp:129] Top shape: 128 196 (25088)
I0407 08:24:54.785778 18909 net.cpp:137] Memory required for data: 1064452096
I0407 08:24:54.785786 18909 layer_factory.hpp:77] Creating layer loss
I0407 08:24:54.785794 18909 net.cpp:84] Creating Layer loss
I0407 08:24:54.785796 18909 net.cpp:406] loss <- fc8
I0407 08:24:54.785800 18909 net.cpp:406] loss <- label
I0407 08:24:54.785806 18909 net.cpp:380] loss -> loss
I0407 08:24:54.785815 18909 layer_factory.hpp:77] Creating layer loss
…
I0407 08:24:54.787119 18909 net.cpp:294] The NetState phase (1) differed from the phase (0) specified by a rule in layer train-data
I0407 08:24:54.787248 18909 net.cpp:51] Initializing net from parameters:
state {
phase: TEST
}
layer {
name: "val-data"
type: "Data"
top: "data"
top: "label"
include {
phase: TEST
}
transform_param {
crop_size: 227
mean_file: "/mnt/bigdisk/DIGITS-AIN-3/digits/jobs/20210401-115716-aaf7/mean.binaryproto"
}
data_param {
source: "/mnt/bigdisk/DIGITS-AIN-3/digits/jobs/20210401-115716-aaf7/val_db"
batch_size: 32
backend: LMDB
}
}
layer {
name: "conv1"
type: "Convolution"
bottom: "data"
top: "conv1"
param {
lr_mult: 1
decay_mult: 1
}
param {
lr_mult: 2
decay_mult: 0
}
convolution_param {
num_output: 96
kernel_size: 11
stride: 4
weight_filler {
type: "gaussian"
std: 0.01
}
bias_filler {
type: "constant"
value: 0
}
}
}
layer {
name: "relu1"
type: "ReLU"
bottom: "conv1"
top: "conv1"
}
layer {
name: "norm1"
type: "LRN"
bottom: "conv1"
top: "norm1"
lrn_param {
local_size: 5
alpha: 0.0001
beta: 0.75
}
}
layer {
name: "pool1"
type: "Pooling"
bottom: "norm1"
top: "pool1"
pooling_param {
pool: MAX
kernel_size: 3
stride: 2
}
}
layer {
name: "conv2"
type: "Convolution"
bottom: "pool1"
top: "conv2"
param {
lr_mult: 1
decay_mult: 1
}
param {
lr_mult: 2
decay_mult: 0
}
convolution_param {
num_output: 256
pad: 2
kernel_size: 5
group: 2
weight_filler {
type: "gaussian"
std: 0.01
}
bias_filler {
type: "constant"
value: 0.1
}
}
}
layer {
name: "relu2"
type: "ReLU"
bottom: "conv2"
top: "conv2"
}
layer {
name: "norm2"
type: "LRN"
bottom: "conv2"
top: "norm2"
lrn_param {
local_size: 5
alpha: 0.0001
beta: 0.75
}
}
layer {
name: "pool2"
type: "Pooling"
bottom: "norm2"
top: "pool2"
pooling_param {
pool: MAX
kernel_size: 3
stride: 2
}
}
layer {
name: "conv3"
type: "Convolution"
bottom: "pool2"
top: "conv3"
param {
lr_mult: 1
decay_mult: 1
}
param {
lr_mult: 2
decay_mult: 0
}
convolution_param {
num_output: 384
pad: 1
kernel_size: 3
weight_filler {
type: "gaussian"
std: 0.01
}
bias_filler {
type: "constant"
value: 0
}
}
}
layer {
name: "relu3"
type: "ReLU"
bottom: "conv3"
top: "conv3"
}
layer {
name: "conv4"
type: "Convolution"
bottom: "conv3"
top: "conv4"
param {
lr_mult: 1
decay_mult: 1
}
param {
lr_mult: 2
decay_mult: 0
}
convolution_param {
num_output: 384
pad: 1
kernel_size: 3
group: 2
weight_filler {
type: "gaussian"
std: 0.01
}
bias_filler {
type: "constant"
value: 0.1
}
}
}
layer {
name: "relu4"
type: "ReLU"
bottom: "conv4"
top: "conv4"
}
layer {
name: "conv5"
type: "Convolution"
bottom: "conv4"
top: "conv5"
param {
lr_mult: 1
decay_mult: 1
}
param {
lr_mult: 2
decay_mult: 0
}
convolution_param {
num_output: 256
pad: 1
kernel_size: 3
group: 2
weight_filler {
type: "gaussian"
std: 0.01
}
bias_filler {
type: "constant"
value: 0.1
}
}
}
layer {
name: "relu5"
type: "ReLU"
bottom: "conv5"
top: "conv5"
}
layer {
name: "pool5"
type: "Pooling"
bottom: "conv5"
top: "pool5"
pooling_param {
pool: MAX
kernel_size: 3
stride: 2
}
}
layer {
name: "fc6"
type: "InnerProduct"
bottom: "pool5"
top: "fc6"
param {
lr_mult: 1
decay_mult: 1
}
param {
lr_mult: 2
decay_mult: 0
}
inner_product_param {
num_output: 4096
weight_filler {
type: "gaussian"
std: 0.005
}
bias_filler {
type: "constant"
value: 0.1
}
}
}
layer {
name: "relu6"
type: "ReLU"
bottom: "fc6"
top: "fc6"
}
layer {
name: "drop6"
type: "Dropout"
bottom: "fc6"
top: "fc6"
dropout_param {
dropout_ratio: 0.5
}
}
layer {
name: "fc7"
type: "InnerProduct"
bottom: "fc6"
top: "fc7"
param {
lr_mult: 1
decay_mult: 1
}
param {
lr_mult: 2
decay_mult: 0
}
inner_product_param {
num_output: 4096
weight_filler {
type: "gaussian"
std: 0.005
}
bias_filler {
type: "constant"
value: 0.1
}
}
}
layer {
name: "relu7"
type: "ReLU"
bottom: "fc7"
top: "fc7"
}
layer {
name: "drop7"
type: "Dropout"
bottom: "fc7"
top: "fc7"
dropout_param {
dropout_ratio: 0.5
}
}
layer {
name: "fc8"
type: "InnerProduct"
bottom: "fc7"
top: "fc8"
param {
lr_mult: 1
decay_mult: 1
}
param {
lr_mult: 2
decay_mult: 0
}
inner_product_param {
num_output: 196
weight_filler {
type: "gaussian"
std: 0.01
}
bias_filler {
type: "constant"
value: 0
}
}
}
layer {
name: "accuracy"
type: "Accuracy"
bottom: "fc8"
bottom: "label"
top: "accuracy"
include {
phase: TEST
}
}
layer {
name: "loss"
type: "SoftmaxWithLoss"
bottom: "fc8"
bottom: "label"
top: "loss"
}
I0407 08:24:54.787345 18909 layer_factory.hpp:77] Creating layer val-data
I0407 08:24:54.789166 18909 db_lmdb.cpp:35] Opened lmdb /mnt/bigdisk/DIGITS-AIN-3/digits/jobs/20210401-115716-aaf7/val_db
I0407 08:24:54.789405 18909 net.cpp:84] Creating Layer val-data
I0407 08:24:54.789414 18909 net.cpp:380] val-data -> data
I0407 08:24:54.789422 18909 net.cpp:380] val-data -> label
I0407 08:24:54.789427 18909 data_transformer.cpp:25] Loading mean file from: /mnt/bigdisk/DIGITS-AIN-3/digits/jobs/20210401-115716-aaf7/mean.binaryproto
I0407 08:24:54.793125 18909 data_layer.cpp:45] output data size: 32,3,227,227
I0407 08:24:54.839465 18909 net.cpp:122] Setting up val-data
I0407 08:24:54.839483 18909 net.cpp:129] Top shape: 32 3 227 227 (4946784)
I0407 08:24:54.839488 18909 net.cpp:129] Top shape: 32 (32)
I0407 08:24:54.839489 18909 net.cpp:137] Memory required for data: 19787264
I0407 08:24:54.839494 18909 layer_factory.hpp:77] Creating layer label_val-data_1_split
I0407 08:24:54.839505 18909 net.cpp:84] Creating Layer label_val-data_1_split
I0407 08:24:54.839509 18909 net.cpp:406] label_val-data_1_split <- label
I0407 08:24:54.839514 18909 net.cpp:380] label_val-data_1_split -> label_val-data_1_split_0
I0407 08:24:54.839521 18909 net.cpp:380] label_val-data_1_split -> label_val-data_1_split_1
I0407 08:24:54.839573 18909 net.cpp:122] Setting up label_val-data_1_split
I0407 08:24:54.839578 18909 net.cpp:129] Top shape: 32 (32)
I0407 08:24:54.839581 18909 net.cpp:129] Top shape: 32 (32)
I0407 08:24:54.839582 18909 net.cpp:137] Memory required for data: 19787520
I0407 08:24:54.839584 18909 layer_factory.hpp:77] Creating layer conv1
I0407 08:24:54.839594 18909 net.cpp:84] Creating Layer conv1
I0407 08:24:54.839597 18909 net.cpp:406] conv1 <- data
I0407 08:24:54.839601 18909 net.cpp:380] conv1 -> conv1
I0407 08:24:54.851976 18909 net.cpp:122] Setting up conv1
I0407 08:24:54.851999 18909 net.cpp:129] Top shape: 32 96 55 55 (9292800)
I0407 08:24:54.852003 18909 net.cpp:137] Memory required for data: 56958720
I0407 08:24:54.852020 18909 layer_factory.hpp:77] Creating layer relu1
I0407 08:24:54.852030 18909 net.cpp:84] Creating Layer relu1
I0407 08:24:54.852035 18909 net.cpp:406] relu1 <- conv1
I0407 08:24:54.852042 18909 net.cpp:367] relu1 -> conv1 (in-place)
I0407 08:24:54.852435 18909 net.cpp:122] Setting up relu1
I0407 08:24:54.852447 18909 net.cpp:129] Top shape: 32 96 55 55 (9292800)
I0407 08:24:54.852449 18909 net.cpp:137] Memory required for data: 94129920
I0407 08:24:54.852453 18909 layer_factory.hpp:77] Creating layer norm1
I0407 08:24:54.852464 18909 net.cpp:84] Creating Layer norm1
I0407 08:24:54.852468 18909 net.cpp:406] norm1 <- conv1
I0407 08:24:54.852475 18909 net.cpp:380] norm1 -> norm1
I0407 08:24:54.853088 18909 net.cpp:122] Setting up norm1
I0407 08:24:54.853101 18909 net.cpp:129] Top shape: 32 96 55 55 (9292800)
I0407 08:24:54.853104 18909 net.cpp:137] Memory required for data: 131301120
I0407 08:24:54.853108 18909 layer_factory.hpp:77] Creating layer pool1
I0407 08:24:54.853116 18909 net.cpp:84] Creating Layer pool1
I0407 08:24:54.853121 18909 net.cpp:406] pool1 <- norm1
I0407 08:24:54.853127 18909 net.cpp:380] pool1 -> pool1
I0407 08:24:54.853168 18909 net.cpp:122] Setting up pool1
I0407 08:24:54.853174 18909 net.cpp:129] Top shape: 32 96 27 27 (2239488)
I0407 08:24:54.853178 18909 net.cpp:137] Memory required for data: 140259072
I0407 08:24:54.853181 18909 layer_factory.hpp:77] Creating layer conv2
I0407 08:24:54.853193 18909 net.cpp:84] Creating Layer conv2
I0407 08:24:54.853196 18909 net.cpp:406] conv2 <- pool1
I0407 08:24:54.853230 18909 net.cpp:380] conv2 -> conv2
I0407 08:24:54.862079 18909 net.cpp:122] Setting up conv2
I0407 08:24:54.862102 18909 net.cpp:129] Top shape: 32 256 27 27 (5971968)
I0407 08:24:54.862105 18909 net.cpp:137] Memory required for data: 164146944
I0407 08:24:54.862121 18909 layer_factory.hpp:77] Creating layer relu2
I0407 08:24:54.862130 18909 net.cpp:84] Creating Layer relu2
I0407 08:24:54.862134 18909 net.cpp:406] relu2 <- conv2
I0407 08:24:54.862141 18909 net.cpp:367] relu2 -> conv2 (in-place)
I0407 08:24:54.862807 18909 net.cpp:122] Setting up relu2
I0407 08:24:54.862819 18909 net.cpp:129] Top shape: 32 256 27 27 (5971968)
I0407 08:24:54.862823 18909 net.cpp:137] Memory required for data: 188034816
I0407 08:24:54.862826 18909 layer_factory.hpp:77] Creating layer norm2
I0407 08:24:54.862843 18909 net.cpp:84] Creating Layer norm2
I0407 08:24:54.862848 18909 net.cpp:406] norm2 <- conv2
I0407 08:24:54.862854 18909 net.cpp:380] norm2 -> norm2
I0407 08:24:54.863541 18909 net.cpp:122] Setting up norm2
I0407 08:24:54.863554 18909 net.cpp:129] Top shape: 32 256 27 27 (5971968)
I0407 08:24:54.863557 18909 net.cpp:137] Memory required for data: 211922688
I0407 08:24:54.863561 18909 layer_factory.hpp:77] Creating layer pool2
I0407 08:24:54.863569 18909 net.cpp:84] Creating Layer pool2
I0407 08:24:54.863574 18909 net.cpp:406] pool2 <- norm2
I0407 08:24:54.863579 18909 net.cpp:380] pool2 -> pool2
I0407 08:24:54.863618 18909 net.cpp:122] Setting up pool2
I0407 08:24:54.863624 18909 net.cpp:129] Top shape: 32 256 13 13 (1384448)
I0407 08:24:54.863628 18909 net.cpp:137] Memory required for data: 217460480
I0407 08:24:54.863631 18909 layer_factory.hpp:77] Creating layer conv3
I0407 08:24:54.863644 18909 net.cpp:84] Creating Layer conv3
I0407 08:24:54.863648 18909 net.cpp:406] conv3 <- pool2
I0407 08:24:54.863656 18909 net.cpp:380] conv3 -> conv3
I0407 08:24:54.879355 18909 net.cpp:122] Setting up conv3
I0407 08:24:54.879384 18909 net.cpp:129] Top shape: 32 384 13 13 (2076672)
I0407 08:24:54.879387 18909 net.cpp:137] Memory required for data: 225767168
I0407 08:24:54.879403 18909 layer_factory.hpp:77] Creating layer relu3
I0407 08:24:54.879415 18909 net.cpp:84] Creating Layer relu3
I0407 08:24:54.879420 18909 net.cpp:406] relu3 <- conv3
I0407 08:24:54.879429 18909 net.cpp:367] relu3 -> conv3 (in-place)
I0407 08:24:54.880100 18909 net.cpp:122] Setting up relu3
I0407 08:24:54.880113 18909 net.cpp:129] Top shape: 32 384 13 13 (2076672)
I0407 08:24:54.880117 18909 net.cpp:137] Memory required for data: 234073856
I0407 08:24:54.880122 18909 layer_factory.hpp:77] Creating layer conv4
I0407 08:24:54.880136 18909 net.cpp:84] Creating Layer conv4
I0407 08:24:54.880141 18909 net.cpp:406] conv4 <- conv3
I0407 08:24:54.880148 18909 net.cpp:380] conv4 -> conv4
I0407 08:24:54.894243 18909 net.cpp:122] Setting up conv4
I0407 08:24:54.894265 18909 net.cpp:129] Top shape: 32 384 13 13 (2076672)
I0407 08:24:54.894269 18909 net.cpp:137] Memory required for data: 242380544
I0407 08:24:54.894280 18909 layer_factory.hpp:77] Creating layer relu4
I0407 08:24:54.894290 18909 net.cpp:84] Creating Layer relu4
I0407 08:24:54.894295 18909 net.cpp:406] relu4 <- conv4
I0407 08:24:54.894304 18909 net.cpp:367] relu4 -> conv4 (in-place)
I0407 08:24:54.894779 18909 net.cpp:122] Setting up relu4
I0407 08:24:54.894791 18909 net.cpp:129] Top shape: 32 384 13 13 (2076672)
I0407 08:24:54.894795 18909 net.cpp:137] Memory required for data: 250687232
I0407 08:24:54.894799 18909 layer_factory.hpp:77] Creating layer conv5
I0407 08:24:54.894812 18909 net.cpp:84] Creating Layer conv5
I0407 08:24:54.894817 18909 net.cpp:406] conv5 <- conv4
I0407 08:24:54.894825 18909 net.cpp:380] conv5 -> conv5
I0407 08:24:54.907004 18909 net.cpp:122] Setting up conv5
I0407 08:24:54.907027 18909 net.cpp:129] Top shape: 32 256 13 13 (1384448)
I0407 08:24:54.907032 18909 net.cpp:137] Memory required for data: 256225024
I0407 08:24:54.907048 18909 layer_factory.hpp:77] Creating layer relu5
I0407 08:24:54.907059 18909 net.cpp:84] Creating Layer relu5
I0407 08:24:54.907088 18909 net.cpp:406] relu5 <- conv5
I0407 08:24:54.907097 18909 net.cpp:367] relu5 -> conv5 (in-place)
I0407 08:24:54.909761 18909 net.cpp:122] Setting up relu5
I0407 08:24:54.909775 18909 net.cpp:129] Top shape: 32 256 13 13 (1384448)
I0407 08:24:54.909778 18909 net.cpp:137] Memory required for data: 261762816
I0407 08:24:54.909783 18909 layer_factory.hpp:77] Creating layer pool5
I0407 08:24:54.909798 18909 net.cpp:84] Creating Layer pool5
I0407 08:24:54.909802 18909 net.cpp:406] pool5 <- conv5
I0407 08:24:54.909809 18909 net.cpp:380] pool5 -> pool5
I0407 08:24:54.909862 18909 net.cpp:122] Setting up pool5
I0407 08:24:54.909869 18909 net.cpp:129] Top shape: 32 256 6 6 (294912)
I0407 08:24:54.909873 18909 net.cpp:137] Memory required for data: 262942464
I0407 08:24:54.909876 18909 layer_factory.hpp:77] Creating layer fc6
I0407 08:24:54.909888 18909 net.cpp:84] Creating Layer fc6
I0407 08:24:54.909891 18909 net.cpp:406] fc6 <- pool5
I0407 08:24:54.909898 18909 net.cpp:380] fc6 -> fc6
I0407 08:24:55.242172 18909 net.cpp:122] Setting up fc6
I0407 08:24:55.242194 18909 net.cpp:129] Top shape: 32 4096 (131072)
I0407 08:24:55.242197 18909 net.cpp:137] Memory required for data: 263466752
I0407 08:24:55.242205 18909 layer_factory.hpp:77] Creating layer relu6
I0407 08:24:55.242214 18909 net.cpp:84] Creating Layer relu6
I0407 08:24:55.242218 18909 net.cpp:406] relu6 <- fc6
I0407 08:24:55.242223 18909 net.cpp:367] relu6 -> fc6 (in-place)
I0407 08:24:55.242905 18909 net.cpp:122] Setting up relu6
I0407 08:24:55.242915 18909 net.cpp:129] Top shape: 32 4096 (131072)
I0407 08:24:55.242918 18909 net.cpp:137] Memory required for data: 263991040
I0407 08:24:55.242920 18909 layer_factory.hpp:77] Creating layer drop6
I0407 08:24:55.242925 18909 net.cpp:84] Creating Layer drop6
I0407 08:24:55.242928 18909 net.cpp:406] drop6 <- fc6
I0407 08:24:55.242931 18909 net.cpp:367] drop6 -> fc6 (in-place)
I0407 08:24:55.242955 18909 net.cpp:122] Setting up drop6
I0407 08:24:55.242959 18909 net.cpp:129] Top shape: 32 4096 (131072)
I0407 08:24:55.242961 18909 net.cpp:137] Memory required for data: 264515328
I0407 08:24:55.242964 18909 layer_factory.hpp:77] Creating layer fc7
I0407 08:24:55.242970 18909 net.cpp:84] Creating Layer fc7
I0407 08:24:55.242972 18909 net.cpp:406] fc7 <- fc6
I0407 08:24:55.242976 18909 net.cpp:380] fc7 -> fc7
I0407 08:24:55.390293 18909 net.cpp:122] Setting up fc7
I0407 08:24:55.390312 18909 net.cpp:129] Top shape: 32 4096 (131072)
I0407 08:24:55.390316 18909 net.cpp:137] Memory required for data: 265039616
I0407 08:24:55.390323 18909 layer_factory.hpp:77] Creating layer relu7
I0407 08:24:55.390331 18909 net.cpp:84] Creating Layer relu7
I0407 08:24:55.390336 18909 net.cpp:406] relu7 <- fc7
I0407 08:24:55.390341 18909 net.cpp:367] relu7 -> fc7 (in-place)
I0407 08:24:55.390722 18909 net.cpp:122] Setting up relu7
I0407 08:24:55.390731 18909 net.cpp:129] Top shape: 32 4096 (131072)
I0407 08:24:55.390734 18909 net.cpp:137] Memory required for data: 265563904
I0407 08:24:55.390736 18909 layer_factory.hpp:77] Creating layer drop7
I0407 08:24:55.390741 18909 net.cpp:84] Creating Layer drop7
I0407 08:24:55.390744 18909 net.cpp:406] drop7 <- fc7
I0407 08:24:55.390748 18909 net.cpp:367] drop7 -> fc7 (in-place)
I0407 08:24:55.390770 18909 net.cpp:122] Setting up drop7
I0407 08:24:55.390774 18909 net.cpp:129] Top shape: 32 4096 (131072)
I0407 08:24:55.390776 18909 net.cpp:137] Memory required for data: 266088192
I0407 08:24:55.390779 18909 layer_factory.hpp:77] Creating layer fc8
I0407 08:24:55.390785 18909 net.cpp:84] Creating Layer fc8
I0407 08:24:55.390787 18909 net.cpp:406] fc8 <- fc7
I0407 08:24:55.390791 18909 net.cpp:380] fc8 -> fc8
I0407 08:24:55.399226 18909 net.cpp:122] Setting up fc8
I0407 08:24:55.399243 18909 net.cpp:129] Top shape: 32 196 (6272)
I0407 08:24:55.399245 18909 net.cpp:137] Memory required for data: 266113280
I0407 08:24:55.399252 18909 layer_factory.hpp:77] Creating layer fc8_fc8_0_split
I0407 08:24:55.399260 18909 net.cpp:84] Creating Layer fc8_fc8_0_split
I0407 08:24:55.399263 18909 net.cpp:406] fc8_fc8_0_split <- fc8
I0407 08:24:55.399288 18909 net.cpp:380] fc8_fc8_0_split -> fc8_fc8_0_split_0
I0407 08:24:55.399296 18909 net.cpp:380] fc8_fc8_0_split -> fc8_fc8_0_split_1
I0407 08:24:55.399329 18909 net.cpp:122] Setting up fc8_fc8_0_split
I0407 08:24:55.399333 18909 net.cpp:129] Top shape: 32 196 (6272)
I0407 08:24:55.399335 18909 net.cpp:129] Top shape: 32 196 (6272)
I0407 08:24:55.399338 18909 net.cpp:137] Memory required for data: 266163456
I0407 08:24:55.399339 18909 layer_factory.hpp:77] Creating layer accuracy
I0407 08:24:55.399345 18909 net.cpp:84] Creating Layer accuracy
I0407 08:24:55.399348 18909 net.cpp:406] accuracy <- fc8_fc8_0_split_0
I0407 08:24:55.399350 18909 net.cpp:406] accuracy <- label_val-data_1_split_0
I0407 08:24:55.399355 18909 net.cpp:380] accuracy -> accuracy
…
