…
I0428 20:24:37.042009 12706 net.cpp:294] The NetState phase (0) differed from the phase (1) specified by a rule in layer accuracy
I0428 20:24:37.042138 12706 net.cpp:51] Initializing net from parameters:
state {
phase: TRAIN
level: 0
stage: ""
}
layer {
name: "train-data"
type: "Data"
top: "data"
top: "label"
include {
phase: TRAIN
}
transform_param {
mirror: true
crop_size: 227
mean_file: "/mnt/bigdisk/DIGITS-MAN-3/digits/jobs/20210421-230320-902c/mean.binaryproto"
}
data_param {
source: "/mnt/bigdisk/DIGITS-MAN-3/digits/jobs/20210421-230320-902c/train_db"
batch_size: 128
backend: LMDB
}
}
layer {
name: "conv1"
type: "Convolution"
bottom: "data"
top: "conv1"
param {
lr_mult: 1
decay_mult: 1
}
param {
lr_mult: 2
decay_mult: 0
}
convolution_param {
num_output: 96
kernel_size: 11
stride: 4
weight_filler {
type: "gaussian"
std: 0.01
}
bias_filler {
type: "constant"
value: 0
}
}
}
layer {
name: "relu1"
type: "ReLU"
bottom: "conv1"
top: "conv1"
}
layer {
name: "norm1"
type: "LRN"
bottom: "conv1"
top: "norm1"
lrn_param {
local_size: 5
alpha: 0.0001
beta: 0.75
}
}
layer {
name: "pool1"
type: "Pooling"
bottom: "norm1"
top: "pool1"
pooling_param {
pool: MAX
kernel_size: 3
stride: 2
}
}
layer {
name: "conv2"
type: "Convolution"
bottom: "pool1"
top: "conv2"
param {
lr_mult: 1
decay_mult: 1
}
param {
lr_mult: 2
decay_mult: 0
}
convolution_param {
num_output: 256
pad: 2
kernel_size: 5
group: 2
weight_filler {
type: "gaussian"
std: 0.01
}
bias_filler {
type: "constant"
value: 0.1
}
}
}
layer {
name: "relu2"
type: "ReLU"
bottom: "conv2"
top: "conv2"
}
layer {
name: "norm2"
type: "LRN"
bottom: "conv2"
top: "norm2"
lrn_param {
local_size: 5
alpha: 0.0001
beta: 0.75
}
}
layer {
name: "pool2"
type: "Pooling"
bottom: "norm2"
top: "pool2"
pooling_param {
pool: MAX
kernel_size: 3
stride: 2
}
}
layer {
name: "conv3"
type: "Convolution"
bottom: "pool2"
top: "conv3"
param {
lr_mult: 1
decay_mult: 1
}
param {
lr_mult: 2
decay_mult: 0
}
convolution_param {
num_output: 384
pad: 1
kernel_size: 3
weight_filler {
type: "gaussian"
std: 0.01
}
bias_filler {
type: "constant"
value: 0
}
}
}
layer {
name: "relu3"
type: "ReLU"
bottom: "conv3"
top: "conv3"
}
layer {
name: "conv4"
type: "Convolution"
bottom: "conv3"
top: "conv4"
param {
lr_mult: 1
decay_mult: 1
}
param {
lr_mult: 2
decay_mult: 0
}
convolution_param {
num_output: 384
pad: 1
kernel_size: 3
group: 2
weight_filler {
type: "gaussian"
std: 0.01
}
bias_filler {
type: "constant"
value: 0.1
}
}
}
layer {
name: "relu4"
type: "ReLU"
bottom: "conv4"
top: "conv4"
}
layer {
name: "conv5"
type: "Convolution"
bottom: "conv4"
top: "conv5"
param {
lr_mult: 1
decay_mult: 1
}
param {
lr_mult: 2
decay_mult: 0
}
convolution_param {
num_output: 256
pad: 1
kernel_size: 3
group: 2
weight_filler {
type: "gaussian"
std: 0.01
}
bias_filler {
type: "constant"
value: 0.1
}
}
}
layer {
name: "relu5"
type: "ReLU"
bottom: "conv5"
top: "conv5"
}
layer {
name: "pool5"
type: "Pooling"
bottom: "conv5"
top: "pool5"
pooling_param {
pool: MAX
kernel_size: 3
stride: 2
}
}
layer {
name: "fc6"
type: "InnerProduct"
bottom: "pool5"
top: "fc6"
param {
lr_mult: 1
decay_mult: 1
}
param {
lr_mult: 2
decay_mult: 0
}
inner_product_param {
num_output: 4096
weight_filler {
type: "gaussian"
std: 0.005
}
bias_filler {
type: "constant"
value: 0.1
}
}
}
layer {
name: "relu6"
type: "ReLU"
bottom: "fc6"
top: "fc6"
}
layer {
name: "drop6"
type: "Dropout"
bottom: "fc6"
top: "fc6"
dropout_param {
dropout_ratio: 0.5
}
}
layer {
name: "fc7"
type: "InnerProduct"
bottom: "fc6"
top: "fc7"
param {
lr_mult: 1
decay_mult: 1
}
param {
lr_mult: 2
decay_mult: 0
}
inner_product_param {
num_output: 4096
weight_filler {
type: "gaussian"
std: 0.005
}
bias_filler {
type: "constant"
value: 0.1
}
}
}
layer {
name: "relu7"
type: "ReLU"
bottom: "fc7"
top: "fc7"
}
layer {
name: "drop7"
type: "Dropout"
bottom: "fc7"
top: "fc7"
dropout_param {
dropout_ratio: 0.5
}
}
layer {
name: "fc8"
type: "InnerProduct"
bottom: "fc7"
top: "fc8"
param {
lr_mult: 1
decay_mult: 1
}
param {
lr_mult: 2
decay_mult: 0
}
inner_product_param {
num_output: 196
weight_filler {
type: "gaussian"
std: 0.01
}
bias_filler {
type: "constant"
value: 0
}
}
}
layer {
name: "loss"
type: "SoftmaxWithLoss"
bottom: "fc8"
bottom: "label"
top: "loss"
}
I0428 20:24:37.042223 12706 layer_factory.hpp:77] Creating layer train-data
I0428 20:24:37.050719 12706 db_lmdb.cpp:35] Opened lmdb /mnt/bigdisk/DIGITS-MAN-3/digits/jobs/20210421-230320-902c/train_db
I0428 20:24:37.050891 12706 net.cpp:84] Creating Layer train-data
I0428 20:24:37.050902 12706 net.cpp:380] train-data -> data
I0428 20:24:37.050920 12706 net.cpp:380] train-data -> label
I0428 20:24:37.050931 12706 data_transformer.cpp:25] Loading mean file from: /mnt/bigdisk/DIGITS-MAN-3/digits/jobs/20210421-230320-902c/mean.binaryproto
I0428 20:24:37.055986 12706 data_layer.cpp:45] output data size: 128,3,227,227
I0428 20:24:37.197850 12706 net.cpp:122] Setting up train-data
I0428 20:24:37.197875 12706 net.cpp:129] Top shape: 128 3 227 227 (19787136)
I0428 20:24:37.197881 12706 net.cpp:129] Top shape: 128 (128)
I0428 20:24:37.197886 12706 net.cpp:137] Memory required for data: 79149056
I0428 20:24:37.197896 12706 layer_factory.hpp:77] Creating layer conv1
I0428 20:24:37.197918 12706 net.cpp:84] Creating Layer conv1
I0428 20:24:37.197924 12706 net.cpp:406] conv1 <- data
I0428 20:24:37.197937 12706 net.cpp:380] conv1 -> conv1
I0428 20:24:37.791007 12706 net.cpp:122] Setting up conv1
I0428 20:24:37.791029 12706 net.cpp:129] Top shape: 128 96 55 55 (37171200)
I0428 20:24:37.791035 12706 net.cpp:137] Memory required for data: 227833856
I0428 20:24:37.791055 12706 layer_factory.hpp:77] Creating layer relu1
I0428 20:24:37.791065 12706 net.cpp:84] Creating Layer relu1
I0428 20:24:37.791069 12706 net.cpp:406] relu1 <- conv1
I0428 20:24:37.791075 12706 net.cpp:367] relu1 -> conv1 (in-place)
I0428 20:24:37.791368 12706 net.cpp:122] Setting up relu1
I0428 20:24:37.791376 12706 net.cpp:129] Top shape: 128 96 55 55 (37171200)
I0428 20:24:37.791379 12706 net.cpp:137] Memory required for data: 376518656
I0428 20:24:37.791383 12706 layer_factory.hpp:77] Creating layer norm1
I0428 20:24:37.791393 12706 net.cpp:84] Creating Layer norm1
I0428 20:24:37.791416 12706 net.cpp:406] norm1 <- conv1
I0428 20:24:37.791422 12706 net.cpp:380] norm1 -> norm1
I0428 20:24:37.791867 12706 net.cpp:122] Setting up norm1
I0428 20:24:37.791877 12706 net.cpp:129] Top shape: 128 96 55 55 (37171200)
I0428 20:24:37.791882 12706 net.cpp:137] Memory required for data: 525203456
I0428 20:24:37.791887 12706 layer_factory.hpp:77] Creating layer pool1
I0428 20:24:37.791896 12706 net.cpp:84] Creating Layer pool1
I0428 20:24:37.791900 12706 net.cpp:406] pool1 <- norm1
I0428 20:24:37.791906 12706 net.cpp:380] pool1 -> pool1
I0428 20:24:37.791944 12706 net.cpp:122] Setting up pool1
I0428 20:24:37.791950 12706 net.cpp:129] Top shape: 128 96 27 27 (8957952)
I0428 20:24:37.791954 12706 net.cpp:137] Memory required for data: 561035264
I0428 20:24:37.791958 12706 layer_factory.hpp:77] Creating layer conv2
I0428 20:24:37.791970 12706 net.cpp:84] Creating Layer conv2
I0428 20:24:37.791973 12706 net.cpp:406] conv2 <- pool1
I0428 20:24:37.791980 12706 net.cpp:380] conv2 -> conv2
I0428 20:24:37.799386 12706 net.cpp:122] Setting up conv2
I0428 20:24:37.799403 12706 net.cpp:129] Top shape: 128 256 27 27 (23887872)
I0428 20:24:37.799408 12706 net.cpp:137] Memory required for data: 656586752
I0428 20:24:37.799422 12706 layer_factory.hpp:77] Creating layer relu2
I0428 20:24:37.799430 12706 net.cpp:84] Creating Layer relu2
I0428 20:24:37.799435 12706 net.cpp:406] relu2 <- conv2
I0428 20:24:37.799443 12706 net.cpp:367] relu2 -> conv2 (in-place)
I0428 20:24:37.799870 12706 net.cpp:122] Setting up relu2
I0428 20:24:37.799880 12706 net.cpp:129] Top shape: 128 256 27 27 (23887872)
I0428 20:24:37.799885 12706 net.cpp:137] Memory required for data: 752138240
I0428 20:24:37.799891 12706 layer_factory.hpp:77] Creating layer norm2
I0428 20:24:37.799901 12706 net.cpp:84] Creating Layer norm2
I0428 20:24:37.799904 12706 net.cpp:406] norm2 <- conv2
I0428 20:24:37.799912 12706 net.cpp:380] norm2 -> norm2
I0428 20:24:37.800202 12706 net.cpp:122] Setting up norm2
I0428 20:24:37.800212 12706 net.cpp:129] Top shape: 128 256 27 27 (23887872)
I0428 20:24:37.800216 12706 net.cpp:137] Memory required for data: 847689728
I0428 20:24:37.800222 12706 layer_factory.hpp:77] Creating layer pool2
I0428 20:24:37.800231 12706 net.cpp:84] Creating Layer pool2
I0428 20:24:37.800235 12706 net.cpp:406] pool2 <- norm2
I0428 20:24:37.800243 12706 net.cpp:380] pool2 -> pool2
I0428 20:24:37.800271 12706 net.cpp:122] Setting up pool2
I0428 20:24:37.800277 12706 net.cpp:129] Top shape: 128 256 13 13 (5537792)
I0428 20:24:37.800282 12706 net.cpp:137] Memory required for data: 869840896
I0428 20:24:37.800287 12706 layer_factory.hpp:77] Creating layer conv3
I0428 20:24:37.800297 12706 net.cpp:84] Creating Layer conv3
I0428 20:24:37.800300 12706 net.cpp:406] conv3 <- pool2
I0428 20:24:37.800307 12706 net.cpp:380] conv3 -> conv3
I0428 20:24:37.810350 12706 net.cpp:122] Setting up conv3
I0428 20:24:37.810369 12706 net.cpp:129] Top shape: 128 384 13 13 (8306688)
I0428 20:24:37.810372 12706 net.cpp:137] Memory required for data: 903067648
I0428 20:24:37.810385 12706 layer_factory.hpp:77] Creating layer relu3
I0428 20:24:37.810393 12706 net.cpp:84] Creating Layer relu3
I0428 20:24:37.810397 12706 net.cpp:406] relu3 <- conv3
I0428 20:24:37.810405 12706 net.cpp:367] relu3 -> conv3 (in-place)
I0428 20:24:37.810899 12706 net.cpp:122] Setting up relu3
I0428 20:24:37.810909 12706 net.cpp:129] Top shape: 128 384 13 13 (8306688)
I0428 20:24:37.810914 12706 net.cpp:137] Memory required for data: 936294400
I0428 20:24:37.810920 12706 layer_factory.hpp:77] Creating layer conv4
I0428 20:24:37.810932 12706 net.cpp:84] Creating Layer conv4
I0428 20:24:37.810936 12706 net.cpp:406] conv4 <- conv3
I0428 20:24:37.810945 12706 net.cpp:380] conv4 -> conv4
I0428 20:24:37.833113 12706 net.cpp:122] Setting up conv4
I0428 20:24:37.833133 12706 net.cpp:129] Top shape: 128 384 13 13 (8306688)
I0428 20:24:37.833137 12706 net.cpp:137] Memory required for data: 969521152
I0428 20:24:37.833148 12706 layer_factory.hpp:77] Creating layer relu4
I0428 20:24:37.833156 12706 net.cpp:84] Creating Layer relu4
I0428 20:24:37.833180 12706 net.cpp:406] relu4 <- conv4
I0428 20:24:37.833189 12706 net.cpp:367] relu4 -> conv4 (in-place)
I0428 20:24:37.833544 12706 net.cpp:122] Setting up relu4
I0428 20:24:37.833554 12706 net.cpp:129] Top shape: 128 384 13 13 (8306688)
I0428 20:24:37.833559 12706 net.cpp:137] Memory required for data: 1002747904
I0428 20:24:37.833564 12706 layer_factory.hpp:77] Creating layer conv5
I0428 20:24:37.833575 12706 net.cpp:84] Creating Layer conv5
I0428 20:24:37.833580 12706 net.cpp:406] conv5 <- conv4
I0428 20:24:37.833586 12706 net.cpp:380] conv5 -> conv5
I0428 20:24:37.854825 12706 net.cpp:122] Setting up conv5
I0428 20:24:37.854847 12706 net.cpp:129] Top shape: 128 256 13 13 (5537792)
I0428 20:24:37.854853 12706 net.cpp:137] Memory required for data: 1024899072
I0428 20:24:37.854869 12706 layer_factory.hpp:77] Creating layer relu5
I0428 20:24:37.854879 12706 net.cpp:84] Creating Layer relu5
I0428 20:24:37.854887 12706 net.cpp:406] relu5 <- conv5
I0428 20:24:37.854897 12706 net.cpp:367] relu5 -> conv5 (in-place)
I0428 20:24:37.855437 12706 net.cpp:122] Setting up relu5
I0428 20:24:37.855448 12706 net.cpp:129] Top shape: 128 256 13 13 (5537792)
I0428 20:24:37.855455 12706 net.cpp:137] Memory required for data: 1047050240
I0428 20:24:37.855461 12706 layer_factory.hpp:77] Creating layer pool5
I0428 20:24:37.855469 12706 net.cpp:84] Creating Layer pool5
I0428 20:24:37.855474 12706 net.cpp:406] pool5 <- conv5
I0428 20:24:37.855480 12706 net.cpp:380] pool5 -> pool5
I0428 20:24:37.855521 12706 net.cpp:122] Setting up pool5
I0428 20:24:37.855528 12706 net.cpp:129] Top shape: 128 256 6 6 (1179648)
I0428 20:24:37.855533 12706 net.cpp:137] Memory required for data: 1051768832
I0428 20:24:37.855538 12706 layer_factory.hpp:77] Creating layer fc6
I0428 20:24:37.855548 12706 net.cpp:84] Creating Layer fc6
I0428 20:24:37.855552 12706 net.cpp:406] fc6 <- pool5
I0428 20:24:37.855559 12706 net.cpp:380] fc6 -> fc6
I0428 20:24:38.210518 12706 net.cpp:122] Setting up fc6
I0428 20:24:38.210541 12706 net.cpp:129] Top shape: 128 4096 (524288)
I0428 20:24:38.210544 12706 net.cpp:137] Memory required for data: 1053865984
I0428 20:24:38.210554 12706 layer_factory.hpp:77] Creating layer relu6
I0428 20:24:38.210563 12706 net.cpp:84] Creating Layer relu6
I0428 20:24:38.210568 12706 net.cpp:406] relu6 <- fc6
I0428 20:24:38.210577 12706 net.cpp:367] relu6 -> fc6 (in-place)
I0428 20:24:38.211217 12706 net.cpp:122] Setting up relu6
I0428 20:24:38.211228 12706 net.cpp:129] Top shape: 128 4096 (524288)
I0428 20:24:38.211232 12706 net.cpp:137] Memory required for data: 1055963136
I0428 20:24:38.211237 12706 layer_factory.hpp:77] Creating layer drop6
I0428 20:24:38.211243 12706 net.cpp:84] Creating Layer drop6
I0428 20:24:38.211248 12706 net.cpp:406] drop6 <- fc6
I0428 20:24:38.211256 12706 net.cpp:367] drop6 -> fc6 (in-place)
I0428 20:24:38.211284 12706 net.cpp:122] Setting up drop6
I0428 20:24:38.211292 12706 net.cpp:129] Top shape: 128 4096 (524288)
I0428 20:24:38.211295 12706 net.cpp:137] Memory required for data: 1058060288
I0428 20:24:38.211298 12706 layer_factory.hpp:77] Creating layer fc7
I0428 20:24:38.211306 12706 net.cpp:84] Creating Layer fc7
I0428 20:24:38.211309 12706 net.cpp:406] fc7 <- fc6
I0428 20:24:38.211316 12706 net.cpp:380] fc7 -> fc7
I0428 20:24:38.369305 12706 net.cpp:122] Setting up fc7
I0428 20:24:38.369328 12706 net.cpp:129] Top shape: 128 4096 (524288)
I0428 20:24:38.369331 12706 net.cpp:137] Memory required for data: 1060157440
I0428 20:24:38.369340 12706 layer_factory.hpp:77] Creating layer relu7
I0428 20:24:38.369349 12706 net.cpp:84] Creating Layer relu7
I0428 20:24:38.369354 12706 net.cpp:406] relu7 <- fc7
I0428 20:24:38.369362 12706 net.cpp:367] relu7 -> fc7 (in-place)
I0428 20:24:38.375500 12706 net.cpp:122] Setting up relu7
I0428 20:24:38.375514 12706 net.cpp:129] Top shape: 128 4096 (524288)
I0428 20:24:38.375517 12706 net.cpp:137] Memory required for data: 1062254592
I0428 20:24:38.375522 12706 layer_factory.hpp:77] Creating layer drop7
I0428 20:24:38.375530 12706 net.cpp:84] Creating Layer drop7
I0428 20:24:38.375552 12706 net.cpp:406] drop7 <- fc7
I0428 20:24:38.375560 12706 net.cpp:367] drop7 -> fc7 (in-place)
I0428 20:24:38.375586 12706 net.cpp:122] Setting up drop7
I0428 20:24:38.375592 12706 net.cpp:129] Top shape: 128 4096 (524288)
I0428 20:24:38.375595 12706 net.cpp:137] Memory required for data: 1064351744
I0428 20:24:38.375599 12706 layer_factory.hpp:77] Creating layer fc8
I0428 20:24:38.375608 12706 net.cpp:84] Creating Layer fc8
I0428 20:24:38.375612 12706 net.cpp:406] fc8 <- fc7
I0428 20:24:38.375617 12706 net.cpp:380] fc8 -> fc8
I0428 20:24:38.383708 12706 net.cpp:122] Setting up fc8
I0428 20:24:38.383725 12706 net.cpp:129] Top shape: 128 196 (25088)
I0428 20:24:38.383729 12706 net.cpp:137] Memory required for data: 1064452096
I0428 20:24:38.383738 12706 layer_factory.hpp:77] Creating layer loss
I0428 20:24:38.383746 12706 net.cpp:84] Creating Layer loss
I0428 20:24:38.383751 12706 net.cpp:406] loss <- fc8
I0428 20:24:38.383757 12706 net.cpp:406] loss <- label
I0428 20:24:38.383765 12706 net.cpp:380] loss -> loss
I0428 20:24:38.383776 12706 layer_factory.hpp:77] Creating layer loss
…
I0428 20:24:38.385179 12706 net.cpp:294] The NetState phase (1) differed from the phase (0) specified by a rule in layer train-data
I0428 20:24:38.385319 12706 net.cpp:51] Initializing net from parameters:
state {
phase: TEST
}
layer {
name: "val-data"
type: "Data"
top: "data"
top: "label"
include {
phase: TEST
}
transform_param {
crop_size: 227
mean_file: "/mnt/bigdisk/DIGITS-MAN-3/digits/jobs/20210421-230320-902c/mean.binaryproto"
}
data_param {
source: "/mnt/bigdisk/DIGITS-MAN-3/digits/jobs/20210421-230320-902c/val_db"
batch_size: 32
backend: LMDB
}
}
layer {
name: "conv1"
type: "Convolution"
bottom: "data"
top: "conv1"
param {
lr_mult: 1
decay_mult: 1
}
param {
lr_mult: 2
decay_mult: 0
}
convolution_param {
num_output: 96
kernel_size: 11
stride: 4
weight_filler {
type: "gaussian"
std: 0.01
}
bias_filler {
type: "constant"
value: 0
}
}
}
layer {
name: "relu1"
type: "ReLU"
bottom: "conv1"
top: "conv1"
}
layer {
name: "norm1"
type: "LRN"
bottom: "conv1"
top: "norm1"
lrn_param {
local_size: 5
alpha: 0.0001
beta: 0.75
}
}
layer {
name: "pool1"
type: "Pooling"
bottom: "norm1"
top: "pool1"
pooling_param {
pool: MAX
kernel_size: 3
stride: 2
}
}
layer {
name: "conv2"
type: "Convolution"
bottom: "pool1"
top: "conv2"
param {
lr_mult: 1
decay_mult: 1
}
param {
lr_mult: 2
decay_mult: 0
}
convolution_param {
num_output: 256
pad: 2
kernel_size: 5
group: 2
weight_filler {
type: "gaussian"
std: 0.01
}
bias_filler {
type: "constant"
value: 0.1
}
}
}
layer {
name: "relu2"
type: "ReLU"
bottom: "conv2"
top: "conv2"
}
layer {
name: "norm2"
type: "LRN"
bottom: "conv2"
top: "norm2"
lrn_param {
local_size: 5
alpha: 0.0001
beta: 0.75
}
}
layer {
name: "pool2"
type: "Pooling"
bottom: "norm2"
top: "pool2"
pooling_param {
pool: MAX
kernel_size: 3
stride: 2
}
}
layer {
name: "conv3"
type: "Convolution"
bottom: "pool2"
top: "conv3"
param {
lr_mult: 1
decay_mult: 1
}
param {
lr_mult: 2
decay_mult: 0
}
convolution_param {
num_output: 384
pad: 1
kernel_size: 3
weight_filler {
type: "gaussian"
std: 0.01
}
bias_filler {
type: "constant"
value: 0
}
}
}
layer {
name: "relu3"
type: "ReLU"
bottom: "conv3"
top: "conv3"
}
layer {
name: "conv4"
type: "Convolution"
bottom: "conv3"
top: "conv4"
param {
lr_mult: 1
decay_mult: 1
}
param {
lr_mult: 2
decay_mult: 0
}
convolution_param {
num_output: 384
pad: 1
kernel_size: 3
group: 2
weight_filler {
type: "gaussian"
std: 0.01
}
bias_filler {
type: "constant"
value: 0.1
}
}
}
layer {
name: "relu4"
type: "ReLU"
bottom: "conv4"
top: "conv4"
}
layer {
name: "conv5"
type: "Convolution"
bottom: "conv4"
top: "conv5"
param {
lr_mult: 1
decay_mult: 1
}
param {
lr_mult: 2
decay_mult: 0
}
convolution_param {
num_output: 256
pad: 1
kernel_size: 3
group: 2
weight_filler {
type: "gaussian"
std: 0.01
}
bias_filler {
type: "constant"
value: 0.1
}
}
}
layer {
name: "relu5"
type: "ReLU"
bottom: "conv5"
top: "conv5"
}
layer {
name: "pool5"
type: "Pooling"
bottom: "conv5"
top: "pool5"
pooling_param {
pool: MAX
kernel_size: 3
stride: 2
}
}
layer {
name: "fc6"
type: "InnerProduct"
bottom: "pool5"
top: "fc6"
param {
lr_mult: 1
decay_mult: 1
}
param {
lr_mult: 2
decay_mult: 0
}
inner_product_param {
num_output: 4096
weight_filler {
type: "gaussian"
std: 0.005
}
bias_filler {
type: "constant"
value: 0.1
}
}
}
layer {
name: "relu6"
type: "ReLU"
bottom: "fc6"
top: "fc6"
}
layer {
name: "drop6"
type: "Dropout"
bottom: "fc6"
top: "fc6"
dropout_param {
dropout_ratio: 0.5
}
}
layer {
name: "fc7"
type: "InnerProduct"
bottom: "fc6"
top: "fc7"
param {
lr_mult: 1
decay_mult: 1
}
param {
lr_mult: 2
decay_mult: 0
}
inner_product_param {
num_output: 4096
weight_filler {
type: "gaussian"
std: 0.005
}
bias_filler {
type: "constant"
value: 0.1
}
}
}
layer {
name: "relu7"
type: "ReLU"
bottom: "fc7"
top: "fc7"
}
layer {
name: "drop7"
type: "Dropout"
bottom: "fc7"
top: "fc7"
dropout_param {
dropout_ratio: 0.5
}
}
layer {
name: "fc8"
type: "InnerProduct"
bottom: "fc7"
top: "fc8"
param {
lr_mult: 1
decay_mult: 1
}
param {
lr_mult: 2
decay_mult: 0
}
inner_product_param {
num_output: 196
weight_filler {
type: "gaussian"
std: 0.01
}
bias_filler {
type: "constant"
value: 0
}
}
}
layer {
name: "accuracy"
type: "Accuracy"
bottom: "fc8"
bottom: "label"
top: "accuracy"
include {
phase: TEST
}
}
layer {
name: "loss"
type: "SoftmaxWithLoss"
bottom: "fc8"
bottom: "label"
top: "loss"
}
I0428 20:24:38.385423 12706 layer_factory.hpp:77] Creating layer val-data
I0428 20:24:38.403707 12706 db_lmdb.cpp:35] Opened lmdb /mnt/bigdisk/DIGITS-MAN-3/digits/jobs/20210421-230320-902c/val_db
I0428 20:24:38.403878 12706 net.cpp:84] Creating Layer val-data
I0428 20:24:38.403892 12706 net.cpp:380] val-data -> data
I0428 20:24:38.403901 12706 net.cpp:380] val-data -> label
I0428 20:24:38.403909 12706 data_transformer.cpp:25] Loading mean file from: /mnt/bigdisk/DIGITS-MAN-3/digits/jobs/20210421-230320-902c/mean.binaryproto
I0428 20:24:38.407388 12706 data_layer.cpp:45] output data size: 32,3,227,227
I0428 20:24:38.440773 12706 net.cpp:122] Setting up val-data
I0428 20:24:38.440791 12706 net.cpp:129] Top shape: 32 3 227 227 (4946784)
I0428 20:24:38.440796 12706 net.cpp:129] Top shape: 32 (32)
I0428 20:24:38.440800 12706 net.cpp:137] Memory required for data: 19787264
I0428 20:24:38.440806 12706 layer_factory.hpp:77] Creating layer label_val-data_1_split
I0428 20:24:38.440819 12706 net.cpp:84] Creating Layer label_val-data_1_split
I0428 20:24:38.440824 12706 net.cpp:406] label_val-data_1_split <- label
I0428 20:24:38.440830 12706 net.cpp:380] label_val-data_1_split -> label_val-data_1_split_0
I0428 20:24:38.440840 12706 net.cpp:380] label_val-data_1_split -> label_val-data_1_split_1
I0428 20:24:38.440891 12706 net.cpp:122] Setting up label_val-data_1_split
I0428 20:24:38.440896 12706 net.cpp:129] Top shape: 32 (32)
I0428 20:24:38.440901 12706 net.cpp:129] Top shape: 32 (32)
I0428 20:24:38.440903 12706 net.cpp:137] Memory required for data: 19787520
I0428 20:24:38.440907 12706 layer_factory.hpp:77] Creating layer conv1
I0428 20:24:38.440918 12706 net.cpp:84] Creating Layer conv1
I0428 20:24:38.440922 12706 net.cpp:406] conv1 <- data
I0428 20:24:38.440928 12706 net.cpp:380] conv1 -> conv1
I0428 20:24:38.442782 12706 net.cpp:122] Setting up conv1
I0428 20:24:38.442795 12706 net.cpp:129] Top shape: 32 96 55 55 (9292800)
I0428 20:24:38.442798 12706 net.cpp:137] Memory required for data: 56958720
I0428 20:24:38.442809 12706 layer_factory.hpp:77] Creating layer relu1
I0428 20:24:38.442816 12706 net.cpp:84] Creating Layer relu1
I0428 20:24:38.442819 12706 net.cpp:406] relu1 <- conv1
I0428 20:24:38.442824 12706 net.cpp:367] relu1 -> conv1 (in-place)
I0428 20:24:38.443112 12706 net.cpp:122] Setting up relu1
I0428 20:24:38.443121 12706 net.cpp:129] Top shape: 32 96 55 55 (9292800)
I0428 20:24:38.443126 12706 net.cpp:137] Memory required for data: 94129920
I0428 20:24:38.443130 12706 layer_factory.hpp:77] Creating layer norm1
I0428 20:24:38.443140 12706 net.cpp:84] Creating Layer norm1
I0428 20:24:38.443145 12706 net.cpp:406] norm1 <- conv1
I0428 20:24:38.443150 12706 net.cpp:380] norm1 -> norm1
I0428 20:24:38.443612 12706 net.cpp:122] Setting up norm1
I0428 20:24:38.443622 12706 net.cpp:129] Top shape: 32 96 55 55 (9292800)
I0428 20:24:38.443626 12706 net.cpp:137] Memory required for data: 131301120
I0428 20:24:38.443631 12706 layer_factory.hpp:77] Creating layer pool1
I0428 20:24:38.443639 12706 net.cpp:84] Creating Layer pool1
I0428 20:24:38.443642 12706 net.cpp:406] pool1 <- norm1
I0428 20:24:38.443648 12706 net.cpp:380] pool1 -> pool1
I0428 20:24:38.443677 12706 net.cpp:122] Setting up pool1
I0428 20:24:38.443683 12706 net.cpp:129] Top shape: 32 96 27 27 (2239488)
I0428 20:24:38.443686 12706 net.cpp:137] Memory required for data: 140259072
I0428 20:24:38.443691 12706 layer_factory.hpp:77] Creating layer conv2
I0428 20:24:38.443699 12706 net.cpp:84] Creating Layer conv2
I0428 20:24:38.443704 12706 net.cpp:406] conv2 <- pool1
I0428 20:24:38.443730 12706 net.cpp:380] conv2 -> conv2
I0428 20:24:38.452816 12706 net.cpp:122] Setting up conv2
I0428 20:24:38.452836 12706 net.cpp:129] Top shape: 32 256 27 27 (5971968)
I0428 20:24:38.452839 12706 net.cpp:137] Memory required for data: 164146944
I0428 20:24:38.452852 12706 layer_factory.hpp:77] Creating layer relu2
I0428 20:24:38.452860 12706 net.cpp:84] Creating Layer relu2
I0428 20:24:38.452865 12706 net.cpp:406] relu2 <- conv2
I0428 20:24:38.452874 12706 net.cpp:367] relu2 -> conv2 (in-place)
I0428 20:24:38.453382 12706 net.cpp:122] Setting up relu2
I0428 20:24:38.453392 12706 net.cpp:129] Top shape: 32 256 27 27 (5971968)
I0428 20:24:38.453397 12706 net.cpp:137] Memory required for data: 188034816
I0428 20:24:38.453400 12706 layer_factory.hpp:77] Creating layer norm2
I0428 20:24:38.453413 12706 net.cpp:84] Creating Layer norm2
I0428 20:24:38.453418 12706 net.cpp:406] norm2 <- conv2
I0428 20:24:38.453423 12706 net.cpp:380] norm2 -> norm2
I0428 20:24:38.453948 12706 net.cpp:122] Setting up norm2
I0428 20:24:38.453958 12706 net.cpp:129] Top shape: 32 256 27 27 (5971968)
I0428 20:24:38.453961 12706 net.cpp:137] Memory required for data: 211922688
I0428 20:24:38.453966 12706 layer_factory.hpp:77] Creating layer pool2
I0428 20:24:38.453974 12706 net.cpp:84] Creating Layer pool2
I0428 20:24:38.453979 12706 net.cpp:406] pool2 <- norm2
I0428 20:24:38.453985 12706 net.cpp:380] pool2 -> pool2
I0428 20:24:38.454017 12706 net.cpp:122] Setting up pool2
I0428 20:24:38.454022 12706 net.cpp:129] Top shape: 32 256 13 13 (1384448)
I0428 20:24:38.454026 12706 net.cpp:137] Memory required for data: 217460480
I0428 20:24:38.454031 12706 layer_factory.hpp:77] Creating layer conv3
I0428 20:24:38.454041 12706 net.cpp:84] Creating Layer conv3
I0428 20:24:38.454046 12706 net.cpp:406] conv3 <- pool2
I0428 20:24:38.454052 12706 net.cpp:380] conv3 -> conv3
I0428 20:24:38.466078 12706 net.cpp:122] Setting up conv3
I0428 20:24:38.466099 12706 net.cpp:129] Top shape: 32 384 13 13 (2076672)
I0428 20:24:38.466104 12706 net.cpp:137] Memory required for data: 225767168
I0428 20:24:38.466118 12706 layer_factory.hpp:77] Creating layer relu3
I0428 20:24:38.466127 12706 net.cpp:84] Creating Layer relu3
I0428 20:24:38.466132 12706 net.cpp:406] relu3 <- conv3
I0428 20:24:38.466140 12706 net.cpp:367] relu3 -> conv3 (in-place)
I0428 20:24:38.466658 12706 net.cpp:122] Setting up relu3
I0428 20:24:38.466668 12706 net.cpp:129] Top shape: 32 384 13 13 (2076672)
I0428 20:24:38.466672 12706 net.cpp:137] Memory required for data: 234073856
I0428 20:24:38.466677 12706 layer_factory.hpp:77] Creating layer conv4
I0428 20:24:38.466691 12706 net.cpp:84] Creating Layer conv4
I0428 20:24:38.466694 12706 net.cpp:406] conv4 <- conv3
I0428 20:24:38.466703 12706 net.cpp:380] conv4 -> conv4
I0428 20:24:38.476464 12706 net.cpp:122] Setting up conv4
I0428 20:24:38.476482 12706 net.cpp:129] Top shape: 32 384 13 13 (2076672)
I0428 20:24:38.476517 12706 net.cpp:137] Memory required for data: 242380544
I0428 20:24:38.476527 12706 layer_factory.hpp:77] Creating layer relu4
I0428 20:24:38.476538 12706 net.cpp:84] Creating Layer relu4
I0428 20:24:38.476544 12706 net.cpp:406] relu4 <- conv4
I0428 20:24:38.476557 12706 net.cpp:367] relu4 -> conv4 (in-place)
I0428 20:24:38.476909 12706 net.cpp:122] Setting up relu4
I0428 20:24:38.476917 12706 net.cpp:129] Top shape: 32 384 13 13 (2076672)
I0428 20:24:38.476922 12706 net.cpp:137] Memory required for data: 250687232
I0428 20:24:38.476927 12706 layer_factory.hpp:77] Creating layer conv5
I0428 20:24:38.476940 12706 net.cpp:84] Creating Layer conv5
I0428 20:24:38.476946 12706 net.cpp:406] conv5 <- conv4
I0428 20:24:38.476954 12706 net.cpp:380] conv5 -> conv5
I0428 20:24:38.486075 12706 net.cpp:122] Setting up conv5
I0428 20:24:38.486097 12706 net.cpp:129] Top shape: 32 256 13 13 (1384448)
I0428 20:24:38.486101 12706 net.cpp:137] Memory required for data: 256225024
I0428 20:24:38.486114 12706 layer_factory.hpp:77] Creating layer relu5
I0428 20:24:38.486124 12706 net.cpp:84] Creating Layer relu5
I0428 20:24:38.486147 12706 net.cpp:406] relu5 <- conv5
I0428 20:24:38.486155 12706 net.cpp:367] relu5 -> conv5 (in-place)
I0428 20:24:38.486660 12706 net.cpp:122] Setting up relu5
I0428 20:24:38.486670 12706 net.cpp:129] Top shape: 32 256 13 13 (1384448)
I0428 20:24:38.486673 12706 net.cpp:137] Memory required for data: 261762816
I0428 20:24:38.486678 12706 layer_factory.hpp:77] Creating layer pool5
I0428 20:24:38.486690 12706 net.cpp:84] Creating Layer pool5
I0428 20:24:38.486696 12706 net.cpp:406] pool5 <- conv5
I0428 20:24:38.486702 12706 net.cpp:380] pool5 -> pool5
I0428 20:24:38.486742 12706 net.cpp:122] Setting up pool5
I0428 20:24:38.486748 12706 net.cpp:129] Top shape: 32 256 6 6 (294912)
I0428 20:24:38.486752 12706 net.cpp:137] Memory required for data: 262942464
I0428 20:24:38.486755 12706 layer_factory.hpp:77] Creating layer fc6
I0428 20:24:38.486763 12706 net.cpp:84] Creating Layer fc6
I0428 20:24:38.486768 12706 net.cpp:406] fc6 <- pool5
I0428 20:24:38.486773 12706 net.cpp:380] fc6 -> fc6
I0428 20:24:38.848675 12706 net.cpp:122] Setting up fc6
I0428 20:24:38.848695 12706 net.cpp:129] Top shape: 32 4096 (131072)
I0428 20:24:38.848699 12706 net.cpp:137] Memory required for data: 263466752
I0428 20:24:38.848709 12706 layer_factory.hpp:77] Creating layer relu6
I0428 20:24:38.848717 12706 net.cpp:84] Creating Layer relu6
I0428 20:24:38.848722 12706 net.cpp:406] relu6 <- fc6
I0428 20:24:38.848731 12706 net.cpp:367] relu6 -> fc6 (in-place)
I0428 20:24:38.849573 12706 net.cpp:122] Setting up relu6
I0428 20:24:38.849583 12706 net.cpp:129] Top shape: 32 4096 (131072)
I0428 20:24:38.849587 12706 net.cpp:137] Memory required for data: 263991040
I0428 20:24:38.849592 12706 layer_factory.hpp:77] Creating layer drop6
I0428 20:24:38.849602 12706 net.cpp:84] Creating Layer drop6
I0428 20:24:38.849606 12706 net.cpp:406] drop6 <- fc6
I0428 20:24:38.849611 12706 net.cpp:367] drop6 -> fc6 (in-place)
I0428 20:24:38.849642 12706 net.cpp:122] Setting up drop6
I0428 20:24:38.849647 12706 net.cpp:129] Top shape: 32 4096 (131072)
I0428 20:24:38.849651 12706 net.cpp:137] Memory required for data: 264515328
I0428 20:24:38.849655 12706 layer_factory.hpp:77] Creating layer fc7
I0428 20:24:38.849663 12706 net.cpp:84] Creating Layer fc7
I0428 20:24:38.849668 12706 net.cpp:406] fc7 <- fc6
I0428 20:24:38.849675 12706 net.cpp:380] fc7 -> fc7
I0428 20:24:39.017043 12706 net.cpp:122] Setting up fc7
I0428 20:24:39.017064 12706 net.cpp:129] Top shape: 32 4096 (131072)
I0428 20:24:39.017069 12706 net.cpp:137] Memory required for data: 265039616
I0428 20:24:39.017081 12706 layer_factory.hpp:77] Creating layer relu7
I0428 20:24:39.017091 12706 net.cpp:84] Creating Layer relu7
I0428 20:24:39.017096 12706 net.cpp:406] relu7 <- fc7
I0428 20:24:39.017103 12706 net.cpp:367] relu7 -> fc7 (in-place)
I0428 20:24:39.017534 12706 net.cpp:122] Setting up relu7
I0428 20:24:39.017544 12706 net.cpp:129] Top shape: 32 4096 (131072)
I0428 20:24:39.017547 12706 net.cpp:137] Memory required for data: 265563904
I0428 20:24:39.017552 12706 layer_factory.hpp:77] Creating layer drop7
I0428 20:24:39.017560 12706 net.cpp:84] Creating Layer drop7
I0428 20:24:39.017563 12706 net.cpp:406] drop7 <- fc7
I0428 20:24:39.017571 12706 net.cpp:367] drop7 -> fc7 (in-place)
I0428 20:24:39.017596 12706 net.cpp:122] Setting up drop7
I0428 20:24:39.017601 12706 net.cpp:129] Top shape: 32 4096 (131072)
I0428 20:24:39.017606 12706 net.cpp:137] Memory required for data: 266088192
I0428 20:24:39.017609 12706 layer_factory.hpp:77] Creating layer fc8
I0428 20:24:39.017618 12706 net.cpp:84] Creating Layer fc8
I0428 20:24:39.017623 12706 net.cpp:406] fc8 <- fc7
I0428 20:24:39.017629 12706 net.cpp:380] fc8 -> fc8
I0428 20:24:39.025547 12706 net.cpp:122] Setting up fc8
I0428 20:24:39.025560 12706 net.cpp:129] Top shape: 32 196 (6272)
I0428 20:24:39.025564 12706 net.cpp:137] Memory required for data: 266113280
I0428 20:24:39.025571 12706 layer_factory.hpp:77] Creating layer fc8_fc8_0_split
I0428 20:24:39.025579 12706 net.cpp:84] Creating Layer fc8_fc8_0_split
I0428 20:24:39.025583 12706 net.cpp:406] fc8_fc8_0_split <- fc8
I0428 20:24:39.025609 12706 net.cpp:380] fc8_fc8_0_split -> fc8_fc8_0_split_0
I0428 20:24:39.025617 12706 net.cpp:380] fc8_fc8_0_split -> fc8_fc8_0_split_1
I0428 20:24:39.025652 12706 net.cpp:122] Setting up fc8_fc8_0_split
I0428 20:24:39.025657 12706 net.cpp:129] Top shape: 32 196 (6272)
I0428 20:24:39.025661 12706 net.cpp:129] Top shape: 32 196 (6272)
I0428 20:24:39.025665 12706 net.cpp:137] Memory required for data: 266163456
I0428 20:24:39.025668 12706 layer_factory.hpp:77] Creating layer accuracy
I0428 20:24:39.025676 12706 net.cpp:84] Creating Layer accuracy
I0428 20:24:39.025681 12706 net.cpp:406] accuracy <- fc8_fc8_0_split_0
I0428 20:24:39.025686 12706 net.cpp:406] accuracy <- label_val-data_1_split_0
I0428 20:24:39.025691 12706 net.cpp:380] accuracy -> accuracy
…
