…
I0407 22:23:42.803846 32630 net.cpp:294] The NetState phase (0) differed from the phase (1) specified by a rule in layer accuracy
I0407 22:23:42.803966 32630 net.cpp:51] Initializing net from parameters:
state {
phase: TRAIN
level: 0
stage: ""
}
layer {
name: "train-data"
type: "Data"
top: "data"
top: "label"
include {
phase: TRAIN
}
transform_param {
mirror: true
crop_size: 227
mean_file: "/mnt/bigdisk/DIGITS-TAM-1/digits/jobs/20210407-221849-d51c/mean.binaryproto"
}
data_param {
source: "/mnt/bigdisk/DIGITS-TAM-1/digits/jobs/20210407-221849-d51c/train_db"
batch_size: 128
backend: LMDB
}
}
layer {
name: "conv1"
type: "Convolution"
bottom: "data"
top: "conv1"
param {
lr_mult: 1
decay_mult: 1
}
param {
lr_mult: 2
decay_mult: 0
}
convolution_param {
num_output: 96
kernel_size: 11
stride: 4
weight_filler {
type: "gaussian"
std: 0.01
}
bias_filler {
type: "constant"
value: 0
}
}
}
layer {
name: "relu1"
type: "ReLU"
bottom: "conv1"
top: "conv1"
}
layer {
name: "norm1"
type: "LRN"
bottom: "conv1"
top: "norm1"
lrn_param {
local_size: 5
alpha: 0.0001
beta: 0.75
}
}
layer {
name: "pool1"
type: "Pooling"
bottom: "norm1"
top: "pool1"
pooling_param {
pool: MAX
kernel_size: 3
stride: 2
}
}
layer {
name: "conv2"
type: "Convolution"
bottom: "pool1"
top: "conv2"
param {
lr_mult: 1
decay_mult: 1
}
param {
lr_mult: 2
decay_mult: 0
}
convolution_param {
num_output: 256
pad: 2
kernel_size: 5
group: 2
weight_filler {
type: "gaussian"
std: 0.01
}
bias_filler {
type: "constant"
value: 0.1
}
}
}
layer {
name: "relu2"
type: "ReLU"
bottom: "conv2"
top: "conv2"
}
layer {
name: "norm2"
type: "LRN"
bottom: "conv2"
top: "norm2"
lrn_param {
local_size: 5
alpha: 0.0001
beta: 0.75
}
}
layer {
name: "pool2"
type: "Pooling"
bottom: "norm2"
top: "pool2"
pooling_param {
pool: MAX
kernel_size: 3
stride: 2
}
}
layer {
name: "conv3"
type: "Convolution"
bottom: "pool2"
top: "conv3"
param {
lr_mult: 1
decay_mult: 1
}
param {
lr_mult: 2
decay_mult: 0
}
convolution_param {
num_output: 384
pad: 1
kernel_size: 3
weight_filler {
type: "gaussian"
std: 0.01
}
bias_filler {
type: "constant"
value: 0
}
}
}
layer {
name: "relu3"
type: "ReLU"
bottom: "conv3"
top: "conv3"
}
layer {
name: "conv4"
type: "Convolution"
bottom: "conv3"
top: "conv4"
param {
lr_mult: 1
decay_mult: 1
}
param {
lr_mult: 2
decay_mult: 0
}
convolution_param {
num_output: 384
pad: 1
kernel_size: 3
group: 2
weight_filler {
type: "gaussian"
std: 0.01
}
bias_filler {
type: "constant"
value: 0.1
}
}
}
layer {
name: "relu4"
type: "ReLU"
bottom: "conv4"
top: "conv4"
}
layer {
name: "conv5"
type: "Convolution"
bottom: "conv4"
top: "conv5"
param {
lr_mult: 1
decay_mult: 1
}
param {
lr_mult: 2
decay_mult: 0
}
convolution_param {
num_output: 256
pad: 1
kernel_size: 3
group: 2
weight_filler {
type: "gaussian"
std: 0.01
}
bias_filler {
type: "constant"
value: 0.1
}
}
}
layer {
name: "relu5"
type: "ReLU"
bottom: "conv5"
top: "conv5"
}
layer {
name: "pool5"
type: "Pooling"
bottom: "conv5"
top: "pool5"
pooling_param {
pool: MAX
kernel_size: 3
stride: 2
}
}
layer {
name: "fc6"
type: "InnerProduct"
bottom: "pool5"
top: "fc6"
param {
lr_mult: 1
decay_mult: 1
}
param {
lr_mult: 2
decay_mult: 0
}
inner_product_param {
num_output: 4096
weight_filler {
type: "gaussian"
std: 0.005
}
bias_filler {
type: "constant"
value: 0.1
}
}
}
layer {
name: "relu6"
type: "ReLU"
bottom: "fc6"
top: "fc6"
}
layer {
name: "drop6"
type: "Dropout"
bottom: "fc6"
top: "fc6"
dropout_param {
dropout_ratio: 0.5
}
}
layer {
name: "fc7"
type: "InnerProduct"
bottom: "fc6"
top: "fc7"
param {
lr_mult: 1
decay_mult: 1
}
param {
lr_mult: 2
decay_mult: 0
}
inner_product_param {
num_output: 4096
weight_filler {
type: "gaussian"
std: 0.005
}
bias_filler {
type: "constant"
value: 0.1
}
}
}
layer {
name: "relu7"
type: "ReLU"
bottom: "fc7"
top: "fc7"
}
layer {
name: "drop7"
type: "Dropout"
bottom: "fc7"
top: "fc7"
dropout_param {
dropout_ratio: 0.5
}
}
layer {
name: "fc8"
type: "InnerProduct"
bottom: "fc7"
top: "fc8"
param {
lr_mult: 1
decay_mult: 1
}
param {
lr_mult: 2
decay_mult: 0
}
inner_product_param {
num_output: 196
weight_filler {
type: "gaussian"
std: 0.01
}
bias_filler {
type: "constant"
value: 0
}
}
}
layer {
name: "loss"
type: "SoftmaxWithLoss"
bottom: "fc8"
bottom: "label"
top: "loss"
}
I0407 22:23:42.804054 32630 layer_factory.hpp:77] Creating layer train-data
I0407 22:23:42.809190 32630 db_lmdb.cpp:35] Opened lmdb /mnt/bigdisk/DIGITS-TAM-1/digits/jobs/20210407-221849-d51c/train_db
I0407 22:23:42.810515 32630 net.cpp:84] Creating Layer train-data
I0407 22:23:42.810525 32630 net.cpp:380] train-data -> data
I0407 22:23:42.810557 32630 net.cpp:380] train-data -> label
I0407 22:23:42.810570 32630 data_transformer.cpp:25] Loading mean file from: /mnt/bigdisk/DIGITS-TAM-1/digits/jobs/20210407-221849-d51c/mean.binaryproto
I0407 22:23:42.837807 32630 data_layer.cpp:45] output data size: 128,3,227,227
I0407 22:23:42.965687 32630 net.cpp:122] Setting up train-data
I0407 22:23:42.965711 32630 net.cpp:129] Top shape: 128 3 227 227 (19787136)
I0407 22:23:42.965715 32630 net.cpp:129] Top shape: 128 (128)
I0407 22:23:42.965718 32630 net.cpp:137] Memory required for data: 79149056
I0407 22:23:42.965726 32630 layer_factory.hpp:77] Creating layer conv1
I0407 22:23:42.965764 32630 net.cpp:84] Creating Layer conv1
I0407 22:23:42.965770 32630 net.cpp:406] conv1 <- data
I0407 22:23:42.965781 32630 net.cpp:380] conv1 -> conv1
I0407 22:23:44.462642 32630 net.cpp:122] Setting up conv1
I0407 22:23:44.462661 32630 net.cpp:129] Top shape: 128 96 55 55 (37171200)
I0407 22:23:44.462664 32630 net.cpp:137] Memory required for data: 227833856
I0407 22:23:44.462683 32630 layer_factory.hpp:77] Creating layer relu1
I0407 22:23:44.462692 32630 net.cpp:84] Creating Layer relu1
I0407 22:23:44.462697 32630 net.cpp:406] relu1 <- conv1
I0407 22:23:44.462702 32630 net.cpp:367] relu1 -> conv1 (in-place)
I0407 22:23:44.463037 32630 net.cpp:122] Setting up relu1
I0407 22:23:44.463047 32630 net.cpp:129] Top shape: 128 96 55 55 (37171200)
I0407 22:23:44.463049 32630 net.cpp:137] Memory required for data: 376518656
I0407 22:23:44.463052 32630 layer_factory.hpp:77] Creating layer norm1
I0407 22:23:44.463060 32630 net.cpp:84] Creating Layer norm1
I0407 22:23:44.463078 32630 net.cpp:406] norm1 <- conv1
I0407 22:23:44.463084 32630 net.cpp:380] norm1 -> norm1
I0407 22:23:44.463654 32630 net.cpp:122] Setting up norm1
I0407 22:23:44.463665 32630 net.cpp:129] Top shape: 128 96 55 55 (37171200)
I0407 22:23:44.463667 32630 net.cpp:137] Memory required for data: 525203456
I0407 22:23:44.463670 32630 layer_factory.hpp:77] Creating layer pool1
I0407 22:23:44.463678 32630 net.cpp:84] Creating Layer pool1
I0407 22:23:44.463681 32630 net.cpp:406] pool1 <- norm1
I0407 22:23:44.463685 32630 net.cpp:380] pool1 -> pool1
I0407 22:23:44.463729 32630 net.cpp:122] Setting up pool1
I0407 22:23:44.463734 32630 net.cpp:129] Top shape: 128 96 27 27 (8957952)
I0407 22:23:44.463737 32630 net.cpp:137] Memory required for data: 561035264
I0407 22:23:44.463740 32630 layer_factory.hpp:77] Creating layer conv2
I0407 22:23:44.463748 32630 net.cpp:84] Creating Layer conv2
I0407 22:23:44.463752 32630 net.cpp:406] conv2 <- pool1
I0407 22:23:44.463757 32630 net.cpp:380] conv2 -> conv2
I0407 22:23:44.476099 32630 net.cpp:122] Setting up conv2
I0407 22:23:44.476110 32630 net.cpp:129] Top shape: 128 256 27 27 (23887872)
I0407 22:23:44.476114 32630 net.cpp:137] Memory required for data: 656586752
I0407 22:23:44.476121 32630 layer_factory.hpp:77] Creating layer relu2
I0407 22:23:44.476127 32630 net.cpp:84] Creating Layer relu2
I0407 22:23:44.476131 32630 net.cpp:406] relu2 <- conv2
I0407 22:23:44.476137 32630 net.cpp:367] relu2 -> conv2 (in-place)
I0407 22:23:44.476750 32630 net.cpp:122] Setting up relu2
I0407 22:23:44.476759 32630 net.cpp:129] Top shape: 128 256 27 27 (23887872)
I0407 22:23:44.476763 32630 net.cpp:137] Memory required for data: 752138240
I0407 22:23:44.476765 32630 layer_factory.hpp:77] Creating layer norm2
I0407 22:23:44.476773 32630 net.cpp:84] Creating Layer norm2
I0407 22:23:44.476776 32630 net.cpp:406] norm2 <- conv2
I0407 22:23:44.476780 32630 net.cpp:380] norm2 -> norm2
I0407 22:23:44.477172 32630 net.cpp:122] Setting up norm2
I0407 22:23:44.477183 32630 net.cpp:129] Top shape: 128 256 27 27 (23887872)
I0407 22:23:44.477186 32630 net.cpp:137] Memory required for data: 847689728
I0407 22:23:44.477190 32630 layer_factory.hpp:77] Creating layer pool2
I0407 22:23:44.477196 32630 net.cpp:84] Creating Layer pool2
I0407 22:23:44.477198 32630 net.cpp:406] pool2 <- norm2
I0407 22:23:44.477203 32630 net.cpp:380] pool2 -> pool2
I0407 22:23:44.477231 32630 net.cpp:122] Setting up pool2
I0407 22:23:44.477236 32630 net.cpp:129] Top shape: 128 256 13 13 (5537792)
I0407 22:23:44.477239 32630 net.cpp:137] Memory required for data: 869840896
I0407 22:23:44.477241 32630 layer_factory.hpp:77] Creating layer conv3
I0407 22:23:44.477252 32630 net.cpp:84] Creating Layer conv3
I0407 22:23:44.477254 32630 net.cpp:406] conv3 <- pool2
I0407 22:23:44.477258 32630 net.cpp:380] conv3 -> conv3
I0407 22:23:44.488667 32630 net.cpp:122] Setting up conv3
I0407 22:23:44.488678 32630 net.cpp:129] Top shape: 128 384 13 13 (8306688)
I0407 22:23:44.488682 32630 net.cpp:137] Memory required for data: 903067648
I0407 22:23:44.488689 32630 layer_factory.hpp:77] Creating layer relu3
I0407 22:23:44.488694 32630 net.cpp:84] Creating Layer relu3
I0407 22:23:44.488698 32630 net.cpp:406] relu3 <- conv3
I0407 22:23:44.488703 32630 net.cpp:367] relu3 -> conv3 (in-place)
I0407 22:23:44.489284 32630 net.cpp:122] Setting up relu3
I0407 22:23:44.489293 32630 net.cpp:129] Top shape: 128 384 13 13 (8306688)
I0407 22:23:44.489295 32630 net.cpp:137] Memory required for data: 936294400
I0407 22:23:44.489298 32630 layer_factory.hpp:77] Creating layer conv4
I0407 22:23:44.489308 32630 net.cpp:84] Creating Layer conv4
I0407 22:23:44.489311 32630 net.cpp:406] conv4 <- conv3
I0407 22:23:44.489317 32630 net.cpp:380] conv4 -> conv4
I0407 22:23:44.500768 32630 net.cpp:122] Setting up conv4
I0407 22:23:44.500782 32630 net.cpp:129] Top shape: 128 384 13 13 (8306688)
I0407 22:23:44.500785 32630 net.cpp:137] Memory required for data: 969521152
I0407 22:23:44.500792 32630 layer_factory.hpp:77] Creating layer relu4
I0407 22:23:44.500798 32630 net.cpp:84] Creating Layer relu4
I0407 22:23:44.500816 32630 net.cpp:406] relu4 <- conv4
I0407 22:23:44.500823 32630 net.cpp:367] relu4 -> conv4 (in-place)
I0407 22:23:44.501421 32630 net.cpp:122] Setting up relu4
I0407 22:23:44.501430 32630 net.cpp:129] Top shape: 128 384 13 13 (8306688)
I0407 22:23:44.501433 32630 net.cpp:137] Memory required for data: 1002747904
I0407 22:23:44.501436 32630 layer_factory.hpp:77] Creating layer conv5
I0407 22:23:44.501446 32630 net.cpp:84] Creating Layer conv5
I0407 22:23:44.501449 32630 net.cpp:406] conv5 <- conv4
I0407 22:23:44.501457 32630 net.cpp:380] conv5 -> conv5
I0407 22:23:44.510877 32630 net.cpp:122] Setting up conv5
I0407 22:23:44.510890 32630 net.cpp:129] Top shape: 128 256 13 13 (5537792)
I0407 22:23:44.510892 32630 net.cpp:137] Memory required for data: 1024899072
I0407 22:23:44.510905 32630 layer_factory.hpp:77] Creating layer relu5
I0407 22:23:44.510910 32630 net.cpp:84] Creating Layer relu5
I0407 22:23:44.510915 32630 net.cpp:406] relu5 <- conv5
I0407 22:23:44.510918 32630 net.cpp:367] relu5 -> conv5 (in-place)
I0407 22:23:44.511484 32630 net.cpp:122] Setting up relu5
I0407 22:23:44.511495 32630 net.cpp:129] Top shape: 128 256 13 13 (5537792)
I0407 22:23:44.511498 32630 net.cpp:137] Memory required for data: 1047050240
I0407 22:23:44.511502 32630 layer_factory.hpp:77] Creating layer pool5
I0407 22:23:44.511507 32630 net.cpp:84] Creating Layer pool5
I0407 22:23:44.511510 32630 net.cpp:406] pool5 <- conv5
I0407 22:23:44.511514 32630 net.cpp:380] pool5 -> pool5
I0407 22:23:44.511552 32630 net.cpp:122] Setting up pool5
I0407 22:23:44.511557 32630 net.cpp:129] Top shape: 128 256 6 6 (1179648)
I0407 22:23:44.511559 32630 net.cpp:137] Memory required for data: 1051768832
I0407 22:23:44.511562 32630 layer_factory.hpp:77] Creating layer fc6
I0407 22:23:44.511572 32630 net.cpp:84] Creating Layer fc6
I0407 22:23:44.511575 32630 net.cpp:406] fc6 <- pool5
I0407 22:23:44.511579 32630 net.cpp:380] fc6 -> fc6
I0407 22:23:44.856149 32630 net.cpp:122] Setting up fc6
I0407 22:23:44.856168 32630 net.cpp:129] Top shape: 128 4096 (524288)
I0407 22:23:44.856171 32630 net.cpp:137] Memory required for data: 1053865984
I0407 22:23:44.856180 32630 layer_factory.hpp:77] Creating layer relu6
I0407 22:23:44.856189 32630 net.cpp:84] Creating Layer relu6
I0407 22:23:44.856192 32630 net.cpp:406] relu6 <- fc6
I0407 22:23:44.856199 32630 net.cpp:367] relu6 -> fc6 (in-place)
I0407 22:23:44.856938 32630 net.cpp:122] Setting up relu6
I0407 22:23:44.856947 32630 net.cpp:129] Top shape: 128 4096 (524288)
I0407 22:23:44.856950 32630 net.cpp:137] Memory required for data: 1055963136
I0407 22:23:44.856953 32630 layer_factory.hpp:77] Creating layer drop6
I0407 22:23:44.856959 32630 net.cpp:84] Creating Layer drop6
I0407 22:23:44.856962 32630 net.cpp:406] drop6 <- fc6
I0407 22:23:44.856967 32630 net.cpp:367] drop6 -> fc6 (in-place)
I0407 22:23:44.856993 32630 net.cpp:122] Setting up drop6
I0407 22:23:44.856998 32630 net.cpp:129] Top shape: 128 4096 (524288)
I0407 22:23:44.857000 32630 net.cpp:137] Memory required for data: 1058060288
I0407 22:23:44.857003 32630 layer_factory.hpp:77] Creating layer fc7
I0407 22:23:44.857009 32630 net.cpp:84] Creating Layer fc7
I0407 22:23:44.857012 32630 net.cpp:406] fc7 <- fc6
I0407 22:23:44.857017 32630 net.cpp:380] fc7 -> fc7
I0407 22:23:45.009280 32630 net.cpp:122] Setting up fc7
I0407 22:23:45.009300 32630 net.cpp:129] Top shape: 128 4096 (524288)
I0407 22:23:45.009305 32630 net.cpp:137] Memory required for data: 1060157440
I0407 22:23:45.009312 32630 layer_factory.hpp:77] Creating layer relu7
I0407 22:23:45.009320 32630 net.cpp:84] Creating Layer relu7
I0407 22:23:45.009325 32630 net.cpp:406] relu7 <- fc7
I0407 22:23:45.009330 32630 net.cpp:367] relu7 -> fc7 (in-place)
I0407 22:23:45.009804 32630 net.cpp:122] Setting up relu7
I0407 22:23:45.009814 32630 net.cpp:129] Top shape: 128 4096 (524288)
I0407 22:23:45.009816 32630 net.cpp:137] Memory required for data: 1062254592
I0407 22:23:45.009819 32630 layer_factory.hpp:77] Creating layer drop7
I0407 22:23:45.009825 32630 net.cpp:84] Creating Layer drop7
I0407 22:23:45.009841 32630 net.cpp:406] drop7 <- fc7
I0407 22:23:45.009845 32630 net.cpp:367] drop7 -> fc7 (in-place)
I0407 22:23:45.009868 32630 net.cpp:122] Setting up drop7
I0407 22:23:45.009873 32630 net.cpp:129] Top shape: 128 4096 (524288)
I0407 22:23:45.009876 32630 net.cpp:137] Memory required for data: 1064351744
I0407 22:23:45.009878 32630 layer_factory.hpp:77] Creating layer fc8
I0407 22:23:45.009886 32630 net.cpp:84] Creating Layer fc8
I0407 22:23:45.009888 32630 net.cpp:406] fc8 <- fc7
I0407 22:23:45.009892 32630 net.cpp:380] fc8 -> fc8
I0407 22:23:45.017489 32630 net.cpp:122] Setting up fc8
I0407 22:23:45.017498 32630 net.cpp:129] Top shape: 128 196 (25088)
I0407 22:23:45.017501 32630 net.cpp:137] Memory required for data: 1064452096
I0407 22:23:45.017506 32630 layer_factory.hpp:77] Creating layer loss
I0407 22:23:45.019939 32630 net.cpp:84] Creating Layer loss
I0407 22:23:45.019955 32630 net.cpp:406] loss <- fc8
I0407 22:23:45.019966 32630 net.cpp:406] loss <- label
I0407 22:23:45.019980 32630 net.cpp:380] loss -> loss
I0407 22:23:45.019999 32630 layer_factory.hpp:77] Creating layer loss
…
I0407 22:23:45.022038 32630 net.cpp:294] The NetState phase (1) differed from the phase (0) specified by a rule in layer train-data
I0407 22:23:45.022166 32630 net.cpp:51] Initializing net from parameters:
state {
phase: TEST
}
layer {
name: "val-data"
type: "Data"
top: "data"
top: "label"
include {
phase: TEST
}
transform_param {
crop_size: 227
mean_file: "/mnt/bigdisk/DIGITS-TAM-1/digits/jobs/20210407-221849-d51c/mean.binaryproto"
}
data_param {
source: "/mnt/bigdisk/DIGITS-TAM-1/digits/jobs/20210407-221849-d51c/val_db"
batch_size: 32
backend: LMDB
}
}
layer {
name: "conv1"
type: "Convolution"
bottom: "data"
top: "conv1"
param {
lr_mult: 1
decay_mult: 1
}
param {
lr_mult: 2
decay_mult: 0
}
convolution_param {
num_output: 96
kernel_size: 11
stride: 4
weight_filler {
type: "gaussian"
std: 0.01
}
bias_filler {
type: "constant"
value: 0
}
}
}
layer {
name: "relu1"
type: "ReLU"
bottom: "conv1"
top: "conv1"
}
layer {
name: "norm1"
type: "LRN"
bottom: "conv1"
top: "norm1"
lrn_param {
local_size: 5
alpha: 0.0001
beta: 0.75
}
}
layer {
name: "pool1"
type: "Pooling"
bottom: "norm1"
top: "pool1"
pooling_param {
pool: MAX
kernel_size: 3
stride: 2
}
}
layer {
name: "conv2"
type: "Convolution"
bottom: "pool1"
top: "conv2"
param {
lr_mult: 1
decay_mult: 1
}
param {
lr_mult: 2
decay_mult: 0
}
convolution_param {
num_output: 256
pad: 2
kernel_size: 5
group: 2
weight_filler {
type: "gaussian"
std: 0.01
}
bias_filler {
type: "constant"
value: 0.1
}
}
}
layer {
name: "relu2"
type: "ReLU"
bottom: "conv2"
top: "conv2"
}
layer {
name: "norm2"
type: "LRN"
bottom: "conv2"
top: "norm2"
lrn_param {
local_size: 5
alpha: 0.0001
beta: 0.75
}
}
layer {
name: "pool2"
type: "Pooling"
bottom: "norm2"
top: "pool2"
pooling_param {
pool: MAX
kernel_size: 3
stride: 2
}
}
layer {
name: "conv3"
type: "Convolution"
bottom: "pool2"
top: "conv3"
param {
lr_mult: 1
decay_mult: 1
}
param {
lr_mult: 2
decay_mult: 0
}
convolution_param {
num_output: 384
pad: 1
kernel_size: 3
weight_filler {
type: "gaussian"
std: 0.01
}
bias_filler {
type: "constant"
value: 0
}
}
}
layer {
name: "relu3"
type: "ReLU"
bottom: "conv3"
top: "conv3"
}
layer {
name: "conv4"
type: "Convolution"
bottom: "conv3"
top: "conv4"
param {
lr_mult: 1
decay_mult: 1
}
param {
lr_mult: 2
decay_mult: 0
}
convolution_param {
num_output: 384
pad: 1
kernel_size: 3
group: 2
weight_filler {
type: "gaussian"
std: 0.01
}
bias_filler {
type: "constant"
value: 0.1
}
}
}
layer {
name: "relu4"
type: "ReLU"
bottom: "conv4"
top: "conv4"
}
layer {
name: "conv5"
type: "Convolution"
bottom: "conv4"
top: "conv5"
param {
lr_mult: 1
decay_mult: 1
}
param {
lr_mult: 2
decay_mult: 0
}
convolution_param {
num_output: 256
pad: 1
kernel_size: 3
group: 2
weight_filler {
type: "gaussian"
std: 0.01
}
bias_filler {
type: "constant"
value: 0.1
}
}
}
layer {
name: "relu5"
type: "ReLU"
bottom: "conv5"
top: "conv5"
}
layer {
name: "pool5"
type: "Pooling"
bottom: "conv5"
top: "pool5"
pooling_param {
pool: MAX
kernel_size: 3
stride: 2
}
}
layer {
name: "fc6"
type: "InnerProduct"
bottom: "pool5"
top: "fc6"
param {
lr_mult: 1
decay_mult: 1
}
param {
lr_mult: 2
decay_mult: 0
}
inner_product_param {
num_output: 4096
weight_filler {
type: "gaussian"
std: 0.005
}
bias_filler {
type: "constant"
value: 0.1
}
}
}
layer {
name: "relu6"
type: "ReLU"
bottom: "fc6"
top: "fc6"
}
layer {
name: "drop6"
type: "Dropout"
bottom: "fc6"
top: "fc6"
dropout_param {
dropout_ratio: 0.5
}
}
layer {
name: "fc7"
type: "InnerProduct"
bottom: "fc6"
top: "fc7"
param {
lr_mult: 1
decay_mult: 1
}
param {
lr_mult: 2
decay_mult: 0
}
inner_product_param {
num_output: 4096
weight_filler {
type: "gaussian"
std: 0.005
}
bias_filler {
type: "constant"
value: 0.1
}
}
}
layer {
name: "relu7"
type: "ReLU"
bottom: "fc7"
top: "fc7"
}
layer {
name: "drop7"
type: "Dropout"
bottom: "fc7"
top: "fc7"
dropout_param {
dropout_ratio: 0.5
}
}
layer {
name: "fc8"
type: "InnerProduct"
bottom: "fc7"
top: "fc8"
param {
lr_mult: 1
decay_mult: 1
}
param {
lr_mult: 2
decay_mult: 0
}
inner_product_param {
num_output: 196
weight_filler {
type: "gaussian"
std: 0.01
}
bias_filler {
type: "constant"
value: 0
}
}
}
layer {
name: "accuracy"
type: "Accuracy"
bottom: "fc8"
bottom: "label"
top: "accuracy"
include {
phase: TEST
}
}
layer {
name: "loss"
type: "SoftmaxWithLoss"
bottom: "fc8"
bottom: "label"
top: "loss"
}
I0407 22:23:45.022261 32630 layer_factory.hpp:77] Creating layer val-data
I0407 22:23:45.026412 32630 db_lmdb.cpp:35] Opened lmdb /mnt/bigdisk/DIGITS-TAM-1/digits/jobs/20210407-221849-d51c/val_db
I0407 22:23:45.041004 32630 net.cpp:84] Creating Layer val-data
I0407 22:23:45.041035 32630 net.cpp:380] val-data -> data
I0407 22:23:45.041056 32630 net.cpp:380] val-data -> label
I0407 22:23:45.041072 32630 data_transformer.cpp:25] Loading mean file from: /mnt/bigdisk/DIGITS-TAM-1/digits/jobs/20210407-221849-d51c/mean.binaryproto
I0407 22:23:45.058750 32630 data_layer.cpp:45] output data size: 32,3,227,227
I0407 22:23:45.094960 32630 net.cpp:122] Setting up val-data
I0407 22:23:45.094985 32630 net.cpp:129] Top shape: 32 3 227 227 (4946784)
I0407 22:23:45.094988 32630 net.cpp:129] Top shape: 32 (32)
I0407 22:23:45.094991 32630 net.cpp:137] Memory required for data: 19787264
I0407 22:23:45.094997 32630 layer_factory.hpp:77] Creating layer label_val-data_1_split
I0407 22:23:45.095008 32630 net.cpp:84] Creating Layer label_val-data_1_split
I0407 22:23:45.095012 32630 net.cpp:406] label_val-data_1_split <- label
I0407 22:23:45.095018 32630 net.cpp:380] label_val-data_1_split -> label_val-data_1_split_0
I0407 22:23:45.095027 32630 net.cpp:380] label_val-data_1_split -> label_val-data_1_split_1
I0407 22:23:45.095072 32630 net.cpp:122] Setting up label_val-data_1_split
I0407 22:23:45.095078 32630 net.cpp:129] Top shape: 32 (32)
I0407 22:23:45.095082 32630 net.cpp:129] Top shape: 32 (32)
I0407 22:23:45.095083 32630 net.cpp:137] Memory required for data: 19787520
I0407 22:23:45.095086 32630 layer_factory.hpp:77] Creating layer conv1
I0407 22:23:45.095096 32630 net.cpp:84] Creating Layer conv1
I0407 22:23:45.095099 32630 net.cpp:406] conv1 <- data
I0407 22:23:45.095104 32630 net.cpp:380] conv1 -> conv1
I0407 22:23:45.098523 32630 net.cpp:122] Setting up conv1
I0407 22:23:45.098534 32630 net.cpp:129] Top shape: 32 96 55 55 (9292800)
I0407 22:23:45.098537 32630 net.cpp:137] Memory required for data: 56958720
I0407 22:23:45.098547 32630 layer_factory.hpp:77] Creating layer relu1
I0407 22:23:45.098553 32630 net.cpp:84] Creating Layer relu1
I0407 22:23:45.098556 32630 net.cpp:406] relu1 <- conv1
I0407 22:23:45.098560 32630 net.cpp:367] relu1 -> conv1 (in-place)
I0407 22:23:45.098889 32630 net.cpp:122] Setting up relu1
I0407 22:23:45.098899 32630 net.cpp:129] Top shape: 32 96 55 55 (9292800)
I0407 22:23:45.098901 32630 net.cpp:137] Memory required for data: 94129920
I0407 22:23:45.098904 32630 layer_factory.hpp:77] Creating layer norm1
I0407 22:23:45.098912 32630 net.cpp:84] Creating Layer norm1
I0407 22:23:45.098915 32630 net.cpp:406] norm1 <- conv1
I0407 22:23:45.098920 32630 net.cpp:380] norm1 -> norm1
I0407 22:23:45.099491 32630 net.cpp:122] Setting up norm1
I0407 22:23:45.099501 32630 net.cpp:129] Top shape: 32 96 55 55 (9292800)
I0407 22:23:45.099504 32630 net.cpp:137] Memory required for data: 131301120
I0407 22:23:45.099507 32630 layer_factory.hpp:77] Creating layer pool1
I0407 22:23:45.099514 32630 net.cpp:84] Creating Layer pool1
I0407 22:23:45.099517 32630 net.cpp:406] pool1 <- norm1
I0407 22:23:45.099522 32630 net.cpp:380] pool1 -> pool1
I0407 22:23:45.099547 32630 net.cpp:122] Setting up pool1
I0407 22:23:45.099552 32630 net.cpp:129] Top shape: 32 96 27 27 (2239488)
I0407 22:23:45.099555 32630 net.cpp:137] Memory required for data: 140259072
I0407 22:23:45.099557 32630 layer_factory.hpp:77] Creating layer conv2
I0407 22:23:45.099565 32630 net.cpp:84] Creating Layer conv2
I0407 22:23:45.099567 32630 net.cpp:406] conv2 <- pool1
I0407 22:23:45.099591 32630 net.cpp:380] conv2 -> conv2
I0407 22:23:45.109513 32630 net.cpp:122] Setting up conv2
I0407 22:23:45.109529 32630 net.cpp:129] Top shape: 32 256 27 27 (5971968)
I0407 22:23:45.109532 32630 net.cpp:137] Memory required for data: 164146944
I0407 22:23:45.109542 32630 layer_factory.hpp:77] Creating layer relu2
I0407 22:23:45.109549 32630 net.cpp:84] Creating Layer relu2
I0407 22:23:45.109553 32630 net.cpp:406] relu2 <- conv2
I0407 22:23:45.109560 32630 net.cpp:367] relu2 -> conv2 (in-place)
I0407 22:23:45.110158 32630 net.cpp:122] Setting up relu2
I0407 22:23:45.110167 32630 net.cpp:129] Top shape: 32 256 27 27 (5971968)
I0407 22:23:45.110170 32630 net.cpp:137] Memory required for data: 188034816
I0407 22:23:45.110173 32630 layer_factory.hpp:77] Creating layer norm2
I0407 22:23:45.110184 32630 net.cpp:84] Creating Layer norm2
I0407 22:23:45.110188 32630 net.cpp:406] norm2 <- conv2
I0407 22:23:45.110193 32630 net.cpp:380] norm2 -> norm2
I0407 22:23:45.111004 32630 net.cpp:122] Setting up norm2
I0407 22:23:45.111014 32630 net.cpp:129] Top shape: 32 256 27 27 (5971968)
I0407 22:23:45.111017 32630 net.cpp:137] Memory required for data: 211922688
I0407 22:23:45.111021 32630 layer_factory.hpp:77] Creating layer pool2
I0407 22:23:45.111029 32630 net.cpp:84] Creating Layer pool2
I0407 22:23:45.111032 32630 net.cpp:406] pool2 <- norm2
I0407 22:23:45.111037 32630 net.cpp:380] pool2 -> pool2
I0407 22:23:45.111065 32630 net.cpp:122] Setting up pool2
I0407 22:23:45.111070 32630 net.cpp:129] Top shape: 32 256 13 13 (1384448)
I0407 22:23:45.111073 32630 net.cpp:137] Memory required for data: 217460480
I0407 22:23:45.111075 32630 layer_factory.hpp:77] Creating layer conv3
I0407 22:23:45.111084 32630 net.cpp:84] Creating Layer conv3
I0407 22:23:45.111088 32630 net.cpp:406] conv3 <- pool2
I0407 22:23:45.111093 32630 net.cpp:380] conv3 -> conv3
I0407 22:23:45.122920 32630 net.cpp:122] Setting up conv3
I0407 22:23:45.122934 32630 net.cpp:129] Top shape: 32 384 13 13 (2076672)
I0407 22:23:45.122937 32630 net.cpp:137] Memory required for data: 225767168
I0407 22:23:45.122947 32630 layer_factory.hpp:77] Creating layer relu3
I0407 22:23:45.122958 32630 net.cpp:84] Creating Layer relu3
I0407 22:23:45.122961 32630 net.cpp:406] relu3 <- conv3
I0407 22:23:45.122967 32630 net.cpp:367] relu3 -> conv3 (in-place)
I0407 22:23:45.123594 32630 net.cpp:122] Setting up relu3
I0407 22:23:45.123603 32630 net.cpp:129] Top shape: 32 384 13 13 (2076672)
I0407 22:23:45.123606 32630 net.cpp:137] Memory required for data: 234073856
I0407 22:23:45.123610 32630 layer_factory.hpp:77] Creating layer conv4
I0407 22:23:45.123620 32630 net.cpp:84] Creating Layer conv4
I0407 22:23:45.123622 32630 net.cpp:406] conv4 <- conv3
I0407 22:23:45.123628 32630 net.cpp:380] conv4 -> conv4
I0407 22:23:45.133639 32630 net.cpp:122] Setting up conv4
I0407 22:23:45.133661 32630 net.cpp:129] Top shape: 32 384 13 13 (2076672)
I0407 22:23:45.133663 32630 net.cpp:137] Memory required for data: 242380544
I0407 22:23:45.133668 32630 layer_factory.hpp:77] Creating layer relu4
I0407 22:23:45.133673 32630 net.cpp:84] Creating Layer relu4
I0407 22:23:45.133677 32630 net.cpp:406] relu4 <- conv4
I0407 22:23:45.133683 32630 net.cpp:367] relu4 -> conv4 (in-place)
I0407 22:23:45.134188 32630 net.cpp:122] Setting up relu4
I0407 22:23:45.134198 32630 net.cpp:129] Top shape: 32 384 13 13 (2076672)
I0407 22:23:45.134202 32630 net.cpp:137] Memory required for data: 250687232
I0407 22:23:45.134205 32630 layer_factory.hpp:77] Creating layer conv5
I0407 22:23:45.134214 32630 net.cpp:84] Creating Layer conv5
I0407 22:23:45.134218 32630 net.cpp:406] conv5 <- conv4
I0407 22:23:45.134225 32630 net.cpp:380] conv5 -> conv5
I0407 22:23:45.143997 32630 net.cpp:122] Setting up conv5
I0407 22:23:45.144009 32630 net.cpp:129] Top shape: 32 256 13 13 (1384448)
I0407 22:23:45.144012 32630 net.cpp:137] Memory required for data: 256225024
I0407 22:23:45.144022 32630 layer_factory.hpp:77] Creating layer relu5
I0407 22:23:45.144029 32630 net.cpp:84] Creating Layer relu5
I0407 22:23:45.144047 32630 net.cpp:406] relu5 <- conv5
I0407 22:23:45.144052 32630 net.cpp:367] relu5 -> conv5 (in-place)
I0407 22:23:45.144623 32630 net.cpp:122] Setting up relu5
I0407 22:23:45.144632 32630 net.cpp:129] Top shape: 32 256 13 13 (1384448)
I0407 22:23:45.144635 32630 net.cpp:137] Memory required for data: 261762816
I0407 22:23:45.144639 32630 layer_factory.hpp:77] Creating layer pool5
I0407 22:23:45.144649 32630 net.cpp:84] Creating Layer pool5
I0407 22:23:45.144651 32630 net.cpp:406] pool5 <- conv5
I0407 22:23:45.144656 32630 net.cpp:380] pool5 -> pool5
I0407 22:23:45.144691 32630 net.cpp:122] Setting up pool5
I0407 22:23:45.144696 32630 net.cpp:129] Top shape: 32 256 6 6 (294912)
I0407 22:23:45.144699 32630 net.cpp:137] Memory required for data: 262942464
I0407 22:23:45.144702 32630 layer_factory.hpp:77] Creating layer fc6
I0407 22:23:45.144709 32630 net.cpp:84] Creating Layer fc6
I0407 22:23:45.144712 32630 net.cpp:406] fc6 <- pool5
I0407 22:23:45.144716 32630 net.cpp:380] fc6 -> fc6
I0407 22:23:45.502180 32630 net.cpp:122] Setting up fc6
I0407 22:23:45.502200 32630 net.cpp:129] Top shape: 32 4096 (131072)
I0407 22:23:45.502203 32630 net.cpp:137] Memory required for data: 263466752
I0407 22:23:45.502211 32630 layer_factory.hpp:77] Creating layer relu6
I0407 22:23:45.502219 32630 net.cpp:84] Creating Layer relu6
I0407 22:23:45.502223 32630 net.cpp:406] relu6 <- fc6
I0407 22:23:45.502229 32630 net.cpp:367] relu6 -> fc6 (in-place)
I0407 22:23:45.503008 32630 net.cpp:122] Setting up relu6
I0407 22:23:45.503017 32630 net.cpp:129] Top shape: 32 4096 (131072)
I0407 22:23:45.503021 32630 net.cpp:137] Memory required for data: 263991040
I0407 22:23:45.503023 32630 layer_factory.hpp:77] Creating layer drop6
I0407 22:23:45.503029 32630 net.cpp:84] Creating Layer drop6
I0407 22:23:45.503032 32630 net.cpp:406] drop6 <- fc6
I0407 22:23:45.503038 32630 net.cpp:367] drop6 -> fc6 (in-place)
I0407 22:23:45.503058 32630 net.cpp:122] Setting up drop6
I0407 22:23:45.503063 32630 net.cpp:129] Top shape: 32 4096 (131072)
I0407 22:23:45.503065 32630 net.cpp:137] Memory required for data: 264515328
I0407 22:23:45.503068 32630 layer_factory.hpp:77] Creating layer fc7
I0407 22:23:45.503077 32630 net.cpp:84] Creating Layer fc7
I0407 22:23:45.503078 32630 net.cpp:406] fc7 <- fc6
I0407 22:23:45.503084 32630 net.cpp:380] fc7 -> fc7
I0407 22:23:45.656311 32630 net.cpp:122] Setting up fc7
I0407 22:23:45.656329 32630 net.cpp:129] Top shape: 32 4096 (131072)
I0407 22:23:45.656333 32630 net.cpp:137] Memory required for data: 265039616
I0407 22:23:45.656342 32630 layer_factory.hpp:77] Creating layer relu7
I0407 22:23:45.656352 32630 net.cpp:84] Creating Layer relu7
I0407 22:23:45.656355 32630 net.cpp:406] relu7 <- fc7
I0407 22:23:45.656360 32630 net.cpp:367] relu7 -> fc7 (in-place)
I0407 22:23:45.656836 32630 net.cpp:122] Setting up relu7
I0407 22:23:45.656852 32630 net.cpp:129] Top shape: 32 4096 (131072)
I0407 22:23:45.656854 32630 net.cpp:137] Memory required for data: 265563904
I0407 22:23:45.656857 32630 layer_factory.hpp:77] Creating layer drop7
I0407 22:23:45.656863 32630 net.cpp:84] Creating Layer drop7
I0407 22:23:45.656867 32630 net.cpp:406] drop7 <- fc7
I0407 22:23:45.656872 32630 net.cpp:367] drop7 -> fc7 (in-place)
I0407 22:23:45.656895 32630 net.cpp:122] Setting up drop7
I0407 22:23:45.656900 32630 net.cpp:129] Top shape: 32 4096 (131072)
I0407 22:23:45.656903 32630 net.cpp:137] Memory required for data: 266088192
I0407 22:23:45.656905 32630 layer_factory.hpp:77] Creating layer fc8
I0407 22:23:45.656913 32630 net.cpp:84] Creating Layer fc8
I0407 22:23:45.656916 32630 net.cpp:406] fc8 <- fc7
I0407 22:23:45.656920 32630 net.cpp:380] fc8 -> fc8
I0407 22:23:45.664587 32630 net.cpp:122] Setting up fc8
I0407 22:23:45.664597 32630 net.cpp:129] Top shape: 32 196 (6272)
I0407 22:23:45.664598 32630 net.cpp:137] Memory required for data: 266113280
I0407 22:23:45.664604 32630 layer_factory.hpp:77] Creating layer fc8_fc8_0_split
I0407 22:23:45.664609 32630 net.cpp:84] Creating Layer fc8_fc8_0_split
I0407 22:23:45.664613 32630 net.cpp:406] fc8_fc8_0_split <- fc8
I0407 22:23:45.664630 32630 net.cpp:380] fc8_fc8_0_split -> fc8_fc8_0_split_0
I0407 22:23:45.664636 32630 net.cpp:380] fc8_fc8_0_split -> fc8_fc8_0_split_1
I0407 22:23:45.664664 32630 net.cpp:122] Setting up fc8_fc8_0_split
I0407 22:23:45.664669 32630 net.cpp:129] Top shape: 32 196 (6272)
I0407 22:23:45.664670 32630 net.cpp:129] Top shape: 32 196 (6272)
I0407 22:23:45.664674 32630 net.cpp:137] Memory required for data: 266163456
I0407 22:23:45.664675 32630 layer_factory.hpp:77] Creating layer accuracy
I0407 22:23:45.664680 32630 net.cpp:84] Creating Layer accuracy
I0407 22:23:45.664683 32630 net.cpp:406] accuracy <- fc8_fc8_0_split_0
I0407 22:23:45.664687 32630 net.cpp:406] accuracy <- label_val-data_1_split_0
I0407 22:23:45.664692 32630 net.cpp:380] accuracy -> accuracy
…
