…
I0412 12:43:15.050215  6200 net.cpp:294] The NetState phase (0) differed from the phase (1) specified by a rule in layer accuracy
I0412 12:43:15.050369  6200 net.cpp:51] Initializing net from parameters:
state {
phase: TRAIN
level: 0
stage: ""
}
layer {
name: "train-data"
type: "Data"
top: "data"
top: "label"
include {
phase: TRAIN
}
transform_param {
mirror: true
crop_size: 227
mean_file: "/mnt/bigdisk/DIGITS-MAN-2/digits/jobs/20210407-214532-d396/mean.binaryproto"
}
data_param {
source: "/mnt/bigdisk/DIGITS-MAN-2/digits/jobs/20210407-214532-d396/train_db"
batch_size: 128
backend: LMDB
}
}
layer {
name: "conv1"
type: "Convolution"
bottom: "data"
top: "conv1"
param {
lr_mult: 1
decay_mult: 1
}
param {
lr_mult: 2
decay_mult: 0
}
convolution_param {
num_output: 96
kernel_size: 11
stride: 4
weight_filler {
type: "gaussian"
std: 0.01
}
bias_filler {
type: "constant"
value: 0
}
}
}
layer {
name: "relu1"
type: "ReLU"
bottom: "conv1"
top: "conv1"
}
layer {
name: "norm1"
type: "LRN"
bottom: "conv1"
top: "norm1"
lrn_param {
local_size: 5
alpha: 0.0001
beta: 0.75
}
}
layer {
name: "pool1"
type: "Pooling"
bottom: "norm1"
top: "pool1"
pooling_param {
pool: MAX
kernel_size: 3
stride: 2
}
}
layer {
name: "conv2"
type: "Convolution"
bottom: "pool1"
top: "conv2"
param {
lr_mult: 1
decay_mult: 1
}
param {
lr_mult: 2
decay_mult: 0
}
convolution_param {
num_output: 256
pad: 2
kernel_size: 5
group: 2
weight_filler {
type: "gaussian"
std: 0.01
}
bias_filler {
type: "constant"
value: 0.1
}
}
}
layer {
name: "relu2"
type: "ReLU"
bottom: "conv2"
top: "conv2"
}
layer {
name: "norm2"
type: "LRN"
bottom: "conv2"
top: "norm2"
lrn_param {
local_size: 5
alpha: 0.0001
beta: 0.75
}
}
layer {
name: "pool2"
type: "Pooling"
bottom: "norm2"
top: "pool2"
pooling_param {
pool: MAX
kernel_size: 3
stride: 2
}
}
layer {
name: "conv3"
type: "Convolution"
bottom: "pool2"
top: "conv3"
param {
lr_mult: 1
decay_mult: 1
}
param {
lr_mult: 2
decay_mult: 0
}
convolution_param {
num_output: 384
pad: 1
kernel_size: 3
weight_filler {
type: "gaussian"
std: 0.01
}
bias_filler {
type: "constant"
value: 0
}
}
}
layer {
name: "relu3"
type: "ReLU"
bottom: "conv3"
top: "conv3"
}
layer {
name: "conv4"
type: "Convolution"
bottom: "conv3"
top: "conv4"
param {
lr_mult: 1
decay_mult: 1
}
param {
lr_mult: 2
decay_mult: 0
}
convolution_param {
num_output: 384
pad: 1
kernel_size: 3
group: 2
weight_filler {
type: "gaussian"
std: 0.01
}
bias_filler {
type: "constant"
value: 0.1
}
}
}
layer {
name: "relu4"
type: "ReLU"
bottom: "conv4"
top: "conv4"
}
layer {
name: "conv5"
type: "Convolution"
bottom: "conv4"
top: "conv5"
param {
lr_mult: 1
decay_mult: 1
}
param {
lr_mult: 2
decay_mult: 0
}
convolution_param {
num_output: 128
pad: 1
kernel_size: 3
group: 2
weight_filler {
type: "gaussian"
std: 0.01
}
bias_filler {
type: "constant"
value: 0.1
}
}
}
layer {
name: "relu5"
type: "ReLU"
bottom: "conv5"
top: "conv5"
}
layer {
name: "conv5.2"
type: "Convolution"
bottom: "conv5"
top: "conv5.2"
param {
lr_mult: 1
decay_mult: 1
}
param {
lr_mult: 2
decay_mult: 0
}
convolution_param {
num_output: 128
pad: 1
kernel_size: 3
group: 2
weight_filler {
type: "gaussian"
std: 0.01
}
bias_filler {
type: "constant"
value: 0.1
}
}
}
layer {
name: "relu5.2"
type: "ReLU"
bottom: "conv5.2"
top: "conv5.2"
}
layer {
name: "pool5"
type: "Pooling"
bottom: "conv5.2"
top: "pool5"
pooling_param {
pool: MAX
kernel_size: 3
stride: 2
}
}
layer {
name: "fc6"
type: "InnerProduct"
bottom: "pool5"
top: "fc6"
param {
lr_mult: 1
decay_mult: 1
}
param {
lr_mult: 2
decay_mult: 0
}
inner_product_param {
num_output: 4096
weight_filler {
type: "gaussian"
std: 0.005
}
bias_filler {
type: "constant"
value: 0.1
}
}
}
layer {
name: "relu6"
type: "ReLU"
bottom: "fc6"
top: "fc6"
}
layer {
name: "drop6"
type: "Dropout"
bottom: "fc6"
top: "fc6"
dropout_param {
dropout_ratio: 0.5
}
}
layer {
name: "fc7"
type: "InnerProduct"
bottom: "fc6"
top: "fc7"
param {
lr_mult: 1
decay_mult: 1
}
param {
lr_mult: 2
decay_mult: 0
}
inner_product_param {
num_output: 4096
weight_filler {
type: "gaussian"
std: 0.005
}
bias_filler {
type: "constant"
value: 0.1
}
}
}
layer {
name: "relu7"
type: "ReLU"
bottom: "fc7"
top: "fc7"
}
layer {
name: "drop7"
type: "Dropout"
bottom: "fc7"
top: "fc7"
dropout_param {
dropout_ratio: 0.5
}
}
layer {
name: "fc8"
type: "InnerProduct"
bottom: "fc7"
top: "fc8"
param {
lr_mult: 1
decay_mult: 1
}
param {
lr_mult: 2
decay_mult: 0
}
inner_product_param {
num_output: 196
weight_filler {
type: "gaussian"
std: 0.01
}
bias_filler {
type: "constant"
value: 0
}
}
}
layer {
name: "loss"
type: "SoftmaxWithLoss"
bottom: "fc8"
bottom: "label"
top: "loss"
}
I0412 12:43:15.050464  6200 layer_factory.hpp:77] Creating layer train-data
I0412 12:43:15.070906  6200 db_lmdb.cpp:35] Opened lmdb /mnt/bigdisk/DIGITS-MAN-2/digits/jobs/20210407-214532-d396/train_db
I0412 12:43:15.092752  6200 net.cpp:84] Creating Layer train-data
I0412 12:43:15.092767  6200 net.cpp:380] train-data -> data
I0412 12:43:15.092788  6200 net.cpp:380] train-data -> label
I0412 12:43:15.092801  6200 data_transformer.cpp:25] Loading mean file from: /mnt/bigdisk/DIGITS-MAN-2/digits/jobs/20210407-214532-d396/mean.binaryproto
I0412 12:43:15.149091  6200 data_layer.cpp:45] output data size: 128,3,227,227
I0412 12:43:15.333086  6200 net.cpp:122] Setting up train-data
I0412 12:43:15.333112  6200 net.cpp:129] Top shape: 128 3 227 227 (19787136)
I0412 12:43:15.333118  6200 net.cpp:129] Top shape: 128 (128)
I0412 12:43:15.333122  6200 net.cpp:137] Memory required for data: 79149056
I0412 12:43:15.333132  6200 layer_factory.hpp:77] Creating layer conv1
I0412 12:43:15.333155  6200 net.cpp:84] Creating Layer conv1
I0412 12:43:15.333163  6200 net.cpp:406] conv1 <- data
I0412 12:43:15.333175  6200 net.cpp:380] conv1 -> conv1
I0412 12:43:15.910151  6200 net.cpp:122] Setting up conv1
I0412 12:43:15.910173  6200 net.cpp:129] Top shape: 128 96 55 55 (37171200)
I0412 12:43:15.910177  6200 net.cpp:137] Memory required for data: 227833856
I0412 12:43:15.910197  6200 layer_factory.hpp:77] Creating layer relu1
I0412 12:43:15.910207  6200 net.cpp:84] Creating Layer relu1
I0412 12:43:15.910233  6200 net.cpp:406] relu1 <- conv1
I0412 12:43:15.910239  6200 net.cpp:367] relu1 -> conv1 (in-place)
I0412 12:43:15.910578  6200 net.cpp:122] Setting up relu1
I0412 12:43:15.910586  6200 net.cpp:129] Top shape: 128 96 55 55 (37171200)
I0412 12:43:15.910590  6200 net.cpp:137] Memory required for data: 376518656
I0412 12:43:15.910594  6200 layer_factory.hpp:77] Creating layer norm1
I0412 12:43:15.910604  6200 net.cpp:84] Creating Layer norm1
I0412 12:43:15.910607  6200 net.cpp:406] norm1 <- conv1
I0412 12:43:15.910612  6200 net.cpp:380] norm1 -> norm1
I0412 12:43:15.911109  6200 net.cpp:122] Setting up norm1
I0412 12:43:15.911119  6200 net.cpp:129] Top shape: 128 96 55 55 (37171200)
I0412 12:43:15.911123  6200 net.cpp:137] Memory required for data: 525203456
I0412 12:43:15.911128  6200 layer_factory.hpp:77] Creating layer pool1
I0412 12:43:15.911135  6200 net.cpp:84] Creating Layer pool1
I0412 12:43:15.911139  6200 net.cpp:406] pool1 <- norm1
I0412 12:43:15.911145  6200 net.cpp:380] pool1 -> pool1
I0412 12:43:15.911183  6200 net.cpp:122] Setting up pool1
I0412 12:43:15.911190  6200 net.cpp:129] Top shape: 128 96 27 27 (8957952)
I0412 12:43:15.911195  6200 net.cpp:137] Memory required for data: 561035264
I0412 12:43:15.911197  6200 layer_factory.hpp:77] Creating layer conv2
I0412 12:43:15.911207  6200 net.cpp:84] Creating Layer conv2
I0412 12:43:15.911211  6200 net.cpp:406] conv2 <- pool1
I0412 12:43:15.911216  6200 net.cpp:380] conv2 -> conv2
I0412 12:43:15.918716  6200 net.cpp:122] Setting up conv2
I0412 12:43:15.918731  6200 net.cpp:129] Top shape: 128 256 27 27 (23887872)
I0412 12:43:15.918735  6200 net.cpp:137] Memory required for data: 656586752
I0412 12:43:15.918746  6200 layer_factory.hpp:77] Creating layer relu2
I0412 12:43:15.918754  6200 net.cpp:84] Creating Layer relu2
I0412 12:43:15.918759  6200 net.cpp:406] relu2 <- conv2
I0412 12:43:15.918764  6200 net.cpp:367] relu2 -> conv2 (in-place)
I0412 12:43:15.919384  6200 net.cpp:122] Setting up relu2
I0412 12:43:15.919394  6200 net.cpp:129] Top shape: 128 256 27 27 (23887872)
I0412 12:43:15.919399  6200 net.cpp:137] Memory required for data: 752138240
I0412 12:43:15.919402  6200 layer_factory.hpp:77] Creating layer norm2
I0412 12:43:15.919409  6200 net.cpp:84] Creating Layer norm2
I0412 12:43:15.919414  6200 net.cpp:406] norm2 <- conv2
I0412 12:43:15.919420  6200 net.cpp:380] norm2 -> norm2
I0412 12:43:15.919749  6200 net.cpp:122] Setting up norm2
I0412 12:43:15.919757  6200 net.cpp:129] Top shape: 128 256 27 27 (23887872)
I0412 12:43:15.919761  6200 net.cpp:137] Memory required for data: 847689728
I0412 12:43:15.919765  6200 layer_factory.hpp:77] Creating layer pool2
I0412 12:43:15.919773  6200 net.cpp:84] Creating Layer pool2
I0412 12:43:15.919777  6200 net.cpp:406] pool2 <- norm2
I0412 12:43:15.919782  6200 net.cpp:380] pool2 -> pool2
I0412 12:43:15.919811  6200 net.cpp:122] Setting up pool2
I0412 12:43:15.919817  6200 net.cpp:129] Top shape: 128 256 13 13 (5537792)
I0412 12:43:15.919821  6200 net.cpp:137] Memory required for data: 869840896
I0412 12:43:15.919823  6200 layer_factory.hpp:77] Creating layer conv3
I0412 12:43:15.919833  6200 net.cpp:84] Creating Layer conv3
I0412 12:43:15.919836  6200 net.cpp:406] conv3 <- pool2
I0412 12:43:15.919842  6200 net.cpp:380] conv3 -> conv3
I0412 12:43:15.930610  6200 net.cpp:122] Setting up conv3
I0412 12:43:15.930622  6200 net.cpp:129] Top shape: 128 384 13 13 (8306688)
I0412 12:43:15.930626  6200 net.cpp:137] Memory required for data: 903067648
I0412 12:43:15.930636  6200 layer_factory.hpp:77] Creating layer relu3
I0412 12:43:15.930642  6200 net.cpp:84] Creating Layer relu3
I0412 12:43:15.930646  6200 net.cpp:406] relu3 <- conv3
I0412 12:43:15.930651  6200 net.cpp:367] relu3 -> conv3 (in-place)
I0412 12:43:15.931288  6200 net.cpp:122] Setting up relu3
I0412 12:43:15.931298  6200 net.cpp:129] Top shape: 128 384 13 13 (8306688)
I0412 12:43:15.931303  6200 net.cpp:137] Memory required for data: 936294400
I0412 12:43:15.931306  6200 layer_factory.hpp:77] Creating layer conv4
I0412 12:43:15.931318  6200 net.cpp:84] Creating Layer conv4
I0412 12:43:15.931339  6200 net.cpp:406] conv4 <- conv3
I0412 12:43:15.931346  6200 net.cpp:380] conv4 -> conv4
I0412 12:43:15.942237  6200 net.cpp:122] Setting up conv4
I0412 12:43:15.942250  6200 net.cpp:129] Top shape: 128 384 13 13 (8306688)
I0412 12:43:15.942255  6200 net.cpp:137] Memory required for data: 969521152
I0412 12:43:15.942262  6200 layer_factory.hpp:77] Creating layer relu4
I0412 12:43:15.942270  6200 net.cpp:84] Creating Layer relu4
I0412 12:43:15.942273  6200 net.cpp:406] relu4 <- conv4
I0412 12:43:15.942278  6200 net.cpp:367] relu4 -> conv4 (in-place)
I0412 12:43:15.942585  6200 net.cpp:122] Setting up relu4
I0412 12:43:15.942595  6200 net.cpp:129] Top shape: 128 384 13 13 (8306688)
I0412 12:43:15.942597  6200 net.cpp:137] Memory required for data: 1002747904
I0412 12:43:15.942601  6200 layer_factory.hpp:77] Creating layer conv5
I0412 12:43:15.942610  6200 net.cpp:84] Creating Layer conv5
I0412 12:43:15.942615  6200 net.cpp:406] conv5 <- conv4
I0412 12:43:15.942620  6200 net.cpp:380] conv5 -> conv5
I0412 12:43:15.948632  6200 net.cpp:122] Setting up conv5
I0412 12:43:15.948644  6200 net.cpp:129] Top shape: 128 128 13 13 (2768896)
I0412 12:43:15.948648  6200 net.cpp:137] Memory required for data: 1013823488
I0412 12:43:15.948660  6200 layer_factory.hpp:77] Creating layer relu5
I0412 12:43:15.948668  6200 net.cpp:84] Creating Layer relu5
I0412 12:43:15.948671  6200 net.cpp:406] relu5 <- conv5
I0412 12:43:15.948676  6200 net.cpp:367] relu5 -> conv5 (in-place)
I0412 12:43:15.949141  6200 net.cpp:122] Setting up relu5
I0412 12:43:15.949152  6200 net.cpp:129] Top shape: 128 128 13 13 (2768896)
I0412 12:43:15.949156  6200 net.cpp:137] Memory required for data: 1024899072
I0412 12:43:15.949160  6200 layer_factory.hpp:77] Creating layer conv5.2
I0412 12:43:15.949169  6200 net.cpp:84] Creating Layer conv5.2
I0412 12:43:15.949173  6200 net.cpp:406] conv5.2 <- conv5
I0412 12:43:15.949179  6200 net.cpp:380] conv5.2 -> conv5.2
I0412 12:43:15.952937  6200 net.cpp:122] Setting up conv5.2
I0412 12:43:15.952948  6200 net.cpp:129] Top shape: 128 128 13 13 (2768896)
I0412 12:43:15.952952  6200 net.cpp:137] Memory required for data: 1035974656
I0412 12:43:15.952960  6200 layer_factory.hpp:77] Creating layer relu5.2
I0412 12:43:15.952967  6200 net.cpp:84] Creating Layer relu5.2
I0412 12:43:15.952971  6200 net.cpp:406] relu5.2 <- conv5.2
I0412 12:43:15.952977  6200 net.cpp:367] relu5.2 -> conv5.2 (in-place)
I0412 12:43:15.953434  6200 net.cpp:122] Setting up relu5.2
I0412 12:43:15.953444  6200 net.cpp:129] Top shape: 128 128 13 13 (2768896)
I0412 12:43:15.953449  6200 net.cpp:137] Memory required for data: 1047050240
I0412 12:43:15.953452  6200 layer_factory.hpp:77] Creating layer pool5
I0412 12:43:15.953460  6200 net.cpp:84] Creating Layer pool5
I0412 12:43:15.953464  6200 net.cpp:406] pool5 <- conv5.2
I0412 12:43:15.953469  6200 net.cpp:380] pool5 -> pool5
I0412 12:43:15.953507  6200 net.cpp:122] Setting up pool5
I0412 12:43:15.953513  6200 net.cpp:129] Top shape: 128 128 6 6 (589824)
I0412 12:43:15.953516  6200 net.cpp:137] Memory required for data: 1049409536
I0412 12:43:15.953521  6200 layer_factory.hpp:77] Creating layer fc6
I0412 12:43:15.953527  6200 net.cpp:84] Creating Layer fc6
I0412 12:43:15.953531  6200 net.cpp:406] fc6 <- pool5
I0412 12:43:15.953536  6200 net.cpp:380] fc6 -> fc6
I0412 12:43:16.149281  6200 net.cpp:122] Setting up fc6
I0412 12:43:16.149302  6200 net.cpp:129] Top shape: 128 4096 (524288)
I0412 12:43:16.149305  6200 net.cpp:137] Memory required for data: 1051506688
I0412 12:43:16.149315  6200 layer_factory.hpp:77] Creating layer relu6
I0412 12:43:16.149324  6200 net.cpp:84] Creating Layer relu6
I0412 12:43:16.149328  6200 net.cpp:406] relu6 <- fc6
I0412 12:43:16.149335  6200 net.cpp:367] relu6 -> fc6 (in-place)
I0412 12:43:16.149691  6200 net.cpp:122] Setting up relu6
I0412 12:43:16.149699  6200 net.cpp:129] Top shape: 128 4096 (524288)
I0412 12:43:16.149703  6200 net.cpp:137] Memory required for data: 1053603840
I0412 12:43:16.149706  6200 layer_factory.hpp:77] Creating layer drop6
I0412 12:43:16.149732  6200 net.cpp:84] Creating Layer drop6
I0412 12:43:16.149736  6200 net.cpp:406] drop6 <- fc6
I0412 12:43:16.149741  6200 net.cpp:367] drop6 -> fc6 (in-place)
I0412 12:43:16.149770  6200 net.cpp:122] Setting up drop6
I0412 12:43:16.149775  6200 net.cpp:129] Top shape: 128 4096 (524288)
I0412 12:43:16.149778  6200 net.cpp:137] Memory required for data: 1055700992
I0412 12:43:16.149781  6200 layer_factory.hpp:77] Creating layer fc7
I0412 12:43:16.149788  6200 net.cpp:84] Creating Layer fc7
I0412 12:43:16.149791  6200 net.cpp:406] fc7 <- fc6
I0412 12:43:16.149797  6200 net.cpp:380] fc7 -> fc7
I0412 12:43:16.309814  6200 net.cpp:122] Setting up fc7
I0412 12:43:16.309834  6200 net.cpp:129] Top shape: 128 4096 (524288)
I0412 12:43:16.309837  6200 net.cpp:137] Memory required for data: 1057798144
I0412 12:43:16.309846  6200 layer_factory.hpp:77] Creating layer relu7
I0412 12:43:16.309854  6200 net.cpp:84] Creating Layer relu7
I0412 12:43:16.309859  6200 net.cpp:406] relu7 <- fc7
I0412 12:43:16.309865  6200 net.cpp:367] relu7 -> fc7 (in-place)
I0412 12:43:16.311455  6200 net.cpp:122] Setting up relu7
I0412 12:43:16.311465  6200 net.cpp:129] Top shape: 128 4096 (524288)
I0412 12:43:16.311468  6200 net.cpp:137] Memory required for data: 1059895296
I0412 12:43:16.311472  6200 layer_factory.hpp:77] Creating layer drop7
I0412 12:43:16.311480  6200 net.cpp:84] Creating Layer drop7
I0412 12:43:16.311483  6200 net.cpp:406] drop7 <- fc7
I0412 12:43:16.311488  6200 net.cpp:367] drop7 -> fc7 (in-place)
I0412 12:43:16.311511  6200 net.cpp:122] Setting up drop7
I0412 12:43:16.311517  6200 net.cpp:129] Top shape: 128 4096 (524288)
I0412 12:43:16.311519  6200 net.cpp:137] Memory required for data: 1061992448
I0412 12:43:16.311523  6200 layer_factory.hpp:77] Creating layer fc8
I0412 12:43:16.311529  6200 net.cpp:84] Creating Layer fc8
I0412 12:43:16.311533  6200 net.cpp:406] fc8 <- fc7
I0412 12:43:16.311538  6200 net.cpp:380] fc8 -> fc8
I0412 12:43:16.319265  6200 net.cpp:122] Setting up fc8
I0412 12:43:16.319274  6200 net.cpp:129] Top shape: 128 196 (25088)
I0412 12:43:16.319278  6200 net.cpp:137] Memory required for data: 1062092800
I0412 12:43:16.319288  6200 layer_factory.hpp:77] Creating layer loss
I0412 12:43:16.319295  6200 net.cpp:84] Creating Layer loss
I0412 12:43:16.319299  6200 net.cpp:406] loss <- fc8
I0412 12:43:16.319303  6200 net.cpp:406] loss <- label
I0412 12:43:16.319309  6200 net.cpp:380] loss -> loss
I0412 12:43:16.319319  6200 layer_factory.hpp:77] Creating layer loss
…
I0412 12:43:16.320461  6200 net.cpp:294] The NetState phase (1) differed from the phase (0) specified by a rule in layer train-data
I0412 12:43:16.320607  6200 net.cpp:51] Initializing net from parameters:
state {
phase: TEST
}
layer {
name: "val-data"
type: "Data"
top: "data"
top: "label"
include {
phase: TEST
}
transform_param {
crop_size: 227
mean_file: "/mnt/bigdisk/DIGITS-MAN-2/digits/jobs/20210407-214532-d396/mean.binaryproto"
}
data_param {
source: "/mnt/bigdisk/DIGITS-MAN-2/digits/jobs/20210407-214532-d396/val_db"
batch_size: 32
backend: LMDB
}
}
layer {
name: "conv1"
type: "Convolution"
bottom: "data"
top: "conv1"
param {
lr_mult: 1
decay_mult: 1
}
param {
lr_mult: 2
decay_mult: 0
}
convolution_param {
num_output: 96
kernel_size: 11
stride: 4
weight_filler {
type: "gaussian"
std: 0.01
}
bias_filler {
type: "constant"
value: 0
}
}
}
layer {
name: "relu1"
type: "ReLU"
bottom: "conv1"
top: "conv1"
}
layer {
name: "norm1"
type: "LRN"
bottom: "conv1"
top: "norm1"
lrn_param {
local_size: 5
alpha: 0.0001
beta: 0.75
}
}
layer {
name: "pool1"
type: "Pooling"
bottom: "norm1"
top: "pool1"
pooling_param {
pool: MAX
kernel_size: 3
stride: 2
}
}
layer {
name: "conv2"
type: "Convolution"
bottom: "pool1"
top: "conv2"
param {
lr_mult: 1
decay_mult: 1
}
param {
lr_mult: 2
decay_mult: 0
}
convolution_param {
num_output: 256
pad: 2
kernel_size: 5
group: 2
weight_filler {
type: "gaussian"
std: 0.01
}
bias_filler {
type: "constant"
value: 0.1
}
}
}
layer {
name: "relu2"
type: "ReLU"
bottom: "conv2"
top: "conv2"
}
layer {
name: "norm2"
type: "LRN"
bottom: "conv2"
top: "norm2"
lrn_param {
local_size: 5
alpha: 0.0001
beta: 0.75
}
}
layer {
name: "pool2"
type: "Pooling"
bottom: "norm2"
top: "pool2"
pooling_param {
pool: MAX
kernel_size: 3
stride: 2
}
}
layer {
name: "conv3"
type: "Convolution"
bottom: "pool2"
top: "conv3"
param {
lr_mult: 1
decay_mult: 1
}
param {
lr_mult: 2
decay_mult: 0
}
convolution_param {
num_output: 384
pad: 1
kernel_size: 3
weight_filler {
type: "gaussian"
std: 0.01
}
bias_filler {
type: "constant"
value: 0
}
}
}
layer {
name: "relu3"
type: "ReLU"
bottom: "conv3"
top: "conv3"
}
layer {
name: "conv4"
type: "Convolution"
bottom: "conv3"
top: "conv4"
param {
lr_mult: 1
decay_mult: 1
}
param {
lr_mult: 2
decay_mult: 0
}
convolution_param {
num_output: 384
pad: 1
kernel_size: 3
group: 2
weight_filler {
type: "gaussian"
std: 0.01
}
bias_filler {
type: "constant"
value: 0.1
}
}
}
layer {
name: "relu4"
type: "ReLU"
bottom: "conv4"
top: "conv4"
}
layer {
name: "conv5"
type: "Convolution"
bottom: "conv4"
top: "conv5"
param {
lr_mult: 1
decay_mult: 1
}
param {
lr_mult: 2
decay_mult: 0
}
convolution_param {
num_output: 128
pad: 1
kernel_size: 3
group: 2
weight_filler {
type: "gaussian"
std: 0.01
}
bias_filler {
type: "constant"
value: 0.1
}
}
}
layer {
name: "relu5"
type: "ReLU"
bottom: "conv5"
top: "conv5"
}
layer {
name: "conv5.2"
type: "Convolution"
bottom: "conv5"
top: "conv5.2"
param {
lr_mult: 1
decay_mult: 1
}
param {
lr_mult: 2
decay_mult: 0
}
convolution_param {
num_output: 128
pad: 1
kernel_size: 3
group: 2
weight_filler {
type: "gaussian"
std: 0.01
}
bias_filler {
type: "constant"
value: 0.1
}
}
}
layer {
name: "relu5.2"
type: "ReLU"
bottom: "conv5.2"
top: "conv5.2"
}
layer {
name: "pool5"
type: "Pooling"
bottom: "conv5.2"
top: "pool5"
pooling_param {
pool: MAX
kernel_size: 3
stride: 2
}
}
layer {
name: "fc6"
type: "InnerProduct"
bottom: "pool5"
top: "fc6"
param {
lr_mult: 1
decay_mult: 1
}
param {
lr_mult: 2
decay_mult: 0
}
inner_product_param {
num_output: 4096
weight_filler {
type: "gaussian"
std: 0.005
}
bias_filler {
type: "constant"
value: 0.1
}
}
}
layer {
name: "relu6"
type: "ReLU"
bottom: "fc6"
top: "fc6"
}
layer {
name: "drop6"
type: "Dropout"
bottom: "fc6"
top: "fc6"
dropout_param {
dropout_ratio: 0.5
}
}
layer {
name: "fc7"
type: "InnerProduct"
bottom: "fc6"
top: "fc7"
param {
lr_mult: 1
decay_mult: 1
}
param {
lr_mult: 2
decay_mult: 0
}
inner_product_param {
num_output: 4096
weight_filler {
type: "gaussian"
std: 0.005
}
bias_filler {
type: "constant"
value: 0.1
}
}
}
layer {
name: "relu7"
type: "ReLU"
bottom: "fc7"
top: "fc7"
}
layer {
name: "drop7"
type: "Dropout"
bottom: "fc7"
top: "fc7"
dropout_param {
dropout_ratio: 0.5
}
}
layer {
name: "fc8"
type: "InnerProduct"
bottom: "fc7"
top: "fc8"
param {
lr_mult: 1
decay_mult: 1
}
param {
lr_mult: 2
decay_mult: 0
}
inner_product_param {
num_output: 196
weight_filler {
type: "gaussian"
std: 0.01
}
bias_filler {
type: "constant"
value: 0
}
}
}
layer {
name: "accuracy"
type: "Accuracy"
bottom: "fc8"
bottom: "label"
top: "accuracy"
include {
phase: TEST
}
}
layer {
name: "loss"
type: "SoftmaxWithLoss"
bottom: "fc8"
bottom: "label"
top: "loss"
}
I0412 12:43:16.320694  6200 layer_factory.hpp:77] Creating layer val-data
I0412 12:43:16.353837  6200 db_lmdb.cpp:35] Opened lmdb /mnt/bigdisk/DIGITS-MAN-2/digits/jobs/20210407-214532-d396/val_db
I0412 12:43:16.402576  6200 net.cpp:84] Creating Layer val-data
I0412 12:43:16.402595  6200 net.cpp:380] val-data -> data
I0412 12:43:16.402609  6200 net.cpp:380] val-data -> label
I0412 12:43:16.402621  6200 data_transformer.cpp:25] Loading mean file from: /mnt/bigdisk/DIGITS-MAN-2/digits/jobs/20210407-214532-d396/mean.binaryproto
I0412 12:43:16.410495  6200 data_layer.cpp:45] output data size: 32,3,227,227
I0412 12:43:16.457258  6200 net.cpp:122] Setting up val-data
I0412 12:43:16.457280  6200 net.cpp:129] Top shape: 32 3 227 227 (4946784)
I0412 12:43:16.457286  6200 net.cpp:129] Top shape: 32 (32)
I0412 12:43:16.457290  6200 net.cpp:137] Memory required for data: 19787264
I0412 12:43:16.457298  6200 layer_factory.hpp:77] Creating layer label_val-data_1_split
I0412 12:43:16.457311  6200 net.cpp:84] Creating Layer label_val-data_1_split
I0412 12:43:16.457316  6200 net.cpp:406] label_val-data_1_split <- label
I0412 12:43:16.457324  6200 net.cpp:380] label_val-data_1_split -> label_val-data_1_split_0
I0412 12:43:16.457334  6200 net.cpp:380] label_val-data_1_split -> label_val-data_1_split_1
I0412 12:43:16.457393  6200 net.cpp:122] Setting up label_val-data_1_split
I0412 12:43:16.457399  6200 net.cpp:129] Top shape: 32 (32)
I0412 12:43:16.457404  6200 net.cpp:129] Top shape: 32 (32)
I0412 12:43:16.457427  6200 net.cpp:137] Memory required for data: 19787520
I0412 12:43:16.457432  6200 layer_factory.hpp:77] Creating layer conv1
I0412 12:43:16.457445  6200 net.cpp:84] Creating Layer conv1
I0412 12:43:16.457449  6200 net.cpp:406] conv1 <- data
I0412 12:43:16.457455  6200 net.cpp:380] conv1 -> conv1
I0412 12:43:16.459827  6200 net.cpp:122] Setting up conv1
I0412 12:43:16.459841  6200 net.cpp:129] Top shape: 32 96 55 55 (9292800)
I0412 12:43:16.459844  6200 net.cpp:137] Memory required for data: 56958720
I0412 12:43:16.459856  6200 layer_factory.hpp:77] Creating layer relu1
I0412 12:43:16.459863  6200 net.cpp:84] Creating Layer relu1
I0412 12:43:16.459867  6200 net.cpp:406] relu1 <- conv1
I0412 12:43:16.459873  6200 net.cpp:367] relu1 -> conv1 (in-place)
I0412 12:43:16.460402  6200 net.cpp:122] Setting up relu1
I0412 12:43:16.460412  6200 net.cpp:129] Top shape: 32 96 55 55 (9292800)
I0412 12:43:16.460417  6200 net.cpp:137] Memory required for data: 94129920
I0412 12:43:16.460420  6200 layer_factory.hpp:77] Creating layer norm1
I0412 12:43:16.460430  6200 net.cpp:84] Creating Layer norm1
I0412 12:43:16.460434  6200 net.cpp:406] norm1 <- conv1
I0412 12:43:16.460440  6200 net.cpp:380] norm1 -> norm1
I0412 12:43:16.460965  6200 net.cpp:122] Setting up norm1
I0412 12:43:16.460976  6200 net.cpp:129] Top shape: 32 96 55 55 (9292800)
I0412 12:43:16.460980  6200 net.cpp:137] Memory required for data: 131301120
I0412 12:43:16.460984  6200 layer_factory.hpp:77] Creating layer pool1
I0412 12:43:16.460992  6200 net.cpp:84] Creating Layer pool1
I0412 12:43:16.460996  6200 net.cpp:406] pool1 <- norm1
I0412 12:43:16.461002  6200 net.cpp:380] pool1 -> pool1
I0412 12:43:16.461038  6200 net.cpp:122] Setting up pool1
I0412 12:43:16.461045  6200 net.cpp:129] Top shape: 32 96 27 27 (2239488)
I0412 12:43:16.461048  6200 net.cpp:137] Memory required for data: 140259072
I0412 12:43:16.461051  6200 layer_factory.hpp:77] Creating layer conv2
I0412 12:43:16.461061  6200 net.cpp:84] Creating Layer conv2
I0412 12:43:16.461066  6200 net.cpp:406] conv2 <- pool1
I0412 12:43:16.461071  6200 net.cpp:380] conv2 -> conv2
I0412 12:43:16.470021  6200 net.cpp:122] Setting up conv2
I0412 12:43:16.470036  6200 net.cpp:129] Top shape: 32 256 27 27 (5971968)
I0412 12:43:16.470041  6200 net.cpp:137] Memory required for data: 164146944
I0412 12:43:16.470052  6200 layer_factory.hpp:77] Creating layer relu2
I0412 12:43:16.470059  6200 net.cpp:84] Creating Layer relu2
I0412 12:43:16.470063  6200 net.cpp:406] relu2 <- conv2
I0412 12:43:16.470069  6200 net.cpp:367] relu2 -> conv2 (in-place)
I0412 12:43:16.470405  6200 net.cpp:122] Setting up relu2
I0412 12:43:16.470425  6200 net.cpp:129] Top shape: 32 256 27 27 (5971968)
I0412 12:43:16.470429  6200 net.cpp:137] Memory required for data: 188034816
I0412 12:43:16.470433  6200 layer_factory.hpp:77] Creating layer norm2
I0412 12:43:16.470443  6200 net.cpp:84] Creating Layer norm2
I0412 12:43:16.470446  6200 net.cpp:406] norm2 <- conv2
I0412 12:43:16.470453  6200 net.cpp:380] norm2 -> norm2
I0412 12:43:16.470968  6200 net.cpp:122] Setting up norm2
I0412 12:43:16.470978  6200 net.cpp:129] Top shape: 32 256 27 27 (5971968)
I0412 12:43:16.470983  6200 net.cpp:137] Memory required for data: 211922688
I0412 12:43:16.470988  6200 layer_factory.hpp:77] Creating layer pool2
I0412 12:43:16.470994  6200 net.cpp:84] Creating Layer pool2
I0412 12:43:16.470999  6200 net.cpp:406] pool2 <- norm2
I0412 12:43:16.471004  6200 net.cpp:380] pool2 -> pool2
I0412 12:43:16.471037  6200 net.cpp:122] Setting up pool2
I0412 12:43:16.471043  6200 net.cpp:129] Top shape: 32 256 13 13 (1384448)
I0412 12:43:16.471046  6200 net.cpp:137] Memory required for data: 217460480
I0412 12:43:16.471050  6200 layer_factory.hpp:77] Creating layer conv3
I0412 12:43:16.471060  6200 net.cpp:84] Creating Layer conv3
I0412 12:43:16.471063  6200 net.cpp:406] conv3 <- pool2
I0412 12:43:16.471068  6200 net.cpp:380] conv3 -> conv3
I0412 12:43:16.482520  6200 net.cpp:122] Setting up conv3
I0412 12:43:16.482533  6200 net.cpp:129] Top shape: 32 384 13 13 (2076672)
I0412 12:43:16.482555  6200 net.cpp:137] Memory required for data: 225767168
I0412 12:43:16.482566  6200 layer_factory.hpp:77] Creating layer relu3
I0412 12:43:16.482573  6200 net.cpp:84] Creating Layer relu3
I0412 12:43:16.482578  6200 net.cpp:406] relu3 <- conv3
I0412 12:43:16.482583  6200 net.cpp:367] relu3 -> conv3 (in-place)
I0412 12:43:16.482904  6200 net.cpp:122] Setting up relu3
I0412 12:43:16.482913  6200 net.cpp:129] Top shape: 32 384 13 13 (2076672)
I0412 12:43:16.482918  6200 net.cpp:137] Memory required for data: 234073856
I0412 12:43:16.482921  6200 layer_factory.hpp:77] Creating layer conv4
I0412 12:43:16.482930  6200 net.cpp:84] Creating Layer conv4
I0412 12:43:16.482934  6200 net.cpp:406] conv4 <- conv3
I0412 12:43:16.482940  6200 net.cpp:380] conv4 -> conv4
I0412 12:43:16.494225  6200 net.cpp:122] Setting up conv4
I0412 12:43:16.494238  6200 net.cpp:129] Top shape: 32 384 13 13 (2076672)
I0412 12:43:16.494242  6200 net.cpp:137] Memory required for data: 242380544
I0412 12:43:16.494251  6200 layer_factory.hpp:77] Creating layer relu4
I0412 12:43:16.494259  6200 net.cpp:84] Creating Layer relu4
I0412 12:43:16.494263  6200 net.cpp:406] relu4 <- conv4
I0412 12:43:16.494269  6200 net.cpp:367] relu4 -> conv4 (in-place)
I0412 12:43:16.494733  6200 net.cpp:122] Setting up relu4
I0412 12:43:16.494743  6200 net.cpp:129] Top shape: 32 384 13 13 (2076672)
I0412 12:43:16.494747  6200 net.cpp:137] Memory required for data: 250687232
I0412 12:43:16.494751  6200 layer_factory.hpp:77] Creating layer conv5
I0412 12:43:16.494760  6200 net.cpp:84] Creating Layer conv5
I0412 12:43:16.494765  6200 net.cpp:406] conv5 <- conv4
I0412 12:43:16.494771  6200 net.cpp:380] conv5 -> conv5
I0412 12:43:16.501685  6200 net.cpp:122] Setting up conv5
I0412 12:43:16.501698  6200 net.cpp:129] Top shape: 32 128 13 13 (692224)
I0412 12:43:16.501703  6200 net.cpp:137] Memory required for data: 253456128
I0412 12:43:16.501713  6200 layer_factory.hpp:77] Creating layer relu5
I0412 12:43:16.501721  6200 net.cpp:84] Creating Layer relu5
I0412 12:43:16.501725  6200 net.cpp:406] relu5 <- conv5
I0412 12:43:16.501732  6200 net.cpp:367] relu5 -> conv5 (in-place)
I0412 12:43:16.502280  6200 net.cpp:122] Setting up relu5
I0412 12:43:16.502290  6200 net.cpp:129] Top shape: 32 128 13 13 (692224)
I0412 12:43:16.502295  6200 net.cpp:137] Memory required for data: 256225024
I0412 12:43:16.502297  6200 layer_factory.hpp:77] Creating layer conv5.2
I0412 12:43:16.502312  6200 net.cpp:84] Creating Layer conv5.2
I0412 12:43:16.502316  6200 net.cpp:406] conv5.2 <- conv5
I0412 12:43:16.502323  6200 net.cpp:380] conv5.2 -> conv5.2
I0412 12:43:16.506263  6200 net.cpp:122] Setting up conv5.2
I0412 12:43:16.506274  6200 net.cpp:129] Top shape: 32 128 13 13 (692224)
I0412 12:43:16.506278  6200 net.cpp:137] Memory required for data: 258993920
I0412 12:43:16.506285  6200 layer_factory.hpp:77] Creating layer relu5.2
I0412 12:43:16.506294  6200 net.cpp:84] Creating Layer relu5.2
I0412 12:43:16.506297  6200 net.cpp:406] relu5.2 <- conv5.2
I0412 12:43:16.506302  6200 net.cpp:367] relu5.2 -> conv5.2 (in-place)
I0412 12:43:16.506839  6200 net.cpp:122] Setting up relu5.2
I0412 12:43:16.506848  6200 net.cpp:129] Top shape: 32 128 13 13 (692224)
I0412 12:43:16.506852  6200 net.cpp:137] Memory required for data: 261762816
I0412 12:43:16.506856  6200 layer_factory.hpp:77] Creating layer pool5
I0412 12:43:16.506863  6200 net.cpp:84] Creating Layer pool5
I0412 12:43:16.506867  6200 net.cpp:406] pool5 <- conv5.2
I0412 12:43:16.506873  6200 net.cpp:380] pool5 -> pool5
I0412 12:43:16.506912  6200 net.cpp:122] Setting up pool5
I0412 12:43:16.506919  6200 net.cpp:129] Top shape: 32 128 6 6 (147456)
I0412 12:43:16.506923  6200 net.cpp:137] Memory required for data: 262352640
I0412 12:43:16.506927  6200 layer_factory.hpp:77] Creating layer fc6
I0412 12:43:16.506933  6200 net.cpp:84] Creating Layer fc6
I0412 12:43:16.506937  6200 net.cpp:406] fc6 <- pool5
I0412 12:43:16.506943  6200 net.cpp:380] fc6 -> fc6
I0412 12:43:16.684170  6200 net.cpp:122] Setting up fc6
I0412 12:43:16.684190  6200 net.cpp:129] Top shape: 32 4096 (131072)
I0412 12:43:16.684212  6200 net.cpp:137] Memory required for data: 262876928
I0412 12:43:16.684221  6200 layer_factory.hpp:77] Creating layer relu6
I0412 12:43:16.684231  6200 net.cpp:84] Creating Layer relu6
I0412 12:43:16.684234  6200 net.cpp:406] relu6 <- fc6
I0412 12:43:16.684240  6200 net.cpp:367] relu6 -> fc6 (in-place)
I0412 12:43:16.686084  6200 net.cpp:122] Setting up relu6
I0412 12:43:16.686095  6200 net.cpp:129] Top shape: 32 4096 (131072)
I0412 12:43:16.686098  6200 net.cpp:137] Memory required for data: 263401216
I0412 12:43:16.686103  6200 layer_factory.hpp:77] Creating layer drop6
I0412 12:43:16.686111  6200 net.cpp:84] Creating Layer drop6
I0412 12:43:16.686115  6200 net.cpp:406] drop6 <- fc6
I0412 12:43:16.686122  6200 net.cpp:367] drop6 -> fc6 (in-place)
I0412 12:43:16.686149  6200 net.cpp:122] Setting up drop6
I0412 12:43:16.686154  6200 net.cpp:129] Top shape: 32 4096 (131072)
I0412 12:43:16.686157  6200 net.cpp:137] Memory required for data: 263925504
I0412 12:43:16.686161  6200 layer_factory.hpp:77] Creating layer fc7
I0412 12:43:16.686169  6200 net.cpp:84] Creating Layer fc7
I0412 12:43:16.686172  6200 net.cpp:406] fc7 <- fc6
I0412 12:43:16.686178  6200 net.cpp:380] fc7 -> fc7
I0412 12:43:16.843058  6200 net.cpp:122] Setting up fc7
I0412 12:43:16.843080  6200 net.cpp:129] Top shape: 32 4096 (131072)
I0412 12:43:16.843082  6200 net.cpp:137] Memory required for data: 264449792
I0412 12:43:16.843091  6200 layer_factory.hpp:77] Creating layer relu7
I0412 12:43:16.843099  6200 net.cpp:84] Creating Layer relu7
I0412 12:43:16.843104  6200 net.cpp:406] relu7 <- fc7
I0412 12:43:16.843112  6200 net.cpp:367] relu7 -> fc7 (in-place)
I0412 12:43:16.843772  6200 net.cpp:122] Setting up relu7
I0412 12:43:16.843781  6200 net.cpp:129] Top shape: 32 4096 (131072)
I0412 12:43:16.843784  6200 net.cpp:137] Memory required for data: 264974080
I0412 12:43:16.843788  6200 layer_factory.hpp:77] Creating layer drop7
I0412 12:43:16.843796  6200 net.cpp:84] Creating Layer drop7
I0412 12:43:16.843799  6200 net.cpp:406] drop7 <- fc7
I0412 12:43:16.843804  6200 net.cpp:367] drop7 -> fc7 (in-place)
I0412 12:43:16.843830  6200 net.cpp:122] Setting up drop7
I0412 12:43:16.843837  6200 net.cpp:129] Top shape: 32 4096 (131072)
I0412 12:43:16.843839  6200 net.cpp:137] Memory required for data: 265498368
I0412 12:43:16.843842  6200 layer_factory.hpp:77] Creating layer fc8
I0412 12:43:16.843849  6200 net.cpp:84] Creating Layer fc8
I0412 12:43:16.843852  6200 net.cpp:406] fc8 <- fc7
I0412 12:43:16.843858  6200 net.cpp:380] fc8 -> fc8
I0412 12:43:16.851505  6200 net.cpp:122] Setting up fc8
I0412 12:43:16.851514  6200 net.cpp:129] Top shape: 32 196 (6272)
I0412 12:43:16.851517  6200 net.cpp:137] Memory required for data: 265523456
I0412 12:43:16.851527  6200 layer_factory.hpp:77] Creating layer fc8_fc8_0_split
I0412 12:43:16.851536  6200 net.cpp:84] Creating Layer fc8_fc8_0_split
I0412 12:43:16.851539  6200 net.cpp:406] fc8_fc8_0_split <- fc8
I0412 12:43:16.851544  6200 net.cpp:380] fc8_fc8_0_split -> fc8_fc8_0_split_0
I0412 12:43:16.851550  6200 net.cpp:380] fc8_fc8_0_split -> fc8_fc8_0_split_1
I0412 12:43:16.851583  6200 net.cpp:122] Setting up fc8_fc8_0_split
I0412 12:43:16.851588  6200 net.cpp:129] Top shape: 32 196 (6272)
I0412 12:43:16.851591  6200 net.cpp:129] Top shape: 32 196 (6272)
I0412 12:43:16.851594  6200 net.cpp:137] Memory required for data: 265573632
I0412 12:43:16.851598  6200 layer_factory.hpp:77] Creating layer accuracy
I0412 12:43:16.851604  6200 net.cpp:84] Creating Layer accuracy
I0412 12:43:16.851608  6200 net.cpp:406] accuracy <- fc8_fc8_0_split_0
I0412 12:43:16.851611  6200 net.cpp:406] accuracy <- label_val-data_1_split_0
I0412 12:43:16.851616  6200 net.cpp:380] accuracy -> accuracy
…
