…
I0422 00:28:46.418203  1903 net.cpp:294] The NetState phase (0) differed from the phase (1) specified by a rule in layer accuracy
I0422 00:28:46.418331  1903 net.cpp:51] Initializing net from parameters:
state {
phase: TRAIN
level: 0
stage: ""
}
layer {
name: "train-data"
type: "Data"
top: "data"
top: "label"
include {
phase: TRAIN
}
transform_param {
mirror: true
crop_size: 227
mean_file: "/mnt/bigdisk/DIGITS-MAN-3/digits/jobs/20210421-230320-902c/mean.binaryproto"
}
data_param {
source: "/mnt/bigdisk/DIGITS-MAN-3/digits/jobs/20210421-230320-902c/train_db"
batch_size: 128
backend: LMDB
}
}
layer {
name: "conv1"
type: "Convolution"
bottom: "data"
top: "conv1"
param {
lr_mult: 1
decay_mult: 1
}
param {
lr_mult: 2
decay_mult: 0
}
convolution_param {
num_output: 96
kernel_size: 7
stride: 4
weight_filler {
type: "gaussian"
std: 0.01
}
bias_filler {
type: "constant"
value: 0
}
}
}
layer {
name: "relu1"
type: "ReLU"
bottom: "conv1"
top: "conv1"
}
layer {
name: "norm1"
type: "LRN"
bottom: "conv1"
top: "norm1"
lrn_param {
local_size: 5
alpha: 0.0001
beta: 0.75
}
}
layer {
name: "pool1"
type: "Pooling"
bottom: "norm1"
top: "pool1"
pooling_param {
pool: MAX
kernel_size: 3
stride: 2
}
}
layer {
name: "conv2"
type: "Convolution"
bottom: "pool1"
top: "conv2"
param {
lr_mult: 1
decay_mult: 1
}
param {
lr_mult: 2
decay_mult: 0
}
convolution_param {
num_output: 256
pad: 2
kernel_size: 5
group: 2
weight_filler {
type: "gaussian"
std: 0.01
}
bias_filler {
type: "constant"
value: 0.1
}
}
}
layer {
name: "relu2"
type: "ReLU"
bottom: "conv2"
top: "conv2"
}
layer {
name: "norm2"
type: "LRN"
bottom: "conv2"
top: "norm2"
lrn_param {
local_size: 5
alpha: 0.0001
beta: 0.75
}
}
layer {
name: "pool2"
type: "Pooling"
bottom: "norm2"
top: "pool2"
pooling_param {
pool: MAX
kernel_size: 3
stride: 2
}
}
layer {
name: "conv3"
type: "Convolution"
bottom: "pool2"
top: "conv3"
param {
lr_mult: 1
decay_mult: 1
}
param {
lr_mult: 2
decay_mult: 0
}
convolution_param {
num_output: 384
pad: 1
kernel_size: 3
weight_filler {
type: "gaussian"
std: 0.01
}
bias_filler {
type: "constant"
value: 0
}
}
}
layer {
name: "relu3"
type: "ReLU"
bottom: "conv3"
top: "conv3"
}
layer {
name: "conv4"
type: "Convolution"
bottom: "conv3"
top: "conv4"
param {
lr_mult: 1
decay_mult: 1
}
param {
lr_mult: 2
decay_mult: 0
}
convolution_param {
num_output: 384
pad: 1
kernel_size: 3
group: 2
weight_filler {
type: "gaussian"
std: 0.01
}
bias_filler {
type: "constant"
value: 0.1
}
}
}
layer {
name: "relu4"
type: "ReLU"
bottom: "conv4"
top: "conv4"
}
layer {
name: "conv5"
type: "Convolution"
bottom: "conv4"
top: "conv5"
param {
lr_mult: 1
decay_mult: 1
}
param {
lr_mult: 2
decay_mult: 0
}
convolution_param {
num_output: 256
pad: 1
kernel_size: 3
group: 2
weight_filler {
type: "gaussian"
std: 0.01
}
bias_filler {
type: "constant"
value: 0.1
}
}
}
layer {
name: "relu5"
type: "ReLU"
bottom: "conv5"
top: "conv5"
}
layer {
name: "pool5"
type: "Pooling"
bottom: "conv5"
top: "pool5"
pooling_param {
pool: MAX
kernel_size: 3
stride: 2
}
}
layer {
name: "fc6"
type: "InnerProduct"
bottom: "pool5"
top: "fc6"
param {
lr_mult: 1
decay_mult: 1
}
param {
lr_mult: 2
decay_mult: 0
}
inner_product_param {
num_output: 4096
weight_filler {
type: "gaussian"
std: 0.005
}
bias_filler {
type: "constant"
value: 0.1
}
}
}
layer {
name: "relu6"
type: "ReLU"
bottom: "fc6"
top: "fc6"
}
layer {
name: "drop6"
type: "Dropout"
bottom: "fc6"
top: "fc6"
dropout_param {
dropout_ratio: 0.5
}
}
layer {
name: "fc7"
type: "InnerProduct"
bottom: "fc6"
top: "fc7"
param {
lr_mult: 1
decay_mult: 1
}
param {
lr_mult: 2
decay_mult: 0
}
inner_product_param {
num_output: 4096
weight_filler {
type: "gaussian"
std: 0.005
}
bias_filler {
type: "constant"
value: 0.1
}
}
}
layer {
name: "relu7"
type: "ReLU"
bottom: "fc7"
top: "fc7"
}
layer {
name: "drop7"
type: "Dropout"
bottom: "fc7"
top: "fc7"
dropout_param {
dropout_ratio: 0.5
}
}
layer {
name: "fc8"
type: "InnerProduct"
bottom: "fc7"
top: "fc8"
param {
lr_mult: 1
decay_mult: 1
}
param {
lr_mult: 2
decay_mult: 0
}
inner_product_param {
num_output: 196
weight_filler {
type: "gaussian"
std: 0.01
}
bias_filler {
type: "constant"
value: 0
}
}
}
layer {
name: "loss"
type: "SoftmaxWithLoss"
bottom: "fc8"
bottom: "label"
top: "loss"
}
I0422 00:28:46.418413  1903 layer_factory.hpp:77] Creating layer train-data
I0422 00:28:46.420058  1903 db_lmdb.cpp:35] Opened lmdb /mnt/bigdisk/DIGITS-MAN-3/digits/jobs/20210421-230320-902c/train_db
I0422 00:28:46.420230  1903 net.cpp:84] Creating Layer train-data
I0422 00:28:46.420240  1903 net.cpp:380] train-data -> data
I0422 00:28:46.420258  1903 net.cpp:380] train-data -> label
I0422 00:28:46.420269  1903 data_transformer.cpp:25] Loading mean file from: /mnt/bigdisk/DIGITS-MAN-3/digits/jobs/20210421-230320-902c/mean.binaryproto
I0422 00:28:46.427141  1903 data_layer.cpp:45] output data size: 128,3,227,227
I0422 00:28:46.630183  1903 net.cpp:122] Setting up train-data
I0422 00:28:46.630208  1903 net.cpp:129] Top shape: 128 3 227 227 (19787136)
I0422 00:28:46.630215  1903 net.cpp:129] Top shape: 128 (128)
I0422 00:28:46.630220  1903 net.cpp:137] Memory required for data: 79149056
I0422 00:28:46.630231  1903 layer_factory.hpp:77] Creating layer conv1
I0422 00:28:46.630254  1903 net.cpp:84] Creating Layer conv1
I0422 00:28:46.630260  1903 net.cpp:406] conv1 <- data
I0422 00:28:46.630275  1903 net.cpp:380] conv1 -> conv1
I0422 00:28:47.470367  1903 net.cpp:122] Setting up conv1
I0422 00:28:47.470391  1903 net.cpp:129] Top shape: 128 96 56 56 (38535168)
I0422 00:28:47.470396  1903 net.cpp:137] Memory required for data: 233289728
I0422 00:28:47.470417  1903 layer_factory.hpp:77] Creating layer relu1
I0422 00:28:47.470428  1903 net.cpp:84] Creating Layer relu1
I0422 00:28:47.470434  1903 net.cpp:406] relu1 <- conv1
I0422 00:28:47.470441  1903 net.cpp:367] relu1 -> conv1 (in-place)
I0422 00:28:47.470744  1903 net.cpp:122] Setting up relu1
I0422 00:28:47.470754  1903 net.cpp:129] Top shape: 128 96 56 56 (38535168)
I0422 00:28:47.470759  1903 net.cpp:137] Memory required for data: 387430400
I0422 00:28:47.470763  1903 layer_factory.hpp:77] Creating layer norm1
I0422 00:28:47.470773  1903 net.cpp:84] Creating Layer norm1
I0422 00:28:47.470778  1903 net.cpp:406] norm1 <- conv1
I0422 00:28:47.470808  1903 net.cpp:380] norm1 -> norm1
I0422 00:28:47.471284  1903 net.cpp:122] Setting up norm1
I0422 00:28:47.471295  1903 net.cpp:129] Top shape: 128 96 56 56 (38535168)
I0422 00:28:47.471299  1903 net.cpp:137] Memory required for data: 541571072
I0422 00:28:47.471304  1903 layer_factory.hpp:77] Creating layer pool1
I0422 00:28:47.471312  1903 net.cpp:84] Creating Layer pool1
I0422 00:28:47.471318  1903 net.cpp:406] pool1 <- norm1
I0422 00:28:47.471324  1903 net.cpp:380] pool1 -> pool1
I0422 00:28:47.471364  1903 net.cpp:122] Setting up pool1
I0422 00:28:47.471371  1903 net.cpp:129] Top shape: 128 96 28 28 (9633792)
I0422 00:28:47.471376  1903 net.cpp:137] Memory required for data: 580106240
I0422 00:28:47.471380  1903 layer_factory.hpp:77] Creating layer conv2
I0422 00:28:47.471392  1903 net.cpp:84] Creating Layer conv2
I0422 00:28:47.471397  1903 net.cpp:406] conv2 <- pool1
I0422 00:28:47.471403  1903 net.cpp:380] conv2 -> conv2
I0422 00:28:47.480746  1903 net.cpp:122] Setting up conv2
I0422 00:28:47.480762  1903 net.cpp:129] Top shape: 128 256 28 28 (25690112)
I0422 00:28:47.480767  1903 net.cpp:137] Memory required for data: 682866688
I0422 00:28:47.480778  1903 layer_factory.hpp:77] Creating layer relu2
I0422 00:28:47.480787  1903 net.cpp:84] Creating Layer relu2
I0422 00:28:47.480792  1903 net.cpp:406] relu2 <- conv2
I0422 00:28:47.480798  1903 net.cpp:367] relu2 -> conv2 (in-place)
I0422 00:28:47.481292  1903 net.cpp:122] Setting up relu2
I0422 00:28:47.481302  1903 net.cpp:129] Top shape: 128 256 28 28 (25690112)
I0422 00:28:47.481307  1903 net.cpp:137] Memory required for data: 785627136
I0422 00:28:47.481312  1903 layer_factory.hpp:77] Creating layer norm2
I0422 00:28:47.481320  1903 net.cpp:84] Creating Layer norm2
I0422 00:28:47.481325  1903 net.cpp:406] norm2 <- conv2
I0422 00:28:47.481331  1903 net.cpp:380] norm2 -> norm2
I0422 00:28:47.481662  1903 net.cpp:122] Setting up norm2
I0422 00:28:47.481670  1903 net.cpp:129] Top shape: 128 256 28 28 (25690112)
I0422 00:28:47.481674  1903 net.cpp:137] Memory required for data: 888387584
I0422 00:28:47.481678  1903 layer_factory.hpp:77] Creating layer pool2
I0422 00:28:47.481689  1903 net.cpp:84] Creating Layer pool2
I0422 00:28:47.481693  1903 net.cpp:406] pool2 <- norm2
I0422 00:28:47.481699  1903 net.cpp:380] pool2 -> pool2
I0422 00:28:47.481731  1903 net.cpp:122] Setting up pool2
I0422 00:28:47.481737  1903 net.cpp:129] Top shape: 128 256 14 14 (6422528)
I0422 00:28:47.481741  1903 net.cpp:137] Memory required for data: 914077696
I0422 00:28:47.481745  1903 layer_factory.hpp:77] Creating layer conv3
I0422 00:28:47.481758  1903 net.cpp:84] Creating Layer conv3
I0422 00:28:47.481762  1903 net.cpp:406] conv3 <- pool2
I0422 00:28:47.481770  1903 net.cpp:380] conv3 -> conv3
I0422 00:28:47.492656  1903 net.cpp:122] Setting up conv3
I0422 00:28:47.492672  1903 net.cpp:129] Top shape: 128 384 14 14 (9633792)
I0422 00:28:47.492676  1903 net.cpp:137] Memory required for data: 952612864
I0422 00:28:47.492689  1903 layer_factory.hpp:77] Creating layer relu3
I0422 00:28:47.492697  1903 net.cpp:84] Creating Layer relu3
I0422 00:28:47.492702  1903 net.cpp:406] relu3 <- conv3
I0422 00:28:47.492708  1903 net.cpp:367] relu3 -> conv3 (in-place)
I0422 00:28:47.493244  1903 net.cpp:122] Setting up relu3
I0422 00:28:47.493257  1903 net.cpp:129] Top shape: 128 384 14 14 (9633792)
I0422 00:28:47.493260  1903 net.cpp:137] Memory required for data: 991148032
I0422 00:28:47.493264  1903 layer_factory.hpp:77] Creating layer conv4
I0422 00:28:47.493276  1903 net.cpp:84] Creating Layer conv4
I0422 00:28:47.493281  1903 net.cpp:406] conv4 <- conv3
I0422 00:28:47.493289  1903 net.cpp:380] conv4 -> conv4
I0422 00:28:47.520684  1903 net.cpp:122] Setting up conv4
I0422 00:28:47.520699  1903 net.cpp:129] Top shape: 128 384 14 14 (9633792)
I0422 00:28:47.520704  1903 net.cpp:137] Memory required for data: 1029683200
I0422 00:28:47.520792  1903 layer_factory.hpp:77] Creating layer relu4
I0422 00:28:47.520802  1903 net.cpp:84] Creating Layer relu4
I0422 00:28:47.520824  1903 net.cpp:406] relu4 <- conv4
I0422 00:28:47.520830  1903 net.cpp:367] relu4 -> conv4 (in-place)
I0422 00:28:47.521207  1903 net.cpp:122] Setting up relu4
I0422 00:28:47.521217  1903 net.cpp:129] Top shape: 128 384 14 14 (9633792)
I0422 00:28:47.521221  1903 net.cpp:137] Memory required for data: 1068218368
I0422 00:28:47.521226  1903 layer_factory.hpp:77] Creating layer conv5
I0422 00:28:47.521237  1903 net.cpp:84] Creating Layer conv5
I0422 00:28:47.521241  1903 net.cpp:406] conv5 <- conv4
I0422 00:28:47.521250  1903 net.cpp:380] conv5 -> conv5
I0422 00:28:47.537204  1903 net.cpp:122] Setting up conv5
I0422 00:28:47.537226  1903 net.cpp:129] Top shape: 128 256 14 14 (6422528)
I0422 00:28:47.537231  1903 net.cpp:137] Memory required for data: 1093908480
I0422 00:28:47.537250  1903 layer_factory.hpp:77] Creating layer relu5
I0422 00:28:47.537261  1903 net.cpp:84] Creating Layer relu5
I0422 00:28:47.537266  1903 net.cpp:406] relu5 <- conv5
I0422 00:28:47.537274  1903 net.cpp:367] relu5 -> conv5 (in-place)
I0422 00:28:47.537933  1903 net.cpp:122] Setting up relu5
I0422 00:28:47.537946  1903 net.cpp:129] Top shape: 128 256 14 14 (6422528)
I0422 00:28:47.537952  1903 net.cpp:137] Memory required for data: 1119598592
I0422 00:28:47.537957  1903 layer_factory.hpp:77] Creating layer pool5
I0422 00:28:47.537967  1903 net.cpp:84] Creating Layer pool5
I0422 00:28:47.537972  1903 net.cpp:406] pool5 <- conv5
I0422 00:28:47.537981  1903 net.cpp:380] pool5 -> pool5
I0422 00:28:47.538030  1903 net.cpp:122] Setting up pool5
I0422 00:28:47.538038  1903 net.cpp:129] Top shape: 128 256 7 7 (1605632)
I0422 00:28:47.538043  1903 net.cpp:137] Memory required for data: 1126021120
I0422 00:28:47.538046  1903 layer_factory.hpp:77] Creating layer fc6
I0422 00:28:47.538061  1903 net.cpp:84] Creating Layer fc6
I0422 00:28:47.538067  1903 net.cpp:406] fc6 <- pool5
I0422 00:28:47.538074  1903 net.cpp:380] fc6 -> fc6
I0422 00:28:48.074013  1903 net.cpp:122] Setting up fc6
I0422 00:28:48.074035  1903 net.cpp:129] Top shape: 128 4096 (524288)
I0422 00:28:48.074039  1903 net.cpp:137] Memory required for data: 1128118272
I0422 00:28:48.074049  1903 layer_factory.hpp:77] Creating layer relu6
I0422 00:28:48.074059  1903 net.cpp:84] Creating Layer relu6
I0422 00:28:48.074064  1903 net.cpp:406] relu6 <- fc6
I0422 00:28:48.074072  1903 net.cpp:367] relu6 -> fc6 (in-place)
I0422 00:28:48.112054  1903 net.cpp:122] Setting up relu6
I0422 00:28:48.112076  1903 net.cpp:129] Top shape: 128 4096 (524288)
I0422 00:28:48.112080  1903 net.cpp:137] Memory required for data: 1130215424
I0422 00:28:48.112087  1903 layer_factory.hpp:77] Creating layer drop6
I0422 00:28:48.112097  1903 net.cpp:84] Creating Layer drop6
I0422 00:28:48.112102  1903 net.cpp:406] drop6 <- fc6
I0422 00:28:48.112112  1903 net.cpp:367] drop6 -> fc6 (in-place)
I0422 00:28:48.112149  1903 net.cpp:122] Setting up drop6
I0422 00:28:48.112154  1903 net.cpp:129] Top shape: 128 4096 (524288)
I0422 00:28:48.112159  1903 net.cpp:137] Memory required for data: 1132312576
I0422 00:28:48.112164  1903 layer_factory.hpp:77] Creating layer fc7
I0422 00:28:48.112174  1903 net.cpp:84] Creating Layer fc7
I0422 00:28:48.112179  1903 net.cpp:406] fc7 <- fc6
I0422 00:28:48.112186  1903 net.cpp:380] fc7 -> fc7
I0422 00:28:48.362764  1903 net.cpp:122] Setting up fc7
I0422 00:28:48.362790  1903 net.cpp:129] Top shape: 128 4096 (524288)
I0422 00:28:48.362797  1903 net.cpp:137] Memory required for data: 1134409728
I0422 00:28:48.362809  1903 layer_factory.hpp:77] Creating layer relu7
I0422 00:28:48.362823  1903 net.cpp:84] Creating Layer relu7
I0422 00:28:48.362828  1903 net.cpp:406] relu7 <- fc7
I0422 00:28:48.362839  1903 net.cpp:367] relu7 -> fc7 (in-place)
I0422 00:28:48.363425  1903 net.cpp:122] Setting up relu7
I0422 00:28:48.363436  1903 net.cpp:129] Top shape: 128 4096 (524288)
I0422 00:28:48.363440  1903 net.cpp:137] Memory required for data: 1136506880
I0422 00:28:48.363445  1903 layer_factory.hpp:77] Creating layer drop7
I0422 00:28:48.363456  1903 net.cpp:84] Creating Layer drop7
I0422 00:28:48.363487  1903 net.cpp:406] drop7 <- fc7
I0422 00:28:48.363494  1903 net.cpp:367] drop7 -> fc7 (in-place)
I0422 00:28:48.363528  1903 net.cpp:122] Setting up drop7
I0422 00:28:48.363536  1903 net.cpp:129] Top shape: 128 4096 (524288)
I0422 00:28:48.363541  1903 net.cpp:137] Memory required for data: 1138604032
I0422 00:28:48.363546  1903 layer_factory.hpp:77] Creating layer fc8
I0422 00:28:48.363556  1903 net.cpp:84] Creating Layer fc8
I0422 00:28:48.363561  1903 net.cpp:406] fc8 <- fc7
I0422 00:28:48.363570  1903 net.cpp:380] fc8 -> fc8
I0422 00:28:48.383626  1903 net.cpp:122] Setting up fc8
I0422 00:28:48.383644  1903 net.cpp:129] Top shape: 128 196 (25088)
I0422 00:28:48.383649  1903 net.cpp:137] Memory required for data: 1138704384
I0422 00:28:48.383661  1903 layer_factory.hpp:77] Creating layer loss
I0422 00:28:48.383669  1903 net.cpp:84] Creating Layer loss
I0422 00:28:48.383675  1903 net.cpp:406] loss <- fc8
I0422 00:28:48.383682  1903 net.cpp:406] loss <- label
I0422 00:28:48.383690  1903 net.cpp:380] loss -> loss
I0422 00:28:48.383702  1903 layer_factory.hpp:77] Creating layer loss
…
I0422 00:28:48.436368  1903 net.cpp:294] The NetState phase (1) differed from the phase (0) specified by a rule in layer train-data
I0422 00:28:48.436525  1903 net.cpp:51] Initializing net from parameters:
state {
phase: TEST
}
layer {
name: "val-data"
type: "Data"
top: "data"
top: "label"
include {
phase: TEST
}
transform_param {
crop_size: 227
mean_file: "/mnt/bigdisk/DIGITS-MAN-3/digits/jobs/20210421-230320-902c/mean.binaryproto"
}
data_param {
source: "/mnt/bigdisk/DIGITS-MAN-3/digits/jobs/20210421-230320-902c/val_db"
batch_size: 32
backend: LMDB
}
}
layer {
name: "conv1"
type: "Convolution"
bottom: "data"
top: "conv1"
param {
lr_mult: 1
decay_mult: 1
}
param {
lr_mult: 2
decay_mult: 0
}
convolution_param {
num_output: 96
kernel_size: 7
stride: 4
weight_filler {
type: "gaussian"
std: 0.01
}
bias_filler {
type: "constant"
value: 0
}
}
}
layer {
name: "relu1"
type: "ReLU"
bottom: "conv1"
top: "conv1"
}
layer {
name: "norm1"
type: "LRN"
bottom: "conv1"
top: "norm1"
lrn_param {
local_size: 5
alpha: 0.0001
beta: 0.75
}
}
layer {
name: "pool1"
type: "Pooling"
bottom: "norm1"
top: "pool1"
pooling_param {
pool: MAX
kernel_size: 3
stride: 2
}
}
layer {
name: "conv2"
type: "Convolution"
bottom: "pool1"
top: "conv2"
param {
lr_mult: 1
decay_mult: 1
}
param {
lr_mult: 2
decay_mult: 0
}
convolution_param {
num_output: 256
pad: 2
kernel_size: 5
group: 2
weight_filler {
type: "gaussian"
std: 0.01
}
bias_filler {
type: "constant"
value: 0.1
}
}
}
layer {
name: "relu2"
type: "ReLU"
bottom: "conv2"
top: "conv2"
}
layer {
name: "norm2"
type: "LRN"
bottom: "conv2"
top: "norm2"
lrn_param {
local_size: 5
alpha: 0.0001
beta: 0.75
}
}
layer {
name: "pool2"
type: "Pooling"
bottom: "norm2"
top: "pool2"
pooling_param {
pool: MAX
kernel_size: 3
stride: 2
}
}
layer {
name: "conv3"
type: "Convolution"
bottom: "pool2"
top: "conv3"
param {
lr_mult: 1
decay_mult: 1
}
param {
lr_mult: 2
decay_mult: 0
}
convolution_param {
num_output: 384
pad: 1
kernel_size: 3
weight_filler {
type: "gaussian"
std: 0.01
}
bias_filler {
type: "constant"
value: 0
}
}
}
layer {
name: "relu3"
type: "ReLU"
bottom: "conv3"
top: "conv3"
}
layer {
name: "conv4"
type: "Convolution"
bottom: "conv3"
top: "conv4"
param {
lr_mult: 1
decay_mult: 1
}
param {
lr_mult: 2
decay_mult: 0
}
convolution_param {
num_output: 384
pad: 1
kernel_size: 3
group: 2
weight_filler {
type: "gaussian"
std: 0.01
}
bias_filler {
type: "constant"
value: 0.1
}
}
}
layer {
name: "relu4"
type: "ReLU"
bottom: "conv4"
top: "conv4"
}
layer {
name: "conv5"
type: "Convolution"
bottom: "conv4"
top: "conv5"
param {
lr_mult: 1
decay_mult: 1
}
param {
lr_mult: 2
decay_mult: 0
}
convolution_param {
num_output: 256
pad: 1
kernel_size: 3
group: 2
weight_filler {
type: "gaussian"
std: 0.01
}
bias_filler {
type: "constant"
value: 0.1
}
}
}
layer {
name: "relu5"
type: "ReLU"
bottom: "conv5"
top: "conv5"
}
layer {
name: "pool5"
type: "Pooling"
bottom: "conv5"
top: "pool5"
pooling_param {
pool: MAX
kernel_size: 3
stride: 2
}
}
layer {
name: "fc6"
type: "InnerProduct"
bottom: "pool5"
top: "fc6"
param {
lr_mult: 1
decay_mult: 1
}
param {
lr_mult: 2
decay_mult: 0
}
inner_product_param {
num_output: 4096
weight_filler {
type: "gaussian"
std: 0.005
}
bias_filler {
type: "constant"
value: 0.1
}
}
}
layer {
name: "relu6"
type: "ReLU"
bottom: "fc6"
top: "fc6"
}
layer {
name: "drop6"
type: "Dropout"
bottom: "fc6"
top: "fc6"
dropout_param {
dropout_ratio: 0.5
}
}
layer {
name: "fc7"
type: "InnerProduct"
bottom: "fc6"
top: "fc7"
param {
lr_mult: 1
decay_mult: 1
}
param {
lr_mult: 2
decay_mult: 0
}
inner_product_param {
num_output: 4096
weight_filler {
type: "gaussian"
std: 0.005
}
bias_filler {
type: "constant"
value: 0.1
}
}
}
layer {
name: "relu7"
type: "ReLU"
bottom: "fc7"
top: "fc7"
}
layer {
name: "drop7"
type: "Dropout"
bottom: "fc7"
top: "fc7"
dropout_param {
dropout_ratio: 0.5
}
}
layer {
name: "fc8"
type: "InnerProduct"
bottom: "fc7"
top: "fc8"
param {
lr_mult: 1
decay_mult: 1
}
param {
lr_mult: 2
decay_mult: 0
}
inner_product_param {
num_output: 196
weight_filler {
type: "gaussian"
std: 0.01
}
bias_filler {
type: "constant"
value: 0
}
}
}
layer {
name: "accuracy"
type: "Accuracy"
bottom: "fc8"
bottom: "label"
top: "accuracy"
include {
phase: TEST
}
}
layer {
name: "loss"
type: "SoftmaxWithLoss"
bottom: "fc8"
bottom: "label"
top: "loss"
}
I0422 00:28:48.436636  1903 layer_factory.hpp:77] Creating layer val-data
I0422 00:28:48.438580  1903 db_lmdb.cpp:35] Opened lmdb /mnt/bigdisk/DIGITS-MAN-3/digits/jobs/20210421-230320-902c/val_db
I0422 00:28:48.438760  1903 net.cpp:84] Creating Layer val-data
I0422 00:28:48.438768  1903 net.cpp:380] val-data -> data
I0422 00:28:48.438777  1903 net.cpp:380] val-data -> label
I0422 00:28:48.438786  1903 data_transformer.cpp:25] Loading mean file from: /mnt/bigdisk/DIGITS-MAN-3/digits/jobs/20210421-230320-902c/mean.binaryproto
I0422 00:28:48.442142  1903 data_layer.cpp:45] output data size: 32,3,227,227
I0422 00:28:48.555567  1903 net.cpp:122] Setting up val-data
I0422 00:28:48.555604  1903 net.cpp:129] Top shape: 32 3 227 227 (4946784)
I0422 00:28:48.555615  1903 net.cpp:129] Top shape: 32 (32)
I0422 00:28:48.555621  1903 net.cpp:137] Memory required for data: 19787264
I0422 00:28:48.555632  1903 layer_factory.hpp:77] Creating layer label_val-data_1_split
I0422 00:28:48.555652  1903 net.cpp:84] Creating Layer label_val-data_1_split
I0422 00:28:48.555660  1903 net.cpp:406] label_val-data_1_split <- label
I0422 00:28:48.555673  1903 net.cpp:380] label_val-data_1_split -> label_val-data_1_split_0
I0422 00:28:48.555692  1903 net.cpp:380] label_val-data_1_split -> label_val-data_1_split_1
I0422 00:28:48.555794  1903 net.cpp:122] Setting up label_val-data_1_split
I0422 00:28:48.555805  1903 net.cpp:129] Top shape: 32 (32)
I0422 00:28:48.555814  1903 net.cpp:129] Top shape: 32 (32)
I0422 00:28:48.555819  1903 net.cpp:137] Memory required for data: 19787520
I0422 00:28:48.555825  1903 layer_factory.hpp:77] Creating layer conv1
I0422 00:28:48.555848  1903 net.cpp:84] Creating Layer conv1
I0422 00:28:48.555855  1903 net.cpp:406] conv1 <- data
I0422 00:28:48.555868  1903 net.cpp:380] conv1 -> conv1
I0422 00:28:48.560168  1903 net.cpp:122] Setting up conv1
I0422 00:28:48.560194  1903 net.cpp:129] Top shape: 32 96 56 56 (9633792)
I0422 00:28:48.560200  1903 net.cpp:137] Memory required for data: 58322688
I0422 00:28:48.560220  1903 layer_factory.hpp:77] Creating layer relu1
I0422 00:28:48.560235  1903 net.cpp:84] Creating Layer relu1
I0422 00:28:48.560241  1903 net.cpp:406] relu1 <- conv1
I0422 00:28:48.560252  1903 net.cpp:367] relu1 -> conv1 (in-place)
I0422 00:28:48.562484  1903 net.cpp:122] Setting up relu1
I0422 00:28:48.562505  1903 net.cpp:129] Top shape: 32 96 56 56 (9633792)
I0422 00:28:48.562511  1903 net.cpp:137] Memory required for data: 96857856
I0422 00:28:48.562520  1903 layer_factory.hpp:77] Creating layer norm1
I0422 00:28:48.562536  1903 net.cpp:84] Creating Layer norm1
I0422 00:28:48.562542  1903 net.cpp:406] norm1 <- conv1
I0422 00:28:48.562553  1903 net.cpp:380] norm1 -> norm1
I0422 00:28:48.563561  1903 net.cpp:122] Setting up norm1
I0422 00:28:48.563581  1903 net.cpp:129] Top shape: 32 96 56 56 (9633792)
I0422 00:28:48.563588  1903 net.cpp:137] Memory required for data: 135393024
I0422 00:28:48.563596  1903 layer_factory.hpp:77] Creating layer pool1
I0422 00:28:48.563608  1903 net.cpp:84] Creating Layer pool1
I0422 00:28:48.563616  1903 net.cpp:406] pool1 <- norm1
I0422 00:28:48.563627  1903 net.cpp:380] pool1 -> pool1
I0422 00:28:48.563691  1903 net.cpp:122] Setting up pool1
I0422 00:28:48.563702  1903 net.cpp:129] Top shape: 32 96 28 28 (2408448)
I0422 00:28:48.563709  1903 net.cpp:137] Memory required for data: 145026816
I0422 00:28:48.563715  1903 layer_factory.hpp:77] Creating layer conv2
I0422 00:28:48.563732  1903 net.cpp:84] Creating Layer conv2
I0422 00:28:48.563738  1903 net.cpp:406] conv2 <- pool1
I0422 00:28:48.563786  1903 net.cpp:380] conv2 -> conv2
I0422 00:28:48.578825  1903 net.cpp:122] Setting up conv2
I0422 00:28:48.578853  1903 net.cpp:129] Top shape: 32 256 28 28 (6422528)
I0422 00:28:48.578860  1903 net.cpp:137] Memory required for data: 170716928
I0422 00:28:48.578878  1903 layer_factory.hpp:77] Creating layer relu2
I0422 00:28:48.578894  1903 net.cpp:84] Creating Layer relu2
I0422 00:28:48.578902  1903 net.cpp:406] relu2 <- conv2
I0422 00:28:48.578912  1903 net.cpp:367] relu2 -> conv2 (in-place)
I0422 00:28:48.579902  1903 net.cpp:122] Setting up relu2
I0422 00:28:48.579919  1903 net.cpp:129] Top shape: 32 256 28 28 (6422528)
I0422 00:28:48.579926  1903 net.cpp:137] Memory required for data: 196407040
I0422 00:28:48.579932  1903 layer_factory.hpp:77] Creating layer norm2
I0422 00:28:48.579952  1903 net.cpp:84] Creating Layer norm2
I0422 00:28:48.579957  1903 net.cpp:406] norm2 <- conv2
I0422 00:28:48.579968  1903 net.cpp:380] norm2 -> norm2
I0422 00:28:48.581005  1903 net.cpp:122] Setting up norm2
I0422 00:28:48.581023  1903 net.cpp:129] Top shape: 32 256 28 28 (6422528)
I0422 00:28:48.581030  1903 net.cpp:137] Memory required for data: 222097152
I0422 00:28:48.581038  1903 layer_factory.hpp:77] Creating layer pool2
I0422 00:28:48.581049  1903 net.cpp:84] Creating Layer pool2
I0422 00:28:48.581056  1903 net.cpp:406] pool2 <- norm2
I0422 00:28:48.581068  1903 net.cpp:380] pool2 -> pool2
I0422 00:28:48.581128  1903 net.cpp:122] Setting up pool2
I0422 00:28:48.581138  1903 net.cpp:129] Top shape: 32 256 14 14 (1605632)
I0422 00:28:48.581144  1903 net.cpp:137] Memory required for data: 228519680
I0422 00:28:48.581149  1903 layer_factory.hpp:77] Creating layer conv3
I0422 00:28:48.581169  1903 net.cpp:84] Creating Layer conv3
I0422 00:28:48.581176  1903 net.cpp:406] conv3 <- pool2
I0422 00:28:48.581185  1903 net.cpp:380] conv3 -> conv3
I0422 00:28:48.602972  1903 net.cpp:122] Setting up conv3
I0422 00:28:48.602998  1903 net.cpp:129] Top shape: 32 384 14 14 (2408448)
I0422 00:28:48.603005  1903 net.cpp:137] Memory required for data: 238153472
I0422 00:28:48.603026  1903 layer_factory.hpp:77] Creating layer relu3
I0422 00:28:48.603039  1903 net.cpp:84] Creating Layer relu3
I0422 00:28:48.603046  1903 net.cpp:406] relu3 <- conv3
I0422 00:28:48.603057  1903 net.cpp:367] relu3 -> conv3 (in-place)
I0422 00:28:48.603952  1903 net.cpp:122] Setting up relu3
I0422 00:28:48.603971  1903 net.cpp:129] Top shape: 32 384 14 14 (2408448)
I0422 00:28:48.603976  1903 net.cpp:137] Memory required for data: 247787264
I0422 00:28:48.603982  1903 layer_factory.hpp:77] Creating layer conv4
I0422 00:28:48.604002  1903 net.cpp:84] Creating Layer conv4
I0422 00:28:48.604009  1903 net.cpp:406] conv4 <- conv3
I0422 00:28:48.604022  1903 net.cpp:380] conv4 -> conv4
I0422 00:28:48.622727  1903 net.cpp:122] Setting up conv4
I0422 00:28:48.622753  1903 net.cpp:129] Top shape: 32 384 14 14 (2408448)
I0422 00:28:48.622759  1903 net.cpp:137] Memory required for data: 257421056
I0422 00:28:48.622772  1903 layer_factory.hpp:77] Creating layer relu4
I0422 00:28:48.622786  1903 net.cpp:84] Creating Layer relu4
I0422 00:28:48.622793  1903 net.cpp:406] relu4 <- conv4
I0422 00:28:48.622802  1903 net.cpp:367] relu4 -> conv4 (in-place)
I0422 00:28:48.623404  1903 net.cpp:122] Setting up relu4
I0422 00:28:48.623416  1903 net.cpp:129] Top shape: 32 384 14 14 (2408448)
I0422 00:28:48.623421  1903 net.cpp:137] Memory required for data: 267054848
I0422 00:28:48.623427  1903 layer_factory.hpp:77] Creating layer conv5
I0422 00:28:48.623443  1903 net.cpp:84] Creating Layer conv5
I0422 00:28:48.623450  1903 net.cpp:406] conv5 <- conv4
I0422 00:28:48.623461  1903 net.cpp:380] conv5 -> conv5
I0422 00:28:48.638895  1903 net.cpp:122] Setting up conv5
I0422 00:28:48.638916  1903 net.cpp:129] Top shape: 32 256 14 14 (1605632)
I0422 00:28:48.638921  1903 net.cpp:137] Memory required for data: 273477376
I0422 00:28:48.638942  1903 layer_factory.hpp:77] Creating layer relu5
I0422 00:28:48.638953  1903 net.cpp:84] Creating Layer relu5
I0422 00:28:48.638959  1903 net.cpp:406] relu5 <- conv5
I0422 00:28:48.638993  1903 net.cpp:367] relu5 -> conv5 (in-place)
I0422 00:28:48.639745  1903 net.cpp:122] Setting up relu5
I0422 00:28:48.639760  1903 net.cpp:129] Top shape: 32 256 14 14 (1605632)
I0422 00:28:48.639765  1903 net.cpp:137] Memory required for data: 279899904
I0422 00:28:48.639771  1903 layer_factory.hpp:77] Creating layer pool5
I0422 00:28:48.639786  1903 net.cpp:84] Creating Layer pool5
I0422 00:28:48.639791  1903 net.cpp:406] pool5 <- conv5
I0422 00:28:48.639799  1903 net.cpp:380] pool5 -> pool5
I0422 00:28:48.639853  1903 net.cpp:122] Setting up pool5
I0422 00:28:48.639863  1903 net.cpp:129] Top shape: 32 256 7 7 (401408)
I0422 00:28:48.639866  1903 net.cpp:137] Memory required for data: 281505536
I0422 00:28:48.639871  1903 layer_factory.hpp:77] Creating layer fc6
I0422 00:28:48.639883  1903 net.cpp:84] Creating Layer fc6
I0422 00:28:48.639889  1903 net.cpp:406] fc6 <- pool5
I0422 00:28:48.639897  1903 net.cpp:380] fc6 -> fc6
I0422 00:28:49.145996  1903 net.cpp:122] Setting up fc6
I0422 00:28:49.146018  1903 net.cpp:129] Top shape: 32 4096 (131072)
I0422 00:28:49.146021  1903 net.cpp:137] Memory required for data: 282029824
I0422 00:28:49.146031  1903 layer_factory.hpp:77] Creating layer relu6
I0422 00:28:49.146042  1903 net.cpp:84] Creating Layer relu6
I0422 00:28:49.146047  1903 net.cpp:406] relu6 <- fc6
I0422 00:28:49.146055  1903 net.cpp:367] relu6 -> fc6 (in-place)
I0422 00:28:49.203665  1903 net.cpp:122] Setting up relu6
I0422 00:28:49.203696  1903 net.cpp:129] Top shape: 32 4096 (131072)
I0422 00:28:49.203702  1903 net.cpp:137] Memory required for data: 282554112
I0422 00:28:49.203711  1903 layer_factory.hpp:77] Creating layer drop6
I0422 00:28:49.203724  1903 net.cpp:84] Creating Layer drop6
I0422 00:28:49.203732  1903 net.cpp:406] drop6 <- fc6
I0422 00:28:49.203743  1903 net.cpp:367] drop6 -> fc6 (in-place)
I0422 00:28:49.203799  1903 net.cpp:122] Setting up drop6
I0422 00:28:49.203809  1903 net.cpp:129] Top shape: 32 4096 (131072)
I0422 00:28:49.203814  1903 net.cpp:137] Memory required for data: 283078400
I0422 00:28:49.203819  1903 layer_factory.hpp:77] Creating layer fc7
I0422 00:28:49.203832  1903 net.cpp:84] Creating Layer fc7
I0422 00:28:49.203838  1903 net.cpp:406] fc7 <- fc6
I0422 00:28:49.203846  1903 net.cpp:380] fc7 -> fc7
I0422 00:28:49.417548  1903 net.cpp:122] Setting up fc7
I0422 00:28:49.417568  1903 net.cpp:129] Top shape: 32 4096 (131072)
I0422 00:28:49.417572  1903 net.cpp:137] Memory required for data: 283602688
I0422 00:28:49.417582  1903 layer_factory.hpp:77] Creating layer relu7
I0422 00:28:49.417593  1903 net.cpp:84] Creating Layer relu7
I0422 00:28:49.417598  1903 net.cpp:406] relu7 <- fc7
I0422 00:28:49.417604  1903 net.cpp:367] relu7 -> fc7 (in-place)
I0422 00:28:49.418051  1903 net.cpp:122] Setting up relu7
I0422 00:28:49.418061  1903 net.cpp:129] Top shape: 32 4096 (131072)
I0422 00:28:49.418066  1903 net.cpp:137] Memory required for data: 284126976
I0422 00:28:49.418071  1903 layer_factory.hpp:77] Creating layer drop7
I0422 00:28:49.418077  1903 net.cpp:84] Creating Layer drop7
I0422 00:28:49.418081  1903 net.cpp:406] drop7 <- fc7
I0422 00:28:49.418087  1903 net.cpp:367] drop7 -> fc7 (in-place)
I0422 00:28:49.418113  1903 net.cpp:122] Setting up drop7
I0422 00:28:49.418118  1903 net.cpp:129] Top shape: 32 4096 (131072)
I0422 00:28:49.418123  1903 net.cpp:137] Memory required for data: 284651264
I0422 00:28:49.418126  1903 layer_factory.hpp:77] Creating layer fc8
I0422 00:28:49.418135  1903 net.cpp:84] Creating Layer fc8
I0422 00:28:49.418140  1903 net.cpp:406] fc8 <- fc7
I0422 00:28:49.418145  1903 net.cpp:380] fc8 -> fc8
I0422 00:28:49.427031  1903 net.cpp:122] Setting up fc8
I0422 00:28:49.427043  1903 net.cpp:129] Top shape: 32 196 (6272)
I0422 00:28:49.427047  1903 net.cpp:137] Memory required for data: 284676352
I0422 00:28:49.427054  1903 layer_factory.hpp:77] Creating layer fc8_fc8_0_split
I0422 00:28:49.427063  1903 net.cpp:84] Creating Layer fc8_fc8_0_split
I0422 00:28:49.427067  1903 net.cpp:406] fc8_fc8_0_split <- fc8
I0422 00:28:49.427095  1903 net.cpp:380] fc8_fc8_0_split -> fc8_fc8_0_split_0
I0422 00:28:49.427104  1903 net.cpp:380] fc8_fc8_0_split -> fc8_fc8_0_split_1
I0422 00:28:49.427141  1903 net.cpp:122] Setting up fc8_fc8_0_split
I0422 00:28:49.427147  1903 net.cpp:129] Top shape: 32 196 (6272)
I0422 00:28:49.427151  1903 net.cpp:129] Top shape: 32 196 (6272)
I0422 00:28:49.427155  1903 net.cpp:137] Memory required for data: 284726528
I0422 00:28:49.427158  1903 layer_factory.hpp:77] Creating layer accuracy
I0422 00:28:49.427165  1903 net.cpp:84] Creating Layer accuracy
I0422 00:28:49.427170  1903 net.cpp:406] accuracy <- fc8_fc8_0_split_0
I0422 00:28:49.427175  1903 net.cpp:406] accuracy <- label_val-data_1_split_0
I0422 00:28:49.427181  1903 net.cpp:380] accuracy -> accuracy
…
