…
I0421 23:06:49.524180  8184 net.cpp:294] The NetState phase (0) differed from the phase (1) specified by a rule in layer accuracy
I0421 23:06:49.524403  8184 net.cpp:51] Initializing net from parameters:
state {
phase: TRAIN
level: 0
stage: ""
}
layer {
name: "train-data"
type: "Data"
top: "data"
top: "label"
include {
phase: TRAIN
}
transform_param {
mirror: true
crop_size: 227
mean_file: "/mnt/bigdisk/DIGITS-MAN-3/digits/jobs/20210421-230320-902c/mean.binaryproto"
}
data_param {
source: "/mnt/bigdisk/DIGITS-MAN-3/digits/jobs/20210421-230320-902c/train_db"
batch_size: 128
backend: LMDB
}
}
layer {
name: "conv1"
type: "Convolution"
bottom: "data"
top: "conv1"
param {
lr_mult: 1
decay_mult: 1
}
param {
lr_mult: 2
decay_mult: 0
}
convolution_param {
num_output: 96
kernel_size: 3
stride: 4
weight_filler {
type: "gaussian"
std: 0.01
}
bias_filler {
type: "constant"
value: 0
}
}
}
layer {
name: "relu1"
type: "ReLU"
bottom: "conv1"
top: "conv1"
}
layer {
name: "norm1"
type: "LRN"
bottom: "conv1"
top: "norm1"
lrn_param {
local_size: 5
alpha: 0.0001
beta: 0.75
}
}
layer {
name: "pool1"
type: "Pooling"
bottom: "norm1"
top: "pool1"
pooling_param {
pool: MAX
kernel_size: 3
stride: 2
}
}
layer {
name: "conv2"
type: "Convolution"
bottom: "pool1"
top: "conv2"
param {
lr_mult: 1
decay_mult: 1
}
param {
lr_mult: 2
decay_mult: 0
}
convolution_param {
num_output: 256
pad: 2
kernel_size: 5
group: 2
weight_filler {
type: "gaussian"
std: 0.01
}
bias_filler {
type: "constant"
value: 0.1
}
}
}
layer {
name: "relu2"
type: "ReLU"
bottom: "conv2"
top: "conv2"
}
layer {
name: "norm2"
type: "LRN"
bottom: "conv2"
top: "norm2"
lrn_param {
local_size: 5
alpha: 0.0001
beta: 0.75
}
}
layer {
name: "pool2"
type: "Pooling"
bottom: "norm2"
top: "pool2"
pooling_param {
pool: MAX
kernel_size: 3
stride: 2
}
}
layer {
name: "conv3"
type: "Convolution"
bottom: "pool2"
top: "conv3"
param {
lr_mult: 1
decay_mult: 1
}
param {
lr_mult: 2
decay_mult: 0
}
convolution_param {
num_output: 384
pad: 1
kernel_size: 3
weight_filler {
type: "gaussian"
std: 0.01
}
bias_filler {
type: "constant"
value: 0
}
}
}
layer {
name: "relu3"
type: "ReLU"
bottom: "conv3"
top: "conv3"
}
layer {
name: "conv4"
type: "Convolution"
bottom: "conv3"
top: "conv4"
param {
lr_mult: 1
decay_mult: 1
}
param {
lr_mult: 2
decay_mult: 0
}
convolution_param {
num_output: 384
pad: 1
kernel_size: 3
group: 2
weight_filler {
type: "gaussian"
std: 0.01
}
bias_filler {
type: "constant"
value: 0.1
}
}
}
layer {
name: "relu4"
type: "ReLU"
bottom: "conv4"
top: "conv4"
}
layer {
name: "conv5"
type: "Convolution"
bottom: "conv4"
top: "conv5"
param {
lr_mult: 1
decay_mult: 1
}
param {
lr_mult: 2
decay_mult: 0
}
convolution_param {
num_output: 256
pad: 1
kernel_size: 3
group: 2
weight_filler {
type: "gaussian"
std: 0.01
}
bias_filler {
type: "constant"
value: 0.1
}
}
}
layer {
name: "relu5"
type: "ReLU"
bottom: "conv5"
top: "conv5"
}
layer {
name: "pool5"
type: "Pooling"
bottom: "conv5"
top: "pool5"
pooling_param {
pool: MAX
kernel_size: 3
stride: 2
}
}
layer {
name: "fc6"
type: "InnerProduct"
bottom: "pool5"
top: "fc6"
param {
lr_mult: 1
decay_mult: 1
}
param {
lr_mult: 2
decay_mult: 0
}
inner_product_param {
num_output: 4096
weight_filler {
type: "gaussian"
std: 0.005
}
bias_filler {
type: "constant"
value: 0.1
}
}
}
layer {
name: "relu6"
type: "ReLU"
bottom: "fc6"
top: "fc6"
}
layer {
name: "drop6"
type: "Dropout"
bottom: "fc6"
top: "fc6"
dropout_param {
dropout_ratio: 0.5
}
}
layer {
name: "fc7"
type: "InnerProduct"
bottom: "fc6"
top: "fc7"
param {
lr_mult: 1
decay_mult: 1
}
param {
lr_mult: 2
decay_mult: 0
}
inner_product_param {
num_output: 4096
weight_filler {
type: "gaussian"
std: 0.005
}
bias_filler {
type: "constant"
value: 0.1
}
}
}
layer {
name: "relu7"
type: "ReLU"
bottom: "fc7"
top: "fc7"
}
layer {
name: "drop7"
type: "Dropout"
bottom: "fc7"
top: "fc7"
dropout_param {
dropout_ratio: 0.5
}
}
layer {
name: "fc8"
type: "InnerProduct"
bottom: "fc7"
top: "fc8"
param {
lr_mult: 1
decay_mult: 1
}
param {
lr_mult: 2
decay_mult: 0
}
inner_product_param {
num_output: 196
weight_filler {
type: "gaussian"
std: 0.01
}
bias_filler {
type: "constant"
value: 0
}
}
}
layer {
name: "loss"
type: "SoftmaxWithLoss"
bottom: "fc8"
bottom: "label"
top: "loss"
}
I0421 23:06:49.524551  8184 layer_factory.hpp:77] Creating layer train-data
I0421 23:06:49.527218  8184 db_lmdb.cpp:35] Opened lmdb /mnt/bigdisk/DIGITS-MAN-3/digits/jobs/20210421-230320-902c/train_db
I0421 23:06:49.527395  8184 net.cpp:84] Creating Layer train-data
I0421 23:06:49.527410  8184 net.cpp:380] train-data -> data
I0421 23:06:49.527436  8184 net.cpp:380] train-data -> label
I0421 23:06:49.527451  8184 data_transformer.cpp:25] Loading mean file from: /mnt/bigdisk/DIGITS-MAN-3/digits/jobs/20210421-230320-902c/mean.binaryproto
I0421 23:06:49.534487  8184 data_layer.cpp:45] output data size: 128,3,227,227
I0421 23:06:49.708350  8184 net.cpp:122] Setting up train-data
I0421 23:06:49.708387  8184 net.cpp:129] Top shape: 128 3 227 227 (19787136)
I0421 23:06:49.708398  8184 net.cpp:129] Top shape: 128 (128)
I0421 23:06:49.708405  8184 net.cpp:137] Memory required for data: 79149056
I0421 23:06:49.708423  8184 layer_factory.hpp:77] Creating layer conv1
I0421 23:06:49.708458  8184 net.cpp:84] Creating Layer conv1
I0421 23:06:49.708469  8184 net.cpp:406] conv1 <- data
I0421 23:06:49.708526  8184 net.cpp:380] conv1 -> conv1
I0421 23:06:50.684345  8184 net.cpp:122] Setting up conv1
I0421 23:06:50.684378  8184 net.cpp:129] Top shape: 128 96 57 57 (39923712)
I0421 23:06:50.684387  8184 net.cpp:137] Memory required for data: 238843904
I0421 23:06:50.684423  8184 layer_factory.hpp:77] Creating layer relu1
I0421 23:06:50.684444  8184 net.cpp:84] Creating Layer relu1
I0421 23:06:50.684453  8184 net.cpp:406] relu1 <- conv1
I0421 23:06:50.684466  8184 net.cpp:367] relu1 -> conv1 (in-place)
I0421 23:06:50.685176  8184 net.cpp:122] Setting up relu1
I0421 23:06:50.685195  8184 net.cpp:129] Top shape: 128 96 57 57 (39923712)
I0421 23:06:50.685202  8184 net.cpp:137] Memory required for data: 398538752
I0421 23:06:50.685210  8184 layer_factory.hpp:77] Creating layer norm1
I0421 23:06:50.685228  8184 net.cpp:84] Creating Layer norm1
I0421 23:06:50.685236  8184 net.cpp:406] norm1 <- conv1
I0421 23:06:50.685286  8184 net.cpp:380] norm1 -> norm1
I0421 23:06:50.687122  8184 net.cpp:122] Setting up norm1
I0421 23:06:50.687146  8184 net.cpp:129] Top shape: 128 96 57 57 (39923712)
I0421 23:06:50.687155  8184 net.cpp:137] Memory required for data: 558233600
I0421 23:06:50.687163  8184 layer_factory.hpp:77] Creating layer pool1
I0421 23:06:50.687180  8184 net.cpp:84] Creating Layer pool1
I0421 23:06:50.687188  8184 net.cpp:406] pool1 <- norm1
I0421 23:06:50.687201  8184 net.cpp:380] pool1 -> pool1
I0421 23:06:50.687281  8184 net.cpp:122] Setting up pool1
I0421 23:06:50.687295  8184 net.cpp:129] Top shape: 128 96 28 28 (9633792)
I0421 23:06:50.687304  8184 net.cpp:137] Memory required for data: 596768768
I0421 23:06:50.687310  8184 layer_factory.hpp:77] Creating layer conv2
I0421 23:06:50.687330  8184 net.cpp:84] Creating Layer conv2
I0421 23:06:50.687338  8184 net.cpp:406] conv2 <- pool1
I0421 23:06:50.687350  8184 net.cpp:380] conv2 -> conv2
I0421 23:06:50.759402  8184 net.cpp:122] Setting up conv2
I0421 23:06:50.759423  8184 net.cpp:129] Top shape: 128 256 28 28 (25690112)
I0421 23:06:50.759428  8184 net.cpp:137] Memory required for data: 699529216
I0421 23:06:50.759443  8184 layer_factory.hpp:77] Creating layer relu2
I0421 23:06:50.759452  8184 net.cpp:84] Creating Layer relu2
I0421 23:06:50.759459  8184 net.cpp:406] relu2 <- conv2
I0421 23:06:50.759465  8184 net.cpp:367] relu2 -> conv2 (in-place)
I0421 23:06:50.759976  8184 net.cpp:122] Setting up relu2
I0421 23:06:50.759987  8184 net.cpp:129] Top shape: 128 256 28 28 (25690112)
I0421 23:06:50.759992  8184 net.cpp:137] Memory required for data: 802289664
I0421 23:06:50.759996  8184 layer_factory.hpp:77] Creating layer norm2
I0421 23:06:50.760005  8184 net.cpp:84] Creating Layer norm2
I0421 23:06:50.760010  8184 net.cpp:406] norm2 <- conv2
I0421 23:06:50.760016  8184 net.cpp:380] norm2 -> norm2
I0421 23:06:50.760370  8184 net.cpp:122] Setting up norm2
I0421 23:06:50.760380  8184 net.cpp:129] Top shape: 128 256 28 28 (25690112)
I0421 23:06:50.760385  8184 net.cpp:137] Memory required for data: 905050112
I0421 23:06:50.760388  8184 layer_factory.hpp:77] Creating layer pool2
I0421 23:06:50.760397  8184 net.cpp:84] Creating Layer pool2
I0421 23:06:50.760401  8184 net.cpp:406] pool2 <- norm2
I0421 23:06:50.760408  8184 net.cpp:380] pool2 -> pool2
I0421 23:06:50.760442  8184 net.cpp:122] Setting up pool2
I0421 23:06:50.760448  8184 net.cpp:129] Top shape: 128 256 14 14 (6422528)
I0421 23:06:50.760452  8184 net.cpp:137] Memory required for data: 930740224
I0421 23:06:50.760457  8184 layer_factory.hpp:77] Creating layer conv3
I0421 23:06:50.760468  8184 net.cpp:84] Creating Layer conv3
I0421 23:06:50.760473  8184 net.cpp:406] conv3 <- pool2
I0421 23:06:50.760479  8184 net.cpp:380] conv3 -> conv3
I0421 23:06:50.772716  8184 net.cpp:122] Setting up conv3
I0421 23:06:50.772737  8184 net.cpp:129] Top shape: 128 384 14 14 (9633792)
I0421 23:06:50.772742  8184 net.cpp:137] Memory required for data: 969275392
I0421 23:06:50.772753  8184 layer_factory.hpp:77] Creating layer relu3
I0421 23:06:50.772773  8184 net.cpp:84] Creating Layer relu3
I0421 23:06:50.772778  8184 net.cpp:406] relu3 <- conv3
I0421 23:06:50.772783  8184 net.cpp:367] relu3 -> conv3 (in-place)
I0421 23:06:50.773221  8184 net.cpp:122] Setting up relu3
I0421 23:06:50.773231  8184 net.cpp:129] Top shape: 128 384 14 14 (9633792)
I0421 23:06:50.773236  8184 net.cpp:137] Memory required for data: 1007810560
I0421 23:06:50.773239  8184 layer_factory.hpp:77] Creating layer conv4
I0421 23:06:50.773249  8184 net.cpp:84] Creating Layer conv4
I0421 23:06:50.773253  8184 net.cpp:406] conv4 <- conv3
I0421 23:06:50.773260  8184 net.cpp:380] conv4 -> conv4
I0421 23:06:50.784163  8184 net.cpp:122] Setting up conv4
I0421 23:06:50.784181  8184 net.cpp:129] Top shape: 128 384 14 14 (9633792)
I0421 23:06:50.784186  8184 net.cpp:137] Memory required for data: 1046345728
I0421 23:06:50.784194  8184 layer_factory.hpp:77] Creating layer relu4
I0421 23:06:50.784204  8184 net.cpp:84] Creating Layer relu4
I0421 23:06:50.784226  8184 net.cpp:406] relu4 <- conv4
I0421 23:06:50.784235  8184 net.cpp:367] relu4 -> conv4 (in-place)
I0421 23:06:50.784607  8184 net.cpp:122] Setting up relu4
I0421 23:06:50.784617  8184 net.cpp:129] Top shape: 128 384 14 14 (9633792)
I0421 23:06:50.784621  8184 net.cpp:137] Memory required for data: 1084880896
I0421 23:06:50.784626  8184 layer_factory.hpp:77] Creating layer conv5
I0421 23:06:50.784637  8184 net.cpp:84] Creating Layer conv5
I0421 23:06:50.784641  8184 net.cpp:406] conv5 <- conv4
I0421 23:06:50.784647  8184 net.cpp:380] conv5 -> conv5
I0421 23:06:50.792559  8184 net.cpp:122] Setting up conv5
I0421 23:06:50.792574  8184 net.cpp:129] Top shape: 128 256 14 14 (6422528)
I0421 23:06:50.792578  8184 net.cpp:137] Memory required for data: 1110571008
I0421 23:06:50.792590  8184 layer_factory.hpp:77] Creating layer relu5
I0421 23:06:50.792598  8184 net.cpp:84] Creating Layer relu5
I0421 23:06:50.792603  8184 net.cpp:406] relu5 <- conv5
I0421 23:06:50.792610  8184 net.cpp:367] relu5 -> conv5 (in-place)
I0421 23:06:50.793102  8184 net.cpp:122] Setting up relu5
I0421 23:06:50.793112  8184 net.cpp:129] Top shape: 128 256 14 14 (6422528)
I0421 23:06:50.793115  8184 net.cpp:137] Memory required for data: 1136261120
I0421 23:06:50.793119  8184 layer_factory.hpp:77] Creating layer pool5
I0421 23:06:50.793128  8184 net.cpp:84] Creating Layer pool5
I0421 23:06:50.793133  8184 net.cpp:406] pool5 <- conv5
I0421 23:06:50.793138  8184 net.cpp:380] pool5 -> pool5
I0421 23:06:50.793175  8184 net.cpp:122] Setting up pool5
I0421 23:06:50.793180  8184 net.cpp:129] Top shape: 128 256 7 7 (1605632)
I0421 23:06:50.793184  8184 net.cpp:137] Memory required for data: 1142683648
I0421 23:06:50.793187  8184 layer_factory.hpp:77] Creating layer fc6
I0421 23:06:50.793196  8184 net.cpp:84] Creating Layer fc6
I0421 23:06:50.793201  8184 net.cpp:406] fc6 <- pool5
I0421 23:06:50.793207  8184 net.cpp:380] fc6 -> fc6
I0421 23:06:51.274179  8184 net.cpp:122] Setting up fc6
I0421 23:06:51.274202  8184 net.cpp:129] Top shape: 128 4096 (524288)
I0421 23:06:51.274206  8184 net.cpp:137] Memory required for data: 1144780800
I0421 23:06:51.274215  8184 layer_factory.hpp:77] Creating layer relu6
I0421 23:06:51.274224  8184 net.cpp:84] Creating Layer relu6
I0421 23:06:51.274230  8184 net.cpp:406] relu6 <- fc6
I0421 23:06:51.274235  8184 net.cpp:367] relu6 -> fc6 (in-place)
I0421 23:06:51.295145  8184 net.cpp:122] Setting up relu6
I0421 23:06:51.295164  8184 net.cpp:129] Top shape: 128 4096 (524288)
I0421 23:06:51.295168  8184 net.cpp:137] Memory required for data: 1146877952
I0421 23:06:51.295173  8184 layer_factory.hpp:77] Creating layer drop6
I0421 23:06:51.295184  8184 net.cpp:84] Creating Layer drop6
I0421 23:06:51.295188  8184 net.cpp:406] drop6 <- fc6
I0421 23:06:51.295195  8184 net.cpp:367] drop6 -> fc6 (in-place)
I0421 23:06:51.295231  8184 net.cpp:122] Setting up drop6
I0421 23:06:51.295238  8184 net.cpp:129] Top shape: 128 4096 (524288)
I0421 23:06:51.295240  8184 net.cpp:137] Memory required for data: 1148975104
I0421 23:06:51.295244  8184 layer_factory.hpp:77] Creating layer fc7
I0421 23:06:51.295251  8184 net.cpp:84] Creating Layer fc7
I0421 23:06:51.295254  8184 net.cpp:406] fc7 <- fc6
I0421 23:06:51.295260  8184 net.cpp:380] fc7 -> fc7
I0421 23:06:51.586860  8184 net.cpp:122] Setting up fc7
I0421 23:06:51.586885  8184 net.cpp:129] Top shape: 128 4096 (524288)
I0421 23:06:51.586889  8184 net.cpp:137] Memory required for data: 1151072256
I0421 23:06:51.586899  8184 layer_factory.hpp:77] Creating layer relu7
I0421 23:06:51.586910  8184 net.cpp:84] Creating Layer relu7
I0421 23:06:51.586915  8184 net.cpp:406] relu7 <- fc7
I0421 23:06:51.586921  8184 net.cpp:367] relu7 -> fc7 (in-place)
I0421 23:06:51.587345  8184 net.cpp:122] Setting up relu7
I0421 23:06:51.587354  8184 net.cpp:129] Top shape: 128 4096 (524288)
I0421 23:06:51.587358  8184 net.cpp:137] Memory required for data: 1153169408
I0421 23:06:51.587363  8184 layer_factory.hpp:77] Creating layer drop7
I0421 23:06:51.587369  8184 net.cpp:84] Creating Layer drop7
I0421 23:06:51.587393  8184 net.cpp:406] drop7 <- fc7
I0421 23:06:51.587400  8184 net.cpp:367] drop7 -> fc7 (in-place)
I0421 23:06:51.587425  8184 net.cpp:122] Setting up drop7
I0421 23:06:51.587431  8184 net.cpp:129] Top shape: 128 4096 (524288)
I0421 23:06:51.587435  8184 net.cpp:137] Memory required for data: 1155266560
I0421 23:06:51.587438  8184 layer_factory.hpp:77] Creating layer fc8
I0421 23:06:51.587447  8184 net.cpp:84] Creating Layer fc8
I0421 23:06:51.587450  8184 net.cpp:406] fc8 <- fc7
I0421 23:06:51.587457  8184 net.cpp:380] fc8 -> fc8
I0421 23:06:51.597781  8184 net.cpp:122] Setting up fc8
I0421 23:06:51.597795  8184 net.cpp:129] Top shape: 128 196 (25088)
I0421 23:06:51.597800  8184 net.cpp:137] Memory required for data: 1155366912
I0421 23:06:51.597808  8184 layer_factory.hpp:77] Creating layer loss
I0421 23:06:51.597815  8184 net.cpp:84] Creating Layer loss
I0421 23:06:51.597820  8184 net.cpp:406] loss <- fc8
I0421 23:06:51.597824  8184 net.cpp:406] loss <- label
I0421 23:06:51.597833  8184 net.cpp:380] loss -> loss
I0421 23:06:51.597844  8184 layer_factory.hpp:77] Creating layer loss
…
I0421 23:06:51.599553  8184 net.cpp:294] The NetState phase (1) differed from the phase (0) specified by a rule in layer train-data
I0421 23:06:51.599705  8184 net.cpp:51] Initializing net from parameters:
state {
phase: TEST
}
layer {
name: "val-data"
type: "Data"
top: "data"
top: "label"
include {
phase: TEST
}
transform_param {
crop_size: 227
mean_file: "/mnt/bigdisk/DIGITS-MAN-3/digits/jobs/20210421-230320-902c/mean.binaryproto"
}
data_param {
source: "/mnt/bigdisk/DIGITS-MAN-3/digits/jobs/20210421-230320-902c/val_db"
batch_size: 32
backend: LMDB
}
}
layer {
name: "conv1"
type: "Convolution"
bottom: "data"
top: "conv1"
param {
lr_mult: 1
decay_mult: 1
}
param {
lr_mult: 2
decay_mult: 0
}
convolution_param {
num_output: 96
kernel_size: 3
stride: 4
weight_filler {
type: "gaussian"
std: 0.01
}
bias_filler {
type: "constant"
value: 0
}
}
}
layer {
name: "relu1"
type: "ReLU"
bottom: "conv1"
top: "conv1"
}
layer {
name: "norm1"
type: "LRN"
bottom: "conv1"
top: "norm1"
lrn_param {
local_size: 5
alpha: 0.0001
beta: 0.75
}
}
layer {
name: "pool1"
type: "Pooling"
bottom: "norm1"
top: "pool1"
pooling_param {
pool: MAX
kernel_size: 3
stride: 2
}
}
layer {
name: "conv2"
type: "Convolution"
bottom: "pool1"
top: "conv2"
param {
lr_mult: 1
decay_mult: 1
}
param {
lr_mult: 2
decay_mult: 0
}
convolution_param {
num_output: 256
pad: 2
kernel_size: 5
group: 2
weight_filler {
type: "gaussian"
std: 0.01
}
bias_filler {
type: "constant"
value: 0.1
}
}
}
layer {
name: "relu2"
type: "ReLU"
bottom: "conv2"
top: "conv2"
}
layer {
name: "norm2"
type: "LRN"
bottom: "conv2"
top: "norm2"
lrn_param {
local_size: 5
alpha: 0.0001
beta: 0.75
}
}
layer {
name: "pool2"
type: "Pooling"
bottom: "norm2"
top: "pool2"
pooling_param {
pool: MAX
kernel_size: 3
stride: 2
}
}
layer {
name: "conv3"
type: "Convolution"
bottom: "pool2"
top: "conv3"
param {
lr_mult: 1
decay_mult: 1
}
param {
lr_mult: 2
decay_mult: 0
}
convolution_param {
num_output: 384
pad: 1
kernel_size: 3
weight_filler {
type: "gaussian"
std: 0.01
}
bias_filler {
type: "constant"
value: 0
}
}
}
layer {
name: "relu3"
type: "ReLU"
bottom: "conv3"
top: "conv3"
}
layer {
name: "conv4"
type: "Convolution"
bottom: "conv3"
top: "conv4"
param {
lr_mult: 1
decay_mult: 1
}
param {
lr_mult: 2
decay_mult: 0
}
convolution_param {
num_output: 384
pad: 1
kernel_size: 3
group: 2
weight_filler {
type: "gaussian"
std: 0.01
}
bias_filler {
type: "constant"
value: 0.1
}
}
}
layer {
name: "relu4"
type: "ReLU"
bottom: "conv4"
top: "conv4"
}
layer {
name: "conv5"
type: "Convolution"
bottom: "conv4"
top: "conv5"
param {
lr_mult: 1
decay_mult: 1
}
param {
lr_mult: 2
decay_mult: 0
}
convolution_param {
num_output: 256
pad: 1
kernel_size: 3
group: 2
weight_filler {
type: "gaussian"
std: 0.01
}
bias_filler {
type: "constant"
value: 0.1
}
}
}
layer {
name: "relu5"
type: "ReLU"
bottom: "conv5"
top: "conv5"
}
layer {
name: "pool5"
type: "Pooling"
bottom: "conv5"
top: "pool5"
pooling_param {
pool: MAX
kernel_size: 3
stride: 2
}
}
layer {
name: "fc6"
type: "InnerProduct"
bottom: "pool5"
top: "fc6"
param {
lr_mult: 1
decay_mult: 1
}
param {
lr_mult: 2
decay_mult: 0
}
inner_product_param {
num_output: 4096
weight_filler {
type: "gaussian"
std: 0.005
}
bias_filler {
type: "constant"
value: 0.1
}
}
}
layer {
name: "relu6"
type: "ReLU"
bottom: "fc6"
top: "fc6"
}
layer {
name: "drop6"
type: "Dropout"
bottom: "fc6"
top: "fc6"
dropout_param {
dropout_ratio: 0.5
}
}
layer {
name: "fc7"
type: "InnerProduct"
bottom: "fc6"
top: "fc7"
param {
lr_mult: 1
decay_mult: 1
}
param {
lr_mult: 2
decay_mult: 0
}
inner_product_param {
num_output: 4096
weight_filler {
type: "gaussian"
std: 0.005
}
bias_filler {
type: "constant"
value: 0.1
}
}
}
layer {
name: "relu7"
type: "ReLU"
bottom: "fc7"
top: "fc7"
}
layer {
name: "drop7"
type: "Dropout"
bottom: "fc7"
top: "fc7"
dropout_param {
dropout_ratio: 0.5
}
}
layer {
name: "fc8"
type: "InnerProduct"
bottom: "fc7"
top: "fc8"
param {
lr_mult: 1
decay_mult: 1
}
param {
lr_mult: 2
decay_mult: 0
}
inner_product_param {
num_output: 196
weight_filler {
type: "gaussian"
std: 0.01
}
bias_filler {
type: "constant"
value: 0
}
}
}
layer {
name: "accuracy"
type: "Accuracy"
bottom: "fc8"
bottom: "label"
top: "accuracy"
include {
phase: TEST
}
}
layer {
name: "loss"
type: "SoftmaxWithLoss"
bottom: "fc8"
bottom: "label"
top: "loss"
}
I0421 23:06:51.599817  8184 layer_factory.hpp:77] Creating layer val-data
I0421 23:06:51.656139  8184 db_lmdb.cpp:35] Opened lmdb /mnt/bigdisk/DIGITS-MAN-3/digits/jobs/20210421-230320-902c/val_db
I0421 23:06:51.656383  8184 net.cpp:84] Creating Layer val-data
I0421 23:06:51.656407  8184 net.cpp:380] val-data -> data
I0421 23:06:51.656427  8184 net.cpp:380] val-data -> label
I0421 23:06:51.656441  8184 data_transformer.cpp:25] Loading mean file from: /mnt/bigdisk/DIGITS-MAN-3/digits/jobs/20210421-230320-902c/mean.binaryproto
I0421 23:06:51.671416  8184 data_layer.cpp:45] output data size: 32,3,227,227
I0421 23:06:51.788615  8184 net.cpp:122] Setting up val-data
I0421 23:06:51.788647  8184 net.cpp:129] Top shape: 32 3 227 227 (4946784)
I0421 23:06:51.788655  8184 net.cpp:129] Top shape: 32 (32)
I0421 23:06:51.788661  8184 net.cpp:137] Memory required for data: 19787264
I0421 23:06:51.788671  8184 layer_factory.hpp:77] Creating layer label_val-data_1_split
I0421 23:06:51.788687  8184 net.cpp:84] Creating Layer label_val-data_1_split
I0421 23:06:51.788694  8184 net.cpp:406] label_val-data_1_split <- label
I0421 23:06:51.788704  8184 net.cpp:380] label_val-data_1_split -> label_val-data_1_split_0
I0421 23:06:51.788719  8184 net.cpp:380] label_val-data_1_split -> label_val-data_1_split_1
I0421 23:06:51.788802  8184 net.cpp:122] Setting up label_val-data_1_split
I0421 23:06:51.788812  8184 net.cpp:129] Top shape: 32 (32)
I0421 23:06:51.788818  8184 net.cpp:129] Top shape: 32 (32)
I0421 23:06:51.788823  8184 net.cpp:137] Memory required for data: 19787520
I0421 23:06:51.788830  8184 layer_factory.hpp:77] Creating layer conv1
I0421 23:06:51.788848  8184 net.cpp:84] Creating Layer conv1
I0421 23:06:51.788853  8184 net.cpp:406] conv1 <- data
I0421 23:06:51.788866  8184 net.cpp:380] conv1 -> conv1
I0421 23:06:51.791795  8184 net.cpp:122] Setting up conv1
I0421 23:06:51.791815  8184 net.cpp:129] Top shape: 32 96 57 57 (9980928)
I0421 23:06:51.791821  8184 net.cpp:137] Memory required for data: 59711232
I0421 23:06:51.791838  8184 layer_factory.hpp:77] Creating layer relu1
I0421 23:06:51.791851  8184 net.cpp:84] Creating Layer relu1
I0421 23:06:51.791857  8184 net.cpp:406] relu1 <- conv1
I0421 23:06:51.791872  8184 net.cpp:367] relu1 -> conv1 (in-place)
I0421 23:06:51.794076  8184 net.cpp:122] Setting up relu1
I0421 23:06:51.794095  8184 net.cpp:129] Top shape: 32 96 57 57 (9980928)
I0421 23:06:51.794101  8184 net.cpp:137] Memory required for data: 99634944
I0421 23:06:51.794107  8184 layer_factory.hpp:77] Creating layer norm1
I0421 23:06:51.794122  8184 net.cpp:84] Creating Layer norm1
I0421 23:06:51.794129  8184 net.cpp:406] norm1 <- conv1
I0421 23:06:51.794139  8184 net.cpp:380] norm1 -> norm1
I0421 23:06:51.795703  8184 net.cpp:122] Setting up norm1
I0421 23:06:51.795720  8184 net.cpp:129] Top shape: 32 96 57 57 (9980928)
I0421 23:06:51.795727  8184 net.cpp:137] Memory required for data: 139558656
I0421 23:06:51.795735  8184 layer_factory.hpp:77] Creating layer pool1
I0421 23:06:51.795747  8184 net.cpp:84] Creating Layer pool1
I0421 23:06:51.795753  8184 net.cpp:406] pool1 <- norm1
I0421 23:06:51.795763  8184 net.cpp:380] pool1 -> pool1
I0421 23:06:51.795817  8184 net.cpp:122] Setting up pool1
I0421 23:06:51.795827  8184 net.cpp:129] Top shape: 32 96 28 28 (2408448)
I0421 23:06:51.795833  8184 net.cpp:137] Memory required for data: 149192448
I0421 23:06:51.795840  8184 layer_factory.hpp:77] Creating layer conv2
I0421 23:06:51.795853  8184 net.cpp:84] Creating Layer conv2
I0421 23:06:51.795859  8184 net.cpp:406] conv2 <- pool1
I0421 23:06:51.795898  8184 net.cpp:380] conv2 -> conv2
I0421 23:06:51.807811  8184 net.cpp:122] Setting up conv2
I0421 23:06:51.807832  8184 net.cpp:129] Top shape: 32 256 28 28 (6422528)
I0421 23:06:51.807838  8184 net.cpp:137] Memory required for data: 174882560
I0421 23:06:51.807857  8184 layer_factory.hpp:77] Creating layer relu2
I0421 23:06:51.807869  8184 net.cpp:84] Creating Layer relu2
I0421 23:06:51.807878  8184 net.cpp:406] relu2 <- conv2
I0421 23:06:51.807889  8184 net.cpp:367] relu2 -> conv2 (in-place)
I0421 23:06:51.808805  8184 net.cpp:122] Setting up relu2
I0421 23:06:51.808823  8184 net.cpp:129] Top shape: 32 256 28 28 (6422528)
I0421 23:06:51.808828  8184 net.cpp:137] Memory required for data: 200572672
I0421 23:06:51.808835  8184 layer_factory.hpp:77] Creating layer norm2
I0421 23:06:51.808864  8184 net.cpp:84] Creating Layer norm2
I0421 23:06:51.808871  8184 net.cpp:406] norm2 <- conv2
I0421 23:06:51.808881  8184 net.cpp:380] norm2 -> norm2
I0421 23:06:51.809757  8184 net.cpp:122] Setting up norm2
I0421 23:06:51.809773  8184 net.cpp:129] Top shape: 32 256 28 28 (6422528)
I0421 23:06:51.809778  8184 net.cpp:137] Memory required for data: 226262784
I0421 23:06:51.809785  8184 layer_factory.hpp:77] Creating layer pool2
I0421 23:06:51.809795  8184 net.cpp:84] Creating Layer pool2
I0421 23:06:51.809800  8184 net.cpp:406] pool2 <- norm2
I0421 23:06:51.809811  8184 net.cpp:380] pool2 -> pool2
I0421 23:06:51.809864  8184 net.cpp:122] Setting up pool2
I0421 23:06:51.809872  8184 net.cpp:129] Top shape: 32 256 14 14 (1605632)
I0421 23:06:51.809877  8184 net.cpp:137] Memory required for data: 232685312
I0421 23:06:51.809882  8184 layer_factory.hpp:77] Creating layer conv3
I0421 23:06:51.809897  8184 net.cpp:84] Creating Layer conv3
I0421 23:06:51.809902  8184 net.cpp:406] conv3 <- pool2
I0421 23:06:51.809911  8184 net.cpp:380] conv3 -> conv3
I0421 23:06:51.832957  8184 net.cpp:122] Setting up conv3
I0421 23:06:51.832984  8184 net.cpp:129] Top shape: 32 384 14 14 (2408448)
I0421 23:06:51.832990  8184 net.cpp:137] Memory required for data: 242319104
I0421 23:06:51.833006  8184 layer_factory.hpp:77] Creating layer relu3
I0421 23:06:51.833019  8184 net.cpp:84] Creating Layer relu3
I0421 23:06:51.833024  8184 net.cpp:406] relu3 <- conv3
I0421 23:06:51.833032  8184 net.cpp:367] relu3 -> conv3 (in-place)
I0421 23:06:51.838112  8184 net.cpp:122] Setting up relu3
I0421 23:06:51.838127  8184 net.cpp:129] Top shape: 32 384 14 14 (2408448)
I0421 23:06:51.838132  8184 net.cpp:137] Memory required for data: 251952896
I0421 23:06:51.838138  8184 layer_factory.hpp:77] Creating layer conv4
I0421 23:06:51.838155  8184 net.cpp:84] Creating Layer conv4
I0421 23:06:51.838161  8184 net.cpp:406] conv4 <- conv3
I0421 23:06:51.838173  8184 net.cpp:380] conv4 -> conv4
I0421 23:06:51.852891  8184 net.cpp:122] Setting up conv4
I0421 23:06:51.852912  8184 net.cpp:129] Top shape: 32 384 14 14 (2408448)
I0421 23:06:51.852918  8184 net.cpp:137] Memory required for data: 261586688
I0421 23:06:51.852931  8184 layer_factory.hpp:77] Creating layer relu4
I0421 23:06:51.852941  8184 net.cpp:84] Creating Layer relu4
I0421 23:06:51.852946  8184 net.cpp:406] relu4 <- conv4
I0421 23:06:51.852954  8184 net.cpp:367] relu4 -> conv4 (in-place)
I0421 23:06:51.853478  8184 net.cpp:122] Setting up relu4
I0421 23:06:51.853489  8184 net.cpp:129] Top shape: 32 384 14 14 (2408448)
I0421 23:06:51.853494  8184 net.cpp:137] Memory required for data: 271220480
I0421 23:06:51.853499  8184 layer_factory.hpp:77] Creating layer conv5
I0421 23:06:51.853514  8184 net.cpp:84] Creating Layer conv5
I0421 23:06:51.853520  8184 net.cpp:406] conv5 <- conv4
I0421 23:06:51.853530  8184 net.cpp:380] conv5 -> conv5
I0421 23:06:51.865824  8184 net.cpp:122] Setting up conv5
I0421 23:06:51.865844  8184 net.cpp:129] Top shape: 32 256 14 14 (1605632)
I0421 23:06:51.865849  8184 net.cpp:137] Memory required for data: 277643008
I0421 23:06:51.865865  8184 layer_factory.hpp:77] Creating layer relu5
I0421 23:06:51.865876  8184 net.cpp:84] Creating Layer relu5
I0421 23:06:51.865881  8184 net.cpp:406] relu5 <- conv5
I0421 23:06:51.865911  8184 net.cpp:367] relu5 -> conv5 (in-place)
I0421 23:06:51.866595  8184 net.cpp:122] Setting up relu5
I0421 23:06:51.866611  8184 net.cpp:129] Top shape: 32 256 14 14 (1605632)
I0421 23:06:51.866614  8184 net.cpp:137] Memory required for data: 284065536
I0421 23:06:51.866621  8184 layer_factory.hpp:77] Creating layer pool5
I0421 23:06:51.866634  8184 net.cpp:84] Creating Layer pool5
I0421 23:06:51.866639  8184 net.cpp:406] pool5 <- conv5
I0421 23:06:51.866647  8184 net.cpp:380] pool5 -> pool5
I0421 23:06:51.866700  8184 net.cpp:122] Setting up pool5
I0421 23:06:51.866708  8184 net.cpp:129] Top shape: 32 256 7 7 (401408)
I0421 23:06:51.866712  8184 net.cpp:137] Memory required for data: 285671168
I0421 23:06:51.866716  8184 layer_factory.hpp:77] Creating layer fc6
I0421 23:06:51.866727  8184 net.cpp:84] Creating Layer fc6
I0421 23:06:51.866732  8184 net.cpp:406] fc6 <- pool5
I0421 23:06:51.866740  8184 net.cpp:380] fc6 -> fc6
I0421 23:06:52.405670  8184 net.cpp:122] Setting up fc6
I0421 23:06:52.405691  8184 net.cpp:129] Top shape: 32 4096 (131072)
I0421 23:06:52.405696  8184 net.cpp:137] Memory required for data: 286195456
I0421 23:06:52.405706  8184 layer_factory.hpp:77] Creating layer relu6
I0421 23:06:52.405719  8184 net.cpp:84] Creating Layer relu6
I0421 23:06:52.405723  8184 net.cpp:406] relu6 <- fc6
I0421 23:06:52.405731  8184 net.cpp:367] relu6 -> fc6 (in-place)
I0421 23:06:52.406482  8184 net.cpp:122] Setting up relu6
I0421 23:06:52.406495  8184 net.cpp:129] Top shape: 32 4096 (131072)
I0421 23:06:52.406500  8184 net.cpp:137] Memory required for data: 286719744
I0421 23:06:52.406505  8184 layer_factory.hpp:77] Creating layer drop6
I0421 23:06:52.406513  8184 net.cpp:84] Creating Layer drop6
I0421 23:06:52.406518  8184 net.cpp:406] drop6 <- fc6
I0421 23:06:52.406525  8184 net.cpp:367] drop6 -> fc6 (in-place)
I0421 23:06:52.406559  8184 net.cpp:122] Setting up drop6
I0421 23:06:52.406566  8184 net.cpp:129] Top shape: 32 4096 (131072)
I0421 23:06:52.406570  8184 net.cpp:137] Memory required for data: 287244032
I0421 23:06:52.406575  8184 layer_factory.hpp:77] Creating layer fc7
I0421 23:06:52.406585  8184 net.cpp:84] Creating Layer fc7
I0421 23:06:52.406592  8184 net.cpp:406] fc7 <- fc6
I0421 23:06:52.406599  8184 net.cpp:380] fc7 -> fc7
I0421 23:06:52.578794  8184 net.cpp:122] Setting up fc7
I0421 23:06:52.578817  8184 net.cpp:129] Top shape: 32 4096 (131072)
I0421 23:06:52.578821  8184 net.cpp:137] Memory required for data: 287768320
I0421 23:06:52.578831  8184 layer_factory.hpp:77] Creating layer relu7
I0421 23:06:52.578840  8184 net.cpp:84] Creating Layer relu7
I0421 23:06:52.578846  8184 net.cpp:406] relu7 <- fc7
I0421 23:06:52.578855  8184 net.cpp:367] relu7 -> fc7 (in-place)
I0421 23:06:52.579298  8184 net.cpp:122] Setting up relu7
I0421 23:06:52.579308  8184 net.cpp:129] Top shape: 32 4096 (131072)
I0421 23:06:52.579313  8184 net.cpp:137] Memory required for data: 288292608
I0421 23:06:52.579315  8184 layer_factory.hpp:77] Creating layer drop7
I0421 23:06:52.579322  8184 net.cpp:84] Creating Layer drop7
I0421 23:06:52.579327  8184 net.cpp:406] drop7 <- fc7
I0421 23:06:52.579332  8184 net.cpp:367] drop7 -> fc7 (in-place)
I0421 23:06:52.579360  8184 net.cpp:122] Setting up drop7
I0421 23:06:52.579365  8184 net.cpp:129] Top shape: 32 4096 (131072)
I0421 23:06:52.579368  8184 net.cpp:137] Memory required for data: 288816896
I0421 23:06:52.579372  8184 layer_factory.hpp:77] Creating layer fc8
I0421 23:06:52.579380  8184 net.cpp:84] Creating Layer fc8
I0421 23:06:52.579385  8184 net.cpp:406] fc8 <- fc7
I0421 23:06:52.579391  8184 net.cpp:380] fc8 -> fc8
I0421 23:06:52.599684  8184 net.cpp:122] Setting up fc8
I0421 23:06:52.599704  8184 net.cpp:129] Top shape: 32 196 (6272)
I0421 23:06:52.599709  8184 net.cpp:137] Memory required for data: 288841984
I0421 23:06:52.599717  8184 layer_factory.hpp:77] Creating layer fc8_fc8_0_split
I0421 23:06:52.599730  8184 net.cpp:84] Creating Layer fc8_fc8_0_split
I0421 23:06:52.599733  8184 net.cpp:406] fc8_fc8_0_split <- fc8
I0421 23:06:52.599759  8184 net.cpp:380] fc8_fc8_0_split -> fc8_fc8_0_split_0
I0421 23:06:52.599767  8184 net.cpp:380] fc8_fc8_0_split -> fc8_fc8_0_split_1
I0421 23:06:52.599810  8184 net.cpp:122] Setting up fc8_fc8_0_split
I0421 23:06:52.599817  8184 net.cpp:129] Top shape: 32 196 (6272)
I0421 23:06:52.599820  8184 net.cpp:129] Top shape: 32 196 (6272)
I0421 23:06:52.599824  8184 net.cpp:137] Memory required for data: 288892160
I0421 23:06:52.599828  8184 layer_factory.hpp:77] Creating layer accuracy
I0421 23:06:52.599833  8184 net.cpp:84] Creating Layer accuracy
I0421 23:06:52.599838  8184 net.cpp:406] accuracy <- fc8_fc8_0_split_0
I0421 23:06:52.599843  8184 net.cpp:406] accuracy <- label_val-data_1_split_0
I0421 23:06:52.599850  8184 net.cpp:380] accuracy -> accuracy
…
