…
I0428 13:50:30.694005 30475 net.cpp:294] The NetState phase (0) differed from the phase (1) specified by a rule in layer accuracy
I0428 13:50:30.694137 30475 net.cpp:51] Initializing net from parameters:
state {
phase: TRAIN
level: 0
stage: ""
}
layer {
name: "train-data"
type: "Data"
top: "data"
top: "label"
include {
phase: TRAIN
}
transform_param {
mirror: true
crop_size: 227
mean_file: "/mnt/bigdisk/DIGITS-AMB-2/digits/jobs/20210419-113214-d311/mean.binaryproto"
}
data_param {
source: "/mnt/bigdisk/DIGITS-AMB-2/digits/jobs/20210419-113214-d311/train_db"
batch_size: 128
backend: LMDB
}
}
layer {
name: "conv1"
type: "Convolution"
bottom: "data"
top: "conv1"
param {
lr_mult: 1
decay_mult: 1
}
param {
lr_mult: 2
decay_mult: 0
}
convolution_param {
num_output: 96
kernel_size: 11
stride: 4
weight_filler {
type: "gaussian"
std: 0.01
}
bias_filler {
type: "constant"
value: 0
}
}
}
layer {
name: "relu1"
type: "ReLU"
bottom: "conv1"
top: "conv1"
}
layer {
name: "norm1"
type: "LRN"
bottom: "conv1"
top: "norm1"
lrn_param {
local_size: 5
alpha: 0.0001
beta: 0.75
}
}
layer {
name: "pool1"
type: "Pooling"
bottom: "norm1"
top: "pool1"
pooling_param {
pool: MAX
kernel_size: 3
stride: 2
}
}
layer {
name: "conv2"
type: "Convolution"
bottom: "pool1"
top: "conv2"
param {
lr_mult: 1
decay_mult: 1
}
param {
lr_mult: 2
decay_mult: 0
}
convolution_param {
num_output: 256
pad: 2
kernel_size: 5
group: 2
weight_filler {
type: "gaussian"
std: 0.01
}
bias_filler {
type: "constant"
value: 0.1
}
}
}
layer {
name: "relu2"
type: "ReLU"
bottom: "conv2"
top: "conv2"
}
layer {
name: "norm2"
type: "LRN"
bottom: "conv2"
top: "norm2"
lrn_param {
local_size: 5
alpha: 0.0001
beta: 0.75
}
}
layer {
name: "pool2"
type: "Pooling"
bottom: "norm2"
top: "pool2"
pooling_param {
pool: MAX
kernel_size: 3
stride: 2
}
}
layer {
name: "conv3"
type: "Convolution"
bottom: "pool2"
top: "conv3"
param {
lr_mult: 1
decay_mult: 1
}
param {
lr_mult: 2
decay_mult: 0
}
convolution_param {
num_output: 384
pad: 1
kernel_size: 3
weight_filler {
type: "gaussian"
std: 0.01
}
bias_filler {
type: "constant"
value: 0
}
}
}
layer {
name: "relu3"
type: "ReLU"
bottom: "conv3"
top: "conv3"
}
layer {
name: "conv3.5"
type: "Convolution"
bottom: "conv3"
top: "conv3.5"
param {
lr_mult: 1
decay_mult: 1
}
param {
lr_mult: 2
decay_mult: 0
}
convolution_param {
num_output: 384
pad: 1
kernel_size: 9
weight_filler {
type: "gaussian"
std: 0.01
}
bias_filler {
type: "constant"
value: 0
}
}
}
layer {
name: "relu3.5"
type: "ReLU"
bottom: "conv3.5"
top: "conv3.5"
}
layer {
name: "conv4"
type: "Convolution"
bottom: "conv3.5"
top: "conv4"
param {
lr_mult: 1
decay_mult: 1
}
param {
lr_mult: 2
decay_mult: 0
}
convolution_param {
num_output: 384
pad: 1
kernel_size: 3
group: 2
weight_filler {
type: "gaussian"
std: 0.01
}
bias_filler {
type: "constant"
value: 0.1
}
}
}
layer {
name: "relu4"
type: "ReLU"
bottom: "conv4"
top: "conv4"
}
layer {
name: "conv5"
type: "Convolution"
bottom: "conv4"
top: "conv5"
param {
lr_mult: 1
decay_mult: 1
}
param {
lr_mult: 2
decay_mult: 0
}
convolution_param {
num_output: 256
pad: 1
kernel_size: 3
group: 2
weight_filler {
type: "gaussian"
std: 0.01
}
bias_filler {
type: "constant"
value: 0.1
}
}
}
layer {
name: "relu5"
type: "ReLU"
bottom: "conv5"
top: "conv5"
}
layer {
name: "pool5"
type: "Pooling"
bottom: "conv5"
top: "pool5"
pooling_param {
pool: MAX
kernel_size: 3
stride: 2
}
}
layer {
name: "fc6"
type: "InnerProduct"
bottom: "pool5"
top: "fc6"
param {
lr_mult: 1
decay_mult: 1
}
param {
lr_mult: 2
decay_mult: 0
}
inner_product_param {
num_output: 4096
weight_filler {
type: "gaussian"
std: 0.005
}
bias_filler {
type: "constant"
value: 0.1
}
}
}
layer {
name: "relu6"
type: "ReLU"
bottom: "fc6"
top: "fc6"
}
layer {
name: "drop6"
type: "Dropout"
bottom: "fc6"
top: "fc6"
dropout_param {
dropout_ratio: 0.5
}
}
layer {
name: "fc7"
type: "InnerProduct"
bottom: "fc6"
top: "fc7"
param {
lr_mult: 1
decay_mult: 1
}
param {
lr_mult: 2
decay_mult: 0
}
inner_product_param {
num_output: 4096
weight_filler {
type: "gaussian"
std: 0.005
}
bias_filler {
type: "constant"
value: 0.1
}
}
}
layer {
name: "relu7"
type: "ReLU"
bottom: "fc7"
top: "fc7"
}
layer {
name: "drop7"
type: "Dropout"
bottom: "fc7"
top: "fc7"
dropout_param {
dropout_ratio: 0.5
}
}
layer {
name: "fc8"
type: "InnerProduct"
bottom: "fc7"
top: "fc8"
param {
lr_mult: 1
decay_mult: 1
}
param {
lr_mult: 2
decay_mult: 0
}
inner_product_param {
num_output: 196
weight_filler {
type: "gaussian"
std: 0.01
}
bias_filler {
type: "constant"
value: 0
}
}
}
layer {
name: "loss"
type: "SoftmaxWithLoss"
bottom: "fc8"
bottom: "label"
top: "loss"
}
I0428 13:50:30.694226 30475 layer_factory.hpp:77] Creating layer train-data
I0428 13:50:30.696998 30475 db_lmdb.cpp:35] Opened lmdb /mnt/bigdisk/DIGITS-AMB-2/digits/jobs/20210419-113214-d311/train_db
I0428 13:50:30.698127 30475 net.cpp:84] Creating Layer train-data
I0428 13:50:30.698139 30475 net.cpp:380] train-data -> data
I0428 13:50:30.698158 30475 net.cpp:380] train-data -> label
I0428 13:50:30.698168 30475 data_transformer.cpp:25] Loading mean file from: /mnt/bigdisk/DIGITS-AMB-2/digits/jobs/20210419-113214-d311/mean.binaryproto
I0428 13:50:30.702147 30475 data_layer.cpp:45] output data size: 128,3,227,227
I0428 13:50:30.833786 30475 net.cpp:122] Setting up train-data
I0428 13:50:30.833808 30475 net.cpp:129] Top shape: 128 3 227 227 (19787136)
I0428 13:50:30.833812 30475 net.cpp:129] Top shape: 128 (128)
I0428 13:50:30.833815 30475 net.cpp:137] Memory required for data: 79149056
I0428 13:50:30.833824 30475 layer_factory.hpp:77] Creating layer conv1
I0428 13:50:30.833843 30475 net.cpp:84] Creating Layer conv1
I0428 13:50:30.833848 30475 net.cpp:406] conv1 <- data
I0428 13:50:30.833859 30475 net.cpp:380] conv1 -> conv1
I0428 13:50:31.705168 30475 net.cpp:122] Setting up conv1
I0428 13:50:31.705188 30475 net.cpp:129] Top shape: 128 96 55 55 (37171200)
I0428 13:50:31.705190 30475 net.cpp:137] Memory required for data: 227833856
I0428 13:50:31.705209 30475 layer_factory.hpp:77] Creating layer relu1
I0428 13:50:31.705219 30475 net.cpp:84] Creating Layer relu1
I0428 13:50:31.705224 30475 net.cpp:406] relu1 <- conv1
I0428 13:50:31.705250 30475 net.cpp:367] relu1 -> conv1 (in-place)
I0428 13:50:31.705567 30475 net.cpp:122] Setting up relu1
I0428 13:50:31.705577 30475 net.cpp:129] Top shape: 128 96 55 55 (37171200)
I0428 13:50:31.705580 30475 net.cpp:137] Memory required for data: 376518656
I0428 13:50:31.705583 30475 layer_factory.hpp:77] Creating layer norm1
I0428 13:50:31.705591 30475 net.cpp:84] Creating Layer norm1
I0428 13:50:31.705595 30475 net.cpp:406] norm1 <- conv1
I0428 13:50:31.705598 30475 net.cpp:380] norm1 -> norm1
I0428 13:50:31.706104 30475 net.cpp:122] Setting up norm1
I0428 13:50:31.706113 30475 net.cpp:129] Top shape: 128 96 55 55 (37171200)
I0428 13:50:31.706116 30475 net.cpp:137] Memory required for data: 525203456
I0428 13:50:31.706120 30475 layer_factory.hpp:77] Creating layer pool1
I0428 13:50:31.706126 30475 net.cpp:84] Creating Layer pool1
I0428 13:50:31.706130 30475 net.cpp:406] pool1 <- norm1
I0428 13:50:31.706133 30475 net.cpp:380] pool1 -> pool1
I0428 13:50:31.706164 30475 net.cpp:122] Setting up pool1
I0428 13:50:31.706169 30475 net.cpp:129] Top shape: 128 96 27 27 (8957952)
I0428 13:50:31.706172 30475 net.cpp:137] Memory required for data: 561035264
I0428 13:50:31.706174 30475 layer_factory.hpp:77] Creating layer conv2
I0428 13:50:31.706183 30475 net.cpp:84] Creating Layer conv2
I0428 13:50:31.706187 30475 net.cpp:406] conv2 <- pool1
I0428 13:50:31.706192 30475 net.cpp:380] conv2 -> conv2
I0428 13:50:31.714076 30475 net.cpp:122] Setting up conv2
I0428 13:50:31.714087 30475 net.cpp:129] Top shape: 128 256 27 27 (23887872)
I0428 13:50:31.714092 30475 net.cpp:137] Memory required for data: 656586752
I0428 13:50:31.714100 30475 layer_factory.hpp:77] Creating layer relu2
I0428 13:50:31.714107 30475 net.cpp:84] Creating Layer relu2
I0428 13:50:31.714109 30475 net.cpp:406] relu2 <- conv2
I0428 13:50:31.714115 30475 net.cpp:367] relu2 -> conv2 (in-place)
I0428 13:50:31.714684 30475 net.cpp:122] Setting up relu2
I0428 13:50:31.714694 30475 net.cpp:129] Top shape: 128 256 27 27 (23887872)
I0428 13:50:31.714696 30475 net.cpp:137] Memory required for data: 752138240
I0428 13:50:31.714699 30475 layer_factory.hpp:77] Creating layer norm2
I0428 13:50:31.714709 30475 net.cpp:84] Creating Layer norm2
I0428 13:50:31.714711 30475 net.cpp:406] norm2 <- conv2
I0428 13:50:31.714716 30475 net.cpp:380] norm2 -> norm2
I0428 13:50:31.715107 30475 net.cpp:122] Setting up norm2
I0428 13:50:31.715117 30475 net.cpp:129] Top shape: 128 256 27 27 (23887872)
I0428 13:50:31.715121 30475 net.cpp:137] Memory required for data: 847689728
I0428 13:50:31.715123 30475 layer_factory.hpp:77] Creating layer pool2
I0428 13:50:31.715129 30475 net.cpp:84] Creating Layer pool2
I0428 13:50:31.715133 30475 net.cpp:406] pool2 <- norm2
I0428 13:50:31.715138 30475 net.cpp:380] pool2 -> pool2
I0428 13:50:31.715164 30475 net.cpp:122] Setting up pool2
I0428 13:50:31.715168 30475 net.cpp:129] Top shape: 128 256 13 13 (5537792)
I0428 13:50:31.715171 30475 net.cpp:137] Memory required for data: 869840896
I0428 13:50:31.715174 30475 layer_factory.hpp:77] Creating layer conv3
I0428 13:50:31.715183 30475 net.cpp:84] Creating Layer conv3
I0428 13:50:31.715186 30475 net.cpp:406] conv3 <- pool2
I0428 13:50:31.715191 30475 net.cpp:380] conv3 -> conv3
I0428 13:50:31.725786 30475 net.cpp:122] Setting up conv3
I0428 13:50:31.725800 30475 net.cpp:129] Top shape: 128 384 13 13 (8306688)
I0428 13:50:31.725803 30475 net.cpp:137] Memory required for data: 903067648
I0428 13:50:31.725811 30475 layer_factory.hpp:77] Creating layer relu3
I0428 13:50:31.725819 30475 net.cpp:84] Creating Layer relu3
I0428 13:50:31.725822 30475 net.cpp:406] relu3 <- conv3
I0428 13:50:31.725827 30475 net.cpp:367] relu3 -> conv3 (in-place)
I0428 13:50:31.726419 30475 net.cpp:122] Setting up relu3
I0428 13:50:31.726428 30475 net.cpp:129] Top shape: 128 384 13 13 (8306688)
I0428 13:50:31.726433 30475 net.cpp:137] Memory required for data: 936294400
I0428 13:50:31.726435 30475 layer_factory.hpp:77] Creating layer conv3.5
I0428 13:50:31.726444 30475 net.cpp:84] Creating Layer conv3.5
I0428 13:50:31.726466 30475 net.cpp:406] conv3.5 <- conv3
I0428 13:50:31.726472 30475 net.cpp:380] conv3.5 -> conv3.5
I0428 13:50:31.843281 30475 net.cpp:122] Setting up conv3.5
I0428 13:50:31.843299 30475 net.cpp:129] Top shape: 128 384 7 7 (2408448)
I0428 13:50:31.843302 30475 net.cpp:137] Memory required for data: 945928192
I0428 13:50:31.843310 30475 layer_factory.hpp:77] Creating layer relu3.5
I0428 13:50:31.843318 30475 net.cpp:84] Creating Layer relu3.5
I0428 13:50:31.843322 30475 net.cpp:406] relu3.5 <- conv3.5
I0428 13:50:31.843328 30475 net.cpp:367] relu3.5 -> conv3.5 (in-place)
I0428 13:50:31.843883 30475 net.cpp:122] Setting up relu3.5
I0428 13:50:31.843894 30475 net.cpp:129] Top shape: 128 384 7 7 (2408448)
I0428 13:50:31.843895 30475 net.cpp:137] Memory required for data: 955561984
I0428 13:50:31.843899 30475 layer_factory.hpp:77] Creating layer conv4
I0428 13:50:31.843909 30475 net.cpp:84] Creating Layer conv4
I0428 13:50:31.843912 30475 net.cpp:406] conv4 <- conv3.5
I0428 13:50:31.843917 30475 net.cpp:380] conv4 -> conv4
I0428 13:50:31.854135 30475 net.cpp:122] Setting up conv4
I0428 13:50:31.854152 30475 net.cpp:129] Top shape: 128 384 7 7 (2408448)
I0428 13:50:31.854156 30475 net.cpp:137] Memory required for data: 965195776
I0428 13:50:31.854167 30475 layer_factory.hpp:77] Creating layer relu4
I0428 13:50:31.854176 30475 net.cpp:84] Creating Layer relu4
I0428 13:50:31.854180 30475 net.cpp:406] relu4 <- conv4
I0428 13:50:31.854185 30475 net.cpp:367] relu4 -> conv4 (in-place)
I0428 13:50:31.854564 30475 net.cpp:122] Setting up relu4
I0428 13:50:31.854573 30475 net.cpp:129] Top shape: 128 384 7 7 (2408448)
I0428 13:50:31.854576 30475 net.cpp:137] Memory required for data: 974829568
I0428 13:50:31.854579 30475 layer_factory.hpp:77] Creating layer conv5
I0428 13:50:31.854589 30475 net.cpp:84] Creating Layer conv5
I0428 13:50:31.854593 30475 net.cpp:406] conv5 <- conv4
I0428 13:50:31.854605 30475 net.cpp:380] conv5 -> conv5
I0428 13:50:31.863696 30475 net.cpp:122] Setting up conv5
I0428 13:50:31.863713 30475 net.cpp:129] Top shape: 128 256 7 7 (1605632)
I0428 13:50:31.863715 30475 net.cpp:137] Memory required for data: 981252096
I0428 13:50:31.863723 30475 layer_factory.hpp:77] Creating layer relu5
I0428 13:50:31.863734 30475 net.cpp:84] Creating Layer relu5
I0428 13:50:31.863739 30475 net.cpp:406] relu5 <- conv5
I0428 13:50:31.863744 30475 net.cpp:367] relu5 -> conv5 (in-place)
I0428 13:50:31.864301 30475 net.cpp:122] Setting up relu5
I0428 13:50:31.864310 30475 net.cpp:129] Top shape: 128 256 7 7 (1605632)
I0428 13:50:31.864313 30475 net.cpp:137] Memory required for data: 987674624
I0428 13:50:31.864316 30475 layer_factory.hpp:77] Creating layer pool5
I0428 13:50:31.864326 30475 net.cpp:84] Creating Layer pool5
I0428 13:50:31.864329 30475 net.cpp:406] pool5 <- conv5
I0428 13:50:31.864334 30475 net.cpp:380] pool5 -> pool5
I0428 13:50:31.864370 30475 net.cpp:122] Setting up pool5
I0428 13:50:31.864375 30475 net.cpp:129] Top shape: 128 256 3 3 (294912)
I0428 13:50:31.864378 30475 net.cpp:137] Memory required for data: 988854272
I0428 13:50:31.864380 30475 layer_factory.hpp:77] Creating layer fc6
I0428 13:50:31.864388 30475 net.cpp:84] Creating Layer fc6
I0428 13:50:31.864392 30475 net.cpp:406] fc6 <- pool5
I0428 13:50:31.864395 30475 net.cpp:380] fc6 -> fc6
I0428 13:50:31.968770 30475 net.cpp:122] Setting up fc6
I0428 13:50:31.968791 30475 net.cpp:129] Top shape: 128 4096 (524288)
I0428 13:50:31.968793 30475 net.cpp:137] Memory required for data: 990951424
I0428 13:50:31.968802 30475 layer_factory.hpp:77] Creating layer relu6
I0428 13:50:31.968811 30475 net.cpp:84] Creating Layer relu6
I0428 13:50:31.968814 30475 net.cpp:406] relu6 <- fc6
I0428 13:50:31.968820 30475 net.cpp:367] relu6 -> fc6 (in-place)
I0428 13:50:31.969730 30475 net.cpp:122] Setting up relu6
I0428 13:50:31.969740 30475 net.cpp:129] Top shape: 128 4096 (524288)
I0428 13:50:31.969743 30475 net.cpp:137] Memory required for data: 993048576
I0428 13:50:31.969746 30475 layer_factory.hpp:77] Creating layer drop6
I0428 13:50:31.969753 30475 net.cpp:84] Creating Layer drop6
I0428 13:50:31.969774 30475 net.cpp:406] drop6 <- fc6
I0428 13:50:31.969779 30475 net.cpp:367] drop6 -> fc6 (in-place)
I0428 13:50:31.969808 30475 net.cpp:122] Setting up drop6
I0428 13:50:31.969815 30475 net.cpp:129] Top shape: 128 4096 (524288)
I0428 13:50:31.969817 30475 net.cpp:137] Memory required for data: 995145728
I0428 13:50:31.969820 30475 layer_factory.hpp:77] Creating layer fc7
I0428 13:50:31.969827 30475 net.cpp:84] Creating Layer fc7
I0428 13:50:31.969830 30475 net.cpp:406] fc7 <- fc6
I0428 13:50:31.969835 30475 net.cpp:380] fc7 -> fc7
I0428 13:50:32.129160 30475 net.cpp:122] Setting up fc7
I0428 13:50:32.129177 30475 net.cpp:129] Top shape: 128 4096 (524288)
I0428 13:50:32.129180 30475 net.cpp:137] Memory required for data: 997242880
I0428 13:50:32.129189 30475 layer_factory.hpp:77] Creating layer relu7
I0428 13:50:32.129199 30475 net.cpp:84] Creating Layer relu7
I0428 13:50:32.129202 30475 net.cpp:406] relu7 <- fc7
I0428 13:50:32.129209 30475 net.cpp:367] relu7 -> fc7 (in-place)
I0428 13:50:32.130399 30475 net.cpp:122] Setting up relu7
I0428 13:50:32.130410 30475 net.cpp:129] Top shape: 128 4096 (524288)
I0428 13:50:32.130414 30475 net.cpp:137] Memory required for data: 999340032
I0428 13:50:32.130417 30475 layer_factory.hpp:77] Creating layer drop7
I0428 13:50:32.130424 30475 net.cpp:84] Creating Layer drop7
I0428 13:50:32.130426 30475 net.cpp:406] drop7 <- fc7
I0428 13:50:32.130432 30475 net.cpp:367] drop7 -> fc7 (in-place)
I0428 13:50:32.130457 30475 net.cpp:122] Setting up drop7
I0428 13:50:32.130462 30475 net.cpp:129] Top shape: 128 4096 (524288)
I0428 13:50:32.130465 30475 net.cpp:137] Memory required for data: 1001437184
I0428 13:50:32.130467 30475 layer_factory.hpp:77] Creating layer fc8
I0428 13:50:32.130475 30475 net.cpp:84] Creating Layer fc8
I0428 13:50:32.130478 30475 net.cpp:406] fc8 <- fc7
I0428 13:50:32.130483 30475 net.cpp:380] fc8 -> fc8
I0428 13:50:32.138383 30475 net.cpp:122] Setting up fc8
I0428 13:50:32.138393 30475 net.cpp:129] Top shape: 128 196 (25088)
I0428 13:50:32.138396 30475 net.cpp:137] Memory required for data: 1001537536
I0428 13:50:32.138409 30475 layer_factory.hpp:77] Creating layer loss
I0428 13:50:32.138415 30475 net.cpp:84] Creating Layer loss
I0428 13:50:32.138418 30475 net.cpp:406] loss <- fc8
I0428 13:50:32.138422 30475 net.cpp:406] loss <- label
I0428 13:50:32.138429 30475 net.cpp:380] loss -> loss
I0428 13:50:32.138442 30475 layer_factory.hpp:77] Creating layer loss
…
I0428 13:50:32.139633 30475 net.cpp:294] The NetState phase (1) differed from the phase (0) specified by a rule in layer train-data
I0428 13:50:32.139777 30475 net.cpp:51] Initializing net from parameters:
state {
phase: TEST
}
layer {
name: "val-data"
type: "Data"
top: "data"
top: "label"
include {
phase: TEST
}
transform_param {
crop_size: 227
mean_file: "/mnt/bigdisk/DIGITS-AMB-2/digits/jobs/20210419-113214-d311/mean.binaryproto"
}
data_param {
source: "/mnt/bigdisk/DIGITS-AMB-2/digits/jobs/20210419-113214-d311/val_db"
batch_size: 32
backend: LMDB
}
}
layer {
name: "conv1"
type: "Convolution"
bottom: "data"
top: "conv1"
param {
lr_mult: 1
decay_mult: 1
}
param {
lr_mult: 2
decay_mult: 0
}
convolution_param {
num_output: 96
kernel_size: 11
stride: 4
weight_filler {
type: "gaussian"
std: 0.01
}
bias_filler {
type: "constant"
value: 0
}
}
}
layer {
name: "relu1"
type: "ReLU"
bottom: "conv1"
top: "conv1"
}
layer {
name: "norm1"
type: "LRN"
bottom: "conv1"
top: "norm1"
lrn_param {
local_size: 5
alpha: 0.0001
beta: 0.75
}
}
layer {
name: "pool1"
type: "Pooling"
bottom: "norm1"
top: "pool1"
pooling_param {
pool: MAX
kernel_size: 3
stride: 2
}
}
layer {
name: "conv2"
type: "Convolution"
bottom: "pool1"
top: "conv2"
param {
lr_mult: 1
decay_mult: 1
}
param {
lr_mult: 2
decay_mult: 0
}
convolution_param {
num_output: 256
pad: 2
kernel_size: 5
group: 2
weight_filler {
type: "gaussian"
std: 0.01
}
bias_filler {
type: "constant"
value: 0.1
}
}
}
layer {
name: "relu2"
type: "ReLU"
bottom: "conv2"
top: "conv2"
}
layer {
name: "norm2"
type: "LRN"
bottom: "conv2"
top: "norm2"
lrn_param {
local_size: 5
alpha: 0.0001
beta: 0.75
}
}
layer {
name: "pool2"
type: "Pooling"
bottom: "norm2"
top: "pool2"
pooling_param {
pool: MAX
kernel_size: 3
stride: 2
}
}
layer {
name: "conv3"
type: "Convolution"
bottom: "pool2"
top: "conv3"
param {
lr_mult: 1
decay_mult: 1
}
param {
lr_mult: 2
decay_mult: 0
}
convolution_param {
num_output: 384
pad: 1
kernel_size: 3
weight_filler {
type: "gaussian"
std: 0.01
}
bias_filler {
type: "constant"
value: 0
}
}
}
layer {
name: "relu3"
type: "ReLU"
bottom: "conv3"
top: "conv3"
}
layer {
name: "conv3.5"
type: "Convolution"
bottom: "conv3"
top: "conv3.5"
param {
lr_mult: 1
decay_mult: 1
}
param {
lr_mult: 2
decay_mult: 0
}
convolution_param {
num_output: 384
pad: 1
kernel_size: 9
weight_filler {
type: "gaussian"
std: 0.01
}
bias_filler {
type: "constant"
value: 0
}
}
}
layer {
name: "relu3.5"
type: "ReLU"
bottom: "conv3.5"
top: "conv3.5"
}
layer {
name: "conv4"
type: "Convolution"
bottom: "conv3.5"
top: "conv4"
param {
lr_mult: 1
decay_mult: 1
}
param {
lr_mult: 2
decay_mult: 0
}
convolution_param {
num_output: 384
pad: 1
kernel_size: 3
group: 2
weight_filler {
type: "gaussian"
std: 0.01
}
bias_filler {
type: "constant"
value: 0.1
}
}
}
layer {
name: "relu4"
type: "ReLU"
bottom: "conv4"
top: "conv4"
}
layer {
name: "conv5"
type: "Convolution"
bottom: "conv4"
top: "conv5"
param {
lr_mult: 1
decay_mult: 1
}
param {
lr_mult: 2
decay_mult: 0
}
convolution_param {
num_output: 256
pad: 1
kernel_size: 3
group: 2
weight_filler {
type: "gaussian"
std: 0.01
}
bias_filler {
type: "constant"
value: 0.1
}
}
}
layer {
name: "relu5"
type: "ReLU"
bottom: "conv5"
top: "conv5"
}
layer {
name: "pool5"
type: "Pooling"
bottom: "conv5"
top: "pool5"
pooling_param {
pool: MAX
kernel_size: 3
stride: 2
}
}
layer {
name: "fc6"
type: "InnerProduct"
bottom: "pool5"
top: "fc6"
param {
lr_mult: 1
decay_mult: 1
}
param {
lr_mult: 2
decay_mult: 0
}
inner_product_param {
num_output: 4096
weight_filler {
type: "gaussian"
std: 0.005
}
bias_filler {
type: "constant"
value: 0.1
}
}
}
layer {
name: "relu6"
type: "ReLU"
bottom: "fc6"
top: "fc6"
}
layer {
name: "drop6"
type: "Dropout"
bottom: "fc6"
top: "fc6"
dropout_param {
dropout_ratio: 0.5
}
}
layer {
name: "fc7"
type: "InnerProduct"
bottom: "fc6"
top: "fc7"
param {
lr_mult: 1
decay_mult: 1
}
param {
lr_mult: 2
decay_mult: 0
}
inner_product_param {
num_output: 4096
weight_filler {
type: "gaussian"
std: 0.005
}
bias_filler {
type: "constant"
value: 0.1
}
}
}
layer {
name: "relu7"
type: "ReLU"
bottom: "fc7"
top: "fc7"
}
layer {
name: "drop7"
type: "Dropout"
bottom: "fc7"
top: "fc7"
dropout_param {
dropout_ratio: 0.5
}
}
layer {
name: "fc8"
type: "InnerProduct"
bottom: "fc7"
top: "fc8"
param {
lr_mult: 1
decay_mult: 1
}
param {
lr_mult: 2
decay_mult: 0
}
inner_product_param {
num_output: 196
weight_filler {
type: "gaussian"
std: 0.01
}
bias_filler {
type: "constant"
value: 0
}
}
}
layer {
name: "accuracy"
type: "Accuracy"
bottom: "fc8"
bottom: "label"
top: "accuracy"
include {
phase: TEST
}
}
layer {
name: "loss"
type: "SoftmaxWithLoss"
bottom: "fc8"
bottom: "label"
top: "loss"
}
I0428 13:50:32.139889 30475 layer_factory.hpp:77] Creating layer val-data
I0428 13:50:32.160320 30475 db_lmdb.cpp:35] Opened lmdb /mnt/bigdisk/DIGITS-AMB-2/digits/jobs/20210419-113214-d311/val_db
I0428 13:50:32.161829 30475 net.cpp:84] Creating Layer val-data
I0428 13:50:32.161852 30475 net.cpp:380] val-data -> data
I0428 13:50:32.161866 30475 net.cpp:380] val-data -> label
I0428 13:50:32.161876 30475 data_transformer.cpp:25] Loading mean file from: /mnt/bigdisk/DIGITS-AMB-2/digits/jobs/20210419-113214-d311/mean.binaryproto
I0428 13:50:32.167361 30475 data_layer.cpp:45] output data size: 32,3,227,227
I0428 13:50:32.202591 30475 net.cpp:122] Setting up val-data
I0428 13:50:32.202616 30475 net.cpp:129] Top shape: 32 3 227 227 (4946784)
I0428 13:50:32.202621 30475 net.cpp:129] Top shape: 32 (32)
I0428 13:50:32.202623 30475 net.cpp:137] Memory required for data: 19787264
I0428 13:50:32.202630 30475 layer_factory.hpp:77] Creating layer label_val-data_1_split
I0428 13:50:32.202639 30475 net.cpp:84] Creating Layer label_val-data_1_split
I0428 13:50:32.202643 30475 net.cpp:406] label_val-data_1_split <- label
I0428 13:50:32.202649 30475 net.cpp:380] label_val-data_1_split -> label_val-data_1_split_0
I0428 13:50:32.202657 30475 net.cpp:380] label_val-data_1_split -> label_val-data_1_split_1
I0428 13:50:32.202700 30475 net.cpp:122] Setting up label_val-data_1_split
I0428 13:50:32.202705 30475 net.cpp:129] Top shape: 32 (32)
I0428 13:50:32.202708 30475 net.cpp:129] Top shape: 32 (32)
I0428 13:50:32.202710 30475 net.cpp:137] Memory required for data: 19787520
I0428 13:50:32.202734 30475 layer_factory.hpp:77] Creating layer conv1
I0428 13:50:32.202745 30475 net.cpp:84] Creating Layer conv1
I0428 13:50:32.202749 30475 net.cpp:406] conv1 <- data
I0428 13:50:32.202754 30475 net.cpp:380] conv1 -> conv1
I0428 13:50:32.206975 30475 net.cpp:122] Setting up conv1
I0428 13:50:32.206988 30475 net.cpp:129] Top shape: 32 96 55 55 (9292800)
I0428 13:50:32.206991 30475 net.cpp:137] Memory required for data: 56958720
I0428 13:50:32.207001 30475 layer_factory.hpp:77] Creating layer relu1
I0428 13:50:32.207008 30475 net.cpp:84] Creating Layer relu1
I0428 13:50:32.207011 30475 net.cpp:406] relu1 <- conv1
I0428 13:50:32.207015 30475 net.cpp:367] relu1 -> conv1 (in-place)
I0428 13:50:32.207532 30475 net.cpp:122] Setting up relu1
I0428 13:50:32.207542 30475 net.cpp:129] Top shape: 32 96 55 55 (9292800)
I0428 13:50:32.207545 30475 net.cpp:137] Memory required for data: 94129920
I0428 13:50:32.207548 30475 layer_factory.hpp:77] Creating layer norm1
I0428 13:50:32.207557 30475 net.cpp:84] Creating Layer norm1
I0428 13:50:32.207561 30475 net.cpp:406] norm1 <- conv1
I0428 13:50:32.207566 30475 net.cpp:380] norm1 -> norm1
I0428 13:50:32.207891 30475 net.cpp:122] Setting up norm1
I0428 13:50:32.207901 30475 net.cpp:129] Top shape: 32 96 55 55 (9292800)
I0428 13:50:32.207903 30475 net.cpp:137] Memory required for data: 131301120
I0428 13:50:32.207906 30475 layer_factory.hpp:77] Creating layer pool1
I0428 13:50:32.207912 30475 net.cpp:84] Creating Layer pool1
I0428 13:50:32.207916 30475 net.cpp:406] pool1 <- norm1
I0428 13:50:32.207919 30475 net.cpp:380] pool1 -> pool1
I0428 13:50:32.207945 30475 net.cpp:122] Setting up pool1
I0428 13:50:32.207949 30475 net.cpp:129] Top shape: 32 96 27 27 (2239488)
I0428 13:50:32.207952 30475 net.cpp:137] Memory required for data: 140259072
I0428 13:50:32.207955 30475 layer_factory.hpp:77] Creating layer conv2
I0428 13:50:32.207962 30475 net.cpp:84] Creating Layer conv2
I0428 13:50:32.207965 30475 net.cpp:406] conv2 <- pool1
I0428 13:50:32.207970 30475 net.cpp:380] conv2 -> conv2
I0428 13:50:32.216063 30475 net.cpp:122] Setting up conv2
I0428 13:50:32.216080 30475 net.cpp:129] Top shape: 32 256 27 27 (5971968)
I0428 13:50:32.216084 30475 net.cpp:137] Memory required for data: 164146944
I0428 13:50:32.216094 30475 layer_factory.hpp:77] Creating layer relu2
I0428 13:50:32.216101 30475 net.cpp:84] Creating Layer relu2
I0428 13:50:32.216104 30475 net.cpp:406] relu2 <- conv2
I0428 13:50:32.216109 30475 net.cpp:367] relu2 -> conv2 (in-place)
I0428 13:50:32.217821 30475 net.cpp:122] Setting up relu2
I0428 13:50:32.217833 30475 net.cpp:129] Top shape: 32 256 27 27 (5971968)
I0428 13:50:32.217835 30475 net.cpp:137] Memory required for data: 188034816
I0428 13:50:32.217839 30475 layer_factory.hpp:77] Creating layer norm2
I0428 13:50:32.217851 30475 net.cpp:84] Creating Layer norm2
I0428 13:50:32.217854 30475 net.cpp:406] norm2 <- conv2
I0428 13:50:32.217860 30475 net.cpp:380] norm2 -> norm2
I0428 13:50:32.218447 30475 net.cpp:122] Setting up norm2
I0428 13:50:32.218457 30475 net.cpp:129] Top shape: 32 256 27 27 (5971968)
I0428 13:50:32.218461 30475 net.cpp:137] Memory required for data: 211922688
I0428 13:50:32.218464 30475 layer_factory.hpp:77] Creating layer pool2
I0428 13:50:32.218472 30475 net.cpp:84] Creating Layer pool2
I0428 13:50:32.218474 30475 net.cpp:406] pool2 <- norm2
I0428 13:50:32.218478 30475 net.cpp:380] pool2 -> pool2
I0428 13:50:32.218508 30475 net.cpp:122] Setting up pool2
I0428 13:50:32.218513 30475 net.cpp:129] Top shape: 32 256 13 13 (1384448)
I0428 13:50:32.218516 30475 net.cpp:137] Memory required for data: 217460480
I0428 13:50:32.218518 30475 layer_factory.hpp:77] Creating layer conv3
I0428 13:50:32.218528 30475 net.cpp:84] Creating Layer conv3
I0428 13:50:32.218531 30475 net.cpp:406] conv3 <- pool2
I0428 13:50:32.218539 30475 net.cpp:380] conv3 -> conv3
I0428 13:50:32.229190 30475 net.cpp:122] Setting up conv3
I0428 13:50:32.229207 30475 net.cpp:129] Top shape: 32 384 13 13 (2076672)
I0428 13:50:32.229209 30475 net.cpp:137] Memory required for data: 225767168
I0428 13:50:32.229239 30475 layer_factory.hpp:77] Creating layer relu3
I0428 13:50:32.229247 30475 net.cpp:84] Creating Layer relu3
I0428 13:50:32.229251 30475 net.cpp:406] relu3 <- conv3
I0428 13:50:32.229259 30475 net.cpp:367] relu3 -> conv3 (in-place)
I0428 13:50:32.229817 30475 net.cpp:122] Setting up relu3
I0428 13:50:32.229826 30475 net.cpp:129] Top shape: 32 384 13 13 (2076672)
I0428 13:50:32.229830 30475 net.cpp:137] Memory required for data: 234073856
I0428 13:50:32.229832 30475 layer_factory.hpp:77] Creating layer conv3.5
I0428 13:50:32.229843 30475 net.cpp:84] Creating Layer conv3.5
I0428 13:50:32.229846 30475 net.cpp:406] conv3.5 <- conv3
I0428 13:50:32.229853 30475 net.cpp:380] conv3.5 -> conv3.5
I0428 13:50:32.345742 30475 net.cpp:122] Setting up conv3.5
I0428 13:50:32.345762 30475 net.cpp:129] Top shape: 32 384 7 7 (602112)
I0428 13:50:32.345764 30475 net.cpp:137] Memory required for data: 236482304
I0428 13:50:32.345772 30475 layer_factory.hpp:77] Creating layer relu3.5
I0428 13:50:32.345780 30475 net.cpp:84] Creating Layer relu3.5
I0428 13:50:32.345784 30475 net.cpp:406] relu3.5 <- conv3.5
I0428 13:50:32.345793 30475 net.cpp:367] relu3.5 -> conv3.5 (in-place)
I0428 13:50:32.346525 30475 net.cpp:122] Setting up relu3.5
I0428 13:50:32.346534 30475 net.cpp:129] Top shape: 32 384 7 7 (602112)
I0428 13:50:32.346537 30475 net.cpp:137] Memory required for data: 238890752
I0428 13:50:32.346540 30475 layer_factory.hpp:77] Creating layer conv4
I0428 13:50:32.346550 30475 net.cpp:84] Creating Layer conv4
I0428 13:50:32.346554 30475 net.cpp:406] conv4 <- conv3.5
I0428 13:50:32.346561 30475 net.cpp:380] conv4 -> conv4
I0428 13:50:32.358045 30475 net.cpp:122] Setting up conv4
I0428 13:50:32.358063 30475 net.cpp:129] Top shape: 32 384 7 7 (602112)
I0428 13:50:32.358067 30475 net.cpp:137] Memory required for data: 241299200
I0428 13:50:32.358078 30475 layer_factory.hpp:77] Creating layer relu4
I0428 13:50:32.358088 30475 net.cpp:84] Creating Layer relu4
I0428 13:50:32.358093 30475 net.cpp:406] relu4 <- conv4
I0428 13:50:32.358098 30475 net.cpp:367] relu4 -> conv4 (in-place)
I0428 13:50:32.358664 30475 net.cpp:122] Setting up relu4
I0428 13:50:32.358673 30475 net.cpp:129] Top shape: 32 384 7 7 (602112)
I0428 13:50:32.358675 30475 net.cpp:137] Memory required for data: 243707648
I0428 13:50:32.358680 30475 layer_factory.hpp:77] Creating layer conv5
I0428 13:50:32.358692 30475 net.cpp:84] Creating Layer conv5
I0428 13:50:32.358695 30475 net.cpp:406] conv5 <- conv4
I0428 13:50:32.358701 30475 net.cpp:380] conv5 -> conv5
I0428 13:50:32.368257 30475 net.cpp:122] Setting up conv5
I0428 13:50:32.368274 30475 net.cpp:129] Top shape: 32 256 7 7 (401408)
I0428 13:50:32.368278 30475 net.cpp:137] Memory required for data: 245313280
I0428 13:50:32.368285 30475 layer_factory.hpp:77] Creating layer relu5
I0428 13:50:32.368292 30475 net.cpp:84] Creating Layer relu5
I0428 13:50:32.368296 30475 net.cpp:406] relu5 <- conv5
I0428 13:50:32.368301 30475 net.cpp:367] relu5 -> conv5 (in-place)
I0428 13:50:32.368690 30475 net.cpp:122] Setting up relu5
I0428 13:50:32.368700 30475 net.cpp:129] Top shape: 32 256 7 7 (401408)
I0428 13:50:32.368703 30475 net.cpp:137] Memory required for data: 246918912
I0428 13:50:32.368706 30475 layer_factory.hpp:77] Creating layer pool5
I0428 13:50:32.368712 30475 net.cpp:84] Creating Layer pool5
I0428 13:50:32.368716 30475 net.cpp:406] pool5 <- conv5
I0428 13:50:32.368721 30475 net.cpp:380] pool5 -> pool5
I0428 13:50:32.368757 30475 net.cpp:122] Setting up pool5
I0428 13:50:32.368762 30475 net.cpp:129] Top shape: 32 256 3 3 (73728)
I0428 13:50:32.368764 30475 net.cpp:137] Memory required for data: 247213824
I0428 13:50:32.368767 30475 layer_factory.hpp:77] Creating layer fc6
I0428 13:50:32.368774 30475 net.cpp:84] Creating Layer fc6
I0428 13:50:32.368777 30475 net.cpp:406] fc6 <- pool5
I0428 13:50:32.368783 30475 net.cpp:380] fc6 -> fc6
I0428 13:50:32.458639 30475 net.cpp:122] Setting up fc6
I0428 13:50:32.458660 30475 net.cpp:129] Top shape: 32 4096 (131072)
I0428 13:50:32.458664 30475 net.cpp:137] Memory required for data: 247738112
I0428 13:50:32.458693 30475 layer_factory.hpp:77] Creating layer relu6
I0428 13:50:32.458703 30475 net.cpp:84] Creating Layer relu6
I0428 13:50:32.458706 30475 net.cpp:406] relu6 <- fc6
I0428 13:50:32.458714 30475 net.cpp:367] relu6 -> fc6 (in-place)
I0428 13:50:32.459491 30475 net.cpp:122] Setting up relu6
I0428 13:50:32.459501 30475 net.cpp:129] Top shape: 32 4096 (131072)
I0428 13:50:32.459503 30475 net.cpp:137] Memory required for data: 248262400
I0428 13:50:32.459506 30475 layer_factory.hpp:77] Creating layer drop6
I0428 13:50:32.459512 30475 net.cpp:84] Creating Layer drop6
I0428 13:50:32.459515 30475 net.cpp:406] drop6 <- fc6
I0428 13:50:32.459523 30475 net.cpp:367] drop6 -> fc6 (in-place)
I0428 13:50:32.459547 30475 net.cpp:122] Setting up drop6
I0428 13:50:32.459553 30475 net.cpp:129] Top shape: 32 4096 (131072)
I0428 13:50:32.459555 30475 net.cpp:137] Memory required for data: 248786688
I0428 13:50:32.459558 30475 layer_factory.hpp:77] Creating layer fc7
I0428 13:50:32.459563 30475 net.cpp:84] Creating Layer fc7
I0428 13:50:32.459566 30475 net.cpp:406] fc7 <- fc6
I0428 13:50:32.459573 30475 net.cpp:380] fc7 -> fc7
I0428 13:50:32.618871 30475 net.cpp:122] Setting up fc7
I0428 13:50:32.618893 30475 net.cpp:129] Top shape: 32 4096 (131072)
I0428 13:50:32.618896 30475 net.cpp:137] Memory required for data: 249310976
I0428 13:50:32.618906 30475 layer_factory.hpp:77] Creating layer relu7
I0428 13:50:32.618913 30475 net.cpp:84] Creating Layer relu7
I0428 13:50:32.618917 30475 net.cpp:406] relu7 <- fc7
I0428 13:50:32.618924 30475 net.cpp:367] relu7 -> fc7 (in-place)
I0428 13:50:32.619679 30475 net.cpp:122] Setting up relu7
I0428 13:50:32.619690 30475 net.cpp:129] Top shape: 32 4096 (131072)
I0428 13:50:32.619693 30475 net.cpp:137] Memory required for data: 249835264
I0428 13:50:32.619696 30475 layer_factory.hpp:77] Creating layer drop7
I0428 13:50:32.619702 30475 net.cpp:84] Creating Layer drop7
I0428 13:50:32.619705 30475 net.cpp:406] drop7 <- fc7
I0428 13:50:32.619710 30475 net.cpp:367] drop7 -> fc7 (in-place)
I0428 13:50:32.619735 30475 net.cpp:122] Setting up drop7
I0428 13:50:32.619740 30475 net.cpp:129] Top shape: 32 4096 (131072)
I0428 13:50:32.619742 30475 net.cpp:137] Memory required for data: 250359552
I0428 13:50:32.619745 30475 layer_factory.hpp:77] Creating layer fc8
I0428 13:50:32.619752 30475 net.cpp:84] Creating Layer fc8
I0428 13:50:32.619755 30475 net.cpp:406] fc8 <- fc7
I0428 13:50:32.619760 30475 net.cpp:380] fc8 -> fc8
I0428 13:50:32.627487 30475 net.cpp:122] Setting up fc8
I0428 13:50:32.627498 30475 net.cpp:129] Top shape: 32 196 (6272)
I0428 13:50:32.627501 30475 net.cpp:137] Memory required for data: 250384640
I0428 13:50:32.627511 30475 layer_factory.hpp:77] Creating layer fc8_fc8_0_split
I0428 13:50:32.627516 30475 net.cpp:84] Creating Layer fc8_fc8_0_split
I0428 13:50:32.627519 30475 net.cpp:406] fc8_fc8_0_split <- fc8
I0428 13:50:32.627526 30475 net.cpp:380] fc8_fc8_0_split -> fc8_fc8_0_split_0
I0428 13:50:32.627532 30475 net.cpp:380] fc8_fc8_0_split -> fc8_fc8_0_split_1
I0428 13:50:32.627562 30475 net.cpp:122] Setting up fc8_fc8_0_split
I0428 13:50:32.627568 30475 net.cpp:129] Top shape: 32 196 (6272)
I0428 13:50:32.627570 30475 net.cpp:129] Top shape: 32 196 (6272)
I0428 13:50:32.627573 30475 net.cpp:137] Memory required for data: 250434816
I0428 13:50:32.627575 30475 layer_factory.hpp:77] Creating layer accuracy
I0428 13:50:32.627581 30475 net.cpp:84] Creating Layer accuracy
I0428 13:50:32.627583 30475 net.cpp:406] accuracy <- fc8_fc8_0_split_0
I0428 13:50:32.627588 30475 net.cpp:406] accuracy <- label_val-data_1_split_0
I0428 13:50:32.627591 30475 net.cpp:380] accuracy -> accuracy
…
