…
I0412 12:48:31.800403  6895 net.cpp:294] The NetState phase (0) differed from the phase (1) specified by a rule in layer accuracy
I0412 12:48:31.800571  6895 net.cpp:51] Initializing net from parameters:
state {
phase: TRAIN
level: 0
stage: ""
}
layer {
name: "train-data"
type: "Data"
top: "data"
top: "label"
include {
phase: TRAIN
}
transform_param {
mirror: true
crop_size: 227
mean_file: "/mnt/bigdisk/DIGITS-MAN-2/digits/jobs/20210407-214532-d396/mean.binaryproto"
}
data_param {
source: "/mnt/bigdisk/DIGITS-MAN-2/digits/jobs/20210407-214532-d396/train_db"
batch_size: 128
backend: LMDB
}
}
layer {
name: "conv1"
type: "Convolution"
bottom: "data"
top: "conv1"
param {
lr_mult: 1
decay_mult: 1
}
param {
lr_mult: 2
decay_mult: 0
}
convolution_param {
num_output: 96
kernel_size: 11
stride: 4
weight_filler {
type: "gaussian"
std: 0.01
}
bias_filler {
type: "constant"
value: 0
}
}
}
layer {
name: "relu1"
type: "ReLU"
bottom: "conv1"
top: "conv1"
}
layer {
name: "norm1"
type: "LRN"
bottom: "conv1"
top: "norm1"
lrn_param {
local_size: 5
alpha: 0.0001
beta: 0.75
}
}
layer {
name: "pool1"
type: "Pooling"
bottom: "norm1"
top: "pool1"
pooling_param {
pool: MAX
kernel_size: 3
stride: 2
}
}
layer {
name: "conv2"
type: "Convolution"
bottom: "pool1"
top: "conv2"
param {
lr_mult: 1
decay_mult: 1
}
param {
lr_mult: 2
decay_mult: 0
}
convolution_param {
num_output: 256
pad: 2
kernel_size: 5
group: 2
weight_filler {
type: "gaussian"
std: 0.01
}
bias_filler {
type: "constant"
value: 0.1
}
}
}
layer {
name: "relu2"
type: "ReLU"
bottom: "conv2"
top: "conv2"
}
layer {
name: "norm2"
type: "LRN"
bottom: "conv2"
top: "norm2"
lrn_param {
local_size: 5
alpha: 0.0001
beta: 0.75
}
}
layer {
name: "pool2"
type: "Pooling"
bottom: "norm2"
top: "pool2"
pooling_param {
pool: MAX
kernel_size: 3
stride: 2
}
}
layer {
name: "conv3"
type: "Convolution"
bottom: "pool2"
top: "conv3"
param {
lr_mult: 1
decay_mult: 1
}
param {
lr_mult: 2
decay_mult: 0
}
convolution_param {
num_output: 384
pad: 1
kernel_size: 3
weight_filler {
type: "gaussian"
std: 0.01
}
bias_filler {
type: "constant"
value: 0
}
}
}
layer {
name: "relu3"
type: "ReLU"
bottom: "conv3"
top: "conv3"
}
layer {
name: "conv4"
type: "Convolution"
bottom: "conv3"
top: "conv4"
param {
lr_mult: 1
decay_mult: 1
}
param {
lr_mult: 2
decay_mult: 0
}
convolution_param {
num_output: 384
pad: 1
kernel_size: 3
group: 2
weight_filler {
type: "gaussian"
std: 0.01
}
bias_filler {
type: "constant"
value: 0.1
}
}
}
layer {
name: "relu4"
type: "ReLU"
bottom: "conv4"
top: "conv4"
}
layer {
name: "conv5"
type: "Convolution"
bottom: "conv4"
top: "conv5"
param {
lr_mult: 1
decay_mult: 1
}
param {
lr_mult: 2
decay_mult: 0
}
convolution_param {
num_output: 64
pad: 1
kernel_size: 3
group: 2
weight_filler {
type: "gaussian"
std: 0.01
}
bias_filler {
type: "constant"
value: 0.1
}
}
}
layer {
name: "relu5"
type: "ReLU"
bottom: "conv5"
top: "conv5"
}
layer {
name: "conv5.2"
type: "Convolution"
bottom: "conv5"
top: "conv5.2"
param {
lr_mult: 1
decay_mult: 1
}
param {
lr_mult: 2
decay_mult: 0
}
convolution_param {
num_output: 64
pad: 1
kernel_size: 3
group: 2
weight_filler {
type: "gaussian"
std: 0.01
}
bias_filler {
type: "constant"
value: 0.1
}
}
}
layer {
name: "relu5.2"
type: "ReLU"
bottom: "conv5.2"
top: "conv5.2"
}
layer {
name: "conv5.3"
type: "Convolution"
bottom: "conv5.2"
top: "conv5.3"
param {
lr_mult: 1
decay_mult: 1
}
param {
lr_mult: 2
decay_mult: 0
}
convolution_param {
num_output: 64
pad: 1
kernel_size: 3
group: 2
weight_filler {
type: "gaussian"
std: 0.01
}
bias_filler {
type: "constant"
value: 0.1
}
}
}
layer {
name: "relu5.3"
type: "ReLU"
bottom: "conv5.3"
top: "conv5.3"
}
layer {
name: "conv5.4"
type: "Convolution"
bottom: "conv5.3"
top: "conv5.4"
param {
lr_mult: 1
decay_mult: 1
}
param {
lr_mult: 2
decay_mult: 0
}
convolution_param {
num_output: 64
pad: 1
kernel_size: 3
group: 2
weight_filler {
type: "gaussian"
std: 0.01
}
bias_filler {
type: "constant"
value: 0.1
}
}
}
layer {
name: "relu5.4"
type: "ReLU"
bottom: "conv5.4"
top: "conv5.4"
}
layer {
name: "pool5"
type: "Pooling"
bottom: "conv5.4"
top: "pool5"
pooling_param {
pool: MAX
kernel_size: 3
stride: 2
}
}
layer {
name: "fc6"
type: "InnerProduct"
bottom: "pool5"
top: "fc6"
param {
lr_mult: 1
decay_mult: 1
}
param {
lr_mult: 2
decay_mult: 0
}
inner_product_param {
num_output: 4096
weight_filler {
type: "gaussian"
std: 0.005
}
bias_filler {
type: "constant"
value: 0.1
}
}
}
layer {
name: "relu6"
type: "ReLU"
bottom: "fc6"
top: "fc6"
}
layer {
name: "drop6"
type: "Dropout"
bottom: "fc6"
top: "fc6"
dropout_param {
dropout_ratio: 0.5
}
}
layer {
name: "fc7"
type: "InnerProduct"
bottom: "fc6"
top: "fc7"
param {
lr_mult: 1
decay_mult: 1
}
param {
lr_mult: 2
decay_mult: 0
}
inner_product_param {
num_output: 4096
weight_filler {
type: "gaussian"
std: 0.005
}
bias_filler {
type: "constant"
value: 0.1
}
}
}
layer {
name: "relu7"
type: "ReLU"
bottom: "fc7"
top: "fc7"
}
layer {
name: "drop7"
type: "Dropout"
bottom: "fc7"
top: "fc7"
dropout_param {
dropout_ratio: 0.5
}
}
layer {
name: "fc8"
type: "InnerProduct"
bottom: "fc7"
top: "fc8"
param {
lr_mult: 1
decay_mult: 1
}
param {
lr_mult: 2
decay_mult: 0
}
inner_product_param {
num_output: 196
weight_filler {
type: "gaussian"
std: 0.01
}
bias_filler {
type: "constant"
value: 0
}
}
}
layer {
name: "loss"
type: "SoftmaxWithLoss"
bottom: "fc8"
bottom: "label"
top: "loss"
}
I0412 12:48:31.800668  6895 layer_factory.hpp:77] Creating layer train-data
I0412 12:48:31.802726  6895 db_lmdb.cpp:35] Opened lmdb /mnt/bigdisk/DIGITS-MAN-2/digits/jobs/20210407-214532-d396/train_db
I0412 12:48:31.802932  6895 net.cpp:84] Creating Layer train-data
I0412 12:48:31.802942  6895 net.cpp:380] train-data -> data
I0412 12:48:31.802963  6895 net.cpp:380] train-data -> label
I0412 12:48:31.802973  6895 data_transformer.cpp:25] Loading mean file from: /mnt/bigdisk/DIGITS-MAN-2/digits/jobs/20210407-214532-d396/mean.binaryproto
I0412 12:48:31.807654  6895 data_layer.cpp:45] output data size: 128,3,227,227
I0412 12:48:31.939566  6895 net.cpp:122] Setting up train-data
I0412 12:48:31.939589  6895 net.cpp:129] Top shape: 128 3 227 227 (19787136)
I0412 12:48:31.939594  6895 net.cpp:129] Top shape: 128 (128)
I0412 12:48:31.939597  6895 net.cpp:137] Memory required for data: 79149056
I0412 12:48:31.939607  6895 layer_factory.hpp:77] Creating layer conv1
I0412 12:48:31.939627  6895 net.cpp:84] Creating Layer conv1
I0412 12:48:31.939632  6895 net.cpp:406] conv1 <- data
I0412 12:48:31.939644  6895 net.cpp:380] conv1 -> conv1
I0412 12:48:32.483711  6895 net.cpp:122] Setting up conv1
I0412 12:48:32.483733  6895 net.cpp:129] Top shape: 128 96 55 55 (37171200)
I0412 12:48:32.483737  6895 net.cpp:137] Memory required for data: 227833856
I0412 12:48:32.483755  6895 layer_factory.hpp:77] Creating layer relu1
I0412 12:48:32.483765  6895 net.cpp:84] Creating Layer relu1
I0412 12:48:32.483769  6895 net.cpp:406] relu1 <- conv1
I0412 12:48:32.483776  6895 net.cpp:367] relu1 -> conv1 (in-place)
I0412 12:48:32.484066  6895 net.cpp:122] Setting up relu1
I0412 12:48:32.484076  6895 net.cpp:129] Top shape: 128 96 55 55 (37171200)
I0412 12:48:32.484079  6895 net.cpp:137] Memory required for data: 376518656
I0412 12:48:32.484083  6895 layer_factory.hpp:77] Creating layer norm1
I0412 12:48:32.484091  6895 net.cpp:84] Creating Layer norm1
I0412 12:48:32.484095  6895 net.cpp:406] norm1 <- conv1
I0412 12:48:32.484100  6895 net.cpp:380] norm1 -> norm1
I0412 12:48:32.484557  6895 net.cpp:122] Setting up norm1
I0412 12:48:32.484568  6895 net.cpp:129] Top shape: 128 96 55 55 (37171200)
I0412 12:48:32.484571  6895 net.cpp:137] Memory required for data: 525203456
I0412 12:48:32.484575  6895 layer_factory.hpp:77] Creating layer pool1
I0412 12:48:32.484583  6895 net.cpp:84] Creating Layer pool1
I0412 12:48:32.484586  6895 net.cpp:406] pool1 <- norm1
I0412 12:48:32.484591  6895 net.cpp:380] pool1 -> pool1
I0412 12:48:32.484627  6895 net.cpp:122] Setting up pool1
I0412 12:48:32.484633  6895 net.cpp:129] Top shape: 128 96 27 27 (8957952)
I0412 12:48:32.484637  6895 net.cpp:137] Memory required for data: 561035264
I0412 12:48:32.484640  6895 layer_factory.hpp:77] Creating layer conv2
I0412 12:48:32.484649  6895 net.cpp:84] Creating Layer conv2
I0412 12:48:32.484653  6895 net.cpp:406] conv2 <- pool1
I0412 12:48:32.484658  6895 net.cpp:380] conv2 -> conv2
I0412 12:48:32.491274  6895 net.cpp:122] Setting up conv2
I0412 12:48:32.491288  6895 net.cpp:129] Top shape: 128 256 27 27 (23887872)
I0412 12:48:32.491292  6895 net.cpp:137] Memory required for data: 656586752
I0412 12:48:32.491302  6895 layer_factory.hpp:77] Creating layer relu2
I0412 12:48:32.491307  6895 net.cpp:84] Creating Layer relu2
I0412 12:48:32.491312  6895 net.cpp:406] relu2 <- conv2
I0412 12:48:32.491317  6895 net.cpp:367] relu2 -> conv2 (in-place)
I0412 12:48:32.491741  6895 net.cpp:122] Setting up relu2
I0412 12:48:32.491751  6895 net.cpp:129] Top shape: 128 256 27 27 (23887872)
I0412 12:48:32.491755  6895 net.cpp:137] Memory required for data: 752138240
I0412 12:48:32.491758  6895 layer_factory.hpp:77] Creating layer norm2
I0412 12:48:32.491765  6895 net.cpp:84] Creating Layer norm2
I0412 12:48:32.491768  6895 net.cpp:406] norm2 <- conv2
I0412 12:48:32.491775  6895 net.cpp:380] norm2 -> norm2
I0412 12:48:32.492069  6895 net.cpp:122] Setting up norm2
I0412 12:48:32.492077  6895 net.cpp:129] Top shape: 128 256 27 27 (23887872)
I0412 12:48:32.492080  6895 net.cpp:137] Memory required for data: 847689728
I0412 12:48:32.492084  6895 layer_factory.hpp:77] Creating layer pool2
I0412 12:48:32.492091  6895 net.cpp:84] Creating Layer pool2
I0412 12:48:32.492094  6895 net.cpp:406] pool2 <- norm2
I0412 12:48:32.492100  6895 net.cpp:380] pool2 -> pool2
I0412 12:48:32.492125  6895 net.cpp:122] Setting up pool2
I0412 12:48:32.492130  6895 net.cpp:129] Top shape: 128 256 13 13 (5537792)
I0412 12:48:32.492133  6895 net.cpp:137] Memory required for data: 869840896
I0412 12:48:32.492136  6895 layer_factory.hpp:77] Creating layer conv3
I0412 12:48:32.492164  6895 net.cpp:84] Creating Layer conv3
I0412 12:48:32.492168  6895 net.cpp:406] conv3 <- pool2
I0412 12:48:32.492173  6895 net.cpp:380] conv3 -> conv3
I0412 12:48:32.501987  6895 net.cpp:122] Setting up conv3
I0412 12:48:32.502000  6895 net.cpp:129] Top shape: 128 384 13 13 (8306688)
I0412 12:48:32.502004  6895 net.cpp:137] Memory required for data: 903067648
I0412 12:48:32.502013  6895 layer_factory.hpp:77] Creating layer relu3
I0412 12:48:32.502020  6895 net.cpp:84] Creating Layer relu3
I0412 12:48:32.502024  6895 net.cpp:406] relu3 <- conv3
I0412 12:48:32.502029  6895 net.cpp:367] relu3 -> conv3 (in-place)
I0412 12:48:32.502449  6895 net.cpp:122] Setting up relu3
I0412 12:48:32.502458  6895 net.cpp:129] Top shape: 128 384 13 13 (8306688)
I0412 12:48:32.502461  6895 net.cpp:137] Memory required for data: 936294400
I0412 12:48:32.502465  6895 layer_factory.hpp:77] Creating layer conv4
I0412 12:48:32.502473  6895 net.cpp:84] Creating Layer conv4
I0412 12:48:32.502477  6895 net.cpp:406] conv4 <- conv3
I0412 12:48:32.502482  6895 net.cpp:380] conv4 -> conv4
I0412 12:48:32.512389  6895 net.cpp:122] Setting up conv4
I0412 12:48:32.512403  6895 net.cpp:129] Top shape: 128 384 13 13 (8306688)
I0412 12:48:32.512408  6895 net.cpp:137] Memory required for data: 969521152
I0412 12:48:32.512415  6895 layer_factory.hpp:77] Creating layer relu4
I0412 12:48:32.512423  6895 net.cpp:84] Creating Layer relu4
I0412 12:48:32.512426  6895 net.cpp:406] relu4 <- conv4
I0412 12:48:32.512431  6895 net.cpp:367] relu4 -> conv4 (in-place)
I0412 12:48:32.512706  6895 net.cpp:122] Setting up relu4
I0412 12:48:32.512714  6895 net.cpp:129] Top shape: 128 384 13 13 (8306688)
I0412 12:48:32.512718  6895 net.cpp:137] Memory required for data: 1002747904
I0412 12:48:32.512722  6895 layer_factory.hpp:77] Creating layer conv5
I0412 12:48:32.512730  6895 net.cpp:84] Creating Layer conv5
I0412 12:48:32.512733  6895 net.cpp:406] conv5 <- conv4
I0412 12:48:32.512739  6895 net.cpp:380] conv5 -> conv5
I0412 12:48:32.517105  6895 net.cpp:122] Setting up conv5
I0412 12:48:32.517117  6895 net.cpp:129] Top shape: 128 64 13 13 (1384448)
I0412 12:48:32.517119  6895 net.cpp:137] Memory required for data: 1008285696
I0412 12:48:32.517129  6895 layer_factory.hpp:77] Creating layer relu5
I0412 12:48:32.517135  6895 net.cpp:84] Creating Layer relu5
I0412 12:48:32.517139  6895 net.cpp:406] relu5 <- conv5
I0412 12:48:32.517144  6895 net.cpp:367] relu5 -> conv5 (in-place)
I0412 12:48:32.517562  6895 net.cpp:122] Setting up relu5
I0412 12:48:32.517572  6895 net.cpp:129] Top shape: 128 64 13 13 (1384448)
I0412 12:48:32.517575  6895 net.cpp:137] Memory required for data: 1013823488
I0412 12:48:32.517580  6895 layer_factory.hpp:77] Creating layer conv5.2
I0412 12:48:32.517587  6895 net.cpp:84] Creating Layer conv5.2
I0412 12:48:32.517591  6895 net.cpp:406] conv5.2 <- conv5
I0412 12:48:32.517596  6895 net.cpp:380] conv5.2 -> conv5.2
I0412 12:48:32.520401  6895 net.cpp:122] Setting up conv5.2
I0412 12:48:32.520411  6895 net.cpp:129] Top shape: 128 64 13 13 (1384448)
I0412 12:48:32.520416  6895 net.cpp:137] Memory required for data: 1019361280
I0412 12:48:32.520421  6895 layer_factory.hpp:77] Creating layer relu5.2
I0412 12:48:32.520429  6895 net.cpp:84] Creating Layer relu5.2
I0412 12:48:32.520432  6895 net.cpp:406] relu5.2 <- conv5.2
I0412 12:48:32.520437  6895 net.cpp:367] relu5.2 -> conv5.2 (in-place)
I0412 12:48:32.520860  6895 net.cpp:122] Setting up relu5.2
I0412 12:48:32.520869  6895 net.cpp:129] Top shape: 128 64 13 13 (1384448)
I0412 12:48:32.520874  6895 net.cpp:137] Memory required for data: 1024899072
I0412 12:48:32.520876  6895 layer_factory.hpp:77] Creating layer conv5.3
I0412 12:48:32.520885  6895 net.cpp:84] Creating Layer conv5.3
I0412 12:48:32.520889  6895 net.cpp:406] conv5.3 <- conv5.2
I0412 12:48:32.520895  6895 net.cpp:380] conv5.3 -> conv5.3
I0412 12:48:32.524489  6895 net.cpp:122] Setting up conv5.3
I0412 12:48:32.524500  6895 net.cpp:129] Top shape: 128 64 13 13 (1384448)
I0412 12:48:32.524504  6895 net.cpp:137] Memory required for data: 1030436864
I0412 12:48:32.524528  6895 layer_factory.hpp:77] Creating layer relu5.3
I0412 12:48:32.524535  6895 net.cpp:84] Creating Layer relu5.3
I0412 12:48:32.524538  6895 net.cpp:406] relu5.3 <- conv5.3
I0412 12:48:32.524544  6895 net.cpp:367] relu5.3 -> conv5.3 (in-place)
I0412 12:48:32.525038  6895 net.cpp:122] Setting up relu5.3
I0412 12:48:32.525048  6895 net.cpp:129] Top shape: 128 64 13 13 (1384448)
I0412 12:48:32.525051  6895 net.cpp:137] Memory required for data: 1035974656
I0412 12:48:32.525055  6895 layer_factory.hpp:77] Creating layer conv5.4
I0412 12:48:32.525064  6895 net.cpp:84] Creating Layer conv5.4
I0412 12:48:32.525068  6895 net.cpp:406] conv5.4 <- conv5.3
I0412 12:48:32.525074  6895 net.cpp:380] conv5.4 -> conv5.4
I0412 12:48:32.529206  6895 net.cpp:122] Setting up conv5.4
I0412 12:48:32.529215  6895 net.cpp:129] Top shape: 128 64 13 13 (1384448)
I0412 12:48:32.529219  6895 net.cpp:137] Memory required for data: 1041512448
I0412 12:48:32.529225  6895 layer_factory.hpp:77] Creating layer relu5.4
I0412 12:48:32.529232  6895 net.cpp:84] Creating Layer relu5.4
I0412 12:48:32.529237  6895 net.cpp:406] relu5.4 <- conv5.4
I0412 12:48:32.529242  6895 net.cpp:367] relu5.4 -> conv5.4 (in-place)
I0412 12:48:32.529736  6895 net.cpp:122] Setting up relu5.4
I0412 12:48:32.529745  6895 net.cpp:129] Top shape: 128 64 13 13 (1384448)
I0412 12:48:32.529748  6895 net.cpp:137] Memory required for data: 1047050240
I0412 12:48:32.529752  6895 layer_factory.hpp:77] Creating layer pool5
I0412 12:48:32.529759  6895 net.cpp:84] Creating Layer pool5
I0412 12:48:32.529762  6895 net.cpp:406] pool5 <- conv5.4
I0412 12:48:32.529769  6895 net.cpp:380] pool5 -> pool5
I0412 12:48:32.529804  6895 net.cpp:122] Setting up pool5
I0412 12:48:32.529810  6895 net.cpp:129] Top shape: 128 64 6 6 (294912)
I0412 12:48:32.529814  6895 net.cpp:137] Memory required for data: 1048229888
I0412 12:48:32.529817  6895 layer_factory.hpp:77] Creating layer fc6
I0412 12:48:32.529824  6895 net.cpp:84] Creating Layer fc6
I0412 12:48:32.529826  6895 net.cpp:406] fc6 <- pool5
I0412 12:48:32.529832  6895 net.cpp:380] fc6 -> fc6
I0412 12:48:32.619758  6895 net.cpp:122] Setting up fc6
I0412 12:48:32.619781  6895 net.cpp:129] Top shape: 128 4096 (524288)
I0412 12:48:32.619783  6895 net.cpp:137] Memory required for data: 1050327040
I0412 12:48:32.619798  6895 layer_factory.hpp:77] Creating layer relu6
I0412 12:48:32.619807  6895 net.cpp:84] Creating Layer relu6
I0412 12:48:32.619812  6895 net.cpp:406] relu6 <- fc6
I0412 12:48:32.619819  6895 net.cpp:367] relu6 -> fc6 (in-place)
I0412 12:48:32.620450  6895 net.cpp:122] Setting up relu6
I0412 12:48:32.620460  6895 net.cpp:129] Top shape: 128 4096 (524288)
I0412 12:48:32.620463  6895 net.cpp:137] Memory required for data: 1052424192
I0412 12:48:32.620466  6895 layer_factory.hpp:77] Creating layer drop6
I0412 12:48:32.620473  6895 net.cpp:84] Creating Layer drop6
I0412 12:48:32.620477  6895 net.cpp:406] drop6 <- fc6
I0412 12:48:32.620482  6895 net.cpp:367] drop6 -> fc6 (in-place)
I0412 12:48:32.620509  6895 net.cpp:122] Setting up drop6
I0412 12:48:32.620515  6895 net.cpp:129] Top shape: 128 4096 (524288)
I0412 12:48:32.620519  6895 net.cpp:137] Memory required for data: 1054521344
I0412 12:48:32.620523  6895 layer_factory.hpp:77] Creating layer fc7
I0412 12:48:32.620532  6895 net.cpp:84] Creating Layer fc7
I0412 12:48:32.620535  6895 net.cpp:406] fc7 <- fc6
I0412 12:48:32.620540  6895 net.cpp:380] fc7 -> fc7
I0412 12:48:32.782341  6895 net.cpp:122] Setting up fc7
I0412 12:48:32.782361  6895 net.cpp:129] Top shape: 128 4096 (524288)
I0412 12:48:32.782363  6895 net.cpp:137] Memory required for data: 1056618496
I0412 12:48:32.782373  6895 layer_factory.hpp:77] Creating layer relu7
I0412 12:48:32.782382  6895 net.cpp:84] Creating Layer relu7
I0412 12:48:32.782387  6895 net.cpp:406] relu7 <- fc7
I0412 12:48:32.782393  6895 net.cpp:367] relu7 -> fc7 (in-place)
I0412 12:48:32.782811  6895 net.cpp:122] Setting up relu7
I0412 12:48:32.782820  6895 net.cpp:129] Top shape: 128 4096 (524288)
I0412 12:48:32.782824  6895 net.cpp:137] Memory required for data: 1058715648
I0412 12:48:32.782845  6895 layer_factory.hpp:77] Creating layer drop7
I0412 12:48:32.782852  6895 net.cpp:84] Creating Layer drop7
I0412 12:48:32.782855  6895 net.cpp:406] drop7 <- fc7
I0412 12:48:32.782861  6895 net.cpp:367] drop7 -> fc7 (in-place)
I0412 12:48:32.782886  6895 net.cpp:122] Setting up drop7
I0412 12:48:32.782891  6895 net.cpp:129] Top shape: 128 4096 (524288)
I0412 12:48:32.782893  6895 net.cpp:137] Memory required for data: 1060812800
I0412 12:48:32.782896  6895 layer_factory.hpp:77] Creating layer fc8
I0412 12:48:32.782904  6895 net.cpp:84] Creating Layer fc8
I0412 12:48:32.782907  6895 net.cpp:406] fc8 <- fc7
I0412 12:48:32.782913  6895 net.cpp:380] fc8 -> fc8
I0412 12:48:32.790649  6895 net.cpp:122] Setting up fc8
I0412 12:48:32.790659  6895 net.cpp:129] Top shape: 128 196 (25088)
I0412 12:48:32.790663  6895 net.cpp:137] Memory required for data: 1060913152
I0412 12:48:32.790669  6895 layer_factory.hpp:77] Creating layer loss
I0412 12:48:32.790676  6895 net.cpp:84] Creating Layer loss
I0412 12:48:32.790680  6895 net.cpp:406] loss <- fc8
I0412 12:48:32.790684  6895 net.cpp:406] loss <- label
I0412 12:48:32.790691  6895 net.cpp:380] loss -> loss
I0412 12:48:32.790699  6895 layer_factory.hpp:77] Creating layer loss
…
I0412 12:48:32.792043  6895 net.cpp:294] The NetState phase (1) differed from the phase (0) specified by a rule in layer train-data
I0412 12:48:32.792225  6895 net.cpp:51] Initializing net from parameters:
state {
phase: TEST
}
layer {
name: "val-data"
type: "Data"
top: "data"
top: "label"
include {
phase: TEST
}
transform_param {
crop_size: 227
mean_file: "/mnt/bigdisk/DIGITS-MAN-2/digits/jobs/20210407-214532-d396/mean.binaryproto"
}
data_param {
source: "/mnt/bigdisk/DIGITS-MAN-2/digits/jobs/20210407-214532-d396/val_db"
batch_size: 32
backend: LMDB
}
}
layer {
name: "conv1"
type: "Convolution"
bottom: "data"
top: "conv1"
param {
lr_mult: 1
decay_mult: 1
}
param {
lr_mult: 2
decay_mult: 0
}
convolution_param {
num_output: 96
kernel_size: 11
stride: 4
weight_filler {
type: "gaussian"
std: 0.01
}
bias_filler {
type: "constant"
value: 0
}
}
}
layer {
name: "relu1"
type: "ReLU"
bottom: "conv1"
top: "conv1"
}
layer {
name: "norm1"
type: "LRN"
bottom: "conv1"
top: "norm1"
lrn_param {
local_size: 5
alpha: 0.0001
beta: 0.75
}
}
layer {
name: "pool1"
type: "Pooling"
bottom: "norm1"
top: "pool1"
pooling_param {
pool: MAX
kernel_size: 3
stride: 2
}
}
layer {
name: "conv2"
type: "Convolution"
bottom: "pool1"
top: "conv2"
param {
lr_mult: 1
decay_mult: 1
}
param {
lr_mult: 2
decay_mult: 0
}
convolution_param {
num_output: 256
pad: 2
kernel_size: 5
group: 2
weight_filler {
type: "gaussian"
std: 0.01
}
bias_filler {
type: "constant"
value: 0.1
}
}
}
layer {
name: "relu2"
type: "ReLU"
bottom: "conv2"
top: "conv2"
}
layer {
name: "norm2"
type: "LRN"
bottom: "conv2"
top: "norm2"
lrn_param {
local_size: 5
alpha: 0.0001
beta: 0.75
}
}
layer {
name: "pool2"
type: "Pooling"
bottom: "norm2"
top: "pool2"
pooling_param {
pool: MAX
kernel_size: 3
stride: 2
}
}
layer {
name: "conv3"
type: "Convolution"
bottom: "pool2"
top: "conv3"
param {
lr_mult: 1
decay_mult: 1
}
param {
lr_mult: 2
decay_mult: 0
}
convolution_param {
num_output: 384
pad: 1
kernel_size: 3
weight_filler {
type: "gaussian"
std: 0.01
}
bias_filler {
type: "constant"
value: 0
}
}
}
layer {
name: "relu3"
type: "ReLU"
bottom: "conv3"
top: "conv3"
}
layer {
name: "conv4"
type: "Convolution"
bottom: "conv3"
top: "conv4"
param {
lr_mult: 1
decay_mult: 1
}
param {
lr_mult: 2
decay_mult: 0
}
convolution_param {
num_output: 384
pad: 1
kernel_size: 3
group: 2
weight_filler {
type: "gaussian"
std: 0.01
}
bias_filler {
type: "constant"
value: 0.1
}
}
}
layer {
name: "relu4"
type: "ReLU"
bottom: "conv4"
top: "conv4"
}
layer {
name: "conv5"
type: "Convolution"
bottom: "conv4"
top: "conv5"
param {
lr_mult: 1
decay_mult: 1
}
param {
lr_mult: 2
decay_mult: 0
}
convolution_param {
num_output: 64
pad: 1
kernel_size: 3
group: 2
weight_filler {
type: "gaussian"
std: 0.01
}
bias_filler {
type: "constant"
value: 0.1
}
}
}
layer {
name: "relu5"
type: "ReLU"
bottom: "conv5"
top: "conv5"
}
layer {
name: "conv5.2"
type: "Convolution"
bottom: "conv5"
top: "conv5.2"
param {
lr_mult: 1
decay_mult: 1
}
param {
lr_mult: 2
decay_mult: 0
}
convolution_param {
num_output: 64
pad: 1
kernel_size: 3
group: 2
weight_filler {
type: "gaussian"
std: 0.01
}
bias_filler {
type: "constant"
value: 0.1
}
}
}
layer {
name: "relu5.2"
type: "ReLU"
bottom: "conv5.2"
top: "conv5.2"
}
layer {
name: "conv5.3"
type: "Convolution"
bottom: "conv5.2"
top: "conv5.3"
param {
lr_mult: 1
decay_mult: 1
}
param {
lr_mult: 2
decay_mult: 0
}
convolution_param {
num_output: 64
pad: 1
kernel_size: 3
group: 2
weight_filler {
type: "gaussian"
std: 0.01
}
bias_filler {
type: "constant"
value: 0.1
}
}
}
layer {
name: "relu5.3"
type: "ReLU"
bottom: "conv5.3"
top: "conv5.3"
}
layer {
name: "conv5.4"
type: "Convolution"
bottom: "conv5.3"
top: "conv5.4"
param {
lr_mult: 1
decay_mult: 1
}
param {
lr_mult: 2
decay_mult: 0
}
convolution_param {
num_output: 64
pad: 1
kernel_size: 3
group: 2
weight_filler {
type: "gaussian"
std: 0.01
}
bias_filler {
type: "constant"
value: 0.1
}
}
}
layer {
name: "relu5.4"
type: "ReLU"
bottom: "conv5.4"
top: "conv5.4"
}
layer {
name: "pool5"
type: "Pooling"
bottom: "conv5.4"
top: "pool5"
pooling_param {
pool: MAX
kernel_size: 3
stride: 2
}
}
layer {
name: "fc6"
type: "InnerProduct"
bottom: "pool5"
top: "fc6"
param {
lr_mult: 1
decay_mult: 1
}
param {
lr_mult: 2
decay_mult: 0
}
inner_product_param {
num_output: 4096
weight_filler {
type: "gaussian"
std: 0.005
}
bias_filler {
type: "constant"
value: 0.1
}
}
}
layer {
name: "relu6"
type: "ReLU"
bottom: "fc6"
top: "fc6"
}
layer {
name: "drop6"
type: "Dropout"
bottom: "fc6"
top: "fc6"
dropout_param {
dropout_ratio: 0.5
}
}
layer {
name: "fc7"
type: "InnerProduct"
bottom: "fc6"
top: "fc7"
param {
lr_mult: 1
decay_mult: 1
}
param {
lr_mult: 2
decay_mult: 0
}
inner_product_param {
num_output: 4096
weight_filler {
type: "gaussian"
std: 0.005
}
bias_filler {
type: "constant"
value: 0.1
}
}
}
layer {
name: "relu7"
type: "ReLU"
bottom: "fc7"
top: "fc7"
}
layer {
name: "drop7"
type: "Dropout"
bottom: "fc7"
top: "fc7"
dropout_param {
dropout_ratio: 0.5
}
}
layer {
name: "fc8"
type: "InnerProduct"
bottom: "fc7"
top: "fc8"
param {
lr_mult: 1
decay_mult: 1
}
param {
lr_mult: 2
decay_mult: 0
}
inner_product_param {
num_output: 196
weight_filler {
type: "gaussian"
std: 0.01
}
bias_filler {
type: "constant"
value: 0
}
}
}
layer {
name: "accuracy"
type: "Accuracy"
bottom: "fc8"
bottom: "label"
top: "accuracy"
include {
phase: TEST
}
}
layer {
name: "loss"
type: "SoftmaxWithLoss"
bottom: "fc8"
bottom: "label"
top: "loss"
}
I0412 12:48:32.792325  6895 layer_factory.hpp:77] Creating layer val-data
I0412 12:48:32.793843  6895 db_lmdb.cpp:35] Opened lmdb /mnt/bigdisk/DIGITS-MAN-2/digits/jobs/20210407-214532-d396/val_db
I0412 12:48:32.794049  6895 net.cpp:84] Creating Layer val-data
I0412 12:48:32.794057  6895 net.cpp:380] val-data -> data
I0412 12:48:32.794065  6895 net.cpp:380] val-data -> label
I0412 12:48:32.794071  6895 data_transformer.cpp:25] Loading mean file from: /mnt/bigdisk/DIGITS-MAN-2/digits/jobs/20210407-214532-d396/mean.binaryproto
I0412 12:48:32.798063  6895 data_layer.cpp:45] output data size: 32,3,227,227
I0412 12:48:32.830011  6895 net.cpp:122] Setting up val-data
I0412 12:48:32.830031  6895 net.cpp:129] Top shape: 32 3 227 227 (4946784)
I0412 12:48:32.830036  6895 net.cpp:129] Top shape: 32 (32)
I0412 12:48:32.830039  6895 net.cpp:137] Memory required for data: 19787264
I0412 12:48:32.830046  6895 layer_factory.hpp:77] Creating layer label_val-data_1_split
I0412 12:48:32.830057  6895 net.cpp:84] Creating Layer label_val-data_1_split
I0412 12:48:32.830062  6895 net.cpp:406] label_val-data_1_split <- label
I0412 12:48:32.830068  6895 net.cpp:380] label_val-data_1_split -> label_val-data_1_split_0
I0412 12:48:32.830077  6895 net.cpp:380] label_val-data_1_split -> label_val-data_1_split_1
I0412 12:48:32.830121  6895 net.cpp:122] Setting up label_val-data_1_split
I0412 12:48:32.830125  6895 net.cpp:129] Top shape: 32 (32)
I0412 12:48:32.830129  6895 net.cpp:129] Top shape: 32 (32)
I0412 12:48:32.830149  6895 net.cpp:137] Memory required for data: 19787520
I0412 12:48:32.830153  6895 layer_factory.hpp:77] Creating layer conv1
I0412 12:48:32.830164  6895 net.cpp:84] Creating Layer conv1
I0412 12:48:32.830168  6895 net.cpp:406] conv1 <- data
I0412 12:48:32.830173  6895 net.cpp:380] conv1 -> conv1
I0412 12:48:32.832204  6895 net.cpp:122] Setting up conv1
I0412 12:48:32.832216  6895 net.cpp:129] Top shape: 32 96 55 55 (9292800)
I0412 12:48:32.832219  6895 net.cpp:137] Memory required for data: 56958720
I0412 12:48:32.832228  6895 layer_factory.hpp:77] Creating layer relu1
I0412 12:48:32.832235  6895 net.cpp:84] Creating Layer relu1
I0412 12:48:32.832238  6895 net.cpp:406] relu1 <- conv1
I0412 12:48:32.832243  6895 net.cpp:367] relu1 -> conv1 (in-place)
I0412 12:48:32.832870  6895 net.cpp:122] Setting up relu1
I0412 12:48:32.832878  6895 net.cpp:129] Top shape: 32 96 55 55 (9292800)
I0412 12:48:32.832881  6895 net.cpp:137] Memory required for data: 94129920
I0412 12:48:32.832885  6895 layer_factory.hpp:77] Creating layer norm1
I0412 12:48:32.832893  6895 net.cpp:84] Creating Layer norm1
I0412 12:48:32.832896  6895 net.cpp:406] norm1 <- conv1
I0412 12:48:32.832901  6895 net.cpp:380] norm1 -> norm1
I0412 12:48:32.834375  6895 net.cpp:122] Setting up norm1
I0412 12:48:32.834386  6895 net.cpp:129] Top shape: 32 96 55 55 (9292800)
I0412 12:48:32.834389  6895 net.cpp:137] Memory required for data: 131301120
I0412 12:48:32.834393  6895 layer_factory.hpp:77] Creating layer pool1
I0412 12:48:32.834400  6895 net.cpp:84] Creating Layer pool1
I0412 12:48:32.834403  6895 net.cpp:406] pool1 <- norm1
I0412 12:48:32.834409  6895 net.cpp:380] pool1 -> pool1
I0412 12:48:32.834439  6895 net.cpp:122] Setting up pool1
I0412 12:48:32.834443  6895 net.cpp:129] Top shape: 32 96 27 27 (2239488)
I0412 12:48:32.834446  6895 net.cpp:137] Memory required for data: 140259072
I0412 12:48:32.834450  6895 layer_factory.hpp:77] Creating layer conv2
I0412 12:48:32.834457  6895 net.cpp:84] Creating Layer conv2
I0412 12:48:32.834460  6895 net.cpp:406] conv2 <- pool1
I0412 12:48:32.834465  6895 net.cpp:380] conv2 -> conv2
I0412 12:48:32.843268  6895 net.cpp:122] Setting up conv2
I0412 12:48:32.843281  6895 net.cpp:129] Top shape: 32 256 27 27 (5971968)
I0412 12:48:32.843284  6895 net.cpp:137] Memory required for data: 164146944
I0412 12:48:32.843293  6895 layer_factory.hpp:77] Creating layer relu2
I0412 12:48:32.843299  6895 net.cpp:84] Creating Layer relu2
I0412 12:48:32.843303  6895 net.cpp:406] relu2 <- conv2
I0412 12:48:32.843312  6895 net.cpp:367] relu2 -> conv2 (in-place)
I0412 12:48:32.843817  6895 net.cpp:122] Setting up relu2
I0412 12:48:32.843827  6895 net.cpp:129] Top shape: 32 256 27 27 (5971968)
I0412 12:48:32.843830  6895 net.cpp:137] Memory required for data: 188034816
I0412 12:48:32.843833  6895 layer_factory.hpp:77] Creating layer norm2
I0412 12:48:32.843843  6895 net.cpp:84] Creating Layer norm2
I0412 12:48:32.843847  6895 net.cpp:406] norm2 <- conv2
I0412 12:48:32.843853  6895 net.cpp:380] norm2 -> norm2
I0412 12:48:32.844216  6895 net.cpp:122] Setting up norm2
I0412 12:48:32.844225  6895 net.cpp:129] Top shape: 32 256 27 27 (5971968)
I0412 12:48:32.844228  6895 net.cpp:137] Memory required for data: 211922688
I0412 12:48:32.844233  6895 layer_factory.hpp:77] Creating layer pool2
I0412 12:48:32.844238  6895 net.cpp:84] Creating Layer pool2
I0412 12:48:32.844241  6895 net.cpp:406] pool2 <- norm2
I0412 12:48:32.844249  6895 net.cpp:380] pool2 -> pool2
I0412 12:48:32.844277  6895 net.cpp:122] Setting up pool2
I0412 12:48:32.844282  6895 net.cpp:129] Top shape: 32 256 13 13 (1384448)
I0412 12:48:32.844285  6895 net.cpp:137] Memory required for data: 217460480
I0412 12:48:32.844288  6895 layer_factory.hpp:77] Creating layer conv3
I0412 12:48:32.844300  6895 net.cpp:84] Creating Layer conv3
I0412 12:48:32.844302  6895 net.cpp:406] conv3 <- pool2
I0412 12:48:32.844307  6895 net.cpp:380] conv3 -> conv3
I0412 12:48:32.855630  6895 net.cpp:122] Setting up conv3
I0412 12:48:32.855648  6895 net.cpp:129] Top shape: 32 384 13 13 (2076672)
I0412 12:48:32.855669  6895 net.cpp:137] Memory required for data: 225767168
I0412 12:48:32.855680  6895 layer_factory.hpp:77] Creating layer relu3
I0412 12:48:32.855688  6895 net.cpp:84] Creating Layer relu3
I0412 12:48:32.855692  6895 net.cpp:406] relu3 <- conv3
I0412 12:48:32.855698  6895 net.cpp:367] relu3 -> conv3 (in-place)
I0412 12:48:32.856218  6895 net.cpp:122] Setting up relu3
I0412 12:48:32.856228  6895 net.cpp:129] Top shape: 32 384 13 13 (2076672)
I0412 12:48:32.856231  6895 net.cpp:137] Memory required for data: 234073856
I0412 12:48:32.856235  6895 layer_factory.hpp:77] Creating layer conv4
I0412 12:48:32.856246  6895 net.cpp:84] Creating Layer conv4
I0412 12:48:32.856251  6895 net.cpp:406] conv4 <- conv3
I0412 12:48:32.856256  6895 net.cpp:380] conv4 -> conv4
I0412 12:48:32.865684  6895 net.cpp:122] Setting up conv4
I0412 12:48:32.865697  6895 net.cpp:129] Top shape: 32 384 13 13 (2076672)
I0412 12:48:32.865700  6895 net.cpp:137] Memory required for data: 242380544
I0412 12:48:32.865707  6895 layer_factory.hpp:77] Creating layer relu4
I0412 12:48:32.865715  6895 net.cpp:84] Creating Layer relu4
I0412 12:48:32.865720  6895 net.cpp:406] relu4 <- conv4
I0412 12:48:32.865725  6895 net.cpp:367] relu4 -> conv4 (in-place)
I0412 12:48:32.866235  6895 net.cpp:122] Setting up relu4
I0412 12:48:32.866245  6895 net.cpp:129] Top shape: 32 384 13 13 (2076672)
I0412 12:48:32.866247  6895 net.cpp:137] Memory required for data: 250687232
I0412 12:48:32.866251  6895 layer_factory.hpp:77] Creating layer conv5
I0412 12:48:32.866261  6895 net.cpp:84] Creating Layer conv5
I0412 12:48:32.866264  6895 net.cpp:406] conv5 <- conv4
I0412 12:48:32.866272  6895 net.cpp:380] conv5 -> conv5
I0412 12:48:32.871418  6895 net.cpp:122] Setting up conv5
I0412 12:48:32.871430  6895 net.cpp:129] Top shape: 32 64 13 13 (346112)
I0412 12:48:32.871433  6895 net.cpp:137] Memory required for data: 252071680
I0412 12:48:32.871445  6895 layer_factory.hpp:77] Creating layer relu5
I0412 12:48:32.871451  6895 net.cpp:84] Creating Layer relu5
I0412 12:48:32.871456  6895 net.cpp:406] relu5 <- conv5
I0412 12:48:32.871462  6895 net.cpp:367] relu5 -> conv5 (in-place)
I0412 12:48:32.871973  6895 net.cpp:122] Setting up relu5
I0412 12:48:32.871982  6895 net.cpp:129] Top shape: 32 64 13 13 (346112)
I0412 12:48:32.871985  6895 net.cpp:137] Memory required for data: 253456128
I0412 12:48:32.871989  6895 layer_factory.hpp:77] Creating layer conv5.2
I0412 12:48:32.872004  6895 net.cpp:84] Creating Layer conv5.2
I0412 12:48:32.872006  6895 net.cpp:406] conv5.2 <- conv5
I0412 12:48:32.872012  6895 net.cpp:380] conv5.2 -> conv5.2
I0412 12:48:32.876181  6895 net.cpp:122] Setting up conv5.2
I0412 12:48:32.876192  6895 net.cpp:129] Top shape: 32 64 13 13 (346112)
I0412 12:48:32.876196  6895 net.cpp:137] Memory required for data: 254840576
I0412 12:48:32.876204  6895 layer_factory.hpp:77] Creating layer relu5.2
I0412 12:48:32.876211  6895 net.cpp:84] Creating Layer relu5.2
I0412 12:48:32.876215  6895 net.cpp:406] relu5.2 <- conv5.2
I0412 12:48:32.876221  6895 net.cpp:367] relu5.2 -> conv5.2 (in-place)
I0412 12:48:32.876565  6895 net.cpp:122] Setting up relu5.2
I0412 12:48:32.876574  6895 net.cpp:129] Top shape: 32 64 13 13 (346112)
I0412 12:48:32.876578  6895 net.cpp:137] Memory required for data: 256225024
I0412 12:48:32.876581  6895 layer_factory.hpp:77] Creating layer conv5.3
I0412 12:48:32.876591  6895 net.cpp:84] Creating Layer conv5.3
I0412 12:48:32.876595  6895 net.cpp:406] conv5.3 <- conv5.2
I0412 12:48:32.876600  6895 net.cpp:380] conv5.3 -> conv5.3
I0412 12:48:32.881510  6895 net.cpp:122] Setting up conv5.3
I0412 12:48:32.881520  6895 net.cpp:129] Top shape: 32 64 13 13 (346112)
I0412 12:48:32.881523  6895 net.cpp:137] Memory required for data: 257609472
I0412 12:48:32.881531  6895 layer_factory.hpp:77] Creating layer relu5.3
I0412 12:48:32.881536  6895 net.cpp:84] Creating Layer relu5.3
I0412 12:48:32.881539  6895 net.cpp:406] relu5.3 <- conv5.3
I0412 12:48:32.881546  6895 net.cpp:367] relu5.3 -> conv5.3 (in-place)
I0412 12:48:32.883091  6895 net.cpp:122] Setting up relu5.3
I0412 12:48:32.883117  6895 net.cpp:129] Top shape: 32 64 13 13 (346112)
I0412 12:48:32.883121  6895 net.cpp:137] Memory required for data: 258993920
I0412 12:48:32.883124  6895 layer_factory.hpp:77] Creating layer conv5.4
I0412 12:48:32.883136  6895 net.cpp:84] Creating Layer conv5.4
I0412 12:48:32.883141  6895 net.cpp:406] conv5.4 <- conv5.3
I0412 12:48:32.883147  6895 net.cpp:380] conv5.4 -> conv5.4
I0412 12:48:32.886323  6895 net.cpp:122] Setting up conv5.4
I0412 12:48:32.886333  6895 net.cpp:129] Top shape: 32 64 13 13 (346112)
I0412 12:48:32.886337  6895 net.cpp:137] Memory required for data: 260378368
I0412 12:48:32.886343  6895 layer_factory.hpp:77] Creating layer relu5.4
I0412 12:48:32.886349  6895 net.cpp:84] Creating Layer relu5.4
I0412 12:48:32.886353  6895 net.cpp:406] relu5.4 <- conv5.4
I0412 12:48:32.886359  6895 net.cpp:367] relu5.4 -> conv5.4 (in-place)
I0412 12:48:32.886857  6895 net.cpp:122] Setting up relu5.4
I0412 12:48:32.886868  6895 net.cpp:129] Top shape: 32 64 13 13 (346112)
I0412 12:48:32.886870  6895 net.cpp:137] Memory required for data: 261762816
I0412 12:48:32.886874  6895 layer_factory.hpp:77] Creating layer pool5
I0412 12:48:32.886880  6895 net.cpp:84] Creating Layer pool5
I0412 12:48:32.886884  6895 net.cpp:406] pool5 <- conv5.4
I0412 12:48:32.886890  6895 net.cpp:380] pool5 -> pool5
I0412 12:48:32.886932  6895 net.cpp:122] Setting up pool5
I0412 12:48:32.886938  6895 net.cpp:129] Top shape: 32 64 6 6 (73728)
I0412 12:48:32.886941  6895 net.cpp:137] Memory required for data: 262057728
I0412 12:48:32.886945  6895 layer_factory.hpp:77] Creating layer fc6
I0412 12:48:32.886951  6895 net.cpp:84] Creating Layer fc6
I0412 12:48:32.886955  6895 net.cpp:406] fc6 <- pool5
I0412 12:48:32.886960  6895 net.cpp:380] fc6 -> fc6
I0412 12:48:32.976459  6895 net.cpp:122] Setting up fc6
I0412 12:48:32.976480  6895 net.cpp:129] Top shape: 32 4096 (131072)
I0412 12:48:32.976483  6895 net.cpp:137] Memory required for data: 262582016
I0412 12:48:32.976495  6895 layer_factory.hpp:77] Creating layer relu6
I0412 12:48:32.976505  6895 net.cpp:84] Creating Layer relu6
I0412 12:48:32.976511  6895 net.cpp:406] relu6 <- fc6
I0412 12:48:32.976516  6895 net.cpp:367] relu6 -> fc6 (in-place)
I0412 12:48:32.976923  6895 net.cpp:122] Setting up relu6
I0412 12:48:32.976931  6895 net.cpp:129] Top shape: 32 4096 (131072)
I0412 12:48:32.976934  6895 net.cpp:137] Memory required for data: 263106304
I0412 12:48:32.976938  6895 layer_factory.hpp:77] Creating layer drop6
I0412 12:48:32.976944  6895 net.cpp:84] Creating Layer drop6
I0412 12:48:32.976948  6895 net.cpp:406] drop6 <- fc6
I0412 12:48:32.976953  6895 net.cpp:367] drop6 -> fc6 (in-place)
I0412 12:48:32.976977  6895 net.cpp:122] Setting up drop6
I0412 12:48:32.976982  6895 net.cpp:129] Top shape: 32 4096 (131072)
I0412 12:48:32.976985  6895 net.cpp:137] Memory required for data: 263630592
I0412 12:48:32.976989  6895 layer_factory.hpp:77] Creating layer fc7
I0412 12:48:32.976996  6895 net.cpp:84] Creating Layer fc7
I0412 12:48:32.976999  6895 net.cpp:406] fc7 <- fc6
I0412 12:48:32.977005  6895 net.cpp:380] fc7 -> fc7
I0412 12:48:33.135601  6895 net.cpp:122] Setting up fc7
I0412 12:48:33.135623  6895 net.cpp:129] Top shape: 32 4096 (131072)
I0412 12:48:33.135627  6895 net.cpp:137] Memory required for data: 264154880
I0412 12:48:33.135637  6895 layer_factory.hpp:77] Creating layer relu7
I0412 12:48:33.135644  6895 net.cpp:84] Creating Layer relu7
I0412 12:48:33.135648  6895 net.cpp:406] relu7 <- fc7
I0412 12:48:33.135655  6895 net.cpp:367] relu7 -> fc7 (in-place)
I0412 12:48:33.136323  6895 net.cpp:122] Setting up relu7
I0412 12:48:33.136333  6895 net.cpp:129] Top shape: 32 4096 (131072)
I0412 12:48:33.136337  6895 net.cpp:137] Memory required for data: 264679168
I0412 12:48:33.136340  6895 layer_factory.hpp:77] Creating layer drop7
I0412 12:48:33.136346  6895 net.cpp:84] Creating Layer drop7
I0412 12:48:33.136350  6895 net.cpp:406] drop7 <- fc7
I0412 12:48:33.136356  6895 net.cpp:367] drop7 -> fc7 (in-place)
I0412 12:48:33.136381  6895 net.cpp:122] Setting up drop7
I0412 12:48:33.136405  6895 net.cpp:129] Top shape: 32 4096 (131072)
I0412 12:48:33.136409  6895 net.cpp:137] Memory required for data: 265203456
I0412 12:48:33.136412  6895 layer_factory.hpp:77] Creating layer fc8
I0412 12:48:33.136420  6895 net.cpp:84] Creating Layer fc8
I0412 12:48:33.136423  6895 net.cpp:406] fc8 <- fc7
I0412 12:48:33.136430  6895 net.cpp:380] fc8 -> fc8
I0412 12:48:33.144217  6895 net.cpp:122] Setting up fc8
I0412 12:48:33.144228  6895 net.cpp:129] Top shape: 32 196 (6272)
I0412 12:48:33.144232  6895 net.cpp:137] Memory required for data: 265228544
I0412 12:48:33.144238  6895 layer_factory.hpp:77] Creating layer fc8_fc8_0_split
I0412 12:48:33.144246  6895 net.cpp:84] Creating Layer fc8_fc8_0_split
I0412 12:48:33.144250  6895 net.cpp:406] fc8_fc8_0_split <- fc8
I0412 12:48:33.144255  6895 net.cpp:380] fc8_fc8_0_split -> fc8_fc8_0_split_0
I0412 12:48:33.144263  6895 net.cpp:380] fc8_fc8_0_split -> fc8_fc8_0_split_1
I0412 12:48:33.144297  6895 net.cpp:122] Setting up fc8_fc8_0_split
I0412 12:48:33.144301  6895 net.cpp:129] Top shape: 32 196 (6272)
I0412 12:48:33.144305  6895 net.cpp:129] Top shape: 32 196 (6272)
I0412 12:48:33.144309  6895 net.cpp:137] Memory required for data: 265278720
I0412 12:48:33.144311  6895 layer_factory.hpp:77] Creating layer accuracy
I0412 12:48:33.144317  6895 net.cpp:84] Creating Layer accuracy
I0412 12:48:33.144321  6895 net.cpp:406] accuracy <- fc8_fc8_0_split_0
I0412 12:48:33.144325  6895 net.cpp:406] accuracy <- label_val-data_1_split_0
I0412 12:48:33.144331  6895 net.cpp:380] accuracy -> accuracy
…
