…
I0409 21:21:02.853577 25438 net.cpp:294] The NetState phase (0) differed from the phase (1) specified by a rule in layer accuracy
I0409 21:21:02.853701 25438 net.cpp:51] Initializing net from parameters:
state {
phase: TRAIN
level: 0
stage: ""
}
layer {
name: "train-data"
type: "Data"
top: "data"
top: "label"
include {
phase: TRAIN
}
transform_param {
mirror: true
crop_size: 227
mean_file: "/mnt/bigdisk/DIGITS-MAN-2/digits/jobs/20210407-214532-d396/mean.binaryproto"
}
data_param {
source: "/mnt/bigdisk/DIGITS-MAN-2/digits/jobs/20210407-214532-d396/train_db"
batch_size: 128
backend: LMDB
}
}
layer {
name: "conv1"
type: "Convolution"
bottom: "data"
top: "conv1"
param {
lr_mult: 1
decay_mult: 1
}
param {
lr_mult: 2
decay_mult: 0
}
convolution_param {
num_output: 96
kernel_size: 11
stride: 4
weight_filler {
type: "gaussian"
std: 0.01
}
bias_filler {
type: "constant"
value: 0
}
}
}
layer {
name: "relu1"
type: "ReLU"
bottom: "conv1"
top: "conv1"
}
layer {
name: "norm1"
type: "LRN"
bottom: "conv1"
top: "norm1"
lrn_param {
local_size: 5
alpha: 0.0001
beta: 0.75
}
}
layer {
name: "pool1"
type: "Pooling"
bottom: "norm1"
top: "pool1"
pooling_param {
pool: MAX
kernel_size: 3
stride: 2
}
}
layer {
name: "conv2"
type: "Convolution"
bottom: "pool1"
top: "conv2"
param {
lr_mult: 1
decay_mult: 1
}
param {
lr_mult: 2
decay_mult: 0
}
convolution_param {
num_output: 256
pad: 2
kernel_size: 5
group: 2
weight_filler {
type: "gaussian"
std: 0.01
}
bias_filler {
type: "constant"
value: 0.1
}
}
}
layer {
name: "relu2"
type: "ReLU"
bottom: "conv2"
top: "conv2"
}
layer {
name: "norm2"
type: "LRN"
bottom: "conv2"
top: "norm2"
lrn_param {
local_size: 5
alpha: 0.0001
beta: 0.75
}
}
layer {
name: "pool2"
type: "Pooling"
bottom: "norm2"
top: "pool2"
pooling_param {
pool: MAX
kernel_size: 3
stride: 2
}
}
layer {
name: "conv3"
type: "Convolution"
bottom: "pool2"
top: "conv3"
param {
lr_mult: 1
decay_mult: 1
}
param {
lr_mult: 2
decay_mult: 0
}
convolution_param {
num_output: 384
pad: 1
kernel_size: 3
weight_filler {
type: "gaussian"
std: 0.01
}
bias_filler {
type: "constant"
value: 0
}
}
}
layer {
name: "relu3"
type: "ReLU"
bottom: "conv3"
top: "conv3"
}
layer {
name: "conv4"
type: "Convolution"
bottom: "conv3"
top: "conv4"
param {
lr_mult: 1
decay_mult: 1
}
param {
lr_mult: 2
decay_mult: 0
}
convolution_param {
num_output: 384
pad: 1
kernel_size: 3
group: 2
weight_filler {
type: "gaussian"
std: 0.01
}
bias_filler {
type: "constant"
value: 0.1
}
}
}
layer {
name: "relu4"
type: "ReLU"
bottom: "conv4"
top: "conv4"
}
layer {
name: "conv5"
type: "Convolution"
bottom: "conv4"
top: "conv5"
param {
lr_mult: 1
decay_mult: 1
}
param {
lr_mult: 2
decay_mult: 0
}
convolution_param {
num_output: 256
pad: 1
kernel_size: 3
group: 2
weight_filler {
type: "gaussian"
std: 0.01
}
bias_filler {
type: "constant"
value: 0.1
}
}
}
layer {
name: "relu5"
type: "ReLU"
bottom: "conv5"
top: "conv5"
}
layer {
name: "pool5"
type: "Pooling"
bottom: "conv5"
top: "pool5"
pooling_param {
pool: MAX
kernel_size: 3
stride: 2
}
}
layer {
name: "fc6"
type: "InnerProduct"
bottom: "pool5"
top: "fc6"
param {
lr_mult: 1
decay_mult: 1
}
param {
lr_mult: 2
decay_mult: 0
}
inner_product_param {
num_output: 8192
weight_filler {
type: "gaussian"
std: 0.005
}
bias_filler {
type: "constant"
value: 0.1
}
}
}
layer {
name: "relu6"
type: "ReLU"
bottom: "fc6"
top: "fc6"
}
layer {
name: "drop6"
type: "Dropout"
bottom: "fc6"
top: "fc6"
dropout_param {
dropout_ratio: 0.5
}
}
layer {
name: "fc8"
type: "InnerProduct"
bottom: "fc6"
top: "fc8"
param {
lr_mult: 1
decay_mult: 1
}
param {
lr_mult: 2
decay_mult: 0
}
inner_product_param {
num_output: 196
weight_filler {
type: "gaussian"
std: 0.01
}
bias_filler {
type: "constant"
value: 0
}
}
}
layer {
name: "loss"
type: "SoftmaxWithLoss"
bottom: "fc8"
bottom: "label"
top: "loss"
}
I0409 21:21:02.853785 25438 layer_factory.hpp:77] Creating layer train-data
I0409 21:21:02.855310 25438 db_lmdb.cpp:35] Opened lmdb /mnt/bigdisk/DIGITS-MAN-2/digits/jobs/20210407-214532-d396/train_db
I0409 21:21:02.855517 25438 net.cpp:84] Creating Layer train-data
I0409 21:21:02.855530 25438 net.cpp:380] train-data -> data
I0409 21:21:02.855548 25438 net.cpp:380] train-data -> label
I0409 21:21:02.855558 25438 data_transformer.cpp:25] Loading mean file from: /mnt/bigdisk/DIGITS-MAN-2/digits/jobs/20210407-214532-d396/mean.binaryproto
I0409 21:21:02.860093 25438 data_layer.cpp:45] output data size: 128,3,227,227
I0409 21:21:02.991976 25438 net.cpp:122] Setting up train-data
I0409 21:21:02.991999 25438 net.cpp:129] Top shape: 128 3 227 227 (19787136)
I0409 21:21:02.992005 25438 net.cpp:129] Top shape: 128 (128)
I0409 21:21:02.992009 25438 net.cpp:137] Memory required for data: 79149056
I0409 21:21:02.992019 25438 layer_factory.hpp:77] Creating layer conv1
I0409 21:21:02.992039 25438 net.cpp:84] Creating Layer conv1
I0409 21:21:02.992045 25438 net.cpp:406] conv1 <- data
I0409 21:21:02.992056 25438 net.cpp:380] conv1 -> conv1
I0409 21:21:03.615768 25438 net.cpp:122] Setting up conv1
I0409 21:21:03.615792 25438 net.cpp:129] Top shape: 128 96 55 55 (37171200)
I0409 21:21:03.615797 25438 net.cpp:137] Memory required for data: 227833856
I0409 21:21:03.615815 25438 layer_factory.hpp:77] Creating layer relu1
I0409 21:21:03.615826 25438 net.cpp:84] Creating Layer relu1
I0409 21:21:03.615831 25438 net.cpp:406] relu1 <- conv1
I0409 21:21:03.615837 25438 net.cpp:367] relu1 -> conv1 (in-place)
I0409 21:21:03.616125 25438 net.cpp:122] Setting up relu1
I0409 21:21:03.616134 25438 net.cpp:129] Top shape: 128 96 55 55 (37171200)
I0409 21:21:03.616138 25438 net.cpp:137] Memory required for data: 376518656
I0409 21:21:03.616143 25438 layer_factory.hpp:77] Creating layer norm1
I0409 21:21:03.616151 25438 net.cpp:84] Creating Layer norm1
I0409 21:21:03.616155 25438 net.cpp:406] norm1 <- conv1
I0409 21:21:03.616161 25438 net.cpp:380] norm1 -> norm1
I0409 21:21:03.616598 25438 net.cpp:122] Setting up norm1
I0409 21:21:03.616609 25438 net.cpp:129] Top shape: 128 96 55 55 (37171200)
I0409 21:21:03.616612 25438 net.cpp:137] Memory required for data: 525203456
I0409 21:21:03.616617 25438 layer_factory.hpp:77] Creating layer pool1
I0409 21:21:03.616626 25438 net.cpp:84] Creating Layer pool1
I0409 21:21:03.616631 25438 net.cpp:406] pool1 <- norm1
I0409 21:21:03.616636 25438 net.cpp:380] pool1 -> pool1
I0409 21:21:03.616691 25438 net.cpp:122] Setting up pool1
I0409 21:21:03.616698 25438 net.cpp:129] Top shape: 128 96 27 27 (8957952)
I0409 21:21:03.616701 25438 net.cpp:137] Memory required for data: 561035264
I0409 21:21:03.616705 25438 layer_factory.hpp:77] Creating layer conv2
I0409 21:21:03.616715 25438 net.cpp:84] Creating Layer conv2
I0409 21:21:03.616719 25438 net.cpp:406] conv2 <- pool1
I0409 21:21:03.616725 25438 net.cpp:380] conv2 -> conv2
I0409 21:21:03.623620 25438 net.cpp:122] Setting up conv2
I0409 21:21:03.623636 25438 net.cpp:129] Top shape: 128 256 27 27 (23887872)
I0409 21:21:03.623639 25438 net.cpp:137] Memory required for data: 656586752
I0409 21:21:03.623649 25438 layer_factory.hpp:77] Creating layer relu2
I0409 21:21:03.623657 25438 net.cpp:84] Creating Layer relu2
I0409 21:21:03.623662 25438 net.cpp:406] relu2 <- conv2
I0409 21:21:03.623669 25438 net.cpp:367] relu2 -> conv2 (in-place)
I0409 21:21:03.624125 25438 net.cpp:122] Setting up relu2
I0409 21:21:03.624136 25438 net.cpp:129] Top shape: 128 256 27 27 (23887872)
I0409 21:21:03.624140 25438 net.cpp:137] Memory required for data: 752138240
I0409 21:21:03.624145 25438 layer_factory.hpp:77] Creating layer norm2
I0409 21:21:03.624152 25438 net.cpp:84] Creating Layer norm2
I0409 21:21:03.624156 25438 net.cpp:406] norm2 <- conv2
I0409 21:21:03.624162 25438 net.cpp:380] norm2 -> norm2
I0409 21:21:03.624456 25438 net.cpp:122] Setting up norm2
I0409 21:21:03.624466 25438 net.cpp:129] Top shape: 128 256 27 27 (23887872)
I0409 21:21:03.624469 25438 net.cpp:137] Memory required for data: 847689728
I0409 21:21:03.624473 25438 layer_factory.hpp:77] Creating layer pool2
I0409 21:21:03.624480 25438 net.cpp:84] Creating Layer pool2
I0409 21:21:03.624485 25438 net.cpp:406] pool2 <- norm2
I0409 21:21:03.624490 25438 net.cpp:380] pool2 -> pool2
I0409 21:21:03.624516 25438 net.cpp:122] Setting up pool2
I0409 21:21:03.624522 25438 net.cpp:129] Top shape: 128 256 13 13 (5537792)
I0409 21:21:03.624526 25438 net.cpp:137] Memory required for data: 869840896
I0409 21:21:03.624529 25438 layer_factory.hpp:77] Creating layer conv3
I0409 21:21:03.624538 25438 net.cpp:84] Creating Layer conv3
I0409 21:21:03.624542 25438 net.cpp:406] conv3 <- pool2
I0409 21:21:03.624548 25438 net.cpp:380] conv3 -> conv3
I0409 21:21:03.641410 25438 net.cpp:122] Setting up conv3
I0409 21:21:03.641425 25438 net.cpp:129] Top shape: 128 384 13 13 (8306688)
I0409 21:21:03.641429 25438 net.cpp:137] Memory required for data: 903067648
I0409 21:21:03.641440 25438 layer_factory.hpp:77] Creating layer relu3
I0409 21:21:03.641449 25438 net.cpp:84] Creating Layer relu3
I0409 21:21:03.641453 25438 net.cpp:406] relu3 <- conv3
I0409 21:21:03.641460 25438 net.cpp:367] relu3 -> conv3 (in-place)
I0409 21:21:03.641896 25438 net.cpp:122] Setting up relu3
I0409 21:21:03.641907 25438 net.cpp:129] Top shape: 128 384 13 13 (8306688)
I0409 21:21:03.641911 25438 net.cpp:137] Memory required for data: 936294400
I0409 21:21:03.641916 25438 layer_factory.hpp:77] Creating layer conv4
I0409 21:21:03.641927 25438 net.cpp:84] Creating Layer conv4
I0409 21:21:03.641929 25438 net.cpp:406] conv4 <- conv3
I0409 21:21:03.641937 25438 net.cpp:380] conv4 -> conv4
I0409 21:21:03.654536 25438 net.cpp:122] Setting up conv4
I0409 21:21:03.654553 25438 net.cpp:129] Top shape: 128 384 13 13 (8306688)
I0409 21:21:03.654556 25438 net.cpp:137] Memory required for data: 969521152
I0409 21:21:03.654564 25438 layer_factory.hpp:77] Creating layer relu4
I0409 21:21:03.654575 25438 net.cpp:84] Creating Layer relu4
I0409 21:21:03.654579 25438 net.cpp:406] relu4 <- conv4
I0409 21:21:03.654587 25438 net.cpp:367] relu4 -> conv4 (in-place)
I0409 21:21:03.654923 25438 net.cpp:122] Setting up relu4
I0409 21:21:03.654932 25438 net.cpp:129] Top shape: 128 384 13 13 (8306688)
I0409 21:21:03.654935 25438 net.cpp:137] Memory required for data: 1002747904
I0409 21:21:03.654940 25438 layer_factory.hpp:77] Creating layer conv5
I0409 21:21:03.654950 25438 net.cpp:84] Creating Layer conv5
I0409 21:21:03.654954 25438 net.cpp:406] conv5 <- conv4
I0409 21:21:03.654981 25438 net.cpp:380] conv5 -> conv5
I0409 21:21:03.663396 25438 net.cpp:122] Setting up conv5
I0409 21:21:03.663410 25438 net.cpp:129] Top shape: 128 256 13 13 (5537792)
I0409 21:21:03.663414 25438 net.cpp:137] Memory required for data: 1024899072
I0409 21:21:03.663427 25438 layer_factory.hpp:77] Creating layer relu5
I0409 21:21:03.663435 25438 net.cpp:84] Creating Layer relu5
I0409 21:21:03.663439 25438 net.cpp:406] relu5 <- conv5
I0409 21:21:03.663445 25438 net.cpp:367] relu5 -> conv5 (in-place)
I0409 21:21:03.663924 25438 net.cpp:122] Setting up relu5
I0409 21:21:03.663935 25438 net.cpp:129] Top shape: 128 256 13 13 (5537792)
I0409 21:21:03.663939 25438 net.cpp:137] Memory required for data: 1047050240
I0409 21:21:03.663944 25438 layer_factory.hpp:77] Creating layer pool5
I0409 21:21:03.663951 25438 net.cpp:84] Creating Layer pool5
I0409 21:21:03.663955 25438 net.cpp:406] pool5 <- conv5
I0409 21:21:03.663961 25438 net.cpp:380] pool5 -> pool5
I0409 21:21:03.664000 25438 net.cpp:122] Setting up pool5
I0409 21:21:03.664005 25438 net.cpp:129] Top shape: 128 256 6 6 (1179648)
I0409 21:21:03.664008 25438 net.cpp:137] Memory required for data: 1051768832
I0409 21:21:03.664012 25438 layer_factory.hpp:77] Creating layer fc6
I0409 21:21:03.664023 25438 net.cpp:84] Creating Layer fc6
I0409 21:21:03.664026 25438 net.cpp:406] fc6 <- pool5
I0409 21:21:03.664032 25438 net.cpp:380] fc6 -> fc6
I0409 21:21:04.394352 25438 net.cpp:122] Setting up fc6
I0409 21:21:04.394374 25438 net.cpp:129] Top shape: 128 8192 (1048576)
I0409 21:21:04.394378 25438 net.cpp:137] Memory required for data: 1055963136
I0409 21:21:04.394388 25438 layer_factory.hpp:77] Creating layer relu6
I0409 21:21:04.394397 25438 net.cpp:84] Creating Layer relu6
I0409 21:21:04.394402 25438 net.cpp:406] relu6 <- fc6
I0409 21:21:04.394408 25438 net.cpp:367] relu6 -> fc6 (in-place)
I0409 21:21:04.395036 25438 net.cpp:122] Setting up relu6
I0409 21:21:04.395046 25438 net.cpp:129] Top shape: 128 8192 (1048576)
I0409 21:21:04.395049 25438 net.cpp:137] Memory required for data: 1060157440
I0409 21:21:04.395053 25438 layer_factory.hpp:77] Creating layer drop6
I0409 21:21:04.395059 25438 net.cpp:84] Creating Layer drop6
I0409 21:21:04.395063 25438 net.cpp:406] drop6 <- fc6
I0409 21:21:04.395069 25438 net.cpp:367] drop6 -> fc6 (in-place)
I0409 21:21:04.395097 25438 net.cpp:122] Setting up drop6
I0409 21:21:04.395103 25438 net.cpp:129] Top shape: 128 8192 (1048576)
I0409 21:21:04.395107 25438 net.cpp:137] Memory required for data: 1064351744
I0409 21:21:04.395109 25438 layer_factory.hpp:77] Creating layer fc8
I0409 21:21:04.395117 25438 net.cpp:84] Creating Layer fc8
I0409 21:21:04.395120 25438 net.cpp:406] fc8 <- fc6
I0409 21:21:04.395128 25438 net.cpp:380] fc8 -> fc8
I0409 21:21:04.410374 25438 net.cpp:122] Setting up fc8
I0409 21:21:04.410392 25438 net.cpp:129] Top shape: 128 196 (25088)
I0409 21:21:04.410395 25438 net.cpp:137] Memory required for data: 1064452096
I0409 21:21:04.410404 25438 layer_factory.hpp:77] Creating layer loss
I0409 21:21:04.410413 25438 net.cpp:84] Creating Layer loss
I0409 21:21:04.410418 25438 net.cpp:406] loss <- fc8
I0409 21:21:04.410423 25438 net.cpp:406] loss <- label
I0409 21:21:04.410429 25438 net.cpp:380] loss -> loss
I0409 21:21:04.410440 25438 layer_factory.hpp:77] Creating layer loss
…
I0409 21:21:04.440366 25438 net.cpp:294] The NetState phase (1) differed from the phase (0) specified by a rule in layer train-data
I0409 21:21:04.440697 25438 net.cpp:51] Initializing net from parameters:
state {
phase: TEST
}
layer {
name: "val-data"
type: "Data"
top: "data"
top: "label"
include {
phase: TEST
}
transform_param {
crop_size: 227
mean_file: "/mnt/bigdisk/DIGITS-MAN-2/digits/jobs/20210407-214532-d396/mean.binaryproto"
}
data_param {
source: "/mnt/bigdisk/DIGITS-MAN-2/digits/jobs/20210407-214532-d396/val_db"
batch_size: 32
backend: LMDB
}
}
layer {
name: "conv1"
type: "Convolution"
bottom: "data"
top: "conv1"
param {
lr_mult: 1
decay_mult: 1
}
param {
lr_mult: 2
decay_mult: 0
}
convolution_param {
num_output: 96
kernel_size: 11
stride: 4
weight_filler {
type: "gaussian"
std: 0.01
}
bias_filler {
type: "constant"
value: 0
}
}
}
layer {
name: "relu1"
type: "ReLU"
bottom: "conv1"
top: "conv1"
}
layer {
name: "norm1"
type: "LRN"
bottom: "conv1"
top: "norm1"
lrn_param {
local_size: 5
alpha: 0.0001
beta: 0.75
}
}
layer {
name: "pool1"
type: "Pooling"
bottom: "norm1"
top: "pool1"
pooling_param {
pool: MAX
kernel_size: 3
stride: 2
}
}
layer {
name: "conv2"
type: "Convolution"
bottom: "pool1"
top: "conv2"
param {
lr_mult: 1
decay_mult: 1
}
param {
lr_mult: 2
decay_mult: 0
}
convolution_param {
num_output: 256
pad: 2
kernel_size: 5
group: 2
weight_filler {
type: "gaussian"
std: 0.01
}
bias_filler {
type: "constant"
value: 0.1
}
}
}
layer {
name: "relu2"
type: "ReLU"
bottom: "conv2"
top: "conv2"
}
layer {
name: "norm2"
type: "LRN"
bottom: "conv2"
top: "norm2"
lrn_param {
local_size: 5
alpha: 0.0001
beta: 0.75
}
}
layer {
name: "pool2"
type: "Pooling"
bottom: "norm2"
top: "pool2"
pooling_param {
pool: MAX
kernel_size: 3
stride: 2
}
}
layer {
name: "conv3"
type: "Convolution"
bottom: "pool2"
top: "conv3"
param {
lr_mult: 1
decay_mult: 1
}
param {
lr_mult: 2
decay_mult: 0
}
convolution_param {
num_output: 384
pad: 1
kernel_size: 3
weight_filler {
type: "gaussian"
std: 0.01
}
bias_filler {
type: "constant"
value: 0
}
}
}
layer {
name: "relu3"
type: "ReLU"
bottom: "conv3"
top: "conv3"
}
layer {
name: "conv4"
type: "Convolution"
bottom: "conv3"
top: "conv4"
param {
lr_mult: 1
decay_mult: 1
}
param {
lr_mult: 2
decay_mult: 0
}
convolution_param {
num_output: 384
pad: 1
kernel_size: 3
group: 2
weight_filler {
type: "gaussian"
std: 0.01
}
bias_filler {
type: "constant"
value: 0.1
}
}
}
layer {
name: "relu4"
type: "ReLU"
bottom: "conv4"
top: "conv4"
}
layer {
name: "conv5"
type: "Convolution"
bottom: "conv4"
top: "conv5"
param {
lr_mult: 1
decay_mult: 1
}
param {
lr_mult: 2
decay_mult: 0
}
convolution_param {
num_output: 256
pad: 1
kernel_size: 3
group: 2
weight_filler {
type: "gaussian"
std: 0.01
}
bias_filler {
type: "constant"
value: 0.1
}
}
}
layer {
name: "relu5"
type: "ReLU"
bottom: "conv5"
top: "conv5"
}
layer {
name: "pool5"
type: "Pooling"
bottom: "conv5"
top: "pool5"
pooling_param {
pool: MAX
kernel_size: 3
stride: 2
}
}
layer {
name: "fc6"
type: "InnerProduct"
bottom: "pool5"
top: "fc6"
param {
lr_mult: 1
decay_mult: 1
}
param {
lr_mult: 2
decay_mult: 0
}
inner_product_param {
num_output: 8192
weight_filler {
type: "gaussian"
std: 0.005
}
bias_filler {
type: "constant"
value: 0.1
}
}
}
layer {
name: "relu6"
type: "ReLU"
bottom: "fc6"
top: "fc6"
}
layer {
name: "drop6"
type: "Dropout"
bottom: "fc6"
top: "fc6"
dropout_param {
dropout_ratio: 0.5
}
}
layer {
name: "fc8"
type: "InnerProduct"
bottom: "fc6"
top: "fc8"
param {
lr_mult: 1
decay_mult: 1
}
param {
lr_mult: 2
decay_mult: 0
}
inner_product_param {
num_output: 196
weight_filler {
type: "gaussian"
std: 0.01
}
bias_filler {
type: "constant"
value: 0
}
}
}
layer {
name: "accuracy"
type: "Accuracy"
bottom: "fc8"
bottom: "label"
top: "accuracy"
include {
phase: TEST
}
}
layer {
name: "loss"
type: "SoftmaxWithLoss"
bottom: "fc8"
bottom: "label"
top: "loss"
}
I0409 21:21:04.440924 25438 layer_factory.hpp:77] Creating layer val-data
I0409 21:21:04.866561 25438 db_lmdb.cpp:35] Opened lmdb /mnt/bigdisk/DIGITS-MAN-2/digits/jobs/20210407-214532-d396/val_db
I0409 21:21:04.867501 25438 net.cpp:84] Creating Layer val-data
I0409 21:21:04.867522 25438 net.cpp:380] val-data -> data
I0409 21:21:04.867537 25438 net.cpp:380] val-data -> label
I0409 21:21:04.867547 25438 data_transformer.cpp:25] Loading mean file from: /mnt/bigdisk/DIGITS-MAN-2/digits/jobs/20210407-214532-d396/mean.binaryproto
I0409 21:21:04.984031 25438 data_layer.cpp:45] output data size: 32,3,227,227
I0409 21:21:05.061439 25438 net.cpp:122] Setting up val-data
I0409 21:21:05.061467 25438 net.cpp:129] Top shape: 32 3 227 227 (4946784)
I0409 21:21:05.061475 25438 net.cpp:129] Top shape: 32 (32)
I0409 21:21:05.061480 25438 net.cpp:137] Memory required for data: 19787264
I0409 21:21:05.061489 25438 layer_factory.hpp:77] Creating layer label_val-data_1_split
I0409 21:21:05.061506 25438 net.cpp:84] Creating Layer label_val-data_1_split
I0409 21:21:05.061513 25438 net.cpp:406] label_val-data_1_split <- label
I0409 21:21:05.061523 25438 net.cpp:380] label_val-data_1_split -> label_val-data_1_split_0
I0409 21:21:05.061537 25438 net.cpp:380] label_val-data_1_split -> label_val-data_1_split_1
I0409 21:21:05.061605 25438 net.cpp:122] Setting up label_val-data_1_split
I0409 21:21:05.061614 25438 net.cpp:129] Top shape: 32 (32)
I0409 21:21:05.061620 25438 net.cpp:129] Top shape: 32 (32)
I0409 21:21:05.061625 25438 net.cpp:137] Memory required for data: 19787520
I0409 21:21:05.061630 25438 layer_factory.hpp:77] Creating layer conv1
I0409 21:21:05.061648 25438 net.cpp:84] Creating Layer conv1
I0409 21:21:05.061655 25438 net.cpp:406] conv1 <- data
I0409 21:21:05.061664 25438 net.cpp:380] conv1 -> conv1
I0409 21:21:05.064983 25438 net.cpp:122] Setting up conv1
I0409 21:21:05.065001 25438 net.cpp:129] Top shape: 32 96 55 55 (9292800)
I0409 21:21:05.065006 25438 net.cpp:137] Memory required for data: 56958720
I0409 21:21:05.065022 25438 layer_factory.hpp:77] Creating layer relu1
I0409 21:21:05.065032 25438 net.cpp:84] Creating Layer relu1
I0409 21:21:05.065063 25438 net.cpp:406] relu1 <- conv1
I0409 21:21:05.065073 25438 net.cpp:367] relu1 -> conv1 (in-place)
I0409 21:21:05.065785 25438 net.cpp:122] Setting up relu1
I0409 21:21:05.065800 25438 net.cpp:129] Top shape: 32 96 55 55 (9292800)
I0409 21:21:05.065805 25438 net.cpp:137] Memory required for data: 94129920
I0409 21:21:05.065811 25438 layer_factory.hpp:77] Creating layer norm1
I0409 21:21:05.065824 25438 net.cpp:84] Creating Layer norm1
I0409 21:21:05.065829 25438 net.cpp:406] norm1 <- conv1
I0409 21:21:05.065838 25438 net.cpp:380] norm1 -> norm1
I0409 21:21:05.066371 25438 net.cpp:122] Setting up norm1
I0409 21:21:05.066385 25438 net.cpp:129] Top shape: 32 96 55 55 (9292800)
I0409 21:21:05.066390 25438 net.cpp:137] Memory required for data: 131301120
I0409 21:21:05.066395 25438 layer_factory.hpp:77] Creating layer pool1
I0409 21:21:05.066406 25438 net.cpp:84] Creating Layer pool1
I0409 21:21:05.066411 25438 net.cpp:406] pool1 <- norm1
I0409 21:21:05.066419 25438 net.cpp:380] pool1 -> pool1
I0409 21:21:05.066465 25438 net.cpp:122] Setting up pool1
I0409 21:21:05.066473 25438 net.cpp:129] Top shape: 32 96 27 27 (2239488)
I0409 21:21:05.066478 25438 net.cpp:137] Memory required for data: 140259072
I0409 21:21:05.066483 25438 layer_factory.hpp:77] Creating layer conv2
I0409 21:21:05.066495 25438 net.cpp:84] Creating Layer conv2
I0409 21:21:05.066501 25438 net.cpp:406] conv2 <- pool1
I0409 21:21:05.066509 25438 net.cpp:380] conv2 -> conv2
I0409 21:21:05.078653 25438 net.cpp:122] Setting up conv2
I0409 21:21:05.078675 25438 net.cpp:129] Top shape: 32 256 27 27 (5971968)
I0409 21:21:05.078680 25438 net.cpp:137] Memory required for data: 164146944
I0409 21:21:05.078696 25438 layer_factory.hpp:77] Creating layer relu2
I0409 21:21:05.078706 25438 net.cpp:84] Creating Layer relu2
I0409 21:21:05.078711 25438 net.cpp:406] relu2 <- conv2
I0409 21:21:05.078720 25438 net.cpp:367] relu2 -> conv2 (in-place)
I0409 21:21:05.079509 25438 net.cpp:122] Setting up relu2
I0409 21:21:05.079522 25438 net.cpp:129] Top shape: 32 256 27 27 (5971968)
I0409 21:21:05.079527 25438 net.cpp:137] Memory required for data: 188034816
I0409 21:21:05.079533 25438 layer_factory.hpp:77] Creating layer norm2
I0409 21:21:05.079547 25438 net.cpp:84] Creating Layer norm2
I0409 21:21:05.079553 25438 net.cpp:406] norm2 <- conv2
I0409 21:21:05.079561 25438 net.cpp:380] norm2 -> norm2
I0409 21:21:05.093338 25438 net.cpp:122] Setting up norm2
I0409 21:21:05.093353 25438 net.cpp:129] Top shape: 32 256 27 27 (5971968)
I0409 21:21:05.093359 25438 net.cpp:137] Memory required for data: 211922688
I0409 21:21:05.093365 25438 layer_factory.hpp:77] Creating layer pool2
I0409 21:21:05.093375 25438 net.cpp:84] Creating Layer pool2
I0409 21:21:05.093380 25438 net.cpp:406] pool2 <- norm2
I0409 21:21:05.093389 25438 net.cpp:380] pool2 -> pool2
I0409 21:21:05.093438 25438 net.cpp:122] Setting up pool2
I0409 21:21:05.093447 25438 net.cpp:129] Top shape: 32 256 13 13 (1384448)
I0409 21:21:05.093451 25438 net.cpp:137] Memory required for data: 217460480
I0409 21:21:05.093456 25438 layer_factory.hpp:77] Creating layer conv3
I0409 21:21:05.093470 25438 net.cpp:84] Creating Layer conv3
I0409 21:21:05.093477 25438 net.cpp:406] conv3 <- pool2
I0409 21:21:05.093485 25438 net.cpp:380] conv3 -> conv3
I0409 21:21:05.116765 25438 net.cpp:122] Setting up conv3
I0409 21:21:05.116788 25438 net.cpp:129] Top shape: 32 384 13 13 (2076672)
I0409 21:21:05.116793 25438 net.cpp:137] Memory required for data: 225767168
I0409 21:21:05.116808 25438 layer_factory.hpp:77] Creating layer relu3
I0409 21:21:05.116818 25438 net.cpp:84] Creating Layer relu3
I0409 21:21:05.116824 25438 net.cpp:406] relu3 <- conv3
I0409 21:21:05.116837 25438 net.cpp:367] relu3 -> conv3 (in-place)
I0409 21:21:05.118856 25438 net.cpp:122] Setting up relu3
I0409 21:21:05.118870 25438 net.cpp:129] Top shape: 32 384 13 13 (2076672)
I0409 21:21:05.118875 25438 net.cpp:137] Memory required for data: 234073856
I0409 21:21:05.118880 25438 layer_factory.hpp:77] Creating layer conv4
I0409 21:21:05.118916 25438 net.cpp:84] Creating Layer conv4
I0409 21:21:05.118921 25438 net.cpp:406] conv4 <- conv3
I0409 21:21:05.118930 25438 net.cpp:380] conv4 -> conv4
I0409 21:21:05.139214 25438 net.cpp:122] Setting up conv4
I0409 21:21:05.139236 25438 net.cpp:129] Top shape: 32 384 13 13 (2076672)
I0409 21:21:05.139241 25438 net.cpp:137] Memory required for data: 242380544
I0409 21:21:05.139252 25438 layer_factory.hpp:77] Creating layer relu4
I0409 21:21:05.139261 25438 net.cpp:84] Creating Layer relu4
I0409 21:21:05.139266 25438 net.cpp:406] relu4 <- conv4
I0409 21:21:05.139273 25438 net.cpp:367] relu4 -> conv4 (in-place)
I0409 21:21:05.139930 25438 net.cpp:122] Setting up relu4
I0409 21:21:05.139942 25438 net.cpp:129] Top shape: 32 384 13 13 (2076672)
I0409 21:21:05.139946 25438 net.cpp:137] Memory required for data: 250687232
I0409 21:21:05.139951 25438 layer_factory.hpp:77] Creating layer conv5
I0409 21:21:05.139966 25438 net.cpp:84] Creating Layer conv5
I0409 21:21:05.139971 25438 net.cpp:406] conv5 <- conv4
I0409 21:21:05.139981 25438 net.cpp:380] conv5 -> conv5
I0409 21:21:05.151307 25438 net.cpp:122] Setting up conv5
I0409 21:21:05.151329 25438 net.cpp:129] Top shape: 32 256 13 13 (1384448)
I0409 21:21:05.151333 25438 net.cpp:137] Memory required for data: 256225024
I0409 21:21:05.151346 25438 layer_factory.hpp:77] Creating layer relu5
I0409 21:21:05.151355 25438 net.cpp:84] Creating Layer relu5
I0409 21:21:05.151360 25438 net.cpp:406] relu5 <- conv5
I0409 21:21:05.151368 25438 net.cpp:367] relu5 -> conv5 (in-place)
I0409 21:21:05.152001 25438 net.cpp:122] Setting up relu5
I0409 21:21:05.152014 25438 net.cpp:129] Top shape: 32 256 13 13 (1384448)
I0409 21:21:05.152017 25438 net.cpp:137] Memory required for data: 261762816
I0409 21:21:05.152022 25438 layer_factory.hpp:77] Creating layer pool5
I0409 21:21:05.152035 25438 net.cpp:84] Creating Layer pool5
I0409 21:21:05.152041 25438 net.cpp:406] pool5 <- conv5
I0409 21:21:05.152048 25438 net.cpp:380] pool5 -> pool5
I0409 21:21:05.152096 25438 net.cpp:122] Setting up pool5
I0409 21:21:05.152103 25438 net.cpp:129] Top shape: 32 256 6 6 (294912)
I0409 21:21:05.152107 25438 net.cpp:137] Memory required for data: 262942464
I0409 21:21:05.152112 25438 layer_factory.hpp:77] Creating layer fc6
I0409 21:21:05.152122 25438 net.cpp:84] Creating Layer fc6
I0409 21:21:05.152125 25438 net.cpp:406] fc6 <- pool5
I0409 21:21:05.152132 25438 net.cpp:380] fc6 -> fc6
I0409 21:21:05.927692 25438 net.cpp:122] Setting up fc6
I0409 21:21:05.927712 25438 net.cpp:129] Top shape: 32 8192 (262144)
I0409 21:21:05.927716 25438 net.cpp:137] Memory required for data: 263991040
I0409 21:21:05.927726 25438 layer_factory.hpp:77] Creating layer relu6
I0409 21:21:05.927734 25438 net.cpp:84] Creating Layer relu6
I0409 21:21:05.927739 25438 net.cpp:406] relu6 <- fc6
I0409 21:21:05.927747 25438 net.cpp:367] relu6 -> fc6 (in-place)
I0409 21:21:05.928799 25438 net.cpp:122] Setting up relu6
I0409 21:21:05.928808 25438 net.cpp:129] Top shape: 32 8192 (262144)
I0409 21:21:05.928812 25438 net.cpp:137] Memory required for data: 265039616
I0409 21:21:05.928817 25438 layer_factory.hpp:77] Creating layer drop6
I0409 21:21:05.928822 25438 net.cpp:84] Creating Layer drop6
I0409 21:21:05.928826 25438 net.cpp:406] drop6 <- fc6
I0409 21:21:05.928833 25438 net.cpp:367] drop6 -> fc6 (in-place)
I0409 21:21:05.928858 25438 net.cpp:122] Setting up drop6
I0409 21:21:05.928862 25438 net.cpp:129] Top shape: 32 8192 (262144)
I0409 21:21:05.928866 25438 net.cpp:137] Memory required for data: 266088192
I0409 21:21:05.928869 25438 layer_factory.hpp:77] Creating layer fc8
I0409 21:21:05.928877 25438 net.cpp:84] Creating Layer fc8
I0409 21:21:05.928880 25438 net.cpp:406] fc8 <- fc6
I0409 21:21:05.928887 25438 net.cpp:380] fc8 -> fc8
I0409 21:21:05.944079 25438 net.cpp:122] Setting up fc8
I0409 21:21:05.944099 25438 net.cpp:129] Top shape: 32 196 (6272)
I0409 21:21:05.944103 25438 net.cpp:137] Memory required for data: 266113280
I0409 21:21:05.944113 25438 layer_factory.hpp:77] Creating layer fc8_fc8_0_split
I0409 21:21:05.944121 25438 net.cpp:84] Creating Layer fc8_fc8_0_split
I0409 21:21:05.944144 25438 net.cpp:406] fc8_fc8_0_split <- fc8
I0409 21:21:05.944159 25438 net.cpp:380] fc8_fc8_0_split -> fc8_fc8_0_split_0
I0409 21:21:05.944170 25438 net.cpp:380] fc8_fc8_0_split -> fc8_fc8_0_split_1
I0409 21:21:05.944207 25438 net.cpp:122] Setting up fc8_fc8_0_split
I0409 21:21:05.944212 25438 net.cpp:129] Top shape: 32 196 (6272)
I0409 21:21:05.944216 25438 net.cpp:129] Top shape: 32 196 (6272)
I0409 21:21:05.944219 25438 net.cpp:137] Memory required for data: 266163456
I0409 21:21:05.944223 25438 layer_factory.hpp:77] Creating layer accuracy
I0409 21:21:05.944231 25438 net.cpp:84] Creating Layer accuracy
I0409 21:21:05.944234 25438 net.cpp:406] accuracy <- fc8_fc8_0_split_0
I0409 21:21:05.944238 25438 net.cpp:406] accuracy <- label_val-data_1_split_0
I0409 21:21:05.944243 25438 net.cpp:380] accuracy -> accuracy
…
