…
I0408 07:39:40.239462 31856 net.cpp:294] The NetState phase (0) differed from the phase (1) specified by a rule in layer accuracy
I0408 07:39:40.239603 31856 net.cpp:51] Initializing net from parameters:
state {
phase: TRAIN
level: 0
stage: ""
}
layer {
name: "train-data"
type: "Data"
top: "data"
top: "label"
include {
phase: TRAIN
}
transform_param {
mirror: true
crop_size: 227
mean_file: "/mnt/bigdisk/DIGITS-MAN-2/digits/jobs/20210407-214532-d396/mean.binaryproto"
}
data_param {
source: "/mnt/bigdisk/DIGITS-MAN-2/digits/jobs/20210407-214532-d396/train_db"
batch_size: 128
backend: LMDB
}
}
layer {
name: "conv1"
type: "Convolution"
bottom: "data"
top: "conv1"
param {
lr_mult: 1
decay_mult: 1
}
param {
lr_mult: 2
decay_mult: 0
}
convolution_param {
num_output: 96
kernel_size: 11
stride: 4
weight_filler {
type: "gaussian"
std: 0.01
}
bias_filler {
type: "constant"
value: 0
}
}
}
layer {
name: "relu1"
type: "ReLU"
bottom: "conv1"
top: "conv1"
}
layer {
name: "norm1"
type: "LRN"
bottom: "conv1"
top: "norm1"
lrn_param {
local_size: 5
alpha: 0.0001
beta: 0.75
}
}
layer {
name: "pool1"
type: "Pooling"
bottom: "norm1"
top: "pool1"
pooling_param {
pool: MAX
kernel_size: 3
stride: 2
}
}
layer {
name: "conv2"
type: "Convolution"
bottom: "pool1"
top: "conv2"
param {
lr_mult: 1
decay_mult: 1
}
param {
lr_mult: 2
decay_mult: 0
}
convolution_param {
num_output: 256
pad: 2
kernel_size: 5
group: 2
weight_filler {
type: "gaussian"
std: 0.01
}
bias_filler {
type: "constant"
value: 0.1
}
}
}
layer {
name: "relu2"
type: "ReLU"
bottom: "conv2"
top: "conv2"
}
layer {
name: "norm2"
type: "LRN"
bottom: "conv2"
top: "norm2"
lrn_param {
local_size: 5
alpha: 0.0001
beta: 0.75
}
}
layer {
name: "pool2"
type: "Pooling"
bottom: "norm2"
top: "pool2"
pooling_param {
pool: MAX
kernel_size: 3
stride: 2
}
}
layer {
name: "conv3"
type: "Convolution"
bottom: "pool2"
top: "conv3"
param {
lr_mult: 1
decay_mult: 1
}
param {
lr_mult: 2
decay_mult: 0
}
convolution_param {
num_output: 384
pad: 1
kernel_size: 3
weight_filler {
type: "gaussian"
std: 0.01
}
bias_filler {
type: "constant"
value: 0
}
}
}
layer {
name: "relu3"
type: "ReLU"
bottom: "conv3"
top: "conv3"
}
layer {
name: "conv4"
type: "Convolution"
bottom: "conv3"
top: "conv4"
param {
lr_mult: 1
decay_mult: 1
}
param {
lr_mult: 2
decay_mult: 0
}
convolution_param {
num_output: 384
pad: 1
kernel_size: 3
group: 2
weight_filler {
type: "gaussian"
std: 0.01
}
bias_filler {
type: "constant"
value: 0.1
}
}
}
layer {
name: "relu4"
type: "ReLU"
bottom: "conv4"
top: "conv4"
}
layer {
name: "conv5"
type: "Convolution"
bottom: "conv4"
top: "conv5"
param {
lr_mult: 1
decay_mult: 1
}
param {
lr_mult: 2
decay_mult: 0
}
convolution_param {
num_output: 256
pad: 1
kernel_size: 3
group: 2
weight_filler {
type: "gaussian"
std: 0.01
}
bias_filler {
type: "constant"
value: 0.1
}
}
}
layer {
name: "relu5"
type: "ReLU"
bottom: "conv5"
top: "conv5"
}
layer {
name: "pool5"
type: "Pooling"
bottom: "conv5"
top: "pool5"
pooling_param {
pool: MAX
kernel_size: 3
stride: 2
}
}
layer {
name: "fc6"
type: "InnerProduct"
bottom: "pool5"
top: "fc6"
param {
lr_mult: 1
decay_mult: 1
}
param {
lr_mult: 2
decay_mult: 0
}
inner_product_param {
num_output: 4096
weight_filler {
type: "gaussian"
std: 0.005
}
bias_filler {
type: "constant"
value: 0.1
}
}
}
layer {
name: "relu6"
type: "ReLU"
bottom: "fc6"
top: "fc6"
}
layer {
name: "drop6"
type: "Dropout"
bottom: "fc6"
top: "fc6"
dropout_param {
dropout_ratio: 0.5
}
}
layer {
name: "fc7"
type: "InnerProduct"
bottom: "fc6"
top: "fc7"
param {
lr_mult: 1
decay_mult: 1
}
param {
lr_mult: 2
decay_mult: 0
}
inner_product_param {
num_output: 4096
weight_filler {
type: "gaussian"
std: 0.005
}
bias_filler {
type: "constant"
value: 0.1
}
}
}
layer {
name: "relu7"
type: "ReLU"
bottom: "fc7"
top: "fc7"
}
layer {
name: "drop7"
type: "Dropout"
bottom: "fc7"
top: "fc7"
dropout_param {
dropout_ratio: 0.5
}
}
layer {
name: "fc8"
type: "InnerProduct"
bottom: "fc7"
top: "fc8"
param {
lr_mult: 1
decay_mult: 1
}
param {
lr_mult: 2
decay_mult: 0
}
inner_product_param {
num_output: 196
weight_filler {
type: "gaussian"
std: 0.01
}
bias_filler {
type: "constant"
value: 0
}
}
}
layer {
name: "loss"
type: "SoftmaxWithLoss"
bottom: "fc8"
bottom: "label"
top: "loss"
}
I0408 07:39:40.239688 31856 layer_factory.hpp:77] Creating layer train-data
I0408 07:39:40.241751 31856 db_lmdb.cpp:35] Opened lmdb /mnt/bigdisk/DIGITS-MAN-2/digits/jobs/20210407-214532-d396/train_db
I0408 07:39:40.241991 31856 net.cpp:84] Creating Layer train-data
I0408 07:39:40.242005 31856 net.cpp:380] train-data -> data
I0408 07:39:40.242031 31856 net.cpp:380] train-data -> label
I0408 07:39:40.242045 31856 data_transformer.cpp:25] Loading mean file from: /mnt/bigdisk/DIGITS-MAN-2/digits/jobs/20210407-214532-d396/mean.binaryproto
I0408 07:39:40.249358 31856 data_layer.cpp:45] output data size: 128,3,227,227
I0408 07:39:40.382967 31856 net.cpp:122] Setting up train-data
I0408 07:39:40.382990 31856 net.cpp:129] Top shape: 128 3 227 227 (19787136)
I0408 07:39:40.382995 31856 net.cpp:129] Top shape: 128 (128)
I0408 07:39:40.382999 31856 net.cpp:137] Memory required for data: 79149056
I0408 07:39:40.383009 31856 layer_factory.hpp:77] Creating layer conv1
I0408 07:39:40.383030 31856 net.cpp:84] Creating Layer conv1
I0408 07:39:40.383036 31856 net.cpp:406] conv1 <- data
I0408 07:39:40.383049 31856 net.cpp:380] conv1 -> conv1
I0408 07:39:40.925521 31856 net.cpp:122] Setting up conv1
I0408 07:39:40.925542 31856 net.cpp:129] Top shape: 128 96 55 55 (37171200)
I0408 07:39:40.925546 31856 net.cpp:137] Memory required for data: 227833856
I0408 07:39:40.925566 31856 layer_factory.hpp:77] Creating layer relu1
I0408 07:39:40.925576 31856 net.cpp:84] Creating Layer relu1
I0408 07:39:40.925581 31856 net.cpp:406] relu1 <- conv1
I0408 07:39:40.925586 31856 net.cpp:367] relu1 -> conv1 (in-place)
I0408 07:39:40.925873 31856 net.cpp:122] Setting up relu1
I0408 07:39:40.925881 31856 net.cpp:129] Top shape: 128 96 55 55 (37171200)
I0408 07:39:40.925884 31856 net.cpp:137] Memory required for data: 376518656
I0408 07:39:40.925889 31856 layer_factory.hpp:77] Creating layer norm1
I0408 07:39:40.925897 31856 net.cpp:84] Creating Layer norm1
I0408 07:39:40.925900 31856 net.cpp:406] norm1 <- conv1
I0408 07:39:40.925925 31856 net.cpp:380] norm1 -> norm1
I0408 07:39:40.926416 31856 net.cpp:122] Setting up norm1
I0408 07:39:40.926427 31856 net.cpp:129] Top shape: 128 96 55 55 (37171200)
I0408 07:39:40.926431 31856 net.cpp:137] Memory required for data: 525203456
I0408 07:39:40.926435 31856 layer_factory.hpp:77] Creating layer pool1
I0408 07:39:40.926442 31856 net.cpp:84] Creating Layer pool1
I0408 07:39:40.926446 31856 net.cpp:406] pool1 <- norm1
I0408 07:39:40.926452 31856 net.cpp:380] pool1 -> pool1
I0408 07:39:40.926487 31856 net.cpp:122] Setting up pool1
I0408 07:39:40.926493 31856 net.cpp:129] Top shape: 128 96 27 27 (8957952)
I0408 07:39:40.926497 31856 net.cpp:137] Memory required for data: 561035264
I0408 07:39:40.926501 31856 layer_factory.hpp:77] Creating layer conv2
I0408 07:39:40.926512 31856 net.cpp:84] Creating Layer conv2
I0408 07:39:40.926514 31856 net.cpp:406] conv2 <- pool1
I0408 07:39:40.926519 31856 net.cpp:380] conv2 -> conv2
I0408 07:39:40.933037 31856 net.cpp:122] Setting up conv2
I0408 07:39:40.933049 31856 net.cpp:129] Top shape: 128 256 27 27 (23887872)
I0408 07:39:40.933053 31856 net.cpp:137] Memory required for data: 656586752
I0408 07:39:40.933063 31856 layer_factory.hpp:77] Creating layer relu2
I0408 07:39:40.933069 31856 net.cpp:84] Creating Layer relu2
I0408 07:39:40.933073 31856 net.cpp:406] relu2 <- conv2
I0408 07:39:40.933079 31856 net.cpp:367] relu2 -> conv2 (in-place)
I0408 07:39:40.933502 31856 net.cpp:122] Setting up relu2
I0408 07:39:40.933511 31856 net.cpp:129] Top shape: 128 256 27 27 (23887872)
I0408 07:39:40.933516 31856 net.cpp:137] Memory required for data: 752138240
I0408 07:39:40.933518 31856 layer_factory.hpp:77] Creating layer norm2
I0408 07:39:40.933526 31856 net.cpp:84] Creating Layer norm2
I0408 07:39:40.933529 31856 net.cpp:406] norm2 <- conv2
I0408 07:39:40.933535 31856 net.cpp:380] norm2 -> norm2
I0408 07:39:40.933818 31856 net.cpp:122] Setting up norm2
I0408 07:39:40.933826 31856 net.cpp:129] Top shape: 128 256 27 27 (23887872)
I0408 07:39:40.933830 31856 net.cpp:137] Memory required for data: 847689728
I0408 07:39:40.933833 31856 layer_factory.hpp:77] Creating layer pool2
I0408 07:39:40.933841 31856 net.cpp:84] Creating Layer pool2
I0408 07:39:40.933845 31856 net.cpp:406] pool2 <- norm2
I0408 07:39:40.933851 31856 net.cpp:380] pool2 -> pool2
I0408 07:39:40.933876 31856 net.cpp:122] Setting up pool2
I0408 07:39:40.933881 31856 net.cpp:129] Top shape: 128 256 13 13 (5537792)
I0408 07:39:40.933884 31856 net.cpp:137] Memory required for data: 869840896
I0408 07:39:40.933887 31856 layer_factory.hpp:77] Creating layer conv3
I0408 07:39:40.933895 31856 net.cpp:84] Creating Layer conv3
I0408 07:39:40.933899 31856 net.cpp:406] conv3 <- pool2
I0408 07:39:40.933904 31856 net.cpp:380] conv3 -> conv3
I0408 07:39:40.943643 31856 net.cpp:122] Setting up conv3
I0408 07:39:40.943655 31856 net.cpp:129] Top shape: 128 384 13 13 (8306688)
I0408 07:39:40.943658 31856 net.cpp:137] Memory required for data: 903067648
I0408 07:39:40.943667 31856 layer_factory.hpp:77] Creating layer relu3
I0408 07:39:40.943675 31856 net.cpp:84] Creating Layer relu3
I0408 07:39:40.943677 31856 net.cpp:406] relu3 <- conv3
I0408 07:39:40.943682 31856 net.cpp:367] relu3 -> conv3 (in-place)
I0408 07:39:40.944100 31856 net.cpp:122] Setting up relu3
I0408 07:39:40.944109 31856 net.cpp:129] Top shape: 128 384 13 13 (8306688)
I0408 07:39:40.944113 31856 net.cpp:137] Memory required for data: 936294400
I0408 07:39:40.944116 31856 layer_factory.hpp:77] Creating layer conv4
I0408 07:39:40.944125 31856 net.cpp:84] Creating Layer conv4
I0408 07:39:40.944128 31856 net.cpp:406] conv4 <- conv3
I0408 07:39:40.944134 31856 net.cpp:380] conv4 -> conv4
I0408 07:39:40.954257 31856 net.cpp:122] Setting up conv4
I0408 07:39:40.954270 31856 net.cpp:129] Top shape: 128 384 13 13 (8306688)
I0408 07:39:40.954273 31856 net.cpp:137] Memory required for data: 969521152
I0408 07:39:40.954280 31856 layer_factory.hpp:77] Creating layer relu4
I0408 07:39:40.954288 31856 net.cpp:84] Creating Layer relu4
I0408 07:39:40.954308 31856 net.cpp:406] relu4 <- conv4
I0408 07:39:40.954313 31856 net.cpp:367] relu4 -> conv4 (in-place)
I0408 07:39:40.954648 31856 net.cpp:122] Setting up relu4
I0408 07:39:40.954655 31856 net.cpp:129] Top shape: 128 384 13 13 (8306688)
I0408 07:39:40.954658 31856 net.cpp:137] Memory required for data: 1002747904
I0408 07:39:40.954663 31856 layer_factory.hpp:77] Creating layer conv5
I0408 07:39:40.954671 31856 net.cpp:84] Creating Layer conv5
I0408 07:39:40.954675 31856 net.cpp:406] conv5 <- conv4
I0408 07:39:40.954681 31856 net.cpp:380] conv5 -> conv5
I0408 07:39:40.966033 31856 net.cpp:122] Setting up conv5
I0408 07:39:40.966045 31856 net.cpp:129] Top shape: 128 256 13 13 (5537792)
I0408 07:39:40.966049 31856 net.cpp:137] Memory required for data: 1024899072
I0408 07:39:40.966061 31856 layer_factory.hpp:77] Creating layer relu5
I0408 07:39:40.966068 31856 net.cpp:84] Creating Layer relu5
I0408 07:39:40.966073 31856 net.cpp:406] relu5 <- conv5
I0408 07:39:40.966078 31856 net.cpp:367] relu5 -> conv5 (in-place)
I0408 07:39:40.966560 31856 net.cpp:122] Setting up relu5
I0408 07:39:40.966571 31856 net.cpp:129] Top shape: 128 256 13 13 (5537792)
I0408 07:39:40.966574 31856 net.cpp:137] Memory required for data: 1047050240
I0408 07:39:40.966578 31856 layer_factory.hpp:77] Creating layer pool5
I0408 07:39:40.966584 31856 net.cpp:84] Creating Layer pool5
I0408 07:39:40.966588 31856 net.cpp:406] pool5 <- conv5
I0408 07:39:40.966595 31856 net.cpp:380] pool5 -> pool5
I0408 07:39:40.966631 31856 net.cpp:122] Setting up pool5
I0408 07:39:40.966637 31856 net.cpp:129] Top shape: 128 256 6 6 (1179648)
I0408 07:39:40.966640 31856 net.cpp:137] Memory required for data: 1051768832
I0408 07:39:40.966643 31856 layer_factory.hpp:77] Creating layer fc6
I0408 07:39:40.966655 31856 net.cpp:84] Creating Layer fc6
I0408 07:39:40.966657 31856 net.cpp:406] fc6 <- pool5
I0408 07:39:40.966662 31856 net.cpp:380] fc6 -> fc6
I0408 07:39:41.321069 31856 net.cpp:122] Setting up fc6
I0408 07:39:41.321091 31856 net.cpp:129] Top shape: 128 4096 (524288)
I0408 07:39:41.321095 31856 net.cpp:137] Memory required for data: 1053865984
I0408 07:39:41.321105 31856 layer_factory.hpp:77] Creating layer relu6
I0408 07:39:41.321115 31856 net.cpp:84] Creating Layer relu6
I0408 07:39:41.321118 31856 net.cpp:406] relu6 <- fc6
I0408 07:39:41.321125 31856 net.cpp:367] relu6 -> fc6 (in-place)
I0408 07:39:41.321755 31856 net.cpp:122] Setting up relu6
I0408 07:39:41.321765 31856 net.cpp:129] Top shape: 128 4096 (524288)
I0408 07:39:41.321768 31856 net.cpp:137] Memory required for data: 1055963136
I0408 07:39:41.321772 31856 layer_factory.hpp:77] Creating layer drop6
I0408 07:39:41.321779 31856 net.cpp:84] Creating Layer drop6
I0408 07:39:41.321784 31856 net.cpp:406] drop6 <- fc6
I0408 07:39:41.321789 31856 net.cpp:367] drop6 -> fc6 (in-place)
I0408 07:39:41.321818 31856 net.cpp:122] Setting up drop6
I0408 07:39:41.321823 31856 net.cpp:129] Top shape: 128 4096 (524288)
I0408 07:39:41.321827 31856 net.cpp:137] Memory required for data: 1058060288
I0408 07:39:41.321830 31856 layer_factory.hpp:77] Creating layer fc7
I0408 07:39:41.321839 31856 net.cpp:84] Creating Layer fc7
I0408 07:39:41.321842 31856 net.cpp:406] fc7 <- fc6
I0408 07:39:41.321847 31856 net.cpp:380] fc7 -> fc7
I0408 07:39:41.478929 31856 net.cpp:122] Setting up fc7
I0408 07:39:41.478951 31856 net.cpp:129] Top shape: 128 4096 (524288)
I0408 07:39:41.478955 31856 net.cpp:137] Memory required for data: 1060157440
I0408 07:39:41.478965 31856 layer_factory.hpp:77] Creating layer relu7
I0408 07:39:41.478974 31856 net.cpp:84] Creating Layer relu7
I0408 07:39:41.478978 31856 net.cpp:406] relu7 <- fc7
I0408 07:39:41.478984 31856 net.cpp:367] relu7 -> fc7 (in-place)
I0408 07:39:41.479599 31856 net.cpp:122] Setting up relu7
I0408 07:39:41.479609 31856 net.cpp:129] Top shape: 128 4096 (524288)
I0408 07:39:41.479612 31856 net.cpp:137] Memory required for data: 1062254592
I0408 07:39:41.479616 31856 layer_factory.hpp:77] Creating layer drop7
I0408 07:39:41.479624 31856 net.cpp:84] Creating Layer drop7
I0408 07:39:41.479645 31856 net.cpp:406] drop7 <- fc7
I0408 07:39:41.479652 31856 net.cpp:367] drop7 -> fc7 (in-place)
I0408 07:39:41.479676 31856 net.cpp:122] Setting up drop7
I0408 07:39:41.479682 31856 net.cpp:129] Top shape: 128 4096 (524288)
I0408 07:39:41.479686 31856 net.cpp:137] Memory required for data: 1064351744
I0408 07:39:41.479688 31856 layer_factory.hpp:77] Creating layer fc8
I0408 07:39:41.479697 31856 net.cpp:84] Creating Layer fc8
I0408 07:39:41.479701 31856 net.cpp:406] fc8 <- fc7
I0408 07:39:41.479707 31856 net.cpp:380] fc8 -> fc8
I0408 07:39:41.487897 31856 net.cpp:122] Setting up fc8
I0408 07:39:41.487907 31856 net.cpp:129] Top shape: 128 196 (25088)
I0408 07:39:41.487910 31856 net.cpp:137] Memory required for data: 1064452096
I0408 07:39:41.487916 31856 layer_factory.hpp:77] Creating layer loss
I0408 07:39:41.487924 31856 net.cpp:84] Creating Layer loss
I0408 07:39:41.487928 31856 net.cpp:406] loss <- fc8
I0408 07:39:41.487933 31856 net.cpp:406] loss <- label
I0408 07:39:41.487939 31856 net.cpp:380] loss -> loss
I0408 07:39:41.487948 31856 layer_factory.hpp:77] Creating layer loss
…
I0408 07:39:41.489238 31856 net.cpp:294] The NetState phase (1) differed from the phase (0) specified by a rule in layer train-data
I0408 07:39:41.489377 31856 net.cpp:51] Initializing net from parameters:
state {
phase: TEST
}
layer {
name: "val-data"
type: "Data"
top: "data"
top: "label"
include {
phase: TEST
}
transform_param {
crop_size: 227
mean_file: "/mnt/bigdisk/DIGITS-MAN-2/digits/jobs/20210407-214532-d396/mean.binaryproto"
}
data_param {
source: "/mnt/bigdisk/DIGITS-MAN-2/digits/jobs/20210407-214532-d396/val_db"
batch_size: 32
backend: LMDB
}
}
layer {
name: "conv1"
type: "Convolution"
bottom: "data"
top: "conv1"
param {
lr_mult: 1
decay_mult: 1
}
param {
lr_mult: 2
decay_mult: 0
}
convolution_param {
num_output: 96
kernel_size: 11
stride: 4
weight_filler {
type: "gaussian"
std: 0.01
}
bias_filler {
type: "constant"
value: 0
}
}
}
layer {
name: "relu1"
type: "ReLU"
bottom: "conv1"
top: "conv1"
}
layer {
name: "norm1"
type: "LRN"
bottom: "conv1"
top: "norm1"
lrn_param {
local_size: 5
alpha: 0.0001
beta: 0.75
}
}
layer {
name: "pool1"
type: "Pooling"
bottom: "norm1"
top: "pool1"
pooling_param {
pool: MAX
kernel_size: 3
stride: 2
}
}
layer {
name: "conv2"
type: "Convolution"
bottom: "pool1"
top: "conv2"
param {
lr_mult: 1
decay_mult: 1
}
param {
lr_mult: 2
decay_mult: 0
}
convolution_param {
num_output: 256
pad: 2
kernel_size: 5
group: 2
weight_filler {
type: "gaussian"
std: 0.01
}
bias_filler {
type: "constant"
value: 0.1
}
}
}
layer {
name: "relu2"
type: "ReLU"
bottom: "conv2"
top: "conv2"
}
layer {
name: "norm2"
type: "LRN"
bottom: "conv2"
top: "norm2"
lrn_param {
local_size: 5
alpha: 0.0001
beta: 0.75
}
}
layer {
name: "pool2"
type: "Pooling"
bottom: "norm2"
top: "pool2"
pooling_param {
pool: MAX
kernel_size: 3
stride: 2
}
}
layer {
name: "conv3"
type: "Convolution"
bottom: "pool2"
top: "conv3"
param {
lr_mult: 1
decay_mult: 1
}
param {
lr_mult: 2
decay_mult: 0
}
convolution_param {
num_output: 384
pad: 1
kernel_size: 3
weight_filler {
type: "gaussian"
std: 0.01
}
bias_filler {
type: "constant"
value: 0
}
}
}
layer {
name: "relu3"
type: "ReLU"
bottom: "conv3"
top: "conv3"
}
layer {
name: "conv4"
type: "Convolution"
bottom: "conv3"
top: "conv4"
param {
lr_mult: 1
decay_mult: 1
}
param {
lr_mult: 2
decay_mult: 0
}
convolution_param {
num_output: 384
pad: 1
kernel_size: 3
group: 2
weight_filler {
type: "gaussian"
std: 0.01
}
bias_filler {
type: "constant"
value: 0.1
}
}
}
layer {
name: "relu4"
type: "ReLU"
bottom: "conv4"
top: "conv4"
}
layer {
name: "conv5"
type: "Convolution"
bottom: "conv4"
top: "conv5"
param {
lr_mult: 1
decay_mult: 1
}
param {
lr_mult: 2
decay_mult: 0
}
convolution_param {
num_output: 256
pad: 1
kernel_size: 3
group: 2
weight_filler {
type: "gaussian"
std: 0.01
}
bias_filler {
type: "constant"
value: 0.1
}
}
}
layer {
name: "relu5"
type: "ReLU"
bottom: "conv5"
top: "conv5"
}
layer {
name: "pool5"
type: "Pooling"
bottom: "conv5"
top: "pool5"
pooling_param {
pool: MAX
kernel_size: 3
stride: 2
}
}
layer {
name: "fc6"
type: "InnerProduct"
bottom: "pool5"
top: "fc6"
param {
lr_mult: 1
decay_mult: 1
}
param {
lr_mult: 2
decay_mult: 0
}
inner_product_param {
num_output: 4096
weight_filler {
type: "gaussian"
std: 0.005
}
bias_filler {
type: "constant"
value: 0.1
}
}
}
layer {
name: "relu6"
type: "ReLU"
bottom: "fc6"
top: "fc6"
}
layer {
name: "drop6"
type: "Dropout"
bottom: "fc6"
top: "fc6"
dropout_param {
dropout_ratio: 0.5
}
}
layer {
name: "fc7"
type: "InnerProduct"
bottom: "fc6"
top: "fc7"
param {
lr_mult: 1
decay_mult: 1
}
param {
lr_mult: 2
decay_mult: 0
}
inner_product_param {
num_output: 4096
weight_filler {
type: "gaussian"
std: 0.005
}
bias_filler {
type: "constant"
value: 0.1
}
}
}
layer {
name: "relu7"
type: "ReLU"
bottom: "fc7"
top: "fc7"
}
layer {
name: "drop7"
type: "Dropout"
bottom: "fc7"
top: "fc7"
dropout_param {
dropout_ratio: 0.5
}
}
layer {
name: "fc8"
type: "InnerProduct"
bottom: "fc7"
top: "fc8"
param {
lr_mult: 1
decay_mult: 1
}
param {
lr_mult: 2
decay_mult: 0
}
inner_product_param {
num_output: 196
weight_filler {
type: "gaussian"
std: 0.01
}
bias_filler {
type: "constant"
value: 0
}
}
}
layer {
name: "accuracy"
type: "Accuracy"
bottom: "fc8"
bottom: "label"
top: "accuracy"
include {
phase: TEST
}
}
layer {
name: "loss"
type: "SoftmaxWithLoss"
bottom: "fc8"
bottom: "label"
top: "loss"
}
I0408 07:39:41.489471 31856 layer_factory.hpp:77] Creating layer val-data
I0408 07:39:41.491112 31856 db_lmdb.cpp:35] Opened lmdb /mnt/bigdisk/DIGITS-MAN-2/digits/jobs/20210407-214532-d396/val_db
I0408 07:39:41.491314 31856 net.cpp:84] Creating Layer val-data
I0408 07:39:41.491324 31856 net.cpp:380] val-data -> data
I0408 07:39:41.491333 31856 net.cpp:380] val-data -> label
I0408 07:39:41.491339 31856 data_transformer.cpp:25] Loading mean file from: /mnt/bigdisk/DIGITS-MAN-2/digits/jobs/20210407-214532-d396/mean.binaryproto
I0408 07:39:41.495204 31856 data_layer.cpp:45] output data size: 32,3,227,227
I0408 07:39:41.547219 31856 net.cpp:122] Setting up val-data
I0408 07:39:41.547238 31856 net.cpp:129] Top shape: 32 3 227 227 (4946784)
I0408 07:39:41.547243 31856 net.cpp:129] Top shape: 32 (32)
I0408 07:39:41.547246 31856 net.cpp:137] Memory required for data: 19787264
I0408 07:39:41.547251 31856 layer_factory.hpp:77] Creating layer label_val-data_1_split
I0408 07:39:41.547263 31856 net.cpp:84] Creating Layer label_val-data_1_split
I0408 07:39:41.547267 31856 net.cpp:406] label_val-data_1_split <- label
I0408 07:39:41.547274 31856 net.cpp:380] label_val-data_1_split -> label_val-data_1_split_0
I0408 07:39:41.547282 31856 net.cpp:380] label_val-data_1_split -> label_val-data_1_split_1
I0408 07:39:41.547331 31856 net.cpp:122] Setting up label_val-data_1_split
I0408 07:39:41.547336 31856 net.cpp:129] Top shape: 32 (32)
I0408 07:39:41.547340 31856 net.cpp:129] Top shape: 32 (32)
I0408 07:39:41.547343 31856 net.cpp:137] Memory required for data: 19787520
I0408 07:39:41.547348 31856 layer_factory.hpp:77] Creating layer conv1
I0408 07:39:41.547358 31856 net.cpp:84] Creating Layer conv1
I0408 07:39:41.547361 31856 net.cpp:406] conv1 <- data
I0408 07:39:41.547367 31856 net.cpp:380] conv1 -> conv1
I0408 07:39:41.556671 31856 net.cpp:122] Setting up conv1
I0408 07:39:41.556682 31856 net.cpp:129] Top shape: 32 96 55 55 (9292800)
I0408 07:39:41.556686 31856 net.cpp:137] Memory required for data: 56958720
I0408 07:39:41.556696 31856 layer_factory.hpp:77] Creating layer relu1
I0408 07:39:41.556702 31856 net.cpp:84] Creating Layer relu1
I0408 07:39:41.556706 31856 net.cpp:406] relu1 <- conv1
I0408 07:39:41.556711 31856 net.cpp:367] relu1 -> conv1 (in-place)
I0408 07:39:41.557004 31856 net.cpp:122] Setting up relu1
I0408 07:39:41.557013 31856 net.cpp:129] Top shape: 32 96 55 55 (9292800)
I0408 07:39:41.557016 31856 net.cpp:137] Memory required for data: 94129920
I0408 07:39:41.557019 31856 layer_factory.hpp:77] Creating layer norm1
I0408 07:39:41.557027 31856 net.cpp:84] Creating Layer norm1
I0408 07:39:41.557031 31856 net.cpp:406] norm1 <- conv1
I0408 07:39:41.557036 31856 net.cpp:380] norm1 -> norm1
I0408 07:39:41.557487 31856 net.cpp:122] Setting up norm1
I0408 07:39:41.557497 31856 net.cpp:129] Top shape: 32 96 55 55 (9292800)
I0408 07:39:41.557500 31856 net.cpp:137] Memory required for data: 131301120
I0408 07:39:41.557504 31856 layer_factory.hpp:77] Creating layer pool1
I0408 07:39:41.557510 31856 net.cpp:84] Creating Layer pool1
I0408 07:39:41.557514 31856 net.cpp:406] pool1 <- norm1
I0408 07:39:41.557519 31856 net.cpp:380] pool1 -> pool1
I0408 07:39:41.557547 31856 net.cpp:122] Setting up pool1
I0408 07:39:41.557552 31856 net.cpp:129] Top shape: 32 96 27 27 (2239488)
I0408 07:39:41.557555 31856 net.cpp:137] Memory required for data: 140259072
I0408 07:39:41.557559 31856 layer_factory.hpp:77] Creating layer conv2
I0408 07:39:41.557566 31856 net.cpp:84] Creating Layer conv2
I0408 07:39:41.557569 31856 net.cpp:406] conv2 <- pool1
I0408 07:39:41.557592 31856 net.cpp:380] conv2 -> conv2
I0408 07:39:41.566066 31856 net.cpp:122] Setting up conv2
I0408 07:39:41.566078 31856 net.cpp:129] Top shape: 32 256 27 27 (5971968)
I0408 07:39:41.566082 31856 net.cpp:137] Memory required for data: 164146944
I0408 07:39:41.566092 31856 layer_factory.hpp:77] Creating layer relu2
I0408 07:39:41.566098 31856 net.cpp:84] Creating Layer relu2
I0408 07:39:41.566102 31856 net.cpp:406] relu2 <- conv2
I0408 07:39:41.566107 31856 net.cpp:367] relu2 -> conv2 (in-place)
I0408 07:39:41.566609 31856 net.cpp:122] Setting up relu2
I0408 07:39:41.566618 31856 net.cpp:129] Top shape: 32 256 27 27 (5971968)
I0408 07:39:41.566622 31856 net.cpp:137] Memory required for data: 188034816
I0408 07:39:41.566625 31856 layer_factory.hpp:77] Creating layer norm2
I0408 07:39:41.566635 31856 net.cpp:84] Creating Layer norm2
I0408 07:39:41.566638 31856 net.cpp:406] norm2 <- conv2
I0408 07:39:41.566645 31856 net.cpp:380] norm2 -> norm2
I0408 07:39:41.567157 31856 net.cpp:122] Setting up norm2
I0408 07:39:41.567165 31856 net.cpp:129] Top shape: 32 256 27 27 (5971968)
I0408 07:39:41.567169 31856 net.cpp:137] Memory required for data: 211922688
I0408 07:39:41.567173 31856 layer_factory.hpp:77] Creating layer pool2
I0408 07:39:41.567180 31856 net.cpp:84] Creating Layer pool2
I0408 07:39:41.567184 31856 net.cpp:406] pool2 <- norm2
I0408 07:39:41.567189 31856 net.cpp:380] pool2 -> pool2
I0408 07:39:41.567221 31856 net.cpp:122] Setting up pool2
I0408 07:39:41.567226 31856 net.cpp:129] Top shape: 32 256 13 13 (1384448)
I0408 07:39:41.567229 31856 net.cpp:137] Memory required for data: 217460480
I0408 07:39:41.567232 31856 layer_factory.hpp:77] Creating layer conv3
I0408 07:39:41.567241 31856 net.cpp:84] Creating Layer conv3
I0408 07:39:41.567245 31856 net.cpp:406] conv3 <- pool2
I0408 07:39:41.567251 31856 net.cpp:380] conv3 -> conv3
I0408 07:39:41.578121 31856 net.cpp:122] Setting up conv3
I0408 07:39:41.578135 31856 net.cpp:129] Top shape: 32 384 13 13 (2076672)
I0408 07:39:41.578140 31856 net.cpp:137] Memory required for data: 225767168
I0408 07:39:41.578150 31856 layer_factory.hpp:77] Creating layer relu3
I0408 07:39:41.578158 31856 net.cpp:84] Creating Layer relu3
I0408 07:39:41.578162 31856 net.cpp:406] relu3 <- conv3
I0408 07:39:41.578168 31856 net.cpp:367] relu3 -> conv3 (in-place)
I0408 07:39:41.578680 31856 net.cpp:122] Setting up relu3
I0408 07:39:41.578688 31856 net.cpp:129] Top shape: 32 384 13 13 (2076672)
I0408 07:39:41.578691 31856 net.cpp:137] Memory required for data: 234073856
I0408 07:39:41.578696 31856 layer_factory.hpp:77] Creating layer conv4
I0408 07:39:41.578706 31856 net.cpp:84] Creating Layer conv4
I0408 07:39:41.578709 31856 net.cpp:406] conv4 <- conv3
I0408 07:39:41.578716 31856 net.cpp:380] conv4 -> conv4
I0408 07:39:41.588099 31856 net.cpp:122] Setting up conv4
I0408 07:39:41.588110 31856 net.cpp:129] Top shape: 32 384 13 13 (2076672)
I0408 07:39:41.588114 31856 net.cpp:137] Memory required for data: 242380544
I0408 07:39:41.588120 31856 layer_factory.hpp:77] Creating layer relu4
I0408 07:39:41.588127 31856 net.cpp:84] Creating Layer relu4
I0408 07:39:41.588130 31856 net.cpp:406] relu4 <- conv4
I0408 07:39:41.588140 31856 net.cpp:367] relu4 -> conv4 (in-place)
I0408 07:39:41.588479 31856 net.cpp:122] Setting up relu4
I0408 07:39:41.588487 31856 net.cpp:129] Top shape: 32 384 13 13 (2076672)
I0408 07:39:41.588490 31856 net.cpp:137] Memory required for data: 250687232
I0408 07:39:41.588495 31856 layer_factory.hpp:77] Creating layer conv5
I0408 07:39:41.588505 31856 net.cpp:84] Creating Layer conv5
I0408 07:39:41.588508 31856 net.cpp:406] conv5 <- conv4
I0408 07:39:41.588515 31856 net.cpp:380] conv5 -> conv5
I0408 07:39:41.599427 31856 net.cpp:122] Setting up conv5
I0408 07:39:41.599442 31856 net.cpp:129] Top shape: 32 256 13 13 (1384448)
I0408 07:39:41.599445 31856 net.cpp:137] Memory required for data: 256225024
I0408 07:39:41.599457 31856 layer_factory.hpp:77] Creating layer relu5
I0408 07:39:41.599465 31856 net.cpp:84] Creating Layer relu5
I0408 07:39:41.599469 31856 net.cpp:406] relu5 <- conv5
I0408 07:39:41.599493 31856 net.cpp:367] relu5 -> conv5 (in-place)
I0408 07:39:41.599979 31856 net.cpp:122] Setting up relu5
I0408 07:39:41.599988 31856 net.cpp:129] Top shape: 32 256 13 13 (1384448)
I0408 07:39:41.599992 31856 net.cpp:137] Memory required for data: 261762816
I0408 07:39:41.599995 31856 layer_factory.hpp:77] Creating layer pool5
I0408 07:39:41.600006 31856 net.cpp:84] Creating Layer pool5
I0408 07:39:41.600010 31856 net.cpp:406] pool5 <- conv5
I0408 07:39:41.600016 31856 net.cpp:380] pool5 -> pool5
I0408 07:39:41.600055 31856 net.cpp:122] Setting up pool5
I0408 07:39:41.600060 31856 net.cpp:129] Top shape: 32 256 6 6 (294912)
I0408 07:39:41.600064 31856 net.cpp:137] Memory required for data: 262942464
I0408 07:39:41.600067 31856 layer_factory.hpp:77] Creating layer fc6
I0408 07:39:41.600075 31856 net.cpp:84] Creating Layer fc6
I0408 07:39:41.600077 31856 net.cpp:406] fc6 <- pool5
I0408 07:39:41.600082 31856 net.cpp:380] fc6 -> fc6
I0408 07:39:41.954593 31856 net.cpp:122] Setting up fc6
I0408 07:39:41.954614 31856 net.cpp:129] Top shape: 32 4096 (131072)
I0408 07:39:41.954618 31856 net.cpp:137] Memory required for data: 263466752
I0408 07:39:41.954628 31856 layer_factory.hpp:77] Creating layer relu6
I0408 07:39:41.954638 31856 net.cpp:84] Creating Layer relu6
I0408 07:39:41.954641 31856 net.cpp:406] relu6 <- fc6
I0408 07:39:41.954649 31856 net.cpp:367] relu6 -> fc6 (in-place)
I0408 07:39:41.955479 31856 net.cpp:122] Setting up relu6
I0408 07:39:41.955489 31856 net.cpp:129] Top shape: 32 4096 (131072)
I0408 07:39:41.955492 31856 net.cpp:137] Memory required for data: 263991040
I0408 07:39:41.955497 31856 layer_factory.hpp:77] Creating layer drop6
I0408 07:39:41.955504 31856 net.cpp:84] Creating Layer drop6
I0408 07:39:41.955508 31856 net.cpp:406] drop6 <- fc6
I0408 07:39:41.955513 31856 net.cpp:367] drop6 -> fc6 (in-place)
I0408 07:39:41.955541 31856 net.cpp:122] Setting up drop6
I0408 07:39:41.955547 31856 net.cpp:129] Top shape: 32 4096 (131072)
I0408 07:39:41.955550 31856 net.cpp:137] Memory required for data: 264515328
I0408 07:39:41.955554 31856 layer_factory.hpp:77] Creating layer fc7
I0408 07:39:41.955560 31856 net.cpp:84] Creating Layer fc7
I0408 07:39:41.955564 31856 net.cpp:406] fc7 <- fc6
I0408 07:39:41.955569 31856 net.cpp:380] fc7 -> fc7
I0408 07:39:42.112435 31856 net.cpp:122] Setting up fc7
I0408 07:39:42.112457 31856 net.cpp:129] Top shape: 32 4096 (131072)
I0408 07:39:42.112462 31856 net.cpp:137] Memory required for data: 265039616
I0408 07:39:42.112470 31856 layer_factory.hpp:77] Creating layer relu7
I0408 07:39:42.112480 31856 net.cpp:84] Creating Layer relu7
I0408 07:39:42.112485 31856 net.cpp:406] relu7 <- fc7
I0408 07:39:42.112491 31856 net.cpp:367] relu7 -> fc7 (in-place)
I0408 07:39:42.112921 31856 net.cpp:122] Setting up relu7
I0408 07:39:42.112929 31856 net.cpp:129] Top shape: 32 4096 (131072)
I0408 07:39:42.112933 31856 net.cpp:137] Memory required for data: 265563904
I0408 07:39:42.112937 31856 layer_factory.hpp:77] Creating layer drop7
I0408 07:39:42.112943 31856 net.cpp:84] Creating Layer drop7
I0408 07:39:42.112947 31856 net.cpp:406] drop7 <- fc7
I0408 07:39:42.112953 31856 net.cpp:367] drop7 -> fc7 (in-place)
I0408 07:39:42.112977 31856 net.cpp:122] Setting up drop7
I0408 07:39:42.112980 31856 net.cpp:129] Top shape: 32 4096 (131072)
I0408 07:39:42.112984 31856 net.cpp:137] Memory required for data: 266088192
I0408 07:39:42.112987 31856 layer_factory.hpp:77] Creating layer fc8
I0408 07:39:42.112995 31856 net.cpp:84] Creating Layer fc8
I0408 07:39:42.112999 31856 net.cpp:406] fc8 <- fc7
I0408 07:39:42.113005 31856 net.cpp:380] fc8 -> fc8
I0408 07:39:42.120700 31856 net.cpp:122] Setting up fc8
I0408 07:39:42.120710 31856 net.cpp:129] Top shape: 32 196 (6272)
I0408 07:39:42.120713 31856 net.cpp:137] Memory required for data: 266113280
I0408 07:39:42.120719 31856 layer_factory.hpp:77] Creating layer fc8_fc8_0_split
I0408 07:39:42.120725 31856 net.cpp:84] Creating Layer fc8_fc8_0_split
I0408 07:39:42.120729 31856 net.cpp:406] fc8_fc8_0_split <- fc8
I0408 07:39:42.120754 31856 net.cpp:380] fc8_fc8_0_split -> fc8_fc8_0_split_0
I0408 07:39:42.120760 31856 net.cpp:380] fc8_fc8_0_split -> fc8_fc8_0_split_1
I0408 07:39:42.120790 31856 net.cpp:122] Setting up fc8_fc8_0_split
I0408 07:39:42.120795 31856 net.cpp:129] Top shape: 32 196 (6272)
I0408 07:39:42.120800 31856 net.cpp:129] Top shape: 32 196 (6272)
I0408 07:39:42.120802 31856 net.cpp:137] Memory required for data: 266163456
I0408 07:39:42.120805 31856 layer_factory.hpp:77] Creating layer accuracy
I0408 07:39:42.120811 31856 net.cpp:84] Creating Layer accuracy
I0408 07:39:42.120815 31856 net.cpp:406] accuracy <- fc8_fc8_0_split_0
I0408 07:39:42.120820 31856 net.cpp:406] accuracy <- label_val-data_1_split_0
I0408 07:39:42.120824 31856 net.cpp:380] accuracy -> accuracy
…
