…
I0407 08:24:10.135741 17723 net.cpp:294] The NetState phase (0) differed from the phase (1) specified by a rule in layer accuracy
I0407 08:24:10.135862 17723 net.cpp:51] Initializing net from parameters:
state {
phase: TRAIN
level: 0
stage: ""
}
layer {
name: "train-data"
type: "Data"
top: "data"
top: "label"
include {
phase: TRAIN
}
transform_param {
mirror: true
crop_size: 227
mean_file: "/mnt/bigdisk/DIGITS-AIN-3/digits/jobs/20210401-115716-aaf7/mean.binaryproto"
}
data_param {
source: "/mnt/bigdisk/DIGITS-AIN-3/digits/jobs/20210401-115716-aaf7/train_db"
batch_size: 128
backend: LMDB
}
}
layer {
name: "conv1"
type: "Convolution"
bottom: "data"
top: "conv1"
param {
lr_mult: 1
decay_mult: 1
}
param {
lr_mult: 2
decay_mult: 0
}
convolution_param {
num_output: 96
kernel_size: 11
stride: 4
weight_filler {
type: "gaussian"
std: 0.01
}
bias_filler {
type: "constant"
value: 0
}
}
}
layer {
name: "relu1"
type: "ReLU"
bottom: "conv1"
top: "conv1"
}
layer {
name: "norm1"
type: "LRN"
bottom: "conv1"
top: "norm1"
lrn_param {
local_size: 5
alpha: 0.0001
beta: 0.75
}
}
layer {
name: "pool1"
type: "Pooling"
bottom: "norm1"
top: "pool1"
pooling_param {
pool: MAX
kernel_size: 3
stride: 2
}
}
layer {
name: "conv2"
type: "Convolution"
bottom: "pool1"
top: "conv2"
param {
lr_mult: 1
decay_mult: 1
}
param {
lr_mult: 2
decay_mult: 0
}
convolution_param {
num_output: 256
pad: 2
kernel_size: 5
group: 2
weight_filler {
type: "gaussian"
std: 0.01
}
bias_filler {
type: "constant"
value: 0.1
}
}
}
layer {
name: "relu2"
type: "ReLU"
bottom: "conv2"
top: "conv2"
}
layer {
name: "norm2"
type: "LRN"
bottom: "conv2"
top: "norm2"
lrn_param {
local_size: 5
alpha: 0.0001
beta: 0.75
}
}
layer {
name: "pool2"
type: "Pooling"
bottom: "norm2"
top: "pool2"
pooling_param {
pool: MAX
kernel_size: 3
stride: 2
}
}
layer {
name: "conv3"
type: "Convolution"
bottom: "pool2"
top: "conv3"
param {
lr_mult: 1
decay_mult: 1
}
param {
lr_mult: 2
decay_mult: 0
}
convolution_param {
num_output: 384
pad: 1
kernel_size: 3
weight_filler {
type: "gaussian"
std: 0.01
}
bias_filler {
type: "constant"
value: 0
}
}
}
layer {
name: "relu3"
type: "ReLU"
bottom: "conv3"
top: "conv3"
}
layer {
name: "conv4"
type: "Convolution"
bottom: "conv3"
top: "conv4"
param {
lr_mult: 1
decay_mult: 1
}
param {
lr_mult: 2
decay_mult: 0
}
convolution_param {
num_output: 384
pad: 1
kernel_size: 3
group: 2
weight_filler {
type: "gaussian"
std: 0.01
}
bias_filler {
type: "constant"
value: 0.1
}
}
}
layer {
name: "relu4"
type: "ReLU"
bottom: "conv4"
top: "conv4"
}
layer {
name: "conv5"
type: "Convolution"
bottom: "conv4"
top: "conv5"
param {
lr_mult: 1
decay_mult: 1
}
param {
lr_mult: 2
decay_mult: 0
}
convolution_param {
num_output: 256
pad: 1
kernel_size: 3
group: 2
weight_filler {
type: "gaussian"
std: 0.01
}
bias_filler {
type: "constant"
value: 0.1
}
}
}
layer {
name: "relu5"
type: "ReLU"
bottom: "conv5"
top: "conv5"
}
layer {
name: "pool5"
type: "Pooling"
bottom: "conv5"
top: "pool5"
pooling_param {
pool: MAX
kernel_size: 3
stride: 2
}
}
layer {
name: "fc6"
type: "InnerProduct"
bottom: "pool5"
top: "fc6"
param {
lr_mult: 1
decay_mult: 1
}
param {
lr_mult: 2
decay_mult: 0
}
inner_product_param {
num_output: 4096
weight_filler {
type: "gaussian"
std: 0.005
}
bias_filler {
type: "constant"
value: 0.1
}
}
}
layer {
name: "relu6"
type: "ReLU"
bottom: "fc6"
top: "fc6"
}
layer {
name: "drop6"
type: "Dropout"
bottom: "fc6"
top: "fc6"
dropout_param {
dropout_ratio: 0.5
}
}
layer {
name: "fc7"
type: "InnerProduct"
bottom: "fc6"
top: "fc7"
param {
lr_mult: 1
decay_mult: 1
}
param {
lr_mult: 2
decay_mult: 0
}
inner_product_param {
num_output: 4096
weight_filler {
type: "gaussian"
std: 0.005
}
bias_filler {
type: "constant"
value: 0.1
}
}
}
layer {
name: "relu7"
type: "ReLU"
bottom: "fc7"
top: "fc7"
}
layer {
name: "drop7"
type: "Dropout"
bottom: "fc7"
top: "fc7"
dropout_param {
dropout_ratio: 0.5
}
}
layer {
name: "fc8"
type: "InnerProduct"
bottom: "fc7"
top: "fc8"
param {
lr_mult: 1
decay_mult: 1
}
param {
lr_mult: 2
decay_mult: 0
}
inner_product_param {
num_output: 196
weight_filler {
type: "gaussian"
std: 0.01
}
bias_filler {
type: "constant"
value: 0
}
}
}
layer {
name: "loss"
type: "SoftmaxWithLoss"
bottom: "fc8"
bottom: "label"
top: "loss"
}
I0407 08:24:10.135939 17723 layer_factory.hpp:77] Creating layer train-data
I0407 08:24:10.140313 17723 db_lmdb.cpp:35] Opened lmdb /mnt/bigdisk/DIGITS-AIN-3/digits/jobs/20210401-115716-aaf7/train_db
I0407 08:24:10.140576 17723 net.cpp:84] Creating Layer train-data
I0407 08:24:10.140586 17723 net.cpp:380] train-data -> data
I0407 08:24:10.140604 17723 net.cpp:380] train-data -> label
I0407 08:24:10.140612 17723 data_transformer.cpp:25] Loading mean file from: /mnt/bigdisk/DIGITS-AIN-3/digits/jobs/20210401-115716-aaf7/mean.binaryproto
I0407 08:24:10.145944 17723 data_layer.cpp:45] output data size: 128,3,227,227
I0407 08:24:10.275055 17723 net.cpp:122] Setting up train-data
I0407 08:24:10.275074 17723 net.cpp:129] Top shape: 128 3 227 227 (19787136)
I0407 08:24:10.275077 17723 net.cpp:129] Top shape: 128 (128)
I0407 08:24:10.275079 17723 net.cpp:137] Memory required for data: 79149056
I0407 08:24:10.275087 17723 layer_factory.hpp:77] Creating layer conv1
I0407 08:24:10.275106 17723 net.cpp:84] Creating Layer conv1
I0407 08:24:10.275111 17723 net.cpp:406] conv1 <- data
I0407 08:24:10.275121 17723 net.cpp:380] conv1 -> conv1
I0407 08:24:10.699064 17723 net.cpp:122] Setting up conv1
I0407 08:24:10.699082 17723 net.cpp:129] Top shape: 128 96 55 55 (37171200)
I0407 08:24:10.699084 17723 net.cpp:137] Memory required for data: 227833856
I0407 08:24:10.699103 17723 layer_factory.hpp:77] Creating layer relu1
I0407 08:24:10.699112 17723 net.cpp:84] Creating Layer relu1
I0407 08:24:10.699115 17723 net.cpp:406] relu1 <- conv1
I0407 08:24:10.699120 17723 net.cpp:367] relu1 -> conv1 (in-place)
I0407 08:24:10.699376 17723 net.cpp:122] Setting up relu1
I0407 08:24:10.699384 17723 net.cpp:129] Top shape: 128 96 55 55 (37171200)
I0407 08:24:10.699386 17723 net.cpp:137] Memory required for data: 376518656
I0407 08:24:10.699388 17723 layer_factory.hpp:77] Creating layer norm1
I0407 08:24:10.699396 17723 net.cpp:84] Creating Layer norm1
I0407 08:24:10.699417 17723 net.cpp:406] norm1 <- conv1
I0407 08:24:10.699422 17723 net.cpp:380] norm1 -> norm1
I0407 08:24:10.699934 17723 net.cpp:122] Setting up norm1
I0407 08:24:10.699944 17723 net.cpp:129] Top shape: 128 96 55 55 (37171200)
I0407 08:24:10.699945 17723 net.cpp:137] Memory required for data: 525203456
I0407 08:24:10.699949 17723 layer_factory.hpp:77] Creating layer pool1
I0407 08:24:10.699954 17723 net.cpp:84] Creating Layer pool1
I0407 08:24:10.699957 17723 net.cpp:406] pool1 <- norm1
I0407 08:24:10.699961 17723 net.cpp:380] pool1 -> pool1
I0407 08:24:10.699995 17723 net.cpp:122] Setting up pool1
I0407 08:24:10.700001 17723 net.cpp:129] Top shape: 128 96 27 27 (8957952)
I0407 08:24:10.700003 17723 net.cpp:137] Memory required for data: 561035264
I0407 08:24:10.700006 17723 layer_factory.hpp:77] Creating layer conv2
I0407 08:24:10.700014 17723 net.cpp:84] Creating Layer conv2
I0407 08:24:10.700016 17723 net.cpp:406] conv2 <- pool1
I0407 08:24:10.700021 17723 net.cpp:380] conv2 -> conv2
I0407 08:24:10.707546 17723 net.cpp:122] Setting up conv2
I0407 08:24:10.707559 17723 net.cpp:129] Top shape: 128 256 27 27 (23887872)
I0407 08:24:10.707562 17723 net.cpp:137] Memory required for data: 656586752
I0407 08:24:10.707571 17723 layer_factory.hpp:77] Creating layer relu2
I0407 08:24:10.707577 17723 net.cpp:84] Creating Layer relu2
I0407 08:24:10.707581 17723 net.cpp:406] relu2 <- conv2
I0407 08:24:10.707587 17723 net.cpp:367] relu2 -> conv2 (in-place)
I0407 08:24:10.708065 17723 net.cpp:122] Setting up relu2
I0407 08:24:10.708073 17723 net.cpp:129] Top shape: 128 256 27 27 (23887872)
I0407 08:24:10.708076 17723 net.cpp:137] Memory required for data: 752138240
I0407 08:24:10.708077 17723 layer_factory.hpp:77] Creating layer norm2
I0407 08:24:10.708086 17723 net.cpp:84] Creating Layer norm2
I0407 08:24:10.708087 17723 net.cpp:406] norm2 <- conv2
I0407 08:24:10.708091 17723 net.cpp:380] norm2 -> norm2
I0407 08:24:10.708421 17723 net.cpp:122] Setting up norm2
I0407 08:24:10.708429 17723 net.cpp:129] Top shape: 128 256 27 27 (23887872)
I0407 08:24:10.708431 17723 net.cpp:137] Memory required for data: 847689728
I0407 08:24:10.708434 17723 layer_factory.hpp:77] Creating layer pool2
I0407 08:24:10.708442 17723 net.cpp:84] Creating Layer pool2
I0407 08:24:10.708444 17723 net.cpp:406] pool2 <- norm2
I0407 08:24:10.708448 17723 net.cpp:380] pool2 -> pool2
I0407 08:24:10.708474 17723 net.cpp:122] Setting up pool2
I0407 08:24:10.708478 17723 net.cpp:129] Top shape: 128 256 13 13 (5537792)
I0407 08:24:10.708480 17723 net.cpp:137] Memory required for data: 869840896
I0407 08:24:10.708483 17723 layer_factory.hpp:77] Creating layer conv3
I0407 08:24:10.708492 17723 net.cpp:84] Creating Layer conv3
I0407 08:24:10.708494 17723 net.cpp:406] conv3 <- pool2
I0407 08:24:10.708499 17723 net.cpp:380] conv3 -> conv3
I0407 08:24:10.718997 17723 net.cpp:122] Setting up conv3
I0407 08:24:10.719015 17723 net.cpp:129] Top shape: 128 384 13 13 (8306688)
I0407 08:24:10.719017 17723 net.cpp:137] Memory required for data: 903067648
I0407 08:24:10.719029 17723 layer_factory.hpp:77] Creating layer relu3
I0407 08:24:10.719036 17723 net.cpp:84] Creating Layer relu3
I0407 08:24:10.719039 17723 net.cpp:406] relu3 <- conv3
I0407 08:24:10.719045 17723 net.cpp:367] relu3 -> conv3 (in-place)
I0407 08:24:10.719521 17723 net.cpp:122] Setting up relu3
I0407 08:24:10.719530 17723 net.cpp:129] Top shape: 128 384 13 13 (8306688)
I0407 08:24:10.719532 17723 net.cpp:137] Memory required for data: 936294400
I0407 08:24:10.719535 17723 layer_factory.hpp:77] Creating layer conv4
I0407 08:24:10.719544 17723 net.cpp:84] Creating Layer conv4
I0407 08:24:10.719547 17723 net.cpp:406] conv4 <- conv3
I0407 08:24:10.719552 17723 net.cpp:380] conv4 -> conv4
I0407 08:24:10.728870 17723 net.cpp:122] Setting up conv4
I0407 08:24:10.728894 17723 net.cpp:129] Top shape: 128 384 13 13 (8306688)
I0407 08:24:10.728899 17723 net.cpp:137] Memory required for data: 969521152
I0407 08:24:10.728905 17723 layer_factory.hpp:77] Creating layer relu4
I0407 08:24:10.728911 17723 net.cpp:84] Creating Layer relu4
I0407 08:24:10.728932 17723 net.cpp:406] relu4 <- conv4
I0407 08:24:10.728937 17723 net.cpp:367] relu4 -> conv4 (in-place)
I0407 08:24:10.729254 17723 net.cpp:122] Setting up relu4
I0407 08:24:10.729262 17723 net.cpp:129] Top shape: 128 384 13 13 (8306688)
I0407 08:24:10.729264 17723 net.cpp:137] Memory required for data: 1002747904
I0407 08:24:10.729266 17723 layer_factory.hpp:77] Creating layer conv5
I0407 08:24:10.729275 17723 net.cpp:84] Creating Layer conv5
I0407 08:24:10.729279 17723 net.cpp:406] conv5 <- conv4
I0407 08:24:10.729285 17723 net.cpp:380] conv5 -> conv5
I0407 08:24:10.736573 17723 net.cpp:122] Setting up conv5
I0407 08:24:10.736585 17723 net.cpp:129] Top shape: 128 256 13 13 (5537792)
I0407 08:24:10.736588 17723 net.cpp:137] Memory required for data: 1024899072
I0407 08:24:10.736598 17723 layer_factory.hpp:77] Creating layer relu5
I0407 08:24:10.736603 17723 net.cpp:84] Creating Layer relu5
I0407 08:24:10.736606 17723 net.cpp:406] relu5 <- conv5
I0407 08:24:10.736610 17723 net.cpp:367] relu5 -> conv5 (in-place)
I0407 08:24:10.737078 17723 net.cpp:122] Setting up relu5
I0407 08:24:10.737087 17723 net.cpp:129] Top shape: 128 256 13 13 (5537792)
I0407 08:24:10.737089 17723 net.cpp:137] Memory required for data: 1047050240
I0407 08:24:10.737092 17723 layer_factory.hpp:77] Creating layer pool5
I0407 08:24:10.737099 17723 net.cpp:84] Creating Layer pool5
I0407 08:24:10.737102 17723 net.cpp:406] pool5 <- conv5
I0407 08:24:10.737107 17723 net.cpp:380] pool5 -> pool5
I0407 08:24:10.737139 17723 net.cpp:122] Setting up pool5
I0407 08:24:10.737144 17723 net.cpp:129] Top shape: 128 256 6 6 (1179648)
I0407 08:24:10.737146 17723 net.cpp:137] Memory required for data: 1051768832
I0407 08:24:10.737149 17723 layer_factory.hpp:77] Creating layer fc6
I0407 08:24:10.737155 17723 net.cpp:84] Creating Layer fc6
I0407 08:24:10.737157 17723 net.cpp:406] fc6 <- pool5
I0407 08:24:10.737162 17723 net.cpp:380] fc6 -> fc6
I0407 08:24:11.069077 17723 net.cpp:122] Setting up fc6
I0407 08:24:11.069098 17723 net.cpp:129] Top shape: 128 4096 (524288)
I0407 08:24:11.069100 17723 net.cpp:137] Memory required for data: 1053865984
I0407 08:24:11.069108 17723 layer_factory.hpp:77] Creating layer relu6
I0407 08:24:11.069116 17723 net.cpp:84] Creating Layer relu6
I0407 08:24:11.069119 17723 net.cpp:406] relu6 <- fc6
I0407 08:24:11.069126 17723 net.cpp:367] relu6 -> fc6 (in-place)
I0407 08:24:11.069739 17723 net.cpp:122] Setting up relu6
I0407 08:24:11.069749 17723 net.cpp:129] Top shape: 128 4096 (524288)
I0407 08:24:11.069751 17723 net.cpp:137] Memory required for data: 1055963136
I0407 08:24:11.069754 17723 layer_factory.hpp:77] Creating layer drop6
I0407 08:24:11.069761 17723 net.cpp:84] Creating Layer drop6
I0407 08:24:11.069762 17723 net.cpp:406] drop6 <- fc6
I0407 08:24:11.069766 17723 net.cpp:367] drop6 -> fc6 (in-place)
I0407 08:24:11.069790 17723 net.cpp:122] Setting up drop6
I0407 08:24:11.069794 17723 net.cpp:129] Top shape: 128 4096 (524288)
I0407 08:24:11.069797 17723 net.cpp:137] Memory required for data: 1058060288
I0407 08:24:11.069798 17723 layer_factory.hpp:77] Creating layer fc7
I0407 08:24:11.069805 17723 net.cpp:84] Creating Layer fc7
I0407 08:24:11.069808 17723 net.cpp:406] fc7 <- fc6
I0407 08:24:11.069811 17723 net.cpp:380] fc7 -> fc7
I0407 08:24:11.218331 17723 net.cpp:122] Setting up fc7
I0407 08:24:11.218349 17723 net.cpp:129] Top shape: 128 4096 (524288)
I0407 08:24:11.218353 17723 net.cpp:137] Memory required for data: 1060157440
I0407 08:24:11.218361 17723 layer_factory.hpp:77] Creating layer relu7
I0407 08:24:11.218369 17723 net.cpp:84] Creating Layer relu7
I0407 08:24:11.218371 17723 net.cpp:406] relu7 <- fc7
I0407 08:24:11.218377 17723 net.cpp:367] relu7 -> fc7 (in-place)
I0407 08:24:11.218753 17723 net.cpp:122] Setting up relu7
I0407 08:24:11.218760 17723 net.cpp:129] Top shape: 128 4096 (524288)
I0407 08:24:11.218763 17723 net.cpp:137] Memory required for data: 1062254592
I0407 08:24:11.218765 17723 layer_factory.hpp:77] Creating layer drop7
I0407 08:24:11.218770 17723 net.cpp:84] Creating Layer drop7
I0407 08:24:11.218789 17723 net.cpp:406] drop7 <- fc7
I0407 08:24:11.218796 17723 net.cpp:367] drop7 -> fc7 (in-place)
I0407 08:24:11.218816 17723 net.cpp:122] Setting up drop7
I0407 08:24:11.218820 17723 net.cpp:129] Top shape: 128 4096 (524288)
I0407 08:24:11.218822 17723 net.cpp:137] Memory required for data: 1064351744
I0407 08:24:11.218824 17723 layer_factory.hpp:77] Creating layer fc8
I0407 08:24:11.218829 17723 net.cpp:84] Creating Layer fc8
I0407 08:24:11.218832 17723 net.cpp:406] fc8 <- fc7
I0407 08:24:11.218837 17723 net.cpp:380] fc8 -> fc8
I0407 08:24:11.226606 17723 net.cpp:122] Setting up fc8
I0407 08:24:11.226624 17723 net.cpp:129] Top shape: 128 196 (25088)
I0407 08:24:11.226625 17723 net.cpp:137] Memory required for data: 1064452096
I0407 08:24:11.226634 17723 layer_factory.hpp:77] Creating layer loss
I0407 08:24:11.226641 17723 net.cpp:84] Creating Layer loss
I0407 08:24:11.226644 17723 net.cpp:406] loss <- fc8
I0407 08:24:11.226649 17723 net.cpp:406] loss <- label
I0407 08:24:11.226655 17723 net.cpp:380] loss -> loss
I0407 08:24:11.226666 17723 layer_factory.hpp:77] Creating layer loss
…
I0407 08:24:11.228016 17723 net.cpp:294] The NetState phase (1) differed from the phase (0) specified by a rule in layer train-data
I0407 08:24:11.228143 17723 net.cpp:51] Initializing net from parameters:
state {
phase: TEST
}
layer {
name: "val-data"
type: "Data"
top: "data"
top: "label"
include {
phase: TEST
}
transform_param {
crop_size: 227
mean_file: "/mnt/bigdisk/DIGITS-AIN-3/digits/jobs/20210401-115716-aaf7/mean.binaryproto"
}
data_param {
source: "/mnt/bigdisk/DIGITS-AIN-3/digits/jobs/20210401-115716-aaf7/val_db"
batch_size: 32
backend: LMDB
}
}
layer {
name: "conv1"
type: "Convolution"
bottom: "data"
top: "conv1"
param {
lr_mult: 1
decay_mult: 1
}
param {
lr_mult: 2
decay_mult: 0
}
convolution_param {
num_output: 96
kernel_size: 11
stride: 4
weight_filler {
type: "gaussian"
std: 0.01
}
bias_filler {
type: "constant"
value: 0
}
}
}
layer {
name: "relu1"
type: "ReLU"
bottom: "conv1"
top: "conv1"
}
layer {
name: "norm1"
type: "LRN"
bottom: "conv1"
top: "norm1"
lrn_param {
local_size: 5
alpha: 0.0001
beta: 0.75
}
}
layer {
name: "pool1"
type: "Pooling"
bottom: "norm1"
top: "pool1"
pooling_param {
pool: MAX
kernel_size: 3
stride: 2
}
}
layer {
name: "conv2"
type: "Convolution"
bottom: "pool1"
top: "conv2"
param {
lr_mult: 1
decay_mult: 1
}
param {
lr_mult: 2
decay_mult: 0
}
convolution_param {
num_output: 256
pad: 2
kernel_size: 5
group: 2
weight_filler {
type: "gaussian"
std: 0.01
}
bias_filler {
type: "constant"
value: 0.1
}
}
}
layer {
name: "relu2"
type: "ReLU"
bottom: "conv2"
top: "conv2"
}
layer {
name: "norm2"
type: "LRN"
bottom: "conv2"
top: "norm2"
lrn_param {
local_size: 5
alpha: 0.0001
beta: 0.75
}
}
layer {
name: "pool2"
type: "Pooling"
bottom: "norm2"
top: "pool2"
pooling_param {
pool: MAX
kernel_size: 3
stride: 2
}
}
layer {
name: "conv3"
type: "Convolution"
bottom: "pool2"
top: "conv3"
param {
lr_mult: 1
decay_mult: 1
}
param {
lr_mult: 2
decay_mult: 0
}
convolution_param {
num_output: 384
pad: 1
kernel_size: 3
weight_filler {
type: "gaussian"
std: 0.01
}
bias_filler {
type: "constant"
value: 0
}
}
}
layer {
name: "relu3"
type: "ReLU"
bottom: "conv3"
top: "conv3"
}
layer {
name: "conv4"
type: "Convolution"
bottom: "conv3"
top: "conv4"
param {
lr_mult: 1
decay_mult: 1
}
param {
lr_mult: 2
decay_mult: 0
}
convolution_param {
num_output: 384
pad: 1
kernel_size: 3
group: 2
weight_filler {
type: "gaussian"
std: 0.01
}
bias_filler {
type: "constant"
value: 0.1
}
}
}
layer {
name: "relu4"
type: "ReLU"
bottom: "conv4"
top: "conv4"
}
layer {
name: "conv5"
type: "Convolution"
bottom: "conv4"
top: "conv5"
param {
lr_mult: 1
decay_mult: 1
}
param {
lr_mult: 2
decay_mult: 0
}
convolution_param {
num_output: 256
pad: 1
kernel_size: 3
group: 2
weight_filler {
type: "gaussian"
std: 0.01
}
bias_filler {
type: "constant"
value: 0.1
}
}
}
layer {
name: "relu5"
type: "ReLU"
bottom: "conv5"
top: "conv5"
}
layer {
name: "pool5"
type: "Pooling"
bottom: "conv5"
top: "pool5"
pooling_param {
pool: MAX
kernel_size: 3
stride: 2
}
}
layer {
name: "fc6"
type: "InnerProduct"
bottom: "pool5"
top: "fc6"
param {
lr_mult: 1
decay_mult: 1
}
param {
lr_mult: 2
decay_mult: 0
}
inner_product_param {
num_output: 4096
weight_filler {
type: "gaussian"
std: 0.005
}
bias_filler {
type: "constant"
value: 0.1
}
}
}
layer {
name: "relu6"
type: "ReLU"
bottom: "fc6"
top: "fc6"
}
layer {
name: "drop6"
type: "Dropout"
bottom: "fc6"
top: "fc6"
dropout_param {
dropout_ratio: 0.5
}
}
layer {
name: "fc7"
type: "InnerProduct"
bottom: "fc6"
top: "fc7"
param {
lr_mult: 1
decay_mult: 1
}
param {
lr_mult: 2
decay_mult: 0
}
inner_product_param {
num_output: 4096
weight_filler {
type: "gaussian"
std: 0.005
}
bias_filler {
type: "constant"
value: 0.1
}
}
}
layer {
name: "relu7"
type: "ReLU"
bottom: "fc7"
top: "fc7"
}
layer {
name: "drop7"
type: "Dropout"
bottom: "fc7"
top: "fc7"
dropout_param {
dropout_ratio: 0.5
}
}
layer {
name: "fc8"
type: "InnerProduct"
bottom: "fc7"
top: "fc8"
param {
lr_mult: 1
decay_mult: 1
}
param {
lr_mult: 2
decay_mult: 0
}
inner_product_param {
num_output: 196
weight_filler {
type: "gaussian"
std: 0.01
}
bias_filler {
type: "constant"
value: 0
}
}
}
layer {
name: "accuracy"
type: "Accuracy"
bottom: "fc8"
bottom: "label"
top: "accuracy"
include {
phase: TEST
}
}
layer {
name: "loss"
type: "SoftmaxWithLoss"
bottom: "fc8"
bottom: "label"
top: "loss"
}
I0407 08:24:11.228240 17723 layer_factory.hpp:77] Creating layer val-data
I0407 08:24:11.230232 17723 db_lmdb.cpp:35] Opened lmdb /mnt/bigdisk/DIGITS-AIN-3/digits/jobs/20210401-115716-aaf7/val_db
I0407 08:24:11.230458 17723 net.cpp:84] Creating Layer val-data
I0407 08:24:11.230465 17723 net.cpp:380] val-data -> data
I0407 08:24:11.230473 17723 net.cpp:380] val-data -> label
I0407 08:24:11.230479 17723 data_transformer.cpp:25] Loading mean file from: /mnt/bigdisk/DIGITS-AIN-3/digits/jobs/20210401-115716-aaf7/mean.binaryproto
I0407 08:24:11.234190 17723 data_layer.cpp:45] output data size: 32,3,227,227
I0407 08:24:11.288233 17723 net.cpp:122] Setting up val-data
I0407 08:24:11.288250 17723 net.cpp:129] Top shape: 32 3 227 227 (4946784)
I0407 08:24:11.288254 17723 net.cpp:129] Top shape: 32 (32)
I0407 08:24:11.288255 17723 net.cpp:137] Memory required for data: 19787264
I0407 08:24:11.288260 17723 layer_factory.hpp:77] Creating layer label_val-data_1_split
I0407 08:24:11.288271 17723 net.cpp:84] Creating Layer label_val-data_1_split
I0407 08:24:11.288275 17723 net.cpp:406] label_val-data_1_split <- label
I0407 08:24:11.288280 17723 net.cpp:380] label_val-data_1_split -> label_val-data_1_split_0
I0407 08:24:11.288287 17723 net.cpp:380] label_val-data_1_split -> label_val-data_1_split_1
I0407 08:24:11.288331 17723 net.cpp:122] Setting up label_val-data_1_split
I0407 08:24:11.288336 17723 net.cpp:129] Top shape: 32 (32)
I0407 08:24:11.288338 17723 net.cpp:129] Top shape: 32 (32)
I0407 08:24:11.288339 17723 net.cpp:137] Memory required for data: 19787520
I0407 08:24:11.288342 17723 layer_factory.hpp:77] Creating layer conv1
I0407 08:24:11.288353 17723 net.cpp:84] Creating Layer conv1
I0407 08:24:11.288355 17723 net.cpp:406] conv1 <- data
I0407 08:24:11.288359 17723 net.cpp:380] conv1 -> conv1
I0407 08:24:11.290762 17723 net.cpp:122] Setting up conv1
I0407 08:24:11.290772 17723 net.cpp:129] Top shape: 32 96 55 55 (9292800)
I0407 08:24:11.290776 17723 net.cpp:137] Memory required for data: 56958720
I0407 08:24:11.290783 17723 layer_factory.hpp:77] Creating layer relu1
I0407 08:24:11.290788 17723 net.cpp:84] Creating Layer relu1
I0407 08:24:11.290791 17723 net.cpp:406] relu1 <- conv1
I0407 08:24:11.290796 17723 net.cpp:367] relu1 -> conv1 (in-place)
I0407 08:24:11.291052 17723 net.cpp:122] Setting up relu1
I0407 08:24:11.291060 17723 net.cpp:129] Top shape: 32 96 55 55 (9292800)
I0407 08:24:11.291062 17723 net.cpp:137] Memory required for data: 94129920
I0407 08:24:11.291065 17723 layer_factory.hpp:77] Creating layer norm1
I0407 08:24:11.291072 17723 net.cpp:84] Creating Layer norm1
I0407 08:24:11.291074 17723 net.cpp:406] norm1 <- conv1
I0407 08:24:11.291079 17723 net.cpp:380] norm1 -> norm1
I0407 08:24:11.291503 17723 net.cpp:122] Setting up norm1
I0407 08:24:11.291512 17723 net.cpp:129] Top shape: 32 96 55 55 (9292800)
I0407 08:24:11.291514 17723 net.cpp:137] Memory required for data: 131301120
I0407 08:24:11.291517 17723 layer_factory.hpp:77] Creating layer pool1
I0407 08:24:11.291522 17723 net.cpp:84] Creating Layer pool1
I0407 08:24:11.291525 17723 net.cpp:406] pool1 <- norm1
I0407 08:24:11.291528 17723 net.cpp:380] pool1 -> pool1
I0407 08:24:11.291553 17723 net.cpp:122] Setting up pool1
I0407 08:24:11.291558 17723 net.cpp:129] Top shape: 32 96 27 27 (2239488)
I0407 08:24:11.291559 17723 net.cpp:137] Memory required for data: 140259072
I0407 08:24:11.291561 17723 layer_factory.hpp:77] Creating layer conv2
I0407 08:24:11.291568 17723 net.cpp:84] Creating Layer conv2
I0407 08:24:11.291570 17723 net.cpp:406] conv2 <- pool1
I0407 08:24:11.291591 17723 net.cpp:380] conv2 -> conv2
I0407 08:24:11.297576 17723 net.cpp:122] Setting up conv2
I0407 08:24:11.297590 17723 net.cpp:129] Top shape: 32 256 27 27 (5971968)
I0407 08:24:11.297593 17723 net.cpp:137] Memory required for data: 164146944
I0407 08:24:11.297602 17723 layer_factory.hpp:77] Creating layer relu2
I0407 08:24:11.297608 17723 net.cpp:84] Creating Layer relu2
I0407 08:24:11.297612 17723 net.cpp:406] relu2 <- conv2
I0407 08:24:11.297617 17723 net.cpp:367] relu2 -> conv2 (in-place)
I0407 08:24:11.298111 17723 net.cpp:122] Setting up relu2
I0407 08:24:11.298120 17723 net.cpp:129] Top shape: 32 256 27 27 (5971968)
I0407 08:24:11.298122 17723 net.cpp:137] Memory required for data: 188034816
I0407 08:24:11.298125 17723 layer_factory.hpp:77] Creating layer norm2
I0407 08:24:11.298135 17723 net.cpp:84] Creating Layer norm2
I0407 08:24:11.298137 17723 net.cpp:406] norm2 <- conv2
I0407 08:24:11.298141 17723 net.cpp:380] norm2 -> norm2
I0407 08:24:11.298643 17723 net.cpp:122] Setting up norm2
I0407 08:24:11.298651 17723 net.cpp:129] Top shape: 32 256 27 27 (5971968)
I0407 08:24:11.298655 17723 net.cpp:137] Memory required for data: 211922688
I0407 08:24:11.298657 17723 layer_factory.hpp:77] Creating layer pool2
I0407 08:24:11.298663 17723 net.cpp:84] Creating Layer pool2
I0407 08:24:11.298666 17723 net.cpp:406] pool2 <- norm2
I0407 08:24:11.298671 17723 net.cpp:380] pool2 -> pool2
I0407 08:24:11.298697 17723 net.cpp:122] Setting up pool2
I0407 08:24:11.298702 17723 net.cpp:129] Top shape: 32 256 13 13 (1384448)
I0407 08:24:11.298703 17723 net.cpp:137] Memory required for data: 217460480
I0407 08:24:11.298707 17723 layer_factory.hpp:77] Creating layer conv3
I0407 08:24:11.298714 17723 net.cpp:84] Creating Layer conv3
I0407 08:24:11.298717 17723 net.cpp:406] conv3 <- pool2
I0407 08:24:11.298722 17723 net.cpp:380] conv3 -> conv3
I0407 08:24:11.308647 17723 net.cpp:122] Setting up conv3
I0407 08:24:11.308665 17723 net.cpp:129] Top shape: 32 384 13 13 (2076672)
I0407 08:24:11.308666 17723 net.cpp:137] Memory required for data: 225767168
I0407 08:24:11.308676 17723 layer_factory.hpp:77] Creating layer relu3
I0407 08:24:11.308682 17723 net.cpp:84] Creating Layer relu3
I0407 08:24:11.308686 17723 net.cpp:406] relu3 <- conv3
I0407 08:24:11.308691 17723 net.cpp:367] relu3 -> conv3 (in-place)
I0407 08:24:11.309175 17723 net.cpp:122] Setting up relu3
I0407 08:24:11.309183 17723 net.cpp:129] Top shape: 32 384 13 13 (2076672)
I0407 08:24:11.309186 17723 net.cpp:137] Memory required for data: 234073856
I0407 08:24:11.309188 17723 layer_factory.hpp:77] Creating layer conv4
I0407 08:24:11.309198 17723 net.cpp:84] Creating Layer conv4
I0407 08:24:11.309201 17723 net.cpp:406] conv4 <- conv3
I0407 08:24:11.309206 17723 net.cpp:380] conv4 -> conv4
I0407 08:24:11.318428 17723 net.cpp:122] Setting up conv4
I0407 08:24:11.318442 17723 net.cpp:129] Top shape: 32 384 13 13 (2076672)
I0407 08:24:11.318444 17723 net.cpp:137] Memory required for data: 242380544
I0407 08:24:11.318451 17723 layer_factory.hpp:77] Creating layer relu4
I0407 08:24:11.318459 17723 net.cpp:84] Creating Layer relu4
I0407 08:24:11.318462 17723 net.cpp:406] relu4 <- conv4
I0407 08:24:11.318466 17723 net.cpp:367] relu4 -> conv4 (in-place)
I0407 08:24:11.318779 17723 net.cpp:122] Setting up relu4
I0407 08:24:11.318786 17723 net.cpp:129] Top shape: 32 384 13 13 (2076672)
I0407 08:24:11.318789 17723 net.cpp:137] Memory required for data: 250687232
I0407 08:24:11.318791 17723 layer_factory.hpp:77] Creating layer conv5
I0407 08:24:11.318800 17723 net.cpp:84] Creating Layer conv5
I0407 08:24:11.318802 17723 net.cpp:406] conv5 <- conv4
I0407 08:24:11.318809 17723 net.cpp:380] conv5 -> conv5
I0407 08:24:11.326867 17723 net.cpp:122] Setting up conv5
I0407 08:24:11.326884 17723 net.cpp:129] Top shape: 32 256 13 13 (1384448)
I0407 08:24:11.326887 17723 net.cpp:137] Memory required for data: 256225024
I0407 08:24:11.326898 17723 layer_factory.hpp:77] Creating layer relu5
I0407 08:24:11.326905 17723 net.cpp:84] Creating Layer relu5
I0407 08:24:11.326927 17723 net.cpp:406] relu5 <- conv5
I0407 08:24:11.326932 17723 net.cpp:367] relu5 -> conv5 (in-place)
I0407 08:24:11.327430 17723 net.cpp:122] Setting up relu5
I0407 08:24:11.327437 17723 net.cpp:129] Top shape: 32 256 13 13 (1384448)
I0407 08:24:11.327440 17723 net.cpp:137] Memory required for data: 261762816
I0407 08:24:11.327442 17723 layer_factory.hpp:77] Creating layer pool5
I0407 08:24:11.327452 17723 net.cpp:84] Creating Layer pool5
I0407 08:24:11.327455 17723 net.cpp:406] pool5 <- conv5
I0407 08:24:11.327459 17723 net.cpp:380] pool5 -> pool5
I0407 08:24:11.327493 17723 net.cpp:122] Setting up pool5
I0407 08:24:11.327498 17723 net.cpp:129] Top shape: 32 256 6 6 (294912)
I0407 08:24:11.327502 17723 net.cpp:137] Memory required for data: 262942464
I0407 08:24:11.327503 17723 layer_factory.hpp:77] Creating layer fc6
I0407 08:24:11.327509 17723 net.cpp:84] Creating Layer fc6
I0407 08:24:11.327512 17723 net.cpp:406] fc6 <- pool5
I0407 08:24:11.327517 17723 net.cpp:380] fc6 -> fc6
I0407 08:24:11.689973 17723 net.cpp:122] Setting up fc6
I0407 08:24:11.689996 17723 net.cpp:129] Top shape: 32 4096 (131072)
I0407 08:24:11.689997 17723 net.cpp:137] Memory required for data: 263466752
I0407 08:24:11.690006 17723 layer_factory.hpp:77] Creating layer relu6
I0407 08:24:11.690013 17723 net.cpp:84] Creating Layer relu6
I0407 08:24:11.690017 17723 net.cpp:406] relu6 <- fc6
I0407 08:24:11.690024 17723 net.cpp:367] relu6 -> fc6 (in-place)
I0407 08:24:11.690721 17723 net.cpp:122] Setting up relu6
I0407 08:24:11.690730 17723 net.cpp:129] Top shape: 32 4096 (131072)
I0407 08:24:11.690732 17723 net.cpp:137] Memory required for data: 263991040
I0407 08:24:11.690735 17723 layer_factory.hpp:77] Creating layer drop6
I0407 08:24:11.690740 17723 net.cpp:84] Creating Layer drop6
I0407 08:24:11.690743 17723 net.cpp:406] drop6 <- fc6
I0407 08:24:11.690748 17723 net.cpp:367] drop6 -> fc6 (in-place)
I0407 08:24:11.690771 17723 net.cpp:122] Setting up drop6
I0407 08:24:11.690776 17723 net.cpp:129] Top shape: 32 4096 (131072)
I0407 08:24:11.690778 17723 net.cpp:137] Memory required for data: 264515328
I0407 08:24:11.690780 17723 layer_factory.hpp:77] Creating layer fc7
I0407 08:24:11.690788 17723 net.cpp:84] Creating Layer fc7
I0407 08:24:11.690789 17723 net.cpp:406] fc7 <- fc6
I0407 08:24:11.690794 17723 net.cpp:380] fc7 -> fc7
I0407 08:24:11.847674 17723 net.cpp:122] Setting up fc7
I0407 08:24:11.847697 17723 net.cpp:129] Top shape: 32 4096 (131072)
I0407 08:24:11.847698 17723 net.cpp:137] Memory required for data: 265039616
I0407 08:24:11.847707 17723 layer_factory.hpp:77] Creating layer relu7
I0407 08:24:11.847715 17723 net.cpp:84] Creating Layer relu7
I0407 08:24:11.847719 17723 net.cpp:406] relu7 <- fc7
I0407 08:24:11.847724 17723 net.cpp:367] relu7 -> fc7 (in-place)
I0407 08:24:11.848120 17723 net.cpp:122] Setting up relu7
I0407 08:24:11.848129 17723 net.cpp:129] Top shape: 32 4096 (131072)
I0407 08:24:11.848130 17723 net.cpp:137] Memory required for data: 265563904
I0407 08:24:11.848134 17723 layer_factory.hpp:77] Creating layer drop7
I0407 08:24:11.848138 17723 net.cpp:84] Creating Layer drop7
I0407 08:24:11.848141 17723 net.cpp:406] drop7 <- fc7
I0407 08:24:11.848146 17723 net.cpp:367] drop7 -> fc7 (in-place)
I0407 08:24:11.848167 17723 net.cpp:122] Setting up drop7
I0407 08:24:11.848171 17723 net.cpp:129] Top shape: 32 4096 (131072)
I0407 08:24:11.848173 17723 net.cpp:137] Memory required for data: 266088192
I0407 08:24:11.848176 17723 layer_factory.hpp:77] Creating layer fc8
I0407 08:24:11.848182 17723 net.cpp:84] Creating Layer fc8
I0407 08:24:11.848184 17723 net.cpp:406] fc8 <- fc7
I0407 08:24:11.848189 17723 net.cpp:380] fc8 -> fc8
I0407 08:24:11.855813 17723 net.cpp:122] Setting up fc8
I0407 08:24:11.855831 17723 net.cpp:129] Top shape: 32 196 (6272)
I0407 08:24:11.855834 17723 net.cpp:137] Memory required for data: 266113280
I0407 08:24:11.855840 17723 layer_factory.hpp:77] Creating layer fc8_fc8_0_split
I0407 08:24:11.855846 17723 net.cpp:84] Creating Layer fc8_fc8_0_split
I0407 08:24:11.855850 17723 net.cpp:406] fc8_fc8_0_split <- fc8
I0407 08:24:11.855877 17723 net.cpp:380] fc8_fc8_0_split -> fc8_fc8_0_split_0
I0407 08:24:11.855885 17723 net.cpp:380] fc8_fc8_0_split -> fc8_fc8_0_split_1
I0407 08:24:11.855919 17723 net.cpp:122] Setting up fc8_fc8_0_split
I0407 08:24:11.855923 17723 net.cpp:129] Top shape: 32 196 (6272)
I0407 08:24:11.855926 17723 net.cpp:129] Top shape: 32 196 (6272)
I0407 08:24:11.855927 17723 net.cpp:137] Memory required for data: 266163456
I0407 08:24:11.855931 17723 layer_factory.hpp:77] Creating layer accuracy
I0407 08:24:11.855935 17723 net.cpp:84] Creating Layer accuracy
I0407 08:24:11.855938 17723 net.cpp:406] accuracy <- fc8_fc8_0_split_0
I0407 08:24:11.855942 17723 net.cpp:406] accuracy <- label_val-data_1_split_0
I0407 08:24:11.855945 17723 net.cpp:380] accuracy -> accuracy
…
