…
I0419 14:01:32.877817  5641 net.cpp:294] The NetState phase (0) differed from the phase (1) specified by a rule in layer accuracy
I0419 14:01:32.877959  5641 net.cpp:51] Initializing net from parameters:
state {
phase: TRAIN
level: 0
stage: ""
}
layer {
name: "train-data"
type: "Data"
top: "data"
top: "label"
include {
phase: TRAIN
}
transform_param {
mirror: true
crop_size: 227
mean_file: "/mnt/bigdisk/DIGITS-AMB-2/digits/jobs/20210419-135836-fd84/mean.binaryproto"
}
data_param {
source: "/mnt/bigdisk/DIGITS-AMB-2/digits/jobs/20210419-135836-fd84/train_db"
batch_size: 128
backend: LMDB
}
}
layer {
name: "conv1"
type: "Convolution"
bottom: "data"
top: "conv1"
param {
lr_mult: 1
decay_mult: 1
}
param {
lr_mult: 2
decay_mult: 0
}
convolution_param {
num_output: 96
kernel_size: 11
stride: 4
weight_filler {
type: "gaussian"
std: 0.01
}
bias_filler {
type: "constant"
value: 0
}
}
}
layer {
name: "relu1"
type: "ReLU"
bottom: "conv1"
top: "conv1"
}
layer {
name: "norm1"
type: "LRN"
bottom: "conv1"
top: "norm1"
lrn_param {
local_size: 5
alpha: 0.0001
beta: 0.75
}
}
layer {
name: "pool1"
type: "Pooling"
bottom: "norm1"
top: "pool1"
pooling_param {
pool: MAX
kernel_size: 3
stride: 2
}
}
layer {
name: "conv2"
type: "Convolution"
bottom: "pool1"
top: "conv2"
param {
lr_mult: 1
decay_mult: 1
}
param {
lr_mult: 2
decay_mult: 0
}
convolution_param {
num_output: 256
pad: 2
kernel_size: 5
group: 2
weight_filler {
type: "gaussian"
std: 0.01
}
bias_filler {
type: "constant"
value: 0.1
}
}
}
layer {
name: "relu2"
type: "ReLU"
bottom: "conv2"
top: "conv2"
}
layer {
name: "norm2"
type: "LRN"
bottom: "conv2"
top: "norm2"
lrn_param {
local_size: 5
alpha: 0.0001
beta: 0.75
}
}
layer {
name: "pool2"
type: "Pooling"
bottom: "norm2"
top: "pool2"
pooling_param {
pool: MAX
kernel_size: 3
stride: 2
}
}
layer {
name: "conv3"
type: "Convolution"
bottom: "pool2"
top: "conv3"
param {
lr_mult: 1
decay_mult: 1
}
param {
lr_mult: 2
decay_mult: 0
}
convolution_param {
num_output: 384
pad: 1
kernel_size: 3
weight_filler {
type: "gaussian"
std: 0.01
}
bias_filler {
type: "constant"
value: 0
}
}
}
layer {
name: "relu3"
type: "ReLU"
bottom: "conv3"
top: "conv3"
}
layer {
name: "conv4"
type: "Convolution"
bottom: "conv3"
top: "conv4"
param {
lr_mult: 1
decay_mult: 1
}
param {
lr_mult: 2
decay_mult: 0
}
convolution_param {
num_output: 384
pad: 1
kernel_size: 3
group: 2
weight_filler {
type: "gaussian"
std: 0.01
}
bias_filler {
type: "constant"
value: 0.1
}
}
}
layer {
name: "relu4"
type: "ReLU"
bottom: "conv4"
top: "conv4"
}
layer {
name: "conv5"
type: "Convolution"
bottom: "conv4"
top: "conv5"
param {
lr_mult: 1
decay_mult: 1
}
param {
lr_mult: 2
decay_mult: 0
}
convolution_param {
num_output: 256
pad: 1
kernel_size: 3
group: 2
weight_filler {
type: "gaussian"
std: 0.01
}
bias_filler {
type: "constant"
value: 0.1
}
}
}
layer {
name: "relu5"
type: "ReLU"
bottom: "conv5"
top: "conv5"
}
layer {
name: "pool5"
type: "Pooling"
bottom: "conv5"
top: "pool5"
pooling_param {
pool: MAX
kernel_size: 3
stride: 2
}
}
layer {
name: "fc6"
type: "InnerProduct"
bottom: "pool5"
top: "fc6"
param {
lr_mult: 1
decay_mult: 1
}
param {
lr_mult: 2
decay_mult: 0
}
inner_product_param {
num_output: 4096
weight_filler {
type: "gaussian"
std: 0.005
}
bias_filler {
type: "constant"
value: 0.1
}
}
}
layer {
name: "relu6"
type: "ReLU"
bottom: "fc6"
top: "fc6"
}
layer {
name: "drop6"
type: "Dropout"
bottom: "fc6"
top: "fc6"
dropout_param {
dropout_ratio: 0.5
}
}
layer {
name: "fc7"
type: "InnerProduct"
bottom: "fc6"
top: "fc7"
param {
lr_mult: 1
decay_mult: 1
}
param {
lr_mult: 2
decay_mult: 0
}
inner_product_param {
num_output: 4096
weight_filler {
type: "gaussian"
std: 0.005
}
bias_filler {
type: "constant"
value: 0.1
}
}
}
layer {
name: "relu7"
type: "ReLU"
bottom: "fc7"
top: "fc7"
}
layer {
name: "drop7"
type: "Dropout"
bottom: "fc7"
top: "fc7"
dropout_param {
dropout_ratio: 0.5
}
}
layer {
name: "fc8"
type: "InnerProduct"
bottom: "fc7"
top: "fc8"
param {
lr_mult: 1
decay_mult: 1
}
param {
lr_mult: 2
decay_mult: 0
}
inner_product_param {
num_output: 196
weight_filler {
type: "gaussian"
std: 0.01
}
bias_filler {
type: "constant"
value: 0
}
}
}
layer {
name: "loss"
type: "SoftmaxWithLoss"
bottom: "fc8"
bottom: "label"
top: "loss"
}
I0419 14:01:32.878058  5641 layer_factory.hpp:77] Creating layer train-data
I0419 14:01:32.882405  5641 db_lmdb.cpp:35] Opened lmdb /mnt/bigdisk/DIGITS-AMB-2/digits/jobs/20210419-135836-fd84/train_db
I0419 14:01:32.883975  5641 net.cpp:84] Creating Layer train-data
I0419 14:01:32.883994  5641 net.cpp:380] train-data -> data
I0419 14:01:32.884021  5641 net.cpp:380] train-data -> label
I0419 14:01:32.884034  5641 data_transformer.cpp:25] Loading mean file from: /mnt/bigdisk/DIGITS-AMB-2/digits/jobs/20210419-135836-fd84/mean.binaryproto
I0419 14:01:32.889397  5641 data_layer.cpp:45] output data size: 128,3,227,227
I0419 14:01:33.037503  5641 net.cpp:122] Setting up train-data
I0419 14:01:33.037528  5641 net.cpp:129] Top shape: 128 3 227 227 (19787136)
I0419 14:01:33.037533  5641 net.cpp:129] Top shape: 128 (128)
I0419 14:01:33.037534  5641 net.cpp:137] Memory required for data: 79149056
I0419 14:01:33.037544  5641 layer_factory.hpp:77] Creating layer conv1
I0419 14:01:33.037586  5641 net.cpp:84] Creating Layer conv1
I0419 14:01:33.037592  5641 net.cpp:406] conv1 <- data
I0419 14:01:33.037606  5641 net.cpp:380] conv1 -> conv1
I0419 14:01:33.930706  5641 net.cpp:122] Setting up conv1
I0419 14:01:33.930727  5641 net.cpp:129] Top shape: 128 96 55 55 (37171200)
I0419 14:01:33.930730  5641 net.cpp:137] Memory required for data: 227833856
I0419 14:01:33.930750  5641 layer_factory.hpp:77] Creating layer relu1
I0419 14:01:33.930760  5641 net.cpp:84] Creating Layer relu1
I0419 14:01:33.930764  5641 net.cpp:406] relu1 <- conv1
I0419 14:01:33.930770  5641 net.cpp:367] relu1 -> conv1 (in-place)
I0419 14:01:33.931092  5641 net.cpp:122] Setting up relu1
I0419 14:01:33.931102  5641 net.cpp:129] Top shape: 128 96 55 55 (37171200)
I0419 14:01:33.931104  5641 net.cpp:137] Memory required for data: 376518656
I0419 14:01:33.931107  5641 layer_factory.hpp:77] Creating layer norm1
I0419 14:01:33.931118  5641 net.cpp:84] Creating Layer norm1
I0419 14:01:33.931121  5641 net.cpp:406] norm1 <- conv1
I0419 14:01:33.931147  5641 net.cpp:380] norm1 -> norm1
I0419 14:01:33.931666  5641 net.cpp:122] Setting up norm1
I0419 14:01:33.931676  5641 net.cpp:129] Top shape: 128 96 55 55 (37171200)
I0419 14:01:33.931679  5641 net.cpp:137] Memory required for data: 525203456
I0419 14:01:33.931682  5641 layer_factory.hpp:77] Creating layer pool1
I0419 14:01:33.931690  5641 net.cpp:84] Creating Layer pool1
I0419 14:01:33.931694  5641 net.cpp:406] pool1 <- norm1
I0419 14:01:33.931699  5641 net.cpp:380] pool1 -> pool1
I0419 14:01:33.931731  5641 net.cpp:122] Setting up pool1
I0419 14:01:33.931737  5641 net.cpp:129] Top shape: 128 96 27 27 (8957952)
I0419 14:01:33.931740  5641 net.cpp:137] Memory required for data: 561035264
I0419 14:01:33.931743  5641 layer_factory.hpp:77] Creating layer conv2
I0419 14:01:33.931753  5641 net.cpp:84] Creating Layer conv2
I0419 14:01:33.931756  5641 net.cpp:406] conv2 <- pool1
I0419 14:01:33.931761  5641 net.cpp:380] conv2 -> conv2
I0419 14:01:33.939317  5641 net.cpp:122] Setting up conv2
I0419 14:01:33.939333  5641 net.cpp:129] Top shape: 128 256 27 27 (23887872)
I0419 14:01:33.939337  5641 net.cpp:137] Memory required for data: 656586752
I0419 14:01:33.939347  5641 layer_factory.hpp:77] Creating layer relu2
I0419 14:01:33.939354  5641 net.cpp:84] Creating Layer relu2
I0419 14:01:33.939358  5641 net.cpp:406] relu2 <- conv2
I0419 14:01:33.939363  5641 net.cpp:367] relu2 -> conv2 (in-place)
I0419 14:01:33.939851  5641 net.cpp:122] Setting up relu2
I0419 14:01:33.939860  5641 net.cpp:129] Top shape: 128 256 27 27 (23887872)
I0419 14:01:33.939863  5641 net.cpp:137] Memory required for data: 752138240
I0419 14:01:33.939867  5641 layer_factory.hpp:77] Creating layer norm2
I0419 14:01:33.939873  5641 net.cpp:84] Creating Layer norm2
I0419 14:01:33.939877  5641 net.cpp:406] norm2 <- conv2
I0419 14:01:33.939882  5641 net.cpp:380] norm2 -> norm2
I0419 14:01:33.940204  5641 net.cpp:122] Setting up norm2
I0419 14:01:33.940213  5641 net.cpp:129] Top shape: 128 256 27 27 (23887872)
I0419 14:01:33.940217  5641 net.cpp:137] Memory required for data: 847689728
I0419 14:01:33.940219  5641 layer_factory.hpp:77] Creating layer pool2
I0419 14:01:33.940227  5641 net.cpp:84] Creating Layer pool2
I0419 14:01:33.940230  5641 net.cpp:406] pool2 <- norm2
I0419 14:01:33.940235  5641 net.cpp:380] pool2 -> pool2
I0419 14:01:33.940259  5641 net.cpp:122] Setting up pool2
I0419 14:01:33.940264  5641 net.cpp:129] Top shape: 128 256 13 13 (5537792)
I0419 14:01:33.940268  5641 net.cpp:137] Memory required for data: 869840896
I0419 14:01:33.940270  5641 layer_factory.hpp:77] Creating layer conv3
I0419 14:01:33.940279  5641 net.cpp:84] Creating Layer conv3
I0419 14:01:33.940282  5641 net.cpp:406] conv3 <- pool2
I0419 14:01:33.940287  5641 net.cpp:380] conv3 -> conv3
I0419 14:01:33.950843  5641 net.cpp:122] Setting up conv3
I0419 14:01:33.950860  5641 net.cpp:129] Top shape: 128 384 13 13 (8306688)
I0419 14:01:33.950863  5641 net.cpp:137] Memory required for data: 903067648
I0419 14:01:33.950873  5641 layer_factory.hpp:77] Creating layer relu3
I0419 14:01:33.950883  5641 net.cpp:84] Creating Layer relu3
I0419 14:01:33.950887  5641 net.cpp:406] relu3 <- conv3
I0419 14:01:33.950892  5641 net.cpp:367] relu3 -> conv3 (in-place)
I0419 14:01:33.951483  5641 net.cpp:122] Setting up relu3
I0419 14:01:33.951493  5641 net.cpp:129] Top shape: 128 384 13 13 (8306688)
I0419 14:01:33.951496  5641 net.cpp:137] Memory required for data: 936294400
I0419 14:01:33.951499  5641 layer_factory.hpp:77] Creating layer conv4
I0419 14:01:33.951511  5641 net.cpp:84] Creating Layer conv4
I0419 14:01:33.951514  5641 net.cpp:406] conv4 <- conv3
I0419 14:01:33.951520  5641 net.cpp:380] conv4 -> conv4
I0419 14:01:33.962769  5641 net.cpp:122] Setting up conv4
I0419 14:01:33.962785  5641 net.cpp:129] Top shape: 128 384 13 13 (8306688)
I0419 14:01:33.962788  5641 net.cpp:137] Memory required for data: 969521152
I0419 14:01:33.962796  5641 layer_factory.hpp:77] Creating layer relu4
I0419 14:01:33.962805  5641 net.cpp:84] Creating Layer relu4
I0419 14:01:33.962827  5641 net.cpp:406] relu4 <- conv4
I0419 14:01:33.962833  5641 net.cpp:367] relu4 -> conv4 (in-place)
I0419 14:01:33.963376  5641 net.cpp:122] Setting up relu4
I0419 14:01:33.963385  5641 net.cpp:129] Top shape: 128 384 13 13 (8306688)
I0419 14:01:33.963388  5641 net.cpp:137] Memory required for data: 1002747904
I0419 14:01:33.963392  5641 layer_factory.hpp:77] Creating layer conv5
I0419 14:01:33.963402  5641 net.cpp:84] Creating Layer conv5
I0419 14:01:33.963407  5641 net.cpp:406] conv5 <- conv4
I0419 14:01:33.963414  5641 net.cpp:380] conv5 -> conv5
I0419 14:01:33.972692  5641 net.cpp:122] Setting up conv5
I0419 14:01:33.972708  5641 net.cpp:129] Top shape: 128 256 13 13 (5537792)
I0419 14:01:33.972712  5641 net.cpp:137] Memory required for data: 1024899072
I0419 14:01:33.972723  5641 layer_factory.hpp:77] Creating layer relu5
I0419 14:01:33.972733  5641 net.cpp:84] Creating Layer relu5
I0419 14:01:33.972735  5641 net.cpp:406] relu5 <- conv5
I0419 14:01:33.972741  5641 net.cpp:367] relu5 -> conv5 (in-place)
I0419 14:01:33.973284  5641 net.cpp:122] Setting up relu5
I0419 14:01:33.973294  5641 net.cpp:129] Top shape: 128 256 13 13 (5537792)
I0419 14:01:33.973296  5641 net.cpp:137] Memory required for data: 1047050240
I0419 14:01:33.973299  5641 layer_factory.hpp:77] Creating layer pool5
I0419 14:01:33.973307  5641 net.cpp:84] Creating Layer pool5
I0419 14:01:33.973311  5641 net.cpp:406] pool5 <- conv5
I0419 14:01:33.973316  5641 net.cpp:380] pool5 -> pool5
I0419 14:01:33.973352  5641 net.cpp:122] Setting up pool5
I0419 14:01:33.973358  5641 net.cpp:129] Top shape: 128 256 6 6 (1179648)
I0419 14:01:33.973361  5641 net.cpp:137] Memory required for data: 1051768832
I0419 14:01:33.973364  5641 layer_factory.hpp:77] Creating layer fc6
I0419 14:01:33.973373  5641 net.cpp:84] Creating Layer fc6
I0419 14:01:33.973376  5641 net.cpp:406] fc6 <- pool5
I0419 14:01:33.973385  5641 net.cpp:380] fc6 -> fc6
I0419 14:01:34.330973  5641 net.cpp:122] Setting up fc6
I0419 14:01:34.330996  5641 net.cpp:129] Top shape: 128 4096 (524288)
I0419 14:01:34.330998  5641 net.cpp:137] Memory required for data: 1053865984
I0419 14:01:34.331008  5641 layer_factory.hpp:77] Creating layer relu6
I0419 14:01:34.331017  5641 net.cpp:84] Creating Layer relu6
I0419 14:01:34.331022  5641 net.cpp:406] relu6 <- fc6
I0419 14:01:34.331027  5641 net.cpp:367] relu6 -> fc6 (in-place)
I0419 14:01:34.331807  5641 net.cpp:122] Setting up relu6
I0419 14:01:34.331816  5641 net.cpp:129] Top shape: 128 4096 (524288)
I0419 14:01:34.331820  5641 net.cpp:137] Memory required for data: 1055963136
I0419 14:01:34.331822  5641 layer_factory.hpp:77] Creating layer drop6
I0419 14:01:34.331828  5641 net.cpp:84] Creating Layer drop6
I0419 14:01:34.331832  5641 net.cpp:406] drop6 <- fc6
I0419 14:01:34.331838  5641 net.cpp:367] drop6 -> fc6 (in-place)
I0419 14:01:34.331864  5641 net.cpp:122] Setting up drop6
I0419 14:01:34.331871  5641 net.cpp:129] Top shape: 128 4096 (524288)
I0419 14:01:34.331872  5641 net.cpp:137] Memory required for data: 1058060288
I0419 14:01:34.331876  5641 layer_factory.hpp:77] Creating layer fc7
I0419 14:01:34.331884  5641 net.cpp:84] Creating Layer fc7
I0419 14:01:34.331887  5641 net.cpp:406] fc7 <- fc6
I0419 14:01:34.331893  5641 net.cpp:380] fc7 -> fc7
I0419 14:01:34.491063  5641 net.cpp:122] Setting up fc7
I0419 14:01:34.491086  5641 net.cpp:129] Top shape: 128 4096 (524288)
I0419 14:01:34.491089  5641 net.cpp:137] Memory required for data: 1060157440
I0419 14:01:34.491098  5641 layer_factory.hpp:77] Creating layer relu7
I0419 14:01:34.491113  5641 net.cpp:84] Creating Layer relu7
I0419 14:01:34.491118  5641 net.cpp:406] relu7 <- fc7
I0419 14:01:34.491123  5641 net.cpp:367] relu7 -> fc7 (in-place)
I0419 14:01:34.491621  5641 net.cpp:122] Setting up relu7
I0419 14:01:34.491629  5641 net.cpp:129] Top shape: 128 4096 (524288)
I0419 14:01:34.491632  5641 net.cpp:137] Memory required for data: 1062254592
I0419 14:01:34.491636  5641 layer_factory.hpp:77] Creating layer drop7
I0419 14:01:34.491643  5641 net.cpp:84] Creating Layer drop7
I0419 14:01:34.491668  5641 net.cpp:406] drop7 <- fc7
I0419 14:01:34.491673  5641 net.cpp:367] drop7 -> fc7 (in-place)
I0419 14:01:34.491698  5641 net.cpp:122] Setting up drop7
I0419 14:01:34.491704  5641 net.cpp:129] Top shape: 128 4096 (524288)
I0419 14:01:34.491708  5641 net.cpp:137] Memory required for data: 1064351744
I0419 14:01:34.491710  5641 layer_factory.hpp:77] Creating layer fc8
I0419 14:01:34.491716  5641 net.cpp:84] Creating Layer fc8
I0419 14:01:34.491719  5641 net.cpp:406] fc8 <- fc7
I0419 14:01:34.491725  5641 net.cpp:380] fc8 -> fc8
I0419 14:01:34.499543  5641 net.cpp:122] Setting up fc8
I0419 14:01:34.499552  5641 net.cpp:129] Top shape: 128 196 (25088)
I0419 14:01:34.499555  5641 net.cpp:137] Memory required for data: 1064452096
I0419 14:01:34.499562  5641 layer_factory.hpp:77] Creating layer loss
I0419 14:01:34.499567  5641 net.cpp:84] Creating Layer loss
I0419 14:01:34.499570  5641 net.cpp:406] loss <- fc8
I0419 14:01:34.499574  5641 net.cpp:406] loss <- label
I0419 14:01:34.499583  5641 net.cpp:380] loss -> loss
I0419 14:01:34.499593  5641 layer_factory.hpp:77] Creating layer loss
…
I0419 14:01:34.564777  5641 net.cpp:294] The NetState phase (1) differed from the phase (0) specified by a rule in layer train-data
I0419 14:01:34.565129  5641 net.cpp:51] Initializing net from parameters:
state {
phase: TEST
}
layer {
name: "val-data"
type: "Data"
top: "data"
top: "label"
include {
phase: TEST
}
transform_param {
crop_size: 227
mean_file: "/mnt/bigdisk/DIGITS-AMB-2/digits/jobs/20210419-135836-fd84/mean.binaryproto"
}
data_param {
source: "/mnt/bigdisk/DIGITS-AMB-2/digits/jobs/20210419-135836-fd84/val_db"
batch_size: 32
backend: LMDB
}
}
layer {
name: "conv1"
type: "Convolution"
bottom: "data"
top: "conv1"
param {
lr_mult: 1
decay_mult: 1
}
param {
lr_mult: 2
decay_mult: 0
}
convolution_param {
num_output: 96
kernel_size: 11
stride: 4
weight_filler {
type: "gaussian"
std: 0.01
}
bias_filler {
type: "constant"
value: 0
}
}
}
layer {
name: "relu1"
type: "ReLU"
bottom: "conv1"
top: "conv1"
}
layer {
name: "norm1"
type: "LRN"
bottom: "conv1"
top: "norm1"
lrn_param {
local_size: 5
alpha: 0.0001
beta: 0.75
}
}
layer {
name: "pool1"
type: "Pooling"
bottom: "norm1"
top: "pool1"
pooling_param {
pool: MAX
kernel_size: 3
stride: 2
}
}
layer {
name: "conv2"
type: "Convolution"
bottom: "pool1"
top: "conv2"
param {
lr_mult: 1
decay_mult: 1
}
param {
lr_mult: 2
decay_mult: 0
}
convolution_param {
num_output: 256
pad: 2
kernel_size: 5
group: 2
weight_filler {
type: "gaussian"
std: 0.01
}
bias_filler {
type: "constant"
value: 0.1
}
}
}
layer {
name: "relu2"
type: "ReLU"
bottom: "conv2"
top: "conv2"
}
layer {
name: "norm2"
type: "LRN"
bottom: "conv2"
top: "norm2"
lrn_param {
local_size: 5
alpha: 0.0001
beta: 0.75
}
}
layer {
name: "pool2"
type: "Pooling"
bottom: "norm2"
top: "pool2"
pooling_param {
pool: MAX
kernel_size: 3
stride: 2
}
}
layer {
name: "conv3"
type: "Convolution"
bottom: "pool2"
top: "conv3"
param {
lr_mult: 1
decay_mult: 1
}
param {
lr_mult: 2
decay_mult: 0
}
convolution_param {
num_output: 384
pad: 1
kernel_size: 3
weight_filler {
type: "gaussian"
std: 0.01
}
bias_filler {
type: "constant"
value: 0
}
}
}
layer {
name: "relu3"
type: "ReLU"
bottom: "conv3"
top: "conv3"
}
layer {
name: "conv4"
type: "Convolution"
bottom: "conv3"
top: "conv4"
param {
lr_mult: 1
decay_mult: 1
}
param {
lr_mult: 2
decay_mult: 0
}
convolution_param {
num_output: 384
pad: 1
kernel_size: 3
group: 2
weight_filler {
type: "gaussian"
std: 0.01
}
bias_filler {
type: "constant"
value: 0.1
}
}
}
layer {
name: "relu4"
type: "ReLU"
bottom: "conv4"
top: "conv4"
}
layer {
name: "conv5"
type: "Convolution"
bottom: "conv4"
top: "conv5"
param {
lr_mult: 1
decay_mult: 1
}
param {
lr_mult: 2
decay_mult: 0
}
convolution_param {
num_output: 256
pad: 1
kernel_size: 3
group: 2
weight_filler {
type: "gaussian"
std: 0.01
}
bias_filler {
type: "constant"
value: 0.1
}
}
}
layer {
name: "relu5"
type: "ReLU"
bottom: "conv5"
top: "conv5"
}
layer {
name: "pool5"
type: "Pooling"
bottom: "conv5"
top: "pool5"
pooling_param {
pool: MAX
kernel_size: 3
stride: 2
}
}
layer {
name: "fc6"
type: "InnerProduct"
bottom: "pool5"
top: "fc6"
param {
lr_mult: 1
decay_mult: 1
}
param {
lr_mult: 2
decay_mult: 0
}
inner_product_param {
num_output: 4096
weight_filler {
type: "gaussian"
std: 0.005
}
bias_filler {
type: "constant"
value: 0.1
}
}
}
layer {
name: "relu6"
type: "ReLU"
bottom: "fc6"
top: "fc6"
}
layer {
name: "drop6"
type: "Dropout"
bottom: "fc6"
top: "fc6"
dropout_param {
dropout_ratio: 0.5
}
}
layer {
name: "fc7"
type: "InnerProduct"
bottom: "fc6"
top: "fc7"
param {
lr_mult: 1
decay_mult: 1
}
param {
lr_mult: 2
decay_mult: 0
}
inner_product_param {
num_output: 4096
weight_filler {
type: "gaussian"
std: 0.005
}
bias_filler {
type: "constant"
value: 0.1
}
}
}
layer {
name: "relu7"
type: "ReLU"
bottom: "fc7"
top: "fc7"
}
layer {
name: "drop7"
type: "Dropout"
bottom: "fc7"
top: "fc7"
dropout_param {
dropout_ratio: 0.5
}
}
layer {
name: "fc8"
type: "InnerProduct"
bottom: "fc7"
top: "fc8"
param {
lr_mult: 1
decay_mult: 1
}
param {
lr_mult: 2
decay_mult: 0
}
inner_product_param {
num_output: 196
weight_filler {
type: "gaussian"
std: 0.01
}
bias_filler {
type: "constant"
value: 0
}
}
}
layer {
name: "accuracy"
type: "Accuracy"
bottom: "fc8"
bottom: "label"
top: "accuracy"
include {
phase: TEST
}
}
layer {
name: "loss"
type: "SoftmaxWithLoss"
bottom: "fc8"
bottom: "label"
top: "loss"
}
I0419 14:01:34.565382  5641 layer_factory.hpp:77] Creating layer val-data
I0419 14:01:35.063510  5641 db_lmdb.cpp:35] Opened lmdb /mnt/bigdisk/DIGITS-AMB-2/digits/jobs/20210419-135836-fd84/val_db
I0419 14:01:35.109279  5641 net.cpp:84] Creating Layer val-data
I0419 14:01:35.109324  5641 net.cpp:380] val-data -> data
I0419 14:01:35.109351  5641 net.cpp:380] val-data -> label
I0419 14:01:35.109370  5641 data_transformer.cpp:25] Loading mean file from: /mnt/bigdisk/DIGITS-AMB-2/digits/jobs/20210419-135836-fd84/mean.binaryproto
I0419 14:01:35.133947  5641 data_layer.cpp:45] output data size: 32,3,227,227
I0419 14:01:35.177662  5641 net.cpp:122] Setting up val-data
I0419 14:01:35.177685  5641 net.cpp:129] Top shape: 32 3 227 227 (4946784)
I0419 14:01:35.177690  5641 net.cpp:129] Top shape: 32 (32)
I0419 14:01:35.177692  5641 net.cpp:137] Memory required for data: 19787264
I0419 14:01:35.177698  5641 layer_factory.hpp:77] Creating layer label_val-data_1_split
I0419 14:01:35.177709  5641 net.cpp:84] Creating Layer label_val-data_1_split
I0419 14:01:35.177714  5641 net.cpp:406] label_val-data_1_split <- label
I0419 14:01:35.177721  5641 net.cpp:380] label_val-data_1_split -> label_val-data_1_split_0
I0419 14:01:35.177731  5641 net.cpp:380] label_val-data_1_split -> label_val-data_1_split_1
I0419 14:01:35.177772  5641 net.cpp:122] Setting up label_val-data_1_split
I0419 14:01:35.177778  5641 net.cpp:129] Top shape: 32 (32)
I0419 14:01:35.177781  5641 net.cpp:129] Top shape: 32 (32)
I0419 14:01:35.177783  5641 net.cpp:137] Memory required for data: 19787520
I0419 14:01:35.177786  5641 layer_factory.hpp:77] Creating layer conv1
I0419 14:01:35.177798  5641 net.cpp:84] Creating Layer conv1
I0419 14:01:35.177801  5641 net.cpp:406] conv1 <- data
I0419 14:01:35.177806  5641 net.cpp:380] conv1 -> conv1
I0419 14:01:35.180999  5641 net.cpp:122] Setting up conv1
I0419 14:01:35.181010  5641 net.cpp:129] Top shape: 32 96 55 55 (9292800)
I0419 14:01:35.181013  5641 net.cpp:137] Memory required for data: 56958720
I0419 14:01:35.181022  5641 layer_factory.hpp:77] Creating layer relu1
I0419 14:01:35.181030  5641 net.cpp:84] Creating Layer relu1
I0419 14:01:35.181032  5641 net.cpp:406] relu1 <- conv1
I0419 14:01:35.181037  5641 net.cpp:367] relu1 -> conv1 (in-place)
I0419 14:01:35.181360  5641 net.cpp:122] Setting up relu1
I0419 14:01:35.181370  5641 net.cpp:129] Top shape: 32 96 55 55 (9292800)
I0419 14:01:35.181372  5641 net.cpp:137] Memory required for data: 94129920
I0419 14:01:35.181375  5641 layer_factory.hpp:77] Creating layer norm1
I0419 14:01:35.181385  5641 net.cpp:84] Creating Layer norm1
I0419 14:01:35.181388  5641 net.cpp:406] norm1 <- conv1
I0419 14:01:35.181393  5641 net.cpp:380] norm1 -> norm1
I0419 14:01:35.181910  5641 net.cpp:122] Setting up norm1
I0419 14:01:35.181919  5641 net.cpp:129] Top shape: 32 96 55 55 (9292800)
I0419 14:01:35.181922  5641 net.cpp:137] Memory required for data: 131301120
I0419 14:01:35.181926  5641 layer_factory.hpp:77] Creating layer pool1
I0419 14:01:35.181932  5641 net.cpp:84] Creating Layer pool1
I0419 14:01:35.181936  5641 net.cpp:406] pool1 <- norm1
I0419 14:01:35.181941  5641 net.cpp:380] pool1 -> pool1
I0419 14:01:35.181965  5641 net.cpp:122] Setting up pool1
I0419 14:01:35.181972  5641 net.cpp:129] Top shape: 32 96 27 27 (2239488)
I0419 14:01:35.181974  5641 net.cpp:137] Memory required for data: 140259072
I0419 14:01:35.181977  5641 layer_factory.hpp:77] Creating layer conv2
I0419 14:01:35.181984  5641 net.cpp:84] Creating Layer conv2
I0419 14:01:35.181988  5641 net.cpp:406] conv2 <- pool1
I0419 14:01:35.182013  5641 net.cpp:380] conv2 -> conv2
I0419 14:01:35.191722  5641 net.cpp:122] Setting up conv2
I0419 14:01:35.191736  5641 net.cpp:129] Top shape: 32 256 27 27 (5971968)
I0419 14:01:35.191740  5641 net.cpp:137] Memory required for data: 164146944
I0419 14:01:35.191751  5641 layer_factory.hpp:77] Creating layer relu2
I0419 14:01:35.191757  5641 net.cpp:84] Creating Layer relu2
I0419 14:01:35.191761  5641 net.cpp:406] relu2 <- conv2
I0419 14:01:35.191768  5641 net.cpp:367] relu2 -> conv2 (in-place)
I0419 14:01:35.192343  5641 net.cpp:122] Setting up relu2
I0419 14:01:35.192354  5641 net.cpp:129] Top shape: 32 256 27 27 (5971968)
I0419 14:01:35.192358  5641 net.cpp:137] Memory required for data: 188034816
I0419 14:01:35.192361  5641 layer_factory.hpp:77] Creating layer norm2
I0419 14:01:35.192373  5641 net.cpp:84] Creating Layer norm2
I0419 14:01:35.192375  5641 net.cpp:406] norm2 <- conv2
I0419 14:01:35.192381  5641 net.cpp:380] norm2 -> norm2
I0419 14:01:35.193140  5641 net.cpp:122] Setting up norm2
I0419 14:01:35.193150  5641 net.cpp:129] Top shape: 32 256 27 27 (5971968)
I0419 14:01:35.193152  5641 net.cpp:137] Memory required for data: 211922688
I0419 14:01:35.193156  5641 layer_factory.hpp:77] Creating layer pool2
I0419 14:01:35.193161  5641 net.cpp:84] Creating Layer pool2
I0419 14:01:35.193164  5641 net.cpp:406] pool2 <- norm2
I0419 14:01:35.193171  5641 net.cpp:380] pool2 -> pool2
I0419 14:01:35.193202  5641 net.cpp:122] Setting up pool2
I0419 14:01:35.193207  5641 net.cpp:129] Top shape: 32 256 13 13 (1384448)
I0419 14:01:35.193209  5641 net.cpp:137] Memory required for data: 217460480
I0419 14:01:35.193212  5641 layer_factory.hpp:77] Creating layer conv3
I0419 14:01:35.193222  5641 net.cpp:84] Creating Layer conv3
I0419 14:01:35.193225  5641 net.cpp:406] conv3 <- pool2
I0419 14:01:35.193233  5641 net.cpp:380] conv3 -> conv3
I0419 14:01:35.205010  5641 net.cpp:122] Setting up conv3
I0419 14:01:35.205029  5641 net.cpp:129] Top shape: 32 384 13 13 (2076672)
I0419 14:01:35.205031  5641 net.cpp:137] Memory required for data: 225767168
I0419 14:01:35.205042  5641 layer_factory.hpp:77] Creating layer relu3
I0419 14:01:35.205050  5641 net.cpp:84] Creating Layer relu3
I0419 14:01:35.205054  5641 net.cpp:406] relu3 <- conv3
I0419 14:01:35.205061  5641 net.cpp:367] relu3 -> conv3 (in-place)
I0419 14:01:35.205639  5641 net.cpp:122] Setting up relu3
I0419 14:01:35.205648  5641 net.cpp:129] Top shape: 32 384 13 13 (2076672)
I0419 14:01:35.205651  5641 net.cpp:137] Memory required for data: 234073856
I0419 14:01:35.205654  5641 layer_factory.hpp:77] Creating layer conv4
I0419 14:01:35.205667  5641 net.cpp:84] Creating Layer conv4
I0419 14:01:35.205670  5641 net.cpp:406] conv4 <- conv3
I0419 14:01:35.205677  5641 net.cpp:380] conv4 -> conv4
I0419 14:01:35.215924  5641 net.cpp:122] Setting up conv4
I0419 14:01:35.215940  5641 net.cpp:129] Top shape: 32 384 13 13 (2076672)
I0419 14:01:35.215945  5641 net.cpp:137] Memory required for data: 242380544
I0419 14:01:35.215951  5641 layer_factory.hpp:77] Creating layer relu4
I0419 14:01:35.215960  5641 net.cpp:84] Creating Layer relu4
I0419 14:01:35.215963  5641 net.cpp:406] relu4 <- conv4
I0419 14:01:35.215968  5641 net.cpp:367] relu4 -> conv4 (in-place)
I0419 14:01:35.216344  5641 net.cpp:122] Setting up relu4
I0419 14:01:35.216357  5641 net.cpp:129] Top shape: 32 384 13 13 (2076672)
I0419 14:01:35.216361  5641 net.cpp:137] Memory required for data: 250687232
I0419 14:01:35.216363  5641 layer_factory.hpp:77] Creating layer conv5
I0419 14:01:35.216374  5641 net.cpp:84] Creating Layer conv5
I0419 14:01:35.216378  5641 net.cpp:406] conv5 <- conv4
I0419 14:01:35.216384  5641 net.cpp:380] conv5 -> conv5
I0419 14:01:35.226244  5641 net.cpp:122] Setting up conv5
I0419 14:01:35.226260  5641 net.cpp:129] Top shape: 32 256 13 13 (1384448)
I0419 14:01:35.226264  5641 net.cpp:137] Memory required for data: 256225024
I0419 14:01:35.226277  5641 layer_factory.hpp:77] Creating layer relu5
I0419 14:01:35.226285  5641 net.cpp:84] Creating Layer relu5
I0419 14:01:35.226289  5641 net.cpp:406] relu5 <- conv5
I0419 14:01:35.226315  5641 net.cpp:367] relu5 -> conv5 (in-place)
I0419 14:01:35.226878  5641 net.cpp:122] Setting up relu5
I0419 14:01:35.226888  5641 net.cpp:129] Top shape: 32 256 13 13 (1384448)
I0419 14:01:35.226891  5641 net.cpp:137] Memory required for data: 261762816
I0419 14:01:35.226894  5641 layer_factory.hpp:77] Creating layer pool5
I0419 14:01:35.226907  5641 net.cpp:84] Creating Layer pool5
I0419 14:01:35.226910  5641 net.cpp:406] pool5 <- conv5
I0419 14:01:35.226915  5641 net.cpp:380] pool5 -> pool5
I0419 14:01:35.226953  5641 net.cpp:122] Setting up pool5
I0419 14:01:35.226959  5641 net.cpp:129] Top shape: 32 256 6 6 (294912)
I0419 14:01:35.226963  5641 net.cpp:137] Memory required for data: 262942464
I0419 14:01:35.226965  5641 layer_factory.hpp:77] Creating layer fc6
I0419 14:01:35.226972  5641 net.cpp:84] Creating Layer fc6
I0419 14:01:35.226975  5641 net.cpp:406] fc6 <- pool5
I0419 14:01:35.226981  5641 net.cpp:380] fc6 -> fc6
I0419 14:01:35.585745  5641 net.cpp:122] Setting up fc6
I0419 14:01:35.585767  5641 net.cpp:129] Top shape: 32 4096 (131072)
I0419 14:01:35.585769  5641 net.cpp:137] Memory required for data: 263466752
I0419 14:01:35.585779  5641 layer_factory.hpp:77] Creating layer relu6
I0419 14:01:35.585788  5641 net.cpp:84] Creating Layer relu6
I0419 14:01:35.585791  5641 net.cpp:406] relu6 <- fc6
I0419 14:01:35.585799  5641 net.cpp:367] relu6 -> fc6 (in-place)
I0419 14:01:35.586575  5641 net.cpp:122] Setting up relu6
I0419 14:01:35.586586  5641 net.cpp:129] Top shape: 32 4096 (131072)
I0419 14:01:35.586589  5641 net.cpp:137] Memory required for data: 263991040
I0419 14:01:35.586592  5641 layer_factory.hpp:77] Creating layer drop6
I0419 14:01:35.586599  5641 net.cpp:84] Creating Layer drop6
I0419 14:01:35.586602  5641 net.cpp:406] drop6 <- fc6
I0419 14:01:35.586607  5641 net.cpp:367] drop6 -> fc6 (in-place)
I0419 14:01:35.586632  5641 net.cpp:122] Setting up drop6
I0419 14:01:35.586637  5641 net.cpp:129] Top shape: 32 4096 (131072)
I0419 14:01:35.586639  5641 net.cpp:137] Memory required for data: 264515328
I0419 14:01:35.586642  5641 layer_factory.hpp:77] Creating layer fc7
I0419 14:01:35.586650  5641 net.cpp:84] Creating Layer fc7
I0419 14:01:35.586653  5641 net.cpp:406] fc7 <- fc6
I0419 14:01:35.586658  5641 net.cpp:380] fc7 -> fc7
I0419 14:01:35.746621  5641 net.cpp:122] Setting up fc7
I0419 14:01:35.746640  5641 net.cpp:129] Top shape: 32 4096 (131072)
I0419 14:01:35.746644  5641 net.cpp:137] Memory required for data: 265039616
I0419 14:01:35.746654  5641 layer_factory.hpp:77] Creating layer relu7
I0419 14:01:35.746661  5641 net.cpp:84] Creating Layer relu7
I0419 14:01:35.746665  5641 net.cpp:406] relu7 <- fc7
I0419 14:01:35.746673  5641 net.cpp:367] relu7 -> fc7 (in-place)
I0419 14:01:35.747174  5641 net.cpp:122] Setting up relu7
I0419 14:01:35.747184  5641 net.cpp:129] Top shape: 32 4096 (131072)
I0419 14:01:35.747186  5641 net.cpp:137] Memory required for data: 265563904
I0419 14:01:35.747189  5641 layer_factory.hpp:77] Creating layer drop7
I0419 14:01:35.747195  5641 net.cpp:84] Creating Layer drop7
I0419 14:01:35.747198  5641 net.cpp:406] drop7 <- fc7
I0419 14:01:35.747205  5641 net.cpp:367] drop7 -> fc7 (in-place)
I0419 14:01:35.747227  5641 net.cpp:122] Setting up drop7
I0419 14:01:35.747232  5641 net.cpp:129] Top shape: 32 4096 (131072)
I0419 14:01:35.747236  5641 net.cpp:137] Memory required for data: 266088192
I0419 14:01:35.747238  5641 layer_factory.hpp:77] Creating layer fc8
I0419 14:01:35.747246  5641 net.cpp:84] Creating Layer fc8
I0419 14:01:35.747249  5641 net.cpp:406] fc8 <- fc7
I0419 14:01:35.747256  5641 net.cpp:380] fc8 -> fc8
I0419 14:01:35.755070  5641 net.cpp:122] Setting up fc8
I0419 14:01:35.755080  5641 net.cpp:129] Top shape: 32 196 (6272)
I0419 14:01:35.755084  5641 net.cpp:137] Memory required for data: 266113280
I0419 14:01:35.755089  5641 layer_factory.hpp:77] Creating layer fc8_fc8_0_split
I0419 14:01:35.755097  5641 net.cpp:84] Creating Layer fc8_fc8_0_split
I0419 14:01:35.755100  5641 net.cpp:406] fc8_fc8_0_split <- fc8
I0419 14:01:35.755125  5641 net.cpp:380] fc8_fc8_0_split -> fc8_fc8_0_split_0
I0419 14:01:35.755131  5641 net.cpp:380] fc8_fc8_0_split -> fc8_fc8_0_split_1
I0419 14:01:35.755160  5641 net.cpp:122] Setting up fc8_fc8_0_split
I0419 14:01:35.755167  5641 net.cpp:129] Top shape: 32 196 (6272)
I0419 14:01:35.755169  5641 net.cpp:129] Top shape: 32 196 (6272)
I0419 14:01:35.755172  5641 net.cpp:137] Memory required for data: 266163456
I0419 14:01:35.755174  5641 layer_factory.hpp:77] Creating layer accuracy
I0419 14:01:35.755182  5641 net.cpp:84] Creating Layer accuracy
I0419 14:01:35.755184  5641 net.cpp:406] accuracy <- fc8_fc8_0_split_0
I0419 14:01:35.755189  5641 net.cpp:406] accuracy <- label_val-data_1_split_0
I0419 14:01:35.755194  5641 net.cpp:380] accuracy -> accuracy
…
