…
I0428 16:15:10.678710  8281 net.cpp:294] The NetState phase (0) differed from the phase (1) specified by a rule in layer accuracy
I0428 16:15:10.678843  8281 net.cpp:51] Initializing net from parameters:
state {
phase: TRAIN
level: 0
stage: ""
}
layer {
name: "train-data"
type: "Data"
top: "data"
top: "label"
include {
phase: TRAIN
}
transform_param {
mirror: true
crop_size: 227
mean_file: "/mnt/bigdisk/DIGITS-AMB-2/digits/jobs/20210419-113214-d311/mean.binaryproto"
}
data_param {
source: "/mnt/bigdisk/DIGITS-AMB-2/digits/jobs/20210419-113214-d311/train_db"
batch_size: 128
backend: LMDB
}
}
layer {
name: "conv1"
type: "Convolution"
bottom: "data"
top: "conv1"
param {
lr_mult: 1
decay_mult: 1
}
param {
lr_mult: 2
decay_mult: 0
}
convolution_param {
num_output: 96
kernel_size: 11
stride: 4
weight_filler {
type: "gaussian"
std: 0.01
}
bias_filler {
type: "constant"
value: 0
}
}
}
layer {
name: "relu1"
type: "ReLU"
bottom: "conv1"
top: "conv1"
}
layer {
name: "norm1"
type: "LRN"
bottom: "conv1"
top: "norm1"
lrn_param {
local_size: 5
alpha: 0.0001
beta: 0.75
}
}
layer {
name: "pool1"
type: "Pooling"
bottom: "norm1"
top: "pool1"
pooling_param {
pool: MAX
kernel_size: 3
stride: 2
}
}
layer {
name: "conv2"
type: "Convolution"
bottom: "pool1"
top: "conv2"
param {
lr_mult: 1
decay_mult: 1
}
param {
lr_mult: 2
decay_mult: 0
}
convolution_param {
num_output: 256
pad: 2
kernel_size: 5
group: 2
weight_filler {
type: "gaussian"
std: 0.01
}
bias_filler {
type: "constant"
value: 0.1
}
}
}
layer {
name: "relu2"
type: "ReLU"
bottom: "conv2"
top: "conv2"
}
layer {
name: "norm2"
type: "LRN"
bottom: "conv2"
top: "norm2"
lrn_param {
local_size: 5
alpha: 0.0001
beta: 0.75
}
}
layer {
name: "pool2"
type: "Pooling"
bottom: "norm2"
top: "pool2"
pooling_param {
pool: MAX
kernel_size: 3
stride: 2
}
}
layer {
name: "conv3"
type: "Convolution"
bottom: "pool2"
top: "conv3"
param {
lr_mult: 1
decay_mult: 1
}
param {
lr_mult: 2
decay_mult: 0
}
convolution_param {
num_output: 384
pad: 1
kernel_size: 3
weight_filler {
type: "gaussian"
std: 0.01
}
bias_filler {
type: "constant"
value: 0
}
}
}
layer {
name: "relu3"
type: "ReLU"
bottom: "conv3"
top: "conv3"
}
layer {
name: "conv3.5"
type: "Convolution"
bottom: "conv3"
top: "conv3.5"
param {
lr_mult: 1
decay_mult: 1
}
param {
lr_mult: 2
decay_mult: 0
}
convolution_param {
num_output: 576
pad: 1
kernel_size: 3
weight_filler {
type: "gaussian"
std: 0.01
}
bias_filler {
type: "constant"
value: 0
}
}
}
layer {
name: "relu3.5"
type: "ReLU"
bottom: "conv3.5"
top: "conv3.5"
}
layer {
name: "conv4"
type: "Convolution"
bottom: "conv3.5"
top: "conv4"
param {
lr_mult: 1
decay_mult: 1
}
param {
lr_mult: 2
decay_mult: 0
}
convolution_param {
num_output: 384
pad: 1
kernel_size: 3
group: 2
weight_filler {
type: "gaussian"
std: 0.01
}
bias_filler {
type: "constant"
value: 0.1
}
}
}
layer {
name: "relu4"
type: "ReLU"
bottom: "conv4"
top: "conv4"
}
layer {
name: "conv5"
type: "Convolution"
bottom: "conv4"
top: "conv5"
param {
lr_mult: 1
decay_mult: 1
}
param {
lr_mult: 2
decay_mult: 0
}
convolution_param {
num_output: 256
pad: 1
kernel_size: 3
group: 2
weight_filler {
type: "gaussian"
std: 0.01
}
bias_filler {
type: "constant"
value: 0.1
}
}
}
layer {
name: "relu5"
type: "ReLU"
bottom: "conv5"
top: "conv5"
}
layer {
name: "pool5"
type: "Pooling"
bottom: "conv5"
top: "pool5"
pooling_param {
pool: MAX
kernel_size: 3
stride: 2
}
}
layer {
name: "fc6"
type: "InnerProduct"
bottom: "pool5"
top: "fc6"
param {
lr_mult: 1
decay_mult: 1
}
param {
lr_mult: 2
decay_mult: 0
}
inner_product_param {
num_output: 4096
weight_filler {
type: "gaussian"
std: 0.005
}
bias_filler {
type: "constant"
value: 0.1
}
}
}
layer {
name: "relu6"
type: "ReLU"
bottom: "fc6"
top: "fc6"
}
layer {
name: "drop6"
type: "Dropout"
bottom: "fc6"
top: "fc6"
dropout_param {
dropout_ratio: 0.5
}
}
layer {
name: "fc7"
type: "InnerProduct"
bottom: "fc6"
top: "fc7"
param {
lr_mult: 1
decay_mult: 1
}
param {
lr_mult: 2
decay_mult: 0
}
inner_product_param {
num_output: 4096
weight_filler {
type: "gaussian"
std: 0.005
}
bias_filler {
type: "constant"
value: 0.1
}
}
}
layer {
name: "relu7"
type: "ReLU"
bottom: "fc7"
top: "fc7"
}
layer {
name: "drop7"
type: "Dropout"
bottom: "fc7"
top: "fc7"
dropout_param {
dropout_ratio: 0.5
}
}
layer {
name: "fc8"
type: "InnerProduct"
bottom: "fc7"
top: "fc8"
param {
lr_mult: 1
decay_mult: 1
}
param {
lr_mult: 2
decay_mult: 0
}
inner_product_param {
num_output: 196
weight_filler {
type: "gaussian"
std: 0.01
}
bias_filler {
type: "constant"
value: 0
}
}
}
layer {
name: "loss"
type: "SoftmaxWithLoss"
bottom: "fc8"
bottom: "label"
top: "loss"
}
I0428 16:15:10.678936  8281 layer_factory.hpp:77] Creating layer train-data
I0428 16:15:10.682428  8281 db_lmdb.cpp:35] Opened lmdb /mnt/bigdisk/DIGITS-AMB-2/digits/jobs/20210419-113214-d311/train_db
I0428 16:15:10.683987  8281 net.cpp:84] Creating Layer train-data
I0428 16:15:10.684001  8281 net.cpp:380] train-data -> data
I0428 16:15:10.684020  8281 net.cpp:380] train-data -> label
I0428 16:15:10.684036  8281 data_transformer.cpp:25] Loading mean file from: /mnt/bigdisk/DIGITS-AMB-2/digits/jobs/20210419-113214-d311/mean.binaryproto
I0428 16:15:10.688730  8281 data_layer.cpp:45] output data size: 128,3,227,227
I0428 16:15:10.827765  8281 net.cpp:122] Setting up train-data
I0428 16:15:10.827786  8281 net.cpp:129] Top shape: 128 3 227 227 (19787136)
I0428 16:15:10.827790  8281 net.cpp:129] Top shape: 128 (128)
I0428 16:15:10.827793  8281 net.cpp:137] Memory required for data: 79149056
I0428 16:15:10.827802  8281 layer_factory.hpp:77] Creating layer conv1
I0428 16:15:10.827822  8281 net.cpp:84] Creating Layer conv1
I0428 16:15:10.827828  8281 net.cpp:406] conv1 <- data
I0428 16:15:10.827839  8281 net.cpp:380] conv1 -> conv1
I0428 16:15:11.765399  8281 net.cpp:122] Setting up conv1
I0428 16:15:11.765421  8281 net.cpp:129] Top shape: 128 96 55 55 (37171200)
I0428 16:15:11.765425  8281 net.cpp:137] Memory required for data: 227833856
I0428 16:15:11.765446  8281 layer_factory.hpp:77] Creating layer relu1
I0428 16:15:11.765456  8281 net.cpp:84] Creating Layer relu1
I0428 16:15:11.765461  8281 net.cpp:406] relu1 <- conv1
I0428 16:15:11.765488  8281 net.cpp:367] relu1 -> conv1 (in-place)
I0428 16:15:11.765817  8281 net.cpp:122] Setting up relu1
I0428 16:15:11.765827  8281 net.cpp:129] Top shape: 128 96 55 55 (37171200)
I0428 16:15:11.765830  8281 net.cpp:137] Memory required for data: 376518656
I0428 16:15:11.765833  8281 layer_factory.hpp:77] Creating layer norm1
I0428 16:15:11.765842  8281 net.cpp:84] Creating Layer norm1
I0428 16:15:11.765846  8281 net.cpp:406] norm1 <- conv1
I0428 16:15:11.765851  8281 net.cpp:380] norm1 -> norm1
I0428 16:15:11.766516  8281 net.cpp:122] Setting up norm1
I0428 16:15:11.766527  8281 net.cpp:129] Top shape: 128 96 55 55 (37171200)
I0428 16:15:11.766530  8281 net.cpp:137] Memory required for data: 525203456
I0428 16:15:11.766533  8281 layer_factory.hpp:77] Creating layer pool1
I0428 16:15:11.766541  8281 net.cpp:84] Creating Layer pool1
I0428 16:15:11.766544  8281 net.cpp:406] pool1 <- norm1
I0428 16:15:11.766548  8281 net.cpp:380] pool1 -> pool1
I0428 16:15:11.766582  8281 net.cpp:122] Setting up pool1
I0428 16:15:11.766587  8281 net.cpp:129] Top shape: 128 96 27 27 (8957952)
I0428 16:15:11.766589  8281 net.cpp:137] Memory required for data: 561035264
I0428 16:15:11.766592  8281 layer_factory.hpp:77] Creating layer conv2
I0428 16:15:11.766610  8281 net.cpp:84] Creating Layer conv2
I0428 16:15:11.766613  8281 net.cpp:406] conv2 <- pool1
I0428 16:15:11.766618  8281 net.cpp:380] conv2 -> conv2
I0428 16:15:11.775907  8281 net.cpp:122] Setting up conv2
I0428 16:15:11.775923  8281 net.cpp:129] Top shape: 128 256 27 27 (23887872)
I0428 16:15:11.775926  8281 net.cpp:137] Memory required for data: 656586752
I0428 16:15:11.775936  8281 layer_factory.hpp:77] Creating layer relu2
I0428 16:15:11.775944  8281 net.cpp:84] Creating Layer relu2
I0428 16:15:11.775949  8281 net.cpp:406] relu2 <- conv2
I0428 16:15:11.775954  8281 net.cpp:367] relu2 -> conv2 (in-place)
I0428 16:15:11.776455  8281 net.cpp:122] Setting up relu2
I0428 16:15:11.776464  8281 net.cpp:129] Top shape: 128 256 27 27 (23887872)
I0428 16:15:11.776468  8281 net.cpp:137] Memory required for data: 752138240
I0428 16:15:11.776471  8281 layer_factory.hpp:77] Creating layer norm2
I0428 16:15:11.776477  8281 net.cpp:84] Creating Layer norm2
I0428 16:15:11.776481  8281 net.cpp:406] norm2 <- conv2
I0428 16:15:11.776485  8281 net.cpp:380] norm2 -> norm2
I0428 16:15:11.776814  8281 net.cpp:122] Setting up norm2
I0428 16:15:11.776823  8281 net.cpp:129] Top shape: 128 256 27 27 (23887872)
I0428 16:15:11.776826  8281 net.cpp:137] Memory required for data: 847689728
I0428 16:15:11.776830  8281 layer_factory.hpp:77] Creating layer pool2
I0428 16:15:11.776837  8281 net.cpp:84] Creating Layer pool2
I0428 16:15:11.776840  8281 net.cpp:406] pool2 <- norm2
I0428 16:15:11.776845  8281 net.cpp:380] pool2 -> pool2
I0428 16:15:11.776870  8281 net.cpp:122] Setting up pool2
I0428 16:15:11.776875  8281 net.cpp:129] Top shape: 128 256 13 13 (5537792)
I0428 16:15:11.776878  8281 net.cpp:137] Memory required for data: 869840896
I0428 16:15:11.776880  8281 layer_factory.hpp:77] Creating layer conv3
I0428 16:15:11.776890  8281 net.cpp:84] Creating Layer conv3
I0428 16:15:11.776893  8281 net.cpp:406] conv3 <- pool2
I0428 16:15:11.776897  8281 net.cpp:380] conv3 -> conv3
I0428 16:15:11.787585  8281 net.cpp:122] Setting up conv3
I0428 16:15:11.787600  8281 net.cpp:129] Top shape: 128 384 13 13 (8306688)
I0428 16:15:11.787604  8281 net.cpp:137] Memory required for data: 903067648
I0428 16:15:11.787614  8281 layer_factory.hpp:77] Creating layer relu3
I0428 16:15:11.787622  8281 net.cpp:84] Creating Layer relu3
I0428 16:15:11.787626  8281 net.cpp:406] relu3 <- conv3
I0428 16:15:11.787631  8281 net.cpp:367] relu3 -> conv3 (in-place)
I0428 16:15:11.788153  8281 net.cpp:122] Setting up relu3
I0428 16:15:11.788163  8281 net.cpp:129] Top shape: 128 384 13 13 (8306688)
I0428 16:15:11.788166  8281 net.cpp:137] Memory required for data: 936294400
I0428 16:15:11.788169  8281 layer_factory.hpp:77] Creating layer conv3.5
I0428 16:15:11.788178  8281 net.cpp:84] Creating Layer conv3.5
I0428 16:15:11.788203  8281 net.cpp:406] conv3.5 <- conv3
I0428 16:15:11.788208  8281 net.cpp:380] conv3.5 -> conv3.5
I0428 16:15:11.810146  8281 net.cpp:122] Setting up conv3.5
I0428 16:15:11.810165  8281 net.cpp:129] Top shape: 128 576 13 13 (12460032)
I0428 16:15:11.810169  8281 net.cpp:137] Memory required for data: 986134528
I0428 16:15:11.810178  8281 layer_factory.hpp:77] Creating layer relu3.5
I0428 16:15:11.810184  8281 net.cpp:84] Creating Layer relu3.5
I0428 16:15:11.810189  8281 net.cpp:406] relu3.5 <- conv3.5
I0428 16:15:11.810194  8281 net.cpp:367] relu3.5 -> conv3.5 (in-place)
I0428 16:15:11.811182  8281 net.cpp:122] Setting up relu3.5
I0428 16:15:11.811193  8281 net.cpp:129] Top shape: 128 576 13 13 (12460032)
I0428 16:15:11.811197  8281 net.cpp:137] Memory required for data: 1035974656
I0428 16:15:11.811199  8281 layer_factory.hpp:77] Creating layer conv4
I0428 16:15:11.811211  8281 net.cpp:84] Creating Layer conv4
I0428 16:15:11.811215  8281 net.cpp:406] conv4 <- conv3.5
I0428 16:15:11.811220  8281 net.cpp:380] conv4 -> conv4
I0428 16:15:11.825182  8281 net.cpp:122] Setting up conv4
I0428 16:15:11.825202  8281 net.cpp:129] Top shape: 128 384 13 13 (8306688)
I0428 16:15:11.825206  8281 net.cpp:137] Memory required for data: 1069201408
I0428 16:15:11.825218  8281 layer_factory.hpp:77] Creating layer relu4
I0428 16:15:11.825227  8281 net.cpp:84] Creating Layer relu4
I0428 16:15:11.825230  8281 net.cpp:406] relu4 <- conv4
I0428 16:15:11.825237  8281 net.cpp:367] relu4 -> conv4 (in-place)
I0428 16:15:11.825618  8281 net.cpp:122] Setting up relu4
I0428 16:15:11.825628  8281 net.cpp:129] Top shape: 128 384 13 13 (8306688)
I0428 16:15:11.825630  8281 net.cpp:137] Memory required for data: 1102428160
I0428 16:15:11.825634  8281 layer_factory.hpp:77] Creating layer conv5
I0428 16:15:11.825644  8281 net.cpp:84] Creating Layer conv5
I0428 16:15:11.825649  8281 net.cpp:406] conv5 <- conv4
I0428 16:15:11.825655  8281 net.cpp:380] conv5 -> conv5
I0428 16:15:11.835033  8281 net.cpp:122] Setting up conv5
I0428 16:15:11.835052  8281 net.cpp:129] Top shape: 128 256 13 13 (5537792)
I0428 16:15:11.835054  8281 net.cpp:137] Memory required for data: 1124579328
I0428 16:15:11.835063  8281 layer_factory.hpp:77] Creating layer relu5
I0428 16:15:11.835075  8281 net.cpp:84] Creating Layer relu5
I0428 16:15:11.835079  8281 net.cpp:406] relu5 <- conv5
I0428 16:15:11.835085  8281 net.cpp:367] relu5 -> conv5 (in-place)
I0428 16:15:11.835642  8281 net.cpp:122] Setting up relu5
I0428 16:15:11.835655  8281 net.cpp:129] Top shape: 128 256 13 13 (5537792)
I0428 16:15:11.835659  8281 net.cpp:137] Memory required for data: 1146730496
I0428 16:15:11.835662  8281 layer_factory.hpp:77] Creating layer pool5
I0428 16:15:11.835669  8281 net.cpp:84] Creating Layer pool5
I0428 16:15:11.835672  8281 net.cpp:406] pool5 <- conv5
I0428 16:15:11.835680  8281 net.cpp:380] pool5 -> pool5
I0428 16:15:11.835713  8281 net.cpp:122] Setting up pool5
I0428 16:15:11.835721  8281 net.cpp:129] Top shape: 128 256 6 6 (1179648)
I0428 16:15:11.835723  8281 net.cpp:137] Memory required for data: 1151449088
I0428 16:15:11.835726  8281 layer_factory.hpp:77] Creating layer fc6
I0428 16:15:11.835732  8281 net.cpp:84] Creating Layer fc6
I0428 16:15:11.835736  8281 net.cpp:406] fc6 <- pool5
I0428 16:15:11.835742  8281 net.cpp:380] fc6 -> fc6
I0428 16:15:12.211032  8281 net.cpp:122] Setting up fc6
I0428 16:15:12.211053  8281 net.cpp:129] Top shape: 128 4096 (524288)
I0428 16:15:12.211057  8281 net.cpp:137] Memory required for data: 1153546240
I0428 16:15:12.211067  8281 layer_factory.hpp:77] Creating layer relu6
I0428 16:15:12.211076  8281 net.cpp:84] Creating Layer relu6
I0428 16:15:12.211079  8281 net.cpp:406] relu6 <- fc6
I0428 16:15:12.211086  8281 net.cpp:367] relu6 -> fc6 (in-place)
I0428 16:15:12.212002  8281 net.cpp:122] Setting up relu6
I0428 16:15:12.212013  8281 net.cpp:129] Top shape: 128 4096 (524288)
I0428 16:15:12.212015  8281 net.cpp:137] Memory required for data: 1155643392
I0428 16:15:12.212018  8281 layer_factory.hpp:77] Creating layer drop6
I0428 16:15:12.212046  8281 net.cpp:84] Creating Layer drop6
I0428 16:15:12.212050  8281 net.cpp:406] drop6 <- fc6
I0428 16:15:12.212056  8281 net.cpp:367] drop6 -> fc6 (in-place)
I0428 16:15:12.212086  8281 net.cpp:122] Setting up drop6
I0428 16:15:12.212091  8281 net.cpp:129] Top shape: 128 4096 (524288)
I0428 16:15:12.212093  8281 net.cpp:137] Memory required for data: 1157740544
I0428 16:15:12.212096  8281 layer_factory.hpp:77] Creating layer fc7
I0428 16:15:12.212103  8281 net.cpp:84] Creating Layer fc7
I0428 16:15:12.212106  8281 net.cpp:406] fc7 <- fc6
I0428 16:15:12.212112  8281 net.cpp:380] fc7 -> fc7
I0428 16:15:12.372000  8281 net.cpp:122] Setting up fc7
I0428 16:15:12.372023  8281 net.cpp:129] Top shape: 128 4096 (524288)
I0428 16:15:12.372026  8281 net.cpp:137] Memory required for data: 1159837696
I0428 16:15:12.372035  8281 layer_factory.hpp:77] Creating layer relu7
I0428 16:15:12.372043  8281 net.cpp:84] Creating Layer relu7
I0428 16:15:12.372048  8281 net.cpp:406] relu7 <- fc7
I0428 16:15:12.372053  8281 net.cpp:367] relu7 -> fc7 (in-place)
I0428 16:15:12.372799  8281 net.cpp:122] Setting up relu7
I0428 16:15:12.372809  8281 net.cpp:129] Top shape: 128 4096 (524288)
I0428 16:15:12.372812  8281 net.cpp:137] Memory required for data: 1161934848
I0428 16:15:12.372815  8281 layer_factory.hpp:77] Creating layer drop7
I0428 16:15:12.372821  8281 net.cpp:84] Creating Layer drop7
I0428 16:15:12.372824  8281 net.cpp:406] drop7 <- fc7
I0428 16:15:12.372830  8281 net.cpp:367] drop7 -> fc7 (in-place)
I0428 16:15:12.372853  8281 net.cpp:122] Setting up drop7
I0428 16:15:12.372857  8281 net.cpp:129] Top shape: 128 4096 (524288)
I0428 16:15:12.372860  8281 net.cpp:137] Memory required for data: 1164032000
I0428 16:15:12.372862  8281 layer_factory.hpp:77] Creating layer fc8
I0428 16:15:12.372871  8281 net.cpp:84] Creating Layer fc8
I0428 16:15:12.372874  8281 net.cpp:406] fc8 <- fc7
I0428 16:15:12.372880  8281 net.cpp:380] fc8 -> fc8
I0428 16:15:12.380641  8281 net.cpp:122] Setting up fc8
I0428 16:15:12.380653  8281 net.cpp:129] Top shape: 128 196 (25088)
I0428 16:15:12.380656  8281 net.cpp:137] Memory required for data: 1164132352
I0428 16:15:12.380668  8281 layer_factory.hpp:77] Creating layer loss
I0428 16:15:12.380676  8281 net.cpp:84] Creating Layer loss
I0428 16:15:12.380678  8281 net.cpp:406] loss <- fc8
I0428 16:15:12.380682  8281 net.cpp:406] loss <- label
I0428 16:15:12.380688  8281 net.cpp:380] loss -> loss
I0428 16:15:12.380700  8281 layer_factory.hpp:77] Creating layer loss
…
I0428 16:15:12.381940  8281 net.cpp:294] The NetState phase (1) differed from the phase (0) specified by a rule in layer train-data
I0428 16:15:12.382082  8281 net.cpp:51] Initializing net from parameters:
state {
phase: TEST
}
layer {
name: "val-data"
type: "Data"
top: "data"
top: "label"
include {
phase: TEST
}
transform_param {
crop_size: 227
mean_file: "/mnt/bigdisk/DIGITS-AMB-2/digits/jobs/20210419-113214-d311/mean.binaryproto"
}
data_param {
source: "/mnt/bigdisk/DIGITS-AMB-2/digits/jobs/20210419-113214-d311/val_db"
batch_size: 32
backend: LMDB
}
}
layer {
name: "conv1"
type: "Convolution"
bottom: "data"
top: "conv1"
param {
lr_mult: 1
decay_mult: 1
}
param {
lr_mult: 2
decay_mult: 0
}
convolution_param {
num_output: 96
kernel_size: 11
stride: 4
weight_filler {
type: "gaussian"
std: 0.01
}
bias_filler {
type: "constant"
value: 0
}
}
}
layer {
name: "relu1"
type: "ReLU"
bottom: "conv1"
top: "conv1"
}
layer {
name: "norm1"
type: "LRN"
bottom: "conv1"
top: "norm1"
lrn_param {
local_size: 5
alpha: 0.0001
beta: 0.75
}
}
layer {
name: "pool1"
type: "Pooling"
bottom: "norm1"
top: "pool1"
pooling_param {
pool: MAX
kernel_size: 3
stride: 2
}
}
layer {
name: "conv2"
type: "Convolution"
bottom: "pool1"
top: "conv2"
param {
lr_mult: 1
decay_mult: 1
}
param {
lr_mult: 2
decay_mult: 0
}
convolution_param {
num_output: 256
pad: 2
kernel_size: 5
group: 2
weight_filler {
type: "gaussian"
std: 0.01
}
bias_filler {
type: "constant"
value: 0.1
}
}
}
layer {
name: "relu2"
type: "ReLU"
bottom: "conv2"
top: "conv2"
}
layer {
name: "norm2"
type: "LRN"
bottom: "conv2"
top: "norm2"
lrn_param {
local_size: 5
alpha: 0.0001
beta: 0.75
}
}
layer {
name: "pool2"
type: "Pooling"
bottom: "norm2"
top: "pool2"
pooling_param {
pool: MAX
kernel_size: 3
stride: 2
}
}
layer {
name: "conv3"
type: "Convolution"
bottom: "pool2"
top: "conv3"
param {
lr_mult: 1
decay_mult: 1
}
param {
lr_mult: 2
decay_mult: 0
}
convolution_param {
num_output: 384
pad: 1
kernel_size: 3
weight_filler {
type: "gaussian"
std: 0.01
}
bias_filler {
type: "constant"
value: 0
}
}
}
layer {
name: "relu3"
type: "ReLU"
bottom: "conv3"
top: "conv3"
}
layer {
name: "conv3.5"
type: "Convolution"
bottom: "conv3"
top: "conv3.5"
param {
lr_mult: 1
decay_mult: 1
}
param {
lr_mult: 2
decay_mult: 0
}
convolution_param {
num_output: 576
pad: 1
kernel_size: 3
weight_filler {
type: "gaussian"
std: 0.01
}
bias_filler {
type: "constant"
value: 0
}
}
}
layer {
name: "relu3.5"
type: "ReLU"
bottom: "conv3.5"
top: "conv3.5"
}
layer {
name: "conv4"
type: "Convolution"
bottom: "conv3.5"
top: "conv4"
param {
lr_mult: 1
decay_mult: 1
}
param {
lr_mult: 2
decay_mult: 0
}
convolution_param {
num_output: 384
pad: 1
kernel_size: 3
group: 2
weight_filler {
type: "gaussian"
std: 0.01
}
bias_filler {
type: "constant"
value: 0.1
}
}
}
layer {
name: "relu4"
type: "ReLU"
bottom: "conv4"
top: "conv4"
}
layer {
name: "conv5"
type: "Convolution"
bottom: "conv4"
top: "conv5"
param {
lr_mult: 1
decay_mult: 1
}
param {
lr_mult: 2
decay_mult: 0
}
convolution_param {
num_output: 256
pad: 1
kernel_size: 3
group: 2
weight_filler {
type: "gaussian"
std: 0.01
}
bias_filler {
type: "constant"
value: 0.1
}
}
}
layer {
name: "relu5"
type: "ReLU"
bottom: "conv5"
top: "conv5"
}
layer {
name: "pool5"
type: "Pooling"
bottom: "conv5"
top: "pool5"
pooling_param {
pool: MAX
kernel_size: 3
stride: 2
}
}
layer {
name: "fc6"
type: "InnerProduct"
bottom: "pool5"
top: "fc6"
param {
lr_mult: 1
decay_mult: 1
}
param {
lr_mult: 2
decay_mult: 0
}
inner_product_param {
num_output: 4096
weight_filler {
type: "gaussian"
std: 0.005
}
bias_filler {
type: "constant"
value: 0.1
}
}
}
layer {
name: "relu6"
type: "ReLU"
bottom: "fc6"
top: "fc6"
}
layer {
name: "drop6"
type: "Dropout"
bottom: "fc6"
top: "fc6"
dropout_param {
dropout_ratio: 0.5
}
}
layer {
name: "fc7"
type: "InnerProduct"
bottom: "fc6"
top: "fc7"
param {
lr_mult: 1
decay_mult: 1
}
param {
lr_mult: 2
decay_mult: 0
}
inner_product_param {
num_output: 4096
weight_filler {
type: "gaussian"
std: 0.005
}
bias_filler {
type: "constant"
value: 0.1
}
}
}
layer {
name: "relu7"
type: "ReLU"
bottom: "fc7"
top: "fc7"
}
layer {
name: "drop7"
type: "Dropout"
bottom: "fc7"
top: "fc7"
dropout_param {
dropout_ratio: 0.5
}
}
layer {
name: "fc8"
type: "InnerProduct"
bottom: "fc7"
top: "fc8"
param {
lr_mult: 1
decay_mult: 1
}
param {
lr_mult: 2
decay_mult: 0
}
inner_product_param {
num_output: 196
weight_filler {
type: "gaussian"
std: 0.01
}
bias_filler {
type: "constant"
value: 0
}
}
}
layer {
name: "accuracy"
type: "Accuracy"
bottom: "fc8"
bottom: "label"
top: "accuracy"
include {
phase: TEST
}
}
layer {
name: "loss"
type: "SoftmaxWithLoss"
bottom: "fc8"
bottom: "label"
top: "loss"
}
I0428 16:15:12.382177  8281 layer_factory.hpp:77] Creating layer val-data
I0428 16:15:12.384052  8281 db_lmdb.cpp:35] Opened lmdb /mnt/bigdisk/DIGITS-AMB-2/digits/jobs/20210419-113214-d311/val_db
I0428 16:15:12.384733  8281 net.cpp:84] Creating Layer val-data
I0428 16:15:12.384744  8281 net.cpp:380] val-data -> data
I0428 16:15:12.384752  8281 net.cpp:380] val-data -> label
I0428 16:15:12.384758  8281 data_transformer.cpp:25] Loading mean file from: /mnt/bigdisk/DIGITS-AMB-2/digits/jobs/20210419-113214-d311/mean.binaryproto
I0428 16:15:12.388561  8281 data_layer.cpp:45] output data size: 32,3,227,227
I0428 16:15:12.434015  8281 net.cpp:122] Setting up val-data
I0428 16:15:12.434037  8281 net.cpp:129] Top shape: 32 3 227 227 (4946784)
I0428 16:15:12.434043  8281 net.cpp:129] Top shape: 32 (32)
I0428 16:15:12.434047  8281 net.cpp:137] Memory required for data: 19787264
I0428 16:15:12.434054  8281 layer_factory.hpp:77] Creating layer label_val-data_1_split
I0428 16:15:12.434067  8281 net.cpp:84] Creating Layer label_val-data_1_split
I0428 16:15:12.434072  8281 net.cpp:406] label_val-data_1_split <- label
I0428 16:15:12.434082  8281 net.cpp:380] label_val-data_1_split -> label_val-data_1_split_0
I0428 16:15:12.434092  8281 net.cpp:380] label_val-data_1_split -> label_val-data_1_split_1
I0428 16:15:12.434146  8281 net.cpp:122] Setting up label_val-data_1_split
I0428 16:15:12.434154  8281 net.cpp:129] Top shape: 32 (32)
I0428 16:15:12.434157  8281 net.cpp:129] Top shape: 32 (32)
I0428 16:15:12.434161  8281 net.cpp:137] Memory required for data: 19787520
I0428 16:15:12.434185  8281 layer_factory.hpp:77] Creating layer conv1
I0428 16:15:12.434198  8281 net.cpp:84] Creating Layer conv1
I0428 16:15:12.434203  8281 net.cpp:406] conv1 <- data
I0428 16:15:12.434211  8281 net.cpp:380] conv1 -> conv1
I0428 16:15:12.438683  8281 net.cpp:122] Setting up conv1
I0428 16:15:12.438694  8281 net.cpp:129] Top shape: 32 96 55 55 (9292800)
I0428 16:15:12.438699  8281 net.cpp:137] Memory required for data: 56958720
I0428 16:15:12.438709  8281 layer_factory.hpp:77] Creating layer relu1
I0428 16:15:12.438714  8281 net.cpp:84] Creating Layer relu1
I0428 16:15:12.438719  8281 net.cpp:406] relu1 <- conv1
I0428 16:15:12.438722  8281 net.cpp:367] relu1 -> conv1 (in-place)
I0428 16:15:12.439214  8281 net.cpp:122] Setting up relu1
I0428 16:15:12.439224  8281 net.cpp:129] Top shape: 32 96 55 55 (9292800)
I0428 16:15:12.439226  8281 net.cpp:137] Memory required for data: 94129920
I0428 16:15:12.439230  8281 layer_factory.hpp:77] Creating layer norm1
I0428 16:15:12.439239  8281 net.cpp:84] Creating Layer norm1
I0428 16:15:12.439241  8281 net.cpp:406] norm1 <- conv1
I0428 16:15:12.439246  8281 net.cpp:380] norm1 -> norm1
I0428 16:15:12.439579  8281 net.cpp:122] Setting up norm1
I0428 16:15:12.439589  8281 net.cpp:129] Top shape: 32 96 55 55 (9292800)
I0428 16:15:12.439591  8281 net.cpp:137] Memory required for data: 131301120
I0428 16:15:12.439594  8281 layer_factory.hpp:77] Creating layer pool1
I0428 16:15:12.439600  8281 net.cpp:84] Creating Layer pool1
I0428 16:15:12.439604  8281 net.cpp:406] pool1 <- norm1
I0428 16:15:12.439608  8281 net.cpp:380] pool1 -> pool1
I0428 16:15:12.439635  8281 net.cpp:122] Setting up pool1
I0428 16:15:12.439640  8281 net.cpp:129] Top shape: 32 96 27 27 (2239488)
I0428 16:15:12.439642  8281 net.cpp:137] Memory required for data: 140259072
I0428 16:15:12.439646  8281 layer_factory.hpp:77] Creating layer conv2
I0428 16:15:12.439653  8281 net.cpp:84] Creating Layer conv2
I0428 16:15:12.439656  8281 net.cpp:406] conv2 <- pool1
I0428 16:15:12.439661  8281 net.cpp:380] conv2 -> conv2
I0428 16:15:12.446707  8281 net.cpp:122] Setting up conv2
I0428 16:15:12.446722  8281 net.cpp:129] Top shape: 32 256 27 27 (5971968)
I0428 16:15:12.446725  8281 net.cpp:137] Memory required for data: 164146944
I0428 16:15:12.446735  8281 layer_factory.hpp:77] Creating layer relu2
I0428 16:15:12.446743  8281 net.cpp:84] Creating Layer relu2
I0428 16:15:12.446745  8281 net.cpp:406] relu2 <- conv2
I0428 16:15:12.446751  8281 net.cpp:367] relu2 -> conv2 (in-place)
I0428 16:15:12.448465  8281 net.cpp:122] Setting up relu2
I0428 16:15:12.448477  8281 net.cpp:129] Top shape: 32 256 27 27 (5971968)
I0428 16:15:12.448479  8281 net.cpp:137] Memory required for data: 188034816
I0428 16:15:12.448482  8281 layer_factory.hpp:77] Creating layer norm2
I0428 16:15:12.448493  8281 net.cpp:84] Creating Layer norm2
I0428 16:15:12.448496  8281 net.cpp:406] norm2 <- conv2
I0428 16:15:12.448503  8281 net.cpp:380] norm2 -> norm2
I0428 16:15:12.449097  8281 net.cpp:122] Setting up norm2
I0428 16:15:12.449107  8281 net.cpp:129] Top shape: 32 256 27 27 (5971968)
I0428 16:15:12.449110  8281 net.cpp:137] Memory required for data: 211922688
I0428 16:15:12.449113  8281 layer_factory.hpp:77] Creating layer pool2
I0428 16:15:12.449120  8281 net.cpp:84] Creating Layer pool2
I0428 16:15:12.449122  8281 net.cpp:406] pool2 <- norm2
I0428 16:15:12.449129  8281 net.cpp:380] pool2 -> pool2
I0428 16:15:12.449159  8281 net.cpp:122] Setting up pool2
I0428 16:15:12.449164  8281 net.cpp:129] Top shape: 32 256 13 13 (1384448)
I0428 16:15:12.449167  8281 net.cpp:137] Memory required for data: 217460480
I0428 16:15:12.449169  8281 layer_factory.hpp:77] Creating layer conv3
I0428 16:15:12.449182  8281 net.cpp:84] Creating Layer conv3
I0428 16:15:12.449184  8281 net.cpp:406] conv3 <- pool2
I0428 16:15:12.449188  8281 net.cpp:380] conv3 -> conv3
I0428 16:15:12.459728  8281 net.cpp:122] Setting up conv3
I0428 16:15:12.459745  8281 net.cpp:129] Top shape: 32 384 13 13 (2076672)
I0428 16:15:12.459748  8281 net.cpp:137] Memory required for data: 225767168
I0428 16:15:12.459777  8281 layer_factory.hpp:77] Creating layer relu3
I0428 16:15:12.459784  8281 net.cpp:84] Creating Layer relu3
I0428 16:15:12.459789  8281 net.cpp:406] relu3 <- conv3
I0428 16:15:12.459796  8281 net.cpp:367] relu3 -> conv3 (in-place)
I0428 16:15:12.460359  8281 net.cpp:122] Setting up relu3
I0428 16:15:12.460368  8281 net.cpp:129] Top shape: 32 384 13 13 (2076672)
I0428 16:15:12.460371  8281 net.cpp:137] Memory required for data: 234073856
I0428 16:15:12.460374  8281 layer_factory.hpp:77] Creating layer conv3.5
I0428 16:15:12.460386  8281 net.cpp:84] Creating Layer conv3.5
I0428 16:15:12.460391  8281 net.cpp:406] conv3.5 <- conv3
I0428 16:15:12.460397  8281 net.cpp:380] conv3.5 -> conv3.5
I0428 16:15:12.481433  8281 net.cpp:122] Setting up conv3.5
I0428 16:15:12.481452  8281 net.cpp:129] Top shape: 32 576 13 13 (3115008)
I0428 16:15:12.481456  8281 net.cpp:137] Memory required for data: 246533888
I0428 16:15:12.481464  8281 layer_factory.hpp:77] Creating layer relu3.5
I0428 16:15:12.481472  8281 net.cpp:84] Creating Layer relu3.5
I0428 16:15:12.481477  8281 net.cpp:406] relu3.5 <- conv3.5
I0428 16:15:12.481482  8281 net.cpp:367] relu3.5 -> conv3.5 (in-place)
I0428 16:15:12.482066  8281 net.cpp:122] Setting up relu3.5
I0428 16:15:12.482075  8281 net.cpp:129] Top shape: 32 576 13 13 (3115008)
I0428 16:15:12.482079  8281 net.cpp:137] Memory required for data: 258993920
I0428 16:15:12.482082  8281 layer_factory.hpp:77] Creating layer conv4
I0428 16:15:12.482092  8281 net.cpp:84] Creating Layer conv4
I0428 16:15:12.482096  8281 net.cpp:406] conv4 <- conv3.5
I0428 16:15:12.482103  8281 net.cpp:380] conv4 -> conv4
I0428 16:15:12.496942  8281 net.cpp:122] Setting up conv4
I0428 16:15:12.496961  8281 net.cpp:129] Top shape: 32 384 13 13 (2076672)
I0428 16:15:12.496965  8281 net.cpp:137] Memory required for data: 267300608
I0428 16:15:12.496978  8281 layer_factory.hpp:77] Creating layer relu4
I0428 16:15:12.496985  8281 net.cpp:84] Creating Layer relu4
I0428 16:15:12.496989  8281 net.cpp:406] relu4 <- conv4
I0428 16:15:12.496996  8281 net.cpp:367] relu4 -> conv4 (in-place)
I0428 16:15:12.497567  8281 net.cpp:122] Setting up relu4
I0428 16:15:12.497578  8281 net.cpp:129] Top shape: 32 384 13 13 (2076672)
I0428 16:15:12.497581  8281 net.cpp:137] Memory required for data: 275607296
I0428 16:15:12.497584  8281 layer_factory.hpp:77] Creating layer conv5
I0428 16:15:12.497599  8281 net.cpp:84] Creating Layer conv5
I0428 16:15:12.497603  8281 net.cpp:406] conv5 <- conv4
I0428 16:15:12.497608  8281 net.cpp:380] conv5 -> conv5
I0428 16:15:12.507232  8281 net.cpp:122] Setting up conv5
I0428 16:15:12.507253  8281 net.cpp:129] Top shape: 32 256 13 13 (1384448)
I0428 16:15:12.507256  8281 net.cpp:137] Memory required for data: 281145088
I0428 16:15:12.507266  8281 layer_factory.hpp:77] Creating layer relu5
I0428 16:15:12.507272  8281 net.cpp:84] Creating Layer relu5
I0428 16:15:12.507277  8281 net.cpp:406] relu5 <- conv5
I0428 16:15:12.507282  8281 net.cpp:367] relu5 -> conv5 (in-place)
I0428 16:15:12.507680  8281 net.cpp:122] Setting up relu5
I0428 16:15:12.507691  8281 net.cpp:129] Top shape: 32 256 13 13 (1384448)
I0428 16:15:12.507694  8281 net.cpp:137] Memory required for data: 286682880
I0428 16:15:12.507697  8281 layer_factory.hpp:77] Creating layer pool5
I0428 16:15:12.507704  8281 net.cpp:84] Creating Layer pool5
I0428 16:15:12.507706  8281 net.cpp:406] pool5 <- conv5
I0428 16:15:12.507711  8281 net.cpp:380] pool5 -> pool5
I0428 16:15:12.507750  8281 net.cpp:122] Setting up pool5
I0428 16:15:12.507755  8281 net.cpp:129] Top shape: 32 256 6 6 (294912)
I0428 16:15:12.507757  8281 net.cpp:137] Memory required for data: 287862528
I0428 16:15:12.507761  8281 layer_factory.hpp:77] Creating layer fc6
I0428 16:15:12.507768  8281 net.cpp:84] Creating Layer fc6
I0428 16:15:12.507771  8281 net.cpp:406] fc6 <- pool5
I0428 16:15:12.507778  8281 net.cpp:380] fc6 -> fc6
I0428 16:15:12.886991  8281 net.cpp:122] Setting up fc6
I0428 16:15:12.887012  8281 net.cpp:129] Top shape: 32 4096 (131072)
I0428 16:15:12.887038  8281 net.cpp:137] Memory required for data: 288386816
I0428 16:15:12.887048  8281 layer_factory.hpp:77] Creating layer relu6
I0428 16:15:12.887055  8281 net.cpp:84] Creating Layer relu6
I0428 16:15:12.887059  8281 net.cpp:406] relu6 <- fc6
I0428 16:15:12.887068  8281 net.cpp:367] relu6 -> fc6 (in-place)
I0428 16:15:12.887838  8281 net.cpp:122] Setting up relu6
I0428 16:15:12.887848  8281 net.cpp:129] Top shape: 32 4096 (131072)
I0428 16:15:12.887851  8281 net.cpp:137] Memory required for data: 288911104
I0428 16:15:12.887854  8281 layer_factory.hpp:77] Creating layer drop6
I0428 16:15:12.887861  8281 net.cpp:84] Creating Layer drop6
I0428 16:15:12.887864  8281 net.cpp:406] drop6 <- fc6
I0428 16:15:12.887872  8281 net.cpp:367] drop6 -> fc6 (in-place)
I0428 16:15:12.887898  8281 net.cpp:122] Setting up drop6
I0428 16:15:12.887902  8281 net.cpp:129] Top shape: 32 4096 (131072)
I0428 16:15:12.887905  8281 net.cpp:137] Memory required for data: 289435392
I0428 16:15:12.887908  8281 layer_factory.hpp:77] Creating layer fc7
I0428 16:15:12.887915  8281 net.cpp:84] Creating Layer fc7
I0428 16:15:12.887918  8281 net.cpp:406] fc7 <- fc6
I0428 16:15:12.887923  8281 net.cpp:380] fc7 -> fc7
I0428 16:15:13.080962  8281 net.cpp:122] Setting up fc7
I0428 16:15:13.080984  8281 net.cpp:129] Top shape: 32 4096 (131072)
I0428 16:15:13.080988  8281 net.cpp:137] Memory required for data: 289959680
I0428 16:15:13.080997  8281 layer_factory.hpp:77] Creating layer relu7
I0428 16:15:13.081007  8281 net.cpp:84] Creating Layer relu7
I0428 16:15:13.081012  8281 net.cpp:406] relu7 <- fc7
I0428 16:15:13.081019  8281 net.cpp:367] relu7 -> fc7 (in-place)
I0428 16:15:13.081843  8281 net.cpp:122] Setting up relu7
I0428 16:15:13.081856  8281 net.cpp:129] Top shape: 32 4096 (131072)
I0428 16:15:13.081858  8281 net.cpp:137] Memory required for data: 290483968
I0428 16:15:13.081862  8281 layer_factory.hpp:77] Creating layer drop7
I0428 16:15:13.081869  8281 net.cpp:84] Creating Layer drop7
I0428 16:15:13.081873  8281 net.cpp:406] drop7 <- fc7
I0428 16:15:13.081877  8281 net.cpp:367] drop7 -> fc7 (in-place)
I0428 16:15:13.081905  8281 net.cpp:122] Setting up drop7
I0428 16:15:13.081910  8281 net.cpp:129] Top shape: 32 4096 (131072)
I0428 16:15:13.081913  8281 net.cpp:137] Memory required for data: 291008256
I0428 16:15:13.081916  8281 layer_factory.hpp:77] Creating layer fc8
I0428 16:15:13.081924  8281 net.cpp:84] Creating Layer fc8
I0428 16:15:13.081928  8281 net.cpp:406] fc8 <- fc7
I0428 16:15:13.081933  8281 net.cpp:380] fc8 -> fc8
I0428 16:15:13.089787  8281 net.cpp:122] Setting up fc8
I0428 16:15:13.089797  8281 net.cpp:129] Top shape: 32 196 (6272)
I0428 16:15:13.089799  8281 net.cpp:137] Memory required for data: 291033344
I0428 16:15:13.089810  8281 layer_factory.hpp:77] Creating layer fc8_fc8_0_split
I0428 16:15:13.089816  8281 net.cpp:84] Creating Layer fc8_fc8_0_split
I0428 16:15:13.089819  8281 net.cpp:406] fc8_fc8_0_split <- fc8
I0428 16:15:13.089828  8281 net.cpp:380] fc8_fc8_0_split -> fc8_fc8_0_split_0
I0428 16:15:13.089834  8281 net.cpp:380] fc8_fc8_0_split -> fc8_fc8_0_split_1
I0428 16:15:13.089865  8281 net.cpp:122] Setting up fc8_fc8_0_split
I0428 16:15:13.089870  8281 net.cpp:129] Top shape: 32 196 (6272)
I0428 16:15:13.089874  8281 net.cpp:129] Top shape: 32 196 (6272)
I0428 16:15:13.089875  8281 net.cpp:137] Memory required for data: 291083520
I0428 16:15:13.089879  8281 layer_factory.hpp:77] Creating layer accuracy
I0428 16:15:13.089884  8281 net.cpp:84] Creating Layer accuracy
I0428 16:15:13.089887  8281 net.cpp:406] accuracy <- fc8_fc8_0_split_0
I0428 16:15:13.089891  8281 net.cpp:406] accuracy <- label_val-data_1_split_0
I0428 16:15:13.089895  8281 net.cpp:380] accuracy -> accuracy
…
