…
I0426 10:10:57.374871 21169 net.cpp:294] The NetState phase (0) differed from the phase (1) specified by a rule in layer accuracy
I0426 10:10:57.375011 21169 net.cpp:51] Initializing net from parameters:
state {
phase: TRAIN
level: 0
stage: ""
}
layer {
name: "train-data"
type: "Data"
top: "data"
top: "label"
include {
phase: TRAIN
}
transform_param {
mirror: true
crop_size: 227
mean_file: "/mnt/bigdisk/DIGITS-MAN-3/digits/jobs/20210421-230320-902c/mean.binaryproto"
}
data_param {
source: "/mnt/bigdisk/DIGITS-MAN-3/digits/jobs/20210421-230320-902c/train_db"
batch_size: 128
backend: LMDB
}
}
layer {
name: "conv1"
type: "Convolution"
bottom: "data"
top: "conv1"
param {
lr_mult: 1
decay_mult: 1
}
param {
lr_mult: 2
decay_mult: 0
}
convolution_param {
num_output: 96
kernel_size: 11
stride: 4
weight_filler {
type: "gaussian"
std: 0.01
}
bias_filler {
type: "constant"
value: 0
}
}
}
layer {
name: "relu1"
type: "ReLU"
bottom: "conv1"
top: "conv1"
}
layer {
name: "norm1"
type: "LRN"
bottom: "conv1"
top: "norm1"
lrn_param {
local_size: 5
alpha: 0.0001
beta: 0.75
}
}
layer {
name: "pool1"
type: "Pooling"
bottom: "norm1"
top: "pool1"
pooling_param {
pool: MAX
kernel_size: 3
stride: 2
}
}
layer {
name: "conv2"
type: "Convolution"
bottom: "pool1"
top: "conv2"
param {
lr_mult: 1
decay_mult: 1
}
param {
lr_mult: 2
decay_mult: 0
}
convolution_param {
num_output: 256
pad: 2
kernel_size: 5
group: 2
weight_filler {
type: "gaussian"
std: 0.01
}
bias_filler {
type: "constant"
value: 0.1
}
}
}
layer {
name: "relu2"
type: "ReLU"
bottom: "conv2"
top: "conv2"
}
layer {
name: "norm2"
type: "LRN"
bottom: "conv2"
top: "norm2"
lrn_param {
local_size: 5
alpha: 0.0001
beta: 0.75
}
}
layer {
name: "pool2"
type: "Pooling"
bottom: "norm2"
top: "pool2"
pooling_param {
pool: MAX
kernel_size: 3
stride: 2
}
}
layer {
name: "conv3"
type: "Convolution"
bottom: "pool2"
top: "conv3"
param {
lr_mult: 1
decay_mult: 1
}
param {
lr_mult: 2
decay_mult: 0
}
convolution_param {
num_output: 384
pad: 1
kernel_size: 3
weight_filler {
type: "gaussian"
std: 0.01
}
bias_filler {
type: "constant"
value: 0
}
}
}
layer {
name: "relu3"
type: "ReLU"
bottom: "conv3"
top: "conv3"
}
layer {
name: "conv4"
type: "Convolution"
bottom: "conv3"
top: "conv4"
param {
lr_mult: 1
decay_mult: 1
}
param {
lr_mult: 2
decay_mult: 0
}
convolution_param {
num_output: 384
pad: 1
kernel_size: 9
group: 2
weight_filler {
type: "gaussian"
std: 0.01
}
bias_filler {
type: "constant"
value: 0.1
}
}
}
layer {
name: "relu4"
type: "ReLU"
bottom: "conv4"
top: "conv4"
}
layer {
name: "conv5"
type: "Convolution"
bottom: "conv4"
top: "conv5"
param {
lr_mult: 1
decay_mult: 1
}
param {
lr_mult: 2
decay_mult: 0
}
convolution_param {
num_output: 256
pad: 1
kernel_size: 3
group: 2
weight_filler {
type: "gaussian"
std: 0.01
}
bias_filler {
type: "constant"
value: 0.1
}
}
}
layer {
name: "relu5"
type: "ReLU"
bottom: "conv5"
top: "conv5"
}
layer {
name: "pool5"
type: "Pooling"
bottom: "conv5"
top: "pool5"
pooling_param {
pool: MAX
kernel_size: 3
stride: 2
}
}
layer {
name: "fc6"
type: "InnerProduct"
bottom: "pool5"
top: "fc6"
param {
lr_mult: 1
decay_mult: 1
}
param {
lr_mult: 2
decay_mult: 0
}
inner_product_param {
num_output: 4096
weight_filler {
type: "gaussian"
std: 0.005
}
bias_filler {
type: "constant"
value: 0.1
}
}
}
layer {
name: "relu6"
type: "ReLU"
bottom: "fc6"
top: "fc6"
}
layer {
name: "drop6"
type: "Dropout"
bottom: "fc6"
top: "fc6"
dropout_param {
dropout_ratio: 0.5
}
}
layer {
name: "fc7"
type: "InnerProduct"
bottom: "fc6"
top: "fc7"
param {
lr_mult: 1
decay_mult: 1
}
param {
lr_mult: 2
decay_mult: 0
}
inner_product_param {
num_output: 4096
weight_filler {
type: "gaussian"
std: 0.005
}
bias_filler {
type: "constant"
value: 0.1
}
}
}
layer {
name: "relu7"
type: "ReLU"
bottom: "fc7"
top: "fc7"
}
layer {
name: "drop7"
type: "Dropout"
bottom: "fc7"
top: "fc7"
dropout_param {
dropout_ratio: 0.5
}
}
layer {
name: "fc8"
type: "InnerProduct"
bottom: "fc7"
top: "fc8"
param {
lr_mult: 1
decay_mult: 1
}
param {
lr_mult: 2
decay_mult: 0
}
inner_product_param {
num_output: 196
weight_filler {
type: "gaussian"
std: 0.01
}
bias_filler {
type: "constant"
value: 0
}
}
}
layer {
name: "loss"
type: "SoftmaxWithLoss"
bottom: "fc8"
bottom: "label"
top: "loss"
}
I0426 10:10:57.375099 21169 layer_factory.hpp:77] Creating layer train-data
I0426 10:10:57.380722 21169 db_lmdb.cpp:35] Opened lmdb /mnt/bigdisk/DIGITS-MAN-3/digits/jobs/20210421-230320-902c/train_db
I0426 10:10:57.381815 21169 net.cpp:84] Creating Layer train-data
I0426 10:10:57.381830 21169 net.cpp:380] train-data -> data
I0426 10:10:57.381857 21169 net.cpp:380] train-data -> label
I0426 10:10:57.381875 21169 data_transformer.cpp:25] Loading mean file from: /mnt/bigdisk/DIGITS-MAN-3/digits/jobs/20210421-230320-902c/mean.binaryproto
I0426 10:10:57.388288 21169 data_layer.cpp:45] output data size: 128,3,227,227
I0426 10:10:57.536530 21169 net.cpp:122] Setting up train-data
I0426 10:10:57.536552 21169 net.cpp:129] Top shape: 128 3 227 227 (19787136)
I0426 10:10:57.536559 21169 net.cpp:129] Top shape: 128 (128)
I0426 10:10:57.536564 21169 net.cpp:137] Memory required for data: 79149056
I0426 10:10:57.536577 21169 layer_factory.hpp:77] Creating layer conv1
I0426 10:10:57.536604 21169 net.cpp:84] Creating Layer conv1
I0426 10:10:57.536613 21169 net.cpp:406] conv1 <- data
I0426 10:10:57.536628 21169 net.cpp:380] conv1 -> conv1
I0426 10:10:58.141007 21169 net.cpp:122] Setting up conv1
I0426 10:10:58.141033 21169 net.cpp:129] Top shape: 128 96 55 55 (37171200)
I0426 10:10:58.141041 21169 net.cpp:137] Memory required for data: 227833856
I0426 10:10:58.141067 21169 layer_factory.hpp:77] Creating layer relu1
I0426 10:10:58.141079 21169 net.cpp:84] Creating Layer relu1
I0426 10:10:58.141083 21169 net.cpp:406] relu1 <- conv1
I0426 10:10:58.141090 21169 net.cpp:367] relu1 -> conv1 (in-place)
I0426 10:10:58.141397 21169 net.cpp:122] Setting up relu1
I0426 10:10:58.141407 21169 net.cpp:129] Top shape: 128 96 55 55 (37171200)
I0426 10:10:58.141410 21169 net.cpp:137] Memory required for data: 376518656
I0426 10:10:58.141414 21169 layer_factory.hpp:77] Creating layer norm1
I0426 10:10:58.141427 21169 net.cpp:84] Creating Layer norm1
I0426 10:10:58.141433 21169 net.cpp:406] norm1 <- conv1
I0426 10:10:58.141465 21169 net.cpp:380] norm1 -> norm1
I0426 10:10:58.141945 21169 net.cpp:122] Setting up norm1
I0426 10:10:58.141957 21169 net.cpp:129] Top shape: 128 96 55 55 (37171200)
I0426 10:10:58.141959 21169 net.cpp:137] Memory required for data: 525203456
I0426 10:10:58.141964 21169 layer_factory.hpp:77] Creating layer pool1
I0426 10:10:58.141973 21169 net.cpp:84] Creating Layer pool1
I0426 10:10:58.141976 21169 net.cpp:406] pool1 <- norm1
I0426 10:10:58.141981 21169 net.cpp:380] pool1 -> pool1
I0426 10:10:58.142017 21169 net.cpp:122] Setting up pool1
I0426 10:10:58.142024 21169 net.cpp:129] Top shape: 128 96 27 27 (8957952)
I0426 10:10:58.142027 21169 net.cpp:137] Memory required for data: 561035264
I0426 10:10:58.142030 21169 layer_factory.hpp:77] Creating layer conv2
I0426 10:10:58.142040 21169 net.cpp:84] Creating Layer conv2
I0426 10:10:58.142043 21169 net.cpp:406] conv2 <- pool1
I0426 10:10:58.142048 21169 net.cpp:380] conv2 -> conv2
I0426 10:10:58.149130 21169 net.cpp:122] Setting up conv2
I0426 10:10:58.149147 21169 net.cpp:129] Top shape: 128 256 27 27 (23887872)
I0426 10:10:58.149152 21169 net.cpp:137] Memory required for data: 656586752
I0426 10:10:58.149161 21169 layer_factory.hpp:77] Creating layer relu2
I0426 10:10:58.149170 21169 net.cpp:84] Creating Layer relu2
I0426 10:10:58.149173 21169 net.cpp:406] relu2 <- conv2
I0426 10:10:58.149179 21169 net.cpp:367] relu2 -> conv2 (in-place)
I0426 10:10:58.149734 21169 net.cpp:122] Setting up relu2
I0426 10:10:58.149745 21169 net.cpp:129] Top shape: 128 256 27 27 (23887872)
I0426 10:10:58.149749 21169 net.cpp:137] Memory required for data: 752138240
I0426 10:10:58.149753 21169 layer_factory.hpp:77] Creating layer norm2
I0426 10:10:58.149760 21169 net.cpp:84] Creating Layer norm2
I0426 10:10:58.149765 21169 net.cpp:406] norm2 <- conv2
I0426 10:10:58.149770 21169 net.cpp:380] norm2 -> norm2
I0426 10:10:58.150146 21169 net.cpp:122] Setting up norm2
I0426 10:10:58.150156 21169 net.cpp:129] Top shape: 128 256 27 27 (23887872)
I0426 10:10:58.150159 21169 net.cpp:137] Memory required for data: 847689728
I0426 10:10:58.150162 21169 layer_factory.hpp:77] Creating layer pool2
I0426 10:10:58.150169 21169 net.cpp:84] Creating Layer pool2
I0426 10:10:58.150173 21169 net.cpp:406] pool2 <- norm2
I0426 10:10:58.150179 21169 net.cpp:380] pool2 -> pool2
I0426 10:10:58.150208 21169 net.cpp:122] Setting up pool2
I0426 10:10:58.150213 21169 net.cpp:129] Top shape: 128 256 13 13 (5537792)
I0426 10:10:58.150216 21169 net.cpp:137] Memory required for data: 869840896
I0426 10:10:58.150219 21169 layer_factory.hpp:77] Creating layer conv3
I0426 10:10:58.150230 21169 net.cpp:84] Creating Layer conv3
I0426 10:10:58.150233 21169 net.cpp:406] conv3 <- pool2
I0426 10:10:58.150238 21169 net.cpp:380] conv3 -> conv3
I0426 10:10:58.167533 21169 net.cpp:122] Setting up conv3
I0426 10:10:58.167551 21169 net.cpp:129] Top shape: 128 384 13 13 (8306688)
I0426 10:10:58.167554 21169 net.cpp:137] Memory required for data: 903067648
I0426 10:10:58.167567 21169 layer_factory.hpp:77] Creating layer relu3
I0426 10:10:58.167574 21169 net.cpp:84] Creating Layer relu3
I0426 10:10:58.167579 21169 net.cpp:406] relu3 <- conv3
I0426 10:10:58.167587 21169 net.cpp:367] relu3 -> conv3 (in-place)
I0426 10:10:58.169595 21169 net.cpp:122] Setting up relu3
I0426 10:10:58.169605 21169 net.cpp:129] Top shape: 128 384 13 13 (8306688)
I0426 10:10:58.169608 21169 net.cpp:137] Memory required for data: 936294400
I0426 10:10:58.169612 21169 layer_factory.hpp:77] Creating layer conv4
I0426 10:10:58.169625 21169 net.cpp:84] Creating Layer conv4
I0426 10:10:58.169628 21169 net.cpp:406] conv4 <- conv3
I0426 10:10:58.169634 21169 net.cpp:380] conv4 -> conv4
I0426 10:10:58.235076 21169 net.cpp:122] Setting up conv4
I0426 10:10:58.235096 21169 net.cpp:129] Top shape: 128 384 7 7 (2408448)
I0426 10:10:58.235100 21169 net.cpp:137] Memory required for data: 945928192
I0426 10:10:58.235108 21169 layer_factory.hpp:77] Creating layer relu4
I0426 10:10:58.235117 21169 net.cpp:84] Creating Layer relu4
I0426 10:10:58.235146 21169 net.cpp:406] relu4 <- conv4
I0426 10:10:58.235159 21169 net.cpp:367] relu4 -> conv4 (in-place)
I0426 10:10:58.235532 21169 net.cpp:122] Setting up relu4
I0426 10:10:58.235541 21169 net.cpp:129] Top shape: 128 384 7 7 (2408448)
I0426 10:10:58.235544 21169 net.cpp:137] Memory required for data: 955561984
I0426 10:10:58.235548 21169 layer_factory.hpp:77] Creating layer conv5
I0426 10:10:58.235559 21169 net.cpp:84] Creating Layer conv5
I0426 10:10:58.235563 21169 net.cpp:406] conv5 <- conv4
I0426 10:10:58.235569 21169 net.cpp:380] conv5 -> conv5
I0426 10:10:58.244602 21169 net.cpp:122] Setting up conv5
I0426 10:10:58.244622 21169 net.cpp:129] Top shape: 128 256 7 7 (1605632)
I0426 10:10:58.244626 21169 net.cpp:137] Memory required for data: 961984512
I0426 10:10:58.244639 21169 layer_factory.hpp:77] Creating layer relu5
I0426 10:10:58.244649 21169 net.cpp:84] Creating Layer relu5
I0426 10:10:58.244653 21169 net.cpp:406] relu5 <- conv5
I0426 10:10:58.244660 21169 net.cpp:367] relu5 -> conv5 (in-place)
I0426 10:10:58.245152 21169 net.cpp:122] Setting up relu5
I0426 10:10:58.245163 21169 net.cpp:129] Top shape: 128 256 7 7 (1605632)
I0426 10:10:58.245167 21169 net.cpp:137] Memory required for data: 968407040
I0426 10:10:58.245170 21169 layer_factory.hpp:77] Creating layer pool5
I0426 10:10:58.245178 21169 net.cpp:84] Creating Layer pool5
I0426 10:10:58.245182 21169 net.cpp:406] pool5 <- conv5
I0426 10:10:58.245188 21169 net.cpp:380] pool5 -> pool5
I0426 10:10:58.245226 21169 net.cpp:122] Setting up pool5
I0426 10:10:58.245231 21169 net.cpp:129] Top shape: 128 256 3 3 (294912)
I0426 10:10:58.245235 21169 net.cpp:137] Memory required for data: 969586688
I0426 10:10:58.245239 21169 layer_factory.hpp:77] Creating layer fc6
I0426 10:10:58.245250 21169 net.cpp:84] Creating Layer fc6
I0426 10:10:58.245254 21169 net.cpp:406] fc6 <- pool5
I0426 10:10:58.245258 21169 net.cpp:380] fc6 -> fc6
I0426 10:10:58.334636 21169 net.cpp:122] Setting up fc6
I0426 10:10:58.334654 21169 net.cpp:129] Top shape: 128 4096 (524288)
I0426 10:10:58.334658 21169 net.cpp:137] Memory required for data: 971683840
I0426 10:10:58.334668 21169 layer_factory.hpp:77] Creating layer relu6
I0426 10:10:58.334678 21169 net.cpp:84] Creating Layer relu6
I0426 10:10:58.334682 21169 net.cpp:406] relu6 <- fc6
I0426 10:10:58.334689 21169 net.cpp:367] relu6 -> fc6 (in-place)
I0426 10:10:58.347635 21169 net.cpp:122] Setting up relu6
I0426 10:10:58.347649 21169 net.cpp:129] Top shape: 128 4096 (524288)
I0426 10:10:58.347653 21169 net.cpp:137] Memory required for data: 973780992
I0426 10:10:58.347659 21169 layer_factory.hpp:77] Creating layer drop6
I0426 10:10:58.347667 21169 net.cpp:84] Creating Layer drop6
I0426 10:10:58.347673 21169 net.cpp:406] drop6 <- fc6
I0426 10:10:58.347687 21169 net.cpp:367] drop6 -> fc6 (in-place)
I0426 10:10:58.347721 21169 net.cpp:122] Setting up drop6
I0426 10:10:58.347728 21169 net.cpp:129] Top shape: 128 4096 (524288)
I0426 10:10:58.347731 21169 net.cpp:137] Memory required for data: 975878144
I0426 10:10:58.347735 21169 layer_factory.hpp:77] Creating layer fc7
I0426 10:10:58.347745 21169 net.cpp:84] Creating Layer fc7
I0426 10:10:58.347749 21169 net.cpp:406] fc7 <- fc6
I0426 10:10:58.347755 21169 net.cpp:380] fc7 -> fc7
I0426 10:10:58.523396 21169 net.cpp:122] Setting up fc7
I0426 10:10:58.523416 21169 net.cpp:129] Top shape: 128 4096 (524288)
I0426 10:10:58.523419 21169 net.cpp:137] Memory required for data: 977975296
I0426 10:10:58.523428 21169 layer_factory.hpp:77] Creating layer relu7
I0426 10:10:58.523437 21169 net.cpp:84] Creating Layer relu7
I0426 10:10:58.523442 21169 net.cpp:406] relu7 <- fc7
I0426 10:10:58.523449 21169 net.cpp:367] relu7 -> fc7 (in-place)
I0426 10:10:58.523862 21169 net.cpp:122] Setting up relu7
I0426 10:10:58.523871 21169 net.cpp:129] Top shape: 128 4096 (524288)
I0426 10:10:58.523874 21169 net.cpp:137] Memory required for data: 980072448
I0426 10:10:58.523878 21169 layer_factory.hpp:77] Creating layer drop7
I0426 10:10:58.523885 21169 net.cpp:84] Creating Layer drop7
I0426 10:10:58.523888 21169 net.cpp:406] drop7 <- fc7
I0426 10:10:58.523911 21169 net.cpp:367] drop7 -> fc7 (in-place)
I0426 10:10:58.523936 21169 net.cpp:122] Setting up drop7
I0426 10:10:58.523942 21169 net.cpp:129] Top shape: 128 4096 (524288)
I0426 10:10:58.523945 21169 net.cpp:137] Memory required for data: 982169600
I0426 10:10:58.523948 21169 layer_factory.hpp:77] Creating layer fc8
I0426 10:10:58.523957 21169 net.cpp:84] Creating Layer fc8
I0426 10:10:58.523959 21169 net.cpp:406] fc8 <- fc7
I0426 10:10:58.523964 21169 net.cpp:380] fc8 -> fc8
I0426 10:10:58.536293 21169 net.cpp:122] Setting up fc8
I0426 10:10:58.536309 21169 net.cpp:129] Top shape: 128 196 (25088)
I0426 10:10:58.536314 21169 net.cpp:137] Memory required for data: 982269952
I0426 10:10:58.536321 21169 layer_factory.hpp:77] Creating layer loss
I0426 10:10:58.536329 21169 net.cpp:84] Creating Layer loss
I0426 10:10:58.536332 21169 net.cpp:406] loss <- fc8
I0426 10:10:58.536339 21169 net.cpp:406] loss <- label
I0426 10:10:58.536350 21169 net.cpp:380] loss -> loss
I0426 10:10:58.536360 21169 layer_factory.hpp:77] Creating layer loss
…
I0426 10:10:58.538110 21169 net.cpp:294] The NetState phase (1) differed from the phase (0) specified by a rule in layer train-data
I0426 10:10:58.538249 21169 net.cpp:51] Initializing net from parameters:
state {
phase: TEST
}
layer {
name: "val-data"
type: "Data"
top: "data"
top: "label"
include {
phase: TEST
}
transform_param {
crop_size: 227
mean_file: "/mnt/bigdisk/DIGITS-MAN-3/digits/jobs/20210421-230320-902c/mean.binaryproto"
}
data_param {
source: "/mnt/bigdisk/DIGITS-MAN-3/digits/jobs/20210421-230320-902c/val_db"
batch_size: 32
backend: LMDB
}
}
layer {
name: "conv1"
type: "Convolution"
bottom: "data"
top: "conv1"
param {
lr_mult: 1
decay_mult: 1
}
param {
lr_mult: 2
decay_mult: 0
}
convolution_param {
num_output: 96
kernel_size: 11
stride: 4
weight_filler {
type: "gaussian"
std: 0.01
}
bias_filler {
type: "constant"
value: 0
}
}
}
layer {
name: "relu1"
type: "ReLU"
bottom: "conv1"
top: "conv1"
}
layer {
name: "norm1"
type: "LRN"
bottom: "conv1"
top: "norm1"
lrn_param {
local_size: 5
alpha: 0.0001
beta: 0.75
}
}
layer {
name: "pool1"
type: "Pooling"
bottom: "norm1"
top: "pool1"
pooling_param {
pool: MAX
kernel_size: 3
stride: 2
}
}
layer {
name: "conv2"
type: "Convolution"
bottom: "pool1"
top: "conv2"
param {
lr_mult: 1
decay_mult: 1
}
param {
lr_mult: 2
decay_mult: 0
}
convolution_param {
num_output: 256
pad: 2
kernel_size: 5
group: 2
weight_filler {
type: "gaussian"
std: 0.01
}
bias_filler {
type: "constant"
value: 0.1
}
}
}
layer {
name: "relu2"
type: "ReLU"
bottom: "conv2"
top: "conv2"
}
layer {
name: "norm2"
type: "LRN"
bottom: "conv2"
top: "norm2"
lrn_param {
local_size: 5
alpha: 0.0001
beta: 0.75
}
}
layer {
name: "pool2"
type: "Pooling"
bottom: "norm2"
top: "pool2"
pooling_param {
pool: MAX
kernel_size: 3
stride: 2
}
}
layer {
name: "conv3"
type: "Convolution"
bottom: "pool2"
top: "conv3"
param {
lr_mult: 1
decay_mult: 1
}
param {
lr_mult: 2
decay_mult: 0
}
convolution_param {
num_output: 384
pad: 1
kernel_size: 3
weight_filler {
type: "gaussian"
std: 0.01
}
bias_filler {
type: "constant"
value: 0
}
}
}
layer {
name: "relu3"
type: "ReLU"
bottom: "conv3"
top: "conv3"
}
layer {
name: "conv4"
type: "Convolution"
bottom: "conv3"
top: "conv4"
param {
lr_mult: 1
decay_mult: 1
}
param {
lr_mult: 2
decay_mult: 0
}
convolution_param {
num_output: 384
pad: 1
kernel_size: 9
group: 2
weight_filler {
type: "gaussian"
std: 0.01
}
bias_filler {
type: "constant"
value: 0.1
}
}
}
layer {
name: "relu4"
type: "ReLU"
bottom: "conv4"
top: "conv4"
}
layer {
name: "conv5"
type: "Convolution"
bottom: "conv4"
top: "conv5"
param {
lr_mult: 1
decay_mult: 1
}
param {
lr_mult: 2
decay_mult: 0
}
convolution_param {
num_output: 256
pad: 1
kernel_size: 3
group: 2
weight_filler {
type: "gaussian"
std: 0.01
}
bias_filler {
type: "constant"
value: 0.1
}
}
}
layer {
name: "relu5"
type: "ReLU"
bottom: "conv5"
top: "conv5"
}
layer {
name: "pool5"
type: "Pooling"
bottom: "conv5"
top: "pool5"
pooling_param {
pool: MAX
kernel_size: 3
stride: 2
}
}
layer {
name: "fc6"
type: "InnerProduct"
bottom: "pool5"
top: "fc6"
param {
lr_mult: 1
decay_mult: 1
}
param {
lr_mult: 2
decay_mult: 0
}
inner_product_param {
num_output: 4096
weight_filler {
type: "gaussian"
std: 0.005
}
bias_filler {
type: "constant"
value: 0.1
}
}
}
layer {
name: "relu6"
type: "ReLU"
bottom: "fc6"
top: "fc6"
}
layer {
name: "drop6"
type: "Dropout"
bottom: "fc6"
top: "fc6"
dropout_param {
dropout_ratio: 0.5
}
}
layer {
name: "fc7"
type: "InnerProduct"
bottom: "fc6"
top: "fc7"
param {
lr_mult: 1
decay_mult: 1
}
param {
lr_mult: 2
decay_mult: 0
}
inner_product_param {
num_output: 4096
weight_filler {
type: "gaussian"
std: 0.005
}
bias_filler {
type: "constant"
value: 0.1
}
}
}
layer {
name: "relu7"
type: "ReLU"
bottom: "fc7"
top: "fc7"
}
layer {
name: "drop7"
type: "Dropout"
bottom: "fc7"
top: "fc7"
dropout_param {
dropout_ratio: 0.5
}
}
layer {
name: "fc8"
type: "InnerProduct"
bottom: "fc7"
top: "fc8"
param {
lr_mult: 1
decay_mult: 1
}
param {
lr_mult: 2
decay_mult: 0
}
inner_product_param {
num_output: 196
weight_filler {
type: "gaussian"
std: 0.01
}
bias_filler {
type: "constant"
value: 0
}
}
}
layer {
name: "accuracy"
type: "Accuracy"
bottom: "fc8"
bottom: "label"
top: "accuracy"
include {
phase: TEST
}
}
layer {
name: "loss"
type: "SoftmaxWithLoss"
bottom: "fc8"
bottom: "label"
top: "loss"
}
I0426 10:10:58.538352 21169 layer_factory.hpp:77] Creating layer val-data
I0426 10:10:58.541136 21169 db_lmdb.cpp:35] Opened lmdb /mnt/bigdisk/DIGITS-MAN-3/digits/jobs/20210421-230320-902c/val_db
I0426 10:10:58.541476 21169 net.cpp:84] Creating Layer val-data
I0426 10:10:58.541486 21169 net.cpp:380] val-data -> data
I0426 10:10:58.541496 21169 net.cpp:380] val-data -> label
I0426 10:10:58.541505 21169 data_transformer.cpp:25] Loading mean file from: /mnt/bigdisk/DIGITS-MAN-3/digits/jobs/20210421-230320-902c/mean.binaryproto
I0426 10:10:58.545315 21169 data_layer.cpp:45] output data size: 32,3,227,227
I0426 10:10:58.578661 21169 net.cpp:122] Setting up val-data
I0426 10:10:58.578681 21169 net.cpp:129] Top shape: 32 3 227 227 (4946784)
I0426 10:10:58.578686 21169 net.cpp:129] Top shape: 32 (32)
I0426 10:10:58.578689 21169 net.cpp:137] Memory required for data: 19787264
I0426 10:10:58.578696 21169 layer_factory.hpp:77] Creating layer label_val-data_1_split
I0426 10:10:58.578707 21169 net.cpp:84] Creating Layer label_val-data_1_split
I0426 10:10:58.578712 21169 net.cpp:406] label_val-data_1_split <- label
I0426 10:10:58.578719 21169 net.cpp:380] label_val-data_1_split -> label_val-data_1_split_0
I0426 10:10:58.578728 21169 net.cpp:380] label_val-data_1_split -> label_val-data_1_split_1
I0426 10:10:58.578781 21169 net.cpp:122] Setting up label_val-data_1_split
I0426 10:10:58.578790 21169 net.cpp:129] Top shape: 32 (32)
I0426 10:10:58.578796 21169 net.cpp:129] Top shape: 32 (32)
I0426 10:10:58.578801 21169 net.cpp:137] Memory required for data: 19787520
I0426 10:10:58.578806 21169 layer_factory.hpp:77] Creating layer conv1
I0426 10:10:58.578822 21169 net.cpp:84] Creating Layer conv1
I0426 10:10:58.578826 21169 net.cpp:406] conv1 <- data
I0426 10:10:58.578832 21169 net.cpp:380] conv1 -> conv1
I0426 10:10:58.581202 21169 net.cpp:122] Setting up conv1
I0426 10:10:58.581212 21169 net.cpp:129] Top shape: 32 96 55 55 (9292800)
I0426 10:10:58.581215 21169 net.cpp:137] Memory required for data: 56958720
I0426 10:10:58.581225 21169 layer_factory.hpp:77] Creating layer relu1
I0426 10:10:58.581231 21169 net.cpp:84] Creating Layer relu1
I0426 10:10:58.581234 21169 net.cpp:406] relu1 <- conv1
I0426 10:10:58.581240 21169 net.cpp:367] relu1 -> conv1 (in-place)
I0426 10:10:58.581532 21169 net.cpp:122] Setting up relu1
I0426 10:10:58.581542 21169 net.cpp:129] Top shape: 32 96 55 55 (9292800)
I0426 10:10:58.581544 21169 net.cpp:137] Memory required for data: 94129920
I0426 10:10:58.581548 21169 layer_factory.hpp:77] Creating layer norm1
I0426 10:10:58.581555 21169 net.cpp:84] Creating Layer norm1
I0426 10:10:58.581559 21169 net.cpp:406] norm1 <- conv1
I0426 10:10:58.581564 21169 net.cpp:380] norm1 -> norm1
I0426 10:10:58.583078 21169 net.cpp:122] Setting up norm1
I0426 10:10:58.583088 21169 net.cpp:129] Top shape: 32 96 55 55 (9292800)
I0426 10:10:58.583091 21169 net.cpp:137] Memory required for data: 131301120
I0426 10:10:58.583096 21169 layer_factory.hpp:77] Creating layer pool1
I0426 10:10:58.583101 21169 net.cpp:84] Creating Layer pool1
I0426 10:10:58.583106 21169 net.cpp:406] pool1 <- norm1
I0426 10:10:58.583110 21169 net.cpp:380] pool1 -> pool1
I0426 10:10:58.583138 21169 net.cpp:122] Setting up pool1
I0426 10:10:58.583143 21169 net.cpp:129] Top shape: 32 96 27 27 (2239488)
I0426 10:10:58.583146 21169 net.cpp:137] Memory required for data: 140259072
I0426 10:10:58.583150 21169 layer_factory.hpp:77] Creating layer conv2
I0426 10:10:58.583158 21169 net.cpp:84] Creating Layer conv2
I0426 10:10:58.583161 21169 net.cpp:406] conv2 <- pool1
I0426 10:10:58.583184 21169 net.cpp:380] conv2 -> conv2
I0426 10:10:58.590863 21169 net.cpp:122] Setting up conv2
I0426 10:10:58.590880 21169 net.cpp:129] Top shape: 32 256 27 27 (5971968)
I0426 10:10:58.590884 21169 net.cpp:137] Memory required for data: 164146944
I0426 10:10:58.590895 21169 layer_factory.hpp:77] Creating layer relu2
I0426 10:10:58.590906 21169 net.cpp:84] Creating Layer relu2
I0426 10:10:58.590911 21169 net.cpp:406] relu2 <- conv2
I0426 10:10:58.590920 21169 net.cpp:367] relu2 -> conv2 (in-place)
I0426 10:10:58.591455 21169 net.cpp:122] Setting up relu2
I0426 10:10:58.591464 21169 net.cpp:129] Top shape: 32 256 27 27 (5971968)
I0426 10:10:58.591467 21169 net.cpp:137] Memory required for data: 188034816
I0426 10:10:58.591471 21169 layer_factory.hpp:77] Creating layer norm2
I0426 10:10:58.591481 21169 net.cpp:84] Creating Layer norm2
I0426 10:10:58.591485 21169 net.cpp:406] norm2 <- conv2
I0426 10:10:58.591491 21169 net.cpp:380] norm2 -> norm2
I0426 10:10:58.592015 21169 net.cpp:122] Setting up norm2
I0426 10:10:58.592023 21169 net.cpp:129] Top shape: 32 256 27 27 (5971968)
I0426 10:10:58.592026 21169 net.cpp:137] Memory required for data: 211922688
I0426 10:10:58.592031 21169 layer_factory.hpp:77] Creating layer pool2
I0426 10:10:58.592038 21169 net.cpp:84] Creating Layer pool2
I0426 10:10:58.592042 21169 net.cpp:406] pool2 <- norm2
I0426 10:10:58.592047 21169 net.cpp:380] pool2 -> pool2
I0426 10:10:58.592079 21169 net.cpp:122] Setting up pool2
I0426 10:10:58.592084 21169 net.cpp:129] Top shape: 32 256 13 13 (1384448)
I0426 10:10:58.592087 21169 net.cpp:137] Memory required for data: 217460480
I0426 10:10:58.592092 21169 layer_factory.hpp:77] Creating layer conv3
I0426 10:10:58.592101 21169 net.cpp:84] Creating Layer conv3
I0426 10:10:58.592104 21169 net.cpp:406] conv3 <- pool2
I0426 10:10:58.592110 21169 net.cpp:380] conv3 -> conv3
I0426 10:10:58.604758 21169 net.cpp:122] Setting up conv3
I0426 10:10:58.604776 21169 net.cpp:129] Top shape: 32 384 13 13 (2076672)
I0426 10:10:58.604780 21169 net.cpp:137] Memory required for data: 225767168
I0426 10:10:58.604794 21169 layer_factory.hpp:77] Creating layer relu3
I0426 10:10:58.604802 21169 net.cpp:84] Creating Layer relu3
I0426 10:10:58.604806 21169 net.cpp:406] relu3 <- conv3
I0426 10:10:58.604813 21169 net.cpp:367] relu3 -> conv3 (in-place)
I0426 10:10:58.605329 21169 net.cpp:122] Setting up relu3
I0426 10:10:58.605337 21169 net.cpp:129] Top shape: 32 384 13 13 (2076672)
I0426 10:10:58.605341 21169 net.cpp:137] Memory required for data: 234073856
I0426 10:10:58.605345 21169 layer_factory.hpp:77] Creating layer conv4
I0426 10:10:58.605355 21169 net.cpp:84] Creating Layer conv4
I0426 10:10:58.605360 21169 net.cpp:406] conv4 <- conv3
I0426 10:10:58.605367 21169 net.cpp:380] conv4 -> conv4
I0426 10:10:58.667002 21169 net.cpp:122] Setting up conv4
I0426 10:10:58.667021 21169 net.cpp:129] Top shape: 32 384 7 7 (602112)
I0426 10:10:58.667023 21169 net.cpp:137] Memory required for data: 236482304
I0426 10:10:58.667032 21169 layer_factory.hpp:77] Creating layer relu4
I0426 10:10:58.667040 21169 net.cpp:84] Creating Layer relu4
I0426 10:10:58.667045 21169 net.cpp:406] relu4 <- conv4
I0426 10:10:58.667053 21169 net.cpp:367] relu4 -> conv4 (in-place)
I0426 10:10:58.667407 21169 net.cpp:122] Setting up relu4
I0426 10:10:58.667415 21169 net.cpp:129] Top shape: 32 384 7 7 (602112)
I0426 10:10:58.667418 21169 net.cpp:137] Memory required for data: 238890752
I0426 10:10:58.667423 21169 layer_factory.hpp:77] Creating layer conv5
I0426 10:10:58.667433 21169 net.cpp:84] Creating Layer conv5
I0426 10:10:58.667436 21169 net.cpp:406] conv5 <- conv4
I0426 10:10:58.667443 21169 net.cpp:380] conv5 -> conv5
I0426 10:10:58.682724 21169 net.cpp:122] Setting up conv5
I0426 10:10:58.682741 21169 net.cpp:129] Top shape: 32 256 7 7 (401408)
I0426 10:10:58.682745 21169 net.cpp:137] Memory required for data: 240496384
I0426 10:10:58.682757 21169 layer_factory.hpp:77] Creating layer relu5
I0426 10:10:58.682766 21169 net.cpp:84] Creating Layer relu5
I0426 10:10:58.682771 21169 net.cpp:406] relu5 <- conv5
I0426 10:10:58.682796 21169 net.cpp:367] relu5 -> conv5 (in-place)
I0426 10:10:58.683995 21169 net.cpp:122] Setting up relu5
I0426 10:10:58.684005 21169 net.cpp:129] Top shape: 32 256 7 7 (401408)
I0426 10:10:58.684010 21169 net.cpp:137] Memory required for data: 242102016
I0426 10:10:58.684012 21169 layer_factory.hpp:77] Creating layer pool5
I0426 10:10:58.684023 21169 net.cpp:84] Creating Layer pool5
I0426 10:10:58.684027 21169 net.cpp:406] pool5 <- conv5
I0426 10:10:58.684033 21169 net.cpp:380] pool5 -> pool5
I0426 10:10:58.684072 21169 net.cpp:122] Setting up pool5
I0426 10:10:58.684078 21169 net.cpp:129] Top shape: 32 256 3 3 (73728)
I0426 10:10:58.684082 21169 net.cpp:137] Memory required for data: 242396928
I0426 10:10:58.684087 21169 layer_factory.hpp:77] Creating layer fc6
I0426 10:10:58.684094 21169 net.cpp:84] Creating Layer fc6
I0426 10:10:58.684098 21169 net.cpp:406] fc6 <- pool5
I0426 10:10:58.684103 21169 net.cpp:380] fc6 -> fc6
I0426 10:10:58.777074 21169 net.cpp:122] Setting up fc6
I0426 10:10:58.777093 21169 net.cpp:129] Top shape: 32 4096 (131072)
I0426 10:10:58.777097 21169 net.cpp:137] Memory required for data: 242921216
I0426 10:10:58.777107 21169 layer_factory.hpp:77] Creating layer relu6
I0426 10:10:58.777117 21169 net.cpp:84] Creating Layer relu6
I0426 10:10:58.777122 21169 net.cpp:406] relu6 <- fc6
I0426 10:10:58.777127 21169 net.cpp:367] relu6 -> fc6 (in-place)
I0426 10:10:58.777915 21169 net.cpp:122] Setting up relu6
I0426 10:10:58.777925 21169 net.cpp:129] Top shape: 32 4096 (131072)
I0426 10:10:58.777928 21169 net.cpp:137] Memory required for data: 243445504
I0426 10:10:58.777932 21169 layer_factory.hpp:77] Creating layer drop6
I0426 10:10:58.777941 21169 net.cpp:84] Creating Layer drop6
I0426 10:10:58.777945 21169 net.cpp:406] drop6 <- fc6
I0426 10:10:58.777951 21169 net.cpp:367] drop6 -> fc6 (in-place)
I0426 10:10:58.777979 21169 net.cpp:122] Setting up drop6
I0426 10:10:58.777988 21169 net.cpp:129] Top shape: 32 4096 (131072)
I0426 10:10:58.777993 21169 net.cpp:137] Memory required for data: 243969792
I0426 10:10:58.777998 21169 layer_factory.hpp:77] Creating layer fc7
I0426 10:10:58.778007 21169 net.cpp:84] Creating Layer fc7
I0426 10:10:58.778012 21169 net.cpp:406] fc7 <- fc6
I0426 10:10:58.778023 21169 net.cpp:380] fc7 -> fc7
I0426 10:10:58.942811 21169 net.cpp:122] Setting up fc7
I0426 10:10:58.942832 21169 net.cpp:129] Top shape: 32 4096 (131072)
I0426 10:10:58.942836 21169 net.cpp:137] Memory required for data: 244494080
I0426 10:10:58.942845 21169 layer_factory.hpp:77] Creating layer relu7
I0426 10:10:58.942855 21169 net.cpp:84] Creating Layer relu7
I0426 10:10:58.942860 21169 net.cpp:406] relu7 <- fc7
I0426 10:10:58.942867 21169 net.cpp:367] relu7 -> fc7 (in-place)
I0426 10:10:58.943290 21169 net.cpp:122] Setting up relu7
I0426 10:10:58.943298 21169 net.cpp:129] Top shape: 32 4096 (131072)
I0426 10:10:58.943302 21169 net.cpp:137] Memory required for data: 245018368
I0426 10:10:58.943305 21169 layer_factory.hpp:77] Creating layer drop7
I0426 10:10:58.943311 21169 net.cpp:84] Creating Layer drop7
I0426 10:10:58.943315 21169 net.cpp:406] drop7 <- fc7
I0426 10:10:58.943321 21169 net.cpp:367] drop7 -> fc7 (in-place)
I0426 10:10:58.943343 21169 net.cpp:122] Setting up drop7
I0426 10:10:58.943348 21169 net.cpp:129] Top shape: 32 4096 (131072)
I0426 10:10:58.943351 21169 net.cpp:137] Memory required for data: 245542656
I0426 10:10:58.943354 21169 layer_factory.hpp:77] Creating layer fc8
I0426 10:10:58.943363 21169 net.cpp:84] Creating Layer fc8
I0426 10:10:58.943367 21169 net.cpp:406] fc8 <- fc7
I0426 10:10:58.943372 21169 net.cpp:380] fc8 -> fc8
I0426 10:10:58.954795 21169 net.cpp:122] Setting up fc8
I0426 10:10:58.954813 21169 net.cpp:129] Top shape: 32 196 (6272)
I0426 10:10:58.954816 21169 net.cpp:137] Memory required for data: 245567744
I0426 10:10:58.954823 21169 layer_factory.hpp:77] Creating layer fc8_fc8_0_split
I0426 10:10:58.954833 21169 net.cpp:84] Creating Layer fc8_fc8_0_split
I0426 10:10:58.954838 21169 net.cpp:406] fc8_fc8_0_split <- fc8
I0426 10:10:58.954844 21169 net.cpp:380] fc8_fc8_0_split -> fc8_fc8_0_split_0
I0426 10:10:58.954870 21169 net.cpp:380] fc8_fc8_0_split -> fc8_fc8_0_split_1
I0426 10:10:58.954907 21169 net.cpp:122] Setting up fc8_fc8_0_split
I0426 10:10:58.954912 21169 net.cpp:129] Top shape: 32 196 (6272)
I0426 10:10:58.954916 21169 net.cpp:129] Top shape: 32 196 (6272)
I0426 10:10:58.954918 21169 net.cpp:137] Memory required for data: 245617920
I0426 10:10:58.954921 21169 layer_factory.hpp:77] Creating layer accuracy
I0426 10:10:58.954928 21169 net.cpp:84] Creating Layer accuracy
I0426 10:10:58.954931 21169 net.cpp:406] accuracy <- fc8_fc8_0_split_0
I0426 10:10:58.954936 21169 net.cpp:406] accuracy <- label_val-data_1_split_0
I0426 10:10:58.954941 21169 net.cpp:380] accuracy -> accuracy
…
