…
I0406 15:08:12.975114 21485 net.cpp:294] The NetState phase (0) differed from the phase (1) specified by a rule in layer accuracy
I0406 15:08:12.975234 21485 net.cpp:51] Initializing net from parameters:
state {
phase: TRAIN
level: 0
stage: ""
}
layer {
name: "train-data"
type: "Data"
top: "data"
top: "label"
include {
phase: TRAIN
}
transform_param {
mirror: true
crop_size: 227
mean_file: "/mnt/bigdisk/DIGITS-AIN-3/digits/jobs/20210401-115716-aaf7/mean.binaryproto"
}
data_param {
source: "/mnt/bigdisk/DIGITS-AIN-3/digits/jobs/20210401-115716-aaf7/train_db"
batch_size: 128
backend: LMDB
}
}
layer {
name: "conv1"
type: "Convolution"
bottom: "data"
top: "conv1"
param {
lr_mult: 1
decay_mult: 1
}
param {
lr_mult: 2
decay_mult: 0
}
convolution_param {
num_output: 96
kernel_size: 11
stride: 4
weight_filler {
type: "gaussian"
std: 0.01
}
bias_filler {
type: "constant"
value: 0
}
}
}
layer {
name: "relu1"
type: "ReLU"
bottom: "conv1"
top: "conv1"
}
layer {
name: "norm1"
type: "LRN"
bottom: "conv1"
top: "norm1"
lrn_param {
local_size: 5
alpha: 0.0001
beta: 0.75
}
}
layer {
name: "pool1"
type: "Pooling"
bottom: "norm1"
top: "pool1"
pooling_param {
pool: MAX
kernel_size: 3
stride: 2
}
}
layer {
name: "conv2"
type: "Convolution"
bottom: "pool1"
top: "conv2"
param {
lr_mult: 1
decay_mult: 1
}
param {
lr_mult: 2
decay_mult: 0
}
convolution_param {
num_output: 256
pad: 2
kernel_size: 5
group: 2
weight_filler {
type: "gaussian"
std: 0.01
}
bias_filler {
type: "constant"
value: 0.1
}
}
}
layer {
name: "relu2"
type: "ReLU"
bottom: "conv2"
top: "conv2"
}
layer {
name: "norm2"
type: "LRN"
bottom: "conv2"
top: "norm2"
lrn_param {
local_size: 5
alpha: 0.0001
beta: 0.75
}
}
layer {
name: "pool2"
type: "Pooling"
bottom: "norm2"
top: "pool2"
pooling_param {
pool: MAX
kernel_size: 3
stride: 2
}
}
layer {
name: "conv3"
type: "Convolution"
bottom: "pool2"
top: "conv3"
param {
lr_mult: 1
decay_mult: 1
}
param {
lr_mult: 2
decay_mult: 0
}
convolution_param {
num_output: 384
pad: 1
kernel_size: 3
weight_filler {
type: "gaussian"
std: 0.01
}
bias_filler {
type: "constant"
value: 0
}
}
}
layer {
name: "relu3"
type: "ReLU"
bottom: "conv3"
top: "conv3"
}
layer {
name: "conv4"
type: "Convolution"
bottom: "conv3"
top: "conv4"
param {
lr_mult: 1
decay_mult: 1
}
param {
lr_mult: 2
decay_mult: 0
}
convolution_param {
num_output: 384
pad: 1
kernel_size: 3
group: 2
weight_filler {
type: "gaussian"
std: 0.01
}
bias_filler {
type: "constant"
value: 0.1
}
}
}
layer {
name: "relu4"
type: "ReLU"
bottom: "conv4"
top: "conv4"
}
layer {
name: "conv5"
type: "Convolution"
bottom: "conv4"
top: "conv5"
param {
lr_mult: 1
decay_mult: 1
}
param {
lr_mult: 2
decay_mult: 0
}
convolution_param {
num_output: 256
pad: 1
kernel_size: 3
group: 2
weight_filler {
type: "gaussian"
std: 0.01
}
bias_filler {
type: "constant"
value: 0.1
}
}
}
layer {
name: "relu5"
type: "ReLU"
bottom: "conv5"
top: "conv5"
}
layer {
name: "pool5"
type: "Pooling"
bottom: "conv5"
top: "pool5"
pooling_param {
pool: MAX
kernel_size: 3
stride: 2
}
}
layer {
name: "fc6"
type: "InnerProduct"
bottom: "pool5"
top: "fc6"
param {
lr_mult: 1
decay_mult: 1
}
param {
lr_mult: 2
decay_mult: 0
}
inner_product_param {
num_output: 4096
weight_filler {
type: "gaussian"
std: 0.005
}
bias_filler {
type: "constant"
value: 0.1
}
}
}
layer {
name: "relu6"
type: "ReLU"
bottom: "fc6"
top: "fc6"
}
layer {
name: "drop6"
type: "Dropout"
bottom: "fc6"
top: "fc6"
dropout_param {
dropout_ratio: 0.5
}
}
layer {
name: "fc7"
type: "InnerProduct"
bottom: "fc6"
top: "fc7"
param {
lr_mult: 1
decay_mult: 1
}
param {
lr_mult: 2
decay_mult: 0
}
inner_product_param {
num_output: 4096
weight_filler {
type: "gaussian"
std: 0.005
}
bias_filler {
type: "constant"
value: 0.1
}
}
}
layer {
name: "relu7"
type: "ReLU"
bottom: "fc7"
top: "fc7"
}
layer {
name: "drop7"
type: "Dropout"
bottom: "fc7"
top: "fc7"
dropout_param {
dropout_ratio: 0.5
}
}
layer {
name: "fc8"
type: "InnerProduct"
bottom: "fc7"
top: "fc8"
param {
lr_mult: 1
decay_mult: 1
}
param {
lr_mult: 2
decay_mult: 0
}
inner_product_param {
num_output: 196
weight_filler {
type: "gaussian"
std: 0.01
}
bias_filler {
type: "constant"
value: 0
}
}
}
layer {
name: "loss"
type: "SoftmaxWithLoss"
bottom: "fc8"
bottom: "label"
top: "loss"
}
I0406 15:08:12.975313 21485 layer_factory.hpp:77] Creating layer train-data
I0406 15:08:13.002948 21485 db_lmdb.cpp:35] Opened lmdb /mnt/bigdisk/DIGITS-AIN-3/digits/jobs/20210401-115716-aaf7/train_db
I0406 15:08:13.003217 21485 net.cpp:84] Creating Layer train-data
I0406 15:08:13.003234 21485 net.cpp:380] train-data -> data
I0406 15:08:13.003257 21485 net.cpp:380] train-data -> label
I0406 15:08:13.003266 21485 data_transformer.cpp:25] Loading mean file from: /mnt/bigdisk/DIGITS-AIN-3/digits/jobs/20210401-115716-aaf7/mean.binaryproto
I0406 15:08:13.009089 21485 data_layer.cpp:45] output data size: 128,3,227,227
I0406 15:08:13.146806 21485 net.cpp:122] Setting up train-data
I0406 15:08:13.146826 21485 net.cpp:129] Top shape: 128 3 227 227 (19787136)
I0406 15:08:13.146831 21485 net.cpp:129] Top shape: 128 (128)
I0406 15:08:13.146832 21485 net.cpp:137] Memory required for data: 79149056
I0406 15:08:13.146840 21485 layer_factory.hpp:77] Creating layer conv1
I0406 15:08:13.146860 21485 net.cpp:84] Creating Layer conv1
I0406 15:08:13.146864 21485 net.cpp:406] conv1 <- data
I0406 15:08:13.146874 21485 net.cpp:380] conv1 -> conv1
I0406 15:08:13.583338 21485 net.cpp:122] Setting up conv1
I0406 15:08:13.583362 21485 net.cpp:129] Top shape: 128 96 55 55 (37171200)
I0406 15:08:13.583366 21485 net.cpp:137] Memory required for data: 227833856
I0406 15:08:13.583390 21485 layer_factory.hpp:77] Creating layer relu1
I0406 15:08:13.583401 21485 net.cpp:84] Creating Layer relu1
I0406 15:08:13.583406 21485 net.cpp:406] relu1 <- conv1
I0406 15:08:13.583412 21485 net.cpp:367] relu1 -> conv1 (in-place)
I0406 15:08:13.583760 21485 net.cpp:122] Setting up relu1
I0406 15:08:13.583771 21485 net.cpp:129] Top shape: 128 96 55 55 (37171200)
I0406 15:08:13.583775 21485 net.cpp:137] Memory required for data: 376518656
I0406 15:08:13.583778 21485 layer_factory.hpp:77] Creating layer norm1
I0406 15:08:13.583787 21485 net.cpp:84] Creating Layer norm1
I0406 15:08:13.583791 21485 net.cpp:406] norm1 <- conv1
I0406 15:08:13.583822 21485 net.cpp:380] norm1 -> norm1
I0406 15:08:13.584401 21485 net.cpp:122] Setting up norm1
I0406 15:08:13.584411 21485 net.cpp:129] Top shape: 128 96 55 55 (37171200)
I0406 15:08:13.584414 21485 net.cpp:137] Memory required for data: 525203456
I0406 15:08:13.584416 21485 layer_factory.hpp:77] Creating layer pool1
I0406 15:08:13.584424 21485 net.cpp:84] Creating Layer pool1
I0406 15:08:13.584426 21485 net.cpp:406] pool1 <- norm1
I0406 15:08:13.584430 21485 net.cpp:380] pool1 -> pool1
I0406 15:08:13.584461 21485 net.cpp:122] Setting up pool1
I0406 15:08:13.584466 21485 net.cpp:129] Top shape: 128 96 27 27 (8957952)
I0406 15:08:13.584468 21485 net.cpp:137] Memory required for data: 561035264
I0406 15:08:13.584470 21485 layer_factory.hpp:77] Creating layer conv2
I0406 15:08:13.584478 21485 net.cpp:84] Creating Layer conv2
I0406 15:08:13.584481 21485 net.cpp:406] conv2 <- pool1
I0406 15:08:13.584486 21485 net.cpp:380] conv2 -> conv2
I0406 15:08:13.597965 21485 net.cpp:122] Setting up conv2
I0406 15:08:13.597987 21485 net.cpp:129] Top shape: 128 256 27 27 (23887872)
I0406 15:08:13.597991 21485 net.cpp:137] Memory required for data: 656586752
I0406 15:08:13.598007 21485 layer_factory.hpp:77] Creating layer relu2
I0406 15:08:13.598021 21485 net.cpp:84] Creating Layer relu2
I0406 15:08:13.598026 21485 net.cpp:406] relu2 <- conv2
I0406 15:08:13.598033 21485 net.cpp:367] relu2 -> conv2 (in-place)
I0406 15:08:13.598706 21485 net.cpp:122] Setting up relu2
I0406 15:08:13.598719 21485 net.cpp:129] Top shape: 128 256 27 27 (23887872)
I0406 15:08:13.598723 21485 net.cpp:137] Memory required for data: 752138240
I0406 15:08:13.598728 21485 layer_factory.hpp:77] Creating layer norm2
I0406 15:08:13.598737 21485 net.cpp:84] Creating Layer norm2
I0406 15:08:13.598742 21485 net.cpp:406] norm2 <- conv2
I0406 15:08:13.598748 21485 net.cpp:380] norm2 -> norm2
I0406 15:08:13.599257 21485 net.cpp:122] Setting up norm2
I0406 15:08:13.599267 21485 net.cpp:129] Top shape: 128 256 27 27 (23887872)
I0406 15:08:13.599272 21485 net.cpp:137] Memory required for data: 847689728
I0406 15:08:13.599275 21485 layer_factory.hpp:77] Creating layer pool2
I0406 15:08:13.599287 21485 net.cpp:84] Creating Layer pool2
I0406 15:08:13.599290 21485 net.cpp:406] pool2 <- norm2
I0406 15:08:13.599298 21485 net.cpp:380] pool2 -> pool2
I0406 15:08:13.599336 21485 net.cpp:122] Setting up pool2
I0406 15:08:13.599344 21485 net.cpp:129] Top shape: 128 256 13 13 (5537792)
I0406 15:08:13.599346 21485 net.cpp:137] Memory required for data: 869840896
I0406 15:08:13.599350 21485 layer_factory.hpp:77] Creating layer conv3
I0406 15:08:13.599364 21485 net.cpp:84] Creating Layer conv3
I0406 15:08:13.599368 21485 net.cpp:406] conv3 <- pool2
I0406 15:08:13.599377 21485 net.cpp:380] conv3 -> conv3
I0406 15:08:13.615664 21485 net.cpp:122] Setting up conv3
I0406 15:08:13.615689 21485 net.cpp:129] Top shape: 128 384 13 13 (8306688)
I0406 15:08:13.615693 21485 net.cpp:137] Memory required for data: 903067648
I0406 15:08:13.615711 21485 layer_factory.hpp:77] Creating layer relu3
I0406 15:08:13.615722 21485 net.cpp:84] Creating Layer relu3
I0406 15:08:13.615726 21485 net.cpp:406] relu3 <- conv3
I0406 15:08:13.615736 21485 net.cpp:367] relu3 -> conv3 (in-place)
I0406 15:08:13.616405 21485 net.cpp:122] Setting up relu3
I0406 15:08:13.616416 21485 net.cpp:129] Top shape: 128 384 13 13 (8306688)
I0406 15:08:13.616420 21485 net.cpp:137] Memory required for data: 936294400
I0406 15:08:13.616425 21485 layer_factory.hpp:77] Creating layer conv4
I0406 15:08:13.616439 21485 net.cpp:84] Creating Layer conv4
I0406 15:08:13.616443 21485 net.cpp:406] conv4 <- conv3
I0406 15:08:13.616453 21485 net.cpp:380] conv4 -> conv4
I0406 15:08:13.631665 21485 net.cpp:122] Setting up conv4
I0406 15:08:13.631690 21485 net.cpp:129] Top shape: 128 384 13 13 (8306688)
I0406 15:08:13.631695 21485 net.cpp:137] Memory required for data: 969521152
I0406 15:08:13.631706 21485 layer_factory.hpp:77] Creating layer relu4
I0406 15:08:13.631717 21485 net.cpp:84] Creating Layer relu4
I0406 15:08:13.631722 21485 net.cpp:406] relu4 <- conv4
I0406 15:08:13.631757 21485 net.cpp:367] relu4 -> conv4 (in-place)
I0406 15:08:13.632243 21485 net.cpp:122] Setting up relu4
I0406 15:08:13.632254 21485 net.cpp:129] Top shape: 128 384 13 13 (8306688)
I0406 15:08:13.632259 21485 net.cpp:137] Memory required for data: 1002747904
I0406 15:08:13.632263 21485 layer_factory.hpp:77] Creating layer conv5
I0406 15:08:13.632277 21485 net.cpp:84] Creating Layer conv5
I0406 15:08:13.632282 21485 net.cpp:406] conv5 <- conv4
I0406 15:08:13.632289 21485 net.cpp:380] conv5 -> conv5
I0406 15:08:13.644105 21485 net.cpp:122] Setting up conv5
I0406 15:08:13.644134 21485 net.cpp:129] Top shape: 128 256 13 13 (5537792)
I0406 15:08:13.644138 21485 net.cpp:137] Memory required for data: 1024899072
I0406 15:08:13.644156 21485 layer_factory.hpp:77] Creating layer relu5
I0406 15:08:13.644166 21485 net.cpp:84] Creating Layer relu5
I0406 15:08:13.644171 21485 net.cpp:406] relu5 <- conv5
I0406 15:08:13.644181 21485 net.cpp:367] relu5 -> conv5 (in-place)
I0406 15:08:13.644824 21485 net.cpp:122] Setting up relu5
I0406 15:08:13.644838 21485 net.cpp:129] Top shape: 128 256 13 13 (5537792)
I0406 15:08:13.644841 21485 net.cpp:137] Memory required for data: 1047050240
I0406 15:08:13.644846 21485 layer_factory.hpp:77] Creating layer pool5
I0406 15:08:13.644853 21485 net.cpp:84] Creating Layer pool5
I0406 15:08:13.644857 21485 net.cpp:406] pool5 <- conv5
I0406 15:08:13.644865 21485 net.cpp:380] pool5 -> pool5
I0406 15:08:13.644923 21485 net.cpp:122] Setting up pool5
I0406 15:08:13.644932 21485 net.cpp:129] Top shape: 128 256 6 6 (1179648)
I0406 15:08:13.644935 21485 net.cpp:137] Memory required for data: 1051768832
I0406 15:08:13.644938 21485 layer_factory.hpp:77] Creating layer fc6
I0406 15:08:13.644953 21485 net.cpp:84] Creating Layer fc6
I0406 15:08:13.644956 21485 net.cpp:406] fc6 <- pool5
I0406 15:08:13.644963 21485 net.cpp:380] fc6 -> fc6
I0406 15:08:14.076429 21485 net.cpp:122] Setting up fc6
I0406 15:08:14.076452 21485 net.cpp:129] Top shape: 128 4096 (524288)
I0406 15:08:14.076453 21485 net.cpp:137] Memory required for data: 1053865984
I0406 15:08:14.076462 21485 layer_factory.hpp:77] Creating layer relu6
I0406 15:08:14.076473 21485 net.cpp:84] Creating Layer relu6
I0406 15:08:14.076476 21485 net.cpp:406] relu6 <- fc6
I0406 15:08:14.076481 21485 net.cpp:367] relu6 -> fc6 (in-place)
I0406 15:08:14.077132 21485 net.cpp:122] Setting up relu6
I0406 15:08:14.077142 21485 net.cpp:129] Top shape: 128 4096 (524288)
I0406 15:08:14.077143 21485 net.cpp:137] Memory required for data: 1055963136
I0406 15:08:14.077147 21485 layer_factory.hpp:77] Creating layer drop6
I0406 15:08:14.077152 21485 net.cpp:84] Creating Layer drop6
I0406 15:08:14.077154 21485 net.cpp:406] drop6 <- fc6
I0406 15:08:14.077158 21485 net.cpp:367] drop6 -> fc6 (in-place)
I0406 15:08:14.077184 21485 net.cpp:122] Setting up drop6
I0406 15:08:14.077188 21485 net.cpp:129] Top shape: 128 4096 (524288)
I0406 15:08:14.077190 21485 net.cpp:137] Memory required for data: 1058060288
I0406 15:08:14.077193 21485 layer_factory.hpp:77] Creating layer fc7
I0406 15:08:14.077199 21485 net.cpp:84] Creating Layer fc7
I0406 15:08:14.077203 21485 net.cpp:406] fc7 <- fc6
I0406 15:08:14.077205 21485 net.cpp:380] fc7 -> fc7
I0406 15:08:14.224916 21485 net.cpp:122] Setting up fc7
I0406 15:08:14.224936 21485 net.cpp:129] Top shape: 128 4096 (524288)
I0406 15:08:14.224939 21485 net.cpp:137] Memory required for data: 1060157440
I0406 15:08:14.224947 21485 layer_factory.hpp:77] Creating layer relu7
I0406 15:08:14.224956 21485 net.cpp:84] Creating Layer relu7
I0406 15:08:14.224958 21485 net.cpp:406] relu7 <- fc7
I0406 15:08:14.224964 21485 net.cpp:367] relu7 -> fc7 (in-place)
I0406 15:08:14.225333 21485 net.cpp:122] Setting up relu7
I0406 15:08:14.225342 21485 net.cpp:129] Top shape: 128 4096 (524288)
I0406 15:08:14.225343 21485 net.cpp:137] Memory required for data: 1062254592
I0406 15:08:14.225345 21485 layer_factory.hpp:77] Creating layer drop7
I0406 15:08:14.225353 21485 net.cpp:84] Creating Layer drop7
I0406 15:08:14.225355 21485 net.cpp:406] drop7 <- fc7
I0406 15:08:14.225380 21485 net.cpp:367] drop7 -> fc7 (in-place)
I0406 15:08:14.225402 21485 net.cpp:122] Setting up drop7
I0406 15:08:14.225406 21485 net.cpp:129] Top shape: 128 4096 (524288)
I0406 15:08:14.225409 21485 net.cpp:137] Memory required for data: 1064351744
I0406 15:08:14.225410 21485 layer_factory.hpp:77] Creating layer fc8
I0406 15:08:14.225416 21485 net.cpp:84] Creating Layer fc8
I0406 15:08:14.225419 21485 net.cpp:406] fc8 <- fc7
I0406 15:08:14.225423 21485 net.cpp:380] fc8 -> fc8
I0406 15:08:14.232615 21485 net.cpp:122] Setting up fc8
I0406 15:08:14.232635 21485 net.cpp:129] Top shape: 128 196 (25088)
I0406 15:08:14.232636 21485 net.cpp:137] Memory required for data: 1064452096
I0406 15:08:14.232643 21485 layer_factory.hpp:77] Creating layer loss
I0406 15:08:14.232650 21485 net.cpp:84] Creating Layer loss
I0406 15:08:14.232652 21485 net.cpp:406] loss <- fc8
I0406 15:08:14.232656 21485 net.cpp:406] loss <- label
I0406 15:08:14.232661 21485 net.cpp:380] loss -> loss
I0406 15:08:14.232671 21485 layer_factory.hpp:77] Creating layer loss
…
I0406 15:08:14.234066 21485 net.cpp:294] The NetState phase (1) differed from the phase (0) specified by a rule in layer train-data
I0406 15:08:14.234198 21485 net.cpp:51] Initializing net from parameters:
state {
phase: TEST
}
layer {
name: "val-data"
type: "Data"
top: "data"
top: "label"
include {
phase: TEST
}
transform_param {
crop_size: 227
mean_file: "/mnt/bigdisk/DIGITS-AIN-3/digits/jobs/20210401-115716-aaf7/mean.binaryproto"
}
data_param {
source: "/mnt/bigdisk/DIGITS-AIN-3/digits/jobs/20210401-115716-aaf7/val_db"
batch_size: 32
backend: LMDB
}
}
layer {
name: "conv1"
type: "Convolution"
bottom: "data"
top: "conv1"
param {
lr_mult: 1
decay_mult: 1
}
param {
lr_mult: 2
decay_mult: 0
}
convolution_param {
num_output: 96
kernel_size: 11
stride: 4
weight_filler {
type: "gaussian"
std: 0.01
}
bias_filler {
type: "constant"
value: 0
}
}
}
layer {
name: "relu1"
type: "ReLU"
bottom: "conv1"
top: "conv1"
}
layer {
name: "norm1"
type: "LRN"
bottom: "conv1"
top: "norm1"
lrn_param {
local_size: 5
alpha: 0.0001
beta: 0.75
}
}
layer {
name: "pool1"
type: "Pooling"
bottom: "norm1"
top: "pool1"
pooling_param {
pool: MAX
kernel_size: 3
stride: 2
}
}
layer {
name: "conv2"
type: "Convolution"
bottom: "pool1"
top: "conv2"
param {
lr_mult: 1
decay_mult: 1
}
param {
lr_mult: 2
decay_mult: 0
}
convolution_param {
num_output: 256
pad: 2
kernel_size: 5
group: 2
weight_filler {
type: "gaussian"
std: 0.01
}
bias_filler {
type: "constant"
value: 0.1
}
}
}
layer {
name: "relu2"
type: "ReLU"
bottom: "conv2"
top: "conv2"
}
layer {
name: "norm2"
type: "LRN"
bottom: "conv2"
top: "norm2"
lrn_param {
local_size: 5
alpha: 0.0001
beta: 0.75
}
}
layer {
name: "pool2"
type: "Pooling"
bottom: "norm2"
top: "pool2"
pooling_param {
pool: MAX
kernel_size: 3
stride: 2
}
}
layer {
name: "conv3"
type: "Convolution"
bottom: "pool2"
top: "conv3"
param {
lr_mult: 1
decay_mult: 1
}
param {
lr_mult: 2
decay_mult: 0
}
convolution_param {
num_output: 384
pad: 1
kernel_size: 3
weight_filler {
type: "gaussian"
std: 0.01
}
bias_filler {
type: "constant"
value: 0
}
}
}
layer {
name: "relu3"
type: "ReLU"
bottom: "conv3"
top: "conv3"
}
layer {
name: "conv4"
type: "Convolution"
bottom: "conv3"
top: "conv4"
param {
lr_mult: 1
decay_mult: 1
}
param {
lr_mult: 2
decay_mult: 0
}
convolution_param {
num_output: 384
pad: 1
kernel_size: 3
group: 2
weight_filler {
type: "gaussian"
std: 0.01
}
bias_filler {
type: "constant"
value: 0.1
}
}
}
layer {
name: "relu4"
type: "ReLU"
bottom: "conv4"
top: "conv4"
}
layer {
name: "conv5"
type: "Convolution"
bottom: "conv4"
top: "conv5"
param {
lr_mult: 1
decay_mult: 1
}
param {
lr_mult: 2
decay_mult: 0
}
convolution_param {
num_output: 256
pad: 1
kernel_size: 3
group: 2
weight_filler {
type: "gaussian"
std: 0.01
}
bias_filler {
type: "constant"
value: 0.1
}
}
}
layer {
name: "relu5"
type: "ReLU"
bottom: "conv5"
top: "conv5"
}
layer {
name: "pool5"
type: "Pooling"
bottom: "conv5"
top: "pool5"
pooling_param {
pool: MAX
kernel_size: 3
stride: 2
}
}
layer {
name: "fc6"
type: "InnerProduct"
bottom: "pool5"
top: "fc6"
param {
lr_mult: 1
decay_mult: 1
}
param {
lr_mult: 2
decay_mult: 0
}
inner_product_param {
num_output: 4096
weight_filler {
type: "gaussian"
std: 0.005
}
bias_filler {
type: "constant"
value: 0.1
}
}
}
layer {
name: "relu6"
type: "ReLU"
bottom: "fc6"
top: "fc6"
}
layer {
name: "drop6"
type: "Dropout"
bottom: "fc6"
top: "fc6"
dropout_param {
dropout_ratio: 0.5
}
}
layer {
name: "fc7"
type: "InnerProduct"
bottom: "fc6"
top: "fc7"
param {
lr_mult: 1
decay_mult: 1
}
param {
lr_mult: 2
decay_mult: 0
}
inner_product_param {
num_output: 4096
weight_filler {
type: "gaussian"
std: 0.005
}
bias_filler {
type: "constant"
value: 0.1
}
}
}
layer {
name: "relu7"
type: "ReLU"
bottom: "fc7"
top: "fc7"
}
layer {
name: "drop7"
type: "Dropout"
bottom: "fc7"
top: "fc7"
dropout_param {
dropout_ratio: 0.5
}
}
layer {
name: "fc8"
type: "InnerProduct"
bottom: "fc7"
top: "fc8"
param {
lr_mult: 1
decay_mult: 1
}
param {
lr_mult: 2
decay_mult: 0
}
inner_product_param {
num_output: 196
weight_filler {
type: "gaussian"
std: 0.01
}
bias_filler {
type: "constant"
value: 0
}
}
}
layer {
name: "accuracy"
type: "Accuracy"
bottom: "fc8"
bottom: "label"
top: "accuracy"
include {
phase: TEST
}
}
layer {
name: "loss"
type: "SoftmaxWithLoss"
bottom: "fc8"
bottom: "label"
top: "loss"
}
I0406 15:08:14.234293 21485 layer_factory.hpp:77] Creating layer val-data
I0406 15:08:14.236456 21485 db_lmdb.cpp:35] Opened lmdb /mnt/bigdisk/DIGITS-AIN-3/digits/jobs/20210401-115716-aaf7/val_db
I0406 15:08:14.236693 21485 net.cpp:84] Creating Layer val-data
I0406 15:08:14.236704 21485 net.cpp:380] val-data -> data
I0406 15:08:14.236711 21485 net.cpp:380] val-data -> label
I0406 15:08:14.236717 21485 data_transformer.cpp:25] Loading mean file from: /mnt/bigdisk/DIGITS-AIN-3/digits/jobs/20210401-115716-aaf7/mean.binaryproto
I0406 15:08:14.240403 21485 data_layer.cpp:45] output data size: 32,3,227,227
I0406 15:08:14.274221 21485 net.cpp:122] Setting up val-data
I0406 15:08:14.274241 21485 net.cpp:129] Top shape: 32 3 227 227 (4946784)
I0406 15:08:14.274245 21485 net.cpp:129] Top shape: 32 (32)
I0406 15:08:14.274247 21485 net.cpp:137] Memory required for data: 19787264
I0406 15:08:14.274251 21485 layer_factory.hpp:77] Creating layer label_val-data_1_split
I0406 15:08:14.274262 21485 net.cpp:84] Creating Layer label_val-data_1_split
I0406 15:08:14.274266 21485 net.cpp:406] label_val-data_1_split <- label
I0406 15:08:14.274271 21485 net.cpp:380] label_val-data_1_split -> label_val-data_1_split_0
I0406 15:08:14.274278 21485 net.cpp:380] label_val-data_1_split -> label_val-data_1_split_1
I0406 15:08:14.274375 21485 net.cpp:122] Setting up label_val-data_1_split
I0406 15:08:14.274381 21485 net.cpp:129] Top shape: 32 (32)
I0406 15:08:14.274384 21485 net.cpp:129] Top shape: 32 (32)
I0406 15:08:14.274385 21485 net.cpp:137] Memory required for data: 19787520
I0406 15:08:14.274389 21485 layer_factory.hpp:77] Creating layer conv1
I0406 15:08:14.274399 21485 net.cpp:84] Creating Layer conv1
I0406 15:08:14.274400 21485 net.cpp:406] conv1 <- data
I0406 15:08:14.274405 21485 net.cpp:380] conv1 -> conv1
I0406 15:08:14.276787 21485 net.cpp:122] Setting up conv1
I0406 15:08:14.276799 21485 net.cpp:129] Top shape: 32 96 55 55 (9292800)
I0406 15:08:14.276801 21485 net.cpp:137] Memory required for data: 56958720
I0406 15:08:14.276811 21485 layer_factory.hpp:77] Creating layer relu1
I0406 15:08:14.276818 21485 net.cpp:84] Creating Layer relu1
I0406 15:08:14.276820 21485 net.cpp:406] relu1 <- conv1
I0406 15:08:14.276823 21485 net.cpp:367] relu1 -> conv1 (in-place)
I0406 15:08:14.277096 21485 net.cpp:122] Setting up relu1
I0406 15:08:14.277105 21485 net.cpp:129] Top shape: 32 96 55 55 (9292800)
I0406 15:08:14.277107 21485 net.cpp:137] Memory required for data: 94129920
I0406 15:08:14.277110 21485 layer_factory.hpp:77] Creating layer norm1
I0406 15:08:14.277117 21485 net.cpp:84] Creating Layer norm1
I0406 15:08:14.277119 21485 net.cpp:406] norm1 <- conv1
I0406 15:08:14.277123 21485 net.cpp:380] norm1 -> norm1
I0406 15:08:14.277542 21485 net.cpp:122] Setting up norm1
I0406 15:08:14.277550 21485 net.cpp:129] Top shape: 32 96 55 55 (9292800)
I0406 15:08:14.277552 21485 net.cpp:137] Memory required for data: 131301120
I0406 15:08:14.277555 21485 layer_factory.hpp:77] Creating layer pool1
I0406 15:08:14.277561 21485 net.cpp:84] Creating Layer pool1
I0406 15:08:14.277563 21485 net.cpp:406] pool1 <- norm1
I0406 15:08:14.277567 21485 net.cpp:380] pool1 -> pool1
I0406 15:08:14.277592 21485 net.cpp:122] Setting up pool1
I0406 15:08:14.277596 21485 net.cpp:129] Top shape: 32 96 27 27 (2239488)
I0406 15:08:14.277598 21485 net.cpp:137] Memory required for data: 140259072
I0406 15:08:14.277601 21485 layer_factory.hpp:77] Creating layer conv2
I0406 15:08:14.277608 21485 net.cpp:84] Creating Layer conv2
I0406 15:08:14.277611 21485 net.cpp:406] conv2 <- pool1
I0406 15:08:14.277634 21485 net.cpp:380] conv2 -> conv2
I0406 15:08:14.283883 21485 net.cpp:122] Setting up conv2
I0406 15:08:14.283901 21485 net.cpp:129] Top shape: 32 256 27 27 (5971968)
I0406 15:08:14.283905 21485 net.cpp:137] Memory required for data: 164146944
I0406 15:08:14.283915 21485 layer_factory.hpp:77] Creating layer relu2
I0406 15:08:14.283923 21485 net.cpp:84] Creating Layer relu2
I0406 15:08:14.283926 21485 net.cpp:406] relu2 <- conv2
I0406 15:08:14.283932 21485 net.cpp:367] relu2 -> conv2 (in-place)
I0406 15:08:14.284404 21485 net.cpp:122] Setting up relu2
I0406 15:08:14.284415 21485 net.cpp:129] Top shape: 32 256 27 27 (5971968)
I0406 15:08:14.284416 21485 net.cpp:137] Memory required for data: 188034816
I0406 15:08:14.284420 21485 layer_factory.hpp:77] Creating layer norm2
I0406 15:08:14.284430 21485 net.cpp:84] Creating Layer norm2
I0406 15:08:14.284432 21485 net.cpp:406] norm2 <- conv2
I0406 15:08:14.284438 21485 net.cpp:380] norm2 -> norm2
I0406 15:08:14.284952 21485 net.cpp:122] Setting up norm2
I0406 15:08:14.284962 21485 net.cpp:129] Top shape: 32 256 27 27 (5971968)
I0406 15:08:14.284965 21485 net.cpp:137] Memory required for data: 211922688
I0406 15:08:14.284967 21485 layer_factory.hpp:77] Creating layer pool2
I0406 15:08:14.284974 21485 net.cpp:84] Creating Layer pool2
I0406 15:08:14.284977 21485 net.cpp:406] pool2 <- norm2
I0406 15:08:14.284982 21485 net.cpp:380] pool2 -> pool2
I0406 15:08:14.285008 21485 net.cpp:122] Setting up pool2
I0406 15:08:14.285012 21485 net.cpp:129] Top shape: 32 256 13 13 (1384448)
I0406 15:08:14.285014 21485 net.cpp:137] Memory required for data: 217460480
I0406 15:08:14.285017 21485 layer_factory.hpp:77] Creating layer conv3
I0406 15:08:14.285027 21485 net.cpp:84] Creating Layer conv3
I0406 15:08:14.285028 21485 net.cpp:406] conv3 <- pool2
I0406 15:08:14.285033 21485 net.cpp:380] conv3 -> conv3
I0406 15:08:14.297250 21485 net.cpp:122] Setting up conv3
I0406 15:08:14.297271 21485 net.cpp:129] Top shape: 32 384 13 13 (2076672)
I0406 15:08:14.297273 21485 net.cpp:137] Memory required for data: 225767168
I0406 15:08:14.297287 21485 layer_factory.hpp:77] Creating layer relu3
I0406 15:08:14.297297 21485 net.cpp:84] Creating Layer relu3
I0406 15:08:14.297299 21485 net.cpp:406] relu3 <- conv3
I0406 15:08:14.297304 21485 net.cpp:367] relu3 -> conv3 (in-place)
I0406 15:08:14.297775 21485 net.cpp:122] Setting up relu3
I0406 15:08:14.297783 21485 net.cpp:129] Top shape: 32 384 13 13 (2076672)
I0406 15:08:14.297785 21485 net.cpp:137] Memory required for data: 234073856
I0406 15:08:14.297788 21485 layer_factory.hpp:77] Creating layer conv4
I0406 15:08:14.297799 21485 net.cpp:84] Creating Layer conv4
I0406 15:08:14.297801 21485 net.cpp:406] conv4 <- conv3
I0406 15:08:14.297807 21485 net.cpp:380] conv4 -> conv4
I0406 15:08:14.306867 21485 net.cpp:122] Setting up conv4
I0406 15:08:14.306885 21485 net.cpp:129] Top shape: 32 384 13 13 (2076672)
I0406 15:08:14.306887 21485 net.cpp:137] Memory required for data: 242380544
I0406 15:08:14.306896 21485 layer_factory.hpp:77] Creating layer relu4
I0406 15:08:14.306906 21485 net.cpp:84] Creating Layer relu4
I0406 15:08:14.306910 21485 net.cpp:406] relu4 <- conv4
I0406 15:08:14.306915 21485 net.cpp:367] relu4 -> conv4 (in-place)
I0406 15:08:14.307235 21485 net.cpp:122] Setting up relu4
I0406 15:08:14.307242 21485 net.cpp:129] Top shape: 32 384 13 13 (2076672)
I0406 15:08:14.307245 21485 net.cpp:137] Memory required for data: 250687232
I0406 15:08:14.307246 21485 layer_factory.hpp:77] Creating layer conv5
I0406 15:08:14.307258 21485 net.cpp:84] Creating Layer conv5
I0406 15:08:14.307260 21485 net.cpp:406] conv5 <- conv4
I0406 15:08:14.307265 21485 net.cpp:380] conv5 -> conv5
I0406 15:08:14.315160 21485 net.cpp:122] Setting up conv5
I0406 15:08:14.315181 21485 net.cpp:129] Top shape: 32 256 13 13 (1384448)
I0406 15:08:14.315182 21485 net.cpp:137] Memory required for data: 256225024
I0406 15:08:14.315196 21485 layer_factory.hpp:77] Creating layer relu5
I0406 15:08:14.315204 21485 net.cpp:84] Creating Layer relu5
I0406 15:08:14.315207 21485 net.cpp:406] relu5 <- conv5
I0406 15:08:14.315232 21485 net.cpp:367] relu5 -> conv5 (in-place)
I0406 15:08:14.315707 21485 net.cpp:122] Setting up relu5
I0406 15:08:14.315718 21485 net.cpp:129] Top shape: 32 256 13 13 (1384448)
I0406 15:08:14.315721 21485 net.cpp:137] Memory required for data: 261762816
I0406 15:08:14.315723 21485 layer_factory.hpp:77] Creating layer pool5
I0406 15:08:14.315732 21485 net.cpp:84] Creating Layer pool5
I0406 15:08:14.315735 21485 net.cpp:406] pool5 <- conv5
I0406 15:08:14.315739 21485 net.cpp:380] pool5 -> pool5
I0406 15:08:14.315774 21485 net.cpp:122] Setting up pool5
I0406 15:08:14.315778 21485 net.cpp:129] Top shape: 32 256 6 6 (294912)
I0406 15:08:14.315780 21485 net.cpp:137] Memory required for data: 262942464
I0406 15:08:14.315783 21485 layer_factory.hpp:77] Creating layer fc6
I0406 15:08:14.315788 21485 net.cpp:84] Creating Layer fc6
I0406 15:08:14.315790 21485 net.cpp:406] fc6 <- pool5
I0406 15:08:14.315794 21485 net.cpp:380] fc6 -> fc6
I0406 15:08:14.685638 21485 net.cpp:122] Setting up fc6
I0406 15:08:14.685660 21485 net.cpp:129] Top shape: 32 4096 (131072)
I0406 15:08:14.685662 21485 net.cpp:137] Memory required for data: 263466752
I0406 15:08:14.685672 21485 layer_factory.hpp:77] Creating layer relu6
I0406 15:08:14.685678 21485 net.cpp:84] Creating Layer relu6
I0406 15:08:14.685683 21485 net.cpp:406] relu6 <- fc6
I0406 15:08:14.685688 21485 net.cpp:367] relu6 -> fc6 (in-place)
I0406 15:08:14.686980 21485 net.cpp:122] Setting up relu6
I0406 15:08:14.686996 21485 net.cpp:129] Top shape: 32 4096 (131072)
I0406 15:08:14.687000 21485 net.cpp:137] Memory required for data: 263991040
I0406 15:08:14.687003 21485 layer_factory.hpp:77] Creating layer drop6
I0406 15:08:14.687012 21485 net.cpp:84] Creating Layer drop6
I0406 15:08:14.687016 21485 net.cpp:406] drop6 <- fc6
I0406 15:08:14.687024 21485 net.cpp:367] drop6 -> fc6 (in-place)
I0406 15:08:14.687058 21485 net.cpp:122] Setting up drop6
I0406 15:08:14.687064 21485 net.cpp:129] Top shape: 32 4096 (131072)
I0406 15:08:14.687067 21485 net.cpp:137] Memory required for data: 264515328
I0406 15:08:14.687069 21485 layer_factory.hpp:77] Creating layer fc7
I0406 15:08:14.687079 21485 net.cpp:84] Creating Layer fc7
I0406 15:08:14.687083 21485 net.cpp:406] fc7 <- fc6
I0406 15:08:14.687088 21485 net.cpp:380] fc7 -> fc7
I0406 15:08:14.859316 21485 net.cpp:122] Setting up fc7
I0406 15:08:14.859338 21485 net.cpp:129] Top shape: 32 4096 (131072)
I0406 15:08:14.859340 21485 net.cpp:137] Memory required for data: 265039616
I0406 15:08:14.859349 21485 layer_factory.hpp:77] Creating layer relu7
I0406 15:08:14.859359 21485 net.cpp:84] Creating Layer relu7
I0406 15:08:14.859361 21485 net.cpp:406] relu7 <- fc7
I0406 15:08:14.859367 21485 net.cpp:367] relu7 -> fc7 (in-place)
I0406 15:08:14.859766 21485 net.cpp:122] Setting up relu7
I0406 15:08:14.859773 21485 net.cpp:129] Top shape: 32 4096 (131072)
I0406 15:08:14.859776 21485 net.cpp:137] Memory required for data: 265563904
I0406 15:08:14.859777 21485 layer_factory.hpp:77] Creating layer drop7
I0406 15:08:14.859783 21485 net.cpp:84] Creating Layer drop7
I0406 15:08:14.859786 21485 net.cpp:406] drop7 <- fc7
I0406 15:08:14.859791 21485 net.cpp:367] drop7 -> fc7 (in-place)
I0406 15:08:14.859812 21485 net.cpp:122] Setting up drop7
I0406 15:08:14.859815 21485 net.cpp:129] Top shape: 32 4096 (131072)
I0406 15:08:14.859817 21485 net.cpp:137] Memory required for data: 266088192
I0406 15:08:14.859819 21485 layer_factory.hpp:77] Creating layer fc8
I0406 15:08:14.859827 21485 net.cpp:84] Creating Layer fc8
I0406 15:08:14.859828 21485 net.cpp:406] fc8 <- fc7
I0406 15:08:14.859833 21485 net.cpp:380] fc8 -> fc8
I0406 15:08:14.868227 21485 net.cpp:122] Setting up fc8
I0406 15:08:14.868247 21485 net.cpp:129] Top shape: 32 196 (6272)
I0406 15:08:14.868249 21485 net.cpp:137] Memory required for data: 266113280
I0406 15:08:14.868258 21485 layer_factory.hpp:77] Creating layer fc8_fc8_0_split
I0406 15:08:14.868266 21485 net.cpp:84] Creating Layer fc8_fc8_0_split
I0406 15:08:14.868270 21485 net.cpp:406] fc8_fc8_0_split <- fc8
I0406 15:08:14.868296 21485 net.cpp:380] fc8_fc8_0_split -> fc8_fc8_0_split_0
I0406 15:08:14.868305 21485 net.cpp:380] fc8_fc8_0_split -> fc8_fc8_0_split_1
I0406 15:08:14.868338 21485 net.cpp:122] Setting up fc8_fc8_0_split
I0406 15:08:14.868342 21485 net.cpp:129] Top shape: 32 196 (6272)
I0406 15:08:14.868345 21485 net.cpp:129] Top shape: 32 196 (6272)
I0406 15:08:14.868346 21485 net.cpp:137] Memory required for data: 266163456
I0406 15:08:14.868348 21485 layer_factory.hpp:77] Creating layer accuracy
I0406 15:08:14.868357 21485 net.cpp:84] Creating Layer accuracy
I0406 15:08:14.868360 21485 net.cpp:406] accuracy <- fc8_fc8_0_split_0
I0406 15:08:14.868363 21485 net.cpp:406] accuracy <- label_val-data_1_split_0
I0406 15:08:14.868366 21485 net.cpp:380] accuracy -> accuracy
…
