…
I0419 11:34:55.064895 18160 net.cpp:294] The NetState phase (0) differed from the phase (1) specified by a rule in layer accuracy
I0419 11:34:55.065018 18160 net.cpp:51] Initializing net from parameters:
state {
phase: TRAIN
level: 0
stage: ""
}
layer {
name: "train-data"
type: "Data"
top: "data"
top: "label"
include {
phase: TRAIN
}
transform_param {
mirror: true
crop_size: 227
mean_file: "/mnt/bigdisk/DIGITS-AMB-2/digits/jobs/20210419-113022-f27a/mean.binaryproto"
}
data_param {
source: "/mnt/bigdisk/DIGITS-AMB-2/digits/jobs/20210419-113022-f27a/train_db"
batch_size: 128
backend: LMDB
}
}
layer {
name: "conv1"
type: "Convolution"
bottom: "data"
top: "conv1"
param {
lr_mult: 1
decay_mult: 1
}
param {
lr_mult: 2
decay_mult: 0
}
convolution_param {
num_output: 96
kernel_size: 11
stride: 4
weight_filler {
type: "gaussian"
std: 0.01
}
bias_filler {
type: "constant"
value: 0
}
}
}
layer {
name: "relu1"
type: "ReLU"
bottom: "conv1"
top: "conv1"
}
layer {
name: "norm1"
type: "LRN"
bottom: "conv1"
top: "norm1"
lrn_param {
local_size: 5
alpha: 0.0001
beta: 0.75
}
}
layer {
name: "pool1"
type: "Pooling"
bottom: "norm1"
top: "pool1"
pooling_param {
pool: MAX
kernel_size: 3
stride: 2
}
}
layer {
name: "conv2"
type: "Convolution"
bottom: "pool1"
top: "conv2"
param {
lr_mult: 1
decay_mult: 1
}
param {
lr_mult: 2
decay_mult: 0
}
convolution_param {
num_output: 256
pad: 2
kernel_size: 5
group: 2
weight_filler {
type: "gaussian"
std: 0.01
}
bias_filler {
type: "constant"
value: 0.1
}
}
}
layer {
name: "relu2"
type: "ReLU"
bottom: "conv2"
top: "conv2"
}
layer {
name: "norm2"
type: "LRN"
bottom: "conv2"
top: "norm2"
lrn_param {
local_size: 5
alpha: 0.0001
beta: 0.75
}
}
layer {
name: "pool2"
type: "Pooling"
bottom: "norm2"
top: "pool2"
pooling_param {
pool: MAX
kernel_size: 3
stride: 2
}
}
layer {
name: "conv3"
type: "Convolution"
bottom: "pool2"
top: "conv3"
param {
lr_mult: 1
decay_mult: 1
}
param {
lr_mult: 2
decay_mult: 0
}
convolution_param {
num_output: 384
pad: 1
kernel_size: 3
weight_filler {
type: "gaussian"
std: 0.01
}
bias_filler {
type: "constant"
value: 0
}
}
}
layer {
name: "relu3"
type: "ReLU"
bottom: "conv3"
top: "conv3"
}
layer {
name: "conv4"
type: "Convolution"
bottom: "conv3"
top: "conv4"
param {
lr_mult: 1
decay_mult: 1
}
param {
lr_mult: 2
decay_mult: 0
}
convolution_param {
num_output: 384
pad: 1
kernel_size: 3
group: 2
weight_filler {
type: "gaussian"
std: 0.01
}
bias_filler {
type: "constant"
value: 0.1
}
}
}
layer {
name: "relu4"
type: "ReLU"
bottom: "conv4"
top: "conv4"
}
layer {
name: "conv5"
type: "Convolution"
bottom: "conv4"
top: "conv5"
param {
lr_mult: 1
decay_mult: 1
}
param {
lr_mult: 2
decay_mult: 0
}
convolution_param {
num_output: 256
pad: 1
kernel_size: 3
group: 2
weight_filler {
type: "gaussian"
std: 0.01
}
bias_filler {
type: "constant"
value: 0.1
}
}
}
layer {
name: "relu5"
type: "ReLU"
bottom: "conv5"
top: "conv5"
}
layer {
name: "pool5"
type: "Pooling"
bottom: "conv5"
top: "pool5"
pooling_param {
pool: MAX
kernel_size: 3
stride: 2
}
}
layer {
name: "fc6"
type: "InnerProduct"
bottom: "pool5"
top: "fc6"
param {
lr_mult: 1
decay_mult: 1
}
param {
lr_mult: 2
decay_mult: 0
}
inner_product_param {
num_output: 4096
weight_filler {
type: "gaussian"
std: 0.005
}
bias_filler {
type: "constant"
value: 0.1
}
}
}
layer {
name: "relu6"
type: "ReLU"
bottom: "fc6"
top: "fc6"
}
layer {
name: "drop6"
type: "Dropout"
bottom: "fc6"
top: "fc6"
dropout_param {
dropout_ratio: 0.5
}
}
layer {
name: "fc7"
type: "InnerProduct"
bottom: "fc6"
top: "fc7"
param {
lr_mult: 1
decay_mult: 1
}
param {
lr_mult: 2
decay_mult: 0
}
inner_product_param {
num_output: 4096
weight_filler {
type: "gaussian"
std: 0.005
}
bias_filler {
type: "constant"
value: 0.1
}
}
}
layer {
name: "relu7"
type: "ReLU"
bottom: "fc7"
top: "fc7"
}
layer {
name: "drop7"
type: "Dropout"
bottom: "fc7"
top: "fc7"
dropout_param {
dropout_ratio: 0.5
}
}
layer {
name: "fc8"
type: "InnerProduct"
bottom: "fc7"
top: "fc8"
param {
lr_mult: 1
decay_mult: 1
}
param {
lr_mult: 2
decay_mult: 0
}
inner_product_param {
num_output: 196
weight_filler {
type: "gaussian"
std: 0.01
}
bias_filler {
type: "constant"
value: 0
}
}
}
layer {
name: "loss"
type: "SoftmaxWithLoss"
bottom: "fc8"
bottom: "label"
top: "loss"
}
I0419 11:34:55.065104 18160 layer_factory.hpp:77] Creating layer train-data
I0419 11:34:55.067338 18160 db_lmdb.cpp:35] Opened lmdb /mnt/bigdisk/DIGITS-AMB-2/digits/jobs/20210419-113022-f27a/train_db
I0419 11:34:55.068028 18160 net.cpp:84] Creating Layer train-data
I0419 11:34:55.068040 18160 net.cpp:380] train-data -> data
I0419 11:34:55.068059 18160 net.cpp:380] train-data -> label
I0419 11:34:55.068070 18160 data_transformer.cpp:25] Loading mean file from: /mnt/bigdisk/DIGITS-AMB-2/digits/jobs/20210419-113022-f27a/mean.binaryproto
I0419 11:34:55.072172 18160 data_layer.cpp:45] output data size: 128,3,227,227
I0419 11:34:55.196167 18160 net.cpp:122] Setting up train-data
I0419 11:34:55.196188 18160 net.cpp:129] Top shape: 128 3 227 227 (19787136)
I0419 11:34:55.196192 18160 net.cpp:129] Top shape: 128 (128)
I0419 11:34:55.196195 18160 net.cpp:137] Memory required for data: 79149056
I0419 11:34:55.196204 18160 layer_factory.hpp:77] Creating layer conv1
I0419 11:34:55.196225 18160 net.cpp:84] Creating Layer conv1
I0419 11:34:55.196230 18160 net.cpp:406] conv1 <- data
I0419 11:34:55.196242 18160 net.cpp:380] conv1 -> conv1
I0419 11:34:56.055893 18160 net.cpp:122] Setting up conv1
I0419 11:34:56.055917 18160 net.cpp:129] Top shape: 128 96 55 55 (37171200)
I0419 11:34:56.055920 18160 net.cpp:137] Memory required for data: 227833856
I0419 11:34:56.055940 18160 layer_factory.hpp:77] Creating layer relu1
I0419 11:34:56.055950 18160 net.cpp:84] Creating Layer relu1
I0419 11:34:56.055954 18160 net.cpp:406] relu1 <- conv1
I0419 11:34:56.055961 18160 net.cpp:367] relu1 -> conv1 (in-place)
I0419 11:34:56.056344 18160 net.cpp:122] Setting up relu1
I0419 11:34:56.056354 18160 net.cpp:129] Top shape: 128 96 55 55 (37171200)
I0419 11:34:56.056355 18160 net.cpp:137] Memory required for data: 376518656
I0419 11:34:56.056358 18160 layer_factory.hpp:77] Creating layer norm1
I0419 11:34:56.056370 18160 net.cpp:84] Creating Layer norm1
I0419 11:34:56.056372 18160 net.cpp:406] norm1 <- conv1
I0419 11:34:56.056399 18160 net.cpp:380] norm1 -> norm1
I0419 11:34:56.057108 18160 net.cpp:122] Setting up norm1
I0419 11:34:56.057119 18160 net.cpp:129] Top shape: 128 96 55 55 (37171200)
I0419 11:34:56.057122 18160 net.cpp:137] Memory required for data: 525203456
I0419 11:34:56.057126 18160 layer_factory.hpp:77] Creating layer pool1
I0419 11:34:56.057133 18160 net.cpp:84] Creating Layer pool1
I0419 11:34:56.057137 18160 net.cpp:406] pool1 <- norm1
I0419 11:34:56.057144 18160 net.cpp:380] pool1 -> pool1
I0419 11:34:56.057178 18160 net.cpp:122] Setting up pool1
I0419 11:34:56.057184 18160 net.cpp:129] Top shape: 128 96 27 27 (8957952)
I0419 11:34:56.057188 18160 net.cpp:137] Memory required for data: 561035264
I0419 11:34:56.057190 18160 layer_factory.hpp:77] Creating layer conv2
I0419 11:34:56.057202 18160 net.cpp:84] Creating Layer conv2
I0419 11:34:56.057205 18160 net.cpp:406] conv2 <- pool1
I0419 11:34:56.057210 18160 net.cpp:380] conv2 -> conv2
I0419 11:34:56.065150 18160 net.cpp:122] Setting up conv2
I0419 11:34:56.065165 18160 net.cpp:129] Top shape: 128 256 27 27 (23887872)
I0419 11:34:56.065168 18160 net.cpp:137] Memory required for data: 656586752
I0419 11:34:56.065177 18160 layer_factory.hpp:77] Creating layer relu2
I0419 11:34:56.065183 18160 net.cpp:84] Creating Layer relu2
I0419 11:34:56.065186 18160 net.cpp:406] relu2 <- conv2
I0419 11:34:56.065191 18160 net.cpp:367] relu2 -> conv2 (in-place)
I0419 11:34:56.065758 18160 net.cpp:122] Setting up relu2
I0419 11:34:56.065769 18160 net.cpp:129] Top shape: 128 256 27 27 (23887872)
I0419 11:34:56.065773 18160 net.cpp:137] Memory required for data: 752138240
I0419 11:34:56.065776 18160 layer_factory.hpp:77] Creating layer norm2
I0419 11:34:56.065783 18160 net.cpp:84] Creating Layer norm2
I0419 11:34:56.065785 18160 net.cpp:406] norm2 <- conv2
I0419 11:34:56.065791 18160 net.cpp:380] norm2 -> norm2
I0419 11:34:56.066181 18160 net.cpp:122] Setting up norm2
I0419 11:34:56.066190 18160 net.cpp:129] Top shape: 128 256 27 27 (23887872)
I0419 11:34:56.066193 18160 net.cpp:137] Memory required for data: 847689728
I0419 11:34:56.066196 18160 layer_factory.hpp:77] Creating layer pool2
I0419 11:34:56.066205 18160 net.cpp:84] Creating Layer pool2
I0419 11:34:56.066207 18160 net.cpp:406] pool2 <- norm2
I0419 11:34:56.066212 18160 net.cpp:380] pool2 -> pool2
I0419 11:34:56.066239 18160 net.cpp:122] Setting up pool2
I0419 11:34:56.066246 18160 net.cpp:129] Top shape: 128 256 13 13 (5537792)
I0419 11:34:56.066247 18160 net.cpp:137] Memory required for data: 869840896
I0419 11:34:56.066251 18160 layer_factory.hpp:77] Creating layer conv3
I0419 11:34:56.066260 18160 net.cpp:84] Creating Layer conv3
I0419 11:34:56.066263 18160 net.cpp:406] conv3 <- pool2
I0419 11:34:56.066268 18160 net.cpp:380] conv3 -> conv3
I0419 11:34:56.076807 18160 net.cpp:122] Setting up conv3
I0419 11:34:56.076819 18160 net.cpp:129] Top shape: 128 384 13 13 (8306688)
I0419 11:34:56.076823 18160 net.cpp:137] Memory required for data: 903067648
I0419 11:34:56.076831 18160 layer_factory.hpp:77] Creating layer relu3
I0419 11:34:56.076838 18160 net.cpp:84] Creating Layer relu3
I0419 11:34:56.076841 18160 net.cpp:406] relu3 <- conv3
I0419 11:34:56.076846 18160 net.cpp:367] relu3 -> conv3 (in-place)
I0419 11:34:56.077431 18160 net.cpp:122] Setting up relu3
I0419 11:34:56.077440 18160 net.cpp:129] Top shape: 128 384 13 13 (8306688)
I0419 11:34:56.077443 18160 net.cpp:137] Memory required for data: 936294400
I0419 11:34:56.077447 18160 layer_factory.hpp:77] Creating layer conv4
I0419 11:34:56.077456 18160 net.cpp:84] Creating Layer conv4
I0419 11:34:56.077459 18160 net.cpp:406] conv4 <- conv3
I0419 11:34:56.077466 18160 net.cpp:380] conv4 -> conv4
I0419 11:34:56.088917 18160 net.cpp:122] Setting up conv4
I0419 11:34:56.088930 18160 net.cpp:129] Top shape: 128 384 13 13 (8306688)
I0419 11:34:56.088933 18160 net.cpp:137] Memory required for data: 969521152
I0419 11:34:56.088941 18160 layer_factory.hpp:77] Creating layer relu4
I0419 11:34:56.088948 18160 net.cpp:84] Creating Layer relu4
I0419 11:34:56.088969 18160 net.cpp:406] relu4 <- conv4
I0419 11:34:56.088977 18160 net.cpp:367] relu4 -> conv4 (in-place)
I0419 11:34:56.089512 18160 net.cpp:122] Setting up relu4
I0419 11:34:56.089521 18160 net.cpp:129] Top shape: 128 384 13 13 (8306688)
I0419 11:34:56.089524 18160 net.cpp:137] Memory required for data: 1002747904
I0419 11:34:56.089529 18160 layer_factory.hpp:77] Creating layer conv5
I0419 11:34:56.089538 18160 net.cpp:84] Creating Layer conv5
I0419 11:34:56.089541 18160 net.cpp:406] conv5 <- conv4
I0419 11:34:56.089548 18160 net.cpp:380] conv5 -> conv5
I0419 11:34:56.098698 18160 net.cpp:122] Setting up conv5
I0419 11:34:56.098713 18160 net.cpp:129] Top shape: 128 256 13 13 (5537792)
I0419 11:34:56.098716 18160 net.cpp:137] Memory required for data: 1024899072
I0419 11:34:56.098727 18160 layer_factory.hpp:77] Creating layer relu5
I0419 11:34:56.098734 18160 net.cpp:84] Creating Layer relu5
I0419 11:34:56.098737 18160 net.cpp:406] relu5 <- conv5
I0419 11:34:56.098743 18160 net.cpp:367] relu5 -> conv5 (in-place)
I0419 11:34:56.099285 18160 net.cpp:122] Setting up relu5
I0419 11:34:56.099296 18160 net.cpp:129] Top shape: 128 256 13 13 (5537792)
I0419 11:34:56.099299 18160 net.cpp:137] Memory required for data: 1047050240
I0419 11:34:56.099303 18160 layer_factory.hpp:77] Creating layer pool5
I0419 11:34:56.099308 18160 net.cpp:84] Creating Layer pool5
I0419 11:34:56.099311 18160 net.cpp:406] pool5 <- conv5
I0419 11:34:56.099316 18160 net.cpp:380] pool5 -> pool5
I0419 11:34:56.099354 18160 net.cpp:122] Setting up pool5
I0419 11:34:56.099359 18160 net.cpp:129] Top shape: 128 256 6 6 (1179648)
I0419 11:34:56.099362 18160 net.cpp:137] Memory required for data: 1051768832
I0419 11:34:56.099364 18160 layer_factory.hpp:77] Creating layer fc6
I0419 11:34:56.099375 18160 net.cpp:84] Creating Layer fc6
I0419 11:34:56.099377 18160 net.cpp:406] fc6 <- pool5
I0419 11:34:56.099382 18160 net.cpp:380] fc6 -> fc6
I0419 11:34:56.457321 18160 net.cpp:122] Setting up fc6
I0419 11:34:56.457340 18160 net.cpp:129] Top shape: 128 4096 (524288)
I0419 11:34:56.457343 18160 net.cpp:137] Memory required for data: 1053865984
I0419 11:34:56.457352 18160 layer_factory.hpp:77] Creating layer relu6
I0419 11:34:56.457361 18160 net.cpp:84] Creating Layer relu6
I0419 11:34:56.457365 18160 net.cpp:406] relu6 <- fc6
I0419 11:34:56.457372 18160 net.cpp:367] relu6 -> fc6 (in-place)
I0419 11:34:56.458125 18160 net.cpp:122] Setting up relu6
I0419 11:34:56.458134 18160 net.cpp:129] Top shape: 128 4096 (524288)
I0419 11:34:56.458137 18160 net.cpp:137] Memory required for data: 1055963136
I0419 11:34:56.458140 18160 layer_factory.hpp:77] Creating layer drop6
I0419 11:34:56.458148 18160 net.cpp:84] Creating Layer drop6
I0419 11:34:56.458151 18160 net.cpp:406] drop6 <- fc6
I0419 11:34:56.458156 18160 net.cpp:367] drop6 -> fc6 (in-place)
I0419 11:34:56.458184 18160 net.cpp:122] Setting up drop6
I0419 11:34:56.458190 18160 net.cpp:129] Top shape: 128 4096 (524288)
I0419 11:34:56.458192 18160 net.cpp:137] Memory required for data: 1058060288
I0419 11:34:56.458195 18160 layer_factory.hpp:77] Creating layer fc7
I0419 11:34:56.458202 18160 net.cpp:84] Creating Layer fc7
I0419 11:34:56.458204 18160 net.cpp:406] fc7 <- fc6
I0419 11:34:56.458210 18160 net.cpp:380] fc7 -> fc7
I0419 11:34:56.616842 18160 net.cpp:122] Setting up fc7
I0419 11:34:56.616860 18160 net.cpp:129] Top shape: 128 4096 (524288)
I0419 11:34:56.616863 18160 net.cpp:137] Memory required for data: 1060157440
I0419 11:34:56.616873 18160 layer_factory.hpp:77] Creating layer relu7
I0419 11:34:56.616881 18160 net.cpp:84] Creating Layer relu7
I0419 11:34:56.616885 18160 net.cpp:406] relu7 <- fc7
I0419 11:34:56.616892 18160 net.cpp:367] relu7 -> fc7 (in-place)
I0419 11:34:56.617383 18160 net.cpp:122] Setting up relu7
I0419 11:34:56.617393 18160 net.cpp:129] Top shape: 128 4096 (524288)
I0419 11:34:56.617394 18160 net.cpp:137] Memory required for data: 1062254592
I0419 11:34:56.617398 18160 layer_factory.hpp:77] Creating layer drop7
I0419 11:34:56.617404 18160 net.cpp:84] Creating Layer drop7
I0419 11:34:56.617429 18160 net.cpp:406] drop7 <- fc7
I0419 11:34:56.617434 18160 net.cpp:367] drop7 -> fc7 (in-place)
I0419 11:34:56.617458 18160 net.cpp:122] Setting up drop7
I0419 11:34:56.617463 18160 net.cpp:129] Top shape: 128 4096 (524288)
I0419 11:34:56.617466 18160 net.cpp:137] Memory required for data: 1064351744
I0419 11:34:56.617470 18160 layer_factory.hpp:77] Creating layer fc8
I0419 11:34:56.617477 18160 net.cpp:84] Creating Layer fc8
I0419 11:34:56.617480 18160 net.cpp:406] fc8 <- fc7
I0419 11:34:56.617484 18160 net.cpp:380] fc8 -> fc8
I0419 11:34:56.625224 18160 net.cpp:122] Setting up fc8
I0419 11:34:56.625236 18160 net.cpp:129] Top shape: 128 196 (25088)
I0419 11:34:56.625239 18160 net.cpp:137] Memory required for data: 1064452096
I0419 11:34:56.625245 18160 layer_factory.hpp:77] Creating layer loss
I0419 11:34:56.625252 18160 net.cpp:84] Creating Layer loss
I0419 11:34:56.625254 18160 net.cpp:406] loss <- fc8
I0419 11:34:56.625258 18160 net.cpp:406] loss <- label
I0419 11:34:56.625264 18160 net.cpp:380] loss -> loss
I0419 11:34:56.625273 18160 layer_factory.hpp:77] Creating layer loss
…
I0419 11:34:56.626595 18160 net.cpp:294] The NetState phase (1) differed from the phase (0) specified by a rule in layer train-data
I0419 11:34:56.626727 18160 net.cpp:51] Initializing net from parameters:
state {
phase: TEST
}
layer {
name: "val-data"
type: "Data"
top: "data"
top: "label"
include {
phase: TEST
}
transform_param {
crop_size: 227
mean_file: "/mnt/bigdisk/DIGITS-AMB-2/digits/jobs/20210419-113022-f27a/mean.binaryproto"
}
data_param {
source: "/mnt/bigdisk/DIGITS-AMB-2/digits/jobs/20210419-113022-f27a/val_db"
batch_size: 32
backend: LMDB
}
}
layer {
name: "conv1"
type: "Convolution"
bottom: "data"
top: "conv1"
param {
lr_mult: 1
decay_mult: 1
}
param {
lr_mult: 2
decay_mult: 0
}
convolution_param {
num_output: 96
kernel_size: 11
stride: 4
weight_filler {
type: "gaussian"
std: 0.01
}
bias_filler {
type: "constant"
value: 0
}
}
}
layer {
name: "relu1"
type: "ReLU"
bottom: "conv1"
top: "conv1"
}
layer {
name: "norm1"
type: "LRN"
bottom: "conv1"
top: "norm1"
lrn_param {
local_size: 5
alpha: 0.0001
beta: 0.75
}
}
layer {
name: "pool1"
type: "Pooling"
bottom: "norm1"
top: "pool1"
pooling_param {
pool: MAX
kernel_size: 3
stride: 2
}
}
layer {
name: "conv2"
type: "Convolution"
bottom: "pool1"
top: "conv2"
param {
lr_mult: 1
decay_mult: 1
}
param {
lr_mult: 2
decay_mult: 0
}
convolution_param {
num_output: 256
pad: 2
kernel_size: 5
group: 2
weight_filler {
type: "gaussian"
std: 0.01
}
bias_filler {
type: "constant"
value: 0.1
}
}
}
layer {
name: "relu2"
type: "ReLU"
bottom: "conv2"
top: "conv2"
}
layer {
name: "norm2"
type: "LRN"
bottom: "conv2"
top: "norm2"
lrn_param {
local_size: 5
alpha: 0.0001
beta: 0.75
}
}
layer {
name: "pool2"
type: "Pooling"
bottom: "norm2"
top: "pool2"
pooling_param {
pool: MAX
kernel_size: 3
stride: 2
}
}
layer {
name: "conv3"
type: "Convolution"
bottom: "pool2"
top: "conv3"
param {
lr_mult: 1
decay_mult: 1
}
param {
lr_mult: 2
decay_mult: 0
}
convolution_param {
num_output: 384
pad: 1
kernel_size: 3
weight_filler {
type: "gaussian"
std: 0.01
}
bias_filler {
type: "constant"
value: 0
}
}
}
layer {
name: "relu3"
type: "ReLU"
bottom: "conv3"
top: "conv3"
}
layer {
name: "conv4"
type: "Convolution"
bottom: "conv3"
top: "conv4"
param {
lr_mult: 1
decay_mult: 1
}
param {
lr_mult: 2
decay_mult: 0
}
convolution_param {
num_output: 384
pad: 1
kernel_size: 3
group: 2
weight_filler {
type: "gaussian"
std: 0.01
}
bias_filler {
type: "constant"
value: 0.1
}
}
}
layer {
name: "relu4"
type: "ReLU"
bottom: "conv4"
top: "conv4"
}
layer {
name: "conv5"
type: "Convolution"
bottom: "conv4"
top: "conv5"
param {
lr_mult: 1
decay_mult: 1
}
param {
lr_mult: 2
decay_mult: 0
}
convolution_param {
num_output: 256
pad: 1
kernel_size: 3
group: 2
weight_filler {
type: "gaussian"
std: 0.01
}
bias_filler {
type: "constant"
value: 0.1
}
}
}
layer {
name: "relu5"
type: "ReLU"
bottom: "conv5"
top: "conv5"
}
layer {
name: "pool5"
type: "Pooling"
bottom: "conv5"
top: "pool5"
pooling_param {
pool: MAX
kernel_size: 3
stride: 2
}
}
layer {
name: "fc6"
type: "InnerProduct"
bottom: "pool5"
top: "fc6"
param {
lr_mult: 1
decay_mult: 1
}
param {
lr_mult: 2
decay_mult: 0
}
inner_product_param {
num_output: 4096
weight_filler {
type: "gaussian"
std: 0.005
}
bias_filler {
type: "constant"
value: 0.1
}
}
}
layer {
name: "relu6"
type: "ReLU"
bottom: "fc6"
top: "fc6"
}
layer {
name: "drop6"
type: "Dropout"
bottom: "fc6"
top: "fc6"
dropout_param {
dropout_ratio: 0.5
}
}
layer {
name: "fc7"
type: "InnerProduct"
bottom: "fc6"
top: "fc7"
param {
lr_mult: 1
decay_mult: 1
}
param {
lr_mult: 2
decay_mult: 0
}
inner_product_param {
num_output: 4096
weight_filler {
type: "gaussian"
std: 0.005
}
bias_filler {
type: "constant"
value: 0.1
}
}
}
layer {
name: "relu7"
type: "ReLU"
bottom: "fc7"
top: "fc7"
}
layer {
name: "drop7"
type: "Dropout"
bottom: "fc7"
top: "fc7"
dropout_param {
dropout_ratio: 0.5
}
}
layer {
name: "fc8"
type: "InnerProduct"
bottom: "fc7"
top: "fc8"
param {
lr_mult: 1
decay_mult: 1
}
param {
lr_mult: 2
decay_mult: 0
}
inner_product_param {
num_output: 196
weight_filler {
type: "gaussian"
std: 0.01
}
bias_filler {
type: "constant"
value: 0
}
}
}
layer {
name: "accuracy"
type: "Accuracy"
bottom: "fc8"
bottom: "label"
top: "accuracy"
include {
phase: TEST
}
}
layer {
name: "loss"
type: "SoftmaxWithLoss"
bottom: "fc8"
bottom: "label"
top: "loss"
}
I0419 11:34:56.626825 18160 layer_factory.hpp:77] Creating layer val-data
I0419 11:34:56.628942 18160 db_lmdb.cpp:35] Opened lmdb /mnt/bigdisk/DIGITS-AMB-2/digits/jobs/20210419-113022-f27a/val_db
I0419 11:34:56.629566 18160 net.cpp:84] Creating Layer val-data
I0419 11:34:56.629577 18160 net.cpp:380] val-data -> data
I0419 11:34:56.629585 18160 net.cpp:380] val-data -> label
I0419 11:34:56.629591 18160 data_transformer.cpp:25] Loading mean file from: /mnt/bigdisk/DIGITS-AMB-2/digits/jobs/20210419-113022-f27a/mean.binaryproto
I0419 11:34:56.633288 18160 data_layer.cpp:45] output data size: 32,3,227,227
I0419 11:34:56.665585 18160 net.cpp:122] Setting up val-data
I0419 11:34:56.665604 18160 net.cpp:129] Top shape: 32 3 227 227 (4946784)
I0419 11:34:56.665608 18160 net.cpp:129] Top shape: 32 (32)
I0419 11:34:56.665611 18160 net.cpp:137] Memory required for data: 19787264
I0419 11:34:56.665617 18160 layer_factory.hpp:77] Creating layer label_val-data_1_split
I0419 11:34:56.665628 18160 net.cpp:84] Creating Layer label_val-data_1_split
I0419 11:34:56.665632 18160 net.cpp:406] label_val-data_1_split <- label
I0419 11:34:56.665639 18160 net.cpp:380] label_val-data_1_split -> label_val-data_1_split_0
I0419 11:34:56.665648 18160 net.cpp:380] label_val-data_1_split -> label_val-data_1_split_1
I0419 11:34:56.665688 18160 net.cpp:122] Setting up label_val-data_1_split
I0419 11:34:56.665693 18160 net.cpp:129] Top shape: 32 (32)
I0419 11:34:56.665696 18160 net.cpp:129] Top shape: 32 (32)
I0419 11:34:56.665699 18160 net.cpp:137] Memory required for data: 19787520
I0419 11:34:56.665701 18160 layer_factory.hpp:77] Creating layer conv1
I0419 11:34:56.665712 18160 net.cpp:84] Creating Layer conv1
I0419 11:34:56.665715 18160 net.cpp:406] conv1 <- data
I0419 11:34:56.665720 18160 net.cpp:380] conv1 -> conv1
I0419 11:34:56.668785 18160 net.cpp:122] Setting up conv1
I0419 11:34:56.668797 18160 net.cpp:129] Top shape: 32 96 55 55 (9292800)
I0419 11:34:56.668799 18160 net.cpp:137] Memory required for data: 56958720
I0419 11:34:56.668809 18160 layer_factory.hpp:77] Creating layer relu1
I0419 11:34:56.668815 18160 net.cpp:84] Creating Layer relu1
I0419 11:34:56.668818 18160 net.cpp:406] relu1 <- conv1
I0419 11:34:56.668823 18160 net.cpp:367] relu1 -> conv1 (in-place)
I0419 11:34:56.669145 18160 net.cpp:122] Setting up relu1
I0419 11:34:56.669154 18160 net.cpp:129] Top shape: 32 96 55 55 (9292800)
I0419 11:34:56.669157 18160 net.cpp:137] Memory required for data: 94129920
I0419 11:34:56.669160 18160 layer_factory.hpp:77] Creating layer norm1
I0419 11:34:56.669168 18160 net.cpp:84] Creating Layer norm1
I0419 11:34:56.669171 18160 net.cpp:406] norm1 <- conv1
I0419 11:34:56.669176 18160 net.cpp:380] norm1 -> norm1
I0419 11:34:56.669682 18160 net.cpp:122] Setting up norm1
I0419 11:34:56.669692 18160 net.cpp:129] Top shape: 32 96 55 55 (9292800)
I0419 11:34:56.669694 18160 net.cpp:137] Memory required for data: 131301120
I0419 11:34:56.669697 18160 layer_factory.hpp:77] Creating layer pool1
I0419 11:34:56.669704 18160 net.cpp:84] Creating Layer pool1
I0419 11:34:56.669708 18160 net.cpp:406] pool1 <- norm1
I0419 11:34:56.669711 18160 net.cpp:380] pool1 -> pool1
I0419 11:34:56.669739 18160 net.cpp:122] Setting up pool1
I0419 11:34:56.669744 18160 net.cpp:129] Top shape: 32 96 27 27 (2239488)
I0419 11:34:56.669745 18160 net.cpp:137] Memory required for data: 140259072
I0419 11:34:56.669749 18160 layer_factory.hpp:77] Creating layer conv2
I0419 11:34:56.669755 18160 net.cpp:84] Creating Layer conv2
I0419 11:34:56.669759 18160 net.cpp:406] conv2 <- pool1
I0419 11:34:56.669782 18160 net.cpp:380] conv2 -> conv2
I0419 11:34:56.679167 18160 net.cpp:122] Setting up conv2
I0419 11:34:56.679180 18160 net.cpp:129] Top shape: 32 256 27 27 (5971968)
I0419 11:34:56.679183 18160 net.cpp:137] Memory required for data: 164146944
I0419 11:34:56.679193 18160 layer_factory.hpp:77] Creating layer relu2
I0419 11:34:56.679201 18160 net.cpp:84] Creating Layer relu2
I0419 11:34:56.679205 18160 net.cpp:406] relu2 <- conv2
I0419 11:34:56.679210 18160 net.cpp:367] relu2 -> conv2 (in-place)
I0419 11:34:56.679761 18160 net.cpp:122] Setting up relu2
I0419 11:34:56.679770 18160 net.cpp:129] Top shape: 32 256 27 27 (5971968)
I0419 11:34:56.679774 18160 net.cpp:137] Memory required for data: 188034816
I0419 11:34:56.679777 18160 layer_factory.hpp:77] Creating layer norm2
I0419 11:34:56.679786 18160 net.cpp:84] Creating Layer norm2
I0419 11:34:56.679790 18160 net.cpp:406] norm2 <- conv2
I0419 11:34:56.679795 18160 net.cpp:380] norm2 -> norm2
I0419 11:34:56.680562 18160 net.cpp:122] Setting up norm2
I0419 11:34:56.680573 18160 net.cpp:129] Top shape: 32 256 27 27 (5971968)
I0419 11:34:56.680577 18160 net.cpp:137] Memory required for data: 211922688
I0419 11:34:56.680580 18160 layer_factory.hpp:77] Creating layer pool2
I0419 11:34:56.680586 18160 net.cpp:84] Creating Layer pool2
I0419 11:34:56.680590 18160 net.cpp:406] pool2 <- norm2
I0419 11:34:56.680594 18160 net.cpp:380] pool2 -> pool2
I0419 11:34:56.680625 18160 net.cpp:122] Setting up pool2
I0419 11:34:56.680630 18160 net.cpp:129] Top shape: 32 256 13 13 (1384448)
I0419 11:34:56.680634 18160 net.cpp:137] Memory required for data: 217460480
I0419 11:34:56.680636 18160 layer_factory.hpp:77] Creating layer conv3
I0419 11:34:56.680646 18160 net.cpp:84] Creating Layer conv3
I0419 11:34:56.680649 18160 net.cpp:406] conv3 <- pool2
I0419 11:34:56.680655 18160 net.cpp:380] conv3 -> conv3
I0419 11:34:56.692190 18160 net.cpp:122] Setting up conv3
I0419 11:34:56.692209 18160 net.cpp:129] Top shape: 32 384 13 13 (2076672)
I0419 11:34:56.692211 18160 net.cpp:137] Memory required for data: 225767168
I0419 11:34:56.692222 18160 layer_factory.hpp:77] Creating layer relu3
I0419 11:34:56.692231 18160 net.cpp:84] Creating Layer relu3
I0419 11:34:56.692235 18160 net.cpp:406] relu3 <- conv3
I0419 11:34:56.692240 18160 net.cpp:367] relu3 -> conv3 (in-place)
I0419 11:34:56.692811 18160 net.cpp:122] Setting up relu3
I0419 11:34:56.692821 18160 net.cpp:129] Top shape: 32 384 13 13 (2076672)
I0419 11:34:56.692823 18160 net.cpp:137] Memory required for data: 234073856
I0419 11:34:56.692827 18160 layer_factory.hpp:77] Creating layer conv4
I0419 11:34:56.692837 18160 net.cpp:84] Creating Layer conv4
I0419 11:34:56.692840 18160 net.cpp:406] conv4 <- conv3
I0419 11:34:56.692847 18160 net.cpp:380] conv4 -> conv4
I0419 11:34:56.703009 18160 net.cpp:122] Setting up conv4
I0419 11:34:56.703024 18160 net.cpp:129] Top shape: 32 384 13 13 (2076672)
I0419 11:34:56.703027 18160 net.cpp:137] Memory required for data: 242380544
I0419 11:34:56.703034 18160 layer_factory.hpp:77] Creating layer relu4
I0419 11:34:56.703042 18160 net.cpp:84] Creating Layer relu4
I0419 11:34:56.703045 18160 net.cpp:406] relu4 <- conv4
I0419 11:34:56.703052 18160 net.cpp:367] relu4 -> conv4 (in-place)
I0419 11:34:56.703428 18160 net.cpp:122] Setting up relu4
I0419 11:34:56.703436 18160 net.cpp:129] Top shape: 32 384 13 13 (2076672)
I0419 11:34:56.703439 18160 net.cpp:137] Memory required for data: 250687232
I0419 11:34:56.703442 18160 layer_factory.hpp:77] Creating layer conv5
I0419 11:34:56.703452 18160 net.cpp:84] Creating Layer conv5
I0419 11:34:56.703455 18160 net.cpp:406] conv5 <- conv4
I0419 11:34:56.703462 18160 net.cpp:380] conv5 -> conv5
I0419 11:34:56.712901 18160 net.cpp:122] Setting up conv5
I0419 11:34:56.712915 18160 net.cpp:129] Top shape: 32 256 13 13 (1384448)
I0419 11:34:56.712918 18160 net.cpp:137] Memory required for data: 256225024
I0419 11:34:56.712930 18160 layer_factory.hpp:77] Creating layer relu5
I0419 11:34:56.712939 18160 net.cpp:84] Creating Layer relu5
I0419 11:34:56.712942 18160 net.cpp:406] relu5 <- conv5
I0419 11:34:56.712967 18160 net.cpp:367] relu5 -> conv5 (in-place)
I0419 11:34:56.713518 18160 net.cpp:122] Setting up relu5
I0419 11:34:56.713527 18160 net.cpp:129] Top shape: 32 256 13 13 (1384448)
I0419 11:34:56.713531 18160 net.cpp:137] Memory required for data: 261762816
I0419 11:34:56.713534 18160 layer_factory.hpp:77] Creating layer pool5
I0419 11:34:56.713543 18160 net.cpp:84] Creating Layer pool5
I0419 11:34:56.713547 18160 net.cpp:406] pool5 <- conv5
I0419 11:34:56.713552 18160 net.cpp:380] pool5 -> pool5
I0419 11:34:56.713588 18160 net.cpp:122] Setting up pool5
I0419 11:34:56.713593 18160 net.cpp:129] Top shape: 32 256 6 6 (294912)
I0419 11:34:56.713596 18160 net.cpp:137] Memory required for data: 262942464
I0419 11:34:56.713599 18160 layer_factory.hpp:77] Creating layer fc6
I0419 11:34:56.713606 18160 net.cpp:84] Creating Layer fc6
I0419 11:34:56.713609 18160 net.cpp:406] fc6 <- pool5
I0419 11:34:56.713614 18160 net.cpp:380] fc6 -> fc6
I0419 11:34:57.070670 18160 net.cpp:122] Setting up fc6
I0419 11:34:57.070691 18160 net.cpp:129] Top shape: 32 4096 (131072)
I0419 11:34:57.070695 18160 net.cpp:137] Memory required for data: 263466752
I0419 11:34:57.070704 18160 layer_factory.hpp:77] Creating layer relu6
I0419 11:34:57.070713 18160 net.cpp:84] Creating Layer relu6
I0419 11:34:57.070717 18160 net.cpp:406] relu6 <- fc6
I0419 11:34:57.070722 18160 net.cpp:367] relu6 -> fc6 (in-place)
I0419 11:34:57.071480 18160 net.cpp:122] Setting up relu6
I0419 11:34:57.071488 18160 net.cpp:129] Top shape: 32 4096 (131072)
I0419 11:34:57.071491 18160 net.cpp:137] Memory required for data: 263991040
I0419 11:34:57.071496 18160 layer_factory.hpp:77] Creating layer drop6
I0419 11:34:57.071501 18160 net.cpp:84] Creating Layer drop6
I0419 11:34:57.071506 18160 net.cpp:406] drop6 <- fc6
I0419 11:34:57.071511 18160 net.cpp:367] drop6 -> fc6 (in-place)
I0419 11:34:57.071533 18160 net.cpp:122] Setting up drop6
I0419 11:34:57.071538 18160 net.cpp:129] Top shape: 32 4096 (131072)
I0419 11:34:57.071542 18160 net.cpp:137] Memory required for data: 264515328
I0419 11:34:57.071544 18160 layer_factory.hpp:77] Creating layer fc7
I0419 11:34:57.071550 18160 net.cpp:84] Creating Layer fc7
I0419 11:34:57.071553 18160 net.cpp:406] fc7 <- fc6
I0419 11:34:57.071559 18160 net.cpp:380] fc7 -> fc7
I0419 11:34:57.230188 18160 net.cpp:122] Setting up fc7
I0419 11:34:57.230206 18160 net.cpp:129] Top shape: 32 4096 (131072)
I0419 11:34:57.230208 18160 net.cpp:137] Memory required for data: 265039616
I0419 11:34:57.230218 18160 layer_factory.hpp:77] Creating layer relu7
I0419 11:34:57.230227 18160 net.cpp:84] Creating Layer relu7
I0419 11:34:57.230232 18160 net.cpp:406] relu7 <- fc7
I0419 11:34:57.230237 18160 net.cpp:367] relu7 -> fc7 (in-place)
I0419 11:34:57.230737 18160 net.cpp:122] Setting up relu7
I0419 11:34:57.230751 18160 net.cpp:129] Top shape: 32 4096 (131072)
I0419 11:34:57.230754 18160 net.cpp:137] Memory required for data: 265563904
I0419 11:34:57.230757 18160 layer_factory.hpp:77] Creating layer drop7
I0419 11:34:57.230763 18160 net.cpp:84] Creating Layer drop7
I0419 11:34:57.230767 18160 net.cpp:406] drop7 <- fc7
I0419 11:34:57.230772 18160 net.cpp:367] drop7 -> fc7 (in-place)
I0419 11:34:57.230794 18160 net.cpp:122] Setting up drop7
I0419 11:34:57.230799 18160 net.cpp:129] Top shape: 32 4096 (131072)
I0419 11:34:57.230803 18160 net.cpp:137] Memory required for data: 266088192
I0419 11:34:57.230804 18160 layer_factory.hpp:77] Creating layer fc8
I0419 11:34:57.230813 18160 net.cpp:84] Creating Layer fc8
I0419 11:34:57.230815 18160 net.cpp:406] fc8 <- fc7
I0419 11:34:57.230821 18160 net.cpp:380] fc8 -> fc8
I0419 11:34:57.238571 18160 net.cpp:122] Setting up fc8
I0419 11:34:57.238580 18160 net.cpp:129] Top shape: 32 196 (6272)
I0419 11:34:57.238584 18160 net.cpp:137] Memory required for data: 266113280
I0419 11:34:57.238590 18160 layer_factory.hpp:77] Creating layer fc8_fc8_0_split
I0419 11:34:57.238595 18160 net.cpp:84] Creating Layer fc8_fc8_0_split
I0419 11:34:57.238598 18160 net.cpp:406] fc8_fc8_0_split <- fc8
I0419 11:34:57.238621 18160 net.cpp:380] fc8_fc8_0_split -> fc8_fc8_0_split_0
I0419 11:34:57.238628 18160 net.cpp:380] fc8_fc8_0_split -> fc8_fc8_0_split_1
I0419 11:34:57.238656 18160 net.cpp:122] Setting up fc8_fc8_0_split
I0419 11:34:57.238662 18160 net.cpp:129] Top shape: 32 196 (6272)
I0419 11:34:57.238664 18160 net.cpp:129] Top shape: 32 196 (6272)
I0419 11:34:57.238667 18160 net.cpp:137] Memory required for data: 266163456
I0419 11:34:57.238670 18160 layer_factory.hpp:77] Creating layer accuracy
I0419 11:34:57.238675 18160 net.cpp:84] Creating Layer accuracy
I0419 11:34:57.238678 18160 net.cpp:406] accuracy <- fc8_fc8_0_split_0
I0419 11:34:57.238682 18160 net.cpp:406] accuracy <- label_val-data_1_split_0
I0419 11:34:57.238688 18160 net.cpp:380] accuracy -> accuracy
…
