…
I0409 19:55:34.342912 14789 net.cpp:294] The NetState phase (0) differed from the phase (1) specified by a rule in layer accuracy
I0409 19:55:34.343075 14789 net.cpp:51] Initializing net from parameters:
state {
phase: TRAIN
level: 0
stage: ""
}
layer {
name: "train-data"
type: "Data"
top: "data"
top: "label"
include {
phase: TRAIN
}
transform_param {
mirror: true
crop_size: 227
mean_file: "/mnt/bigdisk/DIGITS-MAN-2/digits/jobs/20210407-214532-d396/mean.binaryproto"
}
data_param {
source: "/mnt/bigdisk/DIGITS-MAN-2/digits/jobs/20210407-214532-d396/train_db"
batch_size: 128
backend: LMDB
}
}
layer {
name: "conv1"
type: "Convolution"
bottom: "data"
top: "conv1"
param {
lr_mult: 1
decay_mult: 1
}
param {
lr_mult: 2
decay_mult: 0
}
convolution_param {
num_output: 96
kernel_size: 11
stride: 4
weight_filler {
type: "gaussian"
std: 0.01
}
bias_filler {
type: "constant"
value: 0
}
}
}
layer {
name: "relu1"
type: "ReLU"
bottom: "conv1"
top: "conv1"
}
layer {
name: "norm1"
type: "LRN"
bottom: "conv1"
top: "norm1"
lrn_param {
local_size: 5
alpha: 0.0001
beta: 0.75
}
}
layer {
name: "pool1"
type: "Pooling"
bottom: "norm1"
top: "pool1"
pooling_param {
pool: MAX
kernel_size: 3
stride: 2
}
}
layer {
name: "conv2"
type: "Convolution"
bottom: "pool1"
top: "conv2"
param {
lr_mult: 1
decay_mult: 1
}
param {
lr_mult: 2
decay_mult: 0
}
convolution_param {
num_output: 256
pad: 2
kernel_size: 5
group: 2
weight_filler {
type: "gaussian"
std: 0.01
}
bias_filler {
type: "constant"
value: 0.1
}
}
}
layer {
name: "relu2"
type: "ReLU"
bottom: "conv2"
top: "conv2"
}
layer {
name: "norm2"
type: "LRN"
bottom: "conv2"
top: "norm2"
lrn_param {
local_size: 5
alpha: 0.0001
beta: 0.75
}
}
layer {
name: "pool2"
type: "Pooling"
bottom: "norm2"
top: "pool2"
pooling_param {
pool: MAX
kernel_size: 3
stride: 2
}
}
layer {
name: "conv3"
type: "Convolution"
bottom: "pool2"
top: "conv3"
param {
lr_mult: 1
decay_mult: 1
}
param {
lr_mult: 2
decay_mult: 0
}
convolution_param {
num_output: 384
pad: 1
kernel_size: 3
weight_filler {
type: "gaussian"
std: 0.01
}
bias_filler {
type: "constant"
value: 0
}
}
}
layer {
name: "relu3"
type: "ReLU"
bottom: "conv3"
top: "conv3"
}
layer {
name: "conv4"
type: "Convolution"
bottom: "conv3"
top: "conv4"
param {
lr_mult: 1
decay_mult: 1
}
param {
lr_mult: 2
decay_mult: 0
}
convolution_param {
num_output: 384
pad: 1
kernel_size: 3
group: 2
weight_filler {
type: "gaussian"
std: 0.01
}
bias_filler {
type: "constant"
value: 0.1
}
}
}
layer {
name: "relu4"
type: "ReLU"
bottom: "conv4"
top: "conv4"
}
layer {
name: "conv5"
type: "Convolution"
bottom: "conv4"
top: "conv5"
param {
lr_mult: 1
decay_mult: 1
}
param {
lr_mult: 2
decay_mult: 0
}
convolution_param {
num_output: 256
pad: 1
kernel_size: 3
group: 2
weight_filler {
type: "gaussian"
std: 0.01
}
bias_filler {
type: "constant"
value: 0.1
}
}
}
layer {
name: "relu5"
type: "ReLU"
bottom: "conv5"
top: "conv5"
}
layer {
name: "pool5"
type: "Pooling"
bottom: "conv5"
top: "pool5"
pooling_param {
pool: MAX
kernel_size: 3
stride: 2
}
}
layer {
name: "fc6"
type: "InnerProduct"
bottom: "pool5"
top: "fc6"
param {
lr_mult: 1
decay_mult: 1
}
param {
lr_mult: 2
decay_mult: 0
}
inner_product_param {
num_output: 4096
weight_filler {
type: "gaussian"
std: 0.005
}
bias_filler {
type: "constant"
value: 0.1
}
}
}
layer {
name: "relu6"
type: "ReLU"
bottom: "fc6"
top: "fc6"
}
layer {
name: "drop6"
type: "Dropout"
bottom: "fc6"
top: "fc6"
dropout_param {
dropout_ratio: 0.5
}
}
layer {
name: "fc7"
type: "InnerProduct"
bottom: "fc6"
top: "fc7"
param {
lr_mult: 1
decay_mult: 1
}
param {
lr_mult: 2
decay_mult: 0
}
inner_product_param {
num_output: 4096
weight_filler {
type: "gaussian"
std: 0.005
}
bias_filler {
type: "constant"
value: 0.1
}
}
}
layer {
name: "relu7"
type: "ReLU"
bottom: "fc7"
top: "fc7"
}
layer {
name: "drop7"
type: "Dropout"
bottom: "fc7"
top: "fc7"
dropout_param {
dropout_ratio: 0.5
}
}
layer {
name: "fc7.5"
type: "InnerProduct"
bottom: "fc7"
top: "fc7.5"
param {
lr_mult: 1
decay_mult: 1
}
param {
lr_mult: 2
decay_mult: 0
}
inner_product_param {
num_output: 4096
weight_filler {
type: "gaussian"
std: 0.005
}
bias_filler {
type: "constant"
value: 0.1
}
}
}
layer {
name: "relu7.5"
type: "ReLU"
bottom: "fc7.5"
top: "fc7.5"
}
layer {
name: "drop7.5"
type: "Dropout"
bottom: "fc7.5"
top: "fc7.5"
dropout_param {
dropout_ratio: 0.5
}
}
layer {
name: "fc8"
type: "InnerProduct"
bottom: "fc7.5"
top: "fc8"
param {
lr_mult: 1
decay_mult: 1
}
param {
lr_mult: 2
decay_mult: 0
}
inner_product_param {
num_output: 196
weight_filler {
type: "gaussian"
std: 0.01
}
bias_filler {
type: "constant"
value: 0
}
}
}
layer {
name: "loss"
type: "SoftmaxWithLoss"
bottom: "fc8"
bottom: "label"
top: "loss"
}
I0409 19:55:34.343175 14789 layer_factory.hpp:77] Creating layer train-data
I0409 19:55:34.402631 14789 db_lmdb.cpp:35] Opened lmdb /mnt/bigdisk/DIGITS-MAN-2/digits/jobs/20210407-214532-d396/train_db
I0409 19:55:34.402873 14789 net.cpp:84] Creating Layer train-data
I0409 19:55:34.402904 14789 net.cpp:380] train-data -> data
I0409 19:55:34.402945 14789 net.cpp:380] train-data -> label
I0409 19:55:34.402968 14789 data_transformer.cpp:25] Loading mean file from: /mnt/bigdisk/DIGITS-MAN-2/digits/jobs/20210407-214532-d396/mean.binaryproto
I0409 19:55:34.413990 14789 data_layer.cpp:45] output data size: 128,3,227,227
I0409 19:55:34.604995 14789 net.cpp:122] Setting up train-data
I0409 19:55:34.605020 14789 net.cpp:129] Top shape: 128 3 227 227 (19787136)
I0409 19:55:34.605026 14789 net.cpp:129] Top shape: 128 (128)
I0409 19:55:34.605031 14789 net.cpp:137] Memory required for data: 79149056
I0409 19:55:34.605041 14789 layer_factory.hpp:77] Creating layer conv1
I0409 19:55:34.605067 14789 net.cpp:84] Creating Layer conv1
I0409 19:55:34.605074 14789 net.cpp:406] conv1 <- data
I0409 19:55:34.605088 14789 net.cpp:380] conv1 -> conv1
I0409 19:55:35.195547 14789 net.cpp:122] Setting up conv1
I0409 19:55:35.195574 14789 net.cpp:129] Top shape: 128 96 55 55 (37171200)
I0409 19:55:35.195578 14789 net.cpp:137] Memory required for data: 227833856
I0409 19:55:35.195601 14789 layer_factory.hpp:77] Creating layer relu1
I0409 19:55:35.195636 14789 net.cpp:84] Creating Layer relu1
I0409 19:55:35.195641 14789 net.cpp:406] relu1 <- conv1
I0409 19:55:35.195647 14789 net.cpp:367] relu1 -> conv1 (in-place)
I0409 19:55:35.195973 14789 net.cpp:122] Setting up relu1
I0409 19:55:35.195983 14789 net.cpp:129] Top shape: 128 96 55 55 (37171200)
I0409 19:55:35.195987 14789 net.cpp:137] Memory required for data: 376518656
I0409 19:55:35.195991 14789 layer_factory.hpp:77] Creating layer norm1
I0409 19:55:35.196002 14789 net.cpp:84] Creating Layer norm1
I0409 19:55:35.196007 14789 net.cpp:406] norm1 <- conv1
I0409 19:55:35.196012 14789 net.cpp:380] norm1 -> norm1
I0409 19:55:35.196507 14789 net.cpp:122] Setting up norm1
I0409 19:55:35.196518 14789 net.cpp:129] Top shape: 128 96 55 55 (37171200)
I0409 19:55:35.196522 14789 net.cpp:137] Memory required for data: 525203456
I0409 19:55:35.196527 14789 layer_factory.hpp:77] Creating layer pool1
I0409 19:55:35.196537 14789 net.cpp:84] Creating Layer pool1
I0409 19:55:35.196540 14789 net.cpp:406] pool1 <- norm1
I0409 19:55:35.196547 14789 net.cpp:380] pool1 -> pool1
I0409 19:55:35.196588 14789 net.cpp:122] Setting up pool1
I0409 19:55:35.196594 14789 net.cpp:129] Top shape: 128 96 27 27 (8957952)
I0409 19:55:35.196599 14789 net.cpp:137] Memory required for data: 561035264
I0409 19:55:35.196602 14789 layer_factory.hpp:77] Creating layer conv2
I0409 19:55:35.196614 14789 net.cpp:84] Creating Layer conv2
I0409 19:55:35.196617 14789 net.cpp:406] conv2 <- pool1
I0409 19:55:35.196624 14789 net.cpp:380] conv2 -> conv2
I0409 19:55:35.204030 14789 net.cpp:122] Setting up conv2
I0409 19:55:35.204044 14789 net.cpp:129] Top shape: 128 256 27 27 (23887872)
I0409 19:55:35.204048 14789 net.cpp:137] Memory required for data: 656586752
I0409 19:55:35.204058 14789 layer_factory.hpp:77] Creating layer relu2
I0409 19:55:35.204066 14789 net.cpp:84] Creating Layer relu2
I0409 19:55:35.204071 14789 net.cpp:406] relu2 <- conv2
I0409 19:55:35.204075 14789 net.cpp:367] relu2 -> conv2 (in-place)
I0409 19:55:35.204551 14789 net.cpp:122] Setting up relu2
I0409 19:55:35.204562 14789 net.cpp:129] Top shape: 128 256 27 27 (23887872)
I0409 19:55:35.204566 14789 net.cpp:137] Memory required for data: 752138240
I0409 19:55:35.204571 14789 layer_factory.hpp:77] Creating layer norm2
I0409 19:55:35.204578 14789 net.cpp:84] Creating Layer norm2
I0409 19:55:35.204582 14789 net.cpp:406] norm2 <- conv2
I0409 19:55:35.204588 14789 net.cpp:380] norm2 -> norm2
I0409 19:55:35.204908 14789 net.cpp:122] Setting up norm2
I0409 19:55:35.204917 14789 net.cpp:129] Top shape: 128 256 27 27 (23887872)
I0409 19:55:35.204921 14789 net.cpp:137] Memory required for data: 847689728
I0409 19:55:35.204926 14789 layer_factory.hpp:77] Creating layer pool2
I0409 19:55:35.204933 14789 net.cpp:84] Creating Layer pool2
I0409 19:55:35.204937 14789 net.cpp:406] pool2 <- norm2
I0409 19:55:35.204943 14789 net.cpp:380] pool2 -> pool2
I0409 19:55:35.204973 14789 net.cpp:122] Setting up pool2
I0409 19:55:35.204979 14789 net.cpp:129] Top shape: 128 256 13 13 (5537792)
I0409 19:55:35.204983 14789 net.cpp:137] Memory required for data: 869840896
I0409 19:55:35.204986 14789 layer_factory.hpp:77] Creating layer conv3
I0409 19:55:35.204995 14789 net.cpp:84] Creating Layer conv3
I0409 19:55:35.204999 14789 net.cpp:406] conv3 <- pool2
I0409 19:55:35.205004 14789 net.cpp:380] conv3 -> conv3
I0409 19:55:35.215792 14789 net.cpp:122] Setting up conv3
I0409 19:55:35.215804 14789 net.cpp:129] Top shape: 128 384 13 13 (8306688)
I0409 19:55:35.215808 14789 net.cpp:137] Memory required for data: 903067648
I0409 19:55:35.215818 14789 layer_factory.hpp:77] Creating layer relu3
I0409 19:55:35.215826 14789 net.cpp:84] Creating Layer relu3
I0409 19:55:35.215829 14789 net.cpp:406] relu3 <- conv3
I0409 19:55:35.215835 14789 net.cpp:367] relu3 -> conv3 (in-place)
I0409 19:55:35.216308 14789 net.cpp:122] Setting up relu3
I0409 19:55:35.216320 14789 net.cpp:129] Top shape: 128 384 13 13 (8306688)
I0409 19:55:35.216323 14789 net.cpp:137] Memory required for data: 936294400
I0409 19:55:35.216328 14789 layer_factory.hpp:77] Creating layer conv4
I0409 19:55:35.216356 14789 net.cpp:84] Creating Layer conv4
I0409 19:55:35.216361 14789 net.cpp:406] conv4 <- conv3
I0409 19:55:35.216367 14789 net.cpp:380] conv4 -> conv4
I0409 19:55:35.227380 14789 net.cpp:122] Setting up conv4
I0409 19:55:35.227392 14789 net.cpp:129] Top shape: 128 384 13 13 (8306688)
I0409 19:55:35.227396 14789 net.cpp:137] Memory required for data: 969521152
I0409 19:55:35.227404 14789 layer_factory.hpp:77] Creating layer relu4
I0409 19:55:35.227411 14789 net.cpp:84] Creating Layer relu4
I0409 19:55:35.227416 14789 net.cpp:406] relu4 <- conv4
I0409 19:55:35.227421 14789 net.cpp:367] relu4 -> conv4 (in-place)
I0409 19:55:35.227728 14789 net.cpp:122] Setting up relu4
I0409 19:55:35.227737 14789 net.cpp:129] Top shape: 128 384 13 13 (8306688)
I0409 19:55:35.227741 14789 net.cpp:137] Memory required for data: 1002747904
I0409 19:55:35.227746 14789 layer_factory.hpp:77] Creating layer conv5
I0409 19:55:35.227756 14789 net.cpp:84] Creating Layer conv5
I0409 19:55:35.227759 14789 net.cpp:406] conv5 <- conv4
I0409 19:55:35.227766 14789 net.cpp:380] conv5 -> conv5
I0409 19:55:35.236719 14789 net.cpp:122] Setting up conv5
I0409 19:55:35.236732 14789 net.cpp:129] Top shape: 128 256 13 13 (5537792)
I0409 19:55:35.236737 14789 net.cpp:137] Memory required for data: 1024899072
I0409 19:55:35.236748 14789 layer_factory.hpp:77] Creating layer relu5
I0409 19:55:35.236755 14789 net.cpp:84] Creating Layer relu5
I0409 19:55:35.236759 14789 net.cpp:406] relu5 <- conv5
I0409 19:55:35.236765 14789 net.cpp:367] relu5 -> conv5 (in-place)
I0409 19:55:35.237311 14789 net.cpp:122] Setting up relu5
I0409 19:55:35.237323 14789 net.cpp:129] Top shape: 128 256 13 13 (5537792)
I0409 19:55:35.237326 14789 net.cpp:137] Memory required for data: 1047050240
I0409 19:55:35.237330 14789 layer_factory.hpp:77] Creating layer pool5
I0409 19:55:35.237337 14789 net.cpp:84] Creating Layer pool5
I0409 19:55:35.237342 14789 net.cpp:406] pool5 <- conv5
I0409 19:55:35.237350 14789 net.cpp:380] pool5 -> pool5
I0409 19:55:35.237391 14789 net.cpp:122] Setting up pool5
I0409 19:55:35.237397 14789 net.cpp:129] Top shape: 128 256 6 6 (1179648)
I0409 19:55:35.237401 14789 net.cpp:137] Memory required for data: 1051768832
I0409 19:55:35.237404 14789 layer_factory.hpp:77] Creating layer fc6
I0409 19:55:35.237417 14789 net.cpp:84] Creating Layer fc6
I0409 19:55:35.237421 14789 net.cpp:406] fc6 <- pool5
I0409 19:55:35.237427 14789 net.cpp:380] fc6 -> fc6
I0409 19:55:35.605899 14789 net.cpp:122] Setting up fc6
I0409 19:55:35.605921 14789 net.cpp:129] Top shape: 128 4096 (524288)
I0409 19:55:35.605926 14789 net.cpp:137] Memory required for data: 1053865984
I0409 19:55:35.605934 14789 layer_factory.hpp:77] Creating layer relu6
I0409 19:55:35.605944 14789 net.cpp:84] Creating Layer relu6
I0409 19:55:35.605949 14789 net.cpp:406] relu6 <- fc6
I0409 19:55:35.605962 14789 net.cpp:367] relu6 -> fc6 (in-place)
I0409 19:55:35.606606 14789 net.cpp:122] Setting up relu6
I0409 19:55:35.606617 14789 net.cpp:129] Top shape: 128 4096 (524288)
I0409 19:55:35.606621 14789 net.cpp:137] Memory required for data: 1055963136
I0409 19:55:35.606624 14789 layer_factory.hpp:77] Creating layer drop6
I0409 19:55:35.606631 14789 net.cpp:84] Creating Layer drop6
I0409 19:55:35.606634 14789 net.cpp:406] drop6 <- fc6
I0409 19:55:35.606639 14789 net.cpp:367] drop6 -> fc6 (in-place)
I0409 19:55:35.606667 14789 net.cpp:122] Setting up drop6
I0409 19:55:35.606673 14789 net.cpp:129] Top shape: 128 4096 (524288)
I0409 19:55:35.606676 14789 net.cpp:137] Memory required for data: 1058060288
I0409 19:55:35.606679 14789 layer_factory.hpp:77] Creating layer fc7
I0409 19:55:35.606688 14789 net.cpp:84] Creating Layer fc7
I0409 19:55:35.606691 14789 net.cpp:406] fc7 <- fc6
I0409 19:55:35.606696 14789 net.cpp:380] fc7 -> fc7
I0409 19:55:35.763430 14789 net.cpp:122] Setting up fc7
I0409 19:55:35.763450 14789 net.cpp:129] Top shape: 128 4096 (524288)
I0409 19:55:35.763454 14789 net.cpp:137] Memory required for data: 1060157440
I0409 19:55:35.763463 14789 layer_factory.hpp:77] Creating layer relu7
I0409 19:55:35.763490 14789 net.cpp:84] Creating Layer relu7
I0409 19:55:35.763494 14789 net.cpp:406] relu7 <- fc7
I0409 19:55:35.763501 14789 net.cpp:367] relu7 -> fc7 (in-place)
I0409 19:55:35.764115 14789 net.cpp:122] Setting up relu7
I0409 19:55:35.764124 14789 net.cpp:129] Top shape: 128 4096 (524288)
I0409 19:55:35.764128 14789 net.cpp:137] Memory required for data: 1062254592
I0409 19:55:35.764132 14789 layer_factory.hpp:77] Creating layer drop7
I0409 19:55:35.764138 14789 net.cpp:84] Creating Layer drop7
I0409 19:55:35.764142 14789 net.cpp:406] drop7 <- fc7
I0409 19:55:35.764148 14789 net.cpp:367] drop7 -> fc7 (in-place)
I0409 19:55:35.764171 14789 net.cpp:122] Setting up drop7
I0409 19:55:35.764178 14789 net.cpp:129] Top shape: 128 4096 (524288)
I0409 19:55:35.764180 14789 net.cpp:137] Memory required for data: 1064351744
I0409 19:55:35.764183 14789 layer_factory.hpp:77] Creating layer fc7.5
I0409 19:55:35.764191 14789 net.cpp:84] Creating Layer fc7.5
I0409 19:55:35.764194 14789 net.cpp:406] fc7.5 <- fc7
I0409 19:55:35.764200 14789 net.cpp:380] fc7.5 -> fc7.5
I0409 19:55:35.920796 14789 net.cpp:122] Setting up fc7.5
I0409 19:55:35.920815 14789 net.cpp:129] Top shape: 128 4096 (524288)
I0409 19:55:35.920820 14789 net.cpp:137] Memory required for data: 1066448896
I0409 19:55:35.920830 14789 layer_factory.hpp:77] Creating layer relu7.5
I0409 19:55:35.920838 14789 net.cpp:84] Creating Layer relu7.5
I0409 19:55:35.920843 14789 net.cpp:406] relu7.5 <- fc7.5
I0409 19:55:35.920850 14789 net.cpp:367] relu7.5 -> fc7.5 (in-place)
I0409 19:55:35.921483 14789 net.cpp:122] Setting up relu7.5
I0409 19:55:35.921491 14789 net.cpp:129] Top shape: 128 4096 (524288)
I0409 19:55:35.921495 14789 net.cpp:137] Memory required for data: 1068546048
I0409 19:55:35.921499 14789 layer_factory.hpp:77] Creating layer drop7.5
I0409 19:55:35.921505 14789 net.cpp:84] Creating Layer drop7.5
I0409 19:55:35.921509 14789 net.cpp:406] drop7.5 <- fc7.5
I0409 19:55:35.921515 14789 net.cpp:367] drop7.5 -> fc7.5 (in-place)
I0409 19:55:35.921538 14789 net.cpp:122] Setting up drop7.5
I0409 19:55:35.921545 14789 net.cpp:129] Top shape: 128 4096 (524288)
I0409 19:55:35.921548 14789 net.cpp:137] Memory required for data: 1070643200
I0409 19:55:35.921552 14789 layer_factory.hpp:77] Creating layer fc8
I0409 19:55:35.921558 14789 net.cpp:84] Creating Layer fc8
I0409 19:55:35.921562 14789 net.cpp:406] fc8 <- fc7.5
I0409 19:55:35.921568 14789 net.cpp:380] fc8 -> fc8
I0409 19:55:35.929358 14789 net.cpp:122] Setting up fc8
I0409 19:55:35.929368 14789 net.cpp:129] Top shape: 128 196 (25088)
I0409 19:55:35.929371 14789 net.cpp:137] Memory required for data: 1070743552
I0409 19:55:35.929383 14789 layer_factory.hpp:77] Creating layer loss
I0409 19:55:35.929390 14789 net.cpp:84] Creating Layer loss
I0409 19:55:35.929394 14789 net.cpp:406] loss <- fc8
I0409 19:55:35.929399 14789 net.cpp:406] loss <- label
I0409 19:55:35.929407 14789 net.cpp:380] loss -> loss
I0409 19:55:35.929417 14789 layer_factory.hpp:77] Creating layer loss
…
I0409 19:55:35.930750 14789 net.cpp:294] The NetState phase (1) differed from the phase (0) specified by a rule in layer train-data
I0409 19:55:35.930900 14789 net.cpp:51] Initializing net from parameters:
state {
phase: TEST
}
layer {
name: "val-data"
type: "Data"
top: "data"
top: "label"
include {
phase: TEST
}
transform_param {
crop_size: 227
mean_file: "/mnt/bigdisk/DIGITS-MAN-2/digits/jobs/20210407-214532-d396/mean.binaryproto"
}
data_param {
source: "/mnt/bigdisk/DIGITS-MAN-2/digits/jobs/20210407-214532-d396/val_db"
batch_size: 32
backend: LMDB
}
}
layer {
name: "conv1"
type: "Convolution"
bottom: "data"
top: "conv1"
param {
lr_mult: 1
decay_mult: 1
}
param {
lr_mult: 2
decay_mult: 0
}
convolution_param {
num_output: 96
kernel_size: 11
stride: 4
weight_filler {
type: "gaussian"
std: 0.01
}
bias_filler {
type: "constant"
value: 0
}
}
}
layer {
name: "relu1"
type: "ReLU"
bottom: "conv1"
top: "conv1"
}
layer {
name: "norm1"
type: "LRN"
bottom: "conv1"
top: "norm1"
lrn_param {
local_size: 5
alpha: 0.0001
beta: 0.75
}
}
layer {
name: "pool1"
type: "Pooling"
bottom: "norm1"
top: "pool1"
pooling_param {
pool: MAX
kernel_size: 3
stride: 2
}
}
layer {
name: "conv2"
type: "Convolution"
bottom: "pool1"
top: "conv2"
param {
lr_mult: 1
decay_mult: 1
}
param {
lr_mult: 2
decay_mult: 0
}
convolution_param {
num_output: 256
pad: 2
kernel_size: 5
group: 2
weight_filler {
type: "gaussian"
std: 0.01
}
bias_filler {
type: "constant"
value: 0.1
}
}
}
layer {
name: "relu2"
type: "ReLU"
bottom: "conv2"
top: "conv2"
}
layer {
name: "norm2"
type: "LRN"
bottom: "conv2"
top: "norm2"
lrn_param {
local_size: 5
alpha: 0.0001
beta: 0.75
}
}
layer {
name: "pool2"
type: "Pooling"
bottom: "norm2"
top: "pool2"
pooling_param {
pool: MAX
kernel_size: 3
stride: 2
}
}
layer {
name: "conv3"
type: "Convolution"
bottom: "pool2"
top: "conv3"
param {
lr_mult: 1
decay_mult: 1
}
param {
lr_mult: 2
decay_mult: 0
}
convolution_param {
num_output: 384
pad: 1
kernel_size: 3
weight_filler {
type: "gaussian"
std: 0.01
}
bias_filler {
type: "constant"
value: 0
}
}
}
layer {
name: "relu3"
type: "ReLU"
bottom: "conv3"
top: "conv3"
}
layer {
name: "conv4"
type: "Convolution"
bottom: "conv3"
top: "conv4"
param {
lr_mult: 1
decay_mult: 1
}
param {
lr_mult: 2
decay_mult: 0
}
convolution_param {
num_output: 384
pad: 1
kernel_size: 3
group: 2
weight_filler {
type: "gaussian"
std: 0.01
}
bias_filler {
type: "constant"
value: 0.1
}
}
}
layer {
name: "relu4"
type: "ReLU"
bottom: "conv4"
top: "conv4"
}
layer {
name: "conv5"
type: "Convolution"
bottom: "conv4"
top: "conv5"
param {
lr_mult: 1
decay_mult: 1
}
param {
lr_mult: 2
decay_mult: 0
}
convolution_param {
num_output: 256
pad: 1
kernel_size: 3
group: 2
weight_filler {
type: "gaussian"
std: 0.01
}
bias_filler {
type: "constant"
value: 0.1
}
}
}
layer {
name: "relu5"
type: "ReLU"
bottom: "conv5"
top: "conv5"
}
layer {
name: "pool5"
type: "Pooling"
bottom: "conv5"
top: "pool5"
pooling_param {
pool: MAX
kernel_size: 3
stride: 2
}
}
layer {
name: "fc6"
type: "InnerProduct"
bottom: "pool5"
top: "fc6"
param {
lr_mult: 1
decay_mult: 1
}
param {
lr_mult: 2
decay_mult: 0
}
inner_product_param {
num_output: 4096
weight_filler {
type: "gaussian"
std: 0.005
}
bias_filler {
type: "constant"
value: 0.1
}
}
}
layer {
name: "relu6"
type: "ReLU"
bottom: "fc6"
top: "fc6"
}
layer {
name: "drop6"
type: "Dropout"
bottom: "fc6"
top: "fc6"
dropout_param {
dropout_ratio: 0.5
}
}
layer {
name: "fc7"
type: "InnerProduct"
bottom: "fc6"
top: "fc7"
param {
lr_mult: 1
decay_mult: 1
}
param {
lr_mult: 2
decay_mult: 0
}
inner_product_param {
num_output: 4096
weight_filler {
type: "gaussian"
std: 0.005
}
bias_filler {
type: "constant"
value: 0.1
}
}
}
layer {
name: "relu7"
type: "ReLU"
bottom: "fc7"
top: "fc7"
}
layer {
name: "drop7"
type: "Dropout"
bottom: "fc7"
top: "fc7"
dropout_param {
dropout_ratio: 0.5
}
}
layer {
name: "fc7.5"
type: "InnerProduct"
bottom: "fc7"
top: "fc7.5"
param {
lr_mult: 1
decay_mult: 1
}
param {
lr_mult: 2
decay_mult: 0
}
inner_product_param {
num_output: 4096
weight_filler {
type: "gaussian"
std: 0.005
}
bias_filler {
type: "constant"
value: 0.1
}
}
}
layer {
name: "relu7.5"
type: "ReLU"
bottom: "fc7.5"
top: "fc7.5"
}
layer {
name: "drop7.5"
type: "Dropout"
bottom: "fc7.5"
top: "fc7.5"
dropout_param {
dropout_ratio: 0.5
}
}
layer {
name: "fc8"
type: "InnerProduct"
bottom: "fc7.5"
top: "fc8"
param {
lr_mult: 1
decay_mult: 1
}
param {
lr_mult: 2
decay_mult: 0
}
inner_product_param {
num_output: 196
weight_filler {
type: "gaussian"
std: 0.01
}
bias_filler {
type: "constant"
value: 0
}
}
}
layer {
name: "accuracy"
type: "Accuracy"
bottom: "fc8"
bottom: "label"
top: "accuracy"
include {
phase: TEST
}
}
layer {
name: "loss"
type: "SoftmaxWithLoss"
bottom: "fc8"
bottom: "label"
top: "loss"
}
I0409 19:55:35.930996 14789 layer_factory.hpp:77] Creating layer val-data
I0409 19:55:35.944375 14789 db_lmdb.cpp:35] Opened lmdb /mnt/bigdisk/DIGITS-MAN-2/digits/jobs/20210407-214532-d396/val_db
I0409 19:55:35.944551 14789 net.cpp:84] Creating Layer val-data
I0409 19:55:35.944561 14789 net.cpp:380] val-data -> data
I0409 19:55:35.944569 14789 net.cpp:380] val-data -> label
I0409 19:55:35.944576 14789 data_transformer.cpp:25] Loading mean file from: /mnt/bigdisk/DIGITS-MAN-2/digits/jobs/20210407-214532-d396/mean.binaryproto
I0409 19:55:35.948438 14789 data_layer.cpp:45] output data size: 32,3,227,227
I0409 19:55:35.978394 14789 net.cpp:122] Setting up val-data
I0409 19:55:35.978413 14789 net.cpp:129] Top shape: 32 3 227 227 (4946784)
I0409 19:55:35.978418 14789 net.cpp:129] Top shape: 32 (32)
I0409 19:55:35.978421 14789 net.cpp:137] Memory required for data: 19787264
I0409 19:55:35.978444 14789 layer_factory.hpp:77] Creating layer label_val-data_1_split
I0409 19:55:35.978456 14789 net.cpp:84] Creating Layer label_val-data_1_split
I0409 19:55:35.978461 14789 net.cpp:406] label_val-data_1_split <- label
I0409 19:55:35.978468 14789 net.cpp:380] label_val-data_1_split -> label_val-data_1_split_0
I0409 19:55:35.978477 14789 net.cpp:380] label_val-data_1_split -> label_val-data_1_split_1
I0409 19:55:35.978569 14789 net.cpp:122] Setting up label_val-data_1_split
I0409 19:55:35.978575 14789 net.cpp:129] Top shape: 32 (32)
I0409 19:55:35.978579 14789 net.cpp:129] Top shape: 32 (32)
I0409 19:55:35.978582 14789 net.cpp:137] Memory required for data: 19787520
I0409 19:55:35.978585 14789 layer_factory.hpp:77] Creating layer conv1
I0409 19:55:35.978597 14789 net.cpp:84] Creating Layer conv1
I0409 19:55:35.978601 14789 net.cpp:406] conv1 <- data
I0409 19:55:35.978606 14789 net.cpp:380] conv1 -> conv1
I0409 19:55:35.980556 14789 net.cpp:122] Setting up conv1
I0409 19:55:35.980567 14789 net.cpp:129] Top shape: 32 96 55 55 (9292800)
I0409 19:55:35.980571 14789 net.cpp:137] Memory required for data: 56958720
I0409 19:55:35.980581 14789 layer_factory.hpp:77] Creating layer relu1
I0409 19:55:35.980587 14789 net.cpp:84] Creating Layer relu1
I0409 19:55:35.980592 14789 net.cpp:406] relu1 <- conv1
I0409 19:55:35.980597 14789 net.cpp:367] relu1 -> conv1 (in-place)
I0409 19:55:35.981037 14789 net.cpp:122] Setting up relu1
I0409 19:55:35.981047 14789 net.cpp:129] Top shape: 32 96 55 55 (9292800)
I0409 19:55:35.981050 14789 net.cpp:137] Memory required for data: 94129920
I0409 19:55:35.981055 14789 layer_factory.hpp:77] Creating layer norm1
I0409 19:55:35.981062 14789 net.cpp:84] Creating Layer norm1
I0409 19:55:35.981066 14789 net.cpp:406] norm1 <- conv1
I0409 19:55:35.981072 14789 net.cpp:380] norm1 -> norm1
I0409 19:55:35.982574 14789 net.cpp:122] Setting up norm1
I0409 19:55:35.982584 14789 net.cpp:129] Top shape: 32 96 55 55 (9292800)
I0409 19:55:35.982589 14789 net.cpp:137] Memory required for data: 131301120
I0409 19:55:35.982592 14789 layer_factory.hpp:77] Creating layer pool1
I0409 19:55:35.982599 14789 net.cpp:84] Creating Layer pool1
I0409 19:55:35.982604 14789 net.cpp:406] pool1 <- norm1
I0409 19:55:35.982609 14789 net.cpp:380] pool1 -> pool1
I0409 19:55:35.982637 14789 net.cpp:122] Setting up pool1
I0409 19:55:35.982643 14789 net.cpp:129] Top shape: 32 96 27 27 (2239488)
I0409 19:55:35.982646 14789 net.cpp:137] Memory required for data: 140259072
I0409 19:55:35.982650 14789 layer_factory.hpp:77] Creating layer conv2
I0409 19:55:35.982657 14789 net.cpp:84] Creating Layer conv2
I0409 19:55:35.982661 14789 net.cpp:406] conv2 <- pool1
I0409 19:55:35.982666 14789 net.cpp:380] conv2 -> conv2
I0409 19:55:35.989471 14789 net.cpp:122] Setting up conv2
I0409 19:55:35.989483 14789 net.cpp:129] Top shape: 32 256 27 27 (5971968)
I0409 19:55:35.989487 14789 net.cpp:137] Memory required for data: 164146944
I0409 19:55:35.989497 14789 layer_factory.hpp:77] Creating layer relu2
I0409 19:55:35.989504 14789 net.cpp:84] Creating Layer relu2
I0409 19:55:35.989508 14789 net.cpp:406] relu2 <- conv2
I0409 19:55:35.989513 14789 net.cpp:367] relu2 -> conv2 (in-place)
I0409 19:55:35.990025 14789 net.cpp:122] Setting up relu2
I0409 19:55:35.990034 14789 net.cpp:129] Top shape: 32 256 27 27 (5971968)
I0409 19:55:35.990038 14789 net.cpp:137] Memory required for data: 188034816
I0409 19:55:35.990042 14789 layer_factory.hpp:77] Creating layer norm2
I0409 19:55:35.990051 14789 net.cpp:84] Creating Layer norm2
I0409 19:55:35.990056 14789 net.cpp:406] norm2 <- conv2
I0409 19:55:35.990061 14789 net.cpp:380] norm2 -> norm2
I0409 19:55:35.990422 14789 net.cpp:122] Setting up norm2
I0409 19:55:35.990430 14789 net.cpp:129] Top shape: 32 256 27 27 (5971968)
I0409 19:55:35.990434 14789 net.cpp:137] Memory required for data: 211922688
I0409 19:55:35.990437 14789 layer_factory.hpp:77] Creating layer pool2
I0409 19:55:35.990444 14789 net.cpp:84] Creating Layer pool2
I0409 19:55:35.990448 14789 net.cpp:406] pool2 <- norm2
I0409 19:55:35.990466 14789 net.cpp:380] pool2 -> pool2
I0409 19:55:35.990505 14789 net.cpp:122] Setting up pool2
I0409 19:55:35.990510 14789 net.cpp:129] Top shape: 32 256 13 13 (1384448)
I0409 19:55:35.990514 14789 net.cpp:137] Memory required for data: 217460480
I0409 19:55:35.990517 14789 layer_factory.hpp:77] Creating layer conv3
I0409 19:55:35.990526 14789 net.cpp:84] Creating Layer conv3
I0409 19:55:35.990530 14789 net.cpp:406] conv3 <- pool2
I0409 19:55:35.990536 14789 net.cpp:380] conv3 -> conv3
I0409 19:55:36.001590 14789 net.cpp:122] Setting up conv3
I0409 19:55:36.001603 14789 net.cpp:129] Top shape: 32 384 13 13 (2076672)
I0409 19:55:36.001607 14789 net.cpp:137] Memory required for data: 225767168
I0409 19:55:36.001619 14789 layer_factory.hpp:77] Creating layer relu3
I0409 19:55:36.001626 14789 net.cpp:84] Creating Layer relu3
I0409 19:55:36.001631 14789 net.cpp:406] relu3 <- conv3
I0409 19:55:36.001636 14789 net.cpp:367] relu3 -> conv3 (in-place)
I0409 19:55:36.001999 14789 net.cpp:122] Setting up relu3
I0409 19:55:36.002008 14789 net.cpp:129] Top shape: 32 384 13 13 (2076672)
I0409 19:55:36.002012 14789 net.cpp:137] Memory required for data: 234073856
I0409 19:55:36.002015 14789 layer_factory.hpp:77] Creating layer conv4
I0409 19:55:36.002025 14789 net.cpp:84] Creating Layer conv4
I0409 19:55:36.002029 14789 net.cpp:406] conv4 <- conv3
I0409 19:55:36.002035 14789 net.cpp:380] conv4 -> conv4
I0409 19:55:36.011394 14789 net.cpp:122] Setting up conv4
I0409 19:55:36.011406 14789 net.cpp:129] Top shape: 32 384 13 13 (2076672)
I0409 19:55:36.011410 14789 net.cpp:137] Memory required for data: 242380544
I0409 19:55:36.011416 14789 layer_factory.hpp:77] Creating layer relu4
I0409 19:55:36.011422 14789 net.cpp:84] Creating Layer relu4
I0409 19:55:36.011426 14789 net.cpp:406] relu4 <- conv4
I0409 19:55:36.011432 14789 net.cpp:367] relu4 -> conv4 (in-place)
I0409 19:55:36.011924 14789 net.cpp:122] Setting up relu4
I0409 19:55:36.011932 14789 net.cpp:129] Top shape: 32 384 13 13 (2076672)
I0409 19:55:36.011936 14789 net.cpp:137] Memory required for data: 250687232
I0409 19:55:36.011940 14789 layer_factory.hpp:77] Creating layer conv5
I0409 19:55:36.011950 14789 net.cpp:84] Creating Layer conv5
I0409 19:55:36.011953 14789 net.cpp:406] conv5 <- conv4
I0409 19:55:36.011960 14789 net.cpp:380] conv5 -> conv5
I0409 19:55:36.020454 14789 net.cpp:122] Setting up conv5
I0409 19:55:36.020467 14789 net.cpp:129] Top shape: 32 256 13 13 (1384448)
I0409 19:55:36.020470 14789 net.cpp:137] Memory required for data: 256225024
I0409 19:55:36.020483 14789 layer_factory.hpp:77] Creating layer relu5
I0409 19:55:36.020488 14789 net.cpp:84] Creating Layer relu5
I0409 19:55:36.020493 14789 net.cpp:406] relu5 <- conv5
I0409 19:55:36.020499 14789 net.cpp:367] relu5 -> conv5 (in-place)
I0409 19:55:36.021189 14789 net.cpp:122] Setting up relu5
I0409 19:55:36.021199 14789 net.cpp:129] Top shape: 32 256 13 13 (1384448)
I0409 19:55:36.021203 14789 net.cpp:137] Memory required for data: 261762816
I0409 19:55:36.021206 14789 layer_factory.hpp:77] Creating layer pool5
I0409 19:55:36.021216 14789 net.cpp:84] Creating Layer pool5
I0409 19:55:36.021220 14789 net.cpp:406] pool5 <- conv5
I0409 19:55:36.021226 14789 net.cpp:380] pool5 -> pool5
I0409 19:55:36.021265 14789 net.cpp:122] Setting up pool5
I0409 19:55:36.021270 14789 net.cpp:129] Top shape: 32 256 6 6 (294912)
I0409 19:55:36.021275 14789 net.cpp:137] Memory required for data: 262942464
I0409 19:55:36.021277 14789 layer_factory.hpp:77] Creating layer fc6
I0409 19:55:36.021286 14789 net.cpp:84] Creating Layer fc6
I0409 19:55:36.021289 14789 net.cpp:406] fc6 <- pool5
I0409 19:55:36.021294 14789 net.cpp:380] fc6 -> fc6
I0409 19:55:36.373950 14789 net.cpp:122] Setting up fc6
I0409 19:55:36.373980 14789 net.cpp:129] Top shape: 32 4096 (131072)
I0409 19:55:36.373984 14789 net.cpp:137] Memory required for data: 263466752
I0409 19:55:36.373994 14789 layer_factory.hpp:77] Creating layer relu6
I0409 19:55:36.374003 14789 net.cpp:84] Creating Layer relu6
I0409 19:55:36.374008 14789 net.cpp:406] relu6 <- fc6
I0409 19:55:36.374035 14789 net.cpp:367] relu6 -> fc6 (in-place)
I0409 19:55:36.374460 14789 net.cpp:122] Setting up relu6
I0409 19:55:36.374469 14789 net.cpp:129] Top shape: 32 4096 (131072)
I0409 19:55:36.374473 14789 net.cpp:137] Memory required for data: 263991040
I0409 19:55:36.374477 14789 layer_factory.hpp:77] Creating layer drop6
I0409 19:55:36.374483 14789 net.cpp:84] Creating Layer drop6
I0409 19:55:36.374487 14789 net.cpp:406] drop6 <- fc6
I0409 19:55:36.374493 14789 net.cpp:367] drop6 -> fc6 (in-place)
I0409 19:55:36.374517 14789 net.cpp:122] Setting up drop6
I0409 19:55:36.374522 14789 net.cpp:129] Top shape: 32 4096 (131072)
I0409 19:55:36.374526 14789 net.cpp:137] Memory required for data: 264515328
I0409 19:55:36.374529 14789 layer_factory.hpp:77] Creating layer fc7
I0409 19:55:36.374537 14789 net.cpp:84] Creating Layer fc7
I0409 19:55:36.374541 14789 net.cpp:406] fc7 <- fc6
I0409 19:55:36.374547 14789 net.cpp:380] fc7 -> fc7
I0409 19:55:36.531072 14789 net.cpp:122] Setting up fc7
I0409 19:55:36.531095 14789 net.cpp:129] Top shape: 32 4096 (131072)
I0409 19:55:36.531098 14789 net.cpp:137] Memory required for data: 265039616
I0409 19:55:36.531107 14789 layer_factory.hpp:77] Creating layer relu7
I0409 19:55:36.531116 14789 net.cpp:84] Creating Layer relu7
I0409 19:55:36.531121 14789 net.cpp:406] relu7 <- fc7
I0409 19:55:36.531127 14789 net.cpp:367] relu7 -> fc7 (in-place)
I0409 19:55:36.531798 14789 net.cpp:122] Setting up relu7
I0409 19:55:36.531808 14789 net.cpp:129] Top shape: 32 4096 (131072)
I0409 19:55:36.531811 14789 net.cpp:137] Memory required for data: 265563904
I0409 19:55:36.531816 14789 layer_factory.hpp:77] Creating layer drop7
I0409 19:55:36.531822 14789 net.cpp:84] Creating Layer drop7
I0409 19:55:36.531826 14789 net.cpp:406] drop7 <- fc7
I0409 19:55:36.531832 14789 net.cpp:367] drop7 -> fc7 (in-place)
I0409 19:55:36.531855 14789 net.cpp:122] Setting up drop7
I0409 19:55:36.531862 14789 net.cpp:129] Top shape: 32 4096 (131072)
I0409 19:55:36.531865 14789 net.cpp:137] Memory required for data: 266088192
I0409 19:55:36.531868 14789 layer_factory.hpp:77] Creating layer fc7.5
I0409 19:55:36.531875 14789 net.cpp:84] Creating Layer fc7.5
I0409 19:55:36.531879 14789 net.cpp:406] fc7.5 <- fc7
I0409 19:55:36.531885 14789 net.cpp:380] fc7.5 -> fc7.5
I0409 19:55:36.688879 14789 net.cpp:122] Setting up fc7.5
I0409 19:55:36.688903 14789 net.cpp:129] Top shape: 32 4096 (131072)
I0409 19:55:36.688907 14789 net.cpp:137] Memory required for data: 266612480
I0409 19:55:36.688916 14789 layer_factory.hpp:77] Creating layer relu7.5
I0409 19:55:36.688925 14789 net.cpp:84] Creating Layer relu7.5
I0409 19:55:36.688930 14789 net.cpp:406] relu7.5 <- fc7.5
I0409 19:55:36.688937 14789 net.cpp:367] relu7.5 -> fc7.5 (in-place)
I0409 19:55:36.689599 14789 net.cpp:122] Setting up relu7.5
I0409 19:55:36.689608 14789 net.cpp:129] Top shape: 32 4096 (131072)
I0409 19:55:36.689611 14789 net.cpp:137] Memory required for data: 267136768
I0409 19:55:36.689615 14789 layer_factory.hpp:77] Creating layer drop7.5
I0409 19:55:36.689623 14789 net.cpp:84] Creating Layer drop7.5
I0409 19:55:36.689627 14789 net.cpp:406] drop7.5 <- fc7.5
I0409 19:55:36.689632 14789 net.cpp:367] drop7.5 -> fc7.5 (in-place)
I0409 19:55:36.689657 14789 net.cpp:122] Setting up drop7.5
I0409 19:55:36.689662 14789 net.cpp:129] Top shape: 32 4096 (131072)
I0409 19:55:36.689666 14789 net.cpp:137] Memory required for data: 267661056
I0409 19:55:36.689669 14789 layer_factory.hpp:77] Creating layer fc8
I0409 19:55:36.689677 14789 net.cpp:84] Creating Layer fc8
I0409 19:55:36.689679 14789 net.cpp:406] fc8 <- fc7.5
I0409 19:55:36.689685 14789 net.cpp:380] fc8 -> fc8
I0409 19:55:36.697326 14789 net.cpp:122] Setting up fc8
I0409 19:55:36.697335 14789 net.cpp:129] Top shape: 32 196 (6272)
I0409 19:55:36.697340 14789 net.cpp:137] Memory required for data: 267686144
I0409 19:55:36.697350 14789 layer_factory.hpp:77] Creating layer fc8_fc8_0_split
I0409 19:55:36.697357 14789 net.cpp:84] Creating Layer fc8_fc8_0_split
I0409 19:55:36.697361 14789 net.cpp:406] fc8_fc8_0_split <- fc8
I0409 19:55:36.697384 14789 net.cpp:380] fc8_fc8_0_split -> fc8_fc8_0_split_0
I0409 19:55:36.697391 14789 net.cpp:380] fc8_fc8_0_split -> fc8_fc8_0_split_1
I0409 19:55:36.697423 14789 net.cpp:122] Setting up fc8_fc8_0_split
I0409 19:55:36.697429 14789 net.cpp:129] Top shape: 32 196 (6272)
I0409 19:55:36.697432 14789 net.cpp:129] Top shape: 32 196 (6272)
I0409 19:55:36.697435 14789 net.cpp:137] Memory required for data: 267736320
I0409 19:55:36.697439 14789 layer_factory.hpp:77] Creating layer accuracy
I0409 19:55:36.697445 14789 net.cpp:84] Creating Layer accuracy
I0409 19:55:36.697449 14789 net.cpp:406] accuracy <- fc8_fc8_0_split_0
I0409 19:55:36.697453 14789 net.cpp:406] accuracy <- label_val-data_1_split_0
I0409 19:55:36.697459 14789 net.cpp:380] accuracy -> accuracy
…
