…
I0410 01:41:16.619297 25920 net.cpp:294] The NetState phase (0) differed from the phase (1) specified by a rule in layer accuracy
I0410 01:41:16.619460 25920 net.cpp:51] Initializing net from parameters:
state {
phase: TRAIN
level: 0
stage: ""
}
layer {
name: "train-data"
type: "Data"
top: "data"
top: "label"
include {
phase: TRAIN
}
transform_param {
mirror: true
crop_size: 227
mean_file: "/mnt/bigdisk/DIGITS-MAN-2/digits/jobs/20210407-214532-d396/mean.binaryproto"
}
data_param {
source: "/mnt/bigdisk/DIGITS-MAN-2/digits/jobs/20210407-214532-d396/train_db"
batch_size: 128
backend: LMDB
}
}
layer {
name: "conv1"
type: "Convolution"
bottom: "data"
top: "conv1"
param {
lr_mult: 1
decay_mult: 1
}
param {
lr_mult: 2
decay_mult: 0
}
convolution_param {
num_output: 96
kernel_size: 11
stride: 4
weight_filler {
type: "gaussian"
std: 0.01
}
bias_filler {
type: "constant"
value: 0
}
}
}
layer {
name: "relu1"
type: "ReLU"
bottom: "conv1"
top: "conv1"
}
layer {
name: "norm1"
type: "LRN"
bottom: "conv1"
top: "norm1"
lrn_param {
local_size: 5
alpha: 0.0001
beta: 0.75
}
}
layer {
name: "pool1"
type: "Pooling"
bottom: "norm1"
top: "pool1"
pooling_param {
pool: MAX
kernel_size: 3
stride: 2
}
}
layer {
name: "conv2"
type: "Convolution"
bottom: "pool1"
top: "conv2"
param {
lr_mult: 1
decay_mult: 1
}
param {
lr_mult: 2
decay_mult: 0
}
convolution_param {
num_output: 256
pad: 2
kernel_size: 5
group: 2
weight_filler {
type: "gaussian"
std: 0.01
}
bias_filler {
type: "constant"
value: 0.1
}
}
}
layer {
name: "relu2"
type: "ReLU"
bottom: "conv2"
top: "conv2"
}
layer {
name: "norm2"
type: "LRN"
bottom: "conv2"
top: "norm2"
lrn_param {
local_size: 5
alpha: 0.0001
beta: 0.75
}
}
layer {
name: "pool2"
type: "Pooling"
bottom: "norm2"
top: "pool2"
pooling_param {
pool: MAX
kernel_size: 3
stride: 2
}
}
layer {
name: "conv3"
type: "Convolution"
bottom: "pool2"
top: "conv3"
param {
lr_mult: 1
decay_mult: 1
}
param {
lr_mult: 2
decay_mult: 0
}
convolution_param {
num_output: 384
pad: 1
kernel_size: 3
weight_filler {
type: "gaussian"
std: 0.01
}
bias_filler {
type: "constant"
value: 0
}
}
}
layer {
name: "relu3"
type: "ReLU"
bottom: "conv3"
top: "conv3"
}
layer {
name: "conv4"
type: "Convolution"
bottom: "conv3"
top: "conv4"
param {
lr_mult: 1
decay_mult: 1
}
param {
lr_mult: 2
decay_mult: 0
}
convolution_param {
num_output: 384
pad: 1
kernel_size: 3
group: 2
weight_filler {
type: "gaussian"
std: 0.01
}
bias_filler {
type: "constant"
value: 0.1
}
}
}
layer {
name: "relu4"
type: "ReLU"
bottom: "conv4"
top: "conv4"
}
layer {
name: "conv5"
type: "Convolution"
bottom: "conv4"
top: "conv5"
param {
lr_mult: 1
decay_mult: 1
}
param {
lr_mult: 2
decay_mult: 0
}
convolution_param {
num_output: 256
pad: 1
kernel_size: 3
group: 2
weight_filler {
type: "gaussian"
std: 0.01
}
bias_filler {
type: "constant"
value: 0.1
}
}
}
layer {
name: "relu5"
type: "ReLU"
bottom: "conv5"
top: "conv5"
}
layer {
name: "pool5"
type: "Pooling"
bottom: "conv5"
top: "pool5"
pooling_param {
pool: MAX
kernel_size: 3
stride: 2
}
}
layer {
name: "fc6"
type: "InnerProduct"
bottom: "pool5"
top: "fc6"
param {
lr_mult: 1
decay_mult: 1
}
param {
lr_mult: 2
decay_mult: 0
}
inner_product_param {
num_output: 2048
weight_filler {
type: "gaussian"
std: 0.005
}
bias_filler {
type: "constant"
value: 0.1
}
}
}
layer {
name: "relu6"
type: "ReLU"
bottom: "fc6"
top: "fc6"
}
layer {
name: "drop6"
type: "Dropout"
bottom: "fc6"
top: "fc6"
dropout_param {
dropout_ratio: 0.5
}
}
layer {
name: "fc7"
type: "InnerProduct"
bottom: "fc6"
top: "fc7"
param {
lr_mult: 1
decay_mult: 1
}
param {
lr_mult: 2
decay_mult: 0
}
inner_product_param {
num_output: 2048
weight_filler {
type: "gaussian"
std: 0.005
}
bias_filler {
type: "constant"
value: 0.1
}
}
}
layer {
name: "relu7"
type: "ReLU"
bottom: "fc7"
top: "fc7"
}
layer {
name: "drop7"
type: "Dropout"
bottom: "fc7"
top: "fc7"
dropout_param {
dropout_ratio: 0.5
}
}
layer {
name: "fc7.5"
type: "InnerProduct"
bottom: "fc7"
top: "fc7.5"
param {
lr_mult: 1
decay_mult: 1
}
param {
lr_mult: 2
decay_mult: 0
}
inner_product_param {
num_output: 2048
weight_filler {
type: "gaussian"
std: 0.005
}
bias_filler {
type: "constant"
value: 0.1
}
}
}
layer {
name: "relu7.5"
type: "ReLU"
bottom: "fc7.5"
top: "fc7.5"
}
layer {
name: "drop7.5"
type: "Dropout"
bottom: "fc7.5"
top: "fc7.5"
dropout_param {
dropout_ratio: 0.5
}
}
layer {
name: "fc7.6"
type: "InnerProduct"
bottom: "fc7.5"
top: "fc7.6"
param {
lr_mult: 1
decay_mult: 1
}
param {
lr_mult: 2
decay_mult: 0
}
inner_product_param {
num_output: 2048
weight_filler {
type: "gaussian"
std: 0.005
}
bias_filler {
type: "constant"
value: 0.1
}
}
}
layer {
name: "relu7.6"
type: "ReLU"
bottom: "fc7.6"
top: "fc7.6"
}
layer {
name: "drop7.6"
type: "Dropout"
bottom: "fc7.6"
top: "fc7.6"
dropout_param {
dropout_ratio: 0.5
}
}
layer {
name: "fc8"
type: "InnerProduct"
bottom: "fc7.6"
top: "fc8"
param {
lr_mult: 1
decay_mult: 1
}
param {
lr_mult: 2
decay_mult: 0
}
inner_product_param {
num_output: 196
weight_filler {
type: "gaussian"
std: 0.01
}
bias_filler {
type: "constant"
value: 0
}
}
}
layer {
name: "loss"
type: "SoftmaxWithLoss"
bottom: "fc8"
bottom: "label"
top: "loss"
}
I0410 01:41:16.619558 25920 layer_factory.hpp:77] Creating layer train-data
I0410 01:41:16.621362 25920 db_lmdb.cpp:35] Opened lmdb /mnt/bigdisk/DIGITS-MAN-2/digits/jobs/20210407-214532-d396/train_db
I0410 01:41:16.621568 25920 net.cpp:84] Creating Layer train-data
I0410 01:41:16.621579 25920 net.cpp:380] train-data -> data
I0410 01:41:16.621599 25920 net.cpp:380] train-data -> label
I0410 01:41:16.621611 25920 data_transformer.cpp:25] Loading mean file from: /mnt/bigdisk/DIGITS-MAN-2/digits/jobs/20210407-214532-d396/mean.binaryproto
I0410 01:41:16.626471 25920 data_layer.cpp:45] output data size: 128,3,227,227
I0410 01:41:16.762548 25920 net.cpp:122] Setting up train-data
I0410 01:41:16.762574 25920 net.cpp:129] Top shape: 128 3 227 227 (19787136)
I0410 01:41:16.762580 25920 net.cpp:129] Top shape: 128 (128)
I0410 01:41:16.762583 25920 net.cpp:137] Memory required for data: 79149056
I0410 01:41:16.762612 25920 layer_factory.hpp:77] Creating layer conv1
I0410 01:41:16.762636 25920 net.cpp:84] Creating Layer conv1
I0410 01:41:16.762642 25920 net.cpp:406] conv1 <- data
I0410 01:41:16.762655 25920 net.cpp:380] conv1 -> conv1
I0410 01:41:17.429100 25920 net.cpp:122] Setting up conv1
I0410 01:41:17.429122 25920 net.cpp:129] Top shape: 128 96 55 55 (37171200)
I0410 01:41:17.429127 25920 net.cpp:137] Memory required for data: 227833856
I0410 01:41:17.429150 25920 layer_factory.hpp:77] Creating layer relu1
I0410 01:41:17.429163 25920 net.cpp:84] Creating Layer relu1
I0410 01:41:17.429168 25920 net.cpp:406] relu1 <- conv1
I0410 01:41:17.429177 25920 net.cpp:367] relu1 -> conv1 (in-place)
I0410 01:41:17.429497 25920 net.cpp:122] Setting up relu1
I0410 01:41:17.429508 25920 net.cpp:129] Top shape: 128 96 55 55 (37171200)
I0410 01:41:17.429513 25920 net.cpp:137] Memory required for data: 376518656
I0410 01:41:17.429518 25920 layer_factory.hpp:77] Creating layer norm1
I0410 01:41:17.429531 25920 net.cpp:84] Creating Layer norm1
I0410 01:41:17.429536 25920 net.cpp:406] norm1 <- conv1
I0410 01:41:17.429543 25920 net.cpp:380] norm1 -> norm1
I0410 01:41:17.430040 25920 net.cpp:122] Setting up norm1
I0410 01:41:17.430052 25920 net.cpp:129] Top shape: 128 96 55 55 (37171200)
I0410 01:41:17.430056 25920 net.cpp:137] Memory required for data: 525203456
I0410 01:41:17.430061 25920 layer_factory.hpp:77] Creating layer pool1
I0410 01:41:17.430071 25920 net.cpp:84] Creating Layer pool1
I0410 01:41:17.430075 25920 net.cpp:406] pool1 <- norm1
I0410 01:41:17.430081 25920 net.cpp:380] pool1 -> pool1
I0410 01:41:17.430122 25920 net.cpp:122] Setting up pool1
I0410 01:41:17.430130 25920 net.cpp:129] Top shape: 128 96 27 27 (8957952)
I0410 01:41:17.430133 25920 net.cpp:137] Memory required for data: 561035264
I0410 01:41:17.430137 25920 layer_factory.hpp:77] Creating layer conv2
I0410 01:41:17.430150 25920 net.cpp:84] Creating Layer conv2
I0410 01:41:17.430155 25920 net.cpp:406] conv2 <- pool1
I0410 01:41:17.430162 25920 net.cpp:380] conv2 -> conv2
I0410 01:41:17.437330 25920 net.cpp:122] Setting up conv2
I0410 01:41:17.437345 25920 net.cpp:129] Top shape: 128 256 27 27 (23887872)
I0410 01:41:17.437350 25920 net.cpp:137] Memory required for data: 656586752
I0410 01:41:17.437361 25920 layer_factory.hpp:77] Creating layer relu2
I0410 01:41:17.437368 25920 net.cpp:84] Creating Layer relu2
I0410 01:41:17.437372 25920 net.cpp:406] relu2 <- conv2
I0410 01:41:17.437381 25920 net.cpp:367] relu2 -> conv2 (in-place)
I0410 01:41:17.437901 25920 net.cpp:122] Setting up relu2
I0410 01:41:17.437911 25920 net.cpp:129] Top shape: 128 256 27 27 (23887872)
I0410 01:41:17.437917 25920 net.cpp:137] Memory required for data: 752138240
I0410 01:41:17.437924 25920 layer_factory.hpp:77] Creating layer norm2
I0410 01:41:17.437932 25920 net.cpp:84] Creating Layer norm2
I0410 01:41:17.437937 25920 net.cpp:406] norm2 <- conv2
I0410 01:41:17.437943 25920 net.cpp:380] norm2 -> norm2
I0410 01:41:17.438347 25920 net.cpp:122] Setting up norm2
I0410 01:41:17.438359 25920 net.cpp:129] Top shape: 128 256 27 27 (23887872)
I0410 01:41:17.438362 25920 net.cpp:137] Memory required for data: 847689728
I0410 01:41:17.438367 25920 layer_factory.hpp:77] Creating layer pool2
I0410 01:41:17.438376 25920 net.cpp:84] Creating Layer pool2
I0410 01:41:17.438380 25920 net.cpp:406] pool2 <- norm2
I0410 01:41:17.438388 25920 net.cpp:380] pool2 -> pool2
I0410 01:41:17.438419 25920 net.cpp:122] Setting up pool2
I0410 01:41:17.438426 25920 net.cpp:129] Top shape: 128 256 13 13 (5537792)
I0410 01:41:17.438429 25920 net.cpp:137] Memory required for data: 869840896
I0410 01:41:17.438433 25920 layer_factory.hpp:77] Creating layer conv3
I0410 01:41:17.438446 25920 net.cpp:84] Creating Layer conv3
I0410 01:41:17.438449 25920 net.cpp:406] conv3 <- pool2
I0410 01:41:17.438457 25920 net.cpp:380] conv3 -> conv3
I0410 01:41:17.449296 25920 net.cpp:122] Setting up conv3
I0410 01:41:17.449309 25920 net.cpp:129] Top shape: 128 384 13 13 (8306688)
I0410 01:41:17.449313 25920 net.cpp:137] Memory required for data: 903067648
I0410 01:41:17.449343 25920 layer_factory.hpp:77] Creating layer relu3
I0410 01:41:17.449352 25920 net.cpp:84] Creating Layer relu3
I0410 01:41:17.449357 25920 net.cpp:406] relu3 <- conv3
I0410 01:41:17.449362 25920 net.cpp:367] relu3 -> conv3 (in-place)
I0410 01:41:17.449887 25920 net.cpp:122] Setting up relu3
I0410 01:41:17.449896 25920 net.cpp:129] Top shape: 128 384 13 13 (8306688)
I0410 01:41:17.449900 25920 net.cpp:137] Memory required for data: 936294400
I0410 01:41:17.449904 25920 layer_factory.hpp:77] Creating layer conv4
I0410 01:41:17.449915 25920 net.cpp:84] Creating Layer conv4
I0410 01:41:17.449920 25920 net.cpp:406] conv4 <- conv3
I0410 01:41:17.449928 25920 net.cpp:380] conv4 -> conv4
I0410 01:41:17.463598 25920 net.cpp:122] Setting up conv4
I0410 01:41:17.463613 25920 net.cpp:129] Top shape: 128 384 13 13 (8306688)
I0410 01:41:17.463618 25920 net.cpp:137] Memory required for data: 969521152
I0410 01:41:17.463625 25920 layer_factory.hpp:77] Creating layer relu4
I0410 01:41:17.463632 25920 net.cpp:84] Creating Layer relu4
I0410 01:41:17.463637 25920 net.cpp:406] relu4 <- conv4
I0410 01:41:17.463644 25920 net.cpp:367] relu4 -> conv4 (in-place)
I0410 01:41:17.464012 25920 net.cpp:122] Setting up relu4
I0410 01:41:17.464021 25920 net.cpp:129] Top shape: 128 384 13 13 (8306688)
I0410 01:41:17.464025 25920 net.cpp:137] Memory required for data: 1002747904
I0410 01:41:17.464030 25920 layer_factory.hpp:77] Creating layer conv5
I0410 01:41:17.464040 25920 net.cpp:84] Creating Layer conv5
I0410 01:41:17.464044 25920 net.cpp:406] conv5 <- conv4
I0410 01:41:17.464053 25920 net.cpp:380] conv5 -> conv5
I0410 01:41:17.475076 25920 net.cpp:122] Setting up conv5
I0410 01:41:17.475092 25920 net.cpp:129] Top shape: 128 256 13 13 (5537792)
I0410 01:41:17.475096 25920 net.cpp:137] Memory required for data: 1024899072
I0410 01:41:17.475107 25920 layer_factory.hpp:77] Creating layer relu5
I0410 01:41:17.475116 25920 net.cpp:84] Creating Layer relu5
I0410 01:41:17.475121 25920 net.cpp:406] relu5 <- conv5
I0410 01:41:17.475127 25920 net.cpp:367] relu5 -> conv5 (in-place)
I0410 01:41:17.475642 25920 net.cpp:122] Setting up relu5
I0410 01:41:17.475652 25920 net.cpp:129] Top shape: 128 256 13 13 (5537792)
I0410 01:41:17.475656 25920 net.cpp:137] Memory required for data: 1047050240
I0410 01:41:17.475661 25920 layer_factory.hpp:77] Creating layer pool5
I0410 01:41:17.475670 25920 net.cpp:84] Creating Layer pool5
I0410 01:41:17.475674 25920 net.cpp:406] pool5 <- conv5
I0410 01:41:17.475680 25920 net.cpp:380] pool5 -> pool5
I0410 01:41:17.475721 25920 net.cpp:122] Setting up pool5
I0410 01:41:17.475728 25920 net.cpp:129] Top shape: 128 256 6 6 (1179648)
I0410 01:41:17.475731 25920 net.cpp:137] Memory required for data: 1051768832
I0410 01:41:17.475735 25920 layer_factory.hpp:77] Creating layer fc6
I0410 01:41:17.475745 25920 net.cpp:84] Creating Layer fc6
I0410 01:41:17.475749 25920 net.cpp:406] fc6 <- pool5
I0410 01:41:17.475756 25920 net.cpp:380] fc6 -> fc6
I0410 01:41:17.669117 25920 net.cpp:122] Setting up fc6
I0410 01:41:17.669137 25920 net.cpp:129] Top shape: 128 2048 (262144)
I0410 01:41:17.669142 25920 net.cpp:137] Memory required for data: 1052817408
I0410 01:41:17.669152 25920 layer_factory.hpp:77] Creating layer relu6
I0410 01:41:17.669160 25920 net.cpp:84] Creating Layer relu6
I0410 01:41:17.669165 25920 net.cpp:406] relu6 <- fc6
I0410 01:41:17.669173 25920 net.cpp:367] relu6 -> fc6 (in-place)
I0410 01:41:17.669844 25920 net.cpp:122] Setting up relu6
I0410 01:41:17.669855 25920 net.cpp:129] Top shape: 128 2048 (262144)
I0410 01:41:17.669860 25920 net.cpp:137] Memory required for data: 1053865984
I0410 01:41:17.669864 25920 layer_factory.hpp:77] Creating layer drop6
I0410 01:41:17.669872 25920 net.cpp:84] Creating Layer drop6
I0410 01:41:17.669875 25920 net.cpp:406] drop6 <- fc6
I0410 01:41:17.669883 25920 net.cpp:367] drop6 -> fc6 (in-place)
I0410 01:41:17.669910 25920 net.cpp:122] Setting up drop6
I0410 01:41:17.669917 25920 net.cpp:129] Top shape: 128 2048 (262144)
I0410 01:41:17.669940 25920 net.cpp:137] Memory required for data: 1054914560
I0410 01:41:17.669945 25920 layer_factory.hpp:77] Creating layer fc7
I0410 01:41:17.669973 25920 net.cpp:84] Creating Layer fc7
I0410 01:41:17.669978 25920 net.cpp:406] fc7 <- fc6
I0410 01:41:17.669986 25920 net.cpp:380] fc7 -> fc7
I0410 01:41:17.713100 25920 net.cpp:122] Setting up fc7
I0410 01:41:17.713124 25920 net.cpp:129] Top shape: 128 2048 (262144)
I0410 01:41:17.713127 25920 net.cpp:137] Memory required for data: 1055963136
I0410 01:41:17.713137 25920 layer_factory.hpp:77] Creating layer relu7
I0410 01:41:17.713146 25920 net.cpp:84] Creating Layer relu7
I0410 01:41:17.713151 25920 net.cpp:406] relu7 <- fc7
I0410 01:41:17.713160 25920 net.cpp:367] relu7 -> fc7 (in-place)
I0410 01:41:17.713797 25920 net.cpp:122] Setting up relu7
I0410 01:41:17.713806 25920 net.cpp:129] Top shape: 128 2048 (262144)
I0410 01:41:17.713810 25920 net.cpp:137] Memory required for data: 1057011712
I0410 01:41:17.713815 25920 layer_factory.hpp:77] Creating layer drop7
I0410 01:41:17.713824 25920 net.cpp:84] Creating Layer drop7
I0410 01:41:17.713827 25920 net.cpp:406] drop7 <- fc7
I0410 01:41:17.713832 25920 net.cpp:367] drop7 -> fc7 (in-place)
I0410 01:41:17.713862 25920 net.cpp:122] Setting up drop7
I0410 01:41:17.713868 25920 net.cpp:129] Top shape: 128 2048 (262144)
I0410 01:41:17.713872 25920 net.cpp:137] Memory required for data: 1058060288
I0410 01:41:17.713876 25920 layer_factory.hpp:77] Creating layer fc7.5
I0410 01:41:17.713883 25920 net.cpp:84] Creating Layer fc7.5
I0410 01:41:17.713887 25920 net.cpp:406] fc7.5 <- fc7
I0410 01:41:17.713894 25920 net.cpp:380] fc7.5 -> fc7.5
I0410 01:41:17.756947 25920 net.cpp:122] Setting up fc7.5
I0410 01:41:17.756968 25920 net.cpp:129] Top shape: 128 2048 (262144)
I0410 01:41:17.756973 25920 net.cpp:137] Memory required for data: 1059108864
I0410 01:41:17.756981 25920 layer_factory.hpp:77] Creating layer relu7.5
I0410 01:41:17.756991 25920 net.cpp:84] Creating Layer relu7.5
I0410 01:41:17.756996 25920 net.cpp:406] relu7.5 <- fc7.5
I0410 01:41:17.757004 25920 net.cpp:367] relu7.5 -> fc7.5 (in-place)
I0410 01:41:17.757700 25920 net.cpp:122] Setting up relu7.5
I0410 01:41:17.757711 25920 net.cpp:129] Top shape: 128 2048 (262144)
I0410 01:41:17.757715 25920 net.cpp:137] Memory required for data: 1060157440
I0410 01:41:17.757719 25920 layer_factory.hpp:77] Creating layer drop7.5
I0410 01:41:17.757727 25920 net.cpp:84] Creating Layer drop7.5
I0410 01:41:17.757731 25920 net.cpp:406] drop7.5 <- fc7.5
I0410 01:41:17.757737 25920 net.cpp:367] drop7.5 -> fc7.5 (in-place)
I0410 01:41:17.757763 25920 net.cpp:122] Setting up drop7.5
I0410 01:41:17.757769 25920 net.cpp:129] Top shape: 128 2048 (262144)
I0410 01:41:17.757773 25920 net.cpp:137] Memory required for data: 1061206016
I0410 01:41:17.757777 25920 layer_factory.hpp:77] Creating layer fc7.6
I0410 01:41:17.757786 25920 net.cpp:84] Creating Layer fc7.6
I0410 01:41:17.757789 25920 net.cpp:406] fc7.6 <- fc7.5
I0410 01:41:17.757795 25920 net.cpp:380] fc7.6 -> fc7.6
I0410 01:41:17.800765 25920 net.cpp:122] Setting up fc7.6
I0410 01:41:17.800786 25920 net.cpp:129] Top shape: 128 2048 (262144)
I0410 01:41:17.800791 25920 net.cpp:137] Memory required for data: 1062254592
I0410 01:41:17.800806 25920 layer_factory.hpp:77] Creating layer relu7.6
I0410 01:41:17.800814 25920 net.cpp:84] Creating Layer relu7.6
I0410 01:41:17.800819 25920 net.cpp:406] relu7.6 <- fc7.6
I0410 01:41:17.800827 25920 net.cpp:367] relu7.6 -> fc7.6 (in-place)
I0410 01:41:17.801494 25920 net.cpp:122] Setting up relu7.6
I0410 01:41:17.801504 25920 net.cpp:129] Top shape: 128 2048 (262144)
I0410 01:41:17.801508 25920 net.cpp:137] Memory required for data: 1063303168
I0410 01:41:17.801512 25920 layer_factory.hpp:77] Creating layer drop7.6
I0410 01:41:17.801522 25920 net.cpp:84] Creating Layer drop7.6
I0410 01:41:17.801525 25920 net.cpp:406] drop7.6 <- fc7.6
I0410 01:41:17.801532 25920 net.cpp:367] drop7.6 -> fc7.6 (in-place)
I0410 01:41:17.801558 25920 net.cpp:122] Setting up drop7.6
I0410 01:41:17.801563 25920 net.cpp:129] Top shape: 128 2048 (262144)
I0410 01:41:17.801584 25920 net.cpp:137] Memory required for data: 1064351744
I0410 01:41:17.801589 25920 layer_factory.hpp:77] Creating layer fc8
I0410 01:41:17.801595 25920 net.cpp:84] Creating Layer fc8
I0410 01:41:17.801599 25920 net.cpp:406] fc8 <- fc7.6
I0410 01:41:17.801606 25920 net.cpp:380] fc8 -> fc8
I0410 01:41:17.806046 25920 net.cpp:122] Setting up fc8
I0410 01:41:17.806056 25920 net.cpp:129] Top shape: 128 196 (25088)
I0410 01:41:17.806061 25920 net.cpp:137] Memory required for data: 1064452096
I0410 01:41:17.806066 25920 layer_factory.hpp:77] Creating layer loss
I0410 01:41:17.806074 25920 net.cpp:84] Creating Layer loss
I0410 01:41:17.806079 25920 net.cpp:406] loss <- fc8
I0410 01:41:17.806084 25920 net.cpp:406] loss <- label
I0410 01:41:17.806092 25920 net.cpp:380] loss -> loss
I0410 01:41:17.806102 25920 layer_factory.hpp:77] Creating layer loss
…
I0410 01:41:17.875340 25920 net.cpp:294] The NetState phase (1) differed from the phase (0) specified by a rule in layer train-data
I0410 01:41:17.875761 25920 net.cpp:51] Initializing net from parameters:
state {
phase: TEST
}
layer {
name: "val-data"
type: "Data"
top: "data"
top: "label"
include {
phase: TEST
}
transform_param {
crop_size: 227
mean_file: "/mnt/bigdisk/DIGITS-MAN-2/digits/jobs/20210407-214532-d396/mean.binaryproto"
}
data_param {
source: "/mnt/bigdisk/DIGITS-MAN-2/digits/jobs/20210407-214532-d396/val_db"
batch_size: 32
backend: LMDB
}
}
layer {
name: "conv1"
type: "Convolution"
bottom: "data"
top: "conv1"
param {
lr_mult: 1
decay_mult: 1
}
param {
lr_mult: 2
decay_mult: 0
}
convolution_param {
num_output: 96
kernel_size: 11
stride: 4
weight_filler {
type: "gaussian"
std: 0.01
}
bias_filler {
type: "constant"
value: 0
}
}
}
layer {
name: "relu1"
type: "ReLU"
bottom: "conv1"
top: "conv1"
}
layer {
name: "norm1"
type: "LRN"
bottom: "conv1"
top: "norm1"
lrn_param {
local_size: 5
alpha: 0.0001
beta: 0.75
}
}
layer {
name: "pool1"
type: "Pooling"
bottom: "norm1"
top: "pool1"
pooling_param {
pool: MAX
kernel_size: 3
stride: 2
}
}
layer {
name: "conv2"
type: "Convolution"
bottom: "pool1"
top: "conv2"
param {
lr_mult: 1
decay_mult: 1
}
param {
lr_mult: 2
decay_mult: 0
}
convolution_param {
num_output: 256
pad: 2
kernel_size: 5
group: 2
weight_filler {
type: "gaussian"
std: 0.01
}
bias_filler {
type: "constant"
value: 0.1
}
}
}
layer {
name: "relu2"
type: "ReLU"
bottom: "conv2"
top: "conv2"
}
layer {
name: "norm2"
type: "LRN"
bottom: "conv2"
top: "norm2"
lrn_param {
local_size: 5
alpha: 0.0001
beta: 0.75
}
}
layer {
name: "pool2"
type: "Pooling"
bottom: "norm2"
top: "pool2"
pooling_param {
pool: MAX
kernel_size: 3
stride: 2
}
}
layer {
name: "conv3"
type: "Convolution"
bottom: "pool2"
top: "conv3"
param {
lr_mult: 1
decay_mult: 1
}
param {
lr_mult: 2
decay_mult: 0
}
convolution_param {
num_output: 384
pad: 1
kernel_size: 3
weight_filler {
type: "gaussian"
std: 0.01
}
bias_filler {
type: "constant"
value: 0
}
}
}
layer {
name: "relu3"
type: "ReLU"
bottom: "conv3"
top: "conv3"
}
layer {
name: "conv4"
type: "Convolution"
bottom: "conv3"
top: "conv4"
param {
lr_mult: 1
decay_mult: 1
}
param {
lr_mult: 2
decay_mult: 0
}
convolution_param {
num_output: 384
pad: 1
kernel_size: 3
group: 2
weight_filler {
type: "gaussian"
std: 0.01
}
bias_filler {
type: "constant"
value: 0.1
}
}
}
layer {
name: "relu4"
type: "ReLU"
bottom: "conv4"
top: "conv4"
}
layer {
name: "conv5"
type: "Convolution"
bottom: "conv4"
top: "conv5"
param {
lr_mult: 1
decay_mult: 1
}
param {
lr_mult: 2
decay_mult: 0
}
convolution_param {
num_output: 256
pad: 1
kernel_size: 3
group: 2
weight_filler {
type: "gaussian"
std: 0.01
}
bias_filler {
type: "constant"
value: 0.1
}
}
}
layer {
name: "relu5"
type: "ReLU"
bottom: "conv5"
top: "conv5"
}
layer {
name: "pool5"
type: "Pooling"
bottom: "conv5"
top: "pool5"
pooling_param {
pool: MAX
kernel_size: 3
stride: 2
}
}
layer {
name: "fc6"
type: "InnerProduct"
bottom: "pool5"
top: "fc6"
param {
lr_mult: 1
decay_mult: 1
}
param {
lr_mult: 2
decay_mult: 0
}
inner_product_param {
num_output: 2048
weight_filler {
type: "gaussian"
std: 0.005
}
bias_filler {
type: "constant"
value: 0.1
}
}
}
layer {
name: "relu6"
type: "ReLU"
bottom: "fc6"
top: "fc6"
}
layer {
name: "drop6"
type: "Dropout"
bottom: "fc6"
top: "fc6"
dropout_param {
dropout_ratio: 0.5
}
}
layer {
name: "fc7"
type: "InnerProduct"
bottom: "fc6"
top: "fc7"
param {
lr_mult: 1
decay_mult: 1
}
param {
lr_mult: 2
decay_mult: 0
}
inner_product_param {
num_output: 2048
weight_filler {
type: "gaussian"
std: 0.005
}
bias_filler {
type: "constant"
value: 0.1
}
}
}
layer {
name: "relu7"
type: "ReLU"
bottom: "fc7"
top: "fc7"
}
layer {
name: "drop7"
type: "Dropout"
bottom: "fc7"
top: "fc7"
dropout_param {
dropout_ratio: 0.5
}
}
layer {
name: "fc7.5"
type: "InnerProduct"
bottom: "fc7"
top: "fc7.5"
param {
lr_mult: 1
decay_mult: 1
}
param {
lr_mult: 2
decay_mult: 0
}
inner_product_param {
num_output: 2048
weight_filler {
type: "gaussian"
std: 0.005
}
bias_filler {
type: "constant"
value: 0.1
}
}
}
layer {
name: "relu7.5"
type: "ReLU"
bottom: "fc7.5"
top: "fc7.5"
}
layer {
name: "drop7.5"
type: "Dropout"
bottom: "fc7.5"
top: "fc7.5"
dropout_param {
dropout_ratio: 0.5
}
}
layer {
name: "fc7.6"
type: "InnerProduct"
bottom: "fc7.5"
top: "fc7.6"
param {
lr_mult: 1
decay_mult: 1
}
param {
lr_mult: 2
decay_mult: 0
}
inner_product_param {
num_output: 2048
weight_filler {
type: "gaussian"
std: 0.005
}
bias_filler {
type: "constant"
value: 0.1
}
}
}
layer {
name: "relu7.6"
type: "ReLU"
bottom: "fc7.6"
top: "fc7.6"
}
layer {
name: "drop7.6"
type: "Dropout"
bottom: "fc7.6"
top: "fc7.6"
dropout_param {
dropout_ratio: 0.5
}
}
layer {
name: "fc8"
type: "InnerProduct"
bottom: "fc7.6"
top: "fc8"
param {
lr_mult: 1
decay_mult: 1
}
param {
lr_mult: 2
decay_mult: 0
}
inner_product_param {
num_output: 196
weight_filler {
type: "gaussian"
std: 0.01
}
bias_filler {
type: "constant"
value: 0
}
}
}
layer {
name: "accuracy"
type: "Accuracy"
bottom: "fc8"
bottom: "label"
top: "accuracy"
include {
phase: TEST
}
}
layer {
name: "loss"
type: "SoftmaxWithLoss"
bottom: "fc8"
bottom: "label"
top: "loss"
}
I0410 01:41:17.876035 25920 layer_factory.hpp:77] Creating layer val-data
I0410 01:41:18.103448 25920 db_lmdb.cpp:35] Opened lmdb /mnt/bigdisk/DIGITS-MAN-2/digits/jobs/20210407-214532-d396/val_db
I0410 01:41:18.103982 25920 net.cpp:84] Creating Layer val-data
I0410 01:41:18.104009 25920 net.cpp:380] val-data -> data
I0410 01:41:18.104034 25920 net.cpp:380] val-data -> label
I0410 01:41:18.104051 25920 data_transformer.cpp:25] Loading mean file from: /mnt/bigdisk/DIGITS-MAN-2/digits/jobs/20210407-214532-d396/mean.binaryproto
I0410 01:41:18.151717 25920 data_layer.cpp:45] output data size: 32,3,227,227
I0410 01:41:18.209585 25920 net.cpp:122] Setting up val-data
I0410 01:41:18.209614 25920 net.cpp:129] Top shape: 32 3 227 227 (4946784)
I0410 01:41:18.209622 25920 net.cpp:129] Top shape: 32 (32)
I0410 01:41:18.209628 25920 net.cpp:137] Memory required for data: 19787264
I0410 01:41:18.209637 25920 layer_factory.hpp:77] Creating layer label_val-data_1_split
I0410 01:41:18.209654 25920 net.cpp:84] Creating Layer label_val-data_1_split
I0410 01:41:18.209661 25920 net.cpp:406] label_val-data_1_split <- label
I0410 01:41:18.209671 25920 net.cpp:380] label_val-data_1_split -> label_val-data_1_split_0
I0410 01:41:18.209686 25920 net.cpp:380] label_val-data_1_split -> label_val-data_1_split_1
I0410 01:41:18.209826 25920 net.cpp:122] Setting up label_val-data_1_split
I0410 01:41:18.209836 25920 net.cpp:129] Top shape: 32 (32)
I0410 01:41:18.209843 25920 net.cpp:129] Top shape: 32 (32)
I0410 01:41:18.209848 25920 net.cpp:137] Memory required for data: 19787520
I0410 01:41:18.209853 25920 layer_factory.hpp:77] Creating layer conv1
I0410 01:41:18.209873 25920 net.cpp:84] Creating Layer conv1
I0410 01:41:18.209879 25920 net.cpp:406] conv1 <- data
I0410 01:41:18.209889 25920 net.cpp:380] conv1 -> conv1
I0410 01:41:18.212980 25920 net.cpp:122] Setting up conv1
I0410 01:41:18.212999 25920 net.cpp:129] Top shape: 32 96 55 55 (9292800)
I0410 01:41:18.213006 25920 net.cpp:137] Memory required for data: 56958720
I0410 01:41:18.213021 25920 layer_factory.hpp:77] Creating layer relu1
I0410 01:41:18.213032 25920 net.cpp:84] Creating Layer relu1
I0410 01:41:18.213038 25920 net.cpp:406] relu1 <- conv1
I0410 01:41:18.213073 25920 net.cpp:367] relu1 -> conv1 (in-place)
I0410 01:41:18.215301 25920 net.cpp:122] Setting up relu1
I0410 01:41:18.215319 25920 net.cpp:129] Top shape: 32 96 55 55 (9292800)
I0410 01:41:18.215325 25920 net.cpp:137] Memory required for data: 94129920
I0410 01:41:18.215332 25920 layer_factory.hpp:77] Creating layer norm1
I0410 01:41:18.215345 25920 net.cpp:84] Creating Layer norm1
I0410 01:41:18.215351 25920 net.cpp:406] norm1 <- conv1
I0410 01:41:18.215361 25920 net.cpp:380] norm1 -> norm1
I0410 01:41:18.216141 25920 net.cpp:122] Setting up norm1
I0410 01:41:18.216158 25920 net.cpp:129] Top shape: 32 96 55 55 (9292800)
I0410 01:41:18.216164 25920 net.cpp:137] Memory required for data: 131301120
I0410 01:41:18.216171 25920 layer_factory.hpp:77] Creating layer pool1
I0410 01:41:18.216181 25920 net.cpp:84] Creating Layer pool1
I0410 01:41:18.216187 25920 net.cpp:406] pool1 <- norm1
I0410 01:41:18.216197 25920 net.cpp:380] pool1 -> pool1
I0410 01:41:18.216249 25920 net.cpp:122] Setting up pool1
I0410 01:41:18.216259 25920 net.cpp:129] Top shape: 32 96 27 27 (2239488)
I0410 01:41:18.216264 25920 net.cpp:137] Memory required for data: 140259072
I0410 01:41:18.216269 25920 layer_factory.hpp:77] Creating layer conv2
I0410 01:41:18.216284 25920 net.cpp:84] Creating Layer conv2
I0410 01:41:18.216289 25920 net.cpp:406] conv2 <- pool1
I0410 01:41:18.216298 25920 net.cpp:380] conv2 -> conv2
I0410 01:41:18.227139 25920 net.cpp:122] Setting up conv2
I0410 01:41:18.227159 25920 net.cpp:129] Top shape: 32 256 27 27 (5971968)
I0410 01:41:18.227164 25920 net.cpp:137] Memory required for data: 164146944
I0410 01:41:18.227180 25920 layer_factory.hpp:77] Creating layer relu2
I0410 01:41:18.227193 25920 net.cpp:84] Creating Layer relu2
I0410 01:41:18.227200 25920 net.cpp:406] relu2 <- conv2
I0410 01:41:18.227208 25920 net.cpp:367] relu2 -> conv2 (in-place)
I0410 01:41:18.227807 25920 net.cpp:122] Setting up relu2
I0410 01:41:18.227819 25920 net.cpp:129] Top shape: 32 256 27 27 (5971968)
I0410 01:41:18.227824 25920 net.cpp:137] Memory required for data: 188034816
I0410 01:41:18.227830 25920 layer_factory.hpp:77] Creating layer norm2
I0410 01:41:18.227845 25920 net.cpp:84] Creating Layer norm2
I0410 01:41:18.227851 25920 net.cpp:406] norm2 <- conv2
I0410 01:41:18.227860 25920 net.cpp:380] norm2 -> norm2
I0410 01:41:18.228727 25920 net.cpp:122] Setting up norm2
I0410 01:41:18.228742 25920 net.cpp:129] Top shape: 32 256 27 27 (5971968)
I0410 01:41:18.228749 25920 net.cpp:137] Memory required for data: 211922688
I0410 01:41:18.228755 25920 layer_factory.hpp:77] Creating layer pool2
I0410 01:41:18.228765 25920 net.cpp:84] Creating Layer pool2
I0410 01:41:18.228771 25920 net.cpp:406] pool2 <- norm2
I0410 01:41:18.228781 25920 net.cpp:380] pool2 -> pool2
I0410 01:41:18.228832 25920 net.cpp:122] Setting up pool2
I0410 01:41:18.228842 25920 net.cpp:129] Top shape: 32 256 13 13 (1384448)
I0410 01:41:18.228847 25920 net.cpp:137] Memory required for data: 217460480
I0410 01:41:18.228852 25920 layer_factory.hpp:77] Creating layer conv3
I0410 01:41:18.228869 25920 net.cpp:84] Creating Layer conv3
I0410 01:41:18.228874 25920 net.cpp:406] conv3 <- pool2
I0410 01:41:18.228883 25920 net.cpp:380] conv3 -> conv3
I0410 01:41:18.249855 25920 net.cpp:122] Setting up conv3
I0410 01:41:18.249878 25920 net.cpp:129] Top shape: 32 384 13 13 (2076672)
I0410 01:41:18.249884 25920 net.cpp:137] Memory required for data: 225767168
I0410 01:41:18.249902 25920 layer_factory.hpp:77] Creating layer relu3
I0410 01:41:18.249915 25920 net.cpp:84] Creating Layer relu3
I0410 01:41:18.249922 25920 net.cpp:406] relu3 <- conv3
I0410 01:41:18.249930 25920 net.cpp:367] relu3 -> conv3 (in-place)
I0410 01:41:18.250715 25920 net.cpp:122] Setting up relu3
I0410 01:41:18.250730 25920 net.cpp:129] Top shape: 32 384 13 13 (2076672)
I0410 01:41:18.250735 25920 net.cpp:137] Memory required for data: 234073856
I0410 01:41:18.250741 25920 layer_factory.hpp:77] Creating layer conv4
I0410 01:41:18.250757 25920 net.cpp:84] Creating Layer conv4
I0410 01:41:18.250764 25920 net.cpp:406] conv4 <- conv3
I0410 01:41:18.250795 25920 net.cpp:380] conv4 -> conv4
I0410 01:41:18.264240 25920 net.cpp:122] Setting up conv4
I0410 01:41:18.264258 25920 net.cpp:129] Top shape: 32 384 13 13 (2076672)
I0410 01:41:18.264262 25920 net.cpp:137] Memory required for data: 242380544
I0410 01:41:18.264272 25920 layer_factory.hpp:77] Creating layer relu4
I0410 01:41:18.264283 25920 net.cpp:84] Creating Layer relu4
I0410 01:41:18.264288 25920 net.cpp:406] relu4 <- conv4
I0410 01:41:18.264295 25920 net.cpp:367] relu4 -> conv4 (in-place)
I0410 01:41:18.266108 25920 net.cpp:122] Setting up relu4
I0410 01:41:18.266120 25920 net.cpp:129] Top shape: 32 384 13 13 (2076672)
I0410 01:41:18.266125 25920 net.cpp:137] Memory required for data: 250687232
I0410 01:41:18.266130 25920 layer_factory.hpp:77] Creating layer conv5
I0410 01:41:18.266144 25920 net.cpp:84] Creating Layer conv5
I0410 01:41:18.266149 25920 net.cpp:406] conv5 <- conv4
I0410 01:41:18.266158 25920 net.cpp:380] conv5 -> conv5
I0410 01:41:18.277709 25920 net.cpp:122] Setting up conv5
I0410 01:41:18.277727 25920 net.cpp:129] Top shape: 32 256 13 13 (1384448)
I0410 01:41:18.277731 25920 net.cpp:137] Memory required for data: 256225024
I0410 01:41:18.277745 25920 layer_factory.hpp:77] Creating layer relu5
I0410 01:41:18.277755 25920 net.cpp:84] Creating Layer relu5
I0410 01:41:18.277760 25920 net.cpp:406] relu5 <- conv5
I0410 01:41:18.277768 25920 net.cpp:367] relu5 -> conv5 (in-place)
I0410 01:41:18.278223 25920 net.cpp:122] Setting up relu5
I0410 01:41:18.278234 25920 net.cpp:129] Top shape: 32 256 13 13 (1384448)
I0410 01:41:18.278237 25920 net.cpp:137] Memory required for data: 261762816
I0410 01:41:18.278242 25920 layer_factory.hpp:77] Creating layer pool5
I0410 01:41:18.278254 25920 net.cpp:84] Creating Layer pool5
I0410 01:41:18.278259 25920 net.cpp:406] pool5 <- conv5
I0410 01:41:18.278266 25920 net.cpp:380] pool5 -> pool5
I0410 01:41:18.278312 25920 net.cpp:122] Setting up pool5
I0410 01:41:18.278319 25920 net.cpp:129] Top shape: 32 256 6 6 (294912)
I0410 01:41:18.278324 25920 net.cpp:137] Memory required for data: 262942464
I0410 01:41:18.278329 25920 layer_factory.hpp:77] Creating layer fc6
I0410 01:41:18.278338 25920 net.cpp:84] Creating Layer fc6
I0410 01:41:18.278343 25920 net.cpp:406] fc6 <- pool5
I0410 01:41:18.278350 25920 net.cpp:380] fc6 -> fc6
I0410 01:41:18.474421 25920 net.cpp:122] Setting up fc6
I0410 01:41:18.474442 25920 net.cpp:129] Top shape: 32 2048 (65536)
I0410 01:41:18.474447 25920 net.cpp:137] Memory required for data: 263204608
I0410 01:41:18.474455 25920 layer_factory.hpp:77] Creating layer relu6
I0410 01:41:18.474467 25920 net.cpp:84] Creating Layer relu6
I0410 01:41:18.474470 25920 net.cpp:406] relu6 <- fc6
I0410 01:41:18.474478 25920 net.cpp:367] relu6 -> fc6 (in-place)
I0410 01:41:18.475145 25920 net.cpp:122] Setting up relu6
I0410 01:41:18.475154 25920 net.cpp:129] Top shape: 32 2048 (65536)
I0410 01:41:18.475158 25920 net.cpp:137] Memory required for data: 263466752
I0410 01:41:18.475162 25920 layer_factory.hpp:77] Creating layer drop6
I0410 01:41:18.475172 25920 net.cpp:84] Creating Layer drop6
I0410 01:41:18.475175 25920 net.cpp:406] drop6 <- fc6
I0410 01:41:18.475183 25920 net.cpp:367] drop6 -> fc6 (in-place)
I0410 01:41:18.475208 25920 net.cpp:122] Setting up drop6
I0410 01:41:18.475212 25920 net.cpp:129] Top shape: 32 2048 (65536)
I0410 01:41:18.475216 25920 net.cpp:137] Memory required for data: 263728896
I0410 01:41:18.475219 25920 layer_factory.hpp:77] Creating layer fc7
I0410 01:41:18.475229 25920 net.cpp:84] Creating Layer fc7
I0410 01:41:18.475232 25920 net.cpp:406] fc7 <- fc6
I0410 01:41:18.475239 25920 net.cpp:380] fc7 -> fc7
I0410 01:41:18.518512 25920 net.cpp:122] Setting up fc7
I0410 01:41:18.518533 25920 net.cpp:129] Top shape: 32 2048 (65536)
I0410 01:41:18.518537 25920 net.cpp:137] Memory required for data: 263991040
I0410 01:41:18.518546 25920 layer_factory.hpp:77] Creating layer relu7
I0410 01:41:18.518555 25920 net.cpp:84] Creating Layer relu7
I0410 01:41:18.518560 25920 net.cpp:406] relu7 <- fc7
I0410 01:41:18.518585 25920 net.cpp:367] relu7 -> fc7 (in-place)
I0410 01:41:18.522886 25920 net.cpp:122] Setting up relu7
I0410 01:41:18.522898 25920 net.cpp:129] Top shape: 32 2048 (65536)
I0410 01:41:18.522902 25920 net.cpp:137] Memory required for data: 264253184
I0410 01:41:18.522908 25920 layer_factory.hpp:77] Creating layer drop7
I0410 01:41:18.522915 25920 net.cpp:84] Creating Layer drop7
I0410 01:41:18.522919 25920 net.cpp:406] drop7 <- fc7
I0410 01:41:18.522924 25920 net.cpp:367] drop7 -> fc7 (in-place)
I0410 01:41:18.522953 25920 net.cpp:122] Setting up drop7
I0410 01:41:18.522958 25920 net.cpp:129] Top shape: 32 2048 (65536)
I0410 01:41:18.522961 25920 net.cpp:137] Memory required for data: 264515328
I0410 01:41:18.522965 25920 layer_factory.hpp:77] Creating layer fc7.5
I0410 01:41:18.522974 25920 net.cpp:84] Creating Layer fc7.5
I0410 01:41:18.522977 25920 net.cpp:406] fc7.5 <- fc7
I0410 01:41:18.522982 25920 net.cpp:380] fc7.5 -> fc7.5
I0410 01:41:18.566023 25920 net.cpp:122] Setting up fc7.5
I0410 01:41:18.566042 25920 net.cpp:129] Top shape: 32 2048 (65536)
I0410 01:41:18.566046 25920 net.cpp:137] Memory required for data: 264777472
I0410 01:41:18.566056 25920 layer_factory.hpp:77] Creating layer relu7.5
I0410 01:41:18.566066 25920 net.cpp:84] Creating Layer relu7.5
I0410 01:41:18.566071 25920 net.cpp:406] relu7.5 <- fc7.5
I0410 01:41:18.566079 25920 net.cpp:367] relu7.5 -> fc7.5 (in-place)
I0410 01:41:18.567873 25920 net.cpp:122] Setting up relu7.5
I0410 01:41:18.567885 25920 net.cpp:129] Top shape: 32 2048 (65536)
I0410 01:41:18.567889 25920 net.cpp:137] Memory required for data: 265039616
I0410 01:41:18.567893 25920 layer_factory.hpp:77] Creating layer drop7.5
I0410 01:41:18.567903 25920 net.cpp:84] Creating Layer drop7.5
I0410 01:41:18.567907 25920 net.cpp:406] drop7.5 <- fc7.5
I0410 01:41:18.567914 25920 net.cpp:367] drop7.5 -> fc7.5 (in-place)
I0410 01:41:18.567941 25920 net.cpp:122] Setting up drop7.5
I0410 01:41:18.567947 25920 net.cpp:129] Top shape: 32 2048 (65536)
I0410 01:41:18.567950 25920 net.cpp:137] Memory required for data: 265301760
I0410 01:41:18.567955 25920 layer_factory.hpp:77] Creating layer fc7.6
I0410 01:41:18.567961 25920 net.cpp:84] Creating Layer fc7.6
I0410 01:41:18.567965 25920 net.cpp:406] fc7.6 <- fc7.5
I0410 01:41:18.567972 25920 net.cpp:380] fc7.6 -> fc7.6
I0410 01:41:18.611063 25920 net.cpp:122] Setting up fc7.6
I0410 01:41:18.611083 25920 net.cpp:129] Top shape: 32 2048 (65536)
I0410 01:41:18.611086 25920 net.cpp:137] Memory required for data: 265563904
I0410 01:41:18.611100 25920 layer_factory.hpp:77] Creating layer relu7.6
I0410 01:41:18.611111 25920 net.cpp:84] Creating Layer relu7.6
I0410 01:41:18.611115 25920 net.cpp:406] relu7.6 <- fc7.6
I0410 01:41:18.611124 25920 net.cpp:367] relu7.6 -> fc7.6 (in-place)
I0410 01:41:18.611573 25920 net.cpp:122] Setting up relu7.6
I0410 01:41:18.611582 25920 net.cpp:129] Top shape: 32 2048 (65536)
I0410 01:41:18.611584 25920 net.cpp:137] Memory required for data: 265826048
I0410 01:41:18.611588 25920 layer_factory.hpp:77] Creating layer drop7.6
I0410 01:41:18.611595 25920 net.cpp:84] Creating Layer drop7.6
I0410 01:41:18.611599 25920 net.cpp:406] drop7.6 <- fc7.6
I0410 01:41:18.611606 25920 net.cpp:367] drop7.6 -> fc7.6 (in-place)
I0410 01:41:18.611631 25920 net.cpp:122] Setting up drop7.6
I0410 01:41:18.611636 25920 net.cpp:129] Top shape: 32 2048 (65536)
I0410 01:41:18.611639 25920 net.cpp:137] Memory required for data: 266088192
I0410 01:41:18.611644 25920 layer_factory.hpp:77] Creating layer fc8
I0410 01:41:18.611652 25920 net.cpp:84] Creating Layer fc8
I0410 01:41:18.611655 25920 net.cpp:406] fc8 <- fc7.6
I0410 01:41:18.611663 25920 net.cpp:380] fc8 -> fc8
I0410 01:41:18.616133 25920 net.cpp:122] Setting up fc8
I0410 01:41:18.616143 25920 net.cpp:129] Top shape: 32 196 (6272)
I0410 01:41:18.616147 25920 net.cpp:137] Memory required for data: 266113280
I0410 01:41:18.616154 25920 layer_factory.hpp:77] Creating layer fc8_fc8_0_split
I0410 01:41:18.616163 25920 net.cpp:84] Creating Layer fc8_fc8_0_split
I0410 01:41:18.616166 25920 net.cpp:406] fc8_fc8_0_split <- fc8
I0410 01:41:18.616191 25920 net.cpp:380] fc8_fc8_0_split -> fc8_fc8_0_split_0
I0410 01:41:18.616199 25920 net.cpp:380] fc8_fc8_0_split -> fc8_fc8_0_split_1
I0410 01:41:18.616237 25920 net.cpp:122] Setting up fc8_fc8_0_split
I0410 01:41:18.616243 25920 net.cpp:129] Top shape: 32 196 (6272)
I0410 01:41:18.616248 25920 net.cpp:129] Top shape: 32 196 (6272)
I0410 01:41:18.616251 25920 net.cpp:137] Memory required for data: 266163456
I0410 01:41:18.616255 25920 layer_factory.hpp:77] Creating layer accuracy
I0410 01:41:18.616262 25920 net.cpp:84] Creating Layer accuracy
I0410 01:41:18.616266 25920 net.cpp:406] accuracy <- fc8_fc8_0_split_0
I0410 01:41:18.616271 25920 net.cpp:406] accuracy <- label_val-data_1_split_0
I0410 01:41:18.616276 25920 net.cpp:380] accuracy -> accuracy
…
