…
I0423 08:55:12.662590 31767 net.cpp:294] The NetState phase (0) differed from the phase (1) specified by a rule in layer accuracy
I0423 08:55:12.662735 31767 net.cpp:51] Initializing net from parameters:
state {
phase: TRAIN
level: 0
stage: ""
}
layer {
name: "train-data"
type: "Data"
top: "data"
top: "label"
include {
phase: TRAIN
}
transform_param {
mirror: true
crop_size: 227
mean_file: "/mnt/bigdisk/DIGITS-MAN-3/digits/jobs/20210421-230320-902c/mean.binaryproto"
}
data_param {
source: "/mnt/bigdisk/DIGITS-MAN-3/digits/jobs/20210421-230320-902c/train_db"
batch_size: 128
backend: LMDB
}
}
layer {
name: "conv1"
type: "Convolution"
bottom: "data"
top: "conv1"
param {
lr_mult: 1
decay_mult: 1
}
param {
lr_mult: 2
decay_mult: 0
}
convolution_param {
num_output: 96
kernel_size: 11
stride: 4
weight_filler {
type: "gaussian"
std: 0.01
}
bias_filler {
type: "constant"
value: 0
}
}
}
layer {
name: "relu1"
type: "ReLU"
bottom: "conv1"
top: "conv1"
}
layer {
name: "norm1"
type: "LRN"
bottom: "conv1"
top: "norm1"
lrn_param {
local_size: 5
alpha: 0.0001
beta: 0.75
}
}
layer {
name: "pool1"
type: "Pooling"
bottom: "norm1"
top: "pool1"
pooling_param {
pool: MAX
kernel_size: 3
stride: 2
}
}
layer {
name: "conv2"
type: "Convolution"
bottom: "pool1"
top: "conv2"
param {
lr_mult: 1
decay_mult: 1
}
param {
lr_mult: 2
decay_mult: 0
}
convolution_param {
num_output: 256
pad: 2
kernel_size: 11
group: 2
weight_filler {
type: "gaussian"
std: 0.01
}
bias_filler {
type: "constant"
value: 0.1
}
}
}
layer {
name: "relu2"
type: "ReLU"
bottom: "conv2"
top: "conv2"
}
layer {
name: "norm2"
type: "LRN"
bottom: "conv2"
top: "norm2"
lrn_param {
local_size: 5
alpha: 0.0001
beta: 0.75
}
}
layer {
name: "pool2"
type: "Pooling"
bottom: "norm2"
top: "pool2"
pooling_param {
pool: MAX
kernel_size: 3
stride: 2
}
}
layer {
name: "conv3"
type: "Convolution"
bottom: "pool2"
top: "conv3"
param {
lr_mult: 1
decay_mult: 1
}
param {
lr_mult: 2
decay_mult: 0
}
convolution_param {
num_output: 384
pad: 1
kernel_size: 3
weight_filler {
type: "gaussian"
std: 0.01
}
bias_filler {
type: "constant"
value: 0
}
}
}
layer {
name: "relu3"
type: "ReLU"
bottom: "conv3"
top: "conv3"
}
layer {
name: "conv4"
type: "Convolution"
bottom: "conv3"
top: "conv4"
param {
lr_mult: 1
decay_mult: 1
}
param {
lr_mult: 2
decay_mult: 0
}
convolution_param {
num_output: 384
pad: 1
kernel_size: 3
group: 2
weight_filler {
type: "gaussian"
std: 0.01
}
bias_filler {
type: "constant"
value: 0.1
}
}
}
layer {
name: "relu4"
type: "ReLU"
bottom: "conv4"
top: "conv4"
}
layer {
name: "conv5"
type: "Convolution"
bottom: "conv4"
top: "conv5"
param {
lr_mult: 1
decay_mult: 1
}
param {
lr_mult: 2
decay_mult: 0
}
convolution_param {
num_output: 256
pad: 1
kernel_size: 3
group: 2
weight_filler {
type: "gaussian"
std: 0.01
}
bias_filler {
type: "constant"
value: 0.1
}
}
}
layer {
name: "relu5"
type: "ReLU"
bottom: "conv5"
top: "conv5"
}
layer {
name: "pool5"
type: "Pooling"
bottom: "conv5"
top: "pool5"
pooling_param {
pool: MAX
kernel_size: 3
stride: 2
}
}
layer {
name: "fc6"
type: "InnerProduct"
bottom: "pool5"
top: "fc6"
param {
lr_mult: 1
decay_mult: 1
}
param {
lr_mult: 2
decay_mult: 0
}
inner_product_param {
num_output: 4096
weight_filler {
type: "gaussian"
std: 0.005
}
bias_filler {
type: "constant"
value: 0.1
}
}
}
layer {
name: "relu6"
type: "ReLU"
bottom: "fc6"
top: "fc6"
}
layer {
name: "drop6"
type: "Dropout"
bottom: "fc6"
top: "fc6"
dropout_param {
dropout_ratio: 0.5
}
}
layer {
name: "fc7"
type: "InnerProduct"
bottom: "fc6"
top: "fc7"
param {
lr_mult: 1
decay_mult: 1
}
param {
lr_mult: 2
decay_mult: 0
}
inner_product_param {
num_output: 4096
weight_filler {
type: "gaussian"
std: 0.005
}
bias_filler {
type: "constant"
value: 0.1
}
}
}
layer {
name: "relu7"
type: "ReLU"
bottom: "fc7"
top: "fc7"
}
layer {
name: "drop7"
type: "Dropout"
bottom: "fc7"
top: "fc7"
dropout_param {
dropout_ratio: 0.5
}
}
layer {
name: "fc8"
type: "InnerProduct"
bottom: "fc7"
top: "fc8"
param {
lr_mult: 1
decay_mult: 1
}
param {
lr_mult: 2
decay_mult: 0
}
inner_product_param {
num_output: 196
weight_filler {
type: "gaussian"
std: 0.01
}
bias_filler {
type: "constant"
value: 0
}
}
}
layer {
name: "loss"
type: "SoftmaxWithLoss"
bottom: "fc8"
bottom: "label"
top: "loss"
}
I0423 08:55:12.662825 31767 layer_factory.hpp:77] Creating layer train-data
I0423 08:55:12.930351 31767 db_lmdb.cpp:35] Opened lmdb /mnt/bigdisk/DIGITS-MAN-3/digits/jobs/20210421-230320-902c/train_db
I0423 08:55:12.931989 31767 net.cpp:84] Creating Layer train-data
I0423 08:55:12.932008 31767 net.cpp:380] train-data -> data
I0423 08:55:12.932031 31767 net.cpp:380] train-data -> label
I0423 08:55:12.932042 31767 data_transformer.cpp:25] Loading mean file from: /mnt/bigdisk/DIGITS-MAN-3/digits/jobs/20210421-230320-902c/mean.binaryproto
I0423 08:55:13.005901 31767 data_layer.cpp:45] output data size: 128,3,227,227
I0423 08:55:13.152328 31767 net.cpp:122] Setting up train-data
I0423 08:55:13.152354 31767 net.cpp:129] Top shape: 128 3 227 227 (19787136)
I0423 08:55:13.152359 31767 net.cpp:129] Top shape: 128 (128)
I0423 08:55:13.152362 31767 net.cpp:137] Memory required for data: 79149056
I0423 08:55:13.152372 31767 layer_factory.hpp:77] Creating layer conv1
I0423 08:55:13.152395 31767 net.cpp:84] Creating Layer conv1
I0423 08:55:13.152400 31767 net.cpp:406] conv1 <- data
I0423 08:55:13.152413 31767 net.cpp:380] conv1 -> conv1
I0423 08:55:13.799572 31767 net.cpp:122] Setting up conv1
I0423 08:55:13.799594 31767 net.cpp:129] Top shape: 128 96 55 55 (37171200)
I0423 08:55:13.799598 31767 net.cpp:137] Memory required for data: 227833856
I0423 08:55:13.799619 31767 layer_factory.hpp:77] Creating layer relu1
I0423 08:55:13.799630 31767 net.cpp:84] Creating Layer relu1
I0423 08:55:13.799635 31767 net.cpp:406] relu1 <- conv1
I0423 08:55:13.799641 31767 net.cpp:367] relu1 -> conv1 (in-place)
I0423 08:55:13.799952 31767 net.cpp:122] Setting up relu1
I0423 08:55:13.799962 31767 net.cpp:129] Top shape: 128 96 55 55 (37171200)
I0423 08:55:13.799965 31767 net.cpp:137] Memory required for data: 376518656
I0423 08:55:13.799969 31767 layer_factory.hpp:77] Creating layer norm1
I0423 08:55:13.799978 31767 net.cpp:84] Creating Layer norm1
I0423 08:55:13.799981 31767 net.cpp:406] norm1 <- conv1
I0423 08:55:13.800007 31767 net.cpp:380] norm1 -> norm1
I0423 08:55:13.801976 31767 net.cpp:122] Setting up norm1
I0423 08:55:13.801986 31767 net.cpp:129] Top shape: 128 96 55 55 (37171200)
I0423 08:55:13.801990 31767 net.cpp:137] Memory required for data: 525203456
I0423 08:55:13.801995 31767 layer_factory.hpp:77] Creating layer pool1
I0423 08:55:13.802004 31767 net.cpp:84] Creating Layer pool1
I0423 08:55:13.802008 31767 net.cpp:406] pool1 <- norm1
I0423 08:55:13.802013 31767 net.cpp:380] pool1 -> pool1
I0423 08:55:13.802057 31767 net.cpp:122] Setting up pool1
I0423 08:55:13.802062 31767 net.cpp:129] Top shape: 128 96 27 27 (8957952)
I0423 08:55:13.802067 31767 net.cpp:137] Memory required for data: 561035264
I0423 08:55:13.802069 31767 layer_factory.hpp:77] Creating layer conv2
I0423 08:55:13.802083 31767 net.cpp:84] Creating Layer conv2
I0423 08:55:13.802086 31767 net.cpp:406] conv2 <- pool1
I0423 08:55:13.802093 31767 net.cpp:380] conv2 -> conv2
I0423 08:55:13.822816 31767 net.cpp:122] Setting up conv2
I0423 08:55:13.822836 31767 net.cpp:129] Top shape: 128 256 21 21 (14450688)
I0423 08:55:13.822840 31767 net.cpp:137] Memory required for data: 618838016
I0423 08:55:13.822854 31767 layer_factory.hpp:77] Creating layer relu2
I0423 08:55:13.822862 31767 net.cpp:84] Creating Layer relu2
I0423 08:55:13.822867 31767 net.cpp:406] relu2 <- conv2
I0423 08:55:13.822876 31767 net.cpp:367] relu2 -> conv2 (in-place)
I0423 08:55:13.823405 31767 net.cpp:122] Setting up relu2
I0423 08:55:13.823415 31767 net.cpp:129] Top shape: 128 256 21 21 (14450688)
I0423 08:55:13.823421 31767 net.cpp:137] Memory required for data: 676640768
I0423 08:55:13.823424 31767 layer_factory.hpp:77] Creating layer norm2
I0423 08:55:13.823431 31767 net.cpp:84] Creating Layer norm2
I0423 08:55:13.823436 31767 net.cpp:406] norm2 <- conv2
I0423 08:55:13.823442 31767 net.cpp:380] norm2 -> norm2
I0423 08:55:13.823832 31767 net.cpp:122] Setting up norm2
I0423 08:55:13.823840 31767 net.cpp:129] Top shape: 128 256 21 21 (14450688)
I0423 08:55:13.823843 31767 net.cpp:137] Memory required for data: 734443520
I0423 08:55:13.823848 31767 layer_factory.hpp:77] Creating layer pool2
I0423 08:55:13.823858 31767 net.cpp:84] Creating Layer pool2
I0423 08:55:13.823861 31767 net.cpp:406] pool2 <- norm2
I0423 08:55:13.823868 31767 net.cpp:380] pool2 -> pool2
I0423 08:55:13.823899 31767 net.cpp:122] Setting up pool2
I0423 08:55:13.823904 31767 net.cpp:129] Top shape: 128 256 10 10 (3276800)
I0423 08:55:13.823907 31767 net.cpp:137] Memory required for data: 747550720
I0423 08:55:13.823911 31767 layer_factory.hpp:77] Creating layer conv3
I0423 08:55:13.823922 31767 net.cpp:84] Creating Layer conv3
I0423 08:55:13.823925 31767 net.cpp:406] conv3 <- pool2
I0423 08:55:13.823933 31767 net.cpp:380] conv3 -> conv3
I0423 08:55:13.835120 31767 net.cpp:122] Setting up conv3
I0423 08:55:13.835144 31767 net.cpp:129] Top shape: 128 384 10 10 (4915200)
I0423 08:55:13.835147 31767 net.cpp:137] Memory required for data: 767211520
I0423 08:55:13.835160 31767 layer_factory.hpp:77] Creating layer relu3
I0423 08:55:13.835171 31767 net.cpp:84] Creating Layer relu3
I0423 08:55:13.835177 31767 net.cpp:406] relu3 <- conv3
I0423 08:55:13.835184 31767 net.cpp:367] relu3 -> conv3 (in-place)
I0423 08:55:13.835716 31767 net.cpp:122] Setting up relu3
I0423 08:55:13.835729 31767 net.cpp:129] Top shape: 128 384 10 10 (4915200)
I0423 08:55:13.835733 31767 net.cpp:137] Memory required for data: 786872320
I0423 08:55:13.835737 31767 layer_factory.hpp:77] Creating layer conv4
I0423 08:55:13.835749 31767 net.cpp:84] Creating Layer conv4
I0423 08:55:13.835753 31767 net.cpp:406] conv4 <- conv3
I0423 08:55:13.835760 31767 net.cpp:380] conv4 -> conv4
I0423 08:55:13.847131 31767 net.cpp:122] Setting up conv4
I0423 08:55:13.847149 31767 net.cpp:129] Top shape: 128 384 10 10 (4915200)
I0423 08:55:13.847153 31767 net.cpp:137] Memory required for data: 806533120
I0423 08:55:13.847163 31767 layer_factory.hpp:77] Creating layer relu4
I0423 08:55:13.847172 31767 net.cpp:84] Creating Layer relu4
I0423 08:55:13.847194 31767 net.cpp:406] relu4 <- conv4
I0423 08:55:13.847203 31767 net.cpp:367] relu4 -> conv4 (in-place)
I0423 08:55:13.847579 31767 net.cpp:122] Setting up relu4
I0423 08:55:13.847589 31767 net.cpp:129] Top shape: 128 384 10 10 (4915200)
I0423 08:55:13.847591 31767 net.cpp:137] Memory required for data: 826193920
I0423 08:55:13.847595 31767 layer_factory.hpp:77] Creating layer conv5
I0423 08:55:13.847606 31767 net.cpp:84] Creating Layer conv5
I0423 08:55:13.847610 31767 net.cpp:406] conv5 <- conv4
I0423 08:55:13.847618 31767 net.cpp:380] conv5 -> conv5
I0423 08:55:13.856801 31767 net.cpp:122] Setting up conv5
I0423 08:55:13.856819 31767 net.cpp:129] Top shape: 128 256 10 10 (3276800)
I0423 08:55:13.856824 31767 net.cpp:137] Memory required for data: 839301120
I0423 08:55:13.856837 31767 layer_factory.hpp:77] Creating layer relu5
I0423 08:55:13.856845 31767 net.cpp:84] Creating Layer relu5
I0423 08:55:13.856850 31767 net.cpp:406] relu5 <- conv5
I0423 08:55:13.856858 31767 net.cpp:367] relu5 -> conv5 (in-place)
I0423 08:55:13.857374 31767 net.cpp:122] Setting up relu5
I0423 08:55:13.857385 31767 net.cpp:129] Top shape: 128 256 10 10 (3276800)
I0423 08:55:13.857389 31767 net.cpp:137] Memory required for data: 852408320
I0423 08:55:13.857394 31767 layer_factory.hpp:77] Creating layer pool5
I0423 08:55:13.857403 31767 net.cpp:84] Creating Layer pool5
I0423 08:55:13.857407 31767 net.cpp:406] pool5 <- conv5
I0423 08:55:13.857414 31767 net.cpp:380] pool5 -> pool5
I0423 08:55:13.857453 31767 net.cpp:122] Setting up pool5
I0423 08:55:13.857460 31767 net.cpp:129] Top shape: 128 256 5 5 (819200)
I0423 08:55:13.857463 31767 net.cpp:137] Memory required for data: 855685120
I0423 08:55:13.857466 31767 layer_factory.hpp:77] Creating layer fc6
I0423 08:55:13.857477 31767 net.cpp:84] Creating Layer fc6
I0423 08:55:13.857481 31767 net.cpp:406] fc6 <- pool5
I0423 08:55:13.857487 31767 net.cpp:380] fc6 -> fc6
I0423 08:55:14.129175 31767 net.cpp:122] Setting up fc6
I0423 08:55:14.129195 31767 net.cpp:129] Top shape: 128 4096 (524288)
I0423 08:55:14.129199 31767 net.cpp:137] Memory required for data: 857782272
I0423 08:55:14.129209 31767 layer_factory.hpp:77] Creating layer relu6
I0423 08:55:14.129218 31767 net.cpp:84] Creating Layer relu6
I0423 08:55:14.129223 31767 net.cpp:406] relu6 <- fc6
I0423 08:55:14.129230 31767 net.cpp:367] relu6 -> fc6 (in-place)
I0423 08:55:14.140995 31767 net.cpp:122] Setting up relu6
I0423 08:55:14.141017 31767 net.cpp:129] Top shape: 128 4096 (524288)
I0423 08:55:14.141021 31767 net.cpp:137] Memory required for data: 859879424
I0423 08:55:14.141026 31767 layer_factory.hpp:77] Creating layer drop6
I0423 08:55:14.141036 31767 net.cpp:84] Creating Layer drop6
I0423 08:55:14.141041 31767 net.cpp:406] drop6 <- fc6
I0423 08:55:14.141050 31767 net.cpp:367] drop6 -> fc6 (in-place)
I0423 08:55:14.141091 31767 net.cpp:122] Setting up drop6
I0423 08:55:14.141098 31767 net.cpp:129] Top shape: 128 4096 (524288)
I0423 08:55:14.141100 31767 net.cpp:137] Memory required for data: 861976576
I0423 08:55:14.141104 31767 layer_factory.hpp:77] Creating layer fc7
I0423 08:55:14.141111 31767 net.cpp:84] Creating Layer fc7
I0423 08:55:14.141115 31767 net.cpp:406] fc7 <- fc6
I0423 08:55:14.141121 31767 net.cpp:380] fc7 -> fc7
I0423 08:55:14.304155 31767 net.cpp:122] Setting up fc7
I0423 08:55:14.304177 31767 net.cpp:129] Top shape: 128 4096 (524288)
I0423 08:55:14.304181 31767 net.cpp:137] Memory required for data: 864073728
I0423 08:55:14.304193 31767 layer_factory.hpp:77] Creating layer relu7
I0423 08:55:14.304203 31767 net.cpp:84] Creating Layer relu7
I0423 08:55:14.304208 31767 net.cpp:406] relu7 <- fc7
I0423 08:55:14.304214 31767 net.cpp:367] relu7 -> fc7 (in-place)
I0423 08:55:14.304642 31767 net.cpp:122] Setting up relu7
I0423 08:55:14.304651 31767 net.cpp:129] Top shape: 128 4096 (524288)
I0423 08:55:14.304656 31767 net.cpp:137] Memory required for data: 866170880
I0423 08:55:14.304659 31767 layer_factory.hpp:77] Creating layer drop7
I0423 08:55:14.304666 31767 net.cpp:84] Creating Layer drop7
I0423 08:55:14.304669 31767 net.cpp:406] drop7 <- fc7
I0423 08:55:14.304693 31767 net.cpp:367] drop7 -> fc7 (in-place)
I0423 08:55:14.304719 31767 net.cpp:122] Setting up drop7
I0423 08:55:14.304724 31767 net.cpp:129] Top shape: 128 4096 (524288)
I0423 08:55:14.304728 31767 net.cpp:137] Memory required for data: 868268032
I0423 08:55:14.304731 31767 layer_factory.hpp:77] Creating layer fc8
I0423 08:55:14.304739 31767 net.cpp:84] Creating Layer fc8
I0423 08:55:14.304744 31767 net.cpp:406] fc8 <- fc7
I0423 08:55:14.304747 31767 net.cpp:380] fc8 -> fc8
I0423 08:55:14.312456 31767 net.cpp:122] Setting up fc8
I0423 08:55:14.312467 31767 net.cpp:129] Top shape: 128 196 (25088)
I0423 08:55:14.312470 31767 net.cpp:137] Memory required for data: 868368384
I0423 08:55:14.312479 31767 layer_factory.hpp:77] Creating layer loss
I0423 08:55:14.312508 31767 net.cpp:84] Creating Layer loss
I0423 08:55:14.312513 31767 net.cpp:406] loss <- fc8
I0423 08:55:14.312517 31767 net.cpp:406] loss <- label
I0423 08:55:14.312526 31767 net.cpp:380] loss -> loss
I0423 08:55:14.312536 31767 layer_factory.hpp:77] Creating layer loss
…
I0423 08:55:14.315959 31767 net.cpp:294] The NetState phase (1) differed from the phase (0) specified by a rule in layer train-data
I0423 08:55:14.316100 31767 net.cpp:51] Initializing net from parameters:
state {
phase: TEST
}
layer {
name: "val-data"
type: "Data"
top: "data"
top: "label"
include {
phase: TEST
}
transform_param {
crop_size: 227
mean_file: "/mnt/bigdisk/DIGITS-MAN-3/digits/jobs/20210421-230320-902c/mean.binaryproto"
}
data_param {
source: "/mnt/bigdisk/DIGITS-MAN-3/digits/jobs/20210421-230320-902c/val_db"
batch_size: 32
backend: LMDB
}
}
layer {
name: "conv1"
type: "Convolution"
bottom: "data"
top: "conv1"
param {
lr_mult: 1
decay_mult: 1
}
param {
lr_mult: 2
decay_mult: 0
}
convolution_param {
num_output: 96
kernel_size: 11
stride: 4
weight_filler {
type: "gaussian"
std: 0.01
}
bias_filler {
type: "constant"
value: 0
}
}
}
layer {
name: "relu1"
type: "ReLU"
bottom: "conv1"
top: "conv1"
}
layer {
name: "norm1"
type: "LRN"
bottom: "conv1"
top: "norm1"
lrn_param {
local_size: 5
alpha: 0.0001
beta: 0.75
}
}
layer {
name: "pool1"
type: "Pooling"
bottom: "norm1"
top: "pool1"
pooling_param {
pool: MAX
kernel_size: 3
stride: 2
}
}
layer {
name: "conv2"
type: "Convolution"
bottom: "pool1"
top: "conv2"
param {
lr_mult: 1
decay_mult: 1
}
param {
lr_mult: 2
decay_mult: 0
}
convolution_param {
num_output: 256
pad: 2
kernel_size: 11
group: 2
weight_filler {
type: "gaussian"
std: 0.01
}
bias_filler {
type: "constant"
value: 0.1
}
}
}
layer {
name: "relu2"
type: "ReLU"
bottom: "conv2"
top: "conv2"
}
layer {
name: "norm2"
type: "LRN"
bottom: "conv2"
top: "norm2"
lrn_param {
local_size: 5
alpha: 0.0001
beta: 0.75
}
}
layer {
name: "pool2"
type: "Pooling"
bottom: "norm2"
top: "pool2"
pooling_param {
pool: MAX
kernel_size: 3
stride: 2
}
}
layer {
name: "conv3"
type: "Convolution"
bottom: "pool2"
top: "conv3"
param {
lr_mult: 1
decay_mult: 1
}
param {
lr_mult: 2
decay_mult: 0
}
convolution_param {
num_output: 384
pad: 1
kernel_size: 3
weight_filler {
type: "gaussian"
std: 0.01
}
bias_filler {
type: "constant"
value: 0
}
}
}
layer {
name: "relu3"
type: "ReLU"
bottom: "conv3"
top: "conv3"
}
layer {
name: "conv4"
type: "Convolution"
bottom: "conv3"
top: "conv4"
param {
lr_mult: 1
decay_mult: 1
}
param {
lr_mult: 2
decay_mult: 0
}
convolution_param {
num_output: 384
pad: 1
kernel_size: 3
group: 2
weight_filler {
type: "gaussian"
std: 0.01
}
bias_filler {
type: "constant"
value: 0.1
}
}
}
layer {
name: "relu4"
type: "ReLU"
bottom: "conv4"
top: "conv4"
}
layer {
name: "conv5"
type: "Convolution"
bottom: "conv4"
top: "conv5"
param {
lr_mult: 1
decay_mult: 1
}
param {
lr_mult: 2
decay_mult: 0
}
convolution_param {
num_output: 256
pad: 1
kernel_size: 3
group: 2
weight_filler {
type: "gaussian"
std: 0.01
}
bias_filler {
type: "constant"
value: 0.1
}
}
}
layer {
name: "relu5"
type: "ReLU"
bottom: "conv5"
top: "conv5"
}
layer {
name: "pool5"
type: "Pooling"
bottom: "conv5"
top: "pool5"
pooling_param {
pool: MAX
kernel_size: 3
stride: 2
}
}
layer {
name: "fc6"
type: "InnerProduct"
bottom: "pool5"
top: "fc6"
param {
lr_mult: 1
decay_mult: 1
}
param {
lr_mult: 2
decay_mult: 0
}
inner_product_param {
num_output: 4096
weight_filler {
type: "gaussian"
std: 0.005
}
bias_filler {
type: "constant"
value: 0.1
}
}
}
layer {
name: "relu6"
type: "ReLU"
bottom: "fc6"
top: "fc6"
}
layer {
name: "drop6"
type: "Dropout"
bottom: "fc6"
top: "fc6"
dropout_param {
dropout_ratio: 0.5
}
}
layer {
name: "fc7"
type: "InnerProduct"
bottom: "fc6"
top: "fc7"
param {
lr_mult: 1
decay_mult: 1
}
param {
lr_mult: 2
decay_mult: 0
}
inner_product_param {
num_output: 4096
weight_filler {
type: "gaussian"
std: 0.005
}
bias_filler {
type: "constant"
value: 0.1
}
}
}
layer {
name: "relu7"
type: "ReLU"
bottom: "fc7"
top: "fc7"
}
layer {
name: "drop7"
type: "Dropout"
bottom: "fc7"
top: "fc7"
dropout_param {
dropout_ratio: 0.5
}
}
layer {
name: "fc8"
type: "InnerProduct"
bottom: "fc7"
top: "fc8"
param {
lr_mult: 1
decay_mult: 1
}
param {
lr_mult: 2
decay_mult: 0
}
inner_product_param {
num_output: 196
weight_filler {
type: "gaussian"
std: 0.01
}
bias_filler {
type: "constant"
value: 0
}
}
}
layer {
name: "accuracy"
type: "Accuracy"
bottom: "fc8"
bottom: "label"
top: "accuracy"
include {
phase: TEST
}
}
layer {
name: "loss"
type: "SoftmaxWithLoss"
bottom: "fc8"
bottom: "label"
top: "loss"
}
I0423 08:55:14.316203 31767 layer_factory.hpp:77] Creating layer val-data
I0423 08:55:14.318684 31767 db_lmdb.cpp:35] Opened lmdb /mnt/bigdisk/DIGITS-MAN-3/digits/jobs/20210421-230320-902c/val_db
I0423 08:55:14.318904 31767 net.cpp:84] Creating Layer val-data
I0423 08:55:14.318915 31767 net.cpp:380] val-data -> data
I0423 08:55:14.318925 31767 net.cpp:380] val-data -> label
I0423 08:55:14.318933 31767 data_transformer.cpp:25] Loading mean file from: /mnt/bigdisk/DIGITS-MAN-3/digits/jobs/20210421-230320-902c/mean.binaryproto
I0423 08:55:14.323225 31767 data_layer.cpp:45] output data size: 32,3,227,227
I0423 08:55:14.363806 31767 net.cpp:122] Setting up val-data
I0423 08:55:14.363831 31767 net.cpp:129] Top shape: 32 3 227 227 (4946784)
I0423 08:55:14.363837 31767 net.cpp:129] Top shape: 32 (32)
I0423 08:55:14.363840 31767 net.cpp:137] Memory required for data: 19787264
I0423 08:55:14.363848 31767 layer_factory.hpp:77] Creating layer label_val-data_1_split
I0423 08:55:14.363863 31767 net.cpp:84] Creating Layer label_val-data_1_split
I0423 08:55:14.363868 31767 net.cpp:406] label_val-data_1_split <- label
I0423 08:55:14.363876 31767 net.cpp:380] label_val-data_1_split -> label_val-data_1_split_0
I0423 08:55:14.363888 31767 net.cpp:380] label_val-data_1_split -> label_val-data_1_split_1
I0423 08:55:14.363963 31767 net.cpp:122] Setting up label_val-data_1_split
I0423 08:55:14.363970 31767 net.cpp:129] Top shape: 32 (32)
I0423 08:55:14.363974 31767 net.cpp:129] Top shape: 32 (32)
I0423 08:55:14.363977 31767 net.cpp:137] Memory required for data: 19787520
I0423 08:55:14.363982 31767 layer_factory.hpp:77] Creating layer conv1
I0423 08:55:14.363996 31767 net.cpp:84] Creating Layer conv1
I0423 08:55:14.363999 31767 net.cpp:406] conv1 <- data
I0423 08:55:14.364006 31767 net.cpp:380] conv1 -> conv1
I0423 08:55:14.366235 31767 net.cpp:122] Setting up conv1
I0423 08:55:14.366250 31767 net.cpp:129] Top shape: 32 96 55 55 (9292800)
I0423 08:55:14.366255 31767 net.cpp:137] Memory required for data: 56958720
I0423 08:55:14.366266 31767 layer_factory.hpp:77] Creating layer relu1
I0423 08:55:14.366273 31767 net.cpp:84] Creating Layer relu1
I0423 08:55:14.366277 31767 net.cpp:406] relu1 <- conv1
I0423 08:55:14.366282 31767 net.cpp:367] relu1 -> conv1 (in-place)
I0423 08:55:14.366566 31767 net.cpp:122] Setting up relu1
I0423 08:55:14.366575 31767 net.cpp:129] Top shape: 32 96 55 55 (9292800)
I0423 08:55:14.366578 31767 net.cpp:137] Memory required for data: 94129920
I0423 08:55:14.366582 31767 layer_factory.hpp:77] Creating layer norm1
I0423 08:55:14.366590 31767 net.cpp:84] Creating Layer norm1
I0423 08:55:14.366595 31767 net.cpp:406] norm1 <- conv1
I0423 08:55:14.366600 31767 net.cpp:380] norm1 -> norm1
I0423 08:55:14.367064 31767 net.cpp:122] Setting up norm1
I0423 08:55:14.367075 31767 net.cpp:129] Top shape: 32 96 55 55 (9292800)
I0423 08:55:14.367079 31767 net.cpp:137] Memory required for data: 131301120
I0423 08:55:14.367082 31767 layer_factory.hpp:77] Creating layer pool1
I0423 08:55:14.367089 31767 net.cpp:84] Creating Layer pool1
I0423 08:55:14.367094 31767 net.cpp:406] pool1 <- norm1
I0423 08:55:14.367098 31767 net.cpp:380] pool1 -> pool1
I0423 08:55:14.367128 31767 net.cpp:122] Setting up pool1
I0423 08:55:14.367134 31767 net.cpp:129] Top shape: 32 96 27 27 (2239488)
I0423 08:55:14.367137 31767 net.cpp:137] Memory required for data: 140259072
I0423 08:55:14.367141 31767 layer_factory.hpp:77] Creating layer conv2
I0423 08:55:14.367149 31767 net.cpp:84] Creating Layer conv2
I0423 08:55:14.367153 31767 net.cpp:406] conv2 <- pool1
I0423 08:55:14.367178 31767 net.cpp:380] conv2 -> conv2
I0423 08:55:14.388047 31767 net.cpp:122] Setting up conv2
I0423 08:55:14.388068 31767 net.cpp:129] Top shape: 32 256 21 21 (3612672)
I0423 08:55:14.388072 31767 net.cpp:137] Memory required for data: 154709760
I0423 08:55:14.388085 31767 layer_factory.hpp:77] Creating layer relu2
I0423 08:55:14.388095 31767 net.cpp:84] Creating Layer relu2
I0423 08:55:14.388100 31767 net.cpp:406] relu2 <- conv2
I0423 08:55:14.388108 31767 net.cpp:367] relu2 -> conv2 (in-place)
I0423 08:55:14.388636 31767 net.cpp:122] Setting up relu2
I0423 08:55:14.388648 31767 net.cpp:129] Top shape: 32 256 21 21 (3612672)
I0423 08:55:14.388651 31767 net.cpp:137] Memory required for data: 169160448
I0423 08:55:14.388656 31767 layer_factory.hpp:77] Creating layer norm2
I0423 08:55:14.388665 31767 net.cpp:84] Creating Layer norm2
I0423 08:55:14.388669 31767 net.cpp:406] norm2 <- conv2
I0423 08:55:14.388676 31767 net.cpp:380] norm2 -> norm2
I0423 08:55:14.390341 31767 net.cpp:122] Setting up norm2
I0423 08:55:14.390352 31767 net.cpp:129] Top shape: 32 256 21 21 (3612672)
I0423 08:55:14.390354 31767 net.cpp:137] Memory required for data: 183611136
I0423 08:55:14.390358 31767 layer_factory.hpp:77] Creating layer pool2
I0423 08:55:14.390367 31767 net.cpp:84] Creating Layer pool2
I0423 08:55:14.390372 31767 net.cpp:406] pool2 <- norm2
I0423 08:55:14.390377 31767 net.cpp:380] pool2 -> pool2
I0423 08:55:14.390410 31767 net.cpp:122] Setting up pool2
I0423 08:55:14.390415 31767 net.cpp:129] Top shape: 32 256 10 10 (819200)
I0423 08:55:14.390419 31767 net.cpp:137] Memory required for data: 186887936
I0423 08:55:14.390421 31767 layer_factory.hpp:77] Creating layer conv3
I0423 08:55:14.390434 31767 net.cpp:84] Creating Layer conv3
I0423 08:55:14.390437 31767 net.cpp:406] conv3 <- pool2
I0423 08:55:14.390444 31767 net.cpp:380] conv3 -> conv3
I0423 08:55:14.401814 31767 net.cpp:122] Setting up conv3
I0423 08:55:14.401836 31767 net.cpp:129] Top shape: 32 384 10 10 (1228800)
I0423 08:55:14.401840 31767 net.cpp:137] Memory required for data: 191803136
I0423 08:55:14.401854 31767 layer_factory.hpp:77] Creating layer relu3
I0423 08:55:14.401862 31767 net.cpp:84] Creating Layer relu3
I0423 08:55:14.401867 31767 net.cpp:406] relu3 <- conv3
I0423 08:55:14.401877 31767 net.cpp:367] relu3 -> conv3 (in-place)
I0423 08:55:14.402400 31767 net.cpp:122] Setting up relu3
I0423 08:55:14.402412 31767 net.cpp:129] Top shape: 32 384 10 10 (1228800)
I0423 08:55:14.402415 31767 net.cpp:137] Memory required for data: 196718336
I0423 08:55:14.402420 31767 layer_factory.hpp:77] Creating layer conv4
I0423 08:55:14.402431 31767 net.cpp:84] Creating Layer conv4
I0423 08:55:14.402434 31767 net.cpp:406] conv4 <- conv3
I0423 08:55:14.402441 31767 net.cpp:380] conv4 -> conv4
I0423 08:55:14.420802 31767 net.cpp:122] Setting up conv4
I0423 08:55:14.420823 31767 net.cpp:129] Top shape: 32 384 10 10 (1228800)
I0423 08:55:14.420826 31767 net.cpp:137] Memory required for data: 201633536
I0423 08:55:14.420836 31767 layer_factory.hpp:77] Creating layer relu4
I0423 08:55:14.420845 31767 net.cpp:84] Creating Layer relu4
I0423 08:55:14.420850 31767 net.cpp:406] relu4 <- conv4
I0423 08:55:14.420862 31767 net.cpp:367] relu4 -> conv4 (in-place)
I0423 08:55:14.421257 31767 net.cpp:122] Setting up relu4
I0423 08:55:14.421267 31767 net.cpp:129] Top shape: 32 384 10 10 (1228800)
I0423 08:55:14.421272 31767 net.cpp:137] Memory required for data: 206548736
I0423 08:55:14.421275 31767 layer_factory.hpp:77] Creating layer conv5
I0423 08:55:14.421286 31767 net.cpp:84] Creating Layer conv5
I0423 08:55:14.421290 31767 net.cpp:406] conv5 <- conv4
I0423 08:55:14.421298 31767 net.cpp:380] conv5 -> conv5
I0423 08:55:14.431843 31767 net.cpp:122] Setting up conv5
I0423 08:55:14.431866 31767 net.cpp:129] Top shape: 32 256 10 10 (819200)
I0423 08:55:14.431869 31767 net.cpp:137] Memory required for data: 209825536
I0423 08:55:14.431885 31767 layer_factory.hpp:77] Creating layer relu5
I0423 08:55:14.431895 31767 net.cpp:84] Creating Layer relu5
I0423 08:55:14.431900 31767 net.cpp:406] relu5 <- conv5
I0423 08:55:14.431924 31767 net.cpp:367] relu5 -> conv5 (in-place)
I0423 08:55:14.432440 31767 net.cpp:122] Setting up relu5
I0423 08:55:14.432451 31767 net.cpp:129] Top shape: 32 256 10 10 (819200)
I0423 08:55:14.432453 31767 net.cpp:137] Memory required for data: 213102336
I0423 08:55:14.432457 31767 layer_factory.hpp:77] Creating layer pool5
I0423 08:55:14.432468 31767 net.cpp:84] Creating Layer pool5
I0423 08:55:14.432472 31767 net.cpp:406] pool5 <- conv5
I0423 08:55:14.432477 31767 net.cpp:380] pool5 -> pool5
I0423 08:55:14.432554 31767 net.cpp:122] Setting up pool5
I0423 08:55:14.432559 31767 net.cpp:129] Top shape: 32 256 5 5 (204800)
I0423 08:55:14.432564 31767 net.cpp:137] Memory required for data: 213921536
I0423 08:55:14.432566 31767 layer_factory.hpp:77] Creating layer fc6
I0423 08:55:14.432574 31767 net.cpp:84] Creating Layer fc6
I0423 08:55:14.432576 31767 net.cpp:406] fc6 <- pool5
I0423 08:55:14.432583 31767 net.cpp:380] fc6 -> fc6
I0423 08:55:14.691510 31767 net.cpp:122] Setting up fc6
I0423 08:55:14.691532 31767 net.cpp:129] Top shape: 32 4096 (131072)
I0423 08:55:14.691536 31767 net.cpp:137] Memory required for data: 214445824
I0423 08:55:14.691545 31767 layer_factory.hpp:77] Creating layer relu6
I0423 08:55:14.691556 31767 net.cpp:84] Creating Layer relu6
I0423 08:55:14.691561 31767 net.cpp:406] relu6 <- fc6
I0423 08:55:14.691567 31767 net.cpp:367] relu6 -> fc6 (in-place)
I0423 08:55:14.692261 31767 net.cpp:122] Setting up relu6
I0423 08:55:14.692272 31767 net.cpp:129] Top shape: 32 4096 (131072)
I0423 08:55:14.692276 31767 net.cpp:137] Memory required for data: 214970112
I0423 08:55:14.692279 31767 layer_factory.hpp:77] Creating layer drop6
I0423 08:55:14.692287 31767 net.cpp:84] Creating Layer drop6
I0423 08:55:14.692291 31767 net.cpp:406] drop6 <- fc6
I0423 08:55:14.692296 31767 net.cpp:367] drop6 -> fc6 (in-place)
I0423 08:55:14.692322 31767 net.cpp:122] Setting up drop6
I0423 08:55:14.692328 31767 net.cpp:129] Top shape: 32 4096 (131072)
I0423 08:55:14.692332 31767 net.cpp:137] Memory required for data: 215494400
I0423 08:55:14.692334 31767 layer_factory.hpp:77] Creating layer fc7
I0423 08:55:14.692343 31767 net.cpp:84] Creating Layer fc7
I0423 08:55:14.692346 31767 net.cpp:406] fc7 <- fc6
I0423 08:55:14.692351 31767 net.cpp:380] fc7 -> fc7
I0423 08:55:14.860100 31767 net.cpp:122] Setting up fc7
I0423 08:55:14.860121 31767 net.cpp:129] Top shape: 32 4096 (131072)
I0423 08:55:14.860126 31767 net.cpp:137] Memory required for data: 216018688
I0423 08:55:14.860134 31767 layer_factory.hpp:77] Creating layer relu7
I0423 08:55:14.860143 31767 net.cpp:84] Creating Layer relu7
I0423 08:55:14.860148 31767 net.cpp:406] relu7 <- fc7
I0423 08:55:14.860154 31767 net.cpp:367] relu7 -> fc7 (in-place)
I0423 08:55:14.860603 31767 net.cpp:122] Setting up relu7
I0423 08:55:14.860612 31767 net.cpp:129] Top shape: 32 4096 (131072)
I0423 08:55:14.860615 31767 net.cpp:137] Memory required for data: 216542976
I0423 08:55:14.860620 31767 layer_factory.hpp:77] Creating layer drop7
I0423 08:55:14.860626 31767 net.cpp:84] Creating Layer drop7
I0423 08:55:14.860630 31767 net.cpp:406] drop7 <- fc7
I0423 08:55:14.860635 31767 net.cpp:367] drop7 -> fc7 (in-place)
I0423 08:55:14.860659 31767 net.cpp:122] Setting up drop7
I0423 08:55:14.860664 31767 net.cpp:129] Top shape: 32 4096 (131072)
I0423 08:55:14.860667 31767 net.cpp:137] Memory required for data: 217067264
I0423 08:55:14.860671 31767 layer_factory.hpp:77] Creating layer fc8
I0423 08:55:14.860677 31767 net.cpp:84] Creating Layer fc8
I0423 08:55:14.860680 31767 net.cpp:406] fc8 <- fc7
I0423 08:55:14.860687 31767 net.cpp:380] fc8 -> fc8
I0423 08:55:14.868726 31767 net.cpp:122] Setting up fc8
I0423 08:55:14.868747 31767 net.cpp:129] Top shape: 32 196 (6272)
I0423 08:55:14.868752 31767 net.cpp:137] Memory required for data: 217092352
I0423 08:55:14.868760 31767 layer_factory.hpp:77] Creating layer fc8_fc8_0_split
I0423 08:55:14.868769 31767 net.cpp:84] Creating Layer fc8_fc8_0_split
I0423 08:55:14.868774 31767 net.cpp:406] fc8_fc8_0_split <- fc8
I0423 08:55:14.868801 31767 net.cpp:380] fc8_fc8_0_split -> fc8_fc8_0_split_0
I0423 08:55:14.868810 31767 net.cpp:380] fc8_fc8_0_split -> fc8_fc8_0_split_1
I0423 08:55:14.868849 31767 net.cpp:122] Setting up fc8_fc8_0_split
I0423 08:55:14.868852 31767 net.cpp:129] Top shape: 32 196 (6272)
I0423 08:55:14.868856 31767 net.cpp:129] Top shape: 32 196 (6272)
I0423 08:55:14.868860 31767 net.cpp:137] Memory required for data: 217142528
I0423 08:55:14.868862 31767 layer_factory.hpp:77] Creating layer accuracy
I0423 08:55:14.868870 31767 net.cpp:84] Creating Layer accuracy
I0423 08:55:14.868872 31767 net.cpp:406] accuracy <- fc8_fc8_0_split_0
I0423 08:55:14.868876 31767 net.cpp:406] accuracy <- label_val-data_1_split_0
I0423 08:55:14.868882 31767 net.cpp:380] accuracy -> accuracy
…
