…
I0410 00:23:15.297940 16216 net.cpp:294] The NetState phase (0) differed from the phase (1) specified by a rule in layer accuracy
I0410 00:23:15.298079 16216 net.cpp:51] Initializing net from parameters:
state {
phase: TRAIN
level: 0
stage: ""
}
layer {
name: "train-data"
type: "Data"
top: "data"
top: "label"
include {
phase: TRAIN
}
transform_param {
mirror: true
crop_size: 227
mean_file: "/mnt/bigdisk/DIGITS-MAN-2/digits/jobs/20210407-214532-d396/mean.binaryproto"
}
data_param {
source: "/mnt/bigdisk/DIGITS-MAN-2/digits/jobs/20210407-214532-d396/train_db"
batch_size: 128
backend: LMDB
}
}
layer {
name: "conv1"
type: "Convolution"
bottom: "data"
top: "conv1"
param {
lr_mult: 1
decay_mult: 1
}
param {
lr_mult: 2
decay_mult: 0
}
convolution_param {
num_output: 96
kernel_size: 11
stride: 4
weight_filler {
type: "gaussian"
std: 0.01
}
bias_filler {
type: "constant"
value: 0
}
}
}
layer {
name: "relu1"
type: "ReLU"
bottom: "conv1"
top: "conv1"
}
layer {
name: "norm1"
type: "LRN"
bottom: "conv1"
top: "norm1"
lrn_param {
local_size: 5
alpha: 0.0001
beta: 0.75
}
}
layer {
name: "pool1"
type: "Pooling"
bottom: "norm1"
top: "pool1"
pooling_param {
pool: MAX
kernel_size: 3
stride: 2
}
}
layer {
name: "conv2"
type: "Convolution"
bottom: "pool1"
top: "conv2"
param {
lr_mult: 1
decay_mult: 1
}
param {
lr_mult: 2
decay_mult: 0
}
convolution_param {
num_output: 256
pad: 2
kernel_size: 5
group: 2
weight_filler {
type: "gaussian"
std: 0.01
}
bias_filler {
type: "constant"
value: 0.1
}
}
}
layer {
name: "relu2"
type: "ReLU"
bottom: "conv2"
top: "conv2"
}
layer {
name: "norm2"
type: "LRN"
bottom: "conv2"
top: "norm2"
lrn_param {
local_size: 5
alpha: 0.0001
beta: 0.75
}
}
layer {
name: "pool2"
type: "Pooling"
bottom: "norm2"
top: "pool2"
pooling_param {
pool: MAX
kernel_size: 3
stride: 2
}
}
layer {
name: "conv3"
type: "Convolution"
bottom: "pool2"
top: "conv3"
param {
lr_mult: 1
decay_mult: 1
}
param {
lr_mult: 2
decay_mult: 0
}
convolution_param {
num_output: 384
pad: 1
kernel_size: 3
weight_filler {
type: "gaussian"
std: 0.01
}
bias_filler {
type: "constant"
value: 0
}
}
}
layer {
name: "relu3"
type: "ReLU"
bottom: "conv3"
top: "conv3"
}
layer {
name: "conv4"
type: "Convolution"
bottom: "conv3"
top: "conv4"
param {
lr_mult: 1
decay_mult: 1
}
param {
lr_mult: 2
decay_mult: 0
}
convolution_param {
num_output: 384
pad: 1
kernel_size: 3
group: 2
weight_filler {
type: "gaussian"
std: 0.01
}
bias_filler {
type: "constant"
value: 0.1
}
}
}
layer {
name: "relu4"
type: "ReLU"
bottom: "conv4"
top: "conv4"
}
layer {
name: "conv5"
type: "Convolution"
bottom: "conv4"
top: "conv5"
param {
lr_mult: 1
decay_mult: 1
}
param {
lr_mult: 2
decay_mult: 0
}
convolution_param {
num_output: 256
pad: 1
kernel_size: 3
group: 2
weight_filler {
type: "gaussian"
std: 0.01
}
bias_filler {
type: "constant"
value: 0.1
}
}
}
layer {
name: "relu5"
type: "ReLU"
bottom: "conv5"
top: "conv5"
}
layer {
name: "pool5"
type: "Pooling"
bottom: "conv5"
top: "pool5"
pooling_param {
pool: MAX
kernel_size: 3
stride: 2
}
}
layer {
name: "fc8"
type: "InnerProduct"
bottom: "pool5"
top: "fc8"
param {
lr_mult: 1
decay_mult: 1
}
param {
lr_mult: 2
decay_mult: 0
}
inner_product_param {
num_output: 196
weight_filler {
type: "gaussian"
std: 0.01
}
bias_filler {
type: "constant"
value: 0
}
}
}
layer {
name: "loss"
type: "SoftmaxWithLoss"
bottom: "fc8"
bottom: "label"
top: "loss"
}
I0410 00:23:15.298159 16216 layer_factory.hpp:77] Creating layer train-data
I0410 00:23:15.299744 16216 db_lmdb.cpp:35] Opened lmdb /mnt/bigdisk/DIGITS-MAN-2/digits/jobs/20210407-214532-d396/train_db
I0410 00:23:15.299952 16216 net.cpp:84] Creating Layer train-data
I0410 00:23:15.299962 16216 net.cpp:380] train-data -> data
I0410 00:23:15.299981 16216 net.cpp:380] train-data -> label
I0410 00:23:15.299993 16216 data_transformer.cpp:25] Loading mean file from: /mnt/bigdisk/DIGITS-MAN-2/digits/jobs/20210407-214532-d396/mean.binaryproto
I0410 00:23:15.304729 16216 data_layer.cpp:45] output data size: 128,3,227,227
I0410 00:23:15.437470 16216 net.cpp:122] Setting up train-data
I0410 00:23:15.437498 16216 net.cpp:129] Top shape: 128 3 227 227 (19787136)
I0410 00:23:15.437505 16216 net.cpp:129] Top shape: 128 (128)
I0410 00:23:15.437510 16216 net.cpp:137] Memory required for data: 79149056
I0410 00:23:15.437523 16216 layer_factory.hpp:77] Creating layer conv1
I0410 00:23:15.437548 16216 net.cpp:84] Creating Layer conv1
I0410 00:23:15.437556 16216 net.cpp:406] conv1 <- data
I0410 00:23:15.437570 16216 net.cpp:380] conv1 -> conv1
I0410 00:23:16.008185 16216 net.cpp:122] Setting up conv1
I0410 00:23:16.008208 16216 net.cpp:129] Top shape: 128 96 55 55 (37171200)
I0410 00:23:16.008213 16216 net.cpp:137] Memory required for data: 227833856
I0410 00:23:16.008231 16216 layer_factory.hpp:77] Creating layer relu1
I0410 00:23:16.008242 16216 net.cpp:84] Creating Layer relu1
I0410 00:23:16.008247 16216 net.cpp:406] relu1 <- conv1
I0410 00:23:16.008253 16216 net.cpp:367] relu1 -> conv1 (in-place)
I0410 00:23:16.008540 16216 net.cpp:122] Setting up relu1
I0410 00:23:16.008549 16216 net.cpp:129] Top shape: 128 96 55 55 (37171200)
I0410 00:23:16.008553 16216 net.cpp:137] Memory required for data: 376518656
I0410 00:23:16.008558 16216 layer_factory.hpp:77] Creating layer norm1
I0410 00:23:16.008566 16216 net.cpp:84] Creating Layer norm1
I0410 00:23:16.008570 16216 net.cpp:406] norm1 <- conv1
I0410 00:23:16.008575 16216 net.cpp:380] norm1 -> norm1
I0410 00:23:16.009016 16216 net.cpp:122] Setting up norm1
I0410 00:23:16.009027 16216 net.cpp:129] Top shape: 128 96 55 55 (37171200)
I0410 00:23:16.009032 16216 net.cpp:137] Memory required for data: 525203456
I0410 00:23:16.009035 16216 layer_factory.hpp:77] Creating layer pool1
I0410 00:23:16.009043 16216 net.cpp:84] Creating Layer pool1
I0410 00:23:16.009047 16216 net.cpp:406] pool1 <- norm1
I0410 00:23:16.009052 16216 net.cpp:380] pool1 -> pool1
I0410 00:23:16.009088 16216 net.cpp:122] Setting up pool1
I0410 00:23:16.009095 16216 net.cpp:129] Top shape: 128 96 27 27 (8957952)
I0410 00:23:16.009099 16216 net.cpp:137] Memory required for data: 561035264
I0410 00:23:16.009102 16216 layer_factory.hpp:77] Creating layer conv2
I0410 00:23:16.009111 16216 net.cpp:84] Creating Layer conv2
I0410 00:23:16.009115 16216 net.cpp:406] conv2 <- pool1
I0410 00:23:16.009121 16216 net.cpp:380] conv2 -> conv2
I0410 00:23:16.023756 16216 net.cpp:122] Setting up conv2
I0410 00:23:16.023773 16216 net.cpp:129] Top shape: 128 256 27 27 (23887872)
I0410 00:23:16.023798 16216 net.cpp:137] Memory required for data: 656586752
I0410 00:23:16.023810 16216 layer_factory.hpp:77] Creating layer relu2
I0410 00:23:16.023820 16216 net.cpp:84] Creating Layer relu2
I0410 00:23:16.023824 16216 net.cpp:406] relu2 <- conv2
I0410 00:23:16.023830 16216 net.cpp:367] relu2 -> conv2 (in-place)
I0410 00:23:16.024255 16216 net.cpp:122] Setting up relu2
I0410 00:23:16.024264 16216 net.cpp:129] Top shape: 128 256 27 27 (23887872)
I0410 00:23:16.024268 16216 net.cpp:137] Memory required for data: 752138240
I0410 00:23:16.024272 16216 layer_factory.hpp:77] Creating layer norm2
I0410 00:23:16.024279 16216 net.cpp:84] Creating Layer norm2
I0410 00:23:16.024283 16216 net.cpp:406] norm2 <- conv2
I0410 00:23:16.024289 16216 net.cpp:380] norm2 -> norm2
I0410 00:23:16.024644 16216 net.cpp:122] Setting up norm2
I0410 00:23:16.024654 16216 net.cpp:129] Top shape: 128 256 27 27 (23887872)
I0410 00:23:16.024657 16216 net.cpp:137] Memory required for data: 847689728
I0410 00:23:16.024662 16216 layer_factory.hpp:77] Creating layer pool2
I0410 00:23:16.024669 16216 net.cpp:84] Creating Layer pool2
I0410 00:23:16.024673 16216 net.cpp:406] pool2 <- norm2
I0410 00:23:16.024679 16216 net.cpp:380] pool2 -> pool2
I0410 00:23:16.024706 16216 net.cpp:122] Setting up pool2
I0410 00:23:16.024713 16216 net.cpp:129] Top shape: 128 256 13 13 (5537792)
I0410 00:23:16.024715 16216 net.cpp:137] Memory required for data: 869840896
I0410 00:23:16.024719 16216 layer_factory.hpp:77] Creating layer conv3
I0410 00:23:16.024729 16216 net.cpp:84] Creating Layer conv3
I0410 00:23:16.024734 16216 net.cpp:406] conv3 <- pool2
I0410 00:23:16.024739 16216 net.cpp:380] conv3 -> conv3
I0410 00:23:16.035297 16216 net.cpp:122] Setting up conv3
I0410 00:23:16.035315 16216 net.cpp:129] Top shape: 128 384 13 13 (8306688)
I0410 00:23:16.035317 16216 net.cpp:137] Memory required for data: 903067648
I0410 00:23:16.035327 16216 layer_factory.hpp:77] Creating layer relu3
I0410 00:23:16.035336 16216 net.cpp:84] Creating Layer relu3
I0410 00:23:16.035339 16216 net.cpp:406] relu3 <- conv3
I0410 00:23:16.035344 16216 net.cpp:367] relu3 -> conv3 (in-place)
I0410 00:23:16.035760 16216 net.cpp:122] Setting up relu3
I0410 00:23:16.035770 16216 net.cpp:129] Top shape: 128 384 13 13 (8306688)
I0410 00:23:16.035773 16216 net.cpp:137] Memory required for data: 936294400
I0410 00:23:16.035778 16216 layer_factory.hpp:77] Creating layer conv4
I0410 00:23:16.035786 16216 net.cpp:84] Creating Layer conv4
I0410 00:23:16.035790 16216 net.cpp:406] conv4 <- conv3
I0410 00:23:16.035796 16216 net.cpp:380] conv4 -> conv4
I0410 00:23:16.053678 16216 net.cpp:122] Setting up conv4
I0410 00:23:16.053697 16216 net.cpp:129] Top shape: 128 384 13 13 (8306688)
I0410 00:23:16.053701 16216 net.cpp:137] Memory required for data: 969521152
I0410 00:23:16.053710 16216 layer_factory.hpp:77] Creating layer relu4
I0410 00:23:16.053719 16216 net.cpp:84] Creating Layer relu4
I0410 00:23:16.053723 16216 net.cpp:406] relu4 <- conv4
I0410 00:23:16.053730 16216 net.cpp:367] relu4 -> conv4 (in-place)
I0410 00:23:16.054028 16216 net.cpp:122] Setting up relu4
I0410 00:23:16.054036 16216 net.cpp:129] Top shape: 128 384 13 13 (8306688)
I0410 00:23:16.054040 16216 net.cpp:137] Memory required for data: 1002747904
I0410 00:23:16.054044 16216 layer_factory.hpp:77] Creating layer conv5
I0410 00:23:16.054054 16216 net.cpp:84] Creating Layer conv5
I0410 00:23:16.054059 16216 net.cpp:406] conv5 <- conv4
I0410 00:23:16.054064 16216 net.cpp:380] conv5 -> conv5
I0410 00:23:16.062054 16216 net.cpp:122] Setting up conv5
I0410 00:23:16.062072 16216 net.cpp:129] Top shape: 128 256 13 13 (5537792)
I0410 00:23:16.062077 16216 net.cpp:137] Memory required for data: 1024899072
I0410 00:23:16.062088 16216 layer_factory.hpp:77] Creating layer relu5
I0410 00:23:16.062098 16216 net.cpp:84] Creating Layer relu5
I0410 00:23:16.062101 16216 net.cpp:406] relu5 <- conv5
I0410 00:23:16.062106 16216 net.cpp:367] relu5 -> conv5 (in-place)
I0410 00:23:16.069792 16216 net.cpp:122] Setting up relu5
I0410 00:23:16.069823 16216 net.cpp:129] Top shape: 128 256 13 13 (5537792)
I0410 00:23:16.069826 16216 net.cpp:137] Memory required for data: 1047050240
I0410 00:23:16.069830 16216 layer_factory.hpp:77] Creating layer pool5
I0410 00:23:16.069839 16216 net.cpp:84] Creating Layer pool5
I0410 00:23:16.069842 16216 net.cpp:406] pool5 <- conv5
I0410 00:23:16.069847 16216 net.cpp:380] pool5 -> pool5
I0410 00:23:16.069885 16216 net.cpp:122] Setting up pool5
I0410 00:23:16.069891 16216 net.cpp:129] Top shape: 128 256 6 6 (1179648)
I0410 00:23:16.069895 16216 net.cpp:137] Memory required for data: 1051768832
I0410 00:23:16.069897 16216 layer_factory.hpp:77] Creating layer fc8
I0410 00:23:16.069906 16216 net.cpp:84] Creating Layer fc8
I0410 00:23:16.069909 16216 net.cpp:406] fc8 <- pool5
I0410 00:23:16.069916 16216 net.cpp:380] fc8 -> fc8
I0410 00:23:16.089295 16216 net.cpp:122] Setting up fc8
I0410 00:23:16.089318 16216 net.cpp:129] Top shape: 128 196 (25088)
I0410 00:23:16.089320 16216 net.cpp:137] Memory required for data: 1051869184
I0410 00:23:16.089330 16216 layer_factory.hpp:77] Creating layer loss
I0410 00:23:16.089339 16216 net.cpp:84] Creating Layer loss
I0410 00:23:16.089344 16216 net.cpp:406] loss <- fc8
I0410 00:23:16.089349 16216 net.cpp:406] loss <- label
I0410 00:23:16.089356 16216 net.cpp:380] loss -> loss
I0410 00:23:16.089366 16216 layer_factory.hpp:77] Creating layer loss
…
I0410 00:23:16.090569 16216 net.cpp:294] The NetState phase (1) differed from the phase (0) specified by a rule in layer train-data
I0410 00:23:16.090684 16216 net.cpp:51] Initializing net from parameters:
state {
phase: TEST
}
layer {
name: "val-data"
type: "Data"
top: "data"
top: "label"
include {
phase: TEST
}
transform_param {
crop_size: 227
mean_file: "/mnt/bigdisk/DIGITS-MAN-2/digits/jobs/20210407-214532-d396/mean.binaryproto"
}
data_param {
source: "/mnt/bigdisk/DIGITS-MAN-2/digits/jobs/20210407-214532-d396/val_db"
batch_size: 32
backend: LMDB
}
}
layer {
name: "conv1"
type: "Convolution"
bottom: "data"
top: "conv1"
param {
lr_mult: 1
decay_mult: 1
}
param {
lr_mult: 2
decay_mult: 0
}
convolution_param {
num_output: 96
kernel_size: 11
stride: 4
weight_filler {
type: "gaussian"
std: 0.01
}
bias_filler {
type: "constant"
value: 0
}
}
}
layer {
name: "relu1"
type: "ReLU"
bottom: "conv1"
top: "conv1"
}
layer {
name: "norm1"
type: "LRN"
bottom: "conv1"
top: "norm1"
lrn_param {
local_size: 5
alpha: 0.0001
beta: 0.75
}
}
layer {
name: "pool1"
type: "Pooling"
bottom: "norm1"
top: "pool1"
pooling_param {
pool: MAX
kernel_size: 3
stride: 2
}
}
layer {
name: "conv2"
type: "Convolution"
bottom: "pool1"
top: "conv2"
param {
lr_mult: 1
decay_mult: 1
}
param {
lr_mult: 2
decay_mult: 0
}
convolution_param {
num_output: 256
pad: 2
kernel_size: 5
group: 2
weight_filler {
type: "gaussian"
std: 0.01
}
bias_filler {
type: "constant"
value: 0.1
}
}
}
layer {
name: "relu2"
type: "ReLU"
bottom: "conv2"
top: "conv2"
}
layer {
name: "norm2"
type: "LRN"
bottom: "conv2"
top: "norm2"
lrn_param {
local_size: 5
alpha: 0.0001
beta: 0.75
}
}
layer {
name: "pool2"
type: "Pooling"
bottom: "norm2"
top: "pool2"
pooling_param {
pool: MAX
kernel_size: 3
stride: 2
}
}
layer {
name: "conv3"
type: "Convolution"
bottom: "pool2"
top: "conv3"
param {
lr_mult: 1
decay_mult: 1
}
param {
lr_mult: 2
decay_mult: 0
}
convolution_param {
num_output: 384
pad: 1
kernel_size: 3
weight_filler {
type: "gaussian"
std: 0.01
}
bias_filler {
type: "constant"
value: 0
}
}
}
layer {
name: "relu3"
type: "ReLU"
bottom: "conv3"
top: "conv3"
}
layer {
name: "conv4"
type: "Convolution"
bottom: "conv3"
top: "conv4"
param {
lr_mult: 1
decay_mult: 1
}
param {
lr_mult: 2
decay_mult: 0
}
convolution_param {
num_output: 384
pad: 1
kernel_size: 3
group: 2
weight_filler {
type: "gaussian"
std: 0.01
}
bias_filler {
type: "constant"
value: 0.1
}
}
}
layer {
name: "relu4"
type: "ReLU"
bottom: "conv4"
top: "conv4"
}
layer {
name: "conv5"
type: "Convolution"
bottom: "conv4"
top: "conv5"
param {
lr_mult: 1
decay_mult: 1
}
param {
lr_mult: 2
decay_mult: 0
}
convolution_param {
num_output: 256
pad: 1
kernel_size: 3
group: 2
weight_filler {
type: "gaussian"
std: 0.01
}
bias_filler {
type: "constant"
value: 0.1
}
}
}
layer {
name: "relu5"
type: "ReLU"
bottom: "conv5"
top: "conv5"
}
layer {
name: "pool5"
type: "Pooling"
bottom: "conv5"
top: "pool5"
pooling_param {
pool: MAX
kernel_size: 3
stride: 2
}
}
layer {
name: "fc8"
type: "InnerProduct"
bottom: "pool5"
top: "fc8"
param {
lr_mult: 1
decay_mult: 1
}
param {
lr_mult: 2
decay_mult: 0
}
inner_product_param {
num_output: 196
weight_filler {
type: "gaussian"
std: 0.01
}
bias_filler {
type: "constant"
value: 0
}
}
}
layer {
name: "accuracy"
type: "Accuracy"
bottom: "fc8"
bottom: "label"
top: "accuracy"
include {
phase: TEST
}
}
layer {
name: "loss"
type: "SoftmaxWithLoss"
bottom: "fc8"
bottom: "label"
top: "loss"
}
I0410 00:23:16.090772 16216 layer_factory.hpp:77] Creating layer val-data
I0410 00:23:16.092363 16216 db_lmdb.cpp:35] Opened lmdb /mnt/bigdisk/DIGITS-MAN-2/digits/jobs/20210407-214532-d396/val_db
I0410 00:23:16.092569 16216 net.cpp:84] Creating Layer val-data
I0410 00:23:16.092578 16216 net.cpp:380] val-data -> data
I0410 00:23:16.092586 16216 net.cpp:380] val-data -> label
I0410 00:23:16.092594 16216 data_transformer.cpp:25] Loading mean file from: /mnt/bigdisk/DIGITS-MAN-2/digits/jobs/20210407-214532-d396/mean.binaryproto
I0410 00:23:16.096035 16216 data_layer.cpp:45] output data size: 32,3,227,227
I0410 00:23:16.130146 16216 net.cpp:122] Setting up val-data
I0410 00:23:16.130187 16216 net.cpp:129] Top shape: 32 3 227 227 (4946784)
I0410 00:23:16.130192 16216 net.cpp:129] Top shape: 32 (32)
I0410 00:23:16.130195 16216 net.cpp:137] Memory required for data: 19787264
I0410 00:23:16.130201 16216 layer_factory.hpp:77] Creating layer label_val-data_1_split
I0410 00:23:16.130213 16216 net.cpp:84] Creating Layer label_val-data_1_split
I0410 00:23:16.130218 16216 net.cpp:406] label_val-data_1_split <- label
I0410 00:23:16.130224 16216 net.cpp:380] label_val-data_1_split -> label_val-data_1_split_0
I0410 00:23:16.130234 16216 net.cpp:380] label_val-data_1_split -> label_val-data_1_split_1
I0410 00:23:16.130281 16216 net.cpp:122] Setting up label_val-data_1_split
I0410 00:23:16.130286 16216 net.cpp:129] Top shape: 32 (32)
I0410 00:23:16.130291 16216 net.cpp:129] Top shape: 32 (32)
I0410 00:23:16.130295 16216 net.cpp:137] Memory required for data: 19787520
I0410 00:23:16.130297 16216 layer_factory.hpp:77] Creating layer conv1
I0410 00:23:16.130309 16216 net.cpp:84] Creating Layer conv1
I0410 00:23:16.130313 16216 net.cpp:406] conv1 <- data
I0410 00:23:16.130318 16216 net.cpp:380] conv1 -> conv1
I0410 00:23:16.133680 16216 net.cpp:122] Setting up conv1
I0410 00:23:16.133692 16216 net.cpp:129] Top shape: 32 96 55 55 (9292800)
I0410 00:23:16.133695 16216 net.cpp:137] Memory required for data: 56958720
I0410 00:23:16.133705 16216 layer_factory.hpp:77] Creating layer relu1
I0410 00:23:16.133711 16216 net.cpp:84] Creating Layer relu1
I0410 00:23:16.133715 16216 net.cpp:406] relu1 <- conv1
I0410 00:23:16.133720 16216 net.cpp:367] relu1 -> conv1 (in-place)
I0410 00:23:16.134223 16216 net.cpp:122] Setting up relu1
I0410 00:23:16.134233 16216 net.cpp:129] Top shape: 32 96 55 55 (9292800)
I0410 00:23:16.134236 16216 net.cpp:137] Memory required for data: 94129920
I0410 00:23:16.134240 16216 layer_factory.hpp:77] Creating layer norm1
I0410 00:23:16.134249 16216 net.cpp:84] Creating Layer norm1
I0410 00:23:16.134253 16216 net.cpp:406] norm1 <- conv1
I0410 00:23:16.134258 16216 net.cpp:380] norm1 -> norm1
I0410 00:23:16.134711 16216 net.cpp:122] Setting up norm1
I0410 00:23:16.134721 16216 net.cpp:129] Top shape: 32 96 55 55 (9292800)
I0410 00:23:16.134724 16216 net.cpp:137] Memory required for data: 131301120
I0410 00:23:16.134728 16216 layer_factory.hpp:77] Creating layer pool1
I0410 00:23:16.134735 16216 net.cpp:84] Creating Layer pool1
I0410 00:23:16.134738 16216 net.cpp:406] pool1 <- norm1
I0410 00:23:16.134744 16216 net.cpp:380] pool1 -> pool1
I0410 00:23:16.134771 16216 net.cpp:122] Setting up pool1
I0410 00:23:16.134778 16216 net.cpp:129] Top shape: 32 96 27 27 (2239488)
I0410 00:23:16.134780 16216 net.cpp:137] Memory required for data: 140259072
I0410 00:23:16.134783 16216 layer_factory.hpp:77] Creating layer conv2
I0410 00:23:16.134791 16216 net.cpp:84] Creating Layer conv2
I0410 00:23:16.134794 16216 net.cpp:406] conv2 <- pool1
I0410 00:23:16.134799 16216 net.cpp:380] conv2 -> conv2
I0410 00:23:16.145325 16216 net.cpp:122] Setting up conv2
I0410 00:23:16.145344 16216 net.cpp:129] Top shape: 32 256 27 27 (5971968)
I0410 00:23:16.145349 16216 net.cpp:137] Memory required for data: 164146944
I0410 00:23:16.145359 16216 layer_factory.hpp:77] Creating layer relu2
I0410 00:23:16.145368 16216 net.cpp:84] Creating Layer relu2
I0410 00:23:16.145372 16216 net.cpp:406] relu2 <- conv2
I0410 00:23:16.145380 16216 net.cpp:367] relu2 -> conv2 (in-place)
I0410 00:23:16.145767 16216 net.cpp:122] Setting up relu2
I0410 00:23:16.145776 16216 net.cpp:129] Top shape: 32 256 27 27 (5971968)
I0410 00:23:16.145779 16216 net.cpp:137] Memory required for data: 188034816
I0410 00:23:16.145783 16216 layer_factory.hpp:77] Creating layer norm2
I0410 00:23:16.145793 16216 net.cpp:84] Creating Layer norm2
I0410 00:23:16.145797 16216 net.cpp:406] norm2 <- conv2
I0410 00:23:16.145803 16216 net.cpp:380] norm2 -> norm2
I0410 00:23:16.146355 16216 net.cpp:122] Setting up norm2
I0410 00:23:16.146365 16216 net.cpp:129] Top shape: 32 256 27 27 (5971968)
I0410 00:23:16.146368 16216 net.cpp:137] Memory required for data: 211922688
I0410 00:23:16.146390 16216 layer_factory.hpp:77] Creating layer pool2
I0410 00:23:16.146399 16216 net.cpp:84] Creating Layer pool2
I0410 00:23:16.146402 16216 net.cpp:406] pool2 <- norm2
I0410 00:23:16.146409 16216 net.cpp:380] pool2 -> pool2
I0410 00:23:16.146440 16216 net.cpp:122] Setting up pool2
I0410 00:23:16.146446 16216 net.cpp:129] Top shape: 32 256 13 13 (1384448)
I0410 00:23:16.146450 16216 net.cpp:137] Memory required for data: 217460480
I0410 00:23:16.146453 16216 layer_factory.hpp:77] Creating layer conv3
I0410 00:23:16.146469 16216 net.cpp:84] Creating Layer conv3
I0410 00:23:16.146472 16216 net.cpp:406] conv3 <- pool2
I0410 00:23:16.146478 16216 net.cpp:380] conv3 -> conv3
I0410 00:23:16.157383 16216 net.cpp:122] Setting up conv3
I0410 00:23:16.157402 16216 net.cpp:129] Top shape: 32 384 13 13 (2076672)
I0410 00:23:16.157404 16216 net.cpp:137] Memory required for data: 225767168
I0410 00:23:16.157415 16216 layer_factory.hpp:77] Creating layer relu3
I0410 00:23:16.157424 16216 net.cpp:84] Creating Layer relu3
I0410 00:23:16.157436 16216 net.cpp:406] relu3 <- conv3
I0410 00:23:16.157444 16216 net.cpp:367] relu3 -> conv3 (in-place)
I0410 00:23:16.157948 16216 net.cpp:122] Setting up relu3
I0410 00:23:16.157982 16216 net.cpp:129] Top shape: 32 384 13 13 (2076672)
I0410 00:23:16.157986 16216 net.cpp:137] Memory required for data: 234073856
I0410 00:23:16.157990 16216 layer_factory.hpp:77] Creating layer conv4
I0410 00:23:16.158000 16216 net.cpp:84] Creating Layer conv4
I0410 00:23:16.158004 16216 net.cpp:406] conv4 <- conv3
I0410 00:23:16.158010 16216 net.cpp:380] conv4 -> conv4
I0410 00:23:16.169486 16216 net.cpp:122] Setting up conv4
I0410 00:23:16.169503 16216 net.cpp:129] Top shape: 32 384 13 13 (2076672)
I0410 00:23:16.169507 16216 net.cpp:137] Memory required for data: 242380544
I0410 00:23:16.169517 16216 layer_factory.hpp:77] Creating layer relu4
I0410 00:23:16.169525 16216 net.cpp:84] Creating Layer relu4
I0410 00:23:16.169530 16216 net.cpp:406] relu4 <- conv4
I0410 00:23:16.169536 16216 net.cpp:367] relu4 -> conv4 (in-place)
I0410 00:23:16.170047 16216 net.cpp:122] Setting up relu4
I0410 00:23:16.170056 16216 net.cpp:129] Top shape: 32 384 13 13 (2076672)
I0410 00:23:16.170060 16216 net.cpp:137] Memory required for data: 250687232
I0410 00:23:16.170063 16216 layer_factory.hpp:77] Creating layer conv5
I0410 00:23:16.170074 16216 net.cpp:84] Creating Layer conv5
I0410 00:23:16.170078 16216 net.cpp:406] conv5 <- conv4
I0410 00:23:16.170085 16216 net.cpp:380] conv5 -> conv5
I0410 00:23:16.178671 16216 net.cpp:122] Setting up conv5
I0410 00:23:16.178687 16216 net.cpp:129] Top shape: 32 256 13 13 (1384448)
I0410 00:23:16.178692 16216 net.cpp:137] Memory required for data: 256225024
I0410 00:23:16.178704 16216 layer_factory.hpp:77] Creating layer relu5
I0410 00:23:16.178712 16216 net.cpp:84] Creating Layer relu5
I0410 00:23:16.178716 16216 net.cpp:406] relu5 <- conv5
I0410 00:23:16.178725 16216 net.cpp:367] relu5 -> conv5 (in-place)
I0410 00:23:16.179076 16216 net.cpp:122] Setting up relu5
I0410 00:23:16.179085 16216 net.cpp:129] Top shape: 32 256 13 13 (1384448)
I0410 00:23:16.179087 16216 net.cpp:137] Memory required for data: 261762816
I0410 00:23:16.179091 16216 layer_factory.hpp:77] Creating layer pool5
I0410 00:23:16.179101 16216 net.cpp:84] Creating Layer pool5
I0410 00:23:16.179105 16216 net.cpp:406] pool5 <- conv5
I0410 00:23:16.179111 16216 net.cpp:380] pool5 -> pool5
I0410 00:23:16.179149 16216 net.cpp:122] Setting up pool5
I0410 00:23:16.179155 16216 net.cpp:129] Top shape: 32 256 6 6 (294912)
I0410 00:23:16.179159 16216 net.cpp:137] Memory required for data: 262942464
I0410 00:23:16.179162 16216 layer_factory.hpp:77] Creating layer fc8
I0410 00:23:16.179169 16216 net.cpp:84] Creating Layer fc8
I0410 00:23:16.179173 16216 net.cpp:406] fc8 <- pool5
I0410 00:23:16.179179 16216 net.cpp:380] fc8 -> fc8
I0410 00:23:16.196489 16216 net.cpp:122] Setting up fc8
I0410 00:23:16.196511 16216 net.cpp:129] Top shape: 32 196 (6272)
I0410 00:23:16.196514 16216 net.cpp:137] Memory required for data: 262967552
I0410 00:23:16.196544 16216 layer_factory.hpp:77] Creating layer fc8_fc8_0_split
I0410 00:23:16.196552 16216 net.cpp:84] Creating Layer fc8_fc8_0_split
I0410 00:23:16.196557 16216 net.cpp:406] fc8_fc8_0_split <- fc8
I0410 00:23:16.196565 16216 net.cpp:380] fc8_fc8_0_split -> fc8_fc8_0_split_0
I0410 00:23:16.196574 16216 net.cpp:380] fc8_fc8_0_split -> fc8_fc8_0_split_1
I0410 00:23:16.196614 16216 net.cpp:122] Setting up fc8_fc8_0_split
I0410 00:23:16.196619 16216 net.cpp:129] Top shape: 32 196 (6272)
I0410 00:23:16.196624 16216 net.cpp:129] Top shape: 32 196 (6272)
I0410 00:23:16.196626 16216 net.cpp:137] Memory required for data: 263017728
I0410 00:23:16.196630 16216 layer_factory.hpp:77] Creating layer accuracy
I0410 00:23:16.196636 16216 net.cpp:84] Creating Layer accuracy
I0410 00:23:16.196640 16216 net.cpp:406] accuracy <- fc8_fc8_0_split_0
I0410 00:23:16.196645 16216 net.cpp:406] accuracy <- label_val-data_1_split_0
I0410 00:23:16.196650 16216 net.cpp:380] accuracy -> accuracy
…
