…
I0407 22:24:57.336874   359 net.cpp:294] The NetState phase (0) differed from the phase (1) specified by a rule in layer accuracy
I0407 22:24:57.337000   359 net.cpp:51] Initializing net from parameters:
state {
phase: TRAIN
level: 0
stage: ""
}
layer {
name: "train-data"
type: "Data"
top: "data"
top: "label"
include {
phase: TRAIN
}
transform_param {
mirror: true
crop_size: 227
mean_file: "/mnt/bigdisk/DIGITS-TAM-1/digits/jobs/20210407-221849-d51c/mean.binaryproto"
}
data_param {
source: "/mnt/bigdisk/DIGITS-TAM-1/digits/jobs/20210407-221849-d51c/train_db"
batch_size: 128
backend: LMDB
}
}
layer {
name: "conv1"
type: "Convolution"
bottom: "data"
top: "conv1"
param {
lr_mult: 1
decay_mult: 1
}
param {
lr_mult: 2
decay_mult: 0
}
convolution_param {
num_output: 96
kernel_size: 11
stride: 4
weight_filler {
type: "gaussian"
std: 0.01
}
bias_filler {
type: "constant"
value: 0
}
}
}
layer {
name: "relu1"
type: "ReLU"
bottom: "conv1"
top: "conv1"
}
layer {
name: "norm1"
type: "LRN"
bottom: "conv1"
top: "norm1"
lrn_param {
local_size: 5
alpha: 0.0001
beta: 0.75
}
}
layer {
name: "pool1"
type: "Pooling"
bottom: "norm1"
top: "pool1"
pooling_param {
pool: MAX
kernel_size: 3
stride: 2
}
}
layer {
name: "conv2"
type: "Convolution"
bottom: "pool1"
top: "conv2"
param {
lr_mult: 1
decay_mult: 1
}
param {
lr_mult: 2
decay_mult: 0
}
convolution_param {
num_output: 256
pad: 2
kernel_size: 5
group: 2
weight_filler {
type: "gaussian"
std: 0.01
}
bias_filler {
type: "constant"
value: 0.1
}
}
}
layer {
name: "relu2"
type: "ReLU"
bottom: "conv2"
top: "conv2"
}
layer {
name: "norm2"
type: "LRN"
bottom: "conv2"
top: "norm2"
lrn_param {
local_size: 5
alpha: 0.0001
beta: 0.75
}
}
layer {
name: "pool2"
type: "Pooling"
bottom: "norm2"
top: "pool2"
pooling_param {
pool: MAX
kernel_size: 3
stride: 2
}
}
layer {
name: "conv3"
type: "Convolution"
bottom: "pool2"
top: "conv3"
param {
lr_mult: 1
decay_mult: 1
}
param {
lr_mult: 2
decay_mult: 0
}
convolution_param {
num_output: 384
pad: 1
kernel_size: 3
weight_filler {
type: "gaussian"
std: 0.01
}
bias_filler {
type: "constant"
value: 0
}
}
}
layer {
name: "relu3"
type: "ReLU"
bottom: "conv3"
top: "conv3"
}
layer {
name: "conv4"
type: "Convolution"
bottom: "conv3"
top: "conv4"
param {
lr_mult: 1
decay_mult: 1
}
param {
lr_mult: 2
decay_mult: 0
}
convolution_param {
num_output: 384
pad: 1
kernel_size: 3
group: 2
weight_filler {
type: "gaussian"
std: 0.01
}
bias_filler {
type: "constant"
value: 0.1
}
}
}
layer {
name: "relu4"
type: "ReLU"
bottom: "conv4"
top: "conv4"
}
layer {
name: "conv5"
type: "Convolution"
bottom: "conv4"
top: "conv5"
param {
lr_mult: 1
decay_mult: 1
}
param {
lr_mult: 2
decay_mult: 0
}
convolution_param {
num_output: 256
pad: 1
kernel_size: 3
group: 2
weight_filler {
type: "gaussian"
std: 0.01
}
bias_filler {
type: "constant"
value: 0.1
}
}
}
layer {
name: "relu5"
type: "ReLU"
bottom: "conv5"
top: "conv5"
}
layer {
name: "pool5"
type: "Pooling"
bottom: "conv5"
top: "pool5"
pooling_param {
pool: MAX
kernel_size: 3
stride: 2
}
}
layer {
name: "fc6"
type: "InnerProduct"
bottom: "pool5"
top: "fc6"
param {
lr_mult: 1
decay_mult: 1
}
param {
lr_mult: 2
decay_mult: 0
}
inner_product_param {
num_output: 4096
weight_filler {
type: "gaussian"
std: 0.005
}
bias_filler {
type: "constant"
value: 0.1
}
}
}
layer {
name: "relu6"
type: "ReLU"
bottom: "fc6"
top: "fc6"
}
layer {
name: "drop6"
type: "Dropout"
bottom: "fc6"
top: "fc6"
dropout_param {
dropout_ratio: 0.5
}
}
layer {
name: "fc7"
type: "InnerProduct"
bottom: "fc6"
top: "fc7"
param {
lr_mult: 1
decay_mult: 1
}
param {
lr_mult: 2
decay_mult: 0
}
inner_product_param {
num_output: 4096
weight_filler {
type: "gaussian"
std: 0.005
}
bias_filler {
type: "constant"
value: 0.1
}
}
}
layer {
name: "relu7"
type: "ReLU"
bottom: "fc7"
top: "fc7"
}
layer {
name: "drop7"
type: "Dropout"
bottom: "fc7"
top: "fc7"
dropout_param {
dropout_ratio: 0.5
}
}
layer {
name: "fc8"
type: "InnerProduct"
bottom: "fc7"
top: "fc8"
param {
lr_mult: 1
decay_mult: 1
}
param {
lr_mult: 2
decay_mult: 0
}
inner_product_param {
num_output: 196
weight_filler {
type: "gaussian"
std: 0.01
}
bias_filler {
type: "constant"
value: 0
}
}
}
layer {
name: "loss"
type: "SoftmaxWithLoss"
bottom: "fc8"
bottom: "label"
top: "loss"
}
I0407 22:24:57.337081   359 layer_factory.hpp:77] Creating layer train-data
I0407 22:24:57.339022   359 db_lmdb.cpp:35] Opened lmdb /mnt/bigdisk/DIGITS-TAM-1/digits/jobs/20210407-221849-d51c/train_db
I0407 22:24:57.339668   359 net.cpp:84] Creating Layer train-data
I0407 22:24:57.339680   359 net.cpp:380] train-data -> data
I0407 22:24:57.339700   359 net.cpp:380] train-data -> label
I0407 22:24:57.339711   359 data_transformer.cpp:25] Loading mean file from: /mnt/bigdisk/DIGITS-TAM-1/digits/jobs/20210407-221849-d51c/mean.binaryproto
I0407 22:24:57.344272   359 data_layer.cpp:45] output data size: 128,3,227,227
I0407 22:24:57.471490   359 net.cpp:122] Setting up train-data
I0407 22:24:57.471513   359 net.cpp:129] Top shape: 128 3 227 227 (19787136)
I0407 22:24:57.471518   359 net.cpp:129] Top shape: 128 (128)
I0407 22:24:57.471519   359 net.cpp:137] Memory required for data: 79149056
I0407 22:24:57.471529   359 layer_factory.hpp:77] Creating layer conv1
I0407 22:24:57.471549   359 net.cpp:84] Creating Layer conv1
I0407 22:24:57.471554   359 net.cpp:406] conv1 <- data
I0407 22:24:57.471566   359 net.cpp:380] conv1 -> conv1
I0407 22:24:58.376600   359 net.cpp:122] Setting up conv1
I0407 22:24:58.376621   359 net.cpp:129] Top shape: 128 96 55 55 (37171200)
I0407 22:24:58.376624   359 net.cpp:137] Memory required for data: 227833856
I0407 22:24:58.376643   359 layer_factory.hpp:77] Creating layer relu1
I0407 22:24:58.376653   359 net.cpp:84] Creating Layer relu1
I0407 22:24:58.376657   359 net.cpp:406] relu1 <- conv1
I0407 22:24:58.376662   359 net.cpp:367] relu1 -> conv1 (in-place)
I0407 22:24:58.376996   359 net.cpp:122] Setting up relu1
I0407 22:24:58.377004   359 net.cpp:129] Top shape: 128 96 55 55 (37171200)
I0407 22:24:58.377007   359 net.cpp:137] Memory required for data: 376518656
I0407 22:24:58.377010   359 layer_factory.hpp:77] Creating layer norm1
I0407 22:24:58.377019   359 net.cpp:84] Creating Layer norm1
I0407 22:24:58.377038   359 net.cpp:406] norm1 <- conv1
I0407 22:24:58.377043   359 net.cpp:380] norm1 -> norm1
I0407 22:24:58.377588   359 net.cpp:122] Setting up norm1
I0407 22:24:58.377597   359 net.cpp:129] Top shape: 128 96 55 55 (37171200)
I0407 22:24:58.377600   359 net.cpp:137] Memory required for data: 525203456
I0407 22:24:58.377604   359 layer_factory.hpp:77] Creating layer pool1
I0407 22:24:58.377610   359 net.cpp:84] Creating Layer pool1
I0407 22:24:58.377614   359 net.cpp:406] pool1 <- norm1
I0407 22:24:58.377619   359 net.cpp:380] pool1 -> pool1
I0407 22:24:58.377650   359 net.cpp:122] Setting up pool1
I0407 22:24:58.377655   359 net.cpp:129] Top shape: 128 96 27 27 (8957952)
I0407 22:24:58.377657   359 net.cpp:137] Memory required for data: 561035264
I0407 22:24:58.377660   359 layer_factory.hpp:77] Creating layer conv2
I0407 22:24:58.377669   359 net.cpp:84] Creating Layer conv2
I0407 22:24:58.377672   359 net.cpp:406] conv2 <- pool1
I0407 22:24:58.377676   359 net.cpp:380] conv2 -> conv2
I0407 22:24:58.388175   359 net.cpp:122] Setting up conv2
I0407 22:24:58.388195   359 net.cpp:129] Top shape: 128 256 27 27 (23887872)
I0407 22:24:58.388200   359 net.cpp:137] Memory required for data: 656586752
I0407 22:24:58.388213   359 layer_factory.hpp:77] Creating layer relu2
I0407 22:24:58.388221   359 net.cpp:84] Creating Layer relu2
I0407 22:24:58.388226   359 net.cpp:406] relu2 <- conv2
I0407 22:24:58.388233   359 net.cpp:367] relu2 -> conv2 (in-place)
I0407 22:24:58.388893   359 net.cpp:122] Setting up relu2
I0407 22:24:58.388906   359 net.cpp:129] Top shape: 128 256 27 27 (23887872)
I0407 22:24:58.388911   359 net.cpp:137] Memory required for data: 752138240
I0407 22:24:58.388916   359 layer_factory.hpp:77] Creating layer norm2
I0407 22:24:58.388924   359 net.cpp:84] Creating Layer norm2
I0407 22:24:58.388929   359 net.cpp:406] norm2 <- conv2
I0407 22:24:58.388936   359 net.cpp:380] norm2 -> norm2
I0407 22:24:58.389379   359 net.cpp:122] Setting up norm2
I0407 22:24:58.389391   359 net.cpp:129] Top shape: 128 256 27 27 (23887872)
I0407 22:24:58.389395   359 net.cpp:137] Memory required for data: 847689728
I0407 22:24:58.389400   359 layer_factory.hpp:77] Creating layer pool2
I0407 22:24:58.389408   359 net.cpp:84] Creating Layer pool2
I0407 22:24:58.389413   359 net.cpp:406] pool2 <- norm2
I0407 22:24:58.389420   359 net.cpp:380] pool2 -> pool2
I0407 22:24:58.389453   359 net.cpp:122] Setting up pool2
I0407 22:24:58.389459   359 net.cpp:129] Top shape: 128 256 13 13 (5537792)
I0407 22:24:58.389463   359 net.cpp:137] Memory required for data: 869840896
I0407 22:24:58.389467   359 layer_factory.hpp:77] Creating layer conv3
I0407 22:24:58.389477   359 net.cpp:84] Creating Layer conv3
I0407 22:24:58.389482   359 net.cpp:406] conv3 <- pool2
I0407 22:24:58.389487   359 net.cpp:380] conv3 -> conv3
I0407 22:24:58.400347   359 net.cpp:122] Setting up conv3
I0407 22:24:58.400363   359 net.cpp:129] Top shape: 128 384 13 13 (8306688)
I0407 22:24:58.400367   359 net.cpp:137] Memory required for data: 903067648
I0407 22:24:58.400375   359 layer_factory.hpp:77] Creating layer relu3
I0407 22:24:58.400382   359 net.cpp:84] Creating Layer relu3
I0407 22:24:58.400386   359 net.cpp:406] relu3 <- conv3
I0407 22:24:58.400391   359 net.cpp:367] relu3 -> conv3 (in-place)
I0407 22:24:58.400890   359 net.cpp:122] Setting up relu3
I0407 22:24:58.400900   359 net.cpp:129] Top shape: 128 384 13 13 (8306688)
I0407 22:24:58.400903   359 net.cpp:137] Memory required for data: 936294400
I0407 22:24:58.400907   359 layer_factory.hpp:77] Creating layer conv4
I0407 22:24:58.400915   359 net.cpp:84] Creating Layer conv4
I0407 22:24:58.400918   359 net.cpp:406] conv4 <- conv3
I0407 22:24:58.400923   359 net.cpp:380] conv4 -> conv4
I0407 22:24:58.411839   359 net.cpp:122] Setting up conv4
I0407 22:24:58.411855   359 net.cpp:129] Top shape: 128 384 13 13 (8306688)
I0407 22:24:58.411859   359 net.cpp:137] Memory required for data: 969521152
I0407 22:24:58.411867   359 layer_factory.hpp:77] Creating layer relu4
I0407 22:24:58.411876   359 net.cpp:84] Creating Layer relu4
I0407 22:24:58.411896   359 net.cpp:406] relu4 <- conv4
I0407 22:24:58.411902   359 net.cpp:367] relu4 -> conv4 (in-place)
I0407 22:24:58.412392   359 net.cpp:122] Setting up relu4
I0407 22:24:58.412402   359 net.cpp:129] Top shape: 128 384 13 13 (8306688)
I0407 22:24:58.412405   359 net.cpp:137] Memory required for data: 1002747904
I0407 22:24:58.412408   359 layer_factory.hpp:77] Creating layer conv5
I0407 22:24:58.412417   359 net.cpp:84] Creating Layer conv5
I0407 22:24:58.412420   359 net.cpp:406] conv5 <- conv4
I0407 22:24:58.412426   359 net.cpp:380] conv5 -> conv5
I0407 22:24:58.421608   359 net.cpp:122] Setting up conv5
I0407 22:24:58.421627   359 net.cpp:129] Top shape: 128 256 13 13 (5537792)
I0407 22:24:58.421629   359 net.cpp:137] Memory required for data: 1024899072
I0407 22:24:58.421643   359 layer_factory.hpp:77] Creating layer relu5
I0407 22:24:58.421653   359 net.cpp:84] Creating Layer relu5
I0407 22:24:58.421655   359 net.cpp:406] relu5 <- conv5
I0407 22:24:58.421661   359 net.cpp:367] relu5 -> conv5 (in-place)
I0407 22:24:58.422227   359 net.cpp:122] Setting up relu5
I0407 22:24:58.422238   359 net.cpp:129] Top shape: 128 256 13 13 (5537792)
I0407 22:24:58.422241   359 net.cpp:137] Memory required for data: 1047050240
I0407 22:24:58.422245   359 layer_factory.hpp:77] Creating layer pool5
I0407 22:24:58.422250   359 net.cpp:84] Creating Layer pool5
I0407 22:24:58.422253   359 net.cpp:406] pool5 <- conv5
I0407 22:24:58.422259   359 net.cpp:380] pool5 -> pool5
I0407 22:24:58.422294   359 net.cpp:122] Setting up pool5
I0407 22:24:58.422300   359 net.cpp:129] Top shape: 128 256 6 6 (1179648)
I0407 22:24:58.422303   359 net.cpp:137] Memory required for data: 1051768832
I0407 22:24:58.422307   359 layer_factory.hpp:77] Creating layer fc6
I0407 22:24:58.422315   359 net.cpp:84] Creating Layer fc6
I0407 22:24:58.422318   359 net.cpp:406] fc6 <- pool5
I0407 22:24:58.422323   359 net.cpp:380] fc6 -> fc6
I0407 22:24:58.781308   359 net.cpp:122] Setting up fc6
I0407 22:24:58.781327   359 net.cpp:129] Top shape: 128 4096 (524288)
I0407 22:24:58.781330   359 net.cpp:137] Memory required for data: 1053865984
I0407 22:24:58.781339   359 layer_factory.hpp:77] Creating layer relu6
I0407 22:24:58.781348   359 net.cpp:84] Creating Layer relu6
I0407 22:24:58.781352   359 net.cpp:406] relu6 <- fc6
I0407 22:24:58.781359   359 net.cpp:367] relu6 -> fc6 (in-place)
I0407 22:24:58.782140   359 net.cpp:122] Setting up relu6
I0407 22:24:58.782151   359 net.cpp:129] Top shape: 128 4096 (524288)
I0407 22:24:58.782155   359 net.cpp:137] Memory required for data: 1055963136
I0407 22:24:58.782158   359 layer_factory.hpp:77] Creating layer drop6
I0407 22:24:58.782164   359 net.cpp:84] Creating Layer drop6
I0407 22:24:58.782167   359 net.cpp:406] drop6 <- fc6
I0407 22:24:58.782172   359 net.cpp:367] drop6 -> fc6 (in-place)
I0407 22:24:58.782200   359 net.cpp:122] Setting up drop6
I0407 22:24:58.782205   359 net.cpp:129] Top shape: 128 4096 (524288)
I0407 22:24:58.782207   359 net.cpp:137] Memory required for data: 1058060288
I0407 22:24:58.782210   359 layer_factory.hpp:77] Creating layer fc7
I0407 22:24:58.782218   359 net.cpp:84] Creating Layer fc7
I0407 22:24:58.782222   359 net.cpp:406] fc7 <- fc6
I0407 22:24:58.782225   359 net.cpp:380] fc7 -> fc7
I0407 22:24:58.941969   359 net.cpp:122] Setting up fc7
I0407 22:24:58.941987   359 net.cpp:129] Top shape: 128 4096 (524288)
I0407 22:24:58.941990   359 net.cpp:137] Memory required for data: 1060157440
I0407 22:24:58.941999   359 layer_factory.hpp:77] Creating layer relu7
I0407 22:24:58.942008   359 net.cpp:84] Creating Layer relu7
I0407 22:24:58.942011   359 net.cpp:406] relu7 <- fc7
I0407 22:24:58.942018   359 net.cpp:367] relu7 -> fc7 (in-place)
I0407 22:24:58.942502   359 net.cpp:122] Setting up relu7
I0407 22:24:58.942517   359 net.cpp:129] Top shape: 128 4096 (524288)
I0407 22:24:58.942519   359 net.cpp:137] Memory required for data: 1062254592
I0407 22:24:58.942523   359 layer_factory.hpp:77] Creating layer drop7
I0407 22:24:58.942529   359 net.cpp:84] Creating Layer drop7
I0407 22:24:58.942548   359 net.cpp:406] drop7 <- fc7
I0407 22:24:58.942554   359 net.cpp:367] drop7 -> fc7 (in-place)
I0407 22:24:58.942576   359 net.cpp:122] Setting up drop7
I0407 22:24:58.942581   359 net.cpp:129] Top shape: 128 4096 (524288)
I0407 22:24:58.942584   359 net.cpp:137] Memory required for data: 1064351744
I0407 22:24:58.942586   359 layer_factory.hpp:77] Creating layer fc8
I0407 22:24:58.942595   359 net.cpp:84] Creating Layer fc8
I0407 22:24:58.942597   359 net.cpp:406] fc8 <- fc7
I0407 22:24:58.942602   359 net.cpp:380] fc8 -> fc8
I0407 22:24:58.950403   359 net.cpp:122] Setting up fc8
I0407 22:24:58.950412   359 net.cpp:129] Top shape: 128 196 (25088)
I0407 22:24:58.950415   359 net.cpp:137] Memory required for data: 1064452096
I0407 22:24:58.950421   359 layer_factory.hpp:77] Creating layer loss
I0407 22:24:58.950428   359 net.cpp:84] Creating Layer loss
I0407 22:24:58.950431   359 net.cpp:406] loss <- fc8
I0407 22:24:58.950435   359 net.cpp:406] loss <- label
I0407 22:24:58.950441   359 net.cpp:380] loss -> loss
I0407 22:24:58.950449   359 layer_factory.hpp:77] Creating layer loss
…
I0407 22:24:58.951807   359 net.cpp:294] The NetState phase (1) differed from the phase (0) specified by a rule in layer train-data
I0407 22:24:58.951942   359 net.cpp:51] Initializing net from parameters:
state {
phase: TEST
}
layer {
name: "val-data"
type: "Data"
top: "data"
top: "label"
include {
phase: TEST
}
transform_param {
crop_size: 227
mean_file: "/mnt/bigdisk/DIGITS-TAM-1/digits/jobs/20210407-221849-d51c/mean.binaryproto"
}
data_param {
source: "/mnt/bigdisk/DIGITS-TAM-1/digits/jobs/20210407-221849-d51c/val_db"
batch_size: 32
backend: LMDB
}
}
layer {
name: "conv1"
type: "Convolution"
bottom: "data"
top: "conv1"
param {
lr_mult: 1
decay_mult: 1
}
param {
lr_mult: 2
decay_mult: 0
}
convolution_param {
num_output: 96
kernel_size: 11
stride: 4
weight_filler {
type: "gaussian"
std: 0.01
}
bias_filler {
type: "constant"
value: 0
}
}
}
layer {
name: "relu1"
type: "ReLU"
bottom: "conv1"
top: "conv1"
}
layer {
name: "norm1"
type: "LRN"
bottom: "conv1"
top: "norm1"
lrn_param {
local_size: 5
alpha: 0.0001
beta: 0.75
}
}
layer {
name: "pool1"
type: "Pooling"
bottom: "norm1"
top: "pool1"
pooling_param {
pool: MAX
kernel_size: 3
stride: 2
}
}
layer {
name: "conv2"
type: "Convolution"
bottom: "pool1"
top: "conv2"
param {
lr_mult: 1
decay_mult: 1
}
param {
lr_mult: 2
decay_mult: 0
}
convolution_param {
num_output: 256
pad: 2
kernel_size: 5
group: 2
weight_filler {
type: "gaussian"
std: 0.01
}
bias_filler {
type: "constant"
value: 0.1
}
}
}
layer {
name: "relu2"
type: "ReLU"
bottom: "conv2"
top: "conv2"
}
layer {
name: "norm2"
type: "LRN"
bottom: "conv2"
top: "norm2"
lrn_param {
local_size: 5
alpha: 0.0001
beta: 0.75
}
}
layer {
name: "pool2"
type: "Pooling"
bottom: "norm2"
top: "pool2"
pooling_param {
pool: MAX
kernel_size: 3
stride: 2
}
}
layer {
name: "conv3"
type: "Convolution"
bottom: "pool2"
top: "conv3"
param {
lr_mult: 1
decay_mult: 1
}
param {
lr_mult: 2
decay_mult: 0
}
convolution_param {
num_output: 384
pad: 1
kernel_size: 3
weight_filler {
type: "gaussian"
std: 0.01
}
bias_filler {
type: "constant"
value: 0
}
}
}
layer {
name: "relu3"
type: "ReLU"
bottom: "conv3"
top: "conv3"
}
layer {
name: "conv4"
type: "Convolution"
bottom: "conv3"
top: "conv4"
param {
lr_mult: 1
decay_mult: 1
}
param {
lr_mult: 2
decay_mult: 0
}
convolution_param {
num_output: 384
pad: 1
kernel_size: 3
group: 2
weight_filler {
type: "gaussian"
std: 0.01
}
bias_filler {
type: "constant"
value: 0.1
}
}
}
layer {
name: "relu4"
type: "ReLU"
bottom: "conv4"
top: "conv4"
}
layer {
name: "conv5"
type: "Convolution"
bottom: "conv4"
top: "conv5"
param {
lr_mult: 1
decay_mult: 1
}
param {
lr_mult: 2
decay_mult: 0
}
convolution_param {
num_output: 256
pad: 1
kernel_size: 3
group: 2
weight_filler {
type: "gaussian"
std: 0.01
}
bias_filler {
type: "constant"
value: 0.1
}
}
}
layer {
name: "relu5"
type: "ReLU"
bottom: "conv5"
top: "conv5"
}
layer {
name: "pool5"
type: "Pooling"
bottom: "conv5"
top: "pool5"
pooling_param {
pool: MAX
kernel_size: 3
stride: 2
}
}
layer {
name: "fc6"
type: "InnerProduct"
bottom: "pool5"
top: "fc6"
param {
lr_mult: 1
decay_mult: 1
}
param {
lr_mult: 2
decay_mult: 0
}
inner_product_param {
num_output: 4096
weight_filler {
type: "gaussian"
std: 0.005
}
bias_filler {
type: "constant"
value: 0.1
}
}
}
layer {
name: "relu6"
type: "ReLU"
bottom: "fc6"
top: "fc6"
}
layer {
name: "drop6"
type: "Dropout"
bottom: "fc6"
top: "fc6"
dropout_param {
dropout_ratio: 0.5
}
}
layer {
name: "fc7"
type: "InnerProduct"
bottom: "fc6"
top: "fc7"
param {
lr_mult: 1
decay_mult: 1
}
param {
lr_mult: 2
decay_mult: 0
}
inner_product_param {
num_output: 4096
weight_filler {
type: "gaussian"
std: 0.005
}
bias_filler {
type: "constant"
value: 0.1
}
}
}
layer {
name: "relu7"
type: "ReLU"
bottom: "fc7"
top: "fc7"
}
layer {
name: "drop7"
type: "Dropout"
bottom: "fc7"
top: "fc7"
dropout_param {
dropout_ratio: 0.5
}
}
layer {
name: "fc8"
type: "InnerProduct"
bottom: "fc7"
top: "fc8"
param {
lr_mult: 1
decay_mult: 1
}
param {
lr_mult: 2
decay_mult: 0
}
inner_product_param {
num_output: 196
weight_filler {
type: "gaussian"
std: 0.01
}
bias_filler {
type: "constant"
value: 0
}
}
}
layer {
name: "accuracy"
type: "Accuracy"
bottom: "fc8"
bottom: "label"
top: "accuracy"
include {
phase: TEST
}
}
layer {
name: "loss"
type: "SoftmaxWithLoss"
bottom: "fc8"
bottom: "label"
top: "loss"
}
I0407 22:24:58.952044   359 layer_factory.hpp:77] Creating layer val-data
I0407 22:24:58.953537   359 db_lmdb.cpp:35] Opened lmdb /mnt/bigdisk/DIGITS-TAM-1/digits/jobs/20210407-221849-d51c/val_db
I0407 22:24:58.954196   359 net.cpp:84] Creating Layer val-data
I0407 22:24:58.954207   359 net.cpp:380] val-data -> data
I0407 22:24:58.954216   359 net.cpp:380] val-data -> label
I0407 22:24:58.954221   359 data_transformer.cpp:25] Loading mean file from: /mnt/bigdisk/DIGITS-TAM-1/digits/jobs/20210407-221849-d51c/mean.binaryproto
I0407 22:24:58.957778   359 data_layer.cpp:45] output data size: 32,3,227,227
I0407 22:24:58.991655   359 net.cpp:122] Setting up val-data
I0407 22:24:58.991675   359 net.cpp:129] Top shape: 32 3 227 227 (4946784)
I0407 22:24:58.991679   359 net.cpp:129] Top shape: 32 (32)
I0407 22:24:58.991683   359 net.cpp:137] Memory required for data: 19787264
I0407 22:24:58.991688   359 layer_factory.hpp:77] Creating layer label_val-data_1_split
I0407 22:24:58.991699   359 net.cpp:84] Creating Layer label_val-data_1_split
I0407 22:24:58.991703   359 net.cpp:406] label_val-data_1_split <- label
I0407 22:24:58.991708   359 net.cpp:380] label_val-data_1_split -> label_val-data_1_split_0
I0407 22:24:58.991717   359 net.cpp:380] label_val-data_1_split -> label_val-data_1_split_1
I0407 22:24:58.991762   359 net.cpp:122] Setting up label_val-data_1_split
I0407 22:24:58.991768   359 net.cpp:129] Top shape: 32 (32)
I0407 22:24:58.991771   359 net.cpp:129] Top shape: 32 (32)
I0407 22:24:58.991773   359 net.cpp:137] Memory required for data: 19787520
I0407 22:24:58.991776   359 layer_factory.hpp:77] Creating layer conv1
I0407 22:24:58.991787   359 net.cpp:84] Creating Layer conv1
I0407 22:24:58.991789   359 net.cpp:406] conv1 <- data
I0407 22:24:58.991794   359 net.cpp:380] conv1 -> conv1
I0407 22:24:58.994642   359 net.cpp:122] Setting up conv1
I0407 22:24:58.994653   359 net.cpp:129] Top shape: 32 96 55 55 (9292800)
I0407 22:24:58.994657   359 net.cpp:137] Memory required for data: 56958720
I0407 22:24:58.994665   359 layer_factory.hpp:77] Creating layer relu1
I0407 22:24:58.994671   359 net.cpp:84] Creating Layer relu1
I0407 22:24:58.994674   359 net.cpp:406] relu1 <- conv1
I0407 22:24:58.994679   359 net.cpp:367] relu1 -> conv1 (in-place)
I0407 22:24:58.995002   359 net.cpp:122] Setting up relu1
I0407 22:24:58.995012   359 net.cpp:129] Top shape: 32 96 55 55 (9292800)
I0407 22:24:58.995014   359 net.cpp:137] Memory required for data: 94129920
I0407 22:24:58.995018   359 layer_factory.hpp:77] Creating layer norm1
I0407 22:24:58.995024   359 net.cpp:84] Creating Layer norm1
I0407 22:24:58.995028   359 net.cpp:406] norm1 <- conv1
I0407 22:24:58.995033   359 net.cpp:380] norm1 -> norm1
I0407 22:24:58.995978   359 net.cpp:122] Setting up norm1
I0407 22:24:58.995988   359 net.cpp:129] Top shape: 32 96 55 55 (9292800)
I0407 22:24:58.995990   359 net.cpp:137] Memory required for data: 131301120
I0407 22:24:58.995995   359 layer_factory.hpp:77] Creating layer pool1
I0407 22:24:58.996001   359 net.cpp:84] Creating Layer pool1
I0407 22:24:58.996003   359 net.cpp:406] pool1 <- norm1
I0407 22:24:58.996008   359 net.cpp:380] pool1 -> pool1
I0407 22:24:58.996034   359 net.cpp:122] Setting up pool1
I0407 22:24:58.996039   359 net.cpp:129] Top shape: 32 96 27 27 (2239488)
I0407 22:24:58.996042   359 net.cpp:137] Memory required for data: 140259072
I0407 22:24:58.996044   359 layer_factory.hpp:77] Creating layer conv2
I0407 22:24:58.996052   359 net.cpp:84] Creating Layer conv2
I0407 22:24:58.996054   359 net.cpp:406] conv2 <- pool1
I0407 22:24:58.996076   359 net.cpp:380] conv2 -> conv2
I0407 22:24:59.004604   359 net.cpp:122] Setting up conv2
I0407 22:24:59.004626   359 net.cpp:129] Top shape: 32 256 27 27 (5971968)
I0407 22:24:59.004629   359 net.cpp:137] Memory required for data: 164146944
I0407 22:24:59.004640   359 layer_factory.hpp:77] Creating layer relu2
I0407 22:24:59.004648   359 net.cpp:84] Creating Layer relu2
I0407 22:24:59.004652   359 net.cpp:406] relu2 <- conv2
I0407 22:24:59.004657   359 net.cpp:367] relu2 -> conv2 (in-place)
I0407 22:24:59.005244   359 net.cpp:122] Setting up relu2
I0407 22:24:59.005254   359 net.cpp:129] Top shape: 32 256 27 27 (5971968)
I0407 22:24:59.005256   359 net.cpp:137] Memory required for data: 188034816
I0407 22:24:59.005259   359 layer_factory.hpp:77] Creating layer norm2
I0407 22:24:59.005270   359 net.cpp:84] Creating Layer norm2
I0407 22:24:59.005272   359 net.cpp:406] norm2 <- conv2
I0407 22:24:59.005277   359 net.cpp:380] norm2 -> norm2
I0407 22:24:59.006044   359 net.cpp:122] Setting up norm2
I0407 22:24:59.006053   359 net.cpp:129] Top shape: 32 256 27 27 (5971968)
I0407 22:24:59.006057   359 net.cpp:137] Memory required for data: 211922688
I0407 22:24:59.006060   359 layer_factory.hpp:77] Creating layer pool2
I0407 22:24:59.006067   359 net.cpp:84] Creating Layer pool2
I0407 22:24:59.006070   359 net.cpp:406] pool2 <- norm2
I0407 22:24:59.006078   359 net.cpp:380] pool2 -> pool2
I0407 22:24:59.006105   359 net.cpp:122] Setting up pool2
I0407 22:24:59.006111   359 net.cpp:129] Top shape: 32 256 13 13 (1384448)
I0407 22:24:59.006114   359 net.cpp:137] Memory required for data: 217460480
I0407 22:24:59.006116   359 layer_factory.hpp:77] Creating layer conv3
I0407 22:24:59.006126   359 net.cpp:84] Creating Layer conv3
I0407 22:24:59.006129   359 net.cpp:406] conv3 <- pool2
I0407 22:24:59.006135   359 net.cpp:380] conv3 -> conv3
I0407 22:24:59.018026   359 net.cpp:122] Setting up conv3
I0407 22:24:59.018043   359 net.cpp:129] Top shape: 32 384 13 13 (2076672)
I0407 22:24:59.018045   359 net.cpp:137] Memory required for data: 225767168
I0407 22:24:59.018056   359 layer_factory.hpp:77] Creating layer relu3
I0407 22:24:59.018066   359 net.cpp:84] Creating Layer relu3
I0407 22:24:59.018069   359 net.cpp:406] relu3 <- conv3
I0407 22:24:59.018075   359 net.cpp:367] relu3 -> conv3 (in-place)
I0407 22:24:59.018676   359 net.cpp:122] Setting up relu3
I0407 22:24:59.018685   359 net.cpp:129] Top shape: 32 384 13 13 (2076672)
I0407 22:24:59.018688   359 net.cpp:137] Memory required for data: 234073856
I0407 22:24:59.018692   359 layer_factory.hpp:77] Creating layer conv4
I0407 22:24:59.018702   359 net.cpp:84] Creating Layer conv4
I0407 22:24:59.018705   359 net.cpp:406] conv4 <- conv3
I0407 22:24:59.018712   359 net.cpp:380] conv4 -> conv4
I0407 22:24:59.029397   359 net.cpp:122] Setting up conv4
I0407 22:24:59.029410   359 net.cpp:129] Top shape: 32 384 13 13 (2076672)
I0407 22:24:59.029414   359 net.cpp:137] Memory required for data: 242380544
I0407 22:24:59.029422   359 layer_factory.hpp:77] Creating layer relu4
I0407 22:24:59.029428   359 net.cpp:84] Creating Layer relu4
I0407 22:24:59.029431   359 net.cpp:406] relu4 <- conv4
I0407 22:24:59.029438   359 net.cpp:367] relu4 -> conv4 (in-place)
I0407 22:24:59.029821   359 net.cpp:122] Setting up relu4
I0407 22:24:59.029830   359 net.cpp:129] Top shape: 32 384 13 13 (2076672)
I0407 22:24:59.029832   359 net.cpp:137] Memory required for data: 250687232
I0407 22:24:59.029835   359 layer_factory.hpp:77] Creating layer conv5
I0407 22:24:59.029846   359 net.cpp:84] Creating Layer conv5
I0407 22:24:59.029850   359 net.cpp:406] conv5 <- conv4
I0407 22:24:59.029856   359 net.cpp:380] conv5 -> conv5
I0407 22:24:59.039891   359 net.cpp:122] Setting up conv5
I0407 22:24:59.039907   359 net.cpp:129] Top shape: 32 256 13 13 (1384448)
I0407 22:24:59.039911   359 net.cpp:137] Memory required for data: 256225024
I0407 22:24:59.039922   359 layer_factory.hpp:77] Creating layer relu5
I0407 22:24:59.039929   359 net.cpp:84] Creating Layer relu5
I0407 22:24:59.039948   359 net.cpp:406] relu5 <- conv5
I0407 22:24:59.039954   359 net.cpp:367] relu5 -> conv5 (in-place)
I0407 22:24:59.040582   359 net.cpp:122] Setting up relu5
I0407 22:24:59.040592   359 net.cpp:129] Top shape: 32 256 13 13 (1384448)
I0407 22:24:59.040596   359 net.cpp:137] Memory required for data: 261762816
I0407 22:24:59.040598   359 layer_factory.hpp:77] Creating layer pool5
I0407 22:24:59.040608   359 net.cpp:84] Creating Layer pool5
I0407 22:24:59.040611   359 net.cpp:406] pool5 <- conv5
I0407 22:24:59.040616   359 net.cpp:380] pool5 -> pool5
I0407 22:24:59.040652   359 net.cpp:122] Setting up pool5
I0407 22:24:59.040657   359 net.cpp:129] Top shape: 32 256 6 6 (294912)
I0407 22:24:59.040659   359 net.cpp:137] Memory required for data: 262942464
I0407 22:24:59.040663   359 layer_factory.hpp:77] Creating layer fc6
I0407 22:24:59.040670   359 net.cpp:84] Creating Layer fc6
I0407 22:24:59.040673   359 net.cpp:406] fc6 <- pool5
I0407 22:24:59.040678   359 net.cpp:380] fc6 -> fc6
I0407 22:24:59.399106   359 net.cpp:122] Setting up fc6
I0407 22:24:59.399128   359 net.cpp:129] Top shape: 32 4096 (131072)
I0407 22:24:59.399132   359 net.cpp:137] Memory required for data: 263466752
I0407 22:24:59.399140   359 layer_factory.hpp:77] Creating layer relu6
I0407 22:24:59.399152   359 net.cpp:84] Creating Layer relu6
I0407 22:24:59.399154   359 net.cpp:406] relu6 <- fc6
I0407 22:24:59.399160   359 net.cpp:367] relu6 -> fc6 (in-place)
I0407 22:24:59.399969   359 net.cpp:122] Setting up relu6
I0407 22:24:59.399978   359 net.cpp:129] Top shape: 32 4096 (131072)
I0407 22:24:59.399981   359 net.cpp:137] Memory required for data: 263991040
I0407 22:24:59.399984   359 layer_factory.hpp:77] Creating layer drop6
I0407 22:24:59.399991   359 net.cpp:84] Creating Layer drop6
I0407 22:24:59.399994   359 net.cpp:406] drop6 <- fc6
I0407 22:24:59.400000   359 net.cpp:367] drop6 -> fc6 (in-place)
I0407 22:24:59.400023   359 net.cpp:122] Setting up drop6
I0407 22:24:59.400028   359 net.cpp:129] Top shape: 32 4096 (131072)
I0407 22:24:59.400032   359 net.cpp:137] Memory required for data: 264515328
I0407 22:24:59.400033   359 layer_factory.hpp:77] Creating layer fc7
I0407 22:24:59.400040   359 net.cpp:84] Creating Layer fc7
I0407 22:24:59.400043   359 net.cpp:406] fc7 <- fc6
I0407 22:24:59.400048   359 net.cpp:380] fc7 -> fc7
I0407 22:24:59.559554   359 net.cpp:122] Setting up fc7
I0407 22:24:59.559576   359 net.cpp:129] Top shape: 32 4096 (131072)
I0407 22:24:59.559579   359 net.cpp:137] Memory required for data: 265039616
I0407 22:24:59.559588   359 layer_factory.hpp:77] Creating layer relu7
I0407 22:24:59.559597   359 net.cpp:84] Creating Layer relu7
I0407 22:24:59.559599   359 net.cpp:406] relu7 <- fc7
I0407 22:24:59.559605   359 net.cpp:367] relu7 -> fc7 (in-place)
I0407 22:24:59.560138   359 net.cpp:122] Setting up relu7
I0407 22:24:59.560149   359 net.cpp:129] Top shape: 32 4096 (131072)
I0407 22:24:59.560153   359 net.cpp:137] Memory required for data: 265563904
I0407 22:24:59.560155   359 layer_factory.hpp:77] Creating layer drop7
I0407 22:24:59.560161   359 net.cpp:84] Creating Layer drop7
I0407 22:24:59.560164   359 net.cpp:406] drop7 <- fc7
I0407 22:24:59.560169   359 net.cpp:367] drop7 -> fc7 (in-place)
I0407 22:24:59.560194   359 net.cpp:122] Setting up drop7
I0407 22:24:59.560199   359 net.cpp:129] Top shape: 32 4096 (131072)
I0407 22:24:59.560202   359 net.cpp:137] Memory required for data: 266088192
I0407 22:24:59.560204   359 layer_factory.hpp:77] Creating layer fc8
I0407 22:24:59.560211   359 net.cpp:84] Creating Layer fc8
I0407 22:24:59.560214   359 net.cpp:406] fc8 <- fc7
I0407 22:24:59.560218   359 net.cpp:380] fc8 -> fc8
I0407 22:24:59.568007   359 net.cpp:122] Setting up fc8
I0407 22:24:59.568018   359 net.cpp:129] Top shape: 32 196 (6272)
I0407 22:24:59.568020   359 net.cpp:137] Memory required for data: 266113280
I0407 22:24:59.568027   359 layer_factory.hpp:77] Creating layer fc8_fc8_0_split
I0407 22:24:59.568032   359 net.cpp:84] Creating Layer fc8_fc8_0_split
I0407 22:24:59.568035   359 net.cpp:406] fc8_fc8_0_split <- fc8
I0407 22:24:59.568056   359 net.cpp:380] fc8_fc8_0_split -> fc8_fc8_0_split_0
I0407 22:24:59.568063   359 net.cpp:380] fc8_fc8_0_split -> fc8_fc8_0_split_1
I0407 22:24:59.568091   359 net.cpp:122] Setting up fc8_fc8_0_split
I0407 22:24:59.568095   359 net.cpp:129] Top shape: 32 196 (6272)
I0407 22:24:59.568099   359 net.cpp:129] Top shape: 32 196 (6272)
I0407 22:24:59.568101   359 net.cpp:137] Memory required for data: 266163456
I0407 22:24:59.568104   359 layer_factory.hpp:77] Creating layer accuracy
I0407 22:24:59.568111   359 net.cpp:84] Creating Layer accuracy
I0407 22:24:59.568114   359 net.cpp:406] accuracy <- fc8_fc8_0_split_0
I0407 22:24:59.568117   359 net.cpp:406] accuracy <- label_val-data_1_split_0
I0407 22:24:59.568122   359 net.cpp:380] accuracy -> accuracy
…
