…
I0405 08:36:15.711503 30176 net.cpp:294] The NetState phase (0) differed from the phase (1) specified by a rule in layer accuracy
I0405 08:36:15.711628 30176 net.cpp:51] Initializing net from parameters:
state {
phase: TRAIN
level: 0
stage: ""
}
layer {
name: "train-data"
type: "Data"
top: "data"
top: "label"
include {
phase: TRAIN
}
transform_param {
mirror: true
crop_size: 227
mean_file: "/mnt/bigdisk/DIGITS-AIN-3/digits/jobs/20210401-115716-aaf7/mean.binaryproto"
}
data_param {
source: "/mnt/bigdisk/DIGITS-AIN-3/digits/jobs/20210401-115716-aaf7/train_db"
batch_size: 128
backend: LMDB
}
}
layer {
name: "conv1"
type: "Convolution"
bottom: "data"
top: "conv1"
param {
lr_mult: 1
decay_mult: 1
}
param {
lr_mult: 2
decay_mult: 0
}
convolution_param {
num_output: 96
kernel_size: 11
stride: 4
weight_filler {
type: "gaussian"
std: 0.01
}
bias_filler {
type: "constant"
value: 0
}
}
}
layer {
name: "relu1"
type: "ReLU"
bottom: "conv1"
top: "conv1"
}
layer {
name: "norm1"
type: "LRN"
bottom: "conv1"
top: "norm1"
lrn_param {
local_size: 5
alpha: 0.0001
beta: 0.75
}
}
layer {
name: "pool1"
type: "Pooling"
bottom: "norm1"
top: "pool1"
pooling_param {
pool: MAX
kernel_size: 3
stride: 2
}
}
layer {
name: "conv2"
type: "Convolution"
bottom: "pool1"
top: "conv2"
param {
lr_mult: 1
decay_mult: 1
}
param {
lr_mult: 2
decay_mult: 0
}
convolution_param {
num_output: 256
pad: 2
kernel_size: 5
group: 2
weight_filler {
type: "gaussian"
std: 0.01
}
bias_filler {
type: "constant"
value: 0.1
}
}
}
layer {
name: "relu2"
type: "ReLU"
bottom: "conv2"
top: "conv2"
}
layer {
name: "norm2"
type: "LRN"
bottom: "conv2"
top: "norm2"
lrn_param {
local_size: 5
alpha: 0.0001
beta: 0.75
}
}
layer {
name: "pool2"
type: "Pooling"
bottom: "norm2"
top: "pool2"
pooling_param {
pool: MAX
kernel_size: 3
stride: 2
}
}
layer {
name: "conv3"
type: "Convolution"
bottom: "pool2"
top: "conv3"
param {
lr_mult: 1
decay_mult: 1
}
param {
lr_mult: 2
decay_mult: 0
}
convolution_param {
num_output: 384
pad: 1
kernel_size: 3
weight_filler {
type: "gaussian"
std: 0.01
}
bias_filler {
type: "constant"
value: 0
}
}
}
layer {
name: "relu3"
type: "ReLU"
bottom: "conv3"
top: "conv3"
}
layer {
name: "conv4"
type: "Convolution"
bottom: "conv3"
top: "conv4"
param {
lr_mult: 1
decay_mult: 1
}
param {
lr_mult: 2
decay_mult: 0
}
convolution_param {
num_output: 384
pad: 1
kernel_size: 3
group: 2
weight_filler {
type: "gaussian"
std: 0.01
}
bias_filler {
type: "constant"
value: 0.1
}
}
}
layer {
name: "relu4"
type: "ReLU"
bottom: "conv4"
top: "conv4"
}
layer {
name: "conv5"
type: "Convolution"
bottom: "conv4"
top: "conv5"
param {
lr_mult: 1
decay_mult: 1
}
param {
lr_mult: 2
decay_mult: 0
}
convolution_param {
num_output: 256
pad: 1
kernel_size: 3
group: 2
weight_filler {
type: "gaussian"
std: 0.01
}
bias_filler {
type: "constant"
value: 0.1
}
}
}
layer {
name: "relu5"
type: "ReLU"
bottom: "conv5"
top: "conv5"
}
layer {
name: "pool5"
type: "Pooling"
bottom: "conv5"
top: "pool5"
pooling_param {
pool: MAX
kernel_size: 3
stride: 2
}
}
layer {
name: "fc6"
type: "InnerProduct"
bottom: "pool5"
top: "fc6"
param {
lr_mult: 1
decay_mult: 1
}
param {
lr_mult: 2
decay_mult: 0
}
inner_product_param {
num_output: 4096
weight_filler {
type: "gaussian"
std: 0.005
}
bias_filler {
type: "constant"
value: 0.1
}
}
}
layer {
name: "relu6"
type: "ReLU"
bottom: "fc6"
top: "fc6"
}
layer {
name: "drop6"
type: "Dropout"
bottom: "fc6"
top: "fc6"
dropout_param {
dropout_ratio: 0.5
}
}
layer {
name: "fc7"
type: "InnerProduct"
bottom: "fc6"
top: "fc7"
param {
lr_mult: 1
decay_mult: 1
}
param {
lr_mult: 2
decay_mult: 0
}
inner_product_param {
num_output: 4096
weight_filler {
type: "gaussian"
std: 0.005
}
bias_filler {
type: "constant"
value: 0.1
}
}
}
layer {
name: "relu7"
type: "ReLU"
bottom: "fc7"
top: "fc7"
}
layer {
name: "drop7"
type: "Dropout"
bottom: "fc7"
top: "fc7"
dropout_param {
dropout_ratio: 0.5
}
}
layer {
name: "fc8"
type: "InnerProduct"
bottom: "fc7"
top: "fc8"
param {
lr_mult: 1
decay_mult: 1
}
param {
lr_mult: 2
decay_mult: 0
}
inner_product_param {
num_output: 196
weight_filler {
type: "gaussian"
std: 0.01
}
bias_filler {
type: "constant"
value: 0
}
}
}
layer {
name: "loss"
type: "SoftmaxWithLoss"
bottom: "fc8"
bottom: "label"
top: "loss"
}
I0405 08:36:15.711707 30176 layer_factory.hpp:77] Creating layer train-data
I0405 08:36:15.714818 30176 db_lmdb.cpp:35] Opened lmdb /mnt/bigdisk/DIGITS-AIN-3/digits/jobs/20210401-115716-aaf7/train_db
I0405 08:36:15.715068 30176 net.cpp:84] Creating Layer train-data
I0405 08:36:15.715086 30176 net.cpp:380] train-data -> data
I0405 08:36:15.715114 30176 net.cpp:380] train-data -> label
I0405 08:36:15.715128 30176 data_transformer.cpp:25] Loading mean file from: /mnt/bigdisk/DIGITS-AIN-3/digits/jobs/20210401-115716-aaf7/mean.binaryproto
I0405 08:36:15.720026 30176 data_layer.cpp:45] output data size: 128,3,227,227
I0405 08:36:15.864374 30176 net.cpp:122] Setting up train-data
I0405 08:36:15.864398 30176 net.cpp:129] Top shape: 128 3 227 227 (19787136)
I0405 08:36:15.864401 30176 net.cpp:129] Top shape: 128 (128)
I0405 08:36:15.864404 30176 net.cpp:137] Memory required for data: 79149056
I0405 08:36:15.864413 30176 layer_factory.hpp:77] Creating layer conv1
I0405 08:36:15.864432 30176 net.cpp:84] Creating Layer conv1
I0405 08:36:15.864437 30176 net.cpp:406] conv1 <- data
I0405 08:36:15.864449 30176 net.cpp:380] conv1 -> conv1
I0405 08:36:16.329130 30176 net.cpp:122] Setting up conv1
I0405 08:36:16.329151 30176 net.cpp:129] Top shape: 128 96 55 55 (37171200)
I0405 08:36:16.329154 30176 net.cpp:137] Memory required for data: 227833856
I0405 08:36:16.329174 30176 layer_factory.hpp:77] Creating layer relu1
I0405 08:36:16.329202 30176 net.cpp:84] Creating Layer relu1
I0405 08:36:16.329205 30176 net.cpp:406] relu1 <- conv1
I0405 08:36:16.329210 30176 net.cpp:367] relu1 -> conv1 (in-place)
I0405 08:36:16.329502 30176 net.cpp:122] Setting up relu1
I0405 08:36:16.329511 30176 net.cpp:129] Top shape: 128 96 55 55 (37171200)
I0405 08:36:16.329514 30176 net.cpp:137] Memory required for data: 376518656
I0405 08:36:16.329516 30176 layer_factory.hpp:77] Creating layer norm1
I0405 08:36:16.329524 30176 net.cpp:84] Creating Layer norm1
I0405 08:36:16.329528 30176 net.cpp:406] norm1 <- conv1
I0405 08:36:16.329551 30176 net.cpp:380] norm1 -> norm1
I0405 08:36:16.330045 30176 net.cpp:122] Setting up norm1
I0405 08:36:16.330054 30176 net.cpp:129] Top shape: 128 96 55 55 (37171200)
I0405 08:36:16.330056 30176 net.cpp:137] Memory required for data: 525203456
I0405 08:36:16.330060 30176 layer_factory.hpp:77] Creating layer pool1
I0405 08:36:16.330067 30176 net.cpp:84] Creating Layer pool1
I0405 08:36:16.330070 30176 net.cpp:406] pool1 <- norm1
I0405 08:36:16.330075 30176 net.cpp:380] pool1 -> pool1
I0405 08:36:16.330108 30176 net.cpp:122] Setting up pool1
I0405 08:36:16.330113 30176 net.cpp:129] Top shape: 128 96 27 27 (8957952)
I0405 08:36:16.330116 30176 net.cpp:137] Memory required for data: 561035264
I0405 08:36:16.330117 30176 layer_factory.hpp:77] Creating layer conv2
I0405 08:36:16.330127 30176 net.cpp:84] Creating Layer conv2
I0405 08:36:16.330130 30176 net.cpp:406] conv2 <- pool1
I0405 08:36:16.330135 30176 net.cpp:380] conv2 -> conv2
I0405 08:36:16.336133 30176 net.cpp:122] Setting up conv2
I0405 08:36:16.336154 30176 net.cpp:129] Top shape: 128 256 27 27 (23887872)
I0405 08:36:16.336158 30176 net.cpp:137] Memory required for data: 656586752
I0405 08:36:16.336169 30176 layer_factory.hpp:77] Creating layer relu2
I0405 08:36:16.336175 30176 net.cpp:84] Creating Layer relu2
I0405 08:36:16.336181 30176 net.cpp:406] relu2 <- conv2
I0405 08:36:16.336186 30176 net.cpp:367] relu2 -> conv2 (in-place)
I0405 08:36:16.336656 30176 net.cpp:122] Setting up relu2
I0405 08:36:16.336664 30176 net.cpp:129] Top shape: 128 256 27 27 (23887872)
I0405 08:36:16.336666 30176 net.cpp:137] Memory required for data: 752138240
I0405 08:36:16.336669 30176 layer_factory.hpp:77] Creating layer norm2
I0405 08:36:16.336676 30176 net.cpp:84] Creating Layer norm2
I0405 08:36:16.336679 30176 net.cpp:406] norm2 <- conv2
I0405 08:36:16.336683 30176 net.cpp:380] norm2 -> norm2
I0405 08:36:16.337020 30176 net.cpp:122] Setting up norm2
I0405 08:36:16.337028 30176 net.cpp:129] Top shape: 128 256 27 27 (23887872)
I0405 08:36:16.337030 30176 net.cpp:137] Memory required for data: 847689728
I0405 08:36:16.337033 30176 layer_factory.hpp:77] Creating layer pool2
I0405 08:36:16.337040 30176 net.cpp:84] Creating Layer pool2
I0405 08:36:16.337044 30176 net.cpp:406] pool2 <- norm2
I0405 08:36:16.337047 30176 net.cpp:380] pool2 -> pool2
I0405 08:36:16.337074 30176 net.cpp:122] Setting up pool2
I0405 08:36:16.337077 30176 net.cpp:129] Top shape: 128 256 13 13 (5537792)
I0405 08:36:16.337080 30176 net.cpp:137] Memory required for data: 869840896
I0405 08:36:16.337081 30176 layer_factory.hpp:77] Creating layer conv3
I0405 08:36:16.337092 30176 net.cpp:84] Creating Layer conv3
I0405 08:36:16.337095 30176 net.cpp:406] conv3 <- pool2
I0405 08:36:16.337098 30176 net.cpp:380] conv3 -> conv3
I0405 08:36:16.347095 30176 net.cpp:122] Setting up conv3
I0405 08:36:16.347112 30176 net.cpp:129] Top shape: 128 384 13 13 (8306688)
I0405 08:36:16.347115 30176 net.cpp:137] Memory required for data: 903067648
I0405 08:36:16.347127 30176 layer_factory.hpp:77] Creating layer relu3
I0405 08:36:16.347136 30176 net.cpp:84] Creating Layer relu3
I0405 08:36:16.347138 30176 net.cpp:406] relu3 <- conv3
I0405 08:36:16.347143 30176 net.cpp:367] relu3 -> conv3 (in-place)
I0405 08:36:16.347621 30176 net.cpp:122] Setting up relu3
I0405 08:36:16.347630 30176 net.cpp:129] Top shape: 128 384 13 13 (8306688)
I0405 08:36:16.347632 30176 net.cpp:137] Memory required for data: 936294400
I0405 08:36:16.347635 30176 layer_factory.hpp:77] Creating layer conv4
I0405 08:36:16.347645 30176 net.cpp:84] Creating Layer conv4
I0405 08:36:16.347648 30176 net.cpp:406] conv4 <- conv3
I0405 08:36:16.347653 30176 net.cpp:380] conv4 -> conv4
I0405 08:36:16.357033 30176 net.cpp:122] Setting up conv4
I0405 08:36:16.357049 30176 net.cpp:129] Top shape: 128 384 13 13 (8306688)
I0405 08:36:16.357053 30176 net.cpp:137] Memory required for data: 969521152
I0405 08:36:16.357061 30176 layer_factory.hpp:77] Creating layer relu4
I0405 08:36:16.357070 30176 net.cpp:84] Creating Layer relu4
I0405 08:36:16.357074 30176 net.cpp:406] relu4 <- conv4
I0405 08:36:16.357095 30176 net.cpp:367] relu4 -> conv4 (in-place)
I0405 08:36:16.357411 30176 net.cpp:122] Setting up relu4
I0405 08:36:16.357419 30176 net.cpp:129] Top shape: 128 384 13 13 (8306688)
I0405 08:36:16.357421 30176 net.cpp:137] Memory required for data: 1002747904
I0405 08:36:16.357424 30176 layer_factory.hpp:77] Creating layer conv5
I0405 08:36:16.357434 30176 net.cpp:84] Creating Layer conv5
I0405 08:36:16.357435 30176 net.cpp:406] conv5 <- conv4
I0405 08:36:16.357441 30176 net.cpp:380] conv5 -> conv5
I0405 08:36:16.364828 30176 net.cpp:122] Setting up conv5
I0405 08:36:16.364847 30176 net.cpp:129] Top shape: 128 256 13 13 (5537792)
I0405 08:36:16.364850 30176 net.cpp:137] Memory required for data: 1024899072
I0405 08:36:16.364862 30176 layer_factory.hpp:77] Creating layer relu5
I0405 08:36:16.364871 30176 net.cpp:84] Creating Layer relu5
I0405 08:36:16.364874 30176 net.cpp:406] relu5 <- conv5
I0405 08:36:16.364879 30176 net.cpp:367] relu5 -> conv5 (in-place)
I0405 08:36:16.365423 30176 net.cpp:122] Setting up relu5
I0405 08:36:16.365432 30176 net.cpp:129] Top shape: 128 256 13 13 (5537792)
I0405 08:36:16.365434 30176 net.cpp:137] Memory required for data: 1047050240
I0405 08:36:16.365437 30176 layer_factory.hpp:77] Creating layer pool5
I0405 08:36:16.365445 30176 net.cpp:84] Creating Layer pool5
I0405 08:36:16.365448 30176 net.cpp:406] pool5 <- conv5
I0405 08:36:16.365453 30176 net.cpp:380] pool5 -> pool5
I0405 08:36:16.365487 30176 net.cpp:122] Setting up pool5
I0405 08:36:16.365491 30176 net.cpp:129] Top shape: 128 256 6 6 (1179648)
I0405 08:36:16.365494 30176 net.cpp:137] Memory required for data: 1051768832
I0405 08:36:16.365496 30176 layer_factory.hpp:77] Creating layer fc6
I0405 08:36:16.365504 30176 net.cpp:84] Creating Layer fc6
I0405 08:36:16.365507 30176 net.cpp:406] fc6 <- pool5
I0405 08:36:16.365512 30176 net.cpp:380] fc6 -> fc6
I0405 08:36:16.702841 30176 net.cpp:122] Setting up fc6
I0405 08:36:16.702859 30176 net.cpp:129] Top shape: 128 4096 (524288)
I0405 08:36:16.702862 30176 net.cpp:137] Memory required for data: 1053865984
I0405 08:36:16.702870 30176 layer_factory.hpp:77] Creating layer relu6
I0405 08:36:16.702878 30176 net.cpp:84] Creating Layer relu6
I0405 08:36:16.702881 30176 net.cpp:406] relu6 <- fc6
I0405 08:36:16.702888 30176 net.cpp:367] relu6 -> fc6 (in-place)
I0405 08:36:16.703572 30176 net.cpp:122] Setting up relu6
I0405 08:36:16.703581 30176 net.cpp:129] Top shape: 128 4096 (524288)
I0405 08:36:16.703583 30176 net.cpp:137] Memory required for data: 1055963136
I0405 08:36:16.703586 30176 layer_factory.hpp:77] Creating layer drop6
I0405 08:36:16.703593 30176 net.cpp:84] Creating Layer drop6
I0405 08:36:16.703596 30176 net.cpp:406] drop6 <- fc6
I0405 08:36:16.703599 30176 net.cpp:367] drop6 -> fc6 (in-place)
I0405 08:36:16.703625 30176 net.cpp:122] Setting up drop6
I0405 08:36:16.703629 30176 net.cpp:129] Top shape: 128 4096 (524288)
I0405 08:36:16.703631 30176 net.cpp:137] Memory required for data: 1058060288
I0405 08:36:16.703634 30176 layer_factory.hpp:77] Creating layer fc7
I0405 08:36:16.703639 30176 net.cpp:84] Creating Layer fc7
I0405 08:36:16.703641 30176 net.cpp:406] fc7 <- fc6
I0405 08:36:16.703646 30176 net.cpp:380] fc7 -> fc7
I0405 08:36:16.851491 30176 net.cpp:122] Setting up fc7
I0405 08:36:16.851509 30176 net.cpp:129] Top shape: 128 4096 (524288)
I0405 08:36:16.851512 30176 net.cpp:137] Memory required for data: 1060157440
I0405 08:36:16.851521 30176 layer_factory.hpp:77] Creating layer relu7
I0405 08:36:16.851528 30176 net.cpp:84] Creating Layer relu7
I0405 08:36:16.851531 30176 net.cpp:406] relu7 <- fc7
I0405 08:36:16.851536 30176 net.cpp:367] relu7 -> fc7 (in-place)
I0405 08:36:16.851905 30176 net.cpp:122] Setting up relu7
I0405 08:36:16.851912 30176 net.cpp:129] Top shape: 128 4096 (524288)
I0405 08:36:16.851914 30176 net.cpp:137] Memory required for data: 1062254592
I0405 08:36:16.851917 30176 layer_factory.hpp:77] Creating layer drop7
I0405 08:36:16.851922 30176 net.cpp:84] Creating Layer drop7
I0405 08:36:16.851925 30176 net.cpp:406] drop7 <- fc7
I0405 08:36:16.851946 30176 net.cpp:367] drop7 -> fc7 (in-place)
I0405 08:36:16.851966 30176 net.cpp:122] Setting up drop7
I0405 08:36:16.851971 30176 net.cpp:129] Top shape: 128 4096 (524288)
I0405 08:36:16.851974 30176 net.cpp:137] Memory required for data: 1064351744
I0405 08:36:16.851975 30176 layer_factory.hpp:77] Creating layer fc8
I0405 08:36:16.851982 30176 net.cpp:84] Creating Layer fc8
I0405 08:36:16.851984 30176 net.cpp:406] fc8 <- fc7
I0405 08:36:16.851989 30176 net.cpp:380] fc8 -> fc8
I0405 08:36:16.859177 30176 net.cpp:122] Setting up fc8
I0405 08:36:16.859197 30176 net.cpp:129] Top shape: 128 196 (25088)
I0405 08:36:16.859200 30176 net.cpp:137] Memory required for data: 1064452096
I0405 08:36:16.859207 30176 layer_factory.hpp:77] Creating layer loss
I0405 08:36:16.859216 30176 net.cpp:84] Creating Layer loss
I0405 08:36:16.859220 30176 net.cpp:406] loss <- fc8
I0405 08:36:16.859223 30176 net.cpp:406] loss <- label
I0405 08:36:16.859228 30176 net.cpp:380] loss -> loss
I0405 08:36:16.859238 30176 layer_factory.hpp:77] Creating layer loss
…
I0405 08:36:16.860607 30176 net.cpp:294] The NetState phase (1) differed from the phase (0) specified by a rule in layer train-data
I0405 08:36:16.860736 30176 net.cpp:51] Initializing net from parameters:
state {
phase: TEST
}
layer {
name: "val-data"
type: "Data"
top: "data"
top: "label"
include {
phase: TEST
}
transform_param {
crop_size: 227
mean_file: "/mnt/bigdisk/DIGITS-AIN-3/digits/jobs/20210401-115716-aaf7/mean.binaryproto"
}
data_param {
source: "/mnt/bigdisk/DIGITS-AIN-3/digits/jobs/20210401-115716-aaf7/val_db"
batch_size: 32
backend: LMDB
}
}
layer {
name: "conv1"
type: "Convolution"
bottom: "data"
top: "conv1"
param {
lr_mult: 1
decay_mult: 1
}
param {
lr_mult: 2
decay_mult: 0
}
convolution_param {
num_output: 96
kernel_size: 11
stride: 4
weight_filler {
type: "gaussian"
std: 0.01
}
bias_filler {
type: "constant"
value: 0
}
}
}
layer {
name: "relu1"
type: "ReLU"
bottom: "conv1"
top: "conv1"
}
layer {
name: "norm1"
type: "LRN"
bottom: "conv1"
top: "norm1"
lrn_param {
local_size: 5
alpha: 0.0001
beta: 0.75
}
}
layer {
name: "pool1"
type: "Pooling"
bottom: "norm1"
top: "pool1"
pooling_param {
pool: MAX
kernel_size: 3
stride: 2
}
}
layer {
name: "conv2"
type: "Convolution"
bottom: "pool1"
top: "conv2"
param {
lr_mult: 1
decay_mult: 1
}
param {
lr_mult: 2
decay_mult: 0
}
convolution_param {
num_output: 256
pad: 2
kernel_size: 5
group: 2
weight_filler {
type: "gaussian"
std: 0.01
}
bias_filler {
type: "constant"
value: 0.1
}
}
}
layer {
name: "relu2"
type: "ReLU"
bottom: "conv2"
top: "conv2"
}
layer {
name: "norm2"
type: "LRN"
bottom: "conv2"
top: "norm2"
lrn_param {
local_size: 5
alpha: 0.0001
beta: 0.75
}
}
layer {
name: "pool2"
type: "Pooling"
bottom: "norm2"
top: "pool2"
pooling_param {
pool: MAX
kernel_size: 3
stride: 2
}
}
layer {
name: "conv3"
type: "Convolution"
bottom: "pool2"
top: "conv3"
param {
lr_mult: 1
decay_mult: 1
}
param {
lr_mult: 2
decay_mult: 0
}
convolution_param {
num_output: 384
pad: 1
kernel_size: 3
weight_filler {
type: "gaussian"
std: 0.01
}
bias_filler {
type: "constant"
value: 0
}
}
}
layer {
name: "relu3"
type: "ReLU"
bottom: "conv3"
top: "conv3"
}
layer {
name: "conv4"
type: "Convolution"
bottom: "conv3"
top: "conv4"
param {
lr_mult: 1
decay_mult: 1
}
param {
lr_mult: 2
decay_mult: 0
}
convolution_param {
num_output: 384
pad: 1
kernel_size: 3
group: 2
weight_filler {
type: "gaussian"
std: 0.01
}
bias_filler {
type: "constant"
value: 0.1
}
}
}
layer {
name: "relu4"
type: "ReLU"
bottom: "conv4"
top: "conv4"
}
layer {
name: "conv5"
type: "Convolution"
bottom: "conv4"
top: "conv5"
param {
lr_mult: 1
decay_mult: 1
}
param {
lr_mult: 2
decay_mult: 0
}
convolution_param {
num_output: 256
pad: 1
kernel_size: 3
group: 2
weight_filler {
type: "gaussian"
std: 0.01
}
bias_filler {
type: "constant"
value: 0.1
}
}
}
layer {
name: "relu5"
type: "ReLU"
bottom: "conv5"
top: "conv5"
}
layer {
name: "pool5"
type: "Pooling"
bottom: "conv5"
top: "pool5"
pooling_param {
pool: MAX
kernel_size: 3
stride: 2
}
}
layer {
name: "fc6"
type: "InnerProduct"
bottom: "pool5"
top: "fc6"
param {
lr_mult: 1
decay_mult: 1
}
param {
lr_mult: 2
decay_mult: 0
}
inner_product_param {
num_output: 4096
weight_filler {
type: "gaussian"
std: 0.005
}
bias_filler {
type: "constant"
value: 0.1
}
}
}
layer {
name: "relu6"
type: "ReLU"
bottom: "fc6"
top: "fc6"
}
layer {
name: "drop6"
type: "Dropout"
bottom: "fc6"
top: "fc6"
dropout_param {
dropout_ratio: 0.5
}
}
layer {
name: "fc7"
type: "InnerProduct"
bottom: "fc6"
top: "fc7"
param {
lr_mult: 1
decay_mult: 1
}
param {
lr_mult: 2
decay_mult: 0
}
inner_product_param {
num_output: 4096
weight_filler {
type: "gaussian"
std: 0.005
}
bias_filler {
type: "constant"
value: 0.1
}
}
}
layer {
name: "relu7"
type: "ReLU"
bottom: "fc7"
top: "fc7"
}
layer {
name: "drop7"
type: "Dropout"
bottom: "fc7"
top: "fc7"
dropout_param {
dropout_ratio: 0.5
}
}
layer {
name: "fc8"
type: "InnerProduct"
bottom: "fc7"
top: "fc8"
param {
lr_mult: 1
decay_mult: 1
}
param {
lr_mult: 2
decay_mult: 0
}
inner_product_param {
num_output: 196
weight_filler {
type: "gaussian"
std: 0.01
}
bias_filler {
type: "constant"
value: 0
}
}
}
layer {
name: "accuracy"
type: "Accuracy"
bottom: "fc8"
bottom: "label"
top: "accuracy"
include {
phase: TEST
}
}
layer {
name: "loss"
type: "SoftmaxWithLoss"
bottom: "fc8"
bottom: "label"
top: "loss"
}
I0405 08:36:16.860833 30176 layer_factory.hpp:77] Creating layer val-data
I0405 08:36:16.863656 30176 db_lmdb.cpp:35] Opened lmdb /mnt/bigdisk/DIGITS-AIN-3/digits/jobs/20210401-115716-aaf7/val_db
I0405 08:36:16.863883 30176 net.cpp:84] Creating Layer val-data
I0405 08:36:16.863891 30176 net.cpp:380] val-data -> data
I0405 08:36:16.863898 30176 net.cpp:380] val-data -> label
I0405 08:36:16.863906 30176 data_transformer.cpp:25] Loading mean file from: /mnt/bigdisk/DIGITS-AIN-3/digits/jobs/20210401-115716-aaf7/mean.binaryproto
I0405 08:36:16.867624 30176 data_layer.cpp:45] output data size: 32,3,227,227
I0405 08:36:16.904527 30176 net.cpp:122] Setting up val-data
I0405 08:36:16.904548 30176 net.cpp:129] Top shape: 32 3 227 227 (4946784)
I0405 08:36:16.904552 30176 net.cpp:129] Top shape: 32 (32)
I0405 08:36:16.904554 30176 net.cpp:137] Memory required for data: 19787264
I0405 08:36:16.904559 30176 layer_factory.hpp:77] Creating layer label_val-data_1_split
I0405 08:36:16.904569 30176 net.cpp:84] Creating Layer label_val-data_1_split
I0405 08:36:16.904573 30176 net.cpp:406] label_val-data_1_split <- label
I0405 08:36:16.904578 30176 net.cpp:380] label_val-data_1_split -> label_val-data_1_split_0
I0405 08:36:16.904587 30176 net.cpp:380] label_val-data_1_split -> label_val-data_1_split_1
I0405 08:36:16.904633 30176 net.cpp:122] Setting up label_val-data_1_split
I0405 08:36:16.904636 30176 net.cpp:129] Top shape: 32 (32)
I0405 08:36:16.904639 30176 net.cpp:129] Top shape: 32 (32)
I0405 08:36:16.904641 30176 net.cpp:137] Memory required for data: 19787520
I0405 08:36:16.904644 30176 layer_factory.hpp:77] Creating layer conv1
I0405 08:36:16.904654 30176 net.cpp:84] Creating Layer conv1
I0405 08:36:16.904656 30176 net.cpp:406] conv1 <- data
I0405 08:36:16.904660 30176 net.cpp:380] conv1 -> conv1
I0405 08:36:16.907120 30176 net.cpp:122] Setting up conv1
I0405 08:36:16.907135 30176 net.cpp:129] Top shape: 32 96 55 55 (9292800)
I0405 08:36:16.907138 30176 net.cpp:137] Memory required for data: 56958720
I0405 08:36:16.907148 30176 layer_factory.hpp:77] Creating layer relu1
I0405 08:36:16.907155 30176 net.cpp:84] Creating Layer relu1
I0405 08:36:16.907158 30176 net.cpp:406] relu1 <- conv1
I0405 08:36:16.907163 30176 net.cpp:367] relu1 -> conv1 (in-place)
I0405 08:36:16.907423 30176 net.cpp:122] Setting up relu1
I0405 08:36:16.907429 30176 net.cpp:129] Top shape: 32 96 55 55 (9292800)
I0405 08:36:16.907431 30176 net.cpp:137] Memory required for data: 94129920
I0405 08:36:16.907434 30176 layer_factory.hpp:77] Creating layer norm1
I0405 08:36:16.907440 30176 net.cpp:84] Creating Layer norm1
I0405 08:36:16.907444 30176 net.cpp:406] norm1 <- conv1
I0405 08:36:16.907447 30176 net.cpp:380] norm1 -> norm1
I0405 08:36:16.907928 30176 net.cpp:122] Setting up norm1
I0405 08:36:16.907936 30176 net.cpp:129] Top shape: 32 96 55 55 (9292800)
I0405 08:36:16.907939 30176 net.cpp:137] Memory required for data: 131301120
I0405 08:36:16.907943 30176 layer_factory.hpp:77] Creating layer pool1
I0405 08:36:16.907948 30176 net.cpp:84] Creating Layer pool1
I0405 08:36:16.907950 30176 net.cpp:406] pool1 <- norm1
I0405 08:36:16.907954 30176 net.cpp:380] pool1 -> pool1
I0405 08:36:16.907981 30176 net.cpp:122] Setting up pool1
I0405 08:36:16.907986 30176 net.cpp:129] Top shape: 32 96 27 27 (2239488)
I0405 08:36:16.907989 30176 net.cpp:137] Memory required for data: 140259072
I0405 08:36:16.907990 30176 layer_factory.hpp:77] Creating layer conv2
I0405 08:36:16.907999 30176 net.cpp:84] Creating Layer conv2
I0405 08:36:16.908000 30176 net.cpp:406] conv2 <- pool1
I0405 08:36:16.908027 30176 net.cpp:380] conv2 -> conv2
I0405 08:36:16.914187 30176 net.cpp:122] Setting up conv2
I0405 08:36:16.914206 30176 net.cpp:129] Top shape: 32 256 27 27 (5971968)
I0405 08:36:16.914207 30176 net.cpp:137] Memory required for data: 164146944
I0405 08:36:16.914219 30176 layer_factory.hpp:77] Creating layer relu2
I0405 08:36:16.914227 30176 net.cpp:84] Creating Layer relu2
I0405 08:36:16.914230 30176 net.cpp:406] relu2 <- conv2
I0405 08:36:16.914237 30176 net.cpp:367] relu2 -> conv2 (in-place)
I0405 08:36:16.914783 30176 net.cpp:122] Setting up relu2
I0405 08:36:16.914790 30176 net.cpp:129] Top shape: 32 256 27 27 (5971968)
I0405 08:36:16.914793 30176 net.cpp:137] Memory required for data: 188034816
I0405 08:36:16.914795 30176 layer_factory.hpp:77] Creating layer norm2
I0405 08:36:16.914804 30176 net.cpp:84] Creating Layer norm2
I0405 08:36:16.914808 30176 net.cpp:406] norm2 <- conv2
I0405 08:36:16.914811 30176 net.cpp:380] norm2 -> norm2
I0405 08:36:16.915302 30176 net.cpp:122] Setting up norm2
I0405 08:36:16.915311 30176 net.cpp:129] Top shape: 32 256 27 27 (5971968)
I0405 08:36:16.915313 30176 net.cpp:137] Memory required for data: 211922688
I0405 08:36:16.915316 30176 layer_factory.hpp:77] Creating layer pool2
I0405 08:36:16.915323 30176 net.cpp:84] Creating Layer pool2
I0405 08:36:16.915325 30176 net.cpp:406] pool2 <- norm2
I0405 08:36:16.915329 30176 net.cpp:380] pool2 -> pool2
I0405 08:36:16.915359 30176 net.cpp:122] Setting up pool2
I0405 08:36:16.915362 30176 net.cpp:129] Top shape: 32 256 13 13 (1384448)
I0405 08:36:16.915364 30176 net.cpp:137] Memory required for data: 217460480
I0405 08:36:16.915366 30176 layer_factory.hpp:77] Creating layer conv3
I0405 08:36:16.915375 30176 net.cpp:84] Creating Layer conv3
I0405 08:36:16.915378 30176 net.cpp:406] conv3 <- pool2
I0405 08:36:16.915382 30176 net.cpp:380] conv3 -> conv3
I0405 08:36:16.925333 30176 net.cpp:122] Setting up conv3
I0405 08:36:16.925352 30176 net.cpp:129] Top shape: 32 384 13 13 (2076672)
I0405 08:36:16.925354 30176 net.cpp:137] Memory required for data: 225767168
I0405 08:36:16.925366 30176 layer_factory.hpp:77] Creating layer relu3
I0405 08:36:16.925374 30176 net.cpp:84] Creating Layer relu3
I0405 08:36:16.925377 30176 net.cpp:406] relu3 <- conv3
I0405 08:36:16.925384 30176 net.cpp:367] relu3 -> conv3 (in-place)
I0405 08:36:16.925988 30176 net.cpp:122] Setting up relu3
I0405 08:36:16.925999 30176 net.cpp:129] Top shape: 32 384 13 13 (2076672)
I0405 08:36:16.926002 30176 net.cpp:137] Memory required for data: 234073856
I0405 08:36:16.926004 30176 layer_factory.hpp:77] Creating layer conv4
I0405 08:36:16.926015 30176 net.cpp:84] Creating Layer conv4
I0405 08:36:16.926018 30176 net.cpp:406] conv4 <- conv3
I0405 08:36:16.926024 30176 net.cpp:380] conv4 -> conv4
I0405 08:36:16.937461 30176 net.cpp:122] Setting up conv4
I0405 08:36:16.937479 30176 net.cpp:129] Top shape: 32 384 13 13 (2076672)
I0405 08:36:16.937481 30176 net.cpp:137] Memory required for data: 242380544
I0405 08:36:16.937490 30176 layer_factory.hpp:77] Creating layer relu4
I0405 08:36:16.937500 30176 net.cpp:84] Creating Layer relu4
I0405 08:36:16.937502 30176 net.cpp:406] relu4 <- conv4
I0405 08:36:16.937507 30176 net.cpp:367] relu4 -> conv4 (in-place)
I0405 08:36:16.937829 30176 net.cpp:122] Setting up relu4
I0405 08:36:16.937835 30176 net.cpp:129] Top shape: 32 384 13 13 (2076672)
I0405 08:36:16.937837 30176 net.cpp:137] Memory required for data: 250687232
I0405 08:36:16.937840 30176 layer_factory.hpp:77] Creating layer conv5
I0405 08:36:16.937850 30176 net.cpp:84] Creating Layer conv5
I0405 08:36:16.937853 30176 net.cpp:406] conv5 <- conv4
I0405 08:36:16.937858 30176 net.cpp:380] conv5 -> conv5
I0405 08:36:16.953004 30176 net.cpp:122] Setting up conv5
I0405 08:36:16.953025 30176 net.cpp:129] Top shape: 32 256 13 13 (1384448)
I0405 08:36:16.953028 30176 net.cpp:137] Memory required for data: 256225024
I0405 08:36:16.953040 30176 layer_factory.hpp:77] Creating layer relu5
I0405 08:36:16.953052 30176 net.cpp:84] Creating Layer relu5
I0405 08:36:16.953055 30176 net.cpp:406] relu5 <- conv5
I0405 08:36:16.953076 30176 net.cpp:367] relu5 -> conv5 (in-place)
I0405 08:36:16.954473 30176 net.cpp:122] Setting up relu5
I0405 08:36:16.954484 30176 net.cpp:129] Top shape: 32 256 13 13 (1384448)
I0405 08:36:16.954490 30176 net.cpp:137] Memory required for data: 261762816
I0405 08:36:16.954494 30176 layer_factory.hpp:77] Creating layer pool5
I0405 08:36:16.954509 30176 net.cpp:84] Creating Layer pool5
I0405 08:36:16.954514 30176 net.cpp:406] pool5 <- conv5
I0405 08:36:16.954521 30176 net.cpp:380] pool5 -> pool5
I0405 08:36:16.954566 30176 net.cpp:122] Setting up pool5
I0405 08:36:16.954571 30176 net.cpp:129] Top shape: 32 256 6 6 (294912)
I0405 08:36:16.954573 30176 net.cpp:137] Memory required for data: 262942464
I0405 08:36:16.954576 30176 layer_factory.hpp:77] Creating layer fc6
I0405 08:36:16.954582 30176 net.cpp:84] Creating Layer fc6
I0405 08:36:16.954584 30176 net.cpp:406] fc6 <- pool5
I0405 08:36:16.954589 30176 net.cpp:380] fc6 -> fc6
I0405 08:36:17.289238 30176 net.cpp:122] Setting up fc6
I0405 08:36:17.289260 30176 net.cpp:129] Top shape: 32 4096 (131072)
I0405 08:36:17.289263 30176 net.cpp:137] Memory required for data: 263466752
I0405 08:36:17.289286 30176 layer_factory.hpp:77] Creating layer relu6
I0405 08:36:17.289294 30176 net.cpp:84] Creating Layer relu6
I0405 08:36:17.289297 30176 net.cpp:406] relu6 <- fc6
I0405 08:36:17.289302 30176 net.cpp:367] relu6 -> fc6 (in-place)
I0405 08:36:17.289986 30176 net.cpp:122] Setting up relu6
I0405 08:36:17.289996 30176 net.cpp:129] Top shape: 32 4096 (131072)
I0405 08:36:17.289999 30176 net.cpp:137] Memory required for data: 263991040
I0405 08:36:17.290001 30176 layer_factory.hpp:77] Creating layer drop6
I0405 08:36:17.290007 30176 net.cpp:84] Creating Layer drop6
I0405 08:36:17.290009 30176 net.cpp:406] drop6 <- fc6
I0405 08:36:17.290014 30176 net.cpp:367] drop6 -> fc6 (in-place)
I0405 08:36:17.290036 30176 net.cpp:122] Setting up drop6
I0405 08:36:17.290040 30176 net.cpp:129] Top shape: 32 4096 (131072)
I0405 08:36:17.290042 30176 net.cpp:137] Memory required for data: 264515328
I0405 08:36:17.290045 30176 layer_factory.hpp:77] Creating layer fc7
I0405 08:36:17.290051 30176 net.cpp:84] Creating Layer fc7
I0405 08:36:17.290053 30176 net.cpp:406] fc7 <- fc6
I0405 08:36:17.290057 30176 net.cpp:380] fc7 -> fc7
I0405 08:36:17.435891 30176 net.cpp:122] Setting up fc7
I0405 08:36:17.435912 30176 net.cpp:129] Top shape: 32 4096 (131072)
I0405 08:36:17.435915 30176 net.cpp:137] Memory required for data: 265039616
I0405 08:36:17.435925 30176 layer_factory.hpp:77] Creating layer relu7
I0405 08:36:17.435931 30176 net.cpp:84] Creating Layer relu7
I0405 08:36:17.435935 30176 net.cpp:406] relu7 <- fc7
I0405 08:36:17.435941 30176 net.cpp:367] relu7 -> fc7 (in-place)
I0405 08:36:17.436331 30176 net.cpp:122] Setting up relu7
I0405 08:36:17.436337 30176 net.cpp:129] Top shape: 32 4096 (131072)
I0405 08:36:17.436339 30176 net.cpp:137] Memory required for data: 265563904
I0405 08:36:17.436342 30176 layer_factory.hpp:77] Creating layer drop7
I0405 08:36:17.436347 30176 net.cpp:84] Creating Layer drop7
I0405 08:36:17.436349 30176 net.cpp:406] drop7 <- fc7
I0405 08:36:17.436353 30176 net.cpp:367] drop7 -> fc7 (in-place)
I0405 08:36:17.436374 30176 net.cpp:122] Setting up drop7
I0405 08:36:17.436378 30176 net.cpp:129] Top shape: 32 4096 (131072)
I0405 08:36:17.436380 30176 net.cpp:137] Memory required for data: 266088192
I0405 08:36:17.436383 30176 layer_factory.hpp:77] Creating layer fc8
I0405 08:36:17.436389 30176 net.cpp:84] Creating Layer fc8
I0405 08:36:17.436391 30176 net.cpp:406] fc8 <- fc7
I0405 08:36:17.436395 30176 net.cpp:380] fc8 -> fc8
I0405 08:36:17.443671 30176 net.cpp:122] Setting up fc8
I0405 08:36:17.443686 30176 net.cpp:129] Top shape: 32 196 (6272)
I0405 08:36:17.443688 30176 net.cpp:137] Memory required for data: 266113280
I0405 08:36:17.443696 30176 layer_factory.hpp:77] Creating layer fc8_fc8_0_split
I0405 08:36:17.443701 30176 net.cpp:84] Creating Layer fc8_fc8_0_split
I0405 08:36:17.443704 30176 net.cpp:406] fc8_fc8_0_split <- fc8
I0405 08:36:17.443729 30176 net.cpp:380] fc8_fc8_0_split -> fc8_fc8_0_split_0
I0405 08:36:17.443735 30176 net.cpp:380] fc8_fc8_0_split -> fc8_fc8_0_split_1
I0405 08:36:17.443768 30176 net.cpp:122] Setting up fc8_fc8_0_split
I0405 08:36:17.443773 30176 net.cpp:129] Top shape: 32 196 (6272)
I0405 08:36:17.443775 30176 net.cpp:129] Top shape: 32 196 (6272)
I0405 08:36:17.443778 30176 net.cpp:137] Memory required for data: 266163456
I0405 08:36:17.443779 30176 layer_factory.hpp:77] Creating layer accuracy
I0405 08:36:17.443784 30176 net.cpp:84] Creating Layer accuracy
I0405 08:36:17.443787 30176 net.cpp:406] accuracy <- fc8_fc8_0_split_0
I0405 08:36:17.443790 30176 net.cpp:406] accuracy <- label_val-data_1_split_0
I0405 08:36:17.443794 30176 net.cpp:380] accuracy -> accuracy
…
