…
I0425 09:41:50.875820 21586 net.cpp:294] The NetState phase (0) differed from the phase (1) specified by a rule in layer accuracy
I0425 09:41:50.875970 21586 net.cpp:51] Initializing net from parameters:
state {
phase: TRAIN
level: 0
stage: ""
}
layer {
name: "train-data"
type: "Data"
top: "data"
top: "label"
include {
phase: TRAIN
}
transform_param {
mirror: true
crop_size: 227
mean_file: "/mnt/bigdisk/DIGITS-MAN-3/digits/jobs/20210421-230320-902c/mean.binaryproto"
}
data_param {
source: "/mnt/bigdisk/DIGITS-MAN-3/digits/jobs/20210421-230320-902c/train_db"
batch_size: 128
backend: LMDB
}
}
layer {
name: "conv1"
type: "Convolution"
bottom: "data"
top: "conv1"
param {
lr_mult: 1
decay_mult: 1
}
param {
lr_mult: 2
decay_mult: 0
}
convolution_param {
num_output: 96
kernel_size: 11
stride: 4
weight_filler {
type: "gaussian"
std: 0.01
}
bias_filler {
type: "constant"
value: 0
}
}
}
layer {
name: "relu1"
type: "ReLU"
bottom: "conv1"
top: "conv1"
}
layer {
name: "norm1"
type: "LRN"
bottom: "conv1"
top: "norm1"
lrn_param {
local_size: 5
alpha: 0.0001
beta: 0.75
}
}
layer {
name: "pool1"
type: "Pooling"
bottom: "norm1"
top: "pool1"
pooling_param {
pool: MAX
kernel_size: 3
stride: 2
}
}
layer {
name: "conv2"
type: "Convolution"
bottom: "pool1"
top: "conv2"
param {
lr_mult: 1
decay_mult: 1
}
param {
lr_mult: 2
decay_mult: 0
}
convolution_param {
num_output: 256
pad: 2
kernel_size: 5
group: 2
weight_filler {
type: "gaussian"
std: 0.01
}
bias_filler {
type: "constant"
value: 0.1
}
}
}
layer {
name: "relu2"
type: "ReLU"
bottom: "conv2"
top: "conv2"
}
layer {
name: "norm2"
type: "LRN"
bottom: "conv2"
top: "norm2"
lrn_param {
local_size: 5
alpha: 0.0001
beta: 0.75
}
}
layer {
name: "pool2"
type: "Pooling"
bottom: "norm2"
top: "pool2"
pooling_param {
pool: MAX
kernel_size: 3
stride: 2
}
}
layer {
name: "conv3"
type: "Convolution"
bottom: "pool2"
top: "conv3"
param {
lr_mult: 1
decay_mult: 1
}
param {
lr_mult: 2
decay_mult: 0
}
convolution_param {
num_output: 384
pad: 1
kernel_size: 5
weight_filler {
type: "gaussian"
std: 0.01
}
bias_filler {
type: "constant"
value: 0
}
}
}
layer {
name: "relu3"
type: "ReLU"
bottom: "conv3"
top: "conv3"
}
layer {
name: "conv4"
type: "Convolution"
bottom: "conv3"
top: "conv4"
param {
lr_mult: 1
decay_mult: 1
}
param {
lr_mult: 2
decay_mult: 0
}
convolution_param {
num_output: 384
pad: 1
kernel_size: 3
group: 2
weight_filler {
type: "gaussian"
std: 0.01
}
bias_filler {
type: "constant"
value: 0.1
}
}
}
layer {
name: "relu4"
type: "ReLU"
bottom: "conv4"
top: "conv4"
}
layer {
name: "conv5"
type: "Convolution"
bottom: "conv4"
top: "conv5"
param {
lr_mult: 1
decay_mult: 1
}
param {
lr_mult: 2
decay_mult: 0
}
convolution_param {
num_output: 256
pad: 1
kernel_size: 3
group: 2
weight_filler {
type: "gaussian"
std: 0.01
}
bias_filler {
type: "constant"
value: 0.1
}
}
}
layer {
name: "relu5"
type: "ReLU"
bottom: "conv5"
top: "conv5"
}
layer {
name: "pool5"
type: "Pooling"
bottom: "conv5"
top: "pool5"
pooling_param {
pool: MAX
kernel_size: 3
stride: 2
}
}
layer {
name: "fc6"
type: "InnerProduct"
bottom: "pool5"
top: "fc6"
param {
lr_mult: 1
decay_mult: 1
}
param {
lr_mult: 2
decay_mult: 0
}
inner_product_param {
num_output: 4096
weight_filler {
type: "gaussian"
std: 0.005
}
bias_filler {
type: "constant"
value: 0.1
}
}
}
layer {
name: "relu6"
type: "ReLU"
bottom: "fc6"
top: "fc6"
}
layer {
name: "drop6"
type: "Dropout"
bottom: "fc6"
top: "fc6"
dropout_param {
dropout_ratio: 0.5
}
}
layer {
name: "fc7"
type: "InnerProduct"
bottom: "fc6"
top: "fc7"
param {
lr_mult: 1
decay_mult: 1
}
param {
lr_mult: 2
decay_mult: 0
}
inner_product_param {
num_output: 4096
weight_filler {
type: "gaussian"
std: 0.005
}
bias_filler {
type: "constant"
value: 0.1
}
}
}
layer {
name: "relu7"
type: "ReLU"
bottom: "fc7"
top: "fc7"
}
layer {
name: "drop7"
type: "Dropout"
bottom: "fc7"
top: "fc7"
dropout_param {
dropout_ratio: 0.5
}
}
layer {
name: "fc8"
type: "InnerProduct"
bottom: "fc7"
top: "fc8"
param {
lr_mult: 1
decay_mult: 1
}
param {
lr_mult: 2
decay_mult: 0
}
inner_product_param {
num_output: 196
weight_filler {
type: "gaussian"
std: 0.01
}
bias_filler {
type: "constant"
value: 0
}
}
}
layer {
name: "loss"
type: "SoftmaxWithLoss"
bottom: "fc8"
bottom: "label"
top: "loss"
}
I0425 09:41:50.876063 21586 layer_factory.hpp:77] Creating layer train-data
I0425 09:41:50.909364 21586 db_lmdb.cpp:35] Opened lmdb /mnt/bigdisk/DIGITS-MAN-3/digits/jobs/20210421-230320-902c/train_db
I0425 09:41:50.941217 21586 net.cpp:84] Creating Layer train-data
I0425 09:41:50.941233 21586 net.cpp:380] train-data -> data
I0425 09:41:50.941257 21586 net.cpp:380] train-data -> label
I0425 09:41:50.941270 21586 data_transformer.cpp:25] Loading mean file from: /mnt/bigdisk/DIGITS-MAN-3/digits/jobs/20210421-230320-902c/mean.binaryproto
I0425 09:41:50.948120 21586 data_layer.cpp:45] output data size: 128,3,227,227
I0425 09:41:51.092583 21586 net.cpp:122] Setting up train-data
I0425 09:41:51.092607 21586 net.cpp:129] Top shape: 128 3 227 227 (19787136)
I0425 09:41:51.092613 21586 net.cpp:129] Top shape: 128 (128)
I0425 09:41:51.092617 21586 net.cpp:137] Memory required for data: 79149056
I0425 09:41:51.092625 21586 layer_factory.hpp:77] Creating layer conv1
I0425 09:41:51.092645 21586 net.cpp:84] Creating Layer conv1
I0425 09:41:51.092651 21586 net.cpp:406] conv1 <- data
I0425 09:41:51.092664 21586 net.cpp:380] conv1 -> conv1
I0425 09:41:51.719517 21586 net.cpp:122] Setting up conv1
I0425 09:41:51.719537 21586 net.cpp:129] Top shape: 128 96 55 55 (37171200)
I0425 09:41:51.719540 21586 net.cpp:137] Memory required for data: 227833856
I0425 09:41:51.719559 21586 layer_factory.hpp:77] Creating layer relu1
I0425 09:41:51.719570 21586 net.cpp:84] Creating Layer relu1
I0425 09:41:51.719574 21586 net.cpp:406] relu1 <- conv1
I0425 09:41:51.719580 21586 net.cpp:367] relu1 -> conv1 (in-place)
I0425 09:41:51.719863 21586 net.cpp:122] Setting up relu1
I0425 09:41:51.719871 21586 net.cpp:129] Top shape: 128 96 55 55 (37171200)
I0425 09:41:51.719874 21586 net.cpp:137] Memory required for data: 376518656
I0425 09:41:51.719878 21586 layer_factory.hpp:77] Creating layer norm1
I0425 09:41:51.719887 21586 net.cpp:84] Creating Layer norm1
I0425 09:41:51.719890 21586 net.cpp:406] norm1 <- conv1
I0425 09:41:51.719918 21586 net.cpp:380] norm1 -> norm1
I0425 09:41:51.723577 21586 net.cpp:122] Setting up norm1
I0425 09:41:51.723589 21586 net.cpp:129] Top shape: 128 96 55 55 (37171200)
I0425 09:41:51.723593 21586 net.cpp:137] Memory required for data: 525203456
I0425 09:41:51.723598 21586 layer_factory.hpp:77] Creating layer pool1
I0425 09:41:51.723605 21586 net.cpp:84] Creating Layer pool1
I0425 09:41:51.723609 21586 net.cpp:406] pool1 <- norm1
I0425 09:41:51.723614 21586 net.cpp:380] pool1 -> pool1
I0425 09:41:51.723651 21586 net.cpp:122] Setting up pool1
I0425 09:41:51.723657 21586 net.cpp:129] Top shape: 128 96 27 27 (8957952)
I0425 09:41:51.723661 21586 net.cpp:137] Memory required for data: 561035264
I0425 09:41:51.723665 21586 layer_factory.hpp:77] Creating layer conv2
I0425 09:41:51.723675 21586 net.cpp:84] Creating Layer conv2
I0425 09:41:51.723677 21586 net.cpp:406] conv2 <- pool1
I0425 09:41:51.723683 21586 net.cpp:380] conv2 -> conv2
I0425 09:41:51.743628 21586 net.cpp:122] Setting up conv2
I0425 09:41:51.743649 21586 net.cpp:129] Top shape: 128 256 27 27 (23887872)
I0425 09:41:51.743652 21586 net.cpp:137] Memory required for data: 656586752
I0425 09:41:51.743665 21586 layer_factory.hpp:77] Creating layer relu2
I0425 09:41:51.743675 21586 net.cpp:84] Creating Layer relu2
I0425 09:41:51.743680 21586 net.cpp:406] relu2 <- conv2
I0425 09:41:51.743686 21586 net.cpp:367] relu2 -> conv2 (in-place)
I0425 09:41:51.744189 21586 net.cpp:122] Setting up relu2
I0425 09:41:51.744199 21586 net.cpp:129] Top shape: 128 256 27 27 (23887872)
I0425 09:41:51.744202 21586 net.cpp:137] Memory required for data: 752138240
I0425 09:41:51.744206 21586 layer_factory.hpp:77] Creating layer norm2
I0425 09:41:51.744215 21586 net.cpp:84] Creating Layer norm2
I0425 09:41:51.744220 21586 net.cpp:406] norm2 <- conv2
I0425 09:41:51.744225 21586 net.cpp:380] norm2 -> norm2
I0425 09:41:51.744614 21586 net.cpp:122] Setting up norm2
I0425 09:41:51.744623 21586 net.cpp:129] Top shape: 128 256 27 27 (23887872)
I0425 09:41:51.744627 21586 net.cpp:137] Memory required for data: 847689728
I0425 09:41:51.744632 21586 layer_factory.hpp:77] Creating layer pool2
I0425 09:41:51.744642 21586 net.cpp:84] Creating Layer pool2
I0425 09:41:51.744645 21586 net.cpp:406] pool2 <- norm2
I0425 09:41:51.744650 21586 net.cpp:380] pool2 -> pool2
I0425 09:41:51.744680 21586 net.cpp:122] Setting up pool2
I0425 09:41:51.744686 21586 net.cpp:129] Top shape: 128 256 13 13 (5537792)
I0425 09:41:51.744690 21586 net.cpp:137] Memory required for data: 869840896
I0425 09:41:51.744694 21586 layer_factory.hpp:77] Creating layer conv3
I0425 09:41:51.744705 21586 net.cpp:84] Creating Layer conv3
I0425 09:41:51.744709 21586 net.cpp:406] conv3 <- pool2
I0425 09:41:51.744715 21586 net.cpp:380] conv3 -> conv3
I0425 09:41:51.770160 21586 net.cpp:122] Setting up conv3
I0425 09:41:51.770177 21586 net.cpp:129] Top shape: 128 384 11 11 (5947392)
I0425 09:41:51.770181 21586 net.cpp:137] Memory required for data: 893630464
I0425 09:41:51.770193 21586 layer_factory.hpp:77] Creating layer relu3
I0425 09:41:51.770202 21586 net.cpp:84] Creating Layer relu3
I0425 09:41:51.770206 21586 net.cpp:406] relu3 <- conv3
I0425 09:41:51.770213 21586 net.cpp:367] relu3 -> conv3 (in-place)
I0425 09:41:51.770722 21586 net.cpp:122] Setting up relu3
I0425 09:41:51.770731 21586 net.cpp:129] Top shape: 128 384 11 11 (5947392)
I0425 09:41:51.770735 21586 net.cpp:137] Memory required for data: 917420032
I0425 09:41:51.770738 21586 layer_factory.hpp:77] Creating layer conv4
I0425 09:41:51.770750 21586 net.cpp:84] Creating Layer conv4
I0425 09:41:51.770753 21586 net.cpp:406] conv4 <- conv3
I0425 09:41:51.770761 21586 net.cpp:380] conv4 -> conv4
I0425 09:41:51.783140 21586 net.cpp:122] Setting up conv4
I0425 09:41:51.783157 21586 net.cpp:129] Top shape: 128 384 11 11 (5947392)
I0425 09:41:51.783162 21586 net.cpp:137] Memory required for data: 941209600
I0425 09:41:51.783170 21586 layer_factory.hpp:77] Creating layer relu4
I0425 09:41:51.783179 21586 net.cpp:84] Creating Layer relu4
I0425 09:41:51.783201 21586 net.cpp:406] relu4 <- conv4
I0425 09:41:51.783207 21586 net.cpp:367] relu4 -> conv4 (in-place)
I0425 09:41:51.783560 21586 net.cpp:122] Setting up relu4
I0425 09:41:51.783567 21586 net.cpp:129] Top shape: 128 384 11 11 (5947392)
I0425 09:41:51.783571 21586 net.cpp:137] Memory required for data: 964999168
I0425 09:41:51.783574 21586 layer_factory.hpp:77] Creating layer conv5
I0425 09:41:51.783586 21586 net.cpp:84] Creating Layer conv5
I0425 09:41:51.783591 21586 net.cpp:406] conv5 <- conv4
I0425 09:41:51.783597 21586 net.cpp:380] conv5 -> conv5
I0425 09:41:51.792291 21586 net.cpp:122] Setting up conv5
I0425 09:41:51.792307 21586 net.cpp:129] Top shape: 128 256 11 11 (3964928)
I0425 09:41:51.792310 21586 net.cpp:137] Memory required for data: 980858880
I0425 09:41:51.792322 21586 layer_factory.hpp:77] Creating layer relu5
I0425 09:41:51.792330 21586 net.cpp:84] Creating Layer relu5
I0425 09:41:51.792335 21586 net.cpp:406] relu5 <- conv5
I0425 09:41:51.792340 21586 net.cpp:367] relu5 -> conv5 (in-place)
I0425 09:41:51.792870 21586 net.cpp:122] Setting up relu5
I0425 09:41:51.792881 21586 net.cpp:129] Top shape: 128 256 11 11 (3964928)
I0425 09:41:51.792883 21586 net.cpp:137] Memory required for data: 996718592
I0425 09:41:51.792887 21586 layer_factory.hpp:77] Creating layer pool5
I0425 09:41:51.792894 21586 net.cpp:84] Creating Layer pool5
I0425 09:41:51.792897 21586 net.cpp:406] pool5 <- conv5
I0425 09:41:51.792904 21586 net.cpp:380] pool5 -> pool5
I0425 09:41:51.792940 21586 net.cpp:122] Setting up pool5
I0425 09:41:51.792946 21586 net.cpp:129] Top shape: 128 256 5 5 (819200)
I0425 09:41:51.792949 21586 net.cpp:137] Memory required for data: 999995392
I0425 09:41:51.792953 21586 layer_factory.hpp:77] Creating layer fc6
I0425 09:41:51.792963 21586 net.cpp:84] Creating Layer fc6
I0425 09:41:51.792965 21586 net.cpp:406] fc6 <- pool5
I0425 09:41:51.792970 21586 net.cpp:380] fc6 -> fc6
I0425 09:41:52.043879 21586 net.cpp:122] Setting up fc6
I0425 09:41:52.043900 21586 net.cpp:129] Top shape: 128 4096 (524288)
I0425 09:41:52.043902 21586 net.cpp:137] Memory required for data: 1002092544
I0425 09:41:52.043912 21586 layer_factory.hpp:77] Creating layer relu6
I0425 09:41:52.043922 21586 net.cpp:84] Creating Layer relu6
I0425 09:41:52.043927 21586 net.cpp:406] relu6 <- fc6
I0425 09:41:52.043933 21586 net.cpp:367] relu6 -> fc6 (in-place)
I0425 09:41:52.063918 21586 net.cpp:122] Setting up relu6
I0425 09:41:52.063933 21586 net.cpp:129] Top shape: 128 4096 (524288)
I0425 09:41:52.063937 21586 net.cpp:137] Memory required for data: 1004189696
I0425 09:41:52.063943 21586 layer_factory.hpp:77] Creating layer drop6
I0425 09:41:52.063957 21586 net.cpp:84] Creating Layer drop6
I0425 09:41:52.063963 21586 net.cpp:406] drop6 <- fc6
I0425 09:41:52.063971 21586 net.cpp:367] drop6 -> fc6 (in-place)
I0425 09:41:52.064013 21586 net.cpp:122] Setting up drop6
I0425 09:41:52.064021 21586 net.cpp:129] Top shape: 128 4096 (524288)
I0425 09:41:52.064026 21586 net.cpp:137] Memory required for data: 1006286848
I0425 09:41:52.064031 21586 layer_factory.hpp:77] Creating layer fc7
I0425 09:41:52.064041 21586 net.cpp:84] Creating Layer fc7
I0425 09:41:52.064046 21586 net.cpp:406] fc7 <- fc6
I0425 09:41:52.064056 21586 net.cpp:380] fc7 -> fc7
I0425 09:41:52.229282 21586 net.cpp:122] Setting up fc7
I0425 09:41:52.229301 21586 net.cpp:129] Top shape: 128 4096 (524288)
I0425 09:41:52.229305 21586 net.cpp:137] Memory required for data: 1008384000
I0425 09:41:52.229313 21586 layer_factory.hpp:77] Creating layer relu7
I0425 09:41:52.229322 21586 net.cpp:84] Creating Layer relu7
I0425 09:41:52.229326 21586 net.cpp:406] relu7 <- fc7
I0425 09:41:52.229334 21586 net.cpp:367] relu7 -> fc7 (in-place)
I0425 09:41:52.244359 21586 net.cpp:122] Setting up relu7
I0425 09:41:52.244374 21586 net.cpp:129] Top shape: 128 4096 (524288)
I0425 09:41:52.244377 21586 net.cpp:137] Memory required for data: 1010481152
I0425 09:41:52.244382 21586 layer_factory.hpp:77] Creating layer drop7
I0425 09:41:52.244390 21586 net.cpp:84] Creating Layer drop7
I0425 09:41:52.244413 21586 net.cpp:406] drop7 <- fc7
I0425 09:41:52.244419 21586 net.cpp:367] drop7 -> fc7 (in-place)
I0425 09:41:52.244450 21586 net.cpp:122] Setting up drop7
I0425 09:41:52.244455 21586 net.cpp:129] Top shape: 128 4096 (524288)
I0425 09:41:52.244458 21586 net.cpp:137] Memory required for data: 1012578304
I0425 09:41:52.244462 21586 layer_factory.hpp:77] Creating layer fc8
I0425 09:41:52.244470 21586 net.cpp:84] Creating Layer fc8
I0425 09:41:52.244474 21586 net.cpp:406] fc8 <- fc7
I0425 09:41:52.244480 21586 net.cpp:380] fc8 -> fc8
I0425 09:41:52.252513 21586 net.cpp:122] Setting up fc8
I0425 09:41:52.252524 21586 net.cpp:129] Top shape: 128 196 (25088)
I0425 09:41:52.252528 21586 net.cpp:137] Memory required for data: 1012678656
I0425 09:41:52.252537 21586 layer_factory.hpp:77] Creating layer loss
I0425 09:41:52.252543 21586 net.cpp:84] Creating Layer loss
I0425 09:41:52.252547 21586 net.cpp:406] loss <- fc8
I0425 09:41:52.252552 21586 net.cpp:406] loss <- label
I0425 09:41:52.252560 21586 net.cpp:380] loss -> loss
I0425 09:41:52.252570 21586 layer_factory.hpp:77] Creating layer loss
…
I0425 09:41:52.254914 21586 net.cpp:294] The NetState phase (1) differed from the phase (0) specified by a rule in layer train-data
I0425 09:41:52.255076 21586 net.cpp:51] Initializing net from parameters:
state {
phase: TEST
}
layer {
name: "val-data"
type: "Data"
top: "data"
top: "label"
include {
phase: TEST
}
transform_param {
crop_size: 227
mean_file: "/mnt/bigdisk/DIGITS-MAN-3/digits/jobs/20210421-230320-902c/mean.binaryproto"
}
data_param {
source: "/mnt/bigdisk/DIGITS-MAN-3/digits/jobs/20210421-230320-902c/val_db"
batch_size: 32
backend: LMDB
}
}
layer {
name: "conv1"
type: "Convolution"
bottom: "data"
top: "conv1"
param {
lr_mult: 1
decay_mult: 1
}
param {
lr_mult: 2
decay_mult: 0
}
convolution_param {
num_output: 96
kernel_size: 11
stride: 4
weight_filler {
type: "gaussian"
std: 0.01
}
bias_filler {
type: "constant"
value: 0
}
}
}
layer {
name: "relu1"
type: "ReLU"
bottom: "conv1"
top: "conv1"
}
layer {
name: "norm1"
type: "LRN"
bottom: "conv1"
top: "norm1"
lrn_param {
local_size: 5
alpha: 0.0001
beta: 0.75
}
}
layer {
name: "pool1"
type: "Pooling"
bottom: "norm1"
top: "pool1"
pooling_param {
pool: MAX
kernel_size: 3
stride: 2
}
}
layer {
name: "conv2"
type: "Convolution"
bottom: "pool1"
top: "conv2"
param {
lr_mult: 1
decay_mult: 1
}
param {
lr_mult: 2
decay_mult: 0
}
convolution_param {
num_output: 256
pad: 2
kernel_size: 5
group: 2
weight_filler {
type: "gaussian"
std: 0.01
}
bias_filler {
type: "constant"
value: 0.1
}
}
}
layer {
name: "relu2"
type: "ReLU"
bottom: "conv2"
top: "conv2"
}
layer {
name: "norm2"
type: "LRN"
bottom: "conv2"
top: "norm2"
lrn_param {
local_size: 5
alpha: 0.0001
beta: 0.75
}
}
layer {
name: "pool2"
type: "Pooling"
bottom: "norm2"
top: "pool2"
pooling_param {
pool: MAX
kernel_size: 3
stride: 2
}
}
layer {
name: "conv3"
type: "Convolution"
bottom: "pool2"
top: "conv3"
param {
lr_mult: 1
decay_mult: 1
}
param {
lr_mult: 2
decay_mult: 0
}
convolution_param {
num_output: 384
pad: 1
kernel_size: 5
weight_filler {
type: "gaussian"
std: 0.01
}
bias_filler {
type: "constant"
value: 0
}
}
}
layer {
name: "relu3"
type: "ReLU"
bottom: "conv3"
top: "conv3"
}
layer {
name: "conv4"
type: "Convolution"
bottom: "conv3"
top: "conv4"
param {
lr_mult: 1
decay_mult: 1
}
param {
lr_mult: 2
decay_mult: 0
}
convolution_param {
num_output: 384
pad: 1
kernel_size: 3
group: 2
weight_filler {
type: "gaussian"
std: 0.01
}
bias_filler {
type: "constant"
value: 0.1
}
}
}
layer {
name: "relu4"
type: "ReLU"
bottom: "conv4"
top: "conv4"
}
layer {
name: "conv5"
type: "Convolution"
bottom: "conv4"
top: "conv5"
param {
lr_mult: 1
decay_mult: 1
}
param {
lr_mult: 2
decay_mult: 0
}
convolution_param {
num_output: 256
pad: 1
kernel_size: 3
group: 2
weight_filler {
type: "gaussian"
std: 0.01
}
bias_filler {
type: "constant"
value: 0.1
}
}
}
layer {
name: "relu5"
type: "ReLU"
bottom: "conv5"
top: "conv5"
}
layer {
name: "pool5"
type: "Pooling"
bottom: "conv5"
top: "pool5"
pooling_param {
pool: MAX
kernel_size: 3
stride: 2
}
}
layer {
name: "fc6"
type: "InnerProduct"
bottom: "pool5"
top: "fc6"
param {
lr_mult: 1
decay_mult: 1
}
param {
lr_mult: 2
decay_mult: 0
}
inner_product_param {
num_output: 4096
weight_filler {
type: "gaussian"
std: 0.005
}
bias_filler {
type: "constant"
value: 0.1
}
}
}
layer {
name: "relu6"
type: "ReLU"
bottom: "fc6"
top: "fc6"
}
layer {
name: "drop6"
type: "Dropout"
bottom: "fc6"
top: "fc6"
dropout_param {
dropout_ratio: 0.5
}
}
layer {
name: "fc7"
type: "InnerProduct"
bottom: "fc6"
top: "fc7"
param {
lr_mult: 1
decay_mult: 1
}
param {
lr_mult: 2
decay_mult: 0
}
inner_product_param {
num_output: 4096
weight_filler {
type: "gaussian"
std: 0.005
}
bias_filler {
type: "constant"
value: 0.1
}
}
}
layer {
name: "relu7"
type: "ReLU"
bottom: "fc7"
top: "fc7"
}
layer {
name: "drop7"
type: "Dropout"
bottom: "fc7"
top: "fc7"
dropout_param {
dropout_ratio: 0.5
}
}
layer {
name: "fc8"
type: "InnerProduct"
bottom: "fc7"
top: "fc8"
param {
lr_mult: 1
decay_mult: 1
}
param {
lr_mult: 2
decay_mult: 0
}
inner_product_param {
num_output: 196
weight_filler {
type: "gaussian"
std: 0.01
}
bias_filler {
type: "constant"
value: 0
}
}
}
layer {
name: "accuracy"
type: "Accuracy"
bottom: "fc8"
bottom: "label"
top: "accuracy"
include {
phase: TEST
}
}
layer {
name: "loss"
type: "SoftmaxWithLoss"
bottom: "fc8"
bottom: "label"
top: "loss"
}
I0425 09:41:52.255201 21586 layer_factory.hpp:77] Creating layer val-data
I0425 09:41:52.288336 21586 db_lmdb.cpp:35] Opened lmdb /mnt/bigdisk/DIGITS-MAN-3/digits/jobs/20210421-230320-902c/val_db
I0425 09:41:52.305773 21586 net.cpp:84] Creating Layer val-data
I0425 09:41:52.305790 21586 net.cpp:380] val-data -> data
I0425 09:41:52.305801 21586 net.cpp:380] val-data -> label
I0425 09:41:52.305815 21586 data_transformer.cpp:25] Loading mean file from: /mnt/bigdisk/DIGITS-MAN-3/digits/jobs/20210421-230320-902c/mean.binaryproto
I0425 09:41:52.310746 21586 data_layer.cpp:45] output data size: 32,3,227,227
I0425 09:41:52.356802 21586 net.cpp:122] Setting up val-data
I0425 09:41:52.356823 21586 net.cpp:129] Top shape: 32 3 227 227 (4946784)
I0425 09:41:52.356828 21586 net.cpp:129] Top shape: 32 (32)
I0425 09:41:52.356832 21586 net.cpp:137] Memory required for data: 19787264
I0425 09:41:52.356838 21586 layer_factory.hpp:77] Creating layer label_val-data_1_split
I0425 09:41:52.356850 21586 net.cpp:84] Creating Layer label_val-data_1_split
I0425 09:41:52.356854 21586 net.cpp:406] label_val-data_1_split <- label
I0425 09:41:52.356863 21586 net.cpp:380] label_val-data_1_split -> label_val-data_1_split_0
I0425 09:41:52.356871 21586 net.cpp:380] label_val-data_1_split -> label_val-data_1_split_1
I0425 09:41:52.356922 21586 net.cpp:122] Setting up label_val-data_1_split
I0425 09:41:52.356928 21586 net.cpp:129] Top shape: 32 (32)
I0425 09:41:52.356931 21586 net.cpp:129] Top shape: 32 (32)
I0425 09:41:52.356935 21586 net.cpp:137] Memory required for data: 19787520
I0425 09:41:52.356938 21586 layer_factory.hpp:77] Creating layer conv1
I0425 09:41:52.356950 21586 net.cpp:84] Creating Layer conv1
I0425 09:41:52.356954 21586 net.cpp:406] conv1 <- data
I0425 09:41:52.356959 21586 net.cpp:380] conv1 -> conv1
I0425 09:41:52.359158 21586 net.cpp:122] Setting up conv1
I0425 09:41:52.359169 21586 net.cpp:129] Top shape: 32 96 55 55 (9292800)
I0425 09:41:52.359174 21586 net.cpp:137] Memory required for data: 56958720
I0425 09:41:52.359184 21586 layer_factory.hpp:77] Creating layer relu1
I0425 09:41:52.359189 21586 net.cpp:84] Creating Layer relu1
I0425 09:41:52.359194 21586 net.cpp:406] relu1 <- conv1
I0425 09:41:52.359200 21586 net.cpp:367] relu1 -> conv1 (in-place)
I0425 09:41:52.359488 21586 net.cpp:122] Setting up relu1
I0425 09:41:52.359495 21586 net.cpp:129] Top shape: 32 96 55 55 (9292800)
I0425 09:41:52.359499 21586 net.cpp:137] Memory required for data: 94129920
I0425 09:41:52.359503 21586 layer_factory.hpp:77] Creating layer norm1
I0425 09:41:52.359511 21586 net.cpp:84] Creating Layer norm1
I0425 09:41:52.359515 21586 net.cpp:406] norm1 <- conv1
I0425 09:41:52.359520 21586 net.cpp:380] norm1 -> norm1
I0425 09:41:52.359977 21586 net.cpp:122] Setting up norm1
I0425 09:41:52.359985 21586 net.cpp:129] Top shape: 32 96 55 55 (9292800)
I0425 09:41:52.359989 21586 net.cpp:137] Memory required for data: 131301120
I0425 09:41:52.359993 21586 layer_factory.hpp:77] Creating layer pool1
I0425 09:41:52.360002 21586 net.cpp:84] Creating Layer pool1
I0425 09:41:52.360005 21586 net.cpp:406] pool1 <- norm1
I0425 09:41:52.360011 21586 net.cpp:380] pool1 -> pool1
I0425 09:41:52.360039 21586 net.cpp:122] Setting up pool1
I0425 09:41:52.360044 21586 net.cpp:129] Top shape: 32 96 27 27 (2239488)
I0425 09:41:52.360047 21586 net.cpp:137] Memory required for data: 140259072
I0425 09:41:52.360051 21586 layer_factory.hpp:77] Creating layer conv2
I0425 09:41:52.360059 21586 net.cpp:84] Creating Layer conv2
I0425 09:41:52.360064 21586 net.cpp:406] conv2 <- pool1
I0425 09:41:52.360087 21586 net.cpp:380] conv2 -> conv2
I0425 09:41:52.367887 21586 net.cpp:122] Setting up conv2
I0425 09:41:52.367900 21586 net.cpp:129] Top shape: 32 256 27 27 (5971968)
I0425 09:41:52.367904 21586 net.cpp:137] Memory required for data: 164146944
I0425 09:41:52.367914 21586 layer_factory.hpp:77] Creating layer relu2
I0425 09:41:52.367923 21586 net.cpp:84] Creating Layer relu2
I0425 09:41:52.367928 21586 net.cpp:406] relu2 <- conv2
I0425 09:41:52.367933 21586 net.cpp:367] relu2 -> conv2 (in-place)
I0425 09:41:52.368443 21586 net.cpp:122] Setting up relu2
I0425 09:41:52.368453 21586 net.cpp:129] Top shape: 32 256 27 27 (5971968)
I0425 09:41:52.368455 21586 net.cpp:137] Memory required for data: 188034816
I0425 09:41:52.368459 21586 layer_factory.hpp:77] Creating layer norm2
I0425 09:41:52.368468 21586 net.cpp:84] Creating Layer norm2
I0425 09:41:52.368472 21586 net.cpp:406] norm2 <- conv2
I0425 09:41:52.368477 21586 net.cpp:380] norm2 -> norm2
I0425 09:41:52.369029 21586 net.cpp:122] Setting up norm2
I0425 09:41:52.369040 21586 net.cpp:129] Top shape: 32 256 27 27 (5971968)
I0425 09:41:52.369045 21586 net.cpp:137] Memory required for data: 211922688
I0425 09:41:52.369048 21586 layer_factory.hpp:77] Creating layer pool2
I0425 09:41:52.369055 21586 net.cpp:84] Creating Layer pool2
I0425 09:41:52.369058 21586 net.cpp:406] pool2 <- norm2
I0425 09:41:52.369063 21586 net.cpp:380] pool2 -> pool2
I0425 09:41:52.369094 21586 net.cpp:122] Setting up pool2
I0425 09:41:52.369100 21586 net.cpp:129] Top shape: 32 256 13 13 (1384448)
I0425 09:41:52.369103 21586 net.cpp:137] Memory required for data: 217460480
I0425 09:41:52.369107 21586 layer_factory.hpp:77] Creating layer conv3
I0425 09:41:52.369117 21586 net.cpp:84] Creating Layer conv3
I0425 09:41:52.369120 21586 net.cpp:406] conv3 <- pool2
I0425 09:41:52.369127 21586 net.cpp:380] conv3 -> conv3
I0425 09:41:52.395804 21586 net.cpp:122] Setting up conv3
I0425 09:41:52.395823 21586 net.cpp:129] Top shape: 32 384 11 11 (1486848)
I0425 09:41:52.395828 21586 net.cpp:137] Memory required for data: 223407872
I0425 09:41:52.395838 21586 layer_factory.hpp:77] Creating layer relu3
I0425 09:41:52.395848 21586 net.cpp:84] Creating Layer relu3
I0425 09:41:52.395853 21586 net.cpp:406] relu3 <- conv3
I0425 09:41:52.395859 21586 net.cpp:367] relu3 -> conv3 (in-place)
I0425 09:41:52.396381 21586 net.cpp:122] Setting up relu3
I0425 09:41:52.396392 21586 net.cpp:129] Top shape: 32 384 11 11 (1486848)
I0425 09:41:52.396396 21586 net.cpp:137] Memory required for data: 229355264
I0425 09:41:52.396400 21586 layer_factory.hpp:77] Creating layer conv4
I0425 09:41:52.396414 21586 net.cpp:84] Creating Layer conv4
I0425 09:41:52.396417 21586 net.cpp:406] conv4 <- conv3
I0425 09:41:52.396423 21586 net.cpp:380] conv4 -> conv4
I0425 09:41:52.407382 21586 net.cpp:122] Setting up conv4
I0425 09:41:52.407400 21586 net.cpp:129] Top shape: 32 384 11 11 (1486848)
I0425 09:41:52.407404 21586 net.cpp:137] Memory required for data: 235302656
I0425 09:41:52.407413 21586 layer_factory.hpp:77] Creating layer relu4
I0425 09:41:52.407421 21586 net.cpp:84] Creating Layer relu4
I0425 09:41:52.407426 21586 net.cpp:406] relu4 <- conv4
I0425 09:41:52.407431 21586 net.cpp:367] relu4 -> conv4 (in-place)
I0425 09:41:52.407780 21586 net.cpp:122] Setting up relu4
I0425 09:41:52.407788 21586 net.cpp:129] Top shape: 32 384 11 11 (1486848)
I0425 09:41:52.407791 21586 net.cpp:137] Memory required for data: 241250048
I0425 09:41:52.407795 21586 layer_factory.hpp:77] Creating layer conv5
I0425 09:41:52.407805 21586 net.cpp:84] Creating Layer conv5
I0425 09:41:52.407809 21586 net.cpp:406] conv5 <- conv4
I0425 09:41:52.407815 21586 net.cpp:380] conv5 -> conv5
I0425 09:41:52.428968 21586 net.cpp:122] Setting up conv5
I0425 09:41:52.428987 21586 net.cpp:129] Top shape: 32 256 11 11 (991232)
I0425 09:41:52.428990 21586 net.cpp:137] Memory required for data: 245214976
I0425 09:41:52.429005 21586 layer_factory.hpp:77] Creating layer relu5
I0425 09:41:52.429013 21586 net.cpp:84] Creating Layer relu5
I0425 09:41:52.429018 21586 net.cpp:406] relu5 <- conv5
I0425 09:41:52.429042 21586 net.cpp:367] relu5 -> conv5 (in-place)
I0425 09:41:52.429687 21586 net.cpp:122] Setting up relu5
I0425 09:41:52.429699 21586 net.cpp:129] Top shape: 32 256 11 11 (991232)
I0425 09:41:52.429704 21586 net.cpp:137] Memory required for data: 249179904
I0425 09:41:52.429710 21586 layer_factory.hpp:77] Creating layer pool5
I0425 09:41:52.429724 21586 net.cpp:84] Creating Layer pool5
I0425 09:41:52.429730 21586 net.cpp:406] pool5 <- conv5
I0425 09:41:52.429739 21586 net.cpp:380] pool5 -> pool5
I0425 09:41:52.429793 21586 net.cpp:122] Setting up pool5
I0425 09:41:52.429800 21586 net.cpp:129] Top shape: 32 256 5 5 (204800)
I0425 09:41:52.429803 21586 net.cpp:137] Memory required for data: 249999104
I0425 09:41:52.429807 21586 layer_factory.hpp:77] Creating layer fc6
I0425 09:41:52.429814 21586 net.cpp:84] Creating Layer fc6
I0425 09:41:52.429821 21586 net.cpp:406] fc6 <- pool5
I0425 09:41:52.429826 21586 net.cpp:380] fc6 -> fc6
I0425 09:41:52.679136 21586 net.cpp:122] Setting up fc6
I0425 09:41:52.679157 21586 net.cpp:129] Top shape: 32 4096 (131072)
I0425 09:41:52.679160 21586 net.cpp:137] Memory required for data: 250523392
I0425 09:41:52.679169 21586 layer_factory.hpp:77] Creating layer relu6
I0425 09:41:52.679178 21586 net.cpp:84] Creating Layer relu6
I0425 09:41:52.679183 21586 net.cpp:406] relu6 <- fc6
I0425 09:41:52.679190 21586 net.cpp:367] relu6 -> fc6 (in-place)
I0425 09:41:52.680055 21586 net.cpp:122] Setting up relu6
I0425 09:41:52.680064 21586 net.cpp:129] Top shape: 32 4096 (131072)
I0425 09:41:52.680069 21586 net.cpp:137] Memory required for data: 251047680
I0425 09:41:52.680073 21586 layer_factory.hpp:77] Creating layer drop6
I0425 09:41:52.680080 21586 net.cpp:84] Creating Layer drop6
I0425 09:41:52.680084 21586 net.cpp:406] drop6 <- fc6
I0425 09:41:52.680094 21586 net.cpp:367] drop6 -> fc6 (in-place)
I0425 09:41:52.680120 21586 net.cpp:122] Setting up drop6
I0425 09:41:52.680125 21586 net.cpp:129] Top shape: 32 4096 (131072)
I0425 09:41:52.680128 21586 net.cpp:137] Memory required for data: 251571968
I0425 09:41:52.680132 21586 layer_factory.hpp:77] Creating layer fc7
I0425 09:41:52.680142 21586 net.cpp:84] Creating Layer fc7
I0425 09:41:52.680147 21586 net.cpp:406] fc7 <- fc6
I0425 09:41:52.680153 21586 net.cpp:380] fc7 -> fc7
I0425 09:41:52.838642 21586 net.cpp:122] Setting up fc7
I0425 09:41:52.838660 21586 net.cpp:129] Top shape: 32 4096 (131072)
I0425 09:41:52.838665 21586 net.cpp:137] Memory required for data: 252096256
I0425 09:41:52.838672 21586 layer_factory.hpp:77] Creating layer relu7
I0425 09:41:52.838681 21586 net.cpp:84] Creating Layer relu7
I0425 09:41:52.838686 21586 net.cpp:406] relu7 <- fc7
I0425 09:41:52.838693 21586 net.cpp:367] relu7 -> fc7 (in-place)
I0425 09:41:52.839112 21586 net.cpp:122] Setting up relu7
I0425 09:41:52.839120 21586 net.cpp:129] Top shape: 32 4096 (131072)
I0425 09:41:52.839123 21586 net.cpp:137] Memory required for data: 252620544
I0425 09:41:52.839128 21586 layer_factory.hpp:77] Creating layer drop7
I0425 09:41:52.839133 21586 net.cpp:84] Creating Layer drop7
I0425 09:41:52.839138 21586 net.cpp:406] drop7 <- fc7
I0425 09:41:52.839141 21586 net.cpp:367] drop7 -> fc7 (in-place)
I0425 09:41:52.839164 21586 net.cpp:122] Setting up drop7
I0425 09:41:52.839169 21586 net.cpp:129] Top shape: 32 4096 (131072)
I0425 09:41:52.839172 21586 net.cpp:137] Memory required for data: 253144832
I0425 09:41:52.839175 21586 layer_factory.hpp:77] Creating layer fc8
I0425 09:41:52.839184 21586 net.cpp:84] Creating Layer fc8
I0425 09:41:52.839186 21586 net.cpp:406] fc8 <- fc7
I0425 09:41:52.839191 21586 net.cpp:380] fc8 -> fc8
I0425 09:41:52.872717 21586 net.cpp:122] Setting up fc8
I0425 09:41:52.872735 21586 net.cpp:129] Top shape: 32 196 (6272)
I0425 09:41:52.872740 21586 net.cpp:137] Memory required for data: 253169920
I0425 09:41:52.872750 21586 layer_factory.hpp:77] Creating layer fc8_fc8_0_split
I0425 09:41:52.872762 21586 net.cpp:84] Creating Layer fc8_fc8_0_split
I0425 09:41:52.872768 21586 net.cpp:406] fc8_fc8_0_split <- fc8
I0425 09:41:52.872797 21586 net.cpp:380] fc8_fc8_0_split -> fc8_fc8_0_split_0
I0425 09:41:52.872812 21586 net.cpp:380] fc8_fc8_0_split -> fc8_fc8_0_split_1
I0425 09:41:52.872860 21586 net.cpp:122] Setting up fc8_fc8_0_split
I0425 09:41:52.872867 21586 net.cpp:129] Top shape: 32 196 (6272)
I0425 09:41:52.872872 21586 net.cpp:129] Top shape: 32 196 (6272)
I0425 09:41:52.872876 21586 net.cpp:137] Memory required for data: 253220096
I0425 09:41:52.872880 21586 layer_factory.hpp:77] Creating layer accuracy
I0425 09:41:52.872889 21586 net.cpp:84] Creating Layer accuracy
I0425 09:41:52.872895 21586 net.cpp:406] accuracy <- fc8_fc8_0_split_0
I0425 09:41:52.872900 21586 net.cpp:406] accuracy <- label_val-data_1_split_0
I0425 09:41:52.872906 21586 net.cpp:380] accuracy -> accuracy
…
