…
I0426 10:11:25.749539 21743 net.cpp:294] The NetState phase (0) differed from the phase (1) specified by a rule in layer accuracy
I0426 10:11:25.749668 21743 net.cpp:51] Initializing net from parameters:
state {
phase: TRAIN
level: 0
stage: ""
}
layer {
name: "train-data"
type: "Data"
top: "data"
top: "label"
include {
phase: TRAIN
}
transform_param {
mirror: true
crop_size: 227
mean_file: "/mnt/bigdisk/DIGITS-MAN-3/digits/jobs/20210421-230320-902c/mean.binaryproto"
}
data_param {
source: "/mnt/bigdisk/DIGITS-MAN-3/digits/jobs/20210421-230320-902c/train_db"
batch_size: 128
backend: LMDB
}
}
layer {
name: "conv1"
type: "Convolution"
bottom: "data"
top: "conv1"
param {
lr_mult: 1
decay_mult: 1
}
param {
lr_mult: 2
decay_mult: 0
}
convolution_param {
num_output: 96
kernel_size: 11
stride: 4
weight_filler {
type: "gaussian"
std: 0.01
}
bias_filler {
type: "constant"
value: 0
}
}
}
layer {
name: "relu1"
type: "ReLU"
bottom: "conv1"
top: "conv1"
}
layer {
name: "norm1"
type: "LRN"
bottom: "conv1"
top: "norm1"
lrn_param {
local_size: 5
alpha: 0.0001
beta: 0.75
}
}
layer {
name: "pool1"
type: "Pooling"
bottom: "norm1"
top: "pool1"
pooling_param {
pool: MAX
kernel_size: 3
stride: 2
}
}
layer {
name: "conv2"
type: "Convolution"
bottom: "pool1"
top: "conv2"
param {
lr_mult: 1
decay_mult: 1
}
param {
lr_mult: 2
decay_mult: 0
}
convolution_param {
num_output: 256
pad: 2
kernel_size: 5
group: 2
weight_filler {
type: "gaussian"
std: 0.01
}
bias_filler {
type: "constant"
value: 0.1
}
}
}
layer {
name: "relu2"
type: "ReLU"
bottom: "conv2"
top: "conv2"
}
layer {
name: "norm2"
type: "LRN"
bottom: "conv2"
top: "norm2"
lrn_param {
local_size: 5
alpha: 0.0001
beta: 0.75
}
}
layer {
name: "pool2"
type: "Pooling"
bottom: "norm2"
top: "pool2"
pooling_param {
pool: MAX
kernel_size: 3
stride: 2
}
}
layer {
name: "conv3"
type: "Convolution"
bottom: "pool2"
top: "conv3"
param {
lr_mult: 1
decay_mult: 1
}
param {
lr_mult: 2
decay_mult: 0
}
convolution_param {
num_output: 384
pad: 1
kernel_size: 3
weight_filler {
type: "gaussian"
std: 0.01
}
bias_filler {
type: "constant"
value: 0
}
}
}
layer {
name: "relu3"
type: "ReLU"
bottom: "conv3"
top: "conv3"
}
layer {
name: "conv4"
type: "Convolution"
bottom: "conv3"
top: "conv4"
param {
lr_mult: 1
decay_mult: 1
}
param {
lr_mult: 2
decay_mult: 0
}
convolution_param {
num_output: 384
pad: 1
kernel_size: 11
group: 2
weight_filler {
type: "gaussian"
std: 0.01
}
bias_filler {
type: "constant"
value: 0.1
}
}
}
layer {
name: "relu4"
type: "ReLU"
bottom: "conv4"
top: "conv4"
}
layer {
name: "conv5"
type: "Convolution"
bottom: "conv4"
top: "conv5"
param {
lr_mult: 1
decay_mult: 1
}
param {
lr_mult: 2
decay_mult: 0
}
convolution_param {
num_output: 256
pad: 1
kernel_size: 3
group: 2
weight_filler {
type: "gaussian"
std: 0.01
}
bias_filler {
type: "constant"
value: 0.1
}
}
}
layer {
name: "relu5"
type: "ReLU"
bottom: "conv5"
top: "conv5"
}
layer {
name: "pool5"
type: "Pooling"
bottom: "conv5"
top: "pool5"
pooling_param {
pool: MAX
kernel_size: 3
stride: 2
}
}
layer {
name: "fc6"
type: "InnerProduct"
bottom: "pool5"
top: "fc6"
param {
lr_mult: 1
decay_mult: 1
}
param {
lr_mult: 2
decay_mult: 0
}
inner_product_param {
num_output: 4096
weight_filler {
type: "gaussian"
std: 0.005
}
bias_filler {
type: "constant"
value: 0.1
}
}
}
layer {
name: "relu6"
type: "ReLU"
bottom: "fc6"
top: "fc6"
}
layer {
name: "drop6"
type: "Dropout"
bottom: "fc6"
top: "fc6"
dropout_param {
dropout_ratio: 0.5
}
}
layer {
name: "fc7"
type: "InnerProduct"
bottom: "fc6"
top: "fc7"
param {
lr_mult: 1
decay_mult: 1
}
param {
lr_mult: 2
decay_mult: 0
}
inner_product_param {
num_output: 4096
weight_filler {
type: "gaussian"
std: 0.005
}
bias_filler {
type: "constant"
value: 0.1
}
}
}
layer {
name: "relu7"
type: "ReLU"
bottom: "fc7"
top: "fc7"
}
layer {
name: "drop7"
type: "Dropout"
bottom: "fc7"
top: "fc7"
dropout_param {
dropout_ratio: 0.5
}
}
layer {
name: "fc8"
type: "InnerProduct"
bottom: "fc7"
top: "fc8"
param {
lr_mult: 1
decay_mult: 1
}
param {
lr_mult: 2
decay_mult: 0
}
inner_product_param {
num_output: 196
weight_filler {
type: "gaussian"
std: 0.01
}
bias_filler {
type: "constant"
value: 0
}
}
}
layer {
name: "loss"
type: "SoftmaxWithLoss"
bottom: "fc8"
bottom: "label"
top: "loss"
}
I0426 10:11:25.749749 21743 layer_factory.hpp:77] Creating layer train-data
I0426 10:11:25.752009 21743 db_lmdb.cpp:35] Opened lmdb /mnt/bigdisk/DIGITS-MAN-3/digits/jobs/20210421-230320-902c/train_db
I0426 10:11:25.752178 21743 net.cpp:84] Creating Layer train-data
I0426 10:11:25.752188 21743 net.cpp:380] train-data -> data
I0426 10:11:25.752207 21743 net.cpp:380] train-data -> label
I0426 10:11:25.752218 21743 data_transformer.cpp:25] Loading mean file from: /mnt/bigdisk/DIGITS-MAN-3/digits/jobs/20210421-230320-902c/mean.binaryproto
I0426 10:11:25.757576 21743 data_layer.cpp:45] output data size: 128,3,227,227
I0426 10:11:25.904551 21743 net.cpp:122] Setting up train-data
I0426 10:11:25.904568 21743 net.cpp:129] Top shape: 128 3 227 227 (19787136)
I0426 10:11:25.904574 21743 net.cpp:129] Top shape: 128 (128)
I0426 10:11:25.904577 21743 net.cpp:137] Memory required for data: 79149056
I0426 10:11:25.904587 21743 layer_factory.hpp:77] Creating layer conv1
I0426 10:11:25.904605 21743 net.cpp:84] Creating Layer conv1
I0426 10:11:25.904613 21743 net.cpp:406] conv1 <- data
I0426 10:11:25.904623 21743 net.cpp:380] conv1 -> conv1
I0426 10:11:26.498826 21743 net.cpp:122] Setting up conv1
I0426 10:11:26.498847 21743 net.cpp:129] Top shape: 128 96 55 55 (37171200)
I0426 10:11:26.498852 21743 net.cpp:137] Memory required for data: 227833856
I0426 10:11:26.498872 21743 layer_factory.hpp:77] Creating layer relu1
I0426 10:11:26.498883 21743 net.cpp:84] Creating Layer relu1
I0426 10:11:26.498886 21743 net.cpp:406] relu1 <- conv1
I0426 10:11:26.498893 21743 net.cpp:367] relu1 -> conv1 (in-place)
I0426 10:11:26.499202 21743 net.cpp:122] Setting up relu1
I0426 10:11:26.499212 21743 net.cpp:129] Top shape: 128 96 55 55 (37171200)
I0426 10:11:26.499214 21743 net.cpp:137] Memory required for data: 376518656
I0426 10:11:26.499218 21743 layer_factory.hpp:77] Creating layer norm1
I0426 10:11:26.499228 21743 net.cpp:84] Creating Layer norm1
I0426 10:11:26.499231 21743 net.cpp:406] norm1 <- conv1
I0426 10:11:26.499259 21743 net.cpp:380] norm1 -> norm1
I0426 10:11:26.499703 21743 net.cpp:122] Setting up norm1
I0426 10:11:26.499714 21743 net.cpp:129] Top shape: 128 96 55 55 (37171200)
I0426 10:11:26.499717 21743 net.cpp:137] Memory required for data: 525203456
I0426 10:11:26.499722 21743 layer_factory.hpp:77] Creating layer pool1
I0426 10:11:26.499729 21743 net.cpp:84] Creating Layer pool1
I0426 10:11:26.499732 21743 net.cpp:406] pool1 <- norm1
I0426 10:11:26.499738 21743 net.cpp:380] pool1 -> pool1
I0426 10:11:26.499774 21743 net.cpp:122] Setting up pool1
I0426 10:11:26.499780 21743 net.cpp:129] Top shape: 128 96 27 27 (8957952)
I0426 10:11:26.499783 21743 net.cpp:137] Memory required for data: 561035264
I0426 10:11:26.499788 21743 layer_factory.hpp:77] Creating layer conv2
I0426 10:11:26.499796 21743 net.cpp:84] Creating Layer conv2
I0426 10:11:26.499800 21743 net.cpp:406] conv2 <- pool1
I0426 10:11:26.499804 21743 net.cpp:380] conv2 -> conv2
I0426 10:11:26.506615 21743 net.cpp:122] Setting up conv2
I0426 10:11:26.506633 21743 net.cpp:129] Top shape: 128 256 27 27 (23887872)
I0426 10:11:26.506636 21743 net.cpp:137] Memory required for data: 656586752
I0426 10:11:26.506647 21743 layer_factory.hpp:77] Creating layer relu2
I0426 10:11:26.506655 21743 net.cpp:84] Creating Layer relu2
I0426 10:11:26.506659 21743 net.cpp:406] relu2 <- conv2
I0426 10:11:26.506665 21743 net.cpp:367] relu2 -> conv2 (in-place)
I0426 10:11:26.507086 21743 net.cpp:122] Setting up relu2
I0426 10:11:26.507095 21743 net.cpp:129] Top shape: 128 256 27 27 (23887872)
I0426 10:11:26.507099 21743 net.cpp:137] Memory required for data: 752138240
I0426 10:11:26.507102 21743 layer_factory.hpp:77] Creating layer norm2
I0426 10:11:26.507110 21743 net.cpp:84] Creating Layer norm2
I0426 10:11:26.507113 21743 net.cpp:406] norm2 <- conv2
I0426 10:11:26.507118 21743 net.cpp:380] norm2 -> norm2
I0426 10:11:26.507407 21743 net.cpp:122] Setting up norm2
I0426 10:11:26.507416 21743 net.cpp:129] Top shape: 128 256 27 27 (23887872)
I0426 10:11:26.507418 21743 net.cpp:137] Memory required for data: 847689728
I0426 10:11:26.507422 21743 layer_factory.hpp:77] Creating layer pool2
I0426 10:11:26.507429 21743 net.cpp:84] Creating Layer pool2
I0426 10:11:26.507433 21743 net.cpp:406] pool2 <- norm2
I0426 10:11:26.507438 21743 net.cpp:380] pool2 -> pool2
I0426 10:11:26.507465 21743 net.cpp:122] Setting up pool2
I0426 10:11:26.507470 21743 net.cpp:129] Top shape: 128 256 13 13 (5537792)
I0426 10:11:26.507473 21743 net.cpp:137] Memory required for data: 869840896
I0426 10:11:26.507477 21743 layer_factory.hpp:77] Creating layer conv3
I0426 10:11:26.507485 21743 net.cpp:84] Creating Layer conv3
I0426 10:11:26.507489 21743 net.cpp:406] conv3 <- pool2
I0426 10:11:26.507493 21743 net.cpp:380] conv3 -> conv3
I0426 10:11:26.524523 21743 net.cpp:122] Setting up conv3
I0426 10:11:26.524539 21743 net.cpp:129] Top shape: 128 384 13 13 (8306688)
I0426 10:11:26.524544 21743 net.cpp:137] Memory required for data: 903067648
I0426 10:11:26.524555 21743 layer_factory.hpp:77] Creating layer relu3
I0426 10:11:26.524564 21743 net.cpp:84] Creating Layer relu3
I0426 10:11:26.524567 21743 net.cpp:406] relu3 <- conv3
I0426 10:11:26.524574 21743 net.cpp:367] relu3 -> conv3 (in-place)
I0426 10:11:26.524981 21743 net.cpp:122] Setting up relu3
I0426 10:11:26.524991 21743 net.cpp:129] Top shape: 128 384 13 13 (8306688)
I0426 10:11:26.524994 21743 net.cpp:137] Memory required for data: 936294400
I0426 10:11:26.524998 21743 layer_factory.hpp:77] Creating layer conv4
I0426 10:11:26.525008 21743 net.cpp:84] Creating Layer conv4
I0426 10:11:26.525012 21743 net.cpp:406] conv4 <- conv3
I0426 10:11:26.525017 21743 net.cpp:380] conv4 -> conv4
I0426 10:11:26.629963 21743 net.cpp:122] Setting up conv4
I0426 10:11:26.629987 21743 net.cpp:129] Top shape: 128 384 5 5 (1228800)
I0426 10:11:26.629990 21743 net.cpp:137] Memory required for data: 941209600
I0426 10:11:26.630002 21743 layer_factory.hpp:77] Creating layer relu4
I0426 10:11:26.630012 21743 net.cpp:84] Creating Layer relu4
I0426 10:11:26.630036 21743 net.cpp:406] relu4 <- conv4
I0426 10:11:26.630044 21743 net.cpp:367] relu4 -> conv4 (in-place)
I0426 10:11:26.630324 21743 net.cpp:122] Setting up relu4
I0426 10:11:26.630332 21743 net.cpp:129] Top shape: 128 384 5 5 (1228800)
I0426 10:11:26.630336 21743 net.cpp:137] Memory required for data: 946124800
I0426 10:11:26.630340 21743 layer_factory.hpp:77] Creating layer conv5
I0426 10:11:26.630352 21743 net.cpp:84] Creating Layer conv5
I0426 10:11:26.630357 21743 net.cpp:406] conv5 <- conv4
I0426 10:11:26.630362 21743 net.cpp:380] conv5 -> conv5
I0426 10:11:26.643474 21743 net.cpp:122] Setting up conv5
I0426 10:11:26.643492 21743 net.cpp:129] Top shape: 128 256 5 5 (819200)
I0426 10:11:26.643496 21743 net.cpp:137] Memory required for data: 949401600
I0426 10:11:26.643508 21743 layer_factory.hpp:77] Creating layer relu5
I0426 10:11:26.643518 21743 net.cpp:84] Creating Layer relu5
I0426 10:11:26.643522 21743 net.cpp:406] relu5 <- conv5
I0426 10:11:26.643528 21743 net.cpp:367] relu5 -> conv5 (in-place)
I0426 10:11:26.643946 21743 net.cpp:122] Setting up relu5
I0426 10:11:26.643955 21743 net.cpp:129] Top shape: 128 256 5 5 (819200)
I0426 10:11:26.643959 21743 net.cpp:137] Memory required for data: 952678400
I0426 10:11:26.643962 21743 layer_factory.hpp:77] Creating layer pool5
I0426 10:11:26.643970 21743 net.cpp:84] Creating Layer pool5
I0426 10:11:26.643973 21743 net.cpp:406] pool5 <- conv5
I0426 10:11:26.643978 21743 net.cpp:380] pool5 -> pool5
I0426 10:11:26.644012 21743 net.cpp:122] Setting up pool5
I0426 10:11:26.644017 21743 net.cpp:129] Top shape: 128 256 2 2 (131072)
I0426 10:11:26.644021 21743 net.cpp:137] Memory required for data: 953202688
I0426 10:11:26.644024 21743 layer_factory.hpp:77] Creating layer fc6
I0426 10:11:26.644032 21743 net.cpp:84] Creating Layer fc6
I0426 10:11:26.644035 21743 net.cpp:406] fc6 <- pool5
I0426 10:11:26.644040 21743 net.cpp:380] fc6 -> fc6
I0426 10:11:26.684538 21743 net.cpp:122] Setting up fc6
I0426 10:11:26.684561 21743 net.cpp:129] Top shape: 128 4096 (524288)
I0426 10:11:26.684566 21743 net.cpp:137] Memory required for data: 955299840
I0426 10:11:26.684576 21743 layer_factory.hpp:77] Creating layer relu6
I0426 10:11:26.684585 21743 net.cpp:84] Creating Layer relu6
I0426 10:11:26.684592 21743 net.cpp:406] relu6 <- fc6
I0426 10:11:26.684598 21743 net.cpp:367] relu6 -> fc6 (in-place)
I0426 10:11:26.685362 21743 net.cpp:122] Setting up relu6
I0426 10:11:26.685375 21743 net.cpp:129] Top shape: 128 4096 (524288)
I0426 10:11:26.685379 21743 net.cpp:137] Memory required for data: 957396992
I0426 10:11:26.685384 21743 layer_factory.hpp:77] Creating layer drop6
I0426 10:11:26.685392 21743 net.cpp:84] Creating Layer drop6
I0426 10:11:26.685396 21743 net.cpp:406] drop6 <- fc6
I0426 10:11:26.685402 21743 net.cpp:367] drop6 -> fc6 (in-place)
I0426 10:11:26.685432 21743 net.cpp:122] Setting up drop6
I0426 10:11:26.685437 21743 net.cpp:129] Top shape: 128 4096 (524288)
I0426 10:11:26.685441 21743 net.cpp:137] Memory required for data: 959494144
I0426 10:11:26.685444 21743 layer_factory.hpp:77] Creating layer fc7
I0426 10:11:26.685452 21743 net.cpp:84] Creating Layer fc7
I0426 10:11:26.685456 21743 net.cpp:406] fc7 <- fc6
I0426 10:11:26.685461 21743 net.cpp:380] fc7 -> fc7
I0426 10:11:26.848137 21743 net.cpp:122] Setting up fc7
I0426 10:11:26.848160 21743 net.cpp:129] Top shape: 128 4096 (524288)
I0426 10:11:26.848163 21743 net.cpp:137] Memory required for data: 961591296
I0426 10:11:26.848173 21743 layer_factory.hpp:77] Creating layer relu7
I0426 10:11:26.848183 21743 net.cpp:84] Creating Layer relu7
I0426 10:11:26.848187 21743 net.cpp:406] relu7 <- fc7
I0426 10:11:26.848194 21743 net.cpp:367] relu7 -> fc7 (in-place)
I0426 10:11:26.848582 21743 net.cpp:122] Setting up relu7
I0426 10:11:26.848589 21743 net.cpp:129] Top shape: 128 4096 (524288)
I0426 10:11:26.848593 21743 net.cpp:137] Memory required for data: 963688448
I0426 10:11:26.848598 21743 layer_factory.hpp:77] Creating layer drop7
I0426 10:11:26.848604 21743 net.cpp:84] Creating Layer drop7
I0426 10:11:26.848608 21743 net.cpp:406] drop7 <- fc7
I0426 10:11:26.848634 21743 net.cpp:367] drop7 -> fc7 (in-place)
I0426 10:11:26.848659 21743 net.cpp:122] Setting up drop7
I0426 10:11:26.848664 21743 net.cpp:129] Top shape: 128 4096 (524288)
I0426 10:11:26.848667 21743 net.cpp:137] Memory required for data: 965785600
I0426 10:11:26.848670 21743 layer_factory.hpp:77] Creating layer fc8
I0426 10:11:26.848677 21743 net.cpp:84] Creating Layer fc8
I0426 10:11:26.848681 21743 net.cpp:406] fc8 <- fc7
I0426 10:11:26.848686 21743 net.cpp:380] fc8 -> fc8
I0426 10:11:26.856644 21743 net.cpp:122] Setting up fc8
I0426 10:11:26.856657 21743 net.cpp:129] Top shape: 128 196 (25088)
I0426 10:11:26.856660 21743 net.cpp:137] Memory required for data: 965885952
I0426 10:11:26.856667 21743 layer_factory.hpp:77] Creating layer loss
I0426 10:11:26.856674 21743 net.cpp:84] Creating Layer loss
I0426 10:11:26.856680 21743 net.cpp:406] loss <- fc8
I0426 10:11:26.856685 21743 net.cpp:406] loss <- label
I0426 10:11:26.856691 21743 net.cpp:380] loss -> loss
I0426 10:11:26.856701 21743 layer_factory.hpp:77] Creating layer loss
…
I0426 10:11:26.858062 21743 net.cpp:294] The NetState phase (1) differed from the phase (0) specified by a rule in layer train-data
I0426 10:11:26.858203 21743 net.cpp:51] Initializing net from parameters:
state {
phase: TEST
}
layer {
name: "val-data"
type: "Data"
top: "data"
top: "label"
include {
phase: TEST
}
transform_param {
crop_size: 227
mean_file: "/mnt/bigdisk/DIGITS-MAN-3/digits/jobs/20210421-230320-902c/mean.binaryproto"
}
data_param {
source: "/mnt/bigdisk/DIGITS-MAN-3/digits/jobs/20210421-230320-902c/val_db"
batch_size: 32
backend: LMDB
}
}
layer {
name: "conv1"
type: "Convolution"
bottom: "data"
top: "conv1"
param {
lr_mult: 1
decay_mult: 1
}
param {
lr_mult: 2
decay_mult: 0
}
convolution_param {
num_output: 96
kernel_size: 11
stride: 4
weight_filler {
type: "gaussian"
std: 0.01
}
bias_filler {
type: "constant"
value: 0
}
}
}
layer {
name: "relu1"
type: "ReLU"
bottom: "conv1"
top: "conv1"
}
layer {
name: "norm1"
type: "LRN"
bottom: "conv1"
top: "norm1"
lrn_param {
local_size: 5
alpha: 0.0001
beta: 0.75
}
}
layer {
name: "pool1"
type: "Pooling"
bottom: "norm1"
top: "pool1"
pooling_param {
pool: MAX
kernel_size: 3
stride: 2
}
}
layer {
name: "conv2"
type: "Convolution"
bottom: "pool1"
top: "conv2"
param {
lr_mult: 1
decay_mult: 1
}
param {
lr_mult: 2
decay_mult: 0
}
convolution_param {
num_output: 256
pad: 2
kernel_size: 5
group: 2
weight_filler {
type: "gaussian"
std: 0.01
}
bias_filler {
type: "constant"
value: 0.1
}
}
}
layer {
name: "relu2"
type: "ReLU"
bottom: "conv2"
top: "conv2"
}
layer {
name: "norm2"
type: "LRN"
bottom: "conv2"
top: "norm2"
lrn_param {
local_size: 5
alpha: 0.0001
beta: 0.75
}
}
layer {
name: "pool2"
type: "Pooling"
bottom: "norm2"
top: "pool2"
pooling_param {
pool: MAX
kernel_size: 3
stride: 2
}
}
layer {
name: "conv3"
type: "Convolution"
bottom: "pool2"
top: "conv3"
param {
lr_mult: 1
decay_mult: 1
}
param {
lr_mult: 2
decay_mult: 0
}
convolution_param {
num_output: 384
pad: 1
kernel_size: 3
weight_filler {
type: "gaussian"
std: 0.01
}
bias_filler {
type: "constant"
value: 0
}
}
}
layer {
name: "relu3"
type: "ReLU"
bottom: "conv3"
top: "conv3"
}
layer {
name: "conv4"
type: "Convolution"
bottom: "conv3"
top: "conv4"
param {
lr_mult: 1
decay_mult: 1
}
param {
lr_mult: 2
decay_mult: 0
}
convolution_param {
num_output: 384
pad: 1
kernel_size: 11
group: 2
weight_filler {
type: "gaussian"
std: 0.01
}
bias_filler {
type: "constant"
value: 0.1
}
}
}
layer {
name: "relu4"
type: "ReLU"
bottom: "conv4"
top: "conv4"
}
layer {
name: "conv5"
type: "Convolution"
bottom: "conv4"
top: "conv5"
param {
lr_mult: 1
decay_mult: 1
}
param {
lr_mult: 2
decay_mult: 0
}
convolution_param {
num_output: 256
pad: 1
kernel_size: 3
group: 2
weight_filler {
type: "gaussian"
std: 0.01
}
bias_filler {
type: "constant"
value: 0.1
}
}
}
layer {
name: "relu5"
type: "ReLU"
bottom: "conv5"
top: "conv5"
}
layer {
name: "pool5"
type: "Pooling"
bottom: "conv5"
top: "pool5"
pooling_param {
pool: MAX
kernel_size: 3
stride: 2
}
}
layer {
name: "fc6"
type: "InnerProduct"
bottom: "pool5"
top: "fc6"
param {
lr_mult: 1
decay_mult: 1
}
param {
lr_mult: 2
decay_mult: 0
}
inner_product_param {
num_output: 4096
weight_filler {
type: "gaussian"
std: 0.005
}
bias_filler {
type: "constant"
value: 0.1
}
}
}
layer {
name: "relu6"
type: "ReLU"
bottom: "fc6"
top: "fc6"
}
layer {
name: "drop6"
type: "Dropout"
bottom: "fc6"
top: "fc6"
dropout_param {
dropout_ratio: 0.5
}
}
layer {
name: "fc7"
type: "InnerProduct"
bottom: "fc6"
top: "fc7"
param {
lr_mult: 1
decay_mult: 1
}
param {
lr_mult: 2
decay_mult: 0
}
inner_product_param {
num_output: 4096
weight_filler {
type: "gaussian"
std: 0.005
}
bias_filler {
type: "constant"
value: 0.1
}
}
}
layer {
name: "relu7"
type: "ReLU"
bottom: "fc7"
top: "fc7"
}
layer {
name: "drop7"
type: "Dropout"
bottom: "fc7"
top: "fc7"
dropout_param {
dropout_ratio: 0.5
}
}
layer {
name: "fc8"
type: "InnerProduct"
bottom: "fc7"
top: "fc8"
param {
lr_mult: 1
decay_mult: 1
}
param {
lr_mult: 2
decay_mult: 0
}
inner_product_param {
num_output: 196
weight_filler {
type: "gaussian"
std: 0.01
}
bias_filler {
type: "constant"
value: 0
}
}
}
layer {
name: "accuracy"
type: "Accuracy"
bottom: "fc8"
bottom: "label"
top: "accuracy"
include {
phase: TEST
}
}
layer {
name: "loss"
type: "SoftmaxWithLoss"
bottom: "fc8"
bottom: "label"
top: "loss"
}
I0426 10:11:26.858299 21743 layer_factory.hpp:77] Creating layer val-data
I0426 10:11:26.860100 21743 db_lmdb.cpp:35] Opened lmdb /mnt/bigdisk/DIGITS-MAN-3/digits/jobs/20210421-230320-902c/val_db
I0426 10:11:26.860272 21743 net.cpp:84] Creating Layer val-data
I0426 10:11:26.860281 21743 net.cpp:380] val-data -> data
I0426 10:11:26.860289 21743 net.cpp:380] val-data -> label
I0426 10:11:26.860296 21743 data_transformer.cpp:25] Loading mean file from: /mnt/bigdisk/DIGITS-MAN-3/digits/jobs/20210421-230320-902c/mean.binaryproto
I0426 10:11:26.863674 21743 data_layer.cpp:45] output data size: 32,3,227,227
I0426 10:11:26.902355 21743 net.cpp:122] Setting up val-data
I0426 10:11:26.902376 21743 net.cpp:129] Top shape: 32 3 227 227 (4946784)
I0426 10:11:26.902380 21743 net.cpp:129] Top shape: 32 (32)
I0426 10:11:26.902384 21743 net.cpp:137] Memory required for data: 19787264
I0426 10:11:26.902390 21743 layer_factory.hpp:77] Creating layer label_val-data_1_split
I0426 10:11:26.902402 21743 net.cpp:84] Creating Layer label_val-data_1_split
I0426 10:11:26.902406 21743 net.cpp:406] label_val-data_1_split <- label
I0426 10:11:26.902413 21743 net.cpp:380] label_val-data_1_split -> label_val-data_1_split_0
I0426 10:11:26.902422 21743 net.cpp:380] label_val-data_1_split -> label_val-data_1_split_1
I0426 10:11:26.902546 21743 net.cpp:122] Setting up label_val-data_1_split
I0426 10:11:26.902552 21743 net.cpp:129] Top shape: 32 (32)
I0426 10:11:26.902556 21743 net.cpp:129] Top shape: 32 (32)
I0426 10:11:26.902559 21743 net.cpp:137] Memory required for data: 19787520
I0426 10:11:26.902562 21743 layer_factory.hpp:77] Creating layer conv1
I0426 10:11:26.902575 21743 net.cpp:84] Creating Layer conv1
I0426 10:11:26.902578 21743 net.cpp:406] conv1 <- data
I0426 10:11:26.902583 21743 net.cpp:380] conv1 -> conv1
I0426 10:11:26.906023 21743 net.cpp:122] Setting up conv1
I0426 10:11:26.906035 21743 net.cpp:129] Top shape: 32 96 55 55 (9292800)
I0426 10:11:26.906039 21743 net.cpp:137] Memory required for data: 56958720
I0426 10:11:26.906049 21743 layer_factory.hpp:77] Creating layer relu1
I0426 10:11:26.906055 21743 net.cpp:84] Creating Layer relu1
I0426 10:11:26.906059 21743 net.cpp:406] relu1 <- conv1
I0426 10:11:26.906064 21743 net.cpp:367] relu1 -> conv1 (in-place)
I0426 10:11:26.906347 21743 net.cpp:122] Setting up relu1
I0426 10:11:26.906355 21743 net.cpp:129] Top shape: 32 96 55 55 (9292800)
I0426 10:11:26.906358 21743 net.cpp:137] Memory required for data: 94129920
I0426 10:11:26.906363 21743 layer_factory.hpp:77] Creating layer norm1
I0426 10:11:26.906370 21743 net.cpp:84] Creating Layer norm1
I0426 10:11:26.906373 21743 net.cpp:406] norm1 <- conv1
I0426 10:11:26.906379 21743 net.cpp:380] norm1 -> norm1
I0426 10:11:26.906834 21743 net.cpp:122] Setting up norm1
I0426 10:11:26.906844 21743 net.cpp:129] Top shape: 32 96 55 55 (9292800)
I0426 10:11:26.906847 21743 net.cpp:137] Memory required for data: 131301120
I0426 10:11:26.906850 21743 layer_factory.hpp:77] Creating layer pool1
I0426 10:11:26.906857 21743 net.cpp:84] Creating Layer pool1
I0426 10:11:26.906862 21743 net.cpp:406] pool1 <- norm1
I0426 10:11:26.906867 21743 net.cpp:380] pool1 -> pool1
I0426 10:11:26.906893 21743 net.cpp:122] Setting up pool1
I0426 10:11:26.906898 21743 net.cpp:129] Top shape: 32 96 27 27 (2239488)
I0426 10:11:26.906901 21743 net.cpp:137] Memory required for data: 140259072
I0426 10:11:26.906904 21743 layer_factory.hpp:77] Creating layer conv2
I0426 10:11:26.906913 21743 net.cpp:84] Creating Layer conv2
I0426 10:11:26.906919 21743 net.cpp:406] conv2 <- pool1
I0426 10:11:26.906945 21743 net.cpp:380] conv2 -> conv2
I0426 10:11:26.914674 21743 net.cpp:122] Setting up conv2
I0426 10:11:26.914695 21743 net.cpp:129] Top shape: 32 256 27 27 (5971968)
I0426 10:11:26.914697 21743 net.cpp:137] Memory required for data: 164146944
I0426 10:11:26.914710 21743 layer_factory.hpp:77] Creating layer relu2
I0426 10:11:26.914721 21743 net.cpp:84] Creating Layer relu2
I0426 10:11:26.914726 21743 net.cpp:406] relu2 <- conv2
I0426 10:11:26.914731 21743 net.cpp:367] relu2 -> conv2 (in-place)
I0426 10:11:26.915338 21743 net.cpp:122] Setting up relu2
I0426 10:11:26.915349 21743 net.cpp:129] Top shape: 32 256 27 27 (5971968)
I0426 10:11:26.915352 21743 net.cpp:137] Memory required for data: 188034816
I0426 10:11:26.915356 21743 layer_factory.hpp:77] Creating layer norm2
I0426 10:11:26.915365 21743 net.cpp:84] Creating Layer norm2
I0426 10:11:26.915369 21743 net.cpp:406] norm2 <- conv2
I0426 10:11:26.915375 21743 net.cpp:380] norm2 -> norm2
I0426 10:11:26.915985 21743 net.cpp:122] Setting up norm2
I0426 10:11:26.915995 21743 net.cpp:129] Top shape: 32 256 27 27 (5971968)
I0426 10:11:26.915999 21743 net.cpp:137] Memory required for data: 211922688
I0426 10:11:26.916003 21743 layer_factory.hpp:77] Creating layer pool2
I0426 10:11:26.916011 21743 net.cpp:84] Creating Layer pool2
I0426 10:11:26.916015 21743 net.cpp:406] pool2 <- norm2
I0426 10:11:26.916020 21743 net.cpp:380] pool2 -> pool2
I0426 10:11:26.916051 21743 net.cpp:122] Setting up pool2
I0426 10:11:26.916057 21743 net.cpp:129] Top shape: 32 256 13 13 (1384448)
I0426 10:11:26.916060 21743 net.cpp:137] Memory required for data: 217460480
I0426 10:11:26.916064 21743 layer_factory.hpp:77] Creating layer conv3
I0426 10:11:26.916075 21743 net.cpp:84] Creating Layer conv3
I0426 10:11:26.916079 21743 net.cpp:406] conv3 <- pool2
I0426 10:11:26.916085 21743 net.cpp:380] conv3 -> conv3
I0426 10:11:26.928148 21743 net.cpp:122] Setting up conv3
I0426 10:11:26.928169 21743 net.cpp:129] Top shape: 32 384 13 13 (2076672)
I0426 10:11:26.928172 21743 net.cpp:137] Memory required for data: 225767168
I0426 10:11:26.928184 21743 layer_factory.hpp:77] Creating layer relu3
I0426 10:11:26.928192 21743 net.cpp:84] Creating Layer relu3
I0426 10:11:26.928196 21743 net.cpp:406] relu3 <- conv3
I0426 10:11:26.928206 21743 net.cpp:367] relu3 -> conv3 (in-place)
I0426 10:11:26.928767 21743 net.cpp:122] Setting up relu3
I0426 10:11:26.928778 21743 net.cpp:129] Top shape: 32 384 13 13 (2076672)
I0426 10:11:26.928782 21743 net.cpp:137] Memory required for data: 234073856
I0426 10:11:26.928786 21743 layer_factory.hpp:77] Creating layer conv4
I0426 10:11:26.928798 21743 net.cpp:84] Creating Layer conv4
I0426 10:11:26.928802 21743 net.cpp:406] conv4 <- conv3
I0426 10:11:26.928808 21743 net.cpp:380] conv4 -> conv4
I0426 10:11:27.028590 21743 net.cpp:122] Setting up conv4
I0426 10:11:27.028611 21743 net.cpp:129] Top shape: 32 384 5 5 (307200)
I0426 10:11:27.028615 21743 net.cpp:137] Memory required for data: 235302656
I0426 10:11:27.028625 21743 layer_factory.hpp:77] Creating layer relu4
I0426 10:11:27.028635 21743 net.cpp:84] Creating Layer relu4
I0426 10:11:27.028640 21743 net.cpp:406] relu4 <- conv4
I0426 10:11:27.028645 21743 net.cpp:367] relu4 -> conv4 (in-place)
I0426 10:11:27.029011 21743 net.cpp:122] Setting up relu4
I0426 10:11:27.029019 21743 net.cpp:129] Top shape: 32 384 5 5 (307200)
I0426 10:11:27.029022 21743 net.cpp:137] Memory required for data: 236531456
I0426 10:11:27.029026 21743 layer_factory.hpp:77] Creating layer conv5
I0426 10:11:27.029037 21743 net.cpp:84] Creating Layer conv5
I0426 10:11:27.029040 21743 net.cpp:406] conv5 <- conv4
I0426 10:11:27.029048 21743 net.cpp:380] conv5 -> conv5
I0426 10:11:27.038008 21743 net.cpp:122] Setting up conv5
I0426 10:11:27.038026 21743 net.cpp:129] Top shape: 32 256 5 5 (204800)
I0426 10:11:27.038030 21743 net.cpp:137] Memory required for data: 237350656
I0426 10:11:27.038045 21743 layer_factory.hpp:77] Creating layer relu5
I0426 10:11:27.038054 21743 net.cpp:84] Creating Layer relu5
I0426 10:11:27.038059 21743 net.cpp:406] relu5 <- conv5
I0426 10:11:27.038090 21743 net.cpp:367] relu5 -> conv5 (in-place)
I0426 10:11:27.038771 21743 net.cpp:122] Setting up relu5
I0426 10:11:27.038781 21743 net.cpp:129] Top shape: 32 256 5 5 (204800)
I0426 10:11:27.038785 21743 net.cpp:137] Memory required for data: 238169856
I0426 10:11:27.038789 21743 layer_factory.hpp:77] Creating layer pool5
I0426 10:11:27.038800 21743 net.cpp:84] Creating Layer pool5
I0426 10:11:27.038803 21743 net.cpp:406] pool5 <- conv5
I0426 10:11:27.038810 21743 net.cpp:380] pool5 -> pool5
I0426 10:11:27.038851 21743 net.cpp:122] Setting up pool5
I0426 10:11:27.038856 21743 net.cpp:129] Top shape: 32 256 2 2 (32768)
I0426 10:11:27.038859 21743 net.cpp:137] Memory required for data: 238300928
I0426 10:11:27.038863 21743 layer_factory.hpp:77] Creating layer fc6
I0426 10:11:27.038870 21743 net.cpp:84] Creating Layer fc6
I0426 10:11:27.038874 21743 net.cpp:406] fc6 <- pool5
I0426 10:11:27.038880 21743 net.cpp:380] fc6 -> fc6
I0426 10:11:27.079212 21743 net.cpp:122] Setting up fc6
I0426 10:11:27.079231 21743 net.cpp:129] Top shape: 32 4096 (131072)
I0426 10:11:27.079236 21743 net.cpp:137] Memory required for data: 238825216
I0426 10:11:27.079244 21743 layer_factory.hpp:77] Creating layer relu6
I0426 10:11:27.079254 21743 net.cpp:84] Creating Layer relu6
I0426 10:11:27.079260 21743 net.cpp:406] relu6 <- fc6
I0426 10:11:27.079267 21743 net.cpp:367] relu6 -> fc6 (in-place)
I0426 10:11:27.079967 21743 net.cpp:122] Setting up relu6
I0426 10:11:27.079978 21743 net.cpp:129] Top shape: 32 4096 (131072)
I0426 10:11:27.079982 21743 net.cpp:137] Memory required for data: 239349504
I0426 10:11:27.079988 21743 layer_factory.hpp:77] Creating layer drop6
I0426 10:11:27.079994 21743 net.cpp:84] Creating Layer drop6
I0426 10:11:27.079998 21743 net.cpp:406] drop6 <- fc6
I0426 10:11:27.080005 21743 net.cpp:367] drop6 -> fc6 (in-place)
I0426 10:11:27.080030 21743 net.cpp:122] Setting up drop6
I0426 10:11:27.080035 21743 net.cpp:129] Top shape: 32 4096 (131072)
I0426 10:11:27.080039 21743 net.cpp:137] Memory required for data: 239873792
I0426 10:11:27.080042 21743 layer_factory.hpp:77] Creating layer fc7
I0426 10:11:27.080054 21743 net.cpp:84] Creating Layer fc7
I0426 10:11:27.080057 21743 net.cpp:406] fc7 <- fc6
I0426 10:11:27.080065 21743 net.cpp:380] fc7 -> fc7
I0426 10:11:27.239293 21743 net.cpp:122] Setting up fc7
I0426 10:11:27.239313 21743 net.cpp:129] Top shape: 32 4096 (131072)
I0426 10:11:27.239317 21743 net.cpp:137] Memory required for data: 240398080
I0426 10:11:27.239326 21743 layer_factory.hpp:77] Creating layer relu7
I0426 10:11:27.239336 21743 net.cpp:84] Creating Layer relu7
I0426 10:11:27.239341 21743 net.cpp:406] relu7 <- fc7
I0426 10:11:27.239346 21743 net.cpp:367] relu7 -> fc7 (in-place)
I0426 10:11:27.239768 21743 net.cpp:122] Setting up relu7
I0426 10:11:27.239776 21743 net.cpp:129] Top shape: 32 4096 (131072)
I0426 10:11:27.239780 21743 net.cpp:137] Memory required for data: 240922368
I0426 10:11:27.239784 21743 layer_factory.hpp:77] Creating layer drop7
I0426 10:11:27.239791 21743 net.cpp:84] Creating Layer drop7
I0426 10:11:27.239795 21743 net.cpp:406] drop7 <- fc7
I0426 10:11:27.239800 21743 net.cpp:367] drop7 -> fc7 (in-place)
I0426 10:11:27.239825 21743 net.cpp:122] Setting up drop7
I0426 10:11:27.239831 21743 net.cpp:129] Top shape: 32 4096 (131072)
I0426 10:11:27.239835 21743 net.cpp:137] Memory required for data: 241446656
I0426 10:11:27.239837 21743 layer_factory.hpp:77] Creating layer fc8
I0426 10:11:27.239845 21743 net.cpp:84] Creating Layer fc8
I0426 10:11:27.239847 21743 net.cpp:406] fc8 <- fc7
I0426 10:11:27.239854 21743 net.cpp:380] fc8 -> fc8
I0426 10:11:27.247849 21743 net.cpp:122] Setting up fc8
I0426 10:11:27.247865 21743 net.cpp:129] Top shape: 32 196 (6272)
I0426 10:11:27.247870 21743 net.cpp:137] Memory required for data: 241471744
I0426 10:11:27.247877 21743 layer_factory.hpp:77] Creating layer fc8_fc8_0_split
I0426 10:11:27.247885 21743 net.cpp:84] Creating Layer fc8_fc8_0_split
I0426 10:11:27.247889 21743 net.cpp:406] fc8_fc8_0_split <- fc8
I0426 10:11:27.247896 21743 net.cpp:380] fc8_fc8_0_split -> fc8_fc8_0_split_0
I0426 10:11:27.247928 21743 net.cpp:380] fc8_fc8_0_split -> fc8_fc8_0_split_1
I0426 10:11:27.247967 21743 net.cpp:122] Setting up fc8_fc8_0_split
I0426 10:11:27.247972 21743 net.cpp:129] Top shape: 32 196 (6272)
I0426 10:11:27.247977 21743 net.cpp:129] Top shape: 32 196 (6272)
I0426 10:11:27.247980 21743 net.cpp:137] Memory required for data: 241521920
I0426 10:11:27.247983 21743 layer_factory.hpp:77] Creating layer accuracy
I0426 10:11:27.247990 21743 net.cpp:84] Creating Layer accuracy
I0426 10:11:27.247993 21743 net.cpp:406] accuracy <- fc8_fc8_0_split_0
I0426 10:11:27.247997 21743 net.cpp:406] accuracy <- label_val-data_1_split_0
I0426 10:11:27.248003 21743 net.cpp:380] accuracy -> accuracy
…
