…
I0406 07:07:41.397150  5226 net.cpp:294] The NetState phase (0) differed from the phase (1) specified by a rule in layer accuracy
I0406 07:07:41.397270  5226 net.cpp:51] Initializing net from parameters:
state {
phase: TRAIN
level: 0
stage: ""
}
layer {
name: "train-data"
type: "Data"
top: "data"
top: "label"
include {
phase: TRAIN
}
transform_param {
mirror: true
crop_size: 227
mean_file: "/mnt/bigdisk/DIGITS-AIN-3/digits/jobs/20210401-115716-aaf7/mean.binaryproto"
}
data_param {
source: "/mnt/bigdisk/DIGITS-AIN-3/digits/jobs/20210401-115716-aaf7/train_db"
batch_size: 128
backend: LMDB
}
}
layer {
name: "conv1"
type: "Convolution"
bottom: "data"
top: "conv1"
param {
lr_mult: 1
decay_mult: 1
}
param {
lr_mult: 2
decay_mult: 0
}
convolution_param {
num_output: 96
kernel_size: 11
stride: 4
weight_filler {
type: "gaussian"
std: 0.01
}
bias_filler {
type: "constant"
value: 0
}
}
}
layer {
name: "relu1"
type: "ReLU"
bottom: "conv1"
top: "conv1"
}
layer {
name: "norm1"
type: "LRN"
bottom: "conv1"
top: "norm1"
lrn_param {
local_size: 5
alpha: 0.0001
beta: 0.75
}
}
layer {
name: "pool1"
type: "Pooling"
bottom: "norm1"
top: "pool1"
pooling_param {
pool: MAX
kernel_size: 3
stride: 2
}
}
layer {
name: "conv2"
type: "Convolution"
bottom: "pool1"
top: "conv2"
param {
lr_mult: 1
decay_mult: 1
}
param {
lr_mult: 2
decay_mult: 0
}
convolution_param {
num_output: 256
pad: 2
kernel_size: 5
group: 2
weight_filler {
type: "gaussian"
std: 0.01
}
bias_filler {
type: "constant"
value: 0.1
}
}
}
layer {
name: "relu2"
type: "ReLU"
bottom: "conv2"
top: "conv2"
}
layer {
name: "norm2"
type: "LRN"
bottom: "conv2"
top: "norm2"
lrn_param {
local_size: 5
alpha: 0.0001
beta: 0.75
}
}
layer {
name: "pool2"
type: "Pooling"
bottom: "norm2"
top: "pool2"
pooling_param {
pool: MAX
kernel_size: 3
stride: 2
}
}
layer {
name: "conv3"
type: "Convolution"
bottom: "pool2"
top: "conv3"
param {
lr_mult: 1
decay_mult: 1
}
param {
lr_mult: 2
decay_mult: 0
}
convolution_param {
num_output: 384
pad: 1
kernel_size: 3
weight_filler {
type: "gaussian"
std: 0.01
}
bias_filler {
type: "constant"
value: 0
}
}
}
layer {
name: "relu3"
type: "ReLU"
bottom: "conv3"
top: "conv3"
}
layer {
name: "conv4"
type: "Convolution"
bottom: "conv3"
top: "conv4"
param {
lr_mult: 1
decay_mult: 1
}
param {
lr_mult: 2
decay_mult: 0
}
convolution_param {
num_output: 384
pad: 1
kernel_size: 3
group: 2
weight_filler {
type: "gaussian"
std: 0.01
}
bias_filler {
type: "constant"
value: 0.1
}
}
}
layer {
name: "relu4"
type: "ReLU"
bottom: "conv4"
top: "conv4"
}
layer {
name: "conv5"
type: "Convolution"
bottom: "conv4"
top: "conv5"
param {
lr_mult: 1
decay_mult: 1
}
param {
lr_mult: 2
decay_mult: 0
}
convolution_param {
num_output: 256
pad: 1
kernel_size: 3
group: 2
weight_filler {
type: "gaussian"
std: 0.01
}
bias_filler {
type: "constant"
value: 0.1
}
}
}
layer {
name: "relu5"
type: "ReLU"
bottom: "conv5"
top: "conv5"
}
layer {
name: "pool5"
type: "Pooling"
bottom: "conv5"
top: "pool5"
pooling_param {
pool: MAX
kernel_size: 3
stride: 2
}
}
layer {
name: "fc6"
type: "InnerProduct"
bottom: "pool5"
top: "fc6"
param {
lr_mult: 1
decay_mult: 1
}
param {
lr_mult: 2
decay_mult: 0
}
inner_product_param {
num_output: 4096
weight_filler {
type: "gaussian"
std: 0.005
}
bias_filler {
type: "constant"
value: 0.1
}
}
}
layer {
name: "relu6"
type: "ReLU"
bottom: "fc6"
top: "fc6"
}
layer {
name: "drop6"
type: "Dropout"
bottom: "fc6"
top: "fc6"
dropout_param {
dropout_ratio: 0.5
}
}
layer {
name: "fc7"
type: "InnerProduct"
bottom: "fc6"
top: "fc7"
param {
lr_mult: 1
decay_mult: 1
}
param {
lr_mult: 2
decay_mult: 0
}
inner_product_param {
num_output: 4096
weight_filler {
type: "gaussian"
std: 0.005
}
bias_filler {
type: "constant"
value: 0.1
}
}
}
layer {
name: "relu7"
type: "ReLU"
bottom: "fc7"
top: "fc7"
}
layer {
name: "drop7"
type: "Dropout"
bottom: "fc7"
top: "fc7"
dropout_param {
dropout_ratio: 0.5
}
}
layer {
name: "fc8"
type: "InnerProduct"
bottom: "fc7"
top: "fc8"
param {
lr_mult: 1
decay_mult: 1
}
param {
lr_mult: 2
decay_mult: 0
}
inner_product_param {
num_output: 196
weight_filler {
type: "gaussian"
std: 0.01
}
bias_filler {
type: "constant"
value: 0
}
}
}
layer {
name: "loss"
type: "SoftmaxWithLoss"
bottom: "fc8"
bottom: "label"
top: "loss"
}
I0406 07:07:41.397347  5226 layer_factory.hpp:77] Creating layer train-data
I0406 07:07:41.421499  5226 db_lmdb.cpp:35] Opened lmdb /mnt/bigdisk/DIGITS-AIN-3/digits/jobs/20210401-115716-aaf7/train_db
I0406 07:07:41.421733  5226 net.cpp:84] Creating Layer train-data
I0406 07:07:41.421748  5226 net.cpp:380] train-data -> data
I0406 07:07:41.421768  5226 net.cpp:380] train-data -> label
I0406 07:07:41.421779  5226 data_transformer.cpp:25] Loading mean file from: /mnt/bigdisk/DIGITS-AIN-3/digits/jobs/20210401-115716-aaf7/mean.binaryproto
I0406 07:07:41.462285  5226 data_layer.cpp:45] output data size: 128,3,227,227
I0406 07:07:41.609122  5226 net.cpp:122] Setting up train-data
I0406 07:07:41.609144  5226 net.cpp:129] Top shape: 128 3 227 227 (19787136)
I0406 07:07:41.609148  5226 net.cpp:129] Top shape: 128 (128)
I0406 07:07:41.609151  5226 net.cpp:137] Memory required for data: 79149056
I0406 07:07:41.609158  5226 layer_factory.hpp:77] Creating layer conv1
I0406 07:07:41.609176  5226 net.cpp:84] Creating Layer conv1
I0406 07:07:41.609181  5226 net.cpp:406] conv1 <- data
I0406 07:07:41.609192  5226 net.cpp:380] conv1 -> conv1
I0406 07:07:42.050434  5226 net.cpp:122] Setting up conv1
I0406 07:07:42.050458  5226 net.cpp:129] Top shape: 128 96 55 55 (37171200)
I0406 07:07:42.050462  5226 net.cpp:137] Memory required for data: 227833856
I0406 07:07:42.050479  5226 layer_factory.hpp:77] Creating layer relu1
I0406 07:07:42.050489  5226 net.cpp:84] Creating Layer relu1
I0406 07:07:42.050493  5226 net.cpp:406] relu1 <- conv1
I0406 07:07:42.050496  5226 net.cpp:367] relu1 -> conv1 (in-place)
I0406 07:07:42.050762  5226 net.cpp:122] Setting up relu1
I0406 07:07:42.050770  5226 net.cpp:129] Top shape: 128 96 55 55 (37171200)
I0406 07:07:42.050772  5226 net.cpp:137] Memory required for data: 376518656
I0406 07:07:42.050776  5226 layer_factory.hpp:77] Creating layer norm1
I0406 07:07:42.050783  5226 net.cpp:84] Creating Layer norm1
I0406 07:07:42.050786  5226 net.cpp:406] norm1 <- conv1
I0406 07:07:42.050817  5226 net.cpp:380] norm1 -> norm1
I0406 07:07:42.051363  5226 net.cpp:122] Setting up norm1
I0406 07:07:42.051373  5226 net.cpp:129] Top shape: 128 96 55 55 (37171200)
I0406 07:07:42.051375  5226 net.cpp:137] Memory required for data: 525203456
I0406 07:07:42.051378  5226 layer_factory.hpp:77] Creating layer pool1
I0406 07:07:42.051384  5226 net.cpp:84] Creating Layer pool1
I0406 07:07:42.051388  5226 net.cpp:406] pool1 <- norm1
I0406 07:07:42.051391  5226 net.cpp:380] pool1 -> pool1
I0406 07:07:42.051424  5226 net.cpp:122] Setting up pool1
I0406 07:07:42.051429  5226 net.cpp:129] Top shape: 128 96 27 27 (8957952)
I0406 07:07:42.051431  5226 net.cpp:137] Memory required for data: 561035264
I0406 07:07:42.051434  5226 layer_factory.hpp:77] Creating layer conv2
I0406 07:07:42.051443  5226 net.cpp:84] Creating Layer conv2
I0406 07:07:42.051445  5226 net.cpp:406] conv2 <- pool1
I0406 07:07:42.051450  5226 net.cpp:380] conv2 -> conv2
I0406 07:07:42.058259  5226 net.cpp:122] Setting up conv2
I0406 07:07:42.058277  5226 net.cpp:129] Top shape: 128 256 27 27 (23887872)
I0406 07:07:42.058280  5226 net.cpp:137] Memory required for data: 656586752
I0406 07:07:42.058290  5226 layer_factory.hpp:77] Creating layer relu2
I0406 07:07:42.058297  5226 net.cpp:84] Creating Layer relu2
I0406 07:07:42.058301  5226 net.cpp:406] relu2 <- conv2
I0406 07:07:42.058305  5226 net.cpp:367] relu2 -> conv2 (in-place)
I0406 07:07:42.058734  5226 net.cpp:122] Setting up relu2
I0406 07:07:42.058743  5226 net.cpp:129] Top shape: 128 256 27 27 (23887872)
I0406 07:07:42.058745  5226 net.cpp:137] Memory required for data: 752138240
I0406 07:07:42.058748  5226 layer_factory.hpp:77] Creating layer norm2
I0406 07:07:42.058755  5226 net.cpp:84] Creating Layer norm2
I0406 07:07:42.058758  5226 net.cpp:406] norm2 <- conv2
I0406 07:07:42.058763  5226 net.cpp:380] norm2 -> norm2
I0406 07:07:42.059024  5226 net.cpp:122] Setting up norm2
I0406 07:07:42.059032  5226 net.cpp:129] Top shape: 128 256 27 27 (23887872)
I0406 07:07:42.059034  5226 net.cpp:137] Memory required for data: 847689728
I0406 07:07:42.059037  5226 layer_factory.hpp:77] Creating layer pool2
I0406 07:07:42.059044  5226 net.cpp:84] Creating Layer pool2
I0406 07:07:42.059046  5226 net.cpp:406] pool2 <- norm2
I0406 07:07:42.059051  5226 net.cpp:380] pool2 -> pool2
I0406 07:07:42.059075  5226 net.cpp:122] Setting up pool2
I0406 07:07:42.059079  5226 net.cpp:129] Top shape: 128 256 13 13 (5537792)
I0406 07:07:42.059082  5226 net.cpp:137] Memory required for data: 869840896
I0406 07:07:42.059083  5226 layer_factory.hpp:77] Creating layer conv3
I0406 07:07:42.059092  5226 net.cpp:84] Creating Layer conv3
I0406 07:07:42.059094  5226 net.cpp:406] conv3 <- pool2
I0406 07:07:42.059098  5226 net.cpp:380] conv3 -> conv3
I0406 07:07:42.068939  5226 net.cpp:122] Setting up conv3
I0406 07:07:42.068958  5226 net.cpp:129] Top shape: 128 384 13 13 (8306688)
I0406 07:07:42.068959  5226 net.cpp:137] Memory required for data: 903067648
I0406 07:07:42.068970  5226 layer_factory.hpp:77] Creating layer relu3
I0406 07:07:42.068979  5226 net.cpp:84] Creating Layer relu3
I0406 07:07:42.068981  5226 net.cpp:406] relu3 <- conv3
I0406 07:07:42.068986  5226 net.cpp:367] relu3 -> conv3 (in-place)
I0406 07:07:42.069411  5226 net.cpp:122] Setting up relu3
I0406 07:07:42.069420  5226 net.cpp:129] Top shape: 128 384 13 13 (8306688)
I0406 07:07:42.069423  5226 net.cpp:137] Memory required for data: 936294400
I0406 07:07:42.069425  5226 layer_factory.hpp:77] Creating layer conv4
I0406 07:07:42.069435  5226 net.cpp:84] Creating Layer conv4
I0406 07:07:42.069437  5226 net.cpp:406] conv4 <- conv3
I0406 07:07:42.069442  5226 net.cpp:380] conv4 -> conv4
I0406 07:07:42.078717  5226 net.cpp:122] Setting up conv4
I0406 07:07:42.078732  5226 net.cpp:129] Top shape: 128 384 13 13 (8306688)
I0406 07:07:42.078735  5226 net.cpp:137] Memory required for data: 969521152
I0406 07:07:42.078742  5226 layer_factory.hpp:77] Creating layer relu4
I0406 07:07:42.078750  5226 net.cpp:84] Creating Layer relu4
I0406 07:07:42.078753  5226 net.cpp:406] relu4 <- conv4
I0406 07:07:42.078776  5226 net.cpp:367] relu4 -> conv4 (in-place)
I0406 07:07:42.079092  5226 net.cpp:122] Setting up relu4
I0406 07:07:42.079100  5226 net.cpp:129] Top shape: 128 384 13 13 (8306688)
I0406 07:07:42.079102  5226 net.cpp:137] Memory required for data: 1002747904
I0406 07:07:42.079105  5226 layer_factory.hpp:77] Creating layer conv5
I0406 07:07:42.079115  5226 net.cpp:84] Creating Layer conv5
I0406 07:07:42.079118  5226 net.cpp:406] conv5 <- conv4
I0406 07:07:42.079123  5226 net.cpp:380] conv5 -> conv5
I0406 07:07:42.086643  5226 net.cpp:122] Setting up conv5
I0406 07:07:42.086659  5226 net.cpp:129] Top shape: 128 256 13 13 (5537792)
I0406 07:07:42.086663  5226 net.cpp:137] Memory required for data: 1024899072
I0406 07:07:42.086673  5226 layer_factory.hpp:77] Creating layer relu5
I0406 07:07:42.086683  5226 net.cpp:84] Creating Layer relu5
I0406 07:07:42.086685  5226 net.cpp:406] relu5 <- conv5
I0406 07:07:42.086691  5226 net.cpp:367] relu5 -> conv5 (in-place)
I0406 07:07:42.087175  5226 net.cpp:122] Setting up relu5
I0406 07:07:42.087183  5226 net.cpp:129] Top shape: 128 256 13 13 (5537792)
I0406 07:07:42.087186  5226 net.cpp:137] Memory required for data: 1047050240
I0406 07:07:42.087188  5226 layer_factory.hpp:77] Creating layer pool5
I0406 07:07:42.087194  5226 net.cpp:84] Creating Layer pool5
I0406 07:07:42.087196  5226 net.cpp:406] pool5 <- conv5
I0406 07:07:42.087203  5226 net.cpp:380] pool5 -> pool5
I0406 07:07:42.087235  5226 net.cpp:122] Setting up pool5
I0406 07:07:42.087239  5226 net.cpp:129] Top shape: 128 256 6 6 (1179648)
I0406 07:07:42.087241  5226 net.cpp:137] Memory required for data: 1051768832
I0406 07:07:42.087244  5226 layer_factory.hpp:77] Creating layer fc6
I0406 07:07:42.087253  5226 net.cpp:84] Creating Layer fc6
I0406 07:07:42.087255  5226 net.cpp:406] fc6 <- pool5
I0406 07:07:42.087260  5226 net.cpp:380] fc6 -> fc6
I0406 07:07:42.420754  5226 net.cpp:122] Setting up fc6
I0406 07:07:42.420773  5226 net.cpp:129] Top shape: 128 4096 (524288)
I0406 07:07:42.420775  5226 net.cpp:137] Memory required for data: 1053865984
I0406 07:07:42.420783  5226 layer_factory.hpp:77] Creating layer relu6
I0406 07:07:42.420792  5226 net.cpp:84] Creating Layer relu6
I0406 07:07:42.420795  5226 net.cpp:406] relu6 <- fc6
I0406 07:07:42.420800  5226 net.cpp:367] relu6 -> fc6 (in-place)
I0406 07:07:42.421501  5226 net.cpp:122] Setting up relu6
I0406 07:07:42.421511  5226 net.cpp:129] Top shape: 128 4096 (524288)
I0406 07:07:42.421514  5226 net.cpp:137] Memory required for data: 1055963136
I0406 07:07:42.421515  5226 layer_factory.hpp:77] Creating layer drop6
I0406 07:07:42.421521  5226 net.cpp:84] Creating Layer drop6
I0406 07:07:42.421525  5226 net.cpp:406] drop6 <- fc6
I0406 07:07:42.421530  5226 net.cpp:367] drop6 -> fc6 (in-place)
I0406 07:07:42.421553  5226 net.cpp:122] Setting up drop6
I0406 07:07:42.421557  5226 net.cpp:129] Top shape: 128 4096 (524288)
I0406 07:07:42.421559  5226 net.cpp:137] Memory required for data: 1058060288
I0406 07:07:42.421561  5226 layer_factory.hpp:77] Creating layer fc7
I0406 07:07:42.421572  5226 net.cpp:84] Creating Layer fc7
I0406 07:07:42.421574  5226 net.cpp:406] fc7 <- fc6
I0406 07:07:42.421579  5226 net.cpp:380] fc7 -> fc7
I0406 07:07:42.570488  5226 net.cpp:122] Setting up fc7
I0406 07:07:42.570508  5226 net.cpp:129] Top shape: 128 4096 (524288)
I0406 07:07:42.570510  5226 net.cpp:137] Memory required for data: 1060157440
I0406 07:07:42.570518  5226 layer_factory.hpp:77] Creating layer relu7
I0406 07:07:42.570526  5226 net.cpp:84] Creating Layer relu7
I0406 07:07:42.570529  5226 net.cpp:406] relu7 <- fc7
I0406 07:07:42.570534  5226 net.cpp:367] relu7 -> fc7 (in-place)
I0406 07:07:42.570909  5226 net.cpp:122] Setting up relu7
I0406 07:07:42.570919  5226 net.cpp:129] Top shape: 128 4096 (524288)
I0406 07:07:42.570920  5226 net.cpp:137] Memory required for data: 1062254592
I0406 07:07:42.570922  5226 layer_factory.hpp:77] Creating layer drop7
I0406 07:07:42.570928  5226 net.cpp:84] Creating Layer drop7
I0406 07:07:42.570930  5226 net.cpp:406] drop7 <- fc7
I0406 07:07:42.570952  5226 net.cpp:367] drop7 -> fc7 (in-place)
I0406 07:07:42.570974  5226 net.cpp:122] Setting up drop7
I0406 07:07:42.570978  5226 net.cpp:129] Top shape: 128 4096 (524288)
I0406 07:07:42.570981  5226 net.cpp:137] Memory required for data: 1064351744
I0406 07:07:42.570982  5226 layer_factory.hpp:77] Creating layer fc8
I0406 07:07:42.570989  5226 net.cpp:84] Creating Layer fc8
I0406 07:07:42.570991  5226 net.cpp:406] fc8 <- fc7
I0406 07:07:42.570995  5226 net.cpp:380] fc8 -> fc8
I0406 07:07:42.578217  5226 net.cpp:122] Setting up fc8
I0406 07:07:42.578231  5226 net.cpp:129] Top shape: 128 196 (25088)
I0406 07:07:42.578234  5226 net.cpp:137] Memory required for data: 1064452096
I0406 07:07:42.578241  5226 layer_factory.hpp:77] Creating layer loss
I0406 07:07:42.578248  5226 net.cpp:84] Creating Layer loss
I0406 07:07:42.578250  5226 net.cpp:406] loss <- fc8
I0406 07:07:42.578255  5226 net.cpp:406] loss <- label
I0406 07:07:42.578261  5226 net.cpp:380] loss -> loss
I0406 07:07:42.578270  5226 layer_factory.hpp:77] Creating layer loss
…
I0406 07:07:42.579573  5226 net.cpp:294] The NetState phase (1) differed from the phase (0) specified by a rule in layer train-data
I0406 07:07:42.579708  5226 net.cpp:51] Initializing net from parameters:
state {
phase: TEST
}
layer {
name: "val-data"
type: "Data"
top: "data"
top: "label"
include {
phase: TEST
}
transform_param {
crop_size: 227
mean_file: "/mnt/bigdisk/DIGITS-AIN-3/digits/jobs/20210401-115716-aaf7/mean.binaryproto"
}
data_param {
source: "/mnt/bigdisk/DIGITS-AIN-3/digits/jobs/20210401-115716-aaf7/val_db"
batch_size: 32
backend: LMDB
}
}
layer {
name: "conv1"
type: "Convolution"
bottom: "data"
top: "conv1"
param {
lr_mult: 1
decay_mult: 1
}
param {
lr_mult: 2
decay_mult: 0
}
convolution_param {
num_output: 96
kernel_size: 11
stride: 4
weight_filler {
type: "gaussian"
std: 0.01
}
bias_filler {
type: "constant"
value: 0
}
}
}
layer {
name: "relu1"
type: "ReLU"
bottom: "conv1"
top: "conv1"
}
layer {
name: "norm1"
type: "LRN"
bottom: "conv1"
top: "norm1"
lrn_param {
local_size: 5
alpha: 0.0001
beta: 0.75
}
}
layer {
name: "pool1"
type: "Pooling"
bottom: "norm1"
top: "pool1"
pooling_param {
pool: MAX
kernel_size: 3
stride: 2
}
}
layer {
name: "conv2"
type: "Convolution"
bottom: "pool1"
top: "conv2"
param {
lr_mult: 1
decay_mult: 1
}
param {
lr_mult: 2
decay_mult: 0
}
convolution_param {
num_output: 256
pad: 2
kernel_size: 5
group: 2
weight_filler {
type: "gaussian"
std: 0.01
}
bias_filler {
type: "constant"
value: 0.1
}
}
}
layer {
name: "relu2"
type: "ReLU"
bottom: "conv2"
top: "conv2"
}
layer {
name: "norm2"
type: "LRN"
bottom: "conv2"
top: "norm2"
lrn_param {
local_size: 5
alpha: 0.0001
beta: 0.75
}
}
layer {
name: "pool2"
type: "Pooling"
bottom: "norm2"
top: "pool2"
pooling_param {
pool: MAX
kernel_size: 3
stride: 2
}
}
layer {
name: "conv3"
type: "Convolution"
bottom: "pool2"
top: "conv3"
param {
lr_mult: 1
decay_mult: 1
}
param {
lr_mult: 2
decay_mult: 0
}
convolution_param {
num_output: 384
pad: 1
kernel_size: 3
weight_filler {
type: "gaussian"
std: 0.01
}
bias_filler {
type: "constant"
value: 0
}
}
}
layer {
name: "relu3"
type: "ReLU"
bottom: "conv3"
top: "conv3"
}
layer {
name: "conv4"
type: "Convolution"
bottom: "conv3"
top: "conv4"
param {
lr_mult: 1
decay_mult: 1
}
param {
lr_mult: 2
decay_mult: 0
}
convolution_param {
num_output: 384
pad: 1
kernel_size: 3
group: 2
weight_filler {
type: "gaussian"
std: 0.01
}
bias_filler {
type: "constant"
value: 0.1
}
}
}
layer {
name: "relu4"
type: "ReLU"
bottom: "conv4"
top: "conv4"
}
layer {
name: "conv5"
type: "Convolution"
bottom: "conv4"
top: "conv5"
param {
lr_mult: 1
decay_mult: 1
}
param {
lr_mult: 2
decay_mult: 0
}
convolution_param {
num_output: 256
pad: 1
kernel_size: 3
group: 2
weight_filler {
type: "gaussian"
std: 0.01
}
bias_filler {
type: "constant"
value: 0.1
}
}
}
layer {
name: "relu5"
type: "ReLU"
bottom: "conv5"
top: "conv5"
}
layer {
name: "pool5"
type: "Pooling"
bottom: "conv5"
top: "pool5"
pooling_param {
pool: MAX
kernel_size: 3
stride: 2
}
}
layer {
name: "fc6"
type: "InnerProduct"
bottom: "pool5"
top: "fc6"
param {
lr_mult: 1
decay_mult: 1
}
param {
lr_mult: 2
decay_mult: 0
}
inner_product_param {
num_output: 4096
weight_filler {
type: "gaussian"
std: 0.005
}
bias_filler {
type: "constant"
value: 0.1
}
}
}
layer {
name: "relu6"
type: "ReLU"
bottom: "fc6"
top: "fc6"
}
layer {
name: "drop6"
type: "Dropout"
bottom: "fc6"
top: "fc6"
dropout_param {
dropout_ratio: 0.5
}
}
layer {
name: "fc7"
type: "InnerProduct"
bottom: "fc6"
top: "fc7"
param {
lr_mult: 1
decay_mult: 1
}
param {
lr_mult: 2
decay_mult: 0
}
inner_product_param {
num_output: 4096
weight_filler {
type: "gaussian"
std: 0.005
}
bias_filler {
type: "constant"
value: 0.1
}
}
}
layer {
name: "relu7"
type: "ReLU"
bottom: "fc7"
top: "fc7"
}
layer {
name: "drop7"
type: "Dropout"
bottom: "fc7"
top: "fc7"
dropout_param {
dropout_ratio: 0.5
}
}
layer {
name: "fc8"
type: "InnerProduct"
bottom: "fc7"
top: "fc8"
param {
lr_mult: 1
decay_mult: 1
}
param {
lr_mult: 2
decay_mult: 0
}
inner_product_param {
num_output: 196
weight_filler {
type: "gaussian"
std: 0.01
}
bias_filler {
type: "constant"
value: 0
}
}
}
layer {
name: "accuracy"
type: "Accuracy"
bottom: "fc8"
bottom: "label"
top: "accuracy"
include {
phase: TEST
}
}
layer {
name: "loss"
type: "SoftmaxWithLoss"
bottom: "fc8"
bottom: "label"
top: "loss"
}
I0406 07:07:42.579808  5226 layer_factory.hpp:77] Creating layer val-data
I0406 07:07:42.582653  5226 db_lmdb.cpp:35] Opened lmdb /mnt/bigdisk/DIGITS-AIN-3/digits/jobs/20210401-115716-aaf7/val_db
I0406 07:07:42.582876  5226 net.cpp:84] Creating Layer val-data
I0406 07:07:42.582885  5226 net.cpp:380] val-data -> data
I0406 07:07:42.582892  5226 net.cpp:380] val-data -> label
I0406 07:07:42.582899  5226 data_transformer.cpp:25] Loading mean file from: /mnt/bigdisk/DIGITS-AIN-3/digits/jobs/20210401-115716-aaf7/mean.binaryproto
I0406 07:07:42.586594  5226 data_layer.cpp:45] output data size: 32,3,227,227
I0406 07:07:42.623560  5226 net.cpp:122] Setting up val-data
I0406 07:07:42.623580  5226 net.cpp:129] Top shape: 32 3 227 227 (4946784)
I0406 07:07:42.623584  5226 net.cpp:129] Top shape: 32 (32)
I0406 07:07:42.623585  5226 net.cpp:137] Memory required for data: 19787264
I0406 07:07:42.623590  5226 layer_factory.hpp:77] Creating layer label_val-data_1_split
I0406 07:07:42.623601  5226 net.cpp:84] Creating Layer label_val-data_1_split
I0406 07:07:42.623605  5226 net.cpp:406] label_val-data_1_split <- label
I0406 07:07:42.623610  5226 net.cpp:380] label_val-data_1_split -> label_val-data_1_split_0
I0406 07:07:42.623618  5226 net.cpp:380] label_val-data_1_split -> label_val-data_1_split_1
I0406 07:07:42.623661  5226 net.cpp:122] Setting up label_val-data_1_split
I0406 07:07:42.623664  5226 net.cpp:129] Top shape: 32 (32)
I0406 07:07:42.623667  5226 net.cpp:129] Top shape: 32 (32)
I0406 07:07:42.623668  5226 net.cpp:137] Memory required for data: 19787520
I0406 07:07:42.623672  5226 layer_factory.hpp:77] Creating layer conv1
I0406 07:07:42.623682  5226 net.cpp:84] Creating Layer conv1
I0406 07:07:42.623683  5226 net.cpp:406] conv1 <- data
I0406 07:07:42.623687  5226 net.cpp:380] conv1 -> conv1
I0406 07:07:42.632581  5226 net.cpp:122] Setting up conv1
I0406 07:07:42.632593  5226 net.cpp:129] Top shape: 32 96 55 55 (9292800)
I0406 07:07:42.632596  5226 net.cpp:137] Memory required for data: 56958720
I0406 07:07:42.632604  5226 layer_factory.hpp:77] Creating layer relu1
I0406 07:07:42.632611  5226 net.cpp:84] Creating Layer relu1
I0406 07:07:42.632613  5226 net.cpp:406] relu1 <- conv1
I0406 07:07:42.632617  5226 net.cpp:367] relu1 -> conv1 (in-place)
I0406 07:07:42.632874  5226 net.cpp:122] Setting up relu1
I0406 07:07:42.632889  5226 net.cpp:129] Top shape: 32 96 55 55 (9292800)
I0406 07:07:42.632891  5226 net.cpp:137] Memory required for data: 94129920
I0406 07:07:42.632894  5226 layer_factory.hpp:77] Creating layer norm1
I0406 07:07:42.632901  5226 net.cpp:84] Creating Layer norm1
I0406 07:07:42.632903  5226 net.cpp:406] norm1 <- conv1
I0406 07:07:42.632908  5226 net.cpp:380] norm1 -> norm1
I0406 07:07:42.639832  5226 net.cpp:122] Setting up norm1
I0406 07:07:42.639847  5226 net.cpp:129] Top shape: 32 96 55 55 (9292800)
I0406 07:07:42.639851  5226 net.cpp:137] Memory required for data: 131301120
I0406 07:07:42.639856  5226 layer_factory.hpp:77] Creating layer pool1
I0406 07:07:42.639864  5226 net.cpp:84] Creating Layer pool1
I0406 07:07:42.639869  5226 net.cpp:406] pool1 <- norm1
I0406 07:07:42.639875  5226 net.cpp:380] pool1 -> pool1
I0406 07:07:42.639914  5226 net.cpp:122] Setting up pool1
I0406 07:07:42.639920  5226 net.cpp:129] Top shape: 32 96 27 27 (2239488)
I0406 07:07:42.639923  5226 net.cpp:137] Memory required for data: 140259072
I0406 07:07:42.639927  5226 layer_factory.hpp:77] Creating layer conv2
I0406 07:07:42.639938  5226 net.cpp:84] Creating Layer conv2
I0406 07:07:42.639942  5226 net.cpp:406] conv2 <- pool1
I0406 07:07:42.639977  5226 net.cpp:380] conv2 -> conv2
I0406 07:07:42.652181  5226 net.cpp:122] Setting up conv2
I0406 07:07:42.652201  5226 net.cpp:129] Top shape: 32 256 27 27 (5971968)
I0406 07:07:42.652205  5226 net.cpp:137] Memory required for data: 164146944
I0406 07:07:42.652220  5226 layer_factory.hpp:77] Creating layer relu2
I0406 07:07:42.652233  5226 net.cpp:84] Creating Layer relu2
I0406 07:07:42.652238  5226 net.cpp:406] relu2 <- conv2
I0406 07:07:42.652245  5226 net.cpp:367] relu2 -> conv2 (in-place)
I0406 07:07:42.652994  5226 net.cpp:122] Setting up relu2
I0406 07:07:42.653007  5226 net.cpp:129] Top shape: 32 256 27 27 (5971968)
I0406 07:07:42.653010  5226 net.cpp:137] Memory required for data: 188034816
I0406 07:07:42.653014  5226 layer_factory.hpp:77] Creating layer norm2
I0406 07:07:42.653030  5226 net.cpp:84] Creating Layer norm2
I0406 07:07:42.653034  5226 net.cpp:406] norm2 <- conv2
I0406 07:07:42.653041  5226 net.cpp:380] norm2 -> norm2
I0406 07:07:42.653803  5226 net.cpp:122] Setting up norm2
I0406 07:07:42.653816  5226 net.cpp:129] Top shape: 32 256 27 27 (5971968)
I0406 07:07:42.653820  5226 net.cpp:137] Memory required for data: 211922688
I0406 07:07:42.653825  5226 layer_factory.hpp:77] Creating layer pool2
I0406 07:07:42.653831  5226 net.cpp:84] Creating Layer pool2
I0406 07:07:42.653836  5226 net.cpp:406] pool2 <- norm2
I0406 07:07:42.653843  5226 net.cpp:380] pool2 -> pool2
I0406 07:07:42.653882  5226 net.cpp:122] Setting up pool2
I0406 07:07:42.653889  5226 net.cpp:129] Top shape: 32 256 13 13 (1384448)
I0406 07:07:42.653892  5226 net.cpp:137] Memory required for data: 217460480
I0406 07:07:42.653896  5226 layer_factory.hpp:77] Creating layer conv3
I0406 07:07:42.653910  5226 net.cpp:84] Creating Layer conv3
I0406 07:07:42.653914  5226 net.cpp:406] conv3 <- pool2
I0406 07:07:42.653921  5226 net.cpp:380] conv3 -> conv3
I0406 07:07:42.669800  5226 net.cpp:122] Setting up conv3
I0406 07:07:42.669822  5226 net.cpp:129] Top shape: 32 384 13 13 (2076672)
I0406 07:07:42.669826  5226 net.cpp:137] Memory required for data: 225767168
I0406 07:07:42.669840  5226 layer_factory.hpp:77] Creating layer relu3
I0406 07:07:42.669857  5226 net.cpp:84] Creating Layer relu3
I0406 07:07:42.669862  5226 net.cpp:406] relu3 <- conv3
I0406 07:07:42.669868  5226 net.cpp:367] relu3 -> conv3 (in-place)
I0406 07:07:42.670576  5226 net.cpp:122] Setting up relu3
I0406 07:07:42.670593  5226 net.cpp:129] Top shape: 32 384 13 13 (2076672)
I0406 07:07:42.670596  5226 net.cpp:137] Memory required for data: 234073856
I0406 07:07:42.670600  5226 layer_factory.hpp:77] Creating layer conv4
I0406 07:07:42.670612  5226 net.cpp:84] Creating Layer conv4
I0406 07:07:42.670617  5226 net.cpp:406] conv4 <- conv3
I0406 07:07:42.670624  5226 net.cpp:380] conv4 -> conv4
I0406 07:07:42.684892  5226 net.cpp:122] Setting up conv4
I0406 07:07:42.684912  5226 net.cpp:129] Top shape: 32 384 13 13 (2076672)
I0406 07:07:42.684916  5226 net.cpp:137] Memory required for data: 242380544
I0406 07:07:42.684926  5226 layer_factory.hpp:77] Creating layer relu4
I0406 07:07:42.684937  5226 net.cpp:84] Creating Layer relu4
I0406 07:07:42.684940  5226 net.cpp:406] relu4 <- conv4
I0406 07:07:42.684949  5226 net.cpp:367] relu4 -> conv4 (in-place)
I0406 07:07:42.685421  5226 net.cpp:122] Setting up relu4
I0406 07:07:42.685432  5226 net.cpp:129] Top shape: 32 384 13 13 (2076672)
I0406 07:07:42.685436  5226 net.cpp:137] Memory required for data: 250687232
I0406 07:07:42.685441  5226 layer_factory.hpp:77] Creating layer conv5
I0406 07:07:42.685453  5226 net.cpp:84] Creating Layer conv5
I0406 07:07:42.685457  5226 net.cpp:406] conv5 <- conv4
I0406 07:07:42.685464  5226 net.cpp:380] conv5 -> conv5
I0406 07:07:42.697454  5226 net.cpp:122] Setting up conv5
I0406 07:07:42.697470  5226 net.cpp:129] Top shape: 32 256 13 13 (1384448)
I0406 07:07:42.697474  5226 net.cpp:137] Memory required for data: 256225024
I0406 07:07:42.697485  5226 layer_factory.hpp:77] Creating layer relu5
I0406 07:07:42.697495  5226 net.cpp:84] Creating Layer relu5
I0406 07:07:42.697499  5226 net.cpp:406] relu5 <- conv5
I0406 07:07:42.697523  5226 net.cpp:367] relu5 -> conv5 (in-place)
I0406 07:07:42.698045  5226 net.cpp:122] Setting up relu5
I0406 07:07:42.698055  5226 net.cpp:129] Top shape: 32 256 13 13 (1384448)
I0406 07:07:42.698056  5226 net.cpp:137] Memory required for data: 261762816
I0406 07:07:42.698060  5226 layer_factory.hpp:77] Creating layer pool5
I0406 07:07:42.698069  5226 net.cpp:84] Creating Layer pool5
I0406 07:07:42.698071  5226 net.cpp:406] pool5 <- conv5
I0406 07:07:42.698076  5226 net.cpp:380] pool5 -> pool5
I0406 07:07:42.698112  5226 net.cpp:122] Setting up pool5
I0406 07:07:42.698115  5226 net.cpp:129] Top shape: 32 256 6 6 (294912)
I0406 07:07:42.698117  5226 net.cpp:137] Memory required for data: 262942464
I0406 07:07:42.698119  5226 layer_factory.hpp:77] Creating layer fc6
I0406 07:07:42.698125  5226 net.cpp:84] Creating Layer fc6
I0406 07:07:42.698129  5226 net.cpp:406] fc6 <- pool5
I0406 07:07:42.698132  5226 net.cpp:380] fc6 -> fc6
I0406 07:07:43.029364  5226 net.cpp:122] Setting up fc6
I0406 07:07:43.029381  5226 net.cpp:129] Top shape: 32 4096 (131072)
I0406 07:07:43.029383  5226 net.cpp:137] Memory required for data: 263466752
I0406 07:07:43.029392  5226 layer_factory.hpp:77] Creating layer relu6
I0406 07:07:43.029400  5226 net.cpp:84] Creating Layer relu6
I0406 07:07:43.029403  5226 net.cpp:406] relu6 <- fc6
I0406 07:07:43.029408  5226 net.cpp:367] relu6 -> fc6 (in-place)
I0406 07:07:43.031992  5226 net.cpp:122] Setting up relu6
I0406 07:07:43.032001  5226 net.cpp:129] Top shape: 32 4096 (131072)
I0406 07:07:43.032003  5226 net.cpp:137] Memory required for data: 263991040
I0406 07:07:43.032006  5226 layer_factory.hpp:77] Creating layer drop6
I0406 07:07:43.032012  5226 net.cpp:84] Creating Layer drop6
I0406 07:07:43.032014  5226 net.cpp:406] drop6 <- fc6
I0406 07:07:43.032019  5226 net.cpp:367] drop6 -> fc6 (in-place)
I0406 07:07:43.032043  5226 net.cpp:122] Setting up drop6
I0406 07:07:43.032047  5226 net.cpp:129] Top shape: 32 4096 (131072)
I0406 07:07:43.032050  5226 net.cpp:137] Memory required for data: 264515328
I0406 07:07:43.032052  5226 layer_factory.hpp:77] Creating layer fc7
I0406 07:07:43.032058  5226 net.cpp:84] Creating Layer fc7
I0406 07:07:43.032060  5226 net.cpp:406] fc7 <- fc6
I0406 07:07:43.032065  5226 net.cpp:380] fc7 -> fc7
I0406 07:07:43.178071  5226 net.cpp:122] Setting up fc7
I0406 07:07:43.178089  5226 net.cpp:129] Top shape: 32 4096 (131072)
I0406 07:07:43.178092  5226 net.cpp:137] Memory required for data: 265039616
I0406 07:07:43.178099  5226 layer_factory.hpp:77] Creating layer relu7
I0406 07:07:43.178107  5226 net.cpp:84] Creating Layer relu7
I0406 07:07:43.178110  5226 net.cpp:406] relu7 <- fc7
I0406 07:07:43.178117  5226 net.cpp:367] relu7 -> fc7 (in-place)
I0406 07:07:43.178485  5226 net.cpp:122] Setting up relu7
I0406 07:07:43.178493  5226 net.cpp:129] Top shape: 32 4096 (131072)
I0406 07:07:43.178495  5226 net.cpp:137] Memory required for data: 265563904
I0406 07:07:43.178498  5226 layer_factory.hpp:77] Creating layer drop7
I0406 07:07:43.178504  5226 net.cpp:84] Creating Layer drop7
I0406 07:07:43.178506  5226 net.cpp:406] drop7 <- fc7
I0406 07:07:43.178510  5226 net.cpp:367] drop7 -> fc7 (in-place)
I0406 07:07:43.178531  5226 net.cpp:122] Setting up drop7
I0406 07:07:43.178535  5226 net.cpp:129] Top shape: 32 4096 (131072)
I0406 07:07:43.178537  5226 net.cpp:137] Memory required for data: 266088192
I0406 07:07:43.178539  5226 layer_factory.hpp:77] Creating layer fc8
I0406 07:07:43.178545  5226 net.cpp:84] Creating Layer fc8
I0406 07:07:43.178547  5226 net.cpp:406] fc8 <- fc7
I0406 07:07:43.178551  5226 net.cpp:380] fc8 -> fc8
I0406 07:07:43.185705  5226 net.cpp:122] Setting up fc8
I0406 07:07:43.185714  5226 net.cpp:129] Top shape: 32 196 (6272)
I0406 07:07:43.185715  5226 net.cpp:137] Memory required for data: 266113280
I0406 07:07:43.185720  5226 layer_factory.hpp:77] Creating layer fc8_fc8_0_split
I0406 07:07:43.185725  5226 net.cpp:84] Creating Layer fc8_fc8_0_split
I0406 07:07:43.185729  5226 net.cpp:406] fc8_fc8_0_split <- fc8
I0406 07:07:43.185751  5226 net.cpp:380] fc8_fc8_0_split -> fc8_fc8_0_split_0
I0406 07:07:43.185757  5226 net.cpp:380] fc8_fc8_0_split -> fc8_fc8_0_split_1
I0406 07:07:43.185784  5226 net.cpp:122] Setting up fc8_fc8_0_split
I0406 07:07:43.185788  5226 net.cpp:129] Top shape: 32 196 (6272)
I0406 07:07:43.185791  5226 net.cpp:129] Top shape: 32 196 (6272)
I0406 07:07:43.185792  5226 net.cpp:137] Memory required for data: 266163456
I0406 07:07:43.185794  5226 layer_factory.hpp:77] Creating layer accuracy
I0406 07:07:43.185801  5226 net.cpp:84] Creating Layer accuracy
I0406 07:07:43.185803  5226 net.cpp:406] accuracy <- fc8_fc8_0_split_0
I0406 07:07:43.185806  5226 net.cpp:406] accuracy <- label_val-data_1_split_0
I0406 07:07:43.185809  5226 net.cpp:380] accuracy -> accuracy
…
