…
I0407 21:56:15.148598 23658 net.cpp:294] The NetState phase (0) differed from the phase (1) specified by a rule in layer accuracy
I0407 21:56:15.148742 23658 net.cpp:51] Initializing net from parameters:
state {
phase: TRAIN
level: 0
stage: ""
}
layer {
name: "train-data"
type: "Data"
top: "data"
top: "label"
include {
phase: TRAIN
}
transform_param {
mirror: true
crop_size: 227
mean_file: "/mnt/bigdisk/DIGITS-MAN-2/digits/jobs/20210407-214532-d396/mean.binaryproto"
}
data_param {
source: "/mnt/bigdisk/DIGITS-MAN-2/digits/jobs/20210407-214532-d396/train_db"
batch_size: 128
backend: LMDB
}
}
layer {
name: "conv1"
type: "Convolution"
bottom: "data"
top: "conv1"
param {
lr_mult: 1
decay_mult: 1
}
param {
lr_mult: 2
decay_mult: 0
}
convolution_param {
num_output: 96
kernel_size: 11
stride: 4
weight_filler {
type: "gaussian"
std: 0.01
}
bias_filler {
type: "constant"
value: 0
}
}
}
layer {
name: "relu1"
type: "ReLU"
bottom: "conv1"
top: "conv1"
}
layer {
name: "norm1"
type: "LRN"
bottom: "conv1"
top: "norm1"
lrn_param {
local_size: 5
alpha: 0.0001
beta: 0.75
}
}
layer {
name: "pool1"
type: "Pooling"
bottom: "norm1"
top: "pool1"
pooling_param {
pool: MAX
kernel_size: 3
stride: 2
}
}
layer {
name: "conv2"
type: "Convolution"
bottom: "pool1"
top: "conv2"
param {
lr_mult: 1
decay_mult: 1
}
param {
lr_mult: 2
decay_mult: 0
}
convolution_param {
num_output: 256
pad: 2
kernel_size: 5
group: 2
weight_filler {
type: "gaussian"
std: 0.01
}
bias_filler {
type: "constant"
value: 0.1
}
}
}
layer {
name: "relu2"
type: "ReLU"
bottom: "conv2"
top: "conv2"
}
layer {
name: "norm2"
type: "LRN"
bottom: "conv2"
top: "norm2"
lrn_param {
local_size: 5
alpha: 0.0001
beta: 0.75
}
}
layer {
name: "pool2"
type: "Pooling"
bottom: "norm2"
top: "pool2"
pooling_param {
pool: MAX
kernel_size: 3
stride: 2
}
}
layer {
name: "conv3"
type: "Convolution"
bottom: "pool2"
top: "conv3"
param {
lr_mult: 1
decay_mult: 1
}
param {
lr_mult: 2
decay_mult: 0
}
convolution_param {
num_output: 384
pad: 1
kernel_size: 3
weight_filler {
type: "gaussian"
std: 0.01
}
bias_filler {
type: "constant"
value: 0
}
}
}
layer {
name: "relu3"
type: "ReLU"
bottom: "conv3"
top: "conv3"
}
layer {
name: "conv4"
type: "Convolution"
bottom: "conv3"
top: "conv4"
param {
lr_mult: 1
decay_mult: 1
}
param {
lr_mult: 2
decay_mult: 0
}
convolution_param {
num_output: 384
pad: 1
kernel_size: 3
group: 2
weight_filler {
type: "gaussian"
std: 0.01
}
bias_filler {
type: "constant"
value: 0.1
}
}
}
layer {
name: "relu4"
type: "ReLU"
bottom: "conv4"
top: "conv4"
}
layer {
name: "conv5"
type: "Convolution"
bottom: "conv4"
top: "conv5"
param {
lr_mult: 1
decay_mult: 1
}
param {
lr_mult: 2
decay_mult: 0
}
convolution_param {
num_output: 256
pad: 1
kernel_size: 3
group: 2
weight_filler {
type: "gaussian"
std: 0.01
}
bias_filler {
type: "constant"
value: 0.1
}
}
}
layer {
name: "relu5"
type: "ReLU"
bottom: "conv5"
top: "conv5"
}
layer {
name: "pool5"
type: "Pooling"
bottom: "conv5"
top: "pool5"
pooling_param {
pool: MAX
kernel_size: 3
stride: 2
}
}
layer {
name: "fc6"
type: "InnerProduct"
bottom: "pool5"
top: "fc6"
param {
lr_mult: 1
decay_mult: 1
}
param {
lr_mult: 2
decay_mult: 0
}
inner_product_param {
num_output: 4096
weight_filler {
type: "gaussian"
std: 0.005
}
bias_filler {
type: "constant"
value: 0.1
}
}
}
layer {
name: "relu6"
type: "ReLU"
bottom: "fc6"
top: "fc6"
}
layer {
name: "drop6"
type: "Dropout"
bottom: "fc6"
top: "fc6"
dropout_param {
dropout_ratio: 0.5
}
}
layer {
name: "fc7"
type: "InnerProduct"
bottom: "fc6"
top: "fc7"
param {
lr_mult: 1
decay_mult: 1
}
param {
lr_mult: 2
decay_mult: 0
}
inner_product_param {
num_output: 4096
weight_filler {
type: "gaussian"
std: 0.005
}
bias_filler {
type: "constant"
value: 0.1
}
}
}
layer {
name: "relu7"
type: "ReLU"
bottom: "fc7"
top: "fc7"
}
layer {
name: "drop7"
type: "Dropout"
bottom: "fc7"
top: "fc7"
dropout_param {
dropout_ratio: 0.5
}
}
layer {
name: "fc8"
type: "InnerProduct"
bottom: "fc7"
top: "fc8"
param {
lr_mult: 1
decay_mult: 1
}
param {
lr_mult: 2
decay_mult: 0
}
inner_product_param {
num_output: 196
weight_filler {
type: "gaussian"
std: 0.01
}
bias_filler {
type: "constant"
value: 0
}
}
}
layer {
name: "loss"
type: "SoftmaxWithLoss"
bottom: "fc8"
bottom: "label"
top: "loss"
}
I0407 21:56:15.148841 23658 layer_factory.hpp:77] Creating layer train-data
I0407 21:56:15.286978 23658 db_lmdb.cpp:35] Opened lmdb /mnt/bigdisk/DIGITS-MAN-2/digits/jobs/20210407-214532-d396/train_db
I0407 21:56:15.335000 23658 net.cpp:84] Creating Layer train-data
I0407 21:56:15.335022 23658 net.cpp:380] train-data -> data
I0407 21:56:15.335050 23658 net.cpp:380] train-data -> label
I0407 21:56:15.335064 23658 data_transformer.cpp:25] Loading mean file from: /mnt/bigdisk/DIGITS-MAN-2/digits/jobs/20210407-214532-d396/mean.binaryproto
I0407 21:56:15.341223 23658 data_layer.cpp:45] output data size: 128,3,227,227
I0407 21:56:15.478703 23658 net.cpp:122] Setting up train-data
I0407 21:56:15.478729 23658 net.cpp:129] Top shape: 128 3 227 227 (19787136)
I0407 21:56:15.478734 23658 net.cpp:129] Top shape: 128 (128)
I0407 21:56:15.478739 23658 net.cpp:137] Memory required for data: 79149056
I0407 21:56:15.478749 23658 layer_factory.hpp:77] Creating layer conv1
I0407 21:56:15.478770 23658 net.cpp:84] Creating Layer conv1
I0407 21:56:15.478776 23658 net.cpp:406] conv1 <- data
I0407 21:56:15.478788 23658 net.cpp:380] conv1 -> conv1
I0407 21:56:16.039898 23658 net.cpp:122] Setting up conv1
I0407 21:56:16.039919 23658 net.cpp:129] Top shape: 128 96 55 55 (37171200)
I0407 21:56:16.039923 23658 net.cpp:137] Memory required for data: 227833856
I0407 21:56:16.039942 23658 layer_factory.hpp:77] Creating layer relu1
I0407 21:56:16.039952 23658 net.cpp:84] Creating Layer relu1
I0407 21:56:16.039958 23658 net.cpp:406] relu1 <- conv1
I0407 21:56:16.039963 23658 net.cpp:367] relu1 -> conv1 (in-place)
I0407 21:56:16.040243 23658 net.cpp:122] Setting up relu1
I0407 21:56:16.040251 23658 net.cpp:129] Top shape: 128 96 55 55 (37171200)
I0407 21:56:16.040256 23658 net.cpp:137] Memory required for data: 376518656
I0407 21:56:16.040259 23658 layer_factory.hpp:77] Creating layer norm1
I0407 21:56:16.040267 23658 net.cpp:84] Creating Layer norm1
I0407 21:56:16.040271 23658 net.cpp:406] norm1 <- conv1
I0407 21:56:16.040295 23658 net.cpp:380] norm1 -> norm1
I0407 21:56:16.040741 23658 net.cpp:122] Setting up norm1
I0407 21:56:16.040751 23658 net.cpp:129] Top shape: 128 96 55 55 (37171200)
I0407 21:56:16.040755 23658 net.cpp:137] Memory required for data: 525203456
I0407 21:56:16.040758 23658 layer_factory.hpp:77] Creating layer pool1
I0407 21:56:16.040766 23658 net.cpp:84] Creating Layer pool1
I0407 21:56:16.040769 23658 net.cpp:406] pool1 <- norm1
I0407 21:56:16.040774 23658 net.cpp:380] pool1 -> pool1
I0407 21:56:16.040809 23658 net.cpp:122] Setting up pool1
I0407 21:56:16.040815 23658 net.cpp:129] Top shape: 128 96 27 27 (8957952)
I0407 21:56:16.040818 23658 net.cpp:137] Memory required for data: 561035264
I0407 21:56:16.040822 23658 layer_factory.hpp:77] Creating layer conv2
I0407 21:56:16.040832 23658 net.cpp:84] Creating Layer conv2
I0407 21:56:16.040835 23658 net.cpp:406] conv2 <- pool1
I0407 21:56:16.040841 23658 net.cpp:380] conv2 -> conv2
I0407 21:56:16.047812 23658 net.cpp:122] Setting up conv2
I0407 21:56:16.047828 23658 net.cpp:129] Top shape: 128 256 27 27 (23887872)
I0407 21:56:16.047832 23658 net.cpp:137] Memory required for data: 656586752
I0407 21:56:16.047840 23658 layer_factory.hpp:77] Creating layer relu2
I0407 21:56:16.047847 23658 net.cpp:84] Creating Layer relu2
I0407 21:56:16.047850 23658 net.cpp:406] relu2 <- conv2
I0407 21:56:16.047855 23658 net.cpp:367] relu2 -> conv2 (in-place)
I0407 21:56:16.048348 23658 net.cpp:122] Setting up relu2
I0407 21:56:16.048358 23658 net.cpp:129] Top shape: 128 256 27 27 (23887872)
I0407 21:56:16.048362 23658 net.cpp:137] Memory required for data: 752138240
I0407 21:56:16.048364 23658 layer_factory.hpp:77] Creating layer norm2
I0407 21:56:16.048372 23658 net.cpp:84] Creating Layer norm2
I0407 21:56:16.048375 23658 net.cpp:406] norm2 <- conv2
I0407 21:56:16.048382 23658 net.cpp:380] norm2 -> norm2
I0407 21:56:16.048732 23658 net.cpp:122] Setting up norm2
I0407 21:56:16.048741 23658 net.cpp:129] Top shape: 128 256 27 27 (23887872)
I0407 21:56:16.048744 23658 net.cpp:137] Memory required for data: 847689728
I0407 21:56:16.048748 23658 layer_factory.hpp:77] Creating layer pool2
I0407 21:56:16.048755 23658 net.cpp:84] Creating Layer pool2
I0407 21:56:16.048759 23658 net.cpp:406] pool2 <- norm2
I0407 21:56:16.048764 23658 net.cpp:380] pool2 -> pool2
I0407 21:56:16.048794 23658 net.cpp:122] Setting up pool2
I0407 21:56:16.048800 23658 net.cpp:129] Top shape: 128 256 13 13 (5537792)
I0407 21:56:16.048804 23658 net.cpp:137] Memory required for data: 869840896
I0407 21:56:16.048806 23658 layer_factory.hpp:77] Creating layer conv3
I0407 21:56:16.048815 23658 net.cpp:84] Creating Layer conv3
I0407 21:56:16.048818 23658 net.cpp:406] conv3 <- pool2
I0407 21:56:16.048825 23658 net.cpp:380] conv3 -> conv3
I0407 21:56:16.058775 23658 net.cpp:122] Setting up conv3
I0407 21:56:16.058785 23658 net.cpp:129] Top shape: 128 384 13 13 (8306688)
I0407 21:56:16.058789 23658 net.cpp:137] Memory required for data: 903067648
I0407 21:56:16.058796 23658 layer_factory.hpp:77] Creating layer relu3
I0407 21:56:16.058802 23658 net.cpp:84] Creating Layer relu3
I0407 21:56:16.058806 23658 net.cpp:406] relu3 <- conv3
I0407 21:56:16.058815 23658 net.cpp:367] relu3 -> conv3 (in-place)
I0407 21:56:16.059304 23658 net.cpp:122] Setting up relu3
I0407 21:56:16.059314 23658 net.cpp:129] Top shape: 128 384 13 13 (8306688)
I0407 21:56:16.059317 23658 net.cpp:137] Memory required for data: 936294400
I0407 21:56:16.059320 23658 layer_factory.hpp:77] Creating layer conv4
I0407 21:56:16.059330 23658 net.cpp:84] Creating Layer conv4
I0407 21:56:16.059334 23658 net.cpp:406] conv4 <- conv3
I0407 21:56:16.059340 23658 net.cpp:380] conv4 -> conv4
I0407 21:56:16.069701 23658 net.cpp:122] Setting up conv4
I0407 21:56:16.069713 23658 net.cpp:129] Top shape: 128 384 13 13 (8306688)
I0407 21:56:16.069717 23658 net.cpp:137] Memory required for data: 969521152
I0407 21:56:16.069725 23658 layer_factory.hpp:77] Creating layer relu4
I0407 21:56:16.069730 23658 net.cpp:84] Creating Layer relu4
I0407 21:56:16.069751 23658 net.cpp:406] relu4 <- conv4
I0407 21:56:16.069757 23658 net.cpp:367] relu4 -> conv4 (in-place)
I0407 21:56:16.070102 23658 net.cpp:122] Setting up relu4
I0407 21:56:16.070111 23658 net.cpp:129] Top shape: 128 384 13 13 (8306688)
I0407 21:56:16.070116 23658 net.cpp:137] Memory required for data: 1002747904
I0407 21:56:16.070119 23658 layer_factory.hpp:77] Creating layer conv5
I0407 21:56:16.070128 23658 net.cpp:84] Creating Layer conv5
I0407 21:56:16.070132 23658 net.cpp:406] conv5 <- conv4
I0407 21:56:16.070137 23658 net.cpp:380] conv5 -> conv5
I0407 21:56:16.078464 23658 net.cpp:122] Setting up conv5
I0407 21:56:16.078475 23658 net.cpp:129] Top shape: 128 256 13 13 (5537792)
I0407 21:56:16.078480 23658 net.cpp:137] Memory required for data: 1024899072
I0407 21:56:16.078488 23658 layer_factory.hpp:77] Creating layer relu5
I0407 21:56:16.078495 23658 net.cpp:84] Creating Layer relu5
I0407 21:56:16.078498 23658 net.cpp:406] relu5 <- conv5
I0407 21:56:16.078505 23658 net.cpp:367] relu5 -> conv5 (in-place)
I0407 21:56:16.078990 23658 net.cpp:122] Setting up relu5
I0407 21:56:16.078999 23658 net.cpp:129] Top shape: 128 256 13 13 (5537792)
I0407 21:56:16.079003 23658 net.cpp:137] Memory required for data: 1047050240
I0407 21:56:16.079007 23658 layer_factory.hpp:77] Creating layer pool5
I0407 21:56:16.079015 23658 net.cpp:84] Creating Layer pool5
I0407 21:56:16.079018 23658 net.cpp:406] pool5 <- conv5
I0407 21:56:16.079023 23658 net.cpp:380] pool5 -> pool5
I0407 21:56:16.079061 23658 net.cpp:122] Setting up pool5
I0407 21:56:16.079066 23658 net.cpp:129] Top shape: 128 256 6 6 (1179648)
I0407 21:56:16.079068 23658 net.cpp:137] Memory required for data: 1051768832
I0407 21:56:16.079072 23658 layer_factory.hpp:77] Creating layer fc6
I0407 21:56:16.079082 23658 net.cpp:84] Creating Layer fc6
I0407 21:56:16.079084 23658 net.cpp:406] fc6 <- pool5
I0407 21:56:16.079089 23658 net.cpp:380] fc6 -> fc6
I0407 21:56:16.430938 23658 net.cpp:122] Setting up fc6
I0407 21:56:16.430956 23658 net.cpp:129] Top shape: 128 4096 (524288)
I0407 21:56:16.430960 23658 net.cpp:137] Memory required for data: 1053865984
I0407 21:56:16.430969 23658 layer_factory.hpp:77] Creating layer relu6
I0407 21:56:16.430979 23658 net.cpp:84] Creating Layer relu6
I0407 21:56:16.430984 23658 net.cpp:406] relu6 <- fc6
I0407 21:56:16.430990 23658 net.cpp:367] relu6 -> fc6 (in-place)
I0407 21:56:16.431602 23658 net.cpp:122] Setting up relu6
I0407 21:56:16.431612 23658 net.cpp:129] Top shape: 128 4096 (524288)
I0407 21:56:16.431614 23658 net.cpp:137] Memory required for data: 1055963136
I0407 21:56:16.431618 23658 layer_factory.hpp:77] Creating layer drop6
I0407 21:56:16.431625 23658 net.cpp:84] Creating Layer drop6
I0407 21:56:16.431629 23658 net.cpp:406] drop6 <- fc6
I0407 21:56:16.431635 23658 net.cpp:367] drop6 -> fc6 (in-place)
I0407 21:56:16.431661 23658 net.cpp:122] Setting up drop6
I0407 21:56:16.431666 23658 net.cpp:129] Top shape: 128 4096 (524288)
I0407 21:56:16.431669 23658 net.cpp:137] Memory required for data: 1058060288
I0407 21:56:16.431672 23658 layer_factory.hpp:77] Creating layer fc7
I0407 21:56:16.431681 23658 net.cpp:84] Creating Layer fc7
I0407 21:56:16.431685 23658 net.cpp:406] fc7 <- fc6
I0407 21:56:16.431691 23658 net.cpp:380] fc7 -> fc7
I0407 21:56:16.588145 23658 net.cpp:122] Setting up fc7
I0407 21:56:16.588163 23658 net.cpp:129] Top shape: 128 4096 (524288)
I0407 21:56:16.588167 23658 net.cpp:137] Memory required for data: 1060157440
I0407 21:56:16.588176 23658 layer_factory.hpp:77] Creating layer relu7
I0407 21:56:16.588186 23658 net.cpp:84] Creating Layer relu7
I0407 21:56:16.588191 23658 net.cpp:406] relu7 <- fc7
I0407 21:56:16.588196 23658 net.cpp:367] relu7 -> fc7 (in-place)
I0407 21:56:16.588814 23658 net.cpp:122] Setting up relu7
I0407 21:56:16.588824 23658 net.cpp:129] Top shape: 128 4096 (524288)
I0407 21:56:16.588827 23658 net.cpp:137] Memory required for data: 1062254592
I0407 21:56:16.588830 23658 layer_factory.hpp:77] Creating layer drop7
I0407 21:56:16.588837 23658 net.cpp:84] Creating Layer drop7
I0407 21:56:16.588860 23658 net.cpp:406] drop7 <- fc7
I0407 21:56:16.588865 23658 net.cpp:367] drop7 -> fc7 (in-place)
I0407 21:56:16.588889 23658 net.cpp:122] Setting up drop7
I0407 21:56:16.588896 23658 net.cpp:129] Top shape: 128 4096 (524288)
I0407 21:56:16.588898 23658 net.cpp:137] Memory required for data: 1064351744
I0407 21:56:16.588901 23658 layer_factory.hpp:77] Creating layer fc8
I0407 21:56:16.588908 23658 net.cpp:84] Creating Layer fc8
I0407 21:56:16.588912 23658 net.cpp:406] fc8 <- fc7
I0407 21:56:16.588917 23658 net.cpp:380] fc8 -> fc8
I0407 21:56:16.596531 23658 net.cpp:122] Setting up fc8
I0407 21:56:16.596540 23658 net.cpp:129] Top shape: 128 196 (25088)
I0407 21:56:16.596544 23658 net.cpp:137] Memory required for data: 1064452096
I0407 21:56:16.596549 23658 layer_factory.hpp:77] Creating layer loss
I0407 21:56:16.596556 23658 net.cpp:84] Creating Layer loss
I0407 21:56:16.596560 23658 net.cpp:406] loss <- fc8
I0407 21:56:16.596565 23658 net.cpp:406] loss <- label
I0407 21:56:16.596571 23658 net.cpp:380] loss -> loss
I0407 21:56:16.596580 23658 layer_factory.hpp:77] Creating layer loss
…
I0407 21:56:16.597805 23658 net.cpp:294] The NetState phase (1) differed from the phase (0) specified by a rule in layer train-data
I0407 21:56:16.597949 23658 net.cpp:51] Initializing net from parameters:
state {
phase: TEST
}
layer {
name: "val-data"
type: "Data"
top: "data"
top: "label"
include {
phase: TEST
}
transform_param {
crop_size: 227
mean_file: "/mnt/bigdisk/DIGITS-MAN-2/digits/jobs/20210407-214532-d396/mean.binaryproto"
}
data_param {
source: "/mnt/bigdisk/DIGITS-MAN-2/digits/jobs/20210407-214532-d396/val_db"
batch_size: 32
backend: LMDB
}
}
layer {
name: "conv1"
type: "Convolution"
bottom: "data"
top: "conv1"
param {
lr_mult: 1
decay_mult: 1
}
param {
lr_mult: 2
decay_mult: 0
}
convolution_param {
num_output: 96
kernel_size: 11
stride: 4
weight_filler {
type: "gaussian"
std: 0.01
}
bias_filler {
type: "constant"
value: 0
}
}
}
layer {
name: "relu1"
type: "ReLU"
bottom: "conv1"
top: "conv1"
}
layer {
name: "norm1"
type: "LRN"
bottom: "conv1"
top: "norm1"
lrn_param {
local_size: 5
alpha: 0.0001
beta: 0.75
}
}
layer {
name: "pool1"
type: "Pooling"
bottom: "norm1"
top: "pool1"
pooling_param {
pool: MAX
kernel_size: 3
stride: 2
}
}
layer {
name: "conv2"
type: "Convolution"
bottom: "pool1"
top: "conv2"
param {
lr_mult: 1
decay_mult: 1
}
param {
lr_mult: 2
decay_mult: 0
}
convolution_param {
num_output: 256
pad: 2
kernel_size: 5
group: 2
weight_filler {
type: "gaussian"
std: 0.01
}
bias_filler {
type: "constant"
value: 0.1
}
}
}
layer {
name: "relu2"
type: "ReLU"
bottom: "conv2"
top: "conv2"
}
layer {
name: "norm2"
type: "LRN"
bottom: "conv2"
top: "norm2"
lrn_param {
local_size: 5
alpha: 0.0001
beta: 0.75
}
}
layer {
name: "pool2"
type: "Pooling"
bottom: "norm2"
top: "pool2"
pooling_param {
pool: MAX
kernel_size: 3
stride: 2
}
}
layer {
name: "conv3"
type: "Convolution"
bottom: "pool2"
top: "conv3"
param {
lr_mult: 1
decay_mult: 1
}
param {
lr_mult: 2
decay_mult: 0
}
convolution_param {
num_output: 384
pad: 1
kernel_size: 3
weight_filler {
type: "gaussian"
std: 0.01
}
bias_filler {
type: "constant"
value: 0
}
}
}
layer {
name: "relu3"
type: "ReLU"
bottom: "conv3"
top: "conv3"
}
layer {
name: "conv4"
type: "Convolution"
bottom: "conv3"
top: "conv4"
param {
lr_mult: 1
decay_mult: 1
}
param {
lr_mult: 2
decay_mult: 0
}
convolution_param {
num_output: 384
pad: 1
kernel_size: 3
group: 2
weight_filler {
type: "gaussian"
std: 0.01
}
bias_filler {
type: "constant"
value: 0.1
}
}
}
layer {
name: "relu4"
type: "ReLU"
bottom: "conv4"
top: "conv4"
}
layer {
name: "conv5"
type: "Convolution"
bottom: "conv4"
top: "conv5"
param {
lr_mult: 1
decay_mult: 1
}
param {
lr_mult: 2
decay_mult: 0
}
convolution_param {
num_output: 256
pad: 1
kernel_size: 3
group: 2
weight_filler {
type: "gaussian"
std: 0.01
}
bias_filler {
type: "constant"
value: 0.1
}
}
}
layer {
name: "relu5"
type: "ReLU"
bottom: "conv5"
top: "conv5"
}
layer {
name: "pool5"
type: "Pooling"
bottom: "conv5"
top: "pool5"
pooling_param {
pool: MAX
kernel_size: 3
stride: 2
}
}
layer {
name: "fc6"
type: "InnerProduct"
bottom: "pool5"
top: "fc6"
param {
lr_mult: 1
decay_mult: 1
}
param {
lr_mult: 2
decay_mult: 0
}
inner_product_param {
num_output: 4096
weight_filler {
type: "gaussian"
std: 0.005
}
bias_filler {
type: "constant"
value: 0.1
}
}
}
layer {
name: "relu6"
type: "ReLU"
bottom: "fc6"
top: "fc6"
}
layer {
name: "drop6"
type: "Dropout"
bottom: "fc6"
top: "fc6"
dropout_param {
dropout_ratio: 0.5
}
}
layer {
name: "fc7"
type: "InnerProduct"
bottom: "fc6"
top: "fc7"
param {
lr_mult: 1
decay_mult: 1
}
param {
lr_mult: 2
decay_mult: 0
}
inner_product_param {
num_output: 4096
weight_filler {
type: "gaussian"
std: 0.005
}
bias_filler {
type: "constant"
value: 0.1
}
}
}
layer {
name: "relu7"
type: "ReLU"
bottom: "fc7"
top: "fc7"
}
layer {
name: "drop7"
type: "Dropout"
bottom: "fc7"
top: "fc7"
dropout_param {
dropout_ratio: 0.5
}
}
layer {
name: "fc8"
type: "InnerProduct"
bottom: "fc7"
top: "fc8"
param {
lr_mult: 1
decay_mult: 1
}
param {
lr_mult: 2
decay_mult: 0
}
inner_product_param {
num_output: 196
weight_filler {
type: "gaussian"
std: 0.01
}
bias_filler {
type: "constant"
value: 0
}
}
}
layer {
name: "accuracy"
type: "Accuracy"
bottom: "fc8"
bottom: "label"
top: "accuracy"
include {
phase: TEST
}
}
layer {
name: "loss"
type: "SoftmaxWithLoss"
bottom: "fc8"
bottom: "label"
top: "loss"
}
I0407 21:56:16.598053 23658 layer_factory.hpp:77] Creating layer val-data
I0407 21:56:16.601140 23658 db_lmdb.cpp:35] Opened lmdb /mnt/bigdisk/DIGITS-MAN-2/digits/jobs/20210407-214532-d396/val_db
I0407 21:56:16.601651 23658 net.cpp:84] Creating Layer val-data
I0407 21:56:16.601660 23658 net.cpp:380] val-data -> data
I0407 21:56:16.601670 23658 net.cpp:380] val-data -> label
I0407 21:56:16.601675 23658 data_transformer.cpp:25] Loading mean file from: /mnt/bigdisk/DIGITS-MAN-2/digits/jobs/20210407-214532-d396/mean.binaryproto
I0407 21:56:16.605679 23658 data_layer.cpp:45] output data size: 32,3,227,227
I0407 21:56:16.635514 23658 net.cpp:122] Setting up val-data
I0407 21:56:16.635531 23658 net.cpp:129] Top shape: 32 3 227 227 (4946784)
I0407 21:56:16.635535 23658 net.cpp:129] Top shape: 32 (32)
I0407 21:56:16.635540 23658 net.cpp:137] Memory required for data: 19787264
I0407 21:56:16.635546 23658 layer_factory.hpp:77] Creating layer label_val-data_1_split
I0407 21:56:16.635558 23658 net.cpp:84] Creating Layer label_val-data_1_split
I0407 21:56:16.635562 23658 net.cpp:406] label_val-data_1_split <- label
I0407 21:56:16.635569 23658 net.cpp:380] label_val-data_1_split -> label_val-data_1_split_0
I0407 21:56:16.635578 23658 net.cpp:380] label_val-data_1_split -> label_val-data_1_split_1
I0407 21:56:16.635619 23658 net.cpp:122] Setting up label_val-data_1_split
I0407 21:56:16.635624 23658 net.cpp:129] Top shape: 32 (32)
I0407 21:56:16.635628 23658 net.cpp:129] Top shape: 32 (32)
I0407 21:56:16.635632 23658 net.cpp:137] Memory required for data: 19787520
I0407 21:56:16.635634 23658 layer_factory.hpp:77] Creating layer conv1
I0407 21:56:16.635645 23658 net.cpp:84] Creating Layer conv1
I0407 21:56:16.635648 23658 net.cpp:406] conv1 <- data
I0407 21:56:16.635653 23658 net.cpp:380] conv1 -> conv1
I0407 21:56:16.637728 23658 net.cpp:122] Setting up conv1
I0407 21:56:16.637738 23658 net.cpp:129] Top shape: 32 96 55 55 (9292800)
I0407 21:56:16.637742 23658 net.cpp:137] Memory required for data: 56958720
I0407 21:56:16.637753 23658 layer_factory.hpp:77] Creating layer relu1
I0407 21:56:16.637758 23658 net.cpp:84] Creating Layer relu1
I0407 21:56:16.637763 23658 net.cpp:406] relu1 <- conv1
I0407 21:56:16.637768 23658 net.cpp:367] relu1 -> conv1 (in-place)
I0407 21:56:16.638139 23658 net.cpp:122] Setting up relu1
I0407 21:56:16.638147 23658 net.cpp:129] Top shape: 32 96 55 55 (9292800)
I0407 21:56:16.638150 23658 net.cpp:137] Memory required for data: 94129920
I0407 21:56:16.638154 23658 layer_factory.hpp:77] Creating layer norm1
I0407 21:56:16.638162 23658 net.cpp:84] Creating Layer norm1
I0407 21:56:16.638166 23658 net.cpp:406] norm1 <- conv1
I0407 21:56:16.638171 23658 net.cpp:380] norm1 -> norm1
I0407 21:56:16.638648 23658 net.cpp:122] Setting up norm1
I0407 21:56:16.638656 23658 net.cpp:129] Top shape: 32 96 55 55 (9292800)
I0407 21:56:16.638660 23658 net.cpp:137] Memory required for data: 131301120
I0407 21:56:16.638664 23658 layer_factory.hpp:77] Creating layer pool1
I0407 21:56:16.638670 23658 net.cpp:84] Creating Layer pool1
I0407 21:56:16.638674 23658 net.cpp:406] pool1 <- norm1
I0407 21:56:16.638679 23658 net.cpp:380] pool1 -> pool1
I0407 21:56:16.638706 23658 net.cpp:122] Setting up pool1
I0407 21:56:16.638711 23658 net.cpp:129] Top shape: 32 96 27 27 (2239488)
I0407 21:56:16.638715 23658 net.cpp:137] Memory required for data: 140259072
I0407 21:56:16.638718 23658 layer_factory.hpp:77] Creating layer conv2
I0407 21:56:16.638725 23658 net.cpp:84] Creating Layer conv2
I0407 21:56:16.638729 23658 net.cpp:406] conv2 <- pool1
I0407 21:56:16.638752 23658 net.cpp:380] conv2 -> conv2
I0407 21:56:16.647732 23658 net.cpp:122] Setting up conv2
I0407 21:56:16.647744 23658 net.cpp:129] Top shape: 32 256 27 27 (5971968)
I0407 21:56:16.647748 23658 net.cpp:137] Memory required for data: 164146944
I0407 21:56:16.647758 23658 layer_factory.hpp:77] Creating layer relu2
I0407 21:56:16.647764 23658 net.cpp:84] Creating Layer relu2
I0407 21:56:16.647768 23658 net.cpp:406] relu2 <- conv2
I0407 21:56:16.647774 23658 net.cpp:367] relu2 -> conv2 (in-place)
I0407 21:56:16.648277 23658 net.cpp:122] Setting up relu2
I0407 21:56:16.648285 23658 net.cpp:129] Top shape: 32 256 27 27 (5971968)
I0407 21:56:16.648288 23658 net.cpp:137] Memory required for data: 188034816
I0407 21:56:16.648293 23658 layer_factory.hpp:77] Creating layer norm2
I0407 21:56:16.648301 23658 net.cpp:84] Creating Layer norm2
I0407 21:56:16.648305 23658 net.cpp:406] norm2 <- conv2
I0407 21:56:16.648311 23658 net.cpp:380] norm2 -> norm2
I0407 21:56:16.648834 23658 net.cpp:122] Setting up norm2
I0407 21:56:16.648844 23658 net.cpp:129] Top shape: 32 256 27 27 (5971968)
I0407 21:56:16.648847 23658 net.cpp:137] Memory required for data: 211922688
I0407 21:56:16.648851 23658 layer_factory.hpp:77] Creating layer pool2
I0407 21:56:16.648859 23658 net.cpp:84] Creating Layer pool2
I0407 21:56:16.648862 23658 net.cpp:406] pool2 <- norm2
I0407 21:56:16.648867 23658 net.cpp:380] pool2 -> pool2
I0407 21:56:16.648897 23658 net.cpp:122] Setting up pool2
I0407 21:56:16.648902 23658 net.cpp:129] Top shape: 32 256 13 13 (1384448)
I0407 21:56:16.648905 23658 net.cpp:137] Memory required for data: 217460480
I0407 21:56:16.648908 23658 layer_factory.hpp:77] Creating layer conv3
I0407 21:56:16.648917 23658 net.cpp:84] Creating Layer conv3
I0407 21:56:16.648921 23658 net.cpp:406] conv3 <- pool2
I0407 21:56:16.648927 23658 net.cpp:380] conv3 -> conv3
I0407 21:56:16.660539 23658 net.cpp:122] Setting up conv3
I0407 21:56:16.660554 23658 net.cpp:129] Top shape: 32 384 13 13 (2076672)
I0407 21:56:16.660557 23658 net.cpp:137] Memory required for data: 225767168
I0407 21:56:16.660567 23658 layer_factory.hpp:77] Creating layer relu3
I0407 21:56:16.660575 23658 net.cpp:84] Creating Layer relu3
I0407 21:56:16.660579 23658 net.cpp:406] relu3 <- conv3
I0407 21:56:16.660584 23658 net.cpp:367] relu3 -> conv3 (in-place)
I0407 21:56:16.661128 23658 net.cpp:122] Setting up relu3
I0407 21:56:16.661136 23658 net.cpp:129] Top shape: 32 384 13 13 (2076672)
I0407 21:56:16.661139 23658 net.cpp:137] Memory required for data: 234073856
I0407 21:56:16.661144 23658 layer_factory.hpp:77] Creating layer conv4
I0407 21:56:16.661154 23658 net.cpp:84] Creating Layer conv4
I0407 21:56:16.661159 23658 net.cpp:406] conv4 <- conv3
I0407 21:56:16.661165 23658 net.cpp:380] conv4 -> conv4
I0407 21:56:16.670584 23658 net.cpp:122] Setting up conv4
I0407 21:56:16.670596 23658 net.cpp:129] Top shape: 32 384 13 13 (2076672)
I0407 21:56:16.670599 23658 net.cpp:137] Memory required for data: 242380544
I0407 21:56:16.670606 23658 layer_factory.hpp:77] Creating layer relu4
I0407 21:56:16.670614 23658 net.cpp:84] Creating Layer relu4
I0407 21:56:16.670617 23658 net.cpp:406] relu4 <- conv4
I0407 21:56:16.670622 23658 net.cpp:367] relu4 -> conv4 (in-place)
I0407 21:56:16.670964 23658 net.cpp:122] Setting up relu4
I0407 21:56:16.670971 23658 net.cpp:129] Top shape: 32 384 13 13 (2076672)
I0407 21:56:16.670975 23658 net.cpp:137] Memory required for data: 250687232
I0407 21:56:16.670979 23658 layer_factory.hpp:77] Creating layer conv5
I0407 21:56:16.670987 23658 net.cpp:84] Creating Layer conv5
I0407 21:56:16.670991 23658 net.cpp:406] conv5 <- conv4
I0407 21:56:16.670998 23658 net.cpp:380] conv5 -> conv5
I0407 21:56:16.679507 23658 net.cpp:122] Setting up conv5
I0407 21:56:16.679519 23658 net.cpp:129] Top shape: 32 256 13 13 (1384448)
I0407 21:56:16.679522 23658 net.cpp:137] Memory required for data: 256225024
I0407 21:56:16.679534 23658 layer_factory.hpp:77] Creating layer relu5
I0407 21:56:16.679541 23658 net.cpp:84] Creating Layer relu5
I0407 21:56:16.679545 23658 net.cpp:406] relu5 <- conv5
I0407 21:56:16.679567 23658 net.cpp:367] relu5 -> conv5 (in-place)
I0407 21:56:16.680061 23658 net.cpp:122] Setting up relu5
I0407 21:56:16.680070 23658 net.cpp:129] Top shape: 32 256 13 13 (1384448)
I0407 21:56:16.680074 23658 net.cpp:137] Memory required for data: 261762816
I0407 21:56:16.680078 23658 layer_factory.hpp:77] Creating layer pool5
I0407 21:56:16.680088 23658 net.cpp:84] Creating Layer pool5
I0407 21:56:16.680091 23658 net.cpp:406] pool5 <- conv5
I0407 21:56:16.680097 23658 net.cpp:380] pool5 -> pool5
I0407 21:56:16.680135 23658 net.cpp:122] Setting up pool5
I0407 21:56:16.680140 23658 net.cpp:129] Top shape: 32 256 6 6 (294912)
I0407 21:56:16.680145 23658 net.cpp:137] Memory required for data: 262942464
I0407 21:56:16.680147 23658 layer_factory.hpp:77] Creating layer fc6
I0407 21:56:16.680155 23658 net.cpp:84] Creating Layer fc6
I0407 21:56:16.680158 23658 net.cpp:406] fc6 <- pool5
I0407 21:56:16.680163 23658 net.cpp:380] fc6 -> fc6
I0407 21:56:17.032145 23658 net.cpp:122] Setting up fc6
I0407 21:56:17.032163 23658 net.cpp:129] Top shape: 32 4096 (131072)
I0407 21:56:17.032167 23658 net.cpp:137] Memory required for data: 263466752
I0407 21:56:17.032177 23658 layer_factory.hpp:77] Creating layer relu6
I0407 21:56:17.032186 23658 net.cpp:84] Creating Layer relu6
I0407 21:56:17.032191 23658 net.cpp:406] relu6 <- fc6
I0407 21:56:17.032197 23658 net.cpp:367] relu6 -> fc6 (in-place)
I0407 21:56:17.033046 23658 net.cpp:122] Setting up relu6
I0407 21:56:17.033054 23658 net.cpp:129] Top shape: 32 4096 (131072)
I0407 21:56:17.033058 23658 net.cpp:137] Memory required for data: 263991040
I0407 21:56:17.033061 23658 layer_factory.hpp:77] Creating layer drop6
I0407 21:56:17.033071 23658 net.cpp:84] Creating Layer drop6
I0407 21:56:17.033074 23658 net.cpp:406] drop6 <- fc6
I0407 21:56:17.033079 23658 net.cpp:367] drop6 -> fc6 (in-place)
I0407 21:56:17.033105 23658 net.cpp:122] Setting up drop6
I0407 21:56:17.033110 23658 net.cpp:129] Top shape: 32 4096 (131072)
I0407 21:56:17.033113 23658 net.cpp:137] Memory required for data: 264515328
I0407 21:56:17.033116 23658 layer_factory.hpp:77] Creating layer fc7
I0407 21:56:17.033123 23658 net.cpp:84] Creating Layer fc7
I0407 21:56:17.033126 23658 net.cpp:406] fc7 <- fc6
I0407 21:56:17.033133 23658 net.cpp:380] fc7 -> fc7
I0407 21:56:17.189707 23658 net.cpp:122] Setting up fc7
I0407 21:56:17.189728 23658 net.cpp:129] Top shape: 32 4096 (131072)
I0407 21:56:17.189731 23658 net.cpp:137] Memory required for data: 265039616
I0407 21:56:17.189741 23658 layer_factory.hpp:77] Creating layer relu7
I0407 21:56:17.189749 23658 net.cpp:84] Creating Layer relu7
I0407 21:56:17.189754 23658 net.cpp:406] relu7 <- fc7
I0407 21:56:17.189759 23658 net.cpp:367] relu7 -> fc7 (in-place)
I0407 21:56:17.190194 23658 net.cpp:122] Setting up relu7
I0407 21:56:17.190202 23658 net.cpp:129] Top shape: 32 4096 (131072)
I0407 21:56:17.190205 23658 net.cpp:137] Memory required for data: 265563904
I0407 21:56:17.190209 23658 layer_factory.hpp:77] Creating layer drop7
I0407 21:56:17.190215 23658 net.cpp:84] Creating Layer drop7
I0407 21:56:17.190219 23658 net.cpp:406] drop7 <- fc7
I0407 21:56:17.190225 23658 net.cpp:367] drop7 -> fc7 (in-place)
I0407 21:56:17.190248 23658 net.cpp:122] Setting up drop7
I0407 21:56:17.190254 23658 net.cpp:129] Top shape: 32 4096 (131072)
I0407 21:56:17.190258 23658 net.cpp:137] Memory required for data: 266088192
I0407 21:56:17.190260 23658 layer_factory.hpp:77] Creating layer fc8
I0407 21:56:17.190268 23658 net.cpp:84] Creating Layer fc8
I0407 21:56:17.190271 23658 net.cpp:406] fc8 <- fc7
I0407 21:56:17.190277 23658 net.cpp:380] fc8 -> fc8
I0407 21:56:17.197948 23658 net.cpp:122] Setting up fc8
I0407 21:56:17.197964 23658 net.cpp:129] Top shape: 32 196 (6272)
I0407 21:56:17.197968 23658 net.cpp:137] Memory required for data: 266113280
I0407 21:56:17.197973 23658 layer_factory.hpp:77] Creating layer fc8_fc8_0_split
I0407 21:56:17.197980 23658 net.cpp:84] Creating Layer fc8_fc8_0_split
I0407 21:56:17.197983 23658 net.cpp:406] fc8_fc8_0_split <- fc8
I0407 21:56:17.198009 23658 net.cpp:380] fc8_fc8_0_split -> fc8_fc8_0_split_0
I0407 21:56:17.198015 23658 net.cpp:380] fc8_fc8_0_split -> fc8_fc8_0_split_1
I0407 21:56:17.198045 23658 net.cpp:122] Setting up fc8_fc8_0_split
I0407 21:56:17.198050 23658 net.cpp:129] Top shape: 32 196 (6272)
I0407 21:56:17.198055 23658 net.cpp:129] Top shape: 32 196 (6272)
I0407 21:56:17.198057 23658 net.cpp:137] Memory required for data: 266163456
I0407 21:56:17.198060 23658 layer_factory.hpp:77] Creating layer accuracy
I0407 21:56:17.198068 23658 net.cpp:84] Creating Layer accuracy
I0407 21:56:17.198071 23658 net.cpp:406] accuracy <- fc8_fc8_0_split_0
I0407 21:56:17.198076 23658 net.cpp:406] accuracy <- label_val-data_1_split_0
I0407 21:56:17.198081 23658 net.cpp:380] accuracy -> accuracy
…
