…
I0409 22:47:54.348287  4221 net.cpp:294] The NetState phase (0) differed from the phase (1) specified by a rule in layer accuracy
I0409 22:47:54.348414  4221 net.cpp:51] Initializing net from parameters:
state {
phase: TRAIN
level: 0
stage: ""
}
layer {
name: "train-data"
type: "Data"
top: "data"
top: "label"
include {
phase: TRAIN
}
transform_param {
mirror: true
crop_size: 227
mean_file: "/mnt/bigdisk/DIGITS-MAN-2/digits/jobs/20210407-214532-d396/mean.binaryproto"
}
data_param {
source: "/mnt/bigdisk/DIGITS-MAN-2/digits/jobs/20210407-214532-d396/train_db"
batch_size: 128
backend: LMDB
}
}
layer {
name: "conv1"
type: "Convolution"
bottom: "data"
top: "conv1"
param {
lr_mult: 1
decay_mult: 1
}
param {
lr_mult: 2
decay_mult: 0
}
convolution_param {
num_output: 96
kernel_size: 11
stride: 4
weight_filler {
type: "gaussian"
std: 0.01
}
bias_filler {
type: "constant"
value: 0
}
}
}
layer {
name: "relu1"
type: "ReLU"
bottom: "conv1"
top: "conv1"
}
layer {
name: "norm1"
type: "LRN"
bottom: "conv1"
top: "norm1"
lrn_param {
local_size: 5
alpha: 0.0001
beta: 0.75
}
}
layer {
name: "pool1"
type: "Pooling"
bottom: "norm1"
top: "pool1"
pooling_param {
pool: MAX
kernel_size: 3
stride: 2
}
}
layer {
name: "conv2"
type: "Convolution"
bottom: "pool1"
top: "conv2"
param {
lr_mult: 1
decay_mult: 1
}
param {
lr_mult: 2
decay_mult: 0
}
convolution_param {
num_output: 256
pad: 2
kernel_size: 5
group: 2
weight_filler {
type: "gaussian"
std: 0.01
}
bias_filler {
type: "constant"
value: 0.1
}
}
}
layer {
name: "relu2"
type: "ReLU"
bottom: "conv2"
top: "conv2"
}
layer {
name: "norm2"
type: "LRN"
bottom: "conv2"
top: "norm2"
lrn_param {
local_size: 5
alpha: 0.0001
beta: 0.75
}
}
layer {
name: "pool2"
type: "Pooling"
bottom: "norm2"
top: "pool2"
pooling_param {
pool: MAX
kernel_size: 3
stride: 2
}
}
layer {
name: "conv3"
type: "Convolution"
bottom: "pool2"
top: "conv3"
param {
lr_mult: 1
decay_mult: 1
}
param {
lr_mult: 2
decay_mult: 0
}
convolution_param {
num_output: 384
pad: 1
kernel_size: 3
weight_filler {
type: "gaussian"
std: 0.01
}
bias_filler {
type: "constant"
value: 0
}
}
}
layer {
name: "relu3"
type: "ReLU"
bottom: "conv3"
top: "conv3"
}
layer {
name: "conv4"
type: "Convolution"
bottom: "conv3"
top: "conv4"
param {
lr_mult: 1
decay_mult: 1
}
param {
lr_mult: 2
decay_mult: 0
}
convolution_param {
num_output: 384
pad: 1
kernel_size: 3
group: 2
weight_filler {
type: "gaussian"
std: 0.01
}
bias_filler {
type: "constant"
value: 0.1
}
}
}
layer {
name: "relu4"
type: "ReLU"
bottom: "conv4"
top: "conv4"
}
layer {
name: "conv5"
type: "Convolution"
bottom: "conv4"
top: "conv5"
param {
lr_mult: 1
decay_mult: 1
}
param {
lr_mult: 2
decay_mult: 0
}
convolution_param {
num_output: 256
pad: 1
kernel_size: 3
group: 2
weight_filler {
type: "gaussian"
std: 0.01
}
bias_filler {
type: "constant"
value: 0.1
}
}
}
layer {
name: "relu5"
type: "ReLU"
bottom: "conv5"
top: "conv5"
}
layer {
name: "pool5"
type: "Pooling"
bottom: "conv5"
top: "pool5"
pooling_param {
pool: MAX
kernel_size: 3
stride: 2
}
}
layer {
name: "fc6"
type: "InnerProduct"
bottom: "pool5"
top: "fc6"
param {
lr_mult: 1
decay_mult: 1
}
param {
lr_mult: 2
decay_mult: 0
}
inner_product_param {
num_output: 1024
weight_filler {
type: "gaussian"
std: 0.005
}
bias_filler {
type: "constant"
value: 0.1
}
}
}
layer {
name: "relu6"
type: "ReLU"
bottom: "fc6"
top: "fc6"
}
layer {
name: "drop6"
type: "Dropout"
bottom: "fc6"
top: "fc6"
dropout_param {
dropout_ratio: 0.5
}
}
layer {
name: "fc8"
type: "InnerProduct"
bottom: "fc6"
top: "fc8"
param {
lr_mult: 1
decay_mult: 1
}
param {
lr_mult: 2
decay_mult: 0
}
inner_product_param {
num_output: 196
weight_filler {
type: "gaussian"
std: 0.01
}
bias_filler {
type: "constant"
value: 0
}
}
}
layer {
name: "loss"
type: "SoftmaxWithLoss"
bottom: "fc8"
bottom: "label"
top: "loss"
}
I0409 22:47:54.348496  4221 layer_factory.hpp:77] Creating layer train-data
I0409 22:47:54.351049  4221 db_lmdb.cpp:35] Opened lmdb /mnt/bigdisk/DIGITS-MAN-2/digits/jobs/20210407-214532-d396/train_db
I0409 22:47:54.351462  4221 net.cpp:84] Creating Layer train-data
I0409 22:47:54.351475  4221 net.cpp:380] train-data -> data
I0409 22:47:54.351493  4221 net.cpp:380] train-data -> label
I0409 22:47:54.351505  4221 data_transformer.cpp:25] Loading mean file from: /mnt/bigdisk/DIGITS-MAN-2/digits/jobs/20210407-214532-d396/mean.binaryproto
I0409 22:47:54.356187  4221 data_layer.cpp:45] output data size: 128,3,227,227
I0409 22:47:54.476730  4221 net.cpp:122] Setting up train-data
I0409 22:47:54.476753  4221 net.cpp:129] Top shape: 128 3 227 227 (19787136)
I0409 22:47:54.476758  4221 net.cpp:129] Top shape: 128 (128)
I0409 22:47:54.476763  4221 net.cpp:137] Memory required for data: 79149056
I0409 22:47:54.476773  4221 layer_factory.hpp:77] Creating layer conv1
I0409 22:47:54.476794  4221 net.cpp:84] Creating Layer conv1
I0409 22:47:54.476799  4221 net.cpp:406] conv1 <- data
I0409 22:47:54.476811  4221 net.cpp:380] conv1 -> conv1
I0409 22:47:55.046655  4221 net.cpp:122] Setting up conv1
I0409 22:47:55.046677  4221 net.cpp:129] Top shape: 128 96 55 55 (37171200)
I0409 22:47:55.046681  4221 net.cpp:137] Memory required for data: 227833856
I0409 22:47:55.046701  4221 layer_factory.hpp:77] Creating layer relu1
I0409 22:47:55.046712  4221 net.cpp:84] Creating Layer relu1
I0409 22:47:55.046716  4221 net.cpp:406] relu1 <- conv1
I0409 22:47:55.046722  4221 net.cpp:367] relu1 -> conv1 (in-place)
I0409 22:47:55.047016  4221 net.cpp:122] Setting up relu1
I0409 22:47:55.047024  4221 net.cpp:129] Top shape: 128 96 55 55 (37171200)
I0409 22:47:55.047029  4221 net.cpp:137] Memory required for data: 376518656
I0409 22:47:55.047031  4221 layer_factory.hpp:77] Creating layer norm1
I0409 22:47:55.047041  4221 net.cpp:84] Creating Layer norm1
I0409 22:47:55.047044  4221 net.cpp:406] norm1 <- conv1
I0409 22:47:55.047050  4221 net.cpp:380] norm1 -> norm1
I0409 22:47:55.047489  4221 net.cpp:122] Setting up norm1
I0409 22:47:55.047499  4221 net.cpp:129] Top shape: 128 96 55 55 (37171200)
I0409 22:47:55.047503  4221 net.cpp:137] Memory required for data: 525203456
I0409 22:47:55.047508  4221 layer_factory.hpp:77] Creating layer pool1
I0409 22:47:55.047515  4221 net.cpp:84] Creating Layer pool1
I0409 22:47:55.047518  4221 net.cpp:406] pool1 <- norm1
I0409 22:47:55.047523  4221 net.cpp:380] pool1 -> pool1
I0409 22:47:55.047581  4221 net.cpp:122] Setting up pool1
I0409 22:47:55.047587  4221 net.cpp:129] Top shape: 128 96 27 27 (8957952)
I0409 22:47:55.047591  4221 net.cpp:137] Memory required for data: 561035264
I0409 22:47:55.047595  4221 layer_factory.hpp:77] Creating layer conv2
I0409 22:47:55.047605  4221 net.cpp:84] Creating Layer conv2
I0409 22:47:55.047608  4221 net.cpp:406] conv2 <- pool1
I0409 22:47:55.047613  4221 net.cpp:380] conv2 -> conv2
I0409 22:47:55.054240  4221 net.cpp:122] Setting up conv2
I0409 22:47:55.054256  4221 net.cpp:129] Top shape: 128 256 27 27 (23887872)
I0409 22:47:55.054260  4221 net.cpp:137] Memory required for data: 656586752
I0409 22:47:55.054271  4221 layer_factory.hpp:77] Creating layer relu2
I0409 22:47:55.054280  4221 net.cpp:84] Creating Layer relu2
I0409 22:47:55.054283  4221 net.cpp:406] relu2 <- conv2
I0409 22:47:55.054289  4221 net.cpp:367] relu2 -> conv2 (in-place)
I0409 22:47:55.054711  4221 net.cpp:122] Setting up relu2
I0409 22:47:55.054721  4221 net.cpp:129] Top shape: 128 256 27 27 (23887872)
I0409 22:47:55.054725  4221 net.cpp:137] Memory required for data: 752138240
I0409 22:47:55.054728  4221 layer_factory.hpp:77] Creating layer norm2
I0409 22:47:55.054736  4221 net.cpp:84] Creating Layer norm2
I0409 22:47:55.054740  4221 net.cpp:406] norm2 <- conv2
I0409 22:47:55.054745  4221 net.cpp:380] norm2 -> norm2
I0409 22:47:55.055034  4221 net.cpp:122] Setting up norm2
I0409 22:47:55.055042  4221 net.cpp:129] Top shape: 128 256 27 27 (23887872)
I0409 22:47:55.055047  4221 net.cpp:137] Memory required for data: 847689728
I0409 22:47:55.055049  4221 layer_factory.hpp:77] Creating layer pool2
I0409 22:47:55.055058  4221 net.cpp:84] Creating Layer pool2
I0409 22:47:55.055061  4221 net.cpp:406] pool2 <- norm2
I0409 22:47:55.055066  4221 net.cpp:380] pool2 -> pool2
I0409 22:47:55.055094  4221 net.cpp:122] Setting up pool2
I0409 22:47:55.055099  4221 net.cpp:129] Top shape: 128 256 13 13 (5537792)
I0409 22:47:55.055102  4221 net.cpp:137] Memory required for data: 869840896
I0409 22:47:55.055105  4221 layer_factory.hpp:77] Creating layer conv3
I0409 22:47:55.055115  4221 net.cpp:84] Creating Layer conv3
I0409 22:47:55.055119  4221 net.cpp:406] conv3 <- pool2
I0409 22:47:55.055124  4221 net.cpp:380] conv3 -> conv3
I0409 22:47:55.064981  4221 net.cpp:122] Setting up conv3
I0409 22:47:55.064999  4221 net.cpp:129] Top shape: 128 384 13 13 (8306688)
I0409 22:47:55.065002  4221 net.cpp:137] Memory required for data: 903067648
I0409 22:47:55.065014  4221 layer_factory.hpp:77] Creating layer relu3
I0409 22:47:55.065022  4221 net.cpp:84] Creating Layer relu3
I0409 22:47:55.065026  4221 net.cpp:406] relu3 <- conv3
I0409 22:47:55.065032  4221 net.cpp:367] relu3 -> conv3 (in-place)
I0409 22:47:55.065454  4221 net.cpp:122] Setting up relu3
I0409 22:47:55.065464  4221 net.cpp:129] Top shape: 128 384 13 13 (8306688)
I0409 22:47:55.065467  4221 net.cpp:137] Memory required for data: 936294400
I0409 22:47:55.065471  4221 layer_factory.hpp:77] Creating layer conv4
I0409 22:47:55.065481  4221 net.cpp:84] Creating Layer conv4
I0409 22:47:55.065485  4221 net.cpp:406] conv4 <- conv3
I0409 22:47:55.065490  4221 net.cpp:380] conv4 -> conv4
I0409 22:47:55.075414  4221 net.cpp:122] Setting up conv4
I0409 22:47:55.075433  4221 net.cpp:129] Top shape: 128 384 13 13 (8306688)
I0409 22:47:55.075435  4221 net.cpp:137] Memory required for data: 969521152
I0409 22:47:55.075444  4221 layer_factory.hpp:77] Creating layer relu4
I0409 22:47:55.075451  4221 net.cpp:84] Creating Layer relu4
I0409 22:47:55.075456  4221 net.cpp:406] relu4 <- conv4
I0409 22:47:55.075461  4221 net.cpp:367] relu4 -> conv4 (in-place)
I0409 22:47:55.075737  4221 net.cpp:122] Setting up relu4
I0409 22:47:55.075745  4221 net.cpp:129] Top shape: 128 384 13 13 (8306688)
I0409 22:47:55.075749  4221 net.cpp:137] Memory required for data: 1002747904
I0409 22:47:55.075752  4221 layer_factory.hpp:77] Creating layer conv5
I0409 22:47:55.075762  4221 net.cpp:84] Creating Layer conv5
I0409 22:47:55.075765  4221 net.cpp:406] conv5 <- conv4
I0409 22:47:55.075790  4221 net.cpp:380] conv5 -> conv5
I0409 22:47:55.087088  4221 net.cpp:122] Setting up conv5
I0409 22:47:55.087107  4221 net.cpp:129] Top shape: 128 256 13 13 (5537792)
I0409 22:47:55.087110  4221 net.cpp:137] Memory required for data: 1024899072
I0409 22:47:55.087123  4221 layer_factory.hpp:77] Creating layer relu5
I0409 22:47:55.087134  4221 net.cpp:84] Creating Layer relu5
I0409 22:47:55.087138  4221 net.cpp:406] relu5 <- conv5
I0409 22:47:55.087144  4221 net.cpp:367] relu5 -> conv5 (in-place)
I0409 22:47:55.087630  4221 net.cpp:122] Setting up relu5
I0409 22:47:55.087641  4221 net.cpp:129] Top shape: 128 256 13 13 (5537792)
I0409 22:47:55.087644  4221 net.cpp:137] Memory required for data: 1047050240
I0409 22:47:55.087648  4221 layer_factory.hpp:77] Creating layer pool5
I0409 22:47:55.087656  4221 net.cpp:84] Creating Layer pool5
I0409 22:47:55.087659  4221 net.cpp:406] pool5 <- conv5
I0409 22:47:55.087664  4221 net.cpp:380] pool5 -> pool5
I0409 22:47:55.087703  4221 net.cpp:122] Setting up pool5
I0409 22:47:55.087709  4221 net.cpp:129] Top shape: 128 256 6 6 (1179648)
I0409 22:47:55.087713  4221 net.cpp:137] Memory required for data: 1051768832
I0409 22:47:55.087715  4221 layer_factory.hpp:77] Creating layer fc6
I0409 22:47:55.087726  4221 net.cpp:84] Creating Layer fc6
I0409 22:47:55.087729  4221 net.cpp:406] fc6 <- pool5
I0409 22:47:55.087734  4221 net.cpp:380] fc6 -> fc6
I0409 22:47:55.176427  4221 net.cpp:122] Setting up fc6
I0409 22:47:55.176447  4221 net.cpp:129] Top shape: 128 1024 (131072)
I0409 22:47:55.176451  4221 net.cpp:137] Memory required for data: 1052293120
I0409 22:47:55.176461  4221 layer_factory.hpp:77] Creating layer relu6
I0409 22:47:55.176470  4221 net.cpp:84] Creating Layer relu6
I0409 22:47:55.176476  4221 net.cpp:406] relu6 <- fc6
I0409 22:47:55.176482  4221 net.cpp:367] relu6 -> fc6 (in-place)
I0409 22:47:55.180379  4221 net.cpp:122] Setting up relu6
I0409 22:47:55.180389  4221 net.cpp:129] Top shape: 128 1024 (131072)
I0409 22:47:55.180393  4221 net.cpp:137] Memory required for data: 1052817408
I0409 22:47:55.180397  4221 layer_factory.hpp:77] Creating layer drop6
I0409 22:47:55.180404  4221 net.cpp:84] Creating Layer drop6
I0409 22:47:55.180408  4221 net.cpp:406] drop6 <- fc6
I0409 22:47:55.180415  4221 net.cpp:367] drop6 -> fc6 (in-place)
I0409 22:47:55.180444  4221 net.cpp:122] Setting up drop6
I0409 22:47:55.180450  4221 net.cpp:129] Top shape: 128 1024 (131072)
I0409 22:47:55.180454  4221 net.cpp:137] Memory required for data: 1053341696
I0409 22:47:55.180457  4221 layer_factory.hpp:77] Creating layer fc8
I0409 22:47:55.180464  4221 net.cpp:84] Creating Layer fc8
I0409 22:47:55.180469  4221 net.cpp:406] fc8 <- fc6
I0409 22:47:55.180474  4221 net.cpp:380] fc8 -> fc8
I0409 22:47:55.182288  4221 net.cpp:122] Setting up fc8
I0409 22:47:55.182296  4221 net.cpp:129] Top shape: 128 196 (25088)
I0409 22:47:55.182298  4221 net.cpp:137] Memory required for data: 1053442048
I0409 22:47:55.182305  4221 layer_factory.hpp:77] Creating layer loss
I0409 22:47:55.182313  4221 net.cpp:84] Creating Layer loss
I0409 22:47:55.182317  4221 net.cpp:406] loss <- fc8
I0409 22:47:55.182320  4221 net.cpp:406] loss <- label
I0409 22:47:55.182327  4221 net.cpp:380] loss -> loss
I0409 22:47:55.182334  4221 layer_factory.hpp:77] Creating layer loss
…
I0409 22:47:55.183596  4221 net.cpp:294] The NetState phase (1) differed from the phase (0) specified by a rule in layer train-data
I0409 22:47:55.183724  4221 net.cpp:51] Initializing net from parameters:
state {
phase: TEST
}
layer {
name: "val-data"
type: "Data"
top: "data"
top: "label"
include {
phase: TEST
}
transform_param {
crop_size: 227
mean_file: "/mnt/bigdisk/DIGITS-MAN-2/digits/jobs/20210407-214532-d396/mean.binaryproto"
}
data_param {
source: "/mnt/bigdisk/DIGITS-MAN-2/digits/jobs/20210407-214532-d396/val_db"
batch_size: 32
backend: LMDB
}
}
layer {
name: "conv1"
type: "Convolution"
bottom: "data"
top: "conv1"
param {
lr_mult: 1
decay_mult: 1
}
param {
lr_mult: 2
decay_mult: 0
}
convolution_param {
num_output: 96
kernel_size: 11
stride: 4
weight_filler {
type: "gaussian"
std: 0.01
}
bias_filler {
type: "constant"
value: 0
}
}
}
layer {
name: "relu1"
type: "ReLU"
bottom: "conv1"
top: "conv1"
}
layer {
name: "norm1"
type: "LRN"
bottom: "conv1"
top: "norm1"
lrn_param {
local_size: 5
alpha: 0.0001
beta: 0.75
}
}
layer {
name: "pool1"
type: "Pooling"
bottom: "norm1"
top: "pool1"
pooling_param {
pool: MAX
kernel_size: 3
stride: 2
}
}
layer {
name: "conv2"
type: "Convolution"
bottom: "pool1"
top: "conv2"
param {
lr_mult: 1
decay_mult: 1
}
param {
lr_mult: 2
decay_mult: 0
}
convolution_param {
num_output: 256
pad: 2
kernel_size: 5
group: 2
weight_filler {
type: "gaussian"
std: 0.01
}
bias_filler {
type: "constant"
value: 0.1
}
}
}
layer {
name: "relu2"
type: "ReLU"
bottom: "conv2"
top: "conv2"
}
layer {
name: "norm2"
type: "LRN"
bottom: "conv2"
top: "norm2"
lrn_param {
local_size: 5
alpha: 0.0001
beta: 0.75
}
}
layer {
name: "pool2"
type: "Pooling"
bottom: "norm2"
top: "pool2"
pooling_param {
pool: MAX
kernel_size: 3
stride: 2
}
}
layer {
name: "conv3"
type: "Convolution"
bottom: "pool2"
top: "conv3"
param {
lr_mult: 1
decay_mult: 1
}
param {
lr_mult: 2
decay_mult: 0
}
convolution_param {
num_output: 384
pad: 1
kernel_size: 3
weight_filler {
type: "gaussian"
std: 0.01
}
bias_filler {
type: "constant"
value: 0
}
}
}
layer {
name: "relu3"
type: "ReLU"
bottom: "conv3"
top: "conv3"
}
layer {
name: "conv4"
type: "Convolution"
bottom: "conv3"
top: "conv4"
param {
lr_mult: 1
decay_mult: 1
}
param {
lr_mult: 2
decay_mult: 0
}
convolution_param {
num_output: 384
pad: 1
kernel_size: 3
group: 2
weight_filler {
type: "gaussian"
std: 0.01
}
bias_filler {
type: "constant"
value: 0.1
}
}
}
layer {
name: "relu4"
type: "ReLU"
bottom: "conv4"
top: "conv4"
}
layer {
name: "conv5"
type: "Convolution"
bottom: "conv4"
top: "conv5"
param {
lr_mult: 1
decay_mult: 1
}
param {
lr_mult: 2
decay_mult: 0
}
convolution_param {
num_output: 256
pad: 1
kernel_size: 3
group: 2
weight_filler {
type: "gaussian"
std: 0.01
}
bias_filler {
type: "constant"
value: 0.1
}
}
}
layer {
name: "relu5"
type: "ReLU"
bottom: "conv5"
top: "conv5"
}
layer {
name: "pool5"
type: "Pooling"
bottom: "conv5"
top: "pool5"
pooling_param {
pool: MAX
kernel_size: 3
stride: 2
}
}
layer {
name: "fc6"
type: "InnerProduct"
bottom: "pool5"
top: "fc6"
param {
lr_mult: 1
decay_mult: 1
}
param {
lr_mult: 2
decay_mult: 0
}
inner_product_param {
num_output: 1024
weight_filler {
type: "gaussian"
std: 0.005
}
bias_filler {
type: "constant"
value: 0.1
}
}
}
layer {
name: "relu6"
type: "ReLU"
bottom: "fc6"
top: "fc6"
}
layer {
name: "drop6"
type: "Dropout"
bottom: "fc6"
top: "fc6"
dropout_param {
dropout_ratio: 0.5
}
}
layer {
name: "fc8"
type: "InnerProduct"
bottom: "fc6"
top: "fc8"
param {
lr_mult: 1
decay_mult: 1
}
param {
lr_mult: 2
decay_mult: 0
}
inner_product_param {
num_output: 196
weight_filler {
type: "gaussian"
std: 0.01
}
bias_filler {
type: "constant"
value: 0
}
}
}
layer {
name: "accuracy"
type: "Accuracy"
bottom: "fc8"
bottom: "label"
top: "accuracy"
include {
phase: TEST
}
}
layer {
name: "loss"
type: "SoftmaxWithLoss"
bottom: "fc8"
bottom: "label"
top: "loss"
}
I0409 22:47:55.183813  4221 layer_factory.hpp:77] Creating layer val-data
I0409 22:47:55.185420  4221 db_lmdb.cpp:35] Opened lmdb /mnt/bigdisk/DIGITS-MAN-2/digits/jobs/20210407-214532-d396/val_db
I0409 22:47:55.185622  4221 net.cpp:84] Creating Layer val-data
I0409 22:47:55.185633  4221 net.cpp:380] val-data -> data
I0409 22:47:55.185642  4221 net.cpp:380] val-data -> label
I0409 22:47:55.185647  4221 data_transformer.cpp:25] Loading mean file from: /mnt/bigdisk/DIGITS-MAN-2/digits/jobs/20210407-214532-d396/mean.binaryproto
I0409 22:47:55.189513  4221 data_layer.cpp:45] output data size: 32,3,227,227
I0409 22:47:55.229689  4221 net.cpp:122] Setting up val-data
I0409 22:47:55.229712  4221 net.cpp:129] Top shape: 32 3 227 227 (4946784)
I0409 22:47:55.229717  4221 net.cpp:129] Top shape: 32 (32)
I0409 22:47:55.229720  4221 net.cpp:137] Memory required for data: 19787264
I0409 22:47:55.229727  4221 layer_factory.hpp:77] Creating layer label_val-data_1_split
I0409 22:47:55.229740  4221 net.cpp:84] Creating Layer label_val-data_1_split
I0409 22:47:55.229744  4221 net.cpp:406] label_val-data_1_split <- label
I0409 22:47:55.229753  4221 net.cpp:380] label_val-data_1_split -> label_val-data_1_split_0
I0409 22:47:55.229761  4221 net.cpp:380] label_val-data_1_split -> label_val-data_1_split_1
I0409 22:47:55.229861  4221 net.cpp:122] Setting up label_val-data_1_split
I0409 22:47:55.229867  4221 net.cpp:129] Top shape: 32 (32)
I0409 22:47:55.229871  4221 net.cpp:129] Top shape: 32 (32)
I0409 22:47:55.229874  4221 net.cpp:137] Memory required for data: 19787520
I0409 22:47:55.229877  4221 layer_factory.hpp:77] Creating layer conv1
I0409 22:47:55.229890  4221 net.cpp:84] Creating Layer conv1
I0409 22:47:55.229895  4221 net.cpp:406] conv1 <- data
I0409 22:47:55.229900  4221 net.cpp:380] conv1 -> conv1
I0409 22:47:55.233845  4221 net.cpp:122] Setting up conv1
I0409 22:47:55.233857  4221 net.cpp:129] Top shape: 32 96 55 55 (9292800)
I0409 22:47:55.233860  4221 net.cpp:137] Memory required for data: 56958720
I0409 22:47:55.233871  4221 layer_factory.hpp:77] Creating layer relu1
I0409 22:47:55.233877  4221 net.cpp:84] Creating Layer relu1
I0409 22:47:55.233898  4221 net.cpp:406] relu1 <- conv1
I0409 22:47:55.233904  4221 net.cpp:367] relu1 -> conv1 (in-place)
I0409 22:47:55.234375  4221 net.cpp:122] Setting up relu1
I0409 22:47:55.234385  4221 net.cpp:129] Top shape: 32 96 55 55 (9292800)
I0409 22:47:55.234387  4221 net.cpp:137] Memory required for data: 94129920
I0409 22:47:55.234391  4221 layer_factory.hpp:77] Creating layer norm1
I0409 22:47:55.234400  4221 net.cpp:84] Creating Layer norm1
I0409 22:47:55.234403  4221 net.cpp:406] norm1 <- conv1
I0409 22:47:55.234409  4221 net.cpp:380] norm1 -> norm1
I0409 22:47:55.234705  4221 net.cpp:122] Setting up norm1
I0409 22:47:55.234714  4221 net.cpp:129] Top shape: 32 96 55 55 (9292800)
I0409 22:47:55.234719  4221 net.cpp:137] Memory required for data: 131301120
I0409 22:47:55.234721  4221 layer_factory.hpp:77] Creating layer pool1
I0409 22:47:55.234728  4221 net.cpp:84] Creating Layer pool1
I0409 22:47:55.234731  4221 net.cpp:406] pool1 <- norm1
I0409 22:47:55.234736  4221 net.cpp:380] pool1 -> pool1
I0409 22:47:55.234762  4221 net.cpp:122] Setting up pool1
I0409 22:47:55.234767  4221 net.cpp:129] Top shape: 32 96 27 27 (2239488)
I0409 22:47:55.234771  4221 net.cpp:137] Memory required for data: 140259072
I0409 22:47:55.234774  4221 layer_factory.hpp:77] Creating layer conv2
I0409 22:47:55.234782  4221 net.cpp:84] Creating Layer conv2
I0409 22:47:55.234786  4221 net.cpp:406] conv2 <- pool1
I0409 22:47:55.234791  4221 net.cpp:380] conv2 -> conv2
I0409 22:47:55.243584  4221 net.cpp:122] Setting up conv2
I0409 22:47:55.243602  4221 net.cpp:129] Top shape: 32 256 27 27 (5971968)
I0409 22:47:55.243605  4221 net.cpp:137] Memory required for data: 164146944
I0409 22:47:55.243616  4221 layer_factory.hpp:77] Creating layer relu2
I0409 22:47:55.243624  4221 net.cpp:84] Creating Layer relu2
I0409 22:47:55.243628  4221 net.cpp:406] relu2 <- conv2
I0409 22:47:55.243634  4221 net.cpp:367] relu2 -> conv2 (in-place)
I0409 22:47:55.244136  4221 net.cpp:122] Setting up relu2
I0409 22:47:55.244148  4221 net.cpp:129] Top shape: 32 256 27 27 (5971968)
I0409 22:47:55.244151  4221 net.cpp:137] Memory required for data: 188034816
I0409 22:47:55.244155  4221 layer_factory.hpp:77] Creating layer norm2
I0409 22:47:55.244165  4221 net.cpp:84] Creating Layer norm2
I0409 22:47:55.244169  4221 net.cpp:406] norm2 <- conv2
I0409 22:47:55.244175  4221 net.cpp:380] norm2 -> norm2
I0409 22:47:55.244697  4221 net.cpp:122] Setting up norm2
I0409 22:47:55.244706  4221 net.cpp:129] Top shape: 32 256 27 27 (5971968)
I0409 22:47:55.244710  4221 net.cpp:137] Memory required for data: 211922688
I0409 22:47:55.244714  4221 layer_factory.hpp:77] Creating layer pool2
I0409 22:47:55.244722  4221 net.cpp:84] Creating Layer pool2
I0409 22:47:55.244725  4221 net.cpp:406] pool2 <- norm2
I0409 22:47:55.244730  4221 net.cpp:380] pool2 -> pool2
I0409 22:47:55.244761  4221 net.cpp:122] Setting up pool2
I0409 22:47:55.244767  4221 net.cpp:129] Top shape: 32 256 13 13 (1384448)
I0409 22:47:55.244771  4221 net.cpp:137] Memory required for data: 217460480
I0409 22:47:55.244773  4221 layer_factory.hpp:77] Creating layer conv3
I0409 22:47:55.244784  4221 net.cpp:84] Creating Layer conv3
I0409 22:47:55.244787  4221 net.cpp:406] conv3 <- pool2
I0409 22:47:55.244794  4221 net.cpp:380] conv3 -> conv3
I0409 22:47:55.261601  4221 net.cpp:122] Setting up conv3
I0409 22:47:55.261621  4221 net.cpp:129] Top shape: 32 384 13 13 (2076672)
I0409 22:47:55.261626  4221 net.cpp:137] Memory required for data: 225767168
I0409 22:47:55.261637  4221 layer_factory.hpp:77] Creating layer relu3
I0409 22:47:55.261646  4221 net.cpp:84] Creating Layer relu3
I0409 22:47:55.261651  4221 net.cpp:406] relu3 <- conv3
I0409 22:47:55.261658  4221 net.cpp:367] relu3 -> conv3 (in-place)
I0409 22:47:55.263229  4221 net.cpp:122] Setting up relu3
I0409 22:47:55.263242  4221 net.cpp:129] Top shape: 32 384 13 13 (2076672)
I0409 22:47:55.263247  4221 net.cpp:137] Memory required for data: 234073856
I0409 22:47:55.263250  4221 layer_factory.hpp:77] Creating layer conv4
I0409 22:47:55.263279  4221 net.cpp:84] Creating Layer conv4
I0409 22:47:55.263284  4221 net.cpp:406] conv4 <- conv3
I0409 22:47:55.263290  4221 net.cpp:380] conv4 -> conv4
I0409 22:47:55.274873  4221 net.cpp:122] Setting up conv4
I0409 22:47:55.274888  4221 net.cpp:129] Top shape: 32 384 13 13 (2076672)
I0409 22:47:55.274891  4221 net.cpp:137] Memory required for data: 242380544
I0409 22:47:55.274901  4221 layer_factory.hpp:77] Creating layer relu4
I0409 22:47:55.274909  4221 net.cpp:84] Creating Layer relu4
I0409 22:47:55.274914  4221 net.cpp:406] relu4 <- conv4
I0409 22:47:55.274921  4221 net.cpp:367] relu4 -> conv4 (in-place)
I0409 22:47:55.275416  4221 net.cpp:122] Setting up relu4
I0409 22:47:55.275425  4221 net.cpp:129] Top shape: 32 384 13 13 (2076672)
I0409 22:47:55.275430  4221 net.cpp:137] Memory required for data: 250687232
I0409 22:47:55.275434  4221 layer_factory.hpp:77] Creating layer conv5
I0409 22:47:55.275446  4221 net.cpp:84] Creating Layer conv5
I0409 22:47:55.275451  4221 net.cpp:406] conv5 <- conv4
I0409 22:47:55.275456  4221 net.cpp:380] conv5 -> conv5
I0409 22:47:55.283867  4221 net.cpp:122] Setting up conv5
I0409 22:47:55.283885  4221 net.cpp:129] Top shape: 32 256 13 13 (1384448)
I0409 22:47:55.283890  4221 net.cpp:137] Memory required for data: 256225024
I0409 22:47:55.283901  4221 layer_factory.hpp:77] Creating layer relu5
I0409 22:47:55.283910  4221 net.cpp:84] Creating Layer relu5
I0409 22:47:55.283913  4221 net.cpp:406] relu5 <- conv5
I0409 22:47:55.283921  4221 net.cpp:367] relu5 -> conv5 (in-place)
I0409 22:47:55.284420  4221 net.cpp:122] Setting up relu5
I0409 22:47:55.284430  4221 net.cpp:129] Top shape: 32 256 13 13 (1384448)
I0409 22:47:55.284433  4221 net.cpp:137] Memory required for data: 261762816
I0409 22:47:55.284437  4221 layer_factory.hpp:77] Creating layer pool5
I0409 22:47:55.284448  4221 net.cpp:84] Creating Layer pool5
I0409 22:47:55.284453  4221 net.cpp:406] pool5 <- conv5
I0409 22:47:55.284459  4221 net.cpp:380] pool5 -> pool5
I0409 22:47:55.284498  4221 net.cpp:122] Setting up pool5
I0409 22:47:55.284505  4221 net.cpp:129] Top shape: 32 256 6 6 (294912)
I0409 22:47:55.284509  4221 net.cpp:137] Memory required for data: 262942464
I0409 22:47:55.284512  4221 layer_factory.hpp:77] Creating layer fc6
I0409 22:47:55.284520  4221 net.cpp:84] Creating Layer fc6
I0409 22:47:55.284523  4221 net.cpp:406] fc6 <- pool5
I0409 22:47:55.284529  4221 net.cpp:380] fc6 -> fc6
I0409 22:47:55.374289  4221 net.cpp:122] Setting up fc6
I0409 22:47:55.374308  4221 net.cpp:129] Top shape: 32 1024 (32768)
I0409 22:47:55.374312  4221 net.cpp:137] Memory required for data: 263073536
I0409 22:47:55.374321  4221 layer_factory.hpp:77] Creating layer relu6
I0409 22:47:55.374331  4221 net.cpp:84] Creating Layer relu6
I0409 22:47:55.374336  4221 net.cpp:406] relu6 <- fc6
I0409 22:47:55.374341  4221 net.cpp:367] relu6 -> fc6 (in-place)
I0409 22:47:55.374960  4221 net.cpp:122] Setting up relu6
I0409 22:47:55.374969  4221 net.cpp:129] Top shape: 32 1024 (32768)
I0409 22:47:55.374972  4221 net.cpp:137] Memory required for data: 263204608
I0409 22:47:55.374976  4221 layer_factory.hpp:77] Creating layer drop6
I0409 22:47:55.374984  4221 net.cpp:84] Creating Layer drop6
I0409 22:47:55.374989  4221 net.cpp:406] drop6 <- fc6
I0409 22:47:55.374994  4221 net.cpp:367] drop6 -> fc6 (in-place)
I0409 22:47:55.375018  4221 net.cpp:122] Setting up drop6
I0409 22:47:55.375023  4221 net.cpp:129] Top shape: 32 1024 (32768)
I0409 22:47:55.375026  4221 net.cpp:137] Memory required for data: 263335680
I0409 22:47:55.375030  4221 layer_factory.hpp:77] Creating layer fc8
I0409 22:47:55.375037  4221 net.cpp:84] Creating Layer fc8
I0409 22:47:55.375041  4221 net.cpp:406] fc8 <- fc6
I0409 22:47:55.375046  4221 net.cpp:380] fc8 -> fc8
I0409 22:47:55.376833  4221 net.cpp:122] Setting up fc8
I0409 22:47:55.376840  4221 net.cpp:129] Top shape: 32 196 (6272)
I0409 22:47:55.376843  4221 net.cpp:137] Memory required for data: 263360768
I0409 22:47:55.376850  4221 layer_factory.hpp:77] Creating layer fc8_fc8_0_split
I0409 22:47:55.376855  4221 net.cpp:84] Creating Layer fc8_fc8_0_split
I0409 22:47:55.376876  4221 net.cpp:406] fc8_fc8_0_split <- fc8
I0409 22:47:55.376881  4221 net.cpp:380] fc8_fc8_0_split -> fc8_fc8_0_split_0
I0409 22:47:55.376893  4221 net.cpp:380] fc8_fc8_0_split -> fc8_fc8_0_split_1
I0409 22:47:55.376926  4221 net.cpp:122] Setting up fc8_fc8_0_split
I0409 22:47:55.376932  4221 net.cpp:129] Top shape: 32 196 (6272)
I0409 22:47:55.376935  4221 net.cpp:129] Top shape: 32 196 (6272)
I0409 22:47:55.376938  4221 net.cpp:137] Memory required for data: 263410944
I0409 22:47:55.376942  4221 layer_factory.hpp:77] Creating layer accuracy
I0409 22:47:55.376950  4221 net.cpp:84] Creating Layer accuracy
I0409 22:47:55.376953  4221 net.cpp:406] accuracy <- fc8_fc8_0_split_0
I0409 22:47:55.376957  4221 net.cpp:406] accuracy <- label_val-data_1_split_0
I0409 22:47:55.376963  4221 net.cpp:380] accuracy -> accuracy
…
