…
I0427 19:46:22.515192 31063 net.cpp:294] The NetState phase (0) differed from the phase (1) specified by a rule in layer accuracy
I0427 19:46:22.515329 31063 net.cpp:51] Initializing net from parameters:
state {
phase: TRAIN
level: 0
stage: ""
}
layer {
name: "train-data"
type: "Data"
top: "data"
top: "label"
include {
phase: TRAIN
}
transform_param {
mirror: true
crop_size: 227
mean_file: "/mnt/bigdisk/DIGITS-MAN-3/digits/jobs/20210427-190801-a481/mean.binaryproto"
}
data_param {
source: "/mnt/bigdisk/DIGITS-MAN-3/digits/jobs/20210427-190801-a481/train_db"
batch_size: 256
backend: LMDB
}
}
layer {
name: "conv1"
type: "Convolution"
bottom: "data"
top: "conv1"
param {
lr_mult: 1
decay_mult: 1
}
param {
lr_mult: 2
decay_mult: 0
}
convolution_param {
num_output: 96
kernel_size: 11
stride: 4
weight_filler {
type: "gaussian"
std: 0.01
}
bias_filler {
type: "constant"
value: 0
}
}
}
layer {
name: "relu1"
type: "ReLU"
bottom: "conv1"
top: "conv1"
}
layer {
name: "norm1"
type: "LRN"
bottom: "conv1"
top: "norm1"
lrn_param {
local_size: 5
alpha: 0.0001
beta: 0.75
}
}
layer {
name: "pool1"
type: "Pooling"
bottom: "norm1"
top: "pool1"
pooling_param {
pool: MAX
kernel_size: 3
stride: 2
}
}
layer {
name: "conv2"
type: "Convolution"
bottom: "pool1"
top: "conv2"
param {
lr_mult: 1
decay_mult: 1
}
param {
lr_mult: 2
decay_mult: 0
}
convolution_param {
num_output: 256
pad: 2
kernel_size: 5
group: 2
weight_filler {
type: "gaussian"
std: 0.01
}
bias_filler {
type: "constant"
value: 0.1
}
}
}
layer {
name: "relu2"
type: "ReLU"
bottom: "conv2"
top: "conv2"
}
layer {
name: "norm2"
type: "LRN"
bottom: "conv2"
top: "norm2"
lrn_param {
local_size: 5
alpha: 0.0001
beta: 0.75
}
}
layer {
name: "pool2"
type: "Pooling"
bottom: "norm2"
top: "pool2"
pooling_param {
pool: MAX
kernel_size: 3
stride: 2
}
}
layer {
name: "conv3"
type: "Convolution"
bottom: "pool2"
top: "conv3"
param {
lr_mult: 1
decay_mult: 1
}
param {
lr_mult: 2
decay_mult: 0
}
convolution_param {
num_output: 384
pad: 1
kernel_size: 3
weight_filler {
type: "gaussian"
std: 0.01
}
bias_filler {
type: "constant"
value: 0
}
}
}
layer {
name: "relu3"
type: "ReLU"
bottom: "conv3"
top: "conv3"
}
layer {
name: "conv4"
type: "Convolution"
bottom: "conv3"
top: "conv4"
param {
lr_mult: 1
decay_mult: 1
}
param {
lr_mult: 2
decay_mult: 0
}
convolution_param {
num_output: 384
pad: 1
kernel_size: 3
group: 2
weight_filler {
type: "gaussian"
std: 0.01
}
bias_filler {
type: "constant"
value: 0.1
}
}
}
layer {
name: "relu4"
type: "ReLU"
bottom: "conv4"
top: "conv4"
}
layer {
name: "conv5"
type: "Convolution"
bottom: "conv4"
top: "conv5"
param {
lr_mult: 1
decay_mult: 1
}
param {
lr_mult: 2
decay_mult: 0
}
convolution_param {
num_output: 256
pad: 1
kernel_size: 3
group: 2
weight_filler {
type: "gaussian"
std: 0.01
}
bias_filler {
type: "constant"
value: 0.1
}
}
}
layer {
name: "relu5"
type: "ReLU"
bottom: "conv5"
top: "conv5"
}
layer {
name: "pool5"
type: "Pooling"
bottom: "conv5"
top: "pool5"
pooling_param {
pool: MAX
kernel_size: 3
stride: 2
}
}
layer {
name: "fc6"
type: "InnerProduct"
bottom: "pool5"
top: "fc6"
param {
lr_mult: 1
decay_mult: 1
}
param {
lr_mult: 2
decay_mult: 0
}
inner_product_param {
num_output: 4096
weight_filler {
type: "gaussian"
std: 0.005
}
bias_filler {
type: "constant"
value: 0.1
}
}
}
layer {
name: "relu6"
type: "ReLU"
bottom: "fc6"
top: "fc6"
}
layer {
name: "drop6"
type: "Dropout"
bottom: "fc6"
top: "fc6"
dropout_param {
dropout_ratio: 0.5
}
}
layer {
name: "fc7"
type: "InnerProduct"
bottom: "fc6"
top: "fc7"
param {
lr_mult: 1
decay_mult: 1
}
param {
lr_mult: 2
decay_mult: 0
}
inner_product_param {
num_output: 4096
weight_filler {
type: "gaussian"
std: 0.005
}
bias_filler {
type: "constant"
value: 0.1
}
}
}
layer {
name: "relu7"
type: "ReLU"
bottom: "fc7"
top: "fc7"
}
layer {
name: "drop7"
type: "Dropout"
bottom: "fc7"
top: "fc7"
dropout_param {
dropout_ratio: 0.5
}
}
layer {
name: "fc8"
type: "InnerProduct"
bottom: "fc7"
top: "fc8"
param {
lr_mult: 1
decay_mult: 1
}
param {
lr_mult: 2
decay_mult: 0
}
inner_product_param {
num_output: 196
weight_filler {
type: "gaussian"
std: 0.01
}
bias_filler {
type: "constant"
value: 0
}
}
}
layer {
name: "loss"
type: "SoftmaxWithLoss"
bottom: "fc8"
bottom: "label"
top: "loss"
}
I0427 19:46:22.515415 31063 layer_factory.hpp:77] Creating layer train-data
I0427 19:46:22.517563 31063 db_lmdb.cpp:35] Opened lmdb /mnt/bigdisk/DIGITS-MAN-3/digits/jobs/20210427-190801-a481/train_db
I0427 19:46:22.517765 31063 net.cpp:84] Creating Layer train-data
I0427 19:46:22.517774 31063 net.cpp:380] train-data -> data
I0427 19:46:22.517796 31063 net.cpp:380] train-data -> label
I0427 19:46:22.517807 31063 data_transformer.cpp:25] Loading mean file from: /mnt/bigdisk/DIGITS-MAN-3/digits/jobs/20210427-190801-a481/mean.binaryproto
I0427 19:46:22.522850 31063 data_layer.cpp:45] output data size: 256,3,227,227
I0427 19:46:22.820238 31063 net.cpp:122] Setting up train-data
I0427 19:46:22.820261 31063 net.cpp:129] Top shape: 256 3 227 227 (39574272)
I0427 19:46:22.820266 31063 net.cpp:129] Top shape: 256 (256)
I0427 19:46:22.820268 31063 net.cpp:137] Memory required for data: 158298112
I0427 19:46:22.820278 31063 layer_factory.hpp:77] Creating layer conv1
I0427 19:46:22.820299 31063 net.cpp:84] Creating Layer conv1
I0427 19:46:22.820305 31063 net.cpp:406] conv1 <- data
I0427 19:46:22.820317 31063 net.cpp:380] conv1 -> conv1
I0427 19:46:23.460211 31063 net.cpp:122] Setting up conv1
I0427 19:46:23.460232 31063 net.cpp:129] Top shape: 256 96 55 55 (74342400)
I0427 19:46:23.460237 31063 net.cpp:137] Memory required for data: 455667712
I0427 19:46:23.460259 31063 layer_factory.hpp:77] Creating layer relu1
I0427 19:46:23.460269 31063 net.cpp:84] Creating Layer relu1
I0427 19:46:23.460273 31063 net.cpp:406] relu1 <- conv1
I0427 19:46:23.460280 31063 net.cpp:367] relu1 -> conv1 (in-place)
I0427 19:46:23.460623 31063 net.cpp:122] Setting up relu1
I0427 19:46:23.460631 31063 net.cpp:129] Top shape: 256 96 55 55 (74342400)
I0427 19:46:23.460635 31063 net.cpp:137] Memory required for data: 753037312
I0427 19:46:23.460639 31063 layer_factory.hpp:77] Creating layer norm1
I0427 19:46:23.460649 31063 net.cpp:84] Creating Layer norm1
I0427 19:46:23.460652 31063 net.cpp:406] norm1 <- conv1
I0427 19:46:23.460680 31063 net.cpp:380] norm1 -> norm1
I0427 19:46:23.461140 31063 net.cpp:122] Setting up norm1
I0427 19:46:23.461151 31063 net.cpp:129] Top shape: 256 96 55 55 (74342400)
I0427 19:46:23.461155 31063 net.cpp:137] Memory required for data: 1050406912
I0427 19:46:23.461159 31063 layer_factory.hpp:77] Creating layer pool1
I0427 19:46:23.461169 31063 net.cpp:84] Creating Layer pool1
I0427 19:46:23.461172 31063 net.cpp:406] pool1 <- norm1
I0427 19:46:23.461179 31063 net.cpp:380] pool1 -> pool1
I0427 19:46:23.461217 31063 net.cpp:122] Setting up pool1
I0427 19:46:23.461223 31063 net.cpp:129] Top shape: 256 96 27 27 (17915904)
I0427 19:46:23.461227 31063 net.cpp:137] Memory required for data: 1122070528
I0427 19:46:23.461231 31063 layer_factory.hpp:77] Creating layer conv2
I0427 19:46:23.461241 31063 net.cpp:84] Creating Layer conv2
I0427 19:46:23.461244 31063 net.cpp:406] conv2 <- pool1
I0427 19:46:23.461251 31063 net.cpp:380] conv2 -> conv2
I0427 19:46:23.468189 31063 net.cpp:122] Setting up conv2
I0427 19:46:23.468204 31063 net.cpp:129] Top shape: 256 256 27 27 (47775744)
I0427 19:46:23.468207 31063 net.cpp:137] Memory required for data: 1313173504
I0427 19:46:23.468219 31063 layer_factory.hpp:77] Creating layer relu2
I0427 19:46:23.468226 31063 net.cpp:84] Creating Layer relu2
I0427 19:46:23.468231 31063 net.cpp:406] relu2 <- conv2
I0427 19:46:23.468238 31063 net.cpp:367] relu2 -> conv2 (in-place)
I0427 19:46:23.468786 31063 net.cpp:122] Setting up relu2
I0427 19:46:23.468797 31063 net.cpp:129] Top shape: 256 256 27 27 (47775744)
I0427 19:46:23.468801 31063 net.cpp:137] Memory required for data: 1504276480
I0427 19:46:23.468804 31063 layer_factory.hpp:77] Creating layer norm2
I0427 19:46:23.468813 31063 net.cpp:84] Creating Layer norm2
I0427 19:46:23.468817 31063 net.cpp:406] norm2 <- conv2
I0427 19:46:23.468823 31063 net.cpp:380] norm2 -> norm2
I0427 19:46:23.469130 31063 net.cpp:122] Setting up norm2
I0427 19:46:23.469141 31063 net.cpp:129] Top shape: 256 256 27 27 (47775744)
I0427 19:46:23.469143 31063 net.cpp:137] Memory required for data: 1695379456
I0427 19:46:23.469147 31063 layer_factory.hpp:77] Creating layer pool2
I0427 19:46:23.469156 31063 net.cpp:84] Creating Layer pool2
I0427 19:46:23.469159 31063 net.cpp:406] pool2 <- norm2
I0427 19:46:23.469164 31063 net.cpp:380] pool2 -> pool2
I0427 19:46:23.469192 31063 net.cpp:122] Setting up pool2
I0427 19:46:23.469197 31063 net.cpp:129] Top shape: 256 256 13 13 (11075584)
I0427 19:46:23.469202 31063 net.cpp:137] Memory required for data: 1739681792
I0427 19:46:23.469204 31063 layer_factory.hpp:77] Creating layer conv3
I0427 19:46:23.469214 31063 net.cpp:84] Creating Layer conv3
I0427 19:46:23.469218 31063 net.cpp:406] conv3 <- pool2
I0427 19:46:23.469223 31063 net.cpp:380] conv3 -> conv3
I0427 19:46:23.540138 31063 net.cpp:122] Setting up conv3
I0427 19:46:23.540158 31063 net.cpp:129] Top shape: 256 384 13 13 (16613376)
I0427 19:46:23.540161 31063 net.cpp:137] Memory required for data: 1806135296
I0427 19:46:23.540174 31063 layer_factory.hpp:77] Creating layer relu3
I0427 19:46:23.540184 31063 net.cpp:84] Creating Layer relu3
I0427 19:46:23.540189 31063 net.cpp:406] relu3 <- conv3
I0427 19:46:23.540196 31063 net.cpp:367] relu3 -> conv3 (in-place)
I0427 19:46:23.542129 31063 net.cpp:122] Setting up relu3
I0427 19:46:23.542140 31063 net.cpp:129] Top shape: 256 384 13 13 (16613376)
I0427 19:46:23.542145 31063 net.cpp:137] Memory required for data: 1872588800
I0427 19:46:23.542150 31063 layer_factory.hpp:77] Creating layer conv4
I0427 19:46:23.542161 31063 net.cpp:84] Creating Layer conv4
I0427 19:46:23.542165 31063 net.cpp:406] conv4 <- conv3
I0427 19:46:23.542171 31063 net.cpp:380] conv4 -> conv4
I0427 19:46:23.567735 31063 net.cpp:122] Setting up conv4
I0427 19:46:23.567754 31063 net.cpp:129] Top shape: 256 384 13 13 (16613376)
I0427 19:46:23.567759 31063 net.cpp:137] Memory required for data: 1939042304
I0427 19:46:23.567767 31063 layer_factory.hpp:77] Creating layer relu4
I0427 19:46:23.567777 31063 net.cpp:84] Creating Layer relu4
I0427 19:46:23.567800 31063 net.cpp:406] relu4 <- conv4
I0427 19:46:23.567807 31063 net.cpp:367] relu4 -> conv4 (in-place)
I0427 19:46:23.568095 31063 net.cpp:122] Setting up relu4
I0427 19:46:23.568104 31063 net.cpp:129] Top shape: 256 384 13 13 (16613376)
I0427 19:46:23.568106 31063 net.cpp:137] Memory required for data: 2005495808
I0427 19:46:23.568110 31063 layer_factory.hpp:77] Creating layer conv5
I0427 19:46:23.568120 31063 net.cpp:84] Creating Layer conv5
I0427 19:46:23.568125 31063 net.cpp:406] conv5 <- conv4
I0427 19:46:23.568130 31063 net.cpp:380] conv5 -> conv5
I0427 19:46:23.576218 31063 net.cpp:122] Setting up conv5
I0427 19:46:23.576234 31063 net.cpp:129] Top shape: 256 256 13 13 (11075584)
I0427 19:46:23.576238 31063 net.cpp:137] Memory required for data: 2049798144
I0427 19:46:23.576251 31063 layer_factory.hpp:77] Creating layer relu5
I0427 19:46:23.576258 31063 net.cpp:84] Creating Layer relu5
I0427 19:46:23.576263 31063 net.cpp:406] relu5 <- conv5
I0427 19:46:23.576269 31063 net.cpp:367] relu5 -> conv5 (in-place)
I0427 19:46:23.576710 31063 net.cpp:122] Setting up relu5
I0427 19:46:23.576720 31063 net.cpp:129] Top shape: 256 256 13 13 (11075584)
I0427 19:46:23.576725 31063 net.cpp:137] Memory required for data: 2094100480
I0427 19:46:23.576728 31063 layer_factory.hpp:77] Creating layer pool5
I0427 19:46:23.576735 31063 net.cpp:84] Creating Layer pool5
I0427 19:46:23.576740 31063 net.cpp:406] pool5 <- conv5
I0427 19:46:23.576745 31063 net.cpp:380] pool5 -> pool5
I0427 19:46:23.576779 31063 net.cpp:122] Setting up pool5
I0427 19:46:23.576786 31063 net.cpp:129] Top shape: 256 256 6 6 (2359296)
I0427 19:46:23.576788 31063 net.cpp:137] Memory required for data: 2103537664
I0427 19:46:23.576792 31063 layer_factory.hpp:77] Creating layer fc6
I0427 19:46:23.576802 31063 net.cpp:84] Creating Layer fc6
I0427 19:46:23.576805 31063 net.cpp:406] fc6 <- pool5
I0427 19:46:23.576812 31063 net.cpp:380] fc6 -> fc6
I0427 19:46:23.956743 31063 net.cpp:122] Setting up fc6
I0427 19:46:23.956771 31063 net.cpp:129] Top shape: 256 4096 (1048576)
I0427 19:46:23.956777 31063 net.cpp:137] Memory required for data: 2107731968
I0427 19:46:23.956794 31063 layer_factory.hpp:77] Creating layer relu6
I0427 19:46:23.956809 31063 net.cpp:84] Creating Layer relu6
I0427 19:46:23.956817 31063 net.cpp:406] relu6 <- fc6
I0427 19:46:23.956828 31063 net.cpp:367] relu6 -> fc6 (in-place)
I0427 19:46:23.957521 31063 net.cpp:122] Setting up relu6
I0427 19:46:23.957538 31063 net.cpp:129] Top shape: 256 4096 (1048576)
I0427 19:46:23.957547 31063 net.cpp:137] Memory required for data: 2111926272
I0427 19:46:23.957553 31063 layer_factory.hpp:77] Creating layer drop6
I0427 19:46:23.957562 31063 net.cpp:84] Creating Layer drop6
I0427 19:46:23.957569 31063 net.cpp:406] drop6 <- fc6
I0427 19:46:23.957578 31063 net.cpp:367] drop6 -> fc6 (in-place)
I0427 19:46:23.957615 31063 net.cpp:122] Setting up drop6
I0427 19:46:23.957628 31063 net.cpp:129] Top shape: 256 4096 (1048576)
I0427 19:46:23.957635 31063 net.cpp:137] Memory required for data: 2116120576
I0427 19:46:23.957643 31063 layer_factory.hpp:77] Creating layer fc7
I0427 19:46:23.957655 31063 net.cpp:84] Creating Layer fc7
I0427 19:46:23.957662 31063 net.cpp:406] fc7 <- fc6
I0427 19:46:23.957670 31063 net.cpp:380] fc7 -> fc7
I0427 19:46:24.133638 31063 net.cpp:122] Setting up fc7
I0427 19:46:24.133661 31063 net.cpp:129] Top shape: 256 4096 (1048576)
I0427 19:46:24.133666 31063 net.cpp:137] Memory required for data: 2120314880
I0427 19:46:24.133675 31063 layer_factory.hpp:77] Creating layer relu7
I0427 19:46:24.133684 31063 net.cpp:84] Creating Layer relu7
I0427 19:46:24.133688 31063 net.cpp:406] relu7 <- fc7
I0427 19:46:24.133694 31063 net.cpp:367] relu7 -> fc7 (in-place)
I0427 19:46:24.134248 31063 net.cpp:122] Setting up relu7
I0427 19:46:24.134258 31063 net.cpp:129] Top shape: 256 4096 (1048576)
I0427 19:46:24.134261 31063 net.cpp:137] Memory required for data: 2124509184
I0427 19:46:24.134265 31063 layer_factory.hpp:77] Creating layer drop7
I0427 19:46:24.134271 31063 net.cpp:84] Creating Layer drop7
I0427 19:46:24.134295 31063 net.cpp:406] drop7 <- fc7
I0427 19:46:24.134301 31063 net.cpp:367] drop7 -> fc7 (in-place)
I0427 19:46:24.134325 31063 net.cpp:122] Setting up drop7
I0427 19:46:24.134331 31063 net.cpp:129] Top shape: 256 4096 (1048576)
I0427 19:46:24.134335 31063 net.cpp:137] Memory required for data: 2128703488
I0427 19:46:24.134337 31063 layer_factory.hpp:77] Creating layer fc8
I0427 19:46:24.134344 31063 net.cpp:84] Creating Layer fc8
I0427 19:46:24.134347 31063 net.cpp:406] fc8 <- fc7
I0427 19:46:24.134352 31063 net.cpp:380] fc8 -> fc8
I0427 19:46:24.142055 31063 net.cpp:122] Setting up fc8
I0427 19:46:24.142067 31063 net.cpp:129] Top shape: 256 196 (50176)
I0427 19:46:24.142071 31063 net.cpp:137] Memory required for data: 2128904192
I0427 19:46:24.142078 31063 layer_factory.hpp:77] Creating layer loss
I0427 19:46:24.142086 31063 net.cpp:84] Creating Layer loss
I0427 19:46:24.142088 31063 net.cpp:406] loss <- fc8
I0427 19:46:24.142093 31063 net.cpp:406] loss <- label
I0427 19:46:24.142100 31063 net.cpp:380] loss -> loss
I0427 19:46:24.142108 31063 layer_factory.hpp:77] Creating layer loss
…
I0427 19:46:24.177704 31063 net.cpp:294] The NetState phase (1) differed from the phase (0) specified by a rule in layer train-data
I0427 19:46:24.177858 31063 net.cpp:51] Initializing net from parameters:
state {
phase: TEST
}
layer {
name: "val-data"
type: "Data"
top: "data"
top: "label"
include {
phase: TEST
}
transform_param {
crop_size: 227
mean_file: "/mnt/bigdisk/DIGITS-MAN-3/digits/jobs/20210427-190801-a481/mean.binaryproto"
}
data_param {
source: "/mnt/bigdisk/DIGITS-MAN-3/digits/jobs/20210427-190801-a481/val_db"
batch_size: 256
backend: LMDB
}
}
layer {
name: "conv1"
type: "Convolution"
bottom: "data"
top: "conv1"
param {
lr_mult: 1
decay_mult: 1
}
param {
lr_mult: 2
decay_mult: 0
}
convolution_param {
num_output: 96
kernel_size: 11
stride: 4
weight_filler {
type: "gaussian"
std: 0.01
}
bias_filler {
type: "constant"
value: 0
}
}
}
layer {
name: "relu1"
type: "ReLU"
bottom: "conv1"
top: "conv1"
}
layer {
name: "norm1"
type: "LRN"
bottom: "conv1"
top: "norm1"
lrn_param {
local_size: 5
alpha: 0.0001
beta: 0.75
}
}
layer {
name: "pool1"
type: "Pooling"
bottom: "norm1"
top: "pool1"
pooling_param {
pool: MAX
kernel_size: 3
stride: 2
}
}
layer {
name: "conv2"
type: "Convolution"
bottom: "pool1"
top: "conv2"
param {
lr_mult: 1
decay_mult: 1
}
param {
lr_mult: 2
decay_mult: 0
}
convolution_param {
num_output: 256
pad: 2
kernel_size: 5
group: 2
weight_filler {
type: "gaussian"
std: 0.01
}
bias_filler {
type: "constant"
value: 0.1
}
}
}
layer {
name: "relu2"
type: "ReLU"
bottom: "conv2"
top: "conv2"
}
layer {
name: "norm2"
type: "LRN"
bottom: "conv2"
top: "norm2"
lrn_param {
local_size: 5
alpha: 0.0001
beta: 0.75
}
}
layer {
name: "pool2"
type: "Pooling"
bottom: "norm2"
top: "pool2"
pooling_param {
pool: MAX
kernel_size: 3
stride: 2
}
}
layer {
name: "conv3"
type: "Convolution"
bottom: "pool2"
top: "conv3"
param {
lr_mult: 1
decay_mult: 1
}
param {
lr_mult: 2
decay_mult: 0
}
convolution_param {
num_output: 384
pad: 1
kernel_size: 3
weight_filler {
type: "gaussian"
std: 0.01
}
bias_filler {
type: "constant"
value: 0
}
}
}
layer {
name: "relu3"
type: "ReLU"
bottom: "conv3"
top: "conv3"
}
layer {
name: "conv4"
type: "Convolution"
bottom: "conv3"
top: "conv4"
param {
lr_mult: 1
decay_mult: 1
}
param {
lr_mult: 2
decay_mult: 0
}
convolution_param {
num_output: 384
pad: 1
kernel_size: 3
group: 2
weight_filler {
type: "gaussian"
std: 0.01
}
bias_filler {
type: "constant"
value: 0.1
}
}
}
layer {
name: "relu4"
type: "ReLU"
bottom: "conv4"
top: "conv4"
}
layer {
name: "conv5"
type: "Convolution"
bottom: "conv4"
top: "conv5"
param {
lr_mult: 1
decay_mult: 1
}
param {
lr_mult: 2
decay_mult: 0
}
convolution_param {
num_output: 256
pad: 1
kernel_size: 3
group: 2
weight_filler {
type: "gaussian"
std: 0.01
}
bias_filler {
type: "constant"
value: 0.1
}
}
}
layer {
name: "relu5"
type: "ReLU"
bottom: "conv5"
top: "conv5"
}
layer {
name: "pool5"
type: "Pooling"
bottom: "conv5"
top: "pool5"
pooling_param {
pool: MAX
kernel_size: 3
stride: 2
}
}
layer {
name: "fc6"
type: "InnerProduct"
bottom: "pool5"
top: "fc6"
param {
lr_mult: 1
decay_mult: 1
}
param {
lr_mult: 2
decay_mult: 0
}
inner_product_param {
num_output: 4096
weight_filler {
type: "gaussian"
std: 0.005
}
bias_filler {
type: "constant"
value: 0.1
}
}
}
layer {
name: "relu6"
type: "ReLU"
bottom: "fc6"
top: "fc6"
}
layer {
name: "drop6"
type: "Dropout"
bottom: "fc6"
top: "fc6"
dropout_param {
dropout_ratio: 0.5
}
}
layer {
name: "fc7"
type: "InnerProduct"
bottom: "fc6"
top: "fc7"
param {
lr_mult: 1
decay_mult: 1
}
param {
lr_mult: 2
decay_mult: 0
}
inner_product_param {
num_output: 4096
weight_filler {
type: "gaussian"
std: 0.005
}
bias_filler {
type: "constant"
value: 0.1
}
}
}
layer {
name: "relu7"
type: "ReLU"
bottom: "fc7"
top: "fc7"
}
layer {
name: "drop7"
type: "Dropout"
bottom: "fc7"
top: "fc7"
dropout_param {
dropout_ratio: 0.5
}
}
layer {
name: "fc8"
type: "InnerProduct"
bottom: "fc7"
top: "fc8"
param {
lr_mult: 1
decay_mult: 1
}
param {
lr_mult: 2
decay_mult: 0
}
inner_product_param {
num_output: 196
weight_filler {
type: "gaussian"
std: 0.01
}
bias_filler {
type: "constant"
value: 0
}
}
}
layer {
name: "accuracy"
type: "Accuracy"
bottom: "fc8"
bottom: "label"
top: "accuracy"
include {
phase: TEST
}
}
layer {
name: "loss"
type: "SoftmaxWithLoss"
bottom: "fc8"
bottom: "label"
top: "loss"
}
I0427 19:46:24.177969 31063 layer_factory.hpp:77] Creating layer val-data
I0427 19:46:24.438956 31063 db_lmdb.cpp:35] Opened lmdb /mnt/bigdisk/DIGITS-MAN-3/digits/jobs/20210427-190801-a481/val_db
I0427 19:46:24.441272 31063 net.cpp:84] Creating Layer val-data
I0427 19:46:24.441288 31063 net.cpp:380] val-data -> data
I0427 19:46:24.441303 31063 net.cpp:380] val-data -> label
I0427 19:46:24.441313 31063 data_transformer.cpp:25] Loading mean file from: /mnt/bigdisk/DIGITS-MAN-3/digits/jobs/20210427-190801-a481/mean.binaryproto
I0427 19:46:24.479039 31063 data_layer.cpp:45] output data size: 256,3,227,227
I0427 19:46:24.827179 31063 net.cpp:122] Setting up val-data
I0427 19:46:24.827205 31063 net.cpp:129] Top shape: 256 3 227 227 (39574272)
I0427 19:46:24.827215 31063 net.cpp:129] Top shape: 256 (256)
I0427 19:46:24.827220 31063 net.cpp:137] Memory required for data: 158298112
I0427 19:46:24.827230 31063 layer_factory.hpp:77] Creating layer label_val-data_1_split
I0427 19:46:24.827246 31063 net.cpp:84] Creating Layer label_val-data_1_split
I0427 19:46:24.827253 31063 net.cpp:406] label_val-data_1_split <- label
I0427 19:46:24.827265 31063 net.cpp:380] label_val-data_1_split -> label_val-data_1_split_0
I0427 19:46:24.827278 31063 net.cpp:380] label_val-data_1_split -> label_val-data_1_split_1
I0427 19:46:24.827353 31063 net.cpp:122] Setting up label_val-data_1_split
I0427 19:46:24.827363 31063 net.cpp:129] Top shape: 256 (256)
I0427 19:46:24.827370 31063 net.cpp:129] Top shape: 256 (256)
I0427 19:46:24.827375 31063 net.cpp:137] Memory required for data: 158300160
I0427 19:46:24.827381 31063 layer_factory.hpp:77] Creating layer conv1
I0427 19:46:24.827399 31063 net.cpp:84] Creating Layer conv1
I0427 19:46:24.827405 31063 net.cpp:406] conv1 <- data
I0427 19:46:24.827415 31063 net.cpp:380] conv1 -> conv1
I0427 19:46:24.841228 31063 net.cpp:122] Setting up conv1
I0427 19:46:24.841251 31063 net.cpp:129] Top shape: 256 96 55 55 (74342400)
I0427 19:46:24.841256 31063 net.cpp:137] Memory required for data: 455669760
I0427 19:46:24.841274 31063 layer_factory.hpp:77] Creating layer relu1
I0427 19:46:24.841286 31063 net.cpp:84] Creating Layer relu1
I0427 19:46:24.841292 31063 net.cpp:406] relu1 <- conv1
I0427 19:46:24.841300 31063 net.cpp:367] relu1 -> conv1 (in-place)
I0427 19:46:24.841737 31063 net.cpp:122] Setting up relu1
I0427 19:46:24.841750 31063 net.cpp:129] Top shape: 256 96 55 55 (74342400)
I0427 19:46:24.841756 31063 net.cpp:137] Memory required for data: 753039360
I0427 19:46:24.841763 31063 layer_factory.hpp:77] Creating layer norm1
I0427 19:46:24.841776 31063 net.cpp:84] Creating Layer norm1
I0427 19:46:24.841784 31063 net.cpp:406] norm1 <- conv1
I0427 19:46:24.841791 31063 net.cpp:380] norm1 -> norm1
I0427 19:46:24.854552 31063 net.cpp:122] Setting up norm1
I0427 19:46:24.854565 31063 net.cpp:129] Top shape: 256 96 55 55 (74342400)
I0427 19:46:24.854570 31063 net.cpp:137] Memory required for data: 1050408960
I0427 19:46:24.854576 31063 layer_factory.hpp:77] Creating layer pool1
I0427 19:46:24.854585 31063 net.cpp:84] Creating Layer pool1
I0427 19:46:24.854591 31063 net.cpp:406] pool1 <- norm1
I0427 19:46:24.854598 31063 net.cpp:380] pool1 -> pool1
I0427 19:46:24.854631 31063 net.cpp:122] Setting up pool1
I0427 19:46:24.854638 31063 net.cpp:129] Top shape: 256 96 27 27 (17915904)
I0427 19:46:24.854642 31063 net.cpp:137] Memory required for data: 1122072576
I0427 19:46:24.854647 31063 layer_factory.hpp:77] Creating layer conv2
I0427 19:46:24.854660 31063 net.cpp:84] Creating Layer conv2
I0427 19:46:24.854686 31063 net.cpp:406] conv2 <- pool1
I0427 19:46:24.854693 31063 net.cpp:380] conv2 -> conv2
I0427 19:46:24.861860 31063 net.cpp:122] Setting up conv2
I0427 19:46:24.861877 31063 net.cpp:129] Top shape: 256 256 27 27 (47775744)
I0427 19:46:24.861882 31063 net.cpp:137] Memory required for data: 1313175552
I0427 19:46:24.861894 31063 layer_factory.hpp:77] Creating layer relu2
I0427 19:46:24.861903 31063 net.cpp:84] Creating Layer relu2
I0427 19:46:24.861909 31063 net.cpp:406] relu2 <- conv2
I0427 19:46:24.861917 31063 net.cpp:367] relu2 -> conv2 (in-place)
I0427 19:46:24.862370 31063 net.cpp:122] Setting up relu2
I0427 19:46:24.862380 31063 net.cpp:129] Top shape: 256 256 27 27 (47775744)
I0427 19:46:24.862385 31063 net.cpp:137] Memory required for data: 1504278528
I0427 19:46:24.862392 31063 layer_factory.hpp:77] Creating layer norm2
I0427 19:46:24.862402 31063 net.cpp:84] Creating Layer norm2
I0427 19:46:24.862407 31063 net.cpp:406] norm2 <- conv2
I0427 19:46:24.862413 31063 net.cpp:380] norm2 -> norm2
I0427 19:46:24.862880 31063 net.cpp:122] Setting up norm2
I0427 19:46:24.862892 31063 net.cpp:129] Top shape: 256 256 27 27 (47775744)
I0427 19:46:24.862896 31063 net.cpp:137] Memory required for data: 1695381504
I0427 19:46:24.862902 31063 layer_factory.hpp:77] Creating layer pool2
I0427 19:46:24.862910 31063 net.cpp:84] Creating Layer pool2
I0427 19:46:24.862913 31063 net.cpp:406] pool2 <- norm2
I0427 19:46:24.862920 31063 net.cpp:380] pool2 -> pool2
I0427 19:46:24.862953 31063 net.cpp:122] Setting up pool2
I0427 19:46:24.862960 31063 net.cpp:129] Top shape: 256 256 13 13 (11075584)
I0427 19:46:24.862964 31063 net.cpp:137] Memory required for data: 1739683840
I0427 19:46:24.862970 31063 layer_factory.hpp:77] Creating layer conv3
I0427 19:46:24.862980 31063 net.cpp:84] Creating Layer conv3
I0427 19:46:24.862987 31063 net.cpp:406] conv3 <- pool2
I0427 19:46:24.862993 31063 net.cpp:380] conv3 -> conv3
I0427 19:46:24.874107 31063 net.cpp:122] Setting up conv3
I0427 19:46:24.874127 31063 net.cpp:129] Top shape: 256 384 13 13 (16613376)
I0427 19:46:24.874133 31063 net.cpp:137] Memory required for data: 1806137344
I0427 19:46:24.874146 31063 layer_factory.hpp:77] Creating layer relu3
I0427 19:46:24.874155 31063 net.cpp:84] Creating Layer relu3
I0427 19:46:24.874161 31063 net.cpp:406] relu3 <- conv3
I0427 19:46:24.874169 31063 net.cpp:367] relu3 -> conv3 (in-place)
I0427 19:46:24.874639 31063 net.cpp:122] Setting up relu3
I0427 19:46:24.874650 31063 net.cpp:129] Top shape: 256 384 13 13 (16613376)
I0427 19:46:24.874655 31063 net.cpp:137] Memory required for data: 1872590848
I0427 19:46:24.874660 31063 layer_factory.hpp:77] Creating layer conv4
I0427 19:46:24.874670 31063 net.cpp:84] Creating Layer conv4
I0427 19:46:24.874676 31063 net.cpp:406] conv4 <- conv3
I0427 19:46:24.874684 31063 net.cpp:380] conv4 -> conv4
I0427 19:46:24.885869 31063 net.cpp:122] Setting up conv4
I0427 19:46:24.885888 31063 net.cpp:129] Top shape: 256 384 13 13 (16613376)
I0427 19:46:24.885893 31063 net.cpp:137] Memory required for data: 1939044352
I0427 19:46:24.885902 31063 layer_factory.hpp:77] Creating layer relu4
I0427 19:46:24.885911 31063 net.cpp:84] Creating Layer relu4
I0427 19:46:24.885916 31063 net.cpp:406] relu4 <- conv4
I0427 19:46:24.885923 31063 net.cpp:367] relu4 -> conv4 (in-place)
I0427 19:46:24.886232 31063 net.cpp:122] Setting up relu4
I0427 19:46:24.886243 31063 net.cpp:129] Top shape: 256 384 13 13 (16613376)
I0427 19:46:24.886247 31063 net.cpp:137] Memory required for data: 2005497856
I0427 19:46:24.886251 31063 layer_factory.hpp:77] Creating layer conv5
I0427 19:46:24.886261 31063 net.cpp:84] Creating Layer conv5
I0427 19:46:24.886267 31063 net.cpp:406] conv5 <- conv4
I0427 19:46:24.886276 31063 net.cpp:380] conv5 -> conv5
I0427 19:46:24.897154 31063 net.cpp:122] Setting up conv5
I0427 19:46:24.897173 31063 net.cpp:129] Top shape: 256 256 13 13 (11075584)
I0427 19:46:24.897178 31063 net.cpp:137] Memory required for data: 2049800192
I0427 19:46:24.897192 31063 layer_factory.hpp:77] Creating layer relu5
I0427 19:46:24.897222 31063 net.cpp:84] Creating Layer relu5
I0427 19:46:24.897226 31063 net.cpp:406] relu5 <- conv5
I0427 19:46:24.897234 31063 net.cpp:367] relu5 -> conv5 (in-place)
I0427 19:46:24.897706 31063 net.cpp:122] Setting up relu5
I0427 19:46:24.897717 31063 net.cpp:129] Top shape: 256 256 13 13 (11075584)
I0427 19:46:24.897720 31063 net.cpp:137] Memory required for data: 2094102528
I0427 19:46:24.897724 31063 layer_factory.hpp:77] Creating layer pool5
I0427 19:46:24.897735 31063 net.cpp:84] Creating Layer pool5
I0427 19:46:24.897739 31063 net.cpp:406] pool5 <- conv5
I0427 19:46:24.897747 31063 net.cpp:380] pool5 -> pool5
I0427 19:46:24.897789 31063 net.cpp:122] Setting up pool5
I0427 19:46:24.897794 31063 net.cpp:129] Top shape: 256 256 6 6 (2359296)
I0427 19:46:24.897797 31063 net.cpp:137] Memory required for data: 2103539712
I0427 19:46:24.897801 31063 layer_factory.hpp:77] Creating layer fc6
I0427 19:46:24.897810 31063 net.cpp:84] Creating Layer fc6
I0427 19:46:24.897814 31063 net.cpp:406] fc6 <- pool5
I0427 19:46:24.897819 31063 net.cpp:380] fc6 -> fc6
I0427 19:46:25.259582 31063 net.cpp:122] Setting up fc6
I0427 19:46:25.259605 31063 net.cpp:129] Top shape: 256 4096 (1048576)
I0427 19:46:25.259609 31063 net.cpp:137] Memory required for data: 2107734016
I0427 19:46:25.259618 31063 layer_factory.hpp:77] Creating layer relu6
I0427 19:46:25.259627 31063 net.cpp:84] Creating Layer relu6
I0427 19:46:25.259632 31063 net.cpp:406] relu6 <- fc6
I0427 19:46:25.259639 31063 net.cpp:367] relu6 -> fc6 (in-place)
I0427 19:46:25.260551 31063 net.cpp:122] Setting up relu6
I0427 19:46:25.260563 31063 net.cpp:129] Top shape: 256 4096 (1048576)
I0427 19:46:25.260566 31063 net.cpp:137] Memory required for data: 2111928320
I0427 19:46:25.260571 31063 layer_factory.hpp:77] Creating layer drop6
I0427 19:46:25.260577 31063 net.cpp:84] Creating Layer drop6
I0427 19:46:25.260581 31063 net.cpp:406] drop6 <- fc6
I0427 19:46:25.260587 31063 net.cpp:367] drop6 -> fc6 (in-place)
I0427 19:46:25.260614 31063 net.cpp:122] Setting up drop6
I0427 19:46:25.260619 31063 net.cpp:129] Top shape: 256 4096 (1048576)
I0427 19:46:25.260622 31063 net.cpp:137] Memory required for data: 2116122624
I0427 19:46:25.260625 31063 layer_factory.hpp:77] Creating layer fc7
I0427 19:46:25.260634 31063 net.cpp:84] Creating Layer fc7
I0427 19:46:25.260637 31063 net.cpp:406] fc7 <- fc6
I0427 19:46:25.260643 31063 net.cpp:380] fc7 -> fc7
I0427 19:46:25.421612 31063 net.cpp:122] Setting up fc7
I0427 19:46:25.421633 31063 net.cpp:129] Top shape: 256 4096 (1048576)
I0427 19:46:25.421636 31063 net.cpp:137] Memory required for data: 2120316928
I0427 19:46:25.421646 31063 layer_factory.hpp:77] Creating layer relu7
I0427 19:46:25.421655 31063 net.cpp:84] Creating Layer relu7
I0427 19:46:25.421660 31063 net.cpp:406] relu7 <- fc7
I0427 19:46:25.421667 31063 net.cpp:367] relu7 -> fc7 (in-place)
I0427 19:46:25.422111 31063 net.cpp:122] Setting up relu7
I0427 19:46:25.422118 31063 net.cpp:129] Top shape: 256 4096 (1048576)
I0427 19:46:25.422122 31063 net.cpp:137] Memory required for data: 2124511232
I0427 19:46:25.422125 31063 layer_factory.hpp:77] Creating layer drop7
I0427 19:46:25.422132 31063 net.cpp:84] Creating Layer drop7
I0427 19:46:25.422137 31063 net.cpp:406] drop7 <- fc7
I0427 19:46:25.422142 31063 net.cpp:367] drop7 -> fc7 (in-place)
I0427 19:46:25.422166 31063 net.cpp:122] Setting up drop7
I0427 19:46:25.422173 31063 net.cpp:129] Top shape: 256 4096 (1048576)
I0427 19:46:25.422175 31063 net.cpp:137] Memory required for data: 2128705536
I0427 19:46:25.422179 31063 layer_factory.hpp:77] Creating layer fc8
I0427 19:46:25.422185 31063 net.cpp:84] Creating Layer fc8
I0427 19:46:25.422189 31063 net.cpp:406] fc8 <- fc7
I0427 19:46:25.422195 31063 net.cpp:380] fc8 -> fc8
I0427 19:46:25.435504 31063 net.cpp:122] Setting up fc8
I0427 19:46:25.435524 31063 net.cpp:129] Top shape: 256 196 (50176)
I0427 19:46:25.435528 31063 net.cpp:137] Memory required for data: 2128906240
I0427 19:46:25.435536 31063 layer_factory.hpp:77] Creating layer fc8_fc8_0_split
I0427 19:46:25.435545 31063 net.cpp:84] Creating Layer fc8_fc8_0_split
I0427 19:46:25.435570 31063 net.cpp:406] fc8_fc8_0_split <- fc8
I0427 19:46:25.435577 31063 net.cpp:380] fc8_fc8_0_split -> fc8_fc8_0_split_0
I0427 19:46:25.435586 31063 net.cpp:380] fc8_fc8_0_split -> fc8_fc8_0_split_1
I0427 19:46:25.435621 31063 net.cpp:122] Setting up fc8_fc8_0_split
I0427 19:46:25.435626 31063 net.cpp:129] Top shape: 256 196 (50176)
I0427 19:46:25.435629 31063 net.cpp:129] Top shape: 256 196 (50176)
I0427 19:46:25.435632 31063 net.cpp:137] Memory required for data: 2129307648
I0427 19:46:25.435636 31063 layer_factory.hpp:77] Creating layer accuracy
I0427 19:46:25.435643 31063 net.cpp:84] Creating Layer accuracy
I0427 19:46:25.435647 31063 net.cpp:406] accuracy <- fc8_fc8_0_split_0
I0427 19:46:25.435652 31063 net.cpp:406] accuracy <- label_val-data_1_split_0
I0427 19:46:25.435657 31063 net.cpp:380] accuracy -> accuracy
…
