…
I0419 12:02:43.294126 23431 net.cpp:294] The NetState phase (0) differed from the phase (1) specified by a rule in layer accuracy
I0419 12:02:43.294251 23431 net.cpp:51] Initializing net from parameters:
state {
phase: TRAIN
level: 0
stage: ""
}
layer {
name: "train-data"
type: "Data"
top: "data"
top: "label"
include {
phase: TRAIN
}
transform_param {
mirror: true
crop_size: 227
mean_file: "/mnt/bigdisk/DIGITS-AMB-2/digits/jobs/20210419-114443-15ba/mean.binaryproto"
}
data_param {
source: "/mnt/bigdisk/DIGITS-AMB-2/digits/jobs/20210419-114443-15ba/train_db"
batch_size: 128
backend: LMDB
}
}
layer {
name: "conv1"
type: "Convolution"
bottom: "data"
top: "conv1"
param {
lr_mult: 1
decay_mult: 1
}
param {
lr_mult: 2
decay_mult: 0
}
convolution_param {
num_output: 96
kernel_size: 11
stride: 4
weight_filler {
type: "gaussian"
std: 0.01
}
bias_filler {
type: "constant"
value: 0
}
}
}
layer {
name: "relu1"
type: "ReLU"
bottom: "conv1"
top: "conv1"
}
layer {
name: "norm1"
type: "LRN"
bottom: "conv1"
top: "norm1"
lrn_param {
local_size: 5
alpha: 0.0001
beta: 0.75
}
}
layer {
name: "pool1"
type: "Pooling"
bottom: "norm1"
top: "pool1"
pooling_param {
pool: MAX
kernel_size: 3
stride: 2
}
}
layer {
name: "conv2"
type: "Convolution"
bottom: "pool1"
top: "conv2"
param {
lr_mult: 1
decay_mult: 1
}
param {
lr_mult: 2
decay_mult: 0
}
convolution_param {
num_output: 256
pad: 2
kernel_size: 5
group: 2
weight_filler {
type: "gaussian"
std: 0.01
}
bias_filler {
type: "constant"
value: 0.1
}
}
}
layer {
name: "relu2"
type: "ReLU"
bottom: "conv2"
top: "conv2"
}
layer {
name: "norm2"
type: "LRN"
bottom: "conv2"
top: "norm2"
lrn_param {
local_size: 5
alpha: 0.0001
beta: 0.75
}
}
layer {
name: "pool2"
type: "Pooling"
bottom: "norm2"
top: "pool2"
pooling_param {
pool: MAX
kernel_size: 3
stride: 2
}
}
layer {
name: "conv3"
type: "Convolution"
bottom: "pool2"
top: "conv3"
param {
lr_mult: 1
decay_mult: 1
}
param {
lr_mult: 2
decay_mult: 0
}
convolution_param {
num_output: 384
pad: 1
kernel_size: 3
weight_filler {
type: "gaussian"
std: 0.01
}
bias_filler {
type: "constant"
value: 0
}
}
}
layer {
name: "relu3"
type: "ReLU"
bottom: "conv3"
top: "conv3"
}
layer {
name: "conv4"
type: "Convolution"
bottom: "conv3"
top: "conv4"
param {
lr_mult: 1
decay_mult: 1
}
param {
lr_mult: 2
decay_mult: 0
}
convolution_param {
num_output: 384
pad: 1
kernel_size: 3
group: 2
weight_filler {
type: "gaussian"
std: 0.01
}
bias_filler {
type: "constant"
value: 0.1
}
}
}
layer {
name: "relu4"
type: "ReLU"
bottom: "conv4"
top: "conv4"
}
layer {
name: "conv5"
type: "Convolution"
bottom: "conv4"
top: "conv5"
param {
lr_mult: 1
decay_mult: 1
}
param {
lr_mult: 2
decay_mult: 0
}
convolution_param {
num_output: 256
pad: 1
kernel_size: 3
group: 2
weight_filler {
type: "gaussian"
std: 0.01
}
bias_filler {
type: "constant"
value: 0.1
}
}
}
layer {
name: "relu5"
type: "ReLU"
bottom: "conv5"
top: "conv5"
}
layer {
name: "pool5"
type: "Pooling"
bottom: "conv5"
top: "pool5"
pooling_param {
pool: MAX
kernel_size: 3
stride: 2
}
}
layer {
name: "fc6"
type: "InnerProduct"
bottom: "pool5"
top: "fc6"
param {
lr_mult: 1
decay_mult: 1
}
param {
lr_mult: 2
decay_mult: 0
}
inner_product_param {
num_output: 4096
weight_filler {
type: "gaussian"
std: 0.005
}
bias_filler {
type: "constant"
value: 0.1
}
}
}
layer {
name: "relu6"
type: "ReLU"
bottom: "fc6"
top: "fc6"
}
layer {
name: "drop6"
type: "Dropout"
bottom: "fc6"
top: "fc6"
dropout_param {
dropout_ratio: 0.5
}
}
layer {
name: "fc7"
type: "InnerProduct"
bottom: "fc6"
top: "fc7"
param {
lr_mult: 1
decay_mult: 1
}
param {
lr_mult: 2
decay_mult: 0
}
inner_product_param {
num_output: 4096
weight_filler {
type: "gaussian"
std: 0.005
}
bias_filler {
type: "constant"
value: 0.1
}
}
}
layer {
name: "relu7"
type: "ReLU"
bottom: "fc7"
top: "fc7"
}
layer {
name: "drop7"
type: "Dropout"
bottom: "fc7"
top: "fc7"
dropout_param {
dropout_ratio: 0.5
}
}
layer {
name: "fc8"
type: "InnerProduct"
bottom: "fc7"
top: "fc8"
param {
lr_mult: 1
decay_mult: 1
}
param {
lr_mult: 2
decay_mult: 0
}
inner_product_param {
num_output: 196
weight_filler {
type: "gaussian"
std: 0.01
}
bias_filler {
type: "constant"
value: 0
}
}
}
layer {
name: "loss"
type: "SoftmaxWithLoss"
bottom: "fc8"
bottom: "label"
top: "loss"
}
I0419 12:02:43.294337 23431 layer_factory.hpp:77] Creating layer train-data
I0419 12:02:43.296515 23431 db_lmdb.cpp:35] Opened lmdb /mnt/bigdisk/DIGITS-AMB-2/digits/jobs/20210419-114443-15ba/train_db
I0419 12:02:43.297204 23431 net.cpp:84] Creating Layer train-data
I0419 12:02:43.297214 23431 net.cpp:380] train-data -> data
I0419 12:02:43.297232 23431 net.cpp:380] train-data -> label
I0419 12:02:43.297243 23431 data_transformer.cpp:25] Loading mean file from: /mnt/bigdisk/DIGITS-AMB-2/digits/jobs/20210419-114443-15ba/mean.binaryproto
I0419 12:02:43.300870 23431 data_layer.cpp:45] output data size: 128,3,227,227
I0419 12:02:43.428508 23431 net.cpp:122] Setting up train-data
I0419 12:02:43.428530 23431 net.cpp:129] Top shape: 128 3 227 227 (19787136)
I0419 12:02:43.428534 23431 net.cpp:129] Top shape: 128 (128)
I0419 12:02:43.428537 23431 net.cpp:137] Memory required for data: 79149056
I0419 12:02:43.428546 23431 layer_factory.hpp:77] Creating layer conv1
I0419 12:02:43.428571 23431 net.cpp:84] Creating Layer conv1
I0419 12:02:43.428576 23431 net.cpp:406] conv1 <- data
I0419 12:02:43.428588 23431 net.cpp:380] conv1 -> conv1
I0419 12:02:44.289489 23431 net.cpp:122] Setting up conv1
I0419 12:02:44.289511 23431 net.cpp:129] Top shape: 128 96 55 55 (37171200)
I0419 12:02:44.289515 23431 net.cpp:137] Memory required for data: 227833856
I0419 12:02:44.289533 23431 layer_factory.hpp:77] Creating layer relu1
I0419 12:02:44.289543 23431 net.cpp:84] Creating Layer relu1
I0419 12:02:44.289547 23431 net.cpp:406] relu1 <- conv1
I0419 12:02:44.289552 23431 net.cpp:367] relu1 -> conv1 (in-place)
I0419 12:02:44.289873 23431 net.cpp:122] Setting up relu1
I0419 12:02:44.289882 23431 net.cpp:129] Top shape: 128 96 55 55 (37171200)
I0419 12:02:44.289886 23431 net.cpp:137] Memory required for data: 376518656
I0419 12:02:44.289889 23431 layer_factory.hpp:77] Creating layer norm1
I0419 12:02:44.289897 23431 net.cpp:84] Creating Layer norm1
I0419 12:02:44.289901 23431 net.cpp:406] norm1 <- conv1
I0419 12:02:44.289925 23431 net.cpp:380] norm1 -> norm1
I0419 12:02:44.290446 23431 net.cpp:122] Setting up norm1
I0419 12:02:44.290455 23431 net.cpp:129] Top shape: 128 96 55 55 (37171200)
I0419 12:02:44.290458 23431 net.cpp:137] Memory required for data: 525203456
I0419 12:02:44.290462 23431 layer_factory.hpp:77] Creating layer pool1
I0419 12:02:44.290468 23431 net.cpp:84] Creating Layer pool1
I0419 12:02:44.290472 23431 net.cpp:406] pool1 <- norm1
I0419 12:02:44.290477 23431 net.cpp:380] pool1 -> pool1
I0419 12:02:44.290508 23431 net.cpp:122] Setting up pool1
I0419 12:02:44.290513 23431 net.cpp:129] Top shape: 128 96 27 27 (8957952)
I0419 12:02:44.290515 23431 net.cpp:137] Memory required for data: 561035264
I0419 12:02:44.290518 23431 layer_factory.hpp:77] Creating layer conv2
I0419 12:02:44.290527 23431 net.cpp:84] Creating Layer conv2
I0419 12:02:44.290530 23431 net.cpp:406] conv2 <- pool1
I0419 12:02:44.290534 23431 net.cpp:380] conv2 -> conv2
I0419 12:02:44.298501 23431 net.cpp:122] Setting up conv2
I0419 12:02:44.298517 23431 net.cpp:129] Top shape: 128 256 27 27 (23887872)
I0419 12:02:44.298521 23431 net.cpp:137] Memory required for data: 656586752
I0419 12:02:44.298532 23431 layer_factory.hpp:77] Creating layer relu2
I0419 12:02:44.298539 23431 net.cpp:84] Creating Layer relu2
I0419 12:02:44.298542 23431 net.cpp:406] relu2 <- conv2
I0419 12:02:44.298548 23431 net.cpp:367] relu2 -> conv2 (in-place)
I0419 12:02:44.299113 23431 net.cpp:122] Setting up relu2
I0419 12:02:44.299121 23431 net.cpp:129] Top shape: 128 256 27 27 (23887872)
I0419 12:02:44.299124 23431 net.cpp:137] Memory required for data: 752138240
I0419 12:02:44.299127 23431 layer_factory.hpp:77] Creating layer norm2
I0419 12:02:44.299135 23431 net.cpp:84] Creating Layer norm2
I0419 12:02:44.299139 23431 net.cpp:406] norm2 <- conv2
I0419 12:02:44.299144 23431 net.cpp:380] norm2 -> norm2
I0419 12:02:44.299535 23431 net.cpp:122] Setting up norm2
I0419 12:02:44.299543 23431 net.cpp:129] Top shape: 128 256 27 27 (23887872)
I0419 12:02:44.299546 23431 net.cpp:137] Memory required for data: 847689728
I0419 12:02:44.299549 23431 layer_factory.hpp:77] Creating layer pool2
I0419 12:02:44.299556 23431 net.cpp:84] Creating Layer pool2
I0419 12:02:44.299559 23431 net.cpp:406] pool2 <- norm2
I0419 12:02:44.299566 23431 net.cpp:380] pool2 -> pool2
I0419 12:02:44.299592 23431 net.cpp:122] Setting up pool2
I0419 12:02:44.299597 23431 net.cpp:129] Top shape: 128 256 13 13 (5537792)
I0419 12:02:44.299598 23431 net.cpp:137] Memory required for data: 869840896
I0419 12:02:44.299602 23431 layer_factory.hpp:77] Creating layer conv3
I0419 12:02:44.299612 23431 net.cpp:84] Creating Layer conv3
I0419 12:02:44.299615 23431 net.cpp:406] conv3 <- pool2
I0419 12:02:44.299619 23431 net.cpp:380] conv3 -> conv3
I0419 12:02:44.310272 23431 net.cpp:122] Setting up conv3
I0419 12:02:44.310292 23431 net.cpp:129] Top shape: 128 384 13 13 (8306688)
I0419 12:02:44.310295 23431 net.cpp:137] Memory required for data: 903067648
I0419 12:02:44.310308 23431 layer_factory.hpp:77] Creating layer relu3
I0419 12:02:44.310317 23431 net.cpp:84] Creating Layer relu3
I0419 12:02:44.310320 23431 net.cpp:406] relu3 <- conv3
I0419 12:02:44.310325 23431 net.cpp:367] relu3 -> conv3 (in-place)
I0419 12:02:44.310920 23431 net.cpp:122] Setting up relu3
I0419 12:02:44.310930 23431 net.cpp:129] Top shape: 128 384 13 13 (8306688)
I0419 12:02:44.310933 23431 net.cpp:137] Memory required for data: 936294400
I0419 12:02:44.310936 23431 layer_factory.hpp:77] Creating layer conv4
I0419 12:02:44.310947 23431 net.cpp:84] Creating Layer conv4
I0419 12:02:44.310950 23431 net.cpp:406] conv4 <- conv3
I0419 12:02:44.310956 23431 net.cpp:380] conv4 -> conv4
I0419 12:02:44.322239 23431 net.cpp:122] Setting up conv4
I0419 12:02:44.322257 23431 net.cpp:129] Top shape: 128 384 13 13 (8306688)
I0419 12:02:44.322259 23431 net.cpp:137] Memory required for data: 969521152
I0419 12:02:44.322268 23431 layer_factory.hpp:77] Creating layer relu4
I0419 12:02:44.322278 23431 net.cpp:84] Creating Layer relu4
I0419 12:02:44.322297 23431 net.cpp:406] relu4 <- conv4
I0419 12:02:44.322304 23431 net.cpp:367] relu4 -> conv4 (in-place)
I0419 12:02:44.322858 23431 net.cpp:122] Setting up relu4
I0419 12:02:44.322868 23431 net.cpp:129] Top shape: 128 384 13 13 (8306688)
I0419 12:02:44.322871 23431 net.cpp:137] Memory required for data: 1002747904
I0419 12:02:44.322875 23431 layer_factory.hpp:77] Creating layer conv5
I0419 12:02:44.322885 23431 net.cpp:84] Creating Layer conv5
I0419 12:02:44.322888 23431 net.cpp:406] conv5 <- conv4
I0419 12:02:44.322896 23431 net.cpp:380] conv5 -> conv5
I0419 12:02:44.332132 23431 net.cpp:122] Setting up conv5
I0419 12:02:44.332149 23431 net.cpp:129] Top shape: 128 256 13 13 (5537792)
I0419 12:02:44.332152 23431 net.cpp:137] Memory required for data: 1024899072
I0419 12:02:44.332165 23431 layer_factory.hpp:77] Creating layer relu5
I0419 12:02:44.332172 23431 net.cpp:84] Creating Layer relu5
I0419 12:02:44.332176 23431 net.cpp:406] relu5 <- conv5
I0419 12:02:44.332182 23431 net.cpp:367] relu5 -> conv5 (in-place)
I0419 12:02:44.332726 23431 net.cpp:122] Setting up relu5
I0419 12:02:44.332736 23431 net.cpp:129] Top shape: 128 256 13 13 (5537792)
I0419 12:02:44.332739 23431 net.cpp:137] Memory required for data: 1047050240
I0419 12:02:44.332742 23431 layer_factory.hpp:77] Creating layer pool5
I0419 12:02:44.332749 23431 net.cpp:84] Creating Layer pool5
I0419 12:02:44.332752 23431 net.cpp:406] pool5 <- conv5
I0419 12:02:44.332757 23431 net.cpp:380] pool5 -> pool5
I0419 12:02:44.332794 23431 net.cpp:122] Setting up pool5
I0419 12:02:44.332799 23431 net.cpp:129] Top shape: 128 256 6 6 (1179648)
I0419 12:02:44.332803 23431 net.cpp:137] Memory required for data: 1051768832
I0419 12:02:44.332804 23431 layer_factory.hpp:77] Creating layer fc6
I0419 12:02:44.332814 23431 net.cpp:84] Creating Layer fc6
I0419 12:02:44.332819 23431 net.cpp:406] fc6 <- pool5
I0419 12:02:44.332823 23431 net.cpp:380] fc6 -> fc6
I0419 12:02:44.690820 23431 net.cpp:122] Setting up fc6
I0419 12:02:44.690840 23431 net.cpp:129] Top shape: 128 4096 (524288)
I0419 12:02:44.690843 23431 net.cpp:137] Memory required for data: 1053865984
I0419 12:02:44.690852 23431 layer_factory.hpp:77] Creating layer relu6
I0419 12:02:44.690860 23431 net.cpp:84] Creating Layer relu6
I0419 12:02:44.690865 23431 net.cpp:406] relu6 <- fc6
I0419 12:02:44.690872 23431 net.cpp:367] relu6 -> fc6 (in-place)
I0419 12:02:44.691618 23431 net.cpp:122] Setting up relu6
I0419 12:02:44.691627 23431 net.cpp:129] Top shape: 128 4096 (524288)
I0419 12:02:44.691630 23431 net.cpp:137] Memory required for data: 1055963136
I0419 12:02:44.691633 23431 layer_factory.hpp:77] Creating layer drop6
I0419 12:02:44.691639 23431 net.cpp:84] Creating Layer drop6
I0419 12:02:44.691642 23431 net.cpp:406] drop6 <- fc6
I0419 12:02:44.691648 23431 net.cpp:367] drop6 -> fc6 (in-place)
I0419 12:02:44.691676 23431 net.cpp:122] Setting up drop6
I0419 12:02:44.691681 23431 net.cpp:129] Top shape: 128 4096 (524288)
I0419 12:02:44.691684 23431 net.cpp:137] Memory required for data: 1058060288
I0419 12:02:44.691686 23431 layer_factory.hpp:77] Creating layer fc7
I0419 12:02:44.691694 23431 net.cpp:84] Creating Layer fc7
I0419 12:02:44.691696 23431 net.cpp:406] fc7 <- fc6
I0419 12:02:44.691701 23431 net.cpp:380] fc7 -> fc7
I0419 12:02:44.851392 23431 net.cpp:122] Setting up fc7
I0419 12:02:44.851413 23431 net.cpp:129] Top shape: 128 4096 (524288)
I0419 12:02:44.851415 23431 net.cpp:137] Memory required for data: 1060157440
I0419 12:02:44.851425 23431 layer_factory.hpp:77] Creating layer relu7
I0419 12:02:44.851434 23431 net.cpp:84] Creating Layer relu7
I0419 12:02:44.851438 23431 net.cpp:406] relu7 <- fc7
I0419 12:02:44.851444 23431 net.cpp:367] relu7 -> fc7 (in-place)
I0419 12:02:44.851931 23431 net.cpp:122] Setting up relu7
I0419 12:02:44.851940 23431 net.cpp:129] Top shape: 128 4096 (524288)
I0419 12:02:44.851943 23431 net.cpp:137] Memory required for data: 1062254592
I0419 12:02:44.851945 23431 layer_factory.hpp:77] Creating layer drop7
I0419 12:02:44.851953 23431 net.cpp:84] Creating Layer drop7
I0419 12:02:44.851976 23431 net.cpp:406] drop7 <- fc7
I0419 12:02:44.851981 23431 net.cpp:367] drop7 -> fc7 (in-place)
I0419 12:02:44.852006 23431 net.cpp:122] Setting up drop7
I0419 12:02:44.852010 23431 net.cpp:129] Top shape: 128 4096 (524288)
I0419 12:02:44.852013 23431 net.cpp:137] Memory required for data: 1064351744
I0419 12:02:44.852015 23431 layer_factory.hpp:77] Creating layer fc8
I0419 12:02:44.852023 23431 net.cpp:84] Creating Layer fc8
I0419 12:02:44.852026 23431 net.cpp:406] fc8 <- fc7
I0419 12:02:44.852030 23431 net.cpp:380] fc8 -> fc8
I0419 12:02:44.859782 23431 net.cpp:122] Setting up fc8
I0419 12:02:44.859791 23431 net.cpp:129] Top shape: 128 196 (25088)
I0419 12:02:44.859794 23431 net.cpp:137] Memory required for data: 1064452096
I0419 12:02:44.859800 23431 layer_factory.hpp:77] Creating layer loss
I0419 12:02:44.859807 23431 net.cpp:84] Creating Layer loss
I0419 12:02:44.859810 23431 net.cpp:406] loss <- fc8
I0419 12:02:44.859814 23431 net.cpp:406] loss <- label
I0419 12:02:44.859820 23431 net.cpp:380] loss -> loss
I0419 12:02:44.859828 23431 layer_factory.hpp:77] Creating layer loss
…
I0419 12:02:44.861184 23431 net.cpp:294] The NetState phase (1) differed from the phase (0) specified by a rule in layer train-data
I0419 12:02:44.861317 23431 net.cpp:51] Initializing net from parameters:
state {
phase: TEST
}
layer {
name: "val-data"
type: "Data"
top: "data"
top: "label"
include {
phase: TEST
}
transform_param {
crop_size: 227
mean_file: "/mnt/bigdisk/DIGITS-AMB-2/digits/jobs/20210419-114443-15ba/mean.binaryproto"
}
data_param {
source: "/mnt/bigdisk/DIGITS-AMB-2/digits/jobs/20210419-114443-15ba/val_db"
batch_size: 32
backend: LMDB
}
}
layer {
name: "conv1"
type: "Convolution"
bottom: "data"
top: "conv1"
param {
lr_mult: 1
decay_mult: 1
}
param {
lr_mult: 2
decay_mult: 0
}
convolution_param {
num_output: 96
kernel_size: 11
stride: 4
weight_filler {
type: "gaussian"
std: 0.01
}
bias_filler {
type: "constant"
value: 0
}
}
}
layer {
name: "relu1"
type: "ReLU"
bottom: "conv1"
top: "conv1"
}
layer {
name: "norm1"
type: "LRN"
bottom: "conv1"
top: "norm1"
lrn_param {
local_size: 5
alpha: 0.0001
beta: 0.75
}
}
layer {
name: "pool1"
type: "Pooling"
bottom: "norm1"
top: "pool1"
pooling_param {
pool: MAX
kernel_size: 3
stride: 2
}
}
layer {
name: "conv2"
type: "Convolution"
bottom: "pool1"
top: "conv2"
param {
lr_mult: 1
decay_mult: 1
}
param {
lr_mult: 2
decay_mult: 0
}
convolution_param {
num_output: 256
pad: 2
kernel_size: 5
group: 2
weight_filler {
type: "gaussian"
std: 0.01
}
bias_filler {
type: "constant"
value: 0.1
}
}
}
layer {
name: "relu2"
type: "ReLU"
bottom: "conv2"
top: "conv2"
}
layer {
name: "norm2"
type: "LRN"
bottom: "conv2"
top: "norm2"
lrn_param {
local_size: 5
alpha: 0.0001
beta: 0.75
}
}
layer {
name: "pool2"
type: "Pooling"
bottom: "norm2"
top: "pool2"
pooling_param {
pool: MAX
kernel_size: 3
stride: 2
}
}
layer {
name: "conv3"
type: "Convolution"
bottom: "pool2"
top: "conv3"
param {
lr_mult: 1
decay_mult: 1
}
param {
lr_mult: 2
decay_mult: 0
}
convolution_param {
num_output: 384
pad: 1
kernel_size: 3
weight_filler {
type: "gaussian"
std: 0.01
}
bias_filler {
type: "constant"
value: 0
}
}
}
layer {
name: "relu3"
type: "ReLU"
bottom: "conv3"
top: "conv3"
}
layer {
name: "conv4"
type: "Convolution"
bottom: "conv3"
top: "conv4"
param {
lr_mult: 1
decay_mult: 1
}
param {
lr_mult: 2
decay_mult: 0
}
convolution_param {
num_output: 384
pad: 1
kernel_size: 3
group: 2
weight_filler {
type: "gaussian"
std: 0.01
}
bias_filler {
type: "constant"
value: 0.1
}
}
}
layer {
name: "relu4"
type: "ReLU"
bottom: "conv4"
top: "conv4"
}
layer {
name: "conv5"
type: "Convolution"
bottom: "conv4"
top: "conv5"
param {
lr_mult: 1
decay_mult: 1
}
param {
lr_mult: 2
decay_mult: 0
}
convolution_param {
num_output: 256
pad: 1
kernel_size: 3
group: 2
weight_filler {
type: "gaussian"
std: 0.01
}
bias_filler {
type: "constant"
value: 0.1
}
}
}
layer {
name: "relu5"
type: "ReLU"
bottom: "conv5"
top: "conv5"
}
layer {
name: "pool5"
type: "Pooling"
bottom: "conv5"
top: "pool5"
pooling_param {
pool: MAX
kernel_size: 3
stride: 2
}
}
layer {
name: "fc6"
type: "InnerProduct"
bottom: "pool5"
top: "fc6"
param {
lr_mult: 1
decay_mult: 1
}
param {
lr_mult: 2
decay_mult: 0
}
inner_product_param {
num_output: 4096
weight_filler {
type: "gaussian"
std: 0.005
}
bias_filler {
type: "constant"
value: 0.1
}
}
}
layer {
name: "relu6"
type: "ReLU"
bottom: "fc6"
top: "fc6"
}
layer {
name: "drop6"
type: "Dropout"
bottom: "fc6"
top: "fc6"
dropout_param {
dropout_ratio: 0.5
}
}
layer {
name: "fc7"
type: "InnerProduct"
bottom: "fc6"
top: "fc7"
param {
lr_mult: 1
decay_mult: 1
}
param {
lr_mult: 2
decay_mult: 0
}
inner_product_param {
num_output: 4096
weight_filler {
type: "gaussian"
std: 0.005
}
bias_filler {
type: "constant"
value: 0.1
}
}
}
layer {
name: "relu7"
type: "ReLU"
bottom: "fc7"
top: "fc7"
}
layer {
name: "drop7"
type: "Dropout"
bottom: "fc7"
top: "fc7"
dropout_param {
dropout_ratio: 0.5
}
}
layer {
name: "fc8"
type: "InnerProduct"
bottom: "fc7"
top: "fc8"
param {
lr_mult: 1
decay_mult: 1
}
param {
lr_mult: 2
decay_mult: 0
}
inner_product_param {
num_output: 196
weight_filler {
type: "gaussian"
std: 0.01
}
bias_filler {
type: "constant"
value: 0
}
}
}
layer {
name: "accuracy"
type: "Accuracy"
bottom: "fc8"
bottom: "label"
top: "accuracy"
include {
phase: TEST
}
}
layer {
name: "loss"
type: "SoftmaxWithLoss"
bottom: "fc8"
bottom: "label"
top: "loss"
}
I0419 12:02:44.861420 23431 layer_factory.hpp:77] Creating layer val-data
I0419 12:02:44.863633 23431 db_lmdb.cpp:35] Opened lmdb /mnt/bigdisk/DIGITS-AMB-2/digits/jobs/20210419-114443-15ba/val_db
I0419 12:02:44.864382 23431 net.cpp:84] Creating Layer val-data
I0419 12:02:44.864393 23431 net.cpp:380] val-data -> data
I0419 12:02:44.864401 23431 net.cpp:380] val-data -> label
I0419 12:02:44.864408 23431 data_transformer.cpp:25] Loading mean file from: /mnt/bigdisk/DIGITS-AMB-2/digits/jobs/20210419-114443-15ba/mean.binaryproto
I0419 12:02:44.867867 23431 data_layer.cpp:45] output data size: 32,3,227,227
I0419 12:02:44.901309 23431 net.cpp:122] Setting up val-data
I0419 12:02:44.901330 23431 net.cpp:129] Top shape: 32 3 227 227 (4946784)
I0419 12:02:44.901335 23431 net.cpp:129] Top shape: 32 (32)
I0419 12:02:44.901336 23431 net.cpp:137] Memory required for data: 19787264
I0419 12:02:44.901342 23431 layer_factory.hpp:77] Creating layer label_val-data_1_split
I0419 12:02:44.901353 23431 net.cpp:84] Creating Layer label_val-data_1_split
I0419 12:02:44.901357 23431 net.cpp:406] label_val-data_1_split <- label
I0419 12:02:44.901363 23431 net.cpp:380] label_val-data_1_split -> label_val-data_1_split_0
I0419 12:02:44.901372 23431 net.cpp:380] label_val-data_1_split -> label_val-data_1_split_1
I0419 12:02:44.901412 23431 net.cpp:122] Setting up label_val-data_1_split
I0419 12:02:44.901415 23431 net.cpp:129] Top shape: 32 (32)
I0419 12:02:44.901418 23431 net.cpp:129] Top shape: 32 (32)
I0419 12:02:44.901422 23431 net.cpp:137] Memory required for data: 19787520
I0419 12:02:44.901423 23431 layer_factory.hpp:77] Creating layer conv1
I0419 12:02:44.901434 23431 net.cpp:84] Creating Layer conv1
I0419 12:02:44.901437 23431 net.cpp:406] conv1 <- data
I0419 12:02:44.901441 23431 net.cpp:380] conv1 -> conv1
I0419 12:02:44.904909 23431 net.cpp:122] Setting up conv1
I0419 12:02:44.904920 23431 net.cpp:129] Top shape: 32 96 55 55 (9292800)
I0419 12:02:44.904923 23431 net.cpp:137] Memory required for data: 56958720
I0419 12:02:44.904932 23431 layer_factory.hpp:77] Creating layer relu1
I0419 12:02:44.904938 23431 net.cpp:84] Creating Layer relu1
I0419 12:02:44.904942 23431 net.cpp:406] relu1 <- conv1
I0419 12:02:44.904947 23431 net.cpp:367] relu1 -> conv1 (in-place)
I0419 12:02:44.905277 23431 net.cpp:122] Setting up relu1
I0419 12:02:44.905288 23431 net.cpp:129] Top shape: 32 96 55 55 (9292800)
I0419 12:02:44.905290 23431 net.cpp:137] Memory required for data: 94129920
I0419 12:02:44.905294 23431 layer_factory.hpp:77] Creating layer norm1
I0419 12:02:44.905303 23431 net.cpp:84] Creating Layer norm1
I0419 12:02:44.905305 23431 net.cpp:406] norm1 <- conv1
I0419 12:02:44.905310 23431 net.cpp:380] norm1 -> norm1
I0419 12:02:44.905855 23431 net.cpp:122] Setting up norm1
I0419 12:02:44.905865 23431 net.cpp:129] Top shape: 32 96 55 55 (9292800)
I0419 12:02:44.905869 23431 net.cpp:137] Memory required for data: 131301120
I0419 12:02:44.905871 23431 layer_factory.hpp:77] Creating layer pool1
I0419 12:02:44.905877 23431 net.cpp:84] Creating Layer pool1
I0419 12:02:44.905880 23431 net.cpp:406] pool1 <- norm1
I0419 12:02:44.905885 23431 net.cpp:380] pool1 -> pool1
I0419 12:02:44.905910 23431 net.cpp:122] Setting up pool1
I0419 12:02:44.905915 23431 net.cpp:129] Top shape: 32 96 27 27 (2239488)
I0419 12:02:44.905917 23431 net.cpp:137] Memory required for data: 140259072
I0419 12:02:44.905920 23431 layer_factory.hpp:77] Creating layer conv2
I0419 12:02:44.905927 23431 net.cpp:84] Creating Layer conv2
I0419 12:02:44.905930 23431 net.cpp:406] conv2 <- pool1
I0419 12:02:44.905956 23431 net.cpp:380] conv2 -> conv2
I0419 12:02:44.916410 23431 net.cpp:122] Setting up conv2
I0419 12:02:44.916425 23431 net.cpp:129] Top shape: 32 256 27 27 (5971968)
I0419 12:02:44.916429 23431 net.cpp:137] Memory required for data: 164146944
I0419 12:02:44.916440 23431 layer_factory.hpp:77] Creating layer relu2
I0419 12:02:44.916447 23431 net.cpp:84] Creating Layer relu2
I0419 12:02:44.916451 23431 net.cpp:406] relu2 <- conv2
I0419 12:02:44.916458 23431 net.cpp:367] relu2 -> conv2 (in-place)
I0419 12:02:44.917011 23431 net.cpp:122] Setting up relu2
I0419 12:02:44.917021 23431 net.cpp:129] Top shape: 32 256 27 27 (5971968)
I0419 12:02:44.917024 23431 net.cpp:137] Memory required for data: 188034816
I0419 12:02:44.917027 23431 layer_factory.hpp:77] Creating layer norm2
I0419 12:02:44.917037 23431 net.cpp:84] Creating Layer norm2
I0419 12:02:44.917040 23431 net.cpp:406] norm2 <- conv2
I0419 12:02:44.917045 23431 net.cpp:380] norm2 -> norm2
I0419 12:02:44.917801 23431 net.cpp:122] Setting up norm2
I0419 12:02:44.917811 23431 net.cpp:129] Top shape: 32 256 27 27 (5971968)
I0419 12:02:44.917814 23431 net.cpp:137] Memory required for data: 211922688
I0419 12:02:44.917817 23431 layer_factory.hpp:77] Creating layer pool2
I0419 12:02:44.917825 23431 net.cpp:84] Creating Layer pool2
I0419 12:02:44.917829 23431 net.cpp:406] pool2 <- norm2
I0419 12:02:44.917834 23431 net.cpp:380] pool2 -> pool2
I0419 12:02:44.917862 23431 net.cpp:122] Setting up pool2
I0419 12:02:44.917867 23431 net.cpp:129] Top shape: 32 256 13 13 (1384448)
I0419 12:02:44.917870 23431 net.cpp:137] Memory required for data: 217460480
I0419 12:02:44.917872 23431 layer_factory.hpp:77] Creating layer conv3
I0419 12:02:44.917883 23431 net.cpp:84] Creating Layer conv3
I0419 12:02:44.917886 23431 net.cpp:406] conv3 <- pool2
I0419 12:02:44.917892 23431 net.cpp:380] conv3 -> conv3
I0419 12:02:44.929662 23431 net.cpp:122] Setting up conv3
I0419 12:02:44.929678 23431 net.cpp:129] Top shape: 32 384 13 13 (2076672)
I0419 12:02:44.929682 23431 net.cpp:137] Memory required for data: 225767168
I0419 12:02:44.929693 23431 layer_factory.hpp:77] Creating layer relu3
I0419 12:02:44.929702 23431 net.cpp:84] Creating Layer relu3
I0419 12:02:44.929705 23431 net.cpp:406] relu3 <- conv3
I0419 12:02:44.929713 23431 net.cpp:367] relu3 -> conv3 (in-place)
I0419 12:02:44.930286 23431 net.cpp:122] Setting up relu3
I0419 12:02:44.930296 23431 net.cpp:129] Top shape: 32 384 13 13 (2076672)
I0419 12:02:44.930299 23431 net.cpp:137] Memory required for data: 234073856
I0419 12:02:44.930302 23431 layer_factory.hpp:77] Creating layer conv4
I0419 12:02:44.930313 23431 net.cpp:84] Creating Layer conv4
I0419 12:02:44.930316 23431 net.cpp:406] conv4 <- conv3
I0419 12:02:44.930323 23431 net.cpp:380] conv4 -> conv4
I0419 12:02:44.940519 23431 net.cpp:122] Setting up conv4
I0419 12:02:44.940533 23431 net.cpp:129] Top shape: 32 384 13 13 (2076672)
I0419 12:02:44.940536 23431 net.cpp:137] Memory required for data: 242380544
I0419 12:02:44.940544 23431 layer_factory.hpp:77] Creating layer relu4
I0419 12:02:44.940551 23431 net.cpp:84] Creating Layer relu4
I0419 12:02:44.940554 23431 net.cpp:406] relu4 <- conv4
I0419 12:02:44.940559 23431 net.cpp:367] relu4 -> conv4 (in-place)
I0419 12:02:44.940938 23431 net.cpp:122] Setting up relu4
I0419 12:02:44.940948 23431 net.cpp:129] Top shape: 32 384 13 13 (2076672)
I0419 12:02:44.940950 23431 net.cpp:137] Memory required for data: 250687232
I0419 12:02:44.940953 23431 layer_factory.hpp:77] Creating layer conv5
I0419 12:02:44.940963 23431 net.cpp:84] Creating Layer conv5
I0419 12:02:44.940968 23431 net.cpp:406] conv5 <- conv4
I0419 12:02:44.940973 23431 net.cpp:380] conv5 -> conv5
I0419 12:02:44.950484 23431 net.cpp:122] Setting up conv5
I0419 12:02:44.950498 23431 net.cpp:129] Top shape: 32 256 13 13 (1384448)
I0419 12:02:44.950501 23431 net.cpp:137] Memory required for data: 256225024
I0419 12:02:44.950513 23431 layer_factory.hpp:77] Creating layer relu5
I0419 12:02:44.950521 23431 net.cpp:84] Creating Layer relu5
I0419 12:02:44.950526 23431 net.cpp:406] relu5 <- conv5
I0419 12:02:44.950549 23431 net.cpp:367] relu5 -> conv5 (in-place)
I0419 12:02:44.951102 23431 net.cpp:122] Setting up relu5
I0419 12:02:44.951112 23431 net.cpp:129] Top shape: 32 256 13 13 (1384448)
I0419 12:02:44.951114 23431 net.cpp:137] Memory required for data: 261762816
I0419 12:02:44.951118 23431 layer_factory.hpp:77] Creating layer pool5
I0419 12:02:44.951128 23431 net.cpp:84] Creating Layer pool5
I0419 12:02:44.951131 23431 net.cpp:406] pool5 <- conv5
I0419 12:02:44.951136 23431 net.cpp:380] pool5 -> pool5
I0419 12:02:44.951172 23431 net.cpp:122] Setting up pool5
I0419 12:02:44.951177 23431 net.cpp:129] Top shape: 32 256 6 6 (294912)
I0419 12:02:44.951180 23431 net.cpp:137] Memory required for data: 262942464
I0419 12:02:44.951184 23431 layer_factory.hpp:77] Creating layer fc6
I0419 12:02:44.951191 23431 net.cpp:84] Creating Layer fc6
I0419 12:02:44.951193 23431 net.cpp:406] fc6 <- pool5
I0419 12:02:44.951198 23431 net.cpp:380] fc6 -> fc6
I0419 12:02:45.309432 23431 net.cpp:122] Setting up fc6
I0419 12:02:45.309451 23431 net.cpp:129] Top shape: 32 4096 (131072)
I0419 12:02:45.309454 23431 net.cpp:137] Memory required for data: 263466752
I0419 12:02:45.309463 23431 layer_factory.hpp:77] Creating layer relu6
I0419 12:02:45.309473 23431 net.cpp:84] Creating Layer relu6
I0419 12:02:45.309478 23431 net.cpp:406] relu6 <- fc6
I0419 12:02:45.309482 23431 net.cpp:367] relu6 -> fc6 (in-place)
I0419 12:02:45.310226 23431 net.cpp:122] Setting up relu6
I0419 12:02:45.310235 23431 net.cpp:129] Top shape: 32 4096 (131072)
I0419 12:02:45.310238 23431 net.cpp:137] Memory required for data: 263991040
I0419 12:02:45.310241 23431 layer_factory.hpp:77] Creating layer drop6
I0419 12:02:45.310248 23431 net.cpp:84] Creating Layer drop6
I0419 12:02:45.310251 23431 net.cpp:406] drop6 <- fc6
I0419 12:02:45.310257 23431 net.cpp:367] drop6 -> fc6 (in-place)
I0419 12:02:45.310279 23431 net.cpp:122] Setting up drop6
I0419 12:02:45.310284 23431 net.cpp:129] Top shape: 32 4096 (131072)
I0419 12:02:45.310286 23431 net.cpp:137] Memory required for data: 264515328
I0419 12:02:45.310289 23431 layer_factory.hpp:77] Creating layer fc7
I0419 12:02:45.310297 23431 net.cpp:84] Creating Layer fc7
I0419 12:02:45.310299 23431 net.cpp:406] fc7 <- fc6
I0419 12:02:45.310305 23431 net.cpp:380] fc7 -> fc7
I0419 12:02:45.469211 23431 net.cpp:122] Setting up fc7
I0419 12:02:45.469233 23431 net.cpp:129] Top shape: 32 4096 (131072)
I0419 12:02:45.469236 23431 net.cpp:137] Memory required for data: 265039616
I0419 12:02:45.469246 23431 layer_factory.hpp:77] Creating layer relu7
I0419 12:02:45.469256 23431 net.cpp:84] Creating Layer relu7
I0419 12:02:45.469260 23431 net.cpp:406] relu7 <- fc7
I0419 12:02:45.469266 23431 net.cpp:367] relu7 -> fc7 (in-place)
I0419 12:02:45.469769 23431 net.cpp:122] Setting up relu7
I0419 12:02:45.469777 23431 net.cpp:129] Top shape: 32 4096 (131072)
I0419 12:02:45.469780 23431 net.cpp:137] Memory required for data: 265563904
I0419 12:02:45.469784 23431 layer_factory.hpp:77] Creating layer drop7
I0419 12:02:45.469794 23431 net.cpp:84] Creating Layer drop7
I0419 12:02:45.469799 23431 net.cpp:406] drop7 <- fc7
I0419 12:02:45.469802 23431 net.cpp:367] drop7 -> fc7 (in-place)
I0419 12:02:45.469826 23431 net.cpp:122] Setting up drop7
I0419 12:02:45.469830 23431 net.cpp:129] Top shape: 32 4096 (131072)
I0419 12:02:45.469833 23431 net.cpp:137] Memory required for data: 266088192
I0419 12:02:45.469836 23431 layer_factory.hpp:77] Creating layer fc8
I0419 12:02:45.469844 23431 net.cpp:84] Creating Layer fc8
I0419 12:02:45.469846 23431 net.cpp:406] fc8 <- fc7
I0419 12:02:45.469851 23431 net.cpp:380] fc8 -> fc8
I0419 12:02:45.477638 23431 net.cpp:122] Setting up fc8
I0419 12:02:45.477648 23431 net.cpp:129] Top shape: 32 196 (6272)
I0419 12:02:45.477649 23431 net.cpp:137] Memory required for data: 266113280
I0419 12:02:45.477656 23431 layer_factory.hpp:77] Creating layer fc8_fc8_0_split
I0419 12:02:45.477664 23431 net.cpp:84] Creating Layer fc8_fc8_0_split
I0419 12:02:45.477667 23431 net.cpp:406] fc8_fc8_0_split <- fc8
I0419 12:02:45.477691 23431 net.cpp:380] fc8_fc8_0_split -> fc8_fc8_0_split_0
I0419 12:02:45.477699 23431 net.cpp:380] fc8_fc8_0_split -> fc8_fc8_0_split_1
I0419 12:02:45.477728 23431 net.cpp:122] Setting up fc8_fc8_0_split
I0419 12:02:45.477732 23431 net.cpp:129] Top shape: 32 196 (6272)
I0419 12:02:45.477735 23431 net.cpp:129] Top shape: 32 196 (6272)
I0419 12:02:45.477738 23431 net.cpp:137] Memory required for data: 266163456
I0419 12:02:45.477741 23431 layer_factory.hpp:77] Creating layer accuracy
I0419 12:02:45.477747 23431 net.cpp:84] Creating Layer accuracy
I0419 12:02:45.477749 23431 net.cpp:406] accuracy <- fc8_fc8_0_split_0
I0419 12:02:45.477753 23431 net.cpp:406] accuracy <- label_val-data_1_split_0
I0419 12:02:45.477758 23431 net.cpp:380] accuracy -> accuracy
…
