…
I0428 01:11:01.139920   496 net.cpp:294] The NetState phase (0) differed from the phase (1) specified by a rule in layer accuracy
I0428 01:11:01.140202   496 net.cpp:51] Initializing net from parameters:
state {
phase: TRAIN
level: 0
stage: ""
}
layer {
name: "train-data"
type: "Data"
top: "data"
top: "label"
include {
phase: TRAIN
}
transform_param {
mirror: true
crop_size: 227
mean_file: "/mnt/bigdisk/DIGITS-AMB-2/digits/jobs/20210419-212033-af57/mean.binaryproto"
}
data_param {
source: "/mnt/bigdisk/DIGITS-AMB-2/digits/jobs/20210419-212033-af57/train_db"
batch_size: 128
backend: LMDB
}
}
layer {
name: "conv1"
type: "Convolution"
bottom: "data"
top: "conv1"
param {
lr_mult: 1
decay_mult: 1
}
param {
lr_mult: 2
decay_mult: 0
}
convolution_param {
num_output: 96
kernel_size: 11
stride: 4
weight_filler {
type: "gaussian"
std: 0.01
}
bias_filler {
type: "constant"
value: 0
}
}
}
layer {
name: "relu1"
type: "ReLU"
bottom: "conv1"
top: "conv1"
}
layer {
name: "norm1"
type: "LRN"
bottom: "conv1"
top: "norm1"
lrn_param {
local_size: 5
alpha: 0.0001
beta: 0.75
}
}
layer {
name: "pool1"
type: "Pooling"
bottom: "norm1"
top: "pool1"
pooling_param {
pool: MAX
kernel_size: 3
stride: 2
}
}
layer {
name: "conv2"
type: "Convolution"
bottom: "pool1"
top: "conv2"
param {
lr_mult: 1
decay_mult: 1
}
param {
lr_mult: 2
decay_mult: 0
}
convolution_param {
num_output: 256
pad: 2
kernel_size: 5
group: 2
weight_filler {
type: "gaussian"
std: 0.01
}
bias_filler {
type: "constant"
value: 0.1
}
}
}
layer {
name: "relu2"
type: "ReLU"
bottom: "conv2"
top: "conv2"
}
layer {
name: "norm2"
type: "LRN"
bottom: "conv2"
top: "norm2"
lrn_param {
local_size: 5
alpha: 0.0001
beta: 0.75
}
}
layer {
name: "pool2"
type: "Pooling"
bottom: "norm2"
top: "pool2"
pooling_param {
pool: MAX
kernel_size: 3
stride: 2
}
}
layer {
name: "conv3"
type: "Convolution"
bottom: "pool2"
top: "conv3"
param {
lr_mult: 1
decay_mult: 1
}
param {
lr_mult: 2
decay_mult: 0
}
convolution_param {
num_output: 384
pad: 1
kernel_size: 3
weight_filler {
type: "gaussian"
std: 0.01
}
bias_filler {
type: "constant"
value: 0
}
}
}
layer {
name: "relu3"
type: "ReLU"
bottom: "conv3"
top: "conv3"
}
layer {
name: "conv4"
type: "Convolution"
bottom: "conv3"
top: "conv4"
param {
lr_mult: 1
decay_mult: 1
}
param {
lr_mult: 2
decay_mult: 0
}
convolution_param {
num_output: 384
pad: 1
kernel_size: 3
group: 2
weight_filler {
type: "gaussian"
std: 0.01
}
bias_filler {
type: "constant"
value: 0.1
}
}
}
layer {
name: "relu4"
type: "ReLU"
bottom: "conv4"
top: "conv4"
}
layer {
name: "conv5"
type: "Convolution"
bottom: "conv4"
top: "conv5"
param {
lr_mult: 1
decay_mult: 1
}
param {
lr_mult: 2
decay_mult: 0
}
convolution_param {
num_output: 256
pad: 1
kernel_size: 3
group: 2
weight_filler {
type: "gaussian"
std: 0.01
}
bias_filler {
type: "constant"
value: 0.1
}
}
}
layer {
name: "relu5"
type: "ReLU"
bottom: "conv5"
top: "conv5"
}
layer {
name: "pool5"
type: "Pooling"
bottom: "conv5"
top: "pool5"
pooling_param {
pool: MAX
kernel_size: 3
stride: 2
}
}
layer {
name: "fc6"
type: "InnerProduct"
bottom: "pool5"
top: "fc6"
param {
lr_mult: 1
decay_mult: 1
}
param {
lr_mult: 2
decay_mult: 0
}
inner_product_param {
num_output: 4096
weight_filler {
type: "gaussian"
std: 0.005
}
bias_filler {
type: "constant"
value: 0.1
}
}
}
layer {
name: "relu6"
type: "ReLU"
bottom: "fc6"
top: "fc6"
}
layer {
name: "drop6"
type: "Dropout"
bottom: "fc6"
top: "fc6"
dropout_param {
dropout_ratio: 0.5
}
}
layer {
name: "fc7"
type: "InnerProduct"
bottom: "fc6"
top: "fc7"
param {
lr_mult: 1
decay_mult: 1
}
param {
lr_mult: 2
decay_mult: 0
}
inner_product_param {
num_output: 4096
weight_filler {
type: "gaussian"
std: 0.005
}
bias_filler {
type: "constant"
value: 0.1
}
}
}
layer {
name: "relu7"
type: "ReLU"
bottom: "fc7"
top: "fc7"
}
layer {
name: "drop7"
type: "Dropout"
bottom: "fc7"
top: "fc7"
dropout_param {
dropout_ratio: 0.5
}
}
layer {
name: "fc8"
type: "InnerProduct"
bottom: "fc7"
top: "fc8"
param {
lr_mult: 1
decay_mult: 1
}
param {
lr_mult: 2
decay_mult: 0
}
inner_product_param {
num_output: 196
weight_filler {
type: "gaussian"
std: 0.01
}
bias_filler {
type: "constant"
value: 0
}
}
}
layer {
name: "loss"
type: "SoftmaxWithLoss"
bottom: "fc8"
bottom: "label"
top: "loss"
}
I0428 01:11:01.140363   496 layer_factory.hpp:77] Creating layer train-data
I0428 01:11:01.174301   496 db_lmdb.cpp:35] Opened lmdb /mnt/bigdisk/DIGITS-AMB-2/digits/jobs/20210419-212033-af57/train_db
I0428 01:11:01.222416   496 net.cpp:84] Creating Layer train-data
I0428 01:11:01.222448   496 net.cpp:380] train-data -> data
I0428 01:11:01.222478   496 net.cpp:380] train-data -> label
I0428 01:11:01.222496   496 data_transformer.cpp:25] Loading mean file from: /mnt/bigdisk/DIGITS-AMB-2/digits/jobs/20210419-212033-af57/mean.binaryproto
I0428 01:11:01.302656   496 data_layer.cpp:45] output data size: 128,3,227,227
I0428 01:11:01.439417   496 net.cpp:122] Setting up train-data
I0428 01:11:01.439440   496 net.cpp:129] Top shape: 128 3 227 227 (19787136)
I0428 01:11:01.439445   496 net.cpp:129] Top shape: 128 (128)
I0428 01:11:01.439447   496 net.cpp:137] Memory required for data: 79149056
I0428 01:11:01.439456   496 layer_factory.hpp:77] Creating layer conv1
I0428 01:11:01.439496   496 net.cpp:84] Creating Layer conv1
I0428 01:11:01.439502   496 net.cpp:406] conv1 <- data
I0428 01:11:01.439514   496 net.cpp:380] conv1 -> conv1
I0428 01:11:02.335304   496 net.cpp:122] Setting up conv1
I0428 01:11:02.335327   496 net.cpp:129] Top shape: 128 96 55 55 (37171200)
I0428 01:11:02.335332   496 net.cpp:137] Memory required for data: 227833856
I0428 01:11:02.335356   496 layer_factory.hpp:77] Creating layer relu1
I0428 01:11:02.335368   496 net.cpp:84] Creating Layer relu1
I0428 01:11:02.335373   496 net.cpp:406] relu1 <- conv1
I0428 01:11:02.335381   496 net.cpp:367] relu1 -> conv1 (in-place)
I0428 01:11:02.335793   496 net.cpp:122] Setting up relu1
I0428 01:11:02.335808   496 net.cpp:129] Top shape: 128 96 55 55 (37171200)
I0428 01:11:02.335811   496 net.cpp:137] Memory required for data: 376518656
I0428 01:11:02.335815   496 layer_factory.hpp:77] Creating layer norm1
I0428 01:11:02.335829   496 net.cpp:84] Creating Layer norm1
I0428 01:11:02.335834   496 net.cpp:406] norm1 <- conv1
I0428 01:11:02.335865   496 net.cpp:380] norm1 -> norm1
I0428 01:11:02.336549   496 net.cpp:122] Setting up norm1
I0428 01:11:02.336561   496 net.cpp:129] Top shape: 128 96 55 55 (37171200)
I0428 01:11:02.336565   496 net.cpp:137] Memory required for data: 525203456
I0428 01:11:02.336570   496 layer_factory.hpp:77] Creating layer pool1
I0428 01:11:02.336580   496 net.cpp:84] Creating Layer pool1
I0428 01:11:02.336583   496 net.cpp:406] pool1 <- norm1
I0428 01:11:02.336589   496 net.cpp:380] pool1 -> pool1
I0428 01:11:02.336627   496 net.cpp:122] Setting up pool1
I0428 01:11:02.336634   496 net.cpp:129] Top shape: 128 96 27 27 (8957952)
I0428 01:11:02.336637   496 net.cpp:137] Memory required for data: 561035264
I0428 01:11:02.336640   496 layer_factory.hpp:77] Creating layer conv2
I0428 01:11:02.336652   496 net.cpp:84] Creating Layer conv2
I0428 01:11:02.336654   496 net.cpp:406] conv2 <- pool1
I0428 01:11:02.336660   496 net.cpp:380] conv2 -> conv2
I0428 01:11:02.346978   496 net.cpp:122] Setting up conv2
I0428 01:11:02.346995   496 net.cpp:129] Top shape: 128 256 27 27 (23887872)
I0428 01:11:02.346998   496 net.cpp:137] Memory required for data: 656586752
I0428 01:11:02.347012   496 layer_factory.hpp:77] Creating layer relu2
I0428 01:11:02.347019   496 net.cpp:84] Creating Layer relu2
I0428 01:11:02.347023   496 net.cpp:406] relu2 <- conv2
I0428 01:11:02.347028   496 net.cpp:367] relu2 -> conv2 (in-place)
I0428 01:11:02.347687   496 net.cpp:122] Setting up relu2
I0428 01:11:02.347697   496 net.cpp:129] Top shape: 128 256 27 27 (23887872)
I0428 01:11:02.347700   496 net.cpp:137] Memory required for data: 752138240
I0428 01:11:02.347703   496 layer_factory.hpp:77] Creating layer norm2
I0428 01:11:02.347710   496 net.cpp:84] Creating Layer norm2
I0428 01:11:02.347713   496 net.cpp:406] norm2 <- conv2
I0428 01:11:02.347718   496 net.cpp:380] norm2 -> norm2
I0428 01:11:02.348042   496 net.cpp:122] Setting up norm2
I0428 01:11:02.348052   496 net.cpp:129] Top shape: 128 256 27 27 (23887872)
I0428 01:11:02.348054   496 net.cpp:137] Memory required for data: 847689728
I0428 01:11:02.348057   496 layer_factory.hpp:77] Creating layer pool2
I0428 01:11:02.348064   496 net.cpp:84] Creating Layer pool2
I0428 01:11:02.348068   496 net.cpp:406] pool2 <- norm2
I0428 01:11:02.348073   496 net.cpp:380] pool2 -> pool2
I0428 01:11:02.348098   496 net.cpp:122] Setting up pool2
I0428 01:11:02.348102   496 net.cpp:129] Top shape: 128 256 13 13 (5537792)
I0428 01:11:02.348105   496 net.cpp:137] Memory required for data: 869840896
I0428 01:11:02.348107   496 layer_factory.hpp:77] Creating layer conv3
I0428 01:11:02.348117   496 net.cpp:84] Creating Layer conv3
I0428 01:11:02.348119   496 net.cpp:406] conv3 <- pool2
I0428 01:11:02.348124   496 net.cpp:380] conv3 -> conv3
I0428 01:11:02.361608   496 net.cpp:122] Setting up conv3
I0428 01:11:02.361622   496 net.cpp:129] Top shape: 128 384 13 13 (8306688)
I0428 01:11:02.361626   496 net.cpp:137] Memory required for data: 903067648
I0428 01:11:02.361635   496 layer_factory.hpp:77] Creating layer relu3
I0428 01:11:02.361644   496 net.cpp:84] Creating Layer relu3
I0428 01:11:02.361646   496 net.cpp:406] relu3 <- conv3
I0428 01:11:02.361651   496 net.cpp:367] relu3 -> conv3 (in-place)
I0428 01:11:02.362491   496 net.cpp:122] Setting up relu3
I0428 01:11:02.362501   496 net.cpp:129] Top shape: 128 384 13 13 (8306688)
I0428 01:11:02.362504   496 net.cpp:137] Memory required for data: 936294400
I0428 01:11:02.362507   496 layer_factory.hpp:77] Creating layer conv4
I0428 01:11:02.362519   496 net.cpp:84] Creating Layer conv4
I0428 01:11:02.362521   496 net.cpp:406] conv4 <- conv3
I0428 01:11:02.362527   496 net.cpp:380] conv4 -> conv4
I0428 01:11:02.373270   496 net.cpp:122] Setting up conv4
I0428 01:11:02.373286   496 net.cpp:129] Top shape: 128 384 13 13 (8306688)
I0428 01:11:02.373288   496 net.cpp:137] Memory required for data: 969521152
I0428 01:11:02.373296   496 layer_factory.hpp:77] Creating layer relu4
I0428 01:11:02.373303   496 net.cpp:84] Creating Layer relu4
I0428 01:11:02.373325   496 net.cpp:406] relu4 <- conv4
I0428 01:11:02.373330   496 net.cpp:367] relu4 -> conv4 (in-place)
I0428 01:11:02.373804   496 net.cpp:122] Setting up relu4
I0428 01:11:02.373814   496 net.cpp:129] Top shape: 128 384 13 13 (8306688)
I0428 01:11:02.373817   496 net.cpp:137] Memory required for data: 1002747904
I0428 01:11:02.373821   496 layer_factory.hpp:77] Creating layer conv5
I0428 01:11:02.373829   496 net.cpp:84] Creating Layer conv5
I0428 01:11:02.373833   496 net.cpp:406] conv5 <- conv4
I0428 01:11:02.373838   496 net.cpp:380] conv5 -> conv5
I0428 01:11:02.383026   496 net.cpp:122] Setting up conv5
I0428 01:11:02.383041   496 net.cpp:129] Top shape: 128 256 13 13 (5537792)
I0428 01:11:02.383044   496 net.cpp:137] Memory required for data: 1024899072
I0428 01:11:02.383055   496 layer_factory.hpp:77] Creating layer relu5
I0428 01:11:02.383064   496 net.cpp:84] Creating Layer relu5
I0428 01:11:02.383069   496 net.cpp:406] relu5 <- conv5
I0428 01:11:02.383074   496 net.cpp:367] relu5 -> conv5 (in-place)
I0428 01:11:02.383620   496 net.cpp:122] Setting up relu5
I0428 01:11:02.383630   496 net.cpp:129] Top shape: 128 256 13 13 (5537792)
I0428 01:11:02.383632   496 net.cpp:137] Memory required for data: 1047050240
I0428 01:11:02.383635   496 layer_factory.hpp:77] Creating layer pool5
I0428 01:11:02.383641   496 net.cpp:84] Creating Layer pool5
I0428 01:11:02.383644   496 net.cpp:406] pool5 <- conv5
I0428 01:11:02.383651   496 net.cpp:380] pool5 -> pool5
I0428 01:11:02.383687   496 net.cpp:122] Setting up pool5
I0428 01:11:02.383693   496 net.cpp:129] Top shape: 128 256 6 6 (1179648)
I0428 01:11:02.383697   496 net.cpp:137] Memory required for data: 1051768832
I0428 01:11:02.383698   496 layer_factory.hpp:77] Creating layer fc6
I0428 01:11:02.383708   496 net.cpp:84] Creating Layer fc6
I0428 01:11:02.383711   496 net.cpp:406] fc6 <- pool5
I0428 01:11:02.383715   496 net.cpp:380] fc6 -> fc6
I0428 01:11:02.741923   496 net.cpp:122] Setting up fc6
I0428 01:11:02.741943   496 net.cpp:129] Top shape: 128 4096 (524288)
I0428 01:11:02.741947   496 net.cpp:137] Memory required for data: 1053865984
I0428 01:11:02.741956   496 layer_factory.hpp:77] Creating layer relu6
I0428 01:11:02.741966   496 net.cpp:84] Creating Layer relu6
I0428 01:11:02.741969   496 net.cpp:406] relu6 <- fc6
I0428 01:11:02.741976   496 net.cpp:367] relu6 -> fc6 (in-place)
I0428 01:11:02.742861   496 net.cpp:122] Setting up relu6
I0428 01:11:02.742873   496 net.cpp:129] Top shape: 128 4096 (524288)
I0428 01:11:02.742877   496 net.cpp:137] Memory required for data: 1055963136
I0428 01:11:02.742880   496 layer_factory.hpp:77] Creating layer drop6
I0428 01:11:02.742887   496 net.cpp:84] Creating Layer drop6
I0428 01:11:02.742890   496 net.cpp:406] drop6 <- fc6
I0428 01:11:02.742897   496 net.cpp:367] drop6 -> fc6 (in-place)
I0428 01:11:02.742928   496 net.cpp:122] Setting up drop6
I0428 01:11:02.742933   496 net.cpp:129] Top shape: 128 4096 (524288)
I0428 01:11:02.742934   496 net.cpp:137] Memory required for data: 1058060288
I0428 01:11:02.742938   496 layer_factory.hpp:77] Creating layer fc7
I0428 01:11:02.742946   496 net.cpp:84] Creating Layer fc7
I0428 01:11:02.742949   496 net.cpp:406] fc7 <- fc6
I0428 01:11:02.742955   496 net.cpp:380] fc7 -> fc7
I0428 01:11:02.902552   496 net.cpp:122] Setting up fc7
I0428 01:11:02.902570   496 net.cpp:129] Top shape: 128 4096 (524288)
I0428 01:11:02.902573   496 net.cpp:137] Memory required for data: 1060157440
I0428 01:11:02.902582   496 layer_factory.hpp:77] Creating layer relu7
I0428 01:11:02.902591   496 net.cpp:84] Creating Layer relu7
I0428 01:11:02.902599   496 net.cpp:406] relu7 <- fc7
I0428 01:11:02.902606   496 net.cpp:367] relu7 -> fc7 (in-place)
I0428 01:11:02.903097   496 net.cpp:122] Setting up relu7
I0428 01:11:02.903106   496 net.cpp:129] Top shape: 128 4096 (524288)
I0428 01:11:02.903108   496 net.cpp:137] Memory required for data: 1062254592
I0428 01:11:02.903111   496 layer_factory.hpp:77] Creating layer drop7
I0428 01:11:02.903117   496 net.cpp:84] Creating Layer drop7
I0428 01:11:02.903144   496 net.cpp:406] drop7 <- fc7
I0428 01:11:02.903151   496 net.cpp:367] drop7 -> fc7 (in-place)
I0428 01:11:02.903177   496 net.cpp:122] Setting up drop7
I0428 01:11:02.903182   496 net.cpp:129] Top shape: 128 4096 (524288)
I0428 01:11:02.903184   496 net.cpp:137] Memory required for data: 1064351744
I0428 01:11:02.903187   496 layer_factory.hpp:77] Creating layer fc8
I0428 01:11:02.903193   496 net.cpp:84] Creating Layer fc8
I0428 01:11:02.903196   496 net.cpp:406] fc8 <- fc7
I0428 01:11:02.903203   496 net.cpp:380] fc8 -> fc8
I0428 01:11:02.911270   496 net.cpp:122] Setting up fc8
I0428 01:11:02.911284   496 net.cpp:129] Top shape: 128 196 (25088)
I0428 01:11:02.911288   496 net.cpp:137] Memory required for data: 1064452096
I0428 01:11:02.911294   496 layer_factory.hpp:77] Creating layer loss
I0428 01:11:02.911301   496 net.cpp:84] Creating Layer loss
I0428 01:11:02.911304   496 net.cpp:406] loss <- fc8
I0428 01:11:02.911309   496 net.cpp:406] loss <- label
I0428 01:11:02.911319   496 net.cpp:380] loss -> loss
I0428 01:11:02.911327   496 layer_factory.hpp:77] Creating layer loss
…
I0428 01:11:02.913695   496 net.cpp:294] The NetState phase (1) differed from the phase (0) specified by a rule in layer train-data
I0428 01:11:02.913830   496 net.cpp:51] Initializing net from parameters:
state {
phase: TEST
}
layer {
name: "val-data"
type: "Data"
top: "data"
top: "label"
include {
phase: TEST
}
transform_param {
crop_size: 227
mean_file: "/mnt/bigdisk/DIGITS-AMB-2/digits/jobs/20210419-212033-af57/mean.binaryproto"
}
data_param {
source: "/mnt/bigdisk/DIGITS-AMB-2/digits/jobs/20210419-212033-af57/val_db"
batch_size: 32
backend: LMDB
}
}
layer {
name: "conv1"
type: "Convolution"
bottom: "data"
top: "conv1"
param {
lr_mult: 1
decay_mult: 1
}
param {
lr_mult: 2
decay_mult: 0
}
convolution_param {
num_output: 96
kernel_size: 11
stride: 4
weight_filler {
type: "gaussian"
std: 0.01
}
bias_filler {
type: "constant"
value: 0
}
}
}
layer {
name: "relu1"
type: "ReLU"
bottom: "conv1"
top: "conv1"
}
layer {
name: "norm1"
type: "LRN"
bottom: "conv1"
top: "norm1"
lrn_param {
local_size: 5
alpha: 0.0001
beta: 0.75
}
}
layer {
name: "pool1"
type: "Pooling"
bottom: "norm1"
top: "pool1"
pooling_param {
pool: MAX
kernel_size: 3
stride: 2
}
}
layer {
name: "conv2"
type: "Convolution"
bottom: "pool1"
top: "conv2"
param {
lr_mult: 1
decay_mult: 1
}
param {
lr_mult: 2
decay_mult: 0
}
convolution_param {
num_output: 256
pad: 2
kernel_size: 5
group: 2
weight_filler {
type: "gaussian"
std: 0.01
}
bias_filler {
type: "constant"
value: 0.1
}
}
}
layer {
name: "relu2"
type: "ReLU"
bottom: "conv2"
top: "conv2"
}
layer {
name: "norm2"
type: "LRN"
bottom: "conv2"
top: "norm2"
lrn_param {
local_size: 5
alpha: 0.0001
beta: 0.75
}
}
layer {
name: "pool2"
type: "Pooling"
bottom: "norm2"
top: "pool2"
pooling_param {
pool: MAX
kernel_size: 3
stride: 2
}
}
layer {
name: "conv3"
type: "Convolution"
bottom: "pool2"
top: "conv3"
param {
lr_mult: 1
decay_mult: 1
}
param {
lr_mult: 2
decay_mult: 0
}
convolution_param {
num_output: 384
pad: 1
kernel_size: 3
weight_filler {
type: "gaussian"
std: 0.01
}
bias_filler {
type: "constant"
value: 0
}
}
}
layer {
name: "relu3"
type: "ReLU"
bottom: "conv3"
top: "conv3"
}
layer {
name: "conv4"
type: "Convolution"
bottom: "conv3"
top: "conv4"
param {
lr_mult: 1
decay_mult: 1
}
param {
lr_mult: 2
decay_mult: 0
}
convolution_param {
num_output: 384
pad: 1
kernel_size: 3
group: 2
weight_filler {
type: "gaussian"
std: 0.01
}
bias_filler {
type: "constant"
value: 0.1
}
}
}
layer {
name: "relu4"
type: "ReLU"
bottom: "conv4"
top: "conv4"
}
layer {
name: "conv5"
type: "Convolution"
bottom: "conv4"
top: "conv5"
param {
lr_mult: 1
decay_mult: 1
}
param {
lr_mult: 2
decay_mult: 0
}
convolution_param {
num_output: 256
pad: 1
kernel_size: 3
group: 2
weight_filler {
type: "gaussian"
std: 0.01
}
bias_filler {
type: "constant"
value: 0.1
}
}
}
layer {
name: "relu5"
type: "ReLU"
bottom: "conv5"
top: "conv5"
}
layer {
name: "pool5"
type: "Pooling"
bottom: "conv5"
top: "pool5"
pooling_param {
pool: MAX
kernel_size: 3
stride: 2
}
}
layer {
name: "fc6"
type: "InnerProduct"
bottom: "pool5"
top: "fc6"
param {
lr_mult: 1
decay_mult: 1
}
param {
lr_mult: 2
decay_mult: 0
}
inner_product_param {
num_output: 4096
weight_filler {
type: "gaussian"
std: 0.005
}
bias_filler {
type: "constant"
value: 0.1
}
}
}
layer {
name: "relu6"
type: "ReLU"
bottom: "fc6"
top: "fc6"
}
layer {
name: "drop6"
type: "Dropout"
bottom: "fc6"
top: "fc6"
dropout_param {
dropout_ratio: 0.5
}
}
layer {
name: "fc7"
type: "InnerProduct"
bottom: "fc6"
top: "fc7"
param {
lr_mult: 1
decay_mult: 1
}
param {
lr_mult: 2
decay_mult: 0
}
inner_product_param {
num_output: 4096
weight_filler {
type: "gaussian"
std: 0.005
}
bias_filler {
type: "constant"
value: 0.1
}
}
}
layer {
name: "relu7"
type: "ReLU"
bottom: "fc7"
top: "fc7"
}
layer {
name: "drop7"
type: "Dropout"
bottom: "fc7"
top: "fc7"
dropout_param {
dropout_ratio: 0.5
}
}
layer {
name: "fc8"
type: "InnerProduct"
bottom: "fc7"
top: "fc8"
param {
lr_mult: 1
decay_mult: 1
}
param {
lr_mult: 2
decay_mult: 0
}
inner_product_param {
num_output: 196
weight_filler {
type: "gaussian"
std: 0.01
}
bias_filler {
type: "constant"
value: 0
}
}
}
layer {
name: "accuracy"
type: "Accuracy"
bottom: "fc8"
bottom: "label"
top: "accuracy"
include {
phase: TEST
}
}
layer {
name: "loss"
type: "SoftmaxWithLoss"
bottom: "fc8"
bottom: "label"
top: "loss"
}
I0428 01:11:02.913935   496 layer_factory.hpp:77] Creating layer val-data
I0428 01:11:02.974299   496 db_lmdb.cpp:35] Opened lmdb /mnt/bigdisk/DIGITS-AMB-2/digits/jobs/20210419-212033-af57/val_db
I0428 01:11:03.012056   496 net.cpp:84] Creating Layer val-data
I0428 01:11:03.012086   496 net.cpp:380] val-data -> data
I0428 01:11:03.012105   496 net.cpp:380] val-data -> label
I0428 01:11:03.012118   496 data_transformer.cpp:25] Loading mean file from: /mnt/bigdisk/DIGITS-AMB-2/digits/jobs/20210419-212033-af57/mean.binaryproto
I0428 01:11:03.022379   496 data_layer.cpp:45] output data size: 32,3,227,227
I0428 01:11:03.057547   496 net.cpp:122] Setting up val-data
I0428 01:11:03.057570   496 net.cpp:129] Top shape: 32 3 227 227 (4946784)
I0428 01:11:03.057574   496 net.cpp:129] Top shape: 32 (32)
I0428 01:11:03.057577   496 net.cpp:137] Memory required for data: 19787264
I0428 01:11:03.057583   496 layer_factory.hpp:77] Creating layer label_val-data_1_split
I0428 01:11:03.057595   496 net.cpp:84] Creating Layer label_val-data_1_split
I0428 01:11:03.057598   496 net.cpp:406] label_val-data_1_split <- label
I0428 01:11:03.057605   496 net.cpp:380] label_val-data_1_split -> label_val-data_1_split_0
I0428 01:11:03.057613   496 net.cpp:380] label_val-data_1_split -> label_val-data_1_split_1
I0428 01:11:03.057654   496 net.cpp:122] Setting up label_val-data_1_split
I0428 01:11:03.057659   496 net.cpp:129] Top shape: 32 (32)
I0428 01:11:03.057662   496 net.cpp:129] Top shape: 32 (32)
I0428 01:11:03.057664   496 net.cpp:137] Memory required for data: 19787520
I0428 01:11:03.057667   496 layer_factory.hpp:77] Creating layer conv1
I0428 01:11:03.057678   496 net.cpp:84] Creating Layer conv1
I0428 01:11:03.057682   496 net.cpp:406] conv1 <- data
I0428 01:11:03.057685   496 net.cpp:380] conv1 -> conv1
I0428 01:11:03.060904   496 net.cpp:122] Setting up conv1
I0428 01:11:03.060915   496 net.cpp:129] Top shape: 32 96 55 55 (9292800)
I0428 01:11:03.060918   496 net.cpp:137] Memory required for data: 56958720
I0428 01:11:03.060927   496 layer_factory.hpp:77] Creating layer relu1
I0428 01:11:03.060935   496 net.cpp:84] Creating Layer relu1
I0428 01:11:03.060937   496 net.cpp:406] relu1 <- conv1
I0428 01:11:03.060941   496 net.cpp:367] relu1 -> conv1 (in-place)
I0428 01:11:03.061269   496 net.cpp:122] Setting up relu1
I0428 01:11:03.061278   496 net.cpp:129] Top shape: 32 96 55 55 (9292800)
I0428 01:11:03.061281   496 net.cpp:137] Memory required for data: 94129920
I0428 01:11:03.061285   496 layer_factory.hpp:77] Creating layer norm1
I0428 01:11:03.061292   496 net.cpp:84] Creating Layer norm1
I0428 01:11:03.061295   496 net.cpp:406] norm1 <- conv1
I0428 01:11:03.061300   496 net.cpp:380] norm1 -> norm1
I0428 01:11:03.061812   496 net.cpp:122] Setting up norm1
I0428 01:11:03.061822   496 net.cpp:129] Top shape: 32 96 55 55 (9292800)
I0428 01:11:03.061825   496 net.cpp:137] Memory required for data: 131301120
I0428 01:11:03.061828   496 layer_factory.hpp:77] Creating layer pool1
I0428 01:11:03.061834   496 net.cpp:84] Creating Layer pool1
I0428 01:11:03.061837   496 net.cpp:406] pool1 <- norm1
I0428 01:11:03.061841   496 net.cpp:380] pool1 -> pool1
I0428 01:11:03.061867   496 net.cpp:122] Setting up pool1
I0428 01:11:03.061872   496 net.cpp:129] Top shape: 32 96 27 27 (2239488)
I0428 01:11:03.061874   496 net.cpp:137] Memory required for data: 140259072
I0428 01:11:03.061877   496 layer_factory.hpp:77] Creating layer conv2
I0428 01:11:03.061884   496 net.cpp:84] Creating Layer conv2
I0428 01:11:03.061887   496 net.cpp:406] conv2 <- pool1
I0428 01:11:03.061914   496 net.cpp:380] conv2 -> conv2
I0428 01:11:03.071472   496 net.cpp:122] Setting up conv2
I0428 01:11:03.071489   496 net.cpp:129] Top shape: 32 256 27 27 (5971968)
I0428 01:11:03.071492   496 net.cpp:137] Memory required for data: 164146944
I0428 01:11:03.071502   496 layer_factory.hpp:77] Creating layer relu2
I0428 01:11:03.071511   496 net.cpp:84] Creating Layer relu2
I0428 01:11:03.071514   496 net.cpp:406] relu2 <- conv2
I0428 01:11:03.071521   496 net.cpp:367] relu2 -> conv2 (in-place)
I0428 01:11:03.072082   496 net.cpp:122] Setting up relu2
I0428 01:11:03.072091   496 net.cpp:129] Top shape: 32 256 27 27 (5971968)
I0428 01:11:03.072094   496 net.cpp:137] Memory required for data: 188034816
I0428 01:11:03.072098   496 layer_factory.hpp:77] Creating layer norm2
I0428 01:11:03.072108   496 net.cpp:84] Creating Layer norm2
I0428 01:11:03.072118   496 net.cpp:406] norm2 <- conv2
I0428 01:11:03.072122   496 net.cpp:380] norm2 -> norm2
I0428 01:11:03.072894   496 net.cpp:122] Setting up norm2
I0428 01:11:03.072904   496 net.cpp:129] Top shape: 32 256 27 27 (5971968)
I0428 01:11:03.072907   496 net.cpp:137] Memory required for data: 211922688
I0428 01:11:03.072911   496 layer_factory.hpp:77] Creating layer pool2
I0428 01:11:03.072917   496 net.cpp:84] Creating Layer pool2
I0428 01:11:03.072921   496 net.cpp:406] pool2 <- norm2
I0428 01:11:03.072928   496 net.cpp:380] pool2 -> pool2
I0428 01:11:03.072958   496 net.cpp:122] Setting up pool2
I0428 01:11:03.072963   496 net.cpp:129] Top shape: 32 256 13 13 (1384448)
I0428 01:11:03.072966   496 net.cpp:137] Memory required for data: 217460480
I0428 01:11:03.072969   496 layer_factory.hpp:77] Creating layer conv3
I0428 01:11:03.072980   496 net.cpp:84] Creating Layer conv3
I0428 01:11:03.072983   496 net.cpp:406] conv3 <- pool2
I0428 01:11:03.072988   496 net.cpp:380] conv3 -> conv3
I0428 01:11:03.084776   496 net.cpp:122] Setting up conv3
I0428 01:11:03.084797   496 net.cpp:129] Top shape: 32 384 13 13 (2076672)
I0428 01:11:03.084800   496 net.cpp:137] Memory required for data: 225767168
I0428 01:11:03.084812   496 layer_factory.hpp:77] Creating layer relu3
I0428 01:11:03.084820   496 net.cpp:84] Creating Layer relu3
I0428 01:11:03.084825   496 net.cpp:406] relu3 <- conv3
I0428 01:11:03.084830   496 net.cpp:367] relu3 -> conv3 (in-place)
I0428 01:11:03.085424   496 net.cpp:122] Setting up relu3
I0428 01:11:03.085435   496 net.cpp:129] Top shape: 32 384 13 13 (2076672)
I0428 01:11:03.085438   496 net.cpp:137] Memory required for data: 234073856
I0428 01:11:03.085441   496 layer_factory.hpp:77] Creating layer conv4
I0428 01:11:03.085453   496 net.cpp:84] Creating Layer conv4
I0428 01:11:03.085456   496 net.cpp:406] conv4 <- conv3
I0428 01:11:03.085461   496 net.cpp:380] conv4 -> conv4
I0428 01:11:03.095793   496 net.cpp:122] Setting up conv4
I0428 01:11:03.095809   496 net.cpp:129] Top shape: 32 384 13 13 (2076672)
I0428 01:11:03.095813   496 net.cpp:137] Memory required for data: 242380544
I0428 01:11:03.095820   496 layer_factory.hpp:77] Creating layer relu4
I0428 01:11:03.095829   496 net.cpp:84] Creating Layer relu4
I0428 01:11:03.095834   496 net.cpp:406] relu4 <- conv4
I0428 01:11:03.095839   496 net.cpp:367] relu4 -> conv4 (in-place)
I0428 01:11:03.096223   496 net.cpp:122] Setting up relu4
I0428 01:11:03.096235   496 net.cpp:129] Top shape: 32 384 13 13 (2076672)
I0428 01:11:03.096236   496 net.cpp:137] Memory required for data: 250687232
I0428 01:11:03.096240   496 layer_factory.hpp:77] Creating layer conv5
I0428 01:11:03.096251   496 net.cpp:84] Creating Layer conv5
I0428 01:11:03.096256   496 net.cpp:406] conv5 <- conv4
I0428 01:11:03.096261   496 net.cpp:380] conv5 -> conv5
I0428 01:11:03.105993   496 net.cpp:122] Setting up conv5
I0428 01:11:03.106012   496 net.cpp:129] Top shape: 32 256 13 13 (1384448)
I0428 01:11:03.106016   496 net.cpp:137] Memory required for data: 256225024
I0428 01:11:03.106029   496 layer_factory.hpp:77] Creating layer relu5
I0428 01:11:03.106036   496 net.cpp:84] Creating Layer relu5
I0428 01:11:03.106040   496 net.cpp:406] relu5 <- conv5
I0428 01:11:03.106065   496 net.cpp:367] relu5 -> conv5 (in-place)
I0428 01:11:03.106638   496 net.cpp:122] Setting up relu5
I0428 01:11:03.106649   496 net.cpp:129] Top shape: 32 256 13 13 (1384448)
I0428 01:11:03.106652   496 net.cpp:137] Memory required for data: 261762816
I0428 01:11:03.106657   496 layer_factory.hpp:77] Creating layer pool5
I0428 01:11:03.106667   496 net.cpp:84] Creating Layer pool5
I0428 01:11:03.106669   496 net.cpp:406] pool5 <- conv5
I0428 01:11:03.106674   496 net.cpp:380] pool5 -> pool5
I0428 01:11:03.106712   496 net.cpp:122] Setting up pool5
I0428 01:11:03.106719   496 net.cpp:129] Top shape: 32 256 6 6 (294912)
I0428 01:11:03.106721   496 net.cpp:137] Memory required for data: 262942464
I0428 01:11:03.106724   496 layer_factory.hpp:77] Creating layer fc6
I0428 01:11:03.106730   496 net.cpp:84] Creating Layer fc6
I0428 01:11:03.106734   496 net.cpp:406] fc6 <- pool5
I0428 01:11:03.106739   496 net.cpp:380] fc6 -> fc6
I0428 01:11:03.465464   496 net.cpp:122] Setting up fc6
I0428 01:11:03.465482   496 net.cpp:129] Top shape: 32 4096 (131072)
I0428 01:11:03.465487   496 net.cpp:137] Memory required for data: 263466752
I0428 01:11:03.465495   496 layer_factory.hpp:77] Creating layer relu6
I0428 01:11:03.465503   496 net.cpp:84] Creating Layer relu6
I0428 01:11:03.465507   496 net.cpp:406] relu6 <- fc6
I0428 01:11:03.465515   496 net.cpp:367] relu6 -> fc6 (in-place)
I0428 01:11:03.466275   496 net.cpp:122] Setting up relu6
I0428 01:11:03.466286   496 net.cpp:129] Top shape: 32 4096 (131072)
I0428 01:11:03.466289   496 net.cpp:137] Memory required for data: 263991040
I0428 01:11:03.466292   496 layer_factory.hpp:77] Creating layer drop6
I0428 01:11:03.466298   496 net.cpp:84] Creating Layer drop6
I0428 01:11:03.466301   496 net.cpp:406] drop6 <- fc6
I0428 01:11:03.466306   496 net.cpp:367] drop6 -> fc6 (in-place)
I0428 01:11:03.466331   496 net.cpp:122] Setting up drop6
I0428 01:11:03.466334   496 net.cpp:129] Top shape: 32 4096 (131072)
I0428 01:11:03.466337   496 net.cpp:137] Memory required for data: 264515328
I0428 01:11:03.466341   496 layer_factory.hpp:77] Creating layer fc7
I0428 01:11:03.466347   496 net.cpp:84] Creating Layer fc7
I0428 01:11:03.466351   496 net.cpp:406] fc7 <- fc6
I0428 01:11:03.466354   496 net.cpp:380] fc7 -> fc7
I0428 01:11:03.626685   496 net.cpp:122] Setting up fc7
I0428 01:11:03.626706   496 net.cpp:129] Top shape: 32 4096 (131072)
I0428 01:11:03.626710   496 net.cpp:137] Memory required for data: 265039616
I0428 01:11:03.626718   496 layer_factory.hpp:77] Creating layer relu7
I0428 01:11:03.626726   496 net.cpp:84] Creating Layer relu7
I0428 01:11:03.626732   496 net.cpp:406] relu7 <- fc7
I0428 01:11:03.626737   496 net.cpp:367] relu7 -> fc7 (in-place)
I0428 01:11:03.627256   496 net.cpp:122] Setting up relu7
I0428 01:11:03.627267   496 net.cpp:129] Top shape: 32 4096 (131072)
I0428 01:11:03.627270   496 net.cpp:137] Memory required for data: 265563904
I0428 01:11:03.627274   496 layer_factory.hpp:77] Creating layer drop7
I0428 01:11:03.627282   496 net.cpp:84] Creating Layer drop7
I0428 01:11:03.627286   496 net.cpp:406] drop7 <- fc7
I0428 01:11:03.627291   496 net.cpp:367] drop7 -> fc7 (in-place)
I0428 01:11:03.627321   496 net.cpp:122] Setting up drop7
I0428 01:11:03.627326   496 net.cpp:129] Top shape: 32 4096 (131072)
I0428 01:11:03.627329   496 net.cpp:137] Memory required for data: 266088192
I0428 01:11:03.627331   496 layer_factory.hpp:77] Creating layer fc8
I0428 01:11:03.627338   496 net.cpp:84] Creating Layer fc8
I0428 01:11:03.627341   496 net.cpp:406] fc8 <- fc7
I0428 01:11:03.627347   496 net.cpp:380] fc8 -> fc8
I0428 01:11:03.635202   496 net.cpp:122] Setting up fc8
I0428 01:11:03.635215   496 net.cpp:129] Top shape: 32 196 (6272)
I0428 01:11:03.635218   496 net.cpp:137] Memory required for data: 266113280
I0428 01:11:03.635224   496 layer_factory.hpp:77] Creating layer fc8_fc8_0_split
I0428 01:11:03.635231   496 net.cpp:84] Creating Layer fc8_fc8_0_split
I0428 01:11:03.635234   496 net.cpp:406] fc8_fc8_0_split <- fc8
I0428 01:11:03.635262   496 net.cpp:380] fc8_fc8_0_split -> fc8_fc8_0_split_0
I0428 01:11:03.635268   496 net.cpp:380] fc8_fc8_0_split -> fc8_fc8_0_split_1
I0428 01:11:03.635300   496 net.cpp:122] Setting up fc8_fc8_0_split
I0428 01:11:03.635305   496 net.cpp:129] Top shape: 32 196 (6272)
I0428 01:11:03.635308   496 net.cpp:129] Top shape: 32 196 (6272)
I0428 01:11:03.635310   496 net.cpp:137] Memory required for data: 266163456
I0428 01:11:03.635313   496 layer_factory.hpp:77] Creating layer accuracy
I0428 01:11:03.635321   496 net.cpp:84] Creating Layer accuracy
I0428 01:11:03.635324   496 net.cpp:406] accuracy <- fc8_fc8_0_split_0
I0428 01:11:03.635329   496 net.cpp:406] accuracy <- label_val-data_1_split_0
I0428 01:11:03.635332   496 net.cpp:380] accuracy -> accuracy
…
