…
I0428 17:05:03.073172  8468 net.cpp:294] The NetState phase (0) differed from the phase (1) specified by a rule in layer accuracy
I0428 17:05:03.073321  8468 net.cpp:51] Initializing net from parameters:
state {
phase: TRAIN
level: 0
stage: ""
}
layer {
name: "train-data"
type: "Data"
top: "data"
top: "label"
include {
phase: TRAIN
}
transform_param {
mirror: true
crop_size: 227
mean_file: "/mnt/bigdisk/DIGITS-MAN-3/digits/jobs/20210421-230320-902c/mean.binaryproto"
}
data_param {
source: "/mnt/bigdisk/DIGITS-MAN-3/digits/jobs/20210421-230320-902c/train_db"
batch_size: 128
backend: LMDB
}
}
layer {
name: "conv1"
type: "Convolution"
bottom: "data"
top: "conv1"
param {
lr_mult: 1
decay_mult: 1
}
param {
lr_mult: 2
decay_mult: 0
}
convolution_param {
num_output: 96
kernel_size: 7
stride: 4
weight_filler {
type: "gaussian"
std: 0.01
}
bias_filler {
type: "constant"
value: 0
}
}
}
layer {
name: "relu1"
type: "ReLU"
bottom: "conv1"
top: "conv1"
}
layer {
name: "norm1"
type: "LRN"
bottom: "conv1"
top: "norm1"
lrn_param {
local_size: 5
alpha: 0.0001
beta: 0.75
}
}
layer {
name: "pool1"
type: "Pooling"
bottom: "norm1"
top: "pool1"
pooling_param {
pool: MAX
kernel_size: 3
stride: 2
}
}
layer {
name: "conv2"
type: "Convolution"
bottom: "pool1"
top: "conv2"
param {
lr_mult: 1
decay_mult: 1
}
param {
lr_mult: 2
decay_mult: 0
}
convolution_param {
num_output: 256
pad: 2
kernel_size: 7
group: 2
weight_filler {
type: "gaussian"
std: 0.01
}
bias_filler {
type: "constant"
value: 0.1
}
}
}
layer {
name: "relu2"
type: "ReLU"
bottom: "conv2"
top: "conv2"
}
layer {
name: "norm2"
type: "LRN"
bottom: "conv2"
top: "norm2"
lrn_param {
local_size: 5
alpha: 0.0001
beta: 0.75
}
}
layer {
name: "pool2"
type: "Pooling"
bottom: "norm2"
top: "pool2"
pooling_param {
pool: MAX
kernel_size: 3
stride: 2
}
}
layer {
name: "conv3"
type: "Convolution"
bottom: "pool2"
top: "conv3"
param {
lr_mult: 1
decay_mult: 1
}
param {
lr_mult: 2
decay_mult: 0
}
convolution_param {
num_output: 384
pad: 1
kernel_size: 5
weight_filler {
type: "gaussian"
std: 0.01
}
bias_filler {
type: "constant"
value: 0
}
}
}
layer {
name: "relu3"
type: "ReLU"
bottom: "conv3"
top: "conv3"
}
layer {
name: "conv4"
type: "Convolution"
bottom: "conv3"
top: "conv4"
param {
lr_mult: 1
decay_mult: 1
}
param {
lr_mult: 2
decay_mult: 0
}
convolution_param {
num_output: 384
pad: 1
kernel_size: 7
group: 2
weight_filler {
type: "gaussian"
std: 0.01
}
bias_filler {
type: "constant"
value: 0.1
}
}
}
layer {
name: "relu4"
type: "ReLU"
bottom: "conv4"
top: "conv4"
}
layer {
name: "conv5"
type: "Convolution"
bottom: "conv4"
top: "conv5"
param {
lr_mult: 1
decay_mult: 1
}
param {
lr_mult: 2
decay_mult: 0
}
convolution_param {
num_output: 256
pad: 1
kernel_size: 7
group: 2
weight_filler {
type: "gaussian"
std: 0.01
}
bias_filler {
type: "constant"
value: 0.1
}
}
}
layer {
name: "relu5"
type: "ReLU"
bottom: "conv5"
top: "conv5"
}
layer {
name: "pool5"
type: "Pooling"
bottom: "conv5"
top: "pool5"
pooling_param {
pool: MAX
kernel_size: 3
stride: 2
}
}
layer {
name: "fc6"
type: "InnerProduct"
bottom: "pool5"
top: "fc6"
param {
lr_mult: 1
decay_mult: 1
}
param {
lr_mult: 2
decay_mult: 0
}
inner_product_param {
num_output: 1024
weight_filler {
type: "gaussian"
std: 0.005
}
bias_filler {
type: "constant"
value: 0.1
}
}
}
layer {
name: "relu6"
type: "ReLU"
bottom: "fc6"
top: "fc6"
}
layer {
name: "drop6"
type: "Dropout"
bottom: "fc6"
top: "fc6"
dropout_param {
dropout_ratio: 0.5
}
}
layer {
name: "fc7"
type: "InnerProduct"
bottom: "fc6"
top: "fc7"
param {
lr_mult: 1
decay_mult: 1
}
param {
lr_mult: 2
decay_mult: 0
}
inner_product_param {
num_output: 1024
weight_filler {
type: "gaussian"
std: 0.005
}
bias_filler {
type: "constant"
value: 0.1
}
}
}
layer {
name: "relu7"
type: "ReLU"
bottom: "fc7"
top: "fc7"
}
layer {
name: "drop7"
type: "Dropout"
bottom: "fc7"
top: "fc7"
dropout_param {
dropout_ratio: 0.5
}
}
layer {
name: "fc8"
type: "InnerProduct"
bottom: "fc7"
top: "fc8"
param {
lr_mult: 1
decay_mult: 1
}
param {
lr_mult: 2
decay_mult: 0
}
inner_product_param {
num_output: 196
weight_filler {
type: "gaussian"
std: 0.01
}
bias_filler {
type: "constant"
value: 0
}
}
}
layer {
name: "loss"
type: "SoftmaxWithLoss"
bottom: "fc8"
bottom: "label"
top: "loss"
}
I0428 17:05:03.073421  8468 layer_factory.hpp:77] Creating layer train-data
I0428 17:05:03.078701  8468 db_lmdb.cpp:35] Opened lmdb /mnt/bigdisk/DIGITS-MAN-3/digits/jobs/20210421-230320-902c/train_db
I0428 17:05:03.078907  8468 net.cpp:84] Creating Layer train-data
I0428 17:05:03.078924  8468 net.cpp:380] train-data -> data
I0428 17:05:03.078950  8468 net.cpp:380] train-data -> label
I0428 17:05:03.078964  8468 data_transformer.cpp:25] Loading mean file from: /mnt/bigdisk/DIGITS-MAN-3/digits/jobs/20210421-230320-902c/mean.binaryproto
I0428 17:05:03.086239  8468 data_layer.cpp:45] output data size: 128,3,227,227
I0428 17:05:03.269457  8468 net.cpp:122] Setting up train-data
I0428 17:05:03.269486  8468 net.cpp:129] Top shape: 128 3 227 227 (19787136)
I0428 17:05:03.269493  8468 net.cpp:129] Top shape: 128 (128)
I0428 17:05:03.269497  8468 net.cpp:137] Memory required for data: 79149056
I0428 17:05:03.269510  8468 layer_factory.hpp:77] Creating layer conv1
I0428 17:05:03.269533  8468 net.cpp:84] Creating Layer conv1
I0428 17:05:03.269541  8468 net.cpp:406] conv1 <- data
I0428 17:05:03.269556  8468 net.cpp:380] conv1 -> conv1
I0428 17:05:04.033461  8468 net.cpp:122] Setting up conv1
I0428 17:05:04.033485  8468 net.cpp:129] Top shape: 128 96 56 56 (38535168)
I0428 17:05:04.033490  8468 net.cpp:137] Memory required for data: 233289728
I0428 17:05:04.033512  8468 layer_factory.hpp:77] Creating layer relu1
I0428 17:05:04.033524  8468 net.cpp:84] Creating Layer relu1
I0428 17:05:04.033529  8468 net.cpp:406] relu1 <- conv1
I0428 17:05:04.033535  8468 net.cpp:367] relu1 -> conv1 (in-place)
I0428 17:05:04.033846  8468 net.cpp:122] Setting up relu1
I0428 17:05:04.033856  8468 net.cpp:129] Top shape: 128 96 56 56 (38535168)
I0428 17:05:04.033860  8468 net.cpp:137] Memory required for data: 387430400
I0428 17:05:04.033864  8468 layer_factory.hpp:77] Creating layer norm1
I0428 17:05:04.033874  8468 net.cpp:84] Creating Layer norm1
I0428 17:05:04.033877  8468 net.cpp:406] norm1 <- conv1
I0428 17:05:04.033905  8468 net.cpp:380] norm1 -> norm1
I0428 17:05:04.034390  8468 net.cpp:122] Setting up norm1
I0428 17:05:04.034401  8468 net.cpp:129] Top shape: 128 96 56 56 (38535168)
I0428 17:05:04.034405  8468 net.cpp:137] Memory required for data: 541571072
I0428 17:05:04.034409  8468 layer_factory.hpp:77] Creating layer pool1
I0428 17:05:04.034417  8468 net.cpp:84] Creating Layer pool1
I0428 17:05:04.034421  8468 net.cpp:406] pool1 <- norm1
I0428 17:05:04.034427  8468 net.cpp:380] pool1 -> pool1
I0428 17:05:04.034466  8468 net.cpp:122] Setting up pool1
I0428 17:05:04.034472  8468 net.cpp:129] Top shape: 128 96 28 28 (9633792)
I0428 17:05:04.034476  8468 net.cpp:137] Memory required for data: 580106240
I0428 17:05:04.034479  8468 layer_factory.hpp:77] Creating layer conv2
I0428 17:05:04.034489  8468 net.cpp:84] Creating Layer conv2
I0428 17:05:04.034493  8468 net.cpp:406] conv2 <- pool1
I0428 17:05:04.034498  8468 net.cpp:380] conv2 -> conv2
I0428 17:05:04.044618  8468 net.cpp:122] Setting up conv2
I0428 17:05:04.044638  8468 net.cpp:129] Top shape: 128 256 26 26 (22151168)
I0428 17:05:04.044642  8468 net.cpp:137] Memory required for data: 668710912
I0428 17:05:04.044653  8468 layer_factory.hpp:77] Creating layer relu2
I0428 17:05:04.044661  8468 net.cpp:84] Creating Layer relu2
I0428 17:05:04.044667  8468 net.cpp:406] relu2 <- conv2
I0428 17:05:04.044672  8468 net.cpp:367] relu2 -> conv2 (in-place)
I0428 17:05:04.045120  8468 net.cpp:122] Setting up relu2
I0428 17:05:04.045131  8468 net.cpp:129] Top shape: 128 256 26 26 (22151168)
I0428 17:05:04.045135  8468 net.cpp:137] Memory required for data: 757315584
I0428 17:05:04.045138  8468 layer_factory.hpp:77] Creating layer norm2
I0428 17:05:04.045146  8468 net.cpp:84] Creating Layer norm2
I0428 17:05:04.045150  8468 net.cpp:406] norm2 <- conv2
I0428 17:05:04.045156  8468 net.cpp:380] norm2 -> norm2
I0428 17:05:04.045470  8468 net.cpp:122] Setting up norm2
I0428 17:05:04.045480  8468 net.cpp:129] Top shape: 128 256 26 26 (22151168)
I0428 17:05:04.045483  8468 net.cpp:137] Memory required for data: 845920256
I0428 17:05:04.045487  8468 layer_factory.hpp:77] Creating layer pool2
I0428 17:05:04.045495  8468 net.cpp:84] Creating Layer pool2
I0428 17:05:04.045500  8468 net.cpp:406] pool2 <- norm2
I0428 17:05:04.045504  8468 net.cpp:380] pool2 -> pool2
I0428 17:05:04.045534  8468 net.cpp:122] Setting up pool2
I0428 17:05:04.045539  8468 net.cpp:129] Top shape: 128 256 13 13 (5537792)
I0428 17:05:04.045543  8468 net.cpp:137] Memory required for data: 868071424
I0428 17:05:04.045547  8468 layer_factory.hpp:77] Creating layer conv3
I0428 17:05:04.045557  8468 net.cpp:84] Creating Layer conv3
I0428 17:05:04.045560  8468 net.cpp:406] conv3 <- pool2
I0428 17:05:04.045565  8468 net.cpp:380] conv3 -> conv3
I0428 17:05:04.073928  8468 net.cpp:122] Setting up conv3
I0428 17:05:04.073949  8468 net.cpp:129] Top shape: 128 384 11 11 (5947392)
I0428 17:05:04.073953  8468 net.cpp:137] Memory required for data: 891860992
I0428 17:05:04.073966  8468 layer_factory.hpp:77] Creating layer relu3
I0428 17:05:04.073973  8468 net.cpp:84] Creating Layer relu3
I0428 17:05:04.073978  8468 net.cpp:406] relu3 <- conv3
I0428 17:05:04.073984  8468 net.cpp:367] relu3 -> conv3 (in-place)
I0428 17:05:04.074456  8468 net.cpp:122] Setting up relu3
I0428 17:05:04.074466  8468 net.cpp:129] Top shape: 128 384 11 11 (5947392)
I0428 17:05:04.074470  8468 net.cpp:137] Memory required for data: 915650560
I0428 17:05:04.074473  8468 layer_factory.hpp:77] Creating layer conv4
I0428 17:05:04.074486  8468 net.cpp:84] Creating Layer conv4
I0428 17:05:04.074489  8468 net.cpp:406] conv4 <- conv3
I0428 17:05:04.074496  8468 net.cpp:380] conv4 -> conv4
I0428 17:05:04.116331  8468 net.cpp:122] Setting up conv4
I0428 17:05:04.116351  8468 net.cpp:129] Top shape: 128 384 7 7 (2408448)
I0428 17:05:04.116356  8468 net.cpp:137] Memory required for data: 925284352
I0428 17:05:04.116366  8468 layer_factory.hpp:77] Creating layer relu4
I0428 17:05:04.116376  8468 net.cpp:84] Creating Layer relu4
I0428 17:05:04.116401  8468 net.cpp:406] relu4 <- conv4
I0428 17:05:04.116408  8468 net.cpp:367] relu4 -> conv4 (in-place)
I0428 17:05:04.116804  8468 net.cpp:122] Setting up relu4
I0428 17:05:04.116816  8468 net.cpp:129] Top shape: 128 384 7 7 (2408448)
I0428 17:05:04.116820  8468 net.cpp:137] Memory required for data: 934918144
I0428 17:05:04.116825  8468 layer_factory.hpp:77] Creating layer conv5
I0428 17:05:04.116837  8468 net.cpp:84] Creating Layer conv5
I0428 17:05:04.116842  8468 net.cpp:406] conv5 <- conv4
I0428 17:05:04.116848  8468 net.cpp:380] conv5 -> conv5
I0428 17:05:04.149544  8468 net.cpp:122] Setting up conv5
I0428 17:05:04.149565  8468 net.cpp:129] Top shape: 128 256 3 3 (294912)
I0428 17:05:04.149570  8468 net.cpp:137] Memory required for data: 936097792
I0428 17:05:04.149585  8468 layer_factory.hpp:77] Creating layer relu5
I0428 17:05:04.149595  8468 net.cpp:84] Creating Layer relu5
I0428 17:05:04.149600  8468 net.cpp:406] relu5 <- conv5
I0428 17:05:04.149608  8468 net.cpp:367] relu5 -> conv5 (in-place)
I0428 17:05:04.150146  8468 net.cpp:122] Setting up relu5
I0428 17:05:04.150156  8468 net.cpp:129] Top shape: 128 256 3 3 (294912)
I0428 17:05:04.150161  8468 net.cpp:137] Memory required for data: 937277440
I0428 17:05:04.150166  8468 layer_factory.hpp:77] Creating layer pool5
I0428 17:05:04.150175  8468 net.cpp:84] Creating Layer pool5
I0428 17:05:04.150179  8468 net.cpp:406] pool5 <- conv5
I0428 17:05:04.150185  8468 net.cpp:380] pool5 -> pool5
I0428 17:05:04.150225  8468 net.cpp:122] Setting up pool5
I0428 17:05:04.150233  8468 net.cpp:129] Top shape: 128 256 1 1 (32768)
I0428 17:05:04.150236  8468 net.cpp:137] Memory required for data: 937408512
I0428 17:05:04.150240  8468 layer_factory.hpp:77] Creating layer fc6
I0428 17:05:04.150251  8468 net.cpp:84] Creating Layer fc6
I0428 17:05:04.150255  8468 net.cpp:406] fc6 <- pool5
I0428 17:05:04.150264  8468 net.cpp:380] fc6 -> fc6
I0428 17:05:04.152822  8468 net.cpp:122] Setting up fc6
I0428 17:05:04.152829  8468 net.cpp:129] Top shape: 128 1024 (131072)
I0428 17:05:04.152833  8468 net.cpp:137] Memory required for data: 937932800
I0428 17:05:04.152840  8468 layer_factory.hpp:77] Creating layer relu6
I0428 17:05:04.152848  8468 net.cpp:84] Creating Layer relu6
I0428 17:05:04.152851  8468 net.cpp:406] relu6 <- fc6
I0428 17:05:04.152858  8468 net.cpp:367] relu6 -> fc6 (in-place)
I0428 17:05:04.153388  8468 net.cpp:122] Setting up relu6
I0428 17:05:04.153398  8468 net.cpp:129] Top shape: 128 1024 (131072)
I0428 17:05:04.153401  8468 net.cpp:137] Memory required for data: 938457088
I0428 17:05:04.153405  8468 layer_factory.hpp:77] Creating layer drop6
I0428 17:05:04.153412  8468 net.cpp:84] Creating Layer drop6
I0428 17:05:04.153417  8468 net.cpp:406] drop6 <- fc6
I0428 17:05:04.153424  8468 net.cpp:367] drop6 -> fc6 (in-place)
I0428 17:05:04.153450  8468 net.cpp:122] Setting up drop6
I0428 17:05:04.153458  8468 net.cpp:129] Top shape: 128 1024 (131072)
I0428 17:05:04.153462  8468 net.cpp:137] Memory required for data: 938981376
I0428 17:05:04.153466  8468 layer_factory.hpp:77] Creating layer fc7
I0428 17:05:04.153473  8468 net.cpp:84] Creating Layer fc7
I0428 17:05:04.153477  8468 net.cpp:406] fc7 <- fc6
I0428 17:05:04.153486  8468 net.cpp:380] fc7 -> fc7
I0428 17:05:04.164450  8468 net.cpp:122] Setting up fc7
I0428 17:05:04.164466  8468 net.cpp:129] Top shape: 128 1024 (131072)
I0428 17:05:04.164470  8468 net.cpp:137] Memory required for data: 939505664
I0428 17:05:04.164479  8468 layer_factory.hpp:77] Creating layer relu7
I0428 17:05:04.164508  8468 net.cpp:84] Creating Layer relu7
I0428 17:05:04.164515  8468 net.cpp:406] relu7 <- fc7
I0428 17:05:04.164521  8468 net.cpp:367] relu7 -> fc7 (in-place)
I0428 17:05:04.191749  8468 net.cpp:122] Setting up relu7
I0428 17:05:04.191767  8468 net.cpp:129] Top shape: 128 1024 (131072)
I0428 17:05:04.191771  8468 net.cpp:137] Memory required for data: 940029952
I0428 17:05:04.191776  8468 layer_factory.hpp:77] Creating layer drop7
I0428 17:05:04.191785  8468 net.cpp:84] Creating Layer drop7
I0428 17:05:04.191790  8468 net.cpp:406] drop7 <- fc7
I0428 17:05:04.191819  8468 net.cpp:367] drop7 -> fc7 (in-place)
I0428 17:05:04.191862  8468 net.cpp:122] Setting up drop7
I0428 17:05:04.191869  8468 net.cpp:129] Top shape: 128 1024 (131072)
I0428 17:05:04.191874  8468 net.cpp:137] Memory required for data: 940554240
I0428 17:05:04.191876  8468 layer_factory.hpp:77] Creating layer fc8
I0428 17:05:04.191884  8468 net.cpp:84] Creating Layer fc8
I0428 17:05:04.191888  8468 net.cpp:406] fc8 <- fc7
I0428 17:05:04.191895  8468 net.cpp:380] fc8 -> fc8
I0428 17:05:04.194640  8468 net.cpp:122] Setting up fc8
I0428 17:05:04.194651  8468 net.cpp:129] Top shape: 128 196 (25088)
I0428 17:05:04.194655  8468 net.cpp:137] Memory required for data: 940654592
I0428 17:05:04.194664  8468 layer_factory.hpp:77] Creating layer loss
I0428 17:05:04.194670  8468 net.cpp:84] Creating Layer loss
I0428 17:05:04.194674  8468 net.cpp:406] loss <- fc8
I0428 17:05:04.194679  8468 net.cpp:406] loss <- label
I0428 17:05:04.194686  8468 net.cpp:380] loss -> loss
I0428 17:05:04.194695  8468 layer_factory.hpp:77] Creating layer loss
…
I0428 17:05:04.196076  8468 net.cpp:294] The NetState phase (1) differed from the phase (0) specified by a rule in layer train-data
I0428 17:05:04.196228  8468 net.cpp:51] Initializing net from parameters:
state {
phase: TEST
}
layer {
name: "val-data"
type: "Data"
top: "data"
top: "label"
include {
phase: TEST
}
transform_param {
crop_size: 227
mean_file: "/mnt/bigdisk/DIGITS-MAN-3/digits/jobs/20210421-230320-902c/mean.binaryproto"
}
data_param {
source: "/mnt/bigdisk/DIGITS-MAN-3/digits/jobs/20210421-230320-902c/val_db"
batch_size: 32
backend: LMDB
}
}
layer {
name: "conv1"
type: "Convolution"
bottom: "data"
top: "conv1"
param {
lr_mult: 1
decay_mult: 1
}
param {
lr_mult: 2
decay_mult: 0
}
convolution_param {
num_output: 96
kernel_size: 7
stride: 4
weight_filler {
type: "gaussian"
std: 0.01
}
bias_filler {
type: "constant"
value: 0
}
}
}
layer {
name: "relu1"
type: "ReLU"
bottom: "conv1"
top: "conv1"
}
layer {
name: "norm1"
type: "LRN"
bottom: "conv1"
top: "norm1"
lrn_param {
local_size: 5
alpha: 0.0001
beta: 0.75
}
}
layer {
name: "pool1"
type: "Pooling"
bottom: "norm1"
top: "pool1"
pooling_param {
pool: MAX
kernel_size: 3
stride: 2
}
}
layer {
name: "conv2"
type: "Convolution"
bottom: "pool1"
top: "conv2"
param {
lr_mult: 1
decay_mult: 1
}
param {
lr_mult: 2
decay_mult: 0
}
convolution_param {
num_output: 256
pad: 2
kernel_size: 7
group: 2
weight_filler {
type: "gaussian"
std: 0.01
}
bias_filler {
type: "constant"
value: 0.1
}
}
}
layer {
name: "relu2"
type: "ReLU"
bottom: "conv2"
top: "conv2"
}
layer {
name: "norm2"
type: "LRN"
bottom: "conv2"
top: "norm2"
lrn_param {
local_size: 5
alpha: 0.0001
beta: 0.75
}
}
layer {
name: "pool2"
type: "Pooling"
bottom: "norm2"
top: "pool2"
pooling_param {
pool: MAX
kernel_size: 3
stride: 2
}
}
layer {
name: "conv3"
type: "Convolution"
bottom: "pool2"
top: "conv3"
param {
lr_mult: 1
decay_mult: 1
}
param {
lr_mult: 2
decay_mult: 0
}
convolution_param {
num_output: 384
pad: 1
kernel_size: 5
weight_filler {
type: "gaussian"
std: 0.01
}
bias_filler {
type: "constant"
value: 0
}
}
}
layer {
name: "relu3"
type: "ReLU"
bottom: "conv3"
top: "conv3"
}
layer {
name: "conv4"
type: "Convolution"
bottom: "conv3"
top: "conv4"
param {
lr_mult: 1
decay_mult: 1
}
param {
lr_mult: 2
decay_mult: 0
}
convolution_param {
num_output: 384
pad: 1
kernel_size: 7
group: 2
weight_filler {
type: "gaussian"
std: 0.01
}
bias_filler {
type: "constant"
value: 0.1
}
}
}
layer {
name: "relu4"
type: "ReLU"
bottom: "conv4"
top: "conv4"
}
layer {
name: "conv5"
type: "Convolution"
bottom: "conv4"
top: "conv5"
param {
lr_mult: 1
decay_mult: 1
}
param {
lr_mult: 2
decay_mult: 0
}
convolution_param {
num_output: 256
pad: 1
kernel_size: 7
group: 2
weight_filler {
type: "gaussian"
std: 0.01
}
bias_filler {
type: "constant"
value: 0.1
}
}
}
layer {
name: "relu5"
type: "ReLU"
bottom: "conv5"
top: "conv5"
}
layer {
name: "pool5"
type: "Pooling"
bottom: "conv5"
top: "pool5"
pooling_param {
pool: MAX
kernel_size: 3
stride: 2
}
}
layer {
name: "fc6"
type: "InnerProduct"
bottom: "pool5"
top: "fc6"
param {
lr_mult: 1
decay_mult: 1
}
param {
lr_mult: 2
decay_mult: 0
}
inner_product_param {
num_output: 1024
weight_filler {
type: "gaussian"
std: 0.005
}
bias_filler {
type: "constant"
value: 0.1
}
}
}
layer {
name: "relu6"
type: "ReLU"
bottom: "fc6"
top: "fc6"
}
layer {
name: "drop6"
type: "Dropout"
bottom: "fc6"
top: "fc6"
dropout_param {
dropout_ratio: 0.5
}
}
layer {
name: "fc7"
type: "InnerProduct"
bottom: "fc6"
top: "fc7"
param {
lr_mult: 1
decay_mult: 1
}
param {
lr_mult: 2
decay_mult: 0
}
inner_product_param {
num_output: 1024
weight_filler {
type: "gaussian"
std: 0.005
}
bias_filler {
type: "constant"
value: 0.1
}
}
}
layer {
name: "relu7"
type: "ReLU"
bottom: "fc7"
top: "fc7"
}
layer {
name: "drop7"
type: "Dropout"
bottom: "fc7"
top: "fc7"
dropout_param {
dropout_ratio: 0.5
}
}
layer {
name: "fc8"
type: "InnerProduct"
bottom: "fc7"
top: "fc8"
param {
lr_mult: 1
decay_mult: 1
}
param {
lr_mult: 2
decay_mult: 0
}
inner_product_param {
num_output: 196
weight_filler {
type: "gaussian"
std: 0.01
}
bias_filler {
type: "constant"
value: 0
}
}
}
layer {
name: "accuracy"
type: "Accuracy"
bottom: "fc8"
bottom: "label"
top: "accuracy"
include {
phase: TEST
}
}
layer {
name: "loss"
type: "SoftmaxWithLoss"
bottom: "fc8"
bottom: "label"
top: "loss"
}
I0428 17:05:04.196333  8468 layer_factory.hpp:77] Creating layer val-data
I0428 17:05:04.197921  8468 db_lmdb.cpp:35] Opened lmdb /mnt/bigdisk/DIGITS-MAN-3/digits/jobs/20210421-230320-902c/val_db
I0428 17:05:04.198091  8468 net.cpp:84] Creating Layer val-data
I0428 17:05:04.198101  8468 net.cpp:380] val-data -> data
I0428 17:05:04.198110  8468 net.cpp:380] val-data -> label
I0428 17:05:04.198117  8468 data_transformer.cpp:25] Loading mean file from: /mnt/bigdisk/DIGITS-MAN-3/digits/jobs/20210421-230320-902c/mean.binaryproto
I0428 17:05:04.201850  8468 data_layer.cpp:45] output data size: 32,3,227,227
I0428 17:05:04.247722  8468 net.cpp:122] Setting up val-data
I0428 17:05:04.247745  8468 net.cpp:129] Top shape: 32 3 227 227 (4946784)
I0428 17:05:04.247750  8468 net.cpp:129] Top shape: 32 (32)
I0428 17:05:04.247754  8468 net.cpp:137] Memory required for data: 19787264
I0428 17:05:04.247761  8468 layer_factory.hpp:77] Creating layer label_val-data_1_split
I0428 17:05:04.247774  8468 net.cpp:84] Creating Layer label_val-data_1_split
I0428 17:05:04.247778  8468 net.cpp:406] label_val-data_1_split <- label
I0428 17:05:04.247786  8468 net.cpp:380] label_val-data_1_split -> label_val-data_1_split_0
I0428 17:05:04.247797  8468 net.cpp:380] label_val-data_1_split -> label_val-data_1_split_1
I0428 17:05:04.247851  8468 net.cpp:122] Setting up label_val-data_1_split
I0428 17:05:04.247857  8468 net.cpp:129] Top shape: 32 (32)
I0428 17:05:04.247860  8468 net.cpp:129] Top shape: 32 (32)
I0428 17:05:04.247864  8468 net.cpp:137] Memory required for data: 19787520
I0428 17:05:04.247867  8468 layer_factory.hpp:77] Creating layer conv1
I0428 17:05:04.247879  8468 net.cpp:84] Creating Layer conv1
I0428 17:05:04.247884  8468 net.cpp:406] conv1 <- data
I0428 17:05:04.247889  8468 net.cpp:380] conv1 -> conv1
I0428 17:05:04.254287  8468 net.cpp:122] Setting up conv1
I0428 17:05:04.254302  8468 net.cpp:129] Top shape: 32 96 56 56 (9633792)
I0428 17:05:04.254307  8468 net.cpp:137] Memory required for data: 58322688
I0428 17:05:04.254317  8468 layer_factory.hpp:77] Creating layer relu1
I0428 17:05:04.254325  8468 net.cpp:84] Creating Layer relu1
I0428 17:05:04.254329  8468 net.cpp:406] relu1 <- conv1
I0428 17:05:04.254334  8468 net.cpp:367] relu1 -> conv1 (in-place)
I0428 17:05:04.254647  8468 net.cpp:122] Setting up relu1
I0428 17:05:04.254655  8468 net.cpp:129] Top shape: 32 96 56 56 (9633792)
I0428 17:05:04.254659  8468 net.cpp:137] Memory required for data: 96857856
I0428 17:05:04.254663  8468 layer_factory.hpp:77] Creating layer norm1
I0428 17:05:04.254673  8468 net.cpp:84] Creating Layer norm1
I0428 17:05:04.254675  8468 net.cpp:406] norm1 <- conv1
I0428 17:05:04.254681  8468 net.cpp:380] norm1 -> norm1
I0428 17:05:04.255165  8468 net.cpp:122] Setting up norm1
I0428 17:05:04.255175  8468 net.cpp:129] Top shape: 32 96 56 56 (9633792)
I0428 17:05:04.255179  8468 net.cpp:137] Memory required for data: 135393024
I0428 17:05:04.255183  8468 layer_factory.hpp:77] Creating layer pool1
I0428 17:05:04.255190  8468 net.cpp:84] Creating Layer pool1
I0428 17:05:04.255194  8468 net.cpp:406] pool1 <- norm1
I0428 17:05:04.255199  8468 net.cpp:380] pool1 -> pool1
I0428 17:05:04.255232  8468 net.cpp:122] Setting up pool1
I0428 17:05:04.255239  8468 net.cpp:129] Top shape: 32 96 28 28 (2408448)
I0428 17:05:04.255241  8468 net.cpp:137] Memory required for data: 145026816
I0428 17:05:04.255245  8468 layer_factory.hpp:77] Creating layer conv2
I0428 17:05:04.255254  8468 net.cpp:84] Creating Layer conv2
I0428 17:05:04.255257  8468 net.cpp:406] conv2 <- pool1
I0428 17:05:04.255287  8468 net.cpp:380] conv2 -> conv2
I0428 17:05:04.267192  8468 net.cpp:122] Setting up conv2
I0428 17:05:04.267213  8468 net.cpp:129] Top shape: 32 256 26 26 (5537792)
I0428 17:05:04.267217  8468 net.cpp:137] Memory required for data: 167177984
I0428 17:05:04.267230  8468 layer_factory.hpp:77] Creating layer relu2
I0428 17:05:04.267239  8468 net.cpp:84] Creating Layer relu2
I0428 17:05:04.267243  8468 net.cpp:406] relu2 <- conv2
I0428 17:05:04.267249  8468 net.cpp:367] relu2 -> conv2 (in-place)
I0428 17:05:04.267784  8468 net.cpp:122] Setting up relu2
I0428 17:05:04.267794  8468 net.cpp:129] Top shape: 32 256 26 26 (5537792)
I0428 17:05:04.267797  8468 net.cpp:137] Memory required for data: 189329152
I0428 17:05:04.267802  8468 layer_factory.hpp:77] Creating layer norm2
I0428 17:05:04.267812  8468 net.cpp:84] Creating Layer norm2
I0428 17:05:04.267817  8468 net.cpp:406] norm2 <- conv2
I0428 17:05:04.267822  8468 net.cpp:380] norm2 -> norm2
I0428 17:05:04.268384  8468 net.cpp:122] Setting up norm2
I0428 17:05:04.268394  8468 net.cpp:129] Top shape: 32 256 26 26 (5537792)
I0428 17:05:04.268399  8468 net.cpp:137] Memory required for data: 211480320
I0428 17:05:04.268402  8468 layer_factory.hpp:77] Creating layer pool2
I0428 17:05:04.268409  8468 net.cpp:84] Creating Layer pool2
I0428 17:05:04.268414  8468 net.cpp:406] pool2 <- norm2
I0428 17:05:04.268420  8468 net.cpp:380] pool2 -> pool2
I0428 17:05:04.268452  8468 net.cpp:122] Setting up pool2
I0428 17:05:04.268460  8468 net.cpp:129] Top shape: 32 256 13 13 (1384448)
I0428 17:05:04.268463  8468 net.cpp:137] Memory required for data: 217018112
I0428 17:05:04.268466  8468 layer_factory.hpp:77] Creating layer conv3
I0428 17:05:04.268478  8468 net.cpp:84] Creating Layer conv3
I0428 17:05:04.268482  8468 net.cpp:406] conv3 <- pool2
I0428 17:05:04.268515  8468 net.cpp:380] conv3 -> conv3
I0428 17:05:04.297034  8468 net.cpp:122] Setting up conv3
I0428 17:05:04.297055  8468 net.cpp:129] Top shape: 32 384 11 11 (1486848)
I0428 17:05:04.297060  8468 net.cpp:137] Memory required for data: 222965504
I0428 17:05:04.297071  8468 layer_factory.hpp:77] Creating layer relu3
I0428 17:05:04.297083  8468 net.cpp:84] Creating Layer relu3
I0428 17:05:04.297088  8468 net.cpp:406] relu3 <- conv3
I0428 17:05:04.297096  8468 net.cpp:367] relu3 -> conv3 (in-place)
I0428 17:05:04.297641  8468 net.cpp:122] Setting up relu3
I0428 17:05:04.297652  8468 net.cpp:129] Top shape: 32 384 11 11 (1486848)
I0428 17:05:04.297655  8468 net.cpp:137] Memory required for data: 228912896
I0428 17:05:04.297659  8468 layer_factory.hpp:77] Creating layer conv4
I0428 17:05:04.297672  8468 net.cpp:84] Creating Layer conv4
I0428 17:05:04.297677  8468 net.cpp:406] conv4 <- conv3
I0428 17:05:04.297684  8468 net.cpp:380] conv4 -> conv4
I0428 17:05:04.338552  8468 net.cpp:122] Setting up conv4
I0428 17:05:04.338572  8468 net.cpp:129] Top shape: 32 384 7 7 (602112)
I0428 17:05:04.338577  8468 net.cpp:137] Memory required for data: 231321344
I0428 17:05:04.338587  8468 layer_factory.hpp:77] Creating layer relu4
I0428 17:05:04.338595  8468 net.cpp:84] Creating Layer relu4
I0428 17:05:04.338601  8468 net.cpp:406] relu4 <- conv4
I0428 17:05:04.338611  8468 net.cpp:367] relu4 -> conv4 (in-place)
I0428 17:05:04.339000  8468 net.cpp:122] Setting up relu4
I0428 17:05:04.339010  8468 net.cpp:129] Top shape: 32 384 7 7 (602112)
I0428 17:05:04.339015  8468 net.cpp:137] Memory required for data: 233729792
I0428 17:05:04.339020  8468 layer_factory.hpp:77] Creating layer conv5
I0428 17:05:04.339031  8468 net.cpp:84] Creating Layer conv5
I0428 17:05:04.339035  8468 net.cpp:406] conv5 <- conv4
I0428 17:05:04.339042  8468 net.cpp:380] conv5 -> conv5
I0428 17:05:04.369298  8468 net.cpp:122] Setting up conv5
I0428 17:05:04.369318  8468 net.cpp:129] Top shape: 32 256 3 3 (73728)
I0428 17:05:04.369323  8468 net.cpp:137] Memory required for data: 234024704
I0428 17:05:04.369339  8468 layer_factory.hpp:77] Creating layer relu5
I0428 17:05:04.369350  8468 net.cpp:84] Creating Layer relu5
I0428 17:05:04.369356  8468 net.cpp:406] relu5 <- conv5
I0428 17:05:04.369385  8468 net.cpp:367] relu5 -> conv5 (in-place)
I0428 17:05:04.371474  8468 net.cpp:122] Setting up relu5
I0428 17:05:04.371484  8468 net.cpp:129] Top shape: 32 256 3 3 (73728)
I0428 17:05:04.371490  8468 net.cpp:137] Memory required for data: 234319616
I0428 17:05:04.371496  8468 layer_factory.hpp:77] Creating layer pool5
I0428 17:05:04.371507  8468 net.cpp:84] Creating Layer pool5
I0428 17:05:04.371512  8468 net.cpp:406] pool5 <- conv5
I0428 17:05:04.371521  8468 net.cpp:380] pool5 -> pool5
I0428 17:05:04.371563  8468 net.cpp:122] Setting up pool5
I0428 17:05:04.371570  8468 net.cpp:129] Top shape: 32 256 1 1 (8192)
I0428 17:05:04.371574  8468 net.cpp:137] Memory required for data: 234352384
I0428 17:05:04.371579  8468 layer_factory.hpp:77] Creating layer fc6
I0428 17:05:04.371588  8468 net.cpp:84] Creating Layer fc6
I0428 17:05:04.371592  8468 net.cpp:406] fc6 <- pool5
I0428 17:05:04.371600  8468 net.cpp:380] fc6 -> fc6
I0428 17:05:04.374823  8468 net.cpp:122] Setting up fc6
I0428 17:05:04.374835  8468 net.cpp:129] Top shape: 32 1024 (32768)
I0428 17:05:04.374840  8468 net.cpp:137] Memory required for data: 234483456
I0428 17:05:04.374850  8468 layer_factory.hpp:77] Creating layer relu6
I0428 17:05:04.374857  8468 net.cpp:84] Creating Layer relu6
I0428 17:05:04.374863  8468 net.cpp:406] relu6 <- fc6
I0428 17:05:04.374869  8468 net.cpp:367] relu6 -> fc6 (in-place)
I0428 17:05:04.376003  8468 net.cpp:122] Setting up relu6
I0428 17:05:04.376014  8468 net.cpp:129] Top shape: 32 1024 (32768)
I0428 17:05:04.376019  8468 net.cpp:137] Memory required for data: 234614528
I0428 17:05:04.376024  8468 layer_factory.hpp:77] Creating layer drop6
I0428 17:05:04.376034  8468 net.cpp:84] Creating Layer drop6
I0428 17:05:04.376039  8468 net.cpp:406] drop6 <- fc6
I0428 17:05:04.376045  8468 net.cpp:367] drop6 -> fc6 (in-place)
I0428 17:05:04.376073  8468 net.cpp:122] Setting up drop6
I0428 17:05:04.376080  8468 net.cpp:129] Top shape: 32 1024 (32768)
I0428 17:05:04.376083  8468 net.cpp:137] Memory required for data: 234745600
I0428 17:05:04.376088  8468 layer_factory.hpp:77] Creating layer fc7
I0428 17:05:04.376096  8468 net.cpp:84] Creating Layer fc7
I0428 17:05:04.376101  8468 net.cpp:406] fc7 <- fc6
I0428 17:05:04.376108  8468 net.cpp:380] fc7 -> fc7
I0428 17:05:04.388618  8468 net.cpp:122] Setting up fc7
I0428 17:05:04.388635  8468 net.cpp:129] Top shape: 32 1024 (32768)
I0428 17:05:04.388639  8468 net.cpp:137] Memory required for data: 234876672
I0428 17:05:04.388648  8468 layer_factory.hpp:77] Creating layer relu7
I0428 17:05:04.388657  8468 net.cpp:84] Creating Layer relu7
I0428 17:05:04.388662  8468 net.cpp:406] relu7 <- fc7
I0428 17:05:04.388670  8468 net.cpp:367] relu7 -> fc7 (in-place)
I0428 17:05:04.389096  8468 net.cpp:122] Setting up relu7
I0428 17:05:04.389106  8468 net.cpp:129] Top shape: 32 1024 (32768)
I0428 17:05:04.389109  8468 net.cpp:137] Memory required for data: 235007744
I0428 17:05:04.389115  8468 layer_factory.hpp:77] Creating layer drop7
I0428 17:05:04.389122  8468 net.cpp:84] Creating Layer drop7
I0428 17:05:04.389127  8468 net.cpp:406] drop7 <- fc7
I0428 17:05:04.389134  8468 net.cpp:367] drop7 -> fc7 (in-place)
I0428 17:05:04.389160  8468 net.cpp:122] Setting up drop7
I0428 17:05:04.389168  8468 net.cpp:129] Top shape: 32 1024 (32768)
I0428 17:05:04.389173  8468 net.cpp:137] Memory required for data: 235138816
I0428 17:05:04.389178  8468 layer_factory.hpp:77] Creating layer fc8
I0428 17:05:04.389184  8468 net.cpp:84] Creating Layer fc8
I0428 17:05:04.389189  8468 net.cpp:406] fc8 <- fc7
I0428 17:05:04.389195  8468 net.cpp:380] fc8 -> fc8
I0428 17:05:04.391175  8468 net.cpp:122] Setting up fc8
I0428 17:05:04.391182  8468 net.cpp:129] Top shape: 32 196 (6272)
I0428 17:05:04.391186  8468 net.cpp:137] Memory required for data: 235163904
I0428 17:05:04.391193  8468 layer_factory.hpp:77] Creating layer fc8_fc8_0_split
I0428 17:05:04.391201  8468 net.cpp:84] Creating Layer fc8_fc8_0_split
I0428 17:05:04.391206  8468 net.cpp:406] fc8_fc8_0_split <- fc8
I0428 17:05:04.391211  8468 net.cpp:380] fc8_fc8_0_split -> fc8_fc8_0_split_0
I0428 17:05:04.391243  8468 net.cpp:380] fc8_fc8_0_split -> fc8_fc8_0_split_1
I0428 17:05:04.391281  8468 net.cpp:122] Setting up fc8_fc8_0_split
I0428 17:05:04.391288  8468 net.cpp:129] Top shape: 32 196 (6272)
I0428 17:05:04.391291  8468 net.cpp:129] Top shape: 32 196 (6272)
I0428 17:05:04.391295  8468 net.cpp:137] Memory required for data: 235214080
I0428 17:05:04.391299  8468 layer_factory.hpp:77] Creating layer accuracy
I0428 17:05:04.391309  8468 net.cpp:84] Creating Layer accuracy
I0428 17:05:04.391312  8468 net.cpp:406] accuracy <- fc8_fc8_0_split_0
I0428 17:05:04.391319  8468 net.cpp:406] accuracy <- label_val-data_1_split_0
I0428 17:05:04.391324  8468 net.cpp:380] accuracy -> accuracy
…
