…
I0410 01:57:47.618155 27877 net.cpp:294] The NetState phase (0) differed from the phase (1) specified by a rule in layer accuracy
I0410 01:57:47.618561 27877 net.cpp:51] Initializing net from parameters:
state {
phase: TRAIN
level: 0
stage: ""
}
layer {
name: "train-data"
type: "Data"
top: "data"
top: "label"
include {
phase: TRAIN
}
transform_param {
mirror: true
crop_size: 227
mean_file: "/mnt/bigdisk/DIGITS-MAN-2/digits/jobs/20210407-214532-d396/mean.binaryproto"
}
data_param {
source: "/mnt/bigdisk/DIGITS-MAN-2/digits/jobs/20210407-214532-d396/train_db"
batch_size: 128
backend: LMDB
}
}
layer {
name: "conv1"
type: "Convolution"
bottom: "data"
top: "conv1"
param {
lr_mult: 1
decay_mult: 1
}
param {
lr_mult: 2
decay_mult: 0
}
convolution_param {
num_output: 96
kernel_size: 11
stride: 4
weight_filler {
type: "gaussian"
std: 0.01
}
bias_filler {
type: "constant"
value: 0
}
}
}
layer {
name: "relu1"
type: "ReLU"
bottom: "conv1"
top: "conv1"
}
layer {
name: "norm1"
type: "LRN"
bottom: "conv1"
top: "norm1"
lrn_param {
local_size: 5
alpha: 0.0001
beta: 0.75
}
}
layer {
name: "pool1"
type: "Pooling"
bottom: "norm1"
top: "pool1"
pooling_param {
pool: MAX
kernel_size: 3
stride: 2
}
}
layer {
name: "conv2"
type: "Convolution"
bottom: "pool1"
top: "conv2"
param {
lr_mult: 1
decay_mult: 1
}
param {
lr_mult: 2
decay_mult: 0
}
convolution_param {
num_output: 256
pad: 2
kernel_size: 5
group: 2
weight_filler {
type: "gaussian"
std: 0.01
}
bias_filler {
type: "constant"
value: 0.1
}
}
}
layer {
name: "relu2"
type: "ReLU"
bottom: "conv2"
top: "conv2"
}
layer {
name: "norm2"
type: "LRN"
bottom: "conv2"
top: "norm2"
lrn_param {
local_size: 5
alpha: 0.0001
beta: 0.75
}
}
layer {
name: "pool2"
type: "Pooling"
bottom: "norm2"
top: "pool2"
pooling_param {
pool: MAX
kernel_size: 3
stride: 2
}
}
layer {
name: "conv3"
type: "Convolution"
bottom: "pool2"
top: "conv3"
param {
lr_mult: 1
decay_mult: 1
}
param {
lr_mult: 2
decay_mult: 0
}
convolution_param {
num_output: 384
pad: 1
kernel_size: 3
weight_filler {
type: "gaussian"
std: 0.01
}
bias_filler {
type: "constant"
value: 0
}
}
}
layer {
name: "relu3"
type: "ReLU"
bottom: "conv3"
top: "conv3"
}
layer {
name: "conv4"
type: "Convolution"
bottom: "conv3"
top: "conv4"
param {
lr_mult: 1
decay_mult: 1
}
param {
lr_mult: 2
decay_mult: 0
}
convolution_param {
num_output: 384
pad: 1
kernel_size: 3
group: 2
weight_filler {
type: "gaussian"
std: 0.01
}
bias_filler {
type: "constant"
value: 0.1
}
}
}
layer {
name: "relu4"
type: "ReLU"
bottom: "conv4"
top: "conv4"
}
layer {
name: "conv5"
type: "Convolution"
bottom: "conv4"
top: "conv5"
param {
lr_mult: 1
decay_mult: 1
}
param {
lr_mult: 2
decay_mult: 0
}
convolution_param {
num_output: 256
pad: 1
kernel_size: 3
group: 2
weight_filler {
type: "gaussian"
std: 0.01
}
bias_filler {
type: "constant"
value: 0.1
}
}
}
layer {
name: "relu5"
type: "ReLU"
bottom: "conv5"
top: "conv5"
}
layer {
name: "pool5"
type: "Pooling"
bottom: "conv5"
top: "pool5"
pooling_param {
pool: MAX
kernel_size: 3
stride: 2
}
}
layer {
name: "fc6"
type: "InnerProduct"
bottom: "pool5"
top: "fc6"
param {
lr_mult: 1
decay_mult: 1
}
param {
lr_mult: 2
decay_mult: 0
}
inner_product_param {
num_output: 1024
weight_filler {
type: "gaussian"
std: 0.005
}
bias_filler {
type: "constant"
value: 0.1
}
}
}
layer {
name: "relu6"
type: "ReLU"
bottom: "fc6"
top: "fc6"
}
layer {
name: "drop6"
type: "Dropout"
bottom: "fc6"
top: "fc6"
dropout_param {
dropout_ratio: 0.5
}
}
layer {
name: "fc7"
type: "InnerProduct"
bottom: "fc6"
top: "fc7"
param {
lr_mult: 1
decay_mult: 1
}
param {
lr_mult: 2
decay_mult: 0
}
inner_product_param {
num_output: 1024
weight_filler {
type: "gaussian"
std: 0.005
}
bias_filler {
type: "constant"
value: 0.1
}
}
}
layer {
name: "relu7"
type: "ReLU"
bottom: "fc7"
top: "fc7"
}
layer {
name: "drop7"
type: "Dropout"
bottom: "fc7"
top: "fc7"
dropout_param {
dropout_ratio: 0.5
}
}
layer {
name: "fc7.5"
type: "InnerProduct"
bottom: "fc7"
top: "fc7.5"
param {
lr_mult: 1
decay_mult: 1
}
param {
lr_mult: 2
decay_mult: 0
}
inner_product_param {
num_output: 1024
weight_filler {
type: "gaussian"
std: 0.005
}
bias_filler {
type: "constant"
value: 0.1
}
}
}
layer {
name: "relu7.5"
type: "ReLU"
bottom: "fc7.5"
top: "fc7.5"
}
layer {
name: "drop7.5"
type: "Dropout"
bottom: "fc7.5"
top: "fc7.5"
dropout_param {
dropout_ratio: 0.5
}
}
layer {
name: "fc7.6"
type: "InnerProduct"
bottom: "fc7.5"
top: "fc7.6"
param {
lr_mult: 1
decay_mult: 1
}
param {
lr_mult: 2
decay_mult: 0
}
inner_product_param {
num_output: 1024
weight_filler {
type: "gaussian"
std: 0.005
}
bias_filler {
type: "constant"
value: 0.1
}
}
}
layer {
name: "relu7.6"
type: "ReLU"
bottom: "fc7.6"
top: "fc7.6"
}
layer {
name: "drop7.6"
type: "Dropout"
bottom: "fc7.6"
top: "fc7.6"
dropout_param {
dropout_ratio: 0.5
}
}
layer {
name: "fc8"
type: "InnerProduct"
bottom: "fc7.6"
top: "fc8"
param {
lr_mult: 1
decay_mult: 1
}
param {
lr_mult: 2
decay_mult: 0
}
inner_product_param {
num_output: 196
weight_filler {
type: "gaussian"
std: 0.01
}
bias_filler {
type: "constant"
value: 0
}
}
}
layer {
name: "loss"
type: "SoftmaxWithLoss"
bottom: "fc8"
bottom: "label"
top: "loss"
}
I0410 01:57:47.618765 27877 layer_factory.hpp:77] Creating layer train-data
I0410 01:57:47.849860 27877 db_lmdb.cpp:35] Opened lmdb /mnt/bigdisk/DIGITS-MAN-2/digits/jobs/20210407-214532-d396/train_db
I0410 01:57:47.850440 27877 net.cpp:84] Creating Layer train-data
I0410 01:57:47.850466 27877 net.cpp:380] train-data -> data
I0410 01:57:47.850503 27877 net.cpp:380] train-data -> label
I0410 01:57:47.850524 27877 data_transformer.cpp:25] Loading mean file from: /mnt/bigdisk/DIGITS-MAN-2/digits/jobs/20210407-214532-d396/mean.binaryproto
I0410 01:57:47.916616 27877 data_layer.cpp:45] output data size: 128,3,227,227
I0410 01:57:48.087420 27877 net.cpp:122] Setting up train-data
I0410 01:57:48.087445 27877 net.cpp:129] Top shape: 128 3 227 227 (19787136)
I0410 01:57:48.087452 27877 net.cpp:129] Top shape: 128 (128)
I0410 01:57:48.087456 27877 net.cpp:137] Memory required for data: 79149056
I0410 01:57:48.087487 27877 layer_factory.hpp:77] Creating layer conv1
I0410 01:57:48.087512 27877 net.cpp:84] Creating Layer conv1
I0410 01:57:48.087518 27877 net.cpp:406] conv1 <- data
I0410 01:57:48.087532 27877 net.cpp:380] conv1 -> conv1
I0410 01:57:48.668146 27877 net.cpp:122] Setting up conv1
I0410 01:57:48.668169 27877 net.cpp:129] Top shape: 128 96 55 55 (37171200)
I0410 01:57:48.668174 27877 net.cpp:137] Memory required for data: 227833856
I0410 01:57:48.668195 27877 layer_factory.hpp:77] Creating layer relu1
I0410 01:57:48.668205 27877 net.cpp:84] Creating Layer relu1
I0410 01:57:48.668210 27877 net.cpp:406] relu1 <- conv1
I0410 01:57:48.668216 27877 net.cpp:367] relu1 -> conv1 (in-place)
I0410 01:57:48.668534 27877 net.cpp:122] Setting up relu1
I0410 01:57:48.668543 27877 net.cpp:129] Top shape: 128 96 55 55 (37171200)
I0410 01:57:48.668546 27877 net.cpp:137] Memory required for data: 376518656
I0410 01:57:48.668551 27877 layer_factory.hpp:77] Creating layer norm1
I0410 01:57:48.668560 27877 net.cpp:84] Creating Layer norm1
I0410 01:57:48.668565 27877 net.cpp:406] norm1 <- conv1
I0410 01:57:48.668571 27877 net.cpp:380] norm1 -> norm1
I0410 01:57:48.669049 27877 net.cpp:122] Setting up norm1
I0410 01:57:48.669060 27877 net.cpp:129] Top shape: 128 96 55 55 (37171200)
I0410 01:57:48.669064 27877 net.cpp:137] Memory required for data: 525203456
I0410 01:57:48.669068 27877 layer_factory.hpp:77] Creating layer pool1
I0410 01:57:48.669076 27877 net.cpp:84] Creating Layer pool1
I0410 01:57:48.669080 27877 net.cpp:406] pool1 <- norm1
I0410 01:57:48.669087 27877 net.cpp:380] pool1 -> pool1
I0410 01:57:48.669126 27877 net.cpp:122] Setting up pool1
I0410 01:57:48.669132 27877 net.cpp:129] Top shape: 128 96 27 27 (8957952)
I0410 01:57:48.669137 27877 net.cpp:137] Memory required for data: 561035264
I0410 01:57:48.669139 27877 layer_factory.hpp:77] Creating layer conv2
I0410 01:57:48.669149 27877 net.cpp:84] Creating Layer conv2
I0410 01:57:48.669153 27877 net.cpp:406] conv2 <- pool1
I0410 01:57:48.669159 27877 net.cpp:380] conv2 -> conv2
I0410 01:57:48.676323 27877 net.cpp:122] Setting up conv2
I0410 01:57:48.676339 27877 net.cpp:129] Top shape: 128 256 27 27 (23887872)
I0410 01:57:48.676343 27877 net.cpp:137] Memory required for data: 656586752
I0410 01:57:48.676354 27877 layer_factory.hpp:77] Creating layer relu2
I0410 01:57:48.676362 27877 net.cpp:84] Creating Layer relu2
I0410 01:57:48.676365 27877 net.cpp:406] relu2 <- conv2
I0410 01:57:48.676371 27877 net.cpp:367] relu2 -> conv2 (in-place)
I0410 01:57:48.676820 27877 net.cpp:122] Setting up relu2
I0410 01:57:48.676831 27877 net.cpp:129] Top shape: 128 256 27 27 (23887872)
I0410 01:57:48.676834 27877 net.cpp:137] Memory required for data: 752138240
I0410 01:57:48.676838 27877 layer_factory.hpp:77] Creating layer norm2
I0410 01:57:48.676847 27877 net.cpp:84] Creating Layer norm2
I0410 01:57:48.676851 27877 net.cpp:406] norm2 <- conv2
I0410 01:57:48.676857 27877 net.cpp:380] norm2 -> norm2
I0410 01:57:48.677171 27877 net.cpp:122] Setting up norm2
I0410 01:57:48.677181 27877 net.cpp:129] Top shape: 128 256 27 27 (23887872)
I0410 01:57:48.677184 27877 net.cpp:137] Memory required for data: 847689728
I0410 01:57:48.677188 27877 layer_factory.hpp:77] Creating layer pool2
I0410 01:57:48.677196 27877 net.cpp:84] Creating Layer pool2
I0410 01:57:48.677201 27877 net.cpp:406] pool2 <- norm2
I0410 01:57:48.677206 27877 net.cpp:380] pool2 -> pool2
I0410 01:57:48.677234 27877 net.cpp:122] Setting up pool2
I0410 01:57:48.677242 27877 net.cpp:129] Top shape: 128 256 13 13 (5537792)
I0410 01:57:48.677244 27877 net.cpp:137] Memory required for data: 869840896
I0410 01:57:48.677248 27877 layer_factory.hpp:77] Creating layer conv3
I0410 01:57:48.677256 27877 net.cpp:84] Creating Layer conv3
I0410 01:57:48.677261 27877 net.cpp:406] conv3 <- pool2
I0410 01:57:48.677268 27877 net.cpp:380] conv3 -> conv3
I0410 01:57:48.687913 27877 net.cpp:122] Setting up conv3
I0410 01:57:48.687927 27877 net.cpp:129] Top shape: 128 384 13 13 (8306688)
I0410 01:57:48.687930 27877 net.cpp:137] Memory required for data: 903067648
I0410 01:57:48.687959 27877 layer_factory.hpp:77] Creating layer relu3
I0410 01:57:48.687968 27877 net.cpp:84] Creating Layer relu3
I0410 01:57:48.687971 27877 net.cpp:406] relu3 <- conv3
I0410 01:57:48.687976 27877 net.cpp:367] relu3 -> conv3 (in-place)
I0410 01:57:48.688421 27877 net.cpp:122] Setting up relu3
I0410 01:57:48.688431 27877 net.cpp:129] Top shape: 128 384 13 13 (8306688)
I0410 01:57:48.688434 27877 net.cpp:137] Memory required for data: 936294400
I0410 01:57:48.688438 27877 layer_factory.hpp:77] Creating layer conv4
I0410 01:57:48.688448 27877 net.cpp:84] Creating Layer conv4
I0410 01:57:48.688452 27877 net.cpp:406] conv4 <- conv3
I0410 01:57:48.688458 27877 net.cpp:380] conv4 -> conv4
I0410 01:57:48.699209 27877 net.cpp:122] Setting up conv4
I0410 01:57:48.699223 27877 net.cpp:129] Top shape: 128 384 13 13 (8306688)
I0410 01:57:48.699229 27877 net.cpp:137] Memory required for data: 969521152
I0410 01:57:48.699237 27877 layer_factory.hpp:77] Creating layer relu4
I0410 01:57:48.699245 27877 net.cpp:84] Creating Layer relu4
I0410 01:57:48.699250 27877 net.cpp:406] relu4 <- conv4
I0410 01:57:48.699259 27877 net.cpp:367] relu4 -> conv4 (in-place)
I0410 01:57:48.699555 27877 net.cpp:122] Setting up relu4
I0410 01:57:48.699564 27877 net.cpp:129] Top shape: 128 384 13 13 (8306688)
I0410 01:57:48.699569 27877 net.cpp:137] Memory required for data: 1002747904
I0410 01:57:48.699573 27877 layer_factory.hpp:77] Creating layer conv5
I0410 01:57:48.699582 27877 net.cpp:84] Creating Layer conv5
I0410 01:57:48.699587 27877 net.cpp:406] conv5 <- conv4
I0410 01:57:48.699592 27877 net.cpp:380] conv5 -> conv5
I0410 01:57:48.708103 27877 net.cpp:122] Setting up conv5
I0410 01:57:48.708117 27877 net.cpp:129] Top shape: 128 256 13 13 (5537792)
I0410 01:57:48.708122 27877 net.cpp:137] Memory required for data: 1024899072
I0410 01:57:48.708133 27877 layer_factory.hpp:77] Creating layer relu5
I0410 01:57:48.708140 27877 net.cpp:84] Creating Layer relu5
I0410 01:57:48.708144 27877 net.cpp:406] relu5 <- conv5
I0410 01:57:48.708149 27877 net.cpp:367] relu5 -> conv5 (in-place)
I0410 01:57:48.708598 27877 net.cpp:122] Setting up relu5
I0410 01:57:48.708608 27877 net.cpp:129] Top shape: 128 256 13 13 (5537792)
I0410 01:57:48.708611 27877 net.cpp:137] Memory required for data: 1047050240
I0410 01:57:48.708616 27877 layer_factory.hpp:77] Creating layer pool5
I0410 01:57:48.708623 27877 net.cpp:84] Creating Layer pool5
I0410 01:57:48.708628 27877 net.cpp:406] pool5 <- conv5
I0410 01:57:48.708636 27877 net.cpp:380] pool5 -> pool5
I0410 01:57:48.708673 27877 net.cpp:122] Setting up pool5
I0410 01:57:48.708678 27877 net.cpp:129] Top shape: 128 256 6 6 (1179648)
I0410 01:57:48.708683 27877 net.cpp:137] Memory required for data: 1051768832
I0410 01:57:48.708685 27877 layer_factory.hpp:77] Creating layer fc6
I0410 01:57:48.708695 27877 net.cpp:84] Creating Layer fc6
I0410 01:57:48.708699 27877 net.cpp:406] fc6 <- pool5
I0410 01:57:48.708704 27877 net.cpp:380] fc6 -> fc6
I0410 01:57:48.805836 27877 net.cpp:122] Setting up fc6
I0410 01:57:48.805860 27877 net.cpp:129] Top shape: 128 1024 (131072)
I0410 01:57:48.805863 27877 net.cpp:137] Memory required for data: 1052293120
I0410 01:57:48.805873 27877 layer_factory.hpp:77] Creating layer relu6
I0410 01:57:48.805882 27877 net.cpp:84] Creating Layer relu6
I0410 01:57:48.805887 27877 net.cpp:406] relu6 <- fc6
I0410 01:57:48.805896 27877 net.cpp:367] relu6 -> fc6 (in-place)
I0410 01:57:48.806505 27877 net.cpp:122] Setting up relu6
I0410 01:57:48.806515 27877 net.cpp:129] Top shape: 128 1024 (131072)
I0410 01:57:48.806519 27877 net.cpp:137] Memory required for data: 1052817408
I0410 01:57:48.806524 27877 layer_factory.hpp:77] Creating layer drop6
I0410 01:57:48.806530 27877 net.cpp:84] Creating Layer drop6
I0410 01:57:48.806535 27877 net.cpp:406] drop6 <- fc6
I0410 01:57:48.806540 27877 net.cpp:367] drop6 -> fc6 (in-place)
I0410 01:57:48.806566 27877 net.cpp:122] Setting up drop6
I0410 01:57:48.806572 27877 net.cpp:129] Top shape: 128 1024 (131072)
I0410 01:57:48.806597 27877 net.cpp:137] Memory required for data: 1053341696
I0410 01:57:48.806602 27877 layer_factory.hpp:77] Creating layer fc7
I0410 01:57:48.806608 27877 net.cpp:84] Creating Layer fc7
I0410 01:57:48.806612 27877 net.cpp:406] fc7 <- fc6
I0410 01:57:48.806618 27877 net.cpp:380] fc7 -> fc7
I0410 01:57:48.817447 27877 net.cpp:122] Setting up fc7
I0410 01:57:48.817462 27877 net.cpp:129] Top shape: 128 1024 (131072)
I0410 01:57:48.817466 27877 net.cpp:137] Memory required for data: 1053865984
I0410 01:57:48.817473 27877 layer_factory.hpp:77] Creating layer relu7
I0410 01:57:48.817481 27877 net.cpp:84] Creating Layer relu7
I0410 01:57:48.817485 27877 net.cpp:406] relu7 <- fc7
I0410 01:57:48.817492 27877 net.cpp:367] relu7 -> fc7 (in-place)
I0410 01:57:48.818004 27877 net.cpp:122] Setting up relu7
I0410 01:57:48.818014 27877 net.cpp:129] Top shape: 128 1024 (131072)
I0410 01:57:48.818018 27877 net.cpp:137] Memory required for data: 1054390272
I0410 01:57:48.818022 27877 layer_factory.hpp:77] Creating layer drop7
I0410 01:57:48.818028 27877 net.cpp:84] Creating Layer drop7
I0410 01:57:48.818032 27877 net.cpp:406] drop7 <- fc7
I0410 01:57:48.818037 27877 net.cpp:367] drop7 -> fc7 (in-place)
I0410 01:57:48.818063 27877 net.cpp:122] Setting up drop7
I0410 01:57:48.818068 27877 net.cpp:129] Top shape: 128 1024 (131072)
I0410 01:57:48.818071 27877 net.cpp:137] Memory required for data: 1054914560
I0410 01:57:48.818074 27877 layer_factory.hpp:77] Creating layer fc7.5
I0410 01:57:48.818081 27877 net.cpp:84] Creating Layer fc7.5
I0410 01:57:48.818085 27877 net.cpp:406] fc7.5 <- fc7
I0410 01:57:48.818090 27877 net.cpp:380] fc7.5 -> fc7.5
I0410 01:57:48.828912 27877 net.cpp:122] Setting up fc7.5
I0410 01:57:48.828928 27877 net.cpp:129] Top shape: 128 1024 (131072)
I0410 01:57:48.828931 27877 net.cpp:137] Memory required for data: 1055438848
I0410 01:57:48.828939 27877 layer_factory.hpp:77] Creating layer relu7.5
I0410 01:57:48.828946 27877 net.cpp:84] Creating Layer relu7.5
I0410 01:57:48.828951 27877 net.cpp:406] relu7.5 <- fc7.5
I0410 01:57:48.828958 27877 net.cpp:367] relu7.5 -> fc7.5 (in-place)
I0410 01:57:48.829473 27877 net.cpp:122] Setting up relu7.5
I0410 01:57:48.829483 27877 net.cpp:129] Top shape: 128 1024 (131072)
I0410 01:57:48.829486 27877 net.cpp:137] Memory required for data: 1055963136
I0410 01:57:48.829489 27877 layer_factory.hpp:77] Creating layer drop7.5
I0410 01:57:48.829496 27877 net.cpp:84] Creating Layer drop7.5
I0410 01:57:48.829500 27877 net.cpp:406] drop7.5 <- fc7.5
I0410 01:57:48.829505 27877 net.cpp:367] drop7.5 -> fc7.5 (in-place)
I0410 01:57:48.829530 27877 net.cpp:122] Setting up drop7.5
I0410 01:57:48.829535 27877 net.cpp:129] Top shape: 128 1024 (131072)
I0410 01:57:48.829540 27877 net.cpp:137] Memory required for data: 1056487424
I0410 01:57:48.829542 27877 layer_factory.hpp:77] Creating layer fc7.6
I0410 01:57:48.829550 27877 net.cpp:84] Creating Layer fc7.6
I0410 01:57:48.829552 27877 net.cpp:406] fc7.6 <- fc7.5
I0410 01:57:48.829558 27877 net.cpp:380] fc7.6 -> fc7.6
I0410 01:57:48.840397 27877 net.cpp:122] Setting up fc7.6
I0410 01:57:48.840412 27877 net.cpp:129] Top shape: 128 1024 (131072)
I0410 01:57:48.840416 27877 net.cpp:137] Memory required for data: 1057011712
I0410 01:57:48.840428 27877 layer_factory.hpp:77] Creating layer relu7.6
I0410 01:57:48.840436 27877 net.cpp:84] Creating Layer relu7.6
I0410 01:57:48.840440 27877 net.cpp:406] relu7.6 <- fc7.6
I0410 01:57:48.840447 27877 net.cpp:367] relu7.6 -> fc7.6 (in-place)
I0410 01:57:48.840947 27877 net.cpp:122] Setting up relu7.6
I0410 01:57:48.840958 27877 net.cpp:129] Top shape: 128 1024 (131072)
I0410 01:57:48.840961 27877 net.cpp:137] Memory required for data: 1057536000
I0410 01:57:48.840965 27877 layer_factory.hpp:77] Creating layer drop7.6
I0410 01:57:48.840972 27877 net.cpp:84] Creating Layer drop7.6
I0410 01:57:48.840976 27877 net.cpp:406] drop7.6 <- fc7.6
I0410 01:57:48.840981 27877 net.cpp:367] drop7.6 -> fc7.6 (in-place)
I0410 01:57:48.841006 27877 net.cpp:122] Setting up drop7.6
I0410 01:57:48.841010 27877 net.cpp:129] Top shape: 128 1024 (131072)
I0410 01:57:48.841034 27877 net.cpp:137] Memory required for data: 1058060288
I0410 01:57:48.841038 27877 layer_factory.hpp:77] Creating layer fc8
I0410 01:57:48.841045 27877 net.cpp:84] Creating Layer fc8
I0410 01:57:48.841048 27877 net.cpp:406] fc8 <- fc7.6
I0410 01:57:48.841054 27877 net.cpp:380] fc8 -> fc8
I0410 01:57:48.843029 27877 net.cpp:122] Setting up fc8
I0410 01:57:48.843036 27877 net.cpp:129] Top shape: 128 196 (25088)
I0410 01:57:48.843040 27877 net.cpp:137] Memory required for data: 1058160640
I0410 01:57:48.843046 27877 layer_factory.hpp:77] Creating layer loss
I0410 01:57:48.843052 27877 net.cpp:84] Creating Layer loss
I0410 01:57:48.843056 27877 net.cpp:406] loss <- fc8
I0410 01:57:48.843060 27877 net.cpp:406] loss <- label
I0410 01:57:48.843067 27877 net.cpp:380] loss -> loss
I0410 01:57:48.843076 27877 layer_factory.hpp:77] Creating layer loss
…
I0410 01:57:48.898974 27877 net.cpp:294] The NetState phase (1) differed from the phase (0) specified by a rule in layer train-data
I0410 01:57:48.899394 27877 net.cpp:51] Initializing net from parameters:
state {
phase: TEST
}
layer {
name: "val-data"
type: "Data"
top: "data"
top: "label"
include {
phase: TEST
}
transform_param {
crop_size: 227
mean_file: "/mnt/bigdisk/DIGITS-MAN-2/digits/jobs/20210407-214532-d396/mean.binaryproto"
}
data_param {
source: "/mnt/bigdisk/DIGITS-MAN-2/digits/jobs/20210407-214532-d396/val_db"
batch_size: 32
backend: LMDB
}
}
layer {
name: "conv1"
type: "Convolution"
bottom: "data"
top: "conv1"
param {
lr_mult: 1
decay_mult: 1
}
param {
lr_mult: 2
decay_mult: 0
}
convolution_param {
num_output: 96
kernel_size: 11
stride: 4
weight_filler {
type: "gaussian"
std: 0.01
}
bias_filler {
type: "constant"
value: 0
}
}
}
layer {
name: "relu1"
type: "ReLU"
bottom: "conv1"
top: "conv1"
}
layer {
name: "norm1"
type: "LRN"
bottom: "conv1"
top: "norm1"
lrn_param {
local_size: 5
alpha: 0.0001
beta: 0.75
}
}
layer {
name: "pool1"
type: "Pooling"
bottom: "norm1"
top: "pool1"
pooling_param {
pool: MAX
kernel_size: 3
stride: 2
}
}
layer {
name: "conv2"
type: "Convolution"
bottom: "pool1"
top: "conv2"
param {
lr_mult: 1
decay_mult: 1
}
param {
lr_mult: 2
decay_mult: 0
}
convolution_param {
num_output: 256
pad: 2
kernel_size: 5
group: 2
weight_filler {
type: "gaussian"
std: 0.01
}
bias_filler {
type: "constant"
value: 0.1
}
}
}
layer {
name: "relu2"
type: "ReLU"
bottom: "conv2"
top: "conv2"
}
layer {
name: "norm2"
type: "LRN"
bottom: "conv2"
top: "norm2"
lrn_param {
local_size: 5
alpha: 0.0001
beta: 0.75
}
}
layer {
name: "pool2"
type: "Pooling"
bottom: "norm2"
top: "pool2"
pooling_param {
pool: MAX
kernel_size: 3
stride: 2
}
}
layer {
name: "conv3"
type: "Convolution"
bottom: "pool2"
top: "conv3"
param {
lr_mult: 1
decay_mult: 1
}
param {
lr_mult: 2
decay_mult: 0
}
convolution_param {
num_output: 384
pad: 1
kernel_size: 3
weight_filler {
type: "gaussian"
std: 0.01
}
bias_filler {
type: "constant"
value: 0
}
}
}
layer {
name: "relu3"
type: "ReLU"
bottom: "conv3"
top: "conv3"
}
layer {
name: "conv4"
type: "Convolution"
bottom: "conv3"
top: "conv4"
param {
lr_mult: 1
decay_mult: 1
}
param {
lr_mult: 2
decay_mult: 0
}
convolution_param {
num_output: 384
pad: 1
kernel_size: 3
group: 2
weight_filler {
type: "gaussian"
std: 0.01
}
bias_filler {
type: "constant"
value: 0.1
}
}
}
layer {
name: "relu4"
type: "ReLU"
bottom: "conv4"
top: "conv4"
}
layer {
name: "conv5"
type: "Convolution"
bottom: "conv4"
top: "conv5"
param {
lr_mult: 1
decay_mult: 1
}
param {
lr_mult: 2
decay_mult: 0
}
convolution_param {
num_output: 256
pad: 1
kernel_size: 3
group: 2
weight_filler {
type: "gaussian"
std: 0.01
}
bias_filler {
type: "constant"
value: 0.1
}
}
}
layer {
name: "relu5"
type: "ReLU"
bottom: "conv5"
top: "conv5"
}
layer {
name: "pool5"
type: "Pooling"
bottom: "conv5"
top: "pool5"
pooling_param {
pool: MAX
kernel_size: 3
stride: 2
}
}
layer {
name: "fc6"
type: "InnerProduct"
bottom: "pool5"
top: "fc6"
param {
lr_mult: 1
decay_mult: 1
}
param {
lr_mult: 2
decay_mult: 0
}
inner_product_param {
num_output: 1024
weight_filler {
type: "gaussian"
std: 0.005
}
bias_filler {
type: "constant"
value: 0.1
}
}
}
layer {
name: "relu6"
type: "ReLU"
bottom: "fc6"
top: "fc6"
}
layer {
name: "drop6"
type: "Dropout"
bottom: "fc6"
top: "fc6"
dropout_param {
dropout_ratio: 0.5
}
}
layer {
name: "fc7"
type: "InnerProduct"
bottom: "fc6"
top: "fc7"
param {
lr_mult: 1
decay_mult: 1
}
param {
lr_mult: 2
decay_mult: 0
}
inner_product_param {
num_output: 1024
weight_filler {
type: "gaussian"
std: 0.005
}
bias_filler {
type: "constant"
value: 0.1
}
}
}
layer {
name: "relu7"
type: "ReLU"
bottom: "fc7"
top: "fc7"
}
layer {
name: "drop7"
type: "Dropout"
bottom: "fc7"
top: "fc7"
dropout_param {
dropout_ratio: 0.5
}
}
layer {
name: "fc7.5"
type: "InnerProduct"
bottom: "fc7"
top: "fc7.5"
param {
lr_mult: 1
decay_mult: 1
}
param {
lr_mult: 2
decay_mult: 0
}
inner_product_param {
num_output: 1024
weight_filler {
type: "gaussian"
std: 0.005
}
bias_filler {
type: "constant"
value: 0.1
}
}
}
layer {
name: "relu7.5"
type: "ReLU"
bottom: "fc7.5"
top: "fc7.5"
}
layer {
name: "drop7.5"
type: "Dropout"
bottom: "fc7.5"
top: "fc7.5"
dropout_param {
dropout_ratio: 0.5
}
}
layer {
name: "fc7.6"
type: "InnerProduct"
bottom: "fc7.5"
top: "fc7.6"
param {
lr_mult: 1
decay_mult: 1
}
param {
lr_mult: 2
decay_mult: 0
}
inner_product_param {
num_output: 1024
weight_filler {
type: "gaussian"
std: 0.005
}
bias_filler {
type: "constant"
value: 0.1
}
}
}
layer {
name: "relu7.6"
type: "ReLU"
bottom: "fc7.6"
top: "fc7.6"
}
layer {
name: "drop7.6"
type: "Dropout"
bottom: "fc7.6"
top: "fc7.6"
dropout_param {
dropout_ratio: 0.5
}
}
layer {
name: "fc8"
type: "InnerProduct"
bottom: "fc7.6"
top: "fc8"
param {
lr_mult: 1
decay_mult: 1
}
param {
lr_mult: 2
decay_mult: 0
}
inner_product_param {
num_output: 196
weight_filler {
type: "gaussian"
std: 0.01
}
bias_filler {
type: "constant"
value: 0
}
}
}
layer {
name: "accuracy"
type: "Accuracy"
bottom: "fc8"
bottom: "label"
top: "accuracy"
include {
phase: TEST
}
}
layer {
name: "loss"
type: "SoftmaxWithLoss"
bottom: "fc8"
bottom: "label"
top: "loss"
}
I0410 01:57:48.899675 27877 layer_factory.hpp:77] Creating layer val-data
I0410 01:57:49.133463 27877 db_lmdb.cpp:35] Opened lmdb /mnt/bigdisk/DIGITS-MAN-2/digits/jobs/20210407-214532-d396/val_db
I0410 01:57:49.134734 27877 net.cpp:84] Creating Layer val-data
I0410 01:57:49.134752 27877 net.cpp:380] val-data -> data
I0410 01:57:49.134769 27877 net.cpp:380] val-data -> label
I0410 01:57:49.134778 27877 data_transformer.cpp:25] Loading mean file from: /mnt/bigdisk/DIGITS-MAN-2/digits/jobs/20210407-214532-d396/mean.binaryproto
I0410 01:57:49.165874 27877 data_layer.cpp:45] output data size: 32,3,227,227
I0410 01:57:49.205605 27877 net.cpp:122] Setting up val-data
I0410 01:57:49.205626 27877 net.cpp:129] Top shape: 32 3 227 227 (4946784)
I0410 01:57:49.205632 27877 net.cpp:129] Top shape: 32 (32)
I0410 01:57:49.205636 27877 net.cpp:137] Memory required for data: 19787264
I0410 01:57:49.205641 27877 layer_factory.hpp:77] Creating layer label_val-data_1_split
I0410 01:57:49.205654 27877 net.cpp:84] Creating Layer label_val-data_1_split
I0410 01:57:49.205658 27877 net.cpp:406] label_val-data_1_split <- label
I0410 01:57:49.205665 27877 net.cpp:380] label_val-data_1_split -> label_val-data_1_split_0
I0410 01:57:49.205675 27877 net.cpp:380] label_val-data_1_split -> label_val-data_1_split_1
I0410 01:57:49.205722 27877 net.cpp:122] Setting up label_val-data_1_split
I0410 01:57:49.205729 27877 net.cpp:129] Top shape: 32 (32)
I0410 01:57:49.205732 27877 net.cpp:129] Top shape: 32 (32)
I0410 01:57:49.205735 27877 net.cpp:137] Memory required for data: 19787520
I0410 01:57:49.205739 27877 layer_factory.hpp:77] Creating layer conv1
I0410 01:57:49.205750 27877 net.cpp:84] Creating Layer conv1
I0410 01:57:49.205755 27877 net.cpp:406] conv1 <- data
I0410 01:57:49.205763 27877 net.cpp:380] conv1 -> conv1
I0410 01:57:49.207854 27877 net.cpp:122] Setting up conv1
I0410 01:57:49.207865 27877 net.cpp:129] Top shape: 32 96 55 55 (9292800)
I0410 01:57:49.207870 27877 net.cpp:137] Memory required for data: 56958720
I0410 01:57:49.207880 27877 layer_factory.hpp:77] Creating layer relu1
I0410 01:57:49.207886 27877 net.cpp:84] Creating Layer relu1
I0410 01:57:49.207890 27877 net.cpp:406] relu1 <- conv1
I0410 01:57:49.207916 27877 net.cpp:367] relu1 -> conv1 (in-place)
I0410 01:57:49.209532 27877 net.cpp:122] Setting up relu1
I0410 01:57:49.209544 27877 net.cpp:129] Top shape: 32 96 55 55 (9292800)
I0410 01:57:49.209547 27877 net.cpp:137] Memory required for data: 94129920
I0410 01:57:49.209551 27877 layer_factory.hpp:77] Creating layer norm1
I0410 01:57:49.209560 27877 net.cpp:84] Creating Layer norm1
I0410 01:57:49.209564 27877 net.cpp:406] norm1 <- conv1
I0410 01:57:49.209570 27877 net.cpp:380] norm1 -> norm1
I0410 01:57:49.210100 27877 net.cpp:122] Setting up norm1
I0410 01:57:49.210110 27877 net.cpp:129] Top shape: 32 96 55 55 (9292800)
I0410 01:57:49.210114 27877 net.cpp:137] Memory required for data: 131301120
I0410 01:57:49.210119 27877 layer_factory.hpp:77] Creating layer pool1
I0410 01:57:49.210125 27877 net.cpp:84] Creating Layer pool1
I0410 01:57:49.210129 27877 net.cpp:406] pool1 <- norm1
I0410 01:57:49.210135 27877 net.cpp:380] pool1 -> pool1
I0410 01:57:49.210166 27877 net.cpp:122] Setting up pool1
I0410 01:57:49.210171 27877 net.cpp:129] Top shape: 32 96 27 27 (2239488)
I0410 01:57:49.210175 27877 net.cpp:137] Memory required for data: 140259072
I0410 01:57:49.210178 27877 layer_factory.hpp:77] Creating layer conv2
I0410 01:57:49.210188 27877 net.cpp:84] Creating Layer conv2
I0410 01:57:49.210192 27877 net.cpp:406] conv2 <- pool1
I0410 01:57:49.210197 27877 net.cpp:380] conv2 -> conv2
I0410 01:57:49.222656 27877 net.cpp:122] Setting up conv2
I0410 01:57:49.222671 27877 net.cpp:129] Top shape: 32 256 27 27 (5971968)
I0410 01:57:49.222676 27877 net.cpp:137] Memory required for data: 164146944
I0410 01:57:49.222688 27877 layer_factory.hpp:77] Creating layer relu2
I0410 01:57:49.222697 27877 net.cpp:84] Creating Layer relu2
I0410 01:57:49.222702 27877 net.cpp:406] relu2 <- conv2
I0410 01:57:49.222709 27877 net.cpp:367] relu2 -> conv2 (in-place)
I0410 01:57:49.223109 27877 net.cpp:122] Setting up relu2
I0410 01:57:49.223117 27877 net.cpp:129] Top shape: 32 256 27 27 (5971968)
I0410 01:57:49.223121 27877 net.cpp:137] Memory required for data: 188034816
I0410 01:57:49.223125 27877 layer_factory.hpp:77] Creating layer norm2
I0410 01:57:49.223136 27877 net.cpp:84] Creating Layer norm2
I0410 01:57:49.223141 27877 net.cpp:406] norm2 <- conv2
I0410 01:57:49.223147 27877 net.cpp:380] norm2 -> norm2
I0410 01:57:49.225746 27877 net.cpp:122] Setting up norm2
I0410 01:57:49.225757 27877 net.cpp:129] Top shape: 32 256 27 27 (5971968)
I0410 01:57:49.225761 27877 net.cpp:137] Memory required for data: 211922688
I0410 01:57:49.225766 27877 layer_factory.hpp:77] Creating layer pool2
I0410 01:57:49.225773 27877 net.cpp:84] Creating Layer pool2
I0410 01:57:49.225778 27877 net.cpp:406] pool2 <- norm2
I0410 01:57:49.225785 27877 net.cpp:380] pool2 -> pool2
I0410 01:57:49.225821 27877 net.cpp:122] Setting up pool2
I0410 01:57:49.225826 27877 net.cpp:129] Top shape: 32 256 13 13 (1384448)
I0410 01:57:49.225831 27877 net.cpp:137] Memory required for data: 217460480
I0410 01:57:49.225836 27877 layer_factory.hpp:77] Creating layer conv3
I0410 01:57:49.225847 27877 net.cpp:84] Creating Layer conv3
I0410 01:57:49.225852 27877 net.cpp:406] conv3 <- pool2
I0410 01:57:49.225858 27877 net.cpp:380] conv3 -> conv3
I0410 01:57:49.242326 27877 net.cpp:122] Setting up conv3
I0410 01:57:49.242345 27877 net.cpp:129] Top shape: 32 384 13 13 (2076672)
I0410 01:57:49.242349 27877 net.cpp:137] Memory required for data: 225767168
I0410 01:57:49.242363 27877 layer_factory.hpp:77] Creating layer relu3
I0410 01:57:49.242372 27877 net.cpp:84] Creating Layer relu3
I0410 01:57:49.242377 27877 net.cpp:406] relu3 <- conv3
I0410 01:57:49.242384 27877 net.cpp:367] relu3 -> conv3 (in-place)
I0410 01:57:49.242946 27877 net.cpp:122] Setting up relu3
I0410 01:57:49.242956 27877 net.cpp:129] Top shape: 32 384 13 13 (2076672)
I0410 01:57:49.242959 27877 net.cpp:137] Memory required for data: 234073856
I0410 01:57:49.242964 27877 layer_factory.hpp:77] Creating layer conv4
I0410 01:57:49.242975 27877 net.cpp:84] Creating Layer conv4
I0410 01:57:49.242980 27877 net.cpp:406] conv4 <- conv3
I0410 01:57:49.243006 27877 net.cpp:380] conv4 -> conv4
I0410 01:57:49.253609 27877 net.cpp:122] Setting up conv4
I0410 01:57:49.253629 27877 net.cpp:129] Top shape: 32 384 13 13 (2076672)
I0410 01:57:49.253634 27877 net.cpp:137] Memory required for data: 242380544
I0410 01:57:49.253644 27877 layer_factory.hpp:77] Creating layer relu4
I0410 01:57:49.253654 27877 net.cpp:84] Creating Layer relu4
I0410 01:57:49.253657 27877 net.cpp:406] relu4 <- conv4
I0410 01:57:49.253665 27877 net.cpp:367] relu4 -> conv4 (in-place)
I0410 01:57:49.255406 27877 net.cpp:122] Setting up relu4
I0410 01:57:49.255419 27877 net.cpp:129] Top shape: 32 384 13 13 (2076672)
I0410 01:57:49.255424 27877 net.cpp:137] Memory required for data: 250687232
I0410 01:57:49.255427 27877 layer_factory.hpp:77] Creating layer conv5
I0410 01:57:49.255441 27877 net.cpp:84] Creating Layer conv5
I0410 01:57:49.255446 27877 net.cpp:406] conv5 <- conv4
I0410 01:57:49.255453 27877 net.cpp:380] conv5 -> conv5
I0410 01:57:49.278676 27877 net.cpp:122] Setting up conv5
I0410 01:57:49.278707 27877 net.cpp:129] Top shape: 32 256 13 13 (1384448)
I0410 01:57:49.278713 27877 net.cpp:137] Memory required for data: 256225024
I0410 01:57:49.278740 27877 layer_factory.hpp:77] Creating layer relu5
I0410 01:57:49.278756 27877 net.cpp:84] Creating Layer relu5
I0410 01:57:49.278765 27877 net.cpp:406] relu5 <- conv5
I0410 01:57:49.278781 27877 net.cpp:367] relu5 -> conv5 (in-place)
I0410 01:57:49.279620 27877 net.cpp:122] Setting up relu5
I0410 01:57:49.279640 27877 net.cpp:129] Top shape: 32 256 13 13 (1384448)
I0410 01:57:49.279647 27877 net.cpp:137] Memory required for data: 261762816
I0410 01:57:49.279655 27877 layer_factory.hpp:77] Creating layer pool5
I0410 01:57:49.279675 27877 net.cpp:84] Creating Layer pool5
I0410 01:57:49.279682 27877 net.cpp:406] pool5 <- conv5
I0410 01:57:49.279695 27877 net.cpp:380] pool5 -> pool5
I0410 01:57:49.279783 27877 net.cpp:122] Setting up pool5
I0410 01:57:49.279795 27877 net.cpp:129] Top shape: 32 256 6 6 (294912)
I0410 01:57:49.279801 27877 net.cpp:137] Memory required for data: 262942464
I0410 01:57:49.279808 27877 layer_factory.hpp:77] Creating layer fc6
I0410 01:57:49.279824 27877 net.cpp:84] Creating Layer fc6
I0410 01:57:49.279831 27877 net.cpp:406] fc6 <- pool5
I0410 01:57:49.279844 27877 net.cpp:380] fc6 -> fc6
I0410 01:57:49.429740 27877 net.cpp:122] Setting up fc6
I0410 01:57:49.429762 27877 net.cpp:129] Top shape: 32 1024 (32768)
I0410 01:57:49.429767 27877 net.cpp:137] Memory required for data: 263073536
I0410 01:57:49.429777 27877 layer_factory.hpp:77] Creating layer relu6
I0410 01:57:49.429790 27877 net.cpp:84] Creating Layer relu6
I0410 01:57:49.429795 27877 net.cpp:406] relu6 <- fc6
I0410 01:57:49.429802 27877 net.cpp:367] relu6 -> fc6 (in-place)
I0410 01:57:49.430583 27877 net.cpp:122] Setting up relu6
I0410 01:57:49.430593 27877 net.cpp:129] Top shape: 32 1024 (32768)
I0410 01:57:49.430598 27877 net.cpp:137] Memory required for data: 263204608
I0410 01:57:49.430603 27877 layer_factory.hpp:77] Creating layer drop6
I0410 01:57:49.430613 27877 net.cpp:84] Creating Layer drop6
I0410 01:57:49.430616 27877 net.cpp:406] drop6 <- fc6
I0410 01:57:49.430624 27877 net.cpp:367] drop6 -> fc6 (in-place)
I0410 01:57:49.430653 27877 net.cpp:122] Setting up drop6
I0410 01:57:49.430660 27877 net.cpp:129] Top shape: 32 1024 (32768)
I0410 01:57:49.430665 27877 net.cpp:137] Memory required for data: 263335680
I0410 01:57:49.430670 27877 layer_factory.hpp:77] Creating layer fc7
I0410 01:57:49.430680 27877 net.cpp:84] Creating Layer fc7
I0410 01:57:49.430683 27877 net.cpp:406] fc7 <- fc6
I0410 01:57:49.430691 27877 net.cpp:380] fc7 -> fc7
I0410 01:57:49.443163 27877 net.cpp:122] Setting up fc7
I0410 01:57:49.443181 27877 net.cpp:129] Top shape: 32 1024 (32768)
I0410 01:57:49.443186 27877 net.cpp:137] Memory required for data: 263466752
I0410 01:57:49.443195 27877 layer_factory.hpp:77] Creating layer relu7
I0410 01:57:49.443205 27877 net.cpp:84] Creating Layer relu7
I0410 01:57:49.443210 27877 net.cpp:406] relu7 <- fc7
I0410 01:57:49.443238 27877 net.cpp:367] relu7 -> fc7 (in-place)
I0410 01:57:49.443923 27877 net.cpp:122] Setting up relu7
I0410 01:57:49.443935 27877 net.cpp:129] Top shape: 32 1024 (32768)
I0410 01:57:49.443939 27877 net.cpp:137] Memory required for data: 263597824
I0410 01:57:49.443944 27877 layer_factory.hpp:77] Creating layer drop7
I0410 01:57:49.443953 27877 net.cpp:84] Creating Layer drop7
I0410 01:57:49.443956 27877 net.cpp:406] drop7 <- fc7
I0410 01:57:49.443964 27877 net.cpp:367] drop7 -> fc7 (in-place)
I0410 01:57:49.443994 27877 net.cpp:122] Setting up drop7
I0410 01:57:49.444000 27877 net.cpp:129] Top shape: 32 1024 (32768)
I0410 01:57:49.444005 27877 net.cpp:137] Memory required for data: 263728896
I0410 01:57:49.444008 27877 layer_factory.hpp:77] Creating layer fc7.5
I0410 01:57:49.444017 27877 net.cpp:84] Creating Layer fc7.5
I0410 01:57:49.444022 27877 net.cpp:406] fc7.5 <- fc7
I0410 01:57:49.444028 27877 net.cpp:380] fc7.5 -> fc7.5
I0410 01:57:49.456027 27877 net.cpp:122] Setting up fc7.5
I0410 01:57:49.456046 27877 net.cpp:129] Top shape: 32 1024 (32768)
I0410 01:57:49.456050 27877 net.cpp:137] Memory required for data: 263859968
I0410 01:57:49.456059 27877 layer_factory.hpp:77] Creating layer relu7.5
I0410 01:57:49.456068 27877 net.cpp:84] Creating Layer relu7.5
I0410 01:57:49.456073 27877 net.cpp:406] relu7.5 <- fc7.5
I0410 01:57:49.456082 27877 net.cpp:367] relu7.5 -> fc7.5 (in-place)
I0410 01:57:49.458046 27877 net.cpp:122] Setting up relu7.5
I0410 01:57:49.458058 27877 net.cpp:129] Top shape: 32 1024 (32768)
I0410 01:57:49.458063 27877 net.cpp:137] Memory required for data: 263991040
I0410 01:57:49.458070 27877 layer_factory.hpp:77] Creating layer drop7.5
I0410 01:57:49.458082 27877 net.cpp:84] Creating Layer drop7.5
I0410 01:57:49.458089 27877 net.cpp:406] drop7.5 <- fc7.5
I0410 01:57:49.458098 27877 net.cpp:367] drop7.5 -> fc7.5 (in-place)
I0410 01:57:49.458129 27877 net.cpp:122] Setting up drop7.5
I0410 01:57:49.458139 27877 net.cpp:129] Top shape: 32 1024 (32768)
I0410 01:57:49.458144 27877 net.cpp:137] Memory required for data: 264122112
I0410 01:57:49.458149 27877 layer_factory.hpp:77] Creating layer fc7.6
I0410 01:57:49.458158 27877 net.cpp:84] Creating Layer fc7.6
I0410 01:57:49.458164 27877 net.cpp:406] fc7.6 <- fc7.5
I0410 01:57:49.458173 27877 net.cpp:380] fc7.6 -> fc7.6
I0410 01:57:49.470034 27877 net.cpp:122] Setting up fc7.6
I0410 01:57:49.470052 27877 net.cpp:129] Top shape: 32 1024 (32768)
I0410 01:57:49.470058 27877 net.cpp:137] Memory required for data: 264253184
I0410 01:57:49.470072 27877 layer_factory.hpp:77] Creating layer relu7.6
I0410 01:57:49.470082 27877 net.cpp:84] Creating Layer relu7.6
I0410 01:57:49.470090 27877 net.cpp:406] relu7.6 <- fc7.6
I0410 01:57:49.470098 27877 net.cpp:367] relu7.6 -> fc7.6 (in-place)
I0410 01:57:49.470506 27877 net.cpp:122] Setting up relu7.6
I0410 01:57:49.470515 27877 net.cpp:129] Top shape: 32 1024 (32768)
I0410 01:57:49.470521 27877 net.cpp:137] Memory required for data: 264384256
I0410 01:57:49.470525 27877 layer_factory.hpp:77] Creating layer drop7.6
I0410 01:57:49.470536 27877 net.cpp:84] Creating Layer drop7.6
I0410 01:57:49.470543 27877 net.cpp:406] drop7.6 <- fc7.6
I0410 01:57:49.470551 27877 net.cpp:367] drop7.6 -> fc7.6 (in-place)
I0410 01:57:49.470580 27877 net.cpp:122] Setting up drop7.6
I0410 01:57:49.470588 27877 net.cpp:129] Top shape: 32 1024 (32768)
I0410 01:57:49.470593 27877 net.cpp:137] Memory required for data: 264515328
I0410 01:57:49.470597 27877 layer_factory.hpp:77] Creating layer fc8
I0410 01:57:49.470607 27877 net.cpp:84] Creating Layer fc8
I0410 01:57:49.470610 27877 net.cpp:406] fc8 <- fc7.6
I0410 01:57:49.470618 27877 net.cpp:380] fc8 -> fc8
I0410 01:57:49.472661 27877 net.cpp:122] Setting up fc8
I0410 01:57:49.472668 27877 net.cpp:129] Top shape: 32 196 (6272)
I0410 01:57:49.472672 27877 net.cpp:137] Memory required for data: 264540416
I0410 01:57:49.472679 27877 layer_factory.hpp:77] Creating layer fc8_fc8_0_split
I0410 01:57:49.472690 27877 net.cpp:84] Creating Layer fc8_fc8_0_split
I0410 01:57:49.472697 27877 net.cpp:406] fc8_fc8_0_split <- fc8
I0410 01:57:49.472720 27877 net.cpp:380] fc8_fc8_0_split -> fc8_fc8_0_split_0
I0410 01:57:49.472733 27877 net.cpp:380] fc8_fc8_0_split -> fc8_fc8_0_split_1
I0410 01:57:49.472771 27877 net.cpp:122] Setting up fc8_fc8_0_split
I0410 01:57:49.472779 27877 net.cpp:129] Top shape: 32 196 (6272)
I0410 01:57:49.472785 27877 net.cpp:129] Top shape: 32 196 (6272)
I0410 01:57:49.472790 27877 net.cpp:137] Memory required for data: 264590592
I0410 01:57:49.472795 27877 layer_factory.hpp:77] Creating layer accuracy
I0410 01:57:49.472805 27877 net.cpp:84] Creating Layer accuracy
I0410 01:57:49.472810 27877 net.cpp:406] accuracy <- fc8_fc8_0_split_0
I0410 01:57:49.472815 27877 net.cpp:406] accuracy <- label_val-data_1_split_0
I0410 01:57:49.472823 27877 net.cpp:380] accuracy -> accuracy
…
