…
I0412 12:56:06.100033  8032 net.cpp:294] The NetState phase (0) differed from the phase (1) specified by a rule in layer accuracy
I0412 12:56:06.100180  8032 net.cpp:51] Initializing net from parameters:
state {
phase: TRAIN
level: 0
stage: ""
}
layer {
name: "train-data"
type: "Data"
top: "data"
top: "label"
include {
phase: TRAIN
}
transform_param {
mirror: true
crop_size: 227
mean_file: "/mnt/bigdisk/DIGITS-MAN-2/digits/jobs/20210407-214532-d396/mean.binaryproto"
}
data_param {
source: "/mnt/bigdisk/DIGITS-MAN-2/digits/jobs/20210407-214532-d396/train_db"
batch_size: 128
backend: LMDB
}
}
layer {
name: "conv1"
type: "Convolution"
bottom: "data"
top: "conv1"
param {
lr_mult: 1
decay_mult: 1
}
param {
lr_mult: 2
decay_mult: 0
}
convolution_param {
num_output: 96
kernel_size: 11
stride: 4
weight_filler {
type: "gaussian"
std: 0.01
}
bias_filler {
type: "constant"
value: 0
}
}
}
layer {
name: "relu1"
type: "ReLU"
bottom: "conv1"
top: "conv1"
}
layer {
name: "norm1"
type: "LRN"
bottom: "conv1"
top: "norm1"
lrn_param {
local_size: 5
alpha: 0.0001
beta: 0.75
}
}
layer {
name: "pool1"
type: "Pooling"
bottom: "norm1"
top: "pool1"
pooling_param {
pool: MAX
kernel_size: 3
stride: 2
}
}
layer {
name: "conv2"
type: "Convolution"
bottom: "pool1"
top: "conv2"
param {
lr_mult: 1
decay_mult: 1
}
param {
lr_mult: 2
decay_mult: 0
}
convolution_param {
num_output: 256
pad: 2
kernel_size: 5
group: 2
weight_filler {
type: "gaussian"
std: 0.01
}
bias_filler {
type: "constant"
value: 0.1
}
}
}
layer {
name: "relu2"
type: "ReLU"
bottom: "conv2"
top: "conv2"
}
layer {
name: "norm2"
type: "LRN"
bottom: "conv2"
top: "norm2"
lrn_param {
local_size: 5
alpha: 0.0001
beta: 0.75
}
}
layer {
name: "pool2"
type: "Pooling"
bottom: "norm2"
top: "pool2"
pooling_param {
pool: MAX
kernel_size: 3
stride: 2
}
}
layer {
name: "conv3"
type: "Convolution"
bottom: "pool2"
top: "conv3"
param {
lr_mult: 1
decay_mult: 1
}
param {
lr_mult: 2
decay_mult: 0
}
convolution_param {
num_output: 384
pad: 1
kernel_size: 3
weight_filler {
type: "gaussian"
std: 0.01
}
bias_filler {
type: "constant"
value: 0
}
}
}
layer {
name: "relu3"
type: "ReLU"
bottom: "conv3"
top: "conv3"
}
layer {
name: "conv4"
type: "Convolution"
bottom: "conv3"
top: "conv4"
param {
lr_mult: 1
decay_mult: 1
}
param {
lr_mult: 2
decay_mult: 0
}
convolution_param {
num_output: 192
pad: 1
kernel_size: 3
group: 2
weight_filler {
type: "gaussian"
std: 0.01
}
bias_filler {
type: "constant"
value: 0.1
}
}
}
layer {
name: "relu4"
type: "ReLU"
bottom: "conv4"
top: "conv4"
}
layer {
name: "conv4.2"
type: "Convolution"
bottom: "conv4"
top: "conv4.2"
param {
lr_mult: 1
decay_mult: 1
}
param {
lr_mult: 2
decay_mult: 0
}
convolution_param {
num_output: 192
pad: 1
kernel_size: 3
group: 2
weight_filler {
type: "gaussian"
std: 0.01
}
bias_filler {
type: "constant"
value: 0.1
}
}
}
layer {
name: "relu4.2"
type: "ReLU"
bottom: "conv4.2"
top: "conv4.2"
}
layer {
name: "conv5"
type: "Convolution"
bottom: "conv4.2"
top: "conv5"
param {
lr_mult: 1
decay_mult: 1
}
param {
lr_mult: 2
decay_mult: 0
}
convolution_param {
num_output: 256
pad: 1
kernel_size: 3
group: 2
weight_filler {
type: "gaussian"
std: 0.01
}
bias_filler {
type: "constant"
value: 0.1
}
}
}
layer {
name: "relu5"
type: "ReLU"
bottom: "conv5"
top: "conv5"
}
layer {
name: "pool5"
type: "Pooling"
bottom: "conv5"
top: "pool5"
pooling_param {
pool: MAX
kernel_size: 3
stride: 2
}
}
layer {
name: "fc6"
type: "InnerProduct"
bottom: "pool5"
top: "fc6"
param {
lr_mult: 1
decay_mult: 1
}
param {
lr_mult: 2
decay_mult: 0
}
inner_product_param {
num_output: 4096
weight_filler {
type: "gaussian"
std: 0.005
}
bias_filler {
type: "constant"
value: 0.1
}
}
}
layer {
name: "relu6"
type: "ReLU"
bottom: "fc6"
top: "fc6"
}
layer {
name: "drop6"
type: "Dropout"
bottom: "fc6"
top: "fc6"
dropout_param {
dropout_ratio: 0.5
}
}
layer {
name: "fc7"
type: "InnerProduct"
bottom: "fc6"
top: "fc7"
param {
lr_mult: 1
decay_mult: 1
}
param {
lr_mult: 2
decay_mult: 0
}
inner_product_param {
num_output: 4096
weight_filler {
type: "gaussian"
std: 0.005
}
bias_filler {
type: "constant"
value: 0.1
}
}
}
layer {
name: "relu7"
type: "ReLU"
bottom: "fc7"
top: "fc7"
}
layer {
name: "drop7"
type: "Dropout"
bottom: "fc7"
top: "fc7"
dropout_param {
dropout_ratio: 0.5
}
}
layer {
name: "fc8"
type: "InnerProduct"
bottom: "fc7"
top: "fc8"
param {
lr_mult: 1
decay_mult: 1
}
param {
lr_mult: 2
decay_mult: 0
}
inner_product_param {
num_output: 196
weight_filler {
type: "gaussian"
std: 0.01
}
bias_filler {
type: "constant"
value: 0
}
}
}
layer {
name: "loss"
type: "SoftmaxWithLoss"
bottom: "fc8"
bottom: "label"
top: "loss"
}
I0412 12:56:06.100272  8032 layer_factory.hpp:77] Creating layer train-data
I0412 12:56:06.102432  8032 db_lmdb.cpp:35] Opened lmdb /mnt/bigdisk/DIGITS-MAN-2/digits/jobs/20210407-214532-d396/train_db
I0412 12:56:06.102643  8032 net.cpp:84] Creating Layer train-data
I0412 12:56:06.102655  8032 net.cpp:380] train-data -> data
I0412 12:56:06.102680  8032 net.cpp:380] train-data -> label
I0412 12:56:06.102695  8032 data_transformer.cpp:25] Loading mean file from: /mnt/bigdisk/DIGITS-MAN-2/digits/jobs/20210407-214532-d396/mean.binaryproto
I0412 12:56:06.107628  8032 data_layer.cpp:45] output data size: 128,3,227,227
I0412 12:56:06.240501  8032 net.cpp:122] Setting up train-data
I0412 12:56:06.240526  8032 net.cpp:129] Top shape: 128 3 227 227 (19787136)
I0412 12:56:06.240532  8032 net.cpp:129] Top shape: 128 (128)
I0412 12:56:06.240536  8032 net.cpp:137] Memory required for data: 79149056
I0412 12:56:06.240547  8032 layer_factory.hpp:77] Creating layer conv1
I0412 12:56:06.240568  8032 net.cpp:84] Creating Layer conv1
I0412 12:56:06.240574  8032 net.cpp:406] conv1 <- data
I0412 12:56:06.240586  8032 net.cpp:380] conv1 -> conv1
I0412 12:56:06.821391  8032 net.cpp:122] Setting up conv1
I0412 12:56:06.821413  8032 net.cpp:129] Top shape: 128 96 55 55 (37171200)
I0412 12:56:06.821417  8032 net.cpp:137] Memory required for data: 227833856
I0412 12:56:06.821436  8032 layer_factory.hpp:77] Creating layer relu1
I0412 12:56:06.821447  8032 net.cpp:84] Creating Layer relu1
I0412 12:56:06.821471  8032 net.cpp:406] relu1 <- conv1
I0412 12:56:06.821478  8032 net.cpp:367] relu1 -> conv1 (in-place)
I0412 12:56:06.821768  8032 net.cpp:122] Setting up relu1
I0412 12:56:06.821776  8032 net.cpp:129] Top shape: 128 96 55 55 (37171200)
I0412 12:56:06.821780  8032 net.cpp:137] Memory required for data: 376518656
I0412 12:56:06.821784  8032 layer_factory.hpp:77] Creating layer norm1
I0412 12:56:06.821794  8032 net.cpp:84] Creating Layer norm1
I0412 12:56:06.821796  8032 net.cpp:406] norm1 <- conv1
I0412 12:56:06.821802  8032 net.cpp:380] norm1 -> norm1
I0412 12:56:06.822247  8032 net.cpp:122] Setting up norm1
I0412 12:56:06.822257  8032 net.cpp:129] Top shape: 128 96 55 55 (37171200)
I0412 12:56:06.822260  8032 net.cpp:137] Memory required for data: 525203456
I0412 12:56:06.822264  8032 layer_factory.hpp:77] Creating layer pool1
I0412 12:56:06.822273  8032 net.cpp:84] Creating Layer pool1
I0412 12:56:06.822276  8032 net.cpp:406] pool1 <- norm1
I0412 12:56:06.822281  8032 net.cpp:380] pool1 -> pool1
I0412 12:56:06.822317  8032 net.cpp:122] Setting up pool1
I0412 12:56:06.822324  8032 net.cpp:129] Top shape: 128 96 27 27 (8957952)
I0412 12:56:06.822326  8032 net.cpp:137] Memory required for data: 561035264
I0412 12:56:06.822329  8032 layer_factory.hpp:77] Creating layer conv2
I0412 12:56:06.822340  8032 net.cpp:84] Creating Layer conv2
I0412 12:56:06.822343  8032 net.cpp:406] conv2 <- pool1
I0412 12:56:06.822347  8032 net.cpp:380] conv2 -> conv2
I0412 12:56:06.831840  8032 net.cpp:122] Setting up conv2
I0412 12:56:06.831854  8032 net.cpp:129] Top shape: 128 256 27 27 (23887872)
I0412 12:56:06.831859  8032 net.cpp:137] Memory required for data: 656586752
I0412 12:56:06.831868  8032 layer_factory.hpp:77] Creating layer relu2
I0412 12:56:06.831876  8032 net.cpp:84] Creating Layer relu2
I0412 12:56:06.831879  8032 net.cpp:406] relu2 <- conv2
I0412 12:56:06.831887  8032 net.cpp:367] relu2 -> conv2 (in-place)
I0412 12:56:06.832381  8032 net.cpp:122] Setting up relu2
I0412 12:56:06.832389  8032 net.cpp:129] Top shape: 128 256 27 27 (23887872)
I0412 12:56:06.832393  8032 net.cpp:137] Memory required for data: 752138240
I0412 12:56:06.832397  8032 layer_factory.hpp:77] Creating layer norm2
I0412 12:56:06.832406  8032 net.cpp:84] Creating Layer norm2
I0412 12:56:06.832410  8032 net.cpp:406] norm2 <- conv2
I0412 12:56:06.832415  8032 net.cpp:380] norm2 -> norm2
I0412 12:56:06.832774  8032 net.cpp:122] Setting up norm2
I0412 12:56:06.832783  8032 net.cpp:129] Top shape: 128 256 27 27 (23887872)
I0412 12:56:06.832787  8032 net.cpp:137] Memory required for data: 847689728
I0412 12:56:06.832790  8032 layer_factory.hpp:77] Creating layer pool2
I0412 12:56:06.832799  8032 net.cpp:84] Creating Layer pool2
I0412 12:56:06.832803  8032 net.cpp:406] pool2 <- norm2
I0412 12:56:06.832808  8032 net.cpp:380] pool2 -> pool2
I0412 12:56:06.832839  8032 net.cpp:122] Setting up pool2
I0412 12:56:06.832844  8032 net.cpp:129] Top shape: 128 256 13 13 (5537792)
I0412 12:56:06.832846  8032 net.cpp:137] Memory required for data: 869840896
I0412 12:56:06.832850  8032 layer_factory.hpp:77] Creating layer conv3
I0412 12:56:06.832859  8032 net.cpp:84] Creating Layer conv3
I0412 12:56:06.832863  8032 net.cpp:406] conv3 <- pool2
I0412 12:56:06.832870  8032 net.cpp:380] conv3 -> conv3
I0412 12:56:06.842919  8032 net.cpp:122] Setting up conv3
I0412 12:56:06.842931  8032 net.cpp:129] Top shape: 128 384 13 13 (8306688)
I0412 12:56:06.842934  8032 net.cpp:137] Memory required for data: 903067648
I0412 12:56:06.842943  8032 layer_factory.hpp:77] Creating layer relu3
I0412 12:56:06.842950  8032 net.cpp:84] Creating Layer relu3
I0412 12:56:06.842955  8032 net.cpp:406] relu3 <- conv3
I0412 12:56:06.842960  8032 net.cpp:367] relu3 -> conv3 (in-place)
I0412 12:56:06.843444  8032 net.cpp:122] Setting up relu3
I0412 12:56:06.843456  8032 net.cpp:129] Top shape: 128 384 13 13 (8306688)
I0412 12:56:06.843459  8032 net.cpp:137] Memory required for data: 936294400
I0412 12:56:06.843463  8032 layer_factory.hpp:77] Creating layer conv4
I0412 12:56:06.843473  8032 net.cpp:84] Creating Layer conv4
I0412 12:56:06.843493  8032 net.cpp:406] conv4 <- conv3
I0412 12:56:06.843500  8032 net.cpp:380] conv4 -> conv4
I0412 12:56:06.850950  8032 net.cpp:122] Setting up conv4
I0412 12:56:06.850962  8032 net.cpp:129] Top shape: 128 192 13 13 (4153344)
I0412 12:56:06.850966  8032 net.cpp:137] Memory required for data: 952907776
I0412 12:56:06.850975  8032 layer_factory.hpp:77] Creating layer relu4
I0412 12:56:06.850982  8032 net.cpp:84] Creating Layer relu4
I0412 12:56:06.850986  8032 net.cpp:406] relu4 <- conv4
I0412 12:56:06.850993  8032 net.cpp:367] relu4 -> conv4 (in-place)
I0412 12:56:06.851327  8032 net.cpp:122] Setting up relu4
I0412 12:56:06.851337  8032 net.cpp:129] Top shape: 128 192 13 13 (4153344)
I0412 12:56:06.851341  8032 net.cpp:137] Memory required for data: 969521152
I0412 12:56:06.851344  8032 layer_factory.hpp:77] Creating layer conv4.2
I0412 12:56:06.851353  8032 net.cpp:84] Creating Layer conv4.2
I0412 12:56:06.851357  8032 net.cpp:406] conv4.2 <- conv4
I0412 12:56:06.851366  8032 net.cpp:380] conv4.2 -> conv4.2
I0412 12:56:06.861027  8032 net.cpp:122] Setting up conv4.2
I0412 12:56:06.861039  8032 net.cpp:129] Top shape: 128 192 13 13 (4153344)
I0412 12:56:06.861043  8032 net.cpp:137] Memory required for data: 986134528
I0412 12:56:06.861053  8032 layer_factory.hpp:77] Creating layer relu4.2
I0412 12:56:06.861061  8032 net.cpp:84] Creating Layer relu4.2
I0412 12:56:06.861065  8032 net.cpp:406] relu4.2 <- conv4.2
I0412 12:56:06.861070  8032 net.cpp:367] relu4.2 -> conv4.2 (in-place)
I0412 12:56:06.861552  8032 net.cpp:122] Setting up relu4.2
I0412 12:56:06.861562  8032 net.cpp:129] Top shape: 128 192 13 13 (4153344)
I0412 12:56:06.861567  8032 net.cpp:137] Memory required for data: 1002747904
I0412 12:56:06.861569  8032 layer_factory.hpp:77] Creating layer conv5
I0412 12:56:06.861579  8032 net.cpp:84] Creating Layer conv5
I0412 12:56:06.861584  8032 net.cpp:406] conv5 <- conv4.2
I0412 12:56:06.861591  8032 net.cpp:380] conv5 -> conv5
I0412 12:56:06.866694  8032 net.cpp:122] Setting up conv5
I0412 12:56:06.866705  8032 net.cpp:129] Top shape: 128 256 13 13 (5537792)
I0412 12:56:06.866709  8032 net.cpp:137] Memory required for data: 1024899072
I0412 12:56:06.866715  8032 layer_factory.hpp:77] Creating layer relu5
I0412 12:56:06.866724  8032 net.cpp:84] Creating Layer relu5
I0412 12:56:06.866727  8032 net.cpp:406] relu5 <- conv5
I0412 12:56:06.866734  8032 net.cpp:367] relu5 -> conv5 (in-place)
I0412 12:56:06.867223  8032 net.cpp:122] Setting up relu5
I0412 12:56:06.867233  8032 net.cpp:129] Top shape: 128 256 13 13 (5537792)
I0412 12:56:06.867235  8032 net.cpp:137] Memory required for data: 1047050240
I0412 12:56:06.867239  8032 layer_factory.hpp:77] Creating layer pool5
I0412 12:56:06.867246  8032 net.cpp:84] Creating Layer pool5
I0412 12:56:06.867249  8032 net.cpp:406] pool5 <- conv5
I0412 12:56:06.867256  8032 net.cpp:380] pool5 -> pool5
I0412 12:56:06.867292  8032 net.cpp:122] Setting up pool5
I0412 12:56:06.867298  8032 net.cpp:129] Top shape: 128 256 6 6 (1179648)
I0412 12:56:06.867301  8032 net.cpp:137] Memory required for data: 1051768832
I0412 12:56:06.867305  8032 layer_factory.hpp:77] Creating layer fc6
I0412 12:56:06.867312  8032 net.cpp:84] Creating Layer fc6
I0412 12:56:06.867316  8032 net.cpp:406] fc6 <- pool5
I0412 12:56:06.867321  8032 net.cpp:380] fc6 -> fc6
I0412 12:56:07.226191  8032 net.cpp:122] Setting up fc6
I0412 12:56:07.226214  8032 net.cpp:129] Top shape: 128 4096 (524288)
I0412 12:56:07.226218  8032 net.cpp:137] Memory required for data: 1053865984
I0412 12:56:07.226228  8032 layer_factory.hpp:77] Creating layer relu6
I0412 12:56:07.226238  8032 net.cpp:84] Creating Layer relu6
I0412 12:56:07.226241  8032 net.cpp:406] relu6 <- fc6
I0412 12:56:07.226248  8032 net.cpp:367] relu6 -> fc6 (in-place)
I0412 12:56:07.226642  8032 net.cpp:122] Setting up relu6
I0412 12:56:07.226650  8032 net.cpp:129] Top shape: 128 4096 (524288)
I0412 12:56:07.226655  8032 net.cpp:137] Memory required for data: 1055963136
I0412 12:56:07.226658  8032 layer_factory.hpp:77] Creating layer drop6
I0412 12:56:07.226686  8032 net.cpp:84] Creating Layer drop6
I0412 12:56:07.226689  8032 net.cpp:406] drop6 <- fc6
I0412 12:56:07.226696  8032 net.cpp:367] drop6 -> fc6 (in-place)
I0412 12:56:07.226722  8032 net.cpp:122] Setting up drop6
I0412 12:56:07.226729  8032 net.cpp:129] Top shape: 128 4096 (524288)
I0412 12:56:07.226733  8032 net.cpp:137] Memory required for data: 1058060288
I0412 12:56:07.226737  8032 layer_factory.hpp:77] Creating layer fc7
I0412 12:56:07.226744  8032 net.cpp:84] Creating Layer fc7
I0412 12:56:07.226748  8032 net.cpp:406] fc7 <- fc6
I0412 12:56:07.226755  8032 net.cpp:380] fc7 -> fc7
I0412 12:56:07.385761  8032 net.cpp:122] Setting up fc7
I0412 12:56:07.385784  8032 net.cpp:129] Top shape: 128 4096 (524288)
I0412 12:56:07.385788  8032 net.cpp:137] Memory required for data: 1060157440
I0412 12:56:07.385797  8032 layer_factory.hpp:77] Creating layer relu7
I0412 12:56:07.385807  8032 net.cpp:84] Creating Layer relu7
I0412 12:56:07.385812  8032 net.cpp:406] relu7 <- fc7
I0412 12:56:07.385819  8032 net.cpp:367] relu7 -> fc7 (in-place)
I0412 12:56:07.390307  8032 net.cpp:122] Setting up relu7
I0412 12:56:07.390321  8032 net.cpp:129] Top shape: 128 4096 (524288)
I0412 12:56:07.390323  8032 net.cpp:137] Memory required for data: 1062254592
I0412 12:56:07.390327  8032 layer_factory.hpp:77] Creating layer drop7
I0412 12:56:07.390336  8032 net.cpp:84] Creating Layer drop7
I0412 12:56:07.390339  8032 net.cpp:406] drop7 <- fc7
I0412 12:56:07.390345  8032 net.cpp:367] drop7 -> fc7 (in-place)
I0412 12:56:07.390372  8032 net.cpp:122] Setting up drop7
I0412 12:56:07.390377  8032 net.cpp:129] Top shape: 128 4096 (524288)
I0412 12:56:07.390380  8032 net.cpp:137] Memory required for data: 1064351744
I0412 12:56:07.390383  8032 layer_factory.hpp:77] Creating layer fc8
I0412 12:56:07.390390  8032 net.cpp:84] Creating Layer fc8
I0412 12:56:07.390393  8032 net.cpp:406] fc8 <- fc7
I0412 12:56:07.390406  8032 net.cpp:380] fc8 -> fc8
I0412 12:56:07.398075  8032 net.cpp:122] Setting up fc8
I0412 12:56:07.398088  8032 net.cpp:129] Top shape: 128 196 (25088)
I0412 12:56:07.398092  8032 net.cpp:137] Memory required for data: 1064452096
I0412 12:56:07.398102  8032 layer_factory.hpp:77] Creating layer loss
I0412 12:56:07.398113  8032 net.cpp:84] Creating Layer loss
I0412 12:56:07.398116  8032 net.cpp:406] loss <- fc8
I0412 12:56:07.398121  8032 net.cpp:406] loss <- label
I0412 12:56:07.398128  8032 net.cpp:380] loss -> loss
I0412 12:56:07.398139  8032 layer_factory.hpp:77] Creating layer loss
…
I0412 12:56:07.399474  8032 net.cpp:294] The NetState phase (1) differed from the phase (0) specified by a rule in layer train-data
I0412 12:56:07.399623  8032 net.cpp:51] Initializing net from parameters:
state {
phase: TEST
}
layer {
name: "val-data"
type: "Data"
top: "data"
top: "label"
include {
phase: TEST
}
transform_param {
crop_size: 227
mean_file: "/mnt/bigdisk/DIGITS-MAN-2/digits/jobs/20210407-214532-d396/mean.binaryproto"
}
data_param {
source: "/mnt/bigdisk/DIGITS-MAN-2/digits/jobs/20210407-214532-d396/val_db"
batch_size: 32
backend: LMDB
}
}
layer {
name: "conv1"
type: "Convolution"
bottom: "data"
top: "conv1"
param {
lr_mult: 1
decay_mult: 1
}
param {
lr_mult: 2
decay_mult: 0
}
convolution_param {
num_output: 96
kernel_size: 11
stride: 4
weight_filler {
type: "gaussian"
std: 0.01
}
bias_filler {
type: "constant"
value: 0
}
}
}
layer {
name: "relu1"
type: "ReLU"
bottom: "conv1"
top: "conv1"
}
layer {
name: "norm1"
type: "LRN"
bottom: "conv1"
top: "norm1"
lrn_param {
local_size: 5
alpha: 0.0001
beta: 0.75
}
}
layer {
name: "pool1"
type: "Pooling"
bottom: "norm1"
top: "pool1"
pooling_param {
pool: MAX
kernel_size: 3
stride: 2
}
}
layer {
name: "conv2"
type: "Convolution"
bottom: "pool1"
top: "conv2"
param {
lr_mult: 1
decay_mult: 1
}
param {
lr_mult: 2
decay_mult: 0
}
convolution_param {
num_output: 256
pad: 2
kernel_size: 5
group: 2
weight_filler {
type: "gaussian"
std: 0.01
}
bias_filler {
type: "constant"
value: 0.1
}
}
}
layer {
name: "relu2"
type: "ReLU"
bottom: "conv2"
top: "conv2"
}
layer {
name: "norm2"
type: "LRN"
bottom: "conv2"
top: "norm2"
lrn_param {
local_size: 5
alpha: 0.0001
beta: 0.75
}
}
layer {
name: "pool2"
type: "Pooling"
bottom: "norm2"
top: "pool2"
pooling_param {
pool: MAX
kernel_size: 3
stride: 2
}
}
layer {
name: "conv3"
type: "Convolution"
bottom: "pool2"
top: "conv3"
param {
lr_mult: 1
decay_mult: 1
}
param {
lr_mult: 2
decay_mult: 0
}
convolution_param {
num_output: 384
pad: 1
kernel_size: 3
weight_filler {
type: "gaussian"
std: 0.01
}
bias_filler {
type: "constant"
value: 0
}
}
}
layer {
name: "relu3"
type: "ReLU"
bottom: "conv3"
top: "conv3"
}
layer {
name: "conv4"
type: "Convolution"
bottom: "conv3"
top: "conv4"
param {
lr_mult: 1
decay_mult: 1
}
param {
lr_mult: 2
decay_mult: 0
}
convolution_param {
num_output: 192
pad: 1
kernel_size: 3
group: 2
weight_filler {
type: "gaussian"
std: 0.01
}
bias_filler {
type: "constant"
value: 0.1
}
}
}
layer {
name: "relu4"
type: "ReLU"
bottom: "conv4"
top: "conv4"
}
layer {
name: "conv4.2"
type: "Convolution"
bottom: "conv4"
top: "conv4.2"
param {
lr_mult: 1
decay_mult: 1
}
param {
lr_mult: 2
decay_mult: 0
}
convolution_param {
num_output: 192
pad: 1
kernel_size: 3
group: 2
weight_filler {
type: "gaussian"
std: 0.01
}
bias_filler {
type: "constant"
value: 0.1
}
}
}
layer {
name: "relu4.2"
type: "ReLU"
bottom: "conv4.2"
top: "conv4.2"
}
layer {
name: "conv5"
type: "Convolution"
bottom: "conv4.2"
top: "conv5"
param {
lr_mult: 1
decay_mult: 1
}
param {
lr_mult: 2
decay_mult: 0
}
convolution_param {
num_output: 256
pad: 1
kernel_size: 3
group: 2
weight_filler {
type: "gaussian"
std: 0.01
}
bias_filler {
type: "constant"
value: 0.1
}
}
}
layer {
name: "relu5"
type: "ReLU"
bottom: "conv5"
top: "conv5"
}
layer {
name: "pool5"
type: "Pooling"
bottom: "conv5"
top: "pool5"
pooling_param {
pool: MAX
kernel_size: 3
stride: 2
}
}
layer {
name: "fc6"
type: "InnerProduct"
bottom: "pool5"
top: "fc6"
param {
lr_mult: 1
decay_mult: 1
}
param {
lr_mult: 2
decay_mult: 0
}
inner_product_param {
num_output: 4096
weight_filler {
type: "gaussian"
std: 0.005
}
bias_filler {
type: "constant"
value: 0.1
}
}
}
layer {
name: "relu6"
type: "ReLU"
bottom: "fc6"
top: "fc6"
}
layer {
name: "drop6"
type: "Dropout"
bottom: "fc6"
top: "fc6"
dropout_param {
dropout_ratio: 0.5
}
}
layer {
name: "fc7"
type: "InnerProduct"
bottom: "fc6"
top: "fc7"
param {
lr_mult: 1
decay_mult: 1
}
param {
lr_mult: 2
decay_mult: 0
}
inner_product_param {
num_output: 4096
weight_filler {
type: "gaussian"
std: 0.005
}
bias_filler {
type: "constant"
value: 0.1
}
}
}
layer {
name: "relu7"
type: "ReLU"
bottom: "fc7"
top: "fc7"
}
layer {
name: "drop7"
type: "Dropout"
bottom: "fc7"
top: "fc7"
dropout_param {
dropout_ratio: 0.5
}
}
layer {
name: "fc8"
type: "InnerProduct"
bottom: "fc7"
top: "fc8"
param {
lr_mult: 1
decay_mult: 1
}
param {
lr_mult: 2
decay_mult: 0
}
inner_product_param {
num_output: 196
weight_filler {
type: "gaussian"
std: 0.01
}
bias_filler {
type: "constant"
value: 0
}
}
}
layer {
name: "accuracy"
type: "Accuracy"
bottom: "fc8"
bottom: "label"
top: "accuracy"
include {
phase: TEST
}
}
layer {
name: "loss"
type: "SoftmaxWithLoss"
bottom: "fc8"
bottom: "label"
top: "loss"
}
I0412 12:56:07.399720  8032 layer_factory.hpp:77] Creating layer val-data
I0412 12:56:07.401391  8032 db_lmdb.cpp:35] Opened lmdb /mnt/bigdisk/DIGITS-MAN-2/digits/jobs/20210407-214532-d396/val_db
I0412 12:56:07.401594  8032 net.cpp:84] Creating Layer val-data
I0412 12:56:07.401604  8032 net.cpp:380] val-data -> data
I0412 12:56:07.401612  8032 net.cpp:380] val-data -> label
I0412 12:56:07.401618  8032 data_transformer.cpp:25] Loading mean file from: /mnt/bigdisk/DIGITS-MAN-2/digits/jobs/20210407-214532-d396/mean.binaryproto
I0412 12:56:07.405503  8032 data_layer.cpp:45] output data size: 32,3,227,227
I0412 12:56:07.447587  8032 net.cpp:122] Setting up val-data
I0412 12:56:07.447609  8032 net.cpp:129] Top shape: 32 3 227 227 (4946784)
I0412 12:56:07.447613  8032 net.cpp:129] Top shape: 32 (32)
I0412 12:56:07.447618  8032 net.cpp:137] Memory required for data: 19787264
I0412 12:56:07.447623  8032 layer_factory.hpp:77] Creating layer label_val-data_1_split
I0412 12:56:07.447635  8032 net.cpp:84] Creating Layer label_val-data_1_split
I0412 12:56:07.447639  8032 net.cpp:406] label_val-data_1_split <- label
I0412 12:56:07.447646  8032 net.cpp:380] label_val-data_1_split -> label_val-data_1_split_0
I0412 12:56:07.447655  8032 net.cpp:380] label_val-data_1_split -> label_val-data_1_split_1
I0412 12:56:07.447705  8032 net.cpp:122] Setting up label_val-data_1_split
I0412 12:56:07.447710  8032 net.cpp:129] Top shape: 32 (32)
I0412 12:56:07.447715  8032 net.cpp:129] Top shape: 32 (32)
I0412 12:56:07.447736  8032 net.cpp:137] Memory required for data: 19787520
I0412 12:56:07.447739  8032 layer_factory.hpp:77] Creating layer conv1
I0412 12:56:07.447751  8032 net.cpp:84] Creating Layer conv1
I0412 12:56:07.447754  8032 net.cpp:406] conv1 <- data
I0412 12:56:07.447759  8032 net.cpp:380] conv1 -> conv1
I0412 12:56:07.449777  8032 net.cpp:122] Setting up conv1
I0412 12:56:07.449788  8032 net.cpp:129] Top shape: 32 96 55 55 (9292800)
I0412 12:56:07.449792  8032 net.cpp:137] Memory required for data: 56958720
I0412 12:56:07.449801  8032 layer_factory.hpp:77] Creating layer relu1
I0412 12:56:07.449808  8032 net.cpp:84] Creating Layer relu1
I0412 12:56:07.449812  8032 net.cpp:406] relu1 <- conv1
I0412 12:56:07.449817  8032 net.cpp:367] relu1 -> conv1 (in-place)
I0412 12:56:07.450273  8032 net.cpp:122] Setting up relu1
I0412 12:56:07.450282  8032 net.cpp:129] Top shape: 32 96 55 55 (9292800)
I0412 12:56:07.450285  8032 net.cpp:137] Memory required for data: 94129920
I0412 12:56:07.450289  8032 layer_factory.hpp:77] Creating layer norm1
I0412 12:56:07.450299  8032 net.cpp:84] Creating Layer norm1
I0412 12:56:07.450301  8032 net.cpp:406] norm1 <- conv1
I0412 12:56:07.450306  8032 net.cpp:380] norm1 -> norm1
I0412 12:56:07.450750  8032 net.cpp:122] Setting up norm1
I0412 12:56:07.450760  8032 net.cpp:129] Top shape: 32 96 55 55 (9292800)
I0412 12:56:07.450763  8032 net.cpp:137] Memory required for data: 131301120
I0412 12:56:07.450767  8032 layer_factory.hpp:77] Creating layer pool1
I0412 12:56:07.450774  8032 net.cpp:84] Creating Layer pool1
I0412 12:56:07.450778  8032 net.cpp:406] pool1 <- norm1
I0412 12:56:07.450783  8032 net.cpp:380] pool1 -> pool1
I0412 12:56:07.450811  8032 net.cpp:122] Setting up pool1
I0412 12:56:07.450816  8032 net.cpp:129] Top shape: 32 96 27 27 (2239488)
I0412 12:56:07.450819  8032 net.cpp:137] Memory required for data: 140259072
I0412 12:56:07.450824  8032 layer_factory.hpp:77] Creating layer conv2
I0412 12:56:07.450830  8032 net.cpp:84] Creating Layer conv2
I0412 12:56:07.450834  8032 net.cpp:406] conv2 <- pool1
I0412 12:56:07.450839  8032 net.cpp:380] conv2 -> conv2
I0412 12:56:07.461030  8032 net.cpp:122] Setting up conv2
I0412 12:56:07.461048  8032 net.cpp:129] Top shape: 32 256 27 27 (5971968)
I0412 12:56:07.461051  8032 net.cpp:137] Memory required for data: 164146944
I0412 12:56:07.461061  8032 layer_factory.hpp:77] Creating layer relu2
I0412 12:56:07.461069  8032 net.cpp:84] Creating Layer relu2
I0412 12:56:07.461073  8032 net.cpp:406] relu2 <- conv2
I0412 12:56:07.461081  8032 net.cpp:367] relu2 -> conv2 (in-place)
I0412 12:56:07.461439  8032 net.cpp:122] Setting up relu2
I0412 12:56:07.461447  8032 net.cpp:129] Top shape: 32 256 27 27 (5971968)
I0412 12:56:07.461450  8032 net.cpp:137] Memory required for data: 188034816
I0412 12:56:07.461454  8032 layer_factory.hpp:77] Creating layer norm2
I0412 12:56:07.461464  8032 net.cpp:84] Creating Layer norm2
I0412 12:56:07.461467  8032 net.cpp:406] norm2 <- conv2
I0412 12:56:07.461472  8032 net.cpp:380] norm2 -> norm2
I0412 12:56:07.462028  8032 net.cpp:122] Setting up norm2
I0412 12:56:07.462038  8032 net.cpp:129] Top shape: 32 256 27 27 (5971968)
I0412 12:56:07.462041  8032 net.cpp:137] Memory required for data: 211922688
I0412 12:56:07.462045  8032 layer_factory.hpp:77] Creating layer pool2
I0412 12:56:07.462052  8032 net.cpp:84] Creating Layer pool2
I0412 12:56:07.462055  8032 net.cpp:406] pool2 <- norm2
I0412 12:56:07.462062  8032 net.cpp:380] pool2 -> pool2
I0412 12:56:07.462093  8032 net.cpp:122] Setting up pool2
I0412 12:56:07.462103  8032 net.cpp:129] Top shape: 32 256 13 13 (1384448)
I0412 12:56:07.462106  8032 net.cpp:137] Memory required for data: 217460480
I0412 12:56:07.462110  8032 layer_factory.hpp:77] Creating layer conv3
I0412 12:56:07.462119  8032 net.cpp:84] Creating Layer conv3
I0412 12:56:07.462122  8032 net.cpp:406] conv3 <- pool2
I0412 12:56:07.462128  8032 net.cpp:380] conv3 -> conv3
I0412 12:56:07.480446  8032 net.cpp:122] Setting up conv3
I0412 12:56:07.480463  8032 net.cpp:129] Top shape: 32 384 13 13 (2076672)
I0412 12:56:07.480482  8032 net.cpp:137] Memory required for data: 225767168
I0412 12:56:07.480494  8032 layer_factory.hpp:77] Creating layer relu3
I0412 12:56:07.480504  8032 net.cpp:84] Creating Layer relu3
I0412 12:56:07.480509  8032 net.cpp:406] relu3 <- conv3
I0412 12:56:07.480515  8032 net.cpp:367] relu3 -> conv3 (in-place)
I0412 12:56:07.480880  8032 net.cpp:122] Setting up relu3
I0412 12:56:07.480890  8032 net.cpp:129] Top shape: 32 384 13 13 (2076672)
I0412 12:56:07.480892  8032 net.cpp:137] Memory required for data: 234073856
I0412 12:56:07.480895  8032 layer_factory.hpp:77] Creating layer conv4
I0412 12:56:07.480906  8032 net.cpp:84] Creating Layer conv4
I0412 12:56:07.480911  8032 net.cpp:406] conv4 <- conv3
I0412 12:56:07.480917  8032 net.cpp:380] conv4 -> conv4
I0412 12:56:07.491151  8032 net.cpp:122] Setting up conv4
I0412 12:56:07.491168  8032 net.cpp:129] Top shape: 32 192 13 13 (1038336)
I0412 12:56:07.491173  8032 net.cpp:137] Memory required for data: 238227200
I0412 12:56:07.491180  8032 layer_factory.hpp:77] Creating layer relu4
I0412 12:56:07.491189  8032 net.cpp:84] Creating Layer relu4
I0412 12:56:07.491194  8032 net.cpp:406] relu4 <- conv4
I0412 12:56:07.491200  8032 net.cpp:367] relu4 -> conv4 (in-place)
I0412 12:56:07.491691  8032 net.cpp:122] Setting up relu4
I0412 12:56:07.491701  8032 net.cpp:129] Top shape: 32 192 13 13 (1038336)
I0412 12:56:07.491704  8032 net.cpp:137] Memory required for data: 242380544
I0412 12:56:07.491708  8032 layer_factory.hpp:77] Creating layer conv4.2
I0412 12:56:07.491719  8032 net.cpp:84] Creating Layer conv4.2
I0412 12:56:07.491722  8032 net.cpp:406] conv4.2 <- conv4
I0412 12:56:07.491730  8032 net.cpp:380] conv4.2 -> conv4.2
I0412 12:56:07.497539  8032 net.cpp:122] Setting up conv4.2
I0412 12:56:07.497555  8032 net.cpp:129] Top shape: 32 192 13 13 (1038336)
I0412 12:56:07.497557  8032 net.cpp:137] Memory required for data: 246533888
I0412 12:56:07.497570  8032 layer_factory.hpp:77] Creating layer relu4.2
I0412 12:56:07.497577  8032 net.cpp:84] Creating Layer relu4.2
I0412 12:56:07.497581  8032 net.cpp:406] relu4.2 <- conv4.2
I0412 12:56:07.497588  8032 net.cpp:367] relu4.2 -> conv4.2 (in-place)
I0412 12:56:07.498102  8032 net.cpp:122] Setting up relu4.2
I0412 12:56:07.498112  8032 net.cpp:129] Top shape: 32 192 13 13 (1038336)
I0412 12:56:07.498116  8032 net.cpp:137] Memory required for data: 250687232
I0412 12:56:07.498119  8032 layer_factory.hpp:77] Creating layer conv5
I0412 12:56:07.498133  8032 net.cpp:84] Creating Layer conv5
I0412 12:56:07.498136  8032 net.cpp:406] conv5 <- conv4.2
I0412 12:56:07.498142  8032 net.cpp:380] conv5 -> conv5
I0412 12:56:07.503863  8032 net.cpp:122] Setting up conv5
I0412 12:56:07.503875  8032 net.cpp:129] Top shape: 32 256 13 13 (1384448)
I0412 12:56:07.503880  8032 net.cpp:137] Memory required for data: 256225024
I0412 12:56:07.503886  8032 layer_factory.hpp:77] Creating layer relu5
I0412 12:56:07.503892  8032 net.cpp:84] Creating Layer relu5
I0412 12:56:07.503896  8032 net.cpp:406] relu5 <- conv5
I0412 12:56:07.503902  8032 net.cpp:367] relu5 -> conv5 (in-place)
I0412 12:56:07.504398  8032 net.cpp:122] Setting up relu5
I0412 12:56:07.504408  8032 net.cpp:129] Top shape: 32 256 13 13 (1384448)
I0412 12:56:07.504412  8032 net.cpp:137] Memory required for data: 261762816
I0412 12:56:07.504415  8032 layer_factory.hpp:77] Creating layer pool5
I0412 12:56:07.504422  8032 net.cpp:84] Creating Layer pool5
I0412 12:56:07.504426  8032 net.cpp:406] pool5 <- conv5
I0412 12:56:07.504431  8032 net.cpp:380] pool5 -> pool5
I0412 12:56:07.504469  8032 net.cpp:122] Setting up pool5
I0412 12:56:07.504475  8032 net.cpp:129] Top shape: 32 256 6 6 (294912)
I0412 12:56:07.504478  8032 net.cpp:137] Memory required for data: 262942464
I0412 12:56:07.504482  8032 layer_factory.hpp:77] Creating layer fc6
I0412 12:56:07.504490  8032 net.cpp:84] Creating Layer fc6
I0412 12:56:07.504493  8032 net.cpp:406] fc6 <- pool5
I0412 12:56:07.504498  8032 net.cpp:380] fc6 -> fc6
I0412 12:56:07.865087  8032 net.cpp:122] Setting up fc6
I0412 12:56:07.865108  8032 net.cpp:129] Top shape: 32 4096 (131072)
I0412 12:56:07.865135  8032 net.cpp:137] Memory required for data: 263466752
I0412 12:56:07.865145  8032 layer_factory.hpp:77] Creating layer relu6
I0412 12:56:07.865154  8032 net.cpp:84] Creating Layer relu6
I0412 12:56:07.865159  8032 net.cpp:406] relu6 <- fc6
I0412 12:56:07.865166  8032 net.cpp:367] relu6 -> fc6 (in-place)
I0412 12:56:07.868643  8032 net.cpp:122] Setting up relu6
I0412 12:56:07.868654  8032 net.cpp:129] Top shape: 32 4096 (131072)
I0412 12:56:07.868659  8032 net.cpp:137] Memory required for data: 263991040
I0412 12:56:07.868662  8032 layer_factory.hpp:77] Creating layer drop6
I0412 12:56:07.868669  8032 net.cpp:84] Creating Layer drop6
I0412 12:56:07.868672  8032 net.cpp:406] drop6 <- fc6
I0412 12:56:07.868677  8032 net.cpp:367] drop6 -> fc6 (in-place)
I0412 12:56:07.868706  8032 net.cpp:122] Setting up drop6
I0412 12:56:07.868711  8032 net.cpp:129] Top shape: 32 4096 (131072)
I0412 12:56:07.868714  8032 net.cpp:137] Memory required for data: 264515328
I0412 12:56:07.868718  8032 layer_factory.hpp:77] Creating layer fc7
I0412 12:56:07.868726  8032 net.cpp:84] Creating Layer fc7
I0412 12:56:07.868728  8032 net.cpp:406] fc7 <- fc6
I0412 12:56:07.868733  8032 net.cpp:380] fc7 -> fc7
I0412 12:56:08.029983  8032 net.cpp:122] Setting up fc7
I0412 12:56:08.030006  8032 net.cpp:129] Top shape: 32 4096 (131072)
I0412 12:56:08.030010  8032 net.cpp:137] Memory required for data: 265039616
I0412 12:56:08.030019  8032 layer_factory.hpp:77] Creating layer relu7
I0412 12:56:08.030028  8032 net.cpp:84] Creating Layer relu7
I0412 12:56:08.030033  8032 net.cpp:406] relu7 <- fc7
I0412 12:56:08.030041  8032 net.cpp:367] relu7 -> fc7 (in-place)
I0412 12:56:08.030694  8032 net.cpp:122] Setting up relu7
I0412 12:56:08.030704  8032 net.cpp:129] Top shape: 32 4096 (131072)
I0412 12:56:08.030707  8032 net.cpp:137] Memory required for data: 265563904
I0412 12:56:08.030711  8032 layer_factory.hpp:77] Creating layer drop7
I0412 12:56:08.030719  8032 net.cpp:84] Creating Layer drop7
I0412 12:56:08.030722  8032 net.cpp:406] drop7 <- fc7
I0412 12:56:08.030728  8032 net.cpp:367] drop7 -> fc7 (in-place)
I0412 12:56:08.030753  8032 net.cpp:122] Setting up drop7
I0412 12:56:08.030759  8032 net.cpp:129] Top shape: 32 4096 (131072)
I0412 12:56:08.030762  8032 net.cpp:137] Memory required for data: 266088192
I0412 12:56:08.030766  8032 layer_factory.hpp:77] Creating layer fc8
I0412 12:56:08.030773  8032 net.cpp:84] Creating Layer fc8
I0412 12:56:08.030777  8032 net.cpp:406] fc8 <- fc7
I0412 12:56:08.030783  8032 net.cpp:380] fc8 -> fc8
I0412 12:56:08.038452  8032 net.cpp:122] Setting up fc8
I0412 12:56:08.038465  8032 net.cpp:129] Top shape: 32 196 (6272)
I0412 12:56:08.038467  8032 net.cpp:137] Memory required for data: 266113280
I0412 12:56:08.038480  8032 layer_factory.hpp:77] Creating layer fc8_fc8_0_split
I0412 12:56:08.038487  8032 net.cpp:84] Creating Layer fc8_fc8_0_split
I0412 12:56:08.038491  8032 net.cpp:406] fc8_fc8_0_split <- fc8
I0412 12:56:08.038498  8032 net.cpp:380] fc8_fc8_0_split -> fc8_fc8_0_split_0
I0412 12:56:08.038506  8032 net.cpp:380] fc8_fc8_0_split -> fc8_fc8_0_split_1
I0412 12:56:08.038538  8032 net.cpp:122] Setting up fc8_fc8_0_split
I0412 12:56:08.038544  8032 net.cpp:129] Top shape: 32 196 (6272)
I0412 12:56:08.038547  8032 net.cpp:129] Top shape: 32 196 (6272)
I0412 12:56:08.038550  8032 net.cpp:137] Memory required for data: 266163456
I0412 12:56:08.038554  8032 layer_factory.hpp:77] Creating layer accuracy
I0412 12:56:08.038561  8032 net.cpp:84] Creating Layer accuracy
I0412 12:56:08.038564  8032 net.cpp:406] accuracy <- fc8_fc8_0_split_0
I0412 12:56:08.038569  8032 net.cpp:406] accuracy <- label_val-data_1_split_0
I0412 12:56:08.038575  8032 net.cpp:380] accuracy -> accuracy
…
