…
I0407 22:24:16.786998 32718 net.cpp:294] The NetState phase (0) differed from the phase (1) specified by a rule in layer accuracy
I0407 22:24:16.787122 32718 net.cpp:51] Initializing net from parameters:
state {
phase: TRAIN
level: 0
stage: ""
}
layer {
name: "train-data"
type: "Data"
top: "data"
top: "label"
include {
phase: TRAIN
}
transform_param {
mirror: true
crop_size: 227
mean_file: "/mnt/bigdisk/DIGITS-TAM-1/digits/jobs/20210407-221849-d51c/mean.binaryproto"
}
data_param {
source: "/mnt/bigdisk/DIGITS-TAM-1/digits/jobs/20210407-221849-d51c/train_db"
batch_size: 128
backend: LMDB
}
}
layer {
name: "conv1"
type: "Convolution"
bottom: "data"
top: "conv1"
param {
lr_mult: 1
decay_mult: 1
}
param {
lr_mult: 2
decay_mult: 0
}
convolution_param {
num_output: 96
kernel_size: 11
stride: 4
weight_filler {
type: "gaussian"
std: 0.01
}
bias_filler {
type: "constant"
value: 0
}
}
}
layer {
name: "relu1"
type: "ReLU"
bottom: "conv1"
top: "conv1"
}
layer {
name: "norm1"
type: "LRN"
bottom: "conv1"
top: "norm1"
lrn_param {
local_size: 5
alpha: 0.0001
beta: 0.75
}
}
layer {
name: "pool1"
type: "Pooling"
bottom: "norm1"
top: "pool1"
pooling_param {
pool: MAX
kernel_size: 3
stride: 2
}
}
layer {
name: "conv2"
type: "Convolution"
bottom: "pool1"
top: "conv2"
param {
lr_mult: 1
decay_mult: 1
}
param {
lr_mult: 2
decay_mult: 0
}
convolution_param {
num_output: 256
pad: 2
kernel_size: 5
group: 2
weight_filler {
type: "gaussian"
std: 0.01
}
bias_filler {
type: "constant"
value: 0.1
}
}
}
layer {
name: "relu2"
type: "ReLU"
bottom: "conv2"
top: "conv2"
}
layer {
name: "norm2"
type: "LRN"
bottom: "conv2"
top: "norm2"
lrn_param {
local_size: 5
alpha: 0.0001
beta: 0.75
}
}
layer {
name: "pool2"
type: "Pooling"
bottom: "norm2"
top: "pool2"
pooling_param {
pool: MAX
kernel_size: 3
stride: 2
}
}
layer {
name: "conv3"
type: "Convolution"
bottom: "pool2"
top: "conv3"
param {
lr_mult: 1
decay_mult: 1
}
param {
lr_mult: 2
decay_mult: 0
}
convolution_param {
num_output: 384
pad: 1
kernel_size: 3
weight_filler {
type: "gaussian"
std: 0.01
}
bias_filler {
type: "constant"
value: 0
}
}
}
layer {
name: "relu3"
type: "ReLU"
bottom: "conv3"
top: "conv3"
}
layer {
name: "conv4"
type: "Convolution"
bottom: "conv3"
top: "conv4"
param {
lr_mult: 1
decay_mult: 1
}
param {
lr_mult: 2
decay_mult: 0
}
convolution_param {
num_output: 384
pad: 1
kernel_size: 3
group: 2
weight_filler {
type: "gaussian"
std: 0.01
}
bias_filler {
type: "constant"
value: 0.1
}
}
}
layer {
name: "relu4"
type: "ReLU"
bottom: "conv4"
top: "conv4"
}
layer {
name: "conv5"
type: "Convolution"
bottom: "conv4"
top: "conv5"
param {
lr_mult: 1
decay_mult: 1
}
param {
lr_mult: 2
decay_mult: 0
}
convolution_param {
num_output: 256
pad: 1
kernel_size: 3
group: 2
weight_filler {
type: "gaussian"
std: 0.01
}
bias_filler {
type: "constant"
value: 0.1
}
}
}
layer {
name: "relu5"
type: "ReLU"
bottom: "conv5"
top: "conv5"
}
layer {
name: "pool5"
type: "Pooling"
bottom: "conv5"
top: "pool5"
pooling_param {
pool: MAX
kernel_size: 3
stride: 2
}
}
layer {
name: "fc6"
type: "InnerProduct"
bottom: "pool5"
top: "fc6"
param {
lr_mult: 1
decay_mult: 1
}
param {
lr_mult: 2
decay_mult: 0
}
inner_product_param {
num_output: 4096
weight_filler {
type: "gaussian"
std: 0.005
}
bias_filler {
type: "constant"
value: 0.1
}
}
}
layer {
name: "relu6"
type: "ReLU"
bottom: "fc6"
top: "fc6"
}
layer {
name: "drop6"
type: "Dropout"
bottom: "fc6"
top: "fc6"
dropout_param {
dropout_ratio: 0.5
}
}
layer {
name: "fc7"
type: "InnerProduct"
bottom: "fc6"
top: "fc7"
param {
lr_mult: 1
decay_mult: 1
}
param {
lr_mult: 2
decay_mult: 0
}
inner_product_param {
num_output: 4096
weight_filler {
type: "gaussian"
std: 0.005
}
bias_filler {
type: "constant"
value: 0.1
}
}
}
layer {
name: "relu7"
type: "ReLU"
bottom: "fc7"
top: "fc7"
}
layer {
name: "drop7"
type: "Dropout"
bottom: "fc7"
top: "fc7"
dropout_param {
dropout_ratio: 0.5
}
}
layer {
name: "fc8"
type: "InnerProduct"
bottom: "fc7"
top: "fc8"
param {
lr_mult: 1
decay_mult: 1
}
param {
lr_mult: 2
decay_mult: 0
}
inner_product_param {
num_output: 196
weight_filler {
type: "gaussian"
std: 0.01
}
bias_filler {
type: "constant"
value: 0
}
}
}
layer {
name: "loss"
type: "SoftmaxWithLoss"
bottom: "fc8"
bottom: "label"
top: "loss"
}
I0407 22:24:16.787212 32718 layer_factory.hpp:77] Creating layer train-data
I0407 22:24:16.788659 32718 db_lmdb.cpp:35] Opened lmdb /mnt/bigdisk/DIGITS-TAM-1/digits/jobs/20210407-221849-d51c/train_db
I0407 22:24:16.789345 32718 net.cpp:84] Creating Layer train-data
I0407 22:24:16.789355 32718 net.cpp:380] train-data -> data
I0407 22:24:16.789376 32718 net.cpp:380] train-data -> label
I0407 22:24:16.789386 32718 data_transformer.cpp:25] Loading mean file from: /mnt/bigdisk/DIGITS-TAM-1/digits/jobs/20210407-221849-d51c/mean.binaryproto
I0407 22:24:16.793639 32718 data_layer.cpp:45] output data size: 128,3,227,227
I0407 22:24:16.921115 32718 net.cpp:122] Setting up train-data
I0407 22:24:16.921134 32718 net.cpp:129] Top shape: 128 3 227 227 (19787136)
I0407 22:24:16.921139 32718 net.cpp:129] Top shape: 128 (128)
I0407 22:24:16.921142 32718 net.cpp:137] Memory required for data: 79149056
I0407 22:24:16.921151 32718 layer_factory.hpp:77] Creating layer conv1
I0407 22:24:16.921171 32718 net.cpp:84] Creating Layer conv1
I0407 22:24:16.921176 32718 net.cpp:406] conv1 <- data
I0407 22:24:16.921188 32718 net.cpp:380] conv1 -> conv1
I0407 22:24:17.783514 32718 net.cpp:122] Setting up conv1
I0407 22:24:17.783531 32718 net.cpp:129] Top shape: 128 96 55 55 (37171200)
I0407 22:24:17.783535 32718 net.cpp:137] Memory required for data: 227833856
I0407 22:24:17.783555 32718 layer_factory.hpp:77] Creating layer relu1
I0407 22:24:17.783565 32718 net.cpp:84] Creating Layer relu1
I0407 22:24:17.783567 32718 net.cpp:406] relu1 <- conv1
I0407 22:24:17.783573 32718 net.cpp:367] relu1 -> conv1 (in-place)
I0407 22:24:17.783888 32718 net.cpp:122] Setting up relu1
I0407 22:24:17.783897 32718 net.cpp:129] Top shape: 128 96 55 55 (37171200)
I0407 22:24:17.783900 32718 net.cpp:137] Memory required for data: 376518656
I0407 22:24:17.783903 32718 layer_factory.hpp:77] Creating layer norm1
I0407 22:24:17.783911 32718 net.cpp:84] Creating Layer norm1
I0407 22:24:17.783929 32718 net.cpp:406] norm1 <- conv1
I0407 22:24:17.783936 32718 net.cpp:380] norm1 -> norm1
I0407 22:24:17.784480 32718 net.cpp:122] Setting up norm1
I0407 22:24:17.784490 32718 net.cpp:129] Top shape: 128 96 55 55 (37171200)
I0407 22:24:17.784493 32718 net.cpp:137] Memory required for data: 525203456
I0407 22:24:17.784497 32718 layer_factory.hpp:77] Creating layer pool1
I0407 22:24:17.784504 32718 net.cpp:84] Creating Layer pool1
I0407 22:24:17.784507 32718 net.cpp:406] pool1 <- norm1
I0407 22:24:17.784512 32718 net.cpp:380] pool1 -> pool1
I0407 22:24:17.784548 32718 net.cpp:122] Setting up pool1
I0407 22:24:17.784554 32718 net.cpp:129] Top shape: 128 96 27 27 (8957952)
I0407 22:24:17.784556 32718 net.cpp:137] Memory required for data: 561035264
I0407 22:24:17.784559 32718 layer_factory.hpp:77] Creating layer conv2
I0407 22:24:17.784567 32718 net.cpp:84] Creating Layer conv2
I0407 22:24:17.784570 32718 net.cpp:406] conv2 <- pool1
I0407 22:24:17.784574 32718 net.cpp:380] conv2 -> conv2
I0407 22:24:17.792659 32718 net.cpp:122] Setting up conv2
I0407 22:24:17.792675 32718 net.cpp:129] Top shape: 128 256 27 27 (23887872)
I0407 22:24:17.792678 32718 net.cpp:137] Memory required for data: 656586752
I0407 22:24:17.792688 32718 layer_factory.hpp:77] Creating layer relu2
I0407 22:24:17.792695 32718 net.cpp:84] Creating Layer relu2
I0407 22:24:17.792698 32718 net.cpp:406] relu2 <- conv2
I0407 22:24:17.792702 32718 net.cpp:367] relu2 -> conv2 (in-place)
I0407 22:24:17.793268 32718 net.cpp:122] Setting up relu2
I0407 22:24:17.793279 32718 net.cpp:129] Top shape: 128 256 27 27 (23887872)
I0407 22:24:17.793282 32718 net.cpp:137] Memory required for data: 752138240
I0407 22:24:17.793285 32718 layer_factory.hpp:77] Creating layer norm2
I0407 22:24:17.793292 32718 net.cpp:84] Creating Layer norm2
I0407 22:24:17.793294 32718 net.cpp:406] norm2 <- conv2
I0407 22:24:17.793300 32718 net.cpp:380] norm2 -> norm2
I0407 22:24:17.793694 32718 net.cpp:122] Setting up norm2
I0407 22:24:17.793702 32718 net.cpp:129] Top shape: 128 256 27 27 (23887872)
I0407 22:24:17.793705 32718 net.cpp:137] Memory required for data: 847689728
I0407 22:24:17.793709 32718 layer_factory.hpp:77] Creating layer pool2
I0407 22:24:17.793716 32718 net.cpp:84] Creating Layer pool2
I0407 22:24:17.793720 32718 net.cpp:406] pool2 <- norm2
I0407 22:24:17.793725 32718 net.cpp:380] pool2 -> pool2
I0407 22:24:17.793751 32718 net.cpp:122] Setting up pool2
I0407 22:24:17.793756 32718 net.cpp:129] Top shape: 128 256 13 13 (5537792)
I0407 22:24:17.793759 32718 net.cpp:137] Memory required for data: 869840896
I0407 22:24:17.793761 32718 layer_factory.hpp:77] Creating layer conv3
I0407 22:24:17.793771 32718 net.cpp:84] Creating Layer conv3
I0407 22:24:17.793773 32718 net.cpp:406] conv3 <- pool2
I0407 22:24:17.793779 32718 net.cpp:380] conv3 -> conv3
I0407 22:24:17.804400 32718 net.cpp:122] Setting up conv3
I0407 22:24:17.804414 32718 net.cpp:129] Top shape: 128 384 13 13 (8306688)
I0407 22:24:17.804416 32718 net.cpp:137] Memory required for data: 903067648
I0407 22:24:17.804425 32718 layer_factory.hpp:77] Creating layer relu3
I0407 22:24:17.804432 32718 net.cpp:84] Creating Layer relu3
I0407 22:24:17.804436 32718 net.cpp:406] relu3 <- conv3
I0407 22:24:17.804440 32718 net.cpp:367] relu3 -> conv3 (in-place)
I0407 22:24:17.805012 32718 net.cpp:122] Setting up relu3
I0407 22:24:17.805022 32718 net.cpp:129] Top shape: 128 384 13 13 (8306688)
I0407 22:24:17.805024 32718 net.cpp:137] Memory required for data: 936294400
I0407 22:24:17.805027 32718 layer_factory.hpp:77] Creating layer conv4
I0407 22:24:17.805037 32718 net.cpp:84] Creating Layer conv4
I0407 22:24:17.805040 32718 net.cpp:406] conv4 <- conv3
I0407 22:24:17.805047 32718 net.cpp:380] conv4 -> conv4
I0407 22:24:17.816521 32718 net.cpp:122] Setting up conv4
I0407 22:24:17.816535 32718 net.cpp:129] Top shape: 128 384 13 13 (8306688)
I0407 22:24:17.816540 32718 net.cpp:137] Memory required for data: 969521152
I0407 22:24:17.816546 32718 layer_factory.hpp:77] Creating layer relu4
I0407 22:24:17.816555 32718 net.cpp:84] Creating Layer relu4
I0407 22:24:17.816572 32718 net.cpp:406] relu4 <- conv4
I0407 22:24:17.816578 32718 net.cpp:367] relu4 -> conv4 (in-place)
I0407 22:24:17.817134 32718 net.cpp:122] Setting up relu4
I0407 22:24:17.817145 32718 net.cpp:129] Top shape: 128 384 13 13 (8306688)
I0407 22:24:17.817148 32718 net.cpp:137] Memory required for data: 1002747904
I0407 22:24:17.817152 32718 layer_factory.hpp:77] Creating layer conv5
I0407 22:24:17.817162 32718 net.cpp:84] Creating Layer conv5
I0407 22:24:17.817165 32718 net.cpp:406] conv5 <- conv4
I0407 22:24:17.817170 32718 net.cpp:380] conv5 -> conv5
I0407 22:24:17.829231 32718 net.cpp:122] Setting up conv5
I0407 22:24:17.829248 32718 net.cpp:129] Top shape: 128 256 13 13 (5537792)
I0407 22:24:17.829252 32718 net.cpp:137] Memory required for data: 1024899072
I0407 22:24:17.829267 32718 layer_factory.hpp:77] Creating layer relu5
I0407 22:24:17.829277 32718 net.cpp:84] Creating Layer relu5
I0407 22:24:17.829282 32718 net.cpp:406] relu5 <- conv5
I0407 22:24:17.829289 32718 net.cpp:367] relu5 -> conv5 (in-place)
I0407 22:24:17.830013 32718 net.cpp:122] Setting up relu5
I0407 22:24:17.830025 32718 net.cpp:129] Top shape: 128 256 13 13 (5537792)
I0407 22:24:17.830029 32718 net.cpp:137] Memory required for data: 1047050240
I0407 22:24:17.830034 32718 layer_factory.hpp:77] Creating layer pool5
I0407 22:24:17.830041 32718 net.cpp:84] Creating Layer pool5
I0407 22:24:17.830045 32718 net.cpp:406] pool5 <- conv5
I0407 22:24:17.830054 32718 net.cpp:380] pool5 -> pool5
I0407 22:24:17.830098 32718 net.cpp:122] Setting up pool5
I0407 22:24:17.830106 32718 net.cpp:129] Top shape: 128 256 6 6 (1179648)
I0407 22:24:17.830109 32718 net.cpp:137] Memory required for data: 1051768832
I0407 22:24:17.830112 32718 layer_factory.hpp:77] Creating layer fc6
I0407 22:24:17.830124 32718 net.cpp:84] Creating Layer fc6
I0407 22:24:17.830128 32718 net.cpp:406] fc6 <- pool5
I0407 22:24:17.830134 32718 net.cpp:380] fc6 -> fc6
I0407 22:24:18.338637 32718 net.cpp:122] Setting up fc6
I0407 22:24:18.338660 32718 net.cpp:129] Top shape: 128 4096 (524288)
I0407 22:24:18.338663 32718 net.cpp:137] Memory required for data: 1053865984
I0407 22:24:18.338675 32718 layer_factory.hpp:77] Creating layer relu6
I0407 22:24:18.338685 32718 net.cpp:84] Creating Layer relu6
I0407 22:24:18.338690 32718 net.cpp:406] relu6 <- fc6
I0407 22:24:18.338697 32718 net.cpp:367] relu6 -> fc6 (in-place)
I0407 22:24:18.339670 32718 net.cpp:122] Setting up relu6
I0407 22:24:18.339682 32718 net.cpp:129] Top shape: 128 4096 (524288)
I0407 22:24:18.339686 32718 net.cpp:137] Memory required for data: 1055963136
I0407 22:24:18.339690 32718 layer_factory.hpp:77] Creating layer drop6
I0407 22:24:18.339699 32718 net.cpp:84] Creating Layer drop6
I0407 22:24:18.339702 32718 net.cpp:406] drop6 <- fc6
I0407 22:24:18.339710 32718 net.cpp:367] drop6 -> fc6 (in-place)
I0407 22:24:18.339741 32718 net.cpp:122] Setting up drop6
I0407 22:24:18.339747 32718 net.cpp:129] Top shape: 128 4096 (524288)
I0407 22:24:18.339751 32718 net.cpp:137] Memory required for data: 1058060288
I0407 22:24:18.339754 32718 layer_factory.hpp:77] Creating layer fc7
I0407 22:24:18.339766 32718 net.cpp:84] Creating Layer fc7
I0407 22:24:18.339769 32718 net.cpp:406] fc7 <- fc6
I0407 22:24:18.339776 32718 net.cpp:380] fc7 -> fc7
I0407 22:24:18.561173 32718 net.cpp:122] Setting up fc7
I0407 22:24:18.561195 32718 net.cpp:129] Top shape: 128 4096 (524288)
I0407 22:24:18.561199 32718 net.cpp:137] Memory required for data: 1060157440
I0407 22:24:18.561211 32718 layer_factory.hpp:77] Creating layer relu7
I0407 22:24:18.561223 32718 net.cpp:84] Creating Layer relu7
I0407 22:24:18.561228 32718 net.cpp:406] relu7 <- fc7
I0407 22:24:18.561236 32718 net.cpp:367] relu7 -> fc7 (in-place)
I0407 22:24:18.561866 32718 net.cpp:122] Setting up relu7
I0407 22:24:18.561875 32718 net.cpp:129] Top shape: 128 4096 (524288)
I0407 22:24:18.561878 32718 net.cpp:137] Memory required for data: 1062254592
I0407 22:24:18.561882 32718 layer_factory.hpp:77] Creating layer drop7
I0407 22:24:18.561890 32718 net.cpp:84] Creating Layer drop7
I0407 22:24:18.561910 32718 net.cpp:406] drop7 <- fc7
I0407 22:24:18.561919 32718 net.cpp:367] drop7 -> fc7 (in-place)
I0407 22:24:18.561947 32718 net.cpp:122] Setting up drop7
I0407 22:24:18.561954 32718 net.cpp:129] Top shape: 128 4096 (524288)
I0407 22:24:18.561956 32718 net.cpp:137] Memory required for data: 1064351744
I0407 22:24:18.561960 32718 layer_factory.hpp:77] Creating layer fc8
I0407 22:24:18.561969 32718 net.cpp:84] Creating Layer fc8
I0407 22:24:18.561971 32718 net.cpp:406] fc8 <- fc7
I0407 22:24:18.561978 32718 net.cpp:380] fc8 -> fc8
I0407 22:24:18.572631 32718 net.cpp:122] Setting up fc8
I0407 22:24:18.572643 32718 net.cpp:129] Top shape: 128 196 (25088)
I0407 22:24:18.572645 32718 net.cpp:137] Memory required for data: 1064452096
I0407 22:24:18.572652 32718 layer_factory.hpp:77] Creating layer loss
I0407 22:24:18.572660 32718 net.cpp:84] Creating Layer loss
I0407 22:24:18.572664 32718 net.cpp:406] loss <- fc8
I0407 22:24:18.572669 32718 net.cpp:406] loss <- label
I0407 22:24:18.572679 32718 net.cpp:380] loss -> loss
I0407 22:24:18.572688 32718 layer_factory.hpp:77] Creating layer loss
…
I0407 22:24:18.574262 32718 net.cpp:294] The NetState phase (1) differed from the phase (0) specified by a rule in layer train-data
I0407 22:24:18.574456 32718 net.cpp:51] Initializing net from parameters:
state {
phase: TEST
}
layer {
name: "val-data"
type: "Data"
top: "data"
top: "label"
include {
phase: TEST
}
transform_param {
crop_size: 227
mean_file: "/mnt/bigdisk/DIGITS-TAM-1/digits/jobs/20210407-221849-d51c/mean.binaryproto"
}
data_param {
source: "/mnt/bigdisk/DIGITS-TAM-1/digits/jobs/20210407-221849-d51c/val_db"
batch_size: 32
backend: LMDB
}
}
layer {
name: "conv1"
type: "Convolution"
bottom: "data"
top: "conv1"
param {
lr_mult: 1
decay_mult: 1
}
param {
lr_mult: 2
decay_mult: 0
}
convolution_param {
num_output: 96
kernel_size: 11
stride: 4
weight_filler {
type: "gaussian"
std: 0.01
}
bias_filler {
type: "constant"
value: 0
}
}
}
layer {
name: "relu1"
type: "ReLU"
bottom: "conv1"
top: "conv1"
}
layer {
name: "norm1"
type: "LRN"
bottom: "conv1"
top: "norm1"
lrn_param {
local_size: 5
alpha: 0.0001
beta: 0.75
}
}
layer {
name: "pool1"
type: "Pooling"
bottom: "norm1"
top: "pool1"
pooling_param {
pool: MAX
kernel_size: 3
stride: 2
}
}
layer {
name: "conv2"
type: "Convolution"
bottom: "pool1"
top: "conv2"
param {
lr_mult: 1
decay_mult: 1
}
param {
lr_mult: 2
decay_mult: 0
}
convolution_param {
num_output: 256
pad: 2
kernel_size: 5
group: 2
weight_filler {
type: "gaussian"
std: 0.01
}
bias_filler {
type: "constant"
value: 0.1
}
}
}
layer {
name: "relu2"
type: "ReLU"
bottom: "conv2"
top: "conv2"
}
layer {
name: "norm2"
type: "LRN"
bottom: "conv2"
top: "norm2"
lrn_param {
local_size: 5
alpha: 0.0001
beta: 0.75
}
}
layer {
name: "pool2"
type: "Pooling"
bottom: "norm2"
top: "pool2"
pooling_param {
pool: MAX
kernel_size: 3
stride: 2
}
}
layer {
name: "conv3"
type: "Convolution"
bottom: "pool2"
top: "conv3"
param {
lr_mult: 1
decay_mult: 1
}
param {
lr_mult: 2
decay_mult: 0
}
convolution_param {
num_output: 384
pad: 1
kernel_size: 3
weight_filler {
type: "gaussian"
std: 0.01
}
bias_filler {
type: "constant"
value: 0
}
}
}
layer {
name: "relu3"
type: "ReLU"
bottom: "conv3"
top: "conv3"
}
layer {
name: "conv4"
type: "Convolution"
bottom: "conv3"
top: "conv4"
param {
lr_mult: 1
decay_mult: 1
}
param {
lr_mult: 2
decay_mult: 0
}
convolution_param {
num_output: 384
pad: 1
kernel_size: 3
group: 2
weight_filler {
type: "gaussian"
std: 0.01
}
bias_filler {
type: "constant"
value: 0.1
}
}
}
layer {
name: "relu4"
type: "ReLU"
bottom: "conv4"
top: "conv4"
}
layer {
name: "conv5"
type: "Convolution"
bottom: "conv4"
top: "conv5"
param {
lr_mult: 1
decay_mult: 1
}
param {
lr_mult: 2
decay_mult: 0
}
convolution_param {
num_output: 256
pad: 1
kernel_size: 3
group: 2
weight_filler {
type: "gaussian"
std: 0.01
}
bias_filler {
type: "constant"
value: 0.1
}
}
}
layer {
name: "relu5"
type: "ReLU"
bottom: "conv5"
top: "conv5"
}
layer {
name: "pool5"
type: "Pooling"
bottom: "conv5"
top: "pool5"
pooling_param {
pool: MAX
kernel_size: 3
stride: 2
}
}
layer {
name: "fc6"
type: "InnerProduct"
bottom: "pool5"
top: "fc6"
param {
lr_mult: 1
decay_mult: 1
}
param {
lr_mult: 2
decay_mult: 0
}
inner_product_param {
num_output: 4096
weight_filler {
type: "gaussian"
std: 0.005
}
bias_filler {
type: "constant"
value: 0.1
}
}
}
layer {
name: "relu6"
type: "ReLU"
bottom: "fc6"
top: "fc6"
}
layer {
name: "drop6"
type: "Dropout"
bottom: "fc6"
top: "fc6"
dropout_param {
dropout_ratio: 0.5
}
}
layer {
name: "fc7"
type: "InnerProduct"
bottom: "fc6"
top: "fc7"
param {
lr_mult: 1
decay_mult: 1
}
param {
lr_mult: 2
decay_mult: 0
}
inner_product_param {
num_output: 4096
weight_filler {
type: "gaussian"
std: 0.005
}
bias_filler {
type: "constant"
value: 0.1
}
}
}
layer {
name: "relu7"
type: "ReLU"
bottom: "fc7"
top: "fc7"
}
layer {
name: "drop7"
type: "Dropout"
bottom: "fc7"
top: "fc7"
dropout_param {
dropout_ratio: 0.5
}
}
layer {
name: "fc8"
type: "InnerProduct"
bottom: "fc7"
top: "fc8"
param {
lr_mult: 1
decay_mult: 1
}
param {
lr_mult: 2
decay_mult: 0
}
inner_product_param {
num_output: 196
weight_filler {
type: "gaussian"
std: 0.01
}
bias_filler {
type: "constant"
value: 0
}
}
}
layer {
name: "accuracy"
type: "Accuracy"
bottom: "fc8"
bottom: "label"
top: "accuracy"
include {
phase: TEST
}
}
layer {
name: "loss"
type: "SoftmaxWithLoss"
bottom: "fc8"
bottom: "label"
top: "loss"
}
I0407 22:24:18.574579 32718 layer_factory.hpp:77] Creating layer val-data
I0407 22:24:18.576093 32718 db_lmdb.cpp:35] Opened lmdb /mnt/bigdisk/DIGITS-TAM-1/digits/jobs/20210407-221849-d51c/val_db
I0407 22:24:18.576725 32718 net.cpp:84] Creating Layer val-data
I0407 22:24:18.576735 32718 net.cpp:380] val-data -> data
I0407 22:24:18.576747 32718 net.cpp:380] val-data -> label
I0407 22:24:18.576756 32718 data_transformer.cpp:25] Loading mean file from: /mnt/bigdisk/DIGITS-TAM-1/digits/jobs/20210407-221849-d51c/mean.binaryproto
I0407 22:24:18.581146 32718 data_layer.cpp:45] output data size: 32,3,227,227
I0407 22:24:18.619853 32718 net.cpp:122] Setting up val-data
I0407 22:24:18.619871 32718 net.cpp:129] Top shape: 32 3 227 227 (4946784)
I0407 22:24:18.619875 32718 net.cpp:129] Top shape: 32 (32)
I0407 22:24:18.619877 32718 net.cpp:137] Memory required for data: 19787264
I0407 22:24:18.619884 32718 layer_factory.hpp:77] Creating layer label_val-data_1_split
I0407 22:24:18.619895 32718 net.cpp:84] Creating Layer label_val-data_1_split
I0407 22:24:18.619899 32718 net.cpp:406] label_val-data_1_split <- label
I0407 22:24:18.619905 32718 net.cpp:380] label_val-data_1_split -> label_val-data_1_split_0
I0407 22:24:18.619915 32718 net.cpp:380] label_val-data_1_split -> label_val-data_1_split_1
I0407 22:24:18.619967 32718 net.cpp:122] Setting up label_val-data_1_split
I0407 22:24:18.619972 32718 net.cpp:129] Top shape: 32 (32)
I0407 22:24:18.619976 32718 net.cpp:129] Top shape: 32 (32)
I0407 22:24:18.619978 32718 net.cpp:137] Memory required for data: 19787520
I0407 22:24:18.619980 32718 layer_factory.hpp:77] Creating layer conv1
I0407 22:24:18.619992 32718 net.cpp:84] Creating Layer conv1
I0407 22:24:18.619994 32718 net.cpp:406] conv1 <- data
I0407 22:24:18.619999 32718 net.cpp:380] conv1 -> conv1
I0407 22:24:18.623205 32718 net.cpp:122] Setting up conv1
I0407 22:24:18.623215 32718 net.cpp:129] Top shape: 32 96 55 55 (9292800)
I0407 22:24:18.623219 32718 net.cpp:137] Memory required for data: 56958720
I0407 22:24:18.623229 32718 layer_factory.hpp:77] Creating layer relu1
I0407 22:24:18.623234 32718 net.cpp:84] Creating Layer relu1
I0407 22:24:18.623236 32718 net.cpp:406] relu1 <- conv1
I0407 22:24:18.623241 32718 net.cpp:367] relu1 -> conv1 (in-place)
I0407 22:24:18.623569 32718 net.cpp:122] Setting up relu1
I0407 22:24:18.623579 32718 net.cpp:129] Top shape: 32 96 55 55 (9292800)
I0407 22:24:18.623580 32718 net.cpp:137] Memory required for data: 94129920
I0407 22:24:18.623584 32718 layer_factory.hpp:77] Creating layer norm1
I0407 22:24:18.623591 32718 net.cpp:84] Creating Layer norm1
I0407 22:24:18.623594 32718 net.cpp:406] norm1 <- conv1
I0407 22:24:18.623600 32718 net.cpp:380] norm1 -> norm1
I0407 22:24:18.624128 32718 net.cpp:122] Setting up norm1
I0407 22:24:18.624138 32718 net.cpp:129] Top shape: 32 96 55 55 (9292800)
I0407 22:24:18.624140 32718 net.cpp:137] Memory required for data: 131301120
I0407 22:24:18.624143 32718 layer_factory.hpp:77] Creating layer pool1
I0407 22:24:18.624150 32718 net.cpp:84] Creating Layer pool1
I0407 22:24:18.624153 32718 net.cpp:406] pool1 <- norm1
I0407 22:24:18.624158 32718 net.cpp:380] pool1 -> pool1
I0407 22:24:18.624182 32718 net.cpp:122] Setting up pool1
I0407 22:24:18.624187 32718 net.cpp:129] Top shape: 32 96 27 27 (2239488)
I0407 22:24:18.624189 32718 net.cpp:137] Memory required for data: 140259072
I0407 22:24:18.624192 32718 layer_factory.hpp:77] Creating layer conv2
I0407 22:24:18.624199 32718 net.cpp:84] Creating Layer conv2
I0407 22:24:18.624202 32718 net.cpp:406] conv2 <- pool1
I0407 22:24:18.624222 32718 net.cpp:380] conv2 -> conv2
I0407 22:24:18.633859 32718 net.cpp:122] Setting up conv2
I0407 22:24:18.633873 32718 net.cpp:129] Top shape: 32 256 27 27 (5971968)
I0407 22:24:18.633877 32718 net.cpp:137] Memory required for data: 164146944
I0407 22:24:18.633885 32718 layer_factory.hpp:77] Creating layer relu2
I0407 22:24:18.633893 32718 net.cpp:84] Creating Layer relu2
I0407 22:24:18.633895 32718 net.cpp:406] relu2 <- conv2
I0407 22:24:18.633903 32718 net.cpp:367] relu2 -> conv2 (in-place)
I0407 22:24:18.634476 32718 net.cpp:122] Setting up relu2
I0407 22:24:18.634485 32718 net.cpp:129] Top shape: 32 256 27 27 (5971968)
I0407 22:24:18.634488 32718 net.cpp:137] Memory required for data: 188034816
I0407 22:24:18.634491 32718 layer_factory.hpp:77] Creating layer norm2
I0407 22:24:18.634501 32718 net.cpp:84] Creating Layer norm2
I0407 22:24:18.634505 32718 net.cpp:406] norm2 <- conv2
I0407 22:24:18.634510 32718 net.cpp:380] norm2 -> norm2
I0407 22:24:18.635298 32718 net.cpp:122] Setting up norm2
I0407 22:24:18.635308 32718 net.cpp:129] Top shape: 32 256 27 27 (5971968)
I0407 22:24:18.635311 32718 net.cpp:137] Memory required for data: 211922688
I0407 22:24:18.635314 32718 layer_factory.hpp:77] Creating layer pool2
I0407 22:24:18.635320 32718 net.cpp:84] Creating Layer pool2
I0407 22:24:18.635324 32718 net.cpp:406] pool2 <- norm2
I0407 22:24:18.635329 32718 net.cpp:380] pool2 -> pool2
I0407 22:24:18.635360 32718 net.cpp:122] Setting up pool2
I0407 22:24:18.635365 32718 net.cpp:129] Top shape: 32 256 13 13 (1384448)
I0407 22:24:18.635366 32718 net.cpp:137] Memory required for data: 217460480
I0407 22:24:18.635370 32718 layer_factory.hpp:77] Creating layer conv3
I0407 22:24:18.635380 32718 net.cpp:84] Creating Layer conv3
I0407 22:24:18.635381 32718 net.cpp:406] conv3 <- pool2
I0407 22:24:18.635386 32718 net.cpp:380] conv3 -> conv3
I0407 22:24:18.647136 32718 net.cpp:122] Setting up conv3
I0407 22:24:18.647153 32718 net.cpp:129] Top shape: 32 384 13 13 (2076672)
I0407 22:24:18.647157 32718 net.cpp:137] Memory required for data: 225767168
I0407 22:24:18.647167 32718 layer_factory.hpp:77] Creating layer relu3
I0407 22:24:18.647176 32718 net.cpp:84] Creating Layer relu3
I0407 22:24:18.647178 32718 net.cpp:406] relu3 <- conv3
I0407 22:24:18.647184 32718 net.cpp:367] relu3 -> conv3 (in-place)
I0407 22:24:18.647795 32718 net.cpp:122] Setting up relu3
I0407 22:24:18.647806 32718 net.cpp:129] Top shape: 32 384 13 13 (2076672)
I0407 22:24:18.647809 32718 net.cpp:137] Memory required for data: 234073856
I0407 22:24:18.647812 32718 layer_factory.hpp:77] Creating layer conv4
I0407 22:24:18.647822 32718 net.cpp:84] Creating Layer conv4
I0407 22:24:18.647825 32718 net.cpp:406] conv4 <- conv3
I0407 22:24:18.647831 32718 net.cpp:380] conv4 -> conv4
I0407 22:24:18.658180 32718 net.cpp:122] Setting up conv4
I0407 22:24:18.658193 32718 net.cpp:129] Top shape: 32 384 13 13 (2076672)
I0407 22:24:18.658196 32718 net.cpp:137] Memory required for data: 242380544
I0407 22:24:18.658203 32718 layer_factory.hpp:77] Creating layer relu4
I0407 22:24:18.658211 32718 net.cpp:84] Creating Layer relu4
I0407 22:24:18.658215 32718 net.cpp:406] relu4 <- conv4
I0407 22:24:18.658219 32718 net.cpp:367] relu4 -> conv4 (in-place)
I0407 22:24:18.658596 32718 net.cpp:122] Setting up relu4
I0407 22:24:18.658608 32718 net.cpp:129] Top shape: 32 384 13 13 (2076672)
I0407 22:24:18.658612 32718 net.cpp:137] Memory required for data: 250687232
I0407 22:24:18.658614 32718 layer_factory.hpp:77] Creating layer conv5
I0407 22:24:18.658623 32718 net.cpp:84] Creating Layer conv5
I0407 22:24:18.658627 32718 net.cpp:406] conv5 <- conv4
I0407 22:24:18.658632 32718 net.cpp:380] conv5 -> conv5
I0407 22:24:18.668480 32718 net.cpp:122] Setting up conv5
I0407 22:24:18.668495 32718 net.cpp:129] Top shape: 32 256 13 13 (1384448)
I0407 22:24:18.668498 32718 net.cpp:137] Memory required for data: 256225024
I0407 22:24:18.668511 32718 layer_factory.hpp:77] Creating layer relu5
I0407 22:24:18.668519 32718 net.cpp:84] Creating Layer relu5
I0407 22:24:18.668546 32718 net.cpp:406] relu5 <- conv5
I0407 22:24:18.668552 32718 net.cpp:367] relu5 -> conv5 (in-place)
I0407 22:24:18.669122 32718 net.cpp:122] Setting up relu5
I0407 22:24:18.669133 32718 net.cpp:129] Top shape: 32 256 13 13 (1384448)
I0407 22:24:18.669137 32718 net.cpp:137] Memory required for data: 261762816
I0407 22:24:18.669139 32718 layer_factory.hpp:77] Creating layer pool5
I0407 22:24:18.669149 32718 net.cpp:84] Creating Layer pool5
I0407 22:24:18.669152 32718 net.cpp:406] pool5 <- conv5
I0407 22:24:18.669157 32718 net.cpp:380] pool5 -> pool5
I0407 22:24:18.669193 32718 net.cpp:122] Setting up pool5
I0407 22:24:18.669198 32718 net.cpp:129] Top shape: 32 256 6 6 (294912)
I0407 22:24:18.669201 32718 net.cpp:137] Memory required for data: 262942464
I0407 22:24:18.669203 32718 layer_factory.hpp:77] Creating layer fc6
I0407 22:24:18.669209 32718 net.cpp:84] Creating Layer fc6
I0407 22:24:18.669212 32718 net.cpp:406] fc6 <- pool5
I0407 22:24:18.669219 32718 net.cpp:380] fc6 -> fc6
I0407 22:24:19.039827 32718 net.cpp:122] Setting up fc6
I0407 22:24:19.039849 32718 net.cpp:129] Top shape: 32 4096 (131072)
I0407 22:24:19.039851 32718 net.cpp:137] Memory required for data: 263466752
I0407 22:24:19.039860 32718 layer_factory.hpp:77] Creating layer relu6
I0407 22:24:19.039867 32718 net.cpp:84] Creating Layer relu6
I0407 22:24:19.039871 32718 net.cpp:406] relu6 <- fc6
I0407 22:24:19.039878 32718 net.cpp:367] relu6 -> fc6 (in-place)
I0407 22:24:19.040699 32718 net.cpp:122] Setting up relu6
I0407 22:24:19.040710 32718 net.cpp:129] Top shape: 32 4096 (131072)
I0407 22:24:19.040714 32718 net.cpp:137] Memory required for data: 263991040
I0407 22:24:19.040716 32718 layer_factory.hpp:77] Creating layer drop6
I0407 22:24:19.040724 32718 net.cpp:84] Creating Layer drop6
I0407 22:24:19.040726 32718 net.cpp:406] drop6 <- fc6
I0407 22:24:19.040730 32718 net.cpp:367] drop6 -> fc6 (in-place)
I0407 22:24:19.040755 32718 net.cpp:122] Setting up drop6
I0407 22:24:19.040760 32718 net.cpp:129] Top shape: 32 4096 (131072)
I0407 22:24:19.040762 32718 net.cpp:137] Memory required for data: 264515328
I0407 22:24:19.040766 32718 layer_factory.hpp:77] Creating layer fc7
I0407 22:24:19.040772 32718 net.cpp:84] Creating Layer fc7
I0407 22:24:19.040776 32718 net.cpp:406] fc7 <- fc6
I0407 22:24:19.040781 32718 net.cpp:380] fc7 -> fc7
I0407 22:24:19.195336 32718 net.cpp:122] Setting up fc7
I0407 22:24:19.195355 32718 net.cpp:129] Top shape: 32 4096 (131072)
I0407 22:24:19.195359 32718 net.cpp:137] Memory required for data: 265039616
I0407 22:24:19.195369 32718 layer_factory.hpp:77] Creating layer relu7
I0407 22:24:19.195377 32718 net.cpp:84] Creating Layer relu7
I0407 22:24:19.195381 32718 net.cpp:406] relu7 <- fc7
I0407 22:24:19.195387 32718 net.cpp:367] relu7 -> fc7 (in-place)
I0407 22:24:19.195897 32718 net.cpp:122] Setting up relu7
I0407 22:24:19.195905 32718 net.cpp:129] Top shape: 32 4096 (131072)
I0407 22:24:19.195909 32718 net.cpp:137] Memory required for data: 265563904
I0407 22:24:19.195910 32718 layer_factory.hpp:77] Creating layer drop7
I0407 22:24:19.195919 32718 net.cpp:84] Creating Layer drop7
I0407 22:24:19.195922 32718 net.cpp:406] drop7 <- fc7
I0407 22:24:19.195926 32718 net.cpp:367] drop7 -> fc7 (in-place)
I0407 22:24:19.195950 32718 net.cpp:122] Setting up drop7
I0407 22:24:19.195953 32718 net.cpp:129] Top shape: 32 4096 (131072)
I0407 22:24:19.195956 32718 net.cpp:137] Memory required for data: 266088192
I0407 22:24:19.195958 32718 layer_factory.hpp:77] Creating layer fc8
I0407 22:24:19.195966 32718 net.cpp:84] Creating Layer fc8
I0407 22:24:19.195967 32718 net.cpp:406] fc8 <- fc7
I0407 22:24:19.195973 32718 net.cpp:380] fc8 -> fc8
I0407 22:24:19.203724 32718 net.cpp:122] Setting up fc8
I0407 22:24:19.203734 32718 net.cpp:129] Top shape: 32 196 (6272)
I0407 22:24:19.203737 32718 net.cpp:137] Memory required for data: 266113280
I0407 22:24:19.203742 32718 layer_factory.hpp:77] Creating layer fc8_fc8_0_split
I0407 22:24:19.203748 32718 net.cpp:84] Creating Layer fc8_fc8_0_split
I0407 22:24:19.203750 32718 net.cpp:406] fc8_fc8_0_split <- fc8
I0407 22:24:19.203768 32718 net.cpp:380] fc8_fc8_0_split -> fc8_fc8_0_split_0
I0407 22:24:19.203774 32718 net.cpp:380] fc8_fc8_0_split -> fc8_fc8_0_split_1
I0407 22:24:19.203802 32718 net.cpp:122] Setting up fc8_fc8_0_split
I0407 22:24:19.203807 32718 net.cpp:129] Top shape: 32 196 (6272)
I0407 22:24:19.203810 32718 net.cpp:129] Top shape: 32 196 (6272)
I0407 22:24:19.203812 32718 net.cpp:137] Memory required for data: 266163456
I0407 22:24:19.203814 32718 layer_factory.hpp:77] Creating layer accuracy
I0407 22:24:19.203821 32718 net.cpp:84] Creating Layer accuracy
I0407 22:24:19.203824 32718 net.cpp:406] accuracy <- fc8_fc8_0_split_0
I0407 22:24:19.203827 32718 net.cpp:406] accuracy <- label_val-data_1_split_0
I0407 22:24:19.203832 32718 net.cpp:380] accuracy -> accuracy
…
