…
I0406 13:51:49.734047 23057 net.cpp:294] The NetState phase (0) differed from the phase (1) specified by a rule in layer accuracy
I0406 13:51:49.734171 23057 net.cpp:51] Initializing net from parameters:
state {
phase: TRAIN
level: 0
stage: ""
}
layer {
name: "train-data"
type: "Data"
top: "data"
top: "label"
include {
phase: TRAIN
}
transform_param {
mirror: true
crop_size: 227
mean_file: "/mnt/bigdisk/DIGITS-AIN-3/digits/jobs/20210401-115716-aaf7/mean.binaryproto"
}
data_param {
source: "/mnt/bigdisk/DIGITS-AIN-3/digits/jobs/20210401-115716-aaf7/train_db"
batch_size: 128
backend: LMDB
}
}
layer {
name: "conv1"
type: "Convolution"
bottom: "data"
top: "conv1"
param {
lr_mult: 1
decay_mult: 1
}
param {
lr_mult: 2
decay_mult: 0
}
convolution_param {
num_output: 96
kernel_size: 11
stride: 4
weight_filler {
type: "gaussian"
std: 0.01
}
bias_filler {
type: "constant"
value: 0
}
}
}
layer {
name: "relu1"
type: "ReLU"
bottom: "conv1"
top: "conv1"
}
layer {
name: "norm1"
type: "LRN"
bottom: "conv1"
top: "norm1"
lrn_param {
local_size: 5
alpha: 0.0001
beta: 0.75
}
}
layer {
name: "pool1"
type: "Pooling"
bottom: "norm1"
top: "pool1"
pooling_param {
pool: MAX
kernel_size: 3
stride: 2
}
}
layer {
name: "conv2"
type: "Convolution"
bottom: "pool1"
top: "conv2"
param {
lr_mult: 1
decay_mult: 1
}
param {
lr_mult: 2
decay_mult: 0
}
convolution_param {
num_output: 256
pad: 2
kernel_size: 5
group: 2
weight_filler {
type: "gaussian"
std: 0.01
}
bias_filler {
type: "constant"
value: 0.1
}
}
}
layer {
name: "relu2"
type: "ReLU"
bottom: "conv2"
top: "conv2"
}
layer {
name: "norm2"
type: "LRN"
bottom: "conv2"
top: "norm2"
lrn_param {
local_size: 5
alpha: 0.0001
beta: 0.75
}
}
layer {
name: "pool2"
type: "Pooling"
bottom: "norm2"
top: "pool2"
pooling_param {
pool: MAX
kernel_size: 3
stride: 2
}
}
layer {
name: "conv3"
type: "Convolution"
bottom: "pool2"
top: "conv3"
param {
lr_mult: 1
decay_mult: 1
}
param {
lr_mult: 2
decay_mult: 0
}
convolution_param {
num_output: 384
pad: 1
kernel_size: 3
weight_filler {
type: "gaussian"
std: 0.01
}
bias_filler {
type: "constant"
value: 0
}
}
}
layer {
name: "relu3"
type: "ReLU"
bottom: "conv3"
top: "conv3"
}
layer {
name: "conv4"
type: "Convolution"
bottom: "conv3"
top: "conv4"
param {
lr_mult: 1
decay_mult: 1
}
param {
lr_mult: 2
decay_mult: 0
}
convolution_param {
num_output: 384
pad: 1
kernel_size: 3
group: 2
weight_filler {
type: "gaussian"
std: 0.01
}
bias_filler {
type: "constant"
value: 0.1
}
}
}
layer {
name: "relu4"
type: "ReLU"
bottom: "conv4"
top: "conv4"
}
layer {
name: "conv5"
type: "Convolution"
bottom: "conv4"
top: "conv5"
param {
lr_mult: 1
decay_mult: 1
}
param {
lr_mult: 2
decay_mult: 0
}
convolution_param {
num_output: 256
pad: 1
kernel_size: 3
group: 2
weight_filler {
type: "gaussian"
std: 0.01
}
bias_filler {
type: "constant"
value: 0.1
}
}
}
layer {
name: "relu5"
type: "ReLU"
bottom: "conv5"
top: "conv5"
}
layer {
name: "pool5"
type: "Pooling"
bottom: "conv5"
top: "pool5"
pooling_param {
pool: MAX
kernel_size: 3
stride: 2
}
}
layer {
name: "fc6"
type: "InnerProduct"
bottom: "pool5"
top: "fc6"
param {
lr_mult: 1
decay_mult: 1
}
param {
lr_mult: 2
decay_mult: 0
}
inner_product_param {
num_output: 4096
weight_filler {
type: "gaussian"
std: 0.005
}
bias_filler {
type: "constant"
value: 0.1
}
}
}
layer {
name: "relu6"
type: "ReLU"
bottom: "fc6"
top: "fc6"
}
layer {
name: "drop6"
type: "Dropout"
bottom: "fc6"
top: "fc6"
dropout_param {
dropout_ratio: 0.5
}
}
layer {
name: "fc7"
type: "InnerProduct"
bottom: "fc6"
top: "fc7"
param {
lr_mult: 1
decay_mult: 1
}
param {
lr_mult: 2
decay_mult: 0
}
inner_product_param {
num_output: 4096
weight_filler {
type: "gaussian"
std: 0.005
}
bias_filler {
type: "constant"
value: 0.1
}
}
}
layer {
name: "relu7"
type: "ReLU"
bottom: "fc7"
top: "fc7"
}
layer {
name: "drop7"
type: "Dropout"
bottom: "fc7"
top: "fc7"
dropout_param {
dropout_ratio: 0.5
}
}
layer {
name: "fc8"
type: "InnerProduct"
bottom: "fc7"
top: "fc8"
param {
lr_mult: 1
decay_mult: 1
}
param {
lr_mult: 2
decay_mult: 0
}
inner_product_param {
num_output: 196
weight_filler {
type: "gaussian"
std: 0.01
}
bias_filler {
type: "constant"
value: 0
}
}
}
layer {
name: "loss"
type: "SoftmaxWithLoss"
bottom: "fc8"
bottom: "label"
top: "loss"
}
I0406 13:51:49.734251 23057 layer_factory.hpp:77] Creating layer train-data
I0406 13:51:49.757519 23057 db_lmdb.cpp:35] Opened lmdb /mnt/bigdisk/DIGITS-AIN-3/digits/jobs/20210401-115716-aaf7/train_db
I0406 13:51:49.757766 23057 net.cpp:84] Creating Layer train-data
I0406 13:51:49.757781 23057 net.cpp:380] train-data -> data
I0406 13:51:49.757800 23057 net.cpp:380] train-data -> label
I0406 13:51:49.757812 23057 data_transformer.cpp:25] Loading mean file from: /mnt/bigdisk/DIGITS-AIN-3/digits/jobs/20210401-115716-aaf7/mean.binaryproto
I0406 13:51:49.764586 23057 data_layer.cpp:45] output data size: 128,3,227,227
I0406 13:51:49.898903 23057 net.cpp:122] Setting up train-data
I0406 13:51:49.898926 23057 net.cpp:129] Top shape: 128 3 227 227 (19787136)
I0406 13:51:49.898931 23057 net.cpp:129] Top shape: 128 (128)
I0406 13:51:49.898932 23057 net.cpp:137] Memory required for data: 79149056
I0406 13:51:49.898941 23057 layer_factory.hpp:77] Creating layer conv1
I0406 13:51:49.898959 23057 net.cpp:84] Creating Layer conv1
I0406 13:51:49.898963 23057 net.cpp:406] conv1 <- data
I0406 13:51:49.898974 23057 net.cpp:380] conv1 -> conv1
I0406 13:51:50.357398 23057 net.cpp:122] Setting up conv1
I0406 13:51:50.357421 23057 net.cpp:129] Top shape: 128 96 55 55 (37171200)
I0406 13:51:50.357426 23057 net.cpp:137] Memory required for data: 227833856
I0406 13:51:50.357450 23057 layer_factory.hpp:77] Creating layer relu1
I0406 13:51:50.357463 23057 net.cpp:84] Creating Layer relu1
I0406 13:51:50.357468 23057 net.cpp:406] relu1 <- conv1
I0406 13:51:50.357476 23057 net.cpp:367] relu1 -> conv1 (in-place)
I0406 13:51:50.357862 23057 net.cpp:122] Setting up relu1
I0406 13:51:50.357872 23057 net.cpp:129] Top shape: 128 96 55 55 (37171200)
I0406 13:51:50.357877 23057 net.cpp:137] Memory required for data: 376518656
I0406 13:51:50.357880 23057 layer_factory.hpp:77] Creating layer norm1
I0406 13:51:50.357890 23057 net.cpp:84] Creating Layer norm1
I0406 13:51:50.357894 23057 net.cpp:406] norm1 <- conv1
I0406 13:51:50.357930 23057 net.cpp:380] norm1 -> norm1
I0406 13:51:50.358530 23057 net.cpp:122] Setting up norm1
I0406 13:51:50.358541 23057 net.cpp:129] Top shape: 128 96 55 55 (37171200)
I0406 13:51:50.358546 23057 net.cpp:137] Memory required for data: 525203456
I0406 13:51:50.358549 23057 layer_factory.hpp:77] Creating layer pool1
I0406 13:51:50.358558 23057 net.cpp:84] Creating Layer pool1
I0406 13:51:50.358562 23057 net.cpp:406] pool1 <- norm1
I0406 13:51:50.358568 23057 net.cpp:380] pool1 -> pool1
I0406 13:51:50.358613 23057 net.cpp:122] Setting up pool1
I0406 13:51:50.358620 23057 net.cpp:129] Top shape: 128 96 27 27 (8957952)
I0406 13:51:50.358624 23057 net.cpp:137] Memory required for data: 561035264
I0406 13:51:50.358628 23057 layer_factory.hpp:77] Creating layer conv2
I0406 13:51:50.358640 23057 net.cpp:84] Creating Layer conv2
I0406 13:51:50.358644 23057 net.cpp:406] conv2 <- pool1
I0406 13:51:50.358649 23057 net.cpp:380] conv2 -> conv2
I0406 13:51:50.367098 23057 net.cpp:122] Setting up conv2
I0406 13:51:50.367125 23057 net.cpp:129] Top shape: 128 256 27 27 (23887872)
I0406 13:51:50.367128 23057 net.cpp:137] Memory required for data: 656586752
I0406 13:51:50.367143 23057 layer_factory.hpp:77] Creating layer relu2
I0406 13:51:50.367153 23057 net.cpp:84] Creating Layer relu2
I0406 13:51:50.367158 23057 net.cpp:406] relu2 <- conv2
I0406 13:51:50.367166 23057 net.cpp:367] relu2 -> conv2 (in-place)
I0406 13:51:50.367725 23057 net.cpp:122] Setting up relu2
I0406 13:51:50.367738 23057 net.cpp:129] Top shape: 128 256 27 27 (23887872)
I0406 13:51:50.367743 23057 net.cpp:137] Memory required for data: 752138240
I0406 13:51:50.367746 23057 layer_factory.hpp:77] Creating layer norm2
I0406 13:51:50.367755 23057 net.cpp:84] Creating Layer norm2
I0406 13:51:50.367758 23057 net.cpp:406] norm2 <- conv2
I0406 13:51:50.367765 23057 net.cpp:380] norm2 -> norm2
I0406 13:51:50.368533 23057 net.cpp:122] Setting up norm2
I0406 13:51:50.368544 23057 net.cpp:129] Top shape: 128 256 27 27 (23887872)
I0406 13:51:50.368548 23057 net.cpp:137] Memory required for data: 847689728
I0406 13:51:50.368552 23057 layer_factory.hpp:77] Creating layer pool2
I0406 13:51:50.368561 23057 net.cpp:84] Creating Layer pool2
I0406 13:51:50.368566 23057 net.cpp:406] pool2 <- norm2
I0406 13:51:50.368571 23057 net.cpp:380] pool2 -> pool2
I0406 13:51:50.368607 23057 net.cpp:122] Setting up pool2
I0406 13:51:50.368614 23057 net.cpp:129] Top shape: 128 256 13 13 (5537792)
I0406 13:51:50.368618 23057 net.cpp:137] Memory required for data: 869840896
I0406 13:51:50.368620 23057 layer_factory.hpp:77] Creating layer conv3
I0406 13:51:50.368633 23057 net.cpp:84] Creating Layer conv3
I0406 13:51:50.368636 23057 net.cpp:406] conv3 <- pool2
I0406 13:51:50.368643 23057 net.cpp:380] conv3 -> conv3
I0406 13:51:50.381891 23057 net.cpp:122] Setting up conv3
I0406 13:51:50.381913 23057 net.cpp:129] Top shape: 128 384 13 13 (8306688)
I0406 13:51:50.381916 23057 net.cpp:137] Memory required for data: 903067648
I0406 13:51:50.381927 23057 layer_factory.hpp:77] Creating layer relu3
I0406 13:51:50.381935 23057 net.cpp:84] Creating Layer relu3
I0406 13:51:50.381938 23057 net.cpp:406] relu3 <- conv3
I0406 13:51:50.381943 23057 net.cpp:367] relu3 -> conv3 (in-place)
I0406 13:51:50.382341 23057 net.cpp:122] Setting up relu3
I0406 13:51:50.382350 23057 net.cpp:129] Top shape: 128 384 13 13 (8306688)
I0406 13:51:50.382352 23057 net.cpp:137] Memory required for data: 936294400
I0406 13:51:50.382355 23057 layer_factory.hpp:77] Creating layer conv4
I0406 13:51:50.382364 23057 net.cpp:84] Creating Layer conv4
I0406 13:51:50.382366 23057 net.cpp:406] conv4 <- conv3
I0406 13:51:50.382371 23057 net.cpp:380] conv4 -> conv4
I0406 13:51:50.393712 23057 net.cpp:122] Setting up conv4
I0406 13:51:50.393736 23057 net.cpp:129] Top shape: 128 384 13 13 (8306688)
I0406 13:51:50.393740 23057 net.cpp:137] Memory required for data: 969521152
I0406 13:51:50.393752 23057 layer_factory.hpp:77] Creating layer relu4
I0406 13:51:50.393766 23057 net.cpp:84] Creating Layer relu4
I0406 13:51:50.393771 23057 net.cpp:406] relu4 <- conv4
I0406 13:51:50.393802 23057 net.cpp:367] relu4 -> conv4 (in-place)
I0406 13:51:50.394281 23057 net.cpp:122] Setting up relu4
I0406 13:51:50.394291 23057 net.cpp:129] Top shape: 128 384 13 13 (8306688)
I0406 13:51:50.394295 23057 net.cpp:137] Memory required for data: 1002747904
I0406 13:51:50.394299 23057 layer_factory.hpp:77] Creating layer conv5
I0406 13:51:50.394312 23057 net.cpp:84] Creating Layer conv5
I0406 13:51:50.394316 23057 net.cpp:406] conv5 <- conv4
I0406 13:51:50.394325 23057 net.cpp:380] conv5 -> conv5
I0406 13:51:50.405966 23057 net.cpp:122] Setting up conv5
I0406 13:51:50.405995 23057 net.cpp:129] Top shape: 128 256 13 13 (5537792)
I0406 13:51:50.406002 23057 net.cpp:137] Memory required for data: 1024899072
I0406 13:51:50.406019 23057 layer_factory.hpp:77] Creating layer relu5
I0406 13:51:50.406033 23057 net.cpp:84] Creating Layer relu5
I0406 13:51:50.406038 23057 net.cpp:406] relu5 <- conv5
I0406 13:51:50.406046 23057 net.cpp:367] relu5 -> conv5 (in-place)
I0406 13:51:50.406710 23057 net.cpp:122] Setting up relu5
I0406 13:51:50.406723 23057 net.cpp:129] Top shape: 128 256 13 13 (5537792)
I0406 13:51:50.406726 23057 net.cpp:137] Memory required for data: 1047050240
I0406 13:51:50.406730 23057 layer_factory.hpp:77] Creating layer pool5
I0406 13:51:50.406739 23057 net.cpp:84] Creating Layer pool5
I0406 13:51:50.406744 23057 net.cpp:406] pool5 <- conv5
I0406 13:51:50.406749 23057 net.cpp:380] pool5 -> pool5
I0406 13:51:50.406798 23057 net.cpp:122] Setting up pool5
I0406 13:51:50.406805 23057 net.cpp:129] Top shape: 128 256 6 6 (1179648)
I0406 13:51:50.406808 23057 net.cpp:137] Memory required for data: 1051768832
I0406 13:51:50.406811 23057 layer_factory.hpp:77] Creating layer fc6
I0406 13:51:50.406823 23057 net.cpp:84] Creating Layer fc6
I0406 13:51:50.406827 23057 net.cpp:406] fc6 <- pool5
I0406 13:51:50.406834 23057 net.cpp:380] fc6 -> fc6
I0406 13:51:50.862350 23057 net.cpp:122] Setting up fc6
I0406 13:51:50.862377 23057 net.cpp:129] Top shape: 128 4096 (524288)
I0406 13:51:50.862381 23057 net.cpp:137] Memory required for data: 1053865984
I0406 13:51:50.862392 23057 layer_factory.hpp:77] Creating layer relu6
I0406 13:51:50.862403 23057 net.cpp:84] Creating Layer relu6
I0406 13:51:50.862408 23057 net.cpp:406] relu6 <- fc6
I0406 13:51:50.862416 23057 net.cpp:367] relu6 -> fc6 (in-place)
I0406 13:51:50.865869 23057 net.cpp:122] Setting up relu6
I0406 13:51:50.865887 23057 net.cpp:129] Top shape: 128 4096 (524288)
I0406 13:51:50.865891 23057 net.cpp:137] Memory required for data: 1055963136
I0406 13:51:50.865895 23057 layer_factory.hpp:77] Creating layer drop6
I0406 13:51:50.865907 23057 net.cpp:84] Creating Layer drop6
I0406 13:51:50.865911 23057 net.cpp:406] drop6 <- fc6
I0406 13:51:50.865918 23057 net.cpp:367] drop6 -> fc6 (in-place)
I0406 13:51:50.865957 23057 net.cpp:122] Setting up drop6
I0406 13:51:50.865963 23057 net.cpp:129] Top shape: 128 4096 (524288)
I0406 13:51:50.865967 23057 net.cpp:137] Memory required for data: 1058060288
I0406 13:51:50.865969 23057 layer_factory.hpp:77] Creating layer fc7
I0406 13:51:50.865978 23057 net.cpp:84] Creating Layer fc7
I0406 13:51:50.865981 23057 net.cpp:406] fc7 <- fc6
I0406 13:51:50.865989 23057 net.cpp:380] fc7 -> fc7
I0406 13:51:51.049242 23057 net.cpp:122] Setting up fc7
I0406 13:51:51.049263 23057 net.cpp:129] Top shape: 128 4096 (524288)
I0406 13:51:51.049265 23057 net.cpp:137] Memory required for data: 1060157440
I0406 13:51:51.049273 23057 layer_factory.hpp:77] Creating layer relu7
I0406 13:51:51.049281 23057 net.cpp:84] Creating Layer relu7
I0406 13:51:51.049285 23057 net.cpp:406] relu7 <- fc7
I0406 13:51:51.049290 23057 net.cpp:367] relu7 -> fc7 (in-place)
I0406 13:51:51.049667 23057 net.cpp:122] Setting up relu7
I0406 13:51:51.049675 23057 net.cpp:129] Top shape: 128 4096 (524288)
I0406 13:51:51.049679 23057 net.cpp:137] Memory required for data: 1062254592
I0406 13:51:51.049680 23057 layer_factory.hpp:77] Creating layer drop7
I0406 13:51:51.049685 23057 net.cpp:84] Creating Layer drop7
I0406 13:51:51.049688 23057 net.cpp:406] drop7 <- fc7
I0406 13:51:51.049715 23057 net.cpp:367] drop7 -> fc7 (in-place)
I0406 13:51:51.049736 23057 net.cpp:122] Setting up drop7
I0406 13:51:51.049741 23057 net.cpp:129] Top shape: 128 4096 (524288)
I0406 13:51:51.049743 23057 net.cpp:137] Memory required for data: 1064351744
I0406 13:51:51.049746 23057 layer_factory.hpp:77] Creating layer fc8
I0406 13:51:51.049753 23057 net.cpp:84] Creating Layer fc8
I0406 13:51:51.049755 23057 net.cpp:406] fc8 <- fc7
I0406 13:51:51.049760 23057 net.cpp:380] fc8 -> fc8
I0406 13:51:51.057101 23057 net.cpp:122] Setting up fc8
I0406 13:51:51.057122 23057 net.cpp:129] Top shape: 128 196 (25088)
I0406 13:51:51.057124 23057 net.cpp:137] Memory required for data: 1064452096
I0406 13:51:51.057132 23057 layer_factory.hpp:77] Creating layer loss
I0406 13:51:51.057142 23057 net.cpp:84] Creating Layer loss
I0406 13:51:51.057145 23057 net.cpp:406] loss <- fc8
I0406 13:51:51.057149 23057 net.cpp:406] loss <- label
I0406 13:51:51.057155 23057 net.cpp:380] loss -> loss
I0406 13:51:51.057164 23057 layer_factory.hpp:77] Creating layer loss
…
I0406 13:51:51.058583 23057 net.cpp:294] The NetState phase (1) differed from the phase (0) specified by a rule in layer train-data
I0406 13:51:51.058712 23057 net.cpp:51] Initializing net from parameters:
state {
phase: TEST
}
layer {
name: "val-data"
type: "Data"
top: "data"
top: "label"
include {
phase: TEST
}
transform_param {
crop_size: 227
mean_file: "/mnt/bigdisk/DIGITS-AIN-3/digits/jobs/20210401-115716-aaf7/mean.binaryproto"
}
data_param {
source: "/mnt/bigdisk/DIGITS-AIN-3/digits/jobs/20210401-115716-aaf7/val_db"
batch_size: 32
backend: LMDB
}
}
layer {
name: "conv1"
type: "Convolution"
bottom: "data"
top: "conv1"
param {
lr_mult: 1
decay_mult: 1
}
param {
lr_mult: 2
decay_mult: 0
}
convolution_param {
num_output: 96
kernel_size: 11
stride: 4
weight_filler {
type: "gaussian"
std: 0.01
}
bias_filler {
type: "constant"
value: 0
}
}
}
layer {
name: "relu1"
type: "ReLU"
bottom: "conv1"
top: "conv1"
}
layer {
name: "norm1"
type: "LRN"
bottom: "conv1"
top: "norm1"
lrn_param {
local_size: 5
alpha: 0.0001
beta: 0.75
}
}
layer {
name: "pool1"
type: "Pooling"
bottom: "norm1"
top: "pool1"
pooling_param {
pool: MAX
kernel_size: 3
stride: 2
}
}
layer {
name: "conv2"
type: "Convolution"
bottom: "pool1"
top: "conv2"
param {
lr_mult: 1
decay_mult: 1
}
param {
lr_mult: 2
decay_mult: 0
}
convolution_param {
num_output: 256
pad: 2
kernel_size: 5
group: 2
weight_filler {
type: "gaussian"
std: 0.01
}
bias_filler {
type: "constant"
value: 0.1
}
}
}
layer {
name: "relu2"
type: "ReLU"
bottom: "conv2"
top: "conv2"
}
layer {
name: "norm2"
type: "LRN"
bottom: "conv2"
top: "norm2"
lrn_param {
local_size: 5
alpha: 0.0001
beta: 0.75
}
}
layer {
name: "pool2"
type: "Pooling"
bottom: "norm2"
top: "pool2"
pooling_param {
pool: MAX
kernel_size: 3
stride: 2
}
}
layer {
name: "conv3"
type: "Convolution"
bottom: "pool2"
top: "conv3"
param {
lr_mult: 1
decay_mult: 1
}
param {
lr_mult: 2
decay_mult: 0
}
convolution_param {
num_output: 384
pad: 1
kernel_size: 3
weight_filler {
type: "gaussian"
std: 0.01
}
bias_filler {
type: "constant"
value: 0
}
}
}
layer {
name: "relu3"
type: "ReLU"
bottom: "conv3"
top: "conv3"
}
layer {
name: "conv4"
type: "Convolution"
bottom: "conv3"
top: "conv4"
param {
lr_mult: 1
decay_mult: 1
}
param {
lr_mult: 2
decay_mult: 0
}
convolution_param {
num_output: 384
pad: 1
kernel_size: 3
group: 2
weight_filler {
type: "gaussian"
std: 0.01
}
bias_filler {
type: "constant"
value: 0.1
}
}
}
layer {
name: "relu4"
type: "ReLU"
bottom: "conv4"
top: "conv4"
}
layer {
name: "conv5"
type: "Convolution"
bottom: "conv4"
top: "conv5"
param {
lr_mult: 1
decay_mult: 1
}
param {
lr_mult: 2
decay_mult: 0
}
convolution_param {
num_output: 256
pad: 1
kernel_size: 3
group: 2
weight_filler {
type: "gaussian"
std: 0.01
}
bias_filler {
type: "constant"
value: 0.1
}
}
}
layer {
name: "relu5"
type: "ReLU"
bottom: "conv5"
top: "conv5"
}
layer {
name: "pool5"
type: "Pooling"
bottom: "conv5"
top: "pool5"
pooling_param {
pool: MAX
kernel_size: 3
stride: 2
}
}
layer {
name: "fc6"
type: "InnerProduct"
bottom: "pool5"
top: "fc6"
param {
lr_mult: 1
decay_mult: 1
}
param {
lr_mult: 2
decay_mult: 0
}
inner_product_param {
num_output: 4096
weight_filler {
type: "gaussian"
std: 0.005
}
bias_filler {
type: "constant"
value: 0.1
}
}
}
layer {
name: "relu6"
type: "ReLU"
bottom: "fc6"
top: "fc6"
}
layer {
name: "drop6"
type: "Dropout"
bottom: "fc6"
top: "fc6"
dropout_param {
dropout_ratio: 0.5
}
}
layer {
name: "fc7"
type: "InnerProduct"
bottom: "fc6"
top: "fc7"
param {
lr_mult: 1
decay_mult: 1
}
param {
lr_mult: 2
decay_mult: 0
}
inner_product_param {
num_output: 4096
weight_filler {
type: "gaussian"
std: 0.005
}
bias_filler {
type: "constant"
value: 0.1
}
}
}
layer {
name: "relu7"
type: "ReLU"
bottom: "fc7"
top: "fc7"
}
layer {
name: "drop7"
type: "Dropout"
bottom: "fc7"
top: "fc7"
dropout_param {
dropout_ratio: 0.5
}
}
layer {
name: "fc8"
type: "InnerProduct"
bottom: "fc7"
top: "fc8"
param {
lr_mult: 1
decay_mult: 1
}
param {
lr_mult: 2
decay_mult: 0
}
inner_product_param {
num_output: 196
weight_filler {
type: "gaussian"
std: 0.01
}
bias_filler {
type: "constant"
value: 0
}
}
}
layer {
name: "accuracy"
type: "Accuracy"
bottom: "fc8"
bottom: "label"
top: "accuracy"
include {
phase: TEST
}
}
layer {
name: "loss"
type: "SoftmaxWithLoss"
bottom: "fc8"
bottom: "label"
top: "loss"
}
I0406 13:51:51.058812 23057 layer_factory.hpp:77] Creating layer val-data
I0406 13:51:51.061672 23057 db_lmdb.cpp:35] Opened lmdb /mnt/bigdisk/DIGITS-AIN-3/digits/jobs/20210401-115716-aaf7/val_db
I0406 13:51:51.061879 23057 net.cpp:84] Creating Layer val-data
I0406 13:51:51.061888 23057 net.cpp:380] val-data -> data
I0406 13:51:51.061897 23057 net.cpp:380] val-data -> label
I0406 13:51:51.061904 23057 data_transformer.cpp:25] Loading mean file from: /mnt/bigdisk/DIGITS-AIN-3/digits/jobs/20210401-115716-aaf7/mean.binaryproto
I0406 13:51:51.065662 23057 data_layer.cpp:45] output data size: 32,3,227,227
I0406 13:51:51.103117 23057 net.cpp:122] Setting up val-data
I0406 13:51:51.103142 23057 net.cpp:129] Top shape: 32 3 227 227 (4946784)
I0406 13:51:51.103147 23057 net.cpp:129] Top shape: 32 (32)
I0406 13:51:51.103150 23057 net.cpp:137] Memory required for data: 19787264
I0406 13:51:51.103157 23057 layer_factory.hpp:77] Creating layer label_val-data_1_split
I0406 13:51:51.103170 23057 net.cpp:84] Creating Layer label_val-data_1_split
I0406 13:51:51.103175 23057 net.cpp:406] label_val-data_1_split <- label
I0406 13:51:51.103183 23057 net.cpp:380] label_val-data_1_split -> label_val-data_1_split_0
I0406 13:51:51.103194 23057 net.cpp:380] label_val-data_1_split -> label_val-data_1_split_1
I0406 13:51:51.103252 23057 net.cpp:122] Setting up label_val-data_1_split
I0406 13:51:51.103260 23057 net.cpp:129] Top shape: 32 (32)
I0406 13:51:51.103263 23057 net.cpp:129] Top shape: 32 (32)
I0406 13:51:51.103266 23057 net.cpp:137] Memory required for data: 19787520
I0406 13:51:51.103271 23057 layer_factory.hpp:77] Creating layer conv1
I0406 13:51:51.103283 23057 net.cpp:84] Creating Layer conv1
I0406 13:51:51.103287 23057 net.cpp:406] conv1 <- data
I0406 13:51:51.103293 23057 net.cpp:380] conv1 -> conv1
I0406 13:51:51.112589 23057 net.cpp:122] Setting up conv1
I0406 13:51:51.112614 23057 net.cpp:129] Top shape: 32 96 55 55 (9292800)
I0406 13:51:51.112618 23057 net.cpp:137] Memory required for data: 56958720
I0406 13:51:51.112633 23057 layer_factory.hpp:77] Creating layer relu1
I0406 13:51:51.112644 23057 net.cpp:84] Creating Layer relu1
I0406 13:51:51.112648 23057 net.cpp:406] relu1 <- conv1
I0406 13:51:51.112655 23057 net.cpp:367] relu1 -> conv1 (in-place)
I0406 13:51:51.113054 23057 net.cpp:122] Setting up relu1
I0406 13:51:51.113065 23057 net.cpp:129] Top shape: 32 96 55 55 (9292800)
I0406 13:51:51.113068 23057 net.cpp:137] Memory required for data: 94129920
I0406 13:51:51.113072 23057 layer_factory.hpp:77] Creating layer norm1
I0406 13:51:51.113082 23057 net.cpp:84] Creating Layer norm1
I0406 13:51:51.113086 23057 net.cpp:406] norm1 <- conv1
I0406 13:51:51.113092 23057 net.cpp:380] norm1 -> norm1
I0406 13:51:51.113718 23057 net.cpp:122] Setting up norm1
I0406 13:51:51.113729 23057 net.cpp:129] Top shape: 32 96 55 55 (9292800)
I0406 13:51:51.113734 23057 net.cpp:137] Memory required for data: 131301120
I0406 13:51:51.113736 23057 layer_factory.hpp:77] Creating layer pool1
I0406 13:51:51.113744 23057 net.cpp:84] Creating Layer pool1
I0406 13:51:51.113749 23057 net.cpp:406] pool1 <- norm1
I0406 13:51:51.113754 23057 net.cpp:380] pool1 -> pool1
I0406 13:51:51.113788 23057 net.cpp:122] Setting up pool1
I0406 13:51:51.113795 23057 net.cpp:129] Top shape: 32 96 27 27 (2239488)
I0406 13:51:51.113797 23057 net.cpp:137] Memory required for data: 140259072
I0406 13:51:51.113801 23057 layer_factory.hpp:77] Creating layer conv2
I0406 13:51:51.113812 23057 net.cpp:84] Creating Layer conv2
I0406 13:51:51.113816 23057 net.cpp:406] conv2 <- pool1
I0406 13:51:51.113847 23057 net.cpp:380] conv2 -> conv2
I0406 13:51:51.122893 23057 net.cpp:122] Setting up conv2
I0406 13:51:51.122917 23057 net.cpp:129] Top shape: 32 256 27 27 (5971968)
I0406 13:51:51.122921 23057 net.cpp:137] Memory required for data: 164146944
I0406 13:51:51.122937 23057 layer_factory.hpp:77] Creating layer relu2
I0406 13:51:51.122947 23057 net.cpp:84] Creating Layer relu2
I0406 13:51:51.122952 23057 net.cpp:406] relu2 <- conv2
I0406 13:51:51.122961 23057 net.cpp:367] relu2 -> conv2 (in-place)
I0406 13:51:51.123623 23057 net.cpp:122] Setting up relu2
I0406 13:51:51.123636 23057 net.cpp:129] Top shape: 32 256 27 27 (5971968)
I0406 13:51:51.123639 23057 net.cpp:137] Memory required for data: 188034816
I0406 13:51:51.123643 23057 layer_factory.hpp:77] Creating layer norm2
I0406 13:51:51.123656 23057 net.cpp:84] Creating Layer norm2
I0406 13:51:51.123659 23057 net.cpp:406] norm2 <- conv2
I0406 13:51:51.123665 23057 net.cpp:380] norm2 -> norm2
I0406 13:51:51.124349 23057 net.cpp:122] Setting up norm2
I0406 13:51:51.124361 23057 net.cpp:129] Top shape: 32 256 27 27 (5971968)
I0406 13:51:51.124363 23057 net.cpp:137] Memory required for data: 211922688
I0406 13:51:51.124367 23057 layer_factory.hpp:77] Creating layer pool2
I0406 13:51:51.124377 23057 net.cpp:84] Creating Layer pool2
I0406 13:51:51.124380 23057 net.cpp:406] pool2 <- norm2
I0406 13:51:51.124385 23057 net.cpp:380] pool2 -> pool2
I0406 13:51:51.124424 23057 net.cpp:122] Setting up pool2
I0406 13:51:51.124430 23057 net.cpp:129] Top shape: 32 256 13 13 (1384448)
I0406 13:51:51.124434 23057 net.cpp:137] Memory required for data: 217460480
I0406 13:51:51.124437 23057 layer_factory.hpp:77] Creating layer conv3
I0406 13:51:51.124450 23057 net.cpp:84] Creating Layer conv3
I0406 13:51:51.124454 23057 net.cpp:406] conv3 <- pool2
I0406 13:51:51.124461 23057 net.cpp:380] conv3 -> conv3
I0406 13:51:51.137672 23057 net.cpp:122] Setting up conv3
I0406 13:51:51.137696 23057 net.cpp:129] Top shape: 32 384 13 13 (2076672)
I0406 13:51:51.137698 23057 net.cpp:137] Memory required for data: 225767168
I0406 13:51:51.137710 23057 layer_factory.hpp:77] Creating layer relu3
I0406 13:51:51.137719 23057 net.cpp:84] Creating Layer relu3
I0406 13:51:51.137722 23057 net.cpp:406] relu3 <- conv3
I0406 13:51:51.137730 23057 net.cpp:367] relu3 -> conv3 (in-place)
I0406 13:51:51.138237 23057 net.cpp:122] Setting up relu3
I0406 13:51:51.138248 23057 net.cpp:129] Top shape: 32 384 13 13 (2076672)
I0406 13:51:51.138250 23057 net.cpp:137] Memory required for data: 234073856
I0406 13:51:51.138253 23057 layer_factory.hpp:77] Creating layer conv4
I0406 13:51:51.138265 23057 net.cpp:84] Creating Layer conv4
I0406 13:51:51.138267 23057 net.cpp:406] conv4 <- conv3
I0406 13:51:51.138274 23057 net.cpp:380] conv4 -> conv4
I0406 13:51:51.147555 23057 net.cpp:122] Setting up conv4
I0406 13:51:51.147576 23057 net.cpp:129] Top shape: 32 384 13 13 (2076672)
I0406 13:51:51.147579 23057 net.cpp:137] Memory required for data: 242380544
I0406 13:51:51.147588 23057 layer_factory.hpp:77] Creating layer relu4
I0406 13:51:51.147596 23057 net.cpp:84] Creating Layer relu4
I0406 13:51:51.147600 23057 net.cpp:406] relu4 <- conv4
I0406 13:51:51.147605 23057 net.cpp:367] relu4 -> conv4 (in-place)
I0406 13:51:51.147929 23057 net.cpp:122] Setting up relu4
I0406 13:51:51.147938 23057 net.cpp:129] Top shape: 32 384 13 13 (2076672)
I0406 13:51:51.147939 23057 net.cpp:137] Memory required for data: 250687232
I0406 13:51:51.147941 23057 layer_factory.hpp:77] Creating layer conv5
I0406 13:51:51.147951 23057 net.cpp:84] Creating Layer conv5
I0406 13:51:51.147954 23057 net.cpp:406] conv5 <- conv4
I0406 13:51:51.147959 23057 net.cpp:380] conv5 -> conv5
I0406 13:51:51.158699 23057 net.cpp:122] Setting up conv5
I0406 13:51:51.158725 23057 net.cpp:129] Top shape: 32 256 13 13 (1384448)
I0406 13:51:51.158731 23057 net.cpp:137] Memory required for data: 256225024
I0406 13:51:51.158748 23057 layer_factory.hpp:77] Creating layer relu5
I0406 13:51:51.158763 23057 net.cpp:84] Creating Layer relu5
I0406 13:51:51.158769 23057 net.cpp:406] relu5 <- conv5
I0406 13:51:51.158804 23057 net.cpp:367] relu5 -> conv5 (in-place)
I0406 13:51:51.159531 23057 net.cpp:122] Setting up relu5
I0406 13:51:51.159544 23057 net.cpp:129] Top shape: 32 256 13 13 (1384448)
I0406 13:51:51.159549 23057 net.cpp:137] Memory required for data: 261762816
I0406 13:51:51.159554 23057 layer_factory.hpp:77] Creating layer pool5
I0406 13:51:51.159569 23057 net.cpp:84] Creating Layer pool5
I0406 13:51:51.159574 23057 net.cpp:406] pool5 <- conv5
I0406 13:51:51.159584 23057 net.cpp:380] pool5 -> pool5
I0406 13:51:51.159641 23057 net.cpp:122] Setting up pool5
I0406 13:51:51.159651 23057 net.cpp:129] Top shape: 32 256 6 6 (294912)
I0406 13:51:51.159654 23057 net.cpp:137] Memory required for data: 262942464
I0406 13:51:51.159658 23057 layer_factory.hpp:77] Creating layer fc6
I0406 13:51:51.159670 23057 net.cpp:84] Creating Layer fc6
I0406 13:51:51.159675 23057 net.cpp:406] fc6 <- pool5
I0406 13:51:51.159684 23057 net.cpp:380] fc6 -> fc6
I0406 13:51:51.505182 23057 net.cpp:122] Setting up fc6
I0406 13:51:51.505203 23057 net.cpp:129] Top shape: 32 4096 (131072)
I0406 13:51:51.505204 23057 net.cpp:137] Memory required for data: 263466752
I0406 13:51:51.505213 23057 layer_factory.hpp:77] Creating layer relu6
I0406 13:51:51.505220 23057 net.cpp:84] Creating Layer relu6
I0406 13:51:51.505225 23057 net.cpp:406] relu6 <- fc6
I0406 13:51:51.505230 23057 net.cpp:367] relu6 -> fc6 (in-place)
I0406 13:51:51.505908 23057 net.cpp:122] Setting up relu6
I0406 13:51:51.505918 23057 net.cpp:129] Top shape: 32 4096 (131072)
I0406 13:51:51.505919 23057 net.cpp:137] Memory required for data: 263991040
I0406 13:51:51.505923 23057 layer_factory.hpp:77] Creating layer drop6
I0406 13:51:51.505928 23057 net.cpp:84] Creating Layer drop6
I0406 13:51:51.505930 23057 net.cpp:406] drop6 <- fc6
I0406 13:51:51.505934 23057 net.cpp:367] drop6 -> fc6 (in-place)
I0406 13:51:51.505960 23057 net.cpp:122] Setting up drop6
I0406 13:51:51.505964 23057 net.cpp:129] Top shape: 32 4096 (131072)
I0406 13:51:51.505966 23057 net.cpp:137] Memory required for data: 264515328
I0406 13:51:51.505968 23057 layer_factory.hpp:77] Creating layer fc7
I0406 13:51:51.505975 23057 net.cpp:84] Creating Layer fc7
I0406 13:51:51.505977 23057 net.cpp:406] fc7 <- fc6
I0406 13:51:51.505980 23057 net.cpp:380] fc7 -> fc7
I0406 13:51:51.653981 23057 net.cpp:122] Setting up fc7
I0406 13:51:51.654000 23057 net.cpp:129] Top shape: 32 4096 (131072)
I0406 13:51:51.654001 23057 net.cpp:137] Memory required for data: 265039616
I0406 13:51:51.654011 23057 layer_factory.hpp:77] Creating layer relu7
I0406 13:51:51.654019 23057 net.cpp:84] Creating Layer relu7
I0406 13:51:51.654022 23057 net.cpp:406] relu7 <- fc7
I0406 13:51:51.654027 23057 net.cpp:367] relu7 -> fc7 (in-place)
I0406 13:51:51.654412 23057 net.cpp:122] Setting up relu7
I0406 13:51:51.654420 23057 net.cpp:129] Top shape: 32 4096 (131072)
I0406 13:51:51.654422 23057 net.cpp:137] Memory required for data: 265563904
I0406 13:51:51.654424 23057 layer_factory.hpp:77] Creating layer drop7
I0406 13:51:51.654429 23057 net.cpp:84] Creating Layer drop7
I0406 13:51:51.654433 23057 net.cpp:406] drop7 <- fc7
I0406 13:51:51.654438 23057 net.cpp:367] drop7 -> fc7 (in-place)
I0406 13:51:51.654458 23057 net.cpp:122] Setting up drop7
I0406 13:51:51.654466 23057 net.cpp:129] Top shape: 32 4096 (131072)
I0406 13:51:51.654469 23057 net.cpp:137] Memory required for data: 266088192
I0406 13:51:51.654470 23057 layer_factory.hpp:77] Creating layer fc8
I0406 13:51:51.654476 23057 net.cpp:84] Creating Layer fc8
I0406 13:51:51.654479 23057 net.cpp:406] fc8 <- fc7
I0406 13:51:51.654484 23057 net.cpp:380] fc8 -> fc8
I0406 13:51:51.662026 23057 net.cpp:122] Setting up fc8
I0406 13:51:51.662042 23057 net.cpp:129] Top shape: 32 196 (6272)
I0406 13:51:51.662045 23057 net.cpp:137] Memory required for data: 266113280
I0406 13:51:51.662052 23057 layer_factory.hpp:77] Creating layer fc8_fc8_0_split
I0406 13:51:51.662060 23057 net.cpp:84] Creating Layer fc8_fc8_0_split
I0406 13:51:51.662065 23057 net.cpp:406] fc8_fc8_0_split <- fc8
I0406 13:51:51.662087 23057 net.cpp:380] fc8_fc8_0_split -> fc8_fc8_0_split_0
I0406 13:51:51.662094 23057 net.cpp:380] fc8_fc8_0_split -> fc8_fc8_0_split_1
I0406 13:51:51.662128 23057 net.cpp:122] Setting up fc8_fc8_0_split
I0406 13:51:51.662132 23057 net.cpp:129] Top shape: 32 196 (6272)
I0406 13:51:51.662135 23057 net.cpp:129] Top shape: 32 196 (6272)
I0406 13:51:51.662137 23057 net.cpp:137] Memory required for data: 266163456
I0406 13:51:51.662138 23057 layer_factory.hpp:77] Creating layer accuracy
I0406 13:51:51.662144 23057 net.cpp:84] Creating Layer accuracy
I0406 13:51:51.662147 23057 net.cpp:406] accuracy <- fc8_fc8_0_split_0
I0406 13:51:51.662149 23057 net.cpp:406] accuracy <- label_val-data_1_split_0
I0406 13:51:51.662154 23057 net.cpp:380] accuracy -> accuracy
…
