…
I0428 14:42:23.746093 29440 net.cpp:294] The NetState phase (0) differed from the phase (1) specified by a rule in layer accuracy
I0428 14:42:23.746358 29440 net.cpp:51] Initializing net from parameters:
state {
phase: TRAIN
level: 0
stage: ""
}
layer {
name: "train-data"
type: "Data"
top: "data"
top: "label"
include {
phase: TRAIN
}
transform_param {
mirror: true
crop_size: 227
mean_file: "/mnt/bigdisk/DIGITS-MAN-3/digits/jobs/20210421-230320-902c/mean.binaryproto"
}
data_param {
source: "/mnt/bigdisk/DIGITS-MAN-3/digits/jobs/20210421-230320-902c/train_db"
batch_size: 128
backend: LMDB
}
}
layer {
name: "conv1"
type: "Convolution"
bottom: "data"
top: "conv1"
param {
lr_mult: 1
decay_mult: 1
}
param {
lr_mult: 2
decay_mult: 0
}
convolution_param {
num_output: 96
kernel_size: 11
stride: 4
weight_filler {
type: "gaussian"
std: 0.01
}
bias_filler {
type: "constant"
value: 0
}
}
}
layer {
name: "relu1"
type: "ReLU"
bottom: "conv1"
top: "conv1"
}
layer {
name: "norm1"
type: "LRN"
bottom: "conv1"
top: "norm1"
lrn_param {
local_size: 5
alpha: 0.0001
beta: 0.75
}
}
layer {
name: "pool1"
type: "Pooling"
bottom: "norm1"
top: "pool1"
pooling_param {
pool: MAX
kernel_size: 3
stride: 2
}
}
layer {
name: "conv1.5"
type: "Convolution"
bottom: "pool1"
top: "conv1.5"
param {
lr_mult: 1
decay_mult: 1
}
param {
lr_mult: 2
decay_mult: 0
}
convolution_param {
num_output: 176
kernel_size: 11
stride: 1
weight_filler {
type: "gaussian"
std: 0.01
}
bias_filler {
type: "constant"
value: 0
}
}
}
layer {
name: "relu1.5"
type: "ReLU"
bottom: "conv1.5"
top: "conv1.5"
}
layer {
name: "norm1.5"
type: "LRN"
bottom: "conv1.5"
top: "norm1.5"
lrn_param {
local_size: 5
alpha: 0.0001
beta: 0.75
}
}
layer {
name: "pool1.5"
type: "Pooling"
bottom: "norm1.5"
top: "pool1.5"
pooling_param {
pool: MAX
kernel_size: 3
stride: 2
}
}
layer {
name: "conv2"
type: "Convolution"
bottom: "pool1.5"
top: "conv2"
param {
lr_mult: 1
decay_mult: 1
}
param {
lr_mult: 2
decay_mult: 0
}
convolution_param {
num_output: 256
pad: 2
kernel_size: 5
group: 2
weight_filler {
type: "gaussian"
std: 0.01
}
bias_filler {
type: "constant"
value: 0.1
}
}
}
layer {
name: "relu2"
type: "ReLU"
bottom: "conv2"
top: "conv2"
}
layer {
name: "norm2"
type: "LRN"
bottom: "conv2"
top: "norm2"
lrn_param {
local_size: 5
alpha: 0.0001
beta: 0.75
}
}
layer {
name: "pool2"
type: "Pooling"
bottom: "norm2"
top: "pool2"
pooling_param {
pool: MAX
kernel_size: 3
stride: 2
}
}
layer {
name: "conv3"
type: "Convolution"
bottom: "pool2"
top: "conv3"
param {
lr_mult: 1
decay_mult: 1
}
param {
lr_mult: 2
decay_mult: 0
}
convolution_param {
num_output: 384
pad: 1
kernel_size: 3
weight_filler {
type: "gaussian"
std: 0.01
}
bias_filler {
type: "constant"
value: 0
}
}
}
layer {
name: "relu3"
type: "ReLU"
bottom: "conv3"
top: "conv3"
}
layer {
name: "conv4"
type: "Convolution"
bottom: "conv3"
top: "conv4"
param {
lr_mult: 1
decay_mult: 1
}
param {
lr_mult: 2
decay_mult: 0
}
convolution_param {
num_output: 384
pad: 1
kernel_size: 3
group: 2
weight_filler {
type: "gaussian"
std: 0.01
}
bias_filler {
type: "constant"
value: 0.1
}
}
}
layer {
name: "relu4"
type: "ReLU"
bottom: "conv4"
top: "conv4"
}
layer {
name: "conv5"
type: "Convolution"
bottom: "conv4"
top: "conv5"
param {
lr_mult: 1
decay_mult: 1
}
param {
lr_mult: 2
decay_mult: 0
}
convolution_param {
num_output: 256
pad: 1
kernel_size: 3
group: 2
weight_filler {
type: "gaussian"
std: 0.01
}
bias_filler {
type: "constant"
value: 0.1
}
}
}
layer {
name: "relu5"
type: "ReLU"
bottom: "conv5"
top: "conv5"
}
layer {
name: "pool5"
type: "Pooling"
bottom: "conv5"
top: "pool5"
pooling_param {
pool: MAX
kernel_size: 3
stride: 2
}
}
layer {
name: "fc6"
type: "InnerProduct"
bottom: "pool5"
top: "fc6"
param {
lr_mult: 1
decay_mult: 1
}
param {
lr_mult: 2
decay_mult: 0
}
inner_product_param {
num_output: 4096
weight_filler {
type: "gaussian"
std: 0.005
}
bias_filler {
type: "constant"
value: 0.1
}
}
}
layer {
name: "relu6"
type: "ReLU"
bottom: "fc6"
top: "fc6"
}
layer {
name: "drop6"
type: "Dropout"
bottom: "fc6"
top: "fc6"
dropout_param {
dropout_ratio: 0.5
}
}
layer {
name: "fc7"
type: "InnerProduct"
bottom: "fc6"
top: "fc7"
param {
lr_mult: 1
decay_mult: 1
}
param {
lr_mult: 2
decay_mult: 0
}
inner_product_param {
num_output: 4096
weight_filler {
type: "gaussian"
std: 0.005
}
bias_filler {
type: "constant"
value: 0.1
}
}
}
layer {
name: "relu7"
type: "ReLU"
bottom: "fc7"
top: "fc7"
}
layer {
name: "drop7"
type: "Dropout"
bottom: "fc7"
top: "fc7"
dropout_param {
dropout_ratio: 0.5
}
}
layer {
name: "fc8"
type: "InnerProduct"
bottom: "fc7"
top: "fc8"
param {
lr_mult: 1
decay_mult: 1
}
param {
lr_mult: 2
decay_mult: 0
}
inner_product_param {
num_output: 196
weight_filler {
type: "gaussian"
std: 0.01
}
bias_filler {
type: "constant"
value: 0
}
}
}
layer {
name: "loss"
type: "SoftmaxWithLoss"
bottom: "fc8"
bottom: "label"
top: "loss"
}
I0428 14:42:23.746505 29440 layer_factory.hpp:77] Creating layer train-data
I0428 14:42:23.986516 29440 db_lmdb.cpp:35] Opened lmdb /mnt/bigdisk/DIGITS-MAN-3/digits/jobs/20210421-230320-902c/train_db
I0428 14:42:23.987079 29440 net.cpp:84] Creating Layer train-data
I0428 14:42:23.987102 29440 net.cpp:380] train-data -> data
I0428 14:42:23.987129 29440 net.cpp:380] train-data -> label
I0428 14:42:23.987146 29440 data_transformer.cpp:25] Loading mean file from: /mnt/bigdisk/DIGITS-MAN-3/digits/jobs/20210421-230320-902c/mean.binaryproto
I0428 14:42:24.069190 29440 data_layer.cpp:45] output data size: 128,3,227,227
I0428 14:42:24.374904 29440 net.cpp:122] Setting up train-data
I0428 14:42:24.374927 29440 net.cpp:129] Top shape: 128 3 227 227 (19787136)
I0428 14:42:24.374933 29440 net.cpp:129] Top shape: 128 (128)
I0428 14:42:24.374936 29440 net.cpp:137] Memory required for data: 79149056
I0428 14:42:24.374944 29440 layer_factory.hpp:77] Creating layer conv1
I0428 14:42:24.374965 29440 net.cpp:84] Creating Layer conv1
I0428 14:42:24.374971 29440 net.cpp:406] conv1 <- data
I0428 14:42:24.374984 29440 net.cpp:380] conv1 -> conv1
I0428 14:42:25.104444 29440 net.cpp:122] Setting up conv1
I0428 14:42:25.104481 29440 net.cpp:129] Top shape: 128 96 55 55 (37171200)
I0428 14:42:25.104511 29440 net.cpp:137] Memory required for data: 227833856
I0428 14:42:25.104532 29440 layer_factory.hpp:77] Creating layer relu1
I0428 14:42:25.104543 29440 net.cpp:84] Creating Layer relu1
I0428 14:42:25.104548 29440 net.cpp:406] relu1 <- conv1
I0428 14:42:25.104553 29440 net.cpp:367] relu1 -> conv1 (in-place)
I0428 14:42:25.104848 29440 net.cpp:122] Setting up relu1
I0428 14:42:25.104857 29440 net.cpp:129] Top shape: 128 96 55 55 (37171200)
I0428 14:42:25.104861 29440 net.cpp:137] Memory required for data: 376518656
I0428 14:42:25.104864 29440 layer_factory.hpp:77] Creating layer norm1
I0428 14:42:25.104874 29440 net.cpp:84] Creating Layer norm1
I0428 14:42:25.104877 29440 net.cpp:406] norm1 <- conv1
I0428 14:42:25.104882 29440 net.cpp:380] norm1 -> norm1
I0428 14:42:25.105332 29440 net.cpp:122] Setting up norm1
I0428 14:42:25.105342 29440 net.cpp:129] Top shape: 128 96 55 55 (37171200)
I0428 14:42:25.105345 29440 net.cpp:137] Memory required for data: 525203456
I0428 14:42:25.105350 29440 layer_factory.hpp:77] Creating layer pool1
I0428 14:42:25.105357 29440 net.cpp:84] Creating Layer pool1
I0428 14:42:25.105360 29440 net.cpp:406] pool1 <- norm1
I0428 14:42:25.105366 29440 net.cpp:380] pool1 -> pool1
I0428 14:42:25.105402 29440 net.cpp:122] Setting up pool1
I0428 14:42:25.105408 29440 net.cpp:129] Top shape: 128 96 27 27 (8957952)
I0428 14:42:25.105412 29440 net.cpp:137] Memory required for data: 561035264
I0428 14:42:25.105415 29440 layer_factory.hpp:77] Creating layer conv1.5
I0428 14:42:25.105425 29440 net.cpp:84] Creating Layer conv1.5
I0428 14:42:25.105429 29440 net.cpp:406] conv1.5 <- pool1
I0428 14:42:25.105434 29440 net.cpp:380] conv1.5 -> conv1.5
I0428 14:42:25.126418 29440 net.cpp:122] Setting up conv1.5
I0428 14:42:25.126437 29440 net.cpp:129] Top shape: 128 176 17 17 (6510592)
I0428 14:42:25.126441 29440 net.cpp:137] Memory required for data: 587077632
I0428 14:42:25.126452 29440 layer_factory.hpp:77] Creating layer relu1.5
I0428 14:42:25.126461 29440 net.cpp:84] Creating Layer relu1.5
I0428 14:42:25.126466 29440 net.cpp:406] relu1.5 <- conv1.5
I0428 14:42:25.126471 29440 net.cpp:367] relu1.5 -> conv1.5 (in-place)
I0428 14:42:25.126751 29440 net.cpp:122] Setting up relu1.5
I0428 14:42:25.126760 29440 net.cpp:129] Top shape: 128 176 17 17 (6510592)
I0428 14:42:25.126762 29440 net.cpp:137] Memory required for data: 613120000
I0428 14:42:25.126766 29440 layer_factory.hpp:77] Creating layer norm1.5
I0428 14:42:25.126773 29440 net.cpp:84] Creating Layer norm1.5
I0428 14:42:25.126777 29440 net.cpp:406] norm1.5 <- conv1.5
I0428 14:42:25.126782 29440 net.cpp:380] norm1.5 -> norm1.5
I0428 14:42:25.149451 29440 net.cpp:122] Setting up norm1.5
I0428 14:42:25.149468 29440 net.cpp:129] Top shape: 128 176 17 17 (6510592)
I0428 14:42:25.149472 29440 net.cpp:137] Memory required for data: 639162368
I0428 14:42:25.149478 29440 layer_factory.hpp:77] Creating layer pool1.5
I0428 14:42:25.149490 29440 net.cpp:84] Creating Layer pool1.5
I0428 14:42:25.149494 29440 net.cpp:406] pool1.5 <- norm1.5
I0428 14:42:25.149502 29440 net.cpp:380] pool1.5 -> pool1.5
I0428 14:42:25.149534 29440 net.cpp:122] Setting up pool1.5
I0428 14:42:25.149539 29440 net.cpp:129] Top shape: 128 176 8 8 (1441792)
I0428 14:42:25.149542 29440 net.cpp:137] Memory required for data: 644929536
I0428 14:42:25.149546 29440 layer_factory.hpp:77] Creating layer conv2
I0428 14:42:25.149555 29440 net.cpp:84] Creating Layer conv2
I0428 14:42:25.149559 29440 net.cpp:406] conv2 <- pool1.5
I0428 14:42:25.149564 29440 net.cpp:380] conv2 -> conv2
I0428 14:42:25.211534 29440 net.cpp:122] Setting up conv2
I0428 14:42:25.211558 29440 net.cpp:129] Top shape: 128 256 8 8 (2097152)
I0428 14:42:25.211565 29440 net.cpp:137] Memory required for data: 653318144
I0428 14:42:25.211581 29440 layer_factory.hpp:77] Creating layer relu2
I0428 14:42:25.211592 29440 net.cpp:84] Creating Layer relu2
I0428 14:42:25.211599 29440 net.cpp:406] relu2 <- conv2
I0428 14:42:25.211609 29440 net.cpp:367] relu2 -> conv2 (in-place)
I0428 14:42:25.212327 29440 net.cpp:122] Setting up relu2
I0428 14:42:25.212340 29440 net.cpp:129] Top shape: 128 256 8 8 (2097152)
I0428 14:42:25.212344 29440 net.cpp:137] Memory required for data: 661706752
I0428 14:42:25.212349 29440 layer_factory.hpp:77] Creating layer norm2
I0428 14:42:25.212360 29440 net.cpp:84] Creating Layer norm2
I0428 14:42:25.212366 29440 net.cpp:406] norm2 <- conv2
I0428 14:42:25.212374 29440 net.cpp:380] norm2 -> norm2
I0428 14:42:25.212815 29440 net.cpp:122] Setting up norm2
I0428 14:42:25.212827 29440 net.cpp:129] Top shape: 128 256 8 8 (2097152)
I0428 14:42:25.212832 29440 net.cpp:137] Memory required for data: 670095360
I0428 14:42:25.212838 29440 layer_factory.hpp:77] Creating layer pool2
I0428 14:42:25.212847 29440 net.cpp:84] Creating Layer pool2
I0428 14:42:25.212852 29440 net.cpp:406] pool2 <- norm2
I0428 14:42:25.212860 29440 net.cpp:380] pool2 -> pool2
I0428 14:42:25.212905 29440 net.cpp:122] Setting up pool2
I0428 14:42:25.212913 29440 net.cpp:129] Top shape: 128 256 4 4 (524288)
I0428 14:42:25.212919 29440 net.cpp:137] Memory required for data: 672192512
I0428 14:42:25.212925 29440 layer_factory.hpp:77] Creating layer conv3
I0428 14:42:25.212939 29440 net.cpp:84] Creating Layer conv3
I0428 14:42:25.212945 29440 net.cpp:406] conv3 <- pool2
I0428 14:42:25.212954 29440 net.cpp:380] conv3 -> conv3
I0428 14:42:25.289469 29440 net.cpp:122] Setting up conv3
I0428 14:42:25.289494 29440 net.cpp:129] Top shape: 128 384 4 4 (786432)
I0428 14:42:25.289499 29440 net.cpp:137] Memory required for data: 675338240
I0428 14:42:25.289513 29440 layer_factory.hpp:77] Creating layer relu3
I0428 14:42:25.289525 29440 net.cpp:84] Creating Layer relu3
I0428 14:42:25.289533 29440 net.cpp:406] relu3 <- conv3
I0428 14:42:25.289543 29440 net.cpp:367] relu3 -> conv3 (in-place)
I0428 14:42:25.290242 29440 net.cpp:122] Setting up relu3
I0428 14:42:25.290256 29440 net.cpp:129] Top shape: 128 384 4 4 (786432)
I0428 14:42:25.290262 29440 net.cpp:137] Memory required for data: 678483968
I0428 14:42:25.290268 29440 layer_factory.hpp:77] Creating layer conv4
I0428 14:42:25.290285 29440 net.cpp:84] Creating Layer conv4
I0428 14:42:25.290292 29440 net.cpp:406] conv4 <- conv3
I0428 14:42:25.290304 29440 net.cpp:380] conv4 -> conv4
I0428 14:42:25.305485 29440 net.cpp:122] Setting up conv4
I0428 14:42:25.305508 29440 net.cpp:129] Top shape: 128 384 4 4 (786432)
I0428 14:42:25.305514 29440 net.cpp:137] Memory required for data: 681629696
I0428 14:42:25.305532 29440 layer_factory.hpp:77] Creating layer relu4
I0428 14:42:25.305552 29440 net.cpp:84] Creating Layer relu4
I0428 14:42:25.305560 29440 net.cpp:406] relu4 <- conv4
I0428 14:42:25.305572 29440 net.cpp:367] relu4 -> conv4 (in-place)
I0428 14:42:25.306288 29440 net.cpp:122] Setting up relu4
I0428 14:42:25.306303 29440 net.cpp:129] Top shape: 128 384 4 4 (786432)
I0428 14:42:25.306309 29440 net.cpp:137] Memory required for data: 684775424
I0428 14:42:25.306315 29440 layer_factory.hpp:77] Creating layer conv5
I0428 14:42:25.306330 29440 net.cpp:84] Creating Layer conv5
I0428 14:42:25.306336 29440 net.cpp:406] conv5 <- conv4
I0428 14:42:25.306345 29440 net.cpp:380] conv5 -> conv5
I0428 14:42:25.342564 29440 net.cpp:122] Setting up conv5
I0428 14:42:25.342592 29440 net.cpp:129] Top shape: 128 256 4 4 (524288)
I0428 14:42:25.342597 29440 net.cpp:137] Memory required for data: 686872576
I0428 14:42:25.342612 29440 layer_factory.hpp:77] Creating layer relu5
I0428 14:42:25.342624 29440 net.cpp:84] Creating Layer relu5
I0428 14:42:25.342630 29440 net.cpp:406] relu5 <- conv5
I0428 14:42:25.342639 29440 net.cpp:367] relu5 -> conv5 (in-place)
I0428 14:42:25.345038 29440 net.cpp:122] Setting up relu5
I0428 14:42:25.345054 29440 net.cpp:129] Top shape: 128 256 4 4 (524288)
I0428 14:42:25.345060 29440 net.cpp:137] Memory required for data: 688969728
I0428 14:42:25.345067 29440 layer_factory.hpp:77] Creating layer pool5
I0428 14:42:25.345077 29440 net.cpp:84] Creating Layer pool5
I0428 14:42:25.345082 29440 net.cpp:406] pool5 <- conv5
I0428 14:42:25.345090 29440 net.cpp:380] pool5 -> pool5
I0428 14:42:25.345172 29440 net.cpp:122] Setting up pool5
I0428 14:42:25.345181 29440 net.cpp:129] Top shape: 128 256 2 2 (131072)
I0428 14:42:25.345185 29440 net.cpp:137] Memory required for data: 689494016
I0428 14:42:25.345191 29440 layer_factory.hpp:77] Creating layer fc6
I0428 14:42:25.345203 29440 net.cpp:84] Creating Layer fc6
I0428 14:42:25.345208 29440 net.cpp:406] fc6 <- pool5
I0428 14:42:25.345217 29440 net.cpp:380] fc6 -> fc6
I0428 14:42:25.405196 29440 net.cpp:122] Setting up fc6
I0428 14:42:25.405218 29440 net.cpp:129] Top shape: 128 4096 (524288)
I0428 14:42:25.405222 29440 net.cpp:137] Memory required for data: 691591168
I0428 14:42:25.405232 29440 layer_factory.hpp:77] Creating layer relu6
I0428 14:42:25.405242 29440 net.cpp:84] Creating Layer relu6
I0428 14:42:25.405247 29440 net.cpp:406] relu6 <- fc6
I0428 14:42:25.405256 29440 net.cpp:367] relu6 -> fc6 (in-place)
I0428 14:42:25.405877 29440 net.cpp:122] Setting up relu6
I0428 14:42:25.405887 29440 net.cpp:129] Top shape: 128 4096 (524288)
I0428 14:42:25.405891 29440 net.cpp:137] Memory required for data: 693688320
I0428 14:42:25.405895 29440 layer_factory.hpp:77] Creating layer drop6
I0428 14:42:25.405903 29440 net.cpp:84] Creating Layer drop6
I0428 14:42:25.405908 29440 net.cpp:406] drop6 <- fc6
I0428 14:42:25.405915 29440 net.cpp:367] drop6 -> fc6 (in-place)
I0428 14:42:25.405943 29440 net.cpp:122] Setting up drop6
I0428 14:42:25.405951 29440 net.cpp:129] Top shape: 128 4096 (524288)
I0428 14:42:25.405956 29440 net.cpp:137] Memory required for data: 695785472
I0428 14:42:25.405961 29440 layer_factory.hpp:77] Creating layer fc7
I0428 14:42:25.405968 29440 net.cpp:84] Creating Layer fc7
I0428 14:42:25.405973 29440 net.cpp:406] fc7 <- fc6
I0428 14:42:25.405980 29440 net.cpp:380] fc7 -> fc7
I0428 14:42:25.567991 29440 net.cpp:122] Setting up fc7
I0428 14:42:25.568015 29440 net.cpp:129] Top shape: 128 4096 (524288)
I0428 14:42:25.568019 29440 net.cpp:137] Memory required for data: 697882624
I0428 14:42:25.568028 29440 layer_factory.hpp:77] Creating layer relu7
I0428 14:42:25.568038 29440 net.cpp:84] Creating Layer relu7
I0428 14:42:25.568043 29440 net.cpp:406] relu7 <- fc7
I0428 14:42:25.568049 29440 net.cpp:367] relu7 -> fc7 (in-place)
I0428 14:42:25.568468 29440 net.cpp:122] Setting up relu7
I0428 14:42:25.568476 29440 net.cpp:129] Top shape: 128 4096 (524288)
I0428 14:42:25.568481 29440 net.cpp:137] Memory required for data: 699979776
I0428 14:42:25.568511 29440 layer_factory.hpp:77] Creating layer drop7
I0428 14:42:25.568517 29440 net.cpp:84] Creating Layer drop7
I0428 14:42:25.568522 29440 net.cpp:406] drop7 <- fc7
I0428 14:42:25.568529 29440 net.cpp:367] drop7 -> fc7 (in-place)
I0428 14:42:25.568553 29440 net.cpp:122] Setting up drop7
I0428 14:42:25.568560 29440 net.cpp:129] Top shape: 128 4096 (524288)
I0428 14:42:25.568564 29440 net.cpp:137] Memory required for data: 702076928
I0428 14:42:25.568568 29440 layer_factory.hpp:77] Creating layer fc8
I0428 14:42:25.568576 29440 net.cpp:84] Creating Layer fc8
I0428 14:42:25.568580 29440 net.cpp:406] fc8 <- fc7
I0428 14:42:25.568586 29440 net.cpp:380] fc8 -> fc8
I0428 14:42:25.577450 29440 net.cpp:122] Setting up fc8
I0428 14:42:25.577468 29440 net.cpp:129] Top shape: 128 196 (25088)
I0428 14:42:25.577471 29440 net.cpp:137] Memory required for data: 702177280
I0428 14:42:25.577486 29440 layer_factory.hpp:77] Creating layer loss
I0428 14:42:25.577494 29440 net.cpp:84] Creating Layer loss
I0428 14:42:25.577498 29440 net.cpp:406] loss <- fc8
I0428 14:42:25.577504 29440 net.cpp:406] loss <- label
I0428 14:42:25.577512 29440 net.cpp:380] loss -> loss
I0428 14:42:25.577523 29440 layer_factory.hpp:77] Creating layer loss
…
I0428 14:42:25.579550 29440 net.cpp:294] The NetState phase (1) differed from the phase (0) specified by a rule in layer train-data
I0428 14:42:25.579703 29440 net.cpp:51] Initializing net from parameters:
state {
phase: TEST
}
layer {
name: "val-data"
type: "Data"
top: "data"
top: "label"
include {
phase: TEST
}
transform_param {
crop_size: 227
mean_file: "/mnt/bigdisk/DIGITS-MAN-3/digits/jobs/20210421-230320-902c/mean.binaryproto"
}
data_param {
source: "/mnt/bigdisk/DIGITS-MAN-3/digits/jobs/20210421-230320-902c/val_db"
batch_size: 32
backend: LMDB
}
}
layer {
name: "conv1"
type: "Convolution"
bottom: "data"
top: "conv1"
param {
lr_mult: 1
decay_mult: 1
}
param {
lr_mult: 2
decay_mult: 0
}
convolution_param {
num_output: 96
kernel_size: 11
stride: 4
weight_filler {
type: "gaussian"
std: 0.01
}
bias_filler {
type: "constant"
value: 0
}
}
}
layer {
name: "relu1"
type: "ReLU"
bottom: "conv1"
top: "conv1"
}
layer {
name: "norm1"
type: "LRN"
bottom: "conv1"
top: "norm1"
lrn_param {
local_size: 5
alpha: 0.0001
beta: 0.75
}
}
layer {
name: "pool1"
type: "Pooling"
bottom: "norm1"
top: "pool1"
pooling_param {
pool: MAX
kernel_size: 3
stride: 2
}
}
layer {
name: "conv1.5"
type: "Convolution"
bottom: "pool1"
top: "conv1.5"
param {
lr_mult: 1
decay_mult: 1
}
param {
lr_mult: 2
decay_mult: 0
}
convolution_param {
num_output: 176
kernel_size: 11
stride: 1
weight_filler {
type: "gaussian"
std: 0.01
}
bias_filler {
type: "constant"
value: 0
}
}
}
layer {
name: "relu1.5"
type: "ReLU"
bottom: "conv1.5"
top: "conv1.5"
}
layer {
name: "norm1.5"
type: "LRN"
bottom: "conv1.5"
top: "norm1.5"
lrn_param {
local_size: 5
alpha: 0.0001
beta: 0.75
}
}
layer {
name: "pool1.5"
type: "Pooling"
bottom: "norm1.5"
top: "pool1.5"
pooling_param {
pool: MAX
kernel_size: 3
stride: 2
}
}
layer {
name: "conv2"
type: "Convolution"
bottom: "pool1.5"
top: "conv2"
param {
lr_mult: 1
decay_mult: 1
}
param {
lr_mult: 2
decay_mult: 0
}
convolution_param {
num_output: 256
pad: 2
kernel_size: 5
group: 2
weight_filler {
type: "gaussian"
std: 0.01
}
bias_filler {
type: "constant"
value: 0.1
}
}
}
layer {
name: "relu2"
type: "ReLU"
bottom: "conv2"
top: "conv2"
}
layer {
name: "norm2"
type: "LRN"
bottom: "conv2"
top: "norm2"
lrn_param {
local_size: 5
alpha: 0.0001
beta: 0.75
}
}
layer {
name: "pool2"
type: "Pooling"
bottom: "norm2"
top: "pool2"
pooling_param {
pool: MAX
kernel_size: 3
stride: 2
}
}
layer {
name: "conv3"
type: "Convolution"
bottom: "pool2"
top: "conv3"
param {
lr_mult: 1
decay_mult: 1
}
param {
lr_mult: 2
decay_mult: 0
}
convolution_param {
num_output: 384
pad: 1
kernel_size: 3
weight_filler {
type: "gaussian"
std: 0.01
}
bias_filler {
type: "constant"
value: 0
}
}
}
layer {
name: "relu3"
type: "ReLU"
bottom: "conv3"
top: "conv3"
}
layer {
name: "conv4"
type: "Convolution"
bottom: "conv3"
top: "conv4"
param {
lr_mult: 1
decay_mult: 1
}
param {
lr_mult: 2
decay_mult: 0
}
convolution_param {
num_output: 384
pad: 1
kernel_size: 3
group: 2
weight_filler {
type: "gaussian"
std: 0.01
}
bias_filler {
type: "constant"
value: 0.1
}
}
}
layer {
name: "relu4"
type: "ReLU"
bottom: "conv4"
top: "conv4"
}
layer {
name: "conv5"
type: "Convolution"
bottom: "conv4"
top: "conv5"
param {
lr_mult: 1
decay_mult: 1
}
param {
lr_mult: 2
decay_mult: 0
}
convolution_param {
num_output: 256
pad: 1
kernel_size: 3
group: 2
weight_filler {
type: "gaussian"
std: 0.01
}
bias_filler {
type: "constant"
value: 0.1
}
}
}
layer {
name: "relu5"
type: "ReLU"
bottom: "conv5"
top: "conv5"
}
layer {
name: "pool5"
type: "Pooling"
bottom: "conv5"
top: "pool5"
pooling_param {
pool: MAX
kernel_size: 3
stride: 2
}
}
layer {
name: "fc6"
type: "InnerProduct"
bottom: "pool5"
top: "fc6"
param {
lr_mult: 1
decay_mult: 1
}
param {
lr_mult: 2
decay_mult: 0
}
inner_product_param {
num_output: 4096
weight_filler {
type: "gaussian"
std: 0.005
}
bias_filler {
type: "constant"
value: 0.1
}
}
}
layer {
name: "relu6"
type: "ReLU"
bottom: "fc6"
top: "fc6"
}
layer {
name: "drop6"
type: "Dropout"
bottom: "fc6"
top: "fc6"
dropout_param {
dropout_ratio: 0.5
}
}
layer {
name: "fc7"
type: "InnerProduct"
bottom: "fc6"
top: "fc7"
param {
lr_mult: 1
decay_mult: 1
}
param {
lr_mult: 2
decay_mult: 0
}
inner_product_param {
num_output: 4096
weight_filler {
type: "gaussian"
std: 0.005
}
bias_filler {
type: "constant"
value: 0.1
}
}
}
layer {
name: "relu7"
type: "ReLU"
bottom: "fc7"
top: "fc7"
}
layer {
name: "drop7"
type: "Dropout"
bottom: "fc7"
top: "fc7"
dropout_param {
dropout_ratio: 0.5
}
}
layer {
name: "fc8"
type: "InnerProduct"
bottom: "fc7"
top: "fc8"
param {
lr_mult: 1
decay_mult: 1
}
param {
lr_mult: 2
decay_mult: 0
}
inner_product_param {
num_output: 196
weight_filler {
type: "gaussian"
std: 0.01
}
bias_filler {
type: "constant"
value: 0
}
}
}
layer {
name: "accuracy"
type: "Accuracy"
bottom: "fc8"
bottom: "label"
top: "accuracy"
include {
phase: TEST
}
}
layer {
name: "loss"
type: "SoftmaxWithLoss"
bottom: "fc8"
bottom: "label"
top: "loss"
}
I0428 14:42:25.579809 29440 layer_factory.hpp:77] Creating layer val-data
I0428 14:42:25.581405 29440 db_lmdb.cpp:35] Opened lmdb /mnt/bigdisk/DIGITS-MAN-3/digits/jobs/20210421-230320-902c/val_db
I0428 14:42:25.581588 29440 net.cpp:84] Creating Layer val-data
I0428 14:42:25.581598 29440 net.cpp:380] val-data -> data
I0428 14:42:25.581607 29440 net.cpp:380] val-data -> label
I0428 14:42:25.581614 29440 data_transformer.cpp:25] Loading mean file from: /mnt/bigdisk/DIGITS-MAN-3/digits/jobs/20210421-230320-902c/mean.binaryproto
I0428 14:42:25.585081 29440 data_layer.cpp:45] output data size: 32,3,227,227
I0428 14:42:25.617525 29440 net.cpp:122] Setting up val-data
I0428 14:42:25.617547 29440 net.cpp:129] Top shape: 32 3 227 227 (4946784)
I0428 14:42:25.617552 29440 net.cpp:129] Top shape: 32 (32)
I0428 14:42:25.617556 29440 net.cpp:137] Memory required for data: 19787264
I0428 14:42:25.617563 29440 layer_factory.hpp:77] Creating layer label_val-data_1_split
I0428 14:42:25.617575 29440 net.cpp:84] Creating Layer label_val-data_1_split
I0428 14:42:25.617579 29440 net.cpp:406] label_val-data_1_split <- label
I0428 14:42:25.617586 29440 net.cpp:380] label_val-data_1_split -> label_val-data_1_split_0
I0428 14:42:25.617595 29440 net.cpp:380] label_val-data_1_split -> label_val-data_1_split_1
I0428 14:42:25.617645 29440 net.cpp:122] Setting up label_val-data_1_split
I0428 14:42:25.617650 29440 net.cpp:129] Top shape: 32 (32)
I0428 14:42:25.617655 29440 net.cpp:129] Top shape: 32 (32)
I0428 14:42:25.617657 29440 net.cpp:137] Memory required for data: 19787520
I0428 14:42:25.617660 29440 layer_factory.hpp:77] Creating layer conv1
I0428 14:42:25.617672 29440 net.cpp:84] Creating Layer conv1
I0428 14:42:25.617676 29440 net.cpp:406] conv1 <- data
I0428 14:42:25.617681 29440 net.cpp:380] conv1 -> conv1
I0428 14:42:25.627460 29440 net.cpp:122] Setting up conv1
I0428 14:42:25.627478 29440 net.cpp:129] Top shape: 32 96 55 55 (9292800)
I0428 14:42:25.627483 29440 net.cpp:137] Memory required for data: 56958720
I0428 14:42:25.627497 29440 layer_factory.hpp:77] Creating layer relu1
I0428 14:42:25.627507 29440 net.cpp:84] Creating Layer relu1
I0428 14:42:25.627511 29440 net.cpp:406] relu1 <- conv1
I0428 14:42:25.627519 29440 net.cpp:367] relu1 -> conv1 (in-place)
I0428 14:42:25.627835 29440 net.cpp:122] Setting up relu1
I0428 14:42:25.627846 29440 net.cpp:129] Top shape: 32 96 55 55 (9292800)
I0428 14:42:25.627849 29440 net.cpp:137] Memory required for data: 94129920
I0428 14:42:25.627853 29440 layer_factory.hpp:77] Creating layer norm1
I0428 14:42:25.627864 29440 net.cpp:84] Creating Layer norm1
I0428 14:42:25.627871 29440 net.cpp:406] norm1 <- conv1
I0428 14:42:25.627876 29440 net.cpp:380] norm1 -> norm1
I0428 14:42:25.629544 29440 net.cpp:122] Setting up norm1
I0428 14:42:25.629555 29440 net.cpp:129] Top shape: 32 96 55 55 (9292800)
I0428 14:42:25.629560 29440 net.cpp:137] Memory required for data: 131301120
I0428 14:42:25.629565 29440 layer_factory.hpp:77] Creating layer pool1
I0428 14:42:25.629573 29440 net.cpp:84] Creating Layer pool1
I0428 14:42:25.629580 29440 net.cpp:406] pool1 <- norm1
I0428 14:42:25.629585 29440 net.cpp:380] pool1 -> pool1
I0428 14:42:25.629617 29440 net.cpp:122] Setting up pool1
I0428 14:42:25.629623 29440 net.cpp:129] Top shape: 32 96 27 27 (2239488)
I0428 14:42:25.629627 29440 net.cpp:137] Memory required for data: 140259072
I0428 14:42:25.629632 29440 layer_factory.hpp:77] Creating layer conv1.5
I0428 14:42:25.629642 29440 net.cpp:84] Creating Layer conv1.5
I0428 14:42:25.629647 29440 net.cpp:406] conv1.5 <- pool1
I0428 14:42:25.629654 29440 net.cpp:380] conv1.5 -> conv1.5
I0428 14:42:25.651742 29440 net.cpp:122] Setting up conv1.5
I0428 14:42:25.651764 29440 net.cpp:129] Top shape: 32 176 17 17 (1627648)
I0428 14:42:25.651768 29440 net.cpp:137] Memory required for data: 146769664
I0428 14:42:25.651782 29440 layer_factory.hpp:77] Creating layer relu1.5
I0428 14:42:25.651790 29440 net.cpp:84] Creating Layer relu1.5
I0428 14:42:25.651815 29440 net.cpp:406] relu1.5 <- conv1.5
I0428 14:42:25.651823 29440 net.cpp:367] relu1.5 -> conv1.5 (in-place)
I0428 14:42:25.652186 29440 net.cpp:122] Setting up relu1.5
I0428 14:42:25.652196 29440 net.cpp:129] Top shape: 32 176 17 17 (1627648)
I0428 14:42:25.652201 29440 net.cpp:137] Memory required for data: 153280256
I0428 14:42:25.652206 29440 layer_factory.hpp:77] Creating layer norm1.5
I0428 14:42:25.652217 29440 net.cpp:84] Creating Layer norm1.5
I0428 14:42:25.652221 29440 net.cpp:406] norm1.5 <- conv1.5
I0428 14:42:25.652227 29440 net.cpp:380] norm1.5 -> norm1.5
I0428 14:42:25.654485 29440 net.cpp:122] Setting up norm1.5
I0428 14:42:25.654495 29440 net.cpp:129] Top shape: 32 176 17 17 (1627648)
I0428 14:42:25.654500 29440 net.cpp:137] Memory required for data: 159790848
I0428 14:42:25.654502 29440 layer_factory.hpp:77] Creating layer pool1.5
I0428 14:42:25.654511 29440 net.cpp:84] Creating Layer pool1.5
I0428 14:42:25.654516 29440 net.cpp:406] pool1.5 <- norm1.5
I0428 14:42:25.654521 29440 net.cpp:380] pool1.5 -> pool1.5
I0428 14:42:25.654557 29440 net.cpp:122] Setting up pool1.5
I0428 14:42:25.654563 29440 net.cpp:129] Top shape: 32 176 8 8 (360448)
I0428 14:42:25.654567 29440 net.cpp:137] Memory required for data: 161232640
I0428 14:42:25.654572 29440 layer_factory.hpp:77] Creating layer conv2
I0428 14:42:25.654582 29440 net.cpp:84] Creating Layer conv2
I0428 14:42:25.654587 29440 net.cpp:406] conv2 <- pool1.5
I0428 14:42:25.654593 29440 net.cpp:380] conv2 -> conv2
I0428 14:42:25.664744 29440 net.cpp:122] Setting up conv2
I0428 14:42:25.664762 29440 net.cpp:129] Top shape: 32 256 8 8 (524288)
I0428 14:42:25.664767 29440 net.cpp:137] Memory required for data: 163329792
I0428 14:42:25.664778 29440 layer_factory.hpp:77] Creating layer relu2
I0428 14:42:25.664788 29440 net.cpp:84] Creating Layer relu2
I0428 14:42:25.664793 29440 net.cpp:406] relu2 <- conv2
I0428 14:42:25.664799 29440 net.cpp:367] relu2 -> conv2 (in-place)
I0428 14:42:25.665365 29440 net.cpp:122] Setting up relu2
I0428 14:42:25.665376 29440 net.cpp:129] Top shape: 32 256 8 8 (524288)
I0428 14:42:25.665380 29440 net.cpp:137] Memory required for data: 165426944
I0428 14:42:25.665383 29440 layer_factory.hpp:77] Creating layer norm2
I0428 14:42:25.665392 29440 net.cpp:84] Creating Layer norm2
I0428 14:42:25.665396 29440 net.cpp:406] norm2 <- conv2
I0428 14:42:25.665402 29440 net.cpp:380] norm2 -> norm2
I0428 14:42:25.665778 29440 net.cpp:122] Setting up norm2
I0428 14:42:25.665786 29440 net.cpp:129] Top shape: 32 256 8 8 (524288)
I0428 14:42:25.665791 29440 net.cpp:137] Memory required for data: 167524096
I0428 14:42:25.665793 29440 layer_factory.hpp:77] Creating layer pool2
I0428 14:42:25.665802 29440 net.cpp:84] Creating Layer pool2
I0428 14:42:25.665805 29440 net.cpp:406] pool2 <- norm2
I0428 14:42:25.665810 29440 net.cpp:380] pool2 -> pool2
I0428 14:42:25.665844 29440 net.cpp:122] Setting up pool2
I0428 14:42:25.665850 29440 net.cpp:129] Top shape: 32 256 4 4 (131072)
I0428 14:42:25.665853 29440 net.cpp:137] Memory required for data: 168048384
I0428 14:42:25.665856 29440 layer_factory.hpp:77] Creating layer conv3
I0428 14:42:25.665868 29440 net.cpp:84] Creating Layer conv3
I0428 14:42:25.665871 29440 net.cpp:406] conv3 <- pool2
I0428 14:42:25.665879 29440 net.cpp:380] conv3 -> conv3
I0428 14:42:25.763216 29440 net.cpp:122] Setting up conv3
I0428 14:42:25.763234 29440 net.cpp:129] Top shape: 32 384 4 4 (196608)
I0428 14:42:25.763238 29440 net.cpp:137] Memory required for data: 168834816
I0428 14:42:25.763247 29440 layer_factory.hpp:77] Creating layer relu3
I0428 14:42:25.763257 29440 net.cpp:84] Creating Layer relu3
I0428 14:42:25.763262 29440 net.cpp:406] relu3 <- conv3
I0428 14:42:25.763269 29440 net.cpp:367] relu3 -> conv3 (in-place)
I0428 14:42:25.763931 29440 net.cpp:122] Setting up relu3
I0428 14:42:25.763942 29440 net.cpp:129] Top shape: 32 384 4 4 (196608)
I0428 14:42:25.763945 29440 net.cpp:137] Memory required for data: 169621248
I0428 14:42:25.763949 29440 layer_factory.hpp:77] Creating layer conv4
I0428 14:42:25.763988 29440 net.cpp:84] Creating Layer conv4
I0428 14:42:25.763991 29440 net.cpp:406] conv4 <- conv3
I0428 14:42:25.763999 29440 net.cpp:380] conv4 -> conv4
I0428 14:42:25.840773 29440 net.cpp:122] Setting up conv4
I0428 14:42:25.840798 29440 net.cpp:129] Top shape: 32 384 4 4 (196608)
I0428 14:42:25.840806 29440 net.cpp:137] Memory required for data: 170407680
I0428 14:42:25.840824 29440 layer_factory.hpp:77] Creating layer relu4
I0428 14:42:25.840838 29440 net.cpp:84] Creating Layer relu4
I0428 14:42:25.840845 29440 net.cpp:406] relu4 <- conv4
I0428 14:42:25.840854 29440 net.cpp:367] relu4 -> conv4 (in-place)
I0428 14:42:25.841519 29440 net.cpp:122] Setting up relu4
I0428 14:42:25.841531 29440 net.cpp:129] Top shape: 32 384 4 4 (196608)
I0428 14:42:25.841537 29440 net.cpp:137] Memory required for data: 171194112
I0428 14:42:25.841543 29440 layer_factory.hpp:77] Creating layer conv5
I0428 14:42:25.841560 29440 net.cpp:84] Creating Layer conv5
I0428 14:42:25.841567 29440 net.cpp:406] conv5 <- conv4
I0428 14:42:25.841576 29440 net.cpp:380] conv5 -> conv5
I0428 14:42:25.854580 29440 net.cpp:122] Setting up conv5
I0428 14:42:25.854604 29440 net.cpp:129] Top shape: 32 256 4 4 (131072)
I0428 14:42:25.854609 29440 net.cpp:137] Memory required for data: 171718400
I0428 14:42:25.854620 29440 layer_factory.hpp:77] Creating layer relu5
I0428 14:42:25.854631 29440 net.cpp:84] Creating Layer relu5
I0428 14:42:25.854638 29440 net.cpp:406] relu5 <- conv5
I0428 14:42:25.854648 29440 net.cpp:367] relu5 -> conv5 (in-place)
I0428 14:42:25.855293 29440 net.cpp:122] Setting up relu5
I0428 14:42:25.855306 29440 net.cpp:129] Top shape: 32 256 4 4 (131072)
I0428 14:42:25.855311 29440 net.cpp:137] Memory required for data: 172242688
I0428 14:42:25.855316 29440 layer_factory.hpp:77] Creating layer pool5
I0428 14:42:25.855325 29440 net.cpp:84] Creating Layer pool5
I0428 14:42:25.855330 29440 net.cpp:406] pool5 <- conv5
I0428 14:42:25.855340 29440 net.cpp:380] pool5 -> pool5
I0428 14:42:25.855410 29440 net.cpp:122] Setting up pool5
I0428 14:42:25.855422 29440 net.cpp:129] Top shape: 32 256 2 2 (32768)
I0428 14:42:25.855427 29440 net.cpp:137] Memory required for data: 172373760
I0428 14:42:25.855432 29440 layer_factory.hpp:77] Creating layer fc6
I0428 14:42:25.855443 29440 net.cpp:84] Creating Layer fc6
I0428 14:42:25.855448 29440 net.cpp:406] fc6 <- pool5
I0428 14:42:25.855459 29440 net.cpp:380] fc6 -> fc6
I0428 14:42:25.899504 29440 net.cpp:122] Setting up fc6
I0428 14:42:25.899526 29440 net.cpp:129] Top shape: 32 4096 (131072)
I0428 14:42:25.899530 29440 net.cpp:137] Memory required for data: 172898048
I0428 14:42:25.899539 29440 layer_factory.hpp:77] Creating layer relu6
I0428 14:42:25.899549 29440 net.cpp:84] Creating Layer relu6
I0428 14:42:25.899554 29440 net.cpp:406] relu6 <- fc6
I0428 14:42:25.899561 29440 net.cpp:367] relu6 -> fc6 (in-place)
I0428 14:42:25.900246 29440 net.cpp:122] Setting up relu6
I0428 14:42:25.900255 29440 net.cpp:129] Top shape: 32 4096 (131072)
I0428 14:42:25.900259 29440 net.cpp:137] Memory required for data: 173422336
I0428 14:42:25.900264 29440 layer_factory.hpp:77] Creating layer drop6
I0428 14:42:25.900269 29440 net.cpp:84] Creating Layer drop6
I0428 14:42:25.900274 29440 net.cpp:406] drop6 <- fc6
I0428 14:42:25.900280 29440 net.cpp:367] drop6 -> fc6 (in-place)
I0428 14:42:25.900305 29440 net.cpp:122] Setting up drop6
I0428 14:42:25.900310 29440 net.cpp:129] Top shape: 32 4096 (131072)
I0428 14:42:25.900312 29440 net.cpp:137] Memory required for data: 173946624
I0428 14:42:25.900315 29440 layer_factory.hpp:77] Creating layer fc7
I0428 14:42:25.900324 29440 net.cpp:84] Creating Layer fc7
I0428 14:42:25.900328 29440 net.cpp:406] fc7 <- fc6
I0428 14:42:25.900334 29440 net.cpp:380] fc7 -> fc7
I0428 14:42:26.091887 29440 net.cpp:122] Setting up fc7
I0428 14:42:26.091910 29440 net.cpp:129] Top shape: 32 4096 (131072)
I0428 14:42:26.091915 29440 net.cpp:137] Memory required for data: 174470912
I0428 14:42:26.091924 29440 layer_factory.hpp:77] Creating layer relu7
I0428 14:42:26.091934 29440 net.cpp:84] Creating Layer relu7
I0428 14:42:26.091961 29440 net.cpp:406] relu7 <- fc7
I0428 14:42:26.091969 29440 net.cpp:367] relu7 -> fc7 (in-place)
I0428 14:42:26.092402 29440 net.cpp:122] Setting up relu7
I0428 14:42:26.092412 29440 net.cpp:129] Top shape: 32 4096 (131072)
I0428 14:42:26.092417 29440 net.cpp:137] Memory required for data: 174995200
I0428 14:42:26.092420 29440 layer_factory.hpp:77] Creating layer drop7
I0428 14:42:26.092427 29440 net.cpp:84] Creating Layer drop7
I0428 14:42:26.092432 29440 net.cpp:406] drop7 <- fc7
I0428 14:42:26.092438 29440 net.cpp:367] drop7 -> fc7 (in-place)
I0428 14:42:26.092461 29440 net.cpp:122] Setting up drop7
I0428 14:42:26.092468 29440 net.cpp:129] Top shape: 32 4096 (131072)
I0428 14:42:26.092470 29440 net.cpp:137] Memory required for data: 175519488
I0428 14:42:26.092474 29440 layer_factory.hpp:77] Creating layer fc8
I0428 14:42:26.092483 29440 net.cpp:84] Creating Layer fc8
I0428 14:42:26.092511 29440 net.cpp:406] fc8 <- fc7
I0428 14:42:26.092519 29440 net.cpp:380] fc8 -> fc8
I0428 14:42:26.100292 29440 net.cpp:122] Setting up fc8
I0428 14:42:26.100302 29440 net.cpp:129] Top shape: 32 196 (6272)
I0428 14:42:26.100306 29440 net.cpp:137] Memory required for data: 175544576
I0428 14:42:26.100318 29440 layer_factory.hpp:77] Creating layer fc8_fc8_0_split
I0428 14:42:26.100324 29440 net.cpp:84] Creating Layer fc8_fc8_0_split
I0428 14:42:26.100329 29440 net.cpp:406] fc8_fc8_0_split <- fc8
I0428 14:42:26.100334 29440 net.cpp:380] fc8_fc8_0_split -> fc8_fc8_0_split_0
I0428 14:42:26.100342 29440 net.cpp:380] fc8_fc8_0_split -> fc8_fc8_0_split_1
I0428 14:42:26.100375 29440 net.cpp:122] Setting up fc8_fc8_0_split
I0428 14:42:26.100381 29440 net.cpp:129] Top shape: 32 196 (6272)
I0428 14:42:26.100384 29440 net.cpp:129] Top shape: 32 196 (6272)
I0428 14:42:26.100387 29440 net.cpp:137] Memory required for data: 175594752
I0428 14:42:26.100391 29440 layer_factory.hpp:77] Creating layer accuracy
I0428 14:42:26.100399 29440 net.cpp:84] Creating Layer accuracy
I0428 14:42:26.100402 29440 net.cpp:406] accuracy <- fc8_fc8_0_split_0
I0428 14:42:26.100406 29440 net.cpp:406] accuracy <- label_val-data_1_split_0
I0428 14:42:26.100411 29440 net.cpp:380] accuracy -> accuracy
…
