…
I0419 21:27:35.229669 27863 net.cpp:294] The NetState phase (0) differed from the phase (1) specified by a rule in layer accuracy
I0419 21:27:35.229809 27863 net.cpp:51] Initializing net from parameters:
state {
phase: TRAIN
level: 0
stage: ""
}
layer {
name: "train-data"
type: "Data"
top: "data"
top: "label"
include {
phase: TRAIN
}
transform_param {
mirror: true
crop_size: 227
mean_file: "/mnt/bigdisk/DIGITS-AMB-2/digits/jobs/20210419-212033-af57/mean.binaryproto"
}
data_param {
source: "/mnt/bigdisk/DIGITS-AMB-2/digits/jobs/20210419-212033-af57/train_db"
batch_size: 128
backend: LMDB
}
}
layer {
name: "conv1"
type: "Convolution"
bottom: "data"
top: "conv1"
param {
lr_mult: 1
decay_mult: 1
}
param {
lr_mult: 2
decay_mult: 0
}
convolution_param {
num_output: 96
kernel_size: 11
stride: 4
weight_filler {
type: "gaussian"
std: 0.01
}
bias_filler {
type: "constant"
value: 0
}
}
}
layer {
name: "relu1"
type: "ReLU"
bottom: "conv1"
top: "conv1"
}
layer {
name: "norm1"
type: "LRN"
bottom: "conv1"
top: "norm1"
lrn_param {
local_size: 5
alpha: 0.0001
beta: 0.75
}
}
layer {
name: "pool1"
type: "Pooling"
bottom: "norm1"
top: "pool1"
pooling_param {
pool: MAX
kernel_size: 3
stride: 2
}
}
layer {
name: "conv2"
type: "Convolution"
bottom: "pool1"
top: "conv2"
param {
lr_mult: 1
decay_mult: 1
}
param {
lr_mult: 2
decay_mult: 0
}
convolution_param {
num_output: 256
pad: 2
kernel_size: 5
group: 2
weight_filler {
type: "gaussian"
std: 0.01
}
bias_filler {
type: "constant"
value: 0.1
}
}
}
layer {
name: "relu2"
type: "ReLU"
bottom: "conv2"
top: "conv2"
}
layer {
name: "norm2"
type: "LRN"
bottom: "conv2"
top: "norm2"
lrn_param {
local_size: 5
alpha: 0.0001
beta: 0.75
}
}
layer {
name: "pool2"
type: "Pooling"
bottom: "norm2"
top: "pool2"
pooling_param {
pool: MAX
kernel_size: 3
stride: 2
}
}
layer {
name: "conv3"
type: "Convolution"
bottom: "pool2"
top: "conv3"
param {
lr_mult: 1
decay_mult: 1
}
param {
lr_mult: 2
decay_mult: 0
}
convolution_param {
num_output: 384
pad: 1
kernel_size: 3
weight_filler {
type: "gaussian"
std: 0.01
}
bias_filler {
type: "constant"
value: 0
}
}
}
layer {
name: "relu3"
type: "ReLU"
bottom: "conv3"
top: "conv3"
}
layer {
name: "conv4"
type: "Convolution"
bottom: "conv3"
top: "conv4"
param {
lr_mult: 1
decay_mult: 1
}
param {
lr_mult: 2
decay_mult: 0
}
convolution_param {
num_output: 384
pad: 1
kernel_size: 3
group: 2
weight_filler {
type: "gaussian"
std: 0.01
}
bias_filler {
type: "constant"
value: 0.1
}
}
}
layer {
name: "relu4"
type: "ReLU"
bottom: "conv4"
top: "conv4"
}
layer {
name: "conv5"
type: "Convolution"
bottom: "conv4"
top: "conv5"
param {
lr_mult: 1
decay_mult: 1
}
param {
lr_mult: 2
decay_mult: 0
}
convolution_param {
num_output: 256
pad: 1
kernel_size: 3
group: 2
weight_filler {
type: "gaussian"
std: 0.01
}
bias_filler {
type: "constant"
value: 0.1
}
}
}
layer {
name: "relu5"
type: "ReLU"
bottom: "conv5"
top: "conv5"
}
layer {
name: "pool5"
type: "Pooling"
bottom: "conv5"
top: "pool5"
pooling_param {
pool: MAX
kernel_size: 3
stride: 2
}
}
layer {
name: "fc6"
type: "InnerProduct"
bottom: "pool5"
top: "fc6"
param {
lr_mult: 1
decay_mult: 1
}
param {
lr_mult: 2
decay_mult: 0
}
inner_product_param {
num_output: 4096
weight_filler {
type: "gaussian"
std: 0.005
}
bias_filler {
type: "constant"
value: 0.1
}
}
}
layer {
name: "relu6"
type: "ReLU"
bottom: "fc6"
top: "fc6"
}
layer {
name: "drop6"
type: "Dropout"
bottom: "fc6"
top: "fc6"
dropout_param {
dropout_ratio: 0.5
}
}
layer {
name: "fc7"
type: "InnerProduct"
bottom: "fc6"
top: "fc7"
param {
lr_mult: 1
decay_mult: 1
}
param {
lr_mult: 2
decay_mult: 0
}
inner_product_param {
num_output: 4096
weight_filler {
type: "gaussian"
std: 0.005
}
bias_filler {
type: "constant"
value: 0.1
}
}
}
layer {
name: "relu7"
type: "ReLU"
bottom: "fc7"
top: "fc7"
}
layer {
name: "drop7"
type: "Dropout"
bottom: "fc7"
top: "fc7"
dropout_param {
dropout_ratio: 0.5
}
}
layer {
name: "fc8"
type: "InnerProduct"
bottom: "fc7"
top: "fc8"
param {
lr_mult: 1
decay_mult: 1
}
param {
lr_mult: 2
decay_mult: 0
}
inner_product_param {
num_output: 196
weight_filler {
type: "gaussian"
std: 0.01
}
bias_filler {
type: "constant"
value: 0
}
}
}
layer {
name: "loss"
type: "SoftmaxWithLoss"
bottom: "fc8"
bottom: "label"
top: "loss"
}
I0419 21:27:35.229902 27863 layer_factory.hpp:77] Creating layer train-data
I0419 21:27:35.232308 27863 db_lmdb.cpp:35] Opened lmdb /mnt/bigdisk/DIGITS-AMB-2/digits/jobs/20210419-212033-af57/train_db
I0419 21:27:35.233057 27863 net.cpp:84] Creating Layer train-data
I0419 21:27:35.233068 27863 net.cpp:380] train-data -> data
I0419 21:27:35.233088 27863 net.cpp:380] train-data -> label
I0419 21:27:35.233103 27863 data_transformer.cpp:25] Loading mean file from: /mnt/bigdisk/DIGITS-AMB-2/digits/jobs/20210419-212033-af57/mean.binaryproto
I0419 21:27:35.238873 27863 data_layer.cpp:45] output data size: 128,3,227,227
I0419 21:27:35.385043 27863 net.cpp:122] Setting up train-data
I0419 21:27:35.385063 27863 net.cpp:129] Top shape: 128 3 227 227 (19787136)
I0419 21:27:35.385068 27863 net.cpp:129] Top shape: 128 (128)
I0419 21:27:35.385071 27863 net.cpp:137] Memory required for data: 79149056
I0419 21:27:35.385082 27863 layer_factory.hpp:77] Creating layer conv1
I0419 21:27:35.385102 27863 net.cpp:84] Creating Layer conv1
I0419 21:27:35.385108 27863 net.cpp:406] conv1 <- data
I0419 21:27:35.385120 27863 net.cpp:380] conv1 -> conv1
I0419 21:27:36.267966 27863 net.cpp:122] Setting up conv1
I0419 21:27:36.267987 27863 net.cpp:129] Top shape: 128 96 55 55 (37171200)
I0419 21:27:36.267989 27863 net.cpp:137] Memory required for data: 227833856
I0419 21:27:36.268009 27863 layer_factory.hpp:77] Creating layer relu1
I0419 21:27:36.268019 27863 net.cpp:84] Creating Layer relu1
I0419 21:27:36.268023 27863 net.cpp:406] relu1 <- conv1
I0419 21:27:36.268028 27863 net.cpp:367] relu1 -> conv1 (in-place)
I0419 21:27:36.268349 27863 net.cpp:122] Setting up relu1
I0419 21:27:36.268358 27863 net.cpp:129] Top shape: 128 96 55 55 (37171200)
I0419 21:27:36.268362 27863 net.cpp:137] Memory required for data: 376518656
I0419 21:27:36.268364 27863 layer_factory.hpp:77] Creating layer norm1
I0419 21:27:36.268373 27863 net.cpp:84] Creating Layer norm1
I0419 21:27:36.268376 27863 net.cpp:406] norm1 <- conv1
I0419 21:27:36.268400 27863 net.cpp:380] norm1 -> norm1
I0419 21:27:36.268923 27863 net.cpp:122] Setting up norm1
I0419 21:27:36.268932 27863 net.cpp:129] Top shape: 128 96 55 55 (37171200)
I0419 21:27:36.268935 27863 net.cpp:137] Memory required for data: 525203456
I0419 21:27:36.268939 27863 layer_factory.hpp:77] Creating layer pool1
I0419 21:27:36.268945 27863 net.cpp:84] Creating Layer pool1
I0419 21:27:36.268949 27863 net.cpp:406] pool1 <- norm1
I0419 21:27:36.268954 27863 net.cpp:380] pool1 -> pool1
I0419 21:27:36.268985 27863 net.cpp:122] Setting up pool1
I0419 21:27:36.268990 27863 net.cpp:129] Top shape: 128 96 27 27 (8957952)
I0419 21:27:36.268992 27863 net.cpp:137] Memory required for data: 561035264
I0419 21:27:36.268994 27863 layer_factory.hpp:77] Creating layer conv2
I0419 21:27:36.269004 27863 net.cpp:84] Creating Layer conv2
I0419 21:27:36.269007 27863 net.cpp:406] conv2 <- pool1
I0419 21:27:36.269011 27863 net.cpp:380] conv2 -> conv2
I0419 21:27:36.276625 27863 net.cpp:122] Setting up conv2
I0419 21:27:36.276640 27863 net.cpp:129] Top shape: 128 256 27 27 (23887872)
I0419 21:27:36.276643 27863 net.cpp:137] Memory required for data: 656586752
I0419 21:27:36.276652 27863 layer_factory.hpp:77] Creating layer relu2
I0419 21:27:36.276659 27863 net.cpp:84] Creating Layer relu2
I0419 21:27:36.276664 27863 net.cpp:406] relu2 <- conv2
I0419 21:27:36.276669 27863 net.cpp:367] relu2 -> conv2 (in-place)
I0419 21:27:36.277227 27863 net.cpp:122] Setting up relu2
I0419 21:27:36.277237 27863 net.cpp:129] Top shape: 128 256 27 27 (23887872)
I0419 21:27:36.277240 27863 net.cpp:137] Memory required for data: 752138240
I0419 21:27:36.277243 27863 layer_factory.hpp:77] Creating layer norm2
I0419 21:27:36.277251 27863 net.cpp:84] Creating Layer norm2
I0419 21:27:36.277254 27863 net.cpp:406] norm2 <- conv2
I0419 21:27:36.277259 27863 net.cpp:380] norm2 -> norm2
I0419 21:27:36.277590 27863 net.cpp:122] Setting up norm2
I0419 21:27:36.277598 27863 net.cpp:129] Top shape: 128 256 27 27 (23887872)
I0419 21:27:36.277601 27863 net.cpp:137] Memory required for data: 847689728
I0419 21:27:36.277604 27863 layer_factory.hpp:77] Creating layer pool2
I0419 21:27:36.277611 27863 net.cpp:84] Creating Layer pool2
I0419 21:27:36.277616 27863 net.cpp:406] pool2 <- norm2
I0419 21:27:36.277619 27863 net.cpp:380] pool2 -> pool2
I0419 21:27:36.277644 27863 net.cpp:122] Setting up pool2
I0419 21:27:36.277648 27863 net.cpp:129] Top shape: 128 256 13 13 (5537792)
I0419 21:27:36.277652 27863 net.cpp:137] Memory required for data: 869840896
I0419 21:27:36.277654 27863 layer_factory.hpp:77] Creating layer conv3
I0419 21:27:36.277662 27863 net.cpp:84] Creating Layer conv3
I0419 21:27:36.277665 27863 net.cpp:406] conv3 <- pool2
I0419 21:27:36.277670 27863 net.cpp:380] conv3 -> conv3
I0419 21:27:36.288041 27863 net.cpp:122] Setting up conv3
I0419 21:27:36.288053 27863 net.cpp:129] Top shape: 128 384 13 13 (8306688)
I0419 21:27:36.288056 27863 net.cpp:137] Memory required for data: 903067648
I0419 21:27:36.288065 27863 layer_factory.hpp:77] Creating layer relu3
I0419 21:27:36.288072 27863 net.cpp:84] Creating Layer relu3
I0419 21:27:36.288075 27863 net.cpp:406] relu3 <- conv3
I0419 21:27:36.288080 27863 net.cpp:367] relu3 -> conv3 (in-place)
I0419 21:27:36.288599 27863 net.cpp:122] Setting up relu3
I0419 21:27:36.288609 27863 net.cpp:129] Top shape: 128 384 13 13 (8306688)
I0419 21:27:36.288611 27863 net.cpp:137] Memory required for data: 936294400
I0419 21:27:36.288614 27863 layer_factory.hpp:77] Creating layer conv4
I0419 21:27:36.288625 27863 net.cpp:84] Creating Layer conv4
I0419 21:27:36.288627 27863 net.cpp:406] conv4 <- conv3
I0419 21:27:36.288632 27863 net.cpp:380] conv4 -> conv4
I0419 21:27:36.299872 27863 net.cpp:122] Setting up conv4
I0419 21:27:36.299885 27863 net.cpp:129] Top shape: 128 384 13 13 (8306688)
I0419 21:27:36.299888 27863 net.cpp:137] Memory required for data: 969521152
I0419 21:27:36.299896 27863 layer_factory.hpp:77] Creating layer relu4
I0419 21:27:36.299904 27863 net.cpp:84] Creating Layer relu4
I0419 21:27:36.299928 27863 net.cpp:406] relu4 <- conv4
I0419 21:27:36.299934 27863 net.cpp:367] relu4 -> conv4 (in-place)
I0419 21:27:36.300410 27863 net.cpp:122] Setting up relu4
I0419 21:27:36.300420 27863 net.cpp:129] Top shape: 128 384 13 13 (8306688)
I0419 21:27:36.300422 27863 net.cpp:137] Memory required for data: 1002747904
I0419 21:27:36.300426 27863 layer_factory.hpp:77] Creating layer conv5
I0419 21:27:36.300436 27863 net.cpp:84] Creating Layer conv5
I0419 21:27:36.300439 27863 net.cpp:406] conv5 <- conv4
I0419 21:27:36.300444 27863 net.cpp:380] conv5 -> conv5
I0419 21:27:36.309607 27863 net.cpp:122] Setting up conv5
I0419 21:27:36.309621 27863 net.cpp:129] Top shape: 128 256 13 13 (5537792)
I0419 21:27:36.309624 27863 net.cpp:137] Memory required for data: 1024899072
I0419 21:27:36.309636 27863 layer_factory.hpp:77] Creating layer relu5
I0419 21:27:36.309643 27863 net.cpp:84] Creating Layer relu5
I0419 21:27:36.309648 27863 net.cpp:406] relu5 <- conv5
I0419 21:27:36.309653 27863 net.cpp:367] relu5 -> conv5 (in-place)
I0419 21:27:36.310137 27863 net.cpp:122] Setting up relu5
I0419 21:27:36.310145 27863 net.cpp:129] Top shape: 128 256 13 13 (5537792)
I0419 21:27:36.310148 27863 net.cpp:137] Memory required for data: 1047050240
I0419 21:27:36.310153 27863 layer_factory.hpp:77] Creating layer pool5
I0419 21:27:36.310158 27863 net.cpp:84] Creating Layer pool5
I0419 21:27:36.310161 27863 net.cpp:406] pool5 <- conv5
I0419 21:27:36.310166 27863 net.cpp:380] pool5 -> pool5
I0419 21:27:36.310199 27863 net.cpp:122] Setting up pool5
I0419 21:27:36.310204 27863 net.cpp:129] Top shape: 128 256 6 6 (1179648)
I0419 21:27:36.310206 27863 net.cpp:137] Memory required for data: 1051768832
I0419 21:27:36.310209 27863 layer_factory.hpp:77] Creating layer fc6
I0419 21:27:36.310217 27863 net.cpp:84] Creating Layer fc6
I0419 21:27:36.310220 27863 net.cpp:406] fc6 <- pool5
I0419 21:27:36.310225 27863 net.cpp:380] fc6 -> fc6
I0419 21:27:36.668668 27863 net.cpp:122] Setting up fc6
I0419 21:27:36.668687 27863 net.cpp:129] Top shape: 128 4096 (524288)
I0419 21:27:36.668690 27863 net.cpp:137] Memory required for data: 1053865984
I0419 21:27:36.668700 27863 layer_factory.hpp:77] Creating layer relu6
I0419 21:27:36.668709 27863 net.cpp:84] Creating Layer relu6
I0419 21:27:36.668712 27863 net.cpp:406] relu6 <- fc6
I0419 21:27:36.668718 27863 net.cpp:367] relu6 -> fc6 (in-place)
I0419 21:27:36.669409 27863 net.cpp:122] Setting up relu6
I0419 21:27:36.669418 27863 net.cpp:129] Top shape: 128 4096 (524288)
I0419 21:27:36.669421 27863 net.cpp:137] Memory required for data: 1055963136
I0419 21:27:36.669425 27863 layer_factory.hpp:77] Creating layer drop6
I0419 21:27:36.669431 27863 net.cpp:84] Creating Layer drop6
I0419 21:27:36.669435 27863 net.cpp:406] drop6 <- fc6
I0419 21:27:36.669438 27863 net.cpp:367] drop6 -> fc6 (in-place)
I0419 21:27:36.669463 27863 net.cpp:122] Setting up drop6
I0419 21:27:36.669468 27863 net.cpp:129] Top shape: 128 4096 (524288)
I0419 21:27:36.669471 27863 net.cpp:137] Memory required for data: 1058060288
I0419 21:27:36.669473 27863 layer_factory.hpp:77] Creating layer fc7
I0419 21:27:36.669479 27863 net.cpp:84] Creating Layer fc7
I0419 21:27:36.669482 27863 net.cpp:406] fc7 <- fc6
I0419 21:27:36.669486 27863 net.cpp:380] fc7 -> fc7
I0419 21:27:36.829452 27863 net.cpp:122] Setting up fc7
I0419 21:27:36.829473 27863 net.cpp:129] Top shape: 128 4096 (524288)
I0419 21:27:36.829475 27863 net.cpp:137] Memory required for data: 1060157440
I0419 21:27:36.829485 27863 layer_factory.hpp:77] Creating layer relu7
I0419 21:27:36.829493 27863 net.cpp:84] Creating Layer relu7
I0419 21:27:36.829497 27863 net.cpp:406] relu7 <- fc7
I0419 21:27:36.829504 27863 net.cpp:367] relu7 -> fc7 (in-place)
I0419 21:27:36.829926 27863 net.cpp:122] Setting up relu7
I0419 21:27:36.829934 27863 net.cpp:129] Top shape: 128 4096 (524288)
I0419 21:27:36.829937 27863 net.cpp:137] Memory required for data: 1062254592
I0419 21:27:36.829941 27863 layer_factory.hpp:77] Creating layer drop7
I0419 21:27:36.829946 27863 net.cpp:84] Creating Layer drop7
I0419 21:27:36.829970 27863 net.cpp:406] drop7 <- fc7
I0419 21:27:36.829975 27863 net.cpp:367] drop7 -> fc7 (in-place)
I0419 21:27:36.829998 27863 net.cpp:122] Setting up drop7
I0419 21:27:36.830003 27863 net.cpp:129] Top shape: 128 4096 (524288)
I0419 21:27:36.830004 27863 net.cpp:137] Memory required for data: 1064351744
I0419 21:27:36.830008 27863 layer_factory.hpp:77] Creating layer fc8
I0419 21:27:36.830013 27863 net.cpp:84] Creating Layer fc8
I0419 21:27:36.830016 27863 net.cpp:406] fc8 <- fc7
I0419 21:27:36.830020 27863 net.cpp:380] fc8 -> fc8
I0419 21:27:36.837854 27863 net.cpp:122] Setting up fc8
I0419 21:27:36.837863 27863 net.cpp:129] Top shape: 128 196 (25088)
I0419 21:27:36.837867 27863 net.cpp:137] Memory required for data: 1064452096
I0419 21:27:36.837872 27863 layer_factory.hpp:77] Creating layer loss
I0419 21:27:36.837877 27863 net.cpp:84] Creating Layer loss
I0419 21:27:36.837880 27863 net.cpp:406] loss <- fc8
I0419 21:27:36.837883 27863 net.cpp:406] loss <- label
I0419 21:27:36.837890 27863 net.cpp:380] loss -> loss
I0419 21:27:36.837899 27863 layer_factory.hpp:77] Creating layer loss
…
I0419 21:27:36.870121 27863 net.cpp:294] The NetState phase (1) differed from the phase (0) specified by a rule in layer train-data
I0419 21:27:36.870442 27863 net.cpp:51] Initializing net from parameters:
state {
phase: TEST
}
layer {
name: "val-data"
type: "Data"
top: "data"
top: "label"
include {
phase: TEST
}
transform_param {
crop_size: 227
mean_file: "/mnt/bigdisk/DIGITS-AMB-2/digits/jobs/20210419-212033-af57/mean.binaryproto"
}
data_param {
source: "/mnt/bigdisk/DIGITS-AMB-2/digits/jobs/20210419-212033-af57/val_db"
batch_size: 32
backend: LMDB
}
}
layer {
name: "conv1"
type: "Convolution"
bottom: "data"
top: "conv1"
param {
lr_mult: 1
decay_mult: 1
}
param {
lr_mult: 2
decay_mult: 0
}
convolution_param {
num_output: 96
kernel_size: 11
stride: 4
weight_filler {
type: "gaussian"
std: 0.01
}
bias_filler {
type: "constant"
value: 0
}
}
}
layer {
name: "relu1"
type: "ReLU"
bottom: "conv1"
top: "conv1"
}
layer {
name: "norm1"
type: "LRN"
bottom: "conv1"
top: "norm1"
lrn_param {
local_size: 5
alpha: 0.0001
beta: 0.75
}
}
layer {
name: "pool1"
type: "Pooling"
bottom: "norm1"
top: "pool1"
pooling_param {
pool: MAX
kernel_size: 3
stride: 2
}
}
layer {
name: "conv2"
type: "Convolution"
bottom: "pool1"
top: "conv2"
param {
lr_mult: 1
decay_mult: 1
}
param {
lr_mult: 2
decay_mult: 0
}
convolution_param {
num_output: 256
pad: 2
kernel_size: 5
group: 2
weight_filler {
type: "gaussian"
std: 0.01
}
bias_filler {
type: "constant"
value: 0.1
}
}
}
layer {
name: "relu2"
type: "ReLU"
bottom: "conv2"
top: "conv2"
}
layer {
name: "norm2"
type: "LRN"
bottom: "conv2"
top: "norm2"
lrn_param {
local_size: 5
alpha: 0.0001
beta: 0.75
}
}
layer {
name: "pool2"
type: "Pooling"
bottom: "norm2"
top: "pool2"
pooling_param {
pool: MAX
kernel_size: 3
stride: 2
}
}
layer {
name: "conv3"
type: "Convolution"
bottom: "pool2"
top: "conv3"
param {
lr_mult: 1
decay_mult: 1
}
param {
lr_mult: 2
decay_mult: 0
}
convolution_param {
num_output: 384
pad: 1
kernel_size: 3
weight_filler {
type: "gaussian"
std: 0.01
}
bias_filler {
type: "constant"
value: 0
}
}
}
layer {
name: "relu3"
type: "ReLU"
bottom: "conv3"
top: "conv3"
}
layer {
name: "conv4"
type: "Convolution"
bottom: "conv3"
top: "conv4"
param {
lr_mult: 1
decay_mult: 1
}
param {
lr_mult: 2
decay_mult: 0
}
convolution_param {
num_output: 384
pad: 1
kernel_size: 3
group: 2
weight_filler {
type: "gaussian"
std: 0.01
}
bias_filler {
type: "constant"
value: 0.1
}
}
}
layer {
name: "relu4"
type: "ReLU"
bottom: "conv4"
top: "conv4"
}
layer {
name: "conv5"
type: "Convolution"
bottom: "conv4"
top: "conv5"
param {
lr_mult: 1
decay_mult: 1
}
param {
lr_mult: 2
decay_mult: 0
}
convolution_param {
num_output: 256
pad: 1
kernel_size: 3
group: 2
weight_filler {
type: "gaussian"
std: 0.01
}
bias_filler {
type: "constant"
value: 0.1
}
}
}
layer {
name: "relu5"
type: "ReLU"
bottom: "conv5"
top: "conv5"
}
layer {
name: "pool5"
type: "Pooling"
bottom: "conv5"
top: "pool5"
pooling_param {
pool: MAX
kernel_size: 3
stride: 2
}
}
layer {
name: "fc6"
type: "InnerProduct"
bottom: "pool5"
top: "fc6"
param {
lr_mult: 1
decay_mult: 1
}
param {
lr_mult: 2
decay_mult: 0
}
inner_product_param {
num_output: 4096
weight_filler {
type: "gaussian"
std: 0.005
}
bias_filler {
type: "constant"
value: 0.1
}
}
}
layer {
name: "relu6"
type: "ReLU"
bottom: "fc6"
top: "fc6"
}
layer {
name: "drop6"
type: "Dropout"
bottom: "fc6"
top: "fc6"
dropout_param {
dropout_ratio: 0.5
}
}
layer {
name: "fc7"
type: "InnerProduct"
bottom: "fc6"
top: "fc7"
param {
lr_mult: 1
decay_mult: 1
}
param {
lr_mult: 2
decay_mult: 0
}
inner_product_param {
num_output: 4096
weight_filler {
type: "gaussian"
std: 0.005
}
bias_filler {
type: "constant"
value: 0.1
}
}
}
layer {
name: "relu7"
type: "ReLU"
bottom: "fc7"
top: "fc7"
}
layer {
name: "drop7"
type: "Dropout"
bottom: "fc7"
top: "fc7"
dropout_param {
dropout_ratio: 0.5
}
}
layer {
name: "fc8"
type: "InnerProduct"
bottom: "fc7"
top: "fc8"
param {
lr_mult: 1
decay_mult: 1
}
param {
lr_mult: 2
decay_mult: 0
}
inner_product_param {
num_output: 196
weight_filler {
type: "gaussian"
std: 0.01
}
bias_filler {
type: "constant"
value: 0
}
}
}
layer {
name: "accuracy"
type: "Accuracy"
bottom: "fc8"
bottom: "label"
top: "accuracy"
include {
phase: TEST
}
}
layer {
name: "loss"
type: "SoftmaxWithLoss"
bottom: "fc8"
bottom: "label"
top: "loss"
}
I0419 21:27:36.870635 27863 layer_factory.hpp:77] Creating layer val-data
I0419 21:27:36.877683 27863 db_lmdb.cpp:35] Opened lmdb /mnt/bigdisk/DIGITS-AMB-2/digits/jobs/20210419-212033-af57/val_db
I0419 21:27:36.878434 27863 net.cpp:84] Creating Layer val-data
I0419 21:27:36.878456 27863 net.cpp:380] val-data -> data
I0419 21:27:36.878474 27863 net.cpp:380] val-data -> label
I0419 21:27:36.878489 27863 data_transformer.cpp:25] Loading mean file from: /mnt/bigdisk/DIGITS-AMB-2/digits/jobs/20210419-212033-af57/mean.binaryproto
I0419 21:27:36.884140 27863 data_layer.cpp:45] output data size: 32,3,227,227
I0419 21:27:36.921000 27863 net.cpp:122] Setting up val-data
I0419 21:27:36.921023 27863 net.cpp:129] Top shape: 32 3 227 227 (4946784)
I0419 21:27:36.921027 27863 net.cpp:129] Top shape: 32 (32)
I0419 21:27:36.921030 27863 net.cpp:137] Memory required for data: 19787264
I0419 21:27:36.921036 27863 layer_factory.hpp:77] Creating layer label_val-data_1_split
I0419 21:27:36.921048 27863 net.cpp:84] Creating Layer label_val-data_1_split
I0419 21:27:36.921052 27863 net.cpp:406] label_val-data_1_split <- label
I0419 21:27:36.921058 27863 net.cpp:380] label_val-data_1_split -> label_val-data_1_split_0
I0419 21:27:36.921067 27863 net.cpp:380] label_val-data_1_split -> label_val-data_1_split_1
I0419 21:27:36.921114 27863 net.cpp:122] Setting up label_val-data_1_split
I0419 21:27:36.921119 27863 net.cpp:129] Top shape: 32 (32)
I0419 21:27:36.921123 27863 net.cpp:129] Top shape: 32 (32)
I0419 21:27:36.921124 27863 net.cpp:137] Memory required for data: 19787520
I0419 21:27:36.921128 27863 layer_factory.hpp:77] Creating layer conv1
I0419 21:27:36.921137 27863 net.cpp:84] Creating Layer conv1
I0419 21:27:36.921140 27863 net.cpp:406] conv1 <- data
I0419 21:27:36.921145 27863 net.cpp:380] conv1 -> conv1
I0419 21:27:36.924433 27863 net.cpp:122] Setting up conv1
I0419 21:27:36.924445 27863 net.cpp:129] Top shape: 32 96 55 55 (9292800)
I0419 21:27:36.924448 27863 net.cpp:137] Memory required for data: 56958720
I0419 21:27:36.924458 27863 layer_factory.hpp:77] Creating layer relu1
I0419 21:27:36.924464 27863 net.cpp:84] Creating Layer relu1
I0419 21:27:36.924468 27863 net.cpp:406] relu1 <- conv1
I0419 21:27:36.924472 27863 net.cpp:367] relu1 -> conv1 (in-place)
I0419 21:27:36.924805 27863 net.cpp:122] Setting up relu1
I0419 21:27:36.924815 27863 net.cpp:129] Top shape: 32 96 55 55 (9292800)
I0419 21:27:36.924818 27863 net.cpp:137] Memory required for data: 94129920
I0419 21:27:36.924821 27863 layer_factory.hpp:77] Creating layer norm1
I0419 21:27:36.924829 27863 net.cpp:84] Creating Layer norm1
I0419 21:27:36.924832 27863 net.cpp:406] norm1 <- conv1
I0419 21:27:36.924836 27863 net.cpp:380] norm1 -> norm1
I0419 21:27:36.925348 27863 net.cpp:122] Setting up norm1
I0419 21:27:36.925356 27863 net.cpp:129] Top shape: 32 96 55 55 (9292800)
I0419 21:27:36.925359 27863 net.cpp:137] Memory required for data: 131301120
I0419 21:27:36.925364 27863 layer_factory.hpp:77] Creating layer pool1
I0419 21:27:36.925369 27863 net.cpp:84] Creating Layer pool1
I0419 21:27:36.925372 27863 net.cpp:406] pool1 <- norm1
I0419 21:27:36.925377 27863 net.cpp:380] pool1 -> pool1
I0419 21:27:36.925402 27863 net.cpp:122] Setting up pool1
I0419 21:27:36.925407 27863 net.cpp:129] Top shape: 32 96 27 27 (2239488)
I0419 21:27:36.925410 27863 net.cpp:137] Memory required for data: 140259072
I0419 21:27:36.925412 27863 layer_factory.hpp:77] Creating layer conv2
I0419 21:27:36.925420 27863 net.cpp:84] Creating Layer conv2
I0419 21:27:36.925422 27863 net.cpp:406] conv2 <- pool1
I0419 21:27:36.925449 27863 net.cpp:380] conv2 -> conv2
I0419 21:27:36.934937 27863 net.cpp:122] Setting up conv2
I0419 21:27:36.934952 27863 net.cpp:129] Top shape: 32 256 27 27 (5971968)
I0419 21:27:36.934954 27863 net.cpp:137] Memory required for data: 164146944
I0419 21:27:36.934967 27863 layer_factory.hpp:77] Creating layer relu2
I0419 21:27:36.934974 27863 net.cpp:84] Creating Layer relu2
I0419 21:27:36.934978 27863 net.cpp:406] relu2 <- conv2
I0419 21:27:36.934983 27863 net.cpp:367] relu2 -> conv2 (in-place)
I0419 21:27:36.935547 27863 net.cpp:122] Setting up relu2
I0419 21:27:36.935557 27863 net.cpp:129] Top shape: 32 256 27 27 (5971968)
I0419 21:27:36.935560 27863 net.cpp:137] Memory required for data: 188034816
I0419 21:27:36.935564 27863 layer_factory.hpp:77] Creating layer norm2
I0419 21:27:36.935573 27863 net.cpp:84] Creating Layer norm2
I0419 21:27:36.935576 27863 net.cpp:406] norm2 <- conv2
I0419 21:27:36.935581 27863 net.cpp:380] norm2 -> norm2
I0419 21:27:36.936347 27863 net.cpp:122] Setting up norm2
I0419 21:27:36.936357 27863 net.cpp:129] Top shape: 32 256 27 27 (5971968)
I0419 21:27:36.936360 27863 net.cpp:137] Memory required for data: 211922688
I0419 21:27:36.936364 27863 layer_factory.hpp:77] Creating layer pool2
I0419 21:27:36.936372 27863 net.cpp:84] Creating Layer pool2
I0419 21:27:36.936375 27863 net.cpp:406] pool2 <- norm2
I0419 21:27:36.936383 27863 net.cpp:380] pool2 -> pool2
I0419 21:27:36.936409 27863 net.cpp:122] Setting up pool2
I0419 21:27:36.936415 27863 net.cpp:129] Top shape: 32 256 13 13 (1384448)
I0419 21:27:36.936417 27863 net.cpp:137] Memory required for data: 217460480
I0419 21:27:36.936420 27863 layer_factory.hpp:77] Creating layer conv3
I0419 21:27:36.936431 27863 net.cpp:84] Creating Layer conv3
I0419 21:27:36.936434 27863 net.cpp:406] conv3 <- pool2
I0419 21:27:36.936439 27863 net.cpp:380] conv3 -> conv3
I0419 21:27:36.948204 27863 net.cpp:122] Setting up conv3
I0419 21:27:36.948220 27863 net.cpp:129] Top shape: 32 384 13 13 (2076672)
I0419 21:27:36.948225 27863 net.cpp:137] Memory required for data: 225767168
I0419 21:27:36.948236 27863 layer_factory.hpp:77] Creating layer relu3
I0419 21:27:36.948246 27863 net.cpp:84] Creating Layer relu3
I0419 21:27:36.948251 27863 net.cpp:406] relu3 <- conv3
I0419 21:27:36.948256 27863 net.cpp:367] relu3 -> conv3 (in-place)
I0419 21:27:36.948845 27863 net.cpp:122] Setting up relu3
I0419 21:27:36.948854 27863 net.cpp:129] Top shape: 32 384 13 13 (2076672)
I0419 21:27:36.948858 27863 net.cpp:137] Memory required for data: 234073856
I0419 21:27:36.948860 27863 layer_factory.hpp:77] Creating layer conv4
I0419 21:27:36.948873 27863 net.cpp:84] Creating Layer conv4
I0419 21:27:36.948875 27863 net.cpp:406] conv4 <- conv3
I0419 21:27:36.948881 27863 net.cpp:380] conv4 -> conv4
I0419 21:27:36.959245 27863 net.cpp:122] Setting up conv4
I0419 21:27:36.959262 27863 net.cpp:129] Top shape: 32 384 13 13 (2076672)
I0419 21:27:36.959265 27863 net.cpp:137] Memory required for data: 242380544
I0419 21:27:36.959275 27863 layer_factory.hpp:77] Creating layer relu4
I0419 21:27:36.959285 27863 net.cpp:84] Creating Layer relu4
I0419 21:27:36.959288 27863 net.cpp:406] relu4 <- conv4
I0419 21:27:36.959295 27863 net.cpp:367] relu4 -> conv4 (in-place)
I0419 21:27:36.959677 27863 net.cpp:122] Setting up relu4
I0419 21:27:36.959686 27863 net.cpp:129] Top shape: 32 384 13 13 (2076672)
I0419 21:27:36.959689 27863 net.cpp:137] Memory required for data: 250687232
I0419 21:27:36.959692 27863 layer_factory.hpp:77] Creating layer conv5
I0419 21:27:36.959702 27863 net.cpp:84] Creating Layer conv5
I0419 21:27:36.959705 27863 net.cpp:406] conv5 <- conv4
I0419 21:27:36.959712 27863 net.cpp:380] conv5 -> conv5
I0419 21:27:36.969378 27863 net.cpp:122] Setting up conv5
I0419 21:27:36.969398 27863 net.cpp:129] Top shape: 32 256 13 13 (1384448)
I0419 21:27:36.969401 27863 net.cpp:137] Memory required for data: 256225024
I0419 21:27:36.969413 27863 layer_factory.hpp:77] Creating layer relu5
I0419 21:27:36.969421 27863 net.cpp:84] Creating Layer relu5
I0419 21:27:36.969424 27863 net.cpp:406] relu5 <- conv5
I0419 21:27:36.969449 27863 net.cpp:367] relu5 -> conv5 (in-place)
I0419 21:27:36.970011 27863 net.cpp:122] Setting up relu5
I0419 21:27:36.970021 27863 net.cpp:129] Top shape: 32 256 13 13 (1384448)
I0419 21:27:36.970023 27863 net.cpp:137] Memory required for data: 261762816
I0419 21:27:36.970027 27863 layer_factory.hpp:77] Creating layer pool5
I0419 21:27:36.970038 27863 net.cpp:84] Creating Layer pool5
I0419 21:27:36.970041 27863 net.cpp:406] pool5 <- conv5
I0419 21:27:36.970046 27863 net.cpp:380] pool5 -> pool5
I0419 21:27:36.970083 27863 net.cpp:122] Setting up pool5
I0419 21:27:36.970088 27863 net.cpp:129] Top shape: 32 256 6 6 (294912)
I0419 21:27:36.970090 27863 net.cpp:137] Memory required for data: 262942464
I0419 21:27:36.970093 27863 layer_factory.hpp:77] Creating layer fc6
I0419 21:27:36.970101 27863 net.cpp:84] Creating Layer fc6
I0419 21:27:36.970103 27863 net.cpp:406] fc6 <- pool5
I0419 21:27:36.970109 27863 net.cpp:380] fc6 -> fc6
I0419 21:27:37.329417 27863 net.cpp:122] Setting up fc6
I0419 21:27:37.329437 27863 net.cpp:129] Top shape: 32 4096 (131072)
I0419 21:27:37.329439 27863 net.cpp:137] Memory required for data: 263466752
I0419 21:27:37.329448 27863 layer_factory.hpp:77] Creating layer relu6
I0419 21:27:37.329457 27863 net.cpp:84] Creating Layer relu6
I0419 21:27:37.329460 27863 net.cpp:406] relu6 <- fc6
I0419 21:27:37.329468 27863 net.cpp:367] relu6 -> fc6 (in-place)
I0419 21:27:37.330251 27863 net.cpp:122] Setting up relu6
I0419 21:27:37.330260 27863 net.cpp:129] Top shape: 32 4096 (131072)
I0419 21:27:37.330263 27863 net.cpp:137] Memory required for data: 263991040
I0419 21:27:37.330266 27863 layer_factory.hpp:77] Creating layer drop6
I0419 21:27:37.330273 27863 net.cpp:84] Creating Layer drop6
I0419 21:27:37.330276 27863 net.cpp:406] drop6 <- fc6
I0419 21:27:37.330281 27863 net.cpp:367] drop6 -> fc6 (in-place)
I0419 21:27:37.330305 27863 net.cpp:122] Setting up drop6
I0419 21:27:37.330310 27863 net.cpp:129] Top shape: 32 4096 (131072)
I0419 21:27:37.330312 27863 net.cpp:137] Memory required for data: 264515328
I0419 21:27:37.330315 27863 layer_factory.hpp:77] Creating layer fc7
I0419 21:27:37.330322 27863 net.cpp:84] Creating Layer fc7
I0419 21:27:37.330324 27863 net.cpp:406] fc7 <- fc6
I0419 21:27:37.330330 27863 net.cpp:380] fc7 -> fc7
I0419 21:27:37.531955 27863 net.cpp:122] Setting up fc7
I0419 21:27:37.531976 27863 net.cpp:129] Top shape: 32 4096 (131072)
I0419 21:27:37.531980 27863 net.cpp:137] Memory required for data: 265039616
I0419 21:27:37.531989 27863 layer_factory.hpp:77] Creating layer relu7
I0419 21:27:37.531998 27863 net.cpp:84] Creating Layer relu7
I0419 21:27:37.532002 27863 net.cpp:406] relu7 <- fc7
I0419 21:27:37.532011 27863 net.cpp:367] relu7 -> fc7 (in-place)
I0419 21:27:37.532538 27863 net.cpp:122] Setting up relu7
I0419 21:27:37.532547 27863 net.cpp:129] Top shape: 32 4096 (131072)
I0419 21:27:37.532550 27863 net.cpp:137] Memory required for data: 265563904
I0419 21:27:37.532554 27863 layer_factory.hpp:77] Creating layer drop7
I0419 21:27:37.532560 27863 net.cpp:84] Creating Layer drop7
I0419 21:27:37.532564 27863 net.cpp:406] drop7 <- fc7
I0419 21:27:37.532570 27863 net.cpp:367] drop7 -> fc7 (in-place)
I0419 21:27:37.532594 27863 net.cpp:122] Setting up drop7
I0419 21:27:37.532601 27863 net.cpp:129] Top shape: 32 4096 (131072)
I0419 21:27:37.532603 27863 net.cpp:137] Memory required for data: 266088192
I0419 21:27:37.532606 27863 layer_factory.hpp:77] Creating layer fc8
I0419 21:27:37.532613 27863 net.cpp:84] Creating Layer fc8
I0419 21:27:37.532616 27863 net.cpp:406] fc8 <- fc7
I0419 21:27:37.532622 27863 net.cpp:380] fc8 -> fc8
I0419 21:27:37.541198 27863 net.cpp:122] Setting up fc8
I0419 21:27:37.541208 27863 net.cpp:129] Top shape: 32 196 (6272)
I0419 21:27:37.541210 27863 net.cpp:137] Memory required for data: 266113280
I0419 21:27:37.541218 27863 layer_factory.hpp:77] Creating layer fc8_fc8_0_split
I0419 21:27:37.541224 27863 net.cpp:84] Creating Layer fc8_fc8_0_split
I0419 21:27:37.541226 27863 net.cpp:406] fc8_fc8_0_split <- fc8
I0419 21:27:37.541255 27863 net.cpp:380] fc8_fc8_0_split -> fc8_fc8_0_split_0
I0419 21:27:37.541262 27863 net.cpp:380] fc8_fc8_0_split -> fc8_fc8_0_split_1
I0419 21:27:37.541294 27863 net.cpp:122] Setting up fc8_fc8_0_split
I0419 21:27:37.541299 27863 net.cpp:129] Top shape: 32 196 (6272)
I0419 21:27:37.541302 27863 net.cpp:129] Top shape: 32 196 (6272)
I0419 21:27:37.541306 27863 net.cpp:137] Memory required for data: 266163456
I0419 21:27:37.541308 27863 layer_factory.hpp:77] Creating layer accuracy
I0419 21:27:37.541314 27863 net.cpp:84] Creating Layer accuracy
I0419 21:27:37.541317 27863 net.cpp:406] accuracy <- fc8_fc8_0_split_0
I0419 21:27:37.541321 27863 net.cpp:406] accuracy <- label_val-data_1_split_0
I0419 21:27:37.541326 27863 net.cpp:380] accuracy -> accuracy
…
