…
I0406 07:07:56.407707  5644 net.cpp:294] The NetState phase (0) differed from the phase (1) specified by a rule in layer accuracy
I0406 07:07:56.407836  5644 net.cpp:51] Initializing net from parameters:
state {
phase: TRAIN
level: 0
stage: ""
}
layer {
name: "train-data"
type: "Data"
top: "data"
top: "label"
include {
phase: TRAIN
}
transform_param {
mirror: true
crop_size: 227
mean_file: "/mnt/bigdisk/DIGITS-AIN-3/digits/jobs/20210401-115716-aaf7/mean.binaryproto"
}
data_param {
source: "/mnt/bigdisk/DIGITS-AIN-3/digits/jobs/20210401-115716-aaf7/train_db"
batch_size: 128
backend: LMDB
}
}
layer {
name: "conv1"
type: "Convolution"
bottom: "data"
top: "conv1"
param {
lr_mult: 1
decay_mult: 1
}
param {
lr_mult: 2
decay_mult: 0
}
convolution_param {
num_output: 96
kernel_size: 11
stride: 4
weight_filler {
type: "gaussian"
std: 0.01
}
bias_filler {
type: "constant"
value: 0
}
}
}
layer {
name: "relu1"
type: "ReLU"
bottom: "conv1"
top: "conv1"
}
layer {
name: "norm1"
type: "LRN"
bottom: "conv1"
top: "norm1"
lrn_param {
local_size: 5
alpha: 0.0001
beta: 0.75
}
}
layer {
name: "pool1"
type: "Pooling"
bottom: "norm1"
top: "pool1"
pooling_param {
pool: MAX
kernel_size: 3
stride: 2
}
}
layer {
name: "conv2"
type: "Convolution"
bottom: "pool1"
top: "conv2"
param {
lr_mult: 1
decay_mult: 1
}
param {
lr_mult: 2
decay_mult: 0
}
convolution_param {
num_output: 256
pad: 2
kernel_size: 5
group: 2
weight_filler {
type: "gaussian"
std: 0.01
}
bias_filler {
type: "constant"
value: 0.1
}
}
}
layer {
name: "relu2"
type: "ReLU"
bottom: "conv2"
top: "conv2"
}
layer {
name: "norm2"
type: "LRN"
bottom: "conv2"
top: "norm2"
lrn_param {
local_size: 5
alpha: 0.0001
beta: 0.75
}
}
layer {
name: "pool2"
type: "Pooling"
bottom: "norm2"
top: "pool2"
pooling_param {
pool: MAX
kernel_size: 3
stride: 2
}
}
layer {
name: "conv3"
type: "Convolution"
bottom: "pool2"
top: "conv3"
param {
lr_mult: 1
decay_mult: 1
}
param {
lr_mult: 2
decay_mult: 0
}
convolution_param {
num_output: 384
pad: 1
kernel_size: 3
weight_filler {
type: "gaussian"
std: 0.01
}
bias_filler {
type: "constant"
value: 0
}
}
}
layer {
name: "relu3"
type: "ReLU"
bottom: "conv3"
top: "conv3"
}
layer {
name: "conv4"
type: "Convolution"
bottom: "conv3"
top: "conv4"
param {
lr_mult: 1
decay_mult: 1
}
param {
lr_mult: 2
decay_mult: 0
}
convolution_param {
num_output: 384
pad: 1
kernel_size: 3
group: 2
weight_filler {
type: "gaussian"
std: 0.01
}
bias_filler {
type: "constant"
value: 0.1
}
}
}
layer {
name: "relu4"
type: "ReLU"
bottom: "conv4"
top: "conv4"
}
layer {
name: "conv5"
type: "Convolution"
bottom: "conv4"
top: "conv5"
param {
lr_mult: 1
decay_mult: 1
}
param {
lr_mult: 2
decay_mult: 0
}
convolution_param {
num_output: 256
pad: 1
kernel_size: 3
group: 2
weight_filler {
type: "gaussian"
std: 0.01
}
bias_filler {
type: "constant"
value: 0.1
}
}
}
layer {
name: "relu5"
type: "ReLU"
bottom: "conv5"
top: "conv5"
}
layer {
name: "pool5"
type: "Pooling"
bottom: "conv5"
top: "pool5"
pooling_param {
pool: MAX
kernel_size: 3
stride: 2
}
}
layer {
name: "fc6"
type: "InnerProduct"
bottom: "pool5"
top: "fc6"
param {
lr_mult: 1
decay_mult: 1
}
param {
lr_mult: 2
decay_mult: 0
}
inner_product_param {
num_output: 4096
weight_filler {
type: "gaussian"
std: 0.005
}
bias_filler {
type: "constant"
value: 0.1
}
}
}
layer {
name: "relu6"
type: "ReLU"
bottom: "fc6"
top: "fc6"
}
layer {
name: "drop6"
type: "Dropout"
bottom: "fc6"
top: "fc6"
dropout_param {
dropout_ratio: 0.5
}
}
layer {
name: "fc7"
type: "InnerProduct"
bottom: "fc6"
top: "fc7"
param {
lr_mult: 1
decay_mult: 1
}
param {
lr_mult: 2
decay_mult: 0
}
inner_product_param {
num_output: 4096
weight_filler {
type: "gaussian"
std: 0.005
}
bias_filler {
type: "constant"
value: 0.1
}
}
}
layer {
name: "relu7"
type: "ReLU"
bottom: "fc7"
top: "fc7"
}
layer {
name: "drop7"
type: "Dropout"
bottom: "fc7"
top: "fc7"
dropout_param {
dropout_ratio: 0.5
}
}
layer {
name: "fc8"
type: "InnerProduct"
bottom: "fc7"
top: "fc8"
param {
lr_mult: 1
decay_mult: 1
}
param {
lr_mult: 2
decay_mult: 0
}
inner_product_param {
num_output: 196
weight_filler {
type: "gaussian"
std: 0.01
}
bias_filler {
type: "constant"
value: 0
}
}
}
layer {
name: "loss"
type: "SoftmaxWithLoss"
bottom: "fc8"
bottom: "label"
top: "loss"
}
I0406 07:07:56.407922  5644 layer_factory.hpp:77] Creating layer train-data
I0406 07:07:56.409749  5644 db_lmdb.cpp:35] Opened lmdb /mnt/bigdisk/DIGITS-AIN-3/digits/jobs/20210401-115716-aaf7/train_db
I0406 07:07:56.409956  5644 net.cpp:84] Creating Layer train-data
I0406 07:07:56.409968  5644 net.cpp:380] train-data -> data
I0406 07:07:56.409986  5644 net.cpp:380] train-data -> label
I0406 07:07:56.409994  5644 data_transformer.cpp:25] Loading mean file from: /mnt/bigdisk/DIGITS-AIN-3/digits/jobs/20210401-115716-aaf7/mean.binaryproto
I0406 07:07:56.414346  5644 data_layer.cpp:45] output data size: 128,3,227,227
I0406 07:07:56.555272  5644 net.cpp:122] Setting up train-data
I0406 07:07:56.555292  5644 net.cpp:129] Top shape: 128 3 227 227 (19787136)
I0406 07:07:56.555296  5644 net.cpp:129] Top shape: 128 (128)
I0406 07:07:56.555299  5644 net.cpp:137] Memory required for data: 79149056
I0406 07:07:56.555306  5644 layer_factory.hpp:77] Creating layer conv1
I0406 07:07:56.555325  5644 net.cpp:84] Creating Layer conv1
I0406 07:07:56.555330  5644 net.cpp:406] conv1 <- data
I0406 07:07:56.555341  5644 net.cpp:380] conv1 -> conv1
I0406 07:07:56.977953  5644 net.cpp:122] Setting up conv1
I0406 07:07:56.977977  5644 net.cpp:129] Top shape: 128 96 55 55 (37171200)
I0406 07:07:56.977980  5644 net.cpp:137] Memory required for data: 227833856
I0406 07:07:56.977999  5644 layer_factory.hpp:77] Creating layer relu1
I0406 07:07:56.978009  5644 net.cpp:84] Creating Layer relu1
I0406 07:07:56.978013  5644 net.cpp:406] relu1 <- conv1
I0406 07:07:56.978018  5644 net.cpp:367] relu1 -> conv1 (in-place)
I0406 07:07:56.978277  5644 net.cpp:122] Setting up relu1
I0406 07:07:56.978287  5644 net.cpp:129] Top shape: 128 96 55 55 (37171200)
I0406 07:07:56.978289  5644 net.cpp:137] Memory required for data: 376518656
I0406 07:07:56.978292  5644 layer_factory.hpp:77] Creating layer norm1
I0406 07:07:56.978300  5644 net.cpp:84] Creating Layer norm1
I0406 07:07:56.978303  5644 net.cpp:406] norm1 <- conv1
I0406 07:07:56.978329  5644 net.cpp:380] norm1 -> norm1
I0406 07:07:56.978744  5644 net.cpp:122] Setting up norm1
I0406 07:07:56.978754  5644 net.cpp:129] Top shape: 128 96 55 55 (37171200)
I0406 07:07:56.978755  5644 net.cpp:137] Memory required for data: 525203456
I0406 07:07:56.978758  5644 layer_factory.hpp:77] Creating layer pool1
I0406 07:07:56.978765  5644 net.cpp:84] Creating Layer pool1
I0406 07:07:56.978767  5644 net.cpp:406] pool1 <- norm1
I0406 07:07:56.978771  5644 net.cpp:380] pool1 -> pool1
I0406 07:07:56.978802  5644 net.cpp:122] Setting up pool1
I0406 07:07:56.978806  5644 net.cpp:129] Top shape: 128 96 27 27 (8957952)
I0406 07:07:56.978808  5644 net.cpp:137] Memory required for data: 561035264
I0406 07:07:56.978811  5644 layer_factory.hpp:77] Creating layer conv2
I0406 07:07:56.978819  5644 net.cpp:84] Creating Layer conv2
I0406 07:07:56.978821  5644 net.cpp:406] conv2 <- pool1
I0406 07:07:56.978826  5644 net.cpp:380] conv2 -> conv2
I0406 07:07:56.986726  5644 net.cpp:122] Setting up conv2
I0406 07:07:56.986742  5644 net.cpp:129] Top shape: 128 256 27 27 (23887872)
I0406 07:07:56.986744  5644 net.cpp:137] Memory required for data: 656586752
I0406 07:07:56.986755  5644 layer_factory.hpp:77] Creating layer relu2
I0406 07:07:56.986763  5644 net.cpp:84] Creating Layer relu2
I0406 07:07:56.986766  5644 net.cpp:406] relu2 <- conv2
I0406 07:07:56.986771  5644 net.cpp:367] relu2 -> conv2 (in-place)
I0406 07:07:56.988983  5644 net.cpp:122] Setting up relu2
I0406 07:07:56.988992  5644 net.cpp:129] Top shape: 128 256 27 27 (23887872)
I0406 07:07:56.988996  5644 net.cpp:137] Memory required for data: 752138240
I0406 07:07:56.988997  5644 layer_factory.hpp:77] Creating layer norm2
I0406 07:07:56.989004  5644 net.cpp:84] Creating Layer norm2
I0406 07:07:56.989006  5644 net.cpp:406] norm2 <- conv2
I0406 07:07:56.989010  5644 net.cpp:380] norm2 -> norm2
I0406 07:07:56.989269  5644 net.cpp:122] Setting up norm2
I0406 07:07:56.989275  5644 net.cpp:129] Top shape: 128 256 27 27 (23887872)
I0406 07:07:56.989277  5644 net.cpp:137] Memory required for data: 847689728
I0406 07:07:56.989280  5644 layer_factory.hpp:77] Creating layer pool2
I0406 07:07:56.989286  5644 net.cpp:84] Creating Layer pool2
I0406 07:07:56.989289  5644 net.cpp:406] pool2 <- norm2
I0406 07:07:56.989292  5644 net.cpp:380] pool2 -> pool2
I0406 07:07:56.989316  5644 net.cpp:122] Setting up pool2
I0406 07:07:56.989320  5644 net.cpp:129] Top shape: 128 256 13 13 (5537792)
I0406 07:07:56.989322  5644 net.cpp:137] Memory required for data: 869840896
I0406 07:07:56.989324  5644 layer_factory.hpp:77] Creating layer conv3
I0406 07:07:56.989333  5644 net.cpp:84] Creating Layer conv3
I0406 07:07:56.989336  5644 net.cpp:406] conv3 <- pool2
I0406 07:07:56.989338  5644 net.cpp:380] conv3 -> conv3
I0406 07:07:57.000010  5644 net.cpp:122] Setting up conv3
I0406 07:07:57.000026  5644 net.cpp:129] Top shape: 128 384 13 13 (8306688)
I0406 07:07:57.000030  5644 net.cpp:137] Memory required for data: 903067648
I0406 07:07:57.000041  5644 layer_factory.hpp:77] Creating layer relu3
I0406 07:07:57.000047  5644 net.cpp:84] Creating Layer relu3
I0406 07:07:57.000051  5644 net.cpp:406] relu3 <- conv3
I0406 07:07:57.000056  5644 net.cpp:367] relu3 -> conv3 (in-place)
I0406 07:07:57.000449  5644 net.cpp:122] Setting up relu3
I0406 07:07:57.000458  5644 net.cpp:129] Top shape: 128 384 13 13 (8306688)
I0406 07:07:57.000459  5644 net.cpp:137] Memory required for data: 936294400
I0406 07:07:57.000463  5644 layer_factory.hpp:77] Creating layer conv4
I0406 07:07:57.000470  5644 net.cpp:84] Creating Layer conv4
I0406 07:07:57.000473  5644 net.cpp:406] conv4 <- conv3
I0406 07:07:57.000478  5644 net.cpp:380] conv4 -> conv4
I0406 07:07:57.009779  5644 net.cpp:122] Setting up conv4
I0406 07:07:57.009799  5644 net.cpp:129] Top shape: 128 384 13 13 (8306688)
I0406 07:07:57.009800  5644 net.cpp:137] Memory required for data: 969521152
I0406 07:07:57.009809  5644 layer_factory.hpp:77] Creating layer relu4
I0406 07:07:57.009817  5644 net.cpp:84] Creating Layer relu4
I0406 07:07:57.009821  5644 net.cpp:406] relu4 <- conv4
I0406 07:07:57.009845  5644 net.cpp:367] relu4 -> conv4 (in-place)
I0406 07:07:57.010155  5644 net.cpp:122] Setting up relu4
I0406 07:07:57.010164  5644 net.cpp:129] Top shape: 128 384 13 13 (8306688)
I0406 07:07:57.010167  5644 net.cpp:137] Memory required for data: 1002747904
I0406 07:07:57.010169  5644 layer_factory.hpp:77] Creating layer conv5
I0406 07:07:57.010179  5644 net.cpp:84] Creating Layer conv5
I0406 07:07:57.010182  5644 net.cpp:406] conv5 <- conv4
I0406 07:07:57.010186  5644 net.cpp:380] conv5 -> conv5
I0406 07:07:57.018930  5644 net.cpp:122] Setting up conv5
I0406 07:07:57.018950  5644 net.cpp:129] Top shape: 128 256 13 13 (5537792)
I0406 07:07:57.018954  5644 net.cpp:137] Memory required for data: 1024899072
I0406 07:07:57.018965  5644 layer_factory.hpp:77] Creating layer relu5
I0406 07:07:57.018975  5644 net.cpp:84] Creating Layer relu5
I0406 07:07:57.018977  5644 net.cpp:406] relu5 <- conv5
I0406 07:07:57.018982  5644 net.cpp:367] relu5 -> conv5 (in-place)
I0406 07:07:57.019443  5644 net.cpp:122] Setting up relu5
I0406 07:07:57.019452  5644 net.cpp:129] Top shape: 128 256 13 13 (5537792)
I0406 07:07:57.019454  5644 net.cpp:137] Memory required for data: 1047050240
I0406 07:07:57.019457  5644 layer_factory.hpp:77] Creating layer pool5
I0406 07:07:57.019462  5644 net.cpp:84] Creating Layer pool5
I0406 07:07:57.019465  5644 net.cpp:406] pool5 <- conv5
I0406 07:07:57.019472  5644 net.cpp:380] pool5 -> pool5
I0406 07:07:57.019505  5644 net.cpp:122] Setting up pool5
I0406 07:07:57.019508  5644 net.cpp:129] Top shape: 128 256 6 6 (1179648)
I0406 07:07:57.019510  5644 net.cpp:137] Memory required for data: 1051768832
I0406 07:07:57.019512  5644 layer_factory.hpp:77] Creating layer fc6
I0406 07:07:57.019522  5644 net.cpp:84] Creating Layer fc6
I0406 07:07:57.019524  5644 net.cpp:406] fc6 <- pool5
I0406 07:07:57.019528  5644 net.cpp:380] fc6 -> fc6
I0406 07:07:57.386009  5644 net.cpp:122] Setting up fc6
I0406 07:07:57.386032  5644 net.cpp:129] Top shape: 128 4096 (524288)
I0406 07:07:57.386035  5644 net.cpp:137] Memory required for data: 1053865984
I0406 07:07:57.386044  5644 layer_factory.hpp:77] Creating layer relu6
I0406 07:07:57.386057  5644 net.cpp:84] Creating Layer relu6
I0406 07:07:57.386061  5644 net.cpp:406] relu6 <- fc6
I0406 07:07:57.386066  5644 net.cpp:367] relu6 -> fc6 (in-place)
I0406 07:07:57.386662  5644 net.cpp:122] Setting up relu6
I0406 07:07:57.386670  5644 net.cpp:129] Top shape: 128 4096 (524288)
I0406 07:07:57.386673  5644 net.cpp:137] Memory required for data: 1055963136
I0406 07:07:57.386675  5644 layer_factory.hpp:77] Creating layer drop6
I0406 07:07:57.386682  5644 net.cpp:84] Creating Layer drop6
I0406 07:07:57.386683  5644 net.cpp:406] drop6 <- fc6
I0406 07:07:57.386688  5644 net.cpp:367] drop6 -> fc6 (in-place)
I0406 07:07:57.386711  5644 net.cpp:122] Setting up drop6
I0406 07:07:57.386715  5644 net.cpp:129] Top shape: 128 4096 (524288)
I0406 07:07:57.386718  5644 net.cpp:137] Memory required for data: 1058060288
I0406 07:07:57.386719  5644 layer_factory.hpp:77] Creating layer fc7
I0406 07:07:57.386726  5644 net.cpp:84] Creating Layer fc7
I0406 07:07:57.386729  5644 net.cpp:406] fc7 <- fc6
I0406 07:07:57.386734  5644 net.cpp:380] fc7 -> fc7
I0406 07:07:57.572324  5644 net.cpp:122] Setting up fc7
I0406 07:07:57.572346  5644 net.cpp:129] Top shape: 128 4096 (524288)
I0406 07:07:57.572350  5644 net.cpp:137] Memory required for data: 1060157440
I0406 07:07:57.572357  5644 layer_factory.hpp:77] Creating layer relu7
I0406 07:07:57.572367  5644 net.cpp:84] Creating Layer relu7
I0406 07:07:57.572371  5644 net.cpp:406] relu7 <- fc7
I0406 07:07:57.572376  5644 net.cpp:367] relu7 -> fc7 (in-place)
I0406 07:07:57.572759  5644 net.cpp:122] Setting up relu7
I0406 07:07:57.572770  5644 net.cpp:129] Top shape: 128 4096 (524288)
I0406 07:07:57.572774  5644 net.cpp:137] Memory required for data: 1062254592
I0406 07:07:57.572777  5644 layer_factory.hpp:77] Creating layer drop7
I0406 07:07:57.572784  5644 net.cpp:84] Creating Layer drop7
I0406 07:07:57.572788  5644 net.cpp:406] drop7 <- fc7
I0406 07:07:57.572813  5644 net.cpp:367] drop7 -> fc7 (in-place)
I0406 07:07:57.572836  5644 net.cpp:122] Setting up drop7
I0406 07:07:57.572840  5644 net.cpp:129] Top shape: 128 4096 (524288)
I0406 07:07:57.572842  5644 net.cpp:137] Memory required for data: 1064351744
I0406 07:07:57.572844  5644 layer_factory.hpp:77] Creating layer fc8
I0406 07:07:57.572851  5644 net.cpp:84] Creating Layer fc8
I0406 07:07:57.572854  5644 net.cpp:406] fc8 <- fc7
I0406 07:07:57.572857  5644 net.cpp:380] fc8 -> fc8
I0406 07:07:57.580382  5644 net.cpp:122] Setting up fc8
I0406 07:07:57.580401  5644 net.cpp:129] Top shape: 128 196 (25088)
I0406 07:07:57.580404  5644 net.cpp:137] Memory required for data: 1064452096
I0406 07:07:57.580412  5644 layer_factory.hpp:77] Creating layer loss
I0406 07:07:57.580420  5644 net.cpp:84] Creating Layer loss
I0406 07:07:57.580423  5644 net.cpp:406] loss <- fc8
I0406 07:07:57.580427  5644 net.cpp:406] loss <- label
I0406 07:07:57.580435  5644 net.cpp:380] loss -> loss
I0406 07:07:57.580446  5644 layer_factory.hpp:77] Creating layer loss
…
I0406 07:07:57.581879  5644 net.cpp:294] The NetState phase (1) differed from the phase (0) specified by a rule in layer train-data
I0406 07:07:57.582011  5644 net.cpp:51] Initializing net from parameters:
state {
phase: TEST
}
layer {
name: "val-data"
type: "Data"
top: "data"
top: "label"
include {
phase: TEST
}
transform_param {
crop_size: 227
mean_file: "/mnt/bigdisk/DIGITS-AIN-3/digits/jobs/20210401-115716-aaf7/mean.binaryproto"
}
data_param {
source: "/mnt/bigdisk/DIGITS-AIN-3/digits/jobs/20210401-115716-aaf7/val_db"
batch_size: 32
backend: LMDB
}
}
layer {
name: "conv1"
type: "Convolution"
bottom: "data"
top: "conv1"
param {
lr_mult: 1
decay_mult: 1
}
param {
lr_mult: 2
decay_mult: 0
}
convolution_param {
num_output: 96
kernel_size: 11
stride: 4
weight_filler {
type: "gaussian"
std: 0.01
}
bias_filler {
type: "constant"
value: 0
}
}
}
layer {
name: "relu1"
type: "ReLU"
bottom: "conv1"
top: "conv1"
}
layer {
name: "norm1"
type: "LRN"
bottom: "conv1"
top: "norm1"
lrn_param {
local_size: 5
alpha: 0.0001
beta: 0.75
}
}
layer {
name: "pool1"
type: "Pooling"
bottom: "norm1"
top: "pool1"
pooling_param {
pool: MAX
kernel_size: 3
stride: 2
}
}
layer {
name: "conv2"
type: "Convolution"
bottom: "pool1"
top: "conv2"
param {
lr_mult: 1
decay_mult: 1
}
param {
lr_mult: 2
decay_mult: 0
}
convolution_param {
num_output: 256
pad: 2
kernel_size: 5
group: 2
weight_filler {
type: "gaussian"
std: 0.01
}
bias_filler {
type: "constant"
value: 0.1
}
}
}
layer {
name: "relu2"
type: "ReLU"
bottom: "conv2"
top: "conv2"
}
layer {
name: "norm2"
type: "LRN"
bottom: "conv2"
top: "norm2"
lrn_param {
local_size: 5
alpha: 0.0001
beta: 0.75
}
}
layer {
name: "pool2"
type: "Pooling"
bottom: "norm2"
top: "pool2"
pooling_param {
pool: MAX
kernel_size: 3
stride: 2
}
}
layer {
name: "conv3"
type: "Convolution"
bottom: "pool2"
top: "conv3"
param {
lr_mult: 1
decay_mult: 1
}
param {
lr_mult: 2
decay_mult: 0
}
convolution_param {
num_output: 384
pad: 1
kernel_size: 3
weight_filler {
type: "gaussian"
std: 0.01
}
bias_filler {
type: "constant"
value: 0
}
}
}
layer {
name: "relu3"
type: "ReLU"
bottom: "conv3"
top: "conv3"
}
layer {
name: "conv4"
type: "Convolution"
bottom: "conv3"
top: "conv4"
param {
lr_mult: 1
decay_mult: 1
}
param {
lr_mult: 2
decay_mult: 0
}
convolution_param {
num_output: 384
pad: 1
kernel_size: 3
group: 2
weight_filler {
type: "gaussian"
std: 0.01
}
bias_filler {
type: "constant"
value: 0.1
}
}
}
layer {
name: "relu4"
type: "ReLU"
bottom: "conv4"
top: "conv4"
}
layer {
name: "conv5"
type: "Convolution"
bottom: "conv4"
top: "conv5"
param {
lr_mult: 1
decay_mult: 1
}
param {
lr_mult: 2
decay_mult: 0
}
convolution_param {
num_output: 256
pad: 1
kernel_size: 3
group: 2
weight_filler {
type: "gaussian"
std: 0.01
}
bias_filler {
type: "constant"
value: 0.1
}
}
}
layer {
name: "relu5"
type: "ReLU"
bottom: "conv5"
top: "conv5"
}
layer {
name: "pool5"
type: "Pooling"
bottom: "conv5"
top: "pool5"
pooling_param {
pool: MAX
kernel_size: 3
stride: 2
}
}
layer {
name: "fc6"
type: "InnerProduct"
bottom: "pool5"
top: "fc6"
param {
lr_mult: 1
decay_mult: 1
}
param {
lr_mult: 2
decay_mult: 0
}
inner_product_param {
num_output: 4096
weight_filler {
type: "gaussian"
std: 0.005
}
bias_filler {
type: "constant"
value: 0.1
}
}
}
layer {
name: "relu6"
type: "ReLU"
bottom: "fc6"
top: "fc6"
}
layer {
name: "drop6"
type: "Dropout"
bottom: "fc6"
top: "fc6"
dropout_param {
dropout_ratio: 0.5
}
}
layer {
name: "fc7"
type: "InnerProduct"
bottom: "fc6"
top: "fc7"
param {
lr_mult: 1
decay_mult: 1
}
param {
lr_mult: 2
decay_mult: 0
}
inner_product_param {
num_output: 4096
weight_filler {
type: "gaussian"
std: 0.005
}
bias_filler {
type: "constant"
value: 0.1
}
}
}
layer {
name: "relu7"
type: "ReLU"
bottom: "fc7"
top: "fc7"
}
layer {
name: "drop7"
type: "Dropout"
bottom: "fc7"
top: "fc7"
dropout_param {
dropout_ratio: 0.5
}
}
layer {
name: "fc8"
type: "InnerProduct"
bottom: "fc7"
top: "fc8"
param {
lr_mult: 1
decay_mult: 1
}
param {
lr_mult: 2
decay_mult: 0
}
inner_product_param {
num_output: 196
weight_filler {
type: "gaussian"
std: 0.01
}
bias_filler {
type: "constant"
value: 0
}
}
}
layer {
name: "accuracy"
type: "Accuracy"
bottom: "fc8"
bottom: "label"
top: "accuracy"
include {
phase: TEST
}
}
layer {
name: "loss"
type: "SoftmaxWithLoss"
bottom: "fc8"
bottom: "label"
top: "loss"
}
I0406 07:07:57.582113  5644 layer_factory.hpp:77] Creating layer val-data
I0406 07:07:57.584072  5644 db_lmdb.cpp:35] Opened lmdb /mnt/bigdisk/DIGITS-AIN-3/digits/jobs/20210401-115716-aaf7/val_db
I0406 07:07:57.584295  5644 net.cpp:84] Creating Layer val-data
I0406 07:07:57.584307  5644 net.cpp:380] val-data -> data
I0406 07:07:57.584314  5644 net.cpp:380] val-data -> label
I0406 07:07:57.584321  5644 data_transformer.cpp:25] Loading mean file from: /mnt/bigdisk/DIGITS-AIN-3/digits/jobs/20210401-115716-aaf7/mean.binaryproto
I0406 07:07:57.588143  5644 data_layer.cpp:45] output data size: 32,3,227,227
I0406 07:07:57.625741  5644 net.cpp:122] Setting up val-data
I0406 07:07:57.625761  5644 net.cpp:129] Top shape: 32 3 227 227 (4946784)
I0406 07:07:57.625764  5644 net.cpp:129] Top shape: 32 (32)
I0406 07:07:57.625766  5644 net.cpp:137] Memory required for data: 19787264
I0406 07:07:57.625771  5644 layer_factory.hpp:77] Creating layer label_val-data_1_split
I0406 07:07:57.625783  5644 net.cpp:84] Creating Layer label_val-data_1_split
I0406 07:07:57.625787  5644 net.cpp:406] label_val-data_1_split <- label
I0406 07:07:57.625793  5644 net.cpp:380] label_val-data_1_split -> label_val-data_1_split_0
I0406 07:07:57.625802  5644 net.cpp:380] label_val-data_1_split -> label_val-data_1_split_1
I0406 07:07:57.625850  5644 net.cpp:122] Setting up label_val-data_1_split
I0406 07:07:57.625855  5644 net.cpp:129] Top shape: 32 (32)
I0406 07:07:57.625857  5644 net.cpp:129] Top shape: 32 (32)
I0406 07:07:57.625859  5644 net.cpp:137] Memory required for data: 19787520
I0406 07:07:57.625861  5644 layer_factory.hpp:77] Creating layer conv1
I0406 07:07:57.625871  5644 net.cpp:84] Creating Layer conv1
I0406 07:07:57.625874  5644 net.cpp:406] conv1 <- data
I0406 07:07:57.625878  5644 net.cpp:380] conv1 -> conv1
I0406 07:07:57.628376  5644 net.cpp:122] Setting up conv1
I0406 07:07:57.628391  5644 net.cpp:129] Top shape: 32 96 55 55 (9292800)
I0406 07:07:57.628393  5644 net.cpp:137] Memory required for data: 56958720
I0406 07:07:57.628403  5644 layer_factory.hpp:77] Creating layer relu1
I0406 07:07:57.628409  5644 net.cpp:84] Creating Layer relu1
I0406 07:07:57.628412  5644 net.cpp:406] relu1 <- conv1
I0406 07:07:57.628417  5644 net.cpp:367] relu1 -> conv1 (in-place)
I0406 07:07:57.628680  5644 net.cpp:122] Setting up relu1
I0406 07:07:57.628687  5644 net.cpp:129] Top shape: 32 96 55 55 (9292800)
I0406 07:07:57.628690  5644 net.cpp:137] Memory required for data: 94129920
I0406 07:07:57.628692  5644 layer_factory.hpp:77] Creating layer norm1
I0406 07:07:57.628700  5644 net.cpp:84] Creating Layer norm1
I0406 07:07:57.628701  5644 net.cpp:406] norm1 <- conv1
I0406 07:07:57.628705  5644 net.cpp:380] norm1 -> norm1
I0406 07:07:57.629153  5644 net.cpp:122] Setting up norm1
I0406 07:07:57.629161  5644 net.cpp:129] Top shape: 32 96 55 55 (9292800)
I0406 07:07:57.629164  5644 net.cpp:137] Memory required for data: 131301120
I0406 07:07:57.629166  5644 layer_factory.hpp:77] Creating layer pool1
I0406 07:07:57.629173  5644 net.cpp:84] Creating Layer pool1
I0406 07:07:57.629174  5644 net.cpp:406] pool1 <- norm1
I0406 07:07:57.629179  5644 net.cpp:380] pool1 -> pool1
I0406 07:07:57.629204  5644 net.cpp:122] Setting up pool1
I0406 07:07:57.629209  5644 net.cpp:129] Top shape: 32 96 27 27 (2239488)
I0406 07:07:57.629210  5644 net.cpp:137] Memory required for data: 140259072
I0406 07:07:57.629212  5644 layer_factory.hpp:77] Creating layer conv2
I0406 07:07:57.629220  5644 net.cpp:84] Creating Layer conv2
I0406 07:07:57.629222  5644 net.cpp:406] conv2 <- pool1
I0406 07:07:57.629248  5644 net.cpp:380] conv2 -> conv2
I0406 07:07:57.635715  5644 net.cpp:122] Setting up conv2
I0406 07:07:57.635735  5644 net.cpp:129] Top shape: 32 256 27 27 (5971968)
I0406 07:07:57.635737  5644 net.cpp:137] Memory required for data: 164146944
I0406 07:07:57.635748  5644 layer_factory.hpp:77] Creating layer relu2
I0406 07:07:57.635757  5644 net.cpp:84] Creating Layer relu2
I0406 07:07:57.635761  5644 net.cpp:406] relu2 <- conv2
I0406 07:07:57.635766  5644 net.cpp:367] relu2 -> conv2 (in-place)
I0406 07:07:57.636269  5644 net.cpp:122] Setting up relu2
I0406 07:07:57.636278  5644 net.cpp:129] Top shape: 32 256 27 27 (5971968)
I0406 07:07:57.636281  5644 net.cpp:137] Memory required for data: 188034816
I0406 07:07:57.636283  5644 layer_factory.hpp:77] Creating layer norm2
I0406 07:07:57.636293  5644 net.cpp:84] Creating Layer norm2
I0406 07:07:57.636296  5644 net.cpp:406] norm2 <- conv2
I0406 07:07:57.636301  5644 net.cpp:380] norm2 -> norm2
I0406 07:07:57.636807  5644 net.cpp:122] Setting up norm2
I0406 07:07:57.636816  5644 net.cpp:129] Top shape: 32 256 27 27 (5971968)
I0406 07:07:57.636818  5644 net.cpp:137] Memory required for data: 211922688
I0406 07:07:57.636821  5644 layer_factory.hpp:77] Creating layer pool2
I0406 07:07:57.636826  5644 net.cpp:84] Creating Layer pool2
I0406 07:07:57.636829  5644 net.cpp:406] pool2 <- norm2
I0406 07:07:57.636834  5644 net.cpp:380] pool2 -> pool2
I0406 07:07:57.636862  5644 net.cpp:122] Setting up pool2
I0406 07:07:57.636865  5644 net.cpp:129] Top shape: 32 256 13 13 (1384448)
I0406 07:07:57.636868  5644 net.cpp:137] Memory required for data: 217460480
I0406 07:07:57.636869  5644 layer_factory.hpp:77] Creating layer conv3
I0406 07:07:57.636879  5644 net.cpp:84] Creating Layer conv3
I0406 07:07:57.636893  5644 net.cpp:406] conv3 <- pool2
I0406 07:07:57.636898  5644 net.cpp:380] conv3 -> conv3
I0406 07:07:57.647217  5644 net.cpp:122] Setting up conv3
I0406 07:07:57.647236  5644 net.cpp:129] Top shape: 32 384 13 13 (2076672)
I0406 07:07:57.647238  5644 net.cpp:137] Memory required for data: 225767168
I0406 07:07:57.647250  5644 layer_factory.hpp:77] Creating layer relu3
I0406 07:07:57.647259  5644 net.cpp:84] Creating Layer relu3
I0406 07:07:57.647264  5644 net.cpp:406] relu3 <- conv3
I0406 07:07:57.647269  5644 net.cpp:367] relu3 -> conv3 (in-place)
I0406 07:07:57.647753  5644 net.cpp:122] Setting up relu3
I0406 07:07:57.647763  5644 net.cpp:129] Top shape: 32 384 13 13 (2076672)
I0406 07:07:57.647764  5644 net.cpp:137] Memory required for data: 234073856
I0406 07:07:57.647768  5644 layer_factory.hpp:77] Creating layer conv4
I0406 07:07:57.647778  5644 net.cpp:84] Creating Layer conv4
I0406 07:07:57.647780  5644 net.cpp:406] conv4 <- conv3
I0406 07:07:57.647785  5644 net.cpp:380] conv4 -> conv4
I0406 07:07:57.657133  5644 net.cpp:122] Setting up conv4
I0406 07:07:57.657151  5644 net.cpp:129] Top shape: 32 384 13 13 (2076672)
I0406 07:07:57.657153  5644 net.cpp:137] Memory required for data: 242380544
I0406 07:07:57.657162  5644 layer_factory.hpp:77] Creating layer relu4
I0406 07:07:57.657171  5644 net.cpp:84] Creating Layer relu4
I0406 07:07:57.657174  5644 net.cpp:406] relu4 <- conv4
I0406 07:07:57.657181  5644 net.cpp:367] relu4 -> conv4 (in-place)
I0406 07:07:57.657502  5644 net.cpp:122] Setting up relu4
I0406 07:07:57.657510  5644 net.cpp:129] Top shape: 32 384 13 13 (2076672)
I0406 07:07:57.657512  5644 net.cpp:137] Memory required for data: 250687232
I0406 07:07:57.657516  5644 layer_factory.hpp:77] Creating layer conv5
I0406 07:07:57.657526  5644 net.cpp:84] Creating Layer conv5
I0406 07:07:57.657527  5644 net.cpp:406] conv5 <- conv4
I0406 07:07:57.657532  5644 net.cpp:380] conv5 -> conv5
I0406 07:07:57.677639  5644 net.cpp:122] Setting up conv5
I0406 07:07:57.677662  5644 net.cpp:129] Top shape: 32 256 13 13 (1384448)
I0406 07:07:57.677665  5644 net.cpp:137] Memory required for data: 256225024
I0406 07:07:57.677683  5644 layer_factory.hpp:77] Creating layer relu5
I0406 07:07:57.677695  5644 net.cpp:84] Creating Layer relu5
I0406 07:07:57.677700  5644 net.cpp:406] relu5 <- conv5
I0406 07:07:57.677733  5644 net.cpp:367] relu5 -> conv5 (in-place)
I0406 07:07:57.679769  5644 net.cpp:122] Setting up relu5
I0406 07:07:57.679783  5644 net.cpp:129] Top shape: 32 256 13 13 (1384448)
I0406 07:07:57.679786  5644 net.cpp:137] Memory required for data: 261762816
I0406 07:07:57.679790  5644 layer_factory.hpp:77] Creating layer pool5
I0406 07:07:57.679805  5644 net.cpp:84] Creating Layer pool5
I0406 07:07:57.679809  5644 net.cpp:406] pool5 <- conv5
I0406 07:07:57.679816  5644 net.cpp:380] pool5 -> pool5
I0406 07:07:57.679873  5644 net.cpp:122] Setting up pool5
I0406 07:07:57.679881  5644 net.cpp:129] Top shape: 32 256 6 6 (294912)
I0406 07:07:57.679884  5644 net.cpp:137] Memory required for data: 262942464
I0406 07:07:57.679888  5644 layer_factory.hpp:77] Creating layer fc6
I0406 07:07:57.679898  5644 net.cpp:84] Creating Layer fc6
I0406 07:07:57.679901  5644 net.cpp:406] fc6 <- pool5
I0406 07:07:57.679906  5644 net.cpp:380] fc6 -> fc6
I0406 07:07:58.017792  5644 net.cpp:122] Setting up fc6
I0406 07:07:58.017813  5644 net.cpp:129] Top shape: 32 4096 (131072)
I0406 07:07:58.017817  5644 net.cpp:137] Memory required for data: 263466752
I0406 07:07:58.017825  5644 layer_factory.hpp:77] Creating layer relu6
I0406 07:07:58.017833  5644 net.cpp:84] Creating Layer relu6
I0406 07:07:58.017838  5644 net.cpp:406] relu6 <- fc6
I0406 07:07:58.017843  5644 net.cpp:367] relu6 -> fc6 (in-place)
I0406 07:07:58.018532  5644 net.cpp:122] Setting up relu6
I0406 07:07:58.018541  5644 net.cpp:129] Top shape: 32 4096 (131072)
I0406 07:07:58.018543  5644 net.cpp:137] Memory required for data: 263991040
I0406 07:07:58.018546  5644 layer_factory.hpp:77] Creating layer drop6
I0406 07:07:58.018551  5644 net.cpp:84] Creating Layer drop6
I0406 07:07:58.018554  5644 net.cpp:406] drop6 <- fc6
I0406 07:07:58.018559  5644 net.cpp:367] drop6 -> fc6 (in-place)
I0406 07:07:58.018582  5644 net.cpp:122] Setting up drop6
I0406 07:07:58.018586  5644 net.cpp:129] Top shape: 32 4096 (131072)
I0406 07:07:58.018589  5644 net.cpp:137] Memory required for data: 264515328
I0406 07:07:58.018590  5644 layer_factory.hpp:77] Creating layer fc7
I0406 07:07:58.018596  5644 net.cpp:84] Creating Layer fc7
I0406 07:07:58.018599  5644 net.cpp:406] fc7 <- fc6
I0406 07:07:58.018602  5644 net.cpp:380] fc7 -> fc7
I0406 07:07:58.175339  5644 net.cpp:122] Setting up fc7
I0406 07:07:58.175360  5644 net.cpp:129] Top shape: 32 4096 (131072)
I0406 07:07:58.175364  5644 net.cpp:137] Memory required for data: 265039616
I0406 07:07:58.175371  5644 layer_factory.hpp:77] Creating layer relu7
I0406 07:07:58.175379  5644 net.cpp:84] Creating Layer relu7
I0406 07:07:58.175382  5644 net.cpp:406] relu7 <- fc7
I0406 07:07:58.175388  5644 net.cpp:367] relu7 -> fc7 (in-place)
I0406 07:07:58.175771  5644 net.cpp:122] Setting up relu7
I0406 07:07:58.175778  5644 net.cpp:129] Top shape: 32 4096 (131072)
I0406 07:07:58.175781  5644 net.cpp:137] Memory required for data: 265563904
I0406 07:07:58.175783  5644 layer_factory.hpp:77] Creating layer drop7
I0406 07:07:58.175789  5644 net.cpp:84] Creating Layer drop7
I0406 07:07:58.175791  5644 net.cpp:406] drop7 <- fc7
I0406 07:07:58.175796  5644 net.cpp:367] drop7 -> fc7 (in-place)
I0406 07:07:58.175817  5644 net.cpp:122] Setting up drop7
I0406 07:07:58.175820  5644 net.cpp:129] Top shape: 32 4096 (131072)
I0406 07:07:58.175822  5644 net.cpp:137] Memory required for data: 266088192
I0406 07:07:58.175824  5644 layer_factory.hpp:77] Creating layer fc8
I0406 07:07:58.175829  5644 net.cpp:84] Creating Layer fc8
I0406 07:07:58.175832  5644 net.cpp:406] fc8 <- fc7
I0406 07:07:58.175837  5644 net.cpp:380] fc8 -> fc8
I0406 07:07:58.183147  5644 net.cpp:122] Setting up fc8
I0406 07:07:58.183162  5644 net.cpp:129] Top shape: 32 196 (6272)
I0406 07:07:58.183164  5644 net.cpp:137] Memory required for data: 266113280
I0406 07:07:58.183171  5644 layer_factory.hpp:77] Creating layer fc8_fc8_0_split
I0406 07:07:58.183177  5644 net.cpp:84] Creating Layer fc8_fc8_0_split
I0406 07:07:58.183182  5644 net.cpp:406] fc8_fc8_0_split <- fc8
I0406 07:07:58.183207  5644 net.cpp:380] fc8_fc8_0_split -> fc8_fc8_0_split_0
I0406 07:07:58.183213  5644 net.cpp:380] fc8_fc8_0_split -> fc8_fc8_0_split_1
I0406 07:07:58.183245  5644 net.cpp:122] Setting up fc8_fc8_0_split
I0406 07:07:58.183248  5644 net.cpp:129] Top shape: 32 196 (6272)
I0406 07:07:58.183251  5644 net.cpp:129] Top shape: 32 196 (6272)
I0406 07:07:58.183254  5644 net.cpp:137] Memory required for data: 266163456
I0406 07:07:58.183255  5644 layer_factory.hpp:77] Creating layer accuracy
I0406 07:07:58.183261  5644 net.cpp:84] Creating Layer accuracy
I0406 07:07:58.183264  5644 net.cpp:406] accuracy <- fc8_fc8_0_split_0
I0406 07:07:58.183267  5644 net.cpp:406] accuracy <- label_val-data_1_split_0
I0406 07:07:58.183271  5644 net.cpp:380] accuracy -> accuracy
…
