…
I0425 09:43:01.581457 22893 net.cpp:294] The NetState phase (0) differed from the phase (1) specified by a rule in layer accuracy
I0425 09:43:01.581598 22893 net.cpp:51] Initializing net from parameters:
state {
phase: TRAIN
level: 0
stage: ""
}
layer {
name: "train-data"
type: "Data"
top: "data"
top: "label"
include {
phase: TRAIN
}
transform_param {
mirror: true
crop_size: 227
mean_file: "/mnt/bigdisk/DIGITS-MAN-3/digits/jobs/20210421-230320-902c/mean.binaryproto"
}
data_param {
source: "/mnt/bigdisk/DIGITS-MAN-3/digits/jobs/20210421-230320-902c/train_db"
batch_size: 128
backend: LMDB
}
}
layer {
name: "conv1"
type: "Convolution"
bottom: "data"
top: "conv1"
param {
lr_mult: 1
decay_mult: 1
}
param {
lr_mult: 2
decay_mult: 0
}
convolution_param {
num_output: 96
kernel_size: 11
stride: 4
weight_filler {
type: "gaussian"
std: 0.01
}
bias_filler {
type: "constant"
value: 0
}
}
}
layer {
name: "relu1"
type: "ReLU"
bottom: "conv1"
top: "conv1"
}
layer {
name: "norm1"
type: "LRN"
bottom: "conv1"
top: "norm1"
lrn_param {
local_size: 5
alpha: 0.0001
beta: 0.75
}
}
layer {
name: "pool1"
type: "Pooling"
bottom: "norm1"
top: "pool1"
pooling_param {
pool: MAX
kernel_size: 3
stride: 2
}
}
layer {
name: "conv2"
type: "Convolution"
bottom: "pool1"
top: "conv2"
param {
lr_mult: 1
decay_mult: 1
}
param {
lr_mult: 2
decay_mult: 0
}
convolution_param {
num_output: 256
pad: 2
kernel_size: 5
group: 2
weight_filler {
type: "gaussian"
std: 0.01
}
bias_filler {
type: "constant"
value: 0.1
}
}
}
layer {
name: "relu2"
type: "ReLU"
bottom: "conv2"
top: "conv2"
}
layer {
name: "norm2"
type: "LRN"
bottom: "conv2"
top: "norm2"
lrn_param {
local_size: 5
alpha: 0.0001
beta: 0.75
}
}
layer {
name: "pool2"
type: "Pooling"
bottom: "norm2"
top: "pool2"
pooling_param {
pool: MAX
kernel_size: 3
stride: 2
}
}
layer {
name: "conv3"
type: "Convolution"
bottom: "pool2"
top: "conv3"
param {
lr_mult: 1
decay_mult: 1
}
param {
lr_mult: 2
decay_mult: 0
}
convolution_param {
num_output: 384
pad: 1
kernel_size: 7
weight_filler {
type: "gaussian"
std: 0.01
}
bias_filler {
type: "constant"
value: 0
}
}
}
layer {
name: "relu3"
type: "ReLU"
bottom: "conv3"
top: "conv3"
}
layer {
name: "conv4"
type: "Convolution"
bottom: "conv3"
top: "conv4"
param {
lr_mult: 1
decay_mult: 1
}
param {
lr_mult: 2
decay_mult: 0
}
convolution_param {
num_output: 384
pad: 1
kernel_size: 3
group: 2
weight_filler {
type: "gaussian"
std: 0.01
}
bias_filler {
type: "constant"
value: 0.1
}
}
}
layer {
name: "relu4"
type: "ReLU"
bottom: "conv4"
top: "conv4"
}
layer {
name: "conv5"
type: "Convolution"
bottom: "conv4"
top: "conv5"
param {
lr_mult: 1
decay_mult: 1
}
param {
lr_mult: 2
decay_mult: 0
}
convolution_param {
num_output: 256
pad: 1
kernel_size: 3
group: 2
weight_filler {
type: "gaussian"
std: 0.01
}
bias_filler {
type: "constant"
value: 0.1
}
}
}
layer {
name: "relu5"
type: "ReLU"
bottom: "conv5"
top: "conv5"
}
layer {
name: "pool5"
type: "Pooling"
bottom: "conv5"
top: "pool5"
pooling_param {
pool: MAX
kernel_size: 3
stride: 2
}
}
layer {
name: "fc6"
type: "InnerProduct"
bottom: "pool5"
top: "fc6"
param {
lr_mult: 1
decay_mult: 1
}
param {
lr_mult: 2
decay_mult: 0
}
inner_product_param {
num_output: 4096
weight_filler {
type: "gaussian"
std: 0.005
}
bias_filler {
type: "constant"
value: 0.1
}
}
}
layer {
name: "relu6"
type: "ReLU"
bottom: "fc6"
top: "fc6"
}
layer {
name: "drop6"
type: "Dropout"
bottom: "fc6"
top: "fc6"
dropout_param {
dropout_ratio: 0.5
}
}
layer {
name: "fc7"
type: "InnerProduct"
bottom: "fc6"
top: "fc7"
param {
lr_mult: 1
decay_mult: 1
}
param {
lr_mult: 2
decay_mult: 0
}
inner_product_param {
num_output: 4096
weight_filler {
type: "gaussian"
std: 0.005
}
bias_filler {
type: "constant"
value: 0.1
}
}
}
layer {
name: "relu7"
type: "ReLU"
bottom: "fc7"
top: "fc7"
}
layer {
name: "drop7"
type: "Dropout"
bottom: "fc7"
top: "fc7"
dropout_param {
dropout_ratio: 0.5
}
}
layer {
name: "fc8"
type: "InnerProduct"
bottom: "fc7"
top: "fc8"
param {
lr_mult: 1
decay_mult: 1
}
param {
lr_mult: 2
decay_mult: 0
}
inner_product_param {
num_output: 196
weight_filler {
type: "gaussian"
std: 0.01
}
bias_filler {
type: "constant"
value: 0
}
}
}
layer {
name: "loss"
type: "SoftmaxWithLoss"
bottom: "fc8"
bottom: "label"
top: "loss"
}
I0425 09:43:01.581687 22893 layer_factory.hpp:77] Creating layer train-data
I0425 09:43:01.583712 22893 db_lmdb.cpp:35] Opened lmdb /mnt/bigdisk/DIGITS-MAN-3/digits/jobs/20210421-230320-902c/train_db
I0425 09:43:01.583881 22893 net.cpp:84] Creating Layer train-data
I0425 09:43:01.583891 22893 net.cpp:380] train-data -> data
I0425 09:43:01.583911 22893 net.cpp:380] train-data -> label
I0425 09:43:01.583923 22893 data_transformer.cpp:25] Loading mean file from: /mnt/bigdisk/DIGITS-MAN-3/digits/jobs/20210421-230320-902c/mean.binaryproto
I0425 09:43:01.590441 22893 data_layer.cpp:45] output data size: 128,3,227,227
I0425 09:43:01.719380 22893 net.cpp:122] Setting up train-data
I0425 09:43:01.719401 22893 net.cpp:129] Top shape: 128 3 227 227 (19787136)
I0425 09:43:01.719406 22893 net.cpp:129] Top shape: 128 (128)
I0425 09:43:01.719411 22893 net.cpp:137] Memory required for data: 79149056
I0425 09:43:01.719419 22893 layer_factory.hpp:77] Creating layer conv1
I0425 09:43:01.719441 22893 net.cpp:84] Creating Layer conv1
I0425 09:43:01.719447 22893 net.cpp:406] conv1 <- data
I0425 09:43:01.719460 22893 net.cpp:380] conv1 -> conv1
I0425 09:43:02.461982 22893 net.cpp:122] Setting up conv1
I0425 09:43:02.462005 22893 net.cpp:129] Top shape: 128 96 55 55 (37171200)
I0425 09:43:02.462009 22893 net.cpp:137] Memory required for data: 227833856
I0425 09:43:02.462029 22893 layer_factory.hpp:77] Creating layer relu1
I0425 09:43:02.462040 22893 net.cpp:84] Creating Layer relu1
I0425 09:43:02.462044 22893 net.cpp:406] relu1 <- conv1
I0425 09:43:02.462050 22893 net.cpp:367] relu1 -> conv1 (in-place)
I0425 09:43:02.462333 22893 net.cpp:122] Setting up relu1
I0425 09:43:02.462342 22893 net.cpp:129] Top shape: 128 96 55 55 (37171200)
I0425 09:43:02.462345 22893 net.cpp:137] Memory required for data: 376518656
I0425 09:43:02.462349 22893 layer_factory.hpp:77] Creating layer norm1
I0425 09:43:02.462358 22893 net.cpp:84] Creating Layer norm1
I0425 09:43:02.462363 22893 net.cpp:406] norm1 <- conv1
I0425 09:43:02.462390 22893 net.cpp:380] norm1 -> norm1
I0425 09:43:02.462833 22893 net.cpp:122] Setting up norm1
I0425 09:43:02.462843 22893 net.cpp:129] Top shape: 128 96 55 55 (37171200)
I0425 09:43:02.462847 22893 net.cpp:137] Memory required for data: 525203456
I0425 09:43:02.462852 22893 layer_factory.hpp:77] Creating layer pool1
I0425 09:43:02.462859 22893 net.cpp:84] Creating Layer pool1
I0425 09:43:02.462863 22893 net.cpp:406] pool1 <- norm1
I0425 09:43:02.462868 22893 net.cpp:380] pool1 -> pool1
I0425 09:43:02.462904 22893 net.cpp:122] Setting up pool1
I0425 09:43:02.462910 22893 net.cpp:129] Top shape: 128 96 27 27 (8957952)
I0425 09:43:02.462914 22893 net.cpp:137] Memory required for data: 561035264
I0425 09:43:02.462918 22893 layer_factory.hpp:77] Creating layer conv2
I0425 09:43:02.462927 22893 net.cpp:84] Creating Layer conv2
I0425 09:43:02.462931 22893 net.cpp:406] conv2 <- pool1
I0425 09:43:02.462936 22893 net.cpp:380] conv2 -> conv2
I0425 09:43:02.471165 22893 net.cpp:122] Setting up conv2
I0425 09:43:02.471182 22893 net.cpp:129] Top shape: 128 256 27 27 (23887872)
I0425 09:43:02.471186 22893 net.cpp:137] Memory required for data: 656586752
I0425 09:43:02.471196 22893 layer_factory.hpp:77] Creating layer relu2
I0425 09:43:02.471204 22893 net.cpp:84] Creating Layer relu2
I0425 09:43:02.471208 22893 net.cpp:406] relu2 <- conv2
I0425 09:43:02.471215 22893 net.cpp:367] relu2 -> conv2 (in-place)
I0425 09:43:02.471639 22893 net.cpp:122] Setting up relu2
I0425 09:43:02.471648 22893 net.cpp:129] Top shape: 128 256 27 27 (23887872)
I0425 09:43:02.471653 22893 net.cpp:137] Memory required for data: 752138240
I0425 09:43:02.471657 22893 layer_factory.hpp:77] Creating layer norm2
I0425 09:43:02.471664 22893 net.cpp:84] Creating Layer norm2
I0425 09:43:02.471668 22893 net.cpp:406] norm2 <- conv2
I0425 09:43:02.471675 22893 net.cpp:380] norm2 -> norm2
I0425 09:43:02.471963 22893 net.cpp:122] Setting up norm2
I0425 09:43:02.471972 22893 net.cpp:129] Top shape: 128 256 27 27 (23887872)
I0425 09:43:02.471976 22893 net.cpp:137] Memory required for data: 847689728
I0425 09:43:02.471980 22893 layer_factory.hpp:77] Creating layer pool2
I0425 09:43:02.471989 22893 net.cpp:84] Creating Layer pool2
I0425 09:43:02.471993 22893 net.cpp:406] pool2 <- norm2
I0425 09:43:02.471998 22893 net.cpp:380] pool2 -> pool2
I0425 09:43:02.472026 22893 net.cpp:122] Setting up pool2
I0425 09:43:02.472031 22893 net.cpp:129] Top shape: 128 256 13 13 (5537792)
I0425 09:43:02.472034 22893 net.cpp:137] Memory required for data: 869840896
I0425 09:43:02.472038 22893 layer_factory.hpp:77] Creating layer conv3
I0425 09:43:02.472048 22893 net.cpp:84] Creating Layer conv3
I0425 09:43:02.472052 22893 net.cpp:406] conv3 <- pool2
I0425 09:43:02.472057 22893 net.cpp:380] conv3 -> conv3
I0425 09:43:02.524732 22893 net.cpp:122] Setting up conv3
I0425 09:43:02.524751 22893 net.cpp:129] Top shape: 128 384 9 9 (3981312)
I0425 09:43:02.524755 22893 net.cpp:137] Memory required for data: 885766144
I0425 09:43:02.524767 22893 layer_factory.hpp:77] Creating layer relu3
I0425 09:43:02.524777 22893 net.cpp:84] Creating Layer relu3
I0425 09:43:02.524782 22893 net.cpp:406] relu3 <- conv3
I0425 09:43:02.524789 22893 net.cpp:367] relu3 -> conv3 (in-place)
I0425 09:43:02.525591 22893 net.cpp:122] Setting up relu3
I0425 09:43:02.525601 22893 net.cpp:129] Top shape: 128 384 9 9 (3981312)
I0425 09:43:02.525605 22893 net.cpp:137] Memory required for data: 901691392
I0425 09:43:02.525609 22893 layer_factory.hpp:77] Creating layer conv4
I0425 09:43:02.525619 22893 net.cpp:84] Creating Layer conv4
I0425 09:43:02.525624 22893 net.cpp:406] conv4 <- conv3
I0425 09:43:02.525630 22893 net.cpp:380] conv4 -> conv4
I0425 09:43:02.545804 22893 net.cpp:122] Setting up conv4
I0425 09:43:02.545823 22893 net.cpp:129] Top shape: 128 384 9 9 (3981312)
I0425 09:43:02.545827 22893 net.cpp:137] Memory required for data: 917616640
I0425 09:43:02.545837 22893 layer_factory.hpp:77] Creating layer relu4
I0425 09:43:02.545847 22893 net.cpp:84] Creating Layer relu4
I0425 09:43:02.545869 22893 net.cpp:406] relu4 <- conv4
I0425 09:43:02.545876 22893 net.cpp:367] relu4 -> conv4 (in-place)
I0425 09:43:02.546224 22893 net.cpp:122] Setting up relu4
I0425 09:43:02.546232 22893 net.cpp:129] Top shape: 128 384 9 9 (3981312)
I0425 09:43:02.546236 22893 net.cpp:137] Memory required for data: 933541888
I0425 09:43:02.546241 22893 layer_factory.hpp:77] Creating layer conv5
I0425 09:43:02.546252 22893 net.cpp:84] Creating Layer conv5
I0425 09:43:02.546255 22893 net.cpp:406] conv5 <- conv4
I0425 09:43:02.546262 22893 net.cpp:380] conv5 -> conv5
I0425 09:43:02.554792 22893 net.cpp:122] Setting up conv5
I0425 09:43:02.554811 22893 net.cpp:129] Top shape: 128 256 9 9 (2654208)
I0425 09:43:02.554814 22893 net.cpp:137] Memory required for data: 944158720
I0425 09:43:02.554827 22893 layer_factory.hpp:77] Creating layer relu5
I0425 09:43:02.554836 22893 net.cpp:84] Creating Layer relu5
I0425 09:43:02.554839 22893 net.cpp:406] relu5 <- conv5
I0425 09:43:02.554847 22893 net.cpp:367] relu5 -> conv5 (in-place)
I0425 09:43:02.555341 22893 net.cpp:122] Setting up relu5
I0425 09:43:02.555351 22893 net.cpp:129] Top shape: 128 256 9 9 (2654208)
I0425 09:43:02.555354 22893 net.cpp:137] Memory required for data: 954775552
I0425 09:43:02.555358 22893 layer_factory.hpp:77] Creating layer pool5
I0425 09:43:02.555366 22893 net.cpp:84] Creating Layer pool5
I0425 09:43:02.555369 22893 net.cpp:406] pool5 <- conv5
I0425 09:43:02.555375 22893 net.cpp:380] pool5 -> pool5
I0425 09:43:02.555413 22893 net.cpp:122] Setting up pool5
I0425 09:43:02.555418 22893 net.cpp:129] Top shape: 128 256 4 4 (524288)
I0425 09:43:02.555421 22893 net.cpp:137] Memory required for data: 956872704
I0425 09:43:02.555424 22893 layer_factory.hpp:77] Creating layer fc6
I0425 09:43:02.555435 22893 net.cpp:84] Creating Layer fc6
I0425 09:43:02.555439 22893 net.cpp:406] fc6 <- pool5
I0425 09:43:02.555444 22893 net.cpp:380] fc6 -> fc6
I0425 09:43:02.714675 22893 net.cpp:122] Setting up fc6
I0425 09:43:02.714696 22893 net.cpp:129] Top shape: 128 4096 (524288)
I0425 09:43:02.714700 22893 net.cpp:137] Memory required for data: 958969856
I0425 09:43:02.714709 22893 layer_factory.hpp:77] Creating layer relu6
I0425 09:43:02.714720 22893 net.cpp:84] Creating Layer relu6
I0425 09:43:02.714725 22893 net.cpp:406] relu6 <- fc6
I0425 09:43:02.714731 22893 net.cpp:367] relu6 -> fc6 (in-place)
I0425 09:43:02.719910 22893 net.cpp:122] Setting up relu6
I0425 09:43:02.719921 22893 net.cpp:129] Top shape: 128 4096 (524288)
I0425 09:43:02.719924 22893 net.cpp:137] Memory required for data: 961067008
I0425 09:43:02.719928 22893 layer_factory.hpp:77] Creating layer drop6
I0425 09:43:02.719935 22893 net.cpp:84] Creating Layer drop6
I0425 09:43:02.719939 22893 net.cpp:406] drop6 <- fc6
I0425 09:43:02.719946 22893 net.cpp:367] drop6 -> fc6 (in-place)
I0425 09:43:02.719974 22893 net.cpp:122] Setting up drop6
I0425 09:43:02.719980 22893 net.cpp:129] Top shape: 128 4096 (524288)
I0425 09:43:02.719983 22893 net.cpp:137] Memory required for data: 963164160
I0425 09:43:02.719987 22893 layer_factory.hpp:77] Creating layer fc7
I0425 09:43:02.719997 22893 net.cpp:84] Creating Layer fc7
I0425 09:43:02.720002 22893 net.cpp:406] fc7 <- fc6
I0425 09:43:02.720013 22893 net.cpp:380] fc7 -> fc7
I0425 09:43:02.881644 22893 net.cpp:122] Setting up fc7
I0425 09:43:02.881665 22893 net.cpp:129] Top shape: 128 4096 (524288)
I0425 09:43:02.881669 22893 net.cpp:137] Memory required for data: 965261312
I0425 09:43:02.881678 22893 layer_factory.hpp:77] Creating layer relu7
I0425 09:43:02.881688 22893 net.cpp:84] Creating Layer relu7
I0425 09:43:02.881692 22893 net.cpp:406] relu7 <- fc7
I0425 09:43:02.881700 22893 net.cpp:367] relu7 -> fc7 (in-place)
I0425 09:43:02.889334 22893 net.cpp:122] Setting up relu7
I0425 09:43:02.889348 22893 net.cpp:129] Top shape: 128 4096 (524288)
I0425 09:43:02.889353 22893 net.cpp:137] Memory required for data: 967358464
I0425 09:43:02.889358 22893 layer_factory.hpp:77] Creating layer drop7
I0425 09:43:02.889366 22893 net.cpp:84] Creating Layer drop7
I0425 09:43:02.889370 22893 net.cpp:406] drop7 <- fc7
I0425 09:43:02.889398 22893 net.cpp:367] drop7 -> fc7 (in-place)
I0425 09:43:02.889428 22893 net.cpp:122] Setting up drop7
I0425 09:43:02.889433 22893 net.cpp:129] Top shape: 128 4096 (524288)
I0425 09:43:02.889436 22893 net.cpp:137] Memory required for data: 969455616
I0425 09:43:02.889441 22893 layer_factory.hpp:77] Creating layer fc8
I0425 09:43:02.889451 22893 net.cpp:84] Creating Layer fc8
I0425 09:43:02.889454 22893 net.cpp:406] fc8 <- fc7
I0425 09:43:02.889461 22893 net.cpp:380] fc8 -> fc8
I0425 09:43:02.897259 22893 net.cpp:122] Setting up fc8
I0425 09:43:02.897271 22893 net.cpp:129] Top shape: 128 196 (25088)
I0425 09:43:02.897274 22893 net.cpp:137] Memory required for data: 969555968
I0425 09:43:02.897281 22893 layer_factory.hpp:77] Creating layer loss
I0425 09:43:02.897289 22893 net.cpp:84] Creating Layer loss
I0425 09:43:02.897294 22893 net.cpp:406] loss <- fc8
I0425 09:43:02.897297 22893 net.cpp:406] loss <- label
I0425 09:43:02.897305 22893 net.cpp:380] loss -> loss
I0425 09:43:02.897315 22893 layer_factory.hpp:77] Creating layer loss
…
I0425 09:43:02.907239 22893 net.cpp:294] The NetState phase (1) differed from the phase (0) specified by a rule in layer train-data
I0425 09:43:02.907385 22893 net.cpp:51] Initializing net from parameters:
state {
phase: TEST
}
layer {
name: "val-data"
type: "Data"
top: "data"
top: "label"
include {
phase: TEST
}
transform_param {
crop_size: 227
mean_file: "/mnt/bigdisk/DIGITS-MAN-3/digits/jobs/20210421-230320-902c/mean.binaryproto"
}
data_param {
source: "/mnt/bigdisk/DIGITS-MAN-3/digits/jobs/20210421-230320-902c/val_db"
batch_size: 32
backend: LMDB
}
}
layer {
name: "conv1"
type: "Convolution"
bottom: "data"
top: "conv1"
param {
lr_mult: 1
decay_mult: 1
}
param {
lr_mult: 2
decay_mult: 0
}
convolution_param {
num_output: 96
kernel_size: 11
stride: 4
weight_filler {
type: "gaussian"
std: 0.01
}
bias_filler {
type: "constant"
value: 0
}
}
}
layer {
name: "relu1"
type: "ReLU"
bottom: "conv1"
top: "conv1"
}
layer {
name: "norm1"
type: "LRN"
bottom: "conv1"
top: "norm1"
lrn_param {
local_size: 5
alpha: 0.0001
beta: 0.75
}
}
layer {
name: "pool1"
type: "Pooling"
bottom: "norm1"
top: "pool1"
pooling_param {
pool: MAX
kernel_size: 3
stride: 2
}
}
layer {
name: "conv2"
type: "Convolution"
bottom: "pool1"
top: "conv2"
param {
lr_mult: 1
decay_mult: 1
}
param {
lr_mult: 2
decay_mult: 0
}
convolution_param {
num_output: 256
pad: 2
kernel_size: 5
group: 2
weight_filler {
type: "gaussian"
std: 0.01
}
bias_filler {
type: "constant"
value: 0.1
}
}
}
layer {
name: "relu2"
type: "ReLU"
bottom: "conv2"
top: "conv2"
}
layer {
name: "norm2"
type: "LRN"
bottom: "conv2"
top: "norm2"
lrn_param {
local_size: 5
alpha: 0.0001
beta: 0.75
}
}
layer {
name: "pool2"
type: "Pooling"
bottom: "norm2"
top: "pool2"
pooling_param {
pool: MAX
kernel_size: 3
stride: 2
}
}
layer {
name: "conv3"
type: "Convolution"
bottom: "pool2"
top: "conv3"
param {
lr_mult: 1
decay_mult: 1
}
param {
lr_mult: 2
decay_mult: 0
}
convolution_param {
num_output: 384
pad: 1
kernel_size: 7
weight_filler {
type: "gaussian"
std: 0.01
}
bias_filler {
type: "constant"
value: 0
}
}
}
layer {
name: "relu3"
type: "ReLU"
bottom: "conv3"
top: "conv3"
}
layer {
name: "conv4"
type: "Convolution"
bottom: "conv3"
top: "conv4"
param {
lr_mult: 1
decay_mult: 1
}
param {
lr_mult: 2
decay_mult: 0
}
convolution_param {
num_output: 384
pad: 1
kernel_size: 3
group: 2
weight_filler {
type: "gaussian"
std: 0.01
}
bias_filler {
type: "constant"
value: 0.1
}
}
}
layer {
name: "relu4"
type: "ReLU"
bottom: "conv4"
top: "conv4"
}
layer {
name: "conv5"
type: "Convolution"
bottom: "conv4"
top: "conv5"
param {
lr_mult: 1
decay_mult: 1
}
param {
lr_mult: 2
decay_mult: 0
}
convolution_param {
num_output: 256
pad: 1
kernel_size: 3
group: 2
weight_filler {
type: "gaussian"
std: 0.01
}
bias_filler {
type: "constant"
value: 0.1
}
}
}
layer {
name: "relu5"
type: "ReLU"
bottom: "conv5"
top: "conv5"
}
layer {
name: "pool5"
type: "Pooling"
bottom: "conv5"
top: "pool5"
pooling_param {
pool: MAX
kernel_size: 3
stride: 2
}
}
layer {
name: "fc6"
type: "InnerProduct"
bottom: "pool5"
top: "fc6"
param {
lr_mult: 1
decay_mult: 1
}
param {
lr_mult: 2
decay_mult: 0
}
inner_product_param {
num_output: 4096
weight_filler {
type: "gaussian"
std: 0.005
}
bias_filler {
type: "constant"
value: 0.1
}
}
}
layer {
name: "relu6"
type: "ReLU"
bottom: "fc6"
top: "fc6"
}
layer {
name: "drop6"
type: "Dropout"
bottom: "fc6"
top: "fc6"
dropout_param {
dropout_ratio: 0.5
}
}
layer {
name: "fc7"
type: "InnerProduct"
bottom: "fc6"
top: "fc7"
param {
lr_mult: 1
decay_mult: 1
}
param {
lr_mult: 2
decay_mult: 0
}
inner_product_param {
num_output: 4096
weight_filler {
type: "gaussian"
std: 0.005
}
bias_filler {
type: "constant"
value: 0.1
}
}
}
layer {
name: "relu7"
type: "ReLU"
bottom: "fc7"
top: "fc7"
}
layer {
name: "drop7"
type: "Dropout"
bottom: "fc7"
top: "fc7"
dropout_param {
dropout_ratio: 0.5
}
}
layer {
name: "fc8"
type: "InnerProduct"
bottom: "fc7"
top: "fc8"
param {
lr_mult: 1
decay_mult: 1
}
param {
lr_mult: 2
decay_mult: 0
}
inner_product_param {
num_output: 196
weight_filler {
type: "gaussian"
std: 0.01
}
bias_filler {
type: "constant"
value: 0
}
}
}
layer {
name: "accuracy"
type: "Accuracy"
bottom: "fc8"
bottom: "label"
top: "accuracy"
include {
phase: TEST
}
}
layer {
name: "loss"
type: "SoftmaxWithLoss"
bottom: "fc8"
bottom: "label"
top: "loss"
}
I0425 09:43:02.907485 22893 layer_factory.hpp:77] Creating layer val-data
I0425 09:43:02.909267 22893 db_lmdb.cpp:35] Opened lmdb /mnt/bigdisk/DIGITS-MAN-3/digits/jobs/20210421-230320-902c/val_db
I0425 09:43:02.909435 22893 net.cpp:84] Creating Layer val-data
I0425 09:43:02.909446 22893 net.cpp:380] val-data -> data
I0425 09:43:02.909453 22893 net.cpp:380] val-data -> label
I0425 09:43:02.909462 22893 data_transformer.cpp:25] Loading mean file from: /mnt/bigdisk/DIGITS-MAN-3/digits/jobs/20210421-230320-902c/mean.binaryproto
I0425 09:43:02.912892 22893 data_layer.cpp:45] output data size: 32,3,227,227
I0425 09:43:02.946555 22893 net.cpp:122] Setting up val-data
I0425 09:43:02.946575 22893 net.cpp:129] Top shape: 32 3 227 227 (4946784)
I0425 09:43:02.946580 22893 net.cpp:129] Top shape: 32 (32)
I0425 09:43:02.946583 22893 net.cpp:137] Memory required for data: 19787264
I0425 09:43:02.946589 22893 layer_factory.hpp:77] Creating layer label_val-data_1_split
I0425 09:43:02.946601 22893 net.cpp:84] Creating Layer label_val-data_1_split
I0425 09:43:02.946606 22893 net.cpp:406] label_val-data_1_split <- label
I0425 09:43:02.946614 22893 net.cpp:380] label_val-data_1_split -> label_val-data_1_split_0
I0425 09:43:02.946622 22893 net.cpp:380] label_val-data_1_split -> label_val-data_1_split_1
I0425 09:43:02.946683 22893 net.cpp:122] Setting up label_val-data_1_split
I0425 09:43:02.946689 22893 net.cpp:129] Top shape: 32 (32)
I0425 09:43:02.946693 22893 net.cpp:129] Top shape: 32 (32)
I0425 09:43:02.946696 22893 net.cpp:137] Memory required for data: 19787520
I0425 09:43:02.946699 22893 layer_factory.hpp:77] Creating layer conv1
I0425 09:43:02.946712 22893 net.cpp:84] Creating Layer conv1
I0425 09:43:02.946714 22893 net.cpp:406] conv1 <- data
I0425 09:43:02.946720 22893 net.cpp:380] conv1 -> conv1
I0425 09:43:02.948711 22893 net.cpp:122] Setting up conv1
I0425 09:43:02.948722 22893 net.cpp:129] Top shape: 32 96 55 55 (9292800)
I0425 09:43:02.948726 22893 net.cpp:137] Memory required for data: 56958720
I0425 09:43:02.948735 22893 layer_factory.hpp:77] Creating layer relu1
I0425 09:43:02.948742 22893 net.cpp:84] Creating Layer relu1
I0425 09:43:02.948746 22893 net.cpp:406] relu1 <- conv1
I0425 09:43:02.948751 22893 net.cpp:367] relu1 -> conv1 (in-place)
I0425 09:43:02.949039 22893 net.cpp:122] Setting up relu1
I0425 09:43:02.949048 22893 net.cpp:129] Top shape: 32 96 55 55 (9292800)
I0425 09:43:02.949050 22893 net.cpp:137] Memory required for data: 94129920
I0425 09:43:02.949054 22893 layer_factory.hpp:77] Creating layer norm1
I0425 09:43:02.949062 22893 net.cpp:84] Creating Layer norm1
I0425 09:43:02.949066 22893 net.cpp:406] norm1 <- conv1
I0425 09:43:02.949071 22893 net.cpp:380] norm1 -> norm1
I0425 09:43:02.949522 22893 net.cpp:122] Setting up norm1
I0425 09:43:02.949532 22893 net.cpp:129] Top shape: 32 96 55 55 (9292800)
I0425 09:43:02.949535 22893 net.cpp:137] Memory required for data: 131301120
I0425 09:43:02.949538 22893 layer_factory.hpp:77] Creating layer pool1
I0425 09:43:02.949546 22893 net.cpp:84] Creating Layer pool1
I0425 09:43:02.949550 22893 net.cpp:406] pool1 <- norm1
I0425 09:43:02.949555 22893 net.cpp:380] pool1 -> pool1
I0425 09:43:02.949584 22893 net.cpp:122] Setting up pool1
I0425 09:43:02.949589 22893 net.cpp:129] Top shape: 32 96 27 27 (2239488)
I0425 09:43:02.949591 22893 net.cpp:137] Memory required for data: 140259072
I0425 09:43:02.949594 22893 layer_factory.hpp:77] Creating layer conv2
I0425 09:43:02.949602 22893 net.cpp:84] Creating Layer conv2
I0425 09:43:02.949605 22893 net.cpp:406] conv2 <- pool1
I0425 09:43:02.949631 22893 net.cpp:380] conv2 -> conv2
I0425 09:43:02.957741 22893 net.cpp:122] Setting up conv2
I0425 09:43:02.957757 22893 net.cpp:129] Top shape: 32 256 27 27 (5971968)
I0425 09:43:02.957762 22893 net.cpp:137] Memory required for data: 164146944
I0425 09:43:02.957772 22893 layer_factory.hpp:77] Creating layer relu2
I0425 09:43:02.957782 22893 net.cpp:84] Creating Layer relu2
I0425 09:43:02.957787 22893 net.cpp:406] relu2 <- conv2
I0425 09:43:02.957793 22893 net.cpp:367] relu2 -> conv2 (in-place)
I0425 09:43:02.958299 22893 net.cpp:122] Setting up relu2
I0425 09:43:02.958312 22893 net.cpp:129] Top shape: 32 256 27 27 (5971968)
I0425 09:43:02.958317 22893 net.cpp:137] Memory required for data: 188034816
I0425 09:43:02.958320 22893 layer_factory.hpp:77] Creating layer norm2
I0425 09:43:02.958331 22893 net.cpp:84] Creating Layer norm2
I0425 09:43:02.958335 22893 net.cpp:406] norm2 <- conv2
I0425 09:43:02.958341 22893 net.cpp:380] norm2 -> norm2
I0425 09:43:02.958851 22893 net.cpp:122] Setting up norm2
I0425 09:43:02.958861 22893 net.cpp:129] Top shape: 32 256 27 27 (5971968)
I0425 09:43:02.958865 22893 net.cpp:137] Memory required for data: 211922688
I0425 09:43:02.958870 22893 layer_factory.hpp:77] Creating layer pool2
I0425 09:43:02.958878 22893 net.cpp:84] Creating Layer pool2
I0425 09:43:02.958884 22893 net.cpp:406] pool2 <- norm2
I0425 09:43:02.958889 22893 net.cpp:380] pool2 -> pool2
I0425 09:43:02.958920 22893 net.cpp:122] Setting up pool2
I0425 09:43:02.958925 22893 net.cpp:129] Top shape: 32 256 13 13 (1384448)
I0425 09:43:02.958930 22893 net.cpp:137] Memory required for data: 217460480
I0425 09:43:02.958932 22893 layer_factory.hpp:77] Creating layer conv3
I0425 09:43:02.958942 22893 net.cpp:84] Creating Layer conv3
I0425 09:43:02.958947 22893 net.cpp:406] conv3 <- pool2
I0425 09:43:02.958953 22893 net.cpp:380] conv3 -> conv3
I0425 09:43:03.007189 22893 net.cpp:122] Setting up conv3
I0425 09:43:03.007211 22893 net.cpp:129] Top shape: 32 384 9 9 (995328)
I0425 09:43:03.007215 22893 net.cpp:137] Memory required for data: 221441792
I0425 09:43:03.007230 22893 layer_factory.hpp:77] Creating layer relu3
I0425 09:43:03.007239 22893 net.cpp:84] Creating Layer relu3
I0425 09:43:03.007244 22893 net.cpp:406] relu3 <- conv3
I0425 09:43:03.007251 22893 net.cpp:367] relu3 -> conv3 (in-place)
I0425 09:43:03.007769 22893 net.cpp:122] Setting up relu3
I0425 09:43:03.007778 22893 net.cpp:129] Top shape: 32 384 9 9 (995328)
I0425 09:43:03.007781 22893 net.cpp:137] Memory required for data: 225423104
I0425 09:43:03.007786 22893 layer_factory.hpp:77] Creating layer conv4
I0425 09:43:03.007797 22893 net.cpp:84] Creating Layer conv4
I0425 09:43:03.007802 22893 net.cpp:406] conv4 <- conv3
I0425 09:43:03.007808 22893 net.cpp:380] conv4 -> conv4
I0425 09:43:03.019181 22893 net.cpp:122] Setting up conv4
I0425 09:43:03.019199 22893 net.cpp:129] Top shape: 32 384 9 9 (995328)
I0425 09:43:03.019203 22893 net.cpp:137] Memory required for data: 229404416
I0425 09:43:03.019212 22893 layer_factory.hpp:77] Creating layer relu4
I0425 09:43:03.019220 22893 net.cpp:84] Creating Layer relu4
I0425 09:43:03.019225 22893 net.cpp:406] relu4 <- conv4
I0425 09:43:03.019232 22893 net.cpp:367] relu4 -> conv4 (in-place)
I0425 09:43:03.019579 22893 net.cpp:122] Setting up relu4
I0425 09:43:03.019587 22893 net.cpp:129] Top shape: 32 384 9 9 (995328)
I0425 09:43:03.019591 22893 net.cpp:137] Memory required for data: 233385728
I0425 09:43:03.019595 22893 layer_factory.hpp:77] Creating layer conv5
I0425 09:43:03.019608 22893 net.cpp:84] Creating Layer conv5
I0425 09:43:03.019613 22893 net.cpp:406] conv5 <- conv4
I0425 09:43:03.019619 22893 net.cpp:380] conv5 -> conv5
I0425 09:43:03.028553 22893 net.cpp:122] Setting up conv5
I0425 09:43:03.028569 22893 net.cpp:129] Top shape: 32 256 9 9 (663552)
I0425 09:43:03.028573 22893 net.cpp:137] Memory required for data: 236039936
I0425 09:43:03.028587 22893 layer_factory.hpp:77] Creating layer relu5
I0425 09:43:03.028597 22893 net.cpp:84] Creating Layer relu5
I0425 09:43:03.028602 22893 net.cpp:406] relu5 <- conv5
I0425 09:43:03.028627 22893 net.cpp:367] relu5 -> conv5 (in-place)
I0425 09:43:03.029129 22893 net.cpp:122] Setting up relu5
I0425 09:43:03.029139 22893 net.cpp:129] Top shape: 32 256 9 9 (663552)
I0425 09:43:03.029141 22893 net.cpp:137] Memory required for data: 238694144
I0425 09:43:03.029145 22893 layer_factory.hpp:77] Creating layer pool5
I0425 09:43:03.029156 22893 net.cpp:84] Creating Layer pool5
I0425 09:43:03.029160 22893 net.cpp:406] pool5 <- conv5
I0425 09:43:03.029167 22893 net.cpp:380] pool5 -> pool5
I0425 09:43:03.029204 22893 net.cpp:122] Setting up pool5
I0425 09:43:03.029211 22893 net.cpp:129] Top shape: 32 256 4 4 (131072)
I0425 09:43:03.029213 22893 net.cpp:137] Memory required for data: 239218432
I0425 09:43:03.029217 22893 layer_factory.hpp:77] Creating layer fc6
I0425 09:43:03.029224 22893 net.cpp:84] Creating Layer fc6
I0425 09:43:03.029228 22893 net.cpp:406] fc6 <- pool5
I0425 09:43:03.029234 22893 net.cpp:380] fc6 -> fc6
I0425 09:43:03.187362 22893 net.cpp:122] Setting up fc6
I0425 09:43:03.187383 22893 net.cpp:129] Top shape: 32 4096 (131072)
I0425 09:43:03.187388 22893 net.cpp:137] Memory required for data: 239742720
I0425 09:43:03.187397 22893 layer_factory.hpp:77] Creating layer relu6
I0425 09:43:03.187407 22893 net.cpp:84] Creating Layer relu6
I0425 09:43:03.187412 22893 net.cpp:406] relu6 <- fc6
I0425 09:43:03.187418 22893 net.cpp:367] relu6 -> fc6 (in-place)
I0425 09:43:03.188263 22893 net.cpp:122] Setting up relu6
I0425 09:43:03.188274 22893 net.cpp:129] Top shape: 32 4096 (131072)
I0425 09:43:03.188278 22893 net.cpp:137] Memory required for data: 240267008
I0425 09:43:03.188283 22893 layer_factory.hpp:77] Creating layer drop6
I0425 09:43:03.188292 22893 net.cpp:84] Creating Layer drop6
I0425 09:43:03.188297 22893 net.cpp:406] drop6 <- fc6
I0425 09:43:03.188305 22893 net.cpp:367] drop6 -> fc6 (in-place)
I0425 09:43:03.188335 22893 net.cpp:122] Setting up drop6
I0425 09:43:03.188342 22893 net.cpp:129] Top shape: 32 4096 (131072)
I0425 09:43:03.188346 22893 net.cpp:137] Memory required for data: 240791296
I0425 09:43:03.188350 22893 layer_factory.hpp:77] Creating layer fc7
I0425 09:43:03.188357 22893 net.cpp:84] Creating Layer fc7
I0425 09:43:03.188364 22893 net.cpp:406] fc7 <- fc6
I0425 09:43:03.188370 22893 net.cpp:380] fc7 -> fc7
I0425 09:43:03.346877 22893 net.cpp:122] Setting up fc7
I0425 09:43:03.346899 22893 net.cpp:129] Top shape: 32 4096 (131072)
I0425 09:43:03.346904 22893 net.cpp:137] Memory required for data: 241315584
I0425 09:43:03.346912 22893 layer_factory.hpp:77] Creating layer relu7
I0425 09:43:03.346922 22893 net.cpp:84] Creating Layer relu7
I0425 09:43:03.346927 22893 net.cpp:406] relu7 <- fc7
I0425 09:43:03.346933 22893 net.cpp:367] relu7 -> fc7 (in-place)
I0425 09:43:03.347360 22893 net.cpp:122] Setting up relu7
I0425 09:43:03.347368 22893 net.cpp:129] Top shape: 32 4096 (131072)
I0425 09:43:03.347371 22893 net.cpp:137] Memory required for data: 241839872
I0425 09:43:03.347375 22893 layer_factory.hpp:77] Creating layer drop7
I0425 09:43:03.347381 22893 net.cpp:84] Creating Layer drop7
I0425 09:43:03.347385 22893 net.cpp:406] drop7 <- fc7
I0425 09:43:03.347391 22893 net.cpp:367] drop7 -> fc7 (in-place)
I0425 09:43:03.347414 22893 net.cpp:122] Setting up drop7
I0425 09:43:03.347421 22893 net.cpp:129] Top shape: 32 4096 (131072)
I0425 09:43:03.347424 22893 net.cpp:137] Memory required for data: 242364160
I0425 09:43:03.347427 22893 layer_factory.hpp:77] Creating layer fc8
I0425 09:43:03.347434 22893 net.cpp:84] Creating Layer fc8
I0425 09:43:03.347437 22893 net.cpp:406] fc8 <- fc7
I0425 09:43:03.347443 22893 net.cpp:380] fc8 -> fc8
I0425 09:43:03.355224 22893 net.cpp:122] Setting up fc8
I0425 09:43:03.355234 22893 net.cpp:129] Top shape: 32 196 (6272)
I0425 09:43:03.355237 22893 net.cpp:137] Memory required for data: 242389248
I0425 09:43:03.355244 22893 layer_factory.hpp:77] Creating layer fc8_fc8_0_split
I0425 09:43:03.355250 22893 net.cpp:84] Creating Layer fc8_fc8_0_split
I0425 09:43:03.355253 22893 net.cpp:406] fc8_fc8_0_split <- fc8
I0425 09:43:03.355259 22893 net.cpp:380] fc8_fc8_0_split -> fc8_fc8_0_split_0
I0425 09:43:03.355285 22893 net.cpp:380] fc8_fc8_0_split -> fc8_fc8_0_split_1
I0425 09:43:03.355319 22893 net.cpp:122] Setting up fc8_fc8_0_split
I0425 09:43:03.355324 22893 net.cpp:129] Top shape: 32 196 (6272)
I0425 09:43:03.355327 22893 net.cpp:129] Top shape: 32 196 (6272)
I0425 09:43:03.355330 22893 net.cpp:137] Memory required for data: 242439424
I0425 09:43:03.355334 22893 layer_factory.hpp:77] Creating layer accuracy
I0425 09:43:03.355341 22893 net.cpp:84] Creating Layer accuracy
I0425 09:43:03.355345 22893 net.cpp:406] accuracy <- fc8_fc8_0_split_0
I0425 09:43:03.355350 22893 net.cpp:406] accuracy <- label_val-data_1_split_0
I0425 09:43:03.355355 22893 net.cpp:380] accuracy -> accuracy
…
