…
I0405 09:46:24.550110 26038 net.cpp:294] The NetState phase (0) differed from the phase (1) specified by a rule in layer accuracy
I0405 09:46:24.550230 26038 net.cpp:51] Initializing net from parameters:
state {
phase: TRAIN
level: 0
stage: ""
}
layer {
name: "train-data"
type: "Data"
top: "data"
top: "label"
include {
phase: TRAIN
}
transform_param {
mirror: true
crop_size: 227
mean_file: "/mnt/bigdisk/DIGITS-AIN-3/digits/jobs/20210401-115716-aaf7/mean.binaryproto"
}
data_param {
source: "/mnt/bigdisk/DIGITS-AIN-3/digits/jobs/20210401-115716-aaf7/train_db"
batch_size: 128
backend: LMDB
}
}
layer {
name: "conv1"
type: "Convolution"
bottom: "data"
top: "conv1"
param {
lr_mult: 1
decay_mult: 1
}
param {
lr_mult: 2
decay_mult: 0
}
convolution_param {
num_output: 96
kernel_size: 11
stride: 4
weight_filler {
type: "gaussian"
std: 0.01
}
bias_filler {
type: "constant"
value: 0
}
}
}
layer {
name: "relu1"
type: "ReLU"
bottom: "conv1"
top: "conv1"
}
layer {
name: "norm1"
type: "LRN"
bottom: "conv1"
top: "norm1"
lrn_param {
local_size: 5
alpha: 0.0001
beta: 0.75
}
}
layer {
name: "pool1"
type: "Pooling"
bottom: "norm1"
top: "pool1"
pooling_param {
pool: MAX
kernel_size: 3
stride: 2
}
}
layer {
name: "conv2"
type: "Convolution"
bottom: "pool1"
top: "conv2"
param {
lr_mult: 1
decay_mult: 1
}
param {
lr_mult: 2
decay_mult: 0
}
convolution_param {
num_output: 256
pad: 2
kernel_size: 5
group: 2
weight_filler {
type: "gaussian"
std: 0.01
}
bias_filler {
type: "constant"
value: 0.1
}
}
}
layer {
name: "relu2"
type: "ReLU"
bottom: "conv2"
top: "conv2"
}
layer {
name: "norm2"
type: "LRN"
bottom: "conv2"
top: "norm2"
lrn_param {
local_size: 5
alpha: 0.0001
beta: 0.75
}
}
layer {
name: "pool2"
type: "Pooling"
bottom: "norm2"
top: "pool2"
pooling_param {
pool: MAX
kernel_size: 3
stride: 2
}
}
layer {
name: "conv3"
type: "Convolution"
bottom: "pool2"
top: "conv3"
param {
lr_mult: 1
decay_mult: 1
}
param {
lr_mult: 2
decay_mult: 0
}
convolution_param {
num_output: 384
pad: 1
kernel_size: 3
weight_filler {
type: "gaussian"
std: 0.01
}
bias_filler {
type: "constant"
value: 0
}
}
}
layer {
name: "relu3"
type: "ReLU"
bottom: "conv3"
top: "conv3"
}
layer {
name: "conv4"
type: "Convolution"
bottom: "conv3"
top: "conv4"
param {
lr_mult: 1
decay_mult: 1
}
param {
lr_mult: 2
decay_mult: 0
}
convolution_param {
num_output: 384
pad: 1
kernel_size: 3
group: 2
weight_filler {
type: "gaussian"
std: 0.01
}
bias_filler {
type: "constant"
value: 0.1
}
}
}
layer {
name: "relu4"
type: "ReLU"
bottom: "conv4"
top: "conv4"
}
layer {
name: "conv5"
type: "Convolution"
bottom: "conv4"
top: "conv5"
param {
lr_mult: 1
decay_mult: 1
}
param {
lr_mult: 2
decay_mult: 0
}
convolution_param {
num_output: 256
pad: 1
kernel_size: 3
group: 2
weight_filler {
type: "gaussian"
std: 0.01
}
bias_filler {
type: "constant"
value: 0.1
}
}
}
layer {
name: "relu5"
type: "ReLU"
bottom: "conv5"
top: "conv5"
}
layer {
name: "pool5"
type: "Pooling"
bottom: "conv5"
top: "pool5"
pooling_param {
pool: MAX
kernel_size: 3
stride: 2
}
}
layer {
name: "fc6"
type: "InnerProduct"
bottom: "pool5"
top: "fc6"
param {
lr_mult: 1
decay_mult: 1
}
param {
lr_mult: 2
decay_mult: 0
}
inner_product_param {
num_output: 4096
weight_filler {
type: "gaussian"
std: 0.005
}
bias_filler {
type: "constant"
value: 0.1
}
}
}
layer {
name: "relu6"
type: "ReLU"
bottom: "fc6"
top: "fc6"
}
layer {
name: "drop6"
type: "Dropout"
bottom: "fc6"
top: "fc6"
dropout_param {
dropout_ratio: 0.5
}
}
layer {
name: "fc7"
type: "InnerProduct"
bottom: "fc6"
top: "fc7"
param {
lr_mult: 1
decay_mult: 1
}
param {
lr_mult: 2
decay_mult: 0
}
inner_product_param {
num_output: 4096
weight_filler {
type: "gaussian"
std: 0.005
}
bias_filler {
type: "constant"
value: 0.1
}
}
}
layer {
name: "relu7"
type: "ReLU"
bottom: "fc7"
top: "fc7"
}
layer {
name: "drop7"
type: "Dropout"
bottom: "fc7"
top: "fc7"
dropout_param {
dropout_ratio: 0.5
}
}
layer {
name: "fc8"
type: "InnerProduct"
bottom: "fc7"
top: "fc8"
param {
lr_mult: 1
decay_mult: 1
}
param {
lr_mult: 2
decay_mult: 0
}
inner_product_param {
num_output: 196
weight_filler {
type: "gaussian"
std: 0.01
}
bias_filler {
type: "constant"
value: 0
}
}
}
layer {
name: "loss"
type: "SoftmaxWithLoss"
bottom: "fc8"
bottom: "label"
top: "loss"
}
I0405 09:46:24.550305 26038 layer_factory.hpp:77] Creating layer train-data
I0405 09:46:24.553166 26038 db_lmdb.cpp:35] Opened lmdb /mnt/bigdisk/DIGITS-AIN-3/digits/jobs/20210401-115716-aaf7/train_db
I0405 09:46:24.553428 26038 net.cpp:84] Creating Layer train-data
I0405 09:46:24.553442 26038 net.cpp:380] train-data -> data
I0405 09:46:24.553462 26038 net.cpp:380] train-data -> label
I0405 09:46:24.553474 26038 data_transformer.cpp:25] Loading mean file from: /mnt/bigdisk/DIGITS-AIN-3/digits/jobs/20210401-115716-aaf7/mean.binaryproto
I0405 09:46:24.559177 26038 data_layer.cpp:45] output data size: 128,3,227,227
I0405 09:46:24.693485 26038 net.cpp:122] Setting up train-data
I0405 09:46:24.693507 26038 net.cpp:129] Top shape: 128 3 227 227 (19787136)
I0405 09:46:24.693511 26038 net.cpp:129] Top shape: 128 (128)
I0405 09:46:24.693513 26038 net.cpp:137] Memory required for data: 79149056
I0405 09:46:24.693522 26038 layer_factory.hpp:77] Creating layer conv1
I0405 09:46:24.693540 26038 net.cpp:84] Creating Layer conv1
I0405 09:46:24.693545 26038 net.cpp:406] conv1 <- data
I0405 09:46:24.693555 26038 net.cpp:380] conv1 -> conv1
I0405 09:46:25.131551 26038 net.cpp:122] Setting up conv1
I0405 09:46:25.131573 26038 net.cpp:129] Top shape: 128 96 55 55 (37171200)
I0405 09:46:25.131577 26038 net.cpp:137] Memory required for data: 227833856
I0405 09:46:25.131597 26038 layer_factory.hpp:77] Creating layer relu1
I0405 09:46:25.131606 26038 net.cpp:84] Creating Layer relu1
I0405 09:46:25.131609 26038 net.cpp:406] relu1 <- conv1
I0405 09:46:25.131615 26038 net.cpp:367] relu1 -> conv1 (in-place)
I0405 09:46:25.131886 26038 net.cpp:122] Setting up relu1
I0405 09:46:25.131893 26038 net.cpp:129] Top shape: 128 96 55 55 (37171200)
I0405 09:46:25.131896 26038 net.cpp:137] Memory required for data: 376518656
I0405 09:46:25.131898 26038 layer_factory.hpp:77] Creating layer norm1
I0405 09:46:25.131906 26038 net.cpp:84] Creating Layer norm1
I0405 09:46:25.131909 26038 net.cpp:406] norm1 <- conv1
I0405 09:46:25.131938 26038 net.cpp:380] norm1 -> norm1
I0405 09:46:25.132411 26038 net.cpp:122] Setting up norm1
I0405 09:46:25.132421 26038 net.cpp:129] Top shape: 128 96 55 55 (37171200)
I0405 09:46:25.132423 26038 net.cpp:137] Memory required for data: 525203456
I0405 09:46:25.132426 26038 layer_factory.hpp:77] Creating layer pool1
I0405 09:46:25.132433 26038 net.cpp:84] Creating Layer pool1
I0405 09:46:25.132436 26038 net.cpp:406] pool1 <- norm1
I0405 09:46:25.132441 26038 net.cpp:380] pool1 -> pool1
I0405 09:46:25.132475 26038 net.cpp:122] Setting up pool1
I0405 09:46:25.132481 26038 net.cpp:129] Top shape: 128 96 27 27 (8957952)
I0405 09:46:25.132483 26038 net.cpp:137] Memory required for data: 561035264
I0405 09:46:25.132485 26038 layer_factory.hpp:77] Creating layer conv2
I0405 09:46:25.132495 26038 net.cpp:84] Creating Layer conv2
I0405 09:46:25.132498 26038 net.cpp:406] conv2 <- pool1
I0405 09:46:25.132501 26038 net.cpp:380] conv2 -> conv2
I0405 09:46:25.138785 26038 net.cpp:122] Setting up conv2
I0405 09:46:25.138804 26038 net.cpp:129] Top shape: 128 256 27 27 (23887872)
I0405 09:46:25.138808 26038 net.cpp:137] Memory required for data: 656586752
I0405 09:46:25.138820 26038 layer_factory.hpp:77] Creating layer relu2
I0405 09:46:25.138828 26038 net.cpp:84] Creating Layer relu2
I0405 09:46:25.138831 26038 net.cpp:406] relu2 <- conv2
I0405 09:46:25.138836 26038 net.cpp:367] relu2 -> conv2 (in-place)
I0405 09:46:25.139343 26038 net.cpp:122] Setting up relu2
I0405 09:46:25.139353 26038 net.cpp:129] Top shape: 128 256 27 27 (23887872)
I0405 09:46:25.139355 26038 net.cpp:137] Memory required for data: 752138240
I0405 09:46:25.139358 26038 layer_factory.hpp:77] Creating layer norm2
I0405 09:46:25.139364 26038 net.cpp:84] Creating Layer norm2
I0405 09:46:25.139366 26038 net.cpp:406] norm2 <- conv2
I0405 09:46:25.139371 26038 net.cpp:380] norm2 -> norm2
I0405 09:46:25.139705 26038 net.cpp:122] Setting up norm2
I0405 09:46:25.139712 26038 net.cpp:129] Top shape: 128 256 27 27 (23887872)
I0405 09:46:25.139715 26038 net.cpp:137] Memory required for data: 847689728
I0405 09:46:25.139717 26038 layer_factory.hpp:77] Creating layer pool2
I0405 09:46:25.139725 26038 net.cpp:84] Creating Layer pool2
I0405 09:46:25.139729 26038 net.cpp:406] pool2 <- norm2
I0405 09:46:25.139732 26038 net.cpp:380] pool2 -> pool2
I0405 09:46:25.139760 26038 net.cpp:122] Setting up pool2
I0405 09:46:25.139765 26038 net.cpp:129] Top shape: 128 256 13 13 (5537792)
I0405 09:46:25.139766 26038 net.cpp:137] Memory required for data: 869840896
I0405 09:46:25.139768 26038 layer_factory.hpp:77] Creating layer conv3
I0405 09:46:25.139778 26038 net.cpp:84] Creating Layer conv3
I0405 09:46:25.139780 26038 net.cpp:406] conv3 <- pool2
I0405 09:46:25.139786 26038 net.cpp:380] conv3 -> conv3
I0405 09:46:25.150022 26038 net.cpp:122] Setting up conv3
I0405 09:46:25.150043 26038 net.cpp:129] Top shape: 128 384 13 13 (8306688)
I0405 09:46:25.150044 26038 net.cpp:137] Memory required for data: 903067648
I0405 09:46:25.150056 26038 layer_factory.hpp:77] Creating layer relu3
I0405 09:46:25.150065 26038 net.cpp:84] Creating Layer relu3
I0405 09:46:25.150068 26038 net.cpp:406] relu3 <- conv3
I0405 09:46:25.150074 26038 net.cpp:367] relu3 -> conv3 (in-place)
I0405 09:46:25.150719 26038 net.cpp:122] Setting up relu3
I0405 09:46:25.150728 26038 net.cpp:129] Top shape: 128 384 13 13 (8306688)
I0405 09:46:25.150730 26038 net.cpp:137] Memory required for data: 936294400
I0405 09:46:25.150733 26038 layer_factory.hpp:77] Creating layer conv4
I0405 09:46:25.150743 26038 net.cpp:84] Creating Layer conv4
I0405 09:46:25.150746 26038 net.cpp:406] conv4 <- conv3
I0405 09:46:25.150751 26038 net.cpp:380] conv4 -> conv4
I0405 09:46:25.160512 26038 net.cpp:122] Setting up conv4
I0405 09:46:25.160529 26038 net.cpp:129] Top shape: 128 384 13 13 (8306688)
I0405 09:46:25.160532 26038 net.cpp:137] Memory required for data: 969521152
I0405 09:46:25.160540 26038 layer_factory.hpp:77] Creating layer relu4
I0405 09:46:25.160548 26038 net.cpp:84] Creating Layer relu4
I0405 09:46:25.160570 26038 net.cpp:406] relu4 <- conv4
I0405 09:46:25.160578 26038 net.cpp:367] relu4 -> conv4 (in-place)
I0405 09:46:25.160905 26038 net.cpp:122] Setting up relu4
I0405 09:46:25.160914 26038 net.cpp:129] Top shape: 128 384 13 13 (8306688)
I0405 09:46:25.160917 26038 net.cpp:137] Memory required for data: 1002747904
I0405 09:46:25.160919 26038 layer_factory.hpp:77] Creating layer conv5
I0405 09:46:25.160929 26038 net.cpp:84] Creating Layer conv5
I0405 09:46:25.160931 26038 net.cpp:406] conv5 <- conv4
I0405 09:46:25.160936 26038 net.cpp:380] conv5 -> conv5
I0405 09:46:25.168756 26038 net.cpp:122] Setting up conv5
I0405 09:46:25.168777 26038 net.cpp:129] Top shape: 128 256 13 13 (5537792)
I0405 09:46:25.168781 26038 net.cpp:137] Memory required for data: 1024899072
I0405 09:46:25.168792 26038 layer_factory.hpp:77] Creating layer relu5
I0405 09:46:25.168800 26038 net.cpp:84] Creating Layer relu5
I0405 09:46:25.168804 26038 net.cpp:406] relu5 <- conv5
I0405 09:46:25.168810 26038 net.cpp:367] relu5 -> conv5 (in-place)
I0405 09:46:25.169310 26038 net.cpp:122] Setting up relu5
I0405 09:46:25.169322 26038 net.cpp:129] Top shape: 128 256 13 13 (5537792)
I0405 09:46:25.169323 26038 net.cpp:137] Memory required for data: 1047050240
I0405 09:46:25.169327 26038 layer_factory.hpp:77] Creating layer pool5
I0405 09:46:25.169332 26038 net.cpp:84] Creating Layer pool5
I0405 09:46:25.169334 26038 net.cpp:406] pool5 <- conv5
I0405 09:46:25.169340 26038 net.cpp:380] pool5 -> pool5
I0405 09:46:25.169374 26038 net.cpp:122] Setting up pool5
I0405 09:46:25.169380 26038 net.cpp:129] Top shape: 128 256 6 6 (1179648)
I0405 09:46:25.169382 26038 net.cpp:137] Memory required for data: 1051768832
I0405 09:46:25.169384 26038 layer_factory.hpp:77] Creating layer fc6
I0405 09:46:25.169394 26038 net.cpp:84] Creating Layer fc6
I0405 09:46:25.169395 26038 net.cpp:406] fc6 <- pool5
I0405 09:46:25.169399 26038 net.cpp:380] fc6 -> fc6
I0405 09:46:25.502702 26038 net.cpp:122] Setting up fc6
I0405 09:46:25.502727 26038 net.cpp:129] Top shape: 128 4096 (524288)
I0405 09:46:25.502729 26038 net.cpp:137] Memory required for data: 1053865984
I0405 09:46:25.502737 26038 layer_factory.hpp:77] Creating layer relu6
I0405 09:46:25.502745 26038 net.cpp:84] Creating Layer relu6
I0405 09:46:25.502748 26038 net.cpp:406] relu6 <- fc6
I0405 09:46:25.502753 26038 net.cpp:367] relu6 -> fc6 (in-place)
I0405 09:46:25.503378 26038 net.cpp:122] Setting up relu6
I0405 09:46:25.503387 26038 net.cpp:129] Top shape: 128 4096 (524288)
I0405 09:46:25.503389 26038 net.cpp:137] Memory required for data: 1055963136
I0405 09:46:25.503392 26038 layer_factory.hpp:77] Creating layer drop6
I0405 09:46:25.503397 26038 net.cpp:84] Creating Layer drop6
I0405 09:46:25.503399 26038 net.cpp:406] drop6 <- fc6
I0405 09:46:25.503404 26038 net.cpp:367] drop6 -> fc6 (in-place)
I0405 09:46:25.503427 26038 net.cpp:122] Setting up drop6
I0405 09:46:25.503432 26038 net.cpp:129] Top shape: 128 4096 (524288)
I0405 09:46:25.503434 26038 net.cpp:137] Memory required for data: 1058060288
I0405 09:46:25.503437 26038 layer_factory.hpp:77] Creating layer fc7
I0405 09:46:25.503443 26038 net.cpp:84] Creating Layer fc7
I0405 09:46:25.503445 26038 net.cpp:406] fc7 <- fc6
I0405 09:46:25.503450 26038 net.cpp:380] fc7 -> fc7
I0405 09:46:25.656199 26038 net.cpp:122] Setting up fc7
I0405 09:46:25.656219 26038 net.cpp:129] Top shape: 128 4096 (524288)
I0405 09:46:25.656221 26038 net.cpp:137] Memory required for data: 1060157440
I0405 09:46:25.656230 26038 layer_factory.hpp:77] Creating layer relu7
I0405 09:46:25.656239 26038 net.cpp:84] Creating Layer relu7
I0405 09:46:25.656242 26038 net.cpp:406] relu7 <- fc7
I0405 09:46:25.656247 26038 net.cpp:367] relu7 -> fc7 (in-place)
I0405 09:46:25.656610 26038 net.cpp:122] Setting up relu7
I0405 09:46:25.656616 26038 net.cpp:129] Top shape: 128 4096 (524288)
I0405 09:46:25.656620 26038 net.cpp:137] Memory required for data: 1062254592
I0405 09:46:25.656621 26038 layer_factory.hpp:77] Creating layer drop7
I0405 09:46:25.656628 26038 net.cpp:84] Creating Layer drop7
I0405 09:46:25.656649 26038 net.cpp:406] drop7 <- fc7
I0405 09:46:25.656653 26038 net.cpp:367] drop7 -> fc7 (in-place)
I0405 09:46:25.656674 26038 net.cpp:122] Setting up drop7
I0405 09:46:25.656678 26038 net.cpp:129] Top shape: 128 4096 (524288)
I0405 09:46:25.656680 26038 net.cpp:137] Memory required for data: 1064351744
I0405 09:46:25.656683 26038 layer_factory.hpp:77] Creating layer fc8
I0405 09:46:25.656688 26038 net.cpp:84] Creating Layer fc8
I0405 09:46:25.656690 26038 net.cpp:406] fc8 <- fc7
I0405 09:46:25.656695 26038 net.cpp:380] fc8 -> fc8
I0405 09:46:25.663861 26038 net.cpp:122] Setting up fc8
I0405 09:46:25.663877 26038 net.cpp:129] Top shape: 128 196 (25088)
I0405 09:46:25.663879 26038 net.cpp:137] Memory required for data: 1064452096
I0405 09:46:25.663887 26038 layer_factory.hpp:77] Creating layer loss
I0405 09:46:25.663893 26038 net.cpp:84] Creating Layer loss
I0405 09:46:25.663897 26038 net.cpp:406] loss <- fc8
I0405 09:46:25.663902 26038 net.cpp:406] loss <- label
I0405 09:46:25.663906 26038 net.cpp:380] loss -> loss
I0405 09:46:25.663916 26038 layer_factory.hpp:77] Creating layer loss
…
I0405 09:46:25.666203 26038 net.cpp:294] The NetState phase (1) differed from the phase (0) specified by a rule in layer train-data
I0405 09:46:25.666332 26038 net.cpp:51] Initializing net from parameters:
state {
phase: TEST
}
layer {
name: "val-data"
type: "Data"
top: "data"
top: "label"
include {
phase: TEST
}
transform_param {
crop_size: 227
mean_file: "/mnt/bigdisk/DIGITS-AIN-3/digits/jobs/20210401-115716-aaf7/mean.binaryproto"
}
data_param {
source: "/mnt/bigdisk/DIGITS-AIN-3/digits/jobs/20210401-115716-aaf7/val_db"
batch_size: 32
backend: LMDB
}
}
layer {
name: "conv1"
type: "Convolution"
bottom: "data"
top: "conv1"
param {
lr_mult: 1
decay_mult: 1
}
param {
lr_mult: 2
decay_mult: 0
}
convolution_param {
num_output: 96
kernel_size: 11
stride: 4
weight_filler {
type: "gaussian"
std: 0.01
}
bias_filler {
type: "constant"
value: 0
}
}
}
layer {
name: "relu1"
type: "ReLU"
bottom: "conv1"
top: "conv1"
}
layer {
name: "norm1"
type: "LRN"
bottom: "conv1"
top: "norm1"
lrn_param {
local_size: 5
alpha: 0.0001
beta: 0.75
}
}
layer {
name: "pool1"
type: "Pooling"
bottom: "norm1"
top: "pool1"
pooling_param {
pool: MAX
kernel_size: 3
stride: 2
}
}
layer {
name: "conv2"
type: "Convolution"
bottom: "pool1"
top: "conv2"
param {
lr_mult: 1
decay_mult: 1
}
param {
lr_mult: 2
decay_mult: 0
}
convolution_param {
num_output: 256
pad: 2
kernel_size: 5
group: 2
weight_filler {
type: "gaussian"
std: 0.01
}
bias_filler {
type: "constant"
value: 0.1
}
}
}
layer {
name: "relu2"
type: "ReLU"
bottom: "conv2"
top: "conv2"
}
layer {
name: "norm2"
type: "LRN"
bottom: "conv2"
top: "norm2"
lrn_param {
local_size: 5
alpha: 0.0001
beta: 0.75
}
}
layer {
name: "pool2"
type: "Pooling"
bottom: "norm2"
top: "pool2"
pooling_param {
pool: MAX
kernel_size: 3
stride: 2
}
}
layer {
name: "conv3"
type: "Convolution"
bottom: "pool2"
top: "conv3"
param {
lr_mult: 1
decay_mult: 1
}
param {
lr_mult: 2
decay_mult: 0
}
convolution_param {
num_output: 384
pad: 1
kernel_size: 3
weight_filler {
type: "gaussian"
std: 0.01
}
bias_filler {
type: "constant"
value: 0
}
}
}
layer {
name: "relu3"
type: "ReLU"
bottom: "conv3"
top: "conv3"
}
layer {
name: "conv4"
type: "Convolution"
bottom: "conv3"
top: "conv4"
param {
lr_mult: 1
decay_mult: 1
}
param {
lr_mult: 2
decay_mult: 0
}
convolution_param {
num_output: 384
pad: 1
kernel_size: 3
group: 2
weight_filler {
type: "gaussian"
std: 0.01
}
bias_filler {
type: "constant"
value: 0.1
}
}
}
layer {
name: "relu4"
type: "ReLU"
bottom: "conv4"
top: "conv4"
}
layer {
name: "conv5"
type: "Convolution"
bottom: "conv4"
top: "conv5"
param {
lr_mult: 1
decay_mult: 1
}
param {
lr_mult: 2
decay_mult: 0
}
convolution_param {
num_output: 256
pad: 1
kernel_size: 3
group: 2
weight_filler {
type: "gaussian"
std: 0.01
}
bias_filler {
type: "constant"
value: 0.1
}
}
}
layer {
name: "relu5"
type: "ReLU"
bottom: "conv5"
top: "conv5"
}
layer {
name: "pool5"
type: "Pooling"
bottom: "conv5"
top: "pool5"
pooling_param {
pool: MAX
kernel_size: 3
stride: 2
}
}
layer {
name: "fc6"
type: "InnerProduct"
bottom: "pool5"
top: "fc6"
param {
lr_mult: 1
decay_mult: 1
}
param {
lr_mult: 2
decay_mult: 0
}
inner_product_param {
num_output: 4096
weight_filler {
type: "gaussian"
std: 0.005
}
bias_filler {
type: "constant"
value: 0.1
}
}
}
layer {
name: "relu6"
type: "ReLU"
bottom: "fc6"
top: "fc6"
}
layer {
name: "drop6"
type: "Dropout"
bottom: "fc6"
top: "fc6"
dropout_param {
dropout_ratio: 0.5
}
}
layer {
name: "fc7"
type: "InnerProduct"
bottom: "fc6"
top: "fc7"
param {
lr_mult: 1
decay_mult: 1
}
param {
lr_mult: 2
decay_mult: 0
}
inner_product_param {
num_output: 4096
weight_filler {
type: "gaussian"
std: 0.005
}
bias_filler {
type: "constant"
value: 0.1
}
}
}
layer {
name: "relu7"
type: "ReLU"
bottom: "fc7"
top: "fc7"
}
layer {
name: "drop7"
type: "Dropout"
bottom: "fc7"
top: "fc7"
dropout_param {
dropout_ratio: 0.5
}
}
layer {
name: "fc8"
type: "InnerProduct"
bottom: "fc7"
top: "fc8"
param {
lr_mult: 1
decay_mult: 1
}
param {
lr_mult: 2
decay_mult: 0
}
inner_product_param {
num_output: 196
weight_filler {
type: "gaussian"
std: 0.01
}
bias_filler {
type: "constant"
value: 0
}
}
}
layer {
name: "accuracy"
type: "Accuracy"
bottom: "fc8"
bottom: "label"
top: "accuracy"
include {
phase: TEST
}
}
layer {
name: "loss"
type: "SoftmaxWithLoss"
bottom: "fc8"
bottom: "label"
top: "loss"
}
I0405 09:46:25.666429 26038 layer_factory.hpp:77] Creating layer val-data
I0405 09:46:25.668426 26038 db_lmdb.cpp:35] Opened lmdb /mnt/bigdisk/DIGITS-AIN-3/digits/jobs/20210401-115716-aaf7/val_db
I0405 09:46:25.668658 26038 net.cpp:84] Creating Layer val-data
I0405 09:46:25.668666 26038 net.cpp:380] val-data -> data
I0405 09:46:25.668673 26038 net.cpp:380] val-data -> label
I0405 09:46:25.668679 26038 data_transformer.cpp:25] Loading mean file from: /mnt/bigdisk/DIGITS-AIN-3/digits/jobs/20210401-115716-aaf7/mean.binaryproto
I0405 09:46:25.672351 26038 data_layer.cpp:45] output data size: 32,3,227,227
I0405 09:46:25.739672 26038 net.cpp:122] Setting up val-data
I0405 09:46:25.739691 26038 net.cpp:129] Top shape: 32 3 227 227 (4946784)
I0405 09:46:25.739696 26038 net.cpp:129] Top shape: 32 (32)
I0405 09:46:25.739697 26038 net.cpp:137] Memory required for data: 19787264
I0405 09:46:25.739702 26038 layer_factory.hpp:77] Creating layer label_val-data_1_split
I0405 09:46:25.739713 26038 net.cpp:84] Creating Layer label_val-data_1_split
I0405 09:46:25.739717 26038 net.cpp:406] label_val-data_1_split <- label
I0405 09:46:25.739722 26038 net.cpp:380] label_val-data_1_split -> label_val-data_1_split_0
I0405 09:46:25.739729 26038 net.cpp:380] label_val-data_1_split -> label_val-data_1_split_1
I0405 09:46:25.739781 26038 net.cpp:122] Setting up label_val-data_1_split
I0405 09:46:25.739785 26038 net.cpp:129] Top shape: 32 (32)
I0405 09:46:25.739789 26038 net.cpp:129] Top shape: 32 (32)
I0405 09:46:25.739790 26038 net.cpp:137] Memory required for data: 19787520
I0405 09:46:25.739792 26038 layer_factory.hpp:77] Creating layer conv1
I0405 09:46:25.739804 26038 net.cpp:84] Creating Layer conv1
I0405 09:46:25.739806 26038 net.cpp:406] conv1 <- data
I0405 09:46:25.739810 26038 net.cpp:380] conv1 -> conv1
I0405 09:46:25.742488 26038 net.cpp:122] Setting up conv1
I0405 09:46:25.742501 26038 net.cpp:129] Top shape: 32 96 55 55 (9292800)
I0405 09:46:25.742503 26038 net.cpp:137] Memory required for data: 56958720
I0405 09:46:25.742512 26038 layer_factory.hpp:77] Creating layer relu1
I0405 09:46:25.742517 26038 net.cpp:84] Creating Layer relu1
I0405 09:46:25.742520 26038 net.cpp:406] relu1 <- conv1
I0405 09:46:25.742524 26038 net.cpp:367] relu1 -> conv1 (in-place)
I0405 09:46:25.742787 26038 net.cpp:122] Setting up relu1
I0405 09:46:25.742794 26038 net.cpp:129] Top shape: 32 96 55 55 (9292800)
I0405 09:46:25.742797 26038 net.cpp:137] Memory required for data: 94129920
I0405 09:46:25.742799 26038 layer_factory.hpp:77] Creating layer norm1
I0405 09:46:25.742806 26038 net.cpp:84] Creating Layer norm1
I0405 09:46:25.742808 26038 net.cpp:406] norm1 <- conv1
I0405 09:46:25.742812 26038 net.cpp:380] norm1 -> norm1
I0405 09:46:25.743247 26038 net.cpp:122] Setting up norm1
I0405 09:46:25.743257 26038 net.cpp:129] Top shape: 32 96 55 55 (9292800)
I0405 09:46:25.743258 26038 net.cpp:137] Memory required for data: 131301120
I0405 09:46:25.743261 26038 layer_factory.hpp:77] Creating layer pool1
I0405 09:46:25.743266 26038 net.cpp:84] Creating Layer pool1
I0405 09:46:25.743269 26038 net.cpp:406] pool1 <- norm1
I0405 09:46:25.743273 26038 net.cpp:380] pool1 -> pool1
I0405 09:46:25.743299 26038 net.cpp:122] Setting up pool1
I0405 09:46:25.743302 26038 net.cpp:129] Top shape: 32 96 27 27 (2239488)
I0405 09:46:25.743304 26038 net.cpp:137] Memory required for data: 140259072
I0405 09:46:25.743306 26038 layer_factory.hpp:77] Creating layer conv2
I0405 09:46:25.743314 26038 net.cpp:84] Creating Layer conv2
I0405 09:46:25.743315 26038 net.cpp:406] conv2 <- pool1
I0405 09:46:25.743338 26038 net.cpp:380] conv2 -> conv2
I0405 09:46:25.749562 26038 net.cpp:122] Setting up conv2
I0405 09:46:25.749580 26038 net.cpp:129] Top shape: 32 256 27 27 (5971968)
I0405 09:46:25.749583 26038 net.cpp:137] Memory required for data: 164146944
I0405 09:46:25.749593 26038 layer_factory.hpp:77] Creating layer relu2
I0405 09:46:25.749600 26038 net.cpp:84] Creating Layer relu2
I0405 09:46:25.749603 26038 net.cpp:406] relu2 <- conv2
I0405 09:46:25.749608 26038 net.cpp:367] relu2 -> conv2 (in-place)
I0405 09:46:25.750118 26038 net.cpp:122] Setting up relu2
I0405 09:46:25.750128 26038 net.cpp:129] Top shape: 32 256 27 27 (5971968)
I0405 09:46:25.750129 26038 net.cpp:137] Memory required for data: 188034816
I0405 09:46:25.750133 26038 layer_factory.hpp:77] Creating layer norm2
I0405 09:46:25.750141 26038 net.cpp:84] Creating Layer norm2
I0405 09:46:25.750144 26038 net.cpp:406] norm2 <- conv2
I0405 09:46:25.750149 26038 net.cpp:380] norm2 -> norm2
I0405 09:46:25.750679 26038 net.cpp:122] Setting up norm2
I0405 09:46:25.750687 26038 net.cpp:129] Top shape: 32 256 27 27 (5971968)
I0405 09:46:25.750690 26038 net.cpp:137] Memory required for data: 211922688
I0405 09:46:25.750694 26038 layer_factory.hpp:77] Creating layer pool2
I0405 09:46:25.750699 26038 net.cpp:84] Creating Layer pool2
I0405 09:46:25.750701 26038 net.cpp:406] pool2 <- norm2
I0405 09:46:25.750706 26038 net.cpp:380] pool2 -> pool2
I0405 09:46:25.750733 26038 net.cpp:122] Setting up pool2
I0405 09:46:25.750738 26038 net.cpp:129] Top shape: 32 256 13 13 (1384448)
I0405 09:46:25.750741 26038 net.cpp:137] Memory required for data: 217460480
I0405 09:46:25.750742 26038 layer_factory.hpp:77] Creating layer conv3
I0405 09:46:25.750751 26038 net.cpp:84] Creating Layer conv3
I0405 09:46:25.750753 26038 net.cpp:406] conv3 <- pool2
I0405 09:46:25.750757 26038 net.cpp:380] conv3 -> conv3
I0405 09:46:25.761060 26038 net.cpp:122] Setting up conv3
I0405 09:46:25.761078 26038 net.cpp:129] Top shape: 32 384 13 13 (2076672)
I0405 09:46:25.761081 26038 net.cpp:137] Memory required for data: 225767168
I0405 09:46:25.761094 26038 layer_factory.hpp:77] Creating layer relu3
I0405 09:46:25.761101 26038 net.cpp:84] Creating Layer relu3
I0405 09:46:25.761106 26038 net.cpp:406] relu3 <- conv3
I0405 09:46:25.761111 26038 net.cpp:367] relu3 -> conv3 (in-place)
I0405 09:46:25.761615 26038 net.cpp:122] Setting up relu3
I0405 09:46:25.761623 26038 net.cpp:129] Top shape: 32 384 13 13 (2076672)
I0405 09:46:25.761626 26038 net.cpp:137] Memory required for data: 234073856
I0405 09:46:25.761628 26038 layer_factory.hpp:77] Creating layer conv4
I0405 09:46:25.761638 26038 net.cpp:84] Creating Layer conv4
I0405 09:46:25.761641 26038 net.cpp:406] conv4 <- conv3
I0405 09:46:25.761646 26038 net.cpp:380] conv4 -> conv4
I0405 09:46:25.771039 26038 net.cpp:122] Setting up conv4
I0405 09:46:25.771056 26038 net.cpp:129] Top shape: 32 384 13 13 (2076672)
I0405 09:46:25.771059 26038 net.cpp:137] Memory required for data: 242380544
I0405 09:46:25.771067 26038 layer_factory.hpp:77] Creating layer relu4
I0405 09:46:25.771076 26038 net.cpp:84] Creating Layer relu4
I0405 09:46:25.771080 26038 net.cpp:406] relu4 <- conv4
I0405 09:46:25.771085 26038 net.cpp:367] relu4 -> conv4 (in-place)
I0405 09:46:25.771415 26038 net.cpp:122] Setting up relu4
I0405 09:46:25.771422 26038 net.cpp:129] Top shape: 32 384 13 13 (2076672)
I0405 09:46:25.771425 26038 net.cpp:137] Memory required for data: 250687232
I0405 09:46:25.771427 26038 layer_factory.hpp:77] Creating layer conv5
I0405 09:46:25.771440 26038 net.cpp:84] Creating Layer conv5
I0405 09:46:25.771441 26038 net.cpp:406] conv5 <- conv4
I0405 09:46:25.771446 26038 net.cpp:380] conv5 -> conv5
I0405 09:46:25.779601 26038 net.cpp:122] Setting up conv5
I0405 09:46:25.779618 26038 net.cpp:129] Top shape: 32 256 13 13 (1384448)
I0405 09:46:25.779621 26038 net.cpp:137] Memory required for data: 256225024
I0405 09:46:25.779633 26038 layer_factory.hpp:77] Creating layer relu5
I0405 09:46:25.779640 26038 net.cpp:84] Creating Layer relu5
I0405 09:46:25.779644 26038 net.cpp:406] relu5 <- conv5
I0405 09:46:25.779666 26038 net.cpp:367] relu5 -> conv5 (in-place)
I0405 09:46:25.780179 26038 net.cpp:122] Setting up relu5
I0405 09:46:25.780187 26038 net.cpp:129] Top shape: 32 256 13 13 (1384448)
I0405 09:46:25.780190 26038 net.cpp:137] Memory required for data: 261762816
I0405 09:46:25.780192 26038 layer_factory.hpp:77] Creating layer pool5
I0405 09:46:25.780202 26038 net.cpp:84] Creating Layer pool5
I0405 09:46:25.780205 26038 net.cpp:406] pool5 <- conv5
I0405 09:46:25.780210 26038 net.cpp:380] pool5 -> pool5
I0405 09:46:25.780247 26038 net.cpp:122] Setting up pool5
I0405 09:46:25.780256 26038 net.cpp:129] Top shape: 32 256 6 6 (294912)
I0405 09:46:25.780258 26038 net.cpp:137] Memory required for data: 262942464
I0405 09:46:25.780261 26038 layer_factory.hpp:77] Creating layer fc6
I0405 09:46:25.780267 26038 net.cpp:84] Creating Layer fc6
I0405 09:46:25.780268 26038 net.cpp:406] fc6 <- pool5
I0405 09:46:25.780274 26038 net.cpp:380] fc6 -> fc6
I0405 09:46:26.136466 26038 net.cpp:122] Setting up fc6
I0405 09:46:26.136485 26038 net.cpp:129] Top shape: 32 4096 (131072)
I0405 09:46:26.136488 26038 net.cpp:137] Memory required for data: 263466752
I0405 09:46:26.136497 26038 layer_factory.hpp:77] Creating layer relu6
I0405 09:46:26.136505 26038 net.cpp:84] Creating Layer relu6
I0405 09:46:26.136509 26038 net.cpp:406] relu6 <- fc6
I0405 09:46:26.136513 26038 net.cpp:367] relu6 -> fc6 (in-place)
I0405 09:46:26.137194 26038 net.cpp:122] Setting up relu6
I0405 09:46:26.137203 26038 net.cpp:129] Top shape: 32 4096 (131072)
I0405 09:46:26.137205 26038 net.cpp:137] Memory required for data: 263991040
I0405 09:46:26.137208 26038 layer_factory.hpp:77] Creating layer drop6
I0405 09:46:26.137213 26038 net.cpp:84] Creating Layer drop6
I0405 09:46:26.137219 26038 net.cpp:406] drop6 <- fc6
I0405 09:46:26.137223 26038 net.cpp:367] drop6 -> fc6 (in-place)
I0405 09:46:26.137243 26038 net.cpp:122] Setting up drop6
I0405 09:46:26.137248 26038 net.cpp:129] Top shape: 32 4096 (131072)
I0405 09:46:26.137249 26038 net.cpp:137] Memory required for data: 264515328
I0405 09:46:26.137251 26038 layer_factory.hpp:77] Creating layer fc7
I0405 09:46:26.137259 26038 net.cpp:84] Creating Layer fc7
I0405 09:46:26.137260 26038 net.cpp:406] fc7 <- fc6
I0405 09:46:26.137265 26038 net.cpp:380] fc7 -> fc7
I0405 09:46:26.295933 26038 net.cpp:122] Setting up fc7
I0405 09:46:26.295956 26038 net.cpp:129] Top shape: 32 4096 (131072)
I0405 09:46:26.295960 26038 net.cpp:137] Memory required for data: 265039616
I0405 09:46:26.295971 26038 layer_factory.hpp:77] Creating layer relu7
I0405 09:46:26.295982 26038 net.cpp:84] Creating Layer relu7
I0405 09:46:26.295987 26038 net.cpp:406] relu7 <- fc7
I0405 09:46:26.295994 26038 net.cpp:367] relu7 -> fc7 (in-place)
I0405 09:46:26.296517 26038 net.cpp:122] Setting up relu7
I0405 09:46:26.296527 26038 net.cpp:129] Top shape: 32 4096 (131072)
I0405 09:46:26.296530 26038 net.cpp:137] Memory required for data: 265563904
I0405 09:46:26.296535 26038 layer_factory.hpp:77] Creating layer drop7
I0405 09:46:26.296543 26038 net.cpp:84] Creating Layer drop7
I0405 09:46:26.296547 26038 net.cpp:406] drop7 <- fc7
I0405 09:46:26.296552 26038 net.cpp:367] drop7 -> fc7 (in-place)
I0405 09:46:26.296582 26038 net.cpp:122] Setting up drop7
I0405 09:46:26.296588 26038 net.cpp:129] Top shape: 32 4096 (131072)
I0405 09:46:26.296591 26038 net.cpp:137] Memory required for data: 266088192
I0405 09:46:26.296594 26038 layer_factory.hpp:77] Creating layer fc8
I0405 09:46:26.296603 26038 net.cpp:84] Creating Layer fc8
I0405 09:46:26.296607 26038 net.cpp:406] fc8 <- fc7
I0405 09:46:26.296615 26038 net.cpp:380] fc8 -> fc8
I0405 09:46:26.306855 26038 net.cpp:122] Setting up fc8
I0405 09:46:26.306869 26038 net.cpp:129] Top shape: 32 196 (6272)
I0405 09:46:26.306871 26038 net.cpp:137] Memory required for data: 266113280
I0405 09:46:26.306877 26038 layer_factory.hpp:77] Creating layer fc8_fc8_0_split
I0405 09:46:26.306883 26038 net.cpp:84] Creating Layer fc8_fc8_0_split
I0405 09:46:26.306885 26038 net.cpp:406] fc8_fc8_0_split <- fc8
I0405 09:46:26.306908 26038 net.cpp:380] fc8_fc8_0_split -> fc8_fc8_0_split_0
I0405 09:46:26.306915 26038 net.cpp:380] fc8_fc8_0_split -> fc8_fc8_0_split_1
I0405 09:46:26.306944 26038 net.cpp:122] Setting up fc8_fc8_0_split
I0405 09:46:26.306949 26038 net.cpp:129] Top shape: 32 196 (6272)
I0405 09:46:26.306952 26038 net.cpp:129] Top shape: 32 196 (6272)
I0405 09:46:26.306953 26038 net.cpp:137] Memory required for data: 266163456
I0405 09:46:26.306957 26038 layer_factory.hpp:77] Creating layer accuracy
I0405 09:46:26.306962 26038 net.cpp:84] Creating Layer accuracy
I0405 09:46:26.306963 26038 net.cpp:406] accuracy <- fc8_fc8_0_split_0
I0405 09:46:26.306967 26038 net.cpp:406] accuracy <- label_val-data_1_split_0
I0405 09:46:26.306970 26038 net.cpp:380] accuracy -> accuracy
…
