…
I0408 15:34:34.319598 27193 net.cpp:294] The NetState phase (0) differed from the phase (1) specified by a rule in layer accuracy
I0408 15:34:34.319737 27193 net.cpp:51] Initializing net from parameters:
state {
phase: TRAIN
level: 0
stage: ""
}
layer {
name: "train-data"
type: "Data"
top: "data"
top: "label"
include {
phase: TRAIN
}
transform_param {
mirror: true
crop_size: 227
mean_file: "/mnt/bigdisk/DIGITS-MAN-2/digits/jobs/20210407-214532-d396/mean.binaryproto"
}
data_param {
source: "/mnt/bigdisk/DIGITS-MAN-2/digits/jobs/20210407-214532-d396/train_db"
batch_size: 128
backend: LMDB
}
}
layer {
name: "conv1"
type: "Convolution"
bottom: "data"
top: "conv1"
param {
lr_mult: 1
decay_mult: 1
}
param {
lr_mult: 2
decay_mult: 0
}
convolution_param {
num_output: 96
kernel_size: 11
stride: 4
weight_filler {
type: "gaussian"
std: 0.01
}
bias_filler {
type: "constant"
value: 0
}
}
}
layer {
name: "relu1"
type: "ReLU"
bottom: "conv1"
top: "conv1"
}
layer {
name: "norm1"
type: "LRN"
bottom: "conv1"
top: "norm1"
lrn_param {
local_size: 5
alpha: 0.0001
beta: 0.75
}
}
layer {
name: "pool1"
type: "Pooling"
bottom: "norm1"
top: "pool1"
pooling_param {
pool: MAX
kernel_size: 3
stride: 2
}
}
layer {
name: "conv2"
type: "Convolution"
bottom: "pool1"
top: "conv2"
param {
lr_mult: 1
decay_mult: 1
}
param {
lr_mult: 2
decay_mult: 0
}
convolution_param {
num_output: 256
pad: 2
kernel_size: 5
group: 2
weight_filler {
type: "gaussian"
std: 0.01
}
bias_filler {
type: "constant"
value: 0.1
}
}
}
layer {
name: "relu2"
type: "ReLU"
bottom: "conv2"
top: "conv2"
}
layer {
name: "norm2"
type: "LRN"
bottom: "conv2"
top: "norm2"
lrn_param {
local_size: 5
alpha: 0.0001
beta: 0.75
}
}
layer {
name: "pool2"
type: "Pooling"
bottom: "norm2"
top: "pool2"
pooling_param {
pool: MAX
kernel_size: 3
stride: 2
}
}
layer {
name: "conv3"
type: "Convolution"
bottom: "pool2"
top: "conv3"
param {
lr_mult: 1
decay_mult: 1
}
param {
lr_mult: 2
decay_mult: 0
}
convolution_param {
num_output: 384
pad: 1
kernel_size: 3
weight_filler {
type: "gaussian"
std: 0.01
}
bias_filler {
type: "constant"
value: 0
}
}
}
layer {
name: "relu3"
type: "ReLU"
bottom: "conv3"
top: "conv3"
}
layer {
name: "conv4"
type: "Convolution"
bottom: "conv3"
top: "conv4"
param {
lr_mult: 1
decay_mult: 1
}
param {
lr_mult: 2
decay_mult: 0
}
convolution_param {
num_output: 384
pad: 1
kernel_size: 3
group: 2
weight_filler {
type: "gaussian"
std: 0.01
}
bias_filler {
type: "constant"
value: 0.1
}
}
}
layer {
name: "relu4"
type: "ReLU"
bottom: "conv4"
top: "conv4"
}
layer {
name: "conv5"
type: "Convolution"
bottom: "conv4"
top: "conv5"
param {
lr_mult: 1
decay_mult: 1
}
param {
lr_mult: 2
decay_mult: 0
}
convolution_param {
num_output: 256
pad: 1
kernel_size: 3
group: 2
weight_filler {
type: "gaussian"
std: 0.01
}
bias_filler {
type: "constant"
value: 0.1
}
}
}
layer {
name: "relu5"
type: "ReLU"
bottom: "conv5"
top: "conv5"
}
layer {
name: "pool5"
type: "Pooling"
bottom: "conv5"
top: "pool5"
pooling_param {
pool: MAX
kernel_size: 3
stride: 2
}
}
layer {
name: "fc6"
type: "InnerProduct"
bottom: "pool5"
top: "fc6"
param {
lr_mult: 1
decay_mult: 1
}
param {
lr_mult: 2
decay_mult: 0
}
inner_product_param {
num_output: 4096
weight_filler {
type: "gaussian"
std: 0.005
}
bias_filler {
type: "constant"
value: 0.1
}
}
}
layer {
name: "relu6"
type: "ReLU"
bottom: "fc6"
top: "fc6"
}
layer {
name: "drop6"
type: "Dropout"
bottom: "fc6"
top: "fc6"
dropout_param {
dropout_ratio: 0.5
}
}
layer {
name: "fc7"
type: "InnerProduct"
bottom: "fc6"
top: "fc7"
param {
lr_mult: 1
decay_mult: 1
}
param {
lr_mult: 2
decay_mult: 0
}
inner_product_param {
num_output: 4096
weight_filler {
type: "gaussian"
std: 0.005
}
bias_filler {
type: "constant"
value: 0.1
}
}
}
layer {
name: "relu7"
type: "ReLU"
bottom: "fc7"
top: "fc7"
}
layer {
name: "drop7"
type: "Dropout"
bottom: "fc7"
top: "fc7"
dropout_param {
dropout_ratio: 0.5
}
}
layer {
name: "fc8"
type: "InnerProduct"
bottom: "fc7"
top: "fc8"
param {
lr_mult: 1
decay_mult: 1
}
param {
lr_mult: 2
decay_mult: 0
}
inner_product_param {
num_output: 196
weight_filler {
type: "gaussian"
std: 0.01
}
bias_filler {
type: "constant"
value: 0
}
}
}
layer {
name: "loss"
type: "SoftmaxWithLoss"
bottom: "fc8"
bottom: "label"
top: "loss"
}
I0408 15:34:34.319823 27193 layer_factory.hpp:77] Creating layer train-data
I0408 15:34:34.322178 27193 db_lmdb.cpp:35] Opened lmdb /mnt/bigdisk/DIGITS-MAN-2/digits/jobs/20210407-214532-d396/train_db
I0408 15:34:34.322394 27193 net.cpp:84] Creating Layer train-data
I0408 15:34:34.322417 27193 net.cpp:380] train-data -> data
I0408 15:34:34.322448 27193 net.cpp:380] train-data -> label
I0408 15:34:34.322466 27193 data_transformer.cpp:25] Loading mean file from: /mnt/bigdisk/DIGITS-MAN-2/digits/jobs/20210407-214532-d396/mean.binaryproto
I0408 15:34:34.330838 27193 data_layer.cpp:45] output data size: 128,3,227,227
I0408 15:34:34.482754 27193 net.cpp:122] Setting up train-data
I0408 15:34:34.482779 27193 net.cpp:129] Top shape: 128 3 227 227 (19787136)
I0408 15:34:34.482784 27193 net.cpp:129] Top shape: 128 (128)
I0408 15:34:34.482787 27193 net.cpp:137] Memory required for data: 79149056
I0408 15:34:34.482797 27193 layer_factory.hpp:77] Creating layer conv1
I0408 15:34:34.482820 27193 net.cpp:84] Creating Layer conv1
I0408 15:34:34.482825 27193 net.cpp:406] conv1 <- data
I0408 15:34:34.482837 27193 net.cpp:380] conv1 -> conv1
I0408 15:34:35.056412 27193 net.cpp:122] Setting up conv1
I0408 15:34:35.056434 27193 net.cpp:129] Top shape: 128 96 55 55 (37171200)
I0408 15:34:35.056438 27193 net.cpp:137] Memory required for data: 227833856
I0408 15:34:35.056459 27193 layer_factory.hpp:77] Creating layer relu1
I0408 15:34:35.056470 27193 net.cpp:84] Creating Layer relu1
I0408 15:34:35.056474 27193 net.cpp:406] relu1 <- conv1
I0408 15:34:35.056481 27193 net.cpp:367] relu1 -> conv1 (in-place)
I0408 15:34:35.056790 27193 net.cpp:122] Setting up relu1
I0408 15:34:35.056799 27193 net.cpp:129] Top shape: 128 96 55 55 (37171200)
I0408 15:34:35.056802 27193 net.cpp:137] Memory required for data: 376518656
I0408 15:34:35.056807 27193 layer_factory.hpp:77] Creating layer norm1
I0408 15:34:35.056815 27193 net.cpp:84] Creating Layer norm1
I0408 15:34:35.056819 27193 net.cpp:406] norm1 <- conv1
I0408 15:34:35.056846 27193 net.cpp:380] norm1 -> norm1
I0408 15:34:35.057324 27193 net.cpp:122] Setting up norm1
I0408 15:34:35.057335 27193 net.cpp:129] Top shape: 128 96 55 55 (37171200)
I0408 15:34:35.057339 27193 net.cpp:137] Memory required for data: 525203456
I0408 15:34:35.057343 27193 layer_factory.hpp:77] Creating layer pool1
I0408 15:34:35.057353 27193 net.cpp:84] Creating Layer pool1
I0408 15:34:35.057356 27193 net.cpp:406] pool1 <- norm1
I0408 15:34:35.057363 27193 net.cpp:380] pool1 -> pool1
I0408 15:34:35.057399 27193 net.cpp:122] Setting up pool1
I0408 15:34:35.057406 27193 net.cpp:129] Top shape: 128 96 27 27 (8957952)
I0408 15:34:35.057410 27193 net.cpp:137] Memory required for data: 561035264
I0408 15:34:35.057413 27193 layer_factory.hpp:77] Creating layer conv2
I0408 15:34:35.057423 27193 net.cpp:84] Creating Layer conv2
I0408 15:34:35.057427 27193 net.cpp:406] conv2 <- pool1
I0408 15:34:35.057432 27193 net.cpp:380] conv2 -> conv2
I0408 15:34:35.064498 27193 net.cpp:122] Setting up conv2
I0408 15:34:35.064512 27193 net.cpp:129] Top shape: 128 256 27 27 (23887872)
I0408 15:34:35.064517 27193 net.cpp:137] Memory required for data: 656586752
I0408 15:34:35.064525 27193 layer_factory.hpp:77] Creating layer relu2
I0408 15:34:35.064532 27193 net.cpp:84] Creating Layer relu2
I0408 15:34:35.064536 27193 net.cpp:406] relu2 <- conv2
I0408 15:34:35.064543 27193 net.cpp:367] relu2 -> conv2 (in-place)
I0408 15:34:35.064996 27193 net.cpp:122] Setting up relu2
I0408 15:34:35.065007 27193 net.cpp:129] Top shape: 128 256 27 27 (23887872)
I0408 15:34:35.065011 27193 net.cpp:137] Memory required for data: 752138240
I0408 15:34:35.065014 27193 layer_factory.hpp:77] Creating layer norm2
I0408 15:34:35.065022 27193 net.cpp:84] Creating Layer norm2
I0408 15:34:35.065026 27193 net.cpp:406] norm2 <- conv2
I0408 15:34:35.065032 27193 net.cpp:380] norm2 -> norm2
I0408 15:34:35.065343 27193 net.cpp:122] Setting up norm2
I0408 15:34:35.065351 27193 net.cpp:129] Top shape: 128 256 27 27 (23887872)
I0408 15:34:35.065356 27193 net.cpp:137] Memory required for data: 847689728
I0408 15:34:35.065359 27193 layer_factory.hpp:77] Creating layer pool2
I0408 15:34:35.065366 27193 net.cpp:84] Creating Layer pool2
I0408 15:34:35.065371 27193 net.cpp:406] pool2 <- norm2
I0408 15:34:35.065376 27193 net.cpp:380] pool2 -> pool2
I0408 15:34:35.065403 27193 net.cpp:122] Setting up pool2
I0408 15:34:35.065408 27193 net.cpp:129] Top shape: 128 256 13 13 (5537792)
I0408 15:34:35.065412 27193 net.cpp:137] Memory required for data: 869840896
I0408 15:34:35.065415 27193 layer_factory.hpp:77] Creating layer conv3
I0408 15:34:35.065423 27193 net.cpp:84] Creating Layer conv3
I0408 15:34:35.065428 27193 net.cpp:406] conv3 <- pool2
I0408 15:34:35.065433 27193 net.cpp:380] conv3 -> conv3
I0408 15:34:35.076141 27193 net.cpp:122] Setting up conv3
I0408 15:34:35.076156 27193 net.cpp:129] Top shape: 128 384 13 13 (8306688)
I0408 15:34:35.076160 27193 net.cpp:137] Memory required for data: 903067648
I0408 15:34:35.076170 27193 layer_factory.hpp:77] Creating layer relu3
I0408 15:34:35.076179 27193 net.cpp:84] Creating Layer relu3
I0408 15:34:35.076182 27193 net.cpp:406] relu3 <- conv3
I0408 15:34:35.076189 27193 net.cpp:367] relu3 -> conv3 (in-place)
I0408 15:34:35.076640 27193 net.cpp:122] Setting up relu3
I0408 15:34:35.076651 27193 net.cpp:129] Top shape: 128 384 13 13 (8306688)
I0408 15:34:35.076655 27193 net.cpp:137] Memory required for data: 936294400
I0408 15:34:35.076659 27193 layer_factory.hpp:77] Creating layer conv4
I0408 15:34:35.076668 27193 net.cpp:84] Creating Layer conv4
I0408 15:34:35.076673 27193 net.cpp:406] conv4 <- conv3
I0408 15:34:35.076678 27193 net.cpp:380] conv4 -> conv4
I0408 15:34:35.087776 27193 net.cpp:122] Setting up conv4
I0408 15:34:35.087790 27193 net.cpp:129] Top shape: 128 384 13 13 (8306688)
I0408 15:34:35.087795 27193 net.cpp:137] Memory required for data: 969521152
I0408 15:34:35.087802 27193 layer_factory.hpp:77] Creating layer relu4
I0408 15:34:35.087811 27193 net.cpp:84] Creating Layer relu4
I0408 15:34:35.087833 27193 net.cpp:406] relu4 <- conv4
I0408 15:34:35.087839 27193 net.cpp:367] relu4 -> conv4 (in-place)
I0408 15:34:35.088197 27193 net.cpp:122] Setting up relu4
I0408 15:34:35.088207 27193 net.cpp:129] Top shape: 128 384 13 13 (8306688)
I0408 15:34:35.088209 27193 net.cpp:137] Memory required for data: 1002747904
I0408 15:34:35.088213 27193 layer_factory.hpp:77] Creating layer conv5
I0408 15:34:35.088223 27193 net.cpp:84] Creating Layer conv5
I0408 15:34:35.088227 27193 net.cpp:406] conv5 <- conv4
I0408 15:34:35.088234 27193 net.cpp:380] conv5 -> conv5
I0408 15:34:35.097184 27193 net.cpp:122] Setting up conv5
I0408 15:34:35.097196 27193 net.cpp:129] Top shape: 128 256 13 13 (5537792)
I0408 15:34:35.097200 27193 net.cpp:137] Memory required for data: 1024899072
I0408 15:34:35.097211 27193 layer_factory.hpp:77] Creating layer relu5
I0408 15:34:35.097218 27193 net.cpp:84] Creating Layer relu5
I0408 15:34:35.097223 27193 net.cpp:406] relu5 <- conv5
I0408 15:34:35.097229 27193 net.cpp:367] relu5 -> conv5 (in-place)
I0408 15:34:35.097743 27193 net.cpp:122] Setting up relu5
I0408 15:34:35.097754 27193 net.cpp:129] Top shape: 128 256 13 13 (5537792)
I0408 15:34:35.097756 27193 net.cpp:137] Memory required for data: 1047050240
I0408 15:34:35.097760 27193 layer_factory.hpp:77] Creating layer pool5
I0408 15:34:35.097769 27193 net.cpp:84] Creating Layer pool5
I0408 15:34:35.097771 27193 net.cpp:406] pool5 <- conv5
I0408 15:34:35.097779 27193 net.cpp:380] pool5 -> pool5
I0408 15:34:35.097816 27193 net.cpp:122] Setting up pool5
I0408 15:34:35.097822 27193 net.cpp:129] Top shape: 128 256 6 6 (1179648)
I0408 15:34:35.097826 27193 net.cpp:137] Memory required for data: 1051768832
I0408 15:34:35.097829 27193 layer_factory.hpp:77] Creating layer fc6
I0408 15:34:35.097841 27193 net.cpp:84] Creating Layer fc6
I0408 15:34:35.097844 27193 net.cpp:406] fc6 <- pool5
I0408 15:34:35.097849 27193 net.cpp:380] fc6 -> fc6
I0408 15:34:35.461639 27193 net.cpp:122] Setting up fc6
I0408 15:34:35.461659 27193 net.cpp:129] Top shape: 128 4096 (524288)
I0408 15:34:35.461663 27193 net.cpp:137] Memory required for data: 1053865984
I0408 15:34:35.461673 27193 layer_factory.hpp:77] Creating layer relu6
I0408 15:34:35.461683 27193 net.cpp:84] Creating Layer relu6
I0408 15:34:35.461688 27193 net.cpp:406] relu6 <- fc6
I0408 15:34:35.461694 27193 net.cpp:367] relu6 -> fc6 (in-place)
I0408 15:34:35.462340 27193 net.cpp:122] Setting up relu6
I0408 15:34:35.462350 27193 net.cpp:129] Top shape: 128 4096 (524288)
I0408 15:34:35.462353 27193 net.cpp:137] Memory required for data: 1055963136
I0408 15:34:35.462357 27193 layer_factory.hpp:77] Creating layer drop6
I0408 15:34:35.462364 27193 net.cpp:84] Creating Layer drop6
I0408 15:34:35.462368 27193 net.cpp:406] drop6 <- fc6
I0408 15:34:35.462373 27193 net.cpp:367] drop6 -> fc6 (in-place)
I0408 15:34:35.462400 27193 net.cpp:122] Setting up drop6
I0408 15:34:35.462405 27193 net.cpp:129] Top shape: 128 4096 (524288)
I0408 15:34:35.462409 27193 net.cpp:137] Memory required for data: 1058060288
I0408 15:34:35.462411 27193 layer_factory.hpp:77] Creating layer fc7
I0408 15:34:35.462420 27193 net.cpp:84] Creating Layer fc7
I0408 15:34:35.462424 27193 net.cpp:406] fc7 <- fc6
I0408 15:34:35.462428 27193 net.cpp:380] fc7 -> fc7
I0408 15:34:35.694792 27193 net.cpp:122] Setting up fc7
I0408 15:34:35.694818 27193 net.cpp:129] Top shape: 128 4096 (524288)
I0408 15:34:35.694823 27193 net.cpp:137] Memory required for data: 1060157440
I0408 15:34:35.694835 27193 layer_factory.hpp:77] Creating layer relu7
I0408 15:34:35.694846 27193 net.cpp:84] Creating Layer relu7
I0408 15:34:35.694851 27193 net.cpp:406] relu7 <- fc7
I0408 15:34:35.694859 27193 net.cpp:367] relu7 -> fc7 (in-place)
I0408 15:34:35.695616 27193 net.cpp:122] Setting up relu7
I0408 15:34:35.695628 27193 net.cpp:129] Top shape: 128 4096 (524288)
I0408 15:34:35.695633 27193 net.cpp:137] Memory required for data: 1062254592
I0408 15:34:35.695637 27193 layer_factory.hpp:77] Creating layer drop7
I0408 15:34:35.695645 27193 net.cpp:84] Creating Layer drop7
I0408 15:34:35.695672 27193 net.cpp:406] drop7 <- fc7
I0408 15:34:35.695680 27193 net.cpp:367] drop7 -> fc7 (in-place)
I0408 15:34:35.695710 27193 net.cpp:122] Setting up drop7
I0408 15:34:35.695717 27193 net.cpp:129] Top shape: 128 4096 (524288)
I0408 15:34:35.695721 27193 net.cpp:137] Memory required for data: 1064351744
I0408 15:34:35.695724 27193 layer_factory.hpp:77] Creating layer fc8
I0408 15:34:35.695734 27193 net.cpp:84] Creating Layer fc8
I0408 15:34:35.695739 27193 net.cpp:406] fc8 <- fc7
I0408 15:34:35.695746 27193 net.cpp:380] fc8 -> fc8
I0408 15:34:35.706001 27193 net.cpp:122] Setting up fc8
I0408 15:34:35.706013 27193 net.cpp:129] Top shape: 128 196 (25088)
I0408 15:34:35.706017 27193 net.cpp:137] Memory required for data: 1064452096
I0408 15:34:35.706025 27193 layer_factory.hpp:77] Creating layer loss
I0408 15:34:35.706034 27193 net.cpp:84] Creating Layer loss
I0408 15:34:35.706038 27193 net.cpp:406] loss <- fc8
I0408 15:34:35.706044 27193 net.cpp:406] loss <- label
I0408 15:34:35.706053 27193 net.cpp:380] loss -> loss
I0408 15:34:35.706063 27193 layer_factory.hpp:77] Creating layer loss
…
I0408 15:34:35.707584 27193 net.cpp:294] The NetState phase (1) differed from the phase (0) specified by a rule in layer train-data
I0408 15:34:35.707764 27193 net.cpp:51] Initializing net from parameters:
state {
phase: TEST
}
layer {
name: "val-data"
type: "Data"
top: "data"
top: "label"
include {
phase: TEST
}
transform_param {
crop_size: 227
mean_file: "/mnt/bigdisk/DIGITS-MAN-2/digits/jobs/20210407-214532-d396/mean.binaryproto"
}
data_param {
source: "/mnt/bigdisk/DIGITS-MAN-2/digits/jobs/20210407-214532-d396/val_db"
batch_size: 32
backend: LMDB
}
}
layer {
name: "conv1"
type: "Convolution"
bottom: "data"
top: "conv1"
param {
lr_mult: 1
decay_mult: 1
}
param {
lr_mult: 2
decay_mult: 0
}
convolution_param {
num_output: 96
kernel_size: 11
stride: 4
weight_filler {
type: "gaussian"
std: 0.01
}
bias_filler {
type: "constant"
value: 0
}
}
}
layer {
name: "relu1"
type: "ReLU"
bottom: "conv1"
top: "conv1"
}
layer {
name: "norm1"
type: "LRN"
bottom: "conv1"
top: "norm1"
lrn_param {
local_size: 5
alpha: 0.0001
beta: 0.75
}
}
layer {
name: "pool1"
type: "Pooling"
bottom: "norm1"
top: "pool1"
pooling_param {
pool: MAX
kernel_size: 3
stride: 2
}
}
layer {
name: "conv2"
type: "Convolution"
bottom: "pool1"
top: "conv2"
param {
lr_mult: 1
decay_mult: 1
}
param {
lr_mult: 2
decay_mult: 0
}
convolution_param {
num_output: 256
pad: 2
kernel_size: 5
group: 2
weight_filler {
type: "gaussian"
std: 0.01
}
bias_filler {
type: "constant"
value: 0.1
}
}
}
layer {
name: "relu2"
type: "ReLU"
bottom: "conv2"
top: "conv2"
}
layer {
name: "norm2"
type: "LRN"
bottom: "conv2"
top: "norm2"
lrn_param {
local_size: 5
alpha: 0.0001
beta: 0.75
}
}
layer {
name: "pool2"
type: "Pooling"
bottom: "norm2"
top: "pool2"
pooling_param {
pool: MAX
kernel_size: 3
stride: 2
}
}
layer {
name: "conv3"
type: "Convolution"
bottom: "pool2"
top: "conv3"
param {
lr_mult: 1
decay_mult: 1
}
param {
lr_mult: 2
decay_mult: 0
}
convolution_param {
num_output: 384
pad: 1
kernel_size: 3
weight_filler {
type: "gaussian"
std: 0.01
}
bias_filler {
type: "constant"
value: 0
}
}
}
layer {
name: "relu3"
type: "ReLU"
bottom: "conv3"
top: "conv3"
}
layer {
name: "conv4"
type: "Convolution"
bottom: "conv3"
top: "conv4"
param {
lr_mult: 1
decay_mult: 1
}
param {
lr_mult: 2
decay_mult: 0
}
convolution_param {
num_output: 384
pad: 1
kernel_size: 3
group: 2
weight_filler {
type: "gaussian"
std: 0.01
}
bias_filler {
type: "constant"
value: 0.1
}
}
}
layer {
name: "relu4"
type: "ReLU"
bottom: "conv4"
top: "conv4"
}
layer {
name: "conv5"
type: "Convolution"
bottom: "conv4"
top: "conv5"
param {
lr_mult: 1
decay_mult: 1
}
param {
lr_mult: 2
decay_mult: 0
}
convolution_param {
num_output: 256
pad: 1
kernel_size: 3
group: 2
weight_filler {
type: "gaussian"
std: 0.01
}
bias_filler {
type: "constant"
value: 0.1
}
}
}
layer {
name: "relu5"
type: "ReLU"
bottom: "conv5"
top: "conv5"
}
layer {
name: "pool5"
type: "Pooling"
bottom: "conv5"
top: "pool5"
pooling_param {
pool: MAX
kernel_size: 3
stride: 2
}
}
layer {
name: "fc6"
type: "InnerProduct"
bottom: "pool5"
top: "fc6"
param {
lr_mult: 1
decay_mult: 1
}
param {
lr_mult: 2
decay_mult: 0
}
inner_product_param {
num_output: 4096
weight_filler {
type: "gaussian"
std: 0.005
}
bias_filler {
type: "constant"
value: 0.1
}
}
}
layer {
name: "relu6"
type: "ReLU"
bottom: "fc6"
top: "fc6"
}
layer {
name: "drop6"
type: "Dropout"
bottom: "fc6"
top: "fc6"
dropout_param {
dropout_ratio: 0.5
}
}
layer {
name: "fc7"
type: "InnerProduct"
bottom: "fc6"
top: "fc7"
param {
lr_mult: 1
decay_mult: 1
}
param {
lr_mult: 2
decay_mult: 0
}
inner_product_param {
num_output: 4096
weight_filler {
type: "gaussian"
std: 0.005
}
bias_filler {
type: "constant"
value: 0.1
}
}
}
layer {
name: "relu7"
type: "ReLU"
bottom: "fc7"
top: "fc7"
}
layer {
name: "drop7"
type: "Dropout"
bottom: "fc7"
top: "fc7"
dropout_param {
dropout_ratio: 0.5
}
}
layer {
name: "fc8"
type: "InnerProduct"
bottom: "fc7"
top: "fc8"
param {
lr_mult: 1
decay_mult: 1
}
param {
lr_mult: 2
decay_mult: 0
}
inner_product_param {
num_output: 196
weight_filler {
type: "gaussian"
std: 0.01
}
bias_filler {
type: "constant"
value: 0
}
}
}
layer {
name: "accuracy"
type: "Accuracy"
bottom: "fc8"
bottom: "label"
top: "accuracy"
include {
phase: TEST
}
}
layer {
name: "loss"
type: "SoftmaxWithLoss"
bottom: "fc8"
bottom: "label"
top: "loss"
}
I0408 15:34:35.707888 27193 layer_factory.hpp:77] Creating layer val-data
I0408 15:34:35.709761 27193 db_lmdb.cpp:35] Opened lmdb /mnt/bigdisk/DIGITS-MAN-2/digits/jobs/20210407-214532-d396/val_db
I0408 15:34:35.709985 27193 net.cpp:84] Creating Layer val-data
I0408 15:34:35.709998 27193 net.cpp:380] val-data -> data
I0408 15:34:35.710008 27193 net.cpp:380] val-data -> label
I0408 15:34:35.710016 27193 data_transformer.cpp:25] Loading mean file from: /mnt/bigdisk/DIGITS-MAN-2/digits/jobs/20210407-214532-d396/mean.binaryproto
I0408 15:34:35.714972 27193 data_layer.cpp:45] output data size: 32,3,227,227
I0408 15:34:35.748775 27193 net.cpp:122] Setting up val-data
I0408 15:34:35.748798 27193 net.cpp:129] Top shape: 32 3 227 227 (4946784)
I0408 15:34:35.748803 27193 net.cpp:129] Top shape: 32 (32)
I0408 15:34:35.748806 27193 net.cpp:137] Memory required for data: 19787264
I0408 15:34:35.748813 27193 layer_factory.hpp:77] Creating layer label_val-data_1_split
I0408 15:34:35.748826 27193 net.cpp:84] Creating Layer label_val-data_1_split
I0408 15:34:35.748831 27193 net.cpp:406] label_val-data_1_split <- label
I0408 15:34:35.748838 27193 net.cpp:380] label_val-data_1_split -> label_val-data_1_split_0
I0408 15:34:35.748848 27193 net.cpp:380] label_val-data_1_split -> label_val-data_1_split_1
I0408 15:34:35.748898 27193 net.cpp:122] Setting up label_val-data_1_split
I0408 15:34:35.748904 27193 net.cpp:129] Top shape: 32 (32)
I0408 15:34:35.748908 27193 net.cpp:129] Top shape: 32 (32)
I0408 15:34:35.748911 27193 net.cpp:137] Memory required for data: 19787520
I0408 15:34:35.748915 27193 layer_factory.hpp:77] Creating layer conv1
I0408 15:34:35.748927 27193 net.cpp:84] Creating Layer conv1
I0408 15:34:35.748931 27193 net.cpp:406] conv1 <- data
I0408 15:34:35.748937 27193 net.cpp:380] conv1 -> conv1
I0408 15:34:35.754885 27193 net.cpp:122] Setting up conv1
I0408 15:34:35.754897 27193 net.cpp:129] Top shape: 32 96 55 55 (9292800)
I0408 15:34:35.754901 27193 net.cpp:137] Memory required for data: 56958720
I0408 15:34:35.754912 27193 layer_factory.hpp:77] Creating layer relu1
I0408 15:34:35.754920 27193 net.cpp:84] Creating Layer relu1
I0408 15:34:35.754923 27193 net.cpp:406] relu1 <- conv1
I0408 15:34:35.754928 27193 net.cpp:367] relu1 -> conv1 (in-place)
I0408 15:34:35.755250 27193 net.cpp:122] Setting up relu1
I0408 15:34:35.755259 27193 net.cpp:129] Top shape: 32 96 55 55 (9292800)
I0408 15:34:35.755262 27193 net.cpp:137] Memory required for data: 94129920
I0408 15:34:35.755266 27193 layer_factory.hpp:77] Creating layer norm1
I0408 15:34:35.755275 27193 net.cpp:84] Creating Layer norm1
I0408 15:34:35.755278 27193 net.cpp:406] norm1 <- conv1
I0408 15:34:35.755285 27193 net.cpp:380] norm1 -> norm1
I0408 15:34:35.755781 27193 net.cpp:122] Setting up norm1
I0408 15:34:35.755792 27193 net.cpp:129] Top shape: 32 96 55 55 (9292800)
I0408 15:34:35.755795 27193 net.cpp:137] Memory required for data: 131301120
I0408 15:34:35.755800 27193 layer_factory.hpp:77] Creating layer pool1
I0408 15:34:35.755807 27193 net.cpp:84] Creating Layer pool1
I0408 15:34:35.755811 27193 net.cpp:406] pool1 <- norm1
I0408 15:34:35.755817 27193 net.cpp:380] pool1 -> pool1
I0408 15:34:35.755848 27193 net.cpp:122] Setting up pool1
I0408 15:34:35.755853 27193 net.cpp:129] Top shape: 32 96 27 27 (2239488)
I0408 15:34:35.755857 27193 net.cpp:137] Memory required for data: 140259072
I0408 15:34:35.755861 27193 layer_factory.hpp:77] Creating layer conv2
I0408 15:34:35.755868 27193 net.cpp:84] Creating Layer conv2
I0408 15:34:35.755872 27193 net.cpp:406] conv2 <- pool1
I0408 15:34:35.755897 27193 net.cpp:380] conv2 -> conv2
I0408 15:34:35.765105 27193 net.cpp:122] Setting up conv2
I0408 15:34:35.765120 27193 net.cpp:129] Top shape: 32 256 27 27 (5971968)
I0408 15:34:35.765125 27193 net.cpp:137] Memory required for data: 164146944
I0408 15:34:35.765134 27193 layer_factory.hpp:77] Creating layer relu2
I0408 15:34:35.765143 27193 net.cpp:84] Creating Layer relu2
I0408 15:34:35.765148 27193 net.cpp:406] relu2 <- conv2
I0408 15:34:35.765153 27193 net.cpp:367] relu2 -> conv2 (in-place)
I0408 15:34:35.765713 27193 net.cpp:122] Setting up relu2
I0408 15:34:35.765724 27193 net.cpp:129] Top shape: 32 256 27 27 (5971968)
I0408 15:34:35.765728 27193 net.cpp:137] Memory required for data: 188034816
I0408 15:34:35.765733 27193 layer_factory.hpp:77] Creating layer norm2
I0408 15:34:35.765743 27193 net.cpp:84] Creating Layer norm2
I0408 15:34:35.765748 27193 net.cpp:406] norm2 <- conv2
I0408 15:34:35.765753 27193 net.cpp:380] norm2 -> norm2
I0408 15:34:35.766348 27193 net.cpp:122] Setting up norm2
I0408 15:34:35.766358 27193 net.cpp:129] Top shape: 32 256 27 27 (5971968)
I0408 15:34:35.766362 27193 net.cpp:137] Memory required for data: 211922688
I0408 15:34:35.766366 27193 layer_factory.hpp:77] Creating layer pool2
I0408 15:34:35.766373 27193 net.cpp:84] Creating Layer pool2
I0408 15:34:35.766377 27193 net.cpp:406] pool2 <- norm2
I0408 15:34:35.766383 27193 net.cpp:380] pool2 -> pool2
I0408 15:34:35.766415 27193 net.cpp:122] Setting up pool2
I0408 15:34:35.766422 27193 net.cpp:129] Top shape: 32 256 13 13 (1384448)
I0408 15:34:35.766424 27193 net.cpp:137] Memory required for data: 217460480
I0408 15:34:35.766428 27193 layer_factory.hpp:77] Creating layer conv3
I0408 15:34:35.766438 27193 net.cpp:84] Creating Layer conv3
I0408 15:34:35.766443 27193 net.cpp:406] conv3 <- pool2
I0408 15:34:35.766448 27193 net.cpp:380] conv3 -> conv3
I0408 15:34:35.778532 27193 net.cpp:122] Setting up conv3
I0408 15:34:35.778548 27193 net.cpp:129] Top shape: 32 384 13 13 (2076672)
I0408 15:34:35.778551 27193 net.cpp:137] Memory required for data: 225767168
I0408 15:34:35.778564 27193 layer_factory.hpp:77] Creating layer relu3
I0408 15:34:35.778573 27193 net.cpp:84] Creating Layer relu3
I0408 15:34:35.778578 27193 net.cpp:406] relu3 <- conv3
I0408 15:34:35.778584 27193 net.cpp:367] relu3 -> conv3 (in-place)
I0408 15:34:35.779296 27193 net.cpp:122] Setting up relu3
I0408 15:34:35.779309 27193 net.cpp:129] Top shape: 32 384 13 13 (2076672)
I0408 15:34:35.779311 27193 net.cpp:137] Memory required for data: 234073856
I0408 15:34:35.779315 27193 layer_factory.hpp:77] Creating layer conv4
I0408 15:34:35.779327 27193 net.cpp:84] Creating Layer conv4
I0408 15:34:35.779331 27193 net.cpp:406] conv4 <- conv3
I0408 15:34:35.779337 27193 net.cpp:380] conv4 -> conv4
I0408 15:34:35.789572 27193 net.cpp:122] Setting up conv4
I0408 15:34:35.789584 27193 net.cpp:129] Top shape: 32 384 13 13 (2076672)
I0408 15:34:35.789587 27193 net.cpp:137] Memory required for data: 242380544
I0408 15:34:35.789595 27193 layer_factory.hpp:77] Creating layer relu4
I0408 15:34:35.789606 27193 net.cpp:84] Creating Layer relu4
I0408 15:34:35.789610 27193 net.cpp:406] relu4 <- conv4
I0408 15:34:35.789615 27193 net.cpp:367] relu4 -> conv4 (in-place)
I0408 15:34:35.790004 27193 net.cpp:122] Setting up relu4
I0408 15:34:35.790014 27193 net.cpp:129] Top shape: 32 384 13 13 (2076672)
I0408 15:34:35.790017 27193 net.cpp:137] Memory required for data: 250687232
I0408 15:34:35.790020 27193 layer_factory.hpp:77] Creating layer conv5
I0408 15:34:35.790030 27193 net.cpp:84] Creating Layer conv5
I0408 15:34:35.790035 27193 net.cpp:406] conv5 <- conv4
I0408 15:34:35.790042 27193 net.cpp:380] conv5 -> conv5
I0408 15:34:35.802616 27193 net.cpp:122] Setting up conv5
I0408 15:34:35.802634 27193 net.cpp:129] Top shape: 32 256 13 13 (1384448)
I0408 15:34:35.802639 27193 net.cpp:137] Memory required for data: 256225024
I0408 15:34:35.802651 27193 layer_factory.hpp:77] Creating layer relu5
I0408 15:34:35.802659 27193 net.cpp:84] Creating Layer relu5
I0408 15:34:35.802664 27193 net.cpp:406] relu5 <- conv5
I0408 15:34:35.802688 27193 net.cpp:367] relu5 -> conv5 (in-place)
I0408 15:34:35.803216 27193 net.cpp:122] Setting up relu5
I0408 15:34:35.803227 27193 net.cpp:129] Top shape: 32 256 13 13 (1384448)
I0408 15:34:35.803231 27193 net.cpp:137] Memory required for data: 261762816
I0408 15:34:35.803236 27193 layer_factory.hpp:77] Creating layer pool5
I0408 15:34:35.803246 27193 net.cpp:84] Creating Layer pool5
I0408 15:34:35.803251 27193 net.cpp:406] pool5 <- conv5
I0408 15:34:35.803256 27193 net.cpp:380] pool5 -> pool5
I0408 15:34:35.803297 27193 net.cpp:122] Setting up pool5
I0408 15:34:35.803303 27193 net.cpp:129] Top shape: 32 256 6 6 (294912)
I0408 15:34:35.803308 27193 net.cpp:137] Memory required for data: 262942464
I0408 15:34:35.803310 27193 layer_factory.hpp:77] Creating layer fc6
I0408 15:34:35.803318 27193 net.cpp:84] Creating Layer fc6
I0408 15:34:35.803321 27193 net.cpp:406] fc6 <- pool5
I0408 15:34:35.803328 27193 net.cpp:380] fc6 -> fc6
I0408 15:34:36.189455 27193 net.cpp:122] Setting up fc6
I0408 15:34:36.189476 27193 net.cpp:129] Top shape: 32 4096 (131072)
I0408 15:34:36.189481 27193 net.cpp:137] Memory required for data: 263466752
I0408 15:34:36.189489 27193 layer_factory.hpp:77] Creating layer relu6
I0408 15:34:36.189498 27193 net.cpp:84] Creating Layer relu6
I0408 15:34:36.189503 27193 net.cpp:406] relu6 <- fc6
I0408 15:34:36.189509 27193 net.cpp:367] relu6 -> fc6 (in-place)
I0408 15:34:36.190402 27193 net.cpp:122] Setting up relu6
I0408 15:34:36.190413 27193 net.cpp:129] Top shape: 32 4096 (131072)
I0408 15:34:36.190418 27193 net.cpp:137] Memory required for data: 263991040
I0408 15:34:36.190421 27193 layer_factory.hpp:77] Creating layer drop6
I0408 15:34:36.190428 27193 net.cpp:84] Creating Layer drop6
I0408 15:34:36.190433 27193 net.cpp:406] drop6 <- fc6
I0408 15:34:36.190438 27193 net.cpp:367] drop6 -> fc6 (in-place)
I0408 15:34:36.190466 27193 net.cpp:122] Setting up drop6
I0408 15:34:36.190472 27193 net.cpp:129] Top shape: 32 4096 (131072)
I0408 15:34:36.190475 27193 net.cpp:137] Memory required for data: 264515328
I0408 15:34:36.190479 27193 layer_factory.hpp:77] Creating layer fc7
I0408 15:34:36.190486 27193 net.cpp:84] Creating Layer fc7
I0408 15:34:36.190490 27193 net.cpp:406] fc7 <- fc6
I0408 15:34:36.190495 27193 net.cpp:380] fc7 -> fc7
I0408 15:34:36.362629 27193 net.cpp:122] Setting up fc7
I0408 15:34:36.362650 27193 net.cpp:129] Top shape: 32 4096 (131072)
I0408 15:34:36.362654 27193 net.cpp:137] Memory required for data: 265039616
I0408 15:34:36.362664 27193 layer_factory.hpp:77] Creating layer relu7
I0408 15:34:36.362673 27193 net.cpp:84] Creating Layer relu7
I0408 15:34:36.362679 27193 net.cpp:406] relu7 <- fc7
I0408 15:34:36.362685 27193 net.cpp:367] relu7 -> fc7 (in-place)
I0408 15:34:36.363142 27193 net.cpp:122] Setting up relu7
I0408 15:34:36.363152 27193 net.cpp:129] Top shape: 32 4096 (131072)
I0408 15:34:36.363154 27193 net.cpp:137] Memory required for data: 265563904
I0408 15:34:36.363158 27193 layer_factory.hpp:77] Creating layer drop7
I0408 15:34:36.363166 27193 net.cpp:84] Creating Layer drop7
I0408 15:34:36.363170 27193 net.cpp:406] drop7 <- fc7
I0408 15:34:36.363175 27193 net.cpp:367] drop7 -> fc7 (in-place)
I0408 15:34:36.363201 27193 net.cpp:122] Setting up drop7
I0408 15:34:36.363206 27193 net.cpp:129] Top shape: 32 4096 (131072)
I0408 15:34:36.363209 27193 net.cpp:137] Memory required for data: 266088192
I0408 15:34:36.363214 27193 layer_factory.hpp:77] Creating layer fc8
I0408 15:34:36.363220 27193 net.cpp:84] Creating Layer fc8
I0408 15:34:36.363225 27193 net.cpp:406] fc8 <- fc7
I0408 15:34:36.363230 27193 net.cpp:380] fc8 -> fc8
I0408 15:34:36.371691 27193 net.cpp:122] Setting up fc8
I0408 15:34:36.371701 27193 net.cpp:129] Top shape: 32 196 (6272)
I0408 15:34:36.371706 27193 net.cpp:137] Memory required for data: 266113280
I0408 15:34:36.371711 27193 layer_factory.hpp:77] Creating layer fc8_fc8_0_split
I0408 15:34:36.371721 27193 net.cpp:84] Creating Layer fc8_fc8_0_split
I0408 15:34:36.371723 27193 net.cpp:406] fc8_fc8_0_split <- fc8
I0408 15:34:36.371747 27193 net.cpp:380] fc8_fc8_0_split -> fc8_fc8_0_split_0
I0408 15:34:36.371754 27193 net.cpp:380] fc8_fc8_0_split -> fc8_fc8_0_split_1
I0408 15:34:36.371791 27193 net.cpp:122] Setting up fc8_fc8_0_split
I0408 15:34:36.371796 27193 net.cpp:129] Top shape: 32 196 (6272)
I0408 15:34:36.371800 27193 net.cpp:129] Top shape: 32 196 (6272)
I0408 15:34:36.371803 27193 net.cpp:137] Memory required for data: 266163456
I0408 15:34:36.371806 27193 layer_factory.hpp:77] Creating layer accuracy
I0408 15:34:36.371814 27193 net.cpp:84] Creating Layer accuracy
I0408 15:34:36.371816 27193 net.cpp:406] accuracy <- fc8_fc8_0_split_0
I0408 15:34:36.371821 27193 net.cpp:406] accuracy <- label_val-data_1_split_0
I0408 15:34:36.371827 27193 net.cpp:380] accuracy -> accuracy
…
