…
I0428 14:47:43.575989  2424 net.cpp:294] The NetState phase (0) differed from the phase (1) specified by a rule in layer accuracy
I0428 14:47:43.576133  2424 net.cpp:51] Initializing net from parameters:
state {
phase: TRAIN
level: 0
stage: ""
}
layer {
name: "train-data"
type: "Data"
top: "data"
top: "label"
include {
phase: TRAIN
}
transform_param {
mirror: true
crop_size: 227
mean_file: "/mnt/bigdisk/DIGITS-MAN-3/digits/jobs/20210421-230320-902c/mean.binaryproto"
}
data_param {
source: "/mnt/bigdisk/DIGITS-MAN-3/digits/jobs/20210421-230320-902c/train_db"
batch_size: 128
backend: LMDB
}
}
layer {
name: "conv1"
type: "Convolution"
bottom: "data"
top: "conv1"
param {
lr_mult: 1
decay_mult: 1
}
param {
lr_mult: 2
decay_mult: 0
}
convolution_param {
num_output: 96
kernel_size: 11
stride: 4
weight_filler {
type: "gaussian"
std: 0.01
}
bias_filler {
type: "constant"
value: 0
}
}
}
layer {
name: "relu1"
type: "ReLU"
bottom: "conv1"
top: "conv1"
}
layer {
name: "norm1"
type: "LRN"
bottom: "conv1"
top: "norm1"
lrn_param {
local_size: 5
alpha: 0.0001
beta: 0.75
}
}
layer {
name: "pool1"
type: "Pooling"
bottom: "norm1"
top: "pool1"
pooling_param {
pool: MAX
kernel_size: 3
stride: 2
}
}
layer {
name: "conv1.5"
type: "Convolution"
bottom: "pool1"
top: "conv1.5"
param {
lr_mult: 1
decay_mult: 1
}
param {
lr_mult: 2
decay_mult: 0
}
convolution_param {
num_output: 96
kernel_size: 7
stride: 1
weight_filler {
type: "gaussian"
std: 0.01
}
bias_filler {
type: "constant"
value: 0
}
}
}
layer {
name: "relu1.5"
type: "ReLU"
bottom: "conv1.5"
top: "conv1.5"
}
layer {
name: "norm1.5"
type: "LRN"
bottom: "conv1.5"
top: "norm1.5"
lrn_param {
local_size: 5
alpha: 0.0001
beta: 0.75
}
}
layer {
name: "pool1.5"
type: "Pooling"
bottom: "norm1.5"
top: "pool1.5"
pooling_param {
pool: MAX
kernel_size: 3
stride: 2
}
}
layer {
name: "conv2"
type: "Convolution"
bottom: "pool1.5"
top: "conv2"
param {
lr_mult: 1
decay_mult: 1
}
param {
lr_mult: 2
decay_mult: 0
}
convolution_param {
num_output: 256
pad: 2
kernel_size: 5
group: 2
weight_filler {
type: "gaussian"
std: 0.01
}
bias_filler {
type: "constant"
value: 0.1
}
}
}
layer {
name: "relu2"
type: "ReLU"
bottom: "conv2"
top: "conv2"
}
layer {
name: "norm2"
type: "LRN"
bottom: "conv2"
top: "norm2"
lrn_param {
local_size: 5
alpha: 0.0001
beta: 0.75
}
}
layer {
name: "pool2"
type: "Pooling"
bottom: "norm2"
top: "pool2"
pooling_param {
pool: MAX
kernel_size: 3
stride: 2
}
}
layer {
name: "conv3"
type: "Convolution"
bottom: "pool2"
top: "conv3"
param {
lr_mult: 1
decay_mult: 1
}
param {
lr_mult: 2
decay_mult: 0
}
convolution_param {
num_output: 384
pad: 1
kernel_size: 3
weight_filler {
type: "gaussian"
std: 0.01
}
bias_filler {
type: "constant"
value: 0
}
}
}
layer {
name: "relu3"
type: "ReLU"
bottom: "conv3"
top: "conv3"
}
layer {
name: "conv4"
type: "Convolution"
bottom: "conv3"
top: "conv4"
param {
lr_mult: 1
decay_mult: 1
}
param {
lr_mult: 2
decay_mult: 0
}
convolution_param {
num_output: 384
pad: 1
kernel_size: 3
group: 2
weight_filler {
type: "gaussian"
std: 0.01
}
bias_filler {
type: "constant"
value: 0.1
}
}
}
layer {
name: "relu4"
type: "ReLU"
bottom: "conv4"
top: "conv4"
}
layer {
name: "conv5"
type: "Convolution"
bottom: "conv4"
top: "conv5"
param {
lr_mult: 1
decay_mult: 1
}
param {
lr_mult: 2
decay_mult: 0
}
convolution_param {
num_output: 256
pad: 1
kernel_size: 3
group: 2
weight_filler {
type: "gaussian"
std: 0.01
}
bias_filler {
type: "constant"
value: 0.1
}
}
}
layer {
name: "relu5"
type: "ReLU"
bottom: "conv5"
top: "conv5"
}
layer {
name: "pool5"
type: "Pooling"
bottom: "conv5"
top: "pool5"
pooling_param {
pool: MAX
kernel_size: 3
stride: 2
}
}
layer {
name: "fc6"
type: "InnerProduct"
bottom: "pool5"
top: "fc6"
param {
lr_mult: 1
decay_mult: 1
}
param {
lr_mult: 2
decay_mult: 0
}
inner_product_param {
num_output: 4096
weight_filler {
type: "gaussian"
std: 0.005
}
bias_filler {
type: "constant"
value: 0.1
}
}
}
layer {
name: "relu6"
type: "ReLU"
bottom: "fc6"
top: "fc6"
}
layer {
name: "drop6"
type: "Dropout"
bottom: "fc6"
top: "fc6"
dropout_param {
dropout_ratio: 0.5
}
}
layer {
name: "fc7"
type: "InnerProduct"
bottom: "fc6"
top: "fc7"
param {
lr_mult: 1
decay_mult: 1
}
param {
lr_mult: 2
decay_mult: 0
}
inner_product_param {
num_output: 4096
weight_filler {
type: "gaussian"
std: 0.005
}
bias_filler {
type: "constant"
value: 0.1
}
}
}
layer {
name: "relu7"
type: "ReLU"
bottom: "fc7"
top: "fc7"
}
layer {
name: "drop7"
type: "Dropout"
bottom: "fc7"
top: "fc7"
dropout_param {
dropout_ratio: 0.5
}
}
layer {
name: "fc8"
type: "InnerProduct"
bottom: "fc7"
top: "fc8"
param {
lr_mult: 1
decay_mult: 1
}
param {
lr_mult: 2
decay_mult: 0
}
inner_product_param {
num_output: 196
weight_filler {
type: "gaussian"
std: 0.01
}
bias_filler {
type: "constant"
value: 0
}
}
}
layer {
name: "loss"
type: "SoftmaxWithLoss"
bottom: "fc8"
bottom: "label"
top: "loss"
}
I0428 14:47:43.576223  2424 layer_factory.hpp:77] Creating layer train-data
I0428 14:47:43.577881  2424 db_lmdb.cpp:35] Opened lmdb /mnt/bigdisk/DIGITS-MAN-3/digits/jobs/20210421-230320-902c/train_db
I0428 14:47:43.578086  2424 net.cpp:84] Creating Layer train-data
I0428 14:47:43.578097  2424 net.cpp:380] train-data -> data
I0428 14:47:43.578115  2424 net.cpp:380] train-data -> label
I0428 14:47:43.578126  2424 data_transformer.cpp:25] Loading mean file from: /mnt/bigdisk/DIGITS-MAN-3/digits/jobs/20210421-230320-902c/mean.binaryproto
I0428 14:47:43.583619  2424 data_layer.cpp:45] output data size: 128,3,227,227
I0428 14:47:43.796463  2424 net.cpp:122] Setting up train-data
I0428 14:47:43.796519  2424 net.cpp:129] Top shape: 128 3 227 227 (19787136)
I0428 14:47:43.796527  2424 net.cpp:129] Top shape: 128 (128)
I0428 14:47:43.796533  2424 net.cpp:137] Memory required for data: 79149056
I0428 14:47:43.796546  2424 layer_factory.hpp:77] Creating layer conv1
I0428 14:47:43.796574  2424 net.cpp:84] Creating Layer conv1
I0428 14:47:43.796584  2424 net.cpp:406] conv1 <- data
I0428 14:47:43.796602  2424 net.cpp:380] conv1 -> conv1
I0428 14:47:44.606153  2424 net.cpp:122] Setting up conv1
I0428 14:47:44.606196  2424 net.cpp:129] Top shape: 128 96 55 55 (37171200)
I0428 14:47:44.606200  2424 net.cpp:137] Memory required for data: 227833856
I0428 14:47:44.606220  2424 layer_factory.hpp:77] Creating layer relu1
I0428 14:47:44.606230  2424 net.cpp:84] Creating Layer relu1
I0428 14:47:44.606235  2424 net.cpp:406] relu1 <- conv1
I0428 14:47:44.606241  2424 net.cpp:367] relu1 -> conv1 (in-place)
I0428 14:47:44.606524  2424 net.cpp:122] Setting up relu1
I0428 14:47:44.606534  2424 net.cpp:129] Top shape: 128 96 55 55 (37171200)
I0428 14:47:44.606537  2424 net.cpp:137] Memory required for data: 376518656
I0428 14:47:44.606540  2424 layer_factory.hpp:77] Creating layer norm1
I0428 14:47:44.606549  2424 net.cpp:84] Creating Layer norm1
I0428 14:47:44.606554  2424 net.cpp:406] norm1 <- conv1
I0428 14:47:44.606559  2424 net.cpp:380] norm1 -> norm1
I0428 14:47:44.606997  2424 net.cpp:122] Setting up norm1
I0428 14:47:44.607007  2424 net.cpp:129] Top shape: 128 96 55 55 (37171200)
I0428 14:47:44.607012  2424 net.cpp:137] Memory required for data: 525203456
I0428 14:47:44.607015  2424 layer_factory.hpp:77] Creating layer pool1
I0428 14:47:44.607023  2424 net.cpp:84] Creating Layer pool1
I0428 14:47:44.607026  2424 net.cpp:406] pool1 <- norm1
I0428 14:47:44.607031  2424 net.cpp:380] pool1 -> pool1
I0428 14:47:44.607067  2424 net.cpp:122] Setting up pool1
I0428 14:47:44.607074  2424 net.cpp:129] Top shape: 128 96 27 27 (8957952)
I0428 14:47:44.607076  2424 net.cpp:137] Memory required for data: 561035264
I0428 14:47:44.607079  2424 layer_factory.hpp:77] Creating layer conv1.5
I0428 14:47:44.607089  2424 net.cpp:84] Creating Layer conv1.5
I0428 14:47:44.607093  2424 net.cpp:406] conv1.5 <- pool1
I0428 14:47:44.607098  2424 net.cpp:380] conv1.5 -> conv1.5
I0428 14:47:44.615520  2424 net.cpp:122] Setting up conv1.5
I0428 14:47:44.615536  2424 net.cpp:129] Top shape: 128 96 21 21 (5419008)
I0428 14:47:44.615541  2424 net.cpp:137] Memory required for data: 582711296
I0428 14:47:44.615550  2424 layer_factory.hpp:77] Creating layer relu1.5
I0428 14:47:44.615558  2424 net.cpp:84] Creating Layer relu1.5
I0428 14:47:44.615562  2424 net.cpp:406] relu1.5 <- conv1.5
I0428 14:47:44.615567  2424 net.cpp:367] relu1.5 -> conv1.5 (in-place)
I0428 14:47:44.615849  2424 net.cpp:122] Setting up relu1.5
I0428 14:47:44.615856  2424 net.cpp:129] Top shape: 128 96 21 21 (5419008)
I0428 14:47:44.615860  2424 net.cpp:137] Memory required for data: 604387328
I0428 14:47:44.615864  2424 layer_factory.hpp:77] Creating layer norm1.5
I0428 14:47:44.615871  2424 net.cpp:84] Creating Layer norm1.5
I0428 14:47:44.615875  2424 net.cpp:406] norm1.5 <- conv1.5
I0428 14:47:44.615880  2424 net.cpp:380] norm1.5 -> norm1.5
I0428 14:47:44.617368  2424 net.cpp:122] Setting up norm1.5
I0428 14:47:44.617379  2424 net.cpp:129] Top shape: 128 96 21 21 (5419008)
I0428 14:47:44.617383  2424 net.cpp:137] Memory required for data: 626063360
I0428 14:47:44.617388  2424 layer_factory.hpp:77] Creating layer pool1.5
I0428 14:47:44.617395  2424 net.cpp:84] Creating Layer pool1.5
I0428 14:47:44.617398  2424 net.cpp:406] pool1.5 <- norm1.5
I0428 14:47:44.617404  2424 net.cpp:380] pool1.5 -> pool1.5
I0428 14:47:44.617434  2424 net.cpp:122] Setting up pool1.5
I0428 14:47:44.617440  2424 net.cpp:129] Top shape: 128 96 10 10 (1228800)
I0428 14:47:44.617444  2424 net.cpp:137] Memory required for data: 630978560
I0428 14:47:44.617447  2424 layer_factory.hpp:77] Creating layer conv2
I0428 14:47:44.617455  2424 net.cpp:84] Creating Layer conv2
I0428 14:47:44.617460  2424 net.cpp:406] conv2 <- pool1.5
I0428 14:47:44.617465  2424 net.cpp:380] conv2 -> conv2
I0428 14:47:44.623548  2424 net.cpp:122] Setting up conv2
I0428 14:47:44.623561  2424 net.cpp:129] Top shape: 128 256 10 10 (3276800)
I0428 14:47:44.623566  2424 net.cpp:137] Memory required for data: 644085760
I0428 14:47:44.623577  2424 layer_factory.hpp:77] Creating layer relu2
I0428 14:47:44.623585  2424 net.cpp:84] Creating Layer relu2
I0428 14:47:44.623589  2424 net.cpp:406] relu2 <- conv2
I0428 14:47:44.623596  2424 net.cpp:367] relu2 -> conv2 (in-place)
I0428 14:47:44.624114  2424 net.cpp:122] Setting up relu2
I0428 14:47:44.624125  2424 net.cpp:129] Top shape: 128 256 10 10 (3276800)
I0428 14:47:44.624130  2424 net.cpp:137] Memory required for data: 657192960
I0428 14:47:44.624133  2424 layer_factory.hpp:77] Creating layer norm2
I0428 14:47:44.624142  2424 net.cpp:84] Creating Layer norm2
I0428 14:47:44.624146  2424 net.cpp:406] norm2 <- conv2
I0428 14:47:44.624152  2424 net.cpp:380] norm2 -> norm2
I0428 14:47:44.624537  2424 net.cpp:122] Setting up norm2
I0428 14:47:44.624547  2424 net.cpp:129] Top shape: 128 256 10 10 (3276800)
I0428 14:47:44.624550  2424 net.cpp:137] Memory required for data: 670300160
I0428 14:47:44.624554  2424 layer_factory.hpp:77] Creating layer pool2
I0428 14:47:44.624562  2424 net.cpp:84] Creating Layer pool2
I0428 14:47:44.624565  2424 net.cpp:406] pool2 <- norm2
I0428 14:47:44.624572  2424 net.cpp:380] pool2 -> pool2
I0428 14:47:44.624601  2424 net.cpp:122] Setting up pool2
I0428 14:47:44.624606  2424 net.cpp:129] Top shape: 128 256 5 5 (819200)
I0428 14:47:44.624610  2424 net.cpp:137] Memory required for data: 673576960
I0428 14:47:44.624614  2424 layer_factory.hpp:77] Creating layer conv3
I0428 14:47:44.624624  2424 net.cpp:84] Creating Layer conv3
I0428 14:47:44.624627  2424 net.cpp:406] conv3 <- pool2
I0428 14:47:44.624632  2424 net.cpp:380] conv3 -> conv3
I0428 14:47:44.636656  2424 net.cpp:122] Setting up conv3
I0428 14:47:44.636674  2424 net.cpp:129] Top shape: 128 384 5 5 (1228800)
I0428 14:47:44.636678  2424 net.cpp:137] Memory required for data: 678492160
I0428 14:47:44.636687  2424 layer_factory.hpp:77] Creating layer relu3
I0428 14:47:44.636695  2424 net.cpp:84] Creating Layer relu3
I0428 14:47:44.636700  2424 net.cpp:406] relu3 <- conv3
I0428 14:47:44.636706  2424 net.cpp:367] relu3 -> conv3 (in-place)
I0428 14:47:44.637210  2424 net.cpp:122] Setting up relu3
I0428 14:47:44.637220  2424 net.cpp:129] Top shape: 128 384 5 5 (1228800)
I0428 14:47:44.637224  2424 net.cpp:137] Memory required for data: 683407360
I0428 14:47:44.637228  2424 layer_factory.hpp:77] Creating layer conv4
I0428 14:47:44.637239  2424 net.cpp:84] Creating Layer conv4
I0428 14:47:44.637243  2424 net.cpp:406] conv4 <- conv3
I0428 14:47:44.637251  2424 net.cpp:380] conv4 -> conv4
I0428 14:47:44.653748  2424 net.cpp:122] Setting up conv4
I0428 14:47:44.653766  2424 net.cpp:129] Top shape: 128 384 5 5 (1228800)
I0428 14:47:44.653771  2424 net.cpp:137] Memory required for data: 688322560
I0428 14:47:44.653784  2424 layer_factory.hpp:77] Creating layer relu4
I0428 14:47:44.653796  2424 net.cpp:84] Creating Layer relu4
I0428 14:47:44.653801  2424 net.cpp:406] relu4 <- conv4
I0428 14:47:44.653810  2424 net.cpp:367] relu4 -> conv4 (in-place)
I0428 14:47:44.654464  2424 net.cpp:122] Setting up relu4
I0428 14:47:44.654476  2424 net.cpp:129] Top shape: 128 384 5 5 (1228800)
I0428 14:47:44.654480  2424 net.cpp:137] Memory required for data: 693237760
I0428 14:47:44.654485  2424 layer_factory.hpp:77] Creating layer conv5
I0428 14:47:44.654498  2424 net.cpp:84] Creating Layer conv5
I0428 14:47:44.654502  2424 net.cpp:406] conv5 <- conv4
I0428 14:47:44.654510  2424 net.cpp:380] conv5 -> conv5
I0428 14:47:44.667129  2424 net.cpp:122] Setting up conv5
I0428 14:47:44.667146  2424 net.cpp:129] Top shape: 128 256 5 5 (819200)
I0428 14:47:44.667150  2424 net.cpp:137] Memory required for data: 696514560
I0428 14:47:44.667158  2424 layer_factory.hpp:77] Creating layer relu5
I0428 14:47:44.667169  2424 net.cpp:84] Creating Layer relu5
I0428 14:47:44.667174  2424 net.cpp:406] relu5 <- conv5
I0428 14:47:44.667181  2424 net.cpp:367] relu5 -> conv5 (in-place)
I0428 14:47:44.667676  2424 net.cpp:122] Setting up relu5
I0428 14:47:44.667686  2424 net.cpp:129] Top shape: 128 256 5 5 (819200)
I0428 14:47:44.667690  2424 net.cpp:137] Memory required for data: 699791360
I0428 14:47:44.667695  2424 layer_factory.hpp:77] Creating layer pool5
I0428 14:47:44.667701  2424 net.cpp:84] Creating Layer pool5
I0428 14:47:44.667706  2424 net.cpp:406] pool5 <- conv5
I0428 14:47:44.667713  2424 net.cpp:380] pool5 -> pool5
I0428 14:47:44.667770  2424 net.cpp:122] Setting up pool5
I0428 14:47:44.667778  2424 net.cpp:129] Top shape: 128 256 2 2 (131072)
I0428 14:47:44.667780  2424 net.cpp:137] Memory required for data: 700315648
I0428 14:47:44.667784  2424 layer_factory.hpp:77] Creating layer fc6
I0428 14:47:44.667793  2424 net.cpp:84] Creating Layer fc6
I0428 14:47:44.667798  2424 net.cpp:406] fc6 <- pool5
I0428 14:47:44.667804  2424 net.cpp:380] fc6 -> fc6
I0428 14:47:44.709672  2424 net.cpp:122] Setting up fc6
I0428 14:47:44.709692  2424 net.cpp:129] Top shape: 128 4096 (524288)
I0428 14:47:44.709697  2424 net.cpp:137] Memory required for data: 702412800
I0428 14:47:44.709705  2424 layer_factory.hpp:77] Creating layer relu6
I0428 14:47:44.709714  2424 net.cpp:84] Creating Layer relu6
I0428 14:47:44.709719  2424 net.cpp:406] relu6 <- fc6
I0428 14:47:44.709726  2424 net.cpp:367] relu6 -> fc6 (in-place)
I0428 14:47:44.718650  2424 net.cpp:122] Setting up relu6
I0428 14:47:44.718664  2424 net.cpp:129] Top shape: 128 4096 (524288)
I0428 14:47:44.718668  2424 net.cpp:137] Memory required for data: 704509952
I0428 14:47:44.718673  2424 layer_factory.hpp:77] Creating layer drop6
I0428 14:47:44.718683  2424 net.cpp:84] Creating Layer drop6
I0428 14:47:44.718688  2424 net.cpp:406] drop6 <- fc6
I0428 14:47:44.718693  2424 net.cpp:367] drop6 -> fc6 (in-place)
I0428 14:47:44.718725  2424 net.cpp:122] Setting up drop6
I0428 14:47:44.718731  2424 net.cpp:129] Top shape: 128 4096 (524288)
I0428 14:47:44.718735  2424 net.cpp:137] Memory required for data: 706607104
I0428 14:47:44.718739  2424 layer_factory.hpp:77] Creating layer fc7
I0428 14:47:44.718747  2424 net.cpp:84] Creating Layer fc7
I0428 14:47:44.718751  2424 net.cpp:406] fc7 <- fc6
I0428 14:47:44.718758  2424 net.cpp:380] fc7 -> fc7
I0428 14:47:44.910215  2424 net.cpp:122] Setting up fc7
I0428 14:47:44.910236  2424 net.cpp:129] Top shape: 128 4096 (524288)
I0428 14:47:44.910240  2424 net.cpp:137] Memory required for data: 708704256
I0428 14:47:44.910250  2424 layer_factory.hpp:77] Creating layer relu7
I0428 14:47:44.910259  2424 net.cpp:84] Creating Layer relu7
I0428 14:47:44.910264  2424 net.cpp:406] relu7 <- fc7
I0428 14:47:44.910272  2424 net.cpp:367] relu7 -> fc7 (in-place)
I0428 14:47:44.910691  2424 net.cpp:122] Setting up relu7
I0428 14:47:44.910701  2424 net.cpp:129] Top shape: 128 4096 (524288)
I0428 14:47:44.910704  2424 net.cpp:137] Memory required for data: 710801408
I0428 14:47:44.910709  2424 layer_factory.hpp:77] Creating layer drop7
I0428 14:47:44.910717  2424 net.cpp:84] Creating Layer drop7
I0428 14:47:44.910722  2424 net.cpp:406] drop7 <- fc7
I0428 14:47:44.910727  2424 net.cpp:367] drop7 -> fc7 (in-place)
I0428 14:47:44.910753  2424 net.cpp:122] Setting up drop7
I0428 14:47:44.910758  2424 net.cpp:129] Top shape: 128 4096 (524288)
I0428 14:47:44.910761  2424 net.cpp:137] Memory required for data: 712898560
I0428 14:47:44.910764  2424 layer_factory.hpp:77] Creating layer fc8
I0428 14:47:44.910773  2424 net.cpp:84] Creating Layer fc8
I0428 14:47:44.910775  2424 net.cpp:406] fc8 <- fc7
I0428 14:47:44.910782  2424 net.cpp:380] fc8 -> fc8
I0428 14:47:44.921492  2424 net.cpp:122] Setting up fc8
I0428 14:47:44.921509  2424 net.cpp:129] Top shape: 128 196 (25088)
I0428 14:47:44.921512  2424 net.cpp:137] Memory required for data: 712998912
I0428 14:47:44.921525  2424 layer_factory.hpp:77] Creating layer loss
I0428 14:47:44.921535  2424 net.cpp:84] Creating Layer loss
I0428 14:47:44.921540  2424 net.cpp:406] loss <- fc8
I0428 14:47:44.921545  2424 net.cpp:406] loss <- label
I0428 14:47:44.921551  2424 net.cpp:380] loss -> loss
I0428 14:47:44.921562  2424 layer_factory.hpp:77] Creating layer loss
…
I0428 14:47:44.924540  2424 net.cpp:294] The NetState phase (1) differed from the phase (0) specified by a rule in layer train-data
I0428 14:47:44.924695  2424 net.cpp:51] Initializing net from parameters:
state {
phase: TEST
}
layer {
name: "val-data"
type: "Data"
top: "data"
top: "label"
include {
phase: TEST
}
transform_param {
crop_size: 227
mean_file: "/mnt/bigdisk/DIGITS-MAN-3/digits/jobs/20210421-230320-902c/mean.binaryproto"
}
data_param {
source: "/mnt/bigdisk/DIGITS-MAN-3/digits/jobs/20210421-230320-902c/val_db"
batch_size: 32
backend: LMDB
}
}
layer {
name: "conv1"
type: "Convolution"
bottom: "data"
top: "conv1"
param {
lr_mult: 1
decay_mult: 1
}
param {
lr_mult: 2
decay_mult: 0
}
convolution_param {
num_output: 96
kernel_size: 11
stride: 4
weight_filler {
type: "gaussian"
std: 0.01
}
bias_filler {
type: "constant"
value: 0
}
}
}
layer {
name: "relu1"
type: "ReLU"
bottom: "conv1"
top: "conv1"
}
layer {
name: "norm1"
type: "LRN"
bottom: "conv1"
top: "norm1"
lrn_param {
local_size: 5
alpha: 0.0001
beta: 0.75
}
}
layer {
name: "pool1"
type: "Pooling"
bottom: "norm1"
top: "pool1"
pooling_param {
pool: MAX
kernel_size: 3
stride: 2
}
}
layer {
name: "conv1.5"
type: "Convolution"
bottom: "pool1"
top: "conv1.5"
param {
lr_mult: 1
decay_mult: 1
}
param {
lr_mult: 2
decay_mult: 0
}
convolution_param {
num_output: 96
kernel_size: 7
stride: 1
weight_filler {
type: "gaussian"
std: 0.01
}
bias_filler {
type: "constant"
value: 0
}
}
}
layer {
name: "relu1.5"
type: "ReLU"
bottom: "conv1.5"
top: "conv1.5"
}
layer {
name: "norm1.5"
type: "LRN"
bottom: "conv1.5"
top: "norm1.5"
lrn_param {
local_size: 5
alpha: 0.0001
beta: 0.75
}
}
layer {
name: "pool1.5"
type: "Pooling"
bottom: "norm1.5"
top: "pool1.5"
pooling_param {
pool: MAX
kernel_size: 3
stride: 2
}
}
layer {
name: "conv2"
type: "Convolution"
bottom: "pool1.5"
top: "conv2"
param {
lr_mult: 1
decay_mult: 1
}
param {
lr_mult: 2
decay_mult: 0
}
convolution_param {
num_output: 256
pad: 2
kernel_size: 5
group: 2
weight_filler {
type: "gaussian"
std: 0.01
}
bias_filler {
type: "constant"
value: 0.1
}
}
}
layer {
name: "relu2"
type: "ReLU"
bottom: "conv2"
top: "conv2"
}
layer {
name: "norm2"
type: "LRN"
bottom: "conv2"
top: "norm2"
lrn_param {
local_size: 5
alpha: 0.0001
beta: 0.75
}
}
layer {
name: "pool2"
type: "Pooling"
bottom: "norm2"
top: "pool2"
pooling_param {
pool: MAX
kernel_size: 3
stride: 2
}
}
layer {
name: "conv3"
type: "Convolution"
bottom: "pool2"
top: "conv3"
param {
lr_mult: 1
decay_mult: 1
}
param {
lr_mult: 2
decay_mult: 0
}
convolution_param {
num_output: 384
pad: 1
kernel_size: 3
weight_filler {
type: "gaussian"
std: 0.01
}
bias_filler {
type: "constant"
value: 0
}
}
}
layer {
name: "relu3"
type: "ReLU"
bottom: "conv3"
top: "conv3"
}
layer {
name: "conv4"
type: "Convolution"
bottom: "conv3"
top: "conv4"
param {
lr_mult: 1
decay_mult: 1
}
param {
lr_mult: 2
decay_mult: 0
}
convolution_param {
num_output: 384
pad: 1
kernel_size: 3
group: 2
weight_filler {
type: "gaussian"
std: 0.01
}
bias_filler {
type: "constant"
value: 0.1
}
}
}
layer {
name: "relu4"
type: "ReLU"
bottom: "conv4"
top: "conv4"
}
layer {
name: "conv5"
type: "Convolution"
bottom: "conv4"
top: "conv5"
param {
lr_mult: 1
decay_mult: 1
}
param {
lr_mult: 2
decay_mult: 0
}
convolution_param {
num_output: 256
pad: 1
kernel_size: 3
group: 2
weight_filler {
type: "gaussian"
std: 0.01
}
bias_filler {
type: "constant"
value: 0.1
}
}
}
layer {
name: "relu5"
type: "ReLU"
bottom: "conv5"
top: "conv5"
}
layer {
name: "pool5"
type: "Pooling"
bottom: "conv5"
top: "pool5"
pooling_param {
pool: MAX
kernel_size: 3
stride: 2
}
}
layer {
name: "fc6"
type: "InnerProduct"
bottom: "pool5"
top: "fc6"
param {
lr_mult: 1
decay_mult: 1
}
param {
lr_mult: 2
decay_mult: 0
}
inner_product_param {
num_output: 4096
weight_filler {
type: "gaussian"
std: 0.005
}
bias_filler {
type: "constant"
value: 0.1
}
}
}
layer {
name: "relu6"
type: "ReLU"
bottom: "fc6"
top: "fc6"
}
layer {
name: "drop6"
type: "Dropout"
bottom: "fc6"
top: "fc6"
dropout_param {
dropout_ratio: 0.5
}
}
layer {
name: "fc7"
type: "InnerProduct"
bottom: "fc6"
top: "fc7"
param {
lr_mult: 1
decay_mult: 1
}
param {
lr_mult: 2
decay_mult: 0
}
inner_product_param {
num_output: 4096
weight_filler {
type: "gaussian"
std: 0.005
}
bias_filler {
type: "constant"
value: 0.1
}
}
}
layer {
name: "relu7"
type: "ReLU"
bottom: "fc7"
top: "fc7"
}
layer {
name: "drop7"
type: "Dropout"
bottom: "fc7"
top: "fc7"
dropout_param {
dropout_ratio: 0.5
}
}
layer {
name: "fc8"
type: "InnerProduct"
bottom: "fc7"
top: "fc8"
param {
lr_mult: 1
decay_mult: 1
}
param {
lr_mult: 2
decay_mult: 0
}
inner_product_param {
num_output: 196
weight_filler {
type: "gaussian"
std: 0.01
}
bias_filler {
type: "constant"
value: 0
}
}
}
layer {
name: "accuracy"
type: "Accuracy"
bottom: "fc8"
bottom: "label"
top: "accuracy"
include {
phase: TEST
}
}
layer {
name: "loss"
type: "SoftmaxWithLoss"
bottom: "fc8"
bottom: "label"
top: "loss"
}
I0428 14:47:44.924840  2424 layer_factory.hpp:77] Creating layer val-data
I0428 14:47:44.928789  2424 db_lmdb.cpp:35] Opened lmdb /mnt/bigdisk/DIGITS-MAN-3/digits/jobs/20210421-230320-902c/val_db
I0428 14:47:44.929177  2424 net.cpp:84] Creating Layer val-data
I0428 14:47:44.929195  2424 net.cpp:380] val-data -> data
I0428 14:47:44.929209  2424 net.cpp:380] val-data -> label
I0428 14:47:44.929219  2424 data_transformer.cpp:25] Loading mean file from: /mnt/bigdisk/DIGITS-MAN-3/digits/jobs/20210421-230320-902c/mean.binaryproto
I0428 14:47:44.933197  2424 data_layer.cpp:45] output data size: 32,3,227,227
I0428 14:47:45.005116  2424 net.cpp:122] Setting up val-data
I0428 14:47:45.005137  2424 net.cpp:129] Top shape: 32 3 227 227 (4946784)
I0428 14:47:45.005142  2424 net.cpp:129] Top shape: 32 (32)
I0428 14:47:45.005146  2424 net.cpp:137] Memory required for data: 19787264
I0428 14:47:45.005153  2424 layer_factory.hpp:77] Creating layer label_val-data_1_split
I0428 14:47:45.005167  2424 net.cpp:84] Creating Layer label_val-data_1_split
I0428 14:47:45.005170  2424 net.cpp:406] label_val-data_1_split <- label
I0428 14:47:45.005178  2424 net.cpp:380] label_val-data_1_split -> label_val-data_1_split_0
I0428 14:47:45.005187  2424 net.cpp:380] label_val-data_1_split -> label_val-data_1_split_1
I0428 14:47:45.005261  2424 net.cpp:122] Setting up label_val-data_1_split
I0428 14:47:45.005268  2424 net.cpp:129] Top shape: 32 (32)
I0428 14:47:45.005271  2424 net.cpp:129] Top shape: 32 (32)
I0428 14:47:45.005275  2424 net.cpp:137] Memory required for data: 19787520
I0428 14:47:45.005278  2424 layer_factory.hpp:77] Creating layer conv1
I0428 14:47:45.005290  2424 net.cpp:84] Creating Layer conv1
I0428 14:47:45.005295  2424 net.cpp:406] conv1 <- data
I0428 14:47:45.005300  2424 net.cpp:380] conv1 -> conv1
I0428 14:47:45.008435  2424 net.cpp:122] Setting up conv1
I0428 14:47:45.008450  2424 net.cpp:129] Top shape: 32 96 55 55 (9292800)
I0428 14:47:45.008453  2424 net.cpp:137] Memory required for data: 56958720
I0428 14:47:45.008464  2424 layer_factory.hpp:77] Creating layer relu1
I0428 14:47:45.008473  2424 net.cpp:84] Creating Layer relu1
I0428 14:47:45.008478  2424 net.cpp:406] relu1 <- conv1
I0428 14:47:45.008531  2424 net.cpp:367] relu1 -> conv1 (in-place)
I0428 14:47:45.008826  2424 net.cpp:122] Setting up relu1
I0428 14:47:45.008836  2424 net.cpp:129] Top shape: 32 96 55 55 (9292800)
I0428 14:47:45.008841  2424 net.cpp:137] Memory required for data: 94129920
I0428 14:47:45.008846  2424 layer_factory.hpp:77] Creating layer norm1
I0428 14:47:45.008855  2424 net.cpp:84] Creating Layer norm1
I0428 14:47:45.008860  2424 net.cpp:406] norm1 <- conv1
I0428 14:47:45.008865  2424 net.cpp:380] norm1 -> norm1
I0428 14:47:45.010936  2424 net.cpp:122] Setting up norm1
I0428 14:47:45.010946  2424 net.cpp:129] Top shape: 32 96 55 55 (9292800)
I0428 14:47:45.010951  2424 net.cpp:137] Memory required for data: 131301120
I0428 14:47:45.010955  2424 layer_factory.hpp:77] Creating layer pool1
I0428 14:47:45.010963  2424 net.cpp:84] Creating Layer pool1
I0428 14:47:45.010967  2424 net.cpp:406] pool1 <- norm1
I0428 14:47:45.010973  2424 net.cpp:380] pool1 -> pool1
I0428 14:47:45.011004  2424 net.cpp:122] Setting up pool1
I0428 14:47:45.011009  2424 net.cpp:129] Top shape: 32 96 27 27 (2239488)
I0428 14:47:45.011013  2424 net.cpp:137] Memory required for data: 140259072
I0428 14:47:45.011016  2424 layer_factory.hpp:77] Creating layer conv1.5
I0428 14:47:45.011026  2424 net.cpp:84] Creating Layer conv1.5
I0428 14:47:45.011031  2424 net.cpp:406] conv1.5 <- pool1
I0428 14:47:45.011035  2424 net.cpp:380] conv1.5 -> conv1.5
I0428 14:47:45.017936  2424 net.cpp:122] Setting up conv1.5
I0428 14:47:45.017952  2424 net.cpp:129] Top shape: 32 96 21 21 (1354752)
I0428 14:47:45.017956  2424 net.cpp:137] Memory required for data: 145678080
I0428 14:47:45.017969  2424 layer_factory.hpp:77] Creating layer relu1.5
I0428 14:47:45.017977  2424 net.cpp:84] Creating Layer relu1.5
I0428 14:47:45.018000  2424 net.cpp:406] relu1.5 <- conv1.5
I0428 14:47:45.018008  2424 net.cpp:367] relu1.5 -> conv1.5 (in-place)
I0428 14:47:45.018368  2424 net.cpp:122] Setting up relu1.5
I0428 14:47:45.018378  2424 net.cpp:129] Top shape: 32 96 21 21 (1354752)
I0428 14:47:45.018381  2424 net.cpp:137] Memory required for data: 151097088
I0428 14:47:45.018385  2424 layer_factory.hpp:77] Creating layer norm1.5
I0428 14:47:45.018395  2424 net.cpp:84] Creating Layer norm1.5
I0428 14:47:45.018399  2424 net.cpp:406] norm1.5 <- conv1.5
I0428 14:47:45.018405  2424 net.cpp:380] norm1.5 -> norm1.5
I0428 14:47:45.018937  2424 net.cpp:122] Setting up norm1.5
I0428 14:47:45.018949  2424 net.cpp:129] Top shape: 32 96 21 21 (1354752)
I0428 14:47:45.018952  2424 net.cpp:137] Memory required for data: 156516096
I0428 14:47:45.018956  2424 layer_factory.hpp:77] Creating layer pool1.5
I0428 14:47:45.018965  2424 net.cpp:84] Creating Layer pool1.5
I0428 14:47:45.018968  2424 net.cpp:406] pool1.5 <- norm1.5
I0428 14:47:45.018975  2424 net.cpp:380] pool1.5 -> pool1.5
I0428 14:47:45.019007  2424 net.cpp:122] Setting up pool1.5
I0428 14:47:45.019012  2424 net.cpp:129] Top shape: 32 96 10 10 (307200)
I0428 14:47:45.019016  2424 net.cpp:137] Memory required for data: 157744896
I0428 14:47:45.019021  2424 layer_factory.hpp:77] Creating layer conv2
I0428 14:47:45.019030  2424 net.cpp:84] Creating Layer conv2
I0428 14:47:45.019034  2424 net.cpp:406] conv2 <- pool1.5
I0428 14:47:45.019040  2424 net.cpp:380] conv2 -> conv2
I0428 14:47:45.036008  2424 net.cpp:122] Setting up conv2
I0428 14:47:45.036029  2424 net.cpp:129] Top shape: 32 256 10 10 (819200)
I0428 14:47:45.036033  2424 net.cpp:137] Memory required for data: 161021696
I0428 14:47:45.036046  2424 layer_factory.hpp:77] Creating layer relu2
I0428 14:47:45.036057  2424 net.cpp:84] Creating Layer relu2
I0428 14:47:45.036062  2424 net.cpp:406] relu2 <- conv2
I0428 14:47:45.036068  2424 net.cpp:367] relu2 -> conv2 (in-place)
I0428 14:47:45.036605  2424 net.cpp:122] Setting up relu2
I0428 14:47:45.036617  2424 net.cpp:129] Top shape: 32 256 10 10 (819200)
I0428 14:47:45.036620  2424 net.cpp:137] Memory required for data: 164298496
I0428 14:47:45.036624  2424 layer_factory.hpp:77] Creating layer norm2
I0428 14:47:45.036633  2424 net.cpp:84] Creating Layer norm2
I0428 14:47:45.036635  2424 net.cpp:406] norm2 <- conv2
I0428 14:47:45.036643  2424 net.cpp:380] norm2 -> norm2
I0428 14:47:45.037024  2424 net.cpp:122] Setting up norm2
I0428 14:47:45.037034  2424 net.cpp:129] Top shape: 32 256 10 10 (819200)
I0428 14:47:45.037036  2424 net.cpp:137] Memory required for data: 167575296
I0428 14:47:45.037040  2424 layer_factory.hpp:77] Creating layer pool2
I0428 14:47:45.037047  2424 net.cpp:84] Creating Layer pool2
I0428 14:47:45.037051  2424 net.cpp:406] pool2 <- norm2
I0428 14:47:45.037056  2424 net.cpp:380] pool2 -> pool2
I0428 14:47:45.037088  2424 net.cpp:122] Setting up pool2
I0428 14:47:45.037093  2424 net.cpp:129] Top shape: 32 256 5 5 (204800)
I0428 14:47:45.037096  2424 net.cpp:137] Memory required for data: 168394496
I0428 14:47:45.037101  2424 layer_factory.hpp:77] Creating layer conv3
I0428 14:47:45.037111  2424 net.cpp:84] Creating Layer conv3
I0428 14:47:45.037114  2424 net.cpp:406] conv3 <- pool2
I0428 14:47:45.037120  2424 net.cpp:380] conv3 -> conv3
I0428 14:47:45.057281  2424 net.cpp:122] Setting up conv3
I0428 14:47:45.057301  2424 net.cpp:129] Top shape: 32 384 5 5 (307200)
I0428 14:47:45.057305  2424 net.cpp:137] Memory required for data: 169623296
I0428 14:47:45.057314  2424 layer_factory.hpp:77] Creating layer relu3
I0428 14:47:45.057325  2424 net.cpp:84] Creating Layer relu3
I0428 14:47:45.057329  2424 net.cpp:406] relu3 <- conv3
I0428 14:47:45.057337  2424 net.cpp:367] relu3 -> conv3 (in-place)
I0428 14:47:45.058810  2424 net.cpp:122] Setting up relu3
I0428 14:47:45.058821  2424 net.cpp:129] Top shape: 32 384 5 5 (307200)
I0428 14:47:45.058825  2424 net.cpp:137] Memory required for data: 170852096
I0428 14:47:45.058830  2424 layer_factory.hpp:77] Creating layer conv4
I0428 14:47:45.058866  2424 net.cpp:84] Creating Layer conv4
I0428 14:47:45.058869  2424 net.cpp:406] conv4 <- conv3
I0428 14:47:45.058876  2424 net.cpp:380] conv4 -> conv4
I0428 14:47:45.068787  2424 net.cpp:122] Setting up conv4
I0428 14:47:45.068806  2424 net.cpp:129] Top shape: 32 384 5 5 (307200)
I0428 14:47:45.068810  2424 net.cpp:137] Memory required for data: 172080896
I0428 14:47:45.068822  2424 layer_factory.hpp:77] Creating layer relu4
I0428 14:47:45.068833  2424 net.cpp:84] Creating Layer relu4
I0428 14:47:45.068837  2424 net.cpp:406] relu4 <- conv4
I0428 14:47:45.068843  2424 net.cpp:367] relu4 -> conv4 (in-place)
I0428 14:47:45.069356  2424 net.cpp:122] Setting up relu4
I0428 14:47:45.069367  2424 net.cpp:129] Top shape: 32 384 5 5 (307200)
I0428 14:47:45.069371  2424 net.cpp:137] Memory required for data: 173309696
I0428 14:47:45.069375  2424 layer_factory.hpp:77] Creating layer conv5
I0428 14:47:45.069386  2424 net.cpp:84] Creating Layer conv5
I0428 14:47:45.069391  2424 net.cpp:406] conv5 <- conv4
I0428 14:47:45.069396  2424 net.cpp:380] conv5 -> conv5
I0428 14:47:45.078307  2424 net.cpp:122] Setting up conv5
I0428 14:47:45.078327  2424 net.cpp:129] Top shape: 32 256 5 5 (204800)
I0428 14:47:45.078331  2424 net.cpp:137] Memory required for data: 174128896
I0428 14:47:45.078339  2424 layer_factory.hpp:77] Creating layer relu5
I0428 14:47:45.078347  2424 net.cpp:84] Creating Layer relu5
I0428 14:47:45.078352  2424 net.cpp:406] relu5 <- conv5
I0428 14:47:45.078359  2424 net.cpp:367] relu5 -> conv5 (in-place)
I0428 14:47:45.078867  2424 net.cpp:122] Setting up relu5
I0428 14:47:45.078877  2424 net.cpp:129] Top shape: 32 256 5 5 (204800)
I0428 14:47:45.078881  2424 net.cpp:137] Memory required for data: 174948096
I0428 14:47:45.078884  2424 layer_factory.hpp:77] Creating layer pool5
I0428 14:47:45.078892  2424 net.cpp:84] Creating Layer pool5
I0428 14:47:45.078896  2424 net.cpp:406] pool5 <- conv5
I0428 14:47:45.078902  2424 net.cpp:380] pool5 -> pool5
I0428 14:47:45.078945  2424 net.cpp:122] Setting up pool5
I0428 14:47:45.078953  2424 net.cpp:129] Top shape: 32 256 2 2 (32768)
I0428 14:47:45.078956  2424 net.cpp:137] Memory required for data: 175079168
I0428 14:47:45.078959  2424 layer_factory.hpp:77] Creating layer fc6
I0428 14:47:45.078967  2424 net.cpp:84] Creating Layer fc6
I0428 14:47:45.078970  2424 net.cpp:406] fc6 <- pool5
I0428 14:47:45.078977  2424 net.cpp:380] fc6 -> fc6
I0428 14:47:45.119374  2424 net.cpp:122] Setting up fc6
I0428 14:47:45.119395  2424 net.cpp:129] Top shape: 32 4096 (131072)
I0428 14:47:45.119400  2424 net.cpp:137] Memory required for data: 175603456
I0428 14:47:45.119408  2424 layer_factory.hpp:77] Creating layer relu6
I0428 14:47:45.119417  2424 net.cpp:84] Creating Layer relu6
I0428 14:47:45.119421  2424 net.cpp:406] relu6 <- fc6
I0428 14:47:45.119427  2424 net.cpp:367] relu6 -> fc6 (in-place)
I0428 14:47:45.120141  2424 net.cpp:122] Setting up relu6
I0428 14:47:45.120153  2424 net.cpp:129] Top shape: 32 4096 (131072)
I0428 14:47:45.120157  2424 net.cpp:137] Memory required for data: 176127744
I0428 14:47:45.120160  2424 layer_factory.hpp:77] Creating layer drop6
I0428 14:47:45.120167  2424 net.cpp:84] Creating Layer drop6
I0428 14:47:45.120172  2424 net.cpp:406] drop6 <- fc6
I0428 14:47:45.120177  2424 net.cpp:367] drop6 -> fc6 (in-place)
I0428 14:47:45.120203  2424 net.cpp:122] Setting up drop6
I0428 14:47:45.120208  2424 net.cpp:129] Top shape: 32 4096 (131072)
I0428 14:47:45.120211  2424 net.cpp:137] Memory required for data: 176652032
I0428 14:47:45.120214  2424 layer_factory.hpp:77] Creating layer fc7
I0428 14:47:45.120223  2424 net.cpp:84] Creating Layer fc7
I0428 14:47:45.120225  2424 net.cpp:406] fc7 <- fc6
I0428 14:47:45.120230  2424 net.cpp:380] fc7 -> fc7
I0428 14:47:45.282048  2424 net.cpp:122] Setting up fc7
I0428 14:47:45.282069  2424 net.cpp:129] Top shape: 32 4096 (131072)
I0428 14:47:45.282073  2424 net.cpp:137] Memory required for data: 177176320
I0428 14:47:45.282083  2424 layer_factory.hpp:77] Creating layer relu7
I0428 14:47:45.282094  2424 net.cpp:84] Creating Layer relu7
I0428 14:47:45.282119  2424 net.cpp:406] relu7 <- fc7
I0428 14:47:45.282124  2424 net.cpp:367] relu7 -> fc7 (in-place)
I0428 14:47:45.282549  2424 net.cpp:122] Setting up relu7
I0428 14:47:45.282558  2424 net.cpp:129] Top shape: 32 4096 (131072)
I0428 14:47:45.282562  2424 net.cpp:137] Memory required for data: 177700608
I0428 14:47:45.282567  2424 layer_factory.hpp:77] Creating layer drop7
I0428 14:47:45.282574  2424 net.cpp:84] Creating Layer drop7
I0428 14:47:45.282578  2424 net.cpp:406] drop7 <- fc7
I0428 14:47:45.282583  2424 net.cpp:367] drop7 -> fc7 (in-place)
I0428 14:47:45.282609  2424 net.cpp:122] Setting up drop7
I0428 14:47:45.282614  2424 net.cpp:129] Top shape: 32 4096 (131072)
I0428 14:47:45.282618  2424 net.cpp:137] Memory required for data: 178224896
I0428 14:47:45.282621  2424 layer_factory.hpp:77] Creating layer fc8
I0428 14:47:45.282629  2424 net.cpp:84] Creating Layer fc8
I0428 14:47:45.282632  2424 net.cpp:406] fc8 <- fc7
I0428 14:47:45.282639  2424 net.cpp:380] fc8 -> fc8
I0428 14:47:45.290592  2424 net.cpp:122] Setting up fc8
I0428 14:47:45.290608  2424 net.cpp:129] Top shape: 32 196 (6272)
I0428 14:47:45.290611  2424 net.cpp:137] Memory required for data: 178249984
I0428 14:47:45.290625  2424 layer_factory.hpp:77] Creating layer fc8_fc8_0_split
I0428 14:47:45.290635  2424 net.cpp:84] Creating Layer fc8_fc8_0_split
I0428 14:47:45.290639  2424 net.cpp:406] fc8_fc8_0_split <- fc8
I0428 14:47:45.290647  2424 net.cpp:380] fc8_fc8_0_split -> fc8_fc8_0_split_0
I0428 14:47:45.290653  2424 net.cpp:380] fc8_fc8_0_split -> fc8_fc8_0_split_1
I0428 14:47:45.290689  2424 net.cpp:122] Setting up fc8_fc8_0_split
I0428 14:47:45.290694  2424 net.cpp:129] Top shape: 32 196 (6272)
I0428 14:47:45.290699  2424 net.cpp:129] Top shape: 32 196 (6272)
I0428 14:47:45.290701  2424 net.cpp:137] Memory required for data: 178300160
I0428 14:47:45.290704  2424 layer_factory.hpp:77] Creating layer accuracy
I0428 14:47:45.290712  2424 net.cpp:84] Creating Layer accuracy
I0428 14:47:45.290715  2424 net.cpp:406] accuracy <- fc8_fc8_0_split_0
I0428 14:47:45.290720  2424 net.cpp:406] accuracy <- label_val-data_1_split_0
I0428 14:47:45.290729  2424 net.cpp:380] accuracy -> accuracy
…
