…
I0428 20:36:17.440964 22802 net.cpp:294] The NetState phase (0) differed from the phase (1) specified by a rule in layer accuracy
I0428 20:36:17.441105 22802 net.cpp:51] Initializing net from parameters:
state {
phase: TRAIN
level: 0
stage: ""
}
layer {
name: "train-data"
type: "Data"
top: "data"
top: "label"
include {
phase: TRAIN
}
transform_param {
mirror: true
crop_size: 227
mean_file: "/mnt/bigdisk/DIGITS-MAN-3/digits/jobs/20210421-230320-902c/mean.binaryproto"
}
data_param {
source: "/mnt/bigdisk/DIGITS-MAN-3/digits/jobs/20210421-230320-902c/train_db"
batch_size: 128
backend: LMDB
}
}
layer {
name: "conv1"
type: "Convolution"
bottom: "data"
top: "conv1"
param {
lr_mult: 1
decay_mult: 1
}
param {
lr_mult: 2
decay_mult: 0
}
convolution_param {
num_output: 96
kernel_size: 11
stride: 4
weight_filler {
type: "gaussian"
std: 0.01
}
bias_filler {
type: "constant"
value: 0
}
}
}
layer {
name: "relu1"
type: "ReLU"
bottom: "conv1"
top: "conv1"
}
layer {
name: "norm1"
type: "LRN"
bottom: "conv1"
top: "norm1"
lrn_param {
local_size: 5
alpha: 0.0001
beta: 0.75
}
}
layer {
name: "pool1"
type: "Pooling"
bottom: "norm1"
top: "pool1"
pooling_param {
pool: MAX
kernel_size: 3
stride: 2
}
}
layer {
name: "conv1.5"
type: "Convolution"
bottom: "pool1"
top: "conv1.5"
param {
lr_mult: 1
decay_mult: 1
}
param {
lr_mult: 2
decay_mult: 0
}
convolution_param {
num_output: 176
kernel_size: 3
stride: 1
weight_filler {
type: "gaussian"
std: 0.01
}
bias_filler {
type: "constant"
value: 0
}
}
}
layer {
name: "relu1.5"
type: "ReLU"
bottom: "conv1.5"
top: "conv1.5"
}
layer {
name: "norm1.5"
type: "LRN"
bottom: "conv1.5"
top: "norm1.5"
lrn_param {
local_size: 5
alpha: 0.0001
beta: 0.75
}
}
layer {
name: "pool1.5"
type: "Pooling"
bottom: "norm1.5"
top: "pool1.5"
pooling_param {
pool: MAX
kernel_size: 3
stride: 2
}
}
layer {
name: "conv2"
type: "Convolution"
bottom: "pool1.5"
top: "conv2"
param {
lr_mult: 1
decay_mult: 1
}
param {
lr_mult: 2
decay_mult: 0
}
convolution_param {
num_output: 256
pad: 2
kernel_size: 5
group: 2
weight_filler {
type: "gaussian"
std: 0.01
}
bias_filler {
type: "constant"
value: 0.1
}
}
}
layer {
name: "relu2"
type: "ReLU"
bottom: "conv2"
top: "conv2"
}
layer {
name: "norm2"
type: "LRN"
bottom: "conv2"
top: "norm2"
lrn_param {
local_size: 5
alpha: 0.0001
beta: 0.75
}
}
layer {
name: "pool2"
type: "Pooling"
bottom: "norm2"
top: "pool2"
pooling_param {
pool: MAX
kernel_size: 3
stride: 2
}
}
layer {
name: "conv3"
type: "Convolution"
bottom: "pool2"
top: "conv3"
param {
lr_mult: 1
decay_mult: 1
}
param {
lr_mult: 2
decay_mult: 0
}
convolution_param {
num_output: 384
pad: 1
kernel_size: 3
weight_filler {
type: "gaussian"
std: 0.01
}
bias_filler {
type: "constant"
value: 0
}
}
}
layer {
name: "relu3"
type: "ReLU"
bottom: "conv3"
top: "conv3"
}
layer {
name: "conv4"
type: "Convolution"
bottom: "conv3"
top: "conv4"
param {
lr_mult: 1
decay_mult: 1
}
param {
lr_mult: 2
decay_mult: 0
}
convolution_param {
num_output: 384
pad: 1
kernel_size: 3
group: 2
weight_filler {
type: "gaussian"
std: 0.01
}
bias_filler {
type: "constant"
value: 0.1
}
}
}
layer {
name: "relu4"
type: "ReLU"
bottom: "conv4"
top: "conv4"
}
layer {
name: "conv5"
type: "Convolution"
bottom: "conv4"
top: "conv5"
param {
lr_mult: 1
decay_mult: 1
}
param {
lr_mult: 2
decay_mult: 0
}
convolution_param {
num_output: 256
pad: 1
kernel_size: 3
group: 2
weight_filler {
type: "gaussian"
std: 0.01
}
bias_filler {
type: "constant"
value: 0.1
}
}
}
layer {
name: "relu5"
type: "ReLU"
bottom: "conv5"
top: "conv5"
}
layer {
name: "pool5"
type: "Pooling"
bottom: "conv5"
top: "pool5"
pooling_param {
pool: MAX
kernel_size: 3
stride: 2
}
}
layer {
name: "fc6"
type: "InnerProduct"
bottom: "pool5"
top: "fc6"
param {
lr_mult: 1
decay_mult: 1
}
param {
lr_mult: 2
decay_mult: 0
}
inner_product_param {
num_output: 4096
weight_filler {
type: "gaussian"
std: 0.005
}
bias_filler {
type: "constant"
value: 0.1
}
}
}
layer {
name: "relu6"
type: "ReLU"
bottom: "fc6"
top: "fc6"
}
layer {
name: "drop6"
type: "Dropout"
bottom: "fc6"
top: "fc6"
dropout_param {
dropout_ratio: 0.5
}
}
layer {
name: "fc7"
type: "InnerProduct"
bottom: "fc6"
top: "fc7"
param {
lr_mult: 1
decay_mult: 1
}
param {
lr_mult: 2
decay_mult: 0
}
inner_product_param {
num_output: 4096
weight_filler {
type: "gaussian"
std: 0.005
}
bias_filler {
type: "constant"
value: 0.1
}
}
}
layer {
name: "relu7"
type: "ReLU"
bottom: "fc7"
top: "fc7"
}
layer {
name: "drop7"
type: "Dropout"
bottom: "fc7"
top: "fc7"
dropout_param {
dropout_ratio: 0.5
}
}
layer {
name: "fc8"
type: "InnerProduct"
bottom: "fc7"
top: "fc8"
param {
lr_mult: 1
decay_mult: 1
}
param {
lr_mult: 2
decay_mult: 0
}
inner_product_param {
num_output: 196
weight_filler {
type: "gaussian"
std: 0.01
}
bias_filler {
type: "constant"
value: 0
}
}
}
layer {
name: "loss"
type: "SoftmaxWithLoss"
bottom: "fc8"
bottom: "label"
top: "loss"
}
I0428 20:36:17.441197 22802 layer_factory.hpp:77] Creating layer train-data
I0428 20:36:17.442821 22802 db_lmdb.cpp:35] Opened lmdb /mnt/bigdisk/DIGITS-MAN-3/digits/jobs/20210421-230320-902c/train_db
I0428 20:36:17.442983 22802 net.cpp:84] Creating Layer train-data
I0428 20:36:17.442994 22802 net.cpp:380] train-data -> data
I0428 20:36:17.443012 22802 net.cpp:380] train-data -> label
I0428 20:36:17.443023 22802 data_transformer.cpp:25] Loading mean file from: /mnt/bigdisk/DIGITS-MAN-3/digits/jobs/20210421-230320-902c/mean.binaryproto
I0428 20:36:17.448246 22802 data_layer.cpp:45] output data size: 128,3,227,227
I0428 20:36:17.615288 22802 net.cpp:122] Setting up train-data
I0428 20:36:17.615311 22802 net.cpp:129] Top shape: 128 3 227 227 (19787136)
I0428 20:36:17.615316 22802 net.cpp:129] Top shape: 128 (128)
I0428 20:36:17.615320 22802 net.cpp:137] Memory required for data: 79149056
I0428 20:36:17.615329 22802 layer_factory.hpp:77] Creating layer conv1
I0428 20:36:17.615348 22802 net.cpp:84] Creating Layer conv1
I0428 20:36:17.615355 22802 net.cpp:406] conv1 <- data
I0428 20:36:17.615367 22802 net.cpp:380] conv1 -> conv1
I0428 20:36:18.407830 22802 net.cpp:122] Setting up conv1
I0428 20:36:18.407871 22802 net.cpp:129] Top shape: 128 96 55 55 (37171200)
I0428 20:36:18.407876 22802 net.cpp:137] Memory required for data: 227833856
I0428 20:36:18.407896 22802 layer_factory.hpp:77] Creating layer relu1
I0428 20:36:18.407907 22802 net.cpp:84] Creating Layer relu1
I0428 20:36:18.407910 22802 net.cpp:406] relu1 <- conv1
I0428 20:36:18.407915 22802 net.cpp:367] relu1 -> conv1 (in-place)
I0428 20:36:18.408214 22802 net.cpp:122] Setting up relu1
I0428 20:36:18.408223 22802 net.cpp:129] Top shape: 128 96 55 55 (37171200)
I0428 20:36:18.408227 22802 net.cpp:137] Memory required for data: 376518656
I0428 20:36:18.408231 22802 layer_factory.hpp:77] Creating layer norm1
I0428 20:36:18.408239 22802 net.cpp:84] Creating Layer norm1
I0428 20:36:18.408243 22802 net.cpp:406] norm1 <- conv1
I0428 20:36:18.408248 22802 net.cpp:380] norm1 -> norm1
I0428 20:36:18.408946 22802 net.cpp:122] Setting up norm1
I0428 20:36:18.408957 22802 net.cpp:129] Top shape: 128 96 55 55 (37171200)
I0428 20:36:18.408962 22802 net.cpp:137] Memory required for data: 525203456
I0428 20:36:18.408965 22802 layer_factory.hpp:77] Creating layer pool1
I0428 20:36:18.408973 22802 net.cpp:84] Creating Layer pool1
I0428 20:36:18.408977 22802 net.cpp:406] pool1 <- norm1
I0428 20:36:18.408983 22802 net.cpp:380] pool1 -> pool1
I0428 20:36:18.409021 22802 net.cpp:122] Setting up pool1
I0428 20:36:18.409027 22802 net.cpp:129] Top shape: 128 96 27 27 (8957952)
I0428 20:36:18.409031 22802 net.cpp:137] Memory required for data: 561035264
I0428 20:36:18.409035 22802 layer_factory.hpp:77] Creating layer conv1.5
I0428 20:36:18.409046 22802 net.cpp:84] Creating Layer conv1.5
I0428 20:36:18.409050 22802 net.cpp:406] conv1.5 <- pool1
I0428 20:36:18.409055 22802 net.cpp:380] conv1.5 -> conv1.5
I0428 20:36:18.423207 22802 net.cpp:122] Setting up conv1.5
I0428 20:36:18.423223 22802 net.cpp:129] Top shape: 128 176 25 25 (14080000)
I0428 20:36:18.423228 22802 net.cpp:137] Memory required for data: 617355264
I0428 20:36:18.423238 22802 layer_factory.hpp:77] Creating layer relu1.5
I0428 20:36:18.423246 22802 net.cpp:84] Creating Layer relu1.5
I0428 20:36:18.423251 22802 net.cpp:406] relu1.5 <- conv1.5
I0428 20:36:18.423259 22802 net.cpp:367] relu1.5 -> conv1.5 (in-place)
I0428 20:36:18.423542 22802 net.cpp:122] Setting up relu1.5
I0428 20:36:18.423550 22802 net.cpp:129] Top shape: 128 176 25 25 (14080000)
I0428 20:36:18.423554 22802 net.cpp:137] Memory required for data: 673675264
I0428 20:36:18.423558 22802 layer_factory.hpp:77] Creating layer norm1.5
I0428 20:36:18.423565 22802 net.cpp:84] Creating Layer norm1.5
I0428 20:36:18.423571 22802 net.cpp:406] norm1.5 <- conv1.5
I0428 20:36:18.423576 22802 net.cpp:380] norm1.5 -> norm1.5
I0428 20:36:18.426671 22802 net.cpp:122] Setting up norm1.5
I0428 20:36:18.426681 22802 net.cpp:129] Top shape: 128 176 25 25 (14080000)
I0428 20:36:18.426685 22802 net.cpp:137] Memory required for data: 729995264
I0428 20:36:18.426690 22802 layer_factory.hpp:77] Creating layer pool1.5
I0428 20:36:18.426702 22802 net.cpp:84] Creating Layer pool1.5
I0428 20:36:18.426707 22802 net.cpp:406] pool1.5 <- norm1.5
I0428 20:36:18.426713 22802 net.cpp:380] pool1.5 -> pool1.5
I0428 20:36:18.426744 22802 net.cpp:122] Setting up pool1.5
I0428 20:36:18.426749 22802 net.cpp:129] Top shape: 128 176 12 12 (3244032)
I0428 20:36:18.426753 22802 net.cpp:137] Memory required for data: 742971392
I0428 20:36:18.426757 22802 layer_factory.hpp:77] Creating layer conv2
I0428 20:36:18.426769 22802 net.cpp:84] Creating Layer conv2
I0428 20:36:18.426771 22802 net.cpp:406] conv2 <- pool1.5
I0428 20:36:18.426779 22802 net.cpp:380] conv2 -> conv2
I0428 20:36:18.443066 22802 net.cpp:122] Setting up conv2
I0428 20:36:18.443084 22802 net.cpp:129] Top shape: 128 256 12 12 (4718592)
I0428 20:36:18.443089 22802 net.cpp:137] Memory required for data: 761845760
I0428 20:36:18.443102 22802 layer_factory.hpp:77] Creating layer relu2
I0428 20:36:18.443114 22802 net.cpp:84] Creating Layer relu2
I0428 20:36:18.443118 22802 net.cpp:406] relu2 <- conv2
I0428 20:36:18.443125 22802 net.cpp:367] relu2 -> conv2 (in-place)
I0428 20:36:18.443636 22802 net.cpp:122] Setting up relu2
I0428 20:36:18.443646 22802 net.cpp:129] Top shape: 128 256 12 12 (4718592)
I0428 20:36:18.443651 22802 net.cpp:137] Memory required for data: 780720128
I0428 20:36:18.443655 22802 layer_factory.hpp:77] Creating layer norm2
I0428 20:36:18.443665 22802 net.cpp:84] Creating Layer norm2
I0428 20:36:18.443668 22802 net.cpp:406] norm2 <- conv2
I0428 20:36:18.443675 22802 net.cpp:380] norm2 -> norm2
I0428 20:36:18.444034 22802 net.cpp:122] Setting up norm2
I0428 20:36:18.444042 22802 net.cpp:129] Top shape: 128 256 12 12 (4718592)
I0428 20:36:18.444047 22802 net.cpp:137] Memory required for data: 799594496
I0428 20:36:18.444051 22802 layer_factory.hpp:77] Creating layer pool2
I0428 20:36:18.444056 22802 net.cpp:84] Creating Layer pool2
I0428 20:36:18.444061 22802 net.cpp:406] pool2 <- norm2
I0428 20:36:18.444067 22802 net.cpp:380] pool2 -> pool2
I0428 20:36:18.444097 22802 net.cpp:122] Setting up pool2
I0428 20:36:18.444103 22802 net.cpp:129] Top shape: 128 256 6 6 (1179648)
I0428 20:36:18.444105 22802 net.cpp:137] Memory required for data: 804313088
I0428 20:36:18.444108 22802 layer_factory.hpp:77] Creating layer conv3
I0428 20:36:18.444120 22802 net.cpp:84] Creating Layer conv3
I0428 20:36:18.444123 22802 net.cpp:406] conv3 <- pool2
I0428 20:36:18.444128 22802 net.cpp:380] conv3 -> conv3
I0428 20:36:18.456540 22802 net.cpp:122] Setting up conv3
I0428 20:36:18.456559 22802 net.cpp:129] Top shape: 128 384 6 6 (1769472)
I0428 20:36:18.456563 22802 net.cpp:137] Memory required for data: 811390976
I0428 20:36:18.456573 22802 layer_factory.hpp:77] Creating layer relu3
I0428 20:36:18.456581 22802 net.cpp:84] Creating Layer relu3
I0428 20:36:18.456585 22802 net.cpp:406] relu3 <- conv3
I0428 20:36:18.456593 22802 net.cpp:367] relu3 -> conv3 (in-place)
I0428 20:36:18.457093 22802 net.cpp:122] Setting up relu3
I0428 20:36:18.457103 22802 net.cpp:129] Top shape: 128 384 6 6 (1769472)
I0428 20:36:18.457106 22802 net.cpp:137] Memory required for data: 818468864
I0428 20:36:18.457110 22802 layer_factory.hpp:77] Creating layer conv4
I0428 20:36:18.457120 22802 net.cpp:84] Creating Layer conv4
I0428 20:36:18.457124 22802 net.cpp:406] conv4 <- conv3
I0428 20:36:18.457132 22802 net.cpp:380] conv4 -> conv4
I0428 20:36:18.466540 22802 net.cpp:122] Setting up conv4
I0428 20:36:18.466555 22802 net.cpp:129] Top shape: 128 384 6 6 (1769472)
I0428 20:36:18.466560 22802 net.cpp:137] Memory required for data: 825546752
I0428 20:36:18.466573 22802 layer_factory.hpp:77] Creating layer relu4
I0428 20:36:18.466583 22802 net.cpp:84] Creating Layer relu4
I0428 20:36:18.466588 22802 net.cpp:406] relu4 <- conv4
I0428 20:36:18.466595 22802 net.cpp:367] relu4 -> conv4 (in-place)
I0428 20:36:18.467087 22802 net.cpp:122] Setting up relu4
I0428 20:36:18.467095 22802 net.cpp:129] Top shape: 128 384 6 6 (1769472)
I0428 20:36:18.467100 22802 net.cpp:137] Memory required for data: 832624640
I0428 20:36:18.467103 22802 layer_factory.hpp:77] Creating layer conv5
I0428 20:36:18.467114 22802 net.cpp:84] Creating Layer conv5
I0428 20:36:18.467118 22802 net.cpp:406] conv5 <- conv4
I0428 20:36:18.467125 22802 net.cpp:380] conv5 -> conv5
I0428 20:36:18.488747 22802 net.cpp:122] Setting up conv5
I0428 20:36:18.488767 22802 net.cpp:129] Top shape: 128 256 6 6 (1179648)
I0428 20:36:18.488771 22802 net.cpp:137] Memory required for data: 837343232
I0428 20:36:18.488780 22802 layer_factory.hpp:77] Creating layer relu5
I0428 20:36:18.488791 22802 net.cpp:84] Creating Layer relu5
I0428 20:36:18.488797 22802 net.cpp:406] relu5 <- conv5
I0428 20:36:18.488803 22802 net.cpp:367] relu5 -> conv5 (in-place)
I0428 20:36:18.489301 22802 net.cpp:122] Setting up relu5
I0428 20:36:18.489311 22802 net.cpp:129] Top shape: 128 256 6 6 (1179648)
I0428 20:36:18.489315 22802 net.cpp:137] Memory required for data: 842061824
I0428 20:36:18.489320 22802 layer_factory.hpp:77] Creating layer pool5
I0428 20:36:18.489327 22802 net.cpp:84] Creating Layer pool5
I0428 20:36:18.489332 22802 net.cpp:406] pool5 <- conv5
I0428 20:36:18.489358 22802 net.cpp:380] pool5 -> pool5
I0428 20:36:18.489395 22802 net.cpp:122] Setting up pool5
I0428 20:36:18.489403 22802 net.cpp:129] Top shape: 128 256 3 3 (294912)
I0428 20:36:18.489406 22802 net.cpp:137] Memory required for data: 843241472
I0428 20:36:18.489409 22802 layer_factory.hpp:77] Creating layer fc6
I0428 20:36:18.489418 22802 net.cpp:84] Creating Layer fc6
I0428 20:36:18.489423 22802 net.cpp:406] fc6 <- pool5
I0428 20:36:18.489428 22802 net.cpp:380] fc6 -> fc6
I0428 20:36:18.580911 22802 net.cpp:122] Setting up fc6
I0428 20:36:18.580933 22802 net.cpp:129] Top shape: 128 4096 (524288)
I0428 20:36:18.580943 22802 net.cpp:137] Memory required for data: 845338624
I0428 20:36:18.580955 22802 layer_factory.hpp:77] Creating layer relu6
I0428 20:36:18.580965 22802 net.cpp:84] Creating Layer relu6
I0428 20:36:18.580969 22802 net.cpp:406] relu6 <- fc6
I0428 20:36:18.580978 22802 net.cpp:367] relu6 -> fc6 (in-place)
I0428 20:36:18.594372 22802 net.cpp:122] Setting up relu6
I0428 20:36:18.594385 22802 net.cpp:129] Top shape: 128 4096 (524288)
I0428 20:36:18.594389 22802 net.cpp:137] Memory required for data: 847435776
I0428 20:36:18.594394 22802 layer_factory.hpp:77] Creating layer drop6
I0428 20:36:18.594403 22802 net.cpp:84] Creating Layer drop6
I0428 20:36:18.594406 22802 net.cpp:406] drop6 <- fc6
I0428 20:36:18.594415 22802 net.cpp:367] drop6 -> fc6 (in-place)
I0428 20:36:18.594445 22802 net.cpp:122] Setting up drop6
I0428 20:36:18.594452 22802 net.cpp:129] Top shape: 128 4096 (524288)
I0428 20:36:18.594456 22802 net.cpp:137] Memory required for data: 849532928
I0428 20:36:18.594461 22802 layer_factory.hpp:77] Creating layer fc7
I0428 20:36:18.594470 22802 net.cpp:84] Creating Layer fc7
I0428 20:36:18.594475 22802 net.cpp:406] fc7 <- fc6
I0428 20:36:18.594481 22802 net.cpp:380] fc7 -> fc7
I0428 20:36:18.777006 22802 net.cpp:122] Setting up fc7
I0428 20:36:18.777029 22802 net.cpp:129] Top shape: 128 4096 (524288)
I0428 20:36:18.777034 22802 net.cpp:137] Memory required for data: 851630080
I0428 20:36:18.777045 22802 layer_factory.hpp:77] Creating layer relu7
I0428 20:36:18.777055 22802 net.cpp:84] Creating Layer relu7
I0428 20:36:18.777060 22802 net.cpp:406] relu7 <- fc7
I0428 20:36:18.777067 22802 net.cpp:367] relu7 -> fc7 (in-place)
I0428 20:36:18.777464 22802 net.cpp:122] Setting up relu7
I0428 20:36:18.777474 22802 net.cpp:129] Top shape: 128 4096 (524288)
I0428 20:36:18.777478 22802 net.cpp:137] Memory required for data: 853727232
I0428 20:36:18.777482 22802 layer_factory.hpp:77] Creating layer drop7
I0428 20:36:18.777490 22802 net.cpp:84] Creating Layer drop7
I0428 20:36:18.777494 22802 net.cpp:406] drop7 <- fc7
I0428 20:36:18.777499 22802 net.cpp:367] drop7 -> fc7 (in-place)
I0428 20:36:18.777523 22802 net.cpp:122] Setting up drop7
I0428 20:36:18.777529 22802 net.cpp:129] Top shape: 128 4096 (524288)
I0428 20:36:18.777532 22802 net.cpp:137] Memory required for data: 855824384
I0428 20:36:18.777536 22802 layer_factory.hpp:77] Creating layer fc8
I0428 20:36:18.777544 22802 net.cpp:84] Creating Layer fc8
I0428 20:36:18.777547 22802 net.cpp:406] fc8 <- fc7
I0428 20:36:18.777554 22802 net.cpp:380] fc8 -> fc8
I0428 20:36:18.785508 22802 net.cpp:122] Setting up fc8
I0428 20:36:18.785523 22802 net.cpp:129] Top shape: 128 196 (25088)
I0428 20:36:18.785528 22802 net.cpp:137] Memory required for data: 855924736
I0428 20:36:18.785540 22802 layer_factory.hpp:77] Creating layer loss
I0428 20:36:18.785550 22802 net.cpp:84] Creating Layer loss
I0428 20:36:18.785554 22802 net.cpp:406] loss <- fc8
I0428 20:36:18.785559 22802 net.cpp:406] loss <- label
I0428 20:36:18.785567 22802 net.cpp:380] loss -> loss
I0428 20:36:18.785576 22802 layer_factory.hpp:77] Creating layer loss
…
I0428 20:36:18.793462 22802 net.cpp:294] The NetState phase (1) differed from the phase (0) specified by a rule in layer train-data
I0428 20:36:18.793615 22802 net.cpp:51] Initializing net from parameters:
state {
phase: TEST
}
layer {
name: "val-data"
type: "Data"
top: "data"
top: "label"
include {
phase: TEST
}
transform_param {
crop_size: 227
mean_file: "/mnt/bigdisk/DIGITS-MAN-3/digits/jobs/20210421-230320-902c/mean.binaryproto"
}
data_param {
source: "/mnt/bigdisk/DIGITS-MAN-3/digits/jobs/20210421-230320-902c/val_db"
batch_size: 32
backend: LMDB
}
}
layer {
name: "conv1"
type: "Convolution"
bottom: "data"
top: "conv1"
param {
lr_mult: 1
decay_mult: 1
}
param {
lr_mult: 2
decay_mult: 0
}
convolution_param {
num_output: 96
kernel_size: 11
stride: 4
weight_filler {
type: "gaussian"
std: 0.01
}
bias_filler {
type: "constant"
value: 0
}
}
}
layer {
name: "relu1"
type: "ReLU"
bottom: "conv1"
top: "conv1"
}
layer {
name: "norm1"
type: "LRN"
bottom: "conv1"
top: "norm1"
lrn_param {
local_size: 5
alpha: 0.0001
beta: 0.75
}
}
layer {
name: "pool1"
type: "Pooling"
bottom: "norm1"
top: "pool1"
pooling_param {
pool: MAX
kernel_size: 3
stride: 2
}
}
layer {
name: "conv1.5"
type: "Convolution"
bottom: "pool1"
top: "conv1.5"
param {
lr_mult: 1
decay_mult: 1
}
param {
lr_mult: 2
decay_mult: 0
}
convolution_param {
num_output: 176
kernel_size: 3
stride: 1
weight_filler {
type: "gaussian"
std: 0.01
}
bias_filler {
type: "constant"
value: 0
}
}
}
layer {
name: "relu1.5"
type: "ReLU"
bottom: "conv1.5"
top: "conv1.5"
}
layer {
name: "norm1.5"
type: "LRN"
bottom: "conv1.5"
top: "norm1.5"
lrn_param {
local_size: 5
alpha: 0.0001
beta: 0.75
}
}
layer {
name: "pool1.5"
type: "Pooling"
bottom: "norm1.5"
top: "pool1.5"
pooling_param {
pool: MAX
kernel_size: 3
stride: 2
}
}
layer {
name: "conv2"
type: "Convolution"
bottom: "pool1.5"
top: "conv2"
param {
lr_mult: 1
decay_mult: 1
}
param {
lr_mult: 2
decay_mult: 0
}
convolution_param {
num_output: 256
pad: 2
kernel_size: 5
group: 2
weight_filler {
type: "gaussian"
std: 0.01
}
bias_filler {
type: "constant"
value: 0.1
}
}
}
layer {
name: "relu2"
type: "ReLU"
bottom: "conv2"
top: "conv2"
}
layer {
name: "norm2"
type: "LRN"
bottom: "conv2"
top: "norm2"
lrn_param {
local_size: 5
alpha: 0.0001
beta: 0.75
}
}
layer {
name: "pool2"
type: "Pooling"
bottom: "norm2"
top: "pool2"
pooling_param {
pool: MAX
kernel_size: 3
stride: 2
}
}
layer {
name: "conv3"
type: "Convolution"
bottom: "pool2"
top: "conv3"
param {
lr_mult: 1
decay_mult: 1
}
param {
lr_mult: 2
decay_mult: 0
}
convolution_param {
num_output: 384
pad: 1
kernel_size: 3
weight_filler {
type: "gaussian"
std: 0.01
}
bias_filler {
type: "constant"
value: 0
}
}
}
layer {
name: "relu3"
type: "ReLU"
bottom: "conv3"
top: "conv3"
}
layer {
name: "conv4"
type: "Convolution"
bottom: "conv3"
top: "conv4"
param {
lr_mult: 1
decay_mult: 1
}
param {
lr_mult: 2
decay_mult: 0
}
convolution_param {
num_output: 384
pad: 1
kernel_size: 3
group: 2
weight_filler {
type: "gaussian"
std: 0.01
}
bias_filler {
type: "constant"
value: 0.1
}
}
}
layer {
name: "relu4"
type: "ReLU"
bottom: "conv4"
top: "conv4"
}
layer {
name: "conv5"
type: "Convolution"
bottom: "conv4"
top: "conv5"
param {
lr_mult: 1
decay_mult: 1
}
param {
lr_mult: 2
decay_mult: 0
}
convolution_param {
num_output: 256
pad: 1
kernel_size: 3
group: 2
weight_filler {
type: "gaussian"
std: 0.01
}
bias_filler {
type: "constant"
value: 0.1
}
}
}
layer {
name: "relu5"
type: "ReLU"
bottom: "conv5"
top: "conv5"
}
layer {
name: "pool5"
type: "Pooling"
bottom: "conv5"
top: "pool5"
pooling_param {
pool: MAX
kernel_size: 3
stride: 2
}
}
layer {
name: "fc6"
type: "InnerProduct"
bottom: "pool5"
top: "fc6"
param {
lr_mult: 1
decay_mult: 1
}
param {
lr_mult: 2
decay_mult: 0
}
inner_product_param {
num_output: 4096
weight_filler {
type: "gaussian"
std: 0.005
}
bias_filler {
type: "constant"
value: 0.1
}
}
}
layer {
name: "relu6"
type: "ReLU"
bottom: "fc6"
top: "fc6"
}
layer {
name: "drop6"
type: "Dropout"
bottom: "fc6"
top: "fc6"
dropout_param {
dropout_ratio: 0.5
}
}
layer {
name: "fc7"
type: "InnerProduct"
bottom: "fc6"
top: "fc7"
param {
lr_mult: 1
decay_mult: 1
}
param {
lr_mult: 2
decay_mult: 0
}
inner_product_param {
num_output: 4096
weight_filler {
type: "gaussian"
std: 0.005
}
bias_filler {
type: "constant"
value: 0.1
}
}
}
layer {
name: "relu7"
type: "ReLU"
bottom: "fc7"
top: "fc7"
}
layer {
name: "drop7"
type: "Dropout"
bottom: "fc7"
top: "fc7"
dropout_param {
dropout_ratio: 0.5
}
}
layer {
name: "fc8"
type: "InnerProduct"
bottom: "fc7"
top: "fc8"
param {
lr_mult: 1
decay_mult: 1
}
param {
lr_mult: 2
decay_mult: 0
}
inner_product_param {
num_output: 196
weight_filler {
type: "gaussian"
std: 0.01
}
bias_filler {
type: "constant"
value: 0
}
}
}
layer {
name: "accuracy"
type: "Accuracy"
bottom: "fc8"
bottom: "label"
top: "accuracy"
include {
phase: TEST
}
}
layer {
name: "loss"
type: "SoftmaxWithLoss"
bottom: "fc8"
bottom: "label"
top: "loss"
}
I0428 20:36:18.793720 22802 layer_factory.hpp:77] Creating layer val-data
I0428 20:36:18.795447 22802 db_lmdb.cpp:35] Opened lmdb /mnt/bigdisk/DIGITS-MAN-3/digits/jobs/20210421-230320-902c/val_db
I0428 20:36:18.795634 22802 net.cpp:84] Creating Layer val-data
I0428 20:36:18.795644 22802 net.cpp:380] val-data -> data
I0428 20:36:18.795652 22802 net.cpp:380] val-data -> label
I0428 20:36:18.795660 22802 data_transformer.cpp:25] Loading mean file from: /mnt/bigdisk/DIGITS-MAN-3/digits/jobs/20210421-230320-902c/mean.binaryproto
I0428 20:36:18.799757 22802 data_layer.cpp:45] output data size: 32,3,227,227
I0428 20:36:18.876799 22802 net.cpp:122] Setting up val-data
I0428 20:36:18.876817 22802 net.cpp:129] Top shape: 32 3 227 227 (4946784)
I0428 20:36:18.876822 22802 net.cpp:129] Top shape: 32 (32)
I0428 20:36:18.876827 22802 net.cpp:137] Memory required for data: 19787264
I0428 20:36:18.876832 22802 layer_factory.hpp:77] Creating layer label_val-data_1_split
I0428 20:36:18.876843 22802 net.cpp:84] Creating Layer label_val-data_1_split
I0428 20:36:18.876848 22802 net.cpp:406] label_val-data_1_split <- label
I0428 20:36:18.876855 22802 net.cpp:380] label_val-data_1_split -> label_val-data_1_split_0
I0428 20:36:18.876864 22802 net.cpp:380] label_val-data_1_split -> label_val-data_1_split_1
I0428 20:36:18.876963 22802 net.cpp:122] Setting up label_val-data_1_split
I0428 20:36:18.876969 22802 net.cpp:129] Top shape: 32 (32)
I0428 20:36:18.876973 22802 net.cpp:129] Top shape: 32 (32)
I0428 20:36:18.876976 22802 net.cpp:137] Memory required for data: 19787520
I0428 20:36:18.876981 22802 layer_factory.hpp:77] Creating layer conv1
I0428 20:36:18.876993 22802 net.cpp:84] Creating Layer conv1
I0428 20:36:18.876997 22802 net.cpp:406] conv1 <- data
I0428 20:36:18.877004 22802 net.cpp:380] conv1 -> conv1
I0428 20:36:18.894798 22802 net.cpp:122] Setting up conv1
I0428 20:36:18.894817 22802 net.cpp:129] Top shape: 32 96 55 55 (9292800)
I0428 20:36:18.894820 22802 net.cpp:137] Memory required for data: 56958720
I0428 20:36:18.894834 22802 layer_factory.hpp:77] Creating layer relu1
I0428 20:36:18.894842 22802 net.cpp:84] Creating Layer relu1
I0428 20:36:18.894846 22802 net.cpp:406] relu1 <- conv1
I0428 20:36:18.894851 22802 net.cpp:367] relu1 -> conv1 (in-place)
I0428 20:36:18.895144 22802 net.cpp:122] Setting up relu1
I0428 20:36:18.895153 22802 net.cpp:129] Top shape: 32 96 55 55 (9292800)
I0428 20:36:18.895156 22802 net.cpp:137] Memory required for data: 94129920
I0428 20:36:18.895159 22802 layer_factory.hpp:77] Creating layer norm1
I0428 20:36:18.895169 22802 net.cpp:84] Creating Layer norm1
I0428 20:36:18.895171 22802 net.cpp:406] norm1 <- conv1
I0428 20:36:18.895177 22802 net.cpp:380] norm1 -> norm1
I0428 20:36:18.895669 22802 net.cpp:122] Setting up norm1
I0428 20:36:18.895679 22802 net.cpp:129] Top shape: 32 96 55 55 (9292800)
I0428 20:36:18.895682 22802 net.cpp:137] Memory required for data: 131301120
I0428 20:36:18.895686 22802 layer_factory.hpp:77] Creating layer pool1
I0428 20:36:18.895692 22802 net.cpp:84] Creating Layer pool1
I0428 20:36:18.895696 22802 net.cpp:406] pool1 <- norm1
I0428 20:36:18.895701 22802 net.cpp:380] pool1 -> pool1
I0428 20:36:18.895733 22802 net.cpp:122] Setting up pool1
I0428 20:36:18.895740 22802 net.cpp:129] Top shape: 32 96 27 27 (2239488)
I0428 20:36:18.895742 22802 net.cpp:137] Memory required for data: 140259072
I0428 20:36:18.895745 22802 layer_factory.hpp:77] Creating layer conv1.5
I0428 20:36:18.895754 22802 net.cpp:84] Creating Layer conv1.5
I0428 20:36:18.895758 22802 net.cpp:406] conv1.5 <- pool1
I0428 20:36:18.895763 22802 net.cpp:380] conv1.5 -> conv1.5
I0428 20:36:18.899282 22802 net.cpp:122] Setting up conv1.5
I0428 20:36:18.899294 22802 net.cpp:129] Top shape: 32 176 25 25 (3520000)
I0428 20:36:18.899298 22802 net.cpp:137] Memory required for data: 154339072
I0428 20:36:18.899308 22802 layer_factory.hpp:77] Creating layer relu1.5
I0428 20:36:18.899315 22802 net.cpp:84] Creating Layer relu1.5
I0428 20:36:18.899341 22802 net.cpp:406] relu1.5 <- conv1.5
I0428 20:36:18.899348 22802 net.cpp:367] relu1.5 -> conv1.5 (in-place)
I0428 20:36:18.899700 22802 net.cpp:122] Setting up relu1.5
I0428 20:36:18.899709 22802 net.cpp:129] Top shape: 32 176 25 25 (3520000)
I0428 20:36:18.899713 22802 net.cpp:137] Memory required for data: 168419072
I0428 20:36:18.899717 22802 layer_factory.hpp:77] Creating layer norm1.5
I0428 20:36:18.899727 22802 net.cpp:84] Creating Layer norm1.5
I0428 20:36:18.899731 22802 net.cpp:406] norm1.5 <- conv1.5
I0428 20:36:18.899739 22802 net.cpp:380] norm1.5 -> norm1.5
I0428 20:36:18.900281 22802 net.cpp:122] Setting up norm1.5
I0428 20:36:18.900292 22802 net.cpp:129] Top shape: 32 176 25 25 (3520000)
I0428 20:36:18.900297 22802 net.cpp:137] Memory required for data: 182499072
I0428 20:36:18.900302 22802 layer_factory.hpp:77] Creating layer pool1.5
I0428 20:36:18.900310 22802 net.cpp:84] Creating Layer pool1.5
I0428 20:36:18.900313 22802 net.cpp:406] pool1.5 <- norm1.5
I0428 20:36:18.900321 22802 net.cpp:380] pool1.5 -> pool1.5
I0428 20:36:18.900352 22802 net.cpp:122] Setting up pool1.5
I0428 20:36:18.900359 22802 net.cpp:129] Top shape: 32 176 12 12 (811008)
I0428 20:36:18.900363 22802 net.cpp:137] Memory required for data: 185743104
I0428 20:36:18.900367 22802 layer_factory.hpp:77] Creating layer conv2
I0428 20:36:18.900377 22802 net.cpp:84] Creating Layer conv2
I0428 20:36:18.900380 22802 net.cpp:406] conv2 <- pool1.5
I0428 20:36:18.900385 22802 net.cpp:380] conv2 -> conv2
I0428 20:36:18.910046 22802 net.cpp:122] Setting up conv2
I0428 20:36:18.910065 22802 net.cpp:129] Top shape: 32 256 12 12 (1179648)
I0428 20:36:18.910069 22802 net.cpp:137] Memory required for data: 190461696
I0428 20:36:18.910080 22802 layer_factory.hpp:77] Creating layer relu2
I0428 20:36:18.910089 22802 net.cpp:84] Creating Layer relu2
I0428 20:36:18.910094 22802 net.cpp:406] relu2 <- conv2
I0428 20:36:18.910101 22802 net.cpp:367] relu2 -> conv2 (in-place)
I0428 20:36:18.910614 22802 net.cpp:122] Setting up relu2
I0428 20:36:18.910626 22802 net.cpp:129] Top shape: 32 256 12 12 (1179648)
I0428 20:36:18.910630 22802 net.cpp:137] Memory required for data: 195180288
I0428 20:36:18.910635 22802 layer_factory.hpp:77] Creating layer norm2
I0428 20:36:18.910643 22802 net.cpp:84] Creating Layer norm2
I0428 20:36:18.910647 22802 net.cpp:406] norm2 <- conv2
I0428 20:36:18.910653 22802 net.cpp:380] norm2 -> norm2
I0428 20:36:18.911020 22802 net.cpp:122] Setting up norm2
I0428 20:36:18.911027 22802 net.cpp:129] Top shape: 32 256 12 12 (1179648)
I0428 20:36:18.911031 22802 net.cpp:137] Memory required for data: 199898880
I0428 20:36:18.911036 22802 layer_factory.hpp:77] Creating layer pool2
I0428 20:36:18.911042 22802 net.cpp:84] Creating Layer pool2
I0428 20:36:18.911046 22802 net.cpp:406] pool2 <- norm2
I0428 20:36:18.911052 22802 net.cpp:380] pool2 -> pool2
I0428 20:36:18.911083 22802 net.cpp:122] Setting up pool2
I0428 20:36:18.911089 22802 net.cpp:129] Top shape: 32 256 6 6 (294912)
I0428 20:36:18.911093 22802 net.cpp:137] Memory required for data: 201078528
I0428 20:36:18.911096 22802 layer_factory.hpp:77] Creating layer conv3
I0428 20:36:18.911108 22802 net.cpp:84] Creating Layer conv3
I0428 20:36:18.911111 22802 net.cpp:406] conv3 <- pool2
I0428 20:36:18.911118 22802 net.cpp:380] conv3 -> conv3
I0428 20:36:18.922485 22802 net.cpp:122] Setting up conv3
I0428 20:36:18.922503 22802 net.cpp:129] Top shape: 32 384 6 6 (442368)
I0428 20:36:18.922508 22802 net.cpp:137] Memory required for data: 202848000
I0428 20:36:18.922518 22802 layer_factory.hpp:77] Creating layer relu3
I0428 20:36:18.922528 22802 net.cpp:84] Creating Layer relu3
I0428 20:36:18.922534 22802 net.cpp:406] relu3 <- conv3
I0428 20:36:18.922540 22802 net.cpp:367] relu3 -> conv3 (in-place)
I0428 20:36:18.923053 22802 net.cpp:122] Setting up relu3
I0428 20:36:18.923063 22802 net.cpp:129] Top shape: 32 384 6 6 (442368)
I0428 20:36:18.923066 22802 net.cpp:137] Memory required for data: 204617472
I0428 20:36:18.923070 22802 layer_factory.hpp:77] Creating layer conv4
I0428 20:36:18.923105 22802 net.cpp:84] Creating Layer conv4
I0428 20:36:18.923108 22802 net.cpp:406] conv4 <- conv3
I0428 20:36:18.923115 22802 net.cpp:380] conv4 -> conv4
I0428 20:36:18.941627 22802 net.cpp:122] Setting up conv4
I0428 20:36:18.941646 22802 net.cpp:129] Top shape: 32 384 6 6 (442368)
I0428 20:36:18.941653 22802 net.cpp:137] Memory required for data: 206386944
I0428 20:36:18.941668 22802 layer_factory.hpp:77] Creating layer relu4
I0428 20:36:18.941679 22802 net.cpp:84] Creating Layer relu4
I0428 20:36:18.941684 22802 net.cpp:406] relu4 <- conv4
I0428 20:36:18.941691 22802 net.cpp:367] relu4 -> conv4 (in-place)
I0428 20:36:18.942195 22802 net.cpp:122] Setting up relu4
I0428 20:36:18.942206 22802 net.cpp:129] Top shape: 32 384 6 6 (442368)
I0428 20:36:18.942211 22802 net.cpp:137] Memory required for data: 208156416
I0428 20:36:18.942217 22802 layer_factory.hpp:77] Creating layer conv5
I0428 20:36:18.942229 22802 net.cpp:84] Creating Layer conv5
I0428 20:36:18.942234 22802 net.cpp:406] conv5 <- conv4
I0428 20:36:18.942242 22802 net.cpp:380] conv5 -> conv5
I0428 20:36:18.951680 22802 net.cpp:122] Setting up conv5
I0428 20:36:18.951699 22802 net.cpp:129] Top shape: 32 256 6 6 (294912)
I0428 20:36:18.951702 22802 net.cpp:137] Memory required for data: 209336064
I0428 20:36:18.951712 22802 layer_factory.hpp:77] Creating layer relu5
I0428 20:36:18.951720 22802 net.cpp:84] Creating Layer relu5
I0428 20:36:18.951726 22802 net.cpp:406] relu5 <- conv5
I0428 20:36:18.951735 22802 net.cpp:367] relu5 -> conv5 (in-place)
I0428 20:36:18.952232 22802 net.cpp:122] Setting up relu5
I0428 20:36:18.952242 22802 net.cpp:129] Top shape: 32 256 6 6 (294912)
I0428 20:36:18.952247 22802 net.cpp:137] Memory required for data: 210515712
I0428 20:36:18.952251 22802 layer_factory.hpp:77] Creating layer pool5
I0428 20:36:18.952260 22802 net.cpp:84] Creating Layer pool5
I0428 20:36:18.952265 22802 net.cpp:406] pool5 <- conv5
I0428 20:36:18.952271 22802 net.cpp:380] pool5 -> pool5
I0428 20:36:18.952312 22802 net.cpp:122] Setting up pool5
I0428 20:36:18.952320 22802 net.cpp:129] Top shape: 32 256 3 3 (73728)
I0428 20:36:18.952324 22802 net.cpp:137] Memory required for data: 210810624
I0428 20:36:18.952328 22802 layer_factory.hpp:77] Creating layer fc6
I0428 20:36:18.952335 22802 net.cpp:84] Creating Layer fc6
I0428 20:36:18.952340 22802 net.cpp:406] fc6 <- pool5
I0428 20:36:18.952347 22802 net.cpp:380] fc6 -> fc6
I0428 20:36:19.042176 22802 net.cpp:122] Setting up fc6
I0428 20:36:19.042196 22802 net.cpp:129] Top shape: 32 4096 (131072)
I0428 20:36:19.042199 22802 net.cpp:137] Memory required for data: 211334912
I0428 20:36:19.042208 22802 layer_factory.hpp:77] Creating layer relu6
I0428 20:36:19.042219 22802 net.cpp:84] Creating Layer relu6
I0428 20:36:19.042224 22802 net.cpp:406] relu6 <- fc6
I0428 20:36:19.042232 22802 net.cpp:367] relu6 -> fc6 (in-place)
I0428 20:36:19.071784 22802 net.cpp:122] Setting up relu6
I0428 20:36:19.071802 22802 net.cpp:129] Top shape: 32 4096 (131072)
I0428 20:36:19.071806 22802 net.cpp:137] Memory required for data: 211859200
I0428 20:36:19.071811 22802 layer_factory.hpp:77] Creating layer drop6
I0428 20:36:19.071820 22802 net.cpp:84] Creating Layer drop6
I0428 20:36:19.071825 22802 net.cpp:406] drop6 <- fc6
I0428 20:36:19.071832 22802 net.cpp:367] drop6 -> fc6 (in-place)
I0428 20:36:19.071866 22802 net.cpp:122] Setting up drop6
I0428 20:36:19.071871 22802 net.cpp:129] Top shape: 32 4096 (131072)
I0428 20:36:19.071873 22802 net.cpp:137] Memory required for data: 212383488
I0428 20:36:19.071877 22802 layer_factory.hpp:77] Creating layer fc7
I0428 20:36:19.071884 22802 net.cpp:84] Creating Layer fc7
I0428 20:36:19.071888 22802 net.cpp:406] fc7 <- fc6
I0428 20:36:19.071892 22802 net.cpp:380] fc7 -> fc7
I0428 20:36:19.243999 22802 net.cpp:122] Setting up fc7
I0428 20:36:19.244019 22802 net.cpp:129] Top shape: 32 4096 (131072)
I0428 20:36:19.244022 22802 net.cpp:137] Memory required for data: 212907776
I0428 20:36:19.244031 22802 layer_factory.hpp:77] Creating layer relu7
I0428 20:36:19.244043 22802 net.cpp:84] Creating Layer relu7
I0428 20:36:19.244068 22802 net.cpp:406] relu7 <- fc7
I0428 20:36:19.244076 22802 net.cpp:367] relu7 -> fc7 (in-place)
I0428 20:36:19.244518 22802 net.cpp:122] Setting up relu7
I0428 20:36:19.244527 22802 net.cpp:129] Top shape: 32 4096 (131072)
I0428 20:36:19.244532 22802 net.cpp:137] Memory required for data: 213432064
I0428 20:36:19.244536 22802 layer_factory.hpp:77] Creating layer drop7
I0428 20:36:19.244544 22802 net.cpp:84] Creating Layer drop7
I0428 20:36:19.244555 22802 net.cpp:406] drop7 <- fc7
I0428 20:36:19.244560 22802 net.cpp:367] drop7 -> fc7 (in-place)
I0428 20:36:19.244585 22802 net.cpp:122] Setting up drop7
I0428 20:36:19.244590 22802 net.cpp:129] Top shape: 32 4096 (131072)
I0428 20:36:19.244593 22802 net.cpp:137] Memory required for data: 213956352
I0428 20:36:19.244597 22802 layer_factory.hpp:77] Creating layer fc8
I0428 20:36:19.244606 22802 net.cpp:84] Creating Layer fc8
I0428 20:36:19.244611 22802 net.cpp:406] fc8 <- fc7
I0428 20:36:19.244618 22802 net.cpp:380] fc8 -> fc8
I0428 20:36:19.252360 22802 net.cpp:122] Setting up fc8
I0428 20:36:19.252372 22802 net.cpp:129] Top shape: 32 196 (6272)
I0428 20:36:19.252377 22802 net.cpp:137] Memory required for data: 213981440
I0428 20:36:19.252388 22802 layer_factory.hpp:77] Creating layer fc8_fc8_0_split
I0428 20:36:19.252396 22802 net.cpp:84] Creating Layer fc8_fc8_0_split
I0428 20:36:19.252399 22802 net.cpp:406] fc8_fc8_0_split <- fc8
I0428 20:36:19.252406 22802 net.cpp:380] fc8_fc8_0_split -> fc8_fc8_0_split_0
I0428 20:36:19.252414 22802 net.cpp:380] fc8_fc8_0_split -> fc8_fc8_0_split_1
I0428 20:36:19.252447 22802 net.cpp:122] Setting up fc8_fc8_0_split
I0428 20:36:19.252452 22802 net.cpp:129] Top shape: 32 196 (6272)
I0428 20:36:19.252456 22802 net.cpp:129] Top shape: 32 196 (6272)
I0428 20:36:19.252460 22802 net.cpp:137] Memory required for data: 214031616
I0428 20:36:19.252462 22802 layer_factory.hpp:77] Creating layer accuracy
I0428 20:36:19.252468 22802 net.cpp:84] Creating Layer accuracy
I0428 20:36:19.252472 22802 net.cpp:406] accuracy <- fc8_fc8_0_split_0
I0428 20:36:19.252476 22802 net.cpp:406] accuracy <- label_val-data_1_split_0
I0428 20:36:19.252503 22802 net.cpp:380] accuracy -> accuracy
…
