…
I0408 19:18:24.944144  5931 net.cpp:294] The NetState phase (0) differed from the phase (1) specified by a rule in layer accuracy
I0408 19:18:24.944264  5931 net.cpp:51] Initializing net from parameters:
state {
phase: TRAIN
level: 0
stage: ""
}
layer {
name: "train-data"
type: "Data"
top: "data"
top: "label"
include {
phase: TRAIN
}
transform_param {
mirror: true
crop_size: 227
mean_file: "/mnt/bigdisk/DIGITS-TAM-1/digits/jobs/20210407-221849-d51c/mean.binaryproto"
}
data_param {
source: "/mnt/bigdisk/DIGITS-TAM-1/digits/jobs/20210407-221849-d51c/train_db"
batch_size: 128
backend: LMDB
}
}
layer {
name: "conv1"
type: "Convolution"
bottom: "data"
top: "conv1"
param {
lr_mult: 1
decay_mult: 1
}
param {
lr_mult: 2
decay_mult: 0
}
convolution_param {
num_output: 96
kernel_size: 11
stride: 4
weight_filler {
type: "gaussian"
std: 0.01
}
bias_filler {
type: "constant"
value: 0
}
}
}
layer {
name: "relu1"
type: "ReLU"
bottom: "conv1"
top: "conv1"
}
layer {
name: "norm1"
type: "LRN"
bottom: "conv1"
top: "norm1"
lrn_param {
local_size: 5
alpha: 0.0001
beta: 0.75
}
}
layer {
name: "pool1"
type: "Pooling"
bottom: "norm1"
top: "pool1"
pooling_param {
pool: MAX
kernel_size: 3
stride: 2
}
}
layer {
name: "conv2"
type: "Convolution"
bottom: "pool1"
top: "conv2"
param {
lr_mult: 1
decay_mult: 1
}
param {
lr_mult: 2
decay_mult: 0
}
convolution_param {
num_output: 256
pad: 2
kernel_size: 5
group: 2
weight_filler {
type: "gaussian"
std: 0.01
}
bias_filler {
type: "constant"
value: 0.1
}
}
}
layer {
name: "relu2"
type: "ReLU"
bottom: "conv2"
top: "conv2"
}
layer {
name: "norm2"
type: "LRN"
bottom: "conv2"
top: "norm2"
lrn_param {
local_size: 5
alpha: 0.0001
beta: 0.75
}
}
layer {
name: "pool2"
type: "Pooling"
bottom: "norm2"
top: "pool2"
pooling_param {
pool: MAX
kernel_size: 3
stride: 2
}
}
layer {
name: "conv3"
type: "Convolution"
bottom: "pool2"
top: "conv3"
param {
lr_mult: 1
decay_mult: 1
}
param {
lr_mult: 2
decay_mult: 0
}
convolution_param {
num_output: 384
pad: 1
kernel_size: 3
weight_filler {
type: "gaussian"
std: 0.01
}
bias_filler {
type: "constant"
value: 0
}
}
}
layer {
name: "relu3"
type: "ReLU"
bottom: "conv3"
top: "conv3"
}
layer {
name: "conv4"
type: "Convolution"
bottom: "conv3"
top: "conv4"
param {
lr_mult: 1
decay_mult: 1
}
param {
lr_mult: 2
decay_mult: 0
}
convolution_param {
num_output: 384
pad: 1
kernel_size: 3
group: 2
weight_filler {
type: "gaussian"
std: 0.01
}
bias_filler {
type: "constant"
value: 0.1
}
}
}
layer {
name: "relu4"
type: "ReLU"
bottom: "conv4"
top: "conv4"
}
layer {
name: "conv5"
type: "Convolution"
bottom: "conv4"
top: "conv5"
param {
lr_mult: 1
decay_mult: 1
}
param {
lr_mult: 2
decay_mult: 0
}
convolution_param {
num_output: 256
pad: 1
kernel_size: 3
group: 2
weight_filler {
type: "gaussian"
std: 0.01
}
bias_filler {
type: "constant"
value: 0.1
}
}
}
layer {
name: "relu5"
type: "ReLU"
bottom: "conv5"
top: "conv5"
}
layer {
name: "pool5"
type: "Pooling"
bottom: "conv5"
top: "pool5"
pooling_param {
pool: MAX
kernel_size: 3
stride: 2
}
}
layer {
name: "fc6"
type: "InnerProduct"
bottom: "pool5"
top: "fc6"
param {
lr_mult: 1
decay_mult: 1
}
param {
lr_mult: 2
decay_mult: 0
}
inner_product_param {
num_output: 4096
weight_filler {
type: "gaussian"
std: 0.005
}
bias_filler {
type: "constant"
value: 0.1
}
}
}
layer {
name: "relu6"
type: "ReLU"
bottom: "fc6"
top: "fc6"
}
layer {
name: "drop6"
type: "Dropout"
bottom: "fc6"
top: "fc6"
dropout_param {
dropout_ratio: 0.5
}
}
layer {
name: "fc7"
type: "InnerProduct"
bottom: "fc6"
top: "fc7"
param {
lr_mult: 1
decay_mult: 1
}
param {
lr_mult: 2
decay_mult: 0
}
inner_product_param {
num_output: 4096
weight_filler {
type: "gaussian"
std: 0.005
}
bias_filler {
type: "constant"
value: 0.1
}
}
}
layer {
name: "relu7"
type: "ReLU"
bottom: "fc7"
top: "fc7"
}
layer {
name: "drop7"
type: "Dropout"
bottom: "fc7"
top: "fc7"
dropout_param {
dropout_ratio: 0.5
}
}
layer {
name: "fc8"
type: "InnerProduct"
bottom: "fc7"
top: "fc8"
param {
lr_mult: 1
decay_mult: 1
}
param {
lr_mult: 2
decay_mult: 0
}
inner_product_param {
num_output: 196
weight_filler {
type: "gaussian"
std: 0.01
}
bias_filler {
type: "constant"
value: 0
}
}
}
layer {
name: "loss"
type: "SoftmaxWithLoss"
bottom: "fc8"
bottom: "label"
top: "loss"
}
I0408 19:18:24.944351  5931 layer_factory.hpp:77] Creating layer train-data
I0408 19:18:25.053862  5931 db_lmdb.cpp:35] Opened lmdb /mnt/bigdisk/DIGITS-TAM-1/digits/jobs/20210407-221849-d51c/train_db
I0408 19:18:25.055430  5931 net.cpp:84] Creating Layer train-data
I0408 19:18:25.055464  5931 net.cpp:380] train-data -> data
I0408 19:18:25.055506  5931 net.cpp:380] train-data -> label
I0408 19:18:25.055532  5931 data_transformer.cpp:25] Loading mean file from: /mnt/bigdisk/DIGITS-TAM-1/digits/jobs/20210407-221849-d51c/mean.binaryproto
I0408 19:18:25.065255  5931 data_layer.cpp:45] output data size: 128,3,227,227
I0408 19:18:25.220326  5931 net.cpp:122] Setting up train-data
I0408 19:18:25.220352  5931 net.cpp:129] Top shape: 128 3 227 227 (19787136)
I0408 19:18:25.220357  5931 net.cpp:129] Top shape: 128 (128)
I0408 19:18:25.220360  5931 net.cpp:137] Memory required for data: 79149056
I0408 19:18:25.220371  5931 layer_factory.hpp:77] Creating layer conv1
I0408 19:18:25.220393  5931 net.cpp:84] Creating Layer conv1
I0408 19:18:25.220399  5931 net.cpp:406] conv1 <- data
I0408 19:18:25.220412  5931 net.cpp:380] conv1 -> conv1
I0408 19:18:26.108603  5931 net.cpp:122] Setting up conv1
I0408 19:18:26.108624  5931 net.cpp:129] Top shape: 128 96 55 55 (37171200)
I0408 19:18:26.108628  5931 net.cpp:137] Memory required for data: 227833856
I0408 19:18:26.108647  5931 layer_factory.hpp:77] Creating layer relu1
I0408 19:18:26.108656  5931 net.cpp:84] Creating Layer relu1
I0408 19:18:26.108660  5931 net.cpp:406] relu1 <- conv1
I0408 19:18:26.108665  5931 net.cpp:367] relu1 -> conv1 (in-place)
I0408 19:18:26.108984  5931 net.cpp:122] Setting up relu1
I0408 19:18:26.108994  5931 net.cpp:129] Top shape: 128 96 55 55 (37171200)
I0408 19:18:26.108996  5931 net.cpp:137] Memory required for data: 376518656
I0408 19:18:26.108999  5931 layer_factory.hpp:77] Creating layer norm1
I0408 19:18:26.109007  5931 net.cpp:84] Creating Layer norm1
I0408 19:18:26.109040  5931 net.cpp:406] norm1 <- conv1
I0408 19:18:26.109045  5931 net.cpp:380] norm1 -> norm1
I0408 19:18:26.109565  5931 net.cpp:122] Setting up norm1
I0408 19:18:26.109575  5931 net.cpp:129] Top shape: 128 96 55 55 (37171200)
I0408 19:18:26.109577  5931 net.cpp:137] Memory required for data: 525203456
I0408 19:18:26.109580  5931 layer_factory.hpp:77] Creating layer pool1
I0408 19:18:26.109586  5931 net.cpp:84] Creating Layer pool1
I0408 19:18:26.109589  5931 net.cpp:406] pool1 <- norm1
I0408 19:18:26.109594  5931 net.cpp:380] pool1 -> pool1
I0408 19:18:26.109624  5931 net.cpp:122] Setting up pool1
I0408 19:18:26.109629  5931 net.cpp:129] Top shape: 128 96 27 27 (8957952)
I0408 19:18:26.109632  5931 net.cpp:137] Memory required for data: 561035264
I0408 19:18:26.109634  5931 layer_factory.hpp:77] Creating layer conv2
I0408 19:18:26.109643  5931 net.cpp:84] Creating Layer conv2
I0408 19:18:26.109647  5931 net.cpp:406] conv2 <- pool1
I0408 19:18:26.109650  5931 net.cpp:380] conv2 -> conv2
I0408 19:18:26.117425  5931 net.cpp:122] Setting up conv2
I0408 19:18:26.117436  5931 net.cpp:129] Top shape: 128 256 27 27 (23887872)
I0408 19:18:26.117439  5931 net.cpp:137] Memory required for data: 656586752
I0408 19:18:26.117447  5931 layer_factory.hpp:77] Creating layer relu2
I0408 19:18:26.117453  5931 net.cpp:84] Creating Layer relu2
I0408 19:18:26.117456  5931 net.cpp:406] relu2 <- conv2
I0408 19:18:26.117460  5931 net.cpp:367] relu2 -> conv2 (in-place)
I0408 19:18:26.118005  5931 net.cpp:122] Setting up relu2
I0408 19:18:26.118014  5931 net.cpp:129] Top shape: 128 256 27 27 (23887872)
I0408 19:18:26.118017  5931 net.cpp:137] Memory required for data: 752138240
I0408 19:18:26.118021  5931 layer_factory.hpp:77] Creating layer norm2
I0408 19:18:26.118027  5931 net.cpp:84] Creating Layer norm2
I0408 19:18:26.118031  5931 net.cpp:406] norm2 <- conv2
I0408 19:18:26.118034  5931 net.cpp:380] norm2 -> norm2
I0408 19:18:26.118404  5931 net.cpp:122] Setting up norm2
I0408 19:18:26.118413  5931 net.cpp:129] Top shape: 128 256 27 27 (23887872)
I0408 19:18:26.118415  5931 net.cpp:137] Memory required for data: 847689728
I0408 19:18:26.118418  5931 layer_factory.hpp:77] Creating layer pool2
I0408 19:18:26.118427  5931 net.cpp:84] Creating Layer pool2
I0408 19:18:26.118429  5931 net.cpp:406] pool2 <- norm2
I0408 19:18:26.118433  5931 net.cpp:380] pool2 -> pool2
I0408 19:18:26.118459  5931 net.cpp:122] Setting up pool2
I0408 19:18:26.118464  5931 net.cpp:129] Top shape: 128 256 13 13 (5537792)
I0408 19:18:26.118466  5931 net.cpp:137] Memory required for data: 869840896
I0408 19:18:26.118469  5931 layer_factory.hpp:77] Creating layer conv3
I0408 19:18:26.118477  5931 net.cpp:84] Creating Layer conv3
I0408 19:18:26.118480  5931 net.cpp:406] conv3 <- pool2
I0408 19:18:26.118484  5931 net.cpp:380] conv3 -> conv3
I0408 19:18:26.128641  5931 net.cpp:122] Setting up conv3
I0408 19:18:26.128651  5931 net.cpp:129] Top shape: 128 384 13 13 (8306688)
I0408 19:18:26.128654  5931 net.cpp:137] Memory required for data: 903067648
I0408 19:18:26.128662  5931 layer_factory.hpp:77] Creating layer relu3
I0408 19:18:26.128667  5931 net.cpp:84] Creating Layer relu3
I0408 19:18:26.128670  5931 net.cpp:406] relu3 <- conv3
I0408 19:18:26.128676  5931 net.cpp:367] relu3 -> conv3 (in-place)
I0408 19:18:26.129232  5931 net.cpp:122] Setting up relu3
I0408 19:18:26.129243  5931 net.cpp:129] Top shape: 128 384 13 13 (8306688)
I0408 19:18:26.129245  5931 net.cpp:137] Memory required for data: 936294400
I0408 19:18:26.129248  5931 layer_factory.hpp:77] Creating layer conv4
I0408 19:18:26.129257  5931 net.cpp:84] Creating Layer conv4
I0408 19:18:26.129261  5931 net.cpp:406] conv4 <- conv3
I0408 19:18:26.129266  5931 net.cpp:380] conv4 -> conv4
I0408 19:18:26.140365  5931 net.cpp:122] Setting up conv4
I0408 19:18:26.140377  5931 net.cpp:129] Top shape: 128 384 13 13 (8306688)
I0408 19:18:26.140380  5931 net.cpp:137] Memory required for data: 969521152
I0408 19:18:26.140386  5931 layer_factory.hpp:77] Creating layer relu4
I0408 19:18:26.140393  5931 net.cpp:84] Creating Layer relu4
I0408 19:18:26.140413  5931 net.cpp:406] relu4 <- conv4
I0408 19:18:26.140419  5931 net.cpp:367] relu4 -> conv4 (in-place)
I0408 19:18:26.140949  5931 net.cpp:122] Setting up relu4
I0408 19:18:26.140956  5931 net.cpp:129] Top shape: 128 384 13 13 (8306688)
I0408 19:18:26.140959  5931 net.cpp:137] Memory required for data: 1002747904
I0408 19:18:26.140962  5931 layer_factory.hpp:77] Creating layer conv5
I0408 19:18:26.140971  5931 net.cpp:84] Creating Layer conv5
I0408 19:18:26.140974  5931 net.cpp:406] conv5 <- conv4
I0408 19:18:26.140980  5931 net.cpp:380] conv5 -> conv5
I0408 19:18:26.150013  5931 net.cpp:122] Setting up conv5
I0408 19:18:26.150025  5931 net.cpp:129] Top shape: 128 256 13 13 (5537792)
I0408 19:18:26.150028  5931 net.cpp:137] Memory required for data: 1024899072
I0408 19:18:26.150038  5931 layer_factory.hpp:77] Creating layer relu5
I0408 19:18:26.150043  5931 net.cpp:84] Creating Layer relu5
I0408 19:18:26.150046  5931 net.cpp:406] relu5 <- conv5
I0408 19:18:26.150053  5931 net.cpp:367] relu5 -> conv5 (in-place)
I0408 19:18:26.150632  5931 net.cpp:122] Setting up relu5
I0408 19:18:26.150642  5931 net.cpp:129] Top shape: 128 256 13 13 (5537792)
I0408 19:18:26.150645  5931 net.cpp:137] Memory required for data: 1047050240
I0408 19:18:26.150648  5931 layer_factory.hpp:77] Creating layer pool5
I0408 19:18:26.150653  5931 net.cpp:84] Creating Layer pool5
I0408 19:18:26.150656  5931 net.cpp:406] pool5 <- conv5
I0408 19:18:26.150663  5931 net.cpp:380] pool5 -> pool5
I0408 19:18:26.150697  5931 net.cpp:122] Setting up pool5
I0408 19:18:26.150702  5931 net.cpp:129] Top shape: 128 256 6 6 (1179648)
I0408 19:18:26.150704  5931 net.cpp:137] Memory required for data: 1051768832
I0408 19:18:26.150707  5931 layer_factory.hpp:77] Creating layer fc6
I0408 19:18:26.150717  5931 net.cpp:84] Creating Layer fc6
I0408 19:18:26.150720  5931 net.cpp:406] fc6 <- pool5
I0408 19:18:26.150725  5931 net.cpp:380] fc6 -> fc6
I0408 19:18:26.492550  5931 net.cpp:122] Setting up fc6
I0408 19:18:26.492571  5931 net.cpp:129] Top shape: 128 4096 (524288)
I0408 19:18:26.492574  5931 net.cpp:137] Memory required for data: 1053865984
I0408 19:18:26.492583  5931 layer_factory.hpp:77] Creating layer relu6
I0408 19:18:26.492590  5931 net.cpp:84] Creating Layer relu6
I0408 19:18:26.492594  5931 net.cpp:406] relu6 <- fc6
I0408 19:18:26.492599  5931 net.cpp:367] relu6 -> fc6 (in-place)
I0408 19:18:26.493383  5931 net.cpp:122] Setting up relu6
I0408 19:18:26.493393  5931 net.cpp:129] Top shape: 128 4096 (524288)
I0408 19:18:26.493396  5931 net.cpp:137] Memory required for data: 1055963136
I0408 19:18:26.493399  5931 layer_factory.hpp:77] Creating layer drop6
I0408 19:18:26.493405  5931 net.cpp:84] Creating Layer drop6
I0408 19:18:26.493408  5931 net.cpp:406] drop6 <- fc6
I0408 19:18:26.493412  5931 net.cpp:367] drop6 -> fc6 (in-place)
I0408 19:18:26.493438  5931 net.cpp:122] Setting up drop6
I0408 19:18:26.493443  5931 net.cpp:129] Top shape: 128 4096 (524288)
I0408 19:18:26.493444  5931 net.cpp:137] Memory required for data: 1058060288
I0408 19:18:26.493448  5931 layer_factory.hpp:77] Creating layer fc7
I0408 19:18:26.493454  5931 net.cpp:84] Creating Layer fc7
I0408 19:18:26.493458  5931 net.cpp:406] fc7 <- fc6
I0408 19:18:26.493461  5931 net.cpp:380] fc7 -> fc7
I0408 19:18:26.644878  5931 net.cpp:122] Setting up fc7
I0408 19:18:26.644897  5931 net.cpp:129] Top shape: 128 4096 (524288)
I0408 19:18:26.644901  5931 net.cpp:137] Memory required for data: 1060157440
I0408 19:18:26.644909  5931 layer_factory.hpp:77] Creating layer relu7
I0408 19:18:26.644917  5931 net.cpp:84] Creating Layer relu7
I0408 19:18:26.644920  5931 net.cpp:406] relu7 <- fc7
I0408 19:18:26.644928  5931 net.cpp:367] relu7 -> fc7 (in-place)
I0408 19:18:26.645399  5931 net.cpp:122] Setting up relu7
I0408 19:18:26.645408  5931 net.cpp:129] Top shape: 128 4096 (524288)
I0408 19:18:26.645411  5931 net.cpp:137] Memory required for data: 1062254592
I0408 19:18:26.645413  5931 layer_factory.hpp:77] Creating layer drop7
I0408 19:18:26.645419  5931 net.cpp:84] Creating Layer drop7
I0408 19:18:26.645442  5931 net.cpp:406] drop7 <- fc7
I0408 19:18:26.645447  5931 net.cpp:367] drop7 -> fc7 (in-place)
I0408 19:18:26.645468  5931 net.cpp:122] Setting up drop7
I0408 19:18:26.645474  5931 net.cpp:129] Top shape: 128 4096 (524288)
I0408 19:18:26.645478  5931 net.cpp:137] Memory required for data: 1064351744
I0408 19:18:26.645479  5931 layer_factory.hpp:77] Creating layer fc8
I0408 19:18:26.645485  5931 net.cpp:84] Creating Layer fc8
I0408 19:18:26.645488  5931 net.cpp:406] fc8 <- fc7
I0408 19:18:26.645493  5931 net.cpp:380] fc8 -> fc8
I0408 19:18:26.652873  5931 net.cpp:122] Setting up fc8
I0408 19:18:26.652881  5931 net.cpp:129] Top shape: 128 196 (25088)
I0408 19:18:26.652884  5931 net.cpp:137] Memory required for data: 1064452096
I0408 19:18:26.652889  5931 layer_factory.hpp:77] Creating layer loss
I0408 19:18:26.652894  5931 net.cpp:84] Creating Layer loss
I0408 19:18:26.652897  5931 net.cpp:406] loss <- fc8
I0408 19:18:26.652900  5931 net.cpp:406] loss <- label
I0408 19:18:26.652906  5931 net.cpp:380] loss -> loss
I0408 19:18:26.652915  5931 layer_factory.hpp:77] Creating layer loss
…
I0408 19:18:26.654752  5931 net.cpp:294] The NetState phase (1) differed from the phase (0) specified by a rule in layer train-data
I0408 19:18:26.654878  5931 net.cpp:51] Initializing net from parameters:
state {
phase: TEST
}
layer {
name: "val-data"
type: "Data"
top: "data"
top: "label"
include {
phase: TEST
}
transform_param {
crop_size: 227
mean_file: "/mnt/bigdisk/DIGITS-TAM-1/digits/jobs/20210407-221849-d51c/mean.binaryproto"
}
data_param {
source: "/mnt/bigdisk/DIGITS-TAM-1/digits/jobs/20210407-221849-d51c/val_db"
batch_size: 32
backend: LMDB
}
}
layer {
name: "conv1"
type: "Convolution"
bottom: "data"
top: "conv1"
param {
lr_mult: 1
decay_mult: 1
}
param {
lr_mult: 2
decay_mult: 0
}
convolution_param {
num_output: 96
kernel_size: 11
stride: 4
weight_filler {
type: "gaussian"
std: 0.01
}
bias_filler {
type: "constant"
value: 0
}
}
}
layer {
name: "relu1"
type: "ReLU"
bottom: "conv1"
top: "conv1"
}
layer {
name: "norm1"
type: "LRN"
bottom: "conv1"
top: "norm1"
lrn_param {
local_size: 5
alpha: 0.0001
beta: 0.75
}
}
layer {
name: "pool1"
type: "Pooling"
bottom: "norm1"
top: "pool1"
pooling_param {
pool: MAX
kernel_size: 3
stride: 2
}
}
layer {
name: "conv2"
type: "Convolution"
bottom: "pool1"
top: "conv2"
param {
lr_mult: 1
decay_mult: 1
}
param {
lr_mult: 2
decay_mult: 0
}
convolution_param {
num_output: 256
pad: 2
kernel_size: 5
group: 2
weight_filler {
type: "gaussian"
std: 0.01
}
bias_filler {
type: "constant"
value: 0.1
}
}
}
layer {
name: "relu2"
type: "ReLU"
bottom: "conv2"
top: "conv2"
}
layer {
name: "norm2"
type: "LRN"
bottom: "conv2"
top: "norm2"
lrn_param {
local_size: 5
alpha: 0.0001
beta: 0.75
}
}
layer {
name: "pool2"
type: "Pooling"
bottom: "norm2"
top: "pool2"
pooling_param {
pool: MAX
kernel_size: 3
stride: 2
}
}
layer {
name: "conv3"
type: "Convolution"
bottom: "pool2"
top: "conv3"
param {
lr_mult: 1
decay_mult: 1
}
param {
lr_mult: 2
decay_mult: 0
}
convolution_param {
num_output: 384
pad: 1
kernel_size: 3
weight_filler {
type: "gaussian"
std: 0.01
}
bias_filler {
type: "constant"
value: 0
}
}
}
layer {
name: "relu3"
type: "ReLU"
bottom: "conv3"
top: "conv3"
}
layer {
name: "conv4"
type: "Convolution"
bottom: "conv3"
top: "conv4"
param {
lr_mult: 1
decay_mult: 1
}
param {
lr_mult: 2
decay_mult: 0
}
convolution_param {
num_output: 384
pad: 1
kernel_size: 3
group: 2
weight_filler {
type: "gaussian"
std: 0.01
}
bias_filler {
type: "constant"
value: 0.1
}
}
}
layer {
name: "relu4"
type: "ReLU"
bottom: "conv4"
top: "conv4"
}
layer {
name: "conv5"
type: "Convolution"
bottom: "conv4"
top: "conv5"
param {
lr_mult: 1
decay_mult: 1
}
param {
lr_mult: 2
decay_mult: 0
}
convolution_param {
num_output: 256
pad: 1
kernel_size: 3
group: 2
weight_filler {
type: "gaussian"
std: 0.01
}
bias_filler {
type: "constant"
value: 0.1
}
}
}
layer {
name: "relu5"
type: "ReLU"
bottom: "conv5"
top: "conv5"
}
layer {
name: "pool5"
type: "Pooling"
bottom: "conv5"
top: "pool5"
pooling_param {
pool: MAX
kernel_size: 3
stride: 2
}
}
layer {
name: "fc6"
type: "InnerProduct"
bottom: "pool5"
top: "fc6"
param {
lr_mult: 1
decay_mult: 1
}
param {
lr_mult: 2
decay_mult: 0
}
inner_product_param {
num_output: 4096
weight_filler {
type: "gaussian"
std: 0.005
}
bias_filler {
type: "constant"
value: 0.1
}
}
}
layer {
name: "relu6"
type: "ReLU"
bottom: "fc6"
top: "fc6"
}
layer {
name: "drop6"
type: "Dropout"
bottom: "fc6"
top: "fc6"
dropout_param {
dropout_ratio: 0.5
}
}
layer {
name: "fc7"
type: "InnerProduct"
bottom: "fc6"
top: "fc7"
param {
lr_mult: 1
decay_mult: 1
}
param {
lr_mult: 2
decay_mult: 0
}
inner_product_param {
num_output: 4096
weight_filler {
type: "gaussian"
std: 0.005
}
bias_filler {
type: "constant"
value: 0.1
}
}
}
layer {
name: "relu7"
type: "ReLU"
bottom: "fc7"
top: "fc7"
}
layer {
name: "drop7"
type: "Dropout"
bottom: "fc7"
top: "fc7"
dropout_param {
dropout_ratio: 0.5
}
}
layer {
name: "fc8"
type: "InnerProduct"
bottom: "fc7"
top: "fc8"
param {
lr_mult: 1
decay_mult: 1
}
param {
lr_mult: 2
decay_mult: 0
}
inner_product_param {
num_output: 196
weight_filler {
type: "gaussian"
std: 0.01
}
bias_filler {
type: "constant"
value: 0
}
}
}
layer {
name: "accuracy"
type: "Accuracy"
bottom: "fc8"
bottom: "label"
top: "accuracy"
include {
phase: TEST
}
}
layer {
name: "loss"
type: "SoftmaxWithLoss"
bottom: "fc8"
bottom: "label"
top: "loss"
}
I0408 19:18:26.654975  5931 layer_factory.hpp:77] Creating layer val-data
I0408 19:18:26.679214  5931 db_lmdb.cpp:35] Opened lmdb /mnt/bigdisk/DIGITS-TAM-1/digits/jobs/20210407-221849-d51c/val_db
I0408 19:18:26.682032  5931 net.cpp:84] Creating Layer val-data
I0408 19:18:26.682065  5931 net.cpp:380] val-data -> data
I0408 19:18:26.682086  5931 net.cpp:380] val-data -> label
I0408 19:18:26.682106  5931 data_transformer.cpp:25] Loading mean file from: /mnt/bigdisk/DIGITS-TAM-1/digits/jobs/20210407-221849-d51c/mean.binaryproto
I0408 19:18:26.689946  5931 data_layer.cpp:45] output data size: 32,3,227,227
I0408 19:18:26.726176  5931 net.cpp:122] Setting up val-data
I0408 19:18:26.726198  5931 net.cpp:129] Top shape: 32 3 227 227 (4946784)
I0408 19:18:26.726202  5931 net.cpp:129] Top shape: 32 (32)
I0408 19:18:26.726204  5931 net.cpp:137] Memory required for data: 19787264
I0408 19:18:26.726210  5931 layer_factory.hpp:77] Creating layer label_val-data_1_split
I0408 19:18:26.726222  5931 net.cpp:84] Creating Layer label_val-data_1_split
I0408 19:18:26.726225  5931 net.cpp:406] label_val-data_1_split <- label
I0408 19:18:26.726231  5931 net.cpp:380] label_val-data_1_split -> label_val-data_1_split_0
I0408 19:18:26.726240  5931 net.cpp:380] label_val-data_1_split -> label_val-data_1_split_1
I0408 19:18:26.726277  5931 net.cpp:122] Setting up label_val-data_1_split
I0408 19:18:26.726282  5931 net.cpp:129] Top shape: 32 (32)
I0408 19:18:26.726285  5931 net.cpp:129] Top shape: 32 (32)
I0408 19:18:26.726287  5931 net.cpp:137] Memory required for data: 19787520
I0408 19:18:26.726289  5931 layer_factory.hpp:77] Creating layer conv1
I0408 19:18:26.726300  5931 net.cpp:84] Creating Layer conv1
I0408 19:18:26.726302  5931 net.cpp:406] conv1 <- data
I0408 19:18:26.726307  5931 net.cpp:380] conv1 -> conv1
I0408 19:18:26.729629  5931 net.cpp:122] Setting up conv1
I0408 19:18:26.729640  5931 net.cpp:129] Top shape: 32 96 55 55 (9292800)
I0408 19:18:26.729642  5931 net.cpp:137] Memory required for data: 56958720
I0408 19:18:26.729651  5931 layer_factory.hpp:77] Creating layer relu1
I0408 19:18:26.729657  5931 net.cpp:84] Creating Layer relu1
I0408 19:18:26.729660  5931 net.cpp:406] relu1 <- conv1
I0408 19:18:26.729665  5931 net.cpp:367] relu1 -> conv1 (in-place)
I0408 19:18:26.729977  5931 net.cpp:122] Setting up relu1
I0408 19:18:26.729986  5931 net.cpp:129] Top shape: 32 96 55 55 (9292800)
I0408 19:18:26.729990  5931 net.cpp:137] Memory required for data: 94129920
I0408 19:18:26.729992  5931 layer_factory.hpp:77] Creating layer norm1
I0408 19:18:26.730000  5931 net.cpp:84] Creating Layer norm1
I0408 19:18:26.730002  5931 net.cpp:406] norm1 <- conv1
I0408 19:18:26.730007  5931 net.cpp:380] norm1 -> norm1
I0408 19:18:26.730517  5931 net.cpp:122] Setting up norm1
I0408 19:18:26.730527  5931 net.cpp:129] Top shape: 32 96 55 55 (9292800)
I0408 19:18:26.730530  5931 net.cpp:137] Memory required for data: 131301120
I0408 19:18:26.730532  5931 layer_factory.hpp:77] Creating layer pool1
I0408 19:18:26.730538  5931 net.cpp:84] Creating Layer pool1
I0408 19:18:26.730541  5931 net.cpp:406] pool1 <- norm1
I0408 19:18:26.730546  5931 net.cpp:380] pool1 -> pool1
I0408 19:18:26.730571  5931 net.cpp:122] Setting up pool1
I0408 19:18:26.730574  5931 net.cpp:129] Top shape: 32 96 27 27 (2239488)
I0408 19:18:26.730577  5931 net.cpp:137] Memory required for data: 140259072
I0408 19:18:26.730579  5931 layer_factory.hpp:77] Creating layer conv2
I0408 19:18:26.730587  5931 net.cpp:84] Creating Layer conv2
I0408 19:18:26.730589  5931 net.cpp:406] conv2 <- pool1
I0408 19:18:26.730613  5931 net.cpp:380] conv2 -> conv2
I0408 19:18:26.740005  5931 net.cpp:122] Setting up conv2
I0408 19:18:26.740015  5931 net.cpp:129] Top shape: 32 256 27 27 (5971968)
I0408 19:18:26.740018  5931 net.cpp:137] Memory required for data: 164146944
I0408 19:18:26.740026  5931 layer_factory.hpp:77] Creating layer relu2
I0408 19:18:26.740033  5931 net.cpp:84] Creating Layer relu2
I0408 19:18:26.740036  5931 net.cpp:406] relu2 <- conv2
I0408 19:18:26.740041  5931 net.cpp:367] relu2 -> conv2 (in-place)
I0408 19:18:26.740607  5931 net.cpp:122] Setting up relu2
I0408 19:18:26.740615  5931 net.cpp:129] Top shape: 32 256 27 27 (5971968)
I0408 19:18:26.740617  5931 net.cpp:137] Memory required for data: 188034816
I0408 19:18:26.740620  5931 layer_factory.hpp:77] Creating layer norm2
I0408 19:18:26.740628  5931 net.cpp:84] Creating Layer norm2
I0408 19:18:26.740631  5931 net.cpp:406] norm2 <- conv2
I0408 19:18:26.740638  5931 net.cpp:380] norm2 -> norm2
I0408 19:18:26.741400  5931 net.cpp:122] Setting up norm2
I0408 19:18:26.741410  5931 net.cpp:129] Top shape: 32 256 27 27 (5971968)
I0408 19:18:26.741412  5931 net.cpp:137] Memory required for data: 211922688
I0408 19:18:26.741415  5931 layer_factory.hpp:77] Creating layer pool2
I0408 19:18:26.741421  5931 net.cpp:84] Creating Layer pool2
I0408 19:18:26.741425  5931 net.cpp:406] pool2 <- norm2
I0408 19:18:26.741428  5931 net.cpp:380] pool2 -> pool2
I0408 19:18:26.741456  5931 net.cpp:122] Setting up pool2
I0408 19:18:26.741461  5931 net.cpp:129] Top shape: 32 256 13 13 (1384448)
I0408 19:18:26.741462  5931 net.cpp:137] Memory required for data: 217460480
I0408 19:18:26.741466  5931 layer_factory.hpp:77] Creating layer conv3
I0408 19:18:26.741474  5931 net.cpp:84] Creating Layer conv3
I0408 19:18:26.741477  5931 net.cpp:406] conv3 <- pool2
I0408 19:18:26.741482  5931 net.cpp:380] conv3 -> conv3
I0408 19:18:26.752660  5931 net.cpp:122] Setting up conv3
I0408 19:18:26.752671  5931 net.cpp:129] Top shape: 32 384 13 13 (2076672)
I0408 19:18:26.752674  5931 net.cpp:137] Memory required for data: 225767168
I0408 19:18:26.752686  5931 layer_factory.hpp:77] Creating layer relu3
I0408 19:18:26.752691  5931 net.cpp:84] Creating Layer relu3
I0408 19:18:26.752694  5931 net.cpp:406] relu3 <- conv3
I0408 19:18:26.752699  5931 net.cpp:367] relu3 -> conv3 (in-place)
I0408 19:18:26.753315  5931 net.cpp:122] Setting up relu3
I0408 19:18:26.753324  5931 net.cpp:129] Top shape: 32 384 13 13 (2076672)
I0408 19:18:26.753327  5931 net.cpp:137] Memory required for data: 234073856
I0408 19:18:26.753330  5931 layer_factory.hpp:77] Creating layer conv4
I0408 19:18:26.753340  5931 net.cpp:84] Creating Layer conv4
I0408 19:18:26.753342  5931 net.cpp:406] conv4 <- conv3
I0408 19:18:26.753350  5931 net.cpp:380] conv4 -> conv4
I0408 19:18:26.763305  5931 net.cpp:122] Setting up conv4
I0408 19:18:26.763316  5931 net.cpp:129] Top shape: 32 384 13 13 (2076672)
I0408 19:18:26.763319  5931 net.cpp:137] Memory required for data: 242380544
I0408 19:18:26.763325  5931 layer_factory.hpp:77] Creating layer relu4
I0408 19:18:26.763331  5931 net.cpp:84] Creating Layer relu4
I0408 19:18:26.763334  5931 net.cpp:406] relu4 <- conv4
I0408 19:18:26.763340  5931 net.cpp:367] relu4 -> conv4 (in-place)
I0408 19:18:26.763721  5931 net.cpp:122] Setting up relu4
I0408 19:18:26.763729  5931 net.cpp:129] Top shape: 32 384 13 13 (2076672)
I0408 19:18:26.763732  5931 net.cpp:137] Memory required for data: 250687232
I0408 19:18:26.763736  5931 layer_factory.hpp:77] Creating layer conv5
I0408 19:18:26.763747  5931 net.cpp:84] Creating Layer conv5
I0408 19:18:26.763751  5931 net.cpp:406] conv5 <- conv4
I0408 19:18:26.763756  5931 net.cpp:380] conv5 -> conv5
I0408 19:18:26.772959  5931 net.cpp:122] Setting up conv5
I0408 19:18:26.772970  5931 net.cpp:129] Top shape: 32 256 13 13 (1384448)
I0408 19:18:26.772974  5931 net.cpp:137] Memory required for data: 256225024
I0408 19:18:26.772984  5931 layer_factory.hpp:77] Creating layer relu5
I0408 19:18:26.772989  5931 net.cpp:84] Creating Layer relu5
I0408 19:18:26.773010  5931 net.cpp:406] relu5 <- conv5
I0408 19:18:26.773015  5931 net.cpp:367] relu5 -> conv5 (in-place)
I0408 19:18:26.773561  5931 net.cpp:122] Setting up relu5
I0408 19:18:26.773571  5931 net.cpp:129] Top shape: 32 256 13 13 (1384448)
I0408 19:18:26.773573  5931 net.cpp:137] Memory required for data: 261762816
I0408 19:18:26.773576  5931 layer_factory.hpp:77] Creating layer pool5
I0408 19:18:26.773586  5931 net.cpp:84] Creating Layer pool5
I0408 19:18:26.773589  5931 net.cpp:406] pool5 <- conv5
I0408 19:18:26.773594  5931 net.cpp:380] pool5 -> pool5
I0408 19:18:26.773627  5931 net.cpp:122] Setting up pool5
I0408 19:18:26.773633  5931 net.cpp:129] Top shape: 32 256 6 6 (294912)
I0408 19:18:26.773635  5931 net.cpp:137] Memory required for data: 262942464
I0408 19:18:26.773638  5931 layer_factory.hpp:77] Creating layer fc6
I0408 19:18:26.773643  5931 net.cpp:84] Creating Layer fc6
I0408 19:18:26.773646  5931 net.cpp:406] fc6 <- pool5
I0408 19:18:26.773651  5931 net.cpp:380] fc6 -> fc6
I0408 19:18:27.114794  5931 net.cpp:122] Setting up fc6
I0408 19:18:27.114814  5931 net.cpp:129] Top shape: 32 4096 (131072)
I0408 19:18:27.114816  5931 net.cpp:137] Memory required for data: 263466752
I0408 19:18:27.114825  5931 layer_factory.hpp:77] Creating layer relu6
I0408 19:18:27.114833  5931 net.cpp:84] Creating Layer relu6
I0408 19:18:27.114837  5931 net.cpp:406] relu6 <- fc6
I0408 19:18:27.114842  5931 net.cpp:367] relu6 -> fc6 (in-place)
I0408 19:18:27.115625  5931 net.cpp:122] Setting up relu6
I0408 19:18:27.115634  5931 net.cpp:129] Top shape: 32 4096 (131072)
I0408 19:18:27.115638  5931 net.cpp:137] Memory required for data: 263991040
I0408 19:18:27.115640  5931 layer_factory.hpp:77] Creating layer drop6
I0408 19:18:27.115648  5931 net.cpp:84] Creating Layer drop6
I0408 19:18:27.115650  5931 net.cpp:406] drop6 <- fc6
I0408 19:18:27.115655  5931 net.cpp:367] drop6 -> fc6 (in-place)
I0408 19:18:27.115677  5931 net.cpp:122] Setting up drop6
I0408 19:18:27.115681  5931 net.cpp:129] Top shape: 32 4096 (131072)
I0408 19:18:27.115684  5931 net.cpp:137] Memory required for data: 264515328
I0408 19:18:27.115686  5931 layer_factory.hpp:77] Creating layer fc7
I0408 19:18:27.115694  5931 net.cpp:84] Creating Layer fc7
I0408 19:18:27.115696  5931 net.cpp:406] fc7 <- fc6
I0408 19:18:27.115700  5931 net.cpp:380] fc7 -> fc7
I0408 19:18:27.265542  5931 net.cpp:122] Setting up fc7
I0408 19:18:27.265564  5931 net.cpp:129] Top shape: 32 4096 (131072)
I0408 19:18:27.265568  5931 net.cpp:137] Memory required for data: 265039616
I0408 19:18:27.265575  5931 layer_factory.hpp:77] Creating layer relu7
I0408 19:18:27.265583  5931 net.cpp:84] Creating Layer relu7
I0408 19:18:27.265588  5931 net.cpp:406] relu7 <- fc7
I0408 19:18:27.265594  5931 net.cpp:367] relu7 -> fc7 (in-place)
I0408 19:18:27.266093  5931 net.cpp:122] Setting up relu7
I0408 19:18:27.266101  5931 net.cpp:129] Top shape: 32 4096 (131072)
I0408 19:18:27.266103  5931 net.cpp:137] Memory required for data: 265563904
I0408 19:18:27.266106  5931 layer_factory.hpp:77] Creating layer drop7
I0408 19:18:27.266113  5931 net.cpp:84] Creating Layer drop7
I0408 19:18:27.266115  5931 net.cpp:406] drop7 <- fc7
I0408 19:18:27.266121  5931 net.cpp:367] drop7 -> fc7 (in-place)
I0408 19:18:27.266142  5931 net.cpp:122] Setting up drop7
I0408 19:18:27.266147  5931 net.cpp:129] Top shape: 32 4096 (131072)
I0408 19:18:27.266149  5931 net.cpp:137] Memory required for data: 266088192
I0408 19:18:27.266152  5931 layer_factory.hpp:77] Creating layer fc8
I0408 19:18:27.266160  5931 net.cpp:84] Creating Layer fc8
I0408 19:18:27.266162  5931 net.cpp:406] fc8 <- fc7
I0408 19:18:27.266167  5931 net.cpp:380] fc8 -> fc8
I0408 19:18:27.273520  5931 net.cpp:122] Setting up fc8
I0408 19:18:27.273530  5931 net.cpp:129] Top shape: 32 196 (6272)
I0408 19:18:27.273532  5931 net.cpp:137] Memory required for data: 266113280
I0408 19:18:27.273537  5931 layer_factory.hpp:77] Creating layer fc8_fc8_0_split
I0408 19:18:27.273542  5931 net.cpp:84] Creating Layer fc8_fc8_0_split
I0408 19:18:27.273547  5931 net.cpp:406] fc8_fc8_0_split <- fc8
I0408 19:18:27.273569  5931 net.cpp:380] fc8_fc8_0_split -> fc8_fc8_0_split_0
I0408 19:18:27.273576  5931 net.cpp:380] fc8_fc8_0_split -> fc8_fc8_0_split_1
I0408 19:18:27.273602  5931 net.cpp:122] Setting up fc8_fc8_0_split
I0408 19:18:27.273607  5931 net.cpp:129] Top shape: 32 196 (6272)
I0408 19:18:27.273609  5931 net.cpp:129] Top shape: 32 196 (6272)
I0408 19:18:27.273612  5931 net.cpp:137] Memory required for data: 266163456
I0408 19:18:27.273614  5931 layer_factory.hpp:77] Creating layer accuracy
I0408 19:18:27.273620  5931 net.cpp:84] Creating Layer accuracy
I0408 19:18:27.273622  5931 net.cpp:406] accuracy <- fc8_fc8_0_split_0
I0408 19:18:27.273627  5931 net.cpp:406] accuracy <- label_val-data_1_split_0
I0408 19:18:27.273631  5931 net.cpp:380] accuracy -> accuracy
…
