…
I0410 02:17:04.063247 30317 net.cpp:294] The NetState phase (0) differed from the phase (1) specified by a rule in layer accuracy
I0410 02:17:04.063410 30317 net.cpp:51] Initializing net from parameters:
state {
phase: TRAIN
level: 0
stage: ""
}
layer {
name: "train-data"
type: "Data"
top: "data"
top: "label"
include {
phase: TRAIN
}
transform_param {
mirror: true
crop_size: 227
mean_file: "/mnt/bigdisk/DIGITS-MAN-2/digits/jobs/20210407-214532-d396/mean.binaryproto"
}
data_param {
source: "/mnt/bigdisk/DIGITS-MAN-2/digits/jobs/20210407-214532-d396/train_db"
batch_size: 128
backend: LMDB
}
}
layer {
name: "conv1"
type: "Convolution"
bottom: "data"
top: "conv1"
param {
lr_mult: 1
decay_mult: 1
}
param {
lr_mult: 2
decay_mult: 0
}
convolution_param {
num_output: 96
kernel_size: 11
stride: 4
weight_filler {
type: "gaussian"
std: 0.01
}
bias_filler {
type: "constant"
value: 0
}
}
}
layer {
name: "relu1"
type: "ReLU"
bottom: "conv1"
top: "conv1"
}
layer {
name: "norm1"
type: "LRN"
bottom: "conv1"
top: "norm1"
lrn_param {
local_size: 5
alpha: 0.0001
beta: 0.75
}
}
layer {
name: "pool1"
type: "Pooling"
bottom: "norm1"
top: "pool1"
pooling_param {
pool: MAX
kernel_size: 3
stride: 2
}
}
layer {
name: "conv2"
type: "Convolution"
bottom: "pool1"
top: "conv2"
param {
lr_mult: 1
decay_mult: 1
}
param {
lr_mult: 2
decay_mult: 0
}
convolution_param {
num_output: 256
pad: 2
kernel_size: 5
group: 2
weight_filler {
type: "gaussian"
std: 0.01
}
bias_filler {
type: "constant"
value: 0.1
}
}
}
layer {
name: "relu2"
type: "ReLU"
bottom: "conv2"
top: "conv2"
}
layer {
name: "norm2"
type: "LRN"
bottom: "conv2"
top: "norm2"
lrn_param {
local_size: 5
alpha: 0.0001
beta: 0.75
}
}
layer {
name: "pool2"
type: "Pooling"
bottom: "norm2"
top: "pool2"
pooling_param {
pool: MAX
kernel_size: 3
stride: 2
}
}
layer {
name: "conv3"
type: "Convolution"
bottom: "pool2"
top: "conv3"
param {
lr_mult: 1
decay_mult: 1
}
param {
lr_mult: 2
decay_mult: 0
}
convolution_param {
num_output: 384
pad: 1
kernel_size: 3
weight_filler {
type: "gaussian"
std: 0.01
}
bias_filler {
type: "constant"
value: 0
}
}
}
layer {
name: "relu3"
type: "ReLU"
bottom: "conv3"
top: "conv3"
}
layer {
name: "conv4"
type: "Convolution"
bottom: "conv3"
top: "conv4"
param {
lr_mult: 1
decay_mult: 1
}
param {
lr_mult: 2
decay_mult: 0
}
convolution_param {
num_output: 384
pad: 1
kernel_size: 3
group: 2
weight_filler {
type: "gaussian"
std: 0.01
}
bias_filler {
type: "constant"
value: 0.1
}
}
}
layer {
name: "relu4"
type: "ReLU"
bottom: "conv4"
top: "conv4"
}
layer {
name: "conv5"
type: "Convolution"
bottom: "conv4"
top: "conv5"
param {
lr_mult: 1
decay_mult: 1
}
param {
lr_mult: 2
decay_mult: 0
}
convolution_param {
num_output: 256
pad: 1
kernel_size: 3
group: 2
weight_filler {
type: "gaussian"
std: 0.01
}
bias_filler {
type: "constant"
value: 0.1
}
}
}
layer {
name: "relu5"
type: "ReLU"
bottom: "conv5"
top: "conv5"
}
layer {
name: "pool5"
type: "Pooling"
bottom: "conv5"
top: "pool5"
pooling_param {
pool: MAX
kernel_size: 3
stride: 2
}
}
layer {
name: "fc6"
type: "InnerProduct"
bottom: "pool5"
top: "fc6"
param {
lr_mult: 1
decay_mult: 1
}
param {
lr_mult: 2
decay_mult: 0
}
inner_product_param {
num_output: 512
weight_filler {
type: "gaussian"
std: 0.005
}
bias_filler {
type: "constant"
value: 0.1
}
}
}
layer {
name: "relu6"
type: "ReLU"
bottom: "fc6"
top: "fc6"
}
layer {
name: "drop6"
type: "Dropout"
bottom: "fc6"
top: "fc6"
dropout_param {
dropout_ratio: 0.5
}
}
layer {
name: "fc7"
type: "InnerProduct"
bottom: "fc6"
top: "fc7"
param {
lr_mult: 1
decay_mult: 1
}
param {
lr_mult: 2
decay_mult: 0
}
inner_product_param {
num_output: 512
weight_filler {
type: "gaussian"
std: 0.005
}
bias_filler {
type: "constant"
value: 0.1
}
}
}
layer {
name: "relu7"
type: "ReLU"
bottom: "fc7"
top: "fc7"
}
layer {
name: "drop7"
type: "Dropout"
bottom: "fc7"
top: "fc7"
dropout_param {
dropout_ratio: 0.5
}
}
layer {
name: "fc7.5"
type: "InnerProduct"
bottom: "fc7"
top: "fc7.5"
param {
lr_mult: 1
decay_mult: 1
}
param {
lr_mult: 2
decay_mult: 0
}
inner_product_param {
num_output: 512
weight_filler {
type: "gaussian"
std: 0.005
}
bias_filler {
type: "constant"
value: 0.1
}
}
}
layer {
name: "relu7.5"
type: "ReLU"
bottom: "fc7.5"
top: "fc7.5"
}
layer {
name: "drop7.5"
type: "Dropout"
bottom: "fc7.5"
top: "fc7.5"
dropout_param {
dropout_ratio: 0.5
}
}
layer {
name: "fc7.6"
type: "InnerProduct"
bottom: "fc7.5"
top: "fc7.6"
param {
lr_mult: 1
decay_mult: 1
}
param {
lr_mult: 2
decay_mult: 0
}
inner_product_param {
num_output: 512
weight_filler {
type: "gaussian"
std: 0.005
}
bias_filler {
type: "constant"
value: 0.1
}
}
}
layer {
name: "relu7.6"
type: "ReLU"
bottom: "fc7.6"
top: "fc7.6"
}
layer {
name: "drop7.6"
type: "Dropout"
bottom: "fc7.6"
top: "fc7.6"
dropout_param {
dropout_ratio: 0.5
}
}
layer {
name: "fc8"
type: "InnerProduct"
bottom: "fc7.6"
top: "fc8"
param {
lr_mult: 1
decay_mult: 1
}
param {
lr_mult: 2
decay_mult: 0
}
inner_product_param {
num_output: 196
weight_filler {
type: "gaussian"
std: 0.01
}
bias_filler {
type: "constant"
value: 0
}
}
}
layer {
name: "loss"
type: "SoftmaxWithLoss"
bottom: "fc8"
bottom: "label"
top: "loss"
}
I0410 02:17:04.063513 30317 layer_factory.hpp:77] Creating layer train-data
I0410 02:17:04.065107 30317 db_lmdb.cpp:35] Opened lmdb /mnt/bigdisk/DIGITS-MAN-2/digits/jobs/20210407-214532-d396/train_db
I0410 02:17:04.065330 30317 net.cpp:84] Creating Layer train-data
I0410 02:17:04.065341 30317 net.cpp:380] train-data -> data
I0410 02:17:04.065362 30317 net.cpp:380] train-data -> label
I0410 02:17:04.065373 30317 data_transformer.cpp:25] Loading mean file from: /mnt/bigdisk/DIGITS-MAN-2/digits/jobs/20210407-214532-d396/mean.binaryproto
I0410 02:17:04.070286 30317 data_layer.cpp:45] output data size: 128,3,227,227
I0410 02:17:04.199153 30317 net.cpp:122] Setting up train-data
I0410 02:17:04.199180 30317 net.cpp:129] Top shape: 128 3 227 227 (19787136)
I0410 02:17:04.199185 30317 net.cpp:129] Top shape: 128 (128)
I0410 02:17:04.199189 30317 net.cpp:137] Memory required for data: 79149056
I0410 02:17:04.199219 30317 layer_factory.hpp:77] Creating layer conv1
I0410 02:17:04.199242 30317 net.cpp:84] Creating Layer conv1
I0410 02:17:04.199249 30317 net.cpp:406] conv1 <- data
I0410 02:17:04.199261 30317 net.cpp:380] conv1 -> conv1
I0410 02:17:04.872066 30317 net.cpp:122] Setting up conv1
I0410 02:17:04.872089 30317 net.cpp:129] Top shape: 128 96 55 55 (37171200)
I0410 02:17:04.872093 30317 net.cpp:137] Memory required for data: 227833856
I0410 02:17:04.872115 30317 layer_factory.hpp:77] Creating layer relu1
I0410 02:17:04.872128 30317 net.cpp:84] Creating Layer relu1
I0410 02:17:04.872131 30317 net.cpp:406] relu1 <- conv1
I0410 02:17:04.872138 30317 net.cpp:367] relu1 -> conv1 (in-place)
I0410 02:17:04.872449 30317 net.cpp:122] Setting up relu1
I0410 02:17:04.872459 30317 net.cpp:129] Top shape: 128 96 55 55 (37171200)
I0410 02:17:04.872462 30317 net.cpp:137] Memory required for data: 376518656
I0410 02:17:04.872467 30317 layer_factory.hpp:77] Creating layer norm1
I0410 02:17:04.872476 30317 net.cpp:84] Creating Layer norm1
I0410 02:17:04.872480 30317 net.cpp:406] norm1 <- conv1
I0410 02:17:04.872486 30317 net.cpp:380] norm1 -> norm1
I0410 02:17:04.872957 30317 net.cpp:122] Setting up norm1
I0410 02:17:04.872968 30317 net.cpp:129] Top shape: 128 96 55 55 (37171200)
I0410 02:17:04.872972 30317 net.cpp:137] Memory required for data: 525203456
I0410 02:17:04.872977 30317 layer_factory.hpp:77] Creating layer pool1
I0410 02:17:04.872984 30317 net.cpp:84] Creating Layer pool1
I0410 02:17:04.872987 30317 net.cpp:406] pool1 <- norm1
I0410 02:17:04.872993 30317 net.cpp:380] pool1 -> pool1
I0410 02:17:04.873032 30317 net.cpp:122] Setting up pool1
I0410 02:17:04.873039 30317 net.cpp:129] Top shape: 128 96 27 27 (8957952)
I0410 02:17:04.873042 30317 net.cpp:137] Memory required for data: 561035264
I0410 02:17:04.873045 30317 layer_factory.hpp:77] Creating layer conv2
I0410 02:17:04.873055 30317 net.cpp:84] Creating Layer conv2
I0410 02:17:04.873059 30317 net.cpp:406] conv2 <- pool1
I0410 02:17:04.873064 30317 net.cpp:380] conv2 -> conv2
I0410 02:17:04.880571 30317 net.cpp:122] Setting up conv2
I0410 02:17:04.880592 30317 net.cpp:129] Top shape: 128 256 27 27 (23887872)
I0410 02:17:04.880596 30317 net.cpp:137] Memory required for data: 656586752
I0410 02:17:04.880611 30317 layer_factory.hpp:77] Creating layer relu2
I0410 02:17:04.880620 30317 net.cpp:84] Creating Layer relu2
I0410 02:17:04.880625 30317 net.cpp:406] relu2 <- conv2
I0410 02:17:04.880631 30317 net.cpp:367] relu2 -> conv2 (in-place)
I0410 02:17:04.881160 30317 net.cpp:122] Setting up relu2
I0410 02:17:04.881170 30317 net.cpp:129] Top shape: 128 256 27 27 (23887872)
I0410 02:17:04.881175 30317 net.cpp:137] Memory required for data: 752138240
I0410 02:17:04.881178 30317 layer_factory.hpp:77] Creating layer norm2
I0410 02:17:04.881187 30317 net.cpp:84] Creating Layer norm2
I0410 02:17:04.881191 30317 net.cpp:406] norm2 <- conv2
I0410 02:17:04.881197 30317 net.cpp:380] norm2 -> norm2
I0410 02:17:04.881584 30317 net.cpp:122] Setting up norm2
I0410 02:17:04.881593 30317 net.cpp:129] Top shape: 128 256 27 27 (23887872)
I0410 02:17:04.881597 30317 net.cpp:137] Memory required for data: 847689728
I0410 02:17:04.881600 30317 layer_factory.hpp:77] Creating layer pool2
I0410 02:17:04.881609 30317 net.cpp:84] Creating Layer pool2
I0410 02:17:04.881613 30317 net.cpp:406] pool2 <- norm2
I0410 02:17:04.881618 30317 net.cpp:380] pool2 -> pool2
I0410 02:17:04.881650 30317 net.cpp:122] Setting up pool2
I0410 02:17:04.881656 30317 net.cpp:129] Top shape: 128 256 13 13 (5537792)
I0410 02:17:04.881659 30317 net.cpp:137] Memory required for data: 869840896
I0410 02:17:04.881662 30317 layer_factory.hpp:77] Creating layer conv3
I0410 02:17:04.881673 30317 net.cpp:84] Creating Layer conv3
I0410 02:17:04.881677 30317 net.cpp:406] conv3 <- pool2
I0410 02:17:04.881685 30317 net.cpp:380] conv3 -> conv3
I0410 02:17:04.896158 30317 net.cpp:122] Setting up conv3
I0410 02:17:04.896180 30317 net.cpp:129] Top shape: 128 384 13 13 (8306688)
I0410 02:17:04.896184 30317 net.cpp:137] Memory required for data: 903067648
I0410 02:17:04.896222 30317 layer_factory.hpp:77] Creating layer relu3
I0410 02:17:04.896234 30317 net.cpp:84] Creating Layer relu3
I0410 02:17:04.896239 30317 net.cpp:406] relu3 <- conv3
I0410 02:17:04.896246 30317 net.cpp:367] relu3 -> conv3 (in-place)
I0410 02:17:04.896778 30317 net.cpp:122] Setting up relu3
I0410 02:17:04.896788 30317 net.cpp:129] Top shape: 128 384 13 13 (8306688)
I0410 02:17:04.896792 30317 net.cpp:137] Memory required for data: 936294400
I0410 02:17:04.896797 30317 layer_factory.hpp:77] Creating layer conv4
I0410 02:17:04.896811 30317 net.cpp:84] Creating Layer conv4
I0410 02:17:04.896814 30317 net.cpp:406] conv4 <- conv3
I0410 02:17:04.896823 30317 net.cpp:380] conv4 -> conv4
I0410 02:17:04.908443 30317 net.cpp:122] Setting up conv4
I0410 02:17:04.908464 30317 net.cpp:129] Top shape: 128 384 13 13 (8306688)
I0410 02:17:04.908468 30317 net.cpp:137] Memory required for data: 969521152
I0410 02:17:04.908478 30317 layer_factory.hpp:77] Creating layer relu4
I0410 02:17:04.908488 30317 net.cpp:84] Creating Layer relu4
I0410 02:17:04.908493 30317 net.cpp:406] relu4 <- conv4
I0410 02:17:04.908500 30317 net.cpp:367] relu4 -> conv4 (in-place)
I0410 02:17:04.908874 30317 net.cpp:122] Setting up relu4
I0410 02:17:04.908885 30317 net.cpp:129] Top shape: 128 384 13 13 (8306688)
I0410 02:17:04.908888 30317 net.cpp:137] Memory required for data: 1002747904
I0410 02:17:04.908892 30317 layer_factory.hpp:77] Creating layer conv5
I0410 02:17:04.908905 30317 net.cpp:84] Creating Layer conv5
I0410 02:17:04.908908 30317 net.cpp:406] conv5 <- conv4
I0410 02:17:04.908915 30317 net.cpp:380] conv5 -> conv5
I0410 02:17:04.918295 30317 net.cpp:122] Setting up conv5
I0410 02:17:04.918316 30317 net.cpp:129] Top shape: 128 256 13 13 (5537792)
I0410 02:17:04.918320 30317 net.cpp:137] Memory required for data: 1024899072
I0410 02:17:04.918336 30317 layer_factory.hpp:77] Creating layer relu5
I0410 02:17:04.918346 30317 net.cpp:84] Creating Layer relu5
I0410 02:17:04.918351 30317 net.cpp:406] relu5 <- conv5
I0410 02:17:04.918359 30317 net.cpp:367] relu5 -> conv5 (in-place)
I0410 02:17:04.918901 30317 net.cpp:122] Setting up relu5
I0410 02:17:04.918911 30317 net.cpp:129] Top shape: 128 256 13 13 (5537792)
I0410 02:17:04.918915 30317 net.cpp:137] Memory required for data: 1047050240
I0410 02:17:04.918920 30317 layer_factory.hpp:77] Creating layer pool5
I0410 02:17:04.918926 30317 net.cpp:84] Creating Layer pool5
I0410 02:17:04.918931 30317 net.cpp:406] pool5 <- conv5
I0410 02:17:04.918937 30317 net.cpp:380] pool5 -> pool5
I0410 02:17:04.918977 30317 net.cpp:122] Setting up pool5
I0410 02:17:04.918984 30317 net.cpp:129] Top shape: 128 256 6 6 (1179648)
I0410 02:17:04.918988 30317 net.cpp:137] Memory required for data: 1051768832
I0410 02:17:04.918992 30317 layer_factory.hpp:77] Creating layer fc6
I0410 02:17:04.919003 30317 net.cpp:84] Creating Layer fc6
I0410 02:17:04.919006 30317 net.cpp:406] fc6 <- pool5
I0410 02:17:04.919013 30317 net.cpp:380] fc6 -> fc6
I0410 02:17:04.968045 30317 net.cpp:122] Setting up fc6
I0410 02:17:04.968068 30317 net.cpp:129] Top shape: 128 512 (65536)
I0410 02:17:04.968073 30317 net.cpp:137] Memory required for data: 1052030976
I0410 02:17:04.968084 30317 layer_factory.hpp:77] Creating layer relu6
I0410 02:17:04.968094 30317 net.cpp:84] Creating Layer relu6
I0410 02:17:04.968101 30317 net.cpp:406] relu6 <- fc6
I0410 02:17:04.968107 30317 net.cpp:367] relu6 -> fc6 (in-place)
I0410 02:17:04.968827 30317 net.cpp:122] Setting up relu6
I0410 02:17:04.968840 30317 net.cpp:129] Top shape: 128 512 (65536)
I0410 02:17:04.968844 30317 net.cpp:137] Memory required for data: 1052293120
I0410 02:17:04.968849 30317 layer_factory.hpp:77] Creating layer drop6
I0410 02:17:04.968858 30317 net.cpp:84] Creating Layer drop6
I0410 02:17:04.968863 30317 net.cpp:406] drop6 <- fc6
I0410 02:17:04.968869 30317 net.cpp:367] drop6 -> fc6 (in-place)
I0410 02:17:04.968904 30317 net.cpp:122] Setting up drop6
I0410 02:17:04.968911 30317 net.cpp:129] Top shape: 128 512 (65536)
I0410 02:17:04.968935 30317 net.cpp:137] Memory required for data: 1052555264
I0410 02:17:04.968940 30317 layer_factory.hpp:77] Creating layer fc7
I0410 02:17:04.968950 30317 net.cpp:84] Creating Layer fc7
I0410 02:17:04.968953 30317 net.cpp:406] fc7 <- fc6
I0410 02:17:04.968959 30317 net.cpp:380] fc7 -> fc7
I0410 02:17:04.971516 30317 net.cpp:122] Setting up fc7
I0410 02:17:04.971526 30317 net.cpp:129] Top shape: 128 512 (65536)
I0410 02:17:04.971529 30317 net.cpp:137] Memory required for data: 1052817408
I0410 02:17:04.971536 30317 layer_factory.hpp:77] Creating layer relu7
I0410 02:17:04.971544 30317 net.cpp:84] Creating Layer relu7
I0410 02:17:04.971547 30317 net.cpp:406] relu7 <- fc7
I0410 02:17:04.971554 30317 net.cpp:367] relu7 -> fc7 (in-place)
I0410 02:17:04.974507 30317 net.cpp:122] Setting up relu7
I0410 02:17:04.974519 30317 net.cpp:129] Top shape: 128 512 (65536)
I0410 02:17:04.974521 30317 net.cpp:137] Memory required for data: 1053079552
I0410 02:17:04.974526 30317 layer_factory.hpp:77] Creating layer drop7
I0410 02:17:04.974534 30317 net.cpp:84] Creating Layer drop7
I0410 02:17:04.974539 30317 net.cpp:406] drop7 <- fc7
I0410 02:17:04.974545 30317 net.cpp:367] drop7 -> fc7 (in-place)
I0410 02:17:04.974571 30317 net.cpp:122] Setting up drop7
I0410 02:17:04.974577 30317 net.cpp:129] Top shape: 128 512 (65536)
I0410 02:17:04.974581 30317 net.cpp:137] Memory required for data: 1053341696
I0410 02:17:04.974584 30317 layer_factory.hpp:77] Creating layer fc7.5
I0410 02:17:04.974593 30317 net.cpp:84] Creating Layer fc7.5
I0410 02:17:04.974598 30317 net.cpp:406] fc7.5 <- fc7
I0410 02:17:04.974606 30317 net.cpp:380] fc7.5 -> fc7.5
I0410 02:17:04.977777 30317 net.cpp:122] Setting up fc7.5
I0410 02:17:04.977787 30317 net.cpp:129] Top shape: 128 512 (65536)
I0410 02:17:04.977792 30317 net.cpp:137] Memory required for data: 1053603840
I0410 02:17:04.977798 30317 layer_factory.hpp:77] Creating layer relu7.5
I0410 02:17:04.977805 30317 net.cpp:84] Creating Layer relu7.5
I0410 02:17:04.977809 30317 net.cpp:406] relu7.5 <- fc7.5
I0410 02:17:04.977816 30317 net.cpp:367] relu7.5 -> fc7.5 (in-place)
I0410 02:17:04.978397 30317 net.cpp:122] Setting up relu7.5
I0410 02:17:04.978408 30317 net.cpp:129] Top shape: 128 512 (65536)
I0410 02:17:04.978411 30317 net.cpp:137] Memory required for data: 1053865984
I0410 02:17:04.978415 30317 layer_factory.hpp:77] Creating layer drop7.5
I0410 02:17:04.978422 30317 net.cpp:84] Creating Layer drop7.5
I0410 02:17:04.978426 30317 net.cpp:406] drop7.5 <- fc7.5
I0410 02:17:04.978433 30317 net.cpp:367] drop7.5 -> fc7.5 (in-place)
I0410 02:17:04.978461 30317 net.cpp:122] Setting up drop7.5
I0410 02:17:04.978467 30317 net.cpp:129] Top shape: 128 512 (65536)
I0410 02:17:04.978471 30317 net.cpp:137] Memory required for data: 1054128128
I0410 02:17:04.978474 30317 layer_factory.hpp:77] Creating layer fc7.6
I0410 02:17:04.978482 30317 net.cpp:84] Creating Layer fc7.6
I0410 02:17:04.978487 30317 net.cpp:406] fc7.6 <- fc7.5
I0410 02:17:04.978493 30317 net.cpp:380] fc7.6 -> fc7.6
I0410 02:17:04.980983 30317 net.cpp:122] Setting up fc7.6
I0410 02:17:04.980991 30317 net.cpp:129] Top shape: 128 512 (65536)
I0410 02:17:04.980995 30317 net.cpp:137] Memory required for data: 1054390272
I0410 02:17:04.981006 30317 layer_factory.hpp:77] Creating layer relu7.6
I0410 02:17:04.981014 30317 net.cpp:84] Creating Layer relu7.6
I0410 02:17:04.981019 30317 net.cpp:406] relu7.6 <- fc7.6
I0410 02:17:04.981024 30317 net.cpp:367] relu7.6 -> fc7.6 (in-place)
I0410 02:17:04.981559 30317 net.cpp:122] Setting up relu7.6
I0410 02:17:04.981570 30317 net.cpp:129] Top shape: 128 512 (65536)
I0410 02:17:04.981573 30317 net.cpp:137] Memory required for data: 1054652416
I0410 02:17:04.981577 30317 layer_factory.hpp:77] Creating layer drop7.6
I0410 02:17:04.981585 30317 net.cpp:84] Creating Layer drop7.6
I0410 02:17:04.981588 30317 net.cpp:406] drop7.6 <- fc7.6
I0410 02:17:04.981595 30317 net.cpp:367] drop7.6 -> fc7.6 (in-place)
I0410 02:17:04.981621 30317 net.cpp:122] Setting up drop7.6
I0410 02:17:04.981627 30317 net.cpp:129] Top shape: 128 512 (65536)
I0410 02:17:04.981647 30317 net.cpp:137] Memory required for data: 1054914560
I0410 02:17:04.981652 30317 layer_factory.hpp:77] Creating layer fc8
I0410 02:17:04.981658 30317 net.cpp:84] Creating Layer fc8
I0410 02:17:04.981662 30317 net.cpp:406] fc8 <- fc7.6
I0410 02:17:04.981671 30317 net.cpp:380] fc8 -> fc8
I0410 02:17:04.982730 30317 net.cpp:122] Setting up fc8
I0410 02:17:04.982739 30317 net.cpp:129] Top shape: 128 196 (25088)
I0410 02:17:04.982743 30317 net.cpp:137] Memory required for data: 1055014912
I0410 02:17:04.982749 30317 layer_factory.hpp:77] Creating layer loss
I0410 02:17:04.982756 30317 net.cpp:84] Creating Layer loss
I0410 02:17:04.982760 30317 net.cpp:406] loss <- fc8
I0410 02:17:04.982766 30317 net.cpp:406] loss <- label
I0410 02:17:04.982774 30317 net.cpp:380] loss -> loss
I0410 02:17:04.982782 30317 layer_factory.hpp:77] Creating layer loss
…
I0410 02:17:04.984268 30317 net.cpp:294] The NetState phase (1) differed from the phase (0) specified by a rule in layer train-data
I0410 02:17:04.984457 30317 net.cpp:51] Initializing net from parameters:
state {
phase: TEST
}
layer {
name: "val-data"
type: "Data"
top: "data"
top: "label"
include {
phase: TEST
}
transform_param {
crop_size: 227
mean_file: "/mnt/bigdisk/DIGITS-MAN-2/digits/jobs/20210407-214532-d396/mean.binaryproto"
}
data_param {
source: "/mnt/bigdisk/DIGITS-MAN-2/digits/jobs/20210407-214532-d396/val_db"
batch_size: 32
backend: LMDB
}
}
layer {
name: "conv1"
type: "Convolution"
bottom: "data"
top: "conv1"
param {
lr_mult: 1
decay_mult: 1
}
param {
lr_mult: 2
decay_mult: 0
}
convolution_param {
num_output: 96
kernel_size: 11
stride: 4
weight_filler {
type: "gaussian"
std: 0.01
}
bias_filler {
type: "constant"
value: 0
}
}
}
layer {
name: "relu1"
type: "ReLU"
bottom: "conv1"
top: "conv1"
}
layer {
name: "norm1"
type: "LRN"
bottom: "conv1"
top: "norm1"
lrn_param {
local_size: 5
alpha: 0.0001
beta: 0.75
}
}
layer {
name: "pool1"
type: "Pooling"
bottom: "norm1"
top: "pool1"
pooling_param {
pool: MAX
kernel_size: 3
stride: 2
}
}
layer {
name: "conv2"
type: "Convolution"
bottom: "pool1"
top: "conv2"
param {
lr_mult: 1
decay_mult: 1
}
param {
lr_mult: 2
decay_mult: 0
}
convolution_param {
num_output: 256
pad: 2
kernel_size: 5
group: 2
weight_filler {
type: "gaussian"
std: 0.01
}
bias_filler {
type: "constant"
value: 0.1
}
}
}
layer {
name: "relu2"
type: "ReLU"
bottom: "conv2"
top: "conv2"
}
layer {
name: "norm2"
type: "LRN"
bottom: "conv2"
top: "norm2"
lrn_param {
local_size: 5
alpha: 0.0001
beta: 0.75
}
}
layer {
name: "pool2"
type: "Pooling"
bottom: "norm2"
top: "pool2"
pooling_param {
pool: MAX
kernel_size: 3
stride: 2
}
}
layer {
name: "conv3"
type: "Convolution"
bottom: "pool2"
top: "conv3"
param {
lr_mult: 1
decay_mult: 1
}
param {
lr_mult: 2
decay_mult: 0
}
convolution_param {
num_output: 384
pad: 1
kernel_size: 3
weight_filler {
type: "gaussian"
std: 0.01
}
bias_filler {
type: "constant"
value: 0
}
}
}
layer {
name: "relu3"
type: "ReLU"
bottom: "conv3"
top: "conv3"
}
layer {
name: "conv4"
type: "Convolution"
bottom: "conv3"
top: "conv4"
param {
lr_mult: 1
decay_mult: 1
}
param {
lr_mult: 2
decay_mult: 0
}
convolution_param {
num_output: 384
pad: 1
kernel_size: 3
group: 2
weight_filler {
type: "gaussian"
std: 0.01
}
bias_filler {
type: "constant"
value: 0.1
}
}
}
layer {
name: "relu4"
type: "ReLU"
bottom: "conv4"
top: "conv4"
}
layer {
name: "conv5"
type: "Convolution"
bottom: "conv4"
top: "conv5"
param {
lr_mult: 1
decay_mult: 1
}
param {
lr_mult: 2
decay_mult: 0
}
convolution_param {
num_output: 256
pad: 1
kernel_size: 3
group: 2
weight_filler {
type: "gaussian"
std: 0.01
}
bias_filler {
type: "constant"
value: 0.1
}
}
}
layer {
name: "relu5"
type: "ReLU"
bottom: "conv5"
top: "conv5"
}
layer {
name: "pool5"
type: "Pooling"
bottom: "conv5"
top: "pool5"
pooling_param {
pool: MAX
kernel_size: 3
stride: 2
}
}
layer {
name: "fc6"
type: "InnerProduct"
bottom: "pool5"
top: "fc6"
param {
lr_mult: 1
decay_mult: 1
}
param {
lr_mult: 2
decay_mult: 0
}
inner_product_param {
num_output: 512
weight_filler {
type: "gaussian"
std: 0.005
}
bias_filler {
type: "constant"
value: 0.1
}
}
}
layer {
name: "relu6"
type: "ReLU"
bottom: "fc6"
top: "fc6"
}
layer {
name: "drop6"
type: "Dropout"
bottom: "fc6"
top: "fc6"
dropout_param {
dropout_ratio: 0.5
}
}
layer {
name: "fc7"
type: "InnerProduct"
bottom: "fc6"
top: "fc7"
param {
lr_mult: 1
decay_mult: 1
}
param {
lr_mult: 2
decay_mult: 0
}
inner_product_param {
num_output: 512
weight_filler {
type: "gaussian"
std: 0.005
}
bias_filler {
type: "constant"
value: 0.1
}
}
}
layer {
name: "relu7"
type: "ReLU"
bottom: "fc7"
top: "fc7"
}
layer {
name: "drop7"
type: "Dropout"
bottom: "fc7"
top: "fc7"
dropout_param {
dropout_ratio: 0.5
}
}
layer {
name: "fc7.5"
type: "InnerProduct"
bottom: "fc7"
top: "fc7.5"
param {
lr_mult: 1
decay_mult: 1
}
param {
lr_mult: 2
decay_mult: 0
}
inner_product_param {
num_output: 512
weight_filler {
type: "gaussian"
std: 0.005
}
bias_filler {
type: "constant"
value: 0.1
}
}
}
layer {
name: "relu7.5"
type: "ReLU"
bottom: "fc7.5"
top: "fc7.5"
}
layer {
name: "drop7.5"
type: "Dropout"
bottom: "fc7.5"
top: "fc7.5"
dropout_param {
dropout_ratio: 0.5
}
}
layer {
name: "fc7.6"
type: "InnerProduct"
bottom: "fc7.5"
top: "fc7.6"
param {
lr_mult: 1
decay_mult: 1
}
param {
lr_mult: 2
decay_mult: 0
}
inner_product_param {
num_output: 512
weight_filler {
type: "gaussian"
std: 0.005
}
bias_filler {
type: "constant"
value: 0.1
}
}
}
layer {
name: "relu7.6"
type: "ReLU"
bottom: "fc7.6"
top: "fc7.6"
}
layer {
name: "drop7.6"
type: "Dropout"
bottom: "fc7.6"
top: "fc7.6"
dropout_param {
dropout_ratio: 0.5
}
}
layer {
name: "fc8"
type: "InnerProduct"
bottom: "fc7.6"
top: "fc8"
param {
lr_mult: 1
decay_mult: 1
}
param {
lr_mult: 2
decay_mult: 0
}
inner_product_param {
num_output: 196
weight_filler {
type: "gaussian"
std: 0.01
}
bias_filler {
type: "constant"
value: 0
}
}
}
layer {
name: "accuracy"
type: "Accuracy"
bottom: "fc8"
bottom: "label"
top: "accuracy"
include {
phase: TEST
}
}
layer {
name: "loss"
type: "SoftmaxWithLoss"
bottom: "fc8"
bottom: "label"
top: "loss"
}
I0410 02:17:04.984578 30317 layer_factory.hpp:77] Creating layer val-data
I0410 02:17:04.986289 30317 db_lmdb.cpp:35] Opened lmdb /mnt/bigdisk/DIGITS-MAN-2/digits/jobs/20210407-214532-d396/val_db
I0410 02:17:04.986495 30317 net.cpp:84] Creating Layer val-data
I0410 02:17:04.986505 30317 net.cpp:380] val-data -> data
I0410 02:17:04.986513 30317 net.cpp:380] val-data -> label
I0410 02:17:04.986521 30317 data_transformer.cpp:25] Loading mean file from: /mnt/bigdisk/DIGITS-MAN-2/digits/jobs/20210407-214532-d396/mean.binaryproto
I0410 02:17:04.993643 30317 data_layer.cpp:45] output data size: 32,3,227,227
I0410 02:17:05.028856 30317 net.cpp:122] Setting up val-data
I0410 02:17:05.028877 30317 net.cpp:129] Top shape: 32 3 227 227 (4946784)
I0410 02:17:05.028882 30317 net.cpp:129] Top shape: 32 (32)
I0410 02:17:05.028884 30317 net.cpp:137] Memory required for data: 19787264
I0410 02:17:05.028892 30317 layer_factory.hpp:77] Creating layer label_val-data_1_split
I0410 02:17:05.028903 30317 net.cpp:84] Creating Layer label_val-data_1_split
I0410 02:17:05.028908 30317 net.cpp:406] label_val-data_1_split <- label
I0410 02:17:05.028914 30317 net.cpp:380] label_val-data_1_split -> label_val-data_1_split_0
I0410 02:17:05.028924 30317 net.cpp:380] label_val-data_1_split -> label_val-data_1_split_1
I0410 02:17:05.029089 30317 net.cpp:122] Setting up label_val-data_1_split
I0410 02:17:05.029096 30317 net.cpp:129] Top shape: 32 (32)
I0410 02:17:05.029100 30317 net.cpp:129] Top shape: 32 (32)
I0410 02:17:05.029103 30317 net.cpp:137] Memory required for data: 19787520
I0410 02:17:05.029106 30317 layer_factory.hpp:77] Creating layer conv1
I0410 02:17:05.029119 30317 net.cpp:84] Creating Layer conv1
I0410 02:17:05.029124 30317 net.cpp:406] conv1 <- data
I0410 02:17:05.029130 30317 net.cpp:380] conv1 -> conv1
I0410 02:17:05.032557 30317 net.cpp:122] Setting up conv1
I0410 02:17:05.032573 30317 net.cpp:129] Top shape: 32 96 55 55 (9292800)
I0410 02:17:05.032577 30317 net.cpp:137] Memory required for data: 56958720
I0410 02:17:05.032588 30317 layer_factory.hpp:77] Creating layer relu1
I0410 02:17:05.032598 30317 net.cpp:84] Creating Layer relu1
I0410 02:17:05.032601 30317 net.cpp:406] relu1 <- conv1
I0410 02:17:05.032608 30317 net.cpp:367] relu1 -> conv1 (in-place)
I0410 02:17:05.034198 30317 net.cpp:122] Setting up relu1
I0410 02:17:05.034211 30317 net.cpp:129] Top shape: 32 96 55 55 (9292800)
I0410 02:17:05.034215 30317 net.cpp:137] Memory required for data: 94129920
I0410 02:17:05.034219 30317 layer_factory.hpp:77] Creating layer norm1
I0410 02:17:05.034231 30317 net.cpp:84] Creating Layer norm1
I0410 02:17:05.034236 30317 net.cpp:406] norm1 <- conv1
I0410 02:17:05.034242 30317 net.cpp:380] norm1 -> norm1
I0410 02:17:05.034740 30317 net.cpp:122] Setting up norm1
I0410 02:17:05.034750 30317 net.cpp:129] Top shape: 32 96 55 55 (9292800)
I0410 02:17:05.034754 30317 net.cpp:137] Memory required for data: 131301120
I0410 02:17:05.034759 30317 layer_factory.hpp:77] Creating layer pool1
I0410 02:17:05.034766 30317 net.cpp:84] Creating Layer pool1
I0410 02:17:05.034770 30317 net.cpp:406] pool1 <- norm1
I0410 02:17:05.034775 30317 net.cpp:380] pool1 -> pool1
I0410 02:17:05.034807 30317 net.cpp:122] Setting up pool1
I0410 02:17:05.034813 30317 net.cpp:129] Top shape: 32 96 27 27 (2239488)
I0410 02:17:05.034816 30317 net.cpp:137] Memory required for data: 140259072
I0410 02:17:05.034821 30317 layer_factory.hpp:77] Creating layer conv2
I0410 02:17:05.034830 30317 net.cpp:84] Creating Layer conv2
I0410 02:17:05.034834 30317 net.cpp:406] conv2 <- pool1
I0410 02:17:05.034839 30317 net.cpp:380] conv2 -> conv2
I0410 02:17:05.041988 30317 net.cpp:122] Setting up conv2
I0410 02:17:05.042011 30317 net.cpp:129] Top shape: 32 256 27 27 (5971968)
I0410 02:17:05.042016 30317 net.cpp:137] Memory required for data: 164146944
I0410 02:17:05.042029 30317 layer_factory.hpp:77] Creating layer relu2
I0410 02:17:05.042040 30317 net.cpp:84] Creating Layer relu2
I0410 02:17:05.042047 30317 net.cpp:406] relu2 <- conv2
I0410 02:17:05.042053 30317 net.cpp:367] relu2 -> conv2 (in-place)
I0410 02:17:05.042440 30317 net.cpp:122] Setting up relu2
I0410 02:17:05.042450 30317 net.cpp:129] Top shape: 32 256 27 27 (5971968)
I0410 02:17:05.042455 30317 net.cpp:137] Memory required for data: 188034816
I0410 02:17:05.042459 30317 layer_factory.hpp:77] Creating layer norm2
I0410 02:17:05.042469 30317 net.cpp:84] Creating Layer norm2
I0410 02:17:05.042474 30317 net.cpp:406] norm2 <- conv2
I0410 02:17:05.042480 30317 net.cpp:380] norm2 -> norm2
I0410 02:17:05.043047 30317 net.cpp:122] Setting up norm2
I0410 02:17:05.043057 30317 net.cpp:129] Top shape: 32 256 27 27 (5971968)
I0410 02:17:05.043062 30317 net.cpp:137] Memory required for data: 211922688
I0410 02:17:05.043066 30317 layer_factory.hpp:77] Creating layer pool2
I0410 02:17:05.043076 30317 net.cpp:84] Creating Layer pool2
I0410 02:17:05.043079 30317 net.cpp:406] pool2 <- norm2
I0410 02:17:05.043087 30317 net.cpp:380] pool2 -> pool2
I0410 02:17:05.043123 30317 net.cpp:122] Setting up pool2
I0410 02:17:05.043128 30317 net.cpp:129] Top shape: 32 256 13 13 (1384448)
I0410 02:17:05.043131 30317 net.cpp:137] Memory required for data: 217460480
I0410 02:17:05.043136 30317 layer_factory.hpp:77] Creating layer conv3
I0410 02:17:05.043148 30317 net.cpp:84] Creating Layer conv3
I0410 02:17:05.043152 30317 net.cpp:406] conv3 <- pool2
I0410 02:17:05.043159 30317 net.cpp:380] conv3 -> conv3
I0410 02:17:05.056205 30317 net.cpp:122] Setting up conv3
I0410 02:17:05.056224 30317 net.cpp:129] Top shape: 32 384 13 13 (2076672)
I0410 02:17:05.056228 30317 net.cpp:137] Memory required for data: 225767168
I0410 02:17:05.056242 30317 layer_factory.hpp:77] Creating layer relu3
I0410 02:17:05.056253 30317 net.cpp:84] Creating Layer relu3
I0410 02:17:05.056258 30317 net.cpp:406] relu3 <- conv3
I0410 02:17:05.056265 30317 net.cpp:367] relu3 -> conv3 (in-place)
I0410 02:17:05.056807 30317 net.cpp:122] Setting up relu3
I0410 02:17:05.056818 30317 net.cpp:129] Top shape: 32 384 13 13 (2076672)
I0410 02:17:05.056823 30317 net.cpp:137] Memory required for data: 234073856
I0410 02:17:05.056826 30317 layer_factory.hpp:77] Creating layer conv4
I0410 02:17:05.056839 30317 net.cpp:84] Creating Layer conv4
I0410 02:17:05.056843 30317 net.cpp:406] conv4 <- conv3
I0410 02:17:05.056869 30317 net.cpp:380] conv4 -> conv4
I0410 02:17:05.072791 30317 net.cpp:122] Setting up conv4
I0410 02:17:05.072811 30317 net.cpp:129] Top shape: 32 384 13 13 (2076672)
I0410 02:17:05.072815 30317 net.cpp:137] Memory required for data: 242380544
I0410 02:17:05.072824 30317 layer_factory.hpp:77] Creating layer relu4
I0410 02:17:05.072836 30317 net.cpp:84] Creating Layer relu4
I0410 02:17:05.072841 30317 net.cpp:406] relu4 <- conv4
I0410 02:17:05.072847 30317 net.cpp:367] relu4 -> conv4 (in-place)
I0410 02:17:05.074839 30317 net.cpp:122] Setting up relu4
I0410 02:17:05.074856 30317 net.cpp:129] Top shape: 32 384 13 13 (2076672)
I0410 02:17:05.074860 30317 net.cpp:137] Memory required for data: 250687232
I0410 02:17:05.074867 30317 layer_factory.hpp:77] Creating layer conv5
I0410 02:17:05.074883 30317 net.cpp:84] Creating Layer conv5
I0410 02:17:05.074888 30317 net.cpp:406] conv5 <- conv4
I0410 02:17:05.074896 30317 net.cpp:380] conv5 -> conv5
I0410 02:17:05.083722 30317 net.cpp:122] Setting up conv5
I0410 02:17:05.083745 30317 net.cpp:129] Top shape: 32 256 13 13 (1384448)
I0410 02:17:05.083748 30317 net.cpp:137] Memory required for data: 256225024
I0410 02:17:05.083762 30317 layer_factory.hpp:77] Creating layer relu5
I0410 02:17:05.083773 30317 net.cpp:84] Creating Layer relu5
I0410 02:17:05.083779 30317 net.cpp:406] relu5 <- conv5
I0410 02:17:05.083786 30317 net.cpp:367] relu5 -> conv5 (in-place)
I0410 02:17:05.084177 30317 net.cpp:122] Setting up relu5
I0410 02:17:05.084185 30317 net.cpp:129] Top shape: 32 256 13 13 (1384448)
I0410 02:17:05.084190 30317 net.cpp:137] Memory required for data: 261762816
I0410 02:17:05.084194 30317 layer_factory.hpp:77] Creating layer pool5
I0410 02:17:05.084205 30317 net.cpp:84] Creating Layer pool5
I0410 02:17:05.084209 30317 net.cpp:406] pool5 <- conv5
I0410 02:17:05.084216 30317 net.cpp:380] pool5 -> pool5
I0410 02:17:05.084259 30317 net.cpp:122] Setting up pool5
I0410 02:17:05.084265 30317 net.cpp:129] Top shape: 32 256 6 6 (294912)
I0410 02:17:05.084270 30317 net.cpp:137] Memory required for data: 262942464
I0410 02:17:05.084273 30317 layer_factory.hpp:77] Creating layer fc6
I0410 02:17:05.084283 30317 net.cpp:84] Creating Layer fc6
I0410 02:17:05.084287 30317 net.cpp:406] fc6 <- pool5
I0410 02:17:05.084293 30317 net.cpp:380] fc6 -> fc6
I0410 02:17:05.135205 30317 net.cpp:122] Setting up fc6
I0410 02:17:05.135226 30317 net.cpp:129] Top shape: 32 512 (16384)
I0410 02:17:05.135231 30317 net.cpp:137] Memory required for data: 263008000
I0410 02:17:05.135241 30317 layer_factory.hpp:77] Creating layer relu6
I0410 02:17:05.135248 30317 net.cpp:84] Creating Layer relu6
I0410 02:17:05.135253 30317 net.cpp:406] relu6 <- fc6
I0410 02:17:05.135262 30317 net.cpp:367] relu6 -> fc6 (in-place)
I0410 02:17:05.135949 30317 net.cpp:122] Setting up relu6
I0410 02:17:05.135958 30317 net.cpp:129] Top shape: 32 512 (16384)
I0410 02:17:05.135962 30317 net.cpp:137] Memory required for data: 263073536
I0410 02:17:05.135967 30317 layer_factory.hpp:77] Creating layer drop6
I0410 02:17:05.135972 30317 net.cpp:84] Creating Layer drop6
I0410 02:17:05.135977 30317 net.cpp:406] drop6 <- fc6
I0410 02:17:05.135983 30317 net.cpp:367] drop6 -> fc6 (in-place)
I0410 02:17:05.136011 30317 net.cpp:122] Setting up drop6
I0410 02:17:05.136016 30317 net.cpp:129] Top shape: 32 512 (16384)
I0410 02:17:05.136019 30317 net.cpp:137] Memory required for data: 263139072
I0410 02:17:05.136023 30317 layer_factory.hpp:77] Creating layer fc7
I0410 02:17:05.136031 30317 net.cpp:84] Creating Layer fc7
I0410 02:17:05.136034 30317 net.cpp:406] fc7 <- fc6
I0410 02:17:05.136041 30317 net.cpp:380] fc7 -> fc7
I0410 02:17:05.139223 30317 net.cpp:122] Setting up fc7
I0410 02:17:05.139237 30317 net.cpp:129] Top shape: 32 512 (16384)
I0410 02:17:05.139240 30317 net.cpp:137] Memory required for data: 263204608
I0410 02:17:05.139248 30317 layer_factory.hpp:77] Creating layer relu7
I0410 02:17:05.139256 30317 net.cpp:84] Creating Layer relu7
I0410 02:17:05.139259 30317 net.cpp:406] relu7 <- fc7
I0410 02:17:05.139266 30317 net.cpp:367] relu7 -> fc7 (in-place)
I0410 02:17:05.139860 30317 net.cpp:122] Setting up relu7
I0410 02:17:05.139869 30317 net.cpp:129] Top shape: 32 512 (16384)
I0410 02:17:05.139873 30317 net.cpp:137] Memory required for data: 263270144
I0410 02:17:05.139878 30317 layer_factory.hpp:77] Creating layer drop7
I0410 02:17:05.139885 30317 net.cpp:84] Creating Layer drop7
I0410 02:17:05.139889 30317 net.cpp:406] drop7 <- fc7
I0410 02:17:05.139894 30317 net.cpp:367] drop7 -> fc7 (in-place)
I0410 02:17:05.139922 30317 net.cpp:122] Setting up drop7
I0410 02:17:05.139928 30317 net.cpp:129] Top shape: 32 512 (16384)
I0410 02:17:05.139931 30317 net.cpp:137] Memory required for data: 263335680
I0410 02:17:05.139935 30317 layer_factory.hpp:77] Creating layer fc7.5
I0410 02:17:05.139941 30317 net.cpp:84] Creating Layer fc7.5
I0410 02:17:05.139945 30317 net.cpp:406] fc7.5 <- fc7
I0410 02:17:05.139951 30317 net.cpp:380] fc7.5 -> fc7.5
I0410 02:17:05.142489 30317 net.cpp:122] Setting up fc7.5
I0410 02:17:05.142503 30317 net.cpp:129] Top shape: 32 512 (16384)
I0410 02:17:05.142505 30317 net.cpp:137] Memory required for data: 263401216
I0410 02:17:05.142513 30317 layer_factory.hpp:77] Creating layer relu7.5
I0410 02:17:05.142519 30317 net.cpp:84] Creating Layer relu7.5
I0410 02:17:05.142524 30317 net.cpp:406] relu7.5 <- fc7.5
I0410 02:17:05.142529 30317 net.cpp:367] relu7.5 -> fc7.5 (in-place)
I0410 02:17:05.144284 30317 net.cpp:122] Setting up relu7.5
I0410 02:17:05.144295 30317 net.cpp:129] Top shape: 32 512 (16384)
I0410 02:17:05.144299 30317 net.cpp:137] Memory required for data: 263466752
I0410 02:17:05.144304 30317 layer_factory.hpp:77] Creating layer drop7.5
I0410 02:17:05.144310 30317 net.cpp:84] Creating Layer drop7.5
I0410 02:17:05.144315 30317 net.cpp:406] drop7.5 <- fc7.5
I0410 02:17:05.144321 30317 net.cpp:367] drop7.5 -> fc7.5 (in-place)
I0410 02:17:05.144351 30317 net.cpp:122] Setting up drop7.5
I0410 02:17:05.144356 30317 net.cpp:129] Top shape: 32 512 (16384)
I0410 02:17:05.144358 30317 net.cpp:137] Memory required for data: 263532288
I0410 02:17:05.144361 30317 layer_factory.hpp:77] Creating layer fc7.6
I0410 02:17:05.144371 30317 net.cpp:84] Creating Layer fc7.6
I0410 02:17:05.144374 30317 net.cpp:406] fc7.6 <- fc7.5
I0410 02:17:05.144380 30317 net.cpp:380] fc7.6 -> fc7.6
I0410 02:17:05.147575 30317 net.cpp:122] Setting up fc7.6
I0410 02:17:05.147588 30317 net.cpp:129] Top shape: 32 512 (16384)
I0410 02:17:05.147593 30317 net.cpp:137] Memory required for data: 263597824
I0410 02:17:05.147605 30317 layer_factory.hpp:77] Creating layer relu7.6
I0410 02:17:05.147612 30317 net.cpp:84] Creating Layer relu7.6
I0410 02:17:05.147617 30317 net.cpp:406] relu7.6 <- fc7.6
I0410 02:17:05.147622 30317 net.cpp:367] relu7.6 -> fc7.6 (in-place)
I0410 02:17:05.148027 30317 net.cpp:122] Setting up relu7.6
I0410 02:17:05.148036 30317 net.cpp:129] Top shape: 32 512 (16384)
I0410 02:17:05.148039 30317 net.cpp:137] Memory required for data: 263663360
I0410 02:17:05.148043 30317 layer_factory.hpp:77] Creating layer drop7.6
I0410 02:17:05.148051 30317 net.cpp:84] Creating Layer drop7.6
I0410 02:17:05.148054 30317 net.cpp:406] drop7.6 <- fc7.6
I0410 02:17:05.148059 30317 net.cpp:367] drop7.6 -> fc7.6 (in-place)
I0410 02:17:05.148085 30317 net.cpp:122] Setting up drop7.6
I0410 02:17:05.148090 30317 net.cpp:129] Top shape: 32 512 (16384)
I0410 02:17:05.148093 30317 net.cpp:137] Memory required for data: 263728896
I0410 02:17:05.148097 30317 layer_factory.hpp:77] Creating layer fc8
I0410 02:17:05.148104 30317 net.cpp:84] Creating Layer fc8
I0410 02:17:05.148108 30317 net.cpp:406] fc8 <- fc7.6
I0410 02:17:05.148114 30317 net.cpp:380] fc8 -> fc8
I0410 02:17:05.149152 30317 net.cpp:122] Setting up fc8
I0410 02:17:05.149158 30317 net.cpp:129] Top shape: 32 196 (6272)
I0410 02:17:05.149161 30317 net.cpp:137] Memory required for data: 263753984
I0410 02:17:05.149168 30317 layer_factory.hpp:77] Creating layer fc8_fc8_0_split
I0410 02:17:05.149173 30317 net.cpp:84] Creating Layer fc8_fc8_0_split
I0410 02:17:05.149178 30317 net.cpp:406] fc8_fc8_0_split <- fc8
I0410 02:17:05.149201 30317 net.cpp:380] fc8_fc8_0_split -> fc8_fc8_0_split_0
I0410 02:17:05.149209 30317 net.cpp:380] fc8_fc8_0_split -> fc8_fc8_0_split_1
I0410 02:17:05.149245 30317 net.cpp:122] Setting up fc8_fc8_0_split
I0410 02:17:05.149250 30317 net.cpp:129] Top shape: 32 196 (6272)
I0410 02:17:05.149253 30317 net.cpp:129] Top shape: 32 196 (6272)
I0410 02:17:05.149256 30317 net.cpp:137] Memory required for data: 263804160
I0410 02:17:05.149260 30317 layer_factory.hpp:77] Creating layer accuracy
I0410 02:17:05.149267 30317 net.cpp:84] Creating Layer accuracy
I0410 02:17:05.149271 30317 net.cpp:406] accuracy <- fc8_fc8_0_split_0
I0410 02:17:05.149276 30317 net.cpp:406] accuracy <- label_val-data_1_split_0
I0410 02:17:05.149282 30317 net.cpp:380] accuracy -> accuracy
…
