…
I0427 19:08:27.575884 23810 net.cpp:294] The NetState phase (0) differed from the phase (1) specified by a rule in layer accuracy
I0427 19:08:27.576122 23810 net.cpp:51] Initializing net from parameters:
state {
phase: TRAIN
level: 0
stage: ""
}
layer {
name: "train-data"
type: "Data"
top: "data"
top: "label"
include {
phase: TRAIN
}
transform_param {
mirror: true
crop_size: 227
mean_file: "/mnt/bigdisk/DIGITS-MAN-3/digits/jobs/20210427-190400-faa9/mean.binaryproto"
}
data_param {
source: "/mnt/bigdisk/DIGITS-MAN-3/digits/jobs/20210427-190400-faa9/train_db"
batch_size: 256
backend: LMDB
}
}
layer {
name: "conv1"
type: "Convolution"
bottom: "data"
top: "conv1"
param {
lr_mult: 1
decay_mult: 1
}
param {
lr_mult: 2
decay_mult: 0
}
convolution_param {
num_output: 96
kernel_size: 11
stride: 4
weight_filler {
type: "gaussian"
std: 0.01
}
bias_filler {
type: "constant"
value: 0
}
}
}
layer {
name: "relu1"
type: "ReLU"
bottom: "conv1"
top: "conv1"
}
layer {
name: "norm1"
type: "LRN"
bottom: "conv1"
top: "norm1"
lrn_param {
local_size: 5
alpha: 0.0001
beta: 0.75
}
}
layer {
name: "pool1"
type: "Pooling"
bottom: "norm1"
top: "pool1"
pooling_param {
pool: MAX
kernel_size: 3
stride: 2
}
}
layer {
name: "conv2"
type: "Convolution"
bottom: "pool1"
top: "conv2"
param {
lr_mult: 1
decay_mult: 1
}
param {
lr_mult: 2
decay_mult: 0
}
convolution_param {
num_output: 256
pad: 2
kernel_size: 5
group: 2
weight_filler {
type: "gaussian"
std: 0.01
}
bias_filler {
type: "constant"
value: 0.1
}
}
}
layer {
name: "relu2"
type: "ReLU"
bottom: "conv2"
top: "conv2"
}
layer {
name: "norm2"
type: "LRN"
bottom: "conv2"
top: "norm2"
lrn_param {
local_size: 5
alpha: 0.0001
beta: 0.75
}
}
layer {
name: "pool2"
type: "Pooling"
bottom: "norm2"
top: "pool2"
pooling_param {
pool: MAX
kernel_size: 3
stride: 2
}
}
layer {
name: "conv3"
type: "Convolution"
bottom: "pool2"
top: "conv3"
param {
lr_mult: 1
decay_mult: 1
}
param {
lr_mult: 2
decay_mult: 0
}
convolution_param {
num_output: 384
pad: 1
kernel_size: 3
weight_filler {
type: "gaussian"
std: 0.01
}
bias_filler {
type: "constant"
value: 0
}
}
}
layer {
name: "relu3"
type: "ReLU"
bottom: "conv3"
top: "conv3"
}
layer {
name: "conv4"
type: "Convolution"
bottom: "conv3"
top: "conv4"
param {
lr_mult: 1
decay_mult: 1
}
param {
lr_mult: 2
decay_mult: 0
}
convolution_param {
num_output: 384
pad: 1
kernel_size: 3
group: 2
weight_filler {
type: "gaussian"
std: 0.01
}
bias_filler {
type: "constant"
value: 0.1
}
}
}
layer {
name: "relu4"
type: "ReLU"
bottom: "conv4"
top: "conv4"
}
layer {
name: "conv5"
type: "Convolution"
bottom: "conv4"
top: "conv5"
param {
lr_mult: 1
decay_mult: 1
}
param {
lr_mult: 2
decay_mult: 0
}
convolution_param {
num_output: 256
pad: 1
kernel_size: 3
group: 2
weight_filler {
type: "gaussian"
std: 0.01
}
bias_filler {
type: "constant"
value: 0.1
}
}
}
layer {
name: "relu5"
type: "ReLU"
bottom: "conv5"
top: "conv5"
}
layer {
name: "pool5"
type: "Pooling"
bottom: "conv5"
top: "pool5"
pooling_param {
pool: MAX
kernel_size: 3
stride: 2
}
}
layer {
name: "fc6"
type: "InnerProduct"
bottom: "pool5"
top: "fc6"
param {
lr_mult: 1
decay_mult: 1
}
param {
lr_mult: 2
decay_mult: 0
}
inner_product_param {
num_output: 4096
weight_filler {
type: "gaussian"
std: 0.005
}
bias_filler {
type: "constant"
value: 0.1
}
}
}
layer {
name: "relu6"
type: "ReLU"
bottom: "fc6"
top: "fc6"
}
layer {
name: "drop6"
type: "Dropout"
bottom: "fc6"
top: "fc6"
dropout_param {
dropout_ratio: 0.5
}
}
layer {
name: "fc7"
type: "InnerProduct"
bottom: "fc6"
top: "fc7"
param {
lr_mult: 1
decay_mult: 1
}
param {
lr_mult: 2
decay_mult: 0
}
inner_product_param {
num_output: 4096
weight_filler {
type: "gaussian"
std: 0.005
}
bias_filler {
type: "constant"
value: 0.1
}
}
}
layer {
name: "relu7"
type: "ReLU"
bottom: "fc7"
top: "fc7"
}
layer {
name: "drop7"
type: "Dropout"
bottom: "fc7"
top: "fc7"
dropout_param {
dropout_ratio: 0.5
}
}
layer {
name: "fc8"
type: "InnerProduct"
bottom: "fc7"
top: "fc8"
param {
lr_mult: 1
decay_mult: 1
}
param {
lr_mult: 2
decay_mult: 0
}
inner_product_param {
num_output: 196
weight_filler {
type: "gaussian"
std: 0.01
}
bias_filler {
type: "constant"
value: 0
}
}
}
layer {
name: "loss"
type: "SoftmaxWithLoss"
bottom: "fc8"
bottom: "label"
top: "loss"
}
I0427 19:08:27.576243 23810 layer_factory.hpp:77] Creating layer train-data
I0427 19:08:27.754865 23810 db_lmdb.cpp:35] Opened lmdb /mnt/bigdisk/DIGITS-MAN-3/digits/jobs/20210427-190400-faa9/train_db
I0427 19:08:27.860886 23810 net.cpp:84] Creating Layer train-data
I0427 19:08:27.860922 23810 net.cpp:380] train-data -> data
I0427 19:08:27.860954 23810 net.cpp:380] train-data -> label
I0427 19:08:27.860973 23810 data_transformer.cpp:25] Loading mean file from: /mnt/bigdisk/DIGITS-MAN-3/digits/jobs/20210427-190400-faa9/mean.binaryproto
I0427 19:08:27.868000 23810 data_layer.cpp:45] output data size: 256,3,227,227
I0427 19:08:28.284266 23810 net.cpp:122] Setting up train-data
I0427 19:08:28.284293 23810 net.cpp:129] Top shape: 256 3 227 227 (39574272)
I0427 19:08:28.284301 23810 net.cpp:129] Top shape: 256 (256)
I0427 19:08:28.284307 23810 net.cpp:137] Memory required for data: 158298112
I0427 19:08:28.284318 23810 layer_factory.hpp:77] Creating layer conv1
I0427 19:08:28.284344 23810 net.cpp:84] Creating Layer conv1
I0427 19:08:28.284353 23810 net.cpp:406] conv1 <- data
I0427 19:08:28.284370 23810 net.cpp:380] conv1 -> conv1
I0427 19:08:29.544167 23810 net.cpp:122] Setting up conv1
I0427 19:08:29.544196 23810 net.cpp:129] Top shape: 256 96 55 55 (74342400)
I0427 19:08:29.544203 23810 net.cpp:137] Memory required for data: 455667712
I0427 19:08:29.544231 23810 layer_factory.hpp:77] Creating layer relu1
I0427 19:08:29.544248 23810 net.cpp:84] Creating Layer relu1
I0427 19:08:29.544255 23810 net.cpp:406] relu1 <- conv1
I0427 19:08:29.544265 23810 net.cpp:367] relu1 -> conv1 (in-place)
I0427 19:08:29.544780 23810 net.cpp:122] Setting up relu1
I0427 19:08:29.544795 23810 net.cpp:129] Top shape: 256 96 55 55 (74342400)
I0427 19:08:29.544801 23810 net.cpp:137] Memory required for data: 753037312
I0427 19:08:29.544807 23810 layer_factory.hpp:77] Creating layer norm1
I0427 19:08:29.544821 23810 net.cpp:84] Creating Layer norm1
I0427 19:08:29.544827 23810 net.cpp:406] norm1 <- conv1
I0427 19:08:29.544862 23810 net.cpp:380] norm1 -> norm1
I0427 19:08:29.545575 23810 net.cpp:122] Setting up norm1
I0427 19:08:29.545590 23810 net.cpp:129] Top shape: 256 96 55 55 (74342400)
I0427 19:08:29.545596 23810 net.cpp:137] Memory required for data: 1050406912
I0427 19:08:29.545603 23810 layer_factory.hpp:77] Creating layer pool1
I0427 19:08:29.545616 23810 net.cpp:84] Creating Layer pool1
I0427 19:08:29.545624 23810 net.cpp:406] pool1 <- norm1
I0427 19:08:29.545632 23810 net.cpp:380] pool1 -> pool1
I0427 19:08:29.545691 23810 net.cpp:122] Setting up pool1
I0427 19:08:29.545701 23810 net.cpp:129] Top shape: 256 96 27 27 (17915904)
I0427 19:08:29.545706 23810 net.cpp:137] Memory required for data: 1122070528
I0427 19:08:29.545713 23810 layer_factory.hpp:77] Creating layer conv2
I0427 19:08:29.545729 23810 net.cpp:84] Creating Layer conv2
I0427 19:08:29.545735 23810 net.cpp:406] conv2 <- pool1
I0427 19:08:29.545744 23810 net.cpp:380] conv2 -> conv2
I0427 19:08:29.555555 23810 net.cpp:122] Setting up conv2
I0427 19:08:29.555577 23810 net.cpp:129] Top shape: 256 256 27 27 (47775744)
I0427 19:08:29.555581 23810 net.cpp:137] Memory required for data: 1313173504
I0427 19:08:29.555594 23810 layer_factory.hpp:77] Creating layer relu2
I0427 19:08:29.555604 23810 net.cpp:84] Creating Layer relu2
I0427 19:08:29.555608 23810 net.cpp:406] relu2 <- conv2
I0427 19:08:29.555615 23810 net.cpp:367] relu2 -> conv2 (in-place)
I0427 19:08:29.556053 23810 net.cpp:122] Setting up relu2
I0427 19:08:29.556062 23810 net.cpp:129] Top shape: 256 256 27 27 (47775744)
I0427 19:08:29.556066 23810 net.cpp:137] Memory required for data: 1504276480
I0427 19:08:29.556069 23810 layer_factory.hpp:77] Creating layer norm2
I0427 19:08:29.556077 23810 net.cpp:84] Creating Layer norm2
I0427 19:08:29.556082 23810 net.cpp:406] norm2 <- conv2
I0427 19:08:29.556087 23810 net.cpp:380] norm2 -> norm2
I0427 19:08:29.556607 23810 net.cpp:122] Setting up norm2
I0427 19:08:29.556622 23810 net.cpp:129] Top shape: 256 256 27 27 (47775744)
I0427 19:08:29.556628 23810 net.cpp:137] Memory required for data: 1695379456
I0427 19:08:29.556633 23810 layer_factory.hpp:77] Creating layer pool2
I0427 19:08:29.556645 23810 net.cpp:84] Creating Layer pool2
I0427 19:08:29.556651 23810 net.cpp:406] pool2 <- norm2
I0427 19:08:29.556660 23810 net.cpp:380] pool2 -> pool2
I0427 19:08:29.556705 23810 net.cpp:122] Setting up pool2
I0427 19:08:29.556715 23810 net.cpp:129] Top shape: 256 256 13 13 (11075584)
I0427 19:08:29.556721 23810 net.cpp:137] Memory required for data: 1739681792
I0427 19:08:29.556726 23810 layer_factory.hpp:77] Creating layer conv3
I0427 19:08:29.556741 23810 net.cpp:84] Creating Layer conv3
I0427 19:08:29.556746 23810 net.cpp:406] conv3 <- pool2
I0427 19:08:29.556756 23810 net.cpp:380] conv3 -> conv3
I0427 19:08:29.573365 23810 net.cpp:122] Setting up conv3
I0427 19:08:29.573383 23810 net.cpp:129] Top shape: 256 384 13 13 (16613376)
I0427 19:08:29.573387 23810 net.cpp:137] Memory required for data: 1806135296
I0427 19:08:29.573401 23810 layer_factory.hpp:77] Creating layer relu3
I0427 19:08:29.573410 23810 net.cpp:84] Creating Layer relu3
I0427 19:08:29.573415 23810 net.cpp:406] relu3 <- conv3
I0427 19:08:29.573421 23810 net.cpp:367] relu3 -> conv3 (in-place)
I0427 19:08:29.574128 23810 net.cpp:122] Setting up relu3
I0427 19:08:29.574142 23810 net.cpp:129] Top shape: 256 384 13 13 (16613376)
I0427 19:08:29.574148 23810 net.cpp:137] Memory required for data: 1872588800
I0427 19:08:29.574153 23810 layer_factory.hpp:77] Creating layer conv4
I0427 19:08:29.574169 23810 net.cpp:84] Creating Layer conv4
I0427 19:08:29.574177 23810 net.cpp:406] conv4 <- conv3
I0427 19:08:29.574185 23810 net.cpp:380] conv4 -> conv4
I0427 19:08:29.594336 23810 net.cpp:122] Setting up conv4
I0427 19:08:29.594362 23810 net.cpp:129] Top shape: 256 384 13 13 (16613376)
I0427 19:08:29.594367 23810 net.cpp:137] Memory required for data: 1939042304
I0427 19:08:29.594383 23810 layer_factory.hpp:77] Creating layer relu4
I0427 19:08:29.594395 23810 net.cpp:84] Creating Layer relu4
I0427 19:08:29.594422 23810 net.cpp:406] relu4 <- conv4
I0427 19:08:29.594435 23810 net.cpp:367] relu4 -> conv4 (in-place)
I0427 19:08:29.595006 23810 net.cpp:122] Setting up relu4
I0427 19:08:29.595019 23810 net.cpp:129] Top shape: 256 384 13 13 (16613376)
I0427 19:08:29.595026 23810 net.cpp:137] Memory required for data: 2005495808
I0427 19:08:29.595031 23810 layer_factory.hpp:77] Creating layer conv5
I0427 19:08:29.595049 23810 net.cpp:84] Creating Layer conv5
I0427 19:08:29.595055 23810 net.cpp:406] conv5 <- conv4
I0427 19:08:29.595067 23810 net.cpp:380] conv5 -> conv5
I0427 19:08:29.671907 23810 net.cpp:122] Setting up conv5
I0427 19:08:29.671931 23810 net.cpp:129] Top shape: 256 256 13 13 (11075584)
I0427 19:08:29.671936 23810 net.cpp:137] Memory required for data: 2049798144
I0427 19:08:29.671955 23810 layer_factory.hpp:77] Creating layer relu5
I0427 19:08:29.671969 23810 net.cpp:84] Creating Layer relu5
I0427 19:08:29.671975 23810 net.cpp:406] relu5 <- conv5
I0427 19:08:29.671985 23810 net.cpp:367] relu5 -> conv5 (in-place)
I0427 19:08:29.672986 23810 net.cpp:122] Setting up relu5
I0427 19:08:29.673002 23810 net.cpp:129] Top shape: 256 256 13 13 (11075584)
I0427 19:08:29.673007 23810 net.cpp:137] Memory required for data: 2094100480
I0427 19:08:29.673012 23810 layer_factory.hpp:77] Creating layer pool5
I0427 19:08:29.673022 23810 net.cpp:84] Creating Layer pool5
I0427 19:08:29.673027 23810 net.cpp:406] pool5 <- conv5
I0427 19:08:29.673035 23810 net.cpp:380] pool5 -> pool5
I0427 19:08:29.673089 23810 net.cpp:122] Setting up pool5
I0427 19:08:29.673096 23810 net.cpp:129] Top shape: 256 256 6 6 (2359296)
I0427 19:08:29.673101 23810 net.cpp:137] Memory required for data: 2103537664
I0427 19:08:29.673105 23810 layer_factory.hpp:77] Creating layer fc6
I0427 19:08:29.673120 23810 net.cpp:84] Creating Layer fc6
I0427 19:08:29.673125 23810 net.cpp:406] fc6 <- pool5
I0427 19:08:29.673133 23810 net.cpp:380] fc6 -> fc6
I0427 19:08:30.200594 23810 net.cpp:122] Setting up fc6
I0427 19:08:30.200620 23810 net.cpp:129] Top shape: 256 4096 (1048576)
I0427 19:08:30.200626 23810 net.cpp:137] Memory required for data: 2107731968
I0427 19:08:30.200639 23810 layer_factory.hpp:77] Creating layer relu6
I0427 19:08:30.200652 23810 net.cpp:84] Creating Layer relu6
I0427 19:08:30.200660 23810 net.cpp:406] relu6 <- fc6
I0427 19:08:30.200670 23810 net.cpp:367] relu6 -> fc6 (in-place)
I0427 19:08:30.201550 23810 net.cpp:122] Setting up relu6
I0427 19:08:30.201562 23810 net.cpp:129] Top shape: 256 4096 (1048576)
I0427 19:08:30.201567 23810 net.cpp:137] Memory required for data: 2111926272
I0427 19:08:30.201572 23810 layer_factory.hpp:77] Creating layer drop6
I0427 19:08:30.201583 23810 net.cpp:84] Creating Layer drop6
I0427 19:08:30.201589 23810 net.cpp:406] drop6 <- fc6
I0427 19:08:30.201596 23810 net.cpp:367] drop6 -> fc6 (in-place)
I0427 19:08:30.201637 23810 net.cpp:122] Setting up drop6
I0427 19:08:30.201645 23810 net.cpp:129] Top shape: 256 4096 (1048576)
I0427 19:08:30.201650 23810 net.cpp:137] Memory required for data: 2116120576
I0427 19:08:30.201655 23810 layer_factory.hpp:77] Creating layer fc7
I0427 19:08:30.201665 23810 net.cpp:84] Creating Layer fc7
I0427 19:08:30.201669 23810 net.cpp:406] fc7 <- fc6
I0427 19:08:30.201679 23810 net.cpp:380] fc7 -> fc7
I0427 19:08:30.447713 23810 net.cpp:122] Setting up fc7
I0427 19:08:30.447732 23810 net.cpp:129] Top shape: 256 4096 (1048576)
I0427 19:08:30.447736 23810 net.cpp:137] Memory required for data: 2120314880
I0427 19:08:30.447746 23810 layer_factory.hpp:77] Creating layer relu7
I0427 19:08:30.447754 23810 net.cpp:84] Creating Layer relu7
I0427 19:08:30.447759 23810 net.cpp:406] relu7 <- fc7
I0427 19:08:30.447765 23810 net.cpp:367] relu7 -> fc7 (in-place)
I0427 19:08:30.457134 23810 net.cpp:122] Setting up relu7
I0427 19:08:30.457152 23810 net.cpp:129] Top shape: 256 4096 (1048576)
I0427 19:08:30.457156 23810 net.cpp:137] Memory required for data: 2124509184
I0427 19:08:30.457162 23810 layer_factory.hpp:77] Creating layer drop7
I0427 19:08:30.457171 23810 net.cpp:84] Creating Layer drop7
I0427 19:08:30.457195 23810 net.cpp:406] drop7 <- fc7
I0427 19:08:30.457204 23810 net.cpp:367] drop7 -> fc7 (in-place)
I0427 19:08:30.457247 23810 net.cpp:122] Setting up drop7
I0427 19:08:30.457252 23810 net.cpp:129] Top shape: 256 4096 (1048576)
I0427 19:08:30.457255 23810 net.cpp:137] Memory required for data: 2128703488
I0427 19:08:30.457259 23810 layer_factory.hpp:77] Creating layer fc8
I0427 19:08:30.457268 23810 net.cpp:84] Creating Layer fc8
I0427 19:08:30.457273 23810 net.cpp:406] fc8 <- fc7
I0427 19:08:30.457278 23810 net.cpp:380] fc8 -> fc8
I0427 19:08:30.480334 23810 net.cpp:122] Setting up fc8
I0427 19:08:30.480361 23810 net.cpp:129] Top shape: 256 196 (50176)
I0427 19:08:30.480367 23810 net.cpp:137] Memory required for data: 2128904192
I0427 19:08:30.480382 23810 layer_factory.hpp:77] Creating layer loss
I0427 19:08:30.480397 23810 net.cpp:84] Creating Layer loss
I0427 19:08:30.480406 23810 net.cpp:406] loss <- fc8
I0427 19:08:30.480414 23810 net.cpp:406] loss <- label
I0427 19:08:30.480425 23810 net.cpp:380] loss -> loss
I0427 19:08:30.480441 23810 layer_factory.hpp:77] Creating layer loss
…
I0427 19:08:30.488549 23810 net.cpp:294] The NetState phase (1) differed from the phase (0) specified by a rule in layer train-data
I0427 19:08:30.488852 23810 net.cpp:51] Initializing net from parameters:
state {
phase: TEST
}
layer {
name: "val-data"
type: "Data"
top: "data"
top: "label"
include {
phase: TEST
}
transform_param {
crop_size: 227
mean_file: "/mnt/bigdisk/DIGITS-MAN-3/digits/jobs/20210427-190400-faa9/mean.binaryproto"
}
data_param {
source: "/mnt/bigdisk/DIGITS-MAN-3/digits/jobs/20210427-190400-faa9/val_db"
batch_size: 256
backend: LMDB
}
}
layer {
name: "conv1"
type: "Convolution"
bottom: "data"
top: "conv1"
param {
lr_mult: 1
decay_mult: 1
}
param {
lr_mult: 2
decay_mult: 0
}
convolution_param {
num_output: 96
kernel_size: 11
stride: 4
weight_filler {
type: "gaussian"
std: 0.01
}
bias_filler {
type: "constant"
value: 0
}
}
}
layer {
name: "relu1"
type: "ReLU"
bottom: "conv1"
top: "conv1"
}
layer {
name: "norm1"
type: "LRN"
bottom: "conv1"
top: "norm1"
lrn_param {
local_size: 5
alpha: 0.0001
beta: 0.75
}
}
layer {
name: "pool1"
type: "Pooling"
bottom: "norm1"
top: "pool1"
pooling_param {
pool: MAX
kernel_size: 3
stride: 2
}
}
layer {
name: "conv2"
type: "Convolution"
bottom: "pool1"
top: "conv2"
param {
lr_mult: 1
decay_mult: 1
}
param {
lr_mult: 2
decay_mult: 0
}
convolution_param {
num_output: 256
pad: 2
kernel_size: 5
group: 2
weight_filler {
type: "gaussian"
std: 0.01
}
bias_filler {
type: "constant"
value: 0.1
}
}
}
layer {
name: "relu2"
type: "ReLU"
bottom: "conv2"
top: "conv2"
}
layer {
name: "norm2"
type: "LRN"
bottom: "conv2"
top: "norm2"
lrn_param {
local_size: 5
alpha: 0.0001
beta: 0.75
}
}
layer {
name: "pool2"
type: "Pooling"
bottom: "norm2"
top: "pool2"
pooling_param {
pool: MAX
kernel_size: 3
stride: 2
}
}
layer {
name: "conv3"
type: "Convolution"
bottom: "pool2"
top: "conv3"
param {
lr_mult: 1
decay_mult: 1
}
param {
lr_mult: 2
decay_mult: 0
}
convolution_param {
num_output: 384
pad: 1
kernel_size: 3
weight_filler {
type: "gaussian"
std: 0.01
}
bias_filler {
type: "constant"
value: 0
}
}
}
layer {
name: "relu3"
type: "ReLU"
bottom: "conv3"
top: "conv3"
}
layer {
name: "conv4"
type: "Convolution"
bottom: "conv3"
top: "conv4"
param {
lr_mult: 1
decay_mult: 1
}
param {
lr_mult: 2
decay_mult: 0
}
convolution_param {
num_output: 384
pad: 1
kernel_size: 3
group: 2
weight_filler {
type: "gaussian"
std: 0.01
}
bias_filler {
type: "constant"
value: 0.1
}
}
}
layer {
name: "relu4"
type: "ReLU"
bottom: "conv4"
top: "conv4"
}
layer {
name: "conv5"
type: "Convolution"
bottom: "conv4"
top: "conv5"
param {
lr_mult: 1
decay_mult: 1
}
param {
lr_mult: 2
decay_mult: 0
}
convolution_param {
num_output: 256
pad: 1
kernel_size: 3
group: 2
weight_filler {
type: "gaussian"
std: 0.01
}
bias_filler {
type: "constant"
value: 0.1
}
}
}
layer {
name: "relu5"
type: "ReLU"
bottom: "conv5"
top: "conv5"
}
layer {
name: "pool5"
type: "Pooling"
bottom: "conv5"
top: "pool5"
pooling_param {
pool: MAX
kernel_size: 3
stride: 2
}
}
layer {
name: "fc6"
type: "InnerProduct"
bottom: "pool5"
top: "fc6"
param {
lr_mult: 1
decay_mult: 1
}
param {
lr_mult: 2
decay_mult: 0
}
inner_product_param {
num_output: 4096
weight_filler {
type: "gaussian"
std: 0.005
}
bias_filler {
type: "constant"
value: 0.1
}
}
}
layer {
name: "relu6"
type: "ReLU"
bottom: "fc6"
top: "fc6"
}
layer {
name: "drop6"
type: "Dropout"
bottom: "fc6"
top: "fc6"
dropout_param {
dropout_ratio: 0.5
}
}
layer {
name: "fc7"
type: "InnerProduct"
bottom: "fc6"
top: "fc7"
param {
lr_mult: 1
decay_mult: 1
}
param {
lr_mult: 2
decay_mult: 0
}
inner_product_param {
num_output: 4096
weight_filler {
type: "gaussian"
std: 0.005
}
bias_filler {
type: "constant"
value: 0.1
}
}
}
layer {
name: "relu7"
type: "ReLU"
bottom: "fc7"
top: "fc7"
}
layer {
name: "drop7"
type: "Dropout"
bottom: "fc7"
top: "fc7"
dropout_param {
dropout_ratio: 0.5
}
}
layer {
name: "fc8"
type: "InnerProduct"
bottom: "fc7"
top: "fc8"
param {
lr_mult: 1
decay_mult: 1
}
param {
lr_mult: 2
decay_mult: 0
}
inner_product_param {
num_output: 196
weight_filler {
type: "gaussian"
std: 0.01
}
bias_filler {
type: "constant"
value: 0
}
}
}
layer {
name: "accuracy"
type: "Accuracy"
bottom: "fc8"
bottom: "label"
top: "accuracy"
include {
phase: TEST
}
}
layer {
name: "loss"
type: "SoftmaxWithLoss"
bottom: "fc8"
bottom: "label"
top: "loss"
}
I0427 19:08:30.489028 23810 layer_factory.hpp:77] Creating layer val-data
I0427 19:08:30.491255 23810 db_lmdb.cpp:35] Opened lmdb /mnt/bigdisk/DIGITS-MAN-3/digits/jobs/20210427-190400-faa9/val_db
I0427 19:08:30.491452 23810 net.cpp:84] Creating Layer val-data
I0427 19:08:30.491469 23810 net.cpp:380] val-data -> data
I0427 19:08:30.491485 23810 net.cpp:380] val-data -> label
I0427 19:08:30.491497 23810 data_transformer.cpp:25] Loading mean file from: /mnt/bigdisk/DIGITS-MAN-3/digits/jobs/20210427-190400-faa9/mean.binaryproto
I0427 19:08:30.495795 23810 data_layer.cpp:45] output data size: 256,3,227,227
I0427 19:08:30.834892 23810 net.cpp:122] Setting up val-data
I0427 19:08:30.834918 23810 net.cpp:129] Top shape: 256 3 227 227 (39574272)
I0427 19:08:30.834924 23810 net.cpp:129] Top shape: 256 (256)
I0427 19:08:30.834929 23810 net.cpp:137] Memory required for data: 158298112
I0427 19:08:30.834939 23810 layer_factory.hpp:77] Creating layer label_val-data_1_split
I0427 19:08:30.834954 23810 net.cpp:84] Creating Layer label_val-data_1_split
I0427 19:08:30.834960 23810 net.cpp:406] label_val-data_1_split <- label
I0427 19:08:30.834970 23810 net.cpp:380] label_val-data_1_split -> label_val-data_1_split_0
I0427 19:08:30.834983 23810 net.cpp:380] label_val-data_1_split -> label_val-data_1_split_1
I0427 19:08:30.835039 23810 net.cpp:122] Setting up label_val-data_1_split
I0427 19:08:30.835047 23810 net.cpp:129] Top shape: 256 (256)
I0427 19:08:30.835053 23810 net.cpp:129] Top shape: 256 (256)
I0427 19:08:30.835057 23810 net.cpp:137] Memory required for data: 158300160
I0427 19:08:30.835062 23810 layer_factory.hpp:77] Creating layer conv1
I0427 19:08:30.835078 23810 net.cpp:84] Creating Layer conv1
I0427 19:08:30.835083 23810 net.cpp:406] conv1 <- data
I0427 19:08:30.835090 23810 net.cpp:380] conv1 -> conv1
I0427 19:08:30.846004 23810 net.cpp:122] Setting up conv1
I0427 19:08:30.846029 23810 net.cpp:129] Top shape: 256 96 55 55 (74342400)
I0427 19:08:30.846035 23810 net.cpp:137] Memory required for data: 455669760
I0427 19:08:30.846052 23810 layer_factory.hpp:77] Creating layer relu1
I0427 19:08:30.846062 23810 net.cpp:84] Creating Layer relu1
I0427 19:08:30.846066 23810 net.cpp:406] relu1 <- conv1
I0427 19:08:30.846073 23810 net.cpp:367] relu1 -> conv1 (in-place)
I0427 19:08:30.846480 23810 net.cpp:122] Setting up relu1
I0427 19:08:30.846493 23810 net.cpp:129] Top shape: 256 96 55 55 (74342400)
I0427 19:08:30.846498 23810 net.cpp:137] Memory required for data: 753039360
I0427 19:08:30.846503 23810 layer_factory.hpp:77] Creating layer norm1
I0427 19:08:30.846514 23810 net.cpp:84] Creating Layer norm1
I0427 19:08:30.846518 23810 net.cpp:406] norm1 <- conv1
I0427 19:08:30.846526 23810 net.cpp:380] norm1 -> norm1
I0427 19:08:30.862814 23810 net.cpp:122] Setting up norm1
I0427 19:08:30.862835 23810 net.cpp:129] Top shape: 256 96 55 55 (74342400)
I0427 19:08:30.862839 23810 net.cpp:137] Memory required for data: 1050408960
I0427 19:08:30.862846 23810 layer_factory.hpp:77] Creating layer pool1
I0427 19:08:30.862857 23810 net.cpp:84] Creating Layer pool1
I0427 19:08:30.862862 23810 net.cpp:406] pool1 <- norm1
I0427 19:08:30.862870 23810 net.cpp:380] pool1 -> pool1
I0427 19:08:30.862905 23810 net.cpp:122] Setting up pool1
I0427 19:08:30.862910 23810 net.cpp:129] Top shape: 256 96 27 27 (17915904)
I0427 19:08:30.862912 23810 net.cpp:137] Memory required for data: 1122072576
I0427 19:08:30.862915 23810 layer_factory.hpp:77] Creating layer conv2
I0427 19:08:30.862927 23810 net.cpp:84] Creating Layer conv2
I0427 19:08:30.862951 23810 net.cpp:406] conv2 <- pool1
I0427 19:08:30.862957 23810 net.cpp:380] conv2 -> conv2
I0427 19:08:30.893818 23810 net.cpp:122] Setting up conv2
I0427 19:08:30.893846 23810 net.cpp:129] Top shape: 256 256 27 27 (47775744)
I0427 19:08:30.893851 23810 net.cpp:137] Memory required for data: 1313175552
I0427 19:08:30.893868 23810 layer_factory.hpp:77] Creating layer relu2
I0427 19:08:30.893882 23810 net.cpp:84] Creating Layer relu2
I0427 19:08:30.893888 23810 net.cpp:406] relu2 <- conv2
I0427 19:08:30.893898 23810 net.cpp:367] relu2 -> conv2 (in-place)
I0427 19:08:30.894645 23810 net.cpp:122] Setting up relu2
I0427 19:08:30.894659 23810 net.cpp:129] Top shape: 256 256 27 27 (47775744)
I0427 19:08:30.894663 23810 net.cpp:137] Memory required for data: 1504278528
I0427 19:08:30.894670 23810 layer_factory.hpp:77] Creating layer norm2
I0427 19:08:30.894683 23810 net.cpp:84] Creating Layer norm2
I0427 19:08:30.894688 23810 net.cpp:406] norm2 <- conv2
I0427 19:08:30.894696 23810 net.cpp:380] norm2 -> norm2
I0427 19:08:30.895474 23810 net.cpp:122] Setting up norm2
I0427 19:08:30.895489 23810 net.cpp:129] Top shape: 256 256 27 27 (47775744)
I0427 19:08:30.895495 23810 net.cpp:137] Memory required for data: 1695381504
I0427 19:08:30.895500 23810 layer_factory.hpp:77] Creating layer pool2
I0427 19:08:30.895509 23810 net.cpp:84] Creating Layer pool2
I0427 19:08:30.895515 23810 net.cpp:406] pool2 <- norm2
I0427 19:08:30.895522 23810 net.cpp:380] pool2 -> pool2
I0427 19:08:30.895571 23810 net.cpp:122] Setting up pool2
I0427 19:08:30.895581 23810 net.cpp:129] Top shape: 256 256 13 13 (11075584)
I0427 19:08:30.895584 23810 net.cpp:137] Memory required for data: 1739683840
I0427 19:08:30.895591 23810 layer_factory.hpp:77] Creating layer conv3
I0427 19:08:30.895606 23810 net.cpp:84] Creating Layer conv3
I0427 19:08:30.895612 23810 net.cpp:406] conv3 <- pool2
I0427 19:08:30.895622 23810 net.cpp:380] conv3 -> conv3
I0427 19:08:30.927903 23810 net.cpp:122] Setting up conv3
I0427 19:08:30.927927 23810 net.cpp:129] Top shape: 256 384 13 13 (16613376)
I0427 19:08:30.927930 23810 net.cpp:137] Memory required for data: 1806137344
I0427 19:08:30.927944 23810 layer_factory.hpp:77] Creating layer relu3
I0427 19:08:30.927955 23810 net.cpp:84] Creating Layer relu3
I0427 19:08:30.927959 23810 net.cpp:406] relu3 <- conv3
I0427 19:08:30.927970 23810 net.cpp:367] relu3 -> conv3 (in-place)
I0427 19:08:30.928622 23810 net.cpp:122] Setting up relu3
I0427 19:08:30.928634 23810 net.cpp:129] Top shape: 256 384 13 13 (16613376)
I0427 19:08:30.928637 23810 net.cpp:137] Memory required for data: 1872590848
I0427 19:08:30.928642 23810 layer_factory.hpp:77] Creating layer conv4
I0427 19:08:30.928653 23810 net.cpp:84] Creating Layer conv4
I0427 19:08:30.928658 23810 net.cpp:406] conv4 <- conv3
I0427 19:08:30.928663 23810 net.cpp:380] conv4 -> conv4
I0427 19:08:30.946349 23810 net.cpp:122] Setting up conv4
I0427 19:08:30.946379 23810 net.cpp:129] Top shape: 256 384 13 13 (16613376)
I0427 19:08:30.946384 23810 net.cpp:137] Memory required for data: 1939044352
I0427 19:08:30.946398 23810 layer_factory.hpp:77] Creating layer relu4
I0427 19:08:30.946410 23810 net.cpp:84] Creating Layer relu4
I0427 19:08:30.946416 23810 net.cpp:406] relu4 <- conv4
I0427 19:08:30.946426 23810 net.cpp:367] relu4 -> conv4 (in-place)
I0427 19:08:30.947001 23810 net.cpp:122] Setting up relu4
I0427 19:08:30.947012 23810 net.cpp:129] Top shape: 256 384 13 13 (16613376)
I0427 19:08:30.947017 23810 net.cpp:137] Memory required for data: 2005497856
I0427 19:08:30.947022 23810 layer_factory.hpp:77] Creating layer conv5
I0427 19:08:30.947041 23810 net.cpp:84] Creating Layer conv5
I0427 19:08:30.947047 23810 net.cpp:406] conv5 <- conv4
I0427 19:08:30.947057 23810 net.cpp:380] conv5 -> conv5
I0427 19:08:30.965010 23810 net.cpp:122] Setting up conv5
I0427 19:08:30.965041 23810 net.cpp:129] Top shape: 256 256 13 13 (11075584)
I0427 19:08:30.965047 23810 net.cpp:137] Memory required for data: 2049800192
I0427 19:08:30.965067 23810 layer_factory.hpp:77] Creating layer relu5
I0427 19:08:30.965111 23810 net.cpp:84] Creating Layer relu5
I0427 19:08:30.965119 23810 net.cpp:406] relu5 <- conv5
I0427 19:08:30.965131 23810 net.cpp:367] relu5 -> conv5 (in-place)
I0427 19:08:30.965994 23810 net.cpp:122] Setting up relu5
I0427 19:08:30.966008 23810 net.cpp:129] Top shape: 256 256 13 13 (11075584)
I0427 19:08:30.966014 23810 net.cpp:137] Memory required for data: 2094102528
I0427 19:08:30.966019 23810 layer_factory.hpp:77] Creating layer pool5
I0427 19:08:30.966034 23810 net.cpp:84] Creating Layer pool5
I0427 19:08:30.966039 23810 net.cpp:406] pool5 <- conv5
I0427 19:08:30.966048 23810 net.cpp:380] pool5 -> pool5
I0427 19:08:30.966115 23810 net.cpp:122] Setting up pool5
I0427 19:08:30.966125 23810 net.cpp:129] Top shape: 256 256 6 6 (2359296)
I0427 19:08:30.966128 23810 net.cpp:137] Memory required for data: 2103539712
I0427 19:08:30.966133 23810 layer_factory.hpp:77] Creating layer fc6
I0427 19:08:30.966145 23810 net.cpp:84] Creating Layer fc6
I0427 19:08:30.966150 23810 net.cpp:406] fc6 <- pool5
I0427 19:08:30.966156 23810 net.cpp:380] fc6 -> fc6
I0427 19:08:31.603840 23810 net.cpp:122] Setting up fc6
I0427 19:08:31.603868 23810 net.cpp:129] Top shape: 256 4096 (1048576)
I0427 19:08:31.603873 23810 net.cpp:137] Memory required for data: 2107734016
I0427 19:08:31.603885 23810 layer_factory.hpp:77] Creating layer relu6
I0427 19:08:31.603897 23810 net.cpp:84] Creating Layer relu6
I0427 19:08:31.603904 23810 net.cpp:406] relu6 <- fc6
I0427 19:08:31.603914 23810 net.cpp:367] relu6 -> fc6 (in-place)
I0427 19:08:31.605135 23810 net.cpp:122] Setting up relu6
I0427 19:08:31.605159 23810 net.cpp:129] Top shape: 256 4096 (1048576)
I0427 19:08:31.605163 23810 net.cpp:137] Memory required for data: 2111928320
I0427 19:08:31.605170 23810 layer_factory.hpp:77] Creating layer drop6
I0427 19:08:31.605181 23810 net.cpp:84] Creating Layer drop6
I0427 19:08:31.605187 23810 net.cpp:406] drop6 <- fc6
I0427 19:08:31.605198 23810 net.cpp:367] drop6 -> fc6 (in-place)
I0427 19:08:31.605242 23810 net.cpp:122] Setting up drop6
I0427 19:08:31.605249 23810 net.cpp:129] Top shape: 256 4096 (1048576)
I0427 19:08:31.605253 23810 net.cpp:137] Memory required for data: 2116122624
I0427 19:08:31.605258 23810 layer_factory.hpp:77] Creating layer fc7
I0427 19:08:31.605273 23810 net.cpp:84] Creating Layer fc7
I0427 19:08:31.605278 23810 net.cpp:406] fc7 <- fc6
I0427 19:08:31.605286 23810 net.cpp:380] fc7 -> fc7
I0427 19:08:31.875675 23810 net.cpp:122] Setting up fc7
I0427 19:08:31.875699 23810 net.cpp:129] Top shape: 256 4096 (1048576)
I0427 19:08:31.875705 23810 net.cpp:137] Memory required for data: 2120316928
I0427 19:08:31.875717 23810 layer_factory.hpp:77] Creating layer relu7
I0427 19:08:31.875730 23810 net.cpp:84] Creating Layer relu7
I0427 19:08:31.875735 23810 net.cpp:406] relu7 <- fc7
I0427 19:08:31.875746 23810 net.cpp:367] relu7 -> fc7 (in-place)
I0427 19:08:31.876345 23810 net.cpp:122] Setting up relu7
I0427 19:08:31.876356 23810 net.cpp:129] Top shape: 256 4096 (1048576)
I0427 19:08:31.876361 23810 net.cpp:137] Memory required for data: 2124511232
I0427 19:08:31.876366 23810 layer_factory.hpp:77] Creating layer drop7
I0427 19:08:31.876375 23810 net.cpp:84] Creating Layer drop7
I0427 19:08:31.876380 23810 net.cpp:406] drop7 <- fc7
I0427 19:08:31.876389 23810 net.cpp:367] drop7 -> fc7 (in-place)
I0427 19:08:31.876425 23810 net.cpp:122] Setting up drop7
I0427 19:08:31.876431 23810 net.cpp:129] Top shape: 256 4096 (1048576)
I0427 19:08:31.876435 23810 net.cpp:137] Memory required for data: 2128705536
I0427 19:08:31.876441 23810 layer_factory.hpp:77] Creating layer fc8
I0427 19:08:31.876451 23810 net.cpp:84] Creating Layer fc8
I0427 19:08:31.876456 23810 net.cpp:406] fc8 <- fc7
I0427 19:08:31.876464 23810 net.cpp:380] fc8 -> fc8
I0427 19:08:31.935492 23810 net.cpp:122] Setting up fc8
I0427 19:08:31.935519 23810 net.cpp:129] Top shape: 256 196 (50176)
I0427 19:08:31.935525 23810 net.cpp:137] Memory required for data: 2128906240
I0427 19:08:31.935539 23810 layer_factory.hpp:77] Creating layer fc8_fc8_0_split
I0427 19:08:31.935551 23810 net.cpp:84] Creating Layer fc8_fc8_0_split
I0427 19:08:31.935581 23810 net.cpp:406] fc8_fc8_0_split <- fc8
I0427 19:08:31.935592 23810 net.cpp:380] fc8_fc8_0_split -> fc8_fc8_0_split_0
I0427 19:08:31.935606 23810 net.cpp:380] fc8_fc8_0_split -> fc8_fc8_0_split_1
I0427 19:08:31.935653 23810 net.cpp:122] Setting up fc8_fc8_0_split
I0427 19:08:31.935662 23810 net.cpp:129] Top shape: 256 196 (50176)
I0427 19:08:31.935667 23810 net.cpp:129] Top shape: 256 196 (50176)
I0427 19:08:31.935672 23810 net.cpp:137] Memory required for data: 2129307648
I0427 19:08:31.935676 23810 layer_factory.hpp:77] Creating layer accuracy
I0427 19:08:31.935685 23810 net.cpp:84] Creating Layer accuracy
I0427 19:08:31.935691 23810 net.cpp:406] accuracy <- fc8_fc8_0_split_0
I0427 19:08:31.935698 23810 net.cpp:406] accuracy <- label_val-data_1_split_0
I0427 19:08:31.935706 23810 net.cpp:380] accuracy -> accuracy
…
