…
I0409 20:00:44.304080 15472 net.cpp:294] The NetState phase (0) differed from the phase (1) specified by a rule in layer accuracy
I0409 20:00:44.304255 15472 net.cpp:51] Initializing net from parameters:
state {
phase: TRAIN
level: 0
stage: ""
}
layer {
name: "train-data"
type: "Data"
top: "data"
top: "label"
include {
phase: TRAIN
}
transform_param {
mirror: true
crop_size: 227
mean_file: "/mnt/bigdisk/DIGITS-MAN-2/digits/jobs/20210407-214532-d396/mean.binaryproto"
}
data_param {
source: "/mnt/bigdisk/DIGITS-MAN-2/digits/jobs/20210407-214532-d396/train_db"
batch_size: 128
backend: LMDB
}
}
layer {
name: "conv1"
type: "Convolution"
bottom: "data"
top: "conv1"
param {
lr_mult: 1
decay_mult: 1
}
param {
lr_mult: 2
decay_mult: 0
}
convolution_param {
num_output: 96
kernel_size: 11
stride: 4
weight_filler {
type: "gaussian"
std: 0.01
}
bias_filler {
type: "constant"
value: 0
}
}
}
layer {
name: "relu1"
type: "ReLU"
bottom: "conv1"
top: "conv1"
}
layer {
name: "norm1"
type: "LRN"
bottom: "conv1"
top: "norm1"
lrn_param {
local_size: 5
alpha: 0.0001
beta: 0.75
}
}
layer {
name: "pool1"
type: "Pooling"
bottom: "norm1"
top: "pool1"
pooling_param {
pool: MAX
kernel_size: 3
stride: 2
}
}
layer {
name: "conv2"
type: "Convolution"
bottom: "pool1"
top: "conv2"
param {
lr_mult: 1
decay_mult: 1
}
param {
lr_mult: 2
decay_mult: 0
}
convolution_param {
num_output: 256
pad: 2
kernel_size: 5
group: 2
weight_filler {
type: "gaussian"
std: 0.01
}
bias_filler {
type: "constant"
value: 0.1
}
}
}
layer {
name: "relu2"
type: "ReLU"
bottom: "conv2"
top: "conv2"
}
layer {
name: "norm2"
type: "LRN"
bottom: "conv2"
top: "norm2"
lrn_param {
local_size: 5
alpha: 0.0001
beta: 0.75
}
}
layer {
name: "pool2"
type: "Pooling"
bottom: "norm2"
top: "pool2"
pooling_param {
pool: MAX
kernel_size: 3
stride: 2
}
}
layer {
name: "conv3"
type: "Convolution"
bottom: "pool2"
top: "conv3"
param {
lr_mult: 1
decay_mult: 1
}
param {
lr_mult: 2
decay_mult: 0
}
convolution_param {
num_output: 384
pad: 1
kernel_size: 3
weight_filler {
type: "gaussian"
std: 0.01
}
bias_filler {
type: "constant"
value: 0
}
}
}
layer {
name: "relu3"
type: "ReLU"
bottom: "conv3"
top: "conv3"
}
layer {
name: "conv4"
type: "Convolution"
bottom: "conv3"
top: "conv4"
param {
lr_mult: 1
decay_mult: 1
}
param {
lr_mult: 2
decay_mult: 0
}
convolution_param {
num_output: 384
pad: 1
kernel_size: 3
group: 2
weight_filler {
type: "gaussian"
std: 0.01
}
bias_filler {
type: "constant"
value: 0.1
}
}
}
layer {
name: "relu4"
type: "ReLU"
bottom: "conv4"
top: "conv4"
}
layer {
name: "conv5"
type: "Convolution"
bottom: "conv4"
top: "conv5"
param {
lr_mult: 1
decay_mult: 1
}
param {
lr_mult: 2
decay_mult: 0
}
convolution_param {
num_output: 256
pad: 1
kernel_size: 3
group: 2
weight_filler {
type: "gaussian"
std: 0.01
}
bias_filler {
type: "constant"
value: 0.1
}
}
}
layer {
name: "relu5"
type: "ReLU"
bottom: "conv5"
top: "conv5"
}
layer {
name: "pool5"
type: "Pooling"
bottom: "conv5"
top: "pool5"
pooling_param {
pool: MAX
kernel_size: 3
stride: 2
}
}
layer {
name: "fc6"
type: "InnerProduct"
bottom: "pool5"
top: "fc6"
param {
lr_mult: 1
decay_mult: 1
}
param {
lr_mult: 2
decay_mult: 0
}
inner_product_param {
num_output: 512
weight_filler {
type: "gaussian"
std: 0.005
}
bias_filler {
type: "constant"
value: 0.1
}
}
}
layer {
name: "relu6"
type: "ReLU"
bottom: "fc6"
top: "fc6"
}
layer {
name: "drop6"
type: "Dropout"
bottom: "fc6"
top: "fc6"
dropout_param {
dropout_ratio: 0.5
}
}
layer {
name: "fc7"
type: "InnerProduct"
bottom: "fc6"
top: "fc7"
param {
lr_mult: 1
decay_mult: 1
}
param {
lr_mult: 2
decay_mult: 0
}
inner_product_param {
num_output: 512
weight_filler {
type: "gaussian"
std: 0.005
}
bias_filler {
type: "constant"
value: 0.1
}
}
}
layer {
name: "relu7"
type: "ReLU"
bottom: "fc7"
top: "fc7"
}
layer {
name: "drop7"
type: "Dropout"
bottom: "fc7"
top: "fc7"
dropout_param {
dropout_ratio: 0.5
}
}
layer {
name: "fc7.5"
type: "InnerProduct"
bottom: "fc7"
top: "fc7.5"
param {
lr_mult: 1
decay_mult: 1
}
param {
lr_mult: 2
decay_mult: 0
}
inner_product_param {
num_output: 512
weight_filler {
type: "gaussian"
std: 0.005
}
bias_filler {
type: "constant"
value: 0.1
}
}
}
layer {
name: "relu7.5"
type: "ReLU"
bottom: "fc7.5"
top: "fc7.5"
}
layer {
name: "drop7.5"
type: "Dropout"
bottom: "fc7.5"
top: "fc7.5"
dropout_param {
dropout_ratio: 0.5
}
}
layer {
name: "fc8"
type: "InnerProduct"
bottom: "fc7.5"
top: "fc8"
param {
lr_mult: 1
decay_mult: 1
}
param {
lr_mult: 2
decay_mult: 0
}
inner_product_param {
num_output: 196
weight_filler {
type: "gaussian"
std: 0.01
}
bias_filler {
type: "constant"
value: 0
}
}
}
layer {
name: "loss"
type: "SoftmaxWithLoss"
bottom: "fc8"
bottom: "label"
top: "loss"
}
I0409 20:00:44.304364 15472 layer_factory.hpp:77] Creating layer train-data
I0409 20:00:44.307087 15472 db_lmdb.cpp:35] Opened lmdb /mnt/bigdisk/DIGITS-MAN-2/digits/jobs/20210407-214532-d396/train_db
I0409 20:00:44.307276 15472 net.cpp:84] Creating Layer train-data
I0409 20:00:44.307287 15472 net.cpp:380] train-data -> data
I0409 20:00:44.307307 15472 net.cpp:380] train-data -> label
I0409 20:00:44.307319 15472 data_transformer.cpp:25] Loading mean file from: /mnt/bigdisk/DIGITS-MAN-2/digits/jobs/20210407-214532-d396/mean.binaryproto
I0409 20:00:44.312110 15472 data_layer.cpp:45] output data size: 128,3,227,227
I0409 20:00:44.436342 15472 net.cpp:122] Setting up train-data
I0409 20:00:44.436367 15472 net.cpp:129] Top shape: 128 3 227 227 (19787136)
I0409 20:00:44.436372 15472 net.cpp:129] Top shape: 128 (128)
I0409 20:00:44.436376 15472 net.cpp:137] Memory required for data: 79149056
I0409 20:00:44.436388 15472 layer_factory.hpp:77] Creating layer conv1
I0409 20:00:44.436412 15472 net.cpp:84] Creating Layer conv1
I0409 20:00:44.436419 15472 net.cpp:406] conv1 <- data
I0409 20:00:44.436432 15472 net.cpp:380] conv1 -> conv1
I0409 20:00:45.003123 15472 net.cpp:122] Setting up conv1
I0409 20:00:45.003146 15472 net.cpp:129] Top shape: 128 96 55 55 (37171200)
I0409 20:00:45.003150 15472 net.cpp:137] Memory required for data: 227833856
I0409 20:00:45.003170 15472 layer_factory.hpp:77] Creating layer relu1
I0409 20:00:45.003199 15472 net.cpp:84] Creating Layer relu1
I0409 20:00:45.003204 15472 net.cpp:406] relu1 <- conv1
I0409 20:00:45.003211 15472 net.cpp:367] relu1 -> conv1 (in-place)
I0409 20:00:45.003502 15472 net.cpp:122] Setting up relu1
I0409 20:00:45.003512 15472 net.cpp:129] Top shape: 128 96 55 55 (37171200)
I0409 20:00:45.003515 15472 net.cpp:137] Memory required for data: 376518656
I0409 20:00:45.003520 15472 layer_factory.hpp:77] Creating layer norm1
I0409 20:00:45.003528 15472 net.cpp:84] Creating Layer norm1
I0409 20:00:45.003532 15472 net.cpp:406] norm1 <- conv1
I0409 20:00:45.003537 15472 net.cpp:380] norm1 -> norm1
I0409 20:00:45.003973 15472 net.cpp:122] Setting up norm1
I0409 20:00:45.003983 15472 net.cpp:129] Top shape: 128 96 55 55 (37171200)
I0409 20:00:45.003986 15472 net.cpp:137] Memory required for data: 525203456
I0409 20:00:45.003990 15472 layer_factory.hpp:77] Creating layer pool1
I0409 20:00:45.003998 15472 net.cpp:84] Creating Layer pool1
I0409 20:00:45.004002 15472 net.cpp:406] pool1 <- norm1
I0409 20:00:45.004009 15472 net.cpp:380] pool1 -> pool1
I0409 20:00:45.004043 15472 net.cpp:122] Setting up pool1
I0409 20:00:45.004050 15472 net.cpp:129] Top shape: 128 96 27 27 (8957952)
I0409 20:00:45.004053 15472 net.cpp:137] Memory required for data: 561035264
I0409 20:00:45.004056 15472 layer_factory.hpp:77] Creating layer conv2
I0409 20:00:45.004066 15472 net.cpp:84] Creating Layer conv2
I0409 20:00:45.004070 15472 net.cpp:406] conv2 <- pool1
I0409 20:00:45.004076 15472 net.cpp:380] conv2 -> conv2
I0409 20:00:45.011984 15472 net.cpp:122] Setting up conv2
I0409 20:00:45.012001 15472 net.cpp:129] Top shape: 128 256 27 27 (23887872)
I0409 20:00:45.012004 15472 net.cpp:137] Memory required for data: 656586752
I0409 20:00:45.012014 15472 layer_factory.hpp:77] Creating layer relu2
I0409 20:00:45.012022 15472 net.cpp:84] Creating Layer relu2
I0409 20:00:45.012027 15472 net.cpp:406] relu2 <- conv2
I0409 20:00:45.012032 15472 net.cpp:367] relu2 -> conv2 (in-place)
I0409 20:00:45.012444 15472 net.cpp:122] Setting up relu2
I0409 20:00:45.012452 15472 net.cpp:129] Top shape: 128 256 27 27 (23887872)
I0409 20:00:45.012456 15472 net.cpp:137] Memory required for data: 752138240
I0409 20:00:45.012460 15472 layer_factory.hpp:77] Creating layer norm2
I0409 20:00:45.012467 15472 net.cpp:84] Creating Layer norm2
I0409 20:00:45.012470 15472 net.cpp:406] norm2 <- conv2
I0409 20:00:45.012476 15472 net.cpp:380] norm2 -> norm2
I0409 20:00:45.012768 15472 net.cpp:122] Setting up norm2
I0409 20:00:45.012775 15472 net.cpp:129] Top shape: 128 256 27 27 (23887872)
I0409 20:00:45.012779 15472 net.cpp:137] Memory required for data: 847689728
I0409 20:00:45.012782 15472 layer_factory.hpp:77] Creating layer pool2
I0409 20:00:45.012790 15472 net.cpp:84] Creating Layer pool2
I0409 20:00:45.012794 15472 net.cpp:406] pool2 <- norm2
I0409 20:00:45.012799 15472 net.cpp:380] pool2 -> pool2
I0409 20:00:45.012825 15472 net.cpp:122] Setting up pool2
I0409 20:00:45.012830 15472 net.cpp:129] Top shape: 128 256 13 13 (5537792)
I0409 20:00:45.012835 15472 net.cpp:137] Memory required for data: 869840896
I0409 20:00:45.012837 15472 layer_factory.hpp:77] Creating layer conv3
I0409 20:00:45.012847 15472 net.cpp:84] Creating Layer conv3
I0409 20:00:45.012850 15472 net.cpp:406] conv3 <- pool2
I0409 20:00:45.012856 15472 net.cpp:380] conv3 -> conv3
I0409 20:00:45.022773 15472 net.cpp:122] Setting up conv3
I0409 20:00:45.022789 15472 net.cpp:129] Top shape: 128 384 13 13 (8306688)
I0409 20:00:45.022794 15472 net.cpp:137] Memory required for data: 903067648
I0409 20:00:45.022802 15472 layer_factory.hpp:77] Creating layer relu3
I0409 20:00:45.022812 15472 net.cpp:84] Creating Layer relu3
I0409 20:00:45.022816 15472 net.cpp:406] relu3 <- conv3
I0409 20:00:45.022821 15472 net.cpp:367] relu3 -> conv3 (in-place)
I0409 20:00:45.023295 15472 net.cpp:122] Setting up relu3
I0409 20:00:45.023308 15472 net.cpp:129] Top shape: 128 384 13 13 (8306688)
I0409 20:00:45.023311 15472 net.cpp:137] Memory required for data: 936294400
I0409 20:00:45.023315 15472 layer_factory.hpp:77] Creating layer conv4
I0409 20:00:45.023344 15472 net.cpp:84] Creating Layer conv4
I0409 20:00:45.023348 15472 net.cpp:406] conv4 <- conv3
I0409 20:00:45.023355 15472 net.cpp:380] conv4 -> conv4
I0409 20:00:45.033601 15472 net.cpp:122] Setting up conv4
I0409 20:00:45.033617 15472 net.cpp:129] Top shape: 128 384 13 13 (8306688)
I0409 20:00:45.033622 15472 net.cpp:137] Memory required for data: 969521152
I0409 20:00:45.033630 15472 layer_factory.hpp:77] Creating layer relu4
I0409 20:00:45.033638 15472 net.cpp:84] Creating Layer relu4
I0409 20:00:45.033643 15472 net.cpp:406] relu4 <- conv4
I0409 20:00:45.033651 15472 net.cpp:367] relu4 -> conv4 (in-place)
I0409 20:00:45.033998 15472 net.cpp:122] Setting up relu4
I0409 20:00:45.034008 15472 net.cpp:129] Top shape: 128 384 13 13 (8306688)
I0409 20:00:45.034011 15472 net.cpp:137] Memory required for data: 1002747904
I0409 20:00:45.034015 15472 layer_factory.hpp:77] Creating layer conv5
I0409 20:00:45.034026 15472 net.cpp:84] Creating Layer conv5
I0409 20:00:45.034030 15472 net.cpp:406] conv5 <- conv4
I0409 20:00:45.034036 15472 net.cpp:380] conv5 -> conv5
I0409 20:00:45.042307 15472 net.cpp:122] Setting up conv5
I0409 20:00:45.042325 15472 net.cpp:129] Top shape: 128 256 13 13 (5537792)
I0409 20:00:45.042327 15472 net.cpp:137] Memory required for data: 1024899072
I0409 20:00:45.042340 15472 layer_factory.hpp:77] Creating layer relu5
I0409 20:00:45.042347 15472 net.cpp:84] Creating Layer relu5
I0409 20:00:45.042351 15472 net.cpp:406] relu5 <- conv5
I0409 20:00:45.042358 15472 net.cpp:367] relu5 -> conv5 (in-place)
I0409 20:00:45.042834 15472 net.cpp:122] Setting up relu5
I0409 20:00:45.042845 15472 net.cpp:129] Top shape: 128 256 13 13 (5537792)
I0409 20:00:45.042848 15472 net.cpp:137] Memory required for data: 1047050240
I0409 20:00:45.042852 15472 layer_factory.hpp:77] Creating layer pool5
I0409 20:00:45.042860 15472 net.cpp:84] Creating Layer pool5
I0409 20:00:45.042863 15472 net.cpp:406] pool5 <- conv5
I0409 20:00:45.042868 15472 net.cpp:380] pool5 -> pool5
I0409 20:00:45.042906 15472 net.cpp:122] Setting up pool5
I0409 20:00:45.042912 15472 net.cpp:129] Top shape: 128 256 6 6 (1179648)
I0409 20:00:45.042915 15472 net.cpp:137] Memory required for data: 1051768832
I0409 20:00:45.042918 15472 layer_factory.hpp:77] Creating layer fc6
I0409 20:00:45.042929 15472 net.cpp:84] Creating Layer fc6
I0409 20:00:45.042932 15472 net.cpp:406] fc6 <- pool5
I0409 20:00:45.042938 15472 net.cpp:380] fc6 -> fc6
I0409 20:00:45.089130 15472 net.cpp:122] Setting up fc6
I0409 20:00:45.089148 15472 net.cpp:129] Top shape: 128 512 (65536)
I0409 20:00:45.089152 15472 net.cpp:137] Memory required for data: 1052030976
I0409 20:00:45.089161 15472 layer_factory.hpp:77] Creating layer relu6
I0409 20:00:45.089170 15472 net.cpp:84] Creating Layer relu6
I0409 20:00:45.089175 15472 net.cpp:406] relu6 <- fc6
I0409 20:00:45.089182 15472 net.cpp:367] relu6 -> fc6 (in-place)
I0409 20:00:45.090248 15472 net.cpp:122] Setting up relu6
I0409 20:00:45.090257 15472 net.cpp:129] Top shape: 128 512 (65536)
I0409 20:00:45.090260 15472 net.cpp:137] Memory required for data: 1052293120
I0409 20:00:45.090265 15472 layer_factory.hpp:77] Creating layer drop6
I0409 20:00:45.090271 15472 net.cpp:84] Creating Layer drop6
I0409 20:00:45.090274 15472 net.cpp:406] drop6 <- fc6
I0409 20:00:45.090281 15472 net.cpp:367] drop6 -> fc6 (in-place)
I0409 20:00:45.090307 15472 net.cpp:122] Setting up drop6
I0409 20:00:45.090314 15472 net.cpp:129] Top shape: 128 512 (65536)
I0409 20:00:45.090317 15472 net.cpp:137] Memory required for data: 1052555264
I0409 20:00:45.090322 15472 layer_factory.hpp:77] Creating layer fc7
I0409 20:00:45.090328 15472 net.cpp:84] Creating Layer fc7
I0409 20:00:45.090332 15472 net.cpp:406] fc7 <- fc6
I0409 20:00:45.090338 15472 net.cpp:380] fc7 -> fc7
I0409 20:00:45.092641 15472 net.cpp:122] Setting up fc7
I0409 20:00:45.092648 15472 net.cpp:129] Top shape: 128 512 (65536)
I0409 20:00:45.092650 15472 net.cpp:137] Memory required for data: 1052817408
I0409 20:00:45.092658 15472 layer_factory.hpp:77] Creating layer relu7
I0409 20:00:45.092680 15472 net.cpp:84] Creating Layer relu7
I0409 20:00:45.092684 15472 net.cpp:406] relu7 <- fc7
I0409 20:00:45.092690 15472 net.cpp:367] relu7 -> fc7 (in-place)
I0409 20:00:45.093171 15472 net.cpp:122] Setting up relu7
I0409 20:00:45.093180 15472 net.cpp:129] Top shape: 128 512 (65536)
I0409 20:00:45.093183 15472 net.cpp:137] Memory required for data: 1053079552
I0409 20:00:45.093187 15472 layer_factory.hpp:77] Creating layer drop7
I0409 20:00:45.093194 15472 net.cpp:84] Creating Layer drop7
I0409 20:00:45.093199 15472 net.cpp:406] drop7 <- fc7
I0409 20:00:45.093204 15472 net.cpp:367] drop7 -> fc7 (in-place)
I0409 20:00:45.093225 15472 net.cpp:122] Setting up drop7
I0409 20:00:45.093230 15472 net.cpp:129] Top shape: 128 512 (65536)
I0409 20:00:45.093233 15472 net.cpp:137] Memory required for data: 1053341696
I0409 20:00:45.093237 15472 layer_factory.hpp:77] Creating layer fc7.5
I0409 20:00:45.093245 15472 net.cpp:84] Creating Layer fc7.5
I0409 20:00:45.093248 15472 net.cpp:406] fc7.5 <- fc7
I0409 20:00:45.093255 15472 net.cpp:380] fc7.5 -> fc7.5
I0409 20:00:45.096127 15472 net.cpp:122] Setting up fc7.5
I0409 20:00:45.096135 15472 net.cpp:129] Top shape: 128 512 (65536)
I0409 20:00:45.096139 15472 net.cpp:137] Memory required for data: 1053603840
I0409 20:00:45.096146 15472 layer_factory.hpp:77] Creating layer relu7.5
I0409 20:00:45.096153 15472 net.cpp:84] Creating Layer relu7.5
I0409 20:00:45.096156 15472 net.cpp:406] relu7.5 <- fc7.5
I0409 20:00:45.096163 15472 net.cpp:367] relu7.5 -> fc7.5 (in-place)
I0409 20:00:45.096660 15472 net.cpp:122] Setting up relu7.5
I0409 20:00:45.096669 15472 net.cpp:129] Top shape: 128 512 (65536)
I0409 20:00:45.096673 15472 net.cpp:137] Memory required for data: 1053865984
I0409 20:00:45.096676 15472 layer_factory.hpp:77] Creating layer drop7.5
I0409 20:00:45.096681 15472 net.cpp:84] Creating Layer drop7.5
I0409 20:00:45.096685 15472 net.cpp:406] drop7.5 <- fc7.5
I0409 20:00:45.096693 15472 net.cpp:367] drop7.5 -> fc7.5 (in-place)
I0409 20:00:45.096716 15472 net.cpp:122] Setting up drop7.5
I0409 20:00:45.096721 15472 net.cpp:129] Top shape: 128 512 (65536)
I0409 20:00:45.096724 15472 net.cpp:137] Memory required for data: 1054128128
I0409 20:00:45.096727 15472 layer_factory.hpp:77] Creating layer fc8
I0409 20:00:45.096733 15472 net.cpp:84] Creating Layer fc8
I0409 20:00:45.096737 15472 net.cpp:406] fc8 <- fc7.5
I0409 20:00:45.096743 15472 net.cpp:380] fc8 -> fc8
I0409 20:00:45.097685 15472 net.cpp:122] Setting up fc8
I0409 20:00:45.097692 15472 net.cpp:129] Top shape: 128 196 (25088)
I0409 20:00:45.097695 15472 net.cpp:137] Memory required for data: 1054228480
I0409 20:00:45.097705 15472 layer_factory.hpp:77] Creating layer loss
I0409 20:00:45.097712 15472 net.cpp:84] Creating Layer loss
I0409 20:00:45.097715 15472 net.cpp:406] loss <- fc8
I0409 20:00:45.097719 15472 net.cpp:406] loss <- label
I0409 20:00:45.097726 15472 net.cpp:380] loss -> loss
I0409 20:00:45.097738 15472 layer_factory.hpp:77] Creating layer loss
…
I0409 20:00:45.126716 15472 net.cpp:294] The NetState phase (1) differed from the phase (0) specified by a rule in layer train-data
I0409 20:00:45.126870 15472 net.cpp:51] Initializing net from parameters:
state {
phase: TEST
}
layer {
name: "val-data"
type: "Data"
top: "data"
top: "label"
include {
phase: TEST
}
transform_param {
crop_size: 227
mean_file: "/mnt/bigdisk/DIGITS-MAN-2/digits/jobs/20210407-214532-d396/mean.binaryproto"
}
data_param {
source: "/mnt/bigdisk/DIGITS-MAN-2/digits/jobs/20210407-214532-d396/val_db"
batch_size: 32
backend: LMDB
}
}
layer {
name: "conv1"
type: "Convolution"
bottom: "data"
top: "conv1"
param {
lr_mult: 1
decay_mult: 1
}
param {
lr_mult: 2
decay_mult: 0
}
convolution_param {
num_output: 96
kernel_size: 11
stride: 4
weight_filler {
type: "gaussian"
std: 0.01
}
bias_filler {
type: "constant"
value: 0
}
}
}
layer {
name: "relu1"
type: "ReLU"
bottom: "conv1"
top: "conv1"
}
layer {
name: "norm1"
type: "LRN"
bottom: "conv1"
top: "norm1"
lrn_param {
local_size: 5
alpha: 0.0001
beta: 0.75
}
}
layer {
name: "pool1"
type: "Pooling"
bottom: "norm1"
top: "pool1"
pooling_param {
pool: MAX
kernel_size: 3
stride: 2
}
}
layer {
name: "conv2"
type: "Convolution"
bottom: "pool1"
top: "conv2"
param {
lr_mult: 1
decay_mult: 1
}
param {
lr_mult: 2
decay_mult: 0
}
convolution_param {
num_output: 256
pad: 2
kernel_size: 5
group: 2
weight_filler {
type: "gaussian"
std: 0.01
}
bias_filler {
type: "constant"
value: 0.1
}
}
}
layer {
name: "relu2"
type: "ReLU"
bottom: "conv2"
top: "conv2"
}
layer {
name: "norm2"
type: "LRN"
bottom: "conv2"
top: "norm2"
lrn_param {
local_size: 5
alpha: 0.0001
beta: 0.75
}
}
layer {
name: "pool2"
type: "Pooling"
bottom: "norm2"
top: "pool2"
pooling_param {
pool: MAX
kernel_size: 3
stride: 2
}
}
layer {
name: "conv3"
type: "Convolution"
bottom: "pool2"
top: "conv3"
param {
lr_mult: 1
decay_mult: 1
}
param {
lr_mult: 2
decay_mult: 0
}
convolution_param {
num_output: 384
pad: 1
kernel_size: 3
weight_filler {
type: "gaussian"
std: 0.01
}
bias_filler {
type: "constant"
value: 0
}
}
}
layer {
name: "relu3"
type: "ReLU"
bottom: "conv3"
top: "conv3"
}
layer {
name: "conv4"
type: "Convolution"
bottom: "conv3"
top: "conv4"
param {
lr_mult: 1
decay_mult: 1
}
param {
lr_mult: 2
decay_mult: 0
}
convolution_param {
num_output: 384
pad: 1
kernel_size: 3
group: 2
weight_filler {
type: "gaussian"
std: 0.01
}
bias_filler {
type: "constant"
value: 0.1
}
}
}
layer {
name: "relu4"
type: "ReLU"
bottom: "conv4"
top: "conv4"
}
layer {
name: "conv5"
type: "Convolution"
bottom: "conv4"
top: "conv5"
param {
lr_mult: 1
decay_mult: 1
}
param {
lr_mult: 2
decay_mult: 0
}
convolution_param {
num_output: 256
pad: 1
kernel_size: 3
group: 2
weight_filler {
type: "gaussian"
std: 0.01
}
bias_filler {
type: "constant"
value: 0.1
}
}
}
layer {
name: "relu5"
type: "ReLU"
bottom: "conv5"
top: "conv5"
}
layer {
name: "pool5"
type: "Pooling"
bottom: "conv5"
top: "pool5"
pooling_param {
pool: MAX
kernel_size: 3
stride: 2
}
}
layer {
name: "fc6"
type: "InnerProduct"
bottom: "pool5"
top: "fc6"
param {
lr_mult: 1
decay_mult: 1
}
param {
lr_mult: 2
decay_mult: 0
}
inner_product_param {
num_output: 512
weight_filler {
type: "gaussian"
std: 0.005
}
bias_filler {
type: "constant"
value: 0.1
}
}
}
layer {
name: "relu6"
type: "ReLU"
bottom: "fc6"
top: "fc6"
}
layer {
name: "drop6"
type: "Dropout"
bottom: "fc6"
top: "fc6"
dropout_param {
dropout_ratio: 0.5
}
}
layer {
name: "fc7"
type: "InnerProduct"
bottom: "fc6"
top: "fc7"
param {
lr_mult: 1
decay_mult: 1
}
param {
lr_mult: 2
decay_mult: 0
}
inner_product_param {
num_output: 512
weight_filler {
type: "gaussian"
std: 0.005
}
bias_filler {
type: "constant"
value: 0.1
}
}
}
layer {
name: "relu7"
type: "ReLU"
bottom: "fc7"
top: "fc7"
}
layer {
name: "drop7"
type: "Dropout"
bottom: "fc7"
top: "fc7"
dropout_param {
dropout_ratio: 0.5
}
}
layer {
name: "fc7.5"
type: "InnerProduct"
bottom: "fc7"
top: "fc7.5"
param {
lr_mult: 1
decay_mult: 1
}
param {
lr_mult: 2
decay_mult: 0
}
inner_product_param {
num_output: 512
weight_filler {
type: "gaussian"
std: 0.005
}
bias_filler {
type: "constant"
value: 0.1
}
}
}
layer {
name: "relu7.5"
type: "ReLU"
bottom: "fc7.5"
top: "fc7.5"
}
layer {
name: "drop7.5"
type: "Dropout"
bottom: "fc7.5"
top: "fc7.5"
dropout_param {
dropout_ratio: 0.5
}
}
layer {
name: "fc8"
type: "InnerProduct"
bottom: "fc7.5"
top: "fc8"
param {
lr_mult: 1
decay_mult: 1
}
param {
lr_mult: 2
decay_mult: 0
}
inner_product_param {
num_output: 196
weight_filler {
type: "gaussian"
std: 0.01
}
bias_filler {
type: "constant"
value: 0
}
}
}
layer {
name: "accuracy"
type: "Accuracy"
bottom: "fc8"
bottom: "label"
top: "accuracy"
include {
phase: TEST
}
}
layer {
name: "loss"
type: "SoftmaxWithLoss"
bottom: "fc8"
bottom: "label"
top: "loss"
}
I0409 20:00:45.126977 15472 layer_factory.hpp:77] Creating layer val-data
I0409 20:00:45.304920 15472 db_lmdb.cpp:35] Opened lmdb /mnt/bigdisk/DIGITS-MAN-2/digits/jobs/20210407-214532-d396/val_db
I0409 20:00:45.305320 15472 net.cpp:84] Creating Layer val-data
I0409 20:00:45.305335 15472 net.cpp:380] val-data -> data
I0409 20:00:45.305347 15472 net.cpp:380] val-data -> label
I0409 20:00:45.305357 15472 data_transformer.cpp:25] Loading mean file from: /mnt/bigdisk/DIGITS-MAN-2/digits/jobs/20210407-214532-d396/mean.binaryproto
I0409 20:00:45.329939 15472 data_layer.cpp:45] output data size: 32,3,227,227
I0409 20:00:45.379732 15472 net.cpp:122] Setting up val-data
I0409 20:00:45.379757 15472 net.cpp:129] Top shape: 32 3 227 227 (4946784)
I0409 20:00:45.379763 15472 net.cpp:129] Top shape: 32 (32)
I0409 20:00:45.379767 15472 net.cpp:137] Memory required for data: 19787264
I0409 20:00:45.379797 15472 layer_factory.hpp:77] Creating layer label_val-data_1_split
I0409 20:00:45.379813 15472 net.cpp:84] Creating Layer label_val-data_1_split
I0409 20:00:45.379819 15472 net.cpp:406] label_val-data_1_split <- label
I0409 20:00:45.379828 15472 net.cpp:380] label_val-data_1_split -> label_val-data_1_split_0
I0409 20:00:45.379840 15472 net.cpp:380] label_val-data_1_split -> label_val-data_1_split_1
I0409 20:00:45.379946 15472 net.cpp:122] Setting up label_val-data_1_split
I0409 20:00:45.379956 15472 net.cpp:129] Top shape: 32 (32)
I0409 20:00:45.379961 15472 net.cpp:129] Top shape: 32 (32)
I0409 20:00:45.379964 15472 net.cpp:137] Memory required for data: 19787520
I0409 20:00:45.379969 15472 layer_factory.hpp:77] Creating layer conv1
I0409 20:00:45.379985 15472 net.cpp:84] Creating Layer conv1
I0409 20:00:45.379989 15472 net.cpp:406] conv1 <- data
I0409 20:00:45.379998 15472 net.cpp:380] conv1 -> conv1
I0409 20:00:45.382531 15472 net.cpp:122] Setting up conv1
I0409 20:00:45.382545 15472 net.cpp:129] Top shape: 32 96 55 55 (9292800)
I0409 20:00:45.382550 15472 net.cpp:137] Memory required for data: 56958720
I0409 20:00:45.382563 15472 layer_factory.hpp:77] Creating layer relu1
I0409 20:00:45.382572 15472 net.cpp:84] Creating Layer relu1
I0409 20:00:45.382577 15472 net.cpp:406] relu1 <- conv1
I0409 20:00:45.382584 15472 net.cpp:367] relu1 -> conv1 (in-place)
I0409 20:00:45.383179 15472 net.cpp:122] Setting up relu1
I0409 20:00:45.383191 15472 net.cpp:129] Top shape: 32 96 55 55 (9292800)
I0409 20:00:45.383196 15472 net.cpp:137] Memory required for data: 94129920
I0409 20:00:45.383201 15472 layer_factory.hpp:77] Creating layer norm1
I0409 20:00:45.383211 15472 net.cpp:84] Creating Layer norm1
I0409 20:00:45.383216 15472 net.cpp:406] norm1 <- conv1
I0409 20:00:45.383224 15472 net.cpp:380] norm1 -> norm1
I0409 20:00:45.384934 15472 net.cpp:122] Setting up norm1
I0409 20:00:45.384948 15472 net.cpp:129] Top shape: 32 96 55 55 (9292800)
I0409 20:00:45.384953 15472 net.cpp:137] Memory required for data: 131301120
I0409 20:00:45.384958 15472 layer_factory.hpp:77] Creating layer pool1
I0409 20:00:45.384968 15472 net.cpp:84] Creating Layer pool1
I0409 20:00:45.384972 15472 net.cpp:406] pool1 <- norm1
I0409 20:00:45.384979 15472 net.cpp:380] pool1 -> pool1
I0409 20:00:45.385021 15472 net.cpp:122] Setting up pool1
I0409 20:00:45.385030 15472 net.cpp:129] Top shape: 32 96 27 27 (2239488)
I0409 20:00:45.385033 15472 net.cpp:137] Memory required for data: 140259072
I0409 20:00:45.385037 15472 layer_factory.hpp:77] Creating layer conv2
I0409 20:00:45.385048 15472 net.cpp:84] Creating Layer conv2
I0409 20:00:45.385052 15472 net.cpp:406] conv2 <- pool1
I0409 20:00:45.385059 15472 net.cpp:380] conv2 -> conv2
I0409 20:00:45.395150 15472 net.cpp:122] Setting up conv2
I0409 20:00:45.395170 15472 net.cpp:129] Top shape: 32 256 27 27 (5971968)
I0409 20:00:45.395175 15472 net.cpp:137] Memory required for data: 164146944
I0409 20:00:45.395190 15472 layer_factory.hpp:77] Creating layer relu2
I0409 20:00:45.395200 15472 net.cpp:84] Creating Layer relu2
I0409 20:00:45.395205 15472 net.cpp:406] relu2 <- conv2
I0409 20:00:45.395212 15472 net.cpp:367] relu2 -> conv2 (in-place)
I0409 20:00:45.395864 15472 net.cpp:122] Setting up relu2
I0409 20:00:45.395875 15472 net.cpp:129] Top shape: 32 256 27 27 (5971968)
I0409 20:00:45.395879 15472 net.cpp:137] Memory required for data: 188034816
I0409 20:00:45.395884 15472 layer_factory.hpp:77] Creating layer norm2
I0409 20:00:45.395896 15472 net.cpp:84] Creating Layer norm2
I0409 20:00:45.395901 15472 net.cpp:406] norm2 <- conv2
I0409 20:00:45.395910 15472 net.cpp:380] norm2 -> norm2
I0409 20:00:45.396394 15472 net.cpp:122] Setting up norm2
I0409 20:00:45.396404 15472 net.cpp:129] Top shape: 32 256 27 27 (5971968)
I0409 20:00:45.396409 15472 net.cpp:137] Memory required for data: 211922688
I0409 20:00:45.396414 15472 layer_factory.hpp:77] Creating layer pool2
I0409 20:00:45.396422 15472 net.cpp:84] Creating Layer pool2
I0409 20:00:45.396427 15472 net.cpp:406] pool2 <- norm2
I0409 20:00:45.396453 15472 net.cpp:380] pool2 -> pool2
I0409 20:00:45.396497 15472 net.cpp:122] Setting up pool2
I0409 20:00:45.396503 15472 net.cpp:129] Top shape: 32 256 13 13 (1384448)
I0409 20:00:45.396507 15472 net.cpp:137] Memory required for data: 217460480
I0409 20:00:45.396512 15472 layer_factory.hpp:77] Creating layer conv3
I0409 20:00:45.396523 15472 net.cpp:84] Creating Layer conv3
I0409 20:00:45.396528 15472 net.cpp:406] conv3 <- pool2
I0409 20:00:45.396536 15472 net.cpp:380] conv3 -> conv3
I0409 20:00:45.411099 15472 net.cpp:122] Setting up conv3
I0409 20:00:45.411119 15472 net.cpp:129] Top shape: 32 384 13 13 (2076672)
I0409 20:00:45.411124 15472 net.cpp:137] Memory required for data: 225767168
I0409 20:00:45.411139 15472 layer_factory.hpp:77] Creating layer relu3
I0409 20:00:45.411150 15472 net.cpp:84] Creating Layer relu3
I0409 20:00:45.411155 15472 net.cpp:406] relu3 <- conv3
I0409 20:00:45.411164 15472 net.cpp:367] relu3 -> conv3 (in-place)
I0409 20:00:45.411612 15472 net.cpp:122] Setting up relu3
I0409 20:00:45.411623 15472 net.cpp:129] Top shape: 32 384 13 13 (2076672)
I0409 20:00:45.411626 15472 net.cpp:137] Memory required for data: 234073856
I0409 20:00:45.411630 15472 layer_factory.hpp:77] Creating layer conv4
I0409 20:00:45.411645 15472 net.cpp:84] Creating Layer conv4
I0409 20:00:45.411649 15472 net.cpp:406] conv4 <- conv3
I0409 20:00:45.411657 15472 net.cpp:380] conv4 -> conv4
I0409 20:00:45.425019 15472 net.cpp:122] Setting up conv4
I0409 20:00:45.425040 15472 net.cpp:129] Top shape: 32 384 13 13 (2076672)
I0409 20:00:45.425045 15472 net.cpp:137] Memory required for data: 242380544
I0409 20:00:45.425053 15472 layer_factory.hpp:77] Creating layer relu4
I0409 20:00:45.425063 15472 net.cpp:84] Creating Layer relu4
I0409 20:00:45.425068 15472 net.cpp:406] relu4 <- conv4
I0409 20:00:45.425076 15472 net.cpp:367] relu4 -> conv4 (in-place)
I0409 20:00:45.425671 15472 net.cpp:122] Setting up relu4
I0409 20:00:45.425683 15472 net.cpp:129] Top shape: 32 384 13 13 (2076672)
I0409 20:00:45.425686 15472 net.cpp:137] Memory required for data: 250687232
I0409 20:00:45.425691 15472 layer_factory.hpp:77] Creating layer conv5
I0409 20:00:45.425704 15472 net.cpp:84] Creating Layer conv5
I0409 20:00:45.425709 15472 net.cpp:406] conv5 <- conv4
I0409 20:00:45.425717 15472 net.cpp:380] conv5 -> conv5
I0409 20:00:45.437500 15472 net.cpp:122] Setting up conv5
I0409 20:00:45.437517 15472 net.cpp:129] Top shape: 32 256 13 13 (1384448)
I0409 20:00:45.437522 15472 net.cpp:137] Memory required for data: 256225024
I0409 20:00:45.437536 15472 layer_factory.hpp:77] Creating layer relu5
I0409 20:00:45.437547 15472 net.cpp:84] Creating Layer relu5
I0409 20:00:45.437553 15472 net.cpp:406] relu5 <- conv5
I0409 20:00:45.437561 15472 net.cpp:367] relu5 -> conv5 (in-place)
I0409 20:00:45.438369 15472 net.cpp:122] Setting up relu5
I0409 20:00:45.438381 15472 net.cpp:129] Top shape: 32 256 13 13 (1384448)
I0409 20:00:45.438385 15472 net.cpp:137] Memory required for data: 261762816
I0409 20:00:45.438390 15472 layer_factory.hpp:77] Creating layer pool5
I0409 20:00:45.438402 15472 net.cpp:84] Creating Layer pool5
I0409 20:00:45.438407 15472 net.cpp:406] pool5 <- conv5
I0409 20:00:45.438414 15472 net.cpp:380] pool5 -> pool5
I0409 20:00:45.438459 15472 net.cpp:122] Setting up pool5
I0409 20:00:45.438467 15472 net.cpp:129] Top shape: 32 256 6 6 (294912)
I0409 20:00:45.438470 15472 net.cpp:137] Memory required for data: 262942464
I0409 20:00:45.438474 15472 layer_factory.hpp:77] Creating layer fc6
I0409 20:00:45.438484 15472 net.cpp:84] Creating Layer fc6
I0409 20:00:45.438488 15472 net.cpp:406] fc6 <- pool5
I0409 20:00:45.438495 15472 net.cpp:380] fc6 -> fc6
I0409 20:00:45.488385 15472 net.cpp:122] Setting up fc6
I0409 20:00:45.488404 15472 net.cpp:129] Top shape: 32 512 (16384)
I0409 20:00:45.488409 15472 net.cpp:137] Memory required for data: 263008000
I0409 20:00:45.488417 15472 layer_factory.hpp:77] Creating layer relu6
I0409 20:00:45.488427 15472 net.cpp:84] Creating Layer relu6
I0409 20:00:45.488432 15472 net.cpp:406] relu6 <- fc6
I0409 20:00:45.488459 15472 net.cpp:367] relu6 -> fc6 (in-place)
I0409 20:00:45.488900 15472 net.cpp:122] Setting up relu6
I0409 20:00:45.488909 15472 net.cpp:129] Top shape: 32 512 (16384)
I0409 20:00:45.488912 15472 net.cpp:137] Memory required for data: 263073536
I0409 20:00:45.488916 15472 layer_factory.hpp:77] Creating layer drop6
I0409 20:00:45.488924 15472 net.cpp:84] Creating Layer drop6
I0409 20:00:45.488929 15472 net.cpp:406] drop6 <- fc6
I0409 20:00:45.488935 15472 net.cpp:367] drop6 -> fc6 (in-place)
I0409 20:00:45.488961 15472 net.cpp:122] Setting up drop6
I0409 20:00:45.488966 15472 net.cpp:129] Top shape: 32 512 (16384)
I0409 20:00:45.488970 15472 net.cpp:137] Memory required for data: 263139072
I0409 20:00:45.488973 15472 layer_factory.hpp:77] Creating layer fc7
I0409 20:00:45.488981 15472 net.cpp:84] Creating Layer fc7
I0409 20:00:45.488986 15472 net.cpp:406] fc7 <- fc6
I0409 20:00:45.488991 15472 net.cpp:380] fc7 -> fc7
I0409 20:00:45.492183 15472 net.cpp:122] Setting up fc7
I0409 20:00:45.492193 15472 net.cpp:129] Top shape: 32 512 (16384)
I0409 20:00:45.492197 15472 net.cpp:137] Memory required for data: 263204608
I0409 20:00:45.492203 15472 layer_factory.hpp:77] Creating layer relu7
I0409 20:00:45.492210 15472 net.cpp:84] Creating Layer relu7
I0409 20:00:45.492214 15472 net.cpp:406] relu7 <- fc7
I0409 20:00:45.492219 15472 net.cpp:367] relu7 -> fc7 (in-place)
I0409 20:00:45.492853 15472 net.cpp:122] Setting up relu7
I0409 20:00:45.492863 15472 net.cpp:129] Top shape: 32 512 (16384)
I0409 20:00:45.492867 15472 net.cpp:137] Memory required for data: 263270144
I0409 20:00:45.492871 15472 layer_factory.hpp:77] Creating layer drop7
I0409 20:00:45.492877 15472 net.cpp:84] Creating Layer drop7
I0409 20:00:45.492882 15472 net.cpp:406] drop7 <- fc7
I0409 20:00:45.492888 15472 net.cpp:367] drop7 -> fc7 (in-place)
I0409 20:00:45.492918 15472 net.cpp:122] Setting up drop7
I0409 20:00:45.492923 15472 net.cpp:129] Top shape: 32 512 (16384)
I0409 20:00:45.492925 15472 net.cpp:137] Memory required for data: 263335680
I0409 20:00:45.492929 15472 layer_factory.hpp:77] Creating layer fc7.5
I0409 20:00:45.492936 15472 net.cpp:84] Creating Layer fc7.5
I0409 20:00:45.492940 15472 net.cpp:406] fc7.5 <- fc7
I0409 20:00:45.492947 15472 net.cpp:380] fc7.5 -> fc7.5
I0409 20:00:45.495457 15472 net.cpp:122] Setting up fc7.5
I0409 20:00:45.495465 15472 net.cpp:129] Top shape: 32 512 (16384)
I0409 20:00:45.495469 15472 net.cpp:137] Memory required for data: 263401216
I0409 20:00:45.495476 15472 layer_factory.hpp:77] Creating layer relu7.5
I0409 20:00:45.495482 15472 net.cpp:84] Creating Layer relu7.5
I0409 20:00:45.495486 15472 net.cpp:406] relu7.5 <- fc7.5
I0409 20:00:45.495492 15472 net.cpp:367] relu7.5 -> fc7.5 (in-place)
I0409 20:00:45.496026 15472 net.cpp:122] Setting up relu7.5
I0409 20:00:45.496035 15472 net.cpp:129] Top shape: 32 512 (16384)
I0409 20:00:45.496039 15472 net.cpp:137] Memory required for data: 263466752
I0409 20:00:45.496043 15472 layer_factory.hpp:77] Creating layer drop7.5
I0409 20:00:45.496052 15472 net.cpp:84] Creating Layer drop7.5
I0409 20:00:45.496055 15472 net.cpp:406] drop7.5 <- fc7.5
I0409 20:00:45.496060 15472 net.cpp:367] drop7.5 -> fc7.5 (in-place)
I0409 20:00:45.496088 15472 net.cpp:122] Setting up drop7.5
I0409 20:00:45.496093 15472 net.cpp:129] Top shape: 32 512 (16384)
I0409 20:00:45.496096 15472 net.cpp:137] Memory required for data: 263532288
I0409 20:00:45.496099 15472 layer_factory.hpp:77] Creating layer fc8
I0409 20:00:45.496105 15472 net.cpp:84] Creating Layer fc8
I0409 20:00:45.496109 15472 net.cpp:406] fc8 <- fc7.5
I0409 20:00:45.496116 15472 net.cpp:380] fc8 -> fc8
I0409 20:00:45.497148 15472 net.cpp:122] Setting up fc8
I0409 20:00:45.497154 15472 net.cpp:129] Top shape: 32 196 (6272)
I0409 20:00:45.497157 15472 net.cpp:137] Memory required for data: 263557376
I0409 20:00:45.497169 15472 layer_factory.hpp:77] Creating layer fc8_fc8_0_split
I0409 20:00:45.497176 15472 net.cpp:84] Creating Layer fc8_fc8_0_split
I0409 20:00:45.497180 15472 net.cpp:406] fc8_fc8_0_split <- fc8
I0409 20:00:45.497186 15472 net.cpp:380] fc8_fc8_0_split -> fc8_fc8_0_split_0
I0409 20:00:45.497208 15472 net.cpp:380] fc8_fc8_0_split -> fc8_fc8_0_split_1
I0409 20:00:45.497243 15472 net.cpp:122] Setting up fc8_fc8_0_split
I0409 20:00:45.497248 15472 net.cpp:129] Top shape: 32 196 (6272)
I0409 20:00:45.497252 15472 net.cpp:129] Top shape: 32 196 (6272)
I0409 20:00:45.497256 15472 net.cpp:137] Memory required for data: 263607552
I0409 20:00:45.497259 15472 layer_factory.hpp:77] Creating layer accuracy
I0409 20:00:45.497267 15472 net.cpp:84] Creating Layer accuracy
I0409 20:00:45.497270 15472 net.cpp:406] accuracy <- fc8_fc8_0_split_0
I0409 20:00:45.497275 15472 net.cpp:406] accuracy <- label_val-data_1_split_0
I0409 20:00:45.497282 15472 net.cpp:380] accuracy -> accuracy
…
