…
I0408 15:34:46.286900 27257 net.cpp:294] The NetState phase (0) differed from the phase (1) specified by a rule in layer accuracy
I0408 15:34:46.287050 27257 net.cpp:51] Initializing net from parameters:
state {
phase: TRAIN
level: 0
stage: ""
}
layer {
name: "train-data"
type: "Data"
top: "data"
top: "label"
include {
phase: TRAIN
}
transform_param {
mirror: true
crop_size: 227
mean_file: "/mnt/bigdisk/DIGITS-MAN-2/digits/jobs/20210407-214532-d396/mean.binaryproto"
}
data_param {
source: "/mnt/bigdisk/DIGITS-MAN-2/digits/jobs/20210407-214532-d396/train_db"
batch_size: 128
backend: LMDB
}
}
layer {
name: "conv1"
type: "Convolution"
bottom: "data"
top: "conv1"
param {
lr_mult: 1
decay_mult: 1
}
param {
lr_mult: 2
decay_mult: 0
}
convolution_param {
num_output: 96
kernel_size: 11
stride: 4
weight_filler {
type: "gaussian"
std: 0.01
}
bias_filler {
type: "constant"
value: 0
}
}
}
layer {
name: "relu1"
type: "ReLU"
bottom: "conv1"
top: "conv1"
}
layer {
name: "norm1"
type: "LRN"
bottom: "conv1"
top: "norm1"
lrn_param {
local_size: 5
alpha: 0.0001
beta: 0.75
}
}
layer {
name: "pool1"
type: "Pooling"
bottom: "norm1"
top: "pool1"
pooling_param {
pool: MAX
kernel_size: 3
stride: 2
}
}
layer {
name: "conv2"
type: "Convolution"
bottom: "pool1"
top: "conv2"
param {
lr_mult: 1
decay_mult: 1
}
param {
lr_mult: 2
decay_mult: 0
}
convolution_param {
num_output: 256
pad: 2
kernel_size: 5
group: 2
weight_filler {
type: "gaussian"
std: 0.01
}
bias_filler {
type: "constant"
value: 0.1
}
}
}
layer {
name: "relu2"
type: "ReLU"
bottom: "conv2"
top: "conv2"
}
layer {
name: "norm2"
type: "LRN"
bottom: "conv2"
top: "norm2"
lrn_param {
local_size: 5
alpha: 0.0001
beta: 0.75
}
}
layer {
name: "pool2"
type: "Pooling"
bottom: "norm2"
top: "pool2"
pooling_param {
pool: MAX
kernel_size: 3
stride: 2
}
}
layer {
name: "conv3"
type: "Convolution"
bottom: "pool2"
top: "conv3"
param {
lr_mult: 1
decay_mult: 1
}
param {
lr_mult: 2
decay_mult: 0
}
convolution_param {
num_output: 384
pad: 1
kernel_size: 3
weight_filler {
type: "gaussian"
std: 0.01
}
bias_filler {
type: "constant"
value: 0
}
}
}
layer {
name: "relu3"
type: "ReLU"
bottom: "conv3"
top: "conv3"
}
layer {
name: "conv4"
type: "Convolution"
bottom: "conv3"
top: "conv4"
param {
lr_mult: 1
decay_mult: 1
}
param {
lr_mult: 2
decay_mult: 0
}
convolution_param {
num_output: 384
pad: 1
kernel_size: 3
group: 2
weight_filler {
type: "gaussian"
std: 0.01
}
bias_filler {
type: "constant"
value: 0.1
}
}
}
layer {
name: "relu4"
type: "ReLU"
bottom: "conv4"
top: "conv4"
}
layer {
name: "conv5"
type: "Convolution"
bottom: "conv4"
top: "conv5"
param {
lr_mult: 1
decay_mult: 1
}
param {
lr_mult: 2
decay_mult: 0
}
convolution_param {
num_output: 256
pad: 1
kernel_size: 3
group: 2
weight_filler {
type: "gaussian"
std: 0.01
}
bias_filler {
type: "constant"
value: 0.1
}
}
}
layer {
name: "relu5"
type: "ReLU"
bottom: "conv5"
top: "conv5"
}
layer {
name: "pool5"
type: "Pooling"
bottom: "conv5"
top: "pool5"
pooling_param {
pool: MAX
kernel_size: 3
stride: 2
}
}
layer {
name: "fc6"
type: "InnerProduct"
bottom: "pool5"
top: "fc6"
param {
lr_mult: 1
decay_mult: 1
}
param {
lr_mult: 2
decay_mult: 0
}
inner_product_param {
num_output: 4096
weight_filler {
type: "gaussian"
std: 0.005
}
bias_filler {
type: "constant"
value: 0.1
}
}
}
layer {
name: "relu6"
type: "ReLU"
bottom: "fc6"
top: "fc6"
}
layer {
name: "drop6"
type: "Dropout"
bottom: "fc6"
top: "fc6"
dropout_param {
dropout_ratio: 0.5
}
}
layer {
name: "fc7"
type: "InnerProduct"
bottom: "fc6"
top: "fc7"
param {
lr_mult: 1
decay_mult: 1
}
param {
lr_mult: 2
decay_mult: 0
}
inner_product_param {
num_output: 4096
weight_filler {
type: "gaussian"
std: 0.005
}
bias_filler {
type: "constant"
value: 0.1
}
}
}
layer {
name: "relu7"
type: "ReLU"
bottom: "fc7"
top: "fc7"
}
layer {
name: "drop7"
type: "Dropout"
bottom: "fc7"
top: "fc7"
dropout_param {
dropout_ratio: 0.5
}
}
layer {
name: "fc8"
type: "InnerProduct"
bottom: "fc7"
top: "fc8"
param {
lr_mult: 1
decay_mult: 1
}
param {
lr_mult: 2
decay_mult: 0
}
inner_product_param {
num_output: 196
weight_filler {
type: "gaussian"
std: 0.01
}
bias_filler {
type: "constant"
value: 0
}
}
}
layer {
name: "loss"
type: "SoftmaxWithLoss"
bottom: "fc8"
bottom: "label"
top: "loss"
}
I0408 15:34:46.287137 27257 layer_factory.hpp:77] Creating layer train-data
I0408 15:34:46.288661 27257 db_lmdb.cpp:35] Opened lmdb /mnt/bigdisk/DIGITS-MAN-2/digits/jobs/20210407-214532-d396/train_db
I0408 15:34:46.288874 27257 net.cpp:84] Creating Layer train-data
I0408 15:34:46.288885 27257 net.cpp:380] train-data -> data
I0408 15:34:46.288905 27257 net.cpp:380] train-data -> label
I0408 15:34:46.288918 27257 data_transformer.cpp:25] Loading mean file from: /mnt/bigdisk/DIGITS-MAN-2/digits/jobs/20210407-214532-d396/mean.binaryproto
I0408 15:34:46.293511 27257 data_layer.cpp:45] output data size: 128,3,227,227
I0408 15:34:46.414856 27257 net.cpp:122] Setting up train-data
I0408 15:34:46.414880 27257 net.cpp:129] Top shape: 128 3 227 227 (19787136)
I0408 15:34:46.414885 27257 net.cpp:129] Top shape: 128 (128)
I0408 15:34:46.414889 27257 net.cpp:137] Memory required for data: 79149056
I0408 15:34:46.414898 27257 layer_factory.hpp:77] Creating layer conv1
I0408 15:34:46.414921 27257 net.cpp:84] Creating Layer conv1
I0408 15:34:46.414927 27257 net.cpp:406] conv1 <- data
I0408 15:34:46.414939 27257 net.cpp:380] conv1 -> conv1
I0408 15:34:46.982251 27257 net.cpp:122] Setting up conv1
I0408 15:34:46.982273 27257 net.cpp:129] Top shape: 128 96 55 55 (37171200)
I0408 15:34:46.982277 27257 net.cpp:137] Memory required for data: 227833856
I0408 15:34:46.982296 27257 layer_factory.hpp:77] Creating layer relu1
I0408 15:34:46.982307 27257 net.cpp:84] Creating Layer relu1
I0408 15:34:46.982311 27257 net.cpp:406] relu1 <- conv1
I0408 15:34:46.982318 27257 net.cpp:367] relu1 -> conv1 (in-place)
I0408 15:34:46.982604 27257 net.cpp:122] Setting up relu1
I0408 15:34:46.982611 27257 net.cpp:129] Top shape: 128 96 55 55 (37171200)
I0408 15:34:46.982615 27257 net.cpp:137] Memory required for data: 376518656
I0408 15:34:46.982620 27257 layer_factory.hpp:77] Creating layer norm1
I0408 15:34:46.982628 27257 net.cpp:84] Creating Layer norm1
I0408 15:34:46.982631 27257 net.cpp:406] norm1 <- conv1
I0408 15:34:46.982656 27257 net.cpp:380] norm1 -> norm1
I0408 15:34:46.983094 27257 net.cpp:122] Setting up norm1
I0408 15:34:46.983104 27257 net.cpp:129] Top shape: 128 96 55 55 (37171200)
I0408 15:34:46.983108 27257 net.cpp:137] Memory required for data: 525203456
I0408 15:34:46.983111 27257 layer_factory.hpp:77] Creating layer pool1
I0408 15:34:46.983119 27257 net.cpp:84] Creating Layer pool1
I0408 15:34:46.983124 27257 net.cpp:406] pool1 <- norm1
I0408 15:34:46.983129 27257 net.cpp:380] pool1 -> pool1
I0408 15:34:46.983165 27257 net.cpp:122] Setting up pool1
I0408 15:34:46.983171 27257 net.cpp:129] Top shape: 128 96 27 27 (8957952)
I0408 15:34:46.983175 27257 net.cpp:137] Memory required for data: 561035264
I0408 15:34:46.983177 27257 layer_factory.hpp:77] Creating layer conv2
I0408 15:34:46.983188 27257 net.cpp:84] Creating Layer conv2
I0408 15:34:46.983192 27257 net.cpp:406] conv2 <- pool1
I0408 15:34:46.983197 27257 net.cpp:380] conv2 -> conv2
I0408 15:34:46.992434 27257 net.cpp:122] Setting up conv2
I0408 15:34:46.992450 27257 net.cpp:129] Top shape: 128 256 27 27 (23887872)
I0408 15:34:46.992453 27257 net.cpp:137] Memory required for data: 656586752
I0408 15:34:46.992463 27257 layer_factory.hpp:77] Creating layer relu2
I0408 15:34:46.992471 27257 net.cpp:84] Creating Layer relu2
I0408 15:34:46.992475 27257 net.cpp:406] relu2 <- conv2
I0408 15:34:46.992481 27257 net.cpp:367] relu2 -> conv2 (in-place)
I0408 15:34:46.992905 27257 net.cpp:122] Setting up relu2
I0408 15:34:46.992914 27257 net.cpp:129] Top shape: 128 256 27 27 (23887872)
I0408 15:34:46.992918 27257 net.cpp:137] Memory required for data: 752138240
I0408 15:34:46.992921 27257 layer_factory.hpp:77] Creating layer norm2
I0408 15:34:46.992928 27257 net.cpp:84] Creating Layer norm2
I0408 15:34:46.992933 27257 net.cpp:406] norm2 <- conv2
I0408 15:34:46.992938 27257 net.cpp:380] norm2 -> norm2
I0408 15:34:46.993227 27257 net.cpp:122] Setting up norm2
I0408 15:34:46.993235 27257 net.cpp:129] Top shape: 128 256 27 27 (23887872)
I0408 15:34:46.993238 27257 net.cpp:137] Memory required for data: 847689728
I0408 15:34:46.993242 27257 layer_factory.hpp:77] Creating layer pool2
I0408 15:34:46.993249 27257 net.cpp:84] Creating Layer pool2
I0408 15:34:46.993253 27257 net.cpp:406] pool2 <- norm2
I0408 15:34:46.993258 27257 net.cpp:380] pool2 -> pool2
I0408 15:34:46.993285 27257 net.cpp:122] Setting up pool2
I0408 15:34:46.993290 27257 net.cpp:129] Top shape: 128 256 13 13 (5537792)
I0408 15:34:46.993294 27257 net.cpp:137] Memory required for data: 869840896
I0408 15:34:46.993296 27257 layer_factory.hpp:77] Creating layer conv3
I0408 15:34:46.993305 27257 net.cpp:84] Creating Layer conv3
I0408 15:34:46.993309 27257 net.cpp:406] conv3 <- pool2
I0408 15:34:46.993314 27257 net.cpp:380] conv3 -> conv3
I0408 15:34:47.003067 27257 net.cpp:122] Setting up conv3
I0408 15:34:47.003080 27257 net.cpp:129] Top shape: 128 384 13 13 (8306688)
I0408 15:34:47.003084 27257 net.cpp:137] Memory required for data: 903067648
I0408 15:34:47.003094 27257 layer_factory.hpp:77] Creating layer relu3
I0408 15:34:47.003101 27257 net.cpp:84] Creating Layer relu3
I0408 15:34:47.003105 27257 net.cpp:406] relu3 <- conv3
I0408 15:34:47.003110 27257 net.cpp:367] relu3 -> conv3 (in-place)
I0408 15:34:47.003528 27257 net.cpp:122] Setting up relu3
I0408 15:34:47.003537 27257 net.cpp:129] Top shape: 128 384 13 13 (8306688)
I0408 15:34:47.003540 27257 net.cpp:137] Memory required for data: 936294400
I0408 15:34:47.003545 27257 layer_factory.hpp:77] Creating layer conv4
I0408 15:34:47.003553 27257 net.cpp:84] Creating Layer conv4
I0408 15:34:47.003557 27257 net.cpp:406] conv4 <- conv3
I0408 15:34:47.003563 27257 net.cpp:380] conv4 -> conv4
I0408 15:34:47.014341 27257 net.cpp:122] Setting up conv4
I0408 15:34:47.014358 27257 net.cpp:129] Top shape: 128 384 13 13 (8306688)
I0408 15:34:47.014361 27257 net.cpp:137] Memory required for data: 969521152
I0408 15:34:47.014369 27257 layer_factory.hpp:77] Creating layer relu4
I0408 15:34:47.014376 27257 net.cpp:84] Creating Layer relu4
I0408 15:34:47.014395 27257 net.cpp:406] relu4 <- conv4
I0408 15:34:47.014402 27257 net.cpp:367] relu4 -> conv4 (in-place)
I0408 15:34:47.014683 27257 net.cpp:122] Setting up relu4
I0408 15:34:47.014691 27257 net.cpp:129] Top shape: 128 384 13 13 (8306688)
I0408 15:34:47.014695 27257 net.cpp:137] Memory required for data: 1002747904
I0408 15:34:47.014699 27257 layer_factory.hpp:77] Creating layer conv5
I0408 15:34:47.014708 27257 net.cpp:84] Creating Layer conv5
I0408 15:34:47.014712 27257 net.cpp:406] conv5 <- conv4
I0408 15:34:47.014719 27257 net.cpp:380] conv5 -> conv5
I0408 15:34:47.022753 27257 net.cpp:122] Setting up conv5
I0408 15:34:47.022768 27257 net.cpp:129] Top shape: 128 256 13 13 (5537792)
I0408 15:34:47.022773 27257 net.cpp:137] Memory required for data: 1024899072
I0408 15:34:47.022783 27257 layer_factory.hpp:77] Creating layer relu5
I0408 15:34:47.022790 27257 net.cpp:84] Creating Layer relu5
I0408 15:34:47.022794 27257 net.cpp:406] relu5 <- conv5
I0408 15:34:47.022802 27257 net.cpp:367] relu5 -> conv5 (in-place)
I0408 15:34:47.023283 27257 net.cpp:122] Setting up relu5
I0408 15:34:47.023291 27257 net.cpp:129] Top shape: 128 256 13 13 (5537792)
I0408 15:34:47.023294 27257 net.cpp:137] Memory required for data: 1047050240
I0408 15:34:47.023298 27257 layer_factory.hpp:77] Creating layer pool5
I0408 15:34:47.023306 27257 net.cpp:84] Creating Layer pool5
I0408 15:34:47.023310 27257 net.cpp:406] pool5 <- conv5
I0408 15:34:47.023315 27257 net.cpp:380] pool5 -> pool5
I0408 15:34:47.023353 27257 net.cpp:122] Setting up pool5
I0408 15:34:47.023360 27257 net.cpp:129] Top shape: 128 256 6 6 (1179648)
I0408 15:34:47.023362 27257 net.cpp:137] Memory required for data: 1051768832
I0408 15:34:47.023366 27257 layer_factory.hpp:77] Creating layer fc6
I0408 15:34:47.023375 27257 net.cpp:84] Creating Layer fc6
I0408 15:34:47.023378 27257 net.cpp:406] fc6 <- pool5
I0408 15:34:47.023386 27257 net.cpp:380] fc6 -> fc6
I0408 15:34:47.376443 27257 net.cpp:122] Setting up fc6
I0408 15:34:47.376462 27257 net.cpp:129] Top shape: 128 4096 (524288)
I0408 15:34:47.376466 27257 net.cpp:137] Memory required for data: 1053865984
I0408 15:34:47.376475 27257 layer_factory.hpp:77] Creating layer relu6
I0408 15:34:47.376485 27257 net.cpp:84] Creating Layer relu6
I0408 15:34:47.376490 27257 net.cpp:406] relu6 <- fc6
I0408 15:34:47.376497 27257 net.cpp:367] relu6 -> fc6 (in-place)
I0408 15:34:47.377110 27257 net.cpp:122] Setting up relu6
I0408 15:34:47.377120 27257 net.cpp:129] Top shape: 128 4096 (524288)
I0408 15:34:47.377122 27257 net.cpp:137] Memory required for data: 1055963136
I0408 15:34:47.377126 27257 layer_factory.hpp:77] Creating layer drop6
I0408 15:34:47.377135 27257 net.cpp:84] Creating Layer drop6
I0408 15:34:47.377137 27257 net.cpp:406] drop6 <- fc6
I0408 15:34:47.377143 27257 net.cpp:367] drop6 -> fc6 (in-place)
I0408 15:34:47.377171 27257 net.cpp:122] Setting up drop6
I0408 15:34:47.377175 27257 net.cpp:129] Top shape: 128 4096 (524288)
I0408 15:34:47.377178 27257 net.cpp:137] Memory required for data: 1058060288
I0408 15:34:47.377182 27257 layer_factory.hpp:77] Creating layer fc7
I0408 15:34:47.377189 27257 net.cpp:84] Creating Layer fc7
I0408 15:34:47.377192 27257 net.cpp:406] fc7 <- fc6
I0408 15:34:47.377198 27257 net.cpp:380] fc7 -> fc7
I0408 15:34:47.535156 27257 net.cpp:122] Setting up fc7
I0408 15:34:47.535176 27257 net.cpp:129] Top shape: 128 4096 (524288)
I0408 15:34:47.535179 27257 net.cpp:137] Memory required for data: 1060157440
I0408 15:34:47.535189 27257 layer_factory.hpp:77] Creating layer relu7
I0408 15:34:47.535198 27257 net.cpp:84] Creating Layer relu7
I0408 15:34:47.535202 27257 net.cpp:406] relu7 <- fc7
I0408 15:34:47.535209 27257 net.cpp:367] relu7 -> fc7 (in-place)
I0408 15:34:47.535825 27257 net.cpp:122] Setting up relu7
I0408 15:34:47.535836 27257 net.cpp:129] Top shape: 128 4096 (524288)
I0408 15:34:47.535840 27257 net.cpp:137] Memory required for data: 1062254592
I0408 15:34:47.535843 27257 layer_factory.hpp:77] Creating layer drop7
I0408 15:34:47.535849 27257 net.cpp:84] Creating Layer drop7
I0408 15:34:47.535871 27257 net.cpp:406] drop7 <- fc7
I0408 15:34:47.535876 27257 net.cpp:367] drop7 -> fc7 (in-place)
I0408 15:34:47.535902 27257 net.cpp:122] Setting up drop7
I0408 15:34:47.535907 27257 net.cpp:129] Top shape: 128 4096 (524288)
I0408 15:34:47.535910 27257 net.cpp:137] Memory required for data: 1064351744
I0408 15:34:47.535913 27257 layer_factory.hpp:77] Creating layer fc8
I0408 15:34:47.535921 27257 net.cpp:84] Creating Layer fc8
I0408 15:34:47.535924 27257 net.cpp:406] fc8 <- fc7
I0408 15:34:47.535930 27257 net.cpp:380] fc8 -> fc8
I0408 15:34:47.543583 27257 net.cpp:122] Setting up fc8
I0408 15:34:47.543594 27257 net.cpp:129] Top shape: 128 196 (25088)
I0408 15:34:47.543597 27257 net.cpp:137] Memory required for data: 1064452096
I0408 15:34:47.543604 27257 layer_factory.hpp:77] Creating layer loss
I0408 15:34:47.543612 27257 net.cpp:84] Creating Layer loss
I0408 15:34:47.543617 27257 net.cpp:406] loss <- fc8
I0408 15:34:47.543622 27257 net.cpp:406] loss <- label
I0408 15:34:47.543627 27257 net.cpp:380] loss -> loss
I0408 15:34:47.543637 27257 layer_factory.hpp:77] Creating layer loss
…
I0408 15:34:47.544962 27257 net.cpp:294] The NetState phase (1) differed from the phase (0) specified by a rule in layer train-data
I0408 15:34:47.545100 27257 net.cpp:51] Initializing net from parameters:
state {
phase: TEST
}
layer {
name: "val-data"
type: "Data"
top: "data"
top: "label"
include {
phase: TEST
}
transform_param {
crop_size: 227
mean_file: "/mnt/bigdisk/DIGITS-MAN-2/digits/jobs/20210407-214532-d396/mean.binaryproto"
}
data_param {
source: "/mnt/bigdisk/DIGITS-MAN-2/digits/jobs/20210407-214532-d396/val_db"
batch_size: 32
backend: LMDB
}
}
layer {
name: "conv1"
type: "Convolution"
bottom: "data"
top: "conv1"
param {
lr_mult: 1
decay_mult: 1
}
param {
lr_mult: 2
decay_mult: 0
}
convolution_param {
num_output: 96
kernel_size: 11
stride: 4
weight_filler {
type: "gaussian"
std: 0.01
}
bias_filler {
type: "constant"
value: 0
}
}
}
layer {
name: "relu1"
type: "ReLU"
bottom: "conv1"
top: "conv1"
}
layer {
name: "norm1"
type: "LRN"
bottom: "conv1"
top: "norm1"
lrn_param {
local_size: 5
alpha: 0.0001
beta: 0.75
}
}
layer {
name: "pool1"
type: "Pooling"
bottom: "norm1"
top: "pool1"
pooling_param {
pool: MAX
kernel_size: 3
stride: 2
}
}
layer {
name: "conv2"
type: "Convolution"
bottom: "pool1"
top: "conv2"
param {
lr_mult: 1
decay_mult: 1
}
param {
lr_mult: 2
decay_mult: 0
}
convolution_param {
num_output: 256
pad: 2
kernel_size: 5
group: 2
weight_filler {
type: "gaussian"
std: 0.01
}
bias_filler {
type: "constant"
value: 0.1
}
}
}
layer {
name: "relu2"
type: "ReLU"
bottom: "conv2"
top: "conv2"
}
layer {
name: "norm2"
type: "LRN"
bottom: "conv2"
top: "norm2"
lrn_param {
local_size: 5
alpha: 0.0001
beta: 0.75
}
}
layer {
name: "pool2"
type: "Pooling"
bottom: "norm2"
top: "pool2"
pooling_param {
pool: MAX
kernel_size: 3
stride: 2
}
}
layer {
name: "conv3"
type: "Convolution"
bottom: "pool2"
top: "conv3"
param {
lr_mult: 1
decay_mult: 1
}
param {
lr_mult: 2
decay_mult: 0
}
convolution_param {
num_output: 384
pad: 1
kernel_size: 3
weight_filler {
type: "gaussian"
std: 0.01
}
bias_filler {
type: "constant"
value: 0
}
}
}
layer {
name: "relu3"
type: "ReLU"
bottom: "conv3"
top: "conv3"
}
layer {
name: "conv4"
type: "Convolution"
bottom: "conv3"
top: "conv4"
param {
lr_mult: 1
decay_mult: 1
}
param {
lr_mult: 2
decay_mult: 0
}
convolution_param {
num_output: 384
pad: 1
kernel_size: 3
group: 2
weight_filler {
type: "gaussian"
std: 0.01
}
bias_filler {
type: "constant"
value: 0.1
}
}
}
layer {
name: "relu4"
type: "ReLU"
bottom: "conv4"
top: "conv4"
}
layer {
name: "conv5"
type: "Convolution"
bottom: "conv4"
top: "conv5"
param {
lr_mult: 1
decay_mult: 1
}
param {
lr_mult: 2
decay_mult: 0
}
convolution_param {
num_output: 256
pad: 1
kernel_size: 3
group: 2
weight_filler {
type: "gaussian"
std: 0.01
}
bias_filler {
type: "constant"
value: 0.1
}
}
}
layer {
name: "relu5"
type: "ReLU"
bottom: "conv5"
top: "conv5"
}
layer {
name: "pool5"
type: "Pooling"
bottom: "conv5"
top: "pool5"
pooling_param {
pool: MAX
kernel_size: 3
stride: 2
}
}
layer {
name: "fc6"
type: "InnerProduct"
bottom: "pool5"
top: "fc6"
param {
lr_mult: 1
decay_mult: 1
}
param {
lr_mult: 2
decay_mult: 0
}
inner_product_param {
num_output: 4096
weight_filler {
type: "gaussian"
std: 0.005
}
bias_filler {
type: "constant"
value: 0.1
}
}
}
layer {
name: "relu6"
type: "ReLU"
bottom: "fc6"
top: "fc6"
}
layer {
name: "drop6"
type: "Dropout"
bottom: "fc6"
top: "fc6"
dropout_param {
dropout_ratio: 0.5
}
}
layer {
name: "fc7"
type: "InnerProduct"
bottom: "fc6"
top: "fc7"
param {
lr_mult: 1
decay_mult: 1
}
param {
lr_mult: 2
decay_mult: 0
}
inner_product_param {
num_output: 4096
weight_filler {
type: "gaussian"
std: 0.005
}
bias_filler {
type: "constant"
value: 0.1
}
}
}
layer {
name: "relu7"
type: "ReLU"
bottom: "fc7"
top: "fc7"
}
layer {
name: "drop7"
type: "Dropout"
bottom: "fc7"
top: "fc7"
dropout_param {
dropout_ratio: 0.5
}
}
layer {
name: "fc8"
type: "InnerProduct"
bottom: "fc7"
top: "fc8"
param {
lr_mult: 1
decay_mult: 1
}
param {
lr_mult: 2
decay_mult: 0
}
inner_product_param {
num_output: 196
weight_filler {
type: "gaussian"
std: 0.01
}
bias_filler {
type: "constant"
value: 0
}
}
}
layer {
name: "accuracy"
type: "Accuracy"
bottom: "fc8"
bottom: "label"
top: "accuracy"
include {
phase: TEST
}
}
layer {
name: "loss"
type: "SoftmaxWithLoss"
bottom: "fc8"
bottom: "label"
top: "loss"
}
I0408 15:34:47.545197 27257 layer_factory.hpp:77] Creating layer val-data
I0408 15:34:47.547108 27257 db_lmdb.cpp:35] Opened lmdb /mnt/bigdisk/DIGITS-MAN-2/digits/jobs/20210407-214532-d396/val_db
I0408 15:34:47.547333 27257 net.cpp:84] Creating Layer val-data
I0408 15:34:47.547343 27257 net.cpp:380] val-data -> data
I0408 15:34:47.547353 27257 net.cpp:380] val-data -> label
I0408 15:34:47.547358 27257 data_transformer.cpp:25] Loading mean file from: /mnt/bigdisk/DIGITS-MAN-2/digits/jobs/20210407-214532-d396/mean.binaryproto
I0408 15:34:47.551267 27257 data_layer.cpp:45] output data size: 32,3,227,227
I0408 15:34:47.588660 27257 net.cpp:122] Setting up val-data
I0408 15:34:47.588678 27257 net.cpp:129] Top shape: 32 3 227 227 (4946784)
I0408 15:34:47.588683 27257 net.cpp:129] Top shape: 32 (32)
I0408 15:34:47.588686 27257 net.cpp:137] Memory required for data: 19787264
I0408 15:34:47.588692 27257 layer_factory.hpp:77] Creating layer label_val-data_1_split
I0408 15:34:47.588706 27257 net.cpp:84] Creating Layer label_val-data_1_split
I0408 15:34:47.588709 27257 net.cpp:406] label_val-data_1_split <- label
I0408 15:34:47.588717 27257 net.cpp:380] label_val-data_1_split -> label_val-data_1_split_0
I0408 15:34:47.588726 27257 net.cpp:380] label_val-data_1_split -> label_val-data_1_split_1
I0408 15:34:47.588771 27257 net.cpp:122] Setting up label_val-data_1_split
I0408 15:34:47.588778 27257 net.cpp:129] Top shape: 32 (32)
I0408 15:34:47.588781 27257 net.cpp:129] Top shape: 32 (32)
I0408 15:34:47.588784 27257 net.cpp:137] Memory required for data: 19787520
I0408 15:34:47.588788 27257 layer_factory.hpp:77] Creating layer conv1
I0408 15:34:47.588798 27257 net.cpp:84] Creating Layer conv1
I0408 15:34:47.588802 27257 net.cpp:406] conv1 <- data
I0408 15:34:47.588807 27257 net.cpp:380] conv1 -> conv1
I0408 15:34:47.590862 27257 net.cpp:122] Setting up conv1
I0408 15:34:47.590873 27257 net.cpp:129] Top shape: 32 96 55 55 (9292800)
I0408 15:34:47.590876 27257 net.cpp:137] Memory required for data: 56958720
I0408 15:34:47.590886 27257 layer_factory.hpp:77] Creating layer relu1
I0408 15:34:47.590893 27257 net.cpp:84] Creating Layer relu1
I0408 15:34:47.590896 27257 net.cpp:406] relu1 <- conv1
I0408 15:34:47.590901 27257 net.cpp:367] relu1 -> conv1 (in-place)
I0408 15:34:47.591192 27257 net.cpp:122] Setting up relu1
I0408 15:34:47.591200 27257 net.cpp:129] Top shape: 32 96 55 55 (9292800)
I0408 15:34:47.591203 27257 net.cpp:137] Memory required for data: 94129920
I0408 15:34:47.591207 27257 layer_factory.hpp:77] Creating layer norm1
I0408 15:34:47.591215 27257 net.cpp:84] Creating Layer norm1
I0408 15:34:47.591219 27257 net.cpp:406] norm1 <- conv1
I0408 15:34:47.591224 27257 net.cpp:380] norm1 -> norm1
I0408 15:34:47.591677 27257 net.cpp:122] Setting up norm1
I0408 15:34:47.591686 27257 net.cpp:129] Top shape: 32 96 55 55 (9292800)
I0408 15:34:47.591689 27257 net.cpp:137] Memory required for data: 131301120
I0408 15:34:47.591693 27257 layer_factory.hpp:77] Creating layer pool1
I0408 15:34:47.591699 27257 net.cpp:84] Creating Layer pool1
I0408 15:34:47.591703 27257 net.cpp:406] pool1 <- norm1
I0408 15:34:47.591708 27257 net.cpp:380] pool1 -> pool1
I0408 15:34:47.591737 27257 net.cpp:122] Setting up pool1
I0408 15:34:47.591742 27257 net.cpp:129] Top shape: 32 96 27 27 (2239488)
I0408 15:34:47.591744 27257 net.cpp:137] Memory required for data: 140259072
I0408 15:34:47.591747 27257 layer_factory.hpp:77] Creating layer conv2
I0408 15:34:47.591755 27257 net.cpp:84] Creating Layer conv2
I0408 15:34:47.591758 27257 net.cpp:406] conv2 <- pool1
I0408 15:34:47.591781 27257 net.cpp:380] conv2 -> conv2
I0408 15:34:47.600204 27257 net.cpp:122] Setting up conv2
I0408 15:34:47.600220 27257 net.cpp:129] Top shape: 32 256 27 27 (5971968)
I0408 15:34:47.600224 27257 net.cpp:137] Memory required for data: 164146944
I0408 15:34:47.600234 27257 layer_factory.hpp:77] Creating layer relu2
I0408 15:34:47.600244 27257 net.cpp:84] Creating Layer relu2
I0408 15:34:47.600247 27257 net.cpp:406] relu2 <- conv2
I0408 15:34:47.600252 27257 net.cpp:367] relu2 -> conv2 (in-place)
I0408 15:34:47.600749 27257 net.cpp:122] Setting up relu2
I0408 15:34:47.600757 27257 net.cpp:129] Top shape: 32 256 27 27 (5971968)
I0408 15:34:47.600761 27257 net.cpp:137] Memory required for data: 188034816
I0408 15:34:47.600764 27257 layer_factory.hpp:77] Creating layer norm2
I0408 15:34:47.600775 27257 net.cpp:84] Creating Layer norm2
I0408 15:34:47.600778 27257 net.cpp:406] norm2 <- conv2
I0408 15:34:47.600783 27257 net.cpp:380] norm2 -> norm2
I0408 15:34:47.601294 27257 net.cpp:122] Setting up norm2
I0408 15:34:47.601305 27257 net.cpp:129] Top shape: 32 256 27 27 (5971968)
I0408 15:34:47.601310 27257 net.cpp:137] Memory required for data: 211922688
I0408 15:34:47.601312 27257 layer_factory.hpp:77] Creating layer pool2
I0408 15:34:47.601320 27257 net.cpp:84] Creating Layer pool2
I0408 15:34:47.601323 27257 net.cpp:406] pool2 <- norm2
I0408 15:34:47.601328 27257 net.cpp:380] pool2 -> pool2
I0408 15:34:47.601361 27257 net.cpp:122] Setting up pool2
I0408 15:34:47.601366 27257 net.cpp:129] Top shape: 32 256 13 13 (1384448)
I0408 15:34:47.601369 27257 net.cpp:137] Memory required for data: 217460480
I0408 15:34:47.601372 27257 layer_factory.hpp:77] Creating layer conv3
I0408 15:34:47.601382 27257 net.cpp:84] Creating Layer conv3
I0408 15:34:47.601385 27257 net.cpp:406] conv3 <- pool2
I0408 15:34:47.601392 27257 net.cpp:380] conv3 -> conv3
I0408 15:34:47.612288 27257 net.cpp:122] Setting up conv3
I0408 15:34:47.612306 27257 net.cpp:129] Top shape: 32 384 13 13 (2076672)
I0408 15:34:47.612309 27257 net.cpp:137] Memory required for data: 225767168
I0408 15:34:47.612321 27257 layer_factory.hpp:77] Creating layer relu3
I0408 15:34:47.612330 27257 net.cpp:84] Creating Layer relu3
I0408 15:34:47.612334 27257 net.cpp:406] relu3 <- conv3
I0408 15:34:47.612340 27257 net.cpp:367] relu3 -> conv3 (in-place)
I0408 15:34:47.612848 27257 net.cpp:122] Setting up relu3
I0408 15:34:47.612856 27257 net.cpp:129] Top shape: 32 384 13 13 (2076672)
I0408 15:34:47.612860 27257 net.cpp:137] Memory required for data: 234073856
I0408 15:34:47.612864 27257 layer_factory.hpp:77] Creating layer conv4
I0408 15:34:47.612874 27257 net.cpp:84] Creating Layer conv4
I0408 15:34:47.612879 27257 net.cpp:406] conv4 <- conv3
I0408 15:34:47.612885 27257 net.cpp:380] conv4 -> conv4
I0408 15:34:47.622290 27257 net.cpp:122] Setting up conv4
I0408 15:34:47.622304 27257 net.cpp:129] Top shape: 32 384 13 13 (2076672)
I0408 15:34:47.622308 27257 net.cpp:137] Memory required for data: 242380544
I0408 15:34:47.622315 27257 layer_factory.hpp:77] Creating layer relu4
I0408 15:34:47.622323 27257 net.cpp:84] Creating Layer relu4
I0408 15:34:47.622326 27257 net.cpp:406] relu4 <- conv4
I0408 15:34:47.622334 27257 net.cpp:367] relu4 -> conv4 (in-place)
I0408 15:34:47.622675 27257 net.cpp:122] Setting up relu4
I0408 15:34:47.622685 27257 net.cpp:129] Top shape: 32 384 13 13 (2076672)
I0408 15:34:47.622689 27257 net.cpp:137] Memory required for data: 250687232
I0408 15:34:47.622692 27257 layer_factory.hpp:77] Creating layer conv5
I0408 15:34:47.622701 27257 net.cpp:84] Creating Layer conv5
I0408 15:34:47.622705 27257 net.cpp:406] conv5 <- conv4
I0408 15:34:47.622712 27257 net.cpp:380] conv5 -> conv5
I0408 15:34:47.631213 27257 net.cpp:122] Setting up conv5
I0408 15:34:47.631232 27257 net.cpp:129] Top shape: 32 256 13 13 (1384448)
I0408 15:34:47.631235 27257 net.cpp:137] Memory required for data: 256225024
I0408 15:34:47.631248 27257 layer_factory.hpp:77] Creating layer relu5
I0408 15:34:47.631256 27257 net.cpp:84] Creating Layer relu5
I0408 15:34:47.631261 27257 net.cpp:406] relu5 <- conv5
I0408 15:34:47.631285 27257 net.cpp:367] relu5 -> conv5 (in-place)
I0408 15:34:47.631774 27257 net.cpp:122] Setting up relu5
I0408 15:34:47.631784 27257 net.cpp:129] Top shape: 32 256 13 13 (1384448)
I0408 15:34:47.631788 27257 net.cpp:137] Memory required for data: 261762816
I0408 15:34:47.631793 27257 layer_factory.hpp:77] Creating layer pool5
I0408 15:34:47.631803 27257 net.cpp:84] Creating Layer pool5
I0408 15:34:47.631808 27257 net.cpp:406] pool5 <- conv5
I0408 15:34:47.631812 27257 net.cpp:380] pool5 -> pool5
I0408 15:34:47.631850 27257 net.cpp:122] Setting up pool5
I0408 15:34:47.631856 27257 net.cpp:129] Top shape: 32 256 6 6 (294912)
I0408 15:34:47.631860 27257 net.cpp:137] Memory required for data: 262942464
I0408 15:34:47.631865 27257 layer_factory.hpp:77] Creating layer fc6
I0408 15:34:47.631872 27257 net.cpp:84] Creating Layer fc6
I0408 15:34:47.631876 27257 net.cpp:406] fc6 <- pool5
I0408 15:34:47.631882 27257 net.cpp:380] fc6 -> fc6
I0408 15:34:47.986665 27257 net.cpp:122] Setting up fc6
I0408 15:34:47.986685 27257 net.cpp:129] Top shape: 32 4096 (131072)
I0408 15:34:47.986690 27257 net.cpp:137] Memory required for data: 263466752
I0408 15:34:47.986697 27257 layer_factory.hpp:77] Creating layer relu6
I0408 15:34:47.986707 27257 net.cpp:84] Creating Layer relu6
I0408 15:34:47.986711 27257 net.cpp:406] relu6 <- fc6
I0408 15:34:47.986717 27257 net.cpp:367] relu6 -> fc6 (in-place)
I0408 15:34:47.987557 27257 net.cpp:122] Setting up relu6
I0408 15:34:47.987566 27257 net.cpp:129] Top shape: 32 4096 (131072)
I0408 15:34:47.987569 27257 net.cpp:137] Memory required for data: 263991040
I0408 15:34:47.987573 27257 layer_factory.hpp:77] Creating layer drop6
I0408 15:34:47.987581 27257 net.cpp:84] Creating Layer drop6
I0408 15:34:47.987584 27257 net.cpp:406] drop6 <- fc6
I0408 15:34:47.987591 27257 net.cpp:367] drop6 -> fc6 (in-place)
I0408 15:34:47.987617 27257 net.cpp:122] Setting up drop6
I0408 15:34:47.987622 27257 net.cpp:129] Top shape: 32 4096 (131072)
I0408 15:34:47.987627 27257 net.cpp:137] Memory required for data: 264515328
I0408 15:34:47.987629 27257 layer_factory.hpp:77] Creating layer fc7
I0408 15:34:47.987637 27257 net.cpp:84] Creating Layer fc7
I0408 15:34:47.987639 27257 net.cpp:406] fc7 <- fc6
I0408 15:34:47.987645 27257 net.cpp:380] fc7 -> fc7
I0408 15:34:48.144430 27257 net.cpp:122] Setting up fc7
I0408 15:34:48.144451 27257 net.cpp:129] Top shape: 32 4096 (131072)
I0408 15:34:48.144455 27257 net.cpp:137] Memory required for data: 265039616
I0408 15:34:48.144464 27257 layer_factory.hpp:77] Creating layer relu7
I0408 15:34:48.144474 27257 net.cpp:84] Creating Layer relu7
I0408 15:34:48.144477 27257 net.cpp:406] relu7 <- fc7
I0408 15:34:48.144486 27257 net.cpp:367] relu7 -> fc7 (in-place)
I0408 15:34:48.144901 27257 net.cpp:122] Setting up relu7
I0408 15:34:48.144910 27257 net.cpp:129] Top shape: 32 4096 (131072)
I0408 15:34:48.144914 27257 net.cpp:137] Memory required for data: 265563904
I0408 15:34:48.144918 27257 layer_factory.hpp:77] Creating layer drop7
I0408 15:34:48.144924 27257 net.cpp:84] Creating Layer drop7
I0408 15:34:48.144928 27257 net.cpp:406] drop7 <- fc7
I0408 15:34:48.144933 27257 net.cpp:367] drop7 -> fc7 (in-place)
I0408 15:34:48.144956 27257 net.cpp:122] Setting up drop7
I0408 15:34:48.144961 27257 net.cpp:129] Top shape: 32 4096 (131072)
I0408 15:34:48.144964 27257 net.cpp:137] Memory required for data: 266088192
I0408 15:34:48.144968 27257 layer_factory.hpp:77] Creating layer fc8
I0408 15:34:48.144976 27257 net.cpp:84] Creating Layer fc8
I0408 15:34:48.144980 27257 net.cpp:406] fc8 <- fc7
I0408 15:34:48.144985 27257 net.cpp:380] fc8 -> fc8
I0408 15:34:48.152676 27257 net.cpp:122] Setting up fc8
I0408 15:34:48.152688 27257 net.cpp:129] Top shape: 32 196 (6272)
I0408 15:34:48.152691 27257 net.cpp:137] Memory required for data: 266113280
I0408 15:34:48.152698 27257 layer_factory.hpp:77] Creating layer fc8_fc8_0_split
I0408 15:34:48.152704 27257 net.cpp:84] Creating Layer fc8_fc8_0_split
I0408 15:34:48.152709 27257 net.cpp:406] fc8_fc8_0_split <- fc8
I0408 15:34:48.152735 27257 net.cpp:380] fc8_fc8_0_split -> fc8_fc8_0_split_0
I0408 15:34:48.152745 27257 net.cpp:380] fc8_fc8_0_split -> fc8_fc8_0_split_1
I0408 15:34:48.152776 27257 net.cpp:122] Setting up fc8_fc8_0_split
I0408 15:34:48.152781 27257 net.cpp:129] Top shape: 32 196 (6272)
I0408 15:34:48.152786 27257 net.cpp:129] Top shape: 32 196 (6272)
I0408 15:34:48.152788 27257 net.cpp:137] Memory required for data: 266163456
I0408 15:34:48.152792 27257 layer_factory.hpp:77] Creating layer accuracy
I0408 15:34:48.152799 27257 net.cpp:84] Creating Layer accuracy
I0408 15:34:48.152802 27257 net.cpp:406] accuracy <- fc8_fc8_0_split_0
I0408 15:34:48.152807 27257 net.cpp:406] accuracy <- label_val-data_1_split_0
I0408 15:34:48.152812 27257 net.cpp:380] accuracy -> accuracy
…
