…
I0408 19:15:21.060220 24089 net.cpp:294] The NetState phase (0) differed from the phase (1) specified by a rule in layer accuracy
I0408 19:15:21.060360 24089 net.cpp:51] Initializing net from parameters:
state {
phase: TRAIN
level: 0
stage: ""
}
layer {
name: "train-data"
type: "Data"
top: "data"
top: "label"
include {
phase: TRAIN
}
transform_param {
mirror: true
crop_size: 227
mean_file: "/mnt/bigdisk/DIGITS-MAN-2/digits/jobs/20210407-214532-d396/mean.binaryproto"
}
data_param {
source: "/mnt/bigdisk/DIGITS-MAN-2/digits/jobs/20210407-214532-d396/train_db"
batch_size: 128
backend: LMDB
}
}
layer {
name: "conv1"
type: "Convolution"
bottom: "data"
top: "conv1"
param {
lr_mult: 1
decay_mult: 1
}
param {
lr_mult: 2
decay_mult: 0
}
convolution_param {
num_output: 96
kernel_size: 11
stride: 4
weight_filler {
type: "gaussian"
std: 0.01
}
bias_filler {
type: "constant"
value: 0
}
}
}
layer {
name: "relu1"
type: "ReLU"
bottom: "conv1"
top: "conv1"
}
layer {
name: "norm1"
type: "LRN"
bottom: "conv1"
top: "norm1"
lrn_param {
local_size: 5
alpha: 0.0001
beta: 0.75
}
}
layer {
name: "pool1"
type: "Pooling"
bottom: "norm1"
top: "pool1"
pooling_param {
pool: MAX
kernel_size: 3
stride: 2
}
}
layer {
name: "conv2"
type: "Convolution"
bottom: "pool1"
top: "conv2"
param {
lr_mult: 1
decay_mult: 1
}
param {
lr_mult: 2
decay_mult: 0
}
convolution_param {
num_output: 256
pad: 2
kernel_size: 5
group: 2
weight_filler {
type: "gaussian"
std: 0.01
}
bias_filler {
type: "constant"
value: 0.1
}
}
}
layer {
name: "relu2"
type: "ReLU"
bottom: "conv2"
top: "conv2"
}
layer {
name: "norm2"
type: "LRN"
bottom: "conv2"
top: "norm2"
lrn_param {
local_size: 5
alpha: 0.0001
beta: 0.75
}
}
layer {
name: "pool2"
type: "Pooling"
bottom: "norm2"
top: "pool2"
pooling_param {
pool: MAX
kernel_size: 3
stride: 2
}
}
layer {
name: "conv3"
type: "Convolution"
bottom: "pool2"
top: "conv3"
param {
lr_mult: 1
decay_mult: 1
}
param {
lr_mult: 2
decay_mult: 0
}
convolution_param {
num_output: 384
pad: 1
kernel_size: 3
weight_filler {
type: "gaussian"
std: 0.01
}
bias_filler {
type: "constant"
value: 0
}
}
}
layer {
name: "relu3"
type: "ReLU"
bottom: "conv3"
top: "conv3"
}
layer {
name: "conv4"
type: "Convolution"
bottom: "conv3"
top: "conv4"
param {
lr_mult: 1
decay_mult: 1
}
param {
lr_mult: 2
decay_mult: 0
}
convolution_param {
num_output: 384
pad: 1
kernel_size: 3
group: 2
weight_filler {
type: "gaussian"
std: 0.01
}
bias_filler {
type: "constant"
value: 0.1
}
}
}
layer {
name: "relu4"
type: "ReLU"
bottom: "conv4"
top: "conv4"
}
layer {
name: "conv5"
type: "Convolution"
bottom: "conv4"
top: "conv5"
param {
lr_mult: 1
decay_mult: 1
}
param {
lr_mult: 2
decay_mult: 0
}
convolution_param {
num_output: 256
pad: 1
kernel_size: 3
group: 2
weight_filler {
type: "gaussian"
std: 0.01
}
bias_filler {
type: "constant"
value: 0.1
}
}
}
layer {
name: "relu5"
type: "ReLU"
bottom: "conv5"
top: "conv5"
}
layer {
name: "pool5"
type: "Pooling"
bottom: "conv5"
top: "pool5"
pooling_param {
pool: MAX
kernel_size: 3
stride: 2
}
}
layer {
name: "fc6"
type: "InnerProduct"
bottom: "pool5"
top: "fc6"
param {
lr_mult: 1
decay_mult: 1
}
param {
lr_mult: 2
decay_mult: 0
}
inner_product_param {
num_output: 4096
weight_filler {
type: "gaussian"
std: 0.005
}
bias_filler {
type: "constant"
value: 0.1
}
}
}
layer {
name: "relu6"
type: "ReLU"
bottom: "fc6"
top: "fc6"
}
layer {
name: "drop6"
type: "Dropout"
bottom: "fc6"
top: "fc6"
dropout_param {
dropout_ratio: 0.5
}
}
layer {
name: "fc7"
type: "InnerProduct"
bottom: "fc6"
top: "fc7"
param {
lr_mult: 1
decay_mult: 1
}
param {
lr_mult: 2
decay_mult: 0
}
inner_product_param {
num_output: 4096
weight_filler {
type: "gaussian"
std: 0.005
}
bias_filler {
type: "constant"
value: 0.1
}
}
}
layer {
name: "relu7"
type: "ReLU"
bottom: "fc7"
top: "fc7"
}
layer {
name: "drop7"
type: "Dropout"
bottom: "fc7"
top: "fc7"
dropout_param {
dropout_ratio: 0.5
}
}
layer {
name: "fc8"
type: "InnerProduct"
bottom: "fc7"
top: "fc8"
param {
lr_mult: 1
decay_mult: 1
}
param {
lr_mult: 2
decay_mult: 0
}
inner_product_param {
num_output: 196
weight_filler {
type: "gaussian"
std: 0.01
}
bias_filler {
type: "constant"
value: 0
}
}
}
layer {
name: "loss"
type: "SoftmaxWithLoss"
bottom: "fc8"
bottom: "label"
top: "loss"
}
I0408 19:15:21.060451 24089 layer_factory.hpp:77] Creating layer train-data
I0408 19:15:21.070441 24089 db_lmdb.cpp:35] Opened lmdb /mnt/bigdisk/DIGITS-MAN-2/digits/jobs/20210407-214532-d396/train_db
I0408 19:15:21.070734 24089 net.cpp:84] Creating Layer train-data
I0408 19:15:21.070744 24089 net.cpp:380] train-data -> data
I0408 19:15:21.070765 24089 net.cpp:380] train-data -> label
I0408 19:15:21.070775 24089 data_transformer.cpp:25] Loading mean file from: /mnt/bigdisk/DIGITS-MAN-2/digits/jobs/20210407-214532-d396/mean.binaryproto
I0408 19:15:21.075762 24089 data_layer.cpp:45] output data size: 128,3,227,227
I0408 19:15:21.201184 24089 net.cpp:122] Setting up train-data
I0408 19:15:21.201207 24089 net.cpp:129] Top shape: 128 3 227 227 (19787136)
I0408 19:15:21.201213 24089 net.cpp:129] Top shape: 128 (128)
I0408 19:15:21.201216 24089 net.cpp:137] Memory required for data: 79149056
I0408 19:15:21.201226 24089 layer_factory.hpp:77] Creating layer conv1
I0408 19:15:21.201248 24089 net.cpp:84] Creating Layer conv1
I0408 19:15:21.201253 24089 net.cpp:406] conv1 <- data
I0408 19:15:21.201267 24089 net.cpp:380] conv1 -> conv1
I0408 19:15:21.809502 24089 net.cpp:122] Setting up conv1
I0408 19:15:21.809525 24089 net.cpp:129] Top shape: 128 96 55 55 (37171200)
I0408 19:15:21.809528 24089 net.cpp:137] Memory required for data: 227833856
I0408 19:15:21.809547 24089 layer_factory.hpp:77] Creating layer relu1
I0408 19:15:21.809556 24089 net.cpp:84] Creating Layer relu1
I0408 19:15:21.809561 24089 net.cpp:406] relu1 <- conv1
I0408 19:15:21.809566 24089 net.cpp:367] relu1 -> conv1 (in-place)
I0408 19:15:21.809851 24089 net.cpp:122] Setting up relu1
I0408 19:15:21.809859 24089 net.cpp:129] Top shape: 128 96 55 55 (37171200)
I0408 19:15:21.809862 24089 net.cpp:137] Memory required for data: 376518656
I0408 19:15:21.809866 24089 layer_factory.hpp:77] Creating layer norm1
I0408 19:15:21.809875 24089 net.cpp:84] Creating Layer norm1
I0408 19:15:21.809880 24089 net.cpp:406] norm1 <- conv1
I0408 19:15:21.809904 24089 net.cpp:380] norm1 -> norm1
I0408 19:15:21.810354 24089 net.cpp:122] Setting up norm1
I0408 19:15:21.810365 24089 net.cpp:129] Top shape: 128 96 55 55 (37171200)
I0408 19:15:21.810369 24089 net.cpp:137] Memory required for data: 525203456
I0408 19:15:21.810372 24089 layer_factory.hpp:77] Creating layer pool1
I0408 19:15:21.810380 24089 net.cpp:84] Creating Layer pool1
I0408 19:15:21.810384 24089 net.cpp:406] pool1 <- norm1
I0408 19:15:21.810389 24089 net.cpp:380] pool1 -> pool1
I0408 19:15:21.810425 24089 net.cpp:122] Setting up pool1
I0408 19:15:21.810431 24089 net.cpp:129] Top shape: 128 96 27 27 (8957952)
I0408 19:15:21.810434 24089 net.cpp:137] Memory required for data: 561035264
I0408 19:15:21.810437 24089 layer_factory.hpp:77] Creating layer conv2
I0408 19:15:21.810447 24089 net.cpp:84] Creating Layer conv2
I0408 19:15:21.810451 24089 net.cpp:406] conv2 <- pool1
I0408 19:15:21.810456 24089 net.cpp:380] conv2 -> conv2
I0408 19:15:21.817020 24089 net.cpp:122] Setting up conv2
I0408 19:15:21.817036 24089 net.cpp:129] Top shape: 128 256 27 27 (23887872)
I0408 19:15:21.817039 24089 net.cpp:137] Memory required for data: 656586752
I0408 19:15:21.817049 24089 layer_factory.hpp:77] Creating layer relu2
I0408 19:15:21.817057 24089 net.cpp:84] Creating Layer relu2
I0408 19:15:21.817060 24089 net.cpp:406] relu2 <- conv2
I0408 19:15:21.817066 24089 net.cpp:367] relu2 -> conv2 (in-place)
I0408 19:15:21.817484 24089 net.cpp:122] Setting up relu2
I0408 19:15:21.817493 24089 net.cpp:129] Top shape: 128 256 27 27 (23887872)
I0408 19:15:21.817497 24089 net.cpp:137] Memory required for data: 752138240
I0408 19:15:21.817500 24089 layer_factory.hpp:77] Creating layer norm2
I0408 19:15:21.817508 24089 net.cpp:84] Creating Layer norm2
I0408 19:15:21.817512 24089 net.cpp:406] norm2 <- conv2
I0408 19:15:21.817517 24089 net.cpp:380] norm2 -> norm2
I0408 19:15:21.817806 24089 net.cpp:122] Setting up norm2
I0408 19:15:21.817813 24089 net.cpp:129] Top shape: 128 256 27 27 (23887872)
I0408 19:15:21.817817 24089 net.cpp:137] Memory required for data: 847689728
I0408 19:15:21.817821 24089 layer_factory.hpp:77] Creating layer pool2
I0408 19:15:21.817827 24089 net.cpp:84] Creating Layer pool2
I0408 19:15:21.817831 24089 net.cpp:406] pool2 <- norm2
I0408 19:15:21.817836 24089 net.cpp:380] pool2 -> pool2
I0408 19:15:21.817862 24089 net.cpp:122] Setting up pool2
I0408 19:15:21.817867 24089 net.cpp:129] Top shape: 128 256 13 13 (5537792)
I0408 19:15:21.817870 24089 net.cpp:137] Memory required for data: 869840896
I0408 19:15:21.817873 24089 layer_factory.hpp:77] Creating layer conv3
I0408 19:15:21.817883 24089 net.cpp:84] Creating Layer conv3
I0408 19:15:21.817885 24089 net.cpp:406] conv3 <- pool2
I0408 19:15:21.817890 24089 net.cpp:380] conv3 -> conv3
I0408 19:15:21.830991 24089 net.cpp:122] Setting up conv3
I0408 19:15:21.831007 24089 net.cpp:129] Top shape: 128 384 13 13 (8306688)
I0408 19:15:21.831012 24089 net.cpp:137] Memory required for data: 903067648
I0408 19:15:21.831022 24089 layer_factory.hpp:77] Creating layer relu3
I0408 19:15:21.831030 24089 net.cpp:84] Creating Layer relu3
I0408 19:15:21.831034 24089 net.cpp:406] relu3 <- conv3
I0408 19:15:21.831039 24089 net.cpp:367] relu3 -> conv3 (in-place)
I0408 19:15:21.831459 24089 net.cpp:122] Setting up relu3
I0408 19:15:21.831470 24089 net.cpp:129] Top shape: 128 384 13 13 (8306688)
I0408 19:15:21.831473 24089 net.cpp:137] Memory required for data: 936294400
I0408 19:15:21.831477 24089 layer_factory.hpp:77] Creating layer conv4
I0408 19:15:21.831487 24089 net.cpp:84] Creating Layer conv4
I0408 19:15:21.831491 24089 net.cpp:406] conv4 <- conv3
I0408 19:15:21.831498 24089 net.cpp:380] conv4 -> conv4
I0408 19:15:21.841739 24089 net.cpp:122] Setting up conv4
I0408 19:15:21.841753 24089 net.cpp:129] Top shape: 128 384 13 13 (8306688)
I0408 19:15:21.841758 24089 net.cpp:137] Memory required for data: 969521152
I0408 19:15:21.841765 24089 layer_factory.hpp:77] Creating layer relu4
I0408 19:15:21.841773 24089 net.cpp:84] Creating Layer relu4
I0408 19:15:21.841792 24089 net.cpp:406] relu4 <- conv4
I0408 19:15:21.841800 24089 net.cpp:367] relu4 -> conv4 (in-place)
I0408 19:15:21.842154 24089 net.cpp:122] Setting up relu4
I0408 19:15:21.842161 24089 net.cpp:129] Top shape: 128 384 13 13 (8306688)
I0408 19:15:21.842165 24089 net.cpp:137] Memory required for data: 1002747904
I0408 19:15:21.842168 24089 layer_factory.hpp:77] Creating layer conv5
I0408 19:15:21.842180 24089 net.cpp:84] Creating Layer conv5
I0408 19:15:21.842183 24089 net.cpp:406] conv5 <- conv4
I0408 19:15:21.842190 24089 net.cpp:380] conv5 -> conv5
I0408 19:15:21.850508 24089 net.cpp:122] Setting up conv5
I0408 19:15:21.850523 24089 net.cpp:129] Top shape: 128 256 13 13 (5537792)
I0408 19:15:21.850528 24089 net.cpp:137] Memory required for data: 1024899072
I0408 19:15:21.850538 24089 layer_factory.hpp:77] Creating layer relu5
I0408 19:15:21.850544 24089 net.cpp:84] Creating Layer relu5
I0408 19:15:21.850549 24089 net.cpp:406] relu5 <- conv5
I0408 19:15:21.850556 24089 net.cpp:367] relu5 -> conv5 (in-place)
I0408 19:15:21.851037 24089 net.cpp:122] Setting up relu5
I0408 19:15:21.851047 24089 net.cpp:129] Top shape: 128 256 13 13 (5537792)
I0408 19:15:21.851049 24089 net.cpp:137] Memory required for data: 1047050240
I0408 19:15:21.851053 24089 layer_factory.hpp:77] Creating layer pool5
I0408 19:15:21.851060 24089 net.cpp:84] Creating Layer pool5
I0408 19:15:21.851064 24089 net.cpp:406] pool5 <- conv5
I0408 19:15:21.851069 24089 net.cpp:380] pool5 -> pool5
I0408 19:15:21.851106 24089 net.cpp:122] Setting up pool5
I0408 19:15:21.851112 24089 net.cpp:129] Top shape: 128 256 6 6 (1179648)
I0408 19:15:21.851115 24089 net.cpp:137] Memory required for data: 1051768832
I0408 19:15:21.851119 24089 layer_factory.hpp:77] Creating layer fc6
I0408 19:15:21.851127 24089 net.cpp:84] Creating Layer fc6
I0408 19:15:21.851131 24089 net.cpp:406] fc6 <- pool5
I0408 19:15:21.851137 24089 net.cpp:380] fc6 -> fc6
I0408 19:15:22.205451 24089 net.cpp:122] Setting up fc6
I0408 19:15:22.205472 24089 net.cpp:129] Top shape: 128 4096 (524288)
I0408 19:15:22.205476 24089 net.cpp:137] Memory required for data: 1053865984
I0408 19:15:22.205485 24089 layer_factory.hpp:77] Creating layer relu6
I0408 19:15:22.205493 24089 net.cpp:84] Creating Layer relu6
I0408 19:15:22.205498 24089 net.cpp:406] relu6 <- fc6
I0408 19:15:22.205504 24089 net.cpp:367] relu6 -> fc6 (in-place)
I0408 19:15:22.206142 24089 net.cpp:122] Setting up relu6
I0408 19:15:22.206151 24089 net.cpp:129] Top shape: 128 4096 (524288)
I0408 19:15:22.206156 24089 net.cpp:137] Memory required for data: 1055963136
I0408 19:15:22.206158 24089 layer_factory.hpp:77] Creating layer drop6
I0408 19:15:22.206166 24089 net.cpp:84] Creating Layer drop6
I0408 19:15:22.206171 24089 net.cpp:406] drop6 <- fc6
I0408 19:15:22.206174 24089 net.cpp:367] drop6 -> fc6 (in-place)
I0408 19:15:22.206202 24089 net.cpp:122] Setting up drop6
I0408 19:15:22.206207 24089 net.cpp:129] Top shape: 128 4096 (524288)
I0408 19:15:22.206210 24089 net.cpp:137] Memory required for data: 1058060288
I0408 19:15:22.206214 24089 layer_factory.hpp:77] Creating layer fc7
I0408 19:15:22.206220 24089 net.cpp:84] Creating Layer fc7
I0408 19:15:22.206224 24089 net.cpp:406] fc7 <- fc6
I0408 19:15:22.206229 24089 net.cpp:380] fc7 -> fc7
I0408 19:15:22.364225 24089 net.cpp:122] Setting up fc7
I0408 19:15:22.364245 24089 net.cpp:129] Top shape: 128 4096 (524288)
I0408 19:15:22.364248 24089 net.cpp:137] Memory required for data: 1060157440
I0408 19:15:22.364259 24089 layer_factory.hpp:77] Creating layer relu7
I0408 19:15:22.364269 24089 net.cpp:84] Creating Layer relu7
I0408 19:15:22.364272 24089 net.cpp:406] relu7 <- fc7
I0408 19:15:22.364279 24089 net.cpp:367] relu7 -> fc7 (in-place)
I0408 19:15:22.364893 24089 net.cpp:122] Setting up relu7
I0408 19:15:22.364902 24089 net.cpp:129] Top shape: 128 4096 (524288)
I0408 19:15:22.364907 24089 net.cpp:137] Memory required for data: 1062254592
I0408 19:15:22.364909 24089 layer_factory.hpp:77] Creating layer drop7
I0408 19:15:22.364917 24089 net.cpp:84] Creating Layer drop7
I0408 19:15:22.364938 24089 net.cpp:406] drop7 <- fc7
I0408 19:15:22.364943 24089 net.cpp:367] drop7 -> fc7 (in-place)
I0408 19:15:22.364967 24089 net.cpp:122] Setting up drop7
I0408 19:15:22.364972 24089 net.cpp:129] Top shape: 128 4096 (524288)
I0408 19:15:22.364975 24089 net.cpp:137] Memory required for data: 1064351744
I0408 19:15:22.364979 24089 layer_factory.hpp:77] Creating layer fc8
I0408 19:15:22.364986 24089 net.cpp:84] Creating Layer fc8
I0408 19:15:22.364989 24089 net.cpp:406] fc8 <- fc7
I0408 19:15:22.364995 24089 net.cpp:380] fc8 -> fc8
I0408 19:15:22.372648 24089 net.cpp:122] Setting up fc8
I0408 19:15:22.372659 24089 net.cpp:129] Top shape: 128 196 (25088)
I0408 19:15:22.372663 24089 net.cpp:137] Memory required for data: 1064452096
I0408 19:15:22.372668 24089 layer_factory.hpp:77] Creating layer loss
I0408 19:15:22.372676 24089 net.cpp:84] Creating Layer loss
I0408 19:15:22.372680 24089 net.cpp:406] loss <- fc8
I0408 19:15:22.372684 24089 net.cpp:406] loss <- label
I0408 19:15:22.372691 24089 net.cpp:380] loss -> loss
I0408 19:15:22.372699 24089 layer_factory.hpp:77] Creating layer loss
…
I0408 19:15:22.374019 24089 net.cpp:294] The NetState phase (1) differed from the phase (0) specified by a rule in layer train-data
I0408 19:15:22.374163 24089 net.cpp:51] Initializing net from parameters:
state {
phase: TEST
}
layer {
name: "val-data"
type: "Data"
top: "data"
top: "label"
include {
phase: TEST
}
transform_param {
crop_size: 227
mean_file: "/mnt/bigdisk/DIGITS-MAN-2/digits/jobs/20210407-214532-d396/mean.binaryproto"
}
data_param {
source: "/mnt/bigdisk/DIGITS-MAN-2/digits/jobs/20210407-214532-d396/val_db"
batch_size: 32
backend: LMDB
}
}
layer {
name: "conv1"
type: "Convolution"
bottom: "data"
top: "conv1"
param {
lr_mult: 1
decay_mult: 1
}
param {
lr_mult: 2
decay_mult: 0
}
convolution_param {
num_output: 96
kernel_size: 11
stride: 4
weight_filler {
type: "gaussian"
std: 0.01
}
bias_filler {
type: "constant"
value: 0
}
}
}
layer {
name: "relu1"
type: "ReLU"
bottom: "conv1"
top: "conv1"
}
layer {
name: "norm1"
type: "LRN"
bottom: "conv1"
top: "norm1"
lrn_param {
local_size: 5
alpha: 0.0001
beta: 0.75
}
}
layer {
name: "pool1"
type: "Pooling"
bottom: "norm1"
top: "pool1"
pooling_param {
pool: MAX
kernel_size: 3
stride: 2
}
}
layer {
name: "conv2"
type: "Convolution"
bottom: "pool1"
top: "conv2"
param {
lr_mult: 1
decay_mult: 1
}
param {
lr_mult: 2
decay_mult: 0
}
convolution_param {
num_output: 256
pad: 2
kernel_size: 5
group: 2
weight_filler {
type: "gaussian"
std: 0.01
}
bias_filler {
type: "constant"
value: 0.1
}
}
}
layer {
name: "relu2"
type: "ReLU"
bottom: "conv2"
top: "conv2"
}
layer {
name: "norm2"
type: "LRN"
bottom: "conv2"
top: "norm2"
lrn_param {
local_size: 5
alpha: 0.0001
beta: 0.75
}
}
layer {
name: "pool2"
type: "Pooling"
bottom: "norm2"
top: "pool2"
pooling_param {
pool: MAX
kernel_size: 3
stride: 2
}
}
layer {
name: "conv3"
type: "Convolution"
bottom: "pool2"
top: "conv3"
param {
lr_mult: 1
decay_mult: 1
}
param {
lr_mult: 2
decay_mult: 0
}
convolution_param {
num_output: 384
pad: 1
kernel_size: 3
weight_filler {
type: "gaussian"
std: 0.01
}
bias_filler {
type: "constant"
value: 0
}
}
}
layer {
name: "relu3"
type: "ReLU"
bottom: "conv3"
top: "conv3"
}
layer {
name: "conv4"
type: "Convolution"
bottom: "conv3"
top: "conv4"
param {
lr_mult: 1
decay_mult: 1
}
param {
lr_mult: 2
decay_mult: 0
}
convolution_param {
num_output: 384
pad: 1
kernel_size: 3
group: 2
weight_filler {
type: "gaussian"
std: 0.01
}
bias_filler {
type: "constant"
value: 0.1
}
}
}
layer {
name: "relu4"
type: "ReLU"
bottom: "conv4"
top: "conv4"
}
layer {
name: "conv5"
type: "Convolution"
bottom: "conv4"
top: "conv5"
param {
lr_mult: 1
decay_mult: 1
}
param {
lr_mult: 2
decay_mult: 0
}
convolution_param {
num_output: 256
pad: 1
kernel_size: 3
group: 2
weight_filler {
type: "gaussian"
std: 0.01
}
bias_filler {
type: "constant"
value: 0.1
}
}
}
layer {
name: "relu5"
type: "ReLU"
bottom: "conv5"
top: "conv5"
}
layer {
name: "pool5"
type: "Pooling"
bottom: "conv5"
top: "pool5"
pooling_param {
pool: MAX
kernel_size: 3
stride: 2
}
}
layer {
name: "fc6"
type: "InnerProduct"
bottom: "pool5"
top: "fc6"
param {
lr_mult: 1
decay_mult: 1
}
param {
lr_mult: 2
decay_mult: 0
}
inner_product_param {
num_output: 4096
weight_filler {
type: "gaussian"
std: 0.005
}
bias_filler {
type: "constant"
value: 0.1
}
}
}
layer {
name: "relu6"
type: "ReLU"
bottom: "fc6"
top: "fc6"
}
layer {
name: "drop6"
type: "Dropout"
bottom: "fc6"
top: "fc6"
dropout_param {
dropout_ratio: 0.5
}
}
layer {
name: "fc7"
type: "InnerProduct"
bottom: "fc6"
top: "fc7"
param {
lr_mult: 1
decay_mult: 1
}
param {
lr_mult: 2
decay_mult: 0
}
inner_product_param {
num_output: 4096
weight_filler {
type: "gaussian"
std: 0.005
}
bias_filler {
type: "constant"
value: 0.1
}
}
}
layer {
name: "relu7"
type: "ReLU"
bottom: "fc7"
top: "fc7"
}
layer {
name: "drop7"
type: "Dropout"
bottom: "fc7"
top: "fc7"
dropout_param {
dropout_ratio: 0.5
}
}
layer {
name: "fc8"
type: "InnerProduct"
bottom: "fc7"
top: "fc8"
param {
lr_mult: 1
decay_mult: 1
}
param {
lr_mult: 2
decay_mult: 0
}
inner_product_param {
num_output: 196
weight_filler {
type: "gaussian"
std: 0.01
}
bias_filler {
type: "constant"
value: 0
}
}
}
layer {
name: "accuracy"
type: "Accuracy"
bottom: "fc8"
bottom: "label"
top: "accuracy"
include {
phase: TEST
}
}
layer {
name: "loss"
type: "SoftmaxWithLoss"
bottom: "fc8"
bottom: "label"
top: "loss"
}
I0408 19:15:22.374260 24089 layer_factory.hpp:77] Creating layer val-data
I0408 19:15:22.386791 24089 db_lmdb.cpp:35] Opened lmdb /mnt/bigdisk/DIGITS-MAN-2/digits/jobs/20210407-214532-d396/val_db
I0408 19:15:22.386950 24089 net.cpp:84] Creating Layer val-data
I0408 19:15:22.386960 24089 net.cpp:380] val-data -> data
I0408 19:15:22.386968 24089 net.cpp:380] val-data -> label
I0408 19:15:22.386976 24089 data_transformer.cpp:25] Loading mean file from: /mnt/bigdisk/DIGITS-MAN-2/digits/jobs/20210407-214532-d396/mean.binaryproto
I0408 19:15:22.390853 24089 data_layer.cpp:45] output data size: 32,3,227,227
I0408 19:15:22.426885 24089 net.cpp:122] Setting up val-data
I0408 19:15:22.426904 24089 net.cpp:129] Top shape: 32 3 227 227 (4946784)
I0408 19:15:22.426910 24089 net.cpp:129] Top shape: 32 (32)
I0408 19:15:22.426913 24089 net.cpp:137] Memory required for data: 19787264
I0408 19:15:22.426919 24089 layer_factory.hpp:77] Creating layer label_val-data_1_split
I0408 19:15:22.426931 24089 net.cpp:84] Creating Layer label_val-data_1_split
I0408 19:15:22.426935 24089 net.cpp:406] label_val-data_1_split <- label
I0408 19:15:22.426942 24089 net.cpp:380] label_val-data_1_split -> label_val-data_1_split_0
I0408 19:15:22.426950 24089 net.cpp:380] label_val-data_1_split -> label_val-data_1_split_1
I0408 19:15:22.427016 24089 net.cpp:122] Setting up label_val-data_1_split
I0408 19:15:22.427021 24089 net.cpp:129] Top shape: 32 (32)
I0408 19:15:22.427026 24089 net.cpp:129] Top shape: 32 (32)
I0408 19:15:22.427028 24089 net.cpp:137] Memory required for data: 19787520
I0408 19:15:22.427031 24089 layer_factory.hpp:77] Creating layer conv1
I0408 19:15:22.427043 24089 net.cpp:84] Creating Layer conv1
I0408 19:15:22.427047 24089 net.cpp:406] conv1 <- data
I0408 19:15:22.427052 24089 net.cpp:380] conv1 -> conv1
I0408 19:15:22.428925 24089 net.cpp:122] Setting up conv1
I0408 19:15:22.428936 24089 net.cpp:129] Top shape: 32 96 55 55 (9292800)
I0408 19:15:22.428939 24089 net.cpp:137] Memory required for data: 56958720
I0408 19:15:22.428949 24089 layer_factory.hpp:77] Creating layer relu1
I0408 19:15:22.428956 24089 net.cpp:84] Creating Layer relu1
I0408 19:15:22.428959 24089 net.cpp:406] relu1 <- conv1
I0408 19:15:22.428964 24089 net.cpp:367] relu1 -> conv1 (in-place)
I0408 19:15:22.429247 24089 net.cpp:122] Setting up relu1
I0408 19:15:22.429255 24089 net.cpp:129] Top shape: 32 96 55 55 (9292800)
I0408 19:15:22.429258 24089 net.cpp:137] Memory required for data: 94129920
I0408 19:15:22.429262 24089 layer_factory.hpp:77] Creating layer norm1
I0408 19:15:22.429270 24089 net.cpp:84] Creating Layer norm1
I0408 19:15:22.429273 24089 net.cpp:406] norm1 <- conv1
I0408 19:15:22.429278 24089 net.cpp:380] norm1 -> norm1
I0408 19:15:22.429728 24089 net.cpp:122] Setting up norm1
I0408 19:15:22.429738 24089 net.cpp:129] Top shape: 32 96 55 55 (9292800)
I0408 19:15:22.429740 24089 net.cpp:137] Memory required for data: 131301120
I0408 19:15:22.429744 24089 layer_factory.hpp:77] Creating layer pool1
I0408 19:15:22.429750 24089 net.cpp:84] Creating Layer pool1
I0408 19:15:22.429754 24089 net.cpp:406] pool1 <- norm1
I0408 19:15:22.429759 24089 net.cpp:380] pool1 -> pool1
I0408 19:15:22.429786 24089 net.cpp:122] Setting up pool1
I0408 19:15:22.429791 24089 net.cpp:129] Top shape: 32 96 27 27 (2239488)
I0408 19:15:22.429795 24089 net.cpp:137] Memory required for data: 140259072
I0408 19:15:22.429798 24089 layer_factory.hpp:77] Creating layer conv2
I0408 19:15:22.429806 24089 net.cpp:84] Creating Layer conv2
I0408 19:15:22.429809 24089 net.cpp:406] conv2 <- pool1
I0408 19:15:22.429834 24089 net.cpp:380] conv2 -> conv2
I0408 19:15:22.436936 24089 net.cpp:122] Setting up conv2
I0408 19:15:22.436952 24089 net.cpp:129] Top shape: 32 256 27 27 (5971968)
I0408 19:15:22.436956 24089 net.cpp:137] Memory required for data: 164146944
I0408 19:15:22.436965 24089 layer_factory.hpp:77] Creating layer relu2
I0408 19:15:22.436972 24089 net.cpp:84] Creating Layer relu2
I0408 19:15:22.436977 24089 net.cpp:406] relu2 <- conv2
I0408 19:15:22.436982 24089 net.cpp:367] relu2 -> conv2 (in-place)
I0408 19:15:22.437507 24089 net.cpp:122] Setting up relu2
I0408 19:15:22.437518 24089 net.cpp:129] Top shape: 32 256 27 27 (5971968)
I0408 19:15:22.437521 24089 net.cpp:137] Memory required for data: 188034816
I0408 19:15:22.437525 24089 layer_factory.hpp:77] Creating layer norm2
I0408 19:15:22.437534 24089 net.cpp:84] Creating Layer norm2
I0408 19:15:22.437537 24089 net.cpp:406] norm2 <- conv2
I0408 19:15:22.437544 24089 net.cpp:380] norm2 -> norm2
I0408 19:15:22.438077 24089 net.cpp:122] Setting up norm2
I0408 19:15:22.438088 24089 net.cpp:129] Top shape: 32 256 27 27 (5971968)
I0408 19:15:22.438091 24089 net.cpp:137] Memory required for data: 211922688
I0408 19:15:22.438097 24089 layer_factory.hpp:77] Creating layer pool2
I0408 19:15:22.438104 24089 net.cpp:84] Creating Layer pool2
I0408 19:15:22.438108 24089 net.cpp:406] pool2 <- norm2
I0408 19:15:22.438113 24089 net.cpp:380] pool2 -> pool2
I0408 19:15:22.438144 24089 net.cpp:122] Setting up pool2
I0408 19:15:22.438149 24089 net.cpp:129] Top shape: 32 256 13 13 (1384448)
I0408 19:15:22.438153 24089 net.cpp:137] Memory required for data: 217460480
I0408 19:15:22.438155 24089 layer_factory.hpp:77] Creating layer conv3
I0408 19:15:22.438164 24089 net.cpp:84] Creating Layer conv3
I0408 19:15:22.438169 24089 net.cpp:406] conv3 <- pool2
I0408 19:15:22.438174 24089 net.cpp:380] conv3 -> conv3
I0408 19:15:22.449136 24089 net.cpp:122] Setting up conv3
I0408 19:15:22.449154 24089 net.cpp:129] Top shape: 32 384 13 13 (2076672)
I0408 19:15:22.449158 24089 net.cpp:137] Memory required for data: 225767168
I0408 19:15:22.449169 24089 layer_factory.hpp:77] Creating layer relu3
I0408 19:15:22.449178 24089 net.cpp:84] Creating Layer relu3
I0408 19:15:22.449182 24089 net.cpp:406] relu3 <- conv3
I0408 19:15:22.449190 24089 net.cpp:367] relu3 -> conv3 (in-place)
I0408 19:15:22.449693 24089 net.cpp:122] Setting up relu3
I0408 19:15:22.449702 24089 net.cpp:129] Top shape: 32 384 13 13 (2076672)
I0408 19:15:22.449707 24089 net.cpp:137] Memory required for data: 234073856
I0408 19:15:22.449710 24089 layer_factory.hpp:77] Creating layer conv4
I0408 19:15:22.449723 24089 net.cpp:84] Creating Layer conv4
I0408 19:15:22.449726 24089 net.cpp:406] conv4 <- conv3
I0408 19:15:22.449733 24089 net.cpp:380] conv4 -> conv4
I0408 19:15:22.461220 24089 net.cpp:122] Setting up conv4
I0408 19:15:22.461236 24089 net.cpp:129] Top shape: 32 384 13 13 (2076672)
I0408 19:15:22.461239 24089 net.cpp:137] Memory required for data: 242380544
I0408 19:15:22.461247 24089 layer_factory.hpp:77] Creating layer relu4
I0408 19:15:22.461256 24089 net.cpp:84] Creating Layer relu4
I0408 19:15:22.461261 24089 net.cpp:406] relu4 <- conv4
I0408 19:15:22.461266 24089 net.cpp:367] relu4 -> conv4 (in-place)
I0408 19:15:22.461611 24089 net.cpp:122] Setting up relu4
I0408 19:15:22.461618 24089 net.cpp:129] Top shape: 32 384 13 13 (2076672)
I0408 19:15:22.461621 24089 net.cpp:137] Memory required for data: 250687232
I0408 19:15:22.461625 24089 layer_factory.hpp:77] Creating layer conv5
I0408 19:15:22.461635 24089 net.cpp:84] Creating Layer conv5
I0408 19:15:22.461639 24089 net.cpp:406] conv5 <- conv4
I0408 19:15:22.461645 24089 net.cpp:380] conv5 -> conv5
I0408 19:15:22.471190 24089 net.cpp:122] Setting up conv5
I0408 19:15:22.471206 24089 net.cpp:129] Top shape: 32 256 13 13 (1384448)
I0408 19:15:22.471210 24089 net.cpp:137] Memory required for data: 256225024
I0408 19:15:22.471222 24089 layer_factory.hpp:77] Creating layer relu5
I0408 19:15:22.471230 24089 net.cpp:84] Creating Layer relu5
I0408 19:15:22.471235 24089 net.cpp:406] relu5 <- conv5
I0408 19:15:22.471258 24089 net.cpp:367] relu5 -> conv5 (in-place)
I0408 19:15:22.471746 24089 net.cpp:122] Setting up relu5
I0408 19:15:22.471755 24089 net.cpp:129] Top shape: 32 256 13 13 (1384448)
I0408 19:15:22.471760 24089 net.cpp:137] Memory required for data: 261762816
I0408 19:15:22.471762 24089 layer_factory.hpp:77] Creating layer pool5
I0408 19:15:22.471773 24089 net.cpp:84] Creating Layer pool5
I0408 19:15:22.471777 24089 net.cpp:406] pool5 <- conv5
I0408 19:15:22.471783 24089 net.cpp:380] pool5 -> pool5
I0408 19:15:22.471820 24089 net.cpp:122] Setting up pool5
I0408 19:15:22.471827 24089 net.cpp:129] Top shape: 32 256 6 6 (294912)
I0408 19:15:22.471829 24089 net.cpp:137] Memory required for data: 262942464
I0408 19:15:22.471832 24089 layer_factory.hpp:77] Creating layer fc6
I0408 19:15:22.471840 24089 net.cpp:84] Creating Layer fc6
I0408 19:15:22.471843 24089 net.cpp:406] fc6 <- pool5
I0408 19:15:22.471849 24089 net.cpp:380] fc6 -> fc6
I0408 19:15:22.829941 24089 net.cpp:122] Setting up fc6
I0408 19:15:22.829972 24089 net.cpp:129] Top shape: 32 4096 (131072)
I0408 19:15:22.829977 24089 net.cpp:137] Memory required for data: 263466752
I0408 19:15:22.829986 24089 layer_factory.hpp:77] Creating layer relu6
I0408 19:15:22.829995 24089 net.cpp:84] Creating Layer relu6
I0408 19:15:22.830000 24089 net.cpp:406] relu6 <- fc6
I0408 19:15:22.830008 24089 net.cpp:367] relu6 -> fc6 (in-place)
I0408 19:15:22.830838 24089 net.cpp:122] Setting up relu6
I0408 19:15:22.830848 24089 net.cpp:129] Top shape: 32 4096 (131072)
I0408 19:15:22.830852 24089 net.cpp:137] Memory required for data: 263991040
I0408 19:15:22.830857 24089 layer_factory.hpp:77] Creating layer drop6
I0408 19:15:22.830864 24089 net.cpp:84] Creating Layer drop6
I0408 19:15:22.830868 24089 net.cpp:406] drop6 <- fc6
I0408 19:15:22.830874 24089 net.cpp:367] drop6 -> fc6 (in-place)
I0408 19:15:22.830899 24089 net.cpp:122] Setting up drop6
I0408 19:15:22.830904 24089 net.cpp:129] Top shape: 32 4096 (131072)
I0408 19:15:22.830907 24089 net.cpp:137] Memory required for data: 264515328
I0408 19:15:22.830911 24089 layer_factory.hpp:77] Creating layer fc7
I0408 19:15:22.830919 24089 net.cpp:84] Creating Layer fc7
I0408 19:15:22.830921 24089 net.cpp:406] fc7 <- fc6
I0408 19:15:22.830929 24089 net.cpp:380] fc7 -> fc7
I0408 19:15:22.988240 24089 net.cpp:122] Setting up fc7
I0408 19:15:22.988262 24089 net.cpp:129] Top shape: 32 4096 (131072)
I0408 19:15:22.988266 24089 net.cpp:137] Memory required for data: 265039616
I0408 19:15:22.988274 24089 layer_factory.hpp:77] Creating layer relu7
I0408 19:15:22.988283 24089 net.cpp:84] Creating Layer relu7
I0408 19:15:22.988288 24089 net.cpp:406] relu7 <- fc7
I0408 19:15:22.988294 24089 net.cpp:367] relu7 -> fc7 (in-place)
I0408 19:15:22.988726 24089 net.cpp:122] Setting up relu7
I0408 19:15:22.988734 24089 net.cpp:129] Top shape: 32 4096 (131072)
I0408 19:15:22.988737 24089 net.cpp:137] Memory required for data: 265563904
I0408 19:15:22.988741 24089 layer_factory.hpp:77] Creating layer drop7
I0408 19:15:22.988749 24089 net.cpp:84] Creating Layer drop7
I0408 19:15:22.988751 24089 net.cpp:406] drop7 <- fc7
I0408 19:15:22.988757 24089 net.cpp:367] drop7 -> fc7 (in-place)
I0408 19:15:22.988781 24089 net.cpp:122] Setting up drop7
I0408 19:15:22.988786 24089 net.cpp:129] Top shape: 32 4096 (131072)
I0408 19:15:22.988790 24089 net.cpp:137] Memory required for data: 266088192
I0408 19:15:22.988793 24089 layer_factory.hpp:77] Creating layer fc8
I0408 19:15:22.988801 24089 net.cpp:84] Creating Layer fc8
I0408 19:15:22.988804 24089 net.cpp:406] fc8 <- fc7
I0408 19:15:22.988811 24089 net.cpp:380] fc8 -> fc8
I0408 19:15:22.996587 24089 net.cpp:122] Setting up fc8
I0408 19:15:22.996596 24089 net.cpp:129] Top shape: 32 196 (6272)
I0408 19:15:22.996599 24089 net.cpp:137] Memory required for data: 266113280
I0408 19:15:22.996605 24089 layer_factory.hpp:77] Creating layer fc8_fc8_0_split
I0408 19:15:22.996613 24089 net.cpp:84] Creating Layer fc8_fc8_0_split
I0408 19:15:22.996616 24089 net.cpp:406] fc8_fc8_0_split <- fc8
I0408 19:15:22.996639 24089 net.cpp:380] fc8_fc8_0_split -> fc8_fc8_0_split_0
I0408 19:15:22.996646 24089 net.cpp:380] fc8_fc8_0_split -> fc8_fc8_0_split_1
I0408 19:15:22.996678 24089 net.cpp:122] Setting up fc8_fc8_0_split
I0408 19:15:22.996682 24089 net.cpp:129] Top shape: 32 196 (6272)
I0408 19:15:22.996686 24089 net.cpp:129] Top shape: 32 196 (6272)
I0408 19:15:22.996690 24089 net.cpp:137] Memory required for data: 266163456
I0408 19:15:22.996693 24089 layer_factory.hpp:77] Creating layer accuracy
I0408 19:15:22.996701 24089 net.cpp:84] Creating Layer accuracy
I0408 19:15:22.996706 24089 net.cpp:406] accuracy <- fc8_fc8_0_split_0
I0408 19:15:22.996709 24089 net.cpp:406] accuracy <- label_val-data_1_split_0
I0408 19:15:22.996714 24089 net.cpp:380] accuracy -> accuracy
…
