…
I0405 12:47:17.188326 18799 net.cpp:294] The NetState phase (0) differed from the phase (1) specified by a rule in layer accuracy
I0405 12:47:17.188446 18799 net.cpp:51] Initializing net from parameters:
state {
phase: TRAIN
level: 0
stage: ""
}
layer {
name: "train-data"
type: "Data"
top: "data"
top: "label"
include {
phase: TRAIN
}
transform_param {
mirror: true
crop_size: 227
mean_file: "/mnt/bigdisk/DIGITS-AIN-3/digits/jobs/20210401-115716-aaf7/mean.binaryproto"
}
data_param {
source: "/mnt/bigdisk/DIGITS-AIN-3/digits/jobs/20210401-115716-aaf7/train_db"
batch_size: 128
backend: LMDB
}
}
layer {
name: "conv1"
type: "Convolution"
bottom: "data"
top: "conv1"
param {
lr_mult: 1
decay_mult: 1
}
param {
lr_mult: 2
decay_mult: 0
}
convolution_param {
num_output: 96
kernel_size: 11
stride: 4
weight_filler {
type: "gaussian"
std: 0.01
}
bias_filler {
type: "constant"
value: 0
}
}
}
layer {
name: "relu1"
type: "ReLU"
bottom: "conv1"
top: "conv1"
}
layer {
name: "norm1"
type: "LRN"
bottom: "conv1"
top: "norm1"
lrn_param {
local_size: 5
alpha: 0.0001
beta: 0.75
}
}
layer {
name: "pool1"
type: "Pooling"
bottom: "norm1"
top: "pool1"
pooling_param {
pool: MAX
kernel_size: 3
stride: 2
}
}
layer {
name: "conv2"
type: "Convolution"
bottom: "pool1"
top: "conv2"
param {
lr_mult: 1
decay_mult: 1
}
param {
lr_mult: 2
decay_mult: 0
}
convolution_param {
num_output: 256
pad: 2
kernel_size: 5
group: 2
weight_filler {
type: "gaussian"
std: 0.01
}
bias_filler {
type: "constant"
value: 0.1
}
}
}
layer {
name: "relu2"
type: "ReLU"
bottom: "conv2"
top: "conv2"
}
layer {
name: "norm2"
type: "LRN"
bottom: "conv2"
top: "norm2"
lrn_param {
local_size: 5
alpha: 0.0001
beta: 0.75
}
}
layer {
name: "pool2"
type: "Pooling"
bottom: "norm2"
top: "pool2"
pooling_param {
pool: MAX
kernel_size: 3
stride: 2
}
}
layer {
name: "conv3"
type: "Convolution"
bottom: "pool2"
top: "conv3"
param {
lr_mult: 1
decay_mult: 1
}
param {
lr_mult: 2
decay_mult: 0
}
convolution_param {
num_output: 384
pad: 1
kernel_size: 3
weight_filler {
type: "gaussian"
std: 0.01
}
bias_filler {
type: "constant"
value: 0
}
}
}
layer {
name: "relu3"
type: "ReLU"
bottom: "conv3"
top: "conv3"
}
layer {
name: "conv4"
type: "Convolution"
bottom: "conv3"
top: "conv4"
param {
lr_mult: 1
decay_mult: 1
}
param {
lr_mult: 2
decay_mult: 0
}
convolution_param {
num_output: 384
pad: 1
kernel_size: 3
group: 2
weight_filler {
type: "gaussian"
std: 0.01
}
bias_filler {
type: "constant"
value: 0.1
}
}
}
layer {
name: "relu4"
type: "ReLU"
bottom: "conv4"
top: "conv4"
}
layer {
name: "conv5"
type: "Convolution"
bottom: "conv4"
top: "conv5"
param {
lr_mult: 1
decay_mult: 1
}
param {
lr_mult: 2
decay_mult: 0
}
convolution_param {
num_output: 256
pad: 1
kernel_size: 3
group: 2
weight_filler {
type: "gaussian"
std: 0.01
}
bias_filler {
type: "constant"
value: 0.1
}
}
}
layer {
name: "relu5"
type: "ReLU"
bottom: "conv5"
top: "conv5"
}
layer {
name: "pool5"
type: "Pooling"
bottom: "conv5"
top: "pool5"
pooling_param {
pool: MAX
kernel_size: 3
stride: 2
}
}
layer {
name: "fc6"
type: "InnerProduct"
bottom: "pool5"
top: "fc6"
param {
lr_mult: 1
decay_mult: 1
}
param {
lr_mult: 2
decay_mult: 0
}
inner_product_param {
num_output: 4096
weight_filler {
type: "gaussian"
std: 0.005
}
bias_filler {
type: "constant"
value: 0.1
}
}
}
layer {
name: "relu6"
type: "ReLU"
bottom: "fc6"
top: "fc6"
}
layer {
name: "drop6"
type: "Dropout"
bottom: "fc6"
top: "fc6"
dropout_param {
dropout_ratio: 0.5
}
}
layer {
name: "fc7"
type: "InnerProduct"
bottom: "fc6"
top: "fc7"
param {
lr_mult: 1
decay_mult: 1
}
param {
lr_mult: 2
decay_mult: 0
}
inner_product_param {
num_output: 4096
weight_filler {
type: "gaussian"
std: 0.005
}
bias_filler {
type: "constant"
value: 0.1
}
}
}
layer {
name: "relu7"
type: "ReLU"
bottom: "fc7"
top: "fc7"
}
layer {
name: "drop7"
type: "Dropout"
bottom: "fc7"
top: "fc7"
dropout_param {
dropout_ratio: 0.5
}
}
layer {
name: "fc8"
type: "InnerProduct"
bottom: "fc7"
top: "fc8"
param {
lr_mult: 1
decay_mult: 1
}
param {
lr_mult: 2
decay_mult: 0
}
inner_product_param {
num_output: 196
weight_filler {
type: "gaussian"
std: 0.01
}
bias_filler {
type: "constant"
value: 0
}
}
}
layer {
name: "loss"
type: "SoftmaxWithLoss"
bottom: "fc8"
bottom: "label"
top: "loss"
}
I0405 12:47:17.188529 18799 layer_factory.hpp:77] Creating layer train-data
I0405 12:47:17.203459 18799 db_lmdb.cpp:35] Opened lmdb /mnt/bigdisk/DIGITS-AIN-3/digits/jobs/20210401-115716-aaf7/train_db
I0405 12:47:17.203706 18799 net.cpp:84] Creating Layer train-data
I0405 12:47:17.203722 18799 net.cpp:380] train-data -> data
I0405 12:47:17.203742 18799 net.cpp:380] train-data -> label
I0405 12:47:17.203752 18799 data_transformer.cpp:25] Loading mean file from: /mnt/bigdisk/DIGITS-AIN-3/digits/jobs/20210401-115716-aaf7/mean.binaryproto
I0405 12:47:17.208353 18799 data_layer.cpp:45] output data size: 128,3,227,227
I0405 12:47:17.344980 18799 net.cpp:122] Setting up train-data
I0405 12:47:17.345002 18799 net.cpp:129] Top shape: 128 3 227 227 (19787136)
I0405 12:47:17.345006 18799 net.cpp:129] Top shape: 128 (128)
I0405 12:47:17.345008 18799 net.cpp:137] Memory required for data: 79149056
I0405 12:47:17.345016 18799 layer_factory.hpp:77] Creating layer conv1
I0405 12:47:17.345036 18799 net.cpp:84] Creating Layer conv1
I0405 12:47:17.345041 18799 net.cpp:406] conv1 <- data
I0405 12:47:17.345052 18799 net.cpp:380] conv1 -> conv1
I0405 12:47:17.767601 18799 net.cpp:122] Setting up conv1
I0405 12:47:17.767621 18799 net.cpp:129] Top shape: 128 96 55 55 (37171200)
I0405 12:47:17.767623 18799 net.cpp:137] Memory required for data: 227833856
I0405 12:47:17.767642 18799 layer_factory.hpp:77] Creating layer relu1
I0405 12:47:17.767652 18799 net.cpp:84] Creating Layer relu1
I0405 12:47:17.767654 18799 net.cpp:406] relu1 <- conv1
I0405 12:47:17.767659 18799 net.cpp:367] relu1 -> conv1 (in-place)
I0405 12:47:17.767916 18799 net.cpp:122] Setting up relu1
I0405 12:47:17.767925 18799 net.cpp:129] Top shape: 128 96 55 55 (37171200)
I0405 12:47:17.767926 18799 net.cpp:137] Memory required for data: 376518656
I0405 12:47:17.767930 18799 layer_factory.hpp:77] Creating layer norm1
I0405 12:47:17.767937 18799 net.cpp:84] Creating Layer norm1
I0405 12:47:17.767940 18799 net.cpp:406] norm1 <- conv1
I0405 12:47:17.767966 18799 net.cpp:380] norm1 -> norm1
I0405 12:47:17.768399 18799 net.cpp:122] Setting up norm1
I0405 12:47:17.768409 18799 net.cpp:129] Top shape: 128 96 55 55 (37171200)
I0405 12:47:17.768410 18799 net.cpp:137] Memory required for data: 525203456
I0405 12:47:17.768414 18799 layer_factory.hpp:77] Creating layer pool1
I0405 12:47:17.768419 18799 net.cpp:84] Creating Layer pool1
I0405 12:47:17.768422 18799 net.cpp:406] pool1 <- norm1
I0405 12:47:17.768426 18799 net.cpp:380] pool1 -> pool1
I0405 12:47:17.768457 18799 net.cpp:122] Setting up pool1
I0405 12:47:17.768462 18799 net.cpp:129] Top shape: 128 96 27 27 (8957952)
I0405 12:47:17.768465 18799 net.cpp:137] Memory required for data: 561035264
I0405 12:47:17.768466 18799 layer_factory.hpp:77] Creating layer conv2
I0405 12:47:17.768476 18799 net.cpp:84] Creating Layer conv2
I0405 12:47:17.768477 18799 net.cpp:406] conv2 <- pool1
I0405 12:47:17.768481 18799 net.cpp:380] conv2 -> conv2
I0405 12:47:17.773975 18799 net.cpp:122] Setting up conv2
I0405 12:47:17.773990 18799 net.cpp:129] Top shape: 128 256 27 27 (23887872)
I0405 12:47:17.773993 18799 net.cpp:137] Memory required for data: 656586752
I0405 12:47:17.774003 18799 layer_factory.hpp:77] Creating layer relu2
I0405 12:47:17.774008 18799 net.cpp:84] Creating Layer relu2
I0405 12:47:17.774011 18799 net.cpp:406] relu2 <- conv2
I0405 12:47:17.774015 18799 net.cpp:367] relu2 -> conv2 (in-place)
I0405 12:47:17.774475 18799 net.cpp:122] Setting up relu2
I0405 12:47:17.774484 18799 net.cpp:129] Top shape: 128 256 27 27 (23887872)
I0405 12:47:17.774487 18799 net.cpp:137] Memory required for data: 752138240
I0405 12:47:17.774488 18799 layer_factory.hpp:77] Creating layer norm2
I0405 12:47:17.774494 18799 net.cpp:84] Creating Layer norm2
I0405 12:47:17.774497 18799 net.cpp:406] norm2 <- conv2
I0405 12:47:17.774502 18799 net.cpp:380] norm2 -> norm2
I0405 12:47:17.774757 18799 net.cpp:122] Setting up norm2
I0405 12:47:17.774765 18799 net.cpp:129] Top shape: 128 256 27 27 (23887872)
I0405 12:47:17.774767 18799 net.cpp:137] Memory required for data: 847689728
I0405 12:47:17.774770 18799 layer_factory.hpp:77] Creating layer pool2
I0405 12:47:17.774776 18799 net.cpp:84] Creating Layer pool2
I0405 12:47:17.774778 18799 net.cpp:406] pool2 <- norm2
I0405 12:47:17.774782 18799 net.cpp:380] pool2 -> pool2
I0405 12:47:17.774806 18799 net.cpp:122] Setting up pool2
I0405 12:47:17.774809 18799 net.cpp:129] Top shape: 128 256 13 13 (5537792)
I0405 12:47:17.774811 18799 net.cpp:137] Memory required for data: 869840896
I0405 12:47:17.774814 18799 layer_factory.hpp:77] Creating layer conv3
I0405 12:47:17.774821 18799 net.cpp:84] Creating Layer conv3
I0405 12:47:17.774823 18799 net.cpp:406] conv3 <- pool2
I0405 12:47:17.774827 18799 net.cpp:380] conv3 -> conv3
I0405 12:47:17.784315 18799 net.cpp:122] Setting up conv3
I0405 12:47:17.784327 18799 net.cpp:129] Top shape: 128 384 13 13 (8306688)
I0405 12:47:17.784329 18799 net.cpp:137] Memory required for data: 903067648
I0405 12:47:17.784337 18799 layer_factory.hpp:77] Creating layer relu3
I0405 12:47:17.784343 18799 net.cpp:84] Creating Layer relu3
I0405 12:47:17.784344 18799 net.cpp:406] relu3 <- conv3
I0405 12:47:17.784348 18799 net.cpp:367] relu3 -> conv3 (in-place)
I0405 12:47:17.784761 18799 net.cpp:122] Setting up relu3
I0405 12:47:17.784770 18799 net.cpp:129] Top shape: 128 384 13 13 (8306688)
I0405 12:47:17.784772 18799 net.cpp:137] Memory required for data: 936294400
I0405 12:47:17.784775 18799 layer_factory.hpp:77] Creating layer conv4
I0405 12:47:17.784782 18799 net.cpp:84] Creating Layer conv4
I0405 12:47:17.784785 18799 net.cpp:406] conv4 <- conv3
I0405 12:47:17.784790 18799 net.cpp:380] conv4 -> conv4
I0405 12:47:17.793893 18799 net.cpp:122] Setting up conv4
I0405 12:47:17.793910 18799 net.cpp:129] Top shape: 128 384 13 13 (8306688)
I0405 12:47:17.793911 18799 net.cpp:137] Memory required for data: 969521152
I0405 12:47:17.793918 18799 layer_factory.hpp:77] Creating layer relu4
I0405 12:47:17.793926 18799 net.cpp:84] Creating Layer relu4
I0405 12:47:17.793948 18799 net.cpp:406] relu4 <- conv4
I0405 12:47:17.793952 18799 net.cpp:367] relu4 -> conv4 (in-place)
I0405 12:47:17.794260 18799 net.cpp:122] Setting up relu4
I0405 12:47:17.794268 18799 net.cpp:129] Top shape: 128 384 13 13 (8306688)
I0405 12:47:17.794270 18799 net.cpp:137] Memory required for data: 1002747904
I0405 12:47:17.794273 18799 layer_factory.hpp:77] Creating layer conv5
I0405 12:47:17.794282 18799 net.cpp:84] Creating Layer conv5
I0405 12:47:17.794286 18799 net.cpp:406] conv5 <- conv4
I0405 12:47:17.794289 18799 net.cpp:380] conv5 -> conv5
I0405 12:47:17.802953 18799 net.cpp:122] Setting up conv5
I0405 12:47:17.802970 18799 net.cpp:129] Top shape: 128 256 13 13 (5537792)
I0405 12:47:17.802973 18799 net.cpp:137] Memory required for data: 1024899072
I0405 12:47:17.802984 18799 layer_factory.hpp:77] Creating layer relu5
I0405 12:47:17.802994 18799 net.cpp:84] Creating Layer relu5
I0405 12:47:17.802997 18799 net.cpp:406] relu5 <- conv5
I0405 12:47:17.803001 18799 net.cpp:367] relu5 -> conv5 (in-place)
I0405 12:47:17.803483 18799 net.cpp:122] Setting up relu5
I0405 12:47:17.803490 18799 net.cpp:129] Top shape: 128 256 13 13 (5537792)
I0405 12:47:17.803493 18799 net.cpp:137] Memory required for data: 1047050240
I0405 12:47:17.803495 18799 layer_factory.hpp:77] Creating layer pool5
I0405 12:47:17.803501 18799 net.cpp:84] Creating Layer pool5
I0405 12:47:17.803504 18799 net.cpp:406] pool5 <- conv5
I0405 12:47:17.803509 18799 net.cpp:380] pool5 -> pool5
I0405 12:47:17.803542 18799 net.cpp:122] Setting up pool5
I0405 12:47:17.803546 18799 net.cpp:129] Top shape: 128 256 6 6 (1179648)
I0405 12:47:17.803548 18799 net.cpp:137] Memory required for data: 1051768832
I0405 12:47:17.803550 18799 layer_factory.hpp:77] Creating layer fc6
I0405 12:47:17.803560 18799 net.cpp:84] Creating Layer fc6
I0405 12:47:17.803562 18799 net.cpp:406] fc6 <- pool5
I0405 12:47:17.803566 18799 net.cpp:380] fc6 -> fc6
I0405 12:47:18.133078 18799 net.cpp:122] Setting up fc6
I0405 12:47:18.133100 18799 net.cpp:129] Top shape: 128 4096 (524288)
I0405 12:47:18.133101 18799 net.cpp:137] Memory required for data: 1053865984
I0405 12:47:18.133111 18799 layer_factory.hpp:77] Creating layer relu6
I0405 12:47:18.133123 18799 net.cpp:84] Creating Layer relu6
I0405 12:47:18.133127 18799 net.cpp:406] relu6 <- fc6
I0405 12:47:18.133132 18799 net.cpp:367] relu6 -> fc6 (in-place)
I0405 12:47:18.133752 18799 net.cpp:122] Setting up relu6
I0405 12:47:18.133760 18799 net.cpp:129] Top shape: 128 4096 (524288)
I0405 12:47:18.133762 18799 net.cpp:137] Memory required for data: 1055963136
I0405 12:47:18.133765 18799 layer_factory.hpp:77] Creating layer drop6
I0405 12:47:18.133770 18799 net.cpp:84] Creating Layer drop6
I0405 12:47:18.133774 18799 net.cpp:406] drop6 <- fc6
I0405 12:47:18.133778 18799 net.cpp:367] drop6 -> fc6 (in-place)
I0405 12:47:18.133801 18799 net.cpp:122] Setting up drop6
I0405 12:47:18.133805 18799 net.cpp:129] Top shape: 128 4096 (524288)
I0405 12:47:18.133807 18799 net.cpp:137] Memory required for data: 1058060288
I0405 12:47:18.133810 18799 layer_factory.hpp:77] Creating layer fc7
I0405 12:47:18.133817 18799 net.cpp:84] Creating Layer fc7
I0405 12:47:18.133819 18799 net.cpp:406] fc7 <- fc6
I0405 12:47:18.133824 18799 net.cpp:380] fc7 -> fc7
I0405 12:47:18.281322 18799 net.cpp:122] Setting up fc7
I0405 12:47:18.281342 18799 net.cpp:129] Top shape: 128 4096 (524288)
I0405 12:47:18.281344 18799 net.cpp:137] Memory required for data: 1060157440
I0405 12:47:18.281352 18799 layer_factory.hpp:77] Creating layer relu7
I0405 12:47:18.281361 18799 net.cpp:84] Creating Layer relu7
I0405 12:47:18.281365 18799 net.cpp:406] relu7 <- fc7
I0405 12:47:18.281370 18799 net.cpp:367] relu7 -> fc7 (in-place)
I0405 12:47:18.281733 18799 net.cpp:122] Setting up relu7
I0405 12:47:18.281741 18799 net.cpp:129] Top shape: 128 4096 (524288)
I0405 12:47:18.281744 18799 net.cpp:137] Memory required for data: 1062254592
I0405 12:47:18.281746 18799 layer_factory.hpp:77] Creating layer drop7
I0405 12:47:18.281751 18799 net.cpp:84] Creating Layer drop7
I0405 12:47:18.281754 18799 net.cpp:406] drop7 <- fc7
I0405 12:47:18.281774 18799 net.cpp:367] drop7 -> fc7 (in-place)
I0405 12:47:18.281796 18799 net.cpp:122] Setting up drop7
I0405 12:47:18.281800 18799 net.cpp:129] Top shape: 128 4096 (524288)
I0405 12:47:18.281802 18799 net.cpp:137] Memory required for data: 1064351744
I0405 12:47:18.281805 18799 layer_factory.hpp:77] Creating layer fc8
I0405 12:47:18.281811 18799 net.cpp:84] Creating Layer fc8
I0405 12:47:18.281813 18799 net.cpp:406] fc8 <- fc7
I0405 12:47:18.281817 18799 net.cpp:380] fc8 -> fc8
I0405 12:47:18.288913 18799 net.cpp:122] Setting up fc8
I0405 12:47:18.288928 18799 net.cpp:129] Top shape: 128 196 (25088)
I0405 12:47:18.288930 18799 net.cpp:137] Memory required for data: 1064452096
I0405 12:47:18.288936 18799 layer_factory.hpp:77] Creating layer loss
I0405 12:47:18.288942 18799 net.cpp:84] Creating Layer loss
I0405 12:47:18.288945 18799 net.cpp:406] loss <- fc8
I0405 12:47:18.288949 18799 net.cpp:406] loss <- label
I0405 12:47:18.288955 18799 net.cpp:380] loss -> loss
I0405 12:47:18.288964 18799 layer_factory.hpp:77] Creating layer loss
…
I0405 12:47:18.293467 18799 net.cpp:294] The NetState phase (1) differed from the phase (0) specified by a rule in layer train-data
I0405 12:47:18.293601 18799 net.cpp:51] Initializing net from parameters:
state {
phase: TEST
}
layer {
name: "val-data"
type: "Data"
top: "data"
top: "label"
include {
phase: TEST
}
transform_param {
crop_size: 227
mean_file: "/mnt/bigdisk/DIGITS-AIN-3/digits/jobs/20210401-115716-aaf7/mean.binaryproto"
}
data_param {
source: "/mnt/bigdisk/DIGITS-AIN-3/digits/jobs/20210401-115716-aaf7/val_db"
batch_size: 32
backend: LMDB
}
}
layer {
name: "conv1"
type: "Convolution"
bottom: "data"
top: "conv1"
param {
lr_mult: 1
decay_mult: 1
}
param {
lr_mult: 2
decay_mult: 0
}
convolution_param {
num_output: 96
kernel_size: 11
stride: 4
weight_filler {
type: "gaussian"
std: 0.01
}
bias_filler {
type: "constant"
value: 0
}
}
}
layer {
name: "relu1"
type: "ReLU"
bottom: "conv1"
top: "conv1"
}
layer {
name: "norm1"
type: "LRN"
bottom: "conv1"
top: "norm1"
lrn_param {
local_size: 5
alpha: 0.0001
beta: 0.75
}
}
layer {
name: "pool1"
type: "Pooling"
bottom: "norm1"
top: "pool1"
pooling_param {
pool: MAX
kernel_size: 3
stride: 2
}
}
layer {
name: "conv2"
type: "Convolution"
bottom: "pool1"
top: "conv2"
param {
lr_mult: 1
decay_mult: 1
}
param {
lr_mult: 2
decay_mult: 0
}
convolution_param {
num_output: 256
pad: 2
kernel_size: 5
group: 2
weight_filler {
type: "gaussian"
std: 0.01
}
bias_filler {
type: "constant"
value: 0.1
}
}
}
layer {
name: "relu2"
type: "ReLU"
bottom: "conv2"
top: "conv2"
}
layer {
name: "norm2"
type: "LRN"
bottom: "conv2"
top: "norm2"
lrn_param {
local_size: 5
alpha: 0.0001
beta: 0.75
}
}
layer {
name: "pool2"
type: "Pooling"
bottom: "norm2"
top: "pool2"
pooling_param {
pool: MAX
kernel_size: 3
stride: 2
}
}
layer {
name: "conv3"
type: "Convolution"
bottom: "pool2"
top: "conv3"
param {
lr_mult: 1
decay_mult: 1
}
param {
lr_mult: 2
decay_mult: 0
}
convolution_param {
num_output: 384
pad: 1
kernel_size: 3
weight_filler {
type: "gaussian"
std: 0.01
}
bias_filler {
type: "constant"
value: 0
}
}
}
layer {
name: "relu3"
type: "ReLU"
bottom: "conv3"
top: "conv3"
}
layer {
name: "conv4"
type: "Convolution"
bottom: "conv3"
top: "conv4"
param {
lr_mult: 1
decay_mult: 1
}
param {
lr_mult: 2
decay_mult: 0
}
convolution_param {
num_output: 384
pad: 1
kernel_size: 3
group: 2
weight_filler {
type: "gaussian"
std: 0.01
}
bias_filler {
type: "constant"
value: 0.1
}
}
}
layer {
name: "relu4"
type: "ReLU"
bottom: "conv4"
top: "conv4"
}
layer {
name: "conv5"
type: "Convolution"
bottom: "conv4"
top: "conv5"
param {
lr_mult: 1
decay_mult: 1
}
param {
lr_mult: 2
decay_mult: 0
}
convolution_param {
num_output: 256
pad: 1
kernel_size: 3
group: 2
weight_filler {
type: "gaussian"
std: 0.01
}
bias_filler {
type: "constant"
value: 0.1
}
}
}
layer {
name: "relu5"
type: "ReLU"
bottom: "conv5"
top: "conv5"
}
layer {
name: "pool5"
type: "Pooling"
bottom: "conv5"
top: "pool5"
pooling_param {
pool: MAX
kernel_size: 3
stride: 2
}
}
layer {
name: "fc6"
type: "InnerProduct"
bottom: "pool5"
top: "fc6"
param {
lr_mult: 1
decay_mult: 1
}
param {
lr_mult: 2
decay_mult: 0
}
inner_product_param {
num_output: 4096
weight_filler {
type: "gaussian"
std: 0.005
}
bias_filler {
type: "constant"
value: 0.1
}
}
}
layer {
name: "relu6"
type: "ReLU"
bottom: "fc6"
top: "fc6"
}
layer {
name: "drop6"
type: "Dropout"
bottom: "fc6"
top: "fc6"
dropout_param {
dropout_ratio: 0.5
}
}
layer {
name: "fc7"
type: "InnerProduct"
bottom: "fc6"
top: "fc7"
param {
lr_mult: 1
decay_mult: 1
}
param {
lr_mult: 2
decay_mult: 0
}
inner_product_param {
num_output: 4096
weight_filler {
type: "gaussian"
std: 0.005
}
bias_filler {
type: "constant"
value: 0.1
}
}
}
layer {
name: "relu7"
type: "ReLU"
bottom: "fc7"
top: "fc7"
}
layer {
name: "drop7"
type: "Dropout"
bottom: "fc7"
top: "fc7"
dropout_param {
dropout_ratio: 0.5
}
}
layer {
name: "fc8"
type: "InnerProduct"
bottom: "fc7"
top: "fc8"
param {
lr_mult: 1
decay_mult: 1
}
param {
lr_mult: 2
decay_mult: 0
}
inner_product_param {
num_output: 196
weight_filler {
type: "gaussian"
std: 0.01
}
bias_filler {
type: "constant"
value: 0
}
}
}
layer {
name: "accuracy"
type: "Accuracy"
bottom: "fc8"
bottom: "label"
top: "accuracy"
include {
phase: TEST
}
}
layer {
name: "loss"
type: "SoftmaxWithLoss"
bottom: "fc8"
bottom: "label"
top: "loss"
}
I0405 12:47:18.293694 18799 layer_factory.hpp:77] Creating layer val-data
I0405 12:47:18.375998 18799 db_lmdb.cpp:35] Opened lmdb /mnt/bigdisk/DIGITS-AIN-3/digits/jobs/20210401-115716-aaf7/val_db
I0405 12:47:18.376224 18799 net.cpp:84] Creating Layer val-data
I0405 12:47:18.376240 18799 net.cpp:380] val-data -> data
I0405 12:47:18.376251 18799 net.cpp:380] val-data -> label
I0405 12:47:18.376258 18799 data_transformer.cpp:25] Loading mean file from: /mnt/bigdisk/DIGITS-AIN-3/digits/jobs/20210401-115716-aaf7/mean.binaryproto
I0405 12:47:18.381676 18799 data_layer.cpp:45] output data size: 32,3,227,227
I0405 12:47:18.423166 18799 net.cpp:122] Setting up val-data
I0405 12:47:18.423187 18799 net.cpp:129] Top shape: 32 3 227 227 (4946784)
I0405 12:47:18.423192 18799 net.cpp:129] Top shape: 32 (32)
I0405 12:47:18.423193 18799 net.cpp:137] Memory required for data: 19787264
I0405 12:47:18.423199 18799 layer_factory.hpp:77] Creating layer label_val-data_1_split
I0405 12:47:18.423211 18799 net.cpp:84] Creating Layer label_val-data_1_split
I0405 12:47:18.423215 18799 net.cpp:406] label_val-data_1_split <- label
I0405 12:47:18.423221 18799 net.cpp:380] label_val-data_1_split -> label_val-data_1_split_0
I0405 12:47:18.423230 18799 net.cpp:380] label_val-data_1_split -> label_val-data_1_split_1
I0405 12:47:18.423359 18799 net.cpp:122] Setting up label_val-data_1_split
I0405 12:47:18.423367 18799 net.cpp:129] Top shape: 32 (32)
I0405 12:47:18.423370 18799 net.cpp:129] Top shape: 32 (32)
I0405 12:47:18.423372 18799 net.cpp:137] Memory required for data: 19787520
I0405 12:47:18.423375 18799 layer_factory.hpp:77] Creating layer conv1
I0405 12:47:18.423388 18799 net.cpp:84] Creating Layer conv1
I0405 12:47:18.423391 18799 net.cpp:406] conv1 <- data
I0405 12:47:18.423398 18799 net.cpp:380] conv1 -> conv1
I0405 12:47:18.426327 18799 net.cpp:122] Setting up conv1
I0405 12:47:18.426340 18799 net.cpp:129] Top shape: 32 96 55 55 (9292800)
I0405 12:47:18.426343 18799 net.cpp:137] Memory required for data: 56958720
I0405 12:47:18.426353 18799 layer_factory.hpp:77] Creating layer relu1
I0405 12:47:18.426360 18799 net.cpp:84] Creating Layer relu1
I0405 12:47:18.426363 18799 net.cpp:406] relu1 <- conv1
I0405 12:47:18.426367 18799 net.cpp:367] relu1 -> conv1 (in-place)
I0405 12:47:18.426676 18799 net.cpp:122] Setting up relu1
I0405 12:47:18.426685 18799 net.cpp:129] Top shape: 32 96 55 55 (9292800)
I0405 12:47:18.426687 18799 net.cpp:137] Memory required for data: 94129920
I0405 12:47:18.426690 18799 layer_factory.hpp:77] Creating layer norm1
I0405 12:47:18.426698 18799 net.cpp:84] Creating Layer norm1
I0405 12:47:18.426702 18799 net.cpp:406] norm1 <- conv1
I0405 12:47:18.426707 18799 net.cpp:380] norm1 -> norm1
I0405 12:47:18.427224 18799 net.cpp:122] Setting up norm1
I0405 12:47:18.427234 18799 net.cpp:129] Top shape: 32 96 55 55 (9292800)
I0405 12:47:18.427237 18799 net.cpp:137] Memory required for data: 131301120
I0405 12:47:18.427240 18799 layer_factory.hpp:77] Creating layer pool1
I0405 12:47:18.427246 18799 net.cpp:84] Creating Layer pool1
I0405 12:47:18.427249 18799 net.cpp:406] pool1 <- norm1
I0405 12:47:18.427253 18799 net.cpp:380] pool1 -> pool1
I0405 12:47:18.427291 18799 net.cpp:122] Setting up pool1
I0405 12:47:18.427296 18799 net.cpp:129] Top shape: 32 96 27 27 (2239488)
I0405 12:47:18.427299 18799 net.cpp:137] Memory required for data: 140259072
I0405 12:47:18.427301 18799 layer_factory.hpp:77] Creating layer conv2
I0405 12:47:18.427309 18799 net.cpp:84] Creating Layer conv2
I0405 12:47:18.427312 18799 net.cpp:406] conv2 <- pool1
I0405 12:47:18.427340 18799 net.cpp:380] conv2 -> conv2
I0405 12:47:18.436203 18799 net.cpp:122] Setting up conv2
I0405 12:47:18.436223 18799 net.cpp:129] Top shape: 32 256 27 27 (5971968)
I0405 12:47:18.436226 18799 net.cpp:137] Memory required for data: 164146944
I0405 12:47:18.436237 18799 layer_factory.hpp:77] Creating layer relu2
I0405 12:47:18.436245 18799 net.cpp:84] Creating Layer relu2
I0405 12:47:18.436249 18799 net.cpp:406] relu2 <- conv2
I0405 12:47:18.436254 18799 net.cpp:367] relu2 -> conv2 (in-place)
I0405 12:47:18.436842 18799 net.cpp:122] Setting up relu2
I0405 12:47:18.436853 18799 net.cpp:129] Top shape: 32 256 27 27 (5971968)
I0405 12:47:18.436856 18799 net.cpp:137] Memory required for data: 188034816
I0405 12:47:18.436859 18799 layer_factory.hpp:77] Creating layer norm2
I0405 12:47:18.436870 18799 net.cpp:84] Creating Layer norm2
I0405 12:47:18.436873 18799 net.cpp:406] norm2 <- conv2
I0405 12:47:18.436878 18799 net.cpp:380] norm2 -> norm2
I0405 12:47:18.437492 18799 net.cpp:122] Setting up norm2
I0405 12:47:18.437502 18799 net.cpp:129] Top shape: 32 256 27 27 (5971968)
I0405 12:47:18.437505 18799 net.cpp:137] Memory required for data: 211922688
I0405 12:47:18.437507 18799 layer_factory.hpp:77] Creating layer pool2
I0405 12:47:18.437515 18799 net.cpp:84] Creating Layer pool2
I0405 12:47:18.437516 18799 net.cpp:406] pool2 <- norm2
I0405 12:47:18.437522 18799 net.cpp:380] pool2 -> pool2
I0405 12:47:18.437552 18799 net.cpp:122] Setting up pool2
I0405 12:47:18.437557 18799 net.cpp:129] Top shape: 32 256 13 13 (1384448)
I0405 12:47:18.437559 18799 net.cpp:137] Memory required for data: 217460480
I0405 12:47:18.437562 18799 layer_factory.hpp:77] Creating layer conv3
I0405 12:47:18.437573 18799 net.cpp:84] Creating Layer conv3
I0405 12:47:18.437577 18799 net.cpp:406] conv3 <- pool2
I0405 12:47:18.437580 18799 net.cpp:380] conv3 -> conv3
I0405 12:47:18.449404 18799 net.cpp:122] Setting up conv3
I0405 12:47:18.449427 18799 net.cpp:129] Top shape: 32 384 13 13 (2076672)
I0405 12:47:18.449430 18799 net.cpp:137] Memory required for data: 225767168
I0405 12:47:18.449442 18799 layer_factory.hpp:77] Creating layer relu3
I0405 12:47:18.449450 18799 net.cpp:84] Creating Layer relu3
I0405 12:47:18.449455 18799 net.cpp:406] relu3 <- conv3
I0405 12:47:18.449461 18799 net.cpp:367] relu3 -> conv3 (in-place)
I0405 12:47:18.450016 18799 net.cpp:122] Setting up relu3
I0405 12:47:18.450026 18799 net.cpp:129] Top shape: 32 384 13 13 (2076672)
I0405 12:47:18.450029 18799 net.cpp:137] Memory required for data: 234073856
I0405 12:47:18.450032 18799 layer_factory.hpp:77] Creating layer conv4
I0405 12:47:18.450042 18799 net.cpp:84] Creating Layer conv4
I0405 12:47:18.450045 18799 net.cpp:406] conv4 <- conv3
I0405 12:47:18.450050 18799 net.cpp:380] conv4 -> conv4
I0405 12:47:18.460336 18799 net.cpp:122] Setting up conv4
I0405 12:47:18.460353 18799 net.cpp:129] Top shape: 32 384 13 13 (2076672)
I0405 12:47:18.460356 18799 net.cpp:137] Memory required for data: 242380544
I0405 12:47:18.460363 18799 layer_factory.hpp:77] Creating layer relu4
I0405 12:47:18.460371 18799 net.cpp:84] Creating Layer relu4
I0405 12:47:18.460374 18799 net.cpp:406] relu4 <- conv4
I0405 12:47:18.460381 18799 net.cpp:367] relu4 -> conv4 (in-place)
I0405 12:47:18.460736 18799 net.cpp:122] Setting up relu4
I0405 12:47:18.460745 18799 net.cpp:129] Top shape: 32 384 13 13 (2076672)
I0405 12:47:18.460748 18799 net.cpp:137] Memory required for data: 250687232
I0405 12:47:18.460752 18799 layer_factory.hpp:77] Creating layer conv5
I0405 12:47:18.460762 18799 net.cpp:84] Creating Layer conv5
I0405 12:47:18.460764 18799 net.cpp:406] conv5 <- conv4
I0405 12:47:18.460769 18799 net.cpp:380] conv5 -> conv5
I0405 12:47:18.469486 18799 net.cpp:122] Setting up conv5
I0405 12:47:18.469504 18799 net.cpp:129] Top shape: 32 256 13 13 (1384448)
I0405 12:47:18.469507 18799 net.cpp:137] Memory required for data: 256225024
I0405 12:47:18.469521 18799 layer_factory.hpp:77] Creating layer relu5
I0405 12:47:18.469527 18799 net.cpp:84] Creating Layer relu5
I0405 12:47:18.469530 18799 net.cpp:406] relu5 <- conv5
I0405 12:47:18.469556 18799 net.cpp:367] relu5 -> conv5 (in-place)
I0405 12:47:18.470098 18799 net.cpp:122] Setting up relu5
I0405 12:47:18.470108 18799 net.cpp:129] Top shape: 32 256 13 13 (1384448)
I0405 12:47:18.470109 18799 net.cpp:137] Memory required for data: 261762816
I0405 12:47:18.470113 18799 layer_factory.hpp:77] Creating layer pool5
I0405 12:47:18.470121 18799 net.cpp:84] Creating Layer pool5
I0405 12:47:18.470124 18799 net.cpp:406] pool5 <- conv5
I0405 12:47:18.470129 18799 net.cpp:380] pool5 -> pool5
I0405 12:47:18.470165 18799 net.cpp:122] Setting up pool5
I0405 12:47:18.470170 18799 net.cpp:129] Top shape: 32 256 6 6 (294912)
I0405 12:47:18.470172 18799 net.cpp:137] Memory required for data: 262942464
I0405 12:47:18.470175 18799 layer_factory.hpp:77] Creating layer fc6
I0405 12:47:18.470181 18799 net.cpp:84] Creating Layer fc6
I0405 12:47:18.470185 18799 net.cpp:406] fc6 <- pool5
I0405 12:47:18.470188 18799 net.cpp:380] fc6 -> fc6
I0405 12:47:18.848244 18799 net.cpp:122] Setting up fc6
I0405 12:47:18.848268 18799 net.cpp:129] Top shape: 32 4096 (131072)
I0405 12:47:18.848269 18799 net.cpp:137] Memory required for data: 263466752
I0405 12:47:18.848278 18799 layer_factory.hpp:77] Creating layer relu6
I0405 12:47:18.848287 18799 net.cpp:84] Creating Layer relu6
I0405 12:47:18.848290 18799 net.cpp:406] relu6 <- fc6
I0405 12:47:18.848295 18799 net.cpp:367] relu6 -> fc6 (in-place)
I0405 12:47:18.848971 18799 net.cpp:122] Setting up relu6
I0405 12:47:18.848979 18799 net.cpp:129] Top shape: 32 4096 (131072)
I0405 12:47:18.848982 18799 net.cpp:137] Memory required for data: 263991040
I0405 12:47:18.848985 18799 layer_factory.hpp:77] Creating layer drop6
I0405 12:47:18.848991 18799 net.cpp:84] Creating Layer drop6
I0405 12:47:18.848994 18799 net.cpp:406] drop6 <- fc6
I0405 12:47:18.848999 18799 net.cpp:367] drop6 -> fc6 (in-place)
I0405 12:47:18.849020 18799 net.cpp:122] Setting up drop6
I0405 12:47:18.849025 18799 net.cpp:129] Top shape: 32 4096 (131072)
I0405 12:47:18.849026 18799 net.cpp:137] Memory required for data: 264515328
I0405 12:47:18.849028 18799 layer_factory.hpp:77] Creating layer fc7
I0405 12:47:18.849035 18799 net.cpp:84] Creating Layer fc7
I0405 12:47:18.849036 18799 net.cpp:406] fc7 <- fc6
I0405 12:47:18.849041 18799 net.cpp:380] fc7 -> fc7
I0405 12:47:18.994992 18799 net.cpp:122] Setting up fc7
I0405 12:47:18.995012 18799 net.cpp:129] Top shape: 32 4096 (131072)
I0405 12:47:18.995015 18799 net.cpp:137] Memory required for data: 265039616
I0405 12:47:18.995023 18799 layer_factory.hpp:77] Creating layer relu7
I0405 12:47:18.995031 18799 net.cpp:84] Creating Layer relu7
I0405 12:47:18.995034 18799 net.cpp:406] relu7 <- fc7
I0405 12:47:18.995040 18799 net.cpp:367] relu7 -> fc7 (in-place)
I0405 12:47:18.995427 18799 net.cpp:122] Setting up relu7
I0405 12:47:18.995435 18799 net.cpp:129] Top shape: 32 4096 (131072)
I0405 12:47:18.995437 18799 net.cpp:137] Memory required for data: 265563904
I0405 12:47:18.995440 18799 layer_factory.hpp:77] Creating layer drop7
I0405 12:47:18.995446 18799 net.cpp:84] Creating Layer drop7
I0405 12:47:18.995448 18799 net.cpp:406] drop7 <- fc7
I0405 12:47:18.995452 18799 net.cpp:367] drop7 -> fc7 (in-place)
I0405 12:47:18.995473 18799 net.cpp:122] Setting up drop7
I0405 12:47:18.995477 18799 net.cpp:129] Top shape: 32 4096 (131072)
I0405 12:47:18.995479 18799 net.cpp:137] Memory required for data: 266088192
I0405 12:47:18.995481 18799 layer_factory.hpp:77] Creating layer fc8
I0405 12:47:18.995488 18799 net.cpp:84] Creating Layer fc8
I0405 12:47:18.995491 18799 net.cpp:406] fc8 <- fc7
I0405 12:47:18.995494 18799 net.cpp:380] fc8 -> fc8
I0405 12:47:19.002842 18799 net.cpp:122] Setting up fc8
I0405 12:47:19.002864 18799 net.cpp:129] Top shape: 32 196 (6272)
I0405 12:47:19.002867 18799 net.cpp:137] Memory required for data: 266113280
I0405 12:47:19.002874 18799 layer_factory.hpp:77] Creating layer fc8_fc8_0_split
I0405 12:47:19.002882 18799 net.cpp:84] Creating Layer fc8_fc8_0_split
I0405 12:47:19.002885 18799 net.cpp:406] fc8_fc8_0_split <- fc8
I0405 12:47:19.002915 18799 net.cpp:380] fc8_fc8_0_split -> fc8_fc8_0_split_0
I0405 12:47:19.002923 18799 net.cpp:380] fc8_fc8_0_split -> fc8_fc8_0_split_1
I0405 12:47:19.002959 18799 net.cpp:122] Setting up fc8_fc8_0_split
I0405 12:47:19.002962 18799 net.cpp:129] Top shape: 32 196 (6272)
I0405 12:47:19.002965 18799 net.cpp:129] Top shape: 32 196 (6272)
I0405 12:47:19.002967 18799 net.cpp:137] Memory required for data: 266163456
I0405 12:47:19.002969 18799 layer_factory.hpp:77] Creating layer accuracy
I0405 12:47:19.002976 18799 net.cpp:84] Creating Layer accuracy
I0405 12:47:19.002979 18799 net.cpp:406] accuracy <- fc8_fc8_0_split_0
I0405 12:47:19.002982 18799 net.cpp:406] accuracy <- label_val-data_1_split_0
I0405 12:47:19.002985 18799 net.cpp:380] accuracy -> accuracy
…
