…
I0426 21:23:23.287658 29185 net.cpp:294] The NetState phase (0) differed from the phase (1) specified by a rule in layer accuracy
I0426 21:23:23.287787 29185 net.cpp:51] Initializing net from parameters:
state {
phase: TRAIN
level: 0
stage: ""
}
layer {
name: "train-data"
type: "Data"
top: "data"
top: "label"
include {
phase: TRAIN
}
transform_param {
mirror: true
crop_size: 227
mean_file: "/mnt/bigdisk/DIGITS-MAN-3/digits/jobs/20210421-230320-902c/mean.binaryproto"
}
data_param {
source: "/mnt/bigdisk/DIGITS-MAN-3/digits/jobs/20210421-230320-902c/train_db"
batch_size: 128
backend: LMDB
}
}
layer {
name: "conv1"
type: "Convolution"
bottom: "data"
top: "conv1"
param {
lr_mult: 1
decay_mult: 1
}
param {
lr_mult: 2
decay_mult: 0
}
convolution_param {
num_output: 96
kernel_size: 11
stride: 4
weight_filler {
type: "gaussian"
std: 0.01
}
bias_filler {
type: "constant"
value: 0
}
}
}
layer {
name: "relu1"
type: "ReLU"
bottom: "conv1"
top: "conv1"
}
layer {
name: "norm1"
type: "LRN"
bottom: "conv1"
top: "norm1"
lrn_param {
local_size: 5
alpha: 0.0001
beta: 0.75
}
}
layer {
name: "pool1"
type: "Pooling"
bottom: "norm1"
top: "pool1"
pooling_param {
pool: MAX
kernel_size: 3
stride: 2
}
}
layer {
name: "conv2"
type: "Convolution"
bottom: "pool1"
top: "conv2"
param {
lr_mult: 1
decay_mult: 1
}
param {
lr_mult: 2
decay_mult: 0
}
convolution_param {
num_output: 256
pad: 2
kernel_size: 5
group: 2
weight_filler {
type: "gaussian"
std: 0.01
}
bias_filler {
type: "constant"
value: 0.1
}
}
}
layer {
name: "relu2"
type: "ReLU"
bottom: "conv2"
top: "conv2"
}
layer {
name: "norm2"
type: "LRN"
bottom: "conv2"
top: "norm2"
lrn_param {
local_size: 5
alpha: 0.0001
beta: 0.75
}
}
layer {
name: "pool2"
type: "Pooling"
bottom: "norm2"
top: "pool2"
pooling_param {
pool: MAX
kernel_size: 3
stride: 2
}
}
layer {
name: "conv3"
type: "Convolution"
bottom: "pool2"
top: "conv3"
param {
lr_mult: 1
decay_mult: 1
}
param {
lr_mult: 2
decay_mult: 0
}
convolution_param {
num_output: 384
pad: 1
kernel_size: 3
weight_filler {
type: "gaussian"
std: 0.01
}
bias_filler {
type: "constant"
value: 0
}
}
}
layer {
name: "relu3"
type: "ReLU"
bottom: "conv3"
top: "conv3"
}
layer {
name: "conv4"
type: "Convolution"
bottom: "conv3"
top: "conv4"
param {
lr_mult: 1
decay_mult: 1
}
param {
lr_mult: 2
decay_mult: 0
}
convolution_param {
num_output: 384
pad: 1
kernel_size: 3
group: 2
weight_filler {
type: "gaussian"
std: 0.01
}
bias_filler {
type: "constant"
value: 0.1
}
}
}
layer {
name: "relu4"
type: "ReLU"
bottom: "conv4"
top: "conv4"
}
layer {
name: "conv5"
type: "Convolution"
bottom: "conv4"
top: "conv5"
param {
lr_mult: 1
decay_mult: 1
}
param {
lr_mult: 2
decay_mult: 0
}
convolution_param {
num_output: 256
pad: 1
kernel_size: 9
group: 2
weight_filler {
type: "gaussian"
std: 0.01
}
bias_filler {
type: "constant"
value: 0.1
}
}
}
layer {
name: "relu5"
type: "ReLU"
bottom: "conv5"
top: "conv5"
}
layer {
name: "pool5"
type: "Pooling"
bottom: "conv5"
top: "pool5"
pooling_param {
pool: MAX
kernel_size: 3
stride: 2
}
}
layer {
name: "fc6"
type: "InnerProduct"
bottom: "pool5"
top: "fc6"
param {
lr_mult: 1
decay_mult: 1
}
param {
lr_mult: 2
decay_mult: 0
}
inner_product_param {
num_output: 4096
weight_filler {
type: "gaussian"
std: 0.005
}
bias_filler {
type: "constant"
value: 0.1
}
}
}
layer {
name: "relu6"
type: "ReLU"
bottom: "fc6"
top: "fc6"
}
layer {
name: "drop6"
type: "Dropout"
bottom: "fc6"
top: "fc6"
dropout_param {
dropout_ratio: 0.5
}
}
layer {
name: "fc7"
type: "InnerProduct"
bottom: "fc6"
top: "fc7"
param {
lr_mult: 1
decay_mult: 1
}
param {
lr_mult: 2
decay_mult: 0
}
inner_product_param {
num_output: 4096
weight_filler {
type: "gaussian"
std: 0.005
}
bias_filler {
type: "constant"
value: 0.1
}
}
}
layer {
name: "relu7"
type: "ReLU"
bottom: "fc7"
top: "fc7"
}
layer {
name: "drop7"
type: "Dropout"
bottom: "fc7"
top: "fc7"
dropout_param {
dropout_ratio: 0.5
}
}
layer {
name: "fc8"
type: "InnerProduct"
bottom: "fc7"
top: "fc8"
param {
lr_mult: 1
decay_mult: 1
}
param {
lr_mult: 2
decay_mult: 0
}
inner_product_param {
num_output: 196
weight_filler {
type: "gaussian"
std: 0.01
}
bias_filler {
type: "constant"
value: 0
}
}
}
layer {
name: "loss"
type: "SoftmaxWithLoss"
bottom: "fc8"
bottom: "label"
top: "loss"
}
I0426 21:23:23.287869 29185 layer_factory.hpp:77] Creating layer train-data
I0426 21:23:23.289464 29185 db_lmdb.cpp:35] Opened lmdb /mnt/bigdisk/DIGITS-MAN-3/digits/jobs/20210421-230320-902c/train_db
I0426 21:23:23.289654 29185 net.cpp:84] Creating Layer train-data
I0426 21:23:23.289664 29185 net.cpp:380] train-data -> data
I0426 21:23:23.289682 29185 net.cpp:380] train-data -> label
I0426 21:23:23.289692 29185 data_transformer.cpp:25] Loading mean file from: /mnt/bigdisk/DIGITS-MAN-3/digits/jobs/20210421-230320-902c/mean.binaryproto
I0426 21:23:23.303027 29185 data_layer.cpp:45] output data size: 128,3,227,227
I0426 21:23:23.450606 29185 net.cpp:122] Setting up train-data
I0426 21:23:23.450628 29185 net.cpp:129] Top shape: 128 3 227 227 (19787136)
I0426 21:23:23.450632 29185 net.cpp:129] Top shape: 128 (128)
I0426 21:23:23.450635 29185 net.cpp:137] Memory required for data: 79149056
I0426 21:23:23.450644 29185 layer_factory.hpp:77] Creating layer conv1
I0426 21:23:23.450664 29185 net.cpp:84] Creating Layer conv1
I0426 21:23:23.450670 29185 net.cpp:406] conv1 <- data
I0426 21:23:23.450683 29185 net.cpp:380] conv1 -> conv1
I0426 21:23:24.227113 29185 net.cpp:122] Setting up conv1
I0426 21:23:24.227134 29185 net.cpp:129] Top shape: 128 96 55 55 (37171200)
I0426 21:23:24.227138 29185 net.cpp:137] Memory required for data: 227833856
I0426 21:23:24.227157 29185 layer_factory.hpp:77] Creating layer relu1
I0426 21:23:24.227167 29185 net.cpp:84] Creating Layer relu1
I0426 21:23:24.227171 29185 net.cpp:406] relu1 <- conv1
I0426 21:23:24.227177 29185 net.cpp:367] relu1 -> conv1 (in-place)
I0426 21:23:24.227458 29185 net.cpp:122] Setting up relu1
I0426 21:23:24.227468 29185 net.cpp:129] Top shape: 128 96 55 55 (37171200)
I0426 21:23:24.227470 29185 net.cpp:137] Memory required for data: 376518656
I0426 21:23:24.227474 29185 layer_factory.hpp:77] Creating layer norm1
I0426 21:23:24.227483 29185 net.cpp:84] Creating Layer norm1
I0426 21:23:24.227485 29185 net.cpp:406] norm1 <- conv1
I0426 21:23:24.227512 29185 net.cpp:380] norm1 -> norm1
I0426 21:23:24.227959 29185 net.cpp:122] Setting up norm1
I0426 21:23:24.227969 29185 net.cpp:129] Top shape: 128 96 55 55 (37171200)
I0426 21:23:24.227972 29185 net.cpp:137] Memory required for data: 525203456
I0426 21:23:24.227977 29185 layer_factory.hpp:77] Creating layer pool1
I0426 21:23:24.227983 29185 net.cpp:84] Creating Layer pool1
I0426 21:23:24.227988 29185 net.cpp:406] pool1 <- norm1
I0426 21:23:24.227993 29185 net.cpp:380] pool1 -> pool1
I0426 21:23:24.228027 29185 net.cpp:122] Setting up pool1
I0426 21:23:24.228034 29185 net.cpp:129] Top shape: 128 96 27 27 (8957952)
I0426 21:23:24.228036 29185 net.cpp:137] Memory required for data: 561035264
I0426 21:23:24.228040 29185 layer_factory.hpp:77] Creating layer conv2
I0426 21:23:24.228050 29185 net.cpp:84] Creating Layer conv2
I0426 21:23:24.228055 29185 net.cpp:406] conv2 <- pool1
I0426 21:23:24.228060 29185 net.cpp:380] conv2 -> conv2
I0426 21:23:24.240269 29185 net.cpp:122] Setting up conv2
I0426 21:23:24.240288 29185 net.cpp:129] Top shape: 128 256 27 27 (23887872)
I0426 21:23:24.240293 29185 net.cpp:137] Memory required for data: 656586752
I0426 21:23:24.240304 29185 layer_factory.hpp:77] Creating layer relu2
I0426 21:23:24.240314 29185 net.cpp:84] Creating Layer relu2
I0426 21:23:24.240317 29185 net.cpp:406] relu2 <- conv2
I0426 21:23:24.240324 29185 net.cpp:367] relu2 -> conv2 (in-place)
I0426 21:23:24.240839 29185 net.cpp:122] Setting up relu2
I0426 21:23:24.240849 29185 net.cpp:129] Top shape: 128 256 27 27 (23887872)
I0426 21:23:24.240851 29185 net.cpp:137] Memory required for data: 752138240
I0426 21:23:24.240855 29185 layer_factory.hpp:77] Creating layer norm2
I0426 21:23:24.240864 29185 net.cpp:84] Creating Layer norm2
I0426 21:23:24.240869 29185 net.cpp:406] norm2 <- conv2
I0426 21:23:24.240873 29185 net.cpp:380] norm2 -> norm2
I0426 21:23:24.241233 29185 net.cpp:122] Setting up norm2
I0426 21:23:24.241242 29185 net.cpp:129] Top shape: 128 256 27 27 (23887872)
I0426 21:23:24.241245 29185 net.cpp:137] Memory required for data: 847689728
I0426 21:23:24.241248 29185 layer_factory.hpp:77] Creating layer pool2
I0426 21:23:24.241257 29185 net.cpp:84] Creating Layer pool2
I0426 21:23:24.241261 29185 net.cpp:406] pool2 <- norm2
I0426 21:23:24.241266 29185 net.cpp:380] pool2 -> pool2
I0426 21:23:24.241297 29185 net.cpp:122] Setting up pool2
I0426 21:23:24.241302 29185 net.cpp:129] Top shape: 128 256 13 13 (5537792)
I0426 21:23:24.241304 29185 net.cpp:137] Memory required for data: 869840896
I0426 21:23:24.241307 29185 layer_factory.hpp:77] Creating layer conv3
I0426 21:23:24.241317 29185 net.cpp:84] Creating Layer conv3
I0426 21:23:24.241320 29185 net.cpp:406] conv3 <- pool2
I0426 21:23:24.241328 29185 net.cpp:380] conv3 -> conv3
I0426 21:23:24.256112 29185 net.cpp:122] Setting up conv3
I0426 21:23:24.256130 29185 net.cpp:129] Top shape: 128 384 13 13 (8306688)
I0426 21:23:24.256134 29185 net.cpp:137] Memory required for data: 903067648
I0426 21:23:24.256146 29185 layer_factory.hpp:77] Creating layer relu3
I0426 21:23:24.256155 29185 net.cpp:84] Creating Layer relu3
I0426 21:23:24.256160 29185 net.cpp:406] relu3 <- conv3
I0426 21:23:24.256166 29185 net.cpp:367] relu3 -> conv3 (in-place)
I0426 21:23:24.256681 29185 net.cpp:122] Setting up relu3
I0426 21:23:24.256691 29185 net.cpp:129] Top shape: 128 384 13 13 (8306688)
I0426 21:23:24.256695 29185 net.cpp:137] Memory required for data: 936294400
I0426 21:23:24.256698 29185 layer_factory.hpp:77] Creating layer conv4
I0426 21:23:24.256711 29185 net.cpp:84] Creating Layer conv4
I0426 21:23:24.256714 29185 net.cpp:406] conv4 <- conv3
I0426 21:23:24.256721 29185 net.cpp:380] conv4 -> conv4
I0426 21:23:24.267307 29185 net.cpp:122] Setting up conv4
I0426 21:23:24.267326 29185 net.cpp:129] Top shape: 128 384 13 13 (8306688)
I0426 21:23:24.267329 29185 net.cpp:137] Memory required for data: 969521152
I0426 21:23:24.267338 29185 layer_factory.hpp:77] Creating layer relu4
I0426 21:23:24.267346 29185 net.cpp:84] Creating Layer relu4
I0426 21:23:24.267369 29185 net.cpp:406] relu4 <- conv4
I0426 21:23:24.267375 29185 net.cpp:367] relu4 -> conv4 (in-place)
I0426 21:23:24.267724 29185 net.cpp:122] Setting up relu4
I0426 21:23:24.267733 29185 net.cpp:129] Top shape: 128 384 13 13 (8306688)
I0426 21:23:24.267737 29185 net.cpp:137] Memory required for data: 1002747904
I0426 21:23:24.267740 29185 layer_factory.hpp:77] Creating layer conv5
I0426 21:23:24.267750 29185 net.cpp:84] Creating Layer conv5
I0426 21:23:24.267755 29185 net.cpp:406] conv5 <- conv4
I0426 21:23:24.267760 29185 net.cpp:380] conv5 -> conv5
I0426 21:23:24.309907 29185 net.cpp:122] Setting up conv5
I0426 21:23:24.309926 29185 net.cpp:129] Top shape: 128 256 7 7 (1605632)
I0426 21:23:24.309929 29185 net.cpp:137] Memory required for data: 1009170432
I0426 21:23:24.309942 29185 layer_factory.hpp:77] Creating layer relu5
I0426 21:23:24.309952 29185 net.cpp:84] Creating Layer relu5
I0426 21:23:24.309955 29185 net.cpp:406] relu5 <- conv5
I0426 21:23:24.309962 29185 net.cpp:367] relu5 -> conv5 (in-place)
I0426 21:23:24.310458 29185 net.cpp:122] Setting up relu5
I0426 21:23:24.310469 29185 net.cpp:129] Top shape: 128 256 7 7 (1605632)
I0426 21:23:24.310473 29185 net.cpp:137] Memory required for data: 1015592960
I0426 21:23:24.310477 29185 layer_factory.hpp:77] Creating layer pool5
I0426 21:23:24.310483 29185 net.cpp:84] Creating Layer pool5
I0426 21:23:24.310487 29185 net.cpp:406] pool5 <- conv5
I0426 21:23:24.310493 29185 net.cpp:380] pool5 -> pool5
I0426 21:23:24.310530 29185 net.cpp:122] Setting up pool5
I0426 21:23:24.310536 29185 net.cpp:129] Top shape: 128 256 3 3 (294912)
I0426 21:23:24.310539 29185 net.cpp:137] Memory required for data: 1016772608
I0426 21:23:24.310542 29185 layer_factory.hpp:77] Creating layer fc6
I0426 21:23:24.310554 29185 net.cpp:84] Creating Layer fc6
I0426 21:23:24.310556 29185 net.cpp:406] fc6 <- pool5
I0426 21:23:24.310561 29185 net.cpp:380] fc6 -> fc6
I0426 21:23:24.411818 29185 net.cpp:122] Setting up fc6
I0426 21:23:24.411839 29185 net.cpp:129] Top shape: 128 4096 (524288)
I0426 21:23:24.411844 29185 net.cpp:137] Memory required for data: 1018869760
I0426 21:23:24.411854 29185 layer_factory.hpp:77] Creating layer relu6
I0426 21:23:24.411864 29185 net.cpp:84] Creating Layer relu6
I0426 21:23:24.411868 29185 net.cpp:406] relu6 <- fc6
I0426 21:23:24.411875 29185 net.cpp:367] relu6 -> fc6 (in-place)
I0426 21:23:24.416266 29185 net.cpp:122] Setting up relu6
I0426 21:23:24.416278 29185 net.cpp:129] Top shape: 128 4096 (524288)
I0426 21:23:24.416282 29185 net.cpp:137] Memory required for data: 1020966912
I0426 21:23:24.416287 29185 layer_factory.hpp:77] Creating layer drop6
I0426 21:23:24.416294 29185 net.cpp:84] Creating Layer drop6
I0426 21:23:24.416299 29185 net.cpp:406] drop6 <- fc6
I0426 21:23:24.416306 29185 net.cpp:367] drop6 -> fc6 (in-place)
I0426 21:23:24.416333 29185 net.cpp:122] Setting up drop6
I0426 21:23:24.416342 29185 net.cpp:129] Top shape: 128 4096 (524288)
I0426 21:23:24.416347 29185 net.cpp:137] Memory required for data: 1023064064
I0426 21:23:24.416350 29185 layer_factory.hpp:77] Creating layer fc7
I0426 21:23:24.416358 29185 net.cpp:84] Creating Layer fc7
I0426 21:23:24.416363 29185 net.cpp:406] fc7 <- fc6
I0426 21:23:24.416369 29185 net.cpp:380] fc7 -> fc7
I0426 21:23:24.588057 29185 net.cpp:122] Setting up fc7
I0426 21:23:24.588076 29185 net.cpp:129] Top shape: 128 4096 (524288)
I0426 21:23:24.588080 29185 net.cpp:137] Memory required for data: 1025161216
I0426 21:23:24.588089 29185 layer_factory.hpp:77] Creating layer relu7
I0426 21:23:24.588099 29185 net.cpp:84] Creating Layer relu7
I0426 21:23:24.588104 29185 net.cpp:406] relu7 <- fc7
I0426 21:23:24.588111 29185 net.cpp:367] relu7 -> fc7 (in-place)
I0426 21:23:24.588543 29185 net.cpp:122] Setting up relu7
I0426 21:23:24.588553 29185 net.cpp:129] Top shape: 128 4096 (524288)
I0426 21:23:24.588557 29185 net.cpp:137] Memory required for data: 1027258368
I0426 21:23:24.588560 29185 layer_factory.hpp:77] Creating layer drop7
I0426 21:23:24.588567 29185 net.cpp:84] Creating Layer drop7
I0426 21:23:24.588588 29185 net.cpp:406] drop7 <- fc7
I0426 21:23:24.588593 29185 net.cpp:367] drop7 -> fc7 (in-place)
I0426 21:23:24.588619 29185 net.cpp:122] Setting up drop7
I0426 21:23:24.588624 29185 net.cpp:129] Top shape: 128 4096 (524288)
I0426 21:23:24.588627 29185 net.cpp:137] Memory required for data: 1029355520
I0426 21:23:24.588631 29185 layer_factory.hpp:77] Creating layer fc8
I0426 21:23:24.588639 29185 net.cpp:84] Creating Layer fc8
I0426 21:23:24.588642 29185 net.cpp:406] fc8 <- fc7
I0426 21:23:24.588647 29185 net.cpp:380] fc8 -> fc8
I0426 21:23:24.621132 29185 net.cpp:122] Setting up fc8
I0426 21:23:24.621150 29185 net.cpp:129] Top shape: 128 196 (25088)
I0426 21:23:24.621153 29185 net.cpp:137] Memory required for data: 1029455872
I0426 21:23:24.621162 29185 layer_factory.hpp:77] Creating layer loss
I0426 21:23:24.621171 29185 net.cpp:84] Creating Layer loss
I0426 21:23:24.621176 29185 net.cpp:406] loss <- fc8
I0426 21:23:24.621181 29185 net.cpp:406] loss <- label
I0426 21:23:24.621189 29185 net.cpp:380] loss -> loss
I0426 21:23:24.621201 29185 layer_factory.hpp:77] Creating layer loss
…
I0426 21:23:24.633338 29185 net.cpp:294] The NetState phase (1) differed from the phase (0) specified by a rule in layer train-data
I0426 21:23:24.633476 29185 net.cpp:51] Initializing net from parameters:
state {
phase: TEST
}
layer {
name: "val-data"
type: "Data"
top: "data"
top: "label"
include {
phase: TEST
}
transform_param {
crop_size: 227
mean_file: "/mnt/bigdisk/DIGITS-MAN-3/digits/jobs/20210421-230320-902c/mean.binaryproto"
}
data_param {
source: "/mnt/bigdisk/DIGITS-MAN-3/digits/jobs/20210421-230320-902c/val_db"
batch_size: 32
backend: LMDB
}
}
layer {
name: "conv1"
type: "Convolution"
bottom: "data"
top: "conv1"
param {
lr_mult: 1
decay_mult: 1
}
param {
lr_mult: 2
decay_mult: 0
}
convolution_param {
num_output: 96
kernel_size: 11
stride: 4
weight_filler {
type: "gaussian"
std: 0.01
}
bias_filler {
type: "constant"
value: 0
}
}
}
layer {
name: "relu1"
type: "ReLU"
bottom: "conv1"
top: "conv1"
}
layer {
name: "norm1"
type: "LRN"
bottom: "conv1"
top: "norm1"
lrn_param {
local_size: 5
alpha: 0.0001
beta: 0.75
}
}
layer {
name: "pool1"
type: "Pooling"
bottom: "norm1"
top: "pool1"
pooling_param {
pool: MAX
kernel_size: 3
stride: 2
}
}
layer {
name: "conv2"
type: "Convolution"
bottom: "pool1"
top: "conv2"
param {
lr_mult: 1
decay_mult: 1
}
param {
lr_mult: 2
decay_mult: 0
}
convolution_param {
num_output: 256
pad: 2
kernel_size: 5
group: 2
weight_filler {
type: "gaussian"
std: 0.01
}
bias_filler {
type: "constant"
value: 0.1
}
}
}
layer {
name: "relu2"
type: "ReLU"
bottom: "conv2"
top: "conv2"
}
layer {
name: "norm2"
type: "LRN"
bottom: "conv2"
top: "norm2"
lrn_param {
local_size: 5
alpha: 0.0001
beta: 0.75
}
}
layer {
name: "pool2"
type: "Pooling"
bottom: "norm2"
top: "pool2"
pooling_param {
pool: MAX
kernel_size: 3
stride: 2
}
}
layer {
name: "conv3"
type: "Convolution"
bottom: "pool2"
top: "conv3"
param {
lr_mult: 1
decay_mult: 1
}
param {
lr_mult: 2
decay_mult: 0
}
convolution_param {
num_output: 384
pad: 1
kernel_size: 3
weight_filler {
type: "gaussian"
std: 0.01
}
bias_filler {
type: "constant"
value: 0
}
}
}
layer {
name: "relu3"
type: "ReLU"
bottom: "conv3"
top: "conv3"
}
layer {
name: "conv4"
type: "Convolution"
bottom: "conv3"
top: "conv4"
param {
lr_mult: 1
decay_mult: 1
}
param {
lr_mult: 2
decay_mult: 0
}
convolution_param {
num_output: 384
pad: 1
kernel_size: 3
group: 2
weight_filler {
type: "gaussian"
std: 0.01
}
bias_filler {
type: "constant"
value: 0.1
}
}
}
layer {
name: "relu4"
type: "ReLU"
bottom: "conv4"
top: "conv4"
}
layer {
name: "conv5"
type: "Convolution"
bottom: "conv4"
top: "conv5"
param {
lr_mult: 1
decay_mult: 1
}
param {
lr_mult: 2
decay_mult: 0
}
convolution_param {
num_output: 256
pad: 1
kernel_size: 9
group: 2
weight_filler {
type: "gaussian"
std: 0.01
}
bias_filler {
type: "constant"
value: 0.1
}
}
}
layer {
name: "relu5"
type: "ReLU"
bottom: "conv5"
top: "conv5"
}
layer {
name: "pool5"
type: "Pooling"
bottom: "conv5"
top: "pool5"
pooling_param {
pool: MAX
kernel_size: 3
stride: 2
}
}
layer {
name: "fc6"
type: "InnerProduct"
bottom: "pool5"
top: "fc6"
param {
lr_mult: 1
decay_mult: 1
}
param {
lr_mult: 2
decay_mult: 0
}
inner_product_param {
num_output: 4096
weight_filler {
type: "gaussian"
std: 0.005
}
bias_filler {
type: "constant"
value: 0.1
}
}
}
layer {
name: "relu6"
type: "ReLU"
bottom: "fc6"
top: "fc6"
}
layer {
name: "drop6"
type: "Dropout"
bottom: "fc6"
top: "fc6"
dropout_param {
dropout_ratio: 0.5
}
}
layer {
name: "fc7"
type: "InnerProduct"
bottom: "fc6"
top: "fc7"
param {
lr_mult: 1
decay_mult: 1
}
param {
lr_mult: 2
decay_mult: 0
}
inner_product_param {
num_output: 4096
weight_filler {
type: "gaussian"
std: 0.005
}
bias_filler {
type: "constant"
value: 0.1
}
}
}
layer {
name: "relu7"
type: "ReLU"
bottom: "fc7"
top: "fc7"
}
layer {
name: "drop7"
type: "Dropout"
bottom: "fc7"
top: "fc7"
dropout_param {
dropout_ratio: 0.5
}
}
layer {
name: "fc8"
type: "InnerProduct"
bottom: "fc7"
top: "fc8"
param {
lr_mult: 1
decay_mult: 1
}
param {
lr_mult: 2
decay_mult: 0
}
inner_product_param {
num_output: 196
weight_filler {
type: "gaussian"
std: 0.01
}
bias_filler {
type: "constant"
value: 0
}
}
}
layer {
name: "accuracy"
type: "Accuracy"
bottom: "fc8"
bottom: "label"
top: "accuracy"
include {
phase: TEST
}
}
layer {
name: "loss"
type: "SoftmaxWithLoss"
bottom: "fc8"
bottom: "label"
top: "loss"
}
I0426 21:23:24.633581 29185 layer_factory.hpp:77] Creating layer val-data
I0426 21:23:24.635181 29185 db_lmdb.cpp:35] Opened lmdb /mnt/bigdisk/DIGITS-MAN-3/digits/jobs/20210421-230320-902c/val_db
I0426 21:23:24.635368 29185 net.cpp:84] Creating Layer val-data
I0426 21:23:24.635377 29185 net.cpp:380] val-data -> data
I0426 21:23:24.635385 29185 net.cpp:380] val-data -> label
I0426 21:23:24.635394 29185 data_transformer.cpp:25] Loading mean file from: /mnt/bigdisk/DIGITS-MAN-3/digits/jobs/20210421-230320-902c/mean.binaryproto
I0426 21:23:24.638823 29185 data_layer.cpp:45] output data size: 32,3,227,227
I0426 21:23:24.681620 29185 net.cpp:122] Setting up val-data
I0426 21:23:24.681643 29185 net.cpp:129] Top shape: 32 3 227 227 (4946784)
I0426 21:23:24.681646 29185 net.cpp:129] Top shape: 32 (32)
I0426 21:23:24.681649 29185 net.cpp:137] Memory required for data: 19787264
I0426 21:23:24.681655 29185 layer_factory.hpp:77] Creating layer label_val-data_1_split
I0426 21:23:24.681668 29185 net.cpp:84] Creating Layer label_val-data_1_split
I0426 21:23:24.681671 29185 net.cpp:406] label_val-data_1_split <- label
I0426 21:23:24.681677 29185 net.cpp:380] label_val-data_1_split -> label_val-data_1_split_0
I0426 21:23:24.681686 29185 net.cpp:380] label_val-data_1_split -> label_val-data_1_split_1
I0426 21:23:24.681756 29185 net.cpp:122] Setting up label_val-data_1_split
I0426 21:23:24.681761 29185 net.cpp:129] Top shape: 32 (32)
I0426 21:23:24.681766 29185 net.cpp:129] Top shape: 32 (32)
I0426 21:23:24.681768 29185 net.cpp:137] Memory required for data: 19787520
I0426 21:23:24.681771 29185 layer_factory.hpp:77] Creating layer conv1
I0426 21:23:24.681783 29185 net.cpp:84] Creating Layer conv1
I0426 21:23:24.681787 29185 net.cpp:406] conv1 <- data
I0426 21:23:24.681792 29185 net.cpp:380] conv1 -> conv1
I0426 21:23:24.684582 29185 net.cpp:122] Setting up conv1
I0426 21:23:24.684593 29185 net.cpp:129] Top shape: 32 96 55 55 (9292800)
I0426 21:23:24.684597 29185 net.cpp:137] Memory required for data: 56958720
I0426 21:23:24.684607 29185 layer_factory.hpp:77] Creating layer relu1
I0426 21:23:24.684613 29185 net.cpp:84] Creating Layer relu1
I0426 21:23:24.684617 29185 net.cpp:406] relu1 <- conv1
I0426 21:23:24.684623 29185 net.cpp:367] relu1 -> conv1 (in-place)
I0426 21:23:24.684911 29185 net.cpp:122] Setting up relu1
I0426 21:23:24.684919 29185 net.cpp:129] Top shape: 32 96 55 55 (9292800)
I0426 21:23:24.684922 29185 net.cpp:137] Memory required for data: 94129920
I0426 21:23:24.684926 29185 layer_factory.hpp:77] Creating layer norm1
I0426 21:23:24.684934 29185 net.cpp:84] Creating Layer norm1
I0426 21:23:24.684937 29185 net.cpp:406] norm1 <- conv1
I0426 21:23:24.684942 29185 net.cpp:380] norm1 -> norm1
I0426 21:23:24.685392 29185 net.cpp:122] Setting up norm1
I0426 21:23:24.685402 29185 net.cpp:129] Top shape: 32 96 55 55 (9292800)
I0426 21:23:24.685405 29185 net.cpp:137] Memory required for data: 131301120
I0426 21:23:24.685410 29185 layer_factory.hpp:77] Creating layer pool1
I0426 21:23:24.685415 29185 net.cpp:84] Creating Layer pool1
I0426 21:23:24.685420 29185 net.cpp:406] pool1 <- norm1
I0426 21:23:24.685425 29185 net.cpp:380] pool1 -> pool1
I0426 21:23:24.685454 29185 net.cpp:122] Setting up pool1
I0426 21:23:24.685459 29185 net.cpp:129] Top shape: 32 96 27 27 (2239488)
I0426 21:23:24.685462 29185 net.cpp:137] Memory required for data: 140259072
I0426 21:23:24.685465 29185 layer_factory.hpp:77] Creating layer conv2
I0426 21:23:24.685474 29185 net.cpp:84] Creating Layer conv2
I0426 21:23:24.685477 29185 net.cpp:406] conv2 <- pool1
I0426 21:23:24.685501 29185 net.cpp:380] conv2 -> conv2
I0426 21:23:24.692975 29185 net.cpp:122] Setting up conv2
I0426 21:23:24.692991 29185 net.cpp:129] Top shape: 32 256 27 27 (5971968)
I0426 21:23:24.692996 29185 net.cpp:137] Memory required for data: 164146944
I0426 21:23:24.693007 29185 layer_factory.hpp:77] Creating layer relu2
I0426 21:23:24.693015 29185 net.cpp:84] Creating Layer relu2
I0426 21:23:24.693019 29185 net.cpp:406] relu2 <- conv2
I0426 21:23:24.693025 29185 net.cpp:367] relu2 -> conv2 (in-place)
I0426 21:23:24.693537 29185 net.cpp:122] Setting up relu2
I0426 21:23:24.693547 29185 net.cpp:129] Top shape: 32 256 27 27 (5971968)
I0426 21:23:24.693550 29185 net.cpp:137] Memory required for data: 188034816
I0426 21:23:24.693554 29185 layer_factory.hpp:77] Creating layer norm2
I0426 21:23:24.693564 29185 net.cpp:84] Creating Layer norm2
I0426 21:23:24.693568 29185 net.cpp:406] norm2 <- conv2
I0426 21:23:24.693573 29185 net.cpp:380] norm2 -> norm2
I0426 21:23:24.694095 29185 net.cpp:122] Setting up norm2
I0426 21:23:24.694105 29185 net.cpp:129] Top shape: 32 256 27 27 (5971968)
I0426 21:23:24.694108 29185 net.cpp:137] Memory required for data: 211922688
I0426 21:23:24.694113 29185 layer_factory.hpp:77] Creating layer pool2
I0426 21:23:24.694118 29185 net.cpp:84] Creating Layer pool2
I0426 21:23:24.694123 29185 net.cpp:406] pool2 <- norm2
I0426 21:23:24.694128 29185 net.cpp:380] pool2 -> pool2
I0426 21:23:24.694160 29185 net.cpp:122] Setting up pool2
I0426 21:23:24.694165 29185 net.cpp:129] Top shape: 32 256 13 13 (1384448)
I0426 21:23:24.694169 29185 net.cpp:137] Memory required for data: 217460480
I0426 21:23:24.694172 29185 layer_factory.hpp:77] Creating layer conv3
I0426 21:23:24.694183 29185 net.cpp:84] Creating Layer conv3
I0426 21:23:24.694186 29185 net.cpp:406] conv3 <- pool2
I0426 21:23:24.694191 29185 net.cpp:380] conv3 -> conv3
I0426 21:23:24.705529 29185 net.cpp:122] Setting up conv3
I0426 21:23:24.705549 29185 net.cpp:129] Top shape: 32 384 13 13 (2076672)
I0426 21:23:24.705554 29185 net.cpp:137] Memory required for data: 225767168
I0426 21:23:24.705565 29185 layer_factory.hpp:77] Creating layer relu3
I0426 21:23:24.705574 29185 net.cpp:84] Creating Layer relu3
I0426 21:23:24.705579 29185 net.cpp:406] relu3 <- conv3
I0426 21:23:24.705585 29185 net.cpp:367] relu3 -> conv3 (in-place)
I0426 21:23:24.706104 29185 net.cpp:122] Setting up relu3
I0426 21:23:24.706112 29185 net.cpp:129] Top shape: 32 384 13 13 (2076672)
I0426 21:23:24.706116 29185 net.cpp:137] Memory required for data: 234073856
I0426 21:23:24.706120 29185 layer_factory.hpp:77] Creating layer conv4
I0426 21:23:24.706131 29185 net.cpp:84] Creating Layer conv4
I0426 21:23:24.706135 29185 net.cpp:406] conv4 <- conv3
I0426 21:23:24.706142 29185 net.cpp:380] conv4 -> conv4
I0426 21:23:24.715742 29185 net.cpp:122] Setting up conv4
I0426 21:23:24.715761 29185 net.cpp:129] Top shape: 32 384 13 13 (2076672)
I0426 21:23:24.715765 29185 net.cpp:137] Memory required for data: 242380544
I0426 21:23:24.715775 29185 layer_factory.hpp:77] Creating layer relu4
I0426 21:23:24.715783 29185 net.cpp:84] Creating Layer relu4
I0426 21:23:24.715787 29185 net.cpp:406] relu4 <- conv4
I0426 21:23:24.715795 29185 net.cpp:367] relu4 -> conv4 (in-place)
I0426 21:23:24.716145 29185 net.cpp:122] Setting up relu4
I0426 21:23:24.716156 29185 net.cpp:129] Top shape: 32 384 13 13 (2076672)
I0426 21:23:24.716158 29185 net.cpp:137] Memory required for data: 250687232
I0426 21:23:24.716162 29185 layer_factory.hpp:77] Creating layer conv5
I0426 21:23:24.716173 29185 net.cpp:84] Creating Layer conv5
I0426 21:23:24.716176 29185 net.cpp:406] conv5 <- conv4
I0426 21:23:24.716182 29185 net.cpp:380] conv5 -> conv5
I0426 21:23:24.759708 29185 net.cpp:122] Setting up conv5
I0426 21:23:24.759728 29185 net.cpp:129] Top shape: 32 256 7 7 (401408)
I0426 21:23:24.759732 29185 net.cpp:137] Memory required for data: 252292864
I0426 21:23:24.759747 29185 layer_factory.hpp:77] Creating layer relu5
I0426 21:23:24.759755 29185 net.cpp:84] Creating Layer relu5
I0426 21:23:24.759759 29185 net.cpp:406] relu5 <- conv5
I0426 21:23:24.759788 29185 net.cpp:367] relu5 -> conv5 (in-place)
I0426 21:23:24.760426 29185 net.cpp:122] Setting up relu5
I0426 21:23:24.760439 29185 net.cpp:129] Top shape: 32 256 7 7 (401408)
I0426 21:23:24.760442 29185 net.cpp:137] Memory required for data: 253898496
I0426 21:23:24.760447 29185 layer_factory.hpp:77] Creating layer pool5
I0426 21:23:24.760457 29185 net.cpp:84] Creating Layer pool5
I0426 21:23:24.760459 29185 net.cpp:406] pool5 <- conv5
I0426 21:23:24.760465 29185 net.cpp:380] pool5 -> pool5
I0426 21:23:24.760524 29185 net.cpp:122] Setting up pool5
I0426 21:23:24.760531 29185 net.cpp:129] Top shape: 32 256 3 3 (73728)
I0426 21:23:24.760535 29185 net.cpp:137] Memory required for data: 254193408
I0426 21:23:24.760537 29185 layer_factory.hpp:77] Creating layer fc6
I0426 21:23:24.760545 29185 net.cpp:84] Creating Layer fc6
I0426 21:23:24.760548 29185 net.cpp:406] fc6 <- pool5
I0426 21:23:24.760555 29185 net.cpp:380] fc6 -> fc6
I0426 21:23:24.862903 29185 net.cpp:122] Setting up fc6
I0426 21:23:24.862921 29185 net.cpp:129] Top shape: 32 4096 (131072)
I0426 21:23:24.862926 29185 net.cpp:137] Memory required for data: 254717696
I0426 21:23:24.862934 29185 layer_factory.hpp:77] Creating layer relu6
I0426 21:23:24.862943 29185 net.cpp:84] Creating Layer relu6
I0426 21:23:24.862947 29185 net.cpp:406] relu6 <- fc6
I0426 21:23:24.862954 29185 net.cpp:367] relu6 -> fc6 (in-place)
I0426 21:23:24.870591 29185 net.cpp:122] Setting up relu6
I0426 21:23:24.870607 29185 net.cpp:129] Top shape: 32 4096 (131072)
I0426 21:23:24.870611 29185 net.cpp:137] Memory required for data: 255241984
I0426 21:23:24.870616 29185 layer_factory.hpp:77] Creating layer drop6
I0426 21:23:24.870626 29185 net.cpp:84] Creating Layer drop6
I0426 21:23:24.870630 29185 net.cpp:406] drop6 <- fc6
I0426 21:23:24.870638 29185 net.cpp:367] drop6 -> fc6 (in-place)
I0426 21:23:24.870667 29185 net.cpp:122] Setting up drop6
I0426 21:23:24.870672 29185 net.cpp:129] Top shape: 32 4096 (131072)
I0426 21:23:24.870676 29185 net.cpp:137] Memory required for data: 255766272
I0426 21:23:24.870679 29185 layer_factory.hpp:77] Creating layer fc7
I0426 21:23:24.870692 29185 net.cpp:84] Creating Layer fc7
I0426 21:23:24.870697 29185 net.cpp:406] fc7 <- fc6
I0426 21:23:24.870702 29185 net.cpp:380] fc7 -> fc7
I0426 21:23:25.035331 29185 net.cpp:122] Setting up fc7
I0426 21:23:25.035353 29185 net.cpp:129] Top shape: 32 4096 (131072)
I0426 21:23:25.035357 29185 net.cpp:137] Memory required for data: 256290560
I0426 21:23:25.035367 29185 layer_factory.hpp:77] Creating layer relu7
I0426 21:23:25.035377 29185 net.cpp:84] Creating Layer relu7
I0426 21:23:25.035382 29185 net.cpp:406] relu7 <- fc7
I0426 21:23:25.035389 29185 net.cpp:367] relu7 -> fc7 (in-place)
I0426 21:23:25.035816 29185 net.cpp:122] Setting up relu7
I0426 21:23:25.035826 29185 net.cpp:129] Top shape: 32 4096 (131072)
I0426 21:23:25.035830 29185 net.cpp:137] Memory required for data: 256814848
I0426 21:23:25.035833 29185 layer_factory.hpp:77] Creating layer drop7
I0426 21:23:25.035840 29185 net.cpp:84] Creating Layer drop7
I0426 21:23:25.035843 29185 net.cpp:406] drop7 <- fc7
I0426 21:23:25.035848 29185 net.cpp:367] drop7 -> fc7 (in-place)
I0426 21:23:25.035873 29185 net.cpp:122] Setting up drop7
I0426 21:23:25.035878 29185 net.cpp:129] Top shape: 32 4096 (131072)
I0426 21:23:25.035881 29185 net.cpp:137] Memory required for data: 257339136
I0426 21:23:25.035884 29185 layer_factory.hpp:77] Creating layer fc8
I0426 21:23:25.035892 29185 net.cpp:84] Creating Layer fc8
I0426 21:23:25.035895 29185 net.cpp:406] fc8 <- fc7
I0426 21:23:25.035900 29185 net.cpp:380] fc8 -> fc8
I0426 21:23:25.074645 29185 net.cpp:122] Setting up fc8
I0426 21:23:25.074668 29185 net.cpp:129] Top shape: 32 196 (6272)
I0426 21:23:25.074673 29185 net.cpp:137] Memory required for data: 257364224
I0426 21:23:25.074687 29185 layer_factory.hpp:77] Creating layer fc8_fc8_0_split
I0426 21:23:25.074697 29185 net.cpp:84] Creating Layer fc8_fc8_0_split
I0426 21:23:25.074704 29185 net.cpp:406] fc8_fc8_0_split <- fc8
I0426 21:23:25.074739 29185 net.cpp:380] fc8_fc8_0_split -> fc8_fc8_0_split_0
I0426 21:23:25.074753 29185 net.cpp:380] fc8_fc8_0_split -> fc8_fc8_0_split_1
I0426 21:23:25.074811 29185 net.cpp:122] Setting up fc8_fc8_0_split
I0426 21:23:25.074820 29185 net.cpp:129] Top shape: 32 196 (6272)
I0426 21:23:25.074824 29185 net.cpp:129] Top shape: 32 196 (6272)
I0426 21:23:25.074829 29185 net.cpp:137] Memory required for data: 257414400
I0426 21:23:25.074833 29185 layer_factory.hpp:77] Creating layer accuracy
I0426 21:23:25.074842 29185 net.cpp:84] Creating Layer accuracy
I0426 21:23:25.074847 29185 net.cpp:406] accuracy <- fc8_fc8_0_split_0
I0426 21:23:25.074854 29185 net.cpp:406] accuracy <- label_val-data_1_split_0
I0426 21:23:25.074862 29185 net.cpp:380] accuracy -> accuracy
…
