…
I0427 19:57:37.128123 10084 net.cpp:294] The NetState phase (0) differed from the phase (1) specified by a rule in layer accuracy
I0427 19:57:37.128263 10084 net.cpp:51] Initializing net from parameters:
state {
phase: TRAIN
level: 0
stage: ""
}
layer {
name: "train-data"
type: "Data"
top: "data"
top: "label"
include {
phase: TRAIN
}
transform_param {
mirror: true
crop_size: 227
mean_file: "/mnt/bigdisk/DIGITS-MAN-3/digits/jobs/20210427-191332-871e/mean.binaryproto"
}
data_param {
source: "/mnt/bigdisk/DIGITS-MAN-3/digits/jobs/20210427-191332-871e/train_db"
batch_size: 256
backend: LMDB
}
}
layer {
name: "conv1"
type: "Convolution"
bottom: "data"
top: "conv1"
param {
lr_mult: 1
decay_mult: 1
}
param {
lr_mult: 2
decay_mult: 0
}
convolution_param {
num_output: 96
kernel_size: 11
stride: 4
weight_filler {
type: "gaussian"
std: 0.01
}
bias_filler {
type: "constant"
value: 0
}
}
}
layer {
name: "relu1"
type: "ReLU"
bottom: "conv1"
top: "conv1"
}
layer {
name: "norm1"
type: "LRN"
bottom: "conv1"
top: "norm1"
lrn_param {
local_size: 5
alpha: 0.0001
beta: 0.75
}
}
layer {
name: "pool1"
type: "Pooling"
bottom: "norm1"
top: "pool1"
pooling_param {
pool: MAX
kernel_size: 3
stride: 2
}
}
layer {
name: "conv2"
type: "Convolution"
bottom: "pool1"
top: "conv2"
param {
lr_mult: 1
decay_mult: 1
}
param {
lr_mult: 2
decay_mult: 0
}
convolution_param {
num_output: 256
pad: 2
kernel_size: 5
group: 2
weight_filler {
type: "gaussian"
std: 0.01
}
bias_filler {
type: "constant"
value: 0.1
}
}
}
layer {
name: "relu2"
type: "ReLU"
bottom: "conv2"
top: "conv2"
}
layer {
name: "norm2"
type: "LRN"
bottom: "conv2"
top: "norm2"
lrn_param {
local_size: 5
alpha: 0.0001
beta: 0.75
}
}
layer {
name: "pool2"
type: "Pooling"
bottom: "norm2"
top: "pool2"
pooling_param {
pool: MAX
kernel_size: 3
stride: 2
}
}
layer {
name: "conv3"
type: "Convolution"
bottom: "pool2"
top: "conv3"
param {
lr_mult: 1
decay_mult: 1
}
param {
lr_mult: 2
decay_mult: 0
}
convolution_param {
num_output: 384
pad: 1
kernel_size: 3
weight_filler {
type: "gaussian"
std: 0.01
}
bias_filler {
type: "constant"
value: 0
}
}
}
layer {
name: "relu3"
type: "ReLU"
bottom: "conv3"
top: "conv3"
}
layer {
name: "conv4"
type: "Convolution"
bottom: "conv3"
top: "conv4"
param {
lr_mult: 1
decay_mult: 1
}
param {
lr_mult: 2
decay_mult: 0
}
convolution_param {
num_output: 384
pad: 1
kernel_size: 3
group: 2
weight_filler {
type: "gaussian"
std: 0.01
}
bias_filler {
type: "constant"
value: 0.1
}
}
}
layer {
name: "relu4"
type: "ReLU"
bottom: "conv4"
top: "conv4"
}
layer {
name: "conv5"
type: "Convolution"
bottom: "conv4"
top: "conv5"
param {
lr_mult: 1
decay_mult: 1
}
param {
lr_mult: 2
decay_mult: 0
}
convolution_param {
num_output: 256
pad: 1
kernel_size: 3
group: 2
weight_filler {
type: "gaussian"
std: 0.01
}
bias_filler {
type: "constant"
value: 0.1
}
}
}
layer {
name: "relu5"
type: "ReLU"
bottom: "conv5"
top: "conv5"
}
layer {
name: "pool5"
type: "Pooling"
bottom: "conv5"
top: "pool5"
pooling_param {
pool: MAX
kernel_size: 3
stride: 2
}
}
layer {
name: "fc6"
type: "InnerProduct"
bottom: "pool5"
top: "fc6"
param {
lr_mult: 1
decay_mult: 1
}
param {
lr_mult: 2
decay_mult: 0
}
inner_product_param {
num_output: 4096
weight_filler {
type: "gaussian"
std: 0.005
}
bias_filler {
type: "constant"
value: 0.1
}
}
}
layer {
name: "relu6"
type: "ReLU"
bottom: "fc6"
top: "fc6"
}
layer {
name: "drop6"
type: "Dropout"
bottom: "fc6"
top: "fc6"
dropout_param {
dropout_ratio: 0.5
}
}
layer {
name: "fc7"
type: "InnerProduct"
bottom: "fc6"
top: "fc7"
param {
lr_mult: 1
decay_mult: 1
}
param {
lr_mult: 2
decay_mult: 0
}
inner_product_param {
num_output: 4096
weight_filler {
type: "gaussian"
std: 0.005
}
bias_filler {
type: "constant"
value: 0.1
}
}
}
layer {
name: "relu7"
type: "ReLU"
bottom: "fc7"
top: "fc7"
}
layer {
name: "drop7"
type: "Dropout"
bottom: "fc7"
top: "fc7"
dropout_param {
dropout_ratio: 0.5
}
}
layer {
name: "fc8"
type: "InnerProduct"
bottom: "fc7"
top: "fc8"
param {
lr_mult: 1
decay_mult: 1
}
param {
lr_mult: 2
decay_mult: 0
}
inner_product_param {
num_output: 196
weight_filler {
type: "gaussian"
std: 0.01
}
bias_filler {
type: "constant"
value: 0
}
}
}
layer {
name: "loss"
type: "SoftmaxWithLoss"
bottom: "fc8"
bottom: "label"
top: "loss"
}
I0427 19:57:37.128355 10084 layer_factory.hpp:77] Creating layer train-data
I0427 19:57:37.130522 10084 db_lmdb.cpp:35] Opened lmdb /mnt/bigdisk/DIGITS-MAN-3/digits/jobs/20210427-191332-871e/train_db
I0427 19:57:37.130726 10084 net.cpp:84] Creating Layer train-data
I0427 19:57:37.130738 10084 net.cpp:380] train-data -> data
I0427 19:57:37.130759 10084 net.cpp:380] train-data -> label
I0427 19:57:37.130769 10084 data_transformer.cpp:25] Loading mean file from: /mnt/bigdisk/DIGITS-MAN-3/digits/jobs/20210427-191332-871e/mean.binaryproto
I0427 19:57:37.135468 10084 data_layer.cpp:45] output data size: 256,3,227,227
I0427 19:57:37.443141 10084 net.cpp:122] Setting up train-data
I0427 19:57:37.443169 10084 net.cpp:129] Top shape: 256 3 227 227 (39574272)
I0427 19:57:37.443177 10084 net.cpp:129] Top shape: 256 (256)
I0427 19:57:37.443182 10084 net.cpp:137] Memory required for data: 158298112
I0427 19:57:37.443193 10084 layer_factory.hpp:77] Creating layer conv1
I0427 19:57:37.443219 10084 net.cpp:84] Creating Layer conv1
I0427 19:57:37.443226 10084 net.cpp:406] conv1 <- data
I0427 19:57:37.443241 10084 net.cpp:380] conv1 -> conv1
I0427 19:57:38.103114 10084 net.cpp:122] Setting up conv1
I0427 19:57:38.103140 10084 net.cpp:129] Top shape: 256 96 55 55 (74342400)
I0427 19:57:38.103144 10084 net.cpp:137] Memory required for data: 455667712
I0427 19:57:38.103165 10084 layer_factory.hpp:77] Creating layer relu1
I0427 19:57:38.103178 10084 net.cpp:84] Creating Layer relu1
I0427 19:57:38.103184 10084 net.cpp:406] relu1 <- conv1
I0427 19:57:38.103190 10084 net.cpp:367] relu1 -> conv1 (in-place)
I0427 19:57:38.103487 10084 net.cpp:122] Setting up relu1
I0427 19:57:38.103497 10084 net.cpp:129] Top shape: 256 96 55 55 (74342400)
I0427 19:57:38.103500 10084 net.cpp:137] Memory required for data: 753037312
I0427 19:57:38.103504 10084 layer_factory.hpp:77] Creating layer norm1
I0427 19:57:38.103514 10084 net.cpp:84] Creating Layer norm1
I0427 19:57:38.103518 10084 net.cpp:406] norm1 <- conv1
I0427 19:57:38.103544 10084 net.cpp:380] norm1 -> norm1
I0427 19:57:38.103997 10084 net.cpp:122] Setting up norm1
I0427 19:57:38.104007 10084 net.cpp:129] Top shape: 256 96 55 55 (74342400)
I0427 19:57:38.104012 10084 net.cpp:137] Memory required for data: 1050406912
I0427 19:57:38.104017 10084 layer_factory.hpp:77] Creating layer pool1
I0427 19:57:38.104025 10084 net.cpp:84] Creating Layer pool1
I0427 19:57:38.104029 10084 net.cpp:406] pool1 <- norm1
I0427 19:57:38.104034 10084 net.cpp:380] pool1 -> pool1
I0427 19:57:38.104070 10084 net.cpp:122] Setting up pool1
I0427 19:57:38.104076 10084 net.cpp:129] Top shape: 256 96 27 27 (17915904)
I0427 19:57:38.104080 10084 net.cpp:137] Memory required for data: 1122070528
I0427 19:57:38.104084 10084 layer_factory.hpp:77] Creating layer conv2
I0427 19:57:38.104094 10084 net.cpp:84] Creating Layer conv2
I0427 19:57:38.104099 10084 net.cpp:406] conv2 <- pool1
I0427 19:57:38.104104 10084 net.cpp:380] conv2 -> conv2
I0427 19:57:38.113421 10084 net.cpp:122] Setting up conv2
I0427 19:57:38.113440 10084 net.cpp:129] Top shape: 256 256 27 27 (47775744)
I0427 19:57:38.113443 10084 net.cpp:137] Memory required for data: 1313173504
I0427 19:57:38.113454 10084 layer_factory.hpp:77] Creating layer relu2
I0427 19:57:38.113464 10084 net.cpp:84] Creating Layer relu2
I0427 19:57:38.113469 10084 net.cpp:406] relu2 <- conv2
I0427 19:57:38.113476 10084 net.cpp:367] relu2 -> conv2 (in-place)
I0427 19:57:38.113960 10084 net.cpp:122] Setting up relu2
I0427 19:57:38.113968 10084 net.cpp:129] Top shape: 256 256 27 27 (47775744)
I0427 19:57:38.113971 10084 net.cpp:137] Memory required for data: 1504276480
I0427 19:57:38.113976 10084 layer_factory.hpp:77] Creating layer norm2
I0427 19:57:38.113983 10084 net.cpp:84] Creating Layer norm2
I0427 19:57:38.113987 10084 net.cpp:406] norm2 <- conv2
I0427 19:57:38.113992 10084 net.cpp:380] norm2 -> norm2
I0427 19:57:38.114348 10084 net.cpp:122] Setting up norm2
I0427 19:57:38.114356 10084 net.cpp:129] Top shape: 256 256 27 27 (47775744)
I0427 19:57:38.114360 10084 net.cpp:137] Memory required for data: 1695379456
I0427 19:57:38.114363 10084 layer_factory.hpp:77] Creating layer pool2
I0427 19:57:38.114372 10084 net.cpp:84] Creating Layer pool2
I0427 19:57:38.114377 10084 net.cpp:406] pool2 <- norm2
I0427 19:57:38.114382 10084 net.cpp:380] pool2 -> pool2
I0427 19:57:38.114410 10084 net.cpp:122] Setting up pool2
I0427 19:57:38.114415 10084 net.cpp:129] Top shape: 256 256 13 13 (11075584)
I0427 19:57:38.114418 10084 net.cpp:137] Memory required for data: 1739681792
I0427 19:57:38.114421 10084 layer_factory.hpp:77] Creating layer conv3
I0427 19:57:38.114431 10084 net.cpp:84] Creating Layer conv3
I0427 19:57:38.114434 10084 net.cpp:406] conv3 <- pool2
I0427 19:57:38.114440 10084 net.cpp:380] conv3 -> conv3
I0427 19:57:38.129783 10084 net.cpp:122] Setting up conv3
I0427 19:57:38.129801 10084 net.cpp:129] Top shape: 256 384 13 13 (16613376)
I0427 19:57:38.129806 10084 net.cpp:137] Memory required for data: 1806135296
I0427 19:57:38.129818 10084 layer_factory.hpp:77] Creating layer relu3
I0427 19:57:38.129828 10084 net.cpp:84] Creating Layer relu3
I0427 19:57:38.129833 10084 net.cpp:406] relu3 <- conv3
I0427 19:57:38.129839 10084 net.cpp:367] relu3 -> conv3 (in-place)
I0427 19:57:38.130331 10084 net.cpp:122] Setting up relu3
I0427 19:57:38.130340 10084 net.cpp:129] Top shape: 256 384 13 13 (16613376)
I0427 19:57:38.130345 10084 net.cpp:137] Memory required for data: 1872588800
I0427 19:57:38.130349 10084 layer_factory.hpp:77] Creating layer conv4
I0427 19:57:38.130360 10084 net.cpp:84] Creating Layer conv4
I0427 19:57:38.130364 10084 net.cpp:406] conv4 <- conv3
I0427 19:57:38.130371 10084 net.cpp:380] conv4 -> conv4
I0427 19:57:38.141168 10084 net.cpp:122] Setting up conv4
I0427 19:57:38.141186 10084 net.cpp:129] Top shape: 256 384 13 13 (16613376)
I0427 19:57:38.141191 10084 net.cpp:137] Memory required for data: 1939042304
I0427 19:57:38.141201 10084 layer_factory.hpp:77] Creating layer relu4
I0427 19:57:38.141209 10084 net.cpp:84] Creating Layer relu4
I0427 19:57:38.141232 10084 net.cpp:406] relu4 <- conv4
I0427 19:57:38.141240 10084 net.cpp:367] relu4 -> conv4 (in-place)
I0427 19:57:38.141583 10084 net.cpp:122] Setting up relu4
I0427 19:57:38.141592 10084 net.cpp:129] Top shape: 256 384 13 13 (16613376)
I0427 19:57:38.141597 10084 net.cpp:137] Memory required for data: 2005495808
I0427 19:57:38.141599 10084 layer_factory.hpp:77] Creating layer conv5
I0427 19:57:38.141611 10084 net.cpp:84] Creating Layer conv5
I0427 19:57:38.141615 10084 net.cpp:406] conv5 <- conv4
I0427 19:57:38.141621 10084 net.cpp:380] conv5 -> conv5
I0427 19:57:38.152279 10084 net.cpp:122] Setting up conv5
I0427 19:57:38.152297 10084 net.cpp:129] Top shape: 256 256 13 13 (11075584)
I0427 19:57:38.152302 10084 net.cpp:137] Memory required for data: 2049798144
I0427 19:57:38.152314 10084 layer_factory.hpp:77] Creating layer relu5
I0427 19:57:38.152323 10084 net.cpp:84] Creating Layer relu5
I0427 19:57:38.152328 10084 net.cpp:406] relu5 <- conv5
I0427 19:57:38.152335 10084 net.cpp:367] relu5 -> conv5 (in-place)
I0427 19:57:38.153024 10084 net.cpp:122] Setting up relu5
I0427 19:57:38.153035 10084 net.cpp:129] Top shape: 256 256 13 13 (11075584)
I0427 19:57:38.153038 10084 net.cpp:137] Memory required for data: 2094100480
I0427 19:57:38.153043 10084 layer_factory.hpp:77] Creating layer pool5
I0427 19:57:38.153049 10084 net.cpp:84] Creating Layer pool5
I0427 19:57:38.153053 10084 net.cpp:406] pool5 <- conv5
I0427 19:57:38.153060 10084 net.cpp:380] pool5 -> pool5
I0427 19:57:38.153100 10084 net.cpp:122] Setting up pool5
I0427 19:57:38.153107 10084 net.cpp:129] Top shape: 256 256 6 6 (2359296)
I0427 19:57:38.153110 10084 net.cpp:137] Memory required for data: 2103537664
I0427 19:57:38.153115 10084 layer_factory.hpp:77] Creating layer fc6
I0427 19:57:38.153126 10084 net.cpp:84] Creating Layer fc6
I0427 19:57:38.153129 10084 net.cpp:406] fc6 <- pool5
I0427 19:57:38.153134 10084 net.cpp:380] fc6 -> fc6
I0427 19:57:38.554839 10084 net.cpp:122] Setting up fc6
I0427 19:57:38.554860 10084 net.cpp:129] Top shape: 256 4096 (1048576)
I0427 19:57:38.554865 10084 net.cpp:137] Memory required for data: 2107731968
I0427 19:57:38.554875 10084 layer_factory.hpp:77] Creating layer relu6
I0427 19:57:38.554885 10084 net.cpp:84] Creating Layer relu6
I0427 19:57:38.554890 10084 net.cpp:406] relu6 <- fc6
I0427 19:57:38.554898 10084 net.cpp:367] relu6 -> fc6 (in-place)
I0427 19:57:38.604125 10084 net.cpp:122] Setting up relu6
I0427 19:57:38.604146 10084 net.cpp:129] Top shape: 256 4096 (1048576)
I0427 19:57:38.604149 10084 net.cpp:137] Memory required for data: 2111926272
I0427 19:57:38.604156 10084 layer_factory.hpp:77] Creating layer drop6
I0427 19:57:38.604166 10084 net.cpp:84] Creating Layer drop6
I0427 19:57:38.604171 10084 net.cpp:406] drop6 <- fc6
I0427 19:57:38.604177 10084 net.cpp:367] drop6 -> fc6 (in-place)
I0427 19:57:38.604215 10084 net.cpp:122] Setting up drop6
I0427 19:57:38.604220 10084 net.cpp:129] Top shape: 256 4096 (1048576)
I0427 19:57:38.604224 10084 net.cpp:137] Memory required for data: 2116120576
I0427 19:57:38.604228 10084 layer_factory.hpp:77] Creating layer fc7
I0427 19:57:38.604238 10084 net.cpp:84] Creating Layer fc7
I0427 19:57:38.604241 10084 net.cpp:406] fc7 <- fc6
I0427 19:57:38.604246 10084 net.cpp:380] fc7 -> fc7
I0427 19:57:38.830811 10084 net.cpp:122] Setting up fc7
I0427 19:57:38.830829 10084 net.cpp:129] Top shape: 256 4096 (1048576)
I0427 19:57:38.830833 10084 net.cpp:137] Memory required for data: 2120314880
I0427 19:57:38.830842 10084 layer_factory.hpp:77] Creating layer relu7
I0427 19:57:38.830852 10084 net.cpp:84] Creating Layer relu7
I0427 19:57:38.830855 10084 net.cpp:406] relu7 <- fc7
I0427 19:57:38.830862 10084 net.cpp:367] relu7 -> fc7 (in-place)
I0427 19:57:38.850188 10084 net.cpp:122] Setting up relu7
I0427 19:57:38.850206 10084 net.cpp:129] Top shape: 256 4096 (1048576)
I0427 19:57:38.850210 10084 net.cpp:137] Memory required for data: 2124509184
I0427 19:57:38.850216 10084 layer_factory.hpp:77] Creating layer drop7
I0427 19:57:38.850226 10084 net.cpp:84] Creating Layer drop7
I0427 19:57:38.850251 10084 net.cpp:406] drop7 <- fc7
I0427 19:57:38.850260 10084 net.cpp:367] drop7 -> fc7 (in-place)
I0427 19:57:38.850306 10084 net.cpp:122] Setting up drop7
I0427 19:57:38.850311 10084 net.cpp:129] Top shape: 256 4096 (1048576)
I0427 19:57:38.850313 10084 net.cpp:137] Memory required for data: 2128703488
I0427 19:57:38.850317 10084 layer_factory.hpp:77] Creating layer fc8
I0427 19:57:38.850324 10084 net.cpp:84] Creating Layer fc8
I0427 19:57:38.850327 10084 net.cpp:406] fc8 <- fc7
I0427 19:57:38.850334 10084 net.cpp:380] fc8 -> fc8
I0427 19:57:38.862216 10084 net.cpp:122] Setting up fc8
I0427 19:57:38.862238 10084 net.cpp:129] Top shape: 256 196 (50176)
I0427 19:57:38.862243 10084 net.cpp:137] Memory required for data: 2128904192
I0427 19:57:38.862254 10084 layer_factory.hpp:77] Creating layer loss
I0427 19:57:38.862265 10084 net.cpp:84] Creating Layer loss
I0427 19:57:38.862272 10084 net.cpp:406] loss <- fc8
I0427 19:57:38.862278 10084 net.cpp:406] loss <- label
I0427 19:57:38.862287 10084 net.cpp:380] loss -> loss
I0427 19:57:38.862301 10084 layer_factory.hpp:77] Creating layer loss
…
I0427 19:57:38.864305 10084 net.cpp:294] The NetState phase (1) differed from the phase (0) specified by a rule in layer train-data
I0427 19:57:38.864535 10084 net.cpp:51] Initializing net from parameters:
state {
phase: TEST
}
layer {
name: "val-data"
type: "Data"
top: "data"
top: "label"
include {
phase: TEST
}
transform_param {
crop_size: 227
mean_file: "/mnt/bigdisk/DIGITS-MAN-3/digits/jobs/20210427-191332-871e/mean.binaryproto"
}
data_param {
source: "/mnt/bigdisk/DIGITS-MAN-3/digits/jobs/20210427-191332-871e/val_db"
batch_size: 256
backend: LMDB
}
}
layer {
name: "conv1"
type: "Convolution"
bottom: "data"
top: "conv1"
param {
lr_mult: 1
decay_mult: 1
}
param {
lr_mult: 2
decay_mult: 0
}
convolution_param {
num_output: 96
kernel_size: 11
stride: 4
weight_filler {
type: "gaussian"
std: 0.01
}
bias_filler {
type: "constant"
value: 0
}
}
}
layer {
name: "relu1"
type: "ReLU"
bottom: "conv1"
top: "conv1"
}
layer {
name: "norm1"
type: "LRN"
bottom: "conv1"
top: "norm1"
lrn_param {
local_size: 5
alpha: 0.0001
beta: 0.75
}
}
layer {
name: "pool1"
type: "Pooling"
bottom: "norm1"
top: "pool1"
pooling_param {
pool: MAX
kernel_size: 3
stride: 2
}
}
layer {
name: "conv2"
type: "Convolution"
bottom: "pool1"
top: "conv2"
param {
lr_mult: 1
decay_mult: 1
}
param {
lr_mult: 2
decay_mult: 0
}
convolution_param {
num_output: 256
pad: 2
kernel_size: 5
group: 2
weight_filler {
type: "gaussian"
std: 0.01
}
bias_filler {
type: "constant"
value: 0.1
}
}
}
layer {
name: "relu2"
type: "ReLU"
bottom: "conv2"
top: "conv2"
}
layer {
name: "norm2"
type: "LRN"
bottom: "conv2"
top: "norm2"
lrn_param {
local_size: 5
alpha: 0.0001
beta: 0.75
}
}
layer {
name: "pool2"
type: "Pooling"
bottom: "norm2"
top: "pool2"
pooling_param {
pool: MAX
kernel_size: 3
stride: 2
}
}
layer {
name: "conv3"
type: "Convolution"
bottom: "pool2"
top: "conv3"
param {
lr_mult: 1
decay_mult: 1
}
param {
lr_mult: 2
decay_mult: 0
}
convolution_param {
num_output: 384
pad: 1
kernel_size: 3
weight_filler {
type: "gaussian"
std: 0.01
}
bias_filler {
type: "constant"
value: 0
}
}
}
layer {
name: "relu3"
type: "ReLU"
bottom: "conv3"
top: "conv3"
}
layer {
name: "conv4"
type: "Convolution"
bottom: "conv3"
top: "conv4"
param {
lr_mult: 1
decay_mult: 1
}
param {
lr_mult: 2
decay_mult: 0
}
convolution_param {
num_output: 384
pad: 1
kernel_size: 3
group: 2
weight_filler {
type: "gaussian"
std: 0.01
}
bias_filler {
type: "constant"
value: 0.1
}
}
}
layer {
name: "relu4"
type: "ReLU"
bottom: "conv4"
top: "conv4"
}
layer {
name: "conv5"
type: "Convolution"
bottom: "conv4"
top: "conv5"
param {
lr_mult: 1
decay_mult: 1
}
param {
lr_mult: 2
decay_mult: 0
}
convolution_param {
num_output: 256
pad: 1
kernel_size: 3
group: 2
weight_filler {
type: "gaussian"
std: 0.01
}
bias_filler {
type: "constant"
value: 0.1
}
}
}
layer {
name: "relu5"
type: "ReLU"
bottom: "conv5"
top: "conv5"
}
layer {
name: "pool5"
type: "Pooling"
bottom: "conv5"
top: "pool5"
pooling_param {
pool: MAX
kernel_size: 3
stride: 2
}
}
layer {
name: "fc6"
type: "InnerProduct"
bottom: "pool5"
top: "fc6"
param {
lr_mult: 1
decay_mult: 1
}
param {
lr_mult: 2
decay_mult: 0
}
inner_product_param {
num_output: 4096
weight_filler {
type: "gaussian"
std: 0.005
}
bias_filler {
type: "constant"
value: 0.1
}
}
}
layer {
name: "relu6"
type: "ReLU"
bottom: "fc6"
top: "fc6"
}
layer {
name: "drop6"
type: "Dropout"
bottom: "fc6"
top: "fc6"
dropout_param {
dropout_ratio: 0.5
}
}
layer {
name: "fc7"
type: "InnerProduct"
bottom: "fc6"
top: "fc7"
param {
lr_mult: 1
decay_mult: 1
}
param {
lr_mult: 2
decay_mult: 0
}
inner_product_param {
num_output: 4096
weight_filler {
type: "gaussian"
std: 0.005
}
bias_filler {
type: "constant"
value: 0.1
}
}
}
layer {
name: "relu7"
type: "ReLU"
bottom: "fc7"
top: "fc7"
}
layer {
name: "drop7"
type: "Dropout"
bottom: "fc7"
top: "fc7"
dropout_param {
dropout_ratio: 0.5
}
}
layer {
name: "fc8"
type: "InnerProduct"
bottom: "fc7"
top: "fc8"
param {
lr_mult: 1
decay_mult: 1
}
param {
lr_mult: 2
decay_mult: 0
}
inner_product_param {
num_output: 196
weight_filler {
type: "gaussian"
std: 0.01
}
bias_filler {
type: "constant"
value: 0
}
}
}
layer {
name: "accuracy"
type: "Accuracy"
bottom: "fc8"
bottom: "label"
top: "accuracy"
include {
phase: TEST
}
}
layer {
name: "loss"
type: "SoftmaxWithLoss"
bottom: "fc8"
bottom: "label"
top: "loss"
}
I0427 19:57:38.864698 10084 layer_factory.hpp:77] Creating layer val-data
I0427 19:57:38.869976 10084 db_lmdb.cpp:35] Opened lmdb /mnt/bigdisk/DIGITS-MAN-3/digits/jobs/20210427-191332-871e/val_db
I0427 19:57:38.870149 10084 net.cpp:84] Creating Layer val-data
I0427 19:57:38.870164 10084 net.cpp:380] val-data -> data
I0427 19:57:38.870177 10084 net.cpp:380] val-data -> label
I0427 19:57:38.870187 10084 data_transformer.cpp:25] Loading mean file from: /mnt/bigdisk/DIGITS-MAN-3/digits/jobs/20210427-191332-871e/mean.binaryproto
I0427 19:57:38.875371 10084 data_layer.cpp:45] output data size: 256,3,227,227
I0427 19:57:39.198814 10084 net.cpp:122] Setting up val-data
I0427 19:57:39.198835 10084 net.cpp:129] Top shape: 256 3 227 227 (39574272)
I0427 19:57:39.198839 10084 net.cpp:129] Top shape: 256 (256)
I0427 19:57:39.198843 10084 net.cpp:137] Memory required for data: 158298112
I0427 19:57:39.198849 10084 layer_factory.hpp:77] Creating layer label_val-data_1_split
I0427 19:57:39.198861 10084 net.cpp:84] Creating Layer label_val-data_1_split
I0427 19:57:39.198865 10084 net.cpp:406] label_val-data_1_split <- label
I0427 19:57:39.198871 10084 net.cpp:380] label_val-data_1_split -> label_val-data_1_split_0
I0427 19:57:39.198880 10084 net.cpp:380] label_val-data_1_split -> label_val-data_1_split_1
I0427 19:57:39.198935 10084 net.cpp:122] Setting up label_val-data_1_split
I0427 19:57:39.198940 10084 net.cpp:129] Top shape: 256 (256)
I0427 19:57:39.198943 10084 net.cpp:129] Top shape: 256 (256)
I0427 19:57:39.198946 10084 net.cpp:137] Memory required for data: 158300160
I0427 19:57:39.198951 10084 layer_factory.hpp:77] Creating layer conv1
I0427 19:57:39.198961 10084 net.cpp:84] Creating Layer conv1
I0427 19:57:39.198964 10084 net.cpp:406] conv1 <- data
I0427 19:57:39.198971 10084 net.cpp:380] conv1 -> conv1
I0427 19:57:39.201166 10084 net.cpp:122] Setting up conv1
I0427 19:57:39.201179 10084 net.cpp:129] Top shape: 256 96 55 55 (74342400)
I0427 19:57:39.201182 10084 net.cpp:137] Memory required for data: 455669760
I0427 19:57:39.201191 10084 layer_factory.hpp:77] Creating layer relu1
I0427 19:57:39.201198 10084 net.cpp:84] Creating Layer relu1
I0427 19:57:39.201202 10084 net.cpp:406] relu1 <- conv1
I0427 19:57:39.201206 10084 net.cpp:367] relu1 -> conv1 (in-place)
I0427 19:57:39.201493 10084 net.cpp:122] Setting up relu1
I0427 19:57:39.201500 10084 net.cpp:129] Top shape: 256 96 55 55 (74342400)
I0427 19:57:39.201503 10084 net.cpp:137] Memory required for data: 753039360
I0427 19:57:39.201508 10084 layer_factory.hpp:77] Creating layer norm1
I0427 19:57:39.201515 10084 net.cpp:84] Creating Layer norm1
I0427 19:57:39.201519 10084 net.cpp:406] norm1 <- conv1
I0427 19:57:39.201524 10084 net.cpp:380] norm1 -> norm1
I0427 19:57:39.201974 10084 net.cpp:122] Setting up norm1
I0427 19:57:39.201983 10084 net.cpp:129] Top shape: 256 96 55 55 (74342400)
I0427 19:57:39.201987 10084 net.cpp:137] Memory required for data: 1050408960
I0427 19:57:39.201990 10084 layer_factory.hpp:77] Creating layer pool1
I0427 19:57:39.201997 10084 net.cpp:84] Creating Layer pool1
I0427 19:57:39.202001 10084 net.cpp:406] pool1 <- norm1
I0427 19:57:39.202006 10084 net.cpp:380] pool1 -> pool1
I0427 19:57:39.202034 10084 net.cpp:122] Setting up pool1
I0427 19:57:39.202039 10084 net.cpp:129] Top shape: 256 96 27 27 (17915904)
I0427 19:57:39.202042 10084 net.cpp:137] Memory required for data: 1122072576
I0427 19:57:39.202046 10084 layer_factory.hpp:77] Creating layer conv2
I0427 19:57:39.202054 10084 net.cpp:84] Creating Layer conv2
I0427 19:57:39.202086 10084 net.cpp:406] conv2 <- pool1
I0427 19:57:39.202093 10084 net.cpp:380] conv2 -> conv2
I0427 19:57:39.221088 10084 net.cpp:122] Setting up conv2
I0427 19:57:39.221108 10084 net.cpp:129] Top shape: 256 256 27 27 (47775744)
I0427 19:57:39.221112 10084 net.cpp:137] Memory required for data: 1313175552
I0427 19:57:39.221125 10084 layer_factory.hpp:77] Creating layer relu2
I0427 19:57:39.221134 10084 net.cpp:84] Creating Layer relu2
I0427 19:57:39.221138 10084 net.cpp:406] relu2 <- conv2
I0427 19:57:39.221146 10084 net.cpp:367] relu2 -> conv2 (in-place)
I0427 19:57:39.221732 10084 net.cpp:122] Setting up relu2
I0427 19:57:39.221742 10084 net.cpp:129] Top shape: 256 256 27 27 (47775744)
I0427 19:57:39.221745 10084 net.cpp:137] Memory required for data: 1504278528
I0427 19:57:39.221750 10084 layer_factory.hpp:77] Creating layer norm2
I0427 19:57:39.221760 10084 net.cpp:84] Creating Layer norm2
I0427 19:57:39.221763 10084 net.cpp:406] norm2 <- conv2
I0427 19:57:39.221771 10084 net.cpp:380] norm2 -> norm2
I0427 19:57:39.222360 10084 net.cpp:122] Setting up norm2
I0427 19:57:39.222370 10084 net.cpp:129] Top shape: 256 256 27 27 (47775744)
I0427 19:57:39.222374 10084 net.cpp:137] Memory required for data: 1695381504
I0427 19:57:39.222378 10084 layer_factory.hpp:77] Creating layer pool2
I0427 19:57:39.222384 10084 net.cpp:84] Creating Layer pool2
I0427 19:57:39.222388 10084 net.cpp:406] pool2 <- norm2
I0427 19:57:39.222394 10084 net.cpp:380] pool2 -> pool2
I0427 19:57:39.222425 10084 net.cpp:122] Setting up pool2
I0427 19:57:39.222430 10084 net.cpp:129] Top shape: 256 256 13 13 (11075584)
I0427 19:57:39.222434 10084 net.cpp:137] Memory required for data: 1739683840
I0427 19:57:39.222436 10084 layer_factory.hpp:77] Creating layer conv3
I0427 19:57:39.222448 10084 net.cpp:84] Creating Layer conv3
I0427 19:57:39.222452 10084 net.cpp:406] conv3 <- pool2
I0427 19:57:39.222457 10084 net.cpp:380] conv3 -> conv3
I0427 19:57:39.234916 10084 net.cpp:122] Setting up conv3
I0427 19:57:39.234936 10084 net.cpp:129] Top shape: 256 384 13 13 (16613376)
I0427 19:57:39.234941 10084 net.cpp:137] Memory required for data: 1806137344
I0427 19:57:39.234954 10084 layer_factory.hpp:77] Creating layer relu3
I0427 19:57:39.234963 10084 net.cpp:84] Creating Layer relu3
I0427 19:57:39.234967 10084 net.cpp:406] relu3 <- conv3
I0427 19:57:39.234974 10084 net.cpp:367] relu3 -> conv3 (in-place)
I0427 19:57:39.235507 10084 net.cpp:122] Setting up relu3
I0427 19:57:39.235517 10084 net.cpp:129] Top shape: 256 384 13 13 (16613376)
I0427 19:57:39.235520 10084 net.cpp:137] Memory required for data: 1872590848
I0427 19:57:39.235524 10084 layer_factory.hpp:77] Creating layer conv4
I0427 19:57:39.235536 10084 net.cpp:84] Creating Layer conv4
I0427 19:57:39.235540 10084 net.cpp:406] conv4 <- conv3
I0427 19:57:39.235548 10084 net.cpp:380] conv4 -> conv4
I0427 19:57:39.246809 10084 net.cpp:122] Setting up conv4
I0427 19:57:39.246827 10084 net.cpp:129] Top shape: 256 384 13 13 (16613376)
I0427 19:57:39.246831 10084 net.cpp:137] Memory required for data: 1939044352
I0427 19:57:39.246840 10084 layer_factory.hpp:77] Creating layer relu4
I0427 19:57:39.246850 10084 net.cpp:84] Creating Layer relu4
I0427 19:57:39.246855 10084 net.cpp:406] relu4 <- conv4
I0427 19:57:39.246861 10084 net.cpp:367] relu4 -> conv4 (in-place)
I0427 19:57:39.247206 10084 net.cpp:122] Setting up relu4
I0427 19:57:39.247215 10084 net.cpp:129] Top shape: 256 384 13 13 (16613376)
I0427 19:57:39.247217 10084 net.cpp:137] Memory required for data: 2005497856
I0427 19:57:39.247221 10084 layer_factory.hpp:77] Creating layer conv5
I0427 19:57:39.247234 10084 net.cpp:84] Creating Layer conv5
I0427 19:57:39.247238 10084 net.cpp:406] conv5 <- conv4
I0427 19:57:39.247246 10084 net.cpp:380] conv5 -> conv5
I0427 19:57:39.262377 10084 net.cpp:122] Setting up conv5
I0427 19:57:39.262395 10084 net.cpp:129] Top shape: 256 256 13 13 (11075584)
I0427 19:57:39.262399 10084 net.cpp:137] Memory required for data: 2049800192
I0427 19:57:39.262414 10084 layer_factory.hpp:77] Creating layer relu5
I0427 19:57:39.262441 10084 net.cpp:84] Creating Layer relu5
I0427 19:57:39.262447 10084 net.cpp:406] relu5 <- conv5
I0427 19:57:39.262454 10084 net.cpp:367] relu5 -> conv5 (in-place)
I0427 19:57:39.263130 10084 net.cpp:122] Setting up relu5
I0427 19:57:39.263142 10084 net.cpp:129] Top shape: 256 256 13 13 (11075584)
I0427 19:57:39.263146 10084 net.cpp:137] Memory required for data: 2094102528
I0427 19:57:39.263150 10084 layer_factory.hpp:77] Creating layer pool5
I0427 19:57:39.263161 10084 net.cpp:84] Creating Layer pool5
I0427 19:57:39.263166 10084 net.cpp:406] pool5 <- conv5
I0427 19:57:39.263171 10084 net.cpp:380] pool5 -> pool5
I0427 19:57:39.263213 10084 net.cpp:122] Setting up pool5
I0427 19:57:39.263218 10084 net.cpp:129] Top shape: 256 256 6 6 (2359296)
I0427 19:57:39.263223 10084 net.cpp:137] Memory required for data: 2103539712
I0427 19:57:39.263226 10084 layer_factory.hpp:77] Creating layer fc6
I0427 19:57:39.263236 10084 net.cpp:84] Creating Layer fc6
I0427 19:57:39.263239 10084 net.cpp:406] fc6 <- pool5
I0427 19:57:39.263245 10084 net.cpp:380] fc6 -> fc6
I0427 19:57:39.635486 10084 net.cpp:122] Setting up fc6
I0427 19:57:39.635506 10084 net.cpp:129] Top shape: 256 4096 (1048576)
I0427 19:57:39.635510 10084 net.cpp:137] Memory required for data: 2107734016
I0427 19:57:39.635519 10084 layer_factory.hpp:77] Creating layer relu6
I0427 19:57:39.635530 10084 net.cpp:84] Creating Layer relu6
I0427 19:57:39.635535 10084 net.cpp:406] relu6 <- fc6
I0427 19:57:39.635545 10084 net.cpp:367] relu6 -> fc6 (in-place)
I0427 19:57:39.636376 10084 net.cpp:122] Setting up relu6
I0427 19:57:39.636385 10084 net.cpp:129] Top shape: 256 4096 (1048576)
I0427 19:57:39.636389 10084 net.cpp:137] Memory required for data: 2111928320
I0427 19:57:39.636394 10084 layer_factory.hpp:77] Creating layer drop6
I0427 19:57:39.636401 10084 net.cpp:84] Creating Layer drop6
I0427 19:57:39.636405 10084 net.cpp:406] drop6 <- fc6
I0427 19:57:39.636410 10084 net.cpp:367] drop6 -> fc6 (in-place)
I0427 19:57:39.636437 10084 net.cpp:122] Setting up drop6
I0427 19:57:39.636442 10084 net.cpp:129] Top shape: 256 4096 (1048576)
I0427 19:57:39.636446 10084 net.cpp:137] Memory required for data: 2116122624
I0427 19:57:39.636449 10084 layer_factory.hpp:77] Creating layer fc7
I0427 19:57:39.636456 10084 net.cpp:84] Creating Layer fc7
I0427 19:57:39.636459 10084 net.cpp:406] fc7 <- fc6
I0427 19:57:39.636466 10084 net.cpp:380] fc7 -> fc7
I0427 19:57:39.806007 10084 net.cpp:122] Setting up fc7
I0427 19:57:39.806031 10084 net.cpp:129] Top shape: 256 4096 (1048576)
I0427 19:57:39.806035 10084 net.cpp:137] Memory required for data: 2120316928
I0427 19:57:39.806044 10084 layer_factory.hpp:77] Creating layer relu7
I0427 19:57:39.806054 10084 net.cpp:84] Creating Layer relu7
I0427 19:57:39.806059 10084 net.cpp:406] relu7 <- fc7
I0427 19:57:39.806066 10084 net.cpp:367] relu7 -> fc7 (in-place)
I0427 19:57:39.806484 10084 net.cpp:122] Setting up relu7
I0427 19:57:39.806493 10084 net.cpp:129] Top shape: 256 4096 (1048576)
I0427 19:57:39.806497 10084 net.cpp:137] Memory required for data: 2124511232
I0427 19:57:39.806501 10084 layer_factory.hpp:77] Creating layer drop7
I0427 19:57:39.806509 10084 net.cpp:84] Creating Layer drop7
I0427 19:57:39.806512 10084 net.cpp:406] drop7 <- fc7
I0427 19:57:39.806517 10084 net.cpp:367] drop7 -> fc7 (in-place)
I0427 19:57:39.806542 10084 net.cpp:122] Setting up drop7
I0427 19:57:39.806548 10084 net.cpp:129] Top shape: 256 4096 (1048576)
I0427 19:57:39.806551 10084 net.cpp:137] Memory required for data: 2128705536
I0427 19:57:39.806555 10084 layer_factory.hpp:77] Creating layer fc8
I0427 19:57:39.806562 10084 net.cpp:84] Creating Layer fc8
I0427 19:57:39.806566 10084 net.cpp:406] fc8 <- fc7
I0427 19:57:39.806571 10084 net.cpp:380] fc8 -> fc8
I0427 19:57:39.827014 10084 net.cpp:122] Setting up fc8
I0427 19:57:39.827033 10084 net.cpp:129] Top shape: 256 196 (50176)
I0427 19:57:39.827037 10084 net.cpp:137] Memory required for data: 2128906240
I0427 19:57:39.827047 10084 layer_factory.hpp:77] Creating layer fc8_fc8_0_split
I0427 19:57:39.827057 10084 net.cpp:84] Creating Layer fc8_fc8_0_split
I0427 19:57:39.827080 10084 net.cpp:406] fc8_fc8_0_split <- fc8
I0427 19:57:39.827087 10084 net.cpp:380] fc8_fc8_0_split -> fc8_fc8_0_split_0
I0427 19:57:39.827096 10084 net.cpp:380] fc8_fc8_0_split -> fc8_fc8_0_split_1
I0427 19:57:39.827131 10084 net.cpp:122] Setting up fc8_fc8_0_split
I0427 19:57:39.827137 10084 net.cpp:129] Top shape: 256 196 (50176)
I0427 19:57:39.827140 10084 net.cpp:129] Top shape: 256 196 (50176)
I0427 19:57:39.827143 10084 net.cpp:137] Memory required for data: 2129307648
I0427 19:57:39.827147 10084 layer_factory.hpp:77] Creating layer accuracy
I0427 19:57:39.827155 10084 net.cpp:84] Creating Layer accuracy
I0427 19:57:39.827159 10084 net.cpp:406] accuracy <- fc8_fc8_0_split_0
I0427 19:57:39.827164 10084 net.cpp:406] accuracy <- label_val-data_1_split_0
I0427 19:57:39.827170 10084 net.cpp:380] accuracy -> accuracy
…
