…
I0407 09:40:51.819350 17183 net.cpp:294] The NetState phase (0) differed from the phase (1) specified by a rule in layer accuracy
I0407 09:40:51.819473 17183 net.cpp:51] Initializing net from parameters:
state {
phase: TRAIN
level: 0
stage: ""
}
layer {
name: "train-data"
type: "Data"
top: "data"
top: "label"
include {
phase: TRAIN
}
transform_param {
mirror: true
crop_size: 227
mean_file: "/mnt/bigdisk/DIGITS-AIN-3/digits/jobs/20210401-115716-aaf7/mean.binaryproto"
}
data_param {
source: "/mnt/bigdisk/DIGITS-AIN-3/digits/jobs/20210401-115716-aaf7/train_db"
batch_size: 128
backend: LMDB
}
}
layer {
name: "conv1"
type: "Convolution"
bottom: "data"
top: "conv1"
param {
lr_mult: 1
decay_mult: 1
}
param {
lr_mult: 2
decay_mult: 0
}
convolution_param {
num_output: 96
kernel_size: 11
stride: 4
weight_filler {
type: "gaussian"
std: 0.01
}
bias_filler {
type: "constant"
value: 0
}
}
}
layer {
name: "relu1"
type: "ReLU"
bottom: "conv1"
top: "conv1"
}
layer {
name: "norm1"
type: "LRN"
bottom: "conv1"
top: "norm1"
lrn_param {
local_size: 5
alpha: 0.0001
beta: 0.75
}
}
layer {
name: "pool1"
type: "Pooling"
bottom: "norm1"
top: "pool1"
pooling_param {
pool: MAX
kernel_size: 3
stride: 2
}
}
layer {
name: "conv2"
type: "Convolution"
bottom: "pool1"
top: "conv2"
param {
lr_mult: 1
decay_mult: 1
}
param {
lr_mult: 2
decay_mult: 0
}
convolution_param {
num_output: 256
pad: 2
kernel_size: 5
group: 2
weight_filler {
type: "gaussian"
std: 0.01
}
bias_filler {
type: "constant"
value: 0.1
}
}
}
layer {
name: "relu2"
type: "ReLU"
bottom: "conv2"
top: "conv2"
}
layer {
name: "norm2"
type: "LRN"
bottom: "conv2"
top: "norm2"
lrn_param {
local_size: 5
alpha: 0.0001
beta: 0.75
}
}
layer {
name: "pool2"
type: "Pooling"
bottom: "norm2"
top: "pool2"
pooling_param {
pool: MAX
kernel_size: 3
stride: 2
}
}
layer {
name: "conv3"
type: "Convolution"
bottom: "pool2"
top: "conv3"
param {
lr_mult: 1
decay_mult: 1
}
param {
lr_mult: 2
decay_mult: 0
}
convolution_param {
num_output: 384
pad: 1
kernel_size: 3
weight_filler {
type: "gaussian"
std: 0.01
}
bias_filler {
type: "constant"
value: 0
}
}
}
layer {
name: "relu3"
type: "ReLU"
bottom: "conv3"
top: "conv3"
}
layer {
name: "conv4"
type: "Convolution"
bottom: "conv3"
top: "conv4"
param {
lr_mult: 1
decay_mult: 1
}
param {
lr_mult: 2
decay_mult: 0
}
convolution_param {
num_output: 384
pad: 1
kernel_size: 3
group: 2
weight_filler {
type: "gaussian"
std: 0.01
}
bias_filler {
type: "constant"
value: 0.1
}
}
}
layer {
name: "relu4"
type: "ReLU"
bottom: "conv4"
top: "conv4"
}
layer {
name: "conv5"
type: "Convolution"
bottom: "conv4"
top: "conv5"
param {
lr_mult: 1
decay_mult: 1
}
param {
lr_mult: 2
decay_mult: 0
}
convolution_param {
num_output: 256
pad: 1
kernel_size: 3
group: 2
weight_filler {
type: "gaussian"
std: 0.01
}
bias_filler {
type: "constant"
value: 0.1
}
}
}
layer {
name: "relu5"
type: "ReLU"
bottom: "conv5"
top: "conv5"
}
layer {
name: "pool5"
type: "Pooling"
bottom: "conv5"
top: "pool5"
pooling_param {
pool: MAX
kernel_size: 3
stride: 2
}
}
layer {
name: "fc6"
type: "InnerProduct"
bottom: "pool5"
top: "fc6"
param {
lr_mult: 1
decay_mult: 1
}
param {
lr_mult: 2
decay_mult: 0
}
inner_product_param {
num_output: 4096
weight_filler {
type: "gaussian"
std: 0.005
}
bias_filler {
type: "constant"
value: 0.1
}
}
}
layer {
name: "relu6"
type: "ReLU"
bottom: "fc6"
top: "fc6"
}
layer {
name: "drop6"
type: "Dropout"
bottom: "fc6"
top: "fc6"
dropout_param {
dropout_ratio: 0.5
}
}
layer {
name: "fc7"
type: "InnerProduct"
bottom: "fc6"
top: "fc7"
param {
lr_mult: 1
decay_mult: 1
}
param {
lr_mult: 2
decay_mult: 0
}
inner_product_param {
num_output: 4096
weight_filler {
type: "gaussian"
std: 0.005
}
bias_filler {
type: "constant"
value: 0.1
}
}
}
layer {
name: "relu7"
type: "ReLU"
bottom: "fc7"
top: "fc7"
}
layer {
name: "drop7"
type: "Dropout"
bottom: "fc7"
top: "fc7"
dropout_param {
dropout_ratio: 0.5
}
}
layer {
name: "fc8"
type: "InnerProduct"
bottom: "fc7"
top: "fc8"
param {
lr_mult: 1
decay_mult: 1
}
param {
lr_mult: 2
decay_mult: 0
}
inner_product_param {
num_output: 196
weight_filler {
type: "gaussian"
std: 0.01
}
bias_filler {
type: "constant"
value: 0
}
}
}
layer {
name: "loss"
type: "SoftmaxWithLoss"
bottom: "fc8"
bottom: "label"
top: "loss"
}
I0407 09:40:51.819552 17183 layer_factory.hpp:77] Creating layer train-data
I0407 09:40:51.822512 17183 db_lmdb.cpp:35] Opened lmdb /mnt/bigdisk/DIGITS-AIN-3/digits/jobs/20210401-115716-aaf7/train_db
I0407 09:40:51.822808 17183 net.cpp:84] Creating Layer train-data
I0407 09:40:51.822826 17183 net.cpp:380] train-data -> data
I0407 09:40:51.822854 17183 net.cpp:380] train-data -> label
I0407 09:40:51.822870 17183 data_transformer.cpp:25] Loading mean file from: /mnt/bigdisk/DIGITS-AIN-3/digits/jobs/20210401-115716-aaf7/mean.binaryproto
I0407 09:40:51.828150 17183 data_layer.cpp:45] output data size: 128,3,227,227
I0407 09:40:51.950438 17183 net.cpp:122] Setting up train-data
I0407 09:40:51.950459 17183 net.cpp:129] Top shape: 128 3 227 227 (19787136)
I0407 09:40:51.950464 17183 net.cpp:129] Top shape: 128 (128)
I0407 09:40:51.950465 17183 net.cpp:137] Memory required for data: 79149056
I0407 09:40:51.950472 17183 layer_factory.hpp:77] Creating layer conv1
I0407 09:40:51.950490 17183 net.cpp:84] Creating Layer conv1
I0407 09:40:51.950495 17183 net.cpp:406] conv1 <- data
I0407 09:40:51.950505 17183 net.cpp:380] conv1 -> conv1
I0407 09:40:52.410439 17183 net.cpp:122] Setting up conv1
I0407 09:40:52.410459 17183 net.cpp:129] Top shape: 128 96 55 55 (37171200)
I0407 09:40:52.410461 17183 net.cpp:137] Memory required for data: 227833856
I0407 09:40:52.410480 17183 layer_factory.hpp:77] Creating layer relu1
I0407 09:40:52.410490 17183 net.cpp:84] Creating Layer relu1
I0407 09:40:52.410492 17183 net.cpp:406] relu1 <- conv1
I0407 09:40:52.410497 17183 net.cpp:367] relu1 -> conv1 (in-place)
I0407 09:40:52.410756 17183 net.cpp:122] Setting up relu1
I0407 09:40:52.410763 17183 net.cpp:129] Top shape: 128 96 55 55 (37171200)
I0407 09:40:52.410765 17183 net.cpp:137] Memory required for data: 376518656
I0407 09:40:52.410768 17183 layer_factory.hpp:77] Creating layer norm1
I0407 09:40:52.410775 17183 net.cpp:84] Creating Layer norm1
I0407 09:40:52.410801 17183 net.cpp:406] norm1 <- conv1
I0407 09:40:52.410806 17183 net.cpp:380] norm1 -> norm1
I0407 09:40:52.412657 17183 net.cpp:122] Setting up norm1
I0407 09:40:52.412665 17183 net.cpp:129] Top shape: 128 96 55 55 (37171200)
I0407 09:40:52.412668 17183 net.cpp:137] Memory required for data: 525203456
I0407 09:40:52.412670 17183 layer_factory.hpp:77] Creating layer pool1
I0407 09:40:52.412678 17183 net.cpp:84] Creating Layer pool1
I0407 09:40:52.412679 17183 net.cpp:406] pool1 <- norm1
I0407 09:40:52.412684 17183 net.cpp:380] pool1 -> pool1
I0407 09:40:52.412719 17183 net.cpp:122] Setting up pool1
I0407 09:40:52.412727 17183 net.cpp:129] Top shape: 128 96 27 27 (8957952)
I0407 09:40:52.412730 17183 net.cpp:137] Memory required for data: 561035264
I0407 09:40:52.412734 17183 layer_factory.hpp:77] Creating layer conv2
I0407 09:40:52.412745 17183 net.cpp:84] Creating Layer conv2
I0407 09:40:52.412750 17183 net.cpp:406] conv2 <- pool1
I0407 09:40:52.412755 17183 net.cpp:380] conv2 -> conv2
I0407 09:40:52.420058 17183 net.cpp:122] Setting up conv2
I0407 09:40:52.420078 17183 net.cpp:129] Top shape: 128 256 27 27 (23887872)
I0407 09:40:52.420080 17183 net.cpp:137] Memory required for data: 656586752
I0407 09:40:52.420090 17183 layer_factory.hpp:77] Creating layer relu2
I0407 09:40:52.420100 17183 net.cpp:84] Creating Layer relu2
I0407 09:40:52.420104 17183 net.cpp:406] relu2 <- conv2
I0407 09:40:52.420109 17183 net.cpp:367] relu2 -> conv2 (in-place)
I0407 09:40:52.420578 17183 net.cpp:122] Setting up relu2
I0407 09:40:52.420586 17183 net.cpp:129] Top shape: 128 256 27 27 (23887872)
I0407 09:40:52.420588 17183 net.cpp:137] Memory required for data: 752138240
I0407 09:40:52.420591 17183 layer_factory.hpp:77] Creating layer norm2
I0407 09:40:52.420598 17183 net.cpp:84] Creating Layer norm2
I0407 09:40:52.420600 17183 net.cpp:406] norm2 <- conv2
I0407 09:40:52.420605 17183 net.cpp:380] norm2 -> norm2
I0407 09:40:52.420943 17183 net.cpp:122] Setting up norm2
I0407 09:40:52.420950 17183 net.cpp:129] Top shape: 128 256 27 27 (23887872)
I0407 09:40:52.420953 17183 net.cpp:137] Memory required for data: 847689728
I0407 09:40:52.420954 17183 layer_factory.hpp:77] Creating layer pool2
I0407 09:40:52.420962 17183 net.cpp:84] Creating Layer pool2
I0407 09:40:52.420965 17183 net.cpp:406] pool2 <- norm2
I0407 09:40:52.420969 17183 net.cpp:380] pool2 -> pool2
I0407 09:40:52.421000 17183 net.cpp:122] Setting up pool2
I0407 09:40:52.421003 17183 net.cpp:129] Top shape: 128 256 13 13 (5537792)
I0407 09:40:52.421005 17183 net.cpp:137] Memory required for data: 869840896
I0407 09:40:52.421007 17183 layer_factory.hpp:77] Creating layer conv3
I0407 09:40:52.421016 17183 net.cpp:84] Creating Layer conv3
I0407 09:40:52.421018 17183 net.cpp:406] conv3 <- pool2
I0407 09:40:52.421023 17183 net.cpp:380] conv3 -> conv3
I0407 09:40:52.434401 17183 net.cpp:122] Setting up conv3
I0407 09:40:52.434424 17183 net.cpp:129] Top shape: 128 384 13 13 (8306688)
I0407 09:40:52.434428 17183 net.cpp:137] Memory required for data: 903067648
I0407 09:40:52.434444 17183 layer_factory.hpp:77] Creating layer relu3
I0407 09:40:52.434454 17183 net.cpp:84] Creating Layer relu3
I0407 09:40:52.434459 17183 net.cpp:406] relu3 <- conv3
I0407 09:40:52.434468 17183 net.cpp:367] relu3 -> conv3 (in-place)
I0407 09:40:52.435096 17183 net.cpp:122] Setting up relu3
I0407 09:40:52.435106 17183 net.cpp:129] Top shape: 128 384 13 13 (8306688)
I0407 09:40:52.435109 17183 net.cpp:137] Memory required for data: 936294400
I0407 09:40:52.435113 17183 layer_factory.hpp:77] Creating layer conv4
I0407 09:40:52.435127 17183 net.cpp:84] Creating Layer conv4
I0407 09:40:52.435130 17183 net.cpp:406] conv4 <- conv3
I0407 09:40:52.435138 17183 net.cpp:380] conv4 -> conv4
I0407 09:40:52.449146 17183 net.cpp:122] Setting up conv4
I0407 09:40:52.449172 17183 net.cpp:129] Top shape: 128 384 13 13 (8306688)
I0407 09:40:52.449177 17183 net.cpp:137] Memory required for data: 969521152
I0407 09:40:52.449187 17183 layer_factory.hpp:77] Creating layer relu4
I0407 09:40:52.449198 17183 net.cpp:84] Creating Layer relu4
I0407 09:40:52.449230 17183 net.cpp:406] relu4 <- conv4
I0407 09:40:52.449240 17183 net.cpp:367] relu4 -> conv4 (in-place)
I0407 09:40:52.449688 17183 net.cpp:122] Setting up relu4
I0407 09:40:52.449698 17183 net.cpp:129] Top shape: 128 384 13 13 (8306688)
I0407 09:40:52.449703 17183 net.cpp:137] Memory required for data: 1002747904
I0407 09:40:52.449707 17183 layer_factory.hpp:77] Creating layer conv5
I0407 09:40:52.449719 17183 net.cpp:84] Creating Layer conv5
I0407 09:40:52.449723 17183 net.cpp:406] conv5 <- conv4
I0407 09:40:52.449730 17183 net.cpp:380] conv5 -> conv5
I0407 09:40:52.460681 17183 net.cpp:122] Setting up conv5
I0407 09:40:52.460707 17183 net.cpp:129] Top shape: 128 256 13 13 (5537792)
I0407 09:40:52.460711 17183 net.cpp:137] Memory required for data: 1024899072
I0407 09:40:52.460726 17183 layer_factory.hpp:77] Creating layer relu5
I0407 09:40:52.460737 17183 net.cpp:84] Creating Layer relu5
I0407 09:40:52.460742 17183 net.cpp:406] relu5 <- conv5
I0407 09:40:52.460750 17183 net.cpp:367] relu5 -> conv5 (in-place)
I0407 09:40:52.461380 17183 net.cpp:122] Setting up relu5
I0407 09:40:52.461393 17183 net.cpp:129] Top shape: 128 256 13 13 (5537792)
I0407 09:40:52.461396 17183 net.cpp:137] Memory required for data: 1047050240
I0407 09:40:52.461400 17183 layer_factory.hpp:77] Creating layer pool5
I0407 09:40:52.461408 17183 net.cpp:84] Creating Layer pool5
I0407 09:40:52.461412 17183 net.cpp:406] pool5 <- conv5
I0407 09:40:52.461419 17183 net.cpp:380] pool5 -> pool5
I0407 09:40:52.461462 17183 net.cpp:122] Setting up pool5
I0407 09:40:52.461468 17183 net.cpp:129] Top shape: 128 256 6 6 (1179648)
I0407 09:40:52.461472 17183 net.cpp:137] Memory required for data: 1051768832
I0407 09:40:52.461475 17183 layer_factory.hpp:77] Creating layer fc6
I0407 09:40:52.461488 17183 net.cpp:84] Creating Layer fc6
I0407 09:40:52.461491 17183 net.cpp:406] fc6 <- pool5
I0407 09:40:52.461498 17183 net.cpp:380] fc6 -> fc6
I0407 09:40:52.830471 17183 net.cpp:122] Setting up fc6
I0407 09:40:52.830494 17183 net.cpp:129] Top shape: 128 4096 (524288)
I0407 09:40:52.830497 17183 net.cpp:137] Memory required for data: 1053865984
I0407 09:40:52.830505 17183 layer_factory.hpp:77] Creating layer relu6
I0407 09:40:52.830515 17183 net.cpp:84] Creating Layer relu6
I0407 09:40:52.830518 17183 net.cpp:406] relu6 <- fc6
I0407 09:40:52.830523 17183 net.cpp:367] relu6 -> fc6 (in-place)
I0407 09:40:52.831136 17183 net.cpp:122] Setting up relu6
I0407 09:40:52.831147 17183 net.cpp:129] Top shape: 128 4096 (524288)
I0407 09:40:52.831149 17183 net.cpp:137] Memory required for data: 1055963136
I0407 09:40:52.831152 17183 layer_factory.hpp:77] Creating layer drop6
I0407 09:40:52.831158 17183 net.cpp:84] Creating Layer drop6
I0407 09:40:52.831161 17183 net.cpp:406] drop6 <- fc6
I0407 09:40:52.831166 17183 net.cpp:367] drop6 -> fc6 (in-place)
I0407 09:40:52.831192 17183 net.cpp:122] Setting up drop6
I0407 09:40:52.831195 17183 net.cpp:129] Top shape: 128 4096 (524288)
I0407 09:40:52.831197 17183 net.cpp:137] Memory required for data: 1058060288
I0407 09:40:52.831199 17183 layer_factory.hpp:77] Creating layer fc7
I0407 09:40:52.831207 17183 net.cpp:84] Creating Layer fc7
I0407 09:40:52.831208 17183 net.cpp:406] fc7 <- fc6
I0407 09:40:52.831212 17183 net.cpp:380] fc7 -> fc7
I0407 09:40:52.980631 17183 net.cpp:122] Setting up fc7
I0407 09:40:52.980650 17183 net.cpp:129] Top shape: 128 4096 (524288)
I0407 09:40:52.980652 17183 net.cpp:137] Memory required for data: 1060157440
I0407 09:40:52.980661 17183 layer_factory.hpp:77] Creating layer relu7
I0407 09:40:52.980669 17183 net.cpp:84] Creating Layer relu7
I0407 09:40:52.980671 17183 net.cpp:406] relu7 <- fc7
I0407 09:40:52.980677 17183 net.cpp:367] relu7 -> fc7 (in-place)
I0407 09:40:52.981060 17183 net.cpp:122] Setting up relu7
I0407 09:40:52.981068 17183 net.cpp:129] Top shape: 128 4096 (524288)
I0407 09:40:52.981070 17183 net.cpp:137] Memory required for data: 1062254592
I0407 09:40:52.981073 17183 layer_factory.hpp:77] Creating layer drop7
I0407 09:40:52.981079 17183 net.cpp:84] Creating Layer drop7
I0407 09:40:52.981101 17183 net.cpp:406] drop7 <- fc7
I0407 09:40:52.981106 17183 net.cpp:367] drop7 -> fc7 (in-place)
I0407 09:40:52.981127 17183 net.cpp:122] Setting up drop7
I0407 09:40:52.981132 17183 net.cpp:129] Top shape: 128 4096 (524288)
I0407 09:40:52.981133 17183 net.cpp:137] Memory required for data: 1064351744
I0407 09:40:52.981135 17183 layer_factory.hpp:77] Creating layer fc8
I0407 09:40:52.981142 17183 net.cpp:84] Creating Layer fc8
I0407 09:40:52.981143 17183 net.cpp:406] fc8 <- fc7
I0407 09:40:52.981148 17183 net.cpp:380] fc8 -> fc8
I0407 09:40:52.988312 17183 net.cpp:122] Setting up fc8
I0407 09:40:52.988333 17183 net.cpp:129] Top shape: 128 196 (25088)
I0407 09:40:52.988337 17183 net.cpp:137] Memory required for data: 1064452096
I0407 09:40:52.988344 17183 layer_factory.hpp:77] Creating layer loss
I0407 09:40:52.988351 17183 net.cpp:84] Creating Layer loss
I0407 09:40:52.988354 17183 net.cpp:406] loss <- fc8
I0407 09:40:52.988359 17183 net.cpp:406] loss <- label
I0407 09:40:52.988364 17183 net.cpp:380] loss -> loss
I0407 09:40:52.988373 17183 layer_factory.hpp:77] Creating layer loss
…
I0407 09:40:52.989710 17183 net.cpp:294] The NetState phase (1) differed from the phase (0) specified by a rule in layer train-data
I0407 09:40:52.989840 17183 net.cpp:51] Initializing net from parameters:
state {
phase: TEST
}
layer {
name: "val-data"
type: "Data"
top: "data"
top: "label"
include {
phase: TEST
}
transform_param {
crop_size: 227
mean_file: "/mnt/bigdisk/DIGITS-AIN-3/digits/jobs/20210401-115716-aaf7/mean.binaryproto"
}
data_param {
source: "/mnt/bigdisk/DIGITS-AIN-3/digits/jobs/20210401-115716-aaf7/val_db"
batch_size: 32
backend: LMDB
}
}
layer {
name: "conv1"
type: "Convolution"
bottom: "data"
top: "conv1"
param {
lr_mult: 1
decay_mult: 1
}
param {
lr_mult: 2
decay_mult: 0
}
convolution_param {
num_output: 96
kernel_size: 11
stride: 4
weight_filler {
type: "gaussian"
std: 0.01
}
bias_filler {
type: "constant"
value: 0
}
}
}
layer {
name: "relu1"
type: "ReLU"
bottom: "conv1"
top: "conv1"
}
layer {
name: "norm1"
type: "LRN"
bottom: "conv1"
top: "norm1"
lrn_param {
local_size: 5
alpha: 0.0001
beta: 0.75
}
}
layer {
name: "pool1"
type: "Pooling"
bottom: "norm1"
top: "pool1"
pooling_param {
pool: MAX
kernel_size: 3
stride: 2
}
}
layer {
name: "conv2"
type: "Convolution"
bottom: "pool1"
top: "conv2"
param {
lr_mult: 1
decay_mult: 1
}
param {
lr_mult: 2
decay_mult: 0
}
convolution_param {
num_output: 256
pad: 2
kernel_size: 5
group: 2
weight_filler {
type: "gaussian"
std: 0.01
}
bias_filler {
type: "constant"
value: 0.1
}
}
}
layer {
name: "relu2"
type: "ReLU"
bottom: "conv2"
top: "conv2"
}
layer {
name: "norm2"
type: "LRN"
bottom: "conv2"
top: "norm2"
lrn_param {
local_size: 5
alpha: 0.0001
beta: 0.75
}
}
layer {
name: "pool2"
type: "Pooling"
bottom: "norm2"
top: "pool2"
pooling_param {
pool: MAX
kernel_size: 3
stride: 2
}
}
layer {
name: "conv3"
type: "Convolution"
bottom: "pool2"
top: "conv3"
param {
lr_mult: 1
decay_mult: 1
}
param {
lr_mult: 2
decay_mult: 0
}
convolution_param {
num_output: 384
pad: 1
kernel_size: 3
weight_filler {
type: "gaussian"
std: 0.01
}
bias_filler {
type: "constant"
value: 0
}
}
}
layer {
name: "relu3"
type: "ReLU"
bottom: "conv3"
top: "conv3"
}
layer {
name: "conv4"
type: "Convolution"
bottom: "conv3"
top: "conv4"
param {
lr_mult: 1
decay_mult: 1
}
param {
lr_mult: 2
decay_mult: 0
}
convolution_param {
num_output: 384
pad: 1
kernel_size: 3
group: 2
weight_filler {
type: "gaussian"
std: 0.01
}
bias_filler {
type: "constant"
value: 0.1
}
}
}
layer {
name: "relu4"
type: "ReLU"
bottom: "conv4"
top: "conv4"
}
layer {
name: "conv5"
type: "Convolution"
bottom: "conv4"
top: "conv5"
param {
lr_mult: 1
decay_mult: 1
}
param {
lr_mult: 2
decay_mult: 0
}
convolution_param {
num_output: 256
pad: 1
kernel_size: 3
group: 2
weight_filler {
type: "gaussian"
std: 0.01
}
bias_filler {
type: "constant"
value: 0.1
}
}
}
layer {
name: "relu5"
type: "ReLU"
bottom: "conv5"
top: "conv5"
}
layer {
name: "pool5"
type: "Pooling"
bottom: "conv5"
top: "pool5"
pooling_param {
pool: MAX
kernel_size: 3
stride: 2
}
}
layer {
name: "fc6"
type: "InnerProduct"
bottom: "pool5"
top: "fc6"
param {
lr_mult: 1
decay_mult: 1
}
param {
lr_mult: 2
decay_mult: 0
}
inner_product_param {
num_output: 4096
weight_filler {
type: "gaussian"
std: 0.005
}
bias_filler {
type: "constant"
value: 0.1
}
}
}
layer {
name: "relu6"
type: "ReLU"
bottom: "fc6"
top: "fc6"
}
layer {
name: "drop6"
type: "Dropout"
bottom: "fc6"
top: "fc6"
dropout_param {
dropout_ratio: 0.5
}
}
layer {
name: "fc7"
type: "InnerProduct"
bottom: "fc6"
top: "fc7"
param {
lr_mult: 1
decay_mult: 1
}
param {
lr_mult: 2
decay_mult: 0
}
inner_product_param {
num_output: 4096
weight_filler {
type: "gaussian"
std: 0.005
}
bias_filler {
type: "constant"
value: 0.1
}
}
}
layer {
name: "relu7"
type: "ReLU"
bottom: "fc7"
top: "fc7"
}
layer {
name: "drop7"
type: "Dropout"
bottom: "fc7"
top: "fc7"
dropout_param {
dropout_ratio: 0.5
}
}
layer {
name: "fc8"
type: "InnerProduct"
bottom: "fc7"
top: "fc8"
param {
lr_mult: 1
decay_mult: 1
}
param {
lr_mult: 2
decay_mult: 0
}
inner_product_param {
num_output: 196
weight_filler {
type: "gaussian"
std: 0.01
}
bias_filler {
type: "constant"
value: 0
}
}
}
layer {
name: "accuracy"
type: "Accuracy"
bottom: "fc8"
bottom: "label"
top: "accuracy"
include {
phase: TEST
}
}
layer {
name: "loss"
type: "SoftmaxWithLoss"
bottom: "fc8"
bottom: "label"
top: "loss"
}
I0407 09:40:52.989938 17183 layer_factory.hpp:77] Creating layer val-data
I0407 09:40:52.998039 17183 db_lmdb.cpp:35] Opened lmdb /mnt/bigdisk/DIGITS-AIN-3/digits/jobs/20210401-115716-aaf7/val_db
I0407 09:40:52.998294 17183 net.cpp:84] Creating Layer val-data
I0407 09:40:52.998309 17183 net.cpp:380] val-data -> data
I0407 09:40:52.998320 17183 net.cpp:380] val-data -> label
I0407 09:40:52.998327 17183 data_transformer.cpp:25] Loading mean file from: /mnt/bigdisk/DIGITS-AIN-3/digits/jobs/20210401-115716-aaf7/mean.binaryproto
I0407 09:40:53.002041 17183 data_layer.cpp:45] output data size: 32,3,227,227
I0407 09:40:53.040927 17183 net.cpp:122] Setting up val-data
I0407 09:40:53.040952 17183 net.cpp:129] Top shape: 32 3 227 227 (4946784)
I0407 09:40:53.040958 17183 net.cpp:129] Top shape: 32 (32)
I0407 09:40:53.040961 17183 net.cpp:137] Memory required for data: 19787264
I0407 09:40:53.040967 17183 layer_factory.hpp:77] Creating layer label_val-data_1_split
I0407 09:40:53.040980 17183 net.cpp:84] Creating Layer label_val-data_1_split
I0407 09:40:53.040984 17183 net.cpp:406] label_val-data_1_split <- label
I0407 09:40:53.040992 17183 net.cpp:380] label_val-data_1_split -> label_val-data_1_split_0
I0407 09:40:53.041003 17183 net.cpp:380] label_val-data_1_split -> label_val-data_1_split_1
I0407 09:40:53.041097 17183 net.cpp:122] Setting up label_val-data_1_split
I0407 09:40:53.041107 17183 net.cpp:129] Top shape: 32 (32)
I0407 09:40:53.041111 17183 net.cpp:129] Top shape: 32 (32)
I0407 09:40:53.041115 17183 net.cpp:137] Memory required for data: 19787520
I0407 09:40:53.041118 17183 layer_factory.hpp:77] Creating layer conv1
I0407 09:40:53.041132 17183 net.cpp:84] Creating Layer conv1
I0407 09:40:53.041136 17183 net.cpp:406] conv1 <- data
I0407 09:40:53.041143 17183 net.cpp:380] conv1 -> conv1
I0407 09:40:53.044275 17183 net.cpp:122] Setting up conv1
I0407 09:40:53.044296 17183 net.cpp:129] Top shape: 32 96 55 55 (9292800)
I0407 09:40:53.044299 17183 net.cpp:137] Memory required for data: 56958720
I0407 09:40:53.044312 17183 layer_factory.hpp:77] Creating layer relu1
I0407 09:40:53.044322 17183 net.cpp:84] Creating Layer relu1
I0407 09:40:53.044325 17183 net.cpp:406] relu1 <- conv1
I0407 09:40:53.044333 17183 net.cpp:367] relu1 -> conv1 (in-place)
I0407 09:40:53.044724 17183 net.cpp:122] Setting up relu1
I0407 09:40:53.044734 17183 net.cpp:129] Top shape: 32 96 55 55 (9292800)
I0407 09:40:53.044737 17183 net.cpp:137] Memory required for data: 94129920
I0407 09:40:53.044741 17183 layer_factory.hpp:77] Creating layer norm1
I0407 09:40:53.044751 17183 net.cpp:84] Creating Layer norm1
I0407 09:40:53.044755 17183 net.cpp:406] norm1 <- conv1
I0407 09:40:53.044761 17183 net.cpp:380] norm1 -> norm1
I0407 09:40:53.045359 17183 net.cpp:122] Setting up norm1
I0407 09:40:53.045372 17183 net.cpp:129] Top shape: 32 96 55 55 (9292800)
I0407 09:40:53.045377 17183 net.cpp:137] Memory required for data: 131301120
I0407 09:40:53.045380 17183 layer_factory.hpp:77] Creating layer pool1
I0407 09:40:53.045387 17183 net.cpp:84] Creating Layer pool1
I0407 09:40:53.045392 17183 net.cpp:406] pool1 <- norm1
I0407 09:40:53.045397 17183 net.cpp:380] pool1 -> pool1
I0407 09:40:53.045433 17183 net.cpp:122] Setting up pool1
I0407 09:40:53.045440 17183 net.cpp:129] Top shape: 32 96 27 27 (2239488)
I0407 09:40:53.045444 17183 net.cpp:137] Memory required for data: 140259072
I0407 09:40:53.045446 17183 layer_factory.hpp:77] Creating layer conv2
I0407 09:40:53.045457 17183 net.cpp:84] Creating Layer conv2
I0407 09:40:53.045461 17183 net.cpp:406] conv2 <- pool1
I0407 09:40:53.045492 17183 net.cpp:380] conv2 -> conv2
I0407 09:40:53.054517 17183 net.cpp:122] Setting up conv2
I0407 09:40:53.054541 17183 net.cpp:129] Top shape: 32 256 27 27 (5971968)
I0407 09:40:53.054546 17183 net.cpp:137] Memory required for data: 164146944
I0407 09:40:53.054560 17183 layer_factory.hpp:77] Creating layer relu2
I0407 09:40:53.054571 17183 net.cpp:84] Creating Layer relu2
I0407 09:40:53.054575 17183 net.cpp:406] relu2 <- conv2
I0407 09:40:53.054587 17183 net.cpp:367] relu2 -> conv2 (in-place)
I0407 09:40:53.055248 17183 net.cpp:122] Setting up relu2
I0407 09:40:53.055258 17183 net.cpp:129] Top shape: 32 256 27 27 (5971968)
I0407 09:40:53.055263 17183 net.cpp:137] Memory required for data: 188034816
I0407 09:40:53.055266 17183 layer_factory.hpp:77] Creating layer norm2
I0407 09:40:53.055279 17183 net.cpp:84] Creating Layer norm2
I0407 09:40:53.055284 17183 net.cpp:406] norm2 <- conv2
I0407 09:40:53.055289 17183 net.cpp:380] norm2 -> norm2
I0407 09:40:53.055980 17183 net.cpp:122] Setting up norm2
I0407 09:40:53.055992 17183 net.cpp:129] Top shape: 32 256 27 27 (5971968)
I0407 09:40:53.055996 17183 net.cpp:137] Memory required for data: 211922688
I0407 09:40:53.056000 17183 layer_factory.hpp:77] Creating layer pool2
I0407 09:40:53.056010 17183 net.cpp:84] Creating Layer pool2
I0407 09:40:53.056015 17183 net.cpp:406] pool2 <- norm2
I0407 09:40:53.056022 17183 net.cpp:380] pool2 -> pool2
I0407 09:40:53.056061 17183 net.cpp:122] Setting up pool2
I0407 09:40:53.056066 17183 net.cpp:129] Top shape: 32 256 13 13 (1384448)
I0407 09:40:53.056069 17183 net.cpp:137] Memory required for data: 217460480
I0407 09:40:53.056073 17183 layer_factory.hpp:77] Creating layer conv3
I0407 09:40:53.056085 17183 net.cpp:84] Creating Layer conv3
I0407 09:40:53.056089 17183 net.cpp:406] conv3 <- pool2
I0407 09:40:53.056097 17183 net.cpp:380] conv3 -> conv3
I0407 09:40:53.071759 17183 net.cpp:122] Setting up conv3
I0407 09:40:53.071787 17183 net.cpp:129] Top shape: 32 384 13 13 (2076672)
I0407 09:40:53.071791 17183 net.cpp:137] Memory required for data: 225767168
I0407 09:40:53.071810 17183 layer_factory.hpp:77] Creating layer relu3
I0407 09:40:53.071820 17183 net.cpp:84] Creating Layer relu3
I0407 09:40:53.071825 17183 net.cpp:406] relu3 <- conv3
I0407 09:40:53.071832 17183 net.cpp:367] relu3 -> conv3 (in-place)
I0407 09:40:53.072486 17183 net.cpp:122] Setting up relu3
I0407 09:40:53.072497 17183 net.cpp:129] Top shape: 32 384 13 13 (2076672)
I0407 09:40:53.072500 17183 net.cpp:137] Memory required for data: 234073856
I0407 09:40:53.072504 17183 layer_factory.hpp:77] Creating layer conv4
I0407 09:40:53.072520 17183 net.cpp:84] Creating Layer conv4
I0407 09:40:53.072525 17183 net.cpp:406] conv4 <- conv3
I0407 09:40:53.072532 17183 net.cpp:380] conv4 -> conv4
I0407 09:40:53.086604 17183 net.cpp:122] Setting up conv4
I0407 09:40:53.086629 17183 net.cpp:129] Top shape: 32 384 13 13 (2076672)
I0407 09:40:53.086633 17183 net.cpp:137] Memory required for data: 242380544
I0407 09:40:53.086644 17183 layer_factory.hpp:77] Creating layer relu4
I0407 09:40:53.086658 17183 net.cpp:84] Creating Layer relu4
I0407 09:40:53.086663 17183 net.cpp:406] relu4 <- conv4
I0407 09:40:53.086671 17183 net.cpp:367] relu4 -> conv4 (in-place)
I0407 09:40:53.087139 17183 net.cpp:122] Setting up relu4
I0407 09:40:53.087148 17183 net.cpp:129] Top shape: 32 384 13 13 (2076672)
I0407 09:40:53.087152 17183 net.cpp:137] Memory required for data: 250687232
I0407 09:40:53.087155 17183 layer_factory.hpp:77] Creating layer conv5
I0407 09:40:53.087169 17183 net.cpp:84] Creating Layer conv5
I0407 09:40:53.087175 17183 net.cpp:406] conv5 <- conv4
I0407 09:40:53.087182 17183 net.cpp:380] conv5 -> conv5
I0407 09:40:53.099390 17183 net.cpp:122] Setting up conv5
I0407 09:40:53.099412 17183 net.cpp:129] Top shape: 32 256 13 13 (1384448)
I0407 09:40:53.099416 17183 net.cpp:137] Memory required for data: 256225024
I0407 09:40:53.099434 17183 layer_factory.hpp:77] Creating layer relu5
I0407 09:40:53.099445 17183 net.cpp:84] Creating Layer relu5
I0407 09:40:53.099473 17183 net.cpp:406] relu5 <- conv5
I0407 09:40:53.099483 17183 net.cpp:367] relu5 -> conv5 (in-place)
I0407 09:40:53.100147 17183 net.cpp:122] Setting up relu5
I0407 09:40:53.100159 17183 net.cpp:129] Top shape: 32 256 13 13 (1384448)
I0407 09:40:53.100163 17183 net.cpp:137] Memory required for data: 261762816
I0407 09:40:53.100167 17183 layer_factory.hpp:77] Creating layer pool5
I0407 09:40:53.100179 17183 net.cpp:84] Creating Layer pool5
I0407 09:40:53.100184 17183 net.cpp:406] pool5 <- conv5
I0407 09:40:53.100193 17183 net.cpp:380] pool5 -> pool5
I0407 09:40:53.100239 17183 net.cpp:122] Setting up pool5
I0407 09:40:53.100246 17183 net.cpp:129] Top shape: 32 256 6 6 (294912)
I0407 09:40:53.100250 17183 net.cpp:137] Memory required for data: 262942464
I0407 09:40:53.100253 17183 layer_factory.hpp:77] Creating layer fc6
I0407 09:40:53.100261 17183 net.cpp:84] Creating Layer fc6
I0407 09:40:53.100265 17183 net.cpp:406] fc6 <- pool5
I0407 09:40:53.100275 17183 net.cpp:380] fc6 -> fc6
I0407 09:40:53.479776 17183 net.cpp:122] Setting up fc6
I0407 09:40:53.479799 17183 net.cpp:129] Top shape: 32 4096 (131072)
I0407 09:40:53.479800 17183 net.cpp:137] Memory required for data: 263466752
I0407 09:40:53.479809 17183 layer_factory.hpp:77] Creating layer relu6
I0407 09:40:53.479817 17183 net.cpp:84] Creating Layer relu6
I0407 09:40:53.479820 17183 net.cpp:406] relu6 <- fc6
I0407 09:40:53.479827 17183 net.cpp:367] relu6 -> fc6 (in-place)
I0407 09:40:53.480592 17183 net.cpp:122] Setting up relu6
I0407 09:40:53.480600 17183 net.cpp:129] Top shape: 32 4096 (131072)
I0407 09:40:53.480602 17183 net.cpp:137] Memory required for data: 263991040
I0407 09:40:53.480605 17183 layer_factory.hpp:77] Creating layer drop6
I0407 09:40:53.480610 17183 net.cpp:84] Creating Layer drop6
I0407 09:40:53.480613 17183 net.cpp:406] drop6 <- fc6
I0407 09:40:53.480618 17183 net.cpp:367] drop6 -> fc6 (in-place)
I0407 09:40:53.480639 17183 net.cpp:122] Setting up drop6
I0407 09:40:53.480643 17183 net.cpp:129] Top shape: 32 4096 (131072)
I0407 09:40:53.480645 17183 net.cpp:137] Memory required for data: 264515328
I0407 09:40:53.480648 17183 layer_factory.hpp:77] Creating layer fc7
I0407 09:40:53.480654 17183 net.cpp:84] Creating Layer fc7
I0407 09:40:53.480656 17183 net.cpp:406] fc7 <- fc6
I0407 09:40:53.480661 17183 net.cpp:380] fc7 -> fc7
I0407 09:40:53.628304 17183 net.cpp:122] Setting up fc7
I0407 09:40:53.628324 17183 net.cpp:129] Top shape: 32 4096 (131072)
I0407 09:40:53.628325 17183 net.cpp:137] Memory required for data: 265039616
I0407 09:40:53.628334 17183 layer_factory.hpp:77] Creating layer relu7
I0407 09:40:53.628340 17183 net.cpp:84] Creating Layer relu7
I0407 09:40:53.628343 17183 net.cpp:406] relu7 <- fc7
I0407 09:40:53.628348 17183 net.cpp:367] relu7 -> fc7 (in-place)
I0407 09:40:53.628734 17183 net.cpp:122] Setting up relu7
I0407 09:40:53.628741 17183 net.cpp:129] Top shape: 32 4096 (131072)
I0407 09:40:53.628743 17183 net.cpp:137] Memory required for data: 265563904
I0407 09:40:53.628746 17183 layer_factory.hpp:77] Creating layer drop7
I0407 09:40:53.628751 17183 net.cpp:84] Creating Layer drop7
I0407 09:40:53.628755 17183 net.cpp:406] drop7 <- fc7
I0407 09:40:53.628758 17183 net.cpp:367] drop7 -> fc7 (in-place)
I0407 09:40:53.628779 17183 net.cpp:122] Setting up drop7
I0407 09:40:53.628783 17183 net.cpp:129] Top shape: 32 4096 (131072)
I0407 09:40:53.628785 17183 net.cpp:137] Memory required for data: 266088192
I0407 09:40:53.628787 17183 layer_factory.hpp:77] Creating layer fc8
I0407 09:40:53.628795 17183 net.cpp:84] Creating Layer fc8
I0407 09:40:53.628798 17183 net.cpp:406] fc8 <- fc7
I0407 09:40:53.628801 17183 net.cpp:380] fc8 -> fc8
I0407 09:40:53.636118 17183 net.cpp:122] Setting up fc8
I0407 09:40:53.636137 17183 net.cpp:129] Top shape: 32 196 (6272)
I0407 09:40:53.636139 17183 net.cpp:137] Memory required for data: 266113280
I0407 09:40:53.636147 17183 layer_factory.hpp:77] Creating layer fc8_fc8_0_split
I0407 09:40:53.636154 17183 net.cpp:84] Creating Layer fc8_fc8_0_split
I0407 09:40:53.636157 17183 net.cpp:406] fc8_fc8_0_split <- fc8
I0407 09:40:53.636181 17183 net.cpp:380] fc8_fc8_0_split -> fc8_fc8_0_split_0
I0407 09:40:53.636190 17183 net.cpp:380] fc8_fc8_0_split -> fc8_fc8_0_split_1
I0407 09:40:53.636224 17183 net.cpp:122] Setting up fc8_fc8_0_split
I0407 09:40:53.636227 17183 net.cpp:129] Top shape: 32 196 (6272)
I0407 09:40:53.636229 17183 net.cpp:129] Top shape: 32 196 (6272)
I0407 09:40:53.636231 17183 net.cpp:137] Memory required for data: 266163456
I0407 09:40:53.636234 17183 layer_factory.hpp:77] Creating layer accuracy
I0407 09:40:53.636240 17183 net.cpp:84] Creating Layer accuracy
I0407 09:40:53.636242 17183 net.cpp:406] accuracy <- fc8_fc8_0_split_0
I0407 09:40:53.636245 17183 net.cpp:406] accuracy <- label_val-data_1_split_0
I0407 09:40:53.636250 17183 net.cpp:380] accuracy -> accuracy
…
