…
I0426 21:54:44.911001 27703 net.cpp:294] The NetState phase (0) differed from the phase (1) specified by a rule in layer accuracy
I0426 21:54:44.911132 27703 net.cpp:51] Initializing net from parameters:
state {
phase: TRAIN
level: 0
stage: ""
}
layer {
name: "train-data"
type: "Data"
top: "data"
top: "label"
include {
phase: TRAIN
}
transform_param {
mirror: true
crop_size: 227
mean_file: "/mnt/bigdisk/DIGITS-MAN-3/digits/jobs/20210421-230320-902c/mean.binaryproto"
}
data_param {
source: "/mnt/bigdisk/DIGITS-MAN-3/digits/jobs/20210421-230320-902c/train_db"
batch_size: 128
backend: LMDB
}
}
layer {
name: "conv1"
type: "Convolution"
bottom: "data"
top: "conv1"
param {
lr_mult: 1
decay_mult: 1
}
param {
lr_mult: 2
decay_mult: 0
}
convolution_param {
num_output: 96
kernel_size: 11
stride: 4
weight_filler {
type: "gaussian"
std: 0.01
}
bias_filler {
type: "constant"
value: 0
}
}
}
layer {
name: "relu1"
type: "ReLU"
bottom: "conv1"
top: "conv1"
}
layer {
name: "norm1"
type: "LRN"
bottom: "conv1"
top: "norm1"
lrn_param {
local_size: 5
alpha: 0.0001
beta: 0.75
}
}
layer {
name: "pool1"
type: "Pooling"
bottom: "norm1"
top: "pool1"
pooling_param {
pool: MAX
kernel_size: 3
stride: 2
}
}
layer {
name: "conv2"
type: "Convolution"
bottom: "pool1"
top: "conv2"
param {
lr_mult: 1
decay_mult: 1
}
param {
lr_mult: 2
decay_mult: 0
}
convolution_param {
num_output: 256
pad: 2
kernel_size: 5
group: 2
weight_filler {
type: "gaussian"
std: 0.01
}
bias_filler {
type: "constant"
value: 0.1
}
}
}
layer {
name: "relu2"
type: "ReLU"
bottom: "conv2"
top: "conv2"
}
layer {
name: "norm2"
type: "LRN"
bottom: "conv2"
top: "norm2"
lrn_param {
local_size: 5
alpha: 0.0001
beta: 0.75
}
}
layer {
name: "pool2"
type: "Pooling"
bottom: "norm2"
top: "pool2"
pooling_param {
pool: MAX
kernel_size: 3
stride: 2
}
}
layer {
name: "conv3"
type: "Convolution"
bottom: "pool2"
top: "conv3"
param {
lr_mult: 1
decay_mult: 1
}
param {
lr_mult: 2
decay_mult: 0
}
convolution_param {
num_output: 384
pad: 1
kernel_size: 3
weight_filler {
type: "gaussian"
std: 0.01
}
bias_filler {
type: "constant"
value: 0
}
}
}
layer {
name: "relu3"
type: "ReLU"
bottom: "conv3"
top: "conv3"
}
layer {
name: "conv4"
type: "Convolution"
bottom: "conv3"
top: "conv4"
param {
lr_mult: 1
decay_mult: 1
}
param {
lr_mult: 2
decay_mult: 0
}
convolution_param {
num_output: 384
pad: 1
kernel_size: 3
group: 2
weight_filler {
type: "gaussian"
std: 0.01
}
bias_filler {
type: "constant"
value: 0.1
}
}
}
layer {
name: "relu4"
type: "ReLU"
bottom: "conv4"
top: "conv4"
}
layer {
name: "conv5"
type: "Convolution"
bottom: "conv4"
top: "conv5"
param {
lr_mult: 1
decay_mult: 1
}
param {
lr_mult: 2
decay_mult: 0
}
convolution_param {
num_output: 256
pad: 1
kernel_size: 11
group: 2
weight_filler {
type: "gaussian"
std: 0.01
}
bias_filler {
type: "constant"
value: 0.1
}
}
}
layer {
name: "relu5"
type: "ReLU"
bottom: "conv5"
top: "conv5"
}
layer {
name: "pool5"
type: "Pooling"
bottom: "conv5"
top: "pool5"
pooling_param {
pool: MAX
kernel_size: 3
stride: 2
}
}
layer {
name: "fc6"
type: "InnerProduct"
bottom: "pool5"
top: "fc6"
param {
lr_mult: 1
decay_mult: 1
}
param {
lr_mult: 2
decay_mult: 0
}
inner_product_param {
num_output: 4096
weight_filler {
type: "gaussian"
std: 0.005
}
bias_filler {
type: "constant"
value: 0.1
}
}
}
layer {
name: "relu6"
type: "ReLU"
bottom: "fc6"
top: "fc6"
}
layer {
name: "drop6"
type: "Dropout"
bottom: "fc6"
top: "fc6"
dropout_param {
dropout_ratio: 0.5
}
}
layer {
name: "fc7"
type: "InnerProduct"
bottom: "fc6"
top: "fc7"
param {
lr_mult: 1
decay_mult: 1
}
param {
lr_mult: 2
decay_mult: 0
}
inner_product_param {
num_output: 4096
weight_filler {
type: "gaussian"
std: 0.005
}
bias_filler {
type: "constant"
value: 0.1
}
}
}
layer {
name: "relu7"
type: "ReLU"
bottom: "fc7"
top: "fc7"
}
layer {
name: "drop7"
type: "Dropout"
bottom: "fc7"
top: "fc7"
dropout_param {
dropout_ratio: 0.5
}
}
layer {
name: "fc8"
type: "InnerProduct"
bottom: "fc7"
top: "fc8"
param {
lr_mult: 1
decay_mult: 1
}
param {
lr_mult: 2
decay_mult: 0
}
inner_product_param {
num_output: 196
weight_filler {
type: "gaussian"
std: 0.01
}
bias_filler {
type: "constant"
value: 0
}
}
}
layer {
name: "loss"
type: "SoftmaxWithLoss"
bottom: "fc8"
bottom: "label"
top: "loss"
}
I0426 21:54:44.911221 27703 layer_factory.hpp:77] Creating layer train-data
I0426 21:54:44.912806 27703 db_lmdb.cpp:35] Opened lmdb /mnt/bigdisk/DIGITS-MAN-3/digits/jobs/20210421-230320-902c/train_db
I0426 21:54:44.912971 27703 net.cpp:84] Creating Layer train-data
I0426 21:54:44.912979 27703 net.cpp:380] train-data -> data
I0426 21:54:44.912998 27703 net.cpp:380] train-data -> label
I0426 21:54:44.913008 27703 data_transformer.cpp:25] Loading mean file from: /mnt/bigdisk/DIGITS-MAN-3/digits/jobs/20210421-230320-902c/mean.binaryproto
I0426 21:54:44.922746 27703 data_layer.cpp:45] output data size: 128,3,227,227
I0426 21:54:45.052567 27703 net.cpp:122] Setting up train-data
I0426 21:54:45.052587 27703 net.cpp:129] Top shape: 128 3 227 227 (19787136)
I0426 21:54:45.052593 27703 net.cpp:129] Top shape: 128 (128)
I0426 21:54:45.052597 27703 net.cpp:137] Memory required for data: 79149056
I0426 21:54:45.052605 27703 layer_factory.hpp:77] Creating layer conv1
I0426 21:54:45.052625 27703 net.cpp:84] Creating Layer conv1
I0426 21:54:45.052631 27703 net.cpp:406] conv1 <- data
I0426 21:54:45.052644 27703 net.cpp:380] conv1 -> conv1
I0426 21:54:45.806792 27703 net.cpp:122] Setting up conv1
I0426 21:54:45.806814 27703 net.cpp:129] Top shape: 128 96 55 55 (37171200)
I0426 21:54:45.806818 27703 net.cpp:137] Memory required for data: 227833856
I0426 21:54:45.806838 27703 layer_factory.hpp:77] Creating layer relu1
I0426 21:54:45.806847 27703 net.cpp:84] Creating Layer relu1
I0426 21:54:45.806852 27703 net.cpp:406] relu1 <- conv1
I0426 21:54:45.806859 27703 net.cpp:367] relu1 -> conv1 (in-place)
I0426 21:54:45.807148 27703 net.cpp:122] Setting up relu1
I0426 21:54:45.807157 27703 net.cpp:129] Top shape: 128 96 55 55 (37171200)
I0426 21:54:45.807160 27703 net.cpp:137] Memory required for data: 376518656
I0426 21:54:45.807164 27703 layer_factory.hpp:77] Creating layer norm1
I0426 21:54:45.807173 27703 net.cpp:84] Creating Layer norm1
I0426 21:54:45.807178 27703 net.cpp:406] norm1 <- conv1
I0426 21:54:45.807204 27703 net.cpp:380] norm1 -> norm1
I0426 21:54:45.807648 27703 net.cpp:122] Setting up norm1
I0426 21:54:45.807658 27703 net.cpp:129] Top shape: 128 96 55 55 (37171200)
I0426 21:54:45.807662 27703 net.cpp:137] Memory required for data: 525203456
I0426 21:54:45.807667 27703 layer_factory.hpp:77] Creating layer pool1
I0426 21:54:45.807674 27703 net.cpp:84] Creating Layer pool1
I0426 21:54:45.807678 27703 net.cpp:406] pool1 <- norm1
I0426 21:54:45.807683 27703 net.cpp:380] pool1 -> pool1
I0426 21:54:45.807719 27703 net.cpp:122] Setting up pool1
I0426 21:54:45.807725 27703 net.cpp:129] Top shape: 128 96 27 27 (8957952)
I0426 21:54:45.807729 27703 net.cpp:137] Memory required for data: 561035264
I0426 21:54:45.807732 27703 layer_factory.hpp:77] Creating layer conv2
I0426 21:54:45.807741 27703 net.cpp:84] Creating Layer conv2
I0426 21:54:45.807745 27703 net.cpp:406] conv2 <- pool1
I0426 21:54:45.807750 27703 net.cpp:380] conv2 -> conv2
I0426 21:54:45.817723 27703 net.cpp:122] Setting up conv2
I0426 21:54:45.817744 27703 net.cpp:129] Top shape: 128 256 27 27 (23887872)
I0426 21:54:45.817746 27703 net.cpp:137] Memory required for data: 656586752
I0426 21:54:45.817759 27703 layer_factory.hpp:77] Creating layer relu2
I0426 21:54:45.817768 27703 net.cpp:84] Creating Layer relu2
I0426 21:54:45.817772 27703 net.cpp:406] relu2 <- conv2
I0426 21:54:45.817780 27703 net.cpp:367] relu2 -> conv2 (in-place)
I0426 21:54:45.818270 27703 net.cpp:122] Setting up relu2
I0426 21:54:45.818280 27703 net.cpp:129] Top shape: 128 256 27 27 (23887872)
I0426 21:54:45.818284 27703 net.cpp:137] Memory required for data: 752138240
I0426 21:54:45.818286 27703 layer_factory.hpp:77] Creating layer norm2
I0426 21:54:45.818295 27703 net.cpp:84] Creating Layer norm2
I0426 21:54:45.818300 27703 net.cpp:406] norm2 <- conv2
I0426 21:54:45.818305 27703 net.cpp:380] norm2 -> norm2
I0426 21:54:45.818672 27703 net.cpp:122] Setting up norm2
I0426 21:54:45.818681 27703 net.cpp:129] Top shape: 128 256 27 27 (23887872)
I0426 21:54:45.818684 27703 net.cpp:137] Memory required for data: 847689728
I0426 21:54:45.818687 27703 layer_factory.hpp:77] Creating layer pool2
I0426 21:54:45.818696 27703 net.cpp:84] Creating Layer pool2
I0426 21:54:45.818701 27703 net.cpp:406] pool2 <- norm2
I0426 21:54:45.818706 27703 net.cpp:380] pool2 -> pool2
I0426 21:54:45.818734 27703 net.cpp:122] Setting up pool2
I0426 21:54:45.818739 27703 net.cpp:129] Top shape: 128 256 13 13 (5537792)
I0426 21:54:45.818742 27703 net.cpp:137] Memory required for data: 869840896
I0426 21:54:45.818745 27703 layer_factory.hpp:77] Creating layer conv3
I0426 21:54:45.818756 27703 net.cpp:84] Creating Layer conv3
I0426 21:54:45.818759 27703 net.cpp:406] conv3 <- pool2
I0426 21:54:45.818765 27703 net.cpp:380] conv3 -> conv3
I0426 21:54:45.829450 27703 net.cpp:122] Setting up conv3
I0426 21:54:45.829468 27703 net.cpp:129] Top shape: 128 384 13 13 (8306688)
I0426 21:54:45.829473 27703 net.cpp:137] Memory required for data: 903067648
I0426 21:54:45.829483 27703 layer_factory.hpp:77] Creating layer relu3
I0426 21:54:45.829491 27703 net.cpp:84] Creating Layer relu3
I0426 21:54:45.829495 27703 net.cpp:406] relu3 <- conv3
I0426 21:54:45.829504 27703 net.cpp:367] relu3 -> conv3 (in-place)
I0426 21:54:45.829990 27703 net.cpp:122] Setting up relu3
I0426 21:54:45.829999 27703 net.cpp:129] Top shape: 128 384 13 13 (8306688)
I0426 21:54:45.830003 27703 net.cpp:137] Memory required for data: 936294400
I0426 21:54:45.830006 27703 layer_factory.hpp:77] Creating layer conv4
I0426 21:54:45.830018 27703 net.cpp:84] Creating Layer conv4
I0426 21:54:45.830021 27703 net.cpp:406] conv4 <- conv3
I0426 21:54:45.830029 27703 net.cpp:380] conv4 -> conv4
I0426 21:54:45.840831 27703 net.cpp:122] Setting up conv4
I0426 21:54:45.840850 27703 net.cpp:129] Top shape: 128 384 13 13 (8306688)
I0426 21:54:45.840854 27703 net.cpp:137] Memory required for data: 969521152
I0426 21:54:45.840863 27703 layer_factory.hpp:77] Creating layer relu4
I0426 21:54:45.840873 27703 net.cpp:84] Creating Layer relu4
I0426 21:54:45.840896 27703 net.cpp:406] relu4 <- conv4
I0426 21:54:45.840904 27703 net.cpp:367] relu4 -> conv4 (in-place)
I0426 21:54:45.841251 27703 net.cpp:122] Setting up relu4
I0426 21:54:45.841260 27703 net.cpp:129] Top shape: 128 384 13 13 (8306688)
I0426 21:54:45.841264 27703 net.cpp:137] Memory required for data: 1002747904
I0426 21:54:45.841267 27703 layer_factory.hpp:77] Creating layer conv5
I0426 21:54:45.841279 27703 net.cpp:84] Creating Layer conv5
I0426 21:54:45.841282 27703 net.cpp:406] conv5 <- conv4
I0426 21:54:45.841289 27703 net.cpp:380] conv5 -> conv5
I0426 21:54:45.935956 27703 net.cpp:122] Setting up conv5
I0426 21:54:45.935976 27703 net.cpp:129] Top shape: 128 256 5 5 (819200)
I0426 21:54:45.935979 27703 net.cpp:137] Memory required for data: 1006024704
I0426 21:54:45.935993 27703 layer_factory.hpp:77] Creating layer relu5
I0426 21:54:45.936004 27703 net.cpp:84] Creating Layer relu5
I0426 21:54:45.936008 27703 net.cpp:406] relu5 <- conv5
I0426 21:54:45.936017 27703 net.cpp:367] relu5 -> conv5 (in-place)
I0426 21:54:45.936941 27703 net.cpp:122] Setting up relu5
I0426 21:54:45.936954 27703 net.cpp:129] Top shape: 128 256 5 5 (819200)
I0426 21:54:45.936959 27703 net.cpp:137] Memory required for data: 1009301504
I0426 21:54:45.936962 27703 layer_factory.hpp:77] Creating layer pool5
I0426 21:54:45.936970 27703 net.cpp:84] Creating Layer pool5
I0426 21:54:45.936975 27703 net.cpp:406] pool5 <- conv5
I0426 21:54:45.936980 27703 net.cpp:380] pool5 -> pool5
I0426 21:54:45.937023 27703 net.cpp:122] Setting up pool5
I0426 21:54:45.937028 27703 net.cpp:129] Top shape: 128 256 2 2 (131072)
I0426 21:54:45.937031 27703 net.cpp:137] Memory required for data: 1009825792
I0426 21:54:45.937034 27703 layer_factory.hpp:77] Creating layer fc6
I0426 21:54:45.937044 27703 net.cpp:84] Creating Layer fc6
I0426 21:54:45.937048 27703 net.cpp:406] fc6 <- pool5
I0426 21:54:45.937054 27703 net.cpp:380] fc6 -> fc6
I0426 21:54:45.988901 27703 net.cpp:122] Setting up fc6
I0426 21:54:45.988922 27703 net.cpp:129] Top shape: 128 4096 (524288)
I0426 21:54:45.988926 27703 net.cpp:137] Memory required for data: 1011922944
I0426 21:54:45.988935 27703 layer_factory.hpp:77] Creating layer relu6
I0426 21:54:45.988945 27703 net.cpp:84] Creating Layer relu6
I0426 21:54:45.988948 27703 net.cpp:406] relu6 <- fc6
I0426 21:54:45.988956 27703 net.cpp:367] relu6 -> fc6 (in-place)
I0426 21:54:45.989727 27703 net.cpp:122] Setting up relu6
I0426 21:54:45.989737 27703 net.cpp:129] Top shape: 128 4096 (524288)
I0426 21:54:45.989740 27703 net.cpp:137] Memory required for data: 1014020096
I0426 21:54:45.989743 27703 layer_factory.hpp:77] Creating layer drop6
I0426 21:54:45.989750 27703 net.cpp:84] Creating Layer drop6
I0426 21:54:45.989754 27703 net.cpp:406] drop6 <- fc6
I0426 21:54:45.989761 27703 net.cpp:367] drop6 -> fc6 (in-place)
I0426 21:54:45.989789 27703 net.cpp:122] Setting up drop6
I0426 21:54:45.989795 27703 net.cpp:129] Top shape: 128 4096 (524288)
I0426 21:54:45.989799 27703 net.cpp:137] Memory required for data: 1016117248
I0426 21:54:45.989802 27703 layer_factory.hpp:77] Creating layer fc7
I0426 21:54:45.989809 27703 net.cpp:84] Creating Layer fc7
I0426 21:54:45.989812 27703 net.cpp:406] fc7 <- fc6
I0426 21:54:45.989820 27703 net.cpp:380] fc7 -> fc7
I0426 21:54:46.151360 27703 net.cpp:122] Setting up fc7
I0426 21:54:46.151381 27703 net.cpp:129] Top shape: 128 4096 (524288)
I0426 21:54:46.151386 27703 net.cpp:137] Memory required for data: 1018214400
I0426 21:54:46.151396 27703 layer_factory.hpp:77] Creating layer relu7
I0426 21:54:46.151404 27703 net.cpp:84] Creating Layer relu7
I0426 21:54:46.151409 27703 net.cpp:406] relu7 <- fc7
I0426 21:54:46.151417 27703 net.cpp:367] relu7 -> fc7 (in-place)
I0426 21:54:46.151825 27703 net.cpp:122] Setting up relu7
I0426 21:54:46.151834 27703 net.cpp:129] Top shape: 128 4096 (524288)
I0426 21:54:46.151839 27703 net.cpp:137] Memory required for data: 1020311552
I0426 21:54:46.151842 27703 layer_factory.hpp:77] Creating layer drop7
I0426 21:54:46.151849 27703 net.cpp:84] Creating Layer drop7
I0426 21:54:46.151873 27703 net.cpp:406] drop7 <- fc7
I0426 21:54:46.151880 27703 net.cpp:367] drop7 -> fc7 (in-place)
I0426 21:54:46.151906 27703 net.cpp:122] Setting up drop7
I0426 21:54:46.151911 27703 net.cpp:129] Top shape: 128 4096 (524288)
I0426 21:54:46.151913 27703 net.cpp:137] Memory required for data: 1022408704
I0426 21:54:46.151917 27703 layer_factory.hpp:77] Creating layer fc8
I0426 21:54:46.151926 27703 net.cpp:84] Creating Layer fc8
I0426 21:54:46.151928 27703 net.cpp:406] fc8 <- fc7
I0426 21:54:46.151933 27703 net.cpp:380] fc8 -> fc8
I0426 21:54:46.162773 27703 net.cpp:122] Setting up fc8
I0426 21:54:46.162786 27703 net.cpp:129] Top shape: 128 196 (25088)
I0426 21:54:46.162791 27703 net.cpp:137] Memory required for data: 1022509056
I0426 21:54:46.162797 27703 layer_factory.hpp:77] Creating layer loss
I0426 21:54:46.162804 27703 net.cpp:84] Creating Layer loss
I0426 21:54:46.162808 27703 net.cpp:406] loss <- fc8
I0426 21:54:46.162813 27703 net.cpp:406] loss <- label
I0426 21:54:46.162822 27703 net.cpp:380] loss -> loss
I0426 21:54:46.162832 27703 layer_factory.hpp:77] Creating layer loss
…
I0426 21:54:46.164333 27703 net.cpp:294] The NetState phase (1) differed from the phase (0) specified by a rule in layer train-data
I0426 21:54:46.164480 27703 net.cpp:51] Initializing net from parameters:
state {
phase: TEST
}
layer {
name: "val-data"
type: "Data"
top: "data"
top: "label"
include {
phase: TEST
}
transform_param {
crop_size: 227
mean_file: "/mnt/bigdisk/DIGITS-MAN-3/digits/jobs/20210421-230320-902c/mean.binaryproto"
}
data_param {
source: "/mnt/bigdisk/DIGITS-MAN-3/digits/jobs/20210421-230320-902c/val_db"
batch_size: 32
backend: LMDB
}
}
layer {
name: "conv1"
type: "Convolution"
bottom: "data"
top: "conv1"
param {
lr_mult: 1
decay_mult: 1
}
param {
lr_mult: 2
decay_mult: 0
}
convolution_param {
num_output: 96
kernel_size: 11
stride: 4
weight_filler {
type: "gaussian"
std: 0.01
}
bias_filler {
type: "constant"
value: 0
}
}
}
layer {
name: "relu1"
type: "ReLU"
bottom: "conv1"
top: "conv1"
}
layer {
name: "norm1"
type: "LRN"
bottom: "conv1"
top: "norm1"
lrn_param {
local_size: 5
alpha: 0.0001
beta: 0.75
}
}
layer {
name: "pool1"
type: "Pooling"
bottom: "norm1"
top: "pool1"
pooling_param {
pool: MAX
kernel_size: 3
stride: 2
}
}
layer {
name: "conv2"
type: "Convolution"
bottom: "pool1"
top: "conv2"
param {
lr_mult: 1
decay_mult: 1
}
param {
lr_mult: 2
decay_mult: 0
}
convolution_param {
num_output: 256
pad: 2
kernel_size: 5
group: 2
weight_filler {
type: "gaussian"
std: 0.01
}
bias_filler {
type: "constant"
value: 0.1
}
}
}
layer {
name: "relu2"
type: "ReLU"
bottom: "conv2"
top: "conv2"
}
layer {
name: "norm2"
type: "LRN"
bottom: "conv2"
top: "norm2"
lrn_param {
local_size: 5
alpha: 0.0001
beta: 0.75
}
}
layer {
name: "pool2"
type: "Pooling"
bottom: "norm2"
top: "pool2"
pooling_param {
pool: MAX
kernel_size: 3
stride: 2
}
}
layer {
name: "conv3"
type: "Convolution"
bottom: "pool2"
top: "conv3"
param {
lr_mult: 1
decay_mult: 1
}
param {
lr_mult: 2
decay_mult: 0
}
convolution_param {
num_output: 384
pad: 1
kernel_size: 3
weight_filler {
type: "gaussian"
std: 0.01
}
bias_filler {
type: "constant"
value: 0
}
}
}
layer {
name: "relu3"
type: "ReLU"
bottom: "conv3"
top: "conv3"
}
layer {
name: "conv4"
type: "Convolution"
bottom: "conv3"
top: "conv4"
param {
lr_mult: 1
decay_mult: 1
}
param {
lr_mult: 2
decay_mult: 0
}
convolution_param {
num_output: 384
pad: 1
kernel_size: 3
group: 2
weight_filler {
type: "gaussian"
std: 0.01
}
bias_filler {
type: "constant"
value: 0.1
}
}
}
layer {
name: "relu4"
type: "ReLU"
bottom: "conv4"
top: "conv4"
}
layer {
name: "conv5"
type: "Convolution"
bottom: "conv4"
top: "conv5"
param {
lr_mult: 1
decay_mult: 1
}
param {
lr_mult: 2
decay_mult: 0
}
convolution_param {
num_output: 256
pad: 1
kernel_size: 11
group: 2
weight_filler {
type: "gaussian"
std: 0.01
}
bias_filler {
type: "constant"
value: 0.1
}
}
}
layer {
name: "relu5"
type: "ReLU"
bottom: "conv5"
top: "conv5"
}
layer {
name: "pool5"
type: "Pooling"
bottom: "conv5"
top: "pool5"
pooling_param {
pool: MAX
kernel_size: 3
stride: 2
}
}
layer {
name: "fc6"
type: "InnerProduct"
bottom: "pool5"
top: "fc6"
param {
lr_mult: 1
decay_mult: 1
}
param {
lr_mult: 2
decay_mult: 0
}
inner_product_param {
num_output: 4096
weight_filler {
type: "gaussian"
std: 0.005
}
bias_filler {
type: "constant"
value: 0.1
}
}
}
layer {
name: "relu6"
type: "ReLU"
bottom: "fc6"
top: "fc6"
}
layer {
name: "drop6"
type: "Dropout"
bottom: "fc6"
top: "fc6"
dropout_param {
dropout_ratio: 0.5
}
}
layer {
name: "fc7"
type: "InnerProduct"
bottom: "fc6"
top: "fc7"
param {
lr_mult: 1
decay_mult: 1
}
param {
lr_mult: 2
decay_mult: 0
}
inner_product_param {
num_output: 4096
weight_filler {
type: "gaussian"
std: 0.005
}
bias_filler {
type: "constant"
value: 0.1
}
}
}
layer {
name: "relu7"
type: "ReLU"
bottom: "fc7"
top: "fc7"
}
layer {
name: "drop7"
type: "Dropout"
bottom: "fc7"
top: "fc7"
dropout_param {
dropout_ratio: 0.5
}
}
layer {
name: "fc8"
type: "InnerProduct"
bottom: "fc7"
top: "fc8"
param {
lr_mult: 1
decay_mult: 1
}
param {
lr_mult: 2
decay_mult: 0
}
inner_product_param {
num_output: 196
weight_filler {
type: "gaussian"
std: 0.01
}
bias_filler {
type: "constant"
value: 0
}
}
}
layer {
name: "accuracy"
type: "Accuracy"
bottom: "fc8"
bottom: "label"
top: "accuracy"
include {
phase: TEST
}
}
layer {
name: "loss"
type: "SoftmaxWithLoss"
bottom: "fc8"
bottom: "label"
top: "loss"
}
I0426 21:54:46.164603 27703 layer_factory.hpp:77] Creating layer val-data
I0426 21:54:46.166167 27703 db_lmdb.cpp:35] Opened lmdb /mnt/bigdisk/DIGITS-MAN-3/digits/jobs/20210421-230320-902c/val_db
I0426 21:54:46.166345 27703 net.cpp:84] Creating Layer val-data
I0426 21:54:46.166354 27703 net.cpp:380] val-data -> data
I0426 21:54:46.166363 27703 net.cpp:380] val-data -> label
I0426 21:54:46.166369 27703 data_transformer.cpp:25] Loading mean file from: /mnt/bigdisk/DIGITS-MAN-3/digits/jobs/20210421-230320-902c/mean.binaryproto
I0426 21:54:46.169818 27703 data_layer.cpp:45] output data size: 32,3,227,227
I0426 21:54:46.217267 27703 net.cpp:122] Setting up val-data
I0426 21:54:46.217288 27703 net.cpp:129] Top shape: 32 3 227 227 (4946784)
I0426 21:54:46.217293 27703 net.cpp:129] Top shape: 32 (32)
I0426 21:54:46.217295 27703 net.cpp:137] Memory required for data: 19787264
I0426 21:54:46.217301 27703 layer_factory.hpp:77] Creating layer label_val-data_1_split
I0426 21:54:46.217314 27703 net.cpp:84] Creating Layer label_val-data_1_split
I0426 21:54:46.217317 27703 net.cpp:406] label_val-data_1_split <- label
I0426 21:54:46.217324 27703 net.cpp:380] label_val-data_1_split -> label_val-data_1_split_0
I0426 21:54:46.217334 27703 net.cpp:380] label_val-data_1_split -> label_val-data_1_split_1
I0426 21:54:46.217413 27703 net.cpp:122] Setting up label_val-data_1_split
I0426 21:54:46.217419 27703 net.cpp:129] Top shape: 32 (32)
I0426 21:54:46.217423 27703 net.cpp:129] Top shape: 32 (32)
I0426 21:54:46.217427 27703 net.cpp:137] Memory required for data: 19787520
I0426 21:54:46.217430 27703 layer_factory.hpp:77] Creating layer conv1
I0426 21:54:46.217442 27703 net.cpp:84] Creating Layer conv1
I0426 21:54:46.217445 27703 net.cpp:406] conv1 <- data
I0426 21:54:46.217450 27703 net.cpp:380] conv1 -> conv1
I0426 21:54:46.220754 27703 net.cpp:122] Setting up conv1
I0426 21:54:46.220765 27703 net.cpp:129] Top shape: 32 96 55 55 (9292800)
I0426 21:54:46.220769 27703 net.cpp:137] Memory required for data: 56958720
I0426 21:54:46.220779 27703 layer_factory.hpp:77] Creating layer relu1
I0426 21:54:46.220788 27703 net.cpp:84] Creating Layer relu1
I0426 21:54:46.220791 27703 net.cpp:406] relu1 <- conv1
I0426 21:54:46.220796 27703 net.cpp:367] relu1 -> conv1 (in-place)
I0426 21:54:46.221086 27703 net.cpp:122] Setting up relu1
I0426 21:54:46.221094 27703 net.cpp:129] Top shape: 32 96 55 55 (9292800)
I0426 21:54:46.221097 27703 net.cpp:137] Memory required for data: 94129920
I0426 21:54:46.221101 27703 layer_factory.hpp:77] Creating layer norm1
I0426 21:54:46.221109 27703 net.cpp:84] Creating Layer norm1
I0426 21:54:46.221113 27703 net.cpp:406] norm1 <- conv1
I0426 21:54:46.221118 27703 net.cpp:380] norm1 -> norm1
I0426 21:54:46.221572 27703 net.cpp:122] Setting up norm1
I0426 21:54:46.221582 27703 net.cpp:129] Top shape: 32 96 55 55 (9292800)
I0426 21:54:46.221586 27703 net.cpp:137] Memory required for data: 131301120
I0426 21:54:46.221590 27703 layer_factory.hpp:77] Creating layer pool1
I0426 21:54:46.221598 27703 net.cpp:84] Creating Layer pool1
I0426 21:54:46.221601 27703 net.cpp:406] pool1 <- norm1
I0426 21:54:46.221606 27703 net.cpp:380] pool1 -> pool1
I0426 21:54:46.221638 27703 net.cpp:122] Setting up pool1
I0426 21:54:46.221643 27703 net.cpp:129] Top shape: 32 96 27 27 (2239488)
I0426 21:54:46.221647 27703 net.cpp:137] Memory required for data: 140259072
I0426 21:54:46.221649 27703 layer_factory.hpp:77] Creating layer conv2
I0426 21:54:46.221658 27703 net.cpp:84] Creating Layer conv2
I0426 21:54:46.221662 27703 net.cpp:406] conv2 <- pool1
I0426 21:54:46.221686 27703 net.cpp:380] conv2 -> conv2
I0426 21:54:46.237264 27703 net.cpp:122] Setting up conv2
I0426 21:54:46.237283 27703 net.cpp:129] Top shape: 32 256 27 27 (5971968)
I0426 21:54:46.237287 27703 net.cpp:137] Memory required for data: 164146944
I0426 21:54:46.237298 27703 layer_factory.hpp:77] Creating layer relu2
I0426 21:54:46.237309 27703 net.cpp:84] Creating Layer relu2
I0426 21:54:46.237314 27703 net.cpp:406] relu2 <- conv2
I0426 21:54:46.237320 27703 net.cpp:367] relu2 -> conv2 (in-place)
I0426 21:54:46.237828 27703 net.cpp:122] Setting up relu2
I0426 21:54:46.237838 27703 net.cpp:129] Top shape: 32 256 27 27 (5971968)
I0426 21:54:46.237841 27703 net.cpp:137] Memory required for data: 188034816
I0426 21:54:46.237845 27703 layer_factory.hpp:77] Creating layer norm2
I0426 21:54:46.237855 27703 net.cpp:84] Creating Layer norm2
I0426 21:54:46.237859 27703 net.cpp:406] norm2 <- conv2
I0426 21:54:46.237864 27703 net.cpp:380] norm2 -> norm2
I0426 21:54:46.238387 27703 net.cpp:122] Setting up norm2
I0426 21:54:46.238396 27703 net.cpp:129] Top shape: 32 256 27 27 (5971968)
I0426 21:54:46.238400 27703 net.cpp:137] Memory required for data: 211922688
I0426 21:54:46.238404 27703 layer_factory.hpp:77] Creating layer pool2
I0426 21:54:46.238410 27703 net.cpp:84] Creating Layer pool2
I0426 21:54:46.238413 27703 net.cpp:406] pool2 <- norm2
I0426 21:54:46.238420 27703 net.cpp:380] pool2 -> pool2
I0426 21:54:46.238454 27703 net.cpp:122] Setting up pool2
I0426 21:54:46.238459 27703 net.cpp:129] Top shape: 32 256 13 13 (1384448)
I0426 21:54:46.238463 27703 net.cpp:137] Memory required for data: 217460480
I0426 21:54:46.238466 27703 layer_factory.hpp:77] Creating layer conv3
I0426 21:54:46.238477 27703 net.cpp:84] Creating Layer conv3
I0426 21:54:46.238481 27703 net.cpp:406] conv3 <- pool2
I0426 21:54:46.238485 27703 net.cpp:380] conv3 -> conv3
I0426 21:54:46.251224 27703 net.cpp:122] Setting up conv3
I0426 21:54:46.251242 27703 net.cpp:129] Top shape: 32 384 13 13 (2076672)
I0426 21:54:46.251246 27703 net.cpp:137] Memory required for data: 225767168
I0426 21:54:46.251258 27703 layer_factory.hpp:77] Creating layer relu3
I0426 21:54:46.251268 27703 net.cpp:84] Creating Layer relu3
I0426 21:54:46.251272 27703 net.cpp:406] relu3 <- conv3
I0426 21:54:46.251282 27703 net.cpp:367] relu3 -> conv3 (in-place)
I0426 21:54:46.251796 27703 net.cpp:122] Setting up relu3
I0426 21:54:46.251804 27703 net.cpp:129] Top shape: 32 384 13 13 (2076672)
I0426 21:54:46.251808 27703 net.cpp:137] Memory required for data: 234073856
I0426 21:54:46.251812 27703 layer_factory.hpp:77] Creating layer conv4
I0426 21:54:46.251824 27703 net.cpp:84] Creating Layer conv4
I0426 21:54:46.251828 27703 net.cpp:406] conv4 <- conv3
I0426 21:54:46.251834 27703 net.cpp:380] conv4 -> conv4
I0426 21:54:46.263211 27703 net.cpp:122] Setting up conv4
I0426 21:54:46.263229 27703 net.cpp:129] Top shape: 32 384 13 13 (2076672)
I0426 21:54:46.263233 27703 net.cpp:137] Memory required for data: 242380544
I0426 21:54:46.263242 27703 layer_factory.hpp:77] Creating layer relu4
I0426 21:54:46.263252 27703 net.cpp:84] Creating Layer relu4
I0426 21:54:46.263257 27703 net.cpp:406] relu4 <- conv4
I0426 21:54:46.263263 27703 net.cpp:367] relu4 -> conv4 (in-place)
I0426 21:54:46.263623 27703 net.cpp:122] Setting up relu4
I0426 21:54:46.263633 27703 net.cpp:129] Top shape: 32 384 13 13 (2076672)
I0426 21:54:46.263636 27703 net.cpp:137] Memory required for data: 250687232
I0426 21:54:46.263639 27703 layer_factory.hpp:77] Creating layer conv5
I0426 21:54:46.263650 27703 net.cpp:84] Creating Layer conv5
I0426 21:54:46.263654 27703 net.cpp:406] conv5 <- conv4
I0426 21:54:46.263660 27703 net.cpp:380] conv5 -> conv5
I0426 21:54:46.357003 27703 net.cpp:122] Setting up conv5
I0426 21:54:46.357023 27703 net.cpp:129] Top shape: 32 256 5 5 (204800)
I0426 21:54:46.357026 27703 net.cpp:137] Memory required for data: 251506432
I0426 21:54:46.357043 27703 layer_factory.hpp:77] Creating layer relu5
I0426 21:54:46.357053 27703 net.cpp:84] Creating Layer relu5
I0426 21:54:46.357057 27703 net.cpp:406] relu5 <- conv5
I0426 21:54:46.357084 27703 net.cpp:367] relu5 -> conv5 (in-place)
I0426 21:54:46.359182 27703 net.cpp:122] Setting up relu5
I0426 21:54:46.359194 27703 net.cpp:129] Top shape: 32 256 5 5 (204800)
I0426 21:54:46.359198 27703 net.cpp:137] Memory required for data: 252325632
I0426 21:54:46.359202 27703 layer_factory.hpp:77] Creating layer pool5
I0426 21:54:46.359212 27703 net.cpp:84] Creating Layer pool5
I0426 21:54:46.359216 27703 net.cpp:406] pool5 <- conv5
I0426 21:54:46.359222 27703 net.cpp:380] pool5 -> pool5
I0426 21:54:46.359266 27703 net.cpp:122] Setting up pool5
I0426 21:54:46.359272 27703 net.cpp:129] Top shape: 32 256 2 2 (32768)
I0426 21:54:46.359274 27703 net.cpp:137] Memory required for data: 252456704
I0426 21:54:46.359278 27703 layer_factory.hpp:77] Creating layer fc6
I0426 21:54:46.359285 27703 net.cpp:84] Creating Layer fc6
I0426 21:54:46.359289 27703 net.cpp:406] fc6 <- pool5
I0426 21:54:46.359295 27703 net.cpp:380] fc6 -> fc6
I0426 21:54:46.401443 27703 net.cpp:122] Setting up fc6
I0426 21:54:46.401464 27703 net.cpp:129] Top shape: 32 4096 (131072)
I0426 21:54:46.401469 27703 net.cpp:137] Memory required for data: 252980992
I0426 21:54:46.401479 27703 layer_factory.hpp:77] Creating layer relu6
I0426 21:54:46.401489 27703 net.cpp:84] Creating Layer relu6
I0426 21:54:46.401492 27703 net.cpp:406] relu6 <- fc6
I0426 21:54:46.401499 27703 net.cpp:367] relu6 -> fc6 (in-place)
I0426 21:54:46.402201 27703 net.cpp:122] Setting up relu6
I0426 21:54:46.402211 27703 net.cpp:129] Top shape: 32 4096 (131072)
I0426 21:54:46.402215 27703 net.cpp:137] Memory required for data: 253505280
I0426 21:54:46.402218 27703 layer_factory.hpp:77] Creating layer drop6
I0426 21:54:46.402225 27703 net.cpp:84] Creating Layer drop6
I0426 21:54:46.402230 27703 net.cpp:406] drop6 <- fc6
I0426 21:54:46.402236 27703 net.cpp:367] drop6 -> fc6 (in-place)
I0426 21:54:46.402261 27703 net.cpp:122] Setting up drop6
I0426 21:54:46.402267 27703 net.cpp:129] Top shape: 32 4096 (131072)
I0426 21:54:46.402271 27703 net.cpp:137] Memory required for data: 254029568
I0426 21:54:46.402274 27703 layer_factory.hpp:77] Creating layer fc7
I0426 21:54:46.402283 27703 net.cpp:84] Creating Layer fc7
I0426 21:54:46.402287 27703 net.cpp:406] fc7 <- fc6
I0426 21:54:46.402293 27703 net.cpp:380] fc7 -> fc7
I0426 21:54:46.563480 27703 net.cpp:122] Setting up fc7
I0426 21:54:46.563501 27703 net.cpp:129] Top shape: 32 4096 (131072)
I0426 21:54:46.563505 27703 net.cpp:137] Memory required for data: 254553856
I0426 21:54:46.563515 27703 layer_factory.hpp:77] Creating layer relu7
I0426 21:54:46.563524 27703 net.cpp:84] Creating Layer relu7
I0426 21:54:46.563529 27703 net.cpp:406] relu7 <- fc7
I0426 21:54:46.563537 27703 net.cpp:367] relu7 -> fc7 (in-place)
I0426 21:54:46.563951 27703 net.cpp:122] Setting up relu7
I0426 21:54:46.563958 27703 net.cpp:129] Top shape: 32 4096 (131072)
I0426 21:54:46.563962 27703 net.cpp:137] Memory required for data: 255078144
I0426 21:54:46.563966 27703 layer_factory.hpp:77] Creating layer drop7
I0426 21:54:46.563974 27703 net.cpp:84] Creating Layer drop7
I0426 21:54:46.563978 27703 net.cpp:406] drop7 <- fc7
I0426 21:54:46.563982 27703 net.cpp:367] drop7 -> fc7 (in-place)
I0426 21:54:46.564007 27703 net.cpp:122] Setting up drop7
I0426 21:54:46.564013 27703 net.cpp:129] Top shape: 32 4096 (131072)
I0426 21:54:46.564016 27703 net.cpp:137] Memory required for data: 255602432
I0426 21:54:46.564019 27703 layer_factory.hpp:77] Creating layer fc8
I0426 21:54:46.564028 27703 net.cpp:84] Creating Layer fc8
I0426 21:54:46.564030 27703 net.cpp:406] fc8 <- fc7
I0426 21:54:46.564036 27703 net.cpp:380] fc8 -> fc8
I0426 21:54:46.574671 27703 net.cpp:122] Setting up fc8
I0426 21:54:46.574682 27703 net.cpp:129] Top shape: 32 196 (6272)
I0426 21:54:46.574687 27703 net.cpp:137] Memory required for data: 255627520
I0426 21:54:46.574693 27703 layer_factory.hpp:77] Creating layer fc8_fc8_0_split
I0426 21:54:46.574700 27703 net.cpp:84] Creating Layer fc8_fc8_0_split
I0426 21:54:46.574704 27703 net.cpp:406] fc8_fc8_0_split <- fc8
I0426 21:54:46.574730 27703 net.cpp:380] fc8_fc8_0_split -> fc8_fc8_0_split_0
I0426 21:54:46.574738 27703 net.cpp:380] fc8_fc8_0_split -> fc8_fc8_0_split_1
I0426 21:54:46.574774 27703 net.cpp:122] Setting up fc8_fc8_0_split
I0426 21:54:46.574779 27703 net.cpp:129] Top shape: 32 196 (6272)
I0426 21:54:46.574784 27703 net.cpp:129] Top shape: 32 196 (6272)
I0426 21:54:46.574786 27703 net.cpp:137] Memory required for data: 255677696
I0426 21:54:46.574790 27703 layer_factory.hpp:77] Creating layer accuracy
I0426 21:54:46.574800 27703 net.cpp:84] Creating Layer accuracy
I0426 21:54:46.574803 27703 net.cpp:406] accuracy <- fc8_fc8_0_split_0
I0426 21:54:46.574808 27703 net.cpp:406] accuracy <- label_val-data_1_split_0
I0426 21:54:46.574813 27703 net.cpp:380] accuracy -> accuracy
…
