…
I0423 08:37:09.476752  9392 net.cpp:294] The NetState phase (0) differed from the phase (1) specified by a rule in layer accuracy
I0423 08:37:09.476891  9392 net.cpp:51] Initializing net from parameters:
state {
phase: TRAIN
level: 0
stage: ""
}
layer {
name: "train-data"
type: "Data"
top: "data"
top: "label"
include {
phase: TRAIN
}
transform_param {
mirror: true
crop_size: 227
mean_file: "/mnt/bigdisk/DIGITS-MAN-3/digits/jobs/20210421-230320-902c/mean.binaryproto"
}
data_param {
source: "/mnt/bigdisk/DIGITS-MAN-3/digits/jobs/20210421-230320-902c/train_db"
batch_size: 128
backend: LMDB
}
}
layer {
name: "conv1"
type: "Convolution"
bottom: "data"
top: "conv1"
param {
lr_mult: 1
decay_mult: 1
}
param {
lr_mult: 2
decay_mult: 0
}
convolution_param {
num_output: 96
kernel_size: 11
stride: 4
weight_filler {
type: "gaussian"
std: 0.01
}
bias_filler {
type: "constant"
value: 0
}
}
}
layer {
name: "relu1"
type: "ReLU"
bottom: "conv1"
top: "conv1"
}
layer {
name: "norm1"
type: "LRN"
bottom: "conv1"
top: "norm1"
lrn_param {
local_size: 5
alpha: 0.0001
beta: 0.75
}
}
layer {
name: "pool1"
type: "Pooling"
bottom: "norm1"
top: "pool1"
pooling_param {
pool: MAX
kernel_size: 3
stride: 2
}
}
layer {
name: "conv2"
type: "Convolution"
bottom: "pool1"
top: "conv2"
param {
lr_mult: 1
decay_mult: 1
}
param {
lr_mult: 2
decay_mult: 0
}
convolution_param {
num_output: 256
pad: 2
kernel_size: 7
group: 2
weight_filler {
type: "gaussian"
std: 0.01
}
bias_filler {
type: "constant"
value: 0.1
}
}
}
layer {
name: "relu2"
type: "ReLU"
bottom: "conv2"
top: "conv2"
}
layer {
name: "norm2"
type: "LRN"
bottom: "conv2"
top: "norm2"
lrn_param {
local_size: 5
alpha: 0.0001
beta: 0.75
}
}
layer {
name: "pool2"
type: "Pooling"
bottom: "norm2"
top: "pool2"
pooling_param {
pool: MAX
kernel_size: 3
stride: 2
}
}
layer {
name: "conv3"
type: "Convolution"
bottom: "pool2"
top: "conv3"
param {
lr_mult: 1
decay_mult: 1
}
param {
lr_mult: 2
decay_mult: 0
}
convolution_param {
num_output: 384
pad: 1
kernel_size: 3
weight_filler {
type: "gaussian"
std: 0.01
}
bias_filler {
type: "constant"
value: 0
}
}
}
layer {
name: "relu3"
type: "ReLU"
bottom: "conv3"
top: "conv3"
}
layer {
name: "conv4"
type: "Convolution"
bottom: "conv3"
top: "conv4"
param {
lr_mult: 1
decay_mult: 1
}
param {
lr_mult: 2
decay_mult: 0
}
convolution_param {
num_output: 384
pad: 1
kernel_size: 3
group: 2
weight_filler {
type: "gaussian"
std: 0.01
}
bias_filler {
type: "constant"
value: 0.1
}
}
}
layer {
name: "relu4"
type: "ReLU"
bottom: "conv4"
top: "conv4"
}
layer {
name: "conv5"
type: "Convolution"
bottom: "conv4"
top: "conv5"
param {
lr_mult: 1
decay_mult: 1
}
param {
lr_mult: 2
decay_mult: 0
}
convolution_param {
num_output: 256
pad: 1
kernel_size: 3
group: 2
weight_filler {
type: "gaussian"
std: 0.01
}
bias_filler {
type: "constant"
value: 0.1
}
}
}
layer {
name: "relu5"
type: "ReLU"
bottom: "conv5"
top: "conv5"
}
layer {
name: "pool5"
type: "Pooling"
bottom: "conv5"
top: "pool5"
pooling_param {
pool: MAX
kernel_size: 3
stride: 2
}
}
layer {
name: "fc6"
type: "InnerProduct"
bottom: "pool5"
top: "fc6"
param {
lr_mult: 1
decay_mult: 1
}
param {
lr_mult: 2
decay_mult: 0
}
inner_product_param {
num_output: 4096
weight_filler {
type: "gaussian"
std: 0.005
}
bias_filler {
type: "constant"
value: 0.1
}
}
}
layer {
name: "relu6"
type: "ReLU"
bottom: "fc6"
top: "fc6"
}
layer {
name: "drop6"
type: "Dropout"
bottom: "fc6"
top: "fc6"
dropout_param {
dropout_ratio: 0.5
}
}
layer {
name: "fc7"
type: "InnerProduct"
bottom: "fc6"
top: "fc7"
param {
lr_mult: 1
decay_mult: 1
}
param {
lr_mult: 2
decay_mult: 0
}
inner_product_param {
num_output: 4096
weight_filler {
type: "gaussian"
std: 0.005
}
bias_filler {
type: "constant"
value: 0.1
}
}
}
layer {
name: "relu7"
type: "ReLU"
bottom: "fc7"
top: "fc7"
}
layer {
name: "drop7"
type: "Dropout"
bottom: "fc7"
top: "fc7"
dropout_param {
dropout_ratio: 0.5
}
}
layer {
name: "fc8"
type: "InnerProduct"
bottom: "fc7"
top: "fc8"
param {
lr_mult: 1
decay_mult: 1
}
param {
lr_mult: 2
decay_mult: 0
}
inner_product_param {
num_output: 196
weight_filler {
type: "gaussian"
std: 0.01
}
bias_filler {
type: "constant"
value: 0
}
}
}
layer {
name: "loss"
type: "SoftmaxWithLoss"
bottom: "fc8"
bottom: "label"
top: "loss"
}
I0423 08:37:09.477003  9392 layer_factory.hpp:77] Creating layer train-data
I0423 08:37:09.498878  9392 db_lmdb.cpp:35] Opened lmdb /mnt/bigdisk/DIGITS-MAN-3/digits/jobs/20210421-230320-902c/train_db
I0423 08:37:09.501317  9392 net.cpp:84] Creating Layer train-data
I0423 08:37:09.501330  9392 net.cpp:380] train-data -> data
I0423 08:37:09.501353  9392 net.cpp:380] train-data -> label
I0423 08:37:09.501364  9392 data_transformer.cpp:25] Loading mean file from: /mnt/bigdisk/DIGITS-MAN-3/digits/jobs/20210421-230320-902c/mean.binaryproto
I0423 08:37:09.512517  9392 data_layer.cpp:45] output data size: 128,3,227,227
I0423 08:37:09.637333  9392 net.cpp:122] Setting up train-data
I0423 08:37:09.637356  9392 net.cpp:129] Top shape: 128 3 227 227 (19787136)
I0423 08:37:09.637362  9392 net.cpp:129] Top shape: 128 (128)
I0423 08:37:09.637365  9392 net.cpp:137] Memory required for data: 79149056
I0423 08:37:09.637377  9392 layer_factory.hpp:77] Creating layer conv1
I0423 08:37:09.637401  9392 net.cpp:84] Creating Layer conv1
I0423 08:37:09.637408  9392 net.cpp:406] conv1 <- data
I0423 08:37:09.637423  9392 net.cpp:380] conv1 -> conv1
I0423 08:37:10.229943  9392 net.cpp:122] Setting up conv1
I0423 08:37:10.229964  9392 net.cpp:129] Top shape: 128 96 55 55 (37171200)
I0423 08:37:10.229967  9392 net.cpp:137] Memory required for data: 227833856
I0423 08:37:10.229987  9392 layer_factory.hpp:77] Creating layer relu1
I0423 08:37:10.229998  9392 net.cpp:84] Creating Layer relu1
I0423 08:37:10.230002  9392 net.cpp:406] relu1 <- conv1
I0423 08:37:10.230008  9392 net.cpp:367] relu1 -> conv1 (in-place)
I0423 08:37:10.230295  9392 net.cpp:122] Setting up relu1
I0423 08:37:10.230304  9392 net.cpp:129] Top shape: 128 96 55 55 (37171200)
I0423 08:37:10.230307  9392 net.cpp:137] Memory required for data: 376518656
I0423 08:37:10.230311  9392 layer_factory.hpp:77] Creating layer norm1
I0423 08:37:10.230320  9392 net.cpp:84] Creating Layer norm1
I0423 08:37:10.230324  9392 net.cpp:406] norm1 <- conv1
I0423 08:37:10.230348  9392 net.cpp:380] norm1 -> norm1
I0423 08:37:10.230798  9392 net.cpp:122] Setting up norm1
I0423 08:37:10.230808  9392 net.cpp:129] Top shape: 128 96 55 55 (37171200)
I0423 08:37:10.230813  9392 net.cpp:137] Memory required for data: 525203456
I0423 08:37:10.230816  9392 layer_factory.hpp:77] Creating layer pool1
I0423 08:37:10.230824  9392 net.cpp:84] Creating Layer pool1
I0423 08:37:10.230829  9392 net.cpp:406] pool1 <- norm1
I0423 08:37:10.230834  9392 net.cpp:380] pool1 -> pool1
I0423 08:37:10.230872  9392 net.cpp:122] Setting up pool1
I0423 08:37:10.230878  9392 net.cpp:129] Top shape: 128 96 27 27 (8957952)
I0423 08:37:10.230882  9392 net.cpp:137] Memory required for data: 561035264
I0423 08:37:10.230886  9392 layer_factory.hpp:77] Creating layer conv2
I0423 08:37:10.230896  9392 net.cpp:84] Creating Layer conv2
I0423 08:37:10.230899  9392 net.cpp:406] conv2 <- pool1
I0423 08:37:10.230906  9392 net.cpp:380] conv2 -> conv2
I0423 08:37:10.240250  9392 net.cpp:122] Setting up conv2
I0423 08:37:10.240264  9392 net.cpp:129] Top shape: 128 256 25 25 (20480000)
I0423 08:37:10.240267  9392 net.cpp:137] Memory required for data: 642955264
I0423 08:37:10.240278  9392 layer_factory.hpp:77] Creating layer relu2
I0423 08:37:10.240285  9392 net.cpp:84] Creating Layer relu2
I0423 08:37:10.240290  9392 net.cpp:406] relu2 <- conv2
I0423 08:37:10.240298  9392 net.cpp:367] relu2 -> conv2 (in-place)
I0423 08:37:10.240799  9392 net.cpp:122] Setting up relu2
I0423 08:37:10.240811  9392 net.cpp:129] Top shape: 128 256 25 25 (20480000)
I0423 08:37:10.240814  9392 net.cpp:137] Memory required for data: 724875264
I0423 08:37:10.240818  9392 layer_factory.hpp:77] Creating layer norm2
I0423 08:37:10.240825  9392 net.cpp:84] Creating Layer norm2
I0423 08:37:10.240829  9392 net.cpp:406] norm2 <- conv2
I0423 08:37:10.240836  9392 net.cpp:380] norm2 -> norm2
I0423 08:37:10.241185  9392 net.cpp:122] Setting up norm2
I0423 08:37:10.241194  9392 net.cpp:129] Top shape: 128 256 25 25 (20480000)
I0423 08:37:10.241199  9392 net.cpp:137] Memory required for data: 806795264
I0423 08:37:10.241201  9392 layer_factory.hpp:77] Creating layer pool2
I0423 08:37:10.241209  9392 net.cpp:84] Creating Layer pool2
I0423 08:37:10.241212  9392 net.cpp:406] pool2 <- norm2
I0423 08:37:10.241219  9392 net.cpp:380] pool2 -> pool2
I0423 08:37:10.241248  9392 net.cpp:122] Setting up pool2
I0423 08:37:10.241255  9392 net.cpp:129] Top shape: 128 256 12 12 (4718592)
I0423 08:37:10.241257  9392 net.cpp:137] Memory required for data: 825669632
I0423 08:37:10.241261  9392 layer_factory.hpp:77] Creating layer conv3
I0423 08:37:10.241273  9392 net.cpp:84] Creating Layer conv3
I0423 08:37:10.241277  9392 net.cpp:406] conv3 <- pool2
I0423 08:37:10.241282  9392 net.cpp:380] conv3 -> conv3
I0423 08:37:10.251335  9392 net.cpp:122] Setting up conv3
I0423 08:37:10.251348  9392 net.cpp:129] Top shape: 128 384 12 12 (7077888)
I0423 08:37:10.251351  9392 net.cpp:137] Memory required for data: 853981184
I0423 08:37:10.251363  9392 layer_factory.hpp:77] Creating layer relu3
I0423 08:37:10.251371  9392 net.cpp:84] Creating Layer relu3
I0423 08:37:10.251375  9392 net.cpp:406] relu3 <- conv3
I0423 08:37:10.251381  9392 net.cpp:367] relu3 -> conv3 (in-place)
I0423 08:37:10.251875  9392 net.cpp:122] Setting up relu3
I0423 08:37:10.251886  9392 net.cpp:129] Top shape: 128 384 12 12 (7077888)
I0423 08:37:10.251890  9392 net.cpp:137] Memory required for data: 882292736
I0423 08:37:10.251894  9392 layer_factory.hpp:77] Creating layer conv4
I0423 08:37:10.251904  9392 net.cpp:84] Creating Layer conv4
I0423 08:37:10.251909  9392 net.cpp:406] conv4 <- conv3
I0423 08:37:10.251914  9392 net.cpp:380] conv4 -> conv4
I0423 08:37:10.262468  9392 net.cpp:122] Setting up conv4
I0423 08:37:10.262483  9392 net.cpp:129] Top shape: 128 384 12 12 (7077888)
I0423 08:37:10.262487  9392 net.cpp:137] Memory required for data: 910604288
I0423 08:37:10.262495  9392 layer_factory.hpp:77] Creating layer relu4
I0423 08:37:10.262504  9392 net.cpp:84] Creating Layer relu4
I0423 08:37:10.262526  9392 net.cpp:406] relu4 <- conv4
I0423 08:37:10.262531  9392 net.cpp:367] relu4 -> conv4 (in-place)
I0423 08:37:10.262873  9392 net.cpp:122] Setting up relu4
I0423 08:37:10.262881  9392 net.cpp:129] Top shape: 128 384 12 12 (7077888)
I0423 08:37:10.262885  9392 net.cpp:137] Memory required for data: 938915840
I0423 08:37:10.262888  9392 layer_factory.hpp:77] Creating layer conv5
I0423 08:37:10.262899  9392 net.cpp:84] Creating Layer conv5
I0423 08:37:10.262903  9392 net.cpp:406] conv5 <- conv4
I0423 08:37:10.262910  9392 net.cpp:380] conv5 -> conv5
I0423 08:37:10.271474  9392 net.cpp:122] Setting up conv5
I0423 08:37:10.271487  9392 net.cpp:129] Top shape: 128 256 12 12 (4718592)
I0423 08:37:10.271492  9392 net.cpp:137] Memory required for data: 957790208
I0423 08:37:10.271502  9392 layer_factory.hpp:77] Creating layer relu5
I0423 08:37:10.271510  9392 net.cpp:84] Creating Layer relu5
I0423 08:37:10.271514  9392 net.cpp:406] relu5 <- conv5
I0423 08:37:10.271520  9392 net.cpp:367] relu5 -> conv5 (in-place)
I0423 08:37:10.272006  9392 net.cpp:122] Setting up relu5
I0423 08:37:10.272017  9392 net.cpp:129] Top shape: 128 256 12 12 (4718592)
I0423 08:37:10.272019  9392 net.cpp:137] Memory required for data: 976664576
I0423 08:37:10.272023  9392 layer_factory.hpp:77] Creating layer pool5
I0423 08:37:10.272030  9392 net.cpp:84] Creating Layer pool5
I0423 08:37:10.272034  9392 net.cpp:406] pool5 <- conv5
I0423 08:37:10.272042  9392 net.cpp:380] pool5 -> pool5
I0423 08:37:10.272076  9392 net.cpp:122] Setting up pool5
I0423 08:37:10.272083  9392 net.cpp:129] Top shape: 128 256 6 6 (1179648)
I0423 08:37:10.272087  9392 net.cpp:137] Memory required for data: 981383168
I0423 08:37:10.272090  9392 layer_factory.hpp:77] Creating layer fc6
I0423 08:37:10.272100  9392 net.cpp:84] Creating Layer fc6
I0423 08:37:10.272104  9392 net.cpp:406] fc6 <- pool5
I0423 08:37:10.272109  9392 net.cpp:380] fc6 -> fc6
I0423 08:37:10.633481  9392 net.cpp:122] Setting up fc6
I0423 08:37:10.633500  9392 net.cpp:129] Top shape: 128 4096 (524288)
I0423 08:37:10.633504  9392 net.cpp:137] Memory required for data: 983480320
I0423 08:37:10.633514  9392 layer_factory.hpp:77] Creating layer relu6
I0423 08:37:10.633523  9392 net.cpp:84] Creating Layer relu6
I0423 08:37:10.633528  9392 net.cpp:406] relu6 <- fc6
I0423 08:37:10.633535  9392 net.cpp:367] relu6 -> fc6 (in-place)
I0423 08:37:10.634477  9392 net.cpp:122] Setting up relu6
I0423 08:37:10.634487  9392 net.cpp:129] Top shape: 128 4096 (524288)
I0423 08:37:10.634491  9392 net.cpp:137] Memory required for data: 985577472
I0423 08:37:10.634495  9392 layer_factory.hpp:77] Creating layer drop6
I0423 08:37:10.634501  9392 net.cpp:84] Creating Layer drop6
I0423 08:37:10.634505  9392 net.cpp:406] drop6 <- fc6
I0423 08:37:10.634510  9392 net.cpp:367] drop6 -> fc6 (in-place)
I0423 08:37:10.634541  9392 net.cpp:122] Setting up drop6
I0423 08:37:10.634546  9392 net.cpp:129] Top shape: 128 4096 (524288)
I0423 08:37:10.634549  9392 net.cpp:137] Memory required for data: 987674624
I0423 08:37:10.634552  9392 layer_factory.hpp:77] Creating layer fc7
I0423 08:37:10.634560  9392 net.cpp:84] Creating Layer fc7
I0423 08:37:10.634564  9392 net.cpp:406] fc7 <- fc6
I0423 08:37:10.634569  9392 net.cpp:380] fc7 -> fc7
I0423 08:37:10.792078  9392 net.cpp:122] Setting up fc7
I0423 08:37:10.792096  9392 net.cpp:129] Top shape: 128 4096 (524288)
I0423 08:37:10.792100  9392 net.cpp:137] Memory required for data: 989771776
I0423 08:37:10.792109  9392 layer_factory.hpp:77] Creating layer relu7
I0423 08:37:10.792119  9392 net.cpp:84] Creating Layer relu7
I0423 08:37:10.792124  9392 net.cpp:406] relu7 <- fc7
I0423 08:37:10.792130  9392 net.cpp:367] relu7 -> fc7 (in-place)
I0423 08:37:10.793383  9392 net.cpp:122] Setting up relu7
I0423 08:37:10.793393  9392 net.cpp:129] Top shape: 128 4096 (524288)
I0423 08:37:10.793397  9392 net.cpp:137] Memory required for data: 991868928
I0423 08:37:10.793401  9392 layer_factory.hpp:77] Creating layer drop7
I0423 08:37:10.793407  9392 net.cpp:84] Creating Layer drop7
I0423 08:37:10.793411  9392 net.cpp:406] drop7 <- fc7
I0423 08:37:10.793438  9392 net.cpp:367] drop7 -> fc7 (in-place)
I0423 08:37:10.793462  9392 net.cpp:122] Setting up drop7
I0423 08:37:10.793469  9392 net.cpp:129] Top shape: 128 4096 (524288)
I0423 08:37:10.793473  9392 net.cpp:137] Memory required for data: 993966080
I0423 08:37:10.793476  9392 layer_factory.hpp:77] Creating layer fc8
I0423 08:37:10.793483  9392 net.cpp:84] Creating Layer fc8
I0423 08:37:10.793486  9392 net.cpp:406] fc8 <- fc7
I0423 08:37:10.793493  9392 net.cpp:380] fc8 -> fc8
I0423 08:37:10.803226  9392 net.cpp:122] Setting up fc8
I0423 08:37:10.803236  9392 net.cpp:129] Top shape: 128 196 (25088)
I0423 08:37:10.803239  9392 net.cpp:137] Memory required for data: 994066432
I0423 08:37:10.803246  9392 layer_factory.hpp:77] Creating layer loss
I0423 08:37:10.803256  9392 net.cpp:84] Creating Layer loss
I0423 08:37:10.803259  9392 net.cpp:406] loss <- fc8
I0423 08:37:10.803263  9392 net.cpp:406] loss <- label
I0423 08:37:10.803270  9392 net.cpp:380] loss -> loss
I0423 08:37:10.803280  9392 layer_factory.hpp:77] Creating layer loss
…
I0423 08:37:10.812008  9392 net.cpp:294] The NetState phase (1) differed from the phase (0) specified by a rule in layer train-data
I0423 08:37:10.812145  9392 net.cpp:51] Initializing net from parameters:
state {
phase: TEST
}
layer {
name: "val-data"
type: "Data"
top: "data"
top: "label"
include {
phase: TEST
}
transform_param {
crop_size: 227
mean_file: "/mnt/bigdisk/DIGITS-MAN-3/digits/jobs/20210421-230320-902c/mean.binaryproto"
}
data_param {
source: "/mnt/bigdisk/DIGITS-MAN-3/digits/jobs/20210421-230320-902c/val_db"
batch_size: 32
backend: LMDB
}
}
layer {
name: "conv1"
type: "Convolution"
bottom: "data"
top: "conv1"
param {
lr_mult: 1
decay_mult: 1
}
param {
lr_mult: 2
decay_mult: 0
}
convolution_param {
num_output: 96
kernel_size: 11
stride: 4
weight_filler {
type: "gaussian"
std: 0.01
}
bias_filler {
type: "constant"
value: 0
}
}
}
layer {
name: "relu1"
type: "ReLU"
bottom: "conv1"
top: "conv1"
}
layer {
name: "norm1"
type: "LRN"
bottom: "conv1"
top: "norm1"
lrn_param {
local_size: 5
alpha: 0.0001
beta: 0.75
}
}
layer {
name: "pool1"
type: "Pooling"
bottom: "norm1"
top: "pool1"
pooling_param {
pool: MAX
kernel_size: 3
stride: 2
}
}
layer {
name: "conv2"
type: "Convolution"
bottom: "pool1"
top: "conv2"
param {
lr_mult: 1
decay_mult: 1
}
param {
lr_mult: 2
decay_mult: 0
}
convolution_param {
num_output: 256
pad: 2
kernel_size: 7
group: 2
weight_filler {
type: "gaussian"
std: 0.01
}
bias_filler {
type: "constant"
value: 0.1
}
}
}
layer {
name: "relu2"
type: "ReLU"
bottom: "conv2"
top: "conv2"
}
layer {
name: "norm2"
type: "LRN"
bottom: "conv2"
top: "norm2"
lrn_param {
local_size: 5
alpha: 0.0001
beta: 0.75
}
}
layer {
name: "pool2"
type: "Pooling"
bottom: "norm2"
top: "pool2"
pooling_param {
pool: MAX
kernel_size: 3
stride: 2
}
}
layer {
name: "conv3"
type: "Convolution"
bottom: "pool2"
top: "conv3"
param {
lr_mult: 1
decay_mult: 1
}
param {
lr_mult: 2
decay_mult: 0
}
convolution_param {
num_output: 384
pad: 1
kernel_size: 3
weight_filler {
type: "gaussian"
std: 0.01
}
bias_filler {
type: "constant"
value: 0
}
}
}
layer {
name: "relu3"
type: "ReLU"
bottom: "conv3"
top: "conv3"
}
layer {
name: "conv4"
type: "Convolution"
bottom: "conv3"
top: "conv4"
param {
lr_mult: 1
decay_mult: 1
}
param {
lr_mult: 2
decay_mult: 0
}
convolution_param {
num_output: 384
pad: 1
kernel_size: 3
group: 2
weight_filler {
type: "gaussian"
std: 0.01
}
bias_filler {
type: "constant"
value: 0.1
}
}
}
layer {
name: "relu4"
type: "ReLU"
bottom: "conv4"
top: "conv4"
}
layer {
name: "conv5"
type: "Convolution"
bottom: "conv4"
top: "conv5"
param {
lr_mult: 1
decay_mult: 1
}
param {
lr_mult: 2
decay_mult: 0
}
convolution_param {
num_output: 256
pad: 1
kernel_size: 3
group: 2
weight_filler {
type: "gaussian"
std: 0.01
}
bias_filler {
type: "constant"
value: 0.1
}
}
}
layer {
name: "relu5"
type: "ReLU"
bottom: "conv5"
top: "conv5"
}
layer {
name: "pool5"
type: "Pooling"
bottom: "conv5"
top: "pool5"
pooling_param {
pool: MAX
kernel_size: 3
stride: 2
}
}
layer {
name: "fc6"
type: "InnerProduct"
bottom: "pool5"
top: "fc6"
param {
lr_mult: 1
decay_mult: 1
}
param {
lr_mult: 2
decay_mult: 0
}
inner_product_param {
num_output: 4096
weight_filler {
type: "gaussian"
std: 0.005
}
bias_filler {
type: "constant"
value: 0.1
}
}
}
layer {
name: "relu6"
type: "ReLU"
bottom: "fc6"
top: "fc6"
}
layer {
name: "drop6"
type: "Dropout"
bottom: "fc6"
top: "fc6"
dropout_param {
dropout_ratio: 0.5
}
}
layer {
name: "fc7"
type: "InnerProduct"
bottom: "fc6"
top: "fc7"
param {
lr_mult: 1
decay_mult: 1
}
param {
lr_mult: 2
decay_mult: 0
}
inner_product_param {
num_output: 4096
weight_filler {
type: "gaussian"
std: 0.005
}
bias_filler {
type: "constant"
value: 0.1
}
}
}
layer {
name: "relu7"
type: "ReLU"
bottom: "fc7"
top: "fc7"
}
layer {
name: "drop7"
type: "Dropout"
bottom: "fc7"
top: "fc7"
dropout_param {
dropout_ratio: 0.5
}
}
layer {
name: "fc8"
type: "InnerProduct"
bottom: "fc7"
top: "fc8"
param {
lr_mult: 1
decay_mult: 1
}
param {
lr_mult: 2
decay_mult: 0
}
inner_product_param {
num_output: 196
weight_filler {
type: "gaussian"
std: 0.01
}
bias_filler {
type: "constant"
value: 0
}
}
}
layer {
name: "accuracy"
type: "Accuracy"
bottom: "fc8"
bottom: "label"
top: "accuracy"
include {
phase: TEST
}
}
layer {
name: "loss"
type: "SoftmaxWithLoss"
bottom: "fc8"
bottom: "label"
top: "loss"
}
I0423 08:37:10.812247  9392 layer_factory.hpp:77] Creating layer val-data
I0423 08:37:10.837307  9392 db_lmdb.cpp:35] Opened lmdb /mnt/bigdisk/DIGITS-MAN-3/digits/jobs/20210421-230320-902c/val_db
I0423 08:37:10.838310  9392 net.cpp:84] Creating Layer val-data
I0423 08:37:10.838325  9392 net.cpp:380] val-data -> data
I0423 08:37:10.838335  9392 net.cpp:380] val-data -> label
I0423 08:37:10.838342  9392 data_transformer.cpp:25] Loading mean file from: /mnt/bigdisk/DIGITS-MAN-3/digits/jobs/20210421-230320-902c/mean.binaryproto
I0423 08:37:10.842689  9392 data_layer.cpp:45] output data size: 32,3,227,227
I0423 08:37:10.873229  9392 net.cpp:122] Setting up val-data
I0423 08:37:10.873250  9392 net.cpp:129] Top shape: 32 3 227 227 (4946784)
I0423 08:37:10.873255  9392 net.cpp:129] Top shape: 32 (32)
I0423 08:37:10.873260  9392 net.cpp:137] Memory required for data: 19787264
I0423 08:37:10.873265  9392 layer_factory.hpp:77] Creating layer label_val-data_1_split
I0423 08:37:10.873278  9392 net.cpp:84] Creating Layer label_val-data_1_split
I0423 08:37:10.873283  9392 net.cpp:406] label_val-data_1_split <- label
I0423 08:37:10.873291  9392 net.cpp:380] label_val-data_1_split -> label_val-data_1_split_0
I0423 08:37:10.873299  9392 net.cpp:380] label_val-data_1_split -> label_val-data_1_split_1
I0423 08:37:10.873441  9392 net.cpp:122] Setting up label_val-data_1_split
I0423 08:37:10.873448  9392 net.cpp:129] Top shape: 32 (32)
I0423 08:37:10.873452  9392 net.cpp:129] Top shape: 32 (32)
I0423 08:37:10.873456  9392 net.cpp:137] Memory required for data: 19787520
I0423 08:37:10.873461  9392 layer_factory.hpp:77] Creating layer conv1
I0423 08:37:10.873473  9392 net.cpp:84] Creating Layer conv1
I0423 08:37:10.873477  9392 net.cpp:406] conv1 <- data
I0423 08:37:10.873484  9392 net.cpp:380] conv1 -> conv1
I0423 08:37:10.875492  9392 net.cpp:122] Setting up conv1
I0423 08:37:10.875504  9392 net.cpp:129] Top shape: 32 96 55 55 (9292800)
I0423 08:37:10.875509  9392 net.cpp:137] Memory required for data: 56958720
I0423 08:37:10.875519  9392 layer_factory.hpp:77] Creating layer relu1
I0423 08:37:10.875525  9392 net.cpp:84] Creating Layer relu1
I0423 08:37:10.875530  9392 net.cpp:406] relu1 <- conv1
I0423 08:37:10.875535  9392 net.cpp:367] relu1 -> conv1 (in-place)
I0423 08:37:10.875824  9392 net.cpp:122] Setting up relu1
I0423 08:37:10.875833  9392 net.cpp:129] Top shape: 32 96 55 55 (9292800)
I0423 08:37:10.875838  9392 net.cpp:137] Memory required for data: 94129920
I0423 08:37:10.875841  9392 layer_factory.hpp:77] Creating layer norm1
I0423 08:37:10.875850  9392 net.cpp:84] Creating Layer norm1
I0423 08:37:10.875854  9392 net.cpp:406] norm1 <- conv1
I0423 08:37:10.875861  9392 net.cpp:380] norm1 -> norm1
I0423 08:37:10.876333  9392 net.cpp:122] Setting up norm1
I0423 08:37:10.876343  9392 net.cpp:129] Top shape: 32 96 55 55 (9292800)
I0423 08:37:10.876348  9392 net.cpp:137] Memory required for data: 131301120
I0423 08:37:10.876351  9392 layer_factory.hpp:77] Creating layer pool1
I0423 08:37:10.876359  9392 net.cpp:84] Creating Layer pool1
I0423 08:37:10.876363  9392 net.cpp:406] pool1 <- norm1
I0423 08:37:10.876368  9392 net.cpp:380] pool1 -> pool1
I0423 08:37:10.876396  9392 net.cpp:122] Setting up pool1
I0423 08:37:10.876402  9392 net.cpp:129] Top shape: 32 96 27 27 (2239488)
I0423 08:37:10.876406  9392 net.cpp:137] Memory required for data: 140259072
I0423 08:37:10.876410  9392 layer_factory.hpp:77] Creating layer conv2
I0423 08:37:10.876418  9392 net.cpp:84] Creating Layer conv2
I0423 08:37:10.876422  9392 net.cpp:406] conv2 <- pool1
I0423 08:37:10.876446  9392 net.cpp:380] conv2 -> conv2
I0423 08:37:10.886179  9392 net.cpp:122] Setting up conv2
I0423 08:37:10.886193  9392 net.cpp:129] Top shape: 32 256 25 25 (5120000)
I0423 08:37:10.886198  9392 net.cpp:137] Memory required for data: 160739072
I0423 08:37:10.886209  9392 layer_factory.hpp:77] Creating layer relu2
I0423 08:37:10.886217  9392 net.cpp:84] Creating Layer relu2
I0423 08:37:10.886221  9392 net.cpp:406] relu2 <- conv2
I0423 08:37:10.886227  9392 net.cpp:367] relu2 -> conv2 (in-place)
I0423 08:37:10.886729  9392 net.cpp:122] Setting up relu2
I0423 08:37:10.886739  9392 net.cpp:129] Top shape: 32 256 25 25 (5120000)
I0423 08:37:10.886744  9392 net.cpp:137] Memory required for data: 181219072
I0423 08:37:10.886747  9392 layer_factory.hpp:77] Creating layer norm2
I0423 08:37:10.886759  9392 net.cpp:84] Creating Layer norm2
I0423 08:37:10.886762  9392 net.cpp:406] norm2 <- conv2
I0423 08:37:10.886768  9392 net.cpp:380] norm2 -> norm2
I0423 08:37:10.887290  9392 net.cpp:122] Setting up norm2
I0423 08:37:10.887300  9392 net.cpp:129] Top shape: 32 256 25 25 (5120000)
I0423 08:37:10.887303  9392 net.cpp:137] Memory required for data: 201699072
I0423 08:37:10.887307  9392 layer_factory.hpp:77] Creating layer pool2
I0423 08:37:10.887316  9392 net.cpp:84] Creating Layer pool2
I0423 08:37:10.887321  9392 net.cpp:406] pool2 <- norm2
I0423 08:37:10.887326  9392 net.cpp:380] pool2 -> pool2
I0423 08:37:10.887359  9392 net.cpp:122] Setting up pool2
I0423 08:37:10.887365  9392 net.cpp:129] Top shape: 32 256 12 12 (1179648)
I0423 08:37:10.887369  9392 net.cpp:137] Memory required for data: 206417664
I0423 08:37:10.887372  9392 layer_factory.hpp:77] Creating layer conv3
I0423 08:37:10.887382  9392 net.cpp:84] Creating Layer conv3
I0423 08:37:10.887387  9392 net.cpp:406] conv3 <- pool2
I0423 08:37:10.887393  9392 net.cpp:380] conv3 -> conv3
I0423 08:37:10.898797  9392 net.cpp:122] Setting up conv3
I0423 08:37:10.898814  9392 net.cpp:129] Top shape: 32 384 12 12 (1769472)
I0423 08:37:10.898818  9392 net.cpp:137] Memory required for data: 213495552
I0423 08:37:10.898830  9392 layer_factory.hpp:77] Creating layer relu3
I0423 08:37:10.898841  9392 net.cpp:84] Creating Layer relu3
I0423 08:37:10.898847  9392 net.cpp:406] relu3 <- conv3
I0423 08:37:10.898854  9392 net.cpp:367] relu3 -> conv3 (in-place)
I0423 08:37:10.899403  9392 net.cpp:122] Setting up relu3
I0423 08:37:10.899415  9392 net.cpp:129] Top shape: 32 384 12 12 (1769472)
I0423 08:37:10.899420  9392 net.cpp:137] Memory required for data: 220573440
I0423 08:37:10.899423  9392 layer_factory.hpp:77] Creating layer conv4
I0423 08:37:10.899436  9392 net.cpp:84] Creating Layer conv4
I0423 08:37:10.899441  9392 net.cpp:406] conv4 <- conv3
I0423 08:37:10.899448  9392 net.cpp:380] conv4 -> conv4
I0423 08:37:10.915266  9392 net.cpp:122] Setting up conv4
I0423 08:37:10.915282  9392 net.cpp:129] Top shape: 32 384 12 12 (1769472)
I0423 08:37:10.915287  9392 net.cpp:137] Memory required for data: 227651328
I0423 08:37:10.915297  9392 layer_factory.hpp:77] Creating layer relu4
I0423 08:37:10.915307  9392 net.cpp:84] Creating Layer relu4
I0423 08:37:10.915311  9392 net.cpp:406] relu4 <- conv4
I0423 08:37:10.915323  9392 net.cpp:367] relu4 -> conv4 (in-place)
I0423 08:37:10.915675  9392 net.cpp:122] Setting up relu4
I0423 08:37:10.915684  9392 net.cpp:129] Top shape: 32 384 12 12 (1769472)
I0423 08:37:10.915688  9392 net.cpp:137] Memory required for data: 234729216
I0423 08:37:10.915693  9392 layer_factory.hpp:77] Creating layer conv5
I0423 08:37:10.915704  9392 net.cpp:84] Creating Layer conv5
I0423 08:37:10.915709  9392 net.cpp:406] conv5 <- conv4
I0423 08:37:10.915715  9392 net.cpp:380] conv5 -> conv5
I0423 08:37:10.932531  9392 net.cpp:122] Setting up conv5
I0423 08:37:10.932548  9392 net.cpp:129] Top shape: 32 256 12 12 (1179648)
I0423 08:37:10.932552  9392 net.cpp:137] Memory required for data: 239447808
I0423 08:37:10.932565  9392 layer_factory.hpp:77] Creating layer relu5
I0423 08:37:10.932574  9392 net.cpp:84] Creating Layer relu5
I0423 08:37:10.932579  9392 net.cpp:406] relu5 <- conv5
I0423 08:37:10.932605  9392 net.cpp:367] relu5 -> conv5 (in-place)
I0423 08:37:10.933101  9392 net.cpp:122] Setting up relu5
I0423 08:37:10.933111  9392 net.cpp:129] Top shape: 32 256 12 12 (1179648)
I0423 08:37:10.933115  9392 net.cpp:137] Memory required for data: 244166400
I0423 08:37:10.933120  9392 layer_factory.hpp:77] Creating layer pool5
I0423 08:37:10.933130  9392 net.cpp:84] Creating Layer pool5
I0423 08:37:10.933135  9392 net.cpp:406] pool5 <- conv5
I0423 08:37:10.933141  9392 net.cpp:380] pool5 -> pool5
I0423 08:37:10.933182  9392 net.cpp:122] Setting up pool5
I0423 08:37:10.933187  9392 net.cpp:129] Top shape: 32 256 6 6 (294912)
I0423 08:37:10.933192  9392 net.cpp:137] Memory required for data: 245346048
I0423 08:37:10.933194  9392 layer_factory.hpp:77] Creating layer fc6
I0423 08:37:10.933203  9392 net.cpp:84] Creating Layer fc6
I0423 08:37:10.933207  9392 net.cpp:406] fc6 <- pool5
I0423 08:37:10.933212  9392 net.cpp:380] fc6 -> fc6
I0423 08:37:11.290881  9392 net.cpp:122] Setting up fc6
I0423 08:37:11.290900  9392 net.cpp:129] Top shape: 32 4096 (131072)
I0423 08:37:11.290905  9392 net.cpp:137] Memory required for data: 245870336
I0423 08:37:11.290915  9392 layer_factory.hpp:77] Creating layer relu6
I0423 08:37:11.290923  9392 net.cpp:84] Creating Layer relu6
I0423 08:37:11.290928  9392 net.cpp:406] relu6 <- fc6
I0423 08:37:11.290937  9392 net.cpp:367] relu6 -> fc6 (in-place)
I0423 08:37:11.291749  9392 net.cpp:122] Setting up relu6
I0423 08:37:11.291759  9392 net.cpp:129] Top shape: 32 4096 (131072)
I0423 08:37:11.291762  9392 net.cpp:137] Memory required for data: 246394624
I0423 08:37:11.291766  9392 layer_factory.hpp:77] Creating layer drop6
I0423 08:37:11.291774  9392 net.cpp:84] Creating Layer drop6
I0423 08:37:11.291779  9392 net.cpp:406] drop6 <- fc6
I0423 08:37:11.291785  9392 net.cpp:367] drop6 -> fc6 (in-place)
I0423 08:37:11.291812  9392 net.cpp:122] Setting up drop6
I0423 08:37:11.291817  9392 net.cpp:129] Top shape: 32 4096 (131072)
I0423 08:37:11.291822  9392 net.cpp:137] Memory required for data: 246918912
I0423 08:37:11.291826  9392 layer_factory.hpp:77] Creating layer fc7
I0423 08:37:11.291833  9392 net.cpp:84] Creating Layer fc7
I0423 08:37:11.291836  9392 net.cpp:406] fc7 <- fc6
I0423 08:37:11.291843  9392 net.cpp:380] fc7 -> fc7
I0423 08:37:11.453209  9392 net.cpp:122] Setting up fc7
I0423 08:37:11.453228  9392 net.cpp:129] Top shape: 32 4096 (131072)
I0423 08:37:11.453233  9392 net.cpp:137] Memory required for data: 247443200
I0423 08:37:11.453243  9392 layer_factory.hpp:77] Creating layer relu7
I0423 08:37:11.453251  9392 net.cpp:84] Creating Layer relu7
I0423 08:37:11.453256  9392 net.cpp:406] relu7 <- fc7
I0423 08:37:11.453264  9392 net.cpp:367] relu7 -> fc7 (in-place)
I0423 08:37:11.453685  9392 net.cpp:122] Setting up relu7
I0423 08:37:11.453693  9392 net.cpp:129] Top shape: 32 4096 (131072)
I0423 08:37:11.453697  9392 net.cpp:137] Memory required for data: 247967488
I0423 08:37:11.453701  9392 layer_factory.hpp:77] Creating layer drop7
I0423 08:37:11.453707  9392 net.cpp:84] Creating Layer drop7
I0423 08:37:11.453711  9392 net.cpp:406] drop7 <- fc7
I0423 08:37:11.453716  9392 net.cpp:367] drop7 -> fc7 (in-place)
I0423 08:37:11.453742  9392 net.cpp:122] Setting up drop7
I0423 08:37:11.453747  9392 net.cpp:129] Top shape: 32 4096 (131072)
I0423 08:37:11.453749  9392 net.cpp:137] Memory required for data: 248491776
I0423 08:37:11.453753  9392 layer_factory.hpp:77] Creating layer fc8
I0423 08:37:11.453761  9392 net.cpp:84] Creating Layer fc8
I0423 08:37:11.453764  9392 net.cpp:406] fc8 <- fc7
I0423 08:37:11.453769  9392 net.cpp:380] fc8 -> fc8
I0423 08:37:11.461570  9392 net.cpp:122] Setting up fc8
I0423 08:37:11.461580  9392 net.cpp:129] Top shape: 32 196 (6272)
I0423 08:37:11.461583  9392 net.cpp:137] Memory required for data: 248516864
I0423 08:37:11.461589  9392 layer_factory.hpp:77] Creating layer fc8_fc8_0_split
I0423 08:37:11.461597  9392 net.cpp:84] Creating Layer fc8_fc8_0_split
I0423 08:37:11.461601  9392 net.cpp:406] fc8_fc8_0_split <- fc8
I0423 08:37:11.461623  9392 net.cpp:380] fc8_fc8_0_split -> fc8_fc8_0_split_0
I0423 08:37:11.461632  9392 net.cpp:380] fc8_fc8_0_split -> fc8_fc8_0_split_1
I0423 08:37:11.461665  9392 net.cpp:122] Setting up fc8_fc8_0_split
I0423 08:37:11.461670  9392 net.cpp:129] Top shape: 32 196 (6272)
I0423 08:37:11.461674  9392 net.cpp:129] Top shape: 32 196 (6272)
I0423 08:37:11.461678  9392 net.cpp:137] Memory required for data: 248567040
I0423 08:37:11.461681  9392 layer_factory.hpp:77] Creating layer accuracy
I0423 08:37:11.461688  9392 net.cpp:84] Creating Layer accuracy
I0423 08:37:11.461691  9392 net.cpp:406] accuracy <- fc8_fc8_0_split_0
I0423 08:37:11.461695  9392 net.cpp:406] accuracy <- label_val-data_1_split_0
I0423 08:37:11.461700  9392 net.cpp:380] accuracy -> accuracy
…
