…
I0410 13:30:24.091167 18606 net.cpp:294] The NetState phase (0) differed from the phase (1) specified by a rule in layer accuracy
I0410 13:30:24.091339 18606 net.cpp:51] Initializing net from parameters:
state {
phase: TRAIN
level: 0
stage: ""
}
layer {
name: "train-data"
type: "Data"
top: "data"
top: "label"
include {
phase: TRAIN
}
transform_param {
mirror: true
crop_size: 227
mean_file: "/mnt/bigdisk/DIGITS-MAN-2/digits/jobs/20210407-214532-d396/mean.binaryproto"
}
data_param {
source: "/mnt/bigdisk/DIGITS-MAN-2/digits/jobs/20210407-214532-d396/train_db"
batch_size: 128
backend: LMDB
}
}
layer {
name: "conv1"
type: "Convolution"
bottom: "data"
top: "conv1"
param {
lr_mult: 1
decay_mult: 1
}
param {
lr_mult: 2
decay_mult: 0
}
convolution_param {
num_output: 96
kernel_size: 11
stride: 4
weight_filler {
type: "gaussian"
std: 0.01
}
bias_filler {
type: "constant"
value: 0
}
}
}
layer {
name: "relu1"
type: "ReLU"
bottom: "conv1"
top: "conv1"
}
layer {
name: "norm1"
type: "LRN"
bottom: "conv1"
top: "norm1"
lrn_param {
local_size: 5
alpha: 0.0001
beta: 0.75
}
}
layer {
name: "pool1"
type: "Pooling"
bottom: "norm1"
top: "pool1"
pooling_param {
pool: MAX
kernel_size: 3
stride: 2
}
}
layer {
name: "conv2"
type: "Convolution"
bottom: "pool1"
top: "conv2"
param {
lr_mult: 1
decay_mult: 1
}
param {
lr_mult: 2
decay_mult: 0
}
convolution_param {
num_output: 256
pad: 2
kernel_size: 5
group: 2
weight_filler {
type: "gaussian"
std: 0.01
}
bias_filler {
type: "constant"
value: 0.1
}
}
}
layer {
name: "relu2"
type: "ReLU"
bottom: "conv2"
top: "conv2"
}
layer {
name: "norm2"
type: "LRN"
bottom: "conv2"
top: "norm2"
lrn_param {
local_size: 5
alpha: 0.0001
beta: 0.75
}
}
layer {
name: "pool2"
type: "Pooling"
bottom: "norm2"
top: "pool2"
pooling_param {
pool: MAX
kernel_size: 3
stride: 2
}
}
layer {
name: "conv3"
type: "Convolution"
bottom: "pool2"
top: "conv3"
param {
lr_mult: 1
decay_mult: 1
}
param {
lr_mult: 2
decay_mult: 0
}
convolution_param {
num_output: 384
pad: 1
kernel_size: 3
weight_filler {
type: "gaussian"
std: 0.01
}
bias_filler {
type: "constant"
value: 0
}
}
}
layer {
name: "relu3"
type: "ReLU"
bottom: "conv3"
top: "conv3"
}
layer {
name: "conv4"
type: "Convolution"
bottom: "conv3"
top: "conv4"
param {
lr_mult: 1
decay_mult: 1
}
param {
lr_mult: 2
decay_mult: 0
}
convolution_param {
num_output: 384
pad: 1
kernel_size: 3
group: 2
weight_filler {
type: "gaussian"
std: 0.01
}
bias_filler {
type: "constant"
value: 0.1
}
}
}
layer {
name: "relu4"
type: "ReLU"
bottom: "conv4"
top: "conv4"
}
layer {
name: "conv5"
type: "Convolution"
bottom: "conv4"
top: "conv5"
param {
lr_mult: 1
decay_mult: 1
}
param {
lr_mult: 2
decay_mult: 0
}
convolution_param {
num_output: 256
pad: 1
kernel_size: 3
group: 2
weight_filler {
type: "gaussian"
std: 0.01
}
bias_filler {
type: "constant"
value: 0.1
}
}
}
layer {
name: "relu5"
type: "ReLU"
bottom: "conv5"
top: "conv5"
}
layer {
name: "pool5"
type: "Pooling"
bottom: "conv5"
top: "pool5"
pooling_param {
pool: MAX
kernel_size: 3
stride: 2
}
}
layer {
name: "fc6"
type: "InnerProduct"
bottom: "pool5"
top: "fc6"
param {
lr_mult: 1
decay_mult: 1
}
param {
lr_mult: 2
decay_mult: 0
}
inner_product_param {
num_output: 256
weight_filler {
type: "gaussian"
std: 0.005
}
bias_filler {
type: "constant"
value: 0.1
}
}
}
layer {
name: "relu6"
type: "ReLU"
bottom: "fc6"
top: "fc6"
}
layer {
name: "drop6"
type: "Dropout"
bottom: "fc6"
top: "fc6"
dropout_param {
dropout_ratio: 0.5
}
}
layer {
name: "fc7"
type: "InnerProduct"
bottom: "fc6"
top: "fc7"
param {
lr_mult: 1
decay_mult: 1
}
param {
lr_mult: 2
decay_mult: 0
}
inner_product_param {
num_output: 256
weight_filler {
type: "gaussian"
std: 0.005
}
bias_filler {
type: "constant"
value: 0.1
}
}
}
layer {
name: "relu7"
type: "ReLU"
bottom: "fc7"
top: "fc7"
}
layer {
name: "drop7"
type: "Dropout"
bottom: "fc7"
top: "fc7"
dropout_param {
dropout_ratio: 0.5
}
}
layer {
name: "fc7.5"
type: "InnerProduct"
bottom: "fc7"
top: "fc7.5"
param {
lr_mult: 1
decay_mult: 1
}
param {
lr_mult: 2
decay_mult: 0
}
inner_product_param {
num_output: 256
weight_filler {
type: "gaussian"
std: 0.005
}
bias_filler {
type: "constant"
value: 0.1
}
}
}
layer {
name: "relu7.5"
type: "ReLU"
bottom: "fc7.5"
top: "fc7.5"
}
layer {
name: "drop7.5"
type: "Dropout"
bottom: "fc7.5"
top: "fc7.5"
dropout_param {
dropout_ratio: 0.5
}
}
layer {
name: "fc7.6"
type: "InnerProduct"
bottom: "fc7.5"
top: "fc7.6"
param {
lr_mult: 1
decay_mult: 1
}
param {
lr_mult: 2
decay_mult: 0
}
inner_product_param {
num_output: 256
weight_filler {
type: "gaussian"
std: 0.005
}
bias_filler {
type: "constant"
value: 0.1
}
}
}
layer {
name: "relu7.6"
type: "ReLU"
bottom: "fc7.6"
top: "fc7.6"
}
layer {
name: "drop7.6"
type: "Dropout"
bottom: "fc7.6"
top: "fc7.6"
dropout_param {
dropout_ratio: 0.5
}
}
layer {
name: "fc8"
type: "InnerProduct"
bottom: "fc7.6"
top: "fc8"
param {
lr_mult: 1
decay_mult: 1
}
param {
lr_mult: 2
decay_mult: 0
}
inner_product_param {
num_output: 196
weight_filler {
type: "gaussian"
std: 0.01
}
bias_filler {
type: "constant"
value: 0
}
}
}
layer {
name: "loss"
type: "SoftmaxWithLoss"
bottom: "fc8"
bottom: "label"
top: "loss"
}
I0410 13:30:24.091445 18606 layer_factory.hpp:77] Creating layer train-data
I0410 13:30:24.093165 18606 db_lmdb.cpp:35] Opened lmdb /mnt/bigdisk/DIGITS-MAN-2/digits/jobs/20210407-214532-d396/train_db
I0410 13:30:24.093561 18606 net.cpp:84] Creating Layer train-data
I0410 13:30:24.093585 18606 net.cpp:380] train-data -> data
I0410 13:30:24.093623 18606 net.cpp:380] train-data -> label
I0410 13:30:24.093647 18606 data_transformer.cpp:25] Loading mean file from: /mnt/bigdisk/DIGITS-MAN-2/digits/jobs/20210407-214532-d396/mean.binaryproto
I0410 13:30:24.104099 18606 data_layer.cpp:45] output data size: 128,3,227,227
I0410 13:30:24.269528 18606 net.cpp:122] Setting up train-data
I0410 13:30:24.269552 18606 net.cpp:129] Top shape: 128 3 227 227 (19787136)
I0410 13:30:24.269558 18606 net.cpp:129] Top shape: 128 (128)
I0410 13:30:24.269562 18606 net.cpp:137] Memory required for data: 79149056
I0410 13:30:24.269593 18606 layer_factory.hpp:77] Creating layer conv1
I0410 13:30:24.269614 18606 net.cpp:84] Creating Layer conv1
I0410 13:30:24.269621 18606 net.cpp:406] conv1 <- data
I0410 13:30:24.269634 18606 net.cpp:380] conv1 -> conv1
I0410 13:30:24.876385 18606 net.cpp:122] Setting up conv1
I0410 13:30:24.876408 18606 net.cpp:129] Top shape: 128 96 55 55 (37171200)
I0410 13:30:24.876412 18606 net.cpp:137] Memory required for data: 227833856
I0410 13:30:24.876432 18606 layer_factory.hpp:77] Creating layer relu1
I0410 13:30:24.876444 18606 net.cpp:84] Creating Layer relu1
I0410 13:30:24.876448 18606 net.cpp:406] relu1 <- conv1
I0410 13:30:24.876456 18606 net.cpp:367] relu1 -> conv1 (in-place)
I0410 13:30:24.876765 18606 net.cpp:122] Setting up relu1
I0410 13:30:24.876773 18606 net.cpp:129] Top shape: 128 96 55 55 (37171200)
I0410 13:30:24.876777 18606 net.cpp:137] Memory required for data: 376518656
I0410 13:30:24.876781 18606 layer_factory.hpp:77] Creating layer norm1
I0410 13:30:24.876791 18606 net.cpp:84] Creating Layer norm1
I0410 13:30:24.876794 18606 net.cpp:406] norm1 <- conv1
I0410 13:30:24.876799 18606 net.cpp:380] norm1 -> norm1
I0410 13:30:24.877271 18606 net.cpp:122] Setting up norm1
I0410 13:30:24.877282 18606 net.cpp:129] Top shape: 128 96 55 55 (37171200)
I0410 13:30:24.877285 18606 net.cpp:137] Memory required for data: 525203456
I0410 13:30:24.877290 18606 layer_factory.hpp:77] Creating layer pool1
I0410 13:30:24.877297 18606 net.cpp:84] Creating Layer pool1
I0410 13:30:24.877301 18606 net.cpp:406] pool1 <- norm1
I0410 13:30:24.877306 18606 net.cpp:380] pool1 -> pool1
I0410 13:30:24.877346 18606 net.cpp:122] Setting up pool1
I0410 13:30:24.877351 18606 net.cpp:129] Top shape: 128 96 27 27 (8957952)
I0410 13:30:24.877355 18606 net.cpp:137] Memory required for data: 561035264
I0410 13:30:24.877358 18606 layer_factory.hpp:77] Creating layer conv2
I0410 13:30:24.877368 18606 net.cpp:84] Creating Layer conv2
I0410 13:30:24.877372 18606 net.cpp:406] conv2 <- pool1
I0410 13:30:24.877377 18606 net.cpp:380] conv2 -> conv2
I0410 13:30:24.884753 18606 net.cpp:122] Setting up conv2
I0410 13:30:24.884770 18606 net.cpp:129] Top shape: 128 256 27 27 (23887872)
I0410 13:30:24.884774 18606 net.cpp:137] Memory required for data: 656586752
I0410 13:30:24.884784 18606 layer_factory.hpp:77] Creating layer relu2
I0410 13:30:24.884793 18606 net.cpp:84] Creating Layer relu2
I0410 13:30:24.884796 18606 net.cpp:406] relu2 <- conv2
I0410 13:30:24.884801 18606 net.cpp:367] relu2 -> conv2 (in-place)
I0410 13:30:24.885254 18606 net.cpp:122] Setting up relu2
I0410 13:30:24.885264 18606 net.cpp:129] Top shape: 128 256 27 27 (23887872)
I0410 13:30:24.885268 18606 net.cpp:137] Memory required for data: 752138240
I0410 13:30:24.885272 18606 layer_factory.hpp:77] Creating layer norm2
I0410 13:30:24.885280 18606 net.cpp:84] Creating Layer norm2
I0410 13:30:24.885284 18606 net.cpp:406] norm2 <- conv2
I0410 13:30:24.885289 18606 net.cpp:380] norm2 -> norm2
I0410 13:30:24.885599 18606 net.cpp:122] Setting up norm2
I0410 13:30:24.885607 18606 net.cpp:129] Top shape: 128 256 27 27 (23887872)
I0410 13:30:24.885612 18606 net.cpp:137] Memory required for data: 847689728
I0410 13:30:24.885614 18606 layer_factory.hpp:77] Creating layer pool2
I0410 13:30:24.885622 18606 net.cpp:84] Creating Layer pool2
I0410 13:30:24.885627 18606 net.cpp:406] pool2 <- norm2
I0410 13:30:24.885632 18606 net.cpp:380] pool2 -> pool2
I0410 13:30:24.885660 18606 net.cpp:122] Setting up pool2
I0410 13:30:24.885665 18606 net.cpp:129] Top shape: 128 256 13 13 (5537792)
I0410 13:30:24.885668 18606 net.cpp:137] Memory required for data: 869840896
I0410 13:30:24.885671 18606 layer_factory.hpp:77] Creating layer conv3
I0410 13:30:24.885681 18606 net.cpp:84] Creating Layer conv3
I0410 13:30:24.885684 18606 net.cpp:406] conv3 <- pool2
I0410 13:30:24.885689 18606 net.cpp:380] conv3 -> conv3
I0410 13:30:24.906244 18606 net.cpp:122] Setting up conv3
I0410 13:30:24.906261 18606 net.cpp:129] Top shape: 128 384 13 13 (8306688)
I0410 13:30:24.906265 18606 net.cpp:137] Memory required for data: 903067648
I0410 13:30:24.906294 18606 layer_factory.hpp:77] Creating layer relu3
I0410 13:30:24.906306 18606 net.cpp:84] Creating Layer relu3
I0410 13:30:24.906311 18606 net.cpp:406] relu3 <- conv3
I0410 13:30:24.906318 18606 net.cpp:367] relu3 -> conv3 (in-place)
I0410 13:30:24.906838 18606 net.cpp:122] Setting up relu3
I0410 13:30:24.906848 18606 net.cpp:129] Top shape: 128 384 13 13 (8306688)
I0410 13:30:24.906852 18606 net.cpp:137] Memory required for data: 936294400
I0410 13:30:24.906857 18606 layer_factory.hpp:77] Creating layer conv4
I0410 13:30:24.906870 18606 net.cpp:84] Creating Layer conv4
I0410 13:30:24.906874 18606 net.cpp:406] conv4 <- conv3
I0410 13:30:24.906880 18606 net.cpp:380] conv4 -> conv4
I0410 13:30:24.922952 18606 net.cpp:122] Setting up conv4
I0410 13:30:24.922971 18606 net.cpp:129] Top shape: 128 384 13 13 (8306688)
I0410 13:30:24.922976 18606 net.cpp:137] Memory required for data: 969521152
I0410 13:30:24.922984 18606 layer_factory.hpp:77] Creating layer relu4
I0410 13:30:24.922996 18606 net.cpp:84] Creating Layer relu4
I0410 13:30:24.922999 18606 net.cpp:406] relu4 <- conv4
I0410 13:30:24.923007 18606 net.cpp:367] relu4 -> conv4 (in-place)
I0410 13:30:24.923377 18606 net.cpp:122] Setting up relu4
I0410 13:30:24.923385 18606 net.cpp:129] Top shape: 128 384 13 13 (8306688)
I0410 13:30:24.923389 18606 net.cpp:137] Memory required for data: 1002747904
I0410 13:30:24.923394 18606 layer_factory.hpp:77] Creating layer conv5
I0410 13:30:24.923406 18606 net.cpp:84] Creating Layer conv5
I0410 13:30:24.923410 18606 net.cpp:406] conv5 <- conv4
I0410 13:30:24.923418 18606 net.cpp:380] conv5 -> conv5
I0410 13:30:24.947127 18606 net.cpp:122] Setting up conv5
I0410 13:30:24.947149 18606 net.cpp:129] Top shape: 128 256 13 13 (5537792)
I0410 13:30:24.947152 18606 net.cpp:137] Memory required for data: 1024899072
I0410 13:30:24.947167 18606 layer_factory.hpp:77] Creating layer relu5
I0410 13:30:24.947177 18606 net.cpp:84] Creating Layer relu5
I0410 13:30:24.947182 18606 net.cpp:406] relu5 <- conv5
I0410 13:30:24.947190 18606 net.cpp:367] relu5 -> conv5 (in-place)
I0410 13:30:24.947758 18606 net.cpp:122] Setting up relu5
I0410 13:30:24.947770 18606 net.cpp:129] Top shape: 128 256 13 13 (5537792)
I0410 13:30:24.947774 18606 net.cpp:137] Memory required for data: 1047050240
I0410 13:30:24.947778 18606 layer_factory.hpp:77] Creating layer pool5
I0410 13:30:24.947788 18606 net.cpp:84] Creating Layer pool5
I0410 13:30:24.947793 18606 net.cpp:406] pool5 <- conv5
I0410 13:30:24.947799 18606 net.cpp:380] pool5 -> pool5
I0410 13:30:24.947841 18606 net.cpp:122] Setting up pool5
I0410 13:30:24.947849 18606 net.cpp:129] Top shape: 128 256 6 6 (1179648)
I0410 13:30:24.947851 18606 net.cpp:137] Memory required for data: 1051768832
I0410 13:30:24.947854 18606 layer_factory.hpp:77] Creating layer fc6
I0410 13:30:24.947865 18606 net.cpp:84] Creating Layer fc6
I0410 13:30:24.947870 18606 net.cpp:406] fc6 <- pool5
I0410 13:30:24.947875 18606 net.cpp:380] fc6 -> fc6
I0410 13:30:24.972143 18606 net.cpp:122] Setting up fc6
I0410 13:30:24.972163 18606 net.cpp:129] Top shape: 128 256 (32768)
I0410 13:30:24.972167 18606 net.cpp:137] Memory required for data: 1051899904
I0410 13:30:24.972177 18606 layer_factory.hpp:77] Creating layer relu6
I0410 13:30:24.972185 18606 net.cpp:84] Creating Layer relu6
I0410 13:30:24.972190 18606 net.cpp:406] relu6 <- fc6
I0410 13:30:24.972196 18606 net.cpp:367] relu6 -> fc6 (in-place)
I0410 13:30:24.972859 18606 net.cpp:122] Setting up relu6
I0410 13:30:24.972868 18606 net.cpp:129] Top shape: 128 256 (32768)
I0410 13:30:24.972872 18606 net.cpp:137] Memory required for data: 1052030976
I0410 13:30:24.972875 18606 layer_factory.hpp:77] Creating layer drop6
I0410 13:30:24.972883 18606 net.cpp:84] Creating Layer drop6
I0410 13:30:24.972887 18606 net.cpp:406] drop6 <- fc6
I0410 13:30:24.972893 18606 net.cpp:367] drop6 -> fc6 (in-place)
I0410 13:30:24.972923 18606 net.cpp:122] Setting up drop6
I0410 13:30:24.972927 18606 net.cpp:129] Top shape: 128 256 (32768)
I0410 13:30:24.972950 18606 net.cpp:137] Memory required for data: 1052162048
I0410 13:30:24.972954 18606 layer_factory.hpp:77] Creating layer fc7
I0410 13:30:24.972963 18606 net.cpp:84] Creating Layer fc7
I0410 13:30:24.972967 18606 net.cpp:406] fc7 <- fc6
I0410 13:30:24.972972 18606 net.cpp:380] fc7 -> fc7
I0410 13:30:24.973672 18606 net.cpp:122] Setting up fc7
I0410 13:30:24.973680 18606 net.cpp:129] Top shape: 128 256 (32768)
I0410 13:30:24.973682 18606 net.cpp:137] Memory required for data: 1052293120
I0410 13:30:24.973688 18606 layer_factory.hpp:77] Creating layer relu7
I0410 13:30:24.973695 18606 net.cpp:84] Creating Layer relu7
I0410 13:30:24.973699 18606 net.cpp:406] relu7 <- fc7
I0410 13:30:24.973703 18606 net.cpp:367] relu7 -> fc7 (in-place)
I0410 13:30:24.974231 18606 net.cpp:122] Setting up relu7
I0410 13:30:24.974241 18606 net.cpp:129] Top shape: 128 256 (32768)
I0410 13:30:24.974243 18606 net.cpp:137] Memory required for data: 1052424192
I0410 13:30:24.974247 18606 layer_factory.hpp:77] Creating layer drop7
I0410 13:30:24.974253 18606 net.cpp:84] Creating Layer drop7
I0410 13:30:24.974257 18606 net.cpp:406] drop7 <- fc7
I0410 13:30:24.974263 18606 net.cpp:367] drop7 -> fc7 (in-place)
I0410 13:30:24.974289 18606 net.cpp:122] Setting up drop7
I0410 13:30:24.974294 18606 net.cpp:129] Top shape: 128 256 (32768)
I0410 13:30:24.974298 18606 net.cpp:137] Memory required for data: 1052555264
I0410 13:30:24.974300 18606 layer_factory.hpp:77] Creating layer fc7.5
I0410 13:30:24.974306 18606 net.cpp:84] Creating Layer fc7.5
I0410 13:30:24.974310 18606 net.cpp:406] fc7.5 <- fc7
I0410 13:30:24.974316 18606 net.cpp:380] fc7.5 -> fc7.5
I0410 13:30:24.975018 18606 net.cpp:122] Setting up fc7.5
I0410 13:30:24.975025 18606 net.cpp:129] Top shape: 128 256 (32768)
I0410 13:30:24.975028 18606 net.cpp:137] Memory required for data: 1052686336
I0410 13:30:24.975034 18606 layer_factory.hpp:77] Creating layer relu7.5
I0410 13:30:24.975042 18606 net.cpp:84] Creating Layer relu7.5
I0410 13:30:24.975046 18606 net.cpp:406] relu7.5 <- fc7.5
I0410 13:30:24.975050 18606 net.cpp:367] relu7.5 -> fc7.5 (in-place)
I0410 13:30:24.975571 18606 net.cpp:122] Setting up relu7.5
I0410 13:30:24.975580 18606 net.cpp:129] Top shape: 128 256 (32768)
I0410 13:30:24.975584 18606 net.cpp:137] Memory required for data: 1052817408
I0410 13:30:24.975587 18606 layer_factory.hpp:77] Creating layer drop7.5
I0410 13:30:24.975594 18606 net.cpp:84] Creating Layer drop7.5
I0410 13:30:24.975597 18606 net.cpp:406] drop7.5 <- fc7.5
I0410 13:30:24.975605 18606 net.cpp:367] drop7.5 -> fc7.5 (in-place)
I0410 13:30:24.975630 18606 net.cpp:122] Setting up drop7.5
I0410 13:30:24.975636 18606 net.cpp:129] Top shape: 128 256 (32768)
I0410 13:30:24.975638 18606 net.cpp:137] Memory required for data: 1052948480
I0410 13:30:24.975641 18606 layer_factory.hpp:77] Creating layer fc7.6
I0410 13:30:24.975647 18606 net.cpp:84] Creating Layer fc7.6
I0410 13:30:24.975651 18606 net.cpp:406] fc7.6 <- fc7.5
I0410 13:30:24.975657 18606 net.cpp:380] fc7.6 -> fc7.6
I0410 13:30:24.976347 18606 net.cpp:122] Setting up fc7.6
I0410 13:30:24.976353 18606 net.cpp:129] Top shape: 128 256 (32768)
I0410 13:30:24.976357 18606 net.cpp:137] Memory required for data: 1053079552
I0410 13:30:24.976369 18606 layer_factory.hpp:77] Creating layer relu7.6
I0410 13:30:24.976374 18606 net.cpp:84] Creating Layer relu7.6
I0410 13:30:24.976378 18606 net.cpp:406] relu7.6 <- fc7.6
I0410 13:30:24.976383 18606 net.cpp:367] relu7.6 -> fc7.6 (in-place)
I0410 13:30:24.982831 18606 net.cpp:122] Setting up relu7.6
I0410 13:30:24.982841 18606 net.cpp:129] Top shape: 128 256 (32768)
I0410 13:30:24.982844 18606 net.cpp:137] Memory required for data: 1053210624
I0410 13:30:24.982848 18606 layer_factory.hpp:77] Creating layer drop7.6
I0410 13:30:24.982856 18606 net.cpp:84] Creating Layer drop7.6
I0410 13:30:24.982859 18606 net.cpp:406] drop7.6 <- fc7.6
I0410 13:30:24.982867 18606 net.cpp:367] drop7.6 -> fc7.6 (in-place)
I0410 13:30:24.982889 18606 net.cpp:122] Setting up drop7.6
I0410 13:30:24.982895 18606 net.cpp:129] Top shape: 128 256 (32768)
I0410 13:30:24.982908 18606 net.cpp:137] Memory required for data: 1053341696
I0410 13:30:24.982913 18606 layer_factory.hpp:77] Creating layer fc8
I0410 13:30:24.982920 18606 net.cpp:84] Creating Layer fc8
I0410 13:30:24.982923 18606 net.cpp:406] fc8 <- fc7.6
I0410 13:30:24.982930 18606 net.cpp:380] fc8 -> fc8
I0410 13:30:24.983494 18606 net.cpp:122] Setting up fc8
I0410 13:30:24.983501 18606 net.cpp:129] Top shape: 128 196 (25088)
I0410 13:30:24.983505 18606 net.cpp:137] Memory required for data: 1053442048
I0410 13:30:24.983511 18606 layer_factory.hpp:77] Creating layer loss
I0410 13:30:24.983517 18606 net.cpp:84] Creating Layer loss
I0410 13:30:24.983521 18606 net.cpp:406] loss <- fc8
I0410 13:30:24.983525 18606 net.cpp:406] loss <- label
I0410 13:30:24.983531 18606 net.cpp:380] loss -> loss
I0410 13:30:24.983539 18606 layer_factory.hpp:77] Creating layer loss
…
I0410 13:30:24.984951 18606 net.cpp:294] The NetState phase (1) differed from the phase (0) specified by a rule in layer train-data
I0410 13:30:24.985126 18606 net.cpp:51] Initializing net from parameters:
state {
phase: TEST
}
layer {
name: "val-data"
type: "Data"
top: "data"
top: "label"
include {
phase: TEST
}
transform_param {
crop_size: 227
mean_file: "/mnt/bigdisk/DIGITS-MAN-2/digits/jobs/20210407-214532-d396/mean.binaryproto"
}
data_param {
source: "/mnt/bigdisk/DIGITS-MAN-2/digits/jobs/20210407-214532-d396/val_db"
batch_size: 32
backend: LMDB
}
}
layer {
name: "conv1"
type: "Convolution"
bottom: "data"
top: "conv1"
param {
lr_mult: 1
decay_mult: 1
}
param {
lr_mult: 2
decay_mult: 0
}
convolution_param {
num_output: 96
kernel_size: 11
stride: 4
weight_filler {
type: "gaussian"
std: 0.01
}
bias_filler {
type: "constant"
value: 0
}
}
}
layer {
name: "relu1"
type: "ReLU"
bottom: "conv1"
top: "conv1"
}
layer {
name: "norm1"
type: "LRN"
bottom: "conv1"
top: "norm1"
lrn_param {
local_size: 5
alpha: 0.0001
beta: 0.75
}
}
layer {
name: "pool1"
type: "Pooling"
bottom: "norm1"
top: "pool1"
pooling_param {
pool: MAX
kernel_size: 3
stride: 2
}
}
layer {
name: "conv2"
type: "Convolution"
bottom: "pool1"
top: "conv2"
param {
lr_mult: 1
decay_mult: 1
}
param {
lr_mult: 2
decay_mult: 0
}
convolution_param {
num_output: 256
pad: 2
kernel_size: 5
group: 2
weight_filler {
type: "gaussian"
std: 0.01
}
bias_filler {
type: "constant"
value: 0.1
}
}
}
layer {
name: "relu2"
type: "ReLU"
bottom: "conv2"
top: "conv2"
}
layer {
name: "norm2"
type: "LRN"
bottom: "conv2"
top: "norm2"
lrn_param {
local_size: 5
alpha: 0.0001
beta: 0.75
}
}
layer {
name: "pool2"
type: "Pooling"
bottom: "norm2"
top: "pool2"
pooling_param {
pool: MAX
kernel_size: 3
stride: 2
}
}
layer {
name: "conv3"
type: "Convolution"
bottom: "pool2"
top: "conv3"
param {
lr_mult: 1
decay_mult: 1
}
param {
lr_mult: 2
decay_mult: 0
}
convolution_param {
num_output: 384
pad: 1
kernel_size: 3
weight_filler {
type: "gaussian"
std: 0.01
}
bias_filler {
type: "constant"
value: 0
}
}
}
layer {
name: "relu3"
type: "ReLU"
bottom: "conv3"
top: "conv3"
}
layer {
name: "conv4"
type: "Convolution"
bottom: "conv3"
top: "conv4"
param {
lr_mult: 1
decay_mult: 1
}
param {
lr_mult: 2
decay_mult: 0
}
convolution_param {
num_output: 384
pad: 1
kernel_size: 3
group: 2
weight_filler {
type: "gaussian"
std: 0.01
}
bias_filler {
type: "constant"
value: 0.1
}
}
}
layer {
name: "relu4"
type: "ReLU"
bottom: "conv4"
top: "conv4"
}
layer {
name: "conv5"
type: "Convolution"
bottom: "conv4"
top: "conv5"
param {
lr_mult: 1
decay_mult: 1
}
param {
lr_mult: 2
decay_mult: 0
}
convolution_param {
num_output: 256
pad: 1
kernel_size: 3
group: 2
weight_filler {
type: "gaussian"
std: 0.01
}
bias_filler {
type: "constant"
value: 0.1
}
}
}
layer {
name: "relu5"
type: "ReLU"
bottom: "conv5"
top: "conv5"
}
layer {
name: "pool5"
type: "Pooling"
bottom: "conv5"
top: "pool5"
pooling_param {
pool: MAX
kernel_size: 3
stride: 2
}
}
layer {
name: "fc6"
type: "InnerProduct"
bottom: "pool5"
top: "fc6"
param {
lr_mult: 1
decay_mult: 1
}
param {
lr_mult: 2
decay_mult: 0
}
inner_product_param {
num_output: 256
weight_filler {
type: "gaussian"
std: 0.005
}
bias_filler {
type: "constant"
value: 0.1
}
}
}
layer {
name: "relu6"
type: "ReLU"
bottom: "fc6"
top: "fc6"
}
layer {
name: "drop6"
type: "Dropout"
bottom: "fc6"
top: "fc6"
dropout_param {
dropout_ratio: 0.5
}
}
layer {
name: "fc7"
type: "InnerProduct"
bottom: "fc6"
top: "fc7"
param {
lr_mult: 1
decay_mult: 1
}
param {
lr_mult: 2
decay_mult: 0
}
inner_product_param {
num_output: 256
weight_filler {
type: "gaussian"
std: 0.005
}
bias_filler {
type: "constant"
value: 0.1
}
}
}
layer {
name: "relu7"
type: "ReLU"
bottom: "fc7"
top: "fc7"
}
layer {
name: "drop7"
type: "Dropout"
bottom: "fc7"
top: "fc7"
dropout_param {
dropout_ratio: 0.5
}
}
layer {
name: "fc7.5"
type: "InnerProduct"
bottom: "fc7"
top: "fc7.5"
param {
lr_mult: 1
decay_mult: 1
}
param {
lr_mult: 2
decay_mult: 0
}
inner_product_param {
num_output: 256
weight_filler {
type: "gaussian"
std: 0.005
}
bias_filler {
type: "constant"
value: 0.1
}
}
}
layer {
name: "relu7.5"
type: "ReLU"
bottom: "fc7.5"
top: "fc7.5"
}
layer {
name: "drop7.5"
type: "Dropout"
bottom: "fc7.5"
top: "fc7.5"
dropout_param {
dropout_ratio: 0.5
}
}
layer {
name: "fc7.6"
type: "InnerProduct"
bottom: "fc7.5"
top: "fc7.6"
param {
lr_mult: 1
decay_mult: 1
}
param {
lr_mult: 2
decay_mult: 0
}
inner_product_param {
num_output: 256
weight_filler {
type: "gaussian"
std: 0.005
}
bias_filler {
type: "constant"
value: 0.1
}
}
}
layer {
name: "relu7.6"
type: "ReLU"
bottom: "fc7.6"
top: "fc7.6"
}
layer {
name: "drop7.6"
type: "Dropout"
bottom: "fc7.6"
top: "fc7.6"
dropout_param {
dropout_ratio: 0.5
}
}
layer {
name: "fc8"
type: "InnerProduct"
bottom: "fc7.6"
top: "fc8"
param {
lr_mult: 1
decay_mult: 1
}
param {
lr_mult: 2
decay_mult: 0
}
inner_product_param {
num_output: 196
weight_filler {
type: "gaussian"
std: 0.01
}
bias_filler {
type: "constant"
value: 0
}
}
}
layer {
name: "accuracy"
type: "Accuracy"
bottom: "fc8"
bottom: "label"
top: "accuracy"
include {
phase: TEST
}
}
layer {
name: "loss"
type: "SoftmaxWithLoss"
bottom: "fc8"
bottom: "label"
top: "loss"
}
I0410 13:30:24.985237 18606 layer_factory.hpp:77] Creating layer val-data
I0410 13:30:24.986884 18606 db_lmdb.cpp:35] Opened lmdb /mnt/bigdisk/DIGITS-MAN-2/digits/jobs/20210407-214532-d396/val_db
I0410 13:30:24.987090 18606 net.cpp:84] Creating Layer val-data
I0410 13:30:24.987099 18606 net.cpp:380] val-data -> data
I0410 13:30:24.987109 18606 net.cpp:380] val-data -> label
I0410 13:30:24.987116 18606 data_transformer.cpp:25] Loading mean file from: /mnt/bigdisk/DIGITS-MAN-2/digits/jobs/20210407-214532-d396/mean.binaryproto
I0410 13:30:24.991339 18606 data_layer.cpp:45] output data size: 32,3,227,227
I0410 13:30:25.024708 18606 net.cpp:122] Setting up val-data
I0410 13:30:25.024727 18606 net.cpp:129] Top shape: 32 3 227 227 (4946784)
I0410 13:30:25.024732 18606 net.cpp:129] Top shape: 32 (32)
I0410 13:30:25.024735 18606 net.cpp:137] Memory required for data: 19787264
I0410 13:30:25.024741 18606 layer_factory.hpp:77] Creating layer label_val-data_1_split
I0410 13:30:25.024753 18606 net.cpp:84] Creating Layer label_val-data_1_split
I0410 13:30:25.024758 18606 net.cpp:406] label_val-data_1_split <- label
I0410 13:30:25.024765 18606 net.cpp:380] label_val-data_1_split -> label_val-data_1_split_0
I0410 13:30:25.024775 18606 net.cpp:380] label_val-data_1_split -> label_val-data_1_split_1
I0410 13:30:25.024829 18606 net.cpp:122] Setting up label_val-data_1_split
I0410 13:30:25.024835 18606 net.cpp:129] Top shape: 32 (32)
I0410 13:30:25.024839 18606 net.cpp:129] Top shape: 32 (32)
I0410 13:30:25.024842 18606 net.cpp:137] Memory required for data: 19787520
I0410 13:30:25.024847 18606 layer_factory.hpp:77] Creating layer conv1
I0410 13:30:25.024857 18606 net.cpp:84] Creating Layer conv1
I0410 13:30:25.024861 18606 net.cpp:406] conv1 <- data
I0410 13:30:25.024868 18606 net.cpp:380] conv1 -> conv1
I0410 13:30:25.028849 18606 net.cpp:122] Setting up conv1
I0410 13:30:25.028861 18606 net.cpp:129] Top shape: 32 96 55 55 (9292800)
I0410 13:30:25.028863 18606 net.cpp:137] Memory required for data: 56958720
I0410 13:30:25.028874 18606 layer_factory.hpp:77] Creating layer relu1
I0410 13:30:25.028882 18606 net.cpp:84] Creating Layer relu1
I0410 13:30:25.028887 18606 net.cpp:406] relu1 <- conv1
I0410 13:30:25.028892 18606 net.cpp:367] relu1 -> conv1 (in-place)
I0410 13:30:25.033108 18606 net.cpp:122] Setting up relu1
I0410 13:30:25.033121 18606 net.cpp:129] Top shape: 32 96 55 55 (9292800)
I0410 13:30:25.033125 18606 net.cpp:137] Memory required for data: 94129920
I0410 13:30:25.033129 18606 layer_factory.hpp:77] Creating layer norm1
I0410 13:30:25.033138 18606 net.cpp:84] Creating Layer norm1
I0410 13:30:25.033143 18606 net.cpp:406] norm1 <- conv1
I0410 13:30:25.033149 18606 net.cpp:380] norm1 -> norm1
I0410 13:30:25.033640 18606 net.cpp:122] Setting up norm1
I0410 13:30:25.033650 18606 net.cpp:129] Top shape: 32 96 55 55 (9292800)
I0410 13:30:25.033654 18606 net.cpp:137] Memory required for data: 131301120
I0410 13:30:25.033658 18606 layer_factory.hpp:77] Creating layer pool1
I0410 13:30:25.033665 18606 net.cpp:84] Creating Layer pool1
I0410 13:30:25.033669 18606 net.cpp:406] pool1 <- norm1
I0410 13:30:25.033674 18606 net.cpp:380] pool1 -> pool1
I0410 13:30:25.033705 18606 net.cpp:122] Setting up pool1
I0410 13:30:25.033711 18606 net.cpp:129] Top shape: 32 96 27 27 (2239488)
I0410 13:30:25.033715 18606 net.cpp:137] Memory required for data: 140259072
I0410 13:30:25.033717 18606 layer_factory.hpp:77] Creating layer conv2
I0410 13:30:25.033726 18606 net.cpp:84] Creating Layer conv2
I0410 13:30:25.033730 18606 net.cpp:406] conv2 <- pool1
I0410 13:30:25.033735 18606 net.cpp:380] conv2 -> conv2
I0410 13:30:25.040444 18606 net.cpp:122] Setting up conv2
I0410 13:30:25.040459 18606 net.cpp:129] Top shape: 32 256 27 27 (5971968)
I0410 13:30:25.040463 18606 net.cpp:137] Memory required for data: 164146944
I0410 13:30:25.040474 18606 layer_factory.hpp:77] Creating layer relu2
I0410 13:30:25.040482 18606 net.cpp:84] Creating Layer relu2
I0410 13:30:25.040485 18606 net.cpp:406] relu2 <- conv2
I0410 13:30:25.040493 18606 net.cpp:367] relu2 -> conv2 (in-place)
I0410 13:30:25.040866 18606 net.cpp:122] Setting up relu2
I0410 13:30:25.040875 18606 net.cpp:129] Top shape: 32 256 27 27 (5971968)
I0410 13:30:25.040879 18606 net.cpp:137] Memory required for data: 188034816
I0410 13:30:25.040882 18606 layer_factory.hpp:77] Creating layer norm2
I0410 13:30:25.040892 18606 net.cpp:84] Creating Layer norm2
I0410 13:30:25.040896 18606 net.cpp:406] norm2 <- conv2
I0410 13:30:25.040901 18606 net.cpp:380] norm2 -> norm2
I0410 13:30:25.041487 18606 net.cpp:122] Setting up norm2
I0410 13:30:25.041497 18606 net.cpp:129] Top shape: 32 256 27 27 (5971968)
I0410 13:30:25.041501 18606 net.cpp:137] Memory required for data: 211922688
I0410 13:30:25.041505 18606 layer_factory.hpp:77] Creating layer pool2
I0410 13:30:25.041513 18606 net.cpp:84] Creating Layer pool2
I0410 13:30:25.041517 18606 net.cpp:406] pool2 <- norm2
I0410 13:30:25.041523 18606 net.cpp:380] pool2 -> pool2
I0410 13:30:25.041555 18606 net.cpp:122] Setting up pool2
I0410 13:30:25.041560 18606 net.cpp:129] Top shape: 32 256 13 13 (1384448)
I0410 13:30:25.041563 18606 net.cpp:137] Memory required for data: 217460480
I0410 13:30:25.041568 18606 layer_factory.hpp:77] Creating layer conv3
I0410 13:30:25.041576 18606 net.cpp:84] Creating Layer conv3
I0410 13:30:25.041580 18606 net.cpp:406] conv3 <- pool2
I0410 13:30:25.041586 18606 net.cpp:380] conv3 -> conv3
I0410 13:30:25.054193 18606 net.cpp:122] Setting up conv3
I0410 13:30:25.054211 18606 net.cpp:129] Top shape: 32 384 13 13 (2076672)
I0410 13:30:25.054215 18606 net.cpp:137] Memory required for data: 225767168
I0410 13:30:25.054227 18606 layer_factory.hpp:77] Creating layer relu3
I0410 13:30:25.054239 18606 net.cpp:84] Creating Layer relu3
I0410 13:30:25.054242 18606 net.cpp:406] relu3 <- conv3
I0410 13:30:25.054250 18606 net.cpp:367] relu3 -> conv3 (in-place)
I0410 13:30:25.054797 18606 net.cpp:122] Setting up relu3
I0410 13:30:25.054807 18606 net.cpp:129] Top shape: 32 384 13 13 (2076672)
I0410 13:30:25.054811 18606 net.cpp:137] Memory required for data: 234073856
I0410 13:30:25.054816 18606 layer_factory.hpp:77] Creating layer conv4
I0410 13:30:25.054826 18606 net.cpp:84] Creating Layer conv4
I0410 13:30:25.054831 18606 net.cpp:406] conv4 <- conv3
I0410 13:30:25.054857 18606 net.cpp:380] conv4 -> conv4
I0410 13:30:25.065182 18606 net.cpp:122] Setting up conv4
I0410 13:30:25.065201 18606 net.cpp:129] Top shape: 32 384 13 13 (2076672)
I0410 13:30:25.065204 18606 net.cpp:137] Memory required for data: 242380544
I0410 13:30:25.065213 18606 layer_factory.hpp:77] Creating layer relu4
I0410 13:30:25.065224 18606 net.cpp:84] Creating Layer relu4
I0410 13:30:25.065228 18606 net.cpp:406] relu4 <- conv4
I0410 13:30:25.065237 18606 net.cpp:367] relu4 -> conv4 (in-place)
I0410 13:30:25.069399 18606 net.cpp:122] Setting up relu4
I0410 13:30:25.069412 18606 net.cpp:129] Top shape: 32 384 13 13 (2076672)
I0410 13:30:25.069416 18606 net.cpp:137] Memory required for data: 250687232
I0410 13:30:25.069420 18606 layer_factory.hpp:77] Creating layer conv5
I0410 13:30:25.069434 18606 net.cpp:84] Creating Layer conv5
I0410 13:30:25.069438 18606 net.cpp:406] conv5 <- conv4
I0410 13:30:25.069444 18606 net.cpp:380] conv5 -> conv5
I0410 13:30:25.083218 18606 net.cpp:122] Setting up conv5
I0410 13:30:25.083237 18606 net.cpp:129] Top shape: 32 256 13 13 (1384448)
I0410 13:30:25.083241 18606 net.cpp:137] Memory required for data: 256225024
I0410 13:30:25.083253 18606 layer_factory.hpp:77] Creating layer relu5
I0410 13:30:25.083263 18606 net.cpp:84] Creating Layer relu5
I0410 13:30:25.083267 18606 net.cpp:406] relu5 <- conv5
I0410 13:30:25.083276 18606 net.cpp:367] relu5 -> conv5 (in-place)
I0410 13:30:25.083660 18606 net.cpp:122] Setting up relu5
I0410 13:30:25.083669 18606 net.cpp:129] Top shape: 32 256 13 13 (1384448)
I0410 13:30:25.083673 18606 net.cpp:137] Memory required for data: 261762816
I0410 13:30:25.083676 18606 layer_factory.hpp:77] Creating layer pool5
I0410 13:30:25.083688 18606 net.cpp:84] Creating Layer pool5
I0410 13:30:25.083691 18606 net.cpp:406] pool5 <- conv5
I0410 13:30:25.083698 18606 net.cpp:380] pool5 -> pool5
I0410 13:30:25.083737 18606 net.cpp:122] Setting up pool5
I0410 13:30:25.083743 18606 net.cpp:129] Top shape: 32 256 6 6 (294912)
I0410 13:30:25.083746 18606 net.cpp:137] Memory required for data: 262942464
I0410 13:30:25.083750 18606 layer_factory.hpp:77] Creating layer fc6
I0410 13:30:25.083757 18606 net.cpp:84] Creating Layer fc6
I0410 13:30:25.083760 18606 net.cpp:406] fc6 <- pool5
I0410 13:30:25.083767 18606 net.cpp:380] fc6 -> fc6
I0410 13:30:25.110872 18606 net.cpp:122] Setting up fc6
I0410 13:30:25.110894 18606 net.cpp:129] Top shape: 32 256 (8192)
I0410 13:30:25.110898 18606 net.cpp:137] Memory required for data: 262975232
I0410 13:30:25.110908 18606 layer_factory.hpp:77] Creating layer relu6
I0410 13:30:25.110919 18606 net.cpp:84] Creating Layer relu6
I0410 13:30:25.110924 18606 net.cpp:406] relu6 <- fc6
I0410 13:30:25.110930 18606 net.cpp:367] relu6 -> fc6 (in-place)
I0410 13:30:25.111964 18606 net.cpp:122] Setting up relu6
I0410 13:30:25.111974 18606 net.cpp:129] Top shape: 32 256 (8192)
I0410 13:30:25.111977 18606 net.cpp:137] Memory required for data: 263008000
I0410 13:30:25.111981 18606 layer_factory.hpp:77] Creating layer drop6
I0410 13:30:25.111989 18606 net.cpp:84] Creating Layer drop6
I0410 13:30:25.111992 18606 net.cpp:406] drop6 <- fc6
I0410 13:30:25.111999 18606 net.cpp:367] drop6 -> fc6 (in-place)
I0410 13:30:25.112025 18606 net.cpp:122] Setting up drop6
I0410 13:30:25.112030 18606 net.cpp:129] Top shape: 32 256 (8192)
I0410 13:30:25.112032 18606 net.cpp:137] Memory required for data: 263040768
I0410 13:30:25.112035 18606 layer_factory.hpp:77] Creating layer fc7
I0410 13:30:25.112044 18606 net.cpp:84] Creating Layer fc7
I0410 13:30:25.112048 18606 net.cpp:406] fc7 <- fc6
I0410 13:30:25.112054 18606 net.cpp:380] fc7 -> fc7
I0410 13:30:25.112751 18606 net.cpp:122] Setting up fc7
I0410 13:30:25.112758 18606 net.cpp:129] Top shape: 32 256 (8192)
I0410 13:30:25.112761 18606 net.cpp:137] Memory required for data: 263073536
I0410 13:30:25.112767 18606 layer_factory.hpp:77] Creating layer relu7
I0410 13:30:25.112776 18606 net.cpp:84] Creating Layer relu7
I0410 13:30:25.112780 18606 net.cpp:406] relu7 <- fc7
I0410 13:30:25.112784 18606 net.cpp:367] relu7 -> fc7 (in-place)
I0410 13:30:25.113333 18606 net.cpp:122] Setting up relu7
I0410 13:30:25.113343 18606 net.cpp:129] Top shape: 32 256 (8192)
I0410 13:30:25.113345 18606 net.cpp:137] Memory required for data: 263106304
I0410 13:30:25.113349 18606 layer_factory.hpp:77] Creating layer drop7
I0410 13:30:25.113355 18606 net.cpp:84] Creating Layer drop7
I0410 13:30:25.113359 18606 net.cpp:406] drop7 <- fc7
I0410 13:30:25.113365 18606 net.cpp:367] drop7 -> fc7 (in-place)
I0410 13:30:25.113390 18606 net.cpp:122] Setting up drop7
I0410 13:30:25.113395 18606 net.cpp:129] Top shape: 32 256 (8192)
I0410 13:30:25.113399 18606 net.cpp:137] Memory required for data: 263139072
I0410 13:30:25.113401 18606 layer_factory.hpp:77] Creating layer fc7.5
I0410 13:30:25.113410 18606 net.cpp:84] Creating Layer fc7.5
I0410 13:30:25.113415 18606 net.cpp:406] fc7.5 <- fc7
I0410 13:30:25.113421 18606 net.cpp:380] fc7.5 -> fc7.5
I0410 13:30:25.114135 18606 net.cpp:122] Setting up fc7.5
I0410 13:30:25.114143 18606 net.cpp:129] Top shape: 32 256 (8192)
I0410 13:30:25.114146 18606 net.cpp:137] Memory required for data: 263171840
I0410 13:30:25.114152 18606 layer_factory.hpp:77] Creating layer relu7.5
I0410 13:30:25.114158 18606 net.cpp:84] Creating Layer relu7.5
I0410 13:30:25.114161 18606 net.cpp:406] relu7.5 <- fc7.5
I0410 13:30:25.114166 18606 net.cpp:367] relu7.5 -> fc7.5 (in-place)
I0410 13:30:25.115809 18606 net.cpp:122] Setting up relu7.5
I0410 13:30:25.115819 18606 net.cpp:129] Top shape: 32 256 (8192)
I0410 13:30:25.115823 18606 net.cpp:137] Memory required for data: 263204608
I0410 13:30:25.115828 18606 layer_factory.hpp:77] Creating layer drop7.5
I0410 13:30:25.115833 18606 net.cpp:84] Creating Layer drop7.5
I0410 13:30:25.115837 18606 net.cpp:406] drop7.5 <- fc7.5
I0410 13:30:25.115844 18606 net.cpp:367] drop7.5 -> fc7.5 (in-place)
I0410 13:30:25.115869 18606 net.cpp:122] Setting up drop7.5
I0410 13:30:25.115875 18606 net.cpp:129] Top shape: 32 256 (8192)
I0410 13:30:25.115877 18606 net.cpp:137] Memory required for data: 263237376
I0410 13:30:25.115880 18606 layer_factory.hpp:77] Creating layer fc7.6
I0410 13:30:25.115888 18606 net.cpp:84] Creating Layer fc7.6
I0410 13:30:25.115891 18606 net.cpp:406] fc7.6 <- fc7.5
I0410 13:30:25.115897 18606 net.cpp:380] fc7.6 -> fc7.6
I0410 13:30:25.116597 18606 net.cpp:122] Setting up fc7.6
I0410 13:30:25.116603 18606 net.cpp:129] Top shape: 32 256 (8192)
I0410 13:30:25.116607 18606 net.cpp:137] Memory required for data: 263270144
I0410 13:30:25.116618 18606 layer_factory.hpp:77] Creating layer relu7.6
I0410 13:30:25.116623 18606 net.cpp:84] Creating Layer relu7.6
I0410 13:30:25.116627 18606 net.cpp:406] relu7.6 <- fc7.6
I0410 13:30:25.116631 18606 net.cpp:367] relu7.6 -> fc7.6 (in-place)
I0410 13:30:25.116999 18606 net.cpp:122] Setting up relu7.6
I0410 13:30:25.117007 18606 net.cpp:129] Top shape: 32 256 (8192)
I0410 13:30:25.117012 18606 net.cpp:137] Memory required for data: 263302912
I0410 13:30:25.117014 18606 layer_factory.hpp:77] Creating layer drop7.6
I0410 13:30:25.117022 18606 net.cpp:84] Creating Layer drop7.6
I0410 13:30:25.117025 18606 net.cpp:406] drop7.6 <- fc7.6
I0410 13:30:25.117030 18606 net.cpp:367] drop7.6 -> fc7.6 (in-place)
I0410 13:30:25.117054 18606 net.cpp:122] Setting up drop7.6
I0410 13:30:25.117059 18606 net.cpp:129] Top shape: 32 256 (8192)
I0410 13:30:25.117063 18606 net.cpp:137] Memory required for data: 263335680
I0410 13:30:25.117065 18606 layer_factory.hpp:77] Creating layer fc8
I0410 13:30:25.117071 18606 net.cpp:84] Creating Layer fc8
I0410 13:30:25.117074 18606 net.cpp:406] fc8 <- fc7.6
I0410 13:30:25.117081 18606 net.cpp:380] fc8 -> fc8
I0410 13:30:25.117643 18606 net.cpp:122] Setting up fc8
I0410 13:30:25.117650 18606 net.cpp:129] Top shape: 32 196 (6272)
I0410 13:30:25.117652 18606 net.cpp:137] Memory required for data: 263360768
I0410 13:30:25.117658 18606 layer_factory.hpp:77] Creating layer fc8_fc8_0_split
I0410 13:30:25.117664 18606 net.cpp:84] Creating Layer fc8_fc8_0_split
I0410 13:30:25.117667 18606 net.cpp:406] fc8_fc8_0_split <- fc8
I0410 13:30:25.117673 18606 net.cpp:380] fc8_fc8_0_split -> fc8_fc8_0_split_0
I0410 13:30:25.117695 18606 net.cpp:380] fc8_fc8_0_split -> fc8_fc8_0_split_1
I0410 13:30:25.117727 18606 net.cpp:122] Setting up fc8_fc8_0_split
I0410 13:30:25.117733 18606 net.cpp:129] Top shape: 32 196 (6272)
I0410 13:30:25.117736 18606 net.cpp:129] Top shape: 32 196 (6272)
I0410 13:30:25.117740 18606 net.cpp:137] Memory required for data: 263410944
I0410 13:30:25.117743 18606 layer_factory.hpp:77] Creating layer accuracy
I0410 13:30:25.117750 18606 net.cpp:84] Creating Layer accuracy
I0410 13:30:25.117754 18606 net.cpp:406] accuracy <- fc8_fc8_0_split_0
I0410 13:30:25.117758 18606 net.cpp:406] accuracy <- label_val-data_1_split_0
I0410 13:30:25.117763 18606 net.cpp:380] accuracy -> accuracy
…
