…
I0427 19:01:56.310629 16320 net.cpp:294] The NetState phase (0) differed from the phase (1) specified by a rule in layer accuracy
I0427 19:01:56.310765 16320 net.cpp:51] Initializing net from parameters:
state {
phase: TRAIN
level: 0
stage: ""
}
layer {
name: "train-data"
type: "Data"
top: "data"
top: "label"
include {
phase: TRAIN
}
transform_param {
mirror: true
crop_size: 227
mean_file: "/mnt/bigdisk/DIGITS-MAN-3/digits/jobs/20210427-185700-cc63/mean.binaryproto"
}
data_param {
source: "/mnt/bigdisk/DIGITS-MAN-3/digits/jobs/20210427-185700-cc63/train_db"
batch_size: 256
backend: LMDB
}
}
layer {
name: "conv1"
type: "Convolution"
bottom: "data"
top: "conv1"
param {
lr_mult: 1
decay_mult: 1
}
param {
lr_mult: 2
decay_mult: 0
}
convolution_param {
num_output: 96
kernel_size: 11
stride: 4
weight_filler {
type: "gaussian"
std: 0.01
}
bias_filler {
type: "constant"
value: 0
}
}
}
layer {
name: "relu1"
type: "ReLU"
bottom: "conv1"
top: "conv1"
}
layer {
name: "norm1"
type: "LRN"
bottom: "conv1"
top: "norm1"
lrn_param {
local_size: 5
alpha: 0.0001
beta: 0.75
}
}
layer {
name: "pool1"
type: "Pooling"
bottom: "norm1"
top: "pool1"
pooling_param {
pool: MAX
kernel_size: 3
stride: 2
}
}
layer {
name: "conv2"
type: "Convolution"
bottom: "pool1"
top: "conv2"
param {
lr_mult: 1
decay_mult: 1
}
param {
lr_mult: 2
decay_mult: 0
}
convolution_param {
num_output: 256
pad: 2
kernel_size: 5
group: 2
weight_filler {
type: "gaussian"
std: 0.01
}
bias_filler {
type: "constant"
value: 0.1
}
}
}
layer {
name: "relu2"
type: "ReLU"
bottom: "conv2"
top: "conv2"
}
layer {
name: "norm2"
type: "LRN"
bottom: "conv2"
top: "norm2"
lrn_param {
local_size: 5
alpha: 0.0001
beta: 0.75
}
}
layer {
name: "pool2"
type: "Pooling"
bottom: "norm2"
top: "pool2"
pooling_param {
pool: MAX
kernel_size: 3
stride: 2
}
}
layer {
name: "conv3"
type: "Convolution"
bottom: "pool2"
top: "conv3"
param {
lr_mult: 1
decay_mult: 1
}
param {
lr_mult: 2
decay_mult: 0
}
convolution_param {
num_output: 384
pad: 1
kernel_size: 3
weight_filler {
type: "gaussian"
std: 0.01
}
bias_filler {
type: "constant"
value: 0
}
}
}
layer {
name: "relu3"
type: "ReLU"
bottom: "conv3"
top: "conv3"
}
layer {
name: "conv4"
type: "Convolution"
bottom: "conv3"
top: "conv4"
param {
lr_mult: 1
decay_mult: 1
}
param {
lr_mult: 2
decay_mult: 0
}
convolution_param {
num_output: 384
pad: 1
kernel_size: 3
group: 2
weight_filler {
type: "gaussian"
std: 0.01
}
bias_filler {
type: "constant"
value: 0.1
}
}
}
layer {
name: "relu4"
type: "ReLU"
bottom: "conv4"
top: "conv4"
}
layer {
name: "conv5"
type: "Convolution"
bottom: "conv4"
top: "conv5"
param {
lr_mult: 1
decay_mult: 1
}
param {
lr_mult: 2
decay_mult: 0
}
convolution_param {
num_output: 256
pad: 1
kernel_size: 3
group: 2
weight_filler {
type: "gaussian"
std: 0.01
}
bias_filler {
type: "constant"
value: 0.1
}
}
}
layer {
name: "relu5"
type: "ReLU"
bottom: "conv5"
top: "conv5"
}
layer {
name: "pool5"
type: "Pooling"
bottom: "conv5"
top: "pool5"
pooling_param {
pool: MAX
kernel_size: 3
stride: 2
}
}
layer {
name: "fc6"
type: "InnerProduct"
bottom: "pool5"
top: "fc6"
param {
lr_mult: 1
decay_mult: 1
}
param {
lr_mult: 2
decay_mult: 0
}
inner_product_param {
num_output: 4096
weight_filler {
type: "gaussian"
std: 0.005
}
bias_filler {
type: "constant"
value: 0.1
}
}
}
layer {
name: "relu6"
type: "ReLU"
bottom: "fc6"
top: "fc6"
}
layer {
name: "drop6"
type: "Dropout"
bottom: "fc6"
top: "fc6"
dropout_param {
dropout_ratio: 0.5
}
}
layer {
name: "fc7"
type: "InnerProduct"
bottom: "fc6"
top: "fc7"
param {
lr_mult: 1
decay_mult: 1
}
param {
lr_mult: 2
decay_mult: 0
}
inner_product_param {
num_output: 4096
weight_filler {
type: "gaussian"
std: 0.005
}
bias_filler {
type: "constant"
value: 0.1
}
}
}
layer {
name: "relu7"
type: "ReLU"
bottom: "fc7"
top: "fc7"
}
layer {
name: "drop7"
type: "Dropout"
bottom: "fc7"
top: "fc7"
dropout_param {
dropout_ratio: 0.5
}
}
layer {
name: "fc8"
type: "InnerProduct"
bottom: "fc7"
top: "fc8"
param {
lr_mult: 1
decay_mult: 1
}
param {
lr_mult: 2
decay_mult: 0
}
inner_product_param {
num_output: 196
weight_filler {
type: "gaussian"
std: 0.01
}
bias_filler {
type: "constant"
value: 0
}
}
}
layer {
name: "loss"
type: "SoftmaxWithLoss"
bottom: "fc8"
bottom: "label"
top: "loss"
}
I0427 19:01:56.310853 16320 layer_factory.hpp:77] Creating layer train-data
I0427 19:01:56.456650 16320 db_lmdb.cpp:35] Opened lmdb /mnt/bigdisk/DIGITS-MAN-3/digits/jobs/20210427-185700-cc63/train_db
I0427 19:01:56.491566 16320 net.cpp:84] Creating Layer train-data
I0427 19:01:56.491592 16320 net.cpp:380] train-data -> data
I0427 19:01:56.491616 16320 net.cpp:380] train-data -> label
I0427 19:01:56.491629 16320 data_transformer.cpp:25] Loading mean file from: /mnt/bigdisk/DIGITS-MAN-3/digits/jobs/20210427-185700-cc63/mean.binaryproto
I0427 19:01:56.499666 16320 data_layer.cpp:45] output data size: 256,3,227,227
I0427 19:01:56.777537 16320 net.cpp:122] Setting up train-data
I0427 19:01:56.777560 16320 net.cpp:129] Top shape: 256 3 227 227 (39574272)
I0427 19:01:56.777565 16320 net.cpp:129] Top shape: 256 (256)
I0427 19:01:56.777570 16320 net.cpp:137] Memory required for data: 158298112
I0427 19:01:56.777580 16320 layer_factory.hpp:77] Creating layer conv1
I0427 19:01:56.777598 16320 net.cpp:84] Creating Layer conv1
I0427 19:01:56.777604 16320 net.cpp:406] conv1 <- data
I0427 19:01:56.777616 16320 net.cpp:380] conv1 -> conv1
I0427 19:01:57.410281 16320 net.cpp:122] Setting up conv1
I0427 19:01:57.410305 16320 net.cpp:129] Top shape: 256 96 55 55 (74342400)
I0427 19:01:57.410308 16320 net.cpp:137] Memory required for data: 455667712
I0427 19:01:57.410327 16320 layer_factory.hpp:77] Creating layer relu1
I0427 19:01:57.410339 16320 net.cpp:84] Creating Layer relu1
I0427 19:01:57.410343 16320 net.cpp:406] relu1 <- conv1
I0427 19:01:57.410349 16320 net.cpp:367] relu1 -> conv1 (in-place)
I0427 19:01:57.410638 16320 net.cpp:122] Setting up relu1
I0427 19:01:57.410647 16320 net.cpp:129] Top shape: 256 96 55 55 (74342400)
I0427 19:01:57.410650 16320 net.cpp:137] Memory required for data: 753037312
I0427 19:01:57.410655 16320 layer_factory.hpp:77] Creating layer norm1
I0427 19:01:57.410663 16320 net.cpp:84] Creating Layer norm1
I0427 19:01:57.410666 16320 net.cpp:406] norm1 <- conv1
I0427 19:01:57.410693 16320 net.cpp:380] norm1 -> norm1
I0427 19:01:57.411128 16320 net.cpp:122] Setting up norm1
I0427 19:01:57.411139 16320 net.cpp:129] Top shape: 256 96 55 55 (74342400)
I0427 19:01:57.411141 16320 net.cpp:137] Memory required for data: 1050406912
I0427 19:01:57.411145 16320 layer_factory.hpp:77] Creating layer pool1
I0427 19:01:57.411154 16320 net.cpp:84] Creating Layer pool1
I0427 19:01:57.411157 16320 net.cpp:406] pool1 <- norm1
I0427 19:01:57.411162 16320 net.cpp:380] pool1 -> pool1
I0427 19:01:57.411197 16320 net.cpp:122] Setting up pool1
I0427 19:01:57.411203 16320 net.cpp:129] Top shape: 256 96 27 27 (17915904)
I0427 19:01:57.411206 16320 net.cpp:137] Memory required for data: 1122070528
I0427 19:01:57.411209 16320 layer_factory.hpp:77] Creating layer conv2
I0427 19:01:57.411219 16320 net.cpp:84] Creating Layer conv2
I0427 19:01:57.411222 16320 net.cpp:406] conv2 <- pool1
I0427 19:01:57.411227 16320 net.cpp:380] conv2 -> conv2
I0427 19:01:57.419539 16320 net.cpp:122] Setting up conv2
I0427 19:01:57.419556 16320 net.cpp:129] Top shape: 256 256 27 27 (47775744)
I0427 19:01:57.419559 16320 net.cpp:137] Memory required for data: 1313173504
I0427 19:01:57.419570 16320 layer_factory.hpp:77] Creating layer relu2
I0427 19:01:57.419577 16320 net.cpp:84] Creating Layer relu2
I0427 19:01:57.419581 16320 net.cpp:406] relu2 <- conv2
I0427 19:01:57.419587 16320 net.cpp:367] relu2 -> conv2 (in-place)
I0427 19:01:57.420079 16320 net.cpp:122] Setting up relu2
I0427 19:01:57.420089 16320 net.cpp:129] Top shape: 256 256 27 27 (47775744)
I0427 19:01:57.420092 16320 net.cpp:137] Memory required for data: 1504276480
I0427 19:01:57.420096 16320 layer_factory.hpp:77] Creating layer norm2
I0427 19:01:57.420104 16320 net.cpp:84] Creating Layer norm2
I0427 19:01:57.420107 16320 net.cpp:406] norm2 <- conv2
I0427 19:01:57.420114 16320 net.cpp:380] norm2 -> norm2
I0427 19:01:57.420471 16320 net.cpp:122] Setting up norm2
I0427 19:01:57.420480 16320 net.cpp:129] Top shape: 256 256 27 27 (47775744)
I0427 19:01:57.420506 16320 net.cpp:137] Memory required for data: 1695379456
I0427 19:01:57.420512 16320 layer_factory.hpp:77] Creating layer pool2
I0427 19:01:57.420519 16320 net.cpp:84] Creating Layer pool2
I0427 19:01:57.420523 16320 net.cpp:406] pool2 <- norm2
I0427 19:01:57.420528 16320 net.cpp:380] pool2 -> pool2
I0427 19:01:57.420559 16320 net.cpp:122] Setting up pool2
I0427 19:01:57.420564 16320 net.cpp:129] Top shape: 256 256 13 13 (11075584)
I0427 19:01:57.420567 16320 net.cpp:137] Memory required for data: 1739681792
I0427 19:01:57.420570 16320 layer_factory.hpp:77] Creating layer conv3
I0427 19:01:57.420580 16320 net.cpp:84] Creating Layer conv3
I0427 19:01:57.420583 16320 net.cpp:406] conv3 <- pool2
I0427 19:01:57.420589 16320 net.cpp:380] conv3 -> conv3
I0427 19:01:57.430724 16320 net.cpp:122] Setting up conv3
I0427 19:01:57.430742 16320 net.cpp:129] Top shape: 256 384 13 13 (16613376)
I0427 19:01:57.430745 16320 net.cpp:137] Memory required for data: 1806135296
I0427 19:01:57.430755 16320 layer_factory.hpp:77] Creating layer relu3
I0427 19:01:57.430763 16320 net.cpp:84] Creating Layer relu3
I0427 19:01:57.430768 16320 net.cpp:406] relu3 <- conv3
I0427 19:01:57.430773 16320 net.cpp:367] relu3 -> conv3 (in-place)
I0427 19:01:57.431277 16320 net.cpp:122] Setting up relu3
I0427 19:01:57.431286 16320 net.cpp:129] Top shape: 256 384 13 13 (16613376)
I0427 19:01:57.431290 16320 net.cpp:137] Memory required for data: 1872588800
I0427 19:01:57.431293 16320 layer_factory.hpp:77] Creating layer conv4
I0427 19:01:57.431304 16320 net.cpp:84] Creating Layer conv4
I0427 19:01:57.431308 16320 net.cpp:406] conv4 <- conv3
I0427 19:01:57.431313 16320 net.cpp:380] conv4 -> conv4
I0427 19:01:57.442195 16320 net.cpp:122] Setting up conv4
I0427 19:01:57.442212 16320 net.cpp:129] Top shape: 256 384 13 13 (16613376)
I0427 19:01:57.442215 16320 net.cpp:137] Memory required for data: 1939042304
I0427 19:01:57.442224 16320 layer_factory.hpp:77] Creating layer relu4
I0427 19:01:57.442234 16320 net.cpp:84] Creating Layer relu4
I0427 19:01:57.442261 16320 net.cpp:406] relu4 <- conv4
I0427 19:01:57.442267 16320 net.cpp:367] relu4 -> conv4 (in-place)
I0427 19:01:57.442617 16320 net.cpp:122] Setting up relu4
I0427 19:01:57.442625 16320 net.cpp:129] Top shape: 256 384 13 13 (16613376)
I0427 19:01:57.442629 16320 net.cpp:137] Memory required for data: 2005495808
I0427 19:01:57.442632 16320 layer_factory.hpp:77] Creating layer conv5
I0427 19:01:57.442644 16320 net.cpp:84] Creating Layer conv5
I0427 19:01:57.442648 16320 net.cpp:406] conv5 <- conv4
I0427 19:01:57.442654 16320 net.cpp:380] conv5 -> conv5
I0427 19:01:57.451419 16320 net.cpp:122] Setting up conv5
I0427 19:01:57.451436 16320 net.cpp:129] Top shape: 256 256 13 13 (11075584)
I0427 19:01:57.451440 16320 net.cpp:137] Memory required for data: 2049798144
I0427 19:01:57.451454 16320 layer_factory.hpp:77] Creating layer relu5
I0427 19:01:57.451462 16320 net.cpp:84] Creating Layer relu5
I0427 19:01:57.451467 16320 net.cpp:406] relu5 <- conv5
I0427 19:01:57.451474 16320 net.cpp:367] relu5 -> conv5 (in-place)
I0427 19:01:57.451978 16320 net.cpp:122] Setting up relu5
I0427 19:01:57.451989 16320 net.cpp:129] Top shape: 256 256 13 13 (11075584)
I0427 19:01:57.451994 16320 net.cpp:137] Memory required for data: 2094100480
I0427 19:01:57.451997 16320 layer_factory.hpp:77] Creating layer pool5
I0427 19:01:57.452004 16320 net.cpp:84] Creating Layer pool5
I0427 19:01:57.452008 16320 net.cpp:406] pool5 <- conv5
I0427 19:01:57.452015 16320 net.cpp:380] pool5 -> pool5
I0427 19:01:57.452052 16320 net.cpp:122] Setting up pool5
I0427 19:01:57.452057 16320 net.cpp:129] Top shape: 256 256 6 6 (2359296)
I0427 19:01:57.452061 16320 net.cpp:137] Memory required for data: 2103537664
I0427 19:01:57.452064 16320 layer_factory.hpp:77] Creating layer fc6
I0427 19:01:57.452075 16320 net.cpp:84] Creating Layer fc6
I0427 19:01:57.452078 16320 net.cpp:406] fc6 <- pool5
I0427 19:01:57.452085 16320 net.cpp:380] fc6 -> fc6
I0427 19:01:57.810809 16320 net.cpp:122] Setting up fc6
I0427 19:01:57.810832 16320 net.cpp:129] Top shape: 256 4096 (1048576)
I0427 19:01:57.810837 16320 net.cpp:137] Memory required for data: 2107731968
I0427 19:01:57.810844 16320 layer_factory.hpp:77] Creating layer relu6
I0427 19:01:57.810853 16320 net.cpp:84] Creating Layer relu6
I0427 19:01:57.810858 16320 net.cpp:406] relu6 <- fc6
I0427 19:01:57.810864 16320 net.cpp:367] relu6 -> fc6 (in-place)
I0427 19:01:57.811527 16320 net.cpp:122] Setting up relu6
I0427 19:01:57.811535 16320 net.cpp:129] Top shape: 256 4096 (1048576)
I0427 19:01:57.811542 16320 net.cpp:137] Memory required for data: 2111926272
I0427 19:01:57.811545 16320 layer_factory.hpp:77] Creating layer drop6
I0427 19:01:57.811553 16320 net.cpp:84] Creating Layer drop6
I0427 19:01:57.811555 16320 net.cpp:406] drop6 <- fc6
I0427 19:01:57.811560 16320 net.cpp:367] drop6 -> fc6 (in-place)
I0427 19:01:57.811589 16320 net.cpp:122] Setting up drop6
I0427 19:01:57.811595 16320 net.cpp:129] Top shape: 256 4096 (1048576)
I0427 19:01:57.811599 16320 net.cpp:137] Memory required for data: 2116120576
I0427 19:01:57.811602 16320 layer_factory.hpp:77] Creating layer fc7
I0427 19:01:57.811610 16320 net.cpp:84] Creating Layer fc7
I0427 19:01:57.811614 16320 net.cpp:406] fc7 <- fc6
I0427 19:01:57.811619 16320 net.cpp:380] fc7 -> fc7
I0427 19:01:57.971875 16320 net.cpp:122] Setting up fc7
I0427 19:01:57.971896 16320 net.cpp:129] Top shape: 256 4096 (1048576)
I0427 19:01:57.971900 16320 net.cpp:137] Memory required for data: 2120314880
I0427 19:01:57.971909 16320 layer_factory.hpp:77] Creating layer relu7
I0427 19:01:57.971920 16320 net.cpp:84] Creating Layer relu7
I0427 19:01:57.971925 16320 net.cpp:406] relu7 <- fc7
I0427 19:01:57.971931 16320 net.cpp:367] relu7 -> fc7 (in-place)
I0427 19:01:57.977219 16320 net.cpp:122] Setting up relu7
I0427 19:01:57.977231 16320 net.cpp:129] Top shape: 256 4096 (1048576)
I0427 19:01:57.977234 16320 net.cpp:137] Memory required for data: 2124509184
I0427 19:01:57.977238 16320 layer_factory.hpp:77] Creating layer drop7
I0427 19:01:57.977245 16320 net.cpp:84] Creating Layer drop7
I0427 19:01:57.977273 16320 net.cpp:406] drop7 <- fc7
I0427 19:01:57.977281 16320 net.cpp:367] drop7 -> fc7 (in-place)
I0427 19:01:57.977309 16320 net.cpp:122] Setting up drop7
I0427 19:01:57.977316 16320 net.cpp:129] Top shape: 256 4096 (1048576)
I0427 19:01:57.977319 16320 net.cpp:137] Memory required for data: 2128703488
I0427 19:01:57.977324 16320 layer_factory.hpp:77] Creating layer fc8
I0427 19:01:57.977330 16320 net.cpp:84] Creating Layer fc8
I0427 19:01:57.977334 16320 net.cpp:406] fc8 <- fc7
I0427 19:01:57.977339 16320 net.cpp:380] fc8 -> fc8
I0427 19:01:57.986536 16320 net.cpp:122] Setting up fc8
I0427 19:01:57.986553 16320 net.cpp:129] Top shape: 256 196 (50176)
I0427 19:01:57.986557 16320 net.cpp:137] Memory required for data: 2128904192
I0427 19:01:57.986565 16320 layer_factory.hpp:77] Creating layer loss
I0427 19:01:57.986574 16320 net.cpp:84] Creating Layer loss
I0427 19:01:57.986578 16320 net.cpp:406] loss <- fc8
I0427 19:01:57.986583 16320 net.cpp:406] loss <- label
I0427 19:01:57.986589 16320 net.cpp:380] loss -> loss
I0427 19:01:57.986599 16320 layer_factory.hpp:77] Creating layer loss
…
I0427 19:01:57.987890 16320 net.cpp:294] The NetState phase (1) differed from the phase (0) specified by a rule in layer train-data
I0427 19:01:57.988029 16320 net.cpp:51] Initializing net from parameters:
state {
phase: TEST
}
layer {
name: "val-data"
type: "Data"
top: "data"
top: "label"
include {
phase: TEST
}
transform_param {
crop_size: 227
mean_file: "/mnt/bigdisk/DIGITS-MAN-3/digits/jobs/20210427-185700-cc63/mean.binaryproto"
}
data_param {
source: "/mnt/bigdisk/DIGITS-MAN-3/digits/jobs/20210427-185700-cc63/val_db"
batch_size: 256
backend: LMDB
}
}
layer {
name: "conv1"
type: "Convolution"
bottom: "data"
top: "conv1"
param {
lr_mult: 1
decay_mult: 1
}
param {
lr_mult: 2
decay_mult: 0
}
convolution_param {
num_output: 96
kernel_size: 11
stride: 4
weight_filler {
type: "gaussian"
std: 0.01
}
bias_filler {
type: "constant"
value: 0
}
}
}
layer {
name: "relu1"
type: "ReLU"
bottom: "conv1"
top: "conv1"
}
layer {
name: "norm1"
type: "LRN"
bottom: "conv1"
top: "norm1"
lrn_param {
local_size: 5
alpha: 0.0001
beta: 0.75
}
}
layer {
name: "pool1"
type: "Pooling"
bottom: "norm1"
top: "pool1"
pooling_param {
pool: MAX
kernel_size: 3
stride: 2
}
}
layer {
name: "conv2"
type: "Convolution"
bottom: "pool1"
top: "conv2"
param {
lr_mult: 1
decay_mult: 1
}
param {
lr_mult: 2
decay_mult: 0
}
convolution_param {
num_output: 256
pad: 2
kernel_size: 5
group: 2
weight_filler {
type: "gaussian"
std: 0.01
}
bias_filler {
type: "constant"
value: 0.1
}
}
}
layer {
name: "relu2"
type: "ReLU"
bottom: "conv2"
top: "conv2"
}
layer {
name: "norm2"
type: "LRN"
bottom: "conv2"
top: "norm2"
lrn_param {
local_size: 5
alpha: 0.0001
beta: 0.75
}
}
layer {
name: "pool2"
type: "Pooling"
bottom: "norm2"
top: "pool2"
pooling_param {
pool: MAX
kernel_size: 3
stride: 2
}
}
layer {
name: "conv3"
type: "Convolution"
bottom: "pool2"
top: "conv3"
param {
lr_mult: 1
decay_mult: 1
}
param {
lr_mult: 2
decay_mult: 0
}
convolution_param {
num_output: 384
pad: 1
kernel_size: 3
weight_filler {
type: "gaussian"
std: 0.01
}
bias_filler {
type: "constant"
value: 0
}
}
}
layer {
name: "relu3"
type: "ReLU"
bottom: "conv3"
top: "conv3"
}
layer {
name: "conv4"
type: "Convolution"
bottom: "conv3"
top: "conv4"
param {
lr_mult: 1
decay_mult: 1
}
param {
lr_mult: 2
decay_mult: 0
}
convolution_param {
num_output: 384
pad: 1
kernel_size: 3
group: 2
weight_filler {
type: "gaussian"
std: 0.01
}
bias_filler {
type: "constant"
value: 0.1
}
}
}
layer {
name: "relu4"
type: "ReLU"
bottom: "conv4"
top: "conv4"
}
layer {
name: "conv5"
type: "Convolution"
bottom: "conv4"
top: "conv5"
param {
lr_mult: 1
decay_mult: 1
}
param {
lr_mult: 2
decay_mult: 0
}
convolution_param {
num_output: 256
pad: 1
kernel_size: 3
group: 2
weight_filler {
type: "gaussian"
std: 0.01
}
bias_filler {
type: "constant"
value: 0.1
}
}
}
layer {
name: "relu5"
type: "ReLU"
bottom: "conv5"
top: "conv5"
}
layer {
name: "pool5"
type: "Pooling"
bottom: "conv5"
top: "pool5"
pooling_param {
pool: MAX
kernel_size: 3
stride: 2
}
}
layer {
name: "fc6"
type: "InnerProduct"
bottom: "pool5"
top: "fc6"
param {
lr_mult: 1
decay_mult: 1
}
param {
lr_mult: 2
decay_mult: 0
}
inner_product_param {
num_output: 4096
weight_filler {
type: "gaussian"
std: 0.005
}
bias_filler {
type: "constant"
value: 0.1
}
}
}
layer {
name: "relu6"
type: "ReLU"
bottom: "fc6"
top: "fc6"
}
layer {
name: "drop6"
type: "Dropout"
bottom: "fc6"
top: "fc6"
dropout_param {
dropout_ratio: 0.5
}
}
layer {
name: "fc7"
type: "InnerProduct"
bottom: "fc6"
top: "fc7"
param {
lr_mult: 1
decay_mult: 1
}
param {
lr_mult: 2
decay_mult: 0
}
inner_product_param {
num_output: 4096
weight_filler {
type: "gaussian"
std: 0.005
}
bias_filler {
type: "constant"
value: 0.1
}
}
}
layer {
name: "relu7"
type: "ReLU"
bottom: "fc7"
top: "fc7"
}
layer {
name: "drop7"
type: "Dropout"
bottom: "fc7"
top: "fc7"
dropout_param {
dropout_ratio: 0.5
}
}
layer {
name: "fc8"
type: "InnerProduct"
bottom: "fc7"
top: "fc8"
param {
lr_mult: 1
decay_mult: 1
}
param {
lr_mult: 2
decay_mult: 0
}
inner_product_param {
num_output: 196
weight_filler {
type: "gaussian"
std: 0.01
}
bias_filler {
type: "constant"
value: 0
}
}
}
layer {
name: "accuracy"
type: "Accuracy"
bottom: "fc8"
bottom: "label"
top: "accuracy"
include {
phase: TEST
}
}
layer {
name: "loss"
type: "SoftmaxWithLoss"
bottom: "fc8"
bottom: "label"
top: "loss"
}
I0427 19:01:57.988133 16320 layer_factory.hpp:77] Creating layer val-data
I0427 19:01:57.992900 16320 db_lmdb.cpp:35] Opened lmdb /mnt/bigdisk/DIGITS-MAN-3/digits/jobs/20210427-185700-cc63/val_db
I0427 19:01:57.993149 16320 net.cpp:84] Creating Layer val-data
I0427 19:01:57.993160 16320 net.cpp:380] val-data -> data
I0427 19:01:57.993168 16320 net.cpp:380] val-data -> label
I0427 19:01:57.993176 16320 data_transformer.cpp:25] Loading mean file from: /mnt/bigdisk/DIGITS-MAN-3/digits/jobs/20210427-185700-cc63/mean.binaryproto
I0427 19:01:57.996304 16320 data_layer.cpp:45] output data size: 256,3,227,227
I0427 19:01:58.250824 16320 net.cpp:122] Setting up val-data
I0427 19:01:58.250842 16320 net.cpp:129] Top shape: 256 3 227 227 (39574272)
I0427 19:01:58.250847 16320 net.cpp:129] Top shape: 256 (256)
I0427 19:01:58.250850 16320 net.cpp:137] Memory required for data: 158298112
I0427 19:01:58.250857 16320 layer_factory.hpp:77] Creating layer label_val-data_1_split
I0427 19:01:58.250870 16320 net.cpp:84] Creating Layer label_val-data_1_split
I0427 19:01:58.250874 16320 net.cpp:406] label_val-data_1_split <- label
I0427 19:01:58.250882 16320 net.cpp:380] label_val-data_1_split -> label_val-data_1_split_0
I0427 19:01:58.250890 16320 net.cpp:380] label_val-data_1_split -> label_val-data_1_split_1
I0427 19:01:58.250960 16320 net.cpp:122] Setting up label_val-data_1_split
I0427 19:01:58.250967 16320 net.cpp:129] Top shape: 256 (256)
I0427 19:01:58.250970 16320 net.cpp:129] Top shape: 256 (256)
I0427 19:01:58.250973 16320 net.cpp:137] Memory required for data: 158300160
I0427 19:01:58.250977 16320 layer_factory.hpp:77] Creating layer conv1
I0427 19:01:58.250989 16320 net.cpp:84] Creating Layer conv1
I0427 19:01:58.250993 16320 net.cpp:406] conv1 <- data
I0427 19:01:58.250998 16320 net.cpp:380] conv1 -> conv1
I0427 19:01:58.254457 16320 net.cpp:122] Setting up conv1
I0427 19:01:58.254469 16320 net.cpp:129] Top shape: 256 96 55 55 (74342400)
I0427 19:01:58.254473 16320 net.cpp:137] Memory required for data: 455669760
I0427 19:01:58.254483 16320 layer_factory.hpp:77] Creating layer relu1
I0427 19:01:58.254490 16320 net.cpp:84] Creating Layer relu1
I0427 19:01:58.254493 16320 net.cpp:406] relu1 <- conv1
I0427 19:01:58.254498 16320 net.cpp:367] relu1 -> conv1 (in-place)
I0427 19:01:58.254789 16320 net.cpp:122] Setting up relu1
I0427 19:01:58.254798 16320 net.cpp:129] Top shape: 256 96 55 55 (74342400)
I0427 19:01:58.254801 16320 net.cpp:137] Memory required for data: 753039360
I0427 19:01:58.254806 16320 layer_factory.hpp:77] Creating layer norm1
I0427 19:01:58.254813 16320 net.cpp:84] Creating Layer norm1
I0427 19:01:58.254817 16320 net.cpp:406] norm1 <- conv1
I0427 19:01:58.254822 16320 net.cpp:380] norm1 -> norm1
I0427 19:01:58.255403 16320 net.cpp:122] Setting up norm1
I0427 19:01:58.255412 16320 net.cpp:129] Top shape: 256 96 55 55 (74342400)
I0427 19:01:58.255416 16320 net.cpp:137] Memory required for data: 1050408960
I0427 19:01:58.255419 16320 layer_factory.hpp:77] Creating layer pool1
I0427 19:01:58.255426 16320 net.cpp:84] Creating Layer pool1
I0427 19:01:58.255429 16320 net.cpp:406] pool1 <- norm1
I0427 19:01:58.255434 16320 net.cpp:380] pool1 -> pool1
I0427 19:01:58.255462 16320 net.cpp:122] Setting up pool1
I0427 19:01:58.255467 16320 net.cpp:129] Top shape: 256 96 27 27 (17915904)
I0427 19:01:58.255470 16320 net.cpp:137] Memory required for data: 1122072576
I0427 19:01:58.255473 16320 layer_factory.hpp:77] Creating layer conv2
I0427 19:01:58.255481 16320 net.cpp:84] Creating Layer conv2
I0427 19:01:58.255504 16320 net.cpp:406] conv2 <- pool1
I0427 19:01:58.255509 16320 net.cpp:380] conv2 -> conv2
I0427 19:01:58.275166 16320 net.cpp:122] Setting up conv2
I0427 19:01:58.275185 16320 net.cpp:129] Top shape: 256 256 27 27 (47775744)
I0427 19:01:58.275189 16320 net.cpp:137] Memory required for data: 1313175552
I0427 19:01:58.275202 16320 layer_factory.hpp:77] Creating layer relu2
I0427 19:01:58.275211 16320 net.cpp:84] Creating Layer relu2
I0427 19:01:58.275215 16320 net.cpp:406] relu2 <- conv2
I0427 19:01:58.275223 16320 net.cpp:367] relu2 -> conv2 (in-place)
I0427 19:01:58.275727 16320 net.cpp:122] Setting up relu2
I0427 19:01:58.275735 16320 net.cpp:129] Top shape: 256 256 27 27 (47775744)
I0427 19:01:58.275739 16320 net.cpp:137] Memory required for data: 1504278528
I0427 19:01:58.275743 16320 layer_factory.hpp:77] Creating layer norm2
I0427 19:01:58.275753 16320 net.cpp:84] Creating Layer norm2
I0427 19:01:58.275756 16320 net.cpp:406] norm2 <- conv2
I0427 19:01:58.275763 16320 net.cpp:380] norm2 -> norm2
I0427 19:01:58.276278 16320 net.cpp:122] Setting up norm2
I0427 19:01:58.276288 16320 net.cpp:129] Top shape: 256 256 27 27 (47775744)
I0427 19:01:58.276293 16320 net.cpp:137] Memory required for data: 1695381504
I0427 19:01:58.276295 16320 layer_factory.hpp:77] Creating layer pool2
I0427 19:01:58.276302 16320 net.cpp:84] Creating Layer pool2
I0427 19:01:58.276305 16320 net.cpp:406] pool2 <- norm2
I0427 19:01:58.276310 16320 net.cpp:380] pool2 -> pool2
I0427 19:01:58.276343 16320 net.cpp:122] Setting up pool2
I0427 19:01:58.276348 16320 net.cpp:129] Top shape: 256 256 13 13 (11075584)
I0427 19:01:58.276351 16320 net.cpp:137] Memory required for data: 1739683840
I0427 19:01:58.276355 16320 layer_factory.hpp:77] Creating layer conv3
I0427 19:01:58.276365 16320 net.cpp:84] Creating Layer conv3
I0427 19:01:58.276371 16320 net.cpp:406] conv3 <- pool2
I0427 19:01:58.276376 16320 net.cpp:380] conv3 -> conv3
I0427 19:01:58.287897 16320 net.cpp:122] Setting up conv3
I0427 19:01:58.287919 16320 net.cpp:129] Top shape: 256 384 13 13 (16613376)
I0427 19:01:58.287925 16320 net.cpp:137] Memory required for data: 1806137344
I0427 19:01:58.287938 16320 layer_factory.hpp:77] Creating layer relu3
I0427 19:01:58.287950 16320 net.cpp:84] Creating Layer relu3
I0427 19:01:58.287955 16320 net.cpp:406] relu3 <- conv3
I0427 19:01:58.287961 16320 net.cpp:367] relu3 -> conv3 (in-place)
I0427 19:01:58.288527 16320 net.cpp:122] Setting up relu3
I0427 19:01:58.288538 16320 net.cpp:129] Top shape: 256 384 13 13 (16613376)
I0427 19:01:58.288542 16320 net.cpp:137] Memory required for data: 1872590848
I0427 19:01:58.288545 16320 layer_factory.hpp:77] Creating layer conv4
I0427 19:01:58.288558 16320 net.cpp:84] Creating Layer conv4
I0427 19:01:58.288561 16320 net.cpp:406] conv4 <- conv3
I0427 19:01:58.288568 16320 net.cpp:380] conv4 -> conv4
I0427 19:01:58.299733 16320 net.cpp:122] Setting up conv4
I0427 19:01:58.299751 16320 net.cpp:129] Top shape: 256 384 13 13 (16613376)
I0427 19:01:58.299754 16320 net.cpp:137] Memory required for data: 1939044352
I0427 19:01:58.299762 16320 layer_factory.hpp:77] Creating layer relu4
I0427 19:01:58.299774 16320 net.cpp:84] Creating Layer relu4
I0427 19:01:58.299779 16320 net.cpp:406] relu4 <- conv4
I0427 19:01:58.299787 16320 net.cpp:367] relu4 -> conv4 (in-place)
I0427 19:01:58.300138 16320 net.cpp:122] Setting up relu4
I0427 19:01:58.300148 16320 net.cpp:129] Top shape: 256 384 13 13 (16613376)
I0427 19:01:58.300151 16320 net.cpp:137] Memory required for data: 2005497856
I0427 19:01:58.300155 16320 layer_factory.hpp:77] Creating layer conv5
I0427 19:01:58.300165 16320 net.cpp:84] Creating Layer conv5
I0427 19:01:58.300169 16320 net.cpp:406] conv5 <- conv4
I0427 19:01:58.300174 16320 net.cpp:380] conv5 -> conv5
I0427 19:01:58.309998 16320 net.cpp:122] Setting up conv5
I0427 19:01:58.310016 16320 net.cpp:129] Top shape: 256 256 13 13 (11075584)
I0427 19:01:58.310020 16320 net.cpp:137] Memory required for data: 2049800192
I0427 19:01:58.310034 16320 layer_factory.hpp:77] Creating layer relu5
I0427 19:01:58.310060 16320 net.cpp:84] Creating Layer relu5
I0427 19:01:58.310065 16320 net.cpp:406] relu5 <- conv5
I0427 19:01:58.310072 16320 net.cpp:367] relu5 -> conv5 (in-place)
I0427 19:01:58.310587 16320 net.cpp:122] Setting up relu5
I0427 19:01:58.310597 16320 net.cpp:129] Top shape: 256 256 13 13 (11075584)
I0427 19:01:58.310600 16320 net.cpp:137] Memory required for data: 2094102528
I0427 19:01:58.310604 16320 layer_factory.hpp:77] Creating layer pool5
I0427 19:01:58.310616 16320 net.cpp:84] Creating Layer pool5
I0427 19:01:58.310622 16320 net.cpp:406] pool5 <- conv5
I0427 19:01:58.310628 16320 net.cpp:380] pool5 -> pool5
I0427 19:01:58.310674 16320 net.cpp:122] Setting up pool5
I0427 19:01:58.310681 16320 net.cpp:129] Top shape: 256 256 6 6 (2359296)
I0427 19:01:58.310684 16320 net.cpp:137] Memory required for data: 2103539712
I0427 19:01:58.310688 16320 layer_factory.hpp:77] Creating layer fc6
I0427 19:01:58.310695 16320 net.cpp:84] Creating Layer fc6
I0427 19:01:58.310698 16320 net.cpp:406] fc6 <- pool5
I0427 19:01:58.310705 16320 net.cpp:380] fc6 -> fc6
I0427 19:01:58.669780 16320 net.cpp:122] Setting up fc6
I0427 19:01:58.669803 16320 net.cpp:129] Top shape: 256 4096 (1048576)
I0427 19:01:58.669806 16320 net.cpp:137] Memory required for data: 2107734016
I0427 19:01:58.669816 16320 layer_factory.hpp:77] Creating layer relu6
I0427 19:01:58.669826 16320 net.cpp:84] Creating Layer relu6
I0427 19:01:58.669829 16320 net.cpp:406] relu6 <- fc6
I0427 19:01:58.669837 16320 net.cpp:367] relu6 -> fc6 (in-place)
I0427 19:01:58.670693 16320 net.cpp:122] Setting up relu6
I0427 19:01:58.670703 16320 net.cpp:129] Top shape: 256 4096 (1048576)
I0427 19:01:58.670706 16320 net.cpp:137] Memory required for data: 2111928320
I0427 19:01:58.670711 16320 layer_factory.hpp:77] Creating layer drop6
I0427 19:01:58.670717 16320 net.cpp:84] Creating Layer drop6
I0427 19:01:58.670720 16320 net.cpp:406] drop6 <- fc6
I0427 19:01:58.670728 16320 net.cpp:367] drop6 -> fc6 (in-place)
I0427 19:01:58.670755 16320 net.cpp:122] Setting up drop6
I0427 19:01:58.670761 16320 net.cpp:129] Top shape: 256 4096 (1048576)
I0427 19:01:58.670764 16320 net.cpp:137] Memory required for data: 2116122624
I0427 19:01:58.670768 16320 layer_factory.hpp:77] Creating layer fc7
I0427 19:01:58.670774 16320 net.cpp:84] Creating Layer fc7
I0427 19:01:58.670778 16320 net.cpp:406] fc7 <- fc6
I0427 19:01:58.670784 16320 net.cpp:380] fc7 -> fc7
I0427 19:01:58.838014 16320 net.cpp:122] Setting up fc7
I0427 19:01:58.838037 16320 net.cpp:129] Top shape: 256 4096 (1048576)
I0427 19:01:58.838039 16320 net.cpp:137] Memory required for data: 2120316928
I0427 19:01:58.838048 16320 layer_factory.hpp:77] Creating layer relu7
I0427 19:01:58.838057 16320 net.cpp:84] Creating Layer relu7
I0427 19:01:58.838061 16320 net.cpp:406] relu7 <- fc7
I0427 19:01:58.838069 16320 net.cpp:367] relu7 -> fc7 (in-place)
I0427 19:01:58.838490 16320 net.cpp:122] Setting up relu7
I0427 19:01:58.838498 16320 net.cpp:129] Top shape: 256 4096 (1048576)
I0427 19:01:58.838502 16320 net.cpp:137] Memory required for data: 2124511232
I0427 19:01:58.838505 16320 layer_factory.hpp:77] Creating layer drop7
I0427 19:01:58.838513 16320 net.cpp:84] Creating Layer drop7
I0427 19:01:58.838516 16320 net.cpp:406] drop7 <- fc7
I0427 19:01:58.838521 16320 net.cpp:367] drop7 -> fc7 (in-place)
I0427 19:01:58.838547 16320 net.cpp:122] Setting up drop7
I0427 19:01:58.838552 16320 net.cpp:129] Top shape: 256 4096 (1048576)
I0427 19:01:58.838555 16320 net.cpp:137] Memory required for data: 2128705536
I0427 19:01:58.838558 16320 layer_factory.hpp:77] Creating layer fc8
I0427 19:01:58.838565 16320 net.cpp:84] Creating Layer fc8
I0427 19:01:58.838568 16320 net.cpp:406] fc8 <- fc7
I0427 19:01:58.838574 16320 net.cpp:380] fc8 -> fc8
I0427 19:01:58.846418 16320 net.cpp:122] Setting up fc8
I0427 19:01:58.846436 16320 net.cpp:129] Top shape: 256 196 (50176)
I0427 19:01:58.846438 16320 net.cpp:137] Memory required for data: 2128906240
I0427 19:01:58.846446 16320 layer_factory.hpp:77] Creating layer fc8_fc8_0_split
I0427 19:01:58.846454 16320 net.cpp:84] Creating Layer fc8_fc8_0_split
I0427 19:01:58.846477 16320 net.cpp:406] fc8_fc8_0_split <- fc8
I0427 19:01:58.846485 16320 net.cpp:380] fc8_fc8_0_split -> fc8_fc8_0_split_0
I0427 19:01:58.846493 16320 net.cpp:380] fc8_fc8_0_split -> fc8_fc8_0_split_1
I0427 19:01:58.846526 16320 net.cpp:122] Setting up fc8_fc8_0_split
I0427 19:01:58.846532 16320 net.cpp:129] Top shape: 256 196 (50176)
I0427 19:01:58.846535 16320 net.cpp:129] Top shape: 256 196 (50176)
I0427 19:01:58.846539 16320 net.cpp:137] Memory required for data: 2129307648
I0427 19:01:58.846541 16320 layer_factory.hpp:77] Creating layer accuracy
I0427 19:01:58.846549 16320 net.cpp:84] Creating Layer accuracy
I0427 19:01:58.846552 16320 net.cpp:406] accuracy <- fc8_fc8_0_split_0
I0427 19:01:58.846557 16320 net.cpp:406] accuracy <- label_val-data_1_split_0
I0427 19:01:58.846561 16320 net.cpp:380] accuracy -> accuracy
…
