…
I0410 00:38:40.956950 18059 net.cpp:294] The NetState phase (0) differed from the phase (1) specified by a rule in layer accuracy
I0410 00:38:40.957098 18059 net.cpp:51] Initializing net from parameters:
state {
phase: TRAIN
level: 0
stage: ""
}
layer {
name: "train-data"
type: "Data"
top: "data"
top: "label"
include {
phase: TRAIN
}
transform_param {
mirror: true
crop_size: 227
mean_file: "/mnt/bigdisk/DIGITS-MAN-2/digits/jobs/20210407-214532-d396/mean.binaryproto"
}
data_param {
source: "/mnt/bigdisk/DIGITS-MAN-2/digits/jobs/20210407-214532-d396/train_db"
batch_size: 128
backend: LMDB
}
}
layer {
name: "conv1"
type: "Convolution"
bottom: "data"
top: "conv1"
param {
lr_mult: 1
decay_mult: 1
}
param {
lr_mult: 2
decay_mult: 0
}
convolution_param {
num_output: 96
kernel_size: 11
stride: 4
weight_filler {
type: "gaussian"
std: 0.01
}
bias_filler {
type: "constant"
value: 0
}
}
}
layer {
name: "relu1"
type: "ReLU"
bottom: "conv1"
top: "conv1"
}
layer {
name: "norm1"
type: "LRN"
bottom: "conv1"
top: "norm1"
lrn_param {
local_size: 5
alpha: 0.0001
beta: 0.75
}
}
layer {
name: "pool1"
type: "Pooling"
bottom: "norm1"
top: "pool1"
pooling_param {
pool: MAX
kernel_size: 3
stride: 2
}
}
layer {
name: "conv2"
type: "Convolution"
bottom: "pool1"
top: "conv2"
param {
lr_mult: 1
decay_mult: 1
}
param {
lr_mult: 2
decay_mult: 0
}
convolution_param {
num_output: 256
pad: 2
kernel_size: 5
group: 2
weight_filler {
type: "gaussian"
std: 0.01
}
bias_filler {
type: "constant"
value: 0.1
}
}
}
layer {
name: "relu2"
type: "ReLU"
bottom: "conv2"
top: "conv2"
}
layer {
name: "norm2"
type: "LRN"
bottom: "conv2"
top: "norm2"
lrn_param {
local_size: 5
alpha: 0.0001
beta: 0.75
}
}
layer {
name: "pool2"
type: "Pooling"
bottom: "norm2"
top: "pool2"
pooling_param {
pool: MAX
kernel_size: 3
stride: 2
}
}
layer {
name: "conv3"
type: "Convolution"
bottom: "pool2"
top: "conv3"
param {
lr_mult: 1
decay_mult: 1
}
param {
lr_mult: 2
decay_mult: 0
}
convolution_param {
num_output: 384
pad: 1
kernel_size: 3
weight_filler {
type: "gaussian"
std: 0.01
}
bias_filler {
type: "constant"
value: 0
}
}
}
layer {
name: "relu3"
type: "ReLU"
bottom: "conv3"
top: "conv3"
}
layer {
name: "conv4"
type: "Convolution"
bottom: "conv3"
top: "conv4"
param {
lr_mult: 1
decay_mult: 1
}
param {
lr_mult: 2
decay_mult: 0
}
convolution_param {
num_output: 384
pad: 1
kernel_size: 3
group: 2
weight_filler {
type: "gaussian"
std: 0.01
}
bias_filler {
type: "constant"
value: 0.1
}
}
}
layer {
name: "relu4"
type: "ReLU"
bottom: "conv4"
top: "conv4"
}
layer {
name: "conv5"
type: "Convolution"
bottom: "conv4"
top: "conv5"
param {
lr_mult: 1
decay_mult: 1
}
param {
lr_mult: 2
decay_mult: 0
}
convolution_param {
num_output: 256
pad: 1
kernel_size: 3
group: 2
weight_filler {
type: "gaussian"
std: 0.01
}
bias_filler {
type: "constant"
value: 0.1
}
}
}
layer {
name: "relu5"
type: "ReLU"
bottom: "conv5"
top: "conv5"
}
layer {
name: "pool5"
type: "Pooling"
bottom: "conv5"
top: "pool5"
pooling_param {
pool: MAX
kernel_size: 3
stride: 2
}
}
layer {
name: "fc6"
type: "InnerProduct"
bottom: "pool5"
top: "fc6"
param {
lr_mult: 1
decay_mult: 1
}
param {
lr_mult: 2
decay_mult: 0
}
inner_product_param {
num_output: 4096
weight_filler {
type: "gaussian"
std: 0.005
}
bias_filler {
type: "constant"
value: 0.1
}
}
}
layer {
name: "relu6"
type: "ReLU"
bottom: "fc6"
top: "fc6"
}
layer {
name: "drop6"
type: "Dropout"
bottom: "fc6"
top: "fc6"
dropout_param {
dropout_ratio: 0.5
}
}
layer {
name: "fc7"
type: "InnerProduct"
bottom: "fc6"
top: "fc7"
param {
lr_mult: 1
decay_mult: 1
}
param {
lr_mult: 2
decay_mult: 0
}
inner_product_param {
num_output: 4096
weight_filler {
type: "gaussian"
std: 0.005
}
bias_filler {
type: "constant"
value: 0.1
}
}
}
layer {
name: "relu7"
type: "ReLU"
bottom: "fc7"
top: "fc7"
}
layer {
name: "drop7"
type: "Dropout"
bottom: "fc7"
top: "fc7"
dropout_param {
dropout_ratio: 0.5
}
}
layer {
name: "fc7.5"
type: "InnerProduct"
bottom: "fc7"
top: "fc7.5"
param {
lr_mult: 1
decay_mult: 1
}
param {
lr_mult: 2
decay_mult: 0
}
inner_product_param {
num_output: 4096
weight_filler {
type: "gaussian"
std: 0.005
}
bias_filler {
type: "constant"
value: 0.1
}
}
}
layer {
name: "relu7.5"
type: "ReLU"
bottom: "fc7.5"
top: "fc7.5"
}
layer {
name: "drop7.5"
type: "Dropout"
bottom: "fc7.5"
top: "fc7.5"
dropout_param {
dropout_ratio: 0.5
}
}
layer {
name: "fc7.6"
type: "InnerProduct"
bottom: "fc7.5"
top: "fc7.6"
param {
lr_mult: 1
decay_mult: 1
}
param {
lr_mult: 2
decay_mult: 0
}
inner_product_param {
num_output: 4096
weight_filler {
type: "gaussian"
std: 0.005
}
bias_filler {
type: "constant"
value: 0.1
}
}
}
layer {
name: "relu7.6"
type: "ReLU"
bottom: "fc7.6"
top: "fc7.6"
}
layer {
name: "drop7.6"
type: "Dropout"
bottom: "fc7.6"
top: "fc7.6"
dropout_param {
dropout_ratio: 0.5
}
}
layer {
name: "fc8"
type: "InnerProduct"
bottom: "fc7.6"
top: "fc8"
param {
lr_mult: 1
decay_mult: 1
}
param {
lr_mult: 2
decay_mult: 0
}
inner_product_param {
num_output: 196
weight_filler {
type: "gaussian"
std: 0.01
}
bias_filler {
type: "constant"
value: 0
}
}
}
layer {
name: "loss"
type: "SoftmaxWithLoss"
bottom: "fc8"
bottom: "label"
top: "loss"
}
I0410 00:38:40.957187 18059 layer_factory.hpp:77] Creating layer train-data
I0410 00:38:40.958853 18059 db_lmdb.cpp:35] Opened lmdb /mnt/bigdisk/DIGITS-MAN-2/digits/jobs/20210407-214532-d396/train_db
I0410 00:38:40.959057 18059 net.cpp:84] Creating Layer train-data
I0410 00:38:40.959067 18059 net.cpp:380] train-data -> data
I0410 00:38:40.959085 18059 net.cpp:380] train-data -> label
I0410 00:38:40.959095 18059 data_transformer.cpp:25] Loading mean file from: /mnt/bigdisk/DIGITS-MAN-2/digits/jobs/20210407-214532-d396/mean.binaryproto
I0410 00:38:40.963582 18059 data_layer.cpp:45] output data size: 128,3,227,227
I0410 00:38:41.084195 18059 net.cpp:122] Setting up train-data
I0410 00:38:41.084216 18059 net.cpp:129] Top shape: 128 3 227 227 (19787136)
I0410 00:38:41.084223 18059 net.cpp:129] Top shape: 128 (128)
I0410 00:38:41.084225 18059 net.cpp:137] Memory required for data: 79149056
I0410 00:38:41.084254 18059 layer_factory.hpp:77] Creating layer conv1
I0410 00:38:41.084275 18059 net.cpp:84] Creating Layer conv1
I0410 00:38:41.084280 18059 net.cpp:406] conv1 <- data
I0410 00:38:41.084291 18059 net.cpp:380] conv1 -> conv1
I0410 00:38:41.619902 18059 net.cpp:122] Setting up conv1
I0410 00:38:41.619922 18059 net.cpp:129] Top shape: 128 96 55 55 (37171200)
I0410 00:38:41.619926 18059 net.cpp:137] Memory required for data: 227833856
I0410 00:38:41.619946 18059 layer_factory.hpp:77] Creating layer relu1
I0410 00:38:41.619956 18059 net.cpp:84] Creating Layer relu1
I0410 00:38:41.619959 18059 net.cpp:406] relu1 <- conv1
I0410 00:38:41.619966 18059 net.cpp:367] relu1 -> conv1 (in-place)
I0410 00:38:41.620251 18059 net.cpp:122] Setting up relu1
I0410 00:38:41.620260 18059 net.cpp:129] Top shape: 128 96 55 55 (37171200)
I0410 00:38:41.620263 18059 net.cpp:137] Memory required for data: 376518656
I0410 00:38:41.620267 18059 layer_factory.hpp:77] Creating layer norm1
I0410 00:38:41.620276 18059 net.cpp:84] Creating Layer norm1
I0410 00:38:41.620280 18059 net.cpp:406] norm1 <- conv1
I0410 00:38:41.620285 18059 net.cpp:380] norm1 -> norm1
I0410 00:38:41.620714 18059 net.cpp:122] Setting up norm1
I0410 00:38:41.620724 18059 net.cpp:129] Top shape: 128 96 55 55 (37171200)
I0410 00:38:41.620728 18059 net.cpp:137] Memory required for data: 525203456
I0410 00:38:41.620733 18059 layer_factory.hpp:77] Creating layer pool1
I0410 00:38:41.620739 18059 net.cpp:84] Creating Layer pool1
I0410 00:38:41.620743 18059 net.cpp:406] pool1 <- norm1
I0410 00:38:41.620748 18059 net.cpp:380] pool1 -> pool1
I0410 00:38:41.620784 18059 net.cpp:122] Setting up pool1
I0410 00:38:41.620790 18059 net.cpp:129] Top shape: 128 96 27 27 (8957952)
I0410 00:38:41.620793 18059 net.cpp:137] Memory required for data: 561035264
I0410 00:38:41.620796 18059 layer_factory.hpp:77] Creating layer conv2
I0410 00:38:41.620805 18059 net.cpp:84] Creating Layer conv2
I0410 00:38:41.620810 18059 net.cpp:406] conv2 <- pool1
I0410 00:38:41.620815 18059 net.cpp:380] conv2 -> conv2
I0410 00:38:41.627739 18059 net.cpp:122] Setting up conv2
I0410 00:38:41.627754 18059 net.cpp:129] Top shape: 128 256 27 27 (23887872)
I0410 00:38:41.627758 18059 net.cpp:137] Memory required for data: 656586752
I0410 00:38:41.627768 18059 layer_factory.hpp:77] Creating layer relu2
I0410 00:38:41.627776 18059 net.cpp:84] Creating Layer relu2
I0410 00:38:41.627780 18059 net.cpp:406] relu2 <- conv2
I0410 00:38:41.627787 18059 net.cpp:367] relu2 -> conv2 (in-place)
I0410 00:38:41.630023 18059 net.cpp:122] Setting up relu2
I0410 00:38:41.630033 18059 net.cpp:129] Top shape: 128 256 27 27 (23887872)
I0410 00:38:41.630035 18059 net.cpp:137] Memory required for data: 752138240
I0410 00:38:41.630039 18059 layer_factory.hpp:77] Creating layer norm2
I0410 00:38:41.630048 18059 net.cpp:84] Creating Layer norm2
I0410 00:38:41.630051 18059 net.cpp:406] norm2 <- conv2
I0410 00:38:41.630059 18059 net.cpp:380] norm2 -> norm2
I0410 00:38:41.630414 18059 net.cpp:122] Setting up norm2
I0410 00:38:41.630421 18059 net.cpp:129] Top shape: 128 256 27 27 (23887872)
I0410 00:38:41.630424 18059 net.cpp:137] Memory required for data: 847689728
I0410 00:38:41.630429 18059 layer_factory.hpp:77] Creating layer pool2
I0410 00:38:41.630437 18059 net.cpp:84] Creating Layer pool2
I0410 00:38:41.630440 18059 net.cpp:406] pool2 <- norm2
I0410 00:38:41.630445 18059 net.cpp:380] pool2 -> pool2
I0410 00:38:41.630475 18059 net.cpp:122] Setting up pool2
I0410 00:38:41.630481 18059 net.cpp:129] Top shape: 128 256 13 13 (5537792)
I0410 00:38:41.630483 18059 net.cpp:137] Memory required for data: 869840896
I0410 00:38:41.630486 18059 layer_factory.hpp:77] Creating layer conv3
I0410 00:38:41.630496 18059 net.cpp:84] Creating Layer conv3
I0410 00:38:41.630501 18059 net.cpp:406] conv3 <- pool2
I0410 00:38:41.630506 18059 net.cpp:380] conv3 -> conv3
I0410 00:38:41.641641 18059 net.cpp:122] Setting up conv3
I0410 00:38:41.641659 18059 net.cpp:129] Top shape: 128 384 13 13 (8306688)
I0410 00:38:41.641662 18059 net.cpp:137] Memory required for data: 903067648
I0410 00:38:41.641692 18059 layer_factory.hpp:77] Creating layer relu3
I0410 00:38:41.641700 18059 net.cpp:84] Creating Layer relu3
I0410 00:38:41.641705 18059 net.cpp:406] relu3 <- conv3
I0410 00:38:41.641712 18059 net.cpp:367] relu3 -> conv3 (in-place)
I0410 00:38:41.642241 18059 net.cpp:122] Setting up relu3
I0410 00:38:41.642251 18059 net.cpp:129] Top shape: 128 384 13 13 (8306688)
I0410 00:38:41.642256 18059 net.cpp:137] Memory required for data: 936294400
I0410 00:38:41.642259 18059 layer_factory.hpp:77] Creating layer conv4
I0410 00:38:41.642271 18059 net.cpp:84] Creating Layer conv4
I0410 00:38:41.642274 18059 net.cpp:406] conv4 <- conv3
I0410 00:38:41.642282 18059 net.cpp:380] conv4 -> conv4
I0410 00:38:41.654093 18059 net.cpp:122] Setting up conv4
I0410 00:38:41.654109 18059 net.cpp:129] Top shape: 128 384 13 13 (8306688)
I0410 00:38:41.654114 18059 net.cpp:137] Memory required for data: 969521152
I0410 00:38:41.654122 18059 layer_factory.hpp:77] Creating layer relu4
I0410 00:38:41.654130 18059 net.cpp:84] Creating Layer relu4
I0410 00:38:41.654134 18059 net.cpp:406] relu4 <- conv4
I0410 00:38:41.654141 18059 net.cpp:367] relu4 -> conv4 (in-place)
I0410 00:38:41.654480 18059 net.cpp:122] Setting up relu4
I0410 00:38:41.654489 18059 net.cpp:129] Top shape: 128 384 13 13 (8306688)
I0410 00:38:41.654491 18059 net.cpp:137] Memory required for data: 1002747904
I0410 00:38:41.654495 18059 layer_factory.hpp:77] Creating layer conv5
I0410 00:38:41.654506 18059 net.cpp:84] Creating Layer conv5
I0410 00:38:41.654510 18059 net.cpp:406] conv5 <- conv4
I0410 00:38:41.654516 18059 net.cpp:380] conv5 -> conv5
I0410 00:38:41.664628 18059 net.cpp:122] Setting up conv5
I0410 00:38:41.664645 18059 net.cpp:129] Top shape: 128 256 13 13 (5537792)
I0410 00:38:41.664649 18059 net.cpp:137] Memory required for data: 1024899072
I0410 00:38:41.664660 18059 layer_factory.hpp:77] Creating layer relu5
I0410 00:38:41.664669 18059 net.cpp:84] Creating Layer relu5
I0410 00:38:41.664672 18059 net.cpp:406] relu5 <- conv5
I0410 00:38:41.664680 18059 net.cpp:367] relu5 -> conv5 (in-place)
I0410 00:38:41.665159 18059 net.cpp:122] Setting up relu5
I0410 00:38:41.665169 18059 net.cpp:129] Top shape: 128 256 13 13 (5537792)
I0410 00:38:41.665172 18059 net.cpp:137] Memory required for data: 1047050240
I0410 00:38:41.665176 18059 layer_factory.hpp:77] Creating layer pool5
I0410 00:38:41.665185 18059 net.cpp:84] Creating Layer pool5
I0410 00:38:41.665189 18059 net.cpp:406] pool5 <- conv5
I0410 00:38:41.665194 18059 net.cpp:380] pool5 -> pool5
I0410 00:38:41.665232 18059 net.cpp:122] Setting up pool5
I0410 00:38:41.665238 18059 net.cpp:129] Top shape: 128 256 6 6 (1179648)
I0410 00:38:41.665241 18059 net.cpp:137] Memory required for data: 1051768832
I0410 00:38:41.665246 18059 layer_factory.hpp:77] Creating layer fc6
I0410 00:38:41.665256 18059 net.cpp:84] Creating Layer fc6
I0410 00:38:41.665259 18059 net.cpp:406] fc6 <- pool5
I0410 00:38:41.665264 18059 net.cpp:380] fc6 -> fc6
I0410 00:38:42.021314 18059 net.cpp:122] Setting up fc6
I0410 00:38:42.021334 18059 net.cpp:129] Top shape: 128 4096 (524288)
I0410 00:38:42.021339 18059 net.cpp:137] Memory required for data: 1053865984
I0410 00:38:42.021348 18059 layer_factory.hpp:77] Creating layer relu6
I0410 00:38:42.021358 18059 net.cpp:84] Creating Layer relu6
I0410 00:38:42.021361 18059 net.cpp:406] relu6 <- fc6
I0410 00:38:42.021368 18059 net.cpp:367] relu6 -> fc6 (in-place)
I0410 00:38:42.022020 18059 net.cpp:122] Setting up relu6
I0410 00:38:42.022029 18059 net.cpp:129] Top shape: 128 4096 (524288)
I0410 00:38:42.022033 18059 net.cpp:137] Memory required for data: 1055963136
I0410 00:38:42.022037 18059 layer_factory.hpp:77] Creating layer drop6
I0410 00:38:42.022044 18059 net.cpp:84] Creating Layer drop6
I0410 00:38:42.022047 18059 net.cpp:406] drop6 <- fc6
I0410 00:38:42.022053 18059 net.cpp:367] drop6 -> fc6 (in-place)
I0410 00:38:42.022081 18059 net.cpp:122] Setting up drop6
I0410 00:38:42.022087 18059 net.cpp:129] Top shape: 128 4096 (524288)
I0410 00:38:42.022109 18059 net.cpp:137] Memory required for data: 1058060288
I0410 00:38:42.022112 18059 layer_factory.hpp:77] Creating layer fc7
I0410 00:38:42.022121 18059 net.cpp:84] Creating Layer fc7
I0410 00:38:42.022125 18059 net.cpp:406] fc7 <- fc6
I0410 00:38:42.022131 18059 net.cpp:380] fc7 -> fc7
I0410 00:38:42.179236 18059 net.cpp:122] Setting up fc7
I0410 00:38:42.179257 18059 net.cpp:129] Top shape: 128 4096 (524288)
I0410 00:38:42.179261 18059 net.cpp:137] Memory required for data: 1060157440
I0410 00:38:42.179271 18059 layer_factory.hpp:77] Creating layer relu7
I0410 00:38:42.179281 18059 net.cpp:84] Creating Layer relu7
I0410 00:38:42.179286 18059 net.cpp:406] relu7 <- fc7
I0410 00:38:42.179294 18059 net.cpp:367] relu7 -> fc7 (in-place)
I0410 00:38:42.179941 18059 net.cpp:122] Setting up relu7
I0410 00:38:42.179953 18059 net.cpp:129] Top shape: 128 4096 (524288)
I0410 00:38:42.179957 18059 net.cpp:137] Memory required for data: 1062254592
I0410 00:38:42.179963 18059 layer_factory.hpp:77] Creating layer drop7
I0410 00:38:42.179971 18059 net.cpp:84] Creating Layer drop7
I0410 00:38:42.179975 18059 net.cpp:406] drop7 <- fc7
I0410 00:38:42.179981 18059 net.cpp:367] drop7 -> fc7 (in-place)
I0410 00:38:42.180009 18059 net.cpp:122] Setting up drop7
I0410 00:38:42.180014 18059 net.cpp:129] Top shape: 128 4096 (524288)
I0410 00:38:42.180018 18059 net.cpp:137] Memory required for data: 1064351744
I0410 00:38:42.180022 18059 layer_factory.hpp:77] Creating layer fc7.5
I0410 00:38:42.180029 18059 net.cpp:84] Creating Layer fc7.5
I0410 00:38:42.180033 18059 net.cpp:406] fc7.5 <- fc7
I0410 00:38:42.180038 18059 net.cpp:380] fc7.5 -> fc7.5
I0410 00:38:42.337098 18059 net.cpp:122] Setting up fc7.5
I0410 00:38:42.337117 18059 net.cpp:129] Top shape: 128 4096 (524288)
I0410 00:38:42.337121 18059 net.cpp:137] Memory required for data: 1066448896
I0410 00:38:42.337131 18059 layer_factory.hpp:77] Creating layer relu7.5
I0410 00:38:42.337141 18059 net.cpp:84] Creating Layer relu7.5
I0410 00:38:42.337144 18059 net.cpp:406] relu7.5 <- fc7.5
I0410 00:38:42.337152 18059 net.cpp:367] relu7.5 -> fc7.5 (in-place)
I0410 00:38:42.337805 18059 net.cpp:122] Setting up relu7.5
I0410 00:38:42.337813 18059 net.cpp:129] Top shape: 128 4096 (524288)
I0410 00:38:42.337817 18059 net.cpp:137] Memory required for data: 1068546048
I0410 00:38:42.337821 18059 layer_factory.hpp:77] Creating layer drop7.5
I0410 00:38:42.337828 18059 net.cpp:84] Creating Layer drop7.5
I0410 00:38:42.337832 18059 net.cpp:406] drop7.5 <- fc7.5
I0410 00:38:42.337837 18059 net.cpp:367] drop7.5 -> fc7.5 (in-place)
I0410 00:38:42.337862 18059 net.cpp:122] Setting up drop7.5
I0410 00:38:42.337867 18059 net.cpp:129] Top shape: 128 4096 (524288)
I0410 00:38:42.337869 18059 net.cpp:137] Memory required for data: 1070643200
I0410 00:38:42.337873 18059 layer_factory.hpp:77] Creating layer fc7.6
I0410 00:38:42.337879 18059 net.cpp:84] Creating Layer fc7.6
I0410 00:38:42.337883 18059 net.cpp:406] fc7.6 <- fc7.5
I0410 00:38:42.337890 18059 net.cpp:380] fc7.6 -> fc7.6
I0410 00:38:42.494966 18059 net.cpp:122] Setting up fc7.6
I0410 00:38:42.494987 18059 net.cpp:129] Top shape: 128 4096 (524288)
I0410 00:38:42.494990 18059 net.cpp:137] Memory required for data: 1072740352
I0410 00:38:42.495003 18059 layer_factory.hpp:77] Creating layer relu7.6
I0410 00:38:42.495012 18059 net.cpp:84] Creating Layer relu7.6
I0410 00:38:42.495016 18059 net.cpp:406] relu7.6 <- fc7.6
I0410 00:38:42.495024 18059 net.cpp:367] relu7.6 -> fc7.6 (in-place)
I0410 00:38:42.496397 18059 net.cpp:122] Setting up relu7.6
I0410 00:38:42.496407 18059 net.cpp:129] Top shape: 128 4096 (524288)
I0410 00:38:42.496409 18059 net.cpp:137] Memory required for data: 1074837504
I0410 00:38:42.496413 18059 layer_factory.hpp:77] Creating layer drop7.6
I0410 00:38:42.496420 18059 net.cpp:84] Creating Layer drop7.6
I0410 00:38:42.496423 18059 net.cpp:406] drop7.6 <- fc7.6
I0410 00:38:42.496430 18059 net.cpp:367] drop7.6 -> fc7.6 (in-place)
I0410 00:38:42.496454 18059 net.cpp:122] Setting up drop7.6
I0410 00:38:42.496459 18059 net.cpp:129] Top shape: 128 4096 (524288)
I0410 00:38:42.496481 18059 net.cpp:137] Memory required for data: 1076934656
I0410 00:38:42.496484 18059 layer_factory.hpp:77] Creating layer fc8
I0410 00:38:42.496491 18059 net.cpp:84] Creating Layer fc8
I0410 00:38:42.496495 18059 net.cpp:406] fc8 <- fc7.6
I0410 00:38:42.496501 18059 net.cpp:380] fc8 -> fc8
I0410 00:38:42.504160 18059 net.cpp:122] Setting up fc8
I0410 00:38:42.504173 18059 net.cpp:129] Top shape: 128 196 (25088)
I0410 00:38:42.504175 18059 net.cpp:137] Memory required for data: 1077035008
I0410 00:38:42.504182 18059 layer_factory.hpp:77] Creating layer loss
I0410 00:38:42.504189 18059 net.cpp:84] Creating Layer loss
I0410 00:38:42.504194 18059 net.cpp:406] loss <- fc8
I0410 00:38:42.504197 18059 net.cpp:406] loss <- label
I0410 00:38:42.504204 18059 net.cpp:380] loss -> loss
I0410 00:38:42.504212 18059 layer_factory.hpp:77] Creating layer loss
…
I0410 00:38:42.506912 18059 net.cpp:294] The NetState phase (1) differed from the phase (0) specified by a rule in layer train-data
I0410 00:38:42.507072 18059 net.cpp:51] Initializing net from parameters:
state {
phase: TEST
}
layer {
name: "val-data"
type: "Data"
top: "data"
top: "label"
include {
phase: TEST
}
transform_param {
crop_size: 227
mean_file: "/mnt/bigdisk/DIGITS-MAN-2/digits/jobs/20210407-214532-d396/mean.binaryproto"
}
data_param {
source: "/mnt/bigdisk/DIGITS-MAN-2/digits/jobs/20210407-214532-d396/val_db"
batch_size: 32
backend: LMDB
}
}
layer {
name: "conv1"
type: "Convolution"
bottom: "data"
top: "conv1"
param {
lr_mult: 1
decay_mult: 1
}
param {
lr_mult: 2
decay_mult: 0
}
convolution_param {
num_output: 96
kernel_size: 11
stride: 4
weight_filler {
type: "gaussian"
std: 0.01
}
bias_filler {
type: "constant"
value: 0
}
}
}
layer {
name: "relu1"
type: "ReLU"
bottom: "conv1"
top: "conv1"
}
layer {
name: "norm1"
type: "LRN"
bottom: "conv1"
top: "norm1"
lrn_param {
local_size: 5
alpha: 0.0001
beta: 0.75
}
}
layer {
name: "pool1"
type: "Pooling"
bottom: "norm1"
top: "pool1"
pooling_param {
pool: MAX
kernel_size: 3
stride: 2
}
}
layer {
name: "conv2"
type: "Convolution"
bottom: "pool1"
top: "conv2"
param {
lr_mult: 1
decay_mult: 1
}
param {
lr_mult: 2
decay_mult: 0
}
convolution_param {
num_output: 256
pad: 2
kernel_size: 5
group: 2
weight_filler {
type: "gaussian"
std: 0.01
}
bias_filler {
type: "constant"
value: 0.1
}
}
}
layer {
name: "relu2"
type: "ReLU"
bottom: "conv2"
top: "conv2"
}
layer {
name: "norm2"
type: "LRN"
bottom: "conv2"
top: "norm2"
lrn_param {
local_size: 5
alpha: 0.0001
beta: 0.75
}
}
layer {
name: "pool2"
type: "Pooling"
bottom: "norm2"
top: "pool2"
pooling_param {
pool: MAX
kernel_size: 3
stride: 2
}
}
layer {
name: "conv3"
type: "Convolution"
bottom: "pool2"
top: "conv3"
param {
lr_mult: 1
decay_mult: 1
}
param {
lr_mult: 2
decay_mult: 0
}
convolution_param {
num_output: 384
pad: 1
kernel_size: 3
weight_filler {
type: "gaussian"
std: 0.01
}
bias_filler {
type: "constant"
value: 0
}
}
}
layer {
name: "relu3"
type: "ReLU"
bottom: "conv3"
top: "conv3"
}
layer {
name: "conv4"
type: "Convolution"
bottom: "conv3"
top: "conv4"
param {
lr_mult: 1
decay_mult: 1
}
param {
lr_mult: 2
decay_mult: 0
}
convolution_param {
num_output: 384
pad: 1
kernel_size: 3
group: 2
weight_filler {
type: "gaussian"
std: 0.01
}
bias_filler {
type: "constant"
value: 0.1
}
}
}
layer {
name: "relu4"
type: "ReLU"
bottom: "conv4"
top: "conv4"
}
layer {
name: "conv5"
type: "Convolution"
bottom: "conv4"
top: "conv5"
param {
lr_mult: 1
decay_mult: 1
}
param {
lr_mult: 2
decay_mult: 0
}
convolution_param {
num_output: 256
pad: 1
kernel_size: 3
group: 2
weight_filler {
type: "gaussian"
std: 0.01
}
bias_filler {
type: "constant"
value: 0.1
}
}
}
layer {
name: "relu5"
type: "ReLU"
bottom: "conv5"
top: "conv5"
}
layer {
name: "pool5"
type: "Pooling"
bottom: "conv5"
top: "pool5"
pooling_param {
pool: MAX
kernel_size: 3
stride: 2
}
}
layer {
name: "fc6"
type: "InnerProduct"
bottom: "pool5"
top: "fc6"
param {
lr_mult: 1
decay_mult: 1
}
param {
lr_mult: 2
decay_mult: 0
}
inner_product_param {
num_output: 4096
weight_filler {
type: "gaussian"
std: 0.005
}
bias_filler {
type: "constant"
value: 0.1
}
}
}
layer {
name: "relu6"
type: "ReLU"
bottom: "fc6"
top: "fc6"
}
layer {
name: "drop6"
type: "Dropout"
bottom: "fc6"
top: "fc6"
dropout_param {
dropout_ratio: 0.5
}
}
layer {
name: "fc7"
type: "InnerProduct"
bottom: "fc6"
top: "fc7"
param {
lr_mult: 1
decay_mult: 1
}
param {
lr_mult: 2
decay_mult: 0
}
inner_product_param {
num_output: 4096
weight_filler {
type: "gaussian"
std: 0.005
}
bias_filler {
type: "constant"
value: 0.1
}
}
}
layer {
name: "relu7"
type: "ReLU"
bottom: "fc7"
top: "fc7"
}
layer {
name: "drop7"
type: "Dropout"
bottom: "fc7"
top: "fc7"
dropout_param {
dropout_ratio: 0.5
}
}
layer {
name: "fc7.5"
type: "InnerProduct"
bottom: "fc7"
top: "fc7.5"
param {
lr_mult: 1
decay_mult: 1
}
param {
lr_mult: 2
decay_mult: 0
}
inner_product_param {
num_output: 4096
weight_filler {
type: "gaussian"
std: 0.005
}
bias_filler {
type: "constant"
value: 0.1
}
}
}
layer {
name: "relu7.5"
type: "ReLU"
bottom: "fc7.5"
top: "fc7.5"
}
layer {
name: "drop7.5"
type: "Dropout"
bottom: "fc7.5"
top: "fc7.5"
dropout_param {
dropout_ratio: 0.5
}
}
layer {
name: "fc7.6"
type: "InnerProduct"
bottom: "fc7.5"
top: "fc7.6"
param {
lr_mult: 1
decay_mult: 1
}
param {
lr_mult: 2
decay_mult: 0
}
inner_product_param {
num_output: 4096
weight_filler {
type: "gaussian"
std: 0.005
}
bias_filler {
type: "constant"
value: 0.1
}
}
}
layer {
name: "relu7.6"
type: "ReLU"
bottom: "fc7.6"
top: "fc7.6"
}
layer {
name: "drop7.6"
type: "Dropout"
bottom: "fc7.6"
top: "fc7.6"
dropout_param {
dropout_ratio: 0.5
}
}
layer {
name: "fc8"
type: "InnerProduct"
bottom: "fc7.6"
top: "fc8"
param {
lr_mult: 1
decay_mult: 1
}
param {
lr_mult: 2
decay_mult: 0
}
inner_product_param {
num_output: 196
weight_filler {
type: "gaussian"
std: 0.01
}
bias_filler {
type: "constant"
value: 0
}
}
}
layer {
name: "accuracy"
type: "Accuracy"
bottom: "fc8"
bottom: "label"
top: "accuracy"
include {
phase: TEST
}
}
layer {
name: "loss"
type: "SoftmaxWithLoss"
bottom: "fc8"
bottom: "label"
top: "loss"
}
I0410 00:38:42.507184 18059 layer_factory.hpp:77] Creating layer val-data
I0410 00:38:42.508975 18059 db_lmdb.cpp:35] Opened lmdb /mnt/bigdisk/DIGITS-MAN-2/digits/jobs/20210407-214532-d396/val_db
I0410 00:38:42.509179 18059 net.cpp:84] Creating Layer val-data
I0410 00:38:42.509189 18059 net.cpp:380] val-data -> data
I0410 00:38:42.509198 18059 net.cpp:380] val-data -> label
I0410 00:38:42.509204 18059 data_transformer.cpp:25] Loading mean file from: /mnt/bigdisk/DIGITS-MAN-2/digits/jobs/20210407-214532-d396/mean.binaryproto
I0410 00:38:42.513054 18059 data_layer.cpp:45] output data size: 32,3,227,227
I0410 00:38:42.544879 18059 net.cpp:122] Setting up val-data
I0410 00:38:42.544899 18059 net.cpp:129] Top shape: 32 3 227 227 (4946784)
I0410 00:38:42.544904 18059 net.cpp:129] Top shape: 32 (32)
I0410 00:38:42.544909 18059 net.cpp:137] Memory required for data: 19787264
I0410 00:38:42.544915 18059 layer_factory.hpp:77] Creating layer label_val-data_1_split
I0410 00:38:42.544927 18059 net.cpp:84] Creating Layer label_val-data_1_split
I0410 00:38:42.544931 18059 net.cpp:406] label_val-data_1_split <- label
I0410 00:38:42.544939 18059 net.cpp:380] label_val-data_1_split -> label_val-data_1_split_0
I0410 00:38:42.544950 18059 net.cpp:380] label_val-data_1_split -> label_val-data_1_split_1
I0410 00:38:42.545001 18059 net.cpp:122] Setting up label_val-data_1_split
I0410 00:38:42.545006 18059 net.cpp:129] Top shape: 32 (32)
I0410 00:38:42.545011 18059 net.cpp:129] Top shape: 32 (32)
I0410 00:38:42.545013 18059 net.cpp:137] Memory required for data: 19787520
I0410 00:38:42.545017 18059 layer_factory.hpp:77] Creating layer conv1
I0410 00:38:42.545029 18059 net.cpp:84] Creating Layer conv1
I0410 00:38:42.545033 18059 net.cpp:406] conv1 <- data
I0410 00:38:42.545039 18059 net.cpp:380] conv1 -> conv1
I0410 00:38:42.546798 18059 net.cpp:122] Setting up conv1
I0410 00:38:42.546809 18059 net.cpp:129] Top shape: 32 96 55 55 (9292800)
I0410 00:38:42.546814 18059 net.cpp:137] Memory required for data: 56958720
I0410 00:38:42.546823 18059 layer_factory.hpp:77] Creating layer relu1
I0410 00:38:42.546830 18059 net.cpp:84] Creating Layer relu1
I0410 00:38:42.546835 18059 net.cpp:406] relu1 <- conv1
I0410 00:38:42.546859 18059 net.cpp:367] relu1 -> conv1 (in-place)
I0410 00:38:42.548261 18059 net.cpp:122] Setting up relu1
I0410 00:38:42.548271 18059 net.cpp:129] Top shape: 32 96 55 55 (9292800)
I0410 00:38:42.548275 18059 net.cpp:137] Memory required for data: 94129920
I0410 00:38:42.548280 18059 layer_factory.hpp:77] Creating layer norm1
I0410 00:38:42.548288 18059 net.cpp:84] Creating Layer norm1
I0410 00:38:42.548292 18059 net.cpp:406] norm1 <- conv1
I0410 00:38:42.548297 18059 net.cpp:380] norm1 -> norm1
I0410 00:38:42.548744 18059 net.cpp:122] Setting up norm1
I0410 00:38:42.548754 18059 net.cpp:129] Top shape: 32 96 55 55 (9292800)
I0410 00:38:42.548758 18059 net.cpp:137] Memory required for data: 131301120
I0410 00:38:42.548763 18059 layer_factory.hpp:77] Creating layer pool1
I0410 00:38:42.548769 18059 net.cpp:84] Creating Layer pool1
I0410 00:38:42.548774 18059 net.cpp:406] pool1 <- norm1
I0410 00:38:42.548779 18059 net.cpp:380] pool1 -> pool1
I0410 00:38:42.548807 18059 net.cpp:122] Setting up pool1
I0410 00:38:42.548812 18059 net.cpp:129] Top shape: 32 96 27 27 (2239488)
I0410 00:38:42.548815 18059 net.cpp:137] Memory required for data: 140259072
I0410 00:38:42.548820 18059 layer_factory.hpp:77] Creating layer conv2
I0410 00:38:42.548828 18059 net.cpp:84] Creating Layer conv2
I0410 00:38:42.548831 18059 net.cpp:406] conv2 <- pool1
I0410 00:38:42.548836 18059 net.cpp:380] conv2 -> conv2
I0410 00:38:42.555155 18059 net.cpp:122] Setting up conv2
I0410 00:38:42.555167 18059 net.cpp:129] Top shape: 32 256 27 27 (5971968)
I0410 00:38:42.555171 18059 net.cpp:137] Memory required for data: 164146944
I0410 00:38:42.555181 18059 layer_factory.hpp:77] Creating layer relu2
I0410 00:38:42.555189 18059 net.cpp:84] Creating Layer relu2
I0410 00:38:42.555193 18059 net.cpp:406] relu2 <- conv2
I0410 00:38:42.555199 18059 net.cpp:367] relu2 -> conv2 (in-place)
I0410 00:38:42.555546 18059 net.cpp:122] Setting up relu2
I0410 00:38:42.555553 18059 net.cpp:129] Top shape: 32 256 27 27 (5971968)
I0410 00:38:42.555558 18059 net.cpp:137] Memory required for data: 188034816
I0410 00:38:42.555562 18059 layer_factory.hpp:77] Creating layer norm2
I0410 00:38:42.555570 18059 net.cpp:84] Creating Layer norm2
I0410 00:38:42.555574 18059 net.cpp:406] norm2 <- conv2
I0410 00:38:42.555580 18059 net.cpp:380] norm2 -> norm2
I0410 00:38:42.556221 18059 net.cpp:122] Setting up norm2
I0410 00:38:42.556231 18059 net.cpp:129] Top shape: 32 256 27 27 (5971968)
I0410 00:38:42.556234 18059 net.cpp:137] Memory required for data: 211922688
I0410 00:38:42.556238 18059 layer_factory.hpp:77] Creating layer pool2
I0410 00:38:42.556246 18059 net.cpp:84] Creating Layer pool2
I0410 00:38:42.556250 18059 net.cpp:406] pool2 <- norm2
I0410 00:38:42.556255 18059 net.cpp:380] pool2 -> pool2
I0410 00:38:42.556285 18059 net.cpp:122] Setting up pool2
I0410 00:38:42.556290 18059 net.cpp:129] Top shape: 32 256 13 13 (1384448)
I0410 00:38:42.556293 18059 net.cpp:137] Memory required for data: 217460480
I0410 00:38:42.556298 18059 layer_factory.hpp:77] Creating layer conv3
I0410 00:38:42.556308 18059 net.cpp:84] Creating Layer conv3
I0410 00:38:42.556313 18059 net.cpp:406] conv3 <- pool2
I0410 00:38:42.556318 18059 net.cpp:380] conv3 -> conv3
I0410 00:38:42.567440 18059 net.cpp:122] Setting up conv3
I0410 00:38:42.567456 18059 net.cpp:129] Top shape: 32 384 13 13 (2076672)
I0410 00:38:42.567461 18059 net.cpp:137] Memory required for data: 225767168
I0410 00:38:42.567473 18059 layer_factory.hpp:77] Creating layer relu3
I0410 00:38:42.567481 18059 net.cpp:84] Creating Layer relu3
I0410 00:38:42.567487 18059 net.cpp:406] relu3 <- conv3
I0410 00:38:42.567492 18059 net.cpp:367] relu3 -> conv3 (in-place)
I0410 00:38:42.568193 18059 net.cpp:122] Setting up relu3
I0410 00:38:42.568204 18059 net.cpp:129] Top shape: 32 384 13 13 (2076672)
I0410 00:38:42.568207 18059 net.cpp:137] Memory required for data: 234073856
I0410 00:38:42.568212 18059 layer_factory.hpp:77] Creating layer conv4
I0410 00:38:42.568223 18059 net.cpp:84] Creating Layer conv4
I0410 00:38:42.568228 18059 net.cpp:406] conv4 <- conv3
I0410 00:38:42.568253 18059 net.cpp:380] conv4 -> conv4
I0410 00:38:42.582379 18059 net.cpp:122] Setting up conv4
I0410 00:38:42.582398 18059 net.cpp:129] Top shape: 32 384 13 13 (2076672)
I0410 00:38:42.582402 18059 net.cpp:137] Memory required for data: 242380544
I0410 00:38:42.582412 18059 layer_factory.hpp:77] Creating layer relu4
I0410 00:38:42.582419 18059 net.cpp:84] Creating Layer relu4
I0410 00:38:42.582424 18059 net.cpp:406] relu4 <- conv4
I0410 00:38:42.582429 18059 net.cpp:367] relu4 -> conv4 (in-place)
I0410 00:38:42.583966 18059 net.cpp:122] Setting up relu4
I0410 00:38:42.583976 18059 net.cpp:129] Top shape: 32 384 13 13 (2076672)
I0410 00:38:42.583979 18059 net.cpp:137] Memory required for data: 250687232
I0410 00:38:42.583984 18059 layer_factory.hpp:77] Creating layer conv5
I0410 00:38:42.583998 18059 net.cpp:84] Creating Layer conv5
I0410 00:38:42.584002 18059 net.cpp:406] conv5 <- conv4
I0410 00:38:42.584010 18059 net.cpp:380] conv5 -> conv5
I0410 00:38:42.591679 18059 net.cpp:122] Setting up conv5
I0410 00:38:42.591693 18059 net.cpp:129] Top shape: 32 256 13 13 (1384448)
I0410 00:38:42.591696 18059 net.cpp:137] Memory required for data: 256225024
I0410 00:38:42.591709 18059 layer_factory.hpp:77] Creating layer relu5
I0410 00:38:42.591717 18059 net.cpp:84] Creating Layer relu5
I0410 00:38:42.591720 18059 net.cpp:406] relu5 <- conv5
I0410 00:38:42.591727 18059 net.cpp:367] relu5 -> conv5 (in-place)
I0410 00:38:42.592077 18059 net.cpp:122] Setting up relu5
I0410 00:38:42.592087 18059 net.cpp:129] Top shape: 32 256 13 13 (1384448)
I0410 00:38:42.592090 18059 net.cpp:137] Memory required for data: 261762816
I0410 00:38:42.592094 18059 layer_factory.hpp:77] Creating layer pool5
I0410 00:38:42.592104 18059 net.cpp:84] Creating Layer pool5
I0410 00:38:42.592108 18059 net.cpp:406] pool5 <- conv5
I0410 00:38:42.592113 18059 net.cpp:380] pool5 -> pool5
I0410 00:38:42.592150 18059 net.cpp:122] Setting up pool5
I0410 00:38:42.592156 18059 net.cpp:129] Top shape: 32 256 6 6 (294912)
I0410 00:38:42.592159 18059 net.cpp:137] Memory required for data: 262942464
I0410 00:38:42.592162 18059 layer_factory.hpp:77] Creating layer fc6
I0410 00:38:42.592170 18059 net.cpp:84] Creating Layer fc6
I0410 00:38:42.592175 18059 net.cpp:406] fc6 <- pool5
I0410 00:38:42.592180 18059 net.cpp:380] fc6 -> fc6
I0410 00:38:42.945850 18059 net.cpp:122] Setting up fc6
I0410 00:38:42.945871 18059 net.cpp:129] Top shape: 32 4096 (131072)
I0410 00:38:42.945875 18059 net.cpp:137] Memory required for data: 263466752
I0410 00:38:42.945884 18059 layer_factory.hpp:77] Creating layer relu6
I0410 00:38:42.945894 18059 net.cpp:84] Creating Layer relu6
I0410 00:38:42.945899 18059 net.cpp:406] relu6 <- fc6
I0410 00:38:42.945905 18059 net.cpp:367] relu6 -> fc6 (in-place)
I0410 00:38:42.949446 18059 net.cpp:122] Setting up relu6
I0410 00:38:42.949457 18059 net.cpp:129] Top shape: 32 4096 (131072)
I0410 00:38:42.949460 18059 net.cpp:137] Memory required for data: 263991040
I0410 00:38:42.949465 18059 layer_factory.hpp:77] Creating layer drop6
I0410 00:38:42.949471 18059 net.cpp:84] Creating Layer drop6
I0410 00:38:42.949476 18059 net.cpp:406] drop6 <- fc6
I0410 00:38:42.949481 18059 net.cpp:367] drop6 -> fc6 (in-place)
I0410 00:38:42.949506 18059 net.cpp:122] Setting up drop6
I0410 00:38:42.949512 18059 net.cpp:129] Top shape: 32 4096 (131072)
I0410 00:38:42.949515 18059 net.cpp:137] Memory required for data: 264515328
I0410 00:38:42.949518 18059 layer_factory.hpp:77] Creating layer fc7
I0410 00:38:42.949527 18059 net.cpp:84] Creating Layer fc7
I0410 00:38:42.949529 18059 net.cpp:406] fc7 <- fc6
I0410 00:38:42.949535 18059 net.cpp:380] fc7 -> fc7
I0410 00:38:43.106271 18059 net.cpp:122] Setting up fc7
I0410 00:38:43.106292 18059 net.cpp:129] Top shape: 32 4096 (131072)
I0410 00:38:43.106297 18059 net.cpp:137] Memory required for data: 265039616
I0410 00:38:43.106305 18059 layer_factory.hpp:77] Creating layer relu7
I0410 00:38:43.106314 18059 net.cpp:84] Creating Layer relu7
I0410 00:38:43.106318 18059 net.cpp:406] relu7 <- fc7
I0410 00:38:43.106343 18059 net.cpp:367] relu7 -> fc7 (in-place)
I0410 00:38:43.106988 18059 net.cpp:122] Setting up relu7
I0410 00:38:43.106998 18059 net.cpp:129] Top shape: 32 4096 (131072)
I0410 00:38:43.107002 18059 net.cpp:137] Memory required for data: 265563904
I0410 00:38:43.107007 18059 layer_factory.hpp:77] Creating layer drop7
I0410 00:38:43.107012 18059 net.cpp:84] Creating Layer drop7
I0410 00:38:43.107017 18059 net.cpp:406] drop7 <- fc7
I0410 00:38:43.107023 18059 net.cpp:367] drop7 -> fc7 (in-place)
I0410 00:38:43.107048 18059 net.cpp:122] Setting up drop7
I0410 00:38:43.107053 18059 net.cpp:129] Top shape: 32 4096 (131072)
I0410 00:38:43.107055 18059 net.cpp:137] Memory required for data: 266088192
I0410 00:38:43.107059 18059 layer_factory.hpp:77] Creating layer fc7.5
I0410 00:38:43.107066 18059 net.cpp:84] Creating Layer fc7.5
I0410 00:38:43.107070 18059 net.cpp:406] fc7.5 <- fc7
I0410 00:38:43.107075 18059 net.cpp:380] fc7.5 -> fc7.5
I0410 00:38:43.264123 18059 net.cpp:122] Setting up fc7.5
I0410 00:38:43.264145 18059 net.cpp:129] Top shape: 32 4096 (131072)
I0410 00:38:43.264149 18059 net.cpp:137] Memory required for data: 266612480
I0410 00:38:43.264158 18059 layer_factory.hpp:77] Creating layer relu7.5
I0410 00:38:43.264168 18059 net.cpp:84] Creating Layer relu7.5
I0410 00:38:43.264171 18059 net.cpp:406] relu7.5 <- fc7.5
I0410 00:38:43.264178 18059 net.cpp:367] relu7.5 -> fc7.5 (in-place)
I0410 00:38:43.265874 18059 net.cpp:122] Setting up relu7.5
I0410 00:38:43.265884 18059 net.cpp:129] Top shape: 32 4096 (131072)
I0410 00:38:43.265887 18059 net.cpp:137] Memory required for data: 267136768
I0410 00:38:43.265892 18059 layer_factory.hpp:77] Creating layer drop7.5
I0410 00:38:43.265899 18059 net.cpp:84] Creating Layer drop7.5
I0410 00:38:43.265903 18059 net.cpp:406] drop7.5 <- fc7.5
I0410 00:38:43.265908 18059 net.cpp:367] drop7.5 -> fc7.5 (in-place)
I0410 00:38:43.265933 18059 net.cpp:122] Setting up drop7.5
I0410 00:38:43.265938 18059 net.cpp:129] Top shape: 32 4096 (131072)
I0410 00:38:43.265941 18059 net.cpp:137] Memory required for data: 267661056
I0410 00:38:43.265944 18059 layer_factory.hpp:77] Creating layer fc7.6
I0410 00:38:43.265967 18059 net.cpp:84] Creating Layer fc7.6
I0410 00:38:43.265971 18059 net.cpp:406] fc7.6 <- fc7.5
I0410 00:38:43.265976 18059 net.cpp:380] fc7.6 -> fc7.6
I0410 00:38:43.422699 18059 net.cpp:122] Setting up fc7.6
I0410 00:38:43.422720 18059 net.cpp:129] Top shape: 32 4096 (131072)
I0410 00:38:43.422724 18059 net.cpp:137] Memory required for data: 268185344
I0410 00:38:43.422739 18059 layer_factory.hpp:77] Creating layer relu7.6
I0410 00:38:43.422747 18059 net.cpp:84] Creating Layer relu7.6
I0410 00:38:43.422752 18059 net.cpp:406] relu7.6 <- fc7.6
I0410 00:38:43.422758 18059 net.cpp:367] relu7.6 -> fc7.6 (in-place)
I0410 00:38:43.423166 18059 net.cpp:122] Setting up relu7.6
I0410 00:38:43.423173 18059 net.cpp:129] Top shape: 32 4096 (131072)
I0410 00:38:43.423177 18059 net.cpp:137] Memory required for data: 268709632
I0410 00:38:43.423180 18059 layer_factory.hpp:77] Creating layer drop7.6
I0410 00:38:43.423187 18059 net.cpp:84] Creating Layer drop7.6
I0410 00:38:43.423192 18059 net.cpp:406] drop7.6 <- fc7.6
I0410 00:38:43.423197 18059 net.cpp:367] drop7.6 -> fc7.6 (in-place)
I0410 00:38:43.423220 18059 net.cpp:122] Setting up drop7.6
I0410 00:38:43.423225 18059 net.cpp:129] Top shape: 32 4096 (131072)
I0410 00:38:43.423228 18059 net.cpp:137] Memory required for data: 269233920
I0410 00:38:43.423233 18059 layer_factory.hpp:77] Creating layer fc8
I0410 00:38:43.423241 18059 net.cpp:84] Creating Layer fc8
I0410 00:38:43.423244 18059 net.cpp:406] fc8 <- fc7.6
I0410 00:38:43.423250 18059 net.cpp:380] fc8 -> fc8
I0410 00:38:43.430936 18059 net.cpp:122] Setting up fc8
I0410 00:38:43.430945 18059 net.cpp:129] Top shape: 32 196 (6272)
I0410 00:38:43.430949 18059 net.cpp:137] Memory required for data: 269259008
I0410 00:38:43.430956 18059 layer_factory.hpp:77] Creating layer fc8_fc8_0_split
I0410 00:38:43.430963 18059 net.cpp:84] Creating Layer fc8_fc8_0_split
I0410 00:38:43.430966 18059 net.cpp:406] fc8_fc8_0_split <- fc8
I0410 00:38:43.430991 18059 net.cpp:380] fc8_fc8_0_split -> fc8_fc8_0_split_0
I0410 00:38:43.430999 18059 net.cpp:380] fc8_fc8_0_split -> fc8_fc8_0_split_1
I0410 00:38:43.431031 18059 net.cpp:122] Setting up fc8_fc8_0_split
I0410 00:38:43.431036 18059 net.cpp:129] Top shape: 32 196 (6272)
I0410 00:38:43.431041 18059 net.cpp:129] Top shape: 32 196 (6272)
I0410 00:38:43.431043 18059 net.cpp:137] Memory required for data: 269309184
I0410 00:38:43.431047 18059 layer_factory.hpp:77] Creating layer accuracy
I0410 00:38:43.431054 18059 net.cpp:84] Creating Layer accuracy
I0410 00:38:43.431058 18059 net.cpp:406] accuracy <- fc8_fc8_0_split_0
I0410 00:38:43.431062 18059 net.cpp:406] accuracy <- label_val-data_1_split_0
I0410 00:38:43.431067 18059 net.cpp:380] accuracy -> accuracy
…
