…
I0428 21:19:31.067154 25678 net.cpp:294] The NetState phase (0) differed from the phase (1) specified by a rule in layer accuracy
I0428 21:19:31.067292 25678 net.cpp:51] Initializing net from parameters:
state {
phase: TRAIN
level: 0
stage: ""
}
layer {
name: "train-data"
type: "Data"
top: "data"
top: "label"
include {
phase: TRAIN
}
transform_param {
mirror: true
crop_size: 227
mean_file: "/mnt/bigdisk/DIGITS-AMB-2/digits/jobs/20210419-113214-d311/mean.binaryproto"
}
data_param {
source: "/mnt/bigdisk/DIGITS-AMB-2/digits/jobs/20210419-113214-d311/train_db"
batch_size: 128
backend: LMDB
}
}
layer {
name: "conv1"
type: "Convolution"
bottom: "data"
top: "conv1"
param {
lr_mult: 1
decay_mult: 1
}
param {
lr_mult: 2
decay_mult: 0
}
convolution_param {
num_output: 96
kernel_size: 11
stride: 4
weight_filler {
type: "gaussian"
std: 0.01
}
bias_filler {
type: "constant"
value: 0
}
}
}
layer {
name: "relu1"
type: "ReLU"
bottom: "conv1"
top: "conv1"
}
layer {
name: "norm1"
type: "LRN"
bottom: "conv1"
top: "norm1"
lrn_param {
local_size: 5
alpha: 0.0001
beta: 0.75
}
}
layer {
name: "pool1"
type: "Pooling"
bottom: "norm1"
top: "pool1"
pooling_param {
pool: MAX
kernel_size: 3
stride: 2
}
}
layer {
name: "conv2"
type: "Convolution"
bottom: "pool1"
top: "conv2"
param {
lr_mult: 1
decay_mult: 1
}
param {
lr_mult: 2
decay_mult: 0
}
convolution_param {
num_output: 256
pad: 2
kernel_size: 5
group: 2
weight_filler {
type: "gaussian"
std: 0.01
}
bias_filler {
type: "constant"
value: 0.1
}
}
}
layer {
name: "relu2"
type: "ReLU"
bottom: "conv2"
top: "conv2"
}
layer {
name: "norm2"
type: "LRN"
bottom: "conv2"
top: "norm2"
lrn_param {
local_size: 5
alpha: 0.0001
beta: 0.75
}
}
layer {
name: "pool2"
type: "Pooling"
bottom: "norm2"
top: "pool2"
pooling_param {
pool: MAX
kernel_size: 3
stride: 2
}
}
layer {
name: "conv3"
type: "Convolution"
bottom: "pool2"
top: "conv3"
param {
lr_mult: 1
decay_mult: 1
}
param {
lr_mult: 2
decay_mult: 0
}
convolution_param {
num_output: 384
pad: 1
kernel_size: 3
weight_filler {
type: "gaussian"
std: 0.01
}
bias_filler {
type: "constant"
value: 0
}
}
}
layer {
name: "relu3"
type: "ReLU"
bottom: "conv3"
top: "conv3"
}
layer {
name: "conv4"
type: "Convolution"
bottom: "conv3"
top: "conv4"
param {
lr_mult: 1
decay_mult: 1
}
param {
lr_mult: 2
decay_mult: 0
}
convolution_param {
num_output: 384
pad: 1
kernel_size: 3
group: 2
weight_filler {
type: "gaussian"
std: 0.01
}
bias_filler {
type: "constant"
value: 0.1
}
}
}
layer {
name: "relu4"
type: "ReLU"
bottom: "conv4"
top: "conv4"
}
layer {
name: "conv5"
type: "Convolution"
bottom: "conv4"
top: "conv5"
param {
lr_mult: 1
decay_mult: 1
}
param {
lr_mult: 2
decay_mult: 0
}
convolution_param {
num_output: 256
pad: 1
kernel_size: 3
group: 2
weight_filler {
type: "gaussian"
std: 0.01
}
bias_filler {
type: "constant"
value: 0.1
}
}
}
layer {
name: "relu5"
type: "ReLU"
bottom: "conv5"
top: "conv5"
}
layer {
name: "pool5"
type: "Pooling"
bottom: "conv5"
top: "pool5"
pooling_param {
pool: MAX
kernel_size: 3
stride: 2
}
}
layer {
name: "fc6"
type: "InnerProduct"
bottom: "pool5"
top: "fc6"
param {
lr_mult: 1
decay_mult: 1
}
param {
lr_mult: 2
decay_mult: 0
}
inner_product_param {
num_output: 4096
weight_filler {
type: "gaussian"
std: 0.005
}
bias_filler {
type: "constant"
value: 0.1
}
}
}
layer {
name: "relu6"
type: "ReLU"
bottom: "fc6"
top: "fc6"
}
layer {
name: "drop6"
type: "Dropout"
bottom: "fc6"
top: "fc6"
dropout_param {
dropout_ratio: 0.5
}
}
layer {
name: "fc7"
type: "InnerProduct"
bottom: "fc6"
top: "fc7"
param {
lr_mult: 1
decay_mult: 1
}
param {
lr_mult: 2
decay_mult: 0
}
inner_product_param {
num_output: 4096
weight_filler {
type: "gaussian"
std: 0.005
}
bias_filler {
type: "constant"
value: 0.1
}
}
}
layer {
name: "relu7"
type: "ReLU"
bottom: "fc7"
top: "fc7"
}
layer {
name: "drop7"
type: "Dropout"
bottom: "fc7"
top: "fc7"
dropout_param {
dropout_ratio: 0.5
}
}
layer {
name: "fc8"
type: "InnerProduct"
bottom: "fc7"
top: "fc8"
param {
lr_mult: 1
decay_mult: 1
}
param {
lr_mult: 2
decay_mult: 0
}
inner_product_param {
num_output: 196
weight_filler {
type: "gaussian"
std: 0.01
}
bias_filler {
type: "constant"
value: 0
}
}
}
layer {
name: "loss"
type: "SoftmaxWithLoss"
bottom: "fc8"
bottom: "label"
top: "loss"
}
I0428 21:19:31.067379 25678 layer_factory.hpp:77] Creating layer train-data
I0428 21:19:31.101217 25678 db_lmdb.cpp:35] Opened lmdb /mnt/bigdisk/DIGITS-AMB-2/digits/jobs/20210419-113214-d311/train_db
I0428 21:19:31.126984 25678 net.cpp:84] Creating Layer train-data
I0428 21:19:31.127030 25678 net.cpp:380] train-data -> data
I0428 21:19:31.127068 25678 net.cpp:380] train-data -> label
I0428 21:19:31.127094 25678 data_transformer.cpp:25] Loading mean file from: /mnt/bigdisk/DIGITS-AMB-2/digits/jobs/20210419-113214-d311/mean.binaryproto
I0428 21:19:31.136636 25678 data_layer.cpp:45] output data size: 128,3,227,227
I0428 21:19:31.273425 25678 net.cpp:122] Setting up train-data
I0428 21:19:31.273447 25678 net.cpp:129] Top shape: 128 3 227 227 (19787136)
I0428 21:19:31.273452 25678 net.cpp:129] Top shape: 128 (128)
I0428 21:19:31.273453 25678 net.cpp:137] Memory required for data: 79149056
I0428 21:19:31.273463 25678 layer_factory.hpp:77] Creating layer conv1
I0428 21:19:31.273488 25678 net.cpp:84] Creating Layer conv1
I0428 21:19:31.273494 25678 net.cpp:406] conv1 <- data
I0428 21:19:31.273504 25678 net.cpp:380] conv1 -> conv1
I0428 21:19:32.169718 25678 net.cpp:122] Setting up conv1
I0428 21:19:32.169741 25678 net.cpp:129] Top shape: 128 96 55 55 (37171200)
I0428 21:19:32.169744 25678 net.cpp:137] Memory required for data: 227833856
I0428 21:19:32.169764 25678 layer_factory.hpp:77] Creating layer relu1
I0428 21:19:32.169773 25678 net.cpp:84] Creating Layer relu1
I0428 21:19:32.169777 25678 net.cpp:406] relu1 <- conv1
I0428 21:19:32.169782 25678 net.cpp:367] relu1 -> conv1 (in-place)
I0428 21:19:32.170110 25678 net.cpp:122] Setting up relu1
I0428 21:19:32.170123 25678 net.cpp:129] Top shape: 128 96 55 55 (37171200)
I0428 21:19:32.170126 25678 net.cpp:137] Memory required for data: 376518656
I0428 21:19:32.170130 25678 layer_factory.hpp:77] Creating layer norm1
I0428 21:19:32.170138 25678 net.cpp:84] Creating Layer norm1
I0428 21:19:32.170161 25678 net.cpp:406] norm1 <- conv1
I0428 21:19:32.170167 25678 net.cpp:380] norm1 -> norm1
I0428 21:19:32.170691 25678 net.cpp:122] Setting up norm1
I0428 21:19:32.170701 25678 net.cpp:129] Top shape: 128 96 55 55 (37171200)
I0428 21:19:32.170704 25678 net.cpp:137] Memory required for data: 525203456
I0428 21:19:32.170708 25678 layer_factory.hpp:77] Creating layer pool1
I0428 21:19:32.170715 25678 net.cpp:84] Creating Layer pool1
I0428 21:19:32.170718 25678 net.cpp:406] pool1 <- norm1
I0428 21:19:32.170722 25678 net.cpp:380] pool1 -> pool1
I0428 21:19:32.170753 25678 net.cpp:122] Setting up pool1
I0428 21:19:32.170758 25678 net.cpp:129] Top shape: 128 96 27 27 (8957952)
I0428 21:19:32.170761 25678 net.cpp:137] Memory required for data: 561035264
I0428 21:19:32.170764 25678 layer_factory.hpp:77] Creating layer conv2
I0428 21:19:32.170773 25678 net.cpp:84] Creating Layer conv2
I0428 21:19:32.170776 25678 net.cpp:406] conv2 <- pool1
I0428 21:19:32.170780 25678 net.cpp:380] conv2 -> conv2
I0428 21:19:32.178409 25678 net.cpp:122] Setting up conv2
I0428 21:19:32.178427 25678 net.cpp:129] Top shape: 128 256 27 27 (23887872)
I0428 21:19:32.178431 25678 net.cpp:137] Memory required for data: 656586752
I0428 21:19:32.178439 25678 layer_factory.hpp:77] Creating layer relu2
I0428 21:19:32.178447 25678 net.cpp:84] Creating Layer relu2
I0428 21:19:32.178450 25678 net.cpp:406] relu2 <- conv2
I0428 21:19:32.178455 25678 net.cpp:367] relu2 -> conv2 (in-place)
I0428 21:19:32.178954 25678 net.cpp:122] Setting up relu2
I0428 21:19:32.178964 25678 net.cpp:129] Top shape: 128 256 27 27 (23887872)
I0428 21:19:32.178967 25678 net.cpp:137] Memory required for data: 752138240
I0428 21:19:32.178970 25678 layer_factory.hpp:77] Creating layer norm2
I0428 21:19:32.178977 25678 net.cpp:84] Creating Layer norm2
I0428 21:19:32.178979 25678 net.cpp:406] norm2 <- conv2
I0428 21:19:32.178984 25678 net.cpp:380] norm2 -> norm2
I0428 21:19:32.179311 25678 net.cpp:122] Setting up norm2
I0428 21:19:32.179320 25678 net.cpp:129] Top shape: 128 256 27 27 (23887872)
I0428 21:19:32.179323 25678 net.cpp:137] Memory required for data: 847689728
I0428 21:19:32.179327 25678 layer_factory.hpp:77] Creating layer pool2
I0428 21:19:32.179332 25678 net.cpp:84] Creating Layer pool2
I0428 21:19:32.179335 25678 net.cpp:406] pool2 <- norm2
I0428 21:19:32.179340 25678 net.cpp:380] pool2 -> pool2
I0428 21:19:32.179364 25678 net.cpp:122] Setting up pool2
I0428 21:19:32.179369 25678 net.cpp:129] Top shape: 128 256 13 13 (5537792)
I0428 21:19:32.179371 25678 net.cpp:137] Memory required for data: 869840896
I0428 21:19:32.179374 25678 layer_factory.hpp:77] Creating layer conv3
I0428 21:19:32.179383 25678 net.cpp:84] Creating Layer conv3
I0428 21:19:32.179385 25678 net.cpp:406] conv3 <- pool2
I0428 21:19:32.179389 25678 net.cpp:380] conv3 -> conv3
I0428 21:19:32.190026 25678 net.cpp:122] Setting up conv3
I0428 21:19:32.190042 25678 net.cpp:129] Top shape: 128 384 13 13 (8306688)
I0428 21:19:32.190045 25678 net.cpp:137] Memory required for data: 903067648
I0428 21:19:32.190057 25678 layer_factory.hpp:77] Creating layer relu3
I0428 21:19:32.190064 25678 net.cpp:84] Creating Layer relu3
I0428 21:19:32.190068 25678 net.cpp:406] relu3 <- conv3
I0428 21:19:32.190075 25678 net.cpp:367] relu3 -> conv3 (in-place)
I0428 21:19:32.190678 25678 net.cpp:122] Setting up relu3
I0428 21:19:32.190688 25678 net.cpp:129] Top shape: 128 384 13 13 (8306688)
I0428 21:19:32.190691 25678 net.cpp:137] Memory required for data: 936294400
I0428 21:19:32.190694 25678 layer_factory.hpp:77] Creating layer conv4
I0428 21:19:32.190704 25678 net.cpp:84] Creating Layer conv4
I0428 21:19:32.190708 25678 net.cpp:406] conv4 <- conv3
I0428 21:19:32.190714 25678 net.cpp:380] conv4 -> conv4
I0428 21:19:32.202229 25678 net.cpp:122] Setting up conv4
I0428 21:19:32.202247 25678 net.cpp:129] Top shape: 128 384 13 13 (8306688)
I0428 21:19:32.202250 25678 net.cpp:137] Memory required for data: 969521152
I0428 21:19:32.202260 25678 layer_factory.hpp:77] Creating layer relu4
I0428 21:19:32.202268 25678 net.cpp:84] Creating Layer relu4
I0428 21:19:32.202289 25678 net.cpp:406] relu4 <- conv4
I0428 21:19:32.202297 25678 net.cpp:367] relu4 -> conv4 (in-place)
I0428 21:19:32.202857 25678 net.cpp:122] Setting up relu4
I0428 21:19:32.202865 25678 net.cpp:129] Top shape: 128 384 13 13 (8306688)
I0428 21:19:32.202868 25678 net.cpp:137] Memory required for data: 1002747904
I0428 21:19:32.202872 25678 layer_factory.hpp:77] Creating layer conv5
I0428 21:19:32.202883 25678 net.cpp:84] Creating Layer conv5
I0428 21:19:32.202885 25678 net.cpp:406] conv5 <- conv4
I0428 21:19:32.202893 25678 net.cpp:380] conv5 -> conv5
I0428 21:19:32.212374 25678 net.cpp:122] Setting up conv5
I0428 21:19:32.212393 25678 net.cpp:129] Top shape: 128 256 13 13 (5537792)
I0428 21:19:32.212396 25678 net.cpp:137] Memory required for data: 1024899072
I0428 21:19:32.212409 25678 layer_factory.hpp:77] Creating layer relu5
I0428 21:19:32.212417 25678 net.cpp:84] Creating Layer relu5
I0428 21:19:32.212421 25678 net.cpp:406] relu5 <- conv5
I0428 21:19:32.212430 25678 net.cpp:367] relu5 -> conv5 (in-place)
I0428 21:19:32.212977 25678 net.cpp:122] Setting up relu5
I0428 21:19:32.212990 25678 net.cpp:129] Top shape: 128 256 13 13 (5537792)
I0428 21:19:32.212992 25678 net.cpp:137] Memory required for data: 1047050240
I0428 21:19:32.212996 25678 layer_factory.hpp:77] Creating layer pool5
I0428 21:19:32.213002 25678 net.cpp:84] Creating Layer pool5
I0428 21:19:32.213006 25678 net.cpp:406] pool5 <- conv5
I0428 21:19:32.213011 25678 net.cpp:380] pool5 -> pool5
I0428 21:19:32.213047 25678 net.cpp:122] Setting up pool5
I0428 21:19:32.213052 25678 net.cpp:129] Top shape: 128 256 6 6 (1179648)
I0428 21:19:32.213055 25678 net.cpp:137] Memory required for data: 1051768832
I0428 21:19:32.213057 25678 layer_factory.hpp:77] Creating layer fc6
I0428 21:19:32.213068 25678 net.cpp:84] Creating Layer fc6
I0428 21:19:32.213070 25678 net.cpp:406] fc6 <- pool5
I0428 21:19:32.213075 25678 net.cpp:380] fc6 -> fc6
I0428 21:19:32.572074 25678 net.cpp:122] Setting up fc6
I0428 21:19:32.572093 25678 net.cpp:129] Top shape: 128 4096 (524288)
I0428 21:19:32.572098 25678 net.cpp:137] Memory required for data: 1053865984
I0428 21:19:32.572105 25678 layer_factory.hpp:77] Creating layer relu6
I0428 21:19:32.572113 25678 net.cpp:84] Creating Layer relu6
I0428 21:19:32.572118 25678 net.cpp:406] relu6 <- fc6
I0428 21:19:32.572124 25678 net.cpp:367] relu6 -> fc6 (in-place)
I0428 21:19:32.572878 25678 net.cpp:122] Setting up relu6
I0428 21:19:32.572890 25678 net.cpp:129] Top shape: 128 4096 (524288)
I0428 21:19:32.572892 25678 net.cpp:137] Memory required for data: 1055963136
I0428 21:19:32.572896 25678 layer_factory.hpp:77] Creating layer drop6
I0428 21:19:32.572902 25678 net.cpp:84] Creating Layer drop6
I0428 21:19:32.572906 25678 net.cpp:406] drop6 <- fc6
I0428 21:19:32.572909 25678 net.cpp:367] drop6 -> fc6 (in-place)
I0428 21:19:32.572938 25678 net.cpp:122] Setting up drop6
I0428 21:19:32.572943 25678 net.cpp:129] Top shape: 128 4096 (524288)
I0428 21:19:32.572945 25678 net.cpp:137] Memory required for data: 1058060288
I0428 21:19:32.572948 25678 layer_factory.hpp:77] Creating layer fc7
I0428 21:19:32.572955 25678 net.cpp:84] Creating Layer fc7
I0428 21:19:32.572958 25678 net.cpp:406] fc7 <- fc6
I0428 21:19:32.572962 25678 net.cpp:380] fc7 -> fc7
I0428 21:19:32.732419 25678 net.cpp:122] Setting up fc7
I0428 21:19:32.732440 25678 net.cpp:129] Top shape: 128 4096 (524288)
I0428 21:19:32.732443 25678 net.cpp:137] Memory required for data: 1060157440
I0428 21:19:32.732452 25678 layer_factory.hpp:77] Creating layer relu7
I0428 21:19:32.732460 25678 net.cpp:84] Creating Layer relu7
I0428 21:19:32.732462 25678 net.cpp:406] relu7 <- fc7
I0428 21:19:32.732470 25678 net.cpp:367] relu7 -> fc7 (in-place)
I0428 21:19:32.732975 25678 net.cpp:122] Setting up relu7
I0428 21:19:32.732990 25678 net.cpp:129] Top shape: 128 4096 (524288)
I0428 21:19:32.732993 25678 net.cpp:137] Memory required for data: 1062254592
I0428 21:19:32.732996 25678 layer_factory.hpp:77] Creating layer drop7
I0428 21:19:32.733001 25678 net.cpp:84] Creating Layer drop7
I0428 21:19:32.733027 25678 net.cpp:406] drop7 <- fc7
I0428 21:19:32.733034 25678 net.cpp:367] drop7 -> fc7 (in-place)
I0428 21:19:32.733058 25678 net.cpp:122] Setting up drop7
I0428 21:19:32.733063 25678 net.cpp:129] Top shape: 128 4096 (524288)
I0428 21:19:32.733067 25678 net.cpp:137] Memory required for data: 1064351744
I0428 21:19:32.733068 25678 layer_factory.hpp:77] Creating layer fc8
I0428 21:19:32.733076 25678 net.cpp:84] Creating Layer fc8
I0428 21:19:32.733079 25678 net.cpp:406] fc8 <- fc7
I0428 21:19:32.733084 25678 net.cpp:380] fc8 -> fc8
I0428 21:19:32.741024 25678 net.cpp:122] Setting up fc8
I0428 21:19:32.741042 25678 net.cpp:129] Top shape: 128 196 (25088)
I0428 21:19:32.741045 25678 net.cpp:137] Memory required for data: 1064452096
I0428 21:19:32.741055 25678 layer_factory.hpp:77] Creating layer loss
I0428 21:19:32.741063 25678 net.cpp:84] Creating Layer loss
I0428 21:19:32.741066 25678 net.cpp:406] loss <- fc8
I0428 21:19:32.741071 25678 net.cpp:406] loss <- label
I0428 21:19:32.741080 25678 net.cpp:380] loss -> loss
I0428 21:19:32.741089 25678 layer_factory.hpp:77] Creating layer loss
…
I0428 21:19:32.742614 25678 net.cpp:294] The NetState phase (1) differed from the phase (0) specified by a rule in layer train-data
I0428 21:19:32.742750 25678 net.cpp:51] Initializing net from parameters:
state {
phase: TEST
}
layer {
name: "val-data"
type: "Data"
top: "data"
top: "label"
include {
phase: TEST
}
transform_param {
crop_size: 227
mean_file: "/mnt/bigdisk/DIGITS-AMB-2/digits/jobs/20210419-113214-d311/mean.binaryproto"
}
data_param {
source: "/mnt/bigdisk/DIGITS-AMB-2/digits/jobs/20210419-113214-d311/val_db"
batch_size: 32
backend: LMDB
}
}
layer {
name: "conv1"
type: "Convolution"
bottom: "data"
top: "conv1"
param {
lr_mult: 1
decay_mult: 1
}
param {
lr_mult: 2
decay_mult: 0
}
convolution_param {
num_output: 96
kernel_size: 11
stride: 4
weight_filler {
type: "gaussian"
std: 0.01
}
bias_filler {
type: "constant"
value: 0
}
}
}
layer {
name: "relu1"
type: "ReLU"
bottom: "conv1"
top: "conv1"
}
layer {
name: "norm1"
type: "LRN"
bottom: "conv1"
top: "norm1"
lrn_param {
local_size: 5
alpha: 0.0001
beta: 0.75
}
}
layer {
name: "pool1"
type: "Pooling"
bottom: "norm1"
top: "pool1"
pooling_param {
pool: MAX
kernel_size: 3
stride: 2
}
}
layer {
name: "conv2"
type: "Convolution"
bottom: "pool1"
top: "conv2"
param {
lr_mult: 1
decay_mult: 1
}
param {
lr_mult: 2
decay_mult: 0
}
convolution_param {
num_output: 256
pad: 2
kernel_size: 5
group: 2
weight_filler {
type: "gaussian"
std: 0.01
}
bias_filler {
type: "constant"
value: 0.1
}
}
}
layer {
name: "relu2"
type: "ReLU"
bottom: "conv2"
top: "conv2"
}
layer {
name: "norm2"
type: "LRN"
bottom: "conv2"
top: "norm2"
lrn_param {
local_size: 5
alpha: 0.0001
beta: 0.75
}
}
layer {
name: "pool2"
type: "Pooling"
bottom: "norm2"
top: "pool2"
pooling_param {
pool: MAX
kernel_size: 3
stride: 2
}
}
layer {
name: "conv3"
type: "Convolution"
bottom: "pool2"
top: "conv3"
param {
lr_mult: 1
decay_mult: 1
}
param {
lr_mult: 2
decay_mult: 0
}
convolution_param {
num_output: 384
pad: 1
kernel_size: 3
weight_filler {
type: "gaussian"
std: 0.01
}
bias_filler {
type: "constant"
value: 0
}
}
}
layer {
name: "relu3"
type: "ReLU"
bottom: "conv3"
top: "conv3"
}
layer {
name: "conv4"
type: "Convolution"
bottom: "conv3"
top: "conv4"
param {
lr_mult: 1
decay_mult: 1
}
param {
lr_mult: 2
decay_mult: 0
}
convolution_param {
num_output: 384
pad: 1
kernel_size: 3
group: 2
weight_filler {
type: "gaussian"
std: 0.01
}
bias_filler {
type: "constant"
value: 0.1
}
}
}
layer {
name: "relu4"
type: "ReLU"
bottom: "conv4"
top: "conv4"
}
layer {
name: "conv5"
type: "Convolution"
bottom: "conv4"
top: "conv5"
param {
lr_mult: 1
decay_mult: 1
}
param {
lr_mult: 2
decay_mult: 0
}
convolution_param {
num_output: 256
pad: 1
kernel_size: 3
group: 2
weight_filler {
type: "gaussian"
std: 0.01
}
bias_filler {
type: "constant"
value: 0.1
}
}
}
layer {
name: "relu5"
type: "ReLU"
bottom: "conv5"
top: "conv5"
}
layer {
name: "pool5"
type: "Pooling"
bottom: "conv5"
top: "pool5"
pooling_param {
pool: MAX
kernel_size: 3
stride: 2
}
}
layer {
name: "fc6"
type: "InnerProduct"
bottom: "pool5"
top: "fc6"
param {
lr_mult: 1
decay_mult: 1
}
param {
lr_mult: 2
decay_mult: 0
}
inner_product_param {
num_output: 4096
weight_filler {
type: "gaussian"
std: 0.005
}
bias_filler {
type: "constant"
value: 0.1
}
}
}
layer {
name: "relu6"
type: "ReLU"
bottom: "fc6"
top: "fc6"
}
layer {
name: "drop6"
type: "Dropout"
bottom: "fc6"
top: "fc6"
dropout_param {
dropout_ratio: 0.5
}
}
layer {
name: "fc7"
type: "InnerProduct"
bottom: "fc6"
top: "fc7"
param {
lr_mult: 1
decay_mult: 1
}
param {
lr_mult: 2
decay_mult: 0
}
inner_product_param {
num_output: 4096
weight_filler {
type: "gaussian"
std: 0.005
}
bias_filler {
type: "constant"
value: 0.1
}
}
}
layer {
name: "relu7"
type: "ReLU"
bottom: "fc7"
top: "fc7"
}
layer {
name: "drop7"
type: "Dropout"
bottom: "fc7"
top: "fc7"
dropout_param {
dropout_ratio: 0.5
}
}
layer {
name: "fc8"
type: "InnerProduct"
bottom: "fc7"
top: "fc8"
param {
lr_mult: 1
decay_mult: 1
}
param {
lr_mult: 2
decay_mult: 0
}
inner_product_param {
num_output: 196
weight_filler {
type: "gaussian"
std: 0.01
}
bias_filler {
type: "constant"
value: 0
}
}
}
layer {
name: "accuracy"
type: "Accuracy"
bottom: "fc8"
bottom: "label"
top: "accuracy"
include {
phase: TEST
}
}
layer {
name: "loss"
type: "SoftmaxWithLoss"
bottom: "fc8"
bottom: "label"
top: "loss"
}
I0428 21:19:32.742861 25678 layer_factory.hpp:77] Creating layer val-data
I0428 21:19:32.765134 25678 db_lmdb.cpp:35] Opened lmdb /mnt/bigdisk/DIGITS-AMB-2/digits/jobs/20210419-113214-d311/val_db
I0428 21:19:32.959810 25678 net.cpp:84] Creating Layer val-data
I0428 21:19:32.959839 25678 net.cpp:380] val-data -> data
I0428 21:19:32.959851 25678 net.cpp:380] val-data -> label
I0428 21:19:32.959859 25678 data_transformer.cpp:25] Loading mean file from: /mnt/bigdisk/DIGITS-AMB-2/digits/jobs/20210419-113214-d311/mean.binaryproto
I0428 21:19:33.041352 25678 data_layer.cpp:45] output data size: 32,3,227,227
I0428 21:19:33.086179 25678 net.cpp:122] Setting up val-data
I0428 21:19:33.086199 25678 net.cpp:129] Top shape: 32 3 227 227 (4946784)
I0428 21:19:33.086205 25678 net.cpp:129] Top shape: 32 (32)
I0428 21:19:33.086207 25678 net.cpp:137] Memory required for data: 19787264
I0428 21:19:33.086212 25678 layer_factory.hpp:77] Creating layer label_val-data_1_split
I0428 21:19:33.086225 25678 net.cpp:84] Creating Layer label_val-data_1_split
I0428 21:19:33.086228 25678 net.cpp:406] label_val-data_1_split <- label
I0428 21:19:33.086236 25678 net.cpp:380] label_val-data_1_split -> label_val-data_1_split_0
I0428 21:19:33.086246 25678 net.cpp:380] label_val-data_1_split -> label_val-data_1_split_1
I0428 21:19:33.086338 25678 net.cpp:122] Setting up label_val-data_1_split
I0428 21:19:33.086345 25678 net.cpp:129] Top shape: 32 (32)
I0428 21:19:33.086349 25678 net.cpp:129] Top shape: 32 (32)
I0428 21:19:33.086351 25678 net.cpp:137] Memory required for data: 19787520
I0428 21:19:33.086354 25678 layer_factory.hpp:77] Creating layer conv1
I0428 21:19:33.086365 25678 net.cpp:84] Creating Layer conv1
I0428 21:19:33.086369 25678 net.cpp:406] conv1 <- data
I0428 21:19:33.086374 25678 net.cpp:380] conv1 -> conv1
I0428 21:19:33.089615 25678 net.cpp:122] Setting up conv1
I0428 21:19:33.089628 25678 net.cpp:129] Top shape: 32 96 55 55 (9292800)
I0428 21:19:33.089632 25678 net.cpp:137] Memory required for data: 56958720
I0428 21:19:33.089641 25678 layer_factory.hpp:77] Creating layer relu1
I0428 21:19:33.089649 25678 net.cpp:84] Creating Layer relu1
I0428 21:19:33.089655 25678 net.cpp:406] relu1 <- conv1
I0428 21:19:33.089660 25678 net.cpp:367] relu1 -> conv1 (in-place)
I0428 21:19:33.090018 25678 net.cpp:122] Setting up relu1
I0428 21:19:33.090030 25678 net.cpp:129] Top shape: 32 96 55 55 (9292800)
I0428 21:19:33.090034 25678 net.cpp:137] Memory required for data: 94129920
I0428 21:19:33.090036 25678 layer_factory.hpp:77] Creating layer norm1
I0428 21:19:33.090045 25678 net.cpp:84] Creating Layer norm1
I0428 21:19:33.090049 25678 net.cpp:406] norm1 <- conv1
I0428 21:19:33.090054 25678 net.cpp:380] norm1 -> norm1
I0428 21:19:33.090622 25678 net.cpp:122] Setting up norm1
I0428 21:19:33.090633 25678 net.cpp:129] Top shape: 32 96 55 55 (9292800)
I0428 21:19:33.090636 25678 net.cpp:137] Memory required for data: 131301120
I0428 21:19:33.090641 25678 layer_factory.hpp:77] Creating layer pool1
I0428 21:19:33.090647 25678 net.cpp:84] Creating Layer pool1
I0428 21:19:33.090651 25678 net.cpp:406] pool1 <- norm1
I0428 21:19:33.090656 25678 net.cpp:380] pool1 -> pool1
I0428 21:19:33.090682 25678 net.cpp:122] Setting up pool1
I0428 21:19:33.090687 25678 net.cpp:129] Top shape: 32 96 27 27 (2239488)
I0428 21:19:33.090690 25678 net.cpp:137] Memory required for data: 140259072
I0428 21:19:33.090693 25678 layer_factory.hpp:77] Creating layer conv2
I0428 21:19:33.090701 25678 net.cpp:84] Creating Layer conv2
I0428 21:19:33.090704 25678 net.cpp:406] conv2 <- pool1
I0428 21:19:33.090730 25678 net.cpp:380] conv2 -> conv2
I0428 21:19:33.099594 25678 net.cpp:122] Setting up conv2
I0428 21:19:33.099611 25678 net.cpp:129] Top shape: 32 256 27 27 (5971968)
I0428 21:19:33.099614 25678 net.cpp:137] Memory required for data: 164146944
I0428 21:19:33.099624 25678 layer_factory.hpp:77] Creating layer relu2
I0428 21:19:33.099632 25678 net.cpp:84] Creating Layer relu2
I0428 21:19:33.099635 25678 net.cpp:406] relu2 <- conv2
I0428 21:19:33.099642 25678 net.cpp:367] relu2 -> conv2 (in-place)
I0428 21:19:33.100261 25678 net.cpp:122] Setting up relu2
I0428 21:19:33.100272 25678 net.cpp:129] Top shape: 32 256 27 27 (5971968)
I0428 21:19:33.100275 25678 net.cpp:137] Memory required for data: 188034816
I0428 21:19:33.100278 25678 layer_factory.hpp:77] Creating layer norm2
I0428 21:19:33.100289 25678 net.cpp:84] Creating Layer norm2
I0428 21:19:33.100292 25678 net.cpp:406] norm2 <- conv2
I0428 21:19:33.100298 25678 net.cpp:380] norm2 -> norm2
I0428 21:19:33.101125 25678 net.cpp:122] Setting up norm2
I0428 21:19:33.101136 25678 net.cpp:129] Top shape: 32 256 27 27 (5971968)
I0428 21:19:33.101140 25678 net.cpp:137] Memory required for data: 211922688
I0428 21:19:33.101142 25678 layer_factory.hpp:77] Creating layer pool2
I0428 21:19:33.101150 25678 net.cpp:84] Creating Layer pool2
I0428 21:19:33.101153 25678 net.cpp:406] pool2 <- norm2
I0428 21:19:33.101161 25678 net.cpp:380] pool2 -> pool2
I0428 21:19:33.101191 25678 net.cpp:122] Setting up pool2
I0428 21:19:33.101195 25678 net.cpp:129] Top shape: 32 256 13 13 (1384448)
I0428 21:19:33.101198 25678 net.cpp:137] Memory required for data: 217460480
I0428 21:19:33.101202 25678 layer_factory.hpp:77] Creating layer conv3
I0428 21:19:33.101212 25678 net.cpp:84] Creating Layer conv3
I0428 21:19:33.101214 25678 net.cpp:406] conv3 <- pool2
I0428 21:19:33.101222 25678 net.cpp:380] conv3 -> conv3
I0428 21:19:33.114195 25678 net.cpp:122] Setting up conv3
I0428 21:19:33.114212 25678 net.cpp:129] Top shape: 32 384 13 13 (2076672)
I0428 21:19:33.114215 25678 net.cpp:137] Memory required for data: 225767168
I0428 21:19:33.114226 25678 layer_factory.hpp:77] Creating layer relu3
I0428 21:19:33.114235 25678 net.cpp:84] Creating Layer relu3
I0428 21:19:33.114239 25678 net.cpp:406] relu3 <- conv3
I0428 21:19:33.114245 25678 net.cpp:367] relu3 -> conv3 (in-place)
I0428 21:19:33.114897 25678 net.cpp:122] Setting up relu3
I0428 21:19:33.114908 25678 net.cpp:129] Top shape: 32 384 13 13 (2076672)
I0428 21:19:33.114912 25678 net.cpp:137] Memory required for data: 234073856
I0428 21:19:33.114914 25678 layer_factory.hpp:77] Creating layer conv4
I0428 21:19:33.114926 25678 net.cpp:84] Creating Layer conv4
I0428 21:19:33.114929 25678 net.cpp:406] conv4 <- conv3
I0428 21:19:33.114938 25678 net.cpp:380] conv4 -> conv4
I0428 21:19:33.126451 25678 net.cpp:122] Setting up conv4
I0428 21:19:33.126468 25678 net.cpp:129] Top shape: 32 384 13 13 (2076672)
I0428 21:19:33.126472 25678 net.cpp:137] Memory required for data: 242380544
I0428 21:19:33.126480 25678 layer_factory.hpp:77] Creating layer relu4
I0428 21:19:33.126492 25678 net.cpp:84] Creating Layer relu4
I0428 21:19:33.126497 25678 net.cpp:406] relu4 <- conv4
I0428 21:19:33.126502 25678 net.cpp:367] relu4 -> conv4 (in-place)
I0428 21:19:33.126940 25678 net.cpp:122] Setting up relu4
I0428 21:19:33.126950 25678 net.cpp:129] Top shape: 32 384 13 13 (2076672)
I0428 21:19:33.126952 25678 net.cpp:137] Memory required for data: 250687232
I0428 21:19:33.126955 25678 layer_factory.hpp:77] Creating layer conv5
I0428 21:19:33.126966 25678 net.cpp:84] Creating Layer conv5
I0428 21:19:33.126971 25678 net.cpp:406] conv5 <- conv4
I0428 21:19:33.126977 25678 net.cpp:380] conv5 -> conv5
I0428 21:19:33.138010 25678 net.cpp:122] Setting up conv5
I0428 21:19:33.138029 25678 net.cpp:129] Top shape: 32 256 13 13 (1384448)
I0428 21:19:33.138032 25678 net.cpp:137] Memory required for data: 256225024
I0428 21:19:33.138047 25678 layer_factory.hpp:77] Creating layer relu5
I0428 21:19:33.138056 25678 net.cpp:84] Creating Layer relu5
I0428 21:19:33.138079 25678 net.cpp:406] relu5 <- conv5
I0428 21:19:33.138087 25678 net.cpp:367] relu5 -> conv5 (in-place)
I0428 21:19:33.138716 25678 net.cpp:122] Setting up relu5
I0428 21:19:33.138727 25678 net.cpp:129] Top shape: 32 256 13 13 (1384448)
I0428 21:19:33.138731 25678 net.cpp:137] Memory required for data: 261762816
I0428 21:19:33.138733 25678 layer_factory.hpp:77] Creating layer pool5
I0428 21:19:33.138746 25678 net.cpp:84] Creating Layer pool5
I0428 21:19:33.138749 25678 net.cpp:406] pool5 <- conv5
I0428 21:19:33.138754 25678 net.cpp:380] pool5 -> pool5
I0428 21:19:33.138794 25678 net.cpp:122] Setting up pool5
I0428 21:19:33.138800 25678 net.cpp:129] Top shape: 32 256 6 6 (294912)
I0428 21:19:33.138803 25678 net.cpp:137] Memory required for data: 262942464
I0428 21:19:33.138805 25678 layer_factory.hpp:77] Creating layer fc6
I0428 21:19:33.138813 25678 net.cpp:84] Creating Layer fc6
I0428 21:19:33.138816 25678 net.cpp:406] fc6 <- pool5
I0428 21:19:33.138823 25678 net.cpp:380] fc6 -> fc6
I0428 21:19:33.548929 25678 net.cpp:122] Setting up fc6
I0428 21:19:33.548949 25678 net.cpp:129] Top shape: 32 4096 (131072)
I0428 21:19:33.548952 25678 net.cpp:137] Memory required for data: 263466752
I0428 21:19:33.548961 25678 layer_factory.hpp:77] Creating layer relu6
I0428 21:19:33.548969 25678 net.cpp:84] Creating Layer relu6
I0428 21:19:33.548974 25678 net.cpp:406] relu6 <- fc6
I0428 21:19:33.548979 25678 net.cpp:367] relu6 -> fc6 (in-place)
I0428 21:19:33.549772 25678 net.cpp:122] Setting up relu6
I0428 21:19:33.549782 25678 net.cpp:129] Top shape: 32 4096 (131072)
I0428 21:19:33.549784 25678 net.cpp:137] Memory required for data: 263991040
I0428 21:19:33.549788 25678 layer_factory.hpp:77] Creating layer drop6
I0428 21:19:33.549796 25678 net.cpp:84] Creating Layer drop6
I0428 21:19:33.549799 25678 net.cpp:406] drop6 <- fc6
I0428 21:19:33.549803 25678 net.cpp:367] drop6 -> fc6 (in-place)
I0428 21:19:33.549829 25678 net.cpp:122] Setting up drop6
I0428 21:19:33.549832 25678 net.cpp:129] Top shape: 32 4096 (131072)
I0428 21:19:33.549835 25678 net.cpp:137] Memory required for data: 264515328
I0428 21:19:33.549839 25678 layer_factory.hpp:77] Creating layer fc7
I0428 21:19:33.549844 25678 net.cpp:84] Creating Layer fc7
I0428 21:19:33.549847 25678 net.cpp:406] fc7 <- fc6
I0428 21:19:33.549852 25678 net.cpp:380] fc7 -> fc7
I0428 21:19:33.709386 25678 net.cpp:122] Setting up fc7
I0428 21:19:33.709408 25678 net.cpp:129] Top shape: 32 4096 (131072)
I0428 21:19:33.709410 25678 net.cpp:137] Memory required for data: 265039616
I0428 21:19:33.709419 25678 layer_factory.hpp:77] Creating layer relu7
I0428 21:19:33.709427 25678 net.cpp:84] Creating Layer relu7
I0428 21:19:33.709431 25678 net.cpp:406] relu7 <- fc7
I0428 21:19:33.709436 25678 net.cpp:367] relu7 -> fc7 (in-place)
I0428 21:19:33.709937 25678 net.cpp:122] Setting up relu7
I0428 21:19:33.709946 25678 net.cpp:129] Top shape: 32 4096 (131072)
I0428 21:19:33.709949 25678 net.cpp:137] Memory required for data: 265563904
I0428 21:19:33.709952 25678 layer_factory.hpp:77] Creating layer drop7
I0428 21:19:33.709959 25678 net.cpp:84] Creating Layer drop7
I0428 21:19:33.709961 25678 net.cpp:406] drop7 <- fc7
I0428 21:19:33.709969 25678 net.cpp:367] drop7 -> fc7 (in-place)
I0428 21:19:33.709991 25678 net.cpp:122] Setting up drop7
I0428 21:19:33.709998 25678 net.cpp:129] Top shape: 32 4096 (131072)
I0428 21:19:33.710000 25678 net.cpp:137] Memory required for data: 266088192
I0428 21:19:33.710003 25678 layer_factory.hpp:77] Creating layer fc8
I0428 21:19:33.710009 25678 net.cpp:84] Creating Layer fc8
I0428 21:19:33.710012 25678 net.cpp:406] fc8 <- fc7
I0428 21:19:33.710019 25678 net.cpp:380] fc8 -> fc8
I0428 21:19:33.717861 25678 net.cpp:122] Setting up fc8
I0428 21:19:33.717876 25678 net.cpp:129] Top shape: 32 196 (6272)
I0428 21:19:33.717880 25678 net.cpp:137] Memory required for data: 266113280
I0428 21:19:33.717886 25678 layer_factory.hpp:77] Creating layer fc8_fc8_0_split
I0428 21:19:33.717893 25678 net.cpp:84] Creating Layer fc8_fc8_0_split
I0428 21:19:33.717897 25678 net.cpp:406] fc8_fc8_0_split <- fc8
I0428 21:19:33.717924 25678 net.cpp:380] fc8_fc8_0_split -> fc8_fc8_0_split_0
I0428 21:19:33.717931 25678 net.cpp:380] fc8_fc8_0_split -> fc8_fc8_0_split_1
I0428 21:19:33.717964 25678 net.cpp:122] Setting up fc8_fc8_0_split
I0428 21:19:33.717969 25678 net.cpp:129] Top shape: 32 196 (6272)
I0428 21:19:33.717972 25678 net.cpp:129] Top shape: 32 196 (6272)
I0428 21:19:33.717974 25678 net.cpp:137] Memory required for data: 266163456
I0428 21:19:33.717978 25678 layer_factory.hpp:77] Creating layer accuracy
I0428 21:19:33.717983 25678 net.cpp:84] Creating Layer accuracy
I0428 21:19:33.717986 25678 net.cpp:406] accuracy <- fc8_fc8_0_split_0
I0428 21:19:33.717990 25678 net.cpp:406] accuracy <- label_val-data_1_split_0
I0428 21:19:33.717994 25678 net.cpp:380] accuracy -> accuracy
…
