…
I0422 00:46:13.014819 16011 net.cpp:294] The NetState phase (0) differed from the phase (1) specified by a rule in layer accuracy
I0422 00:46:13.014966 16011 net.cpp:51] Initializing net from parameters:
state {
phase: TRAIN
level: 0
stage: ""
}
layer {
name: "train-data"
type: "Data"
top: "data"
top: "label"
include {
phase: TRAIN
}
transform_param {
mirror: true
crop_size: 227
mean_file: "/mnt/bigdisk/DIGITS-MAN-3/digits/jobs/20210421-230320-902c/mean.binaryproto"
}
data_param {
source: "/mnt/bigdisk/DIGITS-MAN-3/digits/jobs/20210421-230320-902c/train_db"
batch_size: 128
backend: LMDB
}
}
layer {
name: "conv1"
type: "Convolution"
bottom: "data"
top: "conv1"
param {
lr_mult: 1
decay_mult: 1
}
param {
lr_mult: 2
decay_mult: 0
}
convolution_param {
num_output: 96
kernel_size: 15
stride: 4
weight_filler {
type: "gaussian"
std: 0.01
}
bias_filler {
type: "constant"
value: 0
}
}
}
layer {
name: "relu1"
type: "ReLU"
bottom: "conv1"
top: "conv1"
}
layer {
name: "norm1"
type: "LRN"
bottom: "conv1"
top: "norm1"
lrn_param {
local_size: 5
alpha: 0.0001
beta: 0.75
}
}
layer {
name: "pool1"
type: "Pooling"
bottom: "norm1"
top: "pool1"
pooling_param {
pool: MAX
kernel_size: 3
stride: 2
}
}
layer {
name: "conv2"
type: "Convolution"
bottom: "pool1"
top: "conv2"
param {
lr_mult: 1
decay_mult: 1
}
param {
lr_mult: 2
decay_mult: 0
}
convolution_param {
num_output: 256
pad: 2
kernel_size: 5
group: 2
weight_filler {
type: "gaussian"
std: 0.01
}
bias_filler {
type: "constant"
value: 0.1
}
}
}
layer {
name: "relu2"
type: "ReLU"
bottom: "conv2"
top: "conv2"
}
layer {
name: "norm2"
type: "LRN"
bottom: "conv2"
top: "norm2"
lrn_param {
local_size: 5
alpha: 0.0001
beta: 0.75
}
}
layer {
name: "pool2"
type: "Pooling"
bottom: "norm2"
top: "pool2"
pooling_param {
pool: MAX
kernel_size: 3
stride: 2
}
}
layer {
name: "conv3"
type: "Convolution"
bottom: "pool2"
top: "conv3"
param {
lr_mult: 1
decay_mult: 1
}
param {
lr_mult: 2
decay_mult: 0
}
convolution_param {
num_output: 384
pad: 1
kernel_size: 3
weight_filler {
type: "gaussian"
std: 0.01
}
bias_filler {
type: "constant"
value: 0
}
}
}
layer {
name: "relu3"
type: "ReLU"
bottom: "conv3"
top: "conv3"
}
layer {
name: "conv4"
type: "Convolution"
bottom: "conv3"
top: "conv4"
param {
lr_mult: 1
decay_mult: 1
}
param {
lr_mult: 2
decay_mult: 0
}
convolution_param {
num_output: 384
pad: 1
kernel_size: 3
group: 2
weight_filler {
type: "gaussian"
std: 0.01
}
bias_filler {
type: "constant"
value: 0.1
}
}
}
layer {
name: "relu4"
type: "ReLU"
bottom: "conv4"
top: "conv4"
}
layer {
name: "conv5"
type: "Convolution"
bottom: "conv4"
top: "conv5"
param {
lr_mult: 1
decay_mult: 1
}
param {
lr_mult: 2
decay_mult: 0
}
convolution_param {
num_output: 256
pad: 1
kernel_size: 3
group: 2
weight_filler {
type: "gaussian"
std: 0.01
}
bias_filler {
type: "constant"
value: 0.1
}
}
}
layer {
name: "relu5"
type: "ReLU"
bottom: "conv5"
top: "conv5"
}
layer {
name: "pool5"
type: "Pooling"
bottom: "conv5"
top: "pool5"
pooling_param {
pool: MAX
kernel_size: 3
stride: 2
}
}
layer {
name: "fc6"
type: "InnerProduct"
bottom: "pool5"
top: "fc6"
param {
lr_mult: 1
decay_mult: 1
}
param {
lr_mult: 2
decay_mult: 0
}
inner_product_param {
num_output: 4096
weight_filler {
type: "gaussian"
std: 0.005
}
bias_filler {
type: "constant"
value: 0.1
}
}
}
layer {
name: "relu6"
type: "ReLU"
bottom: "fc6"
top: "fc6"
}
layer {
name: "drop6"
type: "Dropout"
bottom: "fc6"
top: "fc6"
dropout_param {
dropout_ratio: 0.5
}
}
layer {
name: "fc7"
type: "InnerProduct"
bottom: "fc6"
top: "fc7"
param {
lr_mult: 1
decay_mult: 1
}
param {
lr_mult: 2
decay_mult: 0
}
inner_product_param {
num_output: 4096
weight_filler {
type: "gaussian"
std: 0.005
}
bias_filler {
type: "constant"
value: 0.1
}
}
}
layer {
name: "relu7"
type: "ReLU"
bottom: "fc7"
top: "fc7"
}
layer {
name: "drop7"
type: "Dropout"
bottom: "fc7"
top: "fc7"
dropout_param {
dropout_ratio: 0.5
}
}
layer {
name: "fc8"
type: "InnerProduct"
bottom: "fc7"
top: "fc8"
param {
lr_mult: 1
decay_mult: 1
}
param {
lr_mult: 2
decay_mult: 0
}
inner_product_param {
num_output: 196
weight_filler {
type: "gaussian"
std: 0.01
}
bias_filler {
type: "constant"
value: 0
}
}
}
layer {
name: "loss"
type: "SoftmaxWithLoss"
bottom: "fc8"
bottom: "label"
top: "loss"
}
I0422 00:46:13.015058 16011 layer_factory.hpp:77] Creating layer train-data
I0422 00:46:13.016873 16011 db_lmdb.cpp:35] Opened lmdb /mnt/bigdisk/DIGITS-MAN-3/digits/jobs/20210421-230320-902c/train_db
I0422 00:46:13.017100 16011 net.cpp:84] Creating Layer train-data
I0422 00:46:13.017112 16011 net.cpp:380] train-data -> data
I0422 00:46:13.017130 16011 net.cpp:380] train-data -> label
I0422 00:46:13.017141 16011 data_transformer.cpp:25] Loading mean file from: /mnt/bigdisk/DIGITS-MAN-3/digits/jobs/20210421-230320-902c/mean.binaryproto
I0422 00:46:13.022331 16011 data_layer.cpp:45] output data size: 128,3,227,227
I0422 00:46:13.215306 16011 net.cpp:122] Setting up train-data
I0422 00:46:13.215329 16011 net.cpp:129] Top shape: 128 3 227 227 (19787136)
I0422 00:46:13.215335 16011 net.cpp:129] Top shape: 128 (128)
I0422 00:46:13.215342 16011 net.cpp:137] Memory required for data: 79149056
I0422 00:46:13.215351 16011 layer_factory.hpp:77] Creating layer conv1
I0422 00:46:13.215373 16011 net.cpp:84] Creating Layer conv1
I0422 00:46:13.215381 16011 net.cpp:406] conv1 <- data
I0422 00:46:13.215394 16011 net.cpp:380] conv1 -> conv1
I0422 00:46:14.449471 16011 net.cpp:122] Setting up conv1
I0422 00:46:14.449494 16011 net.cpp:129] Top shape: 128 96 54 54 (35831808)
I0422 00:46:14.449499 16011 net.cpp:137] Memory required for data: 222476288
I0422 00:46:14.449520 16011 layer_factory.hpp:77] Creating layer relu1
I0422 00:46:14.449532 16011 net.cpp:84] Creating Layer relu1
I0422 00:46:14.449537 16011 net.cpp:406] relu1 <- conv1
I0422 00:46:14.449542 16011 net.cpp:367] relu1 -> conv1 (in-place)
I0422 00:46:14.449857 16011 net.cpp:122] Setting up relu1
I0422 00:46:14.449867 16011 net.cpp:129] Top shape: 128 96 54 54 (35831808)
I0422 00:46:14.449872 16011 net.cpp:137] Memory required for data: 365803520
I0422 00:46:14.449875 16011 layer_factory.hpp:77] Creating layer norm1
I0422 00:46:14.449885 16011 net.cpp:84] Creating Layer norm1
I0422 00:46:14.449889 16011 net.cpp:406] norm1 <- conv1
I0422 00:46:14.449919 16011 net.cpp:380] norm1 -> norm1
I0422 00:46:14.450402 16011 net.cpp:122] Setting up norm1
I0422 00:46:14.450413 16011 net.cpp:129] Top shape: 128 96 54 54 (35831808)
I0422 00:46:14.450417 16011 net.cpp:137] Memory required for data: 509130752
I0422 00:46:14.450423 16011 layer_factory.hpp:77] Creating layer pool1
I0422 00:46:14.450430 16011 net.cpp:84] Creating Layer pool1
I0422 00:46:14.450435 16011 net.cpp:406] pool1 <- norm1
I0422 00:46:14.450441 16011 net.cpp:380] pool1 -> pool1
I0422 00:46:14.450480 16011 net.cpp:122] Setting up pool1
I0422 00:46:14.450487 16011 net.cpp:129] Top shape: 128 96 27 27 (8957952)
I0422 00:46:14.450491 16011 net.cpp:137] Memory required for data: 544962560
I0422 00:46:14.450495 16011 layer_factory.hpp:77] Creating layer conv2
I0422 00:46:14.450506 16011 net.cpp:84] Creating Layer conv2
I0422 00:46:14.450511 16011 net.cpp:406] conv2 <- pool1
I0422 00:46:14.450517 16011 net.cpp:380] conv2 -> conv2
I0422 00:46:14.544914 16011 net.cpp:122] Setting up conv2
I0422 00:46:14.544934 16011 net.cpp:129] Top shape: 128 256 27 27 (23887872)
I0422 00:46:14.544937 16011 net.cpp:137] Memory required for data: 640514048
I0422 00:46:14.544950 16011 layer_factory.hpp:77] Creating layer relu2
I0422 00:46:14.544960 16011 net.cpp:84] Creating Layer relu2
I0422 00:46:14.544963 16011 net.cpp:406] relu2 <- conv2
I0422 00:46:14.544970 16011 net.cpp:367] relu2 -> conv2 (in-place)
I0422 00:46:14.582655 16011 net.cpp:122] Setting up relu2
I0422 00:46:14.582675 16011 net.cpp:129] Top shape: 128 256 27 27 (23887872)
I0422 00:46:14.582679 16011 net.cpp:137] Memory required for data: 736065536
I0422 00:46:14.582684 16011 layer_factory.hpp:77] Creating layer norm2
I0422 00:46:14.582696 16011 net.cpp:84] Creating Layer norm2
I0422 00:46:14.582700 16011 net.cpp:406] norm2 <- conv2
I0422 00:46:14.582710 16011 net.cpp:380] norm2 -> norm2
I0422 00:46:14.583057 16011 net.cpp:122] Setting up norm2
I0422 00:46:14.583068 16011 net.cpp:129] Top shape: 128 256 27 27 (23887872)
I0422 00:46:14.583071 16011 net.cpp:137] Memory required for data: 831617024
I0422 00:46:14.583076 16011 layer_factory.hpp:77] Creating layer pool2
I0422 00:46:14.583086 16011 net.cpp:84] Creating Layer pool2
I0422 00:46:14.583089 16011 net.cpp:406] pool2 <- norm2
I0422 00:46:14.583096 16011 net.cpp:380] pool2 -> pool2
I0422 00:46:14.583127 16011 net.cpp:122] Setting up pool2
I0422 00:46:14.583133 16011 net.cpp:129] Top shape: 128 256 13 13 (5537792)
I0422 00:46:14.583137 16011 net.cpp:137] Memory required for data: 853768192
I0422 00:46:14.583142 16011 layer_factory.hpp:77] Creating layer conv3
I0422 00:46:14.583153 16011 net.cpp:84] Creating Layer conv3
I0422 00:46:14.583163 16011 net.cpp:406] conv3 <- pool2
I0422 00:46:14.583168 16011 net.cpp:380] conv3 -> conv3
I0422 00:46:14.610417 16011 net.cpp:122] Setting up conv3
I0422 00:46:14.610440 16011 net.cpp:129] Top shape: 128 384 13 13 (8306688)
I0422 00:46:14.610445 16011 net.cpp:137] Memory required for data: 886994944
I0422 00:46:14.610457 16011 layer_factory.hpp:77] Creating layer relu3
I0422 00:46:14.610468 16011 net.cpp:84] Creating Layer relu3
I0422 00:46:14.610472 16011 net.cpp:406] relu3 <- conv3
I0422 00:46:14.610479 16011 net.cpp:367] relu3 -> conv3 (in-place)
I0422 00:46:14.611454 16011 net.cpp:122] Setting up relu3
I0422 00:46:14.611464 16011 net.cpp:129] Top shape: 128 384 13 13 (8306688)
I0422 00:46:14.611467 16011 net.cpp:137] Memory required for data: 920221696
I0422 00:46:14.611471 16011 layer_factory.hpp:77] Creating layer conv4
I0422 00:46:14.611485 16011 net.cpp:84] Creating Layer conv4
I0422 00:46:14.611488 16011 net.cpp:406] conv4 <- conv3
I0422 00:46:14.611495 16011 net.cpp:380] conv4 -> conv4
I0422 00:46:14.622958 16011 net.cpp:122] Setting up conv4
I0422 00:46:14.622977 16011 net.cpp:129] Top shape: 128 384 13 13 (8306688)
I0422 00:46:14.622982 16011 net.cpp:137] Memory required for data: 953448448
I0422 00:46:14.622990 16011 layer_factory.hpp:77] Creating layer relu4
I0422 00:46:14.623001 16011 net.cpp:84] Creating Layer relu4
I0422 00:46:14.623024 16011 net.cpp:406] relu4 <- conv4
I0422 00:46:14.623030 16011 net.cpp:367] relu4 -> conv4 (in-place)
I0422 00:46:14.623401 16011 net.cpp:122] Setting up relu4
I0422 00:46:14.623409 16011 net.cpp:129] Top shape: 128 384 13 13 (8306688)
I0422 00:46:14.623414 16011 net.cpp:137] Memory required for data: 986675200
I0422 00:46:14.623417 16011 layer_factory.hpp:77] Creating layer conv5
I0422 00:46:14.623430 16011 net.cpp:84] Creating Layer conv5
I0422 00:46:14.623433 16011 net.cpp:406] conv5 <- conv4
I0422 00:46:14.623440 16011 net.cpp:380] conv5 -> conv5
I0422 00:46:14.632637 16011 net.cpp:122] Setting up conv5
I0422 00:46:14.632656 16011 net.cpp:129] Top shape: 128 256 13 13 (5537792)
I0422 00:46:14.632660 16011 net.cpp:137] Memory required for data: 1008826368
I0422 00:46:14.632673 16011 layer_factory.hpp:77] Creating layer relu5
I0422 00:46:14.632681 16011 net.cpp:84] Creating Layer relu5
I0422 00:46:14.632685 16011 net.cpp:406] relu5 <- conv5
I0422 00:46:14.632692 16011 net.cpp:367] relu5 -> conv5 (in-place)
I0422 00:46:14.633343 16011 net.cpp:122] Setting up relu5
I0422 00:46:14.633353 16011 net.cpp:129] Top shape: 128 256 13 13 (5537792)
I0422 00:46:14.633358 16011 net.cpp:137] Memory required for data: 1030977536
I0422 00:46:14.633361 16011 layer_factory.hpp:77] Creating layer pool5
I0422 00:46:14.633369 16011 net.cpp:84] Creating Layer pool5
I0422 00:46:14.633373 16011 net.cpp:406] pool5 <- conv5
I0422 00:46:14.633379 16011 net.cpp:380] pool5 -> pool5
I0422 00:46:14.633420 16011 net.cpp:122] Setting up pool5
I0422 00:46:14.633427 16011 net.cpp:129] Top shape: 128 256 6 6 (1179648)
I0422 00:46:14.633430 16011 net.cpp:137] Memory required for data: 1035696128
I0422 00:46:14.633433 16011 layer_factory.hpp:77] Creating layer fc6
I0422 00:46:14.633443 16011 net.cpp:84] Creating Layer fc6
I0422 00:46:14.633446 16011 net.cpp:406] fc6 <- pool5
I0422 00:46:14.633453 16011 net.cpp:380] fc6 -> fc6
I0422 00:46:15.004966 16011 net.cpp:122] Setting up fc6
I0422 00:46:15.004990 16011 net.cpp:129] Top shape: 128 4096 (524288)
I0422 00:46:15.004994 16011 net.cpp:137] Memory required for data: 1037793280
I0422 00:46:15.005003 16011 layer_factory.hpp:77] Creating layer relu6
I0422 00:46:15.005012 16011 net.cpp:84] Creating Layer relu6
I0422 00:46:15.005017 16011 net.cpp:406] relu6 <- fc6
I0422 00:46:15.005024 16011 net.cpp:367] relu6 -> fc6 (in-place)
I0422 00:46:15.014595 16011 net.cpp:122] Setting up relu6
I0422 00:46:15.014607 16011 net.cpp:129] Top shape: 128 4096 (524288)
I0422 00:46:15.014611 16011 net.cpp:137] Memory required for data: 1039890432
I0422 00:46:15.014616 16011 layer_factory.hpp:77] Creating layer drop6
I0422 00:46:15.014623 16011 net.cpp:84] Creating Layer drop6
I0422 00:46:15.014628 16011 net.cpp:406] drop6 <- fc6
I0422 00:46:15.014636 16011 net.cpp:367] drop6 -> fc6 (in-place)
I0422 00:46:15.014667 16011 net.cpp:122] Setting up drop6
I0422 00:46:15.014673 16011 net.cpp:129] Top shape: 128 4096 (524288)
I0422 00:46:15.014678 16011 net.cpp:137] Memory required for data: 1041987584
I0422 00:46:15.014681 16011 layer_factory.hpp:77] Creating layer fc7
I0422 00:46:15.014689 16011 net.cpp:84] Creating Layer fc7
I0422 00:46:15.014693 16011 net.cpp:406] fc7 <- fc6
I0422 00:46:15.014699 16011 net.cpp:380] fc7 -> fc7
I0422 00:46:15.175937 16011 net.cpp:122] Setting up fc7
I0422 00:46:15.175958 16011 net.cpp:129] Top shape: 128 4096 (524288)
I0422 00:46:15.175963 16011 net.cpp:137] Memory required for data: 1044084736
I0422 00:46:15.175973 16011 layer_factory.hpp:77] Creating layer relu7
I0422 00:46:15.175984 16011 net.cpp:84] Creating Layer relu7
I0422 00:46:15.175988 16011 net.cpp:406] relu7 <- fc7
I0422 00:46:15.175994 16011 net.cpp:367] relu7 -> fc7 (in-place)
I0422 00:46:15.176403 16011 net.cpp:122] Setting up relu7
I0422 00:46:15.176411 16011 net.cpp:129] Top shape: 128 4096 (524288)
I0422 00:46:15.176416 16011 net.cpp:137] Memory required for data: 1046181888
I0422 00:46:15.176419 16011 layer_factory.hpp:77] Creating layer drop7
I0422 00:46:15.176426 16011 net.cpp:84] Creating Layer drop7
I0422 00:46:15.176447 16011 net.cpp:406] drop7 <- fc7
I0422 00:46:15.176453 16011 net.cpp:367] drop7 -> fc7 (in-place)
I0422 00:46:15.176481 16011 net.cpp:122] Setting up drop7
I0422 00:46:15.176506 16011 net.cpp:129] Top shape: 128 4096 (524288)
I0422 00:46:15.176509 16011 net.cpp:137] Memory required for data: 1048279040
I0422 00:46:15.176513 16011 layer_factory.hpp:77] Creating layer fc8
I0422 00:46:15.176522 16011 net.cpp:84] Creating Layer fc8
I0422 00:46:15.176525 16011 net.cpp:406] fc8 <- fc7
I0422 00:46:15.176530 16011 net.cpp:380] fc8 -> fc8
I0422 00:46:15.184198 16011 net.cpp:122] Setting up fc8
I0422 00:46:15.184208 16011 net.cpp:129] Top shape: 128 196 (25088)
I0422 00:46:15.184212 16011 net.cpp:137] Memory required for data: 1048379392
I0422 00:46:15.184218 16011 layer_factory.hpp:77] Creating layer loss
I0422 00:46:15.184226 16011 net.cpp:84] Creating Layer loss
I0422 00:46:15.184229 16011 net.cpp:406] loss <- fc8
I0422 00:46:15.184234 16011 net.cpp:406] loss <- label
I0422 00:46:15.184242 16011 net.cpp:380] loss -> loss
I0422 00:46:15.184252 16011 layer_factory.hpp:77] Creating layer loss
…
I0422 00:46:15.185735 16011 net.cpp:294] The NetState phase (1) differed from the phase (0) specified by a rule in layer train-data
I0422 00:46:15.185873 16011 net.cpp:51] Initializing net from parameters:
state {
phase: TEST
}
layer {
name: "val-data"
type: "Data"
top: "data"
top: "label"
include {
phase: TEST
}
transform_param {
crop_size: 227
mean_file: "/mnt/bigdisk/DIGITS-MAN-3/digits/jobs/20210421-230320-902c/mean.binaryproto"
}
data_param {
source: "/mnt/bigdisk/DIGITS-MAN-3/digits/jobs/20210421-230320-902c/val_db"
batch_size: 32
backend: LMDB
}
}
layer {
name: "conv1"
type: "Convolution"
bottom: "data"
top: "conv1"
param {
lr_mult: 1
decay_mult: 1
}
param {
lr_mult: 2
decay_mult: 0
}
convolution_param {
num_output: 96
kernel_size: 15
stride: 4
weight_filler {
type: "gaussian"
std: 0.01
}
bias_filler {
type: "constant"
value: 0
}
}
}
layer {
name: "relu1"
type: "ReLU"
bottom: "conv1"
top: "conv1"
}
layer {
name: "norm1"
type: "LRN"
bottom: "conv1"
top: "norm1"
lrn_param {
local_size: 5
alpha: 0.0001
beta: 0.75
}
}
layer {
name: "pool1"
type: "Pooling"
bottom: "norm1"
top: "pool1"
pooling_param {
pool: MAX
kernel_size: 3
stride: 2
}
}
layer {
name: "conv2"
type: "Convolution"
bottom: "pool1"
top: "conv2"
param {
lr_mult: 1
decay_mult: 1
}
param {
lr_mult: 2
decay_mult: 0
}
convolution_param {
num_output: 256
pad: 2
kernel_size: 5
group: 2
weight_filler {
type: "gaussian"
std: 0.01
}
bias_filler {
type: "constant"
value: 0.1
}
}
}
layer {
name: "relu2"
type: "ReLU"
bottom: "conv2"
top: "conv2"
}
layer {
name: "norm2"
type: "LRN"
bottom: "conv2"
top: "norm2"
lrn_param {
local_size: 5
alpha: 0.0001
beta: 0.75
}
}
layer {
name: "pool2"
type: "Pooling"
bottom: "norm2"
top: "pool2"
pooling_param {
pool: MAX
kernel_size: 3
stride: 2
}
}
layer {
name: "conv3"
type: "Convolution"
bottom: "pool2"
top: "conv3"
param {
lr_mult: 1
decay_mult: 1
}
param {
lr_mult: 2
decay_mult: 0
}
convolution_param {
num_output: 384
pad: 1
kernel_size: 3
weight_filler {
type: "gaussian"
std: 0.01
}
bias_filler {
type: "constant"
value: 0
}
}
}
layer {
name: "relu3"
type: "ReLU"
bottom: "conv3"
top: "conv3"
}
layer {
name: "conv4"
type: "Convolution"
bottom: "conv3"
top: "conv4"
param {
lr_mult: 1
decay_mult: 1
}
param {
lr_mult: 2
decay_mult: 0
}
convolution_param {
num_output: 384
pad: 1
kernel_size: 3
group: 2
weight_filler {
type: "gaussian"
std: 0.01
}
bias_filler {
type: "constant"
value: 0.1
}
}
}
layer {
name: "relu4"
type: "ReLU"
bottom: "conv4"
top: "conv4"
}
layer {
name: "conv5"
type: "Convolution"
bottom: "conv4"
top: "conv5"
param {
lr_mult: 1
decay_mult: 1
}
param {
lr_mult: 2
decay_mult: 0
}
convolution_param {
num_output: 256
pad: 1
kernel_size: 3
group: 2
weight_filler {
type: "gaussian"
std: 0.01
}
bias_filler {
type: "constant"
value: 0.1
}
}
}
layer {
name: "relu5"
type: "ReLU"
bottom: "conv5"
top: "conv5"
}
layer {
name: "pool5"
type: "Pooling"
bottom: "conv5"
top: "pool5"
pooling_param {
pool: MAX
kernel_size: 3
stride: 2
}
}
layer {
name: "fc6"
type: "InnerProduct"
bottom: "pool5"
top: "fc6"
param {
lr_mult: 1
decay_mult: 1
}
param {
lr_mult: 2
decay_mult: 0
}
inner_product_param {
num_output: 4096
weight_filler {
type: "gaussian"
std: 0.005
}
bias_filler {
type: "constant"
value: 0.1
}
}
}
layer {
name: "relu6"
type: "ReLU"
bottom: "fc6"
top: "fc6"
}
layer {
name: "drop6"
type: "Dropout"
bottom: "fc6"
top: "fc6"
dropout_param {
dropout_ratio: 0.5
}
}
layer {
name: "fc7"
type: "InnerProduct"
bottom: "fc6"
top: "fc7"
param {
lr_mult: 1
decay_mult: 1
}
param {
lr_mult: 2
decay_mult: 0
}
inner_product_param {
num_output: 4096
weight_filler {
type: "gaussian"
std: 0.005
}
bias_filler {
type: "constant"
value: 0.1
}
}
}
layer {
name: "relu7"
type: "ReLU"
bottom: "fc7"
top: "fc7"
}
layer {
name: "drop7"
type: "Dropout"
bottom: "fc7"
top: "fc7"
dropout_param {
dropout_ratio: 0.5
}
}
layer {
name: "fc8"
type: "InnerProduct"
bottom: "fc7"
top: "fc8"
param {
lr_mult: 1
decay_mult: 1
}
param {
lr_mult: 2
decay_mult: 0
}
inner_product_param {
num_output: 196
weight_filler {
type: "gaussian"
std: 0.01
}
bias_filler {
type: "constant"
value: 0
}
}
}
layer {
name: "accuracy"
type: "Accuracy"
bottom: "fc8"
bottom: "label"
top: "accuracy"
include {
phase: TEST
}
}
layer {
name: "loss"
type: "SoftmaxWithLoss"
bottom: "fc8"
bottom: "label"
top: "loss"
}
I0422 00:46:15.185966 16011 layer_factory.hpp:77] Creating layer val-data
I0422 00:46:15.188822 16011 db_lmdb.cpp:35] Opened lmdb /mnt/bigdisk/DIGITS-MAN-3/digits/jobs/20210421-230320-902c/val_db
I0422 00:46:15.188982 16011 net.cpp:84] Creating Layer val-data
I0422 00:46:15.188990 16011 net.cpp:380] val-data -> data
I0422 00:46:15.188999 16011 net.cpp:380] val-data -> label
I0422 00:46:15.189007 16011 data_transformer.cpp:25] Loading mean file from: /mnt/bigdisk/DIGITS-MAN-3/digits/jobs/20210421-230320-902c/mean.binaryproto
I0422 00:46:15.192376 16011 data_layer.cpp:45] output data size: 32,3,227,227
I0422 00:46:15.309840 16011 net.cpp:122] Setting up val-data
I0422 00:46:15.309862 16011 net.cpp:129] Top shape: 32 3 227 227 (4946784)
I0422 00:46:15.309867 16011 net.cpp:129] Top shape: 32 (32)
I0422 00:46:15.309870 16011 net.cpp:137] Memory required for data: 19787264
I0422 00:46:15.309876 16011 layer_factory.hpp:77] Creating layer label_val-data_1_split
I0422 00:46:15.309890 16011 net.cpp:84] Creating Layer label_val-data_1_split
I0422 00:46:15.309895 16011 net.cpp:406] label_val-data_1_split <- label
I0422 00:46:15.309902 16011 net.cpp:380] label_val-data_1_split -> label_val-data_1_split_0
I0422 00:46:15.309911 16011 net.cpp:380] label_val-data_1_split -> label_val-data_1_split_1
I0422 00:46:15.309993 16011 net.cpp:122] Setting up label_val-data_1_split
I0422 00:46:15.309999 16011 net.cpp:129] Top shape: 32 (32)
I0422 00:46:15.310003 16011 net.cpp:129] Top shape: 32 (32)
I0422 00:46:15.310005 16011 net.cpp:137] Memory required for data: 19787520
I0422 00:46:15.310009 16011 layer_factory.hpp:77] Creating layer conv1
I0422 00:46:15.310020 16011 net.cpp:84] Creating Layer conv1
I0422 00:46:15.310024 16011 net.cpp:406] conv1 <- data
I0422 00:46:15.310029 16011 net.cpp:380] conv1 -> conv1
I0422 00:46:15.314157 16011 net.cpp:122] Setting up conv1
I0422 00:46:15.314168 16011 net.cpp:129] Top shape: 32 96 54 54 (8957952)
I0422 00:46:15.314172 16011 net.cpp:137] Memory required for data: 55619328
I0422 00:46:15.314182 16011 layer_factory.hpp:77] Creating layer relu1
I0422 00:46:15.314188 16011 net.cpp:84] Creating Layer relu1
I0422 00:46:15.314193 16011 net.cpp:406] relu1 <- conv1
I0422 00:46:15.314198 16011 net.cpp:367] relu1 -> conv1 (in-place)
I0422 00:46:15.314476 16011 net.cpp:122] Setting up relu1
I0422 00:46:15.314483 16011 net.cpp:129] Top shape: 32 96 54 54 (8957952)
I0422 00:46:15.314486 16011 net.cpp:137] Memory required for data: 91451136
I0422 00:46:15.314491 16011 layer_factory.hpp:77] Creating layer norm1
I0422 00:46:15.314498 16011 net.cpp:84] Creating Layer norm1
I0422 00:46:15.314502 16011 net.cpp:406] norm1 <- conv1
I0422 00:46:15.314507 16011 net.cpp:380] norm1 -> norm1
I0422 00:46:15.314954 16011 net.cpp:122] Setting up norm1
I0422 00:46:15.314965 16011 net.cpp:129] Top shape: 32 96 54 54 (8957952)
I0422 00:46:15.314967 16011 net.cpp:137] Memory required for data: 127282944
I0422 00:46:15.314971 16011 layer_factory.hpp:77] Creating layer pool1
I0422 00:46:15.314978 16011 net.cpp:84] Creating Layer pool1
I0422 00:46:15.314981 16011 net.cpp:406] pool1 <- norm1
I0422 00:46:15.314987 16011 net.cpp:380] pool1 -> pool1
I0422 00:46:15.315016 16011 net.cpp:122] Setting up pool1
I0422 00:46:15.315021 16011 net.cpp:129] Top shape: 32 96 27 27 (2239488)
I0422 00:46:15.315023 16011 net.cpp:137] Memory required for data: 136240896
I0422 00:46:15.315026 16011 layer_factory.hpp:77] Creating layer conv2
I0422 00:46:15.315034 16011 net.cpp:84] Creating Layer conv2
I0422 00:46:15.315037 16011 net.cpp:406] conv2 <- pool1
I0422 00:46:15.315061 16011 net.cpp:380] conv2 -> conv2
I0422 00:46:15.322605 16011 net.cpp:122] Setting up conv2
I0422 00:46:15.322620 16011 net.cpp:129] Top shape: 32 256 27 27 (5971968)
I0422 00:46:15.322624 16011 net.cpp:137] Memory required for data: 160128768
I0422 00:46:15.322634 16011 layer_factory.hpp:77] Creating layer relu2
I0422 00:46:15.322643 16011 net.cpp:84] Creating Layer relu2
I0422 00:46:15.322646 16011 net.cpp:406] relu2 <- conv2
I0422 00:46:15.322652 16011 net.cpp:367] relu2 -> conv2 (in-place)
I0422 00:46:15.323159 16011 net.cpp:122] Setting up relu2
I0422 00:46:15.323171 16011 net.cpp:129] Top shape: 32 256 27 27 (5971968)
I0422 00:46:15.323175 16011 net.cpp:137] Memory required for data: 184016640
I0422 00:46:15.323179 16011 layer_factory.hpp:77] Creating layer norm2
I0422 00:46:15.323189 16011 net.cpp:84] Creating Layer norm2
I0422 00:46:15.323192 16011 net.cpp:406] norm2 <- conv2
I0422 00:46:15.323199 16011 net.cpp:380] norm2 -> norm2
I0422 00:46:15.323724 16011 net.cpp:122] Setting up norm2
I0422 00:46:15.323735 16011 net.cpp:129] Top shape: 32 256 27 27 (5971968)
I0422 00:46:15.323740 16011 net.cpp:137] Memory required for data: 207904512
I0422 00:46:15.323743 16011 layer_factory.hpp:77] Creating layer pool2
I0422 00:46:15.323750 16011 net.cpp:84] Creating Layer pool2
I0422 00:46:15.323755 16011 net.cpp:406] pool2 <- norm2
I0422 00:46:15.323760 16011 net.cpp:380] pool2 -> pool2
I0422 00:46:15.323792 16011 net.cpp:122] Setting up pool2
I0422 00:46:15.323797 16011 net.cpp:129] Top shape: 32 256 13 13 (1384448)
I0422 00:46:15.323801 16011 net.cpp:137] Memory required for data: 213442304
I0422 00:46:15.323804 16011 layer_factory.hpp:77] Creating layer conv3
I0422 00:46:15.323814 16011 net.cpp:84] Creating Layer conv3
I0422 00:46:15.323818 16011 net.cpp:406] conv3 <- pool2
I0422 00:46:15.323824 16011 net.cpp:380] conv3 -> conv3
I0422 00:46:15.342934 16011 net.cpp:122] Setting up conv3
I0422 00:46:15.342955 16011 net.cpp:129] Top shape: 32 384 13 13 (2076672)
I0422 00:46:15.342960 16011 net.cpp:137] Memory required for data: 221748992
I0422 00:46:15.342976 16011 layer_factory.hpp:77] Creating layer relu3
I0422 00:46:15.342986 16011 net.cpp:84] Creating Layer relu3
I0422 00:46:15.342990 16011 net.cpp:406] relu3 <- conv3
I0422 00:46:15.342998 16011 net.cpp:367] relu3 -> conv3 (in-place)
I0422 00:46:15.343533 16011 net.cpp:122] Setting up relu3
I0422 00:46:15.343544 16011 net.cpp:129] Top shape: 32 384 13 13 (2076672)
I0422 00:46:15.343549 16011 net.cpp:137] Memory required for data: 230055680
I0422 00:46:15.343554 16011 layer_factory.hpp:77] Creating layer conv4
I0422 00:46:15.343566 16011 net.cpp:84] Creating Layer conv4
I0422 00:46:15.343570 16011 net.cpp:406] conv4 <- conv3
I0422 00:46:15.343577 16011 net.cpp:380] conv4 -> conv4
I0422 00:46:15.354414 16011 net.cpp:122] Setting up conv4
I0422 00:46:15.354431 16011 net.cpp:129] Top shape: 32 384 13 13 (2076672)
I0422 00:46:15.354435 16011 net.cpp:137] Memory required for data: 238362368
I0422 00:46:15.354442 16011 layer_factory.hpp:77] Creating layer relu4
I0422 00:46:15.354451 16011 net.cpp:84] Creating Layer relu4
I0422 00:46:15.354455 16011 net.cpp:406] relu4 <- conv4
I0422 00:46:15.354460 16011 net.cpp:367] relu4 -> conv4 (in-place)
I0422 00:46:15.354807 16011 net.cpp:122] Setting up relu4
I0422 00:46:15.354815 16011 net.cpp:129] Top shape: 32 384 13 13 (2076672)
I0422 00:46:15.354818 16011 net.cpp:137] Memory required for data: 246669056
I0422 00:46:15.354821 16011 layer_factory.hpp:77] Creating layer conv5
I0422 00:46:15.354831 16011 net.cpp:84] Creating Layer conv5
I0422 00:46:15.354835 16011 net.cpp:406] conv5 <- conv4
I0422 00:46:15.354842 16011 net.cpp:380] conv5 -> conv5
I0422 00:46:15.363586 16011 net.cpp:122] Setting up conv5
I0422 00:46:15.363603 16011 net.cpp:129] Top shape: 32 256 13 13 (1384448)
I0422 00:46:15.363607 16011 net.cpp:137] Memory required for data: 252206848
I0422 00:46:15.363618 16011 layer_factory.hpp:77] Creating layer relu5
I0422 00:46:15.363626 16011 net.cpp:84] Creating Layer relu5
I0422 00:46:15.363631 16011 net.cpp:406] relu5 <- conv5
I0422 00:46:15.363656 16011 net.cpp:367] relu5 -> conv5 (in-place)
I0422 00:46:15.364147 16011 net.cpp:122] Setting up relu5
I0422 00:46:15.364156 16011 net.cpp:129] Top shape: 32 256 13 13 (1384448)
I0422 00:46:15.364159 16011 net.cpp:137] Memory required for data: 257744640
I0422 00:46:15.364163 16011 layer_factory.hpp:77] Creating layer pool5
I0422 00:46:15.364174 16011 net.cpp:84] Creating Layer pool5
I0422 00:46:15.364178 16011 net.cpp:406] pool5 <- conv5
I0422 00:46:15.364183 16011 net.cpp:380] pool5 -> pool5
I0422 00:46:15.364223 16011 net.cpp:122] Setting up pool5
I0422 00:46:15.364228 16011 net.cpp:129] Top shape: 32 256 6 6 (294912)
I0422 00:46:15.364231 16011 net.cpp:137] Memory required for data: 258924288
I0422 00:46:15.364234 16011 layer_factory.hpp:77] Creating layer fc6
I0422 00:46:15.364243 16011 net.cpp:84] Creating Layer fc6
I0422 00:46:15.364246 16011 net.cpp:406] fc6 <- pool5
I0422 00:46:15.364251 16011 net.cpp:380] fc6 -> fc6
I0422 00:46:15.719027 16011 net.cpp:122] Setting up fc6
I0422 00:46:15.719048 16011 net.cpp:129] Top shape: 32 4096 (131072)
I0422 00:46:15.719053 16011 net.cpp:137] Memory required for data: 259448576
I0422 00:46:15.719061 16011 layer_factory.hpp:77] Creating layer relu6
I0422 00:46:15.719070 16011 net.cpp:84] Creating Layer relu6
I0422 00:46:15.719075 16011 net.cpp:406] relu6 <- fc6
I0422 00:46:15.719082 16011 net.cpp:367] relu6 -> fc6 (in-place)
I0422 00:46:15.739569 16011 net.cpp:122] Setting up relu6
I0422 00:46:15.739588 16011 net.cpp:129] Top shape: 32 4096 (131072)
I0422 00:46:15.739593 16011 net.cpp:137] Memory required for data: 259972864
I0422 00:46:15.739598 16011 layer_factory.hpp:77] Creating layer drop6
I0422 00:46:15.739609 16011 net.cpp:84] Creating Layer drop6
I0422 00:46:15.739614 16011 net.cpp:406] drop6 <- fc6
I0422 00:46:15.739619 16011 net.cpp:367] drop6 -> fc6 (in-place)
I0422 00:46:15.739653 16011 net.cpp:122] Setting up drop6
I0422 00:46:15.739658 16011 net.cpp:129] Top shape: 32 4096 (131072)
I0422 00:46:15.739661 16011 net.cpp:137] Memory required for data: 260497152
I0422 00:46:15.739665 16011 layer_factory.hpp:77] Creating layer fc7
I0422 00:46:15.739673 16011 net.cpp:84] Creating Layer fc7
I0422 00:46:15.739677 16011 net.cpp:406] fc7 <- fc6
I0422 00:46:15.739684 16011 net.cpp:380] fc7 -> fc7
I0422 00:46:15.926369 16011 net.cpp:122] Setting up fc7
I0422 00:46:15.926394 16011 net.cpp:129] Top shape: 32 4096 (131072)
I0422 00:46:15.926398 16011 net.cpp:137] Memory required for data: 261021440
I0422 00:46:15.926409 16011 layer_factory.hpp:77] Creating layer relu7
I0422 00:46:15.926419 16011 net.cpp:84] Creating Layer relu7
I0422 00:46:15.926424 16011 net.cpp:406] relu7 <- fc7
I0422 00:46:15.926430 16011 net.cpp:367] relu7 -> fc7 (in-place)
I0422 00:46:15.926888 16011 net.cpp:122] Setting up relu7
I0422 00:46:15.926898 16011 net.cpp:129] Top shape: 32 4096 (131072)
I0422 00:46:15.926901 16011 net.cpp:137] Memory required for data: 261545728
I0422 00:46:15.926904 16011 layer_factory.hpp:77] Creating layer drop7
I0422 00:46:15.926911 16011 net.cpp:84] Creating Layer drop7
I0422 00:46:15.926915 16011 net.cpp:406] drop7 <- fc7
I0422 00:46:15.926923 16011 net.cpp:367] drop7 -> fc7 (in-place)
I0422 00:46:15.926947 16011 net.cpp:122] Setting up drop7
I0422 00:46:15.926954 16011 net.cpp:129] Top shape: 32 4096 (131072)
I0422 00:46:15.926957 16011 net.cpp:137] Memory required for data: 262070016
I0422 00:46:15.926961 16011 layer_factory.hpp:77] Creating layer fc8
I0422 00:46:15.926968 16011 net.cpp:84] Creating Layer fc8
I0422 00:46:15.926971 16011 net.cpp:406] fc8 <- fc7
I0422 00:46:15.926978 16011 net.cpp:380] fc8 -> fc8
I0422 00:46:15.935549 16011 net.cpp:122] Setting up fc8
I0422 00:46:15.935561 16011 net.cpp:129] Top shape: 32 196 (6272)
I0422 00:46:15.935565 16011 net.cpp:137] Memory required for data: 262095104
I0422 00:46:15.935572 16011 layer_factory.hpp:77] Creating layer fc8_fc8_0_split
I0422 00:46:15.935580 16011 net.cpp:84] Creating Layer fc8_fc8_0_split
I0422 00:46:15.935583 16011 net.cpp:406] fc8_fc8_0_split <- fc8
I0422 00:46:15.935608 16011 net.cpp:380] fc8_fc8_0_split -> fc8_fc8_0_split_0
I0422 00:46:15.935618 16011 net.cpp:380] fc8_fc8_0_split -> fc8_fc8_0_split_1
I0422 00:46:15.935654 16011 net.cpp:122] Setting up fc8_fc8_0_split
I0422 00:46:15.935660 16011 net.cpp:129] Top shape: 32 196 (6272)
I0422 00:46:15.935664 16011 net.cpp:129] Top shape: 32 196 (6272)
I0422 00:46:15.935668 16011 net.cpp:137] Memory required for data: 262145280
I0422 00:46:15.935672 16011 layer_factory.hpp:77] Creating layer accuracy
I0422 00:46:15.935680 16011 net.cpp:84] Creating Layer accuracy
I0422 00:46:15.935684 16011 net.cpp:406] accuracy <- fc8_fc8_0_split_0
I0422 00:46:15.935689 16011 net.cpp:406] accuracy <- label_val-data_1_split_0
I0422 00:46:15.935695 16011 net.cpp:380] accuracy -> accuracy
…
